…
Java HotSpot(TM) 64-Bit Server VM warning: You have loaded library /tmp/cvld6911140034965186301/libopencv_java310.xine1.so which might have disabled stack guard. The VM will try to fix the stack guard now.
It's highly recommended that you fix the library with 'execstack -c <libfile>', or link it with '-z noexecstack'.
WARNING: Logging before InitGoogleLogging() is written to STDERR
I0720 13:50:34.606757 31783 net.cpp:49] Initializing net from parameters: 
name: "CaffeNet"
state {
  phase: TEST
}
layer {
  name: "data"
  type: "Input"
  top: "data"
  input_param {
    shape {
      dim: 10
      dim: 3
      dim: 227
      dim: 227
    }
  }
}
layer {
  name: "conv1"
  type: "Convolution"
  bottom: "data"
  top: "conv1"
  convolution_param {
    num_output: 96
    kernel_size: 11
    stride: 4
  }
}
layer {
  name: "relu1"
  type: "ReLU"
  bottom: "conv1"
  top: "conv1"
}
layer {
  name: "pool1"
  type: "Pooling"
  bottom: "conv1"
  top: "pool1"
  pooling_param {
    pool: MAX
    kernel_size: 3
    stride: 2
  }
}
layer {
  name: "norm1"
  type: "LRN"
  bottom: "pool1"
  top: "norm1"
  lrn_param {
    local_size: 5
    alpha: 0.0001
    beta: 0.75
  }
}
layer {
  name: "conv2"
  type: "Convolution"
  bottom: "norm1"
  top: "conv2"
  convolution_param {
    num_output: 256
    pad: 2
    kernel_size: 5
    group: 2
  }
}
layer {
  name: "relu2"
  type: "ReLU"
  bottom: "conv2"
  top: "conv2"
}
layer {
  name: "pool2"
  type: "Pooling"
  bottom: "conv2"
  top: "pool2"
  pooling_param {
    pool: MAX
    kernel_size: 3
    stride: 2
  }
}
layer {
  name: "norm2"
  type: "LRN"
  bottom: "pool2"
  top: "norm2"
  lrn_param {
    local_size: 5
    alpha: 0.0001
    beta: 0.75
  }
}
layer {
  name: "conv3"
  type: "Convolution"
  bottom: "norm2"
  top: "conv3"
  convolution_param {
    num_output: 384
    pad: 1
    kernel_size: 3
  }
}
layer {
  name: "relu3"
  type: "ReLU"
  bottom: "conv3"
  top: "conv3"
}
layer {
  name: "conv4"
  type: "Convolution"
  bottom: "conv3"
  top: "conv4"
  convolution_param {
    num_output: 384
    pad: 1
    kernel_size: 3
    group: 2
  }
}
layer {
  name: "relu4"
  type: "ReLU"
  bottom: "conv4"
  top: "conv4"
}
layer {
  name: "conv5"
  type: "Convolution"
  bottom: "conv4"
  top: "conv5"
  convolution_param {
    num_output: 256
    pad: 1
    kernel_size: 3
    group: 2
  }
}
layer {
  name: "relu5"
  type: "ReLU"
  bottom: "conv5"
  top: "conv5"
}
layer {
  name: "pool5"
  type: "Pooling"
  bottom: "conv5"
  top: "pool5"
  pooling_param {
    pool: MAX
    kernel_size: 3
    stride: 2
  }
}
layer {
  name: "fc6"
  type: "InnerProduct"
  bottom: "pool5"
  top: "fc6"
  inner_product_param {
    num_output: 4096
  }
}
layer {
  name: "relu6"
  type: "ReLU"
  bottom: "fc6"
  top: "fc6"
}
layer {
  name: "drop6"
  type: "Dropout"
  bottom: "fc6"
  top: "fc6"
  dropout_param {
    dropout_ratio: 0.5
  }
}
layer {
  name: "fc7"
  type: "InnerProduct"
  bottom: "fc6"
  top: "fc7"
  inner_product_param {
    num_output: 4096
  }
}
layer {
  name: "relu7"
  type: "ReLU"
  bottom: "fc7"
  top: "fc7"
}
layer {
  name: "drop7"
  type: "Dropout"
  bottom: "fc7"
  top: "fc7"
  dropout_param {
    dropout_ratio: 0.5
  }
}
layer {
  name: "fc8"
  type: "InnerProduct"
  bottom: "fc7"
  top: "fc8"
  inner_product_param {
    num_output: 1000
  }
}
layer {
  name: "prob"
  type: "Softmax"
  bottom: "fc8"
  top: "prob"
}
I0720 13:50:34.606940 31801 net.cpp:49] Initializing net from parameters: 
name: "CaffeNet"
state {
  phase: TEST
}
layer {
  name: "data"
  type: "Input"
  top: "data"
  input_param {
    shape {
      dim: 10
      dim: 3
      dim: 227
      dim: 227
    }
  }
}
layer {
  name: "conv1"
  type: "Convolution"
  bottom: "data"
  top: "conv1"
  convolution_param {
    num_output: 96
    kernel_size: 11
    stride: 4
  }
}
layer {
  name: "relu1"
  type: "ReLU"
  bottom: "conv1"
  top: "conv1"
}
layer {
  name: "pool1"
  type: "Pooling"
  bottom: "conv1"
  top: "pool1"
  pooling_param {
    pool: MAX
    kernel_size: 3
    stride: 2
  }
}
layer {
  name: "norm1"
  type: "LRN"
  bottom: "pool1"
  top: "norm1"
  lrn_param {
    local_size: 5
    alpha: 0.0001
    beta: 0.75
  }
}
layer {
  name: "conv2"
  type: "Convolution"
  bottom: "norm1"
  top: "conv2"
  convolution_param {
    num_output: 256
    pad: 2
    kernel_size: 5
    group: 2
  }
}
layer {
  name: "relu2"
  type: "ReLU"
  bottom: "conv2"
  top: "conv2"
}
layer {
  name: "pool2"
  type: "Pooling"
  bottom: "conv2"
  top: "pool2"
  pooling_param {
    pool: MAX
    kernel_size: 3
    stride: 2
  }
}
layer {
  name: "norm2"
  type: "LRN"
  bottom: "pool2"
  top: "norm2"
  lrn_param {
    local_size: 5
    alpha: 0.0001
    beta: 0.75
  }
}
layer {
  name: "conv3"
  type: "Convolution"
  bottom: "norm2"
  top: "conv3"
  convolution_param {
    num_output: 384
    pad: 1
    kernel_size: 3
  }
}
layer {
  name: "relu3"
  type: "ReLU"
  bottom: "conv3"
  top: "conv3"
}
layer {
  name: "conv4"
  type: "Convolution"
  bottom: "conv3"
  top: "conv4"
  convolution_param {
    num_output: 384
    pad: 1
    kernel_size: 3
    group: 2
  }
}
layer {
  name: "relu4"
  type: "ReLU"
  bottom: "conv4"
  top: "conv4"
}
layer {
  name: "conv5"
  type: "Convolution"
  bottom: "conv4"
  top: "conv5"
  convolution_param {
    num_output: 256
    pad: 1
    kernel_size: 3
    group: 2
  }
}
layer {
  name: "relu5"
  type: "ReLU"
  bottom: "conv5"
  top: "conv5"
}
layer {
  name: "pool5"
  type: "Pooling"
  bottom: "conv5"
  top: "pool5"
  pooling_param {
    pool: MAX
    kernel_size: 3
    stride: 2
  }
}
layer {
  name: "fc6"
  type: "InnerProduct"
  bottom: "pool5"
  top: "fc6"
  inner_product_param {
    num_output: 4096
  }
}
layer {
  name: "relu6"
  type: "ReLU"
  bottom: "fc6"
  top: "fc6"
}
layer {
  name: "drop6"
  type: "Dropout"
  bottom: "fc6"
  top: "fc6"
  dropout_param {
    dropout_ratio: 0.5
  }
}
layer {
  name: "fc7"
  type: "InnerProduct"
  bottom: "fc6"
  top: "fc7"
  inner_product_param {
    num_output: 4096
  }
}
layer {
  name: "relu7"
  type: "ReLU"
  bottom: "fc7"
  top: "fc7"
}
layer {
  name: "drop7"
  type: "Dropout"
  bottom: "fc7"
  top: "fc7"
  dropout_param {
    dropout_ratio: 0.5
  }
}
layer {
  name: "fc8"
  type: "InnerProduct"
  bottom: "fc7"
  top: "fc8"
  inner_product_param {
    num_output: 1000
  }
}
layer {
  name: "prob"
  type: "Softmax"
  bottom: "fc8"
  top: "prob"
}
I0720 13:50:34.607036 31783 layer_factory.hpp:77] Creating layer data
I0720 13:50:34.607075 31783 net.cpp:91] Creating Layer data
I0720 13:50:34.607094 31783 net.cpp:399] data -> data
I0720 13:50:34.607177 31795 net.cpp:49] Initializing net from parameters: 
name: "CaffeNet"
state {
  phase: TEST
}
layer {
  name: "data"
  type: "Input"
  top: "data"
  input_param {
    shape {
      dim: 10
      dim: 3
      dim: 227
      dim: 227
    }
  }
}
layer {
  name: "conv1"
  type: "Convolution"
  bottom: "data"
  top: "conv1"
  convolution_param {
    num_output: 96
    kernel_size: 11
    stride: 4
  }
}
layer {
  name: "relu1"
  type: "ReLU"
  bottom: "conv1"
  top: "conv1"
}
layer {
  name: "pool1"
  type: "Pooling"
  bottom: "conv1"
  top: "pool1"
  pooling_param {
    pool: MAX
    kernel_size: 3
    stride: 2
  }
}
layer {
  name: "norm1"
  type: "LRN"
  bottom: "pool1"
  top: "norm1"
  lrn_param {
    local_size: 5
    alpha: 0.0001
    beta: 0.75
  }
}
layer {
  name: "conv2"
  type: "Convolution"
  bottom: "norm1"
  top: "conv2"
  convolution_param {
    num_output: 256
    pad: 2
    kernel_size: 5
    group: 2
  }
}
layer {
  name: "relu2"
  type: "ReLU"
  bottom: "conv2"
  top: "conv2"
}
layer {
  name: "pool2"
  type: "Pooling"
  bottom: "conv2"
  top: "pool2"
  pooling_param {
    pool: MAX
    kernel_size: 3
    stride: 2
  }
}
layer {
  name: "norm2"
  type: "LRN"
  bottom: "pool2"
  top: "norm2"
  lrn_param {
    local_size: 5
    alpha: 0.0001
    beta: 0.75
  }
}
layer {
  name: "conv3"
  type: "Convolution"
  bottom: "norm2"
  top: "conv3"
  convolution_param {
    num_output: 384
    pad: 1
    kernel_size: 3
  }
}
layer {
  name: "relu3"
  type: "ReLU"
  bottom: "conv3"
  top: "conv3"
}
layer {
  name: "conv4"
  type: "Convolution"
  bottom: "conv3"
  top: "conv4"
  convolution_param {
    num_output: 384
    pad: 1
    kernel_size: 3
    group: 2
  }
}
layer {
  name: "relu4"
  type: "ReLU"
  bottom: "conv4"
  top: "conv4"
}
layer {
  name: "conv5"
  type: "Convolution"
  bottom: "conv4"
  top: "conv5"
  convolution_param {
    num_output: 256
    pad: 1
    kernel_size: 3
    group: 2
  }
}
layer {
  name: "relu5"
  type: "ReLU"
  bottom: "conv5"
  top: "conv5"
}
layer {
  name: "pool5"
  type: "Pooling"
  bottom: "conv5"
  top: "pool5"
  pooling_param {
    pool: MAX
    kernel_size: 3
    stride: 2
  }
}
layer {
  name: "fc6"
  type: "InnerProduct"
  bottom: "pool5"
  top: "fc6"
  inner_product_param {
    num_output: 4096
  }
}
layer {
  name: "relu6"
  type: "ReLU"
  bottom: "fc6"
  top: "fc6"
}
layer {
  name: "drop6"
  type: "Dropout"
  bottom: "fc6"
  top: "fc6"
  dropout_param {
    dropout_ratio: 0.5
  }
}
layer {
  name: "fc7"
  type: "InnerProduct"
  bottom: "fc6"
  top: "fc7"
  inner_product_param {
    num_output: 4096
  }
}
layer {
  name: "relu7"
  type: "ReLU"
  bottom: "fc7"
  top: "fc7"
}
layer {
  name: "drop7"
  type: "Dropout"
  bottom: "fc7"
  top: "fc7"
  dropout_param {
    dropout_ratio: 0.5
  }
}
layer {
  name: "fc8"
  type: "InnerProduct"
  bottom: "fc7"
  top: "fc8"
  inner_product_param {
    num_output: 1000
  }
}
layer {
  name: "prob"
  type: "Softmax"
  bottom: "fc8"
  top: "prob"
}
I0720 13:50:34.607259 31795 layer_factory.hpp:77] Creating layer data
I0720 13:50:34.607270 31795 net.cpp:91] Creating Layer data
I0720 13:50:34.607275 31795 net.cpp:399] data -> data
I0720 13:50:34.607518 31789 net.cpp:49] Initializing net from parameters: 
name: "CaffeNet"
state {
  phase: TEST
}
layer {
  name: "data"
  type: "Input"
  top: "data"
  input_param {
    shape {
      dim: 10
      dim: 3
      dim: 227
      dim: 227
    }
  }
}
layer {
  name: "conv1"
  type: "Convolution"
  bottom: "data"
  top: "conv1"
  convolution_param {
    num_output: 96
    kernel_size: 11
    stride: 4
  }
}
layer {
  name: "relu1"
  type: "ReLU"
  bottom: "conv1"
  top: "conv1"
}
layer {
  name: "pool1"
  type: "Pooling"
  bottom: "conv1"
  top: "pool1"
  pooling_param {
    pool: MAX
    kernel_size: 3
    stride: 2
  }
}
layer {
  name: "norm1"
  type: "LRN"
  bottom: "pool1"
  top: "norm1"
  lrn_param {
    local_size: 5
    alpha: 0.0001
    beta: 0.75
  }
}
layer {
  name: "conv2"
  type: "Convolution"
  bottom: "norm1"
  top: "conv2"
  convolution_param {
    num_output: 256
    pad: 2
    kernel_size: 5
    group: 2
  }
}
layer {
  name: "relu2"
  type: "ReLU"
  bottom: "conv2"
  top: "conv2"
}
layer {
  name: "pool2"
  type: "Pooling"
  bottom: "conv2"
  top: "pool2"
  pooling_param {
    pool: MAX
    kernel_size: 3
    stride: 2
  }
}
layer {
  name: "norm2"
  type: "LRN"
  bottom: "pool2"
  top: "norm2"
  lrn_param {
    local_size: 5
    alpha: 0.0001
    beta: 0.75
  }
}
layer {
  name: "conv3"
  type: "Convolution"
  bottom: "norm2"
  top: "conv3"
  convolution_param {
    num_output: 384
    pad: 1
    kernel_size: 3
  }
}
layer {
  name: "relu3"
  type: "ReLU"
  bottom: "conv3"
  top: "conv3"
}
layer {
  name: "conv4"
  type: "Convolution"
  bottom: "conv3"
  top: "conv4"
  convolution_param {
    num_output: 384
    pad: 1
    kernel_size: 3
    group: 2
  }
}
layer {
  name: "relu4"
  type: "ReLU"
  bottom: "conv4"
  top: "conv4"
}
layer {
  name: "conv5"
  type: "Convolution"
  bottom: "conv4"
  top: "conv5"
  convolution_param {
    num_output: 256
    pad: 1
    kernel_size: 3
    group: 2
  }
}
layer {
  name: "relu5"
  type: "ReLU"
  bottom: "conv5"
  top: "conv5"
}
layer {
  name: "pool5"
  type: "Pooling"
  bottom: "conv5"
  top: "pool5"
  pooling_param {
    pool: MAX
    kernel_size: 3
    stride: 2
  }
}
layer {
  name: "fc6"
  type: "InnerProduct"
  bottom: "pool5"
  top: "fc6"
  inner_product_param {
    num_output: 4096
  }
}
layer {
  name: "relu6"
  type: "ReLU"
  bottom: "fc6"
  top: "fc6"
}
layer {
  name: "drop6"
  type: "Dropout"
  bottom: "fc6"
  top: "fc6"
  dropout_param {
    dropout_ratio: 0.5
  }
}
layer {
  name: "fc7"
  type: "InnerProduct"
  bottom: "fc6"
  top: "fc7"
  inner_product_param {
    num_output: 4096
  }
}
layer {
  name: "relu7"
  type: "ReLU"
  bottom: "fc7"
  top: "fc7"
}
layer {
  name: "drop7"
  type: "Dropout"
  bottom: "fc7"
  top: "fc7"
  dropout_param {
    dropout_ratio: 0.5
  }
}
layer {
  name: "fc8"
  type: "InnerProduct"
  bottom: "fc7"
  top: "fc8"
  inner_product_param {
    num_output: 1000
  }
}
layer {
  name: "prob"
  type: "Softmax"
  bottom: "fc8"
  top: "prob"
}
I0720 13:50:34.607049 31793 net.cpp:49] Initializing net from parameters: 
name: "CaffeNet"
state {
  phase: TEST
}
layer {
  name: "data"
  type: "Input"
  top: "data"
  input_param {
    shape {
      dim: 10
      dim: 3
      dim: 227
      dim: 227
    }
  }
}
layer {
  name: "conv1"
  type: "Convolution"
  bottom: "data"
  top: "conv1"
  convolution_param {
    num_output: 96
    kernel_size: 11
    stride: 4
  }
}
layer {
  name: "relu1"
  type: "ReLU"
  bottom: "conv1"
  top: "conv1"
}
layer {
  name: "pool1"
  type: "Pooling"
  bottom: "conv1"
  top: "pool1"
  pooling_param {
    pool: MAX
    kernel_size: 3
    stride: 2
  }
}
layer {
  name: "norm1"
  type: "LRN"
  bottom: "pool1"
  top: "norm1"
  lrn_param {
    local_size: 5
    alpha: 0.0001
    beta: 0.75
  }
}
layer {
  name: "conv2"
  type: "Convolution"
  bottom: "norm1"
  top: "conv2"
  convolution_param {
    num_output: 256
    pad: 2
    kernel_size: 5
    group: 2
  }
}
layer {
  name: "relu2"
  type: "ReLU"
  bottom: "conv2"
  top: "conv2"
}
layer {
  name: "pool2"
  type: "Pooling"
  bottom: "conv2"
  top: "pool2"
  pooling_param {
    pool: MAX
    kernel_size: 3
    stride: 2
  }
}
layer {
  name: "norm2"
  type: "LRN"
  bottom: "pool2"
  top: "norm2"
  lrn_param {
    local_size: 5
    alpha: 0.0001
    beta: 0.75
  }
}
layer {
  name: "conv3"
  type: "Convolution"
  bottom: "norm2"
  top: "conv3"
  convolution_param {
    num_output: 384
    pad: 1
    kernel_size: 3
  }
}
layer {
  name: "relu3"
  type: "ReLU"
  bottom: "conv3"
  top: "conv3"
}
layer {
  name: "conv4"
  type: "Convolution"
  bottom: "conv3"
  top: "conv4"
  convolution_param {
    num_output: 384
    pad: 1
    kernel_size: 3
    group: 2
  }
}
layer {
  name: "relu4"
  type: "ReLU"
  bottom: "conv4"
  top: "conv4"
}
layer {
  name: "conv5"
  type: "Convolution"
  bottom: "conv4"
  top: "conv5"
  convolution_param {
    num_output: 256
    pad: 1
    kernel_size: 3
    group: 2
  }
}
layer {
  name: "relu5"
  type: "ReLU"
  bottom: "conv5"
  top: "conv5"
}
layer {
  name: "pool5"
  type: "Pooling"
  bottom: "conv5"
  top: "pool5"
  pooling_param {
    pool: MAX
    kernel_size: 3
    stride: 2
  }
}
layer {
  name: "fc6"
  type: "InnerProduct"
  bottom: "pool5"
  top: "fc6"
  inner_product_param {
    num_output: 4096
  }
}
layer {
  name: "relu6"
  type: "ReLU"
  bottom: "fc6"
  top: "fc6"
}
layer {
  name: "drop6"
  type: "Dropout"
  bottom: "fc6"
  top: "fc6"
  dropout_param {
    dropout_ratio: 0.5
  }
}
layer {
  name: "fc7"
  type: "InnerProduct"
  bottom: "fc6"
  top: "fc7"
  inner_product_param {
    num_output: 4096
  }
}
layer {
  name: "relu7"
  type: "ReLU"
  bottom: "fc7"
  top: "fc7"
}
layer {
  name: "drop7"
  type: "Dropout"
  bottom: "fc7"
  top: "fc7"
  dropout_param {
    dropout_ratio: 0.5
  }
}
layer {
  name: "fc8"
  type: "InnerProduct"
  bottom: "fc7"
  top: "fc8"
  inner_product_param {
    num_output: 1000
  }
}
layer {
  name: "prob"
  type: "Softmax"
  bottom: "fc8"
  top: "prob"
}
I0720 13:50:34.607585 31783 net.cpp:141] Setting up data
I0720 13:50:34.607576 31767 net.cpp:49] Initializing net from parameters: 
name: "CaffeNet"
state {
  phase: TEST
}
layer {
  name: "data"
  type: "Input"
  top: "data"
  input_param {
    shape {
      dim: 10
      dim: 3
      dim: 227
      dim: 227
    }
  }
}
layer {
  name: "conv1"
  type: "Convolution"
  bottom: "data"
  top: "conv1"
  convolution_param {
    num_output: 96
    kernel_size: 11
    stride: 4
  }
}
layer {
  name: "relu1"
  type: "ReLU"
  bottom: "conv1"
  top: "conv1"
}
layer {
  name: "pool1"
  type: "Pooling"
  bottom: "conv1"
  top: "pool1"
  pooling_param {
    pool: MAX
    kernel_size: 3
    stride: 2
  }
}
layer {
  name: "norm1"
  type: "LRN"
  bottom: "pool1"
  top: "norm1"
  lrn_param {
    local_size: 5
    alpha: 0.0001
    beta: 0.75
  }
}
layer {
  name: "conv2"
  type: "Convolution"
  bottom: "norm1"
  top: "conv2"
  convolution_param {
    num_output: 256
    pad: 2
    kernel_size: 5
    group: 2
  }
}
layer {
  name: "relu2"
  type: "ReLU"
  bottom: "conv2"
  top: "conv2"
}
layer {
  name: "pool2"
  type: "Pooling"
  bottom: "conv2"
  top: "pool2"
  pooling_param {
    pool: MAX
    kernel_size: 3
    stride: 2
  }
}
layer {
  name: "norm2"
  type: "LRN"
  bottom: "pool2"
  top: "norm2"
  lrn_param {
    local_size: 5
    alpha: 0.0001
    beta: 0.75
  }
}
layer {
  name: "conv3"
  type: "Convolution"
  bottom: "norm2"
  top: "conv3"
  convolution_param {
    num_output: 384
    pad: 1
    kernel_size: 3
  }
}
layer {
  name: "relu3"
  type: "ReLU"
  bottom: "conv3"
  top: "conv3"
}
layer {
  name: "conv4"
  type: "Convolution"
  bottom: "conv3"
  top: "conv4"
  convolution_param {
    num_output: 384
    pad: 1
    kernel_size: 3
    group: 2
  }
}
layer {
  name: "relu4"
  type: "ReLU"
  bottom: "conv4"
  top: "conv4"
}
layer {
  name: "conv5"
  type: "Convolution"
  bottom: "conv4"
  top: "conv5"
  convolution_param {
    num_output: 256
    pad: 1
    kernel_size: 3
    group: 2
  }
}
layer {
  name: "relu5"
  type: "ReLU"
  bottom: "conv5"
  top: "conv5"
}
layer {
  name: "pool5"
  type: "Pooling"
  bottom: "conv5"
  top: "pool5"
  pooling_param {
    pool: MAX
    kernel_size: 3
    stride: 2
  }
}
layer {
  name: "fc6"
  type: "InnerProduct"
  bottom: "pool5"
  top: "fc6"
  inner_product_param {
    num_output: 4096
  }
}
layer {
  name: "relu6"
  type: "ReLU"
  bottom: "fc6"
  top: "fc6"
}
layer {
  name: "drop6"
  type: "Dropout"
  bottom: "fc6"
  top: "fc6"
  dropout_param {
    dropout_ratio: 0.5
  }
}
layer {
  name: "fc7"
  type: "InnerProduct"
  bottom: "fc6"
  top: "fc7"
  inner_product_param {
    num_output: 4096
  }
}
layer {
  name: "relu7"
  type: "ReLU"
  bottom: "fc7"
  top: "fc7"
}
layer {
  name: "drop7"
  type: "Dropout"
  bottom: "fc7"
  top: "fc7"
  dropout_param {
    dropout_ratio: 0.5
  }
}
layer {
  name: "fc8"
  type: "InnerProduct"
  bottom: "fc7"
  top: "fc8"
  inner_product_param {
    num_output: 1000
  }
}
layer {
  name: "prob"
  type: "Softmax"
  bottom: "fc8"
  top: "prob"
}
I0720 13:50:34.607584 31795 net.cpp:141] Setting up data
I0720 13:50:34.607579 31801 layer_factory.hpp:77] Creating layer data
I0720 13:50:34.607652 31801 net.cpp:91] Creating Layer data
I0720 13:50:34.607657 31795 net.cpp:148] Top shape: 10 3 227 227 (1545870)
I0720 13:50:34.607666 31801 net.cpp:399] data -> data
I0720 13:50:34.607667 31799 net.cpp:49] Initializing net from parameters: 
name: "CaffeNet"
state {
  phase: TEST
}
layer {
  name: "data"
  type: "Input"
  top: "data"
  input_param {
    shape {
      dim: 10
      dim: 3
      dim: 227
      dim: 227
    }
  }
}
layer {
  name: "conv1"
  type: "Convolution"
  bottom: "data"
  top: "conv1"
  convolution_param {
    num_output: 96
    kernel_size: 11
    stride: 4
  }
}
layer {
  name: "relu1"
  type: "ReLU"
  bottom: "conv1"
  top: "conv1"
}
layer {
  name: "pool1"
  type: "Pooling"
  bottom: "conv1"
  top: "pool1"
  pooling_param {
    pool: MAX
    kernel_size: 3
    stride: 2
  }
}
layer {
  name: "norm1"
  type: "LRN"
  bottom: "pool1"
  top: "norm1"
  lrn_param {
    local_size: 5
    alpha: 0.0001
    beta: 0.75
  }
}
layer {
  name: "conv2"
  type: "Convolution"
  bottom: "norm1"
  top: "conv2"
  convolution_param {
    num_output: 256
    pad: 2
    kernel_size: 5
    group: 2
  }
}
layer {
  name: "relu2"
  type: "ReLU"
  bottom: "conv2"
  top: "conv2"
}
layer {
  name: "pool2"
  type: "Pooling"
  bottom: "conv2"
  top: "pool2"
  pooling_param {
    pool: MAX
    kernel_size: 3
    stride: 2
  }
}
layer {
  name: "norm2"
  type: "LRN"
  bottom: "pool2"
  top: "norm2"
  lrn_param {
    local_size: 5
    alpha: 0.0001
    beta: 0.75
  }
}
layer {
  name: "conv3"
  type: "Convolution"
  bottom: "norm2"
  top: "conv3"
  convolution_param {
    num_output: 384
    pad: 1
    kernel_size: 3
  }
}
layer {
  name: "relu3"
  type: "ReLU"
  bottom: "conv3"
  top: "conv3"
}
layer {
  name: "conv4"
  type: "Convolution"
  bottom: "conv3"
  top: "conv4"
  convolution_param {
    num_output: 384
    pad: 1
    kernel_size: 3
    group: 2
  }
}
layer {
  name: "relu4"
  type: "ReLU"
  bottom: "conv4"
  top: "conv4"
}
layer {
  name: "conv5"
  type: "Convolution"
  bottom: "conv4"
  top: "conv5"
  convolution_param {
    num_output: 256
    pad: 1
    kernel_size: 3
    group: 2
  }
}
layer {
  name: "relu5"
  type: "ReLU"
  bottom: "conv5"
  top: "conv5"
}
layer {
  name: "pool5"
  type: "Pooling"
  bottom: "conv5"
  top: "pool5"
  pooling_param {
    pool: MAX
    kernel_size: 3
    stride: 2
  }
}
layer {
  name: "fc6"
  type: "InnerProduct"
  bottom: "pool5"
  top: "fc6"
  inner_product_param {
    num_output: 4096
  }
}
layer {
  name: "relu6"
  type: "ReLU"
  bottom: "fc6"
  top: "fc6"
}
layer {
  name: "drop6"
  type: "Dropout"
  bottom: "fc6"
  top: "fc6"
  dropout_param {
    dropout_ratio: 0.5
  }
}
layer {
  name: "fc7"
  type: "InnerProduct"
  bottom: "fc6"
  top: "fc7"
  inner_product_param {
    num_output: 4096
  }
}
layer {
  name: "relu7"
  type: "ReLU"
  bottom: "fc7"
  top: "fc7"
}
layer {
  name: "drop7"
  type: "Dropout"
  bottom: "fc7"
  top: "fc7"
  dropout_param {
    dropout_ratio: 0.5
  }
}
layer {
  name: "fc8"
  type: "InnerProduct"
  bottom: "fc7"
  top: "fc8"
  inner_product_param {
    num_output: 1000
  }
}
layer {
  name: "prob"
  type: "Softmax"
  bottom: "fc8"
  top: "prob"
}
I0720 13:50:34.607671 31787 net.cpp:49] Initializing net from parameters: 
name: "CaffeNet"
state {
  phase: TEST
}
layer {
  name: "data"
  type: "Input"
  top: "data"
  input_param {
    shape {
      dim: 10
      dim: 3
      dim: 227
      dim: 227
    }
  }
}
layer {
  name: "conv1"
  type: "Convolution"
  bottom: "data"
  top: "conv1"
  convolution_param {
    num_output: 96
    kernel_size: 11
    stride: 4
  }
}
layer {
  name: "relu1"
  type: "ReLU"
  bottom: "conv1"
  top: "conv1"
}
layer {
  name: "pool1"
  type: "Pooling"
  bottom: "conv1"
  top: "pool1"
  pooling_param {
    pool: MAX
    kernel_size: 3
    stride: 2
  }
}
layer {
  name: "norm1"
  type: "LRN"
  bottom: "pool1"
  top: "norm1"
  lrn_param {
    local_size: 5
    alpha: 0.0001
    beta: 0.75
  }
}
layer {
  name: "conv2"
  type: "Convolution"
  bottom: "norm1"
  top: "conv2"
  convolution_param {
    num_output: 256
    pad: 2
    kernel_size: 5
    group: 2
  }
}
layer {
  name: "relu2"
  type: "ReLU"
  bottom: "conv2"
  top: "conv2"
}
layer {
  name: "pool2"
  type: "Pooling"
  bottom: "conv2"
  top: "pool2"
  pooling_param {
    pool: MAX
    kernel_size: 3
    stride: 2
  }
}
layer {
  name: "norm2"
  type: "LRN"
  bottom: "pool2"
  top: "norm2"
  lrn_param {
    local_size: 5
    alpha: 0.0001
    beta: 0.75
  }
}
layer {
  name: "conv3"
  type: "Convolution"
  bottom: "norm2"
  top: "conv3"
  convolution_param {
    num_output: 384
    pad: 1
    kernel_size: 3
  }
}
layer {
  name: "relu3"
  type: "ReLU"
  bottom: "conv3"
  top: "conv3"
}
layer {
  name: "conv4"
  type: "Convolution"
  bottom: "conv3"
  top: "conv4"
  convolution_param {
    num_output: 384
    pad: 1
    kernel_size: 3
    group: 2
  }
}
layer {
  name: "relu4"
  type: "ReLU"
  bottom: "conv4"
  top: "conv4"
}
layer {
  name: "conv5"
  type: "Convolution"
  bottom: "conv4"
  top: "conv5"
  convolution_param {
    num_output: 256
    pad: 1
    kernel_size: 3
    group: 2
  }
}
layer {
  name: "relu5"
  type: "ReLU"
  bottom: "conv5"
  top: "conv5"
}
layer {
  name: "pool5"
  type: "Pooling"
  bottom: "conv5"
  top: "pool5"
  pooling_param {
    pool: MAX
    kernel_size: 3
    stride: 2
  }
}
layer {
  name: "fc6"
  type: "InnerProduct"
  bottom: "pool5"
  top: "fc6"
  inner_product_param {
    num_output: 4096
  }
}
layer {
  name: "relu6"
  type: "ReLU"
  bottom: "fc6"
  top: "fc6"
}
layer {
  name: "drop6"
  type: "Dropout"
  bottom: "fc6"
  top: "fc6"
  dropout_param {
    dropout_ratio: 0.5
  }
}
layer {
  name: "fc7"
  type: "InnerProduct"
  bottom: "fc6"
  top: "fc7"
  inner_product_param {
    num_output: 4096
  }
}
layer {
  name: "relu7"
  type: "ReLU"
  bottom: "fc7"
  top: "fc7"
}
layer {
  name: "drop7"
  type: "Dropout"
  bottom: "fc7"
  top: "fc7"
  dropout_param {
    dropout_ratio: 0.5
  }
}
layer {
  name: "fc8"
  type: "InnerProduct"
  bottom: "fc7"
  top: "fc8"
  inner_product_param {
    num_output: 1000
  }
}
layer {
  name: "prob"
  type: "Softmax"
  bottom: "fc8"
  top: "prob"
}
I0720 13:50:34.607686 31795 net.cpp:156] Memory required for data: 6183480
I0720 13:50:34.607697 31801 net.cpp:141] Setting up data
I0720 13:50:34.607702 31793 layer_factory.hpp:77] Creating layer data
I0720 13:50:34.607662 31777 net.cpp:49] Initializing net from parameters: 
name: "CaffeNet"
state {
  phase: TEST
}
layer {
  name: "data"
  type: "Input"
  top: "data"
  input_param {
    shape {
      dim: 10
      dim: 3
      dim: 227
      dim: 227
    }
  }
}
layer {
  name: "conv1"
  type: "Convolution"
  bottom: "data"
  top: "conv1"
  convolution_param {
    num_output: 96
    kernel_size: 11
    stride: 4
  }
}
layer {
  name: "relu1"
  type: "ReLU"
  bottom: "conv1"
  top: "conv1"
}
layer {
  name: "pool1"
  type: "Pooling"
  bottom: "conv1"
  top: "pool1"
  pooling_param {
    pool: MAX
    kernel_size: 3
    stride: 2
  }
}
layer {
  name: "norm1"
  type: "LRN"
  bottom: "pool1"
  top: "norm1"
  lrn_param {
    local_size: 5
    alpha: 0.0001
    beta: 0.75
  }
}
layer {
  name: "conv2"
  type: "Convolution"
  bottom: "norm1"
  top: "conv2"
  convolution_param {
    num_output: 256
    pad: 2
    kernel_size: 5
    group: 2
  }
}
layer {
  name: "relu2"
  type: "ReLU"
  bottom: "conv2"
  top: "conv2"
}
layer {
  name: "pool2"
  type: "Pooling"
  bottom: "conv2"
  top: "pool2"
  pooling_param {
    pool: MAX
    kernel_size: 3
    stride: 2
  }
}
layer {
  name: "norm2"
  type: "LRN"
  bottom: "pool2"
  top: "norm2"
  lrn_param {
    local_size: 5
    alpha: 0.0001
    beta: 0.75
  }
}
layer {
  name: "conv3"
  type: "Convolution"
  bottom: "norm2"
  top: "conv3"
  convolution_param {
    num_output: 384
    pad: 1
    kernel_size: 3
  }
}
layer {
  name: "relu3"
  type: "ReLU"
  bottom: "conv3"
  top: "conv3"
}
layer {
  name: "conv4"
  type: "Convolution"
  bottom: "conv3"
  top: "conv4"
  convolution_param {
    num_output: 384
    pad: 1
    kernel_size: 3
    group: 2
  }
}
layer {
  name: "relu4"
  type: "ReLU"
  bottom: "conv4"
  top: "conv4"
}
layer {
  name: "conv5"
  type: "Convolution"
  bottom: "conv4"
  top: "conv5"
  convolution_param {
    num_output: 256
    pad: 1
    kernel_size: 3
    group: 2
  }
}
layer {
  name: "relu5"
  type: "ReLU"
  bottom: "conv5"
  top: "conv5"
}
layer {
  name: "pool5"
  type: "Pooling"
  bottom: "conv5"
  top: "pool5"
  pooling_param {
    pool: MAX
    kernel_size: 3
    stride: 2
  }
}
layer {
  name: "fc6"
  type: "InnerProduct"
  bottom: "pool5"
  top: "fc6"
  inner_product_param {
    num_output: 4096
  }
}
layer {
  name: "relu6"
  type: "ReLU"
  bottom: "fc6"
  top: "fc6"
}
layer {
  name: "drop6"
  type: "Dropout"
  bottom: "fc6"
  top: "fc6"
  dropout_param {
    dropout_ratio: 0.5
  }
}
layer {
  name: "fc7"
  type: "InnerProduct"
  bottom: "fc6"
  top: "fc7"
  inner_product_param {
    num_output: 4096
  }
}
layer {
  name: "relu7"
  type: "ReLU"
  bottom: "fc7"
  top: "fc7"
}
layer {
  name: "drop7"
  type: "Dropout"
  bottom: "fc7"
  top: "fc7"
  dropout_param {
    dropout_ratio: 0.5
  }
}
layer {
  name: "fc8"
  type: "InnerProduct"
  bottom: "fc7"
  top: "fc8"
  inner_product_param {
    num_output: 1000
  }
}
layer {
  name: "prob"
  type: "Softmax"
  bottom: "fc8"
  top: "prob"
}
I0720 13:50:34.607717 31801 net.cpp:148] Top shape: 10 3 227 227 (1545870)
I0720 13:50:34.607712 31795 layer_factory.hpp:77] Creating layer conv1
I0720 13:50:34.607658 31783 net.cpp:148] Top shape: 10 3 227 227 (1545870)
I0720 13:50:34.607722 31793 net.cpp:91] Creating Layer data
I0720 13:50:34.607729 31801 net.cpp:156] Memory required for data: 6183480
I0720 13:50:34.607744 31793 net.cpp:399] data -> data
I0720 13:50:34.607743 31783 net.cpp:156] Memory required for data: 6183480
I0720 13:50:34.607748 31801 layer_factory.hpp:77] Creating layer conv1
I0720 13:50:34.607753 31795 net.cpp:91] Creating Layer conv1
I0720 13:50:34.607760 31783 layer_factory.hpp:77] Creating layer conv1
I0720 13:50:34.607767 31793 net.cpp:141] Setting up data
I0720 13:50:34.607771 31801 net.cpp:91] Creating Layer conv1
I0720 13:50:34.607771 31795 net.cpp:425] conv1 <- data
I0720 13:50:34.607780 31793 net.cpp:148] Top shape: 10 3 227 227 (1545870)
I0720 13:50:34.607786 31793 net.cpp:156] Memory required for data: 6183480
I0720 13:50:34.607780 31801 net.cpp:425] conv1 <- data
I0720 13:50:34.607791 31795 net.cpp:399] conv1 -> conv1
I0720 13:50:34.607781 31783 net.cpp:91] Creating Layer conv1
I0720 13:50:34.607800 31801 net.cpp:399] conv1 -> conv1
I0720 13:50:34.607794 31793 layer_factory.hpp:77] Creating layer conv1
I0720 13:50:34.607807 31783 net.cpp:425] conv1 <- data
I0720 13:50:34.607817 31793 net.cpp:91] Creating Layer conv1
I0720 13:50:34.607825 31793 net.cpp:425] conv1 <- data
I0720 13:50:34.607823 31783 net.cpp:399] conv1 -> conv1
I0720 13:50:34.607832 31793 net.cpp:399] conv1 -> conv1
I0720 13:50:34.608258 31789 layer_factory.hpp:77] Creating layer data
I0720 13:50:34.608264 31767 layer_factory.hpp:77] Creating layer data
I0720 13:50:34.608274 31789 net.cpp:91] Creating Layer data
I0720 13:50:34.608288 31767 net.cpp:91] Creating Layer data
I0720 13:50:34.608289 31789 net.cpp:399] data -> data
I0720 13:50:34.608295 31767 net.cpp:399] data -> data
I0720 13:50:34.608309 31767 net.cpp:141] Setting up data
I0720 13:50:34.608325 31767 net.cpp:148] Top shape: 10 3 227 227 (1545870)
I0720 13:50:34.608330 31767 net.cpp:156] Memory required for data: 6183480
I0720 13:50:34.608336 31767 layer_factory.hpp:77] Creating layer conv1
I0720 13:50:34.608309 31789 net.cpp:141] Setting up data
I0720 13:50:34.608346 31767 net.cpp:91] Creating Layer conv1
I0720 13:50:34.608352 31767 net.cpp:425] conv1 <- data
I0720 13:50:34.608353 31789 net.cpp:148] Top shape: 10 3 227 227 (1545870)
I0720 13:50:34.608360 31767 net.cpp:399] conv1 -> conv1
I0720 13:50:34.608364 31789 net.cpp:156] Memory required for data: 6183480
I0720 13:50:34.608371 31789 layer_factory.hpp:77] Creating layer conv1
I0720 13:50:34.608381 31789 net.cpp:91] Creating Layer conv1
I0720 13:50:34.608386 31789 net.cpp:425] conv1 <- data
I0720 13:50:34.608393 31789 net.cpp:399] conv1 -> conv1
I0720 13:50:34.608443 31777 layer_factory.hpp:77] Creating layer data
I0720 13:50:34.608448 31787 layer_factory.hpp:77] Creating layer data
I0720 13:50:34.608466 31777 net.cpp:91] Creating Layer data
I0720 13:50:34.608453 31799 layer_factory.hpp:77] Creating layer data
I0720 13:50:34.608489 31777 net.cpp:399] data -> data
I0720 13:50:34.608482 31787 net.cpp:91] Creating Layer data
I0720 13:50:34.608512 31777 net.cpp:141] Setting up data
I0720 13:50:34.608513 31787 net.cpp:399] data -> data
I0720 13:50:34.608511 31799 net.cpp:91] Creating Layer data
I0720 13:50:34.608538 31777 net.cpp:148] Top shape: 10 3 227 227 (1545870)
I0720 13:50:34.608551 31777 net.cpp:156] Memory required for data: 6183480
I0720 13:50:34.608553 31787 net.cpp:141] Setting up data
I0720 13:50:34.608551 31799 net.cpp:399] data -> data
I0720 13:50:34.608566 31777 layer_factory.hpp:77] Creating layer conv1
I0720 13:50:34.608572 31787 net.cpp:148] Top shape: 10 3 227 227 (1545870)
I0720 13:50:34.608580 31799 net.cpp:141] Setting up data
I0720 13:50:34.608582 31787 net.cpp:156] Memory required for data: 6183480
I0720 13:50:34.608589 31799 net.cpp:148] Top shape: 10 3 227 227 (1545870)
I0720 13:50:34.608602 31799 net.cpp:156] Memory required for data: 6183480
I0720 13:50:34.608603 31787 layer_factory.hpp:77] Creating layer conv1
I0720 13:50:34.608583 31777 net.cpp:91] Creating Layer conv1
I0720 13:50:34.608609 31799 layer_factory.hpp:77] Creating layer conv1
I0720 13:50:34.608620 31787 net.cpp:91] Creating Layer conv1
I0720 13:50:34.608623 31777 net.cpp:425] conv1 <- data
I0720 13:50:34.608628 31799 net.cpp:91] Creating Layer conv1
I0720 13:50:34.608628 31787 net.cpp:425] conv1 <- data
I0720 13:50:34.608633 31799 net.cpp:425] conv1 <- data
I0720 13:50:34.608639 31777 net.cpp:399] conv1 -> conv1
I0720 13:50:34.608641 31799 net.cpp:399] conv1 -> conv1
I0720 13:50:34.608640 31787 net.cpp:399] conv1 -> conv1
I0720 13:50:34.608714 31781 net.cpp:49] Initializing net from parameters: 
name: "CaffeNet"
state {
  phase: TEST
}
layer {
  name: "data"
  type: "Input"
  top: "data"
  input_param {
    shape {
      dim: 10
      dim: 3
      dim: 227
      dim: 227
    }
  }
}
layer {
  name: "conv1"
  type: "Convolution"
  bottom: "data"
  top: "conv1"
  convolution_param {
    num_output: 96
    kernel_size: 11
    stride: 4
  }
}
layer {
  name: "relu1"
  type: "ReLU"
  bottom: "conv1"
  top: "conv1"
}
layer {
  name: "pool1"
  type: "Pooling"
  bottom: "conv1"
  top: "pool1"
  pooling_param {
    pool: MAX
    kernel_size: 3
    stride: 2
  }
}
layer {
  name: "norm1"
  type: "LRN"
  bottom: "pool1"
  top: "norm1"
  lrn_param {
    local_size: 5
    alpha: 0.0001
    beta: 0.75
  }
}
layer {
  name: "conv2"
  type: "Convolution"
  bottom: "norm1"
  top: "conv2"
  convolution_param {
    num_output: 256
    pad: 2
    kernel_size: 5
    group: 2
  }
}
layer {
  name: "relu2"
  type: "ReLU"
  bottom: "conv2"
  top: "conv2"
}
layer {
  name: "pool2"
  type: "Pooling"
  bottom: "conv2"
  top: "pool2"
  pooling_param {
    pool: MAX
    kernel_size: 3
    stride: 2
  }
}
layer {
  name: "norm2"
  type: "LRN"
  bottom: "pool2"
  top: "norm2"
  lrn_param {
    local_size: 5
    alpha: 0.0001
    beta: 0.75
  }
}
layer {
  name: "conv3"
  type: "Convolution"
  bottom: "norm2"
  top: "conv3"
  convolution_param {
    num_output: 384
    pad: 1
    kernel_size: 3
  }
}
layer {
  name: "relu3"
  type: "ReLU"
  bottom: "conv3"
  top: "conv3"
}
layer {
  name: "conv4"
  type: "Convolution"
  bottom: "conv3"
  top: "conv4"
  convolution_param {
    num_output: 384
    pad: 1
    kernel_size: 3
    group: 2
  }
}
layer {
  name: "relu4"
  type: "ReLU"
  bottom: "conv4"
  top: "conv4"
}
layer {
  name: "conv5"
  type: "Convolution"
  bottom: "conv4"
  top: "conv5"
  convolution_param {
    num_output: 256
    pad: 1
    kernel_size: 3
    group: 2
  }
}
layer {
  name: "relu5"
  type: "ReLU"
  bottom: "conv5"
  top: "conv5"
}
layer {
  name: "pool5"
  type: "Pooling"
  bottom: "conv5"
  top: "pool5"
  pooling_param {
    pool: MAX
    kernel_size: 3
    stride: 2
  }
}
layer {
  name: "fc6"
  type: "InnerProduct"
  bottom: "pool5"
  top: "fc6"
  inner_product_param {
    num_output: 4096
  }
}
layer {
  name: "relu6"
  type: "ReLU"
  bottom: "fc6"
  top: "fc6"
}
layer {
  name: "drop6"
  type: "Dropout"
  bottom: "fc6"
  top: "fc6"
  dropout_param {
    dropout_ratio: 0.5
  }
}
layer {
  name: "fc7"
  type: "InnerProduct"
  bottom: "fc6"
  top: "fc7"
  inner_product_param {
    num_output: 4096
  }
}
layer {
  name: "relu7"
  type: "ReLU"
  bottom: "fc7"
  top: "fc7"
}
layer {
  name: "drop7"
  type: "Dropout"
  bottom: "fc7"
  top: "fc7"
  dropout_param {
    dropout_ratio: 0.5
  }
}
layer {
  name: "fc8"
  type: "InnerProduct"
  bottom: "fc7"
  top: "fc8"
  inner_product_param {
    num_output: 1000
  }
}
layer {
  name: "prob"
  type: "Softmax"
  bottom: "fc8"
  top: "prob"
}
I0720 13:50:34.608914 31781 layer_factory.hpp:77] Creating layer data
I0720 13:50:34.608928 31781 net.cpp:91] Creating Layer data
I0720 13:50:34.608935 31781 net.cpp:399] data -> data
I0720 13:50:34.608948 31781 net.cpp:141] Setting up data
I0720 13:50:34.608957 31781 net.cpp:148] Top shape: 10 3 227 227 (1545870)
I0720 13:50:34.608960 31781 net.cpp:156] Memory required for data: 6183480
I0720 13:50:34.608965 31781 layer_factory.hpp:77] Creating layer conv1
I0720 13:50:34.608974 31781 net.cpp:91] Creating Layer conv1
I0720 13:50:34.608979 31781 net.cpp:425] conv1 <- data
I0720 13:50:34.608986 31781 net.cpp:399] conv1 -> conv1
I0720 13:50:35.179352 31769 upgrade_proto.cpp:66] Attempting to upgrade input file specified using deprecated input fields: /tmp/cvld6911140034965186301/s2vt.words_to_preds.prototxt
I0720 13:50:35.179409 31769 upgrade_proto.cpp:69] Successfully upgraded file specified using deprecated input fields.
W0720 13:50:35.179419 31769 upgrade_proto.cpp:71] Note that future Caffe releases will only support input layers and not input fields.
I0720 13:50:35.179690 31769 net.cpp:49] Initializing net from parameters: 
name: "s2vt:features_to_lstm"
state {
  phase: TEST
}
layer {
  name: "input"
  type: "Input"
  top: "frames_fc7"
  top: "cont_sentence"
  top: "input_sentence"
  top: "stage_indicator"
  input_param {
    shape {
      dim: 1
      dim: 4096
    }
    shape {
      dim: 1
      dim: 1
    }
    shape {
      dim: 1
      dim: 1
    }
    shape {
      dim: 1
      dim: 1
    }
  }
}
layer {
  name: "embed_encoder"
  type: "InnerProduct"
  bottom: "frames_fc7"
  top: "embedded_in_frames"
  param {
    lr_mult: 1
    decay_mult: 1
  }
  param {
    lr_mult: 2
    decay_mult: 0
  }
  inner_product_param {
    num_output: 500
    weight_filler {
      type: "xavier"
    }
    bias_filler {
      type: "constant"
      value: 0.2
    }
  }
}
layer {
  name: "reshape_frames"
  type: "Reshape"
  bottom: "embedded_in_frames"
  top: "embedded_input_frames"
  reshape_param {
    shape {
      dim: 1
      dim: 1
      dim: 500
    }
  }
}
layer {
  name: "reshape_stage_indicator"
  type: "Reshape"
  bottom: "stage_indicator"
  top: "reshaped_stage_indicator"
  reshape_param {
    shape {
      dim: 1
      dim: 1
      dim: 1
    }
  }
}
layer {
  name: "embedding"
  type: "Embed"
  bottom: "input_sentence"
  top: "embedded_input_sentence"
  param {
    lr_mult: 1
  }
  embed_param {
    num_output: 500
    input_dim: 46168
    bias_term: false
    weight_filler {
      type: "uniform"
      min: -0.08
      max: 0.08
    }
  }
}
layer {
  name: "lstm1"
  type: "LSTM"
  bottom: "embedded_input_frames"
  bottom: "cont_sentence"
  top: "lstm1"
  recurrent_param {
    num_output: 1000
    weight_filler {
      type: "uniform"
      min: -0.08
      max: 0.08
    }
    bias_filler {
      type: "constant"
      value: 0
    }
  }
}
layer {
  name: "concat"
  type: "Concat"
  bottom: "lstm1"
  bottom: "embedded_input_sentence"
  bottom: "reshaped_stage_indicator"
  top: "lstm1_video_sequence"
  concat_param {
    concat_dim: 2
  }
}
layer {
  name: "lstm2"
  type: "LSTM"
  bottom: "lstm1_video_sequence"
  bottom: "cont_sentence"
  top: "lstm2"
  recurrent_param {
    num_output: 1000
    weight_filler {
      type: "uniform"
      min: -0.08
      max: 0.08
    }
    bias_filler {
      type: "constant"
      value: 0
    }
  }
}
layer {
  name: "predict"
  type: "InnerProduct"
  bottom: "lstm2"
  top: "predict"
  param {
    lr_mult: 1
    decay_mult: 1
  }
  param {
    lr_mult: 2
    decay_mult: 0
  }
  inner_product_param {
    num_output: 46168
    weight_filler {
      type: "uniform"
      min: -0.08
      max: 0.08
    }
    bias_filler {
      type: "constant"
      value: 0
    }
    axis: 2
  }
}
layer {
  name: "probs"
  type: "Softmax"
  bottom: "predict"
  top: "probs"
  softmax_param {
    axis: 2
  }
}
I0720 13:50:35.179800 31769 layer_factory.hpp:77] Creating layer input
I0720 13:50:35.179816 31769 net.cpp:91] Creating Layer input
I0720 13:50:35.179823 31769 net.cpp:399] input -> frames_fc7
I0720 13:50:35.179843 31769 net.cpp:399] input -> cont_sentence
I0720 13:50:35.179853 31769 net.cpp:399] input -> input_sentence
I0720 13:50:35.179862 31769 net.cpp:399] input -> stage_indicator
I0720 13:50:35.182261 31769 net.cpp:141] Setting up input
I0720 13:50:35.182283 31769 net.cpp:148] Top shape: 1 4096 (4096)
I0720 13:50:35.182291 31769 net.cpp:148] Top shape: 1 1 (1)
I0720 13:50:35.182296 31769 net.cpp:148] Top shape: 1 1 (1)
I0720 13:50:35.182302 31769 net.cpp:148] Top shape: 1 1 (1)
I0720 13:50:35.182307 31769 net.cpp:156] Memory required for data: 16396
I0720 13:50:35.182312 31769 layer_factory.hpp:77] Creating layer cont_sentence_input_1_split
I0720 13:50:35.182333 31769 net.cpp:91] Creating Layer cont_sentence_input_1_split
I0720 13:50:35.182339 31769 net.cpp:425] cont_sentence_input_1_split <- cont_sentence
I0720 13:50:35.182364 31769 net.cpp:399] cont_sentence_input_1_split -> cont_sentence_input_1_split_0
I0720 13:50:35.182376 31769 net.cpp:399] cont_sentence_input_1_split -> cont_sentence_input_1_split_1
I0720 13:50:35.183723 31769 net.cpp:141] Setting up cont_sentence_input_1_split
I0720 13:50:35.183742 31769 net.cpp:148] Top shape: 1 1 (1)
I0720 13:50:35.183748 31769 net.cpp:148] Top shape: 1 1 (1)
I0720 13:50:35.183753 31769 net.cpp:156] Memory required for data: 16404
I0720 13:50:35.183758 31769 layer_factory.hpp:77] Creating layer embed_encoder
I0720 13:50:35.183779 31769 net.cpp:91] Creating Layer embed_encoder
I0720 13:50:35.183785 31769 net.cpp:425] embed_encoder <- frames_fc7
I0720 13:50:35.183795 31769 net.cpp:399] embed_encoder -> embedded_in_frames
I0720 13:50:35.210134 31769 net.cpp:141] Setting up embed_encoder
I0720 13:50:35.210181 31769 net.cpp:148] Top shape: 1 500 (500)
I0720 13:50:35.210187 31769 net.cpp:156] Memory required for data: 18404
I0720 13:50:35.210216 31769 layer_factory.hpp:77] Creating layer reshape_frames
I0720 13:50:35.210247 31769 net.cpp:91] Creating Layer reshape_frames
I0720 13:50:35.210256 31769 net.cpp:425] reshape_frames <- embedded_in_frames
I0720 13:50:35.210269 31769 net.cpp:399] reshape_frames -> embedded_input_frames
I0720 13:50:35.210860 31769 net.cpp:141] Setting up reshape_frames
I0720 13:50:35.210876 31769 net.cpp:148] Top shape: 1 1 500 (500)
I0720 13:50:35.210881 31769 net.cpp:156] Memory required for data: 20404
I0720 13:50:35.210886 31769 layer_factory.hpp:77] Creating layer reshape_stage_indicator
I0720 13:50:35.210898 31769 net.cpp:91] Creating Layer reshape_stage_indicator
I0720 13:50:35.210904 31769 net.cpp:425] reshape_stage_indicator <- stage_indicator
I0720 13:50:35.210913 31769 net.cpp:399] reshape_stage_indicator -> reshaped_stage_indicator
I0720 13:50:35.213611 31769 net.cpp:141] Setting up reshape_stage_indicator
I0720 13:50:35.213639 31769 net.cpp:148] Top shape: 1 1 1 (1)
I0720 13:50:35.213649 31769 net.cpp:156] Memory required for data: 20408
I0720 13:50:35.213659 31769 layer_factory.hpp:77] Creating layer embedding
I0720 13:50:35.213677 31769 net.cpp:91] Creating Layer embedding
I0720 13:50:35.213687 31769 net.cpp:425] embedding <- input_sentence
I0720 13:50:35.213702 31769 net.cpp:399] embedding -> embedded_input_sentence
I0720 13:50:35.429824 31769 net.cpp:141] Setting up embedding
I0720 13:50:35.429883 31769 net.cpp:148] Top shape: 1 1 500 (500)
I0720 13:50:35.429888 31769 net.cpp:156] Memory required for data: 22408
I0720 13:50:35.429905 31769 layer_factory.hpp:77] Creating layer lstm1
I0720 13:50:35.429925 31769 net.cpp:91] Creating Layer lstm1
I0720 13:50:35.429932 31769 net.cpp:425] lstm1 <- embedded_input_frames
I0720 13:50:35.429941 31769 net.cpp:425] lstm1 <- cont_sentence_input_1_split_0
I0720 13:50:35.429950 31769 net.cpp:399] lstm1 -> lstm1
I0720 13:50:35.429986 31769 recurrent_layer.cpp:20] Initializing recurrent layer: assuming input batch contains 1 timesteps of 1 independent streams.
I0720 13:50:35.430354 31769 net.cpp:49] Initializing net from parameters: 
layer {
  name: "lstm1_"
  type: "Input"
  top: "x"
  top: "cont"
  input_param {
    shape {
      dim: 1
      dim: 1
      dim: 500
    }
    shape {
      dim: 1
      dim: 1
    }
  }
}
layer {
  name: "lstm1_"
  type: "Input"
  top: "c_0"
  top: "h_0"
  input_param {
    shape {
      dim: 1
      dim: 1
      dim: 1000
    }
    shape {
      dim: 1
      dim: 1
      dim: 1000
    }
  }
}
layer {
  name: "lstm1_cont_slice"
  type: "Slice"
  bottom: "cont"
  top: "cont_1"
  slice_param {
    axis: 0
  }
}
layer {
  name: "lstm1_x_transform"
  type: "InnerProduct"
  bottom: "x"
  top: "W_xc_x"
  param {
    name: "W_xc"
  }
  param {
    name: "b_c"
  }
  propagate_down: true
  inner_product_param {
    num_output: 4000
    bias_term: true
    weight_filler {
      type: "uniform"
      min: -0.08
      max: 0.08
    }
    bias_filler {
      type: "constant"
      value: 0
    }
    axis: 2
  }
}
layer {
  name: "lstm1_W_xc_x_slice"
  type: "Slice"
  bottom: "W_xc_x"
  top: "W_xc_x_1"
  slice_param {
    axis: 0
  }
}
layer {
  name: "lstm1_h_conted_0"
  type: "Scale"
  bottom: "h_0"
  bottom: "cont_1"
  top: "h_conted_0"
  scale_param {
    axis: 0
  }
}
layer {
  name: "lstm1_transform_1"
  type: "InnerProduct"
  bottom: "h_conted_0"
  top: "W_hc_h_0"
  param {
    name: "W_hc"
  }
  inner_product_param {
    num_output: 4000
    bias_term: false
    weight_filler {
      type: "uniform"
      min: -0.08
      max: 0.08
    }
    axis: 2
  }
}
layer {
  name: "lstm1_gate_input_1"
  type: "Eltwise"
  bottom: "W_hc_h_0"
  bottom: "W_xc_x_1"
  top: "gate_input_1"
  eltwise_param {
    operation: SUM
  }
}
layer {
  name: "lstm1_unit_1"
  type: "LSTMUnit"
  bottom: "c_0"
  bottom: "gate_input_1"
  bottom: "cont_1"
  top: "c_1"
  top: "h_1"
}
layer {
  name: "lstm1_"
  type: "Split"
  bottom: "c_1"
  top: "c_T"
}
layer {
  name: "lstm1_h_concat"
  type: "Concat"
  bottom: "h_1"
  top: "h"
  concat_param {
    axis: 0
  }
}
layer {
  name: "h_pseudoloss"
  type: "Reduction"
  bottom: "h"
  top: "h_pseudoloss"
  loss_weight: 1
}
I0720 13:50:35.430446 31769 layer_factory.hpp:77] Creating layer lstm1_
I0720 13:50:35.430459 31769 net.cpp:91] Creating Layer lstm1_
I0720 13:50:35.430465 31769 net.cpp:399] lstm1_ -> x
I0720 13:50:35.430476 31769 net.cpp:399] lstm1_ -> cont
I0720 13:50:35.430646 31769 net.cpp:141] Setting up lstm1_
I0720 13:50:35.430657 31769 net.cpp:148] Top shape: 1 1 500 (500)
I0720 13:50:35.430663 31769 net.cpp:148] Top shape: 1 1 (1)
I0720 13:50:35.430667 31769 net.cpp:156] Memory required for data: 2004
I0720 13:50:35.430672 31769 layer_factory.hpp:77] Creating layer lstm1_
I0720 13:50:35.430681 31769 net.cpp:91] Creating Layer lstm1_
I0720 13:50:35.430696 31769 net.cpp:399] lstm1_ -> c_0
I0720 13:50:35.430709 31769 net.cpp:399] lstm1_ -> h_0
I0720 13:50:35.435322 31769 net.cpp:141] Setting up lstm1_
I0720 13:50:35.435339 31769 net.cpp:148] Top shape: 1 1 1000 (1000)
I0720 13:50:35.435346 31769 net.cpp:148] Top shape: 1 1 1000 (1000)
I0720 13:50:35.435350 31769 net.cpp:156] Memory required for data: 10004
I0720 13:50:35.435355 31769 layer_factory.hpp:77] Creating layer lstm1_cont_slice
I0720 13:50:35.435369 31769 net.cpp:91] Creating Layer lstm1_cont_slice
I0720 13:50:35.435374 31769 net.cpp:425] lstm1_cont_slice <- cont
I0720 13:50:35.435381 31769 net.cpp:399] lstm1_cont_slice -> cont_1
I0720 13:50:35.436033 31769 net.cpp:141] Setting up lstm1_cont_slice
I0720 13:50:35.436050 31769 net.cpp:148] Top shape: 1 1 (1)
I0720 13:50:35.436055 31769 net.cpp:156] Memory required for data: 10008
I0720 13:50:35.436060 31769 layer_factory.hpp:77] Creating layer cont_1_lstm1_cont_slice_0_split
I0720 13:50:35.436069 31769 net.cpp:91] Creating Layer cont_1_lstm1_cont_slice_0_split
I0720 13:50:35.436074 31769 net.cpp:425] cont_1_lstm1_cont_slice_0_split <- cont_1
I0720 13:50:35.436084 31769 net.cpp:399] cont_1_lstm1_cont_slice_0_split -> cont_1_lstm1_cont_slice_0_split_0
I0720 13:50:35.436094 31769 net.cpp:399] cont_1_lstm1_cont_slice_0_split -> cont_1_lstm1_cont_slice_0_split_1
I0720 13:50:35.439767 31769 net.cpp:141] Setting up cont_1_lstm1_cont_slice_0_split
I0720 13:50:35.439785 31769 net.cpp:148] Top shape: 1 1 (1)
I0720 13:50:35.439792 31769 net.cpp:148] Top shape: 1 1 (1)
I0720 13:50:35.439796 31769 net.cpp:156] Memory required for data: 10016
I0720 13:50:35.439801 31769 layer_factory.hpp:77] Creating layer lstm1_x_transform
I0720 13:50:35.439817 31769 net.cpp:91] Creating Layer lstm1_x_transform
I0720 13:50:35.439823 31769 net.cpp:425] lstm1_x_transform <- x
I0720 13:50:35.439831 31769 net.cpp:399] lstm1_x_transform -> W_xc_x
I0720 13:50:35.458371 31787 net.cpp:141] Setting up conv1
I0720 13:50:35.458412 31787 net.cpp:148] Top shape: 10 96 55 55 (2904000)
I0720 13:50:35.458421 31787 net.cpp:156] Memory required for data: 17799480
I0720 13:50:35.458448 31787 layer_factory.hpp:77] Creating layer relu1
I0720 13:50:35.458468 31787 net.cpp:91] Creating Layer relu1
I0720 13:50:35.458477 31787 net.cpp:425] relu1 <- conv1
I0720 13:50:35.458490 31787 net.cpp:386] relu1 -> conv1 (in-place)
I0720 13:50:35.458639 31801 net.cpp:141] Setting up conv1
I0720 13:50:35.458659 31801 net.cpp:148] Top shape: 10 96 55 55 (2904000)
I0720 13:50:35.458664 31801 net.cpp:156] Memory required for data: 17799480
I0720 13:50:35.458678 31801 layer_factory.hpp:77] Creating layer relu1
I0720 13:50:35.458698 31801 net.cpp:91] Creating Layer relu1
I0720 13:50:35.458705 31801 net.cpp:425] relu1 <- conv1
I0720 13:50:35.458714 31801 net.cpp:386] relu1 -> conv1 (in-place)
I0720 13:50:35.461077 31799 net.cpp:141] Setting up conv1
I0720 13:50:35.461105 31799 net.cpp:148] Top shape: 10 96 55 55 (2904000)
I0720 13:50:35.461117 31799 net.cpp:156] Memory required for data: 17799480
I0720 13:50:35.461143 31799 layer_factory.hpp:77] Creating layer relu1
I0720 13:50:35.461155 31799 net.cpp:91] Creating Layer relu1
I0720 13:50:35.461160 31799 net.cpp:425] relu1 <- conv1
I0720 13:50:35.461170 31799 net.cpp:386] relu1 -> conv1 (in-place)
I0720 13:50:35.461391 31777 net.cpp:141] Setting up conv1
I0720 13:50:35.461416 31777 net.cpp:148] Top shape: 10 96 55 55 (2904000)
I0720 13:50:35.461417 31789 net.cpp:141] Setting up conv1
I0720 13:50:35.461431 31777 net.cpp:156] Memory required for data: 17799480
I0720 13:50:35.461441 31789 net.cpp:148] Top shape: 10 96 55 55 (2904000)
I0720 13:50:35.461449 31789 net.cpp:156] Memory required for data: 17799480
I0720 13:50:35.461455 31777 layer_factory.hpp:77] Creating layer relu1
I0720 13:50:35.461470 31777 net.cpp:91] Creating Layer relu1
I0720 13:50:35.461472 31789 layer_factory.hpp:77] Creating layer relu1
I0720 13:50:35.461479 31777 net.cpp:425] relu1 <- conv1
I0720 13:50:35.461482 31767 net.cpp:141] Setting up conv1
I0720 13:50:35.461484 31789 net.cpp:91] Creating Layer relu1
I0720 13:50:35.461495 31777 net.cpp:386] relu1 -> conv1 (in-place)
I0720 13:50:35.461501 31767 net.cpp:148] Top shape: 10 96 55 55 (2904000)
I0720 13:50:35.461503 31789 net.cpp:425] relu1 <- conv1
I0720 13:50:35.461513 31767 net.cpp:156] Memory required for data: 17799480
I0720 13:50:35.461529 31767 layer_factory.hpp:77] Creating layer relu1
I0720 13:50:35.461529 31789 net.cpp:386] relu1 -> conv1 (in-place)
I0720 13:50:35.461544 31767 net.cpp:91] Creating Layer relu1
I0720 13:50:35.461549 31767 net.cpp:425] relu1 <- conv1
I0720 13:50:35.461560 31767 net.cpp:386] relu1 -> conv1 (in-place)
I0720 13:50:35.463394 31781 net.cpp:141] Setting up conv1
I0720 13:50:35.463419 31781 net.cpp:148] Top shape: 10 96 55 55 (2904000)
I0720 13:50:35.463430 31781 net.cpp:156] Memory required for data: 17799480
I0720 13:50:35.463454 31781 layer_factory.hpp:77] Creating layer relu1
I0720 13:50:35.463470 31781 net.cpp:91] Creating Layer relu1
I0720 13:50:35.463482 31781 net.cpp:425] relu1 <- conv1
I0720 13:50:35.463500 31781 net.cpp:386] relu1 -> conv1 (in-place)
I0720 13:50:35.465458 31801 net.cpp:141] Setting up relu1
I0720 13:50:35.465476 31801 net.cpp:148] Top shape: 10 96 55 55 (2904000)
I0720 13:50:35.465483 31801 net.cpp:156] Memory required for data: 29415480
I0720 13:50:35.465492 31801 layer_factory.hpp:77] Creating layer pool1
I0720 13:50:35.465512 31801 net.cpp:91] Creating Layer pool1
I0720 13:50:35.465522 31801 net.cpp:425] pool1 <- conv1
I0720 13:50:35.465535 31801 net.cpp:399] pool1 -> pool1
I0720 13:50:35.465564 31801 net.cpp:141] Setting up pool1
I0720 13:50:35.465574 31801 net.cpp:148] Top shape: 10 96 27 27 (699840)
I0720 13:50:35.465577 31801 net.cpp:156] Memory required for data: 32214840
I0720 13:50:35.465574 31769 net.cpp:141] Setting up lstm1_x_transform
I0720 13:50:35.465582 31801 layer_factory.hpp:77] Creating layer norm1
I0720 13:50:35.465597 31769 net.cpp:148] Top shape: 1 1 4000 (4000)
I0720 13:50:35.465603 31769 net.cpp:156] Memory required for data: 26016
I0720 13:50:35.465610 31801 net.cpp:91] Creating Layer norm1
I0720 13:50:35.465616 31801 net.cpp:425] norm1 <- pool1
I0720 13:50:35.465617 31769 layer_factory.hpp:77] Creating layer lstm1_W_xc_x_slice
I0720 13:50:35.465626 31801 net.cpp:399] norm1 -> norm1
I0720 13:50:35.465628 31769 net.cpp:91] Creating Layer lstm1_W_xc_x_slice
I0720 13:50:35.465636 31769 net.cpp:425] lstm1_W_xc_x_slice <- W_xc_x
I0720 13:50:35.465642 31769 net.cpp:399] lstm1_W_xc_x_slice -> W_xc_x_1
I0720 13:50:35.465898 31783 net.cpp:141] Setting up conv1
I0720 13:50:35.465917 31783 net.cpp:148] Top shape: 10 96 55 55 (2904000)
I0720 13:50:35.465922 31783 net.cpp:156] Memory required for data: 17799480
I0720 13:50:35.465931 31769 net.cpp:141] Setting up lstm1_W_xc_x_slice
I0720 13:50:35.465944 31769 net.cpp:148] Top shape: 1 1 4000 (4000)
I0720 13:50:35.465942 31783 layer_factory.hpp:77] Creating layer relu1
I0720 13:50:35.465947 31769 net.cpp:156] Memory required for data: 42016
I0720 13:50:35.465952 31769 layer_factory.hpp:77] Creating layer lstm1_h_conted_0
I0720 13:50:35.465955 31783 net.cpp:91] Creating Layer relu1
I0720 13:50:35.465960 31783 net.cpp:425] relu1 <- conv1
I0720 13:50:35.465962 31769 net.cpp:91] Creating Layer lstm1_h_conted_0
I0720 13:50:35.465965 31783 net.cpp:386] relu1 -> conv1 (in-place)
I0720 13:50:35.465970 31769 net.cpp:425] lstm1_h_conted_0 <- h_0
I0720 13:50:35.465981 31769 net.cpp:425] lstm1_h_conted_0 <- cont_1_lstm1_cont_slice_0_split_0
I0720 13:50:35.465987 31769 net.cpp:399] lstm1_h_conted_0 -> h_conted_0
I0720 13:50:35.466007 31789 net.cpp:141] Setting up relu1
I0720 13:50:35.466025 31789 net.cpp:148] Top shape: 10 96 55 55 (2904000)
I0720 13:50:35.466032 31789 net.cpp:156] Memory required for data: 29415480
I0720 13:50:35.466037 31789 layer_factory.hpp:77] Creating layer pool1
I0720 13:50:35.466044 31789 net.cpp:91] Creating Layer pool1
I0720 13:50:35.466049 31789 net.cpp:425] pool1 <- conv1
I0720 13:50:35.466048 31787 net.cpp:141] Setting up relu1
I0720 13:50:35.466059 31789 net.cpp:399] pool1 -> pool1
I0720 13:50:35.466060 31787 net.cpp:148] Top shape: 10 96 55 55 (2904000)
I0720 13:50:35.466066 31787 net.cpp:156] Memory required for data: 29415480
I0720 13:50:35.466071 31787 layer_factory.hpp:77] Creating layer pool1
I0720 13:50:35.466074 31789 net.cpp:141] Setting up pool1
I0720 13:50:35.466081 31789 net.cpp:148] Top shape: 10 96 27 27 (699840)
I0720 13:50:35.466083 31787 net.cpp:91] Creating Layer pool1
I0720 13:50:35.466090 31789 net.cpp:156] Memory required for data: 32214840
I0720 13:50:35.466094 31787 net.cpp:425] pool1 <- conv1
I0720 13:50:35.466095 31789 layer_factory.hpp:77] Creating layer norm1
I0720 13:50:35.466105 31787 net.cpp:399] pool1 -> pool1
I0720 13:50:35.466114 31789 net.cpp:91] Creating Layer norm1
I0720 13:50:35.466119 31787 net.cpp:141] Setting up pool1
I0720 13:50:35.466120 31789 net.cpp:425] norm1 <- pool1
I0720 13:50:35.466128 31787 net.cpp:148] Top shape: 10 96 27 27 (699840)
I0720 13:50:35.466131 31789 net.cpp:399] norm1 -> norm1
I0720 13:50:35.466133 31787 net.cpp:156] Memory required for data: 32214840
I0720 13:50:35.466138 31787 layer_factory.hpp:77] Creating layer norm1
I0720 13:50:35.466150 31787 net.cpp:91] Creating Layer norm1
I0720 13:50:35.466155 31787 net.cpp:425] norm1 <- pool1
I0720 13:50:35.466161 31787 net.cpp:399] norm1 -> norm1
I0720 13:50:35.466724 31793 net.cpp:141] Setting up conv1
I0720 13:50:35.466738 31793 net.cpp:148] Top shape: 10 96 55 55 (2904000)
I0720 13:50:35.466743 31793 net.cpp:156] Memory required for data: 17799480
I0720 13:50:35.466755 31793 layer_factory.hpp:77] Creating layer relu1
I0720 13:50:35.466768 31793 net.cpp:91] Creating Layer relu1
I0720 13:50:35.466773 31793 net.cpp:425] relu1 <- conv1
I0720 13:50:35.466778 31793 net.cpp:386] relu1 -> conv1 (in-place)
I0720 13:50:35.468567 31769 net.cpp:141] Setting up lstm1_h_conted_0
I0720 13:50:35.468581 31769 net.cpp:148] Top shape: 1 1 1000 (1000)
I0720 13:50:35.468586 31769 net.cpp:156] Memory required for data: 46016
I0720 13:50:35.468591 31769 layer_factory.hpp:77] Creating layer lstm1_transform_1
I0720 13:50:35.468602 31769 net.cpp:91] Creating Layer lstm1_transform_1
I0720 13:50:35.468607 31769 net.cpp:425] lstm1_transform_1 <- h_conted_0
I0720 13:50:35.468616 31769 net.cpp:399] lstm1_transform_1 -> W_hc_h_0
I0720 13:50:35.476660 31787 net.cpp:141] Setting up norm1
I0720 13:50:35.476711 31787 net.cpp:148] Top shape: 10 96 27 27 (699840)
I0720 13:50:35.476721 31787 net.cpp:156] Memory required for data: 35014200
I0720 13:50:35.476729 31787 layer_factory.hpp:77] Creating layer conv2
I0720 13:50:35.476755 31787 net.cpp:91] Creating Layer conv2
I0720 13:50:35.476761 31787 net.cpp:425] conv2 <- norm1
I0720 13:50:35.476773 31787 net.cpp:399] conv2 -> conv2
I0720 13:50:35.476814 31799 net.cpp:141] Setting up relu1
I0720 13:50:35.476830 31799 net.cpp:148] Top shape: 10 96 55 55 (2904000)
I0720 13:50:35.476833 31799 net.cpp:156] Memory required for data: 29415480
I0720 13:50:35.476840 31799 layer_factory.hpp:77] Creating layer pool1
I0720 13:50:35.476858 31799 net.cpp:91] Creating Layer pool1
I0720 13:50:35.476868 31799 net.cpp:425] pool1 <- conv1
I0720 13:50:35.476863 31801 net.cpp:141] Setting up norm1
I0720 13:50:35.476881 31799 net.cpp:399] pool1 -> pool1
I0720 13:50:35.476889 31801 net.cpp:148] Top shape: 10 96 27 27 (699840)
I0720 13:50:35.476899 31801 net.cpp:156] Memory required for data: 35014200
I0720 13:50:35.476898 31799 net.cpp:141] Setting up pool1
I0720 13:50:35.476913 31801 layer_factory.hpp:77] Creating layer conv2
I0720 13:50:35.476922 31799 net.cpp:148] Top shape: 10 96 27 27 (699840)
I0720 13:50:35.476927 31799 net.cpp:156] Memory required for data: 32214840
I0720 13:50:35.476932 31799 layer_factory.hpp:77] Creating layer norm1
I0720 13:50:35.476933 31801 net.cpp:91] Creating Layer conv2
I0720 13:50:35.476943 31799 net.cpp:91] Creating Layer norm1
I0720 13:50:35.476944 31801 net.cpp:425] conv2 <- norm1
I0720 13:50:35.476948 31799 net.cpp:425] norm1 <- pool1
I0720 13:50:35.476964 31799 net.cpp:399] norm1 -> norm1
I0720 13:50:35.476976 31801 net.cpp:399] conv2 -> conv2
I0720 13:50:35.477035 31793 net.cpp:141] Setting up relu1
I0720 13:50:35.477047 31793 net.cpp:148] Top shape: 10 96 55 55 (2904000)
I0720 13:50:35.477051 31793 net.cpp:156] Memory required for data: 29415480
I0720 13:50:35.477056 31793 layer_factory.hpp:77] Creating layer pool1
I0720 13:50:35.477064 31793 net.cpp:91] Creating Layer pool1
I0720 13:50:35.477069 31793 net.cpp:425] pool1 <- conv1
I0720 13:50:35.477079 31793 net.cpp:399] pool1 -> pool1
I0720 13:50:35.477092 31793 net.cpp:141] Setting up pool1
I0720 13:50:35.477098 31793 net.cpp:148] Top shape: 10 96 27 27 (699840)
I0720 13:50:35.477102 31793 net.cpp:156] Memory required for data: 32214840
I0720 13:50:35.477107 31793 layer_factory.hpp:77] Creating layer norm1
I0720 13:50:35.477120 31793 net.cpp:91] Creating Layer norm1
I0720 13:50:35.477125 31777 net.cpp:141] Setting up relu1
I0720 13:50:35.477129 31793 net.cpp:425] norm1 <- pool1
I0720 13:50:35.477145 31777 net.cpp:148] Top shape: 10 96 55 55 (2904000)
I0720 13:50:35.477151 31777 net.cpp:156] Memory required for data: 29415480
I0720 13:50:35.477150 31793 net.cpp:399] norm1 -> norm1
I0720 13:50:35.477157 31777 layer_factory.hpp:77] Creating layer pool1
I0720 13:50:35.477170 31777 net.cpp:91] Creating Layer pool1
I0720 13:50:35.477176 31777 net.cpp:425] pool1 <- conv1
I0720 13:50:35.477190 31777 net.cpp:399] pool1 -> pool1
I0720 13:50:35.477210 31777 net.cpp:141] Setting up pool1
I0720 13:50:35.477219 31777 net.cpp:148] Top shape: 10 96 27 27 (699840)
I0720 13:50:35.477223 31777 net.cpp:156] Memory required for data: 32214840
I0720 13:50:35.477228 31777 layer_factory.hpp:77] Creating layer norm1
I0720 13:50:35.477237 31777 net.cpp:91] Creating Layer norm1
I0720 13:50:35.477242 31777 net.cpp:425] norm1 <- pool1
I0720 13:50:35.477250 31777 net.cpp:399] norm1 -> norm1
I0720 13:50:35.479477 31783 net.cpp:141] Setting up relu1
I0720 13:50:35.479518 31783 net.cpp:148] Top shape: 10 96 55 55 (2904000)
I0720 13:50:35.479524 31783 net.cpp:156] Memory required for data: 29415480
I0720 13:50:35.479532 31783 layer_factory.hpp:77] Creating layer pool1
I0720 13:50:35.479547 31783 net.cpp:91] Creating Layer pool1
I0720 13:50:35.479552 31783 net.cpp:425] pool1 <- conv1
I0720 13:50:35.479564 31783 net.cpp:399] pool1 -> pool1
I0720 13:50:35.479583 31783 net.cpp:141] Setting up pool1
I0720 13:50:35.479591 31783 net.cpp:148] Top shape: 10 96 27 27 (699840)
I0720 13:50:35.479595 31783 net.cpp:156] Memory required for data: 32214840
I0720 13:50:35.479599 31783 layer_factory.hpp:77] Creating layer norm1
I0720 13:50:35.479607 31789 net.cpp:141] Setting up norm1
I0720 13:50:35.479611 31783 net.cpp:91] Creating Layer norm1
I0720 13:50:35.479624 31783 net.cpp:425] norm1 <- pool1
I0720 13:50:35.479624 31789 net.cpp:148] Top shape: 10 96 27 27 (699840)
I0720 13:50:35.479630 31789 net.cpp:156] Memory required for data: 35014200
I0720 13:50:35.479630 31783 net.cpp:399] norm1 -> norm1
I0720 13:50:35.479635 31789 layer_factory.hpp:77] Creating layer conv2
I0720 13:50:35.479655 31789 net.cpp:91] Creating Layer conv2
I0720 13:50:35.479662 31789 net.cpp:425] conv2 <- norm1
I0720 13:50:35.479672 31789 net.cpp:399] conv2 -> conv2
I0720 13:50:35.482663 31777 net.cpp:141] Setting up norm1
I0720 13:50:35.482697 31777 net.cpp:148] Top shape: 10 96 27 27 (699840)
I0720 13:50:35.482709 31777 net.cpp:156] Memory required for data: 35014200
I0720 13:50:35.482719 31777 layer_factory.hpp:77] Creating layer conv2
I0720 13:50:35.482738 31777 net.cpp:91] Creating Layer conv2
I0720 13:50:35.482748 31777 net.cpp:425] conv2 <- norm1
I0720 13:50:35.482764 31777 net.cpp:399] conv2 -> conv2
I0720 13:50:35.482789 31795 net.cpp:141] Setting up conv1
I0720 13:50:35.482808 31795 net.cpp:148] Top shape: 10 96 55 55 (2904000)
I0720 13:50:35.482815 31795 net.cpp:156] Memory required for data: 17799480
I0720 13:50:35.482836 31795 layer_factory.hpp:77] Creating layer relu1
I0720 13:50:35.482846 31795 net.cpp:91] Creating Layer relu1
I0720 13:50:35.482852 31795 net.cpp:425] relu1 <- conv1
I0720 13:50:35.482869 31795 net.cpp:386] relu1 -> conv1 (in-place)
I0720 13:50:35.484211 31793 net.cpp:141] Setting up norm1
I0720 13:50:35.484236 31793 net.cpp:148] Top shape: 10 96 27 27 (699840)
I0720 13:50:35.484246 31793 net.cpp:156] Memory required for data: 35014200
I0720 13:50:35.484256 31793 layer_factory.hpp:77] Creating layer conv2
I0720 13:50:35.484277 31793 net.cpp:91] Creating Layer conv2
I0720 13:50:35.484288 31793 net.cpp:425] conv2 <- norm1
I0720 13:50:35.484302 31793 net.cpp:399] conv2 -> conv2
I0720 13:50:35.484668 31783 net.cpp:141] Setting up norm1
I0720 13:50:35.484688 31783 net.cpp:148] Top shape: 10 96 27 27 (699840)
I0720 13:50:35.484696 31783 net.cpp:156] Memory required for data: 35014200
I0720 13:50:35.484705 31783 layer_factory.hpp:77] Creating layer conv2
I0720 13:50:35.484720 31783 net.cpp:91] Creating Layer conv2
I0720 13:50:35.484715 31781 net.cpp:141] Setting up relu1
I0720 13:50:35.484727 31783 net.cpp:425] conv2 <- norm1
I0720 13:50:35.484741 31783 net.cpp:399] conv2 -> conv2
I0720 13:50:35.484742 31781 net.cpp:148] Top shape: 10 96 55 55 (2904000)
I0720 13:50:35.484753 31781 net.cpp:156] Memory required for data: 29415480
I0720 13:50:35.484762 31781 layer_factory.hpp:77] Creating layer pool1
I0720 13:50:35.484777 31781 net.cpp:91] Creating Layer pool1
I0720 13:50:35.484787 31781 net.cpp:425] pool1 <- conv1
I0720 13:50:35.484803 31781 net.cpp:399] pool1 -> pool1
I0720 13:50:35.484827 31781 net.cpp:141] Setting up pool1
I0720 13:50:35.484841 31781 net.cpp:148] Top shape: 10 96 27 27 (699840)
I0720 13:50:35.484850 31781 net.cpp:156] Memory required for data: 32214840
I0720 13:50:35.484859 31781 layer_factory.hpp:77] Creating layer norm1
I0720 13:50:35.484872 31795 net.cpp:141] Setting up relu1
I0720 13:50:35.484876 31781 net.cpp:91] Creating Layer norm1
I0720 13:50:35.484889 31767 net.cpp:141] Setting up relu1
I0720 13:50:35.484894 31795 net.cpp:148] Top shape: 10 96 55 55 (2904000)
I0720 13:50:35.484894 31781 net.cpp:425] norm1 <- pool1
I0720 13:50:35.484912 31767 net.cpp:148] Top shape: 10 96 55 55 (2904000)
I0720 13:50:35.484915 31795 net.cpp:156] Memory required for data: 29415480
I0720 13:50:35.484922 31767 net.cpp:156] Memory required for data: 29415480
I0720 13:50:35.484925 31795 layer_factory.hpp:77] Creating layer pool1
I0720 13:50:35.484928 31781 net.cpp:399] norm1 -> norm1
I0720 13:50:35.484931 31767 layer_factory.hpp:77] Creating layer pool1
I0720 13:50:35.484944 31767 net.cpp:91] Creating Layer pool1
I0720 13:50:35.484952 31767 net.cpp:425] pool1 <- conv1
I0720 13:50:35.484956 31795 net.cpp:91] Creating Layer pool1
I0720 13:50:35.484962 31767 net.cpp:399] pool1 -> pool1
I0720 13:50:35.484968 31795 net.cpp:425] pool1 <- conv1
I0720 13:50:35.484980 31795 net.cpp:399] pool1 -> pool1
I0720 13:50:35.484997 31767 net.cpp:141] Setting up pool1
I0720 13:50:35.484998 31795 net.cpp:141] Setting up pool1
I0720 13:50:35.485014 31767 net.cpp:148] Top shape: 10 96 27 27 (699840)
I0720 13:50:35.485021 31767 net.cpp:156] Memory required for data: 32214840
I0720 13:50:35.485024 31795 net.cpp:148] Top shape: 10 96 27 27 (699840)
I0720 13:50:35.485028 31767 layer_factory.hpp:77] Creating layer norm1
I0720 13:50:35.485033 31795 net.cpp:156] Memory required for data: 32214840
I0720 13:50:35.485041 31795 layer_factory.hpp:77] Creating layer norm1
I0720 13:50:35.485045 31767 net.cpp:91] Creating Layer norm1
I0720 13:50:35.485054 31767 net.cpp:425] norm1 <- pool1
I0720 13:50:35.485054 31795 net.cpp:91] Creating Layer norm1
I0720 13:50:35.485064 31767 net.cpp:399] norm1 -> norm1
I0720 13:50:35.485064 31795 net.cpp:425] norm1 <- pool1
I0720 13:50:35.485085 31795 net.cpp:399] norm1 -> norm1
I0720 13:50:35.485870 31799 net.cpp:141] Setting up norm1
I0720 13:50:35.485885 31799 net.cpp:148] Top shape: 10 96 27 27 (699840)
I0720 13:50:35.485889 31799 net.cpp:156] Memory required for data: 35014200
I0720 13:50:35.485895 31799 layer_factory.hpp:77] Creating layer conv2
I0720 13:50:35.485913 31799 net.cpp:91] Creating Layer conv2
I0720 13:50:35.485918 31799 net.cpp:425] conv2 <- norm1
I0720 13:50:35.485925 31799 net.cpp:399] conv2 -> conv2
I0720 13:50:35.490545 31781 net.cpp:141] Setting up norm1
I0720 13:50:35.490566 31781 net.cpp:148] Top shape: 10 96 27 27 (699840)
I0720 13:50:35.490572 31781 net.cpp:156] Memory required for data: 35014200
I0720 13:50:35.490578 31781 layer_factory.hpp:77] Creating layer conv2
I0720 13:50:35.490595 31781 net.cpp:91] Creating Layer conv2
I0720 13:50:35.490602 31781 net.cpp:425] conv2 <- norm1
I0720 13:50:35.490612 31781 net.cpp:399] conv2 -> conv2
I0720 13:50:35.490648 31767 net.cpp:141] Setting up norm1
I0720 13:50:35.490665 31767 net.cpp:148] Top shape: 10 96 27 27 (699840)
I0720 13:50:35.490672 31767 net.cpp:156] Memory required for data: 35014200
I0720 13:50:35.490679 31767 layer_factory.hpp:77] Creating layer conv2
I0720 13:50:35.490708 31767 net.cpp:91] Creating Layer conv2
I0720 13:50:35.490717 31767 net.cpp:425] conv2 <- norm1
I0720 13:50:35.490728 31767 net.cpp:399] conv2 -> conv2
I0720 13:50:35.491328 31795 net.cpp:141] Setting up norm1
I0720 13:50:35.491343 31795 net.cpp:148] Top shape: 10 96 27 27 (699840)
I0720 13:50:35.491348 31795 net.cpp:156] Memory required for data: 35014200
I0720 13:50:35.491353 31795 layer_factory.hpp:77] Creating layer conv2
I0720 13:50:35.491367 31795 net.cpp:91] Creating Layer conv2
I0720 13:50:35.491372 31795 net.cpp:425] conv2 <- norm1
I0720 13:50:35.491380 31795 net.cpp:399] conv2 -> conv2
I0720 13:50:35.509846 31769 net.cpp:141] Setting up lstm1_transform_1
I0720 13:50:35.509881 31769 net.cpp:148] Top shape: 1 1 4000 (4000)
I0720 13:50:35.509886 31769 net.cpp:156] Memory required for data: 62016
I0720 13:50:35.509902 31769 layer_factory.hpp:77] Creating layer lstm1_gate_input_1
I0720 13:50:35.509918 31769 net.cpp:91] Creating Layer lstm1_gate_input_1
I0720 13:50:35.509925 31769 net.cpp:425] lstm1_gate_input_1 <- W_hc_h_0
I0720 13:50:35.509934 31769 net.cpp:425] lstm1_gate_input_1 <- W_xc_x_1
I0720 13:50:35.509927 31787 net.cpp:141] Setting up conv2
I0720 13:50:35.509950 31769 net.cpp:399] lstm1_gate_input_1 -> gate_input_1
I0720 13:50:35.509969 31787 net.cpp:148] Top shape: 10 256 27 27 (1866240)
I0720 13:50:35.509975 31787 net.cpp:156] Memory required for data: 42479160
I0720 13:50:35.509995 31787 layer_factory.hpp:77] Creating layer relu2
I0720 13:50:35.510011 31787 net.cpp:91] Creating Layer relu2
I0720 13:50:35.510010 31769 net.cpp:141] Setting up lstm1_gate_input_1
I0720 13:50:35.510020 31787 net.cpp:425] relu2 <- conv2
I0720 13:50:35.510026 31769 net.cpp:148] Top shape: 1 1 4000 (4000)
I0720 13:50:35.510030 31787 net.cpp:386] relu2 -> conv2 (in-place)
I0720 13:50:35.510031 31769 net.cpp:156] Memory required for data: 78016
I0720 13:50:35.510037 31769 layer_factory.hpp:77] Creating layer lstm1_unit_1
I0720 13:50:35.510046 31769 net.cpp:91] Creating Layer lstm1_unit_1
I0720 13:50:35.510051 31769 net.cpp:425] lstm1_unit_1 <- c_0
I0720 13:50:35.510056 31769 net.cpp:425] lstm1_unit_1 <- gate_input_1
I0720 13:50:35.510062 31769 net.cpp:425] lstm1_unit_1 <- cont_1_lstm1_cont_slice_0_split_1
I0720 13:50:35.510068 31769 net.cpp:399] lstm1_unit_1 -> c_1
I0720 13:50:35.510076 31769 net.cpp:399] lstm1_unit_1 -> h_1
I0720 13:50:35.512303 31769 net.cpp:141] Setting up lstm1_unit_1
I0720 13:50:35.512323 31769 net.cpp:148] Top shape: 1 1 1000 (1000)
I0720 13:50:35.512331 31769 net.cpp:148] Top shape: 1 1 1000 (1000)
I0720 13:50:35.512336 31769 net.cpp:156] Memory required for data: 86016
I0720 13:50:35.512341 31769 layer_factory.hpp:77] Creating layer lstm1_
I0720 13:50:35.512349 31769 net.cpp:91] Creating Layer lstm1_
I0720 13:50:35.512354 31769 net.cpp:425] lstm1_ <- c_1
I0720 13:50:35.512362 31769 net.cpp:399] lstm1_ -> c_T
I0720 13:50:35.512470 31787 net.cpp:141] Setting up relu2
I0720 13:50:35.512486 31787 net.cpp:148] Top shape: 10 256 27 27 (1866240)
I0720 13:50:35.512491 31787 net.cpp:156] Memory required for data: 49944120
I0720 13:50:35.512496 31787 layer_factory.hpp:77] Creating layer pool2
I0720 13:50:35.512507 31787 net.cpp:91] Creating Layer pool2
I0720 13:50:35.512511 31787 net.cpp:425] pool2 <- conv2
I0720 13:50:35.512521 31787 net.cpp:399] pool2 -> pool2
I0720 13:50:35.512537 31787 net.cpp:141] Setting up pool2
I0720 13:50:35.512543 31787 net.cpp:148] Top shape: 10 256 13 13 (432640)
I0720 13:50:35.512548 31787 net.cpp:156] Memory required for data: 51674680
I0720 13:50:35.512552 31787 layer_factory.hpp:77] Creating layer norm2
I0720 13:50:35.512567 31787 net.cpp:91] Creating Layer norm2
I0720 13:50:35.512573 31787 net.cpp:425] norm2 <- pool2
I0720 13:50:35.512580 31787 net.cpp:399] norm2 -> norm2
I0720 13:50:35.513593 31769 net.cpp:141] Setting up lstm1_
I0720 13:50:35.513619 31769 net.cpp:148] Top shape: 1 1 1000 (1000)
I0720 13:50:35.513625 31769 net.cpp:156] Memory required for data: 90016
I0720 13:50:35.513630 31769 layer_factory.hpp:77] Creating layer lstm1_h_concat
I0720 13:50:35.513640 31769 net.cpp:91] Creating Layer lstm1_h_concat
I0720 13:50:35.513645 31769 net.cpp:425] lstm1_h_concat <- h_1
I0720 13:50:35.513655 31769 net.cpp:399] lstm1_h_concat -> h
I0720 13:50:35.516463 31769 net.cpp:141] Setting up lstm1_h_concat
I0720 13:50:35.516479 31769 net.cpp:148] Top shape: 1 1 1000 (1000)
I0720 13:50:35.516484 31769 net.cpp:156] Memory required for data: 94016
I0720 13:50:35.516489 31769 layer_factory.hpp:77] Creating layer h_pseudoloss
I0720 13:50:35.516507 31769 net.cpp:91] Creating Layer h_pseudoloss
I0720 13:50:35.516512 31769 net.cpp:425] h_pseudoloss <- h
I0720 13:50:35.516520 31769 net.cpp:399] h_pseudoloss -> h_pseudoloss
I0720 13:50:35.518851 31769 net.cpp:141] Setting up h_pseudoloss
…
I0720 13:50:35.518982 31769 net.cpp:219] lstm1_ does not need backward computation.
I0720 13:50:35.518986 31769 net.cpp:261] This network produces output c_T
I0720 13:50:35.518991 31769 net.cpp:261] This network produces output h_pseudoloss
I0720 13:50:35.519011 31769 net.cpp:274] Network initialization done.
I0720 13:50:35.519068 31769 recurrent_layer.cpp:150] Adding parameter 0: W_xc
I0720 13:50:35.519074 31769 recurrent_layer.cpp:150] Adding parameter 1: b_c
I0720 13:50:35.519079 31769 recurrent_layer.cpp:150] Adding parameter 2: W_hc
I0720 13:50:35.521734 31787 net.cpp:141] Setting up norm2
I0720 13:50:35.521766 31787 net.cpp:148] Top shape: 10 256 13 13 (432640)
I0720 13:50:35.521771 31787 net.cpp:156] Memory required for data: 53405240
I0720 13:50:35.521778 31787 layer_factory.hpp:77] Creating layer conv3
I0720 13:50:35.521795 31787 net.cpp:91] Creating Layer conv3
I0720 13:50:35.521801 31787 net.cpp:425] conv3 <- norm2
I0720 13:50:35.521813 31787 net.cpp:399] conv3 -> conv3
I0720 13:50:35.521884 31769 net.cpp:141] Setting up lstm1
I0720 13:50:35.521903 31769 net.cpp:148] Top shape: 1 1 1000 (1000)
I0720 13:50:35.521908 31769 net.cpp:156] Memory required for data: 26408
I0720 13:50:35.521924 31769 layer_factory.hpp:77] Creating layer concat
I0720 13:50:35.521934 31769 net.cpp:91] Creating Layer concat
I0720 13:50:35.521939 31769 net.cpp:425] concat <- lstm1
I0720 13:50:35.521945 31769 net.cpp:425] concat <- embedded_input_sentence
I0720 13:50:35.521950 31769 net.cpp:425] concat <- reshaped_stage_indicator
I0720 13:50:35.521957 31769 net.cpp:399] concat -> lstm1_video_sequence
I0720 13:50:35.522002 31769 net.cpp:141] Setting up concat
I0720 13:50:35.522018 31769 net.cpp:148] Top shape: 1 1 1501 (1501)
I0720 13:50:35.522024 31769 net.cpp:156] Memory required for data: 32412
I0720 13:50:35.522028 31769 layer_factory.hpp:77] Creating layer lstm2
I0720 13:50:35.522042 31769 net.cpp:91] Creating Layer lstm2
I0720 13:50:35.522047 31769 net.cpp:425] lstm2 <- lstm1_video_sequence
I0720 13:50:35.522053 31769 net.cpp:425] lstm2 <- cont_sentence_input_1_split_1
I0720 13:50:35.522059 31769 net.cpp:399] lstm2 -> lstm2
I0720 13:50:35.522069 31769 recurrent_layer.cpp:20] Initializing recurrent layer: assuming input batch contains 1 timesteps of 1 independent streams.
I0720 13:50:35.522335 31769 net.cpp:49] Initializing net from parameters: 
layer {
  name: "lstm2_"
  type: "Input"
  top: "x"
  top: "cont"
  input_param {
    shape {
      dim: 1
      dim: 1
      dim: 1501
    }
    shape {
      dim: 1
      dim: 1
    }
  }
}
layer {
  name: "lstm2_"
  type: "Input"
  top: "c_0"
  top: "h_0"
  input_param {
    shape {
      dim: 1
      dim: 1
      dim: 1000
    }
    shape {
      dim: 1
      dim: 1
      dim: 1000
    }
  }
}
layer {
  name: "lstm2_cont_slice"
  type: "Slice"
  bottom: "cont"
  top: "cont_1"
  slice_param {
    axis: 0
  }
}
layer {
  name: "lstm2_x_transform"
  type: "InnerProduct"
  bottom: "x"
  top: "W_xc_x"
  param {
    name: "W_xc"
  }
  param {
    name: "b_c"
  }
  propagate_down: true
  inner_product_param {
    num_output: 4000
    bias_term: true
    weight_filler {
      type: "uniform"
      min: -0.08
      max: 0.08
    }
    bias_filler {
      type: "constant"
      value: 0
    }
    axis: 2
  }
}
layer {
  name: "lstm2_W_xc_x_slice"
  type: "Slice"
  bottom: "W_xc_x"
  top: "W_xc_x_1"
  slice_param {
    axis: 0
  }
}
layer {
  name: "lstm2_h_conted_0"
  type: "Scale"
  bottom: "h_0"
  bottom: "cont_1"
  top: "h_conted_0"
  scale_param {
    axis: 0
  }
}
layer {
  name: "lstm2_transform_1"
  type: "InnerProduct"
  bottom: "h_conted_0"
  top: "W_hc_h_0"
  param {
    name: "W_hc"
  }
  inner_product_param {
    num_output: 4000
    bias_term: false
    weight_filler {
      type: "uniform"
      min: -0.08
      max: 0.08
    }
    axis: 2
  }
}
layer {
  name: "lstm2_gate_input_1"
  type: "Eltwise"
  bottom: "W_hc_h_0"
  bottom: "W_xc_x_1"
  top: "gate_input_1"
  eltwise_param {
    operation: SUM
  }
}
layer {
  name: "lstm2_unit_1"
  type: "LSTMUnit"
  bottom: "c_0"
  bottom: "gate_input_1"
  bottom: "cont_1"
  top: "c_1"
  top: "h_1"
}
layer {
  name: "lstm2_"
  type: "Split"
  bottom: "c_1"
  top: "c_T"
}
layer {
  name: "lstm2_h_concat"
  type: "Concat"
  bottom: "h_1"
  top: "h"
  concat_param {
    axis: 0
  }
}
layer {
  name: "h_pseudoloss"
  type: "Reduction"
  bottom: "h"
  top: "h_pseudoloss"
  loss_weight: 1
}
I0720 13:50:35.522424 31769 layer_factory.hpp:77] Creating layer lstm2_
I0720 13:50:35.522435 31769 net.cpp:91] Creating Layer lstm2_
I0720 13:50:35.522441 31769 net.cpp:399] lstm2_ -> x
I0720 13:50:35.522452 31769 net.cpp:399] lstm2_ -> cont
I0720 13:50:35.523306 31799 net.cpp:141] Setting up conv2
I0720 13:50:35.523324 31799 net.cpp:148] Top shape: 10 256 27 27 (1866240)
I0720 13:50:35.523330 31799 net.cpp:156] Memory required for data: 42479160
I0720 13:50:35.523351 31799 layer_factory.hpp:77] Creating layer relu2
I0720 13:50:35.523362 31799 net.cpp:91] Creating Layer relu2
I0720 13:50:35.523361 31769 net.cpp:141] Setting up lstm2_
I0720 13:50:35.523370 31799 net.cpp:425] relu2 <- conv2
I0720 13:50:35.523386 31769 net.cpp:148] Top shape: 1 1 1501 (1501)
I0720 13:50:35.523386 31799 net.cpp:386] relu2 -> conv2 (in-place)
I0720 13:50:35.523393 31769 net.cpp:148] Top shape: 1 1 (1)
I0720 13:50:35.523397 31769 net.cpp:156] Memory required for data: 6008
I0720 13:50:35.523403 31769 layer_factory.hpp:77] Creating layer lstm2_
I0720 13:50:35.523413 31769 net.cpp:91] Creating Layer lstm2_
I0720 13:50:35.523421 31769 net.cpp:399] lstm2_ -> c_0
I0720 13:50:35.523437 31769 net.cpp:399] lstm2_ -> h_0
I0720 13:50:35.523670 31783 net.cpp:141] Setting up conv2
I0720 13:50:35.523690 31783 net.cpp:148] Top shape: 10 256 27 27 (1866240)
I0720 13:50:35.523696 31783 net.cpp:156] Memory required for data: 42479160
I0720 13:50:35.523710 31783 layer_factory.hpp:77] Creating layer relu2
I0720 13:50:35.523718 31783 net.cpp:91] Creating Layer relu2
I0720 13:50:35.523723 31783 net.cpp:425] relu2 <- conv2
I0720 13:50:35.523730 31783 net.cpp:386] relu2 -> conv2 (in-place)
I0720 13:50:35.524379 31781 net.cpp:141] Setting up conv2
I0720 13:50:35.524395 31781 net.cpp:148] Top shape: 10 256 27 27 (1866240)
I0720 13:50:35.524400 31781 net.cpp:156] Memory required for data: 42479160
I0720 13:50:35.524415 31781 layer_factory.hpp:77] Creating layer relu2
I0720 13:50:35.524425 31781 net.cpp:91] Creating Layer relu2
I0720 13:50:35.524431 31781 net.cpp:425] relu2 <- conv2
I0720 13:50:35.524438 31781 net.cpp:386] relu2 -> conv2 (in-place)
I0720 13:50:35.524441 31769 net.cpp:141] Setting up lstm2_
I0720 13:50:35.524459 31769 net.cpp:148] Top shape: 1 1 1000 (1000)
I0720 13:50:35.524467 31769 net.cpp:148] Top shape: 1 1 1000 (1000)
I0720 13:50:35.524471 31769 net.cpp:156] Memory required for data: 14008
I0720 13:50:35.524477 31769 layer_factory.hpp:77] Creating layer lstm2_cont_slice
I0720 13:50:35.524490 31769 net.cpp:91] Creating Layer lstm2_cont_slice
I0720 13:50:35.524495 31769 net.cpp:425] lstm2_cont_slice <- cont
I0720 13:50:35.524503 31769 net.cpp:399] lstm2_cont_slice -> cont_1
I0720 13:50:35.524549 31769 net.cpp:141] Setting up lstm2_cont_slice
I0720 13:50:35.524559 31769 net.cpp:148] Top shape: 1 1 (1)
I0720 13:50:35.524564 31769 net.cpp:156] Memory required for data: 14012
I0720 13:50:35.524567 31769 layer_factory.hpp:77] Creating layer cont_1_lstm2_cont_slice_0_split
I0720 13:50:35.524574 31769 net.cpp:91] Creating Layer cont_1_lstm2_cont_slice_0_split
I0720 13:50:35.524579 31769 net.cpp:425] cont_1_lstm2_cont_slice_0_split <- cont_1
I0720 13:50:35.524588 31769 net.cpp:399] cont_1_lstm2_cont_slice_0_split -> cont_1_lstm2_cont_slice_0_split_0
I0720 13:50:35.524596 31769 net.cpp:399] cont_1_lstm2_cont_slice_0_split -> cont_1_lstm2_cont_slice_0_split_1
I0720 13:50:35.525369 31767 net.cpp:141] Setting up conv2
I0720 13:50:35.525384 31767 net.cpp:148] Top shape: 10 256 27 27 (1866240)
I0720 13:50:35.525389 31767 net.cpp:156] Memory required for data: 42479160
I0720 13:50:35.525403 31767 layer_factory.hpp:77] Creating layer relu2
I0720 13:50:35.525418 31767 net.cpp:91] Creating Layer relu2
I0720 13:50:35.525424 31767 net.cpp:425] relu2 <- conv2
I0720 13:50:35.525430 31767 net.cpp:386] relu2 -> conv2 (in-place)
I0720 13:50:35.527683 31781 net.cpp:141] Setting up relu2
I0720 13:50:35.527699 31781 net.cpp:148] Top shape: 10 256 27 27 (1866240)
I0720 13:50:35.527704 31781 net.cpp:156] Memory required for data: 49944120
I0720 13:50:35.527711 31781 layer_factory.hpp:77] Creating layer pool2
I0720 13:50:35.527712 31769 net.cpp:141] Setting up cont_1_lstm2_cont_slice_0_split
I0720 13:50:35.527727 31781 net.cpp:91] Creating Layer pool2
I0720 13:50:35.527727 31769 net.cpp:148] Top shape: 1 1 (1)
I0720 13:50:35.527739 31781 net.cpp:425] pool2 <- conv2
I0720 13:50:35.527746 31769 net.cpp:148] Top shape: 1 1 (1)
I0720 13:50:35.527750 31781 net.cpp:399] pool2 -> pool2
I0720 13:50:35.527755 31769 net.cpp:156] Memory required for data: 14020
I0720 13:50:35.527765 31769 layer_factory.hpp:77] Creating layer lstm2_x_transform
I0720 13:50:35.527766 31781 net.cpp:141] Setting up pool2
I0720 13:50:35.527781 31781 net.cpp:148] Top shape: 10 256 13 13 (432640)
I0720 13:50:35.527784 31781 net.cpp:156] Memory required for data: 51674680
I0720 13:50:35.527789 31781 layer_factory.hpp:77] Creating layer norm2
I0720 13:50:35.527791 31769 net.cpp:91] Creating Layer lstm2_x_transform
I0720 13:50:35.527798 31769 net.cpp:425] lstm2_x_transform <- x
I0720 13:50:35.527807 31769 net.cpp:399] lstm2_x_transform -> W_xc_x
I0720 13:50:35.527809 31781 net.cpp:91] Creating Layer norm2
I0720 13:50:35.527818 31781 net.cpp:425] norm2 <- pool2
I0720 13:50:35.527827 31781 net.cpp:399] norm2 -> norm2
I0720 13:50:35.528182 31793 net.cpp:141] Setting up conv2
I0720 13:50:35.528197 31793 net.cpp:148] Top shape: 10 256 27 27 (1866240)
I0720 13:50:35.528200 31793 net.cpp:156] Memory required for data: 42479160
I0720 13:50:35.528213 31793 layer_factory.hpp:77] Creating layer relu2
I0720 13:50:35.528220 31793 net.cpp:91] Creating Layer relu2
I0720 13:50:35.528225 31793 net.cpp:425] relu2 <- conv2
I0720 13:50:35.528233 31793 net.cpp:386] relu2 -> conv2 (in-place)
I0720 13:50:35.543428 31793 net.cpp:141] Setting up relu2
I0720 13:50:35.543479 31793 net.cpp:148] Top shape: 10 256 27 27 (1866240)
I0720 13:50:35.543488 31793 net.cpp:156] Memory required for data: 49944120
I0720 13:50:35.543503 31793 layer_factory.hpp:77] Creating layer pool2
I0720 13:50:35.543524 31793 net.cpp:91] Creating Layer pool2
I0720 13:50:35.543530 31793 net.cpp:425] pool2 <- conv2
I0720 13:50:35.543545 31793 net.cpp:399] pool2 -> pool2
I0720 13:50:35.543566 31793 net.cpp:141] Setting up pool2
I0720 13:50:35.543573 31793 net.cpp:148] Top shape: 10 256 13 13 (432640)
I0720 13:50:35.543577 31793 net.cpp:156] Memory required for data: 51674680
I0720 13:50:35.543582 31793 layer_factory.hpp:77] Creating layer norm2
I0720 13:50:35.543597 31793 net.cpp:91] Creating Layer norm2
I0720 13:50:35.543601 31793 net.cpp:425] norm2 <- pool2
I0720 13:50:35.543608 31793 net.cpp:399] norm2 -> norm2
I0720 13:50:35.544648 31799 net.cpp:141] Setting up relu2
I0720 13:50:35.544657 31783 net.cpp:141] Setting up relu2
I0720 13:50:35.544672 31799 net.cpp:148] Top shape: 10 256 27 27 (1866240)
I0720 13:50:35.544677 31783 net.cpp:148] Top shape: 10 256 27 27 (1866240)
I0720 13:50:35.544682 31783 net.cpp:156] Memory required for data: 49944120
I0720 13:50:35.544683 31799 net.cpp:156] Memory required for data: 49944120
I0720 13:50:35.544688 31783 layer_factory.hpp:77] Creating layer pool2
I0720 13:50:35.544687 31795 net.cpp:141] Setting up conv2
I0720 13:50:35.544693 31799 layer_factory.hpp:77] Creating layer pool2
I0720 13:50:35.544699 31783 net.cpp:91] Creating Layer pool2
I0720 13:50:35.544705 31783 net.cpp:425] pool2 <- conv2
I0720 13:50:35.544705 31795 net.cpp:148] Top shape: 10 256 27 27 (1866240)
I0720 13:50:35.544710 31799 net.cpp:91] Creating Layer pool2
I0720 13:50:35.544715 31783 net.cpp:399] pool2 -> pool2
I0720 13:50:35.544719 31799 net.cpp:425] pool2 <- conv2
I0720 13:50:35.544714 31795 net.cpp:156] Memory required for data: 42479160
I0720 13:50:35.544731 31799 net.cpp:399] pool2 -> pool2
I0720 13:50:35.544734 31783 net.cpp:141] Setting up pool2
I0720 13:50:35.544747 31795 layer_factory.hpp:77] Creating layer relu2
I0720 13:50:35.544754 31799 net.cpp:141] Setting up pool2
I0720 13:50:35.544747 31783 net.cpp:148] Top shape: 10 256 13 13 (432640)
I0720 13:50:35.544764 31783 net.cpp:156] Memory required for data: 51674680
I0720 13:50:35.544765 31799 net.cpp:148] Top shape: 10 256 13 13 (432640)
I0720 13:50:35.544778 31783 layer_factory.hpp:77] Creating layer norm2
I0720 13:50:35.544773 31795 net.cpp:91] Creating Layer relu2
I0720 13:50:35.544786 31799 net.cpp:156] Memory required for data: 51674680
I0720 13:50:35.544790 31795 net.cpp:425] relu2 <- conv2
I0720 13:50:35.544793 31783 net.cpp:91] Creating Layer norm2
I0720 13:50:35.544795 31799 layer_factory.hpp:77] Creating layer norm2
I0720 13:50:35.544800 31783 net.cpp:425] norm2 <- pool2
I0720 13:50:35.544801 31795 net.cpp:386] relu2 -> conv2 (in-place)
I0720 13:50:35.544807 31783 net.cpp:399] norm2 -> norm2
I0720 13:50:35.544814 31799 net.cpp:91] Creating Layer norm2
I0720 13:50:35.544824 31799 net.cpp:425] norm2 <- pool2
I0720 13:50:35.544839 31799 net.cpp:399] norm2 -> norm2
I0720 13:50:35.545967 31767 net.cpp:141] Setting up relu2
I0720 13:50:35.545975 31781 net.cpp:141] Setting up norm2
I0720 13:50:35.545982 31767 net.cpp:148] Top shape: 10 256 27 27 (1866240)
I0720 13:50:35.545987 31767 net.cpp:156] Memory required for data: 49944120
I0720 13:50:35.545992 31767 layer_factory.hpp:77] Creating layer pool2
I0720 13:50:35.545991 31781 net.cpp:148] Top shape: 10 256 13 13 (432640)
I0720 13:50:35.546005 31781 net.cpp:156] Memory required for data: 53405240
I0720 13:50:35.546008 31767 net.cpp:91] Creating Layer pool2
I0720 13:50:35.546015 31767 net.cpp:425] pool2 <- conv2
I0720 13:50:35.546015 31781 layer_factory.hpp:77] Creating layer conv3
I0720 13:50:35.546022 31767 net.cpp:399] pool2 -> pool2
I0720 13:50:35.546036 31767 net.cpp:141] Setting up pool2
I0720 13:50:35.546037 31781 net.cpp:91] Creating Layer conv3
I0720 13:50:35.546044 31767 net.cpp:148] Top shape: 10 256 13 13 (432640)
I0720 13:50:35.546044 31781 net.cpp:425] conv3 <- norm2
I0720 13:50:35.546052 31767 net.cpp:156] Memory required for data: 51674680
I0720 13:50:35.546057 31767 layer_factory.hpp:77] Creating layer norm2
I0720 13:50:35.546061 31781 net.cpp:399] conv3 -> conv3
I0720 13:50:35.546066 31767 net.cpp:91] Creating Layer norm2
I0720 13:50:35.546072 31767 net.cpp:425] norm2 <- pool2
I0720 13:50:35.546082 31767 net.cpp:399] norm2 -> norm2
I0720 13:50:35.548012 31789 net.cpp:141] Setting up conv2
I0720 13:50:35.548033 31789 net.cpp:148] Top shape: 10 256 27 27 (1866240)
I0720 13:50:35.548038 31789 net.cpp:156] Memory required for data: 42479160
I0720 13:50:35.548053 31789 layer_factory.hpp:77] Creating layer relu2
I0720 13:50:35.548063 31789 net.cpp:91] Creating Layer relu2
I0720 13:50:35.548069 31789 net.cpp:425] relu2 <- conv2
I0720 13:50:35.548075 31789 net.cpp:386] relu2 -> conv2 (in-place)
I0720 13:50:35.548439 31799 net.cpp:141] Setting up norm2
I0720 13:50:35.548454 31799 net.cpp:148] Top shape: 10 256 13 13 (432640)
I0720 13:50:35.548460 31799 net.cpp:156] Memory required for data: 53405240
I0720 13:50:35.548465 31799 layer_factory.hpp:77] Creating layer conv3
I0720 13:50:35.548480 31799 net.cpp:91] Creating Layer conv3
I0720 13:50:35.548485 31799 net.cpp:425] conv3 <- norm2
I0720 13:50:35.548497 31799 net.cpp:399] conv3 -> conv3
I0720 13:50:35.550680 31801 net.cpp:141] Setting up conv2
I0720 13:50:35.550719 31801 net.cpp:148] Top shape: 10 256 27 27 (1866240)
I0720 13:50:35.550727 31801 net.cpp:156] Memory required for data: 42479160
I0720 13:50:35.550745 31801 layer_factory.hpp:77] Creating layer relu2
I0720 13:50:35.550760 31801 net.cpp:91] Creating Layer relu2
I0720 13:50:35.550771 31801 net.cpp:425] relu2 <- conv2
I0720 13:50:35.550781 31801 net.cpp:386] relu2 -> conv2 (in-place)
I0720 13:50:35.552016 31793 net.cpp:141] Setting up norm2
I0720 13:50:35.552039 31793 net.cpp:148] Top shape: 10 256 13 13 (432640)
I0720 13:50:35.552050 31793 net.cpp:156] Memory required for data: 53405240
I0720 13:50:35.552060 31793 layer_factory.hpp:77] Creating layer conv3
I0720 13:50:35.552086 31793 net.cpp:91] Creating Layer conv3
I0720 13:50:35.552098 31793 net.cpp:425] conv3 <- norm2
I0720 13:50:35.552112 31793 net.cpp:399] conv3 -> conv3
I0720 13:50:35.552232 31795 net.cpp:141] Setting up relu2
I0720 13:50:35.552247 31795 net.cpp:148] Top shape: 10 256 27 27 (1866240)
I0720 13:50:35.552251 31795 net.cpp:156] Memory required for data: 49944120
I0720 13:50:35.552256 31795 layer_factory.hpp:77] Creating layer pool2
I0720 13:50:35.552278 31795 net.cpp:91] Creating Layer pool2
I0720 13:50:35.552285 31795 net.cpp:425] pool2 <- conv2
I0720 13:50:35.552292 31795 net.cpp:399] pool2 -> pool2
I0720 13:50:35.552307 31795 net.cpp:141] Setting up pool2
I0720 13:50:35.552314 31795 net.cpp:148] Top shape: 10 256 13 13 (432640)
I0720 13:50:35.552319 31795 net.cpp:156] Memory required for data: 51674680
I0720 13:50:35.552322 31795 layer_factory.hpp:77] Creating layer norm2
I0720 13:50:35.552336 31795 net.cpp:91] Creating Layer norm2
I0720 13:50:35.552343 31795 net.cpp:425] norm2 <- pool2
I0720 13:50:35.552358 31795 net.cpp:399] norm2 -> norm2
I0720 13:50:35.552402 31789 net.cpp:141] Setting up relu2
I0720 13:50:35.552417 31789 net.cpp:148] Top shape: 10 256 27 27 (1866240)
I0720 13:50:35.552423 31789 net.cpp:156] Memory required for data: 49944120
I0720 13:50:35.552428 31789 layer_factory.hpp:77] Creating layer pool2
I0720 13:50:35.552438 31789 net.cpp:91] Creating Layer pool2
I0720 13:50:35.552444 31789 net.cpp:425] pool2 <- conv2
I0720 13:50:35.552458 31789 net.cpp:399] pool2 -> pool2
I0720 13:50:35.552470 31789 net.cpp:141] Setting up pool2
I0720 13:50:35.552477 31789 net.cpp:148] Top shape: 10 256 13 13 (432640)
I0720 13:50:35.552481 31789 net.cpp:156] Memory required for data: 51674680
I0720 13:50:35.552485 31789 layer_factory.hpp:77] Creating layer norm2
I0720 13:50:35.552497 31789 net.cpp:91] Creating Layer norm2
I0720 13:50:35.552502 31789 net.cpp:425] norm2 <- pool2
I0720 13:50:35.552510 31789 net.cpp:399] norm2 -> norm2
I0720 13:50:35.553671 31777 net.cpp:141] Setting up conv2
I0720 13:50:35.553691 31777 net.cpp:148] Top shape: 10 256 27 27 (1866240)
I0720 13:50:35.553696 31777 net.cpp:156] Memory required for data: 42479160
I0720 13:50:35.553709 31777 layer_factory.hpp:77] Creating layer relu2
I0720 13:50:35.553719 31777 net.cpp:91] Creating Layer relu2
I0720 13:50:35.553724 31777 net.cpp:425] relu2 <- conv2
I0720 13:50:35.553730 31777 net.cpp:386] relu2 -> conv2 (in-place)
I0720 13:50:35.554707 31795 net.cpp:141] Setting up norm2
I0720 13:50:35.554723 31795 net.cpp:148] Top shape: 10 256 13 13 (432640)
I0720 13:50:35.554728 31795 net.cpp:156] Memory required for data: 53405240
I0720 13:50:35.554733 31795 layer_factory.hpp:77] Creating layer conv3
I0720 13:50:35.554752 31795 net.cpp:91] Creating Layer conv3
I0720 13:50:35.554762 31795 net.cpp:425] conv3 <- norm2
I0720 13:50:35.554770 31795 net.cpp:399] conv3 -> conv3
I0720 13:50:35.556908 31767 net.cpp:141] Setting up norm2
I0720 13:50:35.556931 31767 net.cpp:148] Top shape: 10 256 13 13 (432640)
I0720 13:50:35.556936 31767 net.cpp:156] Memory required for data: 53405240
I0720 13:50:35.556942 31767 layer_factory.hpp:77] Creating layer conv3
I0720 13:50:35.556959 31767 net.cpp:91] Creating Layer conv3
I0720 13:50:35.556967 31767 net.cpp:425] conv3 <- norm2
I0720 13:50:35.556977 31767 net.cpp:399] conv3 -> conv3
I0720 13:50:35.557464 31783 net.cpp:141] Setting up norm2
I0720 13:50:35.557485 31783 net.cpp:148] Top shape: 10 256 13 13 (432640)
I0720 13:50:35.557494 31783 net.cpp:156] Memory required for data: 53405240
I0720 13:50:35.557504 31783 layer_factory.hpp:77] Creating layer conv3
I0720 13:50:35.557525 31783 net.cpp:91] Creating Layer conv3
I0720 13:50:35.557535 31783 net.cpp:425] conv3 <- norm2
I0720 13:50:35.557549 31783 net.cpp:399] conv3 -> conv3
I0720 13:50:35.558663 31801 net.cpp:141] Setting up relu2
I0720 13:50:35.558697 31801 net.cpp:148] Top shape: 10 256 27 27 (1866240)
I0720 13:50:35.558707 31801 net.cpp:156] Memory required for data: 49944120
I0720 13:50:35.558717 31801 layer_factory.hpp:77] Creating layer pool2
I0720 13:50:35.558734 31801 net.cpp:91] Creating Layer pool2
I0720 13:50:35.558743 31801 net.cpp:425] pool2 <- conv2
I0720 13:50:35.558754 31801 net.cpp:399] pool2 -> pool2
I0720 13:50:35.558773 31801 net.cpp:141] Setting up pool2
I0720 13:50:35.558781 31789 net.cpp:141] Setting up norm2
I0720 13:50:35.558784 31801 net.cpp:148] Top shape: 10 256 13 13 (432640)
I0720 13:50:35.558800 31789 net.cpp:148] Top shape: 10 256 13 13 (432640)
I0720 13:50:35.558800 31801 net.cpp:156] Memory required for data: 51674680
I0720 13:50:35.558809 31789 net.cpp:156] Memory required for data: 53405240
I0720 13:50:35.558814 31801 layer_factory.hpp:77] Creating layer norm2
I0720 13:50:35.558815 31789 layer_factory.hpp:77] Creating layer conv3
I0720 13:50:35.558843 31801 net.cpp:91] Creating Layer norm2
I0720 13:50:35.558847 31789 net.cpp:91] Creating Layer conv3
I0720 13:50:35.558852 31801 net.cpp:425] norm2 <- pool2
I0720 13:50:35.558858 31789 net.cpp:425] conv3 <- norm2
I0720 13:50:35.558869 31789 net.cpp:399] conv3 -> conv3
I0720 13:50:35.558873 31801 net.cpp:399] norm2 -> norm2
I0720 13:50:35.560398 31787 net.cpp:141] Setting up conv3
I0720 13:50:35.560439 31787 net.cpp:148] Top shape: 10 384 13 13 (648960)
I0720 13:50:35.560446 31787 net.cpp:156] Memory required for data: 56001080
I0720 13:50:35.560467 31787 layer_factory.hpp:77] Creating layer relu3
I0720 13:50:35.560485 31787 net.cpp:91] Creating Layer relu3
I0720 13:50:35.560492 31787 net.cpp:425] relu3 <- conv3
I0720 13:50:35.560502 31787 net.cpp:386] relu3 -> conv3 (in-place)
I0720 13:50:35.562372 31777 net.cpp:141] Setting up relu2
I0720 13:50:35.562397 31777 net.cpp:148] Top shape: 10 256 27 27 (1866240)
I0720 13:50:35.562402 31777 net.cpp:156] Memory required for data: 49944120
I0720 13:50:35.562408 31777 layer_factory.hpp:77] Creating layer pool2
I0720 13:50:35.562427 31777 net.cpp:91] Creating Layer pool2
I0720 13:50:35.562432 31777 net.cpp:425] pool2 <- conv2
I0720 13:50:35.562443 31777 net.cpp:399] pool2 -> pool2
I0720 13:50:35.562458 31777 net.cpp:141] Setting up pool2
I0720 13:50:35.562463 31777 net.cpp:148] Top shape: 10 256 13 13 (432640)
I0720 13:50:35.562468 31777 net.cpp:156] Memory required for data: 51674680
I0720 13:50:35.562472 31777 layer_factory.hpp:77] Creating layer norm2
I0720 13:50:35.562484 31777 net.cpp:91] Creating Layer norm2
I0720 13:50:35.562489 31777 net.cpp:425] norm2 <- pool2
I0720 13:50:35.562495 31777 net.cpp:399] norm2 -> norm2
I0720 13:50:35.563236 31801 net.cpp:141] Setting up norm2
I0720 13:50:35.563258 31801 net.cpp:148] Top shape: 10 256 13 13 (432640)
I0720 13:50:35.563266 31801 net.cpp:156] Memory required for data: 53405240
I0720 13:50:35.563274 31801 layer_factory.hpp:77] Creating layer conv3
I0720 13:50:35.563290 31801 net.cpp:91] Creating Layer conv3
I0720 13:50:35.563298 31801 net.cpp:425] conv3 <- norm2
I0720 13:50:35.563313 31801 net.cpp:399] conv3 -> conv3
I0720 13:50:35.565783 31787 net.cpp:141] Setting up relu3
I0720 13:50:35.565799 31787 net.cpp:148] Top shape: 10 384 13 13 (648960)
I0720 13:50:35.565804 31787 net.cpp:156] Memory required for data: 58596920
I0720 13:50:35.565809 31787 layer_factory.hpp:77] Creating layer conv4
I0720 13:50:35.565830 31787 net.cpp:91] Creating Layer conv4
I0720 13:50:35.565836 31787 net.cpp:425] conv4 <- conv3
I0720 13:50:35.565845 31787 net.cpp:399] conv4 -> conv4
I0720 13:50:35.565883 31793 net.cpp:141] Setting up conv3
I0720 13:50:35.565902 31793 net.cpp:148] Top shape: 10 384 13 13 (648960)
I0720 13:50:35.565907 31793 net.cpp:156] Memory required for data: 56001080
I0720 13:50:35.565922 31793 layer_factory.hpp:77] Creating layer relu3
I0720 13:50:35.565932 31793 net.cpp:91] Creating Layer relu3
I0720 13:50:35.565938 31793 net.cpp:425] relu3 <- conv3
I0720 13:50:35.565949 31793 net.cpp:386] relu3 -> conv3 (in-place)
I0720 13:50:35.569114 31799 net.cpp:141] Setting up conv3
I0720 13:50:35.569150 31799 net.cpp:148] Top shape: 10 384 13 13 (648960)
I0720 13:50:35.569156 31799 net.cpp:156] Memory required for data: 56001080
I0720 13:50:35.569177 31799 layer_factory.hpp:77] Creating layer relu3
I0720 13:50:35.569190 31799 net.cpp:91] Creating Layer relu3
I0720 13:50:35.569195 31799 net.cpp:425] relu3 <- conv3
I0720 13:50:35.569203 31799 net.cpp:386] relu3 -> conv3 (in-place)
I0720 13:50:35.570714 31777 net.cpp:141] Setting up norm2
I0720 13:50:35.570739 31777 net.cpp:148] Top shape: 10 256 13 13 (432640)
I0720 13:50:35.570749 31777 net.cpp:156] Memory required for data: 53405240
I0720 13:50:35.570758 31777 layer_factory.hpp:77] Creating layer conv3
I0720 13:50:35.570785 31777 net.cpp:91] Creating Layer conv3
I0720 13:50:35.570793 31777 net.cpp:425] conv3 <- norm2
I0720 13:50:35.570801 31777 net.cpp:399] conv3 -> conv3
I0720 13:50:35.572526 31781 net.cpp:141] Setting up conv3
I0720 13:50:35.572559 31781 net.cpp:148] Top shape: 10 384 13 13 (648960)
I0720 13:50:35.572569 31781 net.cpp:156] Memory required for data: 56001080
I0720 13:50:35.572594 31781 layer_factory.hpp:77] Creating layer relu3
I0720 13:50:35.572613 31781 net.cpp:91] Creating Layer relu3
I0720 13:50:35.572624 31781 net.cpp:425] relu3 <- conv3
I0720 13:50:35.572643 31781 net.cpp:386] relu3 -> conv3 (in-place)
I0720 13:50:35.576395 31799 net.cpp:141] Setting up relu3
I0720 13:50:35.576426 31799 net.cpp:148] Top shape: 10 384 13 13 (648960)
I0720 13:50:35.576432 31799 net.cpp:156] Memory required for data: 58596920
I0720 13:50:35.576438 31799 layer_factory.hpp:77] Creating layer conv4
I0720 13:50:35.576455 31799 net.cpp:91] Creating Layer conv4
I0720 13:50:35.576462 31799 net.cpp:425] conv4 <- conv3
I0720 13:50:35.576472 31799 net.cpp:399] conv4 -> conv4
I0720 13:50:35.577546 31767 net.cpp:141] Setting up conv3
I0720 13:50:35.577581 31767 net.cpp:148] Top shape: 10 384 13 13 (648960)
I0720 13:50:35.577597 31767 net.cpp:156] Memory required for data: 56001080
I0720 13:50:35.577630 31767 layer_factory.hpp:77] Creating layer relu3
I0720 13:50:35.577649 31767 net.cpp:91] Creating Layer relu3
I0720 13:50:35.577661 31767 net.cpp:425] relu3 <- conv3
I0720 13:50:35.577675 31767 net.cpp:386] relu3 -> conv3 (in-place)
I0720 13:50:35.579314 31767 net.cpp:141] Setting up relu3
I0720 13:50:35.579340 31767 net.cpp:148] Top shape: 10 384 13 13 (648960)
I0720 13:50:35.579350 31767 net.cpp:156] Memory required for data: 58596920
I0720 13:50:35.579360 31767 layer_factory.hpp:77] Creating layer conv4
I0720 13:50:35.579392 31767 net.cpp:91] Creating Layer conv4
I0720 13:50:35.579404 31767 net.cpp:425] conv4 <- conv3
I0720 13:50:35.579421 31767 net.cpp:399] conv4 -> conv4
I0720 13:50:35.581399 31793 net.cpp:141] Setting up relu3
I0720 13:50:35.581435 31793 net.cpp:148] Top shape: 10 384 13 13 (648960)
I0720 13:50:35.581441 31793 net.cpp:156] Memory required for data: 58596920
I0720 13:50:35.581449 31793 layer_factory.hpp:77] Creating layer conv4
I0720 13:50:35.581470 31793 net.cpp:91] Creating Layer conv4
I0720 13:50:35.581475 31793 net.cpp:425] conv4 <- conv3
I0720 13:50:35.581487 31793 net.cpp:399] conv4 -> conv4
I0720 13:50:35.588699 31801 net.cpp:141] Setting up conv3
I0720 13:50:35.588747 31801 net.cpp:148] Top shape: 10 384 13 13 (648960)
I0720 13:50:35.588757 31801 net.cpp:156] Memory required for data: 56001080
I0720 13:50:35.588783 31801 layer_factory.hpp:77] Creating layer relu3
I0720 13:50:35.588800 31801 net.cpp:91] Creating Layer relu3
I0720 13:50:35.588810 31801 net.cpp:425] relu3 <- conv3
I0720 13:50:35.588827 31801 net.cpp:386] relu3 -> conv3 (in-place)
I0720 13:50:35.593071 31769 net.cpp:141] Setting up lstm2_x_transform
I0720 13:50:35.593104 31769 net.cpp:148] Top shape: 1 1 4000 (4000)
I0720 13:50:35.593114 31769 net.cpp:156] Memory required for data: 30020
I0720 13:50:35.593137 31769 layer_factory.hpp:77] Creating layer lstm2_W_xc_x_slice
I0720 13:50:35.593159 31769 net.cpp:91] Creating Layer lstm2_W_xc_x_slice
I0720 13:50:35.593169 31769 net.cpp:425] lstm2_W_xc_x_slice <- W_xc_x
I0720 13:50:35.593184 31769 net.cpp:399] lstm2_W_xc_x_slice -> W_xc_x_1
I0720 13:50:35.593250 31769 net.cpp:141] Setting up lstm2_W_xc_x_slice
I0720 13:50:35.593261 31769 net.cpp:148] Top shape: 1 1 4000 (4000)
I0720 13:50:35.593266 31769 net.cpp:156] Memory required for data: 46020
I0720 13:50:35.593269 31769 layer_factory.hpp:77] Creating layer lstm2_h_conted_0
I0720 13:50:35.593283 31769 net.cpp:91] Creating Layer lstm2_h_conted_0
I0720 13:50:35.593289 31769 net.cpp:425] lstm2_h_conted_0 <- h_0
I0720 13:50:35.593296 31769 net.cpp:425] lstm2_h_conted_0 <- cont_1_lstm2_cont_slice_0_split_0
I0720 13:50:35.593302 31769 net.cpp:399] lstm2_h_conted_0 -> h_conted_0
I0720 13:50:35.593500 31783 net.cpp:141] Setting up conv3
I0720 13:50:35.593518 31783 net.cpp:148] Top shape: 10 384 13 13 (648960)
I0720 13:50:35.593524 31783 net.cpp:156] Memory required for data: 56001080
I0720 13:50:35.593544 31783 layer_factory.hpp:77] Creating layer relu3
I0720 13:50:35.593556 31783 net.cpp:91] Creating Layer relu3
I0720 13:50:35.593562 31783 net.cpp:425] relu3 <- conv3
I0720 13:50:35.593569 31783 net.cpp:386] relu3 -> conv3 (in-place)
I0720 13:50:35.594485 31781 net.cpp:141] Setting up relu3
I0720 13:50:35.594518 31781 net.cpp:148] Top shape: 10 384 13 13 (648960)
I0720 13:50:35.594524 31781 net.cpp:156] Memory required for data: 58596920
I0720 13:50:35.594532 31781 layer_factory.hpp:77] Creating layer conv4
I0720 13:50:35.594552 31781 net.cpp:91] Creating Layer conv4
I0720 13:50:35.594558 31781 net.cpp:425] conv4 <- conv3
I0720 13:50:35.594570 31781 net.cpp:399] conv4 -> conv4
I0720 13:50:35.594682 31769 net.cpp:141] Setting up lstm2_h_conted_0
I0720 13:50:35.594707 31769 net.cpp:148] Top shape: 1 1 1000 (1000)
I0720 13:50:35.594713 31769 net.cpp:156] Memory required for data: 50020
I0720 13:50:35.594718 31769 layer_factory.hpp:77] Creating layer lstm2_transform_1
I0720 13:50:35.594732 31769 net.cpp:91] Creating Layer lstm2_transform_1
I0720 13:50:35.594736 31769 net.cpp:425] lstm2_transform_1 <- h_conted_0
I0720 13:50:35.594745 31769 net.cpp:399] lstm2_transform_1 -> W_hc_h_0
I0720 13:50:35.608764 31789 net.cpp:141] Setting up conv3
I0720 13:50:35.608793 31777 net.cpp:141] Setting up conv3
I0720 13:50:35.608816 31777 net.cpp:148] Top shape: 10 384 13 13 (648960)
I0720 13:50:35.608816 31789 net.cpp:148] Top shape: 10 384 13 13 (648960)
I0720 13:50:35.608826 31777 net.cpp:156] Memory required for data: 56001080
I0720 13:50:35.608829 31789 net.cpp:156] Memory required for data: 56001080
I0720 13:50:35.608839 31783 net.cpp:141] Setting up relu3
I0720 13:50:35.608855 31783 net.cpp:148] Top shape: 10 384 13 13 (648960)
I0720 13:50:35.608856 31789 layer_factory.hpp:77] Creating layer relu3
I0720 13:50:35.608862 31783 net.cpp:156] Memory required for data: 58596920
I0720 13:50:35.608856 31777 layer_factory.hpp:77] Creating layer relu3
I0720 13:50:35.608883 31783 layer_factory.hpp:77] Creating layer conv4
I0720 13:50:35.608894 31789 net.cpp:91] Creating Layer relu3
I0720 13:50:35.608906 31783 net.cpp:91] Creating Layer conv4
I0720 13:50:35.608894 31777 net.cpp:91] Creating Layer relu3
I0720 13:50:35.608916 31783 net.cpp:425] conv4 <- conv3
I0720 13:50:35.608919 31777 net.cpp:425] relu3 <- conv3
I0720 13:50:35.608916 31789 net.cpp:425] relu3 <- conv3
I0720 13:50:35.608937 31783 net.cpp:399] conv4 -> conv4
I0720 13:50:35.608942 31777 net.cpp:386] relu3 -> conv3 (in-place)
I0720 13:50:35.608943 31789 net.cpp:386] relu3 -> conv3 (in-place)
I0720 13:50:35.609444 31777 net.cpp:141] Setting up relu3
I0720 13:50:35.609467 31777 net.cpp:148] Top shape: 10 384 13 13 (648960)
I0720 13:50:35.609475 31777 net.cpp:156] Memory required for data: 58596920
I0720 13:50:35.609483 31777 layer_factory.hpp:77] Creating layer conv4
I0720 13:50:35.609532 31777 net.cpp:91] Creating Layer conv4
I0720 13:50:35.609542 31777 net.cpp:425] conv4 <- conv3
I0720 13:50:35.609612 31777 net.cpp:399] conv4 -> conv4
I0720 13:50:35.614598 31795 net.cpp:141] Setting up conv3
I0720 13:50:35.614647 31795 net.cpp:148] Top shape: 10 384 13 13 (648960)
I0720 13:50:35.614655 31795 net.cpp:156] Memory required for data: 56001080
I0720 13:50:35.614678 31795 layer_factory.hpp:77] Creating layer relu3
I0720 13:50:35.614708 31795 net.cpp:91] Creating Layer relu3
I0720 13:50:35.614720 31795 net.cpp:425] relu3 <- conv3
I0720 13:50:35.614732 31795 net.cpp:386] relu3 -> conv3 (in-place)
I0720 13:50:35.615977 31801 net.cpp:141] Setting up relu3
I0720 13:50:35.616003 31801 net.cpp:148] Top shape: 10 384 13 13 (648960)
I0720 13:50:35.616017 31801 net.cpp:156] Memory required for data: 58596920
I0720 13:50:35.616029 31801 layer_factory.hpp:77] Creating layer conv4
I0720 13:50:35.616052 31801 net.cpp:91] Creating Layer conv4
I0720 13:50:35.616065 31801 net.cpp:425] conv4 <- conv3
I0720 13:50:35.616094 31801 net.cpp:399] conv4 -> conv4
I0720 13:50:35.618382 31789 net.cpp:141] Setting up relu3
I0720 13:50:35.618412 31789 net.cpp:148] Top shape: 10 384 13 13 (648960)
I0720 13:50:35.618418 31789 net.cpp:156] Memory required for data: 58596920
I0720 13:50:35.618425 31789 layer_factory.hpp:77] Creating layer conv4
I0720 13:50:35.618443 31789 net.cpp:91] Creating Layer conv4
I0720 13:50:35.618449 31789 net.cpp:425] conv4 <- conv3
I0720 13:50:35.618460 31789 net.cpp:399] conv4 -> conv4
I0720 13:50:35.620218 31795 net.cpp:141] Setting up relu3
I0720 13:50:35.620244 31795 net.cpp:148] Top shape: 10 384 13 13 (648960)
I0720 13:50:35.620251 31795 net.cpp:156] Memory required for data: 58596920
I0720 13:50:35.620260 31795 layer_factory.hpp:77] Creating layer conv4
I0720 13:50:35.620282 31795 net.cpp:91] Creating Layer conv4
I0720 13:50:35.620293 31795 net.cpp:425] conv4 <- conv3
I0720 13:50:35.620306 31795 net.cpp:399] conv4 -> conv4
I0720 13:50:35.630843 31799 net.cpp:141] Setting up conv4
I0720 13:50:35.630879 31799 net.cpp:148] Top shape: 10 384 13 13 (648960)
I0720 13:50:35.630885 31799 net.cpp:156] Memory required for data: 61192760
I0720 13:50:35.630899 31799 layer_factory.hpp:77] Creating layer relu4
I0720 13:50:35.630914 31799 net.cpp:91] Creating Layer relu4
I0720 13:50:35.630921 31799 net.cpp:425] relu4 <- conv4
I0720 13:50:35.630930 31799 net.cpp:386] relu4 -> conv4 (in-place)
I0720 13:50:35.633246 31787 net.cpp:141] Setting up conv4
I0720 13:50:35.633273 31787 net.cpp:148] Top shape: 10 384 13 13 (648960)
I0720 13:50:35.633283 31787 net.cpp:156] Memory required for data: 61192760
I0720 13:50:35.633303 31787 layer_factory.hpp:77] Creating layer relu4
I0720 13:50:35.633321 31787 net.cpp:91] Creating Layer relu4
I0720 13:50:35.633332 31787 net.cpp:425] relu4 <- conv4
I0720 13:50:35.633352 31787 net.cpp:386] relu4 -> conv4 (in-place)
I0720 13:50:35.634290 31767 net.cpp:141] Setting up conv4
I0720 13:50:35.634313 31767 net.cpp:148] Top shape: 10 384 13 13 (648960)
I0720 13:50:35.634320 31767 net.cpp:156] Memory required for data: 61192760
I0720 13:50:35.634331 31767 layer_factory.hpp:77] Creating layer relu4
I0720 13:50:35.634344 31767 net.cpp:91] Creating Layer relu4
I0720 13:50:35.634352 31767 net.cpp:425] relu4 <- conv4
I0720 13:50:35.634364 31767 net.cpp:386] relu4 -> conv4 (in-place)
I0720 13:50:35.635707 31793 net.cpp:141] Setting up conv4
I0720 13:50:35.635728 31793 net.cpp:148] Top shape: 10 384 13 13 (648960)
I0720 13:50:35.635735 31793 net.cpp:156] Memory required for data: 61192760
I0720 13:50:35.635745 31793 layer_factory.hpp:77] Creating layer relu4
I0720 13:50:35.635764 31793 net.cpp:91] Creating Layer relu4
I0720 13:50:35.635772 31793 net.cpp:425] relu4 <- conv4
I0720 13:50:35.635779 31793 net.cpp:386] relu4 -> conv4 (in-place)
I0720 13:50:35.637058 31769 net.cpp:141] Setting up lstm2_transform_1
I0720 13:50:35.637099 31769 net.cpp:148] Top shape: 1 1 4000 (4000)
I0720 13:50:35.637105 31769 net.cpp:156] Memory required for data: 66020
I0720 13:50:35.637123 31769 layer_factory.hpp:77] Creating layer lstm2_gate_input_1
I0720 13:50:35.637145 31769 net.cpp:91] Creating Layer lstm2_gate_input_1
I0720 13:50:35.637151 31769 net.cpp:425] lstm2_gate_input_1 <- W_hc_h_0
I0720 13:50:35.637161 31769 net.cpp:425] lstm2_gate_input_1 <- W_xc_x_1
I0720 13:50:35.637167 31769 net.cpp:399] lstm2_gate_input_1 -> gate_input_1
I0720 13:50:35.637233 31769 net.cpp:141] Setting up lstm2_gate_input_1
I0720 13:50:35.637243 31769 net.cpp:148] Top shape: 1 1 4000 (4000)
I0720 13:50:35.637246 31769 net.cpp:156] Memory required for data: 82020
I0720 13:50:35.637251 31769 layer_factory.hpp:77] Creating layer lstm2_unit_1
I0720 13:50:35.637259 31769 net.cpp:91] Creating Layer lstm2_unit_1
I0720 13:50:35.637264 31769 net.cpp:425] lstm2_unit_1 <- c_0
I0720 13:50:35.637269 31769 net.cpp:425] lstm2_unit_1 <- gate_input_1
I0720 13:50:35.637274 31769 net.cpp:425] lstm2_unit_1 <- cont_1_lstm2_cont_slice_0_split_1
I0720 13:50:35.637281 31769 net.cpp:399] lstm2_unit_1 -> c_1
I0720 13:50:35.637290 31769 net.cpp:399] lstm2_unit_1 -> h_1
I0720 13:50:35.637323 31799 net.cpp:141] Setting up relu4
I0720 13:50:35.637338 31799 net.cpp:148] Top shape: 10 384 13 13 (648960)
I0720 13:50:35.637343 31799 net.cpp:156] Memory required for data: 63788600
I0720 13:50:35.637348 31799 layer_factory.hpp:77] Creating layer conv5
I0720 13:50:35.637365 31799 net.cpp:91] Creating Layer conv5
I0720 13:50:35.637372 31799 net.cpp:425] conv5 <- conv4
I0720 13:50:35.637382 31799 net.cpp:399] conv5 -> conv5
I0720 13:50:35.639633 31769 net.cpp:141] Setting up lstm2_unit_1
I0720 13:50:35.639655 31769 net.cpp:148] Top shape: 1 1 1000 (1000)
I0720 13:50:35.639662 31769 net.cpp:148] Top shape: 1 1 1000 (1000)
I0720 13:50:35.639667 31769 net.cpp:156] Memory required for data: 90020
I0720 13:50:35.639672 31769 layer_factory.hpp:77] Creating layer lstm2_
I0720 13:50:35.639684 31769 net.cpp:91] Creating Layer lstm2_
I0720 13:50:35.639689 31769 net.cpp:425] lstm2_ <- c_1
I0720 13:50:35.639698 31769 net.cpp:399] lstm2_ -> c_T
I0720 13:50:35.639749 31769 net.cpp:141] Setting up lstm2_
I0720 13:50:35.639757 31769 net.cpp:148] Top shape: 1 1 1000 (1000)
I0720 13:50:35.639762 31769 net.cpp:156] Memory required for data: 94020
I0720 13:50:35.639766 31769 layer_factory.hpp:77] Creating layer lstm2_h_concat
I0720 13:50:35.639776 31769 net.cpp:91] Creating Layer lstm2_h_concat
I0720 13:50:35.639780 31769 net.cpp:425] lstm2_h_concat <- h_1
I0720 13:50:35.639791 31769 net.cpp:399] lstm2_h_concat -> h
I0720 13:50:35.639844 31769 net.cpp:141] Setting up lstm2_h_concat
I0720 13:50:35.639853 31769 net.cpp:148] Top shape: 1 1 1000 (1000)
I0720 13:50:35.639858 31769 net.cpp:156] Memory required for data: 98020
I0720 13:50:35.639861 31769 layer_factory.hpp:77] Creating layer h_pseudoloss
I0720 13:50:35.639870 31769 net.cpp:91] Creating Layer h_pseudoloss
I0720 13:50:35.639874 31769 net.cpp:425] h_pseudoloss <- h
I0720 13:50:35.639881 31769 net.cpp:399] h_pseudoloss -> h_pseudoloss
I0720 13:50:35.640669 31767 net.cpp:141] Setting up relu4
I0720 13:50:35.640691 31767 net.cpp:148] Top shape: 10 384 13 13 (648960)
I0720 13:50:35.640697 31767 net.cpp:156] Memory required for data: 63788600
I0720 13:50:35.640703 31767 layer_factory.hpp:77] Creating layer conv5
I0720 13:50:35.640718 31767 net.cpp:91] Creating Layer conv5
I0720 13:50:35.640724 31767 net.cpp:425] conv5 <- conv4
I0720 13:50:35.640735 31767 net.cpp:399] conv5 -> conv5
I0720 13:50:35.642140 31793 net.cpp:141] Setting up relu4
I0720 13:50:35.642159 31793 net.cpp:148] Top shape: 10 384 13 13 (648960)
I0720 13:50:35.642165 31793 net.cpp:156] Memory required for data: 63788600
I0720 13:50:35.642170 31793 layer_factory.hpp:77] Creating layer conv5
I0720 13:50:35.642186 31793 net.cpp:91] Creating Layer conv5
I0720 13:50:35.642192 31793 net.cpp:425] conv5 <- conv4
I0720 13:50:35.642194 31769 net.cpp:141] Setting up h_pseudoloss
I0720 13:50:35.642204 31793 net.cpp:399] conv5 -> conv5
…
I0720 13:50:35.642307 31769 net.cpp:261] This network produces output c_T
I0720 13:50:35.642310 31769 net.cpp:261] This network produces output h_pseudoloss
I0720 13:50:35.642324 31769 net.cpp:274] Network initialization done.
I0720 13:50:35.642374 31769 recurrent_layer.cpp:150] Adding parameter 0: W_xc
I0720 13:50:35.642379 31769 recurrent_layer.cpp:150] Adding parameter 1: b_c
I0720 13:50:35.642384 31769 recurrent_layer.cpp:150] Adding parameter 2: W_hc
I0720 13:50:35.644887 31769 net.cpp:141] Setting up lstm2
I0720 13:50:35.644904 31787 net.cpp:141] Setting up relu4
I0720 13:50:35.644911 31769 net.cpp:148] Top shape: 1 1 1000 (1000)
I0720 13:50:35.644928 31787 net.cpp:148] Top shape: 10 384 13 13 (648960)
I0720 13:50:35.644932 31769 net.cpp:156] Memory required for data: 36412
I0720 13:50:35.644935 31787 net.cpp:156] Memory required for data: 63788600
I0720 13:50:35.644950 31787 layer_factory.hpp:77] Creating layer conv5
I0720 13:50:35.644953 31769 layer_factory.hpp:77] Creating layer predict
I0720 13:50:35.644968 31769 net.cpp:91] Creating Layer predict
I0720 13:50:35.644970 31787 net.cpp:91] Creating Layer conv5
I0720 13:50:35.644973 31769 net.cpp:425] predict <- lstm2
I0720 13:50:35.644978 31787 net.cpp:425] conv5 <- conv4
I0720 13:50:35.644982 31769 net.cpp:399] predict -> predict
I0720 13:50:35.644987 31787 net.cpp:399] conv5 -> conv5
I0720 13:50:35.725996 31783 net.cpp:141] Setting up conv4
I0720 13:50:35.726047 31783 net.cpp:148] Top shape: 10 384 13 13 (648960)
I0720 13:50:35.726053 31783 net.cpp:156] Memory required for data: 61192760
I0720 13:50:35.726069 31783 layer_factory.hpp:77] Creating layer relu4
I0720 13:50:35.726086 31783 net.cpp:91] Creating Layer relu4
I0720 13:50:35.726094 31783 net.cpp:425] relu4 <- conv4
I0720 13:50:35.726107 31783 net.cpp:386] relu4 -> conv4 (in-place)
I0720 13:50:35.728088 31777 net.cpp:141] Setting up conv4
I0720 13:50:35.728116 31777 net.cpp:148] Top shape: 10 384 13 13 (648960)
I0720 13:50:35.728127 31777 net.cpp:156] Memory required for data: 61192760
I0720 13:50:35.728147 31777 layer_factory.hpp:77] Creating layer relu4
I0720 13:50:35.728169 31777 net.cpp:91] Creating Layer relu4
I0720 13:50:35.728183 31777 net.cpp:425] relu4 <- conv4
I0720 13:50:35.728199 31777 net.cpp:386] relu4 -> conv4 (in-place)
I0720 13:50:35.732120 31783 net.cpp:141] Setting up relu4
I0720 13:50:35.732144 31783 net.cpp:148] Top shape: 10 384 13 13 (648960)
I0720 13:50:35.732151 31783 net.cpp:156] Memory required for data: 63788600
I0720 13:50:35.732157 31783 layer_factory.hpp:77] Creating layer conv5
I0720 13:50:35.732177 31783 net.cpp:91] Creating Layer conv5
I0720 13:50:35.732184 31783 net.cpp:425] conv5 <- conv4
I0720 13:50:35.732195 31783 net.cpp:399] conv5 -> conv5
I0720 13:50:35.733676 31795 net.cpp:141] Setting up conv4
I0720 13:50:35.733705 31795 net.cpp:148] Top shape: 10 384 13 13 (648960)
I0720 13:50:35.733711 31795 net.cpp:156] Memory required for data: 61192760
I0720 13:50:35.733722 31795 layer_factory.hpp:77] Creating layer relu4
I0720 13:50:35.733733 31795 net.cpp:91] Creating Layer relu4
I0720 13:50:35.733739 31795 net.cpp:425] relu4 <- conv4
I0720 13:50:35.733747 31795 net.cpp:386] relu4 -> conv4 (in-place)
I0720 13:50:35.735846 31777 net.cpp:141] Setting up relu4
I0720 13:50:35.735872 31777 net.cpp:148] Top shape: 10 384 13 13 (648960)
I0720 13:50:35.735882 31777 net.cpp:156] Memory required for data: 63788600
I0720 13:50:35.735893 31777 layer_factory.hpp:77] Creating layer conv5
I0720 13:50:35.735920 31777 net.cpp:91] Creating Layer conv5
I0720 13:50:35.735934 31777 net.cpp:425] conv5 <- conv4
I0720 13:50:35.735952 31777 net.cpp:399] conv5 -> conv5
I0720 13:50:35.737988 31795 net.cpp:141] Setting up relu4
I0720 13:50:35.738011 31795 net.cpp:148] Top shape: 10 384 13 13 (648960)
I0720 13:50:35.738016 31795 net.cpp:156] Memory required for data: 63788600
I0720 13:50:35.738023 31795 layer_factory.hpp:77] Creating layer conv5
I0720 13:50:35.738042 31795 net.cpp:91] Creating Layer conv5
I0720 13:50:35.738049 31795 net.cpp:425] conv5 <- conv4
I0720 13:50:35.738057 31795 net.cpp:399] conv5 -> conv5
I0720 13:50:35.739296 31801 net.cpp:141] Setting up conv4
I0720 13:50:35.739326 31801 net.cpp:148] Top shape: 10 384 13 13 (648960)
I0720 13:50:35.739334 31801 net.cpp:156] Memory required for data: 61192760
I0720 13:50:35.739353 31801 layer_factory.hpp:77] Creating layer relu4
I0720 13:50:35.739375 31801 net.cpp:91] Creating Layer relu4
I0720 13:50:35.739387 31801 net.cpp:425] relu4 <- conv4
I0720 13:50:35.739395 31801 net.cpp:386] relu4 -> conv4 (in-place)
I0720 13:50:35.740206 31781 net.cpp:141] Setting up conv4
I0720 13:50:35.740226 31781 net.cpp:148] Top shape: 10 384 13 13 (648960)
I0720 13:50:35.740231 31781 net.cpp:156] Memory required for data: 61192760
I0720 13:50:35.740242 31781 layer_factory.hpp:77] Creating layer relu4
I0720 13:50:35.740254 31781 net.cpp:91] Creating Layer relu4
I0720 13:50:35.740260 31781 net.cpp:425] relu4 <- conv4
I0720 13:50:35.740267 31781 net.cpp:386] relu4 -> conv4 (in-place)
I0720 13:50:35.743603 31781 net.cpp:141] Setting up relu4
I0720 13:50:35.743624 31781 net.cpp:148] Top shape: 10 384 13 13 (648960)
I0720 13:50:35.743630 31781 net.cpp:156] Memory required for data: 63788600
I0720 13:50:35.743635 31781 layer_factory.hpp:77] Creating layer conv5
I0720 13:50:35.743651 31781 net.cpp:91] Creating Layer conv5
I0720 13:50:35.743656 31781 net.cpp:425] conv5 <- conv4
I0720 13:50:35.743667 31781 net.cpp:399] conv5 -> conv5
I0720 13:50:35.751288 31801 net.cpp:141] Setting up relu4
I0720 13:50:35.751312 31801 net.cpp:148] Top shape: 10 384 13 13 (648960)
I0720 13:50:35.751318 31801 net.cpp:156] Memory required for data: 63788600
I0720 13:50:35.751324 31801 layer_factory.hpp:77] Creating layer conv5
I0720 13:50:35.751340 31801 net.cpp:91] Creating Layer conv5
I0720 13:50:35.751346 31801 net.cpp:425] conv5 <- conv4
I0720 13:50:35.751356 31801 net.cpp:399] conv5 -> conv5
I0720 13:50:35.751546 31793 net.cpp:141] Setting up conv5
I0720 13:50:35.751569 31793 net.cpp:148] Top shape: 10 256 13 13 (432640)
I0720 13:50:35.751576 31793 net.cpp:156] Memory required for data: 65519160
I0720 13:50:35.751595 31793 layer_factory.hpp:77] Creating layer relu5
I0720 13:50:35.751603 31793 net.cpp:91] Creating Layer relu5
I0720 13:50:35.751610 31793 net.cpp:425] relu5 <- conv5
I0720 13:50:35.751629 31793 net.cpp:386] relu5 -> conv5 (in-place)
I0720 13:50:35.752439 31799 net.cpp:141] Setting up conv5
I0720 13:50:35.752457 31799 net.cpp:148] Top shape: 10 256 13 13 (432640)
I0720 13:50:35.752463 31799 net.cpp:156] Memory required for data: 65519160
I0720 13:50:35.752490 31799 layer_factory.hpp:77] Creating layer relu5
I0720 13:50:35.752501 31799 net.cpp:91] Creating Layer relu5
I0720 13:50:35.752507 31799 net.cpp:425] relu5 <- conv5
I0720 13:50:35.752517 31799 net.cpp:386] relu5 -> conv5 (in-place)
I0720 13:50:35.752866 31789 net.cpp:141] Setting up conv4
I0720 13:50:35.752883 31789 net.cpp:148] Top shape: 10 384 13 13 (648960)
I0720 13:50:35.752888 31789 net.cpp:156] Memory required for data: 61192760
I0720 13:50:35.752898 31789 layer_factory.hpp:77] Creating layer relu4
I0720 13:50:35.752907 31789 net.cpp:91] Creating Layer relu4
I0720 13:50:35.752913 31789 net.cpp:425] relu4 <- conv4
I0720 13:50:35.752924 31789 net.cpp:386] relu4 -> conv4 (in-place)
I0720 13:50:35.754019 31799 net.cpp:141] Setting up relu5
I0720 13:50:35.754035 31799 net.cpp:148] Top shape: 10 256 13 13 (432640)
I0720 13:50:35.754040 31799 net.cpp:156] Memory required for data: 67249720
I0720 13:50:35.754045 31799 layer_factory.hpp:77] Creating layer pool5
I0720 13:50:35.754062 31799 net.cpp:91] Creating Layer pool5
I0720 13:50:35.754067 31799 net.cpp:425] pool5 <- conv5
I0720 13:50:35.754076 31799 net.cpp:399] pool5 -> pool5
I0720 13:50:35.754089 31799 net.cpp:141] Setting up pool5
I0720 13:50:35.754096 31799 net.cpp:148] Top shape: 10 256 6 6 (92160)
I0720 13:50:35.754099 31799 net.cpp:156] Memory required for data: 67618360
I0720 13:50:35.754103 31799 layer_factory.hpp:77] Creating layer fc6
I0720 13:50:35.754119 31799 net.cpp:91] Creating Layer fc6
I0720 13:50:35.754123 31799 net.cpp:425] fc6 <- pool5
I0720 13:50:35.754130 31799 net.cpp:399] fc6 -> fc6
I0720 13:50:35.768563 31767 net.cpp:141] Setting up conv5
I0720 13:50:35.768612 31767 net.cpp:148] Top shape: 10 256 13 13 (432640)
I0720 13:50:35.768618 31767 net.cpp:156] Memory required for data: 65519160
I0720 13:50:35.768640 31767 layer_factory.hpp:77] Creating layer relu5
I0720 13:50:35.769078 31767 net.cpp:91] Creating Layer relu5
I0720 13:50:35.769095 31767 net.cpp:425] relu5 <- conv5
I0720 13:50:35.769106 31767 net.cpp:386] relu5 -> conv5 (in-place)
I0720 13:50:35.769673 31789 net.cpp:141] Setting up relu4
I0720 13:50:35.769693 31789 net.cpp:148] Top shape: 10 384 13 13 (648960)
I0720 13:50:35.769700 31789 net.cpp:156] Memory required for data: 63788600
I0720 13:50:35.769706 31789 layer_factory.hpp:77] Creating layer conv5
I0720 13:50:35.769737 31789 net.cpp:91] Creating Layer conv5
I0720 13:50:35.769744 31789 net.cpp:425] conv5 <- conv4
I0720 13:50:35.769755 31789 net.cpp:399] conv5 -> conv5
I0720 13:50:35.784512 31793 net.cpp:141] Setting up relu5
I0720 13:50:35.784564 31793 net.cpp:148] Top shape: 10 256 13 13 (432640)
I0720 13:50:35.784576 31793 net.cpp:156] Memory required for data: 67249720
I0720 13:50:35.784591 31793 layer_factory.hpp:77] Creating layer pool5
I0720 13:50:35.785111 31793 net.cpp:91] Creating Layer pool5
I0720 13:50:35.785131 31793 net.cpp:425] pool5 <- conv5
I0720 13:50:35.785145 31793 net.cpp:399] pool5 -> pool5
I0720 13:50:35.785166 31793 net.cpp:141] Setting up pool5
I0720 13:50:35.785173 31793 net.cpp:148] Top shape: 10 256 6 6 (92160)
I0720 13:50:35.785178 31793 net.cpp:156] Memory required for data: 67618360
I0720 13:50:35.785182 31793 layer_factory.hpp:77] Creating layer fc6
I0720 13:50:35.785200 31793 net.cpp:91] Creating Layer fc6
I0720 13:50:35.785205 31793 net.cpp:425] fc6 <- pool5
I0720 13:50:35.785212 31793 net.cpp:399] fc6 -> fc6
I0720 13:50:35.805070 31767 net.cpp:141] Setting up relu5
I0720 13:50:35.805130 31767 net.cpp:148] Top shape: 10 256 13 13 (432640)
I0720 13:50:35.805140 31767 net.cpp:156] Memory required for data: 67249720
I0720 13:50:35.805153 31767 layer_factory.hpp:77] Creating layer pool5
I0720 13:50:35.805181 31767 net.cpp:91] Creating Layer pool5
I0720 13:50:35.805191 31767 net.cpp:425] pool5 <- conv5
I0720 13:50:35.805658 31767 net.cpp:399] pool5 -> pool5
I0720 13:50:35.805698 31767 net.cpp:141] Setting up pool5
I0720 13:50:35.805716 31767 net.cpp:148] Top shape: 10 256 6 6 (92160)
I0720 13:50:35.805726 31767 net.cpp:156] Memory required for data: 67618360
I0720 13:50:35.805734 31767 layer_factory.hpp:77] Creating layer fc6
I0720 13:50:35.805764 31767 net.cpp:91] Creating Layer fc6
I0720 13:50:35.805776 31767 net.cpp:425] fc6 <- pool5
I0720 13:50:35.805790 31767 net.cpp:399] fc6 -> fc6
I0720 13:50:35.822269 31799 net.cpp:141] Setting up fc6
I0720 13:50:35.822322 31799 net.cpp:148] Top shape: 10 4096 (40960)
I0720 13:50:35.822329 31799 net.cpp:156] Memory required for data: 67782200
I0720 13:50:35.822345 31799 layer_factory.hpp:77] Creating layer relu6
I0720 13:50:35.822824 31799 net.cpp:91] Creating Layer relu6
I0720 13:50:35.822841 31799 net.cpp:425] relu6 <- fc6
I0720 13:50:35.822854 31799 net.cpp:386] relu6 -> fc6 (in-place)
I0720 13:50:35.826731 31783 net.cpp:141] Setting up conv5
I0720 13:50:35.826783 31783 net.cpp:148] Top shape: 10 256 13 13 (432640)
I0720 13:50:35.826789 31783 net.cpp:156] Memory required for data: 65519160
I0720 13:50:35.826817 31783 layer_factory.hpp:77] Creating layer relu5
I0720 13:50:35.827322 31783 net.cpp:91] Creating Layer relu5
I0720 13:50:35.827337 31783 net.cpp:425] relu5 <- conv5
I0720 13:50:35.827350 31783 net.cpp:386] relu5 -> conv5 (in-place)
I0720 13:50:35.839254 31787 net.cpp:141] Setting up conv5
I0720 13:50:35.839310 31787 net.cpp:148] Top shape: 10 256 13 13 (432640)
I0720 13:50:35.839321 31787 net.cpp:156] Memory required for data: 65519160
I0720 13:50:35.839351 31787 layer_factory.hpp:77] Creating layer relu5
I0720 13:50:35.839916 31787 net.cpp:91] Creating Layer relu5
I0720 13:50:35.839937 31787 net.cpp:425] relu5 <- conv5
I0720 13:50:35.839947 31787 net.cpp:386] relu5 -> conv5 (in-place)
I0720 13:50:35.844252 31795 net.cpp:141] Setting up conv5
I0720 13:50:35.844310 31795 net.cpp:148] Top shape: 10 256 13 13 (432640)
I0720 13:50:35.844316 31795 net.cpp:156] Memory required for data: 65519160
I0720 13:50:35.844342 31795 layer_factory.hpp:77] Creating layer relu5
I0720 13:50:35.844359 31795 net.cpp:91] Creating Layer relu5
I0720 13:50:35.844367 31795 net.cpp:425] relu5 <- conv5
I0720 13:50:35.844882 31795 net.cpp:386] relu5 -> conv5 (in-place)
I0720 13:50:35.848697 31799 net.cpp:141] Setting up relu6
I0720 13:50:35.848750 31799 net.cpp:148] Top shape: 10 4096 (40960)
I0720 13:50:35.848757 31799 net.cpp:156] Memory required for data: 67946040
I0720 13:50:35.848767 31799 layer_factory.hpp:77] Creating layer drop6
I0720 13:50:35.848795 31799 net.cpp:91] Creating Layer drop6
I0720 13:50:35.848808 31799 net.cpp:425] drop6 <- fc6
I0720 13:50:35.848820 31799 net.cpp:386] drop6 -> fc6 (in-place)
I0720 13:50:35.848852 31799 net.cpp:141] Setting up drop6
I0720 13:50:35.848860 31799 net.cpp:148] Top shape: 10 4096 (40960)
I0720 13:50:35.848867 31799 net.cpp:156] Memory required for data: 68109880
I0720 13:50:35.848875 31799 layer_factory.hpp:77] Creating layer fc7
I0720 13:50:35.848889 31799 net.cpp:91] Creating Layer fc7
I0720 13:50:35.848899 31799 net.cpp:425] fc7 <- fc6
I0720 13:50:35.848911 31799 net.cpp:399] fc7 -> fc7
I0720 13:50:35.852099 31795 net.cpp:141] Setting up relu5
I0720 13:50:35.852154 31795 net.cpp:148] Top shape: 10 256 13 13 (432640)
I0720 13:50:35.852161 31795 net.cpp:156] Memory required for data: 67249720
I0720 13:50:35.852172 31795 layer_factory.hpp:77] Creating layer pool5
I0720 13:50:35.852751 31795 net.cpp:91] Creating Layer pool5
I0720 13:50:35.852766 31795 net.cpp:425] pool5 <- conv5
I0720 13:50:35.852782 31795 net.cpp:399] pool5 -> pool5
I0720 13:50:35.852805 31795 net.cpp:141] Setting up pool5
I0720 13:50:35.852814 31795 net.cpp:148] Top shape: 10 256 6 6 (92160)
I0720 13:50:35.852818 31795 net.cpp:156] Memory required for data: 67618360
I0720 13:50:35.852823 31795 layer_factory.hpp:77] Creating layer fc6
I0720 13:50:35.852836 31795 net.cpp:91] Creating Layer fc6
I0720 13:50:35.852841 31795 net.cpp:425] fc6 <- pool5
I0720 13:50:35.853396 31795 net.cpp:399] fc6 -> fc6
I0720 13:50:35.859813 31783 net.cpp:141] Setting up relu5
I0720 13:50:35.859813 31787 net.cpp:141] Setting up relu5
I0720 13:50:35.859884 31783 net.cpp:148] Top shape: 10 256 13 13 (432640)
I0720 13:50:35.859891 31787 net.cpp:148] Top shape: 10 256 13 13 (432640)
I0720 13:50:35.859895 31783 net.cpp:156] Memory required for data: 67249720
I0720 13:50:35.859904 31787 net.cpp:156] Memory required for data: 67249720
I0720 13:50:35.859912 31783 layer_factory.hpp:77] Creating layer pool5
I0720 13:50:35.859917 31787 layer_factory.hpp:77] Creating layer pool5
I0720 13:50:35.859938 31787 net.cpp:91] Creating Layer pool5
I0720 13:50:35.859953 31787 net.cpp:425] pool5 <- conv5
I0720 13:50:35.860388 31783 net.cpp:91] Creating Layer pool5
I0720 13:50:35.860393 31787 net.cpp:399] pool5 -> pool5
I0720 13:50:35.860414 31783 net.cpp:425] pool5 <- conv5
I0720 13:50:35.860430 31783 net.cpp:399] pool5 -> pool5
I0720 13:50:35.860450 31787 net.cpp:141] Setting up pool5
I0720 13:50:35.860468 31787 net.cpp:148] Top shape: 10 256 6 6 (92160)
I0720 13:50:35.860478 31787 net.cpp:156] Memory required for data: 67618360
I0720 13:50:35.860488 31787 layer_factory.hpp:77] Creating layer fc6
I0720 13:50:35.860452 31783 net.cpp:141] Setting up pool5
I0720 13:50:35.861002 31783 net.cpp:148] Top shape: 10 256 6 6 (92160)
I0720 13:50:35.861002 31787 net.cpp:91] Creating Layer fc6
I0720 13:50:35.861016 31783 net.cpp:156] Memory required for data: 67618360
I0720 13:50:35.861040 31783 layer_factory.hpp:77] Creating layer fc6
I0720 13:50:35.861042 31787 net.cpp:425] fc6 <- pool5
I0720 13:50:35.861063 31783 net.cpp:91] Creating Layer fc6
I0720 13:50:35.861075 31783 net.cpp:425] fc6 <- pool5
I0720 13:50:35.861073 31787 net.cpp:399] fc6 -> fc6
I0720 13:50:35.861089 31783 net.cpp:399] fc6 -> fc6
I0720 13:50:35.862870 31793 net.cpp:141] Setting up fc6
I0720 13:50:35.862922 31793 net.cpp:148] Top shape: 10 4096 (40960)
I0720 13:50:35.862929 31793 net.cpp:156] Memory required for data: 67782200
I0720 13:50:35.862946 31793 layer_factory.hpp:77] Creating layer relu6
I0720 13:50:35.862967 31793 net.cpp:91] Creating Layer relu6
I0720 13:50:35.862973 31793 net.cpp:425] relu6 <- fc6
I0720 13:50:35.862982 31793 net.cpp:386] relu6 -> fc6 (in-place)
I0720 13:50:35.882992 31781 net.cpp:141] Setting up conv5
I0720 13:50:35.883061 31781 net.cpp:148] Top shape: 10 256 13 13 (432640)
I0720 13:50:35.883071 31781 net.cpp:156] Memory required for data: 65519160
I0720 13:50:35.883111 31781 layer_factory.hpp:77] Creating layer relu5
I0720 13:50:35.883824 31781 net.cpp:91] Creating Layer relu5
I0720 13:50:35.883855 31781 net.cpp:425] relu5 <- conv5
I0720 13:50:35.883870 31781 net.cpp:386] relu5 -> conv5 (in-place)
I0720 13:50:35.884387 31767 net.cpp:141] Setting up fc6
I0720 13:50:35.884414 31767 net.cpp:148] Top shape: 10 4096 (40960)
I0720 13:50:35.884425 31767 net.cpp:156] Memory required for data: 67782200
I0720 13:50:35.884446 31767 layer_factory.hpp:77] Creating layer relu6
I0720 13:50:35.884464 31767 net.cpp:91] Creating Layer relu6
I0720 13:50:35.884474 31767 net.cpp:425] relu6 <- fc6
I0720 13:50:35.885215 31767 net.cpp:386] relu6 -> fc6 (in-place)
I0720 13:50:35.895442 31799 net.cpp:141] Setting up fc7
I0720 13:50:35.895493 31799 net.cpp:148] Top shape: 10 4096 (40960)
I0720 13:50:35.895499 31799 net.cpp:156] Memory required for data: 68273720
I0720 13:50:35.895517 31799 layer_factory.hpp:77] Creating layer relu7
I0720 13:50:35.895534 31799 net.cpp:91] Creating Layer relu7
I0720 13:50:35.895541 31799 net.cpp:425] relu7 <- fc7
I0720 13:50:35.895553 31799 net.cpp:386] relu7 -> fc7 (in-place)
I0720 13:50:35.900622 31793 net.cpp:141] Setting up relu6
I0720 13:50:35.900681 31793 net.cpp:148] Top shape: 10 4096 (40960)
I0720 13:50:35.900693 31793 net.cpp:156] Memory required for data: 67946040
I0720 13:50:35.900708 31793 layer_factory.hpp:77] Creating layer drop6
I0720 13:50:35.900738 31793 net.cpp:91] Creating Layer drop6
I0720 13:50:35.900749 31793 net.cpp:425] drop6 <- fc6
I0720 13:50:35.900764 31793 net.cpp:386] drop6 -> fc6 (in-place)
I0720 13:50:35.900784 31793 net.cpp:141] Setting up drop6
I0720 13:50:35.900789 31793 net.cpp:148] Top shape: 10 4096 (40960)
I0720 13:50:35.900794 31793 net.cpp:156] Memory required for data: 68109880
I0720 13:50:35.900799 31793 layer_factory.hpp:77] Creating layer fc7
I0720 13:50:35.900810 31793 net.cpp:91] Creating Layer fc7
I0720 13:50:35.900815 31793 net.cpp:425] fc7 <- fc6
I0720 13:50:35.901428 31793 net.cpp:399] fc7 -> fc7
I0720 13:50:35.904407 31789 net.cpp:141] Setting up conv5
I0720 13:50:35.904490 31789 net.cpp:148] Top shape: 10 256 13 13 (432640)
I0720 13:50:35.904510 31789 net.cpp:156] Memory required for data: 65519160
I0720 13:50:35.904548 31789 layer_factory.hpp:77] Creating layer relu5
I0720 13:50:35.904577 31789 net.cpp:91] Creating Layer relu5
I0720 13:50:35.904589 31789 net.cpp:425] relu5 <- conv5
I0720 13:50:35.905243 31789 net.cpp:386] relu5 -> conv5 (in-place)
I0720 13:50:35.906628 31781 net.cpp:141] Setting up relu5
I0720 13:50:35.906663 31781 net.cpp:148] Top shape: 10 256 13 13 (432640)
I0720 13:50:35.906673 31781 net.cpp:156] Memory required for data: 67249720
I0720 13:50:35.906700 31781 layer_factory.hpp:77] Creating layer pool5
I0720 13:50:35.906726 31781 net.cpp:91] Creating Layer pool5
I0720 13:50:35.906738 31781 net.cpp:425] pool5 <- conv5
I0720 13:50:35.907184 31781 net.cpp:399] pool5 -> pool5
I0720 13:50:35.907223 31781 net.cpp:141] Setting up pool5
I0720 13:50:35.907240 31781 net.cpp:148] Top shape: 10 256 6 6 (92160)
I0720 13:50:35.907250 31781 net.cpp:156] Memory required for data: 67618360
I0720 13:50:35.907259 31781 layer_factory.hpp:77] Creating layer fc6
I0720 13:50:35.908054 31781 net.cpp:91] Creating Layer fc6
I0720 13:50:35.908074 31781 net.cpp:425] fc6 <- pool5
I0720 13:50:35.908089 31781 net.cpp:399] fc6 -> fc6
I0720 13:50:35.914508 31799 net.cpp:141] Setting up relu7
I0720 13:50:35.914569 31799 net.cpp:148] Top shape: 10 4096 (40960)
I0720 13:50:35.914577 31799 net.cpp:156] Memory required for data: 68437560
I0720 13:50:35.914587 31799 layer_factory.hpp:77] Creating layer drop7
I0720 13:50:35.914508 31777 net.cpp:141] Setting up conv5
I0720 13:50:35.915330 31799 net.cpp:91] Creating Layer drop7
I0720 13:50:35.915354 31799 net.cpp:425] drop7 <- fc7
I0720 13:50:35.915362 31777 net.cpp:148] Top shape: 10 256 13 13 (432640)
I0720 13:50:35.915369 31799 net.cpp:386] drop7 -> fc7 (in-place)
I0720 13:50:35.915383 31777 net.cpp:156] Memory required for data: 65519160
I0720 13:50:35.915400 31799 net.cpp:141] Setting up drop7
I0720 13:50:35.915407 31799 net.cpp:148] Top shape: 10 4096 (40960)
I0720 13:50:35.915412 31799 net.cpp:156] Memory required for data: 68601400
I0720 13:50:35.915416 31799 layer_factory.hpp:77] Creating layer fc8
I0720 13:50:35.915429 31799 net.cpp:91] Creating Layer fc8
I0720 13:50:35.915433 31799 net.cpp:425] fc8 <- fc7
I0720 13:50:35.915915 31799 net.cpp:399] fc8 -> fc8
I0720 13:50:35.915918 31777 layer_factory.hpp:77] Creating layer relu5
I0720 13:50:35.915926 31767 net.cpp:141] Setting up relu6
I0720 13:50:35.915915 31801 net.cpp:141] Setting up conv5
I0720 13:50:35.915958 31767 net.cpp:148] Top shape: 10 4096 (40960)
I0720 13:50:35.915959 31777 net.cpp:91] Creating Layer relu5
I0720 13:50:35.915964 31801 net.cpp:148] Top shape: 10 256 13 13 (432640)
I0720 13:50:35.915966 31767 net.cpp:156] Memory required for data: 67946040
I0720 13:50:35.915978 31767 layer_factory.hpp:77] Creating layer drop6
I0720 13:50:35.915976 31777 net.cpp:425] relu5 <- conv5
I0720 13:50:35.915976 31801 net.cpp:156] Memory required for data: 65519160
I0720 13:50:35.916008 31801 layer_factory.hpp:77] Creating layer relu5
I0720 13:50:35.916018 31801 net.cpp:91] Creating Layer relu5
I0720 13:50:35.916023 31801 net.cpp:425] relu5 <- conv5
I0720 13:50:35.917280 31777 net.cpp:386] relu5 -> conv5 (in-place)
I0720 13:50:35.917791 31789 net.cpp:141] Setting up relu5
I0720 13:50:35.917801 31801 net.cpp:386] relu5 -> conv5 (in-place)
I0720 13:50:35.917804 31767 net.cpp:91] Creating Layer drop6
I0720 13:50:35.917816 31789 net.cpp:148] Top shape: 10 256 13 13 (432640)
I0720 13:50:35.917836 31789 net.cpp:156] Memory required for data: 67249720
I0720 13:50:35.917839 31767 net.cpp:425] drop6 <- fc6
I0720 13:50:35.917845 31789 layer_factory.hpp:77] Creating layer pool5
I0720 13:50:35.917860 31789 net.cpp:91] Creating Layer pool5
I0720 13:50:35.917860 31767 net.cpp:386] drop6 -> fc6 (in-place)
I0720 13:50:35.917870 31789 net.cpp:425] pool5 <- conv5
I0720 13:50:35.917878 31789 net.cpp:399] pool5 -> pool5
I0720 13:50:35.917886 31767 net.cpp:141] Setting up drop6
I0720 13:50:35.918915 31789 net.cpp:141] Setting up pool5
I0720 13:50:35.918929 31767 net.cpp:148] Top shape: 10 4096 (40960)
I0720 13:50:35.918944 31789 net.cpp:148] Top shape: 10 256 6 6 (92160)
I0720 13:50:35.918954 31789 net.cpp:156] Memory required for data: 67618360
I0720 13:50:35.918961 31767 net.cpp:156] Memory required for data: 68109880
I0720 13:50:35.918965 31789 layer_factory.hpp:77] Creating layer fc6
I0720 13:50:35.918992 31767 layer_factory.hpp:77] Creating layer fc7
I0720 13:50:35.919013 31789 net.cpp:91] Creating Layer fc6
I0720 13:50:35.919024 31789 net.cpp:425] fc6 <- pool5
I0720 13:50:35.919023 31767 net.cpp:91] Creating Layer fc7
I0720 13:50:35.919049 31789 net.cpp:399] fc6 -> fc6
I0720 13:50:35.919050 31767 net.cpp:425] fc7 <- fc6
I0720 13:50:35.919078 31767 net.cpp:399] fc7 -> fc7
I0720 13:50:35.924374 31777 net.cpp:141] Setting up relu5
I0720 13:50:35.924515 31777 net.cpp:148] Top shape: 10 256 13 13 (432640)
I0720 13:50:35.924546 31777 net.cpp:156] Memory required for data: 67249720
I0720 13:50:35.924582 31777 layer_factory.hpp:77] Creating layer pool5
I0720 13:50:35.924643 31777 net.cpp:91] Creating Layer pool5
I0720 13:50:35.924690 31777 net.cpp:425] pool5 <- conv5
I0720 13:50:35.924732 31777 net.cpp:399] pool5 -> pool5
I0720 13:50:35.924810 31777 net.cpp:141] Setting up pool5
I0720 13:50:35.924846 31777 net.cpp:148] Top shape: 10 256 6 6 (92160)
I0720 13:50:35.924868 31777 net.cpp:156] Memory required for data: 67618360
I0720 13:50:35.924888 31777 layer_factory.hpp:77] Creating layer fc6
I0720 13:50:35.925149 31777 net.cpp:91] Creating Layer fc6
I0720 13:50:35.925175 31777 net.cpp:425] fc6 <- pool5
I0720 13:50:35.925205 31777 net.cpp:399] fc6 -> fc6
I0720 13:50:35.927783 31801 net.cpp:141] Setting up relu5
I0720 13:50:35.927883 31801 net.cpp:148] Top shape: 10 256 13 13 (432640)
I0720 13:50:35.927896 31801 net.cpp:156] Memory required for data: 67249720
I0720 13:50:35.927916 31801 layer_factory.hpp:77] Creating layer pool5
I0720 13:50:35.927950 31801 net.cpp:91] Creating Layer pool5
I0720 13:50:35.927964 31801 net.cpp:425] pool5 <- conv5
I0720 13:50:35.927985 31801 net.cpp:399] pool5 -> pool5
I0720 13:50:35.928021 31801 net.cpp:141] Setting up pool5
I0720 13:50:35.928036 31801 net.cpp:148] Top shape: 10 256 6 6 (92160)
I0720 13:50:35.928045 31801 net.cpp:156] Memory required for data: 67618360
I0720 13:50:35.928056 31801 layer_factory.hpp:77] Creating layer fc6
I0720 13:50:35.929052 31801 net.cpp:91] Creating Layer fc6
I0720 13:50:35.929153 31801 net.cpp:425] fc6 <- pool5
I0720 13:50:35.929229 31801 net.cpp:399] fc6 -> fc6
I0720 13:50:35.934501 31799 net.cpp:141] Setting up fc8
I0720 13:50:35.934602 31799 net.cpp:148] Top shape: 10 1000 (10000)
I0720 13:50:35.934612 31799 net.cpp:156] Memory required for data: 68641400
I0720 13:50:35.934644 31799 layer_factory.hpp:77] Creating layer prob
I0720 13:50:35.934677 31799 net.cpp:91] Creating Layer prob
I0720 13:50:35.934710 31799 net.cpp:425] prob <- fc8
I0720 13:50:35.934732 31799 net.cpp:399] prob -> prob
I0720 13:50:35.943711 31799 net.cpp:141] Setting up prob
I0720 13:50:35.943806 31799 net.cpp:148] Top shape: 10 1000 (10000)
I0720 13:50:35.943819 31799 net.cpp:156] Memory required for data: 68681400
I0720 13:50:35.943840 31799 net.cpp:219] prob does not need backward computation.
I0720 13:50:35.943856 31799 net.cpp:219] fc8 does not need backward computation.
I0720 13:50:35.943866 31799 net.cpp:219] drop7 does not need backward computation.
I0720 13:50:35.943876 31799 net.cpp:219] relu7 does not need backward computation.
…
I0720 13:50:35.944037 31799 net.cpp:219] norm1 does not need backward computation.
I0720 13:50:35.944049 31799 net.cpp:219] pool1 does not need backward computation.
I0720 13:50:35.944059 31799 net.cpp:219] relu1 does not need backward computation.
I0720 13:50:35.944068 31799 net.cpp:219] conv1 does not need backward computation.
I0720 13:50:35.944078 31799 net.cpp:219] data does not need backward computation.
I0720 13:50:35.944088 31799 net.cpp:261] This network produces output prob
I0720 13:50:35.944707 31799 net.cpp:274] Network initialization done.
I0720 13:50:35.958736 31793 net.cpp:141] Setting up fc7
I0720 13:50:35.958812 31793 net.cpp:148] Top shape: 10 4096 (40960)
I0720 13:50:35.958823 31793 net.cpp:156] Memory required for data: 68273720
I0720 13:50:35.958854 31793 layer_factory.hpp:77] Creating layer relu7
I0720 13:50:35.958881 31793 net.cpp:91] Creating Layer relu7
I0720 13:50:35.958895 31793 net.cpp:425] relu7 <- fc7
I0720 13:50:35.958914 31793 net.cpp:386] relu7 -> fc7 (in-place)
I0720 13:50:35.961521 31793 net.cpp:141] Setting up relu7
I0720 13:50:35.961606 31793 net.cpp:148] Top shape: 10 4096 (40960)
I0720 13:50:35.961627 31793 net.cpp:156] Memory required for data: 68437560
I0720 13:50:35.961655 31793 layer_factory.hpp:77] Creating layer drop7
I0720 13:50:35.961712 31793 net.cpp:91] Creating Layer drop7
I0720 13:50:35.961736 31793 net.cpp:425] drop7 <- fc7
I0720 13:50:35.961760 31793 net.cpp:386] drop7 -> fc7 (in-place)
I0720 13:50:35.961796 31793 net.cpp:141] Setting up drop7
I0720 13:50:35.961809 31793 net.cpp:148] Top shape: 10 4096 (40960)
I0720 13:50:35.961818 31793 net.cpp:156] Memory required for data: 68601400
I0720 13:50:35.961828 31793 layer_factory.hpp:77] Creating layer fc8
I0720 13:50:35.961848 31793 net.cpp:91] Creating Layer fc8
I0720 13:50:35.961858 31793 net.cpp:425] fc8 <- fc7
I0720 13:50:35.962442 31793 net.cpp:399] fc8 -> fc8
I0720 13:50:35.969183 31783 net.cpp:141] Setting up fc6
I0720 13:50:35.969270 31783 net.cpp:148] Top shape: 10 4096 (40960)
I0720 13:50:35.969282 31783 net.cpp:156] Memory required for data: 67782200
I0720 13:50:35.969316 31783 layer_factory.hpp:77] Creating layer relu6
I0720 13:50:35.969352 31783 net.cpp:91] Creating Layer relu6
I0720 13:50:35.969365 31783 net.cpp:425] relu6 <- fc6
I0720 13:50:35.969384 31783 net.cpp:386] relu6 -> fc6 (in-place)
I0720 13:50:35.976821 31783 net.cpp:141] Setting up relu6
I0720 13:50:35.976919 31783 net.cpp:148] Top shape: 10 4096 (40960)
I0720 13:50:35.976933 31783 net.cpp:156] Memory required for data: 67946040
I0720 13:50:35.976950 31783 layer_factory.hpp:77] Creating layer drop6
I0720 13:50:35.976981 31783 net.cpp:91] Creating Layer drop6
I0720 13:50:35.976994 31783 net.cpp:425] drop6 <- fc6
I0720 13:50:35.977013 31783 net.cpp:386] drop6 -> fc6 (in-place)
I0720 13:50:35.977046 31783 net.cpp:141] Setting up drop6
I0720 13:50:35.977058 31783 net.cpp:148] Top shape: 10 4096 (40960)
I0720 13:50:35.977067 31783 net.cpp:156] Memory required for data: 68109880
I0720 13:50:35.977077 31783 layer_factory.hpp:77] Creating layer fc7
I0720 13:50:35.977944 31783 net.cpp:91] Creating Layer fc7
I0720 13:50:35.978016 31783 net.cpp:425] fc7 <- fc6
I0720 13:50:35.978055 31783 net.cpp:399] fc7 -> fc7
I0720 13:50:35.984644 31793 net.cpp:141] Setting up fc8
I0720 13:50:35.984781 31793 net.cpp:148] Top shape: 10 1000 (10000)
I0720 13:50:35.984808 31793 net.cpp:156] Memory required for data: 68641400
I0720 13:50:35.984864 31793 layer_factory.hpp:77] Creating layer prob
I0720 13:50:35.984916 31793 net.cpp:91] Creating Layer prob
I0720 13:50:35.984949 31793 net.cpp:425] prob <- fc8
I0720 13:50:35.984987 31793 net.cpp:399] prob -> prob
I0720 13:50:35.990020 31793 net.cpp:141] Setting up prob
I0720 13:50:35.990103 31793 net.cpp:148] Top shape: 10 1000 (10000)
I0720 13:50:35.990110 31793 net.cpp:156] Memory required for data: 68681400
I0720 13:50:35.990120 31793 net.cpp:219] prob does not need backward computation.
I0720 13:50:35.990129 31793 net.cpp:219] fc8 does not need backward computation.
I0720 13:50:35.990134 31793 net.cpp:219] drop7 does not need backward computation.
I0720 13:50:35.990140 31793 net.cpp:219] relu7 does not need backward computation.
…
I0720 13:50:35.990216 31793 net.cpp:219] norm1 does not need backward computation.
I0720 13:50:35.990221 31793 net.cpp:219] pool1 does not need backward computation.
I0720 13:50:35.990226 31793 net.cpp:219] relu1 does not need backward computation.
I0720 13:50:35.990231 31793 net.cpp:219] conv1 does not need backward computation.
I0720 13:50:35.990234 31793 net.cpp:219] data does not need backward computation.
I0720 13:50:35.990239 31793 net.cpp:261] This network produces output prob
I0720 13:50:35.990731 31793 net.cpp:274] Network initialization done.
I0720 13:50:35.991369 31767 net.cpp:141] Setting up fc7
I0720 13:50:35.991430 31767 net.cpp:148] Top shape: 10 4096 (40960)
I0720 13:50:35.991438 31767 net.cpp:156] Memory required for data: 68273720
I0720 13:50:35.991466 31767 layer_factory.hpp:77] Creating layer relu7
I0720 13:50:35.991495 31767 net.cpp:91] Creating Layer relu7
I0720 13:50:35.991511 31767 net.cpp:425] relu7 <- fc7
I0720 13:50:35.991535 31767 net.cpp:386] relu7 -> fc7 (in-place)
I0720 13:50:35.992678 31789 net.cpp:141] Setting up fc6
I0720 13:50:35.992743 31789 net.cpp:148] Top shape: 10 4096 (40960)
I0720 13:50:35.992748 31789 net.cpp:156] Memory required for data: 67782200
I0720 13:50:35.992766 31789 layer_factory.hpp:77] Creating layer relu6
I0720 13:50:35.993661 31789 net.cpp:91] Creating Layer relu6
I0720 13:50:35.993680 31789 net.cpp:425] relu6 <- fc6
I0720 13:50:35.993693 31789 net.cpp:386] relu6 -> fc6 (in-place)
I0720 13:50:35.997979 31789 net.cpp:141] Setting up relu6
I0720 13:50:35.998005 31789 net.cpp:148] Top shape: 10 4096 (40960)
I0720 13:50:35.998011 31789 net.cpp:156] Memory required for data: 67946040
I0720 13:50:35.998016 31789 layer_factory.hpp:77] Creating layer drop6
I0720 13:50:35.998028 31789 net.cpp:91] Creating Layer drop6
I0720 13:50:35.998034 31789 net.cpp:425] drop6 <- fc6
I0720 13:50:35.998634 31789 net.cpp:386] drop6 -> fc6 (in-place)
I0720 13:50:35.998651 31789 net.cpp:141] Setting up drop6
I0720 13:50:35.998658 31789 net.cpp:148] Top shape: 10 4096 (40960)
I0720 13:50:35.998656 31767 net.cpp:141] Setting up relu7
I0720 13:50:35.998697 31789 net.cpp:156] Memory required for data: 68109880
I0720 13:50:35.998739 31789 layer_factory.hpp:77] Creating layer fc7
I0720 13:50:35.998656 31795 net.cpp:141] Setting up fc6
I0720 13:50:35.998752 31789 net.cpp:91] Creating Layer fc7
I0720 13:50:35.998747 31767 net.cpp:148] Top shape: 10 4096 (40960)
I0720 13:50:35.998761 31789 net.cpp:425] fc7 <- fc6
I0720 13:50:35.998775 31767 net.cpp:156] Memory required for data: 68437560
I0720 13:50:35.998786 31789 net.cpp:399] fc7 -> fc7
I0720 13:50:35.998790 31767 layer_factory.hpp:77] Creating layer drop7
I0720 13:50:35.998791 31795 net.cpp:148] Top shape: 10 4096 (40960)
I0720 13:50:35.998812 31795 net.cpp:156] Memory required for data: 67782200
I0720 13:50:35.998819 31767 net.cpp:91] Creating Layer drop7
I0720 13:50:35.998829 31767 net.cpp:425] drop7 <- fc7
I0720 13:50:35.998847 31795 layer_factory.hpp:77] Creating layer relu6
I0720 13:50:35.998873 31795 net.cpp:91] Creating Layer relu6
I0720 13:50:35.998893 31795 net.cpp:425] relu6 <- fc6
I0720 13:50:35.998915 31795 net.cpp:386] relu6 -> fc6 (in-place)
I0720 13:50:35.999775 31767 net.cpp:386] drop7 -> fc7 (in-place)
I0720 13:50:35.999866 31767 net.cpp:141] Setting up drop7
I0720 13:50:35.999891 31767 net.cpp:148] Top shape: 10 4096 (40960)
I0720 13:50:35.999899 31767 net.cpp:156] Memory required for data: 68601400
I0720 13:50:35.999917 31767 layer_factory.hpp:77] Creating layer fc8
I0720 13:50:35.999941 31767 net.cpp:91] Creating Layer fc8
I0720 13:50:35.999953 31767 net.cpp:425] fc8 <- fc7
I0720 13:50:36.000540 31767 net.cpp:399] fc8 -> fc8
I0720 13:50:36.006963 31795 net.cpp:141] Setting up relu6
I0720 13:50:36.008018 31795 net.cpp:148] Top shape: 10 4096 (40960)
I0720 13:50:36.008065 31795 net.cpp:156] Memory required for data: 67946040
I0720 13:50:36.008091 31795 layer_factory.hpp:77] Creating layer drop6
I0720 13:50:36.009383 31795 net.cpp:91] Creating Layer drop6
I0720 13:50:36.009426 31795 net.cpp:425] drop6 <- fc6
I0720 13:50:36.009444 31795 net.cpp:386] drop6 -> fc6 (in-place)
I0720 13:50:36.009470 31795 net.cpp:141] Setting up drop6
I0720 13:50:36.009490 31795 net.cpp:148] Top shape: 10 4096 (40960)
I0720 13:50:36.009497 31795 net.cpp:156] Memory required for data: 68109880
I0720 13:50:36.009507 31795 layer_factory.hpp:77] Creating layer fc7
I0720 13:50:36.009526 31795 net.cpp:91] Creating Layer fc7
I0720 13:50:36.009534 31795 net.cpp:425] fc7 <- fc6
I0720 13:50:36.010278 31795 net.cpp:399] fc7 -> fc7
I0720 13:50:36.011137 31787 net.cpp:141] Setting up fc6
I0720 13:50:36.011168 31787 net.cpp:148] Top shape: 10 4096 (40960)
I0720 13:50:36.011175 31787 net.cpp:156] Memory required for data: 67782200
I0720 13:50:36.011189 31787 layer_factory.hpp:77] Creating layer relu6
I0720 13:50:36.011204 31787 net.cpp:91] Creating Layer relu6
I0720 13:50:36.011211 31787 net.cpp:425] relu6 <- fc6
I0720 13:50:36.011976 31787 net.cpp:386] relu6 -> fc6 (in-place)
I0720 13:50:36.011976 31781 net.cpp:141] Setting up fc6
I0720 13:50:36.012011 31781 net.cpp:148] Top shape: 10 4096 (40960)
I0720 13:50:36.012020 31781 net.cpp:156] Memory required for data: 67782200
I0720 13:50:36.012039 31781 layer_factory.hpp:77] Creating layer relu6
I0720 13:50:36.012055 31781 net.cpp:91] Creating Layer relu6
I0720 13:50:36.012065 31781 net.cpp:425] relu6 <- fc6
I0720 13:50:36.012084 31781 net.cpp:386] relu6 -> fc6 (in-place)
I0720 13:50:36.017583 31767 net.cpp:141] Setting up fc8
I0720 13:50:36.017659 31767 net.cpp:148] Top shape: 10 1000 (10000)
I0720 13:50:36.017671 31767 net.cpp:156] Memory required for data: 68641400
I0720 13:50:36.017699 31767 layer_factory.hpp:77] Creating layer prob
I0720 13:50:36.017724 31767 net.cpp:91] Creating Layer prob
I0720 13:50:36.017735 31767 net.cpp:425] prob <- fc8
I0720 13:50:36.017750 31767 net.cpp:399] prob -> prob
I0720 13:50:36.019667 31781 net.cpp:141] Setting up relu6
I0720 13:50:36.019722 31781 net.cpp:148] Top shape: 10 4096 (40960)
I0720 13:50:36.019736 31781 net.cpp:156] Memory required for data: 67946040
I0720 13:50:36.019750 31781 layer_factory.hpp:77] Creating layer drop6
I0720 13:50:36.019774 31781 net.cpp:91] Creating Layer drop6
I0720 13:50:36.019786 31781 net.cpp:425] drop6 <- fc6
I0720 13:50:36.020603 31781 net.cpp:386] drop6 -> fc6 (in-place)
I0720 13:50:36.020663 31781 net.cpp:141] Setting up drop6
I0720 13:50:36.020686 31781 net.cpp:148] Top shape: 10 4096 (40960)
I0720 13:50:36.020696 31781 net.cpp:156] Memory required for data: 68109880
I0720 13:50:36.020709 31781 layer_factory.hpp:77] Creating layer fc7
I0720 13:50:36.020732 31781 net.cpp:91] Creating Layer fc7
I0720 13:50:36.020742 31781 net.cpp:425] fc7 <- fc6
I0720 13:50:36.021114 31781 net.cpp:399] fc7 -> fc7
I0720 13:50:36.021664 31787 net.cpp:141] Setting up relu6
I0720 13:50:36.021709 31787 net.cpp:148] Top shape: 10 4096 (40960)
I0720 13:50:36.021716 31787 net.cpp:156] Memory required for data: 67946040
I0720 13:50:36.021724 31787 layer_factory.hpp:77] Creating layer drop6
I0720 13:50:36.023049 31767 net.cpp:141] Setting up prob
I0720 13:50:36.023051 31787 net.cpp:91] Creating Layer drop6
I0720 13:50:36.023082 31767 net.cpp:148] Top shape: 10 1000 (10000)
I0720 13:50:36.023085 31787 net.cpp:425] drop6 <- fc6
I0720 13:50:36.023088 31767 net.cpp:156] Memory required for data: 68681400
I0720 13:50:36.023095 31767 net.cpp:219] prob does not need backward computation.
I0720 13:50:36.023102 31787 net.cpp:386] drop6 -> fc6 (in-place)
I0720 13:50:36.023102 31767 net.cpp:219] fc8 does not need backward computation.
I0720 13:50:36.023114 31767 net.cpp:219] drop7 does not need backward computation.
I0720 13:50:36.023119 31767 net.cpp:219] relu7 does not need backward computation.
I0720 13:50:36.023121 31787 net.cpp:141] Setting up drop6
I0720 13:50:36.023124 31767 net.cpp:219] fc7 does not need backward computation.
I0720 13:50:36.023129 31767 net.cpp:219] drop6 does not need backward computation.
I0720 13:50:36.023133 31787 net.cpp:148] Top shape: 10 4096 (40960)
I0720 13:50:36.023134 31767 net.cpp:219] relu6 does not need backward computation.
I0720 13:50:36.023138 31787 net.cpp:156] Memory required for data: 68109880
I0720 13:50:36.023139 31767 net.cpp:219] fc6 does not need backward computation.
I0720 13:50:36.023144 31787 layer_factory.hpp:77] Creating layer fc7
I0720 13:50:36.023145 31767 net.cpp:219] pool5 does not need backward computation.
…
I0720 13:50:36.023205 31767 net.cpp:219] norm1 does not need backward computation.
I0720 13:50:36.023210 31767 net.cpp:219] pool1 does not need backward computation.
I0720 13:50:36.023213 31767 net.cpp:219] relu1 does not need backward computation.
I0720 13:50:36.023217 31767 net.cpp:219] conv1 does not need backward computation.
I0720 13:50:36.023222 31767 net.cpp:219] data does not need backward computation.
I0720 13:50:36.023226 31767 net.cpp:261] This network produces output prob
I0720 13:50:36.023998 31767 net.cpp:274] Network initialization done.
I0720 13:50:36.041036 31789 net.cpp:141] Setting up fc7
I0720 13:50:36.041110 31789 net.cpp:148] Top shape: 10 4096 (40960)
I0720 13:50:36.041120 31789 net.cpp:156] Memory required for data: 68273720
I0720 13:50:36.041144 31789 layer_factory.hpp:77] Creating layer relu7
I0720 13:50:36.041642 31789 net.cpp:91] Creating Layer relu7
I0720 13:50:36.041661 31789 net.cpp:425] relu7 <- fc7
I0720 13:50:36.041679 31789 net.cpp:386] relu7 -> fc7 (in-place)
I0720 13:50:36.045819 31789 net.cpp:141] Setting up relu7
I0720 13:50:36.045876 31789 net.cpp:148] Top shape: 10 4096 (40960)
I0720 13:50:36.045883 31789 net.cpp:156] Memory required for data: 68437560
I0720 13:50:36.045893 31789 layer_factory.hpp:77] Creating layer drop7
I0720 13:50:36.046970 31789 net.cpp:91] Creating Layer drop7
I0720 13:50:36.046993 31789 net.cpp:425] drop7 <- fc7
I0720 13:50:36.047535 31789 net.cpp:386] drop7 -> fc7 (in-place)
I0720 13:50:36.047570 31789 net.cpp:141] Setting up drop7
I0720 13:50:36.047579 31789 net.cpp:148] Top shape: 10 4096 (40960)
I0720 13:50:36.047583 31789 net.cpp:156] Memory required for data: 68601400
I0720 13:50:36.047588 31789 layer_factory.hpp:77] Creating layer fc8
I0720 13:50:36.047600 31789 net.cpp:91] Creating Layer fc8
I0720 13:50:36.047605 31789 net.cpp:425] fc8 <- fc7
I0720 13:50:36.047612 31789 net.cpp:399] fc8 -> fc8
I0720 13:50:36.048225 31783 net.cpp:141] Setting up fc7
I0720 13:50:36.048285 31783 net.cpp:148] Top shape: 10 4096 (40960)
I0720 13:50:36.048295 31783 net.cpp:156] Memory required for data: 68273720
I0720 13:50:36.048311 31783 layer_factory.hpp:77] Creating layer relu7
I0720 13:50:36.048326 31783 net.cpp:91] Creating Layer relu7
I0720 13:50:36.048333 31783 net.cpp:425] relu7 <- fc7
I0720 13:50:36.048794 31783 net.cpp:386] relu7 -> fc7 (in-place)
I0720 13:50:36.057651 31783 net.cpp:141] Setting up relu7
I0720 13:50:36.057780 31783 net.cpp:148] Top shape: 10 4096 (40960)
I0720 13:50:36.057809 31783 net.cpp:156] Memory required for data: 68437560
I0720 13:50:36.057843 31783 layer_factory.hpp:77] Creating layer drop7
I0720 13:50:36.057900 31783 net.cpp:91] Creating Layer drop7
I0720 13:50:36.057931 31783 net.cpp:425] drop7 <- fc7
I0720 13:50:36.059192 31783 net.cpp:386] drop7 -> fc7 (in-place)
I0720 13:50:36.059336 31783 net.cpp:141] Setting up drop7
I0720 13:50:36.059383 31783 net.cpp:148] Top shape: 10 4096 (40960)
I0720 13:50:36.059411 31783 net.cpp:156] Memory required for data: 68601400
I0720 13:50:36.059442 31783 layer_factory.hpp:77] Creating layer fc8
I0720 13:50:36.059494 31783 net.cpp:91] Creating Layer fc8
I0720 13:50:36.059523 31783 net.cpp:425] fc8 <- fc7
I0720 13:50:36.059815 31783 net.cpp:399] fc8 -> fc8
I0720 13:50:36.062278 31789 net.cpp:141] Setting up fc8
I0720 13:50:36.062296 31787 net.cpp:141] Setting up fc7
I0720 13:50:36.066066 31801 net.cpp:141] Setting up fc6
I0720 13:50:36.066236 31787 net.cpp:148] Top shape: 10 4096 (40960)
I0720 13:50:36.066233 31789 net.cpp:148] Top shape: 10 1000 (10000)
I0720 13:50:36.066272 31787 net.cpp:156] Memory required for data: 68273720
I0720 13:50:36.066279 31789 net.cpp:156] Memory required for data: 68641400
I0720 13:50:36.066283 31801 net.cpp:148] Top shape: 10 4096 (40960)
I0720 13:50:36.066295 31787 layer_factory.hpp:77] Creating layer relu7
I0720 13:50:36.066298 31801 net.cpp:156] Memory required for data: 67782200
I0720 13:50:36.066295 31789 layer_factory.hpp:77] Creating layer prob
I0720 13:50:36.066318 31787 net.cpp:91] Creating Layer relu7
I0720 13:50:36.066326 31787 net.cpp:425] relu7 <- fc7
I0720 13:50:36.066331 31801 layer_factory.hpp:77] Creating layer relu6
I0720 13:50:36.066326 31789 net.cpp:91] Creating Layer prob
I0720 13:50:36.066754 31787 net.cpp:386] relu7 -> fc7 (in-place)
I0720 13:50:36.066766 31789 net.cpp:425] prob <- fc8
I0720 13:50:36.066777 31789 net.cpp:399] prob -> prob
I0720 13:50:36.066774 31781 net.cpp:141] Setting up fc7
I0720 13:50:36.066797 31781 net.cpp:148] Top shape: 10 4096 (40960)
I0720 13:50:36.066802 31781 net.cpp:156] Memory required for data: 68273720
I0720 13:50:36.066813 31781 layer_factory.hpp:77] Creating layer relu7
I0720 13:50:36.067497 31801 net.cpp:91] Creating Layer relu6
I0720 13:50:36.067512 31801 net.cpp:425] relu6 <- fc6
I0720 13:50:36.067523 31801 net.cpp:386] relu6 -> fc6 (in-place)
I0720 13:50:36.068109 31781 net.cpp:91] Creating Layer relu7
I0720 13:50:36.068135 31781 net.cpp:425] relu7 <- fc7
I0720 13:50:36.068145 31781 net.cpp:386] relu7 -> fc7 (in-place)
I0720 13:50:36.069131 31795 net.cpp:141] Setting up fc7
I0720 13:50:36.069166 31795 net.cpp:148] Top shape: 10 4096 (40960)
I0720 13:50:36.069177 31795 net.cpp:156] Memory required for data: 68273720
I0720 13:50:36.069203 31795 layer_factory.hpp:77] Creating layer relu7
I0720 13:50:36.069223 31795 net.cpp:91] Creating Layer relu7
I0720 13:50:36.069236 31795 net.cpp:425] relu7 <- fc7
I0720 13:50:36.069252 31795 net.cpp:386] relu7 -> fc7 (in-place)
I0720 13:50:36.073789 31783 net.cpp:141] Setting up fc8
I0720 13:50:36.073835 31783 net.cpp:148] Top shape: 10 1000 (10000)
I0720 13:50:36.073842 31783 net.cpp:156] Memory required for data: 68641400
I0720 13:50:36.073855 31783 layer_factory.hpp:77] Creating layer prob
I0720 13:50:36.074306 31783 net.cpp:91] Creating Layer prob
I0720 13:50:36.074318 31783 net.cpp:425] prob <- fc8
I0720 13:50:36.074329 31783 net.cpp:399] prob -> prob
I0720 13:50:36.079287 31801 net.cpp:141] Setting up relu6
I0720 13:50:36.079342 31801 net.cpp:148] Top shape: 10 4096 (40960)
I0720 13:50:36.079352 31801 net.cpp:156] Memory required for data: 67946040
I0720 13:50:36.079366 31801 layer_factory.hpp:77] Creating layer drop6
I0720 13:50:36.079394 31801 net.cpp:91] Creating Layer drop6
I0720 13:50:36.079406 31801 net.cpp:425] drop6 <- fc6
I0720 13:50:36.079421 31801 net.cpp:386] drop6 -> fc6 (in-place)
I0720 13:50:36.079444 31801 net.cpp:141] Setting up drop6
I0720 13:50:36.079455 31801 net.cpp:148] Top shape: 10 4096 (40960)
I0720 13:50:36.079463 31801 net.cpp:156] Memory required for data: 68109880
I0720 13:50:36.079470 31801 layer_factory.hpp:77] Creating layer fc7
I0720 13:50:36.079486 31801 net.cpp:91] Creating Layer fc7
I0720 13:50:36.079494 31801 net.cpp:425] fc7 <- fc6
I0720 13:50:36.079820 31801 net.cpp:399] fc7 -> fc7
I0720 13:50:36.086823 31777 net.cpp:141] Setting up fc6
I0720 13:50:36.086824 31783 net.cpp:141] Setting up prob
I0720 13:50:36.086904 31777 net.cpp:148] Top shape: 10 4096 (40960)
I0720 13:50:36.086916 31777 net.cpp:156] Memory required for data: 67782200
I0720 13:50:36.086917 31783 net.cpp:148] Top shape: 10 1000 (10000)
I0720 13:50:36.086936 31783 net.cpp:156] Memory required for data: 68681400
I0720 13:50:36.086947 31783 net.cpp:219] prob does not need backward computation.
I0720 13:50:36.086947 31777 layer_factory.hpp:77] Creating layer relu6
I0720 13:50:36.086956 31783 net.cpp:219] fc8 does not need backward computation.
I0720 13:50:36.086962 31783 net.cpp:219] drop7 does not need backward computation.
…
I0720 13:50:36.089828 31789 net.cpp:219] norm1 does not need backward computation.
I0720 13:50:36.089831 31789 net.cpp:219] pool1 does not need backward computation.
I0720 13:50:36.089835 31789 net.cpp:219] relu1 does not need backward computation.
I0720 13:50:36.089839 31789 net.cpp:219] conv1 does not need backward computation.
I0720 13:50:36.089843 31789 net.cpp:219] data does not need backward computation.
I0720 13:50:36.089848 31789 net.cpp:261] This network produces output prob
I0720 13:50:36.090543 31789 net.cpp:274] Network initialization done.
I0720 13:50:36.092380 31769 net.cpp:141] Setting up predict
I0720 13:50:36.092401 31769 net.cpp:148] Top shape: 1 1 46168 (46168)
I0720 13:50:36.092407 31769 net.cpp:156] Memory required for data: 221084
I0720 13:50:36.092419 31769 layer_factory.hpp:77] Creating layer probs
I0720 13:50:36.092432 31769 net.cpp:91] Creating Layer probs
I0720 13:50:36.092437 31769 net.cpp:425] probs <- predict
I0720 13:50:36.092447 31769 net.cpp:399] probs -> probs
I0720 13:50:36.094041 31781 net.cpp:141] Setting up relu7
I0720 13:50:36.094085 31781 net.cpp:148] Top shape: 10 4096 (40960)
I0720 13:50:36.094091 31781 net.cpp:156] Memory required for data: 68437560
I0720 13:50:36.094100 31781 layer_factory.hpp:77] Creating layer drop7
I0720 13:50:36.094118 31781 net.cpp:91] Creating Layer drop7
I0720 13:50:36.094125 31781 net.cpp:425] drop7 <- fc7
I0720 13:50:36.095660 31781 net.cpp:386] drop7 -> fc7 (in-place)
I0720 13:50:36.095713 31781 net.cpp:141] Setting up drop7
I0720 13:50:36.095723 31781 net.cpp:148] Top shape: 10 4096 (40960)
I0720 13:50:36.095728 31781 net.cpp:156] Memory required for data: 68601400
I0720 13:50:36.095733 31781 layer_factory.hpp:77] Creating layer fc8
I0720 13:50:36.095746 31781 net.cpp:91] Creating Layer fc8
I0720 13:50:36.095751 31781 net.cpp:425] fc8 <- fc7
I0720 13:50:36.095757 31781 net.cpp:399] fc8 -> fc8
I0720 13:50:36.097343 31795 net.cpp:141] Setting up relu7
I0720 13:50:36.097342 31777 net.cpp:141] Setting up relu6
I0720 13:50:36.097375 31795 net.cpp:148] Top shape: 10 4096 (40960)
I0720 13:50:36.097389 31795 net.cpp:156] Memory required for data: 68437560
I0720 13:50:36.097396 31777 net.cpp:148] Top shape: 10 4096 (40960)
I0720 13:50:36.097403 31795 layer_factory.hpp:77] Creating layer drop7
I0720 13:50:36.097419 31777 net.cpp:156] Memory required for data: 67946040
I0720 13:50:36.097443 31795 net.cpp:91] Creating Layer drop7
I0720 13:50:36.097445 31777 layer_factory.hpp:77] Creating layer drop6
I0720 13:50:36.097461 31795 net.cpp:425] drop7 <- fc7
I0720 13:50:36.097479 31777 net.cpp:91] Creating Layer drop6
I0720 13:50:36.097492 31777 net.cpp:425] drop6 <- fc6
I0720 13:50:36.097508 31777 net.cpp:386] drop6 -> fc6 (in-place)
I0720 13:50:36.097529 31777 net.cpp:141] Setting up drop6
I0720 13:50:36.097543 31777 net.cpp:148] Top shape: 10 4096 (40960)
I0720 13:50:36.097553 31777 net.cpp:156] Memory required for data: 68109880
I0720 13:50:36.097563 31777 layer_factory.hpp:77] Creating layer fc7
I0720 13:50:36.097580 31777 net.cpp:91] Creating Layer fc7
I0720 13:50:36.097591 31777 net.cpp:425] fc7 <- fc6
I0720 13:50:36.097911 31769 net.cpp:141] Setting up probs
I0720 13:50:36.097931 31769 net.cpp:148] Top shape: 1 1 46168 (46168)
I0720 13:50:36.097937 31769 net.cpp:156] Memory required for data: 405756
I0720 13:50:36.097942 31769 net.cpp:219] probs does not need backward computation.
I0720 13:50:36.097949 31769 net.cpp:219] predict does not need backward computation.
I0720 13:50:36.097952 31769 net.cpp:219] lstm2 does not need backward computation.
I0720 13:50:36.097960 31769 net.cpp:219] concat does not need backward computation.
I0720 13:50:36.097971 31769 net.cpp:219] lstm1 does not need backward computation.
I0720 13:50:36.097978 31769 net.cpp:219] embedding does not need backward computation.
I0720 13:50:36.097983 31769 net.cpp:219] reshape_stage_indicator does not need backward computation.
I0720 13:50:36.097987 31769 net.cpp:219] reshape_frames does not need backward computation.
I0720 13:50:36.097992 31769 net.cpp:219] embed_encoder does not need backward computation.
I0720 13:50:36.097997 31769 net.cpp:219] cont_sentence_input_1_split does not need backward computation.
I0720 13:50:36.098002 31769 net.cpp:219] input does not need backward computation.
I0720 13:50:36.098006 31769 net.cpp:261] This network produces output probs
I0720 13:50:36.098021 31769 net.cpp:274] Network initialization done.
I0720 13:50:36.098500 31777 net.cpp:399] fc7 -> fc7
I0720 13:50:36.098507 31795 net.cpp:386] drop7 -> fc7 (in-place)
I0720 13:50:36.098537 31795 net.cpp:141] Setting up drop7
I0720 13:50:36.098553 31795 net.cpp:148] Top shape: 10 4096 (40960)
I0720 13:50:36.098562 31795 net.cpp:156] Memory required for data: 68601400
I0720 13:50:36.098572 31795 layer_factory.hpp:77] Creating layer fc8
I0720 13:50:36.098588 31795 net.cpp:91] Creating Layer fc8
I0720 13:50:36.098599 31795 net.cpp:425] fc8 <- fc7
I0720 13:50:36.099611 31795 net.cpp:399] fc8 -> fc8
I0720 13:50:36.118835 31781 net.cpp:141] Setting up fc8
I0720 13:50:36.118845 31787 net.cpp:141] Setting up fc8
I0720 13:50:36.118892 31781 net.cpp:148] Top shape: 10 1000 (10000)
I0720 13:50:36.118911 31781 net.cpp:156] Memory required for data: 68641400
I0720 13:50:36.118921 31787 net.cpp:148] Top shape: 10 1000 (10000)
I0720 13:50:36.118929 31781 layer_factory.hpp:77] Creating layer prob
I0720 13:50:36.118932 31787 net.cpp:156] Memory required for data: 68641400
I0720 13:50:36.118947 31781 net.cpp:91] Creating Layer prob
I0720 13:50:36.118953 31787 layer_factory.hpp:77] Creating layer prob
I0720 13:50:36.118957 31781 net.cpp:425] prob <- fc8
I0720 13:50:36.120263 31787 net.cpp:91] Creating Layer prob
I0720 13:50:36.120290 31787 net.cpp:425] prob <- fc8
I0720 13:50:36.120283 31781 net.cpp:399] prob -> prob
I0720 13:50:36.120306 31787 net.cpp:399] prob -> prob
I0720 13:50:36.126116 31781 net.cpp:141] Setting up prob
I0720 13:50:36.126116 31787 net.cpp:141] Setting up prob
I0720 13:50:36.126183 31781 net.cpp:148] Top shape: 10 1000 (10000)
I0720 13:50:36.126194 31781 net.cpp:156] Memory required for data: 68681400
I0720 13:50:36.126207 31781 net.cpp:219] prob does not need backward computation.
I0720 13:50:36.126219 31781 net.cpp:219] fc8 does not need backward computation.
I0720 13:50:36.126226 31781 net.cpp:219] drop7 does not need backward computation.
I0720 13:50:36.126235 31781 net.cpp:219] relu7 does not need backward computation.
…
I0720 13:50:36.134471 31795 net.cpp:219] norm1 does not need backward computation.
I0720 13:50:36.134476 31795 net.cpp:219] pool1 does not need backward computation.
I0720 13:50:36.134480 31795 net.cpp:219] relu1 does not need backward computation.
I0720 13:50:36.134485 31795 net.cpp:219] conv1 does not need backward computation.
I0720 13:50:36.134491 31795 net.cpp:219] data does not need backward computation.
I0720 13:50:36.134500 31795 net.cpp:261] This network produces output prob
I0720 13:50:36.134555 31795 net.cpp:274] Network initialization done.
I0720 13:50:36.146045 31801 net.cpp:141] Setting up fc7
I0720 13:50:36.146142 31801 net.cpp:148] Top shape: 10 4096 (40960)
I0720 13:50:36.146162 31801 net.cpp:156] Memory required for data: 68273720
I0720 13:50:36.146200 31801 layer_factory.hpp:77] Creating layer relu7
I0720 13:50:36.146239 31801 net.cpp:91] Creating Layer relu7
I0720 13:50:36.146260 31801 net.cpp:425] relu7 <- fc7
I0720 13:50:36.146286 31801 net.cpp:386] relu7 -> fc7 (in-place)
I0720 13:50:36.149128 31777 net.cpp:141] Setting up fc7
I0720 13:50:36.149196 31777 net.cpp:148] Top shape: 10 4096 (40960)
I0720 13:50:36.149206 31777 net.cpp:156] Memory required for data: 68273720
I0720 13:50:36.149230 31777 layer_factory.hpp:77] Creating layer relu7
I0720 13:50:36.149252 31777 net.cpp:91] Creating Layer relu7
I0720 13:50:36.149262 31777 net.cpp:425] relu7 <- fc7
I0720 13:50:36.149277 31777 net.cpp:386] relu7 -> fc7 (in-place)
I0720 13:50:36.153483 31801 net.cpp:141] Setting up relu7
I0720 13:50:36.153550 31801 net.cpp:148] Top shape: 10 4096 (40960)
I0720 13:50:36.153563 31801 net.cpp:156] Memory required for data: 68437560
I0720 13:50:36.153579 31801 layer_factory.hpp:77] Creating layer drop7
I0720 13:50:36.153607 31801 net.cpp:91] Creating Layer drop7
I0720 13:50:36.153620 31801 net.cpp:425] drop7 <- fc7
I0720 13:50:36.153991 31801 net.cpp:386] drop7 -> fc7 (in-place)
I0720 13:50:36.154006 31777 net.cpp:141] Setting up relu7
I0720 13:50:36.154026 31801 net.cpp:141] Setting up drop7
I0720 13:50:36.154055 31777 net.cpp:148] Top shape: 10 4096 (40960)
I0720 13:50:36.154058 31801 net.cpp:148] Top shape: 10 4096 (40960)
I0720 13:50:36.154068 31777 net.cpp:156] Memory required for data: 68437560
I0720 13:50:36.154072 31801 net.cpp:156] Memory required for data: 68601400
I0720 13:50:36.154083 31777 layer_factory.hpp:77] Creating layer drop7
I0720 13:50:36.154083 31801 layer_factory.hpp:77] Creating layer fc8
I0720 13:50:36.154115 31777 net.cpp:91] Creating Layer drop7
I0720 13:50:36.154119 31801 net.cpp:91] Creating Layer fc8
I0720 13:50:36.154129 31777 net.cpp:425] drop7 <- fc7
I0720 13:50:36.154134 31801 net.cpp:425] fc8 <- fc7
I0720 13:50:36.154145 31777 net.cpp:386] drop7 -> fc7 (in-place)
I0720 13:50:36.154153 31801 net.cpp:399] fc8 -> fc8
I0720 13:50:36.154166 31777 net.cpp:141] Setting up drop7
I0720 13:50:36.154178 31777 net.cpp:148] Top shape: 10 4096 (40960)
I0720 13:50:36.154186 31777 net.cpp:156] Memory required for data: 68601400
I0720 13:50:36.154192 31777 layer_factory.hpp:77] Creating layer fc8
I0720 13:50:36.154206 31777 net.cpp:91] Creating Layer fc8
I0720 13:50:36.154214 31777 net.cpp:425] fc8 <- fc7
I0720 13:50:36.154513 31777 net.cpp:399] fc8 -> fc8
I0720 13:50:36.165494 31801 net.cpp:141] Setting up fc8
I0720 13:50:36.165555 31801 net.cpp:148] Top shape: 10 1000 (10000)
I0720 13:50:36.165566 31801 net.cpp:156] Memory required for data: 68641400
I0720 13:50:36.165592 31801 layer_factory.hpp:77] Creating layer prob
I0720 13:50:36.166064 31801 net.cpp:91] Creating Layer prob
I0720 13:50:36.166084 31801 net.cpp:425] prob <- fc8
I0720 13:50:36.166074 31777 net.cpp:141] Setting up fc8
I0720 13:50:36.166103 31801 net.cpp:399] prob -> prob
I0720 13:50:36.166121 31777 net.cpp:148] Top shape: 10 1000 (10000)
I0720 13:50:36.166132 31777 net.cpp:156] Memory required for data: 68641400
I0720 13:50:36.166157 31777 layer_factory.hpp:77] Creating layer prob
I0720 13:50:36.166180 31777 net.cpp:91] Creating Layer prob
I0720 13:50:36.166193 31777 net.cpp:425] prob <- fc8
I0720 13:50:36.166208 31777 net.cpp:399] prob -> prob
I0720 13:50:36.174793 31801 net.cpp:141] Setting up prob
I0720 13:50:36.174856 31801 net.cpp:148] Top shape: 10 1000 (10000)
I0720 13:50:36.174867 31801 net.cpp:156] Memory required for data: 68681400
I0720 13:50:36.174882 31801 net.cpp:219] prob does not need backward computation.
I0720 13:50:36.174895 31801 net.cpp:219] fc8 does not need backward computation.
I0720 13:50:36.174902 31801 net.cpp:219] drop7 does not need backward computation.
I0720 13:50:36.174909 31801 net.cpp:219] relu7 does not need backward computation.
…
