…
W0922 22:16:51.871474 22534 upgrade_proto.cpp:71] Note that future Caffe releases will only support input layers and not input fields.
I0922 22:16:51.871731 22534 net.cpp:49] Initializing net from parameters: 
name: "s2vt:features_to_lstm"
state {
  phase: TEST
}
layer {
  name: "input"
  type: "Input"
  top: "frames_fc7"
  top: "cont_sentence"
  top: "input_sentence"
  top: "stage_indicator"
  input_param {
    shape {
      dim: 1
      dim: 4096
    }
    shape {
      dim: 1
      dim: 1
    }
    shape {
      dim: 1
      dim: 1
    }
    shape {
      dim: 1
      dim: 1
    }
  }
}
layer {
  name: "embed_encoder"
  type: "InnerProduct"
  bottom: "frames_fc7"
  top: "embedded_in_frames"
  param {
    lr_mult: 1
    decay_mult: 1
  }
  param {
    lr_mult: 2
    decay_mult: 0
  }
  inner_product_param {
    num_output: 500
    weight_filler {
      type: "xavier"
    }
    bias_filler {
      type: "constant"
      value: 0.2
    }
  }
}
layer {
  name: "reshape_frames"
  type: "Reshape"
  bottom: "embedded_in_frames"
  top: "embedded_input_frames"
  reshape_param {
    shape {
      dim: 1
      dim: 1
      dim: 500
    }
  }
}
layer {
  name: "reshape_stage_indicator"
  type: "Reshape"
  bottom: "stage_indicator"
  top: "reshaped_stage_indicator"
  reshape_param {
    shape {
      dim: 1
      dim: 1
      dim: 1
    }
  }
}
layer {
  name: "embedding"
  type: "Embed"
  bottom: "input_sentence"
  top: "embedded_input_sentence"
  param {
    lr_mult: 1
  }
  embed_param {
    num_output: 500
    input_dim: 46168
    bias_term: false
    weight_filler {
      type: "uniform"
      min: -0.08
      max: 0.08
    }
  }
}
layer {
  name: "lstm1"
  type: "LSTM"
  bottom: "embedded_input_frames"
  bottom: "cont_sentence"
  top: "lstm1"
  recurrent_param {
    num_output: 1000
    weight_filler {
      type: "uniform"
      min: -0.08
      max: 0.08
    }
    bias_filler {
      type: "constant"
      value: 0
    }
  }
}
layer {
  name: "concat"
  type: "Concat"
  bottom: "lstm1"
  bottom: "embedded_input_sentence"
  bottom: "reshaped_stage_indicator"
  top: "lstm1_video_sequence"
  concat_param {
    concat_dim: 2
  }
}
layer {
  name: "lstm2"
  type: "LSTM"
  bottom: "lstm1_video_sequence"
  bottom: "cont_sentence"
  top: "lstm2"
  recurrent_param {
    num_output: 1000
    weight_filler {
      type: "uniform"
      min: -0.08
      max: 0.08
    }
    bias_filler {
      type: "constant"
      value: 0
    }
  }
}
layer {
  name: "predict"
  type: "InnerProduct"
  bottom: "lstm2"
  top: "predict"
  param {
    lr_mult: 1
    decay_mult: 1
  }
  param {
    lr_mult: 2
    decay_mult: 0
  }
  inner_product_param {
    num_output: 46168
    weight_filler {
      type: "uniform"
      min: -0.08
      max: 0.08
    }
    bias_filler {
      type: "constant"
      value: 0
    }
    axis: 2
  }
}
layer {
  name: "probs"
  type: "Softmax"
  bottom: "predict"
  top: "probs"
  softmax_param {
    axis: 2
  }
}
I0922 22:16:51.871738 22530 net.cpp:49] Initializing net from parameters: 
name: "s2vt:features_to_lstm"
state {
  phase: TEST
}
layer {
  name: "input"
  type: "Input"
  top: "frames_fc7"
  top: "cont_sentence"
  top: "input_sentence"
  top: "stage_indicator"
  input_param {
    shape {
      dim: 1
      dim: 4096
    }
    shape {
      dim: 1
      dim: 1
    }
    shape {
      dim: 1
      dim: 1
    }
    shape {
      dim: 1
      dim: 1
    }
  }
}
layer {
  name: "embed_encoder"
  type: "InnerProduct"
  bottom: "frames_fc7"
  top: "embedded_in_frames"
  param {
    lr_mult: 1
    decay_mult: 1
  }
  param {
    lr_mult: 2
    decay_mult: 0
  }
  inner_product_param {
    num_output: 500
    weight_filler {
      type: "xavier"
    }
    bias_filler {
      type: "constant"
      value: 0.2
    }
  }
}
layer {
  name: "reshape_frames"
  type: "Reshape"
  bottom: "embedded_in_frames"
  top: "embedded_input_frames"
  reshape_param {
    shape {
      dim: 1
      dim: 1
      dim: 500
    }
  }
}
layer {
  name: "reshape_stage_indicator"
  type: "Reshape"
  bottom: "stage_indicator"
  top: "reshaped_stage_indicator"
  reshape_param {
    shape {
      dim: 1
      dim: 1
      dim: 1
    }
  }
}
layer {
  name: "embedding"
  type: "Embed"
  bottom: "input_sentence"
  top: "embedded_input_sentence"
  param {
    lr_mult: 1
  }
  embed_param {
    num_output: 500
    input_dim: 46168
    bias_term: false
    weight_filler {
      type: "uniform"
      min: -0.08
      max: 0.08
    }
  }
}
layer {
  name: "lstm1"
  type: "LSTM"
  bottom: "embedded_input_frames"
  bottom: "cont_sentence"
  top: "lstm1"
  recurrent_param {
    num_output: 1000
    weight_filler {
      type: "uniform"
      min: -0.08
      max: 0.08
    }
    bias_filler {
      type: "constant"
      value: 0
    }
  }
}
layer {
  name: "concat"
  type: "Concat"
  bottom: "lstm1"
  bottom: "embedded_input_sentence"
  bottom: "reshaped_stage_indicator"
  top: "lstm1_video_sequence"
  concat_param {
    concat_dim: 2
  }
}
layer {
  name: "lstm2"
  type: "LSTM"
  bottom: "lstm1_video_sequence"
  bottom: "cont_sentence"
  top: "lstm2"
  recurrent_param {
    num_output: 1000
    weight_filler {
      type: "uniform"
      min: -0.08
      max: 0.08
    }
    bias_filler {
      type: "constant"
      value: 0
    }
  }
}
layer {
  name: "predict"
  type: "InnerProduct"
  bottom: "lstm2"
  top: "predict"
  param {
    lr_mult: 1
    decay_mult: 1
  }
  param {
    lr_mult: 2
    decay_mult: 0
  }
  inner_product_param {
    num_output: 46168
    weight_filler {
      type: "uniform"
      min: -0.08
      max: 0.08
    }
    bias_filler {
      type: "constant"
      value: 0
    }
    axis: 2
  }
}
layer {
  name: "probs"
  type: "Softmax"
  bottom: "predict"
  top: "probs"
  softmax_param {
    axis: 2
  }
}
I0922 22:16:51.871754 22540 net.cpp:49] Initializing net from parameters: 
name: "CaffeNet"
state {
  phase: TEST
}
layer {
  name: "data"
  type: "Input"
  top: "data"
  input_param {
    shape {
      dim: 10
      dim: 3
      dim: 227
      dim: 227
    }
  }
}
layer {
  name: "conv1"
  type: "Convolution"
  bottom: "data"
  top: "conv1"
  convolution_param {
    num_output: 96
    kernel_size: 11
    stride: 4
  }
}
layer {
  name: "relu1"
  type: "ReLU"
  bottom: "conv1"
  top: "conv1"
}
layer {
  name: "pool1"
  type: "Pooling"
  bottom: "conv1"
  top: "pool1"
  pooling_param {
    pool: MAX
    kernel_size: 3
    stride: 2
  }
}
layer {
  name: "norm1"
  type: "LRN"
  bottom: "pool1"
  top: "norm1"
  lrn_param {
    local_size: 5
    alpha: 0.0001
    beta: 0.75
  }
}
layer {
  name: "conv2"
  type: "Convolution"
  bottom: "norm1"
  top: "conv2"
  convolution_param {
    num_output: 256
    pad: 2
    kernel_size: 5
    group: 2
  }
}
layer {
  name: "relu2"
  type: "ReLU"
  bottom: "conv2"
  top: "conv2"
}
layer {
  name: "pool2"
  type: "Pooling"
  bottom: "conv2"
  top: "pool2"
  pooling_param {
    pool: MAX
    kernel_size: 3
    stride: 2
  }
}
layer {
  name: "norm2"
  type: "LRN"
  bottom: "pool2"
  top: "norm2"
  lrn_param {
    local_size: 5
    alpha: 0.0001
    beta: 0.75
  }
}
layer {
  name: "conv3"
  type: "Convolution"
  bottom: "norm2"
  top: "conv3"
  convolution_param {
    num_output: 384
    pad: 1
    kernel_size: 3
  }
}
layer {
  name: "relu3"
  type: "ReLU"
  bottom: "conv3"
  top: "conv3"
}
layer {
  name: "conv4"
  type: "Convolution"
  bottom: "conv3"
  top: "conv4"
  convolution_param {
    num_output: 384
    pad: 1
    kernel_size: 3
    group: 2
  }
}
layer {
  name: "relu4"
  type: "ReLU"
  bottom: "conv4"
  top: "conv4"
}
layer {
  name: "conv5"
  type: "Convolution"
  bottom: "conv4"
  top: "conv5"
  convolution_param {
    num_output: 256
    pad: 1
    kernel_size: 3
    group: 2
  }
}
layer {
  name: "relu5"
  type: "ReLU"
  bottom: "conv5"
  top: "conv5"
}
layer {
  name: "pool5"
  type: "Pooling"
  bottom: "conv5"
  top: "pool5"
  pooling_param {
    pool: MAX
    kernel_size: 3
    stride: 2
  }
}
layer {
  name: "fc6"
  type: "InnerProduct"
  bottom: "pool5"
  top: "fc6"
  inner_product_param {
    num_output: 4096
  }
}
layer {
  name: "relu6"
  type: "ReLU"
  bottom: "fc6"
  top: "fc6"
}
layer {
  name: "drop6"
  type: "Dropout"
  bottom: "fc6"
  top: "fc6"
  dropout_param {
    dropout_ratio: 0.5
  }
}
layer {
  name: "fc7"
  type: "InnerProduct"
  bottom: "fc6"
  top: "fc7"
  inner_product_param {
    num_output: 4096
  }
}
layer {
  name: "relu7"
  type: "ReLU"
  bottom: "fc7"
  top: "fc7"
}
layer {
  name: "drop7"
  type: "Dropout"
  bottom: "fc7"
  top: "fc7"
  dropout_param {
    dropout_ratio: 0.5
  }
}
layer {
  name: "fc8"
  type: "InnerProduct"
  bottom: "fc7"
  top: "fc8"
  inner_product_param {
    num_output: 1000
  }
}
layer {
  name: "prob"
  type: "Softmax"
  bottom: "fc8"
  top: "prob"
}
I0922 22:16:51.871883 22540 layer_factory.hpp:77] Creating layer data
I0922 22:16:51.871882 22534 layer_factory.hpp:77] Creating layer input
I0922 22:16:51.871882 22530 layer_factory.hpp:77] Creating layer input
I0922 22:16:51.871922 22530 net.cpp:91] Creating Layer input
I0922 22:16:51.871923 22540 net.cpp:91] Creating Layer data
I0922 22:16:51.871922 22534 net.cpp:91] Creating Layer input
I0922 22:16:51.871937 22530 net.cpp:399] input -> frames_fc7
I0922 22:16:51.871938 22534 net.cpp:399] input -> frames_fc7
I0922 22:16:51.871937 22540 net.cpp:399] data -> data
I0922 22:16:51.871983 22534 net.cpp:399] input -> cont_sentence
I0922 22:16:51.871983 22530 net.cpp:399] input -> cont_sentence
I0922 22:16:51.872000 22534 net.cpp:399] input -> input_sentence
I0922 22:16:51.872004 22530 net.cpp:399] input -> input_sentence
I0922 22:16:51.872011 22534 net.cpp:399] input -> stage_indicator
I0922 22:16:51.872015 22530 net.cpp:399] input -> stage_indicator
I0922 22:16:52.487372 22540 net.cpp:141] Setting up data
I0922 22:16:52.487452 22530 net.cpp:141] Setting up input
I0922 22:16:52.487511 22530 net.cpp:148] Top shape: 1 4096 (4096)
I0922 22:16:52.487522 22530 net.cpp:148] Top shape: 1 1 (1)
I0922 22:16:52.487529 22530 net.cpp:148] Top shape: 1 1 (1)
I0922 22:16:52.487517 22540 net.cpp:148] Top shape: 10 3 227 227 (1545870)
I0922 22:16:52.487520 22534 net.cpp:141] Setting up input
I0922 22:16:52.487552 22540 net.cpp:156] Memory required for data: 6183480
I0922 22:16:52.487536 22530 net.cpp:148] Top shape: 1 1 (1)
I0922 22:16:52.487568 22534 net.cpp:148] Top shape: 1 4096 (4096)
I0922 22:16:52.487573 22530 net.cpp:156] Memory required for data: 16396
I0922 22:16:52.487577 22540 layer_factory.hpp:77] Creating layer conv1
I0922 22:16:52.487583 22530 layer_factory.hpp:77] Creating layer cont_sentence_input_1_split
I0922 22:16:52.487579 22534 net.cpp:148] Top shape: 1 1 (1)
I0922 22:16:52.487594 22534 net.cpp:148] Top shape: 1 1 (1)
I0922 22:16:52.487601 22534 net.cpp:148] Top shape: 1 1 (1)
I0922 22:16:52.487606 22534 net.cpp:156] Memory required for data: 16396
I0922 22:16:52.487612 22534 layer_factory.hpp:77] Creating layer cont_sentence_input_1_split
I0922 22:16:52.487612 22530 net.cpp:91] Creating Layer cont_sentence_input_1_split
I0922 22:16:52.487617 22540 net.cpp:91] Creating Layer conv1
I0922 22:16:52.487622 22534 net.cpp:91] Creating Layer cont_sentence_input_1_split
I0922 22:16:52.487623 22530 net.cpp:425] cont_sentence_input_1_split <- cont_sentence
I0922 22:16:52.487632 22534 net.cpp:425] cont_sentence_input_1_split <- cont_sentence
I0922 22:16:52.487627 22540 net.cpp:425] conv1 <- data
I0922 22:16:52.487656 22530 net.cpp:399] cont_sentence_input_1_split -> cont_sentence_input_1_split_0
I0922 22:16:52.487656 22534 net.cpp:399] cont_sentence_input_1_split -> cont_sentence_input_1_split_0
I0922 22:16:52.487663 22540 net.cpp:399] conv1 -> conv1
I0922 22:16:52.487678 22530 net.cpp:399] cont_sentence_input_1_split -> cont_sentence_input_1_split_1
I0922 22:16:52.487678 22534 net.cpp:399] cont_sentence_input_1_split -> cont_sentence_input_1_split_1
I0922 22:16:52.487766 22530 net.cpp:141] Setting up cont_sentence_input_1_split
I0922 22:16:52.487777 22530 net.cpp:148] Top shape: 1 1 (1)
I0922 22:16:52.487783 22530 net.cpp:148] Top shape: 1 1 (1)
I0922 22:16:52.487787 22530 net.cpp:156] Memory required for data: 16404
I0922 22:16:52.487788 22534 net.cpp:141] Setting up cont_sentence_input_1_split
I0922 22:16:52.487792 22530 layer_factory.hpp:77] Creating layer embed_encoder
I0922 22:16:52.487803 22534 net.cpp:148] Top shape: 1 1 (1)
I0922 22:16:52.487809 22534 net.cpp:148] Top shape: 1 1 (1)
I0922 22:16:52.487814 22534 net.cpp:156] Memory required for data: 16404
I0922 22:16:52.487819 22534 layer_factory.hpp:77] Creating layer embed_encoder
I0922 22:16:52.487825 22530 net.cpp:91] Creating Layer embed_encoder
I0922 22:16:52.487830 22534 net.cpp:91] Creating Layer embed_encoder
I0922 22:16:52.487831 22530 net.cpp:425] embed_encoder <- frames_fc7
I0922 22:16:52.487838 22534 net.cpp:425] embed_encoder <- frames_fc7
I0922 22:16:52.487845 22530 net.cpp:399] embed_encoder -> embedded_in_frames
I0922 22:16:52.487848 22534 net.cpp:399] embed_encoder -> embedded_in_frames
I0922 22:16:52.520153 22530 net.cpp:141] Setting up embed_encoder
I0922 22:16:52.520198 22530 net.cpp:148] Top shape: 1 500 (500)
I0922 22:16:52.520206 22530 net.cpp:156] Memory required for data: 18404
I0922 22:16:52.520241 22530 layer_factory.hpp:77] Creating layer reshape_frames
I0922 22:16:52.520274 22530 net.cpp:91] Creating Layer reshape_frames
I0922 22:16:52.520285 22530 net.cpp:425] reshape_frames <- embedded_in_frames
I0922 22:16:52.520303 22530 net.cpp:399] reshape_frames -> embedded_input_frames
I0922 22:16:52.522680 22530 net.cpp:141] Setting up reshape_frames
I0922 22:16:52.522698 22530 net.cpp:148] Top shape: 1 1 500 (500)
I0922 22:16:52.522707 22530 net.cpp:156] Memory required for data: 20404
I0922 22:16:52.522716 22530 layer_factory.hpp:77] Creating layer reshape_stage_indicator
I0922 22:16:52.522732 22530 net.cpp:91] Creating Layer reshape_stage_indicator
I0922 22:16:52.522740 22530 net.cpp:425] reshape_stage_indicator <- stage_indicator
I0922 22:16:52.522755 22530 net.cpp:399] reshape_stage_indicator -> reshaped_stage_indicator
I0922 22:16:52.522827 22530 net.cpp:141] Setting up reshape_stage_indicator
I0922 22:16:52.522843 22530 net.cpp:148] Top shape: 1 1 1 (1)
I0922 22:16:52.522851 22530 net.cpp:156] Memory required for data: 20408
I0922 22:16:52.522861 22530 layer_factory.hpp:77] Creating layer embedding
I0922 22:16:52.522878 22530 net.cpp:91] Creating Layer embedding
I0922 22:16:52.522887 22530 net.cpp:425] embedding <- input_sentence
I0922 22:16:52.522884 22534 net.cpp:141] Setting up embed_encoder
I0922 22:16:52.522904 22530 net.cpp:399] embedding -> embedded_input_sentence
I0922 22:16:52.522908 22534 net.cpp:148] Top shape: 1 500 (500)
I0922 22:16:52.522917 22534 net.cpp:156] Memory required for data: 18404
I0922 22:16:52.522938 22534 layer_factory.hpp:77] Creating layer reshape_frames
I0922 22:16:52.522953 22534 net.cpp:91] Creating Layer reshape_frames
I0922 22:16:52.522959 22534 net.cpp:425] reshape_frames <- embedded_in_frames
I0922 22:16:52.522969 22534 net.cpp:399] reshape_frames -> embedded_input_frames
I0922 22:16:52.523175 22534 net.cpp:141] Setting up reshape_frames
I0922 22:16:52.523186 22534 net.cpp:148] Top shape: 1 1 500 (500)
I0922 22:16:52.523191 22534 net.cpp:156] Memory required for data: 20404
I0922 22:16:52.523196 22534 layer_factory.hpp:77] Creating layer reshape_stage_indicator
I0922 22:16:52.523206 22534 net.cpp:91] Creating Layer reshape_stage_indicator
I0922 22:16:52.523212 22534 net.cpp:425] reshape_stage_indicator <- stage_indicator
I0922 22:16:52.523221 22534 net.cpp:399] reshape_stage_indicator -> reshaped_stage_indicator
I0922 22:16:52.564684 22534 net.cpp:141] Setting up reshape_stage_indicator
I0922 22:16:52.564766 22534 net.cpp:148] Top shape: 1 1 1 (1)
I0922 22:16:52.564785 22534 net.cpp:156] Memory required for data: 20408
I0922 22:16:52.564805 22534 layer_factory.hpp:77] Creating layer embedding
I0922 22:16:52.564843 22534 net.cpp:91] Creating Layer embedding
I0922 22:16:52.564863 22534 net.cpp:425] embedding <- input_sentence
I0922 22:16:52.564893 22534 net.cpp:399] embedding -> embedded_input_sentence
I0922 22:16:52.758632 22530 net.cpp:141] Setting up embedding
I0922 22:16:52.758680 22530 net.cpp:148] Top shape: 1 1 500 (500)
I0922 22:16:52.758687 22530 net.cpp:156] Memory required for data: 22408
I0922 22:16:52.758705 22530 layer_factory.hpp:77] Creating layer lstm1
I0922 22:16:52.758731 22530 net.cpp:91] Creating Layer lstm1
I0922 22:16:52.758739 22530 net.cpp:425] lstm1 <- embedded_input_frames
I0922 22:16:52.758747 22530 net.cpp:425] lstm1 <- cont_sentence_input_1_split_0
I0922 22:16:52.758756 22530 net.cpp:399] lstm1 -> lstm1
I0922 22:16:52.758795 22530 recurrent_layer.cpp:20] Initializing recurrent layer: assuming input batch contains 1 timesteps of 1 independent streams.
I0922 22:16:52.759210 22530 net.cpp:49] Initializing net from parameters: 
layer {
  name: "lstm1_"
  type: "Input"
  top: "x"
  top: "cont"
  input_param {
    shape {
      dim: 1
      dim: 1
      dim: 500
    }
    shape {
      dim: 1
      dim: 1
    }
  }
}
layer {
  name: "lstm1_"
  type: "Input"
  top: "c_0"
  top: "h_0"
  input_param {
    shape {
      dim: 1
      dim: 1
      dim: 1000
    }
    shape {
      dim: 1
      dim: 1
      dim: 1000
    }
  }
}
layer {
  name: "lstm1_cont_slice"
  type: "Slice"
  bottom: "cont"
  top: "cont_1"
  slice_param {
    axis: 0
  }
}
layer {
  name: "lstm1_x_transform"
  type: "InnerProduct"
  bottom: "x"
  top: "W_xc_x"
  param {
    name: "W_xc"
  }
  param {
    name: "b_c"
  }
  propagate_down: true
  inner_product_param {
    num_output: 4000
    bias_term: true
    weight_filler {
      type: "uniform"
      min: -0.08
      max: 0.08
    }
    bias_filler {
      type: "constant"
      value: 0
    }
    axis: 2
  }
}
layer {
  name: "lstm1_W_xc_x_slice"
  type: "Slice"
  bottom: "W_xc_x"
  top: "W_xc_x_1"
  slice_param {
    axis: 0
  }
}
layer {
  name: "lstm1_h_conted_0"
  type: "Scale"
  bottom: "h_0"
  bottom: "cont_1"
  top: "h_conted_0"
  scale_param {
    axis: 0
  }
}
layer {
  name: "lstm1_transform_1"
  type: "InnerProduct"
  bottom: "h_conted_0"
  top: "W_hc_h_0"
  param {
    name: "W_hc"
  }
  inner_product_param {
    num_output: 4000
    bias_term: false
    weight_filler {
      type: "uniform"
      min: -0.08
      max: 0.08
    }
    axis: 2
  }
}
layer {
  name: "lstm1_gate_input_1"
  type: "Eltwise"
  bottom: "W_hc_h_0"
  bottom: "W_xc_x_1"
  top: "gate_input_1"
  eltwise_param {
    operation: SUM
  }
}
layer {
  name: "lstm1_unit_1"
  type: "LSTMUnit"
  bottom: "c_0"
  bottom: "gate_input_1"
  bottom: "cont_1"
  top: "c_1"
  top: "h_1"
}
layer {
  name: "lstm1_"
  type: "Split"
  bottom: "c_1"
  top: "c_T"
}
layer {
  name: "lstm1_h_concat"
  type: "Concat"
  bottom: "h_1"
  top: "h"
  concat_param {
    axis: 0
  }
}
layer {
  name: "h_pseudoloss"
  type: "Reduction"
  bottom: "h"
  top: "h_pseudoloss"
  loss_weight: 1
}
I0922 22:16:52.759321 22530 layer_factory.hpp:77] Creating layer lstm1_
I0922 22:16:52.759336 22530 net.cpp:91] Creating Layer lstm1_
I0922 22:16:52.759342 22530 net.cpp:399] lstm1_ -> x
I0922 22:16:52.759354 22530 net.cpp:399] lstm1_ -> cont
I0922 22:16:52.764900 22530 net.cpp:141] Setting up lstm1_
I0922 22:16:52.764943 22530 net.cpp:148] Top shape: 1 1 500 (500)
I0922 22:16:52.764951 22530 net.cpp:148] Top shape: 1 1 (1)
I0922 22:16:52.764955 22530 net.cpp:156] Memory required for data: 2004
I0922 22:16:52.764964 22530 layer_factory.hpp:77] Creating layer lstm1_
I0922 22:16:52.764986 22530 net.cpp:91] Creating Layer lstm1_
I0922 22:16:52.764993 22530 net.cpp:399] lstm1_ -> c_0
I0922 22:16:52.765019 22530 net.cpp:399] lstm1_ -> h_0
I0922 22:16:52.765079 22530 net.cpp:141] Setting up lstm1_
I0922 22:16:52.765087 22530 net.cpp:148] Top shape: 1 1 1000 (1000)
I0922 22:16:52.765094 22530 net.cpp:148] Top shape: 1 1 1000 (1000)
I0922 22:16:52.765097 22530 net.cpp:156] Memory required for data: 10004
I0922 22:16:52.765102 22530 layer_factory.hpp:77] Creating layer lstm1_cont_slice
I0922 22:16:52.765117 22530 net.cpp:91] Creating Layer lstm1_cont_slice
I0922 22:16:52.765122 22530 net.cpp:425] lstm1_cont_slice <- cont
I0922 22:16:52.765130 22530 net.cpp:399] lstm1_cont_slice -> cont_1
I0922 22:16:52.765169 22530 net.cpp:141] Setting up lstm1_cont_slice
I0922 22:16:52.765178 22530 net.cpp:148] Top shape: 1 1 (1)
I0922 22:16:52.765182 22530 net.cpp:156] Memory required for data: 10008
I0922 22:16:52.765187 22530 layer_factory.hpp:77] Creating layer cont_1_lstm1_cont_slice_0_split
I0922 22:16:52.765195 22530 net.cpp:91] Creating Layer cont_1_lstm1_cont_slice_0_split
I0922 22:16:52.765199 22530 net.cpp:425] cont_1_lstm1_cont_slice_0_split <- cont_1
I0922 22:16:52.765210 22530 net.cpp:399] cont_1_lstm1_cont_slice_0_split -> cont_1_lstm1_cont_slice_0_split_0
I0922 22:16:52.765219 22530 net.cpp:399] cont_1_lstm1_cont_slice_0_split -> cont_1_lstm1_cont_slice_0_split_1
I0922 22:16:52.765269 22530 net.cpp:141] Setting up cont_1_lstm1_cont_slice_0_split
I0922 22:16:52.765277 22530 net.cpp:148] Top shape: 1 1 (1)
I0922 22:16:52.765282 22530 net.cpp:148] Top shape: 1 1 (1)
I0922 22:16:52.765286 22530 net.cpp:156] Memory required for data: 10016
I0922 22:16:52.765291 22530 layer_factory.hpp:77] Creating layer lstm1_x_transform
I0922 22:16:52.765308 22530 net.cpp:91] Creating Layer lstm1_x_transform
I0922 22:16:52.765313 22530 net.cpp:425] lstm1_x_transform <- x
I0922 22:16:52.765322 22530 net.cpp:399] lstm1_x_transform -> W_xc_x
I0922 22:16:52.785794 22530 net.cpp:141] Setting up lstm1_x_transform
I0922 22:16:52.785840 22530 net.cpp:148] Top shape: 1 1 4000 (4000)
I0922 22:16:52.785846 22530 net.cpp:156] Memory required for data: 26016
I0922 22:16:52.785872 22530 layer_factory.hpp:77] Creating layer lstm1_W_xc_x_slice
I0922 22:16:52.785892 22530 net.cpp:91] Creating Layer lstm1_W_xc_x_slice
I0922 22:16:52.785899 22530 net.cpp:425] lstm1_W_xc_x_slice <- W_xc_x
I0922 22:16:52.785908 22530 net.cpp:399] lstm1_W_xc_x_slice -> W_xc_x_1
I0922 22:16:52.785984 22530 net.cpp:141] Setting up lstm1_W_xc_x_slice
I0922 22:16:52.785996 22530 net.cpp:148] Top shape: 1 1 4000 (4000)
I0922 22:16:52.786001 22530 net.cpp:156] Memory required for data: 42016
I0922 22:16:52.786005 22530 layer_factory.hpp:77] Creating layer lstm1_h_conted_0
I0922 22:16:52.786026 22530 net.cpp:91] Creating Layer lstm1_h_conted_0
I0922 22:16:52.786031 22530 net.cpp:425] lstm1_h_conted_0 <- h_0
I0922 22:16:52.786037 22530 net.cpp:425] lstm1_h_conted_0 <- cont_1_lstm1_cont_slice_0_split_0
I0922 22:16:52.786046 22530 net.cpp:399] lstm1_h_conted_0 -> h_conted_0
I0922 22:16:52.788683 22530 net.cpp:141] Setting up lstm1_h_conted_0
I0922 22:16:52.788702 22530 net.cpp:148] Top shape: 1 1 1000 (1000)
I0922 22:16:52.788707 22530 net.cpp:156] Memory required for data: 46016
I0922 22:16:52.788713 22530 layer_factory.hpp:77] Creating layer lstm1_transform_1
I0922 22:16:52.788727 22530 net.cpp:91] Creating Layer lstm1_transform_1
I0922 22:16:52.788733 22530 net.cpp:425] lstm1_transform_1 <- h_conted_0
I0922 22:16:52.788743 22530 net.cpp:399] lstm1_transform_1 -> W_hc_h_0
I0922 22:16:52.803779 22534 net.cpp:141] Setting up embedding
I0922 22:16:52.803828 22534 net.cpp:148] Top shape: 1 1 500 (500)
I0922 22:16:52.803835 22534 net.cpp:156] Memory required for data: 22408
I0922 22:16:52.803854 22534 layer_factory.hpp:77] Creating layer lstm1
I0922 22:16:52.803877 22534 net.cpp:91] Creating Layer lstm1
I0922 22:16:52.803886 22534 net.cpp:425] lstm1 <- embedded_input_frames
I0922 22:16:52.803895 22534 net.cpp:425] lstm1 <- cont_sentence_input_1_split_0
I0922 22:16:52.803905 22534 net.cpp:399] lstm1 -> lstm1
I0922 22:16:52.803926 22534 recurrent_layer.cpp:20] Initializing recurrent layer: assuming input batch contains 1 timesteps of 1 independent streams.
I0922 22:16:52.804216 22534 net.cpp:49] Initializing net from parameters: 
layer {
  name: "lstm1_"
  type: "Input"
  top: "x"
  top: "cont"
  input_param {
    shape {
      dim: 1
      dim: 1
      dim: 500
    }
    shape {
      dim: 1
      dim: 1
    }
  }
}
layer {
  name: "lstm1_"
  type: "Input"
  top: "c_0"
  top: "h_0"
  input_param {
    shape {
      dim: 1
      dim: 1
      dim: 1000
    }
    shape {
      dim: 1
      dim: 1
      dim: 1000
    }
  }
}
layer {
  name: "lstm1_cont_slice"
  type: "Slice"
  bottom: "cont"
  top: "cont_1"
  slice_param {
    axis: 0
  }
}
layer {
  name: "lstm1_x_transform"
  type: "InnerProduct"
  bottom: "x"
  top: "W_xc_x"
  param {
    name: "W_xc"
  }
  param {
    name: "b_c"
  }
  propagate_down: true
  inner_product_param {
    num_output: 4000
    bias_term: true
    weight_filler {
      type: "uniform"
      min: -0.08
      max: 0.08
    }
    bias_filler {
      type: "constant"
      value: 0
    }
    axis: 2
  }
}
layer {
  name: "lstm1_W_xc_x_slice"
  type: "Slice"
  bottom: "W_xc_x"
  top: "W_xc_x_1"
  slice_param {
    axis: 0
  }
}
layer {
  name: "lstm1_h_conted_0"
  type: "Scale"
  bottom: "h_0"
  bottom: "cont_1"
  top: "h_conted_0"
  scale_param {
    axis: 0
  }
}
layer {
  name: "lstm1_transform_1"
  type: "InnerProduct"
  bottom: "h_conted_0"
  top: "W_hc_h_0"
  param {
    name: "W_hc"
  }
  inner_product_param {
    num_output: 4000
    bias_term: false
    weight_filler {
      type: "uniform"
      min: -0.08
      max: 0.08
    }
    axis: 2
  }
}
layer {
  name: "lstm1_gate_input_1"
  type: "Eltwise"
  bottom: "W_hc_h_0"
  bottom: "W_xc_x_1"
  top: "gate_input_1"
  eltwise_param {
    operation: SUM
  }
}
layer {
  name: "lstm1_unit_1"
  type: "LSTMUnit"
  bottom: "c_0"
  bottom: "gate_input_1"
  bottom: "cont_1"
  top: "c_1"
  top: "h_1"
}
layer {
  name: "lstm1_"
  type: "Split"
  bottom: "c_1"
  top: "c_T"
}
layer {
  name: "lstm1_h_concat"
  type: "Concat"
  bottom: "h_1"
  top: "h"
  concat_param {
    axis: 0
  }
}
layer {
  name: "h_pseudoloss"
  type: "Reduction"
  bottom: "h"
  top: "h_pseudoloss"
  loss_weight: 1
}
I0922 22:16:52.804308 22534 layer_factory.hpp:77] Creating layer lstm1_
I0922 22:16:52.804322 22534 net.cpp:91] Creating Layer lstm1_
I0922 22:16:52.804328 22534 net.cpp:399] lstm1_ -> x
I0922 22:16:52.804340 22534 net.cpp:399] lstm1_ -> cont
I0922 22:16:52.806996 22534 net.cpp:141] Setting up lstm1_
I0922 22:16:52.807039 22534 net.cpp:148] Top shape: 1 1 500 (500)
I0922 22:16:52.807054 22534 net.cpp:148] Top shape: 1 1 (1)
I0922 22:16:52.807059 22534 net.cpp:156] Memory required for data: 2004
I0922 22:16:52.807065 22534 layer_factory.hpp:77] Creating layer lstm1_
I0922 22:16:52.807081 22534 net.cpp:91] Creating Layer lstm1_
I0922 22:16:52.807088 22534 net.cpp:399] lstm1_ -> c_0
I0922 22:16:52.807104 22534 net.cpp:399] lstm1_ -> h_0
I0922 22:16:52.810549 22534 net.cpp:141] Setting up lstm1_
I0922 22:16:52.810567 22534 net.cpp:148] Top shape: 1 1 1000 (1000)
I0922 22:16:52.810573 22534 net.cpp:148] Top shape: 1 1 1000 (1000)
I0922 22:16:52.810577 22534 net.cpp:156] Memory required for data: 10004
I0922 22:16:52.810583 22534 layer_factory.hpp:77] Creating layer lstm1_cont_slice
I0922 22:16:52.810598 22534 net.cpp:91] Creating Layer lstm1_cont_slice
I0922 22:16:52.810605 22534 net.cpp:425] lstm1_cont_slice <- cont
I0922 22:16:52.810612 22534 net.cpp:399] lstm1_cont_slice -> cont_1
I0922 22:16:52.814695 22534 net.cpp:141] Setting up lstm1_cont_slice
I0922 22:16:52.814713 22534 net.cpp:148] Top shape: 1 1 (1)
I0922 22:16:52.814718 22534 net.cpp:156] Memory required for data: 10008
I0922 22:16:52.814723 22534 layer_factory.hpp:77] Creating layer cont_1_lstm1_cont_slice_0_split
I0922 22:16:52.814733 22534 net.cpp:91] Creating Layer cont_1_lstm1_cont_slice_0_split
I0922 22:16:52.814738 22534 net.cpp:425] cont_1_lstm1_cont_slice_0_split <- cont_1
I0922 22:16:52.814749 22534 net.cpp:399] cont_1_lstm1_cont_slice_0_split -> cont_1_lstm1_cont_slice_0_split_0
I0922 22:16:52.814759 22534 net.cpp:399] cont_1_lstm1_cont_slice_0_split -> cont_1_lstm1_cont_slice_0_split_1
I0922 22:16:52.814815 22534 net.cpp:141] Setting up cont_1_lstm1_cont_slice_0_split
I0922 22:16:52.814823 22534 net.cpp:148] Top shape: 1 1 (1)
I0922 22:16:52.814828 22534 net.cpp:148] Top shape: 1 1 (1)
I0922 22:16:52.814833 22534 net.cpp:156] Memory required for data: 10016
I0922 22:16:52.814837 22534 layer_factory.hpp:77] Creating layer lstm1_x_transform
I0922 22:16:52.814856 22534 net.cpp:91] Creating Layer lstm1_x_transform
I0922 22:16:52.814860 22534 net.cpp:425] lstm1_x_transform <- x
I0922 22:16:52.814870 22534 net.cpp:399] lstm1_x_transform -> W_xc_x
I0922 22:16:52.827219 22530 net.cpp:141] Setting up lstm1_transform_1
I0922 22:16:52.827268 22530 net.cpp:148] Top shape: 1 1 4000 (4000)
I0922 22:16:52.827275 22530 net.cpp:156] Memory required for data: 62016
I0922 22:16:52.827297 22530 layer_factory.hpp:77] Creating layer lstm1_gate_input_1
I0922 22:16:52.827320 22530 net.cpp:91] Creating Layer lstm1_gate_input_1
I0922 22:16:52.827327 22530 net.cpp:425] lstm1_gate_input_1 <- W_hc_h_0
I0922 22:16:52.827335 22530 net.cpp:425] lstm1_gate_input_1 <- W_xc_x_1
I0922 22:16:52.827344 22530 net.cpp:399] lstm1_gate_input_1 -> gate_input_1
I0922 22:16:52.834997 22530 net.cpp:141] Setting up lstm1_gate_input_1
I0922 22:16:52.835028 22530 net.cpp:148] Top shape: 1 1 4000 (4000)
I0922 22:16:52.835034 22530 net.cpp:156] Memory required for data: 78016
I0922 22:16:52.835041 22530 layer_factory.hpp:77] Creating layer lstm1_unit_1
I0922 22:16:52.835062 22530 net.cpp:91] Creating Layer lstm1_unit_1
I0922 22:16:52.835068 22530 net.cpp:425] lstm1_unit_1 <- c_0
I0922 22:16:52.835077 22530 net.cpp:425] lstm1_unit_1 <- gate_input_1
I0922 22:16:52.835083 22530 net.cpp:425] lstm1_unit_1 <- cont_1_lstm1_cont_slice_0_split_1
I0922 22:16:52.835089 22530 net.cpp:399] lstm1_unit_1 -> c_1
I0922 22:16:52.835099 22530 net.cpp:399] lstm1_unit_1 -> h_1
I0922 22:16:52.835161 22534 net.cpp:141] Setting up lstm1_x_transform
I0922 22:16:52.835180 22534 net.cpp:148] Top shape: 1 1 4000 (4000)
I0922 22:16:52.835185 22534 net.cpp:156] Memory required for data: 26016
I0922 22:16:52.835197 22534 layer_factory.hpp:77] Creating layer lstm1_W_xc_x_slice
I0922 22:16:52.835212 22534 net.cpp:91] Creating Layer lstm1_W_xc_x_slice
I0922 22:16:52.835218 22534 net.cpp:425] lstm1_W_xc_x_slice <- W_xc_x
I0922 22:16:52.835227 22534 net.cpp:399] lstm1_W_xc_x_slice -> W_xc_x_1
I0922 22:16:52.835235 22530 net.cpp:141] Setting up lstm1_unit_1
I0922 22:16:52.835247 22530 net.cpp:148] Top shape: 1 1 1000 (1000)
I0922 22:16:52.835253 22530 net.cpp:148] Top shape: 1 1 1000 (1000)
I0922 22:16:52.835258 22530 net.cpp:156] Memory required for data: 86016
I0922 22:16:52.835263 22530 layer_factory.hpp:77] Creating layer lstm1_
I0922 22:16:52.835271 22530 net.cpp:91] Creating Layer lstm1_
I0922 22:16:52.835273 22534 net.cpp:141] Setting up lstm1_W_xc_x_slice
I0922 22:16:52.835275 22530 net.cpp:425] lstm1_ <- c_1
I0922 22:16:52.835288 22534 net.cpp:148] Top shape: 1 1 4000 (4000)
I0922 22:16:52.835290 22530 net.cpp:399] lstm1_ -> c_T
I0922 22:16:52.835292 22534 net.cpp:156] Memory required for data: 42016
I0922 22:16:52.835305 22534 layer_factory.hpp:77] Creating layer lstm1_h_conted_0
I0922 22:16:52.835319 22534 net.cpp:91] Creating Layer lstm1_h_conted_0
I0922 22:16:52.835325 22534 net.cpp:425] lstm1_h_conted_0 <- h_0
I0922 22:16:52.835331 22534 net.cpp:425] lstm1_h_conted_0 <- cont_1_lstm1_cont_slice_0_split_0
I0922 22:16:52.835338 22534 net.cpp:399] lstm1_h_conted_0 -> h_conted_0
I0922 22:16:52.838707 22530 net.cpp:141] Setting up lstm1_
I0922 22:16:52.838726 22530 net.cpp:148] Top shape: 1 1 1000 (1000)
I0922 22:16:52.838732 22530 net.cpp:156] Memory required for data: 90016
I0922 22:16:52.838737 22530 layer_factory.hpp:77] Creating layer lstm1_h_concat
I0922 22:16:52.838757 22530 net.cpp:91] Creating Layer lstm1_h_concat
I0922 22:16:52.838762 22530 net.cpp:425] lstm1_h_concat <- h_1
I0922 22:16:52.838770 22530 net.cpp:399] lstm1_h_concat -> h
I0922 22:16:52.838837 22534 net.cpp:141] Setting up lstm1_h_conted_0
I0922 22:16:52.838855 22534 net.cpp:148] Top shape: 1 1 1000 (1000)
I0922 22:16:52.838860 22534 net.cpp:156] Memory required for data: 46016
I0922 22:16:52.838865 22534 layer_factory.hpp:77] Creating layer lstm1_transform_1
I0922 22:16:52.838865 22530 net.cpp:141] Setting up lstm1_h_concat
I0922 22:16:52.838876 22530 net.cpp:148] Top shape: 1 1 1000 (1000)
I0922 22:16:52.838881 22530 net.cpp:156] Memory required for data: 94016
I0922 22:16:52.838881 22534 net.cpp:91] Creating Layer lstm1_transform_1
I0922 22:16:52.838886 22530 layer_factory.hpp:77] Creating layer h_pseudoloss
I0922 22:16:52.838887 22534 net.cpp:425] lstm1_transform_1 <- h_conted_0
I0922 22:16:52.838896 22534 net.cpp:399] lstm1_transform_1 -> W_hc_h_0
I0922 22:16:52.838901 22530 net.cpp:91] Creating Layer h_pseudoloss
…
I0922 22:16:52.847720 22530 net.cpp:219] lstm1_ does not need backward computation.
I0922 22:16:52.847723 22530 net.cpp:261] This network produces output c_T
I0922 22:16:52.847730 22530 net.cpp:261] This network produces output h_pseudoloss
I0922 22:16:52.847755 22530 net.cpp:274] Network initialization done.
I0922 22:16:52.847826 22530 recurrent_layer.cpp:150] Adding parameter 0: W_xc
I0922 22:16:52.847833 22530 recurrent_layer.cpp:150] Adding parameter 1: b_c
I0922 22:16:52.847838 22530 recurrent_layer.cpp:150] Adding parameter 2: W_hc
I0922 22:16:52.848256 22530 net.cpp:141] Setting up lstm1
I0922 22:16:52.848269 22530 net.cpp:148] Top shape: 1 1 1000 (1000)
I0922 22:16:52.848274 22530 net.cpp:156] Memory required for data: 26408
I0922 22:16:52.848289 22530 layer_factory.hpp:77] Creating layer concat
I0922 22:16:52.848307 22530 net.cpp:91] Creating Layer concat
I0922 22:16:52.848314 22530 net.cpp:425] concat <- lstm1
I0922 22:16:52.848320 22530 net.cpp:425] concat <- embedded_input_sentence
I0922 22:16:52.848326 22530 net.cpp:425] concat <- reshaped_stage_indicator
I0922 22:16:52.848333 22530 net.cpp:399] concat -> lstm1_video_sequence
I0922 22:16:52.848498 22530 net.cpp:141] Setting up concat
I0922 22:16:52.848508 22530 net.cpp:148] Top shape: 1 1 1501 (1501)
I0922 22:16:52.848512 22530 net.cpp:156] Memory required for data: 32412
I0922 22:16:52.848517 22530 layer_factory.hpp:77] Creating layer lstm2
I0922 22:16:52.848533 22530 net.cpp:91] Creating Layer lstm2
I0922 22:16:52.848538 22530 net.cpp:425] lstm2 <- lstm1_video_sequence
I0922 22:16:52.848544 22530 net.cpp:425] lstm2 <- cont_sentence_input_1_split_1
I0922 22:16:52.848551 22530 net.cpp:399] lstm2 -> lstm2
I0922 22:16:52.848563 22530 recurrent_layer.cpp:20] Initializing recurrent layer: assuming input batch contains 1 timesteps of 1 independent streams.
I0922 22:16:52.848840 22530 net.cpp:49] Initializing net from parameters: 
layer {
  name: "lstm2_"
  type: "Input"
  top: "x"
  top: "cont"
  input_param {
    shape {
      dim: 1
      dim: 1
      dim: 1501
    }
    shape {
      dim: 1
      dim: 1
    }
  }
}
layer {
  name: "lstm2_"
  type: "Input"
  top: "c_0"
  top: "h_0"
  input_param {
    shape {
      dim: 1
      dim: 1
      dim: 1000
    }
    shape {
      dim: 1
      dim: 1
      dim: 1000
    }
  }
}
layer {
  name: "lstm2_cont_slice"
  type: "Slice"
  bottom: "cont"
  top: "cont_1"
  slice_param {
    axis: 0
  }
}
layer {
  name: "lstm2_x_transform"
  type: "InnerProduct"
  bottom: "x"
  top: "W_xc_x"
  param {
    name: "W_xc"
  }
  param {
    name: "b_c"
  }
  propagate_down: true
  inner_product_param {
    num_output: 4000
    bias_term: true
    weight_filler {
      type: "uniform"
      min: -0.08
      max: 0.08
    }
    bias_filler {
      type: "constant"
      value: 0
    }
    axis: 2
  }
}
layer {
  name: "lstm2_W_xc_x_slice"
  type: "Slice"
  bottom: "W_xc_x"
  top: "W_xc_x_1"
  slice_param {
    axis: 0
  }
}
layer {
  name: "lstm2_h_conted_0"
  type: "Scale"
  bottom: "h_0"
  bottom: "cont_1"
  top: "h_conted_0"
  scale_param {
    axis: 0
  }
}
layer {
  name: "lstm2_transform_1"
  type: "InnerProduct"
  bottom: "h_conted_0"
  top: "W_hc_h_0"
  param {
    name: "W_hc"
  }
  inner_product_param {
    num_output: 4000
    bias_term: false
    weight_filler {
      type: "uniform"
      min: -0.08
      max: 0.08
    }
    axis: 2
  }
}
layer {
  name: "lstm2_gate_input_1"
  type: "Eltwise"
  bottom: "W_hc_h_0"
  bottom: "W_xc_x_1"
  top: "gate_input_1"
  eltwise_param {
    operation: SUM
  }
}
layer {
  name: "lstm2_unit_1"
  type: "LSTMUnit"
  bottom: "c_0"
  bottom: "gate_input_1"
  bottom: "cont_1"
  top: "c_1"
  top: "h_1"
}
layer {
  name: "lstm2_"
  type: "Split"
  bottom: "c_1"
  top: "c_T"
}
layer {
  name: "lstm2_h_concat"
  type: "Concat"
  bottom: "h_1"
  top: "h"
  concat_param {
    axis: 0
  }
}
layer {
  name: "h_pseudoloss"
  type: "Reduction"
  bottom: "h"
  top: "h_pseudoloss"
  loss_weight: 1
}
I0922 22:16:52.848948 22530 layer_factory.hpp:77] Creating layer lstm2_
I0922 22:16:52.848961 22530 net.cpp:91] Creating Layer lstm2_
I0922 22:16:52.848968 22530 net.cpp:399] lstm2_ -> x
I0922 22:16:52.848978 22530 net.cpp:399] lstm2_ -> cont
I0922 22:16:52.849050 22540 net.cpp:141] Setting up conv1
I0922 22:16:52.849092 22540 net.cpp:148] Top shape: 10 96 55 55 (2904000)
I0922 22:16:52.849097 22540 net.cpp:156] Memory required for data: 17799480
I0922 22:16:52.849100 22530 net.cpp:141] Setting up lstm2_
I0922 22:16:52.849113 22530 net.cpp:148] Top shape: 1 1 1501 (1501)
I0922 22:16:52.849119 22530 net.cpp:148] Top shape: 1 1 (1)
I0922 22:16:52.849123 22540 layer_factory.hpp:77] Creating layer relu1
I0922 22:16:52.849125 22530 net.cpp:156] Memory required for data: 6008
I0922 22:16:52.849138 22530 layer_factory.hpp:77] Creating layer lstm2_
I0922 22:16:52.849145 22540 net.cpp:91] Creating Layer relu1
I0922 22:16:52.849148 22530 net.cpp:91] Creating Layer lstm2_
I0922 22:16:52.849154 22540 net.cpp:425] relu1 <- conv1
I0922 22:16:52.849156 22530 net.cpp:399] lstm2_ -> c_0
I0922 22:16:52.849164 22540 net.cpp:386] relu1 -> conv1 (in-place)
I0922 22:16:52.849167 22530 net.cpp:399] lstm2_ -> h_0
I0922 22:16:52.849230 22530 net.cpp:141] Setting up lstm2_
I0922 22:16:52.849239 22530 net.cpp:148] Top shape: 1 1 1000 (1000)
I0922 22:16:52.849246 22530 net.cpp:148] Top shape: 1 1 1000 (1000)
I0922 22:16:52.849249 22530 net.cpp:156] Memory required for data: 14008
I0922 22:16:52.849254 22530 layer_factory.hpp:77] Creating layer lstm2_cont_slice
I0922 22:16:52.849263 22530 net.cpp:91] Creating Layer lstm2_cont_slice
I0922 22:16:52.849267 22530 net.cpp:425] lstm2_cont_slice <- cont
I0922 22:16:52.849280 22530 net.cpp:399] lstm2_cont_slice -> cont_1
I0922 22:16:52.849606 22530 net.cpp:141] Setting up lstm2_cont_slice
I0922 22:16:52.849617 22530 net.cpp:148] Top shape: 1 1 (1)
I0922 22:16:52.849620 22530 net.cpp:156] Memory required for data: 14012
I0922 22:16:52.849625 22530 layer_factory.hpp:77] Creating layer cont_1_lstm2_cont_slice_0_split
I0922 22:16:52.849633 22530 net.cpp:91] Creating Layer cont_1_lstm2_cont_slice_0_split
I0922 22:16:52.849638 22530 net.cpp:425] cont_1_lstm2_cont_slice_0_split <- cont_1
I0922 22:16:52.849645 22530 net.cpp:399] cont_1_lstm2_cont_slice_0_split -> cont_1_lstm2_cont_slice_0_split_0
I0922 22:16:52.849654 22530 net.cpp:399] cont_1_lstm2_cont_slice_0_split -> cont_1_lstm2_cont_slice_0_split_1
I0922 22:16:52.849756 22530 net.cpp:141] Setting up cont_1_lstm2_cont_slice_0_split
I0922 22:16:52.849766 22530 net.cpp:148] Top shape: 1 1 (1)
I0922 22:16:52.849772 22530 net.cpp:148] Top shape: 1 1 (1)
I0922 22:16:52.849771 22540 net.cpp:141] Setting up relu1
I0922 22:16:52.849777 22530 net.cpp:156] Memory required for data: 14020
I0922 22:16:52.849789 22540 net.cpp:148] Top shape: 10 96 55 55 (2904000)
I0922 22:16:52.849795 22530 layer_factory.hpp:77] Creating layer lstm2_x_transform
I0922 22:16:52.849797 22540 net.cpp:156] Memory required for data: 29415480
I0922 22:16:52.849804 22540 layer_factory.hpp:77] Creating layer pool1
I0922 22:16:52.849812 22530 net.cpp:91] Creating Layer lstm2_x_transform
I0922 22:16:52.849817 22530 net.cpp:425] lstm2_x_transform <- x
I0922 22:16:52.849819 22540 net.cpp:91] Creating Layer pool1
I0922 22:16:52.849825 22530 net.cpp:399] lstm2_x_transform -> W_xc_x
I0922 22:16:52.849828 22540 net.cpp:425] pool1 <- conv1
I0922 22:16:52.849838 22540 net.cpp:399] pool1 -> pool1
I0922 22:16:52.860677 22540 net.cpp:141] Setting up pool1
I0922 22:16:52.860715 22540 net.cpp:148] Top shape: 10 96 27 27 (699840)
I0922 22:16:52.860721 22540 net.cpp:156] Memory required for data: 32214840
I0922 22:16:52.860729 22540 layer_factory.hpp:77] Creating layer norm1
I0922 22:16:52.860755 22540 net.cpp:91] Creating Layer norm1
I0922 22:16:52.860764 22540 net.cpp:425] norm1 <- pool1
I0922 22:16:52.860774 22540 net.cpp:399] norm1 -> norm1
I0922 22:16:52.861145 22540 net.cpp:141] Setting up norm1
I0922 22:16:52.861158 22540 net.cpp:148] Top shape: 10 96 27 27 (699840)
I0922 22:16:52.861165 22540 net.cpp:156] Memory required for data: 35014200
I0922 22:16:52.861171 22540 layer_factory.hpp:77] Creating layer conv2
I0922 22:16:52.861186 22540 net.cpp:91] Creating Layer conv2
I0922 22:16:52.861192 22540 net.cpp:425] conv2 <- norm1
I0922 22:16:52.861202 22540 net.cpp:399] conv2 -> conv2
I0922 22:16:52.864802 22540 net.cpp:141] Setting up conv2
I0922 22:16:52.864823 22540 net.cpp:148] Top shape: 10 256 27 27 (1866240)
I0922 22:16:52.864830 22540 net.cpp:156] Memory required for data: 42479160
I0922 22:16:52.864845 22540 layer_factory.hpp:77] Creating layer relu2
I0922 22:16:52.864862 22540 net.cpp:91] Creating Layer relu2
I0922 22:16:52.864868 22540 net.cpp:425] relu2 <- conv2
I0922 22:16:52.864877 22540 net.cpp:386] relu2 -> conv2 (in-place)
I0922 22:16:52.865496 22540 net.cpp:141] Setting up relu2
I0922 22:16:52.865511 22540 net.cpp:148] Top shape: 10 256 27 27 (1866240)
I0922 22:16:52.865516 22540 net.cpp:156] Memory required for data: 49944120
I0922 22:16:52.865522 22540 layer_factory.hpp:77] Creating layer pool2
I0922 22:16:52.865537 22540 net.cpp:91] Creating Layer pool2
I0922 22:16:52.865543 22540 net.cpp:425] pool2 <- conv2
I0922 22:16:52.865555 22540 net.cpp:399] pool2 -> pool2
I0922 22:16:52.865619 22540 net.cpp:141] Setting up pool2
I0922 22:16:52.865630 22540 net.cpp:148] Top shape: 10 256 13 13 (432640)
I0922 22:16:52.865635 22540 net.cpp:156] Memory required for data: 51674680
I0922 22:16:52.865641 22540 layer_factory.hpp:77] Creating layer norm2
I0922 22:16:52.865655 22540 net.cpp:91] Creating Layer norm2
I0922 22:16:52.865660 22540 net.cpp:425] norm2 <- pool2
I0922 22:16:52.865674 22540 net.cpp:399] norm2 -> norm2
I0922 22:16:52.865960 22540 net.cpp:141] Setting up norm2
I0922 22:16:52.865974 22540 net.cpp:148] Top shape: 10 256 13 13 (432640)
I0922 22:16:52.865979 22540 net.cpp:156] Memory required for data: 53405240
I0922 22:16:52.865985 22540 layer_factory.hpp:77] Creating layer conv3
I0922 22:16:52.865999 22540 net.cpp:91] Creating Layer conv3
I0922 22:16:52.866005 22540 net.cpp:425] conv3 <- norm2
I0922 22:16:52.866014 22540 net.cpp:399] conv3 -> conv3
I0922 22:16:52.869952 22540 net.cpp:141] Setting up conv3
I0922 22:16:52.869977 22540 net.cpp:148] Top shape: 10 384 13 13 (648960)
I0922 22:16:52.869985 22540 net.cpp:156] Memory required for data: 56001080
I0922 22:16:52.870002 22540 layer_factory.hpp:77] Creating layer relu3
I0922 22:16:52.870012 22540 net.cpp:91] Creating Layer relu3
I0922 22:16:52.870018 22540 net.cpp:425] relu3 <- conv3
I0922 22:16:52.870025 22540 net.cpp:386] relu3 -> conv3 (in-place)
I0922 22:16:52.870280 22540 net.cpp:141] Setting up relu3
I0922 22:16:52.870292 22540 net.cpp:148] Top shape: 10 384 13 13 (648960)
I0922 22:16:52.870297 22540 net.cpp:156] Memory required for data: 58596920
I0922 22:16:52.870303 22540 layer_factory.hpp:77] Creating layer conv4
I0922 22:16:52.870318 22540 net.cpp:91] Creating Layer conv4
I0922 22:16:52.870324 22540 net.cpp:425] conv4 <- conv3
I0922 22:16:52.870332 22540 net.cpp:399] conv4 -> conv4
I0922 22:16:52.874773 22540 net.cpp:141] Setting up conv4
I0922 22:16:52.874801 22540 net.cpp:148] Top shape: 10 384 13 13 (648960)
I0922 22:16:52.874809 22540 net.cpp:156] Memory required for data: 61192760
I0922 22:16:52.874819 22540 layer_factory.hpp:77] Creating layer relu4
I0922 22:16:52.874831 22540 net.cpp:91] Creating Layer relu4
I0922 22:16:52.874838 22540 net.cpp:425] relu4 <- conv4
I0922 22:16:52.874850 22540 net.cpp:386] relu4 -> conv4 (in-place)
I0922 22:16:52.875294 22540 net.cpp:141] Setting up relu4
I0922 22:16:52.875309 22540 net.cpp:148] Top shape: 10 384 13 13 (648960)
I0922 22:16:52.875314 22540 net.cpp:156] Memory required for data: 63788600
I0922 22:16:52.875320 22540 layer_factory.hpp:77] Creating layer conv5
I0922 22:16:52.875337 22540 net.cpp:91] Creating Layer conv5
I0922 22:16:52.875344 22540 net.cpp:425] conv5 <- conv4
I0922 22:16:52.875352 22540 net.cpp:399] conv5 -> conv5
I0922 22:16:52.877588 22534 net.cpp:141] Setting up lstm1_transform_1
I0922 22:16:52.877624 22534 net.cpp:148] Top shape: 1 1 4000 (4000)
I0922 22:16:52.877630 22534 net.cpp:156] Memory required for data: 62016
I0922 22:16:52.877647 22534 layer_factory.hpp:77] Creating layer lstm1_gate_input_1
I0922 22:16:52.877671 22534 net.cpp:91] Creating Layer lstm1_gate_input_1
I0922 22:16:52.877678 22534 net.cpp:425] lstm1_gate_input_1 <- W_hc_h_0
I0922 22:16:52.877686 22534 net.cpp:425] lstm1_gate_input_1 <- W_xc_x_1
I0922 22:16:52.877696 22534 net.cpp:399] lstm1_gate_input_1 -> gate_input_1
I0922 22:16:52.877909 22534 net.cpp:141] Setting up lstm1_gate_input_1
I0922 22:16:52.877920 22534 net.cpp:148] Top shape: 1 1 4000 (4000)
I0922 22:16:52.877924 22534 net.cpp:156] Memory required for data: 78016
I0922 22:16:52.877929 22534 layer_factory.hpp:77] Creating layer lstm1_unit_1
I0922 22:16:52.877943 22534 net.cpp:91] Creating Layer lstm1_unit_1
I0922 22:16:52.877948 22534 net.cpp:425] lstm1_unit_1 <- c_0
I0922 22:16:52.877954 22534 net.cpp:425] lstm1_unit_1 <- gate_input_1
I0922 22:16:52.877959 22534 net.cpp:425] lstm1_unit_1 <- cont_1_lstm1_cont_slice_0_split_1
I0922 22:16:52.877965 22534 net.cpp:399] lstm1_unit_1 -> c_1
I0922 22:16:52.877974 22534 net.cpp:399] lstm1_unit_1 -> h_1
I0922 22:16:52.878267 22534 net.cpp:141] Setting up lstm1_unit_1
I0922 22:16:52.878278 22534 net.cpp:148] Top shape: 1 1 1000 (1000)
I0922 22:16:52.878283 22534 net.cpp:148] Top shape: 1 1 1000 (1000)
I0922 22:16:52.878288 22534 net.cpp:156] Memory required for data: 86016
I0922 22:16:52.878293 22534 layer_factory.hpp:77] Creating layer lstm1_
I0922 22:16:52.878301 22534 net.cpp:91] Creating Layer lstm1_
I0922 22:16:52.878305 22534 net.cpp:425] lstm1_ <- c_1
I0922 22:16:52.878312 22534 net.cpp:399] lstm1_ -> c_T
I0922 22:16:52.878695 22534 net.cpp:141] Setting up lstm1_
I0922 22:16:52.878705 22534 net.cpp:148] Top shape: 1 1 1000 (1000)
I0922 22:16:52.878710 22534 net.cpp:156] Memory required for data: 90016
I0922 22:16:52.878715 22534 layer_factory.hpp:77] Creating layer lstm1_h_concat
I0922 22:16:52.878726 22534 net.cpp:91] Creating Layer lstm1_h_concat
I0922 22:16:52.878729 22534 net.cpp:425] lstm1_h_concat <- h_1
I0922 22:16:52.878736 22534 net.cpp:399] lstm1_h_concat -> h
I0922 22:16:52.878805 22534 net.cpp:141] Setting up lstm1_h_concat
I0922 22:16:52.878814 22534 net.cpp:148] Top shape: 1 1 1000 (1000)
I0922 22:16:52.878819 22534 net.cpp:156] Memory required for data: 94016
I0922 22:16:52.878823 22534 layer_factory.hpp:77] Creating layer h_pseudoloss
I0922 22:16:52.878834 22534 net.cpp:91] Creating Layer h_pseudoloss
I0922 22:16:52.878839 22534 net.cpp:425] h_pseudoloss <- h
I0922 22:16:52.878845 22534 net.cpp:399] h_pseudoloss -> h_pseudoloss
I0922 22:16:52.879310 22534 net.cpp:141] Setting up h_pseudoloss
…
I0922 22:16:52.879410 22534 net.cpp:219] lstm1_ does not need backward computation.
I0922 22:16:52.879412 22534 net.cpp:261] This network produces output c_T
I0922 22:16:52.879420 22534 net.cpp:261] This network produces output h_pseudoloss
I0922 22:16:52.879436 22534 net.cpp:274] Network initialization done.
I0922 22:16:52.879484 22534 recurrent_layer.cpp:150] Adding parameter 0: W_xc
I0922 22:16:52.879492 22534 recurrent_layer.cpp:150] Adding parameter 1: b_c
I0922 22:16:52.879495 22534 recurrent_layer.cpp:150] Adding parameter 2: W_hc
I0922 22:16:52.879698 22534 net.cpp:141] Setting up lstm1
I0922 22:16:52.879709 22534 net.cpp:148] Top shape: 1 1 1000 (1000)
I0922 22:16:52.879714 22534 net.cpp:156] Memory required for data: 26408
I0922 22:16:52.879727 22534 layer_factory.hpp:77] Creating layer concat
I0922 22:16:52.879736 22534 net.cpp:91] Creating Layer concat
I0922 22:16:52.879742 22534 net.cpp:425] concat <- lstm1
I0922 22:16:52.879748 22534 net.cpp:425] concat <- embedded_input_sentence
I0922 22:16:52.879755 22534 net.cpp:425] concat <- reshaped_stage_indicator
I0922 22:16:52.879760 22534 net.cpp:399] concat -> lstm1_video_sequence
I0922 22:16:52.879819 22534 net.cpp:141] Setting up concat
I0922 22:16:52.879830 22534 net.cpp:148] Top shape: 1 1 1501 (1501)
I0922 22:16:52.879834 22534 net.cpp:156] Memory required for data: 32412
I0922 22:16:52.879839 22534 layer_factory.hpp:77] Creating layer lstm2
I0922 22:16:52.879853 22534 net.cpp:91] Creating Layer lstm2
I0922 22:16:52.879858 22534 net.cpp:425] lstm2 <- lstm1_video_sequence
I0922 22:16:52.879863 22534 net.cpp:425] lstm2 <- cont_sentence_input_1_split_1
I0922 22:16:52.879871 22534 net.cpp:399] lstm2 -> lstm2
I0922 22:16:52.879884 22534 recurrent_layer.cpp:20] Initializing recurrent layer: assuming input batch contains 1 timesteps of 1 independent streams.
I0922 22:16:52.879987 22540 net.cpp:141] Setting up conv5
I0922 22:16:52.880007 22540 net.cpp:148] Top shape: 10 256 13 13 (432640)
I0922 22:16:52.880013 22540 net.cpp:156] Memory required for data: 65519160
I0922 22:16:52.880033 22540 layer_factory.hpp:77] Creating layer relu5
I0922 22:16:52.880043 22540 net.cpp:91] Creating Layer relu5
I0922 22:16:52.880048 22540 net.cpp:425] relu5 <- conv5
I0922 22:16:52.880059 22540 net.cpp:386] relu5 -> conv5 (in-place)
I0922 22:16:52.880141 22534 net.cpp:49] Initializing net from parameters: 
layer {
  name: "lstm2_"
  type: "Input"
  top: "x"
  top: "cont"
  input_param {
    shape {
      dim: 1
      dim: 1
      dim: 1501
    }
    shape {
      dim: 1
      dim: 1
    }
  }
}
layer {
  name: "lstm2_"
  type: "Input"
  top: "c_0"
  top: "h_0"
  input_param {
    shape {
      dim: 1
      dim: 1
      dim: 1000
    }
    shape {
      dim: 1
      dim: 1
      dim: 1000
    }
  }
}
layer {
  name: "lstm2_cont_slice"
  type: "Slice"
  bottom: "cont"
  top: "cont_1"
  slice_param {
    axis: 0
  }
}
layer {
  name: "lstm2_x_transform"
  type: "InnerProduct"
  bottom: "x"
  top: "W_xc_x"
  param {
    name: "W_xc"
  }
  param {
    name: "b_c"
  }
  propagate_down: true
  inner_product_param {
    num_output: 4000
    bias_term: true
    weight_filler {
      type: "uniform"
      min: -0.08
      max: 0.08
    }
    bias_filler {
      type: "constant"
      value: 0
    }
    axis: 2
  }
}
layer {
  name: "lstm2_W_xc_x_slice"
  type: "Slice"
  bottom: "W_xc_x"
  top: "W_xc_x_1"
  slice_param {
    axis: 0
  }
}
layer {
  name: "lstm2_h_conted_0"
  type: "Scale"
  bottom: "h_0"
  bottom: "cont_1"
  top: "h_conted_0"
  scale_param {
    axis: 0
  }
}
layer {
  name: "lstm2_transform_1"
  type: "InnerProduct"
  bottom: "h_conted_0"
  top: "W_hc_h_0"
  param {
    name: "W_hc"
  }
  inner_product_param {
    num_output: 4000
    bias_term: false
    weight_filler {
      type: "uniform"
      min: -0.08
      max: 0.08
    }
    axis: 2
  }
}
layer {
  name: "lstm2_gate_input_1"
  type: "Eltwise"
  bottom: "W_hc_h_0"
  bottom: "W_xc_x_1"
  top: "gate_input_1"
  eltwise_param {
    operation: SUM
  }
}
layer {
  name: "lstm2_unit_1"
  type: "LSTMUnit"
  bottom: "c_0"
  bottom: "gate_input_1"
  bottom: "cont_1"
  top: "c_1"
  top: "h_1"
}
layer {
  name: "lstm2_"
  type: "Split"
  bottom: "c_1"
  top: "c_T"
}
layer {
  name: "lstm2_h_concat"
  type: "Concat"
  bottom: "h_1"
  top: "h"
  concat_param {
    axis: 0
  }
}
layer {
  name: "h_pseudoloss"
  type: "Reduction"
  bottom: "h"
  top: "h_pseudoloss"
  loss_weight: 1
}
I0922 22:16:52.880231 22534 layer_factory.hpp:77] Creating layer lstm2_
I0922 22:16:52.880244 22534 net.cpp:91] Creating Layer lstm2_
I0922 22:16:52.880250 22534 net.cpp:399] lstm2_ -> x
I0922 22:16:52.880260 22534 net.cpp:399] lstm2_ -> cont
I0922 22:16:52.880486 22534 net.cpp:141] Setting up lstm2_
I0922 22:16:52.880497 22534 net.cpp:148] Top shape: 1 1 1501 (1501)
I0922 22:16:52.880504 22534 net.cpp:148] Top shape: 1 1 (1)
I0922 22:16:52.880508 22534 net.cpp:156] Memory required for data: 6008
I0922 22:16:52.880513 22534 layer_factory.hpp:77] Creating layer lstm2_
I0922 22:16:52.880522 22534 net.cpp:91] Creating Layer lstm2_
I0922 22:16:52.880535 22534 net.cpp:399] lstm2_ -> c_0
I0922 22:16:52.880545 22534 net.cpp:399] lstm2_ -> h_0
I0922 22:16:52.880610 22534 net.cpp:141] Setting up lstm2_
I0922 22:16:52.880620 22534 net.cpp:148] Top shape: 1 1 1000 (1000)
I0922 22:16:52.880625 22534 net.cpp:148] Top shape: 1 1 1000 (1000)
I0922 22:16:52.880630 22534 net.cpp:156] Memory required for data: 14008
I0922 22:16:52.880633 22534 layer_factory.hpp:77] Creating layer lstm2_cont_slice
I0922 22:16:52.880650 22534 net.cpp:91] Creating Layer lstm2_cont_slice
I0922 22:16:52.880656 22534 net.cpp:425] lstm2_cont_slice <- cont
I0922 22:16:52.880662 22534 net.cpp:399] lstm2_cont_slice -> cont_1
I0922 22:16:52.880661 22540 net.cpp:141] Setting up relu5
I0922 22:16:52.880677 22540 net.cpp:148] Top shape: 10 256 13 13 (432640)
I0922 22:16:52.880683 22540 net.cpp:156] Memory required for data: 67249720
I0922 22:16:52.880689 22540 layer_factory.hpp:77] Creating layer pool5
I0922 22:16:52.880700 22540 net.cpp:91] Creating Layer pool5
I0922 22:16:52.880704 22534 net.cpp:141] Setting up lstm2_cont_slice
I0922 22:16:52.880707 22540 net.cpp:425] pool5 <- conv5
I0922 22:16:52.880717 22534 net.cpp:148] Top shape: 1 1 (1)
I0922 22:16:52.880723 22534 net.cpp:156] Memory required for data: 14012
I0922 22:16:52.880728 22534 layer_factory.hpp:77] Creating layer cont_1_lstm2_cont_slice_0_split
I0922 22:16:52.880728 22540 net.cpp:399] pool5 -> pool5
I0922 22:16:52.880739 22534 net.cpp:91] Creating Layer cont_1_lstm2_cont_slice_0_split
I0922 22:16:52.880745 22534 net.cpp:425] cont_1_lstm2_cont_slice_0_split <- cont_1
I0922 22:16:52.880751 22534 net.cpp:399] cont_1_lstm2_cont_slice_0_split -> cont_1_lstm2_cont_slice_0_split_0
I0922 22:16:52.880759 22534 net.cpp:399] cont_1_lstm2_cont_slice_0_split -> cont_1_lstm2_cont_slice_0_split_1
I0922 22:16:52.880820 22540 net.cpp:141] Setting up pool5
I0922 22:16:52.880836 22540 net.cpp:148] Top shape: 10 256 6 6 (92160)
I0922 22:16:52.880841 22540 net.cpp:156] Memory required for data: 67618360
I0922 22:16:52.880846 22540 layer_factory.hpp:77] Creating layer fc6
I0922 22:16:52.880859 22540 net.cpp:91] Creating Layer fc6
I0922 22:16:52.880864 22540 net.cpp:425] fc6 <- pool5
I0922 22:16:52.880872 22540 net.cpp:399] fc6 -> fc6
I0922 22:16:52.880882 22534 net.cpp:141] Setting up cont_1_lstm2_cont_slice_0_split
I0922 22:16:52.880892 22534 net.cpp:148] Top shape: 1 1 (1)
I0922 22:16:52.880898 22534 net.cpp:148] Top shape: 1 1 (1)
I0922 22:16:52.880903 22534 net.cpp:156] Memory required for data: 14020
I0922 22:16:52.880908 22534 layer_factory.hpp:77] Creating layer lstm2_x_transform
I0922 22:16:52.880919 22534 net.cpp:91] Creating Layer lstm2_x_transform
I0922 22:16:52.880925 22534 net.cpp:425] lstm2_x_transform <- x
I0922 22:16:52.880933 22534 net.cpp:399] lstm2_x_transform -> W_xc_x
I0922 22:16:52.967872 22530 net.cpp:141] Setting up lstm2_x_transform
I0922 22:16:52.967926 22530 net.cpp:148] Top shape: 1 1 4000 (4000)
I0922 22:16:52.967933 22530 net.cpp:156] Memory required for data: 30020
I0922 22:16:52.967959 22530 layer_factory.hpp:77] Creating layer lstm2_W_xc_x_slice
I0922 22:16:52.967983 22530 net.cpp:91] Creating Layer lstm2_W_xc_x_slice
I0922 22:16:52.967989 22530 net.cpp:425] lstm2_W_xc_x_slice <- W_xc_x
I0922 22:16:52.968003 22530 net.cpp:399] lstm2_W_xc_x_slice -> W_xc_x_1
I0922 22:16:52.968052 22530 net.cpp:141] Setting up lstm2_W_xc_x_slice
I0922 22:16:52.968062 22530 net.cpp:148] Top shape: 1 1 4000 (4000)
I0922 22:16:52.968066 22530 net.cpp:156] Memory required for data: 46020
I0922 22:16:52.968071 22530 layer_factory.hpp:77] Creating layer lstm2_h_conted_0
I0922 22:16:52.968082 22530 net.cpp:91] Creating Layer lstm2_h_conted_0
I0922 22:16:52.968087 22530 net.cpp:425] lstm2_h_conted_0 <- h_0
I0922 22:16:52.968093 22530 net.cpp:425] lstm2_h_conted_0 <- cont_1_lstm2_cont_slice_0_split_0
I0922 22:16:52.968104 22530 net.cpp:399] lstm2_h_conted_0 -> h_conted_0
I0922 22:16:52.968205 22530 net.cpp:141] Setting up lstm2_h_conted_0
I0922 22:16:52.968214 22530 net.cpp:148] Top shape: 1 1 1000 (1000)
I0922 22:16:52.968219 22530 net.cpp:156] Memory required for data: 50020
I0922 22:16:52.968225 22530 layer_factory.hpp:77] Creating layer lstm2_transform_1
I0922 22:16:52.968242 22530 net.cpp:91] Creating Layer lstm2_transform_1
I0922 22:16:52.968247 22530 net.cpp:425] lstm2_transform_1 <- h_conted_0
I0922 22:16:52.968255 22530 net.cpp:399] lstm2_transform_1 -> W_hc_h_0
I0922 22:16:52.998765 22540 net.cpp:141] Setting up fc6
I0922 22:16:52.998822 22540 net.cpp:148] Top shape: 10 4096 (40960)
I0922 22:16:52.998831 22540 net.cpp:156] Memory required for data: 67782200
I0922 22:16:52.998845 22540 layer_factory.hpp:77] Creating layer relu6
I0922 22:16:52.998863 22540 net.cpp:91] Creating Layer relu6
I0922 22:16:52.998874 22540 net.cpp:425] relu6 <- fc6
I0922 22:16:52.998883 22540 net.cpp:386] relu6 -> fc6 (in-place)
I0922 22:16:52.999269 22540 net.cpp:141] Setting up relu6
I0922 22:16:52.999284 22540 net.cpp:148] Top shape: 10 4096 (40960)
I0922 22:16:52.999289 22540 net.cpp:156] Memory required for data: 67946040
I0922 22:16:52.999294 22540 layer_factory.hpp:77] Creating layer drop6
I0922 22:16:52.999310 22540 net.cpp:91] Creating Layer drop6
I0922 22:16:52.999316 22540 net.cpp:425] drop6 <- fc6
I0922 22:16:52.999325 22540 net.cpp:386] drop6 -> fc6 (in-place)
I0922 22:16:52.999382 22540 net.cpp:141] Setting up drop6
I0922 22:16:52.999392 22540 net.cpp:148] Top shape: 10 4096 (40960)
I0922 22:16:52.999397 22540 net.cpp:156] Memory required for data: 68109880
I0922 22:16:52.999402 22540 layer_factory.hpp:77] Creating layer fc7
I0922 22:16:52.999413 22540 net.cpp:91] Creating Layer fc7
I0922 22:16:52.999418 22540 net.cpp:425] fc7 <- fc6
I0922 22:16:52.999430 22540 net.cpp:399] fc7 -> fc7
I0922 22:16:53.031564 22530 net.cpp:141] Setting up lstm2_transform_1
I0922 22:16:53.031618 22530 net.cpp:148] Top shape: 1 1 4000 (4000)
I0922 22:16:53.031627 22530 net.cpp:156] Memory required for data: 66020
I0922 22:16:53.031657 22530 layer_factory.hpp:77] Creating layer lstm2_gate_input_1
I0922 22:16:53.031697 22530 net.cpp:91] Creating Layer lstm2_gate_input_1
I0922 22:16:53.031708 22530 net.cpp:425] lstm2_gate_input_1 <- W_hc_h_0
I0922 22:16:53.031721 22530 net.cpp:425] lstm2_gate_input_1 <- W_xc_x_1
I0922 22:16:53.031723 22534 net.cpp:141] Setting up lstm2_x_transform
I0922 22:16:53.031738 22530 net.cpp:399] lstm2_gate_input_1 -> gate_input_1
I0922 22:16:53.031743 22534 net.cpp:148] Top shape: 1 1 4000 (4000)
I0922 22:16:53.031747 22534 net.cpp:156] Memory required for data: 30020
I0922 22:16:53.031760 22534 layer_factory.hpp:77] Creating layer lstm2_W_xc_x_slice
I0922 22:16:53.031777 22534 net.cpp:91] Creating Layer lstm2_W_xc_x_slice
I0922 22:16:53.031783 22534 net.cpp:425] lstm2_W_xc_x_slice <- W_xc_x
I0922 22:16:53.031791 22534 net.cpp:399] lstm2_W_xc_x_slice -> W_xc_x_1
I0922 22:16:53.031806 22530 net.cpp:141] Setting up lstm2_gate_input_1
I0922 22:16:53.031822 22530 net.cpp:148] Top shape: 1 1 4000 (4000)
I0922 22:16:53.031831 22530 net.cpp:156] Memory required for data: 82020
I0922 22:16:53.031836 22534 net.cpp:141] Setting up lstm2_W_xc_x_slice
I0922 22:16:53.031838 22530 layer_factory.hpp:77] Creating layer lstm2_unit_1
I0922 22:16:53.031847 22534 net.cpp:148] Top shape: 1 1 4000 (4000)
I0922 22:16:53.031852 22534 net.cpp:156] Memory required for data: 46020
I0922 22:16:53.031857 22534 layer_factory.hpp:77] Creating layer lstm2_h_conted_0
I0922 22:16:53.031859 22530 net.cpp:91] Creating Layer lstm2_unit_1
I0922 22:16:53.031867 22534 net.cpp:91] Creating Layer lstm2_h_conted_0
I0922 22:16:53.031868 22530 net.cpp:425] lstm2_unit_1 <- c_0
I0922 22:16:53.031872 22534 net.cpp:425] lstm2_h_conted_0 <- h_0
I0922 22:16:53.031878 22530 net.cpp:425] lstm2_unit_1 <- gate_input_1
I0922 22:16:53.031882 22534 net.cpp:425] lstm2_h_conted_0 <- cont_1_lstm2_cont_slice_0_split_0
I0922 22:16:53.031888 22530 net.cpp:425] lstm2_unit_1 <- cont_1_lstm2_cont_slice_0_split_1
I0922 22:16:53.031889 22534 net.cpp:399] lstm2_h_conted_0 -> h_conted_0
I0922 22:16:53.031906 22530 net.cpp:399] lstm2_unit_1 -> c_1
I0922 22:16:53.031921 22530 net.cpp:399] lstm2_unit_1 -> h_1
I0922 22:16:53.032011 22534 net.cpp:141] Setting up lstm2_h_conted_0
I0922 22:16:53.032021 22534 net.cpp:148] Top shape: 1 1 1000 (1000)
I0922 22:16:53.032024 22534 net.cpp:156] Memory required for data: 50020
I0922 22:16:53.032029 22534 layer_factory.hpp:77] Creating layer lstm2_transform_1
I0922 22:16:53.032045 22534 net.cpp:91] Creating Layer lstm2_transform_1
I0922 22:16:53.032050 22534 net.cpp:425] lstm2_transform_1 <- h_conted_0
I0922 22:16:53.032058 22534 net.cpp:399] lstm2_transform_1 -> W_hc_h_0
I0922 22:16:53.032162 22530 net.cpp:141] Setting up lstm2_unit_1
I0922 22:16:53.032181 22530 net.cpp:148] Top shape: 1 1 1000 (1000)
I0922 22:16:53.032192 22530 net.cpp:148] Top shape: 1 1 1000 (1000)
I0922 22:16:53.032201 22530 net.cpp:156] Memory required for data: 90020
I0922 22:16:53.032210 22530 layer_factory.hpp:77] Creating layer lstm2_
I0922 22:16:53.032225 22530 net.cpp:91] Creating Layer lstm2_
I0922 22:16:53.032236 22530 net.cpp:425] lstm2_ <- c_1
I0922 22:16:53.032258 22530 net.cpp:399] lstm2_ -> c_T
I0922 22:16:53.039494 22530 net.cpp:141] Setting up lstm2_
I0922 22:16:53.039548 22530 net.cpp:148] Top shape: 1 1 1000 (1000)
I0922 22:16:53.039559 22530 net.cpp:156] Memory required for data: 94020
I0922 22:16:53.039574 22530 layer_factory.hpp:77] Creating layer lstm2_h_concat
I0922 22:16:53.039605 22530 net.cpp:91] Creating Layer lstm2_h_concat
I0922 22:16:53.039618 22530 net.cpp:425] lstm2_h_concat <- h_1
I0922 22:16:53.039636 22530 net.cpp:399] lstm2_h_concat -> h
I0922 22:16:53.039737 22530 net.cpp:141] Setting up lstm2_h_concat
I0922 22:16:53.039753 22530 net.cpp:148] Top shape: 1 1 1000 (1000)
I0922 22:16:53.039760 22530 net.cpp:156] Memory required for data: 98020
I0922 22:16:53.039768 22530 layer_factory.hpp:77] Creating layer h_pseudoloss
I0922 22:16:53.039784 22530 net.cpp:91] Creating Layer h_pseudoloss
I0922 22:16:53.039791 22530 net.cpp:425] h_pseudoloss <- h
I0922 22:16:53.039803 22530 net.cpp:399] h_pseudoloss -> h_pseudoloss
I0922 22:16:53.039963 22530 net.cpp:141] Setting up h_pseudoloss
…
I0922 22:16:53.040160 22530 net.cpp:219] lstm2_ does not need backward computation.
I0922 22:16:53.040168 22530 net.cpp:261] This network produces output c_T
I0922 22:16:53.040176 22530 net.cpp:261] This network produces output h_pseudoloss
I0922 22:16:53.040205 22530 net.cpp:274] Network initialization done.
I0922 22:16:53.040293 22530 recurrent_layer.cpp:150] Adding parameter 0: W_xc
I0922 22:16:53.040308 22530 recurrent_layer.cpp:150] Adding parameter 1: b_c
I0922 22:16:53.040318 22530 recurrent_layer.cpp:150] Adding parameter 2: W_hc
I0922 22:16:53.040505 22530 net.cpp:141] Setting up lstm2
I0922 22:16:53.040524 22530 net.cpp:148] Top shape: 1 1 1000 (1000)
I0922 22:16:53.040534 22530 net.cpp:156] Memory required for data: 36412
I0922 22:16:53.040563 22530 layer_factory.hpp:77] Creating layer predict
I0922 22:16:53.040591 22530 net.cpp:91] Creating Layer predict
I0922 22:16:53.040604 22530 net.cpp:425] predict <- lstm2
I0922 22:16:53.040621 22530 net.cpp:399] predict -> predict
I0922 22:16:53.121352 22534 net.cpp:141] Setting up lstm2_transform_1
I0922 22:16:53.121402 22534 net.cpp:148] Top shape: 1 1 4000 (4000)
I0922 22:16:53.121407 22534 net.cpp:156] Memory required for data: 66020
I0922 22:16:53.121431 22534 layer_factory.hpp:77] Creating layer lstm2_gate_input_1
I0922 22:16:53.121459 22534 net.cpp:91] Creating Layer lstm2_gate_input_1
I0922 22:16:53.121444 22540 net.cpp:141] Setting up fc7
I0922 22:16:53.121470 22534 net.cpp:425] lstm2_gate_input_1 <- W_hc_h_0
I0922 22:16:53.121496 22540 net.cpp:148] Top shape: 10 4096 (40960)
I0922 22:16:53.121497 22534 net.cpp:425] lstm2_gate_input_1 <- W_xc_x_1
I0922 22:16:53.121506 22540 net.cpp:156] Memory required for data: 68273720
I0922 22:16:53.121515 22534 net.cpp:399] lstm2_gate_input_1 -> gate_input_1
I0922 22:16:53.121522 22540 layer_factory.hpp:77] Creating layer relu7
I0922 22:16:53.121538 22540 net.cpp:91] Creating Layer relu7
I0922 22:16:53.121546 22540 net.cpp:425] relu7 <- fc7
I0922 22:16:53.121556 22540 net.cpp:386] relu7 -> fc7 (in-place)
I0922 22:16:53.121597 22534 net.cpp:141] Setting up lstm2_gate_input_1
I0922 22:16:53.121608 22534 net.cpp:148] Top shape: 1 1 4000 (4000)
I0922 22:16:53.121611 22534 net.cpp:156] Memory required for data: 82020
I0922 22:16:53.121616 22534 layer_factory.hpp:77] Creating layer lstm2_unit_1
I0922 22:16:53.121626 22534 net.cpp:91] Creating Layer lstm2_unit_1
I0922 22:16:53.121630 22534 net.cpp:425] lstm2_unit_1 <- c_0
I0922 22:16:53.121639 22534 net.cpp:425] lstm2_unit_1 <- gate_input_1
I0922 22:16:53.121645 22534 net.cpp:425] lstm2_unit_1 <- cont_1_lstm2_cont_slice_0_split_1
I0922 22:16:53.121652 22534 net.cpp:399] lstm2_unit_1 -> c_1
I0922 22:16:53.121661 22534 net.cpp:399] lstm2_unit_1 -> h_1
I0922 22:16:53.122206 22534 net.cpp:141] Setting up lstm2_unit_1
I0922 22:16:53.122225 22534 net.cpp:148] Top shape: 1 1 1000 (1000)
I0922 22:16:53.122232 22534 net.cpp:148] Top shape: 1 1 1000 (1000)
I0922 22:16:53.122236 22534 net.cpp:156] Memory required for data: 90020
I0922 22:16:53.122241 22534 layer_factory.hpp:77] Creating layer lstm2_
I0922 22:16:53.122252 22534 net.cpp:91] Creating Layer lstm2_
I0922 22:16:53.122257 22534 net.cpp:425] lstm2_ <- c_1
I0922 22:16:53.122265 22534 net.cpp:399] lstm2_ -> c_T
I0922 22:16:53.122364 22534 net.cpp:141] Setting up lstm2_
I0922 22:16:53.122375 22534 net.cpp:148] Top shape: 1 1 1000 (1000)
I0922 22:16:53.122380 22534 net.cpp:156] Memory required for data: 94020
I0922 22:16:53.122385 22534 layer_factory.hpp:77] Creating layer lstm2_h_concat
I0922 22:16:53.122396 22534 net.cpp:91] Creating Layer lstm2_h_concat
I0922 22:16:53.122401 22534 net.cpp:425] lstm2_h_concat <- h_1
I0922 22:16:53.122408 22540 net.cpp:141] Setting up relu7
I0922 22:16:53.122408 22534 net.cpp:399] lstm2_h_concat -> h
I0922 22:16:53.122431 22540 net.cpp:148] Top shape: 10 4096 (40960)
I0922 22:16:53.122437 22540 net.cpp:156] Memory required for data: 68437560
I0922 22:16:53.122443 22540 layer_factory.hpp:77] Creating layer drop7
I0922 22:16:53.122455 22540 net.cpp:91] Creating Layer drop7
I0922 22:16:53.122462 22540 net.cpp:425] drop7 <- fc7
I0922 22:16:53.122468 22540 net.cpp:386] drop7 -> fc7 (in-place)
I0922 22:16:53.122474 22534 net.cpp:141] Setting up lstm2_h_concat
I0922 22:16:53.122484 22534 net.cpp:148] Top shape: 1 1 1000 (1000)
I0922 22:16:53.122489 22534 net.cpp:156] Memory required for data: 98020
I0922 22:16:53.122494 22534 layer_factory.hpp:77] Creating layer h_pseudoloss
I0922 22:16:53.122503 22534 net.cpp:91] Creating Layer h_pseudoloss
I0922 22:16:53.122509 22534 net.cpp:425] h_pseudoloss <- h
I0922 22:16:53.122515 22534 net.cpp:399] h_pseudoloss -> h_pseudoloss
I0922 22:16:53.122534 22540 net.cpp:141] Setting up drop7
I0922 22:16:53.122545 22540 net.cpp:148] Top shape: 10 4096 (40960)
I0922 22:16:53.122550 22540 net.cpp:156] Memory required for data: 68601400
I0922 22:16:53.122555 22540 layer_factory.hpp:77] Creating layer fc8
I0922 22:16:53.122565 22540 net.cpp:91] Creating Layer fc8
I0922 22:16:53.122575 22540 net.cpp:425] fc8 <- fc7
I0922 22:16:53.122582 22540 net.cpp:399] fc8 -> fc8
I0922 22:16:53.122640 22534 net.cpp:141] Setting up h_pseudoloss
I0922 22:16:53.122651 22534 net.cpp:148] Top shape: (1)
…
