…
W0922 18:56:42.808101 27631 upgrade_proto.cpp:71] Note that future Caffe releases will only support input layers and not input fields.
I0922 18:56:42.808574 27631 net.cpp:49] Initializing net from parameters: 
name: "s2vt:features_to_lstm"
state {
  phase: TEST
}
layer {
  name: "input"
  type: "Input"
  top: "frames_fc7"
  top: "cont_sentence"
  top: "input_sentence"
  top: "stage_indicator"
  input_param {
    shape {
      dim: 1
      dim: 4096
    }
    shape {
      dim: 1
      dim: 1
    }
    shape {
      dim: 1
      dim: 1
    }
    shape {
      dim: 1
      dim: 1
    }
  }
}
layer {
  name: "embed_encoder"
  type: "InnerProduct"
  bottom: "frames_fc7"
  top: "embedded_in_frames"
  param {
    lr_mult: 1
    decay_mult: 1
  }
  param {
    lr_mult: 2
    decay_mult: 0
  }
  inner_product_param {
    num_output: 500
    weight_filler {
      type: "xavier"
    }
    bias_filler {
      type: "constant"
      value: 0.2
    }
  }
}
layer {
  name: "reshape_frames"
  type: "Reshape"
  bottom: "embedded_in_frames"
  top: "embedded_input_frames"
  reshape_param {
    shape {
      dim: 1
      dim: 1
      dim: 500
    }
  }
}
layer {
  name: "reshape_stage_indicator"
  type: "Reshape"
  bottom: "stage_indicator"
  top: "reshaped_stage_indicator"
  reshape_param {
    shape {
      dim: 1
      dim: 1
      dim: 1
    }
  }
}
layer {
  name: "embedding"
  type: "Embed"
  bottom: "input_sentence"
  top: "embedded_input_sentence"
  param {
    lr_mult: 1
  }
  embed_param {
    num_output: 500
    input_dim: 46168
    bias_term: false
    weight_filler {
      type: "uniform"
      min: -0.08
      max: 0.08
    }
  }
}
layer {
  name: "lstm1"
  type: "LSTM"
  bottom: "embedded_input_frames"
  bottom: "cont_sentence"
  top: "lstm1"
  recurrent_param {
    num_output: 1000
    weight_filler {
      type: "uniform"
      min: -0.08
      max: 0.08
    }
    bias_filler {
      type: "constant"
      value: 0
    }
  }
}
layer {
  name: "concat"
  type: "Concat"
  bottom: "lstm1"
  bottom: "embedded_input_sentence"
  bottom: "reshaped_stage_indicator"
  top: "lstm1_video_sequence"
  concat_param {
    concat_dim: 2
  }
}
layer {
  name: "lstm2"
  type: "LSTM"
  bottom: "lstm1_video_sequence"
  bottom: "cont_sentence"
  top: "lstm2"
  recurrent_param {
    num_output: 1000
    weight_filler {
      type: "uniform"
      min: -0.08
      max: 0.08
    }
    bias_filler {
      type: "constant"
      value: 0
    }
  }
}
layer {
  name: "predict"
  type: "InnerProduct"
  bottom: "lstm2"
  top: "predict"
  param {
    lr_mult: 1
    decay_mult: 1
  }
  param {
    lr_mult: 2
    decay_mult: 0
  }
  inner_product_param {
    num_output: 46168
    weight_filler {
      type: "uniform"
      min: -0.08
      max: 0.08
    }
    bias_filler {
      type: "constant"
      value: 0
    }
    axis: 2
  }
}
layer {
  name: "probs"
  type: "Softmax"
  bottom: "predict"
  top: "probs"
  softmax_param {
    axis: 2
  }
}
I0922 18:56:42.808797 27631 layer_factory.hpp:77] Creating layer input
I0922 18:56:42.808837 27631 net.cpp:91] Creating Layer input
I0922 18:56:42.808854 27631 net.cpp:399] input -> frames_fc7
I0922 18:56:42.808912 27631 net.cpp:399] input -> cont_sentence
I0922 18:56:42.808935 27631 net.cpp:399] input -> input_sentence
I0922 18:56:42.808953 27631 net.cpp:399] input -> stage_indicator
I0922 18:56:43.378414 27631 net.cpp:141] Setting up input
I0922 18:56:43.378494 27631 net.cpp:148] Top shape: 1 4096 (4096)
I0922 18:56:43.378504 27631 net.cpp:148] Top shape: 1 1 (1)
I0922 18:56:43.378510 27631 net.cpp:148] Top shape: 1 1 (1)
I0922 18:56:43.378517 27631 net.cpp:148] Top shape: 1 1 (1)
I0922 18:56:43.378522 27631 net.cpp:156] Memory required for data: 16396
I0922 18:56:43.378547 27631 layer_factory.hpp:77] Creating layer cont_sentence_input_1_split
I0922 18:56:43.378584 27631 net.cpp:91] Creating Layer cont_sentence_input_1_split
I0922 18:56:43.378597 27631 net.cpp:425] cont_sentence_input_1_split <- cont_sentence
I0922 18:56:43.378621 27631 net.cpp:399] cont_sentence_input_1_split -> cont_sentence_input_1_split_0
I0922 18:56:43.378641 27631 net.cpp:399] cont_sentence_input_1_split -> cont_sentence_input_1_split_1
I0922 18:56:43.378701 27631 net.cpp:141] Setting up cont_sentence_input_1_split
I0922 18:56:43.378713 27631 net.cpp:148] Top shape: 1 1 (1)
I0922 18:56:43.378720 27631 net.cpp:148] Top shape: 1 1 (1)
I0922 18:56:43.378726 27631 net.cpp:156] Memory required for data: 16404
I0922 18:56:43.378739 27631 layer_factory.hpp:77] Creating layer embed_encoder
I0922 18:56:43.378763 27631 net.cpp:91] Creating Layer embed_encoder
I0922 18:56:43.378769 27631 net.cpp:425] embed_encoder <- frames_fc7
I0922 18:56:43.378778 27631 net.cpp:399] embed_encoder -> embedded_in_frames
I0922 18:56:43.401924 27631 net.cpp:141] Setting up embed_encoder
I0922 18:56:43.401947 27631 net.cpp:148] Top shape: 1 500 (500)
I0922 18:56:43.401952 27631 net.cpp:156] Memory required for data: 18404
I0922 18:56:43.401978 27631 layer_factory.hpp:77] Creating layer reshape_frames
I0922 18:56:43.402004 27631 net.cpp:91] Creating Layer reshape_frames
I0922 18:56:43.402010 27631 net.cpp:425] reshape_frames <- embedded_in_frames
I0922 18:56:43.402029 27631 net.cpp:399] reshape_frames -> embedded_input_frames
I0922 18:56:43.402081 27631 net.cpp:141] Setting up reshape_frames
I0922 18:56:43.402091 27631 net.cpp:148] Top shape: 1 1 500 (500)
I0922 18:56:43.402096 27631 net.cpp:156] Memory required for data: 20404
I0922 18:56:43.402101 27631 layer_factory.hpp:77] Creating layer reshape_stage_indicator
I0922 18:56:43.402112 27631 net.cpp:91] Creating Layer reshape_stage_indicator
I0922 18:56:43.402118 27631 net.cpp:425] reshape_stage_indicator <- stage_indicator
I0922 18:56:43.402127 27631 net.cpp:399] reshape_stage_indicator -> reshaped_stage_indicator
I0922 18:56:43.402163 27631 net.cpp:141] Setting up reshape_stage_indicator
I0922 18:56:43.402173 27631 net.cpp:148] Top shape: 1 1 1 (1)
I0922 18:56:43.402178 27631 net.cpp:156] Memory required for data: 20408
I0922 18:56:43.402184 27631 layer_factory.hpp:77] Creating layer embedding
I0922 18:56:43.402199 27631 net.cpp:91] Creating Layer embedding
I0922 18:56:43.402205 27631 net.cpp:425] embedding <- input_sentence
I0922 18:56:43.402215 27631 net.cpp:399] embedding -> embedded_input_sentence
I0922 18:56:43.647294 27631 net.cpp:141] Setting up embedding
I0922 18:56:43.647341 27631 net.cpp:148] Top shape: 1 1 500 (500)
I0922 18:56:43.647348 27631 net.cpp:156] Memory required for data: 22408
I0922 18:56:43.647368 27631 layer_factory.hpp:77] Creating layer lstm1
I0922 18:56:43.647393 27631 net.cpp:91] Creating Layer lstm1
I0922 18:56:43.647403 27631 net.cpp:425] lstm1 <- embedded_input_frames
I0922 18:56:43.647413 27631 net.cpp:425] lstm1 <- cont_sentence_input_1_split_0
I0922 18:56:43.647424 27631 net.cpp:399] lstm1 -> lstm1
I0922 18:56:43.647472 27631 recurrent_layer.cpp:20] Initializing recurrent layer: assuming input batch contains 1 timesteps of 1 independent streams.
I0922 18:56:43.647884 27631 net.cpp:49] Initializing net from parameters: 
layer {
  name: "lstm1_"
  type: "Input"
  top: "x"
  top: "cont"
  input_param {
    shape {
      dim: 1
      dim: 1
      dim: 500
    }
    shape {
      dim: 1
      dim: 1
    }
  }
}
layer {
  name: "lstm1_"
  type: "Input"
  top: "c_0"
  top: "h_0"
  input_param {
    shape {
      dim: 1
      dim: 1
      dim: 1000
    }
    shape {
      dim: 1
      dim: 1
      dim: 1000
    }
  }
}
layer {
  name: "lstm1_cont_slice"
  type: "Slice"
  bottom: "cont"
  top: "cont_1"
  slice_param {
    axis: 0
  }
}
layer {
  name: "lstm1_x_transform"
  type: "InnerProduct"
  bottom: "x"
  top: "W_xc_x"
  param {
    name: "W_xc"
  }
  param {
    name: "b_c"
  }
  propagate_down: true
  inner_product_param {
    num_output: 4000
    bias_term: true
    weight_filler {
      type: "uniform"
      min: -0.08
      max: 0.08
    }
    bias_filler {
      type: "constant"
      value: 0
    }
    axis: 2
  }
}
layer {
  name: "lstm1_W_xc_x_slice"
  type: "Slice"
  bottom: "W_xc_x"
  top: "W_xc_x_1"
  slice_param {
    axis: 0
  }
}
layer {
  name: "lstm1_h_conted_0"
  type: "Scale"
  bottom: "h_0"
  bottom: "cont_1"
  top: "h_conted_0"
  scale_param {
    axis: 0
  }
}
layer {
  name: "lstm1_transform_1"
  type: "InnerProduct"
  bottom: "h_conted_0"
  top: "W_hc_h_0"
  param {
    name: "W_hc"
  }
  inner_product_param {
    num_output: 4000
    bias_term: false
    weight_filler {
      type: "uniform"
      min: -0.08
      max: 0.08
    }
    axis: 2
  }
}
layer {
  name: "lstm1_gate_input_1"
  type: "Eltwise"
  bottom: "W_hc_h_0"
  bottom: "W_xc_x_1"
  top: "gate_input_1"
  eltwise_param {
    operation: SUM
  }
}
layer {
  name: "lstm1_unit_1"
  type: "LSTMUnit"
  bottom: "c_0"
  bottom: "gate_input_1"
  bottom: "cont_1"
  top: "c_1"
  top: "h_1"
}
layer {
  name: "lstm1_"
  type: "Split"
  bottom: "c_1"
  top: "c_T"
}
layer {
  name: "lstm1_h_concat"
  type: "Concat"
  bottom: "h_1"
  top: "h"
  concat_param {
    axis: 0
  }
}
layer {
  name: "h_pseudoloss"
  type: "Reduction"
  bottom: "h"
  top: "h_pseudoloss"
  loss_weight: 1
}
I0922 18:56:43.647991 27631 layer_factory.hpp:77] Creating layer lstm1_
I0922 18:56:43.648006 27631 net.cpp:91] Creating Layer lstm1_
I0922 18:56:43.648013 27631 net.cpp:399] lstm1_ -> x
I0922 18:56:43.648027 27631 net.cpp:399] lstm1_ -> cont
I0922 18:56:43.648087 27631 net.cpp:141] Setting up lstm1_
I0922 18:56:43.648097 27631 net.cpp:148] Top shape: 1 1 500 (500)
I0922 18:56:43.648103 27631 net.cpp:148] Top shape: 1 1 (1)
I0922 18:56:43.648108 27631 net.cpp:156] Memory required for data: 2004
I0922 18:56:43.648114 27631 layer_factory.hpp:77] Creating layer lstm1_
I0922 18:56:43.648123 27631 net.cpp:91] Creating Layer lstm1_
I0922 18:56:43.648131 27631 net.cpp:399] lstm1_ -> c_0
I0922 18:56:43.648142 27631 net.cpp:399] lstm1_ -> h_0
I0922 18:56:43.648196 27631 net.cpp:141] Setting up lstm1_
I0922 18:56:43.648207 27631 net.cpp:148] Top shape: 1 1 1000 (1000)
I0922 18:56:43.648213 27631 net.cpp:148] Top shape: 1 1 1000 (1000)
I0922 18:56:43.648218 27631 net.cpp:156] Memory required for data: 10004
I0922 18:56:43.648223 27631 layer_factory.hpp:77] Creating layer lstm1_cont_slice
I0922 18:56:43.648234 27631 net.cpp:91] Creating Layer lstm1_cont_slice
I0922 18:56:43.648239 27631 net.cpp:425] lstm1_cont_slice <- cont
I0922 18:56:43.648250 27631 net.cpp:399] lstm1_cont_slice -> cont_1
I0922 18:56:43.648288 27631 net.cpp:141] Setting up lstm1_cont_slice
I0922 18:56:43.648296 27631 net.cpp:148] Top shape: 1 1 (1)
I0922 18:56:43.648301 27631 net.cpp:156] Memory required for data: 10008
I0922 18:56:43.648306 27631 layer_factory.hpp:77] Creating layer cont_1_lstm1_cont_slice_0_split
I0922 18:56:43.648318 27631 net.cpp:91] Creating Layer cont_1_lstm1_cont_slice_0_split
I0922 18:56:43.648322 27631 net.cpp:425] cont_1_lstm1_cont_slice_0_split <- cont_1
I0922 18:56:43.648330 27631 net.cpp:399] cont_1_lstm1_cont_slice_0_split -> cont_1_lstm1_cont_slice_0_split_0
I0922 18:56:43.648339 27631 net.cpp:399] cont_1_lstm1_cont_slice_0_split -> cont_1_lstm1_cont_slice_0_split_1
I0922 18:56:43.648388 27631 net.cpp:141] Setting up cont_1_lstm1_cont_slice_0_split
I0922 18:56:43.648397 27631 net.cpp:148] Top shape: 1 1 (1)
I0922 18:56:43.648403 27631 net.cpp:148] Top shape: 1 1 (1)
I0922 18:56:43.648408 27631 net.cpp:156] Memory required for data: 10016
I0922 18:56:43.648413 27631 layer_factory.hpp:77] Creating layer lstm1_x_transform
I0922 18:56:43.648424 27631 net.cpp:91] Creating Layer lstm1_x_transform
I0922 18:56:43.648430 27631 net.cpp:425] lstm1_x_transform <- x
I0922 18:56:43.648438 27631 net.cpp:399] lstm1_x_transform -> W_xc_x
I0922 18:56:43.670080 27631 net.cpp:141] Setting up lstm1_x_transform
I0922 18:56:43.670099 27631 net.cpp:148] Top shape: 1 1 4000 (4000)
I0922 18:56:43.670104 27631 net.cpp:156] Memory required for data: 26016
I0922 18:56:43.670117 27631 layer_factory.hpp:77] Creating layer lstm1_W_xc_x_slice
I0922 18:56:43.670127 27631 net.cpp:91] Creating Layer lstm1_W_xc_x_slice
I0922 18:56:43.670133 27631 net.cpp:425] lstm1_W_xc_x_slice <- W_xc_x
I0922 18:56:43.670142 27631 net.cpp:399] lstm1_W_xc_x_slice -> W_xc_x_1
I0922 18:56:43.670184 27631 net.cpp:141] Setting up lstm1_W_xc_x_slice
I0922 18:56:43.670194 27631 net.cpp:148] Top shape: 1 1 4000 (4000)
I0922 18:56:43.670199 27631 net.cpp:156] Memory required for data: 42016
I0922 18:56:43.670204 27631 layer_factory.hpp:77] Creating layer lstm1_h_conted_0
I0922 18:56:43.670224 27631 net.cpp:91] Creating Layer lstm1_h_conted_0
I0922 18:56:43.670230 27631 net.cpp:425] lstm1_h_conted_0 <- h_0
I0922 18:56:43.670236 27631 net.cpp:425] lstm1_h_conted_0 <- cont_1_lstm1_cont_slice_0_split_0
I0922 18:56:43.670244 27631 net.cpp:399] lstm1_h_conted_0 -> h_conted_0
I0922 18:56:43.670347 27631 net.cpp:141] Setting up lstm1_h_conted_0
I0922 18:56:43.670358 27631 net.cpp:148] Top shape: 1 1 1000 (1000)
I0922 18:56:43.670362 27631 net.cpp:156] Memory required for data: 46016
I0922 18:56:43.670367 27631 layer_factory.hpp:77] Creating layer lstm1_transform_1
I0922 18:56:43.670377 27631 net.cpp:91] Creating Layer lstm1_transform_1
I0922 18:56:43.670383 27631 net.cpp:425] lstm1_transform_1 <- h_conted_0
I0922 18:56:43.670395 27631 net.cpp:399] lstm1_transform_1 -> W_hc_h_0
I0922 18:56:43.713351 27631 net.cpp:141] Setting up lstm1_transform_1
I0922 18:56:43.713397 27631 net.cpp:148] Top shape: 1 1 4000 (4000)
I0922 18:56:43.713403 27631 net.cpp:156] Memory required for data: 62016
I0922 18:56:43.713428 27631 layer_factory.hpp:77] Creating layer lstm1_gate_input_1
I0922 18:56:43.713459 27631 net.cpp:91] Creating Layer lstm1_gate_input_1
I0922 18:56:43.713466 27631 net.cpp:425] lstm1_gate_input_1 <- W_hc_h_0
I0922 18:56:43.713474 27631 net.cpp:425] lstm1_gate_input_1 <- W_xc_x_1
I0922 18:56:43.713485 27631 net.cpp:399] lstm1_gate_input_1 -> gate_input_1
I0922 18:56:43.713546 27631 net.cpp:141] Setting up lstm1_gate_input_1
I0922 18:56:43.713556 27631 net.cpp:148] Top shape: 1 1 4000 (4000)
I0922 18:56:43.713560 27631 net.cpp:156] Memory required for data: 78016
I0922 18:56:43.713565 27631 layer_factory.hpp:77] Creating layer lstm1_unit_1
I0922 18:56:43.713587 27631 net.cpp:91] Creating Layer lstm1_unit_1
I0922 18:56:43.713593 27631 net.cpp:425] lstm1_unit_1 <- c_0
I0922 18:56:43.713599 27631 net.cpp:425] lstm1_unit_1 <- gate_input_1
I0922 18:56:43.713606 27631 net.cpp:425] lstm1_unit_1 <- cont_1_lstm1_cont_slice_0_split_1
I0922 18:56:43.713623 27631 net.cpp:399] lstm1_unit_1 -> c_1
I0922 18:56:43.713632 27631 net.cpp:399] lstm1_unit_1 -> h_1
I0922 18:56:43.713699 27631 net.cpp:141] Setting up lstm1_unit_1
I0922 18:56:43.713709 27631 net.cpp:148] Top shape: 1 1 1000 (1000)
I0922 18:56:43.713716 27631 net.cpp:148] Top shape: 1 1 1000 (1000)
I0922 18:56:43.713721 27631 net.cpp:156] Memory required for data: 86016
I0922 18:56:43.713726 27631 layer_factory.hpp:77] Creating layer lstm1_
I0922 18:56:43.713737 27631 net.cpp:91] Creating Layer lstm1_
I0922 18:56:43.713742 27631 net.cpp:425] lstm1_ <- c_1
I0922 18:56:43.713749 27631 net.cpp:399] lstm1_ -> c_T
I0922 18:56:43.713785 27631 net.cpp:141] Setting up lstm1_
I0922 18:56:43.713795 27631 net.cpp:148] Top shape: 1 1 1000 (1000)
I0922 18:56:43.713800 27631 net.cpp:156] Memory required for data: 90016
I0922 18:56:43.713805 27631 layer_factory.hpp:77] Creating layer lstm1_h_concat
I0922 18:56:43.713816 27631 net.cpp:91] Creating Layer lstm1_h_concat
I0922 18:56:43.713821 27631 net.cpp:425] lstm1_h_concat <- h_1
I0922 18:56:43.713831 27631 net.cpp:399] lstm1_h_concat -> h
I0922 18:56:43.713874 27631 net.cpp:141] Setting up lstm1_h_concat
I0922 18:56:43.713883 27631 net.cpp:148] Top shape: 1 1 1000 (1000)
I0922 18:56:43.713888 27631 net.cpp:156] Memory required for data: 94016
I0922 18:56:43.713893 27631 layer_factory.hpp:77] Creating layer h_pseudoloss
I0922 18:56:43.713915 27631 net.cpp:91] Creating Layer h_pseudoloss
I0922 18:56:43.713922 27631 net.cpp:425] h_pseudoloss <- h
I0922 18:56:43.713929 27631 net.cpp:399] h_pseudoloss -> h_pseudoloss
I0922 18:56:43.714022 27631 net.cpp:141] Setting up h_pseudoloss
…
I0922 18:56:43.714154 27631 net.cpp:219] lstm1_ does not need backward computation.
I0922 18:56:43.714159 27631 net.cpp:261] This network produces output c_T
I0922 18:56:43.714164 27631 net.cpp:261] This network produces output h_pseudoloss
I0922 18:56:43.714188 27631 net.cpp:274] Network initialization done.
I0922 18:56:43.714257 27631 recurrent_layer.cpp:150] Adding parameter 0: W_xc
I0922 18:56:43.714264 27631 recurrent_layer.cpp:150] Adding parameter 1: b_c
I0922 18:56:43.714269 27631 recurrent_layer.cpp:150] Adding parameter 2: W_hc
I0922 18:56:43.714391 27631 net.cpp:141] Setting up lstm1
I0922 18:56:43.714403 27631 net.cpp:148] Top shape: 1 1 1000 (1000)
I0922 18:56:43.714408 27631 net.cpp:156] Memory required for data: 26408
I0922 18:56:43.714423 27631 layer_factory.hpp:77] Creating layer concat
I0922 18:56:43.714433 27631 net.cpp:91] Creating Layer concat
I0922 18:56:43.714440 27631 net.cpp:425] concat <- lstm1
I0922 18:56:43.714447 27631 net.cpp:425] concat <- embedded_input_sentence
I0922 18:56:43.714453 27631 net.cpp:425] concat <- reshaped_stage_indicator
I0922 18:56:43.714460 27631 net.cpp:399] concat -> lstm1_video_sequence
I0922 18:56:43.714493 27631 net.cpp:141] Setting up concat
I0922 18:56:43.714503 27631 net.cpp:148] Top shape: 1 1 1501 (1501)
I0922 18:56:43.714507 27631 net.cpp:156] Memory required for data: 32412
I0922 18:56:43.714514 27631 layer_factory.hpp:77] Creating layer lstm2
I0922 18:56:43.714529 27631 net.cpp:91] Creating Layer lstm2
I0922 18:56:43.714534 27631 net.cpp:425] lstm2 <- lstm1_video_sequence
I0922 18:56:43.714540 27631 net.cpp:425] lstm2 <- cont_sentence_input_1_split_1
I0922 18:56:43.714550 27631 net.cpp:399] lstm2 -> lstm2
I0922 18:56:43.714561 27631 recurrent_layer.cpp:20] Initializing recurrent layer: assuming input batch contains 1 timesteps of 1 independent streams.
I0922 18:56:43.714856 27631 net.cpp:49] Initializing net from parameters: 
layer {
  name: "lstm2_"
  type: "Input"
  top: "x"
  top: "cont"
  input_param {
    shape {
      dim: 1
      dim: 1
      dim: 1501
    }
    shape {
      dim: 1
      dim: 1
    }
  }
}
layer {
  name: "lstm2_"
  type: "Input"
  top: "c_0"
  top: "h_0"
  input_param {
    shape {
      dim: 1
      dim: 1
      dim: 1000
    }
    shape {
      dim: 1
      dim: 1
      dim: 1000
    }
  }
}
layer {
  name: "lstm2_cont_slice"
  type: "Slice"
  bottom: "cont"
  top: "cont_1"
  slice_param {
    axis: 0
  }
}
layer {
  name: "lstm2_x_transform"
  type: "InnerProduct"
  bottom: "x"
  top: "W_xc_x"
  param {
    name: "W_xc"
  }
  param {
    name: "b_c"
  }
  propagate_down: true
  inner_product_param {
    num_output: 4000
    bias_term: true
    weight_filler {
      type: "uniform"
      min: -0.08
      max: 0.08
    }
    bias_filler {
      type: "constant"
      value: 0
    }
    axis: 2
  }
}
layer {
  name: "lstm2_W_xc_x_slice"
  type: "Slice"
  bottom: "W_xc_x"
  top: "W_xc_x_1"
  slice_param {
    axis: 0
  }
}
layer {
  name: "lstm2_h_conted_0"
  type: "Scale"
  bottom: "h_0"
  bottom: "cont_1"
  top: "h_conted_0"
  scale_param {
    axis: 0
  }
}
layer {
  name: "lstm2_transform_1"
  type: "InnerProduct"
  bottom: "h_conted_0"
  top: "W_hc_h_0"
  param {
    name: "W_hc"
  }
  inner_product_param {
    num_output: 4000
    bias_term: false
    weight_filler {
      type: "uniform"
      min: -0.08
      max: 0.08
    }
    axis: 2
  }
}
layer {
  name: "lstm2_gate_input_1"
  type: "Eltwise"
  bottom: "W_hc_h_0"
  bottom: "W_xc_x_1"
  top: "gate_input_1"
  eltwise_param {
    operation: SUM
  }
}
layer {
  name: "lstm2_unit_1"
  type: "LSTMUnit"
  bottom: "c_0"
  bottom: "gate_input_1"
  bottom: "cont_1"
  top: "c_1"
  top: "h_1"
}
layer {
  name: "lstm2_"
  type: "Split"
  bottom: "c_1"
  top: "c_T"
}
layer {
  name: "lstm2_h_concat"
  type: "Concat"
  bottom: "h_1"
  top: "h"
  concat_param {
    axis: 0
  }
}
layer {
  name: "h_pseudoloss"
  type: "Reduction"
  bottom: "h"
  top: "h_pseudoloss"
  loss_weight: 1
}
I0922 18:56:43.714962 27631 layer_factory.hpp:77] Creating layer lstm2_
I0922 18:56:43.714977 27631 net.cpp:91] Creating Layer lstm2_
I0922 18:56:43.714983 27631 net.cpp:399] lstm2_ -> x
I0922 18:56:43.714995 27631 net.cpp:399] lstm2_ -> cont
I0922 18:56:43.715062 27631 net.cpp:141] Setting up lstm2_
I0922 18:56:43.715073 27631 net.cpp:148] Top shape: 1 1 1501 (1501)
I0922 18:56:43.715080 27631 net.cpp:148] Top shape: 1 1 (1)
I0922 18:56:43.715085 27631 net.cpp:156] Memory required for data: 6008
I0922 18:56:43.715090 27631 layer_factory.hpp:77] Creating layer lstm2_
I0922 18:56:43.715100 27631 net.cpp:91] Creating Layer lstm2_
I0922 18:56:43.715112 27631 net.cpp:399] lstm2_ -> c_0
I0922 18:56:43.715123 27631 net.cpp:399] lstm2_ -> h_0
I0922 18:56:43.715167 27631 net.cpp:141] Setting up lstm2_
I0922 18:56:43.715178 27631 net.cpp:148] Top shape: 1 1 1000 (1000)
I0922 18:56:43.715183 27631 net.cpp:148] Top shape: 1 1 1000 (1000)
I0922 18:56:43.715188 27631 net.cpp:156] Memory required for data: 14008
I0922 18:56:43.715193 27631 layer_factory.hpp:77] Creating layer lstm2_cont_slice
I0922 18:56:43.715212 27631 net.cpp:91] Creating Layer lstm2_cont_slice
I0922 18:56:43.715219 27631 net.cpp:425] lstm2_cont_slice <- cont
I0922 18:56:43.715226 27631 net.cpp:399] lstm2_cont_slice -> cont_1
I0922 18:56:43.715258 27631 net.cpp:141] Setting up lstm2_cont_slice
I0922 18:56:43.715268 27631 net.cpp:148] Top shape: 1 1 (1)
I0922 18:56:43.715272 27631 net.cpp:156] Memory required for data: 14012
I0922 18:56:43.715277 27631 layer_factory.hpp:77] Creating layer cont_1_lstm2_cont_slice_0_split
I0922 18:56:43.715286 27631 net.cpp:91] Creating Layer cont_1_lstm2_cont_slice_0_split
I0922 18:56:43.715291 27631 net.cpp:425] cont_1_lstm2_cont_slice_0_split <- cont_1
I0922 18:56:43.715302 27631 net.cpp:399] cont_1_lstm2_cont_slice_0_split -> cont_1_lstm2_cont_slice_0_split_0
I0922 18:56:43.715312 27631 net.cpp:399] cont_1_lstm2_cont_slice_0_split -> cont_1_lstm2_cont_slice_0_split_1
I0922 18:56:43.715361 27631 net.cpp:141] Setting up cont_1_lstm2_cont_slice_0_split
I0922 18:56:43.715371 27631 net.cpp:148] Top shape: 1 1 (1)
I0922 18:56:43.715378 27631 net.cpp:148] Top shape: 1 1 (1)
I0922 18:56:43.715382 27631 net.cpp:156] Memory required for data: 14020
I0922 18:56:43.715387 27631 layer_factory.hpp:77] Creating layer lstm2_x_transform
I0922 18:56:43.715404 27631 net.cpp:91] Creating Layer lstm2_x_transform
I0922 18:56:43.715409 27631 net.cpp:425] lstm2_x_transform <- x
I0922 18:56:43.715417 27631 net.cpp:399] lstm2_x_transform -> W_xc_x
I0922 18:56:43.779502 27631 net.cpp:141] Setting up lstm2_x_transform
I0922 18:56:43.779547 27631 net.cpp:148] Top shape: 1 1 4000 (4000)
I0922 18:56:43.779553 27631 net.cpp:156] Memory required for data: 30020
I0922 18:56:43.779577 27631 layer_factory.hpp:77] Creating layer lstm2_W_xc_x_slice
I0922 18:56:43.779598 27631 net.cpp:91] Creating Layer lstm2_W_xc_x_slice
I0922 18:56:43.779605 27631 net.cpp:425] lstm2_W_xc_x_slice <- W_xc_x
I0922 18:56:43.779615 27631 net.cpp:399] lstm2_W_xc_x_slice -> W_xc_x_1
I0922 18:56:43.779664 27631 net.cpp:141] Setting up lstm2_W_xc_x_slice
I0922 18:56:43.779675 27631 net.cpp:148] Top shape: 1 1 4000 (4000)
I0922 18:56:43.779680 27631 net.cpp:156] Memory required for data: 46020
I0922 18:56:43.779685 27631 layer_factory.hpp:77] Creating layer lstm2_h_conted_0
I0922 18:56:43.779701 27631 net.cpp:91] Creating Layer lstm2_h_conted_0
I0922 18:56:43.779707 27631 net.cpp:425] lstm2_h_conted_0 <- h_0
I0922 18:56:43.779714 27631 net.cpp:425] lstm2_h_conted_0 <- cont_1_lstm2_cont_slice_0_split_0
I0922 18:56:43.779722 27631 net.cpp:399] lstm2_h_conted_0 -> h_conted_0
I0922 18:56:43.779816 27631 net.cpp:141] Setting up lstm2_h_conted_0
I0922 18:56:43.779826 27631 net.cpp:148] Top shape: 1 1 1000 (1000)
I0922 18:56:43.779831 27631 net.cpp:156] Memory required for data: 50020
I0922 18:56:43.779836 27631 layer_factory.hpp:77] Creating layer lstm2_transform_1
I0922 18:56:43.779853 27631 net.cpp:91] Creating Layer lstm2_transform_1
I0922 18:56:43.779860 27631 net.cpp:425] lstm2_transform_1 <- h_conted_0
I0922 18:56:43.779868 27631 net.cpp:399] lstm2_transform_1 -> W_hc_h_0
I0922 18:56:43.822868 27631 net.cpp:141] Setting up lstm2_transform_1
I0922 18:56:43.822914 27631 net.cpp:148] Top shape: 1 1 4000 (4000)
I0922 18:56:43.822921 27631 net.cpp:156] Memory required for data: 66020
I0922 18:56:43.822945 27631 layer_factory.hpp:77] Creating layer lstm2_gate_input_1
I0922 18:56:43.822974 27631 net.cpp:91] Creating Layer lstm2_gate_input_1
I0922 18:56:43.822981 27631 net.cpp:425] lstm2_gate_input_1 <- W_hc_h_0
I0922 18:56:43.822990 27631 net.cpp:425] lstm2_gate_input_1 <- W_xc_x_1
I0922 18:56:43.823000 27631 net.cpp:399] lstm2_gate_input_1 -> gate_input_1
I0922 18:56:43.823065 27631 net.cpp:141] Setting up lstm2_gate_input_1
I0922 18:56:43.823077 27631 net.cpp:148] Top shape: 1 1 4000 (4000)
I0922 18:56:43.823081 27631 net.cpp:156] Memory required for data: 82020
I0922 18:56:43.823087 27631 layer_factory.hpp:77] Creating layer lstm2_unit_1
I0922 18:56:43.823097 27631 net.cpp:91] Creating Layer lstm2_unit_1
I0922 18:56:43.823103 27631 net.cpp:425] lstm2_unit_1 <- c_0
I0922 18:56:43.823109 27631 net.cpp:425] lstm2_unit_1 <- gate_input_1
I0922 18:56:43.823117 27631 net.cpp:425] lstm2_unit_1 <- cont_1_lstm2_cont_slice_0_split_1
I0922 18:56:43.823123 27631 net.cpp:399] lstm2_unit_1 -> c_1
I0922 18:56:43.823133 27631 net.cpp:399] lstm2_unit_1 -> h_1
I0922 18:56:43.823199 27631 net.cpp:141] Setting up lstm2_unit_1
I0922 18:56:43.823207 27631 net.cpp:148] Top shape: 1 1 1000 (1000)
I0922 18:56:43.823215 27631 net.cpp:148] Top shape: 1 1 1000 (1000)
I0922 18:56:43.823218 27631 net.cpp:156] Memory required for data: 90020
I0922 18:56:43.823225 27631 layer_factory.hpp:77] Creating layer lstm2_
I0922 18:56:43.823238 27631 net.cpp:91] Creating Layer lstm2_
I0922 18:56:43.823246 27631 net.cpp:425] lstm2_ <- c_1
I0922 18:56:43.823253 27631 net.cpp:399] lstm2_ -> c_T
I0922 18:56:43.823285 27631 net.cpp:141] Setting up lstm2_
I0922 18:56:43.823294 27631 net.cpp:148] Top shape: 1 1 1000 (1000)
I0922 18:56:43.823299 27631 net.cpp:156] Memory required for data: 94020
I0922 18:56:43.823304 27631 layer_factory.hpp:77] Creating layer lstm2_h_concat
I0922 18:56:43.823315 27631 net.cpp:91] Creating Layer lstm2_h_concat
I0922 18:56:43.823320 27631 net.cpp:425] lstm2_h_concat <- h_1
I0922 18:56:43.823333 27631 net.cpp:399] lstm2_h_concat -> h
I0922 18:56:43.823371 27631 net.cpp:141] Setting up lstm2_h_concat
I0922 18:56:43.823380 27631 net.cpp:148] Top shape: 1 1 1000 (1000)
I0922 18:56:43.823385 27631 net.cpp:156] Memory required for data: 98020
I0922 18:56:43.823390 27631 layer_factory.hpp:77] Creating layer h_pseudoloss
I0922 18:56:43.823401 27631 net.cpp:91] Creating Layer h_pseudoloss
I0922 18:56:43.823406 27631 net.cpp:425] h_pseudoloss <- h
I0922 18:56:43.823415 27631 net.cpp:399] h_pseudoloss -> h_pseudoloss
I0922 18:56:43.823501 27631 net.cpp:141] Setting up h_pseudoloss
…
W0922 18:56:47.696501 27647 upgrade_proto.cpp:71] Note that future Caffe releases will only support input layers and not input fields.
I0922 18:56:47.696771 27647 net.cpp:49] Initializing net from parameters: 
name: "s2vt:features_to_lstm"
state {
  phase: TEST
}
layer {
  name: "input"
  type: "Input"
  top: "frames_fc7"
  top: "cont_sentence"
  top: "input_sentence"
  top: "stage_indicator"
  input_param {
    shape {
      dim: 1
      dim: 4096
    }
    shape {
      dim: 1
      dim: 1
    }
    shape {
      dim: 1
      dim: 1
    }
    shape {
      dim: 1
      dim: 1
    }
  }
}
layer {
  name: "embed_encoder"
  type: "InnerProduct"
  bottom: "frames_fc7"
  top: "embedded_in_frames"
  param {
    lr_mult: 1
    decay_mult: 1
  }
  param {
    lr_mult: 2
    decay_mult: 0
  }
  inner_product_param {
    num_output: 500
    weight_filler {
      type: "xavier"
    }
    bias_filler {
      type: "constant"
      value: 0.2
    }
  }
}
layer {
  name: "reshape_frames"
  type: "Reshape"
  bottom: "embedded_in_frames"
  top: "embedded_input_frames"
  reshape_param {
    shape {
      dim: 1
      dim: 1
      dim: 500
    }
  }
}
layer {
  name: "reshape_stage_indicator"
  type: "Reshape"
  bottom: "stage_indicator"
  top: "reshaped_stage_indicator"
  reshape_param {
    shape {
      dim: 1
      dim: 1
      dim: 1
    }
  }
}
layer {
  name: "embedding"
  type: "Embed"
  bottom: "input_sentence"
  top: "embedded_input_sentence"
  param {
    lr_mult: 1
  }
  embed_param {
    num_output: 500
    input_dim: 46168
    bias_term: false
    weight_filler {
      type: "uniform"
      min: -0.08
      max: 0.08
    }
  }
}
layer {
  name: "lstm1"
  type: "LSTM"
  bottom: "embedded_input_frames"
  bottom: "cont_sentence"
  top: "lstm1"
  recurrent_param {
    num_output: 1000
    weight_filler {
      type: "uniform"
      min: -0.08
      max: 0.08
    }
    bias_filler {
      type: "constant"
      value: 0
    }
  }
}
layer {
  name: "concat"
  type: "Concat"
  bottom: "lstm1"
  bottom: "embedded_input_sentence"
  bottom: "reshaped_stage_indicator"
  top: "lstm1_video_sequence"
  concat_param {
    concat_dim: 2
  }
}
layer {
  name: "lstm2"
  type: "LSTM"
  bottom: "lstm1_video_sequence"
  bottom: "cont_sentence"
  top: "lstm2"
  recurrent_param {
    num_output: 1000
    weight_filler {
      type: "uniform"
      min: -0.08
      max: 0.08
    }
    bias_filler {
      type: "constant"
      value: 0
    }
  }
}
layer {
  name: "predict"
  type: "InnerProduct"
  bottom: "lstm2"
  top: "predict"
  param {
    lr_mult: 1
    decay_mult: 1
  }
  param {
    lr_mult: 2
    decay_mult: 0
  }
  inner_product_param {
    num_output: 46168
    weight_filler {
      type: "uniform"
      min: -0.08
      max: 0.08
    }
    bias_filler {
      type: "constant"
      value: 0
    }
    axis: 2
  }
}
layer {
  name: "probs"
  type: "Softmax"
  bottom: "predict"
  top: "probs"
  softmax_param {
    axis: 2
  }
}
I0922 18:56:47.696780 27627 net.cpp:49] Initializing net from parameters: 
name: "s2vt:features_to_lstm"
state {
  phase: TEST
}
layer {
  name: "input"
  type: "Input"
  top: "frames_fc7"
  top: "cont_sentence"
  top: "input_sentence"
  top: "stage_indicator"
  input_param {
    shape {
      dim: 1
      dim: 4096
    }
    shape {
      dim: 1
      dim: 1
    }
    shape {
      dim: 1
      dim: 1
    }
    shape {
      dim: 1
      dim: 1
    }
  }
}
layer {
  name: "embed_encoder"
  type: "InnerProduct"
  bottom: "frames_fc7"
  top: "embedded_in_frames"
  param {
    lr_mult: 1
    decay_mult: 1
  }
  param {
    lr_mult: 2
    decay_mult: 0
  }
  inner_product_param {
    num_output: 500
    weight_filler {
      type: "xavier"
    }
    bias_filler {
      type: "constant"
      value: 0.2
    }
  }
}
layer {
  name: "reshape_frames"
  type: "Reshape"
  bottom: "embedded_in_frames"
  top: "embedded_input_frames"
  reshape_param {
    shape {
      dim: 1
      dim: 1
      dim: 500
    }
  }
}
layer {
  name: "reshape_stage_indicator"
  type: "Reshape"
  bottom: "stage_indicator"
  top: "reshaped_stage_indicator"
  reshape_param {
    shape {
      dim: 1
      dim: 1
      dim: 1
    }
  }
}
layer {
  name: "embedding"
  type: "Embed"
  bottom: "input_sentence"
  top: "embedded_input_sentence"
  param {
    lr_mult: 1
  }
  embed_param {
    num_output: 500
    input_dim: 46168
    bias_term: false
    weight_filler {
      type: "uniform"
      min: -0.08
      max: 0.08
    }
  }
}
layer {
  name: "lstm1"
  type: "LSTM"
  bottom: "embedded_input_frames"
  bottom: "cont_sentence"
  top: "lstm1"
  recurrent_param {
    num_output: 1000
    weight_filler {
      type: "uniform"
      min: -0.08
      max: 0.08
    }
    bias_filler {
      type: "constant"
      value: 0
    }
  }
}
layer {
  name: "concat"
  type: "Concat"
  bottom: "lstm1"
  bottom: "embedded_input_sentence"
  bottom: "reshaped_stage_indicator"
  top: "lstm1_video_sequence"
  concat_param {
    concat_dim: 2
  }
}
layer {
  name: "lstm2"
  type: "LSTM"
  bottom: "lstm1_video_sequence"
  bottom: "cont_sentence"
  top: "lstm2"
  recurrent_param {
    num_output: 1000
    weight_filler {
      type: "uniform"
      min: -0.08
      max: 0.08
    }
    bias_filler {
      type: "constant"
      value: 0
    }
  }
}
layer {
  name: "predict"
  type: "InnerProduct"
  bottom: "lstm2"
  top: "predict"
  param {
    lr_mult: 1
    decay_mult: 1
  }
  param {
    lr_mult: 2
    decay_mult: 0
  }
  inner_product_param {
    num_output: 46168
    weight_filler {
      type: "uniform"
      min: -0.08
      max: 0.08
    }
    bias_filler {
      type: "constant"
      value: 0
    }
    axis: 2
  }
}
layer {
  name: "probs"
  type: "Softmax"
  bottom: "predict"
  top: "probs"
  softmax_param {
    axis: 2
  }
}
I0922 18:56:47.696882 27625 net.cpp:49] Initializing net from parameters: 
name: "CaffeNet"
state {
  phase: TEST
}
layer {
  name: "data"
  type: "Input"
  top: "data"
  input_param {
    shape {
      dim: 10
      dim: 3
      dim: 227
      dim: 227
    }
  }
}
layer {
  name: "conv1"
  type: "Convolution"
  bottom: "data"
  top: "conv1"
  convolution_param {
    num_output: 96
    kernel_size: 11
    stride: 4
  }
}
layer {
  name: "relu1"
  type: "ReLU"
  bottom: "conv1"
  top: "conv1"
}
layer {
  name: "pool1"
  type: "Pooling"
  bottom: "conv1"
  top: "pool1"
  pooling_param {
    pool: MAX
    kernel_size: 3
    stride: 2
  }
}
layer {
  name: "norm1"
  type: "LRN"
  bottom: "pool1"
  top: "norm1"
  lrn_param {
    local_size: 5
    alpha: 0.0001
    beta: 0.75
  }
}
layer {
  name: "conv2"
  type: "Convolution"
  bottom: "norm1"
  top: "conv2"
  convolution_param {
    num_output: 256
    pad: 2
    kernel_size: 5
    group: 2
  }
}
layer {
  name: "relu2"
  type: "ReLU"
  bottom: "conv2"
  top: "conv2"
}
layer {
  name: "pool2"
  type: "Pooling"
  bottom: "conv2"
  top: "pool2"
  pooling_param {
    pool: MAX
    kernel_size: 3
    stride: 2
  }
}
layer {
  name: "norm2"
  type: "LRN"
  bottom: "pool2"
  top: "norm2"
  lrn_param {
    local_size: 5
    alpha: 0.0001
    beta: 0.75
  }
}
layer {
  name: "conv3"
  type: "Convolution"
  bottom: "norm2"
  top: "conv3"
  convolution_param {
    num_output: 384
    pad: 1
    kernel_size: 3
  }
}
layer {
  name: "relu3"
  type: "ReLU"
  bottom: "conv3"
  top: "conv3"
}
layer {
  name: "conv4"
  type: "Convolution"
  bottom: "conv3"
  top: "conv4"
  convolution_param {
    num_output: 384
    pad: 1
    kernel_size: 3
    group: 2
  }
}
layer {
  name: "relu4"
  type: "ReLU"
  bottom: "conv4"
  top: "conv4"
}
layer {
  name: "conv5"
  type: "Convolution"
  bottom: "conv4"
  top: "conv5"
  convolution_param {
    num_output: 256
    pad: 1
    kernel_size: 3
    group: 2
  }
}
layer {
  name: "relu5"
  type: "ReLU"
  bottom: "conv5"
  top: "conv5"
}
layer {
  name: "pool5"
  type: "Pooling"
  bottom: "conv5"
  top: "pool5"
  pooling_param {
    pool: MAX
    kernel_size: 3
    stride: 2
  }
}
layer {
  name: "fc6"
  type: "InnerProduct"
  bottom: "pool5"
  top: "fc6"
  inner_product_param {
    num_output: 4096
  }
}
layer {
  name: "relu6"
  type: "ReLU"
  bottom: "fc6"
  top: "fc6"
}
layer {
  name: "drop6"
  type: "Dropout"
  bottom: "fc6"
  top: "fc6"
  dropout_param {
    dropout_ratio: 0.5
  }
}
layer {
  name: "fc7"
  type: "InnerProduct"
  bottom: "fc6"
  top: "fc7"
  inner_product_param {
    num_output: 4096
  }
}
layer {
  name: "relu7"
  type: "ReLU"
  bottom: "fc7"
  top: "fc7"
}
layer {
  name: "drop7"
  type: "Dropout"
  bottom: "fc7"
  top: "fc7"
  dropout_param {
    dropout_ratio: 0.5
  }
}
layer {
  name: "fc8"
  type: "InnerProduct"
  bottom: "fc7"
  top: "fc8"
  inner_product_param {
    num_output: 1000
  }
}
layer {
  name: "prob"
  type: "Softmax"
  bottom: "fc8"
  top: "prob"
}
I0922 18:56:47.696888 27647 layer_factory.hpp:77] Creating layer input
I0922 18:56:47.696888 27627 layer_factory.hpp:77] Creating layer input
I0922 18:56:47.697012 27625 layer_factory.hpp:77] Creating layer data
I0922 18:56:47.697006 27647 net.cpp:91] Creating Layer input
I0922 18:56:47.697029 27625 net.cpp:91] Creating Layer data
I0922 18:56:47.697007 27627 net.cpp:91] Creating Layer input
I0922 18:56:47.697043 27647 net.cpp:399] input -> frames_fc7
I0922 18:56:47.697042 27625 net.cpp:399] data -> data
I0922 18:56:47.697069 27627 net.cpp:399] input -> frames_fc7
I0922 18:56:47.697074 27647 net.cpp:399] input -> cont_sentence
I0922 18:56:47.697088 27647 net.cpp:399] input -> input_sentence
I0922 18:56:47.697089 27627 net.cpp:399] input -> cont_sentence
I0922 18:56:47.697111 27647 net.cpp:399] input -> stage_indicator
I0922 18:56:47.697118 27627 net.cpp:399] input -> input_sentence
I0922 18:56:47.697132 27627 net.cpp:399] input -> stage_indicator
I0922 18:56:47.697839 27625 net.cpp:141] Setting up data
I0922 18:56:47.697856 27625 net.cpp:148] Top shape: 10 3 227 227 (1545870)
I0922 18:56:47.697862 27625 net.cpp:156] Memory required for data: 6183480
I0922 18:56:47.697870 27625 layer_factory.hpp:77] Creating layer conv1
I0922 18:56:47.697916 27625 net.cpp:91] Creating Layer conv1
I0922 18:56:47.697923 27625 net.cpp:425] conv1 <- data
I0922 18:56:47.697932 27625 net.cpp:399] conv1 -> conv1
I0922 18:56:47.698403 27647 net.cpp:141] Setting up input
I0922 18:56:47.698431 27647 net.cpp:148] Top shape: 1 4096 (4096)
I0922 18:56:47.698444 27647 net.cpp:148] Top shape: 1 1 (1)
I0922 18:56:47.698458 27647 net.cpp:148] Top shape: 1 1 (1)
I0922 18:56:47.698472 27647 net.cpp:148] Top shape: 1 1 (1)
I0922 18:56:47.698480 27647 net.cpp:156] Memory required for data: 16396
I0922 18:56:47.698490 27647 layer_factory.hpp:77] Creating layer cont_sentence_input_1_split
I0922 18:56:47.698501 27627 net.cpp:141] Setting up input
I0922 18:56:47.698525 27627 net.cpp:148] Top shape: 1 4096 (4096)
I0922 18:56:47.698534 27627 net.cpp:148] Top shape: 1 1 (1)
I0922 18:56:47.698542 27627 net.cpp:148] Top shape: 1 1 (1)
I0922 18:56:47.698539 27647 net.cpp:91] Creating Layer cont_sentence_input_1_split
I0922 18:56:47.698549 27627 net.cpp:148] Top shape: 1 1 (1)
I0922 18:56:47.698556 27627 net.cpp:156] Memory required for data: 16396
I0922 18:56:47.698556 27647 net.cpp:425] cont_sentence_input_1_split <- cont_sentence
I0922 18:56:47.698565 27627 layer_factory.hpp:77] Creating layer cont_sentence_input_1_split
I0922 18:56:47.698576 27627 net.cpp:91] Creating Layer cont_sentence_input_1_split
I0922 18:56:47.698578 27647 net.cpp:399] cont_sentence_input_1_split -> cont_sentence_input_1_split_0
I0922 18:56:47.698583 27627 net.cpp:425] cont_sentence_input_1_split <- cont_sentence
I0922 18:56:47.698611 27627 net.cpp:399] cont_sentence_input_1_split -> cont_sentence_input_1_split_0
I0922 18:56:47.698611 27647 net.cpp:399] cont_sentence_input_1_split -> cont_sentence_input_1_split_1
I0922 18:56:47.698623 27627 net.cpp:399] cont_sentence_input_1_split -> cont_sentence_input_1_split_1
I0922 18:56:47.698804 27647 net.cpp:141] Setting up cont_sentence_input_1_split
I0922 18:56:47.698825 27647 net.cpp:148] Top shape: 1 1 (1)
I0922 18:56:47.698837 27627 net.cpp:141] Setting up cont_sentence_input_1_split
I0922 18:56:47.698849 27627 net.cpp:148] Top shape: 1 1 (1)
I0922 18:56:47.698855 27627 net.cpp:148] Top shape: 1 1 (1)
I0922 18:56:47.698860 27627 net.cpp:156] Memory required for data: 16404
I0922 18:56:47.698865 27627 layer_factory.hpp:77] Creating layer embed_encoder
I0922 18:56:47.698882 27627 net.cpp:91] Creating Layer embed_encoder
I0922 18:56:47.698889 27627 net.cpp:425] embed_encoder <- frames_fc7
I0922 18:56:47.698897 27627 net.cpp:399] embed_encoder -> embedded_in_frames
I0922 18:56:47.699309 27647 net.cpp:148] Top shape: 1 1 (1)
I0922 18:56:47.699327 27647 net.cpp:156] Memory required for data: 16404
I0922 18:56:47.699338 27647 layer_factory.hpp:77] Creating layer embed_encoder
I0922 18:56:47.699391 27647 net.cpp:91] Creating Layer embed_encoder
I0922 18:56:47.699409 27647 net.cpp:425] embed_encoder <- frames_fc7
I0922 18:56:47.699430 27647 net.cpp:399] embed_encoder -> embedded_in_frames
I0922 18:56:47.712388 27625 net.cpp:141] Setting up conv1
I0922 18:56:47.712435 27625 net.cpp:148] Top shape: 10 96 55 55 (2904000)
I0922 18:56:47.712441 27625 net.cpp:156] Memory required for data: 17799480
I0922 18:56:47.712471 27625 layer_factory.hpp:77] Creating layer relu1
I0922 18:56:47.712496 27625 net.cpp:91] Creating Layer relu1
I0922 18:56:47.712502 27625 net.cpp:425] relu1 <- conv1
I0922 18:56:47.712512 27625 net.cpp:386] relu1 -> conv1 (in-place)
I0922 18:56:47.712805 27625 net.cpp:141] Setting up relu1
I0922 18:56:47.712819 27625 net.cpp:148] Top shape: 10 96 55 55 (2904000)
I0922 18:56:47.712824 27625 net.cpp:156] Memory required for data: 29415480
I0922 18:56:47.712831 27625 layer_factory.hpp:77] Creating layer pool1
I0922 18:56:47.712846 27625 net.cpp:91] Creating Layer pool1
I0922 18:56:47.712851 27625 net.cpp:425] pool1 <- conv1
I0922 18:56:47.712862 27625 net.cpp:399] pool1 -> pool1
I0922 18:56:47.712949 27625 net.cpp:141] Setting up pool1
I0922 18:56:47.712963 27625 net.cpp:148] Top shape: 10 96 27 27 (699840)
I0922 18:56:47.712968 27625 net.cpp:156] Memory required for data: 32214840
I0922 18:56:47.712973 27625 layer_factory.hpp:77] Creating layer norm1
I0922 18:56:47.712993 27625 net.cpp:91] Creating Layer norm1
I0922 18:56:47.712999 27625 net.cpp:425] norm1 <- pool1
I0922 18:56:47.713011 27625 net.cpp:399] norm1 -> norm1
I0922 18:56:47.713490 27625 net.cpp:141] Setting up norm1
I0922 18:56:47.713505 27625 net.cpp:148] Top shape: 10 96 27 27 (699840)
I0922 18:56:47.713510 27625 net.cpp:156] Memory required for data: 35014200
I0922 18:56:47.713516 27625 layer_factory.hpp:77] Creating layer conv2
I0922 18:56:47.713538 27625 net.cpp:91] Creating Layer conv2
I0922 18:56:47.713544 27625 net.cpp:425] conv2 <- norm1
I0922 18:56:47.713552 27625 net.cpp:399] conv2 -> conv2
I0922 18:56:47.725471 27625 net.cpp:141] Setting up conv2
I0922 18:56:47.725530 27625 net.cpp:148] Top shape: 10 256 27 27 (1866240)
I0922 18:56:47.725543 27625 net.cpp:156] Memory required for data: 42479160
I0922 18:56:47.725580 27625 layer_factory.hpp:77] Creating layer relu2
I0922 18:56:47.725611 27625 net.cpp:91] Creating Layer relu2
I0922 18:56:47.725626 27625 net.cpp:425] relu2 <- conv2
I0922 18:56:47.725652 27625 net.cpp:386] relu2 -> conv2 (in-place)
I0922 18:56:47.726285 27625 net.cpp:141] Setting up relu2
I0922 18:56:47.726306 27625 net.cpp:148] Top shape: 10 256 27 27 (1866240)
I0922 18:56:47.726313 27625 net.cpp:156] Memory required for data: 49944120
I0922 18:56:47.726320 27625 layer_factory.hpp:77] Creating layer pool2
I0922 18:56:47.726333 27625 net.cpp:91] Creating Layer pool2
I0922 18:56:47.726338 27625 net.cpp:425] pool2 <- conv2
I0922 18:56:47.726352 27625 net.cpp:399] pool2 -> pool2
I0922 18:56:47.726426 27625 net.cpp:141] Setting up pool2
I0922 18:56:47.726438 27625 net.cpp:148] Top shape: 10 256 13 13 (432640)
I0922 18:56:47.726443 27625 net.cpp:156] Memory required for data: 51674680
I0922 18:56:47.726447 27625 layer_factory.hpp:77] Creating layer norm2
I0922 18:56:47.726467 27625 net.cpp:91] Creating Layer norm2
I0922 18:56:47.726474 27625 net.cpp:425] norm2 <- pool2
I0922 18:56:47.726483 27625 net.cpp:399] norm2 -> norm2
I0922 18:56:47.727388 27625 net.cpp:141] Setting up norm2
I0922 18:56:47.727406 27625 net.cpp:148] Top shape: 10 256 13 13 (432640)
I0922 18:56:47.727411 27625 net.cpp:156] Memory required for data: 53405240
I0922 18:56:47.727416 27625 layer_factory.hpp:77] Creating layer conv3
I0922 18:56:47.727439 27625 net.cpp:91] Creating Layer conv3
I0922 18:56:47.727445 27625 net.cpp:425] conv3 <- norm2
I0922 18:56:47.727454 27625 net.cpp:399] conv3 -> conv3
I0922 18:56:47.729935 27627 net.cpp:141] Setting up embed_encoder
I0922 18:56:47.729969 27627 net.cpp:148] Top shape: 1 500 (500)
I0922 18:56:47.729974 27627 net.cpp:156] Memory required for data: 18404
I0922 18:56:47.729993 27627 layer_factory.hpp:77] Creating layer reshape_frames
I0922 18:56:47.730034 27627 net.cpp:91] Creating Layer reshape_frames
I0922 18:56:47.730044 27627 net.cpp:425] reshape_frames <- embedded_in_frames
I0922 18:56:47.730054 27627 net.cpp:399] reshape_frames -> embedded_input_frames
I0922 18:56:47.730108 27627 net.cpp:141] Setting up reshape_frames
I0922 18:56:47.730119 27627 net.cpp:148] Top shape: 1 1 500 (500)
I0922 18:56:47.730124 27627 net.cpp:156] Memory required for data: 20404
I0922 18:56:47.730129 27627 layer_factory.hpp:77] Creating layer reshape_stage_indicator
I0922 18:56:47.730140 27627 net.cpp:91] Creating Layer reshape_stage_indicator
I0922 18:56:47.730146 27627 net.cpp:425] reshape_stage_indicator <- stage_indicator
I0922 18:56:47.730155 27627 net.cpp:399] reshape_stage_indicator -> reshaped_stage_indicator
I0922 18:56:47.730197 27627 net.cpp:141] Setting up reshape_stage_indicator
I0922 18:56:47.730207 27627 net.cpp:148] Top shape: 1 1 1 (1)
I0922 18:56:47.730212 27627 net.cpp:156] Memory required for data: 20408
I0922 18:56:47.730217 27627 layer_factory.hpp:77] Creating layer embedding
I0922 18:56:47.730237 27627 net.cpp:91] Creating Layer embedding
I0922 18:56:47.730243 27627 net.cpp:425] embedding <- input_sentence
I0922 18:56:47.730252 27627 net.cpp:399] embedding -> embedded_input_sentence
I0922 18:56:47.777160 27647 net.cpp:141] Setting up embed_encoder
I0922 18:56:47.777207 27647 net.cpp:148] Top shape: 1 500 (500)
I0922 18:56:47.777215 27647 net.cpp:156] Memory required for data: 18404
I0922 18:56:47.777246 27647 layer_factory.hpp:77] Creating layer reshape_frames
I0922 18:56:47.777279 27647 net.cpp:91] Creating Layer reshape_frames
I0922 18:56:47.777290 27647 net.cpp:425] reshape_frames <- embedded_in_frames
I0922 18:56:47.777307 27647 net.cpp:399] reshape_frames -> embedded_input_frames
I0922 18:56:47.777830 27647 net.cpp:141] Setting up reshape_frames
I0922 18:56:47.777854 27647 net.cpp:148] Top shape: 1 1 500 (500)
I0922 18:56:47.777863 27647 net.cpp:156] Memory required for data: 20404
I0922 18:56:47.777873 27647 layer_factory.hpp:77] Creating layer reshape_stage_indicator
I0922 18:56:47.777895 27647 net.cpp:91] Creating Layer reshape_stage_indicator
I0922 18:56:47.777909 27647 net.cpp:425] reshape_stage_indicator <- stage_indicator
I0922 18:56:47.777925 27647 net.cpp:399] reshape_stage_indicator -> reshaped_stage_indicator
I0922 18:56:47.778012 27647 net.cpp:141] Setting up reshape_stage_indicator
I0922 18:56:47.778034 27647 net.cpp:148] Top shape: 1 1 1 (1)
I0922 18:56:47.778044 27647 net.cpp:156] Memory required for data: 20408
I0922 18:56:47.778054 27647 layer_factory.hpp:77] Creating layer embedding
I0922 18:56:47.778076 27647 net.cpp:91] Creating Layer embedding
I0922 18:56:47.778089 27647 net.cpp:425] embedding <- input_sentence
I0922 18:56:47.778105 27647 net.cpp:399] embedding -> embedded_input_sentence
I0922 18:56:47.830670 27625 net.cpp:141] Setting up conv3
I0922 18:56:47.830721 27625 net.cpp:148] Top shape: 10 384 13 13 (648960)
I0922 18:56:47.830729 27625 net.cpp:156] Memory required for data: 56001080
I0922 18:56:47.830752 27625 layer_factory.hpp:77] Creating layer relu3
I0922 18:56:47.830791 27625 net.cpp:91] Creating Layer relu3
I0922 18:56:47.830801 27625 net.cpp:425] relu3 <- conv3
I0922 18:56:47.830811 27625 net.cpp:386] relu3 -> conv3 (in-place)
I0922 18:56:47.831537 27625 net.cpp:141] Setting up relu3
I0922 18:56:47.831552 27625 net.cpp:148] Top shape: 10 384 13 13 (648960)
I0922 18:56:47.831557 27625 net.cpp:156] Memory required for data: 58596920
I0922 18:56:47.831563 27625 layer_factory.hpp:77] Creating layer conv4
I0922 18:56:47.831584 27625 net.cpp:91] Creating Layer conv4
I0922 18:56:47.831590 27625 net.cpp:425] conv4 <- conv3
I0922 18:56:47.831603 27625 net.cpp:399] conv4 -> conv4
I0922 18:56:47.837133 27625 net.cpp:141] Setting up conv4
I0922 18:56:47.837154 27625 net.cpp:148] Top shape: 10 384 13 13 (648960)
I0922 18:56:47.837160 27625 net.cpp:156] Memory required for data: 61192760
I0922 18:56:47.837172 27625 layer_factory.hpp:77] Creating layer relu4
I0922 18:56:47.837182 27625 net.cpp:91] Creating Layer relu4
I0922 18:56:47.837188 27625 net.cpp:425] relu4 <- conv4
I0922 18:56:47.837749 27625 net.cpp:386] relu4 -> conv4 (in-place)
I0922 18:56:47.838032 27625 net.cpp:141] Setting up relu4
I0922 18:56:47.838047 27625 net.cpp:148] Top shape: 10 384 13 13 (648960)
I0922 18:56:47.838053 27625 net.cpp:156] Memory required for data: 63788600
I0922 18:56:47.838059 27625 layer_factory.hpp:77] Creating layer conv5
I0922 18:56:47.838075 27625 net.cpp:91] Creating Layer conv5
I0922 18:56:47.838081 27625 net.cpp:425] conv5 <- conv4
I0922 18:56:47.838093 27625 net.cpp:399] conv5 -> conv5
I0922 18:56:47.844422 27625 net.cpp:141] Setting up conv5
I0922 18:56:47.844442 27625 net.cpp:148] Top shape: 10 256 13 13 (432640)
I0922 18:56:47.844449 27625 net.cpp:156] Memory required for data: 65519160
I0922 18:56:47.844467 27625 layer_factory.hpp:77] Creating layer relu5
I0922 18:56:47.844478 27625 net.cpp:91] Creating Layer relu5
I0922 18:56:47.844485 27625 net.cpp:425] relu5 <- conv5
I0922 18:56:47.844494 27625 net.cpp:386] relu5 -> conv5 (in-place)
I0922 18:56:47.844764 27625 net.cpp:141] Setting up relu5
I0922 18:56:47.844777 27625 net.cpp:148] Top shape: 10 256 13 13 (432640)
I0922 18:56:47.844784 27625 net.cpp:156] Memory required for data: 67249720
I0922 18:56:47.844789 27625 layer_factory.hpp:77] Creating layer pool5
I0922 18:56:47.844801 27625 net.cpp:91] Creating Layer pool5
I0922 18:56:47.844807 27625 net.cpp:425] pool5 <- conv5
I0922 18:56:47.844820 27625 net.cpp:399] pool5 -> pool5
I0922 18:56:47.844887 27625 net.cpp:141] Setting up pool5
I0922 18:56:47.844898 27625 net.cpp:148] Top shape: 10 256 6 6 (92160)
I0922 18:56:47.844902 27625 net.cpp:156] Memory required for data: 67618360
I0922 18:56:47.844908 27625 layer_factory.hpp:77] Creating layer fc6
I0922 18:56:47.844926 27625 net.cpp:91] Creating Layer fc6
I0922 18:56:47.844933 27625 net.cpp:425] fc6 <- pool5
I0922 18:56:47.844943 27625 net.cpp:399] fc6 -> fc6
I0922 18:56:47.958622 27625 net.cpp:141] Setting up fc6
I0922 18:56:47.958680 27625 net.cpp:148] Top shape: 10 4096 (40960)
I0922 18:56:47.958688 27625 net.cpp:156] Memory required for data: 67782200
I0922 18:56:47.958703 27625 layer_factory.hpp:77] Creating layer relu6
I0922 18:56:47.959234 27625 net.cpp:91] Creating Layer relu6
I0922 18:56:47.959255 27625 net.cpp:425] relu6 <- fc6
I0922 18:56:47.959267 27625 net.cpp:386] relu6 -> fc6 (in-place)
I0922 18:56:47.960414 27625 net.cpp:141] Setting up relu6
I0922 18:56:47.960438 27625 net.cpp:148] Top shape: 10 4096 (40960)
I0922 18:56:47.960443 27625 net.cpp:156] Memory required for data: 67946040
I0922 18:56:47.960449 27625 layer_factory.hpp:77] Creating layer drop6
I0922 18:56:47.960466 27625 net.cpp:91] Creating Layer drop6
I0922 18:56:47.960472 27625 net.cpp:425] drop6 <- fc6
I0922 18:56:47.960480 27625 net.cpp:386] drop6 -> fc6 (in-place)
I0922 18:56:47.960547 27625 net.cpp:141] Setting up drop6
I0922 18:56:47.960558 27625 net.cpp:148] Top shape: 10 4096 (40960)
I0922 18:56:47.960563 27625 net.cpp:156] Memory required for data: 68109880
I0922 18:56:47.960568 27625 layer_factory.hpp:77] Creating layer fc7
I0922 18:56:47.960580 27625 net.cpp:91] Creating Layer fc7
I0922 18:56:47.960585 27625 net.cpp:425] fc7 <- fc6
I0922 18:56:47.960599 27625 net.cpp:399] fc7 -> fc7
I0922 18:56:47.993285 27627 net.cpp:141] Setting up embedding
I0922 18:56:47.993345 27627 net.cpp:148] Top shape: 1 1 500 (500)
I0922 18:56:47.993355 27627 net.cpp:156] Memory required for data: 22408
I0922 18:56:47.993386 27627 layer_factory.hpp:77] Creating layer lstm1
I0922 18:56:47.993422 27627 net.cpp:91] Creating Layer lstm1
I0922 18:56:47.993437 27627 net.cpp:425] lstm1 <- embedded_input_frames
I0922 18:56:47.993450 27627 net.cpp:425] lstm1 <- cont_sentence_input_1_split_0
I0922 18:56:47.993472 27627 net.cpp:399] lstm1 -> lstm1
I0922 18:56:47.993505 27627 recurrent_layer.cpp:20] Initializing recurrent layer: assuming input batch contains 1 timesteps of 1 independent streams.
I0922 18:56:47.994104 27627 net.cpp:49] Initializing net from parameters: 
layer {
  name: "lstm1_"
  type: "Input"
  top: "x"
  top: "cont"
  input_param {
    shape {
      dim: 1
      dim: 1
      dim: 500
    }
    shape {
      dim: 1
      dim: 1
    }
  }
}
layer {
  name: "lstm1_"
  type: "Input"
  top: "c_0"
  top: "h_0"
  input_param {
    shape {
      dim: 1
      dim: 1
      dim: 1000
    }
    shape {
      dim: 1
      dim: 1
      dim: 1000
    }
  }
}
layer {
  name: "lstm1_cont_slice"
  type: "Slice"
  bottom: "cont"
  top: "cont_1"
  slice_param {
    axis: 0
  }
}
layer {
  name: "lstm1_x_transform"
  type: "InnerProduct"
  bottom: "x"
  top: "W_xc_x"
  param {
    name: "W_xc"
  }
  param {
    name: "b_c"
  }
  propagate_down: true
  inner_product_param {
    num_output: 4000
    bias_term: true
    weight_filler {
      type: "uniform"
      min: -0.08
      max: 0.08
    }
    bias_filler {
      type: "constant"
      value: 0
    }
    axis: 2
  }
}
layer {
  name: "lstm1_W_xc_x_slice"
  type: "Slice"
  bottom: "W_xc_x"
  top: "W_xc_x_1"
  slice_param {
    axis: 0
  }
}
layer {
  name: "lstm1_h_conted_0"
  type: "Scale"
  bottom: "h_0"
  bottom: "cont_1"
  top: "h_conted_0"
  scale_param {
    axis: 0
  }
}
layer {
  name: "lstm1_transform_1"
  type: "InnerProduct"
  bottom: "h_conted_0"
  top: "W_hc_h_0"
  param {
    name: "W_hc"
  }
  inner_product_param {
    num_output: 4000
    bias_term: false
    weight_filler {
      type: "uniform"
      min: -0.08
      max: 0.08
    }
    axis: 2
  }
}
layer {
  name: "lstm1_gate_input_1"
  type: "Eltwise"
  bottom: "W_hc_h_0"
  bottom: "W_xc_x_1"
  top: "gate_input_1"
  eltwise_param {
    operation: SUM
  }
}
layer {
  name: "lstm1_unit_1"
  type: "LSTMUnit"
  bottom: "c_0"
  bottom: "gate_input_1"
  bottom: "cont_1"
  top: "c_1"
  top: "h_1"
}
layer {
  name: "lstm1_"
  type: "Split"
  bottom: "c_1"
  top: "c_T"
}
layer {
  name: "lstm1_h_concat"
  type: "Concat"
  bottom: "h_1"
  top: "h"
  concat_param {
    axis: 0
  }
}
layer {
  name: "h_pseudoloss"
  type: "Reduction"
  bottom: "h"
  top: "h_pseudoloss"
  loss_weight: 1
}
I0922 18:56:47.994285 27627 layer_factory.hpp:77] Creating layer lstm1_
I0922 18:56:47.994313 27627 net.cpp:91] Creating Layer lstm1_
I0922 18:56:47.994328 27627 net.cpp:399] lstm1_ -> x
I0922 18:56:47.994352 27627 net.cpp:399] lstm1_ -> cont
I0922 18:56:47.994494 27627 net.cpp:141] Setting up lstm1_
I0922 18:56:47.994516 27627 net.cpp:148] Top shape: 1 1 500 (500)
I0922 18:56:47.994531 27627 net.cpp:148] Top shape: 1 1 (1)
I0922 18:56:47.994541 27627 net.cpp:156] Memory required for data: 2004
I0922 18:56:47.994552 27627 layer_factory.hpp:77] Creating layer lstm1_
I0922 18:56:47.994578 27627 net.cpp:91] Creating Layer lstm1_
I0922 18:56:47.994598 27627 net.cpp:399] lstm1_ -> c_0
I0922 18:56:47.994622 27627 net.cpp:399] lstm1_ -> h_0
I0922 18:56:47.995298 27627 net.cpp:141] Setting up lstm1_
I0922 18:56:47.995328 27627 net.cpp:148] Top shape: 1 1 1000 (1000)
I0922 18:56:47.995344 27627 net.cpp:148] Top shape: 1 1 1000 (1000)
I0922 18:56:47.995354 27627 net.cpp:156] Memory required for data: 10004
I0922 18:56:47.995364 27627 layer_factory.hpp:77] Creating layer lstm1_cont_slice
I0922 18:56:47.995383 27627 net.cpp:91] Creating Layer lstm1_cont_slice
I0922 18:56:47.995396 27627 net.cpp:425] lstm1_cont_slice <- cont
I0922 18:56:47.995412 27627 net.cpp:399] lstm1_cont_slice -> cont_1
I0922 18:56:47.995496 27627 net.cpp:141] Setting up lstm1_cont_slice
I0922 18:56:47.995515 27627 net.cpp:148] Top shape: 1 1 (1)
I0922 18:56:47.995525 27627 net.cpp:156] Memory required for data: 10008
I0922 18:56:47.995535 27627 layer_factory.hpp:77] Creating layer cont_1_lstm1_cont_slice_0_split
I0922 18:56:47.995551 27627 net.cpp:91] Creating Layer cont_1_lstm1_cont_slice_0_split
I0922 18:56:47.995563 27627 net.cpp:425] cont_1_lstm1_cont_slice_0_split <- cont_1
I0922 18:56:47.995584 27627 net.cpp:399] cont_1_lstm1_cont_slice_0_split -> cont_1_lstm1_cont_slice_0_split_0
I0922 18:56:47.995605 27627 net.cpp:399] cont_1_lstm1_cont_slice_0_split -> cont_1_lstm1_cont_slice_0_split_1
I0922 18:56:47.995721 27627 net.cpp:141] Setting up cont_1_lstm1_cont_slice_0_split
I0922 18:56:47.995741 27627 net.cpp:148] Top shape: 1 1 (1)
I0922 18:56:47.995754 27627 net.cpp:148] Top shape: 1 1 (1)
I0922 18:56:47.995764 27627 net.cpp:156] Memory required for data: 10016
I0922 18:56:47.995774 27627 layer_factory.hpp:77] Creating layer lstm1_x_transform
I0922 18:56:47.995795 27627 net.cpp:91] Creating Layer lstm1_x_transform
I0922 18:56:47.995807 27627 net.cpp:425] lstm1_x_transform <- x
I0922 18:56:47.995832 27627 net.cpp:399] lstm1_x_transform -> W_xc_x
I0922 18:56:48.011844 27625 net.cpp:141] Setting up fc7
I0922 18:56:48.011900 27625 net.cpp:148] Top shape: 10 4096 (40960)
I0922 18:56:48.011906 27625 net.cpp:156] Memory required for data: 68273720
I0922 18:56:48.011922 27625 layer_factory.hpp:77] Creating layer relu7
I0922 18:56:48.011941 27625 net.cpp:91] Creating Layer relu7
I0922 18:56:48.011950 27625 net.cpp:425] relu7 <- fc7
I0922 18:56:48.011961 27625 net.cpp:386] relu7 -> fc7 (in-place)
I0922 18:56:48.012826 27625 net.cpp:141] Setting up relu7
I0922 18:56:48.012845 27625 net.cpp:148] Top shape: 10 4096 (40960)
I0922 18:56:48.012851 27625 net.cpp:156] Memory required for data: 68437560
I0922 18:56:48.012857 27625 layer_factory.hpp:77] Creating layer drop7
I0922 18:56:48.012871 27625 net.cpp:91] Creating Layer drop7
I0922 18:56:48.012876 27625 net.cpp:425] drop7 <- fc7
I0922 18:56:48.012887 27625 net.cpp:386] drop7 -> fc7 (in-place)
I0922 18:56:48.012946 27625 net.cpp:141] Setting up drop7
I0922 18:56:48.012956 27625 net.cpp:148] Top shape: 10 4096 (40960)
I0922 18:56:48.012961 27625 net.cpp:156] Memory required for data: 68601400
I0922 18:56:48.012967 27625 layer_factory.hpp:77] Creating layer fc8
I0922 18:56:48.012979 27625 net.cpp:91] Creating Layer fc8
I0922 18:56:48.012984 27625 net.cpp:425] fc8 <- fc7
I0922 18:56:48.012991 27625 net.cpp:399] fc8 -> fc8
I0922 18:56:48.022167 27627 net.cpp:141] Setting up lstm1_x_transform
I0922 18:56:48.022230 27627 net.cpp:148] Top shape: 1 1 4000 (4000)
I0922 18:56:48.022238 27627 net.cpp:156] Memory required for data: 26016
I0922 18:56:48.022263 27627 layer_factory.hpp:77] Creating layer lstm1_W_xc_x_slice
I0922 18:56:48.022280 27627 net.cpp:91] Creating Layer lstm1_W_xc_x_slice
I0922 18:56:48.022289 27627 net.cpp:425] lstm1_W_xc_x_slice <- W_xc_x
I0922 18:56:48.022300 27627 net.cpp:399] lstm1_W_xc_x_slice -> W_xc_x_1
I0922 18:56:48.022358 27627 net.cpp:141] Setting up lstm1_W_xc_x_slice
I0922 18:56:48.022370 27627 net.cpp:148] Top shape: 1 1 4000 (4000)
I0922 18:56:48.022375 27627 net.cpp:156] Memory required for data: 42016
I0922 18:56:48.022380 27627 layer_factory.hpp:77] Creating layer lstm1_h_conted_0
I0922 18:56:48.022393 27627 net.cpp:91] Creating Layer lstm1_h_conted_0
I0922 18:56:48.022399 27627 net.cpp:425] lstm1_h_conted_0 <- h_0
I0922 18:56:48.022406 27627 net.cpp:425] lstm1_h_conted_0 <- cont_1_lstm1_cont_slice_0_split_0
I0922 18:56:48.022415 27627 net.cpp:399] lstm1_h_conted_0 -> h_conted_0
I0922 18:56:48.022995 27627 net.cpp:141] Setting up lstm1_h_conted_0
I0922 18:56:48.023010 27627 net.cpp:148] Top shape: 1 1 1000 (1000)
I0922 18:56:48.023015 27627 net.cpp:156] Memory required for data: 46016
I0922 18:56:48.023035 27627 layer_factory.hpp:77] Creating layer lstm1_transform_1
I0922 18:56:48.023051 27627 net.cpp:91] Creating Layer lstm1_transform_1
I0922 18:56:48.023057 27627 net.cpp:425] lstm1_transform_1 <- h_conted_0
I0922 18:56:48.023067 27627 net.cpp:399] lstm1_transform_1 -> W_hc_h_0
I0922 18:56:48.032202 27625 net.cpp:141] Setting up fc8
I0922 18:56:48.032263 27625 net.cpp:148] Top shape: 10 1000 (10000)
I0922 18:56:48.032270 27625 net.cpp:156] Memory required for data: 68641400
I0922 18:56:48.032287 27625 layer_factory.hpp:77] Creating layer prob
I0922 18:56:48.032310 27625 net.cpp:91] Creating Layer prob
I0922 18:56:48.032320 27625 net.cpp:425] prob <- fc8
I0922 18:56:48.032330 27625 net.cpp:399] prob -> prob
I0922 18:56:48.033002 27647 net.cpp:141] Setting up embedding
I0922 18:56:48.033044 27647 net.cpp:148] Top shape: 1 1 500 (500)
I0922 18:56:48.033051 27647 net.cpp:156] Memory required for data: 22408
I0922 18:56:48.033069 27647 layer_factory.hpp:77] Creating layer lstm1
I0922 18:56:48.033089 27647 net.cpp:91] Creating Layer lstm1
I0922 18:56:48.033097 27647 net.cpp:425] lstm1 <- embedded_input_frames
I0922 18:56:48.033107 27647 net.cpp:425] lstm1 <- cont_sentence_input_1_split_0
I0922 18:56:48.033118 27647 net.cpp:399] lstm1 -> lstm1
I0922 18:56:48.033138 27647 recurrent_layer.cpp:20] Initializing recurrent layer: assuming input batch contains 1 timesteps of 1 independent streams.
I0922 18:56:48.033409 27625 net.cpp:141] Setting up prob
I0922 18:56:48.033435 27625 net.cpp:148] Top shape: 10 1000 (10000)
I0922 18:56:48.033442 27625 net.cpp:156] Memory required for data: 68681400
I0922 18:56:48.033449 27625 net.cpp:219] prob does not need backward computation.
I0922 18:56:48.033455 27625 net.cpp:219] fc8 does not need backward computation.
I0922 18:56:48.033462 27625 net.cpp:219] drop7 does not need backward computation.
I0922 18:56:48.033466 27625 net.cpp:219] relu7 does not need backward computation.
I0922 18:56:48.033471 27625 net.cpp:219] fc7 does not need backward computation.
I0922 18:56:48.033478 27625 net.cpp:219] drop6 does not need backward computation.
I0922 18:56:48.033483 27625 net.cpp:219] relu6 does not need backward computation.
I0922 18:56:48.033488 27625 net.cpp:219] fc6 does not need backward computation.
I0922 18:56:48.033488 27647 net.cpp:49] Initializing net from parameters: 
layer {
  name: "lstm1_"
  type: "Input"
  top: "x"
  top: "cont"
  input_param {
    shape {
      dim: 1
      dim: 1
      dim: 500
    }
    shape {
      dim: 1
      dim: 1
    }
  }
}
layer {
  name: "lstm1_"
  type: "Input"
  top: "c_0"
  top: "h_0"
  input_param {
    shape {
      dim: 1
      dim: 1
      dim: 1000
    }
    shape {
      dim: 1
      dim: 1
      dim: 1000
    }
  }
}
layer {
  name: "lstm1_cont_slice"
  type: "Slice"
  bottom: "cont"
  top: "cont_1"
  slice_param {
    axis: 0
  }
}
layer {
  name: "lstm1_x_transform"
  type: "InnerProduct"
  bottom: "x"
  top: "W_xc_x"
  param {
    name: "W_xc"
  }
  param {
    name: "b_c"
  }
  propagate_down: true
  inner_product_param {
    num_output: 4000
    bias_term: true
    weight_filler {
      type: "uniform"
      min: -0.08
      max: 0.08
    }
    bias_filler {
      type: "constant"
      value: 0
    }
    axis: 2
  }
}
layer {
  name: "lstm1_W_xc_x_slice"
  type: "Slice"
  bottom: "W_xc_x"
  top: "W_xc_x_1"
  slice_param {
    axis: 0
  }
}
layer {
  name: "lstm1_h_conted_0"
  type: "Scale"
  bottom: "h_0"
  bottom: "cont_1"
  top: "h_conted_0"
  scale_param {
    axis: 0
  }
}
layer {
  name: "lstm1_transform_1"
  type: "InnerProduct"
  bottom: "h_conted_0"
  top: "W_hc_h_0"
  param {
    name: "W_hc"
  }
  inner_product_param {
    num_output: 4000
    bias_term: false
    weight_filler {
      type: "uniform"
      min: -0.08
      max: 0.08
    }
    axis: 2
  }
}
layer {
  name: "lstm1_gate_input_1"
  type: "Eltwise"
  bottom: "W_hc_h_0"
  bottom: "W_xc_x_1"
  top: "gate_input_1"
  eltwise_param {
    operation: SUM
  }
}
layer {
  name: "lstm1_unit_1"
  type: "LSTMUnit"
  bottom: "c_0"
  bottom: "gate_input_1"
  bottom: "cont_1"
  top: "c_1"
  top: "h_1"
}
layer {
  name: "lstm1_"
  type: "Split"
  bottom: "c_1"
  top: "c_T"
}
layer {
  name: "lstm1_h_concat"
  type: "Concat"
  bottom: "h_1"
  top: "h"
  concat_param {
    axis: 0
  }
}
layer {
  name: "h_pseudoloss"
  type: "Reduction"
  bottom: "h"
  top: "h_pseudoloss"
  loss_weight: 1
}
I0922 18:56:48.033494 27625 net.cpp:219] pool5 does not need backward computation.
I0922 18:56:48.033512 27625 net.cpp:219] relu5 does not need backward computation.
I0922 18:56:48.033519 27625 net.cpp:219] conv5 does not need backward computation.
I0922 18:56:48.033524 27625 net.cpp:219] relu4 does not need backward computation.
I0922 18:56:48.033529 27625 net.cpp:219] conv4 does not need backward computation.
…
I0922 18:56:48.033586 27625 net.cpp:219] conv1 does not need backward computation.
I0922 18:56:48.033591 27625 net.cpp:219] data does not need backward computation.
I0922 18:56:48.033596 27625 net.cpp:261] This network produces output prob
I0922 18:56:48.033603 27647 layer_factory.hpp:77] Creating layer lstm1_
I0922 18:56:48.033618 27625 net.cpp:274] Network initialization done.
I0922 18:56:48.033623 27647 net.cpp:91] Creating Layer lstm1_
I0922 18:56:48.033638 27647 net.cpp:399] lstm1_ -> x
I0922 18:56:48.033658 27647 net.cpp:399] lstm1_ -> cont
I0922 18:56:48.033763 27647 net.cpp:141] Setting up lstm1_
I0922 18:56:48.033776 27647 net.cpp:148] Top shape: 1 1 500 (500)
I0922 18:56:48.033783 27647 net.cpp:148] Top shape: 1 1 (1)
I0922 18:56:48.033788 27647 net.cpp:156] Memory required for data: 2004
I0922 18:56:48.033793 27647 layer_factory.hpp:77] Creating layer lstm1_
I0922 18:56:48.033803 27647 net.cpp:91] Creating Layer lstm1_
I0922 18:56:48.033814 27647 net.cpp:399] lstm1_ -> c_0
I0922 18:56:48.033825 27647 net.cpp:399] lstm1_ -> h_0
I0922 18:56:48.034262 27647 net.cpp:141] Setting up lstm1_
I0922 18:56:48.034276 27647 net.cpp:148] Top shape: 1 1 1000 (1000)
I0922 18:56:48.034281 27647 net.cpp:148] Top shape: 1 1 1000 (1000)
I0922 18:56:48.034286 27647 net.cpp:156] Memory required for data: 10004
I0922 18:56:48.034291 27647 layer_factory.hpp:77] Creating layer lstm1_cont_slice
I0922 18:56:48.034306 27647 net.cpp:91] Creating Layer lstm1_cont_slice
I0922 18:56:48.034312 27647 net.cpp:425] lstm1_cont_slice <- cont
I0922 18:56:48.034319 27647 net.cpp:399] lstm1_cont_slice -> cont_1
I0922 18:56:48.034365 27647 net.cpp:141] Setting up lstm1_cont_slice
I0922 18:56:48.034376 27647 net.cpp:148] Top shape: 1 1 (1)
I0922 18:56:48.034380 27647 net.cpp:156] Memory required for data: 10008
I0922 18:56:48.034385 27647 layer_factory.hpp:77] Creating layer cont_1_lstm1_cont_slice_0_split
I0922 18:56:48.034395 27647 net.cpp:91] Creating Layer cont_1_lstm1_cont_slice_0_split
I0922 18:56:48.034400 27647 net.cpp:425] cont_1_lstm1_cont_slice_0_split <- cont_1
I0922 18:56:48.034412 27647 net.cpp:399] cont_1_lstm1_cont_slice_0_split -> cont_1_lstm1_cont_slice_0_split_0
I0922 18:56:48.034421 27647 net.cpp:399] cont_1_lstm1_cont_slice_0_split -> cont_1_lstm1_cont_slice_0_split_1
I0922 18:56:48.034477 27647 net.cpp:141] Setting up cont_1_lstm1_cont_slice_0_split
I0922 18:56:48.034487 27647 net.cpp:148] Top shape: 1 1 (1)
I0922 18:56:48.034494 27647 net.cpp:148] Top shape: 1 1 (1)
I0922 18:56:48.034498 27647 net.cpp:156] Memory required for data: 10016
I0922 18:56:48.034503 27647 layer_factory.hpp:77] Creating layer lstm1_x_transform
I0922 18:56:48.034518 27647 net.cpp:91] Creating Layer lstm1_x_transform
I0922 18:56:48.034524 27647 net.cpp:425] lstm1_x_transform <- x
I0922 18:56:48.034533 27647 net.cpp:399] lstm1_x_transform -> W_xc_x
I0922 18:56:48.060338 27647 net.cpp:141] Setting up lstm1_x_transform
I0922 18:56:48.060389 27647 net.cpp:148] Top shape: 1 1 4000 (4000)
I0922 18:56:48.060395 27647 net.cpp:156] Memory required for data: 26016
I0922 18:56:48.060420 27647 layer_factory.hpp:77] Creating layer lstm1_W_xc_x_slice
I0922 18:56:48.060442 27647 net.cpp:91] Creating Layer lstm1_W_xc_x_slice
I0922 18:56:48.060451 27647 net.cpp:425] lstm1_W_xc_x_slice <- W_xc_x
I0922 18:56:48.060462 27647 net.cpp:399] lstm1_W_xc_x_slice -> W_xc_x_1
I0922 18:56:48.060516 27647 net.cpp:141] Setting up lstm1_W_xc_x_slice
I0922 18:56:48.060528 27647 net.cpp:148] Top shape: 1 1 4000 (4000)
I0922 18:56:48.060533 27647 net.cpp:156] Memory required for data: 42016
I0922 18:56:48.060539 27647 layer_factory.hpp:77] Creating layer lstm1_h_conted_0
I0922 18:56:48.060554 27647 net.cpp:91] Creating Layer lstm1_h_conted_0
I0922 18:56:48.060559 27647 net.cpp:425] lstm1_h_conted_0 <- h_0
I0922 18:56:48.060566 27647 net.cpp:425] lstm1_h_conted_0 <- cont_1_lstm1_cont_slice_0_split_0
I0922 18:56:48.060575 27647 net.cpp:399] lstm1_h_conted_0 -> h_conted_0
I0922 18:56:48.060688 27647 net.cpp:141] Setting up lstm1_h_conted_0
I0922 18:56:48.060698 27647 net.cpp:148] Top shape: 1 1 1000 (1000)
I0922 18:56:48.060703 27647 net.cpp:156] Memory required for data: 46016
I0922 18:56:48.060708 27647 layer_factory.hpp:77] Creating layer lstm1_transform_1
I0922 18:56:48.060726 27647 net.cpp:91] Creating Layer lstm1_transform_1
I0922 18:56:48.060732 27647 net.cpp:425] lstm1_transform_1 <- h_conted_0
I0922 18:56:48.060741 27647 net.cpp:399] lstm1_transform_1 -> W_hc_h_0
I0922 18:56:48.069160 27627 net.cpp:141] Setting up lstm1_transform_1
I0922 18:56:48.069221 27627 net.cpp:148] Top shape: 1 1 4000 (4000)
I0922 18:56:48.069229 27627 net.cpp:156] Memory required for data: 62016
I0922 18:56:48.069252 27627 layer_factory.hpp:77] Creating layer lstm1_gate_input_1
I0922 18:56:48.069278 27627 net.cpp:91] Creating Layer lstm1_gate_input_1
I0922 18:56:48.069290 27627 net.cpp:425] lstm1_gate_input_1 <- W_hc_h_0
I0922 18:56:48.069299 27627 net.cpp:425] lstm1_gate_input_1 <- W_xc_x_1
I0922 18:56:48.069308 27627 net.cpp:399] lstm1_gate_input_1 -> gate_input_1
I0922 18:56:48.069380 27627 net.cpp:141] Setting up lstm1_gate_input_1
I0922 18:56:48.069391 27627 net.cpp:148] Top shape: 1 1 4000 (4000)
I0922 18:56:48.069396 27627 net.cpp:156] Memory required for data: 78016
I0922 18:56:48.069401 27627 layer_factory.hpp:77] Creating layer lstm1_unit_1
I0922 18:56:48.069825 27627 net.cpp:91] Creating Layer lstm1_unit_1
I0922 18:56:48.069844 27627 net.cpp:425] lstm1_unit_1 <- c_0
I0922 18:56:48.069852 27627 net.cpp:425] lstm1_unit_1 <- gate_input_1
I0922 18:56:48.069859 27627 net.cpp:425] lstm1_unit_1 <- cont_1_lstm1_cont_slice_0_split_1
I0922 18:56:48.069872 27627 net.cpp:399] lstm1_unit_1 -> c_1
I0922 18:56:48.069885 27627 net.cpp:399] lstm1_unit_1 -> h_1
I0922 18:56:48.069980 27627 net.cpp:141] Setting up lstm1_unit_1
I0922 18:56:48.069993 27627 net.cpp:148] Top shape: 1 1 1000 (1000)
I0922 18:56:48.069999 27627 net.cpp:148] Top shape: 1 1 1000 (1000)
I0922 18:56:48.070004 27627 net.cpp:156] Memory required for data: 86016
I0922 18:56:48.070010 27627 layer_factory.hpp:77] Creating layer lstm1_
I0922 18:56:48.070020 27627 net.cpp:91] Creating Layer lstm1_
I0922 18:56:48.070026 27627 net.cpp:425] lstm1_ <- c_1
I0922 18:56:48.070037 27627 net.cpp:399] lstm1_ -> c_T
I0922 18:56:48.070076 27627 net.cpp:141] Setting up lstm1_
I0922 18:56:48.070086 27627 net.cpp:148] Top shape: 1 1 1000 (1000)
I0922 18:56:48.070091 27627 net.cpp:156] Memory required for data: 90016
I0922 18:56:48.070096 27627 layer_factory.hpp:77] Creating layer lstm1_h_concat
I0922 18:56:48.070108 27627 net.cpp:91] Creating Layer lstm1_h_concat
I0922 18:56:48.070113 27627 net.cpp:425] lstm1_h_concat <- h_1
I0922 18:56:48.070123 27627 net.cpp:399] lstm1_h_concat -> h
I0922 18:56:48.070168 27627 net.cpp:141] Setting up lstm1_h_concat
I0922 18:56:48.070178 27627 net.cpp:148] Top shape: 1 1 1000 (1000)
I0922 18:56:48.070183 27627 net.cpp:156] Memory required for data: 94016
I0922 18:56:48.070188 27627 layer_factory.hpp:77] Creating layer h_pseudoloss
I0922 18:56:48.070199 27627 net.cpp:91] Creating Layer h_pseudoloss
I0922 18:56:48.070204 27627 net.cpp:425] h_pseudoloss <- h
I0922 18:56:48.070211 27627 net.cpp:399] h_pseudoloss -> h_pseudoloss
I0922 18:56:48.070842 27627 net.cpp:141] Setting up h_pseudoloss
…
I0922 18:56:48.070979 27627 net.cpp:219] lstm1_ does not need backward computation.
I0922 18:56:48.070983 27627 net.cpp:261] This network produces output c_T
I0922 18:56:48.070989 27627 net.cpp:261] This network produces output h_pseudoloss
I0922 18:56:48.071007 27627 net.cpp:274] Network initialization done.
I0922 18:56:48.071089 27627 recurrent_layer.cpp:150] Adding parameter 0: W_xc
I0922 18:56:48.071099 27627 recurrent_layer.cpp:150] Adding parameter 1: b_c
I0922 18:56:48.071104 27627 recurrent_layer.cpp:150] Adding parameter 2: W_hc
I0922 18:56:48.071254 27627 net.cpp:141] Setting up lstm1
I0922 18:56:48.071269 27627 net.cpp:148] Top shape: 1 1 1000 (1000)
I0922 18:56:48.071274 27627 net.cpp:156] Memory required for data: 26408
I0922 18:56:48.071292 27627 layer_factory.hpp:77] Creating layer concat
I0922 18:56:48.071305 27627 net.cpp:91] Creating Layer concat
I0922 18:56:48.071312 27627 net.cpp:425] concat <- lstm1
I0922 18:56:48.071321 27627 net.cpp:425] concat <- embedded_input_sentence
I0922 18:56:48.071327 27627 net.cpp:425] concat <- reshaped_stage_indicator
I0922 18:56:48.071336 27627 net.cpp:399] concat -> lstm1_video_sequence
I0922 18:56:48.071379 27627 net.cpp:141] Setting up concat
I0922 18:56:48.071390 27627 net.cpp:148] Top shape: 1 1 1501 (1501)
I0922 18:56:48.071395 27627 net.cpp:156] Memory required for data: 32412
I0922 18:56:48.071400 27627 layer_factory.hpp:77] Creating layer lstm2
I0922 18:56:48.071418 27627 net.cpp:91] Creating Layer lstm2
I0922 18:56:48.071424 27627 net.cpp:425] lstm2 <- lstm1_video_sequence
I0922 18:56:48.071430 27627 net.cpp:425] lstm2 <- cont_sentence_input_1_split_1
I0922 18:56:48.071439 27627 net.cpp:399] lstm2 -> lstm2
I0922 18:56:48.071451 27627 recurrent_layer.cpp:20] Initializing recurrent layer: assuming input batch contains 1 timesteps of 1 independent streams.
I0922 18:56:48.071837 27627 net.cpp:49] Initializing net from parameters: 
layer {
  name: "lstm2_"
  type: "Input"
  top: "x"
  top: "cont"
  input_param {
    shape {
      dim: 1
      dim: 1
      dim: 1501
    }
    shape {
      dim: 1
      dim: 1
    }
  }
}
layer {
  name: "lstm2_"
  type: "Input"
  top: "c_0"
  top: "h_0"
  input_param {
    shape {
      dim: 1
      dim: 1
      dim: 1000
    }
    shape {
      dim: 1
      dim: 1
      dim: 1000
    }
  }
}
layer {
  name: "lstm2_cont_slice"
  type: "Slice"
  bottom: "cont"
  top: "cont_1"
  slice_param {
    axis: 0
  }
}
layer {
  name: "lstm2_x_transform"
  type: "InnerProduct"
  bottom: "x"
  top: "W_xc_x"
  param {
    name: "W_xc"
  }
  param {
    name: "b_c"
  }
  propagate_down: true
  inner_product_param {
    num_output: 4000
    bias_term: true
    weight_filler {
      type: "uniform"
      min: -0.08
      max: 0.08
    }
    bias_filler {
      type: "constant"
      value: 0
    }
    axis: 2
  }
}
layer {
  name: "lstm2_W_xc_x_slice"
  type: "Slice"
  bottom: "W_xc_x"
  top: "W_xc_x_1"
  slice_param {
    axis: 0
  }
}
layer {
  name: "lstm2_h_conted_0"
  type: "Scale"
  bottom: "h_0"
  bottom: "cont_1"
  top: "h_conted_0"
  scale_param {
    axis: 0
  }
}
layer {
  name: "lstm2_transform_1"
  type: "InnerProduct"
  bottom: "h_conted_0"
  top: "W_hc_h_0"
  param {
    name: "W_hc"
  }
  inner_product_param {
    num_output: 4000
    bias_term: false
    weight_filler {
      type: "uniform"
      min: -0.08
      max: 0.08
    }
    axis: 2
  }
}
layer {
  name: "lstm2_gate_input_1"
  type: "Eltwise"
  bottom: "W_hc_h_0"
  bottom: "W_xc_x_1"
  top: "gate_input_1"
  eltwise_param {
    operation: SUM
  }
}
layer {
  name: "lstm2_unit_1"
  type: "LSTMUnit"
  bottom: "c_0"
  bottom: "gate_input_1"
  bottom: "cont_1"
  top: "c_1"
  top: "h_1"
}
layer {
  name: "lstm2_"
  type: "Split"
  bottom: "c_1"
  top: "c_T"
}
layer {
  name: "lstm2_h_concat"
  type: "Concat"
  bottom: "h_1"
  top: "h"
  concat_param {
    axis: 0
  }
}
layer {
  name: "h_pseudoloss"
  type: "Reduction"
  bottom: "h"
  top: "h_pseudoloss"
  loss_weight: 1
}
I0922 18:56:48.071941 27627 layer_factory.hpp:77] Creating layer lstm2_
I0922 18:56:48.071955 27627 net.cpp:91] Creating Layer lstm2_
I0922 18:56:48.071962 27627 net.cpp:399] lstm2_ -> x
I0922 18:56:48.071974 27627 net.cpp:399] lstm2_ -> cont
I0922 18:56:48.072042 27627 net.cpp:141] Setting up lstm2_
I0922 18:56:48.072053 27627 net.cpp:148] Top shape: 1 1 1501 (1501)
I0922 18:56:48.072060 27627 net.cpp:148] Top shape: 1 1 (1)
I0922 18:56:48.072064 27627 net.cpp:156] Memory required for data: 6008
I0922 18:56:48.072070 27627 layer_factory.hpp:77] Creating layer lstm2_
I0922 18:56:48.072084 27627 net.cpp:91] Creating Layer lstm2_
I0922 18:56:48.072093 27627 net.cpp:399] lstm2_ -> c_0
I0922 18:56:48.072104 27627 net.cpp:399] lstm2_ -> h_0
I0922 18:56:48.072176 27627 net.cpp:141] Setting up lstm2_
I0922 18:56:48.072187 27627 net.cpp:148] Top shape: 1 1 1000 (1000)
I0922 18:56:48.072194 27627 net.cpp:148] Top shape: 1 1 1000 (1000)
I0922 18:56:48.072198 27627 net.cpp:156] Memory required for data: 14008
I0922 18:56:48.072203 27627 layer_factory.hpp:77] Creating layer lstm2_cont_slice
I0922 18:56:48.072213 27627 net.cpp:91] Creating Layer lstm2_cont_slice
I0922 18:56:48.072218 27627 net.cpp:425] lstm2_cont_slice <- cont
I0922 18:56:48.072227 27627 net.cpp:399] lstm2_cont_slice -> cont_1
I0922 18:56:48.072274 27627 net.cpp:141] Setting up lstm2_cont_slice
I0922 18:56:48.072284 27627 net.cpp:148] Top shape: 1 1 (1)
I0922 18:56:48.072289 27627 net.cpp:156] Memory required for data: 14012
I0922 18:56:48.072294 27627 layer_factory.hpp:77] Creating layer cont_1_lstm2_cont_slice_0_split
I0922 18:56:48.072304 27627 net.cpp:91] Creating Layer cont_1_lstm2_cont_slice_0_split
I0922 18:56:48.072309 27627 net.cpp:425] cont_1_lstm2_cont_slice_0_split <- cont_1
I0922 18:56:48.072319 27627 net.cpp:399] cont_1_lstm2_cont_slice_0_split -> cont_1_lstm2_cont_slice_0_split_0
I0922 18:56:48.072329 27627 net.cpp:399] cont_1_lstm2_cont_slice_0_split -> cont_1_lstm2_cont_slice_0_split_1
I0922 18:56:48.072880 27627 net.cpp:141] Setting up cont_1_lstm2_cont_slice_0_split
I0922 18:56:48.072906 27627 net.cpp:148] Top shape: 1 1 (1)
I0922 18:56:48.072913 27627 net.cpp:148] Top shape: 1 1 (1)
I0922 18:56:48.072917 27627 net.cpp:156] Memory required for data: 14020
I0922 18:56:48.072923 27627 layer_factory.hpp:77] Creating layer lstm2_x_transform
I0922 18:56:48.072938 27627 net.cpp:91] Creating Layer lstm2_x_transform
I0922 18:56:48.072944 27627 net.cpp:425] lstm2_x_transform <- x
I0922 18:56:48.072958 27627 net.cpp:399] lstm2_x_transform -> W_xc_x
I0922 18:56:48.104775 27647 net.cpp:141] Setting up lstm1_transform_1
I0922 18:56:48.104822 27647 net.cpp:148] Top shape: 1 1 4000 (4000)
I0922 18:56:48.104830 27647 net.cpp:156] Memory required for data: 62016
I0922 18:56:48.104852 27647 layer_factory.hpp:77] Creating layer lstm1_gate_input_1
I0922 18:56:48.104879 27647 net.cpp:91] Creating Layer lstm1_gate_input_1
I0922 18:56:48.104888 27647 net.cpp:425] lstm1_gate_input_1 <- W_hc_h_0
I0922 18:56:48.104897 27647 net.cpp:425] lstm1_gate_input_1 <- W_xc_x_1
I0922 18:56:48.104907 27647 net.cpp:399] lstm1_gate_input_1 -> gate_input_1
I0922 18:56:48.104969 27647 net.cpp:141] Setting up lstm1_gate_input_1
I0922 18:56:48.104979 27647 net.cpp:148] Top shape: 1 1 4000 (4000)
I0922 18:56:48.104984 27647 net.cpp:156] Memory required for data: 78016
I0922 18:56:48.104990 27647 layer_factory.hpp:77] Creating layer lstm1_unit_1
I0922 18:56:48.105000 27647 net.cpp:91] Creating Layer lstm1_unit_1
I0922 18:56:48.105005 27647 net.cpp:425] lstm1_unit_1 <- c_0
I0922 18:56:48.105011 27647 net.cpp:425] lstm1_unit_1 <- gate_input_1
I0922 18:56:48.105017 27647 net.cpp:425] lstm1_unit_1 <- cont_1_lstm1_cont_slice_0_split_1
I0922 18:56:48.105026 27647 net.cpp:399] lstm1_unit_1 -> c_1
I0922 18:56:48.105034 27647 net.cpp:399] lstm1_unit_1 -> h_1
I0922 18:56:48.105109 27647 net.cpp:141] Setting up lstm1_unit_1
I0922 18:56:48.105119 27647 net.cpp:148] Top shape: 1 1 1000 (1000)
I0922 18:56:48.105126 27647 net.cpp:148] Top shape: 1 1 1000 (1000)
I0922 18:56:48.105130 27647 net.cpp:156] Memory required for data: 86016
I0922 18:56:48.105136 27647 layer_factory.hpp:77] Creating layer lstm1_
I0922 18:56:48.105149 27647 net.cpp:91] Creating Layer lstm1_
I0922 18:56:48.105154 27647 net.cpp:425] lstm1_ <- c_1
I0922 18:56:48.105161 27647 net.cpp:399] lstm1_ -> c_T
I0922 18:56:48.105198 27647 net.cpp:141] Setting up lstm1_
I0922 18:56:48.105207 27647 net.cpp:148] Top shape: 1 1 1000 (1000)
I0922 18:56:48.105212 27647 net.cpp:156] Memory required for data: 90016
I0922 18:56:48.105217 27647 layer_factory.hpp:77] Creating layer lstm1_h_concat
I0922 18:56:48.105227 27647 net.cpp:91] Creating Layer lstm1_h_concat
I0922 18:56:48.105233 27647 net.cpp:425] lstm1_h_concat <- h_1
I0922 18:56:48.105244 27647 net.cpp:399] lstm1_h_concat -> h
I0922 18:56:48.105285 27647 net.cpp:141] Setting up lstm1_h_concat
I0922 18:56:48.105295 27647 net.cpp:148] Top shape: 1 1 1000 (1000)
I0922 18:56:48.105299 27647 net.cpp:156] Memory required for data: 94016
I0922 18:56:48.105304 27647 layer_factory.hpp:77] Creating layer h_pseudoloss
I0922 18:56:48.105315 27647 net.cpp:91] Creating Layer h_pseudoloss
I0922 18:56:48.105320 27647 net.cpp:425] h_pseudoloss <- h
I0922 18:56:48.105329 27647 net.cpp:399] h_pseudoloss -> h_pseudoloss
I0922 18:56:48.105432 27647 net.cpp:141] Setting up h_pseudoloss
…
I0922 18:56:48.105538 27647 net.cpp:219] lstm1_ does not need backward computation.
I0922 18:56:48.105542 27647 net.cpp:261] This network produces output c_T
I0922 18:56:48.105547 27647 net.cpp:261] This network produces output h_pseudoloss
I0922 18:56:48.105566 27647 net.cpp:274] Network initialization done.
I0922 18:56:48.105619 27647 recurrent_layer.cpp:150] Adding parameter 0: W_xc
I0922 18:56:48.105626 27647 recurrent_layer.cpp:150] Adding parameter 1: b_c
I0922 18:56:48.105631 27647 recurrent_layer.cpp:150] Adding parameter 2: W_hc
I0922 18:56:48.105747 27647 net.cpp:141] Setting up lstm1
I0922 18:56:48.105762 27647 net.cpp:148] Top shape: 1 1 1000 (1000)
I0922 18:56:48.105767 27647 net.cpp:156] Memory required for data: 26408
I0922 18:56:48.105782 27647 layer_factory.hpp:77] Creating layer concat
I0922 18:56:48.105792 27647 net.cpp:91] Creating Layer concat
I0922 18:56:48.105798 27647 net.cpp:425] concat <- lstm1
I0922 18:56:48.105804 27647 net.cpp:425] concat <- embedded_input_sentence
I0922 18:56:48.105811 27647 net.cpp:425] concat <- reshaped_stage_indicator
I0922 18:56:48.105818 27647 net.cpp:399] concat -> lstm1_video_sequence
I0922 18:56:48.105857 27647 net.cpp:141] Setting up concat
I0922 18:56:48.105867 27647 net.cpp:148] Top shape: 1 1 1501 (1501)
I0922 18:56:48.105872 27647 net.cpp:156] Memory required for data: 32412
I0922 18:56:48.105877 27647 layer_factory.hpp:77] Creating layer lstm2
I0922 18:56:48.105891 27647 net.cpp:91] Creating Layer lstm2
I0922 18:56:48.105896 27647 net.cpp:425] lstm2 <- lstm1_video_sequence
I0922 18:56:48.105903 27647 net.cpp:425] lstm2 <- cont_sentence_input_1_split_1
I0922 18:56:48.105911 27647 net.cpp:399] lstm2 -> lstm2
I0922 18:56:48.105923 27647 recurrent_layer.cpp:20] Initializing recurrent layer: assuming input batch contains 1 timesteps of 1 independent streams.
I0922 18:56:48.106204 27647 net.cpp:49] Initializing net from parameters: 
layer {
  name: "lstm2_"
  type: "Input"
  top: "x"
  top: "cont"
  input_param {
    shape {
      dim: 1
      dim: 1
      dim: 1501
    }
    shape {
      dim: 1
      dim: 1
    }
  }
}
layer {
  name: "lstm2_"
  type: "Input"
  top: "c_0"
  top: "h_0"
  input_param {
    shape {
      dim: 1
      dim: 1
      dim: 1000
    }
    shape {
      dim: 1
      dim: 1
      dim: 1000
    }
  }
}
layer {
  name: "lstm2_cont_slice"
  type: "Slice"
  bottom: "cont"
  top: "cont_1"
  slice_param {
    axis: 0
  }
}
layer {
  name: "lstm2_x_transform"
  type: "InnerProduct"
  bottom: "x"
  top: "W_xc_x"
  param {
    name: "W_xc"
  }
  param {
    name: "b_c"
  }
  propagate_down: true
  inner_product_param {
    num_output: 4000
    bias_term: true
    weight_filler {
      type: "uniform"
      min: -0.08
      max: 0.08
    }
    bias_filler {
      type: "constant"
      value: 0
    }
    axis: 2
  }
}
layer {
  name: "lstm2_W_xc_x_slice"
  type: "Slice"
  bottom: "W_xc_x"
  top: "W_xc_x_1"
  slice_param {
    axis: 0
  }
}
layer {
  name: "lstm2_h_conted_0"
  type: "Scale"
  bottom: "h_0"
  bottom: "cont_1"
  top: "h_conted_0"
  scale_param {
    axis: 0
  }
}
layer {
  name: "lstm2_transform_1"
  type: "InnerProduct"
  bottom: "h_conted_0"
  top: "W_hc_h_0"
  param {
    name: "W_hc"
  }
  inner_product_param {
    num_output: 4000
    bias_term: false
    weight_filler {
      type: "uniform"
      min: -0.08
      max: 0.08
    }
    axis: 2
  }
}
layer {
  name: "lstm2_gate_input_1"
  type: "Eltwise"
  bottom: "W_hc_h_0"
  bottom: "W_xc_x_1"
  top: "gate_input_1"
  eltwise_param {
    operation: SUM
  }
}
layer {
  name: "lstm2_unit_1"
  type: "LSTMUnit"
  bottom: "c_0"
  bottom: "gate_input_1"
  bottom: "cont_1"
  top: "c_1"
  top: "h_1"
}
layer {
  name: "lstm2_"
  type: "Split"
  bottom: "c_1"
  top: "c_T"
}
layer {
  name: "lstm2_h_concat"
  type: "Concat"
  bottom: "h_1"
  top: "h"
  concat_param {
    axis: 0
  }
}
layer {
  name: "h_pseudoloss"
  type: "Reduction"
  bottom: "h"
  top: "h_pseudoloss"
  loss_weight: 1
}
I0922 18:56:48.106300 27647 layer_factory.hpp:77] Creating layer lstm2_
I0922 18:56:48.106314 27647 net.cpp:91] Creating Layer lstm2_
I0922 18:56:48.106322 27647 net.cpp:399] lstm2_ -> x
I0922 18:56:48.106333 27647 net.cpp:399] lstm2_ -> cont
I0922 18:56:48.106400 27647 net.cpp:141] Setting up lstm2_
I0922 18:56:48.106412 27647 net.cpp:148] Top shape: 1 1 1501 (1501)
I0922 18:56:48.106418 27647 net.cpp:148] Top shape: 1 1 (1)
I0922 18:56:48.106423 27647 net.cpp:156] Memory required for data: 6008
I0922 18:56:48.106428 27647 layer_factory.hpp:77] Creating layer lstm2_
I0922 18:56:48.106437 27647 net.cpp:91] Creating Layer lstm2_
I0922 18:56:48.106447 27647 net.cpp:399] lstm2_ -> c_0
I0922 18:56:48.106458 27647 net.cpp:399] lstm2_ -> h_0
I0922 18:56:48.106518 27647 net.cpp:141] Setting up lstm2_
I0922 18:56:48.106528 27647 net.cpp:148] Top shape: 1 1 1000 (1000)
I0922 18:56:48.106535 27647 net.cpp:148] Top shape: 1 1 1000 (1000)
I0922 18:56:48.106539 27647 net.cpp:156] Memory required for data: 14008
I0922 18:56:48.106544 27647 layer_factory.hpp:77] Creating layer lstm2_cont_slice
I0922 18:56:48.106554 27647 net.cpp:91] Creating Layer lstm2_cont_slice
I0922 18:56:48.106559 27647 net.cpp:425] lstm2_cont_slice <- cont
I0922 18:56:48.106567 27647 net.cpp:399] lstm2_cont_slice -> cont_1
I0922 18:56:48.106608 27647 net.cpp:141] Setting up lstm2_cont_slice
I0922 18:56:48.106618 27647 net.cpp:148] Top shape: 1 1 (1)
I0922 18:56:48.106623 27647 net.cpp:156] Memory required for data: 14012
I0922 18:56:48.106628 27647 layer_factory.hpp:77] Creating layer cont_1_lstm2_cont_slice_0_split
I0922 18:56:48.106637 27647 net.cpp:91] Creating Layer cont_1_lstm2_cont_slice_0_split
I0922 18:56:48.106644 27647 net.cpp:425] cont_1_lstm2_cont_slice_0_split <- cont_1
I0922 18:56:48.106652 27647 net.cpp:399] cont_1_lstm2_cont_slice_0_split -> cont_1_lstm2_cont_slice_0_split_0
I0922 18:56:48.106660 27647 net.cpp:399] cont_1_lstm2_cont_slice_0_split -> cont_1_lstm2_cont_slice_0_split_1
I0922 18:56:48.106716 27647 net.cpp:141] Setting up cont_1_lstm2_cont_slice_0_split
I0922 18:56:48.106726 27647 net.cpp:148] Top shape: 1 1 (1)
I0922 18:56:48.106732 27647 net.cpp:148] Top shape: 1 1 (1)
I0922 18:56:48.106737 27647 net.cpp:156] Memory required for data: 14020
I0922 18:56:48.106742 27647 layer_factory.hpp:77] Creating layer lstm2_x_transform
I0922 18:56:48.106753 27647 net.cpp:91] Creating Layer lstm2_x_transform
I0922 18:56:48.106760 27647 net.cpp:425] lstm2_x_transform <- x
I0922 18:56:48.106770 27647 net.cpp:399] lstm2_x_transform -> W_xc_x
I0922 18:56:48.138501 27627 net.cpp:141] Setting up lstm2_x_transform
I0922 18:56:48.138561 27627 net.cpp:148] Top shape: 1 1 4000 (4000)
I0922 18:56:48.138568 27627 net.cpp:156] Memory required for data: 30020
I0922 18:56:48.138594 27627 layer_factory.hpp:77] Creating layer lstm2_W_xc_x_slice
I0922 18:56:48.138613 27627 net.cpp:91] Creating Layer lstm2_W_xc_x_slice
I0922 18:56:48.138620 27627 net.cpp:425] lstm2_W_xc_x_slice <- W_xc_x
I0922 18:56:48.138631 27627 net.cpp:399] lstm2_W_xc_x_slice -> W_xc_x_1
I0922 18:56:48.138692 27627 net.cpp:141] Setting up lstm2_W_xc_x_slice
I0922 18:56:48.138705 27627 net.cpp:148] Top shape: 1 1 4000 (4000)
I0922 18:56:48.138710 27627 net.cpp:156] Memory required for data: 46020
I0922 18:56:48.138715 27627 layer_factory.hpp:77] Creating layer lstm2_h_conted_0
I0922 18:56:48.138726 27627 net.cpp:91] Creating Layer lstm2_h_conted_0
I0922 18:56:48.138732 27627 net.cpp:425] lstm2_h_conted_0 <- h_0
I0922 18:56:48.138739 27627 net.cpp:425] lstm2_h_conted_0 <- cont_1_lstm2_cont_slice_0_split_0
I0922 18:56:48.138747 27627 net.cpp:399] lstm2_h_conted_0 -> h_conted_0
I0922 18:56:48.138873 27627 net.cpp:141] Setting up lstm2_h_conted_0
I0922 18:56:48.138885 27627 net.cpp:148] Top shape: 1 1 1000 (1000)
I0922 18:56:48.138888 27627 net.cpp:156] Memory required for data: 50020
I0922 18:56:48.138895 27627 layer_factory.hpp:77] Creating layer lstm2_transform_1
I0922 18:56:48.138908 27627 net.cpp:91] Creating Layer lstm2_transform_1
I0922 18:56:48.138913 27627 net.cpp:425] lstm2_transform_1 <- h_conted_0
I0922 18:56:48.138926 27627 net.cpp:399] lstm2_transform_1 -> W_hc_h_0
I0922 18:56:48.159494 27631 net.cpp:752] Ignoring source layer data
I0922 18:56:48.159539 27631 net.cpp:752] Ignoring source layer cont_sentence_data_0_split
I0922 18:56:48.159545 27631 net.cpp:752] Ignoring source layer reshape_stg_indicator
I0922 18:56:48.171535 27647 net.cpp:141] Setting up lstm2_x_transform
I0922 18:56:48.171581 27647 net.cpp:148] Top shape: 1 1 4000 (4000)
I0922 18:56:48.171587 27647 net.cpp:156] Memory required for data: 30020
I0922 18:56:48.171610 27647 layer_factory.hpp:77] Creating layer lstm2_W_xc_x_slice
I0922 18:56:48.171629 27647 net.cpp:91] Creating Layer lstm2_W_xc_x_slice
I0922 18:56:48.171638 27647 net.cpp:425] lstm2_W_xc_x_slice <- W_xc_x
I0922 18:56:48.171646 27647 net.cpp:399] lstm2_W_xc_x_slice -> W_xc_x_1
I0922 18:56:48.171701 27647 net.cpp:141] Setting up lstm2_W_xc_x_slice
I0922 18:56:48.171712 27647 net.cpp:148] Top shape: 1 1 4000 (4000)
I0922 18:56:48.171717 27647 net.cpp:156] Memory required for data: 46020
I0922 18:56:48.171722 27647 layer_factory.hpp:77] Creating layer lstm2_h_conted_0
I0922 18:56:48.171733 27647 net.cpp:91] Creating Layer lstm2_h_conted_0
I0922 18:56:48.171738 27647 net.cpp:425] lstm2_h_conted_0 <- h_0
I0922 18:56:48.171744 27647 net.cpp:425] lstm2_h_conted_0 <- cont_1_lstm2_cont_slice_0_split_0
I0922 18:56:48.171751 27647 net.cpp:399] lstm2_h_conted_0 -> h_conted_0
I0922 18:56:48.171857 27647 net.cpp:141] Setting up lstm2_h_conted_0
I0922 18:56:48.171867 27647 net.cpp:148] Top shape: 1 1 1000 (1000)
I0922 18:56:48.171872 27647 net.cpp:156] Memory required for data: 50020
I0922 18:56:48.171876 27647 layer_factory.hpp:77] Creating layer lstm2_transform_1
I0922 18:56:48.171890 27647 net.cpp:91] Creating Layer lstm2_transform_1
I0922 18:56:48.171895 27647 net.cpp:425] lstm2_transform_1 <- h_conted_0
I0922 18:56:48.171906 27647 net.cpp:399] lstm2_transform_1 -> W_hc_h_0
I0922 18:56:48.182955 27627 net.cpp:141] Setting up lstm2_transform_1
I0922 18:56:48.183009 27627 net.cpp:148] Top shape: 1 1 4000 (4000)
I0922 18:56:48.183017 27627 net.cpp:156] Memory required for data: 66020
I0922 18:56:48.183046 27627 layer_factory.hpp:77] Creating layer lstm2_gate_input_1
I0922 18:56:48.183078 27627 net.cpp:91] Creating Layer lstm2_gate_input_1
I0922 18:56:48.183085 27627 net.cpp:425] lstm2_gate_input_1 <- W_hc_h_0
I0922 18:56:48.183094 27627 net.cpp:425] lstm2_gate_input_1 <- W_xc_x_1
I0922 18:56:48.183109 27627 net.cpp:399] lstm2_gate_input_1 -> gate_input_1
I0922 18:56:48.183173 27627 net.cpp:141] Setting up lstm2_gate_input_1
I0922 18:56:48.183184 27627 net.cpp:148] Top shape: 1 1 4000 (4000)
I0922 18:56:48.183188 27627 net.cpp:156] Memory required for data: 82020
I0922 18:56:48.183193 27627 layer_factory.hpp:77] Creating layer lstm2_unit_1
I0922 18:56:48.183204 27627 net.cpp:91] Creating Layer lstm2_unit_1
I0922 18:56:48.183210 27627 net.cpp:425] lstm2_unit_1 <- c_0
I0922 18:56:48.183217 27627 net.cpp:425] lstm2_unit_1 <- gate_input_1
I0922 18:56:48.183223 27627 net.cpp:425] lstm2_unit_1 <- cont_1_lstm2_cont_slice_0_split_1
I0922 18:56:48.183230 27627 net.cpp:399] lstm2_unit_1 -> c_1
I0922 18:56:48.183244 27627 net.cpp:399] lstm2_unit_1 -> h_1
I0922 18:56:48.183321 27627 net.cpp:141] Setting up lstm2_unit_1
I0922 18:56:48.183331 27627 net.cpp:148] Top shape: 1 1 1000 (1000)
I0922 18:56:48.183338 27627 net.cpp:148] Top shape: 1 1 1000 (1000)
I0922 18:56:48.183343 27627 net.cpp:156] Memory required for data: 90020
I0922 18:56:48.183348 27627 layer_factory.hpp:77] Creating layer lstm2_
I0922 18:56:48.183358 27627 net.cpp:91] Creating Layer lstm2_
I0922 18:56:48.183363 27627 net.cpp:425] lstm2_ <- c_1
I0922 18:56:48.183372 27627 net.cpp:399] lstm2_ -> c_T
I0922 18:56:48.183413 27627 net.cpp:141] Setting up lstm2_
I0922 18:56:48.183423 27627 net.cpp:148] Top shape: 1 1 1000 (1000)
I0922 18:56:48.183429 27627 net.cpp:156] Memory required for data: 94020
I0922 18:56:48.183434 27627 layer_factory.hpp:77] Creating layer lstm2_h_concat
I0922 18:56:48.183444 27627 net.cpp:91] Creating Layer lstm2_h_concat
I0922 18:56:48.183449 27627 net.cpp:425] lstm2_h_concat <- h_1
I0922 18:56:48.183459 27627 net.cpp:399] lstm2_h_concat -> h
I0922 18:56:48.183501 27627 net.cpp:141] Setting up lstm2_h_concat
I0922 18:56:48.183509 27627 net.cpp:148] Top shape: 1 1 1000 (1000)
I0922 18:56:48.183514 27627 net.cpp:156] Memory required for data: 98020
I0922 18:56:48.183519 27627 layer_factory.hpp:77] Creating layer h_pseudoloss
I0922 18:56:48.183535 27627 net.cpp:91] Creating Layer h_pseudoloss
I0922 18:56:48.183542 27627 net.cpp:425] h_pseudoloss <- h
I0922 18:56:48.183548 27627 net.cpp:399] h_pseudoloss -> h_pseudoloss
I0922 18:56:48.183665 27627 net.cpp:141] Setting up h_pseudoloss
…
I0922 18:56:48.183776 27627 net.cpp:219] lstm2_ does not need backward computation.
I0922 18:56:48.183780 27627 net.cpp:261] This network produces output c_T
I0922 18:56:48.183785 27627 net.cpp:261] This network produces output h_pseudoloss
I0922 18:56:48.183806 27627 net.cpp:274] Network initialization done.
I0922 18:56:48.183866 27627 recurrent_layer.cpp:150] Adding parameter 0: W_xc
I0922 18:56:48.183873 27627 recurrent_layer.cpp:150] Adding parameter 1: b_c
I0922 18:56:48.183878 27627 recurrent_layer.cpp:150] Adding parameter 2: W_hc
I0922 18:56:48.184006 27627 net.cpp:141] Setting up lstm2
I0922 18:56:48.184020 27627 net.cpp:148] Top shape: 1 1 1000 (1000)
I0922 18:56:48.184026 27627 net.cpp:156] Memory required for data: 36412
I0922 18:56:48.184042 27627 layer_factory.hpp:77] Creating layer predict
I0922 18:56:48.184058 27627 net.cpp:91] Creating Layer predict
I0922 18:56:48.184065 27627 net.cpp:425] predict <- lstm2
I0922 18:56:48.184074 27627 net.cpp:399] predict -> predict
I0922 18:56:48.250936 27631 net.cpp:752] Ignoring source layer cross_entropy_loss
I0922 18:56:48.275290 27647 net.cpp:141] Setting up lstm2_transform_1
I0922 18:56:48.275346 27647 net.cpp:148] Top shape: 1 1 4000 (4000)
I0922 18:56:48.275352 27647 net.cpp:156] Memory required for data: 66020
I0922 18:56:48.275377 27647 layer_factory.hpp:77] Creating layer lstm2_gate_input_1
I0922 18:56:48.275401 27647 net.cpp:91] Creating Layer lstm2_gate_input_1
I0922 18:56:48.275408 27647 net.cpp:425] lstm2_gate_input_1 <- W_hc_h_0
I0922 18:56:48.275416 27647 net.cpp:425] lstm2_gate_input_1 <- W_xc_x_1
I0922 18:56:48.275427 27647 net.cpp:399] lstm2_gate_input_1 -> gate_input_1
I0922 18:56:48.275499 27647 net.cpp:141] Setting up lstm2_gate_input_1
I0922 18:56:48.275508 27647 net.cpp:148] Top shape: 1 1 4000 (4000)
I0922 18:56:48.275512 27647 net.cpp:156] Memory required for data: 82020
I0922 18:56:48.275517 27647 layer_factory.hpp:77] Creating layer lstm2_unit_1
I0922 18:56:48.275527 27647 net.cpp:91] Creating Layer lstm2_unit_1
I0922 18:56:48.275530 27647 net.cpp:425] lstm2_unit_1 <- c_0
I0922 18:56:48.275537 27647 net.cpp:425] lstm2_unit_1 <- gate_input_1
I0922 18:56:48.275542 27647 net.cpp:425] lstm2_unit_1 <- cont_1_lstm2_cont_slice_0_split_1
I0922 18:56:48.275552 27647 net.cpp:399] lstm2_unit_1 -> c_1
I0922 18:56:48.275560 27647 net.cpp:399] lstm2_unit_1 -> h_1
I0922 18:56:48.275629 27647 net.cpp:141] Setting up lstm2_unit_1
I0922 18:56:48.275637 27647 net.cpp:148] Top shape: 1 1 1000 (1000)
I0922 18:56:48.275643 27647 net.cpp:148] Top shape: 1 1 1000 (1000)
I0922 18:56:48.275646 27647 net.cpp:156] Memory required for data: 90020
I0922 18:56:48.275651 27647 layer_factory.hpp:77] Creating layer lstm2_
I0922 18:56:48.275660 27647 net.cpp:91] Creating Layer lstm2_
I0922 18:56:48.275665 27647 net.cpp:425] lstm2_ <- c_1
I0922 18:56:48.275671 27647 net.cpp:399] lstm2_ -> c_T
I0922 18:56:48.275710 27647 net.cpp:141] Setting up lstm2_
I0922 18:56:48.275719 27647 net.cpp:148] Top shape: 1 1 1000 (1000)
I0922 18:56:48.275723 27647 net.cpp:156] Memory required for data: 94020
I0922 18:56:48.275728 27647 layer_factory.hpp:77] Creating layer lstm2_h_concat
I0922 18:56:48.275738 27647 net.cpp:91] Creating Layer lstm2_h_concat
I0922 18:56:48.275743 27647 net.cpp:425] lstm2_h_concat <- h_1
I0922 18:56:48.275751 27647 net.cpp:399] lstm2_h_concat -> h
I0922 18:56:48.275789 27647 net.cpp:141] Setting up lstm2_h_concat
I0922 18:56:48.275796 27647 net.cpp:148] Top shape: 1 1 1000 (1000)
I0922 18:56:48.275800 27647 net.cpp:156] Memory required for data: 98020
I0922 18:56:48.275805 27647 layer_factory.hpp:77] Creating layer h_pseudoloss
I0922 18:56:48.275817 27647 net.cpp:91] Creating Layer h_pseudoloss
I0922 18:56:48.275822 27647 net.cpp:425] h_pseudoloss <- h
I0922 18:56:48.275828 27647 net.cpp:399] h_pseudoloss -> h_pseudoloss
I0922 18:56:48.275928 27647 net.cpp:141] Setting up h_pseudoloss
…
I0922 18:56:48.276026 27647 net.cpp:219] lstm2_ does not need backward computation.
I0922 18:56:48.276029 27647 net.cpp:261] This network produces output c_T
I0922 18:56:48.276033 27647 net.cpp:261] This network produces output h_pseudoloss
I0922 18:56:48.276051 27647 net.cpp:274] Network initialization done.
I0922 18:56:48.276104 27647 recurrent_layer.cpp:150] Adding parameter 0: W_xc
I0922 18:56:48.276110 27647 recurrent_layer.cpp:150] Adding parameter 1: b_c
I0922 18:56:48.276114 27647 recurrent_layer.cpp:150] Adding parameter 2: W_hc
I0922 18:56:48.276229 27647 net.cpp:141] Setting up lstm2
I0922 18:56:48.276242 27647 net.cpp:148] Top shape: 1 1 1000 (1000)
I0922 18:56:48.276245 27647 net.cpp:156] Memory required for data: 36412
I0922 18:56:48.276258 27647 layer_factory.hpp:77] Creating layer predict
I0922 18:56:48.276273 27647 net.cpp:91] Creating Layer predict
I0922 18:56:48.276278 27647 net.cpp:425] predict <- lstm2
I0922 18:56:48.276286 27647 net.cpp:399] predict -> predict
I0922 18:56:48.365782 27625 upgrade_proto.cpp:43] Attempting to upgrade input file specified using deprecated transformation parameters: /home/peifeng/work/run/storm102/data/workers/12e2eb37-a6ff-41ce-a153-332e81c67862/tmp/cvld4916028230344023693/bvlc_reference_caffenet.caffemodel
I0922 18:56:48.365841 27625 upgrade_proto.cpp:46] Successfully upgraded file specified using deprecated data transformation parameters.
W0922 18:56:48.365850 27625 upgrade_proto.cpp:48] Note that future Caffe releases will only support transform_param messages for transformation fields.
I0922 18:56:48.365855 27625 upgrade_proto.cpp:52] Attempting to upgrade input file specified using deprecated V1LayerParameter: /home/peifeng/work/run/storm102/data/workers/12e2eb37-a6ff-41ce-a153-332e81c67862/tmp/cvld4916028230344023693/bvlc_reference_caffenet.caffemodel
I0922 18:56:48.674605 27627 net.cpp:141] Setting up predict
I0922 18:56:48.674654 27627 net.cpp:148] Top shape: 1 1 46168 (46168)
I0922 18:56:48.674659 27627 net.cpp:156] Memory required for data: 221084
I0922 18:56:48.674675 27627 layer_factory.hpp:77] Creating layer probs
I0922 18:56:48.674695 27627 net.cpp:91] Creating Layer probs
I0922 18:56:48.674701 27627 net.cpp:425] probs <- predict
I0922 18:56:48.674713 27627 net.cpp:399] probs -> probs
I0922 18:56:48.675204 27627 net.cpp:141] Setting up probs
I0922 18:56:48.675216 27627 net.cpp:148] Top shape: 1 1 46168 (46168)
I0922 18:56:48.675221 27627 net.cpp:156] Memory required for data: 405756
I0922 18:56:48.675226 27627 net.cpp:219] probs does not need backward computation.
I0922 18:56:48.675231 27627 net.cpp:219] predict does not need backward computation.
I0922 18:56:48.675236 27627 net.cpp:219] lstm2 does not need backward computation.
I0922 18:56:48.675242 27627 net.cpp:219] concat does not need backward computation.
I0922 18:56:48.675248 27627 net.cpp:219] lstm1 does not need backward computation.
I0922 18:56:48.675256 27627 net.cpp:219] embedding does not need backward computation.
I0922 18:56:48.675263 27627 net.cpp:219] reshape_stage_indicator does not need backward computation.
I0922 18:56:48.675269 27627 net.cpp:219] reshape_frames does not need backward computation.
I0922 18:56:48.675273 27627 net.cpp:219] embed_encoder does not need backward computation.
I0922 18:56:48.675278 27627 net.cpp:219] cont_sentence_input_1_split does not need backward computation.
I0922 18:56:48.675284 27627 net.cpp:219] input does not need backward computation.
I0922 18:56:48.675288 27627 net.cpp:261] This network produces output probs
I0922 18:56:48.675303 27627 net.cpp:274] Network initialization done.
I0922 18:56:48.710011 27647 net.cpp:141] Setting up predict
I0922 18:56:48.710057 27647 net.cpp:148] Top shape: 1 1 46168 (46168)
I0922 18:56:48.710062 27647 net.cpp:156] Memory required for data: 221084
I0922 18:56:48.710079 27647 layer_factory.hpp:77] Creating layer probs
I0922 18:56:48.710099 27647 net.cpp:91] Creating Layer probs
I0922 18:56:48.710106 27647 net.cpp:425] probs <- predict
I0922 18:56:48.710116 27647 net.cpp:399] probs -> probs
I0922 18:56:48.710726 27647 net.cpp:141] Setting up probs
I0922 18:56:48.710741 27647 net.cpp:148] Top shape: 1 1 46168 (46168)
I0922 18:56:48.710746 27647 net.cpp:156] Memory required for data: 405756
I0922 18:56:48.710750 27647 net.cpp:219] probs does not need backward computation.
I0922 18:56:48.710755 27647 net.cpp:219] predict does not need backward computation.
I0922 18:56:48.710760 27647 net.cpp:219] lstm2 does not need backward computation.
I0922 18:56:48.710767 27647 net.cpp:219] concat does not need backward computation.
…
