…
Java HotSpot(TM) 64-Bit Server VM warning: You have loaded library /tmp/cvld5965679272664732155/libopencv_java310.xine1.so which might have disabled stack guard. The VM will try to fix the stack guard now.
It's highly recommended that you fix the library with 'execstack -c <libfile>', or link it with '-z noexecstack'.
WARNING: Logging before InitGoogleLogging() is written to STDERR
I0720 14:42:17.242158 30204 net.cpp:49] Initializing net from parameters: 
name: "CaffeNet"
state {
  phase: TEST
}
layer {
  name: "data"
  type: "Input"
  top: "data"
  input_param {
    shape {
      dim: 10
      dim: 3
      dim: 227
      dim: 227
    }
  }
}
layer {
  name: "conv1"
  type: "Convolution"
  bottom: "data"
  top: "conv1"
  convolution_param {
    num_output: 96
    kernel_size: 11
    stride: 4
  }
}
layer {
  name: "relu1"
  type: "ReLU"
  bottom: "conv1"
  top: "conv1"
}
layer {
  name: "pool1"
  type: "Pooling"
  bottom: "conv1"
  top: "pool1"
  pooling_param {
    pool: MAX
    kernel_size: 3
    stride: 2
  }
}
layer {
  name: "norm1"
  type: "LRN"
  bottom: "pool1"
  top: "norm1"
  lrn_param {
    local_size: 5
    alpha: 0.0001
    beta: 0.75
  }
}
layer {
  name: "conv2"
  type: "Convolution"
  bottom: "norm1"
  top: "conv2"
  convolution_param {
    num_output: 256
    pad: 2
    kernel_size: 5
    group: 2
  }
}
layer {
  name: "relu2"
  type: "ReLU"
  bottom: "conv2"
  top: "conv2"
}
layer {
  name: "pool2"
  type: "Pooling"
  bottom: "conv2"
  top: "pool2"
  pooling_param {
    pool: MAX
    kernel_size: 3
    stride: 2
  }
}
layer {
  name: "norm2"
  type: "LRN"
  bottom: "pool2"
  top: "norm2"
  lrn_param {
    local_size: 5
    alpha: 0.0001
    beta: 0.75
  }
}
layer {
  name: "conv3"
  type: "Convolution"
  bottom: "norm2"
  top: "conv3"
  convolution_param {
    num_output: 384
    pad: 1
    kernel_size: 3
  }
}
layer {
  name: "relu3"
  type: "ReLU"
  bottom: "conv3"
  top: "conv3"
}
layer {
  name: "conv4"
  type: "Convolution"
  bottom: "conv3"
  top: "conv4"
  convolution_param {
    num_output: 384
    pad: 1
    kernel_size: 3
    group: 2
  }
}
layer {
  name: "relu4"
  type: "ReLU"
  bottom: "conv4"
  top: "conv4"
}
layer {
  name: "conv5"
  type: "Convolution"
  bottom: "conv4"
  top: "conv5"
  convolution_param {
    num_output: 256
    pad: 1
    kernel_size: 3
    group: 2
  }
}
layer {
  name: "relu5"
  type: "ReLU"
  bottom: "conv5"
  top: "conv5"
}
layer {
  name: "pool5"
  type: "Pooling"
  bottom: "conv5"
  top: "pool5"
  pooling_param {
    pool: MAX
    kernel_size: 3
    stride: 2
  }
}
layer {
  name: "fc6"
  type: "InnerProduct"
  bottom: "pool5"
  top: "fc6"
  inner_product_param {
    num_output: 4096
  }
}
layer {
  name: "relu6"
  type: "ReLU"
  bottom: "fc6"
  top: "fc6"
}
layer {
  name: "drop6"
  type: "Dropout"
  bottom: "fc6"
  top: "fc6"
  dropout_param {
    dropout_ratio: 0.5
  }
}
layer {
  name: "fc7"
  type: "InnerProduct"
  bottom: "fc6"
  top: "fc7"
  inner_product_param {
    num_output: 4096
  }
}
layer {
  name: "relu7"
  type: "ReLU"
  bottom: "fc7"
  top: "fc7"
}
layer {
  name: "drop7"
  type: "Dropout"
  bottom: "fc7"
  top: "fc7"
  dropout_param {
    dropout_ratio: 0.5
  }
}
layer {
  name: "fc8"
  type: "InnerProduct"
  bottom: "fc7"
  top: "fc8"
  inner_product_param {
    num_output: 1000
  }
}
layer {
  name: "prob"
  type: "Softmax"
  bottom: "fc8"
  top: "prob"
}
I0720 14:42:17.242332 30204 layer_factory.hpp:77] Creating layer data
I0720 14:42:17.242355 30204 net.cpp:91] Creating Layer data
I0720 14:42:17.242367 30204 net.cpp:399] data -> data
I0720 14:42:17.649188 30194 upgrade_proto.cpp:66] Attempting to upgrade input file specified using deprecated input fields: /tmp/cvld5965679272664732155/s2vt.words_to_preds.prototxt
I0720 14:42:17.649232 30194 upgrade_proto.cpp:69] Successfully upgraded file specified using deprecated input fields.
W0720 14:42:17.649240 30194 upgrade_proto.cpp:71] Note that future Caffe releases will only support input layers and not input fields.
I0720 14:42:17.649474 30194 net.cpp:49] Initializing net from parameters: 
name: "s2vt:features_to_lstm"
state {
  phase: TEST
}
layer {
  name: "input"
  type: "Input"
  top: "frames_fc7"
  top: "cont_sentence"
  top: "input_sentence"
  top: "stage_indicator"
  input_param {
    shape {
      dim: 1
      dim: 4096
    }
    shape {
      dim: 1
      dim: 1
    }
    shape {
      dim: 1
      dim: 1
    }
    shape {
      dim: 1
      dim: 1
    }
  }
}
layer {
  name: "embed_encoder"
  type: "InnerProduct"
  bottom: "frames_fc7"
  top: "embedded_in_frames"
  param {
    lr_mult: 1
    decay_mult: 1
  }
  param {
    lr_mult: 2
    decay_mult: 0
  }
  inner_product_param {
    num_output: 500
    weight_filler {
      type: "xavier"
    }
    bias_filler {
      type: "constant"
      value: 0.2
    }
  }
}
layer {
  name: "reshape_frames"
  type: "Reshape"
  bottom: "embedded_in_frames"
  top: "embedded_input_frames"
  reshape_param {
    shape {
      dim: 1
      dim: 1
      dim: 500
    }
  }
}
layer {
  name: "reshape_stage_indicator"
  type: "Reshape"
  bottom: "stage_indicator"
  top: "reshaped_stage_indicator"
  reshape_param {
    shape {
      dim: 1
      dim: 1
      dim: 1
    }
  }
}
layer {
  name: "embedding"
  type: "Embed"
  bottom: "input_sentence"
  top: "embedded_input_sentence"
  param {
    lr_mult: 1
  }
  embed_param {
    num_output: 500
    input_dim: 46168
    bias_term: false
    weight_filler {
      type: "uniform"
      min: -0.08
      max: 0.08
    }
  }
}
layer {
  name: "lstm1"
  type: "LSTM"
  bottom: "embedded_input_frames"
  bottom: "cont_sentence"
  top: "lstm1"
  recurrent_param {
    num_output: 1000
    weight_filler {
      type: "uniform"
      min: -0.08
      max: 0.08
    }
    bias_filler {
      type: "constant"
      value: 0
    }
  }
}
layer {
  name: "concat"
  type: "Concat"
  bottom: "lstm1"
  bottom: "embedded_input_sentence"
  bottom: "reshaped_stage_indicator"
  top: "lstm1_video_sequence"
  concat_param {
    concat_dim: 2
  }
}
layer {
  name: "lstm2"
  type: "LSTM"
  bottom: "lstm1_video_sequence"
  bottom: "cont_sentence"
  top: "lstm2"
  recurrent_param {
    num_output: 1000
    weight_filler {
      type: "uniform"
      min: -0.08
      max: 0.08
    }
    bias_filler {
      type: "constant"
      value: 0
    }
  }
}
layer {
  name: "predict"
  type: "InnerProduct"
  bottom: "lstm2"
  top: "predict"
  param {
    lr_mult: 1
    decay_mult: 1
  }
  param {
    lr_mult: 2
    decay_mult: 0
  }
  inner_product_param {
    num_output: 46168
    weight_filler {
      type: "uniform"
      min: -0.08
      max: 0.08
    }
    bias_filler {
      type: "constant"
      value: 0
    }
    axis: 2
  }
}
layer {
  name: "probs"
  type: "Softmax"
  bottom: "predict"
  top: "probs"
  softmax_param {
    axis: 2
  }
}
I0720 14:42:17.649591 30194 layer_factory.hpp:77] Creating layer input
I0720 14:42:17.649605 30194 net.cpp:91] Creating Layer input
I0720 14:42:17.649613 30194 net.cpp:399] input -> frames_fc7
I0720 14:42:17.649628 30194 net.cpp:399] input -> cont_sentence
I0720 14:42:17.649641 30194 net.cpp:399] input -> input_sentence
I0720 14:42:17.649651 30194 net.cpp:399] input -> stage_indicator
I0720 14:42:17.787046 30204 net.cpp:141] Setting up data
I0720 14:42:17.787106 30204 net.cpp:148] Top shape: 10 3 227 227 (1545870)
I0720 14:42:17.787108 30194 net.cpp:141] Setting up input
I0720 14:42:17.787113 30204 net.cpp:156] Memory required for data: 6183480
I0720 14:42:17.787133 30194 net.cpp:148] Top shape: 1 4096 (4096)
I0720 14:42:17.787142 30194 net.cpp:148] Top shape: 1 1 (1)
I0720 14:42:17.787142 30204 layer_factory.hpp:77] Creating layer conv1
I0720 14:42:17.787147 30194 net.cpp:148] Top shape: 1 1 (1)
I0720 14:42:17.787153 30194 net.cpp:148] Top shape: 1 1 (1)
I0720 14:42:17.787156 30194 net.cpp:156] Memory required for data: 16396
I0720 14:42:17.787163 30194 layer_factory.hpp:77] Creating layer cont_sentence_input_1_split
I0720 14:42:17.787178 30204 net.cpp:91] Creating Layer conv1
I0720 14:42:17.787187 30204 net.cpp:425] conv1 <- data
I0720 14:42:17.787190 30194 net.cpp:91] Creating Layer cont_sentence_input_1_split
I0720 14:42:17.787197 30194 net.cpp:425] cont_sentence_input_1_split <- cont_sentence
I0720 14:42:17.787202 30204 net.cpp:399] conv1 -> conv1
I0720 14:42:17.787219 30194 net.cpp:399] cont_sentence_input_1_split -> cont_sentence_input_1_split_0
I0720 14:42:17.787230 30194 net.cpp:399] cont_sentence_input_1_split -> cont_sentence_input_1_split_1
I0720 14:42:17.787350 30194 net.cpp:141] Setting up cont_sentence_input_1_split
I0720 14:42:17.787364 30194 net.cpp:148] Top shape: 1 1 (1)
I0720 14:42:17.787369 30194 net.cpp:148] Top shape: 1 1 (1)
I0720 14:42:17.787372 30194 net.cpp:156] Memory required for data: 16404
I0720 14:42:17.787377 30194 layer_factory.hpp:77] Creating layer embed_encoder
I0720 14:42:17.787397 30194 net.cpp:91] Creating Layer embed_encoder
I0720 14:42:17.787403 30194 net.cpp:425] embed_encoder <- frames_fc7
I0720 14:42:17.787412 30194 net.cpp:399] embed_encoder -> embedded_in_frames
I0720 14:42:17.810806 30194 net.cpp:141] Setting up embed_encoder
I0720 14:42:17.810845 30194 net.cpp:148] Top shape: 1 500 (500)
I0720 14:42:17.810850 30194 net.cpp:156] Memory required for data: 18404
I0720 14:42:17.810876 30194 layer_factory.hpp:77] Creating layer reshape_frames
I0720 14:42:17.810905 30194 net.cpp:91] Creating Layer reshape_frames
I0720 14:42:17.810914 30194 net.cpp:425] reshape_frames <- embedded_in_frames
I0720 14:42:17.810925 30194 net.cpp:399] reshape_frames -> embedded_input_frames
I0720 14:42:17.811090 30194 net.cpp:141] Setting up reshape_frames
I0720 14:42:17.811101 30194 net.cpp:148] Top shape: 1 1 500 (500)
I0720 14:42:17.811105 30194 net.cpp:156] Memory required for data: 20404
I0720 14:42:17.811111 30194 layer_factory.hpp:77] Creating layer reshape_stage_indicator
I0720 14:42:17.811122 30194 net.cpp:91] Creating Layer reshape_stage_indicator
I0720 14:42:17.811127 30194 net.cpp:425] reshape_stage_indicator <- stage_indicator
I0720 14:42:17.811143 30194 net.cpp:399] reshape_stage_indicator -> reshaped_stage_indicator
I0720 14:42:17.814723 30194 net.cpp:141] Setting up reshape_stage_indicator
I0720 14:42:17.814743 30194 net.cpp:148] Top shape: 1 1 1 (1)
I0720 14:42:17.814748 30194 net.cpp:156] Memory required for data: 20408
I0720 14:42:17.814752 30194 layer_factory.hpp:77] Creating layer embedding
I0720 14:42:17.814766 30194 net.cpp:91] Creating Layer embedding
I0720 14:42:17.814771 30194 net.cpp:425] embedding <- input_sentence
I0720 14:42:17.814780 30194 net.cpp:399] embedding -> embedded_input_sentence
I0720 14:42:18.031252 30194 net.cpp:141] Setting up embedding
I0720 14:42:18.031296 30194 net.cpp:148] Top shape: 1 1 500 (500)
I0720 14:42:18.031301 30194 net.cpp:156] Memory required for data: 22408
I0720 14:42:18.031316 30194 layer_factory.hpp:77] Creating layer lstm1
I0720 14:42:18.031333 30194 net.cpp:91] Creating Layer lstm1
I0720 14:42:18.031340 30194 net.cpp:425] lstm1 <- embedded_input_frames
I0720 14:42:18.031348 30194 net.cpp:425] lstm1 <- cont_sentence_input_1_split_0
I0720 14:42:18.031359 30194 net.cpp:399] lstm1 -> lstm1
I0720 14:42:18.031391 30194 recurrent_layer.cpp:20] Initializing recurrent layer: assuming input batch contains 1 timesteps of 1 independent streams.
I0720 14:42:18.031713 30194 net.cpp:49] Initializing net from parameters: 
layer {
  name: "lstm1_"
  type: "Input"
  top: "x"
  top: "cont"
  input_param {
    shape {
      dim: 1
      dim: 1
      dim: 500
    }
    shape {
      dim: 1
      dim: 1
    }
  }
}
layer {
  name: "lstm1_"
  type: "Input"
  top: "c_0"
  top: "h_0"
  input_param {
    shape {
      dim: 1
      dim: 1
      dim: 1000
    }
    shape {
      dim: 1
      dim: 1
      dim: 1000
    }
  }
}
layer {
  name: "lstm1_cont_slice"
  type: "Slice"
  bottom: "cont"
  top: "cont_1"
  slice_param {
    axis: 0
  }
}
layer {
  name: "lstm1_x_transform"
  type: "InnerProduct"
  bottom: "x"
  top: "W_xc_x"
  param {
    name: "W_xc"
  }
  param {
    name: "b_c"
  }
  propagate_down: true
  inner_product_param {
    num_output: 4000
    bias_term: true
    weight_filler {
      type: "uniform"
      min: -0.08
      max: 0.08
    }
    bias_filler {
      type: "constant"
      value: 0
    }
    axis: 2
  }
}
layer {
  name: "lstm1_W_xc_x_slice"
  type: "Slice"
  bottom: "W_xc_x"
  top: "W_xc_x_1"
  slice_param {
    axis: 0
  }
}
layer {
  name: "lstm1_h_conted_0"
  type: "Scale"
  bottom: "h_0"
  bottom: "cont_1"
  top: "h_conted_0"
  scale_param {
    axis: 0
  }
}
layer {
  name: "lstm1_transform_1"
  type: "InnerProduct"
  bottom: "h_conted_0"
  top: "W_hc_h_0"
  param {
    name: "W_hc"
  }
  inner_product_param {
    num_output: 4000
    bias_term: false
    weight_filler {
      type: "uniform"
      min: -0.08
      max: 0.08
    }
    axis: 2
  }
}
layer {
  name: "lstm1_gate_input_1"
  type: "Eltwise"
  bottom: "W_hc_h_0"
  bottom: "W_xc_x_1"
  top: "gate_input_1"
  eltwise_param {
    operation: SUM
  }
}
layer {
  name: "lstm1_unit_1"
  type: "LSTMUnit"
  bottom: "c_0"
  bottom: "gate_input_1"
  bottom: "cont_1"
  top: "c_1"
  top: "h_1"
}
layer {
  name: "lstm1_"
  type: "Split"
  bottom: "c_1"
  top: "c_T"
}
layer {
  name: "lstm1_h_concat"
  type: "Concat"
  bottom: "h_1"
  top: "h"
  concat_param {
    axis: 0
  }
}
layer {
  name: "h_pseudoloss"
  type: "Reduction"
  bottom: "h"
  top: "h_pseudoloss"
  loss_weight: 1
}
I0720 14:42:18.031801 30194 layer_factory.hpp:77] Creating layer lstm1_
I0720 14:42:18.031812 30194 net.cpp:91] Creating Layer lstm1_
I0720 14:42:18.031819 30194 net.cpp:399] lstm1_ -> x
I0720 14:42:18.031831 30194 net.cpp:399] lstm1_ -> cont
I0720 14:42:18.032008 30194 net.cpp:141] Setting up lstm1_
I0720 14:42:18.032018 30194 net.cpp:148] Top shape: 1 1 500 (500)
I0720 14:42:18.032024 30194 net.cpp:148] Top shape: 1 1 (1)
I0720 14:42:18.032028 30194 net.cpp:156] Memory required for data: 2004
I0720 14:42:18.032033 30194 layer_factory.hpp:77] Creating layer lstm1_
I0720 14:42:18.032042 30194 net.cpp:91] Creating Layer lstm1_
I0720 14:42:18.032052 30194 net.cpp:399] lstm1_ -> c_0
I0720 14:42:18.032061 30194 net.cpp:399] lstm1_ -> h_0
I0720 14:42:18.035127 30194 net.cpp:141] Setting up lstm1_
I0720 14:42:18.035145 30194 net.cpp:148] Top shape: 1 1 1000 (1000)
I0720 14:42:18.035151 30194 net.cpp:148] Top shape: 1 1 1000 (1000)
I0720 14:42:18.035156 30194 net.cpp:156] Memory required for data: 10004
I0720 14:42:18.035161 30194 layer_factory.hpp:77] Creating layer lstm1_cont_slice
I0720 14:42:18.035174 30194 net.cpp:91] Creating Layer lstm1_cont_slice
I0720 14:42:18.035179 30194 net.cpp:425] lstm1_cont_slice <- cont
I0720 14:42:18.035189 30194 net.cpp:399] lstm1_cont_slice -> cont_1
I0720 14:42:18.039490 30194 net.cpp:141] Setting up lstm1_cont_slice
I0720 14:42:18.039511 30194 net.cpp:148] Top shape: 1 1 (1)
I0720 14:42:18.039517 30194 net.cpp:156] Memory required for data: 10008
I0720 14:42:18.039522 30194 layer_factory.hpp:77] Creating layer cont_1_lstm1_cont_slice_0_split
I0720 14:42:18.039532 30194 net.cpp:91] Creating Layer cont_1_lstm1_cont_slice_0_split
I0720 14:42:18.039537 30194 net.cpp:425] cont_1_lstm1_cont_slice_0_split <- cont_1
I0720 14:42:18.039551 30194 net.cpp:399] cont_1_lstm1_cont_slice_0_split -> cont_1_lstm1_cont_slice_0_split_0
I0720 14:42:18.039561 30194 net.cpp:399] cont_1_lstm1_cont_slice_0_split -> cont_1_lstm1_cont_slice_0_split_1
I0720 14:42:18.039618 30194 net.cpp:141] Setting up cont_1_lstm1_cont_slice_0_split
I0720 14:42:18.039626 30194 net.cpp:148] Top shape: 1 1 (1)
I0720 14:42:18.039631 30194 net.cpp:148] Top shape: 1 1 (1)
I0720 14:42:18.039635 30194 net.cpp:156] Memory required for data: 10016
I0720 14:42:18.039639 30194 layer_factory.hpp:77] Creating layer lstm1_x_transform
I0720 14:42:18.039651 30194 net.cpp:91] Creating Layer lstm1_x_transform
I0720 14:42:18.039655 30194 net.cpp:425] lstm1_x_transform <- x
I0720 14:42:18.039664 30194 net.cpp:399] lstm1_x_transform -> W_xc_x
I0720 14:42:18.061238 30194 net.cpp:141] Setting up lstm1_x_transform
I0720 14:42:18.061277 30194 net.cpp:148] Top shape: 1 1 4000 (4000)
I0720 14:42:18.061283 30194 net.cpp:156] Memory required for data: 26016
I0720 14:42:18.061302 30194 layer_factory.hpp:77] Creating layer lstm1_W_xc_x_slice
I0720 14:42:18.061317 30194 net.cpp:91] Creating Layer lstm1_W_xc_x_slice
I0720 14:42:18.061324 30194 net.cpp:425] lstm1_W_xc_x_slice <- W_xc_x
I0720 14:42:18.061332 30194 net.cpp:399] lstm1_W_xc_x_slice -> W_xc_x_1
I0720 14:42:18.061426 30194 net.cpp:141] Setting up lstm1_W_xc_x_slice
I0720 14:42:18.061439 30194 net.cpp:148] Top shape: 1 1 4000 (4000)
I0720 14:42:18.061442 30194 net.cpp:156] Memory required for data: 42016
I0720 14:42:18.061446 30194 layer_factory.hpp:77] Creating layer lstm1_h_conted_0
I0720 14:42:18.061466 30194 net.cpp:91] Creating Layer lstm1_h_conted_0
I0720 14:42:18.061472 30194 net.cpp:425] lstm1_h_conted_0 <- h_0
I0720 14:42:18.061478 30194 net.cpp:425] lstm1_h_conted_0 <- cont_1_lstm1_cont_slice_0_split_0
I0720 14:42:18.061486 30194 net.cpp:399] lstm1_h_conted_0 -> h_conted_0
I0720 14:42:18.062503 30194 net.cpp:141] Setting up lstm1_h_conted_0
I0720 14:42:18.062517 30194 net.cpp:148] Top shape: 1 1 1000 (1000)
I0720 14:42:18.062522 30194 net.cpp:156] Memory required for data: 46016
I0720 14:42:18.062527 30194 layer_factory.hpp:77] Creating layer lstm1_transform_1
I0720 14:42:18.062539 30194 net.cpp:91] Creating Layer lstm1_transform_1
I0720 14:42:18.062544 30194 net.cpp:425] lstm1_transform_1 <- h_conted_0
I0720 14:42:18.062556 30194 net.cpp:399] lstm1_transform_1 -> W_hc_h_0
I0720 14:42:18.071521 30204 net.cpp:141] Setting up conv1
I0720 14:42:18.071568 30204 net.cpp:148] Top shape: 10 96 55 55 (2904000)
I0720 14:42:18.071574 30204 net.cpp:156] Memory required for data: 17799480
I0720 14:42:18.071596 30204 layer_factory.hpp:77] Creating layer relu1
I0720 14:42:18.071614 30204 net.cpp:91] Creating Layer relu1
I0720 14:42:18.071621 30204 net.cpp:425] relu1 <- conv1
I0720 14:42:18.071630 30204 net.cpp:386] relu1 -> conv1 (in-place)
I0720 14:42:18.073182 30204 net.cpp:141] Setting up relu1
I0720 14:42:18.073204 30204 net.cpp:148] Top shape: 10 96 55 55 (2904000)
I0720 14:42:18.073210 30204 net.cpp:156] Memory required for data: 29415480
I0720 14:42:18.073215 30204 layer_factory.hpp:77] Creating layer pool1
I0720 14:42:18.073228 30204 net.cpp:91] Creating Layer pool1
I0720 14:42:18.073235 30204 net.cpp:425] pool1 <- conv1
I0720 14:42:18.073243 30204 net.cpp:399] pool1 -> pool1
I0720 14:42:18.073325 30204 net.cpp:141] Setting up pool1
I0720 14:42:18.073335 30204 net.cpp:148] Top shape: 10 96 27 27 (699840)
I0720 14:42:18.073340 30204 net.cpp:156] Memory required for data: 32214840
I0720 14:42:18.073344 30204 layer_factory.hpp:77] Creating layer norm1
I0720 14:42:18.073360 30204 net.cpp:91] Creating Layer norm1
I0720 14:42:18.073365 30204 net.cpp:425] norm1 <- pool1
I0720 14:42:18.073374 30204 net.cpp:399] norm1 -> norm1
I0720 14:42:18.074152 30204 net.cpp:141] Setting up norm1
I0720 14:42:18.074167 30204 net.cpp:148] Top shape: 10 96 27 27 (699840)
I0720 14:42:18.074172 30204 net.cpp:156] Memory required for data: 35014200
I0720 14:42:18.074177 30204 layer_factory.hpp:77] Creating layer conv2
I0720 14:42:18.074190 30204 net.cpp:91] Creating Layer conv2
I0720 14:42:18.074196 30204 net.cpp:425] conv2 <- norm1
I0720 14:42:18.074203 30204 net.cpp:399] conv2 -> conv2
I0720 14:42:18.078523 30204 net.cpp:141] Setting up conv2
I0720 14:42:18.078548 30204 net.cpp:148] Top shape: 10 256 27 27 (1866240)
I0720 14:42:18.078554 30204 net.cpp:156] Memory required for data: 42479160
I0720 14:42:18.078567 30204 layer_factory.hpp:77] Creating layer relu2
I0720 14:42:18.078577 30204 net.cpp:91] Creating Layer relu2
I0720 14:42:18.078583 30204 net.cpp:425] relu2 <- conv2
I0720 14:42:18.078588 30204 net.cpp:386] relu2 -> conv2 (in-place)
I0720 14:42:18.079293 30204 net.cpp:141] Setting up relu2
I0720 14:42:18.079305 30204 net.cpp:148] Top shape: 10 256 27 27 (1866240)
I0720 14:42:18.079310 30204 net.cpp:156] Memory required for data: 49944120
I0720 14:42:18.079315 30204 layer_factory.hpp:77] Creating layer pool2
I0720 14:42:18.079324 30204 net.cpp:91] Creating Layer pool2
I0720 14:42:18.079329 30204 net.cpp:425] pool2 <- conv2
I0720 14:42:18.079339 30204 net.cpp:399] pool2 -> pool2
I0720 14:42:18.079391 30204 net.cpp:141] Setting up pool2
I0720 14:42:18.079401 30204 net.cpp:148] Top shape: 10 256 13 13 (432640)
I0720 14:42:18.079404 30204 net.cpp:156] Memory required for data: 51674680
I0720 14:42:18.079409 30204 layer_factory.hpp:77] Creating layer norm2
I0720 14:42:18.079422 30204 net.cpp:91] Creating Layer norm2
I0720 14:42:18.079427 30204 net.cpp:425] norm2 <- pool2
I0720 14:42:18.079437 30204 net.cpp:399] norm2 -> norm2
I0720 14:42:18.079685 30204 net.cpp:141] Setting up norm2
I0720 14:42:18.079697 30204 net.cpp:148] Top shape: 10 256 13 13 (432640)
I0720 14:42:18.079701 30204 net.cpp:156] Memory required for data: 53405240
I0720 14:42:18.079706 30204 layer_factory.hpp:77] Creating layer conv3
I0720 14:42:18.079720 30204 net.cpp:91] Creating Layer conv3
I0720 14:42:18.079725 30204 net.cpp:425] conv3 <- norm2
I0720 14:42:18.079735 30204 net.cpp:399] conv3 -> conv3
I0720 14:42:18.084236 30204 net.cpp:141] Setting up conv3
I0720 14:42:18.084259 30204 net.cpp:148] Top shape: 10 384 13 13 (648960)
I0720 14:42:18.084264 30204 net.cpp:156] Memory required for data: 56001080
I0720 14:42:18.084280 30204 layer_factory.hpp:77] Creating layer relu3
I0720 14:42:18.084291 30204 net.cpp:91] Creating Layer relu3
I0720 14:42:18.084296 30204 net.cpp:425] relu3 <- conv3
I0720 14:42:18.084303 30204 net.cpp:386] relu3 -> conv3 (in-place)
I0720 14:42:18.085321 30204 net.cpp:141] Setting up relu3
I0720 14:42:18.085338 30204 net.cpp:148] Top shape: 10 384 13 13 (648960)
I0720 14:42:18.085343 30204 net.cpp:156] Memory required for data: 58596920
I0720 14:42:18.085348 30204 layer_factory.hpp:77] Creating layer conv4
I0720 14:42:18.085361 30204 net.cpp:91] Creating Layer conv4
I0720 14:42:18.085366 30204 net.cpp:425] conv4 <- conv3
I0720 14:42:18.085376 30204 net.cpp:399] conv4 -> conv4
I0720 14:42:18.090425 30204 net.cpp:141] Setting up conv4
I0720 14:42:18.090450 30204 net.cpp:148] Top shape: 10 384 13 13 (648960)
I0720 14:42:18.090456 30204 net.cpp:156] Memory required for data: 61192760
I0720 14:42:18.090466 30204 layer_factory.hpp:77] Creating layer relu4
I0720 14:42:18.090477 30204 net.cpp:91] Creating Layer relu4
I0720 14:42:18.090482 30204 net.cpp:425] relu4 <- conv4
I0720 14:42:18.090492 30204 net.cpp:386] relu4 -> conv4 (in-place)
I0720 14:42:18.091183 30204 net.cpp:141] Setting up relu4
I0720 14:42:18.091197 30204 net.cpp:148] Top shape: 10 384 13 13 (648960)
I0720 14:42:18.091200 30204 net.cpp:156] Memory required for data: 63788600
I0720 14:42:18.091205 30204 layer_factory.hpp:77] Creating layer conv5
I0720 14:42:18.091218 30204 net.cpp:91] Creating Layer conv5
I0720 14:42:18.091223 30204 net.cpp:425] conv5 <- conv4
I0720 14:42:18.091231 30204 net.cpp:399] conv5 -> conv5
I0720 14:42:18.096832 30204 net.cpp:141] Setting up conv5
I0720 14:42:18.096855 30204 net.cpp:148] Top shape: 10 256 13 13 (432640)
I0720 14:42:18.096861 30204 net.cpp:156] Memory required for data: 65519160
I0720 14:42:18.096879 30204 layer_factory.hpp:77] Creating layer relu5
I0720 14:42:18.096889 30204 net.cpp:91] Creating Layer relu5
I0720 14:42:18.096895 30204 net.cpp:425] relu5 <- conv5
I0720 14:42:18.096904 30204 net.cpp:386] relu5 -> conv5 (in-place)
I0720 14:42:18.097625 30204 net.cpp:141] Setting up relu5
I0720 14:42:18.097638 30204 net.cpp:148] Top shape: 10 256 13 13 (432640)
I0720 14:42:18.097643 30204 net.cpp:156] Memory required for data: 67249720
I0720 14:42:18.097648 30204 layer_factory.hpp:77] Creating layer pool5
I0720 14:42:18.097661 30204 net.cpp:91] Creating Layer pool5
I0720 14:42:18.097666 30204 net.cpp:425] pool5 <- conv5
I0720 14:42:18.097672 30204 net.cpp:399] pool5 -> pool5
I0720 14:42:18.097734 30204 net.cpp:141] Setting up pool5
I0720 14:42:18.097743 30204 net.cpp:148] Top shape: 10 256 6 6 (92160)
I0720 14:42:18.097748 30204 net.cpp:156] Memory required for data: 67618360
I0720 14:42:18.097753 30204 layer_factory.hpp:77] Creating layer fc6
I0720 14:42:18.097764 30204 net.cpp:91] Creating Layer fc6
I0720 14:42:18.097769 30204 net.cpp:425] fc6 <- pool5
I0720 14:42:18.097779 30204 net.cpp:399] fc6 -> fc6
I0720 14:42:18.159562 30194 net.cpp:141] Setting up lstm1_transform_1
I0720 14:42:18.159611 30194 net.cpp:148] Top shape: 1 1 4000 (4000)
I0720 14:42:18.159617 30194 net.cpp:156] Memory required for data: 62016
I0720 14:42:18.159638 30194 layer_factory.hpp:77] Creating layer lstm1_gate_input_1
I0720 14:42:18.159657 30194 net.cpp:91] Creating Layer lstm1_gate_input_1
I0720 14:42:18.159663 30194 net.cpp:425] lstm1_gate_input_1 <- W_hc_h_0
I0720 14:42:18.159672 30194 net.cpp:425] lstm1_gate_input_1 <- W_xc_x_1
I0720 14:42:18.159682 30194 net.cpp:399] lstm1_gate_input_1 -> gate_input_1
I0720 14:42:18.159749 30194 net.cpp:141] Setting up lstm1_gate_input_1
I0720 14:42:18.159759 30194 net.cpp:148] Top shape: 1 1 4000 (4000)
I0720 14:42:18.159764 30194 net.cpp:156] Memory required for data: 78016
I0720 14:42:18.159767 30194 layer_factory.hpp:77] Creating layer lstm1_unit_1
I0720 14:42:18.159776 30194 net.cpp:91] Creating Layer lstm1_unit_1
I0720 14:42:18.159780 30194 net.cpp:425] lstm1_unit_1 <- c_0
I0720 14:42:18.159786 30194 net.cpp:425] lstm1_unit_1 <- gate_input_1
I0720 14:42:18.159791 30194 net.cpp:425] lstm1_unit_1 <- cont_1_lstm1_cont_slice_0_split_1
I0720 14:42:18.159801 30194 net.cpp:399] lstm1_unit_1 -> c_1
I0720 14:42:18.159809 30194 net.cpp:399] lstm1_unit_1 -> h_1
I0720 14:42:18.159868 30194 net.cpp:141] Setting up lstm1_unit_1
I0720 14:42:18.159878 30194 net.cpp:148] Top shape: 1 1 1000 (1000)
I0720 14:42:18.159883 30194 net.cpp:148] Top shape: 1 1 1000 (1000)
I0720 14:42:18.159886 30194 net.cpp:156] Memory required for data: 86016
I0720 14:42:18.159891 30194 layer_factory.hpp:77] Creating layer lstm1_
I0720 14:42:18.159899 30194 net.cpp:91] Creating Layer lstm1_
I0720 14:42:18.159904 30194 net.cpp:425] lstm1_ <- c_1
I0720 14:42:18.159909 30194 net.cpp:399] lstm1_ -> c_T
I0720 14:42:18.159942 30194 net.cpp:141] Setting up lstm1_
I0720 14:42:18.159950 30194 net.cpp:148] Top shape: 1 1 1000 (1000)
I0720 14:42:18.159955 30194 net.cpp:156] Memory required for data: 90016
I0720 14:42:18.159958 30194 layer_factory.hpp:77] Creating layer lstm1_h_concat
I0720 14:42:18.159967 30194 net.cpp:91] Creating Layer lstm1_h_concat
I0720 14:42:18.159971 30194 net.cpp:425] lstm1_h_concat <- h_1
I0720 14:42:18.159981 30194 net.cpp:399] lstm1_h_concat -> h
I0720 14:42:18.160023 30194 net.cpp:141] Setting up lstm1_h_concat
I0720 14:42:18.160032 30194 net.cpp:148] Top shape: 1 1 1000 (1000)
I0720 14:42:18.160035 30194 net.cpp:156] Memory required for data: 94016
I0720 14:42:18.160039 30194 layer_factory.hpp:77] Creating layer h_pseudoloss
I0720 14:42:18.160055 30194 net.cpp:91] Creating Layer h_pseudoloss
I0720 14:42:18.160060 30194 net.cpp:425] h_pseudoloss <- h
I0720 14:42:18.160066 30194 net.cpp:399] h_pseudoloss -> h_pseudoloss
I0720 14:42:18.160142 30194 net.cpp:141] Setting up h_pseudoloss
…
I0720 14:42:18.160250 30194 net.cpp:219] lstm1_ does not need backward computation.
I0720 14:42:18.160254 30194 net.cpp:261] This network produces output c_T
I0720 14:42:18.160259 30194 net.cpp:261] This network produces output h_pseudoloss
I0720 14:42:18.160277 30194 net.cpp:274] Network initialization done.
I0720 14:42:18.160333 30194 recurrent_layer.cpp:150] Adding parameter 0: W_xc
I0720 14:42:18.160339 30194 recurrent_layer.cpp:150] Adding parameter 1: b_c
I0720 14:42:18.160343 30194 recurrent_layer.cpp:150] Adding parameter 2: W_hc
I0720 14:42:18.160449 30194 net.cpp:141] Setting up lstm1
I0720 14:42:18.160461 30194 net.cpp:148] Top shape: 1 1 1000 (1000)
I0720 14:42:18.160465 30194 net.cpp:156] Memory required for data: 26408
I0720 14:42:18.160477 30194 layer_factory.hpp:77] Creating layer concat
I0720 14:42:18.160486 30194 net.cpp:91] Creating Layer concat
I0720 14:42:18.160491 30194 net.cpp:425] concat <- lstm1
I0720 14:42:18.160498 30194 net.cpp:425] concat <- embedded_input_sentence
I0720 14:42:18.160503 30194 net.cpp:425] concat <- reshaped_stage_indicator
I0720 14:42:18.160511 30194 net.cpp:399] concat -> lstm1_video_sequence
I0720 14:42:18.160542 30194 net.cpp:141] Setting up concat
I0720 14:42:18.160549 30194 net.cpp:148] Top shape: 1 1 1501 (1501)
I0720 14:42:18.160553 30194 net.cpp:156] Memory required for data: 32412
I0720 14:42:18.160558 30194 layer_factory.hpp:77] Creating layer lstm2
I0720 14:42:18.160569 30194 net.cpp:91] Creating Layer lstm2
I0720 14:42:18.160574 30194 net.cpp:425] lstm2 <- lstm1_video_sequence
I0720 14:42:18.160580 30194 net.cpp:425] lstm2 <- cont_sentence_input_1_split_1
I0720 14:42:18.160588 30194 net.cpp:399] lstm2 -> lstm2
I0720 14:42:18.160596 30194 recurrent_layer.cpp:20] Initializing recurrent layer: assuming input batch contains 1 timesteps of 1 independent streams.
I0720 14:42:18.160840 30194 net.cpp:49] Initializing net from parameters: 
layer {
  name: "lstm2_"
  type: "Input"
  top: "x"
  top: "cont"
  input_param {
    shape {
      dim: 1
      dim: 1
      dim: 1501
    }
    shape {
      dim: 1
      dim: 1
    }
  }
}
layer {
  name: "lstm2_"
  type: "Input"
  top: "c_0"
  top: "h_0"
  input_param {
    shape {
      dim: 1
      dim: 1
      dim: 1000
    }
    shape {
      dim: 1
      dim: 1
      dim: 1000
    }
  }
}
layer {
  name: "lstm2_cont_slice"
  type: "Slice"
  bottom: "cont"
  top: "cont_1"
  slice_param {
    axis: 0
  }
}
layer {
  name: "lstm2_x_transform"
  type: "InnerProduct"
  bottom: "x"
  top: "W_xc_x"
  param {
    name: "W_xc"
  }
  param {
    name: "b_c"
  }
  propagate_down: true
  inner_product_param {
    num_output: 4000
    bias_term: true
    weight_filler {
      type: "uniform"
      min: -0.08
      max: 0.08
    }
    bias_filler {
      type: "constant"
      value: 0
    }
    axis: 2
  }
}
layer {
  name: "lstm2_W_xc_x_slice"
  type: "Slice"
  bottom: "W_xc_x"
  top: "W_xc_x_1"
  slice_param {
    axis: 0
  }
}
layer {
  name: "lstm2_h_conted_0"
  type: "Scale"
  bottom: "h_0"
  bottom: "cont_1"
  top: "h_conted_0"
  scale_param {
    axis: 0
  }
}
layer {
  name: "lstm2_transform_1"
  type: "InnerProduct"
  bottom: "h_conted_0"
  top: "W_hc_h_0"
  param {
    name: "W_hc"
  }
  inner_product_param {
    num_output: 4000
    bias_term: false
    weight_filler {
      type: "uniform"
      min: -0.08
      max: 0.08
    }
    axis: 2
  }
}
layer {
  name: "lstm2_gate_input_1"
  type: "Eltwise"
  bottom: "W_hc_h_0"
  bottom: "W_xc_x_1"
  top: "gate_input_1"
  eltwise_param {
    operation: SUM
  }
}
layer {
  name: "lstm2_unit_1"
  type: "LSTMUnit"
  bottom: "c_0"
  bottom: "gate_input_1"
  bottom: "cont_1"
  top: "c_1"
  top: "h_1"
}
layer {
  name: "lstm2_"
  type: "Split"
  bottom: "c_1"
  top: "c_T"
}
layer {
  name: "lstm2_h_concat"
  type: "Concat"
  bottom: "h_1"
  top: "h"
  concat_param {
    axis: 0
  }
}
layer {
  name: "h_pseudoloss"
  type: "Reduction"
  bottom: "h"
  top: "h_pseudoloss"
  loss_weight: 1
}
I0720 14:42:18.160923 30194 layer_factory.hpp:77] Creating layer lstm2_
I0720 14:42:18.160933 30194 net.cpp:91] Creating Layer lstm2_
I0720 14:42:18.160939 30194 net.cpp:399] lstm2_ -> x
I0720 14:42:18.160950 30194 net.cpp:399] lstm2_ -> cont
I0720 14:42:18.161001 30194 net.cpp:141] Setting up lstm2_
I0720 14:42:18.161010 30194 net.cpp:148] Top shape: 1 1 1501 (1501)
I0720 14:42:18.161015 30194 net.cpp:148] Top shape: 1 1 (1)
I0720 14:42:18.161020 30194 net.cpp:156] Memory required for data: 6008
I0720 14:42:18.161023 30194 layer_factory.hpp:77] Creating layer lstm2_
I0720 14:42:18.161032 30194 net.cpp:91] Creating Layer lstm2_
I0720 14:42:18.161037 30194 net.cpp:399] lstm2_ -> c_0
I0720 14:42:18.161051 30194 net.cpp:399] lstm2_ -> h_0
I0720 14:42:18.161098 30194 net.cpp:141] Setting up lstm2_
I0720 14:42:18.161106 30194 net.cpp:148] Top shape: 1 1 1000 (1000)
I0720 14:42:18.161111 30194 net.cpp:148] Top shape: 1 1 1000 (1000)
I0720 14:42:18.161115 30194 net.cpp:156] Memory required for data: 14008
I0720 14:42:18.161119 30194 layer_factory.hpp:77] Creating layer lstm2_cont_slice
I0720 14:42:18.161130 30194 net.cpp:91] Creating Layer lstm2_cont_slice
I0720 14:42:18.161135 30194 net.cpp:425] lstm2_cont_slice <- cont
I0720 14:42:18.161141 30194 net.cpp:399] lstm2_cont_slice -> cont_1
I0720 14:42:18.161172 30194 net.cpp:141] Setting up lstm2_cont_slice
I0720 14:42:18.161181 30194 net.cpp:148] Top shape: 1 1 (1)
I0720 14:42:18.161185 30194 net.cpp:156] Memory required for data: 14012
I0720 14:42:18.161190 30194 layer_factory.hpp:77] Creating layer cont_1_lstm2_cont_slice_0_split
I0720 14:42:18.161195 30194 net.cpp:91] Creating Layer cont_1_lstm2_cont_slice_0_split
I0720 14:42:18.161200 30194 net.cpp:425] cont_1_lstm2_cont_slice_0_split <- cont_1
I0720 14:42:18.161208 30194 net.cpp:399] cont_1_lstm2_cont_slice_0_split -> cont_1_lstm2_cont_slice_0_split_0
I0720 14:42:18.161216 30194 net.cpp:399] cont_1_lstm2_cont_slice_0_split -> cont_1_lstm2_cont_slice_0_split_1
I0720 14:42:18.161260 30194 net.cpp:141] Setting up cont_1_lstm2_cont_slice_0_split
I0720 14:42:18.161268 30194 net.cpp:148] Top shape: 1 1 (1)
I0720 14:42:18.161273 30194 net.cpp:148] Top shape: 1 1 (1)
I0720 14:42:18.161278 30194 net.cpp:156] Memory required for data: 14020
I0720 14:42:18.161281 30194 layer_factory.hpp:77] Creating layer lstm2_x_transform
I0720 14:42:18.161293 30194 net.cpp:91] Creating Layer lstm2_x_transform
I0720 14:42:18.161298 30194 net.cpp:425] lstm2_x_transform <- x
I0720 14:42:18.161305 30194 net.cpp:399] lstm2_x_transform -> W_xc_x
I0720 14:42:18.197999 30204 net.cpp:141] Setting up fc6
I0720 14:42:18.198047 30204 net.cpp:148] Top shape: 10 4096 (40960)
I0720 14:42:18.198053 30204 net.cpp:156] Memory required for data: 67782200
I0720 14:42:18.198067 30204 layer_factory.hpp:77] Creating layer relu6
I0720 14:42:18.198086 30204 net.cpp:91] Creating Layer relu6
I0720 14:42:18.198091 30204 net.cpp:425] relu6 <- fc6
I0720 14:42:18.198101 30204 net.cpp:386] relu6 -> fc6 (in-place)
I0720 14:42:18.198407 30204 net.cpp:141] Setting up relu6
I0720 14:42:18.198420 30204 net.cpp:148] Top shape: 10 4096 (40960)
I0720 14:42:18.198423 30204 net.cpp:156] Memory required for data: 67946040
I0720 14:42:18.198428 30204 layer_factory.hpp:77] Creating layer drop6
I0720 14:42:18.198437 30204 net.cpp:91] Creating Layer drop6
I0720 14:42:18.198442 30204 net.cpp:425] drop6 <- fc6
I0720 14:42:18.198451 30204 net.cpp:386] drop6 -> fc6 (in-place)
I0720 14:42:18.198496 30204 net.cpp:141] Setting up drop6
I0720 14:42:18.198505 30204 net.cpp:148] Top shape: 10 4096 (40960)
I0720 14:42:18.198509 30204 net.cpp:156] Memory required for data: 68109880
I0720 14:42:18.198513 30204 layer_factory.hpp:77] Creating layer fc7
I0720 14:42:18.198528 30204 net.cpp:91] Creating Layer fc7
I0720 14:42:18.198532 30204 net.cpp:425] fc7 <- fc6
I0720 14:42:18.198539 30204 net.cpp:399] fc7 -> fc7
I0720 14:42:18.228237 30194 net.cpp:141] Setting up lstm2_x_transform
I0720 14:42:18.228281 30194 net.cpp:148] Top shape: 1 1 4000 (4000)
I0720 14:42:18.228286 30194 net.cpp:156] Memory required for data: 30020
I0720 14:42:18.228308 30194 layer_factory.hpp:77] Creating layer lstm2_W_xc_x_slice
I0720 14:42:18.228323 30194 net.cpp:91] Creating Layer lstm2_W_xc_x_slice
I0720 14:42:18.228330 30194 net.cpp:425] lstm2_W_xc_x_slice <- W_xc_x
I0720 14:42:18.228341 30194 net.cpp:399] lstm2_W_xc_x_slice -> W_xc_x_1
I0720 14:42:18.228384 30194 net.cpp:141] Setting up lstm2_W_xc_x_slice
I0720 14:42:18.228392 30194 net.cpp:148] Top shape: 1 1 4000 (4000)
I0720 14:42:18.228396 30194 net.cpp:156] Memory required for data: 46020
I0720 14:42:18.228401 30194 layer_factory.hpp:77] Creating layer lstm2_h_conted_0
I0720 14:42:18.228411 30194 net.cpp:91] Creating Layer lstm2_h_conted_0
I0720 14:42:18.228416 30194 net.cpp:425] lstm2_h_conted_0 <- h_0
I0720 14:42:18.228422 30194 net.cpp:425] lstm2_h_conted_0 <- cont_1_lstm2_cont_slice_0_split_0
I0720 14:42:18.228433 30194 net.cpp:399] lstm2_h_conted_0 -> h_conted_0
I0720 14:42:18.228521 30194 net.cpp:141] Setting up lstm2_h_conted_0
I0720 14:42:18.228529 30194 net.cpp:148] Top shape: 1 1 1000 (1000)
I0720 14:42:18.228533 30194 net.cpp:156] Memory required for data: 50020
I0720 14:42:18.228538 30194 layer_factory.hpp:77] Creating layer lstm2_transform_1
I0720 14:42:18.228552 30194 net.cpp:91] Creating Layer lstm2_transform_1
I0720 14:42:18.228557 30194 net.cpp:425] lstm2_transform_1 <- h_conted_0
I0720 14:42:18.228565 30194 net.cpp:399] lstm2_transform_1 -> W_hc_h_0
I0720 14:42:18.246034 30204 net.cpp:141] Setting up fc7
I0720 14:42:18.246076 30204 net.cpp:148] Top shape: 10 4096 (40960)
I0720 14:42:18.246083 30204 net.cpp:156] Memory required for data: 68273720
I0720 14:42:18.246094 30204 layer_factory.hpp:77] Creating layer relu7
I0720 14:42:18.246109 30204 net.cpp:91] Creating Layer relu7
I0720 14:42:18.246115 30204 net.cpp:425] relu7 <- fc7
I0720 14:42:18.246127 30204 net.cpp:386] relu7 -> fc7 (in-place)
I0720 14:42:18.253038 30204 net.cpp:141] Setting up relu7
I0720 14:42:18.253058 30204 net.cpp:148] Top shape: 10 4096 (40960)
I0720 14:42:18.253063 30204 net.cpp:156] Memory required for data: 68437560
I0720 14:42:18.253068 30204 layer_factory.hpp:77] Creating layer drop7
I0720 14:42:18.253079 30204 net.cpp:91] Creating Layer drop7
I0720 14:42:18.253084 30204 net.cpp:425] drop7 <- fc7
I0720 14:42:18.253098 30204 net.cpp:386] drop7 -> fc7 (in-place)
I0720 14:42:18.253141 30204 net.cpp:141] Setting up drop7
I0720 14:42:18.253150 30204 net.cpp:148] Top shape: 10 4096 (40960)
I0720 14:42:18.253154 30204 net.cpp:156] Memory required for data: 68601400
I0720 14:42:18.253159 30204 layer_factory.hpp:77] Creating layer fc8
I0720 14:42:18.253167 30204 net.cpp:91] Creating Layer fc8
I0720 14:42:18.253171 30204 net.cpp:425] fc8 <- fc7
I0720 14:42:18.253178 30204 net.cpp:399] fc8 -> fc8
I0720 14:42:18.265184 30204 net.cpp:141] Setting up fc8
I0720 14:42:18.265226 30204 net.cpp:148] Top shape: 10 1000 (10000)
I0720 14:42:18.265233 30204 net.cpp:156] Memory required for data: 68641400
I0720 14:42:18.265245 30204 layer_factory.hpp:77] Creating layer prob
I0720 14:42:18.265262 30204 net.cpp:91] Creating Layer prob
I0720 14:42:18.265269 30204 net.cpp:425] prob <- fc8
I0720 14:42:18.265277 30204 net.cpp:399] prob -> prob
I0720 14:42:18.265687 30204 net.cpp:141] Setting up prob
I0720 14:42:18.265699 30204 net.cpp:148] Top shape: 10 1000 (10000)
I0720 14:42:18.265704 30204 net.cpp:156] Memory required for data: 68681400
I0720 14:42:18.265708 30204 net.cpp:219] prob does not need backward computation.
I0720 14:42:18.265713 30204 net.cpp:219] fc8 does not need backward computation.
I0720 14:42:18.265717 30204 net.cpp:219] drop7 does not need backward computation.
I0720 14:42:18.265722 30204 net.cpp:219] relu7 does not need backward computation.
…
I0720 14:42:18.265786 30204 net.cpp:219] norm1 does not need backward computation.
I0720 14:42:18.265791 30204 net.cpp:219] pool1 does not need backward computation.
I0720 14:42:18.265795 30204 net.cpp:219] relu1 does not need backward computation.
I0720 14:42:18.265799 30204 net.cpp:219] conv1 does not need backward computation.
I0720 14:42:18.265804 30204 net.cpp:219] data does not need backward computation.
I0720 14:42:18.265806 30204 net.cpp:261] This network produces output prob
I0720 14:42:18.265827 30204 net.cpp:274] Network initialization done.
I0720 14:42:18.270639 30194 net.cpp:141] Setting up lstm2_transform_1
I0720 14:42:18.270668 30194 net.cpp:148] Top shape: 1 1 4000 (4000)
I0720 14:42:18.270674 30194 net.cpp:156] Memory required for data: 66020
I0720 14:42:18.270694 30194 layer_factory.hpp:77] Creating layer lstm2_gate_input_1
I0720 14:42:18.270712 30194 net.cpp:91] Creating Layer lstm2_gate_input_1
I0720 14:42:18.270720 30194 net.cpp:425] lstm2_gate_input_1 <- W_hc_h_0
I0720 14:42:18.270726 30194 net.cpp:425] lstm2_gate_input_1 <- W_xc_x_1
I0720 14:42:18.270733 30194 net.cpp:399] lstm2_gate_input_1 -> gate_input_1
I0720 14:42:18.270783 30194 net.cpp:141] Setting up lstm2_gate_input_1
I0720 14:42:18.270792 30194 net.cpp:148] Top shape: 1 1 4000 (4000)
I0720 14:42:18.270797 30194 net.cpp:156] Memory required for data: 82020
I0720 14:42:18.270800 30194 layer_factory.hpp:77] Creating layer lstm2_unit_1
I0720 14:42:18.270808 30194 net.cpp:91] Creating Layer lstm2_unit_1
I0720 14:42:18.270813 30194 net.cpp:425] lstm2_unit_1 <- c_0
I0720 14:42:18.270818 30194 net.cpp:425] lstm2_unit_1 <- gate_input_1
I0720 14:42:18.270823 30194 net.cpp:425] lstm2_unit_1 <- cont_1_lstm2_cont_slice_0_split_1
I0720 14:42:18.270833 30194 net.cpp:399] lstm2_unit_1 -> c_1
I0720 14:42:18.270841 30194 net.cpp:399] lstm2_unit_1 -> h_1
I0720 14:42:18.270902 30194 net.cpp:141] Setting up lstm2_unit_1
I0720 14:42:18.270911 30194 net.cpp:148] Top shape: 1 1 1000 (1000)
I0720 14:42:18.270916 30194 net.cpp:148] Top shape: 1 1 1000 (1000)
I0720 14:42:18.270920 30194 net.cpp:156] Memory required for data: 90020
I0720 14:42:18.270925 30194 layer_factory.hpp:77] Creating layer lstm2_
I0720 14:42:18.270932 30194 net.cpp:91] Creating Layer lstm2_
I0720 14:42:18.270936 30194 net.cpp:425] lstm2_ <- c_1
I0720 14:42:18.270943 30194 net.cpp:399] lstm2_ -> c_T
I0720 14:42:18.270975 30194 net.cpp:141] Setting up lstm2_
I0720 14:42:18.270983 30194 net.cpp:148] Top shape: 1 1 1000 (1000)
I0720 14:42:18.270987 30194 net.cpp:156] Memory required for data: 94020
I0720 14:42:18.270992 30194 layer_factory.hpp:77] Creating layer lstm2_h_concat
I0720 14:42:18.271000 30194 net.cpp:91] Creating Layer lstm2_h_concat
I0720 14:42:18.271005 30194 net.cpp:425] lstm2_h_concat <- h_1
I0720 14:42:18.271011 30194 net.cpp:399] lstm2_h_concat -> h
I0720 14:42:18.271044 30194 net.cpp:141] Setting up lstm2_h_concat
I0720 14:42:18.271051 30194 net.cpp:148] Top shape: 1 1 1000 (1000)
I0720 14:42:18.271055 30194 net.cpp:156] Memory required for data: 98020
I0720 14:42:18.271059 30194 layer_factory.hpp:77] Creating layer h_pseudoloss
I0720 14:42:18.271070 30194 net.cpp:91] Creating Layer h_pseudoloss
I0720 14:42:18.271075 30194 net.cpp:425] h_pseudoloss <- h
I0720 14:42:18.271081 30194 net.cpp:399] h_pseudoloss -> h_pseudoloss
I0720 14:42:18.271160 30194 net.cpp:141] Setting up h_pseudoloss
…
