…
Java HotSpot(TM) 64-Bit Server VM warning: You have loaded library /tmp/cvld3070462438762066744/libopencv_java310.xine1.so which might have disabled stack guard. The VM will try to fix the stack guard now.
It's highly recommended that you fix the library with 'execstack -c <libfile>', or link it with '-z noexecstack'.
WARNING: Logging before InitGoogleLogging() is written to STDERR
I0722 15:59:32.999148 16482 net.cpp:49] Initializing net from parameters: 
name: "CaffeNet"
state {
  phase: TEST
}
layer {
  name: "data"
  type: "Input"
  top: "data"
  input_param {
    shape {
      dim: 10
      dim: 3
      dim: 227
      dim: 227
    }
  }
}
layer {
  name: "conv1"
  type: "Convolution"
  bottom: "data"
  top: "conv1"
  convolution_param {
    num_output: 96
    kernel_size: 11
    stride: 4
  }
}
layer {
  name: "relu1"
  type: "ReLU"
  bottom: "conv1"
  top: "conv1"
}
layer {
  name: "pool1"
  type: "Pooling"
  bottom: "conv1"
  top: "pool1"
  pooling_param {
    pool: MAX
    kernel_size: 3
    stride: 2
  }
}
layer {
  name: "norm1"
  type: "LRN"
  bottom: "pool1"
  top: "norm1"
  lrn_param {
    local_size: 5
    alpha: 0.0001
    beta: 0.75
  }
}
layer {
  name: "conv2"
  type: "Convolution"
  bottom: "norm1"
  top: "conv2"
  convolution_param {
    num_output: 256
    pad: 2
    kernel_size: 5
    group: 2
  }
}
layer {
  name: "relu2"
  type: "ReLU"
  bottom: "conv2"
  top: "conv2"
}
layer {
  name: "pool2"
  type: "Pooling"
  bottom: "conv2"
  top: "pool2"
  pooling_param {
    pool: MAX
    kernel_size: 3
    stride: 2
  }
}
layer {
  name: "norm2"
  type: "LRN"
  bottom: "pool2"
  top: "norm2"
  lrn_param {
    local_size: 5
    alpha: 0.0001
    beta: 0.75
  }
}
layer {
  name: "conv3"
  type: "Convolution"
  bottom: "norm2"
  top: "conv3"
  convolution_param {
    num_output: 384
    pad: 1
    kernel_size: 3
  }
}
layer {
  name: "relu3"
  type: "ReLU"
  bottom: "conv3"
  top: "conv3"
}
layer {
  name: "conv4"
  type: "Convolution"
  bottom: "conv3"
  top: "conv4"
  convolution_param {
    num_output: 384
    pad: 1
    kernel_size: 3
    group: 2
  }
}
layer {
  name: "relu4"
  type: "ReLU"
  bottom: "conv4"
  top: "conv4"
}
layer {
  name: "conv5"
  type: "Convolution"
  bottom: "conv4"
  top: "conv5"
  convolution_param {
    num_output: 256
    pad: 1
    kernel_size: 3
    group: 2
  }
}
layer {
  name: "relu5"
  type: "ReLU"
  bottom: "conv5"
  top: "conv5"
}
layer {
  name: "pool5"
  type: "Pooling"
  bottom: "conv5"
  top: "pool5"
  pooling_param {
    pool: MAX
    kernel_size: 3
    stride: 2
  }
}
layer {
  name: "fc6"
  type: "InnerProduct"
  bottom: "pool5"
  top: "fc6"
  inner_product_param {
    num_output: 4096
  }
}
layer {
  name: "relu6"
  type: "ReLU"
  bottom: "fc6"
  top: "fc6"
}
layer {
  name: "drop6"
  type: "Dropout"
  bottom: "fc6"
  top: "fc6"
  dropout_param {
    dropout_ratio: 0.5
  }
}
layer {
  name: "fc7"
  type: "InnerProduct"
  bottom: "fc6"
  top: "fc7"
  inner_product_param {
    num_output: 4096
  }
}
layer {
  name: "relu7"
  type: "ReLU"
  bottom: "fc7"
  top: "fc7"
}
layer {
  name: "drop7"
  type: "Dropout"
  bottom: "fc7"
  top: "fc7"
  dropout_param {
    dropout_ratio: 0.5
  }
}
layer {
  name: "fc8"
  type: "InnerProduct"
  bottom: "fc7"
  top: "fc8"
  inner_product_param {
    num_output: 1000
  }
}
layer {
  name: "prob"
  type: "Softmax"
  bottom: "fc8"
  top: "prob"
}
I0722 15:59:32.999343 16482 layer_factory.hpp:77] Creating layer data
I0722 15:59:32.999367 16482 net.cpp:91] Creating Layer data
I0722 15:59:32.999377 16482 net.cpp:399] data -> data
I0722 15:59:33.510540 16482 net.cpp:141] Setting up data
I0722 15:59:33.510668 16482 net.cpp:148] Top shape: 10 3 227 227 (1545870)
I0722 15:59:33.510677 16482 net.cpp:156] Memory required for data: 6183480
I0722 15:59:33.510713 16482 layer_factory.hpp:77] Creating layer conv1
I0722 15:59:33.510746 16482 net.cpp:91] Creating Layer conv1
I0722 15:59:33.510756 16482 net.cpp:425] conv1 <- data
I0722 15:59:33.510771 16482 net.cpp:399] conv1 -> conv1
I0722 15:59:33.720525 16482 net.cpp:141] Setting up conv1
I0722 15:59:33.720587 16482 net.cpp:148] Top shape: 10 96 55 55 (2904000)
I0722 15:59:33.720594 16482 net.cpp:156] Memory required for data: 17799480
I0722 15:59:33.720625 16482 layer_factory.hpp:77] Creating layer relu1
I0722 15:59:33.720645 16482 net.cpp:91] Creating Layer relu1
I0722 15:59:33.720652 16482 net.cpp:425] relu1 <- conv1
I0722 15:59:33.720660 16482 net.cpp:386] relu1 -> conv1 (in-place)
I0722 15:59:33.721415 16482 net.cpp:141] Setting up relu1
I0722 15:59:33.721429 16482 net.cpp:148] Top shape: 10 96 55 55 (2904000)
I0722 15:59:33.721434 16482 net.cpp:156] Memory required for data: 29415480
I0722 15:59:33.721441 16482 layer_factory.hpp:77] Creating layer pool1
I0722 15:59:33.721454 16482 net.cpp:91] Creating Layer pool1
I0722 15:59:33.721459 16482 net.cpp:425] pool1 <- conv1
I0722 15:59:33.721468 16482 net.cpp:399] pool1 -> pool1
I0722 15:59:33.721576 16482 net.cpp:141] Setting up pool1
I0722 15:59:33.721587 16482 net.cpp:148] Top shape: 10 96 27 27 (699840)
I0722 15:59:33.721592 16482 net.cpp:156] Memory required for data: 32214840
I0722 15:59:33.721597 16482 layer_factory.hpp:77] Creating layer norm1
I0722 15:59:33.721616 16482 net.cpp:91] Creating Layer norm1
I0722 15:59:33.721621 16482 net.cpp:425] norm1 <- pool1
I0722 15:59:33.721628 16482 net.cpp:399] norm1 -> norm1
I0722 15:59:33.722437 16482 net.cpp:141] Setting up norm1
I0722 15:59:33.722451 16482 net.cpp:148] Top shape: 10 96 27 27 (699840)
I0722 15:59:33.722456 16482 net.cpp:156] Memory required for data: 35014200
I0722 15:59:33.722462 16482 layer_factory.hpp:77] Creating layer conv2
I0722 15:59:33.722479 16482 net.cpp:91] Creating Layer conv2
I0722 15:59:33.722484 16482 net.cpp:425] conv2 <- norm1
I0722 15:59:33.722492 16482 net.cpp:399] conv2 -> conv2
I0722 15:59:33.730737 16482 net.cpp:141] Setting up conv2
I0722 15:59:33.730778 16482 net.cpp:148] Top shape: 10 256 27 27 (1866240)
I0722 15:59:33.730785 16482 net.cpp:156] Memory required for data: 42479160
I0722 15:59:33.730808 16482 layer_factory.hpp:77] Creating layer relu2
I0722 15:59:33.730830 16482 net.cpp:91] Creating Layer relu2
I0722 15:59:33.730842 16482 net.cpp:425] relu2 <- conv2
I0722 15:59:33.730854 16482 net.cpp:386] relu2 -> conv2 (in-place)
I0722 15:59:33.732187 16482 net.cpp:141] Setting up relu2
I0722 15:59:33.732206 16482 net.cpp:148] Top shape: 10 256 27 27 (1866240)
I0722 15:59:33.732213 16482 net.cpp:156] Memory required for data: 49944120
I0722 15:59:33.732218 16482 layer_factory.hpp:77] Creating layer pool2
I0722 15:59:33.732229 16482 net.cpp:91] Creating Layer pool2
I0722 15:59:33.732234 16482 net.cpp:425] pool2 <- conv2
I0722 15:59:33.732242 16482 net.cpp:399] pool2 -> pool2
I0722 15:59:33.732331 16482 net.cpp:141] Setting up pool2
I0722 15:59:33.732342 16482 net.cpp:148] Top shape: 10 256 13 13 (432640)
I0722 15:59:33.732347 16482 net.cpp:156] Memory required for data: 51674680
I0722 15:59:33.732352 16482 layer_factory.hpp:77] Creating layer norm2
I0722 15:59:33.732364 16482 net.cpp:91] Creating Layer norm2
I0722 15:59:33.732369 16482 net.cpp:425] norm2 <- pool2
I0722 15:59:33.732378 16482 net.cpp:399] norm2 -> norm2
I0722 15:59:33.732664 16482 net.cpp:141] Setting up norm2
I0722 15:59:33.732676 16482 net.cpp:148] Top shape: 10 256 13 13 (432640)
I0722 15:59:33.732681 16482 net.cpp:156] Memory required for data: 53405240
I0722 15:59:33.732686 16482 layer_factory.hpp:77] Creating layer conv3
I0722 15:59:33.732707 16482 net.cpp:91] Creating Layer conv3
I0722 15:59:33.732712 16482 net.cpp:425] conv3 <- norm2
I0722 15:59:33.732718 16482 net.cpp:399] conv3 -> conv3
I0722 15:59:33.740249 16482 net.cpp:141] Setting up conv3
I0722 15:59:33.740284 16482 net.cpp:148] Top shape: 10 384 13 13 (648960)
I0722 15:59:33.740294 16482 net.cpp:156] Memory required for data: 56001080
I0722 15:59:33.740317 16482 layer_factory.hpp:77] Creating layer relu3
I0722 15:59:33.740334 16482 net.cpp:91] Creating Layer relu3
I0722 15:59:33.740342 16482 net.cpp:425] relu3 <- conv3
I0722 15:59:33.740355 16482 net.cpp:386] relu3 -> conv3 (in-place)
I0722 15:59:33.741319 16482 net.cpp:141] Setting up relu3
I0722 15:59:33.741343 16482 net.cpp:148] Top shape: 10 384 13 13 (648960)
I0722 15:59:33.741353 16482 net.cpp:156] Memory required for data: 58596920
I0722 15:59:33.741364 16482 layer_factory.hpp:77] Creating layer conv4
I0722 15:59:33.741381 16482 net.cpp:91] Creating Layer conv4
I0722 15:59:33.741390 16482 net.cpp:425] conv4 <- conv3
I0722 15:59:33.741410 16482 net.cpp:399] conv4 -> conv4
I0722 15:59:33.749536 16482 net.cpp:141] Setting up conv4
I0722 15:59:33.749575 16482 net.cpp:148] Top shape: 10 384 13 13 (648960)
I0722 15:59:33.749582 16482 net.cpp:156] Memory required for data: 61192760
I0722 15:59:33.749593 16482 layer_factory.hpp:77] Creating layer relu4
I0722 15:59:33.749608 16482 net.cpp:91] Creating Layer relu4
I0722 15:59:33.749614 16482 net.cpp:425] relu4 <- conv4
I0722 15:59:33.749620 16482 net.cpp:386] relu4 -> conv4 (in-place)
I0722 15:59:33.750897 16482 net.cpp:141] Setting up relu4
I0722 15:59:33.750931 16482 net.cpp:148] Top shape: 10 384 13 13 (648960)
I0722 15:59:33.750936 16482 net.cpp:156] Memory required for data: 63788600
I0722 15:59:33.750942 16482 layer_factory.hpp:77] Creating layer conv5
I0722 15:59:33.750959 16482 net.cpp:91] Creating Layer conv5
I0722 15:59:33.750964 16482 net.cpp:425] conv5 <- conv4
I0722 15:59:33.750974 16482 net.cpp:399] conv5 -> conv5
I0722 15:59:33.756722 16482 net.cpp:141] Setting up conv5
I0722 15:59:33.756764 16482 net.cpp:148] Top shape: 10 256 13 13 (432640)
I0722 15:59:33.756770 16482 net.cpp:156] Memory required for data: 65519160
I0722 15:59:33.756784 16482 layer_factory.hpp:77] Creating layer relu5
I0722 15:59:33.756794 16482 net.cpp:91] Creating Layer relu5
I0722 15:59:33.756799 16482 net.cpp:425] relu5 <- conv5
I0722 15:59:33.756809 16482 net.cpp:386] relu5 -> conv5 (in-place)
I0722 15:59:33.757526 16482 net.cpp:141] Setting up relu5
I0722 15:59:33.757539 16482 net.cpp:148] Top shape: 10 256 13 13 (432640)
I0722 15:59:33.757544 16482 net.cpp:156] Memory required for data: 67249720
I0722 15:59:33.757550 16482 layer_factory.hpp:77] Creating layer pool5
I0722 15:59:33.757562 16482 net.cpp:91] Creating Layer pool5
I0722 15:59:33.757568 16482 net.cpp:425] pool5 <- conv5
I0722 15:59:33.757575 16482 net.cpp:399] pool5 -> pool5
I0722 15:59:33.757659 16482 net.cpp:141] Setting up pool5
I0722 15:59:33.757669 16482 net.cpp:148] Top shape: 10 256 6 6 (92160)
I0722 15:59:33.757673 16482 net.cpp:156] Memory required for data: 67618360
I0722 15:59:33.757678 16482 layer_factory.hpp:77] Creating layer fc6
I0722 15:59:33.757704 16482 net.cpp:91] Creating Layer fc6
I0722 15:59:33.757709 16482 net.cpp:425] fc6 <- pool5
I0722 15:59:33.757715 16482 net.cpp:399] fc6 -> fc6
I0722 15:59:33.858047 16482 net.cpp:141] Setting up fc6
I0722 15:59:33.858111 16482 net.cpp:148] Top shape: 10 4096 (40960)
I0722 15:59:33.858119 16482 net.cpp:156] Memory required for data: 67782200
I0722 15:59:33.858134 16482 layer_factory.hpp:77] Creating layer relu6
I0722 15:59:33.858152 16482 net.cpp:91] Creating Layer relu6
I0722 15:59:33.858158 16482 net.cpp:425] relu6 <- fc6
I0722 15:59:33.858168 16482 net.cpp:386] relu6 -> fc6 (in-place)
I0722 15:59:33.858485 16482 net.cpp:141] Setting up relu6
I0722 15:59:33.858496 16482 net.cpp:148] Top shape: 10 4096 (40960)
I0722 15:59:33.858500 16482 net.cpp:156] Memory required for data: 67946040
I0722 15:59:33.858505 16482 layer_factory.hpp:77] Creating layer drop6
I0722 15:59:33.858530 16482 net.cpp:91] Creating Layer drop6
I0722 15:59:33.858535 16482 net.cpp:425] drop6 <- fc6
I0722 15:59:33.858541 16482 net.cpp:386] drop6 -> fc6 (in-place)
I0722 15:59:33.858605 16482 net.cpp:141] Setting up drop6
I0722 15:59:33.858614 16482 net.cpp:148] Top shape: 10 4096 (40960)
I0722 15:59:33.858619 16482 net.cpp:156] Memory required for data: 68109880
I0722 15:59:33.858624 16482 layer_factory.hpp:77] Creating layer fc7
I0722 15:59:33.858639 16482 net.cpp:91] Creating Layer fc7
I0722 15:59:33.858644 16482 net.cpp:425] fc7 <- fc6
I0722 15:59:33.858655 16482 net.cpp:399] fc7 -> fc7
I0722 15:59:33.903718 16482 net.cpp:141] Setting up fc7
I0722 15:59:33.903784 16482 net.cpp:148] Top shape: 10 4096 (40960)
I0722 15:59:33.903790 16482 net.cpp:156] Memory required for data: 68273720
I0722 15:59:33.903805 16482 layer_factory.hpp:77] Creating layer relu7
I0722 15:59:33.903825 16482 net.cpp:91] Creating Layer relu7
I0722 15:59:33.903831 16482 net.cpp:425] relu7 <- fc7
I0722 15:59:33.903846 16482 net.cpp:386] relu7 -> fc7 (in-place)
I0722 15:59:33.904887 16482 net.cpp:141] Setting up relu7
I0722 15:59:33.904899 16482 net.cpp:148] Top shape: 10 4096 (40960)
I0722 15:59:33.904904 16482 net.cpp:156] Memory required for data: 68437560
I0722 15:59:33.904911 16482 layer_factory.hpp:77] Creating layer drop7
I0722 15:59:33.904924 16482 net.cpp:91] Creating Layer drop7
I0722 15:59:33.904929 16482 net.cpp:425] drop7 <- fc7
I0722 15:59:33.904937 16482 net.cpp:386] drop7 -> fc7 (in-place)
I0722 15:59:33.904990 16482 net.cpp:141] Setting up drop7
I0722 15:59:33.904999 16482 net.cpp:148] Top shape: 10 4096 (40960)
I0722 15:59:33.905004 16482 net.cpp:156] Memory required for data: 68601400
I0722 15:59:33.905009 16482 layer_factory.hpp:77] Creating layer fc8
I0722 15:59:33.905025 16482 net.cpp:91] Creating Layer fc8
I0722 15:59:33.905030 16482 net.cpp:425] fc8 <- fc7
I0722 15:59:33.905037 16482 net.cpp:399] fc8 -> fc8
I0722 15:59:33.918061 16482 net.cpp:141] Setting up fc8
I0722 15:59:33.918115 16482 net.cpp:148] Top shape: 10 1000 (10000)
I0722 15:59:33.918123 16482 net.cpp:156] Memory required for data: 68641400
I0722 15:59:33.918136 16482 layer_factory.hpp:77] Creating layer prob
I0722 15:59:33.918156 16482 net.cpp:91] Creating Layer prob
I0722 15:59:33.918164 16482 net.cpp:425] prob <- fc8
I0722 15:59:33.918179 16482 net.cpp:399] prob -> prob
I0722 15:59:33.918635 16482 net.cpp:141] Setting up prob
I0722 15:59:33.918648 16482 net.cpp:148] Top shape: 10 1000 (10000)
I0722 15:59:33.918651 16482 net.cpp:156] Memory required for data: 68681400
I0722 15:59:33.918656 16482 net.cpp:219] prob does not need backward computation.
I0722 15:59:33.918661 16482 net.cpp:219] fc8 does not need backward computation.
I0722 15:59:33.918666 16482 net.cpp:219] drop7 does not need backward computation.
I0722 15:59:33.918679 16482 net.cpp:219] relu7 does not need backward computation.
…
I0722 15:59:33.918776 16482 net.cpp:219] conv1 does not need backward computation.
I0722 15:59:33.918781 16482 net.cpp:219] data does not need backward computation.
I0722 15:59:33.918784 16482 net.cpp:261] This network produces output prob
I0722 15:59:33.918818 16482 net.cpp:274] Network initialization done.
I0722 15:59:39.247799 16488 net.cpp:49] Initializing net from parameters: 
name: "CaffeNet"
state {
  phase: TEST
}
layer {
  name: "data"
  type: "Input"
  top: "data"
  input_param {
    shape {
      dim: 10
      dim: 3
      dim: 227
      dim: 227
    }
  }
}
layer {
  name: "conv1"
  type: "Convolution"
  bottom: "data"
  top: "conv1"
  convolution_param {
    num_output: 96
    kernel_size: 11
    stride: 4
  }
}
layer {
  name: "relu1"
  type: "ReLU"
  bottom: "conv1"
  top: "conv1"
}
layer {
  name: "pool1"
  type: "Pooling"
  bottom: "conv1"
  top: "pool1"
  pooling_param {
    pool: MAX
    kernel_size: 3
    stride: 2
  }
}
layer {
  name: "norm1"
  type: "LRN"
  bottom: "pool1"
  top: "norm1"
  lrn_param {
    local_size: 5
    alpha: 0.0001
    beta: 0.75
  }
}
layer {
  name: "conv2"
  type: "Convolution"
  bottom: "norm1"
  top: "conv2"
  convolution_param {
    num_output: 256
    pad: 2
    kernel_size: 5
    group: 2
  }
}
layer {
  name: "relu2"
  type: "ReLU"
  bottom: "conv2"
  top: "conv2"
}
layer {
  name: "pool2"
  type: "Pooling"
  bottom: "conv2"
  top: "pool2"
  pooling_param {
    pool: MAX
    kernel_size: 3
    stride: 2
  }
}
layer {
  name: "norm2"
  type: "LRN"
  bottom: "pool2"
  top: "norm2"
  lrn_param {
    local_size: 5
    alpha: 0.0001
    beta: 0.75
  }
}
layer {
  name: "conv3"
  type: "Convolution"
  bottom: "norm2"
  top: "conv3"
  convolution_param {
    num_output: 384
    pad: 1
    kernel_size: 3
  }
}
layer {
  name: "relu3"
  type: "ReLU"
  bottom: "conv3"
  top: "conv3"
}
layer {
  name: "conv4"
  type: "Convolution"
  bottom: "conv3"
  top: "conv4"
  convolution_param {
    num_output: 384
    pad: 1
    kernel_size: 3
    group: 2
  }
}
layer {
  name: "relu4"
  type: "ReLU"
  bottom: "conv4"
  top: "conv4"
}
layer {
  name: "conv5"
  type: "Convolution"
  bottom: "conv4"
  top: "conv5"
  convolution_param {
    num_output: 256
    pad: 1
    kernel_size: 3
    group: 2
  }
}
layer {
  name: "relu5"
  type: "ReLU"
  bottom: "conv5"
  top: "conv5"
}
layer {
  name: "pool5"
  type: "Pooling"
  bottom: "conv5"
  top: "pool5"
  pooling_param {
    pool: MAX
    kernel_size: 3
    stride: 2
  }
}
layer {
  name: "fc6"
  type: "InnerProduct"
  bottom: "pool5"
  top: "fc6"
  inner_product_param {
    num_output: 4096
  }
}
layer {
  name: "relu6"
  type: "ReLU"
  bottom: "fc6"
  top: "fc6"
}
layer {
  name: "drop6"
  type: "Dropout"
  bottom: "fc6"
  top: "fc6"
  dropout_param {
    dropout_ratio: 0.5
  }
}
layer {
  name: "fc7"
  type: "InnerProduct"
  bottom: "fc6"
  top: "fc7"
  inner_product_param {
    num_output: 4096
  }
}
layer {
  name: "relu7"
  type: "ReLU"
  bottom: "fc7"
  top: "fc7"
}
layer {
  name: "drop7"
  type: "Dropout"
  bottom: "fc7"
  top: "fc7"
  dropout_param {
    dropout_ratio: 0.5
  }
}
layer {
  name: "fc8"
  type: "InnerProduct"
  bottom: "fc7"
  top: "fc8"
  inner_product_param {
    num_output: 1000
  }
}
layer {
  name: "prob"
  type: "Softmax"
  bottom: "fc8"
  top: "prob"
}
I0722 15:59:39.248056 16488 layer_factory.hpp:77] Creating layer data
I0722 15:59:39.248090 16488 net.cpp:91] Creating Layer data
I0722 15:59:39.248103 16488 net.cpp:399] data -> data
I0722 15:59:39.522994 16482 upgrade_proto.cpp:43] Attempting to upgrade input file specified using deprecated transformation parameters: /tmp/cvld3070462438762066744/bvlc_reference_caffenet.caffemodel
I0722 15:59:39.523813 16482 upgrade_proto.cpp:46] Successfully upgraded file specified using deprecated data transformation parameters.
W0722 15:59:39.524022 16482 upgrade_proto.cpp:48] Note that future Caffe releases will only support transform_param messages for transformation fields.
I0722 15:59:39.524319 16482 upgrade_proto.cpp:52] Attempting to upgrade input file specified using deprecated V1LayerParameter: /tmp/cvld3070462438762066744/bvlc_reference_caffenet.caffemodel
I0722 15:59:39.997974 16482 upgrade_proto.cpp:60] Successfully upgraded file specified using deprecated V1LayerParameter
I0722 15:59:40.063876 16482 net.cpp:752] Ignoring source layer loss
I0722 15:59:40.140604 16488 net.cpp:141] Setting up data
I0722 15:59:40.140655 16488 net.cpp:148] Top shape: 10 3 227 227 (1545870)
I0722 15:59:40.140663 16488 net.cpp:156] Memory required for data: 6183480
I0722 15:59:40.140674 16488 layer_factory.hpp:77] Creating layer conv1
I0722 15:59:40.140707 16488 net.cpp:91] Creating Layer conv1
I0722 15:59:40.140714 16488 net.cpp:425] conv1 <- data
I0722 15:59:40.140725 16488 net.cpp:399] conv1 -> conv1
I0722 15:59:40.368652 16474 upgrade_proto.cpp:66] Attempting to upgrade input file specified using deprecated input fields: /tmp/cvld3070462438762066744/s2vt.words_to_preds.prototxt
…
W0722 15:59:40.368732 16470 upgrade_proto.cpp:71] Note that future Caffe releases will only support input layers and not input fields.
I0722 15:59:40.369006 16474 net.cpp:49] Initializing net from parameters: 
name: "s2vt:features_to_lstm"
state {
  phase: TEST
}
layer {
  name: "input"
  type: "Input"
  top: "frames_fc7"
  top: "cont_sentence"
  top: "input_sentence"
  top: "stage_indicator"
  input_param {
    shape {
      dim: 1
      dim: 4096
    }
    shape {
      dim: 1
      dim: 1
    }
    shape {
      dim: 1
      dim: 1
    }
    shape {
      dim: 1
      dim: 1
    }
  }
}
layer {
  name: "embed_encoder"
  type: "InnerProduct"
  bottom: "frames_fc7"
  top: "embedded_in_frames"
  param {
    lr_mult: 1
    decay_mult: 1
  }
  param {
    lr_mult: 2
    decay_mult: 0
  }
  inner_product_param {
    num_output: 500
    weight_filler {
      type: "xavier"
    }
    bias_filler {
      type: "constant"
      value: 0.2
    }
  }
}
layer {
  name: "reshape_frames"
  type: "Reshape"
  bottom: "embedded_in_frames"
  top: "embedded_input_frames"
  reshape_param {
    shape {
      dim: 1
      dim: 1
      dim: 500
    }
  }
}
layer {
  name: "reshape_stage_indicator"
  type: "Reshape"
  bottom: "stage_indicator"
  top: "reshaped_stage_indicator"
  reshape_param {
    shape {
      dim: 1
      dim: 1
      dim: 1
    }
  }
}
layer {
  name: "embedding"
  type: "Embed"
  bottom: "input_sentence"
  top: "embedded_input_sentence"
  param {
    lr_mult: 1
  }
  embed_param {
    num_output: 500
    input_dim: 46168
    bias_term: false
    weight_filler {
      type: "uniform"
      min: -0.08
      max: 0.08
    }
  }
}
layer {
  name: "lstm1"
  type: "LSTM"
  bottom: "embedded_input_frames"
  bottom: "cont_sentence"
  top: "lstm1"
  recurrent_param {
    num_output: 1000
    weight_filler {
      type: "uniform"
      min: -0.08
      max: 0.08
    }
    bias_filler {
      type: "constant"
      value: 0
    }
  }
}
layer {
  name: "concat"
  type: "Concat"
  bottom: "lstm1"
  bottom: "embedded_input_sentence"
  bottom: "reshaped_stage_indicator"
  top: "lstm1_video_sequence"
  concat_param {
    concat_dim: 2
  }
}
layer {
  name: "lstm2"
  type: "LSTM"
  bottom: "lstm1_video_sequence"
  bottom: "cont_sentence"
  top: "lstm2"
  recurrent_param {
    num_output: 1000
    weight_filler {
      type: "uniform"
      min: -0.08
      max: 0.08
    }
    bias_filler {
      type: "constant"
      value: 0
    }
  }
}
layer {
  name: "predict"
  type: "InnerProduct"
  bottom: "lstm2"
  top: "predict"
  param {
    lr_mult: 1
    decay_mult: 1
  }
  param {
    lr_mult: 2
    decay_mult: 0
  }
  inner_product_param {
    num_output: 46168
    weight_filler {
      type: "uniform"
      min: -0.08
      max: 0.08
    }
    bias_filler {
      type: "constant"
      value: 0
    }
    axis: 2
  }
}
layer {
  name: "probs"
  type: "Softmax"
  bottom: "predict"
  top: "probs"
  softmax_param {
    axis: 2
  }
}
I0722 15:59:40.369006 16470 net.cpp:49] Initializing net from parameters: 
name: "s2vt:features_to_lstm"
state {
  phase: TEST
}
layer {
  name: "input"
  type: "Input"
  top: "frames_fc7"
  top: "cont_sentence"
  top: "input_sentence"
  top: "stage_indicator"
  input_param {
    shape {
      dim: 1
      dim: 4096
    }
    shape {
      dim: 1
      dim: 1
    }
    shape {
      dim: 1
      dim: 1
    }
    shape {
      dim: 1
      dim: 1
    }
  }
}
layer {
  name: "embed_encoder"
  type: "InnerProduct"
  bottom: "frames_fc7"
  top: "embedded_in_frames"
  param {
    lr_mult: 1
    decay_mult: 1
  }
  param {
    lr_mult: 2
    decay_mult: 0
  }
  inner_product_param {
    num_output: 500
    weight_filler {
      type: "xavier"
    }
    bias_filler {
      type: "constant"
      value: 0.2
    }
  }
}
layer {
  name: "reshape_frames"
  type: "Reshape"
  bottom: "embedded_in_frames"
  top: "embedded_input_frames"
  reshape_param {
    shape {
      dim: 1
      dim: 1
      dim: 500
    }
  }
}
layer {
  name: "reshape_stage_indicator"
  type: "Reshape"
  bottom: "stage_indicator"
  top: "reshaped_stage_indicator"
  reshape_param {
    shape {
      dim: 1
      dim: 1
      dim: 1
    }
  }
}
layer {
  name: "embedding"
  type: "Embed"
  bottom: "input_sentence"
  top: "embedded_input_sentence"
  param {
    lr_mult: 1
  }
  embed_param {
    num_output: 500
    input_dim: 46168
    bias_term: false
    weight_filler {
      type: "uniform"
      min: -0.08
      max: 0.08
    }
  }
}
layer {
  name: "lstm1"
  type: "LSTM"
  bottom: "embedded_input_frames"
  bottom: "cont_sentence"
  top: "lstm1"
  recurrent_param {
    num_output: 1000
    weight_filler {
      type: "uniform"
      min: -0.08
      max: 0.08
    }
    bias_filler {
      type: "constant"
      value: 0
    }
  }
}
layer {
  name: "concat"
  type: "Concat"
  bottom: "lstm1"
  bottom: "embedded_input_sentence"
  bottom: "reshaped_stage_indicator"
  top: "lstm1_video_sequence"
  concat_param {
    concat_dim: 2
  }
}
layer {
  name: "lstm2"
  type: "LSTM"
  bottom: "lstm1_video_sequence"
  bottom: "cont_sentence"
  top: "lstm2"
  recurrent_param {
    num_output: 1000
    weight_filler {
      type: "uniform"
      min: -0.08
      max: 0.08
    }
    bias_filler {
      type: "constant"
      value: 0
    }
  }
}
layer {
  name: "predict"
  type: "InnerProduct"
  bottom: "lstm2"
  top: "predict"
  param {
    lr_mult: 1
    decay_mult: 1
  }
  param {
    lr_mult: 2
    decay_mult: 0
  }
  inner_product_param {
    num_output: 46168
    weight_filler {
      type: "uniform"
      min: -0.08
      max: 0.08
    }
    bias_filler {
      type: "constant"
      value: 0
    }
    axis: 2
  }
}
layer {
  name: "probs"
  type: "Softmax"
  bottom: "predict"
  top: "probs"
  softmax_param {
    axis: 2
  }
}
I0722 15:59:40.369115 16470 layer_factory.hpp:77] Creating layer input
I0722 15:59:40.369115 16474 layer_factory.hpp:77] Creating layer input
I0722 15:59:40.369135 16470 net.cpp:91] Creating Layer input
I0722 15:59:40.369138 16474 net.cpp:91] Creating Layer input
I0722 15:59:40.369144 16470 net.cpp:399] input -> frames_fc7
I0722 15:59:40.369145 16474 net.cpp:399] input -> frames_fc7
I0722 15:59:40.369164 16470 net.cpp:399] input -> cont_sentence
I0722 15:59:40.369164 16474 net.cpp:399] input -> cont_sentence
I0722 15:59:40.369177 16470 net.cpp:399] input -> input_sentence
I0722 15:59:40.369181 16474 net.cpp:399] input -> input_sentence
I0722 15:59:40.369187 16470 net.cpp:399] input -> stage_indicator
I0722 15:59:40.369192 16474 net.cpp:399] input -> stage_indicator
I0722 15:59:40.381954 16474 net.cpp:141] Setting up input
I0722 15:59:40.381948 16470 net.cpp:141] Setting up input
I0722 15:59:40.381985 16474 net.cpp:148] Top shape: 1 4096 (4096)
I0722 15:59:40.381989 16470 net.cpp:148] Top shape: 1 4096 (4096)
I0722 15:59:40.381994 16474 net.cpp:148] Top shape: 1 1 (1)
I0722 15:59:40.381997 16470 net.cpp:148] Top shape: 1 1 (1)
I0722 15:59:40.382000 16474 net.cpp:148] Top shape: 1 1 (1)
I0722 15:59:40.382004 16470 net.cpp:148] Top shape: 1 1 (1)
I0722 15:59:40.382006 16474 net.cpp:148] Top shape: 1 1 (1)
I0722 15:59:40.382009 16470 net.cpp:148] Top shape: 1 1 (1)
I0722 15:59:40.382010 16474 net.cpp:156] Memory required for data: 16396
I0722 15:59:40.382014 16470 net.cpp:156] Memory required for data: 16396
I0722 15:59:40.382019 16474 layer_factory.hpp:77] Creating layer cont_sentence_input_1_split
I0722 15:59:40.382019 16470 layer_factory.hpp:77] Creating layer cont_sentence_input_1_split
I0722 15:59:40.382046 16474 net.cpp:91] Creating Layer cont_sentence_input_1_split
I0722 15:59:40.382046 16470 net.cpp:91] Creating Layer cont_sentence_input_1_split
I0722 15:59:40.382053 16474 net.cpp:425] cont_sentence_input_1_split <- cont_sentence
I0722 15:59:40.382055 16470 net.cpp:425] cont_sentence_input_1_split <- cont_sentence
I0722 15:59:40.382082 16474 net.cpp:399] cont_sentence_input_1_split -> cont_sentence_input_1_split_0
I0722 15:59:40.382083 16470 net.cpp:399] cont_sentence_input_1_split -> cont_sentence_input_1_split_0
I0722 15:59:40.382100 16470 net.cpp:399] cont_sentence_input_1_split -> cont_sentence_input_1_split_1
I0722 15:59:40.382102 16474 net.cpp:399] cont_sentence_input_1_split -> cont_sentence_input_1_split_1
I0722 15:59:40.384980 16474 net.cpp:141] Setting up cont_sentence_input_1_split
I0722 15:59:40.384992 16474 net.cpp:148] Top shape: 1 1 (1)
I0722 15:59:40.384999 16474 net.cpp:148] Top shape: 1 1 (1)
I0722 15:59:40.385002 16474 net.cpp:156] Memory required for data: 16404
I0722 15:59:40.385007 16474 layer_factory.hpp:77] Creating layer embed_encoder
I0722 15:59:40.385021 16474 net.cpp:91] Creating Layer embed_encoder
I0722 15:59:40.385026 16474 net.cpp:425] embed_encoder <- frames_fc7
I0722 15:59:40.385036 16474 net.cpp:399] embed_encoder -> embedded_in_frames
I0722 15:59:40.385057 16470 net.cpp:141] Setting up cont_sentence_input_1_split
I0722 15:59:40.385076 16470 net.cpp:148] Top shape: 1 1 (1)
I0722 15:59:40.385082 16470 net.cpp:148] Top shape: 1 1 (1)
I0722 15:59:40.385087 16470 net.cpp:156] Memory required for data: 16404
I0722 15:59:40.385092 16470 layer_factory.hpp:77] Creating layer embed_encoder
I0722 15:59:40.385105 16470 net.cpp:91] Creating Layer embed_encoder
I0722 15:59:40.385112 16470 net.cpp:425] embed_encoder <- frames_fc7
I0722 15:59:40.385121 16470 net.cpp:399] embed_encoder -> embedded_in_frames
I0722 15:59:40.422904 16474 net.cpp:141] Setting up embed_encoder
I0722 15:59:40.422955 16474 net.cpp:148] Top shape: 1 500 (500)
I0722 15:59:40.422960 16474 net.cpp:156] Memory required for data: 18404
I0722 15:59:40.422986 16474 layer_factory.hpp:77] Creating layer reshape_frames
I0722 15:59:40.423008 16474 net.cpp:91] Creating Layer reshape_frames
I0722 15:59:40.423017 16474 net.cpp:425] reshape_frames <- embedded_in_frames
I0722 15:59:40.423028 16474 net.cpp:399] reshape_frames -> embedded_input_frames
I0722 15:59:40.427078 16474 net.cpp:141] Setting up reshape_frames
I0722 15:59:40.427109 16474 net.cpp:148] Top shape: 1 1 500 (500)
I0722 15:59:40.427114 16474 net.cpp:156] Memory required for data: 20404
I0722 15:59:40.427121 16474 layer_factory.hpp:77] Creating layer reshape_stage_indicator
I0722 15:59:40.427137 16474 net.cpp:91] Creating Layer reshape_stage_indicator
I0722 15:59:40.427145 16474 net.cpp:425] reshape_stage_indicator <- stage_indicator
I0722 15:59:40.427155 16474 net.cpp:399] reshape_stage_indicator -> reshaped_stage_indicator
I0722 15:59:40.430673 16474 net.cpp:141] Setting up reshape_stage_indicator
I0722 15:59:40.430709 16474 net.cpp:148] Top shape: 1 1 1 (1)
I0722 15:59:40.430719 16474 net.cpp:156] Memory required for data: 20408
I0722 15:59:40.430727 16474 layer_factory.hpp:77] Creating layer embedding
I0722 15:59:40.430742 16474 net.cpp:91] Creating Layer embedding
I0722 15:59:40.430747 16474 net.cpp:425] embedding <- input_sentence
I0722 15:59:40.430760 16474 net.cpp:399] embedding -> embedded_input_sentence
I0722 15:59:40.479189 16470 net.cpp:141] Setting up embed_encoder
I0722 15:59:40.479243 16470 net.cpp:148] Top shape: 1 500 (500)
I0722 15:59:40.479249 16470 net.cpp:156] Memory required for data: 18404
I0722 15:59:40.479272 16470 layer_factory.hpp:77] Creating layer reshape_frames
I0722 15:59:40.479295 16470 net.cpp:91] Creating Layer reshape_frames
I0722 15:59:40.479303 16470 net.cpp:425] reshape_frames <- embedded_in_frames
I0722 15:59:40.479315 16470 net.cpp:399] reshape_frames -> embedded_input_frames
I0722 15:59:40.479817 16470 net.cpp:141] Setting up reshape_frames
I0722 15:59:40.479833 16470 net.cpp:148] Top shape: 1 1 500 (500)
I0722 15:59:40.479838 16470 net.cpp:156] Memory required for data: 20404
I0722 15:59:40.479843 16470 layer_factory.hpp:77] Creating layer reshape_stage_indicator
I0722 15:59:40.479856 16470 net.cpp:91] Creating Layer reshape_stage_indicator
I0722 15:59:40.479861 16470 net.cpp:425] reshape_stage_indicator <- stage_indicator
I0722 15:59:40.479869 16470 net.cpp:399] reshape_stage_indicator -> reshaped_stage_indicator
I0722 15:59:40.482873 16470 net.cpp:141] Setting up reshape_stage_indicator
I0722 15:59:40.482926 16470 net.cpp:148] Top shape: 1 1 1 (1)
I0722 15:59:40.482933 16470 net.cpp:156] Memory required for data: 20408
I0722 15:59:40.482942 16470 layer_factory.hpp:77] Creating layer embedding
I0722 15:59:40.482964 16470 net.cpp:91] Creating Layer embedding
I0722 15:59:40.482971 16470 net.cpp:425] embedding <- input_sentence
I0722 15:59:40.482987 16470 net.cpp:399] embedding -> embedded_input_sentence
I0722 15:59:40.584115 16488 net.cpp:141] Setting up conv1
I0722 15:59:40.584166 16488 net.cpp:148] Top shape: 10 96 55 55 (2904000)
I0722 15:59:40.584173 16488 net.cpp:156] Memory required for data: 17799480
I0722 15:59:40.584197 16488 layer_factory.hpp:77] Creating layer relu1
I0722 15:59:40.584218 16488 net.cpp:91] Creating Layer relu1
I0722 15:59:40.584225 16488 net.cpp:425] relu1 <- conv1
I0722 15:59:40.584235 16488 net.cpp:386] relu1 -> conv1 (in-place)
I0722 15:59:40.585078 16488 net.cpp:141] Setting up relu1
I0722 15:59:40.585095 16488 net.cpp:148] Top shape: 10 96 55 55 (2904000)
I0722 15:59:40.585103 16488 net.cpp:156] Memory required for data: 29415480
I0722 15:59:40.585108 16488 layer_factory.hpp:77] Creating layer pool1
I0722 15:59:40.585122 16488 net.cpp:91] Creating Layer pool1
I0722 15:59:40.585127 16488 net.cpp:425] pool1 <- conv1
I0722 15:59:40.585137 16488 net.cpp:399] pool1 -> pool1
I0722 15:59:40.589352 16488 net.cpp:141] Setting up pool1
I0722 15:59:40.589376 16488 net.cpp:148] Top shape: 10 96 27 27 (699840)
I0722 15:59:40.589383 16488 net.cpp:156] Memory required for data: 32214840
I0722 15:59:40.589390 16488 layer_factory.hpp:77] Creating layer norm1
I0722 15:59:40.589407 16488 net.cpp:91] Creating Layer norm1
I0722 15:59:40.589413 16488 net.cpp:425] norm1 <- pool1
I0722 15:59:40.589423 16488 net.cpp:399] norm1 -> norm1
I0722 15:59:40.590301 16488 net.cpp:141] Setting up norm1
I0722 15:59:40.590319 16488 net.cpp:148] Top shape: 10 96 27 27 (699840)
I0722 15:59:40.590325 16488 net.cpp:156] Memory required for data: 35014200
I0722 15:59:40.590332 16488 layer_factory.hpp:77] Creating layer conv2
I0722 15:59:40.590351 16488 net.cpp:91] Creating Layer conv2
I0722 15:59:40.590358 16488 net.cpp:425] conv2 <- norm1
I0722 15:59:40.590366 16488 net.cpp:399] conv2 -> conv2
I0722 15:59:40.598594 16488 net.cpp:141] Setting up conv2
I0722 15:59:40.598619 16488 net.cpp:148] Top shape: 10 256 27 27 (1866240)
I0722 15:59:40.598626 16488 net.cpp:156] Memory required for data: 42479160
I0722 15:59:40.598641 16488 layer_factory.hpp:77] Creating layer relu2
I0722 15:59:40.598652 16488 net.cpp:91] Creating Layer relu2
I0722 15:59:40.598659 16488 net.cpp:425] relu2 <- conv2
I0722 15:59:40.598666 16488 net.cpp:386] relu2 -> conv2 (in-place)
I0722 15:59:40.599515 16488 net.cpp:141] Setting up relu2
I0722 15:59:40.599531 16488 net.cpp:148] Top shape: 10 256 27 27 (1866240)
I0722 15:59:40.599536 16488 net.cpp:156] Memory required for data: 49944120
I0722 15:59:40.599542 16488 layer_factory.hpp:77] Creating layer pool2
I0722 15:59:40.599557 16488 net.cpp:91] Creating Layer pool2
I0722 15:59:40.599563 16488 net.cpp:425] pool2 <- conv2
I0722 15:59:40.599572 16488 net.cpp:399] pool2 -> pool2
I0722 15:59:40.599676 16488 net.cpp:141] Setting up pool2
I0722 15:59:40.599687 16488 net.cpp:148] Top shape: 10 256 13 13 (432640)
I0722 15:59:40.599692 16488 net.cpp:156] Memory required for data: 51674680
I0722 15:59:40.599699 16488 layer_factory.hpp:77] Creating layer norm2
I0722 15:59:40.599714 16488 net.cpp:91] Creating Layer norm2
I0722 15:59:40.599720 16488 net.cpp:425] norm2 <- pool2
I0722 15:59:40.599726 16488 net.cpp:399] norm2 -> norm2
I0722 15:59:40.600061 16488 net.cpp:141] Setting up norm2
I0722 15:59:40.600075 16488 net.cpp:148] Top shape: 10 256 13 13 (432640)
I0722 15:59:40.600080 16488 net.cpp:156] Memory required for data: 53405240
I0722 15:59:40.600085 16488 layer_factory.hpp:77] Creating layer conv3
I0722 15:59:40.600100 16488 net.cpp:91] Creating Layer conv3
I0722 15:59:40.600106 16488 net.cpp:425] conv3 <- norm2
I0722 15:59:40.600126 16488 net.cpp:399] conv3 -> conv3
I0722 15:59:40.610131 16488 net.cpp:141] Setting up conv3
I0722 15:59:40.610160 16488 net.cpp:148] Top shape: 10 384 13 13 (648960)
I0722 15:59:40.610167 16488 net.cpp:156] Memory required for data: 56001080
I0722 15:59:40.610184 16488 layer_factory.hpp:77] Creating layer relu3
I0722 15:59:40.610200 16488 net.cpp:91] Creating Layer relu3
I0722 15:59:40.610206 16488 net.cpp:425] relu3 <- conv3
I0722 15:59:40.610214 16488 net.cpp:386] relu3 -> conv3 (in-place)
I0722 15:59:40.611027 16488 net.cpp:141] Setting up relu3
I0722 15:59:40.611043 16488 net.cpp:148] Top shape: 10 384 13 13 (648960)
I0722 15:59:40.611049 16488 net.cpp:156] Memory required for data: 58596920
I0722 15:59:40.611055 16488 layer_factory.hpp:77] Creating layer conv4
I0722 15:59:40.611073 16488 net.cpp:91] Creating Layer conv4
I0722 15:59:40.611078 16488 net.cpp:425] conv4 <- conv3
I0722 15:59:40.611091 16488 net.cpp:399] conv4 -> conv4
I0722 15:59:40.623714 16488 net.cpp:141] Setting up conv4
I0722 15:59:40.623744 16488 net.cpp:148] Top shape: 10 384 13 13 (648960)
I0722 15:59:40.623751 16488 net.cpp:156] Memory required for data: 61192760
I0722 15:59:40.623764 16488 layer_factory.hpp:77] Creating layer relu4
I0722 15:59:40.623775 16488 net.cpp:91] Creating Layer relu4
I0722 15:59:40.623781 16488 net.cpp:425] relu4 <- conv4
I0722 15:59:40.623793 16488 net.cpp:386] relu4 -> conv4 (in-place)
I0722 15:59:40.624666 16488 net.cpp:141] Setting up relu4
I0722 15:59:40.624682 16488 net.cpp:148] Top shape: 10 384 13 13 (648960)
I0722 15:59:40.624687 16488 net.cpp:156] Memory required for data: 63788600
I0722 15:59:40.624693 16488 layer_factory.hpp:77] Creating layer conv5
I0722 15:59:40.624711 16488 net.cpp:91] Creating Layer conv5
I0722 15:59:40.624716 16488 net.cpp:425] conv5 <- conv4
I0722 15:59:40.624725 16488 net.cpp:399] conv5 -> conv5
I0722 15:59:40.632076 16488 net.cpp:141] Setting up conv5
I0722 15:59:40.632100 16488 net.cpp:148] Top shape: 10 256 13 13 (432640)
I0722 15:59:40.632107 16488 net.cpp:156] Memory required for data: 65519160
I0722 15:59:40.632127 16488 layer_factory.hpp:77] Creating layer relu5
I0722 15:59:40.632138 16488 net.cpp:91] Creating Layer relu5
I0722 15:59:40.632143 16488 net.cpp:425] relu5 <- conv5
I0722 15:59:40.632154 16488 net.cpp:386] relu5 -> conv5 (in-place)
I0722 15:59:40.633167 16488 net.cpp:141] Setting up relu5
I0722 15:59:40.633203 16488 net.cpp:148] Top shape: 10 256 13 13 (432640)
I0722 15:59:40.633209 16488 net.cpp:156] Memory required for data: 67249720
I0722 15:59:40.633219 16488 layer_factory.hpp:77] Creating layer pool5
I0722 15:59:40.633236 16488 net.cpp:91] Creating Layer pool5
I0722 15:59:40.633246 16488 net.cpp:425] pool5 <- conv5
I0722 15:59:40.633256 16488 net.cpp:399] pool5 -> pool5
I0722 15:59:40.633410 16488 net.cpp:141] Setting up pool5
I0722 15:59:40.633421 16488 net.cpp:148] Top shape: 10 256 6 6 (92160)
I0722 15:59:40.633425 16488 net.cpp:156] Memory required for data: 67618360
I0722 15:59:40.633430 16488 layer_factory.hpp:77] Creating layer fc6
I0722 15:59:40.633446 16488 net.cpp:91] Creating Layer fc6
I0722 15:59:40.633451 16488 net.cpp:425] fc6 <- pool5
I0722 15:59:40.633460 16488 net.cpp:399] fc6 -> fc6
I0722 15:59:40.701800 16474 net.cpp:141] Setting up embedding
I0722 15:59:40.701845 16474 net.cpp:148] Top shape: 1 1 500 (500)
I0722 15:59:40.701851 16474 net.cpp:156] Memory required for data: 22408
I0722 15:59:40.701872 16474 layer_factory.hpp:77] Creating layer lstm1
I0722 15:59:40.701894 16474 net.cpp:91] Creating Layer lstm1
I0722 15:59:40.701901 16474 net.cpp:425] lstm1 <- embedded_input_frames
I0722 15:59:40.701910 16474 net.cpp:425] lstm1 <- cont_sentence_input_1_split_0
I0722 15:59:40.701921 16474 net.cpp:399] lstm1 -> lstm1
I0722 15:59:40.701961 16474 recurrent_layer.cpp:20] Initializing recurrent layer: assuming input batch contains 1 timesteps of 1 independent streams.
I0722 15:59:40.702383 16474 net.cpp:49] Initializing net from parameters: 
layer {
  name: "lstm1_"
  type: "Input"
  top: "x"
  top: "cont"
  input_param {
    shape {
      dim: 1
      dim: 1
      dim: 500
    }
    shape {
      dim: 1
      dim: 1
    }
  }
}
layer {
  name: "lstm1_"
  type: "Input"
  top: "c_0"
  top: "h_0"
  input_param {
    shape {
      dim: 1
      dim: 1
      dim: 1000
    }
    shape {
      dim: 1
      dim: 1
      dim: 1000
    }
  }
}
layer {
  name: "lstm1_cont_slice"
  type: "Slice"
  bottom: "cont"
  top: "cont_1"
  slice_param {
    axis: 0
  }
}
layer {
  name: "lstm1_x_transform"
  type: "InnerProduct"
  bottom: "x"
  top: "W_xc_x"
  param {
    name: "W_xc"
  }
  param {
    name: "b_c"
  }
  propagate_down: true
  inner_product_param {
    num_output: 4000
    bias_term: true
    weight_filler {
      type: "uniform"
      min: -0.08
      max: 0.08
    }
    bias_filler {
      type: "constant"
      value: 0
    }
    axis: 2
  }
}
layer {
  name: "lstm1_W_xc_x_slice"
  type: "Slice"
  bottom: "W_xc_x"
  top: "W_xc_x_1"
  slice_param {
    axis: 0
  }
}
layer {
  name: "lstm1_h_conted_0"
  type: "Scale"
  bottom: "h_0"
  bottom: "cont_1"
  top: "h_conted_0"
  scale_param {
    axis: 0
  }
}
layer {
  name: "lstm1_transform_1"
  type: "InnerProduct"
  bottom: "h_conted_0"
  top: "W_hc_h_0"
  param {
    name: "W_hc"
  }
  inner_product_param {
    num_output: 4000
    bias_term: false
    weight_filler {
      type: "uniform"
      min: -0.08
      max: 0.08
    }
    axis: 2
  }
}
layer {
  name: "lstm1_gate_input_1"
  type: "Eltwise"
  bottom: "W_hc_h_0"
  bottom: "W_xc_x_1"
  top: "gate_input_1"
  eltwise_param {
    operation: SUM
  }
}
layer {
  name: "lstm1_unit_1"
  type: "LSTMUnit"
  bottom: "c_0"
  bottom: "gate_input_1"
  bottom: "cont_1"
  top: "c_1"
  top: "h_1"
}
layer {
  name: "lstm1_"
  type: "Split"
  bottom: "c_1"
  top: "c_T"
}
layer {
  name: "lstm1_h_concat"
  type: "Concat"
  bottom: "h_1"
  top: "h"
  concat_param {
    axis: 0
  }
}
layer {
  name: "h_pseudoloss"
  type: "Reduction"
  bottom: "h"
  top: "h_pseudoloss"
  loss_weight: 1
}
I0722 15:59:40.702483 16474 layer_factory.hpp:77] Creating layer lstm1_
I0722 15:59:40.702497 16474 net.cpp:91] Creating Layer lstm1_
I0722 15:59:40.702502 16474 net.cpp:399] lstm1_ -> x
I0722 15:59:40.702514 16474 net.cpp:399] lstm1_ -> cont
I0722 15:59:40.706970 16474 net.cpp:141] Setting up lstm1_
I0722 15:59:40.706995 16474 net.cpp:148] Top shape: 1 1 500 (500)
I0722 15:59:40.707001 16474 net.cpp:148] Top shape: 1 1 (1)
I0722 15:59:40.707005 16474 net.cpp:156] Memory required for data: 2004
I0722 15:59:40.707011 16474 layer_factory.hpp:77] Creating layer lstm1_
I0722 15:59:40.707025 16474 net.cpp:91] Creating Layer lstm1_
I0722 15:59:40.707033 16474 net.cpp:399] lstm1_ -> c_0
I0722 15:59:40.707046 16474 net.cpp:399] lstm1_ -> h_0
I0722 15:59:40.707236 16474 net.cpp:141] Setting up lstm1_
I0722 15:59:40.707247 16474 net.cpp:148] Top shape: 1 1 1000 (1000)
I0722 15:59:40.707252 16474 net.cpp:148] Top shape: 1 1 1000 (1000)
I0722 15:59:40.707257 16474 net.cpp:156] Memory required for data: 10004
I0722 15:59:40.707262 16474 layer_factory.hpp:77] Creating layer lstm1_cont_slice
I0722 15:59:40.707270 16474 net.cpp:91] Creating Layer lstm1_cont_slice
I0722 15:59:40.707275 16474 net.cpp:425] lstm1_cont_slice <- cont
I0722 15:59:40.707285 16474 net.cpp:399] lstm1_cont_slice -> cont_1
I0722 15:59:40.707371 16474 net.cpp:141] Setting up lstm1_cont_slice
I0722 15:59:40.707382 16474 net.cpp:148] Top shape: 1 1 (1)
I0722 15:59:40.707387 16474 net.cpp:156] Memory required for data: 10008
I0722 15:59:40.707393 16474 layer_factory.hpp:77] Creating layer cont_1_lstm1_cont_slice_0_split
I0722 15:59:40.707403 16474 net.cpp:91] Creating Layer cont_1_lstm1_cont_slice_0_split
I0722 15:59:40.707408 16474 net.cpp:425] cont_1_lstm1_cont_slice_0_split <- cont_1
I0722 15:59:40.707415 16474 net.cpp:399] cont_1_lstm1_cont_slice_0_split -> cont_1_lstm1_cont_slice_0_split_0
I0722 15:59:40.707423 16474 net.cpp:399] cont_1_lstm1_cont_slice_0_split -> cont_1_lstm1_cont_slice_0_split_1
I0722 15:59:40.707545 16474 net.cpp:141] Setting up cont_1_lstm1_cont_slice_0_split
I0722 15:59:40.707556 16474 net.cpp:148] Top shape: 1 1 (1)
I0722 15:59:40.707561 16474 net.cpp:148] Top shape: 1 1 (1)
I0722 15:59:40.707566 16474 net.cpp:156] Memory required for data: 10016
I0722 15:59:40.707569 16474 layer_factory.hpp:77] Creating layer lstm1_x_transform
I0722 15:59:40.707584 16474 net.cpp:91] Creating Layer lstm1_x_transform
I0722 15:59:40.707589 16474 net.cpp:425] lstm1_x_transform <- x
I0722 15:59:40.707597 16474 net.cpp:399] lstm1_x_transform -> W_xc_x
I0722 15:59:40.724769 16470 net.cpp:141] Setting up embedding
I0722 15:59:40.724813 16470 net.cpp:148] Top shape: 1 1 500 (500)
I0722 15:59:40.724819 16470 net.cpp:156] Memory required for data: 22408
I0722 15:59:40.724838 16470 layer_factory.hpp:77] Creating layer lstm1
I0722 15:59:40.724860 16470 net.cpp:91] Creating Layer lstm1
I0722 15:59:40.724869 16470 net.cpp:425] lstm1 <- embedded_input_frames
I0722 15:59:40.724877 16470 net.cpp:425] lstm1 <- cont_sentence_input_1_split_0
I0722 15:59:40.724889 16470 net.cpp:399] lstm1 -> lstm1
I0722 15:59:40.724905 16470 recurrent_layer.cpp:20] Initializing recurrent layer: assuming input batch contains 1 timesteps of 1 independent streams.
I0722 15:59:40.725188 16470 net.cpp:49] Initializing net from parameters: 
layer {
  name: "lstm1_"
  type: "Input"
  top: "x"
  top: "cont"
  input_param {
    shape {
      dim: 1
      dim: 1
      dim: 500
    }
    shape {
      dim: 1
      dim: 1
    }
  }
}
layer {
  name: "lstm1_"
  type: "Input"
  top: "c_0"
  top: "h_0"
  input_param {
    shape {
      dim: 1
      dim: 1
      dim: 1000
    }
    shape {
      dim: 1
      dim: 1
      dim: 1000
    }
  }
}
layer {
  name: "lstm1_cont_slice"
  type: "Slice"
  bottom: "cont"
  top: "cont_1"
  slice_param {
    axis: 0
  }
}
layer {
  name: "lstm1_x_transform"
  type: "InnerProduct"
  bottom: "x"
  top: "W_xc_x"
  param {
    name: "W_xc"
  }
  param {
    name: "b_c"
  }
  propagate_down: true
  inner_product_param {
    num_output: 4000
    bias_term: true
    weight_filler {
      type: "uniform"
      min: -0.08
      max: 0.08
    }
    bias_filler {
      type: "constant"
      value: 0
    }
    axis: 2
  }
}
layer {
  name: "lstm1_W_xc_x_slice"
  type: "Slice"
  bottom: "W_xc_x"
  top: "W_xc_x_1"
  slice_param {
    axis: 0
  }
}
layer {
  name: "lstm1_h_conted_0"
  type: "Scale"
  bottom: "h_0"
  bottom: "cont_1"
  top: "h_conted_0"
  scale_param {
    axis: 0
  }
}
layer {
  name: "lstm1_transform_1"
  type: "InnerProduct"
  bottom: "h_conted_0"
  top: "W_hc_h_0"
  param {
    name: "W_hc"
  }
  inner_product_param {
    num_output: 4000
    bias_term: false
    weight_filler {
      type: "uniform"
      min: -0.08
      max: 0.08
    }
    axis: 2
  }
}
layer {
  name: "lstm1_gate_input_1"
  type: "Eltwise"
  bottom: "W_hc_h_0"
  bottom: "W_xc_x_1"
  top: "gate_input_1"
  eltwise_param {
    operation: SUM
  }
}
layer {
  name: "lstm1_unit_1"
  type: "LSTMUnit"
  bottom: "c_0"
  bottom: "gate_input_1"
  bottom: "cont_1"
  top: "c_1"
  top: "h_1"
}
layer {
  name: "lstm1_"
  type: "Split"
  bottom: "c_1"
  top: "c_T"
}
layer {
  name: "lstm1_h_concat"
  type: "Concat"
  bottom: "h_1"
  top: "h"
  concat_param {
    axis: 0
  }
}
layer {
  name: "h_pseudoloss"
  type: "Reduction"
  bottom: "h"
  top: "h_pseudoloss"
  loss_weight: 1
}
I0722 15:59:40.725286 16470 layer_factory.hpp:77] Creating layer lstm1_
I0722 15:59:40.725298 16470 net.cpp:91] Creating Layer lstm1_
I0722 15:59:40.725304 16470 net.cpp:399] lstm1_ -> x
I0722 15:59:40.725317 16470 net.cpp:399] lstm1_ -> cont
I0722 15:59:40.725422 16470 net.cpp:141] Setting up lstm1_
I0722 15:59:40.725433 16470 net.cpp:148] Top shape: 1 1 500 (500)
I0722 15:59:40.725440 16470 net.cpp:148] Top shape: 1 1 (1)
I0722 15:59:40.725445 16470 net.cpp:156] Memory required for data: 2004
I0722 15:59:40.725450 16470 layer_factory.hpp:77] Creating layer lstm1_
I0722 15:59:40.725457 16470 net.cpp:91] Creating Layer lstm1_
I0722 15:59:40.725466 16470 net.cpp:399] lstm1_ -> c_0
I0722 15:59:40.725479 16470 net.cpp:399] lstm1_ -> h_0
I0722 15:59:40.726184 16470 net.cpp:141] Setting up lstm1_
I0722 15:59:40.726198 16470 net.cpp:148] Top shape: 1 1 1000 (1000)
I0722 15:59:40.726204 16470 net.cpp:148] Top shape: 1 1 1000 (1000)
I0722 15:59:40.726208 16470 net.cpp:156] Memory required for data: 10004
I0722 15:59:40.726213 16470 layer_factory.hpp:77] Creating layer lstm1_cont_slice
I0722 15:59:40.726223 16470 net.cpp:91] Creating Layer lstm1_cont_slice
I0722 15:59:40.726228 16470 net.cpp:425] lstm1_cont_slice <- cont
I0722 15:59:40.726238 16470 net.cpp:399] lstm1_cont_slice -> cont_1
I0722 15:59:40.726310 16470 net.cpp:141] Setting up lstm1_cont_slice
I0722 15:59:40.726321 16470 net.cpp:148] Top shape: 1 1 (1)
I0722 15:59:40.726326 16470 net.cpp:156] Memory required for data: 10008
I0722 15:59:40.726331 16470 layer_factory.hpp:77] Creating layer cont_1_lstm1_cont_slice_0_split
I0722 15:59:40.726338 16470 net.cpp:91] Creating Layer cont_1_lstm1_cont_slice_0_split
I0722 15:59:40.726343 16470 net.cpp:425] cont_1_lstm1_cont_slice_0_split <- cont_1
I0722 15:59:40.726352 16470 net.cpp:399] cont_1_lstm1_cont_slice_0_split -> cont_1_lstm1_cont_slice_0_split_0
I0722 15:59:40.726361 16470 net.cpp:399] cont_1_lstm1_cont_slice_0_split -> cont_1_lstm1_cont_slice_0_split_1
I0722 15:59:40.726467 16470 net.cpp:141] Setting up cont_1_lstm1_cont_slice_0_split
I0722 15:59:40.726478 16470 net.cpp:148] Top shape: 1 1 (1)
I0722 15:59:40.726485 16470 net.cpp:148] Top shape: 1 1 (1)
I0722 15:59:40.726488 16470 net.cpp:156] Memory required for data: 10016
I0722 15:59:40.726493 16470 layer_factory.hpp:77] Creating layer lstm1_x_transform
I0722 15:59:40.726505 16470 net.cpp:91] Creating Layer lstm1_x_transform
I0722 15:59:40.726511 16470 net.cpp:425] lstm1_x_transform <- x
I0722 15:59:40.726518 16470 net.cpp:399] lstm1_x_transform -> W_xc_x
I0722 15:59:40.732602 16474 net.cpp:141] Setting up lstm1_x_transform
I0722 15:59:40.732642 16474 net.cpp:148] Top shape: 1 1 4000 (4000)
I0722 15:59:40.732648 16474 net.cpp:156] Memory required for data: 26016
I0722 15:59:40.732669 16474 layer_factory.hpp:77] Creating layer lstm1_W_xc_x_slice
I0722 15:59:40.732689 16474 net.cpp:91] Creating Layer lstm1_W_xc_x_slice
I0722 15:59:40.732697 16474 net.cpp:425] lstm1_W_xc_x_slice <- W_xc_x
I0722 15:59:40.732707 16474 net.cpp:399] lstm1_W_xc_x_slice -> W_xc_x_1
I0722 15:59:40.732776 16474 net.cpp:141] Setting up lstm1_W_xc_x_slice
I0722 15:59:40.732789 16474 net.cpp:148] Top shape: 1 1 4000 (4000)
I0722 15:59:40.732792 16474 net.cpp:156] Memory required for data: 42016
I0722 15:59:40.732797 16474 layer_factory.hpp:77] Creating layer lstm1_h_conted_0
I0722 15:59:40.732810 16474 net.cpp:91] Creating Layer lstm1_h_conted_0
I0722 15:59:40.732815 16474 net.cpp:425] lstm1_h_conted_0 <- h_0
I0722 15:59:40.732820 16474 net.cpp:425] lstm1_h_conted_0 <- cont_1_lstm1_cont_slice_0_split_0
I0722 15:59:40.732827 16474 net.cpp:399] lstm1_h_conted_0 -> h_conted_0
I0722 15:59:40.733013 16474 net.cpp:141] Setting up lstm1_h_conted_0
I0722 15:59:40.733024 16474 net.cpp:148] Top shape: 1 1 1000 (1000)
I0722 15:59:40.733028 16474 net.cpp:156] Memory required for data: 46016
I0722 15:59:40.733033 16474 layer_factory.hpp:77] Creating layer lstm1_transform_1
I0722 15:59:40.733045 16474 net.cpp:91] Creating Layer lstm1_transform_1
I0722 15:59:40.733050 16474 net.cpp:425] lstm1_transform_1 <- h_conted_0
I0722 15:59:40.733060 16474 net.cpp:399] lstm1_transform_1 -> W_hc_h_0
I0722 15:59:40.748878 16470 net.cpp:141] Setting up lstm1_x_transform
I0722 15:59:40.748924 16470 net.cpp:148] Top shape: 1 1 4000 (4000)
I0722 15:59:40.748931 16470 net.cpp:156] Memory required for data: 26016
I0722 15:59:40.748955 16470 layer_factory.hpp:77] Creating layer lstm1_W_xc_x_slice
I0722 15:59:40.748971 16470 net.cpp:91] Creating Layer lstm1_W_xc_x_slice
I0722 15:59:40.748978 16470 net.cpp:425] lstm1_W_xc_x_slice <- W_xc_x
I0722 15:59:40.748988 16470 net.cpp:399] lstm1_W_xc_x_slice -> W_xc_x_1
I0722 15:59:40.749053 16470 net.cpp:141] Setting up lstm1_W_xc_x_slice
I0722 15:59:40.749064 16470 net.cpp:148] Top shape: 1 1 4000 (4000)
I0722 15:59:40.749068 16470 net.cpp:156] Memory required for data: 42016
I0722 15:59:40.749073 16470 layer_factory.hpp:77] Creating layer lstm1_h_conted_0
I0722 15:59:40.749083 16470 net.cpp:91] Creating Layer lstm1_h_conted_0
I0722 15:59:40.749089 16470 net.cpp:425] lstm1_h_conted_0 <- h_0
I0722 15:59:40.749094 16470 net.cpp:425] lstm1_h_conted_0 <- cont_1_lstm1_cont_slice_0_split_0
I0722 15:59:40.749101 16470 net.cpp:399] lstm1_h_conted_0 -> h_conted_0
I0722 15:59:40.749248 16470 net.cpp:141] Setting up lstm1_h_conted_0
I0722 15:59:40.749258 16470 net.cpp:148] Top shape: 1 1 1000 (1000)
I0722 15:59:40.749263 16470 net.cpp:156] Memory required for data: 46016
I0722 15:59:40.749267 16470 layer_factory.hpp:77] Creating layer lstm1_transform_1
I0722 15:59:40.749279 16470 net.cpp:91] Creating Layer lstm1_transform_1
I0722 15:59:40.749284 16470 net.cpp:425] lstm1_transform_1 <- h_conted_0
I0722 15:59:40.749294 16470 net.cpp:399] lstm1_transform_1 -> W_hc_h_0
I0722 15:59:40.765254 16488 net.cpp:141] Setting up fc6
I0722 15:59:40.765300 16488 net.cpp:148] Top shape: 10 4096 (40960)
I0722 15:59:40.765308 16488 net.cpp:156] Memory required for data: 67782200
I0722 15:59:40.765324 16488 layer_factory.hpp:77] Creating layer relu6
I0722 15:59:40.765342 16488 net.cpp:91] Creating Layer relu6
I0722 15:59:40.765352 16488 net.cpp:425] relu6 <- fc6
I0722 15:59:40.765362 16488 net.cpp:386] relu6 -> fc6 (in-place)
I0722 15:59:40.765755 16488 net.cpp:141] Setting up relu6
I0722 15:59:40.765770 16488 net.cpp:148] Top shape: 10 4096 (40960)
I0722 15:59:40.765776 16488 net.cpp:156] Memory required for data: 67946040
I0722 15:59:40.765782 16488 layer_factory.hpp:77] Creating layer drop6
I0722 15:59:40.765794 16488 net.cpp:91] Creating Layer drop6
I0722 15:59:40.765802 16488 net.cpp:425] drop6 <- fc6
I0722 15:59:40.765810 16488 net.cpp:386] drop6 -> fc6 (in-place)
I0722 15:59:40.765882 16488 net.cpp:141] Setting up drop6
I0722 15:59:40.765892 16488 net.cpp:148] Top shape: 10 4096 (40960)
I0722 15:59:40.765897 16488 net.cpp:156] Memory required for data: 68109880
I0722 15:59:40.765902 16488 layer_factory.hpp:77] Creating layer fc7
I0722 15:59:40.765916 16488 net.cpp:91] Creating Layer fc7
I0722 15:59:40.765921 16488 net.cpp:425] fc7 <- fc6
I0722 15:59:40.765929 16488 net.cpp:399] fc7 -> fc7
I0722 15:59:40.797745 16474 net.cpp:141] Setting up lstm1_transform_1
I0722 15:59:40.797793 16474 net.cpp:148] Top shape: 1 1 4000 (4000)
I0722 15:59:40.797799 16474 net.cpp:156] Memory required for data: 62016
I0722 15:59:40.797821 16474 layer_factory.hpp:77] Creating layer lstm1_gate_input_1
I0722 15:59:40.797843 16474 net.cpp:91] Creating Layer lstm1_gate_input_1
I0722 15:59:40.797852 16474 net.cpp:425] lstm1_gate_input_1 <- W_hc_h_0
I0722 15:59:40.797860 16474 net.cpp:425] lstm1_gate_input_1 <- W_xc_x_1
I0722 15:59:40.797868 16474 net.cpp:399] lstm1_gate_input_1 -> gate_input_1
I0722 15:59:40.803110 16470 net.cpp:141] Setting up lstm1_transform_1
I0722 15:59:40.803138 16470 net.cpp:148] Top shape: 1 1 4000 (4000)
I0722 15:59:40.803138 16474 net.cpp:141] Setting up lstm1_gate_input_1
I0722 15:59:40.803151 16470 net.cpp:156] Memory required for data: 62016
I0722 15:59:40.803161 16474 net.cpp:148] Top shape: 1 1 4000 (4000)
I0722 15:59:40.803167 16474 net.cpp:156] Memory required for data: 78016
I0722 15:59:40.803169 16470 layer_factory.hpp:77] Creating layer lstm1_gate_input_1
I0722 15:59:40.803172 16474 layer_factory.hpp:77] Creating layer lstm1_unit_1
I0722 15:59:40.803184 16474 net.cpp:91] Creating Layer lstm1_unit_1
I0722 15:59:40.803189 16474 net.cpp:425] lstm1_unit_1 <- c_0
I0722 15:59:40.803190 16470 net.cpp:91] Creating Layer lstm1_gate_input_1
I0722 15:59:40.803194 16474 net.cpp:425] lstm1_unit_1 <- gate_input_1
I0722 15:59:40.803200 16474 net.cpp:425] lstm1_unit_1 <- cont_1_lstm1_cont_slice_0_split_1
I0722 15:59:40.803200 16470 net.cpp:425] lstm1_gate_input_1 <- W_hc_h_0
I0722 15:59:40.803210 16474 net.cpp:399] lstm1_unit_1 -> c_1
I0722 15:59:40.803211 16470 net.cpp:425] lstm1_gate_input_1 <- W_xc_x_1
I0722 15:59:40.803220 16474 net.cpp:399] lstm1_unit_1 -> h_1
I0722 15:59:40.803223 16470 net.cpp:399] lstm1_gate_input_1 -> gate_input_1
I0722 15:59:40.803827 16470 net.cpp:141] Setting up lstm1_gate_input_1
I0722 15:59:40.803843 16470 net.cpp:148] Top shape: 1 1 4000 (4000)
I0722 15:59:40.803850 16470 net.cpp:156] Memory required for data: 78016
I0722 15:59:40.803859 16470 layer_factory.hpp:77] Creating layer lstm1_unit_1
I0722 15:59:40.803874 16470 net.cpp:91] Creating Layer lstm1_unit_1
I0722 15:59:40.803884 16470 net.cpp:425] lstm1_unit_1 <- c_0
I0722 15:59:40.803892 16470 net.cpp:425] lstm1_unit_1 <- gate_input_1
I0722 15:59:40.803902 16470 net.cpp:425] lstm1_unit_1 <- cont_1_lstm1_cont_slice_0_split_1
I0722 15:59:40.803913 16470 net.cpp:399] lstm1_unit_1 -> c_1
I0722 15:59:40.803927 16470 net.cpp:399] lstm1_unit_1 -> h_1
I0722 15:59:40.803941 16474 net.cpp:141] Setting up lstm1_unit_1
I0722 15:59:40.803958 16474 net.cpp:148] Top shape: 1 1 1000 (1000)
I0722 15:59:40.803966 16474 net.cpp:148] Top shape: 1 1 1000 (1000)
I0722 15:59:40.803969 16474 net.cpp:156] Memory required for data: 86016
I0722 15:59:40.803974 16474 layer_factory.hpp:77] Creating layer lstm1_
I0722 15:59:40.803987 16474 net.cpp:91] Creating Layer lstm1_
I0722 15:59:40.803992 16474 net.cpp:425] lstm1_ <- c_1
I0722 15:59:40.803998 16474 net.cpp:399] lstm1_ -> c_T
I0722 15:59:40.804134 16474 net.cpp:141] Setting up lstm1_
I0722 15:59:40.804147 16474 net.cpp:148] Top shape: 1 1 1000 (1000)
I0722 15:59:40.804150 16474 net.cpp:156] Memory required for data: 90016
I0722 15:59:40.804155 16474 layer_factory.hpp:77] Creating layer lstm1_h_concat
I0722 15:59:40.804167 16474 net.cpp:91] Creating Layer lstm1_h_concat
I0722 15:59:40.804172 16474 net.cpp:425] lstm1_h_concat <- h_1
I0722 15:59:40.804179 16474 net.cpp:399] lstm1_h_concat -> h
I0722 15:59:40.804214 16470 net.cpp:141] Setting up lstm1_unit_1
I0722 15:59:40.804234 16470 net.cpp:148] Top shape: 1 1 1000 (1000)
I0722 15:59:40.804246 16470 net.cpp:148] Top shape: 1 1 1000 (1000)
I0722 15:59:40.804255 16470 net.cpp:156] Memory required for data: 86016
I0722 15:59:40.804256 16474 net.cpp:141] Setting up lstm1_h_concat
I0722 15:59:40.804263 16470 layer_factory.hpp:77] Creating layer lstm1_
I0722 15:59:40.804267 16474 net.cpp:148] Top shape: 1 1 1000 (1000)
I0722 15:59:40.804271 16474 net.cpp:156] Memory required for data: 94016
I0722 15:59:40.804276 16474 layer_factory.hpp:77] Creating layer h_pseudoloss
I0722 15:59:40.804280 16470 net.cpp:91] Creating Layer lstm1_
I0722 15:59:40.804289 16470 net.cpp:425] lstm1_ <- c_1
I0722 15:59:40.804291 16474 net.cpp:91] Creating Layer h_pseudoloss
I0722 15:59:40.804304 16474 net.cpp:425] h_pseudoloss <- h
I0722 15:59:40.804308 16470 net.cpp:399] lstm1_ -> c_T
I0722 15:59:40.804311 16474 net.cpp:399] h_pseudoloss -> h_pseudoloss
I0722 15:59:40.804438 16470 net.cpp:141] Setting up lstm1_
I0722 15:59:40.804456 16470 net.cpp:148] Top shape: 1 1 1000 (1000)
I0722 15:59:40.804466 16470 net.cpp:156] Memory required for data: 90016
I0722 15:59:40.804474 16470 layer_factory.hpp:77] Creating layer lstm1_h_concat
I0722 15:59:40.804487 16470 net.cpp:91] Creating Layer lstm1_h_concat
I0722 15:59:40.804497 16470 net.cpp:425] lstm1_h_concat <- h_1
I0722 15:59:40.804510 16470 net.cpp:399] lstm1_h_concat -> h
I0722 15:59:40.809039 16470 net.cpp:141] Setting up lstm1_h_concat
I0722 15:59:40.809070 16470 net.cpp:148] Top shape: 1 1 1000 (1000)
I0722 15:59:40.809078 16470 net.cpp:156] Memory required for data: 94016
I0722 15:59:40.809087 16470 layer_factory.hpp:77] Creating layer h_pseudoloss
I0722 15:59:40.809103 16470 net.cpp:91] Creating Layer h_pseudoloss
I0722 15:59:40.809111 16470 net.cpp:425] h_pseudoloss <- h
I0722 15:59:40.809123 16470 net.cpp:399] h_pseudoloss -> h_pseudoloss
I0722 15:59:40.809149 16474 net.cpp:141] Setting up h_pseudoloss
…
I0722 15:59:40.809463 16470 net.cpp:219] cont_1_lstm1_cont_slice_0_split does not need backward computation.
I0722 15:59:40.809473 16470 net.cpp:219] lstm1_cont_slice does not need backward computation.
I0722 15:59:40.809480 16470 net.cpp:219] lstm1_ does not need backward computation.
I0722 15:59:40.809489 16470 net.cpp:219] lstm1_ does not need backward computation.
I0722 15:59:40.809495 16470 net.cpp:261] This network produces output c_T
I0722 15:59:40.809502 16470 net.cpp:261] This network produces output h_pseudoloss
I0722 15:59:40.809528 16470 net.cpp:274] Network initialization done.
I0722 15:59:40.809548 16474 net.cpp:141] Setting up lstm1
I0722 15:59:40.809561 16474 net.cpp:148] Top shape: 1 1 1000 (1000)
I0722 15:59:40.809566 16474 net.cpp:156] Memory required for data: 26408
I0722 15:59:40.809578 16474 layer_factory.hpp:77] Creating layer concat
I0722 15:59:40.809588 16474 net.cpp:91] Creating Layer concat
I0722 15:59:40.809587 16470 recurrent_layer.cpp:150] Adding parameter 0: W_xc
I0722 15:59:40.809595 16474 net.cpp:425] concat <- lstm1
I0722 15:59:40.809597 16470 recurrent_layer.cpp:150] Adding parameter 1: b_c
I0722 15:59:40.809602 16474 net.cpp:425] concat <- embedded_input_sentence
I0722 15:59:40.809605 16470 recurrent_layer.cpp:150] Adding parameter 2: W_hc
I0722 15:59:40.809607 16474 net.cpp:425] concat <- reshaped_stage_indicator
I0722 15:59:40.809619 16474 net.cpp:399] concat -> lstm1_video_sequence
I0722 15:59:40.809777 16474 net.cpp:141] Setting up concat
I0722 15:59:40.809792 16474 net.cpp:148] Top shape: 1 1 1501 (1501)
I0722 15:59:40.809797 16474 net.cpp:156] Memory required for data: 32412
I0722 15:59:40.809801 16474 layer_factory.hpp:77] Creating layer lstm2
I0722 15:59:40.809816 16474 net.cpp:91] Creating Layer lstm2
I0722 15:59:40.809821 16474 net.cpp:425] lstm2 <- lstm1_video_sequence
I0722 15:59:40.809828 16474 net.cpp:425] lstm2 <- cont_sentence_input_1_split_1
I0722 15:59:40.809835 16474 net.cpp:399] lstm2 -> lstm2
I0722 15:59:40.809849 16474 recurrent_layer.cpp:20] Initializing recurrent layer: assuming input batch contains 1 timesteps of 1 independent streams.
I0722 15:59:40.809939 16470 net.cpp:141] Setting up lstm1
I0722 15:59:40.809957 16470 net.cpp:148] Top shape: 1 1 1000 (1000)
I0722 15:59:40.809963 16470 net.cpp:156] Memory required for data: 26408
I0722 15:59:40.809978 16470 layer_factory.hpp:77] Creating layer concat
I0722 15:59:40.809986 16470 net.cpp:91] Creating Layer concat
I0722 15:59:40.809993 16470 net.cpp:425] concat <- lstm1
I0722 15:59:40.809999 16470 net.cpp:425] concat <- embedded_input_sentence
I0722 15:59:40.810005 16470 net.cpp:425] concat <- reshaped_stage_indicator
I0722 15:59:40.810011 16470 net.cpp:399] concat -> lstm1_video_sequence
I0722 15:59:40.810067 16470 net.cpp:141] Setting up concat
I0722 15:59:40.810077 16470 net.cpp:148] Top shape: 1 1 1501 (1501)
I0722 15:59:40.810081 16470 net.cpp:156] Memory required for data: 32412
I0722 15:59:40.810086 16470 layer_factory.hpp:77] Creating layer lstm2
I0722 15:59:40.810097 16470 net.cpp:91] Creating Layer lstm2
I0722 15:59:40.810102 16470 net.cpp:425] lstm2 <- lstm1_video_sequence
I0722 15:59:40.810107 16470 net.cpp:425] lstm2 <- cont_sentence_input_1_split_1
I0722 15:59:40.810116 16470 net.cpp:399] lstm2 -> lstm2
I0722 15:59:40.810124 16470 recurrent_layer.cpp:20] Initializing recurrent layer: assuming input batch contains 1 timesteps of 1 independent streams.
I0722 15:59:40.810153 16474 net.cpp:49] Initializing net from parameters: 
layer {
  name: "lstm2_"
  type: "Input"
  top: "x"
  top: "cont"
  input_param {
    shape {
      dim: 1
      dim: 1
      dim: 1501
    }
    shape {
      dim: 1
      dim: 1
    }
  }
}
layer {
  name: "lstm2_"
  type: "Input"
  top: "c_0"
  top: "h_0"
  input_param {
    shape {
      dim: 1
      dim: 1
      dim: 1000
    }
    shape {
      dim: 1
      dim: 1
      dim: 1000
    }
  }
}
layer {
  name: "lstm2_cont_slice"
  type: "Slice"
  bottom: "cont"
  top: "cont_1"
  slice_param {
    axis: 0
  }
}
layer {
  name: "lstm2_x_transform"
  type: "InnerProduct"
  bottom: "x"
  top: "W_xc_x"
  param {
    name: "W_xc"
  }
  param {
    name: "b_c"
  }
  propagate_down: true
  inner_product_param {
    num_output: 4000
    bias_term: true
    weight_filler {
      type: "uniform"
      min: -0.08
      max: 0.08
    }
    bias_filler {
      type: "constant"
      value: 0
    }
    axis: 2
  }
}
layer {
  name: "lstm2_W_xc_x_slice"
  type: "Slice"
  bottom: "W_xc_x"
  top: "W_xc_x_1"
  slice_param {
    axis: 0
  }
}
layer {
  name: "lstm2_h_conted_0"
  type: "Scale"
  bottom: "h_0"
  bottom: "cont_1"
  top: "h_conted_0"
  scale_param {
    axis: 0
  }
}
layer {
  name: "lstm2_transform_1"
  type: "InnerProduct"
  bottom: "h_conted_0"
  top: "W_hc_h_0"
  param {
    name: "W_hc"
  }
  inner_product_param {
    num_output: 4000
    bias_term: false
    weight_filler {
      type: "uniform"
      min: -0.08
      max: 0.08
    }
    axis: 2
  }
}
layer {
  name: "lstm2_gate_input_1"
  type: "Eltwise"
  bottom: "W_hc_h_0"
  bottom: "W_xc_x_1"
  top: "gate_input_1"
  eltwise_param {
    operation: SUM
  }
}
layer {
  name: "lstm2_unit_1"
  type: "LSTMUnit"
  bottom: "c_0"
  bottom: "gate_input_1"
  bottom: "cont_1"
  top: "c_1"
  top: "h_1"
}
layer {
  name: "lstm2_"
  type: "Split"
  bottom: "c_1"
  top: "c_T"
}
layer {
  name: "lstm2_h_concat"
  type: "Concat"
  bottom: "h_1"
  top: "h"
  concat_param {
    axis: 0
  }
}
layer {
  name: "h_pseudoloss"
  type: "Reduction"
  bottom: "h"
  top: "h_pseudoloss"
  loss_weight: 1
}
I0722 15:59:40.810271 16474 layer_factory.hpp:77] Creating layer lstm2_
I0722 15:59:40.810286 16474 net.cpp:91] Creating Layer lstm2_
I0722 15:59:40.810292 16474 net.cpp:399] lstm2_ -> x
I0722 15:59:40.810302 16474 net.cpp:399] lstm2_ -> cont
I0722 15:59:40.810317 16470 net.cpp:49] Initializing net from parameters: 
layer {
  name: "lstm2_"
  type: "Input"
  top: "x"
  top: "cont"
  input_param {
    shape {
      dim: 1
      dim: 1
      dim: 1501
    }
    shape {
      dim: 1
      dim: 1
    }
  }
}
layer {
  name: "lstm2_"
  type: "Input"
  top: "c_0"
  top: "h_0"
  input_param {
    shape {
      dim: 1
      dim: 1
      dim: 1000
    }
    shape {
      dim: 1
      dim: 1
      dim: 1000
    }
  }
}
layer {
  name: "lstm2_cont_slice"
  type: "Slice"
  bottom: "cont"
  top: "cont_1"
  slice_param {
    axis: 0
  }
}
layer {
  name: "lstm2_x_transform"
  type: "InnerProduct"
  bottom: "x"
  top: "W_xc_x"
  param {
    name: "W_xc"
  }
  param {
    name: "b_c"
  }
  propagate_down: true
  inner_product_param {
    num_output: 4000
    bias_term: true
    weight_filler {
      type: "uniform"
      min: -0.08
      max: 0.08
    }
    bias_filler {
      type: "constant"
      value: 0
    }
    axis: 2
  }
}
layer {
  name: "lstm2_W_xc_x_slice"
  type: "Slice"
  bottom: "W_xc_x"
  top: "W_xc_x_1"
  slice_param {
    axis: 0
  }
}
layer {
  name: "lstm2_h_conted_0"
  type: "Scale"
  bottom: "h_0"
  bottom: "cont_1"
  top: "h_conted_0"
  scale_param {
    axis: 0
  }
}
layer {
  name: "lstm2_transform_1"
  type: "InnerProduct"
  bottom: "h_conted_0"
  top: "W_hc_h_0"
  param {
    name: "W_hc"
  }
  inner_product_param {
    num_output: 4000
    bias_term: false
    weight_filler {
      type: "uniform"
      min: -0.08
      max: 0.08
    }
    axis: 2
  }
}
layer {
  name: "lstm2_gate_input_1"
  type: "Eltwise"
  bottom: "W_hc_h_0"
  bottom: "W_xc_x_1"
  top: "gate_input_1"
  eltwise_param {
    operation: SUM
  }
}
layer {
  name: "lstm2_unit_1"
  type: "LSTMUnit"
  bottom: "c_0"
  bottom: "gate_input_1"
  bottom: "cont_1"
  top: "c_1"
  top: "h_1"
}
layer {
  name: "lstm2_"
  type: "Split"
  bottom: "c_1"
  top: "c_T"
}
layer {
  name: "lstm2_h_concat"
  type: "Concat"
  bottom: "h_1"
  top: "h"
  concat_param {
    axis: 0
  }
}
layer {
  name: "h_pseudoloss"
  type: "Reduction"
  bottom: "h"
  top: "h_pseudoloss"
  loss_weight: 1
}
I0722 15:59:40.810395 16470 layer_factory.hpp:77] Creating layer lstm2_
I0722 15:59:40.810402 16474 net.cpp:141] Setting up lstm2_
I0722 15:59:40.810405 16470 net.cpp:91] Creating Layer lstm2_
I0722 15:59:40.810413 16470 net.cpp:399] lstm2_ -> x
I0722 15:59:40.810413 16474 net.cpp:148] Top shape: 1 1 1501 (1501)
I0722 15:59:40.810437 16470 net.cpp:399] lstm2_ -> cont
I0722 15:59:40.810437 16474 net.cpp:148] Top shape: 1 1 (1)
I0722 15:59:40.810452 16474 net.cpp:156] Memory required for data: 6008
I0722 15:59:40.810457 16474 layer_factory.hpp:77] Creating layer lstm2_
I0722 15:59:40.810472 16474 net.cpp:91] Creating Layer lstm2_
I0722 15:59:40.810487 16474 net.cpp:399] lstm2_ -> c_0
I0722 15:59:40.810506 16474 net.cpp:399] lstm2_ -> h_0
I0722 15:59:40.810530 16470 net.cpp:141] Setting up lstm2_
I0722 15:59:40.810541 16470 net.cpp:148] Top shape: 1 1 1501 (1501)
I0722 15:59:40.810547 16470 net.cpp:148] Top shape: 1 1 (1)
I0722 15:59:40.810551 16470 net.cpp:156] Memory required for data: 6008
I0722 15:59:40.810556 16470 layer_factory.hpp:77] Creating layer lstm2_
I0722 15:59:40.810565 16470 net.cpp:91] Creating Layer lstm2_
I0722 15:59:40.810573 16470 net.cpp:399] lstm2_ -> c_0
I0722 15:59:40.810583 16470 net.cpp:399] lstm2_ -> h_0
I0722 15:59:40.810662 16474 net.cpp:141] Setting up lstm2_
I0722 15:59:40.810674 16474 net.cpp:148] Top shape: 1 1 1000 (1000)
I0722 15:59:40.810680 16474 net.cpp:148] Top shape: 1 1 1000 (1000)
I0722 15:59:40.810684 16474 net.cpp:156] Memory required for data: 14008
I0722 15:59:40.810703 16474 layer_factory.hpp:77] Creating layer lstm2_cont_slice
I0722 15:59:40.810711 16474 net.cpp:91] Creating Layer lstm2_cont_slice
I0722 15:59:40.810716 16474 net.cpp:425] lstm2_cont_slice <- cont
I0722 15:59:40.810729 16474 net.cpp:399] lstm2_cont_slice -> cont_1
I0722 15:59:40.810736 16470 net.cpp:141] Setting up lstm2_
I0722 15:59:40.810748 16470 net.cpp:148] Top shape: 1 1 1000 (1000)
I0722 15:59:40.810755 16470 net.cpp:148] Top shape: 1 1 1000 (1000)
I0722 15:59:40.810760 16470 net.cpp:156] Memory required for data: 14008
I0722 15:59:40.810765 16470 layer_factory.hpp:77] Creating layer lstm2_cont_slice
I0722 15:59:40.810772 16470 net.cpp:91] Creating Layer lstm2_cont_slice
I0722 15:59:40.810777 16470 net.cpp:425] lstm2_cont_slice <- cont
I0722 15:59:40.810786 16470 net.cpp:399] lstm2_cont_slice -> cont_1
I0722 15:59:40.810792 16474 net.cpp:141] Setting up lstm2_cont_slice
I0722 15:59:40.810803 16474 net.cpp:148] Top shape: 1 1 (1)
I0722 15:59:40.810807 16474 net.cpp:156] Memory required for data: 14012
I0722 15:59:40.810812 16474 layer_factory.hpp:77] Creating layer cont_1_lstm2_cont_slice_0_split
I0722 15:59:40.810819 16474 net.cpp:91] Creating Layer cont_1_lstm2_cont_slice_0_split
I0722 15:59:40.810823 16474 net.cpp:425] cont_1_lstm2_cont_slice_0_split <- cont_1
I0722 15:59:40.810832 16474 net.cpp:399] cont_1_lstm2_cont_slice_0_split -> cont_1_lstm2_cont_slice_0_split_0
I0722 15:59:40.810840 16474 net.cpp:399] cont_1_lstm2_cont_slice_0_split -> cont_1_lstm2_cont_slice_0_split_1
I0722 15:59:40.810843 16470 net.cpp:141] Setting up lstm2_cont_slice
I0722 15:59:40.810853 16470 net.cpp:148] Top shape: 1 1 (1)
I0722 15:59:40.810858 16470 net.cpp:156] Memory required for data: 14012
I0722 15:59:40.810863 16470 layer_factory.hpp:77] Creating layer cont_1_lstm2_cont_slice_0_split
I0722 15:59:40.810871 16470 net.cpp:91] Creating Layer cont_1_lstm2_cont_slice_0_split
I0722 15:59:40.810876 16470 net.cpp:425] cont_1_lstm2_cont_slice_0_split <- cont_1
I0722 15:59:40.810883 16470 net.cpp:399] cont_1_lstm2_cont_slice_0_split -> cont_1_lstm2_cont_slice_0_split_0
I0722 15:59:40.810891 16470 net.cpp:399] cont_1_lstm2_cont_slice_0_split -> cont_1_lstm2_cont_slice_0_split_1
I0722 15:59:40.810961 16474 net.cpp:141] Setting up cont_1_lstm2_cont_slice_0_split
I0722 15:59:40.810972 16474 net.cpp:148] Top shape: 1 1 (1)
I0722 15:59:40.810978 16474 net.cpp:148] Top shape: 1 1 (1)
I0722 15:59:40.810982 16474 net.cpp:156] Memory required for data: 14020
I0722 15:59:40.810987 16474 layer_factory.hpp:77] Creating layer lstm2_x_transform
I0722 15:59:40.811013 16474 net.cpp:91] Creating Layer lstm2_x_transform
I0722 15:59:40.811020 16474 net.cpp:425] lstm2_x_transform <- x
I0722 15:59:40.811029 16474 net.cpp:399] lstm2_x_transform -> W_xc_x
I0722 15:59:40.811033 16470 net.cpp:141] Setting up cont_1_lstm2_cont_slice_0_split
I0722 15:59:40.811045 16470 net.cpp:148] Top shape: 1 1 (1)
I0722 15:59:40.811051 16470 net.cpp:148] Top shape: 1 1 (1)
I0722 15:59:40.811056 16470 net.cpp:156] Memory required for data: 14020
I0722 15:59:40.811060 16470 layer_factory.hpp:77] Creating layer lstm2_x_transform
I0722 15:59:40.811074 16470 net.cpp:91] Creating Layer lstm2_x_transform
I0722 15:59:40.811079 16470 net.cpp:425] lstm2_x_transform <- x
I0722 15:59:40.811086 16470 net.cpp:399] lstm2_x_transform -> W_xc_x
I0722 15:59:40.840937 16488 net.cpp:141] Setting up fc7
I0722 15:59:40.840983 16488 net.cpp:148] Top shape: 10 4096 (40960)
I0722 15:59:40.840989 16488 net.cpp:156] Memory required for data: 68273720
I0722 15:59:40.841011 16488 layer_factory.hpp:77] Creating layer relu7
I0722 15:59:40.841032 16488 net.cpp:91] Creating Layer relu7
I0722 15:59:40.841040 16488 net.cpp:425] relu7 <- fc7
I0722 15:59:40.841053 16488 net.cpp:386] relu7 -> fc7 (in-place)
I0722 15:59:40.842716 16488 net.cpp:141] Setting up relu7
I0722 15:59:40.842759 16488 net.cpp:148] Top shape: 10 4096 (40960)
I0722 15:59:40.842772 16488 net.cpp:156] Memory required for data: 68437560
I0722 15:59:40.842778 16488 layer_factory.hpp:77] Creating layer drop7
I0722 15:59:40.842792 16488 net.cpp:91] Creating Layer drop7
I0722 15:59:40.842798 16488 net.cpp:425] drop7 <- fc7
I0722 15:59:40.842806 16488 net.cpp:386] drop7 -> fc7 (in-place)
I0722 15:59:40.846876 16488 net.cpp:141] Setting up drop7
I0722 15:59:40.846902 16488 net.cpp:148] Top shape: 10 4096 (40960)
I0722 15:59:40.846909 16488 net.cpp:156] Memory required for data: 68601400
I0722 15:59:40.846916 16488 layer_factory.hpp:77] Creating layer fc8
I0722 15:59:40.846931 16488 net.cpp:91] Creating Layer fc8
I0722 15:59:40.846938 16488 net.cpp:425] fc8 <- fc7
I0722 15:59:40.846946 16488 net.cpp:399] fc8 -> fc8
I0722 15:59:40.871162 16488 net.cpp:141] Setting up fc8
I0722 15:59:40.871215 16488 net.cpp:148] Top shape: 10 1000 (10000)
I0722 15:59:40.871222 16488 net.cpp:156] Memory required for data: 68641400
I0722 15:59:40.871242 16488 layer_factory.hpp:77] Creating layer prob
I0722 15:59:40.871259 16488 net.cpp:91] Creating Layer prob
I0722 15:59:40.871268 16488 net.cpp:425] prob <- fc8
I0722 15:59:40.871284 16488 net.cpp:399] prob -> prob
I0722 15:59:40.871865 16488 net.cpp:141] Setting up prob
I0722 15:59:40.871879 16488 net.cpp:148] Top shape: 10 1000 (10000)
I0722 15:59:40.871884 16488 net.cpp:156] Memory required for data: 68681400
I0722 15:59:40.871891 16488 net.cpp:219] prob does not need backward computation.
I0722 15:59:40.871896 16488 net.cpp:219] fc8 does not need backward computation.
I0722 15:59:40.871901 16488 net.cpp:219] drop7 does not need backward computation.
I0722 15:59:40.871906 16488 net.cpp:219] relu7 does not need backward computation.
…
I0722 15:59:40.871987 16488 net.cpp:219] norm1 does not need backward computation.
I0722 15:59:40.871992 16488 net.cpp:219] pool1 does not need backward computation.
I0722 15:59:40.871997 16488 net.cpp:219] relu1 does not need backward computation.
I0722 15:59:40.872002 16488 net.cpp:219] conv1 does not need backward computation.
I0722 15:59:40.872007 16488 net.cpp:219] data does not need backward computation.
I0722 15:59:40.872011 16488 net.cpp:261] This network produces output prob
I0722 15:59:40.872033 16488 net.cpp:274] Network initialization done.
I0722 15:59:40.881830 16474 net.cpp:141] Setting up lstm2_x_transform
I0722 15:59:40.881880 16474 net.cpp:148] Top shape: 1 1 4000 (4000)
I0722 15:59:40.881887 16474 net.cpp:156] Memory required for data: 30020
I0722 15:59:40.881909 16474 layer_factory.hpp:77] Creating layer lstm2_W_xc_x_slice
I0722 15:59:40.881930 16474 net.cpp:91] Creating Layer lstm2_W_xc_x_slice
I0722 15:59:40.881937 16474 net.cpp:425] lstm2_W_xc_x_slice <- W_xc_x
I0722 15:59:40.881947 16474 net.cpp:399] lstm2_W_xc_x_slice -> W_xc_x_1
I0722 15:59:40.882020 16474 net.cpp:141] Setting up lstm2_W_xc_x_slice
I0722 15:59:40.882031 16474 net.cpp:148] Top shape: 1 1 4000 (4000)
I0722 15:59:40.882036 16474 net.cpp:156] Memory required for data: 46020
I0722 15:59:40.882040 16474 layer_factory.hpp:77] Creating layer lstm2_h_conted_0
I0722 15:59:40.882051 16474 net.cpp:91] Creating Layer lstm2_h_conted_0
I0722 15:59:40.882056 16474 net.cpp:425] lstm2_h_conted_0 <- h_0
I0722 15:59:40.882062 16474 net.cpp:425] lstm2_h_conted_0 <- cont_1_lstm2_cont_slice_0_split_0
I0722 15:59:40.882068 16474 net.cpp:399] lstm2_h_conted_0 -> h_conted_0
I0722 15:59:40.882267 16474 net.cpp:141] Setting up lstm2_h_conted_0
I0722 15:59:40.882278 16474 net.cpp:148] Top shape: 1 1 1000 (1000)
I0722 15:59:40.882282 16474 net.cpp:156] Memory required for data: 50020
I0722 15:59:40.882287 16474 layer_factory.hpp:77] Creating layer lstm2_transform_1
I0722 15:59:40.882299 16474 net.cpp:91] Creating Layer lstm2_transform_1
I0722 15:59:40.882304 16474 net.cpp:425] lstm2_transform_1 <- h_conted_0
I0722 15:59:40.882313 16474 net.cpp:399] lstm2_transform_1 -> W_hc_h_0
I0722 15:59:40.895722 16470 net.cpp:141] Setting up lstm2_x_transform
I0722 15:59:40.895777 16470 net.cpp:148] Top shape: 1 1 4000 (4000)
I0722 15:59:40.895783 16470 net.cpp:156] Memory required for data: 30020
I0722 15:59:40.895808 16470 layer_factory.hpp:77] Creating layer lstm2_W_xc_x_slice
I0722 15:59:40.895828 16470 net.cpp:91] Creating Layer lstm2_W_xc_x_slice
I0722 15:59:40.895834 16470 net.cpp:425] lstm2_W_xc_x_slice <- W_xc_x
I0722 15:59:40.895844 16470 net.cpp:399] lstm2_W_xc_x_slice -> W_xc_x_1
I0722 15:59:40.895912 16470 net.cpp:141] Setting up lstm2_W_xc_x_slice
I0722 15:59:40.895923 16470 net.cpp:148] Top shape: 1 1 4000 (4000)
I0722 15:59:40.895928 16470 net.cpp:156] Memory required for data: 46020
I0722 15:59:40.895932 16470 layer_factory.hpp:77] Creating layer lstm2_h_conted_0
I0722 15:59:40.895943 16470 net.cpp:91] Creating Layer lstm2_h_conted_0
I0722 15:59:40.895948 16470 net.cpp:425] lstm2_h_conted_0 <- h_0
I0722 15:59:40.895954 16470 net.cpp:425] lstm2_h_conted_0 <- cont_1_lstm2_cont_slice_0_split_0
I0722 15:59:40.895961 16470 net.cpp:399] lstm2_h_conted_0 -> h_conted_0
I0722 15:59:40.896134 16470 net.cpp:141] Setting up lstm2_h_conted_0
I0722 15:59:40.896145 16470 net.cpp:148] Top shape: 1 1 1000 (1000)
I0722 15:59:40.896149 16470 net.cpp:156] Memory required for data: 50020
I0722 15:59:40.896154 16470 layer_factory.hpp:77] Creating layer lstm2_transform_1
I0722 15:59:40.896167 16470 net.cpp:91] Creating Layer lstm2_transform_1
I0722 15:59:40.896173 16470 net.cpp:425] lstm2_transform_1 <- h_conted_0
I0722 15:59:40.896183 16470 net.cpp:399] lstm2_transform_1 -> W_hc_h_0
I0722 15:59:40.927109 16474 net.cpp:141] Setting up lstm2_transform_1
I0722 15:59:40.927155 16474 net.cpp:148] Top shape: 1 1 4000 (4000)
I0722 15:59:40.927162 16474 net.cpp:156] Memory required for data: 66020
I0722 15:59:40.927181 16474 layer_factory.hpp:77] Creating layer lstm2_gate_input_1
I0722 15:59:40.927204 16474 net.cpp:91] Creating Layer lstm2_gate_input_1
I0722 15:59:40.927211 16474 net.cpp:425] lstm2_gate_input_1 <- W_hc_h_0
I0722 15:59:40.927220 16474 net.cpp:425] lstm2_gate_input_1 <- W_xc_x_1
I0722 15:59:40.927228 16474 net.cpp:399] lstm2_gate_input_1 -> gate_input_1
I0722 15:59:40.927306 16474 net.cpp:141] Setting up lstm2_gate_input_1
I0722 15:59:40.927316 16474 net.cpp:148] Top shape: 1 1 4000 (4000)
I0722 15:59:40.927320 16474 net.cpp:156] Memory required for data: 82020
I0722 15:59:40.927325 16474 layer_factory.hpp:77] Creating layer lstm2_unit_1
I0722 15:59:40.927337 16474 net.cpp:91] Creating Layer lstm2_unit_1
I0722 15:59:40.927342 16474 net.cpp:425] lstm2_unit_1 <- c_0
I0722 15:59:40.927348 16474 net.cpp:425] lstm2_unit_1 <- gate_input_1
I0722 15:59:40.927353 16474 net.cpp:425] lstm2_unit_1 <- cont_1_lstm2_cont_slice_0_split_1
I0722 15:59:40.927359 16474 net.cpp:399] lstm2_unit_1 -> c_1
I0722 15:59:40.927371 16474 net.cpp:399] lstm2_unit_1 -> h_1
I0722 15:59:40.927490 16474 net.cpp:141] Setting up lstm2_unit_1
I0722 15:59:40.927500 16474 net.cpp:148] Top shape: 1 1 1000 (1000)
I0722 15:59:40.927506 16474 net.cpp:148] Top shape: 1 1 1000 (1000)
I0722 15:59:40.927511 16474 net.cpp:156] Memory required for data: 90020
I0722 15:59:40.927515 16474 layer_factory.hpp:77] Creating layer lstm2_
I0722 15:59:40.927523 16474 net.cpp:91] Creating Layer lstm2_
I0722 15:59:40.927528 16474 net.cpp:425] lstm2_ <- c_1
I0722 15:59:40.927537 16474 net.cpp:399] lstm2_ -> c_T
I0722 15:59:40.927589 16474 net.cpp:141] Setting up lstm2_
I0722 15:59:40.927598 16474 net.cpp:148] Top shape: 1 1 1000 (1000)
I0722 15:59:40.927603 16474 net.cpp:156] Memory required for data: 94020
I0722 15:59:40.927608 16474 layer_factory.hpp:77] Creating layer lstm2_h_concat
I0722 15:59:40.927616 16474 net.cpp:91] Creating Layer lstm2_h_concat
I0722 15:59:40.927621 16474 net.cpp:425] lstm2_h_concat <- h_1
I0722 15:59:40.927631 16474 net.cpp:399] lstm2_h_concat -> h
I0722 15:59:40.927690 16474 net.cpp:141] Setting up lstm2_h_concat
I0722 15:59:40.927700 16474 net.cpp:148] Top shape: 1 1 1000 (1000)
I0722 15:59:40.927703 16474 net.cpp:156] Memory required for data: 98020
I0722 15:59:40.927708 16474 layer_factory.hpp:77] Creating layer h_pseudoloss
I0722 15:59:40.927719 16474 net.cpp:91] Creating Layer h_pseudoloss
I0722 15:59:40.927724 16474 net.cpp:425] h_pseudoloss <- h
I0722 15:59:40.927731 16474 net.cpp:399] h_pseudoloss -> h_pseudoloss
I0722 15:59:40.927935 16474 net.cpp:141] Setting up h_pseudoloss
…
I0722 15:59:40.928032 16474 net.cpp:219] lstm2_ does not need backward computation.
I0722 15:59:40.928036 16474 net.cpp:261] This network produces output c_T
I0722 15:59:40.928040 16474 net.cpp:261] This network produces output h_pseudoloss
I0722 15:59:40.928056 16474 net.cpp:274] Network initialization done.
I0722 15:59:40.928104 16474 recurrent_layer.cpp:150] Adding parameter 0: W_xc
I0722 15:59:40.928110 16474 recurrent_layer.cpp:150] Adding parameter 1: b_c
I0722 15:59:40.928114 16474 recurrent_layer.cpp:150] Adding parameter 2: W_hc
I0722 15:59:40.928277 16474 net.cpp:141] Setting up lstm2
I0722 15:59:40.928288 16474 net.cpp:148] Top shape: 1 1 1000 (1000)
I0722 15:59:40.928292 16474 net.cpp:156] Memory required for data: 36412
I0722 15:59:40.928305 16474 layer_factory.hpp:77] Creating layer predict
I0722 15:59:40.928319 16474 net.cpp:91] Creating Layer predict
I0722 15:59:40.928325 16474 net.cpp:425] predict <- lstm2
I0722 15:59:40.928333 16474 net.cpp:399] predict -> predict
I0722 15:59:41.005448 16470 net.cpp:141] Setting up lstm2_transform_1
I0722 15:59:41.005501 16470 net.cpp:148] Top shape: 1 1 4000 (4000)
I0722 15:59:41.005508 16470 net.cpp:156] Memory required for data: 66020
I0722 15:59:41.005532 16470 layer_factory.hpp:77] Creating layer lstm2_gate_input_1
I0722 15:59:41.005554 16470 net.cpp:91] Creating Layer lstm2_gate_input_1
I0722 15:59:41.005561 16470 net.cpp:425] lstm2_gate_input_1 <- W_hc_h_0
I0722 15:59:41.005570 16470 net.cpp:425] lstm2_gate_input_1 <- W_xc_x_1
I0722 15:59:41.005578 16470 net.cpp:399] lstm2_gate_input_1 -> gate_input_1
I0722 15:59:41.011239 16470 net.cpp:141] Setting up lstm2_gate_input_1
I0722 15:59:41.011293 16470 net.cpp:148] Top shape: 1 1 4000 (4000)
I0722 15:59:41.011301 16470 net.cpp:156] Memory required for data: 82020
I0722 15:59:41.011310 16470 layer_factory.hpp:77] Creating layer lstm2_unit_1
I0722 15:59:41.011332 16470 net.cpp:91] Creating Layer lstm2_unit_1
I0722 15:59:41.011339 16470 net.cpp:425] lstm2_unit_1 <- c_0
I0722 15:59:41.011351 16470 net.cpp:425] lstm2_unit_1 <- gate_input_1
I0722 15:59:41.011356 16470 net.cpp:425] lstm2_unit_1 <- cont_1_lstm2_cont_slice_0_split_1
I0722 15:59:41.011365 16470 net.cpp:399] lstm2_unit_1 -> c_1
I0722 15:59:41.011379 16470 net.cpp:399] lstm2_unit_1 -> h_1
I0722 15:59:41.011590 16470 net.cpp:141] Setting up lstm2_unit_1
I0722 15:59:41.011601 16470 net.cpp:148] Top shape: 1 1 1000 (1000)
I0722 15:59:41.011607 16470 net.cpp:148] Top shape: 1 1 1000 (1000)
I0722 15:59:41.011612 16470 net.cpp:156] Memory required for data: 90020
I0722 15:59:41.011617 16470 layer_factory.hpp:77] Creating layer lstm2_
I0722 15:59:41.011626 16470 net.cpp:91] Creating Layer lstm2_
I0722 15:59:41.011631 16470 net.cpp:425] lstm2_ <- c_1
I0722 15:59:41.011638 16470 net.cpp:399] lstm2_ -> c_T
I0722 15:59:41.011690 16470 net.cpp:141] Setting up lstm2_
I0722 15:59:41.011700 16470 net.cpp:148] Top shape: 1 1 1000 (1000)
I0722 15:59:41.011704 16470 net.cpp:156] Memory required for data: 94020
I0722 15:59:41.011709 16470 layer_factory.hpp:77] Creating layer lstm2_h_concat
I0722 15:59:41.011721 16470 net.cpp:91] Creating Layer lstm2_h_concat
I0722 15:59:41.011725 16470 net.cpp:425] lstm2_h_concat <- h_1
I0722 15:59:41.011734 16470 net.cpp:399] lstm2_h_concat -> h
I0722 15:59:41.011788 16470 net.cpp:141] Setting up lstm2_h_concat
I0722 15:59:41.011797 16470 net.cpp:148] Top shape: 1 1 1000 (1000)
I0722 15:59:41.011801 16470 net.cpp:156] Memory required for data: 98020
I0722 15:59:41.011806 16470 layer_factory.hpp:77] Creating layer h_pseudoloss
I0722 15:59:41.011816 16470 net.cpp:91] Creating Layer h_pseudoloss
I0722 15:59:41.011821 16470 net.cpp:425] h_pseudoloss <- h
I0722 15:59:41.011826 16470 net.cpp:399] h_pseudoloss -> h_pseudoloss
I0722 15:59:41.011989 16470 net.cpp:141] Setting up h_pseudoloss
…
I0722 15:59:41.012089 16470 net.cpp:219] lstm2_ does not need backward computation.
I0722 15:59:41.012092 16470 net.cpp:261] This network produces output c_T
I0722 15:59:41.012096 16470 net.cpp:261] This network produces output h_pseudoloss
I0722 15:59:41.012112 16470 net.cpp:274] Network initialization done.
I0722 15:59:41.012168 16470 recurrent_layer.cpp:150] Adding parameter 0: W_xc
I0722 15:59:41.012174 16470 recurrent_layer.cpp:150] Adding parameter 1: b_c
I0722 15:59:41.012179 16470 recurrent_layer.cpp:150] Adding parameter 2: W_hc
I0722 15:59:41.012332 16470 net.cpp:141] Setting up lstm2
I0722 15:59:41.012347 16470 net.cpp:148] Top shape: 1 1 1000 (1000)
I0722 15:59:41.012352 16470 net.cpp:156] Memory required for data: 36412
I0722 15:59:41.012368 16470 layer_factory.hpp:77] Creating layer predict
I0722 15:59:41.012382 16470 net.cpp:91] Creating Layer predict
I0722 15:59:41.012388 16470 net.cpp:425] predict <- lstm2
I0722 15:59:41.012395 16470 net.cpp:399] predict -> predict
I0722 15:59:41.246934 16488 upgrade_proto.cpp:43] Attempting to upgrade input file specified using deprecated transformation parameters: /tmp/cvld3070462438762066744/bvlc_reference_caffenet.caffemodel
I0722 15:59:41.246974 16488 upgrade_proto.cpp:46] Successfully upgraded file specified using deprecated data transformation parameters.
W0722 15:59:41.246980 16488 upgrade_proto.cpp:48] Note that future Caffe releases will only support transform_param messages for transformation fields.
I0722 15:59:41.246985 16488 upgrade_proto.cpp:52] Attempting to upgrade input file specified using deprecated V1LayerParameter: /tmp/cvld3070462438762066744/bvlc_reference_caffenet.caffemodel
I0722 15:59:41.393276 16474 net.cpp:141] Setting up predict
I0722 15:59:41.393323 16474 net.cpp:148] Top shape: 1 1 46168 (46168)
I0722 15:59:41.393329 16474 net.cpp:156] Memory required for data: 221084
I0722 15:59:41.393344 16474 layer_factory.hpp:77] Creating layer probs
I0722 15:59:41.393362 16474 net.cpp:91] Creating Layer probs
I0722 15:59:41.393369 16474 net.cpp:425] probs <- predict
I0722 15:59:41.393379 16474 net.cpp:399] probs -> probs
I0722 15:59:41.395189 16474 net.cpp:141] Setting up probs
I0722 15:59:41.395217 16474 net.cpp:148] Top shape: 1 1 46168 (46168)
I0722 15:59:41.395222 16474 net.cpp:156] Memory required for data: 405756
I0722 15:59:41.395229 16474 net.cpp:219] probs does not need backward computation.
I0722 15:59:41.395236 16474 net.cpp:219] predict does not need backward computation.
I0722 15:59:41.395241 16474 net.cpp:219] lstm2 does not need backward computation.
I0722 15:59:41.395247 16474 net.cpp:219] concat does not need backward computation.
I0722 15:59:41.395253 16474 net.cpp:219] lstm1 does not need backward computation.
I0722 15:59:41.395261 16474 net.cpp:219] embedding does not need backward computation.
I0722 15:59:41.395267 16474 net.cpp:219] reshape_stage_indicator does not need backward computation.
I0722 15:59:41.395274 16474 net.cpp:219] reshape_frames does not need backward computation.
I0722 15:59:41.395279 16474 net.cpp:219] embed_encoder does not need backward computation.
I0722 15:59:41.395285 16474 net.cpp:219] cont_sentence_input_1_split does not need backward computation.
I0722 15:59:41.395290 16474 net.cpp:219] input does not need backward computation.
I0722 15:59:41.395294 16474 net.cpp:261] This network produces output probs
I0722 15:59:41.395313 16474 net.cpp:274] Network initialization done.
I0722 15:59:41.442577 16470 net.cpp:141] Setting up predict
I0722 15:59:41.442627 16470 net.cpp:148] Top shape: 1 1 46168 (46168)
I0722 15:59:41.442633 16470 net.cpp:156] Memory required for data: 221084
I0722 15:59:41.442656 16470 layer_factory.hpp:77] Creating layer probs
I0722 15:59:41.442672 16470 net.cpp:91] Creating Layer probs
I0722 15:59:41.442680 16470 net.cpp:425] probs <- predict
I0722 15:59:41.442699 16470 net.cpp:399] probs -> probs
I0722 15:59:41.444524 16470 net.cpp:141] Setting up probs
I0722 15:59:41.444560 16470 net.cpp:148] Top shape: 1 1 46168 (46168)
I0722 15:59:41.444566 16470 net.cpp:156] Memory required for data: 405756
I0722 15:59:41.444573 16470 net.cpp:219] probs does not need backward computation.
I0722 15:59:41.444581 16470 net.cpp:219] predict does not need backward computation.
I0722 15:59:41.444586 16470 net.cpp:219] lstm2 does not need backward computation.
I0722 15:59:41.444591 16470 net.cpp:219] concat does not need backward computation.
…
