…
2016-07-22 15:59:33.400 n.t.s.f.RefreshingImageFetcher$ImageReader [INFO] [Timing] RequestID: 0 StreamID: home/peifeng/work/data/frame.320x240.jpg SequenceNr: 96 Entering queue: 1469217573400
2016-07-22 15:59:33.400 n.t.s.f.RefreshingImageFetcher$ImageReader [INFO] [Timing] RequestID: 0 StreamID: home/peifeng/work/data/frame.320x240.jpg SequenceNr: 97 Entering queue: 1469217573400
2016-07-22 15:59:33.400 n.t.s.f.RefreshingImageFetcher$ImageReader [INFO] [Timing] RequestID: 0 StreamID: home/peifeng/work/data/frame.320x240.jpg SequenceNr: 98 Entering queue: 1469217573400
2016-07-22 15:59:33.510 STDERR [INFO] I0722 15:59:33.510540 16482 net.cpp:141] Setting up data
2016-07-22 15:59:33.511 STDERR [INFO] I0722 15:59:33.510668 16482 net.cpp:148] Top shape: 10 3 227 227 (1545870)
2016-07-22 15:59:33.511 STDERR [INFO] I0722 15:59:33.510677 16482 net.cpp:156] Memory required for data: 6183480
2016-07-22 15:59:33.511 STDERR [INFO] I0722 15:59:33.510713 16482 layer_factory.hpp:77] Creating layer conv1
2016-07-22 15:59:33.511 STDERR [INFO] I0722 15:59:33.510746 16482 net.cpp:91] Creating Layer conv1
2016-07-22 15:59:33.511 STDERR [INFO] I0722 15:59:33.510756 16482 net.cpp:425] conv1 <- data
2016-07-22 15:59:33.512 STDERR [INFO] I0722 15:59:33.510771 16482 net.cpp:399] conv1 -> conv1
2016-07-22 15:59:33.600 n.t.s.f.RefreshingImageFetcher$ImageReader [INFO] [Timing] RequestID: 0 StreamID: home/peifeng/work/data/frame.320x240.jpg SequenceNr: 99 Entering queue: 1469217573600
2016-07-22 15:59:33.600 n.t.s.f.RefreshingImageFetcher$ImageReader [INFO] [Timing] RequestID: 0 StreamID: home/peifeng/work/data/frame.320x240.jpg SequenceNr: 100 Entering queue: 1469217573600
2016-07-22 15:59:33.600 n.t.s.f.RefreshingImageFetcher$ImageReader [INFO] [Timing] RequestID: 0 StreamID: home/peifeng/work/data/frame.320x240.jpg SequenceNr: 101 Entering queue: 1469217573600
2016-07-22 15:59:33.720 STDERR [INFO] I0722 15:59:33.720525 16482 net.cpp:141] Setting up conv1
2016-07-22 15:59:33.721 STDERR [INFO] I0722 15:59:33.720587 16482 net.cpp:148] Top shape: 10 96 55 55 (2904000)
2016-07-22 15:59:33.721 STDERR [INFO] I0722 15:59:33.720594 16482 net.cpp:156] Memory required for data: 17799480
2016-07-22 15:59:33.721 STDERR [INFO] I0722 15:59:33.720625 16482 layer_factory.hpp:77] Creating layer relu1
2016-07-22 15:59:33.721 STDERR [INFO] I0722 15:59:33.720645 16482 net.cpp:91] Creating Layer relu1
2016-07-22 15:59:33.721 STDERR [INFO] I0722 15:59:33.720652 16482 net.cpp:425] relu1 <- conv1
2016-07-22 15:59:33.721 STDERR [INFO] I0722 15:59:33.720660 16482 net.cpp:386] relu1 -> conv1 (in-place)
2016-07-22 15:59:33.722 STDERR [INFO] I0722 15:59:33.721415 16482 net.cpp:141] Setting up relu1
2016-07-22 15:59:33.722 STDERR [INFO] I0722 15:59:33.721429 16482 net.cpp:148] Top shape: 10 96 55 55 (2904000)
2016-07-22 15:59:33.722 STDERR [INFO] I0722 15:59:33.721434 16482 net.cpp:156] Memory required for data: 29415480
2016-07-22 15:59:33.722 STDERR [INFO] I0722 15:59:33.721441 16482 layer_factory.hpp:77] Creating layer pool1
2016-07-22 15:59:33.722 STDERR [INFO] I0722 15:59:33.721454 16482 net.cpp:91] Creating Layer pool1
2016-07-22 15:59:33.723 STDERR [INFO] I0722 15:59:33.721459 16482 net.cpp:425] pool1 <- conv1
2016-07-22 15:59:33.724 STDERR [INFO] I0722 15:59:33.721468 16482 net.cpp:399] pool1 -> pool1
2016-07-22 15:59:33.724 STDERR [INFO] I0722 15:59:33.721576 16482 net.cpp:141] Setting up pool1
2016-07-22 15:59:33.724 STDERR [INFO] I0722 15:59:33.721587 16482 net.cpp:148] Top shape: 10 96 27 27 (699840)
2016-07-22 15:59:33.724 STDERR [INFO] I0722 15:59:33.721592 16482 net.cpp:156] Memory required for data: 32214840
2016-07-22 15:59:33.724 STDERR [INFO] I0722 15:59:33.721597 16482 layer_factory.hpp:77] Creating layer norm1
2016-07-22 15:59:33.725 STDERR [INFO] I0722 15:59:33.721616 16482 net.cpp:91] Creating Layer norm1
2016-07-22 15:59:33.725 STDERR [INFO] I0722 15:59:33.721621 16482 net.cpp:425] norm1 <- pool1
2016-07-22 15:59:33.725 STDERR [INFO] I0722 15:59:33.721628 16482 net.cpp:399] norm1 -> norm1
2016-07-22 15:59:33.725 STDERR [INFO] I0722 15:59:33.722437 16482 net.cpp:141] Setting up norm1
2016-07-22 15:59:33.725 STDERR [INFO] I0722 15:59:33.722451 16482 net.cpp:148] Top shape: 10 96 27 27 (699840)
2016-07-22 15:59:33.725 STDERR [INFO] I0722 15:59:33.722456 16482 net.cpp:156] Memory required for data: 35014200
2016-07-22 15:59:33.725 STDERR [INFO] I0722 15:59:33.722462 16482 layer_factory.hpp:77] Creating layer conv2
2016-07-22 15:59:33.725 STDERR [INFO] I0722 15:59:33.722479 16482 net.cpp:91] Creating Layer conv2
2016-07-22 15:59:33.725 STDERR [INFO] I0722 15:59:33.722484 16482 net.cpp:425] conv2 <- norm1
2016-07-22 15:59:33.725 STDERR [INFO] I0722 15:59:33.722492 16482 net.cpp:399] conv2 -> conv2
2016-07-22 15:59:33.730 STDERR [INFO] I0722 15:59:33.730737 16482 net.cpp:141] Setting up conv2
2016-07-22 15:59:33.731 STDERR [INFO] I0722 15:59:33.730778 16482 net.cpp:148] Top shape: 10 256 27 27 (1866240)
2016-07-22 15:59:33.731 STDERR [INFO] I0722 15:59:33.730785 16482 net.cpp:156] Memory required for data: 42479160
2016-07-22 15:59:33.731 STDERR [INFO] I0722 15:59:33.730808 16482 layer_factory.hpp:77] Creating layer relu2
2016-07-22 15:59:33.731 STDERR [INFO] I0722 15:59:33.730830 16482 net.cpp:91] Creating Layer relu2
2016-07-22 15:59:33.731 STDERR [INFO] I0722 15:59:33.730842 16482 net.cpp:425] relu2 <- conv2
2016-07-22 15:59:33.732 STDERR [INFO] I0722 15:59:33.730854 16482 net.cpp:386] relu2 -> conv2 (in-place)
2016-07-22 15:59:33.732 STDERR [INFO] I0722 15:59:33.732187 16482 net.cpp:141] Setting up relu2
2016-07-22 15:59:33.732 STDERR [INFO] I0722 15:59:33.732206 16482 net.cpp:148] Top shape: 10 256 27 27 (1866240)
2016-07-22 15:59:33.732 STDERR [INFO] I0722 15:59:33.732213 16482 net.cpp:156] Memory required for data: 49944120
2016-07-22 15:59:33.732 STDERR [INFO] I0722 15:59:33.732218 16482 layer_factory.hpp:77] Creating layer pool2
2016-07-22 15:59:33.732 STDERR [INFO] I0722 15:59:33.732229 16482 net.cpp:91] Creating Layer pool2
2016-07-22 15:59:33.732 STDERR [INFO] I0722 15:59:33.732234 16482 net.cpp:425] pool2 <- conv2
2016-07-22 15:59:33.732 STDERR [INFO] I0722 15:59:33.732242 16482 net.cpp:399] pool2 -> pool2
2016-07-22 15:59:33.732 STDERR [INFO] I0722 15:59:33.732331 16482 net.cpp:141] Setting up pool2
2016-07-22 15:59:33.733 STDERR [INFO] I0722 15:59:33.732342 16482 net.cpp:148] Top shape: 10 256 13 13 (432640)
2016-07-22 15:59:33.733 STDERR [INFO] I0722 15:59:33.732347 16482 net.cpp:156] Memory required for data: 51674680
2016-07-22 15:59:33.733 STDERR [INFO] I0722 15:59:33.732352 16482 layer_factory.hpp:77] Creating layer norm2
2016-07-22 15:59:33.733 STDERR [INFO] I0722 15:59:33.732364 16482 net.cpp:91] Creating Layer norm2
2016-07-22 15:59:33.733 STDERR [INFO] I0722 15:59:33.732369 16482 net.cpp:425] norm2 <- pool2
2016-07-22 15:59:33.733 STDERR [INFO] I0722 15:59:33.732378 16482 net.cpp:399] norm2 -> norm2
2016-07-22 15:59:33.733 STDERR [INFO] I0722 15:59:33.732664 16482 net.cpp:141] Setting up norm2
2016-07-22 15:59:33.733 STDERR [INFO] I0722 15:59:33.732676 16482 net.cpp:148] Top shape: 10 256 13 13 (432640)
2016-07-22 15:59:33.733 STDERR [INFO] I0722 15:59:33.732681 16482 net.cpp:156] Memory required for data: 53405240
2016-07-22 15:59:33.733 STDERR [INFO] I0722 15:59:33.732686 16482 layer_factory.hpp:77] Creating layer conv3
2016-07-22 15:59:33.734 STDERR [INFO] I0722 15:59:33.732707 16482 net.cpp:91] Creating Layer conv3
2016-07-22 15:59:33.734 STDERR [INFO] I0722 15:59:33.732712 16482 net.cpp:425] conv3 <- norm2
2016-07-22 15:59:33.734 STDERR [INFO] I0722 15:59:33.732718 16482 net.cpp:399] conv3 -> conv3
2016-07-22 15:59:33.740 STDERR [INFO] I0722 15:59:33.740249 16482 net.cpp:141] Setting up conv3
2016-07-22 15:59:33.740 STDERR [INFO] I0722 15:59:33.740284 16482 net.cpp:148] Top shape: 10 384 13 13 (648960)
2016-07-22 15:59:33.740 STDERR [INFO] I0722 15:59:33.740294 16482 net.cpp:156] Memory required for data: 56001080
2016-07-22 15:59:33.740 STDERR [INFO] I0722 15:59:33.740317 16482 layer_factory.hpp:77] Creating layer relu3
2016-07-22 15:59:33.740 STDERR [INFO] I0722 15:59:33.740334 16482 net.cpp:91] Creating Layer relu3
2016-07-22 15:59:33.740 STDERR [INFO] I0722 15:59:33.740342 16482 net.cpp:425] relu3 <- conv3
2016-07-22 15:59:33.741 STDERR [INFO] I0722 15:59:33.740355 16482 net.cpp:386] relu3 -> conv3 (in-place)
2016-07-22 15:59:33.741 STDERR [INFO] I0722 15:59:33.741319 16482 net.cpp:141] Setting up relu3
2016-07-22 15:59:33.741 STDERR [INFO] I0722 15:59:33.741343 16482 net.cpp:148] Top shape: 10 384 13 13 (648960)
2016-07-22 15:59:33.741 STDERR [INFO] I0722 15:59:33.741353 16482 net.cpp:156] Memory required for data: 58596920
2016-07-22 15:59:33.741 STDERR [INFO] I0722 15:59:33.741364 16482 layer_factory.hpp:77] Creating layer conv4
2016-07-22 15:59:33.741 STDERR [INFO] I0722 15:59:33.741381 16482 net.cpp:91] Creating Layer conv4
2016-07-22 15:59:33.741 STDERR [INFO] I0722 15:59:33.741390 16482 net.cpp:425] conv4 <- conv3
2016-07-22 15:59:33.741 STDERR [INFO] I0722 15:59:33.741410 16482 net.cpp:399] conv4 -> conv4
2016-07-22 15:59:33.749 STDERR [INFO] I0722 15:59:33.749536 16482 net.cpp:141] Setting up conv4
2016-07-22 15:59:33.749 STDERR [INFO] I0722 15:59:33.749575 16482 net.cpp:148] Top shape: 10 384 13 13 (648960)
2016-07-22 15:59:33.750 STDERR [INFO] I0722 15:59:33.749582 16482 net.cpp:156] Memory required for data: 61192760
2016-07-22 15:59:33.750 STDERR [INFO] I0722 15:59:33.749593 16482 layer_factory.hpp:77] Creating layer relu4
2016-07-22 15:59:33.750 STDERR [INFO] I0722 15:59:33.749608 16482 net.cpp:91] Creating Layer relu4
2016-07-22 15:59:33.750 STDERR [INFO] I0722 15:59:33.749614 16482 net.cpp:425] relu4 <- conv4
2016-07-22 15:59:33.750 STDERR [INFO] I0722 15:59:33.749620 16482 net.cpp:386] relu4 -> conv4 (in-place)
2016-07-22 15:59:33.751 STDERR [INFO] I0722 15:59:33.750897 16482 net.cpp:141] Setting up relu4
2016-07-22 15:59:33.751 STDERR [INFO] I0722 15:59:33.750931 16482 net.cpp:148] Top shape: 10 384 13 13 (648960)
2016-07-22 15:59:33.751 STDERR [INFO] I0722 15:59:33.750936 16482 net.cpp:156] Memory required for data: 63788600
2016-07-22 15:59:33.751 STDERR [INFO] I0722 15:59:33.750942 16482 layer_factory.hpp:77] Creating layer conv5
2016-07-22 15:59:33.751 STDERR [INFO] I0722 15:59:33.750959 16482 net.cpp:91] Creating Layer conv5
2016-07-22 15:59:33.751 STDERR [INFO] I0722 15:59:33.750964 16482 net.cpp:425] conv5 <- conv4
2016-07-22 15:59:33.751 STDERR [INFO] I0722 15:59:33.750974 16482 net.cpp:399] conv5 -> conv5
2016-07-22 15:59:33.756 STDERR [INFO] I0722 15:59:33.756722 16482 net.cpp:141] Setting up conv5
2016-07-22 15:59:33.757 STDERR [INFO] I0722 15:59:33.756764 16482 net.cpp:148] Top shape: 10 256 13 13 (432640)
2016-07-22 15:59:33.757 STDERR [INFO] I0722 15:59:33.756770 16482 net.cpp:156] Memory required for data: 65519160
2016-07-22 15:59:33.757 STDERR [INFO] I0722 15:59:33.756784 16482 layer_factory.hpp:77] Creating layer relu5
2016-07-22 15:59:33.757 STDERR [INFO] I0722 15:59:33.756794 16482 net.cpp:91] Creating Layer relu5
2016-07-22 15:59:33.757 STDERR [INFO] I0722 15:59:33.756799 16482 net.cpp:425] relu5 <- conv5
2016-07-22 15:59:33.757 STDERR [INFO] I0722 15:59:33.756809 16482 net.cpp:386] relu5 -> conv5 (in-place)
2016-07-22 15:59:33.757 STDERR [INFO] I0722 15:59:33.757526 16482 net.cpp:141] Setting up relu5
2016-07-22 15:59:33.757 STDERR [INFO] I0722 15:59:33.757539 16482 net.cpp:148] Top shape: 10 256 13 13 (432640)
2016-07-22 15:59:33.757 STDERR [INFO] I0722 15:59:33.757544 16482 net.cpp:156] Memory required for data: 67249720
2016-07-22 15:59:33.757 STDERR [INFO] I0722 15:59:33.757550 16482 layer_factory.hpp:77] Creating layer pool5
2016-07-22 15:59:33.757 STDERR [INFO] I0722 15:59:33.757562 16482 net.cpp:91] Creating Layer pool5
2016-07-22 15:59:33.758 STDERR [INFO] I0722 15:59:33.757568 16482 net.cpp:425] pool5 <- conv5
2016-07-22 15:59:33.758 STDERR [INFO] I0722 15:59:33.757575 16482 net.cpp:399] pool5 -> pool5
2016-07-22 15:59:33.758 STDERR [INFO] I0722 15:59:33.757659 16482 net.cpp:141] Setting up pool5
2016-07-22 15:59:33.758 STDERR [INFO] I0722 15:59:33.757669 16482 net.cpp:148] Top shape: 10 256 6 6 (92160)
2016-07-22 15:59:33.758 STDERR [INFO] I0722 15:59:33.757673 16482 net.cpp:156] Memory required for data: 67618360
2016-07-22 15:59:33.758 STDERR [INFO] I0722 15:59:33.757678 16482 layer_factory.hpp:77] Creating layer fc6
2016-07-22 15:59:33.758 STDERR [INFO] I0722 15:59:33.757704 16482 net.cpp:91] Creating Layer fc6
2016-07-22 15:59:33.758 STDERR [INFO] I0722 15:59:33.757709 16482 net.cpp:425] fc6 <- pool5
2016-07-22 15:59:33.758 STDERR [INFO] I0722 15:59:33.757715 16482 net.cpp:399] fc6 -> fc6
2016-07-22 15:59:33.800 n.t.s.f.RefreshingImageFetcher$ImageReader [INFO] [Timing] RequestID: 0 StreamID: home/peifeng/work/data/frame.320x240.jpg SequenceNr: 102 Entering queue: 1469217573800
2016-07-22 15:59:33.800 n.t.s.f.RefreshingImageFetcher$ImageReader [INFO] [Timing] RequestID: 0 StreamID: home/peifeng/work/data/frame.320x240.jpg SequenceNr: 103 Entering queue: 1469217573800
2016-07-22 15:59:33.800 n.t.s.f.RefreshingImageFetcher$ImageReader [INFO] [Timing] RequestID: 0 StreamID: home/peifeng/work/data/frame.320x240.jpg SequenceNr: 104 Entering queue: 1469217573800
2016-07-22 15:59:33.858 STDERR [INFO] I0722 15:59:33.858047 16482 net.cpp:141] Setting up fc6
2016-07-22 15:59:33.858 STDERR [INFO] I0722 15:59:33.858111 16482 net.cpp:148] Top shape: 10 4096 (40960)
2016-07-22 15:59:33.858 STDERR [INFO] I0722 15:59:33.858119 16482 net.cpp:156] Memory required for data: 67782200
2016-07-22 15:59:33.858 STDERR [INFO] I0722 15:59:33.858134 16482 layer_factory.hpp:77] Creating layer relu6
2016-07-22 15:59:33.858 STDERR [INFO] I0722 15:59:33.858152 16482 net.cpp:91] Creating Layer relu6
2016-07-22 15:59:33.859 STDERR [INFO] I0722 15:59:33.858158 16482 net.cpp:425] relu6 <- fc6
2016-07-22 15:59:33.859 STDERR [INFO] I0722 15:59:33.858168 16482 net.cpp:386] relu6 -> fc6 (in-place)
2016-07-22 15:59:33.859 STDERR [INFO] I0722 15:59:33.858485 16482 net.cpp:141] Setting up relu6
2016-07-22 15:59:33.859 STDERR [INFO] I0722 15:59:33.858496 16482 net.cpp:148] Top shape: 10 4096 (40960)
2016-07-22 15:59:33.859 STDERR [INFO] I0722 15:59:33.858500 16482 net.cpp:156] Memory required for data: 67946040
2016-07-22 15:59:33.859 STDERR [INFO] I0722 15:59:33.858505 16482 layer_factory.hpp:77] Creating layer drop6
2016-07-22 15:59:33.859 STDERR [INFO] I0722 15:59:33.858530 16482 net.cpp:91] Creating Layer drop6
2016-07-22 15:59:33.859 STDERR [INFO] I0722 15:59:33.858535 16482 net.cpp:425] drop6 <- fc6
2016-07-22 15:59:33.859 STDERR [INFO] I0722 15:59:33.858541 16482 net.cpp:386] drop6 -> fc6 (in-place)
2016-07-22 15:59:33.860 STDERR [INFO] I0722 15:59:33.858605 16482 net.cpp:141] Setting up drop6
2016-07-22 15:59:33.860 STDERR [INFO] I0722 15:59:33.858614 16482 net.cpp:148] Top shape: 10 4096 (40960)
2016-07-22 15:59:33.860 STDERR [INFO] I0722 15:59:33.858619 16482 net.cpp:156] Memory required for data: 68109880
2016-07-22 15:59:33.860 STDERR [INFO] I0722 15:59:33.858624 16482 layer_factory.hpp:77] Creating layer fc7
2016-07-22 15:59:33.860 STDERR [INFO] I0722 15:59:33.858639 16482 net.cpp:91] Creating Layer fc7
2016-07-22 15:59:33.860 STDERR [INFO] I0722 15:59:33.858644 16482 net.cpp:425] fc7 <- fc6
2016-07-22 15:59:33.860 STDERR [INFO] I0722 15:59:33.858655 16482 net.cpp:399] fc7 -> fc7
2016-07-22 15:59:33.903 STDERR [INFO] I0722 15:59:33.903718 16482 net.cpp:141] Setting up fc7
2016-07-22 15:59:33.904 STDERR [INFO] I0722 15:59:33.903784 16482 net.cpp:148] Top shape: 10 4096 (40960)
2016-07-22 15:59:33.904 STDERR [INFO] I0722 15:59:33.903790 16482 net.cpp:156] Memory required for data: 68273720
2016-07-22 15:59:33.904 STDERR [INFO] I0722 15:59:33.903805 16482 layer_factory.hpp:77] Creating layer relu7
2016-07-22 15:59:33.904 STDERR [INFO] I0722 15:59:33.903825 16482 net.cpp:91] Creating Layer relu7
2016-07-22 15:59:33.904 STDERR [INFO] I0722 15:59:33.903831 16482 net.cpp:425] relu7 <- fc7
2016-07-22 15:59:33.904 STDERR [INFO] I0722 15:59:33.903846 16482 net.cpp:386] relu7 -> fc7 (in-place)
2016-07-22 15:59:33.904 STDERR [INFO] I0722 15:59:33.904887 16482 net.cpp:141] Setting up relu7
2016-07-22 15:59:33.905 STDERR [INFO] I0722 15:59:33.904899 16482 net.cpp:148] Top shape: 10 4096 (40960)
2016-07-22 15:59:33.905 STDERR [INFO] I0722 15:59:33.904904 16482 net.cpp:156] Memory required for data: 68437560
2016-07-22 15:59:33.905 STDERR [INFO] I0722 15:59:33.904911 16482 layer_factory.hpp:77] Creating layer drop7
2016-07-22 15:59:33.905 STDERR [INFO] I0722 15:59:33.904924 16482 net.cpp:91] Creating Layer drop7
2016-07-22 15:59:33.905 STDERR [INFO] I0722 15:59:33.904929 16482 net.cpp:425] drop7 <- fc7
2016-07-22 15:59:33.905 STDERR [INFO] I0722 15:59:33.904937 16482 net.cpp:386] drop7 -> fc7 (in-place)
2016-07-22 15:59:33.905 STDERR [INFO] I0722 15:59:33.904990 16482 net.cpp:141] Setting up drop7
2016-07-22 15:59:33.905 STDERR [INFO] I0722 15:59:33.904999 16482 net.cpp:148] Top shape: 10 4096 (40960)
2016-07-22 15:59:33.905 STDERR [INFO] I0722 15:59:33.905004 16482 net.cpp:156] Memory required for data: 68601400
2016-07-22 15:59:33.906 STDERR [INFO] I0722 15:59:33.905009 16482 layer_factory.hpp:77] Creating layer fc8
2016-07-22 15:59:33.906 STDERR [INFO] I0722 15:59:33.905025 16482 net.cpp:91] Creating Layer fc8
2016-07-22 15:59:33.906 STDERR [INFO] I0722 15:59:33.905030 16482 net.cpp:425] fc8 <- fc7
2016-07-22 15:59:33.906 STDERR [INFO] I0722 15:59:33.905037 16482 net.cpp:399] fc8 -> fc8
2016-07-22 15:59:33.918 STDERR [INFO] I0722 15:59:33.918061 16482 net.cpp:141] Setting up fc8
2016-07-22 15:59:33.918 STDERR [INFO] I0722 15:59:33.918115 16482 net.cpp:148] Top shape: 10 1000 (10000)
2016-07-22 15:59:33.918 STDERR [INFO] I0722 15:59:33.918123 16482 net.cpp:156] Memory required for data: 68641400
2016-07-22 15:59:33.918 STDERR [INFO] I0722 15:59:33.918136 16482 layer_factory.hpp:77] Creating layer prob
2016-07-22 15:59:33.919 STDERR [INFO] I0722 15:59:33.918156 16482 net.cpp:91] Creating Layer prob
2016-07-22 15:59:33.919 STDERR [INFO] I0722 15:59:33.918164 16482 net.cpp:425] prob <- fc8
2016-07-22 15:59:33.919 STDERR [INFO] I0722 15:59:33.918179 16482 net.cpp:399] prob -> prob
2016-07-22 15:59:33.919 STDERR [INFO] I0722 15:59:33.918635 16482 net.cpp:141] Setting up prob
2016-07-22 15:59:33.919 STDERR [INFO] I0722 15:59:33.918648 16482 net.cpp:148] Top shape: 10 1000 (10000)
2016-07-22 15:59:33.919 STDERR [INFO] I0722 15:59:33.918651 16482 net.cpp:156] Memory required for data: 68681400
2016-07-22 15:59:33.919 STDERR [INFO] I0722 15:59:33.918656 16482 net.cpp:219] prob does not need backward computation.
2016-07-22 15:59:33.919 STDERR [INFO] I0722 15:59:33.918661 16482 net.cpp:219] fc8 does not need backward computation.
2016-07-22 15:59:33.919 STDERR [INFO] I0722 15:59:33.918666 16482 net.cpp:219] drop7 does not need backward computation.
…
2016-07-22 15:59:40.400 STDERR [INFO] I0722 15:59:40.369177 16470 net.cpp:399] input -> input_sentence
2016-07-22 15:59:40.400 STDERR [INFO] I0722 15:59:40.369181 16474 net.cpp:399] input -> input_sentence
2016-07-22 15:59:40.400 STDERR [INFO] I0722 15:59:40.369187 16470 net.cpp:399] input -> stage_indicator
2016-07-22 15:59:40.401 STDERR [INFO] I0722 15:59:40.369192 16474 net.cpp:399] input -> stage_indicator
2016-07-22 15:59:40.401 STDERR [INFO] I0722 15:59:40.381954 16474 net.cpp:141] Setting up input
2016-07-22 15:59:40.401 STDERR [INFO] I0722 15:59:40.381948 16470 net.cpp:141] Setting up input
2016-07-22 15:59:40.401 STDERR [INFO] I0722 15:59:40.381985 16474 net.cpp:148] Top shape: 1 4096 (4096)
2016-07-22 15:59:40.401 STDERR [INFO] I0722 15:59:40.381989 16470 net.cpp:148] Top shape: 1 4096 (4096)
2016-07-22 15:59:40.401 STDERR [INFO] I0722 15:59:40.381994 16474 net.cpp:148] Top shape: 1 1 (1)
2016-07-22 15:59:40.401 STDERR [INFO] I0722 15:59:40.381997 16470 net.cpp:148] Top shape: 1 1 (1)
2016-07-22 15:59:40.401 STDERR [INFO] I0722 15:59:40.382000 16474 net.cpp:148] Top shape: 1 1 (1)
2016-07-22 15:59:40.401 STDERR [INFO] I0722 15:59:40.382004 16470 net.cpp:148] Top shape: 1 1 (1)
2016-07-22 15:59:40.401 STDERR [INFO] I0722 15:59:40.382006 16474 net.cpp:148] Top shape: 1 1 (1)
2016-07-22 15:59:40.401 STDERR [INFO] I0722 15:59:40.382009 16470 net.cpp:148] Top shape: 1 1 (1)
2016-07-22 15:59:40.402 STDERR [INFO] I0722 15:59:40.382010 16474 net.cpp:156] Memory required for data: 16396
2016-07-22 15:59:40.402 STDERR [INFO] I0722 15:59:40.382014 16470 net.cpp:156] Memory required for data: 16396
2016-07-22 15:59:40.402 STDERR [INFO] I0722 15:59:40.382019 16474 layer_factory.hpp:77] Creating layer cont_sentence_input_1_split
2016-07-22 15:59:40.402 STDERR [INFO] I0722 15:59:40.382019 16470 layer_factory.hpp:77] Creating layer cont_sentence_input_1_split
…
2016-07-22 15:59:40.412 n.t.s.b.CVParticleBolt [INFO] [Timing] RequestID: 0 StreamID: home/peifeng/work/data/frame.320x240.jpg SequenceNr: 203 Entering scale: 1469217580412
2016-07-22 15:59:40.413 n.t.s.b.CVParticleBolt [INFO] [Timing] RequestID: 0 StreamID: home/peifeng/work/data/frame.320x240.jpg SequenceNr: 202 Leaving scale: 1469217580413 Size: 3530
2016-07-22 15:59:40.419 n.t.s.b.CVParticleBolt [INFO] [Timing] RequestID: 0 StreamID: home/peifeng/work/data/frame.320x240.jpg SequenceNr: 203 Leaving scale: 1469217580419 Size: 3530
2016-07-22 15:59:40.423 STDERR [INFO] I0722 15:59:40.422904 16474 net.cpp:141] Setting up embed_encoder
2016-07-22 15:59:40.423 STDERR [INFO] I0722 15:59:40.422955 16474 net.cpp:148] Top shape: 1 500 (500)
2016-07-22 15:59:40.423 STDERR [INFO] I0722 15:59:40.422960 16474 net.cpp:156] Memory required for data: 18404
2016-07-22 15:59:40.423 STDERR [INFO] I0722 15:59:40.422986 16474 layer_factory.hpp:77] Creating layer reshape_frames
2016-07-22 15:59:40.423 STDERR [INFO] I0722 15:59:40.423008 16474 net.cpp:91] Creating Layer reshape_frames
2016-07-22 15:59:40.423 STDERR [INFO] I0722 15:59:40.423017 16474 net.cpp:425] reshape_frames <- embedded_in_frames
2016-07-22 15:59:40.423 STDERR [INFO] I0722 15:59:40.423028 16474 net.cpp:399] reshape_frames -> embedded_input_frames
2016-07-22 15:59:40.427 STDERR [INFO] I0722 15:59:40.427078 16474 net.cpp:141] Setting up reshape_frames
2016-07-22 15:59:40.427 STDERR [INFO] I0722 15:59:40.427109 16474 net.cpp:148] Top shape: 1 1 500 (500)
2016-07-22 15:59:40.427 STDERR [INFO] I0722 15:59:40.427114 16474 net.cpp:156] Memory required for data: 20404
2016-07-22 15:59:40.427 STDERR [INFO] I0722 15:59:40.427121 16474 layer_factory.hpp:77] Creating layer reshape_stage_indicator
2016-07-22 15:59:40.427 STDERR [INFO] I0722 15:59:40.427137 16474 net.cpp:91] Creating Layer reshape_stage_indicator
2016-07-22 15:59:40.427 STDERR [INFO] I0722 15:59:40.427145 16474 net.cpp:425] reshape_stage_indicator <- stage_indicator
2016-07-22 15:59:40.427 STDERR [INFO] I0722 15:59:40.427155 16474 net.cpp:399] reshape_stage_indicator -> reshaped_stage_indicator
2016-07-22 15:59:40.430 STDERR [INFO] I0722 15:59:40.430673 16474 net.cpp:141] Setting up reshape_stage_indicator
2016-07-22 15:59:40.430 STDERR [INFO] I0722 15:59:40.430709 16474 net.cpp:148] Top shape: 1 1 1 (1)
2016-07-22 15:59:40.431 STDERR [INFO] I0722 15:59:40.430719 16474 net.cpp:156] Memory required for data: 20408
2016-07-22 15:59:40.431 STDERR [INFO] I0722 15:59:40.430727 16474 layer_factory.hpp:77] Creating layer embedding
2016-07-22 15:59:40.431 STDERR [INFO] I0722 15:59:40.430742 16474 net.cpp:91] Creating Layer embedding
2016-07-22 15:59:40.431 STDERR [INFO] I0722 15:59:40.430747 16474 net.cpp:425] embedding <- input_sentence
2016-07-22 15:59:40.431 STDERR [INFO] I0722 15:59:40.430760 16474 net.cpp:399] embedding -> embedded_input_sentence
2016-07-22 15:59:40.479 STDERR [INFO] I0722 15:59:40.479189 16470 net.cpp:141] Setting up embed_encoder
2016-07-22 15:59:40.479 STDERR [INFO] I0722 15:59:40.479243 16470 net.cpp:148] Top shape: 1 500 (500)
2016-07-22 15:59:40.479 STDERR [INFO] I0722 15:59:40.479249 16470 net.cpp:156] Memory required for data: 18404
2016-07-22 15:59:40.479 STDERR [INFO] I0722 15:59:40.479272 16470 layer_factory.hpp:77] Creating layer reshape_frames
2016-07-22 15:59:40.479 STDERR [INFO] I0722 15:59:40.479295 16470 net.cpp:91] Creating Layer reshape_frames
2016-07-22 15:59:40.480 STDERR [INFO] I0722 15:59:40.479303 16470 net.cpp:425] reshape_frames <- embedded_in_frames
2016-07-22 15:59:40.480 STDERR [INFO] I0722 15:59:40.479315 16470 net.cpp:399] reshape_frames -> embedded_input_frames
2016-07-22 15:59:40.480 STDERR [INFO] I0722 15:59:40.479817 16470 net.cpp:141] Setting up reshape_frames
2016-07-22 15:59:40.480 STDERR [INFO] I0722 15:59:40.479833 16470 net.cpp:148] Top shape: 1 1 500 (500)
2016-07-22 15:59:40.480 STDERR [INFO] I0722 15:59:40.479838 16470 net.cpp:156] Memory required for data: 20404
2016-07-22 15:59:40.480 STDERR [INFO] I0722 15:59:40.479843 16470 layer_factory.hpp:77] Creating layer reshape_stage_indicator
2016-07-22 15:59:40.480 STDERR [INFO] I0722 15:59:40.479856 16470 net.cpp:91] Creating Layer reshape_stage_indicator
2016-07-22 15:59:40.480 STDERR [INFO] I0722 15:59:40.479861 16470 net.cpp:425] reshape_stage_indicator <- stage_indicator
2016-07-22 15:59:40.480 STDERR [INFO] I0722 15:59:40.479869 16470 net.cpp:399] reshape_stage_indicator -> reshaped_stage_indicator
2016-07-22 15:59:40.483 STDERR [INFO] I0722 15:59:40.482873 16470 net.cpp:141] Setting up reshape_stage_indicator
2016-07-22 15:59:40.483 STDERR [INFO] I0722 15:59:40.482926 16470 net.cpp:148] Top shape: 1 1 1 (1)
2016-07-22 15:59:40.483 STDERR [INFO] I0722 15:59:40.482933 16470 net.cpp:156] Memory required for data: 20408
2016-07-22 15:59:40.483 STDERR [INFO] I0722 15:59:40.482942 16470 layer_factory.hpp:77] Creating layer embedding
2016-07-22 15:59:40.483 STDERR [INFO] I0722 15:59:40.482964 16470 net.cpp:91] Creating Layer embedding
2016-07-22 15:59:40.483 STDERR [INFO] I0722 15:59:40.482971 16470 net.cpp:425] embedding <- input_sentence
…
2016-07-22 15:59:40.582 n.t.s.b.CVParticleBolt [INFO] [Timing] RequestID: 0 StreamID: home/peifeng/work/data/frame.320x240.jpg SequenceNr: 7 Entering frame_grouper_batcher: 1469217580582
2016-07-22 15:59:40.582 n.t.s.b.CVParticleBolt [INFO] Get 0 batches from batcher
2016-07-22 15:59:40.583 n.t.s.s.CVParticleSpout [INFO] [Timing] RequestID: 0 StreamID: home/peifeng/work/data/frame.320x240.jpg SequenceNr: 7 Ack ack: 1469217580583 Size: 0
2016-07-22 15:59:40.584 STDERR [INFO] I0722 15:59:40.584115 16488 net.cpp:141] Setting up conv1
2016-07-22 15:59:40.584 STDERR [INFO] I0722 15:59:40.584166 16488 net.cpp:148] Top shape: 10 96 55 55 (2904000)
2016-07-22 15:59:40.584 STDERR [INFO] I0722 15:59:40.584173 16488 net.cpp:156] Memory required for data: 17799480
2016-07-22 15:59:40.584 STDERR [INFO] I0722 15:59:40.584197 16488 layer_factory.hpp:77] Creating layer relu1
2016-07-22 15:59:40.584 STDERR [INFO] I0722 15:59:40.584218 16488 net.cpp:91] Creating Layer relu1
2016-07-22 15:59:40.584 STDERR [INFO] I0722 15:59:40.584225 16488 net.cpp:425] relu1 <- conv1
2016-07-22 15:59:40.584 STDERR [INFO] I0722 15:59:40.584235 16488 net.cpp:386] relu1 -> conv1 (in-place)
2016-07-22 15:59:40.585 STDERR [INFO] I0722 15:59:40.585078 16488 net.cpp:141] Setting up relu1
2016-07-22 15:59:40.585 STDERR [INFO] I0722 15:59:40.585095 16488 net.cpp:148] Top shape: 10 96 55 55 (2904000)
2016-07-22 15:59:40.585 STDERR [INFO] I0722 15:59:40.585103 16488 net.cpp:156] Memory required for data: 29415480
2016-07-22 15:59:40.585 STDERR [INFO] I0722 15:59:40.585108 16488 layer_factory.hpp:77] Creating layer pool1
2016-07-22 15:59:40.585 STDERR [INFO] I0722 15:59:40.585122 16488 net.cpp:91] Creating Layer pool1
2016-07-22 15:59:40.585 STDERR [INFO] I0722 15:59:40.585127 16488 net.cpp:425] pool1 <- conv1
2016-07-22 15:59:40.585 STDERR [INFO] I0722 15:59:40.585137 16488 net.cpp:399] pool1 -> pool1
2016-07-22 15:59:40.589 STDIO [ERROR] featureFromMat: type 5
2016-07-22 15:59:40.589 STDERR [INFO] I0722 15:59:40.589352 16488 net.cpp:141] Setting up pool1
2016-07-22 15:59:40.589 STDIO [ERROR] featureFromMat: cols 1
2016-07-22 15:59:40.589 STDERR [INFO] I0722 15:59:40.589376 16488 net.cpp:148] Top shape: 10 96 27 27 (699840)
2016-07-22 15:59:40.589 STDERR [INFO] I0722 15:59:40.589383 16488 net.cpp:156] Memory required for data: 32214840
2016-07-22 15:59:40.589 STDIO [ERROR] featureFromMat: rows 4096
2016-07-22 15:59:40.589 STDERR [INFO] I0722 15:59:40.589390 16488 layer_factory.hpp:77] Creating layer norm1
2016-07-22 15:59:40.589 STDIO [ERROR] featureFromMat: elemSize 4
2016-07-22 15:59:40.589 STDERR [INFO] I0722 15:59:40.589407 16488 net.cpp:91] Creating Layer norm1
2016-07-22 15:59:40.589 STDERR [INFO] I0722 15:59:40.589413 16488 net.cpp:425] norm1 <- pool1
2016-07-22 15:59:40.589 n.t.s.b.CVParticleBolt [INFO] [Timing] RequestID: 0 StreamID: home/peifeng/work/data/frame.320x240.jpg SequenceNr: 10 Leaving vgg_feature: 1469217580589 Size: 65846
2016-07-22 15:59:40.589 STDERR [INFO] I0722 15:59:40.589423 16488 net.cpp:399] norm1 -> norm1
2016-07-22 15:59:40.590 n.t.s.b.CVParticleBolt [INFO] [Timing] RequestID: 0 StreamID: home/peifeng/work/data/frame.320x240.jpg SequenceNr: 12 Entering vgg_feature: 1469217580590
2016-07-22 15:59:40.590 n.t.s.b.CVParticleBolt [INFO] [Timing] RequestID: 0 StreamID: home/peifeng/work/data/frame.320x240.jpg SequenceNr: 10 Entering frame_grouper_batcher: 1469217580590
2016-07-22 15:59:40.590 n.t.s.b.CVParticleBolt [INFO] Get 0 batches from batcher
2016-07-22 15:59:40.590 STDERR [INFO] I0722 15:59:40.590301 16488 net.cpp:141] Setting up norm1
2016-07-22 15:59:40.590 STDERR [INFO] I0722 15:59:40.590319 16488 net.cpp:148] Top shape: 10 96 27 27 (699840)
2016-07-22 15:59:40.590 STDERR [INFO] I0722 15:59:40.590325 16488 net.cpp:156] Memory required for data: 35014200
2016-07-22 15:59:40.590 STDERR [INFO] I0722 15:59:40.590332 16488 layer_factory.hpp:77] Creating layer conv2
2016-07-22 15:59:40.590 STDERR [INFO] I0722 15:59:40.590351 16488 net.cpp:91] Creating Layer conv2
2016-07-22 15:59:40.590 STDERR [INFO] I0722 15:59:40.590358 16488 net.cpp:425] conv2 <- norm1
2016-07-22 15:59:40.590 STDERR [INFO] I0722 15:59:40.590366 16488 net.cpp:399] conv2 -> conv2
2016-07-22 15:59:40.592 n.t.s.s.CVParticleSpout [INFO] [Timing] RequestID: 0 StreamID: home/peifeng/work/data/frame.320x240.jpg SequenceNr: 10 Ack ack: 1469217580592 Size: 0
2016-07-22 15:59:40.598 STDIO [ERROR] featureFromMat: type 5
2016-07-22 15:59:40.598 STDIO [ERROR] featureFromMat: cols 1
2016-07-22 15:59:40.598 STDIO [ERROR] featureFromMat: rows 4096
2016-07-22 15:59:40.598 STDIO [ERROR] featureFromMat: elemSize 4
2016-07-22 15:59:40.598 STDERR [INFO] I0722 15:59:40.598594 16488 net.cpp:141] Setting up conv2
2016-07-22 15:59:40.598 n.t.s.b.CVParticleBolt [INFO] [Timing] RequestID: 0 StreamID: home/peifeng/work/data/frame.320x240.jpg SequenceNr: 12 Leaving vgg_feature: 1469217580598 Size: 65846
2016-07-22 15:59:40.598 STDERR [INFO] I0722 15:59:40.598619 16488 net.cpp:148] Top shape: 10 256 27 27 (1866240)
2016-07-22 15:59:40.599 STDERR [INFO] I0722 15:59:40.598626 16488 net.cpp:156] Memory required for data: 42479160
2016-07-22 15:59:40.599 STDERR [INFO] I0722 15:59:40.598641 16488 layer_factory.hpp:77] Creating layer relu2
2016-07-22 15:59:40.599 n.t.s.b.CVParticleBolt [INFO] [Timing] RequestID: 0 StreamID: home/peifeng/work/data/frame.320x240.jpg SequenceNr: 13 Entering vgg_feature: 1469217580599
2016-07-22 15:59:40.599 STDERR [INFO] I0722 15:59:40.598652 16488 net.cpp:91] Creating Layer relu2
2016-07-22 15:59:40.599 n.t.s.b.CVParticleBolt [INFO] [Timing] RequestID: 0 StreamID: home/peifeng/work/data/frame.320x240.jpg SequenceNr: 12 Entering frame_grouper_batcher: 1469217580599
2016-07-22 15:59:40.599 STDERR [INFO] I0722 15:59:40.598659 16488 net.cpp:425] relu2 <- conv2
2016-07-22 15:59:40.599 n.t.s.b.CVParticleBolt [INFO] Get 0 batches from batcher
2016-07-22 15:59:40.599 STDERR [INFO] I0722 15:59:40.598666 16488 net.cpp:386] relu2 -> conv2 (in-place)
2016-07-22 15:59:40.599 STDERR [INFO] I0722 15:59:40.599515 16488 net.cpp:141] Setting up relu2
2016-07-22 15:59:40.599 STDERR [INFO] I0722 15:59:40.599531 16488 net.cpp:148] Top shape: 10 256 27 27 (1866240)
2016-07-22 15:59:40.599 STDERR [INFO] I0722 15:59:40.599536 16488 net.cpp:156] Memory required for data: 49944120
2016-07-22 15:59:40.599 STDERR [INFO] I0722 15:59:40.599542 16488 layer_factory.hpp:77] Creating layer pool2
2016-07-22 15:59:40.599 STDERR [INFO] I0722 15:59:40.599557 16488 net.cpp:91] Creating Layer pool2
2016-07-22 15:59:40.599 STDERR [INFO] I0722 15:59:40.599563 16488 net.cpp:425] pool2 <- conv2
2016-07-22 15:59:40.600 n.t.s.f.RefreshingImageFetcher$ImageReader [INFO] [Timing] RequestID: 0 StreamID: home/peifeng/work/data/frame.320x240.jpg SequenceNr: 204 Entering queue: 1469217580600
2016-07-22 15:59:40.600 STDERR [INFO] I0722 15:59:40.599572 16488 net.cpp:399] pool2 -> pool2
2016-07-22 15:59:40.600 n.t.s.f.RefreshingImageFetcher$ImageReader [INFO] [Timing] RequestID: 0 StreamID: home/peifeng/work/data/frame.320x240.jpg SequenceNr: 205 Entering queue: 1469217580600
2016-07-22 15:59:40.600 n.t.s.s.CVParticleSpout [INFO] [Timing] RequestID: 0 StreamID: home/peifeng/work/data/frame.320x240.jpg SequenceNr: 12 Ack ack: 1469217580600 Size: 0
2016-07-22 15:59:40.600 STDERR [INFO] I0722 15:59:40.599676 16488 net.cpp:141] Setting up pool2
2016-07-22 15:59:40.600 n.t.s.f.RefreshingImageFetcher$ImageReader [INFO] [Timing] RequestID: 0 StreamID: home/peifeng/work/data/frame.320x240.jpg SequenceNr: 206 Entering queue: 1469217580600
2016-07-22 15:59:40.600 STDERR [INFO] I0722 15:59:40.599687 16488 net.cpp:148] Top shape: 10 256 13 13 (432640)
2016-07-22 15:59:40.600 STDERR [INFO] I0722 15:59:40.599692 16488 net.cpp:156] Memory required for data: 51674680
2016-07-22 15:59:40.600 STDERR [INFO] I0722 15:59:40.599699 16488 layer_factory.hpp:77] Creating layer norm2
2016-07-22 15:59:40.600 STDERR [INFO] I0722 15:59:40.599714 16488 net.cpp:91] Creating Layer norm2
2016-07-22 15:59:40.600 STDERR [INFO] I0722 15:59:40.599720 16488 net.cpp:425] norm2 <- pool2
2016-07-22 15:59:40.600 STDERR [INFO] I0722 15:59:40.599726 16488 net.cpp:399] norm2 -> norm2
2016-07-22 15:59:40.600 STDERR [INFO] I0722 15:59:40.600061 16488 net.cpp:141] Setting up norm2
2016-07-22 15:59:40.600 STDERR [INFO] I0722 15:59:40.600075 16488 net.cpp:148] Top shape: 10 256 13 13 (432640)
2016-07-22 15:59:40.600 STDERR [INFO] I0722 15:59:40.600080 16488 net.cpp:156] Memory required for data: 53405240
2016-07-22 15:59:40.600 STDERR [INFO] I0722 15:59:40.600085 16488 layer_factory.hpp:77] Creating layer conv3
2016-07-22 15:59:40.600 STDERR [INFO] I0722 15:59:40.600100 16488 net.cpp:91] Creating Layer conv3
2016-07-22 15:59:40.600 STDERR [INFO] I0722 15:59:40.600106 16488 net.cpp:425] conv3 <- norm2
…
2016-07-22 15:59:40.623 STDIO [ERROR] featureFromMat: elemSize 4
2016-07-22 15:59:40.624 n.t.s.b.CVParticleBolt [INFO] [Timing] RequestID: 0 StreamID: home/peifeng/work/data/frame.320x240.jpg SequenceNr: 18 Leaving vgg_feature: 1469217580624 Size: 65846
2016-07-22 15:59:40.623 STDERR [INFO] I0722 15:59:40.623714 16488 net.cpp:141] Setting up conv4
2016-07-22 15:59:40.624 n.t.s.b.CVParticleBolt [INFO] [Timing] RequestID: 0 StreamID: home/peifeng/work/data/frame.320x240.jpg SequenceNr: 19 Entering vgg_feature: 1469217580624
2016-07-22 15:59:40.624 STDERR [INFO] I0722 15:59:40.623744 16488 net.cpp:148] Top shape: 10 384 13 13 (648960)
2016-07-22 15:59:40.624 n.t.s.b.CVParticleBolt [INFO] [Timing] RequestID: 0 StreamID: home/peifeng/work/data/frame.320x240.jpg SequenceNr: 18 Entering frame_grouper_batcher: 1469217580624
2016-07-22 15:59:40.624 STDERR [INFO] I0722 15:59:40.623751 16488 net.cpp:156] Memory required for data: 61192760
2016-07-22 15:59:40.624 STDERR [INFO] I0722 15:59:40.623764 16488 layer_factory.hpp:77] Creating layer relu4
2016-07-22 15:59:40.624 n.t.s.b.CVParticleBolt [INFO] Get 0 batches from batcher
2016-07-22 15:59:40.624 STDERR [INFO] I0722 15:59:40.623775 16488 net.cpp:91] Creating Layer relu4
2016-07-22 15:59:40.624 STDERR [INFO] I0722 15:59:40.623781 16488 net.cpp:425] relu4 <- conv4
2016-07-22 15:59:40.624 STDERR [INFO] I0722 15:59:40.623793 16488 net.cpp:386] relu4 -> conv4 (in-place)
2016-07-22 15:59:40.625 STDERR [INFO] I0722 15:59:40.624666 16488 net.cpp:141] Setting up relu4
2016-07-22 15:59:40.625 STDERR [INFO] I0722 15:59:40.624682 16488 net.cpp:148] Top shape: 10 384 13 13 (648960)
2016-07-22 15:59:40.625 STDERR [INFO] I0722 15:59:40.624687 16488 net.cpp:156] Memory required for data: 63788600
2016-07-22 15:59:40.625 STDERR [INFO] I0722 15:59:40.624693 16488 layer_factory.hpp:77] Creating layer conv5
2016-07-22 15:59:40.625 STDERR [INFO] I0722 15:59:40.624711 16488 net.cpp:91] Creating Layer conv5
2016-07-22 15:59:40.625 STDERR [INFO] I0722 15:59:40.624716 16488 net.cpp:425] conv5 <- conv4
2016-07-22 15:59:40.625 STDERR [INFO] I0722 15:59:40.624725 16488 net.cpp:399] conv5 -> conv5
2016-07-22 15:59:40.625 n.t.s.s.CVParticleSpout [INFO] [Timing] RequestID: 0 StreamID: home/peifeng/work/data/frame.320x240.jpg SequenceNr: 18 Ack ack: 1469217580625 Size: 0
2016-07-22 15:59:40.631 STDIO [ERROR] featureFromMat: type 5
2016-07-22 15:59:40.632 STDIO [ERROR] featureFromMat: cols 1
2016-07-22 15:59:40.632 STDIO [ERROR] featureFromMat: rows 4096
2016-07-22 15:59:40.632 STDERR [INFO] I0722 15:59:40.632076 16488 net.cpp:141] Setting up conv5
2016-07-22 15:59:40.632 STDIO [ERROR] featureFromMat: elemSize 4
2016-07-22 15:59:40.632 STDERR [INFO] I0722 15:59:40.632100 16488 net.cpp:148] Top shape: 10 256 13 13 (432640)
2016-07-22 15:59:40.632 STDERR [INFO] I0722 15:59:40.632107 16488 net.cpp:156] Memory required for data: 65519160
2016-07-22 15:59:40.632 n.t.s.b.CVParticleBolt [INFO] [Timing] RequestID: 0 StreamID: home/peifeng/work/data/frame.320x240.jpg SequenceNr: 19 Leaving vgg_feature: 1469217580632 Size: 65846
2016-07-22 15:59:40.632 STDERR [INFO] I0722 15:59:40.632127 16488 layer_factory.hpp:77] Creating layer relu5
2016-07-22 15:59:40.632 STDERR [INFO] I0722 15:59:40.632138 16488 net.cpp:91] Creating Layer relu5
2016-07-22 15:59:40.632 n.t.s.b.CVParticleBolt [INFO] [Timing] RequestID: 0 StreamID: home/peifeng/work/data/frame.320x240.jpg SequenceNr: 23 Entering vgg_feature: 1469217580632
2016-07-22 15:59:40.632 STDERR [INFO] I0722 15:59:40.632143 16488 net.cpp:425] relu5 <- conv5
2016-07-22 15:59:40.632 n.t.s.b.CVParticleBolt [INFO] [Timing] RequestID: 0 StreamID: home/peifeng/work/data/frame.320x240.jpg SequenceNr: 19 Entering frame_grouper_batcher: 1469217580632
2016-07-22 15:59:40.632 STDERR [INFO] I0722 15:59:40.632154 16488 net.cpp:386] relu5 -> conv5 (in-place)
2016-07-22 15:59:40.633 STDERR [INFO] I0722 15:59:40.633167 16488 net.cpp:141] Setting up relu5
2016-07-22 15:59:40.633 STDERR [INFO] I0722 15:59:40.633203 16488 net.cpp:148] Top shape: 10 256 13 13 (432640)
2016-07-22 15:59:40.633 STDERR [INFO] I0722 15:59:40.633209 16488 net.cpp:156] Memory required for data: 67249720
2016-07-22 15:59:40.633 STDERR [INFO] I0722 15:59:40.633219 16488 layer_factory.hpp:77] Creating layer pool5
2016-07-22 15:59:40.633 STDERR [INFO] I0722 15:59:40.633236 16488 net.cpp:91] Creating Layer pool5
2016-07-22 15:59:40.633 STDERR [INFO] I0722 15:59:40.633246 16488 net.cpp:425] pool5 <- conv5
2016-07-22 15:59:40.633 STDERR [INFO] I0722 15:59:40.633256 16488 net.cpp:399] pool5 -> pool5
2016-07-22 15:59:40.633 STDERR [INFO] I0722 15:59:40.633410 16488 net.cpp:141] Setting up pool5
2016-07-22 15:59:40.634 STDERR [INFO] I0722 15:59:40.633421 16488 net.cpp:148] Top shape: 10 256 6 6 (92160)
2016-07-22 15:59:40.634 STDERR [INFO] I0722 15:59:40.633425 16488 net.cpp:156] Memory required for data: 67618360
2016-07-22 15:59:40.634 STDERR [INFO] I0722 15:59:40.633430 16488 layer_factory.hpp:77] Creating layer fc6
2016-07-22 15:59:40.634 STDERR [INFO] I0722 15:59:40.633446 16488 net.cpp:91] Creating Layer fc6
2016-07-22 15:59:40.634 STDERR [INFO] I0722 15:59:40.633451 16488 net.cpp:425] fc6 <- pool5
…
2016-07-22 15:59:40.713 STDERR [INFO] }
2016-07-22 15:59:40.713 STDERR [INFO] I0722 15:59:40.702483 16474 layer_factory.hpp:77] Creating layer lstm1_
2016-07-22 15:59:40.713 STDERR [INFO] I0722 15:59:40.702497 16474 net.cpp:91] Creating Layer lstm1_
2016-07-22 15:59:40.713 STDERR [INFO] I0722 15:59:40.702502 16474 net.cpp:399] lstm1_ -> x
2016-07-22 15:59:40.713 STDERR [INFO] I0722 15:59:40.702514 16474 net.cpp:399] lstm1_ -> cont
2016-07-22 15:59:40.713 STDERR [INFO] I0722 15:59:40.706970 16474 net.cpp:141] Setting up lstm1_
2016-07-22 15:59:40.713 STDERR [INFO] I0722 15:59:40.706995 16474 net.cpp:148] Top shape: 1 1 500 (500)
2016-07-22 15:59:40.713 STDERR [INFO] I0722 15:59:40.707001 16474 net.cpp:148] Top shape: 1 1 (1)
2016-07-22 15:59:40.714 STDERR [INFO] I0722 15:59:40.707005 16474 net.cpp:156] Memory required for data: 2004
2016-07-22 15:59:40.714 STDERR [INFO] I0722 15:59:40.707011 16474 layer_factory.hpp:77] Creating layer lstm1_
2016-07-22 15:59:40.714 STDERR [INFO] I0722 15:59:40.707025 16474 net.cpp:91] Creating Layer lstm1_
2016-07-22 15:59:40.714 STDERR [INFO] I0722 15:59:40.707033 16474 net.cpp:399] lstm1_ -> c_0
2016-07-22 15:59:40.714 STDERR [INFO] I0722 15:59:40.707046 16474 net.cpp:399] lstm1_ -> h_0
2016-07-22 15:59:40.714 STDERR [INFO] I0722 15:59:40.707236 16474 net.cpp:141] Setting up lstm1_
2016-07-22 15:59:40.714 STDERR [INFO] I0722 15:59:40.707247 16474 net.cpp:148] Top shape: 1 1 1000 (1000)
2016-07-22 15:59:40.714 STDIO [ERROR] featureFromMat: type 5
2016-07-22 15:59:40.714 STDERR [INFO] I0722 15:59:40.707252 16474 net.cpp:148] Top shape: 1 1 1000 (1000)
2016-07-22 15:59:40.714 STDERR [INFO] I0722 15:59:40.707257 16474 net.cpp:156] Memory required for data: 10004
2016-07-22 15:59:40.714 STDERR [INFO] I0722 15:59:40.707262 16474 layer_factory.hpp:77] Creating layer lstm1_cont_slice
2016-07-22 15:59:40.714 STDERR [INFO] I0722 15:59:40.707270 16474 net.cpp:91] Creating Layer lstm1_cont_slice
2016-07-22 15:59:40.714 STDIO [ERROR] featureFromMat: cols 1
2016-07-22 15:59:40.714 STDERR [INFO] I0722 15:59:40.707275 16474 net.cpp:425] lstm1_cont_slice <- cont
2016-07-22 15:59:40.714 STDERR [INFO] I0722 15:59:40.707285 16474 net.cpp:399] lstm1_cont_slice -> cont_1
2016-07-22 15:59:40.714 STDIO [ERROR] featureFromMat: rows 4096
2016-07-22 15:59:40.714 STDERR [INFO] I0722 15:59:40.707371 16474 net.cpp:141] Setting up lstm1_cont_slice
2016-07-22 15:59:40.715 STDIO [ERROR] featureFromMat: elemSize 4
2016-07-22 15:59:40.715 STDERR [INFO] I0722 15:59:40.707382 16474 net.cpp:148] Top shape: 1 1 (1)
2016-07-22 15:59:40.715 STDERR [INFO] I0722 15:59:40.707387 16474 net.cpp:156] Memory required for data: 10008
2016-07-22 15:59:40.715 STDERR [INFO] I0722 15:59:40.707393 16474 layer_factory.hpp:77] Creating layer cont_1_lstm1_cont_slice_0_split
2016-07-22 15:59:40.715 n.t.s.b.CVParticleBolt [INFO] [Timing] RequestID: 0 StreamID: home/peifeng/work/data/frame.320x240.jpg SequenceNr: 24 Leaving vgg_feature: 1469217580715 Size: 65846
2016-07-22 15:59:40.715 STDERR [INFO] I0722 15:59:40.707403 16474 net.cpp:91] Creating Layer cont_1_lstm1_cont_slice_0_split
2016-07-22 15:59:40.715 STDERR [INFO] I0722 15:59:40.707408 16474 net.cpp:425] cont_1_lstm1_cont_slice_0_split <- cont_1
2016-07-22 15:59:40.715 STDERR [INFO] I0722 15:59:40.707415 16474 net.cpp:399] cont_1_lstm1_cont_slice_0_split -> cont_1_lstm1_cont_slice_0_split_0
2016-07-22 15:59:40.715 STDERR [INFO] I0722 15:59:40.707423 16474 net.cpp:399] cont_1_lstm1_cont_slice_0_split -> cont_1_lstm1_cont_slice_0_split_1
2016-07-22 15:59:40.715 n.t.s.b.CVParticleBolt [INFO] [Timing] RequestID: 0 StreamID: home/peifeng/work/data/frame.320x240.jpg SequenceNr: 25 Entering vgg_feature: 1469217580715
2016-07-22 15:59:40.715 STDERR [INFO] I0722 15:59:40.707545 16474 net.cpp:141] Setting up cont_1_lstm1_cont_slice_0_split
2016-07-22 15:59:40.715 STDERR [INFO] I0722 15:59:40.707556 16474 net.cpp:148] Top shape: 1 1 (1)
2016-07-22 15:59:40.715 STDERR [INFO] I0722 15:59:40.707561 16474 net.cpp:148] Top shape: 1 1 (1)
2016-07-22 15:59:40.715 STDERR [INFO] I0722 15:59:40.707566 16474 net.cpp:156] Memory required for data: 10016
2016-07-22 15:59:40.715 n.t.s.b.CVParticleBolt [INFO] [Timing] RequestID: 0 StreamID: home/peifeng/work/data/frame.320x240.jpg SequenceNr: 24 Entering frame_grouper_batcher: 1469217580715
2016-07-22 15:59:40.715 STDERR [INFO] I0722 15:59:40.707569 16474 layer_factory.hpp:77] Creating layer lstm1_x_transform
…
2016-07-22 15:59:40.735 STDERR [INFO] }
2016-07-22 15:59:40.735 STDERR [INFO] I0722 15:59:40.725286 16470 layer_factory.hpp:77] Creating layer lstm1_
2016-07-22 15:59:40.736 STDERR [INFO] I0722 15:59:40.725298 16470 net.cpp:91] Creating Layer lstm1_
2016-07-22 15:59:40.736 STDERR [INFO] I0722 15:59:40.725304 16470 net.cpp:399] lstm1_ -> x
2016-07-22 15:59:40.736 STDERR [INFO] I0722 15:59:40.725317 16470 net.cpp:399] lstm1_ -> cont
2016-07-22 15:59:40.736 STDERR [INFO] I0722 15:59:40.725422 16470 net.cpp:141] Setting up lstm1_
2016-07-22 15:59:40.736 STDERR [INFO] I0722 15:59:40.725433 16470 net.cpp:148] Top shape: 1 1 500 (500)
2016-07-22 15:59:40.736 STDERR [INFO] I0722 15:59:40.725440 16470 net.cpp:148] Top shape: 1 1 (1)
2016-07-22 15:59:40.736 STDERR [INFO] I0722 15:59:40.725445 16470 net.cpp:156] Memory required for data: 2004
2016-07-22 15:59:40.736 STDERR [INFO] I0722 15:59:40.725450 16470 layer_factory.hpp:77] Creating layer lstm1_
2016-07-22 15:59:40.736 STDERR [INFO] I0722 15:59:40.725457 16470 net.cpp:91] Creating Layer lstm1_
2016-07-22 15:59:40.736 STDERR [INFO] I0722 15:59:40.725466 16470 net.cpp:399] lstm1_ -> c_0
2016-07-22 15:59:40.736 STDERR [INFO] I0722 15:59:40.725479 16470 net.cpp:399] lstm1_ -> h_0
2016-07-22 15:59:40.736 STDERR [INFO] I0722 15:59:40.726184 16470 net.cpp:141] Setting up lstm1_
2016-07-22 15:59:40.736 STDERR [INFO] I0722 15:59:40.726198 16470 net.cpp:148] Top shape: 1 1 1000 (1000)
2016-07-22 15:59:40.737 STDERR [INFO] I0722 15:59:40.726204 16470 net.cpp:148] Top shape: 1 1 1000 (1000)
2016-07-22 15:59:40.737 STDERR [INFO] I0722 15:59:40.726208 16470 net.cpp:156] Memory required for data: 10004
2016-07-22 15:59:40.737 STDERR [INFO] I0722 15:59:40.726213 16470 layer_factory.hpp:77] Creating layer lstm1_cont_slice
2016-07-22 15:59:40.737 STDERR [INFO] I0722 15:59:40.726223 16470 net.cpp:91] Creating Layer lstm1_cont_slice
2016-07-22 15:59:40.737 STDERR [INFO] I0722 15:59:40.726228 16470 net.cpp:425] lstm1_cont_slice <- cont
2016-07-22 15:59:40.737 STDERR [INFO] I0722 15:59:40.726238 16470 net.cpp:399] lstm1_cont_slice -> cont_1
2016-07-22 15:59:40.737 STDERR [INFO] I0722 15:59:40.726310 16470 net.cpp:141] Setting up lstm1_cont_slice
2016-07-22 15:59:40.737 STDERR [INFO] I0722 15:59:40.726321 16470 net.cpp:148] Top shape: 1 1 (1)
2016-07-22 15:59:40.737 STDERR [INFO] I0722 15:59:40.726326 16470 net.cpp:156] Memory required for data: 10008
2016-07-22 15:59:40.737 STDERR [INFO] I0722 15:59:40.726331 16470 layer_factory.hpp:77] Creating layer cont_1_lstm1_cont_slice_0_split
2016-07-22 15:59:40.737 STDERR [INFO] I0722 15:59:40.726338 16470 net.cpp:91] Creating Layer cont_1_lstm1_cont_slice_0_split
2016-07-22 15:59:40.737 STDERR [INFO] I0722 15:59:40.726343 16470 net.cpp:425] cont_1_lstm1_cont_slice_0_split <- cont_1
2016-07-22 15:59:40.737 STDERR [INFO] I0722 15:59:40.726352 16470 net.cpp:399] cont_1_lstm1_cont_slice_0_split -> cont_1_lstm1_cont_slice_0_split_0
2016-07-22 15:59:40.737 STDERR [INFO] I0722 15:59:40.726361 16470 net.cpp:399] cont_1_lstm1_cont_slice_0_split -> cont_1_lstm1_cont_slice_0_split_1
2016-07-22 15:59:40.738 STDERR [INFO] I0722 15:59:40.726467 16470 net.cpp:141] Setting up cont_1_lstm1_cont_slice_0_split
2016-07-22 15:59:40.738 STDERR [INFO] I0722 15:59:40.726478 16470 net.cpp:148] Top shape: 1 1 (1)
2016-07-22 15:59:40.738 STDERR [INFO] I0722 15:59:40.726485 16470 net.cpp:148] Top shape: 1 1 (1)
2016-07-22 15:59:40.738 STDERR [INFO] I0722 15:59:40.726488 16470 net.cpp:156] Memory required for data: 10016
2016-07-22 15:59:40.738 STDERR [INFO] I0722 15:59:40.726493 16470 layer_factory.hpp:77] Creating layer lstm1_x_transform
2016-07-22 15:59:40.738 STDERR [INFO] I0722 15:59:40.726505 16470 net.cpp:91] Creating Layer lstm1_x_transform
2016-07-22 15:59:40.738 STDERR [INFO] I0722 15:59:40.726511 16470 net.cpp:425] lstm1_x_transform <- x
2016-07-22 15:59:40.738 STDERR [INFO] I0722 15:59:40.726518 16470 net.cpp:399] lstm1_x_transform -> W_xc_x
2016-07-22 15:59:40.738 STDERR [INFO] I0722 15:59:40.732602 16474 net.cpp:141] Setting up lstm1_x_transform
2016-07-22 15:59:40.739 STDERR [INFO] I0722 15:59:40.732642 16474 net.cpp:148] Top shape: 1 1 4000 (4000)
2016-07-22 15:59:40.739 STDERR [INFO] I0722 15:59:40.732648 16474 net.cpp:156] Memory required for data: 26016
2016-07-22 15:59:40.739 STDERR [INFO] I0722 15:59:40.732669 16474 layer_factory.hpp:77] Creating layer lstm1_W_xc_x_slice
2016-07-22 15:59:40.739 STDERR [INFO] I0722 15:59:40.732689 16474 net.cpp:91] Creating Layer lstm1_W_xc_x_slice
2016-07-22 15:59:40.739 STDERR [INFO] I0722 15:59:40.732697 16474 net.cpp:425] lstm1_W_xc_x_slice <- W_xc_x
2016-07-22 15:59:40.739 STDERR [INFO] I0722 15:59:40.732707 16474 net.cpp:399] lstm1_W_xc_x_slice -> W_xc_x_1
2016-07-22 15:59:40.739 STDERR [INFO] I0722 15:59:40.732776 16474 net.cpp:141] Setting up lstm1_W_xc_x_slice
2016-07-22 15:59:40.739 STDERR [INFO] I0722 15:59:40.732789 16474 net.cpp:148] Top shape: 1 1 4000 (4000)
2016-07-22 15:59:40.739 STDERR [INFO] I0722 15:59:40.732792 16474 net.cpp:156] Memory required for data: 42016
2016-07-22 15:59:40.739 STDERR [INFO] I0722 15:59:40.732797 16474 layer_factory.hpp:77] Creating layer lstm1_h_conted_0
2016-07-22 15:59:40.739 STDERR [INFO] I0722 15:59:40.732810 16474 net.cpp:91] Creating Layer lstm1_h_conted_0
2016-07-22 15:59:40.739 STDERR [INFO] I0722 15:59:40.732815 16474 net.cpp:425] lstm1_h_conted_0 <- h_0
2016-07-22 15:59:40.739 STDERR [INFO] I0722 15:59:40.732820 16474 net.cpp:425] lstm1_h_conted_0 <- cont_1_lstm1_cont_slice_0_split_0
2016-07-22 15:59:40.739 STDERR [INFO] I0722 15:59:40.732827 16474 net.cpp:399] lstm1_h_conted_0 -> h_conted_0
2016-07-22 15:59:40.740 STDERR [INFO] I0722 15:59:40.733013 16474 net.cpp:141] Setting up lstm1_h_conted_0
2016-07-22 15:59:40.740 STDERR [INFO] I0722 15:59:40.733024 16474 net.cpp:148] Top shape: 1 1 1000 (1000)
2016-07-22 15:59:40.740 STDERR [INFO] I0722 15:59:40.733028 16474 net.cpp:156] Memory required for data: 46016
2016-07-22 15:59:40.740 STDERR [INFO] I0722 15:59:40.733033 16474 layer_factory.hpp:77] Creating layer lstm1_transform_1
2016-07-22 15:59:40.740 STDERR [INFO] I0722 15:59:40.733045 16474 net.cpp:91] Creating Layer lstm1_transform_1
2016-07-22 15:59:40.740 STDERR [INFO] I0722 15:59:40.733050 16474 net.cpp:425] lstm1_transform_1 <- h_conted_0
…
2016-07-22 15:59:40.804 n.t.s.s.CVParticleSpout [INFO] [Timing] RequestID: 0 StreamID: home/peifeng/work/data/frame.320x240.jpg SequenceNr: 40 Ack ack: 1469217580804 Size: 0
2016-07-22 15:59:40.804 STDERR [INFO] I0722 15:59:40.803902 16470 net.cpp:425] lstm1_unit_1 <- cont_1_lstm1_cont_slice_0_split_1
2016-07-22 15:59:40.804 STDERR [INFO] I0722 15:59:40.803913 16470 net.cpp:399] lstm1_unit_1 -> c_1
2016-07-22 15:59:40.804 STDERR [INFO] I0722 15:59:40.803927 16470 net.cpp:399] lstm1_unit_1 -> h_1
2016-07-22 15:59:40.804 STDERR [INFO] I0722 15:59:40.803941 16474 net.cpp:141] Setting up lstm1_unit_1
2016-07-22 15:59:40.804 STDERR [INFO] I0722 15:59:40.803958 16474 net.cpp:148] Top shape: 1 1 1000 (1000)
2016-07-22 15:59:40.805 STDERR [INFO] I0722 15:59:40.803966 16474 net.cpp:148] Top shape: 1 1 1000 (1000)
2016-07-22 15:59:40.805 STDERR [INFO] I0722 15:59:40.803969 16474 net.cpp:156] Memory required for data: 86016
2016-07-22 15:59:40.805 STDERR [INFO] I0722 15:59:40.803974 16474 layer_factory.hpp:77] Creating layer lstm1_
2016-07-22 15:59:40.805 STDERR [INFO] I0722 15:59:40.803987 16474 net.cpp:91] Creating Layer lstm1_
2016-07-22 15:59:40.805 STDERR [INFO] I0722 15:59:40.803992 16474 net.cpp:425] lstm1_ <- c_1
2016-07-22 15:59:40.805 STDERR [INFO] I0722 15:59:40.803998 16474 net.cpp:399] lstm1_ -> c_T
2016-07-22 15:59:40.805 STDERR [INFO] I0722 15:59:40.804134 16474 net.cpp:141] Setting up lstm1_
2016-07-22 15:59:40.805 STDERR [INFO] I0722 15:59:40.804147 16474 net.cpp:148] Top shape: 1 1 1000 (1000)
2016-07-22 15:59:40.805 STDERR [INFO] I0722 15:59:40.804150 16474 net.cpp:156] Memory required for data: 90016
2016-07-22 15:59:40.805 STDERR [INFO] I0722 15:59:40.804155 16474 layer_factory.hpp:77] Creating layer lstm1_h_concat
2016-07-22 15:59:40.805 STDERR [INFO] I0722 15:59:40.804167 16474 net.cpp:91] Creating Layer lstm1_h_concat
2016-07-22 15:59:40.805 STDERR [INFO] I0722 15:59:40.804172 16474 net.cpp:425] lstm1_h_concat <- h_1
2016-07-22 15:59:40.805 STDERR [INFO] I0722 15:59:40.804179 16474 net.cpp:399] lstm1_h_concat -> h
2016-07-22 15:59:40.805 STDERR [INFO] I0722 15:59:40.804214 16470 net.cpp:141] Setting up lstm1_unit_1
2016-07-22 15:59:40.805 STDERR [INFO] I0722 15:59:40.804234 16470 net.cpp:148] Top shape: 1 1 1000 (1000)
2016-07-22 15:59:40.805 STDERR [INFO] I0722 15:59:40.804246 16470 net.cpp:148] Top shape: 1 1 1000 (1000)
2016-07-22 15:59:40.805 STDERR [INFO] I0722 15:59:40.804255 16470 net.cpp:156] Memory required for data: 86016
2016-07-22 15:59:40.805 STDERR [INFO] I0722 15:59:40.804256 16474 net.cpp:141] Setting up lstm1_h_concat
2016-07-22 15:59:40.806 STDERR [INFO] I0722 15:59:40.804263 16470 layer_factory.hpp:77] Creating layer lstm1_
2016-07-22 15:59:40.806 STDERR [INFO] I0722 15:59:40.804267 16474 net.cpp:148] Top shape: 1 1 1000 (1000)
2016-07-22 15:59:40.806 STDERR [INFO] I0722 15:59:40.804271 16474 net.cpp:156] Memory required for data: 94016
2016-07-22 15:59:40.806 STDERR [INFO] I0722 15:59:40.804276 16474 layer_factory.hpp:77] Creating layer h_pseudoloss
2016-07-22 15:59:40.806 STDERR [INFO] I0722 15:59:40.804280 16470 net.cpp:91] Creating Layer lstm1_
2016-07-22 15:59:40.806 STDERR [INFO] I0722 15:59:40.804289 16470 net.cpp:425] lstm1_ <- c_1
2016-07-22 15:59:40.806 STDERR [INFO] I0722 15:59:40.804291 16474 net.cpp:91] Creating Layer h_pseudoloss
2016-07-22 15:59:40.806 STDERR [INFO] I0722 15:59:40.804304 16474 net.cpp:425] h_pseudoloss <- h
2016-07-22 15:59:40.806 STDERR [INFO] I0722 15:59:40.804308 16470 net.cpp:399] lstm1_ -> c_T
2016-07-22 15:59:40.806 STDERR [INFO] I0722 15:59:40.804311 16474 net.cpp:399] h_pseudoloss -> h_pseudoloss
2016-07-22 15:59:40.806 STDERR [INFO] I0722 15:59:40.804438 16470 net.cpp:141] Setting up lstm1_
2016-07-22 15:59:40.806 STDERR [INFO] I0722 15:59:40.804456 16470 net.cpp:148] Top shape: 1 1 1000 (1000)
2016-07-22 15:59:40.806 STDERR [INFO] I0722 15:59:40.804466 16470 net.cpp:156] Memory required for data: 90016
2016-07-22 15:59:40.806 STDERR [INFO] I0722 15:59:40.804474 16470 layer_factory.hpp:77] Creating layer lstm1_h_concat
2016-07-22 15:59:40.806 STDERR [INFO] I0722 15:59:40.804487 16470 net.cpp:91] Creating Layer lstm1_h_concat
2016-07-22 15:59:40.806 STDERR [INFO] I0722 15:59:40.804497 16470 net.cpp:425] lstm1_h_concat <- h_1
…
2016-07-22 15:59:40.851 STDERR [INFO]   top: "h_pseudoloss"
2016-07-22 15:59:40.851 STDERR [INFO]   loss_weight: 1
2016-07-22 15:59:40.852 STDERR [INFO] }
2016-07-22 15:59:40.852 STDERR [INFO] I0722 15:59:40.810395 16470 layer_factory.hpp:77] Creating layer lstm2_
2016-07-22 15:59:40.852 STDERR [INFO] I0722 15:59:40.810402 16474 net.cpp:141] Setting up lstm2_
2016-07-22 15:59:40.852 STDERR [INFO] I0722 15:59:40.810405 16470 net.cpp:91] Creating Layer lstm2_
2016-07-22 15:59:40.852 STDERR [INFO] I0722 15:59:40.810413 16470 net.cpp:399] lstm2_ -> x
2016-07-22 15:59:40.852 STDERR [INFO] I0722 15:59:40.810413 16474 net.cpp:148] Top shape: 1 1 1501 (1501)
2016-07-22 15:59:40.852 STDERR [INFO] I0722 15:59:40.810437 16470 net.cpp:399] lstm2_ -> cont
2016-07-22 15:59:40.852 STDERR [INFO] I0722 15:59:40.810437 16474 net.cpp:148] Top shape: 1 1 (1)
2016-07-22 15:59:40.852 STDERR [INFO] I0722 15:59:40.810452 16474 net.cpp:156] Memory required for data: 6008
2016-07-22 15:59:40.853 STDERR [INFO] I0722 15:59:40.810457 16474 layer_factory.hpp:77] Creating layer lstm2_
2016-07-22 15:59:40.853 STDERR [INFO] I0722 15:59:40.810472 16474 net.cpp:91] Creating Layer lstm2_
2016-07-22 15:59:40.853 STDERR [INFO] I0722 15:59:40.810487 16474 net.cpp:399] lstm2_ -> c_0
2016-07-22 15:59:40.853 STDERR [INFO] I0722 15:59:40.810506 16474 net.cpp:399] lstm2_ -> h_0
2016-07-22 15:59:40.854 STDERR [INFO] I0722 15:59:40.810530 16470 net.cpp:141] Setting up lstm2_
2016-07-22 15:59:40.855 STDERR [INFO] I0722 15:59:40.810541 16470 net.cpp:148] Top shape: 1 1 1501 (1501)
2016-07-22 15:59:40.855 STDERR [INFO] I0722 15:59:40.810547 16470 net.cpp:148] Top shape: 1 1 (1)
2016-07-22 15:59:40.855 STDERR [INFO] I0722 15:59:40.810551 16470 net.cpp:156] Memory required for data: 6008
2016-07-22 15:59:40.855 STDERR [INFO] I0722 15:59:40.810556 16470 layer_factory.hpp:77] Creating layer lstm2_
2016-07-22 15:59:40.855 STDERR [INFO] I0722 15:59:40.810565 16470 net.cpp:91] Creating Layer lstm2_
2016-07-22 15:59:40.855 STDERR [INFO] I0722 15:59:40.810573 16470 net.cpp:399] lstm2_ -> c_0
2016-07-22 15:59:40.856 STDERR [INFO] I0722 15:59:40.810583 16470 net.cpp:399] lstm2_ -> h_0
2016-07-22 15:59:40.856 STDERR [INFO] I0722 15:59:40.810662 16474 net.cpp:141] Setting up lstm2_
2016-07-22 15:59:40.856 STDERR [INFO] I0722 15:59:40.810674 16474 net.cpp:148] Top shape: 1 1 1000 (1000)
2016-07-22 15:59:40.856 STDERR [INFO] I0722 15:59:40.810680 16474 net.cpp:148] Top shape: 1 1 1000 (1000)
2016-07-22 15:59:40.856 STDERR [INFO] I0722 15:59:40.810684 16474 net.cpp:156] Memory required for data: 14008
2016-07-22 15:59:40.856 STDERR [INFO] I0722 15:59:40.810703 16474 layer_factory.hpp:77] Creating layer lstm2_cont_slice
2016-07-22 15:59:40.856 STDERR [INFO] I0722 15:59:40.810711 16474 net.cpp:91] Creating Layer lstm2_cont_slice
2016-07-22 15:59:40.856 STDERR [INFO] I0722 15:59:40.810716 16474 net.cpp:425] lstm2_cont_slice <- cont
2016-07-22 15:59:40.857 STDERR [INFO] I0722 15:59:40.810729 16474 net.cpp:399] lstm2_cont_slice -> cont_1
2016-07-22 15:59:40.857 STDERR [INFO] I0722 15:59:40.810736 16470 net.cpp:141] Setting up lstm2_
2016-07-22 15:59:40.858 STDERR [INFO] I0722 15:59:40.810748 16470 net.cpp:148] Top shape: 1 1 1000 (1000)
2016-07-22 15:59:40.858 STDERR [INFO] I0722 15:59:40.810755 16470 net.cpp:148] Top shape: 1 1 1000 (1000)
2016-07-22 15:59:40.858 STDERR [INFO] I0722 15:59:40.810760 16470 net.cpp:156] Memory required for data: 14008
2016-07-22 15:59:40.858 STDERR [INFO] I0722 15:59:40.810765 16470 layer_factory.hpp:77] Creating layer lstm2_cont_slice
2016-07-22 15:59:40.858 STDERR [INFO] I0722 15:59:40.810772 16470 net.cpp:91] Creating Layer lstm2_cont_slice
2016-07-22 15:59:40.858 STDERR [INFO] I0722 15:59:40.810777 16470 net.cpp:425] lstm2_cont_slice <- cont
2016-07-22 15:59:40.858 STDERR [INFO] I0722 15:59:40.810786 16470 net.cpp:399] lstm2_cont_slice -> cont_1
2016-07-22 15:59:40.858 STDERR [INFO] I0722 15:59:40.810792 16474 net.cpp:141] Setting up lstm2_cont_slice
2016-07-22 15:59:40.858 STDERR [INFO] I0722 15:59:40.810803 16474 net.cpp:148] Top shape: 1 1 (1)
2016-07-22 15:59:40.859 STDERR [INFO] I0722 15:59:40.810807 16474 net.cpp:156] Memory required for data: 14012
2016-07-22 15:59:40.859 STDERR [INFO] I0722 15:59:40.810812 16474 layer_factory.hpp:77] Creating layer cont_1_lstm2_cont_slice_0_split
2016-07-22 15:59:40.859 STDERR [INFO] I0722 15:59:40.810819 16474 net.cpp:91] Creating Layer cont_1_lstm2_cont_slice_0_split
2016-07-22 15:59:40.859 STDERR [INFO] I0722 15:59:40.810823 16474 net.cpp:425] cont_1_lstm2_cont_slice_0_split <- cont_1
2016-07-22 15:59:40.859 STDERR [INFO] I0722 15:59:40.810832 16474 net.cpp:399] cont_1_lstm2_cont_slice_0_split -> cont_1_lstm2_cont_slice_0_split_0
2016-07-22 15:59:40.859 STDERR [INFO] I0722 15:59:40.810840 16474 net.cpp:399] cont_1_lstm2_cont_slice_0_split -> cont_1_lstm2_cont_slice_0_split_1
2016-07-22 15:59:40.859 STDERR [INFO] I0722 15:59:40.810843 16470 net.cpp:141] Setting up lstm2_cont_slice
2016-07-22 15:59:40.859 STDERR [INFO] I0722 15:59:40.810853 16470 net.cpp:148] Top shape: 1 1 (1)
2016-07-22 15:59:40.859 STDERR [INFO] I0722 15:59:40.810858 16470 net.cpp:156] Memory required for data: 14012
2016-07-22 15:59:40.860 STDERR [INFO] I0722 15:59:40.810863 16470 layer_factory.hpp:77] Creating layer cont_1_lstm2_cont_slice_0_split
2016-07-22 15:59:40.860 STDERR [INFO] I0722 15:59:40.810871 16470 net.cpp:91] Creating Layer cont_1_lstm2_cont_slice_0_split
2016-07-22 15:59:40.860 STDERR [INFO] I0722 15:59:40.810876 16470 net.cpp:425] cont_1_lstm2_cont_slice_0_split <- cont_1
2016-07-22 15:59:40.860 STDERR [INFO] I0722 15:59:40.810883 16470 net.cpp:399] cont_1_lstm2_cont_slice_0_split -> cont_1_lstm2_cont_slice_0_split_0
2016-07-22 15:59:40.860 STDERR [INFO] I0722 15:59:40.810891 16470 net.cpp:399] cont_1_lstm2_cont_slice_0_split -> cont_1_lstm2_cont_slice_0_split_1
2016-07-22 15:59:40.860 STDERR [INFO] I0722 15:59:40.810961 16474 net.cpp:141] Setting up cont_1_lstm2_cont_slice_0_split
2016-07-22 15:59:40.860 STDERR [INFO] I0722 15:59:40.810972 16474 net.cpp:148] Top shape: 1 1 (1)
2016-07-22 15:59:40.860 STDERR [INFO] I0722 15:59:40.810978 16474 net.cpp:148] Top shape: 1 1 (1)
2016-07-22 15:59:40.860 STDERR [INFO] I0722 15:59:40.810982 16474 net.cpp:156] Memory required for data: 14020
2016-07-22 15:59:40.860 STDERR [INFO] I0722 15:59:40.810987 16474 layer_factory.hpp:77] Creating layer lstm2_x_transform
2016-07-22 15:59:40.861 STDERR [INFO] I0722 15:59:40.811013 16474 net.cpp:91] Creating Layer lstm2_x_transform
2016-07-22 15:59:40.861 STDERR [INFO] I0722 15:59:40.811020 16474 net.cpp:425] lstm2_x_transform <- x
2016-07-22 15:59:40.861 STDERR [INFO] I0722 15:59:40.811029 16474 net.cpp:399] lstm2_x_transform -> W_xc_x
2016-07-22 15:59:40.861 STDERR [INFO] I0722 15:59:40.811033 16470 net.cpp:141] Setting up cont_1_lstm2_cont_slice_0_split
2016-07-22 15:59:40.861 STDERR [INFO] I0722 15:59:40.811045 16470 net.cpp:148] Top shape: 1 1 (1)
2016-07-22 15:59:40.861 STDERR [INFO] I0722 15:59:40.811051 16470 net.cpp:148] Top shape: 1 1 (1)
2016-07-22 15:59:40.861 STDERR [INFO] I0722 15:59:40.811056 16470 net.cpp:156] Memory required for data: 14020
2016-07-22 15:59:40.861 STDERR [INFO] I0722 15:59:40.811060 16470 layer_factory.hpp:77] Creating layer lstm2_x_transform
2016-07-22 15:59:40.861 STDERR [INFO] I0722 15:59:40.811074 16470 net.cpp:91] Creating Layer lstm2_x_transform
2016-07-22 15:59:40.862 STDERR [INFO] I0722 15:59:40.811079 16470 net.cpp:425] lstm2_x_transform <- x
2016-07-22 15:59:40.862 STDERR [INFO] I0722 15:59:40.811086 16470 net.cpp:399] lstm2_x_transform -> W_xc_x
2016-07-22 15:59:40.862 STDERR [INFO] I0722 15:59:40.840937 16488 net.cpp:141] Setting up fc7
2016-07-22 15:59:40.862 STDERR [INFO] I0722 15:59:40.840983 16488 net.cpp:148] Top shape: 10 4096 (40960)
2016-07-22 15:59:40.862 STDIO [ERROR] featureFromMat: type 5
2016-07-22 15:59:40.862 STDERR [INFO] I0722 15:59:40.840989 16488 net.cpp:156] Memory required for data: 68273720
2016-07-22 15:59:40.862 STDERR [INFO] I0722 15:59:40.841011 16488 layer_factory.hpp:77] Creating layer relu7
2016-07-22 15:59:40.862 STDERR [INFO] I0722 15:59:40.841032 16488 net.cpp:91] Creating Layer relu7
2016-07-22 15:59:40.862 STDIO [ERROR] featureFromMat: cols 1
2016-07-22 15:59:40.862 STDERR [INFO] I0722 15:59:40.841040 16488 net.cpp:425] relu7 <- fc7
2016-07-22 15:59:40.862 STDIO [ERROR] featureFromMat: rows 4096
2016-07-22 15:59:40.862 STDERR [INFO] I0722 15:59:40.841053 16488 net.cpp:386] relu7 -> fc7 (in-place)
2016-07-22 15:59:40.862 STDIO [ERROR] featureFromMat: elemSize 4
2016-07-22 15:59:40.862 STDERR [INFO] I0722 15:59:40.842716 16488 net.cpp:141] Setting up relu7
2016-07-22 15:59:40.863 n.t.s.b.CVParticleBolt [INFO] [Timing] RequestID: 0 StreamID: home/peifeng/work/data/frame.320x240.jpg SequenceNr: 49 Leaving vgg_feature: 1469217580863 Size: 65846
2016-07-22 15:59:40.863 STDERR [INFO] I0722 15:59:40.842759 16488 net.cpp:148] Top shape: 10 4096 (40960)
2016-07-22 15:59:40.863 STDERR [INFO] I0722 15:59:40.842772 16488 net.cpp:156] Memory required for data: 68437560
2016-07-22 15:59:40.863 STDERR [INFO] I0722 15:59:40.842778 16488 layer_factory.hpp:77] Creating layer drop7
2016-07-22 15:59:40.863 n.t.s.b.CVParticleBolt [INFO] [Timing] RequestID: 0 StreamID: home/peifeng/work/data/frame.320x240.jpg SequenceNr: 51 Entering vgg_feature: 1469217580863
2016-07-22 15:59:40.863 STDERR [INFO] I0722 15:59:40.842792 16488 net.cpp:91] Creating Layer drop7
2016-07-22 15:59:40.863 STDERR [INFO] I0722 15:59:40.842798 16488 net.cpp:425] drop7 <- fc7
2016-07-22 15:59:40.863 n.t.s.b.CVParticleBolt [INFO] [Timing] RequestID: 0 StreamID: home/peifeng/work/data/frame.320x240.jpg SequenceNr: 49 Entering frame_grouper_batcher: 1469217580863
2016-07-22 15:59:40.863 STDERR [INFO] I0722 15:59:40.842806 16488 net.cpp:386] drop7 -> fc7 (in-place)
2016-07-22 15:59:40.863 STDERR [INFO] I0722 15:59:40.846876 16488 net.cpp:141] Setting up drop7
2016-07-22 15:59:40.863 STDERR [INFO] I0722 15:59:40.846902 16488 net.cpp:148] Top shape: 10 4096 (40960)
2016-07-22 15:59:40.863 n.t.s.b.CVParticleBolt [INFO] Get 0 batches from batcher
2016-07-22 15:59:40.863 STDERR [INFO] I0722 15:59:40.846909 16488 net.cpp:156] Memory required for data: 68601400
2016-07-22 15:59:40.864 STDERR [INFO] I0722 15:59:40.846916 16488 layer_factory.hpp:77] Creating layer fc8
2016-07-22 15:59:40.864 STDERR [INFO] I0722 15:59:40.846931 16488 net.cpp:91] Creating Layer fc8
2016-07-22 15:59:40.864 STDERR [INFO] I0722 15:59:40.846938 16488 net.cpp:425] fc8 <- fc7
2016-07-22 15:59:40.864 STDERR [INFO] I0722 15:59:40.846946 16488 net.cpp:399] fc8 -> fc8
2016-07-22 15:59:40.864 n.t.s.s.CVParticleSpout [INFO] [Timing] RequestID: 0 StreamID: home/peifeng/work/data/frame.320x240.jpg SequenceNr: 49 Ack ack: 1469217580864 Size: 0
2016-07-22 15:59:40.870 STDIO [ERROR] featureFromMat: type 5
2016-07-22 15:59:40.871 STDIO [ERROR] featureFromMat: cols 1
2016-07-22 15:59:40.871 STDIO [ERROR] featureFromMat: rows 4096
2016-07-22 15:59:40.871 STDIO [ERROR] featureFromMat: elemSize 4
2016-07-22 15:59:40.871 n.t.s.b.CVParticleBolt [INFO] [Timing] RequestID: 0 StreamID: home/peifeng/work/data/frame.320x240.jpg SequenceNr: 51 Leaving vgg_feature: 1469217580871 Size: 65846
2016-07-22 15:59:40.871 STDERR [INFO] I0722 15:59:40.871162 16488 net.cpp:141] Setting up fc8
2016-07-22 15:59:40.871 STDERR [INFO] I0722 15:59:40.871215 16488 net.cpp:148] Top shape: 10 1000 (10000)
2016-07-22 15:59:40.871 STDERR [INFO] I0722 15:59:40.871222 16488 net.cpp:156] Memory required for data: 68641400
2016-07-22 15:59:40.871 STDERR [INFO] I0722 15:59:40.871242 16488 layer_factory.hpp:77] Creating layer prob
2016-07-22 15:59:40.871 STDERR [INFO] I0722 15:59:40.871259 16488 net.cpp:91] Creating Layer prob
2016-07-22 15:59:40.872 STDERR [INFO] I0722 15:59:40.871268 16488 net.cpp:425] prob <- fc8
2016-07-22 15:59:40.872 n.t.s.b.CVParticleBolt [INFO] [Timing] RequestID: 0 StreamID: home/peifeng/work/data/frame.320x240.jpg SequenceNr: 53 Entering vgg_feature: 1469217580872
2016-07-22 15:59:40.872 STDERR [INFO] I0722 15:59:40.871284 16488 net.cpp:399] prob -> prob
2016-07-22 15:59:40.872 STDERR [INFO] I0722 15:59:40.871865 16488 net.cpp:141] Setting up prob
2016-07-22 15:59:40.872 STDERR [INFO] I0722 15:59:40.871879 16488 net.cpp:148] Top shape: 10 1000 (10000)
2016-07-22 15:59:40.872 STDERR [INFO] I0722 15:59:40.871884 16488 net.cpp:156] Memory required for data: 68681400
2016-07-22 15:59:40.872 STDERR [INFO] I0722 15:59:40.871891 16488 net.cpp:219] prob does not need backward computation.
2016-07-22 15:59:40.872 n.t.s.b.CVParticleBolt [INFO] [Timing] RequestID: 0 StreamID: home/peifeng/work/data/frame.320x240.jpg SequenceNr: 51 Entering frame_grouper_batcher: 1469217580872
…
2016-07-22 15:59:40.880 n.t.s.b.CVParticleBolt [INFO] [Timing] RequestID: 0 StreamID: home/peifeng/work/data/frame.320x240.jpg SequenceNr: 53 Entering frame_grouper_batcher: 1469217580880
2016-07-22 15:59:40.880 n.t.s.b.CVParticleBolt [INFO] [Timing] RequestID: 0 StreamID: home/peifeng/work/data/frame.320x240.jpg SequenceNr: 54 Entering vgg_feature: 1469217580880
2016-07-22 15:59:40.881 n.t.s.b.CVParticleBolt [INFO] Get 0 batches from batcher
2016-07-22 15:59:40.881 STDERR [INFO] I0722 15:59:40.881830 16474 net.cpp:141] Setting up lstm2_x_transform
2016-07-22 15:59:40.882 STDERR [INFO] I0722 15:59:40.881880 16474 net.cpp:148] Top shape: 1 1 4000 (4000)
2016-07-22 15:59:40.882 STDERR [INFO] I0722 15:59:40.881887 16474 net.cpp:156] Memory required for data: 30020
2016-07-22 15:59:40.882 STDERR [INFO] I0722 15:59:40.881909 16474 layer_factory.hpp:77] Creating layer lstm2_W_xc_x_slice
2016-07-22 15:59:40.882 STDERR [INFO] I0722 15:59:40.881930 16474 net.cpp:91] Creating Layer lstm2_W_xc_x_slice
2016-07-22 15:59:40.882 STDERR [INFO] I0722 15:59:40.881937 16474 net.cpp:425] lstm2_W_xc_x_slice <- W_xc_x
2016-07-22 15:59:40.882 STDERR [INFO] I0722 15:59:40.881947 16474 net.cpp:399] lstm2_W_xc_x_slice -> W_xc_x_1
2016-07-22 15:59:40.882 n.t.s.s.CVParticleSpout [INFO] [Timing] RequestID: 0 StreamID: home/peifeng/work/data/frame.320x240.jpg SequenceNr: 53 Ack ack: 1469217580882 Size: 0
2016-07-22 15:59:40.882 STDERR [INFO] I0722 15:59:40.882020 16474 net.cpp:141] Setting up lstm2_W_xc_x_slice
2016-07-22 15:59:40.882 STDERR [INFO] I0722 15:59:40.882031 16474 net.cpp:148] Top shape: 1 1 4000 (4000)
2016-07-22 15:59:40.882 STDERR [INFO] I0722 15:59:40.882036 16474 net.cpp:156] Memory required for data: 46020
2016-07-22 15:59:40.882 STDERR [INFO] I0722 15:59:40.882040 16474 layer_factory.hpp:77] Creating layer lstm2_h_conted_0
2016-07-22 15:59:40.882 STDERR [INFO] I0722 15:59:40.882051 16474 net.cpp:91] Creating Layer lstm2_h_conted_0
2016-07-22 15:59:40.882 STDERR [INFO] I0722 15:59:40.882056 16474 net.cpp:425] lstm2_h_conted_0 <- h_0
2016-07-22 15:59:40.883 STDERR [INFO] I0722 15:59:40.882062 16474 net.cpp:425] lstm2_h_conted_0 <- cont_1_lstm2_cont_slice_0_split_0
2016-07-22 15:59:40.883 STDERR [INFO] I0722 15:59:40.882068 16474 net.cpp:399] lstm2_h_conted_0 -> h_conted_0
2016-07-22 15:59:40.883 STDERR [INFO] I0722 15:59:40.882267 16474 net.cpp:141] Setting up lstm2_h_conted_0
2016-07-22 15:59:40.883 STDERR [INFO] I0722 15:59:40.882278 16474 net.cpp:148] Top shape: 1 1 1000 (1000)
2016-07-22 15:59:40.883 STDERR [INFO] I0722 15:59:40.882282 16474 net.cpp:156] Memory required for data: 50020
2016-07-22 15:59:40.883 STDERR [INFO] I0722 15:59:40.882287 16474 layer_factory.hpp:77] Creating layer lstm2_transform_1
2016-07-22 15:59:40.883 STDERR [INFO] I0722 15:59:40.882299 16474 net.cpp:91] Creating Layer lstm2_transform_1
2016-07-22 15:59:40.883 STDERR [INFO] I0722 15:59:40.882304 16474 net.cpp:425] lstm2_transform_1 <- h_conted_0
2016-07-22 15:59:40.883 STDERR [INFO] I0722 15:59:40.882313 16474 net.cpp:399] lstm2_transform_1 -> W_hc_h_0
2016-07-22 15:59:40.895 STDIO [ERROR] featureFromMat: type 5
2016-07-22 15:59:40.895 STDIO [ERROR] featureFromMat: cols 1
2016-07-22 15:59:40.896 STDIO [ERROR] featureFromMat: rows 4096
2016-07-22 15:59:40.895 STDERR [INFO] I0722 15:59:40.895722 16470 net.cpp:141] Setting up lstm2_x_transform
2016-07-22 15:59:40.896 STDIO [ERROR] featureFromMat: elemSize 4
2016-07-22 15:59:40.896 STDERR [INFO] I0722 15:59:40.895777 16470 net.cpp:148] Top shape: 1 1 4000 (4000)
2016-07-22 15:59:40.896 STDERR [INFO] I0722 15:59:40.895783 16470 net.cpp:156] Memory required for data: 30020
2016-07-22 15:59:40.896 STDERR [INFO] I0722 15:59:40.895808 16470 layer_factory.hpp:77] Creating layer lstm2_W_xc_x_slice
2016-07-22 15:59:40.896 n.t.s.b.CVParticleBolt [INFO] [Timing] RequestID: 0 StreamID: home/peifeng/work/data/frame.320x240.jpg SequenceNr: 54 Leaving vgg_feature: 1469217580896 Size: 65846
2016-07-22 15:59:40.896 STDERR [INFO] I0722 15:59:40.895828 16470 net.cpp:91] Creating Layer lstm2_W_xc_x_slice
2016-07-22 15:59:40.896 STDERR [INFO] I0722 15:59:40.895834 16470 net.cpp:425] lstm2_W_xc_x_slice <- W_xc_x
2016-07-22 15:59:40.896 STDERR [INFO] I0722 15:59:40.895844 16470 net.cpp:399] lstm2_W_xc_x_slice -> W_xc_x_1
2016-07-22 15:59:40.896 STDERR [INFO] I0722 15:59:40.895912 16470 net.cpp:141] Setting up lstm2_W_xc_x_slice
2016-07-22 15:59:40.896 n.t.s.b.CVParticleBolt [INFO] [Timing] RequestID: 0 StreamID: home/peifeng/work/data/frame.320x240.jpg SequenceNr: 55 Entering vgg_feature: 1469217580896
2016-07-22 15:59:40.896 STDERR [INFO] I0722 15:59:40.895923 16470 net.cpp:148] Top shape: 1 1 4000 (4000)
2016-07-22 15:59:40.896 STDERR [INFO] I0722 15:59:40.895928 16470 net.cpp:156] Memory required for data: 46020
2016-07-22 15:59:40.896 STDERR [INFO] I0722 15:59:40.895932 16470 layer_factory.hpp:77] Creating layer lstm2_h_conted_0
2016-07-22 15:59:40.896 STDERR [INFO] I0722 15:59:40.895943 16470 net.cpp:91] Creating Layer lstm2_h_conted_0
2016-07-22 15:59:40.896 n.t.s.b.CVParticleBolt [INFO] [Timing] RequestID: 0 StreamID: home/peifeng/work/data/frame.320x240.jpg SequenceNr: 54 Entering frame_grouper_batcher: 1469217580896
2016-07-22 15:59:40.896 STDERR [INFO] I0722 15:59:40.895948 16470 net.cpp:425] lstm2_h_conted_0 <- h_0
2016-07-22 15:59:40.896 STDERR [INFO] I0722 15:59:40.895954 16470 net.cpp:425] lstm2_h_conted_0 <- cont_1_lstm2_cont_slice_0_split_0
2016-07-22 15:59:40.896 STDERR [INFO] I0722 15:59:40.895961 16470 net.cpp:399] lstm2_h_conted_0 -> h_conted_0
2016-07-22 15:59:40.897 STDERR [INFO] I0722 15:59:40.896134 16470 net.cpp:141] Setting up lstm2_h_conted_0
2016-07-22 15:59:40.897 STDERR [INFO] I0722 15:59:40.896145 16470 net.cpp:148] Top shape: 1 1 1000 (1000)
2016-07-22 15:59:40.897 n.t.s.b.CVParticleBolt [INFO] Get 0 batches from batcher
2016-07-22 15:59:40.897 STDERR [INFO] I0722 15:59:40.896149 16470 net.cpp:156] Memory required for data: 50020
2016-07-22 15:59:40.897 STDERR [INFO] I0722 15:59:40.896154 16470 layer_factory.hpp:77] Creating layer lstm2_transform_1
2016-07-22 15:59:40.897 STDERR [INFO] I0722 15:59:40.896167 16470 net.cpp:91] Creating Layer lstm2_transform_1
…
2016-07-22 15:59:40.927 STDIO [ERROR] featureFromMat: type 5
2016-07-22 15:59:40.927 STDIO [ERROR] featureFromMat: cols 1
2016-07-22 15:59:40.927 STDIO [ERROR] featureFromMat: rows 4096
2016-07-22 15:59:40.927 STDIO [ERROR] featureFromMat: elemSize 4
2016-07-22 15:59:40.927 STDERR [INFO] I0722 15:59:40.927109 16474 net.cpp:141] Setting up lstm2_transform_1
2016-07-22 15:59:40.927 n.t.s.b.CVParticleBolt [INFO] [Timing] RequestID: 0 StreamID: home/peifeng/work/data/frame.320x240.jpg SequenceNr: 61 Leaving vgg_feature: 1469217580927 Size: 65846
2016-07-22 15:59:40.927 STDERR [INFO] I0722 15:59:40.927155 16474 net.cpp:148] Top shape: 1 1 4000 (4000)
2016-07-22 15:59:40.927 STDERR [INFO] I0722 15:59:40.927162 16474 net.cpp:156] Memory required for data: 66020
2016-07-22 15:59:40.927 STDERR [INFO] I0722 15:59:40.927181 16474 layer_factory.hpp:77] Creating layer lstm2_gate_input_1
2016-07-22 15:59:40.927 STDERR [INFO] I0722 15:59:40.927204 16474 net.cpp:91] Creating Layer lstm2_gate_input_1
2016-07-22 15:59:40.927 n.t.s.b.CVParticleBolt [INFO] [Timing] RequestID: 0 StreamID: home/peifeng/work/data/frame.320x240.jpg SequenceNr: 62 Entering vgg_feature: 1469217580927
2016-07-22 15:59:40.927 STDERR [INFO] I0722 15:59:40.927211 16474 net.cpp:425] lstm2_gate_input_1 <- W_hc_h_0
2016-07-22 15:59:40.927 STDERR [INFO] I0722 15:59:40.927220 16474 net.cpp:425] lstm2_gate_input_1 <- W_xc_x_1
2016-07-22 15:59:40.927 STDERR [INFO] I0722 15:59:40.927228 16474 net.cpp:399] lstm2_gate_input_1 -> gate_input_1
2016-07-22 15:59:40.927 n.t.s.b.CVParticleBolt [INFO] [Timing] RequestID: 0 StreamID: home/peifeng/work/data/frame.320x240.jpg SequenceNr: 61 Entering frame_grouper_batcher: 1469217580927
2016-07-22 15:59:40.928 STDERR [INFO] I0722 15:59:40.927306 16474 net.cpp:141] Setting up lstm2_gate_input_1
2016-07-22 15:59:40.928 STDERR [INFO] I0722 15:59:40.927316 16474 net.cpp:148] Top shape: 1 1 4000 (4000)
2016-07-22 15:59:40.928 STDERR [INFO] I0722 15:59:40.927320 16474 net.cpp:156] Memory required for data: 82020
2016-07-22 15:59:40.928 STDERR [INFO] I0722 15:59:40.927325 16474 layer_factory.hpp:77] Creating layer lstm2_unit_1
2016-07-22 15:59:40.928 STDERR [INFO] I0722 15:59:40.927337 16474 net.cpp:91] Creating Layer lstm2_unit_1
2016-07-22 15:59:40.928 STDERR [INFO] I0722 15:59:40.927342 16474 net.cpp:425] lstm2_unit_1 <- c_0
2016-07-22 15:59:40.928 STDERR [INFO] I0722 15:59:40.927348 16474 net.cpp:425] lstm2_unit_1 <- gate_input_1
2016-07-22 15:59:40.928 STDERR [INFO] I0722 15:59:40.927353 16474 net.cpp:425] lstm2_unit_1 <- cont_1_lstm2_cont_slice_0_split_1
2016-07-22 15:59:40.928 STDERR [INFO] I0722 15:59:40.927359 16474 net.cpp:399] lstm2_unit_1 -> c_1
2016-07-22 15:59:40.928 STDERR [INFO] I0722 15:59:40.927371 16474 net.cpp:399] lstm2_unit_1 -> h_1
2016-07-22 15:59:40.928 STDERR [INFO] I0722 15:59:40.927490 16474 net.cpp:141] Setting up lstm2_unit_1
2016-07-22 15:59:40.928 STDERR [INFO] I0722 15:59:40.927500 16474 net.cpp:148] Top shape: 1 1 1000 (1000)
2016-07-22 15:59:40.928 STDERR [INFO] I0722 15:59:40.927506 16474 net.cpp:148] Top shape: 1 1 1000 (1000)
2016-07-22 15:59:40.928 STDERR [INFO] I0722 15:59:40.927511 16474 net.cpp:156] Memory required for data: 90020
2016-07-22 15:59:40.928 STDERR [INFO] I0722 15:59:40.927515 16474 layer_factory.hpp:77] Creating layer lstm2_
2016-07-22 15:59:40.928 STDERR [INFO] I0722 15:59:40.927523 16474 net.cpp:91] Creating Layer lstm2_
2016-07-22 15:59:40.928 STDERR [INFO] I0722 15:59:40.927528 16474 net.cpp:425] lstm2_ <- c_1
2016-07-22 15:59:40.928 STDERR [INFO] I0722 15:59:40.927537 16474 net.cpp:399] lstm2_ -> c_T
2016-07-22 15:59:40.929 STDERR [INFO] I0722 15:59:40.927589 16474 net.cpp:141] Setting up lstm2_
2016-07-22 15:59:40.929 n.t.s.b.CVParticleBolt [INFO] Get 1 batches from batcher
2016-07-22 15:59:40.929 STDERR [INFO] I0722 15:59:40.927598 16474 net.cpp:148] Top shape: 1 1 1000 (1000)
2016-07-22 15:59:40.929 n.t.s.b.CVParticleBolt [INFO] Get a batch of size 10
2016-07-22 15:59:40.929 STDERR [INFO] I0722 15:59:40.927603 16474 net.cpp:156] Memory required for data: 94020
2016-07-22 15:59:40.929 n.t.s.b.CVParticleBolt [INFO] [Timing] RequestID: 0 StreamID: home/peifeng/work/data/frame.320x240.jpg SequenceNr: 41 Leaving frame_grouper_batcher: 1469217580929
2016-07-22 15:59:40.929 STDERR [INFO] I0722 15:59:40.927608 16474 layer_factory.hpp:77] Creating layer lstm2_h_concat
…
2016-07-22 15:59:41.585 n.t.s.f.RefreshingImageFetcher$ImageReader [INFO] [Timing] RequestID: 0 StreamID: home/peifeng/work/data/frame.320x240.jpg SequenceNr: 213 Entering queue: 1469217581585
2016-07-22 15:59:41.585 STDIO [ERROR] featureFromMat: rows 4096
2016-07-22 15:59:41.585 STDIO [ERROR] featureFromMat: elemSize 4
2016-07-22 15:59:41.585 n.t.s.b.CVParticleBolt [INFO] [Timing] RequestID: 0 StreamID: home/peifeng/work/data/frame.320x240.jpg SequenceNr: 62 Leaving vgg_feature: 1469217581585 Size: 65846
2016-07-22 15:59:41.005 STDERR [INFO] I0722 15:59:41.005448 16470 net.cpp:141] Setting up lstm2_transform_1
2016-07-22 15:59:41.585 STDERR [INFO] I0722 15:59:41.005501 16470 net.cpp:148] Top shape: 1 1 4000 (4000)
2016-07-22 15:59:41.585 STDERR [INFO] I0722 15:59:41.005508 16470 net.cpp:156] Memory required for data: 66020
2016-07-22 15:59:41.585 n.t.s.b.CVParticleBolt [INFO] [Timing] RequestID: 0 StreamID: home/peifeng/work/data/frame.320x240.jpg SequenceNr: 62 Entering frame_grouper_batcher: 1469217581585
2016-07-22 15:59:41.585 STDERR [INFO] I0722 15:59:41.005532 16470 layer_factory.hpp:77] Creating layer lstm2_gate_input_1
2016-07-22 15:59:41.585 n.t.s.b.CVParticleBolt [INFO] [Timing] RequestID: 0 StreamID: home/peifeng/work/data/frame.320x240.jpg SequenceNr: 65 Entering vgg_feature: 1469217581585
2016-07-22 15:59:41.585 STDERR [INFO] I0722 15:59:41.005554 16470 net.cpp:91] Creating Layer lstm2_gate_input_1
2016-07-22 15:59:41.585 n.t.s.b.CVParticleBolt [INFO] Get 0 batches from batcher
2016-07-22 15:59:41.585 STDERR [INFO] I0722 15:59:41.005561 16470 net.cpp:425] lstm2_gate_input_1 <- W_hc_h_0
2016-07-22 15:59:41.585 STDERR [INFO] I0722 15:59:41.005570 16470 net.cpp:425] lstm2_gate_input_1 <- W_xc_x_1
2016-07-22 15:59:41.586 STDERR [INFO] I0722 15:59:41.005578 16470 net.cpp:399] lstm2_gate_input_1 -> gate_input_1
2016-07-22 15:59:41.586 STDERR [INFO] I0722 15:59:41.011239 16470 net.cpp:141] Setting up lstm2_gate_input_1
2016-07-22 15:59:41.586 STDERR [INFO] I0722 15:59:41.011293 16470 net.cpp:148] Top shape: 1 1 4000 (4000)
2016-07-22 15:59:41.586 STDERR [INFO] I0722 15:59:41.011301 16470 net.cpp:156] Memory required for data: 82020
2016-07-22 15:59:41.587 STDERR [INFO] I0722 15:59:41.011310 16470 layer_factory.hpp:77] Creating layer lstm2_unit_1
2016-07-22 15:59:41.587 STDERR [INFO] I0722 15:59:41.011332 16470 net.cpp:91] Creating Layer lstm2_unit_1
2016-07-22 15:59:41.587 STDERR [INFO] I0722 15:59:41.011339 16470 net.cpp:425] lstm2_unit_1 <- c_0
2016-07-22 15:59:41.587 STDERR [INFO] I0722 15:59:41.011351 16470 net.cpp:425] lstm2_unit_1 <- gate_input_1
2016-07-22 15:59:41.587 STDERR [INFO] I0722 15:59:41.011356 16470 net.cpp:425] lstm2_unit_1 <- cont_1_lstm2_cont_slice_0_split_1
2016-07-22 15:59:41.587 STDERR [INFO] I0722 15:59:41.011365 16470 net.cpp:399] lstm2_unit_1 -> c_1
2016-07-22 15:59:41.587 STDERR [INFO] I0722 15:59:41.011379 16470 net.cpp:399] lstm2_unit_1 -> h_1
2016-07-22 15:59:41.587 STDERR [INFO] I0722 15:59:41.011590 16470 net.cpp:141] Setting up lstm2_unit_1
2016-07-22 15:59:41.587 STDERR [INFO] I0722 15:59:41.011601 16470 net.cpp:148] Top shape: 1 1 1000 (1000)
2016-07-22 15:59:41.587 STDERR [INFO] I0722 15:59:41.011607 16470 net.cpp:148] Top shape: 1 1 1000 (1000)
2016-07-22 15:59:41.587 STDERR [INFO] I0722 15:59:41.011612 16470 net.cpp:156] Memory required for data: 90020
2016-07-22 15:59:41.587 STDERR [INFO] I0722 15:59:41.011617 16470 layer_factory.hpp:77] Creating layer lstm2_
2016-07-22 15:59:41.588 STDERR [INFO] I0722 15:59:41.011626 16470 net.cpp:91] Creating Layer lstm2_
2016-07-22 15:59:41.588 STDERR [INFO] I0722 15:59:41.011631 16470 net.cpp:425] lstm2_ <- c_1
2016-07-22 15:59:41.588 STDERR [INFO] I0722 15:59:41.011638 16470 net.cpp:399] lstm2_ -> c_T
2016-07-22 15:59:41.588 STDERR [INFO] I0722 15:59:41.011690 16470 net.cpp:141] Setting up lstm2_
2016-07-22 15:59:41.588 STDERR [INFO] I0722 15:59:41.011700 16470 net.cpp:148] Top shape: 1 1 1000 (1000)
2016-07-22 15:59:41.588 STDERR [INFO] I0722 15:59:41.011704 16470 net.cpp:156] Memory required for data: 94020
2016-07-22 15:59:41.588 STDERR [INFO] I0722 15:59:41.011709 16470 layer_factory.hpp:77] Creating layer lstm2_h_concat
2016-07-22 15:59:41.588 STDERR [INFO] I0722 15:59:41.011721 16470 net.cpp:91] Creating Layer lstm2_h_concat
2016-07-22 15:59:41.588 STDERR [INFO] I0722 15:59:41.011725 16470 net.cpp:425] lstm2_h_concat <- h_1
2016-07-22 15:59:41.588 STDERR [INFO] I0722 15:59:41.011734 16470 net.cpp:399] lstm2_h_concat -> h
2016-07-22 15:59:41.588 STDERR [INFO] I0722 15:59:41.011788 16470 net.cpp:141] Setting up lstm2_h_concat
2016-07-22 15:59:41.588 STDERR [INFO] I0722 15:59:41.011797 16470 net.cpp:148] Top shape: 1 1 1000 (1000)
2016-07-22 15:59:41.588 STDERR [INFO] I0722 15:59:41.011801 16470 net.cpp:156] Memory required for data: 98020
2016-07-22 15:59:41.589 STDERR [INFO] I0722 15:59:41.011806 16470 layer_factory.hpp:77] Creating layer h_pseudoloss
2016-07-22 15:59:41.589 STDERR [INFO] I0722 15:59:41.011816 16470 net.cpp:91] Creating Layer h_pseudoloss
2016-07-22 15:59:41.589 STDERR [INFO] I0722 15:59:41.011821 16470 net.cpp:425] h_pseudoloss <- h
…
