…
I0925 22:08:04.697108 19142 upgrade_proto.cpp:66] Attempting to upgrade input file specified using deprecated input fields: /home/peifeng/work/run/storm102/data/workers/ce4e1e1a-05b6-47f2-8a16-b9416ef16e94/tmp/cvld4943191558824218291/s2vt.words_to_preds.prototxt
I0925 22:08:04.699710 19166 upgrade_proto.cpp:69] Successfully upgraded file specified using deprecated input fields.
I0925 22:08:04.698148 19158 net.cpp:49] Initializing net from parameters: 
name: "CaffeNet"
state {
  phase: TEST
}
layer {
  name: "data"
  type: "Input"
  top: "data"
  input_param {
    shape {
      dim: 10
      dim: 3
      dim: 227
      dim: 227
    }
  }
}
layer {
  name: "conv1"
  type: "Convolution"
  bottom: "data"
  top: "conv1"
  convolution_param {
    num_output: 96
    kernel_size: 11
    stride: 4
  }
}
layer {
  name: "relu1"
  type: "ReLU"
  bottom: "conv1"
  top: "conv1"
}
layer {
  name: "pool1"
  type: "Pooling"
  bottom: "conv1"
  top: "pool1"
  pooling_param {
    pool: MAX
    kernel_size: 3
    stride: 2
  }
}
layer {
  name: "norm1"
  type: "LRN"
  bottom: "pool1"
  top: "norm1"
  lrn_param {
    local_size: 5
    alpha: 0.0001
    beta: 0.75
  }
}
layer {
  name: "conv2"
  type: "Convolution"
  bottom: "norm1"
  top: "conv2"
  convolution_param {
    num_output: 256
    pad: 2
    kernel_size: 5
    group: 2
  }
}
layer {
  name: "relu2"
  type: "ReLU"
  bottom: "conv2"
  top: "conv2"
}
layer {
  name: "pool2"
  type: "Pooling"
  bottom: "conv2"
  top: "pool2"
  pooling_param {
    pool: MAX
    kernel_size: 3
    stride: 2
  }
}
layer {
  name: "norm2"
  type: "LRN"
  bottom: "pool2"
  top: "norm2"
  lrn_param {
    local_size: 5
    alpha: 0.0001
    beta: 0.75
  }
}
layer {
  name: "conv3"
  type: "Convolution"
  bottom: "norm2"
  top: "conv3"
  convolution_param {
    num_output: 384
    pad: 1
    kernel_size: 3
  }
}
layer {
  name: "relu3"
  type: "ReLU"
  bottom: "conv3"
  top: "conv3"
}
layer {
  name: "conv4"
  type: "Convolution"
  bottom: "conv3"
  top: "conv4"
  convolution_param {
    num_output: 384
    pad: 1
    kernel_size: 3
    group: 2
  }
}
layer {
  name: "relu4"
  type: "ReLU"
  bottom: "conv4"
  top: "conv4"
}
layer {
  name: "conv5"
  type: "Convolution"
  bottom: "conv4"
  top: "conv5"
  convolution_param {
    num_output: 256
    pad: 1
    kernel_size: 3
    group: 2
  }
}
layer {
  name: "relu5"
  type: "ReLU"
  bottom: "conv5"
  top: "conv5"
}
layer {
  name: "pool5"
  type: "Pooling"
  bottom: "conv5"
  top: "pool5"
  pooling_param {
    pool: MAX
    kernel_size: 3
    stride: 2
  }
}
layer {
  name: "fc6"
  type: "InnerProduct"
  bottom: "pool5"
  top: "fc6"
  inner_product_param {
    num_output: 4096
  }
}
layer {
  name: "relu6"
  type: "ReLU"
  bottom: "fc6"
  top: "fc6"
}
layer {
  name: "drop6"
  type: "Dropout"
  bottom: "fc6"
  top: "fc6"
  dropout_param {
    dropout_ratio: 0.5
  }
}
layer {
  name: "fc7"
  type: "InnerProduct"
  bottom: "fc6"
  top: "fc7"
  inner_product_param {
    num_output: 4096
  }
}
layer {
  name: "relu7"
  type: "ReLU"
  bottom: "fc7"
  top: "fc7"
}
layer {
  name: "drop7"
  type: "Dropout"
  bottom: "fc7"
  top: "fc7"
  dropout_param {
    dropout_ratio: 0.5
  }
}
layer {
  name: "fc8"
  type: "InnerProduct"
  bottom: "fc7"
  top: "fc8"
  inner_product_param {
    num_output: 1000
  }
}
layer {
  name: "prob"
  type: "Softmax"
  bottom: "fc8"
  top: "prob"
}
W0925 22:08:04.699071 19160 upgrade_proto.cpp:71] Note that future Caffe releases will only support input layers and not input fields.
W0925 22:08:04.699734 19166 upgrade_proto.cpp:71] Note that future Caffe releases will only support input layers and not input fields.
I0925 22:08:04.699733 19142 upgrade_proto.cpp:69] Successfully upgraded file specified using deprecated input fields.
W0925 22:08:04.699815 19142 upgrade_proto.cpp:71] Note that future Caffe releases will only support input layers and not input fields.
I0925 22:08:04.699965 19158 layer_factory.hpp:77] Creating layer data
I0925 22:08:04.700017 19158 net.cpp:91] Creating Layer data
I0925 22:08:04.700036 19158 net.cpp:399] data -> data
I0925 22:08:04.700253 19160 net.cpp:49] Initializing net from parameters: 
name: "s2vt:features_to_lstm"
state {
  phase: TEST
}
layer {
  name: "input"
  type: "Input"
  top: "frames_fc7"
  top: "cont_sentence"
  top: "input_sentence"
  top: "stage_indicator"
  input_param {
    shape {
      dim: 1
      dim: 4096
    }
    shape {
      dim: 1
      dim: 1
    }
    shape {
      dim: 1
      dim: 1
    }
    shape {
      dim: 1
      dim: 1
    }
  }
}
layer {
  name: "embed_encoder"
  type: "InnerProduct"
  bottom: "frames_fc7"
  top: "embedded_in_frames"
  param {
    lr_mult: 1
    decay_mult: 1
  }
  param {
    lr_mult: 2
    decay_mult: 0
  }
  inner_product_param {
    num_output: 500
    weight_filler {
      type: "xavier"
    }
    bias_filler {
      type: "constant"
      value: 0.2
    }
  }
}
layer {
  name: "reshape_frames"
  type: "Reshape"
  bottom: "embedded_in_frames"
  top: "embedded_input_frames"
  reshape_param {
    shape {
      dim: 1
      dim: 1
      dim: 500
    }
  }
}
layer {
  name: "reshape_stage_indicator"
  type: "Reshape"
  bottom: "stage_indicator"
  top: "reshaped_stage_indicator"
  reshape_param {
    shape {
      dim: 1
      dim: 1
      dim: 1
    }
  }
}
layer {
  name: "embedding"
  type: "Embed"
  bottom: "input_sentence"
  top: "embedded_input_sentence"
  param {
    lr_mult: 1
  }
  embed_param {
    num_output: 500
    input_dim: 46168
    bias_term: false
    weight_filler {
      type: "uniform"
      min: -0.08
      max: 0.08
    }
  }
}
layer {
  name: "lstm1"
  type: "LSTM"
  bottom: "embedded_input_frames"
  bottom: "cont_sentence"
  top: "lstm1"
  recurrent_param {
    num_output: 1000
    weight_filler {
      type: "uniform"
      min: -0.08
      max: 0.08
    }
    bias_filler {
      type: "constant"
      value: 0
    }
  }
}
layer {
  name: "concat"
  type: "Concat"
  bottom: "lstm1"
  bottom: "embedded_input_sentence"
  bottom: "reshaped_stage_indicator"
  top: "lstm1_video_sequence"
  concat_param {
    concat_dim: 2
  }
}
layer {
  name: "lstm2"
  type: "LSTM"
  bottom: "lstm1_video_sequence"
  bottom: "cont_sentence"
  top: "lstm2"
  recurrent_param {
    num_output: 1000
    weight_filler {
      type: "uniform"
      min: -0.08
      max: 0.08
    }
    bias_filler {
      type: "constant"
      value: 0
    }
  }
}
layer {
  name: "predict"
  type: "InnerProduct"
  bottom: "lstm2"
  top: "predict"
  param {
    lr_mult: 1
    decay_mult: 1
  }
  param {
    lr_mult: 2
    decay_mult: 0
  }
  inner_product_param {
    num_output: 46168
    weight_filler {
      type: "uniform"
      min: -0.08
      max: 0.08
    }
    bias_filler {
      type: "constant"
      value: 0
    }
    axis: 2
  }
}
layer {
  name: "probs"
  type: "Softmax"
  bottom: "predict"
  top: "probs"
  softmax_param {
    axis: 2
  }
}
I0925 22:08:04.700276 19142 net.cpp:49] Initializing net from parameters: 
name: "s2vt:features_to_lstm"
state {
  phase: TEST
}
layer {
  name: "input"
  type: "Input"
  top: "frames_fc7"
  top: "cont_sentence"
  top: "input_sentence"
  top: "stage_indicator"
  input_param {
    shape {
      dim: 1
      dim: 4096
    }
    shape {
      dim: 1
      dim: 1
    }
    shape {
      dim: 1
      dim: 1
    }
    shape {
      dim: 1
      dim: 1
    }
  }
}
layer {
  name: "embed_encoder"
  type: "InnerProduct"
  bottom: "frames_fc7"
  top: "embedded_in_frames"
  param {
    lr_mult: 1
    decay_mult: 1
  }
  param {
    lr_mult: 2
    decay_mult: 0
  }
  inner_product_param {
    num_output: 500
    weight_filler {
      type: "xavier"
    }
    bias_filler {
      type: "constant"
      value: 0.2
    }
  }
}
layer {
  name: "reshape_frames"
  type: "Reshape"
  bottom: "embedded_in_frames"
  top: "embedded_input_frames"
  reshape_param {
    shape {
      dim: 1
      dim: 1
      dim: 500
    }
  }
}
layer {
  name: "reshape_stage_indicator"
  type: "Reshape"
  bottom: "stage_indicator"
  top: "reshaped_stage_indicator"
  reshape_param {
    shape {
      dim: 1
      dim: 1
      dim: 1
    }
  }
}
layer {
  name: "embedding"
  type: "Embed"
  bottom: "input_sentence"
  top: "embedded_input_sentence"
  param {
    lr_mult: 1
  }
  embed_param {
    num_output: 500
    input_dim: 46168
    bias_term: false
    weight_filler {
      type: "uniform"
      min: -0.08
      max: 0.08
    }
  }
}
layer {
  name: "lstm1"
  type: "LSTM"
  bottom: "embedded_input_frames"
  bottom: "cont_sentence"
  top: "lstm1"
  recurrent_param {
    num_output: 1000
    weight_filler {
      type: "uniform"
      min: -0.08
      max: 0.08
    }
    bias_filler {
      type: "constant"
      value: 0
    }
  }
}
layer {
  name: "concat"
  type: "Concat"
  bottom: "lstm1"
  bottom: "embedded_input_sentence"
  bottom: "reshaped_stage_indicator"
  top: "lstm1_video_sequence"
  concat_param {
    concat_dim: 2
  }
}
layer {
  name: "lstm2"
  type: "LSTM"
  bottom: "lstm1_video_sequence"
  bottom: "cont_sentence"
  top: "lstm2"
  recurrent_param {
    num_output: 1000
    weight_filler {
      type: "uniform"
      min: -0.08
      max: 0.08
    }
    bias_filler {
      type: "constant"
      value: 0
    }
  }
}
layer {
  name: "predict"
  type: "InnerProduct"
  bottom: "lstm2"
  top: "predict"
  param {
    lr_mult: 1
    decay_mult: 1
  }
  param {
    lr_mult: 2
    decay_mult: 0
  }
  inner_product_param {
    num_output: 46168
    weight_filler {
      type: "uniform"
      min: -0.08
      max: 0.08
    }
    bias_filler {
      type: "constant"
      value: 0
    }
    axis: 2
  }
}
layer {
  name: "probs"
  type: "Softmax"
  bottom: "predict"
  top: "probs"
  softmax_param {
    axis: 2
  }
}
I0925 22:08:04.700296 19166 net.cpp:49] Initializing net from parameters: 
name: "s2vt:features_to_lstm"
state {
  phase: TEST
}
layer {
  name: "input"
  type: "Input"
  top: "frames_fc7"
  top: "cont_sentence"
  top: "input_sentence"
  top: "stage_indicator"
  input_param {
    shape {
      dim: 1
      dim: 4096
    }
    shape {
      dim: 1
      dim: 1
    }
    shape {
      dim: 1
      dim: 1
    }
    shape {
      dim: 1
      dim: 1
    }
  }
}
layer {
  name: "embed_encoder"
  type: "InnerProduct"
  bottom: "frames_fc7"
  top: "embedded_in_frames"
  param {
    lr_mult: 1
    decay_mult: 1
  }
  param {
    lr_mult: 2
    decay_mult: 0
  }
  inner_product_param {
    num_output: 500
    weight_filler {
      type: "xavier"
    }
    bias_filler {
      type: "constant"
      value: 0.2
    }
  }
}
layer {
  name: "reshape_frames"
  type: "Reshape"
  bottom: "embedded_in_frames"
  top: "embedded_input_frames"
  reshape_param {
    shape {
      dim: 1
      dim: 1
      dim: 500
    }
  }
}
layer {
  name: "reshape_stage_indicator"
  type: "Reshape"
  bottom: "stage_indicator"
  top: "reshaped_stage_indicator"
  reshape_param {
    shape {
      dim: 1
      dim: 1
      dim: 1
    }
  }
}
layer {
  name: "embedding"
  type: "Embed"
  bottom: "input_sentence"
  top: "embedded_input_sentence"
  param {
    lr_mult: 1
  }
  embed_param {
    num_output: 500
    input_dim: 46168
    bias_term: false
    weight_filler {
      type: "uniform"
      min: -0.08
      max: 0.08
    }
  }
}
layer {
  name: "lstm1"
  type: "LSTM"
  bottom: "embedded_input_frames"
  bottom: "cont_sentence"
  top: "lstm1"
  recurrent_param {
    num_output: 1000
    weight_filler {
      type: "uniform"
      min: -0.08
      max: 0.08
    }
    bias_filler {
      type: "constant"
      value: 0
    }
  }
}
layer {
  name: "concat"
  type: "Concat"
  bottom: "lstm1"
  bottom: "embedded_input_sentence"
  bottom: "reshaped_stage_indicator"
  top: "lstm1_video_sequence"
  concat_param {
    concat_dim: 2
  }
}
layer {
  name: "lstm2"
  type: "LSTM"
  bottom: "lstm1_video_sequence"
  bottom: "cont_sentence"
  top: "lstm2"
  recurrent_param {
    num_output: 1000
    weight_filler {
      type: "uniform"
      min: -0.08
      max: 0.08
    }
    bias_filler {
      type: "constant"
      value: 0
    }
  }
}
layer {
  name: "predict"
  type: "InnerProduct"
  bottom: "lstm2"
  top: "predict"
  param {
    lr_mult: 1
    decay_mult: 1
  }
  param {
    lr_mult: 2
    decay_mult: 0
  }
  inner_product_param {
    num_output: 46168
    weight_filler {
      type: "uniform"
      min: -0.08
      max: 0.08
    }
    bias_filler {
      type: "constant"
      value: 0
    }
    axis: 2
  }
}
layer {
  name: "probs"
  type: "Softmax"
  bottom: "predict"
  top: "probs"
  softmax_param {
    axis: 2
  }
}
I0925 22:08:04.700464 19166 layer_factory.hpp:77] Creating layer input
I0925 22:08:04.700471 19142 layer_factory.hpp:77] Creating layer input
I0925 22:08:04.700492 19166 net.cpp:91] Creating Layer input
I0925 22:08:04.700492 19160 layer_factory.hpp:77] Creating layer input
I0925 22:08:04.700508 19166 net.cpp:399] input -> frames_fc7
I0925 22:08:04.700517 19160 net.cpp:91] Creating Layer input
…
W0925 22:08:04.702067 19136 upgrade_proto.cpp:71] Note that future Caffe releases will only support input layers and not input fields.
I0925 22:08:04.702519 19136 net.cpp:49] Initializing net from parameters: 
name: "s2vt:features_to_lstm"
state {
  phase: TEST
}
layer {
  name: "input"
  type: "Input"
  top: "frames_fc7"
  top: "cont_sentence"
  top: "input_sentence"
  top: "stage_indicator"
  input_param {
    shape {
      dim: 1
      dim: 4096
    }
    shape {
      dim: 1
      dim: 1
    }
    shape {
      dim: 1
      dim: 1
    }
    shape {
      dim: 1
      dim: 1
    }
  }
}
layer {
  name: "embed_encoder"
  type: "InnerProduct"
  bottom: "frames_fc7"
  top: "embedded_in_frames"
  param {
    lr_mult: 1
    decay_mult: 1
  }
  param {
    lr_mult: 2
    decay_mult: 0
  }
  inner_product_param {
    num_output: 500
    weight_filler {
      type: "xavier"
    }
    bias_filler {
      type: "constant"
      value: 0.2
    }
  }
}
layer {
  name: "reshape_frames"
  type: "Reshape"
  bottom: "embedded_in_frames"
  top: "embedded_input_frames"
  reshape_param {
    shape {
      dim: 1
      dim: 1
      dim: 500
    }
  }
}
layer {
  name: "reshape_stage_indicator"
  type: "Reshape"
  bottom: "stage_indicator"
  top: "reshaped_stage_indicator"
  reshape_param {
    shape {
      dim: 1
      dim: 1
      dim: 1
    }
  }
}
layer {
  name: "embedding"
  type: "Embed"
  bottom: "input_sentence"
  top: "embedded_input_sentence"
  param {
    lr_mult: 1
  }
  embed_param {
    num_output: 500
    input_dim: 46168
    bias_term: false
    weight_filler {
      type: "uniform"
      min: -0.08
      max: 0.08
    }
  }
}
layer {
  name: "lstm1"
  type: "LSTM"
  bottom: "embedded_input_frames"
  bottom: "cont_sentence"
  top: "lstm1"
  recurrent_param {
    num_output: 1000
    weight_filler {
      type: "uniform"
      min: -0.08
      max: 0.08
    }
    bias_filler {
      type: "constant"
      value: 0
    }
  }
}
layer {
  name: "concat"
  type: "Concat"
  bottom: "lstm1"
  bottom: "embedded_input_sentence"
  bottom: "reshaped_stage_indicator"
  top: "lstm1_video_sequence"
  concat_param {
    concat_dim: 2
  }
}
layer {
  name: "lstm2"
  type: "LSTM"
  bottom: "lstm1_video_sequence"
  bottom: "cont_sentence"
  top: "lstm2"
  recurrent_param {
    num_output: 1000
    weight_filler {
      type: "uniform"
      min: -0.08
      max: 0.08
    }
    bias_filler {
      type: "constant"
      value: 0
    }
  }
}
layer {
  name: "predict"
  type: "InnerProduct"
  bottom: "lstm2"
  top: "predict"
  param {
    lr_mult: 1
    decay_mult: 1
  }
  param {
    lr_mult: 2
    decay_mult: 0
  }
  inner_product_param {
    num_output: 46168
    weight_filler {
      type: "uniform"
      min: -0.08
      max: 0.08
    }
    bias_filler {
      type: "constant"
      value: 0
    }
    axis: 2
  }
}
layer {
  name: "probs"
  type: "Softmax"
  bottom: "predict"
  top: "probs"
  softmax_param {
    axis: 2
  }
}
I0925 22:08:04.702699 19136 layer_factory.hpp:77] Creating layer input
I0925 22:08:04.702720 19136 net.cpp:91] Creating Layer input
I0925 22:08:04.702745 19136 net.cpp:399] input -> frames_fc7
I0925 22:08:04.702766 19136 net.cpp:399] input -> cont_sentence
I0925 22:08:04.702783 19136 net.cpp:399] input -> input_sentence
I0925 22:08:04.702800 19136 net.cpp:399] input -> stage_indicator
I0925 22:08:04.697108 19132 upgrade_proto.cpp:66] Attempting to upgrade input file specified using deprecated input fields: /home/peifeng/work/run/storm102/data/workers/ce4e1e1a-05b6-47f2-8a16-b9416ef16e94/tmp/cvld4943191558824218291/s2vt.words_to_preds.prototxt
I0925 22:08:04.705948 19132 upgrade_proto.cpp:69] Successfully upgraded file specified using deprecated input fields.
W0925 22:08:04.705965 19132 upgrade_proto.cpp:71] Note that future Caffe releases will only support input layers and not input fields.
I0925 22:08:04.706334 19132 net.cpp:49] Initializing net from parameters: 
name: "s2vt:features_to_lstm"
state {
  phase: TEST
}
layer {
  name: "input"
  type: "Input"
  top: "frames_fc7"
  top: "cont_sentence"
  top: "input_sentence"
  top: "stage_indicator"
  input_param {
    shape {
      dim: 1
      dim: 4096
    }
    shape {
      dim: 1
      dim: 1
    }
    shape {
      dim: 1
      dim: 1
    }
    shape {
      dim: 1
      dim: 1
    }
  }
}
layer {
  name: "embed_encoder"
  type: "InnerProduct"
  bottom: "frames_fc7"
  top: "embedded_in_frames"
  param {
    lr_mult: 1
    decay_mult: 1
  }
  param {
    lr_mult: 2
    decay_mult: 0
  }
  inner_product_param {
    num_output: 500
    weight_filler {
      type: "xavier"
    }
    bias_filler {
      type: "constant"
      value: 0.2
    }
  }
}
layer {
  name: "reshape_frames"
  type: "Reshape"
  bottom: "embedded_in_frames"
  top: "embedded_input_frames"
  reshape_param {
    shape {
      dim: 1
      dim: 1
      dim: 500
    }
  }
}
layer {
  name: "reshape_stage_indicator"
  type: "Reshape"
  bottom: "stage_indicator"
  top: "reshaped_stage_indicator"
  reshape_param {
    shape {
      dim: 1
      dim: 1
      dim: 1
    }
  }
}
layer {
  name: "embedding"
  type: "Embed"
  bottom: "input_sentence"
  top: "embedded_input_sentence"
  param {
    lr_mult: 1
  }
  embed_param {
    num_output: 500
    input_dim: 46168
    bias_term: false
    weight_filler {
      type: "uniform"
      min: -0.08
      max: 0.08
    }
  }
}
layer {
  name: "lstm1"
  type: "LSTM"
  bottom: "embedded_input_frames"
  bottom: "cont_sentence"
  top: "lstm1"
  recurrent_param {
    num_output: 1000
    weight_filler {
      type: "uniform"
      min: -0.08
      max: 0.08
    }
    bias_filler {
      type: "constant"
      value: 0
    }
  }
}
layer {
  name: "concat"
  type: "Concat"
  bottom: "lstm1"
  bottom: "embedded_input_sentence"
  bottom: "reshaped_stage_indicator"
  top: "lstm1_video_sequence"
  concat_param {
    concat_dim: 2
  }
}
layer {
  name: "lstm2"
  type: "LSTM"
  bottom: "lstm1_video_sequence"
  bottom: "cont_sentence"
  top: "lstm2"
  recurrent_param {
    num_output: 1000
    weight_filler {
      type: "uniform"
      min: -0.08
      max: 0.08
    }
    bias_filler {
      type: "constant"
      value: 0
    }
  }
}
layer {
  name: "predict"
  type: "InnerProduct"
  bottom: "lstm2"
  top: "predict"
  param {
    lr_mult: 1
    decay_mult: 1
  }
  param {
    lr_mult: 2
    decay_mult: 0
  }
  inner_product_param {
    num_output: 46168
    weight_filler {
      type: "uniform"
      min: -0.08
      max: 0.08
    }
    bias_filler {
      type: "constant"
      value: 0
    }
    axis: 2
  }
}
layer {
  name: "probs"
  type: "Softmax"
  bottom: "predict"
  top: "probs"
  softmax_param {
    axis: 2
  }
}
I0925 22:08:04.706466 19132 layer_factory.hpp:77] Creating layer input
I0925 22:08:04.706486 19132 net.cpp:91] Creating Layer input
I0925 22:08:04.706499 19132 net.cpp:399] input -> frames_fc7
I0925 22:08:04.706522 19132 net.cpp:399] input -> cont_sentence
I0925 22:08:04.706539 19132 net.cpp:399] input -> input_sentence
I0925 22:08:04.706555 19132 net.cpp:399] input -> stage_indicator
I0925 22:08:04.697118 19134 upgrade_proto.cpp:66] Attempting to upgrade input file specified using deprecated input fields: /home/peifeng/work/run/storm102/data/workers/ce4e1e1a-05b6-47f2-8a16-b9416ef16e94/tmp/cvld4943191558824218291/s2vt.words_to_preds.prototxt
I0925 22:08:04.706620 19134 upgrade_proto.cpp:69] Successfully upgraded file specified using deprecated input fields.
W0925 22:08:04.706632 19134 upgrade_proto.cpp:71] Note that future Caffe releases will only support input layers and not input fields.
I0925 22:08:04.707129 19134 net.cpp:49] Initializing net from parameters: 
name: "s2vt:features_to_lstm"
state {
  phase: TEST
}
layer {
  name: "input"
  type: "Input"
  top: "frames_fc7"
  top: "cont_sentence"
  top: "input_sentence"
  top: "stage_indicator"
  input_param {
    shape {
      dim: 1
      dim: 4096
    }
    shape {
      dim: 1
      dim: 1
    }
    shape {
      dim: 1
      dim: 1
    }
    shape {
      dim: 1
      dim: 1
    }
  }
}
layer {
  name: "embed_encoder"
  type: "InnerProduct"
  bottom: "frames_fc7"
  top: "embedded_in_frames"
  param {
    lr_mult: 1
    decay_mult: 1
  }
  param {
    lr_mult: 2
    decay_mult: 0
  }
  inner_product_param {
    num_output: 500
    weight_filler {
      type: "xavier"
    }
    bias_filler {
      type: "constant"
      value: 0.2
    }
  }
}
layer {
  name: "reshape_frames"
  type: "Reshape"
  bottom: "embedded_in_frames"
  top: "embedded_input_frames"
  reshape_param {
    shape {
      dim: 1
      dim: 1
      dim: 500
    }
  }
}
layer {
  name: "reshape_stage_indicator"
  type: "Reshape"
  bottom: "stage_indicator"
  top: "reshaped_stage_indicator"
  reshape_param {
    shape {
      dim: 1
      dim: 1
      dim: 1
    }
  }
}
layer {
  name: "embedding"
  type: "Embed"
  bottom: "input_sentence"
  top: "embedded_input_sentence"
  param {
    lr_mult: 1
  }
  embed_param {
    num_output: 500
    input_dim: 46168
    bias_term: false
    weight_filler {
      type: "uniform"
      min: -0.08
      max: 0.08
    }
  }
}
layer {
  name: "lstm1"
  type: "LSTM"
  bottom: "embedded_input_frames"
  bottom: "cont_sentence"
  top: "lstm1"
  recurrent_param {
    num_output: 1000
    weight_filler {
      type: "uniform"
      min: -0.08
      max: 0.08
    }
    bias_filler {
      type: "constant"
      value: 0
    }
  }
}
layer {
  name: "concat"
  type: "Concat"
  bottom: "lstm1"
  bottom: "embedded_input_sentence"
  bottom: "reshaped_stage_indicator"
  top: "lstm1_video_sequence"
  concat_param {
    concat_dim: 2
  }
}
layer {
  name: "lstm2"
  type: "LSTM"
  bottom: "lstm1_video_sequence"
  bottom: "cont_sentence"
  top: "lstm2"
  recurrent_param {
    num_output: 1000
    weight_filler {
      type: "uniform"
      min: -0.08
      max: 0.08
    }
    bias_filler {
      type: "constant"
      value: 0
    }
  }
}
layer {
  name: "predict"
  type: "InnerProduct"
  bottom: "lstm2"
  top: "predict"
  param {
    lr_mult: 1
    decay_mult: 1
  }
  param {
    lr_mult: 2
    decay_mult: 0
  }
  inner_product_param {
    num_output: 46168
    weight_filler {
      type: "uniform"
      min: -0.08
      max: 0.08
    }
    bias_filler {
      type: "constant"
      value: 0
    }
    axis: 2
  }
}
layer {
  name: "probs"
  type: "Softmax"
  bottom: "predict"
  top: "probs"
  softmax_param {
    axis: 2
  }
}
I0925 22:08:04.707350 19134 layer_factory.hpp:77] Creating layer input
I0925 22:08:04.707378 19134 net.cpp:91] Creating Layer input
I0925 22:08:04.707391 19134 net.cpp:399] input -> frames_fc7
I0925 22:08:04.707418 19134 net.cpp:399] input -> cont_sentence
I0925 22:08:04.707437 19134 net.cpp:399] input -> input_sentence
I0925 22:08:04.707455 19134 net.cpp:399] input -> stage_indicator
I0925 22:08:05.484670 19158 net.cpp:141] Setting up data
I0925 22:08:05.484737 19158 net.cpp:148] Top shape: 10 3 227 227 (1545870)
I0925 22:08:05.484745 19158 net.cpp:156] Memory required for data: 6183480
I0925 22:08:05.484746 19166 net.cpp:141] Setting up input
I0925 22:08:05.484766 19158 layer_factory.hpp:77] Creating layer conv1
I0925 22:08:05.484771 19166 net.cpp:148] Top shape: 1 4096 (4096)
I0925 22:08:05.484781 19166 net.cpp:148] Top shape: 1 1 (1)
I0925 22:08:05.484787 19166 net.cpp:148] Top shape: 1 1 (1)
I0925 22:08:05.484793 19166 net.cpp:148] Top shape: 1 1 (1)
I0925 22:08:05.484797 19166 net.cpp:156] Memory required for data: 16396
I0925 22:08:05.484800 19158 net.cpp:91] Creating Layer conv1
I0925 22:08:05.484804 19166 layer_factory.hpp:77] Creating layer cont_sentence_input_1_split
I0925 22:08:05.484810 19158 net.cpp:425] conv1 <- data
I0925 22:08:05.484823 19158 net.cpp:399] conv1 -> conv1
I0925 22:08:05.484832 19166 net.cpp:91] Creating Layer cont_sentence_input_1_split
I0925 22:08:05.484839 19166 net.cpp:425] cont_sentence_input_1_split <- cont_sentence
I0925 22:08:05.484860 19166 net.cpp:399] cont_sentence_input_1_split -> cont_sentence_input_1_split_0
I0925 22:08:05.484872 19166 net.cpp:399] cont_sentence_input_1_split -> cont_sentence_input_1_split_1
I0925 22:08:05.484951 19166 net.cpp:141] Setting up cont_sentence_input_1_split
I0925 22:08:05.484967 19166 net.cpp:148] Top shape: 1 1 (1)
I0925 22:08:05.484973 19166 net.cpp:148] Top shape: 1 1 (1)
I0925 22:08:05.484977 19166 net.cpp:156] Memory required for data: 16404
I0925 22:08:05.484982 19166 layer_factory.hpp:77] Creating layer embed_encoder
I0925 22:08:05.485005 19166 net.cpp:91] Creating Layer embed_encoder
I0925 22:08:05.485014 19166 net.cpp:425] embed_encoder <- frames_fc7
I0925 22:08:05.485033 19166 net.cpp:399] embed_encoder -> embedded_in_frames
I0925 22:08:05.485227 19136 net.cpp:141] Setting up input
I0925 22:08:05.485266 19136 net.cpp:148] Top shape: 1 4096 (4096)
I0925 22:08:05.485266 19134 net.cpp:141] Setting up input
I0925 22:08:05.485275 19136 net.cpp:148] Top shape: 1 1 (1)
I0925 22:08:05.485283 19136 net.cpp:148] Top shape: 1 1 (1)
I0925 22:08:05.485285 19134 net.cpp:148] Top shape: 1 4096 (4096)
I0925 22:08:05.485290 19136 net.cpp:148] Top shape: 1 1 (1)
I0925 22:08:05.485296 19136 net.cpp:156] Memory required for data: 16396
I0925 22:08:05.485297 19134 net.cpp:148] Top shape: 1 1 (1)
I0925 22:08:05.485324 19136 layer_factory.hpp:77] Creating layer cont_sentence_input_1_split
I0925 22:08:05.485328 19134 net.cpp:148] Top shape: 1 1 (1)
I0925 22:08:05.485335 19134 net.cpp:148] Top shape: 1 1 (1)
I0925 22:08:05.485342 19134 net.cpp:156] Memory required for data: 16396
I0925 22:08:05.485350 19134 layer_factory.hpp:77] Creating layer cont_sentence_input_1_split
I0925 22:08:05.485364 19136 net.cpp:91] Creating Layer cont_sentence_input_1_split
I0925 22:08:05.485368 19134 net.cpp:91] Creating Layer cont_sentence_input_1_split
I0925 22:08:05.485379 19136 net.cpp:425] cont_sentence_input_1_split <- cont_sentence
I0925 22:08:05.485384 19134 net.cpp:425] cont_sentence_input_1_split <- cont_sentence
I0925 22:08:05.485394 19134 net.cpp:399] cont_sentence_input_1_split -> cont_sentence_input_1_split_0
I0925 22:08:05.485394 19136 net.cpp:399] cont_sentence_input_1_split -> cont_sentence_input_1_split_0
I0925 22:08:05.485419 19134 net.cpp:399] cont_sentence_input_1_split -> cont_sentence_input_1_split_1
I0925 22:08:05.485432 19136 net.cpp:399] cont_sentence_input_1_split -> cont_sentence_input_1_split_1
I0925 22:08:05.490003 19142 net.cpp:141] Setting up input
I0925 22:08:05.490042 19142 net.cpp:148] Top shape: 1 4096 (4096)
I0925 22:08:05.490056 19142 net.cpp:148] Top shape: 1 1 (1)
I0925 22:08:05.490067 19142 net.cpp:148] Top shape: 1 1 (1)
I0925 22:08:05.490077 19142 net.cpp:148] Top shape: 1 1 (1)
I0925 22:08:05.490083 19142 net.cpp:156] Memory required for data: 16396
I0925 22:08:05.490085 19160 net.cpp:141] Setting up input
I0925 22:08:05.490095 19142 layer_factory.hpp:77] Creating layer cont_sentence_input_1_split
I0925 22:08:05.490104 19160 net.cpp:148] Top shape: 1 4096 (4096)
I0925 22:08:05.490111 19160 net.cpp:148] Top shape: 1 1 (1)
I0925 22:08:05.490118 19160 net.cpp:148] Top shape: 1 1 (1)
I0925 22:08:05.490115 19142 net.cpp:91] Creating Layer cont_sentence_input_1_split
I0925 22:08:05.490124 19160 net.cpp:148] Top shape: 1 1 (1)
I0925 22:08:05.490128 19160 net.cpp:156] Memory required for data: 16396
I0925 22:08:05.490144 19160 layer_factory.hpp:77] Creating layer cont_sentence_input_1_split
I0925 22:08:05.490169 19160 net.cpp:91] Creating Layer cont_sentence_input_1_split
I0925 22:08:05.490175 19160 net.cpp:425] cont_sentence_input_1_split <- cont_sentence
I0925 22:08:05.490185 19160 net.cpp:399] cont_sentence_input_1_split -> cont_sentence_input_1_split_0
I0925 22:08:05.490198 19160 net.cpp:399] cont_sentence_input_1_split -> cont_sentence_input_1_split_1
I0925 22:08:05.490394 19134 net.cpp:141] Setting up cont_sentence_input_1_split
I0925 22:08:05.490437 19134 net.cpp:148] Top shape: 1 1 (1)
I0925 22:08:05.490444 19134 net.cpp:148] Top shape: 1 1 (1)
I0925 22:08:05.490444 19136 net.cpp:141] Setting up cont_sentence_input_1_split
I0925 22:08:05.490452 19134 net.cpp:156] Memory required for data: 16404
I0925 22:08:05.490483 19136 net.cpp:148] Top shape: 1 1 (1)
I0925 22:08:05.490492 19134 layer_factory.hpp:77] Creating layer embed_encoder
I0925 22:08:05.490496 19136 net.cpp:148] Top shape: 1 1 (1)
I0925 22:08:05.490505 19136 net.cpp:156] Memory required for data: 16404
I0925 22:08:05.490516 19136 layer_factory.hpp:77] Creating layer embed_encoder
I0925 22:08:05.490516 19160 net.cpp:141] Setting up cont_sentence_input_1_split
I0925 22:08:05.490522 19134 net.cpp:91] Creating Layer embed_encoder
I0925 22:08:05.490531 19134 net.cpp:425] embed_encoder <- frames_fc7
I0925 22:08:05.490533 19160 net.cpp:148] Top shape: 1 1 (1)
I0925 22:08:05.490545 19134 net.cpp:399] embed_encoder -> embedded_in_frames
I0925 22:08:05.490546 19160 net.cpp:148] Top shape: 1 1 (1)
I0925 22:08:05.490552 19136 net.cpp:91] Creating Layer embed_encoder
I0925 22:08:05.490556 19160 net.cpp:156] Memory required for data: 16404
I0925 22:08:05.490563 19160 layer_factory.hpp:77] Creating layer embed_encoder
I0925 22:08:05.490562 19136 net.cpp:425] embed_encoder <- frames_fc7
I0925 22:08:05.490584 19160 net.cpp:91] Creating Layer embed_encoder
I0925 22:08:05.490586 19136 net.cpp:399] embed_encoder -> embedded_in_frames
I0925 22:08:05.490612 19160 net.cpp:425] embed_encoder <- frames_fc7
I0925 22:08:05.490646 19160 net.cpp:399] embed_encoder -> embedded_in_frames
I0925 22:08:05.490128 19142 net.cpp:425] cont_sentence_input_1_split <- cont_sentence
I0925 22:08:05.491125 19142 net.cpp:399] cont_sentence_input_1_split -> cont_sentence_input_1_split_0
I0925 22:08:05.491143 19142 net.cpp:399] cont_sentence_input_1_split -> cont_sentence_input_1_split_1
I0925 22:08:05.495355 19132 net.cpp:141] Setting up input
I0925 22:08:05.495400 19132 net.cpp:148] Top shape: 1 4096 (4096)
I0925 22:08:05.495409 19132 net.cpp:148] Top shape: 1 1 (1)
I0925 22:08:05.495415 19132 net.cpp:148] Top shape: 1 1 (1)
I0925 22:08:05.495421 19132 net.cpp:148] Top shape: 1 1 (1)
I0925 22:08:05.495427 19132 net.cpp:156] Memory required for data: 16396
I0925 22:08:05.495438 19132 layer_factory.hpp:77] Creating layer cont_sentence_input_1_split
I0925 22:08:05.495458 19132 net.cpp:91] Creating Layer cont_sentence_input_1_split
I0925 22:08:05.495465 19132 net.cpp:425] cont_sentence_input_1_split <- cont_sentence
I0925 22:08:05.495477 19132 net.cpp:399] cont_sentence_input_1_split -> cont_sentence_input_1_split_0
I0925 22:08:05.495492 19132 net.cpp:399] cont_sentence_input_1_split -> cont_sentence_input_1_split_1
I0925 22:08:05.504622 19132 net.cpp:141] Setting up cont_sentence_input_1_split
I0925 22:08:05.504685 19132 net.cpp:148] Top shape: 1 1 (1)
I0925 22:08:05.504696 19132 net.cpp:148] Top shape: 1 1 (1)
I0925 22:08:05.504705 19132 net.cpp:156] Memory required for data: 16404
I0925 22:08:05.504720 19132 layer_factory.hpp:77] Creating layer embed_encoder
I0925 22:08:05.504755 19132 net.cpp:91] Creating Layer embed_encoder
I0925 22:08:05.504767 19132 net.cpp:425] embed_encoder <- frames_fc7
I0925 22:08:05.504787 19132 net.cpp:399] embed_encoder -> embedded_in_frames
I0925 22:08:05.509512 19142 net.cpp:141] Setting up cont_sentence_input_1_split
I0925 22:08:05.509563 19142 net.cpp:148] Top shape: 1 1 (1)
I0925 22:08:05.509572 19142 net.cpp:148] Top shape: 1 1 (1)
I0925 22:08:05.509577 19142 net.cpp:156] Memory required for data: 16404
I0925 22:08:05.509585 19142 layer_factory.hpp:77] Creating layer embed_encoder
I0925 22:08:05.509613 19142 net.cpp:91] Creating Layer embed_encoder
I0925 22:08:05.509623 19142 net.cpp:425] embed_encoder <- frames_fc7
I0925 22:08:05.509634 19142 net.cpp:399] embed_encoder -> embedded_in_frames
I0925 22:08:05.515985 19166 net.cpp:141] Setting up embed_encoder
I0925 22:08:05.516029 19166 net.cpp:148] Top shape: 1 500 (500)
I0925 22:08:05.516036 19166 net.cpp:156] Memory required for data: 18404
I0925 22:08:05.516065 19166 layer_factory.hpp:77] Creating layer reshape_frames
I0925 22:08:05.516094 19166 net.cpp:91] Creating Layer reshape_frames
I0925 22:08:05.516103 19166 net.cpp:425] reshape_frames <- embedded_in_frames
I0925 22:08:05.516113 19166 net.cpp:399] reshape_frames -> embedded_input_frames
I0925 22:08:05.516360 19166 net.cpp:141] Setting up reshape_frames
I0925 22:08:05.516371 19166 net.cpp:148] Top shape: 1 1 500 (500)
I0925 22:08:05.516376 19166 net.cpp:156] Memory required for data: 20404
I0925 22:08:05.516381 19166 layer_factory.hpp:77] Creating layer reshape_stage_indicator
I0925 22:08:05.516393 19166 net.cpp:91] Creating Layer reshape_stage_indicator
I0925 22:08:05.516399 19166 net.cpp:425] reshape_stage_indicator <- stage_indicator
I0925 22:08:05.516407 19166 net.cpp:399] reshape_stage_indicator -> reshaped_stage_indicator
I0925 22:08:05.516415 19134 net.cpp:141] Setting up embed_encoder
I0925 22:08:05.516435 19134 net.cpp:148] Top shape: 1 500 (500)
I0925 22:08:05.516441 19134 net.cpp:156] Memory required for data: 18404
I0925 22:08:05.516453 19166 net.cpp:141] Setting up reshape_stage_indicator
I0925 22:08:05.516456 19134 layer_factory.hpp:77] Creating layer reshape_frames
I0925 22:08:05.516463 19166 net.cpp:148] Top shape: 1 1 1 (1)
I0925 22:08:05.516469 19166 net.cpp:156] Memory required for data: 20408
I0925 22:08:05.516469 19134 net.cpp:91] Creating Layer reshape_frames
I0925 22:08:05.516474 19166 layer_factory.hpp:77] Creating layer embedding
I0925 22:08:05.516477 19134 net.cpp:425] reshape_frames <- embedded_in_frames
I0925 22:08:05.516487 19134 net.cpp:399] reshape_frames -> embedded_input_frames
I0925 22:08:05.516487 19166 net.cpp:91] Creating Layer embedding
I0925 22:08:05.516507 19166 net.cpp:425] embedding <- input_sentence
I0925 22:08:05.516517 19166 net.cpp:399] embedding -> embedded_input_sentence
I0925 22:08:05.516535 19134 net.cpp:141] Setting up reshape_frames
I0925 22:08:05.516546 19134 net.cpp:148] Top shape: 1 1 500 (500)
I0925 22:08:05.516549 19134 net.cpp:156] Memory required for data: 20404
I0925 22:08:05.516554 19134 layer_factory.hpp:77] Creating layer reshape_stage_indicator
I0925 22:08:05.516564 19134 net.cpp:91] Creating Layer reshape_stage_indicator
I0925 22:08:05.516571 19134 net.cpp:425] reshape_stage_indicator <- stage_indicator
I0925 22:08:05.516578 19134 net.cpp:399] reshape_stage_indicator -> reshaped_stage_indicator
I0925 22:08:05.556551 19134 net.cpp:141] Setting up reshape_stage_indicator
I0925 22:08:05.556612 19134 net.cpp:148] Top shape: 1 1 1 (1)
I0925 22:08:05.556624 19134 net.cpp:156] Memory required for data: 20408
I0925 22:08:05.556638 19134 layer_factory.hpp:77] Creating layer embedding
I0925 22:08:05.556666 19134 net.cpp:91] Creating Layer embedding
I0925 22:08:05.556679 19134 net.cpp:425] embedding <- input_sentence
I0925 22:08:05.556697 19134 net.cpp:399] embedding -> embedded_input_sentence
I0925 22:08:05.556855 19142 net.cpp:141] Setting up embed_encoder
I0925 22:08:05.556891 19142 net.cpp:148] Top shape: 1 500 (500)
I0925 22:08:05.556897 19142 net.cpp:156] Memory required for data: 18404
I0925 22:08:05.556917 19142 layer_factory.hpp:77] Creating layer reshape_frames
I0925 22:08:05.556936 19142 net.cpp:91] Creating Layer reshape_frames
I0925 22:08:05.556942 19142 net.cpp:425] reshape_frames <- embedded_in_frames
I0925 22:08:05.556952 19142 net.cpp:399] reshape_frames -> embedded_input_frames
I0925 22:08:05.556998 19142 net.cpp:141] Setting up reshape_frames
I0925 22:08:05.557008 19142 net.cpp:148] Top shape: 1 1 500 (500)
I0925 22:08:05.557013 19142 net.cpp:156] Memory required for data: 20404
I0925 22:08:05.557016 19142 layer_factory.hpp:77] Creating layer reshape_stage_indicator
I0925 22:08:05.557026 19142 net.cpp:91] Creating Layer reshape_stage_indicator
I0925 22:08:05.557032 19142 net.cpp:425] reshape_stage_indicator <- stage_indicator
I0925 22:08:05.557039 19142 net.cpp:399] reshape_stage_indicator -> reshaped_stage_indicator
I0925 22:08:05.557071 19142 net.cpp:141] Setting up reshape_stage_indicator
I0925 22:08:05.557080 19142 net.cpp:148] Top shape: 1 1 1 (1)
I0925 22:08:05.557085 19142 net.cpp:156] Memory required for data: 20408
I0925 22:08:05.557090 19142 layer_factory.hpp:77] Creating layer embedding
I0925 22:08:05.557103 19142 net.cpp:91] Creating Layer embedding
I0925 22:08:05.557109 19142 net.cpp:425] embedding <- input_sentence
I0925 22:08:05.557118 19142 net.cpp:399] embedding -> embedded_input_sentence
I0925 22:08:05.601840 19132 net.cpp:141] Setting up embed_encoder
I0925 22:08:05.601920 19132 net.cpp:148] Top shape: 1 500 (500)
I0925 22:08:05.601940 19132 net.cpp:156] Memory required for data: 18404
I0925 22:08:05.601955 19136 net.cpp:141] Setting up embed_encoder
I0925 22:08:05.601974 19136 net.cpp:148] Top shape: 1 500 (500)
I0925 22:08:05.601980 19136 net.cpp:156] Memory required for data: 18404
I0925 22:08:05.601995 19136 layer_factory.hpp:77] Creating layer reshape_frames
I0925 22:08:05.601991 19132 layer_factory.hpp:77] Creating layer reshape_frames
I0925 22:08:05.601994 19160 net.cpp:141] Setting up embed_encoder
I0925 22:08:05.602033 19136 net.cpp:91] Creating Layer reshape_frames
I0925 22:08:05.602031 19132 net.cpp:91] Creating Layer reshape_frames
I0925 22:08:05.602044 19136 net.cpp:425] reshape_frames <- embedded_in_frames
I0925 22:08:05.602033 19160 net.cpp:148] Top shape: 1 500 (500)
I0925 22:08:05.602056 19136 net.cpp:399] reshape_frames -> embedded_input_frames
I0925 22:08:05.602061 19132 net.cpp:425] reshape_frames <- embedded_in_frames
I0925 22:08:05.602061 19160 net.cpp:156] Memory required for data: 18404
I0925 22:08:05.602102 19132 net.cpp:399] reshape_frames -> embedded_input_frames
I0925 22:08:05.602108 19160 layer_factory.hpp:77] Creating layer reshape_frames
I0925 22:08:05.602147 19160 net.cpp:91] Creating Layer reshape_frames
I0925 22:08:05.602188 19160 net.cpp:425] reshape_frames <- embedded_in_frames
I0925 22:08:05.602206 19160 net.cpp:399] reshape_frames -> embedded_input_frames
I0925 22:08:05.646837 19136 net.cpp:141] Setting up reshape_frames
I0925 22:08:05.646921 19136 net.cpp:148] Top shape: 1 1 500 (500)
I0925 22:08:05.646937 19136 net.cpp:156] Memory required for data: 20404
I0925 22:08:05.646951 19160 net.cpp:141] Setting up reshape_frames
I0925 22:08:05.646957 19136 layer_factory.hpp:77] Creating layer reshape_stage_indicator
I0925 22:08:05.646983 19160 net.cpp:148] Top shape: 1 1 500 (500)
I0925 22:08:05.646991 19160 net.cpp:156] Memory required for data: 20404
I0925 22:08:05.647001 19160 layer_factory.hpp:77] Creating layer reshape_stage_indicator
I0925 22:08:05.646859 19132 net.cpp:141] Setting up reshape_frames
I0925 22:08:05.647017 19160 net.cpp:91] Creating Layer reshape_stage_indicator
I0925 22:08:05.647017 19136 net.cpp:91] Creating Layer reshape_stage_indicator
I0925 22:08:05.647024 19132 net.cpp:148] Top shape: 1 1 500 (500)
I0925 22:08:05.647032 19136 net.cpp:425] reshape_stage_indicator <- stage_indicator
I0925 22:08:05.647027 19160 net.cpp:425] reshape_stage_indicator <- stage_indicator
I0925 22:08:05.647043 19132 net.cpp:156] Memory required for data: 20404
I0925 22:08:05.647053 19132 layer_factory.hpp:77] Creating layer reshape_stage_indicator
I0925 22:08:05.647076 19132 net.cpp:91] Creating Layer reshape_stage_indicator
I0925 22:08:05.647083 19136 net.cpp:399] reshape_stage_indicator -> reshaped_stage_indicator
I0925 22:08:05.647161 19136 net.cpp:141] Setting up reshape_stage_indicator
I0925 22:08:05.647177 19136 net.cpp:148] Top shape: 1 1 1 (1)
I0925 22:08:05.647186 19136 net.cpp:156] Memory required for data: 20408
I0925 22:08:05.647054 19160 net.cpp:399] reshape_stage_indicator -> reshaped_stage_indicator
I0925 22:08:05.647195 19136 layer_factory.hpp:77] Creating layer embedding
I0925 22:08:05.647214 19136 net.cpp:91] Creating Layer embedding
I0925 22:08:05.647086 19132 net.cpp:425] reshape_stage_indicator <- stage_indicator
I0925 22:08:05.647223 19136 net.cpp:425] embedding <- input_sentence
I0925 22:08:05.647236 19132 net.cpp:399] reshape_stage_indicator -> reshaped_stage_indicator
I0925 22:08:05.647248 19160 net.cpp:141] Setting up reshape_stage_indicator
I0925 22:08:05.647253 19136 net.cpp:399] embedding -> embedded_input_sentence
I0925 22:08:05.647261 19160 net.cpp:148] Top shape: 1 1 1 (1)
I0925 22:08:05.647269 19160 net.cpp:156] Memory required for data: 20408
I0925 22:08:05.647276 19160 layer_factory.hpp:77] Creating layer embedding
I0925 22:08:05.647301 19132 net.cpp:141] Setting up reshape_stage_indicator
I0925 22:08:05.647325 19132 net.cpp:148] Top shape: 1 1 1 (1)
I0925 22:08:05.647336 19132 net.cpp:156] Memory required for data: 20408
I0925 22:08:05.647343 19132 layer_factory.hpp:77] Creating layer embedding
I0925 22:08:05.647357 19132 net.cpp:91] Creating Layer embedding
I0925 22:08:05.647366 19132 net.cpp:425] embedding <- input_sentence
I0925 22:08:05.647378 19132 net.cpp:399] embedding -> embedded_input_sentence
I0925 22:08:05.647305 19160 net.cpp:91] Creating Layer embedding
I0925 22:08:05.647446 19160 net.cpp:425] embedding <- input_sentence
I0925 22:08:05.647459 19160 net.cpp:399] embedding -> embedded_input_sentence
I0925 22:08:05.782938 19166 net.cpp:141] Setting up embedding
I0925 22:08:05.783829 19166 net.cpp:148] Top shape: 1 1 500 (500)
I0925 22:08:05.784050 19166 net.cpp:156] Memory required for data: 22408
I0925 22:08:05.784375 19166 layer_factory.hpp:77] Creating layer lstm1
I0925 22:08:05.784559 19166 net.cpp:91] Creating Layer lstm1
I0925 22:08:05.784693 19166 net.cpp:425] lstm1 <- embedded_input_frames
I0925 22:08:05.784826 19166 net.cpp:425] lstm1 <- cont_sentence_input_1_split_0
I0925 22:08:05.784975 19166 net.cpp:399] lstm1 -> lstm1
I0925 22:08:05.785332 19166 recurrent_layer.cpp:20] Initializing recurrent layer: assuming input batch contains 1 timesteps of 1 independent streams.
I0925 22:08:05.785717 19166 net.cpp:49] Initializing net from parameters: 
layer {
  name: "lstm1_"
  type: "Input"
  top: "x"
  top: "cont"
  input_param {
    shape {
      dim: 1
      dim: 1
      dim: 500
    }
    shape {
      dim: 1
      dim: 1
    }
  }
}
layer {
  name: "lstm1_"
  type: "Input"
  top: "c_0"
  top: "h_0"
  input_param {
    shape {
      dim: 1
      dim: 1
      dim: 1000
    }
    shape {
      dim: 1
      dim: 1
      dim: 1000
    }
  }
}
layer {
  name: "lstm1_cont_slice"
  type: "Slice"
  bottom: "cont"
  top: "cont_1"
  slice_param {
    axis: 0
  }
}
layer {
  name: "lstm1_x_transform"
  type: "InnerProduct"
  bottom: "x"
  top: "W_xc_x"
  param {
    name: "W_xc"
  }
  param {
    name: "b_c"
  }
  propagate_down: true
  inner_product_param {
    num_output: 4000
    bias_term: true
    weight_filler {
      type: "uniform"
      min: -0.08
      max: 0.08
    }
    bias_filler {
      type: "constant"
      value: 0
    }
    axis: 2
  }
}
layer {
  name: "lstm1_W_xc_x_slice"
  type: "Slice"
  bottom: "W_xc_x"
  top: "W_xc_x_1"
  slice_param {
    axis: 0
  }
}
layer {
  name: "lstm1_h_conted_0"
  type: "Scale"
  bottom: "h_0"
  bottom: "cont_1"
  top: "h_conted_0"
  scale_param {
    axis: 0
  }
}
layer {
  name: "lstm1_transform_1"
  type: "InnerProduct"
  bottom: "h_conted_0"
  top: "W_hc_h_0"
  param {
    name: "W_hc"
  }
  inner_product_param {
    num_output: 4000
    bias_term: false
    weight_filler {
      type: "uniform"
      min: -0.08
      max: 0.08
    }
    axis: 2
  }
}
layer {
  name: "lstm1_gate_input_1"
  type: "Eltwise"
  bottom: "W_hc_h_0"
  bottom: "W_xc_x_1"
  top: "gate_input_1"
  eltwise_param {
    operation: SUM
  }
}
layer {
  name: "lstm1_unit_1"
  type: "LSTMUnit"
  bottom: "c_0"
  bottom: "gate_input_1"
  bottom: "cont_1"
  top: "c_1"
  top: "h_1"
}
layer {
  name: "lstm1_"
  type: "Split"
  bottom: "c_1"
  top: "c_T"
}
layer {
  name: "lstm1_h_concat"
  type: "Concat"
  bottom: "h_1"
  top: "h"
  concat_param {
    axis: 0
  }
}
layer {
  name: "h_pseudoloss"
  type: "Reduction"
  bottom: "h"
  top: "h_pseudoloss"
  loss_weight: 1
}
I0925 22:08:05.785815 19166 layer_factory.hpp:77] Creating layer lstm1_
I0925 22:08:05.785828 19166 net.cpp:91] Creating Layer lstm1_
I0925 22:08:05.785835 19166 net.cpp:399] lstm1_ -> x
I0925 22:08:05.785847 19166 net.cpp:399] lstm1_ -> cont
I0925 22:08:05.785965 19166 net.cpp:141] Setting up lstm1_
I0925 22:08:05.785976 19166 net.cpp:148] Top shape: 1 1 500 (500)
I0925 22:08:05.785982 19166 net.cpp:148] Top shape: 1 1 (1)
I0925 22:08:05.785987 19166 net.cpp:156] Memory required for data: 2004
I0925 22:08:05.785992 19166 layer_factory.hpp:77] Creating layer lstm1_
I0925 22:08:05.786005 19166 net.cpp:91] Creating Layer lstm1_
I0925 22:08:05.786012 19166 net.cpp:399] lstm1_ -> c_0
I0925 22:08:05.786022 19166 net.cpp:399] lstm1_ -> h_0
I0925 22:08:05.786082 19166 net.cpp:141] Setting up lstm1_
I0925 22:08:05.786092 19166 net.cpp:148] Top shape: 1 1 1000 (1000)
I0925 22:08:05.786098 19166 net.cpp:148] Top shape: 1 1 1000 (1000)
I0925 22:08:05.786103 19166 net.cpp:156] Memory required for data: 10004
I0925 22:08:05.786108 19166 layer_factory.hpp:77] Creating layer lstm1_cont_slice
I0925 22:08:05.786116 19166 net.cpp:91] Creating Layer lstm1_cont_slice
I0925 22:08:05.786121 19166 net.cpp:425] lstm1_cont_slice <- cont
I0925 22:08:05.786146 19166 net.cpp:399] lstm1_cont_slice -> cont_1
I0925 22:08:05.788023 19166 net.cpp:141] Setting up lstm1_cont_slice
I0925 22:08:05.788051 19166 net.cpp:148] Top shape: 1 1 (1)
I0925 22:08:05.788058 19166 net.cpp:156] Memory required for data: 10008
I0925 22:08:05.788064 19166 layer_factory.hpp:77] Creating layer cont_1_lstm1_cont_slice_0_split
I0925 22:08:05.788074 19166 net.cpp:91] Creating Layer cont_1_lstm1_cont_slice_0_split
I0925 22:08:05.788079 19166 net.cpp:425] cont_1_lstm1_cont_slice_0_split <- cont_1
I0925 22:08:05.788086 19166 net.cpp:399] cont_1_lstm1_cont_slice_0_split -> cont_1_lstm1_cont_slice_0_split_0
I0925 22:08:05.788102 19166 net.cpp:399] cont_1_lstm1_cont_slice_0_split -> cont_1_lstm1_cont_slice_0_split_1
I0925 22:08:05.789216 19166 net.cpp:141] Setting up cont_1_lstm1_cont_slice_0_split
I0925 22:08:05.789238 19166 net.cpp:148] Top shape: 1 1 (1)
I0925 22:08:05.789249 19166 net.cpp:148] Top shape: 1 1 (1)
I0925 22:08:05.789257 19166 net.cpp:156] Memory required for data: 10016
I0925 22:08:05.789279 19166 layer_factory.hpp:77] Creating layer lstm1_x_transform
I0925 22:08:05.789312 19166 net.cpp:91] Creating Layer lstm1_x_transform
I0925 22:08:05.789337 19166 net.cpp:425] lstm1_x_transform <- x
I0925 22:08:05.789356 19166 net.cpp:399] lstm1_x_transform -> W_xc_x
I0925 22:08:05.815516 19166 net.cpp:141] Setting up lstm1_x_transform
I0925 22:08:05.815567 19166 net.cpp:148] Top shape: 1 1 4000 (4000)
I0925 22:08:05.815577 19166 net.cpp:156] Memory required for data: 26016
I0925 22:08:05.815598 19166 layer_factory.hpp:77] Creating layer lstm1_W_xc_x_slice
I0925 22:08:05.815614 19166 net.cpp:91] Creating Layer lstm1_W_xc_x_slice
I0925 22:08:05.815623 19166 net.cpp:425] lstm1_W_xc_x_slice <- W_xc_x
I0925 22:08:05.815637 19166 net.cpp:399] lstm1_W_xc_x_slice -> W_xc_x_1
I0925 22:08:05.816890 19166 net.cpp:141] Setting up lstm1_W_xc_x_slice
I0925 22:08:05.816915 19166 net.cpp:148] Top shape: 1 1 4000 (4000)
I0925 22:08:05.816926 19166 net.cpp:156] Memory required for data: 42016
I0925 22:08:05.816934 19166 layer_factory.hpp:77] Creating layer lstm1_h_conted_0
I0925 22:08:05.816969 19166 net.cpp:91] Creating Layer lstm1_h_conted_0
I0925 22:08:05.816980 19166 net.cpp:425] lstm1_h_conted_0 <- h_0
I0925 22:08:05.816992 19166 net.cpp:425] lstm1_h_conted_0 <- cont_1_lstm1_cont_slice_0_split_0
I0925 22:08:05.817005 19166 net.cpp:399] lstm1_h_conted_0 -> h_conted_0
I0925 22:08:05.823035 19166 net.cpp:141] Setting up lstm1_h_conted_0
I0925 22:08:05.823067 19166 net.cpp:148] Top shape: 1 1 1000 (1000)
I0925 22:08:05.823073 19166 net.cpp:156] Memory required for data: 46016
I0925 22:08:05.823081 19166 layer_factory.hpp:77] Creating layer lstm1_transform_1
I0925 22:08:05.823103 19166 net.cpp:91] Creating Layer lstm1_transform_1
I0925 22:08:05.823112 19166 net.cpp:425] lstm1_transform_1 <- h_conted_0
I0925 22:08:05.823122 19166 net.cpp:399] lstm1_transform_1 -> W_hc_h_0
I0925 22:08:05.831502 19142 net.cpp:141] Setting up embedding
I0925 22:08:05.831589 19142 net.cpp:148] Top shape: 1 1 500 (500)
I0925 22:08:05.831599 19142 net.cpp:156] Memory required for data: 22408
I0925 22:08:05.831624 19142 layer_factory.hpp:77] Creating layer lstm1
I0925 22:08:05.831647 19142 net.cpp:91] Creating Layer lstm1
I0925 22:08:05.831655 19142 net.cpp:425] lstm1 <- embedded_input_frames
I0925 22:08:05.831665 19142 net.cpp:425] lstm1 <- cont_sentence_input_1_split_0
I0925 22:08:05.831678 19142 net.cpp:399] lstm1 -> lstm1
I0925 22:08:05.831701 19142 recurrent_layer.cpp:20] Initializing recurrent layer: assuming input batch contains 1 timesteps of 1 independent streams.
I0925 22:08:05.832036 19142 net.cpp:49] Initializing net from parameters: 
layer {
  name: "lstm1_"
  type: "Input"
  top: "x"
  top: "cont"
  input_param {
    shape {
      dim: 1
      dim: 1
      dim: 500
    }
    shape {
      dim: 1
      dim: 1
    }
  }
}
layer {
  name: "lstm1_"
  type: "Input"
  top: "c_0"
  top: "h_0"
  input_param {
    shape {
      dim: 1
      dim: 1
      dim: 1000
    }
    shape {
      dim: 1
      dim: 1
      dim: 1000
    }
  }
}
layer {
  name: "lstm1_cont_slice"
  type: "Slice"
  bottom: "cont"
  top: "cont_1"
  slice_param {
    axis: 0
  }
}
layer {
  name: "lstm1_x_transform"
  type: "InnerProduct"
  bottom: "x"
  top: "W_xc_x"
  param {
    name: "W_xc"
  }
  param {
    name: "b_c"
  }
  propagate_down: true
  inner_product_param {
    num_output: 4000
    bias_term: true
    weight_filler {
      type: "uniform"
      min: -0.08
      max: 0.08
    }
    bias_filler {
      type: "constant"
      value: 0
    }
    axis: 2
  }
}
layer {
  name: "lstm1_W_xc_x_slice"
  type: "Slice"
  bottom: "W_xc_x"
  top: "W_xc_x_1"
  slice_param {
    axis: 0
  }
}
layer {
  name: "lstm1_h_conted_0"
  type: "Scale"
  bottom: "h_0"
  bottom: "cont_1"
  top: "h_conted_0"
  scale_param {
    axis: 0
  }
}
layer {
  name: "lstm1_transform_1"
  type: "InnerProduct"
  bottom: "h_conted_0"
  top: "W_hc_h_0"
  param {
    name: "W_hc"
  }
  inner_product_param {
    num_output: 4000
    bias_term: false
    weight_filler {
      type: "uniform"
      min: -0.08
      max: 0.08
    }
    axis: 2
  }
}
layer {
  name: "lstm1_gate_input_1"
  type: "Eltwise"
  bottom: "W_hc_h_0"
  bottom: "W_xc_x_1"
  top: "gate_input_1"
  eltwise_param {
    operation: SUM
  }
}
layer {
  name: "lstm1_unit_1"
  type: "LSTMUnit"
  bottom: "c_0"
  bottom: "gate_input_1"
  bottom: "cont_1"
  top: "c_1"
  top: "h_1"
}
layer {
  name: "lstm1_"
  type: "Split"
  bottom: "c_1"
  top: "c_T"
}
layer {
  name: "lstm1_h_concat"
  type: "Concat"
  bottom: "h_1"
  top: "h"
  concat_param {
    axis: 0
  }
}
layer {
  name: "h_pseudoloss"
  type: "Reduction"
  bottom: "h"
  top: "h_pseudoloss"
  loss_weight: 1
}
I0925 22:08:05.832150 19142 layer_factory.hpp:77] Creating layer lstm1_
I0925 22:08:05.832165 19142 net.cpp:91] Creating Layer lstm1_
I0925 22:08:05.832172 19142 net.cpp:399] lstm1_ -> x
I0925 22:08:05.832185 19142 net.cpp:399] lstm1_ -> cont
I0925 22:08:05.834763 19142 net.cpp:141] Setting up lstm1_
I0925 22:08:05.834777 19142 net.cpp:148] Top shape: 1 1 500 (500)
I0925 22:08:05.834784 19142 net.cpp:148] Top shape: 1 1 (1)
I0925 22:08:05.834789 19142 net.cpp:156] Memory required for data: 2004
I0925 22:08:05.834794 19142 layer_factory.hpp:77] Creating layer lstm1_
I0925 22:08:05.834805 19142 net.cpp:91] Creating Layer lstm1_
I0925 22:08:05.834815 19142 net.cpp:399] lstm1_ -> c_0
I0925 22:08:05.834825 19142 net.cpp:399] lstm1_ -> h_0
I0925 22:08:05.835062 19142 net.cpp:141] Setting up lstm1_
I0925 22:08:05.835074 19142 net.cpp:148] Top shape: 1 1 1000 (1000)
I0925 22:08:05.835080 19142 net.cpp:148] Top shape: 1 1 1000 (1000)
I0925 22:08:05.835084 19142 net.cpp:156] Memory required for data: 10004
I0925 22:08:05.835090 19142 layer_factory.hpp:77] Creating layer lstm1_cont_slice
I0925 22:08:05.835100 19142 net.cpp:91] Creating Layer lstm1_cont_slice
I0925 22:08:05.835105 19142 net.cpp:425] lstm1_cont_slice <- cont
I0925 22:08:05.835114 19142 net.cpp:399] lstm1_cont_slice -> cont_1
I0925 22:08:05.838671 19142 net.cpp:141] Setting up lstm1_cont_slice
I0925 22:08:05.838695 19142 net.cpp:148] Top shape: 1 1 (1)
I0925 22:08:05.838699 19142 net.cpp:156] Memory required for data: 10008
I0925 22:08:05.838706 19142 layer_factory.hpp:77] Creating layer cont_1_lstm1_cont_slice_0_split
I0925 22:08:05.838718 19142 net.cpp:91] Creating Layer cont_1_lstm1_cont_slice_0_split
I0925 22:08:05.838724 19142 net.cpp:425] cont_1_lstm1_cont_slice_0_split <- cont_1
I0925 22:08:05.838732 19142 net.cpp:399] cont_1_lstm1_cont_slice_0_split -> cont_1_lstm1_cont_slice_0_split_0
I0925 22:08:05.838742 19142 net.cpp:399] cont_1_lstm1_cont_slice_0_split -> cont_1_lstm1_cont_slice_0_split_1
I0925 22:08:05.843477 19142 net.cpp:141] Setting up cont_1_lstm1_cont_slice_0_split
I0925 22:08:05.843509 19142 net.cpp:148] Top shape: 1 1 (1)
I0925 22:08:05.843516 19142 net.cpp:148] Top shape: 1 1 (1)
I0925 22:08:05.843521 19142 net.cpp:156] Memory required for data: 10016
I0925 22:08:05.843528 19142 layer_factory.hpp:77] Creating layer lstm1_x_transform
I0925 22:08:05.843562 19142 net.cpp:91] Creating Layer lstm1_x_transform
I0925 22:08:05.843574 19142 net.cpp:425] lstm1_x_transform <- x
I0925 22:08:05.843592 19142 net.cpp:399] lstm1_x_transform -> W_xc_x
I0925 22:08:05.853771 19134 net.cpp:141] Setting up embedding
I0925 22:08:05.853827 19134 net.cpp:148] Top shape: 1 1 500 (500)
I0925 22:08:05.853837 19134 net.cpp:156] Memory required for data: 22408
I0925 22:08:05.853863 19134 layer_factory.hpp:77] Creating layer lstm1
I0925 22:08:05.857175 19134 net.cpp:91] Creating Layer lstm1
I0925 22:08:05.857197 19134 net.cpp:425] lstm1 <- embedded_input_frames
I0925 22:08:05.857206 19134 net.cpp:425] lstm1 <- cont_sentence_input_1_split_0
I0925 22:08:05.857218 19134 net.cpp:399] lstm1 -> lstm1
I0925 22:08:05.857237 19134 recurrent_layer.cpp:20] Initializing recurrent layer: assuming input batch contains 1 timesteps of 1 independent streams.
I0925 22:08:05.857516 19134 net.cpp:49] Initializing net from parameters: 
layer {
  name: "lstm1_"
  type: "Input"
  top: "x"
  top: "cont"
  input_param {
    shape {
      dim: 1
      dim: 1
      dim: 500
    }
    shape {
      dim: 1
      dim: 1
    }
  }
}
layer {
  name: "lstm1_"
  type: "Input"
  top: "c_0"
  top: "h_0"
  input_param {
    shape {
      dim: 1
      dim: 1
      dim: 1000
    }
    shape {
      dim: 1
      dim: 1
      dim: 1000
    }
  }
}
layer {
  name: "lstm1_cont_slice"
  type: "Slice"
  bottom: "cont"
  top: "cont_1"
  slice_param {
    axis: 0
  }
}
layer {
  name: "lstm1_x_transform"
  type: "InnerProduct"
  bottom: "x"
  top: "W_xc_x"
  param {
    name: "W_xc"
  }
  param {
    name: "b_c"
  }
  propagate_down: true
  inner_product_param {
    num_output: 4000
    bias_term: true
    weight_filler {
      type: "uniform"
      min: -0.08
      max: 0.08
    }
    bias_filler {
      type: "constant"
      value: 0
    }
    axis: 2
  }
}
layer {
  name: "lstm1_W_xc_x_slice"
  type: "Slice"
  bottom: "W_xc_x"
  top: "W_xc_x_1"
  slice_param {
    axis: 0
  }
}
layer {
  name: "lstm1_h_conted_0"
  type: "Scale"
  bottom: "h_0"
  bottom: "cont_1"
  top: "h_conted_0"
  scale_param {
    axis: 0
  }
}
layer {
  name: "lstm1_transform_1"
  type: "InnerProduct"
  bottom: "h_conted_0"
  top: "W_hc_h_0"
  param {
    name: "W_hc"
  }
  inner_product_param {
    num_output: 4000
    bias_term: false
    weight_filler {
      type: "uniform"
      min: -0.08
      max: 0.08
    }
    axis: 2
  }
}
layer {
  name: "lstm1_gate_input_1"
  type: "Eltwise"
  bottom: "W_hc_h_0"
  bottom: "W_xc_x_1"
  top: "gate_input_1"
  eltwise_param {
    operation: SUM
  }
}
layer {
  name: "lstm1_unit_1"
  type: "LSTMUnit"
  bottom: "c_0"
  bottom: "gate_input_1"
  bottom: "cont_1"
  top: "c_1"
  top: "h_1"
}
layer {
  name: "lstm1_"
  type: "Split"
  bottom: "c_1"
  top: "c_T"
}
layer {
  name: "lstm1_h_concat"
  type: "Concat"
  bottom: "h_1"
  top: "h"
  concat_param {
    axis: 0
  }
}
layer {
  name: "h_pseudoloss"
  type: "Reduction"
  bottom: "h"
  top: "h_pseudoloss"
  loss_weight: 1
}
I0925 22:08:05.857604 19134 layer_factory.hpp:77] Creating layer lstm1_
I0925 22:08:05.857616 19134 net.cpp:91] Creating Layer lstm1_
I0925 22:08:05.857623 19134 net.cpp:399] lstm1_ -> x
I0925 22:08:05.857635 19134 net.cpp:399] lstm1_ -> cont
I0925 22:08:05.857919 19134 net.cpp:141] Setting up lstm1_
I0925 22:08:05.857931 19134 net.cpp:148] Top shape: 1 1 500 (500)
I0925 22:08:05.857939 19134 net.cpp:148] Top shape: 1 1 (1)
I0925 22:08:05.857942 19134 net.cpp:156] Memory required for data: 2004
I0925 22:08:05.857947 19134 layer_factory.hpp:77] Creating layer lstm1_
I0925 22:08:05.857960 19134 net.cpp:91] Creating Layer lstm1_
I0925 22:08:05.857967 19134 net.cpp:399] lstm1_ -> c_0
I0925 22:08:05.857977 19134 net.cpp:399] lstm1_ -> h_0
I0925 22:08:05.858042 19134 net.cpp:141] Setting up lstm1_
I0925 22:08:05.858052 19134 net.cpp:148] Top shape: 1 1 1000 (1000)
I0925 22:08:05.858057 19134 net.cpp:148] Top shape: 1 1 1000 (1000)
I0925 22:08:05.858062 19134 net.cpp:156] Memory required for data: 10004
I0925 22:08:05.858067 19134 layer_factory.hpp:77] Creating layer lstm1_cont_slice
I0925 22:08:05.858075 19134 net.cpp:91] Creating Layer lstm1_cont_slice
I0925 22:08:05.858080 19134 net.cpp:425] lstm1_cont_slice <- cont
I0925 22:08:05.858090 19134 net.cpp:399] lstm1_cont_slice -> cont_1
I0925 22:08:05.858896 19134 net.cpp:141] Setting up lstm1_cont_slice
I0925 22:08:05.858914 19134 net.cpp:148] Top shape: 1 1 (1)
I0925 22:08:05.858919 19134 net.cpp:156] Memory required for data: 10008
I0925 22:08:05.858925 19134 layer_factory.hpp:77] Creating layer cont_1_lstm1_cont_slice_0_split
I0925 22:08:05.858934 19134 net.cpp:91] Creating Layer cont_1_lstm1_cont_slice_0_split
I0925 22:08:05.858939 19134 net.cpp:425] cont_1_lstm1_cont_slice_0_split <- cont_1
I0925 22:08:05.858947 19134 net.cpp:399] cont_1_lstm1_cont_slice_0_split -> cont_1_lstm1_cont_slice_0_split_0
I0925 22:08:05.858963 19134 net.cpp:399] cont_1_lstm1_cont_slice_0_split -> cont_1_lstm1_cont_slice_0_split_1
I0925 22:08:05.862922 19134 net.cpp:141] Setting up cont_1_lstm1_cont_slice_0_split
I0925 22:08:05.862957 19134 net.cpp:148] Top shape: 1 1 (1)
I0925 22:08:05.862963 19134 net.cpp:148] Top shape: 1 1 (1)
I0925 22:08:05.862967 19134 net.cpp:156] Memory required for data: 10016
I0925 22:08:05.862974 19134 layer_factory.hpp:77] Creating layer lstm1_x_transform
I0925 22:08:05.862998 19134 net.cpp:91] Creating Layer lstm1_x_transform
I0925 22:08:05.863004 19134 net.cpp:425] lstm1_x_transform <- x
I0925 22:08:05.863014 19134 net.cpp:399] lstm1_x_transform -> W_xc_x
I0925 22:08:05.864327 19166 net.cpp:141] Setting up lstm1_transform_1
I0925 22:08:05.864348 19166 net.cpp:148] Top shape: 1 1 4000 (4000)
I0925 22:08:05.864357 19166 net.cpp:156] Memory required for data: 62016
I0925 22:08:05.864375 19166 layer_factory.hpp:77] Creating layer lstm1_gate_input_1
I0925 22:08:05.864398 19166 net.cpp:91] Creating Layer lstm1_gate_input_1
I0925 22:08:05.864410 19166 net.cpp:425] lstm1_gate_input_1 <- W_hc_h_0
I0925 22:08:05.864423 19166 net.cpp:425] lstm1_gate_input_1 <- W_xc_x_1
I0925 22:08:05.864436 19166 net.cpp:399] lstm1_gate_input_1 -> gate_input_1
I0925 22:08:05.868304 19166 net.cpp:141] Setting up lstm1_gate_input_1
I0925 22:08:05.868368 19166 net.cpp:148] Top shape: 1 1 4000 (4000)
I0925 22:08:05.868386 19166 net.cpp:156] Memory required for data: 78016
I0925 22:08:05.868405 19166 layer_factory.hpp:77] Creating layer lstm1_unit_1
I0925 22:08:05.868453 19166 net.cpp:91] Creating Layer lstm1_unit_1
I0925 22:08:05.868474 19166 net.cpp:425] lstm1_unit_1 <- c_0
I0925 22:08:05.868496 19166 net.cpp:425] lstm1_unit_1 <- gate_input_1
I0925 22:08:05.868515 19166 net.cpp:425] lstm1_unit_1 <- cont_1_lstm1_cont_slice_0_split_1
I0925 22:08:05.868538 19166 net.cpp:399] lstm1_unit_1 -> c_1
I0925 22:08:05.868567 19166 net.cpp:399] lstm1_unit_1 -> h_1
I0925 22:08:05.869087 19166 net.cpp:141] Setting up lstm1_unit_1
I0925 22:08:05.869119 19166 net.cpp:148] Top shape: 1 1 1000 (1000)
I0925 22:08:05.869138 19166 net.cpp:148] Top shape: 1 1 1000 (1000)
I0925 22:08:05.869153 19166 net.cpp:156] Memory required for data: 86016
I0925 22:08:05.869169 19166 layer_factory.hpp:77] Creating layer lstm1_
I0925 22:08:05.869223 19166 net.cpp:91] Creating Layer lstm1_
I0925 22:08:05.869245 19166 net.cpp:425] lstm1_ <- c_1
I0925 22:08:05.869266 19166 net.cpp:399] lstm1_ -> c_T
I0925 22:08:05.885727 19166 net.cpp:141] Setting up lstm1_
I0925 22:08:05.885782 19166 net.cpp:148] Top shape: 1 1 1000 (1000)
I0925 22:08:05.885790 19166 net.cpp:156] Memory required for data: 90016
I0925 22:08:05.885799 19166 layer_factory.hpp:77] Creating layer lstm1_h_concat
I0925 22:08:05.885823 19166 net.cpp:91] Creating Layer lstm1_h_concat
I0925 22:08:05.885833 19166 net.cpp:425] lstm1_h_concat <- h_1
I0925 22:08:05.885865 19166 net.cpp:399] lstm1_h_concat -> h
I0925 22:08:05.885860 19136 net.cpp:141] Setting up embedding
I0925 22:08:05.885898 19136 net.cpp:148] Top shape: 1 1 500 (500)
I0925 22:08:05.885905 19136 net.cpp:156] Memory required for data: 22408
I0925 22:08:05.885923 19136 layer_factory.hpp:77] Creating layer lstm1
I0925 22:08:05.885941 19136 net.cpp:91] Creating Layer lstm1
I0925 22:08:05.885947 19136 net.cpp:425] lstm1 <- embedded_input_frames
I0925 22:08:05.885956 19136 net.cpp:425] lstm1 <- cont_sentence_input_1_split_0
I0925 22:08:05.885977 19136 net.cpp:399] lstm1 -> lstm1
I0925 22:08:05.885994 19136 recurrent_layer.cpp:20] Initializing recurrent layer: assuming input batch contains 1 timesteps of 1 independent streams.
I0925 22:08:05.886075 19142 net.cpp:141] Setting up lstm1_x_transform
I0925 22:08:05.886096 19142 net.cpp:148] Top shape: 1 1 4000 (4000)
I0925 22:08:05.886106 19142 net.cpp:156] Memory required for data: 26016
I0925 22:08:05.886113 19166 net.cpp:141] Setting up lstm1_h_concat
I0925 22:08:05.886126 19166 net.cpp:148] Top shape: 1 1 1000 (1000)
I0925 22:08:05.886126 19142 layer_factory.hpp:77] Creating layer lstm1_W_xc_x_slice
I0925 22:08:05.886132 19166 net.cpp:156] Memory required for data: 94016
I0925 22:08:05.886137 19166 layer_factory.hpp:77] Creating layer h_pseudoloss
I0925 22:08:05.886143 19142 net.cpp:91] Creating Layer lstm1_W_xc_x_slice
I0925 22:08:05.886153 19142 net.cpp:425] lstm1_W_xc_x_slice <- W_xc_x
I0925 22:08:05.886155 19166 net.cpp:91] Creating Layer h_pseudoloss
I0925 22:08:05.886165 19166 net.cpp:425] h_pseudoloss <- h
I0925 22:08:05.886174 19166 net.cpp:399] h_pseudoloss -> h_pseudoloss
I0925 22:08:05.886173 19142 net.cpp:399] lstm1_W_xc_x_slice -> W_xc_x_1
I0925 22:08:05.886330 19142 net.cpp:141] Setting up lstm1_W_xc_x_slice
I0925 22:08:05.886349 19142 net.cpp:148] Top shape: 1 1 4000 (4000)
I0925 22:08:05.886343 19136 net.cpp:49] Initializing net from parameters: 
layer {
  name: "lstm1_"
  type: "Input"
  top: "x"
  top: "cont"
  input_param {
    shape {
      dim: 1
      dim: 1
      dim: 500
    }
    shape {
      dim: 1
      dim: 1
    }
  }
}
layer {
  name: "lstm1_"
  type: "Input"
  top: "c_0"
  top: "h_0"
  input_param {
    shape {
      dim: 1
      dim: 1
      dim: 1000
    }
    shape {
      dim: 1
      dim: 1
      dim: 1000
    }
  }
}
layer {
  name: "lstm1_cont_slice"
  type: "Slice"
  bottom: "cont"
  top: "cont_1"
  slice_param {
    axis: 0
  }
}
layer {
  name: "lstm1_x_transform"
  type: "InnerProduct"
  bottom: "x"
  top: "W_xc_x"
  param {
    name: "W_xc"
  }
  param {
    name: "b_c"
  }
  propagate_down: true
  inner_product_param {
    num_output: 4000
    bias_term: true
    weight_filler {
      type: "uniform"
      min: -0.08
      max: 0.08
    }
    bias_filler {
      type: "constant"
      value: 0
    }
    axis: 2
  }
}
layer {
  name: "lstm1_W_xc_x_slice"
  type: "Slice"
  bottom: "W_xc_x"
  top: "W_xc_x_1"
  slice_param {
    axis: 0
  }
}
layer {
  name: "lstm1_h_conted_0"
  type: "Scale"
  bottom: "h_0"
  bottom: "cont_1"
  top: "h_conted_0"
  scale_param {
    axis: 0
  }
}
layer {
  name: "lstm1_transform_1"
  type: "InnerProduct"
  bottom: "h_conted_0"
  top: "W_hc_h_0"
  param {
    name: "W_hc"
  }
  inner_product_param {
    num_output: 4000
    bias_term: false
    weight_filler {
      type: "uniform"
      min: -0.08
      max: 0.08
    }
    axis: 2
  }
}
layer {
  name: "lstm1_gate_input_1"
  type: "Eltwise"
  bottom: "W_hc_h_0"
  bottom: "W_xc_x_1"
  top: "gate_input_1"
  eltwise_param {
    operation: SUM
  }
}
layer {
  name: "lstm1_unit_1"
  type: "LSTMUnit"
  bottom: "c_0"
  bottom: "gate_input_1"
  bottom: "cont_1"
  top: "c_1"
  top: "h_1"
}
layer {
  name: "lstm1_"
  type: "Split"
  bottom: "c_1"
  top: "c_T"
}
layer {
  name: "lstm1_h_concat"
  type: "Concat"
  bottom: "h_1"
  top: "h"
  concat_param {
    axis: 0
  }
}
layer {
  name: "h_pseudoloss"
  type: "Reduction"
  bottom: "h"
  top: "h_pseudoloss"
  loss_weight: 1
}
I0925 22:08:05.886358 19142 net.cpp:156] Memory required for data: 42016
I0925 22:08:05.886382 19166 net.cpp:141] Setting up h_pseudoloss
I0925 22:08:05.886386 19142 layer_factory.hpp:77] Creating layer lstm1_h_conted_0
I0925 22:08:05.886402 19166 net.cpp:148] Top shape: (1)
I0925 22:08:05.886407 19142 net.cpp:91] Creating Layer lstm1_h_conted_0
I0925 22:08:05.886417 19142 net.cpp:425] lstm1_h_conted_0 <- h_0
…
I0925 22:08:05.886538 19166 net.cpp:219] lstm1_cont_slice does not need backward computation.
I0925 22:08:05.886543 19136 net.cpp:399] lstm1_ -> cont
I0925 22:08:05.886544 19166 net.cpp:219] lstm1_ does not need backward computation.
I0925 22:08:05.886559 19166 net.cpp:219] lstm1_ does not need backward computation.
I0925 22:08:05.886565 19166 net.cpp:261] This network produces output c_T
I0925 22:08:05.886574 19166 net.cpp:261] This network produces output h_pseudoloss
I0925 22:08:05.886608 19166 net.cpp:274] Network initialization done.
I0925 22:08:05.886654 19142 net.cpp:141] Setting up lstm1_h_conted_0
I0925 22:08:05.886667 19142 net.cpp:148] Top shape: 1 1 1000 (1000)
I0925 22:08:05.886672 19142 net.cpp:156] Memory required for data: 46016
I0925 22:08:05.886675 19166 recurrent_layer.cpp:150] Adding parameter 0: W_xc
I0925 22:08:05.886688 19136 net.cpp:141] Setting up lstm1_
I0925 22:08:05.886678 19142 layer_factory.hpp:77] Creating layer lstm1_transform_1
I0925 22:08:05.886695 19166 recurrent_layer.cpp:150] Adding parameter 1: b_c
I0925 22:08:05.886701 19136 net.cpp:148] Top shape: 1 1 500 (500)
I0925 22:08:05.886704 19166 recurrent_layer.cpp:150] Adding parameter 2: W_hc
I0925 22:08:05.886706 19142 net.cpp:91] Creating Layer lstm1_transform_1
I0925 22:08:05.886709 19136 net.cpp:148] Top shape: 1 1 (1)
I0925 22:08:05.886713 19142 net.cpp:425] lstm1_transform_1 <- h_conted_0
I0925 22:08:05.886714 19136 net.cpp:156] Memory required for data: 2004
I0925 22:08:05.886728 19136 layer_factory.hpp:77] Creating layer lstm1_
I0925 22:08:05.886731 19142 net.cpp:399] lstm1_transform_1 -> W_hc_h_0
I0925 22:08:05.886737 19136 net.cpp:91] Creating Layer lstm1_
I0925 22:08:05.886749 19136 net.cpp:399] lstm1_ -> c_0
I0925 22:08:05.886759 19136 net.cpp:399] lstm1_ -> h_0
I0925 22:08:05.894768 19166 net.cpp:141] Setting up lstm1
I0925 22:08:05.894814 19166 net.cpp:148] Top shape: 1 1 1000 (1000)
I0925 22:08:05.894824 19166 net.cpp:156] Memory required for data: 26408
I0925 22:08:05.894839 19136 net.cpp:141] Setting up lstm1_
I0925 22:08:05.894884 19136 net.cpp:148] Top shape: 1 1 1000 (1000)
I0925 22:08:05.894891 19136 net.cpp:148] Top shape: 1 1 1000 (1000)
I0925 22:08:05.894896 19136 net.cpp:156] Memory required for data: 10004
I0925 22:08:05.894906 19136 layer_factory.hpp:77] Creating layer lstm1_cont_slice
I0925 22:08:05.894928 19136 net.cpp:91] Creating Layer lstm1_cont_slice
I0925 22:08:05.894937 19136 net.cpp:425] lstm1_cont_slice <- cont
I0925 22:08:05.894953 19136 net.cpp:399] lstm1_cont_slice -> cont_1
I0925 22:08:05.895014 19136 net.cpp:141] Setting up lstm1_cont_slice
I0925 22:08:05.895026 19136 net.cpp:148] Top shape: 1 1 (1)
I0925 22:08:05.895035 19136 net.cpp:156] Memory required for data: 10008
I0925 22:08:05.895043 19136 layer_factory.hpp:77] Creating layer cont_1_lstm1_cont_slice_0_split
I0925 22:08:05.895061 19136 net.cpp:91] Creating Layer cont_1_lstm1_cont_slice_0_split
I0925 22:08:05.895069 19136 net.cpp:425] cont_1_lstm1_cont_slice_0_split <- cont_1
I0925 22:08:05.895077 19136 net.cpp:399] cont_1_lstm1_cont_slice_0_split -> cont_1_lstm1_cont_slice_0_split_0
I0925 22:08:05.895087 19136 net.cpp:399] cont_1_lstm1_cont_slice_0_split -> cont_1_lstm1_cont_slice_0_split_1
I0925 22:08:05.895156 19136 net.cpp:141] Setting up cont_1_lstm1_cont_slice_0_split
I0925 22:08:05.895169 19136 net.cpp:148] Top shape: 1 1 (1)
I0925 22:08:05.895174 19136 net.cpp:148] Top shape: 1 1 (1)
I0925 22:08:05.895179 19136 net.cpp:156] Memory required for data: 10016
I0925 22:08:05.895184 19136 layer_factory.hpp:77] Creating layer lstm1_x_transform
I0925 22:08:05.895203 19136 net.cpp:91] Creating Layer lstm1_x_transform
I0925 22:08:05.895208 19136 net.cpp:425] lstm1_x_transform <- x
I0925 22:08:05.895217 19136 net.cpp:399] lstm1_x_transform -> W_xc_x
I0925 22:08:05.894852 19166 layer_factory.hpp:77] Creating layer concat
I0925 22:08:05.897626 19166 net.cpp:91] Creating Layer concat
I0925 22:08:05.897642 19166 net.cpp:425] concat <- lstm1
I0925 22:08:05.897655 19166 net.cpp:425] concat <- embedded_input_sentence
I0925 22:08:05.897678 19166 net.cpp:425] concat <- reshaped_stage_indicator
I0925 22:08:05.897691 19166 net.cpp:399] concat -> lstm1_video_sequence
I0925 22:08:05.899679 19166 net.cpp:141] Setting up concat
I0925 22:08:05.899701 19166 net.cpp:148] Top shape: 1 1 1501 (1501)
I0925 22:08:05.899709 19166 net.cpp:156] Memory required for data: 32412
I0925 22:08:05.899718 19166 layer_factory.hpp:77] Creating layer lstm2
I0925 22:08:05.899740 19166 net.cpp:91] Creating Layer lstm2
I0925 22:08:05.899749 19166 net.cpp:425] lstm2 <- lstm1_video_sequence
I0925 22:08:05.899760 19166 net.cpp:425] lstm2 <- cont_sentence_input_1_split_1
I0925 22:08:05.899773 19166 net.cpp:399] lstm2 -> lstm2
I0925 22:08:05.899791 19166 recurrent_layer.cpp:20] Initializing recurrent layer: assuming input batch contains 1 timesteps of 1 independent streams.
I0925 22:08:05.899829 19134 net.cpp:141] Setting up lstm1_x_transform
I0925 22:08:05.899850 19134 net.cpp:148] Top shape: 1 1 4000 (4000)
I0925 22:08:05.899859 19134 net.cpp:156] Memory required for data: 26016
I0925 22:08:05.899878 19134 layer_factory.hpp:77] Creating layer lstm1_W_xc_x_slice
I0925 22:08:05.899896 19134 net.cpp:91] Creating Layer lstm1_W_xc_x_slice
I0925 22:08:05.899906 19134 net.cpp:425] lstm1_W_xc_x_slice <- W_xc_x
I0925 22:08:05.899919 19134 net.cpp:399] lstm1_W_xc_x_slice -> W_xc_x_1
I0925 22:08:05.899976 19134 net.cpp:141] Setting up lstm1_W_xc_x_slice
I0925 22:08:05.899991 19134 net.cpp:148] Top shape: 1 1 4000 (4000)
I0925 22:08:05.899998 19134 net.cpp:156] Memory required for data: 42016
I0925 22:08:05.900007 19134 layer_factory.hpp:77] Creating layer lstm1_h_conted_0
I0925 22:08:05.900020 19134 net.cpp:91] Creating Layer lstm1_h_conted_0
I0925 22:08:05.900028 19134 net.cpp:425] lstm1_h_conted_0 <- h_0
I0925 22:08:05.900038 19134 net.cpp:425] lstm1_h_conted_0 <- cont_1_lstm1_cont_slice_0_split_0
I0925 22:08:05.900055 19134 net.cpp:399] lstm1_h_conted_0 -> h_conted_0
I0925 22:08:05.900188 19166 net.cpp:49] Initializing net from parameters: 
layer {
  name: "lstm2_"
  type: "Input"
  top: "x"
  top: "cont"
  input_param {
    shape {
      dim: 1
      dim: 1
      dim: 1501
    }
    shape {
      dim: 1
      dim: 1
    }
  }
}
layer {
  name: "lstm2_"
  type: "Input"
  top: "c_0"
  top: "h_0"
  input_param {
    shape {
      dim: 1
      dim: 1
      dim: 1000
    }
    shape {
      dim: 1
      dim: 1
      dim: 1000
    }
  }
}
layer {
  name: "lstm2_cont_slice"
  type: "Slice"
  bottom: "cont"
  top: "cont_1"
  slice_param {
    axis: 0
  }
}
layer {
  name: "lstm2_x_transform"
  type: "InnerProduct"
  bottom: "x"
  top: "W_xc_x"
  param {
    name: "W_xc"
  }
  param {
    name: "b_c"
  }
  propagate_down: true
  inner_product_param {
    num_output: 4000
    bias_term: true
    weight_filler {
      type: "uniform"
      min: -0.08
      max: 0.08
    }
    bias_filler {
      type: "constant"
      value: 0
    }
    axis: 2
  }
}
layer {
  name: "lstm2_W_xc_x_slice"
  type: "Slice"
  bottom: "W_xc_x"
  top: "W_xc_x_1"
  slice_param {
    axis: 0
  }
}
layer {
  name: "lstm2_h_conted_0"
  type: "Scale"
  bottom: "h_0"
  bottom: "cont_1"
  top: "h_conted_0"
  scale_param {
    axis: 0
  }
}
layer {
  name: "lstm2_transform_1"
  type: "InnerProduct"
  bottom: "h_conted_0"
  top: "W_hc_h_0"
  param {
    name: "W_hc"
  }
  inner_product_param {
    num_output: 4000
    bias_term: false
    weight_filler {
      type: "uniform"
      min: -0.08
      max: 0.08
    }
    axis: 2
  }
}
layer {
  name: "lstm2_gate_input_1"
  type: "Eltwise"
  bottom: "W_hc_h_0"
  bottom: "W_xc_x_1"
  top: "gate_input_1"
  eltwise_param {
    operation: SUM
  }
}
layer {
  name: "lstm2_unit_1"
  type: "LSTMUnit"
  bottom: "c_0"
  bottom: "gate_input_1"
  bottom: "cont_1"
  top: "c_1"
  top: "h_1"
}
layer {
  name: "lstm2_"
  type: "Split"
  bottom: "c_1"
  top: "c_T"
}
layer {
  name: "lstm2_h_concat"
  type: "Concat"
  bottom: "h_1"
  top: "h"
  concat_param {
    axis: 0
  }
}
layer {
  name: "h_pseudoloss"
  type: "Reduction"
  bottom: "h"
  top: "h_pseudoloss"
  loss_weight: 1
}
I0925 22:08:05.900218 19134 net.cpp:141] Setting up lstm1_h_conted_0
I0925 22:08:05.900234 19134 net.cpp:148] Top shape: 1 1 1000 (1000)
I0925 22:08:05.900243 19134 net.cpp:156] Memory required for data: 46016
I0925 22:08:05.900249 19134 layer_factory.hpp:77] Creating layer lstm1_transform_1
I0925 22:08:05.900269 19134 net.cpp:91] Creating Layer lstm1_transform_1
I0925 22:08:05.900279 19134 net.cpp:425] lstm1_transform_1 <- h_conted_0
I0925 22:08:05.900290 19134 net.cpp:399] lstm1_transform_1 -> W_hc_h_0
I0925 22:08:05.900334 19166 layer_factory.hpp:77] Creating layer lstm2_
I0925 22:08:05.900353 19166 net.cpp:91] Creating Layer lstm2_
I0925 22:08:05.900363 19166 net.cpp:399] lstm2_ -> x
I0925 22:08:05.900379 19166 net.cpp:399] lstm2_ -> cont
I0925 22:08:05.900518 19166 net.cpp:141] Setting up lstm2_
I0925 22:08:05.900534 19166 net.cpp:148] Top shape: 1 1 1501 (1501)
I0925 22:08:05.900545 19166 net.cpp:148] Top shape: 1 1 (1)
I0925 22:08:05.900552 19166 net.cpp:156] Memory required for data: 6008
I0925 22:08:05.900560 19166 layer_factory.hpp:77] Creating layer lstm2_
I0925 22:08:05.900574 19166 net.cpp:91] Creating Layer lstm2_
I0925 22:08:05.900588 19166 net.cpp:399] lstm2_ -> c_0
I0925 22:08:05.900604 19166 net.cpp:399] lstm2_ -> h_0
I0925 22:08:05.910979 19166 net.cpp:141] Setting up lstm2_
I0925 22:08:05.911026 19166 net.cpp:148] Top shape: 1 1 1000 (1000)
I0925 22:08:05.911037 19166 net.cpp:148] Top shape: 1 1 1000 (1000)
I0925 22:08:05.911044 19166 net.cpp:156] Memory required for data: 14008
I0925 22:08:05.911056 19166 layer_factory.hpp:77] Creating layer lstm2_cont_slice
I0925 22:08:05.911078 19166 net.cpp:91] Creating Layer lstm2_cont_slice
I0925 22:08:05.911088 19166 net.cpp:425] lstm2_cont_slice <- cont
I0925 22:08:05.911103 19166 net.cpp:399] lstm2_cont_slice -> cont_1
I0925 22:08:05.911175 19166 net.cpp:141] Setting up lstm2_cont_slice
I0925 22:08:05.911190 19166 net.cpp:148] Top shape: 1 1 (1)
I0925 22:08:05.911196 19166 net.cpp:156] Memory required for data: 14012
I0925 22:08:05.911204 19166 layer_factory.hpp:77] Creating layer cont_1_lstm2_cont_slice_0_split
I0925 22:08:05.911219 19166 net.cpp:91] Creating Layer cont_1_lstm2_cont_slice_0_split
I0925 22:08:05.911228 19166 net.cpp:425] cont_1_lstm2_cont_slice_0_split <- cont_1
I0925 22:08:05.911238 19166 net.cpp:399] cont_1_lstm2_cont_slice_0_split -> cont_1_lstm2_cont_slice_0_split_0
I0925 22:08:05.911252 19166 net.cpp:399] cont_1_lstm2_cont_slice_0_split -> cont_1_lstm2_cont_slice_0_split_1
I0925 22:08:05.922178 19166 net.cpp:141] Setting up cont_1_lstm2_cont_slice_0_split
I0925 22:08:05.922222 19166 net.cpp:148] Top shape: 1 1 (1)
I0925 22:08:05.922233 19166 net.cpp:148] Top shape: 1 1 (1)
I0925 22:08:05.922241 19166 net.cpp:156] Memory required for data: 14020
I0925 22:08:05.922252 19166 layer_factory.hpp:77] Creating layer lstm2_x_transform
I0925 22:08:05.922281 19166 net.cpp:91] Creating Layer lstm2_x_transform
I0925 22:08:05.922289 19166 net.cpp:425] lstm2_x_transform <- x
I0925 22:08:05.922310 19166 net.cpp:399] lstm2_x_transform -> W_xc_x
I0925 22:08:05.922375 19136 net.cpp:141] Setting up lstm1_x_transform
I0925 22:08:05.922415 19136 net.cpp:148] Top shape: 1 1 4000 (4000)
I0925 22:08:05.922420 19136 net.cpp:156] Memory required for data: 26016
I0925 22:08:05.922442 19136 layer_factory.hpp:77] Creating layer lstm1_W_xc_x_slice
I0925 22:08:05.922458 19136 net.cpp:91] Creating Layer lstm1_W_xc_x_slice
I0925 22:08:05.922466 19136 net.cpp:425] lstm1_W_xc_x_slice <- W_xc_x
I0925 22:08:05.922474 19136 net.cpp:399] lstm1_W_xc_x_slice -> W_xc_x_1
I0925 22:08:05.933152 19136 net.cpp:141] Setting up lstm1_W_xc_x_slice
I0925 22:08:05.933200 19142 net.cpp:141] Setting up lstm1_transform_1
I0925 22:08:05.933212 19136 net.cpp:148] Top shape: 1 1 4000 (4000)
I0925 22:08:05.933221 19136 net.cpp:156] Memory required for data: 42016
I0925 22:08:05.933223 19142 net.cpp:148] Top shape: 1 1 4000 (4000)
I0925 22:08:05.933233 19136 layer_factory.hpp:77] Creating layer lstm1_h_conted_0
I0925 22:08:05.933233 19142 net.cpp:156] Memory required for data: 62016
I0925 22:08:05.933257 19136 net.cpp:91] Creating Layer lstm1_h_conted_0
I0925 22:08:05.933260 19142 layer_factory.hpp:77] Creating layer lstm1_gate_input_1
I0925 22:08:05.933267 19136 net.cpp:425] lstm1_h_conted_0 <- h_0
I0925 22:08:05.933279 19136 net.cpp:425] lstm1_h_conted_0 <- cont_1_lstm1_cont_slice_0_split_0
I0925 22:08:05.933290 19136 net.cpp:399] lstm1_h_conted_0 -> h_conted_0
I0925 22:08:05.933291 19142 net.cpp:91] Creating Layer lstm1_gate_input_1
I0925 22:08:05.933305 19142 net.cpp:425] lstm1_gate_input_1 <- W_hc_h_0
I0925 22:08:05.933317 19142 net.cpp:425] lstm1_gate_input_1 <- W_xc_x_1
I0925 22:08:05.933331 19142 net.cpp:399] lstm1_gate_input_1 -> gate_input_1
I0925 22:08:05.933460 19136 net.cpp:141] Setting up lstm1_h_conted_0
I0925 22:08:05.933475 19136 net.cpp:148] Top shape: 1 1 1000 (1000)
I0925 22:08:05.933482 19136 net.cpp:156] Memory required for data: 46016
I0925 22:08:05.933490 19136 layer_factory.hpp:77] Creating layer lstm1_transform_1
I0925 22:08:05.933508 19136 net.cpp:91] Creating Layer lstm1_transform_1
I0925 22:08:05.933516 19136 net.cpp:425] lstm1_transform_1 <- h_conted_0
I0925 22:08:05.933528 19136 net.cpp:399] lstm1_transform_1 -> W_hc_h_0
I0925 22:08:05.933574 19132 net.cpp:141] Setting up embedding
I0925 22:08:05.933611 19132 net.cpp:148] Top shape: 1 1 500 (500)
I0925 22:08:05.933617 19132 net.cpp:156] Memory required for data: 22408
I0925 22:08:05.933639 19132 layer_factory.hpp:77] Creating layer lstm1
I0925 22:08:05.933657 19132 net.cpp:91] Creating Layer lstm1
I0925 22:08:05.933666 19132 net.cpp:425] lstm1 <- embedded_input_frames
I0925 22:08:05.933676 19132 net.cpp:425] lstm1 <- cont_sentence_input_1_split_0
I0925 22:08:05.933686 19132 net.cpp:399] lstm1 -> lstm1
I0925 22:08:05.933704 19132 recurrent_layer.cpp:20] Initializing recurrent layer: assuming input batch contains 1 timesteps of 1 independent streams.
I0925 22:08:05.933987 19132 net.cpp:49] Initializing net from parameters: 
layer {
  name: "lstm1_"
  type: "Input"
  top: "x"
  top: "cont"
  input_param {
    shape {
      dim: 1
      dim: 1
      dim: 500
    }
    shape {
      dim: 1
      dim: 1
    }
  }
}
layer {
  name: "lstm1_"
  type: "Input"
  top: "c_0"
  top: "h_0"
  input_param {
    shape {
      dim: 1
      dim: 1
      dim: 1000
    }
    shape {
      dim: 1
      dim: 1
      dim: 1000
    }
  }
}
layer {
  name: "lstm1_cont_slice"
  type: "Slice"
  bottom: "cont"
  top: "cont_1"
  slice_param {
    axis: 0
  }
}
layer {
  name: "lstm1_x_transform"
  type: "InnerProduct"
  bottom: "x"
  top: "W_xc_x"
  param {
    name: "W_xc"
  }
  param {
    name: "b_c"
  }
  propagate_down: true
  inner_product_param {
    num_output: 4000
    bias_term: true
    weight_filler {
      type: "uniform"
      min: -0.08
      max: 0.08
    }
    bias_filler {
      type: "constant"
      value: 0
    }
    axis: 2
  }
}
layer {
  name: "lstm1_W_xc_x_slice"
  type: "Slice"
  bottom: "W_xc_x"
  top: "W_xc_x_1"
  slice_param {
    axis: 0
  }
}
layer {
  name: "lstm1_h_conted_0"
  type: "Scale"
  bottom: "h_0"
  bottom: "cont_1"
  top: "h_conted_0"
  scale_param {
    axis: 0
  }
}
layer {
  name: "lstm1_transform_1"
  type: "InnerProduct"
  bottom: "h_conted_0"
  top: "W_hc_h_0"
  param {
    name: "W_hc"
  }
  inner_product_param {
    num_output: 4000
    bias_term: false
    weight_filler {
      type: "uniform"
      min: -0.08
      max: 0.08
    }
    axis: 2
  }
}
layer {
  name: "lstm1_gate_input_1"
  type: "Eltwise"
  bottom: "W_hc_h_0"
  bottom: "W_xc_x_1"
  top: "gate_input_1"
  eltwise_param {
    operation: SUM
  }
}
layer {
  name: "lstm1_unit_1"
  type: "LSTMUnit"
  bottom: "c_0"
  bottom: "gate_input_1"
  bottom: "cont_1"
  top: "c_1"
  top: "h_1"
}
layer {
  name: "lstm1_"
  type: "Split"
  bottom: "c_1"
  top: "c_T"
}
layer {
  name: "lstm1_h_concat"
  type: "Concat"
  bottom: "h_1"
  top: "h"
  concat_param {
    axis: 0
  }
}
layer {
  name: "h_pseudoloss"
  type: "Reduction"
  bottom: "h"
  top: "h_pseudoloss"
  loss_weight: 1
}
I0925 22:08:05.934077 19132 layer_factory.hpp:77] Creating layer lstm1_
I0925 22:08:05.934089 19132 net.cpp:91] Creating Layer lstm1_
I0925 22:08:05.934097 19132 net.cpp:399] lstm1_ -> x
I0925 22:08:05.934108 19132 net.cpp:399] lstm1_ -> cont
I0925 22:08:05.946141 19142 net.cpp:141] Setting up lstm1_gate_input_1
I0925 22:08:05.946203 19142 net.cpp:148] Top shape: 1 1 4000 (4000)
I0925 22:08:05.946215 19142 net.cpp:156] Memory required for data: 78016
I0925 22:08:05.946229 19142 layer_factory.hpp:77] Creating layer lstm1_unit_1
I0925 22:08:05.946254 19142 net.cpp:91] Creating Layer lstm1_unit_1
I0925 22:08:05.946264 19142 net.cpp:425] lstm1_unit_1 <- c_0
I0925 22:08:05.946279 19142 net.cpp:425] lstm1_unit_1 <- gate_input_1
I0925 22:08:05.946288 19142 net.cpp:425] lstm1_unit_1 <- cont_1_lstm1_cont_slice_0_split_1
I0925 22:08:05.946313 19134 net.cpp:141] Setting up lstm1_transform_1
I0925 22:08:05.946349 19142 net.cpp:399] lstm1_unit_1 -> c_1
I0925 22:08:05.946357 19134 net.cpp:148] Top shape: 1 1 4000 (4000)
I0925 22:08:05.946367 19134 net.cpp:156] Memory required for data: 62016
I0925 22:08:05.946374 19142 net.cpp:399] lstm1_unit_1 -> h_1
I0925 22:08:05.946393 19134 layer_factory.hpp:77] Creating layer lstm1_gate_input_1
I0925 22:08:05.946404 19132 net.cpp:141] Setting up lstm1_
I0925 22:08:05.946420 19134 net.cpp:91] Creating Layer lstm1_gate_input_1
I0925 22:08:05.946431 19134 net.cpp:425] lstm1_gate_input_1 <- W_hc_h_0
I0925 22:08:05.946442 19134 net.cpp:425] lstm1_gate_input_1 <- W_xc_x_1
I0925 22:08:05.946440 19132 net.cpp:148] Top shape: 1 1 500 (500)
I0925 22:08:05.946458 19134 net.cpp:399] lstm1_gate_input_1 -> gate_input_1
I0925 22:08:05.946466 19132 net.cpp:148] Top shape: 1 1 (1)
I0925 22:08:05.946482 19132 net.cpp:156] Memory required for data: 2004
I0925 22:08:05.946499 19132 layer_factory.hpp:77] Creating layer lstm1_
I0925 22:08:05.946527 19142 net.cpp:141] Setting up lstm1_unit_1
I0925 22:08:05.946532 19132 net.cpp:91] Creating Layer lstm1_
I0925 22:08:05.946543 19142 net.cpp:148] Top shape: 1 1 1000 (1000)
I0925 22:08:05.946554 19142 net.cpp:148] Top shape: 1 1 1000 (1000)
I0925 22:08:05.946563 19142 net.cpp:156] Memory required for data: 86016
I0925 22:08:05.946564 19132 net.cpp:399] lstm1_ -> c_0
I0925 22:08:05.946578 19134 net.cpp:141] Setting up lstm1_gate_input_1
I0925 22:08:05.946570 19142 layer_factory.hpp:77] Creating layer lstm1_
I0925 22:08:05.946607 19134 net.cpp:148] Top shape: 1 1 4000 (4000)
I0925 22:08:05.946616 19142 net.cpp:91] Creating Layer lstm1_
I0925 22:08:05.946619 19134 net.cpp:156] Memory required for data: 78016
I0925 22:08:05.946632 19142 net.cpp:425] lstm1_ <- c_1
I0925 22:08:05.946645 19134 layer_factory.hpp:77] Creating layer lstm1_unit_1
I0925 22:08:05.946650 19132 net.cpp:399] lstm1_ -> h_0
I0925 22:08:05.946660 19142 net.cpp:399] lstm1_ -> c_T
I0925 22:08:05.946666 19134 net.cpp:91] Creating Layer lstm1_unit_1
I0925 22:08:05.946676 19134 net.cpp:425] lstm1_unit_1 <- c_0
I0925 22:08:05.946686 19134 net.cpp:425] lstm1_unit_1 <- gate_input_1
I0925 22:08:05.946696 19134 net.cpp:425] lstm1_unit_1 <- cont_1_lstm1_cont_slice_0_split_1
I0925 22:08:05.946707 19134 net.cpp:399] lstm1_unit_1 -> c_1
I0925 22:08:05.946720 19134 net.cpp:399] lstm1_unit_1 -> h_1
I0925 22:08:05.946946 19142 net.cpp:141] Setting up lstm1_
I0925 22:08:05.946965 19142 net.cpp:148] Top shape: 1 1 1000 (1000)
I0925 22:08:05.946974 19142 net.cpp:156] Memory required for data: 90016
I0925 22:08:05.946983 19142 layer_factory.hpp:77] Creating layer lstm1_h_concat
I0925 22:08:05.947000 19142 net.cpp:91] Creating Layer lstm1_h_concat
I0925 22:08:05.947010 19142 net.cpp:425] lstm1_h_concat <- h_1
I0925 22:08:05.947023 19142 net.cpp:399] lstm1_h_concat -> h
I0925 22:08:05.949229 19132 net.cpp:141] Setting up lstm1_
I0925 22:08:05.949260 19132 net.cpp:148] Top shape: 1 1 1000 (1000)
I0925 22:08:05.949270 19132 net.cpp:148] Top shape: 1 1 1000 (1000)
I0925 22:08:05.949277 19132 net.cpp:156] Memory required for data: 10004
I0925 22:08:05.949286 19132 layer_factory.hpp:77] Creating layer lstm1_cont_slice
I0925 22:08:05.949293 19142 net.cpp:141] Setting up lstm1_h_concat
I0925 22:08:05.949306 19132 net.cpp:91] Creating Layer lstm1_cont_slice
I0925 22:08:05.949316 19132 net.cpp:425] lstm1_cont_slice <- cont
I0925 22:08:05.949316 19142 net.cpp:148] Top shape: 1 1 1000 (1000)
I0925 22:08:05.949326 19142 net.cpp:156] Memory required for data: 94016
I0925 22:08:05.949328 19132 net.cpp:399] lstm1_cont_slice -> cont_1
I0925 22:08:05.949337 19142 layer_factory.hpp:77] Creating layer h_pseudoloss
I0925 22:08:05.949353 19142 net.cpp:91] Creating Layer h_pseudoloss
I0925 22:08:05.949362 19142 net.cpp:425] h_pseudoloss <- h
I0925 22:08:05.949374 19142 net.cpp:399] h_pseudoloss -> h_pseudoloss
I0925 22:08:05.949378 19134 net.cpp:141] Setting up lstm1_unit_1
I0925 22:08:05.949398 19134 net.cpp:148] Top shape: 1 1 1000 (1000)
I0925 22:08:05.949409 19134 net.cpp:148] Top shape: 1 1 1000 (1000)
I0925 22:08:05.949416 19134 net.cpp:156] Memory required for data: 86016
I0925 22:08:05.949424 19134 layer_factory.hpp:77] Creating layer lstm1_
I0925 22:08:05.949427 19132 net.cpp:141] Setting up lstm1_cont_slice
I0925 22:08:05.949437 19134 net.cpp:91] Creating Layer lstm1_
I0925 22:08:05.949442 19132 net.cpp:148] Top shape: 1 1 (1)
I0925 22:08:05.949446 19134 net.cpp:425] lstm1_ <- c_1
I0925 22:08:05.949450 19132 net.cpp:156] Memory required for data: 10008
I0925 22:08:05.949458 19132 layer_factory.hpp:77] Creating layer cont_1_lstm1_cont_slice_0_split
I0925 22:08:05.949462 19134 net.cpp:399] lstm1_ -> c_T
I0925 22:08:05.949472 19132 net.cpp:91] Creating Layer cont_1_lstm1_cont_slice_0_split
I0925 22:08:05.949481 19132 net.cpp:425] cont_1_lstm1_cont_slice_0_split <- cont_1
I0925 22:08:05.949492 19132 net.cpp:399] cont_1_lstm1_cont_slice_0_split -> cont_1_lstm1_cont_slice_0_split_0
I0925 22:08:05.949504 19132 net.cpp:399] cont_1_lstm1_cont_slice_0_split -> cont_1_lstm1_cont_slice_0_split_1
I0925 22:08:05.949589 19134 net.cpp:141] Setting up lstm1_
I0925 22:08:05.949605 19134 net.cpp:148] Top shape: 1 1 1000 (1000)
I0925 22:08:05.949612 19134 net.cpp:156] Memory required for data: 90016
I0925 22:08:05.949620 19134 layer_factory.hpp:77] Creating layer lstm1_h_concat
I0925 22:08:05.949633 19134 net.cpp:91] Creating Layer lstm1_h_concat
I0925 22:08:05.949641 19134 net.cpp:425] lstm1_h_concat <- h_1
I0925 22:08:05.949653 19134 net.cpp:399] lstm1_h_concat -> h
I0925 22:08:05.949718 19142 net.cpp:141] Setting up h_pseudoloss
I0925 22:08:05.949738 19142 net.cpp:148] Top shape: (1)
I0925 22:08:05.949746 19142 net.cpp:151]     with loss weight 1
I0925 22:08:05.949767 19142 net.cpp:156] Memory required for data: 94020
I0925 22:08:05.949776 19142 net.cpp:217] h_pseudoloss needs backward computation.
I0925 22:08:05.949785 19142 net.cpp:217] lstm1_h_concat needs backward computation.
I0925 22:08:05.949793 19142 net.cpp:219] lstm1_ does not need backward computation.
I0925 22:08:05.949802 19142 net.cpp:217] lstm1_unit_1 needs backward computation.
I0925 22:08:05.949812 19142 net.cpp:217] lstm1_gate_input_1 needs backward computation.
I0925 22:08:05.949815 19134 net.cpp:141] Setting up lstm1_h_concat
I0925 22:08:05.949821 19142 net.cpp:217] lstm1_transform_1 needs backward computation.
I0925 22:08:05.949831 19134 net.cpp:148] Top shape: 1 1 1000 (1000)
I0925 22:08:05.949831 19142 net.cpp:219] lstm1_h_conted_0 does not need backward computation.
I0925 22:08:05.949838 19134 net.cpp:156] Memory required for data: 94016
I0925 22:08:05.949843 19142 net.cpp:217] lstm1_W_xc_x_slice needs backward computation.
I0925 22:08:05.949848 19134 layer_factory.hpp:77] Creating layer h_pseudoloss
I0925 22:08:05.949853 19142 net.cpp:217] lstm1_x_transform needs backward computation.
I0925 22:08:05.949862 19134 net.cpp:91] Creating Layer h_pseudoloss
I0925 22:08:05.949863 19142 net.cpp:219] cont_1_lstm1_cont_slice_0_split does not need backward computation.
I0925 22:08:05.949872 19134 net.cpp:425] h_pseudoloss <- h
I0925 22:08:05.949862 19132 net.cpp:141] Setting up cont_1_lstm1_cont_slice_0_split
I0925 22:08:05.949885 19134 net.cpp:399] h_pseudoloss -> h_pseudoloss
I0925 22:08:05.949892 19132 net.cpp:148] Top shape: 1 1 (1)
I0925 22:08:05.949901 19132 net.cpp:148] Top shape: 1 1 (1)
I0925 22:08:05.949903 19142 net.cpp:219] lstm1_cont_slice does not need backward computation.
I0925 22:08:05.949908 19132 net.cpp:156] Memory required for data: 10016
I0925 22:08:05.949918 19132 layer_factory.hpp:77] Creating layer lstm1_x_transform
I0925 22:08:05.949918 19142 net.cpp:219] lstm1_ does not need backward computation.
I0925 22:08:05.949929 19142 net.cpp:219] lstm1_ does not need backward computation.
…
I0925 22:08:05.952601 19134 net.cpp:219] lstm1_ does not need backward computation.
I0925 22:08:05.952608 19134 net.cpp:261] This network produces output c_T
I0925 22:08:05.952615 19134 net.cpp:261] This network produces output h_pseudoloss
I0925 22:08:05.952638 19134 net.cpp:274] Network initialization done.
I0925 22:08:05.952699 19134 recurrent_layer.cpp:150] Adding parameter 0: W_xc
I0925 22:08:05.952710 19134 recurrent_layer.cpp:150] Adding parameter 1: b_c
I0925 22:08:05.952718 19134 recurrent_layer.cpp:150] Adding parameter 2: W_hc
I0925 22:08:05.952860 19134 net.cpp:141] Setting up lstm1
I0925 22:08:05.952875 19134 net.cpp:148] Top shape: 1 1 1000 (1000)
I0925 22:08:05.952883 19134 net.cpp:156] Memory required for data: 26408
I0925 22:08:05.952904 19134 layer_factory.hpp:77] Creating layer concat
I0925 22:08:05.952919 19134 net.cpp:91] Creating Layer concat
I0925 22:08:05.952927 19134 net.cpp:425] concat <- lstm1
I0925 22:08:05.952937 19134 net.cpp:425] concat <- embedded_input_sentence
I0925 22:08:05.952947 19134 net.cpp:425] concat <- reshaped_stage_indicator
I0925 22:08:05.952957 19134 net.cpp:399] concat -> lstm1_video_sequence
I0925 22:08:05.953006 19134 net.cpp:141] Setting up concat
I0925 22:08:05.953019 19134 net.cpp:148] Top shape: 1 1 1501 (1501)
I0925 22:08:05.953027 19134 net.cpp:156] Memory required for data: 32412
I0925 22:08:05.953034 19134 layer_factory.hpp:77] Creating layer lstm2
I0925 22:08:05.953052 19134 net.cpp:91] Creating Layer lstm2
I0925 22:08:05.953060 19134 net.cpp:425] lstm2 <- lstm1_video_sequence
I0925 22:08:05.953070 19134 net.cpp:425] lstm2 <- cont_sentence_input_1_split_1
I0925 22:08:05.953081 19134 net.cpp:399] lstm2 -> lstm2
I0925 22:08:05.953097 19134 recurrent_layer.cpp:20] Initializing recurrent layer: assuming input batch contains 1 timesteps of 1 independent streams.
I0925 22:08:05.953447 19134 net.cpp:49] Initializing net from parameters: 
layer {
  name: "lstm2_"
  type: "Input"
  top: "x"
  top: "cont"
  input_param {
    shape {
      dim: 1
      dim: 1
      dim: 1501
    }
    shape {
      dim: 1
      dim: 1
    }
  }
}
layer {
  name: "lstm2_"
  type: "Input"
  top: "c_0"
  top: "h_0"
  input_param {
    shape {
      dim: 1
      dim: 1
      dim: 1000
    }
    shape {
      dim: 1
      dim: 1
      dim: 1000
    }
  }
}
layer {
  name: "lstm2_cont_slice"
  type: "Slice"
  bottom: "cont"
  top: "cont_1"
  slice_param {
    axis: 0
  }
}
layer {
  name: "lstm2_x_transform"
  type: "InnerProduct"
  bottom: "x"
  top: "W_xc_x"
  param {
    name: "W_xc"
  }
  param {
    name: "b_c"
  }
  propagate_down: true
  inner_product_param {
    num_output: 4000
    bias_term: true
    weight_filler {
      type: "uniform"
      min: -0.08
      max: 0.08
    }
    bias_filler {
      type: "constant"
      value: 0
    }
    axis: 2
  }
}
layer {
  name: "lstm2_W_xc_x_slice"
  type: "Slice"
  bottom: "W_xc_x"
  top: "W_xc_x_1"
  slice_param {
    axis: 0
  }
}
layer {
  name: "lstm2_h_conted_0"
  type: "Scale"
  bottom: "h_0"
  bottom: "cont_1"
  top: "h_conted_0"
  scale_param {
    axis: 0
  }
}
layer {
  name: "lstm2_transform_1"
  type: "InnerProduct"
  bottom: "h_conted_0"
  top: "W_hc_h_0"
  param {
    name: "W_hc"
  }
  inner_product_param {
    num_output: 4000
    bias_term: false
    weight_filler {
      type: "uniform"
      min: -0.08
      max: 0.08
    }
    axis: 2
  }
}
layer {
  name: "lstm2_gate_input_1"
  type: "Eltwise"
  bottom: "W_hc_h_0"
  bottom: "W_xc_x_1"
  top: "gate_input_1"
  eltwise_param {
    operation: SUM
  }
}
layer {
  name: "lstm2_unit_1"
  type: "LSTMUnit"
  bottom: "c_0"
  bottom: "gate_input_1"
  bottom: "cont_1"
  top: "c_1"
  top: "h_1"
}
layer {
  name: "lstm2_"
  type: "Split"
  bottom: "c_1"
  top: "c_T"
}
layer {
  name: "lstm2_h_concat"
  type: "Concat"
  bottom: "h_1"
  top: "h"
  concat_param {
    axis: 0
  }
}
layer {
  name: "h_pseudoloss"
  type: "Reduction"
  bottom: "h"
  top: "h_pseudoloss"
  loss_weight: 1
}
I0925 22:08:05.953591 19134 layer_factory.hpp:77] Creating layer lstm2_
I0925 22:08:05.953608 19134 net.cpp:91] Creating Layer lstm2_
I0925 22:08:05.953619 19134 net.cpp:399] lstm2_ -> x
I0925 22:08:05.953634 19134 net.cpp:399] lstm2_ -> cont
I0925 22:08:05.953711 19134 net.cpp:141] Setting up lstm2_
I0925 22:08:05.953725 19134 net.cpp:148] Top shape: 1 1 1501 (1501)
I0925 22:08:05.953735 19134 net.cpp:148] Top shape: 1 1 (1)
I0925 22:08:05.953742 19134 net.cpp:156] Memory required for data: 6008
I0925 22:08:05.953750 19134 layer_factory.hpp:77] Creating layer lstm2_
I0925 22:08:05.953768 19134 net.cpp:91] Creating Layer lstm2_
I0925 22:08:05.953779 19134 net.cpp:399] lstm2_ -> c_0
I0925 22:08:05.953794 19134 net.cpp:399] lstm2_ -> h_0
I0925 22:08:05.953867 19134 net.cpp:141] Setting up lstm2_
I0925 22:08:05.953881 19134 net.cpp:148] Top shape: 1 1 1000 (1000)
I0925 22:08:05.953891 19134 net.cpp:148] Top shape: 1 1 1000 (1000)
I0925 22:08:05.953898 19134 net.cpp:156] Memory required for data: 14008
I0925 22:08:05.953905 19134 layer_factory.hpp:77] Creating layer lstm2_cont_slice
I0925 22:08:05.953918 19134 net.cpp:91] Creating Layer lstm2_cont_slice
I0925 22:08:05.953927 19134 net.cpp:425] lstm2_cont_slice <- cont
I0925 22:08:05.953938 19134 net.cpp:399] lstm2_cont_slice -> cont_1
I0925 22:08:05.953986 19134 net.cpp:141] Setting up lstm2_cont_slice
I0925 22:08:05.954000 19134 net.cpp:148] Top shape: 1 1 (1)
I0925 22:08:05.954007 19134 net.cpp:156] Memory required for data: 14012
I0925 22:08:05.954015 19134 layer_factory.hpp:77] Creating layer cont_1_lstm2_cont_slice_0_split
I0925 22:08:05.954025 19134 net.cpp:91] Creating Layer cont_1_lstm2_cont_slice_0_split
I0925 22:08:05.954033 19134 net.cpp:425] cont_1_lstm2_cont_slice_0_split <- cont_1
I0925 22:08:05.954047 19134 net.cpp:399] cont_1_lstm2_cont_slice_0_split -> cont_1_lstm2_cont_slice_0_split_0
I0925 22:08:05.954061 19134 net.cpp:399] cont_1_lstm2_cont_slice_0_split -> cont_1_lstm2_cont_slice_0_split_1
I0925 22:08:05.954138 19134 net.cpp:141] Setting up cont_1_lstm2_cont_slice_0_split
I0925 22:08:05.954154 19134 net.cpp:148] Top shape: 1 1 (1)
I0925 22:08:05.954164 19134 net.cpp:148] Top shape: 1 1 (1)
I0925 22:08:05.954171 19134 net.cpp:156] Memory required for data: 14020
I0925 22:08:05.954180 19134 layer_factory.hpp:77] Creating layer lstm2_x_transform
I0925 22:08:05.954197 19134 net.cpp:91] Creating Layer lstm2_x_transform
I0925 22:08:05.954205 19134 net.cpp:425] lstm2_x_transform <- x
I0925 22:08:05.954221 19134 net.cpp:399] lstm2_x_transform -> W_xc_x
I0925 22:08:05.983026 19132 net.cpp:141] Setting up lstm1_x_transform
I0925 22:08:05.983079 19132 net.cpp:148] Top shape: 1 1 4000 (4000)
I0925 22:08:05.983088 19132 net.cpp:156] Memory required for data: 26016
I0925 22:08:05.983114 19132 layer_factory.hpp:77] Creating layer lstm1_W_xc_x_slice
I0925 22:08:05.983132 19132 net.cpp:91] Creating Layer lstm1_W_xc_x_slice
I0925 22:08:05.983142 19132 net.cpp:425] lstm1_W_xc_x_slice <- W_xc_x
I0925 22:08:05.983160 19132 net.cpp:399] lstm1_W_xc_x_slice -> W_xc_x_1
I0925 22:08:05.983217 19132 net.cpp:141] Setting up lstm1_W_xc_x_slice
I0925 22:08:05.983230 19132 net.cpp:148] Top shape: 1 1 4000 (4000)
I0925 22:08:05.983237 19132 net.cpp:156] Memory required for data: 42016
I0925 22:08:05.983245 19132 layer_factory.hpp:77] Creating layer lstm1_h_conted_0
I0925 22:08:05.983259 19132 net.cpp:91] Creating Layer lstm1_h_conted_0
I0925 22:08:05.983268 19132 net.cpp:425] lstm1_h_conted_0 <- h_0
I0925 22:08:05.983276 19132 net.cpp:425] lstm1_h_conted_0 <- cont_1_lstm1_cont_slice_0_split_0
I0925 22:08:05.983288 19132 net.cpp:399] lstm1_h_conted_0 -> h_conted_0
I0925 22:08:05.983419 19132 net.cpp:141] Setting up lstm1_h_conted_0
I0925 22:08:05.983433 19132 net.cpp:148] Top shape: 1 1 1000 (1000)
I0925 22:08:05.983440 19132 net.cpp:156] Memory required for data: 46016
I0925 22:08:05.983448 19132 layer_factory.hpp:77] Creating layer lstm1_transform_1
I0925 22:08:05.983465 19132 net.cpp:91] Creating Layer lstm1_transform_1
I0925 22:08:05.983472 19132 net.cpp:425] lstm1_transform_1 <- h_conted_0
I0925 22:08:05.983489 19132 net.cpp:399] lstm1_transform_1 -> W_hc_h_0
I0925 22:08:05.992681 19136 net.cpp:141] Setting up lstm1_transform_1
I0925 22:08:05.992722 19142 net.cpp:141] Setting up lstm1
I0925 22:08:05.992755 19136 net.cpp:148] Top shape: 1 1 4000 (4000)
I0925 22:08:05.992764 19142 net.cpp:148] Top shape: 1 1 1000 (1000)
I0925 22:08:05.992774 19142 net.cpp:156] Memory required for data: 26408
I0925 22:08:05.992774 19136 net.cpp:156] Memory required for data: 62016
I0925 22:08:05.992810 19142 layer_factory.hpp:77] Creating layer concat
I0925 22:08:05.992815 19136 layer_factory.hpp:77] Creating layer lstm1_gate_input_1
I0925 22:08:05.992835 19142 net.cpp:91] Creating Layer concat
I0925 22:08:05.992847 19142 net.cpp:425] concat <- lstm1
I0925 22:08:05.992861 19136 net.cpp:91] Creating Layer lstm1_gate_input_1
I0925 22:08:05.992861 19142 net.cpp:425] concat <- embedded_input_sentence
I0925 22:08:05.992892 19142 net.cpp:425] concat <- reshaped_stage_indicator
I0925 22:08:05.992892 19136 net.cpp:425] lstm1_gate_input_1 <- W_hc_h_0
I0925 22:08:05.992908 19142 net.cpp:399] concat -> lstm1_video_sequence
I0925 22:08:05.992918 19136 net.cpp:425] lstm1_gate_input_1 <- W_xc_x_1
I0925 22:08:05.992943 19136 net.cpp:399] lstm1_gate_input_1 -> gate_input_1
I0925 22:08:05.995565 19142 net.cpp:141] Setting up concat
I0925 22:08:05.995587 19142 net.cpp:148] Top shape: 1 1 1501 (1501)
I0925 22:08:05.995594 19142 net.cpp:156] Memory required for data: 32412
I0925 22:08:05.995599 19142 layer_factory.hpp:77] Creating layer lstm2
I0925 22:08:05.995616 19142 net.cpp:91] Creating Layer lstm2
I0925 22:08:05.995622 19142 net.cpp:425] lstm2 <- lstm1_video_sequence
I0925 22:08:05.995628 19142 net.cpp:425] lstm2 <- cont_sentence_input_1_split_1
I0925 22:08:05.995637 19142 net.cpp:399] lstm2 -> lstm2
I0925 22:08:05.995651 19142 recurrent_layer.cpp:20] Initializing recurrent layer: assuming input batch contains 1 timesteps of 1 independent streams.
I0925 22:08:05.995688 19136 net.cpp:141] Setting up lstm1_gate_input_1
I0925 22:08:05.995720 19136 net.cpp:148] Top shape: 1 1 4000 (4000)
I0925 22:08:05.995728 19136 net.cpp:156] Memory required for data: 78016
I0925 22:08:05.995739 19136 layer_factory.hpp:77] Creating layer lstm1_unit_1
I0925 22:08:05.995756 19136 net.cpp:91] Creating Layer lstm1_unit_1
I0925 22:08:05.995766 19136 net.cpp:425] lstm1_unit_1 <- c_0
I0925 22:08:05.995779 19136 net.cpp:425] lstm1_unit_1 <- gate_input_1
I0925 22:08:05.995786 19136 net.cpp:425] lstm1_unit_1 <- cont_1_lstm1_cont_slice_0_split_1
I0925 22:08:05.995798 19136 net.cpp:399] lstm1_unit_1 -> c_1
I0925 22:08:05.995815 19136 net.cpp:399] lstm1_unit_1 -> h_1
I0925 22:08:05.995915 19166 net.cpp:141] Setting up lstm2_x_transform
I0925 22:08:05.995936 19166 net.cpp:148] Top shape: 1 1 4000 (4000)
I0925 22:08:05.995945 19166 net.cpp:156] Memory required for data: 30020
I0925 22:08:05.995965 19166 layer_factory.hpp:77] Creating layer lstm2_W_xc_x_slice
I0925 22:08:05.995980 19166 net.cpp:91] Creating Layer lstm2_W_xc_x_slice
I0925 22:08:05.995990 19166 net.cpp:425] lstm2_W_xc_x_slice <- W_xc_x
I0925 22:08:05.995995 19142 net.cpp:49] Initializing net from parameters: 
layer {
  name: "lstm2_"
  type: "Input"
  top: "x"
  top: "cont"
  input_param {
    shape {
      dim: 1
      dim: 1
      dim: 1501
    }
    shape {
      dim: 1
      dim: 1
    }
  }
}
layer {
  name: "lstm2_"
  type: "Input"
  top: "c_0"
  top: "h_0"
  input_param {
    shape {
      dim: 1
      dim: 1
      dim: 1000
    }
    shape {
      dim: 1
      dim: 1
      dim: 1000
    }
  }
}
layer {
  name: "lstm2_cont_slice"
  type: "Slice"
  bottom: "cont"
  top: "cont_1"
  slice_param {
    axis: 0
  }
}
layer {
  name: "lstm2_x_transform"
  type: "InnerProduct"
  bottom: "x"
  top: "W_xc_x"
  param {
    name: "W_xc"
  }
  param {
    name: "b_c"
  }
  propagate_down: true
  inner_product_param {
    num_output: 4000
    bias_term: true
    weight_filler {
      type: "uniform"
      min: -0.08
      max: 0.08
    }
    bias_filler {
      type: "constant"
      value: 0
    }
    axis: 2
  }
}
layer {
  name: "lstm2_W_xc_x_slice"
  type: "Slice"
  bottom: "W_xc_x"
  top: "W_xc_x_1"
  slice_param {
    axis: 0
  }
}
layer {
  name: "lstm2_h_conted_0"
  type: "Scale"
  bottom: "h_0"
  bottom: "cont_1"
  top: "h_conted_0"
  scale_param {
    axis: 0
  }
}
layer {
  name: "lstm2_transform_1"
  type: "InnerProduct"
  bottom: "h_conted_0"
  top: "W_hc_h_0"
  param {
    name: "W_hc"
  }
  inner_product_param {
    num_output: 4000
    bias_term: false
    weight_filler {
      type: "uniform"
      min: -0.08
      max: 0.08
    }
    axis: 2
  }
}
layer {
  name: "lstm2_gate_input_1"
  type: "Eltwise"
  bottom: "W_hc_h_0"
  bottom: "W_xc_x_1"
  top: "gate_input_1"
  eltwise_param {
    operation: SUM
  }
}
layer {
  name: "lstm2_unit_1"
  type: "LSTMUnit"
  bottom: "c_0"
  bottom: "gate_input_1"
  bottom: "cont_1"
  top: "c_1"
  top: "h_1"
}
layer {
  name: "lstm2_"
  type: "Split"
  bottom: "c_1"
  top: "c_T"
}
layer {
  name: "lstm2_h_concat"
  type: "Concat"
  bottom: "h_1"
  top: "h"
  concat_param {
    axis: 0
  }
}
layer {
  name: "h_pseudoloss"
  type: "Reduction"
  bottom: "h"
  top: "h_pseudoloss"
  loss_weight: 1
}
I0925 22:08:05.996011 19166 net.cpp:399] lstm2_W_xc_x_slice -> W_xc_x_1
I0925 22:08:05.996016 19136 net.cpp:141] Setting up lstm1_unit_1
I0925 22:08:05.996031 19136 net.cpp:148] Top shape: 1 1 1000 (1000)
I0925 22:08:05.996042 19136 net.cpp:148] Top shape: 1 1 1000 (1000)
I0925 22:08:05.996048 19136 net.cpp:156] Memory required for data: 86016
I0925 22:08:05.996057 19136 layer_factory.hpp:77] Creating layer lstm1_
I0925 22:08:05.996074 19136 net.cpp:91] Creating Layer lstm1_
I0925 22:08:05.996078 19166 net.cpp:141] Setting up lstm2_W_xc_x_slice
I0925 22:08:05.996083 19136 net.cpp:425] lstm1_ <- c_1
I0925 22:08:05.996093 19166 net.cpp:148] Top shape: 1 1 4000 (4000)
I0925 22:08:05.996095 19136 net.cpp:399] lstm1_ -> c_T
I0925 22:08:05.996109 19166 net.cpp:156] Memory required for data: 46020
I0925 22:08:05.996119 19166 layer_factory.hpp:77] Creating layer lstm2_h_conted_0
I0925 22:08:05.996131 19166 net.cpp:91] Creating Layer lstm2_h_conted_0
I0925 22:08:05.996134 19142 layer_factory.hpp:77] Creating layer lstm2_
I0925 22:08:05.996140 19166 net.cpp:425] lstm2_h_conted_0 <- h_0
I0925 22:08:05.996165 19142 net.cpp:91] Creating Layer lstm2_
I0925 22:08:05.996167 19166 net.cpp:425] lstm2_h_conted_0 <- cont_1_lstm2_cont_slice_0_split_0
I0925 22:08:05.996182 19142 net.cpp:399] lstm2_ -> x
I0925 22:08:05.996196 19166 net.cpp:399] lstm2_h_conted_0 -> h_conted_0
I0925 22:08:05.996201 19142 net.cpp:399] lstm2_ -> cont
I0925 22:08:05.996286 19136 net.cpp:141] Setting up lstm1_
I0925 22:08:05.996301 19136 net.cpp:148] Top shape: 1 1 1000 (1000)
I0925 22:08:05.996309 19136 net.cpp:156] Memory required for data: 90016
I0925 22:08:05.996316 19136 layer_factory.hpp:77] Creating layer lstm1_h_concat
I0925 22:08:05.996330 19136 net.cpp:91] Creating Layer lstm1_h_concat
I0925 22:08:05.996336 19136 net.cpp:425] lstm1_h_concat <- h_1
I0925 22:08:05.996351 19136 net.cpp:399] lstm1_h_concat -> h
I0925 22:08:05.996435 19166 net.cpp:141] Setting up lstm2_h_conted_0
I0925 22:08:05.996450 19166 net.cpp:148] Top shape: 1 1 1000 (1000)
I0925 22:08:05.996459 19166 net.cpp:156] Memory required for data: 50020
I0925 22:08:05.996466 19166 layer_factory.hpp:77] Creating layer lstm2_transform_1
I0925 22:08:05.996484 19166 net.cpp:91] Creating Layer lstm2_transform_1
I0925 22:08:05.996492 19166 net.cpp:425] lstm2_transform_1 <- h_conted_0
I0925 22:08:05.996512 19166 net.cpp:399] lstm2_transform_1 -> W_hc_h_0
I0925 22:08:05.997992 19136 net.cpp:141] Setting up lstm1_h_concat
I0925 22:08:05.998014 19136 net.cpp:148] Top shape: 1 1 1000 (1000)
I0925 22:08:05.998021 19136 net.cpp:156] Memory required for data: 94016
I0925 22:08:05.998029 19136 layer_factory.hpp:77] Creating layer h_pseudoloss
I0925 22:08:05.998044 19136 net.cpp:91] Creating Layer h_pseudoloss
I0925 22:08:05.998051 19136 net.cpp:425] h_pseudoloss <- h
I0925 22:08:05.998064 19136 net.cpp:399] h_pseudoloss -> h_pseudoloss
I0925 22:08:05.998072 19142 net.cpp:141] Setting up lstm2_
I0925 22:08:05.998100 19142 net.cpp:148] Top shape: 1 1 1501 (1501)
I0925 22:08:05.998106 19142 net.cpp:148] Top shape: 1 1 (1)
I0925 22:08:05.998111 19142 net.cpp:156] Memory required for data: 6008
I0925 22:08:05.998117 19142 layer_factory.hpp:77] Creating layer lstm2_
I0925 22:08:05.998132 19142 net.cpp:91] Creating Layer lstm2_
I0925 22:08:05.998168 19142 net.cpp:399] lstm2_ -> c_0
I0925 22:08:05.998186 19142 net.cpp:399] lstm2_ -> h_0
I0925 22:08:06.009511 19142 net.cpp:141] Setting up lstm2_
I0925 22:08:06.009564 19142 net.cpp:148] Top shape: 1 1 1000 (1000)
I0925 22:08:06.009574 19142 net.cpp:148] Top shape: 1 1 1000 (1000)
I0925 22:08:06.009579 19142 net.cpp:156] Memory required for data: 14008
I0925 22:08:06.009590 19142 layer_factory.hpp:77] Creating layer lstm2_cont_slice
I0925 22:08:06.009600 19136 net.cpp:141] Setting up h_pseudoloss
I0925 22:08:06.009618 19142 net.cpp:91] Creating Layer lstm2_cont_slice
I0925 22:08:06.009624 19136 net.cpp:148] Top shape: (1)
I0925 22:08:06.009629 19142 net.cpp:425] lstm2_cont_slice <- cont
…
I0925 22:08:06.009778 19136 net.cpp:219] lstm1_ does not need backward computation.
I0925 22:08:06.009784 19136 net.cpp:261] This network produces output c_T
I0925 22:08:06.009793 19136 net.cpp:261] This network produces output h_pseudoloss
I0925 22:08:06.009816 19136 net.cpp:274] Network initialization done.
I0925 22:08:06.009889 19136 recurrent_layer.cpp:150] Adding parameter 0: W_xc
I0925 22:08:06.009901 19136 recurrent_layer.cpp:150] Adding parameter 1: b_c
I0925 22:08:06.009907 19136 recurrent_layer.cpp:150] Adding parameter 2: W_hc
I0925 22:08:06.010973 19142 net.cpp:141] Setting up lstm2_cont_slice
I0925 22:08:06.010989 19142 net.cpp:148] Top shape: 1 1 (1)
I0925 22:08:06.010994 19142 net.cpp:156] Memory required for data: 14012
I0925 22:08:06.011000 19142 layer_factory.hpp:77] Creating layer cont_1_lstm2_cont_slice_0_split
I0925 22:08:06.011018 19142 net.cpp:91] Creating Layer cont_1_lstm2_cont_slice_0_split
I0925 22:08:06.011070 19142 net.cpp:425] cont_1_lstm2_cont_slice_0_split <- cont_1
I0925 22:08:06.011083 19142 net.cpp:399] cont_1_lstm2_cont_slice_0_split -> cont_1_lstm2_cont_slice_0_split_0
I0925 22:08:06.011098 19142 net.cpp:399] cont_1_lstm2_cont_slice_0_split -> cont_1_lstm2_cont_slice_0_split_1
I0925 22:08:06.011188 19142 net.cpp:141] Setting up cont_1_lstm2_cont_slice_0_split
I0925 22:08:06.011203 19142 net.cpp:148] Top shape: 1 1 (1)
I0925 22:08:06.011209 19142 net.cpp:148] Top shape: 1 1 (1)
I0925 22:08:06.011214 19142 net.cpp:156] Memory required for data: 14020
I0925 22:08:06.011219 19142 layer_factory.hpp:77] Creating layer lstm2_x_transform
I0925 22:08:06.011240 19136 net.cpp:141] Setting up lstm1
I0925 22:08:06.011260 19136 net.cpp:148] Top shape: 1 1 1000 (1000)
I0925 22:08:06.011267 19136 net.cpp:156] Memory required for data: 26408
I0925 22:08:06.011286 19142 net.cpp:91] Creating Layer lstm2_x_transform
I0925 22:08:06.011291 19136 layer_factory.hpp:77] Creating layer concat
I0925 22:08:06.011301 19142 net.cpp:425] lstm2_x_transform <- x
I0925 22:08:06.011309 19136 net.cpp:91] Creating Layer concat
I0925 22:08:06.011317 19142 net.cpp:399] lstm2_x_transform -> W_xc_x
I0925 22:08:06.011320 19136 net.cpp:425] concat <- lstm1
I0925 22:08:06.011332 19136 net.cpp:425] concat <- embedded_input_sentence
I0925 22:08:06.011340 19136 net.cpp:425] concat <- reshaped_stage_indicator
I0925 22:08:06.011351 19136 net.cpp:399] concat -> lstm1_video_sequence
I0925 22:08:06.012131 19136 net.cpp:141] Setting up concat
I0925 22:08:06.012147 19136 net.cpp:148] Top shape: 1 1 1501 (1501)
I0925 22:08:06.012154 19136 net.cpp:156] Memory required for data: 32412
I0925 22:08:06.012163 19136 layer_factory.hpp:77] Creating layer lstm2
I0925 22:08:06.012181 19136 net.cpp:91] Creating Layer lstm2
I0925 22:08:06.012190 19136 net.cpp:425] lstm2 <- lstm1_video_sequence
I0925 22:08:06.012200 19136 net.cpp:425] lstm2 <- cont_sentence_input_1_split_1
I0925 22:08:06.012213 19136 net.cpp:399] lstm2 -> lstm2
I0925 22:08:06.012231 19136 recurrent_layer.cpp:20] Initializing recurrent layer: assuming input batch contains 1 timesteps of 1 independent streams.
I0925 22:08:06.012610 19136 net.cpp:49] Initializing net from parameters: 
layer {
  name: "lstm2_"
  type: "Input"
  top: "x"
  top: "cont"
  input_param {
    shape {
      dim: 1
      dim: 1
      dim: 1501
    }
    shape {
      dim: 1
      dim: 1
    }
  }
}
layer {
  name: "lstm2_"
  type: "Input"
  top: "c_0"
  top: "h_0"
  input_param {
    shape {
      dim: 1
      dim: 1
      dim: 1000
    }
    shape {
      dim: 1
      dim: 1
      dim: 1000
    }
  }
}
layer {
  name: "lstm2_cont_slice"
  type: "Slice"
  bottom: "cont"
  top: "cont_1"
  slice_param {
    axis: 0
  }
}
layer {
  name: "lstm2_x_transform"
  type: "InnerProduct"
  bottom: "x"
  top: "W_xc_x"
  param {
    name: "W_xc"
  }
  param {
    name: "b_c"
  }
  propagate_down: true
  inner_product_param {
    num_output: 4000
    bias_term: true
    weight_filler {
      type: "uniform"
      min: -0.08
      max: 0.08
    }
    bias_filler {
      type: "constant"
      value: 0
    }
    axis: 2
  }
}
layer {
  name: "lstm2_W_xc_x_slice"
  type: "Slice"
  bottom: "W_xc_x"
  top: "W_xc_x_1"
  slice_param {
    axis: 0
  }
}
layer {
  name: "lstm2_h_conted_0"
  type: "Scale"
  bottom: "h_0"
  bottom: "cont_1"
  top: "h_conted_0"
  scale_param {
    axis: 0
  }
}
layer {
  name: "lstm2_transform_1"
  type: "InnerProduct"
  bottom: "h_conted_0"
  top: "W_hc_h_0"
  param {
    name: "W_hc"
  }
  inner_product_param {
    num_output: 4000
    bias_term: false
    weight_filler {
      type: "uniform"
      min: -0.08
      max: 0.08
    }
    axis: 2
  }
}
layer {
  name: "lstm2_gate_input_1"
  type: "Eltwise"
  bottom: "W_hc_h_0"
  bottom: "W_xc_x_1"
  top: "gate_input_1"
  eltwise_param {
    operation: SUM
  }
}
layer {
  name: "lstm2_unit_1"
  type: "LSTMUnit"
  bottom: "c_0"
  bottom: "gate_input_1"
  bottom: "cont_1"
  top: "c_1"
  top: "h_1"
}
layer {
  name: "lstm2_"
  type: "Split"
  bottom: "c_1"
  top: "c_T"
}
layer {
  name: "lstm2_h_concat"
  type: "Concat"
  bottom: "h_1"
  top: "h"
  concat_param {
    axis: 0
  }
}
layer {
  name: "h_pseudoloss"
  type: "Reduction"
  bottom: "h"
  top: "h_pseudoloss"
  loss_weight: 1
}
I0925 22:08:06.012745 19136 layer_factory.hpp:77] Creating layer lstm2_
I0925 22:08:06.012764 19136 net.cpp:91] Creating Layer lstm2_
I0925 22:08:06.012775 19136 net.cpp:399] lstm2_ -> x
I0925 22:08:06.012792 19136 net.cpp:399] lstm2_ -> cont
I0925 22:08:06.024212 19160 net.cpp:141] Setting up embedding
I0925 22:08:06.024273 19160 net.cpp:148] Top shape: 1 1 500 (500)
I0925 22:08:06.024288 19160 net.cpp:156] Memory required for data: 22408
I0925 22:08:06.024323 19160 layer_factory.hpp:77] Creating layer lstm1
I0925 22:08:06.024374 19160 net.cpp:91] Creating Layer lstm1
I0925 22:08:06.024389 19160 net.cpp:425] lstm1 <- embedded_input_frames
I0925 22:08:06.024401 19160 net.cpp:425] lstm1 <- cont_sentence_input_1_split_0
I0925 22:08:06.024430 19160 net.cpp:399] lstm1 -> lstm1
I0925 22:08:06.024458 19160 recurrent_layer.cpp:20] Initializing recurrent layer: assuming input batch contains 1 timesteps of 1 independent streams.
I0925 22:08:06.024907 19160 net.cpp:49] Initializing net from parameters: 
layer {
  name: "lstm1_"
  type: "Input"
  top: "x"
  top: "cont"
  input_param {
    shape {
      dim: 1
      dim: 1
      dim: 500
    }
    shape {
      dim: 1
      dim: 1
    }
  }
}
layer {
  name: "lstm1_"
  type: "Input"
  top: "c_0"
  top: "h_0"
  input_param {
    shape {
      dim: 1
      dim: 1
      dim: 1000
    }
    shape {
      dim: 1
      dim: 1
      dim: 1000
    }
  }
}
layer {
  name: "lstm1_cont_slice"
  type: "Slice"
  bottom: "cont"
  top: "cont_1"
  slice_param {
    axis: 0
  }
}
layer {
  name: "lstm1_x_transform"
  type: "InnerProduct"
  bottom: "x"
  top: "W_xc_x"
  param {
    name: "W_xc"
  }
  param {
    name: "b_c"
  }
  propagate_down: true
  inner_product_param {
    num_output: 4000
    bias_term: true
    weight_filler {
      type: "uniform"
      min: -0.08
      max: 0.08
    }
    bias_filler {
      type: "constant"
      value: 0
    }
    axis: 2
  }
}
layer {
  name: "lstm1_W_xc_x_slice"
  type: "Slice"
  bottom: "W_xc_x"
  top: "W_xc_x_1"
  slice_param {
    axis: 0
  }
}
layer {
  name: "lstm1_h_conted_0"
  type: "Scale"
  bottom: "h_0"
  bottom: "cont_1"
  top: "h_conted_0"
  scale_param {
    axis: 0
  }
}
layer {
  name: "lstm1_transform_1"
  type: "InnerProduct"
  bottom: "h_conted_0"
  top: "W_hc_h_0"
  param {
    name: "W_hc"
  }
  inner_product_param {
    num_output: 4000
    bias_term: false
    weight_filler {
      type: "uniform"
      min: -0.08
      max: 0.08
    }
    axis: 2
  }
}
layer {
  name: "lstm1_gate_input_1"
  type: "Eltwise"
  bottom: "W_hc_h_0"
  bottom: "W_xc_x_1"
  top: "gate_input_1"
  eltwise_param {
    operation: SUM
  }
}
layer {
  name: "lstm1_unit_1"
  type: "LSTMUnit"
  bottom: "c_0"
  bottom: "gate_input_1"
  bottom: "cont_1"
  top: "c_1"
  top: "h_1"
}
layer {
  name: "lstm1_"
  type: "Split"
  bottom: "c_1"
  top: "c_T"
}
layer {
  name: "lstm1_h_concat"
  type: "Concat"
  bottom: "h_1"
  top: "h"
  concat_param {
    axis: 0
  }
}
layer {
  name: "h_pseudoloss"
  type: "Reduction"
  bottom: "h"
  top: "h_pseudoloss"
  loss_weight: 1
}
I0925 22:08:06.025053 19160 layer_factory.hpp:77] Creating layer lstm1_
I0925 22:08:06.025074 19160 net.cpp:91] Creating Layer lstm1_
I0925 22:08:06.025084 19160 net.cpp:399] lstm1_ -> x
I0925 22:08:06.025102 19160 net.cpp:399] lstm1_ -> cont
I0925 22:08:06.035029 19136 net.cpp:141] Setting up lstm2_
I0925 22:08:06.035080 19136 net.cpp:148] Top shape: 1 1 1501 (1501)
I0925 22:08:06.035092 19136 net.cpp:148] Top shape: 1 1 (1)
I0925 22:08:06.035100 19136 net.cpp:156] Memory required for data: 6008
I0925 22:08:06.035115 19136 layer_factory.hpp:77] Creating layer lstm2_
I0925 22:08:06.035114 19132 net.cpp:141] Setting up lstm1_transform_1
I0925 22:08:06.035133 19132 net.cpp:148] Top shape: 1 1 4000 (4000)
I0925 22:08:06.035138 19132 net.cpp:156] Memory required for data: 62016
I0925 22:08:06.035146 19136 net.cpp:91] Creating Layer lstm2_
I0925 22:08:06.035157 19132 layer_factory.hpp:77] Creating layer lstm1_gate_input_1
I0925 22:08:06.035161 19160 net.cpp:141] Setting up lstm1_
I0925 22:08:06.035166 19136 net.cpp:399] lstm2_ -> c_0
I0925 22:08:06.035187 19132 net.cpp:91] Creating Layer lstm1_gate_input_1
I0925 22:08:06.035193 19160 net.cpp:148] Top shape: 1 1 500 (500)
I0925 22:08:06.035197 19132 net.cpp:425] lstm1_gate_input_1 <- W_hc_h_0
I0925 22:08:06.035205 19132 net.cpp:425] lstm1_gate_input_1 <- W_xc_x_1
I0925 22:08:06.035212 19136 net.cpp:399] lstm2_ -> h_0
I0925 22:08:06.035205 19160 net.cpp:148] Top shape: 1 1 (1)
I0925 22:08:06.035231 19160 net.cpp:156] Memory required for data: 2004
I0925 22:08:06.035246 19160 layer_factory.hpp:77] Creating layer lstm1_
I0925 22:08:06.035264 19160 net.cpp:91] Creating Layer lstm1_
I0925 22:08:06.035277 19160 net.cpp:399] lstm1_ -> c_0
I0925 22:08:06.035295 19160 net.cpp:399] lstm1_ -> h_0
I0925 22:08:06.035233 19132 net.cpp:399] lstm1_gate_input_1 -> gate_input_1
I0925 22:08:06.035311 19136 net.cpp:141] Setting up lstm2_
I0925 22:08:06.035337 19136 net.cpp:148] Top shape: 1 1 1000 (1000)
I0925 22:08:06.035347 19136 net.cpp:148] Top shape: 1 1 1000 (1000)
I0925 22:08:06.035354 19136 net.cpp:156] Memory required for data: 14008
I0925 22:08:06.035363 19136 layer_factory.hpp:77] Creating layer lstm2_cont_slice
I0925 22:08:06.035379 19136 net.cpp:91] Creating Layer lstm2_cont_slice
I0925 22:08:06.035388 19136 net.cpp:425] lstm2_cont_slice <- cont
I0925 22:08:06.035400 19136 net.cpp:399] lstm2_cont_slice -> cont_1
I0925 22:08:06.035440 19132 net.cpp:141] Setting up lstm1_gate_input_1
I0925 22:08:06.035456 19132 net.cpp:148] Top shape: 1 1 4000 (4000)
I0925 22:08:06.035465 19132 net.cpp:156] Memory required for data: 78016
I0925 22:08:06.035472 19132 layer_factory.hpp:77] Creating layer lstm1_unit_1
I0925 22:08:06.035485 19132 net.cpp:91] Creating Layer lstm1_unit_1
I0925 22:08:06.035493 19132 net.cpp:425] lstm1_unit_1 <- c_0
I0925 22:08:06.035495 19160 net.cpp:141] Setting up lstm1_
I0925 22:08:06.035503 19132 net.cpp:425] lstm1_unit_1 <- gate_input_1
I0925 22:08:06.035512 19160 net.cpp:148] Top shape: 1 1 1000 (1000)
I0925 22:08:06.035513 19132 net.cpp:425] lstm1_unit_1 <- cont_1_lstm1_cont_slice_0_split_1
I0925 22:08:06.035536 19136 net.cpp:141] Setting up lstm2_cont_slice
I0925 22:08:06.035544 19160 net.cpp:148] Top shape: 1 1 1000 (1000)
I0925 22:08:06.035555 19136 net.cpp:148] Top shape: 1 1 (1)
I0925 22:08:06.035559 19160 net.cpp:156] Memory required for data: 10004
I0925 22:08:06.035565 19160 layer_factory.hpp:77] Creating layer lstm1_cont_slice
I0925 22:08:06.035544 19132 net.cpp:399] lstm1_unit_1 -> c_1
I0925 22:08:06.035569 19136 net.cpp:156] Memory required for data: 14012
I0925 22:08:06.035576 19160 net.cpp:91] Creating Layer lstm1_cont_slice
I0925 22:08:06.035578 19136 layer_factory.hpp:77] Creating layer cont_1_lstm2_cont_slice_0_split
I0925 22:08:06.035583 19132 net.cpp:399] lstm1_unit_1 -> h_1
I0925 22:08:06.035581 19160 net.cpp:425] lstm1_cont_slice <- cont
I0925 22:08:06.035598 19136 net.cpp:91] Creating Layer cont_1_lstm2_cont_slice_0_split
I0925 22:08:06.035601 19160 net.cpp:399] lstm1_cont_slice -> cont_1
I0925 22:08:06.035607 19136 net.cpp:425] cont_1_lstm2_cont_slice_0_split <- cont_1
I0925 22:08:06.035619 19136 net.cpp:399] cont_1_lstm2_cont_slice_0_split -> cont_1_lstm2_cont_slice_0_split_0
I0925 22:08:06.035631 19136 net.cpp:399] cont_1_lstm2_cont_slice_0_split -> cont_1_lstm2_cont_slice_0_split_1
I0925 22:08:06.035714 19160 net.cpp:141] Setting up lstm1_cont_slice
I0925 22:08:06.035728 19160 net.cpp:148] Top shape: 1 1 (1)
I0925 22:08:06.035733 19160 net.cpp:156] Memory required for data: 10008
I0925 22:08:06.035738 19160 layer_factory.hpp:77] Creating layer cont_1_lstm1_cont_slice_0_split
I0925 22:08:06.035748 19160 net.cpp:91] Creating Layer cont_1_lstm1_cont_slice_0_split
I0925 22:08:06.035754 19160 net.cpp:425] cont_1_lstm1_cont_slice_0_split <- cont_1
I0925 22:08:06.035763 19160 net.cpp:399] cont_1_lstm1_cont_slice_0_split -> cont_1_lstm1_cont_slice_0_split_0
I0925 22:08:06.035778 19160 net.cpp:399] cont_1_lstm1_cont_slice_0_split -> cont_1_lstm1_cont_slice_0_split_1
I0925 22:08:06.035817 19136 net.cpp:141] Setting up cont_1_lstm2_cont_slice_0_split
I0925 22:08:06.035832 19136 net.cpp:148] Top shape: 1 1 (1)
I0925 22:08:06.035842 19136 net.cpp:148] Top shape: 1 1 (1)
I0925 22:08:06.035850 19136 net.cpp:156] Memory required for data: 14020
I0925 22:08:06.035857 19136 layer_factory.hpp:77] Creating layer lstm2_x_transform
I0925 22:08:06.035858 19132 net.cpp:141] Setting up lstm1_unit_1
I0925 22:08:06.035874 19132 net.cpp:148] Top shape: 1 1 1000 (1000)
I0925 22:08:06.035881 19136 net.cpp:91] Creating Layer lstm2_x_transform
I0925 22:08:06.035886 19132 net.cpp:148] Top shape: 1 1 1000 (1000)
I0925 22:08:06.035890 19136 net.cpp:425] lstm2_x_transform <- x
I0925 22:08:06.035892 19132 net.cpp:156] Memory required for data: 86016
I0925 22:08:06.035900 19132 layer_factory.hpp:77] Creating layer lstm1_
I0925 22:08:06.035903 19136 net.cpp:399] lstm2_x_transform -> W_xc_x
I0925 22:08:06.035913 19132 net.cpp:91] Creating Layer lstm1_
I0925 22:08:06.035922 19132 net.cpp:425] lstm1_ <- c_1
I0925 22:08:06.035933 19132 net.cpp:399] lstm1_ -> c_T
I0925 22:08:06.035933 19160 net.cpp:141] Setting up cont_1_lstm1_cont_slice_0_split
I0925 22:08:06.035956 19160 net.cpp:148] Top shape: 1 1 (1)
I0925 22:08:06.035962 19160 net.cpp:148] Top shape: 1 1 (1)
I0925 22:08:06.035967 19160 net.cpp:156] Memory required for data: 10016
I0925 22:08:06.035972 19160 layer_factory.hpp:77] Creating layer lstm1_x_transform
I0925 22:08:06.035984 19160 net.cpp:91] Creating Layer lstm1_x_transform
I0925 22:08:06.035989 19160 net.cpp:425] lstm1_x_transform <- x
I0925 22:08:06.036006 19160 net.cpp:399] lstm1_x_transform -> W_xc_x
I0925 22:08:06.050696 19132 net.cpp:141] Setting up lstm1_
I0925 22:08:06.050763 19132 net.cpp:148] Top shape: 1 1 1000 (1000)
I0925 22:08:06.050775 19132 net.cpp:156] Memory required for data: 90016
I0925 22:08:06.050789 19132 layer_factory.hpp:77] Creating layer lstm1_h_concat
I0925 22:08:06.050817 19132 net.cpp:91] Creating Layer lstm1_h_concat
I0925 22:08:06.050832 19132 net.cpp:425] lstm1_h_concat <- h_1
I0925 22:08:06.050853 19132 net.cpp:399] lstm1_h_concat -> h
I0925 22:08:06.050945 19166 net.cpp:141] Setting up lstm2_transform_1
I0925 22:08:06.050986 19166 net.cpp:148] Top shape: 1 1 4000 (4000)
I0925 22:08:06.050992 19166 net.cpp:156] Memory required for data: 66020
I0925 22:08:06.051012 19166 layer_factory.hpp:77] Creating layer lstm2_gate_input_1
I0925 22:08:06.051034 19166 net.cpp:91] Creating Layer lstm2_gate_input_1
I0925 22:08:06.051043 19166 net.cpp:425] lstm2_gate_input_1 <- W_hc_h_0
I0925 22:08:06.051050 19166 net.cpp:425] lstm2_gate_input_1 <- W_xc_x_1
I0925 22:08:06.051059 19166 net.cpp:399] lstm2_gate_input_1 -> gate_input_1
I0925 22:08:06.056849 19132 net.cpp:141] Setting up lstm1_h_concat
I0925 22:08:06.056906 19132 net.cpp:148] Top shape: 1 1 1000 (1000)
I0925 22:08:06.056915 19132 net.cpp:156] Memory required for data: 94016
I0925 22:08:06.056929 19132 layer_factory.hpp:77] Creating layer h_pseudoloss
I0925 22:08:06.056967 19132 net.cpp:91] Creating Layer h_pseudoloss
I0925 22:08:06.056979 19132 net.cpp:425] h_pseudoloss <- h
I0925 22:08:06.056998 19132 net.cpp:399] h_pseudoloss -> h_pseudoloss
I0925 22:08:06.057173 19132 net.cpp:141] Setting up h_pseudoloss
…
I0925 22:08:06.057337 19132 net.cpp:219] lstm1_ does not need backward computation.
I0925 22:08:06.057343 19132 net.cpp:261] This network produces output c_T
I0925 22:08:06.057351 19132 net.cpp:261] This network produces output h_pseudoloss
I0925 22:08:06.057379 19132 net.cpp:274] Network initialization done.
I0925 22:08:06.057454 19132 recurrent_layer.cpp:150] Adding parameter 0: W_xc
I0925 22:08:06.057466 19132 recurrent_layer.cpp:150] Adding parameter 1: b_c
I0925 22:08:06.057473 19132 recurrent_layer.cpp:150] Adding parameter 2: W_hc
I0925 22:08:06.057632 19132 net.cpp:141] Setting up lstm1
I0925 22:08:06.057649 19132 net.cpp:148] Top shape: 1 1 1000 (1000)
I0925 22:08:06.057657 19132 net.cpp:156] Memory required for data: 26408
I0925 22:08:06.057679 19132 layer_factory.hpp:77] Creating layer concat
I0925 22:08:06.057695 19132 net.cpp:91] Creating Layer concat
I0925 22:08:06.057705 19132 net.cpp:425] concat <- lstm1
I0925 22:08:06.057716 19132 net.cpp:425] concat <- embedded_input_sentence
I0925 22:08:06.057725 19132 net.cpp:425] concat <- reshaped_stage_indicator
I0925 22:08:06.057736 19132 net.cpp:399] concat -> lstm1_video_sequence
I0925 22:08:06.057785 19132 net.cpp:141] Setting up concat
I0925 22:08:06.057797 19132 net.cpp:148] Top shape: 1 1 1501 (1501)
I0925 22:08:06.057806 19132 net.cpp:156] Memory required for data: 32412
I0925 22:08:06.057813 19132 layer_factory.hpp:77] Creating layer lstm2
I0925 22:08:06.057832 19132 net.cpp:91] Creating Layer lstm2
I0925 22:08:06.057842 19132 net.cpp:425] lstm2 <- lstm1_video_sequence
I0925 22:08:06.057850 19132 net.cpp:425] lstm2 <- cont_sentence_input_1_split_1
I0925 22:08:06.057862 19132 net.cpp:399] lstm2 -> lstm2
I0925 22:08:06.057878 19132 recurrent_layer.cpp:20] Initializing recurrent layer: assuming input batch contains 1 timesteps of 1 independent streams.
I0925 22:08:06.058251 19132 net.cpp:49] Initializing net from parameters: 
layer {
  name: "lstm2_"
  type: "Input"
  top: "x"
  top: "cont"
  input_param {
    shape {
      dim: 1
      dim: 1
      dim: 1501
    }
    shape {
      dim: 1
      dim: 1
    }
  }
}
layer {
  name: "lstm2_"
  type: "Input"
  top: "c_0"
  top: "h_0"
  input_param {
    shape {
      dim: 1
      dim: 1
      dim: 1000
    }
    shape {
      dim: 1
      dim: 1
      dim: 1000
    }
  }
}
layer {
  name: "lstm2_cont_slice"
  type: "Slice"
  bottom: "cont"
  top: "cont_1"
  slice_param {
    axis: 0
  }
}
layer {
  name: "lstm2_x_transform"
  type: "InnerProduct"
  bottom: "x"
  top: "W_xc_x"
  param {
    name: "W_xc"
  }
  param {
    name: "b_c"
  }
  propagate_down: true
  inner_product_param {
    num_output: 4000
    bias_term: true
    weight_filler {
      type: "uniform"
      min: -0.08
      max: 0.08
    }
    bias_filler {
      type: "constant"
      value: 0
    }
    axis: 2
  }
}
layer {
  name: "lstm2_W_xc_x_slice"
  type: "Slice"
  bottom: "W_xc_x"
  top: "W_xc_x_1"
  slice_param {
    axis: 0
  }
}
layer {
  name: "lstm2_h_conted_0"
  type: "Scale"
  bottom: "h_0"
  bottom: "cont_1"
  top: "h_conted_0"
  scale_param {
    axis: 0
  }
}
layer {
  name: "lstm2_transform_1"
  type: "InnerProduct"
  bottom: "h_conted_0"
  top: "W_hc_h_0"
  param {
    name: "W_hc"
  }
  inner_product_param {
    num_output: 4000
    bias_term: false
    weight_filler {
      type: "uniform"
      min: -0.08
      max: 0.08
    }
    axis: 2
  }
}
layer {
  name: "lstm2_gate_input_1"
  type: "Eltwise"
  bottom: "W_hc_h_0"
  bottom: "W_xc_x_1"
  top: "gate_input_1"
  eltwise_param {
    operation: SUM
  }
}
layer {
  name: "lstm2_unit_1"
  type: "LSTMUnit"
  bottom: "c_0"
  bottom: "gate_input_1"
  bottom: "cont_1"
  top: "c_1"
  top: "h_1"
}
layer {
  name: "lstm2_"
  type: "Split"
  bottom: "c_1"
  top: "c_T"
}
layer {
  name: "lstm2_h_concat"
  type: "Concat"
  bottom: "h_1"
  top: "h"
  concat_param {
    axis: 0
  }
}
layer {
  name: "h_pseudoloss"
  type: "Reduction"
  bottom: "h"
  top: "h_pseudoloss"
  loss_weight: 1
}
I0925 22:08:06.058387 19132 layer_factory.hpp:77] Creating layer lstm2_
I0925 22:08:06.058406 19132 net.cpp:91] Creating Layer lstm2_
I0925 22:08:06.058416 19132 net.cpp:399] lstm2_ -> x
I0925 22:08:06.058432 19132 net.cpp:399] lstm2_ -> cont
I0925 22:08:06.061238 19166 net.cpp:141] Setting up lstm2_gate_input_1
I0925 22:08:06.061278 19166 net.cpp:148] Top shape: 1 1 4000 (4000)
I0925 22:08:06.061285 19166 net.cpp:156] Memory required for data: 82020
I0925 22:08:06.061293 19166 layer_factory.hpp:77] Creating layer lstm2_unit_1
I0925 22:08:06.061308 19166 net.cpp:91] Creating Layer lstm2_unit_1
I0925 22:08:06.061316 19166 net.cpp:425] lstm2_unit_1 <- c_0
I0925 22:08:06.061324 19166 net.cpp:425] lstm2_unit_1 <- gate_input_1
I0925 22:08:06.061331 19166 net.cpp:425] lstm2_unit_1 <- cont_1_lstm2_cont_slice_0_split_1
I0925 22:08:06.061354 19166 net.cpp:399] lstm2_unit_1 -> c_1
I0925 22:08:06.061368 19166 net.cpp:399] lstm2_unit_1 -> h_1
I0925 22:08:06.061370 19134 net.cpp:141] Setting up lstm2_x_transform
I0925 22:08:06.061405 19134 net.cpp:148] Top shape: 1 1 4000 (4000)
I0925 22:08:06.061414 19134 net.cpp:156] Memory required for data: 30020
I0925 22:08:06.061440 19134 layer_factory.hpp:77] Creating layer lstm2_W_xc_x_slice
I0925 22:08:06.061460 19134 net.cpp:91] Creating Layer lstm2_W_xc_x_slice
I0925 22:08:06.061470 19134 net.cpp:425] lstm2_W_xc_x_slice <- W_xc_x
I0925 22:08:06.061483 19134 net.cpp:399] lstm2_W_xc_x_slice -> W_xc_x_1
I0925 22:08:06.061506 19166 net.cpp:141] Setting up lstm2_unit_1
I0925 22:08:06.061518 19166 net.cpp:148] Top shape: 1 1 1000 (1000)
I0925 22:08:06.061525 19166 net.cpp:148] Top shape: 1 1 1000 (1000)
I0925 22:08:06.061529 19166 net.cpp:156] Memory required for data: 90020
I0925 22:08:06.061534 19166 layer_factory.hpp:77] Creating layer lstm2_
I0925 22:08:06.061543 19166 net.cpp:91] Creating Layer lstm2_
I0925 22:08:06.061547 19166 net.cpp:425] lstm2_ <- c_1
I0925 22:08:06.061555 19166 net.cpp:399] lstm2_ -> c_T
I0925 22:08:06.061564 19134 net.cpp:141] Setting up lstm2_W_xc_x_slice
I0925 22:08:06.061580 19134 net.cpp:148] Top shape: 1 1 4000 (4000)
I0925 22:08:06.061588 19134 net.cpp:156] Memory required for data: 46020
I0925 22:08:06.061595 19134 layer_factory.hpp:77] Creating layer lstm2_h_conted_0
I0925 22:08:06.061609 19166 net.cpp:141] Setting up lstm2_
I0925 22:08:06.061635 19166 net.cpp:148] Top shape: 1 1 1000 (1000)
I0925 22:08:06.061611 19134 net.cpp:91] Creating Layer lstm2_h_conted_0
I0925 22:08:06.061640 19166 net.cpp:156] Memory required for data: 94020
I0925 22:08:06.061646 19166 layer_factory.hpp:77] Creating layer lstm2_h_concat
I0925 22:08:06.061645 19134 net.cpp:425] lstm2_h_conted_0 <- h_0
I0925 22:08:06.061666 19166 net.cpp:91] Creating Layer lstm2_h_concat
I0925 22:08:06.061676 19166 net.cpp:425] lstm2_h_concat <- h_1
I0925 22:08:06.061676 19134 net.cpp:425] lstm2_h_conted_0 <- cont_1_lstm2_cont_slice_0_split_0
I0925 22:08:06.061682 19166 net.cpp:399] lstm2_h_concat -> h
I0925 22:08:06.061689 19134 net.cpp:399] lstm2_h_conted_0 -> h_conted_0
I0925 22:08:06.061722 19166 net.cpp:141] Setting up lstm2_h_concat
I0925 22:08:06.061733 19166 net.cpp:148] Top shape: 1 1 1000 (1000)
I0925 22:08:06.061736 19166 net.cpp:156] Memory required for data: 98020
I0925 22:08:06.061741 19166 layer_factory.hpp:77] Creating layer h_pseudoloss
I0925 22:08:06.061754 19166 net.cpp:91] Creating Layer h_pseudoloss
I0925 22:08:06.061760 19166 net.cpp:425] h_pseudoloss <- h
I0925 22:08:06.061767 19166 net.cpp:399] h_pseudoloss -> h_pseudoloss
I0925 22:08:06.061890 19166 net.cpp:141] Setting up h_pseudoloss
…
I0925 22:08:06.061980 19166 net.cpp:219] cont_1_lstm2_cont_slice_0_split does not need backward computation.
I0925 22:08:06.061985 19166 net.cpp:219] lstm2_cont_slice does not need backward computation.
I0925 22:08:06.061990 19166 net.cpp:219] lstm2_ does not need backward computation.
I0925 22:08:06.061995 19166 net.cpp:219] lstm2_ does not need backward computation.
I0925 22:08:06.061998 19166 net.cpp:261] This network produces output c_T
I0925 22:08:06.062002 19166 net.cpp:261] This network produces output h_pseudoloss
I0925 22:08:06.062021 19166 net.cpp:274] Network initialization done.
I0925 22:08:06.062041 19134 net.cpp:141] Setting up lstm2_h_conted_0
I0925 22:08:06.062058 19134 net.cpp:148] Top shape: 1 1 1000 (1000)
I0925 22:08:06.062065 19134 net.cpp:156] Memory required for data: 50020
I0925 22:08:06.062072 19166 recurrent_layer.cpp:150] Adding parameter 0: W_xc
I0925 22:08:06.062073 19134 layer_factory.hpp:77] Creating layer lstm2_transform_1
I0925 22:08:06.062078 19166 recurrent_layer.cpp:150] Adding parameter 1: b_c
I0925 22:08:06.062083 19166 recurrent_layer.cpp:150] Adding parameter 2: W_hc
I0925 22:08:06.062093 19134 net.cpp:91] Creating Layer lstm2_transform_1
I0925 22:08:06.062101 19134 net.cpp:425] lstm2_transform_1 <- h_conted_0
I0925 22:08:06.062114 19134 net.cpp:399] lstm2_transform_1 -> W_hc_h_0
I0925 22:08:06.072675 19166 net.cpp:141] Setting up lstm2
I0925 22:08:06.072720 19166 net.cpp:148] Top shape: 1 1 1000 (1000)
I0925 22:08:06.072726 19166 net.cpp:156] Memory required for data: 36412
I0925 22:08:06.072746 19166 layer_factory.hpp:77] Creating layer predict
I0925 22:08:06.072767 19166 net.cpp:91] Creating Layer predict
I0925 22:08:06.072773 19166 net.cpp:425] predict <- lstm2
I0925 22:08:06.072783 19166 net.cpp:399] predict -> predict
I0925 22:08:06.155093 19134 net.cpp:141] Setting up lstm2_transform_1
I0925 22:08:06.155153 19134 net.cpp:148] Top shape: 1 1 4000 (4000)
I0925 22:08:06.155159 19134 net.cpp:156] Memory required for data: 66020
I0925 22:08:06.155181 19134 layer_factory.hpp:77] Creating layer lstm2_gate_input_1
I0925 22:08:06.155205 19134 net.cpp:91] Creating Layer lstm2_gate_input_1
I0925 22:08:06.155213 19134 net.cpp:425] lstm2_gate_input_1 <- W_hc_h_0
I0925 22:08:06.155221 19134 net.cpp:425] lstm2_gate_input_1 <- W_xc_x_1
I0925 22:08:06.155236 19134 net.cpp:399] lstm2_gate_input_1 -> gate_input_1
I0925 22:08:06.155490 19160 net.cpp:141] Setting up lstm1_x_transform
I0925 22:08:06.155509 19160 net.cpp:148] Top shape: 1 1 4000 (4000)
I0925 22:08:06.155514 19160 net.cpp:156] Memory required for data: 26016
I0925 22:08:06.155529 19160 layer_factory.hpp:77] Creating layer lstm1_W_xc_x_slice
I0925 22:08:06.155535 19132 net.cpp:141] Setting up lstm2_
I0925 22:08:06.155544 19160 net.cpp:91] Creating Layer lstm1_W_xc_x_slice
I0925 22:08:06.155566 19132 net.cpp:148] Top shape: 1 1 1501 (1501)
I0925 22:08:06.155568 19160 net.cpp:425] lstm1_W_xc_x_slice <- W_xc_x
I0925 22:08:06.155580 19132 net.cpp:148] Top shape: 1 1 (1)
I0925 22:08:06.155586 19132 net.cpp:156] Memory required for data: 6008
I0925 22:08:06.155589 19160 net.cpp:399] lstm1_W_xc_x_slice -> W_xc_x_1
I0925 22:08:06.155591 19136 net.cpp:141] Setting up lstm2_x_transform
I0925 22:08:06.155596 19132 layer_factory.hpp:77] Creating layer lstm2_
I0925 22:08:06.155630 19132 net.cpp:91] Creating Layer lstm2_
I0925 22:08:06.155652 19132 net.cpp:399] lstm2_ -> c_0
I0925 22:08:06.155652 19160 net.cpp:141] Setting up lstm1_W_xc_x_slice
I0925 22:08:06.155675 19160 net.cpp:148] Top shape: 1 1 4000 (4000)
I0925 22:08:06.155679 19132 net.cpp:399] lstm2_ -> h_0
I0925 22:08:06.155684 19160 net.cpp:156] Memory required for data: 42016
I0925 22:08:06.155694 19160 layer_factory.hpp:77] Creating layer lstm1_h_conted_0
I0925 22:08:06.155710 19160 net.cpp:91] Creating Layer lstm1_h_conted_0
I0925 22:08:06.155720 19160 net.cpp:425] lstm1_h_conted_0 <- h_0
I0925 22:08:06.155730 19160 net.cpp:425] lstm1_h_conted_0 <- cont_1_lstm1_cont_slice_0_split_0
I0925 22:08:06.155745 19160 net.cpp:399] lstm1_h_conted_0 -> h_conted_0
I0925 22:08:06.155758 19132 net.cpp:141] Setting up lstm2_
I0925 22:08:06.155774 19132 net.cpp:148] Top shape: 1 1 1000 (1000)
I0925 22:08:06.155786 19132 net.cpp:148] Top shape: 1 1 1000 (1000)
I0925 22:08:06.155792 19132 net.cpp:156] Memory required for data: 14008
I0925 22:08:06.155802 19132 layer_factory.hpp:77] Creating layer lstm2_cont_slice
I0925 22:08:06.155820 19132 net.cpp:91] Creating Layer lstm2_cont_slice
I0925 22:08:06.155830 19132 net.cpp:425] lstm2_cont_slice <- cont
I0925 22:08:06.155843 19132 net.cpp:399] lstm2_cont_slice -> cont_1
I0925 22:08:06.155915 19160 net.cpp:141] Setting up lstm1_h_conted_0
I0925 22:08:06.155933 19160 net.cpp:148] Top shape: 1 1 1000 (1000)
I0925 22:08:06.155942 19160 net.cpp:156] Memory required for data: 46016
I0925 22:08:06.155952 19160 layer_factory.hpp:77] Creating layer lstm1_transform_1
I0925 22:08:06.155972 19160 net.cpp:91] Creating Layer lstm1_transform_1
I0925 22:08:06.155961 19134 net.cpp:141] Setting up lstm2_gate_input_1
I0925 22:08:06.155982 19160 net.cpp:425] lstm1_transform_1 <- h_conted_0
I0925 22:08:06.156000 19160 net.cpp:399] lstm1_transform_1 -> W_hc_h_0
I0925 22:08:06.156003 19134 net.cpp:148] Top shape: 1 1 4000 (4000)
I0925 22:08:06.156013 19134 net.cpp:156] Memory required for data: 82020
I0925 22:08:06.156023 19132 net.cpp:141] Setting up lstm2_cont_slice
I0925 22:08:06.156035 19134 layer_factory.hpp:77] Creating layer lstm2_unit_1
I0925 22:08:06.156040 19132 net.cpp:148] Top shape: 1 1 (1)
I0925 22:08:06.156049 19132 net.cpp:156] Memory required for data: 14012
I0925 22:08:06.156054 19134 net.cpp:91] Creating Layer lstm2_unit_1
I0925 22:08:06.156059 19132 layer_factory.hpp:77] Creating layer cont_1_lstm2_cont_slice_0_split
I0925 22:08:06.156065 19134 net.cpp:425] lstm2_unit_1 <- c_0
I0925 22:08:06.156074 19132 net.cpp:91] Creating Layer cont_1_lstm2_cont_slice_0_split
I0925 22:08:06.156082 19132 net.cpp:425] cont_1_lstm2_cont_slice_0_split <- cont_1
I0925 22:08:06.156076 19134 net.cpp:425] lstm2_unit_1 <- gate_input_1
I0925 22:08:06.156098 19134 net.cpp:425] lstm2_unit_1 <- cont_1_lstm2_cont_slice_0_split_1
I0925 22:08:06.156100 19132 net.cpp:399] cont_1_lstm2_cont_slice_0_split -> cont_1_lstm2_cont_slice_0_split_0
I0925 22:08:06.156118 19134 net.cpp:399] lstm2_unit_1 -> c_1
I0925 22:08:06.156127 19132 net.cpp:399] cont_1_lstm2_cont_slice_0_split -> cont_1_lstm2_cont_slice_0_split_1
I0925 22:08:06.156136 19134 net.cpp:399] lstm2_unit_1 -> h_1
I0925 22:08:06.156157 19136 net.cpp:148] Top shape: 1 1 4000 (4000)
I0925 22:08:06.156167 19136 net.cpp:156] Memory required for data: 30020
I0925 22:08:06.156183 19136 layer_factory.hpp:77] Creating layer lstm2_W_xc_x_slice
I0925 22:08:06.156196 19136 net.cpp:91] Creating Layer lstm2_W_xc_x_slice
I0925 22:08:06.156208 19136 net.cpp:425] lstm2_W_xc_x_slice <- W_xc_x
I0925 22:08:06.156224 19136 net.cpp:399] lstm2_W_xc_x_slice -> W_xc_x_1
I0925 22:08:06.164053 19136 net.cpp:141] Setting up lstm2_W_xc_x_slice
I0925 22:08:06.164077 19132 net.cpp:141] Setting up cont_1_lstm2_cont_slice_0_split
I0925 22:08:06.164115 19142 net.cpp:141] Setting up lstm2_x_transform
I0925 22:08:06.164137 19142 net.cpp:148] Top shape: 1 1 4000 (4000)
I0925 22:08:06.164137 19132 net.cpp:148] Top shape: 1 1 (1)
I0925 22:08:06.164139 19136 net.cpp:148] Top shape: 1 1 4000 (4000)
I0925 22:08:06.164153 19132 net.cpp:148] Top shape: 1 1 (1)
I0925 22:08:06.164147 19142 net.cpp:156] Memory required for data: 30020
I0925 22:08:06.164163 19132 net.cpp:156] Memory required for data: 14020
I0925 22:08:06.164168 19136 net.cpp:156] Memory required for data: 46020
I0925 22:08:06.164176 19132 layer_factory.hpp:77] Creating layer lstm2_x_transform
I0925 22:08:06.164188 19136 layer_factory.hpp:77] Creating layer lstm2_h_conted_0
I0925 22:08:06.164193 19142 layer_factory.hpp:77] Creating layer lstm2_W_xc_x_slice
I0925 22:08:06.164192 19134 net.cpp:141] Setting up lstm2_unit_1
I0925 22:08:06.164213 19142 net.cpp:91] Creating Layer lstm2_W_xc_x_slice
I0925 22:08:06.164217 19132 net.cpp:91] Creating Layer lstm2_x_transform
I0925 22:08:06.164222 19134 net.cpp:148] Top shape: 1 1 1000 (1000)
I0925 22:08:06.164224 19142 net.cpp:425] lstm2_W_xc_x_slice <- W_xc_x
I0925 22:08:06.164228 19132 net.cpp:425] lstm2_x_transform <- x
I0925 22:08:06.164232 19134 net.cpp:148] Top shape: 1 1 1000 (1000)
I0925 22:08:06.164238 19134 net.cpp:156] Memory required for data: 90020
I0925 22:08:06.164239 19142 net.cpp:399] lstm2_W_xc_x_slice -> W_xc_x_1
I0925 22:08:06.164227 19136 net.cpp:91] Creating Layer lstm2_h_conted_0
I0925 22:08:06.164254 19132 net.cpp:399] lstm2_x_transform -> W_xc_x
I0925 22:08:06.164248 19134 layer_factory.hpp:77] Creating layer lstm2_
I0925 22:08:06.164269 19136 net.cpp:425] lstm2_h_conted_0 <- h_0
I0925 22:08:06.164274 19134 net.cpp:91] Creating Layer lstm2_
I0925 22:08:06.164299 19134 net.cpp:425] lstm2_ <- c_1
I0925 22:08:06.164299 19136 net.cpp:425] lstm2_h_conted_0 <- cont_1_lstm2_cont_slice_0_split_0
I0925 22:08:06.164320 19134 net.cpp:399] lstm2_ -> c_T
I0925 22:08:06.164345 19136 net.cpp:399] lstm2_h_conted_0 -> h_conted_0
I0925 22:08:06.165148 19142 net.cpp:141] Setting up lstm2_W_xc_x_slice
I0925 22:08:06.165165 19142 net.cpp:148] Top shape: 1 1 4000 (4000)
I0925 22:08:06.165170 19142 net.cpp:156] Memory required for data: 46020
I0925 22:08:06.165176 19142 layer_factory.hpp:77] Creating layer lstm2_h_conted_0
I0925 22:08:06.165186 19142 net.cpp:91] Creating Layer lstm2_h_conted_0
I0925 22:08:06.165192 19142 net.cpp:425] lstm2_h_conted_0 <- h_0
I0925 22:08:06.165199 19142 net.cpp:425] lstm2_h_conted_0 <- cont_1_lstm2_cont_slice_0_split_0
I0925 22:08:06.165207 19142 net.cpp:399] lstm2_h_conted_0 -> h_conted_0
I0925 22:08:06.165212 19134 net.cpp:141] Setting up lstm2_
I0925 22:08:06.165230 19134 net.cpp:148] Top shape: 1 1 1000 (1000)
I0925 22:08:06.165235 19134 net.cpp:156] Memory required for data: 94020
I0925 22:08:06.165241 19134 layer_factory.hpp:77] Creating layer lstm2_h_concat
I0925 22:08:06.165256 19134 net.cpp:91] Creating Layer lstm2_h_concat
I0925 22:08:06.165262 19134 net.cpp:425] lstm2_h_concat <- h_1
I0925 22:08:06.165271 19134 net.cpp:399] lstm2_h_concat -> h
I0925 22:08:06.165323 19134 net.cpp:141] Setting up lstm2_h_concat
I0925 22:08:06.165333 19134 net.cpp:148] Top shape: 1 1 1000 (1000)
I0925 22:08:06.165338 19134 net.cpp:156] Memory required for data: 98020
I0925 22:08:06.165343 19134 layer_factory.hpp:77] Creating layer h_pseudoloss
I0925 22:08:06.165352 19134 net.cpp:91] Creating Layer h_pseudoloss
I0925 22:08:06.165356 19134 net.cpp:425] h_pseudoloss <- h
I0925 22:08:06.165366 19134 net.cpp:399] h_pseudoloss -> h_pseudoloss
I0925 22:08:06.176931 19136 net.cpp:141] Setting up lstm2_h_conted_0
I0925 22:08:06.176933 19142 net.cpp:141] Setting up lstm2_h_conted_0
I0925 22:08:06.176998 19142 net.cpp:148] Top shape: 1 1 1000 (1000)
I0925 22:08:06.177011 19142 net.cpp:156] Memory required for data: 50020
I0925 22:08:06.176995 19136 net.cpp:148] Top shape: 1 1 1000 (1000)
I0925 22:08:06.177023 19142 layer_factory.hpp:77] Creating layer lstm2_transform_1
I0925 22:08:06.177023 19136 net.cpp:156] Memory required for data: 50020
I0925 22:08:06.177034 19136 layer_factory.hpp:77] Creating layer lstm2_transform_1
I0925 22:08:06.177050 19136 net.cpp:91] Creating Layer lstm2_transform_1
I0925 22:08:06.177052 19142 net.cpp:91] Creating Layer lstm2_transform_1
I0925 22:08:06.177057 19134 net.cpp:141] Setting up h_pseudoloss
…
I0925 22:08:06.177352 19134 net.cpp:219] lstm2_ does not need backward computation.
I0925 22:08:06.177364 19134 net.cpp:261] This network produces output c_T
I0925 22:08:06.177378 19134 net.cpp:261] This network produces output h_pseudoloss
I0925 22:08:06.177417 19134 net.cpp:274] Network initialization done.
I0925 22:08:06.177541 19134 recurrent_layer.cpp:150] Adding parameter 0: W_xc
I0925 22:08:06.177561 19134 recurrent_layer.cpp:150] Adding parameter 1: b_c
I0925 22:08:06.177577 19134 recurrent_layer.cpp:150] Adding parameter 2: W_hc
I0925 22:08:06.201364 19134 net.cpp:141] Setting up lstm2
I0925 22:08:06.201418 19134 net.cpp:148] Top shape: 1 1 1000 (1000)
I0925 22:08:06.201427 19134 net.cpp:156] Memory required for data: 36412
I0925 22:08:06.201458 19134 layer_factory.hpp:77] Creating layer predict
I0925 22:08:06.201485 19134 net.cpp:91] Creating Layer predict
I0925 22:08:06.201496 19134 net.cpp:425] predict <- lstm2
I0925 22:08:06.201493 19160 net.cpp:141] Setting up lstm1_transform_1
I0925 22:08:06.201510 19134 net.cpp:399] predict -> predict
I0925 22:08:06.201527 19160 net.cpp:148] Top shape: 1 1 4000 (4000)
I0925 22:08:06.201544 19160 net.cpp:156] Memory required for data: 62016
I0925 22:08:06.201571 19160 layer_factory.hpp:77] Creating layer lstm1_gate_input_1
I0925 22:08:06.201609 19160 net.cpp:91] Creating Layer lstm1_gate_input_1
I0925 22:08:06.201628 19160 net.cpp:425] lstm1_gate_input_1 <- W_hc_h_0
I0925 22:08:06.201647 19160 net.cpp:425] lstm1_gate_input_1 <- W_xc_x_1
I0925 22:08:06.201671 19160 net.cpp:399] lstm1_gate_input_1 -> gate_input_1
I0925 22:08:06.288446 19160 net.cpp:141] Setting up lstm1_gate_input_1
I0925 22:08:06.288514 19160 net.cpp:148] Top shape: 1 1 4000 (4000)
I0925 22:08:06.288527 19160 net.cpp:156] Memory required for data: 78016
I0925 22:08:06.288542 19160 layer_factory.hpp:77] Creating layer lstm1_unit_1
I0925 22:08:06.288569 19160 net.cpp:91] Creating Layer lstm1_unit_1
I0925 22:08:06.288580 19160 net.cpp:425] lstm1_unit_1 <- c_0
I0925 22:08:06.288597 19160 net.cpp:425] lstm1_unit_1 <- gate_input_1
I0925 22:08:06.288609 19160 net.cpp:425] lstm1_unit_1 <- cont_1_lstm1_cont_slice_0_split_1
I0925 22:08:06.288630 19160 net.cpp:399] lstm1_unit_1 -> c_1
I0925 22:08:06.288652 19160 net.cpp:399] lstm1_unit_1 -> h_1
I0925 22:08:06.288802 19160 net.cpp:141] Setting up lstm1_unit_1
I0925 22:08:06.288820 19160 net.cpp:148] Top shape: 1 1 1000 (1000)
I0925 22:08:06.288831 19160 net.cpp:148] Top shape: 1 1 1000 (1000)
I0925 22:08:06.288839 19160 net.cpp:156] Memory required for data: 86016
I0925 22:08:06.288847 19160 layer_factory.hpp:77] Creating layer lstm1_
I0925 22:08:06.288862 19160 net.cpp:91] Creating Layer lstm1_
I0925 22:08:06.288871 19160 net.cpp:425] lstm1_ <- c_1
I0925 22:08:06.288882 19160 net.cpp:399] lstm1_ -> c_T
I0925 22:08:06.288941 19160 net.cpp:141] Setting up lstm1_
I0925 22:08:06.288959 19160 net.cpp:148] Top shape: 1 1 1000 (1000)
I0925 22:08:06.288967 19160 net.cpp:156] Memory required for data: 90016
I0925 22:08:06.288976 19160 layer_factory.hpp:77] Creating layer lstm1_h_concat
I0925 22:08:06.288991 19160 net.cpp:91] Creating Layer lstm1_h_concat
I0925 22:08:06.289005 19160 net.cpp:425] lstm1_h_concat <- h_1
I0925 22:08:06.289017 19160 net.cpp:399] lstm1_h_concat -> h
I0925 22:08:06.289074 19160 net.cpp:141] Setting up lstm1_h_concat
I0925 22:08:06.289089 19160 net.cpp:148] Top shape: 1 1 1000 (1000)
I0925 22:08:06.289098 19160 net.cpp:156] Memory required for data: 94016
I0925 22:08:06.289108 19160 layer_factory.hpp:77] Creating layer h_pseudoloss
I0925 22:08:06.289129 19160 net.cpp:91] Creating Layer h_pseudoloss
I0925 22:08:06.289140 19160 net.cpp:425] h_pseudoloss <- h
I0925 22:08:06.289153 19160 net.cpp:399] h_pseudoloss -> h_pseudoloss
I0925 22:08:06.289326 19160 net.cpp:141] Setting up h_pseudoloss
…
I0925 22:08:06.289533 19160 net.cpp:219] lstm1_ does not need backward computation.
I0925 22:08:06.289541 19160 net.cpp:261] This network produces output c_T
I0925 22:08:06.289551 19160 net.cpp:261] This network produces output h_pseudoloss
I0925 22:08:06.289587 19160 net.cpp:274] Network initialization done.
I0925 22:08:06.289669 19160 recurrent_layer.cpp:150] Adding parameter 0: W_xc
I0925 22:08:06.289685 19160 recurrent_layer.cpp:150] Adding parameter 1: b_c
I0925 22:08:06.289693 19160 recurrent_layer.cpp:150] Adding parameter 2: W_hc
I0925 22:08:06.289875 19160 net.cpp:141] Setting up lstm1
I0925 22:08:06.289893 19160 net.cpp:148] Top shape: 1 1 1000 (1000)
I0925 22:08:06.289902 19160 net.cpp:156] Memory required for data: 26408
I0925 22:08:06.289929 19160 layer_factory.hpp:77] Creating layer concat
I0925 22:08:06.289947 19160 net.cpp:91] Creating Layer concat
I0925 22:08:06.289959 19160 net.cpp:425] concat <- lstm1
I0925 22:08:06.289973 19160 net.cpp:425] concat <- embedded_input_sentence
I0925 22:08:06.289984 19160 net.cpp:425] concat <- reshaped_stage_indicator
I0925 22:08:06.289999 19160 net.cpp:399] concat -> lstm1_video_sequence
I0925 22:08:06.290056 19160 net.cpp:141] Setting up concat
I0925 22:08:06.290073 19160 net.cpp:148] Top shape: 1 1 1501 (1501)
I0925 22:08:06.290082 19160 net.cpp:156] Memory required for data: 32412
I0925 22:08:06.290094 19160 layer_factory.hpp:77] Creating layer lstm2
I0925 22:08:06.290118 19160 net.cpp:91] Creating Layer lstm2
I0925 22:08:06.290130 19160 net.cpp:425] lstm2 <- lstm1_video_sequence
I0925 22:08:06.290141 19160 net.cpp:425] lstm2 <- cont_sentence_input_1_split_1
I0925 22:08:06.290158 19160 net.cpp:399] lstm2 -> lstm2
I0925 22:08:06.290176 19160 recurrent_layer.cpp:20] Initializing recurrent layer: assuming input batch contains 1 timesteps of 1 independent streams.
I0925 22:08:06.290639 19160 net.cpp:49] Initializing net from parameters: 
layer {
  name: "lstm2_"
  type: "Input"
  top: "x"
  top: "cont"
  input_param {
    shape {
      dim: 1
      dim: 1
      dim: 1501
    }
    shape {
      dim: 1
      dim: 1
    }
  }
}
layer {
  name: "lstm2_"
  type: "Input"
  top: "c_0"
  top: "h_0"
  input_param {
    shape {
      dim: 1
      dim: 1
      dim: 1000
    }
    shape {
      dim: 1
      dim: 1
      dim: 1000
    }
  }
}
layer {
  name: "lstm2_cont_slice"
  type: "Slice"
  bottom: "cont"
  top: "cont_1"
  slice_param {
    axis: 0
  }
}
layer {
  name: "lstm2_x_transform"
  type: "InnerProduct"
  bottom: "x"
  top: "W_xc_x"
  param {
    name: "W_xc"
  }
  param {
    name: "b_c"
  }
  propagate_down: true
  inner_product_param {
    num_output: 4000
    bias_term: true
    weight_filler {
      type: "uniform"
      min: -0.08
      max: 0.08
    }
    bias_filler {
      type: "constant"
      value: 0
    }
    axis: 2
  }
}
layer {
  name: "lstm2_W_xc_x_slice"
  type: "Slice"
  bottom: "W_xc_x"
  top: "W_xc_x_1"
  slice_param {
    axis: 0
  }
}
layer {
  name: "lstm2_h_conted_0"
  type: "Scale"
  bottom: "h_0"
  bottom: "cont_1"
  top: "h_conted_0"
  scale_param {
    axis: 0
  }
}
layer {
  name: "lstm2_transform_1"
  type: "InnerProduct"
  bottom: "h_conted_0"
  top: "W_hc_h_0"
  param {
    name: "W_hc"
  }
  inner_product_param {
    num_output: 4000
    bias_term: false
    weight_filler {
      type: "uniform"
      min: -0.08
      max: 0.08
    }
    axis: 2
  }
}
layer {
  name: "lstm2_gate_input_1"
  type: "Eltwise"
  bottom: "W_hc_h_0"
  bottom: "W_xc_x_1"
  top: "gate_input_1"
  eltwise_param {
    operation: SUM
  }
}
layer {
  name: "lstm2_unit_1"
  type: "LSTMUnit"
  bottom: "c_0"
  bottom: "gate_input_1"
  bottom: "cont_1"
  top: "c_1"
  top: "h_1"
}
layer {
  name: "lstm2_"
  type: "Split"
  bottom: "c_1"
  top: "c_T"
}
layer {
  name: "lstm2_h_concat"
  type: "Concat"
  bottom: "h_1"
  top: "h"
  concat_param {
    axis: 0
  }
}
layer {
  name: "h_pseudoloss"
  type: "Reduction"
  bottom: "h"
  top: "h_pseudoloss"
  loss_weight: 1
}
I0925 22:08:06.290796 19160 layer_factory.hpp:77] Creating layer lstm2_
I0925 22:08:06.290819 19160 net.cpp:91] Creating Layer lstm2_
I0925 22:08:06.290832 19160 net.cpp:399] lstm2_ -> x
I0925 22:08:06.290853 19160 net.cpp:399] lstm2_ -> cont
I0925 22:08:06.290961 19160 net.cpp:141] Setting up lstm2_
I0925 22:08:06.290979 19160 net.cpp:148] Top shape: 1 1 1501 (1501)
I0925 22:08:06.290992 19160 net.cpp:148] Top shape: 1 1 (1)
I0925 22:08:06.291000 19160 net.cpp:156] Memory required for data: 6008
I0925 22:08:06.291010 19160 layer_factory.hpp:77] Creating layer lstm2_
I0925 22:08:06.291028 19160 net.cpp:91] Creating Layer lstm2_
I0925 22:08:06.291049 19160 net.cpp:399] lstm2_ -> c_0
I0925 22:08:06.291070 19160 net.cpp:399] lstm2_ -> h_0
I0925 22:08:06.291173 19160 net.cpp:141] Setting up lstm2_
I0925 22:08:06.291193 19160 net.cpp:148] Top shape: 1 1 1000 (1000)
I0925 22:08:06.291203 19160 net.cpp:148] Top shape: 1 1 1000 (1000)
I0925 22:08:06.291210 19160 net.cpp:156] Memory required for data: 14008
I0925 22:08:06.291219 19160 layer_factory.hpp:77] Creating layer lstm2_cont_slice
I0925 22:08:06.291241 19160 net.cpp:91] Creating Layer lstm2_cont_slice
I0925 22:08:06.291252 19160 net.cpp:425] lstm2_cont_slice <- cont
I0925 22:08:06.291266 19160 net.cpp:399] lstm2_cont_slice -> cont_1
I0925 22:08:06.291329 19160 net.cpp:141] Setting up lstm2_cont_slice
I0925 22:08:06.291348 19160 net.cpp:148] Top shape: 1 1 (1)
I0925 22:08:06.291357 19160 net.cpp:156] Memory required for data: 14012
I0925 22:08:06.291366 19160 layer_factory.hpp:77] Creating layer cont_1_lstm2_cont_slice_0_split
I0925 22:08:06.291380 19160 net.cpp:91] Creating Layer cont_1_lstm2_cont_slice_0_split
I0925 22:08:06.291390 19160 net.cpp:425] cont_1_lstm2_cont_slice_0_split <- cont_1
I0925 22:08:06.291409 19160 net.cpp:399] cont_1_lstm2_cont_slice_0_split -> cont_1_lstm2_cont_slice_0_split_0
I0925 22:08:06.291427 19160 net.cpp:399] cont_1_lstm2_cont_slice_0_split -> cont_1_lstm2_cont_slice_0_split_1
I0925 22:08:06.291524 19160 net.cpp:141] Setting up cont_1_lstm2_cont_slice_0_split
I0925 22:08:06.291541 19160 net.cpp:148] Top shape: 1 1 (1)
I0925 22:08:06.291553 19160 net.cpp:148] Top shape: 1 1 (1)
I0925 22:08:06.291563 19160 net.cpp:156] Memory required for data: 14020
I0925 22:08:06.291571 19160 layer_factory.hpp:77] Creating layer lstm2_x_transform
I0925 22:08:06.291595 19160 net.cpp:91] Creating Layer lstm2_x_transform
I0925 22:08:06.291606 19160 net.cpp:425] lstm2_x_transform <- x
I0925 22:08:06.291621 19160 net.cpp:399] lstm2_x_transform -> W_xc_x
I0925 22:08:06.307605 19142 net.cpp:141] Setting up lstm2_transform_1
I0925 22:08:06.307659 19142 net.cpp:148] Top shape: 1 1 4000 (4000)
I0925 22:08:06.307667 19142 net.cpp:156] Memory required for data: 66020
I0925 22:08:06.307699 19142 layer_factory.hpp:77] Creating layer lstm2_gate_input_1
I0925 22:08:06.307735 19142 net.cpp:91] Creating Layer lstm2_gate_input_1
I0925 22:08:06.307745 19142 net.cpp:425] lstm2_gate_input_1 <- W_hc_h_0
I0925 22:08:06.307757 19142 net.cpp:425] lstm2_gate_input_1 <- W_xc_x_1
I0925 22:08:06.307771 19142 net.cpp:399] lstm2_gate_input_1 -> gate_input_1
I0925 22:08:06.307855 19142 net.cpp:141] Setting up lstm2_gate_input_1
I0925 22:08:06.307869 19142 net.cpp:148] Top shape: 1 1 4000 (4000)
I0925 22:08:06.307878 19142 net.cpp:156] Memory required for data: 82020
I0925 22:08:06.307885 19142 layer_factory.hpp:77] Creating layer lstm2_unit_1
I0925 22:08:06.307904 19142 net.cpp:91] Creating Layer lstm2_unit_1
I0925 22:08:06.307909 19142 net.cpp:425] lstm2_unit_1 <- c_0
I0925 22:08:06.307916 19142 net.cpp:425] lstm2_unit_1 <- gate_input_1
I0925 22:08:06.307921 19142 net.cpp:425] lstm2_unit_1 <- cont_1_lstm2_cont_slice_0_split_1
I0925 22:08:06.307932 19142 net.cpp:399] lstm2_unit_1 -> c_1
I0925 22:08:06.307946 19142 net.cpp:399] lstm2_unit_1 -> h_1
I0925 22:08:06.308035 19142 net.cpp:141] Setting up lstm2_unit_1
I0925 22:08:06.308049 19142 net.cpp:148] Top shape: 1 1 1000 (1000)
I0925 22:08:06.308060 19142 net.cpp:148] Top shape: 1 1 1000 (1000)
I0925 22:08:06.308066 19142 net.cpp:156] Memory required for data: 90020
I0925 22:08:06.308071 19142 layer_factory.hpp:77] Creating layer lstm2_
I0925 22:08:06.308085 19142 net.cpp:91] Creating Layer lstm2_
I0925 22:08:06.308091 19142 net.cpp:425] lstm2_ <- c_1
I0925 22:08:06.308109 19142 net.cpp:399] lstm2_ -> c_T
I0925 22:08:06.308154 19142 net.cpp:141] Setting up lstm2_
I0925 22:08:06.308167 19142 net.cpp:148] Top shape: 1 1 1000 (1000)
I0925 22:08:06.308176 19142 net.cpp:156] Memory required for data: 94020
I0925 22:08:06.308183 19142 layer_factory.hpp:77] Creating layer lstm2_h_concat
I0925 22:08:06.308231 19142 net.cpp:91] Creating Layer lstm2_h_concat
I0925 22:08:06.308241 19142 net.cpp:425] lstm2_h_concat <- h_1
I0925 22:08:06.308250 19142 net.cpp:399] lstm2_h_concat -> h
I0925 22:08:06.308302 19142 net.cpp:141] Setting up lstm2_h_concat
I0925 22:08:06.308313 19142 net.cpp:148] Top shape: 1 1 1000 (1000)
I0925 22:08:06.308318 19142 net.cpp:156] Memory required for data: 98020
I0925 22:08:06.308323 19142 layer_factory.hpp:77] Creating layer h_pseudoloss
I0925 22:08:06.308333 19142 net.cpp:91] Creating Layer h_pseudoloss
I0925 22:08:06.308341 19142 net.cpp:425] h_pseudoloss <- h
I0925 22:08:06.308384 19142 net.cpp:399] h_pseudoloss -> h_pseudoloss
I0925 22:08:06.308544 19142 net.cpp:141] Setting up h_pseudoloss
…
I0925 22:08:06.308676 19142 net.cpp:219] lstm2_ does not need backward computation.
I0925 22:08:06.308681 19142 net.cpp:261] This network produces output c_T
I0925 22:08:06.308691 19142 net.cpp:261] This network produces output h_pseudoloss
I0925 22:08:06.308717 19142 net.cpp:274] Network initialization done.
I0925 22:08:06.308789 19142 recurrent_layer.cpp:150] Adding parameter 0: W_xc
I0925 22:08:06.308800 19142 recurrent_layer.cpp:150] Adding parameter 1: b_c
I0925 22:08:06.308809 19142 recurrent_layer.cpp:150] Adding parameter 2: W_hc
I0925 22:08:06.308959 19142 net.cpp:141] Setting up lstm2
I0925 22:08:06.308970 19142 net.cpp:148] Top shape: 1 1 1000 (1000)
I0925 22:08:06.308979 19142 net.cpp:156] Memory required for data: 36412
I0925 22:08:06.309000 19142 layer_factory.hpp:77] Creating layer predict
I0925 22:08:06.309016 19142 net.cpp:91] Creating Layer predict
I0925 22:08:06.309023 19142 net.cpp:425] predict <- lstm2
I0925 22:08:06.309031 19142 net.cpp:399] predict -> predict
I0925 22:08:06.309188 19136 net.cpp:141] Setting up lstm2_transform_1
I0925 22:08:06.309233 19136 net.cpp:148] Top shape: 1 1 4000 (4000)
I0925 22:08:06.309243 19136 net.cpp:156] Memory required for data: 66020
I0925 22:08:06.309269 19136 layer_factory.hpp:77] Creating layer lstm2_gate_input_1
I0925 22:08:06.309298 19136 net.cpp:91] Creating Layer lstm2_gate_input_1
I0925 22:08:06.309310 19136 net.cpp:425] lstm2_gate_input_1 <- W_hc_h_0
I0925 22:08:06.309321 19136 net.cpp:425] lstm2_gate_input_1 <- W_xc_x_1
I0925 22:08:06.309334 19136 net.cpp:399] lstm2_gate_input_1 -> gate_input_1
I0925 22:08:06.392297 19136 net.cpp:141] Setting up lstm2_gate_input_1
I0925 22:08:06.392354 19136 net.cpp:148] Top shape: 1 1 4000 (4000)
I0925 22:08:06.392364 19136 net.cpp:156] Memory required for data: 82020
I0925 22:08:06.392377 19136 layer_factory.hpp:77] Creating layer lstm2_unit_1
I0925 22:08:06.392384 19132 net.cpp:141] Setting up lstm2_x_transform
I0925 22:08:06.392400 19136 net.cpp:91] Creating Layer lstm2_unit_1
I0925 22:08:06.392400 19132 net.cpp:148] Top shape: 1 1 4000 (4000)
I0925 22:08:06.392422 19136 net.cpp:425] lstm2_unit_1 <- c_0
I0925 22:08:06.392424 19132 net.cpp:156] Memory required for data: 30020
I0925 22:08:06.392444 19136 net.cpp:425] lstm2_unit_1 <- gate_input_1
I0925 22:08:06.392455 19136 net.cpp:425] lstm2_unit_1 <- cont_1_lstm2_cont_slice_0_split_1
I0925 22:08:06.392455 19132 layer_factory.hpp:77] Creating layer lstm2_W_xc_x_slice
I0925 22:08:06.392472 19132 net.cpp:91] Creating Layer lstm2_W_xc_x_slice
I0925 22:08:06.392472 19136 net.cpp:399] lstm2_unit_1 -> c_1
I0925 22:08:06.392490 19132 net.cpp:425] lstm2_W_xc_x_slice <- W_xc_x
I0925 22:08:06.392499 19136 net.cpp:399] lstm2_unit_1 -> h_1
I0925 22:08:06.392504 19132 net.cpp:399] lstm2_W_xc_x_slice -> W_xc_x_1
I0925 22:08:06.392629 19132 net.cpp:141] Setting up lstm2_W_xc_x_slice
I0925 22:08:06.392642 19132 net.cpp:148] Top shape: 1 1 4000 (4000)
I0925 22:08:06.392647 19132 net.cpp:156] Memory required for data: 46020
I0925 22:08:06.392652 19132 layer_factory.hpp:77] Creating layer lstm2_h_conted_0
I0925 22:08:06.392668 19132 net.cpp:91] Creating Layer lstm2_h_conted_0
I0925 22:08:06.392674 19132 net.cpp:425] lstm2_h_conted_0 <- h_0
I0925 22:08:06.392680 19132 net.cpp:425] lstm2_h_conted_0 <- cont_1_lstm2_cont_slice_0_split_0
I0925 22:08:06.392688 19132 net.cpp:399] lstm2_h_conted_0 -> h_conted_0
I0925 22:08:06.393322 19136 net.cpp:141] Setting up lstm2_unit_1
I0925 22:08:06.393339 19136 net.cpp:148] Top shape: 1 1 1000 (1000)
I0925 22:08:06.393347 19136 net.cpp:148] Top shape: 1 1 1000 (1000)
I0925 22:08:06.393350 19136 net.cpp:156] Memory required for data: 90020
I0925 22:08:06.393357 19136 layer_factory.hpp:77] Creating layer lstm2_
I0925 22:08:06.393367 19136 net.cpp:91] Creating Layer lstm2_
I0925 22:08:06.393371 19136 net.cpp:425] lstm2_ <- c_1
I0925 22:08:06.393379 19136 net.cpp:399] lstm2_ -> c_T
I0925 22:08:06.393434 19160 net.cpp:141] Setting up lstm2_x_transform
I0925 22:08:06.393477 19160 net.cpp:148] Top shape: 1 1 4000 (4000)
I0925 22:08:06.393486 19160 net.cpp:156] Memory required for data: 30020
I0925 22:08:06.393512 19160 layer_factory.hpp:77] Creating layer lstm2_W_xc_x_slice
I0925 22:08:06.393517 19136 net.cpp:141] Setting up lstm2_
I0925 22:08:06.393527 19136 net.cpp:148] Top shape: 1 1 1000 (1000)
I0925 22:08:06.393533 19136 net.cpp:156] Memory required for data: 94020
I0925 22:08:06.393533 19160 net.cpp:91] Creating Layer lstm2_W_xc_x_slice
I0925 22:08:06.393538 19136 layer_factory.hpp:77] Creating layer lstm2_h_concat
I0925 22:08:06.393546 19160 net.cpp:425] lstm2_W_xc_x_slice <- W_xc_x
I0925 22:08:06.393550 19136 net.cpp:91] Creating Layer lstm2_h_concat
I0925 22:08:06.393556 19136 net.cpp:425] lstm2_h_concat <- h_1
I0925 22:08:06.393564 19136 net.cpp:399] lstm2_h_concat -> h
I0925 22:08:06.393563 19160 net.cpp:399] lstm2_W_xc_x_slice -> W_xc_x_1
I0925 22:08:06.393774 19132 net.cpp:141] Setting up lstm2_h_conted_0
I0925 22:08:06.393795 19132 net.cpp:148] Top shape: 1 1 1000 (1000)
I0925 22:08:06.393798 19136 net.cpp:141] Setting up lstm2_h_concat
I0925 22:08:06.393802 19132 net.cpp:156] Memory required for data: 50020
I0925 22:08:06.393810 19136 net.cpp:148] Top shape: 1 1 1000 (1000)
I0925 22:08:06.393811 19132 layer_factory.hpp:77] Creating layer lstm2_transform_1
I0925 22:08:06.393815 19136 net.cpp:156] Memory required for data: 98020
I0925 22:08:06.393828 19136 layer_factory.hpp:77] Creating layer h_pseudoloss
I0925 22:08:06.393838 19136 net.cpp:91] Creating Layer h_pseudoloss
I0925 22:08:06.393837 19132 net.cpp:91] Creating Layer lstm2_transform_1
I0925 22:08:06.393844 19136 net.cpp:425] h_pseudoloss <- h
I0925 22:08:06.393847 19132 net.cpp:425] lstm2_transform_1 <- h_conted_0
I0925 22:08:06.393851 19136 net.cpp:399] h_pseudoloss -> h_pseudoloss
I0925 22:08:06.393862 19132 net.cpp:399] lstm2_transform_1 -> W_hc_h_0
I0925 22:08:06.393859 19160 net.cpp:141] Setting up lstm2_W_xc_x_slice
I0925 22:08:06.393892 19160 net.cpp:148] Top shape: 1 1 4000 (4000)
I0925 22:08:06.393900 19160 net.cpp:156] Memory required for data: 46020
I0925 22:08:06.393908 19160 layer_factory.hpp:77] Creating layer lstm2_h_conted_0
I0925 22:08:06.393928 19160 net.cpp:91] Creating Layer lstm2_h_conted_0
I0925 22:08:06.393936 19160 net.cpp:425] lstm2_h_conted_0 <- h_0
I0925 22:08:06.393947 19160 net.cpp:425] lstm2_h_conted_0 <- cont_1_lstm2_cont_slice_0_split_0
…
I0925 22:08:06.399574 19136 net.cpp:217] lstm2_x_transform needs backward computation.
I0925 22:08:06.399580 19136 net.cpp:219] cont_1_lstm2_cont_slice_0_split does not need backward computation.
I0925 22:08:06.399588 19136 net.cpp:219] lstm2_cont_slice does not need backward computation.
I0925 22:08:06.399597 19136 net.cpp:219] lstm2_ does not need backward computation.
I0925 22:08:06.399605 19136 net.cpp:219] lstm2_ does not need backward computation.
I0925 22:08:06.399613 19136 net.cpp:261] This network produces output c_T
I0925 22:08:06.399612 19160 net.cpp:141] Setting up lstm2_h_conted_0
I0925 22:08:06.399669 19160 net.cpp:148] Top shape: 1 1 1000 (1000)
I0925 22:08:06.399643 19136 net.cpp:261] This network produces output h_pseudoloss
I0925 22:08:06.399679 19160 net.cpp:156] Memory required for data: 50020
I0925 22:08:06.399703 19136 net.cpp:274] Network initialization done.
I0925 22:08:06.399718 19160 layer_factory.hpp:77] Creating layer lstm2_transform_1
I0925 22:08:06.399745 19160 net.cpp:91] Creating Layer lstm2_transform_1
I0925 22:08:06.399756 19160 net.cpp:425] lstm2_transform_1 <- h_conted_0
I0925 22:08:06.399773 19160 net.cpp:399] lstm2_transform_1 -> W_hc_h_0
I0925 22:08:06.399785 19136 recurrent_layer.cpp:150] Adding parameter 0: W_xc
I0925 22:08:06.399798 19136 recurrent_layer.cpp:150] Adding parameter 1: b_c
I0925 22:08:06.399807 19136 recurrent_layer.cpp:150] Adding parameter 2: W_hc
I0925 22:08:06.420336 19136 net.cpp:141] Setting up lstm2
I0925 22:08:06.420395 19136 net.cpp:148] Top shape: 1 1 1000 (1000)
I0925 22:08:06.420406 19136 net.cpp:156] Memory required for data: 36412
I0925 22:08:06.420435 19136 layer_factory.hpp:77] Creating layer predict
I0925 22:08:06.420462 19136 net.cpp:91] Creating Layer predict
I0925 22:08:06.420475 19136 net.cpp:425] predict <- lstm2
I0925 22:08:06.420491 19136 net.cpp:399] predict -> predict
I0925 22:08:06.522166 19132 net.cpp:141] Setting up lstm2_transform_1
I0925 22:08:06.522223 19132 net.cpp:148] Top shape: 1 1 4000 (4000)
I0925 22:08:06.522233 19132 net.cpp:156] Memory required for data: 66020
I0925 22:08:06.522258 19132 layer_factory.hpp:77] Creating layer lstm2_gate_input_1
I0925 22:08:06.522250 19160 net.cpp:141] Setting up lstm2_transform_1
I0925 22:08:06.522289 19132 net.cpp:91] Creating Layer lstm2_gate_input_1
I0925 22:08:06.522297 19160 net.cpp:148] Top shape: 1 1 4000 (4000)
I0925 22:08:06.522301 19132 net.cpp:425] lstm2_gate_input_1 <- W_hc_h_0
I0925 22:08:06.522315 19160 net.cpp:156] Memory required for data: 66020
I0925 22:08:06.522323 19132 net.cpp:425] lstm2_gate_input_1 <- W_xc_x_1
I0925 22:08:06.522336 19132 net.cpp:399] lstm2_gate_input_1 -> gate_input_1
I0925 22:08:06.522339 19160 layer_factory.hpp:77] Creating layer lstm2_gate_input_1
I0925 22:08:06.522377 19160 net.cpp:91] Creating Layer lstm2_gate_input_1
I0925 22:08:06.522390 19160 net.cpp:425] lstm2_gate_input_1 <- W_hc_h_0
I0925 22:08:06.522403 19160 net.cpp:425] lstm2_gate_input_1 <- W_xc_x_1
I0925 22:08:06.522416 19160 net.cpp:399] lstm2_gate_input_1 -> gate_input_1
I0925 22:08:06.522433 19132 net.cpp:141] Setting up lstm2_gate_input_1
I0925 22:08:06.522445 19132 net.cpp:148] Top shape: 1 1 4000 (4000)
I0925 22:08:06.522452 19132 net.cpp:156] Memory required for data: 82020
I0925 22:08:06.522461 19132 layer_factory.hpp:77] Creating layer lstm2_unit_1
I0925 22:08:06.522475 19132 net.cpp:91] Creating Layer lstm2_unit_1
I0925 22:08:06.522480 19132 net.cpp:425] lstm2_unit_1 <- c_0
I0925 22:08:06.522486 19132 net.cpp:425] lstm2_unit_1 <- gate_input_1
I0925 22:08:06.522492 19132 net.cpp:425] lstm2_unit_1 <- cont_1_lstm2_cont_slice_0_split_1
I0925 22:08:06.522500 19132 net.cpp:399] lstm2_unit_1 -> c_1
I0925 22:08:06.522510 19132 net.cpp:399] lstm2_unit_1 -> h_1
I0925 22:08:06.522523 19160 net.cpp:141] Setting up lstm2_gate_input_1
I0925 22:08:06.522541 19160 net.cpp:148] Top shape: 1 1 4000 (4000)
I0925 22:08:06.522547 19160 net.cpp:156] Memory required for data: 82020
I0925 22:08:06.522552 19160 layer_factory.hpp:77] Creating layer lstm2_unit_1
I0925 22:08:06.522562 19160 net.cpp:91] Creating Layer lstm2_unit_1
I0925 22:08:06.522567 19160 net.cpp:425] lstm2_unit_1 <- c_0
I0925 22:08:06.522573 19160 net.cpp:425] lstm2_unit_1 <- gate_input_1
I0925 22:08:06.522584 19160 net.cpp:425] lstm2_unit_1 <- cont_1_lstm2_cont_slice_0_split_1
I0925 22:08:06.522605 19160 net.cpp:399] lstm2_unit_1 -> c_1
I0925 22:08:06.522622 19160 net.cpp:399] lstm2_unit_1 -> h_1
I0925 22:08:06.522660 19132 net.cpp:141] Setting up lstm2_unit_1
I0925 22:08:06.522672 19132 net.cpp:148] Top shape: 1 1 1000 (1000)
I0925 22:08:06.522678 19132 net.cpp:148] Top shape: 1 1 1000 (1000)
I0925 22:08:06.522682 19132 net.cpp:156] Memory required for data: 90020
I0925 22:08:06.522694 19132 layer_factory.hpp:77] Creating layer lstm2_
I0925 22:08:06.522716 19132 net.cpp:91] Creating Layer lstm2_
I0925 22:08:06.522725 19132 net.cpp:425] lstm2_ <- c_1
I0925 22:08:06.522733 19132 net.cpp:399] lstm2_ -> c_T
I0925 22:08:06.522816 19166 net.cpp:141] Setting up predict
I0925 22:08:06.522836 19166 net.cpp:148] Top shape: 1 1 46168 (46168)
I0925 22:08:06.522842 19166 net.cpp:156] Memory required for data: 221084
I0925 22:08:06.522855 19166 layer_factory.hpp:77] Creating layer probs
I0925 22:08:06.522869 19132 net.cpp:141] Setting up lstm2_
I0925 22:08:06.522871 19166 net.cpp:91] Creating Layer probs
I0925 22:08:06.522887 19132 net.cpp:148] Top shape: 1 1 1000 (1000)
I0925 22:08:06.522893 19132 net.cpp:156] Memory required for data: 94020
I0925 22:08:06.522897 19166 net.cpp:425] probs <- predict
I0925 22:08:06.522899 19132 layer_factory.hpp:77] Creating layer lstm2_h_concat
I0925 22:08:06.522917 19166 net.cpp:399] probs -> probs
I0925 22:08:06.522922 19132 net.cpp:91] Creating Layer lstm2_h_concat
I0925 22:08:06.522933 19132 net.cpp:425] lstm2_h_concat <- h_1
I0925 22:08:06.522946 19132 net.cpp:399] lstm2_h_concat -> h
I0925 22:08:06.523005 19132 net.cpp:141] Setting up lstm2_h_concat
I0925 22:08:06.523021 19132 net.cpp:148] Top shape: 1 1 1000 (1000)
I0925 22:08:06.523030 19132 net.cpp:156] Memory required for data: 98020
I0925 22:08:06.523036 19132 layer_factory.hpp:77] Creating layer h_pseudoloss
I0925 22:08:06.523046 19132 net.cpp:91] Creating Layer h_pseudoloss
I0925 22:08:06.523051 19132 net.cpp:425] h_pseudoloss <- h
I0925 22:08:06.523058 19132 net.cpp:399] h_pseudoloss -> h_pseudoloss
I0925 22:08:06.523066 19160 net.cpp:141] Setting up lstm2_unit_1
I0925 22:08:06.523084 19160 net.cpp:148] Top shape: 1 1 1000 (1000)
I0925 22:08:06.523097 19160 net.cpp:148] Top shape: 1 1 1000 (1000)
I0925 22:08:06.523104 19160 net.cpp:156] Memory required for data: 90020
I0925 22:08:06.523111 19160 layer_factory.hpp:77] Creating layer lstm2_
I0925 22:08:06.523129 19160 net.cpp:91] Creating Layer lstm2_
I0925 22:08:06.523139 19160 net.cpp:425] lstm2_ <- c_1
I0925 22:08:06.523147 19160 net.cpp:399] lstm2_ -> c_T
I0925 22:08:06.523211 19132 net.cpp:141] Setting up h_pseudoloss
I0925 22:08:06.523223 19132 net.cpp:148] Top shape: (1)
I0925 22:08:06.523228 19132 net.cpp:151]     with loss weight 1
I0925 22:08:06.523252 19132 net.cpp:156] Memory required for data: 98024
I0925 22:08:06.523254 19160 net.cpp:141] Setting up lstm2_
I0925 22:08:06.523262 19132 net.cpp:217] h_pseudoloss needs backward computation.
I0925 22:08:06.523270 19132 net.cpp:217] lstm2_h_concat needs backward computation.
I0925 22:08:06.523270 19160 net.cpp:148] Top shape: 1 1 1000 (1000)
I0925 22:08:06.523275 19132 net.cpp:219] lstm2_ does not need backward computation.
I0925 22:08:06.523282 19132 net.cpp:217] lstm2_unit_1 needs backward computation.
I0925 22:08:06.523282 19160 net.cpp:156] Memory required for data: 94020
I0925 22:08:06.523288 19132 net.cpp:217] lstm2_gate_input_1 needs backward computation.
I0925 22:08:06.523293 19132 net.cpp:217] lstm2_transform_1 needs backward computation.
…
I0925 22:08:06.533112 19160 net.cpp:217] lstm2_gate_input_1 needs backward computation.
I0925 22:08:06.533121 19160 net.cpp:217] lstm2_transform_1 needs backward computation.
I0925 22:08:06.533130 19160 net.cpp:219] lstm2_h_conted_0 does not need backward computation.
I0925 22:08:06.533129 19132 net.cpp:141] Setting up lstm2
I0925 22:08:06.533157 19160 net.cpp:217] lstm2_W_xc_x_slice needs backward computation.
I0925 22:08:06.533169 19160 net.cpp:217] lstm2_x_transform needs backward computation.
I0925 22:08:06.533174 19160 net.cpp:219] cont_1_lstm2_cont_slice_0_split does not need backward computation.
I0925 22:08:06.533174 19132 net.cpp:148] Top shape: 1 1 1000 (1000)
I0925 22:08:06.533182 19160 net.cpp:219] lstm2_cont_slice does not need backward computation.
I0925 22:08:06.533186 19132 net.cpp:156] Memory required for data: 36412
I0925 22:08:06.533190 19160 net.cpp:219] lstm2_ does not need backward computation.
I0925 22:08:06.533205 19160 net.cpp:219] lstm2_ does not need backward computation.
I0925 22:08:06.533210 19160 net.cpp:261] This network produces output c_T
I0925 22:08:06.533215 19160 net.cpp:261] This network produces output h_pseudoloss
I0925 22:08:06.533219 19132 layer_factory.hpp:77] Creating layer predict
I0925 22:08:06.533231 19160 net.cpp:274] Network initialization done.
I0925 22:08:06.533246 19132 net.cpp:91] Creating Layer predict
I0925 22:08:06.533258 19132 net.cpp:425] predict <- lstm2
I0925 22:08:06.533272 19132 net.cpp:399] predict -> predict
I0925 22:08:06.533285 19160 recurrent_layer.cpp:150] Adding parameter 0: W_xc
I0925 22:08:06.533293 19160 recurrent_layer.cpp:150] Adding parameter 1: b_c
I0925 22:08:06.533298 19160 recurrent_layer.cpp:150] Adding parameter 2: W_hc
I0925 22:08:06.622803 19160 net.cpp:141] Setting up lstm2
I0925 22:08:06.622895 19160 net.cpp:148] Top shape: 1 1 1000 (1000)
I0925 22:08:06.622910 19160 net.cpp:156] Memory required for data: 36412
I0925 22:08:06.622962 19160 layer_factory.hpp:77] Creating layer predict
I0925 22:08:06.623039 19160 net.cpp:91] Creating Layer predict
I0925 22:08:06.623050 19160 net.cpp:425] predict <- lstm2
I0925 22:08:06.623065 19160 net.cpp:399] predict -> predict
I0925 22:08:06.737859 19134 net.cpp:141] Setting up predict
I0925 22:08:06.738325 19134 net.cpp:148] Top shape: 1 1 46168 (46168)
I0925 22:08:06.738505 19134 net.cpp:156] Memory required for data: 221084
I0925 22:08:06.738751 19134 layer_factory.hpp:77] Creating layer probs
I0925 22:08:06.738904 19134 net.cpp:91] Creating Layer probs
I0925 22:08:06.739053 19134 net.cpp:425] probs <- predict
I0925 22:08:06.739245 19134 net.cpp:399] probs -> probs
I0925 22:08:06.773386 19142 net.cpp:141] Setting up predict
I0925 22:08:06.773443 19142 net.cpp:148] Top shape: 1 1 46168 (46168)
I0925 22:08:06.773450 19142 net.cpp:156] Memory required for data: 221084
I0925 22:08:06.773466 19142 layer_factory.hpp:77] Creating layer probs
I0925 22:08:06.773488 19142 net.cpp:91] Creating Layer probs
I0925 22:08:06.773514 19142 net.cpp:425] probs <- predict
I0925 22:08:06.773526 19142 net.cpp:399] probs -> probs
I0925 22:08:06.860563 19142 net.cpp:141] Setting up probs
I0925 22:08:06.860622 19142 net.cpp:148] Top shape: 1 1 46168 (46168)
I0925 22:08:06.860630 19142 net.cpp:156] Memory required for data: 405756
I0925 22:08:06.860641 19142 net.cpp:219] probs does not need backward computation.
I0925 22:08:06.860648 19142 net.cpp:219] predict does not need backward computation.
I0925 22:08:06.860676 19142 net.cpp:219] lstm2 does not need backward computation.
I0925 22:08:06.860682 19142 net.cpp:219] concat does not need backward computation.
I0925 22:08:06.860689 19142 net.cpp:219] lstm1 does not need backward computation.
I0925 22:08:06.860697 19142 net.cpp:219] embedding does not need backward computation.
I0925 22:08:06.860702 19142 net.cpp:219] reshape_stage_indicator does not need backward computation.
I0925 22:08:06.860707 19142 net.cpp:219] reshape_frames does not need backward computation.
I0925 22:08:06.860712 19142 net.cpp:219] embed_encoder does not need backward computation.
I0925 22:08:06.861184 19142 net.cpp:219] cont_sentence_input_1_split does not need backward computation.
I0925 22:08:06.861191 19142 net.cpp:219] input does not need backward computation.
I0925 22:08:06.861266 19142 net.cpp:261] This network produces output probs
I0925 22:08:06.861294 19142 net.cpp:274] Network initialization done.
I0925 22:08:06.861652 19134 net.cpp:141] Setting up probs
I0925 22:08:06.861695 19134 net.cpp:148] Top shape: 1 1 46168 (46168)
I0925 22:08:06.861704 19134 net.cpp:156] Memory required for data: 405756
I0925 22:08:06.861717 19134 net.cpp:219] probs does not need backward computation.
I0925 22:08:06.861727 19134 net.cpp:219] predict does not need backward computation.
I0925 22:08:06.861739 19134 net.cpp:219] lstm2 does not need backward computation.
I0925 22:08:06.861749 19134 net.cpp:219] concat does not need backward computation.
I0925 22:08:06.861759 19134 net.cpp:219] lstm1 does not need backward computation.
I0925 22:08:06.861769 19134 net.cpp:219] embedding does not need backward computation.
I0925 22:08:06.861779 19134 net.cpp:219] reshape_stage_indicator does not need backward computation.
I0925 22:08:06.861788 19134 net.cpp:219] reshape_frames does not need backward computation.
I0925 22:08:06.861798 19134 net.cpp:219] embed_encoder does not need backward computation.
I0925 22:08:06.861807 19134 net.cpp:219] cont_sentence_input_1_split does not need backward computation.
I0925 22:08:06.861817 19134 net.cpp:219] input does not need backward computation.
I0925 22:08:06.861824 19134 net.cpp:261] This network produces output probs
I0925 22:08:06.862247 19134 net.cpp:274] Network initialization done.
I0925 22:08:06.862265 19166 net.cpp:141] Setting up probs
I0925 22:08:06.862287 19166 net.cpp:148] Top shape: 1 1 46168 (46168)
I0925 22:08:06.862293 19166 net.cpp:156] Memory required for data: 405756
I0925 22:08:06.862299 19166 net.cpp:219] probs does not need backward computation.
I0925 22:08:06.862306 19166 net.cpp:219] predict does not need backward computation.
I0925 22:08:06.862311 19166 net.cpp:219] lstm2 does not need backward computation.
I0925 22:08:06.862318 19166 net.cpp:219] concat does not need backward computation.
I0925 22:08:06.862324 19166 net.cpp:219] lstm1 does not need backward computation.
I0925 22:08:06.862344 19166 net.cpp:219] embedding does not need backward computation.
I0925 22:08:06.862370 19166 net.cpp:219] reshape_stage_indicator does not need backward computation.
I0925 22:08:06.862376 19166 net.cpp:219] reshape_frames does not need backward computation.
I0925 22:08:06.862381 19166 net.cpp:219] embed_encoder does not need backward computation.
I0925 22:08:06.862387 19166 net.cpp:219] cont_sentence_input_1_split does not need backward computation.
I0925 22:08:06.862393 19166 net.cpp:219] input does not need backward computation.
I0925 22:08:06.862397 19166 net.cpp:261] This network produces output probs
I0925 22:08:06.862414 19166 net.cpp:274] Network initialization done.
I0925 22:08:06.863860 19158 net.cpp:141] Setting up conv1
I0925 22:08:06.863888 19158 net.cpp:148] Top shape: 10 96 55 55 (2904000)
I0925 22:08:06.863896 19158 net.cpp:156] Memory required for data: 17799480
I0925 22:08:06.863950 19158 layer_factory.hpp:77] Creating layer relu1
I0925 22:08:06.863976 19158 net.cpp:91] Creating Layer relu1
I0925 22:08:06.863984 19158 net.cpp:425] relu1 <- conv1
I0925 22:08:06.863999 19158 net.cpp:386] relu1 -> conv1 (in-place)
I0925 22:08:06.864917 19158 net.cpp:141] Setting up relu1
I0925 22:08:06.864943 19158 net.cpp:148] Top shape: 10 96 55 55 (2904000)
I0925 22:08:06.864951 19158 net.cpp:156] Memory required for data: 29415480
I0925 22:08:06.864960 19158 layer_factory.hpp:77] Creating layer pool1
I0925 22:08:06.864979 19158 net.cpp:91] Creating Layer pool1
I0925 22:08:06.864989 19158 net.cpp:425] pool1 <- conv1
I0925 22:08:06.865036 19158 net.cpp:399] pool1 -> pool1
I0925 22:08:06.865183 19158 net.cpp:141] Setting up pool1
I0925 22:08:06.865209 19158 net.cpp:148] Top shape: 10 96 27 27 (699840)
I0925 22:08:06.865221 19158 net.cpp:156] Memory required for data: 32214840
I0925 22:08:06.865231 19158 layer_factory.hpp:77] Creating layer norm1
I0925 22:08:06.865767 19158 net.cpp:91] Creating Layer norm1
I0925 22:08:06.865789 19158 net.cpp:425] norm1 <- pool1
I0925 22:08:06.865808 19158 net.cpp:399] norm1 -> norm1
I0925 22:08:06.867420 19158 net.cpp:141] Setting up norm1
I0925 22:08:06.867750 19158 net.cpp:148] Top shape: 10 96 27 27 (699840)
I0925 22:08:06.867763 19158 net.cpp:156] Memory required for data: 35014200
I0925 22:08:06.867780 19158 layer_factory.hpp:77] Creating layer conv2
I0925 22:08:06.867830 19158 net.cpp:91] Creating Layer conv2
I0925 22:08:06.867846 19158 net.cpp:425] conv2 <- norm1
I0925 22:08:06.867867 19158 net.cpp:399] conv2 -> conv2
I0925 22:08:06.878432 19158 net.cpp:141] Setting up conv2
I0925 22:08:06.878515 19158 net.cpp:148] Top shape: 10 256 27 27 (1866240)
I0925 22:08:06.878528 19158 net.cpp:156] Memory required for data: 42479160
I0925 22:08:06.878568 19158 layer_factory.hpp:77] Creating layer relu2
I0925 22:08:06.878618 19158 net.cpp:91] Creating Layer relu2
I0925 22:08:06.878633 19158 net.cpp:425] relu2 <- conv2
I0925 22:08:06.878669 19158 net.cpp:386] relu2 -> conv2 (in-place)
I0925 22:08:06.880537 19158 net.cpp:141] Setting up relu2
I0925 22:08:06.880594 19158 net.cpp:148] Top shape: 10 256 27 27 (1866240)
I0925 22:08:06.880605 19158 net.cpp:156] Memory required for data: 49944120
I0925 22:08:06.880623 19158 layer_factory.hpp:77] Creating layer pool2
I0925 22:08:06.880661 19158 net.cpp:91] Creating Layer pool2
I0925 22:08:06.880673 19158 net.cpp:425] pool2 <- conv2
I0925 22:08:06.880693 19158 net.cpp:399] pool2 -> pool2
I0925 22:08:06.881032 19158 net.cpp:141] Setting up pool2
I0925 22:08:06.881049 19158 net.cpp:148] Top shape: 10 256 13 13 (432640)
I0925 22:08:06.881057 19158 net.cpp:156] Memory required for data: 51674680
I0925 22:08:06.881064 19158 layer_factory.hpp:77] Creating layer norm2
I0925 22:08:06.881557 19158 net.cpp:91] Creating Layer norm2
I0925 22:08:06.881572 19158 net.cpp:425] norm2 <- pool2
I0925 22:08:06.881716 19158 net.cpp:399] norm2 -> norm2
I0925 22:08:06.884183 19158 net.cpp:141] Setting up norm2
I0925 22:08:06.884238 19158 net.cpp:148] Top shape: 10 256 13 13 (432640)
I0925 22:08:06.884249 19158 net.cpp:156] Memory required for data: 53405240
I0925 22:08:06.884323 19158 layer_factory.hpp:77] Creating layer conv3
I0925 22:08:06.884727 19158 net.cpp:91] Creating Layer conv3
I0925 22:08:06.884747 19158 net.cpp:425] conv3 <- norm2
I0925 22:08:06.884773 19158 net.cpp:399] conv3 -> conv3
I0925 22:08:06.902616 19158 net.cpp:141] Setting up conv3
I0925 22:08:06.902667 19158 net.cpp:148] Top shape: 10 384 13 13 (648960)
I0925 22:08:06.902678 19158 net.cpp:156] Memory required for data: 56001080
I0925 22:08:06.903146 19158 layer_factory.hpp:77] Creating layer relu3
I0925 22:08:06.903173 19158 net.cpp:91] Creating Layer relu3
I0925 22:08:06.903182 19158 net.cpp:425] relu3 <- conv3
I0925 22:08:06.903192 19158 net.cpp:386] relu3 -> conv3 (in-place)
I0925 22:08:06.903663 19158 net.cpp:141] Setting up relu3
I0925 22:08:06.903681 19158 net.cpp:148] Top shape: 10 384 13 13 (648960)
I0925 22:08:06.903690 19158 net.cpp:156] Memory required for data: 58596920
I0925 22:08:06.903699 19158 layer_factory.hpp:77] Creating layer conv4
I0925 22:08:06.904187 19158 net.cpp:91] Creating Layer conv4
I0925 22:08:06.904199 19158 net.cpp:425] conv4 <- conv3
I0925 22:08:06.904208 19158 net.cpp:399] conv4 -> conv4
I0925 22:08:06.921306 19136 net.cpp:141] Setting up predict
I0925 22:08:06.921382 19136 net.cpp:148] Top shape: 1 1 46168 (46168)
I0925 22:08:06.921396 19136 net.cpp:156] Memory required for data: 221084
I0925 22:08:06.921425 19136 layer_factory.hpp:77] Creating layer probs
I0925 22:08:06.921937 19136 net.cpp:91] Creating Layer probs
I0925 22:08:06.921954 19136 net.cpp:425] probs <- predict
I0925 22:08:06.921973 19136 net.cpp:399] probs -> probs
I0925 22:08:06.924958 19136 net.cpp:141] Setting up probs
I0925 22:08:06.925021 19136 net.cpp:148] Top shape: 1 1 46168 (46168)
I0925 22:08:06.925029 19136 net.cpp:156] Memory required for data: 405756
I0925 22:08:06.925040 19136 net.cpp:219] probs does not need backward computation.
I0925 22:08:06.925050 19136 net.cpp:219] predict does not need backward computation.
I0925 22:08:06.925071 19136 net.cpp:219] lstm2 does not need backward computation.
I0925 22:08:06.925078 19136 net.cpp:219] concat does not need backward computation.
I0925 22:08:06.925086 19136 net.cpp:219] lstm1 does not need backward computation.
I0925 22:08:06.925093 19136 net.cpp:219] embedding does not need backward computation.
I0925 22:08:06.925098 19136 net.cpp:219] reshape_stage_indicator does not need backward computation.
I0925 22:08:06.925104 19136 net.cpp:219] reshape_frames does not need backward computation.
I0925 22:08:06.925112 19136 net.cpp:219] embed_encoder does not need backward computation.
I0925 22:08:06.925117 19136 net.cpp:219] cont_sentence_input_1_split does not need backward computation.
I0925 22:08:06.925122 19136 net.cpp:219] input does not need backward computation.
I0925 22:08:06.925127 19136 net.cpp:261] This network produces output probs
I0925 22:08:06.925145 19136 net.cpp:274] Network initialization done.
I0925 22:08:06.928725 19158 net.cpp:141] Setting up conv4
I0925 22:08:06.928814 19158 net.cpp:148] Top shape: 10 384 13 13 (648960)
I0925 22:08:06.928833 19158 net.cpp:156] Memory required for data: 61192760
I0925 22:08:06.928889 19158 layer_factory.hpp:77] Creating layer relu4
I0925 22:08:06.929004 19158 net.cpp:91] Creating Layer relu4
I0925 22:08:06.929028 19158 net.cpp:425] relu4 <- conv4
I0925 22:08:06.929052 19158 net.cpp:386] relu4 -> conv4 (in-place)
I0925 22:08:06.930016 19158 net.cpp:141] Setting up relu4
I0925 22:08:06.930061 19158 net.cpp:148] Top shape: 10 384 13 13 (648960)
I0925 22:08:06.930068 19158 net.cpp:156] Memory required for data: 63788600
I0925 22:08:06.930078 19158 layer_factory.hpp:77] Creating layer conv5
I0925 22:08:06.930107 19158 net.cpp:91] Creating Layer conv5
I0925 22:08:06.930115 19158 net.cpp:425] conv5 <- conv4
I0925 22:08:06.930135 19158 net.cpp:399] conv5 -> conv5
I0925 22:08:06.943953 19158 net.cpp:141] Setting up conv5
I0925 22:08:06.943999 19158 net.cpp:148] Top shape: 10 256 13 13 (432640)
I0925 22:08:06.944005 19158 net.cpp:156] Memory required for data: 65519160
I0925 22:08:06.944030 19158 layer_factory.hpp:77] Creating layer relu5
I0925 22:08:06.944077 19158 net.cpp:91] Creating Layer relu5
I0925 22:08:06.944085 19158 net.cpp:425] relu5 <- conv5
I0925 22:08:06.944094 19158 net.cpp:386] relu5 -> conv5 (in-place)
I0925 22:08:06.945075 19158 net.cpp:141] Setting up relu5
I0925 22:08:06.945097 19158 net.cpp:148] Top shape: 10 256 13 13 (432640)
I0925 22:08:06.945106 19158 net.cpp:156] Memory required for data: 67249720
I0925 22:08:06.945116 19158 layer_factory.hpp:77] Creating layer pool5
I0925 22:08:06.945134 19158 net.cpp:91] Creating Layer pool5
I0925 22:08:06.945143 19158 net.cpp:425] pool5 <- conv5
I0925 22:08:06.945155 19158 net.cpp:399] pool5 -> pool5
I0925 22:08:06.946106 19158 net.cpp:141] Setting up pool5
I0925 22:08:06.946157 19158 net.cpp:148] Top shape: 10 256 6 6 (92160)
I0925 22:08:06.946167 19158 net.cpp:156] Memory required for data: 67618360
I0925 22:08:06.946183 19158 layer_factory.hpp:77] Creating layer fc6
I0925 22:08:06.946214 19158 net.cpp:91] Creating Layer fc6
I0925 22:08:06.946223 19158 net.cpp:425] fc6 <- pool5
I0925 22:08:06.946707 19158 net.cpp:399] fc6 -> fc6
I0925 22:08:07.079185 19158 net.cpp:141] Setting up fc6
I0925 22:08:07.079232 19158 net.cpp:148] Top shape: 10 4096 (40960)
I0925 22:08:07.079242 19158 net.cpp:156] Memory required for data: 67782200
I0925 22:08:07.079265 19158 layer_factory.hpp:77] Creating layer relu6
I0925 22:08:07.079288 19158 net.cpp:91] Creating Layer relu6
I0925 22:08:07.079294 19158 net.cpp:425] relu6 <- fc6
I0925 22:08:07.079303 19158 net.cpp:386] relu6 -> fc6 (in-place)
I0925 22:08:07.079747 19158 net.cpp:141] Setting up relu6
I0925 22:08:07.079761 19158 net.cpp:148] Top shape: 10 4096 (40960)
I0925 22:08:07.079766 19158 net.cpp:156] Memory required for data: 67946040
I0925 22:08:07.079772 19158 layer_factory.hpp:77] Creating layer drop6
I0925 22:08:07.079818 19158 net.cpp:91] Creating Layer drop6
I0925 22:08:07.079824 19158 net.cpp:425] drop6 <- fc6
I0925 22:08:07.079833 19158 net.cpp:386] drop6 -> fc6 (in-place)
I0925 22:08:07.079888 19158 net.cpp:141] Setting up drop6
I0925 22:08:07.079898 19158 net.cpp:148] Top shape: 10 4096 (40960)
I0925 22:08:07.079903 19158 net.cpp:156] Memory required for data: 68109880
I0925 22:08:07.079908 19158 layer_factory.hpp:77] Creating layer fc7
I0925 22:08:07.079923 19158 net.cpp:91] Creating Layer fc7
I0925 22:08:07.079929 19158 net.cpp:425] fc7 <- fc6
I0925 22:08:07.079936 19158 net.cpp:399] fc7 -> fc7
I0925 22:08:07.113338 19160 net.cpp:141] Setting up predict
I0925 22:08:07.113397 19160 net.cpp:148] Top shape: 1 1 46168 (46168)
I0925 22:08:07.113404 19160 net.cpp:156] Memory required for data: 221084
I0925 22:08:07.113420 19160 layer_factory.hpp:77] Creating layer probs
I0925 22:08:07.113441 19160 net.cpp:91] Creating Layer probs
I0925 22:08:07.113448 19160 net.cpp:425] probs <- predict
I0925 22:08:07.113461 19160 net.cpp:399] probs -> probs
I0925 22:08:07.115942 19160 net.cpp:141] Setting up probs
I0925 22:08:07.116009 19160 net.cpp:148] Top shape: 1 1 46168 (46168)
I0925 22:08:07.116016 19160 net.cpp:156] Memory required for data: 405756
I0925 22:08:07.116029 19160 net.cpp:219] probs does not need backward computation.
I0925 22:08:07.116037 19160 net.cpp:219] predict does not need backward computation.
I0925 22:08:07.116044 19160 net.cpp:219] lstm2 does not need backward computation.
I0925 22:08:07.116050 19160 net.cpp:219] concat does not need backward computation.
I0925 22:08:07.116055 19160 net.cpp:219] lstm1 does not need backward computation.
I0925 22:08:07.116062 19160 net.cpp:219] embedding does not need backward computation.
I0925 22:08:07.116067 19160 net.cpp:219] reshape_stage_indicator does not need backward computation.
I0925 22:08:07.116072 19160 net.cpp:219] reshape_frames does not need backward computation.
I0925 22:08:07.116077 19160 net.cpp:219] embed_encoder does not need backward computation.
I0925 22:08:07.116084 19160 net.cpp:219] cont_sentence_input_1_split does not need backward computation.
I0925 22:08:07.116091 19160 net.cpp:219] input does not need backward computation.
I0925 22:08:07.116094 19160 net.cpp:261] This network produces output probs
I0925 22:08:07.116116 19160 net.cpp:274] Network initialization done.
I0925 22:08:07.122242 19132 net.cpp:141] Setting up predict
I0925 22:08:07.122320 19132 net.cpp:148] Top shape: 1 1 46168 (46168)
I0925 22:08:07.122330 19132 net.cpp:156] Memory required for data: 221084
I0925 22:08:07.122362 19132 layer_factory.hpp:77] Creating layer probs
I0925 22:08:07.122392 19132 net.cpp:91] Creating Layer probs
I0925 22:08:07.122409 19132 net.cpp:425] probs <- predict
I0925 22:08:07.122427 19132 net.cpp:399] probs -> probs
I0925 22:08:07.123479 19132 net.cpp:141] Setting up probs
I0925 22:08:07.123536 19132 net.cpp:148] Top shape: 1 1 46168 (46168)
I0925 22:08:07.123549 19132 net.cpp:156] Memory required for data: 405756
I0925 22:08:07.123564 19132 net.cpp:219] probs does not need backward computation.
I0925 22:08:07.123579 19132 net.cpp:219] predict does not need backward computation.
I0925 22:08:07.123592 19132 net.cpp:219] lstm2 does not need backward computation.
I0925 22:08:07.123608 19132 net.cpp:219] concat does not need backward computation.
I0925 22:08:07.123621 19132 net.cpp:219] lstm1 does not need backward computation.
I0925 22:08:07.123634 19132 net.cpp:219] embedding does not need backward computation.
I0925 22:08:07.123644 19132 net.cpp:219] reshape_stage_indicator does not need backward computation.
I0925 22:08:07.123656 19132 net.cpp:219] reshape_frames does not need backward computation.
I0925 22:08:07.123666 19132 net.cpp:219] embed_encoder does not need backward computation.
I0925 22:08:07.123675 19132 net.cpp:219] cont_sentence_input_1_split does not need backward computation.
I0925 22:08:07.123687 19132 net.cpp:219] input does not need backward computation.
I0925 22:08:07.123695 19132 net.cpp:261] This network produces output probs
I0925 22:08:07.123728 19132 net.cpp:274] Network initialization done.
I0925 22:08:07.134027 19158 net.cpp:141] Setting up fc7
I0925 22:08:07.134095 19158 net.cpp:148] Top shape: 10 4096 (40960)
I0925 22:08:07.134104 19158 net.cpp:156] Memory required for data: 68273720
I0925 22:08:07.134119 19158 layer_factory.hpp:77] Creating layer relu7
I0925 22:08:07.134138 19158 net.cpp:91] Creating Layer relu7
I0925 22:08:07.134145 19158 net.cpp:425] relu7 <- fc7
I0925 22:08:07.134155 19158 net.cpp:386] relu7 -> fc7 (in-place)
I0925 22:08:07.138345 19158 net.cpp:141] Setting up relu7
I0925 22:08:07.138412 19158 net.cpp:148] Top shape: 10 4096 (40960)
I0925 22:08:07.138423 19158 net.cpp:156] Memory required for data: 68437560
I0925 22:08:07.138438 19158 layer_factory.hpp:77] Creating layer drop7
I0925 22:08:07.138464 19158 net.cpp:91] Creating Layer drop7
I0925 22:08:07.138476 19158 net.cpp:425] drop7 <- fc7
I0925 22:08:07.138494 19158 net.cpp:386] drop7 -> fc7 (in-place)
I0925 22:08:07.139096 19158 net.cpp:141] Setting up drop7
I0925 22:08:07.139124 19158 net.cpp:148] Top shape: 10 4096 (40960)
I0925 22:08:07.139135 19158 net.cpp:156] Memory required for data: 68601400
I0925 22:08:07.139147 19158 layer_factory.hpp:77] Creating layer fc8
I0925 22:08:07.139240 19158 net.cpp:91] Creating Layer fc8
I0925 22:08:07.139287 19158 net.cpp:425] fc8 <- fc7
I0925 22:08:07.139317 19158 net.cpp:399] fc8 -> fc8
I0925 22:08:07.156028 19158 net.cpp:141] Setting up fc8
I0925 22:08:07.156082 19158 net.cpp:148] Top shape: 10 1000 (10000)
I0925 22:08:07.156092 19158 net.cpp:156] Memory required for data: 68641400
I0925 22:08:07.156112 19158 layer_factory.hpp:77] Creating layer prob
I0925 22:08:07.156137 19158 net.cpp:91] Creating Layer prob
I0925 22:08:07.156149 19158 net.cpp:425] prob <- fc8
I0925 22:08:07.156169 19158 net.cpp:399] prob -> prob
I0925 22:08:07.159049 19158 net.cpp:141] Setting up prob
I0925 22:08:07.159085 19158 net.cpp:148] Top shape: 10 1000 (10000)
I0925 22:08:07.159096 19158 net.cpp:156] Memory required for data: 68681400
I0925 22:08:07.159106 19158 net.cpp:219] prob does not need backward computation.
I0925 22:08:07.159117 19158 net.cpp:219] fc8 does not need backward computation.
I0925 22:08:07.159126 19158 net.cpp:219] drop7 does not need backward computation.
I0925 22:08:07.159134 19158 net.cpp:219] relu7 does not need backward computation.
…
