…
2016-07-13 13:18:36.805 n.t.s.b.CVParticleBolt [INFO] [Timing] RequestID: 0 StreamID: home/peifeng/work/data/frame.320x240.jpg SequenceNr: 22 Entering scale: 1468430316805
2016-07-13 13:18:36.805 n.t.s.s.CVParticleSpout [INFO] [Timing] RequestID: 0 StreamID: home/peifeng/work/data/frame.320x240.jpg SequenceNr: 22 Leaving fetcher: 1468430316805 Size: 8702
2016-07-13 13:18:36.814 n.t.s.b.CVParticleBolt [INFO] [Timing] RequestID: 0 StreamID: home/peifeng/work/data/frame.320x240.jpg SequenceNr: 22 Leaving scale: 1468430316814 Size: 3530
2016-07-13 13:18:36.927 STDERR [INFO] I0713 13:18:36.927057 14639 net.cpp:141] Setting up data
2016-07-13 13:18:36.927 STDERR [INFO] I0713 13:18:36.927173 14639 net.cpp:148] Top shape: 10 3 224 224 (1505280)
2016-07-13 13:18:36.927 STDERR [INFO] I0713 13:18:36.927182 14639 net.cpp:156] Memory required for data: 6021120
2016-07-13 13:18:36.927 STDERR [INFO] I0713 13:18:36.927206 14639 layer_factory.hpp:77] Creating layer conv1/7x7_s2
2016-07-13 13:18:36.927 STDERR [INFO] I0713 13:18:36.927248 14639 net.cpp:91] Creating Layer conv1/7x7_s2
2016-07-13 13:18:36.928 STDERR [INFO] I0713 13:18:36.927258 14639 net.cpp:425] conv1/7x7_s2 <- data
2016-07-13 13:18:36.928 STDERR [INFO] I0713 13:18:36.927273 14639 net.cpp:399] conv1/7x7_s2 -> conv1/7x7_s2
2016-07-13 13:18:37.000 n.t.s.f.RefreshingImageFetcher$ImageReader [INFO] [Timing] RequestID: 0 StreamID: home/peifeng/work/data/frame.320x240.jpg SequenceNr: 23 Entering queue: 1468430317000
2016-07-13 13:18:37.005 n.t.s.s.CVParticleSpout [INFO] [Timing] RequestID: 0 StreamID: home/peifeng/work/data/frame.320x240.jpg SequenceNr: 23 Leaving fetcher: 1468430317005 Size: 8702
2016-07-13 13:18:37.005 n.t.s.b.CVParticleBolt [INFO] [Timing] RequestID: 0 StreamID: home/peifeng/work/data/frame.320x240.jpg SequenceNr: 23 Entering scale: 1468430317005
2016-07-13 13:18:37.011 n.t.s.b.CVParticleBolt [INFO] [Timing] RequestID: 0 StreamID: home/peifeng/work/data/frame.320x240.jpg SequenceNr: 23 Leaving scale: 1468430317011 Size: 3530
2016-07-13 13:18:37.182 STDERR [INFO] I0713 13:18:37.182488 14639 net.cpp:141] Setting up conv1/7x7_s2
2016-07-13 13:18:37.183 STDERR [INFO] I0713 13:18:37.182544 14639 net.cpp:148] Top shape: 10 64 112 112 (8028160)
2016-07-13 13:18:37.183 STDERR [INFO] I0713 13:18:37.182552 14639 net.cpp:156] Memory required for data: 38133760
2016-07-13 13:18:37.183 STDERR [INFO] I0713 13:18:37.182582 14639 layer_factory.hpp:77] Creating layer conv1/relu_7x7
2016-07-13 13:18:37.183 STDERR [INFO] I0713 13:18:37.182603 14639 net.cpp:91] Creating Layer conv1/relu_7x7
2016-07-13 13:18:37.183 STDERR [INFO] I0713 13:18:37.182611 14639 net.cpp:425] conv1/relu_7x7 <- conv1/7x7_s2
2016-07-13 13:18:37.183 STDERR [INFO] I0713 13:18:37.182620 14639 net.cpp:386] conv1/relu_7x7 -> conv1/7x7_s2 (in-place)
2016-07-13 13:18:37.183 STDERR [INFO] I0713 13:18:37.183408 14639 net.cpp:141] Setting up conv1/relu_7x7
2016-07-13 13:18:37.183 STDERR [INFO] I0713 13:18:37.183423 14639 net.cpp:148] Top shape: 10 64 112 112 (8028160)
2016-07-13 13:18:37.183 STDERR [INFO] I0713 13:18:37.183429 14639 net.cpp:156] Memory required for data: 70246400
2016-07-13 13:18:37.183 STDERR [INFO] I0713 13:18:37.183434 14639 layer_factory.hpp:77] Creating layer pool1/3x3_s2
2016-07-13 13:18:37.183 STDERR [INFO] I0713 13:18:37.183449 14639 net.cpp:91] Creating Layer pool1/3x3_s2
2016-07-13 13:18:37.184 STDERR [INFO] I0713 13:18:37.183454 14639 net.cpp:425] pool1/3x3_s2 <- conv1/7x7_s2
2016-07-13 13:18:37.184 STDERR [INFO] I0713 13:18:37.183462 14639 net.cpp:399] pool1/3x3_s2 -> pool1/3x3_s2
2016-07-13 13:18:37.184 STDERR [INFO] I0713 13:18:37.183544 14639 net.cpp:141] Setting up pool1/3x3_s2
2016-07-13 13:18:37.184 STDERR [INFO] I0713 13:18:37.183557 14639 net.cpp:148] Top shape: 10 64 56 56 (2007040)
2016-07-13 13:18:37.184 STDERR [INFO] I0713 13:18:37.183562 14639 net.cpp:156] Memory required for data: 78274560
2016-07-13 13:18:37.184 STDERR [INFO] I0713 13:18:37.183568 14639 layer_factory.hpp:77] Creating layer pool1/norm1
2016-07-13 13:18:37.184 STDERR [INFO] I0713 13:18:37.183585 14639 net.cpp:91] Creating Layer pool1/norm1
2016-07-13 13:18:37.184 STDERR [INFO] I0713 13:18:37.183591 14639 net.cpp:425] pool1/norm1 <- pool1/3x3_s2
2016-07-13 13:18:37.184 STDERR [INFO] I0713 13:18:37.183599 14639 net.cpp:399] pool1/norm1 -> pool1/norm1
2016-07-13 13:18:37.184 STDERR [INFO] I0713 13:18:37.184432 14639 net.cpp:141] Setting up pool1/norm1
2016-07-13 13:18:37.184 STDERR [INFO] I0713 13:18:37.184449 14639 net.cpp:148] Top shape: 10 64 56 56 (2007040)
2016-07-13 13:18:37.184 STDERR [INFO] I0713 13:18:37.184454 14639 net.cpp:156] Memory required for data: 86302720
2016-07-13 13:18:37.184 STDERR [INFO] I0713 13:18:37.184460 14639 layer_factory.hpp:77] Creating layer conv2/3x3_reduce
2016-07-13 13:18:37.184 STDERR [INFO] I0713 13:18:37.184487 14639 net.cpp:91] Creating Layer conv2/3x3_reduce
2016-07-13 13:18:37.184 STDERR [INFO] I0713 13:18:37.184494 14639 net.cpp:425] conv2/3x3_reduce <- pool1/norm1
2016-07-13 13:18:37.184 STDERR [INFO] I0713 13:18:37.184504 14639 net.cpp:399] conv2/3x3_reduce -> conv2/3x3_reduce
2016-07-13 13:18:37.187 STDERR [INFO] I0713 13:18:37.187409 14639 net.cpp:141] Setting up conv2/3x3_reduce
2016-07-13 13:18:37.187 STDERR [INFO] I0713 13:18:37.187432 14639 net.cpp:148] Top shape: 10 64 56 56 (2007040)
2016-07-13 13:18:37.187 STDERR [INFO] I0713 13:18:37.187438 14639 net.cpp:156] Memory required for data: 94330880
2016-07-13 13:18:37.187 STDERR [INFO] I0713 13:18:37.187450 14639 layer_factory.hpp:77] Creating layer conv2/relu_3x3_reduce
2016-07-13 13:18:37.187 STDERR [INFO] I0713 13:18:37.187460 14639 net.cpp:91] Creating Layer conv2/relu_3x3_reduce
2016-07-13 13:18:37.187 STDERR [INFO] I0713 13:18:37.187466 14639 net.cpp:425] conv2/relu_3x3_reduce <- conv2/3x3_reduce
2016-07-13 13:18:37.187 STDERR [INFO] I0713 13:18:37.187477 14639 net.cpp:386] conv2/relu_3x3_reduce -> conv2/3x3_reduce (in-place)
2016-07-13 13:18:37.188 STDERR [INFO] I0713 13:18:37.188258 14639 net.cpp:141] Setting up conv2/relu_3x3_reduce
2016-07-13 13:18:37.188 STDERR [INFO] I0713 13:18:37.188277 14639 net.cpp:148] Top shape: 10 64 56 56 (2007040)
2016-07-13 13:18:37.188 STDERR [INFO] I0713 13:18:37.188282 14639 net.cpp:156] Memory required for data: 102359040
2016-07-13 13:18:37.188 STDERR [INFO] I0713 13:18:37.188287 14639 layer_factory.hpp:77] Creating layer conv2/3x3
2016-07-13 13:18:37.188 STDERR [INFO] I0713 13:18:37.188309 14639 net.cpp:91] Creating Layer conv2/3x3
2016-07-13 13:18:37.188 STDERR [INFO] I0713 13:18:37.188316 14639 net.cpp:425] conv2/3x3 <- conv2/3x3_reduce
2016-07-13 13:18:37.188 STDERR [INFO] I0713 13:18:37.188330 14639 net.cpp:399] conv2/3x3 -> conv2/3x3
2016-07-13 13:18:37.193 STDERR [INFO] I0713 13:18:37.193367 14639 net.cpp:141] Setting up conv2/3x3
2016-07-13 13:18:37.193 STDERR [INFO] I0713 13:18:37.193392 14639 net.cpp:148] Top shape: 10 192 56 56 (6021120)
2016-07-13 13:18:37.193 STDERR [INFO] I0713 13:18:37.193397 14639 net.cpp:156] Memory required for data: 126443520
2016-07-13 13:18:37.193 STDERR [INFO] I0713 13:18:37.193410 14639 layer_factory.hpp:77] Creating layer conv2/relu_3x3
2016-07-13 13:18:37.193 STDERR [INFO] I0713 13:18:37.193423 14639 net.cpp:91] Creating Layer conv2/relu_3x3
2016-07-13 13:18:37.193 STDERR [INFO] I0713 13:18:37.193428 14639 net.cpp:425] conv2/relu_3x3 <- conv2/3x3
2016-07-13 13:18:37.193 STDERR [INFO] I0713 13:18:37.193439 14639 net.cpp:386] conv2/relu_3x3 -> conv2/3x3 (in-place)
2016-07-13 13:18:37.193 STDERR [INFO] I0713 13:18:37.193701 14639 net.cpp:141] Setting up conv2/relu_3x3
2016-07-13 13:18:37.194 STDERR [INFO] I0713 13:18:37.193714 14639 net.cpp:148] Top shape: 10 192 56 56 (6021120)
2016-07-13 13:18:37.194 STDERR [INFO] I0713 13:18:37.193722 14639 net.cpp:156] Memory required for data: 150528000
2016-07-13 13:18:37.194 STDERR [INFO] I0713 13:18:37.193727 14639 layer_factory.hpp:77] Creating layer conv2/norm2
2016-07-13 13:18:37.194 STDERR [INFO] I0713 13:18:37.193738 14639 net.cpp:91] Creating Layer conv2/norm2
2016-07-13 13:18:37.194 STDERR [INFO] I0713 13:18:37.193743 14639 net.cpp:425] conv2/norm2 <- conv2/3x3
2016-07-13 13:18:37.194 STDERR [INFO] I0713 13:18:37.193750 14639 net.cpp:399] conv2/norm2 -> conv2/norm2
2016-07-13 13:18:37.194 STDERR [INFO] I0713 13:18:37.194589 14639 net.cpp:141] Setting up conv2/norm2
2016-07-13 13:18:37.194 STDERR [INFO] I0713 13:18:37.194607 14639 net.cpp:148] Top shape: 10 192 56 56 (6021120)
2016-07-13 13:18:37.194 STDERR [INFO] I0713 13:18:37.194613 14639 net.cpp:156] Memory required for data: 174612480
2016-07-13 13:18:37.194 STDERR [INFO] I0713 13:18:37.194619 14639 layer_factory.hpp:77] Creating layer pool2/3x3_s2
2016-07-13 13:18:37.194 STDERR [INFO] I0713 13:18:37.194628 14639 net.cpp:91] Creating Layer pool2/3x3_s2
2016-07-13 13:18:37.194 STDERR [INFO] I0713 13:18:37.194634 14639 net.cpp:425] pool2/3x3_s2 <- conv2/norm2
2016-07-13 13:18:37.194 STDERR [INFO] I0713 13:18:37.194646 14639 net.cpp:399] pool2/3x3_s2 -> pool2/3x3_s2
2016-07-13 13:18:37.195 STDERR [INFO] I0713 13:18:37.194713 14639 net.cpp:141] Setting up pool2/3x3_s2
2016-07-13 13:18:37.195 STDERR [INFO] I0713 13:18:37.194725 14639 net.cpp:148] Top shape: 10 192 28 28 (1505280)
2016-07-13 13:18:37.195 STDERR [INFO] I0713 13:18:37.194730 14639 net.cpp:156] Memory required for data: 180633600
2016-07-13 13:18:37.195 STDERR [INFO] I0713 13:18:37.194736 14639 layer_factory.hpp:77] Creating layer pool2/3x3_s2_pool2/3x3_s2_0_split
2016-07-13 13:18:37.195 STDERR [INFO] I0713 13:18:37.194758 14639 net.cpp:91] Creating Layer pool2/3x3_s2_pool2/3x3_s2_0_split
2016-07-13 13:18:37.195 STDERR [INFO] I0713 13:18:37.194764 14639 net.cpp:425] pool2/3x3_s2_pool2/3x3_s2_0_split <- pool2/3x3_s2
2016-07-13 13:18:37.195 STDERR [INFO] I0713 13:18:37.194772 14639 net.cpp:399] pool2/3x3_s2_pool2/3x3_s2_0_split -> pool2/3x3_s2_pool2/3x3_s2_0_split_0
2016-07-13 13:18:37.195 STDERR [INFO] I0713 13:18:37.194785 14639 net.cpp:399] pool2/3x3_s2_pool2/3x3_s2_0_split -> pool2/3x3_s2_pool2/3x3_s2_0_split_1
2016-07-13 13:18:37.195 STDERR [INFO] I0713 13:18:37.194795 14639 net.cpp:399] pool2/3x3_s2_pool2/3x3_s2_0_split -> pool2/3x3_s2_pool2/3x3_s2_0_split_2
2016-07-13 13:18:37.195 STDERR [INFO] I0713 13:18:37.194804 14639 net.cpp:399] pool2/3x3_s2_pool2/3x3_s2_0_split -> pool2/3x3_s2_pool2/3x3_s2_0_split_3
2016-07-13 13:18:37.195 STDERR [INFO] I0713 13:18:37.194883 14639 net.cpp:141] Setting up pool2/3x3_s2_pool2/3x3_s2_0_split
2016-07-13 13:18:37.195 STDERR [INFO] I0713 13:18:37.194895 14639 net.cpp:148] Top shape: 10 192 28 28 (1505280)
2016-07-13 13:18:37.195 STDERR [INFO] I0713 13:18:37.194900 14639 net.cpp:148] Top shape: 10 192 28 28 (1505280)
2016-07-13 13:18:37.195 STDERR [INFO] I0713 13:18:37.194906 14639 net.cpp:148] Top shape: 10 192 28 28 (1505280)
2016-07-13 13:18:37.195 STDERR [INFO] I0713 13:18:37.194912 14639 net.cpp:148] Top shape: 10 192 28 28 (1505280)
2016-07-13 13:18:37.195 STDERR [INFO] I0713 13:18:37.194916 14639 net.cpp:156] Memory required for data: 204718080
2016-07-13 13:18:37.195 STDERR [INFO] I0713 13:18:37.194921 14639 layer_factory.hpp:77] Creating layer inception_3a/1x1
2016-07-13 13:18:37.196 STDERR [INFO] I0713 13:18:37.194938 14639 net.cpp:91] Creating Layer inception_3a/1x1
2016-07-13 13:18:37.196 STDERR [INFO] I0713 13:18:37.194944 14639 net.cpp:425] inception_3a/1x1 <- pool2/3x3_s2_pool2/3x3_s2_0_split_0
2016-07-13 13:18:37.196 STDERR [INFO] I0713 13:18:37.194974 14639 net.cpp:399] inception_3a/1x1 -> inception_3a/1x1
2016-07-13 13:18:37.199 STDERR [INFO] I0713 13:18:37.199015 14639 net.cpp:141] Setting up inception_3a/1x1
2016-07-13 13:18:37.199 STDERR [INFO] I0713 13:18:37.199036 14639 net.cpp:148] Top shape: 10 64 28 28 (501760)
2016-07-13 13:18:37.199 STDERR [INFO] I0713 13:18:37.199043 14639 net.cpp:156] Memory required for data: 206725120
2016-07-13 13:18:37.199 STDERR [INFO] I0713 13:18:37.199054 14639 layer_factory.hpp:77] Creating layer inception_3a/relu_1x1
2016-07-13 13:18:37.199 STDERR [INFO] I0713 13:18:37.199067 14639 net.cpp:91] Creating Layer inception_3a/relu_1x1
2016-07-13 13:18:37.199 STDERR [INFO] I0713 13:18:37.199074 14639 net.cpp:425] inception_3a/relu_1x1 <- inception_3a/1x1
2016-07-13 13:18:37.199 STDERR [INFO] I0713 13:18:37.199082 14639 net.cpp:386] inception_3a/relu_1x1 -> inception_3a/1x1 (in-place)
2016-07-13 13:18:37.199 STDERR [INFO] I0713 13:18:37.199359 14639 net.cpp:141] Setting up inception_3a/relu_1x1
2016-07-13 13:18:37.199 STDERR [INFO] I0713 13:18:37.199371 14639 net.cpp:148] Top shape: 10 64 28 28 (501760)
2016-07-13 13:18:37.199 STDERR [INFO] I0713 13:18:37.199376 14639 net.cpp:156] Memory required for data: 208732160
2016-07-13 13:18:37.199 STDERR [INFO] I0713 13:18:37.199383 14639 layer_factory.hpp:77] Creating layer inception_3a/3x3_reduce
2016-07-13 13:18:37.199 STDERR [INFO] I0713 13:18:37.199404 14639 net.cpp:91] Creating Layer inception_3a/3x3_reduce
2016-07-13 13:18:37.199 STDERR [INFO] I0713 13:18:37.199409 14639 net.cpp:425] inception_3a/3x3_reduce <- pool2/3x3_s2_pool2/3x3_s2_0_split_1
2016-07-13 13:18:37.199 STDERR [INFO] I0713 13:18:37.199419 14639 net.cpp:399] inception_3a/3x3_reduce -> inception_3a/3x3_reduce
2016-07-13 13:18:37.200 n.t.s.f.RefreshingImageFetcher$ImageReader [INFO] [Timing] RequestID: 0 StreamID: home/peifeng/work/data/frame.320x240.jpg SequenceNr: 24 Entering queue: 1468430317200
2016-07-13 13:18:37.203 STDERR [INFO] I0713 13:18:37.202925 14639 net.cpp:141] Setting up inception_3a/3x3_reduce
2016-07-13 13:18:37.203 STDERR [INFO] I0713 13:18:37.202945 14639 net.cpp:148] Top shape: 10 96 28 28 (752640)
2016-07-13 13:18:37.203 STDERR [INFO] I0713 13:18:37.202951 14639 net.cpp:156] Memory required for data: 211742720
2016-07-13 13:18:37.203 STDERR [INFO] I0713 13:18:37.202970 14639 layer_factory.hpp:77] Creating layer inception_3a/relu_3x3_reduce
2016-07-13 13:18:37.203 STDERR [INFO] I0713 13:18:37.202980 14639 net.cpp:91] Creating Layer inception_3a/relu_3x3_reduce
2016-07-13 13:18:37.203 STDERR [INFO] I0713 13:18:37.202986 14639 net.cpp:425] inception_3a/relu_3x3_reduce <- inception_3a/3x3_reduce
2016-07-13 13:18:37.203 STDERR [INFO] I0713 13:18:37.202997 14639 net.cpp:386] inception_3a/relu_3x3_reduce -> inception_3a/3x3_reduce (in-place)
2016-07-13 13:18:37.203 STDERR [INFO] I0713 13:18:37.203249 14639 net.cpp:141] Setting up inception_3a/relu_3x3_reduce
2016-07-13 13:18:37.203 STDERR [INFO] I0713 13:18:37.203263 14639 net.cpp:148] Top shape: 10 96 28 28 (752640)
2016-07-13 13:18:37.203 STDERR [INFO] I0713 13:18:37.203268 14639 net.cpp:156] Memory required for data: 214753280
2016-07-13 13:18:37.203 STDERR [INFO] I0713 13:18:37.203272 14639 layer_factory.hpp:77] Creating layer inception_3a/3x3
2016-07-13 13:18:37.203 STDERR [INFO] I0713 13:18:37.203300 14639 net.cpp:91] Creating Layer inception_3a/3x3
2016-07-13 13:18:37.203 STDERR [INFO] I0713 13:18:37.203307 14639 net.cpp:425] inception_3a/3x3 <- inception_3a/3x3_reduce
2016-07-13 13:18:37.203 STDERR [INFO] I0713 13:18:37.203317 14639 net.cpp:399] inception_3a/3x3 -> inception_3a/3x3
2016-07-13 13:18:37.204 n.t.s.s.CVParticleSpout [INFO] [Timing] RequestID: 0 StreamID: home/peifeng/work/data/frame.320x240.jpg SequenceNr: 24 Leaving fetcher: 1468430317204 Size: 8702
2016-07-13 13:18:37.204 n.t.s.b.CVParticleBolt [INFO] [Timing] RequestID: 0 StreamID: home/peifeng/work/data/frame.320x240.jpg SequenceNr: 24 Entering scale: 1468430317204
2016-07-13 13:18:37.206 STDERR [INFO] I0713 13:18:37.206576 14639 net.cpp:141] Setting up inception_3a/3x3
2016-07-13 13:18:37.206 STDERR [INFO] I0713 13:18:37.206598 14639 net.cpp:148] Top shape: 10 128 28 28 (1003520)
2016-07-13 13:18:37.206 STDERR [INFO] I0713 13:18:37.206604 14639 net.cpp:156] Memory required for data: 218767360
2016-07-13 13:18:37.206 STDERR [INFO] I0713 13:18:37.206614 14639 layer_factory.hpp:77] Creating layer inception_3a/relu_3x3
2016-07-13 13:18:37.207 STDERR [INFO] I0713 13:18:37.206624 14639 net.cpp:91] Creating Layer inception_3a/relu_3x3
2016-07-13 13:18:37.207 STDERR [INFO] I0713 13:18:37.206634 14639 net.cpp:425] inception_3a/relu_3x3 <- inception_3a/3x3
2016-07-13 13:18:37.207 STDERR [INFO] I0713 13:18:37.206642 14639 net.cpp:386] inception_3a/relu_3x3 -> inception_3a/3x3 (in-place)
2016-07-13 13:18:37.207 STDERR [INFO] I0713 13:18:37.207458 14639 net.cpp:141] Setting up inception_3a/relu_3x3
2016-07-13 13:18:37.207 STDERR [INFO] I0713 13:18:37.207476 14639 net.cpp:148] Top shape: 10 128 28 28 (1003520)
2016-07-13 13:18:37.207 STDERR [INFO] I0713 13:18:37.207482 14639 net.cpp:156] Memory required for data: 222781440
2016-07-13 13:18:37.207 STDERR [INFO] I0713 13:18:37.207487 14639 layer_factory.hpp:77] Creating layer inception_3a/5x5_reduce
2016-07-13 13:18:37.207 STDERR [INFO] I0713 13:18:37.207505 14639 net.cpp:91] Creating Layer inception_3a/5x5_reduce
2016-07-13 13:18:37.207 STDERR [INFO] I0713 13:18:37.207512 14639 net.cpp:425] inception_3a/5x5_reduce <- pool2/3x3_s2_pool2/3x3_s2_0_split_2
2016-07-13 13:18:37.207 STDERR [INFO] I0713 13:18:37.207527 14639 net.cpp:399] inception_3a/5x5_reduce -> inception_3a/5x5_reduce
2016-07-13 13:18:37.209 STDERR [INFO] I0713 13:18:37.209867 14639 net.cpp:141] Setting up inception_3a/5x5_reduce
2016-07-13 13:18:37.210 STDERR [INFO] I0713 13:18:37.209885 14639 net.cpp:148] Top shape: 10 16 28 28 (125440)
2016-07-13 13:18:37.210 STDERR [INFO] I0713 13:18:37.209892 14639 net.cpp:156] Memory required for data: 223283200
2016-07-13 13:18:37.210 STDERR [INFO] I0713 13:18:37.209900 14639 layer_factory.hpp:77] Creating layer inception_3a/relu_5x5_reduce
2016-07-13 13:18:37.210 STDERR [INFO] I0713 13:18:37.209910 14639 net.cpp:91] Creating Layer inception_3a/relu_5x5_reduce
2016-07-13 13:18:37.210 STDERR [INFO] I0713 13:18:37.209916 14639 net.cpp:425] inception_3a/relu_5x5_reduce <- inception_3a/5x5_reduce
2016-07-13 13:18:37.210 n.t.s.b.CVParticleBolt [INFO] [Timing] RequestID: 0 StreamID: home/peifeng/work/data/frame.320x240.jpg SequenceNr: 24 Leaving scale: 1468430317210 Size: 3530
2016-07-13 13:18:37.210 STDERR [INFO] I0713 13:18:37.209929 14639 net.cpp:386] inception_3a/relu_5x5_reduce -> inception_3a/5x5_reduce (in-place)
2016-07-13 13:18:37.210 STDERR [INFO] I0713 13:18:37.210186 14639 net.cpp:141] Setting up inception_3a/relu_5x5_reduce
2016-07-13 13:18:37.210 STDERR [INFO] I0713 13:18:37.210201 14639 net.cpp:148] Top shape: 10 16 28 28 (125440)
2016-07-13 13:18:37.210 STDERR [INFO] I0713 13:18:37.210206 14639 net.cpp:156] Memory required for data: 223784960
2016-07-13 13:18:37.210 STDERR [INFO] I0713 13:18:37.210211 14639 layer_factory.hpp:77] Creating layer inception_3a/5x5
2016-07-13 13:18:37.210 STDERR [INFO] I0713 13:18:37.210227 14639 net.cpp:91] Creating Layer inception_3a/5x5
2016-07-13 13:18:37.210 STDERR [INFO] I0713 13:18:37.210233 14639 net.cpp:425] inception_3a/5x5 <- inception_3a/5x5_reduce
2016-07-13 13:18:37.210 STDERR [INFO] I0713 13:18:37.210250 14639 net.cpp:399] inception_3a/5x5 -> inception_3a/5x5
2016-07-13 13:18:37.213 STDERR [INFO] I0713 13:18:37.213831 14639 net.cpp:141] Setting up inception_3a/5x5
2016-07-13 13:18:37.214 STDERR [INFO] I0713 13:18:37.213852 14639 net.cpp:148] Top shape: 10 32 28 28 (250880)
2016-07-13 13:18:37.214 STDERR [INFO] I0713 13:18:37.213858 14639 net.cpp:156] Memory required for data: 224788480
2016-07-13 13:18:37.214 STDERR [INFO] I0713 13:18:37.213868 14639 layer_factory.hpp:77] Creating layer inception_3a/relu_5x5
2016-07-13 13:18:37.214 STDERR [INFO] I0713 13:18:37.213881 14639 net.cpp:91] Creating Layer inception_3a/relu_5x5
2016-07-13 13:18:37.214 STDERR [INFO] I0713 13:18:37.213887 14639 net.cpp:425] inception_3a/relu_5x5 <- inception_3a/5x5
2016-07-13 13:18:37.214 STDERR [INFO] I0713 13:18:37.213896 14639 net.cpp:386] inception_3a/relu_5x5 -> inception_3a/5x5 (in-place)
2016-07-13 13:18:37.214 STDERR [INFO] I0713 13:18:37.214165 14639 net.cpp:141] Setting up inception_3a/relu_5x5
2016-07-13 13:18:37.214 STDERR [INFO] I0713 13:18:37.214179 14639 net.cpp:148] Top shape: 10 32 28 28 (250880)
2016-07-13 13:18:37.214 STDERR [INFO] I0713 13:18:37.214184 14639 net.cpp:156] Memory required for data: 225792000
2016-07-13 13:18:37.214 STDERR [INFO] I0713 13:18:37.214189 14639 layer_factory.hpp:77] Creating layer inception_3a/pool
2016-07-13 13:18:37.214 STDERR [INFO] I0713 13:18:37.214202 14639 net.cpp:91] Creating Layer inception_3a/pool
2016-07-13 13:18:37.214 STDERR [INFO] I0713 13:18:37.214208 14639 net.cpp:425] inception_3a/pool <- pool2/3x3_s2_pool2/3x3_s2_0_split_3
2016-07-13 13:18:37.214 STDERR [INFO] I0713 13:18:37.214216 14639 net.cpp:399] inception_3a/pool -> inception_3a/pool
2016-07-13 13:18:37.214 STDERR [INFO] I0713 13:18:37.214285 14639 net.cpp:141] Setting up inception_3a/pool
2016-07-13 13:18:37.214 STDERR [INFO] I0713 13:18:37.214296 14639 net.cpp:148] Top shape: 10 192 28 28 (1505280)
2016-07-13 13:18:37.214 STDERR [INFO] I0713 13:18:37.214301 14639 net.cpp:156] Memory required for data: 231813120
2016-07-13 13:18:37.215 STDERR [INFO] I0713 13:18:37.214306 14639 layer_factory.hpp:77] Creating layer inception_3a/pool_proj
2016-07-13 13:18:37.215 STDERR [INFO] I0713 13:18:37.214324 14639 net.cpp:91] Creating Layer inception_3a/pool_proj
2016-07-13 13:18:37.215 STDERR [INFO] I0713 13:18:37.214331 14639 net.cpp:425] inception_3a/pool_proj <- inception_3a/pool
2016-07-13 13:18:37.215 STDERR [INFO] I0713 13:18:37.214344 14639 net.cpp:399] inception_3a/pool_proj -> inception_3a/pool_proj
2016-07-13 13:18:37.216 STDERR [INFO] I0713 13:18:37.216619 14639 net.cpp:141] Setting up inception_3a/pool_proj
2016-07-13 13:18:37.216 STDERR [INFO] I0713 13:18:37.216639 14639 net.cpp:148] Top shape: 10 32 28 28 (250880)
2016-07-13 13:18:37.216 STDERR [INFO] I0713 13:18:37.216645 14639 net.cpp:156] Memory required for data: 232816640
2016-07-13 13:18:37.217 STDERR [INFO] I0713 13:18:37.216665 14639 layer_factory.hpp:77] Creating layer inception_3a/relu_pool_proj
2016-07-13 13:18:37.217 STDERR [INFO] I0713 13:18:37.216676 14639 net.cpp:91] Creating Layer inception_3a/relu_pool_proj
2016-07-13 13:18:37.217 STDERR [INFO] I0713 13:18:37.216683 14639 net.cpp:425] inception_3a/relu_pool_proj <- inception_3a/pool_proj
2016-07-13 13:18:37.217 STDERR [INFO] I0713 13:18:37.216693 14639 net.cpp:386] inception_3a/relu_pool_proj -> inception_3a/pool_proj (in-place)
2016-07-13 13:18:37.217 STDERR [INFO] I0713 13:18:37.217494 14639 net.cpp:141] Setting up inception_3a/relu_pool_proj
2016-07-13 13:18:37.217 STDERR [INFO] I0713 13:18:37.217511 14639 net.cpp:148] Top shape: 10 32 28 28 (250880)
2016-07-13 13:18:37.217 STDERR [INFO] I0713 13:18:37.217516 14639 net.cpp:156] Memory required for data: 233820160
2016-07-13 13:18:37.217 STDERR [INFO] I0713 13:18:37.217522 14639 layer_factory.hpp:77] Creating layer inception_3a/output
2016-07-13 13:18:37.217 STDERR [INFO] I0713 13:18:37.217540 14639 net.cpp:91] Creating Layer inception_3a/output
2016-07-13 13:18:37.217 STDERR [INFO] I0713 13:18:37.217547 14639 net.cpp:425] inception_3a/output <- inception_3a/1x1
2016-07-13 13:18:37.217 STDERR [INFO] I0713 13:18:37.217555 14639 net.cpp:425] inception_3a/output <- inception_3a/3x3
2016-07-13 13:18:37.218 STDERR [INFO] I0713 13:18:37.217561 14639 net.cpp:425] inception_3a/output <- inception_3a/5x5
2016-07-13 13:18:37.218 STDERR [INFO] I0713 13:18:37.217566 14639 net.cpp:425] inception_3a/output <- inception_3a/pool_proj
2016-07-13 13:18:37.218 STDERR [INFO] I0713 13:18:37.217576 14639 net.cpp:399] inception_3a/output -> inception_3a/output
2016-07-13 13:18:37.218 STDERR [INFO] I0713 13:18:37.217622 14639 net.cpp:141] Setting up inception_3a/output
2016-07-13 13:18:37.218 STDERR [INFO] I0713 13:18:37.217630 14639 net.cpp:148] Top shape: 10 256 28 28 (2007040)
2016-07-13 13:18:37.218 STDERR [INFO] I0713 13:18:37.217635 14639 net.cpp:156] Memory required for data: 241848320
2016-07-13 13:18:37.218 STDERR [INFO] I0713 13:18:37.217640 14639 layer_factory.hpp:77] Creating layer inception_3a/output_inception_3a/output_0_split
2016-07-13 13:18:37.218 STDERR [INFO] I0713 13:18:37.217656 14639 net.cpp:91] Creating Layer inception_3a/output_inception_3a/output_0_split
…
2016-07-13 13:18:37.218 STDERR [INFO] I0713 13:18:37.217682 14639 net.cpp:399] inception_3a/output_inception_3a/output_0_split -> inception_3a/output_inception_3a/output_0_split_1
2016-07-13 13:18:37.218 STDERR [INFO] I0713 13:18:37.217692 14639 net.cpp:399] inception_3a/output_inception_3a/output_0_split -> inception_3a/output_inception_3a/output_0_split_2
2016-07-13 13:18:37.218 STDERR [INFO] I0713 13:18:37.217701 14639 net.cpp:399] inception_3a/output_inception_3a/output_0_split -> inception_3a/output_inception_3a/output_0_split_3
2016-07-13 13:18:37.218 STDERR [INFO] I0713 13:18:37.217788 14639 net.cpp:141] Setting up inception_3a/output_inception_3a/output_0_split
2016-07-13 13:18:37.218 STDERR [INFO] I0713 13:18:37.217798 14639 net.cpp:148] Top shape: 10 256 28 28 (2007040)
2016-07-13 13:18:37.218 STDERR [INFO] I0713 13:18:37.217805 14639 net.cpp:148] Top shape: 10 256 28 28 (2007040)
2016-07-13 13:18:37.219 STDERR [INFO] I0713 13:18:37.217811 14639 net.cpp:148] Top shape: 10 256 28 28 (2007040)
2016-07-13 13:18:37.219 STDERR [INFO] I0713 13:18:37.217816 14639 net.cpp:148] Top shape: 10 256 28 28 (2007040)
2016-07-13 13:18:37.219 STDERR [INFO] I0713 13:18:37.217821 14639 net.cpp:156] Memory required for data: 273960960
2016-07-13 13:18:37.219 STDERR [INFO] I0713 13:18:37.217826 14639 layer_factory.hpp:77] Creating layer inception_3b/1x1
2016-07-13 13:18:37.219 STDERR [INFO] I0713 13:18:37.217842 14639 net.cpp:91] Creating Layer inception_3b/1x1
2016-07-13 13:18:37.219 STDERR [INFO] I0713 13:18:37.217849 14639 net.cpp:425] inception_3b/1x1 <- inception_3a/output_inception_3a/output_0_split_0
2016-07-13 13:18:37.219 STDERR [INFO] I0713 13:18:37.217864 14639 net.cpp:399] inception_3b/1x1 -> inception_3b/1x1
2016-07-13 13:18:37.220 STDERR [INFO] I0713 13:18:37.220428 14639 net.cpp:141] Setting up inception_3b/1x1
2016-07-13 13:18:37.220 STDERR [INFO] I0713 13:18:37.220449 14639 net.cpp:148] Top shape: 10 128 28 28 (1003520)
2016-07-13 13:18:37.220 STDERR [INFO] I0713 13:18:37.220454 14639 net.cpp:156] Memory required for data: 277975040
2016-07-13 13:18:37.220 STDERR [INFO] I0713 13:18:37.220465 14639 layer_factory.hpp:77] Creating layer inception_3b/relu_1x1
2016-07-13 13:18:37.220 STDERR [INFO] I0713 13:18:37.220475 14639 net.cpp:91] Creating Layer inception_3b/relu_1x1
2016-07-13 13:18:37.220 STDERR [INFO] I0713 13:18:37.220481 14639 net.cpp:425] inception_3b/relu_1x1 <- inception_3b/1x1
2016-07-13 13:18:37.220 STDERR [INFO] I0713 13:18:37.220494 14639 net.cpp:386] inception_3b/relu_1x1 -> inception_3b/1x1 (in-place)
2016-07-13 13:18:37.221 STDERR [INFO] I0713 13:18:37.220747 14639 net.cpp:141] Setting up inception_3b/relu_1x1
2016-07-13 13:18:37.221 STDERR [INFO] I0713 13:18:37.220759 14639 net.cpp:148] Top shape: 10 128 28 28 (1003520)
2016-07-13 13:18:37.221 STDERR [INFO] I0713 13:18:37.220764 14639 net.cpp:156] Memory required for data: 281989120
2016-07-13 13:18:37.221 STDERR [INFO] I0713 13:18:37.220770 14639 layer_factory.hpp:77] Creating layer inception_3b/3x3_reduce
2016-07-13 13:18:37.221 STDERR [INFO] I0713 13:18:37.220788 14639 net.cpp:91] Creating Layer inception_3b/3x3_reduce
2016-07-13 13:18:37.221 STDERR [INFO] I0713 13:18:37.220794 14639 net.cpp:425] inception_3b/3x3_reduce <- inception_3a/output_inception_3a/output_0_split_1
2016-07-13 13:18:37.221 STDERR [INFO] I0713 13:18:37.220809 14639 net.cpp:399] inception_3b/3x3_reduce -> inception_3b/3x3_reduce
2016-07-13 13:18:37.223 STDERR [INFO] I0713 13:18:37.223409 14639 net.cpp:141] Setting up inception_3b/3x3_reduce
2016-07-13 13:18:37.223 STDERR [INFO] I0713 13:18:37.223429 14639 net.cpp:148] Top shape: 10 128 28 28 (1003520)
2016-07-13 13:18:37.223 STDERR [INFO] I0713 13:18:37.223434 14639 net.cpp:156] Memory required for data: 286003200
2016-07-13 13:18:37.223 STDERR [INFO] I0713 13:18:37.223444 14639 layer_factory.hpp:77] Creating layer inception_3b/relu_3x3_reduce
2016-07-13 13:18:37.223 STDERR [INFO] I0713 13:18:37.223454 14639 net.cpp:91] Creating Layer inception_3b/relu_3x3_reduce
2016-07-13 13:18:37.223 STDERR [INFO] I0713 13:18:37.223460 14639 net.cpp:425] inception_3b/relu_3x3_reduce <- inception_3b/3x3_reduce
2016-07-13 13:18:37.223 STDERR [INFO] I0713 13:18:37.223469 14639 net.cpp:386] inception_3b/relu_3x3_reduce -> inception_3b/3x3_reduce (in-place)
2016-07-13 13:18:37.224 STDERR [INFO] I0713 13:18:37.223732 14639 net.cpp:141] Setting up inception_3b/relu_3x3_reduce
2016-07-13 13:18:37.224 STDERR [INFO] I0713 13:18:37.223744 14639 net.cpp:148] Top shape: 10 128 28 28 (1003520)
2016-07-13 13:18:37.224 STDERR [INFO] I0713 13:18:37.223749 14639 net.cpp:156] Memory required for data: 290017280
2016-07-13 13:18:37.224 STDERR [INFO] I0713 13:18:37.223755 14639 layer_factory.hpp:77] Creating layer inception_3b/3x3
2016-07-13 13:18:37.224 STDERR [INFO] I0713 13:18:37.223778 14639 net.cpp:91] Creating Layer inception_3b/3x3
2016-07-13 13:18:37.224 STDERR [INFO] I0713 13:18:37.223783 14639 net.cpp:425] inception_3b/3x3 <- inception_3b/3x3_reduce
2016-07-13 13:18:37.224 STDERR [INFO] I0713 13:18:37.223798 14639 net.cpp:399] inception_3b/3x3 -> inception_3b/3x3
2016-07-13 13:18:37.229 STDERR [INFO] I0713 13:18:37.229024 14639 net.cpp:141] Setting up inception_3b/3x3
2016-07-13 13:18:37.229 STDERR [INFO] I0713 13:18:37.229044 14639 net.cpp:148] Top shape: 10 192 28 28 (1505280)
2016-07-13 13:18:37.229 STDERR [INFO] I0713 13:18:37.229050 14639 net.cpp:156] Memory required for data: 296038400
2016-07-13 13:18:37.229 STDERR [INFO] I0713 13:18:37.229060 14639 layer_factory.hpp:77] Creating layer inception_3b/relu_3x3
2016-07-13 13:18:37.229 STDERR [INFO] I0713 13:18:37.229082 14639 net.cpp:91] Creating Layer inception_3b/relu_3x3
2016-07-13 13:18:37.229 STDERR [INFO] I0713 13:18:37.229089 14639 net.cpp:425] inception_3b/relu_3x3 <- inception_3b/3x3
2016-07-13 13:18:37.229 STDERR [INFO] I0713 13:18:37.229097 14639 net.cpp:386] inception_3b/relu_3x3 -> inception_3b/3x3 (in-place)
2016-07-13 13:18:37.229 STDERR [INFO] I0713 13:18:37.229887 14639 net.cpp:141] Setting up inception_3b/relu_3x3
2016-07-13 13:18:37.230 STDERR [INFO] I0713 13:18:37.229904 14639 net.cpp:148] Top shape: 10 192 28 28 (1505280)
2016-07-13 13:18:37.230 STDERR [INFO] I0713 13:18:37.229909 14639 net.cpp:156] Memory required for data: 302059520
2016-07-13 13:18:37.230 STDERR [INFO] I0713 13:18:37.229915 14639 layer_factory.hpp:77] Creating layer inception_3b/5x5_reduce
2016-07-13 13:18:37.230 STDERR [INFO] I0713 13:18:37.229933 14639 net.cpp:91] Creating Layer inception_3b/5x5_reduce
2016-07-13 13:18:37.230 STDERR [INFO] I0713 13:18:37.229939 14639 net.cpp:425] inception_3b/5x5_reduce <- inception_3a/output_inception_3a/output_0_split_2
2016-07-13 13:18:37.230 STDERR [INFO] I0713 13:18:37.229955 14639 net.cpp:399] inception_3b/5x5_reduce -> inception_3b/5x5_reduce
2016-07-13 13:18:37.232 STDERR [INFO] I0713 13:18:37.232728 14639 net.cpp:141] Setting up inception_3b/5x5_reduce
2016-07-13 13:18:37.232 STDERR [INFO] I0713 13:18:37.232748 14639 net.cpp:148] Top shape: 10 32 28 28 (250880)
2016-07-13 13:18:37.233 STDERR [INFO] I0713 13:18:37.232753 14639 net.cpp:156] Memory required for data: 303063040
2016-07-13 13:18:37.233 STDERR [INFO] I0713 13:18:37.232764 14639 layer_factory.hpp:77] Creating layer inception_3b/relu_5x5_reduce
2016-07-13 13:18:37.233 STDERR [INFO] I0713 13:18:37.232779 14639 net.cpp:91] Creating Layer inception_3b/relu_5x5_reduce
2016-07-13 13:18:37.233 STDERR [INFO] I0713 13:18:37.232784 14639 net.cpp:425] inception_3b/relu_5x5_reduce <- inception_3b/5x5_reduce
2016-07-13 13:18:37.233 STDERR [INFO] I0713 13:18:37.232797 14639 net.cpp:386] inception_3b/relu_5x5_reduce -> inception_3b/5x5_reduce (in-place)
2016-07-13 13:18:37.233 STDERR [INFO] I0713 13:18:37.233073 14639 net.cpp:141] Setting up inception_3b/relu_5x5_reduce
2016-07-13 13:18:37.233 STDERR [INFO] I0713 13:18:37.233089 14639 net.cpp:148] Top shape: 10 32 28 28 (250880)
2016-07-13 13:18:37.233 STDERR [INFO] I0713 13:18:37.233094 14639 net.cpp:156] Memory required for data: 304066560
2016-07-13 13:18:37.233 STDERR [INFO] I0713 13:18:37.233099 14639 layer_factory.hpp:77] Creating layer inception_3b/5x5
2016-07-13 13:18:37.233 STDERR [INFO] I0713 13:18:37.233119 14639 net.cpp:91] Creating Layer inception_3b/5x5
2016-07-13 13:18:37.233 STDERR [INFO] I0713 13:18:37.233125 14639 net.cpp:425] inception_3b/5x5 <- inception_3b/5x5_reduce
2016-07-13 13:18:37.233 STDERR [INFO] I0713 13:18:37.233135 14639 net.cpp:399] inception_3b/5x5 -> inception_3b/5x5
2016-07-13 13:18:37.237 STDERR [INFO] I0713 13:18:37.237370 14639 net.cpp:141] Setting up inception_3b/5x5
2016-07-13 13:18:37.237 STDERR [INFO] I0713 13:18:37.237391 14639 net.cpp:148] Top shape: 10 96 28 28 (752640)
2016-07-13 13:18:37.237 STDERR [INFO] I0713 13:18:37.237396 14639 net.cpp:156] Memory required for data: 307077120
2016-07-13 13:18:37.237 STDERR [INFO] I0713 13:18:37.237408 14639 layer_factory.hpp:77] Creating layer inception_3b/relu_5x5
2016-07-13 13:18:37.237 STDERR [INFO] I0713 13:18:37.237424 14639 net.cpp:91] Creating Layer inception_3b/relu_5x5
2016-07-13 13:18:37.237 STDERR [INFO] I0713 13:18:37.237432 14639 net.cpp:425] inception_3b/relu_5x5 <- inception_3b/5x5
2016-07-13 13:18:37.237 STDERR [INFO] I0713 13:18:37.237439 14639 net.cpp:386] inception_3b/relu_5x5 -> inception_3b/5x5 (in-place)
2016-07-13 13:18:37.238 STDERR [INFO] I0713 13:18:37.237707 14639 net.cpp:141] Setting up inception_3b/relu_5x5
2016-07-13 13:18:37.238 STDERR [INFO] I0713 13:18:37.237720 14639 net.cpp:148] Top shape: 10 96 28 28 (752640)
2016-07-13 13:18:37.238 STDERR [INFO] I0713 13:18:37.237725 14639 net.cpp:156] Memory required for data: 310087680
2016-07-13 13:18:37.238 STDERR [INFO] I0713 13:18:37.237731 14639 layer_factory.hpp:77] Creating layer inception_3b/pool
2016-07-13 13:18:37.238 STDERR [INFO] I0713 13:18:37.237746 14639 net.cpp:91] Creating Layer inception_3b/pool
2016-07-13 13:18:37.238 STDERR [INFO] I0713 13:18:37.237751 14639 net.cpp:425] inception_3b/pool <- inception_3a/output_inception_3a/output_0_split_3
2016-07-13 13:18:37.238 STDERR [INFO] I0713 13:18:37.237767 14639 net.cpp:399] inception_3b/pool -> inception_3b/pool
2016-07-13 13:18:37.238 STDERR [INFO] I0713 13:18:37.237834 14639 net.cpp:141] Setting up inception_3b/pool
2016-07-13 13:18:37.238 STDERR [INFO] I0713 13:18:37.237844 14639 net.cpp:148] Top shape: 10 256 28 28 (2007040)
2016-07-13 13:18:37.238 STDERR [INFO] I0713 13:18:37.237849 14639 net.cpp:156] Memory required for data: 318115840
2016-07-13 13:18:37.238 STDERR [INFO] I0713 13:18:37.237854 14639 layer_factory.hpp:77] Creating layer inception_3b/pool_proj
2016-07-13 13:18:37.238 STDERR [INFO] I0713 13:18:37.237871 14639 net.cpp:91] Creating Layer inception_3b/pool_proj
2016-07-13 13:18:37.238 STDERR [INFO] I0713 13:18:37.237879 14639 net.cpp:425] inception_3b/pool_proj <- inception_3b/pool
2016-07-13 13:18:37.238 STDERR [INFO] I0713 13:18:37.237891 14639 net.cpp:399] inception_3b/pool_proj -> inception_3b/pool_proj
2016-07-13 13:18:37.240 STDERR [INFO] I0713 13:18:37.240315 14639 net.cpp:141] Setting up inception_3b/pool_proj
2016-07-13 13:18:37.240 STDERR [INFO] I0713 13:18:37.240339 14639 net.cpp:148] Top shape: 10 64 28 28 (501760)
2016-07-13 13:18:37.240 STDERR [INFO] I0713 13:18:37.240345 14639 net.cpp:156] Memory required for data: 320122880
2016-07-13 13:18:37.240 STDERR [INFO] I0713 13:18:37.240355 14639 layer_factory.hpp:77] Creating layer inception_3b/relu_pool_proj
2016-07-13 13:18:37.240 STDERR [INFO] I0713 13:18:37.240365 14639 net.cpp:91] Creating Layer inception_3b/relu_pool_proj
2016-07-13 13:18:37.240 STDERR [INFO] I0713 13:18:37.240370 14639 net.cpp:425] inception_3b/relu_pool_proj <- inception_3b/pool_proj
2016-07-13 13:18:37.240 STDERR [INFO] I0713 13:18:37.240380 14639 net.cpp:386] inception_3b/relu_pool_proj -> inception_3b/pool_proj (in-place)
2016-07-13 13:18:37.241 STDERR [INFO] I0713 13:18:37.241185 14639 net.cpp:141] Setting up inception_3b/relu_pool_proj
2016-07-13 13:18:37.241 STDERR [INFO] I0713 13:18:37.241202 14639 net.cpp:148] Top shape: 10 64 28 28 (501760)
2016-07-13 13:18:37.241 STDERR [INFO] I0713 13:18:37.241209 14639 net.cpp:156] Memory required for data: 322129920
2016-07-13 13:18:37.241 STDERR [INFO] I0713 13:18:37.241214 14639 layer_factory.hpp:77] Creating layer inception_3b/output
2016-07-13 13:18:37.241 STDERR [INFO] I0713 13:18:37.241224 14639 net.cpp:91] Creating Layer inception_3b/output
2016-07-13 13:18:37.241 STDERR [INFO] I0713 13:18:37.241230 14639 net.cpp:425] inception_3b/output <- inception_3b/1x1
2016-07-13 13:18:37.241 STDERR [INFO] I0713 13:18:37.241236 14639 net.cpp:425] inception_3b/output <- inception_3b/3x3
2016-07-13 13:18:37.241 STDERR [INFO] I0713 13:18:37.241242 14639 net.cpp:425] inception_3b/output <- inception_3b/5x5
2016-07-13 13:18:37.241 STDERR [INFO] I0713 13:18:37.241248 14639 net.cpp:425] inception_3b/output <- inception_3b/pool_proj
2016-07-13 13:18:37.241 STDERR [INFO] I0713 13:18:37.241255 14639 net.cpp:399] inception_3b/output -> inception_3b/output
2016-07-13 13:18:37.241 STDERR [INFO] I0713 13:18:37.241305 14639 net.cpp:141] Setting up inception_3b/output
2016-07-13 13:18:37.242 STDERR [INFO] I0713 13:18:37.241317 14639 net.cpp:148] Top shape: 10 480 28 28 (3763200)
2016-07-13 13:18:37.242 STDERR [INFO] I0713 13:18:37.241322 14639 net.cpp:156] Memory required for data: 337182720
2016-07-13 13:18:37.242 STDERR [INFO] I0713 13:18:37.241327 14639 layer_factory.hpp:77] Creating layer pool3/3x3_s2
2016-07-13 13:18:37.242 STDERR [INFO] I0713 13:18:37.241340 14639 net.cpp:91] Creating Layer pool3/3x3_s2
2016-07-13 13:18:37.242 STDERR [INFO] I0713 13:18:37.241346 14639 net.cpp:425] pool3/3x3_s2 <- inception_3b/output
2016-07-13 13:18:37.242 STDERR [INFO] I0713 13:18:37.241353 14639 net.cpp:399] pool3/3x3_s2 -> pool3/3x3_s2
2016-07-13 13:18:37.242 STDERR [INFO] I0713 13:18:37.241425 14639 net.cpp:141] Setting up pool3/3x3_s2
2016-07-13 13:18:37.242 STDERR [INFO] I0713 13:18:37.241436 14639 net.cpp:148] Top shape: 10 480 14 14 (940800)
2016-07-13 13:18:37.242 STDERR [INFO] I0713 13:18:37.241441 14639 net.cpp:156] Memory required for data: 340945920
2016-07-13 13:18:37.242 STDERR [INFO] I0713 13:18:37.241446 14639 layer_factory.hpp:77] Creating layer pool3/3x3_s2_pool3/3x3_s2_0_split
2016-07-13 13:18:37.242 STDERR [INFO] I0713 13:18:37.241459 14639 net.cpp:91] Creating Layer pool3/3x3_s2_pool3/3x3_s2_0_split
2016-07-13 13:18:37.242 STDERR [INFO] I0713 13:18:37.241466 14639 net.cpp:425] pool3/3x3_s2_pool3/3x3_s2_0_split <- pool3/3x3_s2
2016-07-13 13:18:37.242 STDERR [INFO] I0713 13:18:37.241472 14639 net.cpp:399] pool3/3x3_s2_pool3/3x3_s2_0_split -> pool3/3x3_s2_pool3/3x3_s2_0_split_0
2016-07-13 13:18:37.242 STDERR [INFO] I0713 13:18:37.241482 14639 net.cpp:399] pool3/3x3_s2_pool3/3x3_s2_0_split -> pool3/3x3_s2_pool3/3x3_s2_0_split_1
2016-07-13 13:18:37.242 STDERR [INFO] I0713 13:18:37.241490 14639 net.cpp:399] pool3/3x3_s2_pool3/3x3_s2_0_split -> pool3/3x3_s2_pool3/3x3_s2_0_split_2
2016-07-13 13:18:37.242 STDERR [INFO] I0713 13:18:37.241503 14639 net.cpp:399] pool3/3x3_s2_pool3/3x3_s2_0_split -> pool3/3x3_s2_pool3/3x3_s2_0_split_3
2016-07-13 13:18:37.242 STDERR [INFO] I0713 13:18:37.241588 14639 net.cpp:141] Setting up pool3/3x3_s2_pool3/3x3_s2_0_split
2016-07-13 13:18:37.242 STDERR [INFO] I0713 13:18:37.241598 14639 net.cpp:148] Top shape: 10 480 14 14 (940800)
2016-07-13 13:18:37.242 STDERR [INFO] I0713 13:18:37.241605 14639 net.cpp:148] Top shape: 10 480 14 14 (940800)
2016-07-13 13:18:37.243 STDERR [INFO] I0713 13:18:37.241611 14639 net.cpp:148] Top shape: 10 480 14 14 (940800)
2016-07-13 13:18:37.243 STDERR [INFO] I0713 13:18:37.241616 14639 net.cpp:148] Top shape: 10 480 14 14 (940800)
2016-07-13 13:18:37.243 STDERR [INFO] I0713 13:18:37.241621 14639 net.cpp:156] Memory required for data: 355998720
2016-07-13 13:18:37.243 STDERR [INFO] I0713 13:18:37.241626 14639 layer_factory.hpp:77] Creating layer inception_4a/1x1
2016-07-13 13:18:37.243 STDERR [INFO] I0713 13:18:37.241642 14639 net.cpp:91] Creating Layer inception_4a/1x1
2016-07-13 13:18:37.243 STDERR [INFO] I0713 13:18:37.241649 14639 net.cpp:425] inception_4a/1x1 <- pool3/3x3_s2_pool3/3x3_s2_0_split_0
2016-07-13 13:18:37.243 STDERR [INFO] I0713 13:18:37.241662 14639 net.cpp:399] inception_4a/1x1 -> inception_4a/1x1
2016-07-13 13:18:37.245 STDERR [INFO] I0713 13:18:37.245350 14639 net.cpp:141] Setting up inception_4a/1x1
2016-07-13 13:18:37.245 STDERR [INFO] I0713 13:18:37.245370 14639 net.cpp:148] Top shape: 10 192 14 14 (376320)
2016-07-13 13:18:37.245 STDERR [INFO] I0713 13:18:37.245376 14639 net.cpp:156] Memory required for data: 357504000
2016-07-13 13:18:37.245 STDERR [INFO] I0713 13:18:37.245386 14639 layer_factory.hpp:77] Creating layer inception_4a/relu_1x1
2016-07-13 13:18:37.246 STDERR [INFO] I0713 13:18:37.245401 14639 net.cpp:91] Creating Layer inception_4a/relu_1x1
2016-07-13 13:18:37.246 STDERR [INFO] I0713 13:18:37.245409 14639 net.cpp:425] inception_4a/relu_1x1 <- inception_4a/1x1
2016-07-13 13:18:37.246 STDERR [INFO] I0713 13:18:37.245416 14639 net.cpp:386] inception_4a/relu_1x1 -> inception_4a/1x1 (in-place)
2016-07-13 13:18:37.246 STDERR [INFO] I0713 13:18:37.245690 14639 net.cpp:141] Setting up inception_4a/relu_1x1
2016-07-13 13:18:37.246 STDERR [INFO] I0713 13:18:37.245703 14639 net.cpp:148] Top shape: 10 192 14 14 (376320)
2016-07-13 13:18:37.246 STDERR [INFO] I0713 13:18:37.245708 14639 net.cpp:156] Memory required for data: 359009280
2016-07-13 13:18:37.246 STDERR [INFO] I0713 13:18:37.245713 14639 layer_factory.hpp:77] Creating layer inception_4a/3x3_reduce
2016-07-13 13:18:37.246 STDERR [INFO] I0713 13:18:37.245733 14639 net.cpp:91] Creating Layer inception_4a/3x3_reduce
2016-07-13 13:18:37.246 STDERR [INFO] I0713 13:18:37.245739 14639 net.cpp:425] inception_4a/3x3_reduce <- pool3/3x3_s2_pool3/3x3_s2_0_split_1
2016-07-13 13:18:37.246 STDERR [INFO] I0713 13:18:37.245751 14639 net.cpp:399] inception_4a/3x3_reduce -> inception_4a/3x3_reduce
2016-07-13 13:18:37.248 STDERR [INFO] I0713 13:18:37.248466 14639 net.cpp:141] Setting up inception_4a/3x3_reduce
2016-07-13 13:18:37.248 STDERR [INFO] I0713 13:18:37.248486 14639 net.cpp:148] Top shape: 10 96 14 14 (188160)
2016-07-13 13:18:37.248 STDERR [INFO] I0713 13:18:37.248492 14639 net.cpp:156] Memory required for data: 359761920
2016-07-13 13:18:37.248 STDERR [INFO] I0713 13:18:37.248522 14639 layer_factory.hpp:77] Creating layer inception_4a/relu_3x3_reduce
2016-07-13 13:18:37.248 STDERR [INFO] I0713 13:18:37.248533 14639 net.cpp:91] Creating Layer inception_4a/relu_3x3_reduce
2016-07-13 13:18:37.248 STDERR [INFO] I0713 13:18:37.248539 14639 net.cpp:425] inception_4a/relu_3x3_reduce <- inception_4a/3x3_reduce
2016-07-13 13:18:37.249 STDERR [INFO] I0713 13:18:37.248548 14639 net.cpp:386] inception_4a/relu_3x3_reduce -> inception_4a/3x3_reduce (in-place)
2016-07-13 13:18:37.249 STDERR [INFO] I0713 13:18:37.248811 14639 net.cpp:141] Setting up inception_4a/relu_3x3_reduce
2016-07-13 13:18:37.249 STDERR [INFO] I0713 13:18:37.248823 14639 net.cpp:148] Top shape: 10 96 14 14 (188160)
2016-07-13 13:18:37.249 STDERR [INFO] I0713 13:18:37.248828 14639 net.cpp:156] Memory required for data: 360514560
2016-07-13 13:18:37.249 STDERR [INFO] I0713 13:18:37.248833 14639 layer_factory.hpp:77] Creating layer inception_4a/3x3
2016-07-13 13:18:37.249 STDERR [INFO] I0713 13:18:37.248852 14639 net.cpp:91] Creating Layer inception_4a/3x3
2016-07-13 13:18:37.249 STDERR [INFO] I0713 13:18:37.248858 14639 net.cpp:425] inception_4a/3x3 <- inception_4a/3x3_reduce
2016-07-13 13:18:37.249 STDERR [INFO] I0713 13:18:37.248872 14639 net.cpp:399] inception_4a/3x3 -> inception_4a/3x3
2016-07-13 13:18:37.253 STDERR [INFO] I0713 13:18:37.253782 14639 net.cpp:141] Setting up inception_4a/3x3
2016-07-13 13:18:37.254 STDERR [INFO] I0713 13:18:37.253800 14639 net.cpp:148] Top shape: 10 208 14 14 (407680)
2016-07-13 13:18:37.254 STDERR [INFO] I0713 13:18:37.253806 14639 net.cpp:156] Memory required for data: 362145280
2016-07-13 13:18:37.254 STDERR [INFO] I0713 13:18:37.253816 14639 layer_factory.hpp:77] Creating layer inception_4a/relu_3x3
2016-07-13 13:18:37.254 STDERR [INFO] I0713 13:18:37.253830 14639 net.cpp:91] Creating Layer inception_4a/relu_3x3
2016-07-13 13:18:37.254 STDERR [INFO] I0713 13:18:37.253837 14639 net.cpp:425] inception_4a/relu_3x3 <- inception_4a/3x3
2016-07-13 13:18:37.254 STDERR [INFO] I0713 13:18:37.253849 14639 net.cpp:386] inception_4a/relu_3x3 -> inception_4a/3x3 (in-place)
2016-07-13 13:18:37.254 STDERR [INFO] I0713 13:18:37.254654 14639 net.cpp:141] Setting up inception_4a/relu_3x3
2016-07-13 13:18:37.254 STDERR [INFO] I0713 13:18:37.254672 14639 net.cpp:148] Top shape: 10 208 14 14 (407680)
2016-07-13 13:18:37.254 STDERR [INFO] I0713 13:18:37.254676 14639 net.cpp:156] Memory required for data: 363776000
2016-07-13 13:18:37.254 STDERR [INFO] I0713 13:18:37.254683 14639 layer_factory.hpp:77] Creating layer inception_4a/5x5_reduce
2016-07-13 13:18:37.254 STDERR [INFO] I0713 13:18:37.254711 14639 net.cpp:91] Creating Layer inception_4a/5x5_reduce
2016-07-13 13:18:37.255 STDERR [INFO] I0713 13:18:37.254719 14639 net.cpp:425] inception_4a/5x5_reduce <- pool3/3x3_s2_pool3/3x3_s2_0_split_2
2016-07-13 13:18:37.255 STDERR [INFO] I0713 13:18:37.254734 14639 net.cpp:399] inception_4a/5x5_reduce -> inception_4a/5x5_reduce
2016-07-13 13:18:37.257 STDERR [INFO] I0713 13:18:37.257702 14639 net.cpp:141] Setting up inception_4a/5x5_reduce
2016-07-13 13:18:37.257 STDERR [INFO] I0713 13:18:37.257724 14639 net.cpp:148] Top shape: 10 16 14 14 (31360)
2016-07-13 13:18:37.258 STDERR [INFO] I0713 13:18:37.257730 14639 net.cpp:156] Memory required for data: 363901440
2016-07-13 13:18:37.258 STDERR [INFO] I0713 13:18:37.257742 14639 layer_factory.hpp:77] Creating layer inception_4a/relu_5x5_reduce
2016-07-13 13:18:37.258 STDERR [INFO] I0713 13:18:37.257755 14639 net.cpp:91] Creating Layer inception_4a/relu_5x5_reduce
2016-07-13 13:18:37.258 STDERR [INFO] I0713 13:18:37.257762 14639 net.cpp:425] inception_4a/relu_5x5_reduce <- inception_4a/5x5_reduce
2016-07-13 13:18:37.258 STDERR [INFO] I0713 13:18:37.257771 14639 net.cpp:386] inception_4a/relu_5x5_reduce -> inception_4a/5x5_reduce (in-place)
2016-07-13 13:18:37.258 STDERR [INFO] I0713 13:18:37.258086 14639 net.cpp:141] Setting up inception_4a/relu_5x5_reduce
2016-07-13 13:18:37.258 STDERR [INFO] I0713 13:18:37.258101 14639 net.cpp:148] Top shape: 10 16 14 14 (31360)
2016-07-13 13:18:37.258 STDERR [INFO] I0713 13:18:37.258107 14639 net.cpp:156] Memory required for data: 364026880
2016-07-13 13:18:37.258 STDERR [INFO] I0713 13:18:37.258114 14639 layer_factory.hpp:77] Creating layer inception_4a/5x5
2016-07-13 13:18:37.258 STDERR [INFO] I0713 13:18:37.258136 14639 net.cpp:91] Creating Layer inception_4a/5x5
2016-07-13 13:18:37.258 STDERR [INFO] I0713 13:18:37.258142 14639 net.cpp:425] inception_4a/5x5 <- inception_4a/5x5_reduce
2016-07-13 13:18:37.258 STDERR [INFO] I0713 13:18:37.258165 14639 net.cpp:399] inception_4a/5x5 -> inception_4a/5x5
2016-07-13 13:18:37.261 STDERR [INFO] I0713 13:18:37.261221 14639 net.cpp:141] Setting up inception_4a/5x5
2016-07-13 13:18:37.261 STDERR [INFO] I0713 13:18:37.261242 14639 net.cpp:148] Top shape: 10 48 14 14 (94080)
2016-07-13 13:18:37.261 STDERR [INFO] I0713 13:18:37.261248 14639 net.cpp:156] Memory required for data: 364403200
2016-07-13 13:18:37.261 STDERR [INFO] I0713 13:18:37.261260 14639 layer_factory.hpp:77] Creating layer inception_4a/relu_5x5
2016-07-13 13:18:37.261 STDERR [INFO] I0713 13:18:37.261273 14639 net.cpp:91] Creating Layer inception_4a/relu_5x5
2016-07-13 13:18:37.261 STDERR [INFO] I0713 13:18:37.261281 14639 net.cpp:425] inception_4a/relu_5x5 <- inception_4a/5x5
2016-07-13 13:18:37.261 STDERR [INFO] I0713 13:18:37.261291 14639 net.cpp:386] inception_4a/relu_5x5 -> inception_4a/5x5 (in-place)
2016-07-13 13:18:37.261 STDERR [INFO] I0713 13:18:37.261592 14639 net.cpp:141] Setting up inception_4a/relu_5x5
2016-07-13 13:18:37.261 STDERR [INFO] I0713 13:18:37.261607 14639 net.cpp:148] Top shape: 10 48 14 14 (94080)
2016-07-13 13:18:37.261 STDERR [INFO] I0713 13:18:37.261612 14639 net.cpp:156] Memory required for data: 364779520
2016-07-13 13:18:37.261 STDERR [INFO] I0713 13:18:37.261618 14639 layer_factory.hpp:77] Creating layer inception_4a/pool
2016-07-13 13:18:37.262 STDERR [INFO] I0713 13:18:37.261636 14639 net.cpp:91] Creating Layer inception_4a/pool
2016-07-13 13:18:37.262 STDERR [INFO] I0713 13:18:37.261646 14639 net.cpp:425] inception_4a/pool <- pool3/3x3_s2_pool3/3x3_s2_0_split_3
2016-07-13 13:18:37.262 STDERR [INFO] I0713 13:18:37.261656 14639 net.cpp:399] inception_4a/pool -> inception_4a/pool
2016-07-13 13:18:37.262 STDERR [INFO] I0713 13:18:37.261740 14639 net.cpp:141] Setting up inception_4a/pool
2016-07-13 13:18:37.262 STDERR [INFO] I0713 13:18:37.261751 14639 net.cpp:148] Top shape: 10 480 14 14 (940800)
2016-07-13 13:18:37.262 STDERR [INFO] I0713 13:18:37.261756 14639 net.cpp:156] Memory required for data: 368542720
2016-07-13 13:18:37.262 STDERR [INFO] I0713 13:18:37.261761 14639 layer_factory.hpp:77] Creating layer inception_4a/pool_proj
2016-07-13 13:18:37.262 STDERR [INFO] I0713 13:18:37.261780 14639 net.cpp:91] Creating Layer inception_4a/pool_proj
2016-07-13 13:18:37.262 STDERR [INFO] I0713 13:18:37.261787 14639 net.cpp:425] inception_4a/pool_proj <- inception_4a/pool
2016-07-13 13:18:37.262 STDERR [INFO] I0713 13:18:37.261803 14639 net.cpp:399] inception_4a/pool_proj -> inception_4a/pool_proj
2016-07-13 13:18:37.266 STDERR [INFO] I0713 13:18:37.266024 14639 net.cpp:141] Setting up inception_4a/pool_proj
2016-07-13 13:18:37.266 STDERR [INFO] I0713 13:18:37.266049 14639 net.cpp:148] Top shape: 10 64 14 14 (125440)
2016-07-13 13:18:37.266 STDERR [INFO] I0713 13:18:37.266055 14639 net.cpp:156] Memory required for data: 369044480
2016-07-13 13:18:37.266 STDERR [INFO] I0713 13:18:37.266067 14639 layer_factory.hpp:77] Creating layer inception_4a/relu_pool_proj
2016-07-13 13:18:37.266 STDERR [INFO] I0713 13:18:37.266078 14639 net.cpp:91] Creating Layer inception_4a/relu_pool_proj
2016-07-13 13:18:37.266 STDERR [INFO] I0713 13:18:37.266084 14639 net.cpp:425] inception_4a/relu_pool_proj <- inception_4a/pool_proj
2016-07-13 13:18:37.266 STDERR [INFO] I0713 13:18:37.266098 14639 net.cpp:386] inception_4a/relu_pool_proj -> inception_4a/pool_proj (in-place)
2016-07-13 13:18:37.267 STDERR [INFO] I0713 13:18:37.266935 14639 net.cpp:141] Setting up inception_4a/relu_pool_proj
2016-07-13 13:18:37.267 STDERR [INFO] I0713 13:18:37.266953 14639 net.cpp:148] Top shape: 10 64 14 14 (125440)
2016-07-13 13:18:37.267 STDERR [INFO] I0713 13:18:37.266959 14639 net.cpp:156] Memory required for data: 369546240
2016-07-13 13:18:37.267 STDERR [INFO] I0713 13:18:37.266965 14639 layer_factory.hpp:77] Creating layer inception_4a/output
2016-07-13 13:18:37.267 STDERR [INFO] I0713 13:18:37.266980 14639 net.cpp:91] Creating Layer inception_4a/output
2016-07-13 13:18:37.267 STDERR [INFO] I0713 13:18:37.266988 14639 net.cpp:425] inception_4a/output <- inception_4a/1x1
2016-07-13 13:18:37.267 STDERR [INFO] I0713 13:18:37.266994 14639 net.cpp:425] inception_4a/output <- inception_4a/3x3
2016-07-13 13:18:37.267 STDERR [INFO] I0713 13:18:37.267000 14639 net.cpp:425] inception_4a/output <- inception_4a/5x5
2016-07-13 13:18:37.267 STDERR [INFO] I0713 13:18:37.267006 14639 net.cpp:425] inception_4a/output <- inception_4a/pool_proj
2016-07-13 13:18:37.267 STDERR [INFO] I0713 13:18:37.267014 14639 net.cpp:399] inception_4a/output -> inception_4a/output
2016-07-13 13:18:37.267 STDERR [INFO] I0713 13:18:37.267068 14639 net.cpp:141] Setting up inception_4a/output
2016-07-13 13:18:37.267 STDERR [INFO] I0713 13:18:37.267078 14639 net.cpp:148] Top shape: 10 512 14 14 (1003520)
2016-07-13 13:18:37.267 STDERR [INFO] I0713 13:18:37.267083 14639 net.cpp:156] Memory required for data: 373560320
2016-07-13 13:18:37.267 STDERR [INFO] I0713 13:18:37.267088 14639 layer_factory.hpp:77] Creating layer inception_4a/output_inception_4a/output_0_split
2016-07-13 13:18:37.267 STDERR [INFO] I0713 13:18:37.267099 14639 net.cpp:91] Creating Layer inception_4a/output_inception_4a/output_0_split
…
2016-07-13 13:18:37.268 STDERR [INFO] I0713 13:18:37.267129 14639 net.cpp:399] inception_4a/output_inception_4a/output_0_split -> inception_4a/output_inception_4a/output_0_split_1
2016-07-13 13:18:37.268 STDERR [INFO] I0713 13:18:37.267139 14639 net.cpp:399] inception_4a/output_inception_4a/output_0_split -> inception_4a/output_inception_4a/output_0_split_2
2016-07-13 13:18:37.268 STDERR [INFO] I0713 13:18:37.267148 14639 net.cpp:399] inception_4a/output_inception_4a/output_0_split -> inception_4a/output_inception_4a/output_0_split_3
2016-07-13 13:18:37.268 STDERR [INFO] I0713 13:18:37.267246 14639 net.cpp:141] Setting up inception_4a/output_inception_4a/output_0_split
2016-07-13 13:18:37.268 STDERR [INFO] I0713 13:18:37.267256 14639 net.cpp:148] Top shape: 10 512 14 14 (1003520)
2016-07-13 13:18:37.268 STDERR [INFO] I0713 13:18:37.267262 14639 net.cpp:148] Top shape: 10 512 14 14 (1003520)
2016-07-13 13:18:37.268 STDERR [INFO] I0713 13:18:37.267268 14639 net.cpp:148] Top shape: 10 512 14 14 (1003520)
2016-07-13 13:18:37.268 STDERR [INFO] I0713 13:18:37.267274 14639 net.cpp:148] Top shape: 10 512 14 14 (1003520)
2016-07-13 13:18:37.268 STDERR [INFO] I0713 13:18:37.267278 14639 net.cpp:156] Memory required for data: 389616640
2016-07-13 13:18:37.268 STDERR [INFO] I0713 13:18:37.267283 14639 layer_factory.hpp:77] Creating layer inception_4b/1x1
2016-07-13 13:18:37.268 STDERR [INFO] I0713 13:18:37.267305 14639 net.cpp:91] Creating Layer inception_4b/1x1
2016-07-13 13:18:37.268 STDERR [INFO] I0713 13:18:37.267312 14639 net.cpp:425] inception_4b/1x1 <- inception_4a/output_inception_4a/output_0_split_0
2016-07-13 13:18:37.268 STDERR [INFO] I0713 13:18:37.267321 14639 net.cpp:399] inception_4b/1x1 -> inception_4b/1x1
2016-07-13 13:18:37.270 STDERR [INFO] I0713 13:18:37.270306 14639 net.cpp:141] Setting up inception_4b/1x1
2016-07-13 13:18:37.270 STDERR [INFO] I0713 13:18:37.270330 14639 net.cpp:148] Top shape: 10 160 14 14 (313600)
2016-07-13 13:18:37.270 STDERR [INFO] I0713 13:18:37.270335 14639 net.cpp:156] Memory required for data: 390871040
2016-07-13 13:18:37.270 STDERR [INFO] I0713 13:18:37.270345 14639 layer_factory.hpp:77] Creating layer inception_4b/relu_1x1
2016-07-13 13:18:37.270 STDERR [INFO] I0713 13:18:37.270355 14639 net.cpp:91] Creating Layer inception_4b/relu_1x1
2016-07-13 13:18:37.270 STDERR [INFO] I0713 13:18:37.270362 14639 net.cpp:425] inception_4b/relu_1x1 <- inception_4b/1x1
2016-07-13 13:18:37.270 STDERR [INFO] I0713 13:18:37.270370 14639 net.cpp:386] inception_4b/relu_1x1 -> inception_4b/1x1 (in-place)
2016-07-13 13:18:37.271 STDERR [INFO] I0713 13:18:37.270637 14639 net.cpp:141] Setting up inception_4b/relu_1x1
2016-07-13 13:18:37.271 STDERR [INFO] I0713 13:18:37.270649 14639 net.cpp:148] Top shape: 10 160 14 14 (313600)
2016-07-13 13:18:37.271 STDERR [INFO] I0713 13:18:37.270654 14639 net.cpp:156] Memory required for data: 392125440
2016-07-13 13:18:37.271 STDERR [INFO] I0713 13:18:37.270659 14639 layer_factory.hpp:77] Creating layer inception_4b/3x3_reduce
2016-07-13 13:18:37.271 STDERR [INFO] I0713 13:18:37.270678 14639 net.cpp:91] Creating Layer inception_4b/3x3_reduce
2016-07-13 13:18:37.271 STDERR [INFO] I0713 13:18:37.270684 14639 net.cpp:425] inception_4b/3x3_reduce <- inception_4a/output_inception_4a/output_0_split_1
2016-07-13 13:18:37.271 STDERR [INFO] I0713 13:18:37.270707 14639 net.cpp:399] inception_4b/3x3_reduce -> inception_4b/3x3_reduce
2016-07-13 13:18:37.273 STDERR [INFO] I0713 13:18:37.273525 14639 net.cpp:141] Setting up inception_4b/3x3_reduce
2016-07-13 13:18:37.273 STDERR [INFO] I0713 13:18:37.273545 14639 net.cpp:148] Top shape: 10 112 14 14 (219520)
2016-07-13 13:18:37.273 STDERR [INFO] I0713 13:18:37.273550 14639 net.cpp:156] Memory required for data: 393003520
2016-07-13 13:18:37.273 STDERR [INFO] I0713 13:18:37.273561 14639 layer_factory.hpp:77] Creating layer inception_4b/relu_3x3_reduce
2016-07-13 13:18:37.273 STDERR [INFO] I0713 13:18:37.273576 14639 net.cpp:91] Creating Layer inception_4b/relu_3x3_reduce
2016-07-13 13:18:37.273 STDERR [INFO] I0713 13:18:37.273583 14639 net.cpp:425] inception_4b/relu_3x3_reduce <- inception_4b/3x3_reduce
2016-07-13 13:18:37.274 STDERR [INFO] I0713 13:18:37.273591 14639 net.cpp:386] inception_4b/relu_3x3_reduce -> inception_4b/3x3_reduce (in-place)
2016-07-13 13:18:37.274 STDERR [INFO] I0713 13:18:37.273864 14639 net.cpp:141] Setting up inception_4b/relu_3x3_reduce
2016-07-13 13:18:37.274 STDERR [INFO] I0713 13:18:37.273876 14639 net.cpp:148] Top shape: 10 112 14 14 (219520)
2016-07-13 13:18:37.274 STDERR [INFO] I0713 13:18:37.273881 14639 net.cpp:156] Memory required for data: 393881600
2016-07-13 13:18:37.274 STDERR [INFO] I0713 13:18:37.273887 14639 layer_factory.hpp:77] Creating layer inception_4b/3x3
2016-07-13 13:18:37.274 STDERR [INFO] I0713 13:18:37.273907 14639 net.cpp:91] Creating Layer inception_4b/3x3
2016-07-13 13:18:37.274 STDERR [INFO] I0713 13:18:37.273915 14639 net.cpp:425] inception_4b/3x3 <- inception_4b/3x3_reduce
2016-07-13 13:18:37.274 STDERR [INFO] I0713 13:18:37.273924 14639 net.cpp:399] inception_4b/3x3 -> inception_4b/3x3
2016-07-13 13:18:37.280 STDERR [INFO] I0713 13:18:37.279942 14639 net.cpp:141] Setting up inception_4b/3x3
2016-07-13 13:18:37.280 STDERR [INFO] I0713 13:18:37.279964 14639 net.cpp:148] Top shape: 10 224 14 14 (439040)
2016-07-13 13:18:37.280 STDERR [INFO] I0713 13:18:37.279970 14639 net.cpp:156] Memory required for data: 395637760
2016-07-13 13:18:37.280 STDERR [INFO] I0713 13:18:37.279981 14639 layer_factory.hpp:77] Creating layer inception_4b/relu_3x3
2016-07-13 13:18:37.280 STDERR [INFO] I0713 13:18:37.279992 14639 net.cpp:91] Creating Layer inception_4b/relu_3x3
2016-07-13 13:18:37.280 STDERR [INFO] I0713 13:18:37.280001 14639 net.cpp:425] inception_4b/relu_3x3 <- inception_4b/3x3
2016-07-13 13:18:37.280 STDERR [INFO] I0713 13:18:37.280010 14639 net.cpp:386] inception_4b/relu_3x3 -> inception_4b/3x3 (in-place)
2016-07-13 13:18:37.280 STDERR [INFO] I0713 13:18:37.280824 14639 net.cpp:141] Setting up inception_4b/relu_3x3
2016-07-13 13:18:37.280 STDERR [INFO] I0713 13:18:37.280843 14639 net.cpp:148] Top shape: 10 224 14 14 (439040)
2016-07-13 13:18:37.281 STDERR [INFO] I0713 13:18:37.280848 14639 net.cpp:156] Memory required for data: 397393920
2016-07-13 13:18:37.281 STDERR [INFO] I0713 13:18:37.280854 14639 layer_factory.hpp:77] Creating layer inception_4b/5x5_reduce
2016-07-13 13:18:37.281 STDERR [INFO] I0713 13:18:37.280885 14639 net.cpp:91] Creating Layer inception_4b/5x5_reduce
2016-07-13 13:18:37.281 STDERR [INFO] I0713 13:18:37.280892 14639 net.cpp:425] inception_4b/5x5_reduce <- inception_4a/output_inception_4a/output_0_split_2
2016-07-13 13:18:37.281 STDERR [INFO] I0713 13:18:37.280906 14639 net.cpp:399] inception_4b/5x5_reduce -> inception_4b/5x5_reduce
2016-07-13 13:18:37.283 STDERR [INFO] I0713 13:18:37.283355 14639 net.cpp:141] Setting up inception_4b/5x5_reduce
2016-07-13 13:18:37.283 STDERR [INFO] I0713 13:18:37.283375 14639 net.cpp:148] Top shape: 10 24 14 14 (47040)
2016-07-13 13:18:37.283 STDERR [INFO] I0713 13:18:37.283381 14639 net.cpp:156] Memory required for data: 397582080
2016-07-13 13:18:37.283 STDERR [INFO] I0713 13:18:37.283392 14639 layer_factory.hpp:77] Creating layer inception_4b/relu_5x5_reduce
2016-07-13 13:18:37.283 STDERR [INFO] I0713 13:18:37.283407 14639 net.cpp:91] Creating Layer inception_4b/relu_5x5_reduce
2016-07-13 13:18:37.283 STDERR [INFO] I0713 13:18:37.283414 14639 net.cpp:425] inception_4b/relu_5x5_reduce <- inception_4b/5x5_reduce
2016-07-13 13:18:37.283 STDERR [INFO] I0713 13:18:37.283422 14639 net.cpp:386] inception_4b/relu_5x5_reduce -> inception_4b/5x5_reduce (in-place)
2016-07-13 13:18:37.283 STDERR [INFO] I0713 13:18:37.283694 14639 net.cpp:141] Setting up inception_4b/relu_5x5_reduce
2016-07-13 13:18:37.284 STDERR [INFO] I0713 13:18:37.283706 14639 net.cpp:148] Top shape: 10 24 14 14 (47040)
2016-07-13 13:18:37.284 STDERR [INFO] I0713 13:18:37.283711 14639 net.cpp:156] Memory required for data: 397770240
2016-07-13 13:18:37.284 STDERR [INFO] I0713 13:18:37.283717 14639 layer_factory.hpp:77] Creating layer inception_4b/5x5
2016-07-13 13:18:37.284 STDERR [INFO] I0713 13:18:37.283735 14639 net.cpp:91] Creating Layer inception_4b/5x5
2016-07-13 13:18:37.284 STDERR [INFO] I0713 13:18:37.283742 14639 net.cpp:425] inception_4b/5x5 <- inception_4b/5x5_reduce
2016-07-13 13:18:37.284 STDERR [INFO] I0713 13:18:37.283757 14639 net.cpp:399] inception_4b/5x5 -> inception_4b/5x5
2016-07-13 13:18:37.287 STDERR [INFO] I0713 13:18:37.287544 14639 net.cpp:141] Setting up inception_4b/5x5
2016-07-13 13:18:37.287 STDERR [INFO] I0713 13:18:37.287565 14639 net.cpp:148] Top shape: 10 64 14 14 (125440)
2016-07-13 13:18:37.287 STDERR [INFO] I0713 13:18:37.287570 14639 net.cpp:156] Memory required for data: 398272000
2016-07-13 13:18:37.287 STDERR [INFO] I0713 13:18:37.287581 14639 layer_factory.hpp:77] Creating layer inception_4b/relu_5x5
2016-07-13 13:18:37.287 STDERR [INFO] I0713 13:18:37.287595 14639 net.cpp:91] Creating Layer inception_4b/relu_5x5
2016-07-13 13:18:37.288 STDERR [INFO] I0713 13:18:37.287601 14639 net.cpp:425] inception_4b/relu_5x5 <- inception_4b/5x5
2016-07-13 13:18:37.288 STDERR [INFO] I0713 13:18:37.287609 14639 net.cpp:386] inception_4b/relu_5x5 -> inception_4b/5x5 (in-place)
2016-07-13 13:18:37.288 STDERR [INFO] I0713 13:18:37.287885 14639 net.cpp:141] Setting up inception_4b/relu_5x5
2016-07-13 13:18:37.288 STDERR [INFO] I0713 13:18:37.287899 14639 net.cpp:148] Top shape: 10 64 14 14 (125440)
2016-07-13 13:18:37.288 STDERR [INFO] I0713 13:18:37.287902 14639 net.cpp:156] Memory required for data: 398773760
2016-07-13 13:18:37.288 STDERR [INFO] I0713 13:18:37.287909 14639 layer_factory.hpp:77] Creating layer inception_4b/pool
2016-07-13 13:18:37.288 STDERR [INFO] I0713 13:18:37.287922 14639 net.cpp:91] Creating Layer inception_4b/pool
2016-07-13 13:18:37.288 STDERR [INFO] I0713 13:18:37.287930 14639 net.cpp:425] inception_4b/pool <- inception_4a/output_inception_4a/output_0_split_3
2016-07-13 13:18:37.288 STDERR [INFO] I0713 13:18:37.287940 14639 net.cpp:399] inception_4b/pool -> inception_4b/pool
2016-07-13 13:18:37.288 STDERR [INFO] I0713 13:18:37.288014 14639 net.cpp:141] Setting up inception_4b/pool
2016-07-13 13:18:37.288 STDERR [INFO] I0713 13:18:37.288024 14639 net.cpp:148] Top shape: 10 512 14 14 (1003520)
2016-07-13 13:18:37.288 STDERR [INFO] I0713 13:18:37.288029 14639 net.cpp:156] Memory required for data: 402787840
2016-07-13 13:18:37.288 STDERR [INFO] I0713 13:18:37.288034 14639 layer_factory.hpp:77] Creating layer inception_4b/pool_proj
2016-07-13 13:18:37.288 STDERR [INFO] I0713 13:18:37.288053 14639 net.cpp:91] Creating Layer inception_4b/pool_proj
2016-07-13 13:18:37.288 STDERR [INFO] I0713 13:18:37.288059 14639 net.cpp:425] inception_4b/pool_proj <- inception_4b/pool
2016-07-13 13:18:37.288 STDERR [INFO] I0713 13:18:37.288074 14639 net.cpp:399] inception_4b/pool_proj -> inception_4b/pool_proj
2016-07-13 13:18:37.290 STDERR [INFO] I0713 13:18:37.290707 14639 net.cpp:141] Setting up inception_4b/pool_proj
2016-07-13 13:18:37.290 STDERR [INFO] I0713 13:18:37.290727 14639 net.cpp:148] Top shape: 10 64 14 14 (125440)
2016-07-13 13:18:37.291 STDERR [INFO] I0713 13:18:37.290734 14639 net.cpp:156] Memory required for data: 403289600
2016-07-13 13:18:37.291 STDERR [INFO] I0713 13:18:37.290743 14639 layer_factory.hpp:77] Creating layer inception_4b/relu_pool_proj
2016-07-13 13:18:37.291 STDERR [INFO] I0713 13:18:37.290753 14639 net.cpp:91] Creating Layer inception_4b/relu_pool_proj
2016-07-13 13:18:37.291 STDERR [INFO] I0713 13:18:37.290760 14639 net.cpp:425] inception_4b/relu_pool_proj <- inception_4b/pool_proj
2016-07-13 13:18:37.291 STDERR [INFO] I0713 13:18:37.290773 14639 net.cpp:386] inception_4b/relu_pool_proj -> inception_4b/pool_proj (in-place)
2016-07-13 13:18:37.291 STDERR [INFO] I0713 13:18:37.291596 14639 net.cpp:141] Setting up inception_4b/relu_pool_proj
2016-07-13 13:18:37.291 STDERR [INFO] I0713 13:18:37.291613 14639 net.cpp:148] Top shape: 10 64 14 14 (125440)
2016-07-13 13:18:37.291 STDERR [INFO] I0713 13:18:37.291620 14639 net.cpp:156] Memory required for data: 403791360
2016-07-13 13:18:37.291 STDERR [INFO] I0713 13:18:37.291625 14639 layer_factory.hpp:77] Creating layer inception_4b/output
2016-07-13 13:18:37.291 STDERR [INFO] I0713 13:18:37.291635 14639 net.cpp:91] Creating Layer inception_4b/output
2016-07-13 13:18:37.291 STDERR [INFO] I0713 13:18:37.291640 14639 net.cpp:425] inception_4b/output <- inception_4b/1x1
2016-07-13 13:18:37.292 STDERR [INFO] I0713 13:18:37.291647 14639 net.cpp:425] inception_4b/output <- inception_4b/3x3
2016-07-13 13:18:37.292 STDERR [INFO] I0713 13:18:37.291653 14639 net.cpp:425] inception_4b/output <- inception_4b/5x5
2016-07-13 13:18:37.292 STDERR [INFO] I0713 13:18:37.291659 14639 net.cpp:425] inception_4b/output <- inception_4b/pool_proj
2016-07-13 13:18:37.292 STDERR [INFO] I0713 13:18:37.291671 14639 net.cpp:399] inception_4b/output -> inception_4b/output
2016-07-13 13:18:37.292 STDERR [INFO] I0713 13:18:37.291723 14639 net.cpp:141] Setting up inception_4b/output
2016-07-13 13:18:37.292 STDERR [INFO] I0713 13:18:37.291734 14639 net.cpp:148] Top shape: 10 512 14 14 (1003520)
2016-07-13 13:18:37.292 STDERR [INFO] I0713 13:18:37.291739 14639 net.cpp:156] Memory required for data: 407805440
2016-07-13 13:18:37.292 STDERR [INFO] I0713 13:18:37.291744 14639 layer_factory.hpp:77] Creating layer inception_4b/output_inception_4b/output_0_split
2016-07-13 13:18:37.292 STDERR [INFO] I0713 13:18:37.291754 14639 net.cpp:91] Creating Layer inception_4b/output_inception_4b/output_0_split
…
2016-07-13 13:18:37.293 STDERR [INFO] I0713 13:18:37.291781 14639 net.cpp:399] inception_4b/output_inception_4b/output_0_split -> inception_4b/output_inception_4b/output_0_split_1
2016-07-13 13:18:37.293 STDERR [INFO] I0713 13:18:37.291791 14639 net.cpp:399] inception_4b/output_inception_4b/output_0_split -> inception_4b/output_inception_4b/output_0_split_2
2016-07-13 13:18:37.293 STDERR [INFO] I0713 13:18:37.291800 14639 net.cpp:399] inception_4b/output_inception_4b/output_0_split -> inception_4b/output_inception_4b/output_0_split_3
2016-07-13 13:18:37.293 STDERR [INFO] I0713 13:18:37.291901 14639 net.cpp:141] Setting up inception_4b/output_inception_4b/output_0_split
2016-07-13 13:18:37.293 STDERR [INFO] I0713 13:18:37.291911 14639 net.cpp:148] Top shape: 10 512 14 14 (1003520)
2016-07-13 13:18:37.293 STDERR [INFO] I0713 13:18:37.291918 14639 net.cpp:148] Top shape: 10 512 14 14 (1003520)
2016-07-13 13:18:37.293 STDERR [INFO] I0713 13:18:37.291923 14639 net.cpp:148] Top shape: 10 512 14 14 (1003520)
2016-07-13 13:18:37.293 STDERR [INFO] I0713 13:18:37.291929 14639 net.cpp:148] Top shape: 10 512 14 14 (1003520)
2016-07-13 13:18:37.293 STDERR [INFO] I0713 13:18:37.291934 14639 net.cpp:156] Memory required for data: 423861760
2016-07-13 13:18:37.293 STDERR [INFO] I0713 13:18:37.291939 14639 layer_factory.hpp:77] Creating layer inception_4c/1x1
2016-07-13 13:18:37.293 STDERR [INFO] I0713 13:18:37.291960 14639 net.cpp:91] Creating Layer inception_4c/1x1
2016-07-13 13:18:37.293 STDERR [INFO] I0713 13:18:37.291965 14639 net.cpp:425] inception_4c/1x1 <- inception_4b/output_inception_4b/output_0_split_0
2016-07-13 13:18:37.293 STDERR [INFO] I0713 13:18:37.291975 14639 net.cpp:399] inception_4c/1x1 -> inception_4c/1x1
2016-07-13 13:18:37.295 STDERR [INFO] I0713 13:18:37.294960 14639 net.cpp:141] Setting up inception_4c/1x1
2016-07-13 13:18:37.295 STDERR [INFO] I0713 13:18:37.294983 14639 net.cpp:148] Top shape: 10 128 14 14 (250880)
2016-07-13 13:18:37.295 STDERR [INFO] I0713 13:18:37.294988 14639 net.cpp:156] Memory required for data: 424865280
2016-07-13 13:18:37.295 STDERR [INFO] I0713 13:18:37.294999 14639 layer_factory.hpp:77] Creating layer inception_4c/relu_1x1
2016-07-13 13:18:37.295 STDERR [INFO] I0713 13:18:37.295012 14639 net.cpp:91] Creating Layer inception_4c/relu_1x1
2016-07-13 13:18:37.295 STDERR [INFO] I0713 13:18:37.295019 14639 net.cpp:425] inception_4c/relu_1x1 <- inception_4c/1x1
2016-07-13 13:18:37.295 STDERR [INFO] I0713 13:18:37.295027 14639 net.cpp:386] inception_4c/relu_1x1 -> inception_4c/1x1 (in-place)
2016-07-13 13:18:37.295 STDERR [INFO] I0713 13:18:37.295296 14639 net.cpp:141] Setting up inception_4c/relu_1x1
2016-07-13 13:18:37.295 STDERR [INFO] I0713 13:18:37.295310 14639 net.cpp:148] Top shape: 10 128 14 14 (250880)
2016-07-13 13:18:37.295 STDERR [INFO] I0713 13:18:37.295315 14639 net.cpp:156] Memory required for data: 425868800
2016-07-13 13:18:37.295 STDERR [INFO] I0713 13:18:37.295320 14639 layer_factory.hpp:77] Creating layer inception_4c/3x3_reduce
2016-07-13 13:18:37.295 STDERR [INFO] I0713 13:18:37.295336 14639 net.cpp:91] Creating Layer inception_4c/3x3_reduce
2016-07-13 13:18:37.295 STDERR [INFO] I0713 13:18:37.295343 14639 net.cpp:425] inception_4c/3x3_reduce <- inception_4b/output_inception_4b/output_0_split_1
2016-07-13 13:18:37.295 STDERR [INFO] I0713 13:18:37.295357 14639 net.cpp:399] inception_4c/3x3_reduce -> inception_4c/3x3_reduce
2016-07-13 13:18:37.298 STDERR [INFO] I0713 13:18:37.298280 14639 net.cpp:141] Setting up inception_4c/3x3_reduce
2016-07-13 13:18:37.298 STDERR [INFO] I0713 13:18:37.298300 14639 net.cpp:148] Top shape: 10 128 14 14 (250880)
2016-07-13 13:18:37.298 STDERR [INFO] I0713 13:18:37.298306 14639 net.cpp:156] Memory required for data: 426872320
2016-07-13 13:18:37.298 STDERR [INFO] I0713 13:18:37.298316 14639 layer_factory.hpp:77] Creating layer inception_4c/relu_3x3_reduce
2016-07-13 13:18:37.298 STDERR [INFO] I0713 13:18:37.298331 14639 net.cpp:91] Creating Layer inception_4c/relu_3x3_reduce
2016-07-13 13:18:37.298 STDERR [INFO] I0713 13:18:37.298337 14639 net.cpp:425] inception_4c/relu_3x3_reduce <- inception_4c/3x3_reduce
2016-07-13 13:18:37.298 STDERR [INFO] I0713 13:18:37.298346 14639 net.cpp:386] inception_4c/relu_3x3_reduce -> inception_4c/3x3_reduce (in-place)
2016-07-13 13:18:37.298 STDERR [INFO] I0713 13:18:37.298619 14639 net.cpp:141] Setting up inception_4c/relu_3x3_reduce
2016-07-13 13:18:37.298 STDERR [INFO] I0713 13:18:37.298630 14639 net.cpp:148] Top shape: 10 128 14 14 (250880)
2016-07-13 13:18:37.298 STDERR [INFO] I0713 13:18:37.298635 14639 net.cpp:156] Memory required for data: 427875840
2016-07-13 13:18:37.299 STDERR [INFO] I0713 13:18:37.298640 14639 layer_factory.hpp:77] Creating layer inception_4c/3x3
2016-07-13 13:18:37.299 STDERR [INFO] I0713 13:18:37.298660 14639 net.cpp:91] Creating Layer inception_4c/3x3
2016-07-13 13:18:37.299 STDERR [INFO] I0713 13:18:37.298667 14639 net.cpp:425] inception_4c/3x3 <- inception_4c/3x3_reduce
2016-07-13 13:18:37.299 STDERR [INFO] I0713 13:18:37.298681 14639 net.cpp:399] inception_4c/3x3 -> inception_4c/3x3
2016-07-13 13:18:37.304 STDERR [INFO] I0713 13:18:37.304764 14639 net.cpp:141] Setting up inception_4c/3x3
2016-07-13 13:18:37.305 STDERR [INFO] I0713 13:18:37.304785 14639 net.cpp:148] Top shape: 10 256 14 14 (501760)
2016-07-13 13:18:37.305 STDERR [INFO] I0713 13:18:37.304790 14639 net.cpp:156] Memory required for data: 429882880
2016-07-13 13:18:37.305 STDERR [INFO] I0713 13:18:37.304800 14639 layer_factory.hpp:77] Creating layer inception_4c/relu_3x3
2016-07-13 13:18:37.305 STDERR [INFO] I0713 13:18:37.304814 14639 net.cpp:91] Creating Layer inception_4c/relu_3x3
2016-07-13 13:18:37.305 STDERR [INFO] I0713 13:18:37.304821 14639 net.cpp:425] inception_4c/relu_3x3 <- inception_4c/3x3
2016-07-13 13:18:37.305 STDERR [INFO] I0713 13:18:37.304829 14639 net.cpp:386] inception_4c/relu_3x3 -> inception_4c/3x3 (in-place)
2016-07-13 13:18:37.305 STDERR [INFO] I0713 13:18:37.305644 14639 net.cpp:141] Setting up inception_4c/relu_3x3
2016-07-13 13:18:37.305 STDERR [INFO] I0713 13:18:37.305661 14639 net.cpp:148] Top shape: 10 256 14 14 (501760)
2016-07-13 13:18:37.305 STDERR [INFO] I0713 13:18:37.305666 14639 net.cpp:156] Memory required for data: 431889920
2016-07-13 13:18:37.305 STDERR [INFO] I0713 13:18:37.305672 14639 layer_factory.hpp:77] Creating layer inception_4c/5x5_reduce
2016-07-13 13:18:37.305 STDERR [INFO] I0713 13:18:37.305691 14639 net.cpp:91] Creating Layer inception_4c/5x5_reduce
2016-07-13 13:18:37.306 STDERR [INFO] I0713 13:18:37.305697 14639 net.cpp:425] inception_4c/5x5_reduce <- inception_4b/output_inception_4b/output_0_split_2
2016-07-13 13:18:37.306 STDERR [INFO] I0713 13:18:37.305712 14639 net.cpp:399] inception_4c/5x5_reduce -> inception_4c/5x5_reduce
2016-07-13 13:18:37.308 STDERR [INFO] I0713 13:18:37.308218 14639 net.cpp:141] Setting up inception_4c/5x5_reduce
2016-07-13 13:18:37.308 STDERR [INFO] I0713 13:18:37.308240 14639 net.cpp:148] Top shape: 10 24 14 14 (47040)
2016-07-13 13:18:37.308 STDERR [INFO] I0713 13:18:37.308246 14639 net.cpp:156] Memory required for data: 432078080
2016-07-13 13:18:37.308 STDERR [INFO] I0713 13:18:37.308256 14639 layer_factory.hpp:77] Creating layer inception_4c/relu_5x5_reduce
2016-07-13 13:18:37.308 STDERR [INFO] I0713 13:18:37.308270 14639 net.cpp:91] Creating Layer inception_4c/relu_5x5_reduce
2016-07-13 13:18:37.308 STDERR [INFO] I0713 13:18:37.308277 14639 net.cpp:425] inception_4c/relu_5x5_reduce <- inception_4c/5x5_reduce
2016-07-13 13:18:37.308 STDERR [INFO] I0713 13:18:37.308285 14639 net.cpp:386] inception_4c/relu_5x5_reduce -> inception_4c/5x5_reduce (in-place)
2016-07-13 13:18:37.308 STDERR [INFO] I0713 13:18:37.308557 14639 net.cpp:141] Setting up inception_4c/relu_5x5_reduce
2016-07-13 13:18:37.308 STDERR [INFO] I0713 13:18:37.308569 14639 net.cpp:148] Top shape: 10 24 14 14 (47040)
2016-07-13 13:18:37.308 STDERR [INFO] I0713 13:18:37.308575 14639 net.cpp:156] Memory required for data: 432266240
2016-07-13 13:18:37.308 STDERR [INFO] I0713 13:18:37.308580 14639 layer_factory.hpp:77] Creating layer inception_4c/5x5
2016-07-13 13:18:37.309 STDERR [INFO] I0713 13:18:37.308598 14639 net.cpp:91] Creating Layer inception_4c/5x5
2016-07-13 13:18:37.309 STDERR [INFO] I0713 13:18:37.308605 14639 net.cpp:425] inception_4c/5x5 <- inception_4c/5x5_reduce
2016-07-13 13:18:37.309 STDERR [INFO] I0713 13:18:37.308619 14639 net.cpp:399] inception_4c/5x5 -> inception_4c/5x5
2016-07-13 13:18:37.312 STDERR [INFO] I0713 13:18:37.311910 14639 net.cpp:141] Setting up inception_4c/5x5
2016-07-13 13:18:37.312 STDERR [INFO] I0713 13:18:37.311933 14639 net.cpp:148] Top shape: 10 64 14 14 (125440)
2016-07-13 13:18:37.312 STDERR [INFO] I0713 13:18:37.311939 14639 net.cpp:156] Memory required for data: 432768000
2016-07-13 13:18:37.312 STDERR [INFO] I0713 13:18:37.311949 14639 layer_factory.hpp:77] Creating layer inception_4c/relu_5x5
2016-07-13 13:18:37.312 STDERR [INFO] I0713 13:18:37.311959 14639 net.cpp:91] Creating Layer inception_4c/relu_5x5
2016-07-13 13:18:37.312 STDERR [INFO] I0713 13:18:37.311965 14639 net.cpp:425] inception_4c/relu_5x5 <- inception_4c/5x5
2016-07-13 13:18:37.312 STDERR [INFO] I0713 13:18:37.311976 14639 net.cpp:386] inception_4c/relu_5x5 -> inception_4c/5x5 (in-place)
2016-07-13 13:18:37.312 STDERR [INFO] I0713 13:18:37.312253 14639 net.cpp:141] Setting up inception_4c/relu_5x5
2016-07-13 13:18:37.312 STDERR [INFO] I0713 13:18:37.312265 14639 net.cpp:148] Top shape: 10 64 14 14 (125440)
2016-07-13 13:18:37.312 STDERR [INFO] I0713 13:18:37.312270 14639 net.cpp:156] Memory required for data: 433269760
2016-07-13 13:18:37.312 STDERR [INFO] I0713 13:18:37.312276 14639 layer_factory.hpp:77] Creating layer inception_4c/pool
2016-07-13 13:18:37.312 STDERR [INFO] I0713 13:18:37.312291 14639 net.cpp:91] Creating Layer inception_4c/pool
2016-07-13 13:18:37.312 STDERR [INFO] I0713 13:18:37.312299 14639 net.cpp:425] inception_4c/pool <- inception_4b/output_inception_4b/output_0_split_3
2016-07-13 13:18:37.312 STDERR [INFO] I0713 13:18:37.312307 14639 net.cpp:399] inception_4c/pool -> inception_4c/pool
2016-07-13 13:18:37.312 STDERR [INFO] I0713 13:18:37.312387 14639 net.cpp:141] Setting up inception_4c/pool
2016-07-13 13:18:37.312 STDERR [INFO] I0713 13:18:37.312398 14639 net.cpp:148] Top shape: 10 512 14 14 (1003520)
2016-07-13 13:18:37.312 STDERR [INFO] I0713 13:18:37.312403 14639 net.cpp:156] Memory required for data: 437283840
2016-07-13 13:18:37.313 STDERR [INFO] I0713 13:18:37.312408 14639 layer_factory.hpp:77] Creating layer inception_4c/pool_proj
2016-07-13 13:18:37.313 STDERR [INFO] I0713 13:18:37.312424 14639 net.cpp:91] Creating Layer inception_4c/pool_proj
2016-07-13 13:18:37.313 STDERR [INFO] I0713 13:18:37.312432 14639 net.cpp:425] inception_4c/pool_proj <- inception_4c/pool
2016-07-13 13:18:37.313 STDERR [INFO] I0713 13:18:37.312444 14639 net.cpp:399] inception_4c/pool_proj -> inception_4c/pool_proj
2016-07-13 13:18:37.316 STDERR [INFO] I0713 13:18:37.316232 14639 net.cpp:141] Setting up inception_4c/pool_proj
2016-07-13 13:18:37.316 STDERR [INFO] I0713 13:18:37.316252 14639 net.cpp:148] Top shape: 10 64 14 14 (125440)
2016-07-13 13:18:37.316 STDERR [INFO] I0713 13:18:37.316258 14639 net.cpp:156] Memory required for data: 437785600
2016-07-13 13:18:37.316 STDERR [INFO] I0713 13:18:37.316289 14639 layer_factory.hpp:77] Creating layer inception_4c/relu_pool_proj
2016-07-13 13:18:37.316 STDERR [INFO] I0713 13:18:37.316300 14639 net.cpp:91] Creating Layer inception_4c/relu_pool_proj
2016-07-13 13:18:37.316 STDERR [INFO] I0713 13:18:37.316306 14639 net.cpp:425] inception_4c/relu_pool_proj <- inception_4c/pool_proj
2016-07-13 13:18:37.316 STDERR [INFO] I0713 13:18:37.316314 14639 net.cpp:386] inception_4c/relu_pool_proj -> inception_4c/pool_proj (in-place)
2016-07-13 13:18:37.317 STDERR [INFO] I0713 13:18:37.317137 14639 net.cpp:141] Setting up inception_4c/relu_pool_proj
2016-07-13 13:18:37.317 STDERR [INFO] I0713 13:18:37.317154 14639 net.cpp:148] Top shape: 10 64 14 14 (125440)
2016-07-13 13:18:37.317 STDERR [INFO] I0713 13:18:37.317160 14639 net.cpp:156] Memory required for data: 438287360
2016-07-13 13:18:37.317 STDERR [INFO] I0713 13:18:37.317165 14639 layer_factory.hpp:77] Creating layer inception_4c/output
2016-07-13 13:18:37.317 STDERR [INFO] I0713 13:18:37.317175 14639 net.cpp:91] Creating Layer inception_4c/output
2016-07-13 13:18:37.317 STDERR [INFO] I0713 13:18:37.317181 14639 net.cpp:425] inception_4c/output <- inception_4c/1x1
2016-07-13 13:18:37.317 STDERR [INFO] I0713 13:18:37.317188 14639 net.cpp:425] inception_4c/output <- inception_4c/3x3
2016-07-13 13:18:37.317 STDERR [INFO] I0713 13:18:37.317194 14639 net.cpp:425] inception_4c/output <- inception_4c/5x5
2016-07-13 13:18:37.317 STDERR [INFO] I0713 13:18:37.317200 14639 net.cpp:425] inception_4c/output <- inception_4c/pool_proj
2016-07-13 13:18:37.317 STDERR [INFO] I0713 13:18:37.317209 14639 net.cpp:399] inception_4c/output -> inception_4c/output
2016-07-13 13:18:37.317 STDERR [INFO] I0713 13:18:37.317265 14639 net.cpp:141] Setting up inception_4c/output
2016-07-13 13:18:37.317 STDERR [INFO] I0713 13:18:37.317276 14639 net.cpp:148] Top shape: 10 512 14 14 (1003520)
2016-07-13 13:18:37.317 STDERR [INFO] I0713 13:18:37.317281 14639 net.cpp:156] Memory required for data: 442301440
2016-07-13 13:18:37.318 STDERR [INFO] I0713 13:18:37.317286 14639 layer_factory.hpp:77] Creating layer inception_4c/output_inception_4c/output_0_split
2016-07-13 13:18:37.318 STDERR [INFO] I0713 13:18:37.317298 14639 net.cpp:91] Creating Layer inception_4c/output_inception_4c/output_0_split
…
2016-07-13 13:18:37.318 STDERR [INFO] I0713 13:18:37.317322 14639 net.cpp:399] inception_4c/output_inception_4c/output_0_split -> inception_4c/output_inception_4c/output_0_split_1
2016-07-13 13:18:37.318 STDERR [INFO] I0713 13:18:37.317332 14639 net.cpp:399] inception_4c/output_inception_4c/output_0_split -> inception_4c/output_inception_4c/output_0_split_2
2016-07-13 13:18:37.318 STDERR [INFO] I0713 13:18:37.317342 14639 net.cpp:399] inception_4c/output_inception_4c/output_0_split -> inception_4c/output_inception_4c/output_0_split_3
2016-07-13 13:18:37.318 STDERR [INFO] I0713 13:18:37.317447 14639 net.cpp:141] Setting up inception_4c/output_inception_4c/output_0_split
2016-07-13 13:18:37.318 STDERR [INFO] I0713 13:18:37.317458 14639 net.cpp:148] Top shape: 10 512 14 14 (1003520)
2016-07-13 13:18:37.318 STDERR [INFO] I0713 13:18:37.317464 14639 net.cpp:148] Top shape: 10 512 14 14 (1003520)
2016-07-13 13:18:37.318 STDERR [INFO] I0713 13:18:37.317471 14639 net.cpp:148] Top shape: 10 512 14 14 (1003520)
2016-07-13 13:18:37.318 STDERR [INFO] I0713 13:18:37.317476 14639 net.cpp:148] Top shape: 10 512 14 14 (1003520)
2016-07-13 13:18:37.318 STDERR [INFO] I0713 13:18:37.317481 14639 net.cpp:156] Memory required for data: 458357760
2016-07-13 13:18:37.318 STDERR [INFO] I0713 13:18:37.317486 14639 layer_factory.hpp:77] Creating layer inception_4d/1x1
2016-07-13 13:18:37.318 STDERR [INFO] I0713 13:18:37.317503 14639 net.cpp:91] Creating Layer inception_4d/1x1
2016-07-13 13:18:37.318 STDERR [INFO] I0713 13:18:37.317510 14639 net.cpp:425] inception_4d/1x1 <- inception_4c/output_inception_4c/output_0_split_0
2016-07-13 13:18:37.318 STDERR [INFO] I0713 13:18:37.317523 14639 net.cpp:399] inception_4d/1x1 -> inception_4d/1x1
2016-07-13 13:18:37.320 STDERR [INFO] I0713 13:18:37.320368 14639 net.cpp:141] Setting up inception_4d/1x1
2016-07-13 13:18:37.320 STDERR [INFO] I0713 13:18:37.320387 14639 net.cpp:148] Top shape: 10 112 14 14 (219520)
2016-07-13 13:18:37.320 STDERR [INFO] I0713 13:18:37.320392 14639 net.cpp:156] Memory required for data: 459235840
2016-07-13 13:18:37.320 STDERR [INFO] I0713 13:18:37.320402 14639 layer_factory.hpp:77] Creating layer inception_4d/relu_1x1
2016-07-13 13:18:37.320 STDERR [INFO] I0713 13:18:37.320416 14639 net.cpp:91] Creating Layer inception_4d/relu_1x1
2016-07-13 13:18:37.320 STDERR [INFO] I0713 13:18:37.320423 14639 net.cpp:425] inception_4d/relu_1x1 <- inception_4d/1x1
2016-07-13 13:18:37.320 STDERR [INFO] I0713 13:18:37.320436 14639 net.cpp:386] inception_4d/relu_1x1 -> inception_4d/1x1 (in-place)
2016-07-13 13:18:37.320 STDERR [INFO] I0713 13:18:37.320709 14639 net.cpp:141] Setting up inception_4d/relu_1x1
2016-07-13 13:18:37.321 STDERR [INFO] I0713 13:18:37.320722 14639 net.cpp:148] Top shape: 10 112 14 14 (219520)
2016-07-13 13:18:37.321 STDERR [INFO] I0713 13:18:37.320726 14639 net.cpp:156] Memory required for data: 460113920
2016-07-13 13:18:37.321 STDERR [INFO] I0713 13:18:37.320732 14639 layer_factory.hpp:77] Creating layer inception_4d/3x3_reduce
2016-07-13 13:18:37.321 STDERR [INFO] I0713 13:18:37.320750 14639 net.cpp:91] Creating Layer inception_4d/3x3_reduce
2016-07-13 13:18:37.321 STDERR [INFO] I0713 13:18:37.320757 14639 net.cpp:425] inception_4d/3x3_reduce <- inception_4c/output_inception_4c/output_0_split_1
2016-07-13 13:18:37.321 STDERR [INFO] I0713 13:18:37.320770 14639 net.cpp:399] inception_4d/3x3_reduce -> inception_4d/3x3_reduce
2016-07-13 13:18:37.323 STDERR [INFO] I0713 13:18:37.323779 14639 net.cpp:141] Setting up inception_4d/3x3_reduce
2016-07-13 13:18:37.324 STDERR [INFO] I0713 13:18:37.323801 14639 net.cpp:148] Top shape: 10 144 14 14 (282240)
2016-07-13 13:18:37.324 STDERR [INFO] I0713 13:18:37.323807 14639 net.cpp:156] Memory required for data: 461242880
2016-07-13 13:18:37.324 STDERR [INFO] I0713 13:18:37.323817 14639 layer_factory.hpp:77] Creating layer inception_4d/relu_3x3_reduce
2016-07-13 13:18:37.324 STDERR [INFO] I0713 13:18:37.323827 14639 net.cpp:91] Creating Layer inception_4d/relu_3x3_reduce
2016-07-13 13:18:37.324 STDERR [INFO] I0713 13:18:37.323834 14639 net.cpp:425] inception_4d/relu_3x3_reduce <- inception_4d/3x3_reduce
2016-07-13 13:18:37.324 STDERR [INFO] I0713 13:18:37.323845 14639 net.cpp:386] inception_4d/relu_3x3_reduce -> inception_4d/3x3_reduce (in-place)
2016-07-13 13:18:37.324 STDERR [INFO] I0713 13:18:37.324122 14639 net.cpp:141] Setting up inception_4d/relu_3x3_reduce
2016-07-13 13:18:37.324 STDERR [INFO] I0713 13:18:37.324136 14639 net.cpp:148] Top shape: 10 144 14 14 (282240)
2016-07-13 13:18:37.324 STDERR [INFO] I0713 13:18:37.324139 14639 net.cpp:156] Memory required for data: 462371840
2016-07-13 13:18:37.324 STDERR [INFO] I0713 13:18:37.324146 14639 layer_factory.hpp:77] Creating layer inception_4d/3x3
2016-07-13 13:18:37.324 STDERR [INFO] I0713 13:18:37.324167 14639 net.cpp:91] Creating Layer inception_4d/3x3
2016-07-13 13:18:37.324 STDERR [INFO] I0713 13:18:37.324173 14639 net.cpp:425] inception_4d/3x3 <- inception_4d/3x3_reduce
2016-07-13 13:18:37.324 STDERR [INFO] I0713 13:18:37.324182 14639 net.cpp:399] inception_4d/3x3 -> inception_4d/3x3
2016-07-13 13:18:37.331 STDERR [INFO] I0713 13:18:37.331110 14639 net.cpp:141] Setting up inception_4d/3x3
2016-07-13 13:18:37.331 STDERR [INFO] I0713 13:18:37.331131 14639 net.cpp:148] Top shape: 10 288 14 14 (564480)
2016-07-13 13:18:37.331 STDERR [INFO] I0713 13:18:37.331137 14639 net.cpp:156] Memory required for data: 464629760
2016-07-13 13:18:37.331 STDERR [INFO] I0713 13:18:37.331147 14639 layer_factory.hpp:77] Creating layer inception_4d/relu_3x3
2016-07-13 13:18:37.331 STDERR [INFO] I0713 13:18:37.331159 14639 net.cpp:91] Creating Layer inception_4d/relu_3x3
2016-07-13 13:18:37.331 STDERR [INFO] I0713 13:18:37.331166 14639 net.cpp:425] inception_4d/relu_3x3 <- inception_4d/3x3
2016-07-13 13:18:37.331 STDERR [INFO] I0713 13:18:37.331174 14639 net.cpp:386] inception_4d/relu_3x3 -> inception_4d/3x3 (in-place)
2016-07-13 13:18:37.332 STDERR [INFO] I0713 13:18:37.331992 14639 net.cpp:141] Setting up inception_4d/relu_3x3
2016-07-13 13:18:37.332 STDERR [INFO] I0713 13:18:37.332010 14639 net.cpp:148] Top shape: 10 288 14 14 (564480)
2016-07-13 13:18:37.332 STDERR [INFO] I0713 13:18:37.332015 14639 net.cpp:156] Memory required for data: 466887680
2016-07-13 13:18:37.332 STDERR [INFO] I0713 13:18:37.332022 14639 layer_factory.hpp:77] Creating layer inception_4d/5x5_reduce
2016-07-13 13:18:37.332 STDERR [INFO] I0713 13:18:37.332042 14639 net.cpp:91] Creating Layer inception_4d/5x5_reduce
2016-07-13 13:18:37.332 STDERR [INFO] I0713 13:18:37.332049 14639 net.cpp:425] inception_4d/5x5_reduce <- inception_4c/output_inception_4c/output_0_split_2
2016-07-13 13:18:37.332 STDERR [INFO] I0713 13:18:37.332062 14639 net.cpp:399] inception_4d/5x5_reduce -> inception_4d/5x5_reduce
2016-07-13 13:18:37.334 STDERR [INFO] I0713 13:18:37.334607 14639 net.cpp:141] Setting up inception_4d/5x5_reduce
2016-07-13 13:18:37.334 STDERR [INFO] I0713 13:18:37.334626 14639 net.cpp:148] Top shape: 10 32 14 14 (62720)
2016-07-13 13:18:37.334 STDERR [INFO] I0713 13:18:37.334631 14639 net.cpp:156] Memory required for data: 467138560
2016-07-13 13:18:37.334 STDERR [INFO] I0713 13:18:37.334641 14639 layer_factory.hpp:77] Creating layer inception_4d/relu_5x5_reduce
2016-07-13 13:18:37.335 STDERR [INFO] I0713 13:18:37.334657 14639 net.cpp:91] Creating Layer inception_4d/relu_5x5_reduce
2016-07-13 13:18:37.335 STDERR [INFO] I0713 13:18:37.334666 14639 net.cpp:425] inception_4d/relu_5x5_reduce <- inception_4d/5x5_reduce
2016-07-13 13:18:37.335 STDERR [INFO] I0713 13:18:37.334676 14639 net.cpp:386] inception_4d/relu_5x5_reduce -> inception_4d/5x5_reduce (in-place)
2016-07-13 13:18:37.335 STDERR [INFO] I0713 13:18:37.334959 14639 net.cpp:141] Setting up inception_4d/relu_5x5_reduce
2016-07-13 13:18:37.335 STDERR [INFO] I0713 13:18:37.334972 14639 net.cpp:148] Top shape: 10 32 14 14 (62720)
2016-07-13 13:18:37.335 STDERR [INFO] I0713 13:18:37.334977 14639 net.cpp:156] Memory required for data: 467389440
2016-07-13 13:18:37.335 STDERR [INFO] I0713 13:18:37.334982 14639 layer_factory.hpp:77] Creating layer inception_4d/5x5
2016-07-13 13:18:37.335 STDERR [INFO] I0713 13:18:37.335001 14639 net.cpp:91] Creating Layer inception_4d/5x5
2016-07-13 13:18:37.335 STDERR [INFO] I0713 13:18:37.335008 14639 net.cpp:425] inception_4d/5x5 <- inception_4d/5x5_reduce
2016-07-13 13:18:37.335 STDERR [INFO] I0713 13:18:37.335021 14639 net.cpp:399] inception_4d/5x5 -> inception_4d/5x5
2016-07-13 13:18:37.337 STDERR [INFO] I0713 13:18:37.337829 14639 net.cpp:141] Setting up inception_4d/5x5
2016-07-13 13:18:37.338 STDERR [INFO] I0713 13:18:37.337848 14639 net.cpp:148] Top shape: 10 64 14 14 (125440)
2016-07-13 13:18:37.338 STDERR [INFO] I0713 13:18:37.337854 14639 net.cpp:156] Memory required for data: 467891200
2016-07-13 13:18:37.338 STDERR [INFO] I0713 13:18:37.337864 14639 layer_factory.hpp:77] Creating layer inception_4d/relu_5x5
2016-07-13 13:18:37.338 STDERR [INFO] I0713 13:18:37.337878 14639 net.cpp:91] Creating Layer inception_4d/relu_5x5
2016-07-13 13:18:37.338 STDERR [INFO] I0713 13:18:37.337885 14639 net.cpp:425] inception_4d/relu_5x5 <- inception_4d/5x5
2016-07-13 13:18:37.338 STDERR [INFO] I0713 13:18:37.337893 14639 net.cpp:386] inception_4d/relu_5x5 -> inception_4d/5x5 (in-place)
2016-07-13 13:18:37.338 STDERR [INFO] I0713 13:18:37.338181 14639 net.cpp:141] Setting up inception_4d/relu_5x5
2016-07-13 13:18:37.338 STDERR [INFO] I0713 13:18:37.338193 14639 net.cpp:148] Top shape: 10 64 14 14 (125440)
2016-07-13 13:18:37.338 STDERR [INFO] I0713 13:18:37.338197 14639 net.cpp:156] Memory required for data: 468392960
2016-07-13 13:18:37.338 STDERR [INFO] I0713 13:18:37.338203 14639 layer_factory.hpp:77] Creating layer inception_4d/pool
2016-07-13 13:18:37.338 STDERR [INFO] I0713 13:18:37.338213 14639 net.cpp:91] Creating Layer inception_4d/pool
2016-07-13 13:18:37.338 STDERR [INFO] I0713 13:18:37.338219 14639 net.cpp:425] inception_4d/pool <- inception_4c/output_inception_4c/output_0_split_3
2016-07-13 13:18:37.338 STDERR [INFO] I0713 13:18:37.338232 14639 net.cpp:399] inception_4d/pool -> inception_4d/pool
2016-07-13 13:18:37.338 STDERR [INFO] I0713 13:18:37.338310 14639 net.cpp:141] Setting up inception_4d/pool
2016-07-13 13:18:37.338 STDERR [INFO] I0713 13:18:37.338320 14639 net.cpp:148] Top shape: 10 512 14 14 (1003520)
2016-07-13 13:18:37.338 STDERR [INFO] I0713 13:18:37.338325 14639 net.cpp:156] Memory required for data: 472407040
2016-07-13 13:18:37.338 STDERR [INFO] I0713 13:18:37.338330 14639 layer_factory.hpp:77] Creating layer inception_4d/pool_proj
2016-07-13 13:18:37.338 STDERR [INFO] I0713 13:18:37.338351 14639 net.cpp:91] Creating Layer inception_4d/pool_proj
2016-07-13 13:18:37.339 STDERR [INFO] I0713 13:18:37.338358 14639 net.cpp:425] inception_4d/pool_proj <- inception_4d/pool
2016-07-13 13:18:37.339 STDERR [INFO] I0713 13:18:37.338368 14639 net.cpp:399] inception_4d/pool_proj -> inception_4d/pool_proj
2016-07-13 13:18:37.341 STDERR [INFO] I0713 13:18:37.341065 14639 net.cpp:141] Setting up inception_4d/pool_proj
2016-07-13 13:18:37.341 STDERR [INFO] I0713 13:18:37.341084 14639 net.cpp:148] Top shape: 10 64 14 14 (125440)
2016-07-13 13:18:37.341 STDERR [INFO] I0713 13:18:37.341090 14639 net.cpp:156] Memory required for data: 472908800
2016-07-13 13:18:37.341 STDERR [INFO] I0713 13:18:37.341100 14639 layer_factory.hpp:77] Creating layer inception_4d/relu_pool_proj
2016-07-13 13:18:37.341 STDERR [INFO] I0713 13:18:37.341110 14639 net.cpp:91] Creating Layer inception_4d/relu_pool_proj
2016-07-13 13:18:37.341 STDERR [INFO] I0713 13:18:37.341117 14639 net.cpp:425] inception_4d/relu_pool_proj <- inception_4d/pool_proj
2016-07-13 13:18:37.342 STDERR [INFO] I0713 13:18:37.341128 14639 net.cpp:386] inception_4d/relu_pool_proj -> inception_4d/pool_proj (in-place)
2016-07-13 13:18:37.342 STDERR [INFO] I0713 13:18:37.341959 14639 net.cpp:141] Setting up inception_4d/relu_pool_proj
2016-07-13 13:18:37.342 STDERR [INFO] I0713 13:18:37.341974 14639 net.cpp:148] Top shape: 10 64 14 14 (125440)
2016-07-13 13:18:37.342 STDERR [INFO] I0713 13:18:37.341979 14639 net.cpp:156] Memory required for data: 473410560
2016-07-13 13:18:37.342 STDERR [INFO] I0713 13:18:37.341985 14639 layer_factory.hpp:77] Creating layer inception_4d/output
2016-07-13 13:18:37.342 STDERR [INFO] I0713 13:18:37.341995 14639 net.cpp:91] Creating Layer inception_4d/output
2016-07-13 13:18:37.342 STDERR [INFO] I0713 13:18:37.342001 14639 net.cpp:425] inception_4d/output <- inception_4d/1x1
2016-07-13 13:18:37.342 STDERR [INFO] I0713 13:18:37.342015 14639 net.cpp:425] inception_4d/output <- inception_4d/3x3
2016-07-13 13:18:37.342 STDERR [INFO] I0713 13:18:37.342021 14639 net.cpp:425] inception_4d/output <- inception_4d/5x5
2016-07-13 13:18:37.342 STDERR [INFO] I0713 13:18:37.342027 14639 net.cpp:425] inception_4d/output <- inception_4d/pool_proj
2016-07-13 13:18:37.342 STDERR [INFO] I0713 13:18:37.342034 14639 net.cpp:399] inception_4d/output -> inception_4d/output
2016-07-13 13:18:37.342 STDERR [INFO] I0713 13:18:37.342087 14639 net.cpp:141] Setting up inception_4d/output
2016-07-13 13:18:37.342 STDERR [INFO] I0713 13:18:37.342098 14639 net.cpp:148] Top shape: 10 528 14 14 (1034880)
2016-07-13 13:18:37.342 STDERR [INFO] I0713 13:18:37.342103 14639 net.cpp:156] Memory required for data: 477550080
2016-07-13 13:18:37.342 STDERR [INFO] I0713 13:18:37.342108 14639 layer_factory.hpp:77] Creating layer inception_4d/output_inception_4d/output_0_split
2016-07-13 13:18:37.342 STDERR [INFO] I0713 13:18:37.342125 14639 net.cpp:91] Creating Layer inception_4d/output_inception_4d/output_0_split
…
2016-07-13 13:18:37.343 STDERR [INFO] I0713 13:18:37.342154 14639 net.cpp:399] inception_4d/output_inception_4d/output_0_split -> inception_4d/output_inception_4d/output_0_split_1
2016-07-13 13:18:37.343 STDERR [INFO] I0713 13:18:37.342164 14639 net.cpp:399] inception_4d/output_inception_4d/output_0_split -> inception_4d/output_inception_4d/output_0_split_2
2016-07-13 13:18:37.343 STDERR [INFO] I0713 13:18:37.342172 14639 net.cpp:399] inception_4d/output_inception_4d/output_0_split -> inception_4d/output_inception_4d/output_0_split_3
2016-07-13 13:18:37.343 STDERR [INFO] I0713 13:18:37.342286 14639 net.cpp:141] Setting up inception_4d/output_inception_4d/output_0_split
2016-07-13 13:18:37.343 STDERR [INFO] I0713 13:18:37.342296 14639 net.cpp:148] Top shape: 10 528 14 14 (1034880)
2016-07-13 13:18:37.343 STDERR [INFO] I0713 13:18:37.342303 14639 net.cpp:148] Top shape: 10 528 14 14 (1034880)
2016-07-13 13:18:37.343 STDERR [INFO] I0713 13:18:37.342309 14639 net.cpp:148] Top shape: 10 528 14 14 (1034880)
2016-07-13 13:18:37.343 STDERR [INFO] I0713 13:18:37.342315 14639 net.cpp:148] Top shape: 10 528 14 14 (1034880)
2016-07-13 13:18:37.343 STDERR [INFO] I0713 13:18:37.342319 14639 net.cpp:156] Memory required for data: 494108160
2016-07-13 13:18:37.343 STDERR [INFO] I0713 13:18:37.342324 14639 layer_factory.hpp:77] Creating layer inception_4e/1x1
2016-07-13 13:18:37.343 STDERR [INFO] I0713 13:18:37.342342 14639 net.cpp:91] Creating Layer inception_4e/1x1
2016-07-13 13:18:37.343 STDERR [INFO] I0713 13:18:37.342349 14639 net.cpp:425] inception_4e/1x1 <- inception_4d/output_inception_4d/output_0_split_0
2016-07-13 13:18:37.343 STDERR [INFO] I0713 13:18:37.342362 14639 net.cpp:399] inception_4e/1x1 -> inception_4e/1x1
2016-07-13 13:18:37.347 STDERR [INFO] I0713 13:18:37.347760 14639 net.cpp:141] Setting up inception_4e/1x1
2016-07-13 13:18:37.347 STDERR [INFO] I0713 13:18:37.347781 14639 net.cpp:148] Top shape: 10 256 14 14 (501760)
2016-07-13 13:18:37.348 STDERR [INFO] I0713 13:18:37.347787 14639 net.cpp:156] Memory required for data: 496115200
2016-07-13 13:18:37.348 STDERR [INFO] I0713 13:18:37.347798 14639 layer_factory.hpp:77] Creating layer inception_4e/relu_1x1
2016-07-13 13:18:37.348 STDERR [INFO] I0713 13:18:37.347811 14639 net.cpp:91] Creating Layer inception_4e/relu_1x1
2016-07-13 13:18:37.348 STDERR [INFO] I0713 13:18:37.347818 14639 net.cpp:425] inception_4e/relu_1x1 <- inception_4e/1x1
2016-07-13 13:18:37.348 STDERR [INFO] I0713 13:18:37.347826 14639 net.cpp:386] inception_4e/relu_1x1 -> inception_4e/1x1 (in-place)
2016-07-13 13:18:37.348 STDERR [INFO] I0713 13:18:37.348116 14639 net.cpp:141] Setting up inception_4e/relu_1x1
2016-07-13 13:18:37.348 STDERR [INFO] I0713 13:18:37.348131 14639 net.cpp:148] Top shape: 10 256 14 14 (501760)
2016-07-13 13:18:37.348 STDERR [INFO] I0713 13:18:37.348136 14639 net.cpp:156] Memory required for data: 498122240
2016-07-13 13:18:37.348 STDERR [INFO] I0713 13:18:37.348142 14639 layer_factory.hpp:77] Creating layer inception_4e/3x3_reduce
2016-07-13 13:18:37.348 STDERR [INFO] I0713 13:18:37.348160 14639 net.cpp:91] Creating Layer inception_4e/3x3_reduce
2016-07-13 13:18:37.348 STDERR [INFO] I0713 13:18:37.348166 14639 net.cpp:425] inception_4e/3x3_reduce <- inception_4d/output_inception_4d/output_0_split_1
2016-07-13 13:18:37.348 STDERR [INFO] I0713 13:18:37.348176 14639 net.cpp:399] inception_4e/3x3_reduce -> inception_4e/3x3_reduce
2016-07-13 13:18:37.351 STDERR [INFO] I0713 13:18:37.351325 14639 net.cpp:141] Setting up inception_4e/3x3_reduce
2016-07-13 13:18:37.351 STDERR [INFO] I0713 13:18:37.351346 14639 net.cpp:148] Top shape: 10 160 14 14 (313600)
2016-07-13 13:18:37.351 STDERR [INFO] I0713 13:18:37.351351 14639 net.cpp:156] Memory required for data: 499376640
2016-07-13 13:18:37.351 STDERR [INFO] I0713 13:18:37.351361 14639 layer_factory.hpp:77] Creating layer inception_4e/relu_3x3_reduce
2016-07-13 13:18:37.351 STDERR [INFO] I0713 13:18:37.351374 14639 net.cpp:91] Creating Layer inception_4e/relu_3x3_reduce
2016-07-13 13:18:37.351 STDERR [INFO] I0713 13:18:37.351382 14639 net.cpp:425] inception_4e/relu_3x3_reduce <- inception_4e/3x3_reduce
2016-07-13 13:18:37.351 STDERR [INFO] I0713 13:18:37.351390 14639 net.cpp:386] inception_4e/relu_3x3_reduce -> inception_4e/3x3_reduce (in-place)
2016-07-13 13:18:37.351 STDERR [INFO] I0713 13:18:37.351675 14639 net.cpp:141] Setting up inception_4e/relu_3x3_reduce
2016-07-13 13:18:37.352 STDERR [INFO] I0713 13:18:37.351687 14639 net.cpp:148] Top shape: 10 160 14 14 (313600)
2016-07-13 13:18:37.352 STDERR [INFO] I0713 13:18:37.351692 14639 net.cpp:156] Memory required for data: 500631040
2016-07-13 13:18:37.352 STDERR [INFO] I0713 13:18:37.351697 14639 layer_factory.hpp:77] Creating layer inception_4e/3x3
2016-07-13 13:18:37.352 STDERR [INFO] I0713 13:18:37.351721 14639 net.cpp:91] Creating Layer inception_4e/3x3
2016-07-13 13:18:37.352 STDERR [INFO] I0713 13:18:37.351727 14639 net.cpp:425] inception_4e/3x3 <- inception_4e/3x3_reduce
2016-07-13 13:18:37.352 STDERR [INFO] I0713 13:18:37.351737 14639 net.cpp:399] inception_4e/3x3 -> inception_4e/3x3
2016-07-13 13:18:37.360 STDERR [INFO] I0713 13:18:37.360169 14639 net.cpp:141] Setting up inception_4e/3x3
2016-07-13 13:18:37.360 STDERR [INFO] I0713 13:18:37.360196 14639 net.cpp:148] Top shape: 10 320 14 14 (627200)
2016-07-13 13:18:37.360 STDERR [INFO] I0713 13:18:37.360203 14639 net.cpp:156] Memory required for data: 503139840
2016-07-13 13:18:37.360 STDERR [INFO] I0713 13:18:37.360213 14639 layer_factory.hpp:77] Creating layer inception_4e/relu_3x3
2016-07-13 13:18:37.360 STDERR [INFO] I0713 13:18:37.360229 14639 net.cpp:91] Creating Layer inception_4e/relu_3x3
2016-07-13 13:18:37.360 STDERR [INFO] I0713 13:18:37.360236 14639 net.cpp:425] inception_4e/relu_3x3 <- inception_4e/3x3
2016-07-13 13:18:37.360 STDERR [INFO] I0713 13:18:37.360245 14639 net.cpp:386] inception_4e/relu_3x3 -> inception_4e/3x3 (in-place)
2016-07-13 13:18:37.361 STDERR [INFO] I0713 13:18:37.361086 14639 net.cpp:141] Setting up inception_4e/relu_3x3
2016-07-13 13:18:37.361 STDERR [INFO] I0713 13:18:37.361104 14639 net.cpp:148] Top shape: 10 320 14 14 (627200)
2016-07-13 13:18:37.361 STDERR [INFO] I0713 13:18:37.361109 14639 net.cpp:156] Memory required for data: 505648640
2016-07-13 13:18:37.361 STDERR [INFO] I0713 13:18:37.361115 14639 layer_factory.hpp:77] Creating layer inception_4e/5x5_reduce
2016-07-13 13:18:37.361 STDERR [INFO] I0713 13:18:37.361138 14639 net.cpp:91] Creating Layer inception_4e/5x5_reduce
2016-07-13 13:18:37.361 STDERR [INFO] I0713 13:18:37.361146 14639 net.cpp:425] inception_4e/5x5_reduce <- inception_4d/output_inception_4d/output_0_split_2
2016-07-13 13:18:37.361 STDERR [INFO] I0713 13:18:37.361157 14639 net.cpp:399] inception_4e/5x5_reduce -> inception_4e/5x5_reduce
2016-07-13 13:18:37.363 STDERR [INFO] I0713 13:18:37.363785 14639 net.cpp:141] Setting up inception_4e/5x5_reduce
2016-07-13 13:18:37.364 STDERR [INFO] I0713 13:18:37.363807 14639 net.cpp:148] Top shape: 10 32 14 14 (62720)
2016-07-13 13:18:37.364 STDERR [INFO] I0713 13:18:37.363813 14639 net.cpp:156] Memory required for data: 505899520
2016-07-13 13:18:37.364 STDERR [INFO] I0713 13:18:37.363823 14639 layer_factory.hpp:77] Creating layer inception_4e/relu_5x5_reduce
2016-07-13 13:18:37.364 STDERR [INFO] I0713 13:18:37.363833 14639 net.cpp:91] Creating Layer inception_4e/relu_5x5_reduce
2016-07-13 13:18:37.364 STDERR [INFO] I0713 13:18:37.363840 14639 net.cpp:425] inception_4e/relu_5x5_reduce <- inception_4e/5x5_reduce
2016-07-13 13:18:37.364 STDERR [INFO] I0713 13:18:37.363848 14639 net.cpp:386] inception_4e/relu_5x5_reduce -> inception_4e/5x5_reduce (in-place)
2016-07-13 13:18:37.364 STDERR [INFO] I0713 13:18:37.364138 14639 net.cpp:141] Setting up inception_4e/relu_5x5_reduce
2016-07-13 13:18:37.364 STDERR [INFO] I0713 13:18:37.364151 14639 net.cpp:148] Top shape: 10 32 14 14 (62720)
2016-07-13 13:18:37.364 STDERR [INFO] I0713 13:18:37.364156 14639 net.cpp:156] Memory required for data: 506150400
2016-07-13 13:18:37.364 STDERR [INFO] I0713 13:18:37.364161 14639 layer_factory.hpp:77] Creating layer inception_4e/5x5
2016-07-13 13:18:37.364 STDERR [INFO] I0713 13:18:37.364181 14639 net.cpp:91] Creating Layer inception_4e/5x5
2016-07-13 13:18:37.364 STDERR [INFO] I0713 13:18:37.364187 14639 net.cpp:425] inception_4e/5x5 <- inception_4e/5x5_reduce
2016-07-13 13:18:37.364 STDERR [INFO] I0713 13:18:37.364200 14639 net.cpp:399] inception_4e/5x5 -> inception_4e/5x5
2016-07-13 13:18:37.368 STDERR [INFO] I0713 13:18:37.368737 14639 net.cpp:141] Setting up inception_4e/5x5
2016-07-13 13:18:37.369 STDERR [INFO] I0713 13:18:37.368760 14639 net.cpp:148] Top shape: 10 128 14 14 (250880)
2016-07-13 13:18:37.369 STDERR [INFO] I0713 13:18:37.368767 14639 net.cpp:156] Memory required for data: 507153920
2016-07-13 13:18:37.369 STDERR [INFO] I0713 13:18:37.368777 14639 layer_factory.hpp:77] Creating layer inception_4e/relu_5x5
2016-07-13 13:18:37.369 STDERR [INFO] I0713 13:18:37.368787 14639 net.cpp:91] Creating Layer inception_4e/relu_5x5
2016-07-13 13:18:37.369 STDERR [INFO] I0713 13:18:37.368793 14639 net.cpp:425] inception_4e/relu_5x5 <- inception_4e/5x5
2016-07-13 13:18:37.369 STDERR [INFO] I0713 13:18:37.368801 14639 net.cpp:386] inception_4e/relu_5x5 -> inception_4e/5x5 (in-place)
2016-07-13 13:18:37.369 STDERR [INFO] I0713 13:18:37.369091 14639 net.cpp:141] Setting up inception_4e/relu_5x5
2016-07-13 13:18:37.369 STDERR [INFO] I0713 13:18:37.369103 14639 net.cpp:148] Top shape: 10 128 14 14 (250880)
2016-07-13 13:18:37.369 STDERR [INFO] I0713 13:18:37.369108 14639 net.cpp:156] Memory required for data: 508157440
2016-07-13 13:18:37.369 STDERR [INFO] I0713 13:18:37.369114 14639 layer_factory.hpp:77] Creating layer inception_4e/pool
2016-07-13 13:18:37.369 STDERR [INFO] I0713 13:18:37.369128 14639 net.cpp:91] Creating Layer inception_4e/pool
2016-07-13 13:18:37.369 STDERR [INFO] I0713 13:18:37.369135 14639 net.cpp:425] inception_4e/pool <- inception_4d/output_inception_4d/output_0_split_3
2016-07-13 13:18:37.369 STDERR [INFO] I0713 13:18:37.369144 14639 net.cpp:399] inception_4e/pool -> inception_4e/pool
2016-07-13 13:18:37.369 STDERR [INFO] I0713 13:18:37.369227 14639 net.cpp:141] Setting up inception_4e/pool
2016-07-13 13:18:37.369 STDERR [INFO] I0713 13:18:37.369238 14639 net.cpp:148] Top shape: 10 528 14 14 (1034880)
2016-07-13 13:18:37.369 STDERR [INFO] I0713 13:18:37.369243 14639 net.cpp:156] Memory required for data: 512296960
2016-07-13 13:18:37.369 STDERR [INFO] I0713 13:18:37.369248 14639 layer_factory.hpp:77] Creating layer inception_4e/pool_proj
2016-07-13 13:18:37.369 STDERR [INFO] I0713 13:18:37.369267 14639 net.cpp:91] Creating Layer inception_4e/pool_proj
2016-07-13 13:18:37.370 STDERR [INFO] I0713 13:18:37.369274 14639 net.cpp:425] inception_4e/pool_proj <- inception_4e/pool
2016-07-13 13:18:37.370 STDERR [INFO] I0713 13:18:37.369287 14639 net.cpp:399] inception_4e/pool_proj -> inception_4e/pool_proj
2016-07-13 13:18:37.372 STDERR [INFO] I0713 13:18:37.372354 14639 net.cpp:141] Setting up inception_4e/pool_proj
2016-07-13 13:18:37.372 STDERR [INFO] I0713 13:18:37.372375 14639 net.cpp:148] Top shape: 10 128 14 14 (250880)
2016-07-13 13:18:37.372 STDERR [INFO] I0713 13:18:37.372380 14639 net.cpp:156] Memory required for data: 513300480
2016-07-13 13:18:37.372 STDERR [INFO] I0713 13:18:37.372392 14639 layer_factory.hpp:77] Creating layer inception_4e/relu_pool_proj
2016-07-13 13:18:37.372 STDERR [INFO] I0713 13:18:37.372406 14639 net.cpp:91] Creating Layer inception_4e/relu_pool_proj
2016-07-13 13:18:37.372 STDERR [INFO] I0713 13:18:37.372414 14639 net.cpp:425] inception_4e/relu_pool_proj <- inception_4e/pool_proj
2016-07-13 13:18:37.372 STDERR [INFO] I0713 13:18:37.372422 14639 net.cpp:386] inception_4e/relu_pool_proj -> inception_4e/pool_proj (in-place)
2016-07-13 13:18:37.373 STDERR [INFO] I0713 13:18:37.373258 14639 net.cpp:141] Setting up inception_4e/relu_pool_proj
2016-07-13 13:18:37.373 STDERR [INFO] I0713 13:18:37.373276 14639 net.cpp:148] Top shape: 10 128 14 14 (250880)
2016-07-13 13:18:37.373 STDERR [INFO] I0713 13:18:37.373281 14639 net.cpp:156] Memory required for data: 514304000
2016-07-13 13:18:37.373 STDERR [INFO] I0713 13:18:37.373287 14639 layer_factory.hpp:77] Creating layer inception_4e/output
2016-07-13 13:18:37.373 STDERR [INFO] I0713 13:18:37.373302 14639 net.cpp:91] Creating Layer inception_4e/output
2016-07-13 13:18:37.373 STDERR [INFO] I0713 13:18:37.373308 14639 net.cpp:425] inception_4e/output <- inception_4e/1x1
2016-07-13 13:18:37.373 STDERR [INFO] I0713 13:18:37.373317 14639 net.cpp:425] inception_4e/output <- inception_4e/3x3
2016-07-13 13:18:37.373 STDERR [INFO] I0713 13:18:37.373322 14639 net.cpp:425] inception_4e/output <- inception_4e/5x5
2016-07-13 13:18:37.373 STDERR [INFO] I0713 13:18:37.373328 14639 net.cpp:425] inception_4e/output <- inception_4e/pool_proj
2016-07-13 13:18:37.374 STDERR [INFO] I0713 13:18:37.373335 14639 net.cpp:399] inception_4e/output -> inception_4e/output
2016-07-13 13:18:37.374 STDERR [INFO] I0713 13:18:37.373392 14639 net.cpp:141] Setting up inception_4e/output
2016-07-13 13:18:37.374 STDERR [INFO] I0713 13:18:37.373404 14639 net.cpp:148] Top shape: 10 832 14 14 (1630720)
2016-07-13 13:18:37.374 STDERR [INFO] I0713 13:18:37.373409 14639 net.cpp:156] Memory required for data: 520826880
2016-07-13 13:18:37.374 STDERR [INFO] I0713 13:18:37.373414 14639 layer_factory.hpp:77] Creating layer pool4/3x3_s2
2016-07-13 13:18:37.374 STDERR [INFO] I0713 13:18:37.373422 14639 net.cpp:91] Creating Layer pool4/3x3_s2
2016-07-13 13:18:37.374 STDERR [INFO] I0713 13:18:37.373427 14639 net.cpp:425] pool4/3x3_s2 <- inception_4e/output
2016-07-13 13:18:37.374 STDERR [INFO] I0713 13:18:37.373440 14639 net.cpp:399] pool4/3x3_s2 -> pool4/3x3_s2
2016-07-13 13:18:37.374 STDERR [INFO] I0713 13:18:37.373517 14639 net.cpp:141] Setting up pool4/3x3_s2
2016-07-13 13:18:37.374 STDERR [INFO] I0713 13:18:37.373528 14639 net.cpp:148] Top shape: 10 832 7 7 (407680)
2016-07-13 13:18:37.374 STDERR [INFO] I0713 13:18:37.373533 14639 net.cpp:156] Memory required for data: 522457600
2016-07-13 13:18:37.374 STDERR [INFO] I0713 13:18:37.373538 14639 layer_factory.hpp:77] Creating layer pool4/3x3_s2_pool4/3x3_s2_0_split
2016-07-13 13:18:37.374 STDERR [INFO] I0713 13:18:37.373548 14639 net.cpp:91] Creating Layer pool4/3x3_s2_pool4/3x3_s2_0_split
2016-07-13 13:18:37.374 STDERR [INFO] I0713 13:18:37.373553 14639 net.cpp:425] pool4/3x3_s2_pool4/3x3_s2_0_split <- pool4/3x3_s2
2016-07-13 13:18:37.374 STDERR [INFO] I0713 13:18:37.373564 14639 net.cpp:399] pool4/3x3_s2_pool4/3x3_s2_0_split -> pool4/3x3_s2_pool4/3x3_s2_0_split_0
2016-07-13 13:18:37.374 STDERR [INFO] I0713 13:18:37.373574 14639 net.cpp:399] pool4/3x3_s2_pool4/3x3_s2_0_split -> pool4/3x3_s2_pool4/3x3_s2_0_split_1
2016-07-13 13:18:37.374 STDERR [INFO] I0713 13:18:37.373582 14639 net.cpp:399] pool4/3x3_s2_pool4/3x3_s2_0_split -> pool4/3x3_s2_pool4/3x3_s2_0_split_2
2016-07-13 13:18:37.374 STDERR [INFO] I0713 13:18:37.373591 14639 net.cpp:399] pool4/3x3_s2_pool4/3x3_s2_0_split -> pool4/3x3_s2_pool4/3x3_s2_0_split_3
2016-07-13 13:18:37.375 STDERR [INFO] I0713 13:18:37.373703 14639 net.cpp:141] Setting up pool4/3x3_s2_pool4/3x3_s2_0_split
2016-07-13 13:18:37.375 STDERR [INFO] I0713 13:18:37.373716 14639 net.cpp:148] Top shape: 10 832 7 7 (407680)
2016-07-13 13:18:37.375 STDERR [INFO] I0713 13:18:37.373723 14639 net.cpp:148] Top shape: 10 832 7 7 (407680)
2016-07-13 13:18:37.375 STDERR [INFO] I0713 13:18:37.373729 14639 net.cpp:148] Top shape: 10 832 7 7 (407680)
2016-07-13 13:18:37.375 STDERR [INFO] I0713 13:18:37.373734 14639 net.cpp:148] Top shape: 10 832 7 7 (407680)
2016-07-13 13:18:37.375 STDERR [INFO] I0713 13:18:37.373739 14639 net.cpp:156] Memory required for data: 528980480
2016-07-13 13:18:37.375 STDERR [INFO] I0713 13:18:37.373744 14639 layer_factory.hpp:77] Creating layer inception_5a/1x1
2016-07-13 13:18:37.375 STDERR [INFO] I0713 13:18:37.373762 14639 net.cpp:91] Creating Layer inception_5a/1x1
2016-07-13 13:18:37.375 STDERR [INFO] I0713 13:18:37.373769 14639 net.cpp:425] inception_5a/1x1 <- pool4/3x3_s2_pool4/3x3_s2_0_split_0
2016-07-13 13:18:37.375 STDERR [INFO] I0713 13:18:37.373780 14639 net.cpp:399] inception_5a/1x1 -> inception_5a/1x1
2016-07-13 13:18:37.379 STDERR [INFO] I0713 13:18:37.379240 14639 net.cpp:141] Setting up inception_5a/1x1
2016-07-13 13:18:37.379 STDERR [INFO] I0713 13:18:37.379261 14639 net.cpp:148] Top shape: 10 256 7 7 (125440)
2016-07-13 13:18:37.379 STDERR [INFO] I0713 13:18:37.379267 14639 net.cpp:156] Memory required for data: 529482240
2016-07-13 13:18:37.379 STDERR [INFO] I0713 13:18:37.379277 14639 layer_factory.hpp:77] Creating layer inception_5a/relu_1x1
2016-07-13 13:18:37.379 STDERR [INFO] I0713 13:18:37.379292 14639 net.cpp:91] Creating Layer inception_5a/relu_1x1
2016-07-13 13:18:37.379 STDERR [INFO] I0713 13:18:37.379298 14639 net.cpp:425] inception_5a/relu_1x1 <- inception_5a/1x1
2016-07-13 13:18:37.379 STDERR [INFO] I0713 13:18:37.379307 14639 net.cpp:386] inception_5a/relu_1x1 -> inception_5a/1x1 (in-place)
2016-07-13 13:18:37.379 STDERR [INFO] I0713 13:18:37.379593 14639 net.cpp:141] Setting up inception_5a/relu_1x1
2016-07-13 13:18:37.379 STDERR [INFO] I0713 13:18:37.379606 14639 net.cpp:148] Top shape: 10 256 7 7 (125440)
2016-07-13 13:18:37.379 STDERR [INFO] I0713 13:18:37.379611 14639 net.cpp:156] Memory required for data: 529984000
2016-07-13 13:18:37.379 STDERR [INFO] I0713 13:18:37.379616 14639 layer_factory.hpp:77] Creating layer inception_5a/3x3_reduce
2016-07-13 13:18:37.379 STDERR [INFO] I0713 13:18:37.379642 14639 net.cpp:91] Creating Layer inception_5a/3x3_reduce
2016-07-13 13:18:37.380 STDERR [INFO] I0713 13:18:37.379648 14639 net.cpp:425] inception_5a/3x3_reduce <- pool4/3x3_s2_pool4/3x3_s2_0_split_1
2016-07-13 13:18:37.380 STDERR [INFO] I0713 13:18:37.379659 14639 net.cpp:399] inception_5a/3x3_reduce -> inception_5a/3x3_reduce
2016-07-13 13:18:37.384 STDERR [INFO] I0713 13:18:37.384438 14639 net.cpp:141] Setting up inception_5a/3x3_reduce
2016-07-13 13:18:37.384 STDERR [INFO] I0713 13:18:37.384459 14639 net.cpp:148] Top shape: 10 160 7 7 (78400)
2016-07-13 13:18:37.384 STDERR [INFO] I0713 13:18:37.384465 14639 net.cpp:156] Memory required for data: 530297600
2016-07-13 13:18:37.384 STDERR [INFO] I0713 13:18:37.384475 14639 layer_factory.hpp:77] Creating layer inception_5a/relu_3x3_reduce
2016-07-13 13:18:37.384 STDERR [INFO] I0713 13:18:37.384485 14639 net.cpp:91] Creating Layer inception_5a/relu_3x3_reduce
2016-07-13 13:18:37.384 STDERR [INFO] I0713 13:18:37.384492 14639 net.cpp:425] inception_5a/relu_3x3_reduce <- inception_5a/3x3_reduce
2016-07-13 13:18:37.384 STDERR [INFO] I0713 13:18:37.384505 14639 net.cpp:386] inception_5a/relu_3x3_reduce -> inception_5a/3x3_reduce (in-place)
2016-07-13 13:18:37.384 STDERR [INFO] I0713 13:18:37.384790 14639 net.cpp:141] Setting up inception_5a/relu_3x3_reduce
2016-07-13 13:18:37.385 STDERR [INFO] I0713 13:18:37.384806 14639 net.cpp:148] Top shape: 10 160 7 7 (78400)
2016-07-13 13:18:37.385 STDERR [INFO] I0713 13:18:37.384811 14639 net.cpp:156] Memory required for data: 530611200
2016-07-13 13:18:37.385 STDERR [INFO] I0713 13:18:37.384816 14639 layer_factory.hpp:77] Creating layer inception_5a/3x3
2016-07-13 13:18:37.385 STDERR [INFO] I0713 13:18:37.384836 14639 net.cpp:91] Creating Layer inception_5a/3x3
2016-07-13 13:18:37.385 STDERR [INFO] I0713 13:18:37.384843 14639 net.cpp:425] inception_5a/3x3 <- inception_5a/3x3_reduce
2016-07-13 13:18:37.385 STDERR [INFO] I0713 13:18:37.384853 14639 net.cpp:399] inception_5a/3x3 -> inception_5a/3x3
2016-07-13 13:18:37.394 STDERR [INFO] I0713 13:18:37.393980 14639 net.cpp:141] Setting up inception_5a/3x3
2016-07-13 13:18:37.394 STDERR [INFO] I0713 13:18:37.394001 14639 net.cpp:148] Top shape: 10 320 7 7 (156800)
2016-07-13 13:18:37.394 STDERR [INFO] I0713 13:18:37.394006 14639 net.cpp:156] Memory required for data: 531238400
2016-07-13 13:18:37.394 STDERR [INFO] I0713 13:18:37.394021 14639 layer_factory.hpp:77] Creating layer inception_5a/relu_3x3
2016-07-13 13:18:37.394 STDERR [INFO] I0713 13:18:37.394032 14639 net.cpp:91] Creating Layer inception_5a/relu_3x3
2016-07-13 13:18:37.394 STDERR [INFO] I0713 13:18:37.394038 14639 net.cpp:425] inception_5a/relu_3x3 <- inception_5a/3x3
2016-07-13 13:18:37.394 STDERR [INFO] I0713 13:18:37.394049 14639 net.cpp:386] inception_5a/relu_3x3 -> inception_5a/3x3 (in-place)
2016-07-13 13:18:37.394 STDERR [INFO] I0713 13:18:37.394912 14639 net.cpp:141] Setting up inception_5a/relu_3x3
2016-07-13 13:18:37.395 STDERR [INFO] I0713 13:18:37.394940 14639 net.cpp:148] Top shape: 10 320 7 7 (156800)
2016-07-13 13:18:37.395 STDERR [INFO] I0713 13:18:37.394945 14639 net.cpp:156] Memory required for data: 531865600
2016-07-13 13:18:37.395 STDERR [INFO] I0713 13:18:37.394951 14639 layer_factory.hpp:77] Creating layer inception_5a/5x5_reduce
2016-07-13 13:18:37.395 STDERR [INFO] I0713 13:18:37.394970 14639 net.cpp:91] Creating Layer inception_5a/5x5_reduce
2016-07-13 13:18:37.395 STDERR [INFO] I0713 13:18:37.394978 14639 net.cpp:425] inception_5a/5x5_reduce <- pool4/3x3_s2_pool4/3x3_s2_0_split_2
2016-07-13 13:18:37.395 STDERR [INFO] I0713 13:18:37.394989 14639 net.cpp:399] inception_5a/5x5_reduce -> inception_5a/5x5_reduce
2016-07-13 13:18:37.397 STDERR [INFO] I0713 13:18:37.397737 14639 net.cpp:141] Setting up inception_5a/5x5_reduce
2016-07-13 13:18:37.397 STDERR [INFO] I0713 13:18:37.397756 14639 net.cpp:148] Top shape: 10 32 7 7 (15680)
2016-07-13 13:18:37.398 STDERR [INFO] I0713 13:18:37.397763 14639 net.cpp:156] Memory required for data: 531928320
2016-07-13 13:18:37.398 STDERR [INFO] I0713 13:18:37.397773 14639 layer_factory.hpp:77] Creating layer inception_5a/relu_5x5_reduce
2016-07-13 13:18:37.398 STDERR [INFO] I0713 13:18:37.397785 14639 net.cpp:91] Creating Layer inception_5a/relu_5x5_reduce
2016-07-13 13:18:37.398 STDERR [INFO] I0713 13:18:37.397792 14639 net.cpp:425] inception_5a/relu_5x5_reduce <- inception_5a/5x5_reduce
2016-07-13 13:18:37.398 STDERR [INFO] I0713 13:18:37.397800 14639 net.cpp:386] inception_5a/relu_5x5_reduce -> inception_5a/5x5_reduce (in-place)
2016-07-13 13:18:37.398 STDERR [INFO] I0713 13:18:37.398097 14639 net.cpp:141] Setting up inception_5a/relu_5x5_reduce
2016-07-13 13:18:37.398 STDERR [INFO] I0713 13:18:37.398110 14639 net.cpp:148] Top shape: 10 32 7 7 (15680)
2016-07-13 13:18:37.398 STDERR [INFO] I0713 13:18:37.398115 14639 net.cpp:156] Memory required for data: 531991040
2016-07-13 13:18:37.398 STDERR [INFO] I0713 13:18:37.398121 14639 layer_factory.hpp:77] Creating layer inception_5a/5x5
2016-07-13 13:18:37.398 STDERR [INFO] I0713 13:18:37.398139 14639 net.cpp:91] Creating Layer inception_5a/5x5
2016-07-13 13:18:37.398 STDERR [INFO] I0713 13:18:37.398146 14639 net.cpp:425] inception_5a/5x5 <- inception_5a/5x5_reduce
2016-07-13 13:18:37.398 STDERR [INFO] I0713 13:18:37.398155 14639 net.cpp:399] inception_5a/5x5 -> inception_5a/5x5
2016-07-13 13:18:37.401 n.t.s.f.RefreshingImageFetcher$ImageReader [INFO] [Timing] RequestID: 0 StreamID: home/peifeng/work/data/frame.320x240.jpg SequenceNr: 25 Entering queue: 1468430317400
2016-07-13 13:18:37.401 STDERR [INFO] I0713 13:18:37.401541 14639 net.cpp:141] Setting up inception_5a/5x5
2016-07-13 13:18:37.401 STDERR [INFO] I0713 13:18:37.401563 14639 net.cpp:148] Top shape: 10 128 7 7 (62720)
2016-07-13 13:18:37.401 STDERR [INFO] I0713 13:18:37.401569 14639 net.cpp:156] Memory required for data: 532241920
2016-07-13 13:18:37.402 STDERR [INFO] I0713 13:18:37.401579 14639 layer_factory.hpp:77] Creating layer inception_5a/relu_5x5
2016-07-13 13:18:37.402 STDERR [INFO] I0713 13:18:37.401620 14639 net.cpp:91] Creating Layer inception_5a/relu_5x5
2016-07-13 13:18:37.402 STDERR [INFO] I0713 13:18:37.401628 14639 net.cpp:425] inception_5a/relu_5x5 <- inception_5a/5x5
2016-07-13 13:18:37.402 STDERR [INFO] I0713 13:18:37.401636 14639 net.cpp:386] inception_5a/relu_5x5 -> inception_5a/5x5 (in-place)
2016-07-13 13:18:37.402 STDERR [INFO] I0713 13:18:37.401921 14639 net.cpp:141] Setting up inception_5a/relu_5x5
2016-07-13 13:18:37.402 STDERR [INFO] I0713 13:18:37.401934 14639 net.cpp:148] Top shape: 10 128 7 7 (62720)
2016-07-13 13:18:37.402 STDERR [INFO] I0713 13:18:37.401939 14639 net.cpp:156] Memory required for data: 532492800
2016-07-13 13:18:37.402 STDERR [INFO] I0713 13:18:37.401945 14639 layer_factory.hpp:77] Creating layer inception_5a/pool
2016-07-13 13:18:37.402 STDERR [INFO] I0713 13:18:37.401957 14639 net.cpp:91] Creating Layer inception_5a/pool
2016-07-13 13:18:37.402 STDERR [INFO] I0713 13:18:37.401962 14639 net.cpp:425] inception_5a/pool <- pool4/3x3_s2_pool4/3x3_s2_0_split_3
2016-07-13 13:18:37.402 STDERR [INFO] I0713 13:18:37.401976 14639 net.cpp:399] inception_5a/pool -> inception_5a/pool
2016-07-13 13:18:37.402 STDERR [INFO] I0713 13:18:37.402062 14639 net.cpp:141] Setting up inception_5a/pool
2016-07-13 13:18:37.402 STDERR [INFO] I0713 13:18:37.402073 14639 net.cpp:148] Top shape: 10 832 7 7 (407680)
2016-07-13 13:18:37.403 STDERR [INFO] I0713 13:18:37.402078 14639 net.cpp:156] Memory required for data: 534123520
2016-07-13 13:18:37.403 STDERR [INFO] I0713 13:18:37.402083 14639 layer_factory.hpp:77] Creating layer inception_5a/pool_proj
2016-07-13 13:18:37.403 STDERR [INFO] I0713 13:18:37.402106 14639 net.cpp:91] Creating Layer inception_5a/pool_proj
2016-07-13 13:18:37.403 STDERR [INFO] I0713 13:18:37.402113 14639 net.cpp:425] inception_5a/pool_proj <- inception_5a/pool
2016-07-13 13:18:37.403 STDERR [INFO] I0713 13:18:37.402123 14639 net.cpp:399] inception_5a/pool_proj -> inception_5a/pool_proj
2016-07-13 13:18:37.405 n.t.s.s.CVParticleSpout [INFO] [Timing] RequestID: 0 StreamID: home/peifeng/work/data/frame.320x240.jpg SequenceNr: 25 Leaving fetcher: 1468430317405 Size: 8702
2016-07-13 13:18:37.405 n.t.s.b.CVParticleBolt [INFO] [Timing] RequestID: 0 StreamID: home/peifeng/work/data/frame.320x240.jpg SequenceNr: 25 Entering scale: 1468430317405
2016-07-13 13:18:37.407 STDERR [INFO] I0713 13:18:37.406954 14639 net.cpp:141] Setting up inception_5a/pool_proj
2016-07-13 13:18:37.407 STDERR [INFO] I0713 13:18:37.406980 14639 net.cpp:148] Top shape: 10 128 7 7 (62720)
2016-07-13 13:18:37.407 STDERR [INFO] I0713 13:18:37.406986 14639 net.cpp:156] Memory required for data: 534374400
2016-07-13 13:18:37.407 STDERR [INFO] I0713 13:18:37.406997 14639 layer_factory.hpp:77] Creating layer inception_5a/relu_pool_proj
2016-07-13 13:18:37.407 STDERR [INFO] I0713 13:18:37.407008 14639 net.cpp:91] Creating Layer inception_5a/relu_pool_proj
2016-07-13 13:18:37.407 STDERR [INFO] I0713 13:18:37.407016 14639 net.cpp:425] inception_5a/relu_pool_proj <- inception_5a/pool_proj
2016-07-13 13:18:37.407 STDERR [INFO] I0713 13:18:37.407028 14639 net.cpp:386] inception_5a/relu_pool_proj -> inception_5a/pool_proj (in-place)
2016-07-13 13:18:37.407 STDERR [INFO] I0713 13:18:37.407888 14639 net.cpp:141] Setting up inception_5a/relu_pool_proj
2016-07-13 13:18:37.408 STDERR [INFO] I0713 13:18:37.407907 14639 net.cpp:148] Top shape: 10 128 7 7 (62720)
2016-07-13 13:18:37.408 STDERR [INFO] I0713 13:18:37.407912 14639 net.cpp:156] Memory required for data: 534625280
2016-07-13 13:18:37.408 STDERR [INFO] I0713 13:18:37.407917 14639 layer_factory.hpp:77] Creating layer inception_5a/output
2016-07-13 13:18:37.408 STDERR [INFO] I0713 13:18:37.407927 14639 net.cpp:91] Creating Layer inception_5a/output
2016-07-13 13:18:37.408 STDERR [INFO] I0713 13:18:37.407934 14639 net.cpp:425] inception_5a/output <- inception_5a/1x1
2016-07-13 13:18:37.408 STDERR [INFO] I0713 13:18:37.407941 14639 net.cpp:425] inception_5a/output <- inception_5a/3x3
2016-07-13 13:18:37.408 STDERR [INFO] I0713 13:18:37.407948 14639 net.cpp:425] inception_5a/output <- inception_5a/5x5
2016-07-13 13:18:37.408 STDERR [INFO] I0713 13:18:37.407954 14639 net.cpp:425] inception_5a/output <- inception_5a/pool_proj
2016-07-13 13:18:37.408 STDERR [INFO] I0713 13:18:37.407966 14639 net.cpp:399] inception_5a/output -> inception_5a/output
2016-07-13 13:18:37.408 STDERR [INFO] I0713 13:18:37.408027 14639 net.cpp:141] Setting up inception_5a/output
2016-07-13 13:18:37.408 STDERR [INFO] I0713 13:18:37.408040 14639 net.cpp:148] Top shape: 10 832 7 7 (407680)
2016-07-13 13:18:37.408 STDERR [INFO] I0713 13:18:37.408044 14639 net.cpp:156] Memory required for data: 536256000
2016-07-13 13:18:37.408 STDERR [INFO] I0713 13:18:37.408049 14639 layer_factory.hpp:77] Creating layer inception_5a/output_inception_5a/output_0_split
2016-07-13 13:18:37.408 STDERR [INFO] I0713 13:18:37.408061 14639 net.cpp:91] Creating Layer inception_5a/output_inception_5a/output_0_split
…
2016-07-13 13:18:37.408 STDERR [INFO] I0713 13:18:37.408088 14639 net.cpp:399] inception_5a/output_inception_5a/output_0_split -> inception_5a/output_inception_5a/output_0_split_1
2016-07-13 13:18:37.408 STDERR [INFO] I0713 13:18:37.408099 14639 net.cpp:399] inception_5a/output_inception_5a/output_0_split -> inception_5a/output_inception_5a/output_0_split_2
2016-07-13 13:18:37.408 STDERR [INFO] I0713 13:18:37.408109 14639 net.cpp:399] inception_5a/output_inception_5a/output_0_split -> inception_5a/output_inception_5a/output_0_split_3
2016-07-13 13:18:37.408 STDERR [INFO] I0713 13:18:37.408234 14639 net.cpp:141] Setting up inception_5a/output_inception_5a/output_0_split
2016-07-13 13:18:37.409 STDERR [INFO] I0713 13:18:37.408246 14639 net.cpp:148] Top shape: 10 832 7 7 (407680)
2016-07-13 13:18:37.409 STDERR [INFO] I0713 13:18:37.408252 14639 net.cpp:148] Top shape: 10 832 7 7 (407680)
2016-07-13 13:18:37.409 STDERR [INFO] I0713 13:18:37.408258 14639 net.cpp:148] Top shape: 10 832 7 7 (407680)
2016-07-13 13:18:37.409 STDERR [INFO] I0713 13:18:37.408263 14639 net.cpp:148] Top shape: 10 832 7 7 (407680)
2016-07-13 13:18:37.409 STDERR [INFO] I0713 13:18:37.408268 14639 net.cpp:156] Memory required for data: 542778880
2016-07-13 13:18:37.409 STDERR [INFO] I0713 13:18:37.408273 14639 layer_factory.hpp:77] Creating layer inception_5b/1x1
2016-07-13 13:18:37.409 STDERR [INFO] I0713 13:18:37.408294 14639 net.cpp:91] Creating Layer inception_5b/1x1
2016-07-13 13:18:37.409 STDERR [INFO] I0713 13:18:37.408301 14639 net.cpp:425] inception_5b/1x1 <- inception_5a/output_inception_5a/output_0_split_0
2016-07-13 13:18:37.409 STDERR [INFO] I0713 13:18:37.408310 14639 net.cpp:399] inception_5b/1x1 -> inception_5b/1x1
2016-07-13 13:18:37.411 n.t.s.b.CVParticleBolt [INFO] [Timing] RequestID: 0 StreamID: home/peifeng/work/data/frame.320x240.jpg SequenceNr: 25 Leaving scale: 1468430317411 Size: 3530
2016-07-13 13:18:37.414 STDERR [INFO] I0713 13:18:37.414908 14639 net.cpp:141] Setting up inception_5b/1x1
2016-07-13 13:18:37.415 STDERR [INFO] I0713 13:18:37.414932 14639 net.cpp:148] Top shape: 10 384 7 7 (188160)
2016-07-13 13:18:37.415 STDERR [INFO] I0713 13:18:37.414938 14639 net.cpp:156] Memory required for data: 543531520
2016-07-13 13:18:37.415 STDERR [INFO] I0713 13:18:37.414949 14639 layer_factory.hpp:77] Creating layer inception_5b/relu_1x1
2016-07-13 13:18:37.415 STDERR [INFO] I0713 13:18:37.414960 14639 net.cpp:91] Creating Layer inception_5b/relu_1x1
2016-07-13 13:18:37.415 STDERR [INFO] I0713 13:18:37.414966 14639 net.cpp:425] inception_5b/relu_1x1 <- inception_5b/1x1
2016-07-13 13:18:37.415 STDERR [INFO] I0713 13:18:37.414979 14639 net.cpp:386] inception_5b/relu_1x1 -> inception_5b/1x1 (in-place)
2016-07-13 13:18:37.415 STDERR [INFO] I0713 13:18:37.415268 14639 net.cpp:141] Setting up inception_5b/relu_1x1
2016-07-13 13:18:37.415 STDERR [INFO] I0713 13:18:37.415280 14639 net.cpp:148] Top shape: 10 384 7 7 (188160)
2016-07-13 13:18:37.415 STDERR [INFO] I0713 13:18:37.415285 14639 net.cpp:156] Memory required for data: 544284160
2016-07-13 13:18:37.415 STDERR [INFO] I0713 13:18:37.415292 14639 layer_factory.hpp:77] Creating layer inception_5b/3x3_reduce
2016-07-13 13:18:37.415 STDERR [INFO] I0713 13:18:37.415309 14639 net.cpp:91] Creating Layer inception_5b/3x3_reduce
2016-07-13 13:18:37.415 STDERR [INFO] I0713 13:18:37.415316 14639 net.cpp:425] inception_5b/3x3_reduce <- inception_5a/output_inception_5a/output_0_split_1
2016-07-13 13:18:37.415 STDERR [INFO] I0713 13:18:37.415330 14639 net.cpp:399] inception_5b/3x3_reduce -> inception_5b/3x3_reduce
2016-07-13 13:18:37.420 STDERR [INFO] I0713 13:18:37.420464 14639 net.cpp:141] Setting up inception_5b/3x3_reduce
2016-07-13 13:18:37.420 STDERR [INFO] I0713 13:18:37.420487 14639 net.cpp:148] Top shape: 10 192 7 7 (94080)
2016-07-13 13:18:37.420 STDERR [INFO] I0713 13:18:37.420493 14639 net.cpp:156] Memory required for data: 544660480
2016-07-13 13:18:37.420 STDERR [INFO] I0713 13:18:37.420503 14639 layer_factory.hpp:77] Creating layer inception_5b/relu_3x3_reduce
2016-07-13 13:18:37.420 STDERR [INFO] I0713 13:18:37.420518 14639 net.cpp:91] Creating Layer inception_5b/relu_3x3_reduce
2016-07-13 13:18:37.420 STDERR [INFO] I0713 13:18:37.420526 14639 net.cpp:425] inception_5b/relu_3x3_reduce <- inception_5b/3x3_reduce
2016-07-13 13:18:37.421 STDERR [INFO] I0713 13:18:37.420534 14639 net.cpp:386] inception_5b/relu_3x3_reduce -> inception_5b/3x3_reduce (in-place)
2016-07-13 13:18:37.421 STDERR [INFO] I0713 13:18:37.420832 14639 net.cpp:141] Setting up inception_5b/relu_3x3_reduce
2016-07-13 13:18:37.421 STDERR [INFO] I0713 13:18:37.420845 14639 net.cpp:148] Top shape: 10 192 7 7 (94080)
2016-07-13 13:18:37.421 STDERR [INFO] I0713 13:18:37.420850 14639 net.cpp:156] Memory required for data: 545036800
2016-07-13 13:18:37.421 STDERR [INFO] I0713 13:18:37.420855 14639 layer_factory.hpp:77] Creating layer inception_5b/3x3
2016-07-13 13:18:37.421 STDERR [INFO] I0713 13:18:37.420877 14639 net.cpp:91] Creating Layer inception_5b/3x3
2016-07-13 13:18:37.421 STDERR [INFO] I0713 13:18:37.420886 14639 net.cpp:425] inception_5b/3x3 <- inception_5b/3x3_reduce
2016-07-13 13:18:37.421 STDERR [INFO] I0713 13:18:37.420894 14639 net.cpp:399] inception_5b/3x3 -> inception_5b/3x3
2016-07-13 13:18:37.431 STDERR [INFO] I0713 13:18:37.431255 14639 net.cpp:141] Setting up inception_5b/3x3
2016-07-13 13:18:37.431 STDERR [INFO] I0713 13:18:37.431287 14639 net.cpp:148] Top shape: 10 384 7 7 (188160)
2016-07-13 13:18:37.431 STDERR [INFO] I0713 13:18:37.431293 14639 net.cpp:156] Memory required for data: 545789440
2016-07-13 13:18:37.431 STDERR [INFO] I0713 13:18:37.431303 14639 layer_factory.hpp:77] Creating layer inception_5b/relu_3x3
2016-07-13 13:18:37.431 STDERR [INFO] I0713 13:18:37.431321 14639 net.cpp:91] Creating Layer inception_5b/relu_3x3
2016-07-13 13:18:37.431 STDERR [INFO] I0713 13:18:37.431329 14639 net.cpp:425] inception_5b/relu_3x3 <- inception_5b/3x3
2016-07-13 13:18:37.431 STDERR [INFO] I0713 13:18:37.431337 14639 net.cpp:386] inception_5b/relu_3x3 -> inception_5b/3x3 (in-place)
2016-07-13 13:18:37.432 STDERR [INFO] I0713 13:18:37.432706 14639 net.cpp:141] Setting up inception_5b/relu_3x3
2016-07-13 13:18:37.432 STDERR [INFO] I0713 13:18:37.432726 14639 net.cpp:148] Top shape: 10 384 7 7 (188160)
2016-07-13 13:18:37.432 STDERR [INFO] I0713 13:18:37.432731 14639 net.cpp:156] Memory required for data: 546542080
2016-07-13 13:18:37.432 STDERR [INFO] I0713 13:18:37.432737 14639 layer_factory.hpp:77] Creating layer inception_5b/5x5_reduce
2016-07-13 13:18:37.433 STDERR [INFO] I0713 13:18:37.432761 14639 net.cpp:91] Creating Layer inception_5b/5x5_reduce
2016-07-13 13:18:37.433 STDERR [INFO] I0713 13:18:37.432770 14639 net.cpp:425] inception_5b/5x5_reduce <- inception_5a/output_inception_5a/output_0_split_2
2016-07-13 13:18:37.433 STDERR [INFO] I0713 13:18:37.432781 14639 net.cpp:399] inception_5b/5x5_reduce -> inception_5b/5x5_reduce
2016-07-13 13:18:37.436 STDERR [INFO] I0713 13:18:37.435927 14639 net.cpp:141] Setting up inception_5b/5x5_reduce
2016-07-13 13:18:37.436 STDERR [INFO] I0713 13:18:37.435948 14639 net.cpp:148] Top shape: 10 48 7 7 (23520)
2016-07-13 13:18:37.436 STDERR [INFO] I0713 13:18:37.435953 14639 net.cpp:156] Memory required for data: 546636160
2016-07-13 13:18:37.436 STDERR [INFO] I0713 13:18:37.435964 14639 layer_factory.hpp:77] Creating layer inception_5b/relu_5x5_reduce
2016-07-13 13:18:37.436 STDERR [INFO] I0713 13:18:37.435976 14639 net.cpp:91] Creating Layer inception_5b/relu_5x5_reduce
2016-07-13 13:18:37.436 STDERR [INFO] I0713 13:18:37.435982 14639 net.cpp:425] inception_5b/relu_5x5_reduce <- inception_5b/5x5_reduce
2016-07-13 13:18:37.436 STDERR [INFO] I0713 13:18:37.435993 14639 net.cpp:386] inception_5b/relu_5x5_reduce -> inception_5b/5x5_reduce (in-place)
2016-07-13 13:18:37.436 STDERR [INFO] I0713 13:18:37.436286 14639 net.cpp:141] Setting up inception_5b/relu_5x5_reduce
2016-07-13 13:18:37.436 STDERR [INFO] I0713 13:18:37.436300 14639 net.cpp:148] Top shape: 10 48 7 7 (23520)
2016-07-13 13:18:37.436 STDERR [INFO] I0713 13:18:37.436303 14639 net.cpp:156] Memory required for data: 546730240
2016-07-13 13:18:37.436 STDERR [INFO] I0713 13:18:37.436309 14639 layer_factory.hpp:77] Creating layer inception_5b/5x5
2016-07-13 13:18:37.436 STDERR [INFO] I0713 13:18:37.436328 14639 net.cpp:91] Creating Layer inception_5b/5x5
2016-07-13 13:18:37.436 STDERR [INFO] I0713 13:18:37.436336 14639 net.cpp:425] inception_5b/5x5 <- inception_5b/5x5_reduce
2016-07-13 13:18:37.436 STDERR [INFO] I0713 13:18:37.436347 14639 net.cpp:399] inception_5b/5x5 -> inception_5b/5x5
2016-07-13 13:18:37.441 STDERR [INFO] I0713 13:18:37.440948 14639 net.cpp:141] Setting up inception_5b/5x5
2016-07-13 13:18:37.441 STDERR [INFO] I0713 13:18:37.440969 14639 net.cpp:148] Top shape: 10 128 7 7 (62720)
2016-07-13 13:18:37.441 STDERR [INFO] I0713 13:18:37.440974 14639 net.cpp:156] Memory required for data: 546981120
2016-07-13 13:18:37.441 STDERR [INFO] I0713 13:18:37.440985 14639 layer_factory.hpp:77] Creating layer inception_5b/relu_5x5
2016-07-13 13:18:37.441 STDERR [INFO] I0713 13:18:37.441004 14639 net.cpp:91] Creating Layer inception_5b/relu_5x5
2016-07-13 13:18:37.441 STDERR [INFO] I0713 13:18:37.441011 14639 net.cpp:425] inception_5b/relu_5x5 <- inception_5b/5x5
2016-07-13 13:18:37.441 STDERR [INFO] I0713 13:18:37.441023 14639 net.cpp:386] inception_5b/relu_5x5 -> inception_5b/5x5 (in-place)
2016-07-13 13:18:37.441 STDERR [INFO] I0713 13:18:37.441313 14639 net.cpp:141] Setting up inception_5b/relu_5x5
2016-07-13 13:18:37.441 STDERR [INFO] I0713 13:18:37.441326 14639 net.cpp:148] Top shape: 10 128 7 7 (62720)
2016-07-13 13:18:37.441 STDERR [INFO] I0713 13:18:37.441330 14639 net.cpp:156] Memory required for data: 547232000
2016-07-13 13:18:37.441 STDERR [INFO] I0713 13:18:37.441336 14639 layer_factory.hpp:77] Creating layer inception_5b/pool
2016-07-13 13:18:37.441 STDERR [INFO] I0713 13:18:37.441351 14639 net.cpp:91] Creating Layer inception_5b/pool
2016-07-13 13:18:37.441 STDERR [INFO] I0713 13:18:37.441359 14639 net.cpp:425] inception_5b/pool <- inception_5a/output_inception_5a/output_0_split_3
2016-07-13 13:18:37.441 STDERR [INFO] I0713 13:18:37.441367 14639 net.cpp:399] inception_5b/pool -> inception_5b/pool
2016-07-13 13:18:37.441 STDERR [INFO] I0713 13:18:37.441460 14639 net.cpp:141] Setting up inception_5b/pool
2016-07-13 13:18:37.441 STDERR [INFO] I0713 13:18:37.441471 14639 net.cpp:148] Top shape: 10 832 7 7 (407680)
2016-07-13 13:18:37.441 STDERR [INFO] I0713 13:18:37.441476 14639 net.cpp:156] Memory required for data: 548862720
2016-07-13 13:18:37.441 STDERR [INFO] I0713 13:18:37.441481 14639 layer_factory.hpp:77] Creating layer inception_5b/pool_proj
2016-07-13 13:18:37.441 STDERR [INFO] I0713 13:18:37.441499 14639 net.cpp:91] Creating Layer inception_5b/pool_proj
2016-07-13 13:18:37.441 STDERR [INFO] I0713 13:18:37.441506 14639 net.cpp:425] inception_5b/pool_proj <- inception_5b/pool
2016-07-13 13:18:37.442 STDERR [INFO] I0713 13:18:37.441519 14639 net.cpp:399] inception_5b/pool_proj -> inception_5b/pool_proj
2016-07-13 13:18:37.446 STDERR [INFO] I0713 13:18:37.446334 14639 net.cpp:141] Setting up inception_5b/pool_proj
2016-07-13 13:18:37.446 STDERR [INFO] I0713 13:18:37.446360 14639 net.cpp:148] Top shape: 10 128 7 7 (62720)
2016-07-13 13:18:37.446 STDERR [INFO] I0713 13:18:37.446367 14639 net.cpp:156] Memory required for data: 549113600
2016-07-13 13:18:37.446 STDERR [INFO] I0713 13:18:37.446377 14639 layer_factory.hpp:77] Creating layer inception_5b/relu_pool_proj
2016-07-13 13:18:37.446 STDERR [INFO] I0713 13:18:37.446389 14639 net.cpp:91] Creating Layer inception_5b/relu_pool_proj
2016-07-13 13:18:37.446 STDERR [INFO] I0713 13:18:37.446396 14639 net.cpp:425] inception_5b/relu_pool_proj <- inception_5b/pool_proj
2016-07-13 13:18:37.446 STDERR [INFO] I0713 13:18:37.446409 14639 net.cpp:386] inception_5b/relu_pool_proj -> inception_5b/pool_proj (in-place)
2016-07-13 13:18:37.447 STDERR [INFO] I0713 13:18:37.447284 14639 net.cpp:141] Setting up inception_5b/relu_pool_proj
2016-07-13 13:18:37.447 STDERR [INFO] I0713 13:18:37.447304 14639 net.cpp:148] Top shape: 10 128 7 7 (62720)
2016-07-13 13:18:37.447 STDERR [INFO] I0713 13:18:37.447309 14639 net.cpp:156] Memory required for data: 549364480
2016-07-13 13:18:37.447 STDERR [INFO] I0713 13:18:37.447315 14639 layer_factory.hpp:77] Creating layer inception_5b/output
2016-07-13 13:18:37.447 STDERR [INFO] I0713 13:18:37.447330 14639 net.cpp:91] Creating Layer inception_5b/output
2016-07-13 13:18:37.447 STDERR [INFO] I0713 13:18:37.447337 14639 net.cpp:425] inception_5b/output <- inception_5b/1x1
2016-07-13 13:18:37.447 STDERR [INFO] I0713 13:18:37.447345 14639 net.cpp:425] inception_5b/output <- inception_5b/3x3
2016-07-13 13:18:37.447 STDERR [INFO] I0713 13:18:37.447351 14639 net.cpp:425] inception_5b/output <- inception_5b/5x5
2016-07-13 13:18:37.447 STDERR [INFO] I0713 13:18:37.447357 14639 net.cpp:425] inception_5b/output <- inception_5b/pool_proj
2016-07-13 13:18:37.447 STDERR [INFO] I0713 13:18:37.447365 14639 net.cpp:399] inception_5b/output -> inception_5b/output
2016-07-13 13:18:37.447 STDERR [INFO] I0713 13:18:37.447427 14639 net.cpp:141] Setting up inception_5b/output
2016-07-13 13:18:37.447 STDERR [INFO] I0713 13:18:37.447438 14639 net.cpp:148] Top shape: 10 1024 7 7 (501760)
2016-07-13 13:18:37.448 STDERR [INFO] I0713 13:18:37.447443 14639 net.cpp:156] Memory required for data: 551371520
2016-07-13 13:18:37.448 STDERR [INFO] I0713 13:18:37.447448 14639 layer_factory.hpp:77] Creating layer pool5/7x7_s1
2016-07-13 13:18:37.448 STDERR [INFO] I0713 13:18:37.447458 14639 net.cpp:91] Creating Layer pool5/7x7_s1
2016-07-13 13:18:37.448 STDERR [INFO] I0713 13:18:37.447463 14639 net.cpp:425] pool5/7x7_s1 <- inception_5b/output
2016-07-13 13:18:37.448 STDERR [INFO] I0713 13:18:37.447475 14639 net.cpp:399] pool5/7x7_s1 -> pool5/7x7_s1
2016-07-13 13:18:37.448 STDERR [INFO] I0713 13:18:37.447844 14639 net.cpp:141] Setting up pool5/7x7_s1
2016-07-13 13:18:37.448 STDERR [INFO] I0713 13:18:37.447859 14639 net.cpp:148] Top shape: 10 1024 1 1 (10240)
2016-07-13 13:18:37.448 STDERR [INFO] I0713 13:18:37.447863 14639 net.cpp:156] Memory required for data: 551412480
2016-07-13 13:18:37.448 STDERR [INFO] I0713 13:18:37.447868 14639 layer_factory.hpp:77] Creating layer pool5/drop_7x7_s1
2016-07-13 13:18:37.448 STDERR [INFO] I0713 13:18:37.447888 14639 net.cpp:91] Creating Layer pool5/drop_7x7_s1
2016-07-13 13:18:37.448 STDERR [INFO] I0713 13:18:37.447895 14639 net.cpp:425] pool5/drop_7x7_s1 <- pool5/7x7_s1
2016-07-13 13:18:37.448 STDERR [INFO] I0713 13:18:37.447902 14639 net.cpp:386] pool5/drop_7x7_s1 -> pool5/7x7_s1 (in-place)
2016-07-13 13:18:37.448 STDERR [INFO] I0713 13:18:37.447960 14639 net.cpp:141] Setting up pool5/drop_7x7_s1
2016-07-13 13:18:37.448 STDERR [INFO] I0713 13:18:37.447971 14639 net.cpp:148] Top shape: 10 1024 1 1 (10240)
2016-07-13 13:18:37.448 STDERR [INFO] I0713 13:18:37.447976 14639 net.cpp:156] Memory required for data: 551453440
2016-07-13 13:18:37.448 STDERR [INFO] I0713 13:18:37.447981 14639 layer_factory.hpp:77] Creating layer loss3/classifier
2016-07-13 13:18:37.448 STDERR [INFO] I0713 13:18:37.447999 14639 net.cpp:91] Creating Layer loss3/classifier
2016-07-13 13:18:37.448 STDERR [INFO] I0713 13:18:37.448005 14639 net.cpp:425] loss3/classifier <- pool5/7x7_s1
2016-07-13 13:18:37.448 STDERR [INFO] I0713 13:18:37.448014 14639 net.cpp:399] loss3/classifier -> loss3/classifier
2016-07-13 13:18:37.459 STDERR [INFO] I0713 13:18:37.459818 14639 net.cpp:141] Setting up loss3/classifier
2016-07-13 13:18:37.460 STDERR [INFO] I0713 13:18:37.459847 14639 net.cpp:148] Top shape: 10 1000 (10000)
2016-07-13 13:18:37.460 STDERR [INFO] I0713 13:18:37.459852 14639 net.cpp:156] Memory required for data: 551493440
2016-07-13 13:18:37.460 STDERR [INFO] I0713 13:18:37.459864 14639 layer_factory.hpp:77] Creating layer prob
2016-07-13 13:18:37.460 STDERR [INFO] I0713 13:18:37.459877 14639 net.cpp:91] Creating Layer prob
2016-07-13 13:18:37.460 STDERR [INFO] I0713 13:18:37.459889 14639 net.cpp:425] prob <- loss3/classifier
2016-07-13 13:18:37.460 STDERR [INFO] I0713 13:18:37.459898 14639 net.cpp:399] prob -> prob
2016-07-13 13:18:37.461 STDERR [INFO] I0713 13:18:37.461045 14639 net.cpp:141] Setting up prob
2016-07-13 13:18:37.461 STDERR [INFO] I0713 13:18:37.461062 14639 net.cpp:148] Top shape: 10 1000 (10000)
2016-07-13 13:18:37.461 STDERR [INFO] I0713 13:18:37.461071 14639 net.cpp:156] Memory required for data: 551533440
2016-07-13 13:18:37.461 STDERR [INFO] I0713 13:18:37.461077 14639 net.cpp:219] prob does not need backward computation.
2016-07-13 13:18:37.461 STDERR [INFO] I0713 13:18:37.461082 14639 net.cpp:219] loss3/classifier does not need backward computation.
2016-07-13 13:18:37.461 STDERR [INFO] I0713 13:18:37.461087 14639 net.cpp:219] pool5/drop_7x7_s1 does not need backward computation.
…
