…
Java HotSpot(TM) 64-Bit Server VM warning: You have loaded library /home/peifeng/work/run/storm102/data/workers/fd25fde8-2685-49df-b202-2fc61f0aea7a/tmp/cvld1801029671477539669/libopencv_java310.xine1.so which might have disabled stack guard. The VM will try to fix the stack guard now.
It's highly recommended that you fix the library with 'execstack -c <libfile>', or link it with '-z noexecstack'.
WARNING: Logging before InitGoogleLogging() is written to STDERR
I0924 00:24:11.086210 20248 net.cpp:49] Initializing net from parameters: 
name: "GoogleNet"
state {
  phase: TEST
}
layer {
  name: "data"
  type: "Input"
  top: "data"
  input_param {
    shape {
      dim: 10
      dim: 3
      dim: 224
      dim: 224
    }
  }
}
layer {
  name: "conv1/7x7_s2"
  type: "Convolution"
  bottom: "data"
  top: "conv1/7x7_s2"
  param {
    lr_mult: 1
    decay_mult: 1
  }
  param {
    lr_mult: 2
    decay_mult: 0
  }
  convolution_param {
    num_output: 64
    pad: 3
    kernel_size: 7
    stride: 2
    weight_filler {
      type: "xavier"
      std: 0.1
    }
    bias_filler {
      type: "constant"
      value: 0.2
    }
  }
}
layer {
  name: "conv1/relu_7x7"
  type: "ReLU"
  bottom: "conv1/7x7_s2"
  top: "conv1/7x7_s2"
}
layer {
  name: "pool1/3x3_s2"
  type: "Pooling"
  bottom: "conv1/7x7_s2"
  top: "pool1/3x3_s2"
  pooling_param {
    pool: MAX
    kernel_size: 3
    stride: 2
  }
}
layer {
  name: "pool1/norm1"
  type: "LRN"
  bottom: "pool1/3x3_s2"
  top: "pool1/norm1"
  lrn_param {
    local_size: 5
    alpha: 0.0001
    beta: 0.75
  }
}
layer {
  name: "conv2/3x3_reduce"
  type: "Convolution"
  bottom: "pool1/norm1"
  top: "conv2/3x3_reduce"
  param {
    lr_mult: 1
    decay_mult: 1
  }
  param {
    lr_mult: 2
    decay_mult: 0
  }
  convolution_param {
    num_output: 64
    kernel_size: 1
    weight_filler {
      type: "xavier"
      std: 0.1
    }
    bias_filler {
      type: "constant"
      value: 0.2
    }
  }
}
layer {
  name: "conv2/relu_3x3_reduce"
  type: "ReLU"
  bottom: "conv2/3x3_reduce"
  top: "conv2/3x3_reduce"
}
layer {
  name: "conv2/3x3"
  type: "Convolution"
  bottom: "conv2/3x3_reduce"
  top: "conv2/3x3"
  param {
    lr_mult: 1
    decay_mult: 1
  }
  param {
    lr_mult: 2
    decay_mult: 0
  }
  convolution_param {
    num_output: 192
    pad: 1
    kernel_size: 3
    weight_filler {
      type: "xavier"
      std: 0.03
    }
    bias_filler {
      type: "constant"
      value: 0.2
    }
  }
}
layer {
  name: "conv2/relu_3x3"
  type: "ReLU"
  bottom: "conv2/3x3"
  top: "conv2/3x3"
}
layer {
  name: "conv2/norm2"
  type: "LRN"
  bottom: "conv2/3x3"
  top: "conv2/norm2"
  lrn_param {
    local_size: 5
    alpha: 0.0001
    beta: 0.75
  }
}
layer {
  name: "pool2/3x3_s2"
  type: "Pooling"
  bottom: "conv2/norm2"
  top: "pool2/3x3_s2"
  pooling_param {
    pool: MAX
    kernel_size: 3
    stride: 2
  }
}
layer {
  name: "inception_3a/1x1"
  type: "Convolution"
  bottom: "pool2/3x3_s2"
  top: "inception_3a/1x1"
  param {
    lr_mult: 1
    decay_mult: 1
  }
  param {
    lr_mult: 2
    decay_mult: 0
  }
  convolution_param {
    num_output: 64
    kernel_size: 1
    weight_filler {
      type: "xavier"
      std: 0.03
    }
    bias_filler {
      type: "constant"
      value: 0.2
    }
  }
}
layer {
  name: "inception_3a/relu_1x1"
  type: "ReLU"
  bottom: "inception_3a/1x1"
  top: "inception_3a/1x1"
}
layer {
  name: "inception_3a/3x3_reduce"
  type: "Convolution"
  bottom: "pool2/3x3_s2"
  top: "inception_3a/3x3_reduce"
  param {
    lr_mult: 1
    decay_mult: 1
  }
  param {
    lr_mult: 2
    decay_mult: 0
  }
  convolution_param {
    num_output: 96
    kernel_size: 1
    weight_filler {
      type: "xavier"
      std: 0.09
    }
    bias_filler {
      type: "constant"
      value: 0.2
    }
  }
}
layer {
  name: "inception_3a/relu_3x3_reduce"
  type: "ReLU"
  bottom: "inception_3a/3x3_reduce"
  top: "inception_3a/3x3_reduce"
}
layer {
  name: "inception_3a/3x3"
  type: "Convolution"
  bottom: "inception_3a/3x3_reduce"
  top: "inception_3a/3x3"
  param {
    lr_mult: 1
    decay_mult: 1
  }
  param {
    lr_mult: 2
    decay_mult: 0
  }
  convolution_param {
    num_output: 128
    pad: 1
    kernel_size: 3
    weight_filler {
      type: "xavier"
      std: 0.03
    }
    bias_filler {
      type: "constant"
      value: 0.2
    }
  }
}
layer {
  name: "inception_3a/relu_3x3"
  type: "ReLU"
  bottom: "inception_3a/3x3"
  top: "inception_3a/3x3"
}
layer {
  name: "inception_3a/5x5_reduce"
  type: "Convolution"
  bottom: "pool2/3x3_s2"
  top: "inception_3a/5x5_reduce"
  param {
    lr_mult: 1
    decay_mult: 1
  }
  param {
    lr_mult: 2
    decay_mult: 0
  }
  convolution_param {
    num_output: 16
    kernel_size: 1
    weight_filler {
      type: "xavier"
      std: 0.2
    }
    bias_filler {
      type: "constant"
      value: 0.2
    }
  }
}
layer {
  name: "inception_3a/relu_5x5_reduce"
  type: "ReLU"
  bottom: "inception_3a/5x5_reduce"
  top: "inception_3a/5x5_reduce"
}
layer {
  name: "inception_3a/5x5"
  type: "Convolution"
  bottom: "inception_3a/5x5_reduce"
  top: "inception_3a/5x5"
  param {
    lr_mult: 1
    decay_mult: 1
  }
  param {
    lr_mult: 2
    decay_mult: 0
  }
  convolution_param {
    num_output: 32
    pad: 2
    kernel_size: 5
    weight_filler {
      type: "xavier"
      std: 0.03
    }
    bias_filler {
      type: "constant"
      value: 0.2
    }
  }
}
layer {
  name: "inception_3a/relu_5x5"
  type: "ReLU"
  bottom: "inception_3a/5x5"
  top: "inception_3a/5x5"
}
layer {
  name: "inception_3a/pool"
  type: "Pooling"
  bottom: "pool2/3x3_s2"
  top: "inception_3a/pool"
  pooling_param {
    pool: MAX
    kernel_size: 3
    stride: 1
    pad: 1
  }
}
layer {
  name: "inception_3a/pool_proj"
  type: "Convolution"
  bottom: "inception_3a/pool"
  top: "inception_3a/pool_proj"
  param {
    lr_mult: 1
    decay_mult: 1
  }
  param {
    lr_mult: 2
    decay_mult: 0
  }
  convolution_param {
    num_output: 32
    kernel_size: 1
    weight_filler {
      type: "xavier"
      std: 0.1
    }
    bias_filler {
      type: "constant"
      value: 0.2
    }
  }
}
layer {
  name: "inception_3a/relu_pool_proj"
  type: "ReLU"
  bottom: "inception_3a/pool_proj"
  top: "inception_3a/pool_proj"
}
layer {
  name: "inception_3a/output"
  type: "Concat"
  bottom: "inception_3a/1x1"
  bottom: "inception_3a/3x3"
  bottom: "inception_3a/5x5"
  bottom: "inception_3a/pool_proj"
  top: "inception_3a/output"
}
layer {
  name: "inception_3b/1x1"
  type: "Convolution"
  bottom: "inception_3a/output"
  top: "inception_3b/1x1"
  param {
    lr_mult: 1
    decay_mult: 1
  }
  param {
    lr_mult: 2
    decay_mult: 0
  }
  convolution_param {
    num_output: 128
    kernel_size: 1
    weight_filler {
      type: "xavier"
      std: 0.03
    }
    bias_filler {
      type: "constant"
      value: 0.2
    }
  }
}
layer {
  name: "inception_3b/relu_1x1"
  type: "ReLU"
  bottom: "inception_3b/1x1"
  top: "inception_3b/1x1"
}
layer {
  name: "inception_3b/3x3_reduce"
  type: "Convolution"
  bottom: "inception_3a/output"
  top: "inception_3b/3x3_reduce"
  param {
    lr_mult: 1
    decay_mult: 1
  }
  param {
    lr_mult: 2
    decay_mult: 0
  }
  convolution_param {
    num_output: 128
    kernel_size: 1
    weight_filler {
      type: "xavier"
      std: 0.09
    }
    bias_filler {
      type: "constant"
      value: 0.2
    }
  }
}
layer {
  name: "inception_3b/relu_3x3_reduce"
  type: "ReLU"
  bottom: "inception_3b/3x3_reduce"
  top: "inception_3b/3x3_reduce"
}
layer {
  name: "inception_3b/3x3"
  type: "Convolution"
  bottom: "inception_3b/3x3_reduce"
  top: "inception_3b/3x3"
  param {
    lr_mult: 1
    decay_mult: 1
  }
  param {
    lr_mult: 2
    decay_mult: 0
  }
  convolution_param {
    num_output: 192
    pad: 1
    kernel_size: 3
    weight_filler {
      type: "xavier"
      std: 0.03
    }
    bias_filler {
      type: "constant"
      value: 0.2
    }
  }
}
layer {
  name: "inception_3b/relu_3x3"
  type: "ReLU"
  bottom: "inception_3b/3x3"
  top: "inception_3b/3x3"
}
layer {
  name: "inception_3b/5x5_reduce"
  type: "Convolution"
  bottom: "inception_3a/output"
  top: "inception_3b/5x5_reduce"
  param {
    lr_mult: 1
    decay_mult: 1
  }
  param {
    lr_mult: 2
    decay_mult: 0
  }
  convolution_param {
    num_output: 32
    kernel_size: 1
    weight_filler {
      type: "xavier"
      std: 0.2
    }
    bias_filler {
      type: "constant"
      value: 0.2
    }
  }
}
layer {
  name: "inception_3b/relu_5x5_reduce"
  type: "ReLU"
  bottom: "inception_3b/5x5_reduce"
  top: "inception_3b/5x5_reduce"
}
layer {
  name: "inception_3b/5x5"
  type: "Convolution"
  bottom: "inception_3b/5x5_reduce"
  top: "inception_3b/5x5"
  param {
    lr_mult: 1
    decay_mult: 1
  }
  param {
    lr_mult: 2
    decay_mult: 0
  }
  convolution_param {
    num_output: 96
    pad: 2
    kernel_size: 5
    weight_filler {
      type: "xavier"
      std: 0.03
    }
    bias_filler {
      type: "constant"
      value: 0.2
    }
  }
}
layer {
  name: "inception_3b/relu_5x5"
  type: "ReLU"
  bottom: "inception_3b/5x5"
  top: "inception_3b/5x5"
}
layer {
  name: "inception_3b/pool"
  type: "Pooling"
  bottom: "inception_3a/output"
  top: "inception_3b/pool"
  pooling_param {
    pool: MAX
    kernel_size: 3
    stride: 1
    pad: 1
  }
}
layer {
  name: "inception_3b/pool_proj"
  type: "Convolution"
  bottom: "inception_3b/pool"
  top: "inception_3b/pool_proj"
  param {
    lr_mult: 1
    decay_mult: 1
  }
  param {
    lr_mult: 2
    decay_mult: 0
  }
  convolution_param {
    num_output: 64
    kernel_size: 1
    weight_filler {
      type: "xavier"
      std: 0.1
    }
    bias_filler {
      type: "constant"
      value: 0.2
    }
  }
}
layer {
  name: "inception_3b/relu_pool_proj"
  type: "ReLU"
  bottom: "inception_3b/pool_proj"
  top: "inception_3b/pool_proj"
}
layer {
  name: "inception_3b/output"
  type: "Concat"
  bottom: "inception_3b/1x1"
  bottom: "inception_3b/3x3"
  bottom: "inception_3b/5x5"
  bottom: "inception_3b/pool_proj"
  top: "inception_3b/output"
}
layer {
  name: "pool3/3x3_s2"
  type: "Pooling"
  bottom: "inception_3b/output"
  top: "pool3/3x3_s2"
  pooling_param {
    pool: MAX
    kernel_size: 3
    stride: 2
  }
}
layer {
  name: "inception_4a/1x1"
  type: "Convolution"
  bottom: "pool3/3x3_s2"
  top: "inception_4a/1x1"
  param {
    lr_mult: 1
    decay_mult: 1
  }
  param {
    lr_mult: 2
    decay_mult: 0
  }
  convolution_param {
    num_output: 192
    kernel_size: 1
    weight_filler {
      type: "xavier"
      std: 0.03
    }
    bias_filler {
      type: "constant"
      value: 0.2
    }
  }
}
layer {
  name: "inception_4a/relu_1x1"
  type: "ReLU"
  bottom: "inception_4a/1x1"
  top: "inception_4a/1x1"
}
layer {
  name: "inception_4a/3x3_reduce"
  type: "Convolution"
  bottom: "pool3/3x3_s2"
  top: "inception_4a/3x3_reduce"
  param {
    lr_mult: 1
    decay_mult: 1
  }
  param {
    lr_mult: 2
    decay_mult: 0
  }
  convolution_param {
    num_output: 96
    kernel_size: 1
    weight_filler {
      type: "xavier"
      std: 0.09
    }
    bias_filler {
      type: "constant"
      value: 0.2
    }
  }
}
layer {
  name: "inception_4a/relu_3x3_reduce"
  type: "ReLU"
  bottom: "inception_4a/3x3_reduce"
  top: "inception_4a/3x3_reduce"
}
layer {
  name: "inception_4a/3x3"
  type: "Convolution"
  bottom: "inception_4a/3x3_reduce"
  top: "inception_4a/3x3"
  param {
    lr_mult: 1
    decay_mult: 1
  }
  param {
    lr_mult: 2
    decay_mult: 0
  }
  convolution_param {
    num_output: 208
    pad: 1
    kernel_size: 3
    weight_filler {
      type: "xavier"
      std: 0.03
    }
    bias_filler {
      type: "constant"
      value: 0.2
    }
  }
}
layer {
  name: "inception_4a/relu_3x3"
  type: "ReLU"
  bottom: "inception_4a/3x3"
  top: "inception_4a/3x3"
}
layer {
  name: "inception_4a/5x5_reduce"
  type: "Convolution"
  bottom: "pool3/3x3_s2"
  top: "inception_4a/5x5_reduce"
  param {
    lr_mult: 1
    decay_mult: 1
  }
  param {
    lr_mult: 2
    decay_mult: 0
  }
  convolution_param {
    num_output: 16
    kernel_size: 1
    weight_filler {
      type: "xavier"
      std: 0.2
    }
    bias_filler {
      type: "constant"
      value: 0.2
    }
  }
}
layer {
  name: "inception_4a/relu_5x5_reduce"
  type: "ReLU"
  bottom: "inception_4a/5x5_reduce"
  top: "inception_4a/5x5_reduce"
}
layer {
  name: "inception_4a/5x5"
  type: "Convolution"
  bottom: "inception_4a/5x5_reduce"
  top: "inception_4a/5x5"
  param {
    lr_mult: 1
    decay_mult: 1
  }
  param {
    lr_mult: 2
    decay_mult: 0
  }
  convolution_param {
    num_output: 48
    pad: 2
    kernel_size: 5
    weight_filler {
      type: "xavier"
      std: 0.03
    }
    bias_filler {
      type: "constant"
      value: 0.2
    }
  }
}
layer {
  name: "inception_4a/relu_5x5"
  type: "ReLU"
  bottom: "inception_4a/5x5"
  top: "inception_4a/5x5"
}
layer {
  name: "inception_4a/pool"
  type: "Pooling"
  bottom: "pool3/3x3_s2"
  top: "inception_4a/pool"
  pooling_param {
    pool: MAX
    kernel_size: 3
    stride: 1
    pad: 1
  }
}
layer {
  name: "inception_4a/pool_proj"
  type: "Convolution"
  bottom: "inception_4a/pool"
  top: "inception_4a/pool_proj"
  param {
    lr_mult: 1
    decay_mult: 1
  }
  param {
    lr_mult: 2
    decay_mult: 0
  }
  convolution_param {
    num_output: 64
    kernel_size: 1
    weight_filler {
      type: "xavier"
      std: 0.1
    }
    bias_filler {
      type: "constant"
      value: 0.2
    }
  }
}
layer {
  name: "inception_4a/relu_pool_proj"
  type: "ReLU"
  bottom: "inception_4a/pool_proj"
  top: "inception_4a/pool_proj"
}
layer {
  name: "inception_4a/output"
  type: "Concat"
  bottom: "inception_4a/1x1"
  bottom: "inception_4a/3x3"
  bottom: "inception_4a/5x5"
  bottom: "inception_4a/pool_proj"
  top: "inception_4a/output"
}
layer {
  name: "inception_4b/1x1"
  type: "Convolution"
  bottom: "inception_4a/output"
  top: "inception_4b/1x1"
  param {
    lr_mult: 1
    decay_mult: 1
  }
  param {
    lr_mult: 2
    decay_mult: 0
  }
  convolution_param {
    num_output: 160
    kernel_size: 1
    weight_filler {
      type: "xavier"
      std: 0.03
    }
    bias_filler {
      type: "constant"
      value: 0.2
    }
  }
}
layer {
  name: "inception_4b/relu_1x1"
  type: "ReLU"
  bottom: "inception_4b/1x1"
  top: "inception_4b/1x1"
}
layer {
  name: "inception_4b/3x3_reduce"
  type: "Convolution"
  bottom: "inception_4a/output"
  top: "inception_4b/3x3_reduce"
  param {
    lr_mult: 1
    decay_mult: 1
  }
  param {
    lr_mult: 2
    decay_mult: 0
  }
  convolution_param {
    num_output: 112
    kernel_size: 1
    weight_filler {
      type: "xavier"
      std: 0.09
    }
    bias_filler {
      type: "constant"
      value: 0.2
    }
  }
}
layer {
  name: "inception_4b/relu_3x3_reduce"
  type: "ReLU"
  bottom: "inception_4b/3x3_reduce"
  top: "inception_4b/3x3_reduce"
}
layer {
  name: "inception_4b/3x3"
  type: "Convolution"
  bottom: "inception_4b/3x3_reduce"
  top: "inception_4b/3x3"
  param {
    lr_mult: 1
    decay_mult: 1
  }
  param {
    lr_mult: 2
    decay_mult: 0
  }
  convolution_param {
    num_output: 224
    pad: 1
    kernel_size: 3
    weight_filler {
      type: "xavier"
      std: 0.03
    }
    bias_filler {
      type: "constant"
      value: 0.2
    }
  }
}
layer {
  name: "inception_4b/relu_3x3"
  type: "ReLU"
  bottom: "inception_4b/3x3"
  top: "inception_4b/3x3"
}
layer {
  name: "inception_4b/5x5_reduce"
  type: "Convolution"
  bottom: "inception_4a/output"
  top: "inception_4b/5x5_reduce"
  param {
    lr_mult: 1
    decay_mult: 1
  }
  param {
    lr_mult: 2
    decay_mult: 0
  }
  convolution_param {
    num_output: 24
    kernel_size: 1
    weight_filler {
      type: "xavier"
      std: 0.2
    }
    bias_filler {
      type: "constant"
      value: 0.2
    }
  }
}
layer {
  name: "inception_4b/relu_5x5_reduce"
  type: "ReLU"
  bottom: "inception_4b/5x5_reduce"
  top: "inception_4b/5x5_reduce"
}
layer {
  name: "inception_4b/5x5"
  type: "Convolution"
  bottom: "inception_4b/5x5_reduce"
  top: "inception_4b/5x5"
  param {
    lr_mult: 1
    decay_mult: 1
  }
  param {
    lr_mult: 2
    decay_mult: 0
  }
  convolution_param {
    num_output: 64
    pad: 2
    kernel_size: 5
    weight_filler {
      type: "xavier"
      std: 0.03
    }
    bias_filler {
      type: "constant"
      value: 0.2
    }
  }
}
layer {
  name: "inception_4b/relu_5x5"
  type: "ReLU"
  bottom: "inception_4b/5x5"
  top: "inception_4b/5x5"
}
layer {
  name: "inception_4b/pool"
  type: "Pooling"
  bottom: "inception_4a/output"
  top: "inception_4b/pool"
  pooling_param {
    pool: MAX
    kernel_size: 3
    stride: 1
    pad: 1
  }
}
layer {
  name: "inception_4b/pool_proj"
  type: "Convolution"
  bottom: "inception_4b/pool"
  top: "inception_4b/pool_proj"
  param {
    lr_mult: 1
    decay_mult: 1
  }
  param {
    lr_mult: 2
    decay_mult: 0
  }
  convolution_param {
    num_output: 64
    kernel_size: 1
    weight_filler {
      type: "xavier"
      std: 0.1
    }
    bias_filler {
      type: "constant"
      value: 0.2
    }
  }
}
layer {
  name: "inception_4b/relu_pool_proj"
  type: "ReLU"
  bottom: "inception_4b/pool_proj"
  top: "inception_4b/pool_proj"
}
layer {
  name: "inception_4b/output"
  type: "Concat"
  bottom: "inception_4b/1x1"
  bottom: "inception_4b/3x3"
  bottom: "inception_4b/5x5"
  bottom: "inception_4b/pool_proj"
  top: "inception_4b/output"
}
layer {
  name: "inception_4c/1x1"
  type: "Convolution"
  bottom: "inception_4b/output"
  top: "inception_4c/1x1"
  param {
    lr_mult: 1
    decay_mult: 1
  }
  param {
    lr_mult: 2
    decay_mult: 0
  }
  convolution_param {
    num_output: 128
    kernel_size: 1
    weight_filler {
      type: "xavier"
      std: 0.03
    }
    bias_filler {
      type: "constant"
      value: 0.2
    }
  }
}
layer {
  name: "inception_4c/relu_1x1"
  type: "ReLU"
  bottom: "inception_4c/1x1"
  top: "inception_4c/1x1"
}
layer {
  name: "inception_4c/3x3_reduce"
  type: "Convolution"
  bottom: "inception_4b/output"
  top: "inception_4c/3x3_reduce"
  param {
    lr_mult: 1
    decay_mult: 1
  }
  param {
    lr_mult: 2
    decay_mult: 0
  }
  convolution_param {
    num_output: 128
    kernel_size: 1
    weight_filler {
      type: "xavier"
      std: 0.09
    }
    bias_filler {
      type: "constant"
      value: 0.2
    }
  }
}
layer {
  name: "inception_4c/relu_3x3_reduce"
  type: "ReLU"
  bottom: "inception_4c/3x3_reduce"
  top: "inception_4c/3x3_reduce"
}
layer {
  name: "inception_4c/3x3"
  type: "Convolution"
  bottom: "inception_4c/3x3_reduce"
  top: "inception_4c/3x3"
  param {
    lr_mult: 1
    decay_mult: 1
  }
  param {
    lr_mult: 2
    decay_mult: 0
  }
  convolution_param {
    num_output: 256
    pad: 1
    kernel_size: 3
    weight_filler {
      type: "xavier"
      std: 0.03
    }
    bias_filler {
      type: "constant"
      value: 0.2
    }
  }
}
layer {
  name: "inception_4c/relu_3x3"
  type: "ReLU"
  bottom: "inception_4c/3x3"
  top: "inception_4c/3x3"
}
layer {
  name: "inception_4c/5x5_reduce"
  type: "Convolution"
  bottom: "inception_4b/output"
  top: "inception_4c/5x5_reduce"
  param {
    lr_mult: 1
    decay_mult: 1
  }
  param {
    lr_mult: 2
    decay_mult: 0
  }
  convolution_param {
    num_output: 24
    kernel_size: 1
    weight_filler {
      type: "xavier"
      std: 0.2
    }
    bias_filler {
      type: "constant"
      value: 0.2
    }
  }
}
layer {
  name: "inception_4c/relu_5x5_reduce"
  type: "ReLU"
  bottom: "inception_4c/5x5_reduce"
  top: "inception_4c/5x5_reduce"
}
layer {
  name: "inception_4c/5x5"
  type: "Convolution"
  bottom: "inception_4c/5x5_reduce"
  top: "inception_4c/5x5"
  param {
    lr_mult: 1
    decay_mult: 1
  }
  param {
    lr_mult: 2
    decay_mult: 0
  }
  convolution_param {
    num_output: 64
    pad: 2
    kernel_size: 5
    weight_filler {
      type: "xavier"
      std: 0.03
    }
    bias_filler {
      type: "constant"
      value: 0.2
    }
  }
}
layer {
  name: "inception_4c/relu_5x5"
  type: "ReLU"
  bottom: "inception_4c/5x5"
  top: "inception_4c/5x5"
}
layer {
  name: "inception_4c/pool"
  type: "Pooling"
  bottom: "inception_4b/output"
  top: "inception_4c/pool"
  pooling_param {
    pool: MAX
    kernel_size: 3
    stride: 1
    pad: 1
  }
}
layer {
  name: "inception_4c/pool_proj"
  type: "Convolution"
  bottom: "inception_4c/pool"
  top: "inception_4c/pool_proj"
  param {
    lr_mult: 1
    decay_mult: 1
  }
  param {
    lr_mult: 2
    decay_mult: 0
  }
  convolution_param {
    num_output: 64
    kernel_size: 1
    weight_filler {
      type: "xavier"
      std: 0.1
    }
    bias_filler {
      type: "constant"
      value: 0.2
    }
  }
}
layer {
  name: "inception_4c/relu_pool_proj"
  type: "ReLU"
  bottom: "inception_4c/pool_proj"
  top: "inception_4c/pool_proj"
}
layer {
  name: "inception_4c/output"
  type: "Concat"
  bottom: "inception_4c/1x1"
  bottom: "inception_4c/3x3"
  bottom: "inception_4c/5x5"
  bottom: "inception_4c/pool_proj"
  top: "inception_4c/output"
}
layer {
  name: "inception_4d/1x1"
  type: "Convolution"
  bottom: "inception_4c/output"
  top: "inception_4d/1x1"
  param {
    lr_mult: 1
    decay_mult: 1
  }
  param {
    lr_mult: 2
    decay_mult: 0
  }
  convolution_param {
    num_output: 112
    kernel_size: 1
    weight_filler {
      type: "xavier"
      std: 0.03
    }
    bias_filler {
      type: "constant"
      value: 0.2
    }
  }
}
layer {
  name: "inception_4d/relu_1x1"
  type: "ReLU"
  bottom: "inception_4d/1x1"
  top: "inception_4d/1x1"
}
layer {
  name: "inception_4d/3x3_reduce"
  type: "Convolution"
  bottom: "inception_4c/output"
  top: "inception_4d/3x3_reduce"
  param {
    lr_mult: 1
    decay_mult: 1
  }
  param {
    lr_mult: 2
    decay_mult: 0
  }
  convolution_param {
    num_output: 144
    kernel_size: 1
    weight_filler {
      type: "xavier"
      std: 0.09
    }
    bias_filler {
      type: "constant"
      value: 0.2
    }
  }
}
layer {
  name: "inception_4d/relu_3x3_reduce"
  type: "ReLU"
  bottom: "inception_4d/3x3_reduce"
  top: "inception_4d/3x3_reduce"
}
layer {
  name: "inception_4d/3x3"
  type: "Convolution"
  bottom: "inception_4d/3x3_reduce"
  top: "inception_4d/3x3"
  param {
    lr_mult: 1
    decay_mult: 1
  }
  param {
    lr_mult: 2
    decay_mult: 0
  }
  convolution_param {
    num_output: 288
    pad: 1
    kernel_size: 3
    weight_filler {
      type: "xavier"
      std: 0.03
    }
    bias_filler {
      type: "constant"
      value: 0.2
    }
  }
}
layer {
  name: "inception_4d/relu_3x3"
  type: "ReLU"
  bottom: "inception_4d/3x3"
  top: "inception_4d/3x3"
}
layer {
  name: "inception_4d/5x5_reduce"
  type: "Convolution"
  bottom: "inception_4c/output"
  top: "inception_4d/5x5_reduce"
  param {
    lr_mult: 1
    decay_mult: 1
  }
  param {
    lr_mult: 2
    decay_mult: 0
  }
  convolution_param {
    num_output: 32
    kernel_size: 1
    weight_filler {
      type: "xavier"
      std: 0.2
    }
    bias_filler {
      type: "constant"
      value: 0.2
    }
  }
}
layer {
  name: "inception_4d/relu_5x5_reduce"
  type: "ReLU"
  bottom: "inception_4d/5x5_reduce"
  top: "inception_4d/5x5_reduce"
}
layer {
  name: "inception_4d/5x5"
  type: "Convolution"
  bottom: "inception_4d/5x5_reduce"
  top: "inception_4d/5x5"
  param {
    lr_mult: 1
    decay_mult: 1
  }
  param {
    lr_mult: 2
    decay_mult: 0
  }
  convolution_param {
    num_output: 64
    pad: 2
    kernel_size: 5
    weight_filler {
      type: "xavier"
      std: 0.03
    }
    bias_filler {
      type: "constant"
      value: 0.2
    }
  }
}
layer {
  name: "inception_4d/relu_5x5"
  type: "ReLU"
  bottom: "inception_4d/5x5"
  top: "inception_4d/5x5"
}
layer {
  name: "inception_4d/pool"
  type: "Pooling"
  bottom: "inception_4c/output"
  top: "inception_4d/pool"
  pooling_param {
    pool: MAX
    kernel_size: 3
    stride: 1
    pad: 1
  }
}
layer {
  name: "inception_4d/pool_proj"
  type: "Convolution"
  bottom: "inception_4d/pool"
  top: "inception_4d/pool_proj"
  param {
    lr_mult: 1
    decay_mult: 1
  }
  param {
    lr_mult: 2
    decay_mult: 0
  }
  convolution_param {
    num_output: 64
    kernel_size: 1
    weight_filler {
      type: "xavier"
      std: 0.1
    }
    bias_filler {
      type: "constant"
      value: 0.2
    }
  }
}
layer {
  name: "inception_4d/relu_pool_proj"
  type: "ReLU"
  bottom: "inception_4d/pool_proj"
  top: "inception_4d/pool_proj"
}
layer {
  name: "inception_4d/output"
  type: "Concat"
  bottom: "inception_4d/1x1"
  bottom: "inception_4d/3x3"
  bottom: "inception_4d/5x5"
  bottom: "inception_4d/pool_proj"
  top: "inception_4d/output"
}
layer {
  name: "inception_4e/1x1"
  type: "Convolution"
  bottom: "inception_4d/output"
  top: "inception_4e/1x1"
  param {
    lr_mult: 1
    decay_mult: 1
  }
  param {
    lr_mult: 2
    decay_mult: 0
  }
  convolution_param {
    num_output: 256
    kernel_size: 1
    weight_filler {
      type: "xavier"
      std: 0.03
    }
    bias_filler {
      type: "constant"
      value: 0.2
    }
  }
}
layer {
  name: "inception_4e/relu_1x1"
  type: "ReLU"
  bottom: "inception_4e/1x1"
  top: "inception_4e/1x1"
}
layer {
  name: "inception_4e/3x3_reduce"
  type: "Convolution"
  bottom: "inception_4d/output"
  top: "inception_4e/3x3_reduce"
  param {
    lr_mult: 1
    decay_mult: 1
  }
  param {
    lr_mult: 2
    decay_mult: 0
  }
  convolution_param {
    num_output: 160
    kernel_size: 1
    weight_filler {
      type: "xavier"
      std: 0.09
    }
    bias_filler {
      type: "constant"
      value: 0.2
    }
  }
}
layer {
  name: "inception_4e/relu_3x3_reduce"
  type: "ReLU"
  bottom: "inception_4e/3x3_reduce"
  top: "inception_4e/3x3_reduce"
}
layer {
  name: "inception_4e/3x3"
  type: "Convolution"
  bottom: "inception_4e/3x3_reduce"
  top: "inception_4e/3x3"
  param {
    lr_mult: 1
    decay_mult: 1
  }
  param {
    lr_mult: 2
    decay_mult: 0
  }
  convolution_param {
    num_output: 320
    pad: 1
    kernel_size: 3
    weight_filler {
      type: "xavier"
      std: 0.03
    }
    bias_filler {
      type: "constant"
      value: 0.2
    }
  }
}
layer {
  name: "inception_4e/relu_3x3"
  type: "ReLU"
  bottom: "inception_4e/3x3"
  top: "inception_4e/3x3"
}
layer {
  name: "inception_4e/5x5_reduce"
  type: "Convolution"
  bottom: "inception_4d/output"
  top: "inception_4e/5x5_reduce"
  param {
    lr_mult: 1
    decay_mult: 1
  }
  param {
    lr_mult: 2
    decay_mult: 0
  }
  convolution_param {
    num_output: 32
    kernel_size: 1
    weight_filler {
      type: "xavier"
      std: 0.2
    }
    bias_filler {
      type: "constant"
      value: 0.2
    }
  }
}
layer {
  name: "inception_4e/relu_5x5_reduce"
  type: "ReLU"
  bottom: "inception_4e/5x5_reduce"
  top: "inception_4e/5x5_reduce"
}
layer {
  name: "inception_4e/5x5"
  type: "Convolution"
  bottom: "inception_4e/5x5_reduce"
  top: "inception_4e/5x5"
  param {
    lr_mult: 1
    decay_mult: 1
  }
  param {
    lr_mult: 2
    decay_mult: 0
  }
  convolution_param {
    num_output: 128
    pad: 2
    kernel_size: 5
    weight_filler {
      type: "xavier"
      std: 0.03
    }
    bias_filler {
      type: "constant"
      value: 0.2
    }
  }
}
layer {
  name: "inception_4e/relu_5x5"
  type: "ReLU"
  bottom: "inception_4e/5x5"
  top: "inception_4e/5x5"
}
layer {
  name: "inception_4e/pool"
  type: "Pooling"
  bottom: "inception_4d/output"
  top: "inception_4e/pool"
  pooling_param {
    pool: MAX
    kernel_size: 3
    stride: 1
    pad: 1
  }
}
layer {
  name: "inception_4e/pool_proj"
  type: "Convolution"
  bottom: "inception_4e/pool"
  top: "inception_4e/pool_proj"
  param {
    lr_mult: 1
    decay_mult: 1
  }
  param {
    lr_mult: 2
    decay_mult: 0
  }
  convolution_param {
    num_output: 128
    kernel_size: 1
    weight_filler {
      type: "xavier"
      std: 0.1
    }
    bias_filler {
      type: "constant"
      value: 0.2
    }
  }
}
layer {
  name: "inception_4e/relu_pool_proj"
  type: "ReLU"
  bottom: "inception_4e/pool_proj"
  top: "inception_4e/pool_proj"
}
layer {
  name: "inception_4e/output"
  type: "Concat"
  bottom: "inception_4e/1x1"
  bottom: "inception_4e/3x3"
  bottom: "inception_4e/5x5"
  bottom: "inception_4e/pool_proj"
  top: "inception_4e/output"
}
layer {
  name: "pool4/3x3_s2"
  type: "Pooling"
  bottom: "inception_4e/output"
  top: "pool4/3x3_s2"
  pooling_param {
    pool: MAX
    kernel_size: 3
    stride: 2
  }
}
layer {
  name: "inception_5a/1x1"
  type: "Convolution"
  bottom: "pool4/3x3_s2"
  top: "inception_5a/1x1"
  param {
    lr_mult: 1
    decay_mult: 1
  }
  param {
    lr_mult: 2
    decay_mult: 0
  }
  convolution_param {
    num_output: 256
    kernel_size: 1
    weight_filler {
      type: "xavier"
      std: 0.03
    }
    bias_filler {
      type: "constant"
      value: 0.2
    }
  }
}
layer {
  name: "inception_5a/relu_1x1"
  type: "ReLU"
  bottom: "inception_5a/1x1"
  top: "inception_5a/1x1"
}
layer {
  name: "inception_5a/3x3_reduce"
  type: "Convolution"
  bottom: "pool4/3x3_s2"
  top: "inception_5a/3x3_reduce"
  param {
    lr_mult: 1
    decay_mult: 1
  }
  param {
    lr_mult: 2
    decay_mult: 0
  }
  convolution_param {
    num_output: 160
    kernel_size: 1
    weight_filler {
      type: "xavier"
      std: 0.09
    }
    bias_filler {
      type: "constant"
      value: 0.2
    }
  }
}
layer {
  name: "inception_5a/relu_3x3_reduce"
  type: "ReLU"
  bottom: "inception_5a/3x3_reduce"
  top: "inception_5a/3x3_reduce"
}
layer {
  name: "inception_5a/3x3"
  type: "Convolution"
  bottom: "inception_5a/3x3_reduce"
  top: "inception_5a/3x3"
  param {
    lr_mult: 1
    decay_mult: 1
  }
  param {
    lr_mult: 2
    decay_mult: 0
  }
  convolution_param {
    num_output: 320
    pad: 1
    kernel_size: 3
    weight_filler {
      type: "xavier"
      std: 0.03
    }
    bias_filler {
      type: "constant"
      value: 0.2
    }
  }
}
layer {
  name: "inception_5a/relu_3x3"
  type: "ReLU"
  bottom: "inception_5a/3x3"
  top: "inception_5a/3x3"
}
layer {
  name: "inception_5a/5x5_reduce"
  type: "Convolution"
  bottom: "pool4/3x3_s2"
  top: "inception_5a/5x5_reduce"
  param {
    lr_mult: 1
    decay_mult: 1
  }
  param {
    lr_mult: 2
    decay_mult: 0
  }
  convolution_param {
    num_output: 32
    kernel_size: 1
    weight_filler {
      type: "xavier"
      std: 0.2
    }
    bias_filler {
      type: "constant"
      value: 0.2
    }
I0924 00:24:11.087076 20248 layer_factory.hpp:77] Creating layer data
I0924 00:24:11.087119 20248 net.cpp:91] Creating Layer data
I0924 00:24:11.087129 20248 net.cpp:399] data -> data
I0924 00:24:11.568644 20248 net.cpp:141] Setting up data
I0924 00:24:11.568714 20248 net.cpp:148] Top shape: 10 3 224 224 (1505280)
I0924 00:24:11.568720 20248 net.cpp:156] Memory required for data: 6021120
I0924 00:24:11.568740 20248 layer_factory.hpp:77] Creating layer conv1/7x7_s2
I0924 00:24:11.568773 20248 net.cpp:91] Creating Layer conv1/7x7_s2
I0924 00:24:11.568781 20248 net.cpp:425] conv1/7x7_s2 <- data
I0924 00:24:11.568794 20248 net.cpp:399] conv1/7x7_s2 -> conv1/7x7_s2
I0924 00:24:11.741850 20248 net.cpp:141] Setting up conv1/7x7_s2
I0924 00:24:11.741904 20248 net.cpp:148] Top shape: 10 64 112 112 (8028160)
I0924 00:24:11.741909 20248 net.cpp:156] Memory required for data: 38133760
I0924 00:24:11.741931 20248 layer_factory.hpp:77] Creating layer conv1/relu_7x7
I0924 00:24:11.741952 20248 net.cpp:91] Creating Layer conv1/relu_7x7
I0924 00:24:11.741958 20248 net.cpp:425] conv1/relu_7x7 <- conv1/7x7_s2
I0924 00:24:11.741966 20248 net.cpp:386] conv1/relu_7x7 -> conv1/7x7_s2 (in-place)
I0924 00:24:11.742369 20248 net.cpp:141] Setting up conv1/relu_7x7
I0924 00:24:11.742383 20248 net.cpp:148] Top shape: 10 64 112 112 (8028160)
I0924 00:24:11.742388 20248 net.cpp:156] Memory required for data: 70246400
I0924 00:24:11.742393 20248 layer_factory.hpp:77] Creating layer pool1/3x3_s2
I0924 00:24:11.742408 20248 net.cpp:91] Creating Layer pool1/3x3_s2
I0924 00:24:11.742413 20248 net.cpp:425] pool1/3x3_s2 <- conv1/7x7_s2
I0924 00:24:11.742419 20248 net.cpp:399] pool1/3x3_s2 -> pool1/3x3_s2
I0924 00:24:11.742496 20248 net.cpp:141] Setting up pool1/3x3_s2
I0924 00:24:11.742506 20248 net.cpp:148] Top shape: 10 64 56 56 (2007040)
I0924 00:24:11.742511 20248 net.cpp:156] Memory required for data: 78274560
I0924 00:24:11.742516 20248 layer_factory.hpp:77] Creating layer pool1/norm1
I0924 00:24:11.742532 20248 net.cpp:91] Creating Layer pool1/norm1
I0924 00:24:11.742537 20248 net.cpp:425] pool1/norm1 <- pool1/3x3_s2
I0924 00:24:11.742543 20248 net.cpp:399] pool1/norm1 -> pool1/norm1
I0924 00:24:11.742818 20248 net.cpp:141] Setting up pool1/norm1
I0924 00:24:11.742830 20248 net.cpp:148] Top shape: 10 64 56 56 (2007040)
I0924 00:24:11.742835 20248 net.cpp:156] Memory required for data: 86302720
I0924 00:24:11.742840 20248 layer_factory.hpp:77] Creating layer conv2/3x3_reduce
I0924 00:24:11.742861 20248 net.cpp:91] Creating Layer conv2/3x3_reduce
I0924 00:24:11.742867 20248 net.cpp:425] conv2/3x3_reduce <- pool1/norm1
I0924 00:24:11.742874 20248 net.cpp:399] conv2/3x3_reduce -> conv2/3x3_reduce
I0924 00:24:11.744840 20248 net.cpp:141] Setting up conv2/3x3_reduce
I0924 00:24:11.744858 20248 net.cpp:148] Top shape: 10 64 56 56 (2007040)
I0924 00:24:11.744863 20248 net.cpp:156] Memory required for data: 94330880
I0924 00:24:11.744874 20248 layer_factory.hpp:77] Creating layer conv2/relu_3x3_reduce
I0924 00:24:11.744882 20248 net.cpp:91] Creating Layer conv2/relu_3x3_reduce
I0924 00:24:11.744889 20248 net.cpp:425] conv2/relu_3x3_reduce <- conv2/3x3_reduce
I0924 00:24:11.744899 20248 net.cpp:386] conv2/relu_3x3_reduce -> conv2/3x3_reduce (in-place)
I0924 00:24:11.745282 20248 net.cpp:141] Setting up conv2/relu_3x3_reduce
I0924 00:24:11.745295 20248 net.cpp:148] Top shape: 10 64 56 56 (2007040)
I0924 00:24:11.745298 20248 net.cpp:156] Memory required for data: 102359040
I0924 00:24:11.745303 20248 layer_factory.hpp:77] Creating layer conv2/3x3
I0924 00:24:11.745318 20248 net.cpp:91] Creating Layer conv2/3x3
I0924 00:24:11.745323 20248 net.cpp:425] conv2/3x3 <- conv2/3x3_reduce
I0924 00:24:11.745334 20248 net.cpp:399] conv2/3x3 -> conv2/3x3
I0924 00:24:11.748273 20248 net.cpp:141] Setting up conv2/3x3
I0924 00:24:11.748291 20248 net.cpp:148] Top shape: 10 192 56 56 (6021120)
I0924 00:24:11.748296 20248 net.cpp:156] Memory required for data: 126443520
I0924 00:24:11.748307 20248 layer_factory.hpp:77] Creating layer conv2/relu_3x3
I0924 00:24:11.748317 20248 net.cpp:91] Creating Layer conv2/relu_3x3
I0924 00:24:11.748322 20248 net.cpp:425] conv2/relu_3x3 <- conv2/3x3
I0924 00:24:11.748333 20248 net.cpp:386] conv2/relu_3x3 -> conv2/3x3 (in-place)
I0924 00:24:11.748560 20248 net.cpp:141] Setting up conv2/relu_3x3
I0924 00:24:11.748574 20248 net.cpp:148] Top shape: 10 192 56 56 (6021120)
I0924 00:24:11.748579 20248 net.cpp:156] Memory required for data: 150528000
I0924 00:24:11.748584 20248 layer_factory.hpp:77] Creating layer conv2/norm2
I0924 00:24:11.748592 20248 net.cpp:91] Creating Layer conv2/norm2
I0924 00:24:11.748596 20248 net.cpp:425] conv2/norm2 <- conv2/3x3
I0924 00:24:11.748605 20248 net.cpp:399] conv2/norm2 -> conv2/norm2
I0924 00:24:11.749042 20248 net.cpp:141] Setting up conv2/norm2
I0924 00:24:11.749054 20248 net.cpp:148] Top shape: 10 192 56 56 (6021120)
I0924 00:24:11.749059 20248 net.cpp:156] Memory required for data: 174612480
I0924 00:24:11.749063 20248 layer_factory.hpp:77] Creating layer pool2/3x3_s2
I0924 00:24:11.749071 20248 net.cpp:91] Creating Layer pool2/3x3_s2
I0924 00:24:11.749075 20248 net.cpp:425] pool2/3x3_s2 <- conv2/norm2
I0924 00:24:11.749085 20248 net.cpp:399] pool2/3x3_s2 -> pool2/3x3_s2
I0924 00:24:11.749133 20248 net.cpp:141] Setting up pool2/3x3_s2
I0924 00:24:11.749141 20248 net.cpp:148] Top shape: 10 192 28 28 (1505280)
I0924 00:24:11.749145 20248 net.cpp:156] Memory required for data: 180633600
I0924 00:24:11.749150 20248 layer_factory.hpp:77] Creating layer pool2/3x3_s2_pool2/3x3_s2_0_split
I0924 00:24:11.749167 20248 net.cpp:91] Creating Layer pool2/3x3_s2_pool2/3x3_s2_0_split
I0924 00:24:11.749171 20248 net.cpp:425] pool2/3x3_s2_pool2/3x3_s2_0_split <- pool2/3x3_s2
I0924 00:24:11.749177 20248 net.cpp:399] pool2/3x3_s2_pool2/3x3_s2_0_split -> pool2/3x3_s2_pool2/3x3_s2_0_split_0
I0924 00:24:11.749189 20248 net.cpp:399] pool2/3x3_s2_pool2/3x3_s2_0_split -> pool2/3x3_s2_pool2/3x3_s2_0_split_1
I0924 00:24:11.749197 20248 net.cpp:399] pool2/3x3_s2_pool2/3x3_s2_0_split -> pool2/3x3_s2_pool2/3x3_s2_0_split_2
I0924 00:24:11.749204 20248 net.cpp:399] pool2/3x3_s2_pool2/3x3_s2_0_split -> pool2/3x3_s2_pool2/3x3_s2_0_split_3
I0924 00:24:11.749274 20248 net.cpp:141] Setting up pool2/3x3_s2_pool2/3x3_s2_0_split
I0924 00:24:11.749284 20248 net.cpp:148] Top shape: 10 192 28 28 (1505280)
I0924 00:24:11.749289 20248 net.cpp:148] Top shape: 10 192 28 28 (1505280)
I0924 00:24:11.749294 20248 net.cpp:148] Top shape: 10 192 28 28 (1505280)
I0924 00:24:11.749299 20248 net.cpp:148] Top shape: 10 192 28 28 (1505280)
I0924 00:24:11.749302 20248 net.cpp:156] Memory required for data: 204718080
I0924 00:24:11.749306 20248 layer_factory.hpp:77] Creating layer inception_3a/1x1
I0924 00:24:11.749320 20248 net.cpp:91] Creating Layer inception_3a/1x1
I0924 00:24:11.749325 20248 net.cpp:425] inception_3a/1x1 <- pool2/3x3_s2_pool2/3x3_s2_0_split_0
I0924 00:24:11.749347 20248 net.cpp:399] inception_3a/1x1 -> inception_3a/1x1
I0924 00:24:11.751250 20248 net.cpp:141] Setting up inception_3a/1x1
I0924 00:24:11.751271 20248 net.cpp:148] Top shape: 10 64 28 28 (501760)
I0924 00:24:11.751276 20248 net.cpp:156] Memory required for data: 206725120
I0924 00:24:11.751286 20248 layer_factory.hpp:77] Creating layer inception_3a/relu_1x1
I0924 00:24:11.751296 20248 net.cpp:91] Creating Layer inception_3a/relu_1x1
I0924 00:24:11.751302 20248 net.cpp:425] inception_3a/relu_1x1 <- inception_3a/1x1
I0924 00:24:11.751309 20248 net.cpp:386] inception_3a/relu_1x1 -> inception_3a/1x1 (in-place)
I0924 00:24:11.751704 20248 net.cpp:141] Setting up inception_3a/relu_1x1
I0924 00:24:11.751716 20248 net.cpp:148] Top shape: 10 64 28 28 (501760)
I0924 00:24:11.751720 20248 net.cpp:156] Memory required for data: 208732160
I0924 00:24:11.751725 20248 layer_factory.hpp:77] Creating layer inception_3a/3x3_reduce
I0924 00:24:11.751742 20248 net.cpp:91] Creating Layer inception_3a/3x3_reduce
I0924 00:24:11.751747 20248 net.cpp:425] inception_3a/3x3_reduce <- pool2/3x3_s2_pool2/3x3_s2_0_split_1
I0924 00:24:11.751756 20248 net.cpp:399] inception_3a/3x3_reduce -> inception_3a/3x3_reduce
I0924 00:24:11.754065 20248 net.cpp:141] Setting up inception_3a/3x3_reduce
I0924 00:24:11.754082 20248 net.cpp:148] Top shape: 10 96 28 28 (752640)
I0924 00:24:11.754087 20248 net.cpp:156] Memory required for data: 211742720
I0924 00:24:11.754099 20248 layer_factory.hpp:77] Creating layer inception_3a/relu_3x3_reduce
I0924 00:24:11.754112 20248 net.cpp:91] Creating Layer inception_3a/relu_3x3_reduce
I0924 00:24:11.754117 20248 net.cpp:425] inception_3a/relu_3x3_reduce <- inception_3a/3x3_reduce
I0924 00:24:11.754124 20248 net.cpp:386] inception_3a/relu_3x3_reduce -> inception_3a/3x3_reduce (in-place)
I0924 00:24:11.754361 20248 net.cpp:141] Setting up inception_3a/relu_3x3_reduce
I0924 00:24:11.754372 20248 net.cpp:148] Top shape: 10 96 28 28 (752640)
I0924 00:24:11.754376 20248 net.cpp:156] Memory required for data: 214753280
I0924 00:24:11.754381 20248 layer_factory.hpp:77] Creating layer inception_3a/3x3
I0924 00:24:11.754397 20248 net.cpp:91] Creating Layer inception_3a/3x3
I0924 00:24:11.754403 20248 net.cpp:425] inception_3a/3x3 <- inception_3a/3x3_reduce
I0924 00:24:11.754417 20248 net.cpp:399] inception_3a/3x3 -> inception_3a/3x3
I0924 00:24:11.756564 20248 net.cpp:141] Setting up inception_3a/3x3
I0924 00:24:11.756582 20248 net.cpp:148] Top shape: 10 128 28 28 (1003520)
I0924 00:24:11.756587 20248 net.cpp:156] Memory required for data: 218767360
I0924 00:24:11.756595 20248 layer_factory.hpp:77] Creating layer inception_3a/relu_3x3
I0924 00:24:11.756603 20248 net.cpp:91] Creating Layer inception_3a/relu_3x3
I0924 00:24:11.756608 20248 net.cpp:425] inception_3a/relu_3x3 <- inception_3a/3x3
I0924 00:24:11.756619 20248 net.cpp:386] inception_3a/relu_3x3 -> inception_3a/3x3 (in-place)
I0924 00:24:11.757004 20248 net.cpp:141] Setting up inception_3a/relu_3x3
I0924 00:24:11.757015 20248 net.cpp:148] Top shape: 10 128 28 28 (1003520)
I0924 00:24:11.757020 20248 net.cpp:156] Memory required for data: 222781440
I0924 00:24:11.757025 20248 layer_factory.hpp:77] Creating layer inception_3a/5x5_reduce
I0924 00:24:11.757040 20248 net.cpp:91] Creating Layer inception_3a/5x5_reduce
I0924 00:24:11.757045 20248 net.cpp:425] inception_3a/5x5_reduce <- pool2/3x3_s2_pool2/3x3_s2_0_split_2
I0924 00:24:11.757055 20248 net.cpp:399] inception_3a/5x5_reduce -> inception_3a/5x5_reduce
I0924 00:24:11.758276 20248 net.cpp:141] Setting up inception_3a/5x5_reduce
I0924 00:24:11.758297 20248 net.cpp:148] Top shape: 10 16 28 28 (125440)
I0924 00:24:11.758302 20248 net.cpp:156] Memory required for data: 223283200
I0924 00:24:11.758311 20248 layer_factory.hpp:77] Creating layer inception_3a/relu_5x5_reduce
I0924 00:24:11.758318 20248 net.cpp:91] Creating Layer inception_3a/relu_5x5_reduce
I0924 00:24:11.758324 20248 net.cpp:425] inception_3a/relu_5x5_reduce <- inception_3a/5x5_reduce
I0924 00:24:11.758330 20248 net.cpp:386] inception_3a/relu_5x5_reduce -> inception_3a/5x5_reduce (in-place)
I0924 00:24:11.758735 20248 net.cpp:141] Setting up inception_3a/relu_5x5_reduce
I0924 00:24:11.758750 20248 net.cpp:148] Top shape: 10 16 28 28 (125440)
I0924 00:24:11.758754 20248 net.cpp:156] Memory required for data: 223784960
I0924 00:24:11.758759 20248 layer_factory.hpp:77] Creating layer inception_3a/5x5
I0924 00:24:11.758774 20248 net.cpp:91] Creating Layer inception_3a/5x5
I0924 00:24:11.758780 20248 net.cpp:425] inception_3a/5x5 <- inception_3a/5x5_reduce
I0924 00:24:11.758788 20248 net.cpp:399] inception_3a/5x5 -> inception_3a/5x5
I0924 00:24:11.760578 20248 net.cpp:141] Setting up inception_3a/5x5
I0924 00:24:11.760597 20248 net.cpp:148] Top shape: 10 32 28 28 (250880)
I0924 00:24:11.760601 20248 net.cpp:156] Memory required for data: 224788480
I0924 00:24:11.760609 20248 layer_factory.hpp:77] Creating layer inception_3a/relu_5x5
I0924 00:24:11.760622 20248 net.cpp:91] Creating Layer inception_3a/relu_5x5
I0924 00:24:11.760627 20248 net.cpp:425] inception_3a/relu_5x5 <- inception_3a/5x5
I0924 00:24:11.760633 20248 net.cpp:386] inception_3a/relu_5x5 -> inception_3a/5x5 (in-place)
I0924 00:24:11.760870 20248 net.cpp:141] Setting up inception_3a/relu_5x5
I0924 00:24:11.760881 20248 net.cpp:148] Top shape: 10 32 28 28 (250880)
I0924 00:24:11.760885 20248 net.cpp:156] Memory required for data: 225792000
I0924 00:24:11.760890 20248 layer_factory.hpp:77] Creating layer inception_3a/pool
I0924 00:24:11.760902 20248 net.cpp:91] Creating Layer inception_3a/pool
I0924 00:24:11.760907 20248 net.cpp:425] inception_3a/pool <- pool2/3x3_s2_pool2/3x3_s2_0_split_3
I0924 00:24:11.760916 20248 net.cpp:399] inception_3a/pool -> inception_3a/pool
I0924 00:24:11.760972 20248 net.cpp:141] Setting up inception_3a/pool
I0924 00:24:11.760980 20248 net.cpp:148] Top shape: 10 192 28 28 (1505280)
I0924 00:24:11.760984 20248 net.cpp:156] Memory required for data: 231813120
I0924 00:24:11.760989 20248 layer_factory.hpp:77] Creating layer inception_3a/pool_proj
I0924 00:24:11.761013 20248 net.cpp:91] Creating Layer inception_3a/pool_proj
I0924 00:24:11.761018 20248 net.cpp:425] inception_3a/pool_proj <- inception_3a/pool
I0924 00:24:11.761029 20248 net.cpp:399] inception_3a/pool_proj -> inception_3a/pool_proj
I0924 00:24:11.762403 20248 net.cpp:141] Setting up inception_3a/pool_proj
I0924 00:24:11.762419 20248 net.cpp:148] Top shape: 10 32 28 28 (250880)
I0924 00:24:11.762424 20248 net.cpp:156] Memory required for data: 232816640
I0924 00:24:11.762439 20248 layer_factory.hpp:77] Creating layer inception_3a/relu_pool_proj
I0924 00:24:11.762446 20248 net.cpp:91] Creating Layer inception_3a/relu_pool_proj
I0924 00:24:11.762451 20248 net.cpp:425] inception_3a/relu_pool_proj <- inception_3a/pool_proj
I0924 00:24:11.762459 20248 net.cpp:386] inception_3a/relu_pool_proj -> inception_3a/pool_proj (in-place)
I0924 00:24:11.762866 20248 net.cpp:141] Setting up inception_3a/relu_pool_proj
I0924 00:24:11.762881 20248 net.cpp:148] Top shape: 10 32 28 28 (250880)
I0924 00:24:11.762886 20248 net.cpp:156] Memory required for data: 233820160
I0924 00:24:11.762890 20248 layer_factory.hpp:77] Creating layer inception_3a/output
I0924 00:24:11.762903 20248 net.cpp:91] Creating Layer inception_3a/output
I0924 00:24:11.762908 20248 net.cpp:425] inception_3a/output <- inception_3a/1x1
I0924 00:24:11.762914 20248 net.cpp:425] inception_3a/output <- inception_3a/3x3
I0924 00:24:11.762919 20248 net.cpp:425] inception_3a/output <- inception_3a/5x5
I0924 00:24:11.762924 20248 net.cpp:425] inception_3a/output <- inception_3a/pool_proj
I0924 00:24:11.762930 20248 net.cpp:399] inception_3a/output -> inception_3a/output
I0924 00:24:11.762971 20248 net.cpp:141] Setting up inception_3a/output
I0924 00:24:11.762980 20248 net.cpp:148] Top shape: 10 256 28 28 (2007040)
I0924 00:24:11.762984 20248 net.cpp:156] Memory required for data: 241848320
I0924 00:24:11.762989 20248 layer_factory.hpp:77] Creating layer inception_3a/output_inception_3a/output_0_split
I0924 00:24:11.762998 20248 net.cpp:91] Creating Layer inception_3a/output_inception_3a/output_0_split
I0924 00:24:11.763003 20248 net.cpp:425] inception_3a/output_inception_3a/output_0_split <- inception_3a/output
I0924 00:24:11.763010 20248 net.cpp:399] inception_3a/output_inception_3a/output_0_split -> inception_3a/output_inception_3a/output_0_split_0
I0924 00:24:11.763017 20248 net.cpp:399] inception_3a/output_inception_3a/output_0_split -> inception_3a/output_inception_3a/output_0_split_1
I0924 00:24:11.763025 20248 net.cpp:399] inception_3a/output_inception_3a/output_0_split -> inception_3a/output_inception_3a/output_0_split_2
I0924 00:24:11.763032 20248 net.cpp:399] inception_3a/output_inception_3a/output_0_split -> inception_3a/output_inception_3a/output_0_split_3
I0924 00:24:11.763108 20248 net.cpp:141] Setting up inception_3a/output_inception_3a/output_0_split
I0924 00:24:11.763118 20248 net.cpp:148] Top shape: 10 256 28 28 (2007040)
I0924 00:24:11.763123 20248 net.cpp:148] Top shape: 10 256 28 28 (2007040)
I0924 00:24:11.763128 20248 net.cpp:148] Top shape: 10 256 28 28 (2007040)
I0924 00:24:11.763134 20248 net.cpp:148] Top shape: 10 256 28 28 (2007040)
I0924 00:24:11.763136 20248 net.cpp:156] Memory required for data: 273960960
I0924 00:24:11.763141 20248 layer_factory.hpp:77] Creating layer inception_3b/1x1
I0924 00:24:11.763157 20248 net.cpp:91] Creating Layer inception_3b/1x1
I0924 00:24:11.763162 20248 net.cpp:425] inception_3b/1x1 <- inception_3a/output_inception_3a/output_0_split_0
I0924 00:24:11.763172 20248 net.cpp:399] inception_3b/1x1 -> inception_3b/1x1
I0924 00:24:11.764561 20248 net.cpp:141] Setting up inception_3b/1x1
I0924 00:24:11.764575 20248 net.cpp:148] Top shape: 10 128 28 28 (1003520)
I0924 00:24:11.764580 20248 net.cpp:156] Memory required for data: 277975040
I0924 00:24:11.764587 20248 layer_factory.hpp:77] Creating layer inception_3b/relu_1x1
I0924 00:24:11.764597 20248 net.cpp:91] Creating Layer inception_3b/relu_1x1
I0924 00:24:11.764602 20248 net.cpp:425] inception_3b/relu_1x1 <- inception_3b/1x1
I0924 00:24:11.764610 20248 net.cpp:386] inception_3b/relu_1x1 -> inception_3b/1x1 (in-place)
I0924 00:24:11.764997 20248 net.cpp:141] Setting up inception_3b/relu_1x1
I0924 00:24:11.765009 20248 net.cpp:148] Top shape: 10 128 28 28 (1003520)
I0924 00:24:11.765014 20248 net.cpp:156] Memory required for data: 281989120
I0924 00:24:11.765018 20248 layer_factory.hpp:77] Creating layer inception_3b/3x3_reduce
I0924 00:24:11.765033 20248 net.cpp:91] Creating Layer inception_3b/3x3_reduce
I0924 00:24:11.765038 20248 net.cpp:425] inception_3b/3x3_reduce <- inception_3a/output_inception_3a/output_0_split_1
I0924 00:24:11.765048 20248 net.cpp:399] inception_3b/3x3_reduce -> inception_3b/3x3_reduce
I0924 00:24:11.766630 20248 net.cpp:141] Setting up inception_3b/3x3_reduce
I0924 00:24:11.766649 20248 net.cpp:148] Top shape: 10 128 28 28 (1003520)
I0924 00:24:11.766654 20248 net.cpp:156] Memory required for data: 286003200
I0924 00:24:11.766662 20248 layer_factory.hpp:77] Creating layer inception_3b/relu_3x3_reduce
I0924 00:24:11.766669 20248 net.cpp:91] Creating Layer inception_3b/relu_3x3_reduce
I0924 00:24:11.766677 20248 net.cpp:425] inception_3b/relu_3x3_reduce <- inception_3b/3x3_reduce
I0924 00:24:11.766685 20248 net.cpp:386] inception_3b/relu_3x3_reduce -> inception_3b/3x3_reduce (in-place)
I0924 00:24:11.766911 20248 net.cpp:141] Setting up inception_3b/relu_3x3_reduce
I0924 00:24:11.766921 20248 net.cpp:148] Top shape: 10 128 28 28 (1003520)
I0924 00:24:11.766927 20248 net.cpp:156] Memory required for data: 290017280
I0924 00:24:11.766930 20248 layer_factory.hpp:77] Creating layer inception_3b/3x3
I0924 00:24:11.766947 20248 net.cpp:91] Creating Layer inception_3b/3x3
I0924 00:24:11.766953 20248 net.cpp:425] inception_3b/3x3 <- inception_3b/3x3_reduce
I0924 00:24:11.766962 20248 net.cpp:399] inception_3b/3x3 -> inception_3b/3x3
I0924 00:24:11.770612 20248 net.cpp:141] Setting up inception_3b/3x3
I0924 00:24:11.770629 20248 net.cpp:148] Top shape: 10 192 28 28 (1505280)
I0924 00:24:11.770634 20248 net.cpp:156] Memory required for data: 296038400
I0924 00:24:11.770642 20248 layer_factory.hpp:77] Creating layer inception_3b/relu_3x3
I0924 00:24:11.770664 20248 net.cpp:91] Creating Layer inception_3b/relu_3x3
I0924 00:24:11.770670 20248 net.cpp:425] inception_3b/relu_3x3 <- inception_3b/3x3
I0924 00:24:11.770676 20248 net.cpp:386] inception_3b/relu_3x3 -> inception_3b/3x3 (in-place)
I0924 00:24:11.771086 20248 net.cpp:141] Setting up inception_3b/relu_3x3
I0924 00:24:11.771101 20248 net.cpp:148] Top shape: 10 192 28 28 (1505280)
I0924 00:24:11.771106 20248 net.cpp:156] Memory required for data: 302059520
I0924 00:24:11.771111 20248 layer_factory.hpp:77] Creating layer inception_3b/5x5_reduce
I0924 00:24:11.771126 20248 net.cpp:91] Creating Layer inception_3b/5x5_reduce
I0924 00:24:11.771131 20248 net.cpp:425] inception_3b/5x5_reduce <- inception_3a/output_inception_3a/output_0_split_2
I0924 00:24:11.771139 20248 net.cpp:399] inception_3b/5x5_reduce -> inception_3b/5x5_reduce
I0924 00:24:11.772390 20248 net.cpp:141] Setting up inception_3b/5x5_reduce
I0924 00:24:11.772408 20248 net.cpp:148] Top shape: 10 32 28 28 (250880)
I0924 00:24:11.772413 20248 net.cpp:156] Memory required for data: 303063040
I0924 00:24:11.772421 20248 layer_factory.hpp:77] Creating layer inception_3b/relu_5x5_reduce
I0924 00:24:11.772429 20248 net.cpp:91] Creating Layer inception_3b/relu_5x5_reduce
I0924 00:24:11.772435 20248 net.cpp:425] inception_3b/relu_5x5_reduce <- inception_3b/5x5_reduce
I0924 00:24:11.772444 20248 net.cpp:386] inception_3b/relu_5x5_reduce -> inception_3b/5x5_reduce (in-place)
I0924 00:24:11.772833 20248 net.cpp:141] Setting up inception_3b/relu_5x5_reduce
I0924 00:24:11.772845 20248 net.cpp:148] Top shape: 10 32 28 28 (250880)
I0924 00:24:11.772850 20248 net.cpp:156] Memory required for data: 304066560
I0924 00:24:11.772855 20248 layer_factory.hpp:77] Creating layer inception_3b/5x5
I0924 00:24:11.772869 20248 net.cpp:91] Creating Layer inception_3b/5x5
I0924 00:24:11.772874 20248 net.cpp:425] inception_3b/5x5 <- inception_3b/5x5_reduce
I0924 00:24:11.772886 20248 net.cpp:399] inception_3b/5x5 -> inception_3b/5x5
I0924 00:24:11.775460 20248 net.cpp:141] Setting up inception_3b/5x5
I0924 00:24:11.775480 20248 net.cpp:148] Top shape: 10 96 28 28 (752640)
I0924 00:24:11.775485 20248 net.cpp:156] Memory required for data: 307077120
I0924 00:24:11.775492 20248 layer_factory.hpp:77] Creating layer inception_3b/relu_5x5
I0924 00:24:11.775501 20248 net.cpp:91] Creating Layer inception_3b/relu_5x5
I0924 00:24:11.775506 20248 net.cpp:425] inception_3b/relu_5x5 <- inception_3b/5x5
I0924 00:24:11.775516 20248 net.cpp:386] inception_3b/relu_5x5 -> inception_3b/5x5 (in-place)
I0924 00:24:11.775740 20248 net.cpp:141] Setting up inception_3b/relu_5x5
I0924 00:24:11.775751 20248 net.cpp:148] Top shape: 10 96 28 28 (752640)
I0924 00:24:11.775755 20248 net.cpp:156] Memory required for data: 310087680
I0924 00:24:11.775760 20248 layer_factory.hpp:77] Creating layer inception_3b/pool
I0924 00:24:11.775771 20248 net.cpp:91] Creating Layer inception_3b/pool
I0924 00:24:11.775776 20248 net.cpp:425] inception_3b/pool <- inception_3a/output_inception_3a/output_0_split_3
I0924 00:24:11.775784 20248 net.cpp:399] inception_3b/pool -> inception_3b/pool
I0924 00:24:11.775843 20248 net.cpp:141] Setting up inception_3b/pool
I0924 00:24:11.775852 20248 net.cpp:148] Top shape: 10 256 28 28 (2007040)
I0924 00:24:11.775856 20248 net.cpp:156] Memory required for data: 318115840
I0924 00:24:11.775861 20248 layer_factory.hpp:77] Creating layer inception_3b/pool_proj
I0924 00:24:11.775874 20248 net.cpp:91] Creating Layer inception_3b/pool_proj
I0924 00:24:11.775879 20248 net.cpp:425] inception_3b/pool_proj <- inception_3b/pool
I0924 00:24:11.775889 20248 net.cpp:399] inception_3b/pool_proj -> inception_3b/pool_proj
I0924 00:24:11.777374 20248 net.cpp:141] Setting up inception_3b/pool_proj
I0924 00:24:11.777395 20248 net.cpp:148] Top shape: 10 64 28 28 (501760)
I0924 00:24:11.777400 20248 net.cpp:156] Memory required for data: 320122880
I0924 00:24:11.777407 20248 layer_factory.hpp:77] Creating layer inception_3b/relu_pool_proj
I0924 00:24:11.777415 20248 net.cpp:91] Creating Layer inception_3b/relu_pool_proj
I0924 00:24:11.777420 20248 net.cpp:425] inception_3b/relu_pool_proj <- inception_3b/pool_proj
I0924 00:24:11.777426 20248 net.cpp:386] inception_3b/relu_pool_proj -> inception_3b/pool_proj (in-place)
I0924 00:24:11.777820 20248 net.cpp:141] Setting up inception_3b/relu_pool_proj
I0924 00:24:11.777834 20248 net.cpp:148] Top shape: 10 64 28 28 (501760)
I0924 00:24:11.777839 20248 net.cpp:156] Memory required for data: 322129920
I0924 00:24:11.777843 20248 layer_factory.hpp:77] Creating layer inception_3b/output
I0924 00:24:11.777851 20248 net.cpp:91] Creating Layer inception_3b/output
I0924 00:24:11.777856 20248 net.cpp:425] inception_3b/output <- inception_3b/1x1
I0924 00:24:11.777861 20248 net.cpp:425] inception_3b/output <- inception_3b/3x3
I0924 00:24:11.777866 20248 net.cpp:425] inception_3b/output <- inception_3b/5x5
I0924 00:24:11.777871 20248 net.cpp:425] inception_3b/output <- inception_3b/pool_proj
I0924 00:24:11.777878 20248 net.cpp:399] inception_3b/output -> inception_3b/output
I0924 00:24:11.777917 20248 net.cpp:141] Setting up inception_3b/output
I0924 00:24:11.777926 20248 net.cpp:148] Top shape: 10 480 28 28 (3763200)
I0924 00:24:11.777931 20248 net.cpp:156] Memory required for data: 337182720
I0924 00:24:11.777935 20248 layer_factory.hpp:77] Creating layer pool3/3x3_s2
I0924 00:24:11.777945 20248 net.cpp:91] Creating Layer pool3/3x3_s2
I0924 00:24:11.777950 20248 net.cpp:425] pool3/3x3_s2 <- inception_3b/output
I0924 00:24:11.777956 20248 net.cpp:399] pool3/3x3_s2 -> pool3/3x3_s2
I0924 00:24:11.778012 20248 net.cpp:141] Setting up pool3/3x3_s2
I0924 00:24:11.778022 20248 net.cpp:148] Top shape: 10 480 14 14 (940800)
I0924 00:24:11.778025 20248 net.cpp:156] Memory required for data: 340945920
I0924 00:24:11.778029 20248 layer_factory.hpp:77] Creating layer pool3/3x3_s2_pool3/3x3_s2_0_split
I0924 00:24:11.778036 20248 net.cpp:91] Creating Layer pool3/3x3_s2_pool3/3x3_s2_0_split
I0924 00:24:11.778041 20248 net.cpp:425] pool3/3x3_s2_pool3/3x3_s2_0_split <- pool3/3x3_s2
I0924 00:24:11.778051 20248 net.cpp:399] pool3/3x3_s2_pool3/3x3_s2_0_split -> pool3/3x3_s2_pool3/3x3_s2_0_split_0
I0924 00:24:11.778060 20248 net.cpp:399] pool3/3x3_s2_pool3/3x3_s2_0_split -> pool3/3x3_s2_pool3/3x3_s2_0_split_1
I0924 00:24:11.778067 20248 net.cpp:399] pool3/3x3_s2_pool3/3x3_s2_0_split -> pool3/3x3_s2_pool3/3x3_s2_0_split_2
I0924 00:24:11.778076 20248 net.cpp:399] pool3/3x3_s2_pool3/3x3_s2_0_split -> pool3/3x3_s2_pool3/3x3_s2_0_split_3
I0924 00:24:11.778163 20248 net.cpp:141] Setting up pool3/3x3_s2_pool3/3x3_s2_0_split
I0924 00:24:11.778172 20248 net.cpp:148] Top shape: 10 480 14 14 (940800)
I0924 00:24:11.778177 20248 net.cpp:148] Top shape: 10 480 14 14 (940800)
I0924 00:24:11.778182 20248 net.cpp:148] Top shape: 10 480 14 14 (940800)
I0924 00:24:11.778187 20248 net.cpp:148] Top shape: 10 480 14 14 (940800)
I0924 00:24:11.778190 20248 net.cpp:156] Memory required for data: 355998720
I0924 00:24:11.778195 20248 layer_factory.hpp:77] Creating layer inception_4a/1x1
I0924 00:24:11.778208 20248 net.cpp:91] Creating Layer inception_4a/1x1
I0924 00:24:11.778213 20248 net.cpp:425] inception_4a/1x1 <- pool3/3x3_s2_pool3/3x3_s2_0_split_0
I0924 00:24:11.778224 20248 net.cpp:399] inception_4a/1x1 -> inception_4a/1x1
I0924 00:24:11.780275 20248 net.cpp:141] Setting up inception_4a/1x1
I0924 00:24:11.780293 20248 net.cpp:148] Top shape: 10 192 14 14 (376320)
I0924 00:24:11.780298 20248 net.cpp:156] Memory required for data: 357504000
I0924 00:24:11.780306 20248 layer_factory.hpp:77] Creating layer inception_4a/relu_1x1
I0924 00:24:11.780318 20248 net.cpp:91] Creating Layer inception_4a/relu_1x1
I0924 00:24:11.780323 20248 net.cpp:425] inception_4a/relu_1x1 <- inception_4a/1x1
I0924 00:24:11.780330 20248 net.cpp:386] inception_4a/relu_1x1 -> inception_4a/1x1 (in-place)
I0924 00:24:11.780720 20248 net.cpp:141] Setting up inception_4a/relu_1x1
I0924 00:24:11.780732 20248 net.cpp:148] Top shape: 10 192 14 14 (376320)
I0924 00:24:11.780736 20248 net.cpp:156] Memory required for data: 359009280
I0924 00:24:11.780741 20248 layer_factory.hpp:77] Creating layer inception_4a/3x3_reduce
I0924 00:24:11.780755 20248 net.cpp:91] Creating Layer inception_4a/3x3_reduce
I0924 00:24:11.780761 20248 net.cpp:425] inception_4a/3x3_reduce <- pool3/3x3_s2_pool3/3x3_s2_0_split_1
I0924 00:24:11.780774 20248 net.cpp:399] inception_4a/3x3_reduce -> inception_4a/3x3_reduce
I0924 00:24:11.782538 20248 net.cpp:141] Setting up inception_4a/3x3_reduce
I0924 00:24:11.782569 20248 net.cpp:148] Top shape: 10 96 14 14 (188160)
I0924 00:24:11.782574 20248 net.cpp:156] Memory required for data: 359761920
I0924 00:24:11.782608 20248 layer_factory.hpp:77] Creating layer inception_4a/relu_3x3_reduce
I0924 00:24:11.782620 20248 net.cpp:91] Creating Layer inception_4a/relu_3x3_reduce
I0924 00:24:11.782626 20248 net.cpp:425] inception_4a/relu_3x3_reduce <- inception_4a/3x3_reduce
I0924 00:24:11.782639 20248 net.cpp:386] inception_4a/relu_3x3_reduce -> inception_4a/3x3_reduce (in-place)
I0924 00:24:11.782866 20248 net.cpp:141] Setting up inception_4a/relu_3x3_reduce
I0924 00:24:11.782878 20248 net.cpp:148] Top shape: 10 96 14 14 (188160)
I0924 00:24:11.782882 20248 net.cpp:156] Memory required for data: 360514560
I0924 00:24:11.782887 20248 layer_factory.hpp:77] Creating layer inception_4a/3x3
I0924 00:24:11.782903 20248 net.cpp:91] Creating Layer inception_4a/3x3
I0924 00:24:11.782908 20248 net.cpp:425] inception_4a/3x3 <- inception_4a/3x3_reduce
I0924 00:24:11.782919 20248 net.cpp:399] inception_4a/3x3 -> inception_4a/3x3
I0924 00:24:11.786231 20248 net.cpp:141] Setting up inception_4a/3x3
I0924 00:24:11.786245 20248 net.cpp:148] Top shape: 10 208 14 14 (407680)
I0924 00:24:11.786250 20248 net.cpp:156] Memory required for data: 362145280
I0924 00:24:11.786258 20248 layer_factory.hpp:77] Creating layer inception_4a/relu_3x3
I0924 00:24:11.786269 20248 net.cpp:91] Creating Layer inception_4a/relu_3x3
I0924 00:24:11.786275 20248 net.cpp:425] inception_4a/relu_3x3 <- inception_4a/3x3
I0924 00:24:11.786281 20248 net.cpp:386] inception_4a/relu_3x3 -> inception_4a/3x3 (in-place)
I0924 00:24:11.786685 20248 net.cpp:141] Setting up inception_4a/relu_3x3
I0924 00:24:11.786698 20248 net.cpp:148] Top shape: 10 208 14 14 (407680)
I0924 00:24:11.786702 20248 net.cpp:156] Memory required for data: 363776000
I0924 00:24:11.786707 20248 layer_factory.hpp:77] Creating layer inception_4a/5x5_reduce
I0924 00:24:11.786722 20248 net.cpp:91] Creating Layer inception_4a/5x5_reduce
I0924 00:24:11.786728 20248 net.cpp:425] inception_4a/5x5_reduce <- pool3/3x3_s2_pool3/3x3_s2_0_split_2
I0924 00:24:11.786737 20248 net.cpp:399] inception_4a/5x5_reduce -> inception_4a/5x5_reduce
I0924 00:24:11.788002 20248 net.cpp:141] Setting up inception_4a/5x5_reduce
I0924 00:24:11.788019 20248 net.cpp:148] Top shape: 10 16 14 14 (31360)
I0924 00:24:11.788024 20248 net.cpp:156] Memory required for data: 363901440
I0924 00:24:11.788033 20248 layer_factory.hpp:77] Creating layer inception_4a/relu_5x5_reduce
I0924 00:24:11.788040 20248 net.cpp:91] Creating Layer inception_4a/relu_5x5_reduce
I0924 00:24:11.788045 20248 net.cpp:425] inception_4a/relu_5x5_reduce <- inception_4a/5x5_reduce
I0924 00:24:11.788055 20248 net.cpp:386] inception_4a/relu_5x5_reduce -> inception_4a/5x5_reduce (in-place)
I0924 00:24:11.788444 20248 net.cpp:141] Setting up inception_4a/relu_5x5_reduce
I0924 00:24:11.788455 20248 net.cpp:148] Top shape: 10 16 14 14 (31360)
I0924 00:24:11.788460 20248 net.cpp:156] Memory required for data: 364026880
I0924 00:24:11.788465 20248 layer_factory.hpp:77] Creating layer inception_4a/5x5
I0924 00:24:11.788478 20248 net.cpp:91] Creating Layer inception_4a/5x5
I0924 00:24:11.788485 20248 net.cpp:425] inception_4a/5x5 <- inception_4a/5x5_reduce
I0924 00:24:11.788494 20248 net.cpp:399] inception_4a/5x5 -> inception_4a/5x5
I0924 00:24:11.790029 20248 net.cpp:141] Setting up inception_4a/5x5
I0924 00:24:11.790057 20248 net.cpp:148] Top shape: 10 48 14 14 (94080)
I0924 00:24:11.790063 20248 net.cpp:156] Memory required for data: 364403200
I0924 00:24:11.790071 20248 layer_factory.hpp:77] Creating layer inception_4a/relu_5x5
I0924 00:24:11.790081 20248 net.cpp:91] Creating Layer inception_4a/relu_5x5
I0924 00:24:11.790087 20248 net.cpp:425] inception_4a/relu_5x5 <- inception_4a/5x5
I0924 00:24:11.790093 20248 net.cpp:386] inception_4a/relu_5x5 -> inception_4a/5x5 (in-place)
I0924 00:24:11.790333 20248 net.cpp:141] Setting up inception_4a/relu_5x5
I0924 00:24:11.790344 20248 net.cpp:148] Top shape: 10 48 14 14 (94080)
I0924 00:24:11.790349 20248 net.cpp:156] Memory required for data: 364779520
I0924 00:24:11.790354 20248 layer_factory.hpp:77] Creating layer inception_4a/pool
I0924 00:24:11.790364 20248 net.cpp:91] Creating Layer inception_4a/pool
I0924 00:24:11.790369 20248 net.cpp:425] inception_4a/pool <- pool3/3x3_s2_pool3/3x3_s2_0_split_3
I0924 00:24:11.790379 20248 net.cpp:399] inception_4a/pool -> inception_4a/pool
I0924 00:24:11.790438 20248 net.cpp:141] Setting up inception_4a/pool
I0924 00:24:11.790447 20248 net.cpp:148] Top shape: 10 480 14 14 (940800)
I0924 00:24:11.790452 20248 net.cpp:156] Memory required for data: 368542720
I0924 00:24:11.790455 20248 layer_factory.hpp:77] Creating layer inception_4a/pool_proj
I0924 00:24:11.790468 20248 net.cpp:91] Creating Layer inception_4a/pool_proj
I0924 00:24:11.790473 20248 net.cpp:425] inception_4a/pool_proj <- inception_4a/pool
I0924 00:24:11.790483 20248 net.cpp:399] inception_4a/pool_proj -> inception_4a/pool_proj
I0924 00:24:11.792122 20248 net.cpp:141] Setting up inception_4a/pool_proj
I0924 00:24:11.792155 20248 net.cpp:148] Top shape: 10 64 14 14 (125440)
I0924 00:24:11.792160 20248 net.cpp:156] Memory required for data: 369044480
I0924 00:24:11.792168 20248 layer_factory.hpp:77] Creating layer inception_4a/relu_pool_proj
I0924 00:24:11.792176 20248 net.cpp:91] Creating Layer inception_4a/relu_pool_proj
I0924 00:24:11.792182 20248 net.cpp:425] inception_4a/relu_pool_proj <- inception_4a/pool_proj
I0924 00:24:11.792188 20248 net.cpp:386] inception_4a/relu_pool_proj -> inception_4a/pool_proj (in-place)
I0924 00:24:11.792585 20248 net.cpp:141] Setting up inception_4a/relu_pool_proj
I0924 00:24:11.792599 20248 net.cpp:148] Top shape: 10 64 14 14 (125440)
I0924 00:24:11.792604 20248 net.cpp:156] Memory required for data: 369546240
I0924 00:24:11.792608 20248 layer_factory.hpp:77] Creating layer inception_4a/output
I0924 00:24:11.792616 20248 net.cpp:91] Creating Layer inception_4a/output
I0924 00:24:11.792621 20248 net.cpp:425] inception_4a/output <- inception_4a/1x1
I0924 00:24:11.792628 20248 net.cpp:425] inception_4a/output <- inception_4a/3x3
I0924 00:24:11.792632 20248 net.cpp:425] inception_4a/output <- inception_4a/5x5
I0924 00:24:11.792637 20248 net.cpp:425] inception_4a/output <- inception_4a/pool_proj
I0924 00:24:11.792642 20248 net.cpp:399] inception_4a/output -> inception_4a/output
I0924 00:24:11.792685 20248 net.cpp:141] Setting up inception_4a/output
I0924 00:24:11.792695 20248 net.cpp:148] Top shape: 10 512 14 14 (1003520)
I0924 00:24:11.792700 20248 net.cpp:156] Memory required for data: 373560320
I0924 00:24:11.792703 20248 layer_factory.hpp:77] Creating layer inception_4a/output_inception_4a/output_0_split
I0924 00:24:11.792713 20248 net.cpp:91] Creating Layer inception_4a/output_inception_4a/output_0_split
I0924 00:24:11.792718 20248 net.cpp:425] inception_4a/output_inception_4a/output_0_split <- inception_4a/output
I0924 00:24:11.792724 20248 net.cpp:399] inception_4a/output_inception_4a/output_0_split -> inception_4a/output_inception_4a/output_0_split_0
I0924 00:24:11.792733 20248 net.cpp:399] inception_4a/output_inception_4a/output_0_split -> inception_4a/output_inception_4a/output_0_split_1
I0924 00:24:11.792742 20248 net.cpp:399] inception_4a/output_inception_4a/output_0_split -> inception_4a/output_inception_4a/output_0_split_2
I0924 00:24:11.792748 20248 net.cpp:399] inception_4a/output_inception_4a/output_0_split -> inception_4a/output_inception_4a/output_0_split_3
I0924 00:24:11.792831 20248 net.cpp:141] Setting up inception_4a/output_inception_4a/output_0_split
I0924 00:24:11.792840 20248 net.cpp:148] Top shape: 10 512 14 14 (1003520)
I0924 00:24:11.792845 20248 net.cpp:148] Top shape: 10 512 14 14 (1003520)
I0924 00:24:11.792850 20248 net.cpp:148] Top shape: 10 512 14 14 (1003520)
I0924 00:24:11.792855 20248 net.cpp:148] Top shape: 10 512 14 14 (1003520)
I0924 00:24:11.792860 20248 net.cpp:156] Memory required for data: 389616640
I0924 00:24:11.792863 20248 layer_factory.hpp:77] Creating layer inception_4b/1x1
I0924 00:24:11.792876 20248 net.cpp:91] Creating Layer inception_4b/1x1
I0924 00:24:11.792881 20248 net.cpp:425] inception_4b/1x1 <- inception_4a/output_inception_4a/output_0_split_0
I0924 00:24:11.792891 20248 net.cpp:399] inception_4b/1x1 -> inception_4b/1x1
I0924 00:24:11.794723 20248 net.cpp:141] Setting up inception_4b/1x1
I0924 00:24:11.794742 20248 net.cpp:148] Top shape: 10 160 14 14 (313600)
I0924 00:24:11.794749 20248 net.cpp:156] Memory required for data: 390871040
I0924 00:24:11.794756 20248 layer_factory.hpp:77] Creating layer inception_4b/relu_1x1
I0924 00:24:11.794764 20248 net.cpp:91] Creating Layer inception_4b/relu_1x1
I0924 00:24:11.794770 20248 net.cpp:425] inception_4b/relu_1x1 <- inception_4b/1x1
I0924 00:24:11.794775 20248 net.cpp:386] inception_4b/relu_1x1 -> inception_4b/1x1 (in-place)
I0924 00:24:11.795197 20248 net.cpp:141] Setting up inception_4b/relu_1x1
I0924 00:24:11.795212 20248 net.cpp:148] Top shape: 10 160 14 14 (313600)
I0924 00:24:11.795215 20248 net.cpp:156] Memory required for data: 392125440
I0924 00:24:11.795220 20248 layer_factory.hpp:77] Creating layer inception_4b/3x3_reduce
I0924 00:24:11.795234 20248 net.cpp:91] Creating Layer inception_4b/3x3_reduce
I0924 00:24:11.795240 20248 net.cpp:425] inception_4b/3x3_reduce <- inception_4a/output_inception_4a/output_0_split_1
I0924 00:24:11.795248 20248 net.cpp:399] inception_4b/3x3_reduce -> inception_4b/3x3_reduce
I0924 00:24:11.797098 20248 net.cpp:141] Setting up inception_4b/3x3_reduce
I0924 00:24:11.797116 20248 net.cpp:148] Top shape: 10 112 14 14 (219520)
I0924 00:24:11.797134 20248 net.cpp:156] Memory required for data: 393003520
I0924 00:24:11.797142 20248 layer_factory.hpp:77] Creating layer inception_4b/relu_3x3_reduce
I0924 00:24:11.797152 20248 net.cpp:91] Creating Layer inception_4b/relu_3x3_reduce
I0924 00:24:11.797158 20248 net.cpp:425] inception_4b/relu_3x3_reduce <- inception_4b/3x3_reduce
I0924 00:24:11.797164 20248 net.cpp:386] inception_4b/relu_3x3_reduce -> inception_4b/3x3_reduce (in-place)
I0924 00:24:11.797397 20248 net.cpp:141] Setting up inception_4b/relu_3x3_reduce
I0924 00:24:11.797408 20248 net.cpp:148] Top shape: 10 112 14 14 (219520)
I0924 00:24:11.797412 20248 net.cpp:156] Memory required for data: 393881600
I0924 00:24:11.797416 20248 layer_factory.hpp:77] Creating layer inception_4b/3x3
I0924 00:24:11.797433 20248 net.cpp:91] Creating Layer inception_4b/3x3
I0924 00:24:11.797438 20248 net.cpp:425] inception_4b/3x3 <- inception_4b/3x3_reduce
I0924 00:24:11.797446 20248 net.cpp:399] inception_4b/3x3 -> inception_4b/3x3
I0924 00:24:11.801331 20248 net.cpp:141] Setting up inception_4b/3x3
I0924 00:24:11.801362 20248 net.cpp:148] Top shape: 10 224 14 14 (439040)
I0924 00:24:11.801367 20248 net.cpp:156] Memory required for data: 395637760
I0924 00:24:11.801378 20248 layer_factory.hpp:77] Creating layer inception_4b/relu_3x3
I0924 00:24:11.801385 20248 net.cpp:91] Creating Layer inception_4b/relu_3x3
I0924 00:24:11.801393 20248 net.cpp:425] inception_4b/relu_3x3 <- inception_4b/3x3
I0924 00:24:11.801415 20248 net.cpp:386] inception_4b/relu_3x3 -> inception_4b/3x3 (in-place)
I0924 00:24:11.801843 20248 net.cpp:141] Setting up inception_4b/relu_3x3
I0924 00:24:11.801856 20248 net.cpp:148] Top shape: 10 224 14 14 (439040)
I0924 00:24:11.801861 20248 net.cpp:156] Memory required for data: 397393920
I0924 00:24:11.801864 20248 layer_factory.hpp:77] Creating layer inception_4b/5x5_reduce
I0924 00:24:11.801890 20248 net.cpp:91] Creating Layer inception_4b/5x5_reduce
I0924 00:24:11.801897 20248 net.cpp:425] inception_4b/5x5_reduce <- inception_4a/output_inception_4a/output_0_split_2
I0924 00:24:11.801905 20248 net.cpp:399] inception_4b/5x5_reduce -> inception_4b/5x5_reduce
I0924 00:24:11.803313 20248 net.cpp:141] Setting up inception_4b/5x5_reduce
I0924 00:24:11.803344 20248 net.cpp:148] Top shape: 10 24 14 14 (47040)
I0924 00:24:11.803349 20248 net.cpp:156] Memory required for data: 397582080
I0924 00:24:11.803356 20248 layer_factory.hpp:77] Creating layer inception_4b/relu_5x5_reduce
I0924 00:24:11.803365 20248 net.cpp:91] Creating Layer inception_4b/relu_5x5_reduce
I0924 00:24:11.803370 20248 net.cpp:425] inception_4b/relu_5x5_reduce <- inception_4b/5x5_reduce
I0924 00:24:11.803380 20248 net.cpp:386] inception_4b/relu_5x5_reduce -> inception_4b/5x5_reduce (in-place)
I0924 00:24:11.803776 20248 net.cpp:141] Setting up inception_4b/relu_5x5_reduce
I0924 00:24:11.803787 20248 net.cpp:148] Top shape: 10 24 14 14 (47040)
I0924 00:24:11.803792 20248 net.cpp:156] Memory required for data: 397770240
I0924 00:24:11.803797 20248 layer_factory.hpp:77] Creating layer inception_4b/5x5
I0924 00:24:11.803812 20248 net.cpp:91] Creating Layer inception_4b/5x5
I0924 00:24:11.803817 20248 net.cpp:425] inception_4b/5x5 <- inception_4b/5x5_reduce
I0924 00:24:11.803828 20248 net.cpp:399] inception_4b/5x5 -> inception_4b/5x5
I0924 00:24:11.806061 20248 net.cpp:141] Setting up inception_4b/5x5
I0924 00:24:11.806078 20248 net.cpp:148] Top shape: 10 64 14 14 (125440)
I0924 00:24:11.806083 20248 net.cpp:156] Memory required for data: 398272000
I0924 00:24:11.806092 20248 layer_factory.hpp:77] Creating layer inception_4b/relu_5x5
I0924 00:24:11.806102 20248 net.cpp:91] Creating Layer inception_4b/relu_5x5
I0924 00:24:11.806108 20248 net.cpp:425] inception_4b/relu_5x5 <- inception_4b/5x5
I0924 00:24:11.806115 20248 net.cpp:386] inception_4b/relu_5x5 -> inception_4b/5x5 (in-place)
I0924 00:24:11.806349 20248 net.cpp:141] Setting up inception_4b/relu_5x5
I0924 00:24:11.806360 20248 net.cpp:148] Top shape: 10 64 14 14 (125440)
I0924 00:24:11.806365 20248 net.cpp:156] Memory required for data: 398773760
I0924 00:24:11.806368 20248 layer_factory.hpp:77] Creating layer inception_4b/pool
I0924 00:24:11.806376 20248 net.cpp:91] Creating Layer inception_4b/pool
I0924 00:24:11.806381 20248 net.cpp:425] inception_4b/pool <- inception_4a/output_inception_4a/output_0_split_3
I0924 00:24:11.806391 20248 net.cpp:399] inception_4b/pool -> inception_4b/pool
I0924 00:24:11.806452 20248 net.cpp:141] Setting up inception_4b/pool
I0924 00:24:11.806462 20248 net.cpp:148] Top shape: 10 512 14 14 (1003520)
I0924 00:24:11.806465 20248 net.cpp:156] Memory required for data: 402787840
I0924 00:24:11.806469 20248 layer_factory.hpp:77] Creating layer inception_4b/pool_proj
I0924 00:24:11.806486 20248 net.cpp:91] Creating Layer inception_4b/pool_proj
I0924 00:24:11.806491 20248 net.cpp:425] inception_4b/pool_proj <- inception_4b/pool
I0924 00:24:11.806499 20248 net.cpp:399] inception_4b/pool_proj -> inception_4b/pool_proj
I0924 00:24:11.808164 20248 net.cpp:141] Setting up inception_4b/pool_proj
I0924 00:24:11.808182 20248 net.cpp:148] Top shape: 10 64 14 14 (125440)
I0924 00:24:11.808187 20248 net.cpp:156] Memory required for data: 403289600
I0924 00:24:11.808195 20248 layer_factory.hpp:77] Creating layer inception_4b/relu_pool_proj
I0924 00:24:11.808207 20248 net.cpp:91] Creating Layer inception_4b/relu_pool_proj
I0924 00:24:11.808212 20248 net.cpp:425] inception_4b/relu_pool_proj <- inception_4b/pool_proj
I0924 00:24:11.808221 20248 net.cpp:386] inception_4b/relu_pool_proj -> inception_4b/pool_proj (in-place)
I0924 00:24:11.808624 20248 net.cpp:141] Setting up inception_4b/relu_pool_proj
I0924 00:24:11.808636 20248 net.cpp:148] Top shape: 10 64 14 14 (125440)
I0924 00:24:11.808641 20248 net.cpp:156] Memory required for data: 403791360
I0924 00:24:11.808645 20248 layer_factory.hpp:77] Creating layer inception_4b/output
I0924 00:24:11.808656 20248 net.cpp:91] Creating Layer inception_4b/output
I0924 00:24:11.808662 20248 net.cpp:425] inception_4b/output <- inception_4b/1x1
I0924 00:24:11.808668 20248 net.cpp:425] inception_4b/output <- inception_4b/3x3
I0924 00:24:11.808672 20248 net.cpp:425] inception_4b/output <- inception_4b/5x5
I0924 00:24:11.808677 20248 net.cpp:425] inception_4b/output <- inception_4b/pool_proj
I0924 00:24:11.808686 20248 net.cpp:399] inception_4b/output -> inception_4b/output
I0924 00:24:11.808724 20248 net.cpp:141] Setting up inception_4b/output
I0924 00:24:11.808733 20248 net.cpp:148] Top shape: 10 512 14 14 (1003520)
I0924 00:24:11.808737 20248 net.cpp:156] Memory required for data: 407805440
I0924 00:24:11.808743 20248 layer_factory.hpp:77] Creating layer inception_4b/output_inception_4b/output_0_split
I0924 00:24:11.808749 20248 net.cpp:91] Creating Layer inception_4b/output_inception_4b/output_0_split
I0924 00:24:11.808753 20248 net.cpp:425] inception_4b/output_inception_4b/output_0_split <- inception_4b/output
I0924 00:24:11.808764 20248 net.cpp:399] inception_4b/output_inception_4b/output_0_split -> inception_4b/output_inception_4b/output_0_split_0
I0924 00:24:11.808773 20248 net.cpp:399] inception_4b/output_inception_4b/output_0_split -> inception_4b/output_inception_4b/output_0_split_1
I0924 00:24:11.808781 20248 net.cpp:399] inception_4b/output_inception_4b/output_0_split -> inception_4b/output_inception_4b/output_0_split_2
I0924 00:24:11.808790 20248 net.cpp:399] inception_4b/output_inception_4b/output_0_split -> inception_4b/output_inception_4b/output_0_split_3
I0924 00:24:11.808876 20248 net.cpp:141] Setting up inception_4b/output_inception_4b/output_0_split
I0924 00:24:11.808886 20248 net.cpp:148] Top shape: 10 512 14 14 (1003520)
I0924 00:24:11.808892 20248 net.cpp:148] Top shape: 10 512 14 14 (1003520)
I0924 00:24:11.808895 20248 net.cpp:148] Top shape: 10 512 14 14 (1003520)
I0924 00:24:11.808900 20248 net.cpp:148] Top shape: 10 512 14 14 (1003520)
I0924 00:24:11.808904 20248 net.cpp:156] Memory required for data: 423861760
I0924 00:24:11.808908 20248 layer_factory.hpp:77] Creating layer inception_4c/1x1
I0924 00:24:11.808922 20248 net.cpp:91] Creating Layer inception_4c/1x1
I0924 00:24:11.808926 20248 net.cpp:425] inception_4c/1x1 <- inception_4b/output_inception_4b/output_0_split_0
I0924 00:24:11.808936 20248 net.cpp:399] inception_4c/1x1 -> inception_4c/1x1
I0924 00:24:11.810639 20248 net.cpp:141] Setting up inception_4c/1x1
I0924 00:24:11.810659 20248 net.cpp:148] Top shape: 10 128 14 14 (250880)
I0924 00:24:11.810664 20248 net.cpp:156] Memory required for data: 424865280
I0924 00:24:11.810672 20248 layer_factory.hpp:77] Creating layer inception_4c/relu_1x1
I0924 00:24:11.810680 20248 net.cpp:91] Creating Layer inception_4c/relu_1x1
I0924 00:24:11.810685 20248 net.cpp:425] inception_4c/relu_1x1 <- inception_4c/1x1
I0924 00:24:11.810693 20248 net.cpp:386] inception_4c/relu_1x1 -> inception_4c/1x1 (in-place)
I0924 00:24:11.811094 20248 net.cpp:141] Setting up inception_4c/relu_1x1
I0924 00:24:11.811106 20248 net.cpp:148] Top shape: 10 128 14 14 (250880)
I0924 00:24:11.811111 20248 net.cpp:156] Memory required for data: 425868800
I0924 00:24:11.811125 20248 layer_factory.hpp:77] Creating layer inception_4c/3x3_reduce
I0924 00:24:11.811139 20248 net.cpp:91] Creating Layer inception_4c/3x3_reduce
I0924 00:24:11.811144 20248 net.cpp:425] inception_4c/3x3_reduce <- inception_4b/output_inception_4b/output_0_split_1
I0924 00:24:11.811153 20248 net.cpp:399] inception_4c/3x3_reduce -> inception_4c/3x3_reduce
I0924 00:24:11.813076 20248 net.cpp:141] Setting up inception_4c/3x3_reduce
I0924 00:24:11.813109 20248 net.cpp:148] Top shape: 10 128 14 14 (250880)
I0924 00:24:11.813114 20248 net.cpp:156] Memory required for data: 426872320
I0924 00:24:11.813122 20248 layer_factory.hpp:77] Creating layer inception_4c/relu_3x3_reduce
I0924 00:24:11.813130 20248 net.cpp:91] Creating Layer inception_4c/relu_3x3_reduce
I0924 00:24:11.813136 20248 net.cpp:425] inception_4c/relu_3x3_reduce <- inception_4c/3x3_reduce
I0924 00:24:11.813143 20248 net.cpp:386] inception_4c/relu_3x3_reduce -> inception_4c/3x3_reduce (in-place)
I0924 00:24:11.813379 20248 net.cpp:141] Setting up inception_4c/relu_3x3_reduce
I0924 00:24:11.813391 20248 net.cpp:148] Top shape: 10 128 14 14 (250880)
I0924 00:24:11.813396 20248 net.cpp:156] Memory required for data: 427875840
I0924 00:24:11.813401 20248 layer_factory.hpp:77] Creating layer inception_4c/3x3
I0924 00:24:11.813415 20248 net.cpp:91] Creating Layer inception_4c/3x3
I0924 00:24:11.813421 20248 net.cpp:425] inception_4c/3x3 <- inception_4c/3x3_reduce
I0924 00:24:11.813427 20248 net.cpp:399] inception_4c/3x3 -> inception_4c/3x3
I0924 00:24:11.817656 20248 net.cpp:141] Setting up inception_4c/3x3
I0924 00:24:11.817689 20248 net.cpp:148] Top shape: 10 256 14 14 (501760)
I0924 00:24:11.817695 20248 net.cpp:156] Memory required for data: 429882880
I0924 00:24:11.817704 20248 layer_factory.hpp:77] Creating layer inception_4c/relu_3x3
I0924 00:24:11.817713 20248 net.cpp:91] Creating Layer inception_4c/relu_3x3
I0924 00:24:11.817718 20248 net.cpp:425] inception_4c/relu_3x3 <- inception_4c/3x3
I0924 00:24:11.817724 20248 net.cpp:386] inception_4c/relu_3x3 -> inception_4c/3x3 (in-place)
I0924 00:24:11.818132 20248 net.cpp:141] Setting up inception_4c/relu_3x3
I0924 00:24:11.818147 20248 net.cpp:148] Top shape: 10 256 14 14 (501760)
I0924 00:24:11.818151 20248 net.cpp:156] Memory required for data: 431889920
I0924 00:24:11.818156 20248 layer_factory.hpp:77] Creating layer inception_4c/5x5_reduce
I0924 00:24:11.818168 20248 net.cpp:91] Creating Layer inception_4c/5x5_reduce
I0924 00:24:11.818174 20248 net.cpp:425] inception_4c/5x5_reduce <- inception_4b/output_inception_4b/output_0_split_2
I0924 00:24:11.818184 20248 net.cpp:399] inception_4c/5x5_reduce -> inception_4c/5x5_reduce
I0924 00:24:11.819581 20248 net.cpp:141] Setting up inception_4c/5x5_reduce
I0924 00:24:11.819612 20248 net.cpp:148] Top shape: 10 24 14 14 (47040)
I0924 00:24:11.819617 20248 net.cpp:156] Memory required for data: 432078080
I0924 00:24:11.819625 20248 layer_factory.hpp:77] Creating layer inception_4c/relu_5x5_reduce
I0924 00:24:11.819636 20248 net.cpp:91] Creating Layer inception_4c/relu_5x5_reduce
I0924 00:24:11.819641 20248 net.cpp:425] inception_4c/relu_5x5_reduce <- inception_4c/5x5_reduce
I0924 00:24:11.819648 20248 net.cpp:386] inception_4c/relu_5x5_reduce -> inception_4c/5x5_reduce (in-place)
I0924 00:24:11.820060 20248 net.cpp:141] Setting up inception_4c/relu_5x5_reduce
I0924 00:24:11.820072 20248 net.cpp:148] Top shape: 10 24 14 14 (47040)
I0924 00:24:11.820077 20248 net.cpp:156] Memory required for data: 432266240
I0924 00:24:11.820081 20248 layer_factory.hpp:77] Creating layer inception_4c/5x5
I0924 00:24:11.820096 20248 net.cpp:91] Creating Layer inception_4c/5x5
I0924 00:24:11.820101 20248 net.cpp:425] inception_4c/5x5 <- inception_4c/5x5_reduce
I0924 00:24:11.820112 20248 net.cpp:399] inception_4c/5x5 -> inception_4c/5x5
I0924 00:24:11.822016 20248 net.cpp:141] Setting up inception_4c/5x5
I0924 00:24:11.822049 20248 net.cpp:148] Top shape: 10 64 14 14 (125440)
I0924 00:24:11.822055 20248 net.cpp:156] Memory required for data: 432768000
I0924 00:24:11.822063 20248 layer_factory.hpp:77] Creating layer inception_4c/relu_5x5
I0924 00:24:11.822072 20248 net.cpp:91] Creating Layer inception_4c/relu_5x5
I0924 00:24:11.822077 20248 net.cpp:425] inception_4c/relu_5x5 <- inception_4c/5x5
I0924 00:24:11.822083 20248 net.cpp:386] inception_4c/relu_5x5 -> inception_4c/5x5 (in-place)
I0924 00:24:11.822324 20248 net.cpp:141] Setting up inception_4c/relu_5x5
I0924 00:24:11.822335 20248 net.cpp:148] Top shape: 10 64 14 14 (125440)
I0924 00:24:11.822338 20248 net.cpp:156] Memory required for data: 433269760
I0924 00:24:11.822343 20248 layer_factory.hpp:77] Creating layer inception_4c/pool
I0924 00:24:11.822350 20248 net.cpp:91] Creating Layer inception_4c/pool
I0924 00:24:11.822355 20248 net.cpp:425] inception_4c/pool <- inception_4b/output_inception_4b/output_0_split_3
I0924 00:24:11.822366 20248 net.cpp:399] inception_4c/pool -> inception_4c/pool
I0924 00:24:11.822432 20248 net.cpp:141] Setting up inception_4c/pool
I0924 00:24:11.822443 20248 net.cpp:148] Top shape: 10 512 14 14 (1003520)
I0924 00:24:11.822448 20248 net.cpp:156] Memory required for data: 437283840
I0924 00:24:11.822453 20248 layer_factory.hpp:77] Creating layer inception_4c/pool_proj
I0924 00:24:11.822466 20248 net.cpp:91] Creating Layer inception_4c/pool_proj
I0924 00:24:11.822471 20248 net.cpp:425] inception_4c/pool_proj <- inception_4c/pool
I0924 00:24:11.822479 20248 net.cpp:399] inception_4c/pool_proj -> inception_4c/pool_proj
I0924 00:24:11.824801 20248 net.cpp:141] Setting up inception_4c/pool_proj
I0924 00:24:11.824831 20248 net.cpp:148] Top shape: 10 64 14 14 (125440)
I0924 00:24:11.824837 20248 net.cpp:156] Memory required for data: 437785600
I0924 00:24:11.824862 20248 layer_factory.hpp:77] Creating layer inception_4c/relu_pool_proj
I0924 00:24:11.824870 20248 net.cpp:91] Creating Layer inception_4c/relu_pool_proj
I0924 00:24:11.824875 20248 net.cpp:425] inception_4c/relu_pool_proj <- inception_4c/pool_proj
I0924 00:24:11.824882 20248 net.cpp:386] inception_4c/relu_pool_proj -> inception_4c/pool_proj (in-place)
I0924 00:24:11.825291 20248 net.cpp:141] Setting up inception_4c/relu_pool_proj
I0924 00:24:11.825305 20248 net.cpp:148] Top shape: 10 64 14 14 (125440)
I0924 00:24:11.825310 20248 net.cpp:156] Memory required for data: 438287360
I0924 00:24:11.825314 20248 layer_factory.hpp:77] Creating layer inception_4c/output
I0924 00:24:11.825322 20248 net.cpp:91] Creating Layer inception_4c/output
I0924 00:24:11.825327 20248 net.cpp:425] inception_4c/output <- inception_4c/1x1
I0924 00:24:11.825333 20248 net.cpp:425] inception_4c/output <- inception_4c/3x3
I0924 00:24:11.825338 20248 net.cpp:425] inception_4c/output <- inception_4c/5x5
I0924 00:24:11.825343 20248 net.cpp:425] inception_4c/output <- inception_4c/pool_proj
I0924 00:24:11.825350 20248 net.cpp:399] inception_4c/output -> inception_4c/output
I0924 00:24:11.825394 20248 net.cpp:141] Setting up inception_4c/output
I0924 00:24:11.825404 20248 net.cpp:148] Top shape: 10 512 14 14 (1003520)
I0924 00:24:11.825408 20248 net.cpp:156] Memory required for data: 442301440
I0924 00:24:11.825412 20248 layer_factory.hpp:77] Creating layer inception_4c/output_inception_4c/output_0_split
I0924 00:24:11.825422 20248 net.cpp:91] Creating Layer inception_4c/output_inception_4c/output_0_split
I0924 00:24:11.825426 20248 net.cpp:425] inception_4c/output_inception_4c/output_0_split <- inception_4c/output
I0924 00:24:11.825433 20248 net.cpp:399] inception_4c/output_inception_4c/output_0_split -> inception_4c/output_inception_4c/output_0_split_0
I0924 00:24:11.825441 20248 net.cpp:399] inception_4c/output_inception_4c/output_0_split -> inception_4c/output_inception_4c/output_0_split_1
I0924 00:24:11.825449 20248 net.cpp:399] inception_4c/output_inception_4c/output_0_split -> inception_4c/output_inception_4c/output_0_split_2
I0924 00:24:11.825456 20248 net.cpp:399] inception_4c/output_inception_4c/output_0_split -> inception_4c/output_inception_4c/output_0_split_3
I0924 00:24:11.825547 20248 net.cpp:141] Setting up inception_4c/output_inception_4c/output_0_split
I0924 00:24:11.825556 20248 net.cpp:148] Top shape: 10 512 14 14 (1003520)
I0924 00:24:11.825562 20248 net.cpp:148] Top shape: 10 512 14 14 (1003520)
I0924 00:24:11.825567 20248 net.cpp:148] Top shape: 10 512 14 14 (1003520)
I0924 00:24:11.825572 20248 net.cpp:148] Top shape: 10 512 14 14 (1003520)
I0924 00:24:11.825575 20248 net.cpp:156] Memory required for data: 458357760
I0924 00:24:11.825579 20248 layer_factory.hpp:77] Creating layer inception_4d/1x1
I0924 00:24:11.825593 20248 net.cpp:91] Creating Layer inception_4d/1x1
I0924 00:24:11.825598 20248 net.cpp:425] inception_4d/1x1 <- inception_4c/output_inception_4c/output_0_split_0
I0924 00:24:11.825610 20248 net.cpp:399] inception_4d/1x1 -> inception_4d/1x1
I0924 00:24:11.827306 20248 net.cpp:141] Setting up inception_4d/1x1
I0924 00:24:11.827323 20248 net.cpp:148] Top shape: 10 112 14 14 (219520)
I0924 00:24:11.827328 20248 net.cpp:156] Memory required for data: 459235840
I0924 00:24:11.827337 20248 layer_factory.hpp:77] Creating layer inception_4d/relu_1x1
I0924 00:24:11.827347 20248 net.cpp:91] Creating Layer inception_4d/relu_1x1
I0924 00:24:11.827353 20248 net.cpp:425] inception_4d/relu_1x1 <- inception_4d/1x1
I0924 00:24:11.827359 20248 net.cpp:386] inception_4d/relu_1x1 -> inception_4d/1x1 (in-place)
I0924 00:24:11.827762 20248 net.cpp:141] Setting up inception_4d/relu_1x1
I0924 00:24:11.827778 20248 net.cpp:148] Top shape: 10 112 14 14 (219520)
I0924 00:24:11.827783 20248 net.cpp:156] Memory required for data: 460113920
I0924 00:24:11.827787 20248 layer_factory.hpp:77] Creating layer inception_4d/3x3_reduce
I0924 00:24:11.827801 20248 net.cpp:91] Creating Layer inception_4d/3x3_reduce
I0924 00:24:11.827806 20248 net.cpp:425] inception_4d/3x3_reduce <- inception_4c/output_inception_4c/output_0_split_1
I0924 00:24:11.827818 20248 net.cpp:399] inception_4d/3x3_reduce -> inception_4d/3x3_reduce
I0924 00:24:11.829855 20248 net.cpp:141] Setting up inception_4d/3x3_reduce
I0924 00:24:11.829872 20248 net.cpp:148] Top shape: 10 144 14 14 (282240)
I0924 00:24:11.829877 20248 net.cpp:156] Memory required for data: 461242880
I0924 00:24:11.829885 20248 layer_factory.hpp:77] Creating layer inception_4d/relu_3x3_reduce
I0924 00:24:11.829895 20248 net.cpp:91] Creating Layer inception_4d/relu_3x3_reduce
I0924 00:24:11.829901 20248 net.cpp:425] inception_4d/relu_3x3_reduce <- inception_4d/3x3_reduce
I0924 00:24:11.829908 20248 net.cpp:386] inception_4d/relu_3x3_reduce -> inception_4d/3x3_reduce (in-place)
I0924 00:24:11.830147 20248 net.cpp:141] Setting up inception_4d/relu_3x3_reduce
I0924 00:24:11.830158 20248 net.cpp:148] Top shape: 10 144 14 14 (282240)
I0924 00:24:11.830163 20248 net.cpp:156] Memory required for data: 462371840
I0924 00:24:11.830166 20248 layer_factory.hpp:77] Creating layer inception_4d/3x3
I0924 00:24:11.830183 20248 net.cpp:91] Creating Layer inception_4d/3x3
I0924 00:24:11.830188 20248 net.cpp:425] inception_4d/3x3 <- inception_4d/3x3_reduce
I0924 00:24:11.830196 20248 net.cpp:399] inception_4d/3x3 -> inception_4d/3x3
I0924 00:24:11.835204 20248 net.cpp:141] Setting up inception_4d/3x3
I0924 00:24:11.835222 20248 net.cpp:148] Top shape: 10 288 14 14 (564480)
I0924 00:24:11.835228 20248 net.cpp:156] Memory required for data: 464629760
I0924 00:24:11.835235 20248 layer_factory.hpp:77] Creating layer inception_4d/relu_3x3
I0924 00:24:11.835247 20248 net.cpp:91] Creating Layer inception_4d/relu_3x3
I0924 00:24:11.835252 20248 net.cpp:425] inception_4d/relu_3x3 <- inception_4d/3x3
I0924 00:24:11.835258 20248 net.cpp:386] inception_4d/relu_3x3 -> inception_4d/3x3 (in-place)
I0924 00:24:11.835675 20248 net.cpp:141] Setting up inception_4d/relu_3x3
I0924 00:24:11.835688 20248 net.cpp:148] Top shape: 10 288 14 14 (564480)
I0924 00:24:11.835692 20248 net.cpp:156] Memory required for data: 466887680
I0924 00:24:11.835697 20248 layer_factory.hpp:77] Creating layer inception_4d/5x5_reduce
I0924 00:24:11.835711 20248 net.cpp:91] Creating Layer inception_4d/5x5_reduce
I0924 00:24:11.835716 20248 net.cpp:425] inception_4d/5x5_reduce <- inception_4c/output_inception_4c/output_0_split_2
I0924 00:24:11.835729 20248 net.cpp:399] inception_4d/5x5_reduce -> inception_4d/5x5_reduce
I0924 00:24:11.837152 20248 net.cpp:141] Setting up inception_4d/5x5_reduce
I0924 00:24:11.837182 20248 net.cpp:148] Top shape: 10 32 14 14 (62720)
I0924 00:24:11.837187 20248 net.cpp:156] Memory required for data: 467138560
I0924 00:24:11.837194 20248 layer_factory.hpp:77] Creating layer inception_4d/relu_5x5_reduce
I0924 00:24:11.837203 20248 net.cpp:91] Creating Layer inception_4d/relu_5x5_reduce
I0924 00:24:11.837208 20248 net.cpp:425] inception_4d/relu_5x5_reduce <- inception_4d/5x5_reduce
I0924 00:24:11.837218 20248 net.cpp:386] inception_4d/relu_5x5_reduce -> inception_4d/5x5_reduce (in-place)
I0924 00:24:11.837622 20248 net.cpp:141] Setting up inception_4d/relu_5x5_reduce
I0924 00:24:11.837635 20248 net.cpp:148] Top shape: 10 32 14 14 (62720)
I0924 00:24:11.837640 20248 net.cpp:156] Memory required for data: 467389440
I0924 00:24:11.837644 20248 layer_factory.hpp:77] Creating layer inception_4d/5x5
I0924 00:24:11.837657 20248 net.cpp:91] Creating Layer inception_4d/5x5
I0924 00:24:11.837663 20248 net.cpp:425] inception_4d/5x5 <- inception_4d/5x5_reduce
I0924 00:24:11.837674 20248 net.cpp:399] inception_4d/5x5 -> inception_4d/5x5
I0924 00:24:11.839515 20248 net.cpp:141] Setting up inception_4d/5x5
I0924 00:24:11.839534 20248 net.cpp:148] Top shape: 10 64 14 14 (125440)
I0924 00:24:11.839539 20248 net.cpp:156] Memory required for data: 467891200
I0924 00:24:11.839546 20248 layer_factory.hpp:77] Creating layer inception_4d/relu_5x5
I0924 00:24:11.839558 20248 net.cpp:91] Creating Layer inception_4d/relu_5x5
I0924 00:24:11.839563 20248 net.cpp:425] inception_4d/relu_5x5 <- inception_4d/5x5
I0924 00:24:11.839570 20248 net.cpp:386] inception_4d/relu_5x5 -> inception_4d/5x5 (in-place)
I0924 00:24:11.839810 20248 net.cpp:141] Setting up inception_4d/relu_5x5
I0924 00:24:11.839821 20248 net.cpp:148] Top shape: 10 64 14 14 (125440)
I0924 00:24:11.839825 20248 net.cpp:156] Memory required for data: 468392960
I0924 00:24:11.839830 20248 layer_factory.hpp:77] Creating layer inception_4d/pool
I0924 00:24:11.839838 20248 net.cpp:91] Creating Layer inception_4d/pool
I0924 00:24:11.839843 20248 net.cpp:425] inception_4d/pool <- inception_4c/output_inception_4c/output_0_split_3
I0924 00:24:11.839854 20248 net.cpp:399] inception_4d/pool -> inception_4d/pool
I0924 00:24:11.839918 20248 net.cpp:141] Setting up inception_4d/pool
I0924 00:24:11.839928 20248 net.cpp:148] Top shape: 10 512 14 14 (1003520)
I0924 00:24:11.839932 20248 net.cpp:156] Memory required for data: 472407040
I0924 00:24:11.839936 20248 layer_factory.hpp:77] Creating layer inception_4d/pool_proj
I0924 00:24:11.839956 20248 net.cpp:91] Creating Layer inception_4d/pool_proj
I0924 00:24:11.839961 20248 net.cpp:425] inception_4d/pool_proj <- inception_4d/pool
I0924 00:24:11.839968 20248 net.cpp:399] inception_4d/pool_proj -> inception_4d/pool_proj
I0924 00:24:11.841680 20248 net.cpp:141] Setting up inception_4d/pool_proj
I0924 00:24:11.841696 20248 net.cpp:148] Top shape: 10 64 14 14 (125440)
I0924 00:24:11.841701 20248 net.cpp:156] Memory required for data: 472908800
I0924 00:24:11.841709 20248 layer_factory.hpp:77] Creating layer inception_4d/relu_pool_proj
I0924 00:24:11.841720 20248 net.cpp:91] Creating Layer inception_4d/relu_pool_proj
I0924 00:24:11.841727 20248 net.cpp:425] inception_4d/relu_pool_proj <- inception_4d/pool_proj
I0924 00:24:11.841733 20248 net.cpp:386] inception_4d/relu_pool_proj -> inception_4d/pool_proj (in-place)
I0924 00:24:11.842146 20248 net.cpp:141] Setting up inception_4d/relu_pool_proj
I0924 00:24:11.842159 20248 net.cpp:148] Top shape: 10 64 14 14 (125440)
I0924 00:24:11.842164 20248 net.cpp:156] Memory required for data: 473410560
I0924 00:24:11.842167 20248 layer_factory.hpp:77] Creating layer inception_4d/output
I0924 00:24:11.842175 20248 net.cpp:91] Creating Layer inception_4d/output
I0924 00:24:11.842180 20248 net.cpp:425] inception_4d/output <- inception_4d/1x1
I0924 00:24:11.842187 20248 net.cpp:425] inception_4d/output <- inception_4d/3x3
I0924 00:24:11.842192 20248 net.cpp:425] inception_4d/output <- inception_4d/5x5
I0924 00:24:11.842197 20248 net.cpp:425] inception_4d/output <- inception_4d/pool_proj
I0924 00:24:11.842206 20248 net.cpp:399] inception_4d/output -> inception_4d/output
I0924 00:24:11.842252 20248 net.cpp:141] Setting up inception_4d/output
I0924 00:24:11.842262 20248 net.cpp:148] Top shape: 10 528 14 14 (1034880)
I0924 00:24:11.842265 20248 net.cpp:156] Memory required for data: 477550080
I0924 00:24:11.842270 20248 layer_factory.hpp:77] Creating layer inception_4d/output_inception_4d/output_0_split
I0924 00:24:11.842278 20248 net.cpp:91] Creating Layer inception_4d/output_inception_4d/output_0_split
I0924 00:24:11.842283 20248 net.cpp:425] inception_4d/output_inception_4d/output_0_split <- inception_4d/output
I0924 00:24:11.842289 20248 net.cpp:399] inception_4d/output_inception_4d/output_0_split -> inception_4d/output_inception_4d/output_0_split_0
I0924 00:24:11.842300 20248 net.cpp:399] inception_4d/output_inception_4d/output_0_split -> inception_4d/output_inception_4d/output_0_split_1
I0924 00:24:11.842308 20248 net.cpp:399] inception_4d/output_inception_4d/output_0_split -> inception_4d/output_inception_4d/output_0_split_2
I0924 00:24:11.842316 20248 net.cpp:399] inception_4d/output_inception_4d/output_0_split -> inception_4d/output_inception_4d/output_0_split_3
I0924 00:24:11.842413 20248 net.cpp:141] Setting up inception_4d/output_inception_4d/output_0_split
I0924 00:24:11.842423 20248 net.cpp:148] Top shape: 10 528 14 14 (1034880)
I0924 00:24:11.842428 20248 net.cpp:148] Top shape: 10 528 14 14 (1034880)
I0924 00:24:11.842433 20248 net.cpp:148] Top shape: 10 528 14 14 (1034880)
I0924 00:24:11.842438 20248 net.cpp:148] Top shape: 10 528 14 14 (1034880)
I0924 00:24:11.842442 20248 net.cpp:156] Memory required for data: 494108160
I0924 00:24:11.842447 20248 layer_factory.hpp:77] Creating layer inception_4e/1x1
I0924 00:24:11.842463 20248 net.cpp:91] Creating Layer inception_4e/1x1
I0924 00:24:11.842468 20248 net.cpp:425] inception_4e/1x1 <- inception_4d/output_inception_4d/output_0_split_0
I0924 00:24:11.842475 20248 net.cpp:399] inception_4e/1x1 -> inception_4e/1x1
I0924 00:24:11.845613 20248 net.cpp:141] Setting up inception_4e/1x1
I0924 00:24:11.845644 20248 net.cpp:148] Top shape: 10 256 14 14 (501760)
I0924 00:24:11.845649 20248 net.cpp:156] Memory required for data: 496115200
I0924 00:24:11.845659 20248 layer_factory.hpp:77] Creating layer inception_4e/relu_1x1
I0924 00:24:11.845669 20248 net.cpp:91] Creating Layer inception_4e/relu_1x1
I0924 00:24:11.845674 20248 net.cpp:425] inception_4e/relu_1x1 <- inception_4e/1x1
I0924 00:24:11.845681 20248 net.cpp:386] inception_4e/relu_1x1 -> inception_4e/1x1 (in-place)
I0924 00:24:11.846096 20248 net.cpp:141] Setting up inception_4e/relu_1x1
I0924 00:24:11.846107 20248 net.cpp:148] Top shape: 10 256 14 14 (501760)
I0924 00:24:11.846112 20248 net.cpp:156] Memory required for data: 498122240
I0924 00:24:11.846117 20248 layer_factory.hpp:77] Creating layer inception_4e/3x3_reduce
I0924 00:24:11.846132 20248 net.cpp:91] Creating Layer inception_4e/3x3_reduce
I0924 00:24:11.846137 20248 net.cpp:425] inception_4e/3x3_reduce <- inception_4d/output_inception_4d/output_0_split_1
I0924 00:24:11.846148 20248 net.cpp:399] inception_4e/3x3_reduce -> inception_4e/3x3_reduce
I0924 00:24:11.848402 20248 net.cpp:141] Setting up inception_4e/3x3_reduce
I0924 00:24:11.848417 20248 net.cpp:148] Top shape: 10 160 14 14 (313600)
I0924 00:24:11.848423 20248 net.cpp:156] Memory required for data: 499376640
I0924 00:24:11.848443 20248 layer_factory.hpp:77] Creating layer inception_4e/relu_3x3_reduce
I0924 00:24:11.848451 20248 net.cpp:91] Creating Layer inception_4e/relu_3x3_reduce
I0924 00:24:11.848458 20248 net.cpp:425] inception_4e/relu_3x3_reduce <- inception_4e/3x3_reduce
I0924 00:24:11.848466 20248 net.cpp:386] inception_4e/relu_3x3_reduce -> inception_4e/3x3_reduce (in-place)
I0924 00:24:11.848706 20248 net.cpp:141] Setting up inception_4e/relu_3x3_reduce
I0924 00:24:11.848717 20248 net.cpp:148] Top shape: 10 160 14 14 (313600)
I0924 00:24:11.848721 20248 net.cpp:156] Memory required for data: 500631040
I0924 00:24:11.848726 20248 layer_factory.hpp:77] Creating layer inception_4e/3x3
I0924 00:24:11.848742 20248 net.cpp:91] Creating Layer inception_4e/3x3
I0924 00:24:11.848747 20248 net.cpp:425] inception_4e/3x3 <- inception_4e/3x3_reduce
I0924 00:24:11.848755 20248 net.cpp:399] inception_4e/3x3 -> inception_4e/3x3
I0924 00:24:11.854562 20248 net.cpp:141] Setting up inception_4e/3x3
I0924 00:24:11.854580 20248 net.cpp:148] Top shape: 10 320 14 14 (627200)
I0924 00:24:11.854585 20248 net.cpp:156] Memory required for data: 503139840
I0924 00:24:11.854593 20248 layer_factory.hpp:77] Creating layer inception_4e/relu_3x3
I0924 00:24:11.854611 20248 net.cpp:91] Creating Layer inception_4e/relu_3x3
I0924 00:24:11.854617 20248 net.cpp:425] inception_4e/relu_3x3 <- inception_4e/3x3
I0924 00:24:11.854624 20248 net.cpp:386] inception_4e/relu_3x3 -> inception_4e/3x3 (in-place)
I0924 00:24:11.855060 20248 net.cpp:141] Setting up inception_4e/relu_3x3
I0924 00:24:11.855074 20248 net.cpp:148] Top shape: 10 320 14 14 (627200)
I0924 00:24:11.855079 20248 net.cpp:156] Memory required for data: 505648640
I0924 00:24:11.855084 20248 layer_factory.hpp:77] Creating layer inception_4e/5x5_reduce
I0924 00:24:11.855099 20248 net.cpp:91] Creating Layer inception_4e/5x5_reduce
I0924 00:24:11.855105 20248 net.cpp:425] inception_4e/5x5_reduce <- inception_4d/output_inception_4d/output_0_split_2
I0924 00:24:11.855114 20248 net.cpp:399] inception_4e/5x5_reduce -> inception_4e/5x5_reduce
I0924 00:24:11.856557 20248 net.cpp:141] Setting up inception_4e/5x5_reduce
I0924 00:24:11.856586 20248 net.cpp:148] Top shape: 10 32 14 14 (62720)
I0924 00:24:11.856592 20248 net.cpp:156] Memory required for data: 505899520
I0924 00:24:11.856600 20248 layer_factory.hpp:77] Creating layer inception_4e/relu_5x5_reduce
I0924 00:24:11.856611 20248 net.cpp:91] Creating Layer inception_4e/relu_5x5_reduce
I0924 00:24:11.856616 20248 net.cpp:425] inception_4e/relu_5x5_reduce <- inception_4e/5x5_reduce
I0924 00:24:11.856623 20248 net.cpp:386] inception_4e/relu_5x5_reduce -> inception_4e/5x5_reduce (in-place)
I0924 00:24:11.857043 20248 net.cpp:141] Setting up inception_4e/relu_5x5_reduce
I0924 00:24:11.857054 20248 net.cpp:148] Top shape: 10 32 14 14 (62720)
I0924 00:24:11.857059 20248 net.cpp:156] Memory required for data: 506150400
I0924 00:24:11.857064 20248 layer_factory.hpp:77] Creating layer inception_4e/5x5
I0924 00:24:11.857086 20248 net.cpp:91] Creating Layer inception_4e/5x5
I0924 00:24:11.857092 20248 net.cpp:425] inception_4e/5x5 <- inception_4e/5x5_reduce
I0924 00:24:11.857103 20248 net.cpp:399] inception_4e/5x5 -> inception_4e/5x5
I0924 00:24:11.859979 20248 net.cpp:141] Setting up inception_4e/5x5
I0924 00:24:11.859997 20248 net.cpp:148] Top shape: 10 128 14 14 (250880)
I0924 00:24:11.860002 20248 net.cpp:156] Memory required for data: 507153920
I0924 00:24:11.860010 20248 layer_factory.hpp:77] Creating layer inception_4e/relu_5x5
I0924 00:24:11.860018 20248 net.cpp:91] Creating Layer inception_4e/relu_5x5
I0924 00:24:11.860026 20248 net.cpp:425] inception_4e/relu_5x5 <- inception_4e/5x5
I0924 00:24:11.860033 20248 net.cpp:386] inception_4e/relu_5x5 -> inception_4e/5x5 (in-place)
I0924 00:24:11.860277 20248 net.cpp:141] Setting up inception_4e/relu_5x5
I0924 00:24:11.860288 20248 net.cpp:148] Top shape: 10 128 14 14 (250880)
I0924 00:24:11.860293 20248 net.cpp:156] Memory required for data: 508157440
I0924 00:24:11.860297 20248 layer_factory.hpp:77] Creating layer inception_4e/pool
I0924 00:24:11.860317 20248 net.cpp:91] Creating Layer inception_4e/pool
I0924 00:24:11.860323 20248 net.cpp:425] inception_4e/pool <- inception_4d/output_inception_4d/output_0_split_3
I0924 00:24:11.860330 20248 net.cpp:399] inception_4e/pool -> inception_4e/pool
I0924 00:24:11.860400 20248 net.cpp:141] Setting up inception_4e/pool
I0924 00:24:11.860410 20248 net.cpp:148] Top shape: 10 528 14 14 (1034880)
I0924 00:24:11.860414 20248 net.cpp:156] Memory required for data: 512296960
I0924 00:24:11.860419 20248 layer_factory.hpp:77] Creating layer inception_4e/pool_proj
I0924 00:24:11.860435 20248 net.cpp:91] Creating Layer inception_4e/pool_proj
I0924 00:24:11.860440 20248 net.cpp:425] inception_4e/pool_proj <- inception_4e/pool
I0924 00:24:11.860450 20248 net.cpp:399] inception_4e/pool_proj -> inception_4e/pool_proj
I0924 00:24:11.862457 20248 net.cpp:141] Setting up inception_4e/pool_proj
I0924 00:24:11.862473 20248 net.cpp:148] Top shape: 10 128 14 14 (250880)
I0924 00:24:11.862478 20248 net.cpp:156] Memory required for data: 513300480
I0924 00:24:11.862485 20248 layer_factory.hpp:77] Creating layer inception_4e/relu_pool_proj
I0924 00:24:11.862505 20248 net.cpp:91] Creating Layer inception_4e/relu_pool_proj
I0924 00:24:11.862514 20248 net.cpp:425] inception_4e/relu_pool_proj <- inception_4e/pool_proj
I0924 00:24:11.862520 20248 net.cpp:386] inception_4e/relu_pool_proj -> inception_4e/pool_proj (in-place)
I0924 00:24:11.862951 20248 net.cpp:141] Setting up inception_4e/relu_pool_proj
I0924 00:24:11.862962 20248 net.cpp:148] Top shape: 10 128 14 14 (250880)
I0924 00:24:11.862967 20248 net.cpp:156] Memory required for data: 514304000
I0924 00:24:11.862972 20248 layer_factory.hpp:77] Creating layer inception_4e/output
I0924 00:24:11.862979 20248 net.cpp:91] Creating Layer inception_4e/output
I0924 00:24:11.862984 20248 net.cpp:425] inception_4e/output <- inception_4e/1x1
I0924 00:24:11.862990 20248 net.cpp:425] inception_4e/output <- inception_4e/3x3
I0924 00:24:11.862995 20248 net.cpp:425] inception_4e/output <- inception_4e/5x5
I0924 00:24:11.862999 20248 net.cpp:425] inception_4e/output <- inception_4e/pool_proj
I0924 00:24:11.863008 20248 net.cpp:399] inception_4e/output -> inception_4e/output
I0924 00:24:11.863051 20248 net.cpp:141] Setting up inception_4e/output
I0924 00:24:11.863061 20248 net.cpp:148] Top shape: 10 832 14 14 (1630720)
I0924 00:24:11.863065 20248 net.cpp:156] Memory required for data: 520826880
I0924 00:24:11.863070 20248 layer_factory.hpp:77] Creating layer pool4/3x3_s2
I0924 00:24:11.863080 20248 net.cpp:91] Creating Layer pool4/3x3_s2
I0924 00:24:11.863086 20248 net.cpp:425] pool4/3x3_s2 <- inception_4e/output
I0924 00:24:11.863095 20248 net.cpp:399] pool4/3x3_s2 -> pool4/3x3_s2
I0924 00:24:11.863158 20248 net.cpp:141] Setting up pool4/3x3_s2
I0924 00:24:11.863168 20248 net.cpp:148] Top shape: 10 832 7 7 (407680)
I0924 00:24:11.863171 20248 net.cpp:156] Memory required for data: 522457600
I0924 00:24:11.863175 20248 layer_factory.hpp:77] Creating layer pool4/3x3_s2_pool4/3x3_s2_0_split
I0924 00:24:11.863184 20248 net.cpp:91] Creating Layer pool4/3x3_s2_pool4/3x3_s2_0_split
I0924 00:24:11.863189 20248 net.cpp:425] pool4/3x3_s2_pool4/3x3_s2_0_split <- pool4/3x3_s2
I0924 00:24:11.863195 20248 net.cpp:399] pool4/3x3_s2_pool4/3x3_s2_0_split -> pool4/3x3_s2_pool4/3x3_s2_0_split_0
I0924 00:24:11.863204 20248 net.cpp:399] pool4/3x3_s2_pool4/3x3_s2_0_split -> pool4/3x3_s2_pool4/3x3_s2_0_split_1
I0924 00:24:11.863211 20248 net.cpp:399] pool4/3x3_s2_pool4/3x3_s2_0_split -> pool4/3x3_s2_pool4/3x3_s2_0_split_2
I0924 00:24:11.863219 20248 net.cpp:399] pool4/3x3_s2_pool4/3x3_s2_0_split -> pool4/3x3_s2_pool4/3x3_s2_0_split_3
I0924 00:24:11.863314 20248 net.cpp:141] Setting up pool4/3x3_s2_pool4/3x3_s2_0_split
I0924 00:24:11.863323 20248 net.cpp:148] Top shape: 10 832 7 7 (407680)
I0924 00:24:11.863328 20248 net.cpp:148] Top shape: 10 832 7 7 (407680)
I0924 00:24:11.863333 20248 net.cpp:148] Top shape: 10 832 7 7 (407680)
I0924 00:24:11.863338 20248 net.cpp:148] Top shape: 10 832 7 7 (407680)
I0924 00:24:11.863342 20248 net.cpp:156] Memory required for data: 528980480
I0924 00:24:11.863345 20248 layer_factory.hpp:77] Creating layer inception_5a/1x1
I0924 00:24:11.863360 20248 net.cpp:91] Creating Layer inception_5a/1x1
I0924 00:24:11.863366 20248 net.cpp:425] inception_5a/1x1 <- pool4/3x3_s2_pool4/3x3_s2_0_split_0
I0924 00:24:11.863376 20248 net.cpp:399] inception_5a/1x1 -> inception_5a/1x1
I0924 00:24:11.866897 20248 net.cpp:141] Setting up inception_5a/1x1
I0924 00:24:11.866928 20248 net.cpp:148] Top shape: 10 256 7 7 (125440)
I0924 00:24:11.866935 20248 net.cpp:156] Memory required for data: 529482240
I0924 00:24:11.866942 20248 layer_factory.hpp:77] Creating layer inception_5a/relu_1x1
I0924 00:24:11.866950 20248 net.cpp:91] Creating Layer inception_5a/relu_1x1
I0924 00:24:11.866955 20248 net.cpp:425] inception_5a/relu_1x1 <- inception_5a/1x1
I0924 00:24:11.866966 20248 net.cpp:386] inception_5a/relu_1x1 -> inception_5a/1x1 (in-place)
I0924 00:24:11.867382 20248 net.cpp:141] Setting up inception_5a/relu_1x1
I0924 00:24:11.867393 20248 net.cpp:148] Top shape: 10 256 7 7 (125440)
I0924 00:24:11.867398 20248 net.cpp:156] Memory required for data: 529984000
I0924 00:24:11.867403 20248 layer_factory.hpp:77] Creating layer inception_5a/3x3_reduce
I0924 00:24:11.867418 20248 net.cpp:91] Creating Layer inception_5a/3x3_reduce
I0924 00:24:11.867424 20248 net.cpp:425] inception_5a/3x3_reduce <- pool4/3x3_s2_pool4/3x3_s2_0_split_1
I0924 00:24:11.867434 20248 net.cpp:399] inception_5a/3x3_reduce -> inception_5a/3x3_reduce
I0924 00:24:11.870561 20248 net.cpp:141] Setting up inception_5a/3x3_reduce
I0924 00:24:11.870591 20248 net.cpp:148] Top shape: 10 160 7 7 (78400)
I0924 00:24:11.870604 20248 net.cpp:156] Memory required for data: 530297600
I0924 00:24:11.870614 20248 layer_factory.hpp:77] Creating layer inception_5a/relu_3x3_reduce
I0924 00:24:11.870621 20248 net.cpp:91] Creating Layer inception_5a/relu_3x3_reduce
I0924 00:24:11.870627 20248 net.cpp:425] inception_5a/relu_3x3_reduce <- inception_5a/3x3_reduce
I0924 00:24:11.870636 20248 net.cpp:386] inception_5a/relu_3x3_reduce -> inception_5a/3x3_reduce (in-place)
I0924 00:24:11.870882 20248 net.cpp:141] Setting up inception_5a/relu_3x3_reduce
I0924 00:24:11.870894 20248 net.cpp:148] Top shape: 10 160 7 7 (78400)
I0924 00:24:11.870898 20248 net.cpp:156] Memory required for data: 530611200
I0924 00:24:11.870903 20248 layer_factory.hpp:77] Creating layer inception_5a/3x3
I0924 00:24:11.870920 20248 net.cpp:91] Creating Layer inception_5a/3x3
I0924 00:24:11.870926 20248 net.cpp:425] inception_5a/3x3 <- inception_5a/3x3_reduce
I0924 00:24:11.870934 20248 net.cpp:399] inception_5a/3x3 -> inception_5a/3x3
I0924 00:24:11.877159 20248 net.cpp:141] Setting up inception_5a/3x3
I0924 00:24:11.877190 20248 net.cpp:148] Top shape: 10 320 7 7 (156800)
I0924 00:24:11.877197 20248 net.cpp:156] Memory required for data: 531238400
I0924 00:24:11.877204 20248 layer_factory.hpp:77] Creating layer inception_5a/relu_3x3
I0924 00:24:11.877213 20248 net.cpp:91] Creating Layer inception_5a/relu_3x3
I0924 00:24:11.877218 20248 net.cpp:425] inception_5a/relu_3x3 <- inception_5a/3x3
I0924 00:24:11.877228 20248 net.cpp:386] inception_5a/relu_3x3 -> inception_5a/3x3 (in-place)
I0924 00:24:11.877665 20248 net.cpp:141] Setting up inception_5a/relu_3x3
I0924 00:24:11.877678 20248 net.cpp:148] Top shape: 10 320 7 7 (156800)
I0924 00:24:11.877682 20248 net.cpp:156] Memory required for data: 531865600
I0924 00:24:11.877687 20248 layer_factory.hpp:77] Creating layer inception_5a/5x5_reduce
I0924 00:24:11.877704 20248 net.cpp:91] Creating Layer inception_5a/5x5_reduce
I0924 00:24:11.877710 20248 net.cpp:425] inception_5a/5x5_reduce <- pool4/3x3_s2_pool4/3x3_s2_0_split_2
I0924 00:24:11.877722 20248 net.cpp:399] inception_5a/5x5_reduce -> inception_5a/5x5_reduce
I0924 00:24:11.879283 20248 net.cpp:141] Setting up inception_5a/5x5_reduce
I0924 00:24:11.879300 20248 net.cpp:148] Top shape: 10 32 7 7 (15680)
I0924 00:24:11.879319 20248 net.cpp:156] Memory required for data: 531928320
I0924 00:24:11.879328 20248 layer_factory.hpp:77] Creating layer inception_5a/relu_5x5_reduce
I0924 00:24:11.879335 20248 net.cpp:91] Creating Layer inception_5a/relu_5x5_reduce
I0924 00:24:11.879341 20248 net.cpp:425] inception_5a/relu_5x5_reduce <- inception_5a/5x5_reduce
I0924 00:24:11.879351 20248 net.cpp:386] inception_5a/relu_5x5_reduce -> inception_5a/5x5_reduce (in-place)
I0924 00:24:11.879770 20248 net.cpp:141] Setting up inception_5a/relu_5x5_reduce
I0924 00:24:11.879782 20248 net.cpp:148] Top shape: 10 32 7 7 (15680)
I0924 00:24:11.879787 20248 net.cpp:156] Memory required for data: 531991040
I0924 00:24:11.879791 20248 layer_factory.hpp:77] Creating layer inception_5a/5x5
I0924 00:24:11.879806 20248 net.cpp:91] Creating Layer inception_5a/5x5
I0924 00:24:11.879812 20248 net.cpp:425] inception_5a/5x5 <- inception_5a/5x5_reduce
I0924 00:24:11.879822 20248 net.cpp:399] inception_5a/5x5 -> inception_5a/5x5
I0924 00:24:11.882073 20248 net.cpp:141] Setting up inception_5a/5x5
I0924 00:24:11.882104 20248 net.cpp:148] Top shape: 10 128 7 7 (62720)
I0924 00:24:11.882110 20248 net.cpp:156] Memory required for data: 532241920
I0924 00:24:11.882118 20248 layer_factory.hpp:77] Creating layer inception_5a/relu_5x5
I0924 00:24:11.882148 20248 net.cpp:91] Creating Layer inception_5a/relu_5x5
I0924 00:24:11.882153 20248 net.cpp:425] inception_5a/relu_5x5 <- inception_5a/5x5
I0924 00:24:11.882160 20248 net.cpp:386] inception_5a/relu_5x5 -> inception_5a/5x5 (in-place)
I0924 00:24:11.882410 20248 net.cpp:141] Setting up inception_5a/relu_5x5
I0924 00:24:11.882421 20248 net.cpp:148] Top shape: 10 128 7 7 (62720)
I0924 00:24:11.882426 20248 net.cpp:156] Memory required for data: 532492800
I0924 00:24:11.882431 20248 layer_factory.hpp:77] Creating layer inception_5a/pool
I0924 00:24:11.882441 20248 net.cpp:91] Creating Layer inception_5a/pool
I0924 00:24:11.882447 20248 net.cpp:425] inception_5a/pool <- pool4/3x3_s2_pool4/3x3_s2_0_split_3
I0924 00:24:11.882454 20248 net.cpp:399] inception_5a/pool -> inception_5a/pool
I0924 00:24:11.882529 20248 net.cpp:141] Setting up inception_5a/pool
I0924 00:24:11.882539 20248 net.cpp:148] Top shape: 10 832 7 7 (407680)
I0924 00:24:11.882544 20248 net.cpp:156] Memory required for data: 534123520
I0924 00:24:11.882547 20248 layer_factory.hpp:77] Creating layer inception_5a/pool_proj
I0924 00:24:11.882560 20248 net.cpp:91] Creating Layer inception_5a/pool_proj
I0924 00:24:11.882566 20248 net.cpp:425] inception_5a/pool_proj <- inception_5a/pool
I0924 00:24:11.882576 20248 net.cpp:399] inception_5a/pool_proj -> inception_5a/pool_proj
I0924 00:24:11.885529 20248 net.cpp:141] Setting up inception_5a/pool_proj
I0924 00:24:11.885560 20248 net.cpp:148] Top shape: 10 128 7 7 (62720)
I0924 00:24:11.885565 20248 net.cpp:156] Memory required for data: 534374400
I0924 00:24:11.885573 20248 layer_factory.hpp:77] Creating layer inception_5a/relu_pool_proj
I0924 00:24:11.885581 20248 net.cpp:91] Creating Layer inception_5a/relu_pool_proj
I0924 00:24:11.885586 20248 net.cpp:425] inception_5a/relu_pool_proj <- inception_5a/pool_proj
I0924 00:24:11.885597 20248 net.cpp:386] inception_5a/relu_pool_proj -> inception_5a/pool_proj (in-place)
I0924 00:24:11.886021 20248 net.cpp:141] Setting up inception_5a/relu_pool_proj
I0924 00:24:11.886034 20248 net.cpp:148] Top shape: 10 128 7 7 (62720)
I0924 00:24:11.886039 20248 net.cpp:156] Memory required for data: 534625280
I0924 00:24:11.886044 20248 layer_factory.hpp:77] Creating layer inception_5a/output
I0924 00:24:11.886050 20248 net.cpp:91] Creating Layer inception_5a/output
I0924 00:24:11.886055 20248 net.cpp:425] inception_5a/output <- inception_5a/1x1
I0924 00:24:11.886061 20248 net.cpp:425] inception_5a/output <- inception_5a/3x3
I0924 00:24:11.886066 20248 net.cpp:425] inception_5a/output <- inception_5a/5x5
I0924 00:24:11.886071 20248 net.cpp:425] inception_5a/output <- inception_5a/pool_proj
I0924 00:24:11.886082 20248 net.cpp:399] inception_5a/output -> inception_5a/output
I0924 00:24:11.886128 20248 net.cpp:141] Setting up inception_5a/output
I0924 00:24:11.886142 20248 net.cpp:148] Top shape: 10 832 7 7 (407680)
I0924 00:24:11.886145 20248 net.cpp:156] Memory required for data: 536256000
I0924 00:24:11.886150 20248 layer_factory.hpp:77] Creating layer inception_5a/output_inception_5a/output_0_split
I0924 00:24:11.886157 20248 net.cpp:91] Creating Layer inception_5a/output_inception_5a/output_0_split
I0924 00:24:11.886162 20248 net.cpp:425] inception_5a/output_inception_5a/output_0_split <- inception_5a/output
I0924 00:24:11.886168 20248 net.cpp:399] inception_5a/output_inception_5a/output_0_split -> inception_5a/output_inception_5a/output_0_split_0
I0924 00:24:11.886178 20248 net.cpp:399] inception_5a/output_inception_5a/output_0_split -> inception_5a/output_inception_5a/output_0_split_1
I0924 00:24:11.886188 20248 net.cpp:399] inception_5a/output_inception_5a/output_0_split -> inception_5a/output_inception_5a/output_0_split_2
I0924 00:24:11.886196 20248 net.cpp:399] inception_5a/output_inception_5a/output_0_split -> inception_5a/output_inception_5a/output_0_split_3
I0924 00:24:11.886303 20248 net.cpp:141] Setting up inception_5a/output_inception_5a/output_0_split
I0924 00:24:11.886312 20248 net.cpp:148] Top shape: 10 832 7 7 (407680)
I0924 00:24:11.886318 20248 net.cpp:148] Top shape: 10 832 7 7 (407680)
I0924 00:24:11.886323 20248 net.cpp:148] Top shape: 10 832 7 7 (407680)
I0924 00:24:11.886328 20248 net.cpp:148] Top shape: 10 832 7 7 (407680)
I0924 00:24:11.886332 20248 net.cpp:156] Memory required for data: 542778880
I0924 00:24:11.886335 20248 layer_factory.hpp:77] Creating layer inception_5b/1x1
I0924 00:24:11.886349 20248 net.cpp:91] Creating Layer inception_5b/1x1
I0924 00:24:11.886355 20248 net.cpp:425] inception_5b/1x1 <- inception_5a/output_inception_5a/output_0_split_0
I0924 00:24:11.886365 20248 net.cpp:399] inception_5b/1x1 -> inception_5b/1x1
I0924 00:24:11.890835 20248 net.cpp:141] Setting up inception_5b/1x1
I0924 00:24:11.890866 20248 net.cpp:148] Top shape: 10 384 7 7 (188160)
I0924 00:24:11.890872 20248 net.cpp:156] Memory required for data: 543531520
I0924 00:24:11.890879 20248 layer_factory.hpp:77] Creating layer inception_5b/relu_1x1
I0924 00:24:11.890892 20248 net.cpp:91] Creating Layer inception_5b/relu_1x1
I0924 00:24:11.890897 20248 net.cpp:425] inception_5b/relu_1x1 <- inception_5b/1x1
I0924 00:24:11.890903 20248 net.cpp:386] inception_5b/relu_1x1 -> inception_5b/1x1 (in-place)
I0924 00:24:11.891350 20248 net.cpp:141] Setting up inception_5b/relu_1x1
I0924 00:24:11.891361 20248 net.cpp:148] Top shape: 10 384 7 7 (188160)
I0924 00:24:11.891366 20248 net.cpp:156] Memory required for data: 544284160
I0924 00:24:11.891371 20248 layer_factory.hpp:77] Creating layer inception_5b/3x3_reduce
I0924 00:24:11.891387 20248 net.cpp:91] Creating Layer inception_5b/3x3_reduce
I0924 00:24:11.891393 20248 net.cpp:425] inception_5b/3x3_reduce <- inception_5a/output_inception_5a/output_0_split_1
I0924 00:24:11.891402 20248 net.cpp:399] inception_5b/3x3_reduce -> inception_5b/3x3_reduce
I0924 00:24:11.894804 20248 net.cpp:141] Setting up inception_5b/3x3_reduce
I0924 00:24:11.894824 20248 net.cpp:148] Top shape: 10 192 7 7 (94080)
I0924 00:24:11.894829 20248 net.cpp:156] Memory required for data: 544660480
I0924 00:24:11.894837 20248 layer_factory.hpp:77] Creating layer inception_5b/relu_3x3_reduce
I0924 00:24:11.894845 20248 net.cpp:91] Creating Layer inception_5b/relu_3x3_reduce
I0924 00:24:11.894850 20248 net.cpp:425] inception_5b/relu_3x3_reduce <- inception_5b/3x3_reduce
I0924 00:24:11.894857 20248 net.cpp:386] inception_5b/relu_3x3_reduce -> inception_5b/3x3_reduce (in-place)
I0924 00:24:11.895112 20248 net.cpp:141] Setting up inception_5b/relu_3x3_reduce
I0924 00:24:11.895123 20248 net.cpp:148] Top shape: 10 192 7 7 (94080)
I0924 00:24:11.895126 20248 net.cpp:156] Memory required for data: 545036800
I0924 00:24:11.895131 20248 layer_factory.hpp:77] Creating layer inception_5b/3x3
I0924 00:24:11.895145 20248 net.cpp:91] Creating Layer inception_5b/3x3
I0924 00:24:11.895150 20248 net.cpp:425] inception_5b/3x3 <- inception_5b/3x3_reduce
I0924 00:24:11.895161 20248 net.cpp:399] inception_5b/3x3 -> inception_5b/3x3
I0924 00:24:11.902809 20248 net.cpp:141] Setting up inception_5b/3x3
I0924 00:24:11.902827 20248 net.cpp:148] Top shape: 10 384 7 7 (188160)
I0924 00:24:11.902845 20248 net.cpp:156] Memory required for data: 545789440
I0924 00:24:11.902854 20248 layer_factory.hpp:77] Creating layer inception_5b/relu_3x3
I0924 00:24:11.902863 20248 net.cpp:91] Creating Layer inception_5b/relu_3x3
I0924 00:24:11.902868 20248 net.cpp:425] inception_5b/relu_3x3 <- inception_5b/3x3
I0924 00:24:11.902874 20248 net.cpp:386] inception_5b/relu_3x3 -> inception_5b/3x3 (in-place)
I0924 00:24:11.903309 20248 net.cpp:141] Setting up inception_5b/relu_3x3
I0924 00:24:11.903321 20248 net.cpp:148] Top shape: 10 384 7 7 (188160)
I0924 00:24:11.903326 20248 net.cpp:156] Memory required for data: 546542080
I0924 00:24:11.903331 20248 layer_factory.hpp:77] Creating layer inception_5b/5x5_reduce
I0924 00:24:11.903345 20248 net.cpp:91] Creating Layer inception_5b/5x5_reduce
I0924 00:24:11.903352 20248 net.cpp:425] inception_5b/5x5_reduce <- inception_5a/output_inception_5a/output_0_split_2
I0924 00:24:11.903362 20248 net.cpp:399] inception_5b/5x5_reduce -> inception_5b/5x5_reduce
I0924 00:24:11.905083 20248 net.cpp:141] Setting up inception_5b/5x5_reduce
I0924 00:24:11.905112 20248 net.cpp:148] Top shape: 10 48 7 7 (23520)
I0924 00:24:11.905118 20248 net.cpp:156] Memory required for data: 546636160
I0924 00:24:11.905127 20248 layer_factory.hpp:77] Creating layer inception_5b/relu_5x5_reduce
I0924 00:24:11.905133 20248 net.cpp:91] Creating Layer inception_5b/relu_5x5_reduce
I0924 00:24:11.905139 20248 net.cpp:425] inception_5b/relu_5x5_reduce <- inception_5b/5x5_reduce
I0924 00:24:11.905148 20248 net.cpp:386] inception_5b/relu_5x5_reduce -> inception_5b/5x5_reduce (in-place)
I0924 00:24:11.905563 20248 net.cpp:141] Setting up inception_5b/relu_5x5_reduce
I0924 00:24:11.905575 20248 net.cpp:148] Top shape: 10 48 7 7 (23520)
I0924 00:24:11.905580 20248 net.cpp:156] Memory required for data: 546730240
I0924 00:24:11.905585 20248 layer_factory.hpp:77] Creating layer inception_5b/5x5
I0924 00:24:11.905601 20248 net.cpp:91] Creating Layer inception_5b/5x5
I0924 00:24:11.905607 20248 net.cpp:425] inception_5b/5x5 <- inception_5b/5x5_reduce
I0924 00:24:11.905616 20248 net.cpp:399] inception_5b/5x5 -> inception_5b/5x5
I0924 00:24:11.908535 20248 net.cpp:141] Setting up inception_5b/5x5
I0924 00:24:11.908565 20248 net.cpp:148] Top shape: 10 128 7 7 (62720)
I0924 00:24:11.908571 20248 net.cpp:156] Memory required for data: 546981120
I0924 00:24:11.908578 20248 layer_factory.hpp:77] Creating layer inception_5b/relu_5x5
I0924 00:24:11.908586 20248 net.cpp:91] Creating Layer inception_5b/relu_5x5
I0924 00:24:11.908592 20248 net.cpp:425] inception_5b/relu_5x5 <- inception_5b/5x5
I0924 00:24:11.908601 20248 net.cpp:386] inception_5b/relu_5x5 -> inception_5b/5x5 (in-place)
I0924 00:24:11.908854 20248 net.cpp:141] Setting up inception_5b/relu_5x5
I0924 00:24:11.908865 20248 net.cpp:148] Top shape: 10 128 7 7 (62720)
I0924 00:24:11.908870 20248 net.cpp:156] Memory required for data: 547232000
I0924 00:24:11.908874 20248 layer_factory.hpp:77] Creating layer inception_5b/pool
I0924 00:24:11.908885 20248 net.cpp:91] Creating Layer inception_5b/pool
I0924 00:24:11.908891 20248 net.cpp:425] inception_5b/pool <- inception_5a/output_inception_5a/output_0_split_3
I0924 00:24:11.908898 20248 net.cpp:399] inception_5b/pool -> inception_5b/pool
I0924 00:24:11.908975 20248 net.cpp:141] Setting up inception_5b/pool
I0924 00:24:11.908985 20248 net.cpp:148] Top shape: 10 832 7 7 (407680)
I0924 00:24:11.908989 20248 net.cpp:156] Memory required for data: 548862720
I0924 00:24:11.908994 20248 layer_factory.hpp:77] Creating layer inception_5b/pool_proj
I0924 00:24:11.909008 20248 net.cpp:91] Creating Layer inception_5b/pool_proj
I0924 00:24:11.909013 20248 net.cpp:425] inception_5b/pool_proj <- inception_5b/pool
I0924 00:24:11.909024 20248 net.cpp:399] inception_5b/pool_proj -> inception_5b/pool_proj
I0924 00:24:11.912042 20248 net.cpp:141] Setting up inception_5b/pool_proj
I0924 00:24:11.912061 20248 net.cpp:148] Top shape: 10 128 7 7 (62720)
I0924 00:24:11.912068 20248 net.cpp:156] Memory required for data: 549113600
I0924 00:24:11.912076 20248 layer_factory.hpp:77] Creating layer inception_5b/relu_pool_proj
I0924 00:24:11.912086 20248 net.cpp:91] Creating Layer inception_5b/relu_pool_proj
I0924 00:24:11.912091 20248 net.cpp:425] inception_5b/relu_pool_proj <- inception_5b/pool_proj
I0924 00:24:11.912096 20248 net.cpp:386] inception_5b/relu_pool_proj -> inception_5b/pool_proj (in-place)
I0924 00:24:11.912529 20248 net.cpp:141] Setting up inception_5b/relu_pool_proj
I0924 00:24:11.912544 20248 net.cpp:148] Top shape: 10 128 7 7 (62720)
I0924 00:24:11.912549 20248 net.cpp:156] Memory required for data: 549364480
I0924 00:24:11.912554 20248 layer_factory.hpp:77] Creating layer inception_5b/output
I0924 00:24:11.912561 20248 net.cpp:91] Creating Layer inception_5b/output
I0924 00:24:11.912566 20248 net.cpp:425] inception_5b/output <- inception_5b/1x1
I0924 00:24:11.912572 20248 net.cpp:425] inception_5b/output <- inception_5b/3x3
I0924 00:24:11.912577 20248 net.cpp:425] inception_5b/output <- inception_5b/5x5
I0924 00:24:11.912582 20248 net.cpp:425] inception_5b/output <- inception_5b/pool_proj
I0924 00:24:11.912587 20248 net.cpp:399] inception_5b/output -> inception_5b/output
I0924 00:24:11.912639 20248 net.cpp:141] Setting up inception_5b/output
I0924 00:24:11.912649 20248 net.cpp:148] Top shape: 10 1024 7 7 (501760)
I0924 00:24:11.912653 20248 net.cpp:156] Memory required for data: 551371520
I0924 00:24:11.912657 20248 layer_factory.hpp:77] Creating layer pool5/7x7_s1
I0924 00:24:11.912667 20248 net.cpp:91] Creating Layer pool5/7x7_s1
I0924 00:24:11.912672 20248 net.cpp:425] pool5/7x7_s1 <- inception_5b/output
I0924 00:24:11.912679 20248 net.cpp:399] pool5/7x7_s1 -> pool5/7x7_s1
I0924 00:24:11.912983 20248 net.cpp:141] Setting up pool5/7x7_s1
I0924 00:24:11.912997 20248 net.cpp:148] Top shape: 10 1024 1 1 (10240)
I0924 00:24:11.913002 20248 net.cpp:156] Memory required for data: 551412480
I0924 00:24:11.913007 20248 layer_factory.hpp:77] Creating layer pool5/drop_7x7_s1
I0924 00:24:11.913018 20248 net.cpp:91] Creating Layer pool5/drop_7x7_s1
I0924 00:24:11.913023 20248 net.cpp:425] pool5/drop_7x7_s1 <- pool5/7x7_s1
I0924 00:24:11.913029 20248 net.cpp:386] pool5/drop_7x7_s1 -> pool5/7x7_s1 (in-place)
I0924 00:24:11.913084 20248 net.cpp:141] Setting up pool5/drop_7x7_s1
I0924 00:24:11.913094 20248 net.cpp:148] Top shape: 10 1024 1 1 (10240)
I0924 00:24:11.913097 20248 net.cpp:156] Memory required for data: 551453440
I0924 00:24:11.913101 20248 layer_factory.hpp:77] Creating layer loss3/classifier
I0924 00:24:11.913116 20248 net.cpp:91] Creating Layer loss3/classifier
I0924 00:24:11.913121 20248 net.cpp:425] loss3/classifier <- pool5/7x7_s1
I0924 00:24:11.913128 20248 net.cpp:399] loss3/classifier -> loss3/classifier
I0924 00:24:11.922577 20248 net.cpp:141] Setting up loss3/classifier
I0924 00:24:11.922615 20248 net.cpp:148] Top shape: 10 1000 (10000)
I0924 00:24:11.922621 20248 net.cpp:156] Memory required for data: 551493440
I0924 00:24:11.922629 20248 layer_factory.hpp:77] Creating layer prob
I0924 00:24:11.922641 20248 net.cpp:91] Creating Layer prob
I0924 00:24:11.922646 20248 net.cpp:425] prob <- loss3/classifier
I0924 00:24:11.922653 20248 net.cpp:399] prob -> prob
I0924 00:24:11.923208 20248 net.cpp:141] Setting up prob
I0924 00:24:11.923224 20248 net.cpp:148] Top shape: 10 1000 (10000)
I0924 00:24:11.923229 20248 net.cpp:156] Memory required for data: 551533440
I0924 00:24:11.923234 20248 net.cpp:219] prob does not need backward computation.
I0924 00:24:11.923239 20248 net.cpp:219] loss3/classifier does not need backward computation.
I0924 00:24:11.923243 20248 net.cpp:219] pool5/drop_7x7_s1 does not need backward computation.
I0924 00:24:11.923247 20248 net.cpp:219] pool5/7x7_s1 does not need backward computation.
…
