…
Java HotSpot(TM) 64-Bit Server VM warning: You have loaded library /tmp/cvld819334911092608980/libopencv_java310.xine1.so which might have disabled stack guard. The VM will try to fix the stack guard now.
It's highly recommended that you fix the library with 'execstack -c <libfile>', or link it with '-z noexecstack'.
WARNING: Logging before InitGoogleLogging() is written to STDERR
I0720 16:09:36.139160 15273 net.cpp:49] Initializing net from parameters: 
name: "CaffeNet"
state {
  phase: TEST
}
layer {
  name: "data"
  type: "Input"
  top: "data"
  input_param {
    shape {
      dim: 10
      dim: 3
      dim: 227
      dim: 227
    }
  }
}
layer {
  name: "conv1"
  type: "Convolution"
  bottom: "data"
  top: "conv1"
  convolution_param {
    num_output: 96
    kernel_size: 11
    stride: 4
  }
}
layer {
  name: "relu1"
  type: "ReLU"
  bottom: "conv1"
  top: "conv1"
}
layer {
  name: "pool1"
  type: "Pooling"
  bottom: "conv1"
  top: "pool1"
  pooling_param {
    pool: MAX
    kernel_size: 3
    stride: 2
  }
}
layer {
  name: "norm1"
  type: "LRN"
  bottom: "pool1"
  top: "norm1"
  lrn_param {
    local_size: 5
    alpha: 0.0001
    beta: 0.75
  }
}
layer {
  name: "conv2"
  type: "Convolution"
  bottom: "norm1"
  top: "conv2"
  convolution_param {
    num_output: 256
    pad: 2
    kernel_size: 5
    group: 2
  }
}
layer {
  name: "relu2"
  type: "ReLU"
  bottom: "conv2"
  top: "conv2"
}
layer {
  name: "pool2"
  type: "Pooling"
  bottom: "conv2"
  top: "pool2"
  pooling_param {
    pool: MAX
    kernel_size: 3
    stride: 2
  }
}
layer {
  name: "norm2"
  type: "LRN"
  bottom: "pool2"
  top: "norm2"
  lrn_param {
    local_size: 5
    alpha: 0.0001
    beta: 0.75
  }
}
layer {
  name: "conv3"
  type: "Convolution"
  bottom: "norm2"
  top: "conv3"
  convolution_param {
    num_output: 384
    pad: 1
    kernel_size: 3
  }
}
layer {
  name: "relu3"
  type: "ReLU"
  bottom: "conv3"
  top: "conv3"
}
layer {
  name: "conv4"
  type: "Convolution"
  bottom: "conv3"
  top: "conv4"
  convolution_param {
    num_output: 384
    pad: 1
    kernel_size: 3
    group: 2
  }
}
layer {
  name: "relu4"
  type: "ReLU"
  bottom: "conv4"
  top: "conv4"
}
layer {
  name: "conv5"
  type: "Convolution"
  bottom: "conv4"
  top: "conv5"
  convolution_param {
    num_output: 256
    pad: 1
    kernel_size: 3
    group: 2
  }
}
layer {
  name: "relu5"
  type: "ReLU"
  bottom: "conv5"
  top: "conv5"
}
layer {
  name: "pool5"
  type: "Pooling"
  bottom: "conv5"
  top: "pool5"
  pooling_param {
    pool: MAX
    kernel_size: 3
    stride: 2
  }
}
layer {
  name: "fc6"
  type: "InnerProduct"
  bottom: "pool5"
  top: "fc6"
  inner_product_param {
    num_output: 4096
  }
}
layer {
  name: "relu6"
  type: "ReLU"
  bottom: "fc6"
  top: "fc6"
}
layer {
  name: "drop6"
  type: "Dropout"
  bottom: "fc6"
  top: "fc6"
  dropout_param {
    dropout_ratio: 0.5
  }
}
layer {
  name: "fc7"
  type: "InnerProduct"
  bottom: "fc6"
  top: "fc7"
  inner_product_param {
    num_output: 4096
  }
}
layer {
  name: "relu7"
  type: "ReLU"
  bottom: "fc7"
  top: "fc7"
}
layer {
  name: "drop7"
  type: "Dropout"
  bottom: "fc7"
  top: "fc7"
  dropout_param {
    dropout_ratio: 0.5
  }
}
layer {
  name: "fc8"
  type: "InnerProduct"
  bottom: "fc7"
  top: "fc8"
  inner_product_param {
    num_output: 1000
  }
}
layer {
  name: "prob"
  type: "Softmax"
  bottom: "fc8"
  top: "prob"
}
I0720 16:09:36.139338 15273 layer_factory.hpp:77] Creating layer data
I0720 16:09:36.139364 15273 net.cpp:91] Creating Layer data
I0720 16:09:36.139374 15273 net.cpp:399] data -> data
I0720 16:09:36.144515 15256 net.cpp:49] Initializing net from parameters: 
name: "CaffeNet"
state {
  phase: TEST
}
layer {
  name: "data"
  type: "Input"
  top: "data"
  input_param {
    shape {
      dim: 10
      dim: 3
      dim: 227
      dim: 227
    }
  }
}
layer {
  name: "conv1"
  type: "Convolution"
  bottom: "data"
  top: "conv1"
  convolution_param {
    num_output: 96
    kernel_size: 11
    stride: 4
  }
}
layer {
  name: "relu1"
  type: "ReLU"
  bottom: "conv1"
  top: "conv1"
}
layer {
  name: "pool1"
  type: "Pooling"
  bottom: "conv1"
  top: "pool1"
  pooling_param {
    pool: MAX
    kernel_size: 3
    stride: 2
  }
}
layer {
  name: "norm1"
  type: "LRN"
  bottom: "pool1"
  top: "norm1"
  lrn_param {
    local_size: 5
    alpha: 0.0001
    beta: 0.75
  }
}
layer {
  name: "conv2"
  type: "Convolution"
  bottom: "norm1"
  top: "conv2"
  convolution_param {
    num_output: 256
    pad: 2
    kernel_size: 5
    group: 2
  }
}
layer {
  name: "relu2"
  type: "ReLU"
  bottom: "conv2"
  top: "conv2"
}
layer {
  name: "pool2"
  type: "Pooling"
  bottom: "conv2"
  top: "pool2"
  pooling_param {
    pool: MAX
    kernel_size: 3
    stride: 2
  }
}
layer {
  name: "norm2"
  type: "LRN"
  bottom: "pool2"
  top: "norm2"
  lrn_param {
    local_size: 5
    alpha: 0.0001
    beta: 0.75
  }
}
layer {
  name: "conv3"
  type: "Convolution"
  bottom: "norm2"
  top: "conv3"
  convolution_param {
    num_output: 384
    pad: 1
    kernel_size: 3
  }
}
layer {
  name: "relu3"
  type: "ReLU"
  bottom: "conv3"
  top: "conv3"
}
layer {
  name: "conv4"
  type: "Convolution"
  bottom: "conv3"
  top: "conv4"
  convolution_param {
    num_output: 384
    pad: 1
    kernel_size: 3
    group: 2
  }
}
layer {
  name: "relu4"
  type: "ReLU"
  bottom: "conv4"
  top: "conv4"
}
layer {
  name: "conv5"
  type: "Convolution"
  bottom: "conv4"
  top: "conv5"
  convolution_param {
    num_output: 256
    pad: 1
    kernel_size: 3
    group: 2
  }
}
layer {
  name: "relu5"
  type: "ReLU"
  bottom: "conv5"
  top: "conv5"
}
layer {
  name: "pool5"
  type: "Pooling"
  bottom: "conv5"
  top: "pool5"
  pooling_param {
    pool: MAX
    kernel_size: 3
    stride: 2
  }
}
layer {
  name: "fc6"
  type: "InnerProduct"
  bottom: "pool5"
  top: "fc6"
  inner_product_param {
    num_output: 4096
  }
}
layer {
  name: "relu6"
  type: "ReLU"
  bottom: "fc6"
  top: "fc6"
}
layer {
  name: "drop6"
  type: "Dropout"
  bottom: "fc6"
  top: "fc6"
  dropout_param {
    dropout_ratio: 0.5
  }
}
layer {
  name: "fc7"
  type: "InnerProduct"
  bottom: "fc6"
  top: "fc7"
  inner_product_param {
    num_output: 4096
  }
}
layer {
  name: "relu7"
  type: "ReLU"
  bottom: "fc7"
  top: "fc7"
}
layer {
  name: "drop7"
  type: "Dropout"
  bottom: "fc7"
  top: "fc7"
  dropout_param {
    dropout_ratio: 0.5
  }
}
layer {
  name: "fc8"
  type: "InnerProduct"
  bottom: "fc7"
  top: "fc8"
  inner_product_param {
    num_output: 1000
  }
}
layer {
  name: "prob"
  type: "Softmax"
  bottom: "fc8"
  top: "prob"
}
I0720 16:09:36.144618 15256 layer_factory.hpp:77] Creating layer data
I0720 16:09:36.144629 15256 net.cpp:91] Creating Layer data
I0720 16:09:36.144636 15256 net.cpp:399] data -> data
I0720 16:09:36.402559 15250 upgrade_proto.cpp:66] Attempting to upgrade input file specified using deprecated input fields: /tmp/cvld819334911092608980/s2vt.words_to_preds.prototxt
I0720 16:09:36.402606 15250 upgrade_proto.cpp:69] Successfully upgraded file specified using deprecated input fields.
W0720 16:09:36.402614 15250 upgrade_proto.cpp:71] Note that future Caffe releases will only support input layers and not input fields.
I0720 16:09:36.402863 15250 net.cpp:49] Initializing net from parameters: 
name: "s2vt:features_to_lstm"
state {
  phase: TEST
}
layer {
  name: "input"
  type: "Input"
  top: "frames_fc7"
  top: "cont_sentence"
  top: "input_sentence"
  top: "stage_indicator"
  input_param {
    shape {
      dim: 1
      dim: 4096
    }
    shape {
      dim: 1
      dim: 1
    }
    shape {
      dim: 1
      dim: 1
    }
    shape {
      dim: 1
      dim: 1
    }
  }
}
layer {
  name: "embed_encoder"
  type: "InnerProduct"
  bottom: "frames_fc7"
  top: "embedded_in_frames"
  param {
    lr_mult: 1
    decay_mult: 1
  }
  param {
    lr_mult: 2
    decay_mult: 0
  }
  inner_product_param {
    num_output: 500
    weight_filler {
      type: "xavier"
    }
    bias_filler {
      type: "constant"
      value: 0.2
    }
  }
}
layer {
  name: "reshape_frames"
  type: "Reshape"
  bottom: "embedded_in_frames"
  top: "embedded_input_frames"
  reshape_param {
    shape {
      dim: 1
      dim: 1
      dim: 500
    }
  }
}
layer {
  name: "reshape_stage_indicator"
  type: "Reshape"
  bottom: "stage_indicator"
  top: "reshaped_stage_indicator"
  reshape_param {
    shape {
      dim: 1
      dim: 1
      dim: 1
    }
  }
}
layer {
  name: "embedding"
  type: "Embed"
  bottom: "input_sentence"
  top: "embedded_input_sentence"
  param {
    lr_mult: 1
  }
  embed_param {
    num_output: 500
    input_dim: 46168
    bias_term: false
    weight_filler {
      type: "uniform"
      min: -0.08
      max: 0.08
    }
  }
}
layer {
  name: "lstm1"
  type: "LSTM"
  bottom: "embedded_input_frames"
  bottom: "cont_sentence"
  top: "lstm1"
  recurrent_param {
    num_output: 1000
    weight_filler {
      type: "uniform"
      min: -0.08
      max: 0.08
    }
    bias_filler {
      type: "constant"
      value: 0
    }
  }
}
layer {
  name: "concat"
  type: "Concat"
  bottom: "lstm1"
  bottom: "embedded_input_sentence"
  bottom: "reshaped_stage_indicator"
  top: "lstm1_video_sequence"
  concat_param {
    concat_dim: 2
  }
}
layer {
  name: "lstm2"
  type: "LSTM"
  bottom: "lstm1_video_sequence"
  bottom: "cont_sentence"
  top: "lstm2"
  recurrent_param {
    num_output: 1000
    weight_filler {
      type: "uniform"
      min: -0.08
      max: 0.08
    }
    bias_filler {
      type: "constant"
      value: 0
    }
  }
}
layer {
  name: "predict"
  type: "InnerProduct"
  bottom: "lstm2"
  top: "predict"
  param {
    lr_mult: 1
    decay_mult: 1
  }
  param {
    lr_mult: 2
    decay_mult: 0
  }
  inner_product_param {
    num_output: 46168
    weight_filler {
      type: "uniform"
      min: -0.08
      max: 0.08
    }
    bias_filler {
      type: "constant"
      value: 0
    }
    axis: 2
  }
}
layer {
  name: "probs"
  type: "Softmax"
  bottom: "predict"
  top: "probs"
  softmax_param {
    axis: 2
  }
}
I0720 16:09:36.402987 15250 layer_factory.hpp:77] Creating layer input
I0720 16:09:36.403002 15250 net.cpp:91] Creating Layer input
I0720 16:09:36.403009 15250 net.cpp:399] input -> frames_fc7
I0720 16:09:36.403025 15250 net.cpp:399] input -> cont_sentence
I0720 16:09:36.403040 15250 net.cpp:399] input -> input_sentence
I0720 16:09:36.403050 15250 net.cpp:399] input -> stage_indicator
I0720 16:09:36.403065 15250 net.cpp:141] Setting up input
I0720 16:09:36.403081 15250 net.cpp:148] Top shape: 1 4096 (4096)
I0720 16:09:36.403087 15250 net.cpp:148] Top shape: 1 1 (1)
I0720 16:09:36.403092 15250 net.cpp:148] Top shape: 1 1 (1)
I0720 16:09:36.403097 15250 net.cpp:148] Top shape: 1 1 (1)
I0720 16:09:36.403095 15252 upgrade_proto.cpp:66] Attempting to upgrade input file specified using deprecated input fields: /tmp/cvld819334911092608980/s2vt.words_to_preds.prototxt
I0720 16:09:36.403101 15250 net.cpp:156] Memory required for data: 16396
I0720 16:09:36.403113 15250 layer_factory.hpp:77] Creating layer cont_sentence_input_1_split
I0720 16:09:36.403115 15252 upgrade_proto.cpp:69] Successfully upgraded file specified using deprecated input fields.
W0720 16:09:36.403120 15252 upgrade_proto.cpp:71] Note that future Caffe releases will only support input layers and not input fields.
I0720 16:09:36.403132 15250 net.cpp:91] Creating Layer cont_sentence_input_1_split
I0720 16:09:36.403141 15250 net.cpp:425] cont_sentence_input_1_split <- cont_sentence
I0720 16:09:36.403157 15250 net.cpp:399] cont_sentence_input_1_split -> cont_sentence_input_1_split_0
I0720 16:09:36.403167 15250 net.cpp:399] cont_sentence_input_1_split -> cont_sentence_input_1_split_1
I0720 16:09:36.403178 15250 net.cpp:141] Setting up cont_sentence_input_1_split
I0720 16:09:36.403185 15250 net.cpp:148] Top shape: 1 1 (1)
I0720 16:09:36.403190 15250 net.cpp:148] Top shape: 1 1 (1)
I0720 16:09:36.403194 15250 net.cpp:156] Memory required for data: 16404
I0720 16:09:36.403198 15250 layer_factory.hpp:77] Creating layer embed_encoder
I0720 16:09:36.403208 15250 net.cpp:91] Creating Layer embed_encoder
I0720 16:09:36.403213 15250 net.cpp:425] embed_encoder <- frames_fc7
I0720 16:09:36.403223 15250 net.cpp:399] embed_encoder -> embedded_in_frames
I0720 16:09:36.403308 15252 net.cpp:49] Initializing net from parameters: 
name: "s2vt:features_to_lstm"
state {
  phase: TEST
}
layer {
  name: "input"
  type: "Input"
  top: "frames_fc7"
  top: "cont_sentence"
  top: "input_sentence"
  top: "stage_indicator"
  input_param {
    shape {
      dim: 1
      dim: 4096
    }
    shape {
      dim: 1
      dim: 1
    }
    shape {
      dim: 1
      dim: 1
    }
    shape {
      dim: 1
      dim: 1
    }
  }
}
layer {
  name: "embed_encoder"
  type: "InnerProduct"
  bottom: "frames_fc7"
  top: "embedded_in_frames"
  param {
    lr_mult: 1
    decay_mult: 1
  }
  param {
    lr_mult: 2
    decay_mult: 0
  }
  inner_product_param {
    num_output: 500
    weight_filler {
      type: "xavier"
    }
    bias_filler {
      type: "constant"
      value: 0.2
    }
  }
}
layer {
  name: "reshape_frames"
  type: "Reshape"
  bottom: "embedded_in_frames"
  top: "embedded_input_frames"
  reshape_param {
    shape {
      dim: 1
      dim: 1
      dim: 500
    }
  }
}
layer {
  name: "reshape_stage_indicator"
  type: "Reshape"
  bottom: "stage_indicator"
  top: "reshaped_stage_indicator"
  reshape_param {
    shape {
      dim: 1
      dim: 1
      dim: 1
    }
  }
}
layer {
  name: "embedding"
  type: "Embed"
  bottom: "input_sentence"
  top: "embedded_input_sentence"
  param {
    lr_mult: 1
  }
  embed_param {
    num_output: 500
    input_dim: 46168
    bias_term: false
    weight_filler {
      type: "uniform"
      min: -0.08
      max: 0.08
    }
  }
}
layer {
  name: "lstm1"
  type: "LSTM"
  bottom: "embedded_input_frames"
  bottom: "cont_sentence"
  top: "lstm1"
  recurrent_param {
    num_output: 1000
    weight_filler {
      type: "uniform"
      min: -0.08
      max: 0.08
    }
    bias_filler {
      type: "constant"
      value: 0
    }
  }
}
layer {
  name: "concat"
  type: "Concat"
  bottom: "lstm1"
  bottom: "embedded_input_sentence"
  bottom: "reshaped_stage_indicator"
  top: "lstm1_video_sequence"
  concat_param {
    concat_dim: 2
  }
}
layer {
  name: "lstm2"
  type: "LSTM"
  bottom: "lstm1_video_sequence"
  bottom: "cont_sentence"
  top: "lstm2"
  recurrent_param {
    num_output: 1000
    weight_filler {
      type: "uniform"
      min: -0.08
      max: 0.08
    }
    bias_filler {
      type: "constant"
      value: 0
    }
  }
}
layer {
  name: "predict"
  type: "InnerProduct"
  bottom: "lstm2"
  top: "predict"
  param {
    lr_mult: 1
    decay_mult: 1
  }
  param {
    lr_mult: 2
    decay_mult: 0
  }
  inner_product_param {
    num_output: 46168
    weight_filler {
      type: "uniform"
      min: -0.08
      max: 0.08
    }
    bias_filler {
      type: "constant"
      value: 0
    }
    axis: 2
  }
}
layer {
  name: "probs"
  type: "Softmax"
  bottom: "predict"
  top: "probs"
  softmax_param {
    axis: 2
  }
}
I0720 16:09:36.403398 15252 layer_factory.hpp:77] Creating layer input
I0720 16:09:36.403410 15252 net.cpp:91] Creating Layer input
I0720 16:09:36.403419 15252 net.cpp:399] input -> frames_fc7
I0720 16:09:36.403432 15252 net.cpp:399] input -> cont_sentence
I0720 16:09:36.403442 15252 net.cpp:399] input -> input_sentence
I0720 16:09:36.403451 15252 net.cpp:399] input -> stage_indicator
I0720 16:09:36.403463 15252 net.cpp:141] Setting up input
I0720 16:09:36.403470 15252 net.cpp:148] Top shape: 1 4096 (4096)
I0720 16:09:36.403476 15252 net.cpp:148] Top shape: 1 1 (1)
I0720 16:09:36.403481 15252 net.cpp:148] Top shape: 1 1 (1)
I0720 16:09:36.403486 15252 net.cpp:148] Top shape: 1 1 (1)
I0720 16:09:36.403489 15252 net.cpp:156] Memory required for data: 16396
I0720 16:09:36.403494 15252 layer_factory.hpp:77] Creating layer cont_sentence_input_1_split
I0720 16:09:36.403502 15252 net.cpp:91] Creating Layer cont_sentence_input_1_split
I0720 16:09:36.403506 15252 net.cpp:425] cont_sentence_input_1_split <- cont_sentence
I0720 16:09:36.403513 15252 net.cpp:399] cont_sentence_input_1_split -> cont_sentence_input_1_split_0
I0720 16:09:36.403522 15252 net.cpp:399] cont_sentence_input_1_split -> cont_sentence_input_1_split_1
I0720 16:09:36.403532 15252 net.cpp:141] Setting up cont_sentence_input_1_split
I0720 16:09:36.403537 15252 net.cpp:148] Top shape: 1 1 (1)
I0720 16:09:36.403542 15252 net.cpp:148] Top shape: 1 1 (1)
I0720 16:09:36.403547 15252 net.cpp:156] Memory required for data: 16404
I0720 16:09:36.403550 15252 layer_factory.hpp:77] Creating layer embed_encoder
I0720 16:09:36.403635 15252 net.cpp:91] Creating Layer embed_encoder
I0720 16:09:36.403674 15252 net.cpp:425] embed_encoder <- frames_fc7
I0720 16:09:36.403702 15252 net.cpp:399] embed_encoder -> embedded_in_frames
I0720 16:09:36.406888 15282 upgrade_proto.cpp:66] Attempting to upgrade input file specified using deprecated input fields: /tmp/cvld819334911092608980/s2vt.words_to_preds.prototxt
I0720 16:09:36.406920 15282 upgrade_proto.cpp:69] Successfully upgraded file specified using deprecated input fields.
W0720 16:09:36.406932 15282 upgrade_proto.cpp:71] Note that future Caffe releases will only support input layers and not input fields.
I0720 16:09:36.407405 15282 net.cpp:49] Initializing net from parameters: 
name: "s2vt:features_to_lstm"
state {
  phase: TEST
}
layer {
  name: "input"
  type: "Input"
  top: "frames_fc7"
  top: "cont_sentence"
  top: "input_sentence"
  top: "stage_indicator"
  input_param {
    shape {
      dim: 1
      dim: 4096
    }
    shape {
      dim: 1
      dim: 1
    }
    shape {
      dim: 1
      dim: 1
    }
    shape {
      dim: 1
      dim: 1
    }
  }
}
layer {
  name: "embed_encoder"
  type: "InnerProduct"
  bottom: "frames_fc7"
  top: "embedded_in_frames"
  param {
    lr_mult: 1
    decay_mult: 1
  }
  param {
    lr_mult: 2
    decay_mult: 0
  }
  inner_product_param {
    num_output: 500
    weight_filler {
      type: "xavier"
    }
    bias_filler {
      type: "constant"
      value: 0.2
    }
  }
}
layer {
  name: "reshape_frames"
  type: "Reshape"
  bottom: "embedded_in_frames"
  top: "embedded_input_frames"
  reshape_param {
    shape {
      dim: 1
      dim: 1
      dim: 500
    }
  }
}
layer {
  name: "reshape_stage_indicator"
  type: "Reshape"
  bottom: "stage_indicator"
  top: "reshaped_stage_indicator"
  reshape_param {
    shape {
      dim: 1
      dim: 1
      dim: 1
    }
  }
}
layer {
  name: "embedding"
  type: "Embed"
  bottom: "input_sentence"
  top: "embedded_input_sentence"
  param {
    lr_mult: 1
  }
  embed_param {
    num_output: 500
    input_dim: 46168
    bias_term: false
    weight_filler {
      type: "uniform"
      min: -0.08
      max: 0.08
    }
  }
}
layer {
  name: "lstm1"
  type: "LSTM"
  bottom: "embedded_input_frames"
  bottom: "cont_sentence"
  top: "lstm1"
  recurrent_param {
    num_output: 1000
    weight_filler {
      type: "uniform"
      min: -0.08
      max: 0.08
    }
    bias_filler {
      type: "constant"
      value: 0
    }
  }
}
layer {
  name: "concat"
  type: "Concat"
  bottom: "lstm1"
  bottom: "embedded_input_sentence"
  bottom: "reshaped_stage_indicator"
  top: "lstm1_video_sequence"
  concat_param {
    concat_dim: 2
  }
}
layer {
  name: "lstm2"
  type: "LSTM"
  bottom: "lstm1_video_sequence"
  bottom: "cont_sentence"
  top: "lstm2"
  recurrent_param {
    num_output: 1000
    weight_filler {
      type: "uniform"
      min: -0.08
      max: 0.08
    }
    bias_filler {
      type: "constant"
      value: 0
    }
  }
}
layer {
  name: "predict"
  type: "InnerProduct"
  bottom: "lstm2"
  top: "predict"
  param {
    lr_mult: 1
    decay_mult: 1
  }
  param {
    lr_mult: 2
    decay_mult: 0
  }
  inner_product_param {
    num_output: 46168
    weight_filler {
      type: "uniform"
      min: -0.08
      max: 0.08
    }
    bias_filler {
      type: "constant"
      value: 0
    }
    axis: 2
  }
}
layer {
  name: "probs"
  type: "Softmax"
  bottom: "predict"
  top: "probs"
  softmax_param {
    axis: 2
  }
}
I0720 16:09:36.407452 15244 upgrade_proto.cpp:66] Attempting to upgrade input file specified using deprecated input fields: /tmp/cvld819334911092608980/s2vt.words_to_preds.prototxt
I0720 16:09:36.407475 15244 upgrade_proto.cpp:69] Successfully upgraded file specified using deprecated input fields.
W0720 16:09:36.407482 15244 upgrade_proto.cpp:71] Note that future Caffe releases will only support input layers and not input fields.
…
I0720 16:09:36.407678 15248 upgrade_proto.cpp:69] Successfully upgraded file specified using deprecated input fields.
I0720 16:09:36.407681 15282 net.cpp:399] input -> cont_sentence
W0720 16:09:36.407651 15258 upgrade_proto.cpp:71] Note that future Caffe releases will only support input layers and not input fields.
W0720 16:09:36.407688 15248 upgrade_proto.cpp:71] Note that future Caffe releases will only support input layers and not input fields.
I0720 16:09:36.407706 15282 net.cpp:399] input -> input_sentence
I0720 16:09:36.407730 15282 net.cpp:399] input -> stage_indicator
I0720 16:09:36.407754 15282 net.cpp:141] Setting up input
I0720 16:09:36.407770 15282 net.cpp:148] Top shape: 1 4096 (4096)
I0720 16:09:36.407785 15282 net.cpp:148] Top shape: 1 1 (1)
I0720 16:09:36.407798 15282 net.cpp:148] Top shape: 1 1 (1)
I0720 16:09:36.407809 15282 net.cpp:148] Top shape: 1 1 (1)
I0720 16:09:36.407816 15282 net.cpp:156] Memory required for data: 16396
I0720 16:09:36.407826 15282 layer_factory.hpp:77] Creating layer cont_sentence_input_1_split
I0720 16:09:36.407843 15282 net.cpp:91] Creating Layer cont_sentence_input_1_split
I0720 16:09:36.407855 15282 net.cpp:425] cont_sentence_input_1_split <- cont_sentence
I0720 16:09:36.407863 15244 net.cpp:49] Initializing net from parameters: 
name: "s2vt:features_to_lstm"
state {
  phase: TEST
}
layer {
  name: "input"
  type: "Input"
  top: "frames_fc7"
  top: "cont_sentence"
  top: "input_sentence"
  top: "stage_indicator"
  input_param {
    shape {
      dim: 1
      dim: 4096
    }
    shape {
      dim: 1
      dim: 1
    }
    shape {
      dim: 1
      dim: 1
    }
    shape {
      dim: 1
      dim: 1
    }
  }
}
layer {
  name: "embed_encoder"
  type: "InnerProduct"
  bottom: "frames_fc7"
  top: "embedded_in_frames"
  param {
    lr_mult: 1
    decay_mult: 1
  }
  param {
    lr_mult: 2
    decay_mult: 0
  }
  inner_product_param {
    num_output: 500
    weight_filler {
      type: "xavier"
    }
    bias_filler {
      type: "constant"
      value: 0.2
    }
  }
}
layer {
  name: "reshape_frames"
  type: "Reshape"
  bottom: "embedded_in_frames"
  top: "embedded_input_frames"
  reshape_param {
    shape {
      dim: 1
      dim: 1
      dim: 500
    }
  }
}
layer {
  name: "reshape_stage_indicator"
  type: "Reshape"
  bottom: "stage_indicator"
  top: "reshaped_stage_indicator"
  reshape_param {
    shape {
      dim: 1
      dim: 1
      dim: 1
    }
  }
}
layer {
  name: "embedding"
  type: "Embed"
  bottom: "input_sentence"
  top: "embedded_input_sentence"
  param {
    lr_mult: 1
  }
  embed_param {
    num_output: 500
    input_dim: 46168
    bias_term: false
    weight_filler {
      type: "uniform"
      min: -0.08
      max: 0.08
    }
  }
}
layer {
  name: "lstm1"
  type: "LSTM"
  bottom: "embedded_input_frames"
  bottom: "cont_sentence"
  top: "lstm1"
  recurrent_param {
    num_output: 1000
    weight_filler {
      type: "uniform"
      min: -0.08
      max: 0.08
    }
    bias_filler {
      type: "constant"
      value: 0
    }
  }
}
layer {
  name: "concat"
  type: "Concat"
  bottom: "lstm1"
  bottom: "embedded_input_sentence"
  bottom: "reshaped_stage_indicator"
  top: "lstm1_video_sequence"
  concat_param {
    concat_dim: 2
  }
}
layer {
  name: "lstm2"
  type: "LSTM"
  bottom: "lstm1_video_sequence"
  bottom: "cont_sentence"
  top: "lstm2"
  recurrent_param {
    num_output: 1000
    weight_filler {
      type: "uniform"
      min: -0.08
      max: 0.08
    }
    bias_filler {
      type: "constant"
      value: 0
    }
  }
}
layer {
  name: "predict"
  type: "InnerProduct"
  bottom: "lstm2"
  top: "predict"
  param {
    lr_mult: 1
    decay_mult: 1
  }
  param {
    lr_mult: 2
    decay_mult: 0
  }
  inner_product_param {
    num_output: 46168
    weight_filler {
      type: "uniform"
      min: -0.08
      max: 0.08
    }
    bias_filler {
      type: "constant"
      value: 0
    }
    axis: 2
  }
}
layer {
  name: "probs"
  type: "Softmax"
  bottom: "predict"
  top: "probs"
  softmax_param {
    axis: 2
  }
}
I0720 16:09:36.407869 15282 net.cpp:399] cont_sentence_input_1_split -> cont_sentence_input_1_split_0
I0720 16:09:36.407898 15248 net.cpp:49] Initializing net from parameters: 
name: "s2vt:features_to_lstm"
state {
  phase: TEST
}
layer {
  name: "input"
  type: "Input"
  top: "frames_fc7"
  top: "cont_sentence"
  top: "input_sentence"
  top: "stage_indicator"
  input_param {
    shape {
      dim: 1
      dim: 4096
    }
    shape {
      dim: 1
      dim: 1
    }
    shape {
      dim: 1
      dim: 1
    }
    shape {
      dim: 1
      dim: 1
    }
  }
}
layer {
  name: "embed_encoder"
  type: "InnerProduct"
  bottom: "frames_fc7"
  top: "embedded_in_frames"
  param {
    lr_mult: 1
    decay_mult: 1
  }
  param {
    lr_mult: 2
    decay_mult: 0
  }
  inner_product_param {
    num_output: 500
    weight_filler {
      type: "xavier"
    }
    bias_filler {
      type: "constant"
      value: 0.2
    }
  }
}
layer {
  name: "reshape_frames"
  type: "Reshape"
  bottom: "embedded_in_frames"
  top: "embedded_input_frames"
  reshape_param {
    shape {
      dim: 1
      dim: 1
      dim: 500
    }
  }
}
layer {
  name: "reshape_stage_indicator"
  type: "Reshape"
  bottom: "stage_indicator"
  top: "reshaped_stage_indicator"
  reshape_param {
    shape {
      dim: 1
      dim: 1
      dim: 1
    }
  }
}
layer {
  name: "embedding"
  type: "Embed"
  bottom: "input_sentence"
  top: "embedded_input_sentence"
  param {
    lr_mult: 1
  }
  embed_param {
    num_output: 500
    input_dim: 46168
    bias_term: false
    weight_filler {
      type: "uniform"
      min: -0.08
      max: 0.08
    }
  }
}
layer {
  name: "lstm1"
  type: "LSTM"
  bottom: "embedded_input_frames"
  bottom: "cont_sentence"
  top: "lstm1"
  recurrent_param {
    num_output: 1000
    weight_filler {
      type: "uniform"
      min: -0.08
      max: 0.08
    }
    bias_filler {
      type: "constant"
      value: 0
    }
  }
}
layer {
  name: "concat"
  type: "Concat"
  bottom: "lstm1"
  bottom: "embedded_input_sentence"
  bottom: "reshaped_stage_indicator"
  top: "lstm1_video_sequence"
  concat_param {
    concat_dim: 2
  }
}
layer {
  name: "lstm2"
  type: "LSTM"
  bottom: "lstm1_video_sequence"
  bottom: "cont_sentence"
  top: "lstm2"
  recurrent_param {
    num_output: 1000
    weight_filler {
      type: "uniform"
      min: -0.08
      max: 0.08
    }
    bias_filler {
      type: "constant"
      value: 0
    }
  }
}
layer {
  name: "predict"
  type: "InnerProduct"
  bottom: "lstm2"
  top: "predict"
  param {
    lr_mult: 1
    decay_mult: 1
  }
  param {
    lr_mult: 2
    decay_mult: 0
  }
  inner_product_param {
    num_output: 46168
    weight_filler {
      type: "uniform"
      min: -0.08
      max: 0.08
    }
    bias_filler {
      type: "constant"
      value: 0
    }
    axis: 2
  }
}
layer {
  name: "probs"
  type: "Softmax"
  bottom: "predict"
  top: "probs"
  softmax_param {
    axis: 2
  }
}
I0720 16:09:36.407903 15282 net.cpp:399] cont_sentence_input_1_split -> cont_sentence_input_1_split_1
I0720 16:09:36.407925 15282 net.cpp:141] Setting up cont_sentence_input_1_split
I0720 16:09:36.407940 15282 net.cpp:148] Top shape: 1 1 (1)
I0720 16:09:36.407953 15282 net.cpp:148] Top shape: 1 1 (1)
I0720 16:09:36.407963 15282 net.cpp:156] Memory required for data: 16404
I0720 16:09:36.407971 15282 layer_factory.hpp:77] Creating layer embed_encoder
I0720 16:09:36.408010 15248 layer_factory.hpp:77] Creating layer input
I0720 16:09:36.408011 15244 layer_factory.hpp:77] Creating layer input
I0720 16:09:36.408012 15282 net.cpp:91] Creating Layer embed_encoder
I0720 16:09:36.408025 15248 net.cpp:91] Creating Layer input
I0720 16:09:36.408030 15282 net.cpp:425] embed_encoder <- frames_fc7
I0720 16:09:36.408013 15260 net.cpp:49] Initializing net from parameters: 
name: "s2vt:features_to_lstm"
state {
  phase: TEST
}
layer {
  name: "input"
  type: "Input"
  top: "frames_fc7"
  top: "cont_sentence"
  top: "input_sentence"
  top: "stage_indicator"
  input_param {
    shape {
      dim: 1
      dim: 4096
    }
    shape {
      dim: 1
      dim: 1
    }
    shape {
      dim: 1
      dim: 1
    }
    shape {
      dim: 1
      dim: 1
    }
  }
}
layer {
  name: "embed_encoder"
  type: "InnerProduct"
  bottom: "frames_fc7"
  top: "embedded_in_frames"
  param {
    lr_mult: 1
    decay_mult: 1
  }
  param {
    lr_mult: 2
    decay_mult: 0
  }
  inner_product_param {
    num_output: 500
    weight_filler {
      type: "xavier"
    }
    bias_filler {
      type: "constant"
      value: 0.2
    }
  }
}
layer {
  name: "reshape_frames"
  type: "Reshape"
  bottom: "embedded_in_frames"
  top: "embedded_input_frames"
  reshape_param {
    shape {
      dim: 1
      dim: 1
      dim: 500
    }
  }
}
layer {
  name: "reshape_stage_indicator"
  type: "Reshape"
  bottom: "stage_indicator"
  top: "reshaped_stage_indicator"
  reshape_param {
    shape {
      dim: 1
      dim: 1
      dim: 1
    }
  }
}
layer {
  name: "embedding"
  type: "Embed"
  bottom: "input_sentence"
  top: "embedded_input_sentence"
  param {
    lr_mult: 1
  }
  embed_param {
    num_output: 500
    input_dim: 46168
    bias_term: false
    weight_filler {
      type: "uniform"
      min: -0.08
      max: 0.08
    }
  }
}
layer {
  name: "lstm1"
  type: "LSTM"
  bottom: "embedded_input_frames"
  bottom: "cont_sentence"
  top: "lstm1"
  recurrent_param {
    num_output: 1000
    weight_filler {
      type: "uniform"
      min: -0.08
      max: 0.08
    }
    bias_filler {
      type: "constant"
      value: 0
    }
  }
}
layer {
  name: "concat"
  type: "Concat"
  bottom: "lstm1"
  bottom: "embedded_input_sentence"
  bottom: "reshaped_stage_indicator"
  top: "lstm1_video_sequence"
  concat_param {
    concat_dim: 2
  }
}
layer {
  name: "lstm2"
  type: "LSTM"
  bottom: "lstm1_video_sequence"
  bottom: "cont_sentence"
  top: "lstm2"
  recurrent_param {
    num_output: 1000
    weight_filler {
      type: "uniform"
      min: -0.08
      max: 0.08
    }
    bias_filler {
      type: "constant"
      value: 0
    }
  }
}
layer {
  name: "predict"
  type: "InnerProduct"
  bottom: "lstm2"
  top: "predict"
  param {
    lr_mult: 1
    decay_mult: 1
  }
  param {
    lr_mult: 2
    decay_mult: 0
  }
  inner_product_param {
    num_output: 46168
    weight_filler {
      type: "uniform"
      min: -0.08
      max: 0.08
    }
    bias_filler {
      type: "constant"
      value: 0
    }
    axis: 2
  }
}
layer {
  name: "probs"
  type: "Softmax"
  bottom: "predict"
  top: "probs"
  softmax_param {
    axis: 2
  }
}
I0720 16:09:36.408031 15244 net.cpp:91] Creating Layer input
I0720 16:09:36.408033 15248 net.cpp:399] input -> frames_fc7
I0720 16:09:36.408071 15244 net.cpp:399] input -> frames_fc7
I0720 16:09:36.408053 15282 net.cpp:399] embed_encoder -> embedded_in_frames
I0720 16:09:36.408080 15248 net.cpp:399] input -> cont_sentence
I0720 16:09:36.408048 15262 net.cpp:49] Initializing net from parameters: 
name: "s2vt:features_to_lstm"
state {
  phase: TEST
}
layer {
  name: "input"
  type: "Input"
  top: "frames_fc7"
  top: "cont_sentence"
  top: "input_sentence"
  top: "stage_indicator"
  input_param {
    shape {
      dim: 1
      dim: 4096
    }
    shape {
      dim: 1
      dim: 1
    }
    shape {
      dim: 1
      dim: 1
    }
    shape {
      dim: 1
      dim: 1
    }
  }
}
layer {
  name: "embed_encoder"
  type: "InnerProduct"
  bottom: "frames_fc7"
  top: "embedded_in_frames"
  param {
    lr_mult: 1
    decay_mult: 1
  }
  param {
    lr_mult: 2
    decay_mult: 0
  }
  inner_product_param {
    num_output: 500
    weight_filler {
      type: "xavier"
    }
    bias_filler {
      type: "constant"
      value: 0.2
    }
  }
}
layer {
  name: "reshape_frames"
  type: "Reshape"
  bottom: "embedded_in_frames"
  top: "embedded_input_frames"
  reshape_param {
    shape {
      dim: 1
      dim: 1
      dim: 500
    }
  }
}
layer {
  name: "reshape_stage_indicator"
  type: "Reshape"
  bottom: "stage_indicator"
  top: "reshaped_stage_indicator"
  reshape_param {
    shape {
      dim: 1
      dim: 1
      dim: 1
    }
  }
}
layer {
  name: "embedding"
  type: "Embed"
  bottom: "input_sentence"
  top: "embedded_input_sentence"
  param {
    lr_mult: 1
  }
  embed_param {
    num_output: 500
    input_dim: 46168
    bias_term: false
    weight_filler {
      type: "uniform"
      min: -0.08
      max: 0.08
    }
  }
}
layer {
  name: "lstm1"
  type: "LSTM"
  bottom: "embedded_input_frames"
  bottom: "cont_sentence"
  top: "lstm1"
  recurrent_param {
    num_output: 1000
    weight_filler {
      type: "uniform"
      min: -0.08
      max: 0.08
    }
    bias_filler {
      type: "constant"
      value: 0
    }
  }
}
layer {
  name: "concat"
  type: "Concat"
  bottom: "lstm1"
  bottom: "embedded_input_sentence"
  bottom: "reshaped_stage_indicator"
  top: "lstm1_video_sequence"
  concat_param {
    concat_dim: 2
  }
}
layer {
  name: "lstm2"
  type: "LSTM"
  bottom: "lstm1_video_sequence"
  bottom: "cont_sentence"
  top: "lstm2"
  recurrent_param {
    num_output: 1000
    weight_filler {
      type: "uniform"
      min: -0.08
      max: 0.08
    }
    bias_filler {
      type: "constant"
      value: 0
    }
  }
}
layer {
  name: "predict"
  type: "InnerProduct"
  bottom: "lstm2"
  top: "predict"
  param {
    lr_mult: 1
    decay_mult: 1
  }
  param {
    lr_mult: 2
    decay_mult: 0
  }
  inner_product_param {
    num_output: 46168
    weight_filler {
      type: "uniform"
      min: -0.08
      max: 0.08
    }
    bias_filler {
      type: "constant"
      value: 0
    }
    axis: 2
  }
}
layer {
  name: "probs"
  type: "Softmax"
  bottom: "predict"
  top: "probs"
  softmax_param {
    axis: 2
  }
}
I0720 16:09:36.408090 15258 net.cpp:49] Initializing net from parameters: 
name: "s2vt:features_to_lstm"
state {
  phase: TEST
}
layer {
  name: "input"
  type: "Input"
  top: "frames_fc7"
  top: "cont_sentence"
  top: "input_sentence"
  top: "stage_indicator"
  input_param {
    shape {
      dim: 1
      dim: 4096
    }
    shape {
      dim: 1
      dim: 1
    }
    shape {
      dim: 1
      dim: 1
    }
    shape {
      dim: 1
      dim: 1
    }
  }
}
layer {
  name: "embed_encoder"
  type: "InnerProduct"
  bottom: "frames_fc7"
  top: "embedded_in_frames"
  param {
    lr_mult: 1
    decay_mult: 1
  }
  param {
    lr_mult: 2
    decay_mult: 0
  }
  inner_product_param {
    num_output: 500
    weight_filler {
      type: "xavier"
    }
    bias_filler {
      type: "constant"
      value: 0.2
    }
  }
}
layer {
  name: "reshape_frames"
  type: "Reshape"
  bottom: "embedded_in_frames"
  top: "embedded_input_frames"
  reshape_param {
    shape {
      dim: 1
      dim: 1
      dim: 500
    }
  }
}
layer {
  name: "reshape_stage_indicator"
  type: "Reshape"
  bottom: "stage_indicator"
  top: "reshaped_stage_indicator"
  reshape_param {
    shape {
      dim: 1
      dim: 1
      dim: 1
    }
  }
}
layer {
  name: "embedding"
  type: "Embed"
  bottom: "input_sentence"
  top: "embedded_input_sentence"
  param {
    lr_mult: 1
  }
  embed_param {
    num_output: 500
    input_dim: 46168
    bias_term: false
    weight_filler {
      type: "uniform"
      min: -0.08
      max: 0.08
    }
  }
}
layer {
  name: "lstm1"
  type: "LSTM"
  bottom: "embedded_input_frames"
  bottom: "cont_sentence"
  top: "lstm1"
  recurrent_param {
    num_output: 1000
    weight_filler {
      type: "uniform"
      min: -0.08
      max: 0.08
    }
    bias_filler {
      type: "constant"
      value: 0
    }
  }
}
layer {
  name: "concat"
  type: "Concat"
  bottom: "lstm1"
  bottom: "embedded_input_sentence"
  bottom: "reshaped_stage_indicator"
  top: "lstm1_video_sequence"
  concat_param {
    concat_dim: 2
  }
}
layer {
  name: "lstm2"
  type: "LSTM"
  bottom: "lstm1_video_sequence"
  bottom: "cont_sentence"
  top: "lstm2"
  recurrent_param {
    num_output: 1000
    weight_filler {
      type: "uniform"
      min: -0.08
      max: 0.08
    }
    bias_filler {
      type: "constant"
      value: 0
    }
  }
}
layer {
  name: "predict"
  type: "InnerProduct"
  bottom: "lstm2"
  top: "predict"
  param {
    lr_mult: 1
    decay_mult: 1
  }
  param {
    lr_mult: 2
    decay_mult: 0
  }
  inner_product_param {
    num_output: 46168
    weight_filler {
      type: "uniform"
      min: -0.08
      max: 0.08
    }
    bias_filler {
      type: "constant"
      value: 0
    }
    axis: 2
  }
}
layer {
  name: "probs"
  type: "Softmax"
  bottom: "predict"
  top: "probs"
  softmax_param {
    axis: 2
  }
}
I0720 16:09:36.408092 15244 net.cpp:399] input -> cont_sentence
I0720 16:09:36.408097 15248 net.cpp:399] input -> input_sentence
I0720 16:09:36.408138 15248 net.cpp:399] input -> stage_indicator
I0720 16:09:36.408151 15248 net.cpp:141] Setting up input
I0720 16:09:36.408141 15275 net.cpp:49] Initializing net from parameters: 
name: "s2vt:features_to_lstm"
state {
  phase: TEST
}
layer {
  name: "input"
  type: "Input"
  top: "frames_fc7"
  top: "cont_sentence"
  top: "input_sentence"
  top: "stage_indicator"
  input_param {
    shape {
      dim: 1
      dim: 4096
    }
    shape {
      dim: 1
      dim: 1
    }
    shape {
      dim: 1
      dim: 1
    }
    shape {
      dim: 1
      dim: 1
    }
  }
}
layer {
  name: "embed_encoder"
  type: "InnerProduct"
  bottom: "frames_fc7"
  top: "embedded_in_frames"
  param {
    lr_mult: 1
    decay_mult: 1
  }
  param {
    lr_mult: 2
    decay_mult: 0
  }
  inner_product_param {
    num_output: 500
    weight_filler {
      type: "xavier"
    }
    bias_filler {
      type: "constant"
      value: 0.2
    }
  }
}
layer {
  name: "reshape_frames"
  type: "Reshape"
  bottom: "embedded_in_frames"
  top: "embedded_input_frames"
  reshape_param {
    shape {
      dim: 1
      dim: 1
      dim: 500
    }
  }
}
layer {
  name: "reshape_stage_indicator"
  type: "Reshape"
  bottom: "stage_indicator"
  top: "reshaped_stage_indicator"
  reshape_param {
    shape {
      dim: 1
      dim: 1
      dim: 1
    }
  }
}
layer {
  name: "embedding"
  type: "Embed"
  bottom: "input_sentence"
  top: "embedded_input_sentence"
  param {
    lr_mult: 1
  }
  embed_param {
    num_output: 500
    input_dim: 46168
    bias_term: false
    weight_filler {
      type: "uniform"
      min: -0.08
      max: 0.08
    }
  }
}
layer {
  name: "lstm1"
  type: "LSTM"
  bottom: "embedded_input_frames"
  bottom: "cont_sentence"
  top: "lstm1"
  recurrent_param {
    num_output: 1000
    weight_filler {
      type: "uniform"
      min: -0.08
      max: 0.08
    }
    bias_filler {
      type: "constant"
      value: 0
    }
  }
}
layer {
  name: "concat"
  type: "Concat"
  bottom: "lstm1"
  bottom: "embedded_input_sentence"
  bottom: "reshaped_stage_indicator"
  top: "lstm1_video_sequence"
  concat_param {
    concat_dim: 2
  }
}
layer {
  name: "lstm2"
  type: "LSTM"
  bottom: "lstm1_video_sequence"
  bottom: "cont_sentence"
  top: "lstm2"
  recurrent_param {
    num_output: 1000
    weight_filler {
      type: "uniform"
      min: -0.08
      max: 0.08
    }
    bias_filler {
      type: "constant"
      value: 0
    }
  }
}
layer {
  name: "predict"
  type: "InnerProduct"
  bottom: "lstm2"
  top: "predict"
  param {
    lr_mult: 1
    decay_mult: 1
  }
  param {
    lr_mult: 2
    decay_mult: 0
  }
  inner_product_param {
    num_output: 46168
    weight_filler {
      type: "uniform"
      min: -0.08
      max: 0.08
    }
    bias_filler {
      type: "constant"
      value: 0
    }
    axis: 2
  }
}
layer {
  name: "probs"
  type: "Softmax"
  bottom: "predict"
  top: "probs"
  softmax_param {
    axis: 2
  }
}
I0720 16:09:36.408159 15278 net.cpp:49] Initializing net from parameters: 
name: "s2vt:features_to_lstm"
state {
  phase: TEST
}
layer {
  name: "input"
  type: "Input"
  top: "frames_fc7"
  top: "cont_sentence"
  top: "input_sentence"
  top: "stage_indicator"
  input_param {
    shape {
      dim: 1
      dim: 4096
    }
    shape {
      dim: 1
      dim: 1
    }
    shape {
      dim: 1
      dim: 1
    }
    shape {
      dim: 1
      dim: 1
    }
  }
}
layer {
  name: "embed_encoder"
  type: "InnerProduct"
  bottom: "frames_fc7"
  top: "embedded_in_frames"
  param {
    lr_mult: 1
    decay_mult: 1
  }
  param {
    lr_mult: 2
    decay_mult: 0
  }
  inner_product_param {
    num_output: 500
    weight_filler {
      type: "xavier"
    }
    bias_filler {
      type: "constant"
      value: 0.2
    }
  }
}
layer {
  name: "reshape_frames"
  type: "Reshape"
  bottom: "embedded_in_frames"
  top: "embedded_input_frames"
  reshape_param {
    shape {
      dim: 1
      dim: 1
      dim: 500
    }
  }
}
layer {
  name: "reshape_stage_indicator"
  type: "Reshape"
  bottom: "stage_indicator"
  top: "reshaped_stage_indicator"
  reshape_param {
    shape {
      dim: 1
      dim: 1
      dim: 1
    }
  }
}
layer {
  name: "embedding"
  type: "Embed"
  bottom: "input_sentence"
  top: "embedded_input_sentence"
  param {
    lr_mult: 1
  }
  embed_param {
    num_output: 500
    input_dim: 46168
    bias_term: false
    weight_filler {
      type: "uniform"
      min: -0.08
      max: 0.08
    }
  }
}
layer {
  name: "lstm1"
  type: "LSTM"
  bottom: "embedded_input_frames"
  bottom: "cont_sentence"
  top: "lstm1"
  recurrent_param {
    num_output: 1000
    weight_filler {
      type: "uniform"
      min: -0.08
      max: 0.08
    }
    bias_filler {
      type: "constant"
      value: 0
    }
  }
}
layer {
  name: "concat"
  type: "Concat"
  bottom: "lstm1"
  bottom: "embedded_input_sentence"
  bottom: "reshaped_stage_indicator"
  top: "lstm1_video_sequence"
  concat_param {
    concat_dim: 2
  }
}
layer {
  name: "lstm2"
  type: "LSTM"
  bottom: "lstm1_video_sequence"
  bottom: "cont_sentence"
  top: "lstm2"
  recurrent_param {
    num_output: 1000
    weight_filler {
      type: "uniform"
      min: -0.08
      max: 0.08
    }
    bias_filler {
      type: "constant"
      value: 0
    }
  }
}
layer {
  name: "predict"
  type: "InnerProduct"
  bottom: "lstm2"
  top: "predict"
  param {
    lr_mult: 1
    decay_mult: 1
  }
  param {
    lr_mult: 2
    decay_mult: 0
  }
  inner_product_param {
    num_output: 46168
    weight_filler {
      type: "uniform"
      min: -0.08
      max: 0.08
    }
    bias_filler {
      type: "constant"
      value: 0
    }
    axis: 2
  }
}
layer {
  name: "probs"
  type: "Softmax"
  bottom: "predict"
  top: "probs"
  softmax_param {
    axis: 2
  }
}
I0720 16:09:36.408160 15248 net.cpp:148] Top shape: 1 4096 (4096)
I0720 16:09:36.408141 15244 net.cpp:399] input -> input_sentence
I0720 16:09:36.408192 15248 net.cpp:148] Top shape: 1 1 (1)
I0720 16:09:36.408200 15248 net.cpp:148] Top shape: 1 1 (1)
I0720 16:09:36.408197 15260 layer_factory.hpp:77] Creating layer input
I0720 16:09:36.408205 15244 net.cpp:399] input -> stage_indicator
I0720 16:09:36.408210 15248 net.cpp:148] Top shape: 1 1 (1)
I0720 16:09:36.408220 15248 net.cpp:156] Memory required for data: 16396
I0720 16:09:36.408221 15260 net.cpp:91] Creating Layer input
I0720 16:09:36.408227 15244 net.cpp:141] Setting up input
I0720 16:09:36.408224 15248 layer_factory.hpp:77] Creating layer cont_sentence_input_1_split
I0720 16:09:36.408239 15244 net.cpp:148] Top shape: 1 4096 (4096)
I0720 16:09:36.408241 15260 net.cpp:399] input -> frames_fc7
I0720 16:09:36.408252 15244 net.cpp:148] Top shape: 1 1 (1)
I0720 16:09:36.408246 15248 net.cpp:91] Creating Layer cont_sentence_input_1_split
I0720 16:09:36.408257 15262 layer_factory.hpp:77] Creating layer input
I0720 16:09:36.408251 15258 layer_factory.hpp:77] Creating layer input
I0720 16:09:36.408272 15260 net.cpp:399] input -> cont_sentence
I0720 16:09:36.408267 15248 net.cpp:425] cont_sentence_input_1_split <- cont_sentence
I0720 16:09:36.408264 15244 net.cpp:148] Top shape: 1 1 (1)
I0720 16:09:36.408287 15262 net.cpp:91] Creating Layer input
I0720 16:09:36.408293 15248 net.cpp:399] cont_sentence_input_1_split -> cont_sentence_input_1_split_0
I0720 16:09:36.408293 15258 net.cpp:91] Creating Layer input
I0720 16:09:36.408300 15260 net.cpp:399] input -> input_sentence
I0720 16:09:36.408298 15244 net.cpp:148] Top shape: 1 1 (1)
I0720 16:09:36.408305 15262 net.cpp:399] input -> frames_fc7
I0720 16:09:36.408304 15248 net.cpp:399] cont_sentence_input_1_split -> cont_sentence_input_1_split_1
I0720 16:09:36.408315 15258 net.cpp:399] input -> frames_fc7
I0720 16:09:36.408318 15244 net.cpp:156] Memory required for data: 16396
I0720 16:09:36.408329 15260 net.cpp:399] input -> stage_indicator
I0720 16:09:36.408337 15244 layer_factory.hpp:77] Creating layer cont_sentence_input_1_split
I0720 16:09:36.408342 15258 net.cpp:399] input -> cont_sentence
I0720 16:09:36.408336 15262 net.cpp:399] input -> cont_sentence
I0720 16:09:36.408329 15248 net.cpp:141] Setting up cont_sentence_input_1_split
I0720 16:09:36.408355 15244 net.cpp:91] Creating Layer cont_sentence_input_1_split
I0720 16:09:36.408360 15260 net.cpp:141] Setting up input
I0720 16:09:36.408370 15258 net.cpp:399] input -> input_sentence
I0720 16:09:36.408366 15248 net.cpp:148] Top shape: 1 1 (1)
I0720 16:09:36.408366 15244 net.cpp:425] cont_sentence_input_1_split <- cont_sentence
I0720 16:09:36.408378 15278 layer_factory.hpp:77] Creating layer input
I0720 16:09:36.408375 15262 net.cpp:399] input -> input_sentence
I0720 16:09:36.408396 15275 layer_factory.hpp:77] Creating layer input
I0720 16:09:36.408407 15278 net.cpp:91] Creating Layer input
I0720 16:09:36.408387 15248 net.cpp:148] Top shape: 1 1 (1)
I0720 16:09:36.408393 15258 net.cpp:399] input -> stage_indicator
I0720 16:09:36.408426 15248 net.cpp:156] Memory required for data: 16404
I0720 16:09:36.408383 15260 net.cpp:148] Top shape: 1 4096 (4096)
I0720 16:09:36.408432 15248 layer_factory.hpp:77] Creating layer embed_encoder
I0720 16:09:36.408430 15275 net.cpp:91] Creating Layer input
I0720 16:09:36.408428 15278 net.cpp:399] input -> frames_fc7
I0720 16:09:36.408432 15262 net.cpp:399] input -> stage_indicator
I0720 16:09:36.408396 15244 net.cpp:399] cont_sentence_input_1_split -> cont_sentence_input_1_split_0
I0720 16:09:36.408447 15248 net.cpp:91] Creating Layer embed_encoder
I0720 16:09:36.408454 15275 net.cpp:399] input -> frames_fc7
I0720 16:09:36.408448 15260 net.cpp:148] Top shape: 1 1 (1)
I0720 16:09:36.408465 15278 net.cpp:399] input -> cont_sentence
I0720 16:09:36.408469 15262 net.cpp:141] Setting up input
I0720 16:09:36.408463 15248 net.cpp:425] embed_encoder <- frames_fc7
I0720 16:09:36.408478 15260 net.cpp:148] Top shape: 1 1 (1)
I0720 16:09:36.408447 15258 net.cpp:141] Setting up input
I0720 16:09:36.408469 15244 net.cpp:399] cont_sentence_input_1_split -> cont_sentence_input_1_split_1
I0720 16:09:36.408489 15262 net.cpp:148] Top shape: 1 4096 (4096)
I0720 16:09:36.408490 15248 net.cpp:399] embed_encoder -> embedded_in_frames
I0720 16:09:36.408489 15278 net.cpp:399] input -> input_sentence
I0720 16:09:36.408496 15260 net.cpp:148] Top shape: 1 1 (1)
I0720 16:09:36.408509 15244 net.cpp:141] Setting up cont_sentence_input_1_split
I0720 16:09:36.408512 15262 net.cpp:148] Top shape: 1 1 (1)
I0720 16:09:36.408509 15258 net.cpp:148] Top shape: 1 4096 (4096)
I0720 16:09:36.408483 15275 net.cpp:399] input -> cont_sentence
I0720 16:09:36.408524 15244 net.cpp:148] Top shape: 1 1 (1)
I0720 16:09:36.408527 15278 net.cpp:399] input -> stage_indicator
I0720 16:09:36.408521 15260 net.cpp:156] Memory required for data: 16396
I0720 16:09:36.408529 15262 net.cpp:148] Top shape: 1 1 (1)
I0720 16:09:36.408534 15258 net.cpp:148] Top shape: 1 1 (1)
I0720 16:09:36.408536 15244 net.cpp:148] Top shape: 1 1 (1)
I0720 16:09:36.408548 15260 layer_factory.hpp:77] Creating layer cont_sentence_input_1_split
I0720 16:09:36.408555 15244 net.cpp:156] Memory required for data: 16404
I0720 16:09:36.408555 15275 net.cpp:399] input -> input_sentence
I0720 16:09:36.408555 15262 net.cpp:148] Top shape: 1 1 (1)
I0720 16:09:36.408568 15244 layer_factory.hpp:77] Creating layer embed_encoder
I0720 16:09:36.408553 15278 net.cpp:141] Setting up input
I0720 16:09:36.408556 15258 net.cpp:148] Top shape: 1 1 (1)
I0720 16:09:36.408570 15260 net.cpp:91] Creating Layer cont_sentence_input_1_split
I0720 16:09:36.408587 15244 net.cpp:91] Creating Layer embed_encoder
I0720 16:09:36.408593 15278 net.cpp:148] Top shape: 1 4096 (4096)
I0720 16:09:36.408597 15258 net.cpp:148] Top shape: 1 1 (1)
I0720 16:09:36.408579 15262 net.cpp:156] Memory required for data: 16396
I0720 16:09:36.408594 15275 net.cpp:399] input -> stage_indicator
I0720 16:09:36.408599 15244 net.cpp:425] embed_encoder <- frames_fc7
I0720 16:09:36.408612 15278 net.cpp:148] Top shape: 1 1 (1)
I0720 16:09:36.408594 15260 net.cpp:425] cont_sentence_input_1_split <- cont_sentence
I0720 16:09:36.408613 15262 layer_factory.hpp:77] Creating layer cont_sentence_input_1_split
I0720 16:09:36.408624 15244 net.cpp:399] embed_encoder -> embedded_in_frames
I0720 16:09:36.408630 15278 net.cpp:148] Top shape: 1 1 (1)
I0720 16:09:36.408634 15275 net.cpp:141] Setting up input
I0720 16:09:36.408612 15258 net.cpp:156] Memory required for data: 16396
I0720 16:09:36.408638 15262 net.cpp:91] Creating Layer cont_sentence_input_1_split
I0720 16:09:36.408658 15275 net.cpp:148] Top shape: 1 4096 (4096)
I0720 16:09:36.408663 15258 layer_factory.hpp:77] Creating layer cont_sentence_input_1_split
I0720 16:09:36.408646 15278 net.cpp:148] Top shape: 1 1 (1)
I0720 16:09:36.408654 15260 net.cpp:399] cont_sentence_input_1_split -> cont_sentence_input_1_split_0
I0720 16:09:36.408677 15278 net.cpp:156] Memory required for data: 16396
I0720 16:09:36.408679 15275 net.cpp:148] Top shape: 1 1 (1)
I0720 16:09:36.408680 15258 net.cpp:91] Creating Layer cont_sentence_input_1_split
I0720 16:09:36.408694 15260 net.cpp:399] cont_sentence_input_1_split -> cont_sentence_input_1_split_1
I0720 16:09:36.408670 15262 net.cpp:425] cont_sentence_input_1_split <- cont_sentence
I0720 16:09:36.408705 15258 net.cpp:425] cont_sentence_input_1_split <- cont_sentence
I0720 16:09:36.408699 15275 net.cpp:148] Top shape: 1 1 (1)
I0720 16:09:36.408689 15278 layer_factory.hpp:77] Creating layer cont_sentence_input_1_split
I0720 16:09:36.408722 15262 net.cpp:399] cont_sentence_input_1_split -> cont_sentence_input_1_split_0
I0720 16:09:36.408721 15260 net.cpp:141] Setting up cont_sentence_input_1_split
I0720 16:09:36.408722 15258 net.cpp:399] cont_sentence_input_1_split -> cont_sentence_input_1_split_0
I0720 16:09:36.408732 15275 net.cpp:148] Top shape: 1 1 (1)
I0720 16:09:36.408745 15260 net.cpp:148] Top shape: 1 1 (1)
I0720 16:09:36.408747 15262 net.cpp:399] cont_sentence_input_1_split -> cont_sentence_input_1_split_1
I0720 16:09:36.408756 15275 net.cpp:156] Memory required for data: 16396
I0720 16:09:36.408756 15258 net.cpp:399] cont_sentence_input_1_split -> cont_sentence_input_1_split_1
I0720 16:09:36.408759 15278 net.cpp:91] Creating Layer cont_sentence_input_1_split
I0720 16:09:36.408764 15260 net.cpp:148] Top shape: 1 1 (1)
I0720 16:09:36.408776 15262 net.cpp:141] Setting up cont_sentence_input_1_split
I0720 16:09:36.408779 15278 net.cpp:425] cont_sentence_input_1_split <- cont_sentence
I0720 16:09:36.408774 15275 layer_factory.hpp:77] Creating layer cont_sentence_input_1_split
I0720 16:09:36.408788 15258 net.cpp:141] Setting up cont_sentence_input_1_split
I0720 16:09:36.408790 15260 net.cpp:156] Memory required for data: 16404
I0720 16:09:36.408793 15262 net.cpp:148] Top shape: 1 1 (1)
I0720 16:09:36.408797 15278 net.cpp:399] cont_sentence_input_1_split -> cont_sentence_input_1_split_0
I0720 16:09:36.408803 15258 net.cpp:148] Top shape: 1 1 (1)
I0720 16:09:36.408808 15262 net.cpp:148] Top shape: 1 1 (1)
I0720 16:09:36.408808 15275 net.cpp:91] Creating Layer cont_sentence_input_1_split
I0720 16:09:36.408818 15262 net.cpp:156] Memory required for data: 16404
I0720 16:09:36.408828 15275 net.cpp:425] cont_sentence_input_1_split <- cont_sentence
I0720 16:09:36.408816 15278 net.cpp:399] cont_sentence_input_1_split -> cont_sentence_input_1_split_1
I0720 16:09:36.408836 15262 layer_factory.hpp:77] Creating layer embed_encoder
I0720 16:09:36.408803 15260 layer_factory.hpp:77] Creating layer embed_encoder
I0720 16:09:36.408820 15258 net.cpp:148] Top shape: 1 1 (1)
I0720 16:09:36.408855 15278 net.cpp:141] Setting up cont_sentence_input_1_split
I0720 16:09:36.408849 15275 net.cpp:399] cont_sentence_input_1_split -> cont_sentence_input_1_split_0
I0720 16:09:36.408866 15258 net.cpp:156] Memory required for data: 16404
I0720 16:09:36.408871 15278 net.cpp:148] Top shape: 1 1 (1)
I0720 16:09:36.408867 15260 net.cpp:91] Creating Layer embed_encoder
I0720 16:09:36.408884 15258 layer_factory.hpp:77] Creating layer embed_encoder
I0720 16:09:36.408876 15262 net.cpp:91] Creating Layer embed_encoder
I0720 16:09:36.408893 15260 net.cpp:425] embed_encoder <- frames_fc7
I0720 16:09:36.408901 15262 net.cpp:425] embed_encoder <- frames_fc7
I0720 16:09:36.408906 15258 net.cpp:91] Creating Layer embed_encoder
I0720 16:09:36.408885 15278 net.cpp:148] Top shape: 1 1 (1)
I0720 16:09:36.408885 15275 net.cpp:399] cont_sentence_input_1_split -> cont_sentence_input_1_split_1
I0720 16:09:36.408922 15262 net.cpp:399] embed_encoder -> embedded_in_frames
I0720 16:09:36.408921 15278 net.cpp:156] Memory required for data: 16404
I0720 16:09:36.408921 15258 net.cpp:425] embed_encoder <- frames_fc7
I0720 16:09:36.408915 15260 net.cpp:399] embed_encoder -> embedded_in_frames
I0720 16:09:36.408938 15278 layer_factory.hpp:77] Creating layer embed_encoder
I0720 16:09:36.408946 15275 net.cpp:141] Setting up cont_sentence_input_1_split
I0720 16:09:36.408952 15278 net.cpp:91] Creating Layer embed_encoder
I0720 16:09:36.408948 15258 net.cpp:399] embed_encoder -> embedded_in_frames
I0720 16:09:36.408964 15278 net.cpp:425] embed_encoder <- frames_fc7
I0720 16:09:36.408970 15275 net.cpp:148] Top shape: 1 1 (1)
I0720 16:09:36.408987 15275 net.cpp:148] Top shape: 1 1 (1)
I0720 16:09:36.408994 15275 net.cpp:156] Memory required for data: 16404
I0720 16:09:36.409005 15275 layer_factory.hpp:77] Creating layer embed_encoder
I0720 16:09:36.409029 15275 net.cpp:91] Creating Layer embed_encoder
I0720 16:09:36.409031 15278 net.cpp:399] embed_encoder -> embedded_in_frames
I0720 16:09:36.409047 15275 net.cpp:425] embed_encoder <- frames_fc7
I0720 16:09:36.409101 15275 net.cpp:399] embed_encoder -> embedded_in_frames
I0720 16:09:36.435984 15275 net.cpp:141] Setting up embed_encoder
I0720 16:09:36.436023 15275 net.cpp:148] Top shape: 1 500 (500)
I0720 16:09:36.436028 15275 net.cpp:156] Memory required for data: 18404
I0720 16:09:36.436053 15275 layer_factory.hpp:77] Creating layer reshape_frames
I0720 16:09:36.436080 15275 net.cpp:91] Creating Layer reshape_frames
I0720 16:09:36.436089 15275 net.cpp:425] reshape_frames <- embedded_in_frames
I0720 16:09:36.436102 15275 net.cpp:399] reshape_frames -> embedded_input_frames
I0720 16:09:36.436131 15275 net.cpp:141] Setting up reshape_frames
I0720 16:09:36.436139 15275 net.cpp:148] Top shape: 1 1 500 (500)
I0720 16:09:36.436143 15275 net.cpp:156] Memory required for data: 20404
I0720 16:09:36.436147 15275 layer_factory.hpp:77] Creating layer reshape_stage_indicator
I0720 16:09:36.436156 15275 net.cpp:91] Creating Layer reshape_stage_indicator
I0720 16:09:36.436161 15275 net.cpp:425] reshape_stage_indicator <- stage_indicator
I0720 16:09:36.436172 15275 net.cpp:399] reshape_stage_indicator -> reshaped_stage_indicator
I0720 16:09:36.436182 15275 net.cpp:141] Setting up reshape_stage_indicator
I0720 16:09:36.436189 15275 net.cpp:148] Top shape: 1 1 1 (1)
I0720 16:09:36.436193 15275 net.cpp:156] Memory required for data: 20408
I0720 16:09:36.436197 15275 layer_factory.hpp:77] Creating layer embedding
I0720 16:09:36.436208 15275 net.cpp:91] Creating Layer embedding
I0720 16:09:36.436213 15275 net.cpp:425] embedding <- input_sentence
I0720 16:09:36.436236 15275 net.cpp:399] embedding -> embedded_input_sentence
I0720 16:09:36.437923 15244 net.cpp:141] Setting up embed_encoder
I0720 16:09:36.437943 15244 net.cpp:148] Top shape: 1 500 (500)
I0720 16:09:36.437948 15244 net.cpp:156] Memory required for data: 18404
I0720 16:09:36.437961 15244 layer_factory.hpp:77] Creating layer reshape_frames
I0720 16:09:36.437976 15244 net.cpp:91] Creating Layer reshape_frames
I0720 16:09:36.437983 15244 net.cpp:425] reshape_frames <- embedded_in_frames
I0720 16:09:36.437989 15244 net.cpp:399] reshape_frames -> embedded_input_frames
I0720 16:09:36.438002 15244 net.cpp:141] Setting up reshape_frames
I0720 16:09:36.438009 15244 net.cpp:148] Top shape: 1 1 500 (500)
I0720 16:09:36.438014 15244 net.cpp:156] Memory required for data: 20404
I0720 16:09:36.438017 15244 layer_factory.hpp:77] Creating layer reshape_stage_indicator
I0720 16:09:36.438506 15244 net.cpp:91] Creating Layer reshape_stage_indicator
I0720 16:09:36.438516 15244 net.cpp:425] reshape_stage_indicator <- stage_indicator
I0720 16:09:36.438525 15244 net.cpp:399] reshape_stage_indicator -> reshaped_stage_indicator
I0720 16:09:36.438537 15244 net.cpp:141] Setting up reshape_stage_indicator
I0720 16:09:36.438545 15244 net.cpp:148] Top shape: 1 1 1 (1)
I0720 16:09:36.438549 15244 net.cpp:156] Memory required for data: 20408
I0720 16:09:36.438554 15244 layer_factory.hpp:77] Creating layer embedding
I0720 16:09:36.438565 15244 net.cpp:91] Creating Layer embedding
I0720 16:09:36.438570 15244 net.cpp:425] embedding <- input_sentence
I0720 16:09:36.438576 15244 net.cpp:399] embedding -> embedded_input_sentence
I0720 16:09:36.443286 15248 net.cpp:141] Setting up embed_encoder
I0720 16:09:36.443331 15248 net.cpp:148] Top shape: 1 500 (500)
I0720 16:09:36.443338 15248 net.cpp:156] Memory required for data: 18404
I0720 16:09:36.443363 15248 layer_factory.hpp:77] Creating layer reshape_frames
I0720 16:09:36.444313 15262 net.cpp:141] Setting up embed_encoder
I0720 16:09:36.444341 15248 net.cpp:91] Creating Layer reshape_frames
I0720 16:09:36.444342 15260 net.cpp:141] Setting up embed_encoder
I0720 16:09:36.444356 15248 net.cpp:425] reshape_frames <- embedded_in_frames
I0720 16:09:36.444351 15262 net.cpp:148] Top shape: 1 500 (500)
I0720 16:09:36.444367 15262 net.cpp:156] Memory required for data: 18404
I0720 16:09:36.444370 15260 net.cpp:148] Top shape: 1 500 (500)
I0720 16:09:36.444373 15248 net.cpp:399] reshape_frames -> embedded_input_frames
I0720 16:09:36.444378 15260 net.cpp:156] Memory required for data: 18404
I0720 16:09:36.444389 15262 layer_factory.hpp:77] Creating layer reshape_frames
I0720 16:09:36.444398 15248 net.cpp:141] Setting up reshape_frames
I0720 16:09:36.444402 15260 layer_factory.hpp:77] Creating layer reshape_frames
I0720 16:09:36.444411 15248 net.cpp:148] Top shape: 1 1 500 (500)
I0720 16:09:36.444417 15248 net.cpp:156] Memory required for data: 20404
I0720 16:09:36.444424 15248 layer_factory.hpp:77] Creating layer reshape_stage_indicator
I0720 16:09:36.445375 15260 net.cpp:91] Creating Layer reshape_frames
I0720 16:09:36.445380 15248 net.cpp:91] Creating Layer reshape_stage_indicator
I0720 16:09:36.445391 15260 net.cpp:425] reshape_frames <- embedded_in_frames
I0720 16:09:36.445392 15248 net.cpp:425] reshape_stage_indicator <- stage_indicator
I0720 16:09:36.445402 15262 net.cpp:91] Creating Layer reshape_frames
I0720 16:09:36.445412 15260 net.cpp:399] reshape_frames -> embedded_input_frames
I0720 16:09:36.445416 15262 net.cpp:425] reshape_frames <- embedded_in_frames
I0720 16:09:36.445415 15248 net.cpp:399] reshape_stage_indicator -> reshaped_stage_indicator
I0720 16:09:36.445431 15262 net.cpp:399] reshape_frames -> embedded_input_frames
I0720 16:09:36.445439 15260 net.cpp:141] Setting up reshape_frames
I0720 16:09:36.445441 15248 net.cpp:141] Setting up reshape_stage_indicator
I0720 16:09:36.445447 15262 net.cpp:141] Setting up reshape_frames
I0720 16:09:36.445452 15260 net.cpp:148] Top shape: 1 1 500 (500)
I0720 16:09:36.445456 15248 net.cpp:148] Top shape: 1 1 1 (1)
I0720 16:09:36.445461 15260 net.cpp:156] Memory required for data: 20404
I0720 16:09:36.445457 15262 net.cpp:148] Top shape: 1 1 500 (500)
I0720 16:09:36.445468 15248 net.cpp:156] Memory required for data: 20408
I0720 16:09:36.445472 15260 layer_factory.hpp:77] Creating layer reshape_stage_indicator
I0720 16:09:36.445477 15248 layer_factory.hpp:77] Creating layer embedding
I0720 16:09:36.445473 15262 net.cpp:156] Memory required for data: 20404
I0720 16:09:36.445487 15262 layer_factory.hpp:77] Creating layer reshape_stage_indicator
I0720 16:09:36.446549 15262 net.cpp:91] Creating Layer reshape_stage_indicator
I0720 16:09:36.446560 15252 net.cpp:141] Setting up embed_encoder
I0720 16:09:36.446568 15262 net.cpp:425] reshape_stage_indicator <- stage_indicator
I0720 16:09:36.446593 15252 net.cpp:148] Top shape: 1 500 (500)
I0720 16:09:36.446599 15262 net.cpp:399] reshape_stage_indicator -> reshaped_stage_indicator
I0720 16:09:36.446601 15248 net.cpp:91] Creating Layer embedding
I0720 16:09:36.446617 15262 net.cpp:141] Setting up reshape_stage_indicator
I0720 16:09:36.446604 15252 net.cpp:156] Memory required for data: 18404
I0720 16:09:36.446604 15260 net.cpp:91] Creating Layer reshape_stage_indicator
I0720 16:09:36.446620 15248 net.cpp:425] embedding <- input_sentence
I0720 16:09:36.446631 15262 net.cpp:148] Top shape: 1 1 1 (1)
I0720 16:09:36.446637 15262 net.cpp:156] Memory required for data: 20408
I0720 16:09:36.446638 15260 net.cpp:425] reshape_stage_indicator <- stage_indicator
I0720 16:09:36.446643 15248 net.cpp:399] embedding -> embedded_input_sentence
I0720 16:09:36.446643 15262 layer_factory.hpp:77] Creating layer embedding
I0720 16:09:36.446655 15260 net.cpp:399] reshape_stage_indicator -> reshaped_stage_indicator
I0720 16:09:36.446674 15260 net.cpp:141] Setting up reshape_stage_indicator
I0720 16:09:36.446701 15260 net.cpp:148] Top shape: 1 1 1 (1)
I0720 16:09:36.446709 15260 net.cpp:156] Memory required for data: 20408
I0720 16:09:36.446718 15260 layer_factory.hpp:77] Creating layer embedding
I0720 16:09:36.447182 15278 net.cpp:141] Setting up embed_encoder
I0720 16:09:36.447187 15250 net.cpp:141] Setting up embed_encoder
I0720 16:09:36.447201 15260 net.cpp:91] Creating Layer embedding
I0720 16:09:36.447207 15278 net.cpp:148] Top shape: 1 500 (500)
I0720 16:09:36.447185 15262 net.cpp:91] Creating Layer embedding
I0720 16:09:36.447218 15260 net.cpp:425] embedding <- input_sentence
I0720 16:09:36.447208 15252 layer_factory.hpp:77] Creating layer reshape_frames
I0720 16:09:36.447218 15278 net.cpp:156] Memory required for data: 18404
I0720 16:09:36.447228 15262 net.cpp:425] embedding <- input_sentence
I0720 16:09:36.447238 15260 net.cpp:399] embedding -> embedded_input_sentence
I0720 16:09:36.447247 15252 net.cpp:91] Creating Layer reshape_frames
I0720 16:09:36.447252 15278 layer_factory.hpp:77] Creating layer reshape_frames
I0720 16:09:36.447269 15252 net.cpp:425] reshape_frames <- embedded_in_frames
I0720 16:09:36.447260 15262 net.cpp:399] embedding -> embedded_input_sentence
I0720 16:09:36.447280 15278 net.cpp:91] Creating Layer reshape_frames
I0720 16:09:36.447301 15278 net.cpp:425] reshape_frames <- embedded_in_frames
I0720 16:09:36.447623 15250 net.cpp:148] Top shape: 1 500 (500)
I0720 16:09:36.447636 15250 net.cpp:156] Memory required for data: 18404
I0720 16:09:36.448295 15252 net.cpp:399] reshape_frames -> embedded_input_frames
I0720 16:09:36.448326 15252 net.cpp:141] Setting up reshape_frames
I0720 16:09:36.448343 15252 net.cpp:148] Top shape: 1 1 500 (500)
I0720 16:09:36.448354 15252 net.cpp:156] Memory required for data: 20404
I0720 16:09:36.448357 15258 net.cpp:141] Setting up embed_encoder
I0720 16:09:36.448370 15252 layer_factory.hpp:77] Creating layer reshape_stage_indicator
I0720 16:09:36.448351 15250 layer_factory.hpp:77] Creating layer reshape_frames
I0720 16:09:36.448392 15258 net.cpp:148] Top shape: 1 500 (500)
I0720 16:09:36.448353 15278 net.cpp:399] reshape_frames -> embedded_input_frames
I0720 16:09:36.448410 15258 net.cpp:156] Memory required for data: 18404
I0720 16:09:36.448408 15250 net.cpp:91] Creating Layer reshape_frames
I0720 16:09:36.448393 15252 net.cpp:91] Creating Layer reshape_stage_indicator
I0720 16:09:36.448444 15258 layer_factory.hpp:77] Creating layer reshape_frames
I0720 16:09:36.448426 15278 net.cpp:141] Setting up reshape_frames
I0720 16:09:36.448446 15250 net.cpp:425] reshape_frames <- embedded_in_frames
I0720 16:09:36.448453 15252 net.cpp:425] reshape_stage_indicator <- stage_indicator
I0720 16:09:36.448468 15278 net.cpp:148] Top shape: 1 1 500 (500)
I0720 16:09:36.448493 15278 net.cpp:156] Memory required for data: 20404
I0720 16:09:36.448499 15278 layer_factory.hpp:77] Creating layer reshape_stage_indicator
I0720 16:09:36.448509 15278 net.cpp:91] Creating Layer reshape_stage_indicator
I0720 16:09:36.448514 15278 net.cpp:425] reshape_stage_indicator <- stage_indicator
I0720 16:09:36.448950 15250 net.cpp:399] reshape_frames -> embedded_input_frames
I0720 16:09:36.448967 15278 net.cpp:399] reshape_stage_indicator -> reshaped_stage_indicator
I0720 16:09:36.448979 15258 net.cpp:91] Creating Layer reshape_frames
I0720 16:09:36.448988 15278 net.cpp:141] Setting up reshape_stage_indicator
I0720 16:09:36.448979 15252 net.cpp:399] reshape_stage_indicator -> reshaped_stage_indicator
I0720 16:09:36.448982 15250 net.cpp:141] Setting up reshape_frames
I0720 16:09:36.449002 15258 net.cpp:425] reshape_frames <- embedded_in_frames
I0720 16:09:36.449000 15278 net.cpp:148] Top shape: 1 1 1 (1)
I0720 16:09:36.449015 15278 net.cpp:156] Memory required for data: 20408
I0720 16:09:36.449021 15278 layer_factory.hpp:77] Creating layer embedding
I0720 16:09:36.449019 15250 net.cpp:148] Top shape: 1 1 500 (500)
I0720 16:09:36.449023 15258 net.cpp:399] reshape_frames -> embedded_input_frames
I0720 16:09:36.449024 15252 net.cpp:141] Setting up reshape_stage_indicator
I0720 16:09:36.449033 15278 net.cpp:91] Creating Layer embedding
I0720 16:09:36.449033 15250 net.cpp:156] Memory required for data: 20404
I0720 16:09:36.449039 15278 net.cpp:425] embedding <- input_sentence
I0720 16:09:36.449044 15252 net.cpp:148] Top shape: 1 1 1 (1)
I0720 16:09:36.449050 15258 net.cpp:141] Setting up reshape_frames
I0720 16:09:36.449045 15250 layer_factory.hpp:77] Creating layer reshape_stage_indicator
I0720 16:09:36.449061 15252 net.cpp:156] Memory required for data: 20408
I0720 16:09:36.449067 15258 net.cpp:148] Top shape: 1 1 500 (500)
I0720 16:09:36.449072 15252 layer_factory.hpp:77] Creating layer embedding
I0720 16:09:36.449077 15258 net.cpp:156] Memory required for data: 20404
I0720 16:09:36.449080 15250 net.cpp:91] Creating Layer reshape_stage_indicator
I0720 16:09:36.449089 15258 layer_factory.hpp:77] Creating layer reshape_stage_indicator
I0720 16:09:36.449091 15252 net.cpp:91] Creating Layer embedding
I0720 16:09:36.449093 15250 net.cpp:425] reshape_stage_indicator <- stage_indicator
I0720 16:09:36.449102 15252 net.cpp:425] embedding <- input_sentence
I0720 16:09:36.449111 15250 net.cpp:399] reshape_stage_indicator -> reshaped_stage_indicator
I0720 16:09:36.449136 15250 net.cpp:141] Setting up reshape_stage_indicator
I0720 16:09:36.449153 15250 net.cpp:148] Top shape: 1 1 1 (1)
I0720 16:09:36.449162 15250 net.cpp:156] Memory required for data: 20408
I0720 16:09:36.449172 15250 layer_factory.hpp:77] Creating layer embedding
I0720 16:09:36.449729 15258 net.cpp:91] Creating Layer reshape_stage_indicator
I0720 16:09:36.449739 15258 net.cpp:425] reshape_stage_indicator <- stage_indicator
I0720 16:09:36.449748 15258 net.cpp:399] reshape_stage_indicator -> reshaped_stage_indicator
I0720 16:09:36.449759 15258 net.cpp:141] Setting up reshape_stage_indicator
I0720 16:09:36.449767 15258 net.cpp:148] Top shape: 1 1 1 (1)
I0720 16:09:36.449771 15258 net.cpp:156] Memory required for data: 20408
I0720 16:09:36.449776 15258 layer_factory.hpp:77] Creating layer embedding
I0720 16:09:36.449771 15252 net.cpp:399] embedding -> embedded_input_sentence
I0720 16:09:36.449793 15250 net.cpp:91] Creating Layer embedding
I0720 16:09:36.449790 15278 net.cpp:399] embedding -> embedded_input_sentence
I0720 16:09:36.449813 15250 net.cpp:425] embedding <- input_sentence
I0720 16:09:36.450376 15250 net.cpp:399] embedding -> embedded_input_sentence
I0720 16:09:36.450382 15282 net.cpp:141] Setting up embed_encoder
I0720 16:09:36.450386 15258 net.cpp:91] Creating Layer embedding
I0720 16:09:36.450415 15282 net.cpp:148] Top shape: 1 500 (500)
I0720 16:09:36.450422 15258 net.cpp:425] embedding <- input_sentence
I0720 16:09:36.450428 15282 net.cpp:156] Memory required for data: 18404
I0720 16:09:36.450443 15258 net.cpp:399] embedding -> embedded_input_sentence
I0720 16:09:36.450458 15282 layer_factory.hpp:77] Creating layer reshape_frames
I0720 16:09:36.451290 15282 net.cpp:91] Creating Layer reshape_frames
I0720 16:09:36.451315 15282 net.cpp:425] reshape_frames <- embedded_in_frames
I0720 16:09:36.451336 15282 net.cpp:399] reshape_frames -> embedded_input_frames
I0720 16:09:36.451362 15282 net.cpp:141] Setting up reshape_frames
I0720 16:09:36.451378 15282 net.cpp:148] Top shape: 1 1 500 (500)
I0720 16:09:36.451388 15282 net.cpp:156] Memory required for data: 20404
I0720 16:09:36.451400 15282 layer_factory.hpp:77] Creating layer reshape_stage_indicator
I0720 16:09:36.451903 15282 net.cpp:91] Creating Layer reshape_stage_indicator
I0720 16:09:36.451934 15282 net.cpp:425] reshape_stage_indicator <- stage_indicator
I0720 16:09:36.451954 15282 net.cpp:399] reshape_stage_indicator -> reshaped_stage_indicator
I0720 16:09:36.451972 15282 net.cpp:141] Setting up reshape_stage_indicator
I0720 16:09:36.451982 15282 net.cpp:148] Top shape: 1 1 1 (1)
I0720 16:09:36.451985 15282 net.cpp:156] Memory required for data: 20408
I0720 16:09:36.451990 15282 layer_factory.hpp:77] Creating layer embedding
I0720 16:09:36.453058 15282 net.cpp:91] Creating Layer embedding
I0720 16:09:36.453101 15282 net.cpp:425] embedding <- input_sentence
I0720 16:09:36.453135 15282 net.cpp:399] embedding -> embedded_input_sentence
I0720 16:09:36.685664 15258 net.cpp:141] Setting up embedding
I0720 16:09:36.685708 15258 net.cpp:148] Top shape: 1 1 500 (500)
I0720 16:09:36.685715 15258 net.cpp:156] Memory required for data: 22408
I0720 16:09:36.685731 15258 layer_factory.hpp:77] Creating layer lstm1
I0720 16:09:36.685748 15258 net.cpp:91] Creating Layer lstm1
I0720 16:09:36.685755 15258 net.cpp:425] lstm1 <- embedded_input_frames
I0720 16:09:36.685763 15258 net.cpp:425] lstm1 <- cont_sentence_input_1_split_0
I0720 16:09:36.685780 15258 net.cpp:399] lstm1 -> lstm1
I0720 16:09:36.685813 15258 recurrent_layer.cpp:20] Initializing recurrent layer: assuming input batch contains 1 timesteps of 1 independent streams.
I0720 16:09:36.686144 15258 net.cpp:49] Initializing net from parameters: 
layer {
  name: "lstm1_"
  type: "Input"
  top: "x"
  top: "cont"
  input_param {
    shape {
      dim: 1
      dim: 1
      dim: 500
    }
    shape {
      dim: 1
      dim: 1
    }
  }
}
layer {
  name: "lstm1_"
  type: "Input"
  top: "c_0"
  top: "h_0"
  input_param {
    shape {
      dim: 1
      dim: 1
      dim: 1000
    }
    shape {
      dim: 1
      dim: 1
      dim: 1000
    }
  }
}
layer {
  name: "lstm1_cont_slice"
  type: "Slice"
  bottom: "cont"
  top: "cont_1"
  slice_param {
    axis: 0
  }
}
layer {
  name: "lstm1_x_transform"
  type: "InnerProduct"
  bottom: "x"
  top: "W_xc_x"
  param {
    name: "W_xc"
  }
  param {
    name: "b_c"
  }
  propagate_down: true
  inner_product_param {
    num_output: 4000
    bias_term: true
    weight_filler {
      type: "uniform"
      min: -0.08
      max: 0.08
    }
    bias_filler {
      type: "constant"
      value: 0
    }
    axis: 2
  }
}
layer {
  name: "lstm1_W_xc_x_slice"
  type: "Slice"
  bottom: "W_xc_x"
  top: "W_xc_x_1"
  slice_param {
    axis: 0
  }
}
layer {
  name: "lstm1_h_conted_0"
  type: "Scale"
  bottom: "h_0"
  bottom: "cont_1"
  top: "h_conted_0"
  scale_param {
    axis: 0
  }
}
layer {
  name: "lstm1_transform_1"
  type: "InnerProduct"
  bottom: "h_conted_0"
  top: "W_hc_h_0"
  param {
    name: "W_hc"
  }
  inner_product_param {
    num_output: 4000
    bias_term: false
    weight_filler {
      type: "uniform"
      min: -0.08
      max: 0.08
    }
    axis: 2
  }
}
layer {
  name: "lstm1_gate_input_1"
  type: "Eltwise"
  bottom: "W_hc_h_0"
  bottom: "W_xc_x_1"
  top: "gate_input_1"
  eltwise_param {
    operation: SUM
  }
}
layer {
  name: "lstm1_unit_1"
  type: "LSTMUnit"
  bottom: "c_0"
  bottom: "gate_input_1"
  bottom: "cont_1"
  top: "c_1"
  top: "h_1"
}
layer {
  name: "lstm1_"
  type: "Split"
  bottom: "c_1"
  top: "c_T"
}
layer {
  name: "lstm1_h_concat"
  type: "Concat"
  bottom: "h_1"
  top: "h"
  concat_param {
    axis: 0
  }
}
layer {
  name: "h_pseudoloss"
  type: "Reduction"
  bottom: "h"
  top: "h_pseudoloss"
  loss_weight: 1
}
I0720 16:09:36.686235 15258 layer_factory.hpp:77] Creating layer lstm1_
I0720 16:09:36.686249 15258 net.cpp:91] Creating Layer lstm1_
I0720 16:09:36.686254 15258 net.cpp:399] lstm1_ -> x
I0720 16:09:36.686265 15258 net.cpp:399] lstm1_ -> cont
I0720 16:09:36.686278 15258 net.cpp:141] Setting up lstm1_
I0720 16:09:36.686285 15258 net.cpp:148] Top shape: 1 1 500 (500)
I0720 16:09:36.686291 15258 net.cpp:148] Top shape: 1 1 (1)
I0720 16:09:36.686295 15258 net.cpp:156] Memory required for data: 2004
I0720 16:09:36.686300 15258 layer_factory.hpp:77] Creating layer lstm1_
I0720 16:09:36.686306 15258 net.cpp:91] Creating Layer lstm1_
I0720 16:09:36.686312 15258 net.cpp:399] lstm1_ -> c_0
I0720 16:09:36.686321 15258 net.cpp:399] lstm1_ -> h_0
I0720 16:09:36.686331 15258 net.cpp:141] Setting up lstm1_
I0720 16:09:36.686337 15258 net.cpp:148] Top shape: 1 1 1000 (1000)
I0720 16:09:36.686343 15258 net.cpp:148] Top shape: 1 1 1000 (1000)
I0720 16:09:36.686347 15258 net.cpp:156] Memory required for data: 10004
I0720 16:09:36.686350 15258 layer_factory.hpp:77] Creating layer lstm1_cont_slice
I0720 16:09:36.686358 15258 net.cpp:91] Creating Layer lstm1_cont_slice
I0720 16:09:36.686362 15258 net.cpp:425] lstm1_cont_slice <- cont
I0720 16:09:36.686368 15258 net.cpp:399] lstm1_cont_slice -> cont_1
I0720 16:09:36.686379 15258 net.cpp:141] Setting up lstm1_cont_slice
I0720 16:09:36.686386 15258 net.cpp:148] Top shape: 1 1 (1)
I0720 16:09:36.686390 15258 net.cpp:156] Memory required for data: 10008
I0720 16:09:36.686394 15258 layer_factory.hpp:77] Creating layer cont_1_lstm1_cont_slice_0_split
I0720 16:09:36.686404 15258 net.cpp:91] Creating Layer cont_1_lstm1_cont_slice_0_split
I0720 16:09:36.686409 15258 net.cpp:425] cont_1_lstm1_cont_slice_0_split <- cont_1
I0720 16:09:36.686416 15258 net.cpp:399] cont_1_lstm1_cont_slice_0_split -> cont_1_lstm1_cont_slice_0_split_0
I0720 16:09:36.686424 15258 net.cpp:399] cont_1_lstm1_cont_slice_0_split -> cont_1_lstm1_cont_slice_0_split_1
I0720 16:09:36.686434 15258 net.cpp:141] Setting up cont_1_lstm1_cont_slice_0_split
I0720 16:09:36.686442 15258 net.cpp:148] Top shape: 1 1 (1)
I0720 16:09:36.686447 15258 net.cpp:148] Top shape: 1 1 (1)
I0720 16:09:36.686450 15258 net.cpp:156] Memory required for data: 10016
I0720 16:09:36.686455 15258 layer_factory.hpp:77] Creating layer lstm1_x_transform
I0720 16:09:36.686463 15258 net.cpp:91] Creating Layer lstm1_x_transform
I0720 16:09:36.686467 15258 net.cpp:425] lstm1_x_transform <- x
I0720 16:09:36.686477 15258 net.cpp:399] lstm1_x_transform -> W_xc_x
I0720 16:09:36.707352 15258 net.cpp:141] Setting up lstm1_x_transform
I0720 16:09:36.707826 15258 net.cpp:148] Top shape: 1 1 4000 (4000)
I0720 16:09:36.707841 15258 net.cpp:156] Memory required for data: 26016
I0720 16:09:36.707865 15258 layer_factory.hpp:77] Creating layer lstm1_W_xc_x_slice
I0720 16:09:36.707887 15258 net.cpp:91] Creating Layer lstm1_W_xc_x_slice
I0720 16:09:36.707896 15258 net.cpp:425] lstm1_W_xc_x_slice <- W_xc_x
I0720 16:09:36.707908 15258 net.cpp:399] lstm1_W_xc_x_slice -> W_xc_x_1
I0720 16:09:36.707953 15258 net.cpp:141] Setting up lstm1_W_xc_x_slice
I0720 16:09:36.707968 15258 net.cpp:148] Top shape: 1 1 4000 (4000)
I0720 16:09:36.707974 15258 net.cpp:156] Memory required for data: 42016
I0720 16:09:36.707981 15258 layer_factory.hpp:77] Creating layer lstm1_h_conted_0
I0720 16:09:36.707993 15258 net.cpp:91] Creating Layer lstm1_h_conted_0
I0720 16:09:36.708001 15258 net.cpp:425] lstm1_h_conted_0 <- h_0
I0720 16:09:36.708010 15258 net.cpp:425] lstm1_h_conted_0 <- cont_1_lstm1_cont_slice_0_split_0
I0720 16:09:36.708036 15258 net.cpp:399] lstm1_h_conted_0 -> h_conted_0
I0720 16:09:36.708128 15258 net.cpp:141] Setting up lstm1_h_conted_0
I0720 16:09:36.708142 15258 net.cpp:148] Top shape: 1 1 1000 (1000)
I0720 16:09:36.708148 15258 net.cpp:156] Memory required for data: 46016
I0720 16:09:36.708155 15258 layer_factory.hpp:77] Creating layer lstm1_transform_1
I0720 16:09:36.708170 15258 net.cpp:91] Creating Layer lstm1_transform_1
I0720 16:09:36.708178 15258 net.cpp:425] lstm1_transform_1 <- h_conted_0
I0720 16:09:36.708204 15258 net.cpp:399] lstm1_transform_1 -> W_hc_h_0
I0720 16:09:36.712182 15262 net.cpp:141] Setting up embedding
I0720 16:09:36.712652 15262 net.cpp:148] Top shape: 1 1 500 (500)
I0720 16:09:36.712671 15262 net.cpp:156] Memory required for data: 22408
I0720 16:09:36.712697 15262 layer_factory.hpp:77] Creating layer lstm1
I0720 16:09:36.712721 15262 net.cpp:91] Creating Layer lstm1
I0720 16:09:36.712735 15262 net.cpp:425] lstm1 <- embedded_input_frames
I0720 16:09:36.712749 15262 net.cpp:425] lstm1 <- cont_sentence_input_1_split_0
I0720 16:09:36.713244 15262 net.cpp:399] lstm1 -> lstm1
I0720 16:09:36.713274 15262 recurrent_layer.cpp:20] Initializing recurrent layer: assuming input batch contains 1 timesteps of 1 independent streams.
I0720 16:09:36.714534 15262 net.cpp:49] Initializing net from parameters: 
layer {
  name: "lstm1_"
  type: "Input"
  top: "x"
  top: "cont"
  input_param {
    shape {
      dim: 1
      dim: 1
      dim: 500
    }
    shape {
      dim: 1
      dim: 1
    }
  }
}
layer {
  name: "lstm1_"
  type: "Input"
  top: "c_0"
  top: "h_0"
  input_param {
    shape {
      dim: 1
      dim: 1
      dim: 1000
    }
    shape {
      dim: 1
      dim: 1
      dim: 1000
    }
  }
}
layer {
  name: "lstm1_cont_slice"
  type: "Slice"
  bottom: "cont"
  top: "cont_1"
  slice_param {
    axis: 0
  }
}
layer {
  name: "lstm1_x_transform"
  type: "InnerProduct"
  bottom: "x"
  top: "W_xc_x"
  param {
    name: "W_xc"
  }
  param {
    name: "b_c"
  }
  propagate_down: true
  inner_product_param {
    num_output: 4000
    bias_term: true
    weight_filler {
      type: "uniform"
      min: -0.08
      max: 0.08
    }
    bias_filler {
      type: "constant"
      value: 0
    }
    axis: 2
  }
}
layer {
  name: "lstm1_W_xc_x_slice"
  type: "Slice"
  bottom: "W_xc_x"
  top: "W_xc_x_1"
  slice_param {
    axis: 0
  }
}
layer {
  name: "lstm1_h_conted_0"
  type: "Scale"
  bottom: "h_0"
  bottom: "cont_1"
  top: "h_conted_0"
  scale_param {
    axis: 0
  }
}
layer {
  name: "lstm1_transform_1"
  type: "InnerProduct"
  bottom: "h_conted_0"
  top: "W_hc_h_0"
  param {
    name: "W_hc"
  }
  inner_product_param {
    num_output: 4000
    bias_term: false
    weight_filler {
      type: "uniform"
      min: -0.08
      max: 0.08
    }
    axis: 2
  }
}
layer {
  name: "lstm1_gate_input_1"
  type: "Eltwise"
  bottom: "W_hc_h_0"
  bottom: "W_xc_x_1"
  top: "gate_input_1"
  eltwise_param {
    operation: SUM
  }
}
layer {
  name: "lstm1_unit_1"
  type: "LSTMUnit"
  bottom: "c_0"
  bottom: "gate_input_1"
  bottom: "cont_1"
  top: "c_1"
  top: "h_1"
}
layer {
  name: "lstm1_"
  type: "Split"
  bottom: "c_1"
  top: "c_T"
}
layer {
  name: "lstm1_h_concat"
  type: "Concat"
  bottom: "h_1"
  top: "h"
  concat_param {
    axis: 0
  }
}
layer {
  name: "h_pseudoloss"
  type: "Reduction"
  bottom: "h"
  top: "h_pseudoloss"
  loss_weight: 1
}
I0720 16:09:36.715159 15262 layer_factory.hpp:77] Creating layer lstm1_
I0720 16:09:36.715188 15262 net.cpp:91] Creating Layer lstm1_
I0720 16:09:36.715204 15262 net.cpp:399] lstm1_ -> x
I0720 16:09:36.715227 15262 net.cpp:399] lstm1_ -> cont
I0720 16:09:36.715253 15262 net.cpp:141] Setting up lstm1_
I0720 16:09:36.715271 15262 net.cpp:148] Top shape: 1 1 500 (500)
I0720 16:09:36.715284 15262 net.cpp:148] Top shape: 1 1 (1)
I0720 16:09:36.715292 15262 net.cpp:156] Memory required for data: 2004
I0720 16:09:36.715302 15262 layer_factory.hpp:77] Creating layer lstm1_
I0720 16:09:36.715317 15262 net.cpp:91] Creating Layer lstm1_
I0720 16:09:36.715330 15262 net.cpp:399] lstm1_ -> c_0
I0720 16:09:36.715351 15262 net.cpp:399] lstm1_ -> h_0
I0720 16:09:36.715371 15262 net.cpp:141] Setting up lstm1_
I0720 16:09:36.715385 15262 net.cpp:148] Top shape: 1 1 1000 (1000)
I0720 16:09:36.715399 15262 net.cpp:148] Top shape: 1 1 1000 (1000)
I0720 16:09:36.715406 15262 net.cpp:156] Memory required for data: 10004
I0720 16:09:36.715415 15262 layer_factory.hpp:77] Creating layer lstm1_cont_slice
I0720 16:09:36.715430 15262 net.cpp:91] Creating Layer lstm1_cont_slice
I0720 16:09:36.715441 15262 net.cpp:425] lstm1_cont_slice <- cont
I0720 16:09:36.715456 15262 net.cpp:399] lstm1_cont_slice -> cont_1
I0720 16:09:36.715477 15262 net.cpp:141] Setting up lstm1_cont_slice
I0720 16:09:36.715492 15262 net.cpp:148] Top shape: 1 1 (1)
I0720 16:09:36.715500 15262 net.cpp:156] Memory required for data: 10008
I0720 16:09:36.715508 15262 layer_factory.hpp:77] Creating layer cont_1_lstm1_cont_slice_0_split
I0720 16:09:36.715734 15262 net.cpp:91] Creating Layer cont_1_lstm1_cont_slice_0_split
I0720 16:09:36.715749 15262 net.cpp:425] cont_1_lstm1_cont_slice_0_split <- cont_1
I0720 16:09:36.715764 15262 net.cpp:399] cont_1_lstm1_cont_slice_0_split -> cont_1_lstm1_cont_slice_0_split_0
I0720 16:09:36.715781 15262 net.cpp:399] cont_1_lstm1_cont_slice_0_split -> cont_1_lstm1_cont_slice_0_split_1
I0720 16:09:36.715801 15262 net.cpp:141] Setting up cont_1_lstm1_cont_slice_0_split
I0720 16:09:36.715824 15262 net.cpp:148] Top shape: 1 1 (1)
I0720 16:09:36.715837 15262 net.cpp:148] Top shape: 1 1 (1)
I0720 16:09:36.715844 15262 net.cpp:156] Memory required for data: 10016
I0720 16:09:36.715853 15262 layer_factory.hpp:77] Creating layer lstm1_x_transform
I0720 16:09:36.715872 15262 net.cpp:91] Creating Layer lstm1_x_transform
I0720 16:09:36.715881 15262 net.cpp:425] lstm1_x_transform <- x
I0720 16:09:36.715909 15262 net.cpp:399] lstm1_x_transform -> W_xc_x
I0720 16:09:36.717927 15275 net.cpp:141] Setting up embedding
I0720 16:09:36.717952 15275 net.cpp:148] Top shape: 1 1 500 (500)
I0720 16:09:36.717957 15275 net.cpp:156] Memory required for data: 22408
I0720 16:09:36.717969 15275 layer_factory.hpp:77] Creating layer lstm1
I0720 16:09:36.717991 15275 net.cpp:91] Creating Layer lstm1
I0720 16:09:36.717998 15275 net.cpp:425] lstm1 <- embedded_input_frames
I0720 16:09:36.718005 15275 net.cpp:425] lstm1 <- cont_sentence_input_1_split_0
I0720 16:09:36.718014 15275 net.cpp:399] lstm1 -> lstm1
I0720 16:09:36.718025 15275 recurrent_layer.cpp:20] Initializing recurrent layer: assuming input batch contains 1 timesteps of 1 independent streams.
I0720 16:09:36.718343 15275 net.cpp:49] Initializing net from parameters: 
layer {
  name: "lstm1_"
  type: "Input"
  top: "x"
  top: "cont"
  input_param {
    shape {
      dim: 1
      dim: 1
      dim: 500
    }
    shape {
      dim: 1
      dim: 1
    }
  }
}
layer {
  name: "lstm1_"
  type: "Input"
  top: "c_0"
  top: "h_0"
  input_param {
    shape {
      dim: 1
      dim: 1
      dim: 1000
    }
    shape {
      dim: 1
      dim: 1
      dim: 1000
    }
  }
}
layer {
  name: "lstm1_cont_slice"
  type: "Slice"
  bottom: "cont"
  top: "cont_1"
  slice_param {
    axis: 0
  }
}
layer {
  name: "lstm1_x_transform"
  type: "InnerProduct"
  bottom: "x"
  top: "W_xc_x"
  param {
    name: "W_xc"
  }
  param {
    name: "b_c"
  }
  propagate_down: true
  inner_product_param {
    num_output: 4000
    bias_term: true
    weight_filler {
      type: "uniform"
      min: -0.08
      max: 0.08
    }
    bias_filler {
      type: "constant"
      value: 0
    }
    axis: 2
  }
}
layer {
  name: "lstm1_W_xc_x_slice"
  type: "Slice"
  bottom: "W_xc_x"
  top: "W_xc_x_1"
  slice_param {
    axis: 0
  }
}
layer {
  name: "lstm1_h_conted_0"
  type: "Scale"
  bottom: "h_0"
  bottom: "cont_1"
  top: "h_conted_0"
  scale_param {
    axis: 0
  }
}
layer {
  name: "lstm1_transform_1"
  type: "InnerProduct"
  bottom: "h_conted_0"
  top: "W_hc_h_0"
  param {
    name: "W_hc"
  }
  inner_product_param {
    num_output: 4000
    bias_term: false
    weight_filler {
      type: "uniform"
      min: -0.08
      max: 0.08
    }
    axis: 2
  }
}
layer {
  name: "lstm1_gate_input_1"
  type: "Eltwise"
  bottom: "W_hc_h_0"
  bottom: "W_xc_x_1"
  top: "gate_input_1"
  eltwise_param {
    operation: SUM
  }
}
layer {
  name: "lstm1_unit_1"
  type: "LSTMUnit"
  bottom: "c_0"
  bottom: "gate_input_1"
  bottom: "cont_1"
  top: "c_1"
  top: "h_1"
}
layer {
  name: "lstm1_"
  type: "Split"
  bottom: "c_1"
  top: "c_T"
}
layer {
  name: "lstm1_h_concat"
  type: "Concat"
  bottom: "h_1"
  top: "h"
  concat_param {
    axis: 0
  }
}
layer {
  name: "h_pseudoloss"
  type: "Reduction"
  bottom: "h"
  top: "h_pseudoloss"
  loss_weight: 1
}
I0720 16:09:36.718462 15275 layer_factory.hpp:77] Creating layer lstm1_
I0720 16:09:36.718477 15275 net.cpp:91] Creating Layer lstm1_
I0720 16:09:36.718482 15275 net.cpp:399] lstm1_ -> x
I0720 16:09:36.718494 15275 net.cpp:399] lstm1_ -> cont
I0720 16:09:36.718507 15275 net.cpp:141] Setting up lstm1_
I0720 16:09:36.718513 15275 net.cpp:148] Top shape: 1 1 500 (500)
I0720 16:09:36.718519 15275 net.cpp:148] Top shape: 1 1 (1)
I0720 16:09:36.718523 15275 net.cpp:156] Memory required for data: 2004
I0720 16:09:36.718528 15275 layer_factory.hpp:77] Creating layer lstm1_
I0720 16:09:36.718534 15275 net.cpp:91] Creating Layer lstm1_
I0720 16:09:36.718540 15275 net.cpp:399] lstm1_ -> c_0
I0720 16:09:36.718549 15275 net.cpp:399] lstm1_ -> h_0
I0720 16:09:36.718559 15275 net.cpp:141] Setting up lstm1_
I0720 16:09:36.718565 15275 net.cpp:148] Top shape: 1 1 1000 (1000)
I0720 16:09:36.718570 15275 net.cpp:148] Top shape: 1 1 1000 (1000)
I0720 16:09:36.718575 15275 net.cpp:156] Memory required for data: 10004
I0720 16:09:36.718578 15275 layer_factory.hpp:77] Creating layer lstm1_cont_slice
I0720 16:09:36.718585 15275 net.cpp:91] Creating Layer lstm1_cont_slice
I0720 16:09:36.718600 15275 net.cpp:425] lstm1_cont_slice <- cont
I0720 16:09:36.718608 15275 net.cpp:399] lstm1_cont_slice -> cont_1
I0720 16:09:36.718621 15275 net.cpp:141] Setting up lstm1_cont_slice
I0720 16:09:36.718627 15275 net.cpp:148] Top shape: 1 1 (1)
I0720 16:09:36.718631 15275 net.cpp:156] Memory required for data: 10008
I0720 16:09:36.718636 15275 layer_factory.hpp:77] Creating layer cont_1_lstm1_cont_slice_0_split
I0720 16:09:36.718641 15275 net.cpp:91] Creating Layer cont_1_lstm1_cont_slice_0_split
I0720 16:09:36.718646 15275 net.cpp:425] cont_1_lstm1_cont_slice_0_split <- cont_1
I0720 16:09:36.718662 15275 net.cpp:399] cont_1_lstm1_cont_slice_0_split -> cont_1_lstm1_cont_slice_0_split_0
I0720 16:09:36.718670 15275 net.cpp:399] cont_1_lstm1_cont_slice_0_split -> cont_1_lstm1_cont_slice_0_split_1
I0720 16:09:36.718680 15275 net.cpp:141] Setting up cont_1_lstm1_cont_slice_0_split
I0720 16:09:36.718698 15275 net.cpp:148] Top shape: 1 1 (1)
I0720 16:09:36.718705 15275 net.cpp:148] Top shape: 1 1 (1)
I0720 16:09:36.718708 15275 net.cpp:156] Memory required for data: 10016
I0720 16:09:36.718713 15275 layer_factory.hpp:77] Creating layer lstm1_x_transform
I0720 16:09:36.718724 15275 net.cpp:91] Creating Layer lstm1_x_transform
I0720 16:09:36.718729 15275 net.cpp:425] lstm1_x_transform <- x
I0720 16:09:36.718736 15275 net.cpp:399] lstm1_x_transform -> W_xc_x
I0720 16:09:36.726699 15252 net.cpp:141] Setting up embedding
I0720 16:09:36.726757 15252 net.cpp:148] Top shape: 1 1 500 (500)
I0720 16:09:36.726763 15252 net.cpp:156] Memory required for data: 22408
I0720 16:09:36.726783 15252 layer_factory.hpp:77] Creating layer lstm1
I0720 16:09:36.726805 15252 net.cpp:91] Creating Layer lstm1
I0720 16:09:36.726814 15252 net.cpp:425] lstm1 <- embedded_input_frames
I0720 16:09:36.726825 15252 net.cpp:425] lstm1 <- cont_sentence_input_1_split_0
I0720 16:09:36.726850 15252 net.cpp:399] lstm1 -> lstm1
I0720 16:09:36.726871 15252 recurrent_layer.cpp:20] Initializing recurrent layer: assuming input batch contains 1 timesteps of 1 independent streams.
I0720 16:09:36.727205 15252 net.cpp:49] Initializing net from parameters: 
layer {
  name: "lstm1_"
  type: "Input"
  top: "x"
  top: "cont"
  input_param {
    shape {
      dim: 1
      dim: 1
      dim: 500
    }
    shape {
      dim: 1
      dim: 1
    }
  }
}
layer {
  name: "lstm1_"
  type: "Input"
  top: "c_0"
  top: "h_0"
  input_param {
    shape {
      dim: 1
      dim: 1
      dim: 1000
    }
    shape {
      dim: 1
      dim: 1
      dim: 1000
    }
  }
}
layer {
  name: "lstm1_cont_slice"
  type: "Slice"
  bottom: "cont"
  top: "cont_1"
  slice_param {
    axis: 0
  }
}
layer {
  name: "lstm1_x_transform"
  type: "InnerProduct"
  bottom: "x"
  top: "W_xc_x"
  param {
    name: "W_xc"
  }
  param {
    name: "b_c"
  }
  propagate_down: true
  inner_product_param {
    num_output: 4000
    bias_term: true
    weight_filler {
      type: "uniform"
      min: -0.08
      max: 0.08
    }
    bias_filler {
      type: "constant"
      value: 0
    }
    axis: 2
  }
}
layer {
  name: "lstm1_W_xc_x_slice"
  type: "Slice"
  bottom: "W_xc_x"
  top: "W_xc_x_1"
  slice_param {
    axis: 0
  }
}
layer {
  name: "lstm1_h_conted_0"
  type: "Scale"
  bottom: "h_0"
  bottom: "cont_1"
  top: "h_conted_0"
  scale_param {
    axis: 0
  }
}
layer {
  name: "lstm1_transform_1"
  type: "InnerProduct"
  bottom: "h_conted_0"
  top: "W_hc_h_0"
  param {
    name: "W_hc"
  }
  inner_product_param {
    num_output: 4000
    bias_term: false
    weight_filler {
      type: "uniform"
      min: -0.08
      max: 0.08
    }
    axis: 2
  }
}
layer {
  name: "lstm1_gate_input_1"
  type: "Eltwise"
  bottom: "W_hc_h_0"
  bottom: "W_xc_x_1"
  top: "gate_input_1"
  eltwise_param {
    operation: SUM
  }
}
layer {
  name: "lstm1_unit_1"
  type: "LSTMUnit"
  bottom: "c_0"
  bottom: "gate_input_1"
  bottom: "cont_1"
  top: "c_1"
  top: "h_1"
}
layer {
  name: "lstm1_"
  type: "Split"
  bottom: "c_1"
  top: "c_T"
}
layer {
  name: "lstm1_h_concat"
  type: "Concat"
  bottom: "h_1"
  top: "h"
  concat_param {
    axis: 0
  }
}
layer {
  name: "h_pseudoloss"
  type: "Reduction"
  bottom: "h"
  top: "h_pseudoloss"
  loss_weight: 1
}
I0720 16:09:36.727322 15252 layer_factory.hpp:77] Creating layer lstm1_
I0720 16:09:36.727337 15252 net.cpp:91] Creating Layer lstm1_
I0720 16:09:36.727344 15252 net.cpp:399] lstm1_ -> x
I0720 16:09:36.727358 15252 net.cpp:399] lstm1_ -> cont
I0720 16:09:36.727372 15252 net.cpp:141] Setting up lstm1_
I0720 16:09:36.727381 15252 net.cpp:148] Top shape: 1 1 500 (500)
I0720 16:09:36.727388 15252 net.cpp:148] Top shape: 1 1 (1)
I0720 16:09:36.727392 15252 net.cpp:156] Memory required for data: 2004
I0720 16:09:36.727398 15252 layer_factory.hpp:77] Creating layer lstm1_
I0720 16:09:36.727406 15252 net.cpp:91] Creating Layer lstm1_
I0720 16:09:36.727414 15252 net.cpp:399] lstm1_ -> c_0
I0720 16:09:36.727424 15252 net.cpp:399] lstm1_ -> h_0
I0720 16:09:36.727435 15252 net.cpp:141] Setting up lstm1_
I0720 16:09:36.727442 15252 net.cpp:148] Top shape: 1 1 1000 (1000)
I0720 16:09:36.727448 15252 net.cpp:148] Top shape: 1 1 1000 (1000)
I0720 16:09:36.727453 15252 net.cpp:156] Memory required for data: 10004
I0720 16:09:36.727458 15252 layer_factory.hpp:77] Creating layer lstm1_cont_slice
I0720 16:09:36.727466 15252 net.cpp:91] Creating Layer lstm1_cont_slice
I0720 16:09:36.727471 15252 net.cpp:425] lstm1_cont_slice <- cont
I0720 16:09:36.727488 15252 net.cpp:399] lstm1_cont_slice -> cont_1
I0720 16:09:36.727504 15252 net.cpp:141] Setting up lstm1_cont_slice
I0720 16:09:36.727512 15252 net.cpp:148] Top shape: 1 1 (1)
I0720 16:09:36.727516 15252 net.cpp:156] Memory required for data: 10008
I0720 16:09:36.727521 15252 layer_factory.hpp:77] Creating layer cont_1_lstm1_cont_slice_0_split
I0720 16:09:36.727530 15252 net.cpp:91] Creating Layer cont_1_lstm1_cont_slice_0_split
I0720 16:09:36.727535 15252 net.cpp:425] cont_1_lstm1_cont_slice_0_split <- cont_1
I0720 16:09:36.727561 15252 net.cpp:399] cont_1_lstm1_cont_slice_0_split -> cont_1_lstm1_cont_slice_0_split_0
I0720 16:09:36.727571 15252 net.cpp:399] cont_1_lstm1_cont_slice_0_split -> cont_1_lstm1_cont_slice_0_split_1
I0720 16:09:36.727582 15252 net.cpp:141] Setting up cont_1_lstm1_cont_slice_0_split
I0720 16:09:36.727589 15252 net.cpp:148] Top shape: 1 1 (1)
I0720 16:09:36.727596 15252 net.cpp:148] Top shape: 1 1 (1)
I0720 16:09:36.727599 15252 net.cpp:156] Memory required for data: 10016
I0720 16:09:36.727604 15252 layer_factory.hpp:77] Creating layer lstm1_x_transform
I0720 16:09:36.727614 15252 net.cpp:91] Creating Layer lstm1_x_transform
I0720 16:09:36.727620 15252 net.cpp:425] lstm1_x_transform <- x
I0720 16:09:36.727632 15252 net.cpp:399] lstm1_x_transform -> W_xc_x
I0720 16:09:36.736914 15275 net.cpp:141] Setting up lstm1_x_transform
I0720 16:09:36.736948 15275 net.cpp:148] Top shape: 1 1 4000 (4000)
I0720 16:09:36.736953 15275 net.cpp:156] Memory required for data: 26016
I0720 16:09:36.736971 15275 layer_factory.hpp:77] Creating layer lstm1_W_xc_x_slice
I0720 16:09:36.736987 15275 net.cpp:91] Creating Layer lstm1_W_xc_x_slice
I0720 16:09:36.736994 15275 net.cpp:425] lstm1_W_xc_x_slice <- W_xc_x
I0720 16:09:36.737001 15275 net.cpp:399] lstm1_W_xc_x_slice -> W_xc_x_1
I0720 16:09:36.737018 15275 net.cpp:141] Setting up lstm1_W_xc_x_slice
I0720 16:09:36.737025 15275 net.cpp:148] Top shape: 1 1 4000 (4000)
I0720 16:09:36.737030 15275 net.cpp:156] Memory required for data: 42016
I0720 16:09:36.737033 15275 layer_factory.hpp:77] Creating layer lstm1_h_conted_0
I0720 16:09:36.737046 15275 net.cpp:91] Creating Layer lstm1_h_conted_0
I0720 16:09:36.737051 15275 net.cpp:425] lstm1_h_conted_0 <- h_0
I0720 16:09:36.737056 15275 net.cpp:425] lstm1_h_conted_0 <- cont_1_lstm1_cont_slice_0_split_0
I0720 16:09:36.737062 15275 net.cpp:399] lstm1_h_conted_0 -> h_conted_0
I0720 16:09:36.737081 15275 net.cpp:141] Setting up lstm1_h_conted_0
I0720 16:09:36.737087 15275 net.cpp:148] Top shape: 1 1 1000 (1000)
I0720 16:09:36.737092 15275 net.cpp:156] Memory required for data: 46016
I0720 16:09:36.737095 15275 layer_factory.hpp:77] Creating layer lstm1_transform_1
I0720 16:09:36.737107 15275 net.cpp:91] Creating Layer lstm1_transform_1
I0720 16:09:36.737112 15275 net.cpp:425] lstm1_transform_1 <- h_conted_0
I0720 16:09:36.737119 15275 net.cpp:399] lstm1_transform_1 -> W_hc_h_0
I0720 16:09:36.741401 15260 net.cpp:141] Setting up embedding
I0720 16:09:36.741461 15260 net.cpp:148] Top shape: 1 1 500 (500)
I0720 16:09:36.741466 15260 net.cpp:156] Memory required for data: 22408
I0720 16:09:36.741487 15260 layer_factory.hpp:77] Creating layer lstm1
I0720 16:09:36.742749 15260 net.cpp:91] Creating Layer lstm1
I0720 16:09:36.742774 15260 net.cpp:425] lstm1 <- embedded_input_frames
I0720 16:09:36.742792 15260 net.cpp:425] lstm1 <- cont_sentence_input_1_split_0
I0720 16:09:36.746793 15260 net.cpp:399] lstm1 -> lstm1
I0720 16:09:36.746865 15260 recurrent_layer.cpp:20] Initializing recurrent layer: assuming input batch contains 1 timesteps of 1 independent streams.
I0720 16:09:36.747275 15262 net.cpp:141] Setting up lstm1_x_transform
I0720 16:09:36.747335 15262 net.cpp:148] Top shape: 1 1 4000 (4000)
I0720 16:09:36.747355 15262 net.cpp:156] Memory required for data: 26016
I0720 16:09:36.747392 15262 layer_factory.hpp:77] Creating layer lstm1_W_xc_x_slice
I0720 16:09:36.747931 15262 net.cpp:91] Creating Layer lstm1_W_xc_x_slice
I0720 16:09:36.747957 15262 net.cpp:425] lstm1_W_xc_x_slice <- W_xc_x
I0720 16:09:36.747987 15262 net.cpp:399] lstm1_W_xc_x_slice -> W_xc_x_1
I0720 16:09:36.748016 15262 net.cpp:141] Setting up lstm1_W_xc_x_slice
I0720 16:09:36.748031 15262 net.cpp:148] Top shape: 1 1 4000 (4000)
I0720 16:09:36.748039 15262 net.cpp:156] Memory required for data: 42016
I0720 16:09:36.748047 15262 layer_factory.hpp:77] Creating layer lstm1_h_conted_0
I0720 16:09:36.748083 15262 net.cpp:91] Creating Layer lstm1_h_conted_0
I0720 16:09:36.748095 15262 net.cpp:425] lstm1_h_conted_0 <- h_0
I0720 16:09:36.748106 15262 net.cpp:425] lstm1_h_conted_0 <- cont_1_lstm1_cont_slice_0_split_0
I0720 16:09:36.748121 15262 net.cpp:399] lstm1_h_conted_0 -> h_conted_0
I0720 16:09:36.748167 15262 net.cpp:141] Setting up lstm1_h_conted_0
I0720 16:09:36.748183 15262 net.cpp:148] Top shape: 1 1 1000 (1000)
I0720 16:09:36.748190 15262 net.cpp:156] Memory required for data: 46016
I0720 16:09:36.748199 15262 layer_factory.hpp:77] Creating layer lstm1_transform_1
I0720 16:09:36.748216 15262 net.cpp:91] Creating Layer lstm1_transform_1
I0720 16:09:36.748224 15262 net.cpp:425] lstm1_transform_1 <- h_conted_0
I0720 16:09:36.748255 15262 net.cpp:399] lstm1_transform_1 -> W_hc_h_0
I0720 16:09:36.748350 15260 net.cpp:49] Initializing net from parameters: 
layer {
  name: "lstm1_"
  type: "Input"
  top: "x"
  top: "cont"
  input_param {
    shape {
      dim: 1
      dim: 1
      dim: 500
    }
    shape {
      dim: 1
      dim: 1
    }
  }
}
layer {
  name: "lstm1_"
  type: "Input"
  top: "c_0"
  top: "h_0"
  input_param {
    shape {
      dim: 1
      dim: 1
      dim: 1000
    }
    shape {
      dim: 1
      dim: 1
      dim: 1000
    }
  }
}
layer {
  name: "lstm1_cont_slice"
  type: "Slice"
  bottom: "cont"
  top: "cont_1"
  slice_param {
    axis: 0
  }
}
layer {
  name: "lstm1_x_transform"
  type: "InnerProduct"
  bottom: "x"
  top: "W_xc_x"
  param {
    name: "W_xc"
  }
  param {
    name: "b_c"
  }
  propagate_down: true
  inner_product_param {
    num_output: 4000
    bias_term: true
    weight_filler {
      type: "uniform"
      min: -0.08
      max: 0.08
    }
    bias_filler {
      type: "constant"
      value: 0
    }
    axis: 2
  }
}
layer {
  name: "lstm1_W_xc_x_slice"
  type: "Slice"
  bottom: "W_xc_x"
  top: "W_xc_x_1"
  slice_param {
    axis: 0
  }
}
layer {
  name: "lstm1_h_conted_0"
  type: "Scale"
  bottom: "h_0"
  bottom: "cont_1"
  top: "h_conted_0"
  scale_param {
    axis: 0
  }
}
layer {
  name: "lstm1_transform_1"
  type: "InnerProduct"
  bottom: "h_conted_0"
  top: "W_hc_h_0"
  param {
    name: "W_hc"
  }
  inner_product_param {
    num_output: 4000
    bias_term: false
    weight_filler {
      type: "uniform"
      min: -0.08
      max: 0.08
    }
    axis: 2
  }
}
layer {
  name: "lstm1_gate_input_1"
  type: "Eltwise"
  bottom: "W_hc_h_0"
  bottom: "W_xc_x_1"
  top: "gate_input_1"
  eltwise_param {
    operation: SUM
  }
}
layer {
  name: "lstm1_unit_1"
  type: "LSTMUnit"
  bottom: "c_0"
  bottom: "gate_input_1"
  bottom: "cont_1"
  top: "c_1"
  top: "h_1"
}
layer {
  name: "lstm1_"
  type: "Split"
  bottom: "c_1"
  top: "c_T"
}
layer {
  name: "lstm1_h_concat"
  type: "Concat"
  bottom: "h_1"
  top: "h"
  concat_param {
    axis: 0
  }
}
layer {
  name: "h_pseudoloss"
  type: "Reduction"
  bottom: "h"
  top: "h_pseudoloss"
  loss_weight: 1
}
I0720 16:09:36.748584 15260 layer_factory.hpp:77] Creating layer lstm1_
I0720 16:09:36.748615 15260 net.cpp:91] Creating Layer lstm1_
I0720 16:09:36.748636 15260 net.cpp:399] lstm1_ -> x
I0720 16:09:36.748661 15260 net.cpp:399] lstm1_ -> cont
I0720 16:09:36.748687 15260 net.cpp:141] Setting up lstm1_
I0720 16:09:36.748705 15260 net.cpp:148] Top shape: 1 1 500 (500)
I0720 16:09:36.748718 15260 net.cpp:148] Top shape: 1 1 (1)
I0720 16:09:36.748728 15260 net.cpp:156] Memory required for data: 2004
I0720 16:09:36.748739 15260 layer_factory.hpp:77] Creating layer lstm1_
I0720 16:09:36.748755 15260 net.cpp:91] Creating Layer lstm1_
I0720 16:09:36.748769 15260 net.cpp:399] lstm1_ -> c_0
I0720 16:09:36.748790 15260 net.cpp:399] lstm1_ -> h_0
I0720 16:09:36.748811 15260 net.cpp:141] Setting up lstm1_
I0720 16:09:36.748826 15260 net.cpp:148] Top shape: 1 1 1000 (1000)
I0720 16:09:36.748837 15260 net.cpp:148] Top shape: 1 1 1000 (1000)
I0720 16:09:36.748845 15260 net.cpp:156] Memory required for data: 10004
I0720 16:09:36.748855 15260 layer_factory.hpp:77] Creating layer lstm1_cont_slice
I0720 16:09:36.748896 15260 net.cpp:91] Creating Layer lstm1_cont_slice
I0720 16:09:36.748911 15260 net.cpp:425] lstm1_cont_slice <- cont
I0720 16:09:36.748927 15260 net.cpp:399] lstm1_cont_slice -> cont_1
I0720 16:09:36.748951 15260 net.cpp:141] Setting up lstm1_cont_slice
I0720 16:09:36.748968 15260 net.cpp:148] Top shape: 1 1 (1)
I0720 16:09:36.748977 15260 net.cpp:156] Memory required for data: 10008
I0720 16:09:36.748986 15260 layer_factory.hpp:77] Creating layer cont_1_lstm1_cont_slice_0_split
I0720 16:09:36.749006 15260 net.cpp:91] Creating Layer cont_1_lstm1_cont_slice_0_split
I0720 16:09:36.749017 15260 net.cpp:425] cont_1_lstm1_cont_slice_0_split <- cont_1
I0720 16:09:36.749032 15260 net.cpp:399] cont_1_lstm1_cont_slice_0_split -> cont_1_lstm1_cont_slice_0_split_0
I0720 16:09:36.749049 15260 net.cpp:399] cont_1_lstm1_cont_slice_0_split -> cont_1_lstm1_cont_slice_0_split_1
I0720 16:09:36.749070 15260 net.cpp:141] Setting up cont_1_lstm1_cont_slice_0_split
I0720 16:09:36.749083 15260 net.cpp:148] Top shape: 1 1 (1)
I0720 16:09:36.749095 15260 net.cpp:148] Top shape: 1 1 (1)
I0720 16:09:36.749104 15260 net.cpp:156] Memory required for data: 10016
I0720 16:09:36.749114 15260 layer_factory.hpp:77] Creating layer lstm1_x_transform
I0720 16:09:36.749160 15260 net.cpp:91] Creating Layer lstm1_x_transform
I0720 16:09:36.749173 15260 net.cpp:425] lstm1_x_transform <- x
I0720 16:09:36.749212 15260 net.cpp:399] lstm1_x_transform -> W_xc_x
I0720 16:09:36.749879 15248 net.cpp:141] Setting up embedding
I0720 16:09:36.749900 15248 net.cpp:148] Top shape: 1 1 500 (500)
I0720 16:09:36.749905 15248 net.cpp:156] Memory required for data: 22408
I0720 16:09:36.749917 15248 layer_factory.hpp:77] Creating layer lstm1
I0720 16:09:36.749928 15248 net.cpp:91] Creating Layer lstm1
I0720 16:09:36.749934 15248 net.cpp:425] lstm1 <- embedded_input_frames
I0720 16:09:36.749941 15248 net.cpp:425] lstm1 <- cont_sentence_input_1_split_0
I0720 16:09:36.749966 15248 net.cpp:399] lstm1 -> lstm1
I0720 16:09:36.749980 15248 recurrent_layer.cpp:20] Initializing recurrent layer: assuming input batch contains 1 timesteps of 1 independent streams.
I0720 16:09:36.751338 15248 net.cpp:49] Initializing net from parameters: 
layer {
  name: "lstm1_"
  type: "Input"
  top: "x"
  top: "cont"
  input_param {
    shape {
      dim: 1
      dim: 1
      dim: 500
    }
    shape {
      dim: 1
      dim: 1
    }
  }
}
layer {
  name: "lstm1_"
  type: "Input"
  top: "c_0"
  top: "h_0"
  input_param {
    shape {
      dim: 1
      dim: 1
      dim: 1000
    }
    shape {
      dim: 1
      dim: 1
      dim: 1000
    }
  }
}
layer {
  name: "lstm1_cont_slice"
  type: "Slice"
  bottom: "cont"
  top: "cont_1"
  slice_param {
    axis: 0
  }
}
layer {
  name: "lstm1_x_transform"
  type: "InnerProduct"
  bottom: "x"
  top: "W_xc_x"
  param {
    name: "W_xc"
  }
  param {
    name: "b_c"
  }
  propagate_down: true
  inner_product_param {
    num_output: 4000
    bias_term: true
    weight_filler {
      type: "uniform"
      min: -0.08
      max: 0.08
    }
    bias_filler {
      type: "constant"
      value: 0
    }
    axis: 2
  }
}
layer {
  name: "lstm1_W_xc_x_slice"
  type: "Slice"
  bottom: "W_xc_x"
  top: "W_xc_x_1"
  slice_param {
    axis: 0
  }
}
layer {
  name: "lstm1_h_conted_0"
  type: "Scale"
  bottom: "h_0"
  bottom: "cont_1"
  top: "h_conted_0"
  scale_param {
    axis: 0
  }
}
layer {
  name: "lstm1_transform_1"
  type: "InnerProduct"
  bottom: "h_conted_0"
  top: "W_hc_h_0"
  param {
    name: "W_hc"
  }
  inner_product_param {
    num_output: 4000
    bias_term: false
    weight_filler {
      type: "uniform"
      min: -0.08
      max: 0.08
    }
    axis: 2
  }
}
layer {
  name: "lstm1_gate_input_1"
  type: "Eltwise"
  bottom: "W_hc_h_0"
  bottom: "W_xc_x_1"
  top: "gate_input_1"
  eltwise_param {
    operation: SUM
  }
}
layer {
  name: "lstm1_unit_1"
  type: "LSTMUnit"
  bottom: "c_0"
  bottom: "gate_input_1"
  bottom: "cont_1"
  top: "c_1"
  top: "h_1"
}
layer {
  name: "lstm1_"
  type: "Split"
  bottom: "c_1"
  top: "c_T"
}
layer {
  name: "lstm1_h_concat"
  type: "Concat"
  bottom: "h_1"
  top: "h"
  concat_param {
    axis: 0
  }
}
layer {
  name: "h_pseudoloss"
  type: "Reduction"
  bottom: "h"
  top: "h_pseudoloss"
  loss_weight: 1
}
I0720 16:09:36.751462 15248 layer_factory.hpp:77] Creating layer lstm1_
I0720 16:09:36.751477 15248 net.cpp:91] Creating Layer lstm1_
I0720 16:09:36.751484 15248 net.cpp:399] lstm1_ -> x
I0720 16:09:36.751495 15248 net.cpp:399] lstm1_ -> cont
I0720 16:09:36.751508 15248 net.cpp:141] Setting up lstm1_
I0720 16:09:36.751515 15248 net.cpp:148] Top shape: 1 1 500 (500)
I0720 16:09:36.751521 15248 net.cpp:148] Top shape: 1 1 (1)
I0720 16:09:36.751525 15248 net.cpp:156] Memory required for data: 2004
I0720 16:09:36.751529 15248 layer_factory.hpp:77] Creating layer lstm1_
I0720 16:09:36.751538 15248 net.cpp:91] Creating Layer lstm1_
I0720 16:09:36.751543 15248 net.cpp:399] lstm1_ -> c_0
I0720 16:09:36.751551 15248 net.cpp:399] lstm1_ -> h_0
I0720 16:09:36.751560 15248 net.cpp:141] Setting up lstm1_
I0720 16:09:36.751567 15248 net.cpp:148] Top shape: 1 1 1000 (1000)
I0720 16:09:36.751572 15248 net.cpp:148] Top shape: 1 1 1000 (1000)
I0720 16:09:36.751576 15248 net.cpp:156] Memory required for data: 10004
I0720 16:09:36.751580 15248 layer_factory.hpp:77] Creating layer lstm1_cont_slice
I0720 16:09:36.751587 15248 net.cpp:91] Creating Layer lstm1_cont_slice
I0720 16:09:36.751591 15248 net.cpp:425] lstm1_cont_slice <- cont
I0720 16:09:36.751598 15248 net.cpp:399] lstm1_cont_slice -> cont_1
I0720 16:09:36.751608 15248 net.cpp:141] Setting up lstm1_cont_slice
I0720 16:09:36.751616 15248 net.cpp:148] Top shape: 1 1 (1)
I0720 16:09:36.751619 15248 net.cpp:156] Memory required for data: 10008
I0720 16:09:36.751622 15248 layer_factory.hpp:77] Creating layer cont_1_lstm1_cont_slice_0_split
I0720 16:09:36.751655 15248 net.cpp:91] Creating Layer cont_1_lstm1_cont_slice_0_split
I0720 16:09:36.751663 15248 net.cpp:425] cont_1_lstm1_cont_slice_0_split <- cont_1
I0720 16:09:36.751670 15248 net.cpp:399] cont_1_lstm1_cont_slice_0_split -> cont_1_lstm1_cont_slice_0_split_0
I0720 16:09:36.751678 15248 net.cpp:399] cont_1_lstm1_cont_slice_0_split -> cont_1_lstm1_cont_slice_0_split_1
I0720 16:09:36.751688 15248 net.cpp:141] Setting up cont_1_lstm1_cont_slice_0_split
I0720 16:09:36.751706 15248 net.cpp:148] Top shape: 1 1 (1)
I0720 16:09:36.751713 15248 net.cpp:148] Top shape: 1 1 (1)
I0720 16:09:36.751716 15248 net.cpp:156] Memory required for data: 10016
I0720 16:09:36.751720 15248 layer_factory.hpp:77] Creating layer lstm1_x_transform
I0720 16:09:36.751729 15248 net.cpp:91] Creating Layer lstm1_x_transform
I0720 16:09:36.751734 15248 net.cpp:425] lstm1_x_transform <- x
I0720 16:09:36.751762 15248 net.cpp:399] lstm1_x_transform -> W_xc_x
I0720 16:09:36.760680 15252 net.cpp:141] Setting up lstm1_x_transform
I0720 16:09:36.760751 15252 net.cpp:148] Top shape: 1 1 4000 (4000)
I0720 16:09:36.760763 15252 net.cpp:156] Memory required for data: 26016
I0720 16:09:36.760803 15252 layer_factory.hpp:77] Creating layer lstm1_W_xc_x_slice
I0720 16:09:36.760833 15252 net.cpp:91] Creating Layer lstm1_W_xc_x_slice
I0720 16:09:36.760846 15252 net.cpp:425] lstm1_W_xc_x_slice <- W_xc_x
I0720 16:09:36.760895 15244 net.cpp:141] Setting up embedding
I0720 16:09:36.760939 15244 net.cpp:148] Top shape: 1 1 500 (500)
I0720 16:09:36.760946 15244 net.cpp:156] Memory required for data: 22408
I0720 16:09:36.760967 15244 layer_factory.hpp:77] Creating layer lstm1
I0720 16:09:36.761214 15244 net.cpp:91] Creating Layer lstm1
I0720 16:09:36.761227 15244 net.cpp:425] lstm1 <- embedded_input_frames
I0720 16:09:36.761225 15252 net.cpp:399] lstm1_W_xc_x_slice -> W_xc_x_1
I0720 16:09:36.761240 15244 net.cpp:425] lstm1 <- cont_sentence_input_1_split_0
I0720 16:09:36.761256 15244 net.cpp:399] lstm1 -> lstm1
I0720 16:09:36.761271 15252 net.cpp:141] Setting up lstm1_W_xc_x_slice
I0720 16:09:36.761276 15244 recurrent_layer.cpp:20] Initializing recurrent layer: assuming input batch contains 1 timesteps of 1 independent streams.
I0720 16:09:36.761287 15252 net.cpp:148] Top shape: 1 1 4000 (4000)
I0720 16:09:36.761297 15252 net.cpp:156] Memory required for data: 42016
I0720 16:09:36.761307 15252 layer_factory.hpp:77] Creating layer lstm1_h_conted_0
I0720 16:09:36.761350 15252 net.cpp:91] Creating Layer lstm1_h_conted_0
I0720 16:09:36.761363 15252 net.cpp:425] lstm1_h_conted_0 <- h_0
I0720 16:09:36.761374 15252 net.cpp:425] lstm1_h_conted_0 <- cont_1_lstm1_cont_slice_0_split_0
I0720 16:09:36.761389 15252 net.cpp:399] lstm1_h_conted_0 -> h_conted_0
I0720 16:09:36.761456 15252 net.cpp:141] Setting up lstm1_h_conted_0
I0720 16:09:36.761469 15252 net.cpp:148] Top shape: 1 1 1000 (1000)
I0720 16:09:36.761474 15252 net.cpp:156] Memory required for data: 46016
I0720 16:09:36.761479 15252 layer_factory.hpp:77] Creating layer lstm1_transform_1
I0720 16:09:36.761515 15252 net.cpp:91] Creating Layer lstm1_transform_1
I0720 16:09:36.761523 15252 net.cpp:425] lstm1_transform_1 <- h_conted_0
I0720 16:09:36.761533 15252 net.cpp:399] lstm1_transform_1 -> W_hc_h_0
I0720 16:09:36.762202 15244 net.cpp:49] Initializing net from parameters: 
layer {
  name: "lstm1_"
  type: "Input"
  top: "x"
  top: "cont"
  input_param {
    shape {
      dim: 1
      dim: 1
      dim: 500
    }
    shape {
      dim: 1
      dim: 1
    }
  }
}
layer {
  name: "lstm1_"
  type: "Input"
  top: "c_0"
  top: "h_0"
  input_param {
    shape {
      dim: 1
      dim: 1
      dim: 1000
    }
    shape {
      dim: 1
      dim: 1
      dim: 1000
    }
  }
}
layer {
  name: "lstm1_cont_slice"
  type: "Slice"
  bottom: "cont"
  top: "cont_1"
  slice_param {
    axis: 0
  }
}
layer {
  name: "lstm1_x_transform"
  type: "InnerProduct"
  bottom: "x"
  top: "W_xc_x"
  param {
    name: "W_xc"
  }
  param {
    name: "b_c"
  }
  propagate_down: true
  inner_product_param {
    num_output: 4000
    bias_term: true
    weight_filler {
      type: "uniform"
      min: -0.08
      max: 0.08
    }
    bias_filler {
      type: "constant"
      value: 0
    }
    axis: 2
  }
}
layer {
  name: "lstm1_W_xc_x_slice"
  type: "Slice"
  bottom: "W_xc_x"
  top: "W_xc_x_1"
  slice_param {
    axis: 0
  }
}
layer {
  name: "lstm1_h_conted_0"
  type: "Scale"
  bottom: "h_0"
  bottom: "cont_1"
  top: "h_conted_0"
  scale_param {
    axis: 0
  }
}
layer {
  name: "lstm1_transform_1"
  type: "InnerProduct"
  bottom: "h_conted_0"
  top: "W_hc_h_0"
  param {
    name: "W_hc"
  }
  inner_product_param {
    num_output: 4000
    bias_term: false
    weight_filler {
      type: "uniform"
      min: -0.08
      max: 0.08
    }
    axis: 2
  }
}
layer {
  name: "lstm1_gate_input_1"
  type: "Eltwise"
  bottom: "W_hc_h_0"
  bottom: "W_xc_x_1"
  top: "gate_input_1"
  eltwise_param {
    operation: SUM
  }
}
layer {
  name: "lstm1_unit_1"
  type: "LSTMUnit"
  bottom: "c_0"
  bottom: "gate_input_1"
  bottom: "cont_1"
  top: "c_1"
  top: "h_1"
}
layer {
  name: "lstm1_"
  type: "Split"
  bottom: "c_1"
  top: "c_T"
}
layer {
  name: "lstm1_h_concat"
  type: "Concat"
  bottom: "h_1"
  top: "h"
  concat_param {
    axis: 0
  }
}
layer {
  name: "h_pseudoloss"
  type: "Reduction"
  bottom: "h"
  top: "h_pseudoloss"
  loss_weight: 1
}
I0720 16:09:36.762365 15244 layer_factory.hpp:77] Creating layer lstm1_
I0720 16:09:36.762388 15244 net.cpp:91] Creating Layer lstm1_
I0720 16:09:36.762401 15244 net.cpp:399] lstm1_ -> x
I0720 16:09:36.762420 15244 net.cpp:399] lstm1_ -> cont
I0720 16:09:36.762440 15244 net.cpp:141] Setting up lstm1_
I0720 16:09:36.762451 15244 net.cpp:148] Top shape: 1 1 500 (500)
I0720 16:09:36.762460 15244 net.cpp:148] Top shape: 1 1 (1)
I0720 16:09:36.762466 15244 net.cpp:156] Memory required for data: 2004
I0720 16:09:36.762473 15244 layer_factory.hpp:77] Creating layer lstm1_
I0720 16:09:36.762485 15244 net.cpp:91] Creating Layer lstm1_
I0720 16:09:36.762495 15244 net.cpp:399] lstm1_ -> c_0
I0720 16:09:36.762512 15244 net.cpp:399] lstm1_ -> h_0
I0720 16:09:36.762526 15244 net.cpp:141] Setting up lstm1_
I0720 16:09:36.762537 15244 net.cpp:148] Top shape: 1 1 1000 (1000)
I0720 16:09:36.762544 15244 net.cpp:148] Top shape: 1 1 1000 (1000)
I0720 16:09:36.762550 15244 net.cpp:156] Memory required for data: 10004
I0720 16:09:36.762557 15244 layer_factory.hpp:77] Creating layer lstm1_cont_slice
I0720 16:09:36.762586 15244 net.cpp:91] Creating Layer lstm1_cont_slice
I0720 16:09:36.762596 15244 net.cpp:425] lstm1_cont_slice <- cont
I0720 16:09:36.762608 15244 net.cpp:399] lstm1_cont_slice -> cont_1
I0720 16:09:36.762624 15244 net.cpp:141] Setting up lstm1_cont_slice
I0720 16:09:36.762634 15244 net.cpp:148] Top shape: 1 1 (1)
I0720 16:09:36.762640 15244 net.cpp:156] Memory required for data: 10008
I0720 16:09:36.762647 15244 layer_factory.hpp:77] Creating layer cont_1_lstm1_cont_slice_0_split
I0720 16:09:36.762660 15244 net.cpp:91] Creating Layer cont_1_lstm1_cont_slice_0_split
I0720 16:09:36.762667 15244 net.cpp:425] cont_1_lstm1_cont_slice_0_split <- cont_1
I0720 16:09:36.762676 15244 net.cpp:399] cont_1_lstm1_cont_slice_0_split -> cont_1_lstm1_cont_slice_0_split_0
I0720 16:09:36.762701 15244 net.cpp:399] cont_1_lstm1_cont_slice_0_split -> cont_1_lstm1_cont_slice_0_split_1
I0720 16:09:36.762722 15244 net.cpp:141] Setting up cont_1_lstm1_cont_slice_0_split
I0720 16:09:36.762732 15244 net.cpp:148] Top shape: 1 1 (1)
I0720 16:09:36.762742 15244 net.cpp:148] Top shape: 1 1 (1)
I0720 16:09:36.762747 15244 net.cpp:156] Memory required for data: 10016
I0720 16:09:36.762753 15244 layer_factory.hpp:77] Creating layer lstm1_x_transform
I0720 16:09:36.762784 15244 net.cpp:91] Creating Layer lstm1_x_transform
I0720 16:09:36.762797 15244 net.cpp:425] lstm1_x_transform <- x
I0720 16:09:36.762811 15244 net.cpp:399] lstm1_x_transform -> W_xc_x
I0720 16:09:36.764783 15258 net.cpp:141] Setting up lstm1_transform_1
I0720 16:09:36.764818 15258 net.cpp:148] Top shape: 1 1 4000 (4000)
I0720 16:09:36.764827 15258 net.cpp:156] Memory required for data: 62016
I0720 16:09:36.764847 15258 layer_factory.hpp:77] Creating layer lstm1_gate_input_1
I0720 16:09:36.764875 15258 net.cpp:91] Creating Layer lstm1_gate_input_1
I0720 16:09:36.764885 15258 net.cpp:425] lstm1_gate_input_1 <- W_hc_h_0
I0720 16:09:36.764896 15258 net.cpp:425] lstm1_gate_input_1 <- W_xc_x_1
I0720 16:09:36.764910 15258 net.cpp:399] lstm1_gate_input_1 -> gate_input_1
I0720 16:09:36.764940 15258 net.cpp:141] Setting up lstm1_gate_input_1
I0720 16:09:36.764952 15258 net.cpp:148] Top shape: 1 1 4000 (4000)
I0720 16:09:36.764961 15258 net.cpp:156] Memory required for data: 78016
I0720 16:09:36.764968 15258 layer_factory.hpp:77] Creating layer lstm1_unit_1
I0720 16:09:36.765425 15258 net.cpp:91] Creating Layer lstm1_unit_1
I0720 16:09:36.765437 15258 net.cpp:425] lstm1_unit_1 <- c_0
I0720 16:09:36.765452 15258 net.cpp:425] lstm1_unit_1 <- gate_input_1
I0720 16:09:36.765462 15258 net.cpp:425] lstm1_unit_1 <- cont_1_lstm1_cont_slice_0_split_1
I0720 16:09:36.765478 15258 net.cpp:399] lstm1_unit_1 -> c_1
I0720 16:09:36.765493 15258 net.cpp:399] lstm1_unit_1 -> h_1
I0720 16:09:36.765518 15258 net.cpp:141] Setting up lstm1_unit_1
I0720 16:09:36.765534 15258 net.cpp:148] Top shape: 1 1 1000 (1000)
I0720 16:09:36.765545 15258 net.cpp:148] Top shape: 1 1 1000 (1000)
I0720 16:09:36.765552 15258 net.cpp:156] Memory required for data: 86016
I0720 16:09:36.765561 15258 layer_factory.hpp:77] Creating layer lstm1_
I0720 16:09:36.765573 15258 net.cpp:91] Creating Layer lstm1_
I0720 16:09:36.765580 15258 net.cpp:425] lstm1_ <- c_1
I0720 16:09:36.765591 15258 net.cpp:399] lstm1_ -> c_T
I0720 16:09:36.765606 15258 net.cpp:141] Setting up lstm1_
I0720 16:09:36.765619 15258 net.cpp:148] Top shape: 1 1 1000 (1000)
I0720 16:09:36.765626 15258 net.cpp:156] Memory required for data: 90016
I0720 16:09:36.765635 15258 layer_factory.hpp:77] Creating layer lstm1_h_concat
I0720 16:09:36.766028 15258 net.cpp:91] Creating Layer lstm1_h_concat
I0720 16:09:36.766041 15258 net.cpp:425] lstm1_h_concat <- h_1
I0720 16:09:36.766053 15258 net.cpp:399] lstm1_h_concat -> h
I0720 16:09:36.766073 15258 net.cpp:141] Setting up lstm1_h_concat
I0720 16:09:36.766085 15258 net.cpp:148] Top shape: 1 1 1000 (1000)
I0720 16:09:36.766093 15258 net.cpp:156] Memory required for data: 94016
I0720 16:09:36.766101 15258 layer_factory.hpp:77] Creating layer h_pseudoloss
I0720 16:09:36.766124 15258 net.cpp:91] Creating Layer h_pseudoloss
I0720 16:09:36.766132 15258 net.cpp:425] h_pseudoloss <- h
I0720 16:09:36.766144 15258 net.cpp:399] h_pseudoloss -> h_pseudoloss
I0720 16:09:36.766677 15258 net.cpp:141] Setting up h_pseudoloss
…
I0720 16:09:36.767367 15258 net.cpp:219] lstm1_ does not need backward computation.
I0720 16:09:36.767374 15258 net.cpp:261] This network produces output c_T
I0720 16:09:36.767381 15258 net.cpp:261] This network produces output h_pseudoloss
I0720 16:09:36.767408 15258 net.cpp:274] Network initialization done.
I0720 16:09:36.767491 15258 recurrent_layer.cpp:150] Adding parameter 0: W_xc
I0720 16:09:36.767503 15258 recurrent_layer.cpp:150] Adding parameter 1: b_c
I0720 16:09:36.767510 15258 recurrent_layer.cpp:150] Adding parameter 2: W_hc
I0720 16:09:36.767570 15258 net.cpp:141] Setting up lstm1
I0720 16:09:36.767580 15258 net.cpp:148] Top shape: 1 1 1000 (1000)
I0720 16:09:36.767585 15258 net.cpp:156] Memory required for data: 26408
I0720 16:09:36.767596 15258 layer_factory.hpp:77] Creating layer concat
I0720 16:09:36.767606 15258 net.cpp:91] Creating Layer concat
I0720 16:09:36.767611 15258 net.cpp:425] concat <- lstm1
I0720 16:09:36.767616 15258 net.cpp:425] concat <- embedded_input_sentence
I0720 16:09:36.767622 15258 net.cpp:425] concat <- reshaped_stage_indicator
I0720 16:09:36.767628 15258 net.cpp:399] concat -> lstm1_video_sequence
I0720 16:09:36.767638 15258 net.cpp:141] Setting up concat
I0720 16:09:36.767644 15258 net.cpp:148] Top shape: 1 1 1501 (1501)
I0720 16:09:36.767647 15258 net.cpp:156] Memory required for data: 32412
I0720 16:09:36.767652 15258 layer_factory.hpp:77] Creating layer lstm2
I0720 16:09:36.767663 15258 net.cpp:91] Creating Layer lstm2
I0720 16:09:36.767668 15258 net.cpp:425] lstm2 <- lstm1_video_sequence
I0720 16:09:36.767673 15258 net.cpp:425] lstm2 <- cont_sentence_input_1_split_1
I0720 16:09:36.767679 15258 net.cpp:399] lstm2 -> lstm2
I0720 16:09:36.767688 15258 recurrent_layer.cpp:20] Initializing recurrent layer: assuming input batch contains 1 timesteps of 1 independent streams.
I0720 16:09:36.768030 15258 net.cpp:49] Initializing net from parameters: 
layer {
  name: "lstm2_"
  type: "Input"
  top: "x"
  top: "cont"
  input_param {
    shape {
      dim: 1
      dim: 1
      dim: 1501
    }
    shape {
      dim: 1
      dim: 1
    }
  }
}
layer {
  name: "lstm2_"
  type: "Input"
  top: "c_0"
  top: "h_0"
  input_param {
    shape {
      dim: 1
      dim: 1
      dim: 1000
    }
    shape {
      dim: 1
      dim: 1
      dim: 1000
    }
  }
}
layer {
  name: "lstm2_cont_slice"
  type: "Slice"
  bottom: "cont"
  top: "cont_1"
  slice_param {
    axis: 0
  }
}
layer {
  name: "lstm2_x_transform"
  type: "InnerProduct"
  bottom: "x"
  top: "W_xc_x"
  param {
    name: "W_xc"
  }
  param {
    name: "b_c"
  }
  propagate_down: true
  inner_product_param {
    num_output: 4000
    bias_term: true
    weight_filler {
      type: "uniform"
      min: -0.08
      max: 0.08
    }
    bias_filler {
      type: "constant"
      value: 0
    }
    axis: 2
  }
}
layer {
  name: "lstm2_W_xc_x_slice"
  type: "Slice"
  bottom: "W_xc_x"
  top: "W_xc_x_1"
  slice_param {
    axis: 0
  }
}
layer {
  name: "lstm2_h_conted_0"
  type: "Scale"
  bottom: "h_0"
  bottom: "cont_1"
  top: "h_conted_0"
  scale_param {
    axis: 0
  }
}
layer {
  name: "lstm2_transform_1"
  type: "InnerProduct"
  bottom: "h_conted_0"
  top: "W_hc_h_0"
  param {
    name: "W_hc"
  }
  inner_product_param {
    num_output: 4000
    bias_term: false
    weight_filler {
      type: "uniform"
      min: -0.08
      max: 0.08
    }
    axis: 2
  }
}
layer {
  name: "lstm2_gate_input_1"
  type: "Eltwise"
  bottom: "W_hc_h_0"
  bottom: "W_xc_x_1"
  top: "gate_input_1"
  eltwise_param {
    operation: SUM
  }
}
layer {
  name: "lstm2_unit_1"
  type: "LSTMUnit"
  bottom: "c_0"
  bottom: "gate_input_1"
  bottom: "cont_1"
  top: "c_1"
  top: "h_1"
}
layer {
  name: "lstm2_"
  type: "Split"
  bottom: "c_1"
  top: "c_T"
}
layer {
  name: "lstm2_h_concat"
  type: "Concat"
  bottom: "h_1"
  top: "h"
  concat_param {
    axis: 0
  }
}
layer {
  name: "h_pseudoloss"
  type: "Reduction"
  bottom: "h"
  top: "h_pseudoloss"
  loss_weight: 1
}
I0720 16:09:36.768643 15258 layer_factory.hpp:77] Creating layer lstm2_
I0720 16:09:36.768663 15258 net.cpp:91] Creating Layer lstm2_
I0720 16:09:36.768672 15258 net.cpp:399] lstm2_ -> x
I0720 16:09:36.768687 15258 net.cpp:399] lstm2_ -> cont
I0720 16:09:36.768703 15258 net.cpp:141] Setting up lstm2_
I0720 16:09:36.768714 15258 net.cpp:148] Top shape: 1 1 1501 (1501)
I0720 16:09:36.768723 15258 net.cpp:148] Top shape: 1 1 (1)
I0720 16:09:36.768729 15258 net.cpp:156] Memory required for data: 6008
I0720 16:09:36.768736 15258 layer_factory.hpp:77] Creating layer lstm2_
I0720 16:09:36.768748 15258 net.cpp:91] Creating Layer lstm2_
I0720 16:09:36.768756 15258 net.cpp:399] lstm2_ -> c_0
I0720 16:09:36.769210 15258 net.cpp:399] lstm2_ -> h_0
I0720 16:09:36.769230 15258 net.cpp:141] Setting up lstm2_
I0720 16:09:36.769242 15258 net.cpp:148] Top shape: 1 1 1000 (1000)
I0720 16:09:36.769249 15258 net.cpp:148] Top shape: 1 1 1000 (1000)
I0720 16:09:36.769255 15258 net.cpp:156] Memory required for data: 14008
I0720 16:09:36.769263 15258 layer_factory.hpp:77] Creating layer lstm2_cont_slice
I0720 16:09:36.769273 15258 net.cpp:91] Creating Layer lstm2_cont_slice
I0720 16:09:36.769280 15258 net.cpp:425] lstm2_cont_slice <- cont
I0720 16:09:36.769290 15258 net.cpp:399] lstm2_cont_slice -> cont_1
I0720 16:09:36.769305 15258 net.cpp:141] Setting up lstm2_cont_slice
I0720 16:09:36.769315 15258 net.cpp:148] Top shape: 1 1 (1)
I0720 16:09:36.769322 15258 net.cpp:156] Memory required for data: 14012
I0720 16:09:36.769328 15258 layer_factory.hpp:77] Creating layer cont_1_lstm2_cont_slice_0_split
I0720 16:09:36.769327 15250 net.cpp:141] Setting up embedding
I0720 16:09:36.769338 15258 net.cpp:91] Creating Layer cont_1_lstm2_cont_slice_0_split
I0720 16:09:36.769345 15258 net.cpp:425] cont_1_lstm2_cont_slice_0_split <- cont_1
I0720 16:09:36.769347 15250 net.cpp:148] Top shape: 1 1 500 (500)
I0720 16:09:36.769354 15250 net.cpp:156] Memory required for data: 22408
I0720 16:09:36.769354 15258 net.cpp:399] cont_1_lstm2_cont_slice_0_split -> cont_1_lstm2_cont_slice_0_split_0
I0720 16:09:36.769377 15250 layer_factory.hpp:77] Creating layer lstm1
I0720 16:09:36.769377 15258 net.cpp:399] cont_1_lstm2_cont_slice_0_split -> cont_1_lstm2_cont_slice_0_split_1
I0720 16:09:36.769395 15250 net.cpp:91] Creating Layer lstm1
I0720 16:09:36.769399 15258 net.cpp:141] Setting up cont_1_lstm2_cont_slice_0_split
I0720 16:09:36.769405 15250 net.cpp:425] lstm1 <- embedded_input_frames
I0720 16:09:36.769409 15258 net.cpp:148] Top shape: 1 1 (1)
I0720 16:09:36.769417 15250 net.cpp:425] lstm1 <- cont_sentence_input_1_split_0
I0720 16:09:36.769418 15258 net.cpp:148] Top shape: 1 1 (1)
I0720 16:09:36.769424 15258 net.cpp:156] Memory required for data: 14020
I0720 16:09:36.769431 15258 layer_factory.hpp:77] Creating layer lstm2_x_transform
I0720 16:09:36.769465 15250 net.cpp:399] lstm1 -> lstm1
I0720 16:09:36.769467 15258 net.cpp:91] Creating Layer lstm2_x_transform
I0720 16:09:36.769477 15258 net.cpp:425] lstm2_x_transform <- x
I0720 16:09:36.769482 15250 recurrent_layer.cpp:20] Initializing recurrent layer: assuming input batch contains 1 timesteps of 1 independent streams.
I0720 16:09:36.769489 15258 net.cpp:399] lstm2_x_transform -> W_xc_x
I0720 16:09:36.769863 15250 net.cpp:49] Initializing net from parameters: 
layer {
  name: "lstm1_"
  type: "Input"
  top: "x"
  top: "cont"
  input_param {
    shape {
      dim: 1
      dim: 1
      dim: 500
    }
    shape {
      dim: 1
      dim: 1
    }
  }
}
layer {
  name: "lstm1_"
  type: "Input"
  top: "c_0"
  top: "h_0"
  input_param {
    shape {
      dim: 1
      dim: 1
      dim: 1000
    }
    shape {
      dim: 1
      dim: 1
      dim: 1000
    }
  }
}
layer {
  name: "lstm1_cont_slice"
  type: "Slice"
  bottom: "cont"
  top: "cont_1"
  slice_param {
    axis: 0
  }
}
layer {
  name: "lstm1_x_transform"
  type: "InnerProduct"
  bottom: "x"
  top: "W_xc_x"
  param {
    name: "W_xc"
  }
  param {
    name: "b_c"
  }
  propagate_down: true
  inner_product_param {
    num_output: 4000
    bias_term: true
    weight_filler {
      type: "uniform"
      min: -0.08
      max: 0.08
    }
    bias_filler {
      type: "constant"
      value: 0
    }
    axis: 2
  }
}
layer {
  name: "lstm1_W_xc_x_slice"
  type: "Slice"
  bottom: "W_xc_x"
  top: "W_xc_x_1"
  slice_param {
    axis: 0
  }
}
layer {
  name: "lstm1_h_conted_0"
  type: "Scale"
  bottom: "h_0"
  bottom: "cont_1"
  top: "h_conted_0"
  scale_param {
    axis: 0
  }
}
layer {
  name: "lstm1_transform_1"
  type: "InnerProduct"
  bottom: "h_conted_0"
  top: "W_hc_h_0"
  param {
    name: "W_hc"
  }
  inner_product_param {
    num_output: 4000
    bias_term: false
    weight_filler {
      type: "uniform"
      min: -0.08
      max: 0.08
    }
    axis: 2
  }
}
layer {
  name: "lstm1_gate_input_1"
  type: "Eltwise"
  bottom: "W_hc_h_0"
  bottom: "W_xc_x_1"
  top: "gate_input_1"
  eltwise_param {
    operation: SUM
  }
}
layer {
  name: "lstm1_unit_1"
  type: "LSTMUnit"
  bottom: "c_0"
  bottom: "gate_input_1"
  bottom: "cont_1"
  top: "c_1"
  top: "h_1"
}
layer {
  name: "lstm1_"
  type: "Split"
  bottom: "c_1"
  top: "c_T"
}
layer {
  name: "lstm1_h_concat"
  type: "Concat"
  bottom: "h_1"
  top: "h"
  concat_param {
    axis: 0
  }
}
layer {
  name: "h_pseudoloss"
  type: "Reduction"
  bottom: "h"
  top: "h_pseudoloss"
  loss_weight: 1
}
I0720 16:09:36.770426 15248 net.cpp:141] Setting up lstm1_x_transform
I0720 16:09:36.770437 15250 layer_factory.hpp:77] Creating layer lstm1_
I0720 16:09:36.770453 15250 net.cpp:91] Creating Layer lstm1_
I0720 16:09:36.770455 15248 net.cpp:148] Top shape: 1 1 4000 (4000)
I0720 16:09:36.770463 15250 net.cpp:399] lstm1_ -> x
I0720 16:09:36.770464 15248 net.cpp:156] Memory required for data: 26016
I0720 16:09:36.770479 15250 net.cpp:399] lstm1_ -> cont
I0720 16:09:36.770483 15248 layer_factory.hpp:77] Creating layer lstm1_W_xc_x_slice
I0720 16:09:36.770496 15248 net.cpp:91] Creating Layer lstm1_W_xc_x_slice
I0720 16:09:36.770496 15250 net.cpp:141] Setting up lstm1_
I0720 16:09:36.770504 15248 net.cpp:425] lstm1_W_xc_x_slice <- W_xc_x
I0720 16:09:36.770509 15250 net.cpp:148] Top shape: 1 1 500 (500)
I0720 16:09:36.770512 15248 net.cpp:399] lstm1_W_xc_x_slice -> W_xc_x_1
I0720 16:09:36.770519 15250 net.cpp:148] Top shape: 1 1 (1)
I0720 16:09:36.770525 15250 net.cpp:156] Memory required for data: 2004
I0720 16:09:36.770534 15250 layer_factory.hpp:77] Creating layer lstm1_
I0720 16:09:36.770544 15250 net.cpp:91] Creating Layer lstm1_
I0720 16:09:36.770552 15250 net.cpp:399] lstm1_ -> c_0
I0720 16:09:36.770565 15250 net.cpp:399] lstm1_ -> h_0
I0720 16:09:36.770579 15250 net.cpp:141] Setting up lstm1_
I0720 16:09:36.770591 15250 net.cpp:148] Top shape: 1 1 1000 (1000)
I0720 16:09:36.770598 15250 net.cpp:148] Top shape: 1 1 1000 (1000)
I0720 16:09:36.770604 15250 net.cpp:156] Memory required for data: 10004
I0720 16:09:36.770612 15250 layer_factory.hpp:77] Creating layer lstm1_cont_slice
I0720 16:09:36.770622 15250 net.cpp:91] Creating Layer lstm1_cont_slice
I0720 16:09:36.770628 15250 net.cpp:425] lstm1_cont_slice <- cont
I0720 16:09:36.770638 15250 net.cpp:399] lstm1_cont_slice -> cont_1
I0720 16:09:36.771005 15250 net.cpp:141] Setting up lstm1_cont_slice
I0720 16:09:36.771011 15248 net.cpp:141] Setting up lstm1_W_xc_x_slice
I0720 16:09:36.771020 15250 net.cpp:148] Top shape: 1 1 (1)
I0720 16:09:36.771028 15250 net.cpp:156] Memory required for data: 10008
I0720 16:09:36.771029 15248 net.cpp:148] Top shape: 1 1 4000 (4000)
I0720 16:09:36.771034 15250 layer_factory.hpp:77] Creating layer cont_1_lstm1_cont_slice_0_split
I0720 16:09:36.771037 15248 net.cpp:156] Memory required for data: 42016
I0720 16:09:36.771046 15248 layer_factory.hpp:77] Creating layer lstm1_h_conted_0
I0720 16:09:36.771060 15248 net.cpp:91] Creating Layer lstm1_h_conted_0
I0720 16:09:36.771060 15250 net.cpp:91] Creating Layer cont_1_lstm1_cont_slice_0_split
I0720 16:09:36.771073 15248 net.cpp:425] lstm1_h_conted_0 <- h_0
I0720 16:09:36.771077 15250 net.cpp:425] cont_1_lstm1_cont_slice_0_split <- cont_1
I0720 16:09:36.771085 15248 net.cpp:425] lstm1_h_conted_0 <- cont_1_lstm1_cont_slice_0_split_0
I0720 16:09:36.771088 15250 net.cpp:399] cont_1_lstm1_cont_slice_0_split -> cont_1_lstm1_cont_slice_0_split_0
I0720 16:09:36.771111 15248 net.cpp:399] lstm1_h_conted_0 -> h_conted_0
I0720 16:09:36.771113 15250 net.cpp:399] cont_1_lstm1_cont_slice_0_split -> cont_1_lstm1_cont_slice_0_split_1
I0720 16:09:36.771136 15250 net.cpp:141] Setting up cont_1_lstm1_cont_slice_0_split
I0720 16:09:36.771145 15250 net.cpp:148] Top shape: 1 1 (1)
I0720 16:09:36.771153 15250 net.cpp:148] Top shape: 1 1 (1)
I0720 16:09:36.771159 15250 net.cpp:156] Memory required for data: 10016
I0720 16:09:36.771167 15250 layer_factory.hpp:77] Creating layer lstm1_x_transform
I0720 16:09:36.771179 15250 net.cpp:91] Creating Layer lstm1_x_transform
I0720 16:09:36.771186 15250 net.cpp:425] lstm1_x_transform <- x
I0720 16:09:36.771412 15282 net.cpp:141] Setting up embedding
I0720 16:09:36.771623 15250 net.cpp:399] lstm1_x_transform -> W_xc_x
I0720 16:09:36.771627 15248 net.cpp:141] Setting up lstm1_h_conted_0
I0720 16:09:36.771634 15282 net.cpp:148] Top shape: 1 1 500 (500)
I0720 16:09:36.771643 15248 net.cpp:148] Top shape: 1 1 1000 (1000)
I0720 16:09:36.771648 15282 net.cpp:156] Memory required for data: 22408
I0720 16:09:36.771651 15248 net.cpp:156] Memory required for data: 46016
I0720 16:09:36.771669 15248 layer_factory.hpp:77] Creating layer lstm1_transform_1
I0720 16:09:36.771675 15282 layer_factory.hpp:77] Creating layer lstm1
I0720 16:09:36.771684 15248 net.cpp:91] Creating Layer lstm1_transform_1
I0720 16:09:36.771693 15248 net.cpp:425] lstm1_transform_1 <- h_conted_0
I0720 16:09:36.771695 15282 net.cpp:91] Creating Layer lstm1
I0720 16:09:36.771708 15282 net.cpp:425] lstm1 <- embedded_input_frames
I0720 16:09:36.771720 15282 net.cpp:425] lstm1 <- cont_sentence_input_1_split_0
I0720 16:09:36.772717 15282 net.cpp:399] lstm1 -> lstm1
I0720 16:09:36.772725 15248 net.cpp:399] lstm1_transform_1 -> W_hc_h_0
I0720 16:09:36.772758 15282 recurrent_layer.cpp:20] Initializing recurrent layer: assuming input batch contains 1 timesteps of 1 independent streams.
I0720 16:09:36.775452 15282 net.cpp:49] Initializing net from parameters: 
layer {
  name: "lstm1_"
  type: "Input"
  top: "x"
  top: "cont"
  input_param {
    shape {
      dim: 1
      dim: 1
      dim: 500
    }
    shape {
      dim: 1
      dim: 1
    }
  }
}
layer {
  name: "lstm1_"
  type: "Input"
  top: "c_0"
  top: "h_0"
  input_param {
    shape {
      dim: 1
      dim: 1
      dim: 1000
    }
    shape {
      dim: 1
      dim: 1
      dim: 1000
    }
  }
}
layer {
  name: "lstm1_cont_slice"
  type: "Slice"
  bottom: "cont"
  top: "cont_1"
  slice_param {
    axis: 0
  }
}
layer {
  name: "lstm1_x_transform"
  type: "InnerProduct"
  bottom: "x"
  top: "W_xc_x"
  param {
    name: "W_xc"
  }
  param {
    name: "b_c"
  }
  propagate_down: true
  inner_product_param {
    num_output: 4000
    bias_term: true
    weight_filler {
      type: "uniform"
      min: -0.08
      max: 0.08
    }
    bias_filler {
      type: "constant"
      value: 0
    }
    axis: 2
  }
}
layer {
  name: "lstm1_W_xc_x_slice"
  type: "Slice"
  bottom: "W_xc_x"
  top: "W_xc_x_1"
  slice_param {
    axis: 0
  }
}
layer {
  name: "lstm1_h_conted_0"
  type: "Scale"
  bottom: "h_0"
  bottom: "cont_1"
  top: "h_conted_0"
  scale_param {
    axis: 0
  }
}
layer {
  name: "lstm1_transform_1"
  type: "InnerProduct"
  bottom: "h_conted_0"
  top: "W_hc_h_0"
  param {
    name: "W_hc"
  }
  inner_product_param {
    num_output: 4000
    bias_term: false
    weight_filler {
      type: "uniform"
      min: -0.08
      max: 0.08
    }
    axis: 2
  }
}
layer {
  name: "lstm1_gate_input_1"
  type: "Eltwise"
  bottom: "W_hc_h_0"
  bottom: "W_xc_x_1"
  top: "gate_input_1"
  eltwise_param {
    operation: SUM
  }
}
layer {
  name: "lstm1_unit_1"
  type: "LSTMUnit"
  bottom: "c_0"
  bottom: "gate_input_1"
  bottom: "cont_1"
  top: "c_1"
  top: "h_1"
}
layer {
  name: "lstm1_"
  type: "Split"
  bottom: "c_1"
  top: "c_T"
}
layer {
  name: "lstm1_h_concat"
  type: "Concat"
  bottom: "h_1"
  top: "h"
  concat_param {
    axis: 0
  }
}
layer {
  name: "h_pseudoloss"
  type: "Reduction"
  bottom: "h"
  top: "h_pseudoloss"
  loss_weight: 1
}
I0720 16:09:36.776096 15282 layer_factory.hpp:77] Creating layer lstm1_
I0720 16:09:36.776623 15282 net.cpp:91] Creating Layer lstm1_
I0720 16:09:36.776638 15282 net.cpp:399] lstm1_ -> x
I0720 16:09:36.776665 15282 net.cpp:399] lstm1_ -> cont
I0720 16:09:36.776691 15282 net.cpp:141] Setting up lstm1_
I0720 16:09:36.776710 15282 net.cpp:148] Top shape: 1 1 500 (500)
I0720 16:09:36.776722 15282 net.cpp:148] Top shape: 1 1 (1)
I0720 16:09:36.776731 15282 net.cpp:156] Memory required for data: 2004
I0720 16:09:36.776741 15282 layer_factory.hpp:77] Creating layer lstm1_
I0720 16:09:36.776757 15282 net.cpp:91] Creating Layer lstm1_
I0720 16:09:36.776770 15282 net.cpp:399] lstm1_ -> c_0
I0720 16:09:36.776790 15282 net.cpp:399] lstm1_ -> h_0
I0720 16:09:36.776809 15282 net.cpp:141] Setting up lstm1_
I0720 16:09:36.776824 15282 net.cpp:148] Top shape: 1 1 1000 (1000)
I0720 16:09:36.776836 15282 net.cpp:148] Top shape: 1 1 1000 (1000)
I0720 16:09:36.776844 15282 net.cpp:156] Memory required for data: 10004
I0720 16:09:36.776854 15282 layer_factory.hpp:77] Creating layer lstm1_cont_slice
I0720 16:09:36.776868 15282 net.cpp:91] Creating Layer lstm1_cont_slice
I0720 16:09:36.776878 15282 net.cpp:425] lstm1_cont_slice <- cont
I0720 16:09:36.776892 15282 net.cpp:399] lstm1_cont_slice -> cont_1
I0720 16:09:36.776914 15282 net.cpp:141] Setting up lstm1_cont_slice
I0720 16:09:36.776928 15282 net.cpp:148] Top shape: 1 1 (1)
I0720 16:09:36.776937 15282 net.cpp:156] Memory required for data: 10008
I0720 16:09:36.776947 15282 layer_factory.hpp:77] Creating layer cont_1_lstm1_cont_slice_0_split
I0720 16:09:36.777230 15282 net.cpp:91] Creating Layer cont_1_lstm1_cont_slice_0_split
I0720 16:09:36.777246 15282 net.cpp:425] cont_1_lstm1_cont_slice_0_split <- cont_1
I0720 16:09:36.777261 15282 net.cpp:399] cont_1_lstm1_cont_slice_0_split -> cont_1_lstm1_cont_slice_0_split_0
I0720 16:09:36.777279 15282 net.cpp:399] cont_1_lstm1_cont_slice_0_split -> cont_1_lstm1_cont_slice_0_split_1
I0720 16:09:36.777297 15282 net.cpp:141] Setting up cont_1_lstm1_cont_slice_0_split
I0720 16:09:36.777318 15282 net.cpp:148] Top shape: 1 1 (1)
I0720 16:09:36.777331 15282 net.cpp:148] Top shape: 1 1 (1)
I0720 16:09:36.777338 15282 net.cpp:156] Memory required for data: 10016
I0720 16:09:36.777346 15282 layer_factory.hpp:77] Creating layer lstm1_x_transform
I0720 16:09:36.777361 15282 net.cpp:91] Creating Layer lstm1_x_transform
I0720 16:09:36.777370 15282 net.cpp:425] lstm1_x_transform <- x
I0720 16:09:36.777856 15282 net.cpp:399] lstm1_x_transform -> W_xc_x
I0720 16:09:36.779286 15260 net.cpp:141] Setting up lstm1_x_transform
I0720 16:09:36.779312 15260 net.cpp:148] Top shape: 1 1 4000 (4000)
I0720 16:09:36.779321 15260 net.cpp:156] Memory required for data: 26016
I0720 16:09:36.779337 15260 layer_factory.hpp:77] Creating layer lstm1_W_xc_x_slice
I0720 16:09:36.779855 15260 net.cpp:91] Creating Layer lstm1_W_xc_x_slice
I0720 16:09:36.779870 15260 net.cpp:425] lstm1_W_xc_x_slice <- W_xc_x
I0720 16:09:36.779884 15260 net.cpp:399] lstm1_W_xc_x_slice -> W_xc_x_1
I0720 16:09:36.779914 15260 net.cpp:141] Setting up lstm1_W_xc_x_slice
I0720 16:09:36.779930 15260 net.cpp:148] Top shape: 1 1 4000 (4000)
I0720 16:09:36.779938 15260 net.cpp:156] Memory required for data: 42016
I0720 16:09:36.779947 15260 layer_factory.hpp:77] Creating layer lstm1_h_conted_0
I0720 16:09:36.779963 15260 net.cpp:91] Creating Layer lstm1_h_conted_0
I0720 16:09:36.779973 15260 net.cpp:425] lstm1_h_conted_0 <- h_0
I0720 16:09:36.779983 15260 net.cpp:425] lstm1_h_conted_0 <- cont_1_lstm1_cont_slice_0_split_0
I0720 16:09:36.779996 15260 net.cpp:399] lstm1_h_conted_0 -> h_conted_0
I0720 16:09:36.780069 15260 net.cpp:141] Setting up lstm1_h_conted_0
I0720 16:09:36.780086 15260 net.cpp:148] Top shape: 1 1 1000 (1000)
I0720 16:09:36.780094 15260 net.cpp:156] Memory required for data: 46016
I0720 16:09:36.780103 15260 layer_factory.hpp:77] Creating layer lstm1_transform_1
I0720 16:09:36.780122 15260 net.cpp:91] Creating Layer lstm1_transform_1
I0720 16:09:36.780130 15260 net.cpp:425] lstm1_transform_1 <- h_conted_0
I0720 16:09:36.780146 15260 net.cpp:399] lstm1_transform_1 -> W_hc_h_0
I0720 16:09:36.787775 15244 net.cpp:141] Setting up lstm1_x_transform
I0720 16:09:36.787817 15244 net.cpp:148] Top shape: 1 1 4000 (4000)
I0720 16:09:36.787825 15244 net.cpp:156] Memory required for data: 26016
I0720 16:09:36.787853 15244 layer_factory.hpp:77] Creating layer lstm1_W_xc_x_slice
I0720 16:09:36.788349 15244 net.cpp:91] Creating Layer lstm1_W_xc_x_slice
I0720 16:09:36.788364 15244 net.cpp:425] lstm1_W_xc_x_slice <- W_xc_x
I0720 16:09:36.788383 15244 net.cpp:399] lstm1_W_xc_x_slice -> W_xc_x_1
I0720 16:09:36.788414 15244 net.cpp:141] Setting up lstm1_W_xc_x_slice
I0720 16:09:36.788424 15244 net.cpp:148] Top shape: 1 1 4000 (4000)
I0720 16:09:36.788431 15244 net.cpp:156] Memory required for data: 42016
I0720 16:09:36.788437 15244 layer_factory.hpp:77] Creating layer lstm1_h_conted_0
I0720 16:09:36.788450 15244 net.cpp:91] Creating Layer lstm1_h_conted_0
I0720 16:09:36.788457 15244 net.cpp:425] lstm1_h_conted_0 <- h_0
I0720 16:09:36.788466 15244 net.cpp:425] lstm1_h_conted_0 <- cont_1_lstm1_cont_slice_0_split_0
I0720 16:09:36.788476 15244 net.cpp:399] lstm1_h_conted_0 -> h_conted_0
I0720 16:09:36.788492 15275 net.cpp:141] Setting up lstm1_transform_1
I0720 16:09:36.788512 15275 net.cpp:148] Top shape: 1 1 4000 (4000)
I0720 16:09:36.788519 15275 net.cpp:156] Memory required for data: 62016
I0720 16:09:36.788981 15275 layer_factory.hpp:77] Creating layer lstm1_gate_input_1
I0720 16:09:36.788995 15244 net.cpp:141] Setting up lstm1_h_conted_0
I0720 16:09:36.789002 15275 net.cpp:91] Creating Layer lstm1_gate_input_1
I0720 16:09:36.789010 15244 net.cpp:148] Top shape: 1 1 1000 (1000)
I0720 16:09:36.789012 15275 net.cpp:425] lstm1_gate_input_1 <- W_hc_h_0
I0720 16:09:36.789016 15244 net.cpp:156] Memory required for data: 46016
I0720 16:09:36.789022 15275 net.cpp:425] lstm1_gate_input_1 <- W_xc_x_1
I0720 16:09:36.789024 15244 layer_factory.hpp:77] Creating layer lstm1_transform_1
I0720 16:09:36.789036 15275 net.cpp:399] lstm1_gate_input_1 -> gate_input_1
I0720 16:09:36.789039 15244 net.cpp:91] Creating Layer lstm1_transform_1
I0720 16:09:36.789050 15244 net.cpp:425] lstm1_transform_1 <- h_conted_0
I0720 16:09:36.789054 15275 net.cpp:141] Setting up lstm1_gate_input_1
I0720 16:09:36.789065 15275 net.cpp:148] Top shape: 1 1 4000 (4000)
I0720 16:09:36.789067 15244 net.cpp:399] lstm1_transform_1 -> W_hc_h_0
I0720 16:09:36.789072 15275 net.cpp:156] Memory required for data: 78016
I0720 16:09:36.789079 15275 layer_factory.hpp:77] Creating layer lstm1_unit_1
I0720 16:09:36.789090 15275 net.cpp:91] Creating Layer lstm1_unit_1
I0720 16:09:36.789098 15275 net.cpp:425] lstm1_unit_1 <- c_0
I0720 16:09:36.789105 15275 net.cpp:425] lstm1_unit_1 <- gate_input_1
I0720 16:09:36.789113 15275 net.cpp:425] lstm1_unit_1 <- cont_1_lstm1_cont_slice_0_split_1
I0720 16:09:36.789124 15275 net.cpp:399] lstm1_unit_1 -> c_1
I0720 16:09:36.789630 15275 net.cpp:399] lstm1_unit_1 -> h_1
I0720 16:09:36.789652 15275 net.cpp:141] Setting up lstm1_unit_1
I0720 16:09:36.789664 15275 net.cpp:148] Top shape: 1 1 1000 (1000)
I0720 16:09:36.789671 15275 net.cpp:148] Top shape: 1 1 1000 (1000)
I0720 16:09:36.789677 15275 net.cpp:156] Memory required for data: 86016
I0720 16:09:36.789685 15275 layer_factory.hpp:77] Creating layer lstm1_
I0720 16:09:36.789695 15275 net.cpp:91] Creating Layer lstm1_
I0720 16:09:36.789702 15275 net.cpp:425] lstm1_ <- c_1
I0720 16:09:36.789715 15275 net.cpp:399] lstm1_ -> c_T
I0720 16:09:36.789727 15275 net.cpp:141] Setting up lstm1_
I0720 16:09:36.789736 15275 net.cpp:148] Top shape: 1 1 1000 (1000)
I0720 16:09:36.789742 15275 net.cpp:156] Memory required for data: 90016
I0720 16:09:36.789749 15275 layer_factory.hpp:77] Creating layer lstm1_h_concat
I0720 16:09:36.789760 15275 net.cpp:91] Creating Layer lstm1_h_concat
I0720 16:09:36.789767 15275 net.cpp:425] lstm1_h_concat <- h_1
I0720 16:09:36.789793 15275 net.cpp:399] lstm1_h_concat -> h
I0720 16:09:36.789811 15275 net.cpp:141] Setting up lstm1_h_concat
I0720 16:09:36.789821 15275 net.cpp:148] Top shape: 1 1 1000 (1000)
I0720 16:09:36.789829 15275 net.cpp:156] Memory required for data: 94016
I0720 16:09:36.789834 15275 layer_factory.hpp:77] Creating layer h_pseudoloss
I0720 16:09:36.789846 15275 net.cpp:91] Creating Layer h_pseudoloss
I0720 16:09:36.789852 15275 net.cpp:425] h_pseudoloss <- h
I0720 16:09:36.789865 15275 net.cpp:399] h_pseudoloss -> h_pseudoloss
I0720 16:09:36.789901 15275 net.cpp:141] Setting up h_pseudoloss
…
I0720 16:09:36.790033 15275 net.cpp:219] lstm1_ does not need backward computation.
I0720 16:09:36.790040 15275 net.cpp:261] This network produces output c_T
I0720 16:09:36.790045 15275 net.cpp:261] This network produces output h_pseudoloss
I0720 16:09:36.790083 15275 net.cpp:274] Network initialization done.
I0720 16:09:36.790143 15275 recurrent_layer.cpp:150] Adding parameter 0: W_xc
I0720 16:09:36.790150 15275 recurrent_layer.cpp:150] Adding parameter 1: b_c
I0720 16:09:36.790158 15275 recurrent_layer.cpp:150] Adding parameter 2: W_hc
I0720 16:09:36.790202 15275 net.cpp:141] Setting up lstm1
I0720 16:09:36.790215 15275 net.cpp:148] Top shape: 1 1 1000 (1000)
I0720 16:09:36.790220 15275 net.cpp:156] Memory required for data: 26408
I0720 16:09:36.790238 15275 layer_factory.hpp:77] Creating layer concat
I0720 16:09:36.790251 15275 net.cpp:91] Creating Layer concat
I0720 16:09:36.790258 15275 net.cpp:425] concat <- lstm1
I0720 16:09:36.790267 15275 net.cpp:425] concat <- embedded_input_sentence
I0720 16:09:36.790276 15275 net.cpp:425] concat <- reshaped_stage_indicator
I0720 16:09:36.790285 15275 net.cpp:399] concat -> lstm1_video_sequence
I0720 16:09:36.790299 15275 net.cpp:141] Setting up concat
I0720 16:09:36.790308 15275 net.cpp:148] Top shape: 1 1 1501 (1501)
I0720 16:09:36.790314 15275 net.cpp:156] Memory required for data: 32412
I0720 16:09:36.790321 15275 layer_factory.hpp:77] Creating layer lstm2
I0720 16:09:36.790335 15275 net.cpp:91] Creating Layer lstm2
I0720 16:09:36.790343 15275 net.cpp:425] lstm2 <- lstm1_video_sequence
I0720 16:09:36.790351 15275 net.cpp:425] lstm2 <- cont_sentence_input_1_split_1
I0720 16:09:36.790360 15275 net.cpp:399] lstm2 -> lstm2
I0720 16:09:36.790374 15275 recurrent_layer.cpp:20] Initializing recurrent layer: assuming input batch contains 1 timesteps of 1 independent streams.
I0720 16:09:36.790726 15275 net.cpp:49] Initializing net from parameters: 
layer {
  name: "lstm2_"
  type: "Input"
  top: "x"
  top: "cont"
  input_param {
    shape {
      dim: 1
      dim: 1
      dim: 1501
    }
    shape {
      dim: 1
      dim: 1
    }
  }
}
layer {
  name: "lstm2_"
  type: "Input"
  top: "c_0"
  top: "h_0"
  input_param {
    shape {
      dim: 1
      dim: 1
      dim: 1000
    }
    shape {
      dim: 1
      dim: 1
      dim: 1000
    }
  }
}
layer {
  name: "lstm2_cont_slice"
  type: "Slice"
  bottom: "cont"
  top: "cont_1"
  slice_param {
    axis: 0
  }
}
layer {
  name: "lstm2_x_transform"
  type: "InnerProduct"
  bottom: "x"
  top: "W_xc_x"
  param {
    name: "W_xc"
  }
  param {
    name: "b_c"
  }
  propagate_down: true
  inner_product_param {
    num_output: 4000
    bias_term: true
    weight_filler {
      type: "uniform"
      min: -0.08
      max: 0.08
    }
    bias_filler {
      type: "constant"
      value: 0
    }
    axis: 2
  }
}
layer {
  name: "lstm2_W_xc_x_slice"
  type: "Slice"
  bottom: "W_xc_x"
  top: "W_xc_x_1"
  slice_param {
    axis: 0
  }
}
layer {
  name: "lstm2_h_conted_0"
  type: "Scale"
  bottom: "h_0"
  bottom: "cont_1"
  top: "h_conted_0"
  scale_param {
    axis: 0
  }
}
layer {
  name: "lstm2_transform_1"
  type: "InnerProduct"
  bottom: "h_conted_0"
  top: "W_hc_h_0"
  param {
    name: "W_hc"
  }
  inner_product_param {
    num_output: 4000
    bias_term: false
    weight_filler {
      type: "uniform"
      min: -0.08
      max: 0.08
    }
    axis: 2
  }
}
layer {
  name: "lstm2_gate_input_1"
  type: "Eltwise"
  bottom: "W_hc_h_0"
  bottom: "W_xc_x_1"
  top: "gate_input_1"
  eltwise_param {
    operation: SUM
  }
}
layer {
  name: "lstm2_unit_1"
  type: "LSTMUnit"
  bottom: "c_0"
  bottom: "gate_input_1"
  bottom: "cont_1"
  top: "c_1"
  top: "h_1"
}
layer {
  name: "lstm2_"
  type: "Split"
  bottom: "c_1"
  top: "c_T"
}
layer {
  name: "lstm2_h_concat"
  type: "Concat"
  bottom: "h_1"
  top: "h"
  concat_param {
    axis: 0
  }
}
layer {
  name: "h_pseudoloss"
  type: "Reduction"
  bottom: "h"
  top: "h_pseudoloss"
  loss_weight: 1
}
I0720 16:09:36.790863 15275 layer_factory.hpp:77] Creating layer lstm2_
I0720 16:09:36.790879 15275 net.cpp:91] Creating Layer lstm2_
I0720 16:09:36.790889 15275 net.cpp:399] lstm2_ -> x
I0720 16:09:36.790904 15275 net.cpp:399] lstm2_ -> cont
I0720 16:09:36.790921 15275 net.cpp:141] Setting up lstm2_
I0720 16:09:36.790931 15275 net.cpp:148] Top shape: 1 1 1501 (1501)
I0720 16:09:36.790941 15275 net.cpp:148] Top shape: 1 1 (1)
I0720 16:09:36.790947 15275 net.cpp:156] Memory required for data: 6008
I0720 16:09:36.790954 15275 layer_factory.hpp:77] Creating layer lstm2_
I0720 16:09:36.790966 15275 net.cpp:91] Creating Layer lstm2_
I0720 16:09:36.790974 15275 net.cpp:399] lstm2_ -> c_0
I0720 16:09:36.790988 15275 net.cpp:399] lstm2_ -> h_0
I0720 16:09:36.791002 15275 net.cpp:141] Setting up lstm2_
I0720 16:09:36.791013 15275 net.cpp:148] Top shape: 1 1 1000 (1000)
I0720 16:09:36.791020 15275 net.cpp:148] Top shape: 1 1 1000 (1000)
I0720 16:09:36.791028 15275 net.cpp:156] Memory required for data: 14008
I0720 16:09:36.791033 15275 layer_factory.hpp:77] Creating layer lstm2_cont_slice
I0720 16:09:36.791059 15275 net.cpp:91] Creating Layer lstm2_cont_slice
I0720 16:09:36.791067 15275 net.cpp:425] lstm2_cont_slice <- cont
I0720 16:09:36.791079 15275 net.cpp:399] lstm2_cont_slice -> cont_1
I0720 16:09:36.791093 15275 net.cpp:141] Setting up lstm2_cont_slice
I0720 16:09:36.791103 15275 net.cpp:148] Top shape: 1 1 (1)
I0720 16:09:36.791110 15275 net.cpp:156] Memory required for data: 14012
I0720 16:09:36.791116 15275 layer_factory.hpp:77] Creating layer cont_1_lstm2_cont_slice_0_split
I0720 16:09:36.791126 15275 net.cpp:91] Creating Layer cont_1_lstm2_cont_slice_0_split
I0720 16:09:36.791132 15275 net.cpp:425] cont_1_lstm2_cont_slice_0_split <- cont_1
I0720 16:09:36.791142 15275 net.cpp:399] cont_1_lstm2_cont_slice_0_split -> cont_1_lstm2_cont_slice_0_split_0
I0720 16:09:36.791153 15275 net.cpp:399] cont_1_lstm2_cont_slice_0_split -> cont_1_lstm2_cont_slice_0_split_1
I0720 16:09:36.791167 15275 net.cpp:141] Setting up cont_1_lstm2_cont_slice_0_split
I0720 16:09:36.791177 15275 net.cpp:148] Top shape: 1 1 (1)
I0720 16:09:36.791184 15275 net.cpp:148] Top shape: 1 1 (1)
I0720 16:09:36.791189 15275 net.cpp:156] Memory required for data: 14020
I0720 16:09:36.791196 15275 layer_factory.hpp:77] Creating layer lstm2_x_transform
I0720 16:09:36.791604 15275 net.cpp:91] Creating Layer lstm2_x_transform
I0720 16:09:36.791615 15275 net.cpp:425] lstm2_x_transform <- x
I0720 16:09:36.791626 15275 net.cpp:399] lstm2_x_transform -> W_xc_x
I0720 16:09:36.792939 15278 net.cpp:141] Setting up embedding
I0720 16:09:36.792992 15278 net.cpp:148] Top shape: 1 1 500 (500)
I0720 16:09:36.793002 15278 net.cpp:156] Memory required for data: 22408
I0720 16:09:36.793028 15278 layer_factory.hpp:77] Creating layer lstm1
I0720 16:09:36.793334 15278 net.cpp:91] Creating Layer lstm1
I0720 16:09:36.793350 15278 net.cpp:425] lstm1 <- embedded_input_frames
I0720 16:09:36.793365 15278 net.cpp:425] lstm1 <- cont_sentence_input_1_split_0
I0720 16:09:36.793380 15278 net.cpp:399] lstm1 -> lstm1
I0720 16:09:36.793406 15278 recurrent_layer.cpp:20] Initializing recurrent layer: assuming input batch contains 1 timesteps of 1 independent streams.
I0720 16:09:36.796859 15278 net.cpp:49] Initializing net from parameters: 
layer {
  name: "lstm1_"
  type: "Input"
  top: "x"
…
I0720 16:09:37.089334 15260 net.cpp:425] lstm2_unit_1 <- c_0
I0720 16:09:37.089824 15260 net.cpp:425] lstm2_unit_1 <- gate_input_1
I0720 16:09:37.089848 15260 net.cpp:425] lstm2_unit_1 <- cont_1_lstm2_cont_slice_0_split_1
I0720 16:09:37.089864 15260 net.cpp:399] lstm2_unit_1 -> c_1
I0720 16:09:37.089882 15260 net.cpp:399] lstm2_unit_1 -> h_1
I0720 16:09:37.089903 15260 net.cpp:141] Setting up lstm2_unit_1
I0720 16:09:37.090322 15260 net.cpp:148] Top shape: 1 1 1000 (1000)
I0720 16:09:37.090343 15260 net.cpp:148] Top shape: 1 1 1000 (1000)
I0720 16:09:37.090353 15260 net.cpp:156] Memory required for data: 90020
I0720 16:09:37.090361 15260 layer_factory.hpp:77] Creating layer lstm2_
I0720 16:09:37.090375 15260 net.cpp:91] Creating Layer lstm2_
I0720 16:09:37.090385 15260 net.cpp:425] lstm2_ <- c_1
I0720 16:09:37.090399 15260 net.cpp:399] lstm2_ -> c_T
I0720 16:09:37.090417 15260 net.cpp:141] Setting up lstm2_
I0720 16:09:37.090431 15260 net.cpp:148] Top shape: 1 1 1000 (1000)
I0720 16:09:37.090440 15260 net.cpp:156] Memory required for data: 94020
I0720 16:09:37.090448 15260 layer_factory.hpp:77] Creating layer lstm2_h_concat
I0720 16:09:37.091320 15260 net.cpp:91] Creating Layer lstm2_h_concat
I0720 16:09:37.091542 15260 net.cpp:425] lstm2_h_concat <- h_1
I0720 16:09:37.091666 15260 net.cpp:399] lstm2_h_concat -> h
I0720 16:09:37.091817 15260 net.cpp:141] Setting up lstm2_h_concat
I0720 16:09:37.091938 15260 net.cpp:148] Top shape: 1 1 1000 (1000)
I0720 16:09:37.092559 15260 net.cpp:156] Memory required for data: 98020
I0720 16:09:37.092730 15260 layer_factory.hpp:77] Creating layer h_pseudoloss
I0720 16:09:37.092763 15282 net.cpp:141] Setting up lstm2_transform_1
I0720 16:09:37.092911 15244 net.cpp:141] Setting up lstm2_transform_1
I0720 16:09:37.092995 15282 net.cpp:148] Top shape: 1 1 4000 (4000)
I0720 16:09:37.093005 15282 net.cpp:156] Memory required for data: 66020
I0720 16:09:37.093005 15244 net.cpp:148] Top shape: 1 1 4000 (4000)
I0720 16:09:37.093017 15244 net.cpp:156] Memory required for data: 66020
I0720 16:09:37.093024 15282 layer_factory.hpp:77] Creating layer lstm2_gate_input_1
I0720 16:09:37.093034 15244 layer_factory.hpp:77] Creating layer lstm2_gate_input_1
I0720 16:09:37.093052 15244 net.cpp:91] Creating Layer lstm2_gate_input_1
I0720 16:09:37.093063 15244 net.cpp:425] lstm2_gate_input_1 <- W_hc_h_0
I0720 16:09:37.093075 15244 net.cpp:425] lstm2_gate_input_1 <- W_xc_x_1
I0720 16:09:37.093088 15244 net.cpp:399] lstm2_gate_input_1 -> gate_input_1
I0720 16:09:37.093111 15244 net.cpp:141] Setting up lstm2_gate_input_1
I0720 16:09:37.093124 15244 net.cpp:148] Top shape: 1 1 4000 (4000)
I0720 16:09:37.093133 15244 net.cpp:156] Memory required for data: 82020
I0720 16:09:37.093143 15244 layer_factory.hpp:77] Creating layer lstm2_unit_1
I0720 16:09:37.093296 15260 net.cpp:91] Creating Layer h_pseudoloss
I0720 16:09:37.093309 15260 net.cpp:425] h_pseudoloss <- h
I0720 16:09:37.093322 15260 net.cpp:399] h_pseudoloss -> h_pseudoloss
I0720 16:09:37.093964 15282 net.cpp:91] Creating Layer lstm2_gate_input_1
I0720 16:09:37.093976 15282 net.cpp:425] lstm2_gate_input_1 <- W_hc_h_0
I0720 16:09:37.093986 15282 net.cpp:425] lstm2_gate_input_1 <- W_xc_x_1
I0720 16:09:37.093997 15282 net.cpp:399] lstm2_gate_input_1 -> gate_input_1
I0720 16:09:37.094013 15282 net.cpp:141] Setting up lstm2_gate_input_1
I0720 16:09:37.094625 15244 net.cpp:91] Creating Layer lstm2_unit_1
I0720 16:09:37.094640 15282 net.cpp:148] Top shape: 1 1 4000 (4000)
I0720 16:09:37.094642 15244 net.cpp:425] lstm2_unit_1 <- c_0
I0720 16:09:37.094648 15282 net.cpp:156] Memory required for data: 82020
I0720 16:09:37.094650 15260 net.cpp:141] Setting up h_pseudoloss
I0720 16:09:37.094655 15282 layer_factory.hpp:77] Creating layer lstm2_unit_1
I0720 16:09:37.094667 15260 net.cpp:148] Top shape: (1)
I0720 16:09:37.094674 15282 net.cpp:91] Creating Layer lstm2_unit_1
…
I0720 16:09:37.095345 15244 net.cpp:425] lstm2_unit_1 <- cont_1_lstm2_cont_slice_0_split_1
I0720 16:09:37.095362 15244 net.cpp:399] lstm2_unit_1 -> c_1
I0720 16:09:37.095381 15244 net.cpp:399] lstm2_unit_1 -> h_1
I0720 16:09:37.095381 15260 recurrent_layer.cpp:150] Adding parameter 0: W_xc
I0720 16:09:37.095401 15260 recurrent_layer.cpp:150] Adding parameter 1: b_c
I0720 16:09:37.095408 15260 recurrent_layer.cpp:150] Adding parameter 2: W_hc
I0720 16:09:37.095407 15244 net.cpp:141] Setting up lstm2_unit_1
I0720 16:09:37.095468 15260 net.cpp:141] Setting up lstm2
I0720 16:09:37.095480 15260 net.cpp:148] Top shape: 1 1 1000 (1000)
I0720 16:09:37.095487 15260 net.cpp:156] Memory required for data: 36412
I0720 16:09:37.095506 15260 layer_factory.hpp:77] Creating layer predict
I0720 16:09:37.095523 15260 net.cpp:91] Creating Layer predict
I0720 16:09:37.095532 15260 net.cpp:425] predict <- lstm2
I0720 16:09:37.095544 15260 net.cpp:399] predict -> predict
I0720 16:09:37.095731 15282 net.cpp:148] Top shape: 1 1 1000 (1000)
I0720 16:09:37.095734 15244 net.cpp:148] Top shape: 1 1 1000 (1000)
I0720 16:09:37.095741 15282 net.cpp:156] Memory required for data: 94020
I0720 16:09:37.095749 15282 layer_factory.hpp:77] Creating layer lstm2_h_concat
I0720 16:09:37.095752 15244 net.cpp:148] Top shape: 1 1 1000 (1000)
I0720 16:09:37.095760 15244 net.cpp:156] Memory required for data: 90020
I0720 16:09:37.095762 15282 net.cpp:91] Creating Layer lstm2_h_concat
I0720 16:09:37.095774 15244 layer_factory.hpp:77] Creating layer lstm2_
I0720 16:09:37.095777 15282 net.cpp:425] lstm2_h_concat <- h_1
I0720 16:09:37.095793 15244 net.cpp:91] Creating Layer lstm2_
I0720 16:09:37.095796 15282 net.cpp:399] lstm2_h_concat -> h
I0720 16:09:37.095804 15244 net.cpp:425] lstm2_ <- c_1
I0720 16:09:37.095813 15282 net.cpp:141] Setting up lstm2_h_concat
I0720 16:09:37.095818 15244 net.cpp:399] lstm2_ -> c_T
I0720 16:09:37.095824 15282 net.cpp:148] Top shape: 1 1 1000 (1000)
I0720 16:09:37.095829 15282 net.cpp:156] Memory required for data: 98020
I0720 16:09:37.095836 15282 layer_factory.hpp:77] Creating layer h_pseudoloss
I0720 16:09:37.095835 15244 net.cpp:141] Setting up lstm2_
I0720 16:09:37.095847 15282 net.cpp:91] Creating Layer h_pseudoloss
I0720 16:09:37.095851 15244 net.cpp:148] Top shape: 1 1 1000 (1000)
I0720 16:09:37.095854 15282 net.cpp:425] h_pseudoloss <- h
I0720 16:09:37.095860 15244 net.cpp:156] Memory required for data: 94020
I0720 16:09:37.095871 15244 layer_factory.hpp:77] Creating layer lstm2_h_concat
I0720 16:09:37.096956 15282 net.cpp:399] h_pseudoloss -> h_pseudoloss
I0720 16:09:37.096956 15244 net.cpp:91] Creating Layer lstm2_h_concat
I0720 16:09:37.097633 15244 net.cpp:425] lstm2_h_concat <- h_1
I0720 16:09:37.097651 15244 net.cpp:399] lstm2_h_concat -> h
I0720 16:09:37.097671 15244 net.cpp:141] Setting up lstm2_h_concat
I0720 16:09:37.097687 15244 net.cpp:148] Top shape: 1 1 1000 (1000)
I0720 16:09:37.097695 15244 net.cpp:156] Memory required for data: 98020
I0720 16:09:37.097704 15244 layer_factory.hpp:77] Creating layer h_pseudoloss
I0720 16:09:37.098006 15282 net.cpp:141] Setting up h_pseudoloss
I0720 16:09:37.098013 15244 net.cpp:91] Creating Layer h_pseudoloss
I0720 16:09:37.098022 15282 net.cpp:148] Top shape: (1)
I0720 16:09:37.098026 15244 net.cpp:425] h_pseudoloss <- h
…
I0720 16:09:37.129946 15278 net.cpp:219] lstm2_ does not need backward computation.
I0720 16:09:37.130061 15278 net.cpp:261] This network produces output c_T
I0720 16:09:37.130751 15278 net.cpp:261] This network produces output h_pseudoloss
I0720 16:09:37.130887 15278 net.cpp:274] Network initialization done.
I0720 16:09:37.131072 15278 recurrent_layer.cpp:150] Adding parameter 0: W_xc
I0720 16:09:37.131224 15278 recurrent_layer.cpp:150] Adding parameter 1: b_c
I0720 16:09:37.131335 15278 recurrent_layer.cpp:150] Adding parameter 2: W_hc
I0720 16:09:37.131530 15278 net.cpp:141] Setting up lstm2
I0720 16:09:37.131690 15278 net.cpp:148] Top shape: 1 1 1000 (1000)
I0720 16:09:37.131803 15278 net.cpp:156] Memory required for data: 36412
I0720 16:09:37.131932 15278 layer_factory.hpp:77] Creating layer predict
I0720 16:09:37.132056 15278 net.cpp:91] Creating Layer predict
I0720 16:09:37.132206 15278 net.cpp:425] predict <- lstm2
I0720 16:09:37.132321 15278 net.cpp:399] predict -> predict
I0720 16:09:37.407825 15258 net.cpp:141] Setting up predict
I0720 16:09:37.408474 15258 net.cpp:148] Top shape: 1 1 46168 (46168)
I0720 16:09:37.408628 15258 net.cpp:156] Memory required for data: 221084
I0720 16:09:37.408752 15258 layer_factory.hpp:77] Creating layer probs
I0720 16:09:37.408880 15258 net.cpp:91] Creating Layer probs
I0720 16:09:37.408988 15258 net.cpp:425] probs <- predict
I0720 16:09:37.409140 15258 net.cpp:399] probs -> probs
I0720 16:09:37.458777 15275 net.cpp:141] Setting up predict
I0720 16:09:37.458819 15275 net.cpp:148] Top shape: 1 1 46168 (46168)
I0720 16:09:37.458825 15275 net.cpp:156] Memory required for data: 221084
I0720 16:09:37.458837 15275 layer_factory.hpp:77] Creating layer probs
I0720 16:09:37.458852 15275 net.cpp:91] Creating Layer probs
I0720 16:09:37.458858 15275 net.cpp:425] probs <- predict
I0720 16:09:37.458868 15275 net.cpp:399] probs -> probs
I0720 16:09:37.477771 15262 net.cpp:141] Setting up predict
I0720 16:09:37.477813 15262 net.cpp:148] Top shape: 1 1 46168 (46168)
I0720 16:09:37.477819 15262 net.cpp:156] Memory required for data: 221084
I0720 16:09:37.477833 15262 layer_factory.hpp:77] Creating layer probs
I0720 16:09:37.477849 15262 net.cpp:91] Creating Layer probs
I0720 16:09:37.477854 15262 net.cpp:425] probs <- predict
I0720 16:09:37.477864 15262 net.cpp:399] probs -> probs
I0720 16:09:37.501730 15252 net.cpp:141] Setting up predict
I0720 16:09:37.501772 15252 net.cpp:148] Top shape: 1 1 46168 (46168)
I0720 16:09:37.501777 15252 net.cpp:156] Memory required for data: 221084
I0720 16:09:37.501792 15252 layer_factory.hpp:77] Creating layer probs
I0720 16:09:37.501807 15252 net.cpp:91] Creating Layer probs
I0720 16:09:37.501813 15252 net.cpp:425] probs <- predict
I0720 16:09:37.501823 15252 net.cpp:399] probs -> probs
I0720 16:09:37.512190 15248 net.cpp:141] Setting up predict
I0720 16:09:37.512250 15248 net.cpp:148] Top shape: 1 1 46168 (46168)
I0720 16:09:37.512256 15248 net.cpp:156] Memory required for data: 221084
I0720 16:09:37.512272 15248 layer_factory.hpp:77] Creating layer probs
I0720 16:09:37.512293 15248 net.cpp:91] Creating Layer probs
I0720 16:09:37.512300 15248 net.cpp:425] probs <- predict
I0720 16:09:37.512312 15248 net.cpp:399] probs -> probs
I0720 16:09:37.605039 15282 net.cpp:141] Setting up predict
I0720 16:09:37.605096 15282 net.cpp:148] Top shape: 1 1 46168 (46168)
I0720 16:09:37.605103 15282 net.cpp:156] Memory required for data: 221084
I0720 16:09:37.605118 15282 layer_factory.hpp:77] Creating layer probs
I0720 16:09:37.605139 15282 net.cpp:91] Creating Layer probs
I0720 16:09:37.605145 15282 net.cpp:425] probs <- predict
I0720 16:09:37.605157 15282 net.cpp:399] probs -> probs
I0720 16:09:37.606010 15250 net.cpp:141] Setting up predict
I0720 16:09:37.606045 15250 net.cpp:148] Top shape: 1 1 46168 (46168)
I0720 16:09:37.606050 15250 net.cpp:156] Memory required for data: 221084
I0720 16:09:37.606063 15250 layer_factory.hpp:77] Creating layer probs
I0720 16:09:37.606077 15250 net.cpp:91] Creating Layer probs
I0720 16:09:37.606084 15250 net.cpp:425] probs <- predict
I0720 16:09:37.606093 15250 net.cpp:399] probs -> probs
I0720 16:09:37.646440 15260 net.cpp:141] Setting up predict
I0720 16:09:37.646486 15260 net.cpp:148] Top shape: 1 1 46168 (46168)
I0720 16:09:37.646495 15260 net.cpp:156] Memory required for data: 221084
I0720 16:09:37.646514 15260 layer_factory.hpp:77] Creating layer probs
I0720 16:09:37.646534 15260 net.cpp:91] Creating Layer probs
I0720 16:09:37.646545 15260 net.cpp:425] probs <- predict
I0720 16:09:37.646562 15260 net.cpp:399] probs -> probs
I0720 16:09:37.664268 15244 net.cpp:141] Setting up predict
I0720 16:09:37.664324 15244 net.cpp:148] Top shape: 1 1 46168 (46168)
I0720 16:09:37.664330 15244 net.cpp:156] Memory required for data: 221084
I0720 16:09:37.664345 15244 layer_factory.hpp:77] Creating layer probs
I0720 16:09:37.664364 15244 net.cpp:91] Creating Layer probs
I0720 16:09:37.664372 15244 net.cpp:425] probs <- predict
I0720 16:09:37.664383 15244 net.cpp:399] probs -> probs
I0720 16:09:37.696956 15278 net.cpp:141] Setting up predict
I0720 16:09:37.696995 15278 net.cpp:148] Top shape: 1 1 46168 (46168)
I0720 16:09:37.697000 15278 net.cpp:156] Memory required for data: 221084
I0720 16:09:37.697015 15278 layer_factory.hpp:77] Creating layer probs
I0720 16:09:37.697028 15278 net.cpp:91] Creating Layer probs
I0720 16:09:37.697036 15278 net.cpp:425] probs <- predict
I0720 16:09:37.697046 15278 net.cpp:399] probs -> probs
I0720 16:09:37.737279 15273 net.cpp:141] Setting up data
I0720 16:09:37.737318 15273 net.cpp:148] Top shape: 10 3 227 227 (1545870)
I0720 16:09:37.737323 15273 net.cpp:156] Memory required for data: 6183480
I0720 16:09:37.737332 15273 layer_factory.hpp:77] Creating layer conv1
I0720 16:09:37.737363 15273 net.cpp:91] Creating Layer conv1
I0720 16:09:37.737370 15273 net.cpp:425] conv1 <- data
I0720 16:09:37.737377 15273 net.cpp:399] conv1 -> conv1
I0720 16:09:38.119467 15250 net.cpp:141] Setting up probs
I0720 16:09:38.119511 15250 net.cpp:148] Top shape: 1 1 46168 (46168)
I0720 16:09:38.119520 15250 net.cpp:156] Memory required for data: 405756
I0720 16:09:38.119532 15250 net.cpp:219] probs does not need backward computation.
I0720 16:09:38.119542 15250 net.cpp:219] predict does not need backward computation.
I0720 16:09:38.119551 15250 net.cpp:219] lstm2 does not need backward computation.
I0720 16:09:38.119560 15250 net.cpp:219] concat does not need backward computation.
I0720 16:09:38.119585 15250 net.cpp:219] lstm1 does not need backward computation.
I0720 16:09:38.119597 15250 net.cpp:219] embedding does not need backward computation.
I0720 16:09:38.119606 15250 net.cpp:219] reshape_stage_indicator does not need backward computation.
I0720 16:09:38.119612 15250 net.cpp:219] reshape_frames does not need backward computation.
I0720 16:09:38.119619 15250 net.cpp:219] embed_encoder does not need backward computation.
I0720 16:09:38.119626 15250 net.cpp:219] cont_sentence_input_1_split does not need backward computation.
I0720 16:09:38.119635 15250 net.cpp:219] input does not need backward computation.
I0720 16:09:38.119642 15250 net.cpp:261] This network produces output probs
I0720 16:09:38.119669 15250 net.cpp:274] Network initialization done.
I0720 16:09:38.120440 15262 net.cpp:141] Setting up probs
I0720 16:09:38.120478 15262 net.cpp:148] Top shape: 1 1 46168 (46168)
I0720 16:09:38.120483 15262 net.cpp:156] Memory required for data: 405756
I0720 16:09:38.120492 15262 net.cpp:219] probs does not need backward computation.
I0720 16:09:38.120499 15262 net.cpp:219] predict does not need backward computation.
I0720 16:09:38.120504 15262 net.cpp:219] lstm2 does not need backward computation.
I0720 16:09:38.120509 15262 net.cpp:219] concat does not need backward computation.
I0720 16:09:38.120515 15262 net.cpp:219] lstm1 does not need backward computation.
I0720 16:09:38.120522 15262 net.cpp:219] embedding does not need backward computation.
I0720 16:09:38.120525 15262 net.cpp:219] reshape_stage_indicator does not need backward computation.
I0720 16:09:38.120530 15262 net.cpp:219] reshape_frames does not need backward computation.
I0720 16:09:38.120535 15262 net.cpp:219] embed_encoder does not need backward computation.
I0720 16:09:38.120540 15262 net.cpp:219] cont_sentence_input_1_split does not need backward computation.
I0720 16:09:38.120545 15262 net.cpp:219] input does not need backward computation.
I0720 16:09:38.120549 15262 net.cpp:261] This network produces output probs
I0720 16:09:38.120581 15262 net.cpp:274] Network initialization done.
I0720 16:09:38.121750 15248 net.cpp:141] Setting up probs
I0720 16:09:38.121788 15248 net.cpp:148] Top shape: 1 1 46168 (46168)
I0720 16:09:38.121795 15248 net.cpp:156] Memory required for data: 405756
I0720 16:09:38.121803 15248 net.cpp:219] probs does not need backward computation.
I0720 16:09:38.121809 15248 net.cpp:219] predict does not need backward computation.
I0720 16:09:38.121814 15248 net.cpp:219] lstm2 does not need backward computation.
I0720 16:09:38.121819 15248 net.cpp:219] concat does not need backward computation.
I0720 16:09:38.121825 15248 net.cpp:219] lstm1 does not need backward computation.
I0720 16:09:38.121831 15248 net.cpp:219] embedding does not need backward computation.
I0720 16:09:38.121836 15248 net.cpp:219] reshape_stage_indicator does not need backward computation.
I0720 16:09:38.121841 15248 net.cpp:219] reshape_frames does not need backward computation.
I0720 16:09:38.121845 15248 net.cpp:219] embed_encoder does not need backward computation.
I0720 16:09:38.121850 15248 net.cpp:219] cont_sentence_input_1_split does not need backward computation.
I0720 16:09:38.121855 15248 net.cpp:219] input does not need backward computation.
I0720 16:09:38.121862 15248 net.cpp:261] This network produces output probs
I0720 16:09:38.122377 15248 net.cpp:274] Network initialization done.
I0720 16:09:38.122895 15275 net.cpp:141] Setting up probs
I0720 16:09:38.122921 15275 net.cpp:148] Top shape: 1 1 46168 (46168)
I0720 16:09:38.122927 15275 net.cpp:156] Memory required for data: 405756
I0720 16:09:38.122933 15275 net.cpp:219] probs does not need backward computation.
I0720 16:09:38.122939 15275 net.cpp:219] predict does not need backward computation.
I0720 16:09:38.122943 15275 net.cpp:219] lstm2 does not need backward computation.
I0720 16:09:38.122949 15275 net.cpp:219] concat does not need backward computation.
I0720 16:09:38.122954 15275 net.cpp:219] lstm1 does not need backward computation.
I0720 16:09:38.122959 15275 net.cpp:219] embedding does not need backward computation.
I0720 16:09:38.122964 15275 net.cpp:219] reshape_stage_indicator does not need backward computation.
I0720 16:09:38.122968 15275 net.cpp:219] reshape_frames does not need backward computation.
I0720 16:09:38.122972 15275 net.cpp:219] embed_encoder does not need backward computation.
I0720 16:09:38.122977 15275 net.cpp:219] cont_sentence_input_1_split does not need backward computation.
I0720 16:09:38.122982 15275 net.cpp:219] input does not need backward computation.
I0720 16:09:38.122985 15275 net.cpp:261] This network produces output probs
I0720 16:09:38.123401 15275 net.cpp:274] Network initialization done.
I0720 16:09:38.123531 15252 net.cpp:141] Setting up probs
I0720 16:09:38.123554 15252 net.cpp:148] Top shape: 1 1 46168 (46168)
I0720 16:09:38.123563 15252 net.cpp:156] Memory required for data: 405756
I0720 16:09:38.123571 15252 net.cpp:219] probs does not need backward computation.
I0720 16:09:38.123580 15252 net.cpp:219] predict does not need backward computation.
I0720 16:09:38.123589 15252 net.cpp:219] lstm2 does not need backward computation.
I0720 16:09:38.123590 15278 net.cpp:141] Setting up probs
I0720 16:09:38.123600 15252 net.cpp:219] concat does not need backward computation.
I0720 16:09:38.123620 15252 net.cpp:219] lstm1 does not need backward computation.
I0720 16:09:38.123620 15278 net.cpp:148] Top shape: 1 1 46168 (46168)
I0720 16:09:38.123625 15252 net.cpp:219] embedding does not need backward computation.
I0720 16:09:38.123626 15278 net.cpp:156] Memory required for data: 405756
I0720 16:09:38.123636 15252 net.cpp:219] reshape_stage_indicator does not need backward computation.
I0720 16:09:38.123646 15252 net.cpp:219] reshape_frames does not need backward computation.
I0720 16:09:38.123648 15278 net.cpp:219] probs does not need backward computation.
…
I0720 16:09:38.123731 15278 net.cpp:219] reshape_frames does not need backward computation.
I0720 16:09:38.123741 15278 net.cpp:219] embed_encoder does not need backward computation.
I0720 16:09:38.123747 15252 net.cpp:274] Network initialization done.
I0720 16:09:38.123750 15278 net.cpp:219] cont_sentence_input_1_split does not need backward computation.
I0720 16:09:38.123769 15278 net.cpp:219] input does not need backward computation.
I0720 16:09:38.123776 15278 net.cpp:261] This network produces output probs
I0720 16:09:38.123803 15278 net.cpp:274] Network initialization done.
I0720 16:09:38.123812 15282 net.cpp:141] Setting up probs
I0720 16:09:38.123832 15282 net.cpp:148] Top shape: 1 1 46168 (46168)
I0720 16:09:38.123842 15282 net.cpp:156] Memory required for data: 405756
I0720 16:09:38.123849 15282 net.cpp:219] probs does not need backward computation.
I0720 16:09:38.123858 15282 net.cpp:219] predict does not need backward computation.
I0720 16:09:38.123867 15282 net.cpp:219] lstm2 does not need backward computation.
I0720 16:09:38.123875 15282 net.cpp:219] concat does not need backward computation.
I0720 16:09:38.123884 15282 net.cpp:219] lstm1 does not need backward computation.
I0720 16:09:38.123893 15282 net.cpp:219] embedding does not need backward computation.
I0720 16:09:38.123898 15282 net.cpp:219] reshape_stage_indicator does not need backward computation.
I0720 16:09:38.123903 15282 net.cpp:219] reshape_frames does not need backward computation.
I0720 16:09:38.123908 15282 net.cpp:219] embed_encoder does not need backward computation.
I0720 16:09:38.123913 15282 net.cpp:219] cont_sentence_input_1_split does not need backward computation.
I0720 16:09:38.123917 15282 net.cpp:219] input does not need backward computation.
I0720 16:09:38.123920 15282 net.cpp:261] This network produces output probs
I0720 16:09:38.123935 15282 net.cpp:274] Network initialization done.
I0720 16:09:38.125309 15260 net.cpp:141] Setting up probs
I0720 16:09:38.125336 15260 net.cpp:148] Top shape: 1 1 46168 (46168)
I0720 16:09:38.125345 15260 net.cpp:156] Memory required for data: 405756
I0720 16:09:38.125355 15260 net.cpp:219] probs does not need backward computation.
I0720 16:09:38.125365 15260 net.cpp:219] predict does not need backward computation.
I0720 16:09:38.125373 15260 net.cpp:219] lstm2 does not need backward computation.
I0720 16:09:38.125383 15260 net.cpp:219] concat does not need backward computation.
I0720 16:09:38.125391 15260 net.cpp:219] lstm1 does not need backward computation.
I0720 16:09:38.125401 15260 net.cpp:219] embedding does not need backward computation.
I0720 16:09:38.125411 15260 net.cpp:219] reshape_stage_indicator does not need backward computation.
I0720 16:09:38.125418 15260 net.cpp:219] reshape_frames does not need backward computation.
I0720 16:09:38.125427 15260 net.cpp:219] embed_encoder does not need backward computation.
I0720 16:09:38.125435 15260 net.cpp:219] cont_sentence_input_1_split does not need backward computation.
I0720 16:09:38.125443 15260 net.cpp:219] input does not need backward computation.
I0720 16:09:38.125450 15260 net.cpp:261] This network produces output probs
I0720 16:09:38.125536 15260 net.cpp:274] Network initialization done.
I0720 16:09:38.126595 15244 net.cpp:141] Setting up probs
I0720 16:09:38.126600 15258 net.cpp:141] Setting up probs
I0720 16:09:38.127153 15258 net.cpp:148] Top shape: 1 1 46168 (46168)
I0720 16:09:38.127398 15258 net.cpp:156] Memory required for data: 405756
I0720 16:09:38.127526 15258 net.cpp:219] probs does not need backward computation.
I0720 16:09:38.127648 15258 net.cpp:219] predict does not need backward computation.
I0720 16:09:38.127777 15258 net.cpp:219] lstm2 does not need backward computation.
I0720 16:09:38.127908 15258 net.cpp:219] concat does not need backward computation.
I0720 16:09:38.128118 15258 net.cpp:219] lstm1 does not need backward computation.
I0720 16:09:38.128355 15258 net.cpp:219] embedding does not need backward computation.
I0720 16:09:38.128475 15258 net.cpp:219] reshape_stage_indicator does not need backward computation.
I0720 16:09:38.129283 15258 net.cpp:219] reshape_frames does not need backward computation.
I0720 16:09:38.129312 15258 net.cpp:219] embed_encoder does not need backward computation.
I0720 16:09:38.129323 15258 net.cpp:219] cont_sentence_input_1_split does not need backward computation.
I0720 16:09:38.129331 15258 net.cpp:219] input does not need backward computation.
I0720 16:09:38.129338 15258 net.cpp:261] This network produces output probs
I0720 16:09:38.129360 15258 net.cpp:274] Network initialization done.
I0720 16:09:38.126967 15244 net.cpp:148] Top shape: 1 1 46168 (46168)
I0720 16:09:38.129987 15244 net.cpp:156] Memory required for data: 405756
I0720 16:09:38.129997 15244 net.cpp:219] probs does not need backward computation.
I0720 16:09:38.130002 15244 net.cpp:219] predict does not need backward computation.
I0720 16:09:38.130007 15244 net.cpp:219] lstm2 does not need backward computation.
I0720 16:09:38.130012 15244 net.cpp:219] concat does not need backward computation.
I0720 16:09:38.130017 15244 net.cpp:219] lstm1 does not need backward computation.
I0720 16:09:38.130023 15244 net.cpp:219] embedding does not need backward computation.
I0720 16:09:38.130026 15244 net.cpp:219] reshape_stage_indicator does not need backward computation.
I0720 16:09:38.130031 15244 net.cpp:219] reshape_frames does not need backward computation.
I0720 16:09:38.130038 15244 net.cpp:219] embed_encoder does not need backward computation.
I0720 16:09:38.130046 15244 net.cpp:219] cont_sentence_input_1_split does not need backward computation.
I0720 16:09:38.130055 15244 net.cpp:219] input does not need backward computation.
I0720 16:09:38.130061 15244 net.cpp:261] This network produces output probs
I0720 16:09:38.130549 15244 net.cpp:274] Network initialization done.
I0720 16:09:38.309442 15256 net.cpp:141] Setting up data
I0720 16:09:38.309525 15256 net.cpp:148] Top shape: 10 3 227 227 (1545870)
I0720 16:09:38.309532 15256 net.cpp:156] Memory required for data: 6183480
I0720 16:09:38.309548 15256 layer_factory.hpp:77] Creating layer conv1
I0720 16:09:38.309587 15256 net.cpp:91] Creating Layer conv1
I0720 16:09:38.309595 15256 net.cpp:425] conv1 <- data
I0720 16:09:38.309609 15256 net.cpp:399] conv1 -> conv1
I0720 16:09:38.319066 15273 net.cpp:141] Setting up conv1
I0720 16:09:38.319823 15273 net.cpp:148] Top shape: 10 96 55 55 (2904000)
I0720 16:09:38.320019 15273 net.cpp:156] Memory required for data: 17799480
I0720 16:09:38.320320 15273 layer_factory.hpp:77] Creating layer relu1
I0720 16:09:38.320499 15273 net.cpp:91] Creating Layer relu1
I0720 16:09:38.320642 15273 net.cpp:425] relu1 <- conv1
I0720 16:09:38.320793 15273 net.cpp:386] relu1 -> conv1 (in-place)
I0720 16:09:38.331343 15273 net.cpp:141] Setting up relu1
I0720 16:09:38.331918 15273 net.cpp:148] Top shape: 10 96 55 55 (2904000)
I0720 16:09:38.332065 15273 net.cpp:156] Memory required for data: 29415480
I0720 16:09:38.332264 15273 layer_factory.hpp:77] Creating layer pool1
I0720 16:09:38.332449 15273 net.cpp:91] Creating Layer pool1
I0720 16:09:38.332583 15273 net.cpp:425] pool1 <- conv1
I0720 16:09:38.332726 15273 net.cpp:399] pool1 -> pool1
I0720 16:09:38.340245 15273 net.cpp:141] Setting up pool1
I0720 16:09:38.340728 15273 net.cpp:148] Top shape: 10 96 27 27 (699840)
I0720 16:09:38.340745 15273 net.cpp:156] Memory required for data: 32214840
I0720 16:09:38.340761 15273 layer_factory.hpp:77] Creating layer norm1
I0720 16:09:38.340904 15273 net.cpp:91] Creating Layer norm1
I0720 16:09:38.340920 15273 net.cpp:425] norm1 <- pool1
I0720 16:09:38.340939 15273 net.cpp:399] norm1 -> norm1
I0720 16:09:38.349650 15273 net.cpp:141] Setting up norm1
I0720 16:09:38.349711 15273 net.cpp:148] Top shape: 10 96 27 27 (699840)
I0720 16:09:38.349722 15273 net.cpp:156] Memory required for data: 35014200
I0720 16:09:38.349735 15273 layer_factory.hpp:77] Creating layer conv2
I0720 16:09:38.350210 15273 net.cpp:91] Creating Layer conv2
I0720 16:09:38.350229 15273 net.cpp:425] conv2 <- norm1
I0720 16:09:38.350245 15273 net.cpp:399] conv2 -> conv2
I0720 16:09:38.369483 15256 net.cpp:141] Setting up conv1
I0720 16:09:38.369559 15256 net.cpp:148] Top shape: 10 96 55 55 (2904000)
I0720 16:09:38.369565 15256 net.cpp:156] Memory required for data: 17799480
I0720 16:09:38.369592 15256 layer_factory.hpp:77] Creating layer relu1
I0720 16:09:38.369616 15256 net.cpp:91] Creating Layer relu1
I0720 16:09:38.369623 15256 net.cpp:425] relu1 <- conv1
I0720 16:09:38.369632 15256 net.cpp:386] relu1 -> conv1 (in-place)
I0720 16:09:38.371884 15256 net.cpp:141] Setting up relu1
I0720 16:09:38.371964 15256 net.cpp:148] Top shape: 10 96 55 55 (2904000)
I0720 16:09:38.371978 15256 net.cpp:156] Memory required for data: 29415480
I0720 16:09:38.371994 15256 layer_factory.hpp:77] Creating layer pool1
I0720 16:09:38.372030 15256 net.cpp:91] Creating Layer pool1
I0720 16:09:38.372043 15256 net.cpp:425] pool1 <- conv1
I0720 16:09:38.372062 15256 net.cpp:399] pool1 -> pool1
I0720 16:09:38.378988 15256 net.cpp:141] Setting up pool1
I0720 16:09:38.379104 15256 net.cpp:148] Top shape: 10 96 27 27 (699840)
I0720 16:09:38.379117 15256 net.cpp:156] Memory required for data: 32214840
I0720 16:09:38.379139 15256 layer_factory.hpp:77] Creating layer norm1
I0720 16:09:38.380697 15256 net.cpp:91] Creating Layer norm1
I0720 16:09:38.380715 15256 net.cpp:425] norm1 <- pool1
I0720 16:09:38.380728 15256 net.cpp:399] norm1 -> norm1
I0720 16:09:38.398802 15256 net.cpp:141] Setting up norm1
I0720 16:09:38.398879 15256 net.cpp:148] Top shape: 10 96 27 27 (699840)
I0720 16:09:38.398885 15256 net.cpp:156] Memory required for data: 35014200
I0720 16:09:38.398897 15256 layer_factory.hpp:77] Creating layer conv2
I0720 16:09:38.399363 15256 net.cpp:91] Creating Layer conv2
I0720 16:09:38.399384 15256 net.cpp:425] conv2 <- norm1
I0720 16:09:38.399399 15256 net.cpp:399] conv2 -> conv2
I0720 16:09:38.466337 15273 net.cpp:141] Setting up conv2
I0720 16:09:38.466388 15273 net.cpp:148] Top shape: 10 256 27 27 (1866240)
I0720 16:09:38.466397 15273 net.cpp:156] Memory required for data: 42479160
I0720 16:09:38.466418 15273 layer_factory.hpp:77] Creating layer relu2
I0720 16:09:38.466434 15273 net.cpp:91] Creating Layer relu2
I0720 16:09:38.466439 15273 net.cpp:425] relu2 <- conv2
I0720 16:09:38.467682 15273 net.cpp:386] relu2 -> conv2 (in-place)
I0720 16:09:38.474628 15273 net.cpp:141] Setting up relu2
I0720 16:09:38.474680 15273 net.cpp:148] Top shape: 10 256 27 27 (1866240)
I0720 16:09:38.474696 15273 net.cpp:156] Memory required for data: 49944120
I0720 16:09:38.474706 15273 layer_factory.hpp:77] Creating layer pool2
I0720 16:09:38.475836 15273 net.cpp:91] Creating Layer pool2
I0720 16:09:38.475862 15273 net.cpp:425] pool2 <- conv2
I0720 16:09:38.475877 15273 net.cpp:399] pool2 -> pool2
I0720 16:09:38.484684 15273 net.cpp:141] Setting up pool2
I0720 16:09:38.484737 15273 net.cpp:148] Top shape: 10 256 13 13 (432640)
I0720 16:09:38.484743 15273 net.cpp:156] Memory required for data: 51674680
I0720 16:09:38.484752 15273 layer_factory.hpp:77] Creating layer norm2
I0720 16:09:38.485522 15273 net.cpp:91] Creating Layer norm2
I0720 16:09:38.485548 15273 net.cpp:425] norm2 <- pool2
I0720 16:09:38.485563 15273 net.cpp:399] norm2 -> norm2
I0720 16:09:38.493188 15273 net.cpp:141] Setting up norm2
I0720 16:09:38.493242 15273 net.cpp:148] Top shape: 10 256 13 13 (432640)
I0720 16:09:38.493247 15273 net.cpp:156] Memory required for data: 53405240
I0720 16:09:38.493255 15273 layer_factory.hpp:77] Creating layer conv3
I0720 16:09:38.493283 15273 net.cpp:91] Creating Layer conv3
I0720 16:09:38.493289 15273 net.cpp:425] conv3 <- norm2
I0720 16:09:38.494365 15273 net.cpp:399] conv3 -> conv3
I0720 16:09:38.511940 15256 net.cpp:141] Setting up conv2
I0720 16:09:38.512028 15256 net.cpp:148] Top shape: 10 256 27 27 (1866240)
I0720 16:09:38.512034 15256 net.cpp:156] Memory required for data: 42479160
I0720 16:09:38.512065 15256 layer_factory.hpp:77] Creating layer relu2
I0720 16:09:38.512964 15256 net.cpp:91] Creating Layer relu2
I0720 16:09:38.512997 15256 net.cpp:425] relu2 <- conv2
I0720 16:09:38.513013 15256 net.cpp:386] relu2 -> conv2 (in-place)
I0720 16:09:38.520644 15256 net.cpp:141] Setting up relu2
I0720 16:09:38.520720 15256 net.cpp:148] Top shape: 10 256 27 27 (1866240)
I0720 16:09:38.520727 15256 net.cpp:156] Memory required for data: 49944120
I0720 16:09:38.520740 15256 layer_factory.hpp:77] Creating layer pool2
I0720 16:09:38.520766 15256 net.cpp:91] Creating Layer pool2
I0720 16:09:38.520776 15256 net.cpp:425] pool2 <- conv2
I0720 16:09:38.520794 15256 net.cpp:399] pool2 -> pool2
I0720 16:09:38.530395 15256 net.cpp:141] Setting up pool2
I0720 16:09:38.530468 15256 net.cpp:148] Top shape: 10 256 13 13 (432640)
I0720 16:09:38.530478 15256 net.cpp:156] Memory required for data: 51674680
I0720 16:09:38.530494 15256 layer_factory.hpp:77] Creating layer norm2
I0720 16:09:38.531251 15256 net.cpp:91] Creating Layer norm2
I0720 16:09:38.531277 15256 net.cpp:425] norm2 <- pool2
I0720 16:09:38.531297 15256 net.cpp:399] norm2 -> norm2
I0720 16:09:38.539273 15256 net.cpp:141] Setting up norm2
I0720 16:09:38.539350 15256 net.cpp:148] Top shape: 10 256 13 13 (432640)
I0720 16:09:38.539361 15256 net.cpp:156] Memory required for data: 53405240
I0720 16:09:38.539378 15256 layer_factory.hpp:77] Creating layer conv3
I0720 16:09:38.540160 15256 net.cpp:91] Creating Layer conv3
I0720 16:09:38.540199 15256 net.cpp:425] conv3 <- norm2
I0720 16:09:38.540231 15256 net.cpp:399] conv3 -> conv3
I0720 16:09:38.585932 15273 net.cpp:141] Setting up conv3
I0720 16:09:38.586035 15273 net.cpp:148] Top shape: 10 384 13 13 (648960)
I0720 16:09:38.586050 15273 net.cpp:156] Memory required for data: 56001080
I0720 16:09:38.586105 15273 layer_factory.hpp:77] Creating layer relu3
I0720 16:09:38.586153 15273 net.cpp:91] Creating Layer relu3
I0720 16:09:38.586170 15273 net.cpp:425] relu3 <- conv3
I0720 16:09:38.586191 15273 net.cpp:386] relu3 -> conv3 (in-place)
I0720 16:09:38.594132 15273 net.cpp:141] Setting up relu3
I0720 16:09:38.594225 15273 net.cpp:148] Top shape: 10 384 13 13 (648960)
I0720 16:09:38.594238 15273 net.cpp:156] Memory required for data: 58596920
I0720 16:09:38.594257 15273 layer_factory.hpp:77] Creating layer conv4
I0720 16:09:38.594313 15273 net.cpp:91] Creating Layer conv4
I0720 16:09:38.594321 15256 net.cpp:141] Setting up conv3
I0720 16:09:38.594331 15273 net.cpp:425] conv4 <- conv3
I0720 16:09:38.594347 15256 net.cpp:148] Top shape: 10 384 13 13 (648960)
I0720 16:09:38.594357 15256 net.cpp:156] Memory required for data: 56001080
I0720 16:09:38.594365 15273 net.cpp:399] conv4 -> conv4
I0720 16:09:38.594388 15256 layer_factory.hpp:77] Creating layer relu3
I0720 16:09:38.595062 15256 net.cpp:91] Creating Layer relu3
I0720 16:09:38.595098 15256 net.cpp:425] relu3 <- conv3
I0720 16:09:38.595115 15256 net.cpp:386] relu3 -> conv3 (in-place)
I0720 16:09:38.603301 15256 net.cpp:141] Setting up relu3
I0720 16:09:38.603390 15256 net.cpp:148] Top shape: 10 384 13 13 (648960)
I0720 16:09:38.603400 15256 net.cpp:156] Memory required for data: 58596920
I0720 16:09:38.603420 15256 layer_factory.hpp:77] Creating layer conv4
I0720 16:09:38.603479 15256 net.cpp:91] Creating Layer conv4
I0720 16:09:38.603493 15256 net.cpp:425] conv4 <- conv3
I0720 16:09:38.603513 15256 net.cpp:399] conv4 -> conv4
I0720 16:09:38.608522 15252 net.cpp:752] Ignoring source layer data
I0720 16:09:38.608564 15252 net.cpp:752] Ignoring source layer cont_sentence_data_0_split
I0720 16:09:38.608569 15252 net.cpp:752] Ignoring source layer reshape_stg_indicator
I0720 16:09:38.608779 15282 net.cpp:752] Ignoring source layer data
I0720 16:09:38.608793 15282 net.cpp:752] Ignoring source layer cont_sentence_data_0_split
I0720 16:09:38.608798 15282 net.cpp:752] Ignoring source layer reshape_stg_indicator
I0720 16:09:38.655668 15273 net.cpp:141] Setting up conv4
I0720 16:09:38.655767 15273 net.cpp:148] Top shape: 10 384 13 13 (648960)
I0720 16:09:38.655782 15273 net.cpp:156] Memory required for data: 61192760
I0720 16:09:38.655817 15273 layer_factory.hpp:77] Creating layer relu4
I0720 16:09:38.655866 15273 net.cpp:91] Creating Layer relu4
I0720 16:09:38.655884 15273 net.cpp:425] relu4 <- conv4
I0720 16:09:38.655905 15273 net.cpp:386] relu4 -> conv4 (in-place)
I0720 16:09:38.661387 15256 net.cpp:141] Setting up conv4
I0720 16:09:38.661422 15273 net.cpp:141] Setting up relu4
I0720 16:09:38.661499 15256 net.cpp:148] Top shape: 10 384 13 13 (648960)
I0720 16:09:38.661499 15273 net.cpp:148] Top shape: 10 384 13 13 (648960)
I0720 16:09:38.661517 15256 net.cpp:156] Memory required for data: 61192760
I0720 16:09:38.661523 15273 net.cpp:156] Memory required for data: 63788600
I0720 16:09:38.661542 15273 layer_factory.hpp:77] Creating layer conv5
I0720 16:09:38.661551 15256 layer_factory.hpp:77] Creating layer relu4
I0720 16:09:38.661587 15256 net.cpp:91] Creating Layer relu4
I0720 16:09:38.661592 15273 net.cpp:91] Creating Layer conv5
I0720 16:09:38.661603 15256 net.cpp:425] relu4 <- conv4
I0720 16:09:38.661607 15273 net.cpp:425] conv5 <- conv4
I0720 16:09:38.661624 15256 net.cpp:386] relu4 -> conv4 (in-place)
I0720 16:09:38.661633 15273 net.cpp:399] conv5 -> conv5
I0720 16:09:38.666290 15250 net.cpp:752] Ignoring source layer data
I0720 16:09:38.666370 15250 net.cpp:752] Ignoring source layer cont_sentence_data_0_split
I0720 16:09:38.666381 15250 net.cpp:752] Ignoring source layer reshape_stg_indicator
I0720 16:09:38.667210 15256 net.cpp:141] Setting up relu4
I0720 16:09:38.667284 15256 net.cpp:148] Top shape: 10 384 13 13 (648960)
I0720 16:09:38.667295 15256 net.cpp:156] Memory required for data: 63788600
I0720 16:09:38.667314 15256 layer_factory.hpp:77] Creating layer conv5
I0720 16:09:38.667373 15256 net.cpp:91] Creating Layer conv5
I0720 16:09:38.667392 15256 net.cpp:425] conv5 <- conv4
I0720 16:09:38.667414 15256 net.cpp:399] conv5 -> conv5
I0720 16:09:38.675076 15248 net.cpp:752] Ignoring source layer data
…
I0720 16:09:38.727794 15258 net.cpp:752] Ignoring source layer cont_sentence_data_0_split
I0720 16:09:38.727802 15258 net.cpp:752] Ignoring source layer reshape_stg_indicator
I0720 16:09:38.731072 15282 net.cpp:752] Ignoring source layer cross_entropy_loss
I0720 16:09:38.735091 15260 net.cpp:752] Ignoring source layer data
I0720 16:09:38.735195 15260 net.cpp:752] Ignoring source layer cont_sentence_data_0_split
I0720 16:09:38.735204 15260 net.cpp:752] Ignoring source layer reshape_stg_indicator
I0720 16:09:38.737006 15252 net.cpp:752] Ignoring source layer cross_entropy_loss
I0720 16:09:38.741116 15256 net.cpp:141] Setting up conv5
I0720 16:09:38.741255 15256 net.cpp:148] Top shape: 10 256 13 13 (432640)
I0720 16:09:38.741276 15256 net.cpp:156] Memory required for data: 65519160
I0720 16:09:38.741343 15256 layer_factory.hpp:77] Creating layer relu5
I0720 16:09:38.741426 15256 net.cpp:91] Creating Layer relu5
I0720 16:09:38.741451 15256 net.cpp:425] relu5 <- conv5
I0720 16:09:38.741480 15256 net.cpp:386] relu5 -> conv5 (in-place)
I0720 16:09:38.746919 15244 net.cpp:752] Ignoring source layer data
I0720 16:09:38.746995 15244 net.cpp:752] Ignoring source layer cont_sentence_data_0_split
I0720 16:09:38.747000 15244 net.cpp:752] Ignoring source layer reshape_stg_indicator
I0720 16:09:38.749500 15256 net.cpp:141] Setting up relu5
I0720 16:09:38.749558 15273 net.cpp:141] Setting up conv5
I0720 16:09:38.749658 15256 net.cpp:148] Top shape: 10 256 13 13 (432640)
I0720 16:09:38.749678 15256 net.cpp:156] Memory required for data: 67249720
I0720 16:09:38.749686 15273 net.cpp:148] Top shape: 10 256 13 13 (432640)
I0720 16:09:38.749707 15273 net.cpp:156] Memory required for data: 65519160
I0720 16:09:38.749707 15256 layer_factory.hpp:77] Creating layer pool5
I0720 16:09:38.749800 15256 net.cpp:91] Creating Layer pool5
I0720 16:09:38.749809 15273 layer_factory.hpp:77] Creating layer relu5
I0720 16:09:38.749828 15256 net.cpp:425] pool5 <- conv5
I0720 16:09:38.749866 15273 net.cpp:91] Creating Layer relu5
I0720 16:09:38.749873 15256 net.cpp:399] pool5 -> pool5
I0720 16:09:38.749891 15273 net.cpp:425] relu5 <- conv5
I0720 16:09:38.749923 15273 net.cpp:386] relu5 -> conv5 (in-place)
I0720 16:09:38.757244 15256 net.cpp:141] Setting up pool5
I0720 16:09:38.757378 15256 net.cpp:148] Top shape: 10 256 6 6 (92160)
I0720 16:09:38.757395 15256 net.cpp:156] Memory required for data: 67618360
I0720 16:09:38.757419 15256 layer_factory.hpp:77] Creating layer fc6
I0720 16:09:38.757498 15256 net.cpp:91] Creating Layer fc6
I0720 16:09:38.757521 15256 net.cpp:425] fc6 <- pool5
I0720 16:09:38.757557 15256 net.cpp:399] fc6 -> fc6
I0720 16:09:38.757553 15273 net.cpp:141] Setting up relu5
I0720 16:09:38.757663 15273 net.cpp:148] Top shape: 10 256 13 13 (432640)
I0720 16:09:38.757678 15273 net.cpp:156] Memory required for data: 67249720
I0720 16:09:38.757699 15273 layer_factory.hpp:77] Creating layer pool5
I0720 16:09:38.757752 15273 net.cpp:91] Creating Layer pool5
I0720 16:09:38.757773 15273 net.cpp:425] pool5 <- conv5
I0720 16:09:38.757802 15273 net.cpp:399] pool5 -> pool5
I0720 16:09:38.808640 15248 net.cpp:752] Ignoring source layer cross_entropy_loss
I0720 16:09:38.817596 15250 net.cpp:752] Ignoring source layer cross_entropy_loss
I0720 16:09:38.823114 15278 net.cpp:752] Ignoring source layer cross_entropy_loss
I0720 16:09:38.845880 15258 net.cpp:752] Ignoring source layer cross_entropy_loss
I0720 16:09:38.860443 15262 net.cpp:752] Ignoring source layer cross_entropy_loss
I0720 16:09:38.862495 15244 net.cpp:752] Ignoring source layer cross_entropy_loss
I0720 16:09:38.865308 15275 net.cpp:752] Ignoring source layer data
I0720 16:09:38.865345 15275 net.cpp:752] Ignoring source layer cont_sentence_data_0_split
I0720 16:09:38.865353 15275 net.cpp:752] Ignoring source layer reshape_stg_indicator
I0720 16:09:38.865310 15273 net.cpp:141] Setting up pool5
I0720 16:09:38.865391 15273 net.cpp:148] Top shape: 10 256 6 6 (92160)
I0720 16:09:38.865402 15273 net.cpp:156] Memory required for data: 67618360
I0720 16:09:38.865416 15273 layer_factory.hpp:77] Creating layer fc6
I0720 16:09:38.865728 15273 net.cpp:91] Creating Layer fc6
I0720 16:09:38.865744 15273 net.cpp:425] fc6 <- pool5
I0720 16:09:38.865761 15273 net.cpp:399] fc6 -> fc6
I0720 16:09:38.874485 15260 net.cpp:752] Ignoring source layer cross_entropy_loss
I0720 16:09:38.938233 15256 net.cpp:141] Setting up fc6
I0720 16:09:38.938297 15256 net.cpp:148] Top shape: 10 4096 (40960)
I0720 16:09:38.938308 15256 net.cpp:156] Memory required for data: 67782200
I0720 16:09:38.938331 15256 layer_factory.hpp:77] Creating layer relu6
I0720 16:09:38.938355 15256 net.cpp:91] Creating Layer relu6
I0720 16:09:38.938367 15256 net.cpp:425] relu6 <- fc6
I0720 16:09:38.938382 15256 net.cpp:386] relu6 -> fc6 (in-place)
I0720 16:09:38.941864 15256 net.cpp:141] Setting up relu6
I0720 16:09:38.941928 15256 net.cpp:148] Top shape: 10 4096 (40960)
I0720 16:09:38.941938 15256 net.cpp:156] Memory required for data: 67946040
I0720 16:09:38.941954 15256 layer_factory.hpp:77] Creating layer drop6
I0720 16:09:38.941982 15256 net.cpp:91] Creating Layer drop6
I0720 16:09:38.941992 15256 net.cpp:425] drop6 <- fc6
I0720 16:09:38.942010 15256 net.cpp:386] drop6 -> fc6 (in-place)
I0720 16:09:38.942188 15256 net.cpp:141] Setting up drop6
I0720 16:09:38.942203 15256 net.cpp:148] Top shape: 10 4096 (40960)
I0720 16:09:38.942209 15256 net.cpp:156] Memory required for data: 68109880
I0720 16:09:38.942217 15256 layer_factory.hpp:77] Creating layer fc7
I0720 16:09:38.942236 15256 net.cpp:91] Creating Layer fc7
I0720 16:09:38.942245 15256 net.cpp:425] fc7 <- fc6
I0720 16:09:38.942257 15256 net.cpp:399] fc7 -> fc7
I0720 16:09:38.950959 15275 net.cpp:752] Ignoring source layer cross_entropy_loss
I0720 16:09:38.978834 15273 net.cpp:141] Setting up fc6
I0720 16:09:38.978876 15273 net.cpp:148] Top shape: 10 4096 (40960)
I0720 16:09:38.978883 15273 net.cpp:156] Memory required for data: 67782200
I0720 16:09:38.978896 15273 layer_factory.hpp:77] Creating layer relu6
I0720 16:09:38.978914 15273 net.cpp:91] Creating Layer relu6
I0720 16:09:38.978920 15273 net.cpp:425] relu6 <- fc6
I0720 16:09:38.978929 15273 net.cpp:386] relu6 -> fc6 (in-place)
I0720 16:09:38.979274 15273 net.cpp:141] Setting up relu6
I0720 16:09:38.979285 15273 net.cpp:148] Top shape: 10 4096 (40960)
I0720 16:09:38.979290 15273 net.cpp:156] Memory required for data: 67946040
I0720 16:09:38.979293 15273 layer_factory.hpp:77] Creating layer drop6
I0720 16:09:38.979307 15273 net.cpp:91] Creating Layer drop6
I0720 16:09:38.979312 15273 net.cpp:425] drop6 <- fc6
I0720 16:09:38.979322 15273 net.cpp:386] drop6 -> fc6 (in-place)
I0720 16:09:38.979401 15273 net.cpp:141] Setting up drop6
I0720 16:09:38.979413 15273 net.cpp:148] Top shape: 10 4096 (40960)
I0720 16:09:38.979416 15273 net.cpp:156] Memory required for data: 68109880
I0720 16:09:38.979420 15273 layer_factory.hpp:77] Creating layer fc7
I0720 16:09:38.979430 15273 net.cpp:91] Creating Layer fc7
I0720 16:09:38.979434 15273 net.cpp:425] fc7 <- fc6
I0720 16:09:38.979444 15273 net.cpp:399] fc7 -> fc7
I0720 16:09:39.010565 15256 net.cpp:141] Setting up fc7
I0720 16:09:39.010602 15256 net.cpp:148] Top shape: 10 4096 (40960)
I0720 16:09:39.010608 15256 net.cpp:156] Memory required for data: 68273720
I0720 16:09:39.010622 15256 layer_factory.hpp:77] Creating layer relu7
I0720 16:09:39.010637 15256 net.cpp:91] Creating Layer relu7
I0720 16:09:39.010644 15256 net.cpp:425] relu7 <- fc7
I0720 16:09:39.010653 15256 net.cpp:386] relu7 -> fc7 (in-place)
I0720 16:09:39.011039 15256 net.cpp:141] Setting up relu7
I0720 16:09:39.011052 15256 net.cpp:148] Top shape: 10 4096 (40960)
I0720 16:09:39.011057 15256 net.cpp:156] Memory required for data: 68437560
I0720 16:09:39.011061 15256 layer_factory.hpp:77] Creating layer drop7
I0720 16:09:39.011088 15256 net.cpp:91] Creating Layer drop7
I0720 16:09:39.011095 15256 net.cpp:425] drop7 <- fc7
I0720 16:09:39.011103 15256 net.cpp:386] drop7 -> fc7 (in-place)
I0720 16:09:39.011168 15256 net.cpp:141] Setting up drop7
I0720 16:09:39.011178 15256 net.cpp:148] Top shape: 10 4096 (40960)
I0720 16:09:39.011183 15256 net.cpp:156] Memory required for data: 68601400
I0720 16:09:39.011188 15256 layer_factory.hpp:77] Creating layer fc8
I0720 16:09:39.011198 15256 net.cpp:91] Creating Layer fc8
I0720 16:09:39.011203 15256 net.cpp:425] fc8 <- fc7
I0720 16:09:39.011212 15256 net.cpp:399] fc8 -> fc8
I0720 16:09:39.025316 15256 net.cpp:141] Setting up fc8
I0720 16:09:39.025362 15256 net.cpp:148] Top shape: 10 1000 (10000)
I0720 16:09:39.025367 15256 net.cpp:156] Memory required for data: 68641400
I0720 16:09:39.025382 15256 layer_factory.hpp:77] Creating layer prob
I0720 16:09:39.025403 15256 net.cpp:91] Creating Layer prob
I0720 16:09:39.025410 15256 net.cpp:425] prob <- fc8
I0720 16:09:39.025420 15256 net.cpp:399] prob -> prob
I0720 16:09:39.027195 15256 net.cpp:141] Setting up prob
I0720 16:09:39.027230 15256 net.cpp:148] Top shape: 10 1000 (10000)
I0720 16:09:39.027235 15256 net.cpp:156] Memory required for data: 68681400
I0720 16:09:39.027241 15256 net.cpp:219] prob does not need backward computation.
I0720 16:09:39.027248 15256 net.cpp:219] fc8 does not need backward computation.
I0720 16:09:39.027254 15256 net.cpp:219] drop7 does not need backward computation.
I0720 16:09:39.027258 15256 net.cpp:219] relu7 does not need backward computation.
…
I0720 16:09:39.027328 15256 net.cpp:219] norm1 does not need backward computation.
I0720 16:09:39.027333 15256 net.cpp:219] pool1 does not need backward computation.
I0720 16:09:39.027338 15256 net.cpp:219] relu1 does not need backward computation.
I0720 16:09:39.027341 15256 net.cpp:219] conv1 does not need backward computation.
I0720 16:09:39.027346 15256 net.cpp:219] data does not need backward computation.
I0720 16:09:39.027349 15256 net.cpp:261] This network produces output prob
I0720 16:09:39.027369 15256 net.cpp:274] Network initialization done.
I0720 16:09:39.028395 15273 net.cpp:141] Setting up fc7
I0720 16:09:39.028415 15273 net.cpp:148] Top shape: 10 4096 (40960)
I0720 16:09:39.028420 15273 net.cpp:156] Memory required for data: 68273720
I0720 16:09:39.028432 15273 layer_factory.hpp:77] Creating layer relu7
I0720 16:09:39.028450 15273 net.cpp:91] Creating Layer relu7
I0720 16:09:39.028457 15273 net.cpp:425] relu7 <- fc7
I0720 16:09:39.028465 15273 net.cpp:386] relu7 -> fc7 (in-place)
I0720 16:09:39.029829 15273 net.cpp:141] Setting up relu7
I0720 16:09:39.029844 15273 net.cpp:148] Top shape: 10 4096 (40960)
I0720 16:09:39.029849 15273 net.cpp:156] Memory required for data: 68437560
I0720 16:09:39.029853 15273 layer_factory.hpp:77] Creating layer drop7
I0720 16:09:39.029871 15273 net.cpp:91] Creating Layer drop7
I0720 16:09:39.029877 15273 net.cpp:425] drop7 <- fc7
I0720 16:09:39.029884 15273 net.cpp:386] drop7 -> fc7 (in-place)
I0720 16:09:39.029950 15273 net.cpp:141] Setting up drop7
I0720 16:09:39.029959 15273 net.cpp:148] Top shape: 10 4096 (40960)
I0720 16:09:39.029964 15273 net.cpp:156] Memory required for data: 68601400
I0720 16:09:39.029968 15273 layer_factory.hpp:77] Creating layer fc8
I0720 16:09:39.029981 15273 net.cpp:91] Creating Layer fc8
I0720 16:09:39.029986 15273 net.cpp:425] fc8 <- fc7
I0720 16:09:39.029994 15273 net.cpp:399] fc8 -> fc8
I0720 16:09:39.043133 15273 net.cpp:141] Setting up fc8
I0720 16:09:39.043186 15273 net.cpp:148] Top shape: 10 1000 (10000)
I0720 16:09:39.043191 15273 net.cpp:156] Memory required for data: 68641400
I0720 16:09:39.043205 15273 layer_factory.hpp:77] Creating layer prob
I0720 16:09:39.043222 15273 net.cpp:91] Creating Layer prob
I0720 16:09:39.043229 15273 net.cpp:425] prob <- fc8
I0720 16:09:39.043238 15273 net.cpp:399] prob -> prob
I0720 16:09:39.044201 15273 net.cpp:141] Setting up prob
I0720 16:09:39.044215 15273 net.cpp:148] Top shape: 10 1000 (10000)
I0720 16:09:39.044227 15273 net.cpp:156] Memory required for data: 68681400
I0720 16:09:39.044232 15273 net.cpp:219] prob does not need backward computation.
I0720 16:09:39.044237 15273 net.cpp:219] fc8 does not need backward computation.
I0720 16:09:39.044241 15273 net.cpp:219] drop7 does not need backward computation.
I0720 16:09:39.044245 15273 net.cpp:219] relu7 does not need backward computation.
…
