…
2016-07-20 16:09:36.442 STDERR [INFO] I0720 16:09:36.403410 15252 net.cpp:91] Creating Layer input
2016-07-20 16:09:36.442 STDERR [INFO] I0720 16:09:36.403419 15252 net.cpp:399] input -> frames_fc7
2016-07-20 16:09:36.442 STDERR [INFO] I0720 16:09:36.403432 15252 net.cpp:399] input -> cont_sentence
2016-07-20 16:09:36.443 STDERR [INFO] I0720 16:09:36.403442 15252 net.cpp:399] input -> input_sentence
2016-07-20 16:09:36.443 STDERR [INFO] I0720 16:09:36.403451 15252 net.cpp:399] input -> stage_indicator
2016-07-20 16:09:36.443 STDERR [INFO] I0720 16:09:36.403463 15252 net.cpp:141] Setting up input
2016-07-20 16:09:36.443 STDERR [INFO] I0720 16:09:36.403470 15252 net.cpp:148] Top shape: 1 4096 (4096)
2016-07-20 16:09:36.443 STDERR [INFO] I0720 16:09:36.403476 15252 net.cpp:148] Top shape: 1 1 (1)
2016-07-20 16:09:36.443 STDERR [INFO] I0720 16:09:36.403481 15252 net.cpp:148] Top shape: 1 1 (1)
2016-07-20 16:09:36.443 STDERR [INFO] I0720 16:09:36.403486 15252 net.cpp:148] Top shape: 1 1 (1)
2016-07-20 16:09:36.443 STDERR [INFO] I0720 16:09:36.403489 15252 net.cpp:156] Memory required for data: 16396
2016-07-20 16:09:36.443 STDERR [INFO] I0720 16:09:36.403494 15252 layer_factory.hpp:77] Creating layer cont_sentence_input_1_split
2016-07-20 16:09:36.444 STDERR [INFO] I0720 16:09:36.403502 15252 net.cpp:91] Creating Layer cont_sentence_input_1_split
2016-07-20 16:09:36.444 STDERR [INFO] I0720 16:09:36.403506 15252 net.cpp:425] cont_sentence_input_1_split <- cont_sentence
2016-07-20 16:09:36.444 STDERR [INFO] I0720 16:09:36.403513 15252 net.cpp:399] cont_sentence_input_1_split -> cont_sentence_input_1_split_0
2016-07-20 16:09:36.444 STDERR [INFO] I0720 16:09:36.403522 15252 net.cpp:399] cont_sentence_input_1_split -> cont_sentence_input_1_split_1
2016-07-20 16:09:36.444 STDERR [INFO] I0720 16:09:36.403532 15252 net.cpp:141] Setting up cont_sentence_input_1_split
2016-07-20 16:09:36.444 STDERR [INFO] I0720 16:09:36.403537 15252 net.cpp:148] Top shape: 1 1 (1)
2016-07-20 16:09:36.444 STDERR [INFO] I0720 16:09:36.403542 15252 net.cpp:148] Top shape: 1 1 (1)
2016-07-20 16:09:36.444 STDERR [INFO] I0720 16:09:36.403547 15252 net.cpp:156] Memory required for data: 16404
2016-07-20 16:09:36.444 STDERR [INFO] I0720 16:09:36.403550 15252 layer_factory.hpp:77] Creating layer embed_encoder
2016-07-20 16:09:36.444 STDERR [INFO] I0720 16:09:36.403635 15252 net.cpp:91] Creating Layer embed_encoder
2016-07-20 16:09:36.445 STDERR [INFO] I0720 16:09:36.403674 15252 net.cpp:425] embed_encoder <- frames_fc7
…
2016-07-20 16:09:36.608 STDERR [INFO]   }
2016-07-20 16:09:36.608 STDERR [INFO] }
2016-07-20 16:09:36.608 STDERR [INFO] layer {
2016-07-20 16:09:36.608 STDERR [INFO]   name: "probs"
2016-07-20 16:09:36.608 STDERR [INFO]   type: "Softmax"
2016-07-20 16:09:36.609 STDERR [INFO]   bottom: "predict"
2016-07-20 16:09:36.609 STDERR [INFO]   top: "probs"
2016-07-20 16:09:36.609 STDERR [INFO]   softmax_param {
2016-07-20 16:09:36.609 STDERR [INFO]     axis: 2
2016-07-20 16:09:36.609 STDERR [INFO]   }
2016-07-20 16:09:36.609 STDERR [INFO] }
2016-07-20 16:09:36.609 STDERR [INFO] I0720 16:09:36.408160 15248 net.cpp:148] Top shape: 1 4096 (4096)
2016-07-20 16:09:36.609 n.t.s.b.CVParticleBolt [INFO] [Timing] RequestID: 0 StreamID: home/peifeng/work/data/frame.320x240.jpg SequenceNr: 94 Entering scale: 1469045376609
2016-07-20 16:09:36.609 STDERR [INFO] I0720 16:09:36.408141 15244 net.cpp:399] input -> input_sentence
2016-07-20 16:09:36.609 STDERR [INFO] I0720 16:09:36.408192 15248 net.cpp:148] Top shape: 1 1 (1)
2016-07-20 16:09:36.609 STDERR [INFO] I0720 16:09:36.408200 15248 net.cpp:148] Top shape: 1 1 (1)
2016-07-20 16:09:36.609 STDERR [INFO] I0720 16:09:36.408197 15260 layer_factory.hpp:77] Creating layer input
2016-07-20 16:09:36.610 STDERR [INFO] I0720 16:09:36.408205 15244 net.cpp:399] input -> stage_indicator
2016-07-20 16:09:36.610 STDERR [INFO] I0720 16:09:36.408210 15248 net.cpp:148] Top shape: 1 1 (1)
2016-07-20 16:09:36.610 STDERR [INFO] I0720 16:09:36.408220 15248 net.cpp:156] Memory required for data: 16396
2016-07-20 16:09:36.610 STDERR [INFO] I0720 16:09:36.408221 15260 net.cpp:91] Creating Layer input
2016-07-20 16:09:36.610 STDERR [INFO] I0720 16:09:36.408227 15244 net.cpp:141] Setting up input
2016-07-20 16:09:36.610 STDERR [INFO] I0720 16:09:36.408224 15248 layer_factory.hpp:77] Creating layer cont_sentence_input_1_split
2016-07-20 16:09:36.610 STDERR [INFO] I0720 16:09:36.408239 15244 net.cpp:148] Top shape: 1 4096 (4096)
2016-07-20 16:09:36.610 STDERR [INFO] I0720 16:09:36.408241 15260 net.cpp:399] input -> frames_fc7
2016-07-20 16:09:36.610 STDERR [INFO] I0720 16:09:36.408252 15244 net.cpp:148] Top shape: 1 1 (1)
2016-07-20 16:09:36.611 STDERR [INFO] I0720 16:09:36.408246 15248 net.cpp:91] Creating Layer cont_sentence_input_1_split
2016-07-20 16:09:36.611 STDERR [INFO] I0720 16:09:36.408257 15262 layer_factory.hpp:77] Creating layer input
2016-07-20 16:09:36.611 STDERR [INFO] I0720 16:09:36.408251 15258 layer_factory.hpp:77] Creating layer input
2016-07-20 16:09:36.611 STDERR [INFO] I0720 16:09:36.408272 15260 net.cpp:399] input -> cont_sentence
2016-07-20 16:09:36.611 STDERR [INFO] I0720 16:09:36.408267 15248 net.cpp:425] cont_sentence_input_1_split <- cont_sentence
2016-07-20 16:09:36.611 STDERR [INFO] I0720 16:09:36.408264 15244 net.cpp:148] Top shape: 1 1 (1)
2016-07-20 16:09:36.611 STDERR [INFO] I0720 16:09:36.408287 15262 net.cpp:91] Creating Layer input
2016-07-20 16:09:36.611 STDERR [INFO] I0720 16:09:36.408293 15248 net.cpp:399] cont_sentence_input_1_split -> cont_sentence_input_1_split_0
2016-07-20 16:09:36.611 STDERR [INFO] I0720 16:09:36.408293 15258 net.cpp:91] Creating Layer input
2016-07-20 16:09:36.611 STDERR [INFO] I0720 16:09:36.408300 15260 net.cpp:399] input -> input_sentence
2016-07-20 16:09:36.611 STDERR [INFO] I0720 16:09:36.408298 15244 net.cpp:148] Top shape: 1 1 (1)
2016-07-20 16:09:36.612 STDERR [INFO] I0720 16:09:36.408305 15262 net.cpp:399] input -> frames_fc7
2016-07-20 16:09:36.612 STDERR [INFO] I0720 16:09:36.408304 15248 net.cpp:399] cont_sentence_input_1_split -> cont_sentence_input_1_split_1
2016-07-20 16:09:36.612 STDERR [INFO] I0720 16:09:36.408315 15258 net.cpp:399] input -> frames_fc7
2016-07-20 16:09:36.612 STDERR [INFO] I0720 16:09:36.408318 15244 net.cpp:156] Memory required for data: 16396
2016-07-20 16:09:36.612 STDERR [INFO] I0720 16:09:36.408329 15260 net.cpp:399] input -> stage_indicator
2016-07-20 16:09:36.612 STDERR [INFO] I0720 16:09:36.408337 15244 layer_factory.hpp:77] Creating layer cont_sentence_input_1_split
2016-07-20 16:09:36.612 STDERR [INFO] I0720 16:09:36.408342 15258 net.cpp:399] input -> cont_sentence
2016-07-20 16:09:36.612 STDERR [INFO] I0720 16:09:36.408336 15262 net.cpp:399] input -> cont_sentence
2016-07-20 16:09:36.612 STDERR [INFO] I0720 16:09:36.408329 15248 net.cpp:141] Setting up cont_sentence_input_1_split
2016-07-20 16:09:36.612 STDERR [INFO] I0720 16:09:36.408355 15244 net.cpp:91] Creating Layer cont_sentence_input_1_split
2016-07-20 16:09:36.613 STDERR [INFO] I0720 16:09:36.408360 15260 net.cpp:141] Setting up input
2016-07-20 16:09:36.613 STDERR [INFO] I0720 16:09:36.408370 15258 net.cpp:399] input -> input_sentence
2016-07-20 16:09:36.613 STDERR [INFO] I0720 16:09:36.408366 15248 net.cpp:148] Top shape: 1 1 (1)
2016-07-20 16:09:36.613 STDERR [INFO] I0720 16:09:36.408366 15244 net.cpp:425] cont_sentence_input_1_split <- cont_sentence
2016-07-20 16:09:36.614 STDERR [INFO] I0720 16:09:36.408378 15278 layer_factory.hpp:77] Creating layer input
2016-07-20 16:09:36.614 STDERR [INFO] I0720 16:09:36.408375 15262 net.cpp:399] input -> input_sentence
2016-07-20 16:09:36.614 STDERR [INFO] I0720 16:09:36.408396 15275 layer_factory.hpp:77] Creating layer input
2016-07-20 16:09:36.614 STDERR [INFO] I0720 16:09:36.408407 15278 net.cpp:91] Creating Layer input
2016-07-20 16:09:36.614 STDERR [INFO] I0720 16:09:36.408387 15248 net.cpp:148] Top shape: 1 1 (1)
2016-07-20 16:09:36.614 STDERR [INFO] I0720 16:09:36.408393 15258 net.cpp:399] input -> stage_indicator
2016-07-20 16:09:36.614 STDERR [INFO] I0720 16:09:36.408426 15248 net.cpp:156] Memory required for data: 16404
2016-07-20 16:09:36.614 STDERR [INFO] I0720 16:09:36.408383 15260 net.cpp:148] Top shape: 1 4096 (4096)
2016-07-20 16:09:36.614 STDERR [INFO] I0720 16:09:36.408432 15248 layer_factory.hpp:77] Creating layer embed_encoder
2016-07-20 16:09:36.614 STDERR [INFO] I0720 16:09:36.408430 15275 net.cpp:91] Creating Layer input
2016-07-20 16:09:36.614 STDERR [INFO] I0720 16:09:36.408428 15278 net.cpp:399] input -> frames_fc7
2016-07-20 16:09:36.615 STDERR [INFO] I0720 16:09:36.408432 15262 net.cpp:399] input -> stage_indicator
2016-07-20 16:09:36.615 STDERR [INFO] I0720 16:09:36.408396 15244 net.cpp:399] cont_sentence_input_1_split -> cont_sentence_input_1_split_0
2016-07-20 16:09:36.615 STDERR [INFO] I0720 16:09:36.408447 15248 net.cpp:91] Creating Layer embed_encoder
2016-07-20 16:09:36.615 STDERR [INFO] I0720 16:09:36.408454 15275 net.cpp:399] input -> frames_fc7
2016-07-20 16:09:36.615 STDERR [INFO] I0720 16:09:36.408448 15260 net.cpp:148] Top shape: 1 1 (1)
2016-07-20 16:09:36.615 n.t.s.b.CVParticleBolt [INFO] [Timing] RequestID: 0 StreamID: home/peifeng/work/data/frame.320x240.jpg SequenceNr: 93 Leaving scale: 1469045376615 Size: 3530
2016-07-20 16:09:36.615 STDERR [INFO] I0720 16:09:36.408465 15278 net.cpp:399] input -> cont_sentence
2016-07-20 16:09:36.615 STDERR [INFO] I0720 16:09:36.408469 15262 net.cpp:141] Setting up input
2016-07-20 16:09:36.615 STDERR [INFO] I0720 16:09:36.408463 15248 net.cpp:425] embed_encoder <- frames_fc7
2016-07-20 16:09:36.615 STDERR [INFO] I0720 16:09:36.408478 15260 net.cpp:148] Top shape: 1 1 (1)
2016-07-20 16:09:36.615 STDERR [INFO] I0720 16:09:36.408447 15258 net.cpp:141] Setting up input
2016-07-20 16:09:36.616 STDERR [INFO] I0720 16:09:36.408469 15244 net.cpp:399] cont_sentence_input_1_split -> cont_sentence_input_1_split_1
2016-07-20 16:09:36.616 STDERR [INFO] I0720 16:09:36.408489 15262 net.cpp:148] Top shape: 1 4096 (4096)
2016-07-20 16:09:36.616 STDERR [INFO] I0720 16:09:36.408490 15248 net.cpp:399] embed_encoder -> embedded_in_frames
2016-07-20 16:09:36.616 STDERR [INFO] I0720 16:09:36.408489 15278 net.cpp:399] input -> input_sentence
2016-07-20 16:09:36.616 STDERR [INFO] I0720 16:09:36.408496 15260 net.cpp:148] Top shape: 1 1 (1)
2016-07-20 16:09:36.616 STDERR [INFO] I0720 16:09:36.408509 15244 net.cpp:141] Setting up cont_sentence_input_1_split
2016-07-20 16:09:36.616 STDERR [INFO] I0720 16:09:36.408512 15262 net.cpp:148] Top shape: 1 1 (1)
2016-07-20 16:09:36.616 STDERR [INFO] I0720 16:09:36.408509 15258 net.cpp:148] Top shape: 1 4096 (4096)
2016-07-20 16:09:36.616 STDERR [INFO] I0720 16:09:36.408483 15275 net.cpp:399] input -> cont_sentence
2016-07-20 16:09:36.616 STDERR [INFO] I0720 16:09:36.408524 15244 net.cpp:148] Top shape: 1 1 (1)
2016-07-20 16:09:36.617 STDERR [INFO] I0720 16:09:36.408527 15278 net.cpp:399] input -> stage_indicator
2016-07-20 16:09:36.617 STDERR [INFO] I0720 16:09:36.408521 15260 net.cpp:156] Memory required for data: 16396
2016-07-20 16:09:36.617 STDERR [INFO] I0720 16:09:36.408529 15262 net.cpp:148] Top shape: 1 1 (1)
2016-07-20 16:09:36.617 STDERR [INFO] I0720 16:09:36.408534 15258 net.cpp:148] Top shape: 1 1 (1)
2016-07-20 16:09:36.617 STDERR [INFO] I0720 16:09:36.408536 15244 net.cpp:148] Top shape: 1 1 (1)
2016-07-20 16:09:36.617 n.t.s.b.CVParticleBolt [INFO] [Timing] RequestID: 0 StreamID: home/peifeng/work/data/frame.320x240.jpg SequenceNr: 94 Leaving scale: 1469045376617 Size: 3530
2016-07-20 16:09:36.617 STDERR [INFO] I0720 16:09:36.408548 15260 layer_factory.hpp:77] Creating layer cont_sentence_input_1_split
2016-07-20 16:09:36.618 STDERR [INFO] I0720 16:09:36.408555 15244 net.cpp:156] Memory required for data: 16404
2016-07-20 16:09:36.618 STDERR [INFO] I0720 16:09:36.408555 15275 net.cpp:399] input -> input_sentence
2016-07-20 16:09:36.618 STDERR [INFO] I0720 16:09:36.408555 15262 net.cpp:148] Top shape: 1 1 (1)
2016-07-20 16:09:36.618 STDERR [INFO] I0720 16:09:36.408568 15244 layer_factory.hpp:77] Creating layer embed_encoder
2016-07-20 16:09:36.618 STDERR [INFO] I0720 16:09:36.408553 15278 net.cpp:141] Setting up input
2016-07-20 16:09:36.618 STDERR [INFO] I0720 16:09:36.408556 15258 net.cpp:148] Top shape: 1 1 (1)
2016-07-20 16:09:36.618 STDERR [INFO] I0720 16:09:36.408570 15260 net.cpp:91] Creating Layer cont_sentence_input_1_split
2016-07-20 16:09:36.618 STDERR [INFO] I0720 16:09:36.408587 15244 net.cpp:91] Creating Layer embed_encoder
2016-07-20 16:09:36.619 STDERR [INFO] I0720 16:09:36.408593 15278 net.cpp:148] Top shape: 1 4096 (4096)
2016-07-20 16:09:36.619 n.t.s.s.CVParticleSpout [INFO] [Timing] RequestID: 0 StreamID: home/peifeng/work/data/frame.320x240.jpg SequenceNr: 94 Leaving fetcher: 1469045376609 Size: 8702
2016-07-20 16:09:36.619 STDERR [INFO] I0720 16:09:36.408597 15258 net.cpp:148] Top shape: 1 1 (1)
2016-07-20 16:09:36.619 STDERR [INFO] I0720 16:09:36.408579 15262 net.cpp:156] Memory required for data: 16396
2016-07-20 16:09:36.619 STDERR [INFO] I0720 16:09:36.408594 15275 net.cpp:399] input -> stage_indicator
2016-07-20 16:09:36.619 STDERR [INFO] I0720 16:09:36.408599 15244 net.cpp:425] embed_encoder <- frames_fc7
2016-07-20 16:09:36.619 STDERR [INFO] I0720 16:09:36.408612 15278 net.cpp:148] Top shape: 1 1 (1)
2016-07-20 16:09:36.619 STDERR [INFO] I0720 16:09:36.408594 15260 net.cpp:425] cont_sentence_input_1_split <- cont_sentence
2016-07-20 16:09:36.619 STDERR [INFO] I0720 16:09:36.408613 15262 layer_factory.hpp:77] Creating layer cont_sentence_input_1_split
2016-07-20 16:09:36.619 STDERR [INFO] I0720 16:09:36.408624 15244 net.cpp:399] embed_encoder -> embedded_in_frames
2016-07-20 16:09:36.619 STDERR [INFO] I0720 16:09:36.408630 15278 net.cpp:148] Top shape: 1 1 (1)
2016-07-20 16:09:36.619 STDERR [INFO] I0720 16:09:36.408634 15275 net.cpp:141] Setting up input
2016-07-20 16:09:36.620 STDERR [INFO] I0720 16:09:36.408612 15258 net.cpp:156] Memory required for data: 16396
2016-07-20 16:09:36.620 STDERR [INFO] I0720 16:09:36.408638 15262 net.cpp:91] Creating Layer cont_sentence_input_1_split
2016-07-20 16:09:36.620 STDERR [INFO] I0720 16:09:36.408658 15275 net.cpp:148] Top shape: 1 4096 (4096)
2016-07-20 16:09:36.620 STDERR [INFO] I0720 16:09:36.408663 15258 layer_factory.hpp:77] Creating layer cont_sentence_input_1_split
2016-07-20 16:09:36.620 STDERR [INFO] I0720 16:09:36.408646 15278 net.cpp:148] Top shape: 1 1 (1)
2016-07-20 16:09:36.620 STDERR [INFO] I0720 16:09:36.408654 15260 net.cpp:399] cont_sentence_input_1_split -> cont_sentence_input_1_split_0
2016-07-20 16:09:36.620 STDERR [INFO] I0720 16:09:36.408677 15278 net.cpp:156] Memory required for data: 16396
2016-07-20 16:09:36.620 STDERR [INFO] I0720 16:09:36.408679 15275 net.cpp:148] Top shape: 1 1 (1)
2016-07-20 16:09:36.620 STDERR [INFO] I0720 16:09:36.408680 15258 net.cpp:91] Creating Layer cont_sentence_input_1_split
2016-07-20 16:09:36.620 STDERR [INFO] I0720 16:09:36.408694 15260 net.cpp:399] cont_sentence_input_1_split -> cont_sentence_input_1_split_1
2016-07-20 16:09:36.621 STDERR [INFO] I0720 16:09:36.408670 15262 net.cpp:425] cont_sentence_input_1_split <- cont_sentence
2016-07-20 16:09:36.621 STDERR [INFO] I0720 16:09:36.408705 15258 net.cpp:425] cont_sentence_input_1_split <- cont_sentence
2016-07-20 16:09:36.621 STDERR [INFO] I0720 16:09:36.408699 15275 net.cpp:148] Top shape: 1 1 (1)
2016-07-20 16:09:36.621 STDERR [INFO] I0720 16:09:36.408689 15278 layer_factory.hpp:77] Creating layer cont_sentence_input_1_split
2016-07-20 16:09:36.621 STDERR [INFO] I0720 16:09:36.408722 15262 net.cpp:399] cont_sentence_input_1_split -> cont_sentence_input_1_split_0
2016-07-20 16:09:36.621 STDERR [INFO] I0720 16:09:36.408721 15260 net.cpp:141] Setting up cont_sentence_input_1_split
2016-07-20 16:09:36.621 STDERR [INFO] I0720 16:09:36.408722 15258 net.cpp:399] cont_sentence_input_1_split -> cont_sentence_input_1_split_0
2016-07-20 16:09:36.621 STDERR [INFO] I0720 16:09:36.408732 15275 net.cpp:148] Top shape: 1 1 (1)
2016-07-20 16:09:36.621 STDERR [INFO] I0720 16:09:36.408745 15260 net.cpp:148] Top shape: 1 1 (1)
2016-07-20 16:09:36.621 STDERR [INFO] I0720 16:09:36.408747 15262 net.cpp:399] cont_sentence_input_1_split -> cont_sentence_input_1_split_1
2016-07-20 16:09:36.622 STDERR [INFO] I0720 16:09:36.408756 15275 net.cpp:156] Memory required for data: 16396
2016-07-20 16:09:36.622 STDERR [INFO] I0720 16:09:36.408756 15258 net.cpp:399] cont_sentence_input_1_split -> cont_sentence_input_1_split_1
2016-07-20 16:09:36.622 STDERR [INFO] I0720 16:09:36.408759 15278 net.cpp:91] Creating Layer cont_sentence_input_1_split
2016-07-20 16:09:36.622 STDERR [INFO] I0720 16:09:36.408764 15260 net.cpp:148] Top shape: 1 1 (1)
2016-07-20 16:09:36.622 STDERR [INFO] I0720 16:09:36.408776 15262 net.cpp:141] Setting up cont_sentence_input_1_split
2016-07-20 16:09:36.622 STDERR [INFO] I0720 16:09:36.408779 15278 net.cpp:425] cont_sentence_input_1_split <- cont_sentence
2016-07-20 16:09:36.622 STDERR [INFO] I0720 16:09:36.408774 15275 layer_factory.hpp:77] Creating layer cont_sentence_input_1_split
2016-07-20 16:09:36.622 STDERR [INFO] I0720 16:09:36.408788 15258 net.cpp:141] Setting up cont_sentence_input_1_split
2016-07-20 16:09:36.622 STDERR [INFO] I0720 16:09:36.408790 15260 net.cpp:156] Memory required for data: 16404
2016-07-20 16:09:36.622 STDERR [INFO] I0720 16:09:36.408793 15262 net.cpp:148] Top shape: 1 1 (1)
2016-07-20 16:09:36.622 STDERR [INFO] I0720 16:09:36.408797 15278 net.cpp:399] cont_sentence_input_1_split -> cont_sentence_input_1_split_0
2016-07-20 16:09:36.623 STDERR [INFO] I0720 16:09:36.408803 15258 net.cpp:148] Top shape: 1 1 (1)
2016-07-20 16:09:36.623 STDERR [INFO] I0720 16:09:36.408808 15262 net.cpp:148] Top shape: 1 1 (1)
2016-07-20 16:09:36.623 STDERR [INFO] I0720 16:09:36.408808 15275 net.cpp:91] Creating Layer cont_sentence_input_1_split
2016-07-20 16:09:36.623 STDERR [INFO] I0720 16:09:36.408818 15262 net.cpp:156] Memory required for data: 16404
2016-07-20 16:09:36.623 STDERR [INFO] I0720 16:09:36.408828 15275 net.cpp:425] cont_sentence_input_1_split <- cont_sentence
2016-07-20 16:09:36.623 STDERR [INFO] I0720 16:09:36.408816 15278 net.cpp:399] cont_sentence_input_1_split -> cont_sentence_input_1_split_1
2016-07-20 16:09:36.623 n.t.s.s.CVParticleSpout [INFO] [Timing] RequestID: 0 StreamID: home/peifeng/work/data/frame.320x240.jpg SequenceNr: 95 Leaving fetcher: 1469045376623 Size: 8702
2016-07-20 16:09:36.623 n.t.s.b.CVParticleBolt [INFO] [Timing] RequestID: 0 StreamID: home/peifeng/work/data/frame.320x240.jpg SequenceNr: 95 Entering scale: 1469045376623
2016-07-20 16:09:36.623 STDERR [INFO] I0720 16:09:36.408836 15262 layer_factory.hpp:77] Creating layer embed_encoder
2016-07-20 16:09:36.623 STDERR [INFO] I0720 16:09:36.408803 15260 layer_factory.hpp:77] Creating layer embed_encoder
2016-07-20 16:09:36.623 STDERR [INFO] I0720 16:09:36.408820 15258 net.cpp:148] Top shape: 1 1 (1)
2016-07-20 16:09:36.623 STDERR [INFO] I0720 16:09:36.408855 15278 net.cpp:141] Setting up cont_sentence_input_1_split
2016-07-20 16:09:36.624 STDERR [INFO] I0720 16:09:36.408849 15275 net.cpp:399] cont_sentence_input_1_split -> cont_sentence_input_1_split_0
2016-07-20 16:09:36.624 STDERR [INFO] I0720 16:09:36.408866 15258 net.cpp:156] Memory required for data: 16404
2016-07-20 16:09:36.624 STDERR [INFO] I0720 16:09:36.408871 15278 net.cpp:148] Top shape: 1 1 (1)
2016-07-20 16:09:36.624 STDERR [INFO] I0720 16:09:36.408867 15260 net.cpp:91] Creating Layer embed_encoder
2016-07-20 16:09:36.624 STDERR [INFO] I0720 16:09:36.408884 15258 layer_factory.hpp:77] Creating layer embed_encoder
2016-07-20 16:09:36.624 STDERR [INFO] I0720 16:09:36.408876 15262 net.cpp:91] Creating Layer embed_encoder
2016-07-20 16:09:36.624 STDERR [INFO] I0720 16:09:36.408893 15260 net.cpp:425] embed_encoder <- frames_fc7
2016-07-20 16:09:36.624 STDERR [INFO] I0720 16:09:36.408901 15262 net.cpp:425] embed_encoder <- frames_fc7
2016-07-20 16:09:36.624 STDERR [INFO] I0720 16:09:36.408906 15258 net.cpp:91] Creating Layer embed_encoder
2016-07-20 16:09:36.624 STDERR [INFO] I0720 16:09:36.408885 15278 net.cpp:148] Top shape: 1 1 (1)
2016-07-20 16:09:36.625 STDERR [INFO] I0720 16:09:36.408885 15275 net.cpp:399] cont_sentence_input_1_split -> cont_sentence_input_1_split_1
2016-07-20 16:09:36.625 STDERR [INFO] I0720 16:09:36.408922 15262 net.cpp:399] embed_encoder -> embedded_in_frames
2016-07-20 16:09:36.625 STDERR [INFO] I0720 16:09:36.408921 15278 net.cpp:156] Memory required for data: 16404
2016-07-20 16:09:36.625 STDERR [INFO] I0720 16:09:36.408921 15258 net.cpp:425] embed_encoder <- frames_fc7
2016-07-20 16:09:36.626 STDERR [INFO] I0720 16:09:36.408915 15260 net.cpp:399] embed_encoder -> embedded_in_frames
2016-07-20 16:09:36.626 STDERR [INFO] I0720 16:09:36.408938 15278 layer_factory.hpp:77] Creating layer embed_encoder
2016-07-20 16:09:36.626 STDERR [INFO] I0720 16:09:36.408946 15275 net.cpp:141] Setting up cont_sentence_input_1_split
2016-07-20 16:09:36.626 STDERR [INFO] I0720 16:09:36.408952 15278 net.cpp:91] Creating Layer embed_encoder
2016-07-20 16:09:36.626 STDERR [INFO] I0720 16:09:36.408948 15258 net.cpp:399] embed_encoder -> embedded_in_frames
2016-07-20 16:09:36.626 STDERR [INFO] I0720 16:09:36.408964 15278 net.cpp:425] embed_encoder <- frames_fc7
2016-07-20 16:09:36.626 STDERR [INFO] I0720 16:09:36.408970 15275 net.cpp:148] Top shape: 1 1 (1)
2016-07-20 16:09:36.626 STDERR [INFO] I0720 16:09:36.408987 15275 net.cpp:148] Top shape: 1 1 (1)
2016-07-20 16:09:36.626 STDERR [INFO] I0720 16:09:36.408994 15275 net.cpp:156] Memory required for data: 16404
2016-07-20 16:09:36.626 STDERR [INFO] I0720 16:09:36.409005 15275 layer_factory.hpp:77] Creating layer embed_encoder
2016-07-20 16:09:36.627 STDERR [INFO] I0720 16:09:36.409029 15275 net.cpp:91] Creating Layer embed_encoder
2016-07-20 16:09:36.627 STDERR [INFO] I0720 16:09:36.409031 15278 net.cpp:399] embed_encoder -> embedded_in_frames
2016-07-20 16:09:36.627 STDERR [INFO] I0720 16:09:36.409047 15275 net.cpp:425] embed_encoder <- frames_fc7
2016-07-20 16:09:36.627 STDERR [INFO] I0720 16:09:36.409101 15275 net.cpp:399] embed_encoder -> embedded_in_frames
2016-07-20 16:09:36.627 STDERR [INFO] I0720 16:09:36.435984 15275 net.cpp:141] Setting up embed_encoder
2016-07-20 16:09:36.627 STDERR [INFO] I0720 16:09:36.436023 15275 net.cpp:148] Top shape: 1 500 (500)
2016-07-20 16:09:36.627 STDERR [INFO] I0720 16:09:36.436028 15275 net.cpp:156] Memory required for data: 18404
2016-07-20 16:09:36.627 STDERR [INFO] I0720 16:09:36.436053 15275 layer_factory.hpp:77] Creating layer reshape_frames
2016-07-20 16:09:36.627 STDERR [INFO] I0720 16:09:36.436080 15275 net.cpp:91] Creating Layer reshape_frames
2016-07-20 16:09:36.627 STDERR [INFO] I0720 16:09:36.436089 15275 net.cpp:425] reshape_frames <- embedded_in_frames
2016-07-20 16:09:36.627 STDERR [INFO] I0720 16:09:36.436102 15275 net.cpp:399] reshape_frames -> embedded_input_frames
2016-07-20 16:09:36.628 STDERR [INFO] I0720 16:09:36.436131 15275 net.cpp:141] Setting up reshape_frames
2016-07-20 16:09:36.628 STDERR [INFO] I0720 16:09:36.436139 15275 net.cpp:148] Top shape: 1 1 500 (500)
2016-07-20 16:09:36.628 STDERR [INFO] I0720 16:09:36.436143 15275 net.cpp:156] Memory required for data: 20404
2016-07-20 16:09:36.628 STDERR [INFO] I0720 16:09:36.436147 15275 layer_factory.hpp:77] Creating layer reshape_stage_indicator
2016-07-20 16:09:36.628 STDERR [INFO] I0720 16:09:36.436156 15275 net.cpp:91] Creating Layer reshape_stage_indicator
2016-07-20 16:09:36.628 STDERR [INFO] I0720 16:09:36.436161 15275 net.cpp:425] reshape_stage_indicator <- stage_indicator
2016-07-20 16:09:36.628 STDERR [INFO] I0720 16:09:36.436172 15275 net.cpp:399] reshape_stage_indicator -> reshaped_stage_indicator
2016-07-20 16:09:36.628 STDERR [INFO] I0720 16:09:36.436182 15275 net.cpp:141] Setting up reshape_stage_indicator
2016-07-20 16:09:36.628 STDERR [INFO] I0720 16:09:36.436189 15275 net.cpp:148] Top shape: 1 1 1 (1)
2016-07-20 16:09:36.628 STDERR [INFO] I0720 16:09:36.436193 15275 net.cpp:156] Memory required for data: 20408
2016-07-20 16:09:36.628 STDERR [INFO] I0720 16:09:36.436197 15275 layer_factory.hpp:77] Creating layer embedding
2016-07-20 16:09:36.629 STDERR [INFO] I0720 16:09:36.436208 15275 net.cpp:91] Creating Layer embedding
2016-07-20 16:09:36.629 STDERR [INFO] I0720 16:09:36.436213 15275 net.cpp:425] embedding <- input_sentence
2016-07-20 16:09:36.629 STDERR [INFO] I0720 16:09:36.436236 15275 net.cpp:399] embedding -> embedded_input_sentence
2016-07-20 16:09:36.629 STDERR [INFO] I0720 16:09:36.437923 15244 net.cpp:141] Setting up embed_encoder
2016-07-20 16:09:36.629 n.t.s.b.CVParticleBolt [INFO] [Timing] RequestID: 0 StreamID: home/peifeng/work/data/frame.320x240.jpg SequenceNr: 95 Leaving scale: 1469045376629 Size: 3530
2016-07-20 16:09:36.629 STDERR [INFO] I0720 16:09:36.437943 15244 net.cpp:148] Top shape: 1 500 (500)
2016-07-20 16:09:36.629 STDERR [INFO] I0720 16:09:36.437948 15244 net.cpp:156] Memory required for data: 18404
2016-07-20 16:09:36.629 STDERR [INFO] I0720 16:09:36.437961 15244 layer_factory.hpp:77] Creating layer reshape_frames
2016-07-20 16:09:36.629 STDERR [INFO] I0720 16:09:36.437976 15244 net.cpp:91] Creating Layer reshape_frames
2016-07-20 16:09:36.629 STDERR [INFO] I0720 16:09:36.437983 15244 net.cpp:425] reshape_frames <- embedded_in_frames
2016-07-20 16:09:36.629 STDERR [INFO] I0720 16:09:36.437989 15244 net.cpp:399] reshape_frames -> embedded_input_frames
2016-07-20 16:09:36.629 STDERR [INFO] I0720 16:09:36.438002 15244 net.cpp:141] Setting up reshape_frames
2016-07-20 16:09:36.630 STDERR [INFO] I0720 16:09:36.438009 15244 net.cpp:148] Top shape: 1 1 500 (500)
2016-07-20 16:09:36.630 STDERR [INFO] I0720 16:09:36.438014 15244 net.cpp:156] Memory required for data: 20404
2016-07-20 16:09:36.630 STDERR [INFO] I0720 16:09:36.438017 15244 layer_factory.hpp:77] Creating layer reshape_stage_indicator
2016-07-20 16:09:36.630 STDERR [INFO] I0720 16:09:36.438506 15244 net.cpp:91] Creating Layer reshape_stage_indicator
2016-07-20 16:09:36.630 STDERR [INFO] I0720 16:09:36.438516 15244 net.cpp:425] reshape_stage_indicator <- stage_indicator
2016-07-20 16:09:36.630 STDERR [INFO] I0720 16:09:36.438525 15244 net.cpp:399] reshape_stage_indicator -> reshaped_stage_indicator
2016-07-20 16:09:36.630 STDERR [INFO] I0720 16:09:36.438537 15244 net.cpp:141] Setting up reshape_stage_indicator
2016-07-20 16:09:36.630 STDERR [INFO] I0720 16:09:36.438545 15244 net.cpp:148] Top shape: 1 1 1 (1)
2016-07-20 16:09:36.630 STDERR [INFO] I0720 16:09:36.438549 15244 net.cpp:156] Memory required for data: 20408
2016-07-20 16:09:36.631 STDERR [INFO] I0720 16:09:36.438554 15244 layer_factory.hpp:77] Creating layer embedding
2016-07-20 16:09:36.631 STDERR [INFO] I0720 16:09:36.438565 15244 net.cpp:91] Creating Layer embedding
2016-07-20 16:09:36.631 STDERR [INFO] I0720 16:09:36.438570 15244 net.cpp:425] embedding <- input_sentence
2016-07-20 16:09:36.631 STDERR [INFO] I0720 16:09:36.438576 15244 net.cpp:399] embedding -> embedded_input_sentence
2016-07-20 16:09:36.631 STDERR [INFO] I0720 16:09:36.443286 15248 net.cpp:141] Setting up embed_encoder
2016-07-20 16:09:36.631 STDERR [INFO] I0720 16:09:36.443331 15248 net.cpp:148] Top shape: 1 500 (500)
2016-07-20 16:09:36.631 STDERR [INFO] I0720 16:09:36.443338 15248 net.cpp:156] Memory required for data: 18404
2016-07-20 16:09:36.631 STDERR [INFO] I0720 16:09:36.443363 15248 layer_factory.hpp:77] Creating layer reshape_frames
2016-07-20 16:09:36.631 STDERR [INFO] I0720 16:09:36.444313 15262 net.cpp:141] Setting up embed_encoder
2016-07-20 16:09:36.631 STDERR [INFO] I0720 16:09:36.444341 15248 net.cpp:91] Creating Layer reshape_frames
2016-07-20 16:09:36.631 STDERR [INFO] I0720 16:09:36.444342 15260 net.cpp:141] Setting up embed_encoder
2016-07-20 16:09:36.632 STDERR [INFO] I0720 16:09:36.444356 15248 net.cpp:425] reshape_frames <- embedded_in_frames
2016-07-20 16:09:36.632 STDERR [INFO] I0720 16:09:36.444351 15262 net.cpp:148] Top shape: 1 500 (500)
2016-07-20 16:09:36.632 STDERR [INFO] I0720 16:09:36.444367 15262 net.cpp:156] Memory required for data: 18404
2016-07-20 16:09:36.632 STDERR [INFO] I0720 16:09:36.444370 15260 net.cpp:148] Top shape: 1 500 (500)
2016-07-20 16:09:36.632 STDERR [INFO] I0720 16:09:36.444373 15248 net.cpp:399] reshape_frames -> embedded_input_frames
2016-07-20 16:09:36.632 STDERR [INFO] I0720 16:09:36.444378 15260 net.cpp:156] Memory required for data: 18404
2016-07-20 16:09:36.632 STDERR [INFO] I0720 16:09:36.444389 15262 layer_factory.hpp:77] Creating layer reshape_frames
2016-07-20 16:09:36.632 STDERR [INFO] I0720 16:09:36.444398 15248 net.cpp:141] Setting up reshape_frames
2016-07-20 16:09:36.632 STDERR [INFO] I0720 16:09:36.444402 15260 layer_factory.hpp:77] Creating layer reshape_frames
2016-07-20 16:09:36.632 STDERR [INFO] I0720 16:09:36.444411 15248 net.cpp:148] Top shape: 1 1 500 (500)
2016-07-20 16:09:36.633 STDERR [INFO] I0720 16:09:36.444417 15248 net.cpp:156] Memory required for data: 20404
2016-07-20 16:09:36.633 STDERR [INFO] I0720 16:09:36.444424 15248 layer_factory.hpp:77] Creating layer reshape_stage_indicator
2016-07-20 16:09:36.633 STDERR [INFO] I0720 16:09:36.445375 15260 net.cpp:91] Creating Layer reshape_frames
2016-07-20 16:09:36.633 STDERR [INFO] I0720 16:09:36.445380 15248 net.cpp:91] Creating Layer reshape_stage_indicator
…
2016-07-20 16:09:36.633 STDERR [INFO] I0720 16:09:36.445415 15248 net.cpp:399] reshape_stage_indicator -> reshaped_stage_indicator
2016-07-20 16:09:36.634 STDERR [INFO] I0720 16:09:36.445431 15262 net.cpp:399] reshape_frames -> embedded_input_frames
2016-07-20 16:09:36.634 STDERR [INFO] I0720 16:09:36.445439 15260 net.cpp:141] Setting up reshape_frames
2016-07-20 16:09:36.634 STDERR [INFO] I0720 16:09:36.445441 15248 net.cpp:141] Setting up reshape_stage_indicator
2016-07-20 16:09:36.634 STDERR [INFO] I0720 16:09:36.445447 15262 net.cpp:141] Setting up reshape_frames
2016-07-20 16:09:36.634 STDERR [INFO] I0720 16:09:36.445452 15260 net.cpp:148] Top shape: 1 1 500 (500)
2016-07-20 16:09:36.634 STDERR [INFO] I0720 16:09:36.445456 15248 net.cpp:148] Top shape: 1 1 1 (1)
2016-07-20 16:09:36.634 STDERR [INFO] I0720 16:09:36.445461 15260 net.cpp:156] Memory required for data: 20404
2016-07-20 16:09:36.634 STDERR [INFO] I0720 16:09:36.445457 15262 net.cpp:148] Top shape: 1 1 500 (500)
2016-07-20 16:09:36.634 STDERR [INFO] I0720 16:09:36.445468 15248 net.cpp:156] Memory required for data: 20408
2016-07-20 16:09:36.634 STDERR [INFO] I0720 16:09:36.445472 15260 layer_factory.hpp:77] Creating layer reshape_stage_indicator
2016-07-20 16:09:36.635 STDERR [INFO] I0720 16:09:36.445477 15248 layer_factory.hpp:77] Creating layer embedding
2016-07-20 16:09:36.635 STDERR [INFO] I0720 16:09:36.445473 15262 net.cpp:156] Memory required for data: 20404
2016-07-20 16:09:36.635 STDERR [INFO] I0720 16:09:36.445487 15262 layer_factory.hpp:77] Creating layer reshape_stage_indicator
2016-07-20 16:09:36.635 STDERR [INFO] I0720 16:09:36.446549 15262 net.cpp:91] Creating Layer reshape_stage_indicator
2016-07-20 16:09:36.635 STDERR [INFO] I0720 16:09:36.446560 15252 net.cpp:141] Setting up embed_encoder
2016-07-20 16:09:36.635 STDERR [INFO] I0720 16:09:36.446568 15262 net.cpp:425] reshape_stage_indicator <- stage_indicator
2016-07-20 16:09:36.635 STDERR [INFO] I0720 16:09:36.446593 15252 net.cpp:148] Top shape: 1 500 (500)
2016-07-20 16:09:36.635 STDERR [INFO] I0720 16:09:36.446599 15262 net.cpp:399] reshape_stage_indicator -> reshaped_stage_indicator
2016-07-20 16:09:36.635 STDERR [INFO] I0720 16:09:36.446601 15248 net.cpp:91] Creating Layer embedding
2016-07-20 16:09:36.635 STDERR [INFO] I0720 16:09:36.446617 15262 net.cpp:141] Setting up reshape_stage_indicator
2016-07-20 16:09:36.636 STDERR [INFO] I0720 16:09:36.446604 15252 net.cpp:156] Memory required for data: 18404
2016-07-20 16:09:36.636 STDERR [INFO] I0720 16:09:36.446604 15260 net.cpp:91] Creating Layer reshape_stage_indicator
2016-07-20 16:09:36.636 STDERR [INFO] I0720 16:09:36.446620 15248 net.cpp:425] embedding <- input_sentence
2016-07-20 16:09:36.636 STDERR [INFO] I0720 16:09:36.446631 15262 net.cpp:148] Top shape: 1 1 1 (1)
2016-07-20 16:09:36.636 STDERR [INFO] I0720 16:09:36.446637 15262 net.cpp:156] Memory required for data: 20408
2016-07-20 16:09:36.636 STDERR [INFO] I0720 16:09:36.446638 15260 net.cpp:425] reshape_stage_indicator <- stage_indicator
2016-07-20 16:09:36.636 STDERR [INFO] I0720 16:09:36.446643 15248 net.cpp:399] embedding -> embedded_input_sentence
2016-07-20 16:09:36.637 STDERR [INFO] I0720 16:09:36.446643 15262 layer_factory.hpp:77] Creating layer embedding
2016-07-20 16:09:36.637 STDERR [INFO] I0720 16:09:36.446655 15260 net.cpp:399] reshape_stage_indicator -> reshaped_stage_indicator
2016-07-20 16:09:36.637 STDERR [INFO] I0720 16:09:36.446674 15260 net.cpp:141] Setting up reshape_stage_indicator
2016-07-20 16:09:36.637 STDERR [INFO] I0720 16:09:36.446701 15260 net.cpp:148] Top shape: 1 1 1 (1)
2016-07-20 16:09:36.637 STDERR [INFO] I0720 16:09:36.446709 15260 net.cpp:156] Memory required for data: 20408
2016-07-20 16:09:36.637 STDERR [INFO] I0720 16:09:36.446718 15260 layer_factory.hpp:77] Creating layer embedding
2016-07-20 16:09:36.637 STDERR [INFO] I0720 16:09:36.447182 15278 net.cpp:141] Setting up embed_encoder
2016-07-20 16:09:36.637 STDERR [INFO] I0720 16:09:36.447187 15250 net.cpp:141] Setting up embed_encoder
2016-07-20 16:09:36.637 STDERR [INFO] I0720 16:09:36.447201 15260 net.cpp:91] Creating Layer embedding
2016-07-20 16:09:36.637 STDERR [INFO] I0720 16:09:36.447207 15278 net.cpp:148] Top shape: 1 500 (500)
2016-07-20 16:09:36.638 STDERR [INFO] I0720 16:09:36.447185 15262 net.cpp:91] Creating Layer embedding
2016-07-20 16:09:36.638 STDERR [INFO] I0720 16:09:36.447218 15260 net.cpp:425] embedding <- input_sentence
2016-07-20 16:09:36.638 STDERR [INFO] I0720 16:09:36.447208 15252 layer_factory.hpp:77] Creating layer reshape_frames
2016-07-20 16:09:36.638 STDERR [INFO] I0720 16:09:36.447218 15278 net.cpp:156] Memory required for data: 18404
2016-07-20 16:09:36.638 STDERR [INFO] I0720 16:09:36.447228 15262 net.cpp:425] embedding <- input_sentence
2016-07-20 16:09:36.638 STDERR [INFO] I0720 16:09:36.447238 15260 net.cpp:399] embedding -> embedded_input_sentence
2016-07-20 16:09:36.638 STDERR [INFO] I0720 16:09:36.447247 15252 net.cpp:91] Creating Layer reshape_frames
2016-07-20 16:09:36.638 STDERR [INFO] I0720 16:09:36.447252 15278 layer_factory.hpp:77] Creating layer reshape_frames
2016-07-20 16:09:36.638 STDERR [INFO] I0720 16:09:36.447269 15252 net.cpp:425] reshape_frames <- embedded_in_frames
2016-07-20 16:09:36.638 STDERR [INFO] I0720 16:09:36.447260 15262 net.cpp:399] embedding -> embedded_input_sentence
2016-07-20 16:09:36.639 STDERR [INFO] I0720 16:09:36.447280 15278 net.cpp:91] Creating Layer reshape_frames
2016-07-20 16:09:36.639 STDERR [INFO] I0720 16:09:36.447301 15278 net.cpp:425] reshape_frames <- embedded_in_frames
2016-07-20 16:09:36.639 STDERR [INFO] I0720 16:09:36.447623 15250 net.cpp:148] Top shape: 1 500 (500)
2016-07-20 16:09:36.639 STDERR [INFO] I0720 16:09:36.447636 15250 net.cpp:156] Memory required for data: 18404
2016-07-20 16:09:36.639 STDERR [INFO] I0720 16:09:36.448295 15252 net.cpp:399] reshape_frames -> embedded_input_frames
2016-07-20 16:09:36.639 STDERR [INFO] I0720 16:09:36.448326 15252 net.cpp:141] Setting up reshape_frames
2016-07-20 16:09:36.639 STDERR [INFO] I0720 16:09:36.448343 15252 net.cpp:148] Top shape: 1 1 500 (500)
2016-07-20 16:09:36.639 STDERR [INFO] I0720 16:09:36.448354 15252 net.cpp:156] Memory required for data: 20404
2016-07-20 16:09:36.639 STDERR [INFO] I0720 16:09:36.448357 15258 net.cpp:141] Setting up embed_encoder
2016-07-20 16:09:36.639 STDERR [INFO] I0720 16:09:36.448370 15252 layer_factory.hpp:77] Creating layer reshape_stage_indicator
2016-07-20 16:09:36.640 STDERR [INFO] I0720 16:09:36.448351 15250 layer_factory.hpp:77] Creating layer reshape_frames
2016-07-20 16:09:36.640 STDERR [INFO] I0720 16:09:36.448392 15258 net.cpp:148] Top shape: 1 500 (500)
2016-07-20 16:09:36.640 STDERR [INFO] I0720 16:09:36.448353 15278 net.cpp:399] reshape_frames -> embedded_input_frames
2016-07-20 16:09:36.640 STDERR [INFO] I0720 16:09:36.448410 15258 net.cpp:156] Memory required for data: 18404
2016-07-20 16:09:36.640 STDERR [INFO] I0720 16:09:36.448408 15250 net.cpp:91] Creating Layer reshape_frames
2016-07-20 16:09:36.640 STDERR [INFO] I0720 16:09:36.448393 15252 net.cpp:91] Creating Layer reshape_stage_indicator
2016-07-20 16:09:36.640 STDERR [INFO] I0720 16:09:36.448444 15258 layer_factory.hpp:77] Creating layer reshape_frames
2016-07-20 16:09:36.640 STDERR [INFO] I0720 16:09:36.448426 15278 net.cpp:141] Setting up reshape_frames
2016-07-20 16:09:36.640 STDERR [INFO] I0720 16:09:36.448446 15250 net.cpp:425] reshape_frames <- embedded_in_frames
2016-07-20 16:09:36.640 STDERR [INFO] I0720 16:09:36.448453 15252 net.cpp:425] reshape_stage_indicator <- stage_indicator
2016-07-20 16:09:36.641 STDERR [INFO] I0720 16:09:36.448468 15278 net.cpp:148] Top shape: 1 1 500 (500)
2016-07-20 16:09:36.641 STDERR [INFO] I0720 16:09:36.448493 15278 net.cpp:156] Memory required for data: 20404
2016-07-20 16:09:36.641 STDERR [INFO] I0720 16:09:36.448499 15278 layer_factory.hpp:77] Creating layer reshape_stage_indicator
2016-07-20 16:09:36.641 STDERR [INFO] I0720 16:09:36.448509 15278 net.cpp:91] Creating Layer reshape_stage_indicator
2016-07-20 16:09:36.642 STDERR [INFO] I0720 16:09:36.448514 15278 net.cpp:425] reshape_stage_indicator <- stage_indicator
2016-07-20 16:09:36.642 STDERR [INFO] I0720 16:09:36.448950 15250 net.cpp:399] reshape_frames -> embedded_input_frames
2016-07-20 16:09:36.642 STDERR [INFO] I0720 16:09:36.448967 15278 net.cpp:399] reshape_stage_indicator -> reshaped_stage_indicator
2016-07-20 16:09:36.642 STDERR [INFO] I0720 16:09:36.448979 15258 net.cpp:91] Creating Layer reshape_frames
2016-07-20 16:09:36.642 STDERR [INFO] I0720 16:09:36.448988 15278 net.cpp:141] Setting up reshape_stage_indicator
2016-07-20 16:09:36.642 STDERR [INFO] I0720 16:09:36.448979 15252 net.cpp:399] reshape_stage_indicator -> reshaped_stage_indicator
2016-07-20 16:09:36.642 STDERR [INFO] I0720 16:09:36.448982 15250 net.cpp:141] Setting up reshape_frames
2016-07-20 16:09:36.642 STDERR [INFO] I0720 16:09:36.449002 15258 net.cpp:425] reshape_frames <- embedded_in_frames
2016-07-20 16:09:36.642 STDERR [INFO] I0720 16:09:36.449000 15278 net.cpp:148] Top shape: 1 1 1 (1)
2016-07-20 16:09:36.642 STDERR [INFO] I0720 16:09:36.449015 15278 net.cpp:156] Memory required for data: 20408
2016-07-20 16:09:36.643 STDERR [INFO] I0720 16:09:36.449021 15278 layer_factory.hpp:77] Creating layer embedding
2016-07-20 16:09:36.643 STDERR [INFO] I0720 16:09:36.449019 15250 net.cpp:148] Top shape: 1 1 500 (500)
2016-07-20 16:09:36.643 STDERR [INFO] I0720 16:09:36.449023 15258 net.cpp:399] reshape_frames -> embedded_input_frames
2016-07-20 16:09:36.643 STDERR [INFO] I0720 16:09:36.449024 15252 net.cpp:141] Setting up reshape_stage_indicator
2016-07-20 16:09:36.643 STDERR [INFO] I0720 16:09:36.449033 15278 net.cpp:91] Creating Layer embedding
2016-07-20 16:09:36.643 STDERR [INFO] I0720 16:09:36.449033 15250 net.cpp:156] Memory required for data: 20404
2016-07-20 16:09:36.643 STDERR [INFO] I0720 16:09:36.449039 15278 net.cpp:425] embedding <- input_sentence
2016-07-20 16:09:36.643 STDERR [INFO] I0720 16:09:36.449044 15252 net.cpp:148] Top shape: 1 1 1 (1)
2016-07-20 16:09:36.643 STDERR [INFO] I0720 16:09:36.449050 15258 net.cpp:141] Setting up reshape_frames
2016-07-20 16:09:36.644 STDERR [INFO] I0720 16:09:36.449045 15250 layer_factory.hpp:77] Creating layer reshape_stage_indicator
2016-07-20 16:09:36.644 STDERR [INFO] I0720 16:09:36.449061 15252 net.cpp:156] Memory required for data: 20408
2016-07-20 16:09:36.644 STDERR [INFO] I0720 16:09:36.449067 15258 net.cpp:148] Top shape: 1 1 500 (500)
2016-07-20 16:09:36.644 STDERR [INFO] I0720 16:09:36.449072 15252 layer_factory.hpp:77] Creating layer embedding
2016-07-20 16:09:36.644 STDERR [INFO] I0720 16:09:36.449077 15258 net.cpp:156] Memory required for data: 20404
2016-07-20 16:09:36.644 STDERR [INFO] I0720 16:09:36.449080 15250 net.cpp:91] Creating Layer reshape_stage_indicator
2016-07-20 16:09:36.644 STDERR [INFO] I0720 16:09:36.449089 15258 layer_factory.hpp:77] Creating layer reshape_stage_indicator
2016-07-20 16:09:36.644 STDERR [INFO] I0720 16:09:36.449091 15252 net.cpp:91] Creating Layer embedding
2016-07-20 16:09:36.644 STDERR [INFO] I0720 16:09:36.449093 15250 net.cpp:425] reshape_stage_indicator <- stage_indicator
2016-07-20 16:09:36.644 STDERR [INFO] I0720 16:09:36.449102 15252 net.cpp:425] embedding <- input_sentence
2016-07-20 16:09:36.645 STDERR [INFO] I0720 16:09:36.449111 15250 net.cpp:399] reshape_stage_indicator -> reshaped_stage_indicator
2016-07-20 16:09:36.645 STDERR [INFO] I0720 16:09:36.449136 15250 net.cpp:141] Setting up reshape_stage_indicator
2016-07-20 16:09:36.645 STDERR [INFO] I0720 16:09:36.449153 15250 net.cpp:148] Top shape: 1 1 1 (1)
2016-07-20 16:09:36.645 STDERR [INFO] I0720 16:09:36.449162 15250 net.cpp:156] Memory required for data: 20408
2016-07-20 16:09:36.645 STDERR [INFO] I0720 16:09:36.449172 15250 layer_factory.hpp:77] Creating layer embedding
2016-07-20 16:09:36.645 STDERR [INFO] I0720 16:09:36.449729 15258 net.cpp:91] Creating Layer reshape_stage_indicator
2016-07-20 16:09:36.645 STDERR [INFO] I0720 16:09:36.449739 15258 net.cpp:425] reshape_stage_indicator <- stage_indicator
2016-07-20 16:09:36.645 STDERR [INFO] I0720 16:09:36.449748 15258 net.cpp:399] reshape_stage_indicator -> reshaped_stage_indicator
2016-07-20 16:09:36.645 STDERR [INFO] I0720 16:09:36.449759 15258 net.cpp:141] Setting up reshape_stage_indicator
2016-07-20 16:09:36.645 STDERR [INFO] I0720 16:09:36.449767 15258 net.cpp:148] Top shape: 1 1 1 (1)
2016-07-20 16:09:36.646 STDERR [INFO] I0720 16:09:36.449771 15258 net.cpp:156] Memory required for data: 20408
2016-07-20 16:09:36.646 STDERR [INFO] I0720 16:09:36.449776 15258 layer_factory.hpp:77] Creating layer embedding
2016-07-20 16:09:36.646 STDERR [INFO] I0720 16:09:36.449771 15252 net.cpp:399] embedding -> embedded_input_sentence
2016-07-20 16:09:36.646 STDERR [INFO] I0720 16:09:36.449793 15250 net.cpp:91] Creating Layer embedding
2016-07-20 16:09:36.646 STDERR [INFO] I0720 16:09:36.449790 15278 net.cpp:399] embedding -> embedded_input_sentence
2016-07-20 16:09:36.646 STDERR [INFO] I0720 16:09:36.449813 15250 net.cpp:425] embedding <- input_sentence
2016-07-20 16:09:36.646 STDERR [INFO] I0720 16:09:36.450376 15250 net.cpp:399] embedding -> embedded_input_sentence
2016-07-20 16:09:36.646 STDERR [INFO] I0720 16:09:36.450382 15282 net.cpp:141] Setting up embed_encoder
2016-07-20 16:09:36.646 STDERR [INFO] I0720 16:09:36.450386 15258 net.cpp:91] Creating Layer embedding
2016-07-20 16:09:36.647 STDERR [INFO] I0720 16:09:36.450415 15282 net.cpp:148] Top shape: 1 500 (500)
2016-07-20 16:09:36.647 STDERR [INFO] I0720 16:09:36.450422 15258 net.cpp:425] embedding <- input_sentence
2016-07-20 16:09:36.647 STDERR [INFO] I0720 16:09:36.450428 15282 net.cpp:156] Memory required for data: 18404
2016-07-20 16:09:36.647 STDERR [INFO] I0720 16:09:36.450443 15258 net.cpp:399] embedding -> embedded_input_sentence
2016-07-20 16:09:36.647 STDERR [INFO] I0720 16:09:36.450458 15282 layer_factory.hpp:77] Creating layer reshape_frames
2016-07-20 16:09:36.647 STDERR [INFO] I0720 16:09:36.451290 15282 net.cpp:91] Creating Layer reshape_frames
2016-07-20 16:09:36.647 STDERR [INFO] I0720 16:09:36.451315 15282 net.cpp:425] reshape_frames <- embedded_in_frames
2016-07-20 16:09:36.647 STDERR [INFO] I0720 16:09:36.451336 15282 net.cpp:399] reshape_frames -> embedded_input_frames
2016-07-20 16:09:36.647 STDERR [INFO] I0720 16:09:36.451362 15282 net.cpp:141] Setting up reshape_frames
2016-07-20 16:09:36.648 STDERR [INFO] I0720 16:09:36.451378 15282 net.cpp:148] Top shape: 1 1 500 (500)
2016-07-20 16:09:36.648 STDERR [INFO] I0720 16:09:36.451388 15282 net.cpp:156] Memory required for data: 20404
2016-07-20 16:09:36.648 STDERR [INFO] I0720 16:09:36.451400 15282 layer_factory.hpp:77] Creating layer reshape_stage_indicator
2016-07-20 16:09:36.648 STDERR [INFO] I0720 16:09:36.451903 15282 net.cpp:91] Creating Layer reshape_stage_indicator
2016-07-20 16:09:36.648 STDERR [INFO] I0720 16:09:36.451934 15282 net.cpp:425] reshape_stage_indicator <- stage_indicator
2016-07-20 16:09:36.648 STDERR [INFO] I0720 16:09:36.451954 15282 net.cpp:399] reshape_stage_indicator -> reshaped_stage_indicator
2016-07-20 16:09:36.648 STDERR [INFO] I0720 16:09:36.451972 15282 net.cpp:141] Setting up reshape_stage_indicator
2016-07-20 16:09:36.648 STDERR [INFO] I0720 16:09:36.451982 15282 net.cpp:148] Top shape: 1 1 1 (1)
2016-07-20 16:09:36.648 STDERR [INFO] I0720 16:09:36.451985 15282 net.cpp:156] Memory required for data: 20408
2016-07-20 16:09:36.649 STDERR [INFO] I0720 16:09:36.451990 15282 layer_factory.hpp:77] Creating layer embedding
2016-07-20 16:09:36.649 STDERR [INFO] I0720 16:09:36.453058 15282 net.cpp:91] Creating Layer embedding
2016-07-20 16:09:36.649 STDERR [INFO] I0720 16:09:36.453101 15282 net.cpp:425] embedding <- input_sentence
2016-07-20 16:09:36.649 STDERR [INFO] I0720 16:09:36.453135 15282 net.cpp:399] embedding -> embedded_input_sentence
2016-07-20 16:09:36.685 STDERR [INFO] I0720 16:09:36.685664 15258 net.cpp:141] Setting up embedding
2016-07-20 16:09:36.686 STDERR [INFO] I0720 16:09:36.685708 15258 net.cpp:148] Top shape: 1 1 500 (500)
2016-07-20 16:09:36.686 STDERR [INFO] I0720 16:09:36.685715 15258 net.cpp:156] Memory required for data: 22408
2016-07-20 16:09:36.686 STDERR [INFO] I0720 16:09:36.685731 15258 layer_factory.hpp:77] Creating layer lstm1
2016-07-20 16:09:36.686 STDERR [INFO] I0720 16:09:36.685748 15258 net.cpp:91] Creating Layer lstm1
2016-07-20 16:09:36.686 STDERR [INFO] I0720 16:09:36.685755 15258 net.cpp:425] lstm1 <- embedded_input_frames
…
2016-07-20 16:09:36.701 STDERR [INFO] }
2016-07-20 16:09:36.701 STDERR [INFO] I0720 16:09:36.686235 15258 layer_factory.hpp:77] Creating layer lstm1_
2016-07-20 16:09:36.701 STDERR [INFO] I0720 16:09:36.686249 15258 net.cpp:91] Creating Layer lstm1_
2016-07-20 16:09:36.701 STDERR [INFO] I0720 16:09:36.686254 15258 net.cpp:399] lstm1_ -> x
2016-07-20 16:09:36.701 STDERR [INFO] I0720 16:09:36.686265 15258 net.cpp:399] lstm1_ -> cont
2016-07-20 16:09:36.701 STDERR [INFO] I0720 16:09:36.686278 15258 net.cpp:141] Setting up lstm1_
2016-07-20 16:09:36.701 STDERR [INFO] I0720 16:09:36.686285 15258 net.cpp:148] Top shape: 1 1 500 (500)
2016-07-20 16:09:36.701 STDERR [INFO] I0720 16:09:36.686291 15258 net.cpp:148] Top shape: 1 1 (1)
2016-07-20 16:09:36.702 STDERR [INFO] I0720 16:09:36.686295 15258 net.cpp:156] Memory required for data: 2004
2016-07-20 16:09:36.702 STDERR [INFO] I0720 16:09:36.686300 15258 layer_factory.hpp:77] Creating layer lstm1_
2016-07-20 16:09:36.702 STDERR [INFO] I0720 16:09:36.686306 15258 net.cpp:91] Creating Layer lstm1_
2016-07-20 16:09:36.702 STDERR [INFO] I0720 16:09:36.686312 15258 net.cpp:399] lstm1_ -> c_0
2016-07-20 16:09:36.702 STDERR [INFO] I0720 16:09:36.686321 15258 net.cpp:399] lstm1_ -> h_0
2016-07-20 16:09:36.702 STDERR [INFO] I0720 16:09:36.686331 15258 net.cpp:141] Setting up lstm1_
2016-07-20 16:09:36.702 STDERR [INFO] I0720 16:09:36.686337 15258 net.cpp:148] Top shape: 1 1 1000 (1000)
2016-07-20 16:09:36.702 STDERR [INFO] I0720 16:09:36.686343 15258 net.cpp:148] Top shape: 1 1 1000 (1000)
2016-07-20 16:09:36.702 STDERR [INFO] I0720 16:09:36.686347 15258 net.cpp:156] Memory required for data: 10004
2016-07-20 16:09:36.702 STDERR [INFO] I0720 16:09:36.686350 15258 layer_factory.hpp:77] Creating layer lstm1_cont_slice
2016-07-20 16:09:36.703 STDERR [INFO] I0720 16:09:36.686358 15258 net.cpp:91] Creating Layer lstm1_cont_slice
2016-07-20 16:09:36.703 STDERR [INFO] I0720 16:09:36.686362 15258 net.cpp:425] lstm1_cont_slice <- cont
2016-07-20 16:09:36.703 STDERR [INFO] I0720 16:09:36.686368 15258 net.cpp:399] lstm1_cont_slice -> cont_1
2016-07-20 16:09:36.703 STDERR [INFO] I0720 16:09:36.686379 15258 net.cpp:141] Setting up lstm1_cont_slice
2016-07-20 16:09:36.703 STDERR [INFO] I0720 16:09:36.686386 15258 net.cpp:148] Top shape: 1 1 (1)
2016-07-20 16:09:36.703 STDERR [INFO] I0720 16:09:36.686390 15258 net.cpp:156] Memory required for data: 10008
2016-07-20 16:09:36.703 STDERR [INFO] I0720 16:09:36.686394 15258 layer_factory.hpp:77] Creating layer cont_1_lstm1_cont_slice_0_split
2016-07-20 16:09:36.703 STDERR [INFO] I0720 16:09:36.686404 15258 net.cpp:91] Creating Layer cont_1_lstm1_cont_slice_0_split
2016-07-20 16:09:36.703 STDERR [INFO] I0720 16:09:36.686409 15258 net.cpp:425] cont_1_lstm1_cont_slice_0_split <- cont_1
2016-07-20 16:09:36.703 STDERR [INFO] I0720 16:09:36.686416 15258 net.cpp:399] cont_1_lstm1_cont_slice_0_split -> cont_1_lstm1_cont_slice_0_split_0
2016-07-20 16:09:36.704 STDERR [INFO] I0720 16:09:36.686424 15258 net.cpp:399] cont_1_lstm1_cont_slice_0_split -> cont_1_lstm1_cont_slice_0_split_1
2016-07-20 16:09:36.704 STDERR [INFO] I0720 16:09:36.686434 15258 net.cpp:141] Setting up cont_1_lstm1_cont_slice_0_split
2016-07-20 16:09:36.704 STDERR [INFO] I0720 16:09:36.686442 15258 net.cpp:148] Top shape: 1 1 (1)
2016-07-20 16:09:36.704 STDERR [INFO] I0720 16:09:36.686447 15258 net.cpp:148] Top shape: 1 1 (1)
2016-07-20 16:09:36.704 STDERR [INFO] I0720 16:09:36.686450 15258 net.cpp:156] Memory required for data: 10016
2016-07-20 16:09:36.704 STDERR [INFO] I0720 16:09:36.686455 15258 layer_factory.hpp:77] Creating layer lstm1_x_transform
2016-07-20 16:09:36.704 STDERR [INFO] I0720 16:09:36.686463 15258 net.cpp:91] Creating Layer lstm1_x_transform
2016-07-20 16:09:36.704 STDERR [INFO] I0720 16:09:36.686467 15258 net.cpp:425] lstm1_x_transform <- x
2016-07-20 16:09:36.704 STDERR [INFO] I0720 16:09:36.686477 15258 net.cpp:399] lstm1_x_transform -> W_xc_x
2016-07-20 16:09:36.707 STDERR [INFO] I0720 16:09:36.707352 15258 net.cpp:141] Setting up lstm1_x_transform
2016-07-20 16:09:36.708 STDERR [INFO] I0720 16:09:36.707826 15258 net.cpp:148] Top shape: 1 1 4000 (4000)
2016-07-20 16:09:36.708 STDERR [INFO] I0720 16:09:36.707841 15258 net.cpp:156] Memory required for data: 26016
2016-07-20 16:09:36.708 STDERR [INFO] I0720 16:09:36.707865 15258 layer_factory.hpp:77] Creating layer lstm1_W_xc_x_slice
2016-07-20 16:09:36.708 STDERR [INFO] I0720 16:09:36.707887 15258 net.cpp:91] Creating Layer lstm1_W_xc_x_slice
2016-07-20 16:09:36.708 STDERR [INFO] I0720 16:09:36.707896 15258 net.cpp:425] lstm1_W_xc_x_slice <- W_xc_x
2016-07-20 16:09:36.708 STDERR [INFO] I0720 16:09:36.707908 15258 net.cpp:399] lstm1_W_xc_x_slice -> W_xc_x_1
2016-07-20 16:09:36.708 STDERR [INFO] I0720 16:09:36.707953 15258 net.cpp:141] Setting up lstm1_W_xc_x_slice
2016-07-20 16:09:36.708 STDERR [INFO] I0720 16:09:36.707968 15258 net.cpp:148] Top shape: 1 1 4000 (4000)
2016-07-20 16:09:36.708 STDERR [INFO] I0720 16:09:36.707974 15258 net.cpp:156] Memory required for data: 42016
2016-07-20 16:09:36.708 STDERR [INFO] I0720 16:09:36.707981 15258 layer_factory.hpp:77] Creating layer lstm1_h_conted_0
2016-07-20 16:09:36.709 STDERR [INFO] I0720 16:09:36.707993 15258 net.cpp:91] Creating Layer lstm1_h_conted_0
2016-07-20 16:09:36.709 STDERR [INFO] I0720 16:09:36.708001 15258 net.cpp:425] lstm1_h_conted_0 <- h_0
2016-07-20 16:09:36.709 STDERR [INFO] I0720 16:09:36.708010 15258 net.cpp:425] lstm1_h_conted_0 <- cont_1_lstm1_cont_slice_0_split_0
2016-07-20 16:09:36.709 STDERR [INFO] I0720 16:09:36.708036 15258 net.cpp:399] lstm1_h_conted_0 -> h_conted_0
2016-07-20 16:09:36.709 STDERR [INFO] I0720 16:09:36.708128 15258 net.cpp:141] Setting up lstm1_h_conted_0
2016-07-20 16:09:36.709 STDERR [INFO] I0720 16:09:36.708142 15258 net.cpp:148] Top shape: 1 1 1000 (1000)
2016-07-20 16:09:36.709 STDERR [INFO] I0720 16:09:36.708148 15258 net.cpp:156] Memory required for data: 46016
2016-07-20 16:09:36.710 STDERR [INFO] I0720 16:09:36.708155 15258 layer_factory.hpp:77] Creating layer lstm1_transform_1
2016-07-20 16:09:36.710 STDERR [INFO] I0720 16:09:36.708170 15258 net.cpp:91] Creating Layer lstm1_transform_1
2016-07-20 16:09:36.710 STDERR [INFO] I0720 16:09:36.708178 15258 net.cpp:425] lstm1_transform_1 <- h_conted_0
2016-07-20 16:09:36.710 STDERR [INFO] I0720 16:09:36.708204 15258 net.cpp:399] lstm1_transform_1 -> W_hc_h_0
2016-07-20 16:09:36.712 STDERR [INFO] I0720 16:09:36.712182 15262 net.cpp:141] Setting up embedding
2016-07-20 16:09:36.712 STDERR [INFO] I0720 16:09:36.712652 15262 net.cpp:148] Top shape: 1 1 500 (500)
2016-07-20 16:09:36.712 STDERR [INFO] I0720 16:09:36.712671 15262 net.cpp:156] Memory required for data: 22408
2016-07-20 16:09:36.712 STDERR [INFO] I0720 16:09:36.712697 15262 layer_factory.hpp:77] Creating layer lstm1
2016-07-20 16:09:36.712 STDERR [INFO] I0720 16:09:36.712721 15262 net.cpp:91] Creating Layer lstm1
2016-07-20 16:09:36.713 STDERR [INFO] I0720 16:09:36.712735 15262 net.cpp:425] lstm1 <- embedded_input_frames
…
2016-07-20 16:09:36.731 STDERR [INFO] }
2016-07-20 16:09:36.739 STDERR [INFO] I0720 16:09:36.715159 15262 layer_factory.hpp:77] Creating layer lstm1_
2016-07-20 16:09:36.739 STDERR [INFO] I0720 16:09:36.715188 15262 net.cpp:91] Creating Layer lstm1_
2016-07-20 16:09:36.739 STDERR [INFO] I0720 16:09:36.715204 15262 net.cpp:399] lstm1_ -> x
2016-07-20 16:09:36.739 STDERR [INFO] I0720 16:09:36.715227 15262 net.cpp:399] lstm1_ -> cont
2016-07-20 16:09:36.739 STDERR [INFO] I0720 16:09:36.715253 15262 net.cpp:141] Setting up lstm1_
2016-07-20 16:09:36.739 STDERR [INFO] I0720 16:09:36.715271 15262 net.cpp:148] Top shape: 1 1 500 (500)
2016-07-20 16:09:36.740 STDERR [INFO] I0720 16:09:36.715284 15262 net.cpp:148] Top shape: 1 1 (1)
2016-07-20 16:09:36.740 STDERR [INFO] I0720 16:09:36.715292 15262 net.cpp:156] Memory required for data: 2004
2016-07-20 16:09:36.740 STDERR [INFO] I0720 16:09:36.715302 15262 layer_factory.hpp:77] Creating layer lstm1_
2016-07-20 16:09:36.740 STDERR [INFO] I0720 16:09:36.715317 15262 net.cpp:91] Creating Layer lstm1_
2016-07-20 16:09:36.740 STDERR [INFO] I0720 16:09:36.715330 15262 net.cpp:399] lstm1_ -> c_0
2016-07-20 16:09:36.740 STDERR [INFO] I0720 16:09:36.715351 15262 net.cpp:399] lstm1_ -> h_0
2016-07-20 16:09:36.740 STDERR [INFO] I0720 16:09:36.715371 15262 net.cpp:141] Setting up lstm1_
2016-07-20 16:09:36.740 STDERR [INFO] I0720 16:09:36.715385 15262 net.cpp:148] Top shape: 1 1 1000 (1000)
2016-07-20 16:09:36.740 STDERR [INFO] I0720 16:09:36.715399 15262 net.cpp:148] Top shape: 1 1 1000 (1000)
2016-07-20 16:09:36.740 STDERR [INFO] I0720 16:09:36.715406 15262 net.cpp:156] Memory required for data: 10004
2016-07-20 16:09:36.740 STDERR [INFO] I0720 16:09:36.715415 15262 layer_factory.hpp:77] Creating layer lstm1_cont_slice
2016-07-20 16:09:36.740 STDERR [INFO] I0720 16:09:36.715430 15262 net.cpp:91] Creating Layer lstm1_cont_slice
2016-07-20 16:09:36.741 STDERR [INFO] I0720 16:09:36.715441 15262 net.cpp:425] lstm1_cont_slice <- cont
2016-07-20 16:09:36.741 STDERR [INFO] I0720 16:09:36.715456 15262 net.cpp:399] lstm1_cont_slice -> cont_1
2016-07-20 16:09:36.741 STDERR [INFO] I0720 16:09:36.715477 15262 net.cpp:141] Setting up lstm1_cont_slice
2016-07-20 16:09:36.741 STDERR [INFO] I0720 16:09:36.715492 15262 net.cpp:148] Top shape: 1 1 (1)
2016-07-20 16:09:36.741 STDERR [INFO] I0720 16:09:36.715500 15262 net.cpp:156] Memory required for data: 10008
2016-07-20 16:09:36.741 STDERR [INFO] I0720 16:09:36.715508 15262 layer_factory.hpp:77] Creating layer cont_1_lstm1_cont_slice_0_split
2016-07-20 16:09:36.741 STDERR [INFO] I0720 16:09:36.715734 15262 net.cpp:91] Creating Layer cont_1_lstm1_cont_slice_0_split
2016-07-20 16:09:36.741 STDERR [INFO] I0720 16:09:36.715749 15262 net.cpp:425] cont_1_lstm1_cont_slice_0_split <- cont_1
2016-07-20 16:09:36.741 STDERR [INFO] I0720 16:09:36.715764 15262 net.cpp:399] cont_1_lstm1_cont_slice_0_split -> cont_1_lstm1_cont_slice_0_split_0
2016-07-20 16:09:36.741 STDERR [INFO] I0720 16:09:36.715781 15262 net.cpp:399] cont_1_lstm1_cont_slice_0_split -> cont_1_lstm1_cont_slice_0_split_1
2016-07-20 16:09:36.741 STDERR [INFO] I0720 16:09:36.715801 15262 net.cpp:141] Setting up cont_1_lstm1_cont_slice_0_split
2016-07-20 16:09:36.741 STDERR [INFO] I0720 16:09:36.715824 15262 net.cpp:148] Top shape: 1 1 (1)
2016-07-20 16:09:36.741 STDERR [INFO] I0720 16:09:36.715837 15262 net.cpp:148] Top shape: 1 1 (1)
2016-07-20 16:09:36.741 STDERR [INFO] I0720 16:09:36.715844 15262 net.cpp:156] Memory required for data: 10016
2016-07-20 16:09:36.742 STDERR [INFO] I0720 16:09:36.715853 15262 layer_factory.hpp:77] Creating layer lstm1_x_transform
2016-07-20 16:09:36.742 STDERR [INFO] I0720 16:09:36.715872 15262 net.cpp:91] Creating Layer lstm1_x_transform
2016-07-20 16:09:36.742 STDERR [INFO] I0720 16:09:36.715881 15262 net.cpp:425] lstm1_x_transform <- x
2016-07-20 16:09:36.742 STDERR [INFO] I0720 16:09:36.715909 15262 net.cpp:399] lstm1_x_transform -> W_xc_x
2016-07-20 16:09:36.742 STDERR [INFO] I0720 16:09:36.717927 15275 net.cpp:141] Setting up embedding
2016-07-20 16:09:36.742 STDERR [INFO] I0720 16:09:36.717952 15275 net.cpp:148] Top shape: 1 1 500 (500)
2016-07-20 16:09:36.742 STDERR [INFO] I0720 16:09:36.717957 15275 net.cpp:156] Memory required for data: 22408
2016-07-20 16:09:36.742 STDERR [INFO] I0720 16:09:36.717969 15275 layer_factory.hpp:77] Creating layer lstm1
2016-07-20 16:09:36.742 STDERR [INFO] I0720 16:09:36.717991 15275 net.cpp:91] Creating Layer lstm1
2016-07-20 16:09:36.742 STDERR [INFO] I0720 16:09:36.717998 15275 net.cpp:425] lstm1 <- embedded_input_frames
…
2016-07-20 16:09:36.767 STDERR [INFO] }
2016-07-20 16:09:36.767 STDERR [INFO] I0720 16:09:36.727322 15252 layer_factory.hpp:77] Creating layer lstm1_
2016-07-20 16:09:36.767 STDERR [INFO] I0720 16:09:36.727337 15252 net.cpp:91] Creating Layer lstm1_
2016-07-20 16:09:36.767 STDERR [INFO] I0720 16:09:36.727344 15252 net.cpp:399] lstm1_ -> x
2016-07-20 16:09:36.768 STDERR [INFO] I0720 16:09:36.727358 15252 net.cpp:399] lstm1_ -> cont
2016-07-20 16:09:36.768 STDERR [INFO] I0720 16:09:36.727372 15252 net.cpp:141] Setting up lstm1_
2016-07-20 16:09:36.768 STDERR [INFO] I0720 16:09:36.727381 15252 net.cpp:148] Top shape: 1 1 500 (500)
2016-07-20 16:09:36.768 STDERR [INFO] I0720 16:09:36.727388 15252 net.cpp:148] Top shape: 1 1 (1)
2016-07-20 16:09:36.768 STDERR [INFO] I0720 16:09:36.727392 15252 net.cpp:156] Memory required for data: 2004
2016-07-20 16:09:36.768 STDERR [INFO] I0720 16:09:36.727398 15252 layer_factory.hpp:77] Creating layer lstm1_
2016-07-20 16:09:36.768 STDERR [INFO] I0720 16:09:36.727406 15252 net.cpp:91] Creating Layer lstm1_
2016-07-20 16:09:36.768 STDERR [INFO] I0720 16:09:36.727414 15252 net.cpp:399] lstm1_ -> c_0
2016-07-20 16:09:36.768 STDERR [INFO] I0720 16:09:36.727424 15252 net.cpp:399] lstm1_ -> h_0
2016-07-20 16:09:36.768 STDERR [INFO] I0720 16:09:36.727435 15252 net.cpp:141] Setting up lstm1_
2016-07-20 16:09:36.768 STDERR [INFO] I0720 16:09:36.727442 15252 net.cpp:148] Top shape: 1 1 1000 (1000)
2016-07-20 16:09:36.768 STDERR [INFO] I0720 16:09:36.727448 15252 net.cpp:148] Top shape: 1 1 1000 (1000)
2016-07-20 16:09:36.768 STDERR [INFO] I0720 16:09:36.727453 15252 net.cpp:156] Memory required for data: 10004
2016-07-20 16:09:36.768 STDERR [INFO] I0720 16:09:36.727458 15252 layer_factory.hpp:77] Creating layer lstm1_cont_slice
2016-07-20 16:09:36.768 STDERR [INFO] I0720 16:09:36.727466 15252 net.cpp:91] Creating Layer lstm1_cont_slice
2016-07-20 16:09:36.769 STDERR [INFO] I0720 16:09:36.727471 15252 net.cpp:425] lstm1_cont_slice <- cont
2016-07-20 16:09:36.769 STDERR [INFO] I0720 16:09:36.727488 15252 net.cpp:399] lstm1_cont_slice -> cont_1
2016-07-20 16:09:36.769 STDERR [INFO] I0720 16:09:36.727504 15252 net.cpp:141] Setting up lstm1_cont_slice
2016-07-20 16:09:36.769 STDERR [INFO] I0720 16:09:36.727512 15252 net.cpp:148] Top shape: 1 1 (1)
2016-07-20 16:09:36.769 STDERR [INFO] I0720 16:09:36.727516 15252 net.cpp:156] Memory required for data: 10008
2016-07-20 16:09:36.769 STDERR [INFO] I0720 16:09:36.727521 15252 layer_factory.hpp:77] Creating layer cont_1_lstm1_cont_slice_0_split
2016-07-20 16:09:36.769 STDERR [INFO] I0720 16:09:36.727530 15252 net.cpp:91] Creating Layer cont_1_lstm1_cont_slice_0_split
2016-07-20 16:09:36.769 STDERR [INFO] I0720 16:09:36.727535 15252 net.cpp:425] cont_1_lstm1_cont_slice_0_split <- cont_1
2016-07-20 16:09:36.769 STDERR [INFO] I0720 16:09:36.727561 15252 net.cpp:399] cont_1_lstm1_cont_slice_0_split -> cont_1_lstm1_cont_slice_0_split_0
2016-07-20 16:09:36.769 STDERR [INFO] I0720 16:09:36.727571 15252 net.cpp:399] cont_1_lstm1_cont_slice_0_split -> cont_1_lstm1_cont_slice_0_split_1
2016-07-20 16:09:36.769 STDERR [INFO] I0720 16:09:36.727582 15252 net.cpp:141] Setting up cont_1_lstm1_cont_slice_0_split
2016-07-20 16:09:36.769 STDERR [INFO] I0720 16:09:36.727589 15252 net.cpp:148] Top shape: 1 1 (1)
2016-07-20 16:09:36.769 STDERR [INFO] I0720 16:09:36.727596 15252 net.cpp:148] Top shape: 1 1 (1)
2016-07-20 16:09:36.769 STDERR [INFO] I0720 16:09:36.727599 15252 net.cpp:156] Memory required for data: 10016
2016-07-20 16:09:36.769 STDERR [INFO] I0720 16:09:36.727604 15252 layer_factory.hpp:77] Creating layer lstm1_x_transform
2016-07-20 16:09:36.770 STDERR [INFO] I0720 16:09:36.727614 15252 net.cpp:91] Creating Layer lstm1_x_transform
2016-07-20 16:09:36.770 STDERR [INFO] I0720 16:09:36.727620 15252 net.cpp:425] lstm1_x_transform <- x
2016-07-20 16:09:36.770 STDERR [INFO] I0720 16:09:36.727632 15252 net.cpp:399] lstm1_x_transform -> W_xc_x
2016-07-20 16:09:36.770 STDERR [INFO] I0720 16:09:36.736914 15275 net.cpp:141] Setting up lstm1_x_transform
2016-07-20 16:09:36.770 STDERR [INFO] I0720 16:09:36.736948 15275 net.cpp:148] Top shape: 1 1 4000 (4000)
2016-07-20 16:09:36.770 STDERR [INFO] I0720 16:09:36.736953 15275 net.cpp:156] Memory required for data: 26016
2016-07-20 16:09:36.770 STDERR [INFO] I0720 16:09:36.736971 15275 layer_factory.hpp:77] Creating layer lstm1_W_xc_x_slice
2016-07-20 16:09:36.770 STDERR [INFO] I0720 16:09:36.736987 15275 net.cpp:91] Creating Layer lstm1_W_xc_x_slice
2016-07-20 16:09:36.770 STDERR [INFO] I0720 16:09:36.736994 15275 net.cpp:425] lstm1_W_xc_x_slice <- W_xc_x
2016-07-20 16:09:36.770 STDERR [INFO] I0720 16:09:36.737001 15275 net.cpp:399] lstm1_W_xc_x_slice -> W_xc_x_1
2016-07-20 16:09:36.770 STDERR [INFO] I0720 16:09:36.737018 15275 net.cpp:141] Setting up lstm1_W_xc_x_slice
2016-07-20 16:09:36.770 STDERR [INFO] I0720 16:09:36.737025 15275 net.cpp:148] Top shape: 1 1 4000 (4000)
2016-07-20 16:09:36.770 STDERR [INFO] I0720 16:09:36.737030 15275 net.cpp:156] Memory required for data: 42016
2016-07-20 16:09:36.770 STDERR [INFO] I0720 16:09:36.737033 15275 layer_factory.hpp:77] Creating layer lstm1_h_conted_0
2016-07-20 16:09:36.770 STDERR [INFO] I0720 16:09:36.737046 15275 net.cpp:91] Creating Layer lstm1_h_conted_0
2016-07-20 16:09:36.771 STDERR [INFO] I0720 16:09:36.737051 15275 net.cpp:425] lstm1_h_conted_0 <- h_0
2016-07-20 16:09:36.771 STDERR [INFO] I0720 16:09:36.737056 15275 net.cpp:425] lstm1_h_conted_0 <- cont_1_lstm1_cont_slice_0_split_0
2016-07-20 16:09:36.771 STDERR [INFO] I0720 16:09:36.737062 15275 net.cpp:399] lstm1_h_conted_0 -> h_conted_0
2016-07-20 16:09:36.771 STDERR [INFO] I0720 16:09:36.737081 15275 net.cpp:141] Setting up lstm1_h_conted_0
2016-07-20 16:09:36.771 STDERR [INFO] I0720 16:09:36.737087 15275 net.cpp:148] Top shape: 1 1 1000 (1000)
2016-07-20 16:09:36.771 STDERR [INFO] I0720 16:09:36.737092 15275 net.cpp:156] Memory required for data: 46016
2016-07-20 16:09:36.771 STDERR [INFO] I0720 16:09:36.737095 15275 layer_factory.hpp:77] Creating layer lstm1_transform_1
2016-07-20 16:09:36.771 STDERR [INFO] I0720 16:09:36.737107 15275 net.cpp:91] Creating Layer lstm1_transform_1
2016-07-20 16:09:36.771 STDERR [INFO] I0720 16:09:36.737112 15275 net.cpp:425] lstm1_transform_1 <- h_conted_0
2016-07-20 16:09:36.771 STDERR [INFO] I0720 16:09:36.737119 15275 net.cpp:399] lstm1_transform_1 -> W_hc_h_0
2016-07-20 16:09:36.771 STDERR [INFO] I0720 16:09:36.741401 15260 net.cpp:141] Setting up embedding
2016-07-20 16:09:36.771 STDERR [INFO] I0720 16:09:36.741461 15260 net.cpp:148] Top shape: 1 1 500 (500)
2016-07-20 16:09:36.771 STDERR [INFO] I0720 16:09:36.741466 15260 net.cpp:156] Memory required for data: 22408
2016-07-20 16:09:36.771 STDERR [INFO] I0720 16:09:36.741487 15260 layer_factory.hpp:77] Creating layer lstm1
2016-07-20 16:09:36.771 STDERR [INFO] I0720 16:09:36.742749 15260 net.cpp:91] Creating Layer lstm1
2016-07-20 16:09:36.771 STDERR [INFO] I0720 16:09:36.742774 15260 net.cpp:425] lstm1 <- embedded_input_frames
2016-07-20 16:09:36.772 STDERR [INFO] I0720 16:09:36.742792 15260 net.cpp:425] lstm1 <- cont_sentence_input_1_split_0
2016-07-20 16:09:36.772 STDERR [INFO] I0720 16:09:36.746793 15260 net.cpp:399] lstm1 -> lstm1
2016-07-20 16:09:36.772 STDERR [INFO] I0720 16:09:36.746865 15260 recurrent_layer.cpp:20] Initializing recurrent layer: assuming input batch contains 1 timesteps of 1 independent streams.
2016-07-20 16:09:36.772 STDERR [INFO] I0720 16:09:36.747275 15262 net.cpp:141] Setting up lstm1_x_transform
2016-07-20 16:09:36.772 STDERR [INFO] I0720 16:09:36.747335 15262 net.cpp:148] Top shape: 1 1 4000 (4000)
2016-07-20 16:09:36.772 STDERR [INFO] I0720 16:09:36.747355 15262 net.cpp:156] Memory required for data: 26016
2016-07-20 16:09:36.772 STDERR [INFO] I0720 16:09:36.747392 15262 layer_factory.hpp:77] Creating layer lstm1_W_xc_x_slice
2016-07-20 16:09:36.772 STDERR [INFO] I0720 16:09:36.747931 15262 net.cpp:91] Creating Layer lstm1_W_xc_x_slice
2016-07-20 16:09:36.773 STDERR [INFO] I0720 16:09:36.747957 15262 net.cpp:425] lstm1_W_xc_x_slice <- W_xc_x
2016-07-20 16:09:36.773 STDERR [INFO] I0720 16:09:36.747987 15262 net.cpp:399] lstm1_W_xc_x_slice -> W_xc_x_1
2016-07-20 16:09:36.773 STDERR [INFO] I0720 16:09:36.748016 15262 net.cpp:141] Setting up lstm1_W_xc_x_slice
2016-07-20 16:09:36.773 STDERR [INFO] I0720 16:09:36.748031 15262 net.cpp:148] Top shape: 1 1 4000 (4000)
2016-07-20 16:09:36.773 STDERR [INFO] I0720 16:09:36.748039 15262 net.cpp:156] Memory required for data: 42016
2016-07-20 16:09:36.773 STDERR [INFO] I0720 16:09:36.748047 15262 layer_factory.hpp:77] Creating layer lstm1_h_conted_0
2016-07-20 16:09:36.773 STDERR [INFO] I0720 16:09:36.748083 15262 net.cpp:91] Creating Layer lstm1_h_conted_0
2016-07-20 16:09:36.773 STDERR [INFO] I0720 16:09:36.748095 15262 net.cpp:425] lstm1_h_conted_0 <- h_0
2016-07-20 16:09:36.773 STDERR [INFO] I0720 16:09:36.748106 15262 net.cpp:425] lstm1_h_conted_0 <- cont_1_lstm1_cont_slice_0_split_0
2016-07-20 16:09:36.773 STDERR [INFO] I0720 16:09:36.748121 15262 net.cpp:399] lstm1_h_conted_0 -> h_conted_0
2016-07-20 16:09:36.773 STDERR [INFO] I0720 16:09:36.748167 15262 net.cpp:141] Setting up lstm1_h_conted_0
2016-07-20 16:09:36.773 STDERR [INFO] I0720 16:09:36.748183 15262 net.cpp:148] Top shape: 1 1 1000 (1000)
2016-07-20 16:09:36.773 STDERR [INFO] I0720 16:09:36.748190 15262 net.cpp:156] Memory required for data: 46016
2016-07-20 16:09:36.773 STDERR [INFO] I0720 16:09:36.748199 15262 layer_factory.hpp:77] Creating layer lstm1_transform_1
2016-07-20 16:09:36.773 STDERR [INFO] I0720 16:09:36.748216 15262 net.cpp:91] Creating Layer lstm1_transform_1
2016-07-20 16:09:36.774 STDERR [INFO] I0720 16:09:36.748224 15262 net.cpp:425] lstm1_transform_1 <- h_conted_0
…
2016-07-20 16:09:36.800 STDERR [INFO] I0720 16:09:36.751477 15248 net.cpp:91] Creating Layer lstm1_
2016-07-20 16:09:36.800 STDERR [INFO] I0720 16:09:36.751484 15248 net.cpp:399] lstm1_ -> x
2016-07-20 16:09:36.800 n.t.s.f.RefreshingImageFetcher$ImageReader [INFO] [Timing] RequestID: 0 StreamID: home/peifeng/work/data/frame.320x240.jpg SequenceNr: 96 Entering queue: 1469045376800
2016-07-20 16:09:36.800 STDERR [INFO] I0720 16:09:36.751495 15248 net.cpp:399] lstm1_ -> cont
2016-07-20 16:09:36.800 STDERR [INFO] I0720 16:09:36.751508 15248 net.cpp:141] Setting up lstm1_
2016-07-20 16:09:36.800 STDERR [INFO] I0720 16:09:36.751515 15248 net.cpp:148] Top shape: 1 1 500 (500)
2016-07-20 16:09:36.800 STDERR [INFO] I0720 16:09:36.751521 15248 net.cpp:148] Top shape: 1 1 (1)
2016-07-20 16:09:36.800 n.t.s.f.RefreshingImageFetcher$ImageReader [INFO] [Timing] RequestID: 0 StreamID: home/peifeng/work/data/frame.320x240.jpg SequenceNr: 97 Entering queue: 1469045376800
2016-07-20 16:09:36.800 STDERR [INFO] I0720 16:09:36.751525 15248 net.cpp:156] Memory required for data: 2004
2016-07-20 16:09:36.800 n.t.s.f.RefreshingImageFetcher$ImageReader [INFO] [Timing] RequestID: 0 StreamID: home/peifeng/work/data/frame.320x240.jpg SequenceNr: 98 Entering queue: 1469045376800
2016-07-20 16:09:36.800 STDERR [INFO] I0720 16:09:36.751529 15248 layer_factory.hpp:77] Creating layer lstm1_
2016-07-20 16:09:36.800 STDERR [INFO] I0720 16:09:36.751538 15248 net.cpp:91] Creating Layer lstm1_
2016-07-20 16:09:36.800 STDERR [INFO] I0720 16:09:36.751543 15248 net.cpp:399] lstm1_ -> c_0
2016-07-20 16:09:36.800 STDERR [INFO] I0720 16:09:36.751551 15248 net.cpp:399] lstm1_ -> h_0
2016-07-20 16:09:36.800 STDERR [INFO] I0720 16:09:36.751560 15248 net.cpp:141] Setting up lstm1_
2016-07-20 16:09:36.800 STDERR [INFO] I0720 16:09:36.751567 15248 net.cpp:148] Top shape: 1 1 1000 (1000)
2016-07-20 16:09:36.800 STDERR [INFO] I0720 16:09:36.751572 15248 net.cpp:148] Top shape: 1 1 1000 (1000)
2016-07-20 16:09:36.800 STDERR [INFO] I0720 16:09:36.751576 15248 net.cpp:156] Memory required for data: 10004
2016-07-20 16:09:36.800 STDERR [INFO] I0720 16:09:36.751580 15248 layer_factory.hpp:77] Creating layer lstm1_cont_slice
2016-07-20 16:09:36.800 STDERR [INFO] I0720 16:09:36.751587 15248 net.cpp:91] Creating Layer lstm1_cont_slice
2016-07-20 16:09:36.801 STDERR [INFO] I0720 16:09:36.751591 15248 net.cpp:425] lstm1_cont_slice <- cont
2016-07-20 16:09:36.801 STDERR [INFO] I0720 16:09:36.751598 15248 net.cpp:399] lstm1_cont_slice -> cont_1
2016-07-20 16:09:36.801 STDERR [INFO] I0720 16:09:36.751608 15248 net.cpp:141] Setting up lstm1_cont_slice
2016-07-20 16:09:36.801 STDERR [INFO] I0720 16:09:36.751616 15248 net.cpp:148] Top shape: 1 1 (1)
2016-07-20 16:09:36.801 STDERR [INFO] I0720 16:09:36.751619 15248 net.cpp:156] Memory required for data: 10008
2016-07-20 16:09:36.801 STDERR [INFO] I0720 16:09:36.751622 15248 layer_factory.hpp:77] Creating layer cont_1_lstm1_cont_slice_0_split
2016-07-20 16:09:36.801 STDERR [INFO] I0720 16:09:36.751655 15248 net.cpp:91] Creating Layer cont_1_lstm1_cont_slice_0_split
2016-07-20 16:09:36.801 STDERR [INFO] I0720 16:09:36.751663 15248 net.cpp:425] cont_1_lstm1_cont_slice_0_split <- cont_1
2016-07-20 16:09:36.801 STDERR [INFO] I0720 16:09:36.751670 15248 net.cpp:399] cont_1_lstm1_cont_slice_0_split -> cont_1_lstm1_cont_slice_0_split_0
2016-07-20 16:09:36.801 STDERR [INFO] I0720 16:09:36.751678 15248 net.cpp:399] cont_1_lstm1_cont_slice_0_split -> cont_1_lstm1_cont_slice_0_split_1
2016-07-20 16:09:36.801 STDERR [INFO] I0720 16:09:36.751688 15248 net.cpp:141] Setting up cont_1_lstm1_cont_slice_0_split
2016-07-20 16:09:36.801 STDERR [INFO] I0720 16:09:36.751706 15248 net.cpp:148] Top shape: 1 1 (1)
2016-07-20 16:09:36.801 STDERR [INFO] I0720 16:09:36.751713 15248 net.cpp:148] Top shape: 1 1 (1)
2016-07-20 16:09:36.801 STDERR [INFO] I0720 16:09:36.751716 15248 net.cpp:156] Memory required for data: 10016
2016-07-20 16:09:36.801 STDERR [INFO] I0720 16:09:36.751720 15248 layer_factory.hpp:77] Creating layer lstm1_x_transform
2016-07-20 16:09:36.801 STDERR [INFO] I0720 16:09:36.751729 15248 net.cpp:91] Creating Layer lstm1_x_transform
2016-07-20 16:09:36.801 STDERR [INFO] I0720 16:09:36.751734 15248 net.cpp:425] lstm1_x_transform <- x
2016-07-20 16:09:36.802 STDERR [INFO] I0720 16:09:36.751762 15248 net.cpp:399] lstm1_x_transform -> W_xc_x
2016-07-20 16:09:36.802 STDERR [INFO] I0720 16:09:36.760680 15252 net.cpp:141] Setting up lstm1_x_transform
2016-07-20 16:09:36.802 STDERR [INFO] I0720 16:09:36.760751 15252 net.cpp:148] Top shape: 1 1 4000 (4000)
2016-07-20 16:09:36.802 STDERR [INFO] I0720 16:09:36.760763 15252 net.cpp:156] Memory required for data: 26016
2016-07-20 16:09:36.802 STDERR [INFO] I0720 16:09:36.760803 15252 layer_factory.hpp:77] Creating layer lstm1_W_xc_x_slice
2016-07-20 16:09:36.802 STDERR [INFO] I0720 16:09:36.760833 15252 net.cpp:91] Creating Layer lstm1_W_xc_x_slice
2016-07-20 16:09:36.802 STDERR [INFO] I0720 16:09:36.760846 15252 net.cpp:425] lstm1_W_xc_x_slice <- W_xc_x
2016-07-20 16:09:36.802 STDERR [INFO] I0720 16:09:36.760895 15244 net.cpp:141] Setting up embedding
2016-07-20 16:09:36.802 STDERR [INFO] I0720 16:09:36.760939 15244 net.cpp:148] Top shape: 1 1 500 (500)
2016-07-20 16:09:36.802 STDERR [INFO] I0720 16:09:36.760946 15244 net.cpp:156] Memory required for data: 22408
2016-07-20 16:09:36.802 STDERR [INFO] I0720 16:09:36.760967 15244 layer_factory.hpp:77] Creating layer lstm1
2016-07-20 16:09:36.802 STDERR [INFO] I0720 16:09:36.761214 15244 net.cpp:91] Creating Layer lstm1
2016-07-20 16:09:36.802 STDERR [INFO] I0720 16:09:36.761227 15244 net.cpp:425] lstm1 <- embedded_input_frames
2016-07-20 16:09:36.802 STDERR [INFO] I0720 16:09:36.761225 15252 net.cpp:399] lstm1_W_xc_x_slice -> W_xc_x_1
2016-07-20 16:09:36.802 STDERR [INFO] I0720 16:09:36.761240 15244 net.cpp:425] lstm1 <- cont_sentence_input_1_split_0
2016-07-20 16:09:36.802 STDERR [INFO] I0720 16:09:36.761256 15244 net.cpp:399] lstm1 -> lstm1
2016-07-20 16:09:36.802 STDERR [INFO] I0720 16:09:36.761271 15252 net.cpp:141] Setting up lstm1_W_xc_x_slice
2016-07-20 16:09:36.803 STDERR [INFO] I0720 16:09:36.761276 15244 recurrent_layer.cpp:20] Initializing recurrent layer: assuming input batch contains 1 timesteps of 1 independent streams.
2016-07-20 16:09:36.803 STDERR [INFO] I0720 16:09:36.761287 15252 net.cpp:148] Top shape: 1 1 4000 (4000)
2016-07-20 16:09:36.803 STDERR [INFO] I0720 16:09:36.761297 15252 net.cpp:156] Memory required for data: 42016
2016-07-20 16:09:36.803 STDERR [INFO] I0720 16:09:36.761307 15252 layer_factory.hpp:77] Creating layer lstm1_h_conted_0
2016-07-20 16:09:36.803 STDERR [INFO] I0720 16:09:36.761350 15252 net.cpp:91] Creating Layer lstm1_h_conted_0
2016-07-20 16:09:36.803 STDERR [INFO] I0720 16:09:36.761363 15252 net.cpp:425] lstm1_h_conted_0 <- h_0
2016-07-20 16:09:36.803 STDERR [INFO] I0720 16:09:36.761374 15252 net.cpp:425] lstm1_h_conted_0 <- cont_1_lstm1_cont_slice_0_split_0
2016-07-20 16:09:36.803 STDERR [INFO] I0720 16:09:36.761389 15252 net.cpp:399] lstm1_h_conted_0 -> h_conted_0
2016-07-20 16:09:36.803 STDERR [INFO] I0720 16:09:36.761456 15252 net.cpp:141] Setting up lstm1_h_conted_0
2016-07-20 16:09:36.803 STDERR [INFO] I0720 16:09:36.761469 15252 net.cpp:148] Top shape: 1 1 1000 (1000)
2016-07-20 16:09:36.803 STDERR [INFO] I0720 16:09:36.761474 15252 net.cpp:156] Memory required for data: 46016
2016-07-20 16:09:36.803 STDERR [INFO] I0720 16:09:36.761479 15252 layer_factory.hpp:77] Creating layer lstm1_transform_1
2016-07-20 16:09:36.803 STDERR [INFO] I0720 16:09:36.761515 15252 net.cpp:91] Creating Layer lstm1_transform_1
2016-07-20 16:09:36.803 STDERR [INFO] I0720 16:09:36.761523 15252 net.cpp:425] lstm1_transform_1 <- h_conted_0
…
2016-07-20 16:09:36.813 STDERR [INFO] }
2016-07-20 16:09:36.813 STDERR [INFO] I0720 16:09:36.762365 15244 layer_factory.hpp:77] Creating layer lstm1_
2016-07-20 16:09:36.813 STDERR [INFO] I0720 16:09:36.762388 15244 net.cpp:91] Creating Layer lstm1_
2016-07-20 16:09:36.813 STDERR [INFO] I0720 16:09:36.762401 15244 net.cpp:399] lstm1_ -> x
2016-07-20 16:09:36.813 STDERR [INFO] I0720 16:09:36.762420 15244 net.cpp:399] lstm1_ -> cont
2016-07-20 16:09:36.813 STDERR [INFO] I0720 16:09:36.762440 15244 net.cpp:141] Setting up lstm1_
2016-07-20 16:09:36.813 STDERR [INFO] I0720 16:09:36.762451 15244 net.cpp:148] Top shape: 1 1 500 (500)
2016-07-20 16:09:36.813 STDERR [INFO] I0720 16:09:36.762460 15244 net.cpp:148] Top shape: 1 1 (1)
2016-07-20 16:09:36.813 STDERR [INFO] I0720 16:09:36.762466 15244 net.cpp:156] Memory required for data: 2004
2016-07-20 16:09:36.813 STDERR [INFO] I0720 16:09:36.762473 15244 layer_factory.hpp:77] Creating layer lstm1_
2016-07-20 16:09:36.813 STDERR [INFO] I0720 16:09:36.762485 15244 net.cpp:91] Creating Layer lstm1_
2016-07-20 16:09:36.814 STDERR [INFO] I0720 16:09:36.762495 15244 net.cpp:399] lstm1_ -> c_0
2016-07-20 16:09:36.814 STDERR [INFO] I0720 16:09:36.762512 15244 net.cpp:399] lstm1_ -> h_0
2016-07-20 16:09:36.814 STDERR [INFO] I0720 16:09:36.762526 15244 net.cpp:141] Setting up lstm1_
2016-07-20 16:09:36.814 STDERR [INFO] I0720 16:09:36.762537 15244 net.cpp:148] Top shape: 1 1 1000 (1000)
2016-07-20 16:09:36.814 STDERR [INFO] I0720 16:09:36.762544 15244 net.cpp:148] Top shape: 1 1 1000 (1000)
2016-07-20 16:09:36.814 STDERR [INFO] I0720 16:09:36.762550 15244 net.cpp:156] Memory required for data: 10004
2016-07-20 16:09:36.814 STDERR [INFO] I0720 16:09:36.762557 15244 layer_factory.hpp:77] Creating layer lstm1_cont_slice
2016-07-20 16:09:36.814 STDERR [INFO] I0720 16:09:36.762586 15244 net.cpp:91] Creating Layer lstm1_cont_slice
2016-07-20 16:09:36.815 STDERR [INFO] I0720 16:09:36.762596 15244 net.cpp:425] lstm1_cont_slice <- cont
2016-07-20 16:09:36.815 STDERR [INFO] I0720 16:09:36.762608 15244 net.cpp:399] lstm1_cont_slice -> cont_1
2016-07-20 16:09:36.815 STDERR [INFO] I0720 16:09:36.762624 15244 net.cpp:141] Setting up lstm1_cont_slice
2016-07-20 16:09:36.815 STDERR [INFO] I0720 16:09:36.762634 15244 net.cpp:148] Top shape: 1 1 (1)
2016-07-20 16:09:36.815 STDERR [INFO] I0720 16:09:36.762640 15244 net.cpp:156] Memory required for data: 10008
2016-07-20 16:09:36.815 STDERR [INFO] I0720 16:09:36.762647 15244 layer_factory.hpp:77] Creating layer cont_1_lstm1_cont_slice_0_split
2016-07-20 16:09:36.815 n.t.s.b.CVParticleBolt [INFO] [Timing] RequestID: 0 StreamID: home/peifeng/work/data/frame.320x240.jpg SequenceNr: 98 Entering scale: 1469045376815
2016-07-20 16:09:36.815 n.t.s.s.CVParticleSpout [INFO] [Timing] RequestID: 0 StreamID: home/peifeng/work/data/frame.320x240.jpg SequenceNr: 98 Leaving fetcher: 1469045376815 Size: 8702
2016-07-20 16:09:36.815 STDERR [INFO] I0720 16:09:36.762660 15244 net.cpp:91] Creating Layer cont_1_lstm1_cont_slice_0_split
2016-07-20 16:09:36.815 STDERR [INFO] I0720 16:09:36.762667 15244 net.cpp:425] cont_1_lstm1_cont_slice_0_split <- cont_1
2016-07-20 16:09:36.815 STDERR [INFO] I0720 16:09:36.762676 15244 net.cpp:399] cont_1_lstm1_cont_slice_0_split -> cont_1_lstm1_cont_slice_0_split_0
2016-07-20 16:09:36.815 STDERR [INFO] I0720 16:09:36.762701 15244 net.cpp:399] cont_1_lstm1_cont_slice_0_split -> cont_1_lstm1_cont_slice_0_split_1
2016-07-20 16:09:36.815 STDERR [INFO] I0720 16:09:36.762722 15244 net.cpp:141] Setting up cont_1_lstm1_cont_slice_0_split
2016-07-20 16:09:36.815 STDERR [INFO] I0720 16:09:36.762732 15244 net.cpp:148] Top shape: 1 1 (1)
2016-07-20 16:09:36.815 STDERR [INFO] I0720 16:09:36.762742 15244 net.cpp:148] Top shape: 1 1 (1)
2016-07-20 16:09:36.815 STDERR [INFO] I0720 16:09:36.762747 15244 net.cpp:156] Memory required for data: 10016
2016-07-20 16:09:36.816 STDERR [INFO] I0720 16:09:36.762753 15244 layer_factory.hpp:77] Creating layer lstm1_x_transform
2016-07-20 16:09:36.816 STDERR [INFO] I0720 16:09:36.762784 15244 net.cpp:91] Creating Layer lstm1_x_transform
2016-07-20 16:09:36.816 STDERR [INFO] I0720 16:09:36.762797 15244 net.cpp:425] lstm1_x_transform <- x
2016-07-20 16:09:36.816 STDERR [INFO] I0720 16:09:36.762811 15244 net.cpp:399] lstm1_x_transform -> W_xc_x
2016-07-20 16:09:36.816 STDERR [INFO] I0720 16:09:36.764783 15258 net.cpp:141] Setting up lstm1_transform_1
2016-07-20 16:09:36.816 STDERR [INFO] I0720 16:09:36.764818 15258 net.cpp:148] Top shape: 1 1 4000 (4000)
2016-07-20 16:09:36.816 STDERR [INFO] I0720 16:09:36.764827 15258 net.cpp:156] Memory required for data: 62016
2016-07-20 16:09:36.816 STDERR [INFO] I0720 16:09:36.764847 15258 layer_factory.hpp:77] Creating layer lstm1_gate_input_1
2016-07-20 16:09:36.816 STDERR [INFO] I0720 16:09:36.764875 15258 net.cpp:91] Creating Layer lstm1_gate_input_1
2016-07-20 16:09:36.816 STDERR [INFO] I0720 16:09:36.764885 15258 net.cpp:425] lstm1_gate_input_1 <- W_hc_h_0
2016-07-20 16:09:36.816 STDERR [INFO] I0720 16:09:36.764896 15258 net.cpp:425] lstm1_gate_input_1 <- W_xc_x_1
2016-07-20 16:09:36.816 STDERR [INFO] I0720 16:09:36.764910 15258 net.cpp:399] lstm1_gate_input_1 -> gate_input_1
2016-07-20 16:09:36.816 STDERR [INFO] I0720 16:09:36.764940 15258 net.cpp:141] Setting up lstm1_gate_input_1
2016-07-20 16:09:36.817 STDERR [INFO] I0720 16:09:36.764952 15258 net.cpp:148] Top shape: 1 1 4000 (4000)
2016-07-20 16:09:36.817 STDERR [INFO] I0720 16:09:36.764961 15258 net.cpp:156] Memory required for data: 78016
2016-07-20 16:09:36.817 STDERR [INFO] I0720 16:09:36.764968 15258 layer_factory.hpp:77] Creating layer lstm1_unit_1
2016-07-20 16:09:36.817 STDERR [INFO] I0720 16:09:36.765425 15258 net.cpp:91] Creating Layer lstm1_unit_1
2016-07-20 16:09:36.817 STDERR [INFO] I0720 16:09:36.765437 15258 net.cpp:425] lstm1_unit_1 <- c_0
2016-07-20 16:09:36.817 STDERR [INFO] I0720 16:09:36.765452 15258 net.cpp:425] lstm1_unit_1 <- gate_input_1
2016-07-20 16:09:36.817 STDERR [INFO] I0720 16:09:36.765462 15258 net.cpp:425] lstm1_unit_1 <- cont_1_lstm1_cont_slice_0_split_1
2016-07-20 16:09:36.817 STDERR [INFO] I0720 16:09:36.765478 15258 net.cpp:399] lstm1_unit_1 -> c_1
2016-07-20 16:09:36.818 STDERR [INFO] I0720 16:09:36.765493 15258 net.cpp:399] lstm1_unit_1 -> h_1
2016-07-20 16:09:36.818 STDERR [INFO] I0720 16:09:36.765518 15258 net.cpp:141] Setting up lstm1_unit_1
2016-07-20 16:09:36.818 STDERR [INFO] I0720 16:09:36.765534 15258 net.cpp:148] Top shape: 1 1 1000 (1000)
2016-07-20 16:09:36.818 STDERR [INFO] I0720 16:09:36.765545 15258 net.cpp:148] Top shape: 1 1 1000 (1000)
2016-07-20 16:09:36.818 STDERR [INFO] I0720 16:09:36.765552 15258 net.cpp:156] Memory required for data: 86016
2016-07-20 16:09:36.818 STDERR [INFO] I0720 16:09:36.765561 15258 layer_factory.hpp:77] Creating layer lstm1_
2016-07-20 16:09:36.818 STDERR [INFO] I0720 16:09:36.765573 15258 net.cpp:91] Creating Layer lstm1_
2016-07-20 16:09:36.818 STDERR [INFO] I0720 16:09:36.765580 15258 net.cpp:425] lstm1_ <- c_1
2016-07-20 16:09:36.818 STDERR [INFO] I0720 16:09:36.765591 15258 net.cpp:399] lstm1_ -> c_T
2016-07-20 16:09:36.818 STDERR [INFO] I0720 16:09:36.765606 15258 net.cpp:141] Setting up lstm1_
2016-07-20 16:09:36.818 n.t.s.b.CVParticleBolt [INFO] [Timing] RequestID: 0 StreamID: home/peifeng/work/data/frame.320x240.jpg SequenceNr: 97 Leaving scale: 1469045376818 Size: 3530
2016-07-20 16:09:36.818 STDERR [INFO] I0720 16:09:36.765619 15258 net.cpp:148] Top shape: 1 1 1000 (1000)
2016-07-20 16:09:36.818 STDERR [INFO] I0720 16:09:36.765626 15258 net.cpp:156] Memory required for data: 90016
2016-07-20 16:09:36.818 STDERR [INFO] I0720 16:09:36.765635 15258 layer_factory.hpp:77] Creating layer lstm1_h_concat
2016-07-20 16:09:36.819 STDERR [INFO] I0720 16:09:36.766028 15258 net.cpp:91] Creating Layer lstm1_h_concat
2016-07-20 16:09:36.819 STDERR [INFO] I0720 16:09:36.766041 15258 net.cpp:425] lstm1_h_concat <- h_1
2016-07-20 16:09:36.819 STDERR [INFO] I0720 16:09:36.766053 15258 net.cpp:399] lstm1_h_concat -> h
2016-07-20 16:09:36.819 STDERR [INFO] I0720 16:09:36.766073 15258 net.cpp:141] Setting up lstm1_h_concat
2016-07-20 16:09:36.819 STDERR [INFO] I0720 16:09:36.766085 15258 net.cpp:148] Top shape: 1 1 1000 (1000)
2016-07-20 16:09:36.819 STDERR [INFO] I0720 16:09:36.766093 15258 net.cpp:156] Memory required for data: 94016
2016-07-20 16:09:36.819 STDERR [INFO] I0720 16:09:36.766101 15258 layer_factory.hpp:77] Creating layer h_pseudoloss
2016-07-20 16:09:36.819 STDERR [INFO] I0720 16:09:36.766124 15258 net.cpp:91] Creating Layer h_pseudoloss
2016-07-20 16:09:36.819 STDERR [INFO] I0720 16:09:36.766132 15258 net.cpp:425] h_pseudoloss <- h
…
2016-07-20 16:09:36.827 STDERR [INFO] }
2016-07-20 16:09:36.827 STDERR [INFO] I0720 16:09:36.768643 15258 layer_factory.hpp:77] Creating layer lstm2_
2016-07-20 16:09:36.827 STDERR [INFO] I0720 16:09:36.768663 15258 net.cpp:91] Creating Layer lstm2_
2016-07-20 16:09:36.827 STDERR [INFO] I0720 16:09:36.768672 15258 net.cpp:399] lstm2_ -> x
2016-07-20 16:09:36.827 STDERR [INFO] I0720 16:09:36.768687 15258 net.cpp:399] lstm2_ -> cont
2016-07-20 16:09:36.827 STDERR [INFO] I0720 16:09:36.768703 15258 net.cpp:141] Setting up lstm2_
2016-07-20 16:09:36.827 STDERR [INFO] I0720 16:09:36.768714 15258 net.cpp:148] Top shape: 1 1 1501 (1501)
2016-07-20 16:09:36.827 STDERR [INFO] I0720 16:09:36.768723 15258 net.cpp:148] Top shape: 1 1 (1)
2016-07-20 16:09:36.827 STDERR [INFO] I0720 16:09:36.768729 15258 net.cpp:156] Memory required for data: 6008
2016-07-20 16:09:36.827 STDERR [INFO] I0720 16:09:36.768736 15258 layer_factory.hpp:77] Creating layer lstm2_
2016-07-20 16:09:36.827 STDERR [INFO] I0720 16:09:36.768748 15258 net.cpp:91] Creating Layer lstm2_
2016-07-20 16:09:36.827 STDERR [INFO] I0720 16:09:36.768756 15258 net.cpp:399] lstm2_ -> c_0
2016-07-20 16:09:36.827 STDERR [INFO] I0720 16:09:36.769210 15258 net.cpp:399] lstm2_ -> h_0
2016-07-20 16:09:36.827 STDERR [INFO] I0720 16:09:36.769230 15258 net.cpp:141] Setting up lstm2_
2016-07-20 16:09:36.828 STDERR [INFO] I0720 16:09:36.769242 15258 net.cpp:148] Top shape: 1 1 1000 (1000)
2016-07-20 16:09:36.828 STDERR [INFO] I0720 16:09:36.769249 15258 net.cpp:148] Top shape: 1 1 1000 (1000)
2016-07-20 16:09:36.828 STDERR [INFO] I0720 16:09:36.769255 15258 net.cpp:156] Memory required for data: 14008
2016-07-20 16:09:36.828 STDERR [INFO] I0720 16:09:36.769263 15258 layer_factory.hpp:77] Creating layer lstm2_cont_slice
2016-07-20 16:09:36.828 STDERR [INFO] I0720 16:09:36.769273 15258 net.cpp:91] Creating Layer lstm2_cont_slice
2016-07-20 16:09:36.828 STDERR [INFO] I0720 16:09:36.769280 15258 net.cpp:425] lstm2_cont_slice <- cont
2016-07-20 16:09:36.828 STDERR [INFO] I0720 16:09:36.769290 15258 net.cpp:399] lstm2_cont_slice -> cont_1
2016-07-20 16:09:36.828 STDERR [INFO] I0720 16:09:36.769305 15258 net.cpp:141] Setting up lstm2_cont_slice
2016-07-20 16:09:36.828 STDERR [INFO] I0720 16:09:36.769315 15258 net.cpp:148] Top shape: 1 1 (1)
2016-07-20 16:09:36.828 STDERR [INFO] I0720 16:09:36.769322 15258 net.cpp:156] Memory required for data: 14012
2016-07-20 16:09:36.828 STDERR [INFO] I0720 16:09:36.769328 15258 layer_factory.hpp:77] Creating layer cont_1_lstm2_cont_slice_0_split
2016-07-20 16:09:36.828 STDERR [INFO] I0720 16:09:36.769327 15250 net.cpp:141] Setting up embedding
2016-07-20 16:09:36.828 STDERR [INFO] I0720 16:09:36.769338 15258 net.cpp:91] Creating Layer cont_1_lstm2_cont_slice_0_split
2016-07-20 16:09:36.828 STDERR [INFO] I0720 16:09:36.769345 15258 net.cpp:425] cont_1_lstm2_cont_slice_0_split <- cont_1
2016-07-20 16:09:36.828 STDERR [INFO] I0720 16:09:36.769347 15250 net.cpp:148] Top shape: 1 1 500 (500)
2016-07-20 16:09:36.828 STDERR [INFO] I0720 16:09:36.769354 15250 net.cpp:156] Memory required for data: 22408
2016-07-20 16:09:36.828 STDERR [INFO] I0720 16:09:36.769354 15258 net.cpp:399] cont_1_lstm2_cont_slice_0_split -> cont_1_lstm2_cont_slice_0_split_0
2016-07-20 16:09:36.828 STDERR [INFO] I0720 16:09:36.769377 15250 layer_factory.hpp:77] Creating layer lstm1
2016-07-20 16:09:36.828 STDERR [INFO] I0720 16:09:36.769377 15258 net.cpp:399] cont_1_lstm2_cont_slice_0_split -> cont_1_lstm2_cont_slice_0_split_1
2016-07-20 16:09:36.828 STDERR [INFO] I0720 16:09:36.769395 15250 net.cpp:91] Creating Layer lstm1
2016-07-20 16:09:36.828 STDERR [INFO] I0720 16:09:36.769399 15258 net.cpp:141] Setting up cont_1_lstm2_cont_slice_0_split
2016-07-20 16:09:36.828 STDERR [INFO] I0720 16:09:36.769405 15250 net.cpp:425] lstm1 <- embedded_input_frames
2016-07-20 16:09:36.828 STDERR [INFO] I0720 16:09:36.769409 15258 net.cpp:148] Top shape: 1 1 (1)
2016-07-20 16:09:36.828 STDERR [INFO] I0720 16:09:36.769417 15250 net.cpp:425] lstm1 <- cont_sentence_input_1_split_0
2016-07-20 16:09:36.829 STDERR [INFO] I0720 16:09:36.769418 15258 net.cpp:148] Top shape: 1 1 (1)
2016-07-20 16:09:36.829 STDERR [INFO] I0720 16:09:36.769424 15258 net.cpp:156] Memory required for data: 14020
2016-07-20 16:09:36.829 STDERR [INFO] I0720 16:09:36.769431 15258 layer_factory.hpp:77] Creating layer lstm2_x_transform
2016-07-20 16:09:36.829 STDERR [INFO] I0720 16:09:36.769465 15250 net.cpp:399] lstm1 -> lstm1
2016-07-20 16:09:36.829 STDERR [INFO] I0720 16:09:36.769467 15258 net.cpp:91] Creating Layer lstm2_x_transform
…
2016-07-20 16:09:36.835 STDERR [INFO]   bottom: "h"
2016-07-20 16:09:36.835 STDERR [INFO]   top: "h_pseudoloss"
2016-07-20 16:09:36.835 STDERR [INFO]   loss_weight: 1
2016-07-20 16:09:36.835 STDERR [INFO] }
2016-07-20 16:09:36.835 STDERR [INFO] I0720 16:09:36.770426 15248 net.cpp:141] Setting up lstm1_x_transform
2016-07-20 16:09:36.835 STDERR [INFO] I0720 16:09:36.770437 15250 layer_factory.hpp:77] Creating layer lstm1_
2016-07-20 16:09:36.835 STDERR [INFO] I0720 16:09:36.770453 15250 net.cpp:91] Creating Layer lstm1_
2016-07-20 16:09:36.835 STDERR [INFO] I0720 16:09:36.770455 15248 net.cpp:148] Top shape: 1 1 4000 (4000)
2016-07-20 16:09:36.835 STDERR [INFO] I0720 16:09:36.770463 15250 net.cpp:399] lstm1_ -> x
2016-07-20 16:09:36.836 STDERR [INFO] I0720 16:09:36.770464 15248 net.cpp:156] Memory required for data: 26016
2016-07-20 16:09:36.836 STDERR [INFO] I0720 16:09:36.770479 15250 net.cpp:399] lstm1_ -> cont
2016-07-20 16:09:36.836 STDERR [INFO] I0720 16:09:36.770483 15248 layer_factory.hpp:77] Creating layer lstm1_W_xc_x_slice
2016-07-20 16:09:36.836 STDERR [INFO] I0720 16:09:36.770496 15248 net.cpp:91] Creating Layer lstm1_W_xc_x_slice
2016-07-20 16:09:36.836 STDERR [INFO] I0720 16:09:36.770496 15250 net.cpp:141] Setting up lstm1_
2016-07-20 16:09:36.836 STDERR [INFO] I0720 16:09:36.770504 15248 net.cpp:425] lstm1_W_xc_x_slice <- W_xc_x
2016-07-20 16:09:36.836 STDERR [INFO] I0720 16:09:36.770509 15250 net.cpp:148] Top shape: 1 1 500 (500)
2016-07-20 16:09:36.836 STDERR [INFO] I0720 16:09:36.770512 15248 net.cpp:399] lstm1_W_xc_x_slice -> W_xc_x_1
2016-07-20 16:09:36.836 STDERR [INFO] I0720 16:09:36.770519 15250 net.cpp:148] Top shape: 1 1 (1)
2016-07-20 16:09:36.836 STDERR [INFO] I0720 16:09:36.770525 15250 net.cpp:156] Memory required for data: 2004
2016-07-20 16:09:36.836 STDERR [INFO] I0720 16:09:36.770534 15250 layer_factory.hpp:77] Creating layer lstm1_
2016-07-20 16:09:36.836 STDERR [INFO] I0720 16:09:36.770544 15250 net.cpp:91] Creating Layer lstm1_
2016-07-20 16:09:36.836 STDERR [INFO] I0720 16:09:36.770552 15250 net.cpp:399] lstm1_ -> c_0
2016-07-20 16:09:36.836 STDERR [INFO] I0720 16:09:36.770565 15250 net.cpp:399] lstm1_ -> h_0
2016-07-20 16:09:36.836 STDERR [INFO] I0720 16:09:36.770579 15250 net.cpp:141] Setting up lstm1_
2016-07-20 16:09:36.836 STDERR [INFO] I0720 16:09:36.770591 15250 net.cpp:148] Top shape: 1 1 1000 (1000)
2016-07-20 16:09:36.837 STDERR [INFO] I0720 16:09:36.770598 15250 net.cpp:148] Top shape: 1 1 1000 (1000)
2016-07-20 16:09:36.837 STDERR [INFO] I0720 16:09:36.770604 15250 net.cpp:156] Memory required for data: 10004
2016-07-20 16:09:36.837 STDERR [INFO] I0720 16:09:36.770612 15250 layer_factory.hpp:77] Creating layer lstm1_cont_slice
2016-07-20 16:09:36.837 STDERR [INFO] I0720 16:09:36.770622 15250 net.cpp:91] Creating Layer lstm1_cont_slice
2016-07-20 16:09:36.837 STDERR [INFO] I0720 16:09:36.770628 15250 net.cpp:425] lstm1_cont_slice <- cont
2016-07-20 16:09:36.837 STDERR [INFO] I0720 16:09:36.770638 15250 net.cpp:399] lstm1_cont_slice -> cont_1
2016-07-20 16:09:36.837 STDERR [INFO] I0720 16:09:36.771005 15250 net.cpp:141] Setting up lstm1_cont_slice
2016-07-20 16:09:36.837 STDERR [INFO] I0720 16:09:36.771011 15248 net.cpp:141] Setting up lstm1_W_xc_x_slice
2016-07-20 16:09:36.837 STDERR [INFO] I0720 16:09:36.771020 15250 net.cpp:148] Top shape: 1 1 (1)
2016-07-20 16:09:36.837 STDERR [INFO] I0720 16:09:36.771028 15250 net.cpp:156] Memory required for data: 10008
2016-07-20 16:09:36.837 STDERR [INFO] I0720 16:09:36.771029 15248 net.cpp:148] Top shape: 1 1 4000 (4000)
2016-07-20 16:09:36.837 STDERR [INFO] I0720 16:09:36.771034 15250 layer_factory.hpp:77] Creating layer cont_1_lstm1_cont_slice_0_split
2016-07-20 16:09:36.837 STDERR [INFO] I0720 16:09:36.771037 15248 net.cpp:156] Memory required for data: 42016
2016-07-20 16:09:36.837 STDERR [INFO] I0720 16:09:36.771046 15248 layer_factory.hpp:77] Creating layer lstm1_h_conted_0
2016-07-20 16:09:36.837 STDERR [INFO] I0720 16:09:36.771060 15248 net.cpp:91] Creating Layer lstm1_h_conted_0
…
2016-07-20 16:09:36.848 STDERR [INFO] }
2016-07-20 16:09:36.848 STDERR [INFO] I0720 16:09:36.776096 15282 layer_factory.hpp:77] Creating layer lstm1_
2016-07-20 16:09:36.848 STDERR [INFO] I0720 16:09:36.776623 15282 net.cpp:91] Creating Layer lstm1_
2016-07-20 16:09:36.848 STDERR [INFO] I0720 16:09:36.776638 15282 net.cpp:399] lstm1_ -> x
2016-07-20 16:09:36.848 STDERR [INFO] I0720 16:09:36.776665 15282 net.cpp:399] lstm1_ -> cont
2016-07-20 16:09:36.848 STDERR [INFO] I0720 16:09:36.776691 15282 net.cpp:141] Setting up lstm1_
2016-07-20 16:09:36.849 STDERR [INFO] I0720 16:09:36.776710 15282 net.cpp:148] Top shape: 1 1 500 (500)
2016-07-20 16:09:36.849 STDERR [INFO] I0720 16:09:36.776722 15282 net.cpp:148] Top shape: 1 1 (1)
2016-07-20 16:09:36.849 STDERR [INFO] I0720 16:09:36.776731 15282 net.cpp:156] Memory required for data: 2004
2016-07-20 16:09:36.849 STDERR [INFO] I0720 16:09:36.776741 15282 layer_factory.hpp:77] Creating layer lstm1_
2016-07-20 16:09:36.849 STDERR [INFO] I0720 16:09:36.776757 15282 net.cpp:91] Creating Layer lstm1_
2016-07-20 16:09:36.849 STDERR [INFO] I0720 16:09:36.776770 15282 net.cpp:399] lstm1_ -> c_0
2016-07-20 16:09:36.849 STDERR [INFO] I0720 16:09:36.776790 15282 net.cpp:399] lstm1_ -> h_0
2016-07-20 16:09:36.850 STDERR [INFO] I0720 16:09:36.776809 15282 net.cpp:141] Setting up lstm1_
2016-07-20 16:09:36.850 STDERR [INFO] I0720 16:09:36.776824 15282 net.cpp:148] Top shape: 1 1 1000 (1000)
2016-07-20 16:09:36.850 STDERR [INFO] I0720 16:09:36.776836 15282 net.cpp:148] Top shape: 1 1 1000 (1000)
2016-07-20 16:09:36.850 STDERR [INFO] I0720 16:09:36.776844 15282 net.cpp:156] Memory required for data: 10004
2016-07-20 16:09:36.850 STDERR [INFO] I0720 16:09:36.776854 15282 layer_factory.hpp:77] Creating layer lstm1_cont_slice
2016-07-20 16:09:36.850 STDERR [INFO] I0720 16:09:36.776868 15282 net.cpp:91] Creating Layer lstm1_cont_slice
2016-07-20 16:09:36.850 STDERR [INFO] I0720 16:09:36.776878 15282 net.cpp:425] lstm1_cont_slice <- cont
2016-07-20 16:09:36.850 STDERR [INFO] I0720 16:09:36.776892 15282 net.cpp:399] lstm1_cont_slice -> cont_1
2016-07-20 16:09:36.850 STDERR [INFO] I0720 16:09:36.776914 15282 net.cpp:141] Setting up lstm1_cont_slice
2016-07-20 16:09:36.850 STDERR [INFO] I0720 16:09:36.776928 15282 net.cpp:148] Top shape: 1 1 (1)
2016-07-20 16:09:36.850 STDERR [INFO] I0720 16:09:36.776937 15282 net.cpp:156] Memory required for data: 10008
2016-07-20 16:09:36.850 STDERR [INFO] I0720 16:09:36.776947 15282 layer_factory.hpp:77] Creating layer cont_1_lstm1_cont_slice_0_split
2016-07-20 16:09:36.850 STDERR [INFO] I0720 16:09:36.777230 15282 net.cpp:91] Creating Layer cont_1_lstm1_cont_slice_0_split
2016-07-20 16:09:36.850 STDERR [INFO] I0720 16:09:36.777246 15282 net.cpp:425] cont_1_lstm1_cont_slice_0_split <- cont_1
2016-07-20 16:09:36.850 STDERR [INFO] I0720 16:09:36.777261 15282 net.cpp:399] cont_1_lstm1_cont_slice_0_split -> cont_1_lstm1_cont_slice_0_split_0
2016-07-20 16:09:36.851 STDERR [INFO] I0720 16:09:36.777279 15282 net.cpp:399] cont_1_lstm1_cont_slice_0_split -> cont_1_lstm1_cont_slice_0_split_1
2016-07-20 16:09:36.851 STDERR [INFO] I0720 16:09:36.777297 15282 net.cpp:141] Setting up cont_1_lstm1_cont_slice_0_split
2016-07-20 16:09:36.851 STDERR [INFO] I0720 16:09:36.777318 15282 net.cpp:148] Top shape: 1 1 (1)
2016-07-20 16:09:36.851 STDERR [INFO] I0720 16:09:36.777331 15282 net.cpp:148] Top shape: 1 1 (1)
2016-07-20 16:09:36.851 STDERR [INFO] I0720 16:09:36.777338 15282 net.cpp:156] Memory required for data: 10016
2016-07-20 16:09:36.851 STDERR [INFO] I0720 16:09:36.777346 15282 layer_factory.hpp:77] Creating layer lstm1_x_transform
2016-07-20 16:09:36.851 STDERR [INFO] I0720 16:09:36.777361 15282 net.cpp:91] Creating Layer lstm1_x_transform
2016-07-20 16:09:36.851 STDERR [INFO] I0720 16:09:36.777370 15282 net.cpp:425] lstm1_x_transform <- x
2016-07-20 16:09:36.851 STDERR [INFO] I0720 16:09:36.777856 15282 net.cpp:399] lstm1_x_transform -> W_xc_x
2016-07-20 16:09:36.851 STDERR [INFO] I0720 16:09:36.779286 15260 net.cpp:141] Setting up lstm1_x_transform
2016-07-20 16:09:36.851 STDERR [INFO] I0720 16:09:36.779312 15260 net.cpp:148] Top shape: 1 1 4000 (4000)
2016-07-20 16:09:36.851 STDERR [INFO] I0720 16:09:36.779321 15260 net.cpp:156] Memory required for data: 26016
2016-07-20 16:09:36.851 STDERR [INFO] I0720 16:09:36.779337 15260 layer_factory.hpp:77] Creating layer lstm1_W_xc_x_slice
2016-07-20 16:09:36.852 STDERR [INFO] I0720 16:09:36.779855 15260 net.cpp:91] Creating Layer lstm1_W_xc_x_slice
2016-07-20 16:09:36.852 STDERR [INFO] I0720 16:09:36.779870 15260 net.cpp:425] lstm1_W_xc_x_slice <- W_xc_x
2016-07-20 16:09:36.852 STDERR [INFO] I0720 16:09:36.779884 15260 net.cpp:399] lstm1_W_xc_x_slice -> W_xc_x_1
2016-07-20 16:09:36.852 STDERR [INFO] I0720 16:09:36.779914 15260 net.cpp:141] Setting up lstm1_W_xc_x_slice
2016-07-20 16:09:36.852 STDERR [INFO] I0720 16:09:36.779930 15260 net.cpp:148] Top shape: 1 1 4000 (4000)
2016-07-20 16:09:36.852 STDERR [INFO] I0720 16:09:36.779938 15260 net.cpp:156] Memory required for data: 42016
2016-07-20 16:09:36.852 STDERR [INFO] I0720 16:09:36.779947 15260 layer_factory.hpp:77] Creating layer lstm1_h_conted_0
2016-07-20 16:09:36.852 STDERR [INFO] I0720 16:09:36.779963 15260 net.cpp:91] Creating Layer lstm1_h_conted_0
2016-07-20 16:09:36.852 STDERR [INFO] I0720 16:09:36.779973 15260 net.cpp:425] lstm1_h_conted_0 <- h_0
2016-07-20 16:09:36.852 STDERR [INFO] I0720 16:09:36.779983 15260 net.cpp:425] lstm1_h_conted_0 <- cont_1_lstm1_cont_slice_0_split_0
2016-07-20 16:09:36.852 STDERR [INFO] I0720 16:09:36.779996 15260 net.cpp:399] lstm1_h_conted_0 -> h_conted_0
2016-07-20 16:09:36.852 STDERR [INFO] I0720 16:09:36.780069 15260 net.cpp:141] Setting up lstm1_h_conted_0
2016-07-20 16:09:36.852 STDERR [INFO] I0720 16:09:36.780086 15260 net.cpp:148] Top shape: 1 1 1000 (1000)
2016-07-20 16:09:36.852 STDERR [INFO] I0720 16:09:36.780094 15260 net.cpp:156] Memory required for data: 46016
2016-07-20 16:09:36.853 STDERR [INFO] I0720 16:09:36.780103 15260 layer_factory.hpp:77] Creating layer lstm1_transform_1
2016-07-20 16:09:36.853 STDERR [INFO] I0720 16:09:36.780122 15260 net.cpp:91] Creating Layer lstm1_transform_1
2016-07-20 16:09:36.853 STDERR [INFO] I0720 16:09:36.780130 15260 net.cpp:425] lstm1_transform_1 <- h_conted_0
2016-07-20 16:09:36.853 STDERR [INFO] I0720 16:09:36.780146 15260 net.cpp:399] lstm1_transform_1 -> W_hc_h_0
2016-07-20 16:09:36.853 STDERR [INFO] I0720 16:09:36.787775 15244 net.cpp:141] Setting up lstm1_x_transform
2016-07-20 16:09:36.853 STDERR [INFO] I0720 16:09:36.787817 15244 net.cpp:148] Top shape: 1 1 4000 (4000)
2016-07-20 16:09:36.853 STDERR [INFO] I0720 16:09:36.787825 15244 net.cpp:156] Memory required for data: 26016
2016-07-20 16:09:36.853 STDERR [INFO] I0720 16:09:36.787853 15244 layer_factory.hpp:77] Creating layer lstm1_W_xc_x_slice
2016-07-20 16:09:36.853 STDERR [INFO] I0720 16:09:36.788349 15244 net.cpp:91] Creating Layer lstm1_W_xc_x_slice
2016-07-20 16:09:36.853 STDERR [INFO] I0720 16:09:36.788364 15244 net.cpp:425] lstm1_W_xc_x_slice <- W_xc_x
2016-07-20 16:09:36.854 STDERR [INFO] I0720 16:09:36.788383 15244 net.cpp:399] lstm1_W_xc_x_slice -> W_xc_x_1
2016-07-20 16:09:36.854 STDERR [INFO] I0720 16:09:36.788414 15244 net.cpp:141] Setting up lstm1_W_xc_x_slice
2016-07-20 16:09:36.854 STDERR [INFO] I0720 16:09:36.788424 15244 net.cpp:148] Top shape: 1 1 4000 (4000)
2016-07-20 16:09:36.854 STDERR [INFO] I0720 16:09:36.788431 15244 net.cpp:156] Memory required for data: 42016
2016-07-20 16:09:36.854 STDERR [INFO] I0720 16:09:36.788437 15244 layer_factory.hpp:77] Creating layer lstm1_h_conted_0
2016-07-20 16:09:36.854 STDERR [INFO] I0720 16:09:36.788450 15244 net.cpp:91] Creating Layer lstm1_h_conted_0
2016-07-20 16:09:36.854 STDERR [INFO] I0720 16:09:36.788457 15244 net.cpp:425] lstm1_h_conted_0 <- h_0
2016-07-20 16:09:36.854 STDERR [INFO] I0720 16:09:36.788466 15244 net.cpp:425] lstm1_h_conted_0 <- cont_1_lstm1_cont_slice_0_split_0
2016-07-20 16:09:36.854 STDERR [INFO] I0720 16:09:36.788476 15244 net.cpp:399] lstm1_h_conted_0 -> h_conted_0
2016-07-20 16:09:36.854 STDERR [INFO] I0720 16:09:36.788492 15275 net.cpp:141] Setting up lstm1_transform_1
2016-07-20 16:09:36.854 STDERR [INFO] I0720 16:09:36.788512 15275 net.cpp:148] Top shape: 1 1 4000 (4000)
2016-07-20 16:09:36.855 STDERR [INFO] I0720 16:09:36.788519 15275 net.cpp:156] Memory required for data: 62016
2016-07-20 16:09:36.855 STDERR [INFO] I0720 16:09:36.788981 15275 layer_factory.hpp:77] Creating layer lstm1_gate_input_1
2016-07-20 16:09:36.855 STDERR [INFO] I0720 16:09:36.788995 15244 net.cpp:141] Setting up lstm1_h_conted_0
2016-07-20 16:09:36.855 STDERR [INFO] I0720 16:09:36.789002 15275 net.cpp:91] Creating Layer lstm1_gate_input_1
2016-07-20 16:09:36.855 STDERR [INFO] I0720 16:09:36.789010 15244 net.cpp:148] Top shape: 1 1 1000 (1000)
2016-07-20 16:09:36.855 STDERR [INFO] I0720 16:09:36.789012 15275 net.cpp:425] lstm1_gate_input_1 <- W_hc_h_0
2016-07-20 16:09:36.855 STDERR [INFO] I0720 16:09:36.789016 15244 net.cpp:156] Memory required for data: 46016
2016-07-20 16:09:36.855 STDERR [INFO] I0720 16:09:36.789022 15275 net.cpp:425] lstm1_gate_input_1 <- W_xc_x_1
2016-07-20 16:09:36.855 STDERR [INFO] I0720 16:09:36.789024 15244 layer_factory.hpp:77] Creating layer lstm1_transform_1
2016-07-20 16:09:36.855 STDERR [INFO] I0720 16:09:36.789036 15275 net.cpp:399] lstm1_gate_input_1 -> gate_input_1
2016-07-20 16:09:36.855 STDERR [INFO] I0720 16:09:36.789039 15244 net.cpp:91] Creating Layer lstm1_transform_1
2016-07-20 16:09:36.855 STDERR [INFO] I0720 16:09:36.789050 15244 net.cpp:425] lstm1_transform_1 <- h_conted_0
2016-07-20 16:09:36.855 STDERR [INFO] I0720 16:09:36.789054 15275 net.cpp:141] Setting up lstm1_gate_input_1
2016-07-20 16:09:36.855 STDERR [INFO] I0720 16:09:36.789065 15275 net.cpp:148] Top shape: 1 1 4000 (4000)
2016-07-20 16:09:36.855 STDERR [INFO] I0720 16:09:36.789067 15244 net.cpp:399] lstm1_transform_1 -> W_hc_h_0
2016-07-20 16:09:36.855 STDERR [INFO] I0720 16:09:36.789072 15275 net.cpp:156] Memory required for data: 78016
2016-07-20 16:09:36.856 STDERR [INFO] I0720 16:09:36.789079 15275 layer_factory.hpp:77] Creating layer lstm1_unit_1
2016-07-20 16:09:36.856 STDERR [INFO] I0720 16:09:36.789090 15275 net.cpp:91] Creating Layer lstm1_unit_1
2016-07-20 16:09:36.856 STDERR [INFO] I0720 16:09:36.789098 15275 net.cpp:425] lstm1_unit_1 <- c_0
2016-07-20 16:09:36.856 STDERR [INFO] I0720 16:09:36.789105 15275 net.cpp:425] lstm1_unit_1 <- gate_input_1
2016-07-20 16:09:36.856 STDERR [INFO] I0720 16:09:36.789113 15275 net.cpp:425] lstm1_unit_1 <- cont_1_lstm1_cont_slice_0_split_1
2016-07-20 16:09:36.856 STDERR [INFO] I0720 16:09:36.789124 15275 net.cpp:399] lstm1_unit_1 -> c_1
2016-07-20 16:09:36.856 STDERR [INFO] I0720 16:09:36.789630 15275 net.cpp:399] lstm1_unit_1 -> h_1
2016-07-20 16:09:36.856 STDERR [INFO] I0720 16:09:36.789652 15275 net.cpp:141] Setting up lstm1_unit_1
2016-07-20 16:09:36.856 STDERR [INFO] I0720 16:09:36.789664 15275 net.cpp:148] Top shape: 1 1 1000 (1000)
2016-07-20 16:09:36.856 STDERR [INFO] I0720 16:09:36.789671 15275 net.cpp:148] Top shape: 1 1 1000 (1000)
2016-07-20 16:09:36.856 STDERR [INFO] I0720 16:09:36.789677 15275 net.cpp:156] Memory required for data: 86016
2016-07-20 16:09:36.856 STDERR [INFO] I0720 16:09:36.789685 15275 layer_factory.hpp:77] Creating layer lstm1_
2016-07-20 16:09:36.856 STDERR [INFO] I0720 16:09:36.789695 15275 net.cpp:91] Creating Layer lstm1_
2016-07-20 16:09:36.856 STDERR [INFO] I0720 16:09:36.789702 15275 net.cpp:425] lstm1_ <- c_1
2016-07-20 16:09:36.857 STDERR [INFO] I0720 16:09:36.789715 15275 net.cpp:399] lstm1_ -> c_T
2016-07-20 16:09:36.857 STDERR [INFO] I0720 16:09:36.789727 15275 net.cpp:141] Setting up lstm1_
2016-07-20 16:09:36.857 STDERR [INFO] I0720 16:09:36.789736 15275 net.cpp:148] Top shape: 1 1 1000 (1000)
2016-07-20 16:09:36.857 STDERR [INFO] I0720 16:09:36.789742 15275 net.cpp:156] Memory required for data: 90016
2016-07-20 16:09:36.857 STDERR [INFO] I0720 16:09:36.789749 15275 layer_factory.hpp:77] Creating layer lstm1_h_concat
2016-07-20 16:09:36.857 STDERR [INFO] I0720 16:09:36.789760 15275 net.cpp:91] Creating Layer lstm1_h_concat
2016-07-20 16:09:36.857 STDERR [INFO] I0720 16:09:36.789767 15275 net.cpp:425] lstm1_h_concat <- h_1
2016-07-20 16:09:36.857 STDERR [INFO] I0720 16:09:36.789793 15275 net.cpp:399] lstm1_h_concat -> h
2016-07-20 16:09:36.857 STDERR [INFO] I0720 16:09:36.789811 15275 net.cpp:141] Setting up lstm1_h_concat
2016-07-20 16:09:36.857 STDERR [INFO] I0720 16:09:36.789821 15275 net.cpp:148] Top shape: 1 1 1000 (1000)
2016-07-20 16:09:36.857 STDERR [INFO] I0720 16:09:36.789829 15275 net.cpp:156] Memory required for data: 94016
2016-07-20 16:09:36.857 STDERR [INFO] I0720 16:09:36.789834 15275 layer_factory.hpp:77] Creating layer h_pseudoloss
2016-07-20 16:09:36.857 STDERR [INFO] I0720 16:09:36.789846 15275 net.cpp:91] Creating Layer h_pseudoloss
2016-07-20 16:09:36.857 STDERR [INFO] I0720 16:09:36.789852 15275 net.cpp:425] h_pseudoloss <- h
…
2016-07-20 16:09:36.870 STDERR [INFO] }
2016-07-20 16:09:36.870 STDERR [INFO] I0720 16:09:36.790863 15275 layer_factory.hpp:77] Creating layer lstm2_
2016-07-20 16:09:36.870 STDERR [INFO] I0720 16:09:36.790879 15275 net.cpp:91] Creating Layer lstm2_
2016-07-20 16:09:36.870 STDERR [INFO] I0720 16:09:36.790889 15275 net.cpp:399] lstm2_ -> x
2016-07-20 16:09:36.870 STDERR [INFO] I0720 16:09:36.790904 15275 net.cpp:399] lstm2_ -> cont
2016-07-20 16:09:36.870 STDERR [INFO] I0720 16:09:36.790921 15275 net.cpp:141] Setting up lstm2_
2016-07-20 16:09:36.870 STDERR [INFO] I0720 16:09:36.790931 15275 net.cpp:148] Top shape: 1 1 1501 (1501)
2016-07-20 16:09:36.870 STDERR [INFO] I0720 16:09:36.790941 15275 net.cpp:148] Top shape: 1 1 (1)
2016-07-20 16:09:36.870 STDERR [INFO] I0720 16:09:36.790947 15275 net.cpp:156] Memory required for data: 6008
2016-07-20 16:09:36.871 STDERR [INFO] I0720 16:09:36.790954 15275 layer_factory.hpp:77] Creating layer lstm2_
2016-07-20 16:09:36.871 STDERR [INFO] I0720 16:09:36.790966 15275 net.cpp:91] Creating Layer lstm2_
2016-07-20 16:09:36.871 STDERR [INFO] I0720 16:09:36.790974 15275 net.cpp:399] lstm2_ -> c_0
2016-07-20 16:09:36.871 STDERR [INFO] I0720 16:09:36.790988 15275 net.cpp:399] lstm2_ -> h_0
2016-07-20 16:09:36.871 STDERR [INFO] I0720 16:09:36.791002 15275 net.cpp:141] Setting up lstm2_
2016-07-20 16:09:36.871 STDERR [INFO] I0720 16:09:36.791013 15275 net.cpp:148] Top shape: 1 1 1000 (1000)
2016-07-20 16:09:36.871 STDERR [INFO] I0720 16:09:36.791020 15275 net.cpp:148] Top shape: 1 1 1000 (1000)
2016-07-20 16:09:36.871 STDERR [INFO] I0720 16:09:36.791028 15275 net.cpp:156] Memory required for data: 14008
2016-07-20 16:09:36.871 STDERR [INFO] I0720 16:09:36.791033 15275 layer_factory.hpp:77] Creating layer lstm2_cont_slice
2016-07-20 16:09:36.871 STDERR [INFO] I0720 16:09:36.791059 15275 net.cpp:91] Creating Layer lstm2_cont_slice
2016-07-20 16:09:36.871 STDERR [INFO] I0720 16:09:36.791067 15275 net.cpp:425] lstm2_cont_slice <- cont
2016-07-20 16:09:36.871 STDERR [INFO] I0720 16:09:36.791079 15275 net.cpp:399] lstm2_cont_slice -> cont_1
2016-07-20 16:09:36.871 STDERR [INFO] I0720 16:09:36.791093 15275 net.cpp:141] Setting up lstm2_cont_slice
2016-07-20 16:09:36.871 STDERR [INFO] I0720 16:09:36.791103 15275 net.cpp:148] Top shape: 1 1 (1)
2016-07-20 16:09:36.871 STDERR [INFO] I0720 16:09:36.791110 15275 net.cpp:156] Memory required for data: 14012
2016-07-20 16:09:36.871 STDERR [INFO] I0720 16:09:36.791116 15275 layer_factory.hpp:77] Creating layer cont_1_lstm2_cont_slice_0_split
2016-07-20 16:09:36.872 STDERR [INFO] I0720 16:09:36.791126 15275 net.cpp:91] Creating Layer cont_1_lstm2_cont_slice_0_split
2016-07-20 16:09:36.872 STDERR [INFO] I0720 16:09:36.791132 15275 net.cpp:425] cont_1_lstm2_cont_slice_0_split <- cont_1
2016-07-20 16:09:36.872 STDERR [INFO] I0720 16:09:36.791142 15275 net.cpp:399] cont_1_lstm2_cont_slice_0_split -> cont_1_lstm2_cont_slice_0_split_0
2016-07-20 16:09:36.872 STDERR [INFO] I0720 16:09:36.791153 15275 net.cpp:399] cont_1_lstm2_cont_slice_0_split -> cont_1_lstm2_cont_slice_0_split_1
2016-07-20 16:09:36.872 STDERR [INFO] I0720 16:09:36.791167 15275 net.cpp:141] Setting up cont_1_lstm2_cont_slice_0_split
2016-07-20 16:09:36.872 STDERR [INFO] I0720 16:09:36.791177 15275 net.cpp:148] Top shape: 1 1 (1)
2016-07-20 16:09:36.872 STDERR [INFO] I0720 16:09:36.791184 15275 net.cpp:148] Top shape: 1 1 (1)
2016-07-20 16:09:36.872 STDERR [INFO] I0720 16:09:36.791189 15275 net.cpp:156] Memory required for data: 14020
2016-07-20 16:09:36.872 STDERR [INFO] I0720 16:09:36.791196 15275 layer_factory.hpp:77] Creating layer lstm2_x_transform
2016-07-20 16:09:36.872 STDERR [INFO] I0720 16:09:36.791604 15275 net.cpp:91] Creating Layer lstm2_x_transform
2016-07-20 16:09:36.872 STDERR [INFO] I0720 16:09:36.791615 15275 net.cpp:425] lstm2_x_transform <- x
2016-07-20 16:09:36.872 STDERR [INFO] I0720 16:09:36.791626 15275 net.cpp:399] lstm2_x_transform -> W_xc_x
2016-07-20 16:09:36.872 STDERR [INFO] I0720 16:09:36.792939 15278 net.cpp:141] Setting up embedding
2016-07-20 16:09:36.872 STDERR [INFO] I0720 16:09:36.792992 15278 net.cpp:148] Top shape: 1 1 500 (500)
2016-07-20 16:09:36.872 STDERR [INFO] I0720 16:09:36.793002 15278 net.cpp:156] Memory required for data: 22408
2016-07-20 16:09:36.872 STDERR [INFO] I0720 16:09:36.793028 15278 layer_factory.hpp:77] Creating layer lstm1
2016-07-20 16:09:36.873 STDERR [INFO] I0720 16:09:36.793334 15278 net.cpp:91] Creating Layer lstm1
2016-07-20 16:09:36.873 STDERR [INFO] I0720 16:09:36.793350 15278 net.cpp:425] lstm1 <- embedded_input_frames
…
2016-07-20 16:09:36.882 STDERR [INFO] }
2016-07-20 16:09:36.882 STDERR [INFO] I0720 16:09:36.797552 15278 layer_factory.hpp:77] Creating layer lstm1_
2016-07-20 16:09:36.882 STDERR [INFO] I0720 16:09:36.797580 15278 net.cpp:91] Creating Layer lstm1_
2016-07-20 16:09:36.882 STDERR [INFO] I0720 16:09:36.797593 15278 net.cpp:399] lstm1_ -> x
2016-07-20 16:09:36.882 STDERR [INFO] I0720 16:09:36.797617 15278 net.cpp:399] lstm1_ -> cont
2016-07-20 16:09:36.882 STDERR [INFO] I0720 16:09:36.797643 15278 net.cpp:141] Setting up lstm1_
2016-07-20 16:09:36.882 STDERR [INFO] I0720 16:09:36.797658 15278 net.cpp:148] Top shape: 1 1 500 (500)
2016-07-20 16:09:36.883 STDERR [INFO] I0720 16:09:36.797670 15278 net.cpp:148] Top shape: 1 1 (1)
2016-07-20 16:09:36.883 STDERR [INFO] I0720 16:09:36.797677 15278 net.cpp:156] Memory required for data: 2004
2016-07-20 16:09:36.883 STDERR [INFO] I0720 16:09:36.797688 15278 layer_factory.hpp:77] Creating layer lstm1_
2016-07-20 16:09:36.883 STDERR [INFO] I0720 16:09:36.797701 15278 net.cpp:91] Creating Layer lstm1_
2016-07-20 16:09:36.883 STDERR [INFO] I0720 16:09:36.797716 15278 net.cpp:399] lstm1_ -> c_0
2016-07-20 16:09:36.883 STDERR [INFO] I0720 16:09:36.797734 15278 net.cpp:399] lstm1_ -> h_0
2016-07-20 16:09:36.883 STDERR [INFO] I0720 16:09:36.797751 15278 net.cpp:141] Setting up lstm1_
2016-07-20 16:09:36.883 STDERR [INFO] I0720 16:09:36.797765 15278 net.cpp:148] Top shape: 1 1 1000 (1000)
2016-07-20 16:09:36.883 STDERR [INFO] I0720 16:09:36.797775 15278 net.cpp:148] Top shape: 1 1 1000 (1000)
2016-07-20 16:09:36.883 STDERR [INFO] I0720 16:09:36.797782 15278 net.cpp:156] Memory required for data: 10004
2016-07-20 16:09:36.883 STDERR [INFO] I0720 16:09:36.797791 15278 layer_factory.hpp:77] Creating layer lstm1_cont_slice
2016-07-20 16:09:36.883 STDERR [INFO] I0720 16:09:36.797806 15278 net.cpp:91] Creating Layer lstm1_cont_slice
2016-07-20 16:09:36.883 STDERR [INFO] I0720 16:09:36.797816 15278 net.cpp:425] lstm1_cont_slice <- cont
2016-07-20 16:09:36.883 STDERR [INFO] I0720 16:09:36.798084 15278 net.cpp:399] lstm1_cont_slice -> cont_1
2016-07-20 16:09:36.883 STDERR [INFO] I0720 16:09:36.798111 15278 net.cpp:141] Setting up lstm1_cont_slice
2016-07-20 16:09:36.883 STDERR [INFO] I0720 16:09:36.798126 15278 net.cpp:148] Top shape: 1 1 (1)
2016-07-20 16:09:36.883 STDERR [INFO] I0720 16:09:36.798133 15278 net.cpp:156] Memory required for data: 10008
2016-07-20 16:09:36.884 STDERR [INFO] I0720 16:09:36.798142 15278 layer_factory.hpp:77] Creating layer cont_1_lstm1_cont_slice_0_split
2016-07-20 16:09:36.884 STDERR [INFO] I0720 16:09:36.798156 15278 net.cpp:91] Creating Layer cont_1_lstm1_cont_slice_0_split
2016-07-20 16:09:36.884 STDERR [INFO] I0720 16:09:36.798163 15278 net.cpp:425] cont_1_lstm1_cont_slice_0_split <- cont_1
2016-07-20 16:09:36.884 STDERR [INFO] I0720 16:09:36.798190 15278 net.cpp:399] cont_1_lstm1_cont_slice_0_split -> cont_1_lstm1_cont_slice_0_split_0
2016-07-20 16:09:36.884 STDERR [INFO] I0720 16:09:36.798207 15278 net.cpp:399] cont_1_lstm1_cont_slice_0_split -> cont_1_lstm1_cont_slice_0_split_1
2016-07-20 16:09:36.884 STDERR [INFO] I0720 16:09:36.798225 15278 net.cpp:141] Setting up cont_1_lstm1_cont_slice_0_split
2016-07-20 16:09:36.884 STDERR [INFO] I0720 16:09:36.798238 15278 net.cpp:148] Top shape: 1 1 (1)
2016-07-20 16:09:36.884 STDERR [INFO] I0720 16:09:36.798248 15278 net.cpp:148] Top shape: 1 1 (1)
2016-07-20 16:09:36.884 STDERR [INFO] I0720 16:09:36.798254 15278 net.cpp:156] Memory required for data: 10016
2016-07-20 16:09:36.884 STDERR [INFO] I0720 16:09:36.798264 15278 layer_factory.hpp:77] Creating layer lstm1_x_transform
2016-07-20 16:09:36.884 STDERR [INFO] I0720 16:09:36.798717 15278 net.cpp:91] Creating Layer lstm1_x_transform
2016-07-20 16:09:36.884 STDERR [INFO] I0720 16:09:36.798732 15278 net.cpp:425] lstm1_x_transform <- x
2016-07-20 16:09:36.884 STDERR [INFO] I0720 16:09:36.798748 15278 net.cpp:399] lstm1_x_transform -> W_xc_x
2016-07-20 16:09:36.884 STDERR [INFO] I0720 16:09:36.802342 15252 net.cpp:141] Setting up lstm1_transform_1
2016-07-20 16:09:36.884 STDERR [INFO] I0720 16:09:36.802386 15252 net.cpp:148] Top shape: 1 1 4000 (4000)
2016-07-20 16:09:36.884 STDERR [INFO] I0720 16:09:36.802392 15252 net.cpp:156] Memory required for data: 62016
2016-07-20 16:09:36.885 STDERR [INFO] I0720 16:09:36.802412 15252 layer_factory.hpp:77] Creating layer lstm1_gate_input_1
2016-07-20 16:09:36.885 STDERR [INFO] I0720 16:09:36.802434 15252 net.cpp:91] Creating Layer lstm1_gate_input_1
2016-07-20 16:09:36.885 STDERR [INFO] I0720 16:09:36.802441 15252 net.cpp:425] lstm1_gate_input_1 <- W_hc_h_0
2016-07-20 16:09:36.885 STDERR [INFO] I0720 16:09:36.802449 15252 net.cpp:425] lstm1_gate_input_1 <- W_xc_x_1
2016-07-20 16:09:36.885 STDERR [INFO] I0720 16:09:36.802459 15252 net.cpp:399] lstm1_gate_input_1 -> gate_input_1
2016-07-20 16:09:36.885 STDERR [INFO] I0720 16:09:36.802505 15252 net.cpp:141] Setting up lstm1_gate_input_1
2016-07-20 16:09:36.885 STDERR [INFO] I0720 16:09:36.802515 15252 net.cpp:148] Top shape: 1 1 4000 (4000)
2016-07-20 16:09:36.885 STDERR [INFO] I0720 16:09:36.802520 15252 net.cpp:156] Memory required for data: 78016
2016-07-20 16:09:36.885 STDERR [INFO] I0720 16:09:36.802525 15252 layer_factory.hpp:77] Creating layer lstm1_unit_1
2016-07-20 16:09:36.885 STDERR [INFO] I0720 16:09:36.802534 15252 net.cpp:91] Creating Layer lstm1_unit_1
2016-07-20 16:09:36.885 STDERR [INFO] I0720 16:09:36.802539 15252 net.cpp:425] lstm1_unit_1 <- c_0
2016-07-20 16:09:36.885 STDERR [INFO] I0720 16:09:36.802546 15252 net.cpp:425] lstm1_unit_1 <- gate_input_1
2016-07-20 16:09:36.885 STDERR [INFO] I0720 16:09:36.802551 15252 net.cpp:425] lstm1_unit_1 <- cont_1_lstm1_cont_slice_0_split_1
2016-07-20 16:09:36.885 STDERR [INFO] I0720 16:09:36.802575 15252 net.cpp:399] lstm1_unit_1 -> c_1
2016-07-20 16:09:36.885 STDERR [INFO] I0720 16:09:36.802588 15252 net.cpp:399] lstm1_unit_1 -> h_1
2016-07-20 16:09:36.885 STDERR [INFO] I0720 16:09:36.802603 15252 net.cpp:141] Setting up lstm1_unit_1
2016-07-20 16:09:36.886 STDERR [INFO] I0720 16:09:36.802609 15252 net.cpp:148] Top shape: 1 1 1000 (1000)
2016-07-20 16:09:36.886 STDERR [INFO] I0720 16:09:36.802615 15252 net.cpp:148] Top shape: 1 1 1000 (1000)
2016-07-20 16:09:36.886 STDERR [INFO] I0720 16:09:36.802619 15252 net.cpp:156] Memory required for data: 86016
2016-07-20 16:09:36.886 STDERR [INFO] I0720 16:09:36.802624 15252 layer_factory.hpp:77] Creating layer lstm1_
2016-07-20 16:09:36.886 STDERR [INFO] I0720 16:09:36.802633 15252 net.cpp:91] Creating Layer lstm1_
2016-07-20 16:09:36.886 STDERR [INFO] I0720 16:09:36.802637 15252 net.cpp:425] lstm1_ <- c_1
2016-07-20 16:09:36.886 STDERR [INFO] I0720 16:09:36.802662 15252 net.cpp:399] lstm1_ -> c_T
2016-07-20 16:09:36.886 STDERR [INFO] I0720 16:09:36.802673 15252 net.cpp:141] Setting up lstm1_
2016-07-20 16:09:36.886 STDERR [INFO] I0720 16:09:36.802681 15252 net.cpp:148] Top shape: 1 1 1000 (1000)
2016-07-20 16:09:36.886 STDERR [INFO] I0720 16:09:36.802696 15252 net.cpp:156] Memory required for data: 90016
2016-07-20 16:09:36.886 STDERR [INFO] I0720 16:09:36.802703 15252 layer_factory.hpp:77] Creating layer lstm1_h_concat
2016-07-20 16:09:36.886 STDERR [INFO] I0720 16:09:36.802713 15252 net.cpp:91] Creating Layer lstm1_h_concat
2016-07-20 16:09:36.886 STDERR [INFO] I0720 16:09:36.802719 15252 net.cpp:425] lstm1_h_concat <- h_1
2016-07-20 16:09:36.886 STDERR [INFO] I0720 16:09:36.802729 15252 net.cpp:399] lstm1_h_concat -> h
2016-07-20 16:09:36.886 STDERR [INFO] I0720 16:09:36.802745 15252 net.cpp:141] Setting up lstm1_h_concat
2016-07-20 16:09:36.886 STDERR [INFO] I0720 16:09:36.802736 15250 net.cpp:141] Setting up lstm1_x_transform
2016-07-20 16:09:36.887 STDERR [INFO] I0720 16:09:36.802752 15252 net.cpp:148] Top shape: 1 1 1000 (1000)
2016-07-20 16:09:36.887 STDERR [INFO] I0720 16:09:36.802774 15252 net.cpp:156] Memory required for data: 94016
2016-07-20 16:09:36.887 STDERR [INFO] I0720 16:09:36.802778 15250 net.cpp:148] Top shape: 1 1 4000 (4000)
2016-07-20 16:09:36.887 STDERR [INFO] I0720 16:09:36.802781 15252 layer_factory.hpp:77] Creating layer h_pseudoloss
2016-07-20 16:09:36.887 STDERR [INFO] I0720 16:09:36.802788 15250 net.cpp:156] Memory required for data: 26016
2016-07-20 16:09:36.887 STDERR [INFO] I0720 16:09:36.802793 15252 net.cpp:91] Creating Layer h_pseudoloss
2016-07-20 16:09:36.887 STDERR [INFO] I0720 16:09:36.802798 15252 net.cpp:425] h_pseudoloss <- h
…
2016-07-20 16:09:36.901 STDERR [INFO] }
2016-07-20 16:09:36.901 STDERR [INFO] I0720 16:09:36.803745 15252 layer_factory.hpp:77] Creating layer lstm2_
2016-07-20 16:09:36.901 STDERR [INFO] I0720 16:09:36.803761 15252 net.cpp:91] Creating Layer lstm2_
2016-07-20 16:09:36.901 STDERR [INFO] I0720 16:09:36.803768 15252 net.cpp:399] lstm2_ -> x
2016-07-20 16:09:36.901 STDERR [INFO] I0720 16:09:36.803781 15252 net.cpp:399] lstm2_ -> cont
2016-07-20 16:09:36.901 STDERR [INFO] I0720 16:09:36.803793 15252 net.cpp:141] Setting up lstm2_
2016-07-20 16:09:36.901 STDERR [INFO] I0720 16:09:36.803802 15252 net.cpp:148] Top shape: 1 1 1501 (1501)
2016-07-20 16:09:36.901 STDERR [INFO] I0720 16:09:36.803807 15252 net.cpp:148] Top shape: 1 1 (1)
2016-07-20 16:09:36.901 STDERR [INFO] I0720 16:09:36.803812 15252 net.cpp:156] Memory required for data: 6008
2016-07-20 16:09:36.901 STDERR [INFO] I0720 16:09:36.803817 15252 layer_factory.hpp:77] Creating layer lstm2_
2016-07-20 16:09:36.901 STDERR [INFO] I0720 16:09:36.803824 15252 net.cpp:91] Creating Layer lstm2_
2016-07-20 16:09:36.901 STDERR [INFO] I0720 16:09:36.803833 15252 net.cpp:399] lstm2_ -> c_0
2016-07-20 16:09:36.901 STDERR [INFO] I0720 16:09:36.803843 15252 net.cpp:399] lstm2_ -> h_0
2016-07-20 16:09:36.901 STDERR [INFO] I0720 16:09:36.803853 15252 net.cpp:141] Setting up lstm2_
2016-07-20 16:09:36.901 STDERR [INFO] I0720 16:09:36.803860 15252 net.cpp:148] Top shape: 1 1 1000 (1000)
2016-07-20 16:09:36.902 STDERR [INFO] I0720 16:09:36.803866 15252 net.cpp:148] Top shape: 1 1 1000 (1000)
2016-07-20 16:09:36.902 STDERR [INFO] I0720 16:09:36.803871 15252 net.cpp:156] Memory required for data: 14008
2016-07-20 16:09:36.902 STDERR [INFO] I0720 16:09:36.803875 15252 layer_factory.hpp:77] Creating layer lstm2_cont_slice
2016-07-20 16:09:36.902 STDERR [INFO] I0720 16:09:36.803884 15252 net.cpp:91] Creating Layer lstm2_cont_slice
2016-07-20 16:09:36.902 STDERR [INFO] I0720 16:09:36.803889 15252 net.cpp:425] lstm2_cont_slice <- cont
2016-07-20 16:09:36.902 STDERR [INFO] I0720 16:09:36.803895 15252 net.cpp:399] lstm2_cont_slice -> cont_1
2016-07-20 16:09:36.902 STDERR [INFO] I0720 16:09:36.803907 15252 net.cpp:141] Setting up lstm2_cont_slice
2016-07-20 16:09:36.902 STDERR [INFO] I0720 16:09:36.803915 15252 net.cpp:148] Top shape: 1 1 (1)
2016-07-20 16:09:36.902 STDERR [INFO] I0720 16:09:36.803918 15252 net.cpp:156] Memory required for data: 14012
2016-07-20 16:09:36.902 STDERR [INFO] I0720 16:09:36.803923 15252 layer_factory.hpp:77] Creating layer cont_1_lstm2_cont_slice_0_split
2016-07-20 16:09:36.902 STDERR [INFO] I0720 16:09:36.803930 15252 net.cpp:91] Creating Layer cont_1_lstm2_cont_slice_0_split
2016-07-20 16:09:36.902 STDERR [INFO] I0720 16:09:36.803935 15252 net.cpp:425] cont_1_lstm2_cont_slice_0_split <- cont_1
2016-07-20 16:09:36.902 STDERR [INFO] I0720 16:09:36.803961 15252 net.cpp:399] cont_1_lstm2_cont_slice_0_split -> cont_1_lstm2_cont_slice_0_split_0
2016-07-20 16:09:36.902 STDERR [INFO] I0720 16:09:36.803972 15252 net.cpp:399] cont_1_lstm2_cont_slice_0_split -> cont_1_lstm2_cont_slice_0_split_1
2016-07-20 16:09:36.902 STDERR [INFO] I0720 16:09:36.803982 15252 net.cpp:141] Setting up cont_1_lstm2_cont_slice_0_split
2016-07-20 16:09:36.902 STDERR [INFO] I0720 16:09:36.803989 15252 net.cpp:148] Top shape: 1 1 (1)
2016-07-20 16:09:36.903 STDERR [INFO] I0720 16:09:36.803995 15252 net.cpp:148] Top shape: 1 1 (1)
2016-07-20 16:09:36.903 STDERR [INFO] I0720 16:09:36.803999 15252 net.cpp:156] Memory required for data: 14020
2016-07-20 16:09:36.903 STDERR [INFO] I0720 16:09:36.804004 15252 layer_factory.hpp:77] Creating layer lstm2_x_transform
2016-07-20 16:09:36.903 STDERR [INFO] I0720 16:09:36.804014 15252 net.cpp:91] Creating Layer lstm2_x_transform
2016-07-20 16:09:36.903 STDERR [INFO] I0720 16:09:36.804019 15252 net.cpp:425] lstm2_x_transform <- x
2016-07-20 16:09:36.903 STDERR [INFO] I0720 16:09:36.804028 15252 net.cpp:399] lstm2_x_transform -> W_xc_x
2016-07-20 16:09:36.903 STDERR [INFO] I0720 16:09:36.806030 15262 net.cpp:141] Setting up lstm1_transform_1
2016-07-20 16:09:36.903 STDERR [INFO] I0720 16:09:36.806062 15262 net.cpp:148] Top shape: 1 1 4000 (4000)
2016-07-20 16:09:36.903 STDERR [INFO] I0720 16:09:36.806071 15262 net.cpp:156] Memory required for data: 62016
2016-07-20 16:09:36.903 STDERR [INFO] I0720 16:09:36.806088 15262 layer_factory.hpp:77] Creating layer lstm1_gate_input_1
2016-07-20 16:09:36.903 STDERR [INFO] I0720 16:09:36.806115 15262 net.cpp:91] Creating Layer lstm1_gate_input_1
2016-07-20 16:09:36.903 STDERR [INFO] I0720 16:09:36.806124 15262 net.cpp:425] lstm1_gate_input_1 <- W_hc_h_0
2016-07-20 16:09:36.903 STDERR [INFO] I0720 16:09:36.806134 15262 net.cpp:425] lstm1_gate_input_1 <- W_xc_x_1
2016-07-20 16:09:36.903 STDERR [INFO] I0720 16:09:36.806145 15262 net.cpp:399] lstm1_gate_input_1 -> gate_input_1
2016-07-20 16:09:36.903 STDERR [INFO] I0720 16:09:36.806164 15262 net.cpp:141] Setting up lstm1_gate_input_1
2016-07-20 16:09:36.903 STDERR [INFO] I0720 16:09:36.806174 15262 net.cpp:148] Top shape: 1 1 4000 (4000)
2016-07-20 16:09:36.904 STDERR [INFO] I0720 16:09:36.806180 15262 net.cpp:156] Memory required for data: 78016
2016-07-20 16:09:36.904 STDERR [INFO] I0720 16:09:36.806186 15262 layer_factory.hpp:77] Creating layer lstm1_unit_1
2016-07-20 16:09:36.904 STDERR [INFO] I0720 16:09:36.806198 15262 net.cpp:91] Creating Layer lstm1_unit_1
2016-07-20 16:09:36.904 STDERR [INFO] I0720 16:09:36.806205 15262 net.cpp:425] lstm1_unit_1 <- c_0
2016-07-20 16:09:36.904 STDERR [INFO] I0720 16:09:36.806670 15262 net.cpp:425] lstm1_unit_1 <- gate_input_1
2016-07-20 16:09:36.904 STDERR [INFO] I0720 16:09:36.806684 15262 net.cpp:425] lstm1_unit_1 <- cont_1_lstm1_cont_slice_0_split_1
2016-07-20 16:09:36.904 STDERR [INFO] I0720 16:09:36.806707 15262 net.cpp:399] lstm1_unit_1 -> c_1
2016-07-20 16:09:36.904 STDERR [INFO] I0720 16:09:36.806720 15262 net.cpp:399] lstm1_unit_1 -> h_1
2016-07-20 16:09:36.904 STDERR [INFO] I0720 16:09:36.806736 15262 net.cpp:141] Setting up lstm1_unit_1
2016-07-20 16:09:36.904 STDERR [INFO] I0720 16:09:36.806751 15262 net.cpp:148] Top shape: 1 1 1000 (1000)
2016-07-20 16:09:36.904 STDERR [INFO] I0720 16:09:36.806761 15262 net.cpp:148] Top shape: 1 1 1000 (1000)
2016-07-20 16:09:36.904 STDERR [INFO] I0720 16:09:36.806766 15262 net.cpp:156] Memory required for data: 86016
2016-07-20 16:09:36.904 STDERR [INFO] I0720 16:09:36.806772 15262 layer_factory.hpp:77] Creating layer lstm1_
2016-07-20 16:09:36.904 STDERR [INFO] I0720 16:09:36.806783 15262 net.cpp:91] Creating Layer lstm1_
2016-07-20 16:09:36.904 STDERR [INFO] I0720 16:09:36.806789 15262 net.cpp:425] lstm1_ <- c_1
2016-07-20 16:09:36.905 STDERR [INFO] I0720 16:09:36.806798 15262 net.cpp:399] lstm1_ -> c_T
2016-07-20 16:09:36.905 STDERR [INFO] I0720 16:09:36.806812 15262 net.cpp:141] Setting up lstm1_
2016-07-20 16:09:36.905 STDERR [INFO] I0720 16:09:36.806820 15262 net.cpp:148] Top shape: 1 1 1000 (1000)
2016-07-20 16:09:36.905 STDERR [INFO] I0720 16:09:36.806826 15262 net.cpp:156] Memory required for data: 90016
2016-07-20 16:09:36.905 STDERR [INFO] I0720 16:09:36.806833 15262 layer_factory.hpp:77] Creating layer lstm1_h_concat
2016-07-20 16:09:36.905 STDERR [INFO] I0720 16:09:36.807277 15262 net.cpp:91] Creating Layer lstm1_h_concat
2016-07-20 16:09:36.905 STDERR [INFO] I0720 16:09:36.814749 15262 net.cpp:425] lstm1_h_concat <- h_1
2016-07-20 16:09:36.905 STDERR [INFO] I0720 16:09:36.814790 15262 net.cpp:399] lstm1_h_concat -> h
2016-07-20 16:09:36.905 STDERR [INFO] I0720 16:09:36.814820 15262 net.cpp:141] Setting up lstm1_h_concat
2016-07-20 16:09:36.905 STDERR [INFO] I0720 16:09:36.814836 15262 net.cpp:148] Top shape: 1 1 1000 (1000)
2016-07-20 16:09:36.905 STDERR [INFO] I0720 16:09:36.814843 15262 net.cpp:156] Memory required for data: 94016
2016-07-20 16:09:36.905 STDERR [INFO] I0720 16:09:36.814852 15262 layer_factory.hpp:77] Creating layer h_pseudoloss
2016-07-20 16:09:36.905 STDERR [INFO] I0720 16:09:36.814875 15262 net.cpp:91] Creating Layer h_pseudoloss
2016-07-20 16:09:36.905 STDERR [INFO] I0720 16:09:36.814884 15262 net.cpp:425] h_pseudoloss <- h
…
2016-07-20 16:09:36.918 STDERR [INFO] I0720 16:09:36.824071 15262 layer_factory.hpp:77] Creating layer lstm2_
2016-07-20 16:09:36.918 STDERR [INFO] I0720 16:09:36.824092 15262 net.cpp:91] Creating Layer lstm2_
2016-07-20 16:09:36.918 STDERR [INFO] I0720 16:09:36.824105 15262 net.cpp:399] lstm2_ -> x
2016-07-20 16:09:36.918 STDERR [INFO] I0720 16:09:36.824125 15262 net.cpp:399] lstm2_ -> cont
2016-07-20 16:09:36.918 STDERR [INFO] I0720 16:09:36.824149 15262 net.cpp:141] Setting up lstm2_
2016-07-20 16:09:36.918 STDERR [INFO] I0720 16:09:36.824148 15248 net.cpp:141] Setting up lstm1_transform_1
2016-07-20 16:09:36.918 STDERR [INFO] I0720 16:09:36.824170 15262 net.cpp:148] Top shape: 1 1 1501 (1501)
2016-07-20 16:09:36.918 STDERR [INFO] I0720 16:09:36.824177 15248 net.cpp:148] Top shape: 1 1 4000 (4000)
2016-07-20 16:09:36.918 STDERR [INFO] I0720 16:09:36.824180 15262 net.cpp:148] Top shape: 1 1 (1)
2016-07-20 16:09:36.918 STDERR [INFO] I0720 16:09:36.824184 15248 net.cpp:156] Memory required for data: 62016
2016-07-20 16:09:36.918 STDERR [INFO] I0720 16:09:36.824187 15262 net.cpp:156] Memory required for data: 6008
2016-07-20 16:09:36.918 STDERR [INFO] I0720 16:09:36.824194 15262 layer_factory.hpp:77] Creating layer lstm2_
2016-07-20 16:09:36.918 STDERR [INFO] I0720 16:09:36.824200 15248 layer_factory.hpp:77] Creating layer lstm1_gate_input_1
2016-07-20 16:09:36.918 STDERR [INFO] I0720 16:09:36.824206 15262 net.cpp:91] Creating Layer lstm2_
2016-07-20 16:09:36.918 STDERR [INFO] I0720 16:09:36.824218 15262 net.cpp:399] lstm2_ -> c_0
2016-07-20 16:09:36.918 STDERR [INFO] I0720 16:09:36.824221 15248 net.cpp:91] Creating Layer lstm1_gate_input_1
2016-07-20 16:09:36.919 STDERR [INFO] I0720 16:09:36.824229 15248 net.cpp:425] lstm1_gate_input_1 <- W_hc_h_0
2016-07-20 16:09:36.919 STDERR [INFO] I0720 16:09:36.824240 15248 net.cpp:425] lstm1_gate_input_1 <- W_xc_x_1
2016-07-20 16:09:36.919 STDERR [INFO] I0720 16:09:36.824260 15248 net.cpp:399] lstm1_gate_input_1 -> gate_input_1
2016-07-20 16:09:36.919 STDERR [INFO] I0720 16:09:36.824240 15262 net.cpp:399] lstm2_ -> h_0
2016-07-20 16:09:36.919 STDERR [INFO] I0720 16:09:36.824285 15248 net.cpp:141] Setting up lstm1_gate_input_1
2016-07-20 16:09:36.919 STDERR [INFO] I0720 16:09:36.824288 15262 net.cpp:141] Setting up lstm2_
2016-07-20 16:09:36.919 STDERR [INFO] I0720 16:09:36.824303 15248 net.cpp:148] Top shape: 1 1 4000 (4000)
2016-07-20 16:09:36.919 STDERR [INFO] I0720 16:09:36.824307 15262 net.cpp:148] Top shape: 1 1 1000 (1000)
2016-07-20 16:09:36.919 STDERR [INFO] I0720 16:09:36.824312 15248 net.cpp:156] Memory required for data: 78016
2016-07-20 16:09:36.919 STDERR [INFO] I0720 16:09:36.824316 15262 net.cpp:148] Top shape: 1 1 1000 (1000)
2016-07-20 16:09:36.919 STDERR [INFO] I0720 16:09:36.824321 15248 layer_factory.hpp:77] Creating layer lstm1_unit_1
2016-07-20 16:09:36.919 STDERR [INFO] I0720 16:09:36.824323 15262 net.cpp:156] Memory required for data: 14008
2016-07-20 16:09:36.920 STDERR [INFO] I0720 16:09:36.824329 15262 layer_factory.hpp:77] Creating layer lstm2_cont_slice
2016-07-20 16:09:36.920 STDERR [INFO] I0720 16:09:36.824336 15248 net.cpp:91] Creating Layer lstm1_unit_1
2016-07-20 16:09:36.920 STDERR [INFO] I0720 16:09:36.824343 15248 net.cpp:425] lstm1_unit_1 <- c_0
2016-07-20 16:09:36.920 STDERR [INFO] I0720 16:09:36.824343 15262 net.cpp:91] Creating Layer lstm2_cont_slice
2016-07-20 16:09:36.920 STDERR [INFO] I0720 16:09:36.824360 15262 net.cpp:425] lstm2_cont_slice <- cont
2016-07-20 16:09:36.920 STDERR [INFO] I0720 16:09:36.824360 15248 net.cpp:425] lstm1_unit_1 <- gate_input_1
2016-07-20 16:09:36.920 STDERR [INFO] I0720 16:09:36.824376 15262 net.cpp:399] lstm2_cont_slice -> cont_1
2016-07-20 16:09:36.920 STDERR [INFO] I0720 16:09:36.824378 15248 net.cpp:425] lstm1_unit_1 <- cont_1_lstm1_cont_slice_0_split_1
2016-07-20 16:09:36.920 STDERR [INFO] I0720 16:09:36.824393 15248 net.cpp:399] lstm1_unit_1 -> c_1
2016-07-20 16:09:36.920 STDERR [INFO] I0720 16:09:36.824396 15262 net.cpp:141] Setting up lstm2_cont_slice
2016-07-20 16:09:36.920 STDERR [INFO] I0720 16:09:36.824407 15262 net.cpp:148] Top shape: 1 1 (1)
2016-07-20 16:09:36.920 STDERR [INFO] I0720 16:09:36.824407 15248 net.cpp:399] lstm1_unit_1 -> h_1
2016-07-20 16:09:36.920 STDERR [INFO] I0720 16:09:36.824419 15262 net.cpp:156] Memory required for data: 14012
2016-07-20 16:09:36.920 STDERR [INFO] I0720 16:09:36.824426 15262 layer_factory.hpp:77] Creating layer cont_1_lstm2_cont_slice_0_split
2016-07-20 16:09:36.920 STDERR [INFO] I0720 16:09:36.824430 15248 net.cpp:141] Setting up lstm1_unit_1
2016-07-20 16:09:36.920 STDERR [INFO] I0720 16:09:36.824437 15262 net.cpp:91] Creating Layer cont_1_lstm2_cont_slice_0_split
2016-07-20 16:09:36.920 STDERR [INFO] I0720 16:09:36.824445 15248 net.cpp:148] Top shape: 1 1 1000 (1000)
2016-07-20 16:09:36.921 STDERR [INFO] I0720 16:09:36.824445 15262 net.cpp:425] cont_1_lstm2_cont_slice_0_split <- cont_1
2016-07-20 16:09:36.921 STDERR [INFO] I0720 16:09:36.824461 15248 net.cpp:148] Top shape: 1 1 1000 (1000)
2016-07-20 16:09:36.921 STDERR [INFO] I0720 16:09:36.824466 15262 net.cpp:399] cont_1_lstm2_cont_slice_0_split -> cont_1_lstm2_cont_slice_0_split_0
2016-07-20 16:09:36.921 STDERR [INFO] I0720 16:09:36.824470 15248 net.cpp:156] Memory required for data: 86016
2016-07-20 16:09:36.921 STDERR [INFO] I0720 16:09:36.824476 15248 layer_factory.hpp:77] Creating layer lstm1_
2016-07-20 16:09:36.921 STDERR [INFO] I0720 16:09:36.824479 15262 net.cpp:399] cont_1_lstm2_cont_slice_0_split -> cont_1_lstm2_cont_slice_0_split_1
2016-07-20 16:09:36.921 STDERR [INFO] I0720 16:09:36.824486 15248 net.cpp:91] Creating Layer lstm1_
2016-07-20 16:09:36.921 STDERR [INFO] I0720 16:09:36.824493 15248 net.cpp:425] lstm1_ <- c_1
2016-07-20 16:09:36.921 STDERR [INFO] I0720 16:09:36.824493 15262 net.cpp:141] Setting up cont_1_lstm2_cont_slice_0_split
2016-07-20 16:09:36.921 STDERR [INFO] I0720 16:09:36.824509 15248 net.cpp:399] lstm1_ -> c_T
2016-07-20 16:09:36.921 STDERR [INFO] I0720 16:09:36.824512 15262 net.cpp:148] Top shape: 1 1 (1)
2016-07-20 16:09:36.921 STDERR [INFO] I0720 16:09:36.824522 15262 net.cpp:148] Top shape: 1 1 (1)
2016-07-20 16:09:36.921 STDERR [INFO] I0720 16:09:36.824523 15248 net.cpp:141] Setting up lstm1_
2016-07-20 16:09:36.921 STDERR [INFO] I0720 16:09:36.824528 15262 net.cpp:156] Memory required for data: 14020
2016-07-20 16:09:36.921 STDERR [INFO] I0720 16:09:36.824532 15248 net.cpp:148] Top shape: 1 1 1000 (1000)
2016-07-20 16:09:36.921 STDERR [INFO] I0720 16:09:36.824535 15262 layer_factory.hpp:77] Creating layer lstm2_x_transform
2016-07-20 16:09:36.922 STDERR [INFO] I0720 16:09:36.824539 15248 net.cpp:156] Memory required for data: 90016
2016-07-20 16:09:36.922 STDERR [INFO] I0720 16:09:36.824547 15248 layer_factory.hpp:77] Creating layer lstm1_h_concat
2016-07-20 16:09:36.922 STDERR [INFO] I0720 16:09:36.824558 15262 net.cpp:91] Creating Layer lstm2_x_transform
2016-07-20 16:09:36.922 STDERR [INFO] I0720 16:09:36.824563 15248 net.cpp:91] Creating Layer lstm1_h_concat
2016-07-20 16:09:36.922 STDERR [INFO] I0720 16:09:36.824566 15262 net.cpp:425] lstm2_x_transform <- x
2016-07-20 16:09:36.922 STDERR [INFO] I0720 16:09:36.824570 15248 net.cpp:425] lstm1_h_concat <- h_1
2016-07-20 16:09:36.922 STDERR [INFO] I0720 16:09:36.824579 15262 net.cpp:399] lstm2_x_transform -> W_xc_x
2016-07-20 16:09:36.922 STDERR [INFO] I0720 16:09:36.824579 15248 net.cpp:399] lstm1_h_concat -> h
2016-07-20 16:09:36.922 STDERR [INFO] I0720 16:09:36.824602 15248 net.cpp:141] Setting up lstm1_h_concat
2016-07-20 16:09:36.922 STDERR [INFO] I0720 16:09:36.824615 15248 net.cpp:148] Top shape: 1 1 1000 (1000)
2016-07-20 16:09:36.922 STDERR [INFO] I0720 16:09:36.824623 15248 net.cpp:156] Memory required for data: 94016
2016-07-20 16:09:36.922 STDERR [INFO] I0720 16:09:36.824631 15248 layer_factory.hpp:77] Creating layer h_pseudoloss
2016-07-20 16:09:36.922 STDERR [INFO] I0720 16:09:36.824648 15248 net.cpp:91] Creating Layer h_pseudoloss
2016-07-20 16:09:36.922 STDERR [INFO] I0720 16:09:36.824656 15248 net.cpp:425] h_pseudoloss <- h
…
2016-07-20 16:09:36.934 STDERR [INFO] }
2016-07-20 16:09:36.934 STDERR [INFO] I0720 16:09:36.827965 15248 layer_factory.hpp:77] Creating layer lstm2_
2016-07-20 16:09:36.934 STDERR [INFO] I0720 16:09:36.828001 15248 net.cpp:91] Creating Layer lstm2_
2016-07-20 16:09:36.934 STDERR [INFO] I0720 16:09:36.828016 15248 net.cpp:399] lstm2_ -> x
2016-07-20 16:09:36.934 STDERR [INFO] I0720 16:09:36.828043 15248 net.cpp:399] lstm2_ -> cont
2016-07-20 16:09:36.934 STDERR [INFO] I0720 16:09:36.828068 15248 net.cpp:141] Setting up lstm2_
2016-07-20 16:09:36.934 STDERR [INFO] I0720 16:09:36.828086 15248 net.cpp:148] Top shape: 1 1 1501 (1501)
2016-07-20 16:09:36.934 STDERR [INFO] I0720 16:09:36.828099 15248 net.cpp:148] Top shape: 1 1 (1)
2016-07-20 16:09:36.934 STDERR [INFO] I0720 16:09:36.828109 15248 net.cpp:156] Memory required for data: 6008
2016-07-20 16:09:36.934 STDERR [INFO] I0720 16:09:36.828119 15248 layer_factory.hpp:77] Creating layer lstm2_
2016-07-20 16:09:36.934 STDERR [INFO] I0720 16:09:36.828135 15248 net.cpp:91] Creating Layer lstm2_
2016-07-20 16:09:36.934 STDERR [INFO] I0720 16:09:36.828148 15248 net.cpp:399] lstm2_ -> c_0
2016-07-20 16:09:36.935 STDERR [INFO] I0720 16:09:36.829087 15248 net.cpp:399] lstm2_ -> h_0
2016-07-20 16:09:36.935 STDERR [INFO] I0720 16:09:36.829238 15248 net.cpp:141] Setting up lstm2_
2016-07-20 16:09:36.935 STDERR [INFO] I0720 16:09:36.829254 15248 net.cpp:148] Top shape: 1 1 1000 (1000)
2016-07-20 16:09:36.935 STDERR [INFO] I0720 16:09:36.829267 15248 net.cpp:148] Top shape: 1 1 1000 (1000)
2016-07-20 16:09:36.935 STDERR [INFO] I0720 16:09:36.829275 15248 net.cpp:156] Memory required for data: 14008
2016-07-20 16:09:36.935 STDERR [INFO] I0720 16:09:36.829285 15248 layer_factory.hpp:77] Creating layer lstm2_cont_slice
2016-07-20 16:09:36.935 STDERR [INFO] I0720 16:09:36.829303 15248 net.cpp:91] Creating Layer lstm2_cont_slice
2016-07-20 16:09:36.935 STDERR [INFO] I0720 16:09:36.829313 15248 net.cpp:425] lstm2_cont_slice <- cont
2016-07-20 16:09:36.935 STDERR [INFO] I0720 16:09:36.829329 15248 net.cpp:399] lstm2_cont_slice -> cont_1
2016-07-20 16:09:36.935 STDERR [INFO] I0720 16:09:36.829351 15248 net.cpp:141] Setting up lstm2_cont_slice
2016-07-20 16:09:36.935 STDERR [INFO] I0720 16:09:36.829365 15248 net.cpp:148] Top shape: 1 1 (1)
2016-07-20 16:09:36.935 STDERR [INFO] I0720 16:09:36.829372 15248 net.cpp:156] Memory required for data: 14012
2016-07-20 16:09:36.935 STDERR [INFO] I0720 16:09:36.829382 15248 layer_factory.hpp:77] Creating layer cont_1_lstm2_cont_slice_0_split
2016-07-20 16:09:36.935 STDERR [INFO] I0720 16:09:36.829396 15248 net.cpp:91] Creating Layer cont_1_lstm2_cont_slice_0_split
2016-07-20 16:09:36.935 STDERR [INFO] I0720 16:09:36.829406 15248 net.cpp:425] cont_1_lstm2_cont_slice_0_split <- cont_1
2016-07-20 16:09:36.935 STDERR [INFO] I0720 16:09:36.829421 15248 net.cpp:399] cont_1_lstm2_cont_slice_0_split -> cont_1_lstm2_cont_slice_0_split_0
2016-07-20 16:09:36.935 STDERR [INFO] I0720 16:09:36.829437 15248 net.cpp:399] cont_1_lstm2_cont_slice_0_split -> cont_1_lstm2_cont_slice_0_split_1
2016-07-20 16:09:36.935 STDERR [INFO] I0720 16:09:36.829826 15278 net.cpp:141] Setting up lstm1_x_transform
2016-07-20 16:09:36.936 STDERR [INFO] I0720 16:09:36.831177 15282 net.cpp:141] Setting up lstm1_x_transform
2016-07-20 16:09:36.936 STDERR [INFO] I0720 16:09:36.831326 15260 net.cpp:141] Setting up lstm1_transform_1
2016-07-20 16:09:36.936 STDERR [INFO] I0720 16:09:36.836767 15244 net.cpp:141] Setting up lstm1_transform_1
2016-07-20 16:09:36.936 STDERR [INFO] I0720 16:09:36.836812 15282 net.cpp:148] Top shape: 1 1 4000 (4000)
2016-07-20 16:09:36.936 STDERR [INFO] I0720 16:09:36.836822 15260 net.cpp:148] Top shape: 1 1 4000 (4000)
2016-07-20 16:09:36.936 STDERR [INFO] I0720 16:09:36.836830 15244 net.cpp:148] Top shape: 1 1 4000 (4000)
2016-07-20 16:09:36.936 STDERR [INFO] I0720 16:09:36.836833 15260 net.cpp:156] Memory required for data: 62016
2016-07-20 16:09:36.936 STDERR [INFO] I0720 16:09:36.836809 15278 net.cpp:148] Top shape: 1 1 4000 (4000)
2016-07-20 16:09:36.936 STDERR [INFO] I0720 16:09:36.836844 15244 net.cpp:156] Memory required for data: 62016
2016-07-20 16:09:36.936 STDERR [INFO] I0720 16:09:36.836860 15260 layer_factory.hpp:77] Creating layer lstm1_gate_input_1
2016-07-20 16:09:36.936 STDERR [INFO] I0720 16:09:36.836860 15278 net.cpp:156] Memory required for data: 26016
2016-07-20 16:09:36.936 STDERR [INFO] I0720 16:09:36.836845 15282 net.cpp:156] Memory required for data: 26016
…
2016-07-20 16:09:36.939 STDERR [INFO] I0720 16:09:36.837124 15282 net.cpp:425] lstm1_h_conted_0 <- cont_1_lstm1_cont_slice_0_split_0
2016-07-20 16:09:36.939 STDERR [INFO] I0720 16:09:36.837133 15244 net.cpp:141] Setting up lstm1_unit_1
2016-07-20 16:09:36.939 STDERR [INFO] I0720 16:09:36.837119 15278 net.cpp:91] Creating Layer lstm1_h_conted_0
2016-07-20 16:09:36.939 STDERR [INFO] I0720 16:09:36.837141 15260 net.cpp:399] lstm1_unit_1 -> c_1
2016-07-20 16:09:36.939 STDERR [INFO] I0720 16:09:36.837141 15282 net.cpp:399] lstm1_h_conted_0 -> h_conted_0
2016-07-20 16:09:36.939 STDERR [INFO] I0720 16:09:36.837144 15244 net.cpp:148] Top shape: 1 1 1000 (1000)
2016-07-20 16:09:36.939 STDERR [INFO] I0720 16:09:36.837155 15260 net.cpp:399] lstm1_unit_1 -> h_1
2016-07-20 16:09:36.939 STDERR [INFO] I0720 16:09:36.837151 15278 net.cpp:425] lstm1_h_conted_0 <- h_0
2016-07-20 16:09:36.939 STDERR [INFO] I0720 16:09:36.837169 15244 net.cpp:148] Top shape: 1 1 1000 (1000)
2016-07-20 16:09:36.939 STDERR [INFO] I0720 16:09:36.837172 15260 net.cpp:141] Setting up lstm1_unit_1
2016-07-20 16:09:36.939 STDERR [INFO] I0720 16:09:36.837178 15244 net.cpp:156] Memory required for data: 86016
2016-07-20 16:09:36.939 STDERR [INFO] I0720 16:09:36.837180 15278 net.cpp:425] lstm1_h_conted_0 <- cont_1_lstm1_cont_slice_0_split_0
2016-07-20 16:09:36.940 STDERR [INFO] I0720 16:09:36.837184 15260 net.cpp:148] Top shape: 1 1 1000 (1000)
2016-07-20 16:09:36.940 STDERR [INFO] I0720 16:09:36.837187 15244 layer_factory.hpp:77] Creating layer lstm1_
2016-07-20 16:09:36.940 STDERR [INFO] I0720 16:09:36.837195 15260 net.cpp:148] Top shape: 1 1 1000 (1000)
2016-07-20 16:09:36.940 STDERR [INFO] I0720 16:09:36.837196 15278 net.cpp:399] lstm1_h_conted_0 -> h_conted_0
2016-07-20 16:09:36.940 STDERR [INFO] I0720 16:09:36.837203 15260 net.cpp:156] Memory required for data: 86016
2016-07-20 16:09:36.940 STDERR [INFO] I0720 16:09:36.837185 15282 net.cpp:141] Setting up lstm1_h_conted_0
2016-07-20 16:09:36.940 STDERR [INFO] I0720 16:09:36.837215 15244 net.cpp:91] Creating Layer lstm1_
2016-07-20 16:09:36.940 STDERR [INFO] I0720 16:09:36.837210 15260 layer_factory.hpp:77] Creating layer lstm1_
2016-07-20 16:09:36.940 STDERR [INFO] I0720 16:09:36.837229 15244 net.cpp:425] lstm1_ <- c_1
2016-07-20 16:09:36.940 STDERR [INFO] I0720 16:09:36.837229 15282 net.cpp:148] Top shape: 1 1 1000 (1000)
2016-07-20 16:09:36.941 STDERR [INFO] I0720 16:09:36.837235 15278 net.cpp:141] Setting up lstm1_h_conted_0
2016-07-20 16:09:36.941 STDERR [INFO] I0720 16:09:36.837241 15260 net.cpp:91] Creating Layer lstm1_
2016-07-20 16:09:36.941 STDERR [INFO] I0720 16:09:36.837237 15282 net.cpp:156] Memory required for data: 46016
2016-07-20 16:09:36.941 STDERR [INFO] I0720 16:09:36.837255 15260 net.cpp:425] lstm1_ <- c_1
2016-07-20 16:09:36.941 STDERR [INFO] I0720 16:09:36.837255 15278 net.cpp:148] Top shape: 1 1 1000 (1000)
2016-07-20 16:09:36.941 STDERR [INFO] I0720 16:09:36.837239 15244 net.cpp:399] lstm1_ -> c_T
2016-07-20 16:09:36.941 STDERR [INFO] I0720 16:09:36.837263 15282 layer_factory.hpp:77] Creating layer lstm1_transform_1
2016-07-20 16:09:36.941 STDERR [INFO] I0720 16:09:36.837266 15278 net.cpp:156] Memory required for data: 46016
2016-07-20 16:09:36.941 STDERR [INFO] I0720 16:09:36.837267 15260 net.cpp:399] lstm1_ -> c_T
2016-07-20 16:09:36.941 STDERR [INFO] I0720 16:09:36.837280 15278 layer_factory.hpp:77] Creating layer lstm1_transform_1
2016-07-20 16:09:36.941 STDERR [INFO] I0720 16:09:36.837275 15244 net.cpp:141] Setting up lstm1_
2016-07-20 16:09:36.941 STDERR [INFO] I0720 16:09:36.837283 15282 net.cpp:91] Creating Layer lstm1_transform_1
2016-07-20 16:09:36.941 STDERR [INFO] I0720 16:09:36.837293 15260 net.cpp:141] Setting up lstm1_
2016-07-20 16:09:36.941 STDERR [INFO] I0720 16:09:36.837302 15244 net.cpp:148] Top shape: 1 1 1000 (1000)
2016-07-20 16:09:36.941 STDERR [INFO] I0720 16:09:36.837306 15282 net.cpp:425] lstm1_transform_1 <- h_conted_0
2016-07-20 16:09:36.941 STDERR [INFO] I0720 16:09:36.837309 15244 net.cpp:156] Memory required for data: 90016
2016-07-20 16:09:36.941 STDERR [INFO] I0720 16:09:36.837317 15244 layer_factory.hpp:77] Creating layer lstm1_h_concat
2016-07-20 16:09:36.941 STDERR [INFO] I0720 16:09:36.837321 15278 net.cpp:91] Creating Layer lstm1_transform_1
2016-07-20 16:09:36.941 STDERR [INFO] I0720 16:09:36.837330 15244 net.cpp:91] Creating Layer lstm1_h_concat
2016-07-20 16:09:36.941 STDERR [INFO] I0720 16:09:36.837334 15278 net.cpp:425] lstm1_transform_1 <- h_conted_0
2016-07-20 16:09:36.941 STDERR [INFO] I0720 16:09:36.837329 15260 net.cpp:148] Top shape: 1 1 1000 (1000)
2016-07-20 16:09:36.941 STDERR [INFO] I0720 16:09:36.837340 15244 net.cpp:425] lstm1_h_concat <- h_1
2016-07-20 16:09:36.941 STDERR [INFO] I0720 16:09:36.837335 15282 net.cpp:399] lstm1_transform_1 -> W_hc_h_0
2016-07-20 16:09:36.941 STDERR [INFO] I0720 16:09:36.837347 15260 net.cpp:156] Memory required for data: 90016
2016-07-20 16:09:36.941 STDERR [INFO] I0720 16:09:36.837349 15278 net.cpp:399] lstm1_transform_1 -> W_hc_h_0
2016-07-20 16:09:36.941 STDERR [INFO] I0720 16:09:36.837355 15260 layer_factory.hpp:77] Creating layer lstm1_h_concat
2016-07-20 16:09:36.941 STDERR [INFO] I0720 16:09:36.837352 15244 net.cpp:399] lstm1_h_concat -> h
2016-07-20 16:09:36.941 STDERR [INFO] I0720 16:09:36.837368 15260 net.cpp:91] Creating Layer lstm1_h_concat
2016-07-20 16:09:36.942 STDERR [INFO] I0720 16:09:36.837375 15260 net.cpp:425] lstm1_h_concat <- h_1
2016-07-20 16:09:36.942 STDERR [INFO] I0720 16:09:36.837379 15244 net.cpp:141] Setting up lstm1_h_concat
2016-07-20 16:09:36.942 STDERR [INFO] I0720 16:09:36.837386 15260 net.cpp:399] lstm1_h_concat -> h
2016-07-20 16:09:36.942 STDERR [INFO] I0720 16:09:36.837390 15244 net.cpp:148] Top shape: 1 1 1000 (1000)
2016-07-20 16:09:36.942 STDERR [INFO] I0720 16:09:36.837398 15244 net.cpp:156] Memory required for data: 94016
2016-07-20 16:09:36.942 STDERR [INFO] I0720 16:09:36.837401 15260 net.cpp:141] Setting up lstm1_h_concat
2016-07-20 16:09:36.942 STDERR [INFO] I0720 16:09:36.837404 15244 layer_factory.hpp:77] Creating layer h_pseudoloss
2016-07-20 16:09:36.942 STDERR [INFO] I0720 16:09:36.836771 15248 net.cpp:141] Setting up cont_1_lstm2_cont_slice_0_split
2016-07-20 16:09:36.942 STDERR [INFO] I0720 16:09:36.851665 15260 net.cpp:148] Top shape: 1 1 1000 (1000)
2016-07-20 16:09:36.942 STDERR [INFO] I0720 16:09:36.845494 15258 net.cpp:141] Setting up lstm2_x_transform
2016-07-20 16:09:36.942 STDERR [INFO] I0720 16:09:36.851676 15244 net.cpp:91] Creating Layer h_pseudoloss
2016-07-20 16:09:36.942 STDERR [INFO] I0720 16:09:36.851681 15260 net.cpp:156] Memory required for data: 94016
2016-07-20 16:09:36.942 STDERR [INFO] I0720 16:09:36.846709 15250 net.cpp:141] Setting up lstm1_transform_1
2016-07-20 16:09:36.942 STDERR [INFO] I0720 16:09:36.851694 15258 net.cpp:148] Top shape: 1 1 4000 (4000)
2016-07-20 16:09:36.943 STDERR [INFO] I0720 16:09:36.851697 15260 layer_factory.hpp:77] Creating layer h_pseudoloss
2016-07-20 16:09:36.943 STDERR [INFO] I0720 16:09:36.851686 15248 net.cpp:148] Top shape: 1 1 (1)
2016-07-20 16:09:36.943 STDERR [INFO] I0720 16:09:36.851712 15258 net.cpp:156] Memory required for data: 30020
2016-07-20 16:09:36.943 STDERR [INFO] I0720 16:09:36.851714 15250 net.cpp:148] Top shape: 1 1 4000 (4000)
2016-07-20 16:09:36.943 STDERR [INFO] I0720 16:09:36.851719 15260 net.cpp:91] Creating Layer h_pseudoloss
2016-07-20 16:09:36.943 STDERR [INFO] I0720 16:09:36.851723 15248 net.cpp:148] Top shape: 1 1 (1)
2016-07-20 16:09:36.943 STDERR [INFO] I0720 16:09:36.851729 15260 net.cpp:425] h_pseudoloss <- h
2016-07-20 16:09:36.943 STDERR [INFO] I0720 16:09:36.851725 15250 net.cpp:156] Memory required for data: 62016
2016-07-20 16:09:36.943 STDERR [INFO] I0720 16:09:36.851735 15258 layer_factory.hpp:77] Creating layer lstm2_W_xc_x_slice
2016-07-20 16:09:36.943 STDERR [INFO] I0720 16:09:36.851737 15248 net.cpp:156] Memory required for data: 14020
…
2016-07-20 16:09:36.944 STDERR [INFO] I0720 16:09:36.851979 15250 net.cpp:425] lstm1_unit_1 <- cont_1_lstm1_cont_slice_0_split_1
2016-07-20 16:09:36.944 STDERR [INFO] I0720 16:09:36.851979 15260 net.cpp:217] lstm1_x_transform needs backward computation.
2016-07-20 16:09:36.944 STDERR [INFO] I0720 16:09:36.851999 15250 net.cpp:399] lstm1_unit_1 -> c_1
2016-07-20 16:09:36.944 STDERR [INFO] I0720 16:09:36.852000 15258 net.cpp:141] Setting up lstm2_h_conted_0
2016-07-20 16:09:36.944 STDERR [INFO] I0720 16:09:36.851999 15260 net.cpp:219] cont_1_lstm1_cont_slice_0_split does not need backward computation.
2016-07-20 16:09:36.944 STDERR [INFO] I0720 16:09:36.852013 15258 net.cpp:148] Top shape: 1 1 1000 (1000)
2016-07-20 16:09:36.944 STDERR [INFO] I0720 16:09:36.852020 15258 net.cpp:156] Memory required for data: 50020
2016-07-20 16:09:36.944 STDERR [INFO] I0720 16:09:36.852023 15250 net.cpp:399] lstm1_unit_1 -> h_1
2016-07-20 16:09:36.944 STDERR [INFO] I0720 16:09:36.852018 15260 net.cpp:219] lstm1_cont_slice does not need backward computation.
2016-07-20 16:09:36.945 STDERR [INFO] I0720 16:09:36.852030 15258 layer_factory.hpp:77] Creating layer lstm2_transform_1
2016-07-20 16:09:36.945 STDERR [INFO] I0720 16:09:36.852037 15260 net.cpp:219] lstm1_ does not need backward computation.
2016-07-20 16:09:36.945 STDERR [INFO] I0720 16:09:36.852042 15250 net.cpp:141] Setting up lstm1_unit_1
2016-07-20 16:09:36.945 STDERR [INFO] I0720 16:09:36.852047 15260 net.cpp:219] lstm1_ does not need backward computation.
2016-07-20 16:09:36.945 STDERR [INFO] I0720 16:09:36.852043 15258 net.cpp:91] Creating Layer lstm2_transform_1
2016-07-20 16:09:36.945 STDERR [INFO] I0720 16:09:36.852054 15260 net.cpp:261] This network produces output c_T
2016-07-20 16:09:36.945 STDERR [INFO] I0720 16:09:36.852058 15250 net.cpp:148] Top shape: 1 1 1000 (1000)
2016-07-20 16:09:36.945 STDERR [INFO] I0720 16:09:36.852063 15260 net.cpp:261] This network produces output h_pseudoloss
2016-07-20 16:09:36.945 STDERR [INFO] I0720 16:09:36.852059 15258 net.cpp:425] lstm2_transform_1 <- h_conted_0
2016-07-20 16:09:36.945 STDERR [INFO] I0720 16:09:36.852071 15250 net.cpp:148] Top shape: 1 1 1000 (1000)
2016-07-20 16:09:36.945 STDERR [INFO] I0720 16:09:36.852078 15258 net.cpp:399] lstm2_transform_1 -> W_hc_h_0
2016-07-20 16:09:36.945 STDERR [INFO] I0720 16:09:36.852078 15250 net.cpp:156] Memory required for data: 86016
…
2016-07-20 16:09:37.036 STDERR [INFO] I0720 16:09:37.036348 15248 net.cpp:148] Top shape: 1 1 1000 (1000)
2016-07-20 16:09:37.036 STDERR [INFO] I0720 16:09:37.036352 15248 net.cpp:156] Memory required for data: 36412
2016-07-20 16:09:37.036 STDERR [INFO] I0720 16:09:37.036367 15248 layer_factory.hpp:77] Creating layer predict
2016-07-20 16:09:37.036 STDERR [INFO] I0720 16:09:37.036383 15248 net.cpp:91] Creating Layer predict
2016-07-20 16:09:37.037 STDERR [INFO] I0720 16:09:37.036389 15248 net.cpp:425] predict <- lstm2
2016-07-20 16:09:37.037 STDERR [INFO] I0720 16:09:37.036397 15248 net.cpp:399] predict -> predict
2016-07-20 16:09:37.053 STDERR [INFO] I0720 16:09:37.053645 15250 net.cpp:141] Setting up lstm2_transform_1
2016-07-20 16:09:37.054 STDERR [INFO] I0720 16:09:37.053699 15250 net.cpp:148] Top shape: 1 1 4000 (4000)
2016-07-20 16:09:37.054 STDERR [INFO] I0720 16:09:37.053712 15250 net.cpp:156] Memory required for data: 66020
2016-07-20 16:09:37.054 STDERR [INFO] I0720 16:09:37.053738 15250 layer_factory.hpp:77] Creating layer lstm2_gate_input_1
2016-07-20 16:09:37.054 STDERR [INFO] I0720 16:09:37.054291 15250 net.cpp:91] Creating Layer lstm2_gate_input_1
2016-07-20 16:09:37.054 STDERR [INFO] I0720 16:09:37.054306 15250 net.cpp:425] lstm2_gate_input_1 <- W_hc_h_0
2016-07-20 16:09:37.054 STDERR [INFO] I0720 16:09:37.054316 15250 net.cpp:425] lstm2_gate_input_1 <- W_xc_x_1
2016-07-20 16:09:37.054 STDERR [INFO] I0720 16:09:37.054325 15250 net.cpp:399] lstm2_gate_input_1 -> gate_input_1
2016-07-20 16:09:37.055 STDERR [INFO] I0720 16:09:37.055271 15278 net.cpp:141] Setting up lstm2_x_transform
2016-07-20 16:09:37.055 STDERR [INFO] I0720 16:09:37.054342 15250 net.cpp:141] Setting up lstm2_gate_input_1
2016-07-20 16:09:37.055 STDERR [INFO] I0720 16:09:37.055305 15278 net.cpp:148] Top shape: 1 1 4000 (4000)
2016-07-20 16:09:37.055 STDERR [INFO] I0720 16:09:37.055316 15278 net.cpp:156] Memory required for data: 30020
2016-07-20 16:09:37.055 STDERR [INFO] I0720 16:09:37.055328 15250 net.cpp:148] Top shape: 1 1 4000 (4000)
2016-07-20 16:09:37.055 STDERR [INFO] I0720 16:09:37.055340 15278 layer_factory.hpp:77] Creating layer lstm2_W_xc_x_slice
2016-07-20 16:09:37.055 STDERR [INFO] I0720 16:09:37.055349 15250 net.cpp:156] Memory required for data: 82020
2016-07-20 16:09:37.055 STDERR [INFO] I0720 16:09:37.055359 15278 net.cpp:91] Creating Layer lstm2_W_xc_x_slice
2016-07-20 16:09:37.055 STDERR [INFO] I0720 16:09:37.055371 15278 net.cpp:425] lstm2_W_xc_x_slice <- W_xc_x
2016-07-20 16:09:37.055 STDERR [INFO] I0720 16:09:37.055368 15250 layer_factory.hpp:77] Creating layer lstm2_unit_1
2016-07-20 16:09:37.055 STDERR [INFO] I0720 16:09:37.055393 15250 net.cpp:91] Creating Layer lstm2_unit_1
2016-07-20 16:09:37.055 STDERR [INFO] I0720 16:09:37.055402 15250 net.cpp:425] lstm2_unit_1 <- c_0
2016-07-20 16:09:37.055 STDERR [INFO] I0720 16:09:37.055408 15250 net.cpp:425] lstm2_unit_1 <- gate_input_1
2016-07-20 16:09:37.055 STDERR [INFO] I0720 16:09:37.055413 15250 net.cpp:425] lstm2_unit_1 <- cont_1_lstm2_cont_slice_0_split_1
2016-07-20 16:09:37.055 STDERR [INFO] I0720 16:09:37.055420 15250 net.cpp:399] lstm2_unit_1 -> c_1
2016-07-20 16:09:37.056 STDERR [INFO] I0720 16:09:37.055429 15250 net.cpp:399] lstm2_unit_1 -> h_1
2016-07-20 16:09:37.056 STDERR [INFO] I0720 16:09:37.055441 15250 net.cpp:141] Setting up lstm2_unit_1
2016-07-20 16:09:37.056 STDERR [INFO] I0720 16:09:37.055449 15250 net.cpp:148] Top shape: 1 1 1000 (1000)
2016-07-20 16:09:37.056 STDERR [INFO] I0720 16:09:37.055454 15250 net.cpp:148] Top shape: 1 1 1000 (1000)
2016-07-20 16:09:37.056 STDERR [INFO] I0720 16:09:37.055457 15250 net.cpp:156] Memory required for data: 90020
2016-07-20 16:09:37.056 STDERR [INFO] I0720 16:09:37.055461 15250 layer_factory.hpp:77] Creating layer lstm2_
2016-07-20 16:09:37.056 STDERR [INFO] I0720 16:09:37.056300 15278 net.cpp:399] lstm2_W_xc_x_slice -> W_xc_x_1
2016-07-20 16:09:37.056 STDERR [INFO] I0720 16:09:37.056300 15250 net.cpp:91] Creating Layer lstm2_
2016-07-20 16:09:37.056 STDERR [INFO] I0720 16:09:37.056360 15278 net.cpp:141] Setting up lstm2_W_xc_x_slice
2016-07-20 16:09:37.056 STDERR [INFO] I0720 16:09:37.056360 15250 net.cpp:425] lstm2_ <- c_1
2016-07-20 16:09:37.056 STDERR [INFO] I0720 16:09:37.056378 15278 net.cpp:148] Top shape: 1 1 4000 (4000)
2016-07-20 16:09:37.056 STDERR [INFO] I0720 16:09:37.056387 15278 net.cpp:156] Memory required for data: 46020
2016-07-20 16:09:37.056 STDERR [INFO] I0720 16:09:37.056397 15278 layer_factory.hpp:77] Creating layer lstm2_h_conted_0
2016-07-20 16:09:37.056 STDERR [INFO] I0720 16:09:37.056416 15278 net.cpp:91] Creating Layer lstm2_h_conted_0
2016-07-20 16:09:37.056 STDERR [INFO] I0720 16:09:37.056427 15278 net.cpp:425] lstm2_h_conted_0 <- h_0
2016-07-20 16:09:37.056 STDERR [INFO] I0720 16:09:37.056438 15278 net.cpp:425] lstm2_h_conted_0 <- cont_1_lstm2_cont_slice_0_split_0
2016-07-20 16:09:37.056 STDERR [INFO] I0720 16:09:37.056453 15278 net.cpp:399] lstm2_h_conted_0 -> h_conted_0
2016-07-20 16:09:37.056 STDERR [INFO] I0720 16:09:37.056795 15250 net.cpp:399] lstm2_ -> c_T
2016-07-20 16:09:37.056 STDERR [INFO] I0720 16:09:37.056820 15250 net.cpp:141] Setting up lstm2_
2016-07-20 16:09:37.056 STDERR [INFO] I0720 16:09:37.056835 15250 net.cpp:148] Top shape: 1 1 1000 (1000)
2016-07-20 16:09:37.056 STDERR [INFO] I0720 16:09:37.056844 15250 net.cpp:156] Memory required for data: 94020
2016-07-20 16:09:37.057 STDERR [INFO] I0720 16:09:37.056854 15250 layer_factory.hpp:77] Creating layer lstm2_h_concat
2016-07-20 16:09:37.057 STDERR [INFO] I0720 16:09:37.056870 15250 net.cpp:91] Creating Layer lstm2_h_concat
2016-07-20 16:09:37.057 STDERR [INFO] I0720 16:09:37.056881 15250 net.cpp:425] lstm2_h_concat <- h_1
2016-07-20 16:09:37.057 STDERR [INFO] I0720 16:09:37.056895 15250 net.cpp:399] lstm2_h_concat -> h
2016-07-20 16:09:37.057 STDERR [INFO] I0720 16:09:37.056917 15250 net.cpp:141] Setting up lstm2_h_concat
2016-07-20 16:09:37.057 STDERR [INFO] I0720 16:09:37.056929 15250 net.cpp:148] Top shape: 1 1 1000 (1000)
2016-07-20 16:09:37.057 STDERR [INFO] I0720 16:09:37.056938 15250 net.cpp:156] Memory required for data: 98020
2016-07-20 16:09:37.057 STDERR [INFO] I0720 16:09:37.056947 15250 layer_factory.hpp:77] Creating layer h_pseudoloss
2016-07-20 16:09:37.057 STDERR [INFO] I0720 16:09:37.057809 15278 net.cpp:141] Setting up lstm2_h_conted_0
2016-07-20 16:09:37.057 STDERR [INFO] I0720 16:09:37.057834 15278 net.cpp:148] Top shape: 1 1 1000 (1000)
2016-07-20 16:09:37.057 STDERR [INFO] I0720 16:09:37.057844 15278 net.cpp:156] Memory required for data: 50020
2016-07-20 16:09:37.058 STDERR [INFO] I0720 16:09:37.057852 15250 net.cpp:91] Creating Layer h_pseudoloss
2016-07-20 16:09:37.058 STDERR [INFO] I0720 16:09:37.057853 15278 layer_factory.hpp:77] Creating layer lstm2_transform_1
2016-07-20 16:09:37.058 STDERR [INFO] I0720 16:09:37.057878 15250 net.cpp:425] h_pseudoloss <- h
…
2016-07-20 16:09:37.060 STDERR [INFO] I0720 16:09:37.060082 15250 net.cpp:274] Network initialization done.
2016-07-20 16:09:37.060 STDERR [INFO] I0720 16:09:37.060166 15250 recurrent_layer.cpp:150] Adding parameter 0: W_xc
2016-07-20 16:09:37.060 STDERR [INFO] I0720 16:09:37.060176 15250 recurrent_layer.cpp:150] Adding parameter 1: b_c
2016-07-20 16:09:37.060 STDERR [INFO] I0720 16:09:37.060184 15250 recurrent_layer.cpp:150] Adding parameter 2: W_hc
2016-07-20 16:09:37.060 STDERR [INFO] I0720 16:09:37.060246 15250 net.cpp:141] Setting up lstm2
2016-07-20 16:09:37.060 STDERR [INFO] I0720 16:09:37.060261 15250 net.cpp:148] Top shape: 1 1 1000 (1000)
2016-07-20 16:09:37.060 STDERR [INFO] I0720 16:09:37.060266 15250 net.cpp:156] Memory required for data: 36412
2016-07-20 16:09:37.060 STDERR [INFO] I0720 16:09:37.060287 15250 layer_factory.hpp:77] Creating layer predict
2016-07-20 16:09:37.060 STDERR [INFO] I0720 16:09:37.060304 15250 net.cpp:91] Creating Layer predict
2016-07-20 16:09:37.060 STDERR [INFO] I0720 16:09:37.060312 15250 net.cpp:425] predict <- lstm2
2016-07-20 16:09:37.060 STDERR [INFO] I0720 16:09:37.060323 15250 net.cpp:399] predict -> predict
2016-07-20 16:09:37.088 STDERR [INFO] I0720 16:09:37.087924 15260 net.cpp:141] Setting up lstm2_transform_1
2016-07-20 16:09:37.088 STDERR [INFO] I0720 16:09:37.088318 15260 net.cpp:148] Top shape: 1 1 4000 (4000)
2016-07-20 16:09:37.088 STDERR [INFO] I0720 16:09:37.088439 15260 net.cpp:156] Memory required for data: 66020
2016-07-20 16:09:37.088 STDERR [INFO] I0720 16:09:37.088470 15260 layer_factory.hpp:77] Creating layer lstm2_gate_input_1
2016-07-20 16:09:37.088 STDERR [INFO] I0720 16:09:37.088500 15260 net.cpp:91] Creating Layer lstm2_gate_input_1
2016-07-20 16:09:37.088 STDERR [INFO] I0720 16:09:37.088513 15260 net.cpp:425] lstm2_gate_input_1 <- W_hc_h_0
2016-07-20 16:09:37.088 STDERR [INFO] I0720 16:09:37.088526 15260 net.cpp:425] lstm2_gate_input_1 <- W_xc_x_1
2016-07-20 16:09:37.088 STDERR [INFO] I0720 16:09:37.088543 15260 net.cpp:399] lstm2_gate_input_1 -> gate_input_1
2016-07-20 16:09:37.088 STDERR [INFO] I0720 16:09:37.088570 15260 net.cpp:141] Setting up lstm2_gate_input_1
2016-07-20 16:09:37.088 STDERR [INFO] I0720 16:09:37.088585 15260 net.cpp:148] Top shape: 1 1 4000 (4000)
2016-07-20 16:09:37.088 STDERR [INFO] I0720 16:09:37.088594 15260 net.cpp:156] Memory required for data: 82020
2016-07-20 16:09:37.088 STDERR [INFO] I0720 16:09:37.088603 15260 layer_factory.hpp:77] Creating layer lstm2_unit_1
2016-07-20 16:09:37.089 STDERR [INFO] I0720 16:09:37.089311 15260 net.cpp:91] Creating Layer lstm2_unit_1
2016-07-20 16:09:37.089 STDERR [INFO] I0720 16:09:37.089334 15260 net.cpp:425] lstm2_unit_1 <- c_0
2016-07-20 16:09:37.089 STDERR [INFO] I0720 16:09:37.089824 15260 net.cpp:425] lstm2_unit_1 <- gate_input_1
2016-07-20 16:09:37.089 STDERR [INFO] I0720 16:09:37.089848 15260 net.cpp:425] lstm2_unit_1 <- cont_1_lstm2_cont_slice_0_split_1
2016-07-20 16:09:37.089 STDERR [INFO] I0720 16:09:37.089864 15260 net.cpp:399] lstm2_unit_1 -> c_1
2016-07-20 16:09:37.090 STDERR [INFO] I0720 16:09:37.089882 15260 net.cpp:399] lstm2_unit_1 -> h_1
2016-07-20 16:09:37.090 STDERR [INFO] I0720 16:09:37.089903 15260 net.cpp:141] Setting up lstm2_unit_1
2016-07-20 16:09:37.090 STDERR [INFO] I0720 16:09:37.090322 15260 net.cpp:148] Top shape: 1 1 1000 (1000)
2016-07-20 16:09:37.090 STDERR [INFO] I0720 16:09:37.090343 15260 net.cpp:148] Top shape: 1 1 1000 (1000)
2016-07-20 16:09:37.090 STDERR [INFO] I0720 16:09:37.090353 15260 net.cpp:156] Memory required for data: 90020
2016-07-20 16:09:37.090 STDERR [INFO] I0720 16:09:37.090361 15260 layer_factory.hpp:77] Creating layer lstm2_
2016-07-20 16:09:37.090 STDERR [INFO] I0720 16:09:37.090375 15260 net.cpp:91] Creating Layer lstm2_
2016-07-20 16:09:37.090 STDERR [INFO] I0720 16:09:37.090385 15260 net.cpp:425] lstm2_ <- c_1
2016-07-20 16:09:37.090 STDERR [INFO] I0720 16:09:37.090399 15260 net.cpp:399] lstm2_ -> c_T
2016-07-20 16:09:37.090 STDERR [INFO] I0720 16:09:37.090417 15260 net.cpp:141] Setting up lstm2_
2016-07-20 16:09:37.090 STDERR [INFO] I0720 16:09:37.090431 15260 net.cpp:148] Top shape: 1 1 1000 (1000)
2016-07-20 16:09:37.090 STDERR [INFO] I0720 16:09:37.090440 15260 net.cpp:156] Memory required for data: 94020
2016-07-20 16:09:37.090 STDERR [INFO] I0720 16:09:37.090448 15260 layer_factory.hpp:77] Creating layer lstm2_h_concat
2016-07-20 16:09:37.091 STDERR [INFO] I0720 16:09:37.091320 15260 net.cpp:91] Creating Layer lstm2_h_concat
2016-07-20 16:09:37.091 STDERR [INFO] I0720 16:09:37.091542 15260 net.cpp:425] lstm2_h_concat <- h_1
2016-07-20 16:09:37.091 STDERR [INFO] I0720 16:09:37.091666 15260 net.cpp:399] lstm2_h_concat -> h
2016-07-20 16:09:37.091 STDERR [INFO] I0720 16:09:37.091817 15260 net.cpp:141] Setting up lstm2_h_concat
2016-07-20 16:09:37.091 STDERR [INFO] I0720 16:09:37.091938 15260 net.cpp:148] Top shape: 1 1 1000 (1000)
2016-07-20 16:09:37.092 STDERR [INFO] I0720 16:09:37.092559 15260 net.cpp:156] Memory required for data: 98020
2016-07-20 16:09:37.092 STDERR [INFO] I0720 16:09:37.092730 15260 layer_factory.hpp:77] Creating layer h_pseudoloss
2016-07-20 16:09:37.092 STDERR [INFO] I0720 16:09:37.092763 15282 net.cpp:141] Setting up lstm2_transform_1
2016-07-20 16:09:37.093 STDERR [INFO] I0720 16:09:37.092911 15244 net.cpp:141] Setting up lstm2_transform_1
2016-07-20 16:09:37.093 STDERR [INFO] I0720 16:09:37.092995 15282 net.cpp:148] Top shape: 1 1 4000 (4000)
2016-07-20 16:09:37.093 STDERR [INFO] I0720 16:09:37.093005 15282 net.cpp:156] Memory required for data: 66020
2016-07-20 16:09:37.093 STDERR [INFO] I0720 16:09:37.093005 15244 net.cpp:148] Top shape: 1 1 4000 (4000)
2016-07-20 16:09:37.093 STDERR [INFO] I0720 16:09:37.093017 15244 net.cpp:156] Memory required for data: 66020
2016-07-20 16:09:37.093 STDERR [INFO] I0720 16:09:37.093024 15282 layer_factory.hpp:77] Creating layer lstm2_gate_input_1
2016-07-20 16:09:37.093 STDERR [INFO] I0720 16:09:37.093034 15244 layer_factory.hpp:77] Creating layer lstm2_gate_input_1
2016-07-20 16:09:37.093 STDERR [INFO] I0720 16:09:37.093052 15244 net.cpp:91] Creating Layer lstm2_gate_input_1
2016-07-20 16:09:37.093 STDERR [INFO] I0720 16:09:37.093063 15244 net.cpp:425] lstm2_gate_input_1 <- W_hc_h_0
2016-07-20 16:09:37.093 STDERR [INFO] I0720 16:09:37.093075 15244 net.cpp:425] lstm2_gate_input_1 <- W_xc_x_1
2016-07-20 16:09:37.093 STDERR [INFO] I0720 16:09:37.093088 15244 net.cpp:399] lstm2_gate_input_1 -> gate_input_1
2016-07-20 16:09:37.093 STDERR [INFO] I0720 16:09:37.093111 15244 net.cpp:141] Setting up lstm2_gate_input_1
2016-07-20 16:09:37.094 STDERR [INFO] I0720 16:09:37.093124 15244 net.cpp:148] Top shape: 1 1 4000 (4000)
2016-07-20 16:09:37.094 STDERR [INFO] I0720 16:09:37.093133 15244 net.cpp:156] Memory required for data: 82020
2016-07-20 16:09:37.094 STDERR [INFO] I0720 16:09:37.093143 15244 layer_factory.hpp:77] Creating layer lstm2_unit_1
2016-07-20 16:09:37.094 STDERR [INFO] I0720 16:09:37.093296 15260 net.cpp:91] Creating Layer h_pseudoloss
2016-07-20 16:09:37.094 STDERR [INFO] I0720 16:09:37.093309 15260 net.cpp:425] h_pseudoloss <- h
2016-07-20 16:09:37.094 STDERR [INFO] I0720 16:09:37.093322 15260 net.cpp:399] h_pseudoloss -> h_pseudoloss
2016-07-20 16:09:37.094 STDERR [INFO] I0720 16:09:37.093964 15282 net.cpp:91] Creating Layer lstm2_gate_input_1
2016-07-20 16:09:37.094 STDERR [INFO] I0720 16:09:37.093976 15282 net.cpp:425] lstm2_gate_input_1 <- W_hc_h_0
2016-07-20 16:09:37.094 STDERR [INFO] I0720 16:09:37.093986 15282 net.cpp:425] lstm2_gate_input_1 <- W_xc_x_1
2016-07-20 16:09:37.094 STDERR [INFO] I0720 16:09:37.093997 15282 net.cpp:399] lstm2_gate_input_1 -> gate_input_1
2016-07-20 16:09:37.094 STDERR [INFO] I0720 16:09:37.094013 15282 net.cpp:141] Setting up lstm2_gate_input_1
2016-07-20 16:09:37.094 STDERR [INFO] I0720 16:09:37.094625 15244 net.cpp:91] Creating Layer lstm2_unit_1
2016-07-20 16:09:37.095 STDERR [INFO] I0720 16:09:37.094640 15282 net.cpp:148] Top shape: 1 1 4000 (4000)
2016-07-20 16:09:37.095 STDERR [INFO] I0720 16:09:37.094642 15244 net.cpp:425] lstm2_unit_1 <- c_0
2016-07-20 16:09:37.095 STDERR [INFO] I0720 16:09:37.094648 15282 net.cpp:156] Memory required for data: 82020
2016-07-20 16:09:37.095 STDERR [INFO] I0720 16:09:37.094650 15260 net.cpp:141] Setting up h_pseudoloss
2016-07-20 16:09:37.095 STDERR [INFO] I0720 16:09:37.094655 15282 layer_factory.hpp:77] Creating layer lstm2_unit_1
…
2016-07-20 16:09:37.097 STDERR [INFO] I0720 16:09:37.095381 15260 recurrent_layer.cpp:150] Adding parameter 0: W_xc
2016-07-20 16:09:37.097 STDERR [INFO] I0720 16:09:37.095401 15260 recurrent_layer.cpp:150] Adding parameter 1: b_c
2016-07-20 16:09:37.097 STDERR [INFO] I0720 16:09:37.095408 15260 recurrent_layer.cpp:150] Adding parameter 2: W_hc
2016-07-20 16:09:37.097 STDERR [INFO] I0720 16:09:37.095407 15244 net.cpp:141] Setting up lstm2_unit_1
2016-07-20 16:09:37.097 STDERR [INFO] I0720 16:09:37.095468 15260 net.cpp:141] Setting up lstm2
2016-07-20 16:09:37.097 STDERR [INFO] I0720 16:09:37.095480 15260 net.cpp:148] Top shape: 1 1 1000 (1000)
2016-07-20 16:09:37.097 STDERR [INFO] I0720 16:09:37.095487 15260 net.cpp:156] Memory required for data: 36412
2016-07-20 16:09:37.097 STDERR [INFO] I0720 16:09:37.095506 15260 layer_factory.hpp:77] Creating layer predict
2016-07-20 16:09:37.097 STDERR [INFO] I0720 16:09:37.095523 15260 net.cpp:91] Creating Layer predict
2016-07-20 16:09:37.098 STDERR [INFO] I0720 16:09:37.095532 15260 net.cpp:425] predict <- lstm2
2016-07-20 16:09:37.098 STDERR [INFO] I0720 16:09:37.095544 15260 net.cpp:399] predict -> predict
2016-07-20 16:09:37.098 STDERR [INFO] I0720 16:09:37.095731 15282 net.cpp:148] Top shape: 1 1 1000 (1000)
2016-07-20 16:09:37.098 STDERR [INFO] I0720 16:09:37.095734 15244 net.cpp:148] Top shape: 1 1 1000 (1000)
2016-07-20 16:09:37.098 STDERR [INFO] I0720 16:09:37.095741 15282 net.cpp:156] Memory required for data: 94020
2016-07-20 16:09:37.098 STDERR [INFO] I0720 16:09:37.095749 15282 layer_factory.hpp:77] Creating layer lstm2_h_concat
2016-07-20 16:09:37.098 STDERR [INFO] I0720 16:09:37.095752 15244 net.cpp:148] Top shape: 1 1 1000 (1000)
2016-07-20 16:09:37.098 STDERR [INFO] I0720 16:09:37.095760 15244 net.cpp:156] Memory required for data: 90020
2016-07-20 16:09:37.098 STDERR [INFO] I0720 16:09:37.095762 15282 net.cpp:91] Creating Layer lstm2_h_concat
2016-07-20 16:09:37.098 STDERR [INFO] I0720 16:09:37.095774 15244 layer_factory.hpp:77] Creating layer lstm2_
2016-07-20 16:09:37.098 STDERR [INFO] I0720 16:09:37.095777 15282 net.cpp:425] lstm2_h_concat <- h_1
2016-07-20 16:09:37.098 STDERR [INFO] I0720 16:09:37.095793 15244 net.cpp:91] Creating Layer lstm2_
2016-07-20 16:09:37.098 STDERR [INFO] I0720 16:09:37.095796 15282 net.cpp:399] lstm2_h_concat -> h
2016-07-20 16:09:37.098 STDERR [INFO] I0720 16:09:37.095804 15244 net.cpp:425] lstm2_ <- c_1
2016-07-20 16:09:37.098 STDERR [INFO] I0720 16:09:37.095813 15282 net.cpp:141] Setting up lstm2_h_concat
2016-07-20 16:09:37.098 STDERR [INFO] I0720 16:09:37.095818 15244 net.cpp:399] lstm2_ -> c_T
2016-07-20 16:09:37.098 STDERR [INFO] I0720 16:09:37.095824 15282 net.cpp:148] Top shape: 1 1 1000 (1000)
2016-07-20 16:09:37.099 STDERR [INFO] I0720 16:09:37.095829 15282 net.cpp:156] Memory required for data: 98020
2016-07-20 16:09:37.099 STDERR [INFO] I0720 16:09:37.095836 15282 layer_factory.hpp:77] Creating layer h_pseudoloss
2016-07-20 16:09:37.099 STDERR [INFO] I0720 16:09:37.095835 15244 net.cpp:141] Setting up lstm2_
2016-07-20 16:09:37.099 STDERR [INFO] I0720 16:09:37.095847 15282 net.cpp:91] Creating Layer h_pseudoloss
2016-07-20 16:09:37.099 STDERR [INFO] I0720 16:09:37.095851 15244 net.cpp:148] Top shape: 1 1 1000 (1000)
2016-07-20 16:09:37.099 STDERR [INFO] I0720 16:09:37.095854 15282 net.cpp:425] h_pseudoloss <- h
2016-07-20 16:09:37.099 STDERR [INFO] I0720 16:09:37.095860 15244 net.cpp:156] Memory required for data: 94020
2016-07-20 16:09:37.099 STDERR [INFO] I0720 16:09:37.095871 15244 layer_factory.hpp:77] Creating layer lstm2_h_concat
2016-07-20 16:09:37.099 STDERR [INFO] I0720 16:09:37.096956 15282 net.cpp:399] h_pseudoloss -> h_pseudoloss
2016-07-20 16:09:37.099 STDERR [INFO] I0720 16:09:37.096956 15244 net.cpp:91] Creating Layer lstm2_h_concat
2016-07-20 16:09:37.099 STDERR [INFO] I0720 16:09:37.097633 15244 net.cpp:425] lstm2_h_concat <- h_1
2016-07-20 16:09:37.099 STDERR [INFO] I0720 16:09:37.097651 15244 net.cpp:399] lstm2_h_concat -> h
2016-07-20 16:09:37.099 STDERR [INFO] I0720 16:09:37.097671 15244 net.cpp:141] Setting up lstm2_h_concat
2016-07-20 16:09:37.099 STDERR [INFO] I0720 16:09:37.097687 15244 net.cpp:148] Top shape: 1 1 1000 (1000)
2016-07-20 16:09:37.099 STDERR [INFO] I0720 16:09:37.097695 15244 net.cpp:156] Memory required for data: 98020
2016-07-20 16:09:37.099 STDERR [INFO] I0720 16:09:37.097704 15244 layer_factory.hpp:77] Creating layer h_pseudoloss
2016-07-20 16:09:37.099 STDERR [INFO] I0720 16:09:37.098006 15282 net.cpp:141] Setting up h_pseudoloss
2016-07-20 16:09:37.100 STDERR [INFO] I0720 16:09:37.098013 15244 net.cpp:91] Creating Layer h_pseudoloss
…
2016-07-20 16:09:38.214 n.t.s.s.CVParticleSpout [INFO] [Timing] RequestID: 0 StreamID: home/peifeng/work/data/frame.320x240.jpg SequenceNr: 119 Leaving fetcher: 1469045378214 Size: 8702
2016-07-20 16:09:38.216 n.t.s.b.CVParticleBolt [INFO] [Timing] RequestID: 0 StreamID: home/peifeng/work/data/frame.320x240.jpg SequenceNr: 118 Leaving scale: 1469045378216 Size: 3530
2016-07-20 16:09:38.225 n.t.s.b.CVParticleBolt [INFO] [Timing] RequestID: 0 StreamID: home/peifeng/work/data/frame.320x240.jpg SequenceNr: 119 Leaving scale: 1469045378225 Size: 3530
2016-07-20 16:09:38.309 STDERR [INFO] I0720 16:09:38.309442 15256 net.cpp:141] Setting up data
2016-07-20 16:09:38.309 STDERR [INFO] I0720 16:09:38.309525 15256 net.cpp:148] Top shape: 10 3 227 227 (1545870)
2016-07-20 16:09:38.309 STDERR [INFO] I0720 16:09:38.309532 15256 net.cpp:156] Memory required for data: 6183480
2016-07-20 16:09:38.309 STDERR [INFO] I0720 16:09:38.309548 15256 layer_factory.hpp:77] Creating layer conv1
2016-07-20 16:09:38.310 STDERR [INFO] I0720 16:09:38.309587 15256 net.cpp:91] Creating Layer conv1
2016-07-20 16:09:38.310 STDERR [INFO] I0720 16:09:38.309595 15256 net.cpp:425] conv1 <- data
2016-07-20 16:09:38.310 STDERR [INFO] I0720 16:09:38.309609 15256 net.cpp:399] conv1 -> conv1
2016-07-20 16:09:38.319 STDERR [INFO] I0720 16:09:38.319066 15273 net.cpp:141] Setting up conv1
2016-07-20 16:09:38.319 STDERR [INFO] I0720 16:09:38.319823 15273 net.cpp:148] Top shape: 10 96 55 55 (2904000)
2016-07-20 16:09:38.320 STDERR [INFO] I0720 16:09:38.320019 15273 net.cpp:156] Memory required for data: 17799480
2016-07-20 16:09:38.320 STDERR [INFO] I0720 16:09:38.320320 15273 layer_factory.hpp:77] Creating layer relu1
2016-07-20 16:09:38.320 STDERR [INFO] I0720 16:09:38.320499 15273 net.cpp:91] Creating Layer relu1
2016-07-20 16:09:38.320 STDERR [INFO] I0720 16:09:38.320642 15273 net.cpp:425] relu1 <- conv1
2016-07-20 16:09:38.320 STDERR [INFO] I0720 16:09:38.320793 15273 net.cpp:386] relu1 -> conv1 (in-place)
2016-07-20 16:09:38.331 STDERR [INFO] I0720 16:09:38.331343 15273 net.cpp:141] Setting up relu1
2016-07-20 16:09:38.331 STDERR [INFO] I0720 16:09:38.331918 15273 net.cpp:148] Top shape: 10 96 55 55 (2904000)
2016-07-20 16:09:38.332 STDERR [INFO] I0720 16:09:38.332065 15273 net.cpp:156] Memory required for data: 29415480
2016-07-20 16:09:38.332 STDERR [INFO] I0720 16:09:38.332264 15273 layer_factory.hpp:77] Creating layer pool1
2016-07-20 16:09:38.332 STDERR [INFO] I0720 16:09:38.332449 15273 net.cpp:91] Creating Layer pool1
2016-07-20 16:09:38.332 STDERR [INFO] I0720 16:09:38.332583 15273 net.cpp:425] pool1 <- conv1
2016-07-20 16:09:38.332 STDERR [INFO] I0720 16:09:38.332726 15273 net.cpp:399] pool1 -> pool1
2016-07-20 16:09:38.340 STDERR [INFO] I0720 16:09:38.340245 15273 net.cpp:141] Setting up pool1
2016-07-20 16:09:38.340 STDERR [INFO] I0720 16:09:38.340728 15273 net.cpp:148] Top shape: 10 96 27 27 (699840)
2016-07-20 16:09:38.340 STDERR [INFO] I0720 16:09:38.340745 15273 net.cpp:156] Memory required for data: 32214840
2016-07-20 16:09:38.340 STDERR [INFO] I0720 16:09:38.340761 15273 layer_factory.hpp:77] Creating layer norm1
2016-07-20 16:09:38.340 STDERR [INFO] I0720 16:09:38.340904 15273 net.cpp:91] Creating Layer norm1
2016-07-20 16:09:38.341 STDERR [INFO] I0720 16:09:38.340920 15273 net.cpp:425] norm1 <- pool1
2016-07-20 16:09:38.341 STDERR [INFO] I0720 16:09:38.340939 15273 net.cpp:399] norm1 -> norm1
2016-07-20 16:09:38.349 STDERR [INFO] I0720 16:09:38.349650 15273 net.cpp:141] Setting up norm1
2016-07-20 16:09:38.350 STDERR [INFO] I0720 16:09:38.349711 15273 net.cpp:148] Top shape: 10 96 27 27 (699840)
2016-07-20 16:09:38.350 STDERR [INFO] I0720 16:09:38.349722 15273 net.cpp:156] Memory required for data: 35014200
2016-07-20 16:09:38.350 STDERR [INFO] I0720 16:09:38.349735 15273 layer_factory.hpp:77] Creating layer conv2
2016-07-20 16:09:38.350 STDERR [INFO] I0720 16:09:38.350210 15273 net.cpp:91] Creating Layer conv2
2016-07-20 16:09:38.350 STDERR [INFO] I0720 16:09:38.350229 15273 net.cpp:425] conv2 <- norm1
2016-07-20 16:09:38.350 STDERR [INFO] I0720 16:09:38.350245 15273 net.cpp:399] conv2 -> conv2
2016-07-20 16:09:38.369 STDERR [INFO] I0720 16:09:38.369483 15256 net.cpp:141] Setting up conv1
2016-07-20 16:09:38.369 STDERR [INFO] I0720 16:09:38.369559 15256 net.cpp:148] Top shape: 10 96 55 55 (2904000)
2016-07-20 16:09:38.370 STDERR [INFO] I0720 16:09:38.369565 15256 net.cpp:156] Memory required for data: 17799480
2016-07-20 16:09:38.370 STDERR [INFO] I0720 16:09:38.369592 15256 layer_factory.hpp:77] Creating layer relu1
2016-07-20 16:09:38.370 STDERR [INFO] I0720 16:09:38.369616 15256 net.cpp:91] Creating Layer relu1
2016-07-20 16:09:38.370 STDERR [INFO] I0720 16:09:38.369623 15256 net.cpp:425] relu1 <- conv1
2016-07-20 16:09:38.370 STDERR [INFO] I0720 16:09:38.369632 15256 net.cpp:386] relu1 -> conv1 (in-place)
2016-07-20 16:09:38.372 STDERR [INFO] I0720 16:09:38.371884 15256 net.cpp:141] Setting up relu1
2016-07-20 16:09:38.372 STDERR [INFO] I0720 16:09:38.371964 15256 net.cpp:148] Top shape: 10 96 55 55 (2904000)
2016-07-20 16:09:38.372 STDERR [INFO] I0720 16:09:38.371978 15256 net.cpp:156] Memory required for data: 29415480
2016-07-20 16:09:38.372 STDERR [INFO] I0720 16:09:38.371994 15256 layer_factory.hpp:77] Creating layer pool1
2016-07-20 16:09:38.372 STDERR [INFO] I0720 16:09:38.372030 15256 net.cpp:91] Creating Layer pool1
2016-07-20 16:09:38.372 STDERR [INFO] I0720 16:09:38.372043 15256 net.cpp:425] pool1 <- conv1
2016-07-20 16:09:38.372 STDERR [INFO] I0720 16:09:38.372062 15256 net.cpp:399] pool1 -> pool1
2016-07-20 16:09:38.379 STDERR [INFO] I0720 16:09:38.378988 15256 net.cpp:141] Setting up pool1
2016-07-20 16:09:38.379 STDERR [INFO] I0720 16:09:38.379104 15256 net.cpp:148] Top shape: 10 96 27 27 (699840)
2016-07-20 16:09:38.379 STDERR [INFO] I0720 16:09:38.379117 15256 net.cpp:156] Memory required for data: 32214840
2016-07-20 16:09:38.379 STDERR [INFO] I0720 16:09:38.379139 15256 layer_factory.hpp:77] Creating layer norm1
2016-07-20 16:09:38.380 STDERR [INFO] I0720 16:09:38.380697 15256 net.cpp:91] Creating Layer norm1
2016-07-20 16:09:38.381 STDERR [INFO] I0720 16:09:38.380715 15256 net.cpp:425] norm1 <- pool1
2016-07-20 16:09:38.381 STDERR [INFO] I0720 16:09:38.380728 15256 net.cpp:399] norm1 -> norm1
2016-07-20 16:09:38.398 STDERR [INFO] I0720 16:09:38.398802 15256 net.cpp:141] Setting up norm1
2016-07-20 16:09:38.399 STDERR [INFO] I0720 16:09:38.398879 15256 net.cpp:148] Top shape: 10 96 27 27 (699840)
2016-07-20 16:09:38.399 STDERR [INFO] I0720 16:09:38.398885 15256 net.cpp:156] Memory required for data: 35014200
2016-07-20 16:09:38.399 STDERR [INFO] I0720 16:09:38.398897 15256 layer_factory.hpp:77] Creating layer conv2
2016-07-20 16:09:38.399 STDERR [INFO] I0720 16:09:38.399363 15256 net.cpp:91] Creating Layer conv2
2016-07-20 16:09:38.399 STDERR [INFO] I0720 16:09:38.399384 15256 net.cpp:425] conv2 <- norm1
…
2016-07-20 16:09:38.426 n.t.s.b.CVParticleBolt [INFO] [Timing] RequestID: 0 StreamID: home/peifeng/work/data/frame.320x240.jpg SequenceNr: 120 Leaving scale: 1469045378426 Size: 3530
2016-07-20 16:09:38.428 n.t.s.b.CVParticleBolt [INFO] [Timing] RequestID: 0 StreamID: home/peifeng/work/data/frame.320x240.jpg SequenceNr: 121 Leaving scale: 1469045378428 Size: 3530
2016-07-20 16:09:38.431 n.t.s.b.CVParticleBolt [INFO] [Timing] RequestID: 0 StreamID: home/peifeng/work/data/frame.320x240.jpg SequenceNr: 122 Leaving scale: 1469045378431 Size: 3530
2016-07-20 16:09:38.466 STDERR [INFO] I0720 16:09:38.466337 15273 net.cpp:141] Setting up conv2
2016-07-20 16:09:38.466 STDERR [INFO] I0720 16:09:38.466388 15273 net.cpp:148] Top shape: 10 256 27 27 (1866240)
2016-07-20 16:09:38.466 STDERR [INFO] I0720 16:09:38.466397 15273 net.cpp:156] Memory required for data: 42479160
2016-07-20 16:09:38.466 STDERR [INFO] I0720 16:09:38.466418 15273 layer_factory.hpp:77] Creating layer relu2
2016-07-20 16:09:38.466 STDERR [INFO] I0720 16:09:38.466434 15273 net.cpp:91] Creating Layer relu2
2016-07-20 16:09:38.466 STDERR [INFO] I0720 16:09:38.466439 15273 net.cpp:425] relu2 <- conv2
2016-07-20 16:09:38.467 STDERR [INFO] I0720 16:09:38.467682 15273 net.cpp:386] relu2 -> conv2 (in-place)
2016-07-20 16:09:38.474 STDERR [INFO] I0720 16:09:38.474628 15273 net.cpp:141] Setting up relu2
2016-07-20 16:09:38.475 STDERR [INFO] I0720 16:09:38.474680 15273 net.cpp:148] Top shape: 10 256 27 27 (1866240)
2016-07-20 16:09:38.475 STDERR [INFO] I0720 16:09:38.474696 15273 net.cpp:156] Memory required for data: 49944120
2016-07-20 16:09:38.475 STDERR [INFO] I0720 16:09:38.474706 15273 layer_factory.hpp:77] Creating layer pool2
2016-07-20 16:09:38.475 STDERR [INFO] I0720 16:09:38.475836 15273 net.cpp:91] Creating Layer pool2
2016-07-20 16:09:38.475 STDERR [INFO] I0720 16:09:38.475862 15273 net.cpp:425] pool2 <- conv2
2016-07-20 16:09:38.476 STDERR [INFO] I0720 16:09:38.475877 15273 net.cpp:399] pool2 -> pool2
2016-07-20 16:09:38.484 STDERR [INFO] I0720 16:09:38.484684 15273 net.cpp:141] Setting up pool2
2016-07-20 16:09:38.485 STDERR [INFO] I0720 16:09:38.484737 15273 net.cpp:148] Top shape: 10 256 13 13 (432640)
2016-07-20 16:09:38.485 STDERR [INFO] I0720 16:09:38.484743 15273 net.cpp:156] Memory required for data: 51674680
2016-07-20 16:09:38.485 STDERR [INFO] I0720 16:09:38.484752 15273 layer_factory.hpp:77] Creating layer norm2
2016-07-20 16:09:38.485 STDERR [INFO] I0720 16:09:38.485522 15273 net.cpp:91] Creating Layer norm2
2016-07-20 16:09:38.485 STDERR [INFO] I0720 16:09:38.485548 15273 net.cpp:425] norm2 <- pool2
2016-07-20 16:09:38.485 STDERR [INFO] I0720 16:09:38.485563 15273 net.cpp:399] norm2 -> norm2
2016-07-20 16:09:38.493 STDERR [INFO] I0720 16:09:38.493188 15273 net.cpp:141] Setting up norm2
2016-07-20 16:09:38.493 STDERR [INFO] I0720 16:09:38.493242 15273 net.cpp:148] Top shape: 10 256 13 13 (432640)
2016-07-20 16:09:38.493 STDERR [INFO] I0720 16:09:38.493247 15273 net.cpp:156] Memory required for data: 53405240
2016-07-20 16:09:38.493 STDERR [INFO] I0720 16:09:38.493255 15273 layer_factory.hpp:77] Creating layer conv3
2016-07-20 16:09:38.493 STDERR [INFO] I0720 16:09:38.493283 15273 net.cpp:91] Creating Layer conv3
2016-07-20 16:09:38.493 STDERR [INFO] I0720 16:09:38.493289 15273 net.cpp:425] conv3 <- norm2
2016-07-20 16:09:38.494 STDERR [INFO] I0720 16:09:38.494365 15273 net.cpp:399] conv3 -> conv3
2016-07-20 16:09:38.512 STDERR [INFO] I0720 16:09:38.511940 15256 net.cpp:141] Setting up conv2
2016-07-20 16:09:38.512 STDERR [INFO] I0720 16:09:38.512028 15256 net.cpp:148] Top shape: 10 256 27 27 (1866240)
2016-07-20 16:09:38.512 STDERR [INFO] I0720 16:09:38.512034 15256 net.cpp:156] Memory required for data: 42479160
2016-07-20 16:09:38.512 STDERR [INFO] I0720 16:09:38.512065 15256 layer_factory.hpp:77] Creating layer relu2
2016-07-20 16:09:38.513 STDERR [INFO] I0720 16:09:38.512964 15256 net.cpp:91] Creating Layer relu2
2016-07-20 16:09:38.513 STDERR [INFO] I0720 16:09:38.512997 15256 net.cpp:425] relu2 <- conv2
2016-07-20 16:09:38.513 STDERR [INFO] I0720 16:09:38.513013 15256 net.cpp:386] relu2 -> conv2 (in-place)
2016-07-20 16:09:38.520 STDERR [INFO] I0720 16:09:38.520644 15256 net.cpp:141] Setting up relu2
2016-07-20 16:09:38.521 STDERR [INFO] I0720 16:09:38.520720 15256 net.cpp:148] Top shape: 10 256 27 27 (1866240)
2016-07-20 16:09:38.521 STDERR [INFO] I0720 16:09:38.520727 15256 net.cpp:156] Memory required for data: 49944120
2016-07-20 16:09:38.521 STDERR [INFO] I0720 16:09:38.520740 15256 layer_factory.hpp:77] Creating layer pool2
2016-07-20 16:09:38.521 STDERR [INFO] I0720 16:09:38.520766 15256 net.cpp:91] Creating Layer pool2
2016-07-20 16:09:38.521 STDERR [INFO] I0720 16:09:38.520776 15256 net.cpp:425] pool2 <- conv2
2016-07-20 16:09:38.521 STDERR [INFO] I0720 16:09:38.520794 15256 net.cpp:399] pool2 -> pool2
2016-07-20 16:09:38.530 STDERR [INFO] I0720 16:09:38.530395 15256 net.cpp:141] Setting up pool2
2016-07-20 16:09:38.530 STDERR [INFO] I0720 16:09:38.530468 15256 net.cpp:148] Top shape: 10 256 13 13 (432640)
2016-07-20 16:09:38.530 STDERR [INFO] I0720 16:09:38.530478 15256 net.cpp:156] Memory required for data: 51674680
2016-07-20 16:09:38.531 STDERR [INFO] I0720 16:09:38.530494 15256 layer_factory.hpp:77] Creating layer norm2
2016-07-20 16:09:38.531 STDERR [INFO] I0720 16:09:38.531251 15256 net.cpp:91] Creating Layer norm2
2016-07-20 16:09:38.531 STDERR [INFO] I0720 16:09:38.531277 15256 net.cpp:425] norm2 <- pool2
2016-07-20 16:09:38.531 STDERR [INFO] I0720 16:09:38.531297 15256 net.cpp:399] norm2 -> norm2
2016-07-20 16:09:38.539 STDERR [INFO] I0720 16:09:38.539273 15256 net.cpp:141] Setting up norm2
2016-07-20 16:09:38.539 STDERR [INFO] I0720 16:09:38.539350 15256 net.cpp:148] Top shape: 10 256 13 13 (432640)
2016-07-20 16:09:38.539 STDERR [INFO] I0720 16:09:38.539361 15256 net.cpp:156] Memory required for data: 53405240
2016-07-20 16:09:38.539 STDERR [INFO] I0720 16:09:38.539378 15256 layer_factory.hpp:77] Creating layer conv3
2016-07-20 16:09:38.540 STDERR [INFO] I0720 16:09:38.540160 15256 net.cpp:91] Creating Layer conv3
2016-07-20 16:09:38.540 STDERR [INFO] I0720 16:09:38.540199 15256 net.cpp:425] conv3 <- norm2
2016-07-20 16:09:38.540 STDERR [INFO] I0720 16:09:38.540231 15256 net.cpp:399] conv3 -> conv3
2016-07-20 16:09:38.586 STDERR [INFO] I0720 16:09:38.585932 15273 net.cpp:141] Setting up conv3
2016-07-20 16:09:38.586 STDERR [INFO] I0720 16:09:38.586035 15273 net.cpp:148] Top shape: 10 384 13 13 (648960)
2016-07-20 16:09:38.586 STDERR [INFO] I0720 16:09:38.586050 15273 net.cpp:156] Memory required for data: 56001080
2016-07-20 16:09:38.587 STDERR [INFO] I0720 16:09:38.586105 15273 layer_factory.hpp:77] Creating layer relu3
2016-07-20 16:09:38.587 STDERR [INFO] I0720 16:09:38.586153 15273 net.cpp:91] Creating Layer relu3
2016-07-20 16:09:38.587 STDERR [INFO] I0720 16:09:38.586170 15273 net.cpp:425] relu3 <- conv3
2016-07-20 16:09:38.587 STDERR [INFO] I0720 16:09:38.586191 15273 net.cpp:386] relu3 -> conv3 (in-place)
2016-07-20 16:09:38.594 STDERR [INFO] I0720 16:09:38.594132 15273 net.cpp:141] Setting up relu3
2016-07-20 16:09:38.594 STDERR [INFO] I0720 16:09:38.594225 15273 net.cpp:148] Top shape: 10 384 13 13 (648960)
2016-07-20 16:09:38.594 STDERR [INFO] I0720 16:09:38.594238 15273 net.cpp:156] Memory required for data: 58596920
2016-07-20 16:09:38.595 STDERR [INFO] I0720 16:09:38.594257 15273 layer_factory.hpp:77] Creating layer conv4
2016-07-20 16:09:38.595 STDERR [INFO] I0720 16:09:38.594313 15273 net.cpp:91] Creating Layer conv4
2016-07-20 16:09:38.595 STDERR [INFO] I0720 16:09:38.594321 15256 net.cpp:141] Setting up conv3
2016-07-20 16:09:38.595 STDERR [INFO] I0720 16:09:38.594331 15273 net.cpp:425] conv4 <- conv3
2016-07-20 16:09:38.595 STDERR [INFO] I0720 16:09:38.594347 15256 net.cpp:148] Top shape: 10 384 13 13 (648960)
2016-07-20 16:09:38.595 STDERR [INFO] I0720 16:09:38.594357 15256 net.cpp:156] Memory required for data: 56001080
2016-07-20 16:09:38.595 STDERR [INFO] I0720 16:09:38.594365 15273 net.cpp:399] conv4 -> conv4
2016-07-20 16:09:38.596 STDERR [INFO] I0720 16:09:38.594388 15256 layer_factory.hpp:77] Creating layer relu3
2016-07-20 16:09:38.596 STDERR [INFO] I0720 16:09:38.595062 15256 net.cpp:91] Creating Layer relu3
2016-07-20 16:09:38.596 STDERR [INFO] I0720 16:09:38.595098 15256 net.cpp:425] relu3 <- conv3
2016-07-20 16:09:38.596 STDERR [INFO] I0720 16:09:38.595115 15256 net.cpp:386] relu3 -> conv3 (in-place)
2016-07-20 16:09:38.600 n.t.s.f.RefreshingImageFetcher$ImageReader [INFO] [Timing] RequestID: 0 StreamID: home/peifeng/work/data/frame.320x240.jpg SequenceNr: 123 Entering queue: 1469045378600
2016-07-20 16:09:38.600 n.t.s.f.RefreshingImageFetcher$ImageReader [INFO] [Timing] RequestID: 0 StreamID: home/peifeng/work/data/frame.320x240.jpg SequenceNr: 124 Entering queue: 1469045378600
2016-07-20 16:09:38.600 n.t.s.f.RefreshingImageFetcher$ImageReader [INFO] [Timing] RequestID: 0 StreamID: home/peifeng/work/data/frame.320x240.jpg SequenceNr: 125 Entering queue: 1469045378600
2016-07-20 16:09:38.603 STDERR [INFO] I0720 16:09:38.603301 15256 net.cpp:141] Setting up relu3
2016-07-20 16:09:38.603 STDERR [INFO] I0720 16:09:38.603390 15256 net.cpp:148] Top shape: 10 384 13 13 (648960)
2016-07-20 16:09:38.604 STDERR [INFO] I0720 16:09:38.603400 15256 net.cpp:156] Memory required for data: 58596920
2016-07-20 16:09:38.604 STDERR [INFO] I0720 16:09:38.603420 15256 layer_factory.hpp:77] Creating layer conv4
2016-07-20 16:09:38.604 STDERR [INFO] I0720 16:09:38.603479 15256 net.cpp:91] Creating Layer conv4
2016-07-20 16:09:38.604 STDERR [INFO] I0720 16:09:38.603493 15256 net.cpp:425] conv4 <- conv3
…
2016-07-20 16:09:38.735 STDERR [INFO] I0720 16:09:38.735091 15260 net.cpp:752] Ignoring source layer data
2016-07-20 16:09:38.735 STDERR [INFO] I0720 16:09:38.735195 15260 net.cpp:752] Ignoring source layer cont_sentence_data_0_split
2016-07-20 16:09:38.735 STDERR [INFO] I0720 16:09:38.735204 15260 net.cpp:752] Ignoring source layer reshape_stg_indicator
2016-07-20 16:09:38.737 STDERR [INFO] I0720 16:09:38.737006 15252 net.cpp:752] Ignoring source layer cross_entropy_loss
2016-07-20 16:09:38.741 STDERR [INFO] I0720 16:09:38.741116 15256 net.cpp:141] Setting up conv5
2016-07-20 16:09:38.741 STDERR [INFO] I0720 16:09:38.741255 15256 net.cpp:148] Top shape: 10 256 13 13 (432640)
2016-07-20 16:09:38.741 STDERR [INFO] I0720 16:09:38.741276 15256 net.cpp:156] Memory required for data: 65519160
2016-07-20 16:09:38.741 STDERR [INFO] I0720 16:09:38.741343 15256 layer_factory.hpp:77] Creating layer relu5
2016-07-20 16:09:38.742 STDERR [INFO] I0720 16:09:38.741426 15256 net.cpp:91] Creating Layer relu5
2016-07-20 16:09:38.742 STDERR [INFO] I0720 16:09:38.741451 15256 net.cpp:425] relu5 <- conv5
2016-07-20 16:09:38.742 STDERR [INFO] I0720 16:09:38.741480 15256 net.cpp:386] relu5 -> conv5 (in-place)
2016-07-20 16:09:38.747 STDERR [INFO] I0720 16:09:38.746919 15244 net.cpp:752] Ignoring source layer data
2016-07-20 16:09:38.747 STDERR [INFO] I0720 16:09:38.746995 15244 net.cpp:752] Ignoring source layer cont_sentence_data_0_split
2016-07-20 16:09:38.747 STDERR [INFO] I0720 16:09:38.747000 15244 net.cpp:752] Ignoring source layer reshape_stg_indicator
2016-07-20 16:09:38.749 STDERR [INFO] I0720 16:09:38.749500 15256 net.cpp:141] Setting up relu5
2016-07-20 16:09:38.750 STDERR [INFO] I0720 16:09:38.749558 15273 net.cpp:141] Setting up conv5
2016-07-20 16:09:38.750 STDERR [INFO] I0720 16:09:38.749658 15256 net.cpp:148] Top shape: 10 256 13 13 (432640)
2016-07-20 16:09:38.750 STDERR [INFO] I0720 16:09:38.749678 15256 net.cpp:156] Memory required for data: 67249720
2016-07-20 16:09:38.750 STDERR [INFO] I0720 16:09:38.749686 15273 net.cpp:148] Top shape: 10 256 13 13 (432640)
2016-07-20 16:09:38.750 STDERR [INFO] I0720 16:09:38.749707 15273 net.cpp:156] Memory required for data: 65519160
2016-07-20 16:09:38.750 STDERR [INFO] I0720 16:09:38.749707 15256 layer_factory.hpp:77] Creating layer pool5
2016-07-20 16:09:38.750 STDERR [INFO] I0720 16:09:38.749800 15256 net.cpp:91] Creating Layer pool5
2016-07-20 16:09:38.750 STDERR [INFO] I0720 16:09:38.749809 15273 layer_factory.hpp:77] Creating layer relu5
2016-07-20 16:09:38.751 STDERR [INFO] I0720 16:09:38.749828 15256 net.cpp:425] pool5 <- conv5
2016-07-20 16:09:38.751 STDERR [INFO] I0720 16:09:38.749866 15273 net.cpp:91] Creating Layer relu5
2016-07-20 16:09:38.751 STDERR [INFO] I0720 16:09:38.749873 15256 net.cpp:399] pool5 -> pool5
2016-07-20 16:09:38.751 STDERR [INFO] I0720 16:09:38.749891 15273 net.cpp:425] relu5 <- conv5
2016-07-20 16:09:38.751 STDERR [INFO] I0720 16:09:38.749923 15273 net.cpp:386] relu5 -> conv5 (in-place)
2016-07-20 16:09:38.757 b.s.d.executor [INFO] Prepared bolt captioner:(4)
2016-07-20 16:09:38.757 STDERR [INFO] I0720 16:09:38.757244 15256 net.cpp:141] Setting up pool5
2016-07-20 16:09:38.757 STDERR [INFO] I0720 16:09:38.757378 15256 net.cpp:148] Top shape: 10 256 6 6 (92160)
2016-07-20 16:09:38.758 STDERR [INFO] I0720 16:09:38.757395 15256 net.cpp:156] Memory required for data: 67618360
2016-07-20 16:09:38.758 STDERR [INFO] I0720 16:09:38.757419 15256 layer_factory.hpp:77] Creating layer fc6
2016-07-20 16:09:38.758 STDERR [INFO] I0720 16:09:38.757498 15256 net.cpp:91] Creating Layer fc6
2016-07-20 16:09:38.758 STDERR [INFO] I0720 16:09:38.757521 15256 net.cpp:425] fc6 <- pool5
2016-07-20 16:09:38.758 STDERR [INFO] I0720 16:09:38.757557 15256 net.cpp:399] fc6 -> fc6
2016-07-20 16:09:38.758 STDERR [INFO] I0720 16:09:38.757553 15273 net.cpp:141] Setting up relu5
2016-07-20 16:09:38.758 STDERR [INFO] I0720 16:09:38.757663 15273 net.cpp:148] Top shape: 10 256 13 13 (432640)
2016-07-20 16:09:38.758 STDERR [INFO] I0720 16:09:38.757678 15273 net.cpp:156] Memory required for data: 67249720
2016-07-20 16:09:38.758 STDERR [INFO] I0720 16:09:38.757699 15273 layer_factory.hpp:77] Creating layer pool5
2016-07-20 16:09:38.758 STDERR [INFO] I0720 16:09:38.757752 15273 net.cpp:91] Creating Layer pool5
2016-07-20 16:09:38.758 STDERR [INFO] I0720 16:09:38.757773 15273 net.cpp:425] pool5 <- conv5
…
2016-07-20 16:09:38.874 STDERR [INFO] I0720 16:09:38.874485 15260 net.cpp:752] Ignoring source layer cross_entropy_loss
2016-07-20 16:09:38.935 n.t.s.b.CVParticleBolt [INFO] [Timing] RequestID: 0 StreamID: home/peifeng/work/data/frame.320x240.jpg SequenceNr: 127 Leaving scale: 1469045378935 Size: 3530
2016-07-20 16:09:38.936 n.t.s.b.CVParticleBolt [INFO] [Timing] RequestID: 0 StreamID: home/peifeng/work/data/frame.320x240.jpg SequenceNr: 128 Leaving scale: 1469045378936 Size: 3530
2016-07-20 16:09:38.938 STDERR [INFO] I0720 16:09:38.938233 15256 net.cpp:141] Setting up fc6
2016-07-20 16:09:38.938 STDERR [INFO] I0720 16:09:38.938297 15256 net.cpp:148] Top shape: 10 4096 (40960)
2016-07-20 16:09:38.938 STDERR [INFO] I0720 16:09:38.938308 15256 net.cpp:156] Memory required for data: 67782200
2016-07-20 16:09:38.938 STDERR [INFO] I0720 16:09:38.938331 15256 layer_factory.hpp:77] Creating layer relu6
2016-07-20 16:09:38.938 STDERR [INFO] I0720 16:09:38.938355 15256 net.cpp:91] Creating Layer relu6
2016-07-20 16:09:38.938 STDERR [INFO] I0720 16:09:38.938367 15256 net.cpp:425] relu6 <- fc6
2016-07-20 16:09:38.938 STDERR [INFO] I0720 16:09:38.938382 15256 net.cpp:386] relu6 -> fc6 (in-place)
2016-07-20 16:09:38.941 STDERR [INFO] I0720 16:09:38.941864 15256 net.cpp:141] Setting up relu6
2016-07-20 16:09:38.942 STDERR [INFO] I0720 16:09:38.941928 15256 net.cpp:148] Top shape: 10 4096 (40960)
2016-07-20 16:09:38.942 STDERR [INFO] I0720 16:09:38.941938 15256 net.cpp:156] Memory required for data: 67946040
2016-07-20 16:09:38.942 STDERR [INFO] I0720 16:09:38.941954 15256 layer_factory.hpp:77] Creating layer drop6
2016-07-20 16:09:38.942 STDERR [INFO] I0720 16:09:38.941982 15256 net.cpp:91] Creating Layer drop6
2016-07-20 16:09:38.942 STDERR [INFO] I0720 16:09:38.941992 15256 net.cpp:425] drop6 <- fc6
2016-07-20 16:09:38.942 STDERR [INFO] I0720 16:09:38.942010 15256 net.cpp:386] drop6 -> fc6 (in-place)
2016-07-20 16:09:38.942 STDERR [INFO] I0720 16:09:38.942188 15256 net.cpp:141] Setting up drop6
2016-07-20 16:09:38.942 STDERR [INFO] I0720 16:09:38.942203 15256 net.cpp:148] Top shape: 10 4096 (40960)
2016-07-20 16:09:38.942 STDERR [INFO] I0720 16:09:38.942209 15256 net.cpp:156] Memory required for data: 68109880
2016-07-20 16:09:38.942 STDERR [INFO] I0720 16:09:38.942217 15256 layer_factory.hpp:77] Creating layer fc7
2016-07-20 16:09:38.942 STDERR [INFO] I0720 16:09:38.942236 15256 net.cpp:91] Creating Layer fc7
2016-07-20 16:09:38.942 STDERR [INFO] I0720 16:09:38.942245 15256 net.cpp:425] fc7 <- fc6
2016-07-20 16:09:38.942 STDERR [INFO] I0720 16:09:38.942257 15256 net.cpp:399] fc7 -> fc7
2016-07-20 16:09:38.951 STDERR [INFO] I0720 16:09:38.950959 15275 net.cpp:752] Ignoring source layer cross_entropy_loss
2016-07-20 16:09:38.976 b.s.d.executor [INFO] Prepared bolt captioner:(11)
2016-07-20 16:09:38.978 STDERR [INFO] I0720 16:09:38.978834 15273 net.cpp:141] Setting up fc6
2016-07-20 16:09:38.979 STDERR [INFO] I0720 16:09:38.978876 15273 net.cpp:148] Top shape: 10 4096 (40960)
2016-07-20 16:09:38.979 STDERR [INFO] I0720 16:09:38.978883 15273 net.cpp:156] Memory required for data: 67782200
2016-07-20 16:09:38.979 STDERR [INFO] I0720 16:09:38.978896 15273 layer_factory.hpp:77] Creating layer relu6
2016-07-20 16:09:38.979 b.s.d.executor [INFO] Prepared bolt captioner:(10)
2016-07-20 16:09:38.979 STDERR [INFO] I0720 16:09:38.978914 15273 net.cpp:91] Creating Layer relu6
2016-07-20 16:09:38.979 STDERR [INFO] I0720 16:09:38.978920 15273 net.cpp:425] relu6 <- fc6
2016-07-20 16:09:38.979 STDERR [INFO] I0720 16:09:38.978929 15273 net.cpp:386] relu6 -> fc6 (in-place)
2016-07-20 16:09:38.979 b.s.d.executor [INFO] Prepared bolt captioner:(2)
2016-07-20 16:09:38.979 STDERR [INFO] I0720 16:09:38.979274 15273 net.cpp:141] Setting up relu6
2016-07-20 16:09:38.979 STDERR [INFO] I0720 16:09:38.979285 15273 net.cpp:148] Top shape: 10 4096 (40960)
2016-07-20 16:09:38.979 STDERR [INFO] I0720 16:09:38.979290 15273 net.cpp:156] Memory required for data: 67946040
2016-07-20 16:09:38.979 STDERR [INFO] I0720 16:09:38.979293 15273 layer_factory.hpp:77] Creating layer drop6
2016-07-20 16:09:38.979 STDERR [INFO] I0720 16:09:38.979307 15273 net.cpp:91] Creating Layer drop6
2016-07-20 16:09:38.979 STDERR [INFO] I0720 16:09:38.979312 15273 net.cpp:425] drop6 <- fc6
2016-07-20 16:09:38.979 STDERR [INFO] I0720 16:09:38.979322 15273 net.cpp:386] drop6 -> fc6 (in-place)
2016-07-20 16:09:38.979 STDERR [INFO] I0720 16:09:38.979401 15273 net.cpp:141] Setting up drop6
2016-07-20 16:09:38.979 STDERR [INFO] I0720 16:09:38.979413 15273 net.cpp:148] Top shape: 10 4096 (40960)
2016-07-20 16:09:38.980 STDERR [INFO] I0720 16:09:38.979416 15273 net.cpp:156] Memory required for data: 68109880
2016-07-20 16:09:38.980 STDERR [INFO] I0720 16:09:38.979420 15273 layer_factory.hpp:77] Creating layer fc7
2016-07-20 16:09:38.980 STDERR [INFO] I0720 16:09:38.979430 15273 net.cpp:91] Creating Layer fc7
2016-07-20 16:09:38.980 STDERR [INFO] I0720 16:09:38.979434 15273 net.cpp:425] fc7 <- fc6
…
2016-07-20 16:09:39.028 STDERR [INFO] I0720 16:09:39.027341 15256 net.cpp:219] conv1 does not need backward computation.
2016-07-20 16:09:39.028 STDERR [INFO] I0720 16:09:39.027346 15256 net.cpp:219] data does not need backward computation.
2016-07-20 16:09:39.028 STDERR [INFO] I0720 16:09:39.027349 15256 net.cpp:261] This network produces output prob
2016-07-20 16:09:39.028 STDERR [INFO] I0720 16:09:39.027369 15256 net.cpp:274] Network initialization done.
2016-07-20 16:09:39.028 STDERR [INFO] I0720 16:09:39.028395 15273 net.cpp:141] Setting up fc7
2016-07-20 16:09:39.028 STDERR [INFO] I0720 16:09:39.028415 15273 net.cpp:148] Top shape: 10 4096 (40960)
2016-07-20 16:09:39.028 STDERR [INFO] I0720 16:09:39.028420 15273 net.cpp:156] Memory required for data: 68273720
2016-07-20 16:09:39.028 STDERR [INFO] I0720 16:09:39.028432 15273 layer_factory.hpp:77] Creating layer relu7
2016-07-20 16:09:39.028 STDERR [INFO] I0720 16:09:39.028450 15273 net.cpp:91] Creating Layer relu7
2016-07-20 16:09:39.028 STDERR [INFO] I0720 16:09:39.028457 15273 net.cpp:425] relu7 <- fc7
2016-07-20 16:09:39.028 STDERR [INFO] I0720 16:09:39.028465 15273 net.cpp:386] relu7 -> fc7 (in-place)
2016-07-20 16:09:39.029 STDERR [INFO] I0720 16:09:39.029829 15273 net.cpp:141] Setting up relu7
2016-07-20 16:09:39.029 STDERR [INFO] I0720 16:09:39.029844 15273 net.cpp:148] Top shape: 10 4096 (40960)
2016-07-20 16:09:39.030 STDERR [INFO] I0720 16:09:39.029849 15273 net.cpp:156] Memory required for data: 68437560
2016-07-20 16:09:39.030 STDERR [INFO] I0720 16:09:39.029853 15273 layer_factory.hpp:77] Creating layer drop7
2016-07-20 16:09:39.030 STDERR [INFO] I0720 16:09:39.029871 15273 net.cpp:91] Creating Layer drop7
2016-07-20 16:09:39.030 STDERR [INFO] I0720 16:09:39.029877 15273 net.cpp:425] drop7 <- fc7
2016-07-20 16:09:39.030 STDERR [INFO] I0720 16:09:39.029884 15273 net.cpp:386] drop7 -> fc7 (in-place)
2016-07-20 16:09:39.030 STDERR [INFO] I0720 16:09:39.029950 15273 net.cpp:141] Setting up drop7
2016-07-20 16:09:39.030 STDERR [INFO] I0720 16:09:39.029959 15273 net.cpp:148] Top shape: 10 4096 (40960)
2016-07-20 16:09:39.030 STDERR [INFO] I0720 16:09:39.029964 15273 net.cpp:156] Memory required for data: 68601400
2016-07-20 16:09:39.030 STDERR [INFO] I0720 16:09:39.029968 15273 layer_factory.hpp:77] Creating layer fc8
2016-07-20 16:09:39.030 STDERR [INFO] I0720 16:09:39.029981 15273 net.cpp:91] Creating Layer fc8
2016-07-20 16:09:39.030 STDERR [INFO] I0720 16:09:39.029986 15273 net.cpp:425] fc8 <- fc7
2016-07-20 16:09:39.030 STDERR [INFO] I0720 16:09:39.029994 15273 net.cpp:399] fc8 -> fc8
2016-07-20 16:09:39.043 STDERR [INFO] I0720 16:09:39.043133 15273 net.cpp:141] Setting up fc8
2016-07-20 16:09:39.043 STDERR [INFO] I0720 16:09:39.043186 15273 net.cpp:148] Top shape: 10 1000 (10000)
2016-07-20 16:09:39.043 STDERR [INFO] I0720 16:09:39.043191 15273 net.cpp:156] Memory required for data: 68641400
2016-07-20 16:09:39.043 STDERR [INFO] I0720 16:09:39.043205 15273 layer_factory.hpp:77] Creating layer prob
2016-07-20 16:09:39.043 STDERR [INFO] I0720 16:09:39.043222 15273 net.cpp:91] Creating Layer prob
2016-07-20 16:09:39.043 STDERR [INFO] I0720 16:09:39.043229 15273 net.cpp:425] prob <- fc8
2016-07-20 16:09:39.043 STDERR [INFO] I0720 16:09:39.043238 15273 net.cpp:399] prob -> prob
2016-07-20 16:09:39.044 STDERR [INFO] I0720 16:09:39.044201 15273 net.cpp:141] Setting up prob
2016-07-20 16:09:39.044 STDERR [INFO] I0720 16:09:39.044215 15273 net.cpp:148] Top shape: 10 1000 (10000)
2016-07-20 16:09:39.044 STDERR [INFO] I0720 16:09:39.044227 15273 net.cpp:156] Memory required for data: 68681400
2016-07-20 16:09:39.044 STDERR [INFO] I0720 16:09:39.044232 15273 net.cpp:219] prob does not need backward computation.
2016-07-20 16:09:39.044 STDERR [INFO] I0720 16:09:39.044237 15273 net.cpp:219] fc8 does not need backward computation.
2016-07-20 16:09:39.044 STDERR [INFO] I0720 16:09:39.044241 15273 net.cpp:219] drop7 does not need backward computation.
…
