…
Java HotSpot(TM) 64-Bit Server VM warning: You have loaded library /home/peifeng/work/run/storm102/data/workers/b90efc02-c2ba-48f8-adac-a1c918169f71/tmp/cvld1249473961724956912/libopencv_java310.xine1.so which might have disabled stack guard. The VM will try to fix the stack guard now.
It's highly recommended that you fix the library with 'execstack -c <libfile>', or link it with '-z noexecstack'.
WARNING: Logging before InitGoogleLogging() is written to STDERR
I0915 11:46:56.509330 26297 net.cpp:49] Initializing net from parameters: 
name: "GoogleNet"
state {
  phase: TEST
}
layer {
  name: "data"
  type: "Input"
  top: "data"
  input_param {
    shape {
      dim: 10
      dim: 3
      dim: 224
      dim: 224
    }
  }
}
layer {
  name: "conv1/7x7_s2"
  type: "Convolution"
  bottom: "data"
  top: "conv1/7x7_s2"
  param {
    lr_mult: 1
    decay_mult: 1
  }
  param {
    lr_mult: 2
    decay_mult: 0
  }
  convolution_param {
    num_output: 64
    pad: 3
    kernel_size: 7
    stride: 2
    weight_filler {
      type: "xavier"
      std: 0.1
    }
    bias_filler {
      type: "constant"
      value: 0.2
    }
  }
}
layer {
  name: "conv1/relu_7x7"
  type: "ReLU"
  bottom: "conv1/7x7_s2"
  top: "conv1/7x7_s2"
}
layer {
  name: "pool1/3x3_s2"
  type: "Pooling"
  bottom: "conv1/7x7_s2"
  top: "pool1/3x3_s2"
  pooling_param {
    pool: MAX
    kernel_size: 3
    stride: 2
  }
}
layer {
  name: "pool1/norm1"
  type: "LRN"
  bottom: "pool1/3x3_s2"
  top: "pool1/norm1"
  lrn_param {
    local_size: 5
    alpha: 0.0001
    beta: 0.75
  }
}
layer {
  name: "conv2/3x3_reduce"
  type: "Convolution"
  bottom: "pool1/norm1"
  top: "conv2/3x3_reduce"
  param {
    lr_mult: 1
    decay_mult: 1
  }
  param {
    lr_mult: 2
    decay_mult: 0
  }
  convolution_param {
    num_output: 64
    kernel_size: 1
    weight_filler {
      type: "xavier"
      std: 0.1
    }
    bias_filler {
      type: "constant"
      value: 0.2
    }
  }
}
layer {
  name: "conv2/relu_3x3_reduce"
  type: "ReLU"
  bottom: "conv2/3x3_reduce"
  top: "conv2/3x3_reduce"
}
layer {
  name: "conv2/3x3"
  type: "Convolution"
  bottom: "conv2/3x3_reduce"
  top: "conv2/3x3"
  param {
    lr_mult: 1
    decay_mult: 1
  }
  param {
    lr_mult: 2
    decay_mult: 0
  }
  convolution_param {
    num_output: 192
    pad: 1
    kernel_size: 3
    weight_filler {
      type: "xavier"
      std: 0.03
    }
    bias_filler {
      type: "constant"
      value: 0.2
    }
  }
}
layer {
  name: "conv2/relu_3x3"
  type: "ReLU"
  bottom: "conv2/3x3"
  top: "conv2/3x3"
}
layer {
  name: "conv2/norm2"
  type: "LRN"
  bottom: "conv2/3x3"
  top: "conv2/norm2"
  lrn_param {
    local_size: 5
    alpha: 0.0001
    beta: 0.75
  }
}
layer {
  name: "pool2/3x3_s2"
  type: "Pooling"
  bottom: "conv2/norm2"
  top: "pool2/3x3_s2"
  pooling_param {
    pool: MAX
    kernel_size: 3
    stride: 2
  }
}
layer {
  name: "inception_3a/1x1"
  type: "Convolution"
  bottom: "pool2/3x3_s2"
  top: "inception_3a/1x1"
  param {
    lr_mult: 1
    decay_mult: 1
  }
  param {
    lr_mult: 2
    decay_mult: 0
  }
  convolution_param {
    num_output: 64
    kernel_size: 1
    weight_filler {
      type: "xavier"
      std: 0.03
    }
    bias_filler {
      type: "constant"
      value: 0.2
    }
  }
}
layer {
  name: "inception_3a/relu_1x1"
  type: "ReLU"
  bottom: "inception_3a/1x1"
  top: "inception_3a/1x1"
}
layer {
  name: "inception_3a/3x3_reduce"
  type: "Convolution"
  bottom: "pool2/3x3_s2"
  top: "inception_3a/3x3_reduce"
  param {
    lr_mult: 1
    decay_mult: 1
  }
  param {
    lr_mult: 2
    decay_mult: 0
  }
  convolution_param {
    num_output: 96
    kernel_size: 1
    weight_filler {
      type: "xavier"
      std: 0.09
    }
    bias_filler {
      type: "constant"
      value: 0.2
    }
  }
}
layer {
  name: "inception_3a/relu_3x3_reduce"
  type: "ReLU"
  bottom: "inception_3a/3x3_reduce"
  top: "inception_3a/3x3_reduce"
}
layer {
  name: "inception_3a/3x3"
  type: "Convolution"
  bottom: "inception_3a/3x3_reduce"
  top: "inception_3a/3x3"
  param {
    lr_mult: 1
    decay_mult: 1
  }
  param {
    lr_mult: 2
    decay_mult: 0
  }
  convolution_param {
    num_output: 128
    pad: 1
    kernel_size: 3
    weight_filler {
      type: "xavier"
      std: 0.03
    }
    bias_filler {
      type: "constant"
      value: 0.2
    }
  }
}
layer {
  name: "inception_3a/relu_3x3"
  type: "ReLU"
  bottom: "inception_3a/3x3"
  top: "inception_3a/3x3"
}
layer {
  name: "inception_3a/5x5_reduce"
  type: "Convolution"
  bottom: "pool2/3x3_s2"
  top: "inception_3a/5x5_reduce"
  param {
    lr_mult: 1
    decay_mult: 1
  }
  param {
    lr_mult: 2
    decay_mult: 0
  }
  convolution_param {
    num_output: 16
    kernel_size: 1
    weight_filler {
      type: "xavier"
      std: 0.2
    }
    bias_filler {
      type: "constant"
      value: 0.2
    }
  }
}
layer {
  name: "inception_3a/relu_5x5_reduce"
  type: "ReLU"
  bottom: "inception_3a/5x5_reduce"
  top: "inception_3a/5x5_reduce"
}
layer {
  name: "inception_3a/5x5"
  type: "Convolution"
  bottom: "inception_3a/5x5_reduce"
  top: "inception_3a/5x5"
  param {
    lr_mult: 1
    decay_mult: 1
  }
  param {
    lr_mult: 2
    decay_mult: 0
  }
  convolution_param {
    num_output: 32
    pad: 2
    kernel_size: 5
    weight_filler {
      type: "xavier"
      std: 0.03
    }
    bias_filler {
      type: "constant"
      value: 0.2
    }
  }
}
layer {
  name: "inception_3a/relu_5x5"
  type: "ReLU"
  bottom: "inception_3a/5x5"
  top: "inception_3a/5x5"
}
layer {
  name: "inception_3a/pool"
  type: "Pooling"
  bottom: "pool2/3x3_s2"
  top: "inception_3a/pool"
  pooling_param {
    pool: MAX
    kernel_size: 3
    stride: 1
    pad: 1
  }
}
layer {
  name: "inception_3a/pool_proj"
  type: "Convolution"
  bottom: "inception_3a/pool"
  top: "inception_3a/pool_proj"
  param {
    lr_mult: 1
    decay_mult: 1
  }
  param {
    lr_mult: 2
    decay_mult: 0
  }
  convolution_param {
    num_output: 32
    kernel_size: 1
    weight_filler {
      type: "xavier"
      std: 0.1
    }
    bias_filler {
      type: "constant"
      value: 0.2
    }
  }
}
layer {
  name: "inception_3a/relu_pool_proj"
  type: "ReLU"
  bottom: "inception_3a/pool_proj"
  top: "inception_3a/pool_proj"
}
layer {
  name: "inception_3a/output"
  type: "Concat"
  bottom: "inception_3a/1x1"
  bottom: "inception_3a/3x3"
  bottom: "inception_3a/5x5"
  bottom: "inception_3a/pool_proj"
  top: "inception_3a/output"
}
layer {
  name: "inception_3b/1x1"
  type: "Convolution"
  bottom: "inception_3a/output"
  top: "inception_3b/1x1"
  param {
    lr_mult: 1
    decay_mult: 1
  }
  param {
    lr_mult: 2
    decay_mult: 0
  }
  convolution_param {
    num_output: 128
    kernel_size: 1
    weight_filler {
      type: "xavier"
      std: 0.03
    }
    bias_filler {
      type: "constant"
      value: 0.2
    }
  }
}
layer {
  name: "inception_3b/relu_1x1"
  type: "ReLU"
  bottom: "inception_3b/1x1"
  top: "inception_3b/1x1"
}
layer {
  name: "inception_3b/3x3_reduce"
  type: "Convolution"
  bottom: "inception_3a/output"
  top: "inception_3b/3x3_reduce"
  param {
    lr_mult: 1
    decay_mult: 1
  }
  param {
    lr_mult: 2
    decay_mult: 0
  }
  convolution_param {
    num_output: 128
    kernel_size: 1
    weight_filler {
      type: "xavier"
      std: 0.09
    }
    bias_filler {
      type: "constant"
      value: 0.2
    }
  }
}
layer {
  name: "inception_3b/relu_3x3_reduce"
  type: "ReLU"
  bottom: "inception_3b/3x3_reduce"
  top: "inception_3b/3x3_reduce"
}
layer {
  name: "inception_3b/3x3"
  type: "Convolution"
  bottom: "inception_3b/3x3_reduce"
  top: "inception_3b/3x3"
  param {
    lr_mult: 1
    decay_mult: 1
  }
  param {
    lr_mult: 2
    decay_mult: 0
  }
  convolution_param {
    num_output: 192
    pad: 1
    kernel_size: 3
    weight_filler {
      type: "xavier"
      std: 0.03
    }
    bias_filler {
      type: "constant"
      value: 0.2
    }
  }
}
layer {
  name: "inception_3b/relu_3x3"
  type: "ReLU"
  bottom: "inception_3b/3x3"
  top: "inception_3b/3x3"
}
layer {
  name: "inception_3b/5x5_reduce"
  type: "Convolution"
  bottom: "inception_3a/output"
  top: "inception_3b/5x5_reduce"
  param {
    lr_mult: 1
    decay_mult: 1
  }
  param {
    lr_mult: 2
    decay_mult: 0
  }
  convolution_param {
    num_output: 32
    kernel_size: 1
    weight_filler {
      type: "xavier"
      std: 0.2
    }
    bias_filler {
      type: "constant"
      value: 0.2
    }
  }
}
layer {
  name: "inception_3b/relu_5x5_reduce"
  type: "ReLU"
  bottom: "inception_3b/5x5_reduce"
  top: "inception_3b/5x5_reduce"
}
layer {
  name: "inception_3b/5x5"
  type: "Convolution"
  bottom: "inception_3b/5x5_reduce"
  top: "inception_3b/5x5"
  param {
    lr_mult: 1
    decay_mult: 1
  }
  param {
    lr_mult: 2
    decay_mult: 0
  }
  convolution_param {
    num_output: 96
    pad: 2
    kernel_size: 5
    weight_filler {
      type: "xavier"
      std: 0.03
    }
    bias_filler {
      type: "constant"
      value: 0.2
    }
  }
}
layer {
  name: "inception_3b/relu_5x5"
  type: "ReLU"
  bottom: "inception_3b/5x5"
  top: "inception_3b/5x5"
}
layer {
  name: "inception_3b/pool"
  type: "Pooling"
  bottom: "inception_3a/output"
  top: "inception_3b/pool"
  pooling_param {
    pool: MAX
    kernel_size: 3
    stride: 1
    pad: 1
  }
}
layer {
  name: "inception_3b/pool_proj"
  type: "Convolution"
  bottom: "inception_3b/pool"
  top: "inception_3b/pool_proj"
  param {
    lr_mult: 1
    decay_mult: 1
  }
  param {
    lr_mult: 2
    decay_mult: 0
  }
  convolution_param {
    num_output: 64
    kernel_size: 1
    weight_filler {
      type: "xavier"
      std: 0.1
    }
    bias_filler {
      type: "constant"
      value: 0.2
    }
  }
}
layer {
  name: "inception_3b/relu_pool_proj"
  type: "ReLU"
  bottom: "inception_3b/pool_proj"
  top: "inception_3b/pool_proj"
}
layer {
  name: "inception_3b/output"
  type: "Concat"
  bottom: "inception_3b/1x1"
  bottom: "inception_3b/3x3"
  bottom: "inception_3b/5x5"
  bottom: "inception_3b/pool_proj"
  top: "inception_3b/output"
}
layer {
  name: "pool3/3x3_s2"
  type: "Pooling"
  bottom: "inception_3b/output"
  top: "pool3/3x3_s2"
  pooling_param {
    pool: MAX
    kernel_size: 3
    stride: 2
  }
}
layer {
  name: "inception_4a/1x1"
  type: "Convolution"
  bottom: "pool3/3x3_s2"
  top: "inception_4a/1x1"
  param {
    lr_mult: 1
    decay_mult: 1
  }
  param {
    lr_mult: 2
    decay_mult: 0
  }
  convolution_param {
    num_output: 192
    kernel_size: 1
    weight_filler {
      type: "xavier"
      std: 0.03
    }
    bias_filler {
      type: "constant"
      value: 0.2
    }
  }
}
layer {
  name: "inception_4a/relu_1x1"
  type: "ReLU"
  bottom: "inception_4a/1x1"
  top: "inception_4a/1x1"
}
layer {
  name: "inception_4a/3x3_reduce"
  type: "Convolution"
  bottom: "pool3/3x3_s2"
  top: "inception_4a/3x3_reduce"
  param {
    lr_mult: 1
    decay_mult: 1
  }
  param {
    lr_mult: 2
    decay_mult: 0
  }
  convolution_param {
    num_output: 96
    kernel_size: 1
    weight_filler {
      type: "xavier"
      std: 0.09
    }
    bias_filler {
      type: "constant"
      value: 0.2
    }
  }
}
layer {
  name: "inception_4a/relu_3x3_reduce"
  type: "ReLU"
  bottom: "inception_4a/3x3_reduce"
  top: "inception_4a/3x3_reduce"
}
layer {
  name: "inception_4a/3x3"
  type: "Convolution"
  bottom: "inception_4a/3x3_reduce"
  top: "inception_4a/3x3"
  param {
    lr_mult: 1
    decay_mult: 1
  }
  param {
    lr_mult: 2
    decay_mult: 0
  }
  convolution_param {
    num_output: 208
    pad: 1
    kernel_size: 3
    weight_filler {
      type: "xavier"
      std: 0.03
    }
    bias_filler {
      type: "constant"
      value: 0.2
    }
  }
}
layer {
  name: "inception_4a/relu_3x3"
  type: "ReLU"
  bottom: "inception_4a/3x3"
  top: "inception_4a/3x3"
}
layer {
  name: "inception_4a/5x5_reduce"
  type: "Convolution"
  bottom: "pool3/3x3_s2"
  top: "inception_4a/5x5_reduce"
  param {
    lr_mult: 1
    decay_mult: 1
  }
  param {
    lr_mult: 2
    decay_mult: 0
  }
  convolution_param {
    num_output: 16
    kernel_size: 1
    weight_filler {
      type: "xavier"
      std: 0.2
    }
    bias_filler {
      type: "constant"
      value: 0.2
    }
  }
}
layer {
  name: "inception_4a/relu_5x5_reduce"
  type: "ReLU"
  bottom: "inception_4a/5x5_reduce"
  top: "inception_4a/5x5_reduce"
}
layer {
  name: "inception_4a/5x5"
  type: "Convolution"
  bottom: "inception_4a/5x5_reduce"
  top: "inception_4a/5x5"
  param {
    lr_mult: 1
    decay_mult: 1
  }
  param {
    lr_mult: 2
    decay_mult: 0
  }
  convolution_param {
    num_output: 48
    pad: 2
    kernel_size: 5
    weight_filler {
      type: "xavier"
      std: 0.03
    }
    bias_filler {
      type: "constant"
      value: 0.2
    }
  }
}
layer {
  name: "inception_4a/relu_5x5"
  type: "ReLU"
  bottom: "inception_4a/5x5"
  top: "inception_4a/5x5"
}
layer {
  name: "inception_4a/pool"
  type: "Pooling"
  bottom: "pool3/3x3_s2"
  top: "inception_4a/pool"
  pooling_param {
    pool: MAX
    kernel_size: 3
    stride: 1
    pad: 1
  }
}
layer {
  name: "inception_4a/pool_proj"
  type: "Convolution"
  bottom: "inception_4a/pool"
  top: "inception_4a/pool_proj"
  param {
    lr_mult: 1
    decay_mult: 1
  }
  param {
    lr_mult: 2
    decay_mult: 0
  }
  convolution_param {
    num_output: 64
    kernel_size: 1
    weight_filler {
      type: "xavier"
      std: 0.1
    }
    bias_filler {
      type: "constant"
      value: 0.2
    }
  }
}
layer {
  name: "inception_4a/relu_pool_proj"
  type: "ReLU"
  bottom: "inception_4a/pool_proj"
  top: "inception_4a/pool_proj"
}
layer {
  name: "inception_4a/output"
  type: "Concat"
  bottom: "inception_4a/1x1"
  bottom: "inception_4a/3x3"
  bottom: "inception_4a/5x5"
  bottom: "inception_4a/pool_proj"
  top: "inception_4a/output"
}
layer {
  name: "inception_4b/1x1"
  type: "Convolution"
  bottom: "inception_4a/output"
  top: "inception_4b/1x1"
  param {
    lr_mult: 1
    decay_mult: 1
  }
  param {
    lr_mult: 2
    decay_mult: 0
  }
  convolution_param {
    num_output: 160
    kernel_size: 1
    weight_filler {
      type: "xavier"
      std: 0.03
    }
    bias_filler {
      type: "constant"
      value: 0.2
    }
  }
}
layer {
  name: "inception_4b/relu_1x1"
  type: "ReLU"
  bottom: "inception_4b/1x1"
  top: "inception_4b/1x1"
}
layer {
  name: "inception_4b/3x3_reduce"
  type: "Convolution"
  bottom: "inception_4a/output"
  top: "inception_4b/3x3_reduce"
  param {
    lr_mult: 1
    decay_mult: 1
  }
  param {
    lr_mult: 2
    decay_mult: 0
  }
  convolution_param {
    num_output: 112
    kernel_size: 1
    weight_filler {
      type: "xavier"
      std: 0.09
    }
    bias_filler {
      type: "constant"
      value: 0.2
    }
  }
}
layer {
  name: "inception_4b/relu_3x3_reduce"
  type: "ReLU"
  bottom: "inception_4b/3x3_reduce"
  top: "inception_4b/3x3_reduce"
}
layer {
  name: "inception_4b/3x3"
  type: "Convolution"
  bottom: "inception_4b/3x3_reduce"
  top: "inception_4b/3x3"
  param {
    lr_mult: 1
    decay_mult: 1
  }
  param {
    lr_mult: 2
    decay_mult: 0
  }
  convolution_param {
    num_output: 224
    pad: 1
    kernel_size: 3
    weight_filler {
      type: "xavier"
      std: 0.03
    }
    bias_filler {
      type: "constant"
      value: 0.2
    }
  }
}
layer {
  name: "inception_4b/relu_3x3"
  type: "ReLU"
  bottom: "inception_4b/3x3"
  top: "inception_4b/3x3"
}
layer {
  name: "inception_4b/5x5_reduce"
  type: "Convolution"
  bottom: "inception_4a/output"
  top: "inception_4b/5x5_reduce"
  param {
    lr_mult: 1
    decay_mult: 1
  }
  param {
    lr_mult: 2
    decay_mult: 0
  }
  convolution_param {
    num_output: 24
    kernel_size: 1
    weight_filler {
      type: "xavier"
      std: 0.2
    }
    bias_filler {
      type: "constant"
      value: 0.2
    }
  }
}
layer {
  name: "inception_4b/relu_5x5_reduce"
  type: "ReLU"
  bottom: "inception_4b/5x5_reduce"
  top: "inception_4b/5x5_reduce"
}
layer {
  name: "inception_4b/5x5"
  type: "Convolution"
  bottom: "inception_4b/5x5_reduce"
  top: "inception_4b/5x5"
  param {
    lr_mult: 1
    decay_mult: 1
  }
  param {
    lr_mult: 2
    decay_mult: 0
  }
  convolution_param {
    num_output: 64
    pad: 2
    kernel_size: 5
    weight_filler {
      type: "xavier"
      std: 0.03
    }
    bias_filler {
      type: "constant"
      value: 0.2
    }
  }
}
layer {
  name: "inception_4b/relu_5x5"
  type: "ReLU"
  bottom: "inception_4b/5x5"
  top: "inception_4b/5x5"
}
layer {
  name: "inception_4b/pool"
  type: "Pooling"
  bottom: "inception_4a/output"
  top: "inception_4b/pool"
  pooling_param {
    pool: MAX
    kernel_size: 3
    stride: 1
    pad: 1
  }
}
layer {
  name: "inception_4b/pool_proj"
  type: "Convolution"
  bottom: "inception_4b/pool"
  top: "inception_4b/pool_proj"
  param {
    lr_mult: 1
    decay_mult: 1
  }
  param {
    lr_mult: 2
    decay_mult: 0
  }
  convolution_param {
    num_output: 64
    kernel_size: 1
    weight_filler {
      type: "xavier"
      std: 0.1
    }
    bias_filler {
      type: "constant"
      value: 0.2
    }
  }
}
layer {
  name: "inception_4b/relu_pool_proj"
  type: "ReLU"
  bottom: "inception_4b/pool_proj"
  top: "inception_4b/pool_proj"
}
layer {
  name: "inception_4b/output"
  type: "Concat"
  bottom: "inception_4b/1x1"
  bottom: "inception_4b/3x3"
  bottom: "inception_4b/5x5"
  bottom: "inception_4b/pool_proj"
  top: "inception_4b/output"
}
layer {
  name: "inception_4c/1x1"
  type: "Convolution"
  bottom: "inception_4b/output"
  top: "inception_4c/1x1"
  param {
    lr_mult: 1
    decay_mult: 1
  }
  param {
    lr_mult: 2
    decay_mult: 0
  }
  convolution_param {
    num_output: 128
    kernel_size: 1
    weight_filler {
      type: "xavier"
      std: 0.03
    }
    bias_filler {
      type: "constant"
      value: 0.2
    }
  }
}
layer {
  name: "inception_4c/relu_1x1"
  type: "ReLU"
  bottom: "inception_4c/1x1"
  top: "inception_4c/1x1"
}
layer {
  name: "inception_4c/3x3_reduce"
  type: "Convolution"
  bottom: "inception_4b/output"
  top: "inception_4c/3x3_reduce"
  param {
    lr_mult: 1
    decay_mult: 1
  }
  param {
    lr_mult: 2
    decay_mult: 0
  }
  convolution_param {
    num_output: 128
    kernel_size: 1
    weight_filler {
      type: "xavier"
      std: 0.09
    }
    bias_filler {
      type: "constant"
      value: 0.2
    }
  }
}
layer {
  name: "inception_4c/relu_3x3_reduce"
  type: "ReLU"
  bottom: "inception_4c/3x3_reduce"
  top: "inception_4c/3x3_reduce"
}
layer {
  name: "inception_4c/3x3"
  type: "Convolution"
  bottom: "inception_4c/3x3_reduce"
  top: "inception_4c/3x3"
  param {
    lr_mult: 1
    decay_mult: 1
  }
  param {
    lr_mult: 2
    decay_mult: 0
  }
  convolution_param {
    num_output: 256
    pad: 1
    kernel_size: 3
    weight_filler {
      type: "xavier"
      std: 0.03
    }
    bias_filler {
      type: "constant"
      value: 0.2
    }
  }
}
layer {
  name: "inception_4c/relu_3x3"
  type: "ReLU"
  bottom: "inception_4c/3x3"
  top: "inception_4c/3x3"
}
layer {
  name: "inception_4c/5x5_reduce"
  type: "Convolution"
  bottom: "inception_4b/output"
  top: "inception_4c/5x5_reduce"
  param {
    lr_mult: 1
    decay_mult: 1
  }
  param {
    lr_mult: 2
    decay_mult: 0
  }
  convolution_param {
    num_output: 24
    kernel_size: 1
    weight_filler {
      type: "xavier"
      std: 0.2
    }
    bias_filler {
      type: "constant"
      value: 0.2
    }
  }
}
layer {
  name: "inception_4c/relu_5x5_reduce"
  type: "ReLU"
  bottom: "inception_4c/5x5_reduce"
  top: "inception_4c/5x5_reduce"
}
layer {
  name: "inception_4c/5x5"
  type: "Convolution"
  bottom: "inception_4c/5x5_reduce"
  top: "inception_4c/5x5"
  param {
    lr_mult: 1
    decay_mult: 1
  }
  param {
    lr_mult: 2
    decay_mult: 0
  }
  convolution_param {
    num_output: 64
    pad: 2
    kernel_size: 5
    weight_filler {
      type: "xavier"
      std: 0.03
    }
    bias_filler {
      type: "constant"
      value: 0.2
    }
  }
}
layer {
  name: "inception_4c/relu_5x5"
  type: "ReLU"
  bottom: "inception_4c/5x5"
  top: "inception_4c/5x5"
}
layer {
  name: "inception_4c/pool"
  type: "Pooling"
  bottom: "inception_4b/output"
  top: "inception_4c/pool"
  pooling_param {
    pool: MAX
    kernel_size: 3
    stride: 1
    pad: 1
  }
}
layer {
  name: "inception_4c/pool_proj"
  type: "Convolution"
  bottom: "inception_4c/pool"
  top: "inception_4c/pool_proj"
  param {
    lr_mult: 1
    decay_mult: 1
  }
  param {
    lr_mult: 2
    decay_mult: 0
  }
  convolution_param {
    num_output: 64
    kernel_size: 1
    weight_filler {
      type: "xavier"
      std: 0.1
    }
    bias_filler {
      type: "constant"
      value: 0.2
    }
  }
}
layer {
  name: "inception_4c/relu_pool_proj"
  type: "ReLU"
  bottom: "inception_4c/pool_proj"
  top: "inception_4c/pool_proj"
}
layer {
  name: "inception_4c/output"
  type: "Concat"
  bottom: "inception_4c/1x1"
  bottom: "inception_4c/3x3"
  bottom: "inception_4c/5x5"
  bottom: "inception_4c/pool_proj"
  top: "inception_4c/output"
}
layer {
  name: "inception_4d/1x1"
  type: "Convolution"
  bottom: "inception_4c/output"
  top: "inception_4d/1x1"
  param {
    lr_mult: 1
    decay_mult: 1
  }
  param {
    lr_mult: 2
    decay_mult: 0
  }
  convolution_param {
    num_output: 112
    kernel_size: 1
    weight_filler {
      type: "xavier"
      std: 0.03
    }
    bias_filler {
      type: "constant"
      value: 0.2
    }
  }
}
layer {
  name: "inception_4d/relu_1x1"
  type: "ReLU"
  bottom: "inception_4d/1x1"
  top: "inception_4d/1x1"
}
layer {
  name: "inception_4d/3x3_reduce"
  type: "Convolution"
  bottom: "inception_4c/output"
  top: "inception_4d/3x3_reduce"
  param {
    lr_mult: 1
    decay_mult: 1
  }
  param {
    lr_mult: 2
    decay_mult: 0
  }
  convolution_param {
    num_output: 144
    kernel_size: 1
    weight_filler {
      type: "xavier"
      std: 0.09
    }
    bias_filler {
      type: "constant"
      value: 0.2
    }
  }
}
layer {
  name: "inception_4d/relu_3x3_reduce"
  type: "ReLU"
  bottom: "inception_4d/3x3_reduce"
  top: "inception_4d/3x3_reduce"
}
layer {
  name: "inception_4d/3x3"
  type: "Convolution"
  bottom: "inception_4d/3x3_reduce"
  top: "inception_4d/3x3"
  param {
    lr_mult: 1
    decay_mult: 1
  }
  param {
    lr_mult: 2
    decay_mult: 0
  }
  convolution_param {
    num_output: 288
    pad: 1
    kernel_size: 3
    weight_filler {
      type: "xavier"
      std: 0.03
    }
    bias_filler {
      type: "constant"
      value: 0.2
    }
  }
}
layer {
  name: "inception_4d/relu_3x3"
  type: "ReLU"
  bottom: "inception_4d/3x3"
  top: "inception_4d/3x3"
}
layer {
  name: "inception_4d/5x5_reduce"
  type: "Convolution"
  bottom: "inception_4c/output"
  top: "inception_4d/5x5_reduce"
  param {
    lr_mult: 1
    decay_mult: 1
  }
  param {
    lr_mult: 2
    decay_mult: 0
  }
  convolution_param {
    num_output: 32
    kernel_size: 1
    weight_filler {
      type: "xavier"
      std: 0.2
    }
    bias_filler {
      type: "constant"
      value: 0.2
    }
  }
}
layer {
  name: "inception_4d/relu_5x5_reduce"
  type: "ReLU"
  bottom: "inception_4d/5x5_reduce"
  top: "inception_4d/5x5_reduce"
}
layer {
  name: "inception_4d/5x5"
  type: "Convolution"
  bottom: "inception_4d/5x5_reduce"
  top: "inception_4d/5x5"
  param {
    lr_mult: 1
    decay_mult: 1
  }
  param {
    lr_mult: 2
    decay_mult: 0
  }
  convolution_param {
    num_output: 64
    pad: 2
    kernel_size: 5
    weight_filler {
      type: "xavier"
      std: 0.03
    }
    bias_filler {
      type: "constant"
      value: 0.2
    }
  }
}
layer {
  name: "inception_4d/relu_5x5"
  type: "ReLU"
  bottom: "inception_4d/5x5"
  top: "inception_4d/5x5"
}
layer {
  name: "inception_4d/pool"
  type: "Pooling"
  bottom: "inception_4c/output"
  top: "inception_4d/pool"
  pooling_param {
    pool: MAX
    kernel_size: 3
    stride: 1
    pad: 1
  }
}
layer {
  name: "inception_4d/pool_proj"
  type: "Convolution"
  bottom: "inception_4d/pool"
  top: "inception_4d/pool_proj"
  param {
    lr_mult: 1
    decay_mult: 1
  }
  param {
    lr_mult: 2
    decay_mult: 0
  }
  convolution_param {
    num_output: 64
    kernel_size: 1
    weight_filler {
      type: "xavier"
      std: 0.1
    }
    bias_filler {
      type: "constant"
      value: 0.2
    }
  }
}
layer {
  name: "inception_4d/relu_pool_proj"
  type: "ReLU"
  bottom: "inception_4d/pool_proj"
  top: "inception_4d/pool_proj"
}
layer {
  name: "inception_4d/output"
  type: "Concat"
  bottom: "inception_4d/1x1"
  bottom: "inception_4d/3x3"
  bottom: "inception_4d/5x5"
  bottom: "inception_4d/pool_proj"
  top: "inception_4d/output"
}
layer {
  name: "inception_4e/1x1"
  type: "Convolution"
  bottom: "inception_4d/output"
  top: "inception_4e/1x1"
  param {
    lr_mult: 1
    decay_mult: 1
  }
  param {
    lr_mult: 2
    decay_mult: 0
  }
  convolution_param {
    num_output: 256
    kernel_size: 1
    weight_filler {
      type: "xavier"
      std: 0.03
    }
    bias_filler {
      type: "constant"
      value: 0.2
    }
  }
}
layer {
  name: "inception_4e/relu_1x1"
  type: "ReLU"
  bottom: "inception_4e/1x1"
  top: "inception_4e/1x1"
}
layer {
  name: "inception_4e/3x3_reduce"
  type: "Convolution"
  bottom: "inception_4d/output"
  top: "inception_4e/3x3_reduce"
  param {
    lr_mult: 1
    decay_mult: 1
  }
  param {
    lr_mult: 2
    decay_mult: 0
  }
  convolution_param {
    num_output: 160
    kernel_size: 1
    weight_filler {
      type: "xavier"
      std: 0.09
    }
    bias_filler {
      type: "constant"
      value: 0.2
    }
  }
}
layer {
  name: "inception_4e/relu_3x3_reduce"
  type: "ReLU"
  bottom: "inception_4e/3x3_reduce"
  top: "inception_4e/3x3_reduce"
}
layer {
  name: "inception_4e/3x3"
  type: "Convolution"
  bottom: "inception_4e/3x3_reduce"
  top: "inception_4e/3x3"
  param {
    lr_mult: 1
    decay_mult: 1
  }
  param {
    lr_mult: 2
    decay_mult: 0
  }
  convolution_param {
    num_output: 320
    pad: 1
    kernel_size: 3
    weight_filler {
      type: "xavier"
      std: 0.03
    }
    bias_filler {
      type: "constant"
      value: 0.2
    }
  }
}
layer {
  name: "inception_4e/relu_3x3"
  type: "ReLU"
  bottom: "inception_4e/3x3"
  top: "inception_4e/3x3"
}
layer {
  name: "inception_4e/5x5_reduce"
  type: "Convolution"
  bottom: "inception_4d/output"
  top: "inception_4e/5x5_reduce"
  param {
    lr_mult: 1
    decay_mult: 1
  }
  param {
    lr_mult: 2
    decay_mult: 0
  }
  convolution_param {
    num_output: 32
    kernel_size: 1
    weight_filler {
      type: "xavier"
      std: 0.2
    }
    bias_filler {
      type: "constant"
      value: 0.2
    }
  }
}
layer {
  name: "inception_4e/relu_5x5_reduce"
  type: "ReLU"
  bottom: "inception_4e/5x5_reduce"
  top: "inception_4e/5x5_reduce"
}
layer {
  name: "inception_4e/5x5"
  type: "Convolution"
  bottom: "inception_4e/5x5_reduce"
  top: "inception_4e/5x5"
  param {
    lr_mult: 1
    decay_mult: 1
  }
  param {
    lr_mult: 2
    decay_mult: 0
  }
  convolution_param {
    num_output: 128
    pad: 2
    kernel_size: 5
    weight_filler {
      type: "xavier"
      std: 0.03
    }
    bias_filler {
      type: "constant"
      value: 0.2
    }
  }
}
layer {
  name: "inception_4e/relu_5x5"
  type: "ReLU"
  bottom: "inception_4e/5x5"
  top: "inception_4e/5x5"
}
layer {
  name: "inception_4e/pool"
  type: "Pooling"
  bottom: "inception_4d/output"
  top: "inception_4e/pool"
  pooling_param {
    pool: MAX
    kernel_size: 3
    stride: 1
    pad: 1
  }
}
layer {
  name: "inception_4e/pool_proj"
  type: "Convolution"
  bottom: "inception_4e/pool"
  top: "inception_4e/pool_proj"
  param {
    lr_mult: 1
    decay_mult: 1
  }
  param {
    lr_mult: 2
    decay_mult: 0
  }
  convolution_param {
    num_output: 128
    kernel_size: 1
    weight_filler {
      type: "xavier"
      std: 0.1
    }
    bias_filler {
      type: "constant"
      value: 0.2
    }
  }
}
layer {
  name: "inception_4e/relu_pool_proj"
  type: "ReLU"
  bottom: "inception_4e/pool_proj"
  top: "inception_4e/pool_proj"
}
layer {
  name: "inception_4e/output"
  type: "Concat"
  bottom: "inception_4e/1x1"
  bottom: "inception_4e/3x3"
  bottom: "inception_4e/5x5"
  bottom: "inception_4e/pool_proj"
  top: "inception_4e/output"
}
layer {
  name: "pool4/3x3_s2"
  type: "Pooling"
  bottom: "inception_4e/output"
  top: "pool4/3x3_s2"
  pooling_param {
    pool: MAX
    kernel_size: 3
    stride: 2
  }
}
layer {
  name: "inception_5a/1x1"
  type: "Convolution"
  bottom: "pool4/3x3_s2"
  top: "inception_5a/1x1"
  param {
    lr_mult: 1
    decay_mult: 1
  }
  param {
    lr_mult: 2
    decay_mult: 0
  }
  convolution_param {
    num_output: 256
    kernel_size: 1
    weight_filler {
      type: "xavier"
      std: 0.03
    }
    bias_filler {
      type: "constant"
      value: 0.2
    }
  }
}
layer {
  name: "inception_5a/relu_1x1"
  type: "ReLU"
  bottom: "inception_5a/1x1"
  top: "inception_5a/1x1"
}
layer {
  name: "inception_5a/3x3_reduce"
  type: "Convolution"
  bottom: "pool4/3x3_s2"
  top: "inception_5a/3x3_reduce"
  param {
    lr_mult: 1
    decay_mult: 1
  }
  param {
    lr_mult: 2
    decay_mult: 0
  }
  convolution_param {
    num_output: 160
    kernel_size: 1
    weight_filler {
      type: "xavier"
      std: 0.09
    }
    bias_filler {
      type: "constant"
      value: 0.2
    }
  }
}
layer {
  name: "inception_5a/relu_3x3_reduce"
  type: "ReLU"
  bottom: "inception_5a/3x3_reduce"
  top: "inception_5a/3x3_reduce"
}
layer {
  name: "inception_5a/3x3"
  type: "Convolution"
  bottom: "inception_5a/3x3_reduce"
  top: "inception_5a/3x3"
  param {
    lr_mult: 1
    decay_mult: 1
  }
  param {
    lr_mult: 2
    decay_mult: 0
  }
  convolution_param {
    num_output: 320
    pad: 1
    kernel_size: 3
    weight_filler {
      type: "xavier"
      std: 0.03
    }
    bias_filler {
      type: "constant"
      value: 0.2
    }
  }
}
layer {
  name: "inception_5a/relu_3x3"
  type: "ReLU"
  bottom: "inception_5a/3x3"
  top: "inception_5a/3x3"
}
layer {
  name: "inception_5a/5x5_reduce"
  type: "Convolution"
  bottom: "pool4/3x3_s2"
  top: "inception_5a/5x5_reduce"
  param {
    lr_mult: 1
    decay_mult: 1
  }
  param {
    lr_mult: 2
    decay_mult: 0
  }
  convolution_param {
    num_output: 32
    kernel_size: 1
    weight_filler {
      type: "xavier"
      std: 0.2
    }
    bias_filler {
      type: "constant"
      value: 0.2
    }
I0915 11:46:56.510169 26297 layer_factory.hpp:77] Creating layer data
I0915 11:46:56.510192 26297 net.cpp:91] Creating Layer data
I0915 11:46:56.510201 26297 net.cpp:399] data -> data
I0915 11:46:57.046731 26297 net.cpp:141] Setting up data
I0915 11:46:57.046813 26297 net.cpp:148] Top shape: 10 3 224 224 (1505280)
I0915 11:46:57.046821 26297 net.cpp:156] Memory required for data: 6021120
I0915 11:46:57.046845 26297 layer_factory.hpp:77] Creating layer conv1/7x7_s2
I0915 11:46:57.046893 26297 net.cpp:91] Creating Layer conv1/7x7_s2
I0915 11:46:57.046905 26297 net.cpp:425] conv1/7x7_s2 <- data
I0915 11:46:57.046921 26297 net.cpp:399] conv1/7x7_s2 -> conv1/7x7_s2
I0915 11:46:57.246181 26297 net.cpp:141] Setting up conv1/7x7_s2
I0915 11:46:57.246240 26297 net.cpp:148] Top shape: 10 64 112 112 (8028160)
I0915 11:46:57.246248 26297 net.cpp:156] Memory required for data: 38133760
I0915 11:46:57.246279 26297 layer_factory.hpp:77] Creating layer conv1/relu_7x7
I0915 11:46:57.246301 26297 net.cpp:91] Creating Layer conv1/relu_7x7
I0915 11:46:57.246309 26297 net.cpp:425] conv1/relu_7x7 <- conv1/7x7_s2
I0915 11:46:57.246317 26297 net.cpp:386] conv1/relu_7x7 -> conv1/7x7_s2 (in-place)
I0915 11:46:57.246754 26297 net.cpp:141] Setting up conv1/relu_7x7
I0915 11:46:57.246769 26297 net.cpp:148] Top shape: 10 64 112 112 (8028160)
I0915 11:46:57.246774 26297 net.cpp:156] Memory required for data: 70246400
I0915 11:46:57.246780 26297 layer_factory.hpp:77] Creating layer pool1/3x3_s2
I0915 11:46:57.246795 26297 net.cpp:91] Creating Layer pool1/3x3_s2
I0915 11:46:57.246801 26297 net.cpp:425] pool1/3x3_s2 <- conv1/7x7_s2
I0915 11:46:57.246809 26297 net.cpp:399] pool1/3x3_s2 -> pool1/3x3_s2
I0915 11:46:57.246889 26297 net.cpp:141] Setting up pool1/3x3_s2
I0915 11:46:57.246901 26297 net.cpp:148] Top shape: 10 64 56 56 (2007040)
I0915 11:46:57.246906 26297 net.cpp:156] Memory required for data: 78274560
I0915 11:46:57.246912 26297 layer_factory.hpp:77] Creating layer pool1/norm1
I0915 11:46:57.246929 26297 net.cpp:91] Creating Layer pool1/norm1
I0915 11:46:57.246935 26297 net.cpp:425] pool1/norm1 <- pool1/3x3_s2
I0915 11:46:57.246943 26297 net.cpp:399] pool1/norm1 -> pool1/norm1
I0915 11:46:57.247216 26297 net.cpp:141] Setting up pool1/norm1
I0915 11:46:57.247231 26297 net.cpp:148] Top shape: 10 64 56 56 (2007040)
I0915 11:46:57.247236 26297 net.cpp:156] Memory required for data: 86302720
I0915 11:46:57.247241 26297 layer_factory.hpp:77] Creating layer conv2/3x3_reduce
I0915 11:46:57.247264 26297 net.cpp:91] Creating Layer conv2/3x3_reduce
I0915 11:46:57.247269 26297 net.cpp:425] conv2/3x3_reduce <- pool1/norm1
I0915 11:46:57.247278 26297 net.cpp:399] conv2/3x3_reduce -> conv2/3x3_reduce
I0915 11:46:57.249554 26297 net.cpp:141] Setting up conv2/3x3_reduce
I0915 11:46:57.249577 26297 net.cpp:148] Top shape: 10 64 56 56 (2007040)
I0915 11:46:57.249583 26297 net.cpp:156] Memory required for data: 94330880
I0915 11:46:57.249595 26297 layer_factory.hpp:77] Creating layer conv2/relu_3x3_reduce
I0915 11:46:57.249605 26297 net.cpp:91] Creating Layer conv2/relu_3x3_reduce
I0915 11:46:57.249619 26297 net.cpp:425] conv2/relu_3x3_reduce <- conv2/3x3_reduce
I0915 11:46:57.249627 26297 net.cpp:386] conv2/relu_3x3_reduce -> conv2/3x3_reduce (in-place)
I0915 11:46:57.250030 26297 net.cpp:141] Setting up conv2/relu_3x3_reduce
I0915 11:46:57.250044 26297 net.cpp:148] Top shape: 10 64 56 56 (2007040)
I0915 11:46:57.250049 26297 net.cpp:156] Memory required for data: 102359040
I0915 11:46:57.250056 26297 layer_factory.hpp:77] Creating layer conv2/3x3
I0915 11:46:57.250071 26297 net.cpp:91] Creating Layer conv2/3x3
I0915 11:46:57.250077 26297 net.cpp:425] conv2/3x3 <- conv2/3x3_reduce
I0915 11:46:57.250085 26297 net.cpp:399] conv2/3x3 -> conv2/3x3
I0915 11:46:57.253383 26297 net.cpp:141] Setting up conv2/3x3
I0915 11:46:57.253403 26297 net.cpp:148] Top shape: 10 192 56 56 (6021120)
I0915 11:46:57.253409 26297 net.cpp:156] Memory required for data: 126443520
I0915 11:46:57.253423 26297 layer_factory.hpp:77] Creating layer conv2/relu_3x3
I0915 11:46:57.253434 26297 net.cpp:91] Creating Layer conv2/relu_3x3
I0915 11:46:57.253440 26297 net.cpp:425] conv2/relu_3x3 <- conv2/3x3
I0915 11:46:57.253448 26297 net.cpp:386] conv2/relu_3x3 -> conv2/3x3 (in-place)
I0915 11:46:57.253682 26297 net.cpp:141] Setting up conv2/relu_3x3
I0915 11:46:57.253695 26297 net.cpp:148] Top shape: 10 192 56 56 (6021120)
I0915 11:46:57.253700 26297 net.cpp:156] Memory required for data: 150528000
I0915 11:46:57.253706 26297 layer_factory.hpp:77] Creating layer conv2/norm2
I0915 11:46:57.253716 26297 net.cpp:91] Creating Layer conv2/norm2
I0915 11:46:57.253721 26297 net.cpp:425] conv2/norm2 <- conv2/3x3
I0915 11:46:57.253729 26297 net.cpp:399] conv2/norm2 -> conv2/norm2
I0915 11:46:57.254179 26297 net.cpp:141] Setting up conv2/norm2
I0915 11:46:57.254194 26297 net.cpp:148] Top shape: 10 192 56 56 (6021120)
I0915 11:46:57.254199 26297 net.cpp:156] Memory required for data: 174612480
I0915 11:46:57.254204 26297 layer_factory.hpp:77] Creating layer pool2/3x3_s2
I0915 11:46:57.254215 26297 net.cpp:91] Creating Layer pool2/3x3_s2
I0915 11:46:57.254220 26297 net.cpp:425] pool2/3x3_s2 <- conv2/norm2
I0915 11:46:57.254227 26297 net.cpp:399] pool2/3x3_s2 -> pool2/3x3_s2
I0915 11:46:57.254276 26297 net.cpp:141] Setting up pool2/3x3_s2
I0915 11:46:57.254286 26297 net.cpp:148] Top shape: 10 192 28 28 (1505280)
I0915 11:46:57.254290 26297 net.cpp:156] Memory required for data: 180633600
I0915 11:46:57.254295 26297 layer_factory.hpp:77] Creating layer pool2/3x3_s2_pool2/3x3_s2_0_split
I0915 11:46:57.254315 26297 net.cpp:91] Creating Layer pool2/3x3_s2_pool2/3x3_s2_0_split
I0915 11:46:57.254320 26297 net.cpp:425] pool2/3x3_s2_pool2/3x3_s2_0_split <- pool2/3x3_s2
I0915 11:46:57.254328 26297 net.cpp:399] pool2/3x3_s2_pool2/3x3_s2_0_split -> pool2/3x3_s2_pool2/3x3_s2_0_split_0
I0915 11:46:57.254338 26297 net.cpp:399] pool2/3x3_s2_pool2/3x3_s2_0_split -> pool2/3x3_s2_pool2/3x3_s2_0_split_1
I0915 11:46:57.254348 26297 net.cpp:399] pool2/3x3_s2_pool2/3x3_s2_0_split -> pool2/3x3_s2_pool2/3x3_s2_0_split_2
I0915 11:46:57.254356 26297 net.cpp:399] pool2/3x3_s2_pool2/3x3_s2_0_split -> pool2/3x3_s2_pool2/3x3_s2_0_split_3
I0915 11:46:57.254426 26297 net.cpp:141] Setting up pool2/3x3_s2_pool2/3x3_s2_0_split
I0915 11:46:57.254436 26297 net.cpp:148] Top shape: 10 192 28 28 (1505280)
I0915 11:46:57.254442 26297 net.cpp:148] Top shape: 10 192 28 28 (1505280)
I0915 11:46:57.254448 26297 net.cpp:148] Top shape: 10 192 28 28 (1505280)
I0915 11:46:57.254454 26297 net.cpp:148] Top shape: 10 192 28 28 (1505280)
I0915 11:46:57.254458 26297 net.cpp:156] Memory required for data: 204718080
I0915 11:46:57.254463 26297 layer_factory.hpp:77] Creating layer inception_3a/1x1
I0915 11:46:57.254477 26297 net.cpp:91] Creating Layer inception_3a/1x1
I0915 11:46:57.254483 26297 net.cpp:425] inception_3a/1x1 <- pool2/3x3_s2_pool2/3x3_s2_0_split_0
I0915 11:46:57.254506 26297 net.cpp:399] inception_3a/1x1 -> inception_3a/1x1
I0915 11:46:57.256599 26297 net.cpp:141] Setting up inception_3a/1x1
I0915 11:46:57.256619 26297 net.cpp:148] Top shape: 10 64 28 28 (501760)
I0915 11:46:57.256625 26297 net.cpp:156] Memory required for data: 206725120
I0915 11:46:57.256635 26297 layer_factory.hpp:77] Creating layer inception_3a/relu_1x1
I0915 11:46:57.256645 26297 net.cpp:91] Creating Layer inception_3a/relu_1x1
I0915 11:46:57.256651 26297 net.cpp:425] inception_3a/relu_1x1 <- inception_3a/1x1
I0915 11:46:57.256662 26297 net.cpp:386] inception_3a/relu_1x1 -> inception_3a/1x1 (in-place)
I0915 11:46:57.257088 26297 net.cpp:141] Setting up inception_3a/relu_1x1
I0915 11:46:57.257102 26297 net.cpp:148] Top shape: 10 64 28 28 (501760)
I0915 11:46:57.257107 26297 net.cpp:156] Memory required for data: 208732160
I0915 11:46:57.257113 26297 layer_factory.hpp:77] Creating layer inception_3a/3x3_reduce
I0915 11:46:57.257131 26297 net.cpp:91] Creating Layer inception_3a/3x3_reduce
I0915 11:46:57.257138 26297 net.cpp:425] inception_3a/3x3_reduce <- pool2/3x3_s2_pool2/3x3_s2_0_split_1
I0915 11:46:57.257151 26297 net.cpp:399] inception_3a/3x3_reduce -> inception_3a/3x3_reduce
I0915 11:46:57.259825 26297 net.cpp:141] Setting up inception_3a/3x3_reduce
I0915 11:46:57.259848 26297 net.cpp:148] Top shape: 10 96 28 28 (752640)
I0915 11:46:57.259855 26297 net.cpp:156] Memory required for data: 211742720
I0915 11:46:57.259867 26297 layer_factory.hpp:77] Creating layer inception_3a/relu_3x3_reduce
I0915 11:46:57.259877 26297 net.cpp:91] Creating Layer inception_3a/relu_3x3_reduce
I0915 11:46:57.259883 26297 net.cpp:425] inception_3a/relu_3x3_reduce <- inception_3a/3x3_reduce
I0915 11:46:57.259891 26297 net.cpp:386] inception_3a/relu_3x3_reduce -> inception_3a/3x3_reduce (in-place)
I0915 11:46:57.260171 26297 net.cpp:141] Setting up inception_3a/relu_3x3_reduce
I0915 11:46:57.260185 26297 net.cpp:148] Top shape: 10 96 28 28 (752640)
I0915 11:46:57.260190 26297 net.cpp:156] Memory required for data: 214753280
I0915 11:46:57.260195 26297 layer_factory.hpp:77] Creating layer inception_3a/3x3
I0915 11:46:57.260217 26297 net.cpp:91] Creating Layer inception_3a/3x3
I0915 11:46:57.260223 26297 net.cpp:425] inception_3a/3x3 <- inception_3a/3x3_reduce
I0915 11:46:57.260233 26297 net.cpp:399] inception_3a/3x3 -> inception_3a/3x3
I0915 11:46:57.262645 26297 net.cpp:141] Setting up inception_3a/3x3
I0915 11:46:57.262665 26297 net.cpp:148] Top shape: 10 128 28 28 (1003520)
I0915 11:46:57.262670 26297 net.cpp:156] Memory required for data: 218767360
I0915 11:46:57.262679 26297 layer_factory.hpp:77] Creating layer inception_3a/relu_3x3
I0915 11:46:57.262689 26297 net.cpp:91] Creating Layer inception_3a/relu_3x3
I0915 11:46:57.262696 26297 net.cpp:425] inception_3a/relu_3x3 <- inception_3a/3x3
I0915 11:46:57.262708 26297 net.cpp:386] inception_3a/relu_3x3 -> inception_3a/3x3 (in-place)
I0915 11:46:57.263139 26297 net.cpp:141] Setting up inception_3a/relu_3x3
I0915 11:46:57.263152 26297 net.cpp:148] Top shape: 10 128 28 28 (1003520)
I0915 11:46:57.263157 26297 net.cpp:156] Memory required for data: 222781440
I0915 11:46:57.263162 26297 layer_factory.hpp:77] Creating layer inception_3a/5x5_reduce
I0915 11:46:57.263180 26297 net.cpp:91] Creating Layer inception_3a/5x5_reduce
I0915 11:46:57.263190 26297 net.cpp:425] inception_3a/5x5_reduce <- pool2/3x3_s2_pool2/3x3_s2_0_split_2
I0915 11:46:57.263200 26297 net.cpp:399] inception_3a/5x5_reduce -> inception_3a/5x5_reduce
I0915 11:46:57.264574 26297 net.cpp:141] Setting up inception_3a/5x5_reduce
I0915 11:46:57.264593 26297 net.cpp:148] Top shape: 10 16 28 28 (125440)
I0915 11:46:57.264598 26297 net.cpp:156] Memory required for data: 223283200
I0915 11:46:57.264608 26297 layer_factory.hpp:77] Creating layer inception_3a/relu_5x5_reduce
I0915 11:46:57.264623 26297 net.cpp:91] Creating Layer inception_3a/relu_5x5_reduce
I0915 11:46:57.264631 26297 net.cpp:425] inception_3a/relu_5x5_reduce <- inception_3a/5x5_reduce
I0915 11:46:57.264638 26297 net.cpp:386] inception_3a/relu_5x5_reduce -> inception_3a/5x5_reduce (in-place)
I0915 11:46:57.265074 26297 net.cpp:141] Setting up inception_3a/relu_5x5_reduce
I0915 11:46:57.265089 26297 net.cpp:148] Top shape: 10 16 28 28 (125440)
I0915 11:46:57.265094 26297 net.cpp:156] Memory required for data: 223784960
I0915 11:46:57.265099 26297 layer_factory.hpp:77] Creating layer inception_3a/5x5
I0915 11:46:57.265118 26297 net.cpp:91] Creating Layer inception_3a/5x5
I0915 11:46:57.265125 26297 net.cpp:425] inception_3a/5x5 <- inception_3a/5x5_reduce
I0915 11:46:57.265136 26297 net.cpp:399] inception_3a/5x5 -> inception_3a/5x5
I0915 11:46:57.267295 26297 net.cpp:141] Setting up inception_3a/5x5
I0915 11:46:57.267315 26297 net.cpp:148] Top shape: 10 32 28 28 (250880)
I0915 11:46:57.267320 26297 net.cpp:156] Memory required for data: 224788480
I0915 11:46:57.267330 26297 layer_factory.hpp:77] Creating layer inception_3a/relu_5x5
I0915 11:46:57.267340 26297 net.cpp:91] Creating Layer inception_3a/relu_5x5
I0915 11:46:57.267346 26297 net.cpp:425] inception_3a/relu_5x5 <- inception_3a/5x5
I0915 11:46:57.267357 26297 net.cpp:386] inception_3a/relu_5x5 -> inception_3a/5x5 (in-place)
I0915 11:46:57.267618 26297 net.cpp:141] Setting up inception_3a/relu_5x5
I0915 11:46:57.267632 26297 net.cpp:148] Top shape: 10 32 28 28 (250880)
I0915 11:46:57.267637 26297 net.cpp:156] Memory required for data: 225792000
I0915 11:46:57.267642 26297 layer_factory.hpp:77] Creating layer inception_3a/pool
I0915 11:46:57.267655 26297 net.cpp:91] Creating Layer inception_3a/pool
I0915 11:46:57.267662 26297 net.cpp:425] inception_3a/pool <- pool2/3x3_s2_pool2/3x3_s2_0_split_3
I0915 11:46:57.267669 26297 net.cpp:399] inception_3a/pool -> inception_3a/pool
I0915 11:46:57.267735 26297 net.cpp:141] Setting up inception_3a/pool
I0915 11:46:57.267745 26297 net.cpp:148] Top shape: 10 192 28 28 (1505280)
I0915 11:46:57.267750 26297 net.cpp:156] Memory required for data: 231813120
I0915 11:46:57.267755 26297 layer_factory.hpp:77] Creating layer inception_3a/pool_proj
I0915 11:46:57.267770 26297 net.cpp:91] Creating Layer inception_3a/pool_proj
I0915 11:46:57.267776 26297 net.cpp:425] inception_3a/pool_proj <- inception_3a/pool
I0915 11:46:57.267788 26297 net.cpp:399] inception_3a/pool_proj -> inception_3a/pool_proj
I0915 11:46:57.269353 26297 net.cpp:141] Setting up inception_3a/pool_proj
I0915 11:46:57.269376 26297 net.cpp:148] Top shape: 10 32 28 28 (250880)
I0915 11:46:57.269381 26297 net.cpp:156] Memory required for data: 232816640
I0915 11:46:57.269395 26297 layer_factory.hpp:77] Creating layer inception_3a/relu_pool_proj
I0915 11:46:57.269405 26297 net.cpp:91] Creating Layer inception_3a/relu_pool_proj
I0915 11:46:57.269412 26297 net.cpp:425] inception_3a/relu_pool_proj <- inception_3a/pool_proj
I0915 11:46:57.269423 26297 net.cpp:386] inception_3a/relu_pool_proj -> inception_3a/pool_proj (in-place)
I0915 11:46:57.269862 26297 net.cpp:141] Setting up inception_3a/relu_pool_proj
I0915 11:46:57.269876 26297 net.cpp:148] Top shape: 10 32 28 28 (250880)
I0915 11:46:57.269881 26297 net.cpp:156] Memory required for data: 233820160
I0915 11:46:57.269886 26297 layer_factory.hpp:77] Creating layer inception_3a/output
I0915 11:46:57.269906 26297 net.cpp:91] Creating Layer inception_3a/output
I0915 11:46:57.269911 26297 net.cpp:425] inception_3a/output <- inception_3a/1x1
I0915 11:46:57.269917 26297 net.cpp:425] inception_3a/output <- inception_3a/3x3
I0915 11:46:57.269923 26297 net.cpp:425] inception_3a/output <- inception_3a/5x5
I0915 11:46:57.269929 26297 net.cpp:425] inception_3a/output <- inception_3a/pool_proj
I0915 11:46:57.269940 26297 net.cpp:399] inception_3a/output -> inception_3a/output
I0915 11:46:57.269990 26297 net.cpp:141] Setting up inception_3a/output
I0915 11:46:57.270000 26297 net.cpp:148] Top shape: 10 256 28 28 (2007040)
I0915 11:46:57.270005 26297 net.cpp:156] Memory required for data: 241848320
I0915 11:46:57.270010 26297 layer_factory.hpp:77] Creating layer inception_3a/output_inception_3a/output_0_split
I0915 11:46:57.270018 26297 net.cpp:91] Creating Layer inception_3a/output_inception_3a/output_0_split
I0915 11:46:57.270023 26297 net.cpp:425] inception_3a/output_inception_3a/output_0_split <- inception_3a/output
I0915 11:46:57.270031 26297 net.cpp:399] inception_3a/output_inception_3a/output_0_split -> inception_3a/output_inception_3a/output_0_split_0
I0915 11:46:57.270045 26297 net.cpp:399] inception_3a/output_inception_3a/output_0_split -> inception_3a/output_inception_3a/output_0_split_1
I0915 11:46:57.270054 26297 net.cpp:399] inception_3a/output_inception_3a/output_0_split -> inception_3a/output_inception_3a/output_0_split_2
I0915 11:46:57.270063 26297 net.cpp:399] inception_3a/output_inception_3a/output_0_split -> inception_3a/output_inception_3a/output_0_split_3
I0915 11:46:57.270150 26297 net.cpp:141] Setting up inception_3a/output_inception_3a/output_0_split
I0915 11:46:57.270160 26297 net.cpp:148] Top shape: 10 256 28 28 (2007040)
I0915 11:46:57.270166 26297 net.cpp:148] Top shape: 10 256 28 28 (2007040)
I0915 11:46:57.270172 26297 net.cpp:148] Top shape: 10 256 28 28 (2007040)
I0915 11:46:57.270177 26297 net.cpp:148] Top shape: 10 256 28 28 (2007040)
I0915 11:46:57.270182 26297 net.cpp:156] Memory required for data: 273960960
I0915 11:46:57.270186 26297 layer_factory.hpp:77] Creating layer inception_3b/1x1
I0915 11:46:57.270206 26297 net.cpp:91] Creating Layer inception_3b/1x1
I0915 11:46:57.270212 26297 net.cpp:425] inception_3b/1x1 <- inception_3a/output_inception_3a/output_0_split_0
I0915 11:46:57.270221 26297 net.cpp:399] inception_3b/1x1 -> inception_3b/1x1
I0915 11:46:57.271793 26297 net.cpp:141] Setting up inception_3b/1x1
I0915 11:46:57.271808 26297 net.cpp:148] Top shape: 10 128 28 28 (1003520)
I0915 11:46:57.271814 26297 net.cpp:156] Memory required for data: 277975040
I0915 11:46:57.271823 26297 layer_factory.hpp:77] Creating layer inception_3b/relu_1x1
I0915 11:46:57.271836 26297 net.cpp:91] Creating Layer inception_3b/relu_1x1
I0915 11:46:57.271843 26297 net.cpp:425] inception_3b/relu_1x1 <- inception_3b/1x1
I0915 11:46:57.271852 26297 net.cpp:386] inception_3b/relu_1x1 -> inception_3b/1x1 (in-place)
I0915 11:46:57.272287 26297 net.cpp:141] Setting up inception_3b/relu_1x1
I0915 11:46:57.272302 26297 net.cpp:148] Top shape: 10 128 28 28 (1003520)
I0915 11:46:57.272307 26297 net.cpp:156] Memory required for data: 281989120
I0915 11:46:57.272312 26297 layer_factory.hpp:77] Creating layer inception_3b/3x3_reduce
I0915 11:46:57.272332 26297 net.cpp:91] Creating Layer inception_3b/3x3_reduce
I0915 11:46:57.272339 26297 net.cpp:425] inception_3b/3x3_reduce <- inception_3a/output_inception_3a/output_0_split_1
I0915 11:46:57.272349 26297 net.cpp:399] inception_3b/3x3_reduce -> inception_3b/3x3_reduce
I0915 11:46:57.274178 26297 net.cpp:141] Setting up inception_3b/3x3_reduce
I0915 11:46:57.274196 26297 net.cpp:148] Top shape: 10 128 28 28 (1003520)
I0915 11:46:57.274202 26297 net.cpp:156] Memory required for data: 286003200
I0915 11:46:57.274212 26297 layer_factory.hpp:77] Creating layer inception_3b/relu_3x3_reduce
I0915 11:46:57.274221 26297 net.cpp:91] Creating Layer inception_3b/relu_3x3_reduce
I0915 11:46:57.274231 26297 net.cpp:425] inception_3b/relu_3x3_reduce <- inception_3b/3x3_reduce
I0915 11:46:57.274240 26297 net.cpp:386] inception_3b/relu_3x3_reduce -> inception_3b/3x3_reduce (in-place)
I0915 11:46:57.274508 26297 net.cpp:141] Setting up inception_3b/relu_3x3_reduce
I0915 11:46:57.274520 26297 net.cpp:148] Top shape: 10 128 28 28 (1003520)
I0915 11:46:57.274525 26297 net.cpp:156] Memory required for data: 290017280
I0915 11:46:57.274530 26297 layer_factory.hpp:77] Creating layer inception_3b/3x3
I0915 11:46:57.274549 26297 net.cpp:91] Creating Layer inception_3b/3x3
I0915 11:46:57.274556 26297 net.cpp:425] inception_3b/3x3 <- inception_3b/3x3_reduce
I0915 11:46:57.274565 26297 net.cpp:399] inception_3b/3x3 -> inception_3b/3x3
I0915 11:46:57.278719 26297 net.cpp:141] Setting up inception_3b/3x3
I0915 11:46:57.278740 26297 net.cpp:148] Top shape: 10 192 28 28 (1505280)
I0915 11:46:57.278746 26297 net.cpp:156] Memory required for data: 296038400
I0915 11:46:57.278755 26297 layer_factory.hpp:77] Creating layer inception_3b/relu_3x3
I0915 11:46:57.278772 26297 net.cpp:91] Creating Layer inception_3b/relu_3x3
I0915 11:46:57.278779 26297 net.cpp:425] inception_3b/relu_3x3 <- inception_3b/3x3
I0915 11:46:57.278787 26297 net.cpp:386] inception_3b/relu_3x3 -> inception_3b/3x3 (in-place)
I0915 11:46:57.279230 26297 net.cpp:141] Setting up inception_3b/relu_3x3
I0915 11:46:57.279244 26297 net.cpp:148] Top shape: 10 192 28 28 (1505280)
I0915 11:46:57.279249 26297 net.cpp:156] Memory required for data: 302059520
I0915 11:46:57.279255 26297 layer_factory.hpp:77] Creating layer inception_3b/5x5_reduce
I0915 11:46:57.279275 26297 net.cpp:91] Creating Layer inception_3b/5x5_reduce
I0915 11:46:57.279281 26297 net.cpp:425] inception_3b/5x5_reduce <- inception_3a/output_inception_3a/output_0_split_2
I0915 11:46:57.279291 26297 net.cpp:399] inception_3b/5x5_reduce -> inception_3b/5x5_reduce
I0915 11:46:57.280728 26297 net.cpp:141] Setting up inception_3b/5x5_reduce
I0915 11:46:57.280748 26297 net.cpp:148] Top shape: 10 32 28 28 (250880)
I0915 11:46:57.280755 26297 net.cpp:156] Memory required for data: 303063040
I0915 11:46:57.280763 26297 layer_factory.hpp:77] Creating layer inception_3b/relu_5x5_reduce
I0915 11:46:57.280786 26297 net.cpp:91] Creating Layer inception_3b/relu_5x5_reduce
I0915 11:46:57.280793 26297 net.cpp:425] inception_3b/relu_5x5_reduce <- inception_3b/5x5_reduce
I0915 11:46:57.280802 26297 net.cpp:386] inception_3b/relu_5x5_reduce -> inception_3b/5x5_reduce (in-place)
I0915 11:46:57.281244 26297 net.cpp:141] Setting up inception_3b/relu_5x5_reduce
I0915 11:46:57.281260 26297 net.cpp:148] Top shape: 10 32 28 28 (250880)
I0915 11:46:57.281265 26297 net.cpp:156] Memory required for data: 304066560
I0915 11:46:57.281270 26297 layer_factory.hpp:77] Creating layer inception_3b/5x5
I0915 11:46:57.281289 26297 net.cpp:91] Creating Layer inception_3b/5x5
I0915 11:46:57.281296 26297 net.cpp:425] inception_3b/5x5 <- inception_3b/5x5_reduce
I0915 11:46:57.281306 26297 net.cpp:399] inception_3b/5x5 -> inception_3b/5x5
I0915 11:46:57.284270 26297 net.cpp:141] Setting up inception_3b/5x5
I0915 11:46:57.284291 26297 net.cpp:148] Top shape: 10 96 28 28 (752640)
I0915 11:46:57.284296 26297 net.cpp:156] Memory required for data: 307077120
I0915 11:46:57.284306 26297 layer_factory.hpp:77] Creating layer inception_3b/relu_5x5
I0915 11:46:57.284318 26297 net.cpp:91] Creating Layer inception_3b/relu_5x5
I0915 11:46:57.284325 26297 net.cpp:425] inception_3b/relu_5x5 <- inception_3b/5x5
I0915 11:46:57.284333 26297 net.cpp:386] inception_3b/relu_5x5 -> inception_3b/5x5 (in-place)
I0915 11:46:57.284595 26297 net.cpp:141] Setting up inception_3b/relu_5x5
I0915 11:46:57.284607 26297 net.cpp:148] Top shape: 10 96 28 28 (752640)
I0915 11:46:57.284612 26297 net.cpp:156] Memory required for data: 310087680
I0915 11:46:57.284618 26297 layer_factory.hpp:77] Creating layer inception_3b/pool
I0915 11:46:57.284627 26297 net.cpp:91] Creating Layer inception_3b/pool
I0915 11:46:57.284633 26297 net.cpp:425] inception_3b/pool <- inception_3a/output_inception_3a/output_0_split_3
I0915 11:46:57.284646 26297 net.cpp:399] inception_3b/pool -> inception_3b/pool
I0915 11:46:57.284708 26297 net.cpp:141] Setting up inception_3b/pool
I0915 11:46:57.284718 26297 net.cpp:148] Top shape: 10 256 28 28 (2007040)
I0915 11:46:57.284723 26297 net.cpp:156] Memory required for data: 318115840
I0915 11:46:57.284728 26297 layer_factory.hpp:77] Creating layer inception_3b/pool_proj
I0915 11:46:57.284746 26297 net.cpp:91] Creating Layer inception_3b/pool_proj
I0915 11:46:57.284752 26297 net.cpp:425] inception_3b/pool_proj <- inception_3b/pool
I0915 11:46:57.284767 26297 net.cpp:399] inception_3b/pool_proj -> inception_3b/pool_proj
I0915 11:46:57.286470 26297 net.cpp:141] Setting up inception_3b/pool_proj
I0915 11:46:57.286489 26297 net.cpp:148] Top shape: 10 64 28 28 (501760)
I0915 11:46:57.286495 26297 net.cpp:156] Memory required for data: 320122880
I0915 11:46:57.286505 26297 layer_factory.hpp:77] Creating layer inception_3b/relu_pool_proj
I0915 11:46:57.286514 26297 net.cpp:91] Creating Layer inception_3b/relu_pool_proj
I0915 11:46:57.286520 26297 net.cpp:425] inception_3b/relu_pool_proj <- inception_3b/pool_proj
I0915 11:46:57.286531 26297 net.cpp:386] inception_3b/relu_pool_proj -> inception_3b/pool_proj (in-place)
I0915 11:46:57.286983 26297 net.cpp:141] Setting up inception_3b/relu_pool_proj
I0915 11:46:57.286996 26297 net.cpp:148] Top shape: 10 64 28 28 (501760)
I0915 11:46:57.287001 26297 net.cpp:156] Memory required for data: 322129920
I0915 11:46:57.287006 26297 layer_factory.hpp:77] Creating layer inception_3b/output
I0915 11:46:57.287016 26297 net.cpp:91] Creating Layer inception_3b/output
I0915 11:46:57.287021 26297 net.cpp:425] inception_3b/output <- inception_3b/1x1
I0915 11:46:57.287029 26297 net.cpp:425] inception_3b/output <- inception_3b/3x3
I0915 11:46:57.287037 26297 net.cpp:425] inception_3b/output <- inception_3b/5x5
I0915 11:46:57.287045 26297 net.cpp:425] inception_3b/output <- inception_3b/pool_proj
I0915 11:46:57.287051 26297 net.cpp:399] inception_3b/output -> inception_3b/output
I0915 11:46:57.287091 26297 net.cpp:141] Setting up inception_3b/output
I0915 11:46:57.287101 26297 net.cpp:148] Top shape: 10 480 28 28 (3763200)
I0915 11:46:57.287106 26297 net.cpp:156] Memory required for data: 337182720
I0915 11:46:57.287111 26297 layer_factory.hpp:77] Creating layer pool3/3x3_s2
I0915 11:46:57.287124 26297 net.cpp:91] Creating Layer pool3/3x3_s2
I0915 11:46:57.287130 26297 net.cpp:425] pool3/3x3_s2 <- inception_3b/output
I0915 11:46:57.287140 26297 net.cpp:399] pool3/3x3_s2 -> pool3/3x3_s2
I0915 11:46:57.287206 26297 net.cpp:141] Setting up pool3/3x3_s2
I0915 11:46:57.287217 26297 net.cpp:148] Top shape: 10 480 14 14 (940800)
I0915 11:46:57.287222 26297 net.cpp:156] Memory required for data: 340945920
I0915 11:46:57.287227 26297 layer_factory.hpp:77] Creating layer pool3/3x3_s2_pool3/3x3_s2_0_split
I0915 11:46:57.287235 26297 net.cpp:91] Creating Layer pool3/3x3_s2_pool3/3x3_s2_0_split
I0915 11:46:57.287240 26297 net.cpp:425] pool3/3x3_s2_pool3/3x3_s2_0_split <- pool3/3x3_s2
I0915 11:46:57.287250 26297 net.cpp:399] pool3/3x3_s2_pool3/3x3_s2_0_split -> pool3/3x3_s2_pool3/3x3_s2_0_split_0
I0915 11:46:57.287263 26297 net.cpp:399] pool3/3x3_s2_pool3/3x3_s2_0_split -> pool3/3x3_s2_pool3/3x3_s2_0_split_1
I0915 11:46:57.287272 26297 net.cpp:399] pool3/3x3_s2_pool3/3x3_s2_0_split -> pool3/3x3_s2_pool3/3x3_s2_0_split_2
I0915 11:46:57.287281 26297 net.cpp:399] pool3/3x3_s2_pool3/3x3_s2_0_split -> pool3/3x3_s2_pool3/3x3_s2_0_split_3
I0915 11:46:57.287369 26297 net.cpp:141] Setting up pool3/3x3_s2_pool3/3x3_s2_0_split
I0915 11:46:57.287377 26297 net.cpp:148] Top shape: 10 480 14 14 (940800)
I0915 11:46:57.287384 26297 net.cpp:148] Top shape: 10 480 14 14 (940800)
I0915 11:46:57.287390 26297 net.cpp:148] Top shape: 10 480 14 14 (940800)
I0915 11:46:57.287395 26297 net.cpp:148] Top shape: 10 480 14 14 (940800)
I0915 11:46:57.287400 26297 net.cpp:156] Memory required for data: 355998720
I0915 11:46:57.287405 26297 layer_factory.hpp:77] Creating layer inception_4a/1x1
I0915 11:46:57.287423 26297 net.cpp:91] Creating Layer inception_4a/1x1
I0915 11:46:57.287430 26297 net.cpp:425] inception_4a/1x1 <- pool3/3x3_s2_pool3/3x3_s2_0_split_0
I0915 11:46:57.287438 26297 net.cpp:399] inception_4a/1x1 -> inception_4a/1x1
I0915 11:46:57.289842 26297 net.cpp:141] Setting up inception_4a/1x1
I0915 11:46:57.289862 26297 net.cpp:148] Top shape: 10 192 14 14 (376320)
I0915 11:46:57.289867 26297 net.cpp:156] Memory required for data: 357504000
I0915 11:46:57.289877 26297 layer_factory.hpp:77] Creating layer inception_4a/relu_1x1
I0915 11:46:57.289891 26297 net.cpp:91] Creating Layer inception_4a/relu_1x1
I0915 11:46:57.289897 26297 net.cpp:425] inception_4a/relu_1x1 <- inception_4a/1x1
I0915 11:46:57.289906 26297 net.cpp:386] inception_4a/relu_1x1 -> inception_4a/1x1 (in-place)
I0915 11:46:57.290350 26297 net.cpp:141] Setting up inception_4a/relu_1x1
I0915 11:46:57.290364 26297 net.cpp:148] Top shape: 10 192 14 14 (376320)
I0915 11:46:57.290372 26297 net.cpp:156] Memory required for data: 359009280
I0915 11:46:57.290377 26297 layer_factory.hpp:77] Creating layer inception_4a/3x3_reduce
I0915 11:46:57.290391 26297 net.cpp:91] Creating Layer inception_4a/3x3_reduce
I0915 11:46:57.290398 26297 net.cpp:425] inception_4a/3x3_reduce <- pool3/3x3_s2_pool3/3x3_s2_0_split_1
I0915 11:46:57.290411 26297 net.cpp:399] inception_4a/3x3_reduce -> inception_4a/3x3_reduce
I0915 11:46:57.292459 26297 net.cpp:141] Setting up inception_4a/3x3_reduce
I0915 11:46:57.292498 26297 net.cpp:148] Top shape: 10 96 14 14 (188160)
I0915 11:46:57.292505 26297 net.cpp:156] Memory required for data: 359761920
I0915 11:46:57.292531 26297 layer_factory.hpp:77] Creating layer inception_4a/relu_3x3_reduce
I0915 11:46:57.292548 26297 net.cpp:91] Creating Layer inception_4a/relu_3x3_reduce
I0915 11:46:57.292557 26297 net.cpp:425] inception_4a/relu_3x3_reduce <- inception_4a/3x3_reduce
I0915 11:46:57.292567 26297 net.cpp:386] inception_4a/relu_3x3_reduce -> inception_4a/3x3_reduce (in-place)
I0915 11:46:57.292835 26297 net.cpp:141] Setting up inception_4a/relu_3x3_reduce
I0915 11:46:57.292847 26297 net.cpp:148] Top shape: 10 96 14 14 (188160)
I0915 11:46:57.292852 26297 net.cpp:156] Memory required for data: 360514560
I0915 11:46:57.292857 26297 layer_factory.hpp:77] Creating layer inception_4a/3x3
I0915 11:46:57.292886 26297 net.cpp:91] Creating Layer inception_4a/3x3
I0915 11:46:57.292891 26297 net.cpp:425] inception_4a/3x3 <- inception_4a/3x3_reduce
I0915 11:46:57.292901 26297 net.cpp:399] inception_4a/3x3 -> inception_4a/3x3
I0915 11:46:57.296828 26297 net.cpp:141] Setting up inception_4a/3x3
I0915 11:46:57.296844 26297 net.cpp:148] Top shape: 10 208 14 14 (407680)
I0915 11:46:57.296850 26297 net.cpp:156] Memory required for data: 362145280
I0915 11:46:57.296860 26297 layer_factory.hpp:77] Creating layer inception_4a/relu_3x3
I0915 11:46:57.296869 26297 net.cpp:91] Creating Layer inception_4a/relu_3x3
I0915 11:46:57.296875 26297 net.cpp:425] inception_4a/relu_3x3 <- inception_4a/3x3
I0915 11:46:57.296888 26297 net.cpp:386] inception_4a/relu_3x3 -> inception_4a/3x3 (in-place)
I0915 11:46:57.297338 26297 net.cpp:141] Setting up inception_4a/relu_3x3
I0915 11:46:57.297353 26297 net.cpp:148] Top shape: 10 208 14 14 (407680)
I0915 11:46:57.297358 26297 net.cpp:156] Memory required for data: 363776000
I0915 11:46:57.297363 26297 layer_factory.hpp:77] Creating layer inception_4a/5x5_reduce
I0915 11:46:57.297384 26297 net.cpp:91] Creating Layer inception_4a/5x5_reduce
I0915 11:46:57.297390 26297 net.cpp:425] inception_4a/5x5_reduce <- pool3/3x3_s2_pool3/3x3_s2_0_split_2
I0915 11:46:57.297401 26297 net.cpp:399] inception_4a/5x5_reduce -> inception_4a/5x5_reduce
I0915 11:46:57.298849 26297 net.cpp:141] Setting up inception_4a/5x5_reduce
I0915 11:46:57.298866 26297 net.cpp:148] Top shape: 10 16 14 14 (31360)
I0915 11:46:57.298871 26297 net.cpp:156] Memory required for data: 363901440
I0915 11:46:57.298879 26297 layer_factory.hpp:77] Creating layer inception_4a/relu_5x5_reduce
I0915 11:46:57.298893 26297 net.cpp:91] Creating Layer inception_4a/relu_5x5_reduce
I0915 11:46:57.298899 26297 net.cpp:425] inception_4a/relu_5x5_reduce <- inception_4a/5x5_reduce
I0915 11:46:57.298908 26297 net.cpp:386] inception_4a/relu_5x5_reduce -> inception_4a/5x5_reduce (in-place)
I0915 11:46:57.299350 26297 net.cpp:141] Setting up inception_4a/relu_5x5_reduce
I0915 11:46:57.299366 26297 net.cpp:148] Top shape: 10 16 14 14 (31360)
I0915 11:46:57.299372 26297 net.cpp:156] Memory required for data: 364026880
I0915 11:46:57.299377 26297 layer_factory.hpp:77] Creating layer inception_4a/5x5
I0915 11:46:57.299394 26297 net.cpp:91] Creating Layer inception_4a/5x5
I0915 11:46:57.299401 26297 net.cpp:425] inception_4a/5x5 <- inception_4a/5x5_reduce
I0915 11:46:57.299410 26297 net.cpp:399] inception_4a/5x5 -> inception_4a/5x5
I0915 11:46:57.301143 26297 net.cpp:141] Setting up inception_4a/5x5
I0915 11:46:57.301162 26297 net.cpp:148] Top shape: 10 48 14 14 (94080)
I0915 11:46:57.301168 26297 net.cpp:156] Memory required for data: 364403200
I0915 11:46:57.301177 26297 layer_factory.hpp:77] Creating layer inception_4a/relu_5x5
I0915 11:46:57.301192 26297 net.cpp:91] Creating Layer inception_4a/relu_5x5
I0915 11:46:57.301199 26297 net.cpp:425] inception_4a/relu_5x5 <- inception_4a/5x5
I0915 11:46:57.301209 26297 net.cpp:386] inception_4a/relu_5x5 -> inception_4a/5x5 (in-place)
I0915 11:46:57.301471 26297 net.cpp:141] Setting up inception_4a/relu_5x5
I0915 11:46:57.301483 26297 net.cpp:148] Top shape: 10 48 14 14 (94080)
I0915 11:46:57.301488 26297 net.cpp:156] Memory required for data: 364779520
I0915 11:46:57.301493 26297 layer_factory.hpp:77] Creating layer inception_4a/pool
I0915 11:46:57.301506 26297 net.cpp:91] Creating Layer inception_4a/pool
I0915 11:46:57.301512 26297 net.cpp:425] inception_4a/pool <- pool3/3x3_s2_pool3/3x3_s2_0_split_3
I0915 11:46:57.301523 26297 net.cpp:399] inception_4a/pool -> inception_4a/pool
I0915 11:46:57.301595 26297 net.cpp:141] Setting up inception_4a/pool
I0915 11:46:57.301606 26297 net.cpp:148] Top shape: 10 480 14 14 (940800)
I0915 11:46:57.301610 26297 net.cpp:156] Memory required for data: 368542720
I0915 11:46:57.301615 26297 layer_factory.hpp:77] Creating layer inception_4a/pool_proj
I0915 11:46:57.301630 26297 net.cpp:91] Creating Layer inception_4a/pool_proj
I0915 11:46:57.301637 26297 net.cpp:425] inception_4a/pool_proj <- inception_4a/pool
I0915 11:46:57.301645 26297 net.cpp:399] inception_4a/pool_proj -> inception_4a/pool_proj
I0915 11:46:57.303683 26297 net.cpp:141] Setting up inception_4a/pool_proj
I0915 11:46:57.303702 26297 net.cpp:148] Top shape: 10 64 14 14 (125440)
I0915 11:46:57.303707 26297 net.cpp:156] Memory required for data: 369044480
I0915 11:46:57.303717 26297 layer_factory.hpp:77] Creating layer inception_4a/relu_pool_proj
I0915 11:46:57.303726 26297 net.cpp:91] Creating Layer inception_4a/relu_pool_proj
I0915 11:46:57.303733 26297 net.cpp:425] inception_4a/relu_pool_proj <- inception_4a/pool_proj
I0915 11:46:57.303740 26297 net.cpp:386] inception_4a/relu_pool_proj -> inception_4a/pool_proj (in-place)
I0915 11:46:57.304219 26297 net.cpp:141] Setting up inception_4a/relu_pool_proj
I0915 11:46:57.304232 26297 net.cpp:148] Top shape: 10 64 14 14 (125440)
I0915 11:46:57.304239 26297 net.cpp:156] Memory required for data: 369546240
I0915 11:46:57.304244 26297 layer_factory.hpp:77] Creating layer inception_4a/output
I0915 11:46:57.304255 26297 net.cpp:91] Creating Layer inception_4a/output
I0915 11:46:57.304260 26297 net.cpp:425] inception_4a/output <- inception_4a/1x1
I0915 11:46:57.304266 26297 net.cpp:425] inception_4a/output <- inception_4a/3x3
I0915 11:46:57.304273 26297 net.cpp:425] inception_4a/output <- inception_4a/5x5
I0915 11:46:57.304280 26297 net.cpp:425] inception_4a/output <- inception_4a/pool_proj
I0915 11:46:57.304291 26297 net.cpp:399] inception_4a/output -> inception_4a/output
I0915 11:46:57.304338 26297 net.cpp:141] Setting up inception_4a/output
I0915 11:46:57.304352 26297 net.cpp:148] Top shape: 10 512 14 14 (1003520)
I0915 11:46:57.304357 26297 net.cpp:156] Memory required for data: 373560320
I0915 11:46:57.304361 26297 layer_factory.hpp:77] Creating layer inception_4a/output_inception_4a/output_0_split
I0915 11:46:57.304371 26297 net.cpp:91] Creating Layer inception_4a/output_inception_4a/output_0_split
I0915 11:46:57.304378 26297 net.cpp:425] inception_4a/output_inception_4a/output_0_split <- inception_4a/output
I0915 11:46:57.304384 26297 net.cpp:399] inception_4a/output_inception_4a/output_0_split -> inception_4a/output_inception_4a/output_0_split_0
I0915 11:46:57.304394 26297 net.cpp:399] inception_4a/output_inception_4a/output_0_split -> inception_4a/output_inception_4a/output_0_split_1
I0915 11:46:57.304404 26297 net.cpp:399] inception_4a/output_inception_4a/output_0_split -> inception_4a/output_inception_4a/output_0_split_2
I0915 11:46:57.304417 26297 net.cpp:399] inception_4a/output_inception_4a/output_0_split -> inception_4a/output_inception_4a/output_0_split_3
I0915 11:46:57.304518 26297 net.cpp:141] Setting up inception_4a/output_inception_4a/output_0_split
I0915 11:46:57.304528 26297 net.cpp:148] Top shape: 10 512 14 14 (1003520)
I0915 11:46:57.304534 26297 net.cpp:148] Top shape: 10 512 14 14 (1003520)
I0915 11:46:57.304540 26297 net.cpp:148] Top shape: 10 512 14 14 (1003520)
I0915 11:46:57.304546 26297 net.cpp:148] Top shape: 10 512 14 14 (1003520)
I0915 11:46:57.304550 26297 net.cpp:156] Memory required for data: 389616640
I0915 11:46:57.304555 26297 layer_factory.hpp:77] Creating layer inception_4b/1x1
I0915 11:46:57.304571 26297 net.cpp:91] Creating Layer inception_4b/1x1
I0915 11:46:57.304579 26297 net.cpp:425] inception_4b/1x1 <- inception_4a/output_inception_4a/output_0_split_0
I0915 11:46:57.304590 26297 net.cpp:399] inception_4b/1x1 -> inception_4b/1x1
I0915 11:46:57.306659 26297 net.cpp:141] Setting up inception_4b/1x1
I0915 11:46:57.306680 26297 net.cpp:148] Top shape: 10 160 14 14 (313600)
I0915 11:46:57.306685 26297 net.cpp:156] Memory required for data: 390871040
I0915 11:46:57.306695 26297 layer_factory.hpp:77] Creating layer inception_4b/relu_1x1
I0915 11:46:57.306709 26297 net.cpp:91] Creating Layer inception_4b/relu_1x1
I0915 11:46:57.306715 26297 net.cpp:425] inception_4b/relu_1x1 <- inception_4b/1x1
I0915 11:46:57.306723 26297 net.cpp:386] inception_4b/relu_1x1 -> inception_4b/1x1 (in-place)
I0915 11:46:57.307168 26297 net.cpp:141] Setting up inception_4b/relu_1x1
I0915 11:46:57.307183 26297 net.cpp:148] Top shape: 10 160 14 14 (313600)
I0915 11:46:57.307188 26297 net.cpp:156] Memory required for data: 392125440
I0915 11:46:57.307193 26297 layer_factory.hpp:77] Creating layer inception_4b/3x3_reduce
I0915 11:46:57.307212 26297 net.cpp:91] Creating Layer inception_4b/3x3_reduce
I0915 11:46:57.307219 26297 net.cpp:425] inception_4b/3x3_reduce <- inception_4a/output_inception_4a/output_0_split_1
I0915 11:46:57.307229 26297 net.cpp:399] inception_4b/3x3_reduce -> inception_4b/3x3_reduce
I0915 11:46:57.309336 26297 net.cpp:141] Setting up inception_4b/3x3_reduce
I0915 11:46:57.309356 26297 net.cpp:148] Top shape: 10 112 14 14 (219520)
I0915 11:46:57.309361 26297 net.cpp:156] Memory required for data: 393003520
I0915 11:46:57.309370 26297 layer_factory.hpp:77] Creating layer inception_4b/relu_3x3_reduce
I0915 11:46:57.309381 26297 net.cpp:91] Creating Layer inception_4b/relu_3x3_reduce
I0915 11:46:57.309386 26297 net.cpp:425] inception_4b/relu_3x3_reduce <- inception_4b/3x3_reduce
I0915 11:46:57.309397 26297 net.cpp:386] inception_4b/relu_3x3_reduce -> inception_4b/3x3_reduce (in-place)
I0915 11:46:57.309672 26297 net.cpp:141] Setting up inception_4b/relu_3x3_reduce
I0915 11:46:57.309684 26297 net.cpp:148] Top shape: 10 112 14 14 (219520)
I0915 11:46:57.309689 26297 net.cpp:156] Memory required for data: 393881600
I0915 11:46:57.309695 26297 layer_factory.hpp:77] Creating layer inception_4b/3x3
I0915 11:46:57.309715 26297 net.cpp:91] Creating Layer inception_4b/3x3
I0915 11:46:57.309720 26297 net.cpp:425] inception_4b/3x3 <- inception_4b/3x3_reduce
I0915 11:46:57.309731 26297 net.cpp:399] inception_4b/3x3 -> inception_4b/3x3
I0915 11:46:57.314298 26297 net.cpp:141] Setting up inception_4b/3x3
I0915 11:46:57.314318 26297 net.cpp:148] Top shape: 10 224 14 14 (439040)
I0915 11:46:57.314324 26297 net.cpp:156] Memory required for data: 395637760
I0915 11:46:57.314334 26297 layer_factory.hpp:77] Creating layer inception_4b/relu_3x3
I0915 11:46:57.314348 26297 net.cpp:91] Creating Layer inception_4b/relu_3x3
I0915 11:46:57.314355 26297 net.cpp:425] inception_4b/relu_3x3 <- inception_4b/3x3
I0915 11:46:57.314365 26297 net.cpp:386] inception_4b/relu_3x3 -> inception_4b/3x3 (in-place)
I0915 11:46:57.314836 26297 net.cpp:141] Setting up inception_4b/relu_3x3
I0915 11:46:57.314849 26297 net.cpp:148] Top shape: 10 224 14 14 (439040)
I0915 11:46:57.314854 26297 net.cpp:156] Memory required for data: 397393920
I0915 11:46:57.314860 26297 layer_factory.hpp:77] Creating layer inception_4b/5x5_reduce
I0915 11:46:57.314893 26297 net.cpp:91] Creating Layer inception_4b/5x5_reduce
I0915 11:46:57.314899 26297 net.cpp:425] inception_4b/5x5_reduce <- inception_4a/output_inception_4a/output_0_split_2
I0915 11:46:57.314910 26297 net.cpp:399] inception_4b/5x5_reduce -> inception_4b/5x5_reduce
I0915 11:46:57.316460 26297 net.cpp:141] Setting up inception_4b/5x5_reduce
I0915 11:46:57.316480 26297 net.cpp:148] Top shape: 10 24 14 14 (47040)
I0915 11:46:57.316488 26297 net.cpp:156] Memory required for data: 397582080
I0915 11:46:57.316498 26297 layer_factory.hpp:77] Creating layer inception_4b/relu_5x5_reduce
I0915 11:46:57.316509 26297 net.cpp:91] Creating Layer inception_4b/relu_5x5_reduce
I0915 11:46:57.316514 26297 net.cpp:425] inception_4b/relu_5x5_reduce <- inception_4b/5x5_reduce
I0915 11:46:57.316522 26297 net.cpp:386] inception_4b/relu_5x5_reduce -> inception_4b/5x5_reduce (in-place)
I0915 11:46:57.316967 26297 net.cpp:141] Setting up inception_4b/relu_5x5_reduce
I0915 11:46:57.316984 26297 net.cpp:148] Top shape: 10 24 14 14 (47040)
I0915 11:46:57.316990 26297 net.cpp:156] Memory required for data: 397770240
I0915 11:46:57.316995 26297 layer_factory.hpp:77] Creating layer inception_4b/5x5
I0915 11:46:57.317013 26297 net.cpp:91] Creating Layer inception_4b/5x5
I0915 11:46:57.317019 26297 net.cpp:425] inception_4b/5x5 <- inception_4b/5x5_reduce
I0915 11:46:57.317029 26297 net.cpp:399] inception_4b/5x5 -> inception_4b/5x5
I0915 11:46:57.319741 26297 net.cpp:141] Setting up inception_4b/5x5
I0915 11:46:57.319761 26297 net.cpp:148] Top shape: 10 64 14 14 (125440)
I0915 11:46:57.319767 26297 net.cpp:156] Memory required for data: 398272000
I0915 11:46:57.319777 26297 layer_factory.hpp:77] Creating layer inception_4b/relu_5x5
I0915 11:46:57.319787 26297 net.cpp:91] Creating Layer inception_4b/relu_5x5
I0915 11:46:57.319793 26297 net.cpp:425] inception_4b/relu_5x5 <- inception_4b/5x5
I0915 11:46:57.319803 26297 net.cpp:386] inception_4b/relu_5x5 -> inception_4b/5x5 (in-place)
I0915 11:46:57.320077 26297 net.cpp:141] Setting up inception_4b/relu_5x5
I0915 11:46:57.320091 26297 net.cpp:148] Top shape: 10 64 14 14 (125440)
I0915 11:46:57.320096 26297 net.cpp:156] Memory required for data: 398773760
I0915 11:46:57.320101 26297 layer_factory.hpp:77] Creating layer inception_4b/pool
I0915 11:46:57.320114 26297 net.cpp:91] Creating Layer inception_4b/pool
I0915 11:46:57.320121 26297 net.cpp:425] inception_4b/pool <- inception_4a/output_inception_4a/output_0_split_3
I0915 11:46:57.320129 26297 net.cpp:399] inception_4b/pool -> inception_4b/pool
I0915 11:46:57.320204 26297 net.cpp:141] Setting up inception_4b/pool
I0915 11:46:57.320214 26297 net.cpp:148] Top shape: 10 512 14 14 (1003520)
I0915 11:46:57.320219 26297 net.cpp:156] Memory required for data: 402787840
I0915 11:46:57.320225 26297 layer_factory.hpp:77] Creating layer inception_4b/pool_proj
I0915 11:46:57.320240 26297 net.cpp:91] Creating Layer inception_4b/pool_proj
I0915 11:46:57.320246 26297 net.cpp:425] inception_4b/pool_proj <- inception_4b/pool
I0915 11:46:57.320258 26297 net.cpp:399] inception_4b/pool_proj -> inception_4b/pool_proj
I0915 11:46:57.322139 26297 net.cpp:141] Setting up inception_4b/pool_proj
I0915 11:46:57.322157 26297 net.cpp:148] Top shape: 10 64 14 14 (125440)
I0915 11:46:57.322163 26297 net.cpp:156] Memory required for data: 403289600
I0915 11:46:57.322173 26297 layer_factory.hpp:77] Creating layer inception_4b/relu_pool_proj
I0915 11:46:57.322182 26297 net.cpp:91] Creating Layer inception_4b/relu_pool_proj
I0915 11:46:57.322190 26297 net.cpp:425] inception_4b/relu_pool_proj <- inception_4b/pool_proj
I0915 11:46:57.322196 26297 net.cpp:386] inception_4b/relu_pool_proj -> inception_4b/pool_proj (in-place)
I0915 11:46:57.322664 26297 net.cpp:141] Setting up inception_4b/relu_pool_proj
I0915 11:46:57.322679 26297 net.cpp:148] Top shape: 10 64 14 14 (125440)
I0915 11:46:57.322684 26297 net.cpp:156] Memory required for data: 403791360
I0915 11:46:57.322690 26297 layer_factory.hpp:77] Creating layer inception_4b/output
I0915 11:46:57.322698 26297 net.cpp:91] Creating Layer inception_4b/output
I0915 11:46:57.322705 26297 net.cpp:425] inception_4b/output <- inception_4b/1x1
I0915 11:46:57.322711 26297 net.cpp:425] inception_4b/output <- inception_4b/3x3
I0915 11:46:57.322717 26297 net.cpp:425] inception_4b/output <- inception_4b/5x5
I0915 11:46:57.322722 26297 net.cpp:425] inception_4b/output <- inception_4b/pool_proj
I0915 11:46:57.322734 26297 net.cpp:399] inception_4b/output -> inception_4b/output
I0915 11:46:57.322779 26297 net.cpp:141] Setting up inception_4b/output
I0915 11:46:57.322793 26297 net.cpp:148] Top shape: 10 512 14 14 (1003520)
I0915 11:46:57.322798 26297 net.cpp:156] Memory required for data: 407805440
I0915 11:46:57.322803 26297 layer_factory.hpp:77] Creating layer inception_4b/output_inception_4b/output_0_split
I0915 11:46:57.322811 26297 net.cpp:91] Creating Layer inception_4b/output_inception_4b/output_0_split
I0915 11:46:57.322818 26297 net.cpp:425] inception_4b/output_inception_4b/output_0_split <- inception_4b/output
I0915 11:46:57.322824 26297 net.cpp:399] inception_4b/output_inception_4b/output_0_split -> inception_4b/output_inception_4b/output_0_split_0
I0915 11:46:57.322834 26297 net.cpp:399] inception_4b/output_inception_4b/output_0_split -> inception_4b/output_inception_4b/output_0_split_1
I0915 11:46:57.322844 26297 net.cpp:399] inception_4b/output_inception_4b/output_0_split -> inception_4b/output_inception_4b/output_0_split_2
I0915 11:46:57.322856 26297 net.cpp:399] inception_4b/output_inception_4b/output_0_split -> inception_4b/output_inception_4b/output_0_split_3
I0915 11:46:57.322952 26297 net.cpp:141] Setting up inception_4b/output_inception_4b/output_0_split
I0915 11:46:57.322962 26297 net.cpp:148] Top shape: 10 512 14 14 (1003520)
I0915 11:46:57.322969 26297 net.cpp:148] Top shape: 10 512 14 14 (1003520)
I0915 11:46:57.322975 26297 net.cpp:148] Top shape: 10 512 14 14 (1003520)
I0915 11:46:57.322981 26297 net.cpp:148] Top shape: 10 512 14 14 (1003520)
I0915 11:46:57.322985 26297 net.cpp:156] Memory required for data: 423861760
I0915 11:46:57.322989 26297 layer_factory.hpp:77] Creating layer inception_4c/1x1
I0915 11:46:57.323006 26297 net.cpp:91] Creating Layer inception_4c/1x1
I0915 11:46:57.323014 26297 net.cpp:425] inception_4c/1x1 <- inception_4b/output_inception_4b/output_0_split_0
I0915 11:46:57.323025 26297 net.cpp:399] inception_4c/1x1 -> inception_4c/1x1
I0915 11:46:57.324975 26297 net.cpp:141] Setting up inception_4c/1x1
I0915 11:46:57.324996 26297 net.cpp:148] Top shape: 10 128 14 14 (250880)
I0915 11:46:57.325002 26297 net.cpp:156] Memory required for data: 424865280
I0915 11:46:57.325012 26297 layer_factory.hpp:77] Creating layer inception_4c/relu_1x1
I0915 11:46:57.325021 26297 net.cpp:91] Creating Layer inception_4c/relu_1x1
I0915 11:46:57.325027 26297 net.cpp:425] inception_4c/relu_1x1 <- inception_4c/1x1
I0915 11:46:57.325036 26297 net.cpp:386] inception_4c/relu_1x1 -> inception_4c/1x1 (in-place)
I0915 11:46:57.325491 26297 net.cpp:141] Setting up inception_4c/relu_1x1
I0915 11:46:57.325505 26297 net.cpp:148] Top shape: 10 128 14 14 (250880)
I0915 11:46:57.325511 26297 net.cpp:156] Memory required for data: 425868800
I0915 11:46:57.325516 26297 layer_factory.hpp:77] Creating layer inception_4c/3x3_reduce
I0915 11:46:57.325534 26297 net.cpp:91] Creating Layer inception_4c/3x3_reduce
I0915 11:46:57.325542 26297 net.cpp:425] inception_4c/3x3_reduce <- inception_4b/output_inception_4b/output_0_split_1
I0915 11:46:57.325552 26297 net.cpp:399] inception_4c/3x3_reduce -> inception_4c/3x3_reduce
I0915 11:46:57.327721 26297 net.cpp:141] Setting up inception_4c/3x3_reduce
I0915 11:46:57.327740 26297 net.cpp:148] Top shape: 10 128 14 14 (250880)
I0915 11:46:57.327745 26297 net.cpp:156] Memory required for data: 426872320
I0915 11:46:57.327755 26297 layer_factory.hpp:77] Creating layer inception_4c/relu_3x3_reduce
I0915 11:46:57.327764 26297 net.cpp:91] Creating Layer inception_4c/relu_3x3_reduce
I0915 11:46:57.327770 26297 net.cpp:425] inception_4c/relu_3x3_reduce <- inception_4c/3x3_reduce
I0915 11:46:57.327782 26297 net.cpp:386] inception_4c/relu_3x3_reduce -> inception_4c/3x3_reduce (in-place)
I0915 11:46:57.328048 26297 net.cpp:141] Setting up inception_4c/relu_3x3_reduce
I0915 11:46:57.328063 26297 net.cpp:148] Top shape: 10 128 14 14 (250880)
I0915 11:46:57.328068 26297 net.cpp:156] Memory required for data: 427875840
I0915 11:46:57.328083 26297 layer_factory.hpp:77] Creating layer inception_4c/3x3
I0915 11:46:57.328105 26297 net.cpp:91] Creating Layer inception_4c/3x3
I0915 11:46:57.328112 26297 net.cpp:425] inception_4c/3x3 <- inception_4c/3x3_reduce
I0915 11:46:57.328122 26297 net.cpp:399] inception_4c/3x3 -> inception_4c/3x3
I0915 11:46:57.333019 26297 net.cpp:141] Setting up inception_4c/3x3
I0915 11:46:57.333039 26297 net.cpp:148] Top shape: 10 256 14 14 (501760)
I0915 11:46:57.333045 26297 net.cpp:156] Memory required for data: 429882880
I0915 11:46:57.333055 26297 layer_factory.hpp:77] Creating layer inception_4c/relu_3x3
I0915 11:46:57.333063 26297 net.cpp:91] Creating Layer inception_4c/relu_3x3
I0915 11:46:57.333070 26297 net.cpp:425] inception_4c/relu_3x3 <- inception_4c/3x3
I0915 11:46:57.333081 26297 net.cpp:386] inception_4c/relu_3x3 -> inception_4c/3x3 (in-place)
I0915 11:46:57.333537 26297 net.cpp:141] Setting up inception_4c/relu_3x3
I0915 11:46:57.333551 26297 net.cpp:148] Top shape: 10 256 14 14 (501760)
I0915 11:46:57.333556 26297 net.cpp:156] Memory required for data: 431889920
I0915 11:46:57.333561 26297 layer_factory.hpp:77] Creating layer inception_4c/5x5_reduce
I0915 11:46:57.333578 26297 net.cpp:91] Creating Layer inception_4c/5x5_reduce
I0915 11:46:57.333585 26297 net.cpp:425] inception_4c/5x5_reduce <- inception_4b/output_inception_4b/output_0_split_2
I0915 11:46:57.333598 26297 net.cpp:399] inception_4c/5x5_reduce -> inception_4c/5x5_reduce
I0915 11:46:57.335146 26297 net.cpp:141] Setting up inception_4c/5x5_reduce
I0915 11:46:57.335170 26297 net.cpp:148] Top shape: 10 24 14 14 (47040)
I0915 11:46:57.335175 26297 net.cpp:156] Memory required for data: 432078080
I0915 11:46:57.335185 26297 layer_factory.hpp:77] Creating layer inception_4c/relu_5x5_reduce
I0915 11:46:57.335194 26297 net.cpp:91] Creating Layer inception_4c/relu_5x5_reduce
I0915 11:46:57.335201 26297 net.cpp:425] inception_4c/relu_5x5_reduce <- inception_4c/5x5_reduce
I0915 11:46:57.335208 26297 net.cpp:386] inception_4c/relu_5x5_reduce -> inception_4c/5x5_reduce (in-place)
I0915 11:46:57.335675 26297 net.cpp:141] Setting up inception_4c/relu_5x5_reduce
I0915 11:46:57.335688 26297 net.cpp:148] Top shape: 10 24 14 14 (47040)
I0915 11:46:57.335695 26297 net.cpp:156] Memory required for data: 432266240
I0915 11:46:57.335700 26297 layer_factory.hpp:77] Creating layer inception_4c/5x5
I0915 11:46:57.335717 26297 net.cpp:91] Creating Layer inception_4c/5x5
I0915 11:46:57.335724 26297 net.cpp:425] inception_4c/5x5 <- inception_4c/5x5_reduce
I0915 11:46:57.335736 26297 net.cpp:399] inception_4c/5x5 -> inception_4c/5x5
I0915 11:46:57.338284 26297 net.cpp:141] Setting up inception_4c/5x5
I0915 11:46:57.338322 26297 net.cpp:148] Top shape: 10 64 14 14 (125440)
I0915 11:46:57.338328 26297 net.cpp:156] Memory required for data: 432768000
I0915 11:46:57.338342 26297 layer_factory.hpp:77] Creating layer inception_4c/relu_5x5
I0915 11:46:57.338361 26297 net.cpp:91] Creating Layer inception_4c/relu_5x5
I0915 11:46:57.338371 26297 net.cpp:425] inception_4c/relu_5x5 <- inception_4c/5x5
I0915 11:46:57.338382 26297 net.cpp:386] inception_4c/relu_5x5 -> inception_4c/5x5 (in-place)
I0915 11:46:57.338640 26297 net.cpp:141] Setting up inception_4c/relu_5x5
I0915 11:46:57.338652 26297 net.cpp:148] Top shape: 10 64 14 14 (125440)
I0915 11:46:57.338656 26297 net.cpp:156] Memory required for data: 433269760
I0915 11:46:57.338661 26297 layer_factory.hpp:77] Creating layer inception_4c/pool
I0915 11:46:57.338672 26297 net.cpp:91] Creating Layer inception_4c/pool
I0915 11:46:57.338678 26297 net.cpp:425] inception_4c/pool <- inception_4b/output_inception_4b/output_0_split_3
I0915 11:46:57.338690 26297 net.cpp:399] inception_4c/pool -> inception_4c/pool
I0915 11:46:57.338771 26297 net.cpp:141] Setting up inception_4c/pool
I0915 11:46:57.338781 26297 net.cpp:148] Top shape: 10 512 14 14 (1003520)
I0915 11:46:57.338785 26297 net.cpp:156] Memory required for data: 437283840
I0915 11:46:57.338789 26297 layer_factory.hpp:77] Creating layer inception_4c/pool_proj
I0915 11:46:57.338809 26297 net.cpp:91] Creating Layer inception_4c/pool_proj
I0915 11:46:57.338814 26297 net.cpp:425] inception_4c/pool_proj <- inception_4c/pool
I0915 11:46:57.338822 26297 net.cpp:399] inception_4c/pool_proj -> inception_4c/pool_proj
I0915 11:46:57.341259 26297 net.cpp:141] Setting up inception_4c/pool_proj
I0915 11:46:57.341277 26297 net.cpp:148] Top shape: 10 64 14 14 (125440)
I0915 11:46:57.341282 26297 net.cpp:156] Memory required for data: 437785600
I0915 11:46:57.341312 26297 layer_factory.hpp:77] Creating layer inception_4c/relu_pool_proj
I0915 11:46:57.341322 26297 net.cpp:91] Creating Layer inception_4c/relu_pool_proj
I0915 11:46:57.341328 26297 net.cpp:425] inception_4c/relu_pool_proj <- inception_4c/pool_proj
I0915 11:46:57.341334 26297 net.cpp:386] inception_4c/relu_pool_proj -> inception_4c/pool_proj (in-place)
I0915 11:46:57.341763 26297 net.cpp:141] Setting up inception_4c/relu_pool_proj
I0915 11:46:57.341774 26297 net.cpp:148] Top shape: 10 64 14 14 (125440)
I0915 11:46:57.341779 26297 net.cpp:156] Memory required for data: 438287360
I0915 11:46:57.341784 26297 layer_factory.hpp:77] Creating layer inception_4c/output
I0915 11:46:57.341792 26297 net.cpp:91] Creating Layer inception_4c/output
I0915 11:46:57.341799 26297 net.cpp:425] inception_4c/output <- inception_4c/1x1
I0915 11:46:57.341804 26297 net.cpp:425] inception_4c/output <- inception_4c/3x3
I0915 11:46:57.341809 26297 net.cpp:425] inception_4c/output <- inception_4c/5x5
I0915 11:46:57.341815 26297 net.cpp:425] inception_4c/output <- inception_4c/pool_proj
I0915 11:46:57.341821 26297 net.cpp:399] inception_4c/output -> inception_4c/output
I0915 11:46:57.341868 26297 net.cpp:141] Setting up inception_4c/output
I0915 11:46:57.341877 26297 net.cpp:148] Top shape: 10 512 14 14 (1003520)
I0915 11:46:57.341881 26297 net.cpp:156] Memory required for data: 442301440
I0915 11:46:57.341886 26297 layer_factory.hpp:77] Creating layer inception_4c/output_inception_4c/output_0_split
I0915 11:46:57.341897 26297 net.cpp:91] Creating Layer inception_4c/output_inception_4c/output_0_split
I0915 11:46:57.341902 26297 net.cpp:425] inception_4c/output_inception_4c/output_0_split <- inception_4c/output
I0915 11:46:57.341907 26297 net.cpp:399] inception_4c/output_inception_4c/output_0_split -> inception_4c/output_inception_4c/output_0_split_0
I0915 11:46:57.341915 26297 net.cpp:399] inception_4c/output_inception_4c/output_0_split -> inception_4c/output_inception_4c/output_0_split_1
I0915 11:46:57.341924 26297 net.cpp:399] inception_4c/output_inception_4c/output_0_split -> inception_4c/output_inception_4c/output_0_split_2
I0915 11:46:57.341931 26297 net.cpp:399] inception_4c/output_inception_4c/output_0_split -> inception_4c/output_inception_4c/output_0_split_3
I0915 11:46:57.342020 26297 net.cpp:141] Setting up inception_4c/output_inception_4c/output_0_split
I0915 11:46:57.342030 26297 net.cpp:148] Top shape: 10 512 14 14 (1003520)
I0915 11:46:57.342036 26297 net.cpp:148] Top shape: 10 512 14 14 (1003520)
I0915 11:46:57.342041 26297 net.cpp:148] Top shape: 10 512 14 14 (1003520)
I0915 11:46:57.342046 26297 net.cpp:148] Top shape: 10 512 14 14 (1003520)
I0915 11:46:57.342049 26297 net.cpp:156] Memory required for data: 458357760
I0915 11:46:57.342053 26297 layer_factory.hpp:77] Creating layer inception_4d/1x1
I0915 11:46:57.342068 26297 net.cpp:91] Creating Layer inception_4d/1x1
I0915 11:46:57.342073 26297 net.cpp:425] inception_4d/1x1 <- inception_4c/output_inception_4c/output_0_split_0
I0915 11:46:57.342084 26297 net.cpp:399] inception_4d/1x1 -> inception_4d/1x1
I0915 11:46:57.343789 26297 net.cpp:141] Setting up inception_4d/1x1
I0915 11:46:57.343806 26297 net.cpp:148] Top shape: 10 112 14 14 (219520)
I0915 11:46:57.343811 26297 net.cpp:156] Memory required for data: 459235840
I0915 11:46:57.343819 26297 layer_factory.hpp:77] Creating layer inception_4d/relu_1x1
I0915 11:46:57.343827 26297 net.cpp:91] Creating Layer inception_4d/relu_1x1
I0915 11:46:57.343832 26297 net.cpp:425] inception_4d/relu_1x1 <- inception_4d/1x1
I0915 11:46:57.343843 26297 net.cpp:386] inception_4d/relu_1x1 -> inception_4d/1x1 (in-place)
I0915 11:46:57.344249 26297 net.cpp:141] Setting up inception_4d/relu_1x1
I0915 11:46:57.344262 26297 net.cpp:148] Top shape: 10 112 14 14 (219520)
I0915 11:46:57.344267 26297 net.cpp:156] Memory required for data: 460113920
I0915 11:46:57.344271 26297 layer_factory.hpp:77] Creating layer inception_4d/3x3_reduce
I0915 11:46:57.344286 26297 net.cpp:91] Creating Layer inception_4d/3x3_reduce
I0915 11:46:57.344292 26297 net.cpp:425] inception_4d/3x3_reduce <- inception_4c/output_inception_4c/output_0_split_1
I0915 11:46:57.344303 26297 net.cpp:399] inception_4d/3x3_reduce -> inception_4d/3x3_reduce
I0915 11:46:57.346321 26297 net.cpp:141] Setting up inception_4d/3x3_reduce
I0915 11:46:57.346336 26297 net.cpp:148] Top shape: 10 144 14 14 (282240)
I0915 11:46:57.346355 26297 net.cpp:156] Memory required for data: 461242880
I0915 11:46:57.346364 26297 layer_factory.hpp:77] Creating layer inception_4d/relu_3x3_reduce
I0915 11:46:57.346372 26297 net.cpp:91] Creating Layer inception_4d/relu_3x3_reduce
I0915 11:46:57.346379 26297 net.cpp:425] inception_4d/relu_3x3_reduce <- inception_4d/3x3_reduce
I0915 11:46:57.346387 26297 net.cpp:386] inception_4d/relu_3x3_reduce -> inception_4d/3x3_reduce (in-place)
I0915 11:46:57.346624 26297 net.cpp:141] Setting up inception_4d/relu_3x3_reduce
I0915 11:46:57.346635 26297 net.cpp:148] Top shape: 10 144 14 14 (282240)
I0915 11:46:57.346639 26297 net.cpp:156] Memory required for data: 462371840
I0915 11:46:57.346644 26297 layer_factory.hpp:77] Creating layer inception_4d/3x3
I0915 11:46:57.346660 26297 net.cpp:91] Creating Layer inception_4d/3x3
I0915 11:46:57.346667 26297 net.cpp:425] inception_4d/3x3 <- inception_4d/3x3_reduce
I0915 11:46:57.346674 26297 net.cpp:399] inception_4d/3x3 -> inception_4d/3x3
I0915 11:46:57.351817 26297 net.cpp:141] Setting up inception_4d/3x3
I0915 11:46:57.351847 26297 net.cpp:148] Top shape: 10 288 14 14 (564480)
I0915 11:46:57.351853 26297 net.cpp:156] Memory required for data: 464629760
I0915 11:46:57.351861 26297 layer_factory.hpp:77] Creating layer inception_4d/relu_3x3
I0915 11:46:57.351871 26297 net.cpp:91] Creating Layer inception_4d/relu_3x3
I0915 11:46:57.351876 26297 net.cpp:425] inception_4d/relu_3x3 <- inception_4d/3x3
I0915 11:46:57.351883 26297 net.cpp:386] inception_4d/relu_3x3 -> inception_4d/3x3 (in-place)
I0915 11:46:57.352303 26297 net.cpp:141] Setting up inception_4d/relu_3x3
I0915 11:46:57.352316 26297 net.cpp:148] Top shape: 10 288 14 14 (564480)
I0915 11:46:57.352321 26297 net.cpp:156] Memory required for data: 466887680
I0915 11:46:57.352326 26297 layer_factory.hpp:77] Creating layer inception_4d/5x5_reduce
I0915 11:46:57.352341 26297 net.cpp:91] Creating Layer inception_4d/5x5_reduce
I0915 11:46:57.352347 26297 net.cpp:425] inception_4d/5x5_reduce <- inception_4c/output_inception_4c/output_0_split_2
I0915 11:46:57.352358 26297 net.cpp:399] inception_4d/5x5_reduce -> inception_4d/5x5_reduce
I0915 11:46:57.353812 26297 net.cpp:141] Setting up inception_4d/5x5_reduce
I0915 11:46:57.353840 26297 net.cpp:148] Top shape: 10 32 14 14 (62720)
I0915 11:46:57.353847 26297 net.cpp:156] Memory required for data: 467138560
I0915 11:46:57.353854 26297 layer_factory.hpp:77] Creating layer inception_4d/relu_5x5_reduce
I0915 11:46:57.353863 26297 net.cpp:91] Creating Layer inception_4d/relu_5x5_reduce
I0915 11:46:57.353868 26297 net.cpp:425] inception_4d/relu_5x5_reduce <- inception_4d/5x5_reduce
I0915 11:46:57.353878 26297 net.cpp:386] inception_4d/relu_5x5_reduce -> inception_4d/5x5_reduce (in-place)
I0915 11:46:57.354282 26297 net.cpp:141] Setting up inception_4d/relu_5x5_reduce
I0915 11:46:57.354295 26297 net.cpp:148] Top shape: 10 32 14 14 (62720)
I0915 11:46:57.354300 26297 net.cpp:156] Memory required for data: 467389440
I0915 11:46:57.354305 26297 layer_factory.hpp:77] Creating layer inception_4d/5x5
I0915 11:46:57.354320 26297 net.cpp:91] Creating Layer inception_4d/5x5
I0915 11:46:57.354327 26297 net.cpp:425] inception_4d/5x5 <- inception_4d/5x5_reduce
I0915 11:46:57.354336 26297 net.cpp:399] inception_4d/5x5 -> inception_4d/5x5
I0915 11:46:57.356192 26297 net.cpp:141] Setting up inception_4d/5x5
I0915 11:46:57.356209 26297 net.cpp:148] Top shape: 10 64 14 14 (125440)
I0915 11:46:57.356215 26297 net.cpp:156] Memory required for data: 467891200
I0915 11:46:57.356222 26297 layer_factory.hpp:77] Creating layer inception_4d/relu_5x5
I0915 11:46:57.356235 26297 net.cpp:91] Creating Layer inception_4d/relu_5x5
I0915 11:46:57.356240 26297 net.cpp:425] inception_4d/relu_5x5 <- inception_4d/5x5
I0915 11:46:57.356247 26297 net.cpp:386] inception_4d/relu_5x5 -> inception_4d/5x5 (in-place)
I0915 11:46:57.356484 26297 net.cpp:141] Setting up inception_4d/relu_5x5
I0915 11:46:57.356495 26297 net.cpp:148] Top shape: 10 64 14 14 (125440)
I0915 11:46:57.356499 26297 net.cpp:156] Memory required for data: 468392960
I0915 11:46:57.356504 26297 layer_factory.hpp:77] Creating layer inception_4d/pool
I0915 11:46:57.356513 26297 net.cpp:91] Creating Layer inception_4d/pool
I0915 11:46:57.356518 26297 net.cpp:425] inception_4d/pool <- inception_4c/output_inception_4c/output_0_split_3
I0915 11:46:57.356529 26297 net.cpp:399] inception_4d/pool -> inception_4d/pool
I0915 11:46:57.356595 26297 net.cpp:141] Setting up inception_4d/pool
I0915 11:46:57.356604 26297 net.cpp:148] Top shape: 10 512 14 14 (1003520)
I0915 11:46:57.356609 26297 net.cpp:156] Memory required for data: 472407040
I0915 11:46:57.356613 26297 layer_factory.hpp:77] Creating layer inception_4d/pool_proj
I0915 11:46:57.356631 26297 net.cpp:91] Creating Layer inception_4d/pool_proj
I0915 11:46:57.356636 26297 net.cpp:425] inception_4d/pool_proj <- inception_4d/pool
I0915 11:46:57.356644 26297 net.cpp:399] inception_4d/pool_proj -> inception_4d/pool_proj
I0915 11:46:57.358371 26297 net.cpp:141] Setting up inception_4d/pool_proj
I0915 11:46:57.358386 26297 net.cpp:148] Top shape: 10 64 14 14 (125440)
I0915 11:46:57.358392 26297 net.cpp:156] Memory required for data: 472908800
I0915 11:46:57.358400 26297 layer_factory.hpp:77] Creating layer inception_4d/relu_pool_proj
I0915 11:46:57.358408 26297 net.cpp:91] Creating Layer inception_4d/relu_pool_proj
I0915 11:46:57.358413 26297 net.cpp:425] inception_4d/relu_pool_proj <- inception_4d/pool_proj
I0915 11:46:57.358423 26297 net.cpp:386] inception_4d/relu_pool_proj -> inception_4d/pool_proj (in-place)
I0915 11:46:57.358829 26297 net.cpp:141] Setting up inception_4d/relu_pool_proj
I0915 11:46:57.358844 26297 net.cpp:148] Top shape: 10 64 14 14 (125440)
I0915 11:46:57.358849 26297 net.cpp:156] Memory required for data: 473410560
I0915 11:46:57.358853 26297 layer_factory.hpp:77] Creating layer inception_4d/output
I0915 11:46:57.358863 26297 net.cpp:91] Creating Layer inception_4d/output
I0915 11:46:57.358870 26297 net.cpp:425] inception_4d/output <- inception_4d/1x1
I0915 11:46:57.358875 26297 net.cpp:425] inception_4d/output <- inception_4d/3x3
I0915 11:46:57.358880 26297 net.cpp:425] inception_4d/output <- inception_4d/5x5
I0915 11:46:57.358886 26297 net.cpp:425] inception_4d/output <- inception_4d/pool_proj
I0915 11:46:57.358892 26297 net.cpp:399] inception_4d/output -> inception_4d/output
I0915 11:46:57.358934 26297 net.cpp:141] Setting up inception_4d/output
I0915 11:46:57.358943 26297 net.cpp:148] Top shape: 10 528 14 14 (1034880)
I0915 11:46:57.358947 26297 net.cpp:156] Memory required for data: 477550080
I0915 11:46:57.358952 26297 layer_factory.hpp:77] Creating layer inception_4d/output_inception_4d/output_0_split
I0915 11:46:57.358963 26297 net.cpp:91] Creating Layer inception_4d/output_inception_4d/output_0_split
I0915 11:46:57.358968 26297 net.cpp:425] inception_4d/output_inception_4d/output_0_split <- inception_4d/output
I0915 11:46:57.358978 26297 net.cpp:399] inception_4d/output_inception_4d/output_0_split -> inception_4d/output_inception_4d/output_0_split_0
I0915 11:46:57.358986 26297 net.cpp:399] inception_4d/output_inception_4d/output_0_split -> inception_4d/output_inception_4d/output_0_split_1
I0915 11:46:57.358994 26297 net.cpp:399] inception_4d/output_inception_4d/output_0_split -> inception_4d/output_inception_4d/output_0_split_2
I0915 11:46:57.359002 26297 net.cpp:399] inception_4d/output_inception_4d/output_0_split -> inception_4d/output_inception_4d/output_0_split_3
I0915 11:46:57.359094 26297 net.cpp:141] Setting up inception_4d/output_inception_4d/output_0_split
I0915 11:46:57.359107 26297 net.cpp:148] Top shape: 10 528 14 14 (1034880)
I0915 11:46:57.359112 26297 net.cpp:148] Top shape: 10 528 14 14 (1034880)
I0915 11:46:57.359117 26297 net.cpp:148] Top shape: 10 528 14 14 (1034880)
I0915 11:46:57.359122 26297 net.cpp:148] Top shape: 10 528 14 14 (1034880)
I0915 11:46:57.359125 26297 net.cpp:156] Memory required for data: 494108160
I0915 11:46:57.359130 26297 layer_factory.hpp:77] Creating layer inception_4e/1x1
I0915 11:46:57.359140 26297 net.cpp:91] Creating Layer inception_4e/1x1
I0915 11:46:57.359146 26297 net.cpp:425] inception_4e/1x1 <- inception_4d/output_inception_4d/output_0_split_0
I0915 11:46:57.359158 26297 net.cpp:399] inception_4e/1x1 -> inception_4e/1x1
I0915 11:46:57.362452 26297 net.cpp:141] Setting up inception_4e/1x1
I0915 11:46:57.362481 26297 net.cpp:148] Top shape: 10 256 14 14 (501760)
I0915 11:46:57.362488 26297 net.cpp:156] Memory required for data: 496115200
I0915 11:46:57.362495 26297 layer_factory.hpp:77] Creating layer inception_4e/relu_1x1
I0915 11:46:57.362509 26297 net.cpp:91] Creating Layer inception_4e/relu_1x1
I0915 11:46:57.362514 26297 net.cpp:425] inception_4e/relu_1x1 <- inception_4e/1x1
I0915 11:46:57.362524 26297 net.cpp:386] inception_4e/relu_1x1 -> inception_4e/1x1 (in-place)
I0915 11:46:57.362941 26297 net.cpp:141] Setting up inception_4e/relu_1x1
I0915 11:46:57.362953 26297 net.cpp:148] Top shape: 10 256 14 14 (501760)
I0915 11:46:57.362958 26297 net.cpp:156] Memory required for data: 498122240
I0915 11:46:57.362963 26297 layer_factory.hpp:77] Creating layer inception_4e/3x3_reduce
I0915 11:46:57.362977 26297 net.cpp:91] Creating Layer inception_4e/3x3_reduce
I0915 11:46:57.362982 26297 net.cpp:425] inception_4e/3x3_reduce <- inception_4d/output_inception_4d/output_0_split_1
I0915 11:46:57.362998 26297 net.cpp:399] inception_4e/3x3_reduce -> inception_4e/3x3_reduce
I0915 11:46:57.365114 26297 net.cpp:141] Setting up inception_4e/3x3_reduce
I0915 11:46:57.365144 26297 net.cpp:148] Top shape: 10 160 14 14 (313600)
I0915 11:46:57.365151 26297 net.cpp:156] Memory required for data: 499376640
I0915 11:46:57.365160 26297 layer_factory.hpp:77] Creating layer inception_4e/relu_3x3_reduce
I0915 11:46:57.365169 26297 net.cpp:91] Creating Layer inception_4e/relu_3x3_reduce
I0915 11:46:57.365175 26297 net.cpp:425] inception_4e/relu_3x3_reduce <- inception_4e/3x3_reduce
I0915 11:46:57.365181 26297 net.cpp:386] inception_4e/relu_3x3_reduce -> inception_4e/3x3_reduce (in-place)
I0915 11:46:57.365422 26297 net.cpp:141] Setting up inception_4e/relu_3x3_reduce
I0915 11:46:57.365433 26297 net.cpp:148] Top shape: 10 160 14 14 (313600)
I0915 11:46:57.365437 26297 net.cpp:156] Memory required for data: 500631040
I0915 11:46:57.365455 26297 layer_factory.hpp:77] Creating layer inception_4e/3x3
I0915 11:46:57.365469 26297 net.cpp:91] Creating Layer inception_4e/3x3
I0915 11:46:57.365474 26297 net.cpp:425] inception_4e/3x3 <- inception_4e/3x3_reduce
I0915 11:46:57.365485 26297 net.cpp:399] inception_4e/3x3 -> inception_4e/3x3
I0915 11:46:57.371158 26297 net.cpp:141] Setting up inception_4e/3x3
I0915 11:46:57.371176 26297 net.cpp:148] Top shape: 10 320 14 14 (627200)
I0915 11:46:57.371181 26297 net.cpp:156] Memory required for data: 503139840
I0915 11:46:57.371188 26297 layer_factory.hpp:77] Creating layer inception_4e/relu_3x3
I0915 11:46:57.371199 26297 net.cpp:91] Creating Layer inception_4e/relu_3x3
I0915 11:46:57.371206 26297 net.cpp:425] inception_4e/relu_3x3 <- inception_4e/3x3
I0915 11:46:57.371212 26297 net.cpp:386] inception_4e/relu_3x3 -> inception_4e/3x3 (in-place)
I0915 11:46:57.371644 26297 net.cpp:141] Setting up inception_4e/relu_3x3
I0915 11:46:57.371660 26297 net.cpp:148] Top shape: 10 320 14 14 (627200)
I0915 11:46:57.371665 26297 net.cpp:156] Memory required for data: 505648640
I0915 11:46:57.371670 26297 layer_factory.hpp:77] Creating layer inception_4e/5x5_reduce
I0915 11:46:57.371685 26297 net.cpp:91] Creating Layer inception_4e/5x5_reduce
I0915 11:46:57.371691 26297 net.cpp:425] inception_4e/5x5_reduce <- inception_4d/output_inception_4d/output_0_split_2
I0915 11:46:57.371703 26297 net.cpp:399] inception_4e/5x5_reduce -> inception_4e/5x5_reduce
I0915 11:46:57.373139 26297 net.cpp:141] Setting up inception_4e/5x5_reduce
I0915 11:46:57.373155 26297 net.cpp:148] Top shape: 10 32 14 14 (62720)
I0915 11:46:57.373159 26297 net.cpp:156] Memory required for data: 505899520
I0915 11:46:57.373167 26297 layer_factory.hpp:77] Creating layer inception_4e/relu_5x5_reduce
I0915 11:46:57.373178 26297 net.cpp:91] Creating Layer inception_4e/relu_5x5_reduce
I0915 11:46:57.373184 26297 net.cpp:425] inception_4e/relu_5x5_reduce <- inception_4e/5x5_reduce
I0915 11:46:57.373190 26297 net.cpp:386] inception_4e/relu_5x5_reduce -> inception_4e/5x5_reduce (in-place)
I0915 11:46:57.373603 26297 net.cpp:141] Setting up inception_4e/relu_5x5_reduce
I0915 11:46:57.373620 26297 net.cpp:148] Top shape: 10 32 14 14 (62720)
I0915 11:46:57.373623 26297 net.cpp:156] Memory required for data: 506150400
I0915 11:46:57.373628 26297 layer_factory.hpp:77] Creating layer inception_4e/5x5
I0915 11:46:57.373643 26297 net.cpp:91] Creating Layer inception_4e/5x5
I0915 11:46:57.373649 26297 net.cpp:425] inception_4e/5x5 <- inception_4e/5x5_reduce
I0915 11:46:57.373661 26297 net.cpp:399] inception_4e/5x5 -> inception_4e/5x5
I0915 11:46:57.376615 26297 net.cpp:141] Setting up inception_4e/5x5
I0915 11:46:57.376643 26297 net.cpp:148] Top shape: 10 128 14 14 (250880)
I0915 11:46:57.376649 26297 net.cpp:156] Memory required for data: 507153920
I0915 11:46:57.376657 26297 layer_factory.hpp:77] Creating layer inception_4e/relu_5x5
I0915 11:46:57.376667 26297 net.cpp:91] Creating Layer inception_4e/relu_5x5
I0915 11:46:57.376672 26297 net.cpp:425] inception_4e/relu_5x5 <- inception_4e/5x5
I0915 11:46:57.376682 26297 net.cpp:386] inception_4e/relu_5x5 -> inception_4e/5x5 (in-place)
I0915 11:46:57.376917 26297 net.cpp:141] Setting up inception_4e/relu_5x5
I0915 11:46:57.376929 26297 net.cpp:148] Top shape: 10 128 14 14 (250880)
I0915 11:46:57.376932 26297 net.cpp:156] Memory required for data: 508157440
I0915 11:46:57.376937 26297 layer_factory.hpp:77] Creating layer inception_4e/pool
I0915 11:46:57.376950 26297 net.cpp:91] Creating Layer inception_4e/pool
I0915 11:46:57.376956 26297 net.cpp:425] inception_4e/pool <- inception_4d/output_inception_4d/output_0_split_3
I0915 11:46:57.376963 26297 net.cpp:399] inception_4e/pool -> inception_4e/pool
I0915 11:46:57.377034 26297 net.cpp:141] Setting up inception_4e/pool
I0915 11:46:57.377043 26297 net.cpp:148] Top shape: 10 528 14 14 (1034880)
I0915 11:46:57.377048 26297 net.cpp:156] Memory required for data: 512296960
I0915 11:46:57.377053 26297 layer_factory.hpp:77] Creating layer inception_4e/pool_proj
I0915 11:46:57.377066 26297 net.cpp:91] Creating Layer inception_4e/pool_proj
I0915 11:46:57.377073 26297 net.cpp:425] inception_4e/pool_proj <- inception_4e/pool
I0915 11:46:57.377082 26297 net.cpp:399] inception_4e/pool_proj -> inception_4e/pool_proj
I0915 11:46:57.379060 26297 net.cpp:141] Setting up inception_4e/pool_proj
I0915 11:46:57.379076 26297 net.cpp:148] Top shape: 10 128 14 14 (250880)
I0915 11:46:57.379081 26297 net.cpp:156] Memory required for data: 513300480
I0915 11:46:57.379091 26297 layer_factory.hpp:77] Creating layer inception_4e/relu_pool_proj
I0915 11:46:57.379102 26297 net.cpp:91] Creating Layer inception_4e/relu_pool_proj
I0915 11:46:57.379108 26297 net.cpp:425] inception_4e/relu_pool_proj <- inception_4e/pool_proj
I0915 11:46:57.379117 26297 net.cpp:386] inception_4e/relu_pool_proj -> inception_4e/pool_proj (in-place)
I0915 11:46:57.379560 26297 net.cpp:141] Setting up inception_4e/relu_pool_proj
I0915 11:46:57.379578 26297 net.cpp:148] Top shape: 10 128 14 14 (250880)
I0915 11:46:57.379586 26297 net.cpp:156] Memory required for data: 514304000
I0915 11:46:57.379595 26297 layer_factory.hpp:77] Creating layer inception_4e/output
I0915 11:46:57.379607 26297 net.cpp:91] Creating Layer inception_4e/output
I0915 11:46:57.379616 26297 net.cpp:425] inception_4e/output <- inception_4e/1x1
I0915 11:46:57.379626 26297 net.cpp:425] inception_4e/output <- inception_4e/3x3
I0915 11:46:57.379637 26297 net.cpp:425] inception_4e/output <- inception_4e/5x5
I0915 11:46:57.379647 26297 net.cpp:425] inception_4e/output <- inception_4e/pool_proj
I0915 11:46:57.379663 26297 net.cpp:399] inception_4e/output -> inception_4e/output
I0915 11:46:57.379729 26297 net.cpp:141] Setting up inception_4e/output
I0915 11:46:57.379747 26297 net.cpp:148] Top shape: 10 832 14 14 (1630720)
I0915 11:46:57.379756 26297 net.cpp:156] Memory required for data: 520826880
I0915 11:46:57.379765 26297 layer_factory.hpp:77] Creating layer pool4/3x3_s2
I0915 11:46:57.379784 26297 net.cpp:91] Creating Layer pool4/3x3_s2
I0915 11:46:57.379796 26297 net.cpp:425] pool4/3x3_s2 <- inception_4e/output
I0915 11:46:57.379809 26297 net.cpp:399] pool4/3x3_s2 -> pool4/3x3_s2
I0915 11:46:57.379927 26297 net.cpp:141] Setting up pool4/3x3_s2
I0915 11:46:57.379945 26297 net.cpp:148] Top shape: 10 832 7 7 (407680)
I0915 11:46:57.379954 26297 net.cpp:156] Memory required for data: 522457600
I0915 11:46:57.379962 26297 layer_factory.hpp:77] Creating layer pool4/3x3_s2_pool4/3x3_s2_0_split
I0915 11:46:57.379974 26297 net.cpp:91] Creating Layer pool4/3x3_s2_pool4/3x3_s2_0_split
I0915 11:46:57.379983 26297 net.cpp:425] pool4/3x3_s2_pool4/3x3_s2_0_split <- pool4/3x3_s2
I0915 11:46:57.379999 26297 net.cpp:399] pool4/3x3_s2_pool4/3x3_s2_0_split -> pool4/3x3_s2_pool4/3x3_s2_0_split_0
I0915 11:46:57.380017 26297 net.cpp:399] pool4/3x3_s2_pool4/3x3_s2_0_split -> pool4/3x3_s2_pool4/3x3_s2_0_split_1
I0915 11:46:57.380031 26297 net.cpp:399] pool4/3x3_s2_pool4/3x3_s2_0_split -> pool4/3x3_s2_pool4/3x3_s2_0_split_2
I0915 11:46:57.380045 26297 net.cpp:399] pool4/3x3_s2_pool4/3x3_s2_0_split -> pool4/3x3_s2_pool4/3x3_s2_0_split_3
I0915 11:46:57.380234 26297 net.cpp:141] Setting up pool4/3x3_s2_pool4/3x3_s2_0_split
I0915 11:46:57.380252 26297 net.cpp:148] Top shape: 10 832 7 7 (407680)
I0915 11:46:57.380264 26297 net.cpp:148] Top shape: 10 832 7 7 (407680)
I0915 11:46:57.380273 26297 net.cpp:148] Top shape: 10 832 7 7 (407680)
I0915 11:46:57.380283 26297 net.cpp:148] Top shape: 10 832 7 7 (407680)
I0915 11:46:57.380290 26297 net.cpp:156] Memory required for data: 528980480
I0915 11:46:57.380298 26297 layer_factory.hpp:77] Creating layer inception_5a/1x1
I0915 11:46:57.380321 26297 net.cpp:91] Creating Layer inception_5a/1x1
I0915 11:46:57.380332 26297 net.cpp:425] inception_5a/1x1 <- pool4/3x3_s2_pool4/3x3_s2_0_split_0
I0915 11:46:57.380350 26297 net.cpp:399] inception_5a/1x1 -> inception_5a/1x1
I0915 11:46:57.385820 26297 net.cpp:141] Setting up inception_5a/1x1
I0915 11:46:57.385848 26297 net.cpp:148] Top shape: 10 256 7 7 (125440)
I0915 11:46:57.385859 26297 net.cpp:156] Memory required for data: 529482240
I0915 11:46:57.385876 26297 layer_factory.hpp:77] Creating layer inception_5a/relu_1x1
I0915 11:46:57.385897 26297 net.cpp:91] Creating Layer inception_5a/relu_1x1
I0915 11:46:57.385910 26297 net.cpp:425] inception_5a/relu_1x1 <- inception_5a/1x1
I0915 11:46:57.385927 26297 net.cpp:386] inception_5a/relu_1x1 -> inception_5a/1x1 (in-place)
I0915 11:46:57.386561 26297 net.cpp:141] Setting up inception_5a/relu_1x1
I0915 11:46:57.386585 26297 net.cpp:148] Top shape: 10 256 7 7 (125440)
I0915 11:46:57.386595 26297 net.cpp:156] Memory required for data: 529984000
I0915 11:46:57.386605 26297 layer_factory.hpp:77] Creating layer inception_5a/3x3_reduce
I0915 11:46:57.386628 26297 net.cpp:91] Creating Layer inception_5a/3x3_reduce
I0915 11:46:57.386641 26297 net.cpp:425] inception_5a/3x3_reduce <- pool4/3x3_s2_pool4/3x3_s2_0_split_1
I0915 11:46:57.386657 26297 net.cpp:399] inception_5a/3x3_reduce -> inception_5a/3x3_reduce
I0915 11:46:57.391616 26297 net.cpp:141] Setting up inception_5a/3x3_reduce
I0915 11:46:57.391652 26297 net.cpp:148] Top shape: 10 160 7 7 (78400)
I0915 11:46:57.391661 26297 net.cpp:156] Memory required for data: 530297600
I0915 11:46:57.391675 26297 layer_factory.hpp:77] Creating layer inception_5a/relu_3x3_reduce
I0915 11:46:57.391705 26297 net.cpp:91] Creating Layer inception_5a/relu_3x3_reduce
I0915 11:46:57.391716 26297 net.cpp:425] inception_5a/relu_3x3_reduce <- inception_5a/3x3_reduce
I0915 11:46:57.391729 26297 net.cpp:386] inception_5a/relu_3x3_reduce -> inception_5a/3x3_reduce (in-place)
I0915 11:46:57.392141 26297 net.cpp:141] Setting up inception_5a/relu_3x3_reduce
I0915 11:46:57.392160 26297 net.cpp:148] Top shape: 10 160 7 7 (78400)
I0915 11:46:57.392169 26297 net.cpp:156] Memory required for data: 530611200
I0915 11:46:57.392179 26297 layer_factory.hpp:77] Creating layer inception_5a/3x3
I0915 11:46:57.392202 26297 net.cpp:91] Creating Layer inception_5a/3x3
I0915 11:46:57.392215 26297 net.cpp:425] inception_5a/3x3 <- inception_5a/3x3_reduce
I0915 11:46:57.392235 26297 net.cpp:399] inception_5a/3x3 -> inception_5a/3x3
I0915 11:46:57.401852 26297 net.cpp:141] Setting up inception_5a/3x3
I0915 11:46:57.401893 26297 net.cpp:148] Top shape: 10 320 7 7 (156800)
I0915 11:46:57.401902 26297 net.cpp:156] Memory required for data: 531238400
I0915 11:46:57.401922 26297 layer_factory.hpp:77] Creating layer inception_5a/relu_3x3
I0915 11:46:57.401940 26297 net.cpp:91] Creating Layer inception_5a/relu_3x3
I0915 11:46:57.401954 26297 net.cpp:425] inception_5a/relu_3x3 <- inception_5a/3x3
I0915 11:46:57.401973 26297 net.cpp:386] inception_5a/relu_3x3 -> inception_5a/3x3 (in-place)
I0915 11:46:57.402624 26297 net.cpp:141] Setting up inception_5a/relu_3x3
I0915 11:46:57.402647 26297 net.cpp:148] Top shape: 10 320 7 7 (156800)
I0915 11:46:57.402657 26297 net.cpp:156] Memory required for data: 531865600
I0915 11:46:57.402665 26297 layer_factory.hpp:77] Creating layer inception_5a/5x5_reduce
I0915 11:46:57.402690 26297 net.cpp:91] Creating Layer inception_5a/5x5_reduce
I0915 11:46:57.402703 26297 net.cpp:425] inception_5a/5x5_reduce <- pool4/3x3_s2_pool4/3x3_s2_0_split_2
I0915 11:46:57.402724 26297 net.cpp:399] inception_5a/5x5_reduce -> inception_5a/5x5_reduce
I0915 11:46:57.405251 26297 net.cpp:141] Setting up inception_5a/5x5_reduce
I0915 11:46:57.405277 26297 net.cpp:148] Top shape: 10 32 7 7 (15680)
I0915 11:46:57.405287 26297 net.cpp:156] Memory required for data: 531928320
I0915 11:46:57.405303 26297 layer_factory.hpp:77] Creating layer inception_5a/relu_5x5_reduce
I0915 11:46:57.405318 26297 net.cpp:91] Creating Layer inception_5a/relu_5x5_reduce
I0915 11:46:57.405328 26297 net.cpp:425] inception_5a/relu_5x5_reduce <- inception_5a/5x5_reduce
I0915 11:46:57.405339 26297 net.cpp:386] inception_5a/relu_5x5_reduce -> inception_5a/5x5_reduce (in-place)
I0915 11:46:57.405922 26297 net.cpp:141] Setting up inception_5a/relu_5x5_reduce
I0915 11:46:57.405943 26297 net.cpp:148] Top shape: 10 32 7 7 (15680)
I0915 11:46:57.405951 26297 net.cpp:156] Memory required for data: 531991040
I0915 11:46:57.405959 26297 layer_factory.hpp:77] Creating layer inception_5a/5x5
I0915 11:46:57.405979 26297 net.cpp:91] Creating Layer inception_5a/5x5
I0915 11:46:57.405989 26297 net.cpp:425] inception_5a/5x5 <- inception_5a/5x5_reduce
I0915 11:46:57.406008 26297 net.cpp:399] inception_5a/5x5 -> inception_5a/5x5
I0915 11:46:57.409322 26297 net.cpp:141] Setting up inception_5a/5x5
I0915 11:46:57.409345 26297 net.cpp:148] Top shape: 10 128 7 7 (62720)
I0915 11:46:57.409353 26297 net.cpp:156] Memory required for data: 532241920
I0915 11:46:57.409368 26297 layer_factory.hpp:77] Creating layer inception_5a/relu_5x5
I0915 11:46:57.409411 26297 net.cpp:91] Creating Layer inception_5a/relu_5x5
I0915 11:46:57.409421 26297 net.cpp:425] inception_5a/relu_5x5 <- inception_5a/5x5
I0915 11:46:57.409432 26297 net.cpp:386] inception_5a/relu_5x5 -> inception_5a/5x5 (in-place)
I0915 11:46:57.409788 26297 net.cpp:141] Setting up inception_5a/relu_5x5
I0915 11:46:57.409806 26297 net.cpp:148] Top shape: 10 128 7 7 (62720)
I0915 11:46:57.409813 26297 net.cpp:156] Memory required for data: 532492800
I0915 11:46:57.409822 26297 layer_factory.hpp:77] Creating layer inception_5a/pool
I0915 11:46:57.409839 26297 net.cpp:91] Creating Layer inception_5a/pool
I0915 11:46:57.409848 26297 net.cpp:425] inception_5a/pool <- pool4/3x3_s2_pool4/3x3_s2_0_split_3
I0915 11:46:57.409859 26297 net.cpp:399] inception_5a/pool -> inception_5a/pool
I0915 11:46:57.409961 26297 net.cpp:141] Setting up inception_5a/pool
I0915 11:46:57.409976 26297 net.cpp:148] Top shape: 10 832 7 7 (407680)
I0915 11:46:57.409981 26297 net.cpp:156] Memory required for data: 534123520
I0915 11:46:57.409989 26297 layer_factory.hpp:77] Creating layer inception_5a/pool_proj
I0915 11:46:57.410008 26297 net.cpp:91] Creating Layer inception_5a/pool_proj
I0915 11:46:57.410017 26297 net.cpp:425] inception_5a/pool_proj <- inception_5a/pool
I0915 11:46:57.410035 26297 net.cpp:399] inception_5a/pool_proj -> inception_5a/pool_proj
I0915 11:46:57.414446 26297 net.cpp:141] Setting up inception_5a/pool_proj
I0915 11:46:57.414474 26297 net.cpp:148] Top shape: 10 128 7 7 (62720)
I0915 11:46:57.414482 26297 net.cpp:156] Memory required for data: 534374400
I0915 11:46:57.414497 26297 layer_factory.hpp:77] Creating layer inception_5a/relu_pool_proj
I0915 11:46:57.414515 26297 net.cpp:91] Creating Layer inception_5a/relu_pool_proj
I0915 11:46:57.414525 26297 net.cpp:425] inception_5a/relu_pool_proj <- inception_5a/pool_proj
I0915 11:46:57.414536 26297 net.cpp:386] inception_5a/relu_pool_proj -> inception_5a/pool_proj (in-place)
I0915 11:46:57.415103 26297 net.cpp:141] Setting up inception_5a/relu_pool_proj
I0915 11:46:57.415119 26297 net.cpp:148] Top shape: 10 128 7 7 (62720)
I0915 11:46:57.415127 26297 net.cpp:156] Memory required for data: 534625280
I0915 11:46:57.415135 26297 layer_factory.hpp:77] Creating layer inception_5a/output
I0915 11:46:57.415153 26297 net.cpp:91] Creating Layer inception_5a/output
I0915 11:46:57.415161 26297 net.cpp:425] inception_5a/output <- inception_5a/1x1
I0915 11:46:57.415171 26297 net.cpp:425] inception_5a/output <- inception_5a/3x3
I0915 11:46:57.415180 26297 net.cpp:425] inception_5a/output <- inception_5a/5x5
I0915 11:46:57.415189 26297 net.cpp:425] inception_5a/output <- inception_5a/pool_proj
I0915 11:46:57.415199 26297 net.cpp:399] inception_5a/output -> inception_5a/output
I0915 11:46:57.415266 26297 net.cpp:141] Setting up inception_5a/output
I0915 11:46:57.415279 26297 net.cpp:148] Top shape: 10 832 7 7 (407680)
I0915 11:46:57.415285 26297 net.cpp:156] Memory required for data: 536256000
I0915 11:46:57.415292 26297 layer_factory.hpp:77] Creating layer inception_5a/output_inception_5a/output_0_split
I0915 11:46:57.415304 26297 net.cpp:91] Creating Layer inception_5a/output_inception_5a/output_0_split
I0915 11:46:57.415313 26297 net.cpp:425] inception_5a/output_inception_5a/output_0_split <- inception_5a/output
I0915 11:46:57.415328 26297 net.cpp:399] inception_5a/output_inception_5a/output_0_split -> inception_5a/output_inception_5a/output_0_split_0
I0915 11:46:57.415343 26297 net.cpp:399] inception_5a/output_inception_5a/output_0_split -> inception_5a/output_inception_5a/output_0_split_1
I0915 11:46:57.415356 26297 net.cpp:399] inception_5a/output_inception_5a/output_0_split -> inception_5a/output_inception_5a/output_0_split_2
I0915 11:46:57.415375 26297 net.cpp:399] inception_5a/output_inception_5a/output_0_split -> inception_5a/output_inception_5a/output_0_split_3
I0915 11:46:57.415531 26297 net.cpp:141] Setting up inception_5a/output_inception_5a/output_0_split
I0915 11:46:57.415545 26297 net.cpp:148] Top shape: 10 832 7 7 (407680)
I0915 11:46:57.415555 26297 net.cpp:148] Top shape: 10 832 7 7 (407680)
I0915 11:46:57.415565 26297 net.cpp:148] Top shape: 10 832 7 7 (407680)
I0915 11:46:57.415573 26297 net.cpp:148] Top shape: 10 832 7 7 (407680)
I0915 11:46:57.415580 26297 net.cpp:156] Memory required for data: 542778880
I0915 11:46:57.415586 26297 layer_factory.hpp:77] Creating layer inception_5b/1x1
I0915 11:46:57.415606 26297 net.cpp:91] Creating Layer inception_5b/1x1
I0915 11:46:57.415616 26297 net.cpp:425] inception_5b/1x1 <- inception_5a/output_inception_5a/output_0_split_0
I0915 11:46:57.415633 26297 net.cpp:399] inception_5b/1x1 -> inception_5b/1x1
I0915 11:46:57.422250 26297 net.cpp:141] Setting up inception_5b/1x1
I0915 11:46:57.422278 26297 net.cpp:148] Top shape: 10 384 7 7 (188160)
I0915 11:46:57.422286 26297 net.cpp:156] Memory required for data: 543531520
I0915 11:46:57.422302 26297 layer_factory.hpp:77] Creating layer inception_5b/relu_1x1
I0915 11:46:57.422314 26297 net.cpp:91] Creating Layer inception_5b/relu_1x1
I0915 11:46:57.422323 26297 net.cpp:425] inception_5b/relu_1x1 <- inception_5b/1x1
I0915 11:46:57.422333 26297 net.cpp:386] inception_5b/relu_1x1 -> inception_5b/1x1 (in-place)
I0915 11:46:57.422927 26297 net.cpp:141] Setting up inception_5b/relu_1x1
I0915 11:46:57.422946 26297 net.cpp:148] Top shape: 10 384 7 7 (188160)
I0915 11:46:57.422955 26297 net.cpp:156] Memory required for data: 544284160
I0915 11:46:57.422962 26297 layer_factory.hpp:77] Creating layer inception_5b/3x3_reduce
I0915 11:46:57.422986 26297 net.cpp:91] Creating Layer inception_5b/3x3_reduce
I0915 11:46:57.422997 26297 net.cpp:425] inception_5b/3x3_reduce <- inception_5a/output_inception_5a/output_0_split_1
I0915 11:46:57.423017 26297 net.cpp:399] inception_5b/3x3_reduce -> inception_5b/3x3_reduce
I0915 11:46:57.426846 26297 net.cpp:141] Setting up inception_5b/3x3_reduce
I0915 11:46:57.426865 26297 net.cpp:148] Top shape: 10 192 7 7 (94080)
I0915 11:46:57.426870 26297 net.cpp:156] Memory required for data: 544660480
I0915 11:46:57.426879 26297 layer_factory.hpp:77] Creating layer inception_5b/relu_3x3_reduce
I0915 11:46:57.426888 26297 net.cpp:91] Creating Layer inception_5b/relu_3x3_reduce
I0915 11:46:57.426894 26297 net.cpp:425] inception_5b/relu_3x3_reduce <- inception_5b/3x3_reduce
I0915 11:46:57.426901 26297 net.cpp:386] inception_5b/relu_3x3_reduce -> inception_5b/3x3_reduce (in-place)
I0915 11:46:57.427150 26297 net.cpp:141] Setting up inception_5b/relu_3x3_reduce
I0915 11:46:57.427160 26297 net.cpp:148] Top shape: 10 192 7 7 (94080)
I0915 11:46:57.427165 26297 net.cpp:156] Memory required for data: 545036800
I0915 11:46:57.427170 26297 layer_factory.hpp:77] Creating layer inception_5b/3x3
I0915 11:46:57.427183 26297 net.cpp:91] Creating Layer inception_5b/3x3
I0915 11:46:57.427189 26297 net.cpp:425] inception_5b/3x3 <- inception_5b/3x3_reduce
I0915 11:46:57.427201 26297 net.cpp:399] inception_5b/3x3 -> inception_5b/3x3
I0915 11:46:57.435083 26297 net.cpp:141] Setting up inception_5b/3x3
I0915 11:46:57.435111 26297 net.cpp:148] Top shape: 10 384 7 7 (188160)
I0915 11:46:57.435117 26297 net.cpp:156] Memory required for data: 545789440
I0915 11:46:57.435127 26297 layer_factory.hpp:77] Creating layer inception_5b/relu_3x3
I0915 11:46:57.435142 26297 net.cpp:91] Creating Layer inception_5b/relu_3x3
I0915 11:46:57.435149 26297 net.cpp:425] inception_5b/relu_3x3 <- inception_5b/3x3
I0915 11:46:57.435159 26297 net.cpp:386] inception_5b/relu_3x3 -> inception_5b/3x3 (in-place)
I0915 11:46:57.435585 26297 net.cpp:141] Setting up inception_5b/relu_3x3
I0915 11:46:57.435597 26297 net.cpp:148] Top shape: 10 384 7 7 (188160)
I0915 11:46:57.435602 26297 net.cpp:156] Memory required for data: 546542080
I0915 11:46:57.435607 26297 layer_factory.hpp:77] Creating layer inception_5b/5x5_reduce
I0915 11:46:57.435622 26297 net.cpp:91] Creating Layer inception_5b/5x5_reduce
I0915 11:46:57.435629 26297 net.cpp:425] inception_5b/5x5_reduce <- inception_5a/output_inception_5a/output_0_split_2
I0915 11:46:57.435642 26297 net.cpp:399] inception_5b/5x5_reduce -> inception_5b/5x5_reduce
I0915 11:46:57.437350 26297 net.cpp:141] Setting up inception_5b/5x5_reduce
I0915 11:46:57.437367 26297 net.cpp:148] Top shape: 10 48 7 7 (23520)
I0915 11:46:57.437372 26297 net.cpp:156] Memory required for data: 546636160
I0915 11:46:57.437381 26297 layer_factory.hpp:77] Creating layer inception_5b/relu_5x5_reduce
I0915 11:46:57.437393 26297 net.cpp:91] Creating Layer inception_5b/relu_5x5_reduce
I0915 11:46:57.437399 26297 net.cpp:425] inception_5b/relu_5x5_reduce <- inception_5b/5x5_reduce
I0915 11:46:57.437408 26297 net.cpp:386] inception_5b/relu_5x5_reduce -> inception_5b/5x5_reduce (in-place)
I0915 11:46:57.437820 26297 net.cpp:141] Setting up inception_5b/relu_5x5_reduce
I0915 11:46:57.437832 26297 net.cpp:148] Top shape: 10 48 7 7 (23520)
I0915 11:46:57.437837 26297 net.cpp:156] Memory required for data: 546730240
I0915 11:46:57.437841 26297 layer_factory.hpp:77] Creating layer inception_5b/5x5
I0915 11:46:57.437858 26297 net.cpp:91] Creating Layer inception_5b/5x5
I0915 11:46:57.437865 26297 net.cpp:425] inception_5b/5x5 <- inception_5b/5x5_reduce
I0915 11:46:57.437873 26297 net.cpp:399] inception_5b/5x5 -> inception_5b/5x5
I0915 11:46:57.440887 26297 net.cpp:141] Setting up inception_5b/5x5
I0915 11:46:57.440910 26297 net.cpp:148] Top shape: 10 128 7 7 (62720)
I0915 11:46:57.440915 26297 net.cpp:156] Memory required for data: 546981120
I0915 11:46:57.440924 26297 layer_factory.hpp:77] Creating layer inception_5b/relu_5x5
I0915 11:46:57.440932 26297 net.cpp:91] Creating Layer inception_5b/relu_5x5
I0915 11:46:57.440938 26297 net.cpp:425] inception_5b/relu_5x5 <- inception_5b/5x5
I0915 11:46:57.440946 26297 net.cpp:386] inception_5b/relu_5x5 -> inception_5b/5x5 (in-place)
I0915 11:46:57.441196 26297 net.cpp:141] Setting up inception_5b/relu_5x5
I0915 11:46:57.441207 26297 net.cpp:148] Top shape: 10 128 7 7 (62720)
I0915 11:46:57.441211 26297 net.cpp:156] Memory required for data: 547232000
I0915 11:46:57.441216 26297 layer_factory.hpp:77] Creating layer inception_5b/pool
I0915 11:46:57.441226 26297 net.cpp:91] Creating Layer inception_5b/pool
I0915 11:46:57.441233 26297 net.cpp:425] inception_5b/pool <- inception_5a/output_inception_5a/output_0_split_3
I0915 11:46:57.441241 26297 net.cpp:399] inception_5b/pool -> inception_5b/pool
I0915 11:46:57.441318 26297 net.cpp:141] Setting up inception_5b/pool
I0915 11:46:57.441329 26297 net.cpp:148] Top shape: 10 832 7 7 (407680)
I0915 11:46:57.441332 26297 net.cpp:156] Memory required for data: 548862720
I0915 11:46:57.441336 26297 layer_factory.hpp:77] Creating layer inception_5b/pool_proj
I0915 11:46:57.441350 26297 net.cpp:91] Creating Layer inception_5b/pool_proj
I0915 11:46:57.441356 26297 net.cpp:425] inception_5b/pool_proj <- inception_5b/pool
I0915 11:46:57.441365 26297 net.cpp:399] inception_5b/pool_proj -> inception_5b/pool_proj
I0915 11:46:57.444468 26297 net.cpp:141] Setting up inception_5b/pool_proj
I0915 11:46:57.444492 26297 net.cpp:148] Top shape: 10 128 7 7 (62720)
I0915 11:46:57.444499 26297 net.cpp:156] Memory required for data: 549113600
I0915 11:46:57.444507 26297 layer_factory.hpp:77] Creating layer inception_5b/relu_pool_proj
I0915 11:46:57.444516 26297 net.cpp:91] Creating Layer inception_5b/relu_pool_proj
I0915 11:46:57.444522 26297 net.cpp:425] inception_5b/relu_pool_proj <- inception_5b/pool_proj
I0915 11:46:57.444532 26297 net.cpp:386] inception_5b/relu_pool_proj -> inception_5b/pool_proj (in-place)
I0915 11:46:57.444959 26297 net.cpp:141] Setting up inception_5b/relu_pool_proj
I0915 11:46:57.444972 26297 net.cpp:148] Top shape: 10 128 7 7 (62720)
I0915 11:46:57.444977 26297 net.cpp:156] Memory required for data: 549364480
I0915 11:46:57.444983 26297 layer_factory.hpp:77] Creating layer inception_5b/output
I0915 11:46:57.444990 26297 net.cpp:91] Creating Layer inception_5b/output
I0915 11:46:57.444996 26297 net.cpp:425] inception_5b/output <- inception_5b/1x1
I0915 11:46:57.445003 26297 net.cpp:425] inception_5b/output <- inception_5b/3x3
I0915 11:46:57.445008 26297 net.cpp:425] inception_5b/output <- inception_5b/5x5
I0915 11:46:57.445013 26297 net.cpp:425] inception_5b/output <- inception_5b/pool_proj
I0915 11:46:57.445022 26297 net.cpp:399] inception_5b/output -> inception_5b/output
I0915 11:46:57.445075 26297 net.cpp:141] Setting up inception_5b/output
I0915 11:46:57.445085 26297 net.cpp:148] Top shape: 10 1024 7 7 (501760)
I0915 11:46:57.445088 26297 net.cpp:156] Memory required for data: 551371520
I0915 11:46:57.445093 26297 layer_factory.hpp:77] Creating layer pool5/7x7_s1
I0915 11:46:57.445107 26297 net.cpp:91] Creating Layer pool5/7x7_s1
I0915 11:46:57.445112 26297 net.cpp:425] pool5/7x7_s1 <- inception_5b/output
I0915 11:46:57.445122 26297 net.cpp:399] pool5/7x7_s1 -> pool5/7x7_s1
I0915 11:46:57.445430 26297 net.cpp:141] Setting up pool5/7x7_s1
I0915 11:46:57.445441 26297 net.cpp:148] Top shape: 10 1024 1 1 (10240)
I0915 11:46:57.445446 26297 net.cpp:156] Memory required for data: 551412480
I0915 11:46:57.445449 26297 layer_factory.hpp:77] Creating layer pool5/drop_7x7_s1
I0915 11:46:57.445461 26297 net.cpp:91] Creating Layer pool5/drop_7x7_s1
I0915 11:46:57.445466 26297 net.cpp:425] pool5/drop_7x7_s1 <- pool5/7x7_s1
I0915 11:46:57.445472 26297 net.cpp:386] pool5/drop_7x7_s1 -> pool5/7x7_s1 (in-place)
I0915 11:46:57.445530 26297 net.cpp:141] Setting up pool5/drop_7x7_s1
I0915 11:46:57.445539 26297 net.cpp:148] Top shape: 10 1024 1 1 (10240)
I0915 11:46:57.445544 26297 net.cpp:156] Memory required for data: 551453440
I0915 11:46:57.445547 26297 layer_factory.hpp:77] Creating layer loss3/classifier
I0915 11:46:57.445564 26297 net.cpp:91] Creating Layer loss3/classifier
I0915 11:46:57.445569 26297 net.cpp:425] loss3/classifier <- pool5/7x7_s1
I0915 11:46:57.445580 26297 net.cpp:399] loss3/classifier -> loss3/classifier
I0915 11:46:57.455421 26297 net.cpp:141] Setting up loss3/classifier
I0915 11:46:57.455457 26297 net.cpp:148] Top shape: 10 1000 (10000)
I0915 11:46:57.455462 26297 net.cpp:156] Memory required for data: 551493440
I0915 11:46:57.455474 26297 layer_factory.hpp:77] Creating layer prob
I0915 11:46:57.455492 26297 net.cpp:91] Creating Layer prob
I0915 11:46:57.455499 26297 net.cpp:425] prob <- loss3/classifier
I0915 11:46:57.455508 26297 net.cpp:399] prob -> prob
I0915 11:46:57.456295 26297 net.cpp:141] Setting up prob
I0915 11:46:57.456310 26297 net.cpp:148] Top shape: 10 1000 (10000)
I0915 11:46:57.456315 26297 net.cpp:156] Memory required for data: 551533440
I0915 11:46:57.456321 26297 net.cpp:219] prob does not need backward computation.
I0915 11:46:57.456326 26297 net.cpp:219] loss3/classifier does not need backward computation.
I0915 11:46:57.456331 26297 net.cpp:219] pool5/drop_7x7_s1 does not need backward computation.
I0915 11:46:57.456336 26297 net.cpp:219] pool5/7x7_s1 does not need backward computation.
…
