…
Java HotSpot(TM) 64-Bit Server VM warning: You have loaded library /tmp/cvld1401759161546014457/libopencv_java310.xine1.so which might have disabled stack guard. The VM will try to fix the stack guard now.
It's highly recommended that you fix the library with 'execstack -c <libfile>', or link it with '-z noexecstack'.
WARNING: Logging before InitGoogleLogging() is written to STDERR
I0720 16:36:06.101505  2901 net.cpp:49] Initializing net from parameters: 
name: "CaffeNet"
state {
  phase: TEST
}
layer {
  name: "data"
  type: "Input"
  top: "data"
  input_param {
    shape {
      dim: 10
      dim: 3
      dim: 227
      dim: 227
    }
  }
}
layer {
  name: "conv1"
  type: "Convolution"
  bottom: "data"
  top: "conv1"
  convolution_param {
    num_output: 96
    kernel_size: 11
    stride: 4
  }
}
layer {
  name: "relu1"
  type: "ReLU"
  bottom: "conv1"
  top: "conv1"
}
layer {
  name: "pool1"
  type: "Pooling"
  bottom: "conv1"
  top: "pool1"
  pooling_param {
    pool: MAX
    kernel_size: 3
    stride: 2
  }
}
layer {
  name: "norm1"
  type: "LRN"
  bottom: "pool1"
  top: "norm1"
  lrn_param {
    local_size: 5
    alpha: 0.0001
    beta: 0.75
  }
}
layer {
  name: "conv2"
  type: "Convolution"
  bottom: "norm1"
  top: "conv2"
  convolution_param {
    num_output: 256
    pad: 2
    kernel_size: 5
    group: 2
  }
}
layer {
  name: "relu2"
  type: "ReLU"
  bottom: "conv2"
  top: "conv2"
}
layer {
  name: "pool2"
  type: "Pooling"
  bottom: "conv2"
  top: "pool2"
  pooling_param {
    pool: MAX
    kernel_size: 3
    stride: 2
  }
}
layer {
  name: "norm2"
  type: "LRN"
  bottom: "pool2"
  top: "norm2"
  lrn_param {
    local_size: 5
    alpha: 0.0001
    beta: 0.75
  }
}
layer {
  name: "conv3"
  type: "Convolution"
  bottom: "norm2"
  top: "conv3"
  convolution_param {
    num_output: 384
    pad: 1
    kernel_size: 3
  }
}
layer {
  name: "relu3"
  type: "ReLU"
  bottom: "conv3"
  top: "conv3"
}
layer {
  name: "conv4"
  type: "Convolution"
  bottom: "conv3"
  top: "conv4"
  convolution_param {
    num_output: 384
    pad: 1
    kernel_size: 3
    group: 2
  }
}
layer {
  name: "relu4"
  type: "ReLU"
  bottom: "conv4"
  top: "conv4"
}
layer {
  name: "conv5"
  type: "Convolution"
  bottom: "conv4"
  top: "conv5"
  convolution_param {
    num_output: 256
    pad: 1
    kernel_size: 3
    group: 2
  }
}
layer {
  name: "relu5"
  type: "ReLU"
  bottom: "conv5"
  top: "conv5"
}
layer {
  name: "pool5"
  type: "Pooling"
  bottom: "conv5"
  top: "pool5"
  pooling_param {
    pool: MAX
    kernel_size: 3
    stride: 2
  }
}
layer {
  name: "fc6"
  type: "InnerProduct"
  bottom: "pool5"
  top: "fc6"
  inner_product_param {
    num_output: 4096
  }
}
layer {
  name: "relu6"
  type: "ReLU"
  bottom: "fc6"
  top: "fc6"
}
layer {
  name: "drop6"
  type: "Dropout"
  bottom: "fc6"
  top: "fc6"
  dropout_param {
    dropout_ratio: 0.5
  }
}
layer {
  name: "fc7"
  type: "InnerProduct"
  bottom: "fc6"
  top: "fc7"
  inner_product_param {
    num_output: 4096
  }
}
layer {
  name: "relu7"
  type: "ReLU"
  bottom: "fc7"
  top: "fc7"
}
layer {
  name: "drop7"
  type: "Dropout"
  bottom: "fc7"
  top: "fc7"
  dropout_param {
    dropout_ratio: 0.5
  }
}
layer {
  name: "fc8"
  type: "InnerProduct"
  bottom: "fc7"
  top: "fc8"
  inner_product_param {
    num_output: 1000
  }
}
layer {
  name: "prob"
  type: "Softmax"
  bottom: "fc8"
  top: "prob"
}
I0720 16:36:06.101727  2901 layer_factory.hpp:77] Creating layer data
I0720 16:36:06.101754  2901 net.cpp:91] Creating Layer data
I0720 16:36:06.101766  2901 net.cpp:399] data -> data
I0720 16:36:06.115705  2907 net.cpp:49] Initializing net from parameters: 
name: "CaffeNet"
state {
  phase: TEST
}
layer {
  name: "data"
  type: "Input"
  top: "data"
  input_param {
    shape {
      dim: 10
      dim: 3
      dim: 227
      dim: 227
    }
  }
}
layer {
  name: "conv1"
  type: "Convolution"
  bottom: "data"
  top: "conv1"
  convolution_param {
    num_output: 96
    kernel_size: 11
    stride: 4
  }
}
layer {
  name: "relu1"
  type: "ReLU"
  bottom: "conv1"
  top: "conv1"
}
layer {
  name: "pool1"
  type: "Pooling"
  bottom: "conv1"
  top: "pool1"
  pooling_param {
    pool: MAX
    kernel_size: 3
    stride: 2
  }
}
layer {
  name: "norm1"
  type: "LRN"
  bottom: "pool1"
  top: "norm1"
  lrn_param {
    local_size: 5
    alpha: 0.0001
    beta: 0.75
  }
}
layer {
  name: "conv2"
  type: "Convolution"
  bottom: "norm1"
  top: "conv2"
  convolution_param {
    num_output: 256
    pad: 2
    kernel_size: 5
    group: 2
  }
}
layer {
  name: "relu2"
  type: "ReLU"
  bottom: "conv2"
  top: "conv2"
}
layer {
  name: "pool2"
  type: "Pooling"
  bottom: "conv2"
  top: "pool2"
  pooling_param {
    pool: MAX
    kernel_size: 3
    stride: 2
  }
}
layer {
  name: "norm2"
  type: "LRN"
  bottom: "pool2"
  top: "norm2"
  lrn_param {
    local_size: 5
    alpha: 0.0001
    beta: 0.75
  }
}
layer {
  name: "conv3"
  type: "Convolution"
  bottom: "norm2"
  top: "conv3"
  convolution_param {
    num_output: 384
    pad: 1
    kernel_size: 3
  }
}
layer {
  name: "relu3"
  type: "ReLU"
  bottom: "conv3"
  top: "conv3"
}
layer {
  name: "conv4"
  type: "Convolution"
  bottom: "conv3"
  top: "conv4"
  convolution_param {
    num_output: 384
    pad: 1
    kernel_size: 3
    group: 2
  }
}
layer {
  name: "relu4"
  type: "ReLU"
  bottom: "conv4"
  top: "conv4"
}
layer {
  name: "conv5"
  type: "Convolution"
  bottom: "conv4"
  top: "conv5"
  convolution_param {
    num_output: 256
    pad: 1
    kernel_size: 3
    group: 2
  }
}
layer {
  name: "relu5"
  type: "ReLU"
  bottom: "conv5"
  top: "conv5"
}
layer {
  name: "pool5"
  type: "Pooling"
  bottom: "conv5"
  top: "pool5"
  pooling_param {
    pool: MAX
    kernel_size: 3
    stride: 2
  }
}
layer {
  name: "fc6"
  type: "InnerProduct"
  bottom: "pool5"
  top: "fc6"
  inner_product_param {
    num_output: 4096
  }
}
layer {
  name: "relu6"
  type: "ReLU"
  bottom: "fc6"
  top: "fc6"
}
layer {
  name: "drop6"
  type: "Dropout"
  bottom: "fc6"
  top: "fc6"
  dropout_param {
    dropout_ratio: 0.5
  }
}
layer {
  name: "fc7"
  type: "InnerProduct"
  bottom: "fc6"
  top: "fc7"
  inner_product_param {
    num_output: 4096
  }
}
layer {
  name: "relu7"
  type: "ReLU"
  bottom: "fc7"
  top: "fc7"
}
layer {
  name: "drop7"
  type: "Dropout"
  bottom: "fc7"
  top: "fc7"
  dropout_param {
    dropout_ratio: 0.5
  }
}
layer {
  name: "fc8"
  type: "InnerProduct"
  bottom: "fc7"
  top: "fc8"
  inner_product_param {
    num_output: 1000
  }
}
layer {
  name: "prob"
  type: "Softmax"
  bottom: "fc8"
  top: "prob"
}
I0720 16:36:06.115836  2907 layer_factory.hpp:77] Creating layer data
I0720 16:36:06.115855  2907 net.cpp:91] Creating Layer data
I0720 16:36:06.115864  2907 net.cpp:399] data -> data
I0720 16:36:06.381245  2889 upgrade_proto.cpp:66] Attempting to upgrade input file specified using deprecated input fields: /tmp/cvld1401759161546014457/s2vt.words_to_preds.prototxt
I0720 16:36:06.381292  2889 upgrade_proto.cpp:69] Successfully upgraded file specified using deprecated input fields.
W0720 16:36:06.381300  2889 upgrade_proto.cpp:71] Note that future Caffe releases will only support input layers and not input fields.
I0720 16:36:06.381573  2889 net.cpp:49] Initializing net from parameters: 
name: "s2vt:features_to_lstm"
state {
  phase: TEST
}
layer {
  name: "input"
  type: "Input"
  top: "frames_fc7"
  top: "cont_sentence"
  top: "input_sentence"
  top: "stage_indicator"
  input_param {
    shape {
      dim: 1
      dim: 4096
    }
    shape {
      dim: 1
      dim: 1
    }
    shape {
      dim: 1
      dim: 1
    }
    shape {
      dim: 1
      dim: 1
    }
  }
}
layer {
  name: "embed_encoder"
  type: "InnerProduct"
  bottom: "frames_fc7"
  top: "embedded_in_frames"
  param {
    lr_mult: 1
    decay_mult: 1
  }
  param {
    lr_mult: 2
    decay_mult: 0
  }
  inner_product_param {
    num_output: 500
    weight_filler {
      type: "xavier"
    }
    bias_filler {
      type: "constant"
      value: 0.2
    }
  }
}
layer {
  name: "reshape_frames"
  type: "Reshape"
  bottom: "embedded_in_frames"
  top: "embedded_input_frames"
  reshape_param {
    shape {
      dim: 1
      dim: 1
      dim: 500
    }
  }
}
layer {
  name: "reshape_stage_indicator"
  type: "Reshape"
  bottom: "stage_indicator"
  top: "reshaped_stage_indicator"
  reshape_param {
    shape {
      dim: 1
      dim: 1
      dim: 1
    }
  }
}
layer {
  name: "embedding"
  type: "Embed"
  bottom: "input_sentence"
  top: "embedded_input_sentence"
  param {
    lr_mult: 1
  }
  embed_param {
    num_output: 500
    input_dim: 46168
    bias_term: false
    weight_filler {
      type: "uniform"
      min: -0.08
      max: 0.08
    }
  }
}
layer {
  name: "lstm1"
  type: "LSTM"
  bottom: "embedded_input_frames"
  bottom: "cont_sentence"
  top: "lstm1"
  recurrent_param {
    num_output: 1000
    weight_filler {
      type: "uniform"
      min: -0.08
      max: 0.08
    }
    bias_filler {
      type: "constant"
      value: 0
    }
  }
}
layer {
  name: "concat"
  type: "Concat"
  bottom: "lstm1"
  bottom: "embedded_input_sentence"
  bottom: "reshaped_stage_indicator"
  top: "lstm1_video_sequence"
  concat_param {
    concat_dim: 2
  }
}
layer {
  name: "lstm2"
  type: "LSTM"
  bottom: "lstm1_video_sequence"
  bottom: "cont_sentence"
  top: "lstm2"
  recurrent_param {
    num_output: 1000
    weight_filler {
      type: "uniform"
      min: -0.08
      max: 0.08
    }
    bias_filler {
      type: "constant"
      value: 0
    }
  }
}
layer {
  name: "predict"
  type: "InnerProduct"
  bottom: "lstm2"
  top: "predict"
  param {
    lr_mult: 1
    decay_mult: 1
  }
  param {
    lr_mult: 2
    decay_mult: 0
  }
  inner_product_param {
    num_output: 46168
    weight_filler {
      type: "uniform"
      min: -0.08
      max: 0.08
    }
    bias_filler {
      type: "constant"
      value: 0
    }
    axis: 2
  }
}
layer {
  name: "probs"
  type: "Softmax"
  bottom: "predict"
  top: "probs"
  softmax_param {
    axis: 2
  }
}
I0720 16:36:06.381713  2889 layer_factory.hpp:77] Creating layer input
I0720 16:36:06.381731  2889 net.cpp:91] Creating Layer input
I0720 16:36:06.381737  2889 net.cpp:399] input -> frames_fc7
I0720 16:36:06.381753  2889 net.cpp:399] input -> cont_sentence
I0720 16:36:06.381767  2889 net.cpp:399] input -> input_sentence
I0720 16:36:06.381788  2889 net.cpp:399] input -> stage_indicator
I0720 16:36:06.387279  2893 upgrade_proto.cpp:66] Attempting to upgrade input file specified using deprecated input fields: /tmp/cvld1401759161546014457/s2vt.words_to_preds.prototxt
I0720 16:36:06.387303  2893 upgrade_proto.cpp:69] Successfully upgraded file specified using deprecated input fields.
W0720 16:36:06.387308  2893 upgrade_proto.cpp:71] Note that future Caffe releases will only support input layers and not input fields.
I0720 16:36:06.387513  2893 net.cpp:49] Initializing net from parameters: 
name: "s2vt:features_to_lstm"
state {
  phase: TEST
}
layer {
  name: "input"
  type: "Input"
  top: "frames_fc7"
  top: "cont_sentence"
  top: "input_sentence"
  top: "stage_indicator"
  input_param {
    shape {
      dim: 1
      dim: 4096
    }
    shape {
      dim: 1
      dim: 1
    }
    shape {
      dim: 1
      dim: 1
    }
    shape {
      dim: 1
      dim: 1
    }
  }
}
layer {
  name: "embed_encoder"
  type: "InnerProduct"
  bottom: "frames_fc7"
  top: "embedded_in_frames"
  param {
    lr_mult: 1
    decay_mult: 1
  }
  param {
    lr_mult: 2
    decay_mult: 0
  }
  inner_product_param {
    num_output: 500
    weight_filler {
      type: "xavier"
    }
    bias_filler {
      type: "constant"
      value: 0.2
    }
  }
}
layer {
  name: "reshape_frames"
  type: "Reshape"
  bottom: "embedded_in_frames"
  top: "embedded_input_frames"
  reshape_param {
    shape {
      dim: 1
      dim: 1
      dim: 500
    }
  }
}
layer {
  name: "reshape_stage_indicator"
  type: "Reshape"
  bottom: "stage_indicator"
  top: "reshaped_stage_indicator"
  reshape_param {
    shape {
      dim: 1
      dim: 1
      dim: 1
    }
  }
}
layer {
  name: "embedding"
  type: "Embed"
  bottom: "input_sentence"
  top: "embedded_input_sentence"
  param {
    lr_mult: 1
  }
  embed_param {
    num_output: 500
    input_dim: 46168
    bias_term: false
    weight_filler {
      type: "uniform"
      min: -0.08
      max: 0.08
    }
  }
}
layer {
  name: "lstm1"
  type: "LSTM"
  bottom: "embedded_input_frames"
  bottom: "cont_sentence"
  top: "lstm1"
  recurrent_param {
    num_output: 1000
    weight_filler {
      type: "uniform"
      min: -0.08
      max: 0.08
    }
    bias_filler {
      type: "constant"
      value: 0
    }
  }
}
layer {
  name: "concat"
  type: "Concat"
  bottom: "lstm1"
  bottom: "embedded_input_sentence"
  bottom: "reshaped_stage_indicator"
  top: "lstm1_video_sequence"
  concat_param {
    concat_dim: 2
  }
}
layer {
  name: "lstm2"
  type: "LSTM"
  bottom: "lstm1_video_sequence"
  bottom: "cont_sentence"
  top: "lstm2"
  recurrent_param {
    num_output: 1000
    weight_filler {
      type: "uniform"
      min: -0.08
      max: 0.08
    }
    bias_filler {
      type: "constant"
      value: 0
    }
  }
}
layer {
  name: "predict"
  type: "InnerProduct"
  bottom: "lstm2"
  top: "predict"
  param {
    lr_mult: 1
    decay_mult: 1
  }
  param {
    lr_mult: 2
    decay_mult: 0
  }
  inner_product_param {
    num_output: 46168
    weight_filler {
      type: "uniform"
      min: -0.08
      max: 0.08
    }
    bias_filler {
      type: "constant"
      value: 0
    }
    axis: 2
  }
}
layer {
  name: "probs"
  type: "Softmax"
  bottom: "predict"
  top: "probs"
  softmax_param {
    axis: 2
  }
}
I0720 16:36:06.387596  2893 layer_factory.hpp:77] Creating layer input
I0720 16:36:06.387610  2893 net.cpp:91] Creating Layer input
I0720 16:36:06.387617  2893 net.cpp:399] input -> frames_fc7
I0720 16:36:06.387632  2893 net.cpp:399] input -> cont_sentence
I0720 16:36:06.387644  2893 net.cpp:399] input -> input_sentence
I0720 16:36:06.387652  2893 net.cpp:399] input -> stage_indicator
I0720 16:36:07.001731  2901 net.cpp:141] Setting up data
I0720 16:36:07.001793  2901 net.cpp:148] Top shape: 10 3 227 227 (1545870)
I0720 16:36:07.001799  2901 net.cpp:156] Memory required for data: 6183480
I0720 16:36:07.001817  2901 layer_factory.hpp:77] Creating layer conv1
I0720 16:36:07.001844  2901 net.cpp:91] Creating Layer conv1
I0720 16:36:07.001853  2901 net.cpp:425] conv1 <- data
I0720 16:36:07.001864  2901 net.cpp:399] conv1 -> conv1
I0720 16:36:07.001881  2893 net.cpp:141] Setting up input
I0720 16:36:07.001900  2893 net.cpp:148] Top shape: 1 4096 (4096)
I0720 16:36:07.001907  2893 net.cpp:148] Top shape: 1 1 (1)
I0720 16:36:07.001914  2893 net.cpp:148] Top shape: 1 1 (1)
I0720 16:36:07.001919  2893 net.cpp:148] Top shape: 1 1 (1)
I0720 16:36:07.001922  2893 net.cpp:156] Memory required for data: 16396
I0720 16:36:07.001929  2893 layer_factory.hpp:77] Creating layer cont_sentence_input_1_split
I0720 16:36:07.001945  2893 net.cpp:91] Creating Layer cont_sentence_input_1_split
I0720 16:36:07.001950  2893 net.cpp:425] cont_sentence_input_1_split <- cont_sentence
I0720 16:36:07.001973  2893 net.cpp:399] cont_sentence_input_1_split -> cont_sentence_input_1_split_0
I0720 16:36:07.001984  2893 net.cpp:399] cont_sentence_input_1_split -> cont_sentence_input_1_split_1
I0720 16:36:07.002118  2893 net.cpp:141] Setting up cont_sentence_input_1_split
I0720 16:36:07.002130  2893 net.cpp:148] Top shape: 1 1 (1)
I0720 16:36:07.002135  2893 net.cpp:148] Top shape: 1 1 (1)
I0720 16:36:07.002140  2893 net.cpp:156] Memory required for data: 16404
I0720 16:36:07.002145  2893 layer_factory.hpp:77] Creating layer embed_encoder
I0720 16:36:07.002164  2893 net.cpp:91] Creating Layer embed_encoder
I0720 16:36:07.002169  2893 net.cpp:425] embed_encoder <- frames_fc7
I0720 16:36:07.002177  2893 net.cpp:399] embed_encoder -> embedded_in_frames
I0720 16:36:07.019263  2907 net.cpp:141] Setting up data
I0720 16:36:07.019304  2907 net.cpp:148] Top shape: 10 3 227 227 (1545870)
I0720 16:36:07.019309  2907 net.cpp:156] Memory required for data: 6183480
I0720 16:36:07.019317  2907 layer_factory.hpp:77] Creating layer conv1
I0720 16:36:07.019340  2907 net.cpp:91] Creating Layer conv1
I0720 16:36:07.019346  2907 net.cpp:425] conv1 <- data
I0720 16:36:07.019356  2907 net.cpp:399] conv1 -> conv1
I0720 16:36:07.019520  2889 net.cpp:141] Setting up input
I0720 16:36:07.019542  2889 net.cpp:148] Top shape: 1 4096 (4096)
I0720 16:36:07.019553  2889 net.cpp:148] Top shape: 1 1 (1)
I0720 16:36:07.019563  2889 net.cpp:148] Top shape: 1 1 (1)
I0720 16:36:07.019572  2889 net.cpp:148] Top shape: 1 1 (1)
I0720 16:36:07.019582  2889 net.cpp:156] Memory required for data: 16396
I0720 16:36:07.019590  2889 layer_factory.hpp:77] Creating layer cont_sentence_input_1_split
I0720 16:36:07.019636  2889 net.cpp:91] Creating Layer cont_sentence_input_1_split
I0720 16:36:07.019646  2889 net.cpp:425] cont_sentence_input_1_split <- cont_sentence
I0720 16:36:07.019659  2889 net.cpp:399] cont_sentence_input_1_split -> cont_sentence_input_1_split_0
I0720 16:36:07.019675  2889 net.cpp:399] cont_sentence_input_1_split -> cont_sentence_input_1_split_1
I0720 16:36:07.025275  2889 net.cpp:141] Setting up cont_sentence_input_1_split
I0720 16:36:07.025307  2889 net.cpp:148] Top shape: 1 1 (1)
I0720 16:36:07.025321  2889 net.cpp:148] Top shape: 1 1 (1)
I0720 16:36:07.025328  2889 net.cpp:156] Memory required for data: 16404
I0720 16:36:07.025338  2889 layer_factory.hpp:77] Creating layer embed_encoder
I0720 16:36:07.025374  2889 net.cpp:91] Creating Layer embed_encoder
I0720 16:36:07.025385  2889 net.cpp:425] embed_encoder <- frames_fc7
I0720 16:36:07.025410  2889 net.cpp:399] embed_encoder -> embedded_in_frames
I0720 16:36:07.058902  2893 net.cpp:141] Setting up embed_encoder
I0720 16:36:07.058945  2893 net.cpp:148] Top shape: 1 500 (500)
I0720 16:36:07.058951  2893 net.cpp:156] Memory required for data: 18404
I0720 16:36:07.058979  2893 layer_factory.hpp:77] Creating layer reshape_frames
I0720 16:36:07.059008  2893 net.cpp:91] Creating Layer reshape_frames
I0720 16:36:07.059016  2893 net.cpp:425] reshape_frames <- embedded_in_frames
I0720 16:36:07.059026  2893 net.cpp:399] reshape_frames -> embedded_input_frames
I0720 16:36:07.059978  2893 net.cpp:141] Setting up reshape_frames
I0720 16:36:07.059995  2893 net.cpp:148] Top shape: 1 1 500 (500)
I0720 16:36:07.060000  2893 net.cpp:156] Memory required for data: 20404
I0720 16:36:07.060005  2893 layer_factory.hpp:77] Creating layer reshape_stage_indicator
I0720 16:36:07.060022  2893 net.cpp:91] Creating Layer reshape_stage_indicator
I0720 16:36:07.060027  2893 net.cpp:425] reshape_stage_indicator <- stage_indicator
I0720 16:36:07.060037  2893 net.cpp:399] reshape_stage_indicator -> reshaped_stage_indicator
I0720 16:36:07.069370  2893 net.cpp:141] Setting up reshape_stage_indicator
I0720 16:36:07.069398  2893 net.cpp:148] Top shape: 1 1 1 (1)
I0720 16:36:07.069404  2893 net.cpp:156] Memory required for data: 20408
I0720 16:36:07.069411  2893 layer_factory.hpp:77] Creating layer embedding
I0720 16:36:07.069423  2893 net.cpp:91] Creating Layer embedding
I0720 16:36:07.069432  2893 net.cpp:425] embedding <- input_sentence
I0720 16:36:07.069442  2893 net.cpp:399] embedding -> embedded_input_sentence
I0720 16:36:07.125447  2889 net.cpp:141] Setting up embed_encoder
I0720 16:36:07.125514  2889 net.cpp:148] Top shape: 1 500 (500)
I0720 16:36:07.125520  2889 net.cpp:156] Memory required for data: 18404
I0720 16:36:07.125545  2889 layer_factory.hpp:77] Creating layer reshape_frames
I0720 16:36:07.125566  2889 net.cpp:91] Creating Layer reshape_frames
I0720 16:36:07.125574  2889 net.cpp:425] reshape_frames <- embedded_in_frames
I0720 16:36:07.125618  2889 net.cpp:399] reshape_frames -> embedded_input_frames
I0720 16:36:07.128885  2889 net.cpp:141] Setting up reshape_frames
I0720 16:36:07.128948  2889 net.cpp:148] Top shape: 1 1 500 (500)
I0720 16:36:07.128954  2889 net.cpp:156] Memory required for data: 20404
I0720 16:36:07.128963  2889 layer_factory.hpp:77] Creating layer reshape_stage_indicator
I0720 16:36:07.128988  2889 net.cpp:91] Creating Layer reshape_stage_indicator
I0720 16:36:07.128993  2889 net.cpp:425] reshape_stage_indicator <- stage_indicator
I0720 16:36:07.129011  2889 net.cpp:399] reshape_stage_indicator -> reshaped_stage_indicator
I0720 16:36:07.136361  2889 net.cpp:141] Setting up reshape_stage_indicator
I0720 16:36:07.136399  2889 net.cpp:148] Top shape: 1 1 1 (1)
I0720 16:36:07.136404  2889 net.cpp:156] Memory required for data: 20408
I0720 16:36:07.136409  2889 layer_factory.hpp:77] Creating layer embedding
I0720 16:36:07.136428  2889 net.cpp:91] Creating Layer embedding
I0720 16:36:07.136435  2889 net.cpp:425] embedding <- input_sentence
I0720 16:36:07.136456  2889 net.cpp:399] embedding -> embedded_input_sentence
I0720 16:36:07.314090  2893 net.cpp:141] Setting up embedding
I0720 16:36:07.314136  2893 net.cpp:148] Top shape: 1 1 500 (500)
I0720 16:36:07.314141  2893 net.cpp:156] Memory required for data: 22408
I0720 16:36:07.314158  2893 layer_factory.hpp:77] Creating layer lstm1
I0720 16:36:07.314177  2893 net.cpp:91] Creating Layer lstm1
I0720 16:36:07.314183  2893 net.cpp:425] lstm1 <- embedded_input_frames
I0720 16:36:07.314191  2893 net.cpp:425] lstm1 <- cont_sentence_input_1_split_0
I0720 16:36:07.314203  2893 net.cpp:399] lstm1 -> lstm1
I0720 16:36:07.314236  2893 recurrent_layer.cpp:20] Initializing recurrent layer: assuming input batch contains 1 timesteps of 1 independent streams.
I0720 16:36:07.314574  2893 net.cpp:49] Initializing net from parameters: 
layer {
  name: "lstm1_"
  type: "Input"
  top: "x"
  top: "cont"
  input_param {
    shape {
      dim: 1
      dim: 1
      dim: 500
    }
    shape {
      dim: 1
      dim: 1
    }
  }
}
layer {
  name: "lstm1_"
  type: "Input"
  top: "c_0"
  top: "h_0"
  input_param {
    shape {
      dim: 1
      dim: 1
      dim: 1000
    }
    shape {
      dim: 1
      dim: 1
      dim: 1000
    }
  }
}
layer {
  name: "lstm1_cont_slice"
  type: "Slice"
  bottom: "cont"
  top: "cont_1"
  slice_param {
    axis: 0
  }
}
layer {
  name: "lstm1_x_transform"
  type: "InnerProduct"
  bottom: "x"
  top: "W_xc_x"
  param {
    name: "W_xc"
  }
  param {
    name: "b_c"
  }
  propagate_down: true
  inner_product_param {
    num_output: 4000
    bias_term: true
    weight_filler {
      type: "uniform"
      min: -0.08
      max: 0.08
    }
    bias_filler {
      type: "constant"
      value: 0
    }
    axis: 2
  }
}
layer {
  name: "lstm1_W_xc_x_slice"
  type: "Slice"
  bottom: "W_xc_x"
  top: "W_xc_x_1"
  slice_param {
    axis: 0
  }
}
layer {
  name: "lstm1_h_conted_0"
  type: "Scale"
  bottom: "h_0"
  bottom: "cont_1"
  top: "h_conted_0"
  scale_param {
    axis: 0
  }
}
layer {
  name: "lstm1_transform_1"
  type: "InnerProduct"
  bottom: "h_conted_0"
  top: "W_hc_h_0"
  param {
    name: "W_hc"
  }
  inner_product_param {
    num_output: 4000
    bias_term: false
    weight_filler {
      type: "uniform"
      min: -0.08
      max: 0.08
    }
    axis: 2
  }
}
layer {
  name: "lstm1_gate_input_1"
  type: "Eltwise"
  bottom: "W_hc_h_0"
  bottom: "W_xc_x_1"
  top: "gate_input_1"
  eltwise_param {
    operation: SUM
  }
}
layer {
  name: "lstm1_unit_1"
  type: "LSTMUnit"
  bottom: "c_0"
  bottom: "gate_input_1"
  bottom: "cont_1"
  top: "c_1"
  top: "h_1"
}
layer {
  name: "lstm1_"
  type: "Split"
  bottom: "c_1"
  top: "c_T"
}
layer {
  name: "lstm1_h_concat"
  type: "Concat"
  bottom: "h_1"
  top: "h"
  concat_param {
    axis: 0
  }
}
layer {
  name: "h_pseudoloss"
  type: "Reduction"
  bottom: "h"
  top: "h_pseudoloss"
  loss_weight: 1
}
I0720 16:36:07.314664  2893 layer_factory.hpp:77] Creating layer lstm1_
I0720 16:36:07.314676  2893 net.cpp:91] Creating Layer lstm1_
I0720 16:36:07.314682  2893 net.cpp:399] lstm1_ -> x
I0720 16:36:07.314705  2893 net.cpp:399] lstm1_ -> cont
I0720 16:36:07.340297  2893 net.cpp:141] Setting up lstm1_
I0720 16:36:07.340342  2893 net.cpp:148] Top shape: 1 1 500 (500)
I0720 16:36:07.340349  2893 net.cpp:148] Top shape: 1 1 (1)
I0720 16:36:07.340354  2893 net.cpp:156] Memory required for data: 2004
I0720 16:36:07.340363  2893 layer_factory.hpp:77] Creating layer lstm1_
I0720 16:36:07.340386  2893 net.cpp:91] Creating Layer lstm1_
I0720 16:36:07.340394  2893 net.cpp:399] lstm1_ -> c_0
I0720 16:36:07.340410  2893 net.cpp:399] lstm1_ -> h_0
I0720 16:36:07.360465  2893 net.cpp:141] Setting up lstm1_
I0720 16:36:07.360507  2893 net.cpp:148] Top shape: 1 1 1000 (1000)
I0720 16:36:07.360514  2893 net.cpp:148] Top shape: 1 1 1000 (1000)
I0720 16:36:07.360519  2893 net.cpp:156] Memory required for data: 10004
I0720 16:36:07.360525  2893 layer_factory.hpp:77] Creating layer lstm1_cont_slice
I0720 16:36:07.360544  2893 net.cpp:91] Creating Layer lstm1_cont_slice
I0720 16:36:07.360551  2893 net.cpp:425] lstm1_cont_slice <- cont
I0720 16:36:07.360560  2893 net.cpp:399] lstm1_cont_slice -> cont_1
I0720 16:36:07.370574  2889 net.cpp:141] Setting up embedding
I0720 16:36:07.370600  2889 net.cpp:148] Top shape: 1 1 500 (500)
I0720 16:36:07.370606  2889 net.cpp:156] Memory required for data: 22408
I0720 16:36:07.370620  2889 layer_factory.hpp:77] Creating layer lstm1
I0720 16:36:07.370648  2889 net.cpp:91] Creating Layer lstm1
I0720 16:36:07.370656  2889 net.cpp:425] lstm1 <- embedded_input_frames
I0720 16:36:07.370662  2889 net.cpp:425] lstm1 <- cont_sentence_input_1_split_0
I0720 16:36:07.370671  2889 net.cpp:399] lstm1 -> lstm1
I0720 16:36:07.370682  2889 recurrent_layer.cpp:20] Initializing recurrent layer: assuming input batch contains 1 timesteps of 1 independent streams.
I0720 16:36:07.370965  2889 net.cpp:49] Initializing net from parameters: 
layer {
  name: "lstm1_"
  type: "Input"
  top: "x"
  top: "cont"
  input_param {
    shape {
      dim: 1
      dim: 1
      dim: 500
    }
    shape {
      dim: 1
      dim: 1
    }
  }
}
layer {
  name: "lstm1_"
  type: "Input"
  top: "c_0"
  top: "h_0"
  input_param {
    shape {
      dim: 1
      dim: 1
      dim: 1000
    }
    shape {
      dim: 1
      dim: 1
      dim: 1000
    }
  }
}
layer {
  name: "lstm1_cont_slice"
  type: "Slice"
  bottom: "cont"
  top: "cont_1"
  slice_param {
    axis: 0
  }
}
layer {
  name: "lstm1_x_transform"
  type: "InnerProduct"
  bottom: "x"
  top: "W_xc_x"
  param {
    name: "W_xc"
  }
  param {
    name: "b_c"
  }
  propagate_down: true
  inner_product_param {
    num_output: 4000
    bias_term: true
    weight_filler {
      type: "uniform"
      min: -0.08
      max: 0.08
    }
    bias_filler {
      type: "constant"
      value: 0
    }
    axis: 2
  }
}
layer {
  name: "lstm1_W_xc_x_slice"
  type: "Slice"
  bottom: "W_xc_x"
  top: "W_xc_x_1"
  slice_param {
    axis: 0
  }
}
layer {
  name: "lstm1_h_conted_0"
  type: "Scale"
  bottom: "h_0"
  bottom: "cont_1"
  top: "h_conted_0"
  scale_param {
    axis: 0
  }
}
layer {
  name: "lstm1_transform_1"
  type: "InnerProduct"
  bottom: "h_conted_0"
  top: "W_hc_h_0"
  param {
    name: "W_hc"
  }
  inner_product_param {
    num_output: 4000
    bias_term: false
    weight_filler {
      type: "uniform"
      min: -0.08
      max: 0.08
    }
    axis: 2
  }
}
layer {
  name: "lstm1_gate_input_1"
  type: "Eltwise"
  bottom: "W_hc_h_0"
  bottom: "W_xc_x_1"
  top: "gate_input_1"
  eltwise_param {
    operation: SUM
  }
}
layer {
  name: "lstm1_unit_1"
  type: "LSTMUnit"
  bottom: "c_0"
  bottom: "gate_input_1"
  bottom: "cont_1"
  top: "c_1"
  top: "h_1"
}
layer {
  name: "lstm1_"
  type: "Split"
  bottom: "c_1"
  top: "c_T"
}
layer {
  name: "lstm1_h_concat"
  type: "Concat"
  bottom: "h_1"
  top: "h"
  concat_param {
    axis: 0
  }
}
layer {
  name: "h_pseudoloss"
  type: "Reduction"
  bottom: "h"
  top: "h_pseudoloss"
  loss_weight: 1
}
I0720 16:36:07.371049  2889 layer_factory.hpp:77] Creating layer lstm1_
I0720 16:36:07.371060  2889 net.cpp:91] Creating Layer lstm1_
I0720 16:36:07.371067  2889 net.cpp:399] lstm1_ -> x
I0720 16:36:07.371078  2889 net.cpp:399] lstm1_ -> cont
I0720 16:36:07.381983  2893 net.cpp:141] Setting up lstm1_cont_slice
I0720 16:36:07.382009  2893 net.cpp:148] Top shape: 1 1 (1)
I0720 16:36:07.382014  2893 net.cpp:156] Memory required for data: 10008
I0720 16:36:07.382020  2893 layer_factory.hpp:77] Creating layer cont_1_lstm1_cont_slice_0_split
I0720 16:36:07.382031  2893 net.cpp:91] Creating Layer cont_1_lstm1_cont_slice_0_split
I0720 16:36:07.382036  2893 net.cpp:425] cont_1_lstm1_cont_slice_0_split <- cont_1
I0720 16:36:07.382045  2893 net.cpp:399] cont_1_lstm1_cont_slice_0_split -> cont_1_lstm1_cont_slice_0_split_0
I0720 16:36:07.382055  2893 net.cpp:399] cont_1_lstm1_cont_slice_0_split -> cont_1_lstm1_cont_slice_0_split_1
I0720 16:36:07.402698  2889 net.cpp:141] Setting up lstm1_
I0720 16:36:07.402734  2889 net.cpp:148] Top shape: 1 1 500 (500)
I0720 16:36:07.402740  2889 net.cpp:148] Top shape: 1 1 (1)
I0720 16:36:07.402745  2889 net.cpp:156] Memory required for data: 2004
I0720 16:36:07.402752  2889 layer_factory.hpp:77] Creating layer lstm1_
I0720 16:36:07.402777  2889 net.cpp:91] Creating Layer lstm1_
I0720 16:36:07.402781  2893 net.cpp:141] Setting up cont_1_lstm1_cont_slice_0_split
I0720 16:36:07.402786  2889 net.cpp:399] lstm1_ -> c_0
I0720 16:36:07.402802  2893 net.cpp:148] Top shape: 1 1 (1)
I0720 16:36:07.402809  2893 net.cpp:148] Top shape: 1 1 (1)
I0720 16:36:07.402813  2889 net.cpp:399] lstm1_ -> h_0
I0720 16:36:07.402813  2893 net.cpp:156] Memory required for data: 10016
I0720 16:36:07.402827  2893 layer_factory.hpp:77] Creating layer lstm1_x_transform
I0720 16:36:07.402845  2893 net.cpp:91] Creating Layer lstm1_x_transform
I0720 16:36:07.402851  2893 net.cpp:425] lstm1_x_transform <- x
I0720 16:36:07.402863  2893 net.cpp:399] lstm1_x_transform -> W_xc_x
I0720 16:36:07.431005  2889 net.cpp:141] Setting up lstm1_
I0720 16:36:07.431049  2889 net.cpp:148] Top shape: 1 1 1000 (1000)
I0720 16:36:07.431056  2889 net.cpp:148] Top shape: 1 1 1000 (1000)
I0720 16:36:07.431061  2889 net.cpp:156] Memory required for data: 10004
I0720 16:36:07.431069  2889 layer_factory.hpp:77] Creating layer lstm1_cont_slice
I0720 16:36:07.431089  2889 net.cpp:91] Creating Layer lstm1_cont_slice
I0720 16:36:07.431095  2889 net.cpp:425] lstm1_cont_slice <- cont
I0720 16:36:07.431108  2889 net.cpp:399] lstm1_cont_slice -> cont_1
I0720 16:36:07.446487  2889 net.cpp:141] Setting up lstm1_cont_slice
I0720 16:36:07.446521  2889 net.cpp:148] Top shape: 1 1 (1)
I0720 16:36:07.446527  2889 net.cpp:156] Memory required for data: 10008
I0720 16:36:07.446534  2889 layer_factory.hpp:77] Creating layer cont_1_lstm1_cont_slice_0_split
I0720 16:36:07.446547  2889 net.cpp:91] Creating Layer cont_1_lstm1_cont_slice_0_split
I0720 16:36:07.446552  2889 net.cpp:425] cont_1_lstm1_cont_slice_0_split <- cont_1
I0720 16:36:07.446560  2889 net.cpp:399] cont_1_lstm1_cont_slice_0_split -> cont_1_lstm1_cont_slice_0_split_0
I0720 16:36:07.446571  2889 net.cpp:399] cont_1_lstm1_cont_slice_0_split -> cont_1_lstm1_cont_slice_0_split_1
I0720 16:36:07.476848  2889 net.cpp:141] Setting up cont_1_lstm1_cont_slice_0_split
I0720 16:36:07.476887  2889 net.cpp:148] Top shape: 1 1 (1)
I0720 16:36:07.476894  2889 net.cpp:148] Top shape: 1 1 (1)
I0720 16:36:07.476899  2889 net.cpp:156] Memory required for data: 10016
I0720 16:36:07.476905  2889 layer_factory.hpp:77] Creating layer lstm1_x_transform
I0720 16:36:07.476927  2889 net.cpp:91] Creating Layer lstm1_x_transform
I0720 16:36:07.476933  2889 net.cpp:425] lstm1_x_transform <- x
I0720 16:36:07.476944  2889 net.cpp:399] lstm1_x_transform -> W_xc_x
I0720 16:36:07.507797  2893 net.cpp:141] Setting up lstm1_x_transform
I0720 16:36:07.507854  2893 net.cpp:148] Top shape: 1 1 4000 (4000)
I0720 16:36:07.507860  2893 net.cpp:156] Memory required for data: 26016
I0720 16:36:07.507881  2893 layer_factory.hpp:77] Creating layer lstm1_W_xc_x_slice
I0720 16:36:07.507894  2893 net.cpp:91] Creating Layer lstm1_W_xc_x_slice
I0720 16:36:07.507900  2893 net.cpp:425] lstm1_W_xc_x_slice <- W_xc_x
I0720 16:36:07.507908  2893 net.cpp:399] lstm1_W_xc_x_slice -> W_xc_x_1
I0720 16:36:07.508656  2893 net.cpp:141] Setting up lstm1_W_xc_x_slice
I0720 16:36:07.508674  2893 net.cpp:148] Top shape: 1 1 4000 (4000)
I0720 16:36:07.508679  2893 net.cpp:156] Memory required for data: 42016
I0720 16:36:07.508683  2893 layer_factory.hpp:77] Creating layer lstm1_h_conted_0
I0720 16:36:07.508703  2893 net.cpp:91] Creating Layer lstm1_h_conted_0
I0720 16:36:07.508709  2893 net.cpp:425] lstm1_h_conted_0 <- h_0
I0720 16:36:07.508715  2893 net.cpp:425] lstm1_h_conted_0 <- cont_1_lstm1_cont_slice_0_split_0
I0720 16:36:07.508725  2893 net.cpp:399] lstm1_h_conted_0 -> h_conted_0
I0720 16:36:07.510732  2893 net.cpp:141] Setting up lstm1_h_conted_0
I0720 16:36:07.510758  2893 net.cpp:148] Top shape: 1 1 1000 (1000)
I0720 16:36:07.510763  2893 net.cpp:156] Memory required for data: 46016
I0720 16:36:07.510769  2893 layer_factory.hpp:77] Creating layer lstm1_transform_1
I0720 16:36:07.510783  2893 net.cpp:91] Creating Layer lstm1_transform_1
I0720 16:36:07.510789  2893 net.cpp:425] lstm1_transform_1 <- h_conted_0
I0720 16:36:07.510800  2893 net.cpp:399] lstm1_transform_1 -> W_hc_h_0
I0720 16:36:07.527897  2889 net.cpp:141] Setting up lstm1_x_transform
I0720 16:36:07.527940  2889 net.cpp:148] Top shape: 1 1 4000 (4000)
I0720 16:36:07.527946  2889 net.cpp:156] Memory required for data: 26016
I0720 16:36:07.527966  2889 layer_factory.hpp:77] Creating layer lstm1_W_xc_x_slice
I0720 16:36:07.527982  2889 net.cpp:91] Creating Layer lstm1_W_xc_x_slice
I0720 16:36:07.527990  2889 net.cpp:425] lstm1_W_xc_x_slice <- W_xc_x
I0720 16:36:07.527999  2889 net.cpp:399] lstm1_W_xc_x_slice -> W_xc_x_1
I0720 16:36:07.528131  2889 net.cpp:141] Setting up lstm1_W_xc_x_slice
I0720 16:36:07.528143  2889 net.cpp:148] Top shape: 1 1 4000 (4000)
I0720 16:36:07.528148  2889 net.cpp:156] Memory required for data: 42016
I0720 16:36:07.528152  2889 layer_factory.hpp:77] Creating layer lstm1_h_conted_0
I0720 16:36:07.528162  2889 net.cpp:91] Creating Layer lstm1_h_conted_0
I0720 16:36:07.528167  2889 net.cpp:425] lstm1_h_conted_0 <- h_0
I0720 16:36:07.528172  2889 net.cpp:425] lstm1_h_conted_0 <- cont_1_lstm1_cont_slice_0_split_0
I0720 16:36:07.528178  2889 net.cpp:399] lstm1_h_conted_0 -> h_conted_0
I0720 16:36:07.528878  2901 net.cpp:141] Setting up conv1
I0720 16:36:07.528899  2901 net.cpp:148] Top shape: 10 96 55 55 (2904000)
I0720 16:36:07.528904  2901 net.cpp:156] Memory required for data: 17799480
I0720 16:36:07.528923  2901 layer_factory.hpp:77] Creating layer relu1
I0720 16:36:07.528935  2901 net.cpp:91] Creating Layer relu1
I0720 16:36:07.528941  2901 net.cpp:425] relu1 <- conv1
I0720 16:36:07.528950  2901 net.cpp:386] relu1 -> conv1 (in-place)
I0720 16:36:07.529716  2889 net.cpp:141] Setting up lstm1_h_conted_0
I0720 16:36:07.529727  2889 net.cpp:148] Top shape: 1 1 1000 (1000)
I0720 16:36:07.529731  2889 net.cpp:156] Memory required for data: 46016
I0720 16:36:07.529736  2889 layer_factory.hpp:77] Creating layer lstm1_transform_1
I0720 16:36:07.529752  2889 net.cpp:91] Creating Layer lstm1_transform_1
I0720 16:36:07.529757  2889 net.cpp:425] lstm1_transform_1 <- h_conted_0
I0720 16:36:07.529765  2889 net.cpp:399] lstm1_transform_1 -> W_hc_h_0
I0720 16:36:07.529850  2901 net.cpp:141] Setting up relu1
I0720 16:36:07.529870  2901 net.cpp:148] Top shape: 10 96 55 55 (2904000)
I0720 16:36:07.529875  2901 net.cpp:156] Memory required for data: 29415480
I0720 16:36:07.529881  2901 layer_factory.hpp:77] Creating layer pool1
I0720 16:36:07.529896  2901 net.cpp:91] Creating Layer pool1
I0720 16:36:07.529901  2901 net.cpp:425] pool1 <- conv1
I0720 16:36:07.529907  2901 net.cpp:399] pool1 -> pool1
I0720 16:36:07.530768  2907 net.cpp:141] Setting up conv1
I0720 16:36:07.530810  2907 net.cpp:148] Top shape: 10 96 55 55 (2904000)
I0720 16:36:07.530817  2907 net.cpp:156] Memory required for data: 17799480
I0720 16:36:07.530823  2901 net.cpp:141] Setting up pool1
I0720 16:36:07.530838  2901 net.cpp:148] Top shape: 10 96 27 27 (699840)
I0720 16:36:07.530839  2907 layer_factory.hpp:77] Creating layer relu1
I0720 16:36:07.530843  2901 net.cpp:156] Memory required for data: 32214840
I0720 16:36:07.530856  2901 layer_factory.hpp:77] Creating layer norm1
I0720 16:36:07.530863  2907 net.cpp:91] Creating Layer relu1
I0720 16:36:07.530869  2907 net.cpp:425] relu1 <- conv1
I0720 16:36:07.530884  2907 net.cpp:386] relu1 -> conv1 (in-place)
I0720 16:36:07.530887  2901 net.cpp:91] Creating Layer norm1
I0720 16:36:07.530895  2901 net.cpp:425] norm1 <- pool1
I0720 16:36:07.530902  2901 net.cpp:399] norm1 -> norm1
I0720 16:36:07.540807  2901 net.cpp:141] Setting up norm1
I0720 16:36:07.540853  2901 net.cpp:148] Top shape: 10 96 27 27 (699840)
I0720 16:36:07.540858  2901 net.cpp:156] Memory required for data: 35014200
I0720 16:36:07.540868  2901 layer_factory.hpp:77] Creating layer conv2
I0720 16:36:07.540895  2901 net.cpp:91] Creating Layer conv2
I0720 16:36:07.540904  2901 net.cpp:425] conv2 <- norm1
I0720 16:36:07.540897  2907 net.cpp:141] Setting up relu1
I0720 16:36:07.540915  2901 net.cpp:399] conv2 -> conv2
I0720 16:36:07.540923  2907 net.cpp:148] Top shape: 10 96 55 55 (2904000)
I0720 16:36:07.540930  2907 net.cpp:156] Memory required for data: 29415480
I0720 16:36:07.540936  2907 layer_factory.hpp:77] Creating layer pool1
I0720 16:36:07.540957  2907 net.cpp:91] Creating Layer pool1
I0720 16:36:07.540964  2907 net.cpp:425] pool1 <- conv1
I0720 16:36:07.540973  2907 net.cpp:399] pool1 -> pool1
I0720 16:36:07.541316  2907 net.cpp:141] Setting up pool1
I0720 16:36:07.541329  2907 net.cpp:148] Top shape: 10 96 27 27 (699840)
I0720 16:36:07.541334  2907 net.cpp:156] Memory required for data: 32214840
I0720 16:36:07.541339  2907 layer_factory.hpp:77] Creating layer norm1
I0720 16:36:07.541357  2907 net.cpp:91] Creating Layer norm1
I0720 16:36:07.541363  2907 net.cpp:425] norm1 <- pool1
I0720 16:36:07.541373  2907 net.cpp:399] norm1 -> norm1
I0720 16:36:07.544703  2907 net.cpp:141] Setting up norm1
I0720 16:36:07.544728  2907 net.cpp:148] Top shape: 10 96 27 27 (699840)
I0720 16:36:07.544734  2907 net.cpp:156] Memory required for data: 35014200
I0720 16:36:07.544739  2907 layer_factory.hpp:77] Creating layer conv2
I0720 16:36:07.544760  2907 net.cpp:91] Creating Layer conv2
I0720 16:36:07.544766  2907 net.cpp:425] conv2 <- norm1
I0720 16:36:07.544775  2907 net.cpp:399] conv2 -> conv2
I0720 16:36:07.552489  2901 net.cpp:141] Setting up conv2
I0720 16:36:07.552528  2901 net.cpp:148] Top shape: 10 256 27 27 (1866240)
I0720 16:36:07.552534  2901 net.cpp:156] Memory required for data: 42479160
I0720 16:36:07.552552  2901 layer_factory.hpp:77] Creating layer relu2
I0720 16:36:07.552579  2901 net.cpp:91] Creating Layer relu2
I0720 16:36:07.552587  2901 net.cpp:425] relu2 <- conv2
I0720 16:36:07.552595  2901 net.cpp:386] relu2 -> conv2 (in-place)
I0720 16:36:07.553555  2901 net.cpp:141] Setting up relu2
I0720 16:36:07.553570  2901 net.cpp:148] Top shape: 10 256 27 27 (1866240)
I0720 16:36:07.553575  2901 net.cpp:156] Memory required for data: 49944120
I0720 16:36:07.553580  2901 layer_factory.hpp:77] Creating layer pool2
I0720 16:36:07.553593  2901 net.cpp:91] Creating Layer pool2
I0720 16:36:07.553598  2901 net.cpp:425] pool2 <- conv2
I0720 16:36:07.553607  2901 net.cpp:399] pool2 -> pool2
I0720 16:36:07.553769  2907 net.cpp:141] Setting up conv2
I0720 16:36:07.553786  2901 net.cpp:141] Setting up pool2
I0720 16:36:07.553798  2901 net.cpp:148] Top shape: 10 256 13 13 (432640)
I0720 16:36:07.553802  2907 net.cpp:148] Top shape: 10 256 27 27 (1866240)
I0720 16:36:07.553802  2901 net.cpp:156] Memory required for data: 51674680
I0720 16:36:07.553812  2907 net.cpp:156] Memory required for data: 42479160
I0720 16:36:07.553817  2901 layer_factory.hpp:77] Creating layer norm2
I0720 16:36:07.553829  2907 layer_factory.hpp:77] Creating layer relu2
I0720 16:36:07.553833  2901 net.cpp:91] Creating Layer norm2
I0720 16:36:07.553838  2901 net.cpp:425] norm2 <- pool2
I0720 16:36:07.553844  2907 net.cpp:91] Creating Layer relu2
I0720 16:36:07.553850  2901 net.cpp:399] norm2 -> norm2
I0720 16:36:07.553851  2907 net.cpp:425] relu2 <- conv2
I0720 16:36:07.553870  2907 net.cpp:386] relu2 -> conv2 (in-place)
I0720 16:36:07.554927  2901 net.cpp:141] Setting up norm2
I0720 16:36:07.554940  2901 net.cpp:148] Top shape: 10 256 13 13 (432640)
I0720 16:36:07.554945  2901 net.cpp:156] Memory required for data: 53405240
I0720 16:36:07.554950  2901 layer_factory.hpp:77] Creating layer conv3
I0720 16:36:07.554963  2901 net.cpp:91] Creating Layer conv3
I0720 16:36:07.554967  2901 net.cpp:425] conv3 <- norm2
I0720 16:36:07.554978  2901 net.cpp:399] conv3 -> conv3
I0720 16:36:07.555016  2907 net.cpp:141] Setting up relu2
I0720 16:36:07.555032  2907 net.cpp:148] Top shape: 10 256 27 27 (1866240)
I0720 16:36:07.555037  2907 net.cpp:156] Memory required for data: 49944120
I0720 16:36:07.555043  2907 layer_factory.hpp:77] Creating layer pool2
I0720 16:36:07.555053  2907 net.cpp:91] Creating Layer pool2
I0720 16:36:07.555059  2907 net.cpp:425] pool2 <- conv2
I0720 16:36:07.555070  2907 net.cpp:399] pool2 -> pool2
I0720 16:36:07.555361  2907 net.cpp:141] Setting up pool2
I0720 16:36:07.555372  2907 net.cpp:148] Top shape: 10 256 13 13 (432640)
I0720 16:36:07.555377  2907 net.cpp:156] Memory required for data: 51674680
I0720 16:36:07.555382  2907 layer_factory.hpp:77] Creating layer norm2
I0720 16:36:07.555398  2907 net.cpp:91] Creating Layer norm2
I0720 16:36:07.555404  2907 net.cpp:425] norm2 <- pool2
I0720 16:36:07.555413  2907 net.cpp:399] norm2 -> norm2
I0720 16:36:07.555706  2893 net.cpp:141] Setting up lstm1_transform_1
I0720 16:36:07.555724  2893 net.cpp:148] Top shape: 1 1 4000 (4000)
I0720 16:36:07.555729  2893 net.cpp:156] Memory required for data: 62016
I0720 16:36:07.555740  2893 layer_factory.hpp:77] Creating layer lstm1_gate_input_1
I0720 16:36:07.555753  2893 net.cpp:91] Creating Layer lstm1_gate_input_1
I0720 16:36:07.555759  2893 net.cpp:425] lstm1_gate_input_1 <- W_hc_h_0
I0720 16:36:07.555765  2893 net.cpp:425] lstm1_gate_input_1 <- W_xc_x_1
I0720 16:36:07.555773  2893 net.cpp:399] lstm1_gate_input_1 -> gate_input_1
I0720 16:36:07.558782  2893 net.cpp:141] Setting up lstm1_gate_input_1
I0720 16:36:07.558801  2907 net.cpp:141] Setting up norm2
I0720 16:36:07.558806  2893 net.cpp:148] Top shape: 1 1 4000 (4000)
I0720 16:36:07.558820  2907 net.cpp:148] Top shape: 10 256 13 13 (432640)
I0720 16:36:07.558822  2893 net.cpp:156] Memory required for data: 78016
I0720 16:36:07.558830  2907 net.cpp:156] Memory required for data: 53405240
I0720 16:36:07.558840  2893 layer_factory.hpp:77] Creating layer lstm1_unit_1
I0720 16:36:07.558847  2907 layer_factory.hpp:77] Creating layer conv3
I0720 16:36:07.558857  2893 net.cpp:91] Creating Layer lstm1_unit_1
I0720 16:36:07.558863  2893 net.cpp:425] lstm1_unit_1 <- c_0
I0720 16:36:07.558866  2907 net.cpp:91] Creating Layer conv3
I0720 16:36:07.558871  2893 net.cpp:425] lstm1_unit_1 <- gate_input_1
I0720 16:36:07.558872  2907 net.cpp:425] conv3 <- norm2
I0720 16:36:07.558876  2893 net.cpp:425] lstm1_unit_1 <- cont_1_lstm1_cont_slice_0_split_1
I0720 16:36:07.558881  2907 net.cpp:399] conv3 -> conv3
I0720 16:36:07.558887  2893 net.cpp:399] lstm1_unit_1 -> c_1
I0720 16:36:07.558898  2893 net.cpp:399] lstm1_unit_1 -> h_1
I0720 16:36:07.559298  2893 net.cpp:141] Setting up lstm1_unit_1
I0720 16:36:07.559309  2893 net.cpp:148] Top shape: 1 1 1000 (1000)
I0720 16:36:07.559315  2893 net.cpp:148] Top shape: 1 1 1000 (1000)
I0720 16:36:07.559319  2893 net.cpp:156] Memory required for data: 86016
I0720 16:36:07.559324  2893 layer_factory.hpp:77] Creating layer lstm1_
I0720 16:36:07.559331  2893 net.cpp:91] Creating Layer lstm1_
I0720 16:36:07.559335  2893 net.cpp:425] lstm1_ <- c_1
I0720 16:36:07.559342  2893 net.cpp:399] lstm1_ -> c_T
I0720 16:36:07.559412  2893 net.cpp:141] Setting up lstm1_
I0720 16:36:07.559422  2893 net.cpp:148] Top shape: 1 1 1000 (1000)
I0720 16:36:07.559427  2893 net.cpp:156] Memory required for data: 90016
I0720 16:36:07.559430  2893 layer_factory.hpp:77] Creating layer lstm1_h_concat
I0720 16:36:07.559438  2893 net.cpp:91] Creating Layer lstm1_h_concat
I0720 16:36:07.559443  2893 net.cpp:425] lstm1_h_concat <- h_1
I0720 16:36:07.559449  2893 net.cpp:399] lstm1_h_concat -> h
I0720 16:36:07.559586  2893 net.cpp:141] Setting up lstm1_h_concat
I0720 16:36:07.559597  2893 net.cpp:148] Top shape: 1 1 1000 (1000)
I0720 16:36:07.559600  2893 net.cpp:156] Memory required for data: 94016
I0720 16:36:07.559605  2893 layer_factory.hpp:77] Creating layer h_pseudoloss
I0720 16:36:07.559620  2893 net.cpp:91] Creating Layer h_pseudoloss
I0720 16:36:07.559625  2893 net.cpp:425] h_pseudoloss <- h
I0720 16:36:07.559634  2893 net.cpp:399] h_pseudoloss -> h_pseudoloss
I0720 16:36:07.560683  2893 net.cpp:141] Setting up h_pseudoloss
…
I0720 16:36:07.560791  2893 net.cpp:219] lstm1_ does not need backward computation.
I0720 16:36:07.560794  2893 net.cpp:261] This network produces output c_T
I0720 16:36:07.560798  2893 net.cpp:261] This network produces output h_pseudoloss
I0720 16:36:07.560813  2893 net.cpp:274] Network initialization done.
I0720 16:36:07.560865  2893 recurrent_layer.cpp:150] Adding parameter 0: W_xc
I0720 16:36:07.560871  2893 recurrent_layer.cpp:150] Adding parameter 1: b_c
I0720 16:36:07.560875  2893 recurrent_layer.cpp:150] Adding parameter 2: W_hc
I0720 16:36:07.564739  2893 net.cpp:141] Setting up lstm1
I0720 16:36:07.564755  2893 net.cpp:148] Top shape: 1 1 1000 (1000)
I0720 16:36:07.564759  2893 net.cpp:156] Memory required for data: 26408
I0720 16:36:07.564774  2893 layer_factory.hpp:77] Creating layer concat
I0720 16:36:07.564782  2893 net.cpp:91] Creating Layer concat
I0720 16:36:07.564788  2893 net.cpp:425] concat <- lstm1
I0720 16:36:07.564795  2893 net.cpp:425] concat <- embedded_input_sentence
I0720 16:36:07.564800  2893 net.cpp:425] concat <- reshaped_stage_indicator
I0720 16:36:07.564806  2893 net.cpp:399] concat -> lstm1_video_sequence
I0720 16:36:07.565680  2893 net.cpp:141] Setting up concat
I0720 16:36:07.565699  2893 net.cpp:148] Top shape: 1 1 1501 (1501)
I0720 16:36:07.565704  2893 net.cpp:156] Memory required for data: 32412
I0720 16:36:07.565709  2893 layer_factory.hpp:77] Creating layer lstm2
I0720 16:36:07.565722  2893 net.cpp:91] Creating Layer lstm2
I0720 16:36:07.565728  2893 net.cpp:425] lstm2 <- lstm1_video_sequence
I0720 16:36:07.565734  2893 net.cpp:425] lstm2 <- cont_sentence_input_1_split_1
I0720 16:36:07.565742  2893 net.cpp:399] lstm2 -> lstm2
I0720 16:36:07.565753  2893 recurrent_layer.cpp:20] Initializing recurrent layer: assuming input batch contains 1 timesteps of 1 independent streams.
I0720 16:36:07.566002  2893 net.cpp:49] Initializing net from parameters: 
layer {
  name: "lstm2_"
  type: "Input"
  top: "x"
  top: "cont"
  input_param {
    shape {
      dim: 1
      dim: 1
      dim: 1501
    }
    shape {
      dim: 1
      dim: 1
    }
  }
}
layer {
  name: "lstm2_"
  type: "Input"
  top: "c_0"
  top: "h_0"
  input_param {
    shape {
      dim: 1
      dim: 1
      dim: 1000
    }
    shape {
      dim: 1
      dim: 1
      dim: 1000
    }
  }
}
layer {
  name: "lstm2_cont_slice"
  type: "Slice"
  bottom: "cont"
  top: "cont_1"
  slice_param {
    axis: 0
  }
}
layer {
  name: "lstm2_x_transform"
  type: "InnerProduct"
  bottom: "x"
  top: "W_xc_x"
  param {
    name: "W_xc"
  }
  param {
    name: "b_c"
  }
  propagate_down: true
  inner_product_param {
    num_output: 4000
    bias_term: true
    weight_filler {
      type: "uniform"
      min: -0.08
      max: 0.08
    }
    bias_filler {
      type: "constant"
      value: 0
    }
    axis: 2
  }
}
layer {
  name: "lstm2_W_xc_x_slice"
  type: "Slice"
  bottom: "W_xc_x"
  top: "W_xc_x_1"
  slice_param {
    axis: 0
  }
}
layer {
  name: "lstm2_h_conted_0"
  type: "Scale"
  bottom: "h_0"
  bottom: "cont_1"
  top: "h_conted_0"
  scale_param {
    axis: 0
  }
}
layer {
  name: "lstm2_transform_1"
  type: "InnerProduct"
  bottom: "h_conted_0"
  top: "W_hc_h_0"
  param {
    name: "W_hc"
  }
  inner_product_param {
    num_output: 4000
    bias_term: false
    weight_filler {
      type: "uniform"
      min: -0.08
      max: 0.08
    }
    axis: 2
  }
}
layer {
  name: "lstm2_gate_input_1"
  type: "Eltwise"
  bottom: "W_hc_h_0"
  bottom: "W_xc_x_1"
  top: "gate_input_1"
  eltwise_param {
    operation: SUM
  }
}
layer {
  name: "lstm2_unit_1"
  type: "LSTMUnit"
  bottom: "c_0"
  bottom: "gate_input_1"
  bottom: "cont_1"
  top: "c_1"
  top: "h_1"
}
layer {
  name: "lstm2_"
  type: "Split"
  bottom: "c_1"
  top: "c_T"
}
layer {
  name: "lstm2_h_concat"
  type: "Concat"
  bottom: "h_1"
  top: "h"
  concat_param {
    axis: 0
  }
}
layer {
  name: "h_pseudoloss"
  type: "Reduction"
  bottom: "h"
  top: "h_pseudoloss"
  loss_weight: 1
}
I0720 16:36:07.566083  2893 layer_factory.hpp:77] Creating layer lstm2_
I0720 16:36:07.566094  2893 net.cpp:91] Creating Layer lstm2_
I0720 16:36:07.566100  2893 net.cpp:399] lstm2_ -> x
I0720 16:36:07.566112  2893 net.cpp:399] lstm2_ -> cont
I0720 16:36:07.567178  2893 net.cpp:141] Setting up lstm2_
I0720 16:36:07.567189  2893 net.cpp:148] Top shape: 1 1 1501 (1501)
I0720 16:36:07.567195  2893 net.cpp:148] Top shape: 1 1 (1)
I0720 16:36:07.567199  2893 net.cpp:156] Memory required for data: 6008
I0720 16:36:07.567204  2893 layer_factory.hpp:77] Creating layer lstm2_
I0720 16:36:07.567216  2893 net.cpp:91] Creating Layer lstm2_
I0720 16:36:07.567224  2893 net.cpp:399] lstm2_ -> c_0
I0720 16:36:07.567235  2893 net.cpp:399] lstm2_ -> h_0
I0720 16:36:07.567402  2893 net.cpp:141] Setting up lstm2_
I0720 16:36:07.567414  2893 net.cpp:148] Top shape: 1 1 1000 (1000)
I0720 16:36:07.567420  2893 net.cpp:148] Top shape: 1 1 1000 (1000)
I0720 16:36:07.567423  2893 net.cpp:156] Memory required for data: 14008
I0720 16:36:07.567427  2893 layer_factory.hpp:77] Creating layer lstm2_cont_slice
I0720 16:36:07.567438  2893 net.cpp:91] Creating Layer lstm2_cont_slice
I0720 16:36:07.567443  2893 net.cpp:425] lstm2_cont_slice <- cont
I0720 16:36:07.567451  2893 net.cpp:399] lstm2_cont_slice -> cont_1
I0720 16:36:07.567733  2893 net.cpp:141] Setting up lstm2_cont_slice
I0720 16:36:07.567744  2893 net.cpp:148] Top shape: 1 1 (1)
I0720 16:36:07.567749  2893 net.cpp:156] Memory required for data: 14012
I0720 16:36:07.567754  2893 layer_factory.hpp:77] Creating layer cont_1_lstm2_cont_slice_0_split
I0720 16:36:07.567759  2893 net.cpp:91] Creating Layer cont_1_lstm2_cont_slice_0_split
I0720 16:36:07.567764  2893 net.cpp:425] cont_1_lstm2_cont_slice_0_split <- cont_1
I0720 16:36:07.567770  2893 net.cpp:399] cont_1_lstm2_cont_slice_0_split -> cont_1_lstm2_cont_slice_0_split_0
I0720 16:36:07.567777  2893 net.cpp:399] cont_1_lstm2_cont_slice_0_split -> cont_1_lstm2_cont_slice_0_split_1
I0720 16:36:07.567807  2901 net.cpp:141] Setting up conv3
I0720 16:36:07.567826  2901 net.cpp:148] Top shape: 10 384 13 13 (648960)
I0720 16:36:07.567831  2901 net.cpp:156] Memory required for data: 56001080
I0720 16:36:07.567847  2901 layer_factory.hpp:77] Creating layer relu3
I0720 16:36:07.567858  2901 net.cpp:91] Creating Layer relu3
I0720 16:36:07.567863  2901 net.cpp:425] relu3 <- conv3
I0720 16:36:07.567873  2901 net.cpp:386] relu3 -> conv3 (in-place)
I0720 16:36:07.569316  2893 net.cpp:141] Setting up cont_1_lstm2_cont_slice_0_split
I0720 16:36:07.569327  2893 net.cpp:148] Top shape: 1 1 (1)
I0720 16:36:07.569334  2893 net.cpp:148] Top shape: 1 1 (1)
I0720 16:36:07.569337  2893 net.cpp:156] Memory required for data: 14020
I0720 16:36:07.569341  2893 layer_factory.hpp:77] Creating layer lstm2_x_transform
I0720 16:36:07.569355  2893 net.cpp:91] Creating Layer lstm2_x_transform
I0720 16:36:07.569360  2893 net.cpp:425] lstm2_x_transform <- x
I0720 16:36:07.569370  2893 net.cpp:399] lstm2_x_transform -> W_xc_x
I0720 16:36:07.580724  2901 net.cpp:141] Setting up relu3
I0720 16:36:07.580761  2901 net.cpp:148] Top shape: 10 384 13 13 (648960)
I0720 16:36:07.580767  2901 net.cpp:156] Memory required for data: 58596920
I0720 16:36:07.580775  2901 layer_factory.hpp:77] Creating layer conv4
I0720 16:36:07.580777  2889 net.cpp:141] Setting up lstm1_transform_1
I0720 16:36:07.580796  2889 net.cpp:148] Top shape: 1 1 4000 (4000)
I0720 16:36:07.580799  2901 net.cpp:91] Creating Layer conv4
I0720 16:36:07.580801  2889 net.cpp:156] Memory required for data: 62016
I0720 16:36:07.580806  2901 net.cpp:425] conv4 <- conv3
I0720 16:36:07.580816  2901 net.cpp:399] conv4 -> conv4
I0720 16:36:07.580816  2889 layer_factory.hpp:77] Creating layer lstm1_gate_input_1
I0720 16:36:07.580829  2889 net.cpp:91] Creating Layer lstm1_gate_input_1
I0720 16:36:07.580835  2889 net.cpp:425] lstm1_gate_input_1 <- W_hc_h_0
I0720 16:36:07.580842  2889 net.cpp:425] lstm1_gate_input_1 <- W_xc_x_1
I0720 16:36:07.580849  2889 net.cpp:399] lstm1_gate_input_1 -> gate_input_1
I0720 16:36:07.581939  2889 net.cpp:141] Setting up lstm1_gate_input_1
I0720 16:36:07.581959  2889 net.cpp:148] Top shape: 1 1 4000 (4000)
I0720 16:36:07.581964  2889 net.cpp:156] Memory required for data: 78016
I0720 16:36:07.581969  2889 layer_factory.hpp:77] Creating layer lstm1_unit_1
I0720 16:36:07.581979  2889 net.cpp:91] Creating Layer lstm1_unit_1
I0720 16:36:07.581984  2889 net.cpp:425] lstm1_unit_1 <- c_0
I0720 16:36:07.581991  2889 net.cpp:425] lstm1_unit_1 <- gate_input_1
I0720 16:36:07.581996  2889 net.cpp:425] lstm1_unit_1 <- cont_1_lstm1_cont_slice_0_split_1
I0720 16:36:07.582002  2889 net.cpp:399] lstm1_unit_1 -> c_1
I0720 16:36:07.582015  2889 net.cpp:399] lstm1_unit_1 -> h_1
I0720 16:36:07.582226  2907 net.cpp:141] Setting up conv3
I0720 16:36:07.582267  2907 net.cpp:148] Top shape: 10 384 13 13 (648960)
I0720 16:36:07.582275  2907 net.cpp:156] Memory required for data: 56001080
I0720 16:36:07.582298  2907 layer_factory.hpp:77] Creating layer relu3
I0720 16:36:07.582315  2907 net.cpp:91] Creating Layer relu3
I0720 16:36:07.582322  2907 net.cpp:425] relu3 <- conv3
I0720 16:36:07.582331  2907 net.cpp:386] relu3 -> conv3 (in-place)
I0720 16:36:07.582393  2889 net.cpp:141] Setting up lstm1_unit_1
I0720 16:36:07.582406  2889 net.cpp:148] Top shape: 1 1 1000 (1000)
I0720 16:36:07.582412  2889 net.cpp:148] Top shape: 1 1 1000 (1000)
I0720 16:36:07.582415  2889 net.cpp:156] Memory required for data: 86016
I0720 16:36:07.582420  2889 layer_factory.hpp:77] Creating layer lstm1_
I0720 16:36:07.582429  2889 net.cpp:91] Creating Layer lstm1_
I0720 16:36:07.582433  2889 net.cpp:425] lstm1_ <- c_1
I0720 16:36:07.582442  2889 net.cpp:399] lstm1_ -> c_T
I0720 16:36:07.584046  2889 net.cpp:141] Setting up lstm1_
I0720 16:36:07.584069  2889 net.cpp:148] Top shape: 1 1 1000 (1000)
I0720 16:36:07.584074  2889 net.cpp:156] Memory required for data: 90016
I0720 16:36:07.584080  2889 layer_factory.hpp:77] Creating layer lstm1_h_concat
I0720 16:36:07.584095  2889 net.cpp:91] Creating Layer lstm1_h_concat
I0720 16:36:07.584100  2889 net.cpp:425] lstm1_h_concat <- h_1
I0720 16:36:07.584108  2889 net.cpp:399] lstm1_h_concat -> h
I0720 16:36:07.586486  2889 net.cpp:141] Setting up lstm1_h_concat
I0720 16:36:07.586504  2907 net.cpp:141] Setting up relu3
I0720 16:36:07.586509  2889 net.cpp:148] Top shape: 1 1 1000 (1000)
I0720 16:36:07.586526  2907 net.cpp:148] Top shape: 10 384 13 13 (648960)
I0720 16:36:07.586529  2889 net.cpp:156] Memory required for data: 94016
I0720 16:36:07.586532  2907 net.cpp:156] Memory required for data: 58596920
I0720 16:36:07.586537  2889 layer_factory.hpp:77] Creating layer h_pseudoloss
I0720 16:36:07.586539  2907 layer_factory.hpp:77] Creating layer conv4
I0720 16:36:07.586549  2889 net.cpp:91] Creating Layer h_pseudoloss
I0720 16:36:07.586555  2889 net.cpp:425] h_pseudoloss <- h
…
I0720 16:36:07.587452  2889 net.cpp:219] lstm1_ does not need backward computation.
I0720 16:36:07.587455  2889 net.cpp:261] This network produces output c_T
I0720 16:36:07.587460  2889 net.cpp:261] This network produces output h_pseudoloss
I0720 16:36:07.587474  2889 net.cpp:274] Network initialization done.
I0720 16:36:07.587522  2889 recurrent_layer.cpp:150] Adding parameter 0: W_xc
I0720 16:36:07.587528  2889 recurrent_layer.cpp:150] Adding parameter 1: b_c
I0720 16:36:07.587532  2889 recurrent_layer.cpp:150] Adding parameter 2: W_hc
I0720 16:36:07.591501  2889 net.cpp:141] Setting up lstm1
I0720 16:36:07.591522  2889 net.cpp:148] Top shape: 1 1 1000 (1000)
I0720 16:36:07.591527  2889 net.cpp:156] Memory required for data: 26408
I0720 16:36:07.591542  2889 layer_factory.hpp:77] Creating layer concat
I0720 16:36:07.591553  2889 net.cpp:91] Creating Layer concat
I0720 16:36:07.591559  2889 net.cpp:425] concat <- lstm1
I0720 16:36:07.591565  2889 net.cpp:425] concat <- embedded_input_sentence
I0720 16:36:07.591572  2889 net.cpp:425] concat <- reshaped_stage_indicator
I0720 16:36:07.591578  2889 net.cpp:399] concat -> lstm1_video_sequence
I0720 16:36:07.591787  2889 net.cpp:141] Setting up concat
I0720 16:36:07.591799  2889 net.cpp:148] Top shape: 1 1 1501 (1501)
I0720 16:36:07.591804  2889 net.cpp:156] Memory required for data: 32412
I0720 16:36:07.591807  2889 layer_factory.hpp:77] Creating layer lstm2
I0720 16:36:07.591820  2889 net.cpp:91] Creating Layer lstm2
I0720 16:36:07.591825  2889 net.cpp:425] lstm2 <- lstm1_video_sequence
I0720 16:36:07.591830  2889 net.cpp:425] lstm2 <- cont_sentence_input_1_split_1
I0720 16:36:07.591837  2889 net.cpp:399] lstm2 -> lstm2
I0720 16:36:07.591847  2889 recurrent_layer.cpp:20] Initializing recurrent layer: assuming input batch contains 1 timesteps of 1 independent streams.
I0720 16:36:07.592095  2889 net.cpp:49] Initializing net from parameters: 
layer {
  name: "lstm2_"
  type: "Input"
  top: "x"
  top: "cont"
  input_param {
    shape {
      dim: 1
      dim: 1
      dim: 1501
    }
    shape {
      dim: 1
      dim: 1
    }
  }
}
layer {
  name: "lstm2_"
  type: "Input"
  top: "c_0"
  top: "h_0"
  input_param {
    shape {
      dim: 1
      dim: 1
      dim: 1000
    }
    shape {
      dim: 1
      dim: 1
      dim: 1000
    }
  }
}
layer {
  name: "lstm2_cont_slice"
  type: "Slice"
  bottom: "cont"
  top: "cont_1"
  slice_param {
    axis: 0
  }
}
layer {
  name: "lstm2_x_transform"
  type: "InnerProduct"
  bottom: "x"
  top: "W_xc_x"
  param {
    name: "W_xc"
  }
  param {
    name: "b_c"
  }
  propagate_down: true
  inner_product_param {
    num_output: 4000
    bias_term: true
    weight_filler {
      type: "uniform"
      min: -0.08
      max: 0.08
    }
    bias_filler {
      type: "constant"
      value: 0
    }
    axis: 2
  }
}
layer {
  name: "lstm2_W_xc_x_slice"
  type: "Slice"
  bottom: "W_xc_x"
  top: "W_xc_x_1"
  slice_param {
    axis: 0
  }
}
layer {
  name: "lstm2_h_conted_0"
  type: "Scale"
  bottom: "h_0"
  bottom: "cont_1"
  top: "h_conted_0"
  scale_param {
    axis: 0
  }
}
layer {
  name: "lstm2_transform_1"
  type: "InnerProduct"
  bottom: "h_conted_0"
  top: "W_hc_h_0"
  param {
    name: "W_hc"
  }
  inner_product_param {
    num_output: 4000
    bias_term: false
    weight_filler {
      type: "uniform"
      min: -0.08
      max: 0.08
    }
    axis: 2
  }
}
layer {
  name: "lstm2_gate_input_1"
  type: "Eltwise"
  bottom: "W_hc_h_0"
  bottom: "W_xc_x_1"
  top: "gate_input_1"
  eltwise_param {
    operation: SUM
  }
}
layer {
  name: "lstm2_unit_1"
  type: "LSTMUnit"
  bottom: "c_0"
  bottom: "gate_input_1"
  bottom: "cont_1"
  top: "c_1"
  top: "h_1"
}
layer {
  name: "lstm2_"
  type: "Split"
  bottom: "c_1"
  top: "c_T"
}
layer {
  name: "lstm2_h_concat"
  type: "Concat"
  bottom: "h_1"
  top: "h"
  concat_param {
    axis: 0
  }
}
layer {
  name: "h_pseudoloss"
  type: "Reduction"
  bottom: "h"
  top: "h_pseudoloss"
  loss_weight: 1
}
I0720 16:36:07.592180  2889 layer_factory.hpp:77] Creating layer lstm2_
I0720 16:36:07.592191  2889 net.cpp:91] Creating Layer lstm2_
I0720 16:36:07.592197  2889 net.cpp:399] lstm2_ -> x
I0720 16:36:07.592207  2889 net.cpp:399] lstm2_ -> cont
I0720 16:36:07.592762  2889 net.cpp:141] Setting up lstm2_
I0720 16:36:07.592774  2889 net.cpp:148] Top shape: 1 1 1501 (1501)
I0720 16:36:07.592780  2889 net.cpp:148] Top shape: 1 1 (1)
I0720 16:36:07.592784  2889 net.cpp:156] Memory required for data: 6008
I0720 16:36:07.592789  2889 layer_factory.hpp:77] Creating layer lstm2_
I0720 16:36:07.592798  2889 net.cpp:91] Creating Layer lstm2_
I0720 16:36:07.592806  2889 net.cpp:399] lstm2_ -> c_0
I0720 16:36:07.592816  2889 net.cpp:399] lstm2_ -> h_0
I0720 16:36:07.593696  2889 net.cpp:141] Setting up lstm2_
I0720 16:36:07.593708  2889 net.cpp:148] Top shape: 1 1 1000 (1000)
I0720 16:36:07.593713  2889 net.cpp:148] Top shape: 1 1 1000 (1000)
I0720 16:36:07.593718  2889 net.cpp:156] Memory required for data: 14008
I0720 16:36:07.593721  2889 layer_factory.hpp:77] Creating layer lstm2_cont_slice
I0720 16:36:07.593729  2889 net.cpp:91] Creating Layer lstm2_cont_slice
I0720 16:36:07.593734  2889 net.cpp:425] lstm2_cont_slice <- cont
I0720 16:36:07.593744  2889 net.cpp:399] lstm2_cont_slice -> cont_1
I0720 16:36:07.594070  2889 net.cpp:141] Setting up lstm2_cont_slice
I0720 16:36:07.594081  2889 net.cpp:148] Top shape: 1 1 (1)
I0720 16:36:07.594085  2889 net.cpp:156] Memory required for data: 14012
I0720 16:36:07.594090  2889 layer_factory.hpp:77] Creating layer cont_1_lstm2_cont_slice_0_split
I0720 16:36:07.594099  2889 net.cpp:91] Creating Layer cont_1_lstm2_cont_slice_0_split
I0720 16:36:07.594105  2889 net.cpp:425] cont_1_lstm2_cont_slice_0_split <- cont_1
I0720 16:36:07.594110  2889 net.cpp:399] cont_1_lstm2_cont_slice_0_split -> cont_1_lstm2_cont_slice_0_split_0
I0720 16:36:07.594118  2889 net.cpp:399] cont_1_lstm2_cont_slice_0_split -> cont_1_lstm2_cont_slice_0_split_1
I0720 16:36:07.595124  2889 net.cpp:141] Setting up cont_1_lstm2_cont_slice_0_split
I0720 16:36:07.595134  2889 net.cpp:148] Top shape: 1 1 (1)
I0720 16:36:07.595140  2889 net.cpp:148] Top shape: 1 1 (1)
I0720 16:36:07.595144  2889 net.cpp:156] Memory required for data: 14020
I0720 16:36:07.595149  2889 layer_factory.hpp:77] Creating layer lstm2_x_transform
I0720 16:36:07.595162  2889 net.cpp:91] Creating Layer lstm2_x_transform
I0720 16:36:07.595166  2889 net.cpp:425] lstm2_x_transform <- x
I0720 16:36:07.595175  2889 net.cpp:399] lstm2_x_transform -> W_xc_x
I0720 16:36:07.607817  2901 net.cpp:141] Setting up conv4
I0720 16:36:07.607872  2901 net.cpp:148] Top shape: 10 384 13 13 (648960)
I0720 16:36:07.607884  2901 net.cpp:156] Memory required for data: 61192760
I0720 16:36:07.607906  2901 layer_factory.hpp:77] Creating layer relu4
I0720 16:36:07.607954  2901 net.cpp:91] Creating Layer relu4
I0720 16:36:07.607965  2901 net.cpp:425] relu4 <- conv4
I0720 16:36:07.607980  2901 net.cpp:386] relu4 -> conv4 (in-place)
I0720 16:36:07.611418  2901 net.cpp:141] Setting up relu4
I0720 16:36:07.611465  2901 net.cpp:148] Top shape: 10 384 13 13 (648960)
I0720 16:36:07.611474  2901 net.cpp:156] Memory required for data: 63788600
I0720 16:36:07.611486  2901 layer_factory.hpp:77] Creating layer conv5
I0720 16:36:07.611518  2901 net.cpp:91] Creating Layer conv5
I0720 16:36:07.611529  2901 net.cpp:425] conv5 <- conv4
I0720 16:36:07.611546  2901 net.cpp:399] conv5 -> conv5
I0720 16:36:07.615869  2907 net.cpp:141] Setting up conv4
I0720 16:36:07.615921  2907 net.cpp:148] Top shape: 10 384 13 13 (648960)
I0720 16:36:07.615927  2907 net.cpp:156] Memory required for data: 61192760
I0720 16:36:07.615947  2907 layer_factory.hpp:77] Creating layer relu4
I0720 16:36:07.615968  2907 net.cpp:91] Creating Layer relu4
I0720 16:36:07.615975  2907 net.cpp:425] relu4 <- conv4
I0720 16:36:07.615985  2907 net.cpp:386] relu4 -> conv4 (in-place)
I0720 16:36:07.617331  2907 net.cpp:141] Setting up relu4
I0720 16:36:07.617354  2907 net.cpp:148] Top shape: 10 384 13 13 (648960)
I0720 16:36:07.617359  2907 net.cpp:156] Memory required for data: 63788600
I0720 16:36:07.617367  2907 layer_factory.hpp:77] Creating layer conv5
I0720 16:36:07.617384  2907 net.cpp:91] Creating Layer conv5
I0720 16:36:07.617390  2907 net.cpp:425] conv5 <- conv4
I0720 16:36:07.617408  2907 net.cpp:399] conv5 -> conv5
I0720 16:36:07.625818  2901 net.cpp:141] Setting up conv5
I0720 16:36:07.625859  2901 net.cpp:148] Top shape: 10 256 13 13 (432640)
I0720 16:36:07.625864  2901 net.cpp:156] Memory required for data: 65519160
I0720 16:36:07.625885  2901 layer_factory.hpp:77] Creating layer relu5
I0720 16:36:07.625901  2901 net.cpp:91] Creating Layer relu5
I0720 16:36:07.625908  2901 net.cpp:425] relu5 <- conv5
I0720 16:36:07.625916  2901 net.cpp:386] relu5 -> conv5 (in-place)
I0720 16:36:07.627145  2901 net.cpp:141] Setting up relu5
I0720 16:36:07.627161  2901 net.cpp:148] Top shape: 10 256 13 13 (432640)
I0720 16:36:07.627166  2901 net.cpp:156] Memory required for data: 67249720
I0720 16:36:07.627171  2901 layer_factory.hpp:77] Creating layer pool5
I0720 16:36:07.627187  2901 net.cpp:91] Creating Layer pool5
I0720 16:36:07.627192  2901 net.cpp:425] pool5 <- conv5
I0720 16:36:07.627198  2901 net.cpp:399] pool5 -> pool5
I0720 16:36:07.627647  2901 net.cpp:141] Setting up pool5
I0720 16:36:07.627658  2901 net.cpp:148] Top shape: 10 256 6 6 (92160)
I0720 16:36:07.627662  2901 net.cpp:156] Memory required for data: 67618360
I0720 16:36:07.627667  2901 layer_factory.hpp:77] Creating layer fc6
I0720 16:36:07.627683  2901 net.cpp:91] Creating Layer fc6
I0720 16:36:07.627688  2901 net.cpp:425] fc6 <- pool5
I0720 16:36:07.627696  2901 net.cpp:399] fc6 -> fc6
I0720 16:36:07.695422  2889 net.cpp:141] Setting up lstm2_x_transform
I0720 16:36:07.695435  2893 net.cpp:141] Setting up lstm2_x_transform
I0720 16:36:07.695472  2889 net.cpp:148] Top shape: 1 1 4000 (4000)
I0720 16:36:07.695475  2893 net.cpp:148] Top shape: 1 1 4000 (4000)
I0720 16:36:07.695477  2889 net.cpp:156] Memory required for data: 30020
I0720 16:36:07.695482  2893 net.cpp:156] Memory required for data: 30020
I0720 16:36:07.695499  2893 layer_factory.hpp:77] Creating layer lstm2_W_xc_x_slice
I0720 16:36:07.695500  2889 layer_factory.hpp:77] Creating layer lstm2_W_xc_x_slice
I0720 16:36:07.695515  2893 net.cpp:91] Creating Layer lstm2_W_xc_x_slice
I0720 16:36:07.695515  2889 net.cpp:91] Creating Layer lstm2_W_xc_x_slice
I0720 16:36:07.695526  2893 net.cpp:425] lstm2_W_xc_x_slice <- W_xc_x
I0720 16:36:07.695528  2889 net.cpp:425] lstm2_W_xc_x_slice <- W_xc_x
I0720 16:36:07.695536  2893 net.cpp:399] lstm2_W_xc_x_slice -> W_xc_x_1
I0720 16:36:07.695538  2889 net.cpp:399] lstm2_W_xc_x_slice -> W_xc_x_1
I0720 16:36:07.695688  2893 net.cpp:141] Setting up lstm2_W_xc_x_slice
I0720 16:36:07.695700  2893 net.cpp:148] Top shape: 1 1 4000 (4000)
I0720 16:36:07.695704  2893 net.cpp:156] Memory required for data: 46020
I0720 16:36:07.695709  2893 layer_factory.hpp:77] Creating layer lstm2_h_conted_0
I0720 16:36:07.695715  2889 net.cpp:141] Setting up lstm2_W_xc_x_slice
I0720 16:36:07.695719  2893 net.cpp:91] Creating Layer lstm2_h_conted_0
I0720 16:36:07.695730  2889 net.cpp:148] Top shape: 1 1 4000 (4000)
I0720 16:36:07.695730  2893 net.cpp:425] lstm2_h_conted_0 <- h_0
I0720 16:36:07.695737  2889 net.cpp:156] Memory required for data: 46020
I0720 16:36:07.695741  2893 net.cpp:425] lstm2_h_conted_0 <- cont_1_lstm2_cont_slice_0_split_0
I0720 16:36:07.695742  2889 layer_factory.hpp:77] Creating layer lstm2_h_conted_0
I0720 16:36:07.695752  2893 net.cpp:399] lstm2_h_conted_0 -> h_conted_0
I0720 16:36:07.695757  2889 net.cpp:91] Creating Layer lstm2_h_conted_0
I0720 16:36:07.695762  2889 net.cpp:425] lstm2_h_conted_0 <- h_0
I0720 16:36:07.695768  2889 net.cpp:425] lstm2_h_conted_0 <- cont_1_lstm2_cont_slice_0_split_0
I0720 16:36:07.695775  2889 net.cpp:399] lstm2_h_conted_0 -> h_conted_0
I0720 16:36:07.695881  2907 net.cpp:141] Setting up conv5
I0720 16:36:07.695924  2907 net.cpp:148] Top shape: 10 256 13 13 (432640)
I0720 16:36:07.695930  2907 net.cpp:156] Memory required for data: 65519160
I0720 16:36:07.695955  2907 layer_factory.hpp:77] Creating layer relu5
I0720 16:36:07.695971  2907 net.cpp:91] Creating Layer relu5
I0720 16:36:07.695978  2907 net.cpp:425] relu5 <- conv5
I0720 16:36:07.695988  2907 net.cpp:386] relu5 -> conv5 (in-place)
I0720 16:36:07.697806  2893 net.cpp:141] Setting up lstm2_h_conted_0
I0720 16:36:07.697834  2893 net.cpp:148] Top shape: 1 1 1000 (1000)
I0720 16:36:07.697839  2893 net.cpp:156] Memory required for data: 50020
I0720 16:36:07.697844  2893 layer_factory.hpp:77] Creating layer lstm2_transform_1
I0720 16:36:07.697860  2893 net.cpp:91] Creating Layer lstm2_transform_1
I0720 16:36:07.697866  2893 net.cpp:425] lstm2_transform_1 <- h_conted_0
I0720 16:36:07.697880  2893 net.cpp:399] lstm2_transform_1 -> W_hc_h_0
I0720 16:36:07.697964  2889 net.cpp:141] Setting up lstm2_h_conted_0
I0720 16:36:07.697980  2889 net.cpp:148] Top shape: 1 1 1000 (1000)
I0720 16:36:07.697984  2889 net.cpp:156] Memory required for data: 50020
I0720 16:36:07.697989  2889 layer_factory.hpp:77] Creating layer lstm2_transform_1
I0720 16:36:07.698000  2889 net.cpp:91] Creating Layer lstm2_transform_1
I0720 16:36:07.698005  2889 net.cpp:425] lstm2_transform_1 <- h_conted_0
I0720 16:36:07.698016  2889 net.cpp:399] lstm2_transform_1 -> W_hc_h_0
I0720 16:36:07.698066  2907 net.cpp:141] Setting up relu5
I0720 16:36:07.698088  2907 net.cpp:148] Top shape: 10 256 13 13 (432640)
I0720 16:36:07.698094  2907 net.cpp:156] Memory required for data: 67249720
I0720 16:36:07.698101  2907 layer_factory.hpp:77] Creating layer pool5
I0720 16:36:07.698113  2907 net.cpp:91] Creating Layer pool5
I0720 16:36:07.698119  2907 net.cpp:425] pool5 <- conv5
I0720 16:36:07.704624  2907 net.cpp:399] pool5 -> pool5
I0720 16:36:07.717475  2907 net.cpp:141] Setting up pool5
I0720 16:36:07.717528  2907 net.cpp:148] Top shape: 10 256 6 6 (92160)
I0720 16:36:07.717535  2907 net.cpp:156] Memory required for data: 67618360
I0720 16:36:07.717545  2907 layer_factory.hpp:77] Creating layer fc6
I0720 16:36:07.717572  2907 net.cpp:91] Creating Layer fc6
I0720 16:36:07.717579  2907 net.cpp:425] fc6 <- pool5
I0720 16:36:07.717597  2907 net.cpp:399] fc6 -> fc6
I0720 16:36:07.788372  2893 net.cpp:141] Setting up lstm2_transform_1
I0720 16:36:07.788415  2893 net.cpp:148] Top shape: 1 1 4000 (4000)
I0720 16:36:07.788421  2893 net.cpp:156] Memory required for data: 66020
I0720 16:36:07.788439  2893 layer_factory.hpp:77] Creating layer lstm2_gate_input_1
I0720 16:36:07.788460  2893 net.cpp:91] Creating Layer lstm2_gate_input_1
I0720 16:36:07.788465  2893 net.cpp:425] lstm2_gate_input_1 <- W_hc_h_0
I0720 16:36:07.788472  2893 net.cpp:425] lstm2_gate_input_1 <- W_xc_x_1
I0720 16:36:07.788480  2893 net.cpp:399] lstm2_gate_input_1 -> gate_input_1
I0720 16:36:07.792088  2893 net.cpp:141] Setting up lstm2_gate_input_1
I0720 16:36:07.792106  2893 net.cpp:148] Top shape: 1 1 4000 (4000)
I0720 16:36:07.792111  2893 net.cpp:156] Memory required for data: 82020
I0720 16:36:07.792116  2893 layer_factory.hpp:77] Creating layer lstm2_unit_1
I0720 16:36:07.792131  2893 net.cpp:91] Creating Layer lstm2_unit_1
I0720 16:36:07.792136  2893 net.cpp:425] lstm2_unit_1 <- c_0
I0720 16:36:07.792142  2893 net.cpp:425] lstm2_unit_1 <- gate_input_1
I0720 16:36:07.792147  2893 net.cpp:425] lstm2_unit_1 <- cont_1_lstm2_cont_slice_0_split_1
I0720 16:36:07.792150  2889 net.cpp:141] Setting up lstm2_transform_1
I0720 16:36:07.792156  2893 net.cpp:399] lstm2_unit_1 -> c_1
I0720 16:36:07.792171  2889 net.cpp:148] Top shape: 1 1 4000 (4000)
I0720 16:36:07.792176  2889 net.cpp:156] Memory required for data: 66020
I0720 16:36:07.792176  2893 net.cpp:399] lstm2_unit_1 -> h_1
I0720 16:36:07.792189  2889 layer_factory.hpp:77] Creating layer lstm2_gate_input_1
I0720 16:36:07.792204  2889 net.cpp:91] Creating Layer lstm2_gate_input_1
I0720 16:36:07.792210  2889 net.cpp:425] lstm2_gate_input_1 <- W_hc_h_0
I0720 16:36:07.792217  2889 net.cpp:425] lstm2_gate_input_1 <- W_xc_x_1
I0720 16:36:07.792223  2889 net.cpp:399] lstm2_gate_input_1 -> gate_input_1
I0720 16:36:07.792346  2889 net.cpp:141] Setting up lstm2_gate_input_1
I0720 16:36:07.792357  2889 net.cpp:148] Top shape: 1 1 4000 (4000)
I0720 16:36:07.792361  2889 net.cpp:156] Memory required for data: 82020
I0720 16:36:07.792366  2889 layer_factory.hpp:77] Creating layer lstm2_unit_1
I0720 16:36:07.792373  2889 net.cpp:91] Creating Layer lstm2_unit_1
I0720 16:36:07.792378  2889 net.cpp:425] lstm2_unit_1 <- c_0
I0720 16:36:07.792384  2889 net.cpp:425] lstm2_unit_1 <- gate_input_1
I0720 16:36:07.792388  2889 net.cpp:425] lstm2_unit_1 <- cont_1_lstm2_cont_slice_0_split_1
I0720 16:36:07.792397  2889 net.cpp:399] lstm2_unit_1 -> c_1
I0720 16:36:07.792405  2889 net.cpp:399] lstm2_unit_1 -> h_1
I0720 16:36:07.792399  2901 net.cpp:141] Setting up fc6
I0720 16:36:07.792425  2901 net.cpp:148] Top shape: 10 4096 (40960)
I0720 16:36:07.792435  2901 net.cpp:156] Memory required for data: 67782200
I0720 16:36:07.792455  2901 layer_factory.hpp:77] Creating layer relu6
I0720 16:36:07.792474  2901 net.cpp:91] Creating Layer relu6
I0720 16:36:07.792474  2893 net.cpp:141] Setting up lstm2_unit_1
I0720 16:36:07.792490  2901 net.cpp:425] relu6 <- fc6
I0720 16:36:07.792492  2893 net.cpp:148] Top shape: 1 1 1000 (1000)
I0720 16:36:07.792506  2893 net.cpp:148] Top shape: 1 1 1000 (1000)
I0720 16:36:07.792510  2893 net.cpp:156] Memory required for data: 90020
I0720 16:36:07.792508  2901 net.cpp:386] relu6 -> fc6 (in-place)
I0720 16:36:07.792520  2893 layer_factory.hpp:77] Creating layer lstm2_
I0720 16:36:07.792536  2893 net.cpp:91] Creating Layer lstm2_
I0720 16:36:07.792541  2893 net.cpp:425] lstm2_ <- c_1
I0720 16:36:07.792551  2893 net.cpp:399] lstm2_ -> c_T
I0720 16:36:07.792562  2889 net.cpp:141] Setting up lstm2_unit_1
I0720 16:36:07.792572  2889 net.cpp:148] Top shape: 1 1 1000 (1000)
I0720 16:36:07.792578  2889 net.cpp:148] Top shape: 1 1 1000 (1000)
I0720 16:36:07.792582  2889 net.cpp:156] Memory required for data: 90020
I0720 16:36:07.792587  2889 layer_factory.hpp:77] Creating layer lstm2_
I0720 16:36:07.792594  2889 net.cpp:91] Creating Layer lstm2_
I0720 16:36:07.792598  2889 net.cpp:425] lstm2_ <- c_1
I0720 16:36:07.792608  2889 net.cpp:399] lstm2_ -> c_T
I0720 16:36:07.792951  2889 net.cpp:141] Setting up lstm2_
I0720 16:36:07.792963  2889 net.cpp:148] Top shape: 1 1 1000 (1000)
I0720 16:36:07.792966  2889 net.cpp:156] Memory required for data: 94020
I0720 16:36:07.792971  2889 layer_factory.hpp:77] Creating layer lstm2_h_concat
I0720 16:36:07.792973  2893 net.cpp:141] Setting up lstm2_
I0720 16:36:07.792982  2889 net.cpp:91] Creating Layer lstm2_h_concat
I0720 16:36:07.792984  2893 net.cpp:148] Top shape: 1 1 1000 (1000)
I0720 16:36:07.792990  2889 net.cpp:425] lstm2_h_concat <- h_1
I0720 16:36:07.792994  2893 net.cpp:156] Memory required for data: 94020
I0720 16:36:07.792999  2889 net.cpp:399] lstm2_h_concat -> h
I0720 16:36:07.792999  2893 layer_factory.hpp:77] Creating layer lstm2_h_concat
I0720 16:36:07.793010  2893 net.cpp:91] Creating Layer lstm2_h_concat
I0720 16:36:07.793015  2893 net.cpp:425] lstm2_h_concat <- h_1
I0720 16:36:07.793022  2893 net.cpp:399] lstm2_h_concat -> h
I0720 16:36:07.793136  2889 net.cpp:141] Setting up lstm2_h_concat
I0720 16:36:07.793146  2889 net.cpp:148] Top shape: 1 1 1000 (1000)
I0720 16:36:07.793150  2889 net.cpp:156] Memory required for data: 98020
I0720 16:36:07.793154  2889 layer_factory.hpp:77] Creating layer h_pseudoloss
I0720 16:36:07.793154  2893 net.cpp:141] Setting up lstm2_h_concat
I0720 16:36:07.793165  2893 net.cpp:148] Top shape: 1 1 1000 (1000)
I0720 16:36:07.793165  2889 net.cpp:91] Creating Layer h_pseudoloss
I0720 16:36:07.793169  2893 net.cpp:156] Memory required for data: 98020
I0720 16:36:07.793171  2889 net.cpp:425] h_pseudoloss <- h
I0720 16:36:07.793174  2893 layer_factory.hpp:77] Creating layer h_pseudoloss
I0720 16:36:07.793179  2889 net.cpp:399] h_pseudoloss -> h_pseudoloss
I0720 16:36:07.793185  2893 net.cpp:91] Creating Layer h_pseudoloss
I0720 16:36:07.793190  2893 net.cpp:425] h_pseudoloss <- h
I0720 16:36:07.793196  2893 net.cpp:399] h_pseudoloss -> h_pseudoloss
I0720 16:36:07.793303  2901 net.cpp:141] Setting up relu6
I0720 16:36:07.793328  2901 net.cpp:148] Top shape: 10 4096 (40960)
I0720 16:36:07.793339  2901 net.cpp:156] Memory required for data: 67946040
I0720 16:36:07.793349  2901 layer_factory.hpp:77] Creating layer drop6
I0720 16:36:07.793371  2901 net.cpp:91] Creating Layer drop6
I0720 16:36:07.793382  2901 net.cpp:425] drop6 <- fc6
I0720 16:36:07.793396  2901 net.cpp:386] drop6 -> fc6 (in-place)
I0720 16:36:07.793423  2889 net.cpp:141] Setting up h_pseudoloss
…
I0720 16:36:07.793546  2893 net.cpp:217] lstm2_W_xc_x_slice needs backward computation.
I0720 16:36:07.793547  2889 net.cpp:261] This network produces output h_pseudoloss
I0720 16:36:07.793551  2893 net.cpp:217] lstm2_x_transform needs backward computation.
I0720 16:36:07.793555  2893 net.cpp:219] cont_1_lstm2_cont_slice_0_split does not need backward computation.
I0720 16:36:07.793555  2901 net.cpp:141] Setting up drop6
I0720 16:36:07.793565  2889 net.cpp:274] Network initialization done.
I0720 16:36:07.793570  2893 net.cpp:219] lstm2_cont_slice does not need backward computation.
I0720 16:36:07.793583  2901 net.cpp:148] Top shape: 10 4096 (40960)
I0720 16:36:07.793588  2893 net.cpp:219] lstm2_ does not need backward computation.
I0720 16:36:07.793593  2893 net.cpp:219] lstm2_ does not need backward computation.
I0720 16:36:07.793594  2901 net.cpp:156] Memory required for data: 68109880
I0720 16:36:07.793597  2893 net.cpp:261] This network produces output c_T
I0720 16:36:07.793611  2893 net.cpp:261] This network produces output h_pseudoloss
I0720 16:36:07.793609  2901 layer_factory.hpp:77] Creating layer fc7
I0720 16:36:07.793627  2889 recurrent_layer.cpp:150] Adding parameter 0: W_xc
I0720 16:36:07.793628  2893 net.cpp:274] Network initialization done.
I0720 16:36:07.793635  2889 recurrent_layer.cpp:150] Adding parameter 1: b_c
I0720 16:36:07.793635  2901 net.cpp:91] Creating Layer fc7
I0720 16:36:07.793640  2889 recurrent_layer.cpp:150] Adding parameter 2: W_hc
I0720 16:36:07.793651  2901 net.cpp:425] fc7 <- fc6
I0720 16:36:07.793669  2901 net.cpp:399] fc7 -> fc7
I0720 16:36:07.793671  2893 recurrent_layer.cpp:150] Adding parameter 0: W_xc
I0720 16:36:07.793684  2893 recurrent_layer.cpp:150] Adding parameter 1: b_c
I0720 16:36:07.793689  2893 recurrent_layer.cpp:150] Adding parameter 2: W_hc
I0720 16:36:07.829638  2889 net.cpp:141] Setting up lstm2
I0720 16:36:07.829680  2889 net.cpp:148] Top shape: 1 1 1000 (1000)
I0720 16:36:07.829686  2889 net.cpp:156] Memory required for data: 36412
I0720 16:36:07.829707  2889 layer_factory.hpp:77] Creating layer predict
I0720 16:36:07.829726  2889 net.cpp:91] Creating Layer predict
I0720 16:36:07.829732  2889 net.cpp:425] predict <- lstm2
I0720 16:36:07.829742  2889 net.cpp:399] predict -> predict
I0720 16:36:07.909499  2893 net.cpp:141] Setting up lstm2
I0720 16:36:07.909559  2893 net.cpp:148] Top shape: 1 1 1000 (1000)
I0720 16:36:07.909569  2893 net.cpp:156] Memory required for data: 36412
I0720 16:36:07.909602  2893 layer_factory.hpp:77] Creating layer predict
I0720 16:36:07.909628  2893 net.cpp:91] Creating Layer predict
I0720 16:36:07.909639  2893 net.cpp:425] predict <- lstm2
I0720 16:36:07.909656  2893 net.cpp:399] predict -> predict
I0720 16:36:07.995106  2907 net.cpp:141] Setting up fc6
I0720 16:36:07.995157  2907 net.cpp:148] Top shape: 10 4096 (40960)
I0720 16:36:07.995163  2907 net.cpp:156] Memory required for data: 67782200
I0720 16:36:07.995160  2901 net.cpp:141] Setting up fc7
I0720 16:36:07.995182  2907 layer_factory.hpp:77] Creating layer relu6
I0720 16:36:07.995203  2907 net.cpp:91] Creating Layer relu6
I0720 16:36:07.995200  2901 net.cpp:148] Top shape: 10 4096 (40960)
I0720 16:36:07.995213  2907 net.cpp:425] relu6 <- fc6
I0720 16:36:07.995218  2901 net.cpp:156] Memory required for data: 68273720
I0720 16:36:07.995223  2907 net.cpp:386] relu6 -> fc6 (in-place)
I0720 16:36:07.995261  2901 layer_factory.hpp:77] Creating layer relu7
I0720 16:36:07.995290  2901 net.cpp:91] Creating Layer relu7
I0720 16:36:07.995311  2901 net.cpp:425] relu7 <- fc7
I0720 16:36:07.995347  2901 net.cpp:386] relu7 -> fc7 (in-place)
I0720 16:36:07.995805  2907 net.cpp:141] Setting up relu6
I0720 16:36:07.995817  2907 net.cpp:148] Top shape: 10 4096 (40960)
I0720 16:36:07.995821  2907 net.cpp:156] Memory required for data: 67946040
I0720 16:36:07.995826  2907 layer_factory.hpp:77] Creating layer drop6
I0720 16:36:07.995837  2907 net.cpp:91] Creating Layer drop6
I0720 16:36:07.995841  2907 net.cpp:425] drop6 <- fc6
I0720 16:36:07.995851  2907 net.cpp:386] drop6 -> fc6 (in-place)
I0720 16:36:07.998152  2907 net.cpp:141] Setting up drop6
I0720 16:36:07.998181  2907 net.cpp:148] Top shape: 10 4096 (40960)
I0720 16:36:07.998186  2907 net.cpp:156] Memory required for data: 68109880
I0720 16:36:07.998194  2907 layer_factory.hpp:77] Creating layer fc7
I0720 16:36:07.998210  2907 net.cpp:91] Creating Layer fc7
I0720 16:36:07.998216  2907 net.cpp:425] fc7 <- fc6
I0720 16:36:07.998255  2907 net.cpp:399] fc7 -> fc7
I0720 16:36:08.025566  2901 net.cpp:141] Setting up relu7
I0720 16:36:08.025615  2901 net.cpp:148] Top shape: 10 4096 (40960)
I0720 16:36:08.025624  2901 net.cpp:156] Memory required for data: 68437560
I0720 16:36:08.025635  2901 layer_factory.hpp:77] Creating layer drop7
I0720 16:36:08.025660  2901 net.cpp:91] Creating Layer drop7
I0720 16:36:08.025671  2901 net.cpp:425] drop7 <- fc7
I0720 16:36:08.025684  2901 net.cpp:386] drop7 -> fc7 (in-place)
I0720 16:36:08.028297  2901 net.cpp:141] Setting up drop7
I0720 16:36:08.028318  2901 net.cpp:148] Top shape: 10 4096 (40960)
I0720 16:36:08.028326  2901 net.cpp:156] Memory required for data: 68601400
I0720 16:36:08.028333  2901 layer_factory.hpp:77] Creating layer fc8
I0720 16:36:08.028354  2901 net.cpp:91] Creating Layer fc8
I0720 16:36:08.028363  2901 net.cpp:425] fc8 <- fc7
I0720 16:36:08.028373  2901 net.cpp:399] fc8 -> fc8
I0720 16:36:08.049139  2907 net.cpp:141] Setting up fc7
I0720 16:36:08.049154  2901 net.cpp:141] Setting up fc8
I0720 16:36:08.049180  2907 net.cpp:148] Top shape: 10 4096 (40960)
I0720 16:36:08.049186  2907 net.cpp:156] Memory required for data: 68273720
I0720 16:36:08.049186  2901 net.cpp:148] Top shape: 10 1000 (10000)
I0720 16:36:08.049201  2901 net.cpp:156] Memory required for data: 68641400
I0720 16:36:08.049204  2907 layer_factory.hpp:77] Creating layer relu7
I0720 16:36:08.049216  2901 layer_factory.hpp:77] Creating layer prob
I0720 16:36:08.049219  2907 net.cpp:91] Creating Layer relu7
I0720 16:36:08.049232  2907 net.cpp:425] relu7 <- fc7
I0720 16:36:08.049239  2901 net.cpp:91] Creating Layer prob
I0720 16:36:08.049245  2907 net.cpp:386] relu7 -> fc7 (in-place)
I0720 16:36:08.049248  2901 net.cpp:425] prob <- fc8
I0720 16:36:08.049263  2901 net.cpp:399] prob -> prob
I0720 16:36:08.051059  2907 net.cpp:141] Setting up relu7
I0720 16:36:08.051076  2907 net.cpp:148] Top shape: 10 4096 (40960)
I0720 16:36:08.051082  2907 net.cpp:156] Memory required for data: 68437560
I0720 16:36:08.051082  2901 net.cpp:141] Setting up prob
I0720 16:36:08.051087  2907 layer_factory.hpp:77] Creating layer drop7
I0720 16:36:08.051102  2901 net.cpp:148] Top shape: 10 1000 (10000)
I0720 16:36:08.051106  2907 net.cpp:91] Creating Layer drop7
I0720 16:36:08.051110  2901 net.cpp:156] Memory required for data: 68681400
I0720 16:36:08.051112  2907 net.cpp:425] drop7 <- fc7
I0720 16:36:08.051121  2901 net.cpp:219] prob does not need backward computation.
I0720 16:36:08.051129  2901 net.cpp:219] fc8 does not need backward computation.
I0720 16:36:08.051129  2907 net.cpp:386] drop7 -> fc7 (in-place)
I0720 16:36:08.051139  2901 net.cpp:219] drop7 does not need backward computation.
I0720 16:36:08.051147  2901 net.cpp:219] relu7 does not need backward computation.
I0720 16:36:08.051153  2901 net.cpp:219] fc7 does not need backward computation.
I0720 16:36:08.051161  2901 net.cpp:219] drop6 does not need backward computation.
I0720 16:36:08.051167  2901 net.cpp:219] relu6 does not need backward computation.
I0720 16:36:08.051173  2901 net.cpp:219] fc6 does not need backward computation.
I0720 16:36:08.051182  2901 net.cpp:219] pool5 does not need backward computation.
I0720 16:36:08.051187  2901 net.cpp:219] relu5 does not need backward computation.
I0720 16:36:08.051197  2901 net.cpp:219] conv5 does not need backward computation.
I0720 16:36:08.051203  2901 net.cpp:219] relu4 does not need backward computation.
I0720 16:36:08.051203  2907 net.cpp:141] Setting up drop7
I0720 16:36:08.051211  2901 net.cpp:219] conv4 does not need backward computation.
I0720 16:36:08.051214  2907 net.cpp:148] Top shape: 10 4096 (40960)
I0720 16:36:08.051219  2907 net.cpp:156] Memory required for data: 68601400
I0720 16:36:08.051220  2901 net.cpp:219] relu3 does not need backward computation.
I0720 16:36:08.051224  2907 layer_factory.hpp:77] Creating layer fc8
I0720 16:36:08.051229  2901 net.cpp:219] conv3 does not need backward computation.
I0720 16:36:08.051241  2907 net.cpp:91] Creating Layer fc8
I0720 16:36:08.051247  2907 net.cpp:425] fc8 <- fc7
I0720 16:36:08.051246  2901 net.cpp:219] norm2 does not need backward computation.
I0720 16:36:08.051255  2907 net.cpp:399] fc8 -> fc8
I0720 16:36:08.051256  2901 net.cpp:219] pool2 does not need backward computation.
I0720 16:36:08.051265  2901 net.cpp:219] relu2 does not need backward computation.
I0720 16:36:08.051271  2901 net.cpp:219] conv2 does not need backward computation.
I0720 16:36:08.051280  2901 net.cpp:219] norm1 does not need backward computation.
I0720 16:36:08.051288  2901 net.cpp:219] pool1 does not need backward computation.
I0720 16:36:08.051295  2901 net.cpp:219] relu1 does not need backward computation.
I0720 16:36:08.051302  2901 net.cpp:219] conv1 does not need backward computation.
I0720 16:36:08.051309  2901 net.cpp:219] data does not need backward computation.
I0720 16:36:08.051316  2901 net.cpp:261] This network produces output prob
I0720 16:36:08.051404  2901 net.cpp:274] Network initialization done.
I0720 16:36:08.067916  2907 net.cpp:141] Setting up fc8
I0720 16:36:08.067991  2907 net.cpp:148] Top shape: 10 1000 (10000)
I0720 16:36:08.068001  2907 net.cpp:156] Memory required for data: 68641400
I0720 16:36:08.068025  2907 layer_factory.hpp:77] Creating layer prob
I0720 16:36:08.068059  2907 net.cpp:91] Creating Layer prob
I0720 16:36:08.068073  2907 net.cpp:425] prob <- fc8
I0720 16:36:08.068094  2907 net.cpp:399] prob -> prob
I0720 16:36:08.069169  2907 net.cpp:141] Setting up prob
I0720 16:36:08.069187  2907 net.cpp:148] Top shape: 10 1000 (10000)
I0720 16:36:08.069193  2907 net.cpp:156] Memory required for data: 68681400
I0720 16:36:08.069200  2907 net.cpp:219] prob does not need backward computation.
I0720 16:36:08.069206  2907 net.cpp:219] fc8 does not need backward computation.
I0720 16:36:08.069212  2907 net.cpp:219] drop7 does not need backward computation.
I0720 16:36:08.069217  2907 net.cpp:219] relu7 does not need backward computation.
…
