…
W0925 22:30:01.946310 32552 upgrade_proto.cpp:71] Note that future Caffe releases will only support input layers and not input fields.
I0925 22:30:01.946566 32532 net.cpp:49] Initializing net from parameters: 
name: "s2vt:features_to_lstm"
state {
  phase: TEST
}
layer {
  name: "input"
  type: "Input"
  top: "frames_fc7"
  top: "cont_sentence"
  top: "input_sentence"
  top: "stage_indicator"
  input_param {
    shape {
      dim: 1
      dim: 4096
    }
    shape {
      dim: 1
      dim: 1
    }
    shape {
      dim: 1
      dim: 1
    }
    shape {
      dim: 1
      dim: 1
    }
  }
}
layer {
  name: "embed_encoder"
  type: "InnerProduct"
  bottom: "frames_fc7"
  top: "embedded_in_frames"
  param {
    lr_mult: 1
    decay_mult: 1
  }
  param {
    lr_mult: 2
    decay_mult: 0
  }
  inner_product_param {
    num_output: 500
    weight_filler {
      type: "xavier"
    }
    bias_filler {
      type: "constant"
      value: 0.2
    }
  }
}
layer {
  name: "reshape_frames"
  type: "Reshape"
  bottom: "embedded_in_frames"
  top: "embedded_input_frames"
  reshape_param {
    shape {
      dim: 1
      dim: 1
      dim: 500
    }
  }
}
layer {
  name: "reshape_stage_indicator"
  type: "Reshape"
  bottom: "stage_indicator"
  top: "reshaped_stage_indicator"
  reshape_param {
    shape {
      dim: 1
      dim: 1
      dim: 1
    }
  }
}
layer {
  name: "embedding"
  type: "Embed"
  bottom: "input_sentence"
  top: "embedded_input_sentence"
  param {
    lr_mult: 1
  }
  embed_param {
    num_output: 500
    input_dim: 46168
    bias_term: false
    weight_filler {
      type: "uniform"
      min: -0.08
      max: 0.08
    }
  }
}
layer {
  name: "lstm1"
  type: "LSTM"
  bottom: "embedded_input_frames"
  bottom: "cont_sentence"
  top: "lstm1"
  recurrent_param {
    num_output: 1000
    weight_filler {
      type: "uniform"
      min: -0.08
      max: 0.08
    }
    bias_filler {
      type: "constant"
      value: 0
    }
  }
}
layer {
  name: "concat"
  type: "Concat"
  bottom: "lstm1"
  bottom: "embedded_input_sentence"
  bottom: "reshaped_stage_indicator"
  top: "lstm1_video_sequence"
  concat_param {
    concat_dim: 2
  }
}
layer {
  name: "lstm2"
  type: "LSTM"
  bottom: "lstm1_video_sequence"
  bottom: "cont_sentence"
  top: "lstm2"
  recurrent_param {
    num_output: 1000
    weight_filler {
      type: "uniform"
      min: -0.08
      max: 0.08
    }
    bias_filler {
      type: "constant"
      value: 0
    }
  }
}
layer {
  name: "predict"
  type: "InnerProduct"
  bottom: "lstm2"
  top: "predict"
  param {
    lr_mult: 1
    decay_mult: 1
  }
  param {
    lr_mult: 2
    decay_mult: 0
  }
  inner_product_param {
    num_output: 46168
    weight_filler {
      type: "uniform"
      min: -0.08
      max: 0.08
    }
    bias_filler {
      type: "constant"
      value: 0
    }
    axis: 2
  }
}
layer {
  name: "probs"
  type: "Softmax"
  bottom: "predict"
  top: "probs"
  softmax_param {
    axis: 2
  }
}
I0925 22:30:01.946585 32518 upgrade_proto.cpp:66] Attempting to upgrade input file specified using deprecated input fields: /home/peifeng/work/run/storm102/data/workers/3995f8cc-e998-4e5f-906a-d6f04b3164a9/tmp/cvld620752853057846674/s2vt.words_to_preds.prototxt
I0925 22:30:01.946593 32526 net.cpp:49] Initializing net from parameters: 
name: "CaffeNet"
state {
  phase: TEST
}
layer {
  name: "data"
  type: "Input"
  top: "data"
  input_param {
    shape {
      dim: 10
      dim: 3
      dim: 227
      dim: 227
    }
  }
}
layer {
  name: "conv1"
  type: "Convolution"
  bottom: "data"
  top: "conv1"
  convolution_param {
    num_output: 96
    kernel_size: 11
    stride: 4
  }
}
layer {
  name: "relu1"
  type: "ReLU"
  bottom: "conv1"
  top: "conv1"
}
layer {
  name: "pool1"
  type: "Pooling"
  bottom: "conv1"
  top: "pool1"
  pooling_param {
    pool: MAX
    kernel_size: 3
    stride: 2
  }
}
layer {
  name: "norm1"
  type: "LRN"
  bottom: "pool1"
  top: "norm1"
  lrn_param {
    local_size: 5
    alpha: 0.0001
    beta: 0.75
  }
}
layer {
  name: "conv2"
  type: "Convolution"
  bottom: "norm1"
  top: "conv2"
  convolution_param {
    num_output: 256
    pad: 2
    kernel_size: 5
    group: 2
  }
}
layer {
  name: "relu2"
  type: "ReLU"
  bottom: "conv2"
  top: "conv2"
}
layer {
  name: "pool2"
  type: "Pooling"
  bottom: "conv2"
  top: "pool2"
  pooling_param {
    pool: MAX
    kernel_size: 3
    stride: 2
  }
}
layer {
  name: "norm2"
  type: "LRN"
  bottom: "pool2"
  top: "norm2"
  lrn_param {
    local_size: 5
    alpha: 0.0001
    beta: 0.75
  }
}
layer {
  name: "conv3"
  type: "Convolution"
  bottom: "norm2"
  top: "conv3"
  convolution_param {
    num_output: 384
    pad: 1
    kernel_size: 3
  }
}
layer {
  name: "relu3"
  type: "ReLU"
  bottom: "conv3"
  top: "conv3"
}
layer {
  name: "conv4"
  type: "Convolution"
  bottom: "conv3"
  top: "conv4"
  convolution_param {
    num_output: 384
    pad: 1
    kernel_size: 3
    group: 2
  }
}
layer {
  name: "relu4"
  type: "ReLU"
  bottom: "conv4"
  top: "conv4"
}
layer {
  name: "conv5"
  type: "Convolution"
  bottom: "conv4"
  top: "conv5"
  convolution_param {
    num_output: 256
    pad: 1
    kernel_size: 3
    group: 2
  }
}
layer {
  name: "relu5"
  type: "ReLU"
  bottom: "conv5"
  top: "conv5"
}
layer {
  name: "pool5"
  type: "Pooling"
  bottom: "conv5"
  top: "pool5"
  pooling_param {
    pool: MAX
    kernel_size: 3
    stride: 2
  }
}
layer {
  name: "fc6"
  type: "InnerProduct"
  bottom: "pool5"
  top: "fc6"
  inner_product_param {
    num_output: 4096
  }
}
layer {
  name: "relu6"
  type: "ReLU"
  bottom: "fc6"
  top: "fc6"
}
layer {
  name: "drop6"
  type: "Dropout"
  bottom: "fc6"
  top: "fc6"
  dropout_param {
    dropout_ratio: 0.5
  }
}
layer {
  name: "fc7"
  type: "InnerProduct"
  bottom: "fc6"
  top: "fc7"
  inner_product_param {
    num_output: 4096
  }
}
layer {
  name: "relu7"
  type: "ReLU"
  bottom: "fc7"
  top: "fc7"
}
layer {
  name: "drop7"
  type: "Dropout"
  bottom: "fc7"
  top: "fc7"
  dropout_param {
    dropout_ratio: 0.5
  }
}
layer {
  name: "fc8"
  type: "InnerProduct"
  bottom: "fc7"
  top: "fc8"
  inner_product_param {
    num_output: 1000
  }
}
layer {
  name: "prob"
  type: "Softmax"
  bottom: "fc8"
  top: "prob"
}
I0925 22:30:01.946620 32518 upgrade_proto.cpp:69] Successfully upgraded file specified using deprecated input fields.
W0925 22:30:01.946631 32518 upgrade_proto.cpp:71] Note that future Caffe releases will only support input layers and not input fields.
I0925 22:30:01.946666 32558 net.cpp:49] Initializing net from parameters: 
name: "s2vt:features_to_lstm"
state {
  phase: TEST
}
layer {
  name: "input"
  type: "Input"
  top: "frames_fc7"
  top: "cont_sentence"
  top: "input_sentence"
  top: "stage_indicator"
  input_param {
    shape {
      dim: 1
      dim: 4096
    }
    shape {
      dim: 1
      dim: 1
    }
    shape {
      dim: 1
      dim: 1
    }
    shape {
      dim: 1
      dim: 1
    }
  }
}
layer {
  name: "embed_encoder"
  type: "InnerProduct"
  bottom: "frames_fc7"
  top: "embedded_in_frames"
  param {
    lr_mult: 1
    decay_mult: 1
  }
  param {
    lr_mult: 2
    decay_mult: 0
  }
  inner_product_param {
    num_output: 500
    weight_filler {
      type: "xavier"
    }
    bias_filler {
      type: "constant"
      value: 0.2
    }
  }
}
layer {
  name: "reshape_frames"
  type: "Reshape"
  bottom: "embedded_in_frames"
  top: "embedded_input_frames"
  reshape_param {
    shape {
      dim: 1
      dim: 1
      dim: 500
    }
  }
}
layer {
  name: "reshape_stage_indicator"
  type: "Reshape"
  bottom: "stage_indicator"
  top: "reshaped_stage_indicator"
  reshape_param {
    shape {
      dim: 1
      dim: 1
      dim: 1
    }
  }
}
layer {
  name: "embedding"
  type: "Embed"
  bottom: "input_sentence"
  top: "embedded_input_sentence"
  param {
    lr_mult: 1
  }
  embed_param {
    num_output: 500
    input_dim: 46168
    bias_term: false
    weight_filler {
      type: "uniform"
      min: -0.08
      max: 0.08
    }
  }
}
layer {
  name: "lstm1"
  type: "LSTM"
  bottom: "embedded_input_frames"
  bottom: "cont_sentence"
  top: "lstm1"
  recurrent_param {
    num_output: 1000
    weight_filler {
      type: "uniform"
      min: -0.08
      max: 0.08
    }
    bias_filler {
      type: "constant"
      value: 0
    }
  }
}
layer {
  name: "concat"
  type: "Concat"
  bottom: "lstm1"
  bottom: "embedded_input_sentence"
  bottom: "reshaped_stage_indicator"
  top: "lstm1_video_sequence"
  concat_param {
    concat_dim: 2
  }
}
layer {
  name: "lstm2"
  type: "LSTM"
  bottom: "lstm1_video_sequence"
  bottom: "cont_sentence"
  top: "lstm2"
  recurrent_param {
    num_output: 1000
    weight_filler {
      type: "uniform"
      min: -0.08
      max: 0.08
    }
    bias_filler {
      type: "constant"
      value: 0
    }
  }
}
layer {
  name: "predict"
  type: "InnerProduct"
  bottom: "lstm2"
  top: "predict"
  param {
    lr_mult: 1
    decay_mult: 1
  }
  param {
    lr_mult: 2
    decay_mult: 0
  }
  inner_product_param {
    num_output: 46168
    weight_filler {
      type: "uniform"
      min: -0.08
      max: 0.08
    }
    bias_filler {
      type: "constant"
      value: 0
    }
    axis: 2
  }
}
layer {
  name: "probs"
  type: "Softmax"
  bottom: "predict"
  top: "probs"
  softmax_param {
    axis: 2
  }
}
I0925 22:30:01.946820 32558 layer_factory.hpp:77] Creating layer input
I0925 22:30:01.946279 32520 upgrade_proto.cpp:69] Successfully upgraded file specified using deprecated input fields.
W0925 22:30:01.950633 32520 upgrade_proto.cpp:71] Note that future Caffe releases will only support input layers and not input fields.
I0925 22:30:01.945647 32514 upgrade_proto.cpp:66] Attempting to upgrade input file specified using deprecated input fields: /home/peifeng/work/run/storm102/data/workers/3995f8cc-e998-4e5f-906a-d6f04b3164a9/tmp/cvld620752853057846674/s2vt.words_to_preds.prototxt
…
I0925 22:30:01.950728 32558 net.cpp:91] Creating Layer input
I0925 22:30:01.950736 32532 layer_factory.hpp:77] Creating layer input
I0925 22:30:01.950703 32552 net.cpp:49] Initializing net from parameters: 
name: "s2vt:features_to_lstm"
state {
  phase: TEST
}
layer {
  name: "input"
  type: "Input"
  top: "frames_fc7"
  top: "cont_sentence"
  top: "input_sentence"
  top: "stage_indicator"
  input_param {
    shape {
      dim: 1
      dim: 4096
    }
    shape {
      dim: 1
      dim: 1
    }
    shape {
      dim: 1
      dim: 1
    }
    shape {
      dim: 1
      dim: 1
    }
  }
}
layer {
  name: "embed_encoder"
  type: "InnerProduct"
  bottom: "frames_fc7"
  top: "embedded_in_frames"
  param {
    lr_mult: 1
    decay_mult: 1
  }
  param {
    lr_mult: 2
    decay_mult: 0
  }
  inner_product_param {
    num_output: 500
    weight_filler {
      type: "xavier"
    }
    bias_filler {
      type: "constant"
      value: 0.2
    }
  }
}
layer {
  name: "reshape_frames"
  type: "Reshape"
  bottom: "embedded_in_frames"
  top: "embedded_input_frames"
  reshape_param {
    shape {
      dim: 1
      dim: 1
      dim: 500
    }
  }
}
layer {
  name: "reshape_stage_indicator"
  type: "Reshape"
  bottom: "stage_indicator"
  top: "reshaped_stage_indicator"
  reshape_param {
    shape {
      dim: 1
      dim: 1
      dim: 1
    }
  }
}
layer {
  name: "embedding"
  type: "Embed"
  bottom: "input_sentence"
  top: "embedded_input_sentence"
  param {
    lr_mult: 1
  }
  embed_param {
    num_output: 500
    input_dim: 46168
    bias_term: false
    weight_filler {
      type: "uniform"
      min: -0.08
      max: 0.08
    }
  }
}
layer {
  name: "lstm1"
  type: "LSTM"
  bottom: "embedded_input_frames"
  bottom: "cont_sentence"
  top: "lstm1"
  recurrent_param {
    num_output: 1000
    weight_filler {
      type: "uniform"
      min: -0.08
      max: 0.08
    }
    bias_filler {
      type: "constant"
      value: 0
    }
  }
}
layer {
  name: "concat"
  type: "Concat"
  bottom: "lstm1"
  bottom: "embedded_input_sentence"
  bottom: "reshaped_stage_indicator"
  top: "lstm1_video_sequence"
  concat_param {
    concat_dim: 2
  }
}
layer {
  name: "lstm2"
  type: "LSTM"
  bottom: "lstm1_video_sequence"
  bottom: "cont_sentence"
  top: "lstm2"
  recurrent_param {
    num_output: 1000
    weight_filler {
      type: "uniform"
      min: -0.08
      max: 0.08
    }
    bias_filler {
      type: "constant"
      value: 0
    }
  }
}
layer {
  name: "predict"
  type: "InnerProduct"
  bottom: "lstm2"
  top: "predict"
  param {
    lr_mult: 1
    decay_mult: 1
  }
  param {
    lr_mult: 2
    decay_mult: 0
  }
  inner_product_param {
    num_output: 46168
    weight_filler {
      type: "uniform"
      min: -0.08
      max: 0.08
    }
    bias_filler {
      type: "constant"
      value: 0
    }
    axis: 2
  }
}
layer {
  name: "probs"
  type: "Softmax"
  bottom: "predict"
  top: "probs"
  softmax_param {
    axis: 2
  }
}
I0925 22:30:01.950758 32532 net.cpp:91] Creating Layer input
I0925 22:30:01.950759 32526 layer_factory.hpp:77] Creating layer data
I0925 22:30:01.950757 32558 net.cpp:399] input -> frames_fc7
I0925 22:30:01.950781 32526 net.cpp:91] Creating Layer data
I0925 22:30:01.950776 32532 net.cpp:399] input -> frames_fc7
I0925 22:30:01.950800 32526 net.cpp:399] data -> data
I0925 22:30:01.950831 32532 net.cpp:399] input -> cont_sentence
I0925 22:30:01.950835 32558 net.cpp:399] input -> cont_sentence
I0925 22:30:01.950850 32532 net.cpp:399] input -> input_sentence
I0925 22:30:01.950858 32558 net.cpp:399] input -> input_sentence
I0925 22:30:01.950872 32532 net.cpp:399] input -> stage_indicator
I0925 22:30:01.950877 32558 net.cpp:399] input -> stage_indicator
I0925 22:30:01.946691 32524 net.cpp:49] Initializing net from parameters: 
name: "s2vt:features_to_lstm"
state {
  phase: TEST
}
layer {
  name: "input"
  type: "Input"
  top: "frames_fc7"
  top: "cont_sentence"
  top: "input_sentence"
  top: "stage_indicator"
  input_param {
    shape {
      dim: 1
      dim: 4096
    }
    shape {
      dim: 1
      dim: 1
    }
    shape {
      dim: 1
      dim: 1
    }
    shape {
      dim: 1
      dim: 1
    }
  }
}
layer {
  name: "embed_encoder"
  type: "InnerProduct"
  bottom: "frames_fc7"
  top: "embedded_in_frames"
  param {
    lr_mult: 1
    decay_mult: 1
  }
  param {
    lr_mult: 2
    decay_mult: 0
  }
  inner_product_param {
    num_output: 500
    weight_filler {
      type: "xavier"
    }
    bias_filler {
      type: "constant"
      value: 0.2
    }
  }
}
layer {
  name: "reshape_frames"
  type: "Reshape"
  bottom: "embedded_in_frames"
  top: "embedded_input_frames"
  reshape_param {
    shape {
      dim: 1
      dim: 1
      dim: 500
    }
  }
}
layer {
  name: "reshape_stage_indicator"
  type: "Reshape"
  bottom: "stage_indicator"
  top: "reshaped_stage_indicator"
  reshape_param {
    shape {
      dim: 1
      dim: 1
      dim: 1
    }
  }
}
layer {
  name: "embedding"
  type: "Embed"
  bottom: "input_sentence"
  top: "embedded_input_sentence"
  param {
    lr_mult: 1
  }
  embed_param {
    num_output: 500
    input_dim: 46168
    bias_term: false
    weight_filler {
      type: "uniform"
      min: -0.08
      max: 0.08
    }
  }
}
layer {
  name: "lstm1"
  type: "LSTM"
  bottom: "embedded_input_frames"
  bottom: "cont_sentence"
  top: "lstm1"
  recurrent_param {
    num_output: 1000
    weight_filler {
      type: "uniform"
      min: -0.08
      max: 0.08
    }
    bias_filler {
      type: "constant"
      value: 0
    }
  }
}
layer {
  name: "concat"
  type: "Concat"
  bottom: "lstm1"
  bottom: "embedded_input_sentence"
  bottom: "reshaped_stage_indicator"
  top: "lstm1_video_sequence"
  concat_param {
    concat_dim: 2
  }
}
layer {
  name: "lstm2"
  type: "LSTM"
  bottom: "lstm1_video_sequence"
  bottom: "cont_sentence"
  top: "lstm2"
  recurrent_param {
    num_output: 1000
    weight_filler {
      type: "uniform"
      min: -0.08
      max: 0.08
    }
    bias_filler {
      type: "constant"
      value: 0
    }
  }
}
layer {
  name: "predict"
  type: "InnerProduct"
  bottom: "lstm2"
  top: "predict"
  param {
    lr_mult: 1
    decay_mult: 1
  }
  param {
    lr_mult: 2
    decay_mult: 0
  }
  inner_product_param {
    num_output: 46168
    weight_filler {
      type: "uniform"
      min: -0.08
      max: 0.08
    }
    bias_filler {
      type: "constant"
      value: 0
    }
    axis: 2
  }
}
layer {
  name: "probs"
  type: "Softmax"
  bottom: "predict"
  top: "probs"
  softmax_param {
    axis: 2
  }
}
I0925 22:30:01.951102 32552 layer_factory.hpp:77] Creating layer input
I0925 22:30:01.951124 32552 net.cpp:91] Creating Layer input
I0925 22:30:01.951134 32552 net.cpp:399] input -> frames_fc7
I0925 22:30:01.951148 32552 net.cpp:399] input -> cont_sentence
I0925 22:30:01.951159 32552 net.cpp:399] input -> input_sentence
I0925 22:30:01.951174 32552 net.cpp:399] input -> stage_indicator
I0925 22:30:01.951200 32514 net.cpp:49] Initializing net from parameters: 
name: "s2vt:features_to_lstm"
state {
  phase: TEST
}
layer {
  name: "input"
  type: "Input"
  top: "frames_fc7"
  top: "cont_sentence"
  top: "input_sentence"
  top: "stage_indicator"
  input_param {
    shape {
      dim: 1
      dim: 4096
    }
    shape {
      dim: 1
      dim: 1
    }
    shape {
      dim: 1
      dim: 1
    }
    shape {
      dim: 1
      dim: 1
    }
  }
}
layer {
  name: "embed_encoder"
  type: "InnerProduct"
  bottom: "frames_fc7"
  top: "embedded_in_frames"
  param {
    lr_mult: 1
    decay_mult: 1
  }
  param {
    lr_mult: 2
    decay_mult: 0
  }
  inner_product_param {
    num_output: 500
    weight_filler {
      type: "xavier"
    }
    bias_filler {
      type: "constant"
      value: 0.2
    }
  }
}
layer {
  name: "reshape_frames"
  type: "Reshape"
  bottom: "embedded_in_frames"
  top: "embedded_input_frames"
  reshape_param {
    shape {
      dim: 1
      dim: 1
      dim: 500
    }
  }
}
layer {
  name: "reshape_stage_indicator"
  type: "Reshape"
  bottom: "stage_indicator"
  top: "reshaped_stage_indicator"
  reshape_param {
    shape {
      dim: 1
      dim: 1
      dim: 1
    }
  }
}
layer {
  name: "embedding"
  type: "Embed"
  bottom: "input_sentence"
  top: "embedded_input_sentence"
  param {
    lr_mult: 1
  }
  embed_param {
    num_output: 500
    input_dim: 46168
    bias_term: false
    weight_filler {
      type: "uniform"
      min: -0.08
      max: 0.08
    }
  }
}
layer {
  name: "lstm1"
  type: "LSTM"
  bottom: "embedded_input_frames"
  bottom: "cont_sentence"
  top: "lstm1"
  recurrent_param {
    num_output: 1000
    weight_filler {
      type: "uniform"
      min: -0.08
      max: 0.08
    }
    bias_filler {
      type: "constant"
      value: 0
    }
  }
}
layer {
  name: "concat"
  type: "Concat"
  bottom: "lstm1"
  bottom: "embedded_input_sentence"
  bottom: "reshaped_stage_indicator"
  top: "lstm1_video_sequence"
  concat_param {
    concat_dim: 2
  }
}
layer {
  name: "lstm2"
  type: "LSTM"
  bottom: "lstm1_video_sequence"
  bottom: "cont_sentence"
  top: "lstm2"
  recurrent_param {
    num_output: 1000
    weight_filler {
      type: "uniform"
      min: -0.08
      max: 0.08
    }
    bias_filler {
      type: "constant"
      value: 0
    }
  }
}
layer {
  name: "predict"
  type: "InnerProduct"
  bottom: "lstm2"
  top: "predict"
  param {
    lr_mult: 1
    decay_mult: 1
  }
  param {
    lr_mult: 2
    decay_mult: 0
  }
  inner_product_param {
    num_output: 46168
    weight_filler {
      type: "uniform"
      min: -0.08
      max: 0.08
    }
    bias_filler {
      type: "constant"
      value: 0
    }
    axis: 2
  }
}
layer {
  name: "probs"
  type: "Softmax"
  bottom: "predict"
  top: "probs"
  softmax_param {
    axis: 2
  }
}
I0925 22:30:01.951346 32514 layer_factory.hpp:77] Creating layer input
I0925 22:30:01.951370 32514 net.cpp:91] Creating Layer input
I0925 22:30:01.951387 32514 net.cpp:399] input -> frames_fc7
I0925 22:30:01.951409 32514 net.cpp:399] input -> cont_sentence
I0925 22:30:01.951431 32514 net.cpp:399] input -> input_sentence
I0925 22:30:01.951452 32514 net.cpp:399] input -> stage_indicator
I0925 22:30:01.951802 32520 net.cpp:49] Initializing net from parameters: 
name: "s2vt:features_to_lstm"
state {
  phase: TEST
}
layer {
  name: "input"
  type: "Input"
  top: "frames_fc7"
  top: "cont_sentence"
  top: "input_sentence"
  top: "stage_indicator"
  input_param {
    shape {
      dim: 1
      dim: 4096
    }
    shape {
      dim: 1
      dim: 1
    }
    shape {
      dim: 1
      dim: 1
    }
    shape {
      dim: 1
      dim: 1
    }
  }
}
layer {
  name: "embed_encoder"
  type: "InnerProduct"
  bottom: "frames_fc7"
  top: "embedded_in_frames"
  param {
    lr_mult: 1
    decay_mult: 1
  }
  param {
    lr_mult: 2
    decay_mult: 0
  }
  inner_product_param {
    num_output: 500
    weight_filler {
      type: "xavier"
    }
    bias_filler {
      type: "constant"
      value: 0.2
    }
  }
}
layer {
  name: "reshape_frames"
  type: "Reshape"
  bottom: "embedded_in_frames"
  top: "embedded_input_frames"
  reshape_param {
    shape {
      dim: 1
      dim: 1
      dim: 500
    }
  }
}
layer {
  name: "reshape_stage_indicator"
  type: "Reshape"
  bottom: "stage_indicator"
  top: "reshaped_stage_indicator"
  reshape_param {
    shape {
      dim: 1
      dim: 1
      dim: 1
    }
  }
}
layer {
  name: "embedding"
  type: "Embed"
  bottom: "input_sentence"
  top: "embedded_input_sentence"
  param {
    lr_mult: 1
  }
  embed_param {
    num_output: 500
    input_dim: 46168
    bias_term: false
    weight_filler {
      type: "uniform"
      min: -0.08
      max: 0.08
    }
  }
}
layer {
  name: "lstm1"
  type: "LSTM"
  bottom: "embedded_input_frames"
  bottom: "cont_sentence"
  top: "lstm1"
  recurrent_param {
    num_output: 1000
    weight_filler {
      type: "uniform"
      min: -0.08
      max: 0.08
    }
    bias_filler {
      type: "constant"
      value: 0
    }
  }
}
layer {
  name: "concat"
  type: "Concat"
  bottom: "lstm1"
  bottom: "embedded_input_sentence"
  bottom: "reshaped_stage_indicator"
  top: "lstm1_video_sequence"
  concat_param {
    concat_dim: 2
  }
}
layer {
  name: "lstm2"
  type: "LSTM"
  bottom: "lstm1_video_sequence"
  bottom: "cont_sentence"
  top: "lstm2"
  recurrent_param {
    num_output: 1000
    weight_filler {
      type: "uniform"
      min: -0.08
      max: 0.08
    }
    bias_filler {
      type: "constant"
      value: 0
    }
  }
}
layer {
  name: "predict"
  type: "InnerProduct"
  bottom: "lstm2"
  top: "predict"
  param {
    lr_mult: 1
    decay_mult: 1
  }
  param {
    lr_mult: 2
    decay_mult: 0
  }
  inner_product_param {
    num_output: 46168
    weight_filler {
      type: "uniform"
      min: -0.08
      max: 0.08
    }
    bias_filler {
      type: "constant"
      value: 0
    }
    axis: 2
  }
}
layer {
  name: "probs"
  type: "Softmax"
  bottom: "predict"
  top: "probs"
  softmax_param {
    axis: 2
  }
}
I0925 22:30:01.951951 32520 layer_factory.hpp:77] Creating layer input
I0925 22:30:01.951973 32520 net.cpp:91] Creating Layer input
I0925 22:30:01.951989 32520 net.cpp:399] input -> frames_fc7
I0925 22:30:01.952011 32520 net.cpp:399] input -> cont_sentence
I0925 22:30:01.952033 32520 net.cpp:399] input -> input_sentence
I0925 22:30:01.952054 32520 net.cpp:399] input -> stage_indicator
I0925 22:30:01.952208 32518 net.cpp:49] Initializing net from parameters: 
name: "s2vt:features_to_lstm"
state {
  phase: TEST
}
layer {
  name: "input"
  type: "Input"
  top: "frames_fc7"
  top: "cont_sentence"
  top: "input_sentence"
  top: "stage_indicator"
  input_param {
    shape {
      dim: 1
      dim: 4096
    }
    shape {
      dim: 1
      dim: 1
    }
    shape {
      dim: 1
      dim: 1
    }
    shape {
      dim: 1
      dim: 1
    }
  }
}
layer {
  name: "embed_encoder"
  type: "InnerProduct"
  bottom: "frames_fc7"
  top: "embedded_in_frames"
  param {
    lr_mult: 1
    decay_mult: 1
  }
  param {
    lr_mult: 2
    decay_mult: 0
  }
  inner_product_param {
    num_output: 500
    weight_filler {
      type: "xavier"
    }
    bias_filler {
      type: "constant"
      value: 0.2
    }
  }
}
layer {
  name: "reshape_frames"
  type: "Reshape"
  bottom: "embedded_in_frames"
  top: "embedded_input_frames"
  reshape_param {
    shape {
      dim: 1
      dim: 1
      dim: 500
    }
  }
}
layer {
  name: "reshape_stage_indicator"
  type: "Reshape"
  bottom: "stage_indicator"
  top: "reshaped_stage_indicator"
  reshape_param {
    shape {
      dim: 1
      dim: 1
      dim: 1
    }
  }
}
layer {
  name: "embedding"
  type: "Embed"
  bottom: "input_sentence"
  top: "embedded_input_sentence"
  param {
    lr_mult: 1
  }
  embed_param {
    num_output: 500
    input_dim: 46168
    bias_term: false
    weight_filler {
      type: "uniform"
      min: -0.08
      max: 0.08
    }
  }
}
layer {
  name: "lstm1"
  type: "LSTM"
  bottom: "embedded_input_frames"
  bottom: "cont_sentence"
  top: "lstm1"
  recurrent_param {
    num_output: 1000
    weight_filler {
      type: "uniform"
      min: -0.08
      max: 0.08
    }
    bias_filler {
      type: "constant"
      value: 0
    }
  }
}
layer {
  name: "concat"
  type: "Concat"
  bottom: "lstm1"
  bottom: "embedded_input_sentence"
  bottom: "reshaped_stage_indicator"
  top: "lstm1_video_sequence"
  concat_param {
    concat_dim: 2
  }
}
layer {
  name: "lstm2"
  type: "LSTM"
  bottom: "lstm1_video_sequence"
  bottom: "cont_sentence"
  top: "lstm2"
  recurrent_param {
    num_output: 1000
    weight_filler {
      type: "uniform"
      min: -0.08
      max: 0.08
    }
    bias_filler {
      type: "constant"
      value: 0
    }
  }
}
layer {
  name: "predict"
  type: "InnerProduct"
  bottom: "lstm2"
  top: "predict"
  param {
    lr_mult: 1
    decay_mult: 1
  }
  param {
    lr_mult: 2
    decay_mult: 0
  }
  inner_product_param {
    num_output: 46168
    weight_filler {
      type: "uniform"
      min: -0.08
      max: 0.08
    }
    bias_filler {
      type: "constant"
      value: 0
    }
    axis: 2
  }
}
layer {
  name: "probs"
  type: "Softmax"
  bottom: "predict"
  top: "probs"
  softmax_param {
    axis: 2
  }
}
I0925 22:30:01.952380 32518 layer_factory.hpp:77] Creating layer input
I0925 22:30:01.952402 32518 net.cpp:91] Creating Layer input
I0925 22:30:01.952416 32518 net.cpp:399] input -> frames_fc7
I0925 22:30:01.952438 32518 net.cpp:399] input -> cont_sentence
I0925 22:30:01.952458 32518 net.cpp:399] input -> input_sentence
I0925 22:30:01.952479 32518 net.cpp:399] input -> stage_indicator
I0925 22:30:01.952631 32524 layer_factory.hpp:77] Creating layer input
I0925 22:30:01.952653 32524 net.cpp:91] Creating Layer input
I0925 22:30:01.952667 32524 net.cpp:399] input -> frames_fc7
I0925 22:30:01.952688 32524 net.cpp:399] input -> cont_sentence
I0925 22:30:01.952710 32524 net.cpp:399] input -> input_sentence
I0925 22:30:01.952730 32524 net.cpp:399] input -> stage_indicator
I0925 22:30:02.675734 32526 net.cpp:141] Setting up data
I0925 22:30:02.675812 32526 net.cpp:148] Top shape: 10 3 227 227 (1545870)
I0925 22:30:02.675819 32526 net.cpp:156] Memory required for data: 6183480
I0925 22:30:02.675839 32526 layer_factory.hpp:77] Creating layer conv1
I0925 22:30:02.675876 32526 net.cpp:91] Creating Layer conv1
I0925 22:30:02.675885 32526 net.cpp:425] conv1 <- data
I0925 22:30:02.675899 32526 net.cpp:399] conv1 -> conv1
I0925 22:30:02.675940 32552 net.cpp:141] Setting up input
I0925 22:30:02.675962 32552 net.cpp:148] Top shape: 1 4096 (4096)
I0925 22:30:02.675974 32552 net.cpp:148] Top shape: 1 1 (1)
I0925 22:30:02.675984 32552 net.cpp:148] Top shape: 1 1 (1)
I0925 22:30:02.675993 32552 net.cpp:148] Top shape: 1 1 (1)
I0925 22:30:02.676000 32552 net.cpp:156] Memory required for data: 16396
I0925 22:30:02.676009 32552 layer_factory.hpp:77] Creating layer cont_sentence_input_1_split
I0925 22:30:02.676033 32552 net.cpp:91] Creating Layer cont_sentence_input_1_split
I0925 22:30:02.676043 32552 net.cpp:425] cont_sentence_input_1_split <- cont_sentence
I0925 22:30:02.676067 32552 net.cpp:399] cont_sentence_input_1_split -> cont_sentence_input_1_split_0
I0925 22:30:02.676084 32552 net.cpp:399] cont_sentence_input_1_split -> cont_sentence_input_1_split_1
I0925 22:30:02.676966 32532 net.cpp:141] Setting up input
I0925 22:30:02.676985 32532 net.cpp:148] Top shape: 1 4096 (4096)
I0925 22:30:02.676993 32532 net.cpp:148] Top shape: 1 1 (1)
I0925 22:30:02.676998 32532 net.cpp:148] Top shape: 1 1 (1)
I0925 22:30:02.677004 32532 net.cpp:148] Top shape: 1 1 (1)
I0925 22:30:02.677008 32532 net.cpp:156] Memory required for data: 16396
I0925 22:30:02.677014 32532 layer_factory.hpp:77] Creating layer cont_sentence_input_1_split
I0925 22:30:02.677026 32532 net.cpp:91] Creating Layer cont_sentence_input_1_split
I0925 22:30:02.677031 32532 net.cpp:425] cont_sentence_input_1_split <- cont_sentence
I0925 22:30:02.677042 32532 net.cpp:399] cont_sentence_input_1_split -> cont_sentence_input_1_split_0
I0925 22:30:02.677052 32532 net.cpp:399] cont_sentence_input_1_split -> cont_sentence_input_1_split_1
I0925 22:30:02.677109 32532 net.cpp:141] Setting up cont_sentence_input_1_split
I0925 22:30:02.677119 32532 net.cpp:148] Top shape: 1 1 (1)
I0925 22:30:02.677125 32532 net.cpp:148] Top shape: 1 1 (1)
I0925 22:30:02.677130 32532 net.cpp:156] Memory required for data: 16404
I0925 22:30:02.677135 32532 layer_factory.hpp:77] Creating layer embed_encoder
I0925 22:30:02.677156 32532 net.cpp:91] Creating Layer embed_encoder
I0925 22:30:02.677161 32532 net.cpp:425] embed_encoder <- frames_fc7
I0925 22:30:02.677170 32532 net.cpp:399] embed_encoder -> embedded_in_frames
I0925 22:30:02.677279 32514 net.cpp:141] Setting up input
I0925 22:30:02.677315 32514 net.cpp:148] Top shape: 1 4096 (4096)
I0925 22:30:02.677323 32514 net.cpp:148] Top shape: 1 1 (1)
I0925 22:30:02.677330 32514 net.cpp:148] Top shape: 1 1 (1)
I0925 22:30:02.677335 32514 net.cpp:148] Top shape: 1 1 (1)
I0925 22:30:02.677340 32514 net.cpp:156] Memory required for data: 16396
I0925 22:30:02.677347 32514 layer_factory.hpp:77] Creating layer cont_sentence_input_1_split
I0925 22:30:02.677366 32514 net.cpp:91] Creating Layer cont_sentence_input_1_split
I0925 22:30:02.677372 32514 net.cpp:425] cont_sentence_input_1_split <- cont_sentence
I0925 22:30:02.677383 32514 net.cpp:399] cont_sentence_input_1_split -> cont_sentence_input_1_split_0
I0925 22:30:02.677398 32514 net.cpp:399] cont_sentence_input_1_split -> cont_sentence_input_1_split_1
I0925 22:30:02.677487 32552 net.cpp:141] Setting up cont_sentence_input_1_split
I0925 22:30:02.677503 32552 net.cpp:148] Top shape: 1 1 (1)
I0925 22:30:02.677515 32552 net.cpp:148] Top shape: 1 1 (1)
I0925 22:30:02.677522 32552 net.cpp:156] Memory required for data: 16404
I0925 22:30:02.677530 32552 layer_factory.hpp:77] Creating layer embed_encoder
I0925 22:30:02.677541 32552 net.cpp:91] Creating Layer embed_encoder
I0925 22:30:02.677547 32552 net.cpp:425] embed_encoder <- frames_fc7
I0925 22:30:02.677561 32552 net.cpp:399] embed_encoder -> embedded_in_frames
I0925 22:30:02.677616 32520 net.cpp:141] Setting up input
I0925 22:30:02.677629 32520 net.cpp:148] Top shape: 1 4096 (4096)
I0925 22:30:02.677635 32520 net.cpp:148] Top shape: 1 1 (1)
I0925 22:30:02.677641 32520 net.cpp:148] Top shape: 1 1 (1)
I0925 22:30:02.677647 32520 net.cpp:148] Top shape: 1 1 (1)
I0925 22:30:02.677651 32520 net.cpp:156] Memory required for data: 16396
I0925 22:30:02.677656 32520 layer_factory.hpp:77] Creating layer cont_sentence_input_1_split
I0925 22:30:02.677665 32520 net.cpp:91] Creating Layer cont_sentence_input_1_split
I0925 22:30:02.677671 32520 net.cpp:425] cont_sentence_input_1_split <- cont_sentence
I0925 22:30:02.677680 32520 net.cpp:399] cont_sentence_input_1_split -> cont_sentence_input_1_split_0
I0925 22:30:02.677690 32520 net.cpp:399] cont_sentence_input_1_split -> cont_sentence_input_1_split_1
I0925 22:30:02.677711 32518 net.cpp:141] Setting up input
I0925 22:30:02.677727 32518 net.cpp:148] Top shape: 1 4096 (4096)
I0925 22:30:02.677736 32514 net.cpp:141] Setting up cont_sentence_input_1_split
I0925 22:30:02.677736 32518 net.cpp:148] Top shape: 1 1 (1)
I0925 22:30:02.677759 32514 net.cpp:148] Top shape: 1 1 (1)
I0925 22:30:02.677762 32518 net.cpp:148] Top shape: 1 1 (1)
I0925 22:30:02.677767 32514 net.cpp:148] Top shape: 1 1 (1)
I0925 22:30:02.677769 32518 net.cpp:148] Top shape: 1 1 (1)
I0925 22:30:02.677777 32514 net.cpp:156] Memory required for data: 16404
I0925 22:30:02.677779 32518 net.cpp:156] Memory required for data: 16396
I0925 22:30:02.677783 32514 layer_factory.hpp:77] Creating layer embed_encoder
I0925 22:30:02.677786 32518 layer_factory.hpp:77] Creating layer cont_sentence_input_1_split
I0925 22:30:02.677799 32514 net.cpp:91] Creating Layer embed_encoder
I0925 22:30:02.677808 32514 net.cpp:425] embed_encoder <- frames_fc7
I0925 22:30:02.677808 32518 net.cpp:91] Creating Layer cont_sentence_input_1_split
I0925 22:30:02.677815 32518 net.cpp:425] cont_sentence_input_1_split <- cont_sentence
I0925 22:30:02.677817 32514 net.cpp:399] embed_encoder -> embedded_in_frames
I0925 22:30:02.677824 32518 net.cpp:399] cont_sentence_input_1_split -> cont_sentence_input_1_split_0
I0925 22:30:02.677844 32518 net.cpp:399] cont_sentence_input_1_split -> cont_sentence_input_1_split_1
I0925 22:30:02.689057 32558 net.cpp:141] Setting up input
I0925 22:30:02.689111 32558 net.cpp:148] Top shape: 1 4096 (4096)
I0925 22:30:02.689122 32558 net.cpp:148] Top shape: 1 1 (1)
I0925 22:30:02.689129 32558 net.cpp:148] Top shape: 1 1 (1)
I0925 22:30:02.689136 32558 net.cpp:148] Top shape: 1 1 (1)
I0925 22:30:02.689141 32558 net.cpp:156] Memory required for data: 16396
I0925 22:30:02.689157 32558 layer_factory.hpp:77] Creating layer cont_sentence_input_1_split
I0925 22:30:02.689182 32558 net.cpp:91] Creating Layer cont_sentence_input_1_split
I0925 22:30:02.689180 32518 net.cpp:141] Setting up cont_sentence_input_1_split
I0925 22:30:02.689191 32558 net.cpp:425] cont_sentence_input_1_split <- cont_sentence
I0925 22:30:02.689210 32518 net.cpp:148] Top shape: 1 1 (1)
I0925 22:30:02.689220 32558 net.cpp:399] cont_sentence_input_1_split -> cont_sentence_input_1_split_0
I0925 22:30:02.689223 32518 net.cpp:148] Top shape: 1 1 (1)
I0925 22:30:02.689230 32518 net.cpp:156] Memory required for data: 16404
I0925 22:30:02.689239 32558 net.cpp:399] cont_sentence_input_1_split -> cont_sentence_input_1_split_1
I0925 22:30:02.689240 32518 layer_factory.hpp:77] Creating layer embed_encoder
I0925 22:30:02.689280 32518 net.cpp:91] Creating Layer embed_encoder
I0925 22:30:02.689291 32518 net.cpp:425] embed_encoder <- frames_fc7
I0925 22:30:02.689303 32518 net.cpp:399] embed_encoder -> embedded_in_frames
I0925 22:30:02.691824 32520 net.cpp:141] Setting up cont_sentence_input_1_split
I0925 22:30:02.691846 32520 net.cpp:148] Top shape: 1 1 (1)
I0925 22:30:02.691856 32520 net.cpp:148] Top shape: 1 1 (1)
I0925 22:30:02.691861 32520 net.cpp:156] Memory required for data: 16404
I0925 22:30:02.691867 32520 layer_factory.hpp:77] Creating layer embed_encoder
I0925 22:30:02.691898 32520 net.cpp:91] Creating Layer embed_encoder
I0925 22:30:02.691910 32520 net.cpp:425] embed_encoder <- frames_fc7
I0925 22:30:02.691937 32520 net.cpp:399] embed_encoder -> embedded_in_frames
I0925 22:30:02.696440 32524 net.cpp:141] Setting up input
I0925 22:30:02.696491 32524 net.cpp:148] Top shape: 1 4096 (4096)
I0925 22:30:02.696504 32524 net.cpp:148] Top shape: 1 1 (1)
I0925 22:30:02.696516 32524 net.cpp:148] Top shape: 1 1 (1)
I0925 22:30:02.696532 32524 net.cpp:148] Top shape: 1 1 (1)
I0925 22:30:02.696539 32524 net.cpp:156] Memory required for data: 16396
I0925 22:30:02.696552 32524 layer_factory.hpp:77] Creating layer cont_sentence_input_1_split
I0925 22:30:02.696576 32524 net.cpp:91] Creating Layer cont_sentence_input_1_split
I0925 22:30:02.696588 32524 net.cpp:425] cont_sentence_input_1_split <- cont_sentence
I0925 22:30:02.696607 32524 net.cpp:399] cont_sentence_input_1_split -> cont_sentence_input_1_split_0
I0925 22:30:02.696657 32524 net.cpp:399] cont_sentence_input_1_split -> cont_sentence_input_1_split_1
I0925 22:30:02.702008 32558 net.cpp:141] Setting up cont_sentence_input_1_split
I0925 22:30:02.702050 32558 net.cpp:148] Top shape: 1 1 (1)
I0925 22:30:02.702064 32558 net.cpp:148] Top shape: 1 1 (1)
I0925 22:30:02.702072 32558 net.cpp:156] Memory required for data: 16404
I0925 22:30:02.702085 32558 layer_factory.hpp:77] Creating layer embed_encoder
I0925 22:30:02.702100 32524 net.cpp:141] Setting up cont_sentence_input_1_split
I0925 22:30:02.702112 32558 net.cpp:91] Creating Layer embed_encoder
I0925 22:30:02.702116 32524 net.cpp:148] Top shape: 1 1 (1)
I0925 22:30:02.702123 32558 net.cpp:425] embed_encoder <- frames_fc7
I0925 22:30:02.702126 32524 net.cpp:148] Top shape: 1 1 (1)
I0925 22:30:02.702133 32524 net.cpp:156] Memory required for data: 16404
I0925 22:30:02.702142 32524 layer_factory.hpp:77] Creating layer embed_encoder
I0925 22:30:02.702142 32558 net.cpp:399] embed_encoder -> embedded_in_frames
I0925 22:30:02.702172 32524 net.cpp:91] Creating Layer embed_encoder
I0925 22:30:02.702180 32524 net.cpp:425] embed_encoder <- frames_fc7
I0925 22:30:02.702191 32524 net.cpp:399] embed_encoder -> embedded_in_frames
I0925 22:30:02.719172 32532 net.cpp:141] Setting up embed_encoder
I0925 22:30:02.719224 32532 net.cpp:148] Top shape: 1 500 (500)
I0925 22:30:02.719234 32532 net.cpp:156] Memory required for data: 18404
I0925 22:30:02.719270 32532 layer_factory.hpp:77] Creating layer reshape_frames
I0925 22:30:02.719332 32552 net.cpp:141] Setting up embed_encoder
I0925 22:30:02.719352 32532 net.cpp:91] Creating Layer reshape_frames
I0925 22:30:02.719355 32552 net.cpp:148] Top shape: 1 500 (500)
I0925 22:30:02.719372 32532 net.cpp:425] reshape_frames <- embedded_in_frames
I0925 22:30:02.719372 32552 net.cpp:156] Memory required for data: 18404
I0925 22:30:02.719394 32532 net.cpp:399] reshape_frames -> embedded_input_frames
I0925 22:30:02.719395 32514 net.cpp:141] Setting up embed_encoder
I0925 22:30:02.719403 32552 layer_factory.hpp:77] Creating layer reshape_frames
I0925 22:30:02.719436 32514 net.cpp:148] Top shape: 1 500 (500)
I0925 22:30:02.719444 32552 net.cpp:91] Creating Layer reshape_frames
I0925 22:30:02.719449 32514 net.cpp:156] Memory required for data: 18404
I0925 22:30:02.719461 32552 net.cpp:425] reshape_frames <- embedded_in_frames
I0925 22:30:02.719476 32552 net.cpp:399] reshape_frames -> embedded_input_frames
I0925 22:30:02.719481 32514 layer_factory.hpp:77] Creating layer reshape_frames
I0925 22:30:02.719506 32514 net.cpp:91] Creating Layer reshape_frames
I0925 22:30:02.719516 32514 net.cpp:425] reshape_frames <- embedded_in_frames
I0925 22:30:02.719527 32514 net.cpp:399] reshape_frames -> embedded_input_frames
I0925 22:30:02.719698 32532 net.cpp:141] Setting up reshape_frames
I0925 22:30:02.719715 32532 net.cpp:148] Top shape: 1 1 500 (500)
I0925 22:30:02.719722 32532 net.cpp:156] Memory required for data: 20404
I0925 22:30:02.719730 32532 layer_factory.hpp:77] Creating layer reshape_stage_indicator
I0925 22:30:02.719738 32552 net.cpp:141] Setting up reshape_frames
I0925 22:30:02.719746 32532 net.cpp:91] Creating Layer reshape_stage_indicator
I0925 22:30:02.719754 32552 net.cpp:148] Top shape: 1 1 500 (500)
I0925 22:30:02.719755 32532 net.cpp:425] reshape_stage_indicator <- stage_indicator
I0925 22:30:02.719769 32552 net.cpp:156] Memory required for data: 20404
I0925 22:30:02.719776 32552 layer_factory.hpp:77] Creating layer reshape_stage_indicator
I0925 22:30:02.719779 32532 net.cpp:399] reshape_stage_indicator -> reshaped_stage_indicator
I0925 22:30:02.719780 32514 net.cpp:141] Setting up reshape_frames
I0925 22:30:02.719792 32552 net.cpp:91] Creating Layer reshape_stage_indicator
I0925 22:30:02.719797 32514 net.cpp:148] Top shape: 1 1 500 (500)
I0925 22:30:02.719802 32552 net.cpp:425] reshape_stage_indicator <- stage_indicator
I0925 22:30:02.719805 32514 net.cpp:156] Memory required for data: 20404
I0925 22:30:02.719815 32514 layer_factory.hpp:77] Creating layer reshape_stage_indicator
I0925 22:30:02.719841 32514 net.cpp:91] Creating Layer reshape_stage_indicator
I0925 22:30:02.719851 32514 net.cpp:425] reshape_stage_indicator <- stage_indicator
I0925 22:30:02.719867 32514 net.cpp:399] reshape_stage_indicator -> reshaped_stage_indicator
I0925 22:30:02.719816 32552 net.cpp:399] reshape_stage_indicator -> reshaped_stage_indicator
I0925 22:30:02.720676 32532 net.cpp:141] Setting up reshape_stage_indicator
I0925 22:30:02.720693 32532 net.cpp:148] Top shape: 1 1 1 (1)
I0925 22:30:02.720700 32532 net.cpp:156] Memory required for data: 20408
I0925 22:30:02.720708 32532 layer_factory.hpp:77] Creating layer embedding
I0925 22:30:02.720722 32514 net.cpp:141] Setting up reshape_stage_indicator
I0925 22:30:02.720726 32532 net.cpp:91] Creating Layer embedding
I0925 22:30:02.720752 32514 net.cpp:148] Top shape: 1 1 1 (1)
I0925 22:30:02.720755 32532 net.cpp:425] embedding <- input_sentence
I0925 22:30:02.720762 32514 net.cpp:156] Memory required for data: 20408
I0925 22:30:02.720764 32552 net.cpp:141] Setting up reshape_stage_indicator
I0925 22:30:02.720772 32532 net.cpp:399] embedding -> embedded_input_sentence
I0925 22:30:02.720772 32514 layer_factory.hpp:77] Creating layer embedding
I0925 22:30:02.720779 32552 net.cpp:148] Top shape: 1 1 1 (1)
I0925 22:30:02.720788 32552 net.cpp:156] Memory required for data: 20408
I0925 22:30:02.720793 32514 net.cpp:91] Creating Layer embedding
I0925 22:30:02.720795 32552 layer_factory.hpp:77] Creating layer embedding
I0925 22:30:02.720811 32514 net.cpp:425] embedding <- input_sentence
I0925 22:30:02.720825 32552 net.cpp:91] Creating Layer embedding
I0925 22:30:02.720829 32514 net.cpp:399] embedding -> embedded_input_sentence
I0925 22:30:02.720835 32552 net.cpp:425] embedding <- input_sentence
I0925 22:30:02.720857 32552 net.cpp:399] embedding -> embedded_input_sentence
I0925 22:30:02.866009 32518 net.cpp:141] Setting up embed_encoder
I0925 22:30:02.866696 32518 net.cpp:148] Top shape: 1 500 (500)
I0925 22:30:02.866724 32518 net.cpp:156] Memory required for data: 18404
I0925 22:30:02.866762 32518 layer_factory.hpp:77] Creating layer reshape_frames
I0925 22:30:02.866824 32518 net.cpp:91] Creating Layer reshape_frames
I0925 22:30:02.866839 32518 net.cpp:425] reshape_frames <- embedded_in_frames
I0925 22:30:02.866859 32518 net.cpp:399] reshape_frames -> embedded_input_frames
I0925 22:30:02.866994 32518 net.cpp:141] Setting up reshape_frames
I0925 22:30:02.867013 32518 net.cpp:148] Top shape: 1 1 500 (500)
I0925 22:30:02.867023 32518 net.cpp:156] Memory required for data: 20404
I0925 22:30:02.867035 32518 layer_factory.hpp:77] Creating layer reshape_stage_indicator
I0925 22:30:02.867059 32518 net.cpp:91] Creating Layer reshape_stage_indicator
I0925 22:30:02.867072 32518 net.cpp:425] reshape_stage_indicator <- stage_indicator
I0925 22:30:02.867113 32518 net.cpp:399] reshape_stage_indicator -> reshaped_stage_indicator
I0925 22:30:02.867207 32518 net.cpp:141] Setting up reshape_stage_indicator
I0925 22:30:02.867230 32518 net.cpp:148] Top shape: 1 1 1 (1)
I0925 22:30:02.867240 32518 net.cpp:156] Memory required for data: 20408
I0925 22:30:02.867249 32518 layer_factory.hpp:77] Creating layer embedding
I0925 22:30:02.867269 32518 net.cpp:91] Creating Layer embedding
I0925 22:30:02.867278 32518 net.cpp:425] embedding <- input_sentence
I0925 22:30:02.867310 32518 net.cpp:399] embedding -> embedded_input_sentence
I0925 22:30:02.914707 32524 net.cpp:141] Setting up embed_encoder
I0925 22:30:02.915336 32524 net.cpp:148] Top shape: 1 500 (500)
I0925 22:30:02.915577 32524 net.cpp:156] Memory required for data: 18404
I0925 22:30:02.915752 32524 layer_factory.hpp:77] Creating layer reshape_frames
I0925 22:30:02.915920 32524 net.cpp:91] Creating Layer reshape_frames
I0925 22:30:02.916085 32524 net.cpp:425] reshape_frames <- embedded_in_frames
I0925 22:30:02.916326 32524 net.cpp:399] reshape_frames -> embedded_input_frames
I0925 22:30:02.924477 32524 net.cpp:141] Setting up reshape_frames
I0925 22:30:02.924523 32520 net.cpp:141] Setting up embed_encoder
I0925 22:30:02.925032 32524 net.cpp:148] Top shape: 1 1 500 (500)
I0925 22:30:02.924602 32558 net.cpp:141] Setting up embed_encoder
I0925 22:30:02.925056 32520 net.cpp:148] Top shape: 1 500 (500)
I0925 22:30:02.925045 32524 net.cpp:156] Memory required for data: 20404
I0925 22:30:02.925070 32520 net.cpp:156] Memory required for data: 18404
I0925 22:30:02.925081 32524 layer_factory.hpp:77] Creating layer reshape_stage_indicator
I0925 22:30:02.925084 32558 net.cpp:148] Top shape: 1 500 (500)
I0925 22:30:02.925097 32558 net.cpp:156] Memory required for data: 18404
I0925 22:30:02.925103 32520 layer_factory.hpp:77] Creating layer reshape_frames
I0925 22:30:02.925112 32524 net.cpp:91] Creating Layer reshape_stage_indicator
I0925 22:30:02.925123 32524 net.cpp:425] reshape_stage_indicator <- stage_indicator
I0925 22:30:02.925130 32558 layer_factory.hpp:77] Creating layer reshape_frames
I0925 22:30:02.925123 32520 net.cpp:91] Creating Layer reshape_frames
I0925 22:30:02.925153 32524 net.cpp:399] reshape_stage_indicator -> reshaped_stage_indicator
I0925 22:30:02.925153 32520 net.cpp:425] reshape_frames <- embedded_in_frames
I0925 22:30:02.925159 32558 net.cpp:91] Creating Layer reshape_frames
I0925 22:30:02.925173 32558 net.cpp:425] reshape_frames <- embedded_in_frames
I0925 22:30:02.925179 32520 net.cpp:399] reshape_frames -> embedded_input_frames
I0925 22:30:02.925190 32558 net.cpp:399] reshape_frames -> embedded_input_frames
I0925 22:30:02.927791 32524 net.cpp:141] Setting up reshape_stage_indicator
I0925 22:30:02.927827 32524 net.cpp:148] Top shape: 1 1 1 (1)
I0925 22:30:02.927835 32524 net.cpp:156] Memory required for data: 20408
I0925 22:30:02.927845 32524 layer_factory.hpp:77] Creating layer embedding
I0925 22:30:02.927851 32520 net.cpp:141] Setting up reshape_frames
I0925 22:30:02.927865 32524 net.cpp:91] Creating Layer embedding
I0925 22:30:02.927875 32524 net.cpp:425] embedding <- input_sentence
I0925 22:30:02.927875 32520 net.cpp:148] Top shape: 1 1 500 (500)
I0925 22:30:02.927884 32520 net.cpp:156] Memory required for data: 20404
I0925 22:30:02.927889 32524 net.cpp:399] embedding -> embedded_input_sentence
I0925 22:30:02.927894 32520 layer_factory.hpp:77] Creating layer reshape_stage_indicator
I0925 22:30:02.927917 32520 net.cpp:91] Creating Layer reshape_stage_indicator
I0925 22:30:02.927927 32520 net.cpp:425] reshape_stage_indicator <- stage_indicator
I0925 22:30:02.927923 32558 net.cpp:141] Setting up reshape_frames
I0925 22:30:02.927942 32520 net.cpp:399] reshape_stage_indicator -> reshaped_stage_indicator
I0925 22:30:02.927954 32558 net.cpp:148] Top shape: 1 1 500 (500)
I0925 22:30:02.927963 32558 net.cpp:156] Memory required for data: 20404
I0925 22:30:02.927974 32558 layer_factory.hpp:77] Creating layer reshape_stage_indicator
I0925 22:30:02.927999 32558 net.cpp:91] Creating Layer reshape_stage_indicator
I0925 22:30:02.928010 32558 net.cpp:425] reshape_stage_indicator <- stage_indicator
I0925 22:30:02.928026 32558 net.cpp:399] reshape_stage_indicator -> reshaped_stage_indicator
I0925 22:30:02.978212 32520 net.cpp:141] Setting up reshape_stage_indicator
I0925 22:30:02.978296 32520 net.cpp:148] Top shape: 1 1 1 (1)
I0925 22:30:02.978310 32520 net.cpp:156] Memory required for data: 20408
I0925 22:30:02.978328 32520 layer_factory.hpp:77] Creating layer embedding
I0925 22:30:02.978320 32558 net.cpp:141] Setting up reshape_stage_indicator
I0925 22:30:02.978364 32520 net.cpp:91] Creating Layer embedding
I0925 22:30:02.978375 32558 net.cpp:148] Top shape: 1 1 1 (1)
I0925 22:30:02.978389 32558 net.cpp:156] Memory required for data: 20408
I0925 22:30:02.978399 32520 net.cpp:425] embedding <- input_sentence
I0925 22:30:02.978364 32532 net.cpp:141] Setting up embedding
I0925 22:30:02.978416 32558 layer_factory.hpp:77] Creating layer embedding
I0925 22:30:02.978423 32532 net.cpp:148] Top shape: 1 1 500 (500)
I0925 22:30:02.978425 32520 net.cpp:399] embedding -> embedded_input_sentence
I0925 22:30:02.978430 32532 net.cpp:156] Memory required for data: 22408
I0925 22:30:02.978451 32558 net.cpp:91] Creating Layer embedding
I0925 22:30:02.978464 32532 layer_factory.hpp:77] Creating layer lstm1
I0925 22:30:02.978467 32558 net.cpp:425] embedding <- input_sentence
I0925 22:30:02.978480 32532 net.cpp:91] Creating Layer lstm1
I0925 22:30:02.978488 32532 net.cpp:425] lstm1 <- embedded_input_frames
I0925 22:30:02.978492 32558 net.cpp:399] embedding -> embedded_input_sentence
I0925 22:30:02.978497 32532 net.cpp:425] lstm1 <- cont_sentence_input_1_split_0
I0925 22:30:02.978523 32532 net.cpp:399] lstm1 -> lstm1
I0925 22:30:02.978560 32532 recurrent_layer.cpp:20] Initializing recurrent layer: assuming input batch contains 1 timesteps of 1 independent streams.
I0925 22:30:02.978948 32532 net.cpp:49] Initializing net from parameters: 
layer {
  name: "lstm1_"
  type: "Input"
  top: "x"
  top: "cont"
  input_param {
    shape {
      dim: 1
      dim: 1
      dim: 500
    }
    shape {
      dim: 1
      dim: 1
    }
  }
}
layer {
  name: "lstm1_"
  type: "Input"
  top: "c_0"
  top: "h_0"
  input_param {
    shape {
      dim: 1
      dim: 1
      dim: 1000
    }
    shape {
      dim: 1
      dim: 1
      dim: 1000
    }
  }
}
layer {
  name: "lstm1_cont_slice"
  type: "Slice"
  bottom: "cont"
  top: "cont_1"
  slice_param {
    axis: 0
  }
}
layer {
  name: "lstm1_x_transform"
  type: "InnerProduct"
  bottom: "x"
  top: "W_xc_x"
  param {
    name: "W_xc"
  }
  param {
    name: "b_c"
  }
  propagate_down: true
  inner_product_param {
    num_output: 4000
    bias_term: true
    weight_filler {
      type: "uniform"
      min: -0.08
      max: 0.08
    }
    bias_filler {
      type: "constant"
      value: 0
    }
    axis: 2
  }
}
layer {
  name: "lstm1_W_xc_x_slice"
  type: "Slice"
  bottom: "W_xc_x"
  top: "W_xc_x_1"
  slice_param {
    axis: 0
  }
}
layer {
  name: "lstm1_h_conted_0"
  type: "Scale"
  bottom: "h_0"
  bottom: "cont_1"
  top: "h_conted_0"
  scale_param {
    axis: 0
  }
}
layer {
  name: "lstm1_transform_1"
  type: "InnerProduct"
  bottom: "h_conted_0"
  top: "W_hc_h_0"
  param {
    name: "W_hc"
  }
  inner_product_param {
    num_output: 4000
    bias_term: false
    weight_filler {
      type: "uniform"
      min: -0.08
      max: 0.08
    }
    axis: 2
  }
}
layer {
  name: "lstm1_gate_input_1"
  type: "Eltwise"
  bottom: "W_hc_h_0"
  bottom: "W_xc_x_1"
  top: "gate_input_1"
  eltwise_param {
    operation: SUM
  }
}
layer {
  name: "lstm1_unit_1"
  type: "LSTMUnit"
  bottom: "c_0"
  bottom: "gate_input_1"
  bottom: "cont_1"
  top: "c_1"
  top: "h_1"
}
layer {
  name: "lstm1_"
  type: "Split"
  bottom: "c_1"
  top: "c_T"
}
layer {
  name: "lstm1_h_concat"
  type: "Concat"
  bottom: "h_1"
  top: "h"
  concat_param {
    axis: 0
  }
}
layer {
  name: "h_pseudoloss"
  type: "Reduction"
  bottom: "h"
  top: "h_pseudoloss"
  loss_weight: 1
}
I0925 22:30:02.979046 32532 layer_factory.hpp:77] Creating layer lstm1_
I0925 22:30:02.979060 32532 net.cpp:91] Creating Layer lstm1_
I0925 22:30:02.979068 32532 net.cpp:399] lstm1_ -> x
I0925 22:30:02.979079 32532 net.cpp:399] lstm1_ -> cont
I0925 22:30:03.079066 32532 net.cpp:141] Setting up lstm1_
I0925 22:30:03.079726 32532 net.cpp:148] Top shape: 1 1 500 (500)
I0925 22:30:03.079890 32532 net.cpp:148] Top shape: 1 1 (1)
I0925 22:30:03.080051 32532 net.cpp:156] Memory required for data: 2004
I0925 22:30:03.080312 32532 layer_factory.hpp:77] Creating layer lstm1_
I0925 22:30:03.080487 32532 net.cpp:91] Creating Layer lstm1_
I0925 22:30:03.080660 32532 net.cpp:399] lstm1_ -> c_0
I0925 22:30:03.080831 32532 net.cpp:399] lstm1_ -> h_0
I0925 22:30:03.084050 32552 net.cpp:141] Setting up embedding
I0925 22:30:03.084079 32514 net.cpp:141] Setting up embedding
I0925 22:30:03.084100 32514 net.cpp:148] Top shape: 1 1 500 (500)
I0925 22:30:03.084101 32552 net.cpp:148] Top shape: 1 1 500 (500)
I0925 22:30:03.084106 32514 net.cpp:156] Memory required for data: 22408
I0925 22:30:03.084110 32552 net.cpp:156] Memory required for data: 22408
I0925 22:30:03.084125 32514 layer_factory.hpp:77] Creating layer lstm1
I0925 22:30:03.084130 32552 layer_factory.hpp:77] Creating layer lstm1
I0925 22:30:03.084146 32514 net.cpp:91] Creating Layer lstm1
I0925 22:30:03.084156 32514 net.cpp:425] lstm1 <- embedded_input_frames
I0925 22:30:03.084156 32552 net.cpp:91] Creating Layer lstm1
I0925 22:30:03.084163 32514 net.cpp:425] lstm1 <- cont_sentence_input_1_split_0
I0925 22:30:03.084169 32552 net.cpp:425] lstm1 <- embedded_input_frames
I0925 22:30:03.084174 32514 net.cpp:399] lstm1 -> lstm1
I0925 22:30:03.084182 32552 net.cpp:425] lstm1 <- cont_sentence_input_1_split_0
I0925 22:30:03.084194 32514 recurrent_layer.cpp:20] Initializing recurrent layer: assuming input batch contains 1 timesteps of 1 independent streams.
I0925 22:30:03.084198 32552 net.cpp:399] lstm1 -> lstm1
I0925 22:30:03.084203 32532 net.cpp:141] Setting up lstm1_
I0925 22:30:03.084218 32552 recurrent_layer.cpp:20] Initializing recurrent layer: assuming input batch contains 1 timesteps of 1 independent streams.
I0925 22:30:03.084224 32532 net.cpp:148] Top shape: 1 1 1000 (1000)
I0925 22:30:03.084250 32532 net.cpp:148] Top shape: 1 1 1000 (1000)
I0925 22:30:03.084261 32532 net.cpp:156] Memory required for data: 10004
I0925 22:30:03.084271 32532 layer_factory.hpp:77] Creating layer lstm1_cont_slice
I0925 22:30:03.084306 32532 net.cpp:91] Creating Layer lstm1_cont_slice
I0925 22:30:03.084318 32532 net.cpp:425] lstm1_cont_slice <- cont
I0925 22:30:03.084331 32532 net.cpp:399] lstm1_cont_slice -> cont_1
I0925 22:30:03.084508 32514 net.cpp:49] Initializing net from parameters: 
layer {
  name: "lstm1_"
  type: "Input"
  top: "x"
  top: "cont"
  input_param {
    shape {
      dim: 1
      dim: 1
      dim: 500
    }
    shape {
      dim: 1
      dim: 1
    }
  }
}
layer {
  name: "lstm1_"
  type: "Input"
  top: "c_0"
  top: "h_0"
  input_param {
    shape {
      dim: 1
      dim: 1
      dim: 1000
    }
    shape {
      dim: 1
      dim: 1
      dim: 1000
    }
  }
}
layer {
  name: "lstm1_cont_slice"
  type: "Slice"
  bottom: "cont"
  top: "cont_1"
  slice_param {
    axis: 0
  }
}
layer {
  name: "lstm1_x_transform"
  type: "InnerProduct"
  bottom: "x"
  top: "W_xc_x"
  param {
    name: "W_xc"
  }
  param {
    name: "b_c"
  }
  propagate_down: true
  inner_product_param {
    num_output: 4000
    bias_term: true
    weight_filler {
      type: "uniform"
      min: -0.08
      max: 0.08
    }
    bias_filler {
      type: "constant"
      value: 0
    }
    axis: 2
  }
}
layer {
  name: "lstm1_W_xc_x_slice"
  type: "Slice"
  bottom: "W_xc_x"
  top: "W_xc_x_1"
  slice_param {
    axis: 0
  }
}
layer {
  name: "lstm1_h_conted_0"
  type: "Scale"
  bottom: "h_0"
  bottom: "cont_1"
  top: "h_conted_0"
  scale_param {
    axis: 0
  }
}
layer {
  name: "lstm1_transform_1"
  type: "InnerProduct"
  bottom: "h_conted_0"
  top: "W_hc_h_0"
  param {
    name: "W_hc"
  }
  inner_product_param {
    num_output: 4000
    bias_term: false
    weight_filler {
      type: "uniform"
      min: -0.08
      max: 0.08
    }
    axis: 2
  }
}
layer {
  name: "lstm1_gate_input_1"
  type: "Eltwise"
  bottom: "W_hc_h_0"
  bottom: "W_xc_x_1"
  top: "gate_input_1"
  eltwise_param {
    operation: SUM
  }
}
layer {
  name: "lstm1_unit_1"
  type: "LSTMUnit"
  bottom: "c_0"
  bottom: "gate_input_1"
  bottom: "cont_1"
  top: "c_1"
  top: "h_1"
}
layer {
  name: "lstm1_"
  type: "Split"
  bottom: "c_1"
  top: "c_T"
}
layer {
  name: "lstm1_h_concat"
  type: "Concat"
  bottom: "h_1"
  top: "h"
  concat_param {
    axis: 0
  }
}
layer {
  name: "h_pseudoloss"
  type: "Reduction"
  bottom: "h"
  top: "h_pseudoloss"
  loss_weight: 1
}
I0925 22:30:03.084565 32552 net.cpp:49] Initializing net from parameters: 
layer {
  name: "lstm1_"
  type: "Input"
  top: "x"
  top: "cont"
  input_param {
    shape {
      dim: 1
      dim: 1
      dim: 500
    }
    shape {
      dim: 1
      dim: 1
    }
  }
}
layer {
  name: "lstm1_"
  type: "Input"
  top: "c_0"
  top: "h_0"
  input_param {
    shape {
      dim: 1
      dim: 1
      dim: 1000
    }
    shape {
      dim: 1
      dim: 1
      dim: 1000
    }
  }
}
layer {
  name: "lstm1_cont_slice"
  type: "Slice"
  bottom: "cont"
  top: "cont_1"
  slice_param {
    axis: 0
  }
}
layer {
  name: "lstm1_x_transform"
  type: "InnerProduct"
  bottom: "x"
  top: "W_xc_x"
  param {
    name: "W_xc"
  }
  param {
    name: "b_c"
  }
  propagate_down: true
  inner_product_param {
    num_output: 4000
    bias_term: true
    weight_filler {
      type: "uniform"
      min: -0.08
      max: 0.08
    }
    bias_filler {
      type: "constant"
      value: 0
    }
    axis: 2
  }
}
layer {
  name: "lstm1_W_xc_x_slice"
  type: "Slice"
  bottom: "W_xc_x"
  top: "W_xc_x_1"
  slice_param {
    axis: 0
  }
}
layer {
  name: "lstm1_h_conted_0"
  type: "Scale"
  bottom: "h_0"
  bottom: "cont_1"
  top: "h_conted_0"
  scale_param {
    axis: 0
  }
}
layer {
  name: "lstm1_transform_1"
  type: "InnerProduct"
  bottom: "h_conted_0"
  top: "W_hc_h_0"
  param {
    name: "W_hc"
  }
  inner_product_param {
    num_output: 4000
    bias_term: false
    weight_filler {
      type: "uniform"
      min: -0.08
      max: 0.08
    }
    axis: 2
  }
}
layer {
  name: "lstm1_gate_input_1"
  type: "Eltwise"
  bottom: "W_hc_h_0"
  bottom: "W_xc_x_1"
  top: "gate_input_1"
  eltwise_param {
    operation: SUM
  }
}
layer {
  name: "lstm1_unit_1"
  type: "LSTMUnit"
  bottom: "c_0"
  bottom: "gate_input_1"
  bottom: "cont_1"
  top: "c_1"
  top: "h_1"
}
layer {
  name: "lstm1_"
  type: "Split"
  bottom: "c_1"
  top: "c_T"
}
layer {
  name: "lstm1_h_concat"
  type: "Concat"
  bottom: "h_1"
  top: "h"
  concat_param {
    axis: 0
  }
}
layer {
  name: "h_pseudoloss"
  type: "Reduction"
  bottom: "h"
  top: "h_pseudoloss"
  loss_weight: 1
}
I0925 22:30:03.084609 32514 layer_factory.hpp:77] Creating layer lstm1_
I0925 22:30:03.084621 32514 net.cpp:91] Creating Layer lstm1_
I0925 22:30:03.084628 32514 net.cpp:399] lstm1_ -> x
I0925 22:30:03.084641 32514 net.cpp:399] lstm1_ -> cont
I0925 22:30:03.084710 32552 layer_factory.hpp:77] Creating layer lstm1_
I0925 22:30:03.084731 32552 net.cpp:91] Creating Layer lstm1_
I0925 22:30:03.084746 32552 net.cpp:399] lstm1_ -> x
I0925 22:30:03.084769 32552 net.cpp:399] lstm1_ -> cont
I0925 22:30:03.085167 32532 net.cpp:141] Setting up lstm1_cont_slice
I0925 22:30:03.085185 32532 net.cpp:148] Top shape: 1 1 (1)
I0925 22:30:03.085192 32532 net.cpp:156] Memory required for data: 10008
I0925 22:30:03.085213 32532 layer_factory.hpp:77] Creating layer cont_1_lstm1_cont_slice_0_split
I0925 22:30:03.085227 32532 net.cpp:91] Creating Layer cont_1_lstm1_cont_slice_0_split
I0925 22:30:03.085235 32532 net.cpp:425] cont_1_lstm1_cont_slice_0_split <- cont_1
I0925 22:30:03.085249 32514 net.cpp:141] Setting up lstm1_
I0925 22:30:03.085252 32532 net.cpp:399] cont_1_lstm1_cont_slice_0_split -> cont_1_lstm1_cont_slice_0_split_0
I0925 22:30:03.085268 32514 net.cpp:148] Top shape: 1 1 500 (500)
I0925 22:30:03.085278 32514 net.cpp:148] Top shape: 1 1 (1)
I0925 22:30:03.085283 32514 net.cpp:156] Memory required for data: 2004
I0925 22:30:03.085283 32532 net.cpp:399] cont_1_lstm1_cont_slice_0_split -> cont_1_lstm1_cont_slice_0_split_1
I0925 22:30:03.085289 32514 layer_factory.hpp:77] Creating layer lstm1_
I0925 22:30:03.085300 32514 net.cpp:91] Creating Layer lstm1_
I0925 22:30:03.085314 32514 net.cpp:399] lstm1_ -> c_0
I0925 22:30:03.085326 32514 net.cpp:399] lstm1_ -> h_0
I0925 22:30:03.091747 32532 net.cpp:141] Setting up cont_1_lstm1_cont_slice_0_split
I0925 22:30:03.091785 32532 net.cpp:148] Top shape: 1 1 (1)
I0925 22:30:03.091796 32532 net.cpp:148] Top shape: 1 1 (1)
I0925 22:30:03.091804 32532 net.cpp:156] Memory required for data: 10016
I0925 22:30:03.091815 32532 layer_factory.hpp:77] Creating layer lstm1_x_transform
I0925 22:30:03.091847 32532 net.cpp:91] Creating Layer lstm1_x_transform
I0925 22:30:03.091858 32532 net.cpp:425] lstm1_x_transform <- x
I0925 22:30:03.091874 32532 net.cpp:399] lstm1_x_transform -> W_xc_x
I0925 22:30:03.091864 32552 net.cpp:141] Setting up lstm1_
I0925 22:30:03.091912 32552 net.cpp:148] Top shape: 1 1 500 (500)
I0925 22:30:03.091929 32552 net.cpp:148] Top shape: 1 1 (1)
I0925 22:30:03.091939 32552 net.cpp:156] Memory required for data: 2004
I0925 22:30:03.091953 32552 layer_factory.hpp:77] Creating layer lstm1_
I0925 22:30:03.091992 32552 net.cpp:91] Creating Layer lstm1_
I0925 22:30:03.092010 32552 net.cpp:399] lstm1_ -> c_0
I0925 22:30:03.092041 32552 net.cpp:399] lstm1_ -> h_0
I0925 22:30:03.097412 32514 net.cpp:141] Setting up lstm1_
I0925 22:30:03.097446 32514 net.cpp:148] Top shape: 1 1 1000 (1000)
I0925 22:30:03.097458 32514 net.cpp:148] Top shape: 1 1 1000 (1000)
I0925 22:30:03.097465 32514 net.cpp:156] Memory required for data: 10004
I0925 22:30:03.097476 32514 layer_factory.hpp:77] Creating layer lstm1_cont_slice
I0925 22:30:03.097498 32514 net.cpp:91] Creating Layer lstm1_cont_slice
I0925 22:30:03.097508 32514 net.cpp:425] lstm1_cont_slice <- cont
I0925 22:30:03.097527 32514 net.cpp:399] lstm1_cont_slice -> cont_1
I0925 22:30:03.098793 32514 net.cpp:141] Setting up lstm1_cont_slice
I0925 22:30:03.098811 32514 net.cpp:148] Top shape: 1 1 (1)
I0925 22:30:03.098819 32514 net.cpp:156] Memory required for data: 10008
I0925 22:30:03.098827 32514 layer_factory.hpp:77] Creating layer cont_1_lstm1_cont_slice_0_split
I0925 22:30:03.098857 32514 net.cpp:91] Creating Layer cont_1_lstm1_cont_slice_0_split
I0925 22:30:03.098867 32514 net.cpp:425] cont_1_lstm1_cont_slice_0_split <- cont_1
I0925 22:30:03.098879 32514 net.cpp:399] cont_1_lstm1_cont_slice_0_split -> cont_1_lstm1_cont_slice_0_split_0
I0925 22:30:03.098894 32514 net.cpp:399] cont_1_lstm1_cont_slice_0_split -> cont_1_lstm1_cont_slice_0_split_1
I0925 22:30:03.099109 32514 net.cpp:141] Setting up cont_1_lstm1_cont_slice_0_split
I0925 22:30:03.099125 32514 net.cpp:148] Top shape: 1 1 (1)
I0925 22:30:03.099136 32514 net.cpp:148] Top shape: 1 1 (1)
I0925 22:30:03.099144 32514 net.cpp:156] Memory required for data: 10016
I0925 22:30:03.099153 32514 layer_factory.hpp:77] Creating layer lstm1_x_transform
I0925 22:30:03.099174 32514 net.cpp:91] Creating Layer lstm1_x_transform
I0925 22:30:03.099184 32514 net.cpp:425] lstm1_x_transform <- x
I0925 22:30:03.099197 32514 net.cpp:399] lstm1_x_transform -> W_xc_x
I0925 22:30:03.106506 32552 net.cpp:141] Setting up lstm1_
I0925 22:30:03.106570 32552 net.cpp:148] Top shape: 1 1 1000 (1000)
I0925 22:30:03.106583 32552 net.cpp:148] Top shape: 1 1 1000 (1000)
I0925 22:30:03.106592 32552 net.cpp:156] Memory required for data: 10004
I0925 22:30:03.106627 32552 layer_factory.hpp:77] Creating layer lstm1_cont_slice
I0925 22:30:03.106657 32552 net.cpp:91] Creating Layer lstm1_cont_slice
I0925 22:30:03.106669 32552 net.cpp:425] lstm1_cont_slice <- cont
I0925 22:30:03.106727 32552 net.cpp:399] lstm1_cont_slice -> cont_1
I0925 22:30:03.115056 32552 net.cpp:141] Setting up lstm1_cont_slice
I0925 22:30:03.115108 32552 net.cpp:148] Top shape: 1 1 (1)
I0925 22:30:03.115116 32552 net.cpp:156] Memory required for data: 10008
I0925 22:30:03.115129 32552 layer_factory.hpp:77] Creating layer cont_1_lstm1_cont_slice_0_split
I0925 22:30:03.115150 32552 net.cpp:91] Creating Layer cont_1_lstm1_cont_slice_0_split
I0925 22:30:03.115161 32552 net.cpp:425] cont_1_lstm1_cont_slice_0_split <- cont_1
I0925 22:30:03.115176 32552 net.cpp:399] cont_1_lstm1_cont_slice_0_split -> cont_1_lstm1_cont_slice_0_split_0
I0925 22:30:03.115195 32552 net.cpp:399] cont_1_lstm1_cont_slice_0_split -> cont_1_lstm1_cont_slice_0_split_1
I0925 22:30:03.116303 32552 net.cpp:141] Setting up cont_1_lstm1_cont_slice_0_split
I0925 22:30:03.116320 32552 net.cpp:148] Top shape: 1 1 (1)
I0925 22:30:03.116331 32552 net.cpp:148] Top shape: 1 1 (1)
I0925 22:30:03.116338 32552 net.cpp:156] Memory required for data: 10016
I0925 22:30:03.116348 32552 layer_factory.hpp:77] Creating layer lstm1_x_transform
I0925 22:30:03.116375 32552 net.cpp:91] Creating Layer lstm1_x_transform
I0925 22:30:03.116385 32552 net.cpp:425] lstm1_x_transform <- x
I0925 22:30:03.116400 32552 net.cpp:399] lstm1_x_transform -> W_xc_x
I0925 22:30:03.125401 32532 net.cpp:141] Setting up lstm1_x_transform
I0925 22:30:03.125450 32532 net.cpp:148] Top shape: 1 1 4000 (4000)
I0925 22:30:03.125457 32532 net.cpp:156] Memory required for data: 26016
I0925 22:30:03.125478 32532 layer_factory.hpp:77] Creating layer lstm1_W_xc_x_slice
I0925 22:30:03.125495 32532 net.cpp:91] Creating Layer lstm1_W_xc_x_slice
I0925 22:30:03.125502 32532 net.cpp:425] lstm1_W_xc_x_slice <- W_xc_x
I0925 22:30:03.125511 32532 net.cpp:399] lstm1_W_xc_x_slice -> W_xc_x_1
I0925 22:30:03.127290 32532 net.cpp:141] Setting up lstm1_W_xc_x_slice
I0925 22:30:03.127317 32532 net.cpp:148] Top shape: 1 1 4000 (4000)
I0925 22:30:03.127326 32532 net.cpp:156] Memory required for data: 42016
I0925 22:30:03.127331 32532 layer_factory.hpp:77] Creating layer lstm1_h_conted_0
I0925 22:30:03.127356 32532 net.cpp:91] Creating Layer lstm1_h_conted_0
I0925 22:30:03.127362 32532 net.cpp:425] lstm1_h_conted_0 <- h_0
I0925 22:30:03.127369 32532 net.cpp:425] lstm1_h_conted_0 <- cont_1_lstm1_cont_slice_0_split_0
I0925 22:30:03.127378 32532 net.cpp:399] lstm1_h_conted_0 -> h_conted_0
I0925 22:30:03.131908 32518 net.cpp:141] Setting up embedding
I0925 22:30:03.131952 32532 net.cpp:141] Setting up lstm1_h_conted_0
I0925 22:30:03.131971 32518 net.cpp:148] Top shape: 1 1 500 (500)
I0925 22:30:03.132000 32532 net.cpp:148] Top shape: 1 1 1000 (1000)
I0925 22:30:03.132004 32518 net.cpp:156] Memory required for data: 22408
I0925 22:30:03.132007 32532 net.cpp:156] Memory required for data: 46016
I0925 22:30:03.132017 32532 layer_factory.hpp:77] Creating layer lstm1_transform_1
I0925 22:30:03.132030 32518 layer_factory.hpp:77] Creating layer lstm1
I0925 22:30:03.132040 32532 net.cpp:91] Creating Layer lstm1_transform_1
I0925 22:30:03.132048 32532 net.cpp:425] lstm1_transform_1 <- h_conted_0
I0925 22:30:03.132057 32518 net.cpp:91] Creating Layer lstm1
I0925 22:30:03.132061 32532 net.cpp:399] lstm1_transform_1 -> W_hc_h_0
I0925 22:30:03.132084 32518 net.cpp:425] lstm1 <- embedded_input_frames
I0925 22:30:03.132093 32514 net.cpp:141] Setting up lstm1_x_transform
I0925 22:30:03.132098 32518 net.cpp:425] lstm1 <- cont_sentence_input_1_split_0
I0925 22:30:03.132120 32514 net.cpp:148] Top shape: 1 1 4000 (4000)
I0925 22:30:03.132127 32514 net.cpp:156] Memory required for data: 26016
I0925 22:30:03.132143 32514 layer_factory.hpp:77] Creating layer lstm1_W_xc_x_slice
I0925 22:30:03.132146 32518 net.cpp:399] lstm1 -> lstm1
I0925 22:30:03.132156 32514 net.cpp:91] Creating Layer lstm1_W_xc_x_slice
I0925 22:30:03.132164 32514 net.cpp:425] lstm1_W_xc_x_slice <- W_xc_x
I0925 22:30:03.132171 32514 net.cpp:399] lstm1_W_xc_x_slice -> W_xc_x_1
I0925 22:30:03.132171 32518 recurrent_layer.cpp:20] Initializing recurrent layer: assuming input batch contains 1 timesteps of 1 independent streams.
I0925 22:30:03.132693 32518 net.cpp:49] Initializing net from parameters: 
layer {
  name: "lstm1_"
  type: "Input"
  top: "x"
  top: "cont"
  input_param {
    shape {
      dim: 1
      dim: 1
      dim: 500
    }
    shape {
      dim: 1
      dim: 1
    }
  }
}
layer {
  name: "lstm1_"
  type: "Input"
  top: "c_0"
  top: "h_0"
  input_param {
    shape {
      dim: 1
      dim: 1
      dim: 1000
    }
    shape {
      dim: 1
      dim: 1
      dim: 1000
    }
  }
}
layer {
  name: "lstm1_cont_slice"
  type: "Slice"
  bottom: "cont"
  top: "cont_1"
  slice_param {
    axis: 0
  }
}
layer {
  name: "lstm1_x_transform"
  type: "InnerProduct"
  bottom: "x"
  top: "W_xc_x"
  param {
    name: "W_xc"
  }
  param {
    name: "b_c"
  }
  propagate_down: true
  inner_product_param {
    num_output: 4000
    bias_term: true
    weight_filler {
      type: "uniform"
      min: -0.08
      max: 0.08
    }
    bias_filler {
      type: "constant"
      value: 0
    }
    axis: 2
  }
}
layer {
  name: "lstm1_W_xc_x_slice"
  type: "Slice"
  bottom: "W_xc_x"
  top: "W_xc_x_1"
  slice_param {
    axis: 0
  }
}
layer {
  name: "lstm1_h_conted_0"
  type: "Scale"
  bottom: "h_0"
  bottom: "cont_1"
  top: "h_conted_0"
  scale_param {
    axis: 0
  }
}
layer {
  name: "lstm1_transform_1"
  type: "InnerProduct"
  bottom: "h_conted_0"
  top: "W_hc_h_0"
  param {
    name: "W_hc"
  }
  inner_product_param {
    num_output: 4000
    bias_term: false
    weight_filler {
      type: "uniform"
      min: -0.08
      max: 0.08
    }
    axis: 2
  }
}
layer {
  name: "lstm1_gate_input_1"
  type: "Eltwise"
  bottom: "W_hc_h_0"
  bottom: "W_xc_x_1"
  top: "gate_input_1"
  eltwise_param {
    operation: SUM
  }
}
layer {
  name: "lstm1_unit_1"
  type: "LSTMUnit"
  bottom: "c_0"
  bottom: "gate_input_1"
  bottom: "cont_1"
  top: "c_1"
  top: "h_1"
}
layer {
  name: "lstm1_"
  type: "Split"
  bottom: "c_1"
  top: "c_T"
}
layer {
  name: "lstm1_h_concat"
  type: "Concat"
  bottom: "h_1"
  top: "h"
  concat_param {
    axis: 0
  }
}
layer {
  name: "h_pseudoloss"
  type: "Reduction"
  bottom: "h"
  top: "h_pseudoloss"
  loss_weight: 1
}
I0925 22:30:03.132856 32518 layer_factory.hpp:77] Creating layer lstm1_
I0925 22:30:03.132880 32518 net.cpp:91] Creating Layer lstm1_
I0925 22:30:03.132895 32518 net.cpp:399] lstm1_ -> x
I0925 22:30:03.133219 32518 net.cpp:399] lstm1_ -> cont
I0925 22:30:03.150363 32514 net.cpp:141] Setting up lstm1_W_xc_x_slice
I0925 22:30:03.150421 32514 net.cpp:148] Top shape: 1 1 4000 (4000)
I0925 22:30:03.150431 32514 net.cpp:156] Memory required for data: 42016
I0925 22:30:03.150444 32514 layer_factory.hpp:77] Creating layer lstm1_h_conted_0
I0925 22:30:03.150470 32514 net.cpp:91] Creating Layer lstm1_h_conted_0
I0925 22:30:03.150480 32514 net.cpp:425] lstm1_h_conted_0 <- h_0
I0925 22:30:03.150493 32514 net.cpp:425] lstm1_h_conted_0 <- cont_1_lstm1_cont_slice_0_split_0
I0925 22:30:03.150507 32514 net.cpp:399] lstm1_h_conted_0 -> h_conted_0
I0925 22:30:03.150746 32518 net.cpp:141] Setting up lstm1_
I0925 22:30:03.150770 32518 net.cpp:148] Top shape: 1 1 500 (500)
I0925 22:30:03.150784 32518 net.cpp:148] Top shape: 1 1 (1)
I0925 22:30:03.150792 32518 net.cpp:156] Memory required for data: 2004
I0925 22:30:03.150802 32518 layer_factory.hpp:77] Creating layer lstm1_
I0925 22:30:03.150827 32518 net.cpp:91] Creating Layer lstm1_
I0925 22:30:03.150853 32518 net.cpp:399] lstm1_ -> c_0
I0925 22:30:03.150881 32518 net.cpp:399] lstm1_ -> h_0
I0925 22:30:03.150900 32514 net.cpp:141] Setting up lstm1_h_conted_0
I0925 22:30:03.150918 32514 net.cpp:148] Top shape: 1 1 1000 (1000)
I0925 22:30:03.150926 32514 net.cpp:156] Memory required for data: 46016
I0925 22:30:03.150934 32514 layer_factory.hpp:77] Creating layer lstm1_transform_1
I0925 22:30:03.150954 32514 net.cpp:91] Creating Layer lstm1_transform_1
I0925 22:30:03.150961 32514 net.cpp:425] lstm1_transform_1 <- h_conted_0
I0925 22:30:03.150975 32514 net.cpp:399] lstm1_transform_1 -> W_hc_h_0
I0925 22:30:03.167598 32552 net.cpp:141] Setting up lstm1_x_transform
I0925 22:30:03.167660 32552 net.cpp:148] Top shape: 1 1 4000 (4000)
I0925 22:30:03.167654 32518 net.cpp:141] Setting up lstm1_
I0925 22:30:03.167670 32552 net.cpp:156] Memory required for data: 26016
I0925 22:30:03.167697 32518 net.cpp:148] Top shape: 1 1 1000 (1000)
I0925 22:30:03.167706 32518 net.cpp:148] Top shape: 1 1 1000 (1000)
I0925 22:30:03.167711 32518 net.cpp:156] Memory required for data: 10004
I0925 22:30:03.167718 32518 layer_factory.hpp:77] Creating layer lstm1_cont_slice
I0925 22:30:03.167721 32552 layer_factory.hpp:77] Creating layer lstm1_W_xc_x_slice
I0925 22:30:03.167742 32518 net.cpp:91] Creating Layer lstm1_cont_slice
I0925 22:30:03.167745 32552 net.cpp:91] Creating Layer lstm1_W_xc_x_slice
I0925 22:30:03.167749 32518 net.cpp:425] lstm1_cont_slice <- cont
I0925 22:30:03.167770 32552 net.cpp:425] lstm1_W_xc_x_slice <- W_xc_x
I0925 22:30:03.167783 32518 net.cpp:399] lstm1_cont_slice -> cont_1
I0925 22:30:03.167793 32552 net.cpp:399] lstm1_W_xc_x_slice -> W_xc_x_1
I0925 22:30:03.167876 32518 net.cpp:141] Setting up lstm1_cont_slice
I0925 22:30:03.167887 32518 net.cpp:148] Top shape: 1 1 (1)
I0925 22:30:03.167892 32518 net.cpp:156] Memory required for data: 10008
I0925 22:30:03.167897 32518 layer_factory.hpp:77] Creating layer cont_1_lstm1_cont_slice_0_split
I0925 22:30:03.167909 32518 net.cpp:91] Creating Layer cont_1_lstm1_cont_slice_0_split
I0925 22:30:03.167915 32518 net.cpp:425] cont_1_lstm1_cont_slice_0_split <- cont_1
I0925 22:30:03.167922 32518 net.cpp:399] cont_1_lstm1_cont_slice_0_split -> cont_1_lstm1_cont_slice_0_split_0
I0925 22:30:03.167934 32518 net.cpp:399] cont_1_lstm1_cont_slice_0_split -> cont_1_lstm1_cont_slice_0_split_1
I0925 22:30:03.167935 32552 net.cpp:141] Setting up lstm1_W_xc_x_slice
I0925 22:30:03.167954 32552 net.cpp:148] Top shape: 1 1 4000 (4000)
I0925 22:30:03.167963 32552 net.cpp:156] Memory required for data: 42016
I0925 22:30:03.167971 32552 layer_factory.hpp:77] Creating layer lstm1_h_conted_0
I0925 22:30:03.167987 32552 net.cpp:91] Creating Layer lstm1_h_conted_0
I0925 22:30:03.167996 32552 net.cpp:425] lstm1_h_conted_0 <- h_0
I0925 22:30:03.168006 32552 net.cpp:425] lstm1_h_conted_0 <- cont_1_lstm1_cont_slice_0_split_0
I0925 22:30:03.168026 32552 net.cpp:399] lstm1_h_conted_0 -> h_conted_0
I0925 22:30:03.173086 32552 net.cpp:141] Setting up lstm1_h_conted_0
I0925 22:30:03.173120 32552 net.cpp:148] Top shape: 1 1 1000 (1000)
I0925 22:30:03.173130 32552 net.cpp:156] Memory required for data: 46016
I0925 22:30:03.173141 32552 layer_factory.hpp:77] Creating layer lstm1_transform_1
I0925 22:30:03.173137 32518 net.cpp:141] Setting up cont_1_lstm1_cont_slice_0_split
I0925 22:30:03.173174 32518 net.cpp:148] Top shape: 1 1 (1)
I0925 22:30:03.173174 32552 net.cpp:91] Creating Layer lstm1_transform_1
I0925 22:30:03.173185 32518 net.cpp:148] Top shape: 1 1 (1)
I0925 22:30:03.173190 32518 net.cpp:156] Memory required for data: 10016
I0925 22:30:03.173190 32552 net.cpp:425] lstm1_transform_1 <- h_conted_0
I0925 22:30:03.173202 32518 layer_factory.hpp:77] Creating layer lstm1_x_transform
I0925 22:30:03.173212 32552 net.cpp:399] lstm1_transform_1 -> W_hc_h_0
I0925 22:30:03.173225 32518 net.cpp:91] Creating Layer lstm1_x_transform
I0925 22:30:03.173233 32518 net.cpp:425] lstm1_x_transform <- x
I0925 22:30:03.173244 32518 net.cpp:399] lstm1_x_transform -> W_xc_x
I0925 22:30:03.193537 32532 net.cpp:141] Setting up lstm1_transform_1
I0925 22:30:03.193594 32532 net.cpp:148] Top shape: 1 1 4000 (4000)
I0925 22:30:03.193603 32532 net.cpp:156] Memory required for data: 62016
I0925 22:30:03.193631 32532 layer_factory.hpp:77] Creating layer lstm1_gate_input_1
I0925 22:30:03.193657 32532 net.cpp:91] Creating Layer lstm1_gate_input_1
I0925 22:30:03.193668 32532 net.cpp:425] lstm1_gate_input_1 <- W_hc_h_0
I0925 22:30:03.193680 32532 net.cpp:425] lstm1_gate_input_1 <- W_xc_x_1
I0925 22:30:03.193696 32532 net.cpp:399] lstm1_gate_input_1 -> gate_input_1
I0925 22:30:03.199761 32532 net.cpp:141] Setting up lstm1_gate_input_1
I0925 22:30:03.199857 32532 net.cpp:148] Top shape: 1 1 4000 (4000)
I0925 22:30:03.199870 32532 net.cpp:156] Memory required for data: 78016
I0925 22:30:03.199887 32532 layer_factory.hpp:77] Creating layer lstm1_unit_1
I0925 22:30:03.199934 32532 net.cpp:91] Creating Layer lstm1_unit_1
I0925 22:30:03.199950 32532 net.cpp:425] lstm1_unit_1 <- c_0
I0925 22:30:03.199939 32524 net.cpp:141] Setting up embedding
I0925 22:30:03.199970 32532 net.cpp:425] lstm1_unit_1 <- gate_input_1
I0925 22:30:03.200031 32532 net.cpp:425] lstm1_unit_1 <- cont_1_lstm1_cont_slice_0_split_1
I0925 22:30:03.200031 32524 net.cpp:148] Top shape: 1 1 500 (500)
I0925 22:30:03.200079 32532 net.cpp:399] lstm1_unit_1 -> c_1
I0925 22:30:03.200089 32524 net.cpp:156] Memory required for data: 22408
I0925 22:30:03.200108 32532 net.cpp:399] lstm1_unit_1 -> h_1
I0925 22:30:03.200132 32524 layer_factory.hpp:77] Creating layer lstm1
I0925 22:30:03.200178 32524 net.cpp:91] Creating Layer lstm1
I0925 22:30:03.200197 32524 net.cpp:425] lstm1 <- embedded_input_frames
I0925 22:30:03.200217 32524 net.cpp:425] lstm1 <- cont_sentence_input_1_split_0
I0925 22:30:03.200238 32524 net.cpp:399] lstm1 -> lstm1
I0925 22:30:03.200273 32524 recurrent_layer.cpp:20] Initializing recurrent layer: assuming input batch contains 1 timesteps of 1 independent streams.
I0925 22:30:03.200904 32524 net.cpp:49] Initializing net from parameters: 
layer {
  name: "lstm1_"
  type: "Input"
  top: "x"
  top: "cont"
  input_param {
    shape {
      dim: 1
      dim: 1
      dim: 500
    }
    shape {
      dim: 1
      dim: 1
    }
  }
}
layer {
  name: "lstm1_"
  type: "Input"
  top: "c_0"
  top: "h_0"
  input_param {
    shape {
      dim: 1
      dim: 1
      dim: 1000
    }
    shape {
      dim: 1
      dim: 1
      dim: 1000
    }
  }
}
layer {
  name: "lstm1_cont_slice"
  type: "Slice"
  bottom: "cont"
  top: "cont_1"
  slice_param {
    axis: 0
  }
}
layer {
  name: "lstm1_x_transform"
  type: "InnerProduct"
  bottom: "x"
  top: "W_xc_x"
  param {
    name: "W_xc"
  }
  param {
    name: "b_c"
  }
  propagate_down: true
  inner_product_param {
    num_output: 4000
    bias_term: true
    weight_filler {
      type: "uniform"
      min: -0.08
      max: 0.08
    }
    bias_filler {
      type: "constant"
      value: 0
    }
    axis: 2
  }
}
layer {
  name: "lstm1_W_xc_x_slice"
  type: "Slice"
  bottom: "W_xc_x"
  top: "W_xc_x_1"
  slice_param {
    axis: 0
  }
}
layer {
  name: "lstm1_h_conted_0"
  type: "Scale"
  bottom: "h_0"
  bottom: "cont_1"
  top: "h_conted_0"
  scale_param {
    axis: 0
  }
}
layer {
  name: "lstm1_transform_1"
  type: "InnerProduct"
  bottom: "h_conted_0"
  top: "W_hc_h_0"
  param {
    name: "W_hc"
  }
  inner_product_param {
    num_output: 4000
    bias_term: false
    weight_filler {
      type: "uniform"
      min: -0.08
      max: 0.08
    }
    axis: 2
  }
}
layer {
  name: "lstm1_gate_input_1"
  type: "Eltwise"
  bottom: "W_hc_h_0"
  bottom: "W_xc_x_1"
  top: "gate_input_1"
  eltwise_param {
    operation: SUM
  }
}
layer {
  name: "lstm1_unit_1"
  type: "LSTMUnit"
  bottom: "c_0"
  bottom: "gate_input_1"
  bottom: "cont_1"
  top: "c_1"
  top: "h_1"
}
layer {
  name: "lstm1_"
  type: "Split"
  bottom: "c_1"
  top: "c_T"
}
layer {
  name: "lstm1_h_concat"
  type: "Concat"
  bottom: "h_1"
  top: "h"
  concat_param {
    axis: 0
  }
}
layer {
  name: "h_pseudoloss"
  type: "Reduction"
  bottom: "h"
  top: "h_pseudoloss"
  loss_weight: 1
}
I0925 22:30:03.201103 32524 layer_factory.hpp:77] Creating layer lstm1_
I0925 22:30:03.201131 32524 net.cpp:91] Creating Layer lstm1_
I0925 22:30:03.201144 32524 net.cpp:399] lstm1_ -> x
I0925 22:30:03.201169 32524 net.cpp:399] lstm1_ -> cont
I0925 22:30:03.201546 32532 net.cpp:141] Setting up lstm1_unit_1
I0925 22:30:03.201584 32532 net.cpp:148] Top shape: 1 1 1000 (1000)
I0925 22:30:03.201599 32532 net.cpp:148] Top shape: 1 1 1000 (1000)
I0925 22:30:03.201609 32532 net.cpp:156] Memory required for data: 86016
I0925 22:30:03.201622 32532 layer_factory.hpp:77] Creating layer lstm1_
I0925 22:30:03.201647 32532 net.cpp:91] Creating Layer lstm1_
I0925 22:30:03.201660 32532 net.cpp:425] lstm1_ <- c_1
I0925 22:30:03.201680 32532 net.cpp:399] lstm1_ -> c_T
I0925 22:30:03.201689 32524 net.cpp:141] Setting up lstm1_
I0925 22:30:03.201715 32524 net.cpp:148] Top shape: 1 1 500 (500)
I0925 22:30:03.201728 32524 net.cpp:148] Top shape: 1 1 (1)
I0925 22:30:03.201738 32524 net.cpp:156] Memory required for data: 2004
I0925 22:30:03.201750 32524 layer_factory.hpp:77] Creating layer lstm1_
I0925 22:30:03.201778 32524 net.cpp:91] Creating Layer lstm1_
I0925 22:30:03.201781 32514 net.cpp:141] Setting up lstm1_transform_1
I0925 22:30:03.201792 32524 net.cpp:399] lstm1_ -> c_0
I0925 22:30:03.201834 32514 net.cpp:148] Top shape: 1 1 4000 (4000)
I0925 22:30:03.201848 32524 net.cpp:399] lstm1_ -> h_0
I0925 22:30:03.201850 32532 net.cpp:141] Setting up lstm1_
I0925 22:30:03.201872 32532 net.cpp:148] Top shape: 1 1 1000 (1000)
I0925 22:30:03.201850 32514 net.cpp:156] Memory required for data: 62016
I0925 22:30:03.201882 32532 net.cpp:156] Memory required for data: 90016
I0925 22:30:03.201894 32532 layer_factory.hpp:77] Creating layer lstm1_h_concat
I0925 22:30:03.201906 32514 layer_factory.hpp:77] Creating layer lstm1_gate_input_1
I0925 22:30:03.201920 32532 net.cpp:91] Creating Layer lstm1_h_concat
I0925 22:30:03.201931 32532 net.cpp:425] lstm1_h_concat <- h_1
I0925 22:30:03.201943 32514 net.cpp:91] Creating Layer lstm1_gate_input_1
I0925 22:30:03.201952 32532 net.cpp:399] lstm1_h_concat -> h
I0925 22:30:03.201961 32514 net.cpp:425] lstm1_gate_input_1 <- W_hc_h_0
I0925 22:30:03.201975 32514 net.cpp:425] lstm1_gate_input_1 <- W_xc_x_1
I0925 22:30:03.201987 32514 net.cpp:399] lstm1_gate_input_1 -> gate_input_1
I0925 22:30:03.202246 32532 net.cpp:141] Setting up lstm1_h_concat
I0925 22:30:03.202265 32532 net.cpp:148] Top shape: 1 1 1000 (1000)
I0925 22:30:03.202273 32532 net.cpp:156] Memory required for data: 94016
I0925 22:30:03.202282 32532 layer_factory.hpp:77] Creating layer h_pseudoloss
I0925 22:30:03.202308 32532 net.cpp:91] Creating Layer h_pseudoloss
I0925 22:30:03.202322 32532 net.cpp:425] h_pseudoloss <- h
I0925 22:30:03.202342 32532 net.cpp:399] h_pseudoloss -> h_pseudoloss
I0925 22:30:03.202339 32514 net.cpp:141] Setting up lstm1_gate_input_1
I0925 22:30:03.202395 32514 net.cpp:148] Top shape: 1 1 4000 (4000)
I0925 22:30:03.202406 32514 net.cpp:156] Memory required for data: 78016
I0925 22:30:03.202417 32514 layer_factory.hpp:77] Creating layer lstm1_unit_1
I0925 22:30:03.202437 32514 net.cpp:91] Creating Layer lstm1_unit_1
I0925 22:30:03.202450 32514 net.cpp:425] lstm1_unit_1 <- c_0
I0925 22:30:03.202466 32514 net.cpp:425] lstm1_unit_1 <- gate_input_1
I0925 22:30:03.202477 32514 net.cpp:425] lstm1_unit_1 <- cont_1_lstm1_cont_slice_0_split_1
I0925 22:30:03.202493 32514 net.cpp:399] lstm1_unit_1 -> c_1
I0925 22:30:03.202513 32514 net.cpp:399] lstm1_unit_1 -> h_1
I0925 22:30:03.202828 32524 net.cpp:141] Setting up lstm1_
I0925 22:30:03.202847 32524 net.cpp:148] Top shape: 1 1 1000 (1000)
I0925 22:30:03.202875 32524 net.cpp:148] Top shape: 1 1 1000 (1000)
I0925 22:30:03.202883 32524 net.cpp:156] Memory required for data: 10004
I0925 22:30:03.202891 32524 layer_factory.hpp:77] Creating layer lstm1_cont_slice
I0925 22:30:03.202905 32524 net.cpp:91] Creating Layer lstm1_cont_slice
I0925 22:30:03.202913 32524 net.cpp:425] lstm1_cont_slice <- cont
I0925 22:30:03.202934 32524 net.cpp:399] lstm1_cont_slice -> cont_1
I0925 22:30:03.202958 32532 net.cpp:141] Setting up h_pseudoloss
I0925 22:30:03.202977 32532 net.cpp:148] Top shape: (1)
I0925 22:30:03.203007 32524 net.cpp:141] Setting up lstm1_cont_slice
I0925 22:30:03.202985 32532 net.cpp:151]     with loss weight 1
I0925 22:30:03.203022 32524 net.cpp:148] Top shape: 1 1 (1)
I0925 22:30:03.203037 32532 net.cpp:156] Memory required for data: 94020
I0925 22:30:03.203060 32524 net.cpp:156] Memory required for data: 10008
I0925 22:30:03.203074 32532 net.cpp:217] h_pseudoloss needs backward computation.
I0925 22:30:03.203091 32524 layer_factory.hpp:77] Creating layer cont_1_lstm1_cont_slice_0_split
I0925 22:30:03.203099 32532 net.cpp:217] lstm1_h_concat needs backward computation.
…
I0925 22:30:03.203194 32532 net.cpp:219] cont_1_lstm1_cont_slice_0_split does not need backward computation.
I0925 22:30:03.203202 32532 net.cpp:219] lstm1_cont_slice does not need backward computation.
I0925 22:30:03.203212 32532 net.cpp:219] lstm1_ does not need backward computation.
I0925 22:30:03.203218 32532 net.cpp:219] lstm1_ does not need backward computation.
I0925 22:30:03.203224 32532 net.cpp:261] This network produces output c_T
I0925 22:30:03.203232 32532 net.cpp:261] This network produces output h_pseudoloss
I0925 22:30:03.203240 32524 net.cpp:141] Setting up cont_1_lstm1_cont_slice_0_split
I0925 22:30:03.203254 32524 net.cpp:148] Top shape: 1 1 (1)
I0925 22:30:03.203261 32532 net.cpp:274] Network initialization done.
I0925 22:30:03.203265 32524 net.cpp:148] Top shape: 1 1 (1)
I0925 22:30:03.203274 32524 net.cpp:156] Memory required for data: 10016
I0925 22:30:03.203281 32524 layer_factory.hpp:77] Creating layer lstm1_x_transform
I0925 22:30:03.203305 32524 net.cpp:91] Creating Layer lstm1_x_transform
I0925 22:30:03.203312 32524 net.cpp:425] lstm1_x_transform <- x
I0925 22:30:03.203325 32524 net.cpp:399] lstm1_x_transform -> W_xc_x
I0925 22:30:03.203341 32532 recurrent_layer.cpp:150] Adding parameter 0: W_xc
I0925 22:30:03.203351 32532 recurrent_layer.cpp:150] Adding parameter 1: b_c
I0925 22:30:03.203358 32532 recurrent_layer.cpp:150] Adding parameter 2: W_hc
I0925 22:30:03.203522 32532 net.cpp:141] Setting up lstm1
I0925 22:30:03.203537 32532 net.cpp:148] Top shape: 1 1 1000 (1000)
I0925 22:30:03.203544 32532 net.cpp:156] Memory required for data: 26408
I0925 22:30:03.203565 32532 layer_factory.hpp:77] Creating layer concat
I0925 22:30:03.203577 32532 net.cpp:91] Creating Layer concat
I0925 22:30:03.203586 32532 net.cpp:425] concat <- lstm1
I0925 22:30:03.203596 32532 net.cpp:425] concat <- embedded_input_sentence
I0925 22:30:03.203605 32532 net.cpp:425] concat <- reshaped_stage_indicator
I0925 22:30:03.203615 32532 net.cpp:399] concat -> lstm1_video_sequence
I0925 22:30:03.203660 32532 net.cpp:141] Setting up concat
I0925 22:30:03.203672 32532 net.cpp:148] Top shape: 1 1 1501 (1501)
I0925 22:30:03.203680 32532 net.cpp:156] Memory required for data: 32412
I0925 22:30:03.203686 32532 layer_factory.hpp:77] Creating layer lstm2
I0925 22:30:03.203703 32532 net.cpp:91] Creating Layer lstm2
I0925 22:30:03.203711 32532 net.cpp:425] lstm2 <- lstm1_video_sequence
I0925 22:30:03.203722 32532 net.cpp:425] lstm2 <- cont_sentence_input_1_split_1
I0925 22:30:03.203733 32532 net.cpp:399] lstm2 -> lstm2
I0925 22:30:03.203748 32532 recurrent_layer.cpp:20] Initializing recurrent layer: assuming input batch contains 1 timesteps of 1 independent streams.
I0925 22:30:03.204107 32532 net.cpp:49] Initializing net from parameters: 
layer {
  name: "lstm2_"
  type: "Input"
  top: "x"
  top: "cont"
  input_param {
    shape {
      dim: 1
      dim: 1
      dim: 1501
    }
    shape {
      dim: 1
      dim: 1
    }
  }
}
layer {
  name: "lstm2_"
  type: "Input"
  top: "c_0"
  top: "h_0"
  input_param {
    shape {
      dim: 1
      dim: 1
      dim: 1000
    }
    shape {
      dim: 1
      dim: 1
      dim: 1000
    }
  }
}
layer {
  name: "lstm2_cont_slice"
  type: "Slice"
  bottom: "cont"
  top: "cont_1"
  slice_param {
    axis: 0
  }
}
layer {
  name: "lstm2_x_transform"
  type: "InnerProduct"
  bottom: "x"
  top: "W_xc_x"
  param {
    name: "W_xc"
  }
  param {
    name: "b_c"
  }
  propagate_down: true
  inner_product_param {
    num_output: 4000
    bias_term: true
    weight_filler {
      type: "uniform"
      min: -0.08
      max: 0.08
    }
    bias_filler {
      type: "constant"
      value: 0
    }
    axis: 2
  }
}
layer {
  name: "lstm2_W_xc_x_slice"
  type: "Slice"
  bottom: "W_xc_x"
  top: "W_xc_x_1"
  slice_param {
    axis: 0
  }
}
layer {
  name: "lstm2_h_conted_0"
  type: "Scale"
  bottom: "h_0"
  bottom: "cont_1"
  top: "h_conted_0"
  scale_param {
    axis: 0
  }
}
layer {
  name: "lstm2_transform_1"
  type: "InnerProduct"
  bottom: "h_conted_0"
  top: "W_hc_h_0"
  param {
    name: "W_hc"
  }
  inner_product_param {
    num_output: 4000
    bias_term: false
    weight_filler {
      type: "uniform"
      min: -0.08
      max: 0.08
    }
    axis: 2
  }
}
layer {
  name: "lstm2_gate_input_1"
  type: "Eltwise"
  bottom: "W_hc_h_0"
  bottom: "W_xc_x_1"
  top: "gate_input_1"
  eltwise_param {
    operation: SUM
  }
}
layer {
  name: "lstm2_unit_1"
  type: "LSTMUnit"
  bottom: "c_0"
  bottom: "gate_input_1"
  bottom: "cont_1"
  top: "c_1"
  top: "h_1"
}
layer {
  name: "lstm2_"
  type: "Split"
  bottom: "c_1"
  top: "c_T"
}
layer {
  name: "lstm2_h_concat"
  type: "Concat"
  bottom: "h_1"
  top: "h"
  concat_param {
    axis: 0
  }
}
layer {
  name: "h_pseudoloss"
  type: "Reduction"
  bottom: "h"
  top: "h_pseudoloss"
  loss_weight: 1
}
I0925 22:30:03.204227 32532 layer_factory.hpp:77] Creating layer lstm2_
I0925 22:30:03.204241 32532 net.cpp:91] Creating Layer lstm2_
I0925 22:30:03.204255 32532 net.cpp:399] lstm2_ -> x
I0925 22:30:03.204267 32532 net.cpp:399] lstm2_ -> cont
I0925 22:30:03.212091 32514 net.cpp:141] Setting up lstm1_unit_1
I0925 22:30:03.212146 32514 net.cpp:148] Top shape: 1 1 1000 (1000)
I0925 22:30:03.212162 32514 net.cpp:148] Top shape: 1 1 1000 (1000)
I0925 22:30:03.212172 32514 net.cpp:156] Memory required for data: 86016
I0925 22:30:03.212187 32514 layer_factory.hpp:77] Creating layer lstm1_
I0925 22:30:03.212224 32514 net.cpp:91] Creating Layer lstm1_
I0925 22:30:03.212237 32514 net.cpp:425] lstm1_ <- c_1
I0925 22:30:03.212256 32514 net.cpp:399] lstm1_ -> c_T
I0925 22:30:03.212318 32514 net.cpp:141] Setting up lstm1_
I0925 22:30:03.212335 32514 net.cpp:148] Top shape: 1 1 1000 (1000)
I0925 22:30:03.212344 32514 net.cpp:156] Memory required for data: 90016
I0925 22:30:03.212353 32514 layer_factory.hpp:77] Creating layer lstm1_h_concat
I0925 22:30:03.212371 32514 net.cpp:91] Creating Layer lstm1_h_concat
I0925 22:30:03.212381 32514 net.cpp:425] lstm1_h_concat <- h_1
I0925 22:30:03.212400 32514 net.cpp:399] lstm1_h_concat -> h
I0925 22:30:03.212463 32514 net.cpp:141] Setting up lstm1_h_concat
I0925 22:30:03.212481 32514 net.cpp:148] Top shape: 1 1 1000 (1000)
I0925 22:30:03.212489 32514 net.cpp:156] Memory required for data: 94016
I0925 22:30:03.212498 32514 layer_factory.hpp:77] Creating layer h_pseudoloss
I0925 22:30:03.212513 32514 net.cpp:91] Creating Layer h_pseudoloss
I0925 22:30:03.212522 32514 net.cpp:425] h_pseudoloss <- h
I0925 22:30:03.212538 32514 net.cpp:399] h_pseudoloss -> h_pseudoloss
I0925 22:30:03.212847 32518 net.cpp:141] Setting up lstm1_x_transform
I0925 22:30:03.212868 32518 net.cpp:148] Top shape: 1 1 4000 (4000)
I0925 22:30:03.212877 32518 net.cpp:156] Memory required for data: 26016
I0925 22:30:03.212898 32518 layer_factory.hpp:77] Creating layer lstm1_W_xc_x_slice
I0925 22:30:03.212913 32518 net.cpp:91] Creating Layer lstm1_W_xc_x_slice
I0925 22:30:03.212924 32518 net.cpp:425] lstm1_W_xc_x_slice <- W_xc_x
I0925 22:30:03.212935 32518 net.cpp:399] lstm1_W_xc_x_slice -> W_xc_x_1
I0925 22:30:03.212996 32518 net.cpp:141] Setting up lstm1_W_xc_x_slice
I0925 22:30:03.213011 32518 net.cpp:148] Top shape: 1 1 4000 (4000)
I0925 22:30:03.213018 32518 net.cpp:156] Memory required for data: 42016
I0925 22:30:03.213027 32518 layer_factory.hpp:77] Creating layer lstm1_h_conted_0
I0925 22:30:03.213042 32518 net.cpp:91] Creating Layer lstm1_h_conted_0
I0925 22:30:03.213050 32518 net.cpp:425] lstm1_h_conted_0 <- h_0
I0925 22:30:03.213060 32518 net.cpp:425] lstm1_h_conted_0 <- cont_1_lstm1_cont_slice_0_split_0
I0925 22:30:03.213071 32518 net.cpp:399] lstm1_h_conted_0 -> h_conted_0
I0925 22:30:03.213297 32532 net.cpp:141] Setting up lstm2_
I0925 22:30:03.213337 32532 net.cpp:148] Top shape: 1 1 1501 (1501)
I0925 22:30:03.213349 32532 net.cpp:148] Top shape: 1 1 (1)
I0925 22:30:03.213352 32514 net.cpp:141] Setting up h_pseudoloss
I0925 22:30:03.213379 32514 net.cpp:148] Top shape: (1)
I0925 22:30:03.213388 32514 net.cpp:151]     with loss weight 1
I0925 22:30:03.213413 32514 net.cpp:156] Memory required for data: 94020
I0925 22:30:03.213423 32514 net.cpp:217] h_pseudoloss needs backward computation.
I0925 22:30:03.213431 32514 net.cpp:217] lstm1_h_concat needs backward computation.
I0925 22:30:03.213436 32518 net.cpp:141] Setting up lstm1_h_conted_0
I0925 22:30:03.213440 32514 net.cpp:219] lstm1_ does not need backward computation.
I0925 22:30:03.213460 32518 net.cpp:148] Top shape: 1 1 1000 (1000)
I0925 22:30:03.213461 32514 net.cpp:217] lstm1_unit_1 needs backward computation.
I0925 22:30:03.213472 32518 net.cpp:156] Memory required for data: 46016
I0925 22:30:03.213481 32518 layer_factory.hpp:77] Creating layer lstm1_transform_1
I0925 22:30:03.213485 32514 net.cpp:217] lstm1_gate_input_1 needs backward computation.
I0925 22:30:03.213496 32514 net.cpp:217] lstm1_transform_1 needs backward computation.
…
I0925 22:30:03.213683 32514 recurrent_layer.cpp:150] Adding parameter 0: W_xc
I0925 22:30:03.213696 32514 recurrent_layer.cpp:150] Adding parameter 1: b_c
I0925 22:30:03.213711 32514 recurrent_layer.cpp:150] Adding parameter 2: W_hc
I0925 22:30:03.213357 32532 net.cpp:156] Memory required for data: 6008
I0925 22:30:03.214704 32532 layer_factory.hpp:77] Creating layer lstm2_
I0925 22:30:03.214735 32532 net.cpp:91] Creating Layer lstm2_
I0925 22:30:03.214751 32532 net.cpp:399] lstm2_ -> c_0
I0925 22:30:03.214776 32532 net.cpp:399] lstm2_ -> h_0
I0925 22:30:03.223748 32558 net.cpp:141] Setting up embedding
I0925 22:30:03.223788 32558 net.cpp:148] Top shape: 1 1 500 (500)
I0925 22:30:03.223798 32558 net.cpp:156] Memory required for data: 22408
I0925 22:30:03.223824 32558 layer_factory.hpp:77] Creating layer lstm1
I0925 22:30:03.223850 32558 net.cpp:91] Creating Layer lstm1
I0925 22:30:03.223862 32558 net.cpp:425] lstm1 <- embedded_input_frames
I0925 22:30:03.223875 32558 net.cpp:425] lstm1 <- cont_sentence_input_1_split_0
I0925 22:30:03.223891 32558 net.cpp:399] lstm1 -> lstm1
I0925 22:30:03.223915 32558 recurrent_layer.cpp:20] Initializing recurrent layer: assuming input batch contains 1 timesteps of 1 independent streams.
I0925 22:30:03.224335 32558 net.cpp:49] Initializing net from parameters: 
layer {
  name: "lstm1_"
  type: "Input"
  top: "x"
  top: "cont"
  input_param {
    shape {
      dim: 1
      dim: 1
      dim: 500
    }
    shape {
      dim: 1
      dim: 1
    }
  }
}
layer {
  name: "lstm1_"
  type: "Input"
  top: "c_0"
  top: "h_0"
  input_param {
    shape {
      dim: 1
      dim: 1
      dim: 1000
    }
    shape {
      dim: 1
      dim: 1
      dim: 1000
    }
  }
}
layer {
  name: "lstm1_cont_slice"
  type: "Slice"
  bottom: "cont"
  top: "cont_1"
  slice_param {
    axis: 0
  }
}
layer {
  name: "lstm1_x_transform"
  type: "InnerProduct"
  bottom: "x"
  top: "W_xc_x"
  param {
    name: "W_xc"
  }
  param {
    name: "b_c"
  }
  propagate_down: true
  inner_product_param {
    num_output: 4000
    bias_term: true
    weight_filler {
      type: "uniform"
      min: -0.08
      max: 0.08
    }
    bias_filler {
      type: "constant"
      value: 0
    }
    axis: 2
  }
}
layer {
  name: "lstm1_W_xc_x_slice"
  type: "Slice"
  bottom: "W_xc_x"
  top: "W_xc_x_1"
  slice_param {
    axis: 0
  }
}
layer {
  name: "lstm1_h_conted_0"
  type: "Scale"
  bottom: "h_0"
  bottom: "cont_1"
  top: "h_conted_0"
  scale_param {
    axis: 0
  }
}
layer {
  name: "lstm1_transform_1"
  type: "InnerProduct"
  bottom: "h_conted_0"
  top: "W_hc_h_0"
  param {
    name: "W_hc"
  }
  inner_product_param {
    num_output: 4000
    bias_term: false
    weight_filler {
      type: "uniform"
      min: -0.08
      max: 0.08
    }
    axis: 2
  }
}
layer {
  name: "lstm1_gate_input_1"
  type: "Eltwise"
  bottom: "W_hc_h_0"
  bottom: "W_xc_x_1"
  top: "gate_input_1"
  eltwise_param {
    operation: SUM
  }
}
layer {
  name: "lstm1_unit_1"
  type: "LSTMUnit"
  bottom: "c_0"
  bottom: "gate_input_1"
  bottom: "cont_1"
  top: "c_1"
  top: "h_1"
}
layer {
  name: "lstm1_"
  type: "Split"
  bottom: "c_1"
  top: "c_T"
}
layer {
  name: "lstm1_h_concat"
  type: "Concat"
  bottom: "h_1"
  top: "h"
  concat_param {
    axis: 0
  }
}
layer {
  name: "h_pseudoloss"
  type: "Reduction"
  bottom: "h"
  top: "h_pseudoloss"
  loss_weight: 1
}
I0925 22:30:03.224472 32558 layer_factory.hpp:77] Creating layer lstm1_
I0925 22:30:03.224489 32558 net.cpp:91] Creating Layer lstm1_
I0925 22:30:03.224500 32558 net.cpp:399] lstm1_ -> x
I0925 22:30:03.224519 32558 net.cpp:399] lstm1_ -> cont
I0925 22:30:03.224609 32558 net.cpp:141] Setting up lstm1_
I0925 22:30:03.224627 32558 net.cpp:148] Top shape: 1 1 500 (500)
I0925 22:30:03.224637 32558 net.cpp:148] Top shape: 1 1 (1)
I0925 22:30:03.224644 32558 net.cpp:156] Memory required for data: 2004
I0925 22:30:03.224653 32558 layer_factory.hpp:77] Creating layer lstm1_
I0925 22:30:03.224666 32558 net.cpp:91] Creating Layer lstm1_
I0925 22:30:03.224678 32558 net.cpp:399] lstm1_ -> c_0
I0925 22:30:03.224694 32558 net.cpp:399] lstm1_ -> h_0
I0925 22:30:03.224774 32558 net.cpp:141] Setting up lstm1_
I0925 22:30:03.224789 32558 net.cpp:148] Top shape: 1 1 1000 (1000)
I0925 22:30:03.224799 32558 net.cpp:148] Top shape: 1 1 1000 (1000)
I0925 22:30:03.224805 32558 net.cpp:156] Memory required for data: 10004
I0925 22:30:03.224813 32558 layer_factory.hpp:77] Creating layer lstm1_cont_slice
I0925 22:30:03.224828 32558 net.cpp:91] Creating Layer lstm1_cont_slice
I0925 22:30:03.224835 32558 net.cpp:425] lstm1_cont_slice <- cont
I0925 22:30:03.224851 32558 net.cpp:399] lstm1_cont_slice -> cont_1
I0925 22:30:03.224913 32558 net.cpp:141] Setting up lstm1_cont_slice
I0925 22:30:03.224930 32558 net.cpp:148] Top shape: 1 1 (1)
I0925 22:30:03.224936 32558 net.cpp:156] Memory required for data: 10008
I0925 22:30:03.224943 32558 layer_factory.hpp:77] Creating layer cont_1_lstm1_cont_slice_0_split
I0925 22:30:03.224956 32558 net.cpp:91] Creating Layer cont_1_lstm1_cont_slice_0_split
I0925 22:30:03.224964 32558 net.cpp:425] cont_1_lstm1_cont_slice_0_split <- cont_1
I0925 22:30:03.224974 32558 net.cpp:399] cont_1_lstm1_cont_slice_0_split -> cont_1_lstm1_cont_slice_0_split_0
I0925 22:30:03.224989 32558 net.cpp:399] cont_1_lstm1_cont_slice_0_split -> cont_1_lstm1_cont_slice_0_split_1
I0925 22:30:03.225067 32532 net.cpp:141] Setting up lstm2_
I0925 22:30:03.225114 32532 net.cpp:148] Top shape: 1 1 1000 (1000)
I0925 22:30:03.225127 32532 net.cpp:148] Top shape: 1 1 1000 (1000)
I0925 22:30:03.225136 32532 net.cpp:156] Memory required for data: 14008
I0925 22:30:03.225147 32532 layer_factory.hpp:77] Creating layer lstm2_cont_slice
I0925 22:30:03.225172 32532 net.cpp:91] Creating Layer lstm2_cont_slice
I0925 22:30:03.225183 32532 net.cpp:425] lstm2_cont_slice <- cont
I0925 22:30:03.225204 32532 net.cpp:399] lstm2_cont_slice -> cont_1
I0925 22:30:03.225271 32532 net.cpp:141] Setting up lstm2_cont_slice
I0925 22:30:03.225288 32532 net.cpp:148] Top shape: 1 1 (1)
I0925 22:30:03.225296 32532 net.cpp:156] Memory required for data: 14012
I0925 22:30:03.225306 32532 layer_factory.hpp:77] Creating layer cont_1_lstm2_cont_slice_0_split
I0925 22:30:03.225320 32532 net.cpp:91] Creating Layer cont_1_lstm2_cont_slice_0_split
I0925 22:30:03.225329 32532 net.cpp:425] cont_1_lstm2_cont_slice_0_split <- cont_1
I0925 22:30:03.225342 32532 net.cpp:399] cont_1_lstm2_cont_slice_0_split -> cont_1_lstm2_cont_slice_0_split_0
I0925 22:30:03.225361 32532 net.cpp:399] cont_1_lstm2_cont_slice_0_split -> cont_1_lstm2_cont_slice_0_split_1
I0925 22:30:03.225446 32532 net.cpp:141] Setting up cont_1_lstm2_cont_slice_0_split
I0925 22:30:03.225463 32532 net.cpp:148] Top shape: 1 1 (1)
I0925 22:30:03.225476 32532 net.cpp:148] Top shape: 1 1 (1)
I0925 22:30:03.225482 32532 net.cpp:156] Memory required for data: 14020
I0925 22:30:03.225492 32532 layer_factory.hpp:77] Creating layer lstm2_x_transform
I0925 22:30:03.225517 32532 net.cpp:91] Creating Layer lstm2_x_transform
I0925 22:30:03.225528 32532 net.cpp:425] lstm2_x_transform <- x
I0925 22:30:03.225543 32532 net.cpp:399] lstm2_x_transform -> W_xc_x
I0925 22:30:03.240399 32558 net.cpp:141] Setting up cont_1_lstm1_cont_slice_0_split
I0925 22:30:03.240450 32558 net.cpp:148] Top shape: 1 1 (1)
I0925 22:30:03.240459 32558 net.cpp:148] Top shape: 1 1 (1)
I0925 22:30:03.240464 32558 net.cpp:156] Memory required for data: 10016
I0925 22:30:03.240474 32558 layer_factory.hpp:77] Creating layer lstm1_x_transform
I0925 22:30:03.240574 32558 net.cpp:91] Creating Layer lstm1_x_transform
I0925 22:30:03.240586 32558 net.cpp:425] lstm1_x_transform <- x
I0925 22:30:03.240604 32558 net.cpp:399] lstm1_x_transform -> W_xc_x
I0925 22:30:03.242923 32552 net.cpp:141] Setting up lstm1_transform_1
I0925 22:30:03.242944 32552 net.cpp:148] Top shape: 1 1 4000 (4000)
I0925 22:30:03.242954 32552 net.cpp:156] Memory required for data: 62016
I0925 22:30:03.242974 32552 layer_factory.hpp:77] Creating layer lstm1_gate_input_1
I0925 22:30:03.243000 32552 net.cpp:91] Creating Layer lstm1_gate_input_1
I0925 22:30:03.243008 32552 net.cpp:425] lstm1_gate_input_1 <- W_hc_h_0
I0925 22:30:03.243016 32552 net.cpp:425] lstm1_gate_input_1 <- W_xc_x_1
I0925 22:30:03.243026 32552 net.cpp:399] lstm1_gate_input_1 -> gate_input_1
I0925 22:30:03.247243 32552 net.cpp:141] Setting up lstm1_gate_input_1
I0925 22:30:03.247306 32552 net.cpp:148] Top shape: 1 1 4000 (4000)
I0925 22:30:03.247323 32552 net.cpp:156] Memory required for data: 78016
I0925 22:30:03.247324 32514 net.cpp:141] Setting up lstm1
I0925 22:30:03.247340 32552 layer_factory.hpp:77] Creating layer lstm1_unit_1
I0925 22:30:03.247376 32514 net.cpp:148] Top shape: 1 1 1000 (1000)
I0925 22:30:03.247388 32514 net.cpp:156] Memory required for data: 26408
I0925 22:30:03.247396 32524 net.cpp:141] Setting up lstm1_x_transform
I0925 22:30:03.247412 32524 net.cpp:148] Top shape: 1 1 4000 (4000)
I0925 22:30:03.247421 32524 net.cpp:156] Memory required for data: 26016
I0925 22:30:03.247416 32552 net.cpp:91] Creating Layer lstm1_unit_1
I0925 22:30:03.247444 32524 layer_factory.hpp:77] Creating layer lstm1_W_xc_x_slice
I0925 22:30:03.247421 32514 layer_factory.hpp:77] Creating layer concat
I0925 22:30:03.247457 32552 net.cpp:425] lstm1_unit_1 <- c_0
I0925 22:30:03.247468 32514 net.cpp:91] Creating Layer concat
I0925 22:30:03.247474 32524 net.cpp:91] Creating Layer lstm1_W_xc_x_slice
I0925 22:30:03.247481 32514 net.cpp:425] concat <- lstm1
I0925 22:30:03.247483 32524 net.cpp:425] lstm1_W_xc_x_slice <- W_xc_x
I0925 22:30:03.247483 32552 net.cpp:425] lstm1_unit_1 <- gate_input_1
I0925 22:30:03.247494 32514 net.cpp:425] concat <- embedded_input_sentence
I0925 22:30:03.247505 32552 net.cpp:425] lstm1_unit_1 <- cont_1_lstm1_cont_slice_0_split_1
I0925 22:30:03.247514 32514 net.cpp:425] concat <- reshaped_stage_indicator
I0925 22:30:03.247530 32514 net.cpp:399] concat -> lstm1_video_sequence
I0925 22:30:03.247530 32552 net.cpp:399] lstm1_unit_1 -> c_1
I0925 22:30:03.247496 32524 net.cpp:399] lstm1_W_xc_x_slice -> W_xc_x_1
I0925 22:30:03.247563 32552 net.cpp:399] lstm1_unit_1 -> h_1
I0925 22:30:03.247596 32514 net.cpp:141] Setting up concat
I0925 22:30:03.247613 32514 net.cpp:148] Top shape: 1 1 1501 (1501)
I0925 22:30:03.247622 32514 net.cpp:156] Memory required for data: 32412
I0925 22:30:03.247627 32524 net.cpp:141] Setting up lstm1_W_xc_x_slice
I0925 22:30:03.247630 32514 layer_factory.hpp:77] Creating layer lstm2
I0925 22:30:03.247642 32524 net.cpp:148] Top shape: 1 1 4000 (4000)
I0925 22:30:03.247649 32524 net.cpp:156] Memory required for data: 42016
I0925 22:30:03.247651 32514 net.cpp:91] Creating Layer lstm2
I0925 22:30:03.247658 32524 layer_factory.hpp:77] Creating layer lstm1_h_conted_0
I0925 22:30:03.247659 32514 net.cpp:425] lstm2 <- lstm1_video_sequence
I0925 22:30:03.247681 32524 net.cpp:91] Creating Layer lstm1_h_conted_0
I0925 22:30:03.247681 32514 net.cpp:425] lstm2 <- cont_sentence_input_1_split_1
I0925 22:30:03.247695 32524 net.cpp:425] lstm1_h_conted_0 <- h_0
I0925 22:30:03.247704 32514 net.cpp:399] lstm2 -> lstm2
I0925 22:30:03.247705 32524 net.cpp:425] lstm1_h_conted_0 <- cont_1_lstm1_cont_slice_0_split_0
I0925 22:30:03.247740 32524 net.cpp:399] lstm1_h_conted_0 -> h_conted_0
I0925 22:30:03.247740 32514 recurrent_layer.cpp:20] Initializing recurrent layer: assuming input batch contains 1 timesteps of 1 independent streams.
I0925 22:30:03.247931 32524 net.cpp:141] Setting up lstm1_h_conted_0
I0925 22:30:03.247947 32524 net.cpp:148] Top shape: 1 1 1000 (1000)
I0925 22:30:03.247954 32524 net.cpp:156] Memory required for data: 46016
I0925 22:30:03.247963 32524 layer_factory.hpp:77] Creating layer lstm1_transform_1
I0925 22:30:03.247994 32524 net.cpp:91] Creating Layer lstm1_transform_1
I0925 22:30:03.247997 32552 net.cpp:141] Setting up lstm1_unit_1
I0925 22:30:03.248005 32524 net.cpp:425] lstm1_transform_1 <- h_conted_0
I0925 22:30:03.248015 32552 net.cpp:148] Top shape: 1 1 1000 (1000)
I0925 22:30:03.248021 32524 net.cpp:399] lstm1_transform_1 -> W_hc_h_0
I0925 22:30:03.248028 32552 net.cpp:148] Top shape: 1 1 1000 (1000)
I0925 22:30:03.248035 32552 net.cpp:156] Memory required for data: 86016
I0925 22:30:03.248044 32552 layer_factory.hpp:77] Creating layer lstm1_
I0925 22:30:03.248056 32552 net.cpp:91] Creating Layer lstm1_
I0925 22:30:03.248064 32552 net.cpp:425] lstm1_ <- c_1
I0925 22:30:03.248075 32552 net.cpp:399] lstm1_ -> c_T
I0925 22:30:03.248191 32514 net.cpp:49] Initializing net from parameters: 
layer {
  name: "lstm2_"
  type: "Input"
  top: "x"
  top: "cont"
  input_param {
    shape {
      dim: 1
      dim: 1
      dim: 1501
    }
    shape {
      dim: 1
      dim: 1
    }
  }
}
layer {
  name: "lstm2_"
  type: "Input"
  top: "c_0"
  top: "h_0"
  input_param {
    shape {
      dim: 1
      dim: 1
      dim: 1000
    }
    shape {
      dim: 1
      dim: 1
      dim: 1000
    }
  }
}
layer {
  name: "lstm2_cont_slice"
  type: "Slice"
  bottom: "cont"
  top: "cont_1"
  slice_param {
    axis: 0
  }
}
layer {
  name: "lstm2_x_transform"
  type: "InnerProduct"
  bottom: "x"
  top: "W_xc_x"
  param {
    name: "W_xc"
  }
  param {
    name: "b_c"
  }
  propagate_down: true
  inner_product_param {
    num_output: 4000
    bias_term: true
    weight_filler {
      type: "uniform"
      min: -0.08
      max: 0.08
    }
    bias_filler {
      type: "constant"
      value: 0
    }
    axis: 2
  }
}
layer {
  name: "lstm2_W_xc_x_slice"
  type: "Slice"
  bottom: "W_xc_x"
  top: "W_xc_x_1"
  slice_param {
    axis: 0
  }
}
layer {
  name: "lstm2_h_conted_0"
  type: "Scale"
  bottom: "h_0"
  bottom: "cont_1"
  top: "h_conted_0"
  scale_param {
    axis: 0
  }
}
layer {
  name: "lstm2_transform_1"
  type: "InnerProduct"
  bottom: "h_conted_0"
  top: "W_hc_h_0"
  param {
    name: "W_hc"
  }
  inner_product_param {
    num_output: 4000
    bias_term: false
    weight_filler {
      type: "uniform"
      min: -0.08
      max: 0.08
    }
    axis: 2
  }
}
layer {
  name: "lstm2_gate_input_1"
  type: "Eltwise"
  bottom: "W_hc_h_0"
  bottom: "W_xc_x_1"
  top: "gate_input_1"
  eltwise_param {
    operation: SUM
  }
}
layer {
  name: "lstm2_unit_1"
  type: "LSTMUnit"
  bottom: "c_0"
  bottom: "gate_input_1"
  bottom: "cont_1"
  top: "c_1"
  top: "h_1"
}
layer {
  name: "lstm2_"
  type: "Split"
  bottom: "c_1"
  top: "c_T"
}
layer {
  name: "lstm2_h_concat"
  type: "Concat"
  bottom: "h_1"
  top: "h"
  concat_param {
    axis: 0
  }
}
layer {
  name: "h_pseudoloss"
  type: "Reduction"
  bottom: "h"
  top: "h_pseudoloss"
  loss_weight: 1
}
I0925 22:30:03.248345 32514 layer_factory.hpp:77] Creating layer lstm2_
I0925 22:30:03.248365 32514 net.cpp:91] Creating Layer lstm2_
I0925 22:30:03.248378 32514 net.cpp:399] lstm2_ -> x
I0925 22:30:03.248399 32514 net.cpp:399] lstm2_ -> cont
I0925 22:30:03.257092 32552 net.cpp:141] Setting up lstm1_
I0925 22:30:03.257139 32552 net.cpp:148] Top shape: 1 1 1000 (1000)
I0925 22:30:03.257148 32552 net.cpp:156] Memory required for data: 90016
I0925 22:30:03.257160 32552 layer_factory.hpp:77] Creating layer lstm1_h_concat
I0925 22:30:03.257182 32552 net.cpp:91] Creating Layer lstm1_h_concat
I0925 22:30:03.257194 32552 net.cpp:425] lstm1_h_concat <- h_1
I0925 22:30:03.257208 32552 net.cpp:399] lstm1_h_concat -> h
I0925 22:30:03.257679 32552 net.cpp:141] Setting up lstm1_h_concat
I0925 22:30:03.257696 32552 net.cpp:148] Top shape: 1 1 1000 (1000)
I0925 22:30:03.257704 32552 net.cpp:156] Memory required for data: 94016
I0925 22:30:03.257710 32552 layer_factory.hpp:77] Creating layer h_pseudoloss
I0925 22:30:03.257725 32552 net.cpp:91] Creating Layer h_pseudoloss
I0925 22:30:03.257733 32552 net.cpp:425] h_pseudoloss <- h
I0925 22:30:03.257745 32552 net.cpp:399] h_pseudoloss -> h_pseudoloss
I0925 22:30:03.261278 32514 net.cpp:141] Setting up lstm2_
I0925 22:30:03.261325 32514 net.cpp:148] Top shape: 1 1 1501 (1501)
I0925 22:30:03.261337 32514 net.cpp:148] Top shape: 1 1 (1)
I0925 22:30:03.261344 32514 net.cpp:156] Memory required for data: 6008
I0925 22:30:03.261356 32514 layer_factory.hpp:77] Creating layer lstm2_
I0925 22:30:03.261384 32514 net.cpp:91] Creating Layer lstm2_
I0925 22:30:03.261399 32514 net.cpp:399] lstm2_ -> c_0
I0925 22:30:03.261425 32514 net.cpp:399] lstm2_ -> h_0
I0925 22:30:03.261508 32514 net.cpp:141] Setting up lstm2_
I0925 22:30:03.261523 32514 net.cpp:148] Top shape: 1 1 1000 (1000)
I0925 22:30:03.261533 32514 net.cpp:148] Top shape: 1 1 1000 (1000)
I0925 22:30:03.261540 32514 net.cpp:156] Memory required for data: 14008
I0925 22:30:03.261548 32514 layer_factory.hpp:77] Creating layer lstm2_cont_slice
I0925 22:30:03.261564 32514 net.cpp:91] Creating Layer lstm2_cont_slice
I0925 22:30:03.261571 32514 net.cpp:425] lstm2_cont_slice <- cont
I0925 22:30:03.261584 32514 net.cpp:399] lstm2_cont_slice -> cont_1
I0925 22:30:03.261638 32514 net.cpp:141] Setting up lstm2_cont_slice
I0925 22:30:03.261654 32514 net.cpp:148] Top shape: 1 1 (1)
I0925 22:30:03.261662 32514 net.cpp:156] Memory required for data: 14012
I0925 22:30:03.261669 32514 layer_factory.hpp:77] Creating layer cont_1_lstm2_cont_slice_0_split
I0925 22:30:03.261680 32514 net.cpp:91] Creating Layer cont_1_lstm2_cont_slice_0_split
I0925 22:30:03.261688 32514 net.cpp:425] cont_1_lstm2_cont_slice_0_split <- cont_1
I0925 22:30:03.261699 32514 net.cpp:399] cont_1_lstm2_cont_slice_0_split -> cont_1_lstm2_cont_slice_0_split_0
I0925 22:30:03.261711 32514 net.cpp:399] cont_1_lstm2_cont_slice_0_split -> cont_1_lstm2_cont_slice_0_split_1
I0925 22:30:03.261780 32514 net.cpp:141] Setting up cont_1_lstm2_cont_slice_0_split
I0925 22:30:03.261793 32514 net.cpp:148] Top shape: 1 1 (1)
I0925 22:30:03.261803 32514 net.cpp:148] Top shape: 1 1 (1)
I0925 22:30:03.261811 32514 net.cpp:156] Memory required for data: 14020
I0925 22:30:03.261817 32514 layer_factory.hpp:77] Creating layer lstm2_x_transform
I0925 22:30:03.261839 32514 net.cpp:91] Creating Layer lstm2_x_transform
I0925 22:30:03.261847 32514 net.cpp:425] lstm2_x_transform <- x
I0925 22:30:03.261860 32514 net.cpp:399] lstm2_x_transform -> W_xc_x
I0925 22:30:03.276865 32552 net.cpp:141] Setting up h_pseudoloss
I0925 22:30:03.276918 32552 net.cpp:148] Top shape: (1)
I0925 22:30:03.276926 32552 net.cpp:151]     with loss weight 1
I0925 22:30:03.276949 32552 net.cpp:156] Memory required for data: 94020
I0925 22:30:03.276960 32552 net.cpp:217] h_pseudoloss needs backward computation.
I0925 22:30:03.276971 32552 net.cpp:217] lstm1_h_concat needs backward computation.
I0925 22:30:03.276980 32552 net.cpp:219] lstm1_ does not need backward computation.
I0925 22:30:03.276973 32518 net.cpp:141] Setting up lstm1_transform_1
I0925 22:30:03.276989 32552 net.cpp:217] lstm1_unit_1 needs backward computation.
I0925 22:30:03.277027 32518 net.cpp:148] Top shape: 1 1 4000 (4000)
I0925 22:30:03.277027 32552 net.cpp:217] lstm1_gate_input_1 needs backward computation.
I0925 22:30:03.277040 32518 net.cpp:156] Memory required for data: 62016
I0925 22:30:03.277042 32552 net.cpp:217] lstm1_transform_1 needs backward computation.
I0925 22:30:03.277053 32552 net.cpp:219] lstm1_h_conted_0 does not need backward computation.
I0925 22:30:03.277068 32518 layer_factory.hpp:77] Creating layer lstm1_gate_input_1
I0925 22:30:03.277089 32552 net.cpp:217] lstm1_W_xc_x_slice needs backward computation.
I0925 22:30:03.277096 32518 net.cpp:91] Creating Layer lstm1_gate_input_1
I0925 22:30:03.277103 32552 net.cpp:217] lstm1_x_transform needs backward computation.
I0925 22:30:03.277107 32518 net.cpp:425] lstm1_gate_input_1 <- W_hc_h_0
I0925 22:30:03.277120 32552 net.cpp:219] cont_1_lstm1_cont_slice_0_split does not need backward computation.
I0925 22:30:03.277132 32552 net.cpp:219] lstm1_cont_slice does not need backward computation.
I0925 22:30:03.277133 32518 net.cpp:425] lstm1_gate_input_1 <- W_xc_x_1
I0925 22:30:03.277145 32552 net.cpp:219] lstm1_ does not need backward computation.
I0925 22:30:03.277155 32552 net.cpp:219] lstm1_ does not need backward computation.
I0925 22:30:03.277158 32558 net.cpp:141] Setting up lstm1_x_transform
I0925 22:30:03.277163 32552 net.cpp:261] This network produces output c_T
I0925 22:30:03.277158 32518 net.cpp:399] lstm1_gate_input_1 -> gate_input_1
I0925 22:30:03.277178 32558 net.cpp:148] Top shape: 1 1 4000 (4000)
I0925 22:30:03.277173 32552 net.cpp:261] This network produces output h_pseudoloss
I0925 22:30:03.277186 32558 net.cpp:156] Memory required for data: 26016
I0925 22:30:03.277215 32558 layer_factory.hpp:77] Creating layer lstm1_W_xc_x_slice
I0925 22:30:03.277215 32552 net.cpp:274] Network initialization done.
I0925 22:30:03.277243 32558 net.cpp:91] Creating Layer lstm1_W_xc_x_slice
I0925 22:30:03.277253 32558 net.cpp:425] lstm1_W_xc_x_slice <- W_xc_x
I0925 22:30:03.277266 32518 net.cpp:141] Setting up lstm1_gate_input_1
I0925 22:30:03.277273 32558 net.cpp:399] lstm1_W_xc_x_slice -> W_xc_x_1
I0925 22:30:03.277282 32518 net.cpp:148] Top shape: 1 1 4000 (4000)
I0925 22:30:03.277292 32518 net.cpp:156] Memory required for data: 78016
I0925 22:30:03.277298 32518 layer_factory.hpp:77] Creating layer lstm1_unit_1
I0925 22:30:03.277310 32552 recurrent_layer.cpp:150] Adding parameter 0: W_xc
I0925 22:30:03.277317 32518 net.cpp:91] Creating Layer lstm1_unit_1
I0925 22:30:03.277320 32552 recurrent_layer.cpp:150] Adding parameter 1: b_c
I0925 22:30:03.277328 32552 recurrent_layer.cpp:150] Adding parameter 2: W_hc
I0925 22:30:03.277328 32518 net.cpp:425] lstm1_unit_1 <- c_0
I0925 22:30:03.277340 32518 net.cpp:425] lstm1_unit_1 <- gate_input_1
I0925 22:30:03.277350 32518 net.cpp:425] lstm1_unit_1 <- cont_1_lstm1_cont_slice_0_split_1
I0925 22:30:03.277361 32518 net.cpp:399] lstm1_unit_1 -> c_1
I0925 22:30:03.277376 32518 net.cpp:399] lstm1_unit_1 -> h_1
I0925 22:30:03.284584 32558 net.cpp:141] Setting up lstm1_W_xc_x_slice
I0925 22:30:03.284624 32558 net.cpp:148] Top shape: 1 1 4000 (4000)
I0925 22:30:03.284631 32558 net.cpp:156] Memory required for data: 42016
I0925 22:30:03.284639 32558 layer_factory.hpp:77] Creating layer lstm1_h_conted_0
I0925 22:30:03.284657 32558 net.cpp:91] Creating Layer lstm1_h_conted_0
I0925 22:30:03.284665 32558 net.cpp:425] lstm1_h_conted_0 <- h_0
I0925 22:30:03.284674 32558 net.cpp:425] lstm1_h_conted_0 <- cont_1_lstm1_cont_slice_0_split_0
I0925 22:30:03.284689 32558 net.cpp:399] lstm1_h_conted_0 -> h_conted_0
I0925 22:30:03.284787 32558 net.cpp:141] Setting up lstm1_h_conted_0
I0925 22:30:03.284798 32558 net.cpp:148] Top shape: 1 1 1000 (1000)
I0925 22:30:03.284803 32558 net.cpp:156] Memory required for data: 46016
I0925 22:30:03.284808 32558 layer_factory.hpp:77] Creating layer lstm1_transform_1
I0925 22:30:03.284826 32558 net.cpp:91] Creating Layer lstm1_transform_1
I0925 22:30:03.284831 32558 net.cpp:425] lstm1_transform_1 <- h_conted_0
I0925 22:30:03.284839 32558 net.cpp:399] lstm1_transform_1 -> W_hc_h_0
I0925 22:30:03.303086 32520 net.cpp:141] Setting up embedding
I0925 22:30:03.303724 32520 net.cpp:148] Top shape: 1 1 500 (500)
I0925 22:30:03.303740 32520 net.cpp:156] Memory required for data: 22408
I0925 22:30:03.303764 32520 layer_factory.hpp:77] Creating layer lstm1
I0925 22:30:03.306639 32524 net.cpp:141] Setting up lstm1_transform_1
I0925 22:30:03.306639 32520 net.cpp:91] Creating Layer lstm1
I0925 22:30:03.306689 32524 net.cpp:148] Top shape: 1 1 4000 (4000)
I0925 22:30:03.306699 32520 net.cpp:425] lstm1 <- embedded_input_frames
I0925 22:30:03.306701 32524 net.cpp:156] Memory required for data: 62016
I0925 22:30:03.306717 32520 net.cpp:425] lstm1 <- cont_sentence_input_1_split_0
I0925 22:30:03.306726 32524 layer_factory.hpp:77] Creating layer lstm1_gate_input_1
I0925 22:30:03.306735 32520 net.cpp:399] lstm1 -> lstm1
I0925 22:30:03.306757 32520 recurrent_layer.cpp:20] Initializing recurrent layer: assuming input batch contains 1 timesteps of 1 independent streams.
I0925 22:30:03.306887 32552 net.cpp:141] Setting up lstm1
I0925 22:30:03.306905 32552 net.cpp:148] Top shape: 1 1 1000 (1000)
I0925 22:30:03.306913 32552 net.cpp:156] Memory required for data: 26408
I0925 22:30:03.306939 32552 layer_factory.hpp:77] Creating layer concat
I0925 22:30:03.306957 32552 net.cpp:91] Creating Layer concat
I0925 22:30:03.306967 32552 net.cpp:425] concat <- lstm1
I0925 22:30:03.306972 32524 net.cpp:91] Creating Layer lstm1_gate_input_1
I0925 22:30:03.306996 32524 net.cpp:425] lstm1_gate_input_1 <- W_hc_h_0
I0925 22:30:03.307013 32524 net.cpp:425] lstm1_gate_input_1 <- W_xc_x_1
I0925 22:30:03.307034 32524 net.cpp:399] lstm1_gate_input_1 -> gate_input_1
I0925 22:30:03.307107 32524 net.cpp:141] Setting up lstm1_gate_input_1
I0925 22:30:03.307126 32524 net.cpp:148] Top shape: 1 1 4000 (4000)
I0925 22:30:03.307137 32524 net.cpp:156] Memory required for data: 78016
I0925 22:30:03.307147 32524 layer_factory.hpp:77] Creating layer lstm1_unit_1
I0925 22:30:03.307170 32524 net.cpp:91] Creating Layer lstm1_unit_1
I0925 22:30:03.307183 32524 net.cpp:425] lstm1_unit_1 <- c_0
I0925 22:30:03.307195 32524 net.cpp:425] lstm1_unit_1 <- gate_input_1
I0925 22:30:03.307205 32524 net.cpp:425] lstm1_unit_1 <- cont_1_lstm1_cont_slice_0_split_1
I0925 22:30:03.307220 32524 net.cpp:399] lstm1_unit_1 -> c_1
I0925 22:30:03.307240 32524 net.cpp:399] lstm1_unit_1 -> h_1
I0925 22:30:03.307358 32520 net.cpp:49] Initializing net from parameters: 
layer {
  name: "lstm1_"
  type: "Input"
  top: "x"
  top: "cont"
  input_param {
    shape {
      dim: 1
      dim: 1
      dim: 500
    }
    shape {
      dim: 1
      dim: 1
    }
  }
}
layer {
  name: "lstm1_"
  type: "Input"
  top: "c_0"
  top: "h_0"
  input_param {
    shape {
      dim: 1
      dim: 1
      dim: 1000
    }
    shape {
      dim: 1
      dim: 1
      dim: 1000
    }
  }
}
layer {
  name: "lstm1_cont_slice"
  type: "Slice"
  bottom: "cont"
  top: "cont_1"
  slice_param {
    axis: 0
  }
}
layer {
  name: "lstm1_x_transform"
  type: "InnerProduct"
  bottom: "x"
  top: "W_xc_x"
  param {
    name: "W_xc"
  }
  param {
    name: "b_c"
  }
  propagate_down: true
  inner_product_param {
    num_output: 4000
    bias_term: true
    weight_filler {
      type: "uniform"
      min: -0.08
      max: 0.08
    }
    bias_filler {
      type: "constant"
      value: 0
    }
    axis: 2
  }
}
layer {
  name: "lstm1_W_xc_x_slice"
  type: "Slice"
  bottom: "W_xc_x"
  top: "W_xc_x_1"
  slice_param {
    axis: 0
  }
}
layer {
  name: "lstm1_h_conted_0"
  type: "Scale"
  bottom: "h_0"
  bottom: "cont_1"
  top: "h_conted_0"
  scale_param {
    axis: 0
  }
}
layer {
  name: "lstm1_transform_1"
  type: "InnerProduct"
  bottom: "h_conted_0"
  top: "W_hc_h_0"
  param {
    name: "W_hc"
  }
  inner_product_param {
    num_output: 4000
    bias_term: false
    weight_filler {
      type: "uniform"
      min: -0.08
      max: 0.08
    }
    axis: 2
  }
}
layer {
  name: "lstm1_gate_input_1"
  type: "Eltwise"
  bottom: "W_hc_h_0"
  bottom: "W_xc_x_1"
  top: "gate_input_1"
  eltwise_param {
    operation: SUM
  }
}
layer {
  name: "lstm1_unit_1"
  type: "LSTMUnit"
  bottom: "c_0"
  bottom: "gate_input_1"
  bottom: "cont_1"
  top: "c_1"
  top: "h_1"
}
layer {
  name: "lstm1_"
  type: "Split"
  bottom: "c_1"
  top: "c_T"
}
layer {
  name: "lstm1_h_concat"
  type: "Concat"
  bottom: "h_1"
  top: "h"
  concat_param {
    axis: 0
  }
}
layer {
  name: "h_pseudoloss"
  type: "Reduction"
  bottom: "h"
  top: "h_pseudoloss"
  loss_weight: 1
}
I0925 22:30:03.307370 32524 net.cpp:141] Setting up lstm1_unit_1
I0925 22:30:03.307389 32524 net.cpp:148] Top shape: 1 1 1000 (1000)
I0925 22:30:03.307399 32524 net.cpp:148] Top shape: 1 1 1000 (1000)
I0925 22:30:03.307409 32524 net.cpp:156] Memory required for data: 86016
I0925 22:30:03.307417 32524 layer_factory.hpp:77] Creating layer lstm1_
I0925 22:30:03.307430 32524 net.cpp:91] Creating Layer lstm1_
I0925 22:30:03.307440 32524 net.cpp:425] lstm1_ <- c_1
I0925 22:30:03.307459 32524 net.cpp:399] lstm1_ -> c_T
I0925 22:30:03.307499 32520 layer_factory.hpp:77] Creating layer lstm1_
I0925 22:30:03.307519 32520 net.cpp:91] Creating Layer lstm1_
I0925 22:30:03.307518 32524 net.cpp:141] Setting up lstm1_
I0925 22:30:03.307546 32520 net.cpp:399] lstm1_ -> x
I0925 22:30:03.307559 32524 net.cpp:148] Top shape: 1 1 1000 (1000)
I0925 22:30:03.307566 32520 net.cpp:399] lstm1_ -> cont
I0925 22:30:03.307571 32524 net.cpp:156] Memory required for data: 90016
I0925 22:30:03.307581 32524 layer_factory.hpp:77] Creating layer lstm1_h_concat
I0925 22:30:03.307596 32524 net.cpp:91] Creating Layer lstm1_h_concat
I0925 22:30:03.307607 32524 net.cpp:425] lstm1_h_concat <- h_1
I0925 22:30:03.307621 32524 net.cpp:399] lstm1_h_concat -> h
I0925 22:30:03.307657 32520 net.cpp:141] Setting up lstm1_
I0925 22:30:03.307672 32520 net.cpp:148] Top shape: 1 1 500 (500)
I0925 22:30:03.307683 32520 net.cpp:148] Top shape: 1 1 (1)
I0925 22:30:03.307690 32520 net.cpp:156] Memory required for data: 2004
I0925 22:30:03.307699 32520 layer_factory.hpp:77] Creating layer lstm1_
I0925 22:30:03.307718 32520 net.cpp:91] Creating Layer lstm1_
I0925 22:30:03.307729 32520 net.cpp:399] lstm1_ -> c_0
I0925 22:30:03.307744 32520 net.cpp:399] lstm1_ -> h_0
I0925 22:30:03.307828 32520 net.cpp:141] Setting up lstm1_
I0925 22:30:03.307843 32520 net.cpp:148] Top shape: 1 1 1000 (1000)
I0925 22:30:03.307853 32520 net.cpp:148] Top shape: 1 1 1000 (1000)
I0925 22:30:03.307860 32520 net.cpp:156] Memory required for data: 10004
I0925 22:30:03.307868 32520 layer_factory.hpp:77] Creating layer lstm1_cont_slice
I0925 22:30:03.307880 32520 net.cpp:91] Creating Layer lstm1_cont_slice
I0925 22:30:03.307889 32520 net.cpp:425] lstm1_cont_slice <- cont
I0925 22:30:03.307904 32520 net.cpp:399] lstm1_cont_slice -> cont_1
I0925 22:30:03.307957 32520 net.cpp:141] Setting up lstm1_cont_slice
I0925 22:30:03.307971 32520 net.cpp:148] Top shape: 1 1 (1)
I0925 22:30:03.307978 32520 net.cpp:156] Memory required for data: 10008
I0925 22:30:03.307986 32520 layer_factory.hpp:77] Creating layer cont_1_lstm1_cont_slice_0_split
I0925 22:30:03.307996 32520 net.cpp:91] Creating Layer cont_1_lstm1_cont_slice_0_split
I0925 22:30:03.308004 32520 net.cpp:425] cont_1_lstm1_cont_slice_0_split <- cont_1
I0925 22:30:03.308015 32520 net.cpp:399] cont_1_lstm1_cont_slice_0_split -> cont_1_lstm1_cont_slice_0_split_0
I0925 22:30:03.308029 32520 net.cpp:399] cont_1_lstm1_cont_slice_0_split -> cont_1_lstm1_cont_slice_0_split_1
I0925 22:30:03.308099 32520 net.cpp:141] Setting up cont_1_lstm1_cont_slice_0_split
I0925 22:30:03.308112 32520 net.cpp:148] Top shape: 1 1 (1)
I0925 22:30:03.308122 32520 net.cpp:148] Top shape: 1 1 (1)
I0925 22:30:03.308130 32520 net.cpp:156] Memory required for data: 10016
I0925 22:30:03.308137 32520 layer_factory.hpp:77] Creating layer lstm1_x_transform
I0925 22:30:03.308156 32520 net.cpp:91] Creating Layer lstm1_x_transform
I0925 22:30:03.308164 32520 net.cpp:425] lstm1_x_transform <- x
I0925 22:30:03.308176 32520 net.cpp:399] lstm1_x_transform -> W_xc_x
I0925 22:30:03.306977 32552 net.cpp:425] concat <- embedded_input_sentence
I0925 22:30:03.309857 32552 net.cpp:425] concat <- reshaped_stage_indicator
I0925 22:30:03.309877 32552 net.cpp:399] concat -> lstm1_video_sequence
I0925 22:30:03.315448 32524 net.cpp:141] Setting up lstm1_h_concat
I0925 22:30:03.315477 32552 net.cpp:141] Setting up concat
I0925 22:30:03.315500 32552 net.cpp:148] Top shape: 1 1 1501 (1501)
I0925 22:30:03.315501 32524 net.cpp:148] Top shape: 1 1 1000 (1000)
I0925 22:30:03.315510 32552 net.cpp:156] Memory required for data: 32412
I0925 22:30:03.315515 32524 net.cpp:156] Memory required for data: 94016
I0925 22:30:03.315523 32552 layer_factory.hpp:77] Creating layer lstm2
I0925 22:30:03.315526 32524 layer_factory.hpp:77] Creating layer h_pseudoloss
I0925 22:30:03.315547 32524 net.cpp:91] Creating Layer h_pseudoloss
I0925 22:30:03.315556 32552 net.cpp:91] Creating Layer lstm2
…
I0925 22:30:03.315989 32524 net.cpp:261] This network produces output h_pseudoloss
I0925 22:30:03.316017 32524 net.cpp:274] Network initialization done.
I0925 22:30:03.316035 32552 net.cpp:49] Initializing net from parameters: 
layer {
  name: "lstm2_"
  type: "Input"
  top: "x"
  top: "cont"
  input_param {
    shape {
      dim: 1
      dim: 1
      dim: 1501
    }
    shape {
      dim: 1
      dim: 1
    }
  }
}
layer {
  name: "lstm2_"
  type: "Input"
  top: "c_0"
  top: "h_0"
  input_param {
    shape {
      dim: 1
      dim: 1
      dim: 1000
    }
    shape {
      dim: 1
      dim: 1
      dim: 1000
    }
  }
}
layer {
  name: "lstm2_cont_slice"
  type: "Slice"
  bottom: "cont"
  top: "cont_1"
  slice_param {
    axis: 0
  }
}
layer {
  name: "lstm2_x_transform"
  type: "InnerProduct"
  bottom: "x"
  top: "W_xc_x"
  param {
    name: "W_xc"
  }
  param {
    name: "b_c"
  }
  propagate_down: true
  inner_product_param {
    num_output: 4000
    bias_term: true
    weight_filler {
      type: "uniform"
      min: -0.08
      max: 0.08
    }
    bias_filler {
      type: "constant"
      value: 0
    }
    axis: 2
  }
}
layer {
  name: "lstm2_W_xc_x_slice"
  type: "Slice"
  bottom: "W_xc_x"
  top: "W_xc_x_1"
  slice_param {
    axis: 0
  }
}
layer {
  name: "lstm2_h_conted_0"
  type: "Scale"
  bottom: "h_0"
  bottom: "cont_1"
  top: "h_conted_0"
  scale_param {
    axis: 0
  }
}
layer {
  name: "lstm2_transform_1"
  type: "InnerProduct"
  bottom: "h_conted_0"
  top: "W_hc_h_0"
  param {
    name: "W_hc"
  }
  inner_product_param {
    num_output: 4000
    bias_term: false
    weight_filler {
      type: "uniform"
      min: -0.08
      max: 0.08
    }
    axis: 2
  }
}
layer {
  name: "lstm2_gate_input_1"
  type: "Eltwise"
  bottom: "W_hc_h_0"
  bottom: "W_xc_x_1"
  top: "gate_input_1"
  eltwise_param {
    operation: SUM
  }
}
layer {
  name: "lstm2_unit_1"
  type: "LSTMUnit"
  bottom: "c_0"
  bottom: "gate_input_1"
  bottom: "cont_1"
  top: "c_1"
  top: "h_1"
}
layer {
  name: "lstm2_"
  type: "Split"
  bottom: "c_1"
  top: "c_T"
}
layer {
  name: "lstm2_h_concat"
  type: "Concat"
  bottom: "h_1"
  top: "h"
  concat_param {
    axis: 0
  }
}
layer {
  name: "h_pseudoloss"
  type: "Reduction"
  bottom: "h"
  top: "h_pseudoloss"
  loss_weight: 1
}
I0925 22:30:03.316092 32524 recurrent_layer.cpp:150] Adding parameter 0: W_xc
I0925 22:30:03.316108 32524 recurrent_layer.cpp:150] Adding parameter 1: b_c
I0925 22:30:03.316118 32524 recurrent_layer.cpp:150] Adding parameter 2: W_hc
I0925 22:30:03.316179 32552 layer_factory.hpp:77] Creating layer lstm2_
I0925 22:30:03.316198 32552 net.cpp:91] Creating Layer lstm2_
I0925 22:30:03.316210 32552 net.cpp:399] lstm2_ -> x
I0925 22:30:03.316226 32552 net.cpp:399] lstm2_ -> cont
I0925 22:30:03.316325 32552 net.cpp:141] Setting up lstm2_
I0925 22:30:03.316341 32552 net.cpp:148] Top shape: 1 1 1501 (1501)
I0925 22:30:03.316351 32552 net.cpp:148] Top shape: 1 1 (1)
I0925 22:30:03.316359 32552 net.cpp:156] Memory required for data: 6008
I0925 22:30:03.316366 32552 layer_factory.hpp:77] Creating layer lstm2_
I0925 22:30:03.316380 32552 net.cpp:91] Creating Layer lstm2_
I0925 22:30:03.316390 32518 net.cpp:141] Setting up lstm1_unit_1
I0925 22:30:03.316398 32552 net.cpp:399] lstm2_ -> c_0
I0925 22:30:03.316413 32518 net.cpp:148] Top shape: 1 1 1000 (1000)
I0925 22:30:03.316418 32552 net.cpp:399] lstm2_ -> h_0
I0925 22:30:03.316426 32518 net.cpp:148] Top shape: 1 1 1000 (1000)
I0925 22:30:03.316433 32518 net.cpp:156] Memory required for data: 86016
I0925 22:30:03.316433 32524 net.cpp:141] Setting up lstm1
I0925 22:30:03.316444 32518 layer_factory.hpp:77] Creating layer lstm1_
I0925 22:30:03.316454 32524 net.cpp:148] Top shape: 1 1 1000 (1000)
I0925 22:30:03.316458 32518 net.cpp:91] Creating Layer lstm1_
I0925 22:30:03.316465 32524 net.cpp:156] Memory required for data: 26408
I0925 22:30:03.316468 32518 net.cpp:425] lstm1_ <- c_1
I0925 22:30:03.316483 32518 net.cpp:399] lstm1_ -> c_T
I0925 22:30:03.316496 32524 layer_factory.hpp:77] Creating layer concat
I0925 22:30:03.316504 32552 net.cpp:141] Setting up lstm2_
I0925 22:30:03.316516 32524 net.cpp:91] Creating Layer concat
I0925 22:30:03.316519 32552 net.cpp:148] Top shape: 1 1 1000 (1000)
I0925 22:30:03.316542 32524 net.cpp:425] concat <- lstm1
I0925 22:30:03.316550 32552 net.cpp:148] Top shape: 1 1 1000 (1000)
I0925 22:30:03.316558 32552 net.cpp:156] Memory required for data: 14008
I0925 22:30:03.316566 32552 layer_factory.hpp:77] Creating layer lstm2_cont_slice
I0925 22:30:03.316566 32524 net.cpp:425] concat <- embedded_input_sentence
I0925 22:30:03.316581 32552 net.cpp:91] Creating Layer lstm2_cont_slice
I0925 22:30:03.316582 32524 net.cpp:425] concat <- reshaped_stage_indicator
I0925 22:30:03.316604 32552 net.cpp:425] lstm2_cont_slice <- cont
I0925 22:30:03.316619 32552 net.cpp:399] lstm2_cont_slice -> cont_1
I0925 22:30:03.316622 32524 net.cpp:399] concat -> lstm1_video_sequence
I0925 22:30:03.316542 32518 net.cpp:141] Setting up lstm1_
I0925 22:30:03.316653 32518 net.cpp:148] Top shape: 1 1 1000 (1000)
I0925 22:30:03.316663 32518 net.cpp:156] Memory required for data: 90016
I0925 22:30:03.316671 32518 layer_factory.hpp:77] Creating layer lstm1_h_concat
I0925 22:30:03.316680 32552 net.cpp:141] Setting up lstm2_cont_slice
I0925 22:30:03.316689 32518 net.cpp:91] Creating Layer lstm1_h_concat
I0925 22:30:03.316696 32552 net.cpp:148] Top shape: 1 1 (1)
I0925 22:30:03.316699 32518 net.cpp:425] lstm1_h_concat <- h_1
I0925 22:30:03.316705 32552 net.cpp:156] Memory required for data: 14012
I0925 22:30:03.316711 32518 net.cpp:399] lstm1_h_concat -> h
I0925 22:30:03.316714 32552 layer_factory.hpp:77] Creating layer cont_1_lstm2_cont_slice_0_split
I0925 22:30:03.316746 32552 net.cpp:91] Creating Layer cont_1_lstm2_cont_slice_0_split
I0925 22:30:03.316756 32552 net.cpp:425] cont_1_lstm2_cont_slice_0_split <- cont_1
I0925 22:30:03.316768 32552 net.cpp:399] cont_1_lstm2_cont_slice_0_split -> cont_1_lstm2_cont_slice_0_split_0
I0925 22:30:03.316781 32518 net.cpp:141] Setting up lstm1_h_concat
I0925 22:30:03.316807 32518 net.cpp:148] Top shape: 1 1 1000 (1000)
I0925 22:30:03.316815 32518 net.cpp:156] Memory required for data: 94016
I0925 22:30:03.316823 32518 layer_factory.hpp:77] Creating layer h_pseudoloss
I0925 22:30:03.316835 32518 net.cpp:91] Creating Layer h_pseudoloss
I0925 22:30:03.316843 32518 net.cpp:425] h_pseudoloss <- h
I0925 22:30:03.316786 32552 net.cpp:399] cont_1_lstm2_cont_slice_0_split -> cont_1_lstm2_cont_slice_0_split_1
I0925 22:30:03.316861 32518 net.cpp:399] h_pseudoloss -> h_pseudoloss
I0925 22:30:03.316933 32552 net.cpp:141] Setting up cont_1_lstm2_cont_slice_0_split
I0925 22:30:03.316948 32552 net.cpp:148] Top shape: 1 1 (1)
I0925 22:30:03.316958 32552 net.cpp:148] Top shape: 1 1 (1)
I0925 22:30:03.316965 32552 net.cpp:156] Memory required for data: 14020
I0925 22:30:03.316973 32552 layer_factory.hpp:77] Creating layer lstm2_x_transform
I0925 22:30:03.316992 32552 net.cpp:91] Creating Layer lstm2_x_transform
I0925 22:30:03.317000 32552 net.cpp:425] lstm2_x_transform <- x
I0925 22:30:03.317013 32552 net.cpp:399] lstm2_x_transform -> W_xc_x
I0925 22:30:03.332298 32532 net.cpp:141] Setting up lstm2_x_transform
I0925 22:30:03.332347 32532 net.cpp:148] Top shape: 1 1 4000 (4000)
I0925 22:30:03.332353 32532 net.cpp:156] Memory required for data: 30020
I0925 22:30:03.332382 32532 layer_factory.hpp:77] Creating layer lstm2_W_xc_x_slice
I0925 22:30:03.332407 32532 net.cpp:91] Creating Layer lstm2_W_xc_x_slice
I0925 22:30:03.332415 32532 net.cpp:425] lstm2_W_xc_x_slice <- W_xc_x
I0925 22:30:03.332427 32532 net.cpp:399] lstm2_W_xc_x_slice -> W_xc_x_1
I0925 22:30:03.332480 32532 net.cpp:141] Setting up lstm2_W_xc_x_slice
I0925 22:30:03.332490 32532 net.cpp:148] Top shape: 1 1 4000 (4000)
I0925 22:30:03.332495 32532 net.cpp:156] Memory required for data: 46020
I0925 22:30:03.332500 32532 layer_factory.hpp:77] Creating layer lstm2_h_conted_0
I0925 22:30:03.332515 32532 net.cpp:91] Creating Layer lstm2_h_conted_0
I0925 22:30:03.332521 32532 net.cpp:425] lstm2_h_conted_0 <- h_0
I0925 22:30:03.332528 32532 net.cpp:425] lstm2_h_conted_0 <- cont_1_lstm2_cont_slice_0_split_0
I0925 22:30:03.332536 32532 net.cpp:399] lstm2_h_conted_0 -> h_conted_0
I0925 22:30:03.332636 32532 net.cpp:141] Setting up lstm2_h_conted_0
I0925 22:30:03.332646 32532 net.cpp:148] Top shape: 1 1 1000 (1000)
I0925 22:30:03.332651 32532 net.cpp:156] Memory required for data: 50020
I0925 22:30:03.332656 32532 layer_factory.hpp:77] Creating layer lstm2_transform_1
I0925 22:30:03.332674 32532 net.cpp:91] Creating Layer lstm2_transform_1
I0925 22:30:03.332680 32532 net.cpp:425] lstm2_transform_1 <- h_conted_0
I0925 22:30:03.332689 32532 net.cpp:399] lstm2_transform_1 -> W_hc_h_0
I0925 22:30:03.340620 32524 net.cpp:141] Setting up concat
I0925 22:30:03.340665 32518 net.cpp:141] Setting up h_pseudoloss
I0925 22:30:03.340689 32524 net.cpp:148] Top shape: 1 1 1501 (1501)
I0925 22:30:03.340693 32518 net.cpp:148] Top shape: (1)
I0925 22:30:03.340728 32524 net.cpp:156] Memory required for data: 32412
I0925 22:30:03.340729 32518 net.cpp:151]     with loss weight 1
I0925 22:30:03.340751 32524 layer_factory.hpp:77] Creating layer lstm2
I0925 22:30:03.340757 32518 net.cpp:156] Memory required for data: 94020
I0925 22:30:03.340768 32518 net.cpp:217] h_pseudoloss needs backward computation.
…
I0925 22:30:03.340876 32558 net.cpp:141] Setting up lstm1_transform_1
I0925 22:30:03.340880 32518 net.cpp:219] cont_1_lstm1_cont_slice_0_split does not need backward computation.
I0925 22:30:03.340924 32524 net.cpp:399] lstm2 -> lstm2
I0925 22:30:03.340935 32518 net.cpp:219] lstm1_cont_slice does not need backward computation.
I0925 22:30:03.340948 32518 net.cpp:219] lstm1_ does not need backward computation.
I0925 22:30:03.340956 32518 net.cpp:219] lstm1_ does not need backward computation.
I0925 22:30:03.340963 32518 net.cpp:261] This network produces output c_T
I0925 22:30:03.340930 32558 net.cpp:148] Top shape: 1 1 4000 (4000)
I0925 22:30:03.340972 32518 net.cpp:261] This network produces output h_pseudoloss
I0925 22:30:03.340994 32558 net.cpp:156] Memory required for data: 62016
I0925 22:30:03.340989 32524 recurrent_layer.cpp:20] Initializing recurrent layer: assuming input batch contains 1 timesteps of 1 independent streams.
I0925 22:30:03.341028 32558 layer_factory.hpp:77] Creating layer lstm1_gate_input_1
I0925 22:30:03.341043 32518 net.cpp:274] Network initialization done.
I0925 22:30:03.341060 32558 net.cpp:91] Creating Layer lstm1_gate_input_1
I0925 22:30:03.341073 32558 net.cpp:425] lstm1_gate_input_1 <- W_hc_h_0
I0925 22:30:03.341084 32558 net.cpp:425] lstm1_gate_input_1 <- W_xc_x_1
I0925 22:30:03.341101 32558 net.cpp:399] lstm1_gate_input_1 -> gate_input_1
I0925 22:30:03.341125 32518 recurrent_layer.cpp:150] Adding parameter 0: W_xc
I0925 22:30:03.341137 32518 recurrent_layer.cpp:150] Adding parameter 1: b_c
I0925 22:30:03.341145 32518 recurrent_layer.cpp:150] Adding parameter 2: W_hc
I0925 22:30:03.341192 32558 net.cpp:141] Setting up lstm1_gate_input_1
I0925 22:30:03.341209 32558 net.cpp:148] Top shape: 1 1 4000 (4000)
I0925 22:30:03.341217 32558 net.cpp:156] Memory required for data: 78016
I0925 22:30:03.341225 32558 layer_factory.hpp:77] Creating layer lstm1_unit_1
I0925 22:30:03.341243 32558 net.cpp:91] Creating Layer lstm1_unit_1
I0925 22:30:03.341253 32558 net.cpp:425] lstm1_unit_1 <- c_0
I0925 22:30:03.341262 32558 net.cpp:425] lstm1_unit_1 <- gate_input_1
I0925 22:30:03.341272 32558 net.cpp:425] lstm1_unit_1 <- cont_1_lstm1_cont_slice_0_split_1
I0925 22:30:03.341284 32558 net.cpp:399] lstm1_unit_1 -> c_1
I0925 22:30:03.341298 32558 net.cpp:399] lstm1_unit_1 -> h_1
I0925 22:30:03.341347 32520 net.cpp:141] Setting up lstm1_x_transform
I0925 22:30:03.341369 32520 net.cpp:148] Top shape: 1 1 4000 (4000)
I0925 22:30:03.341377 32520 net.cpp:156] Memory required for data: 26016
I0925 22:30:03.341397 32520 layer_factory.hpp:77] Creating layer lstm1_W_xc_x_slice
I0925 22:30:03.341416 32520 net.cpp:91] Creating Layer lstm1_W_xc_x_slice
I0925 22:30:03.341426 32520 net.cpp:425] lstm1_W_xc_x_slice <- W_xc_x
I0925 22:30:03.341439 32520 net.cpp:399] lstm1_W_xc_x_slice -> W_xc_x_1
I0925 22:30:03.341507 32558 net.cpp:141] Setting up lstm1_unit_1
I0925 22:30:03.341526 32558 net.cpp:148] Top shape: 1 1 1000 (1000)
I0925 22:30:03.341536 32558 net.cpp:148] Top shape: 1 1 1000 (1000)
I0925 22:30:03.341543 32558 net.cpp:156] Memory required for data: 86016
I0925 22:30:03.341552 32558 layer_factory.hpp:77] Creating layer lstm1_
I0925 22:30:03.341562 32520 net.cpp:141] Setting up lstm1_W_xc_x_slice
I0925 22:30:03.341586 32520 net.cpp:148] Top shape: 1 1 4000 (4000)
I0925 22:30:03.341565 32558 net.cpp:91] Creating Layer lstm1_
I0925 22:30:03.341594 32520 net.cpp:156] Memory required for data: 42016
I0925 22:30:03.341603 32520 layer_factory.hpp:77] Creating layer lstm1_h_conted_0
I0925 22:30:03.341604 32558 net.cpp:425] lstm1_ <- c_1
I0925 22:30:03.341610 32518 net.cpp:141] Setting up lstm1
I0925 22:30:03.341619 32520 net.cpp:91] Creating Layer lstm1_h_conted_0
I0925 22:30:03.341619 32558 net.cpp:399] lstm1_ -> c_T
I0925 22:30:03.341627 32520 net.cpp:425] lstm1_h_conted_0 <- h_0
I0925 22:30:03.341629 32518 net.cpp:148] Top shape: 1 1 1000 (1000)
I0925 22:30:03.341644 32520 net.cpp:425] lstm1_h_conted_0 <- cont_1_lstm1_cont_slice_0_split_0
I0925 22:30:03.341647 32518 net.cpp:156] Memory required for data: 26408
I0925 22:30:03.341660 32520 net.cpp:399] lstm1_h_conted_0 -> h_conted_0
I0925 22:30:03.341670 32518 layer_factory.hpp:77] Creating layer concat
I0925 22:30:03.341675 32524 net.cpp:49] Initializing net from parameters: 
layer {
  name: "lstm2_"
  type: "Input"
  top: "x"
  top: "cont"
  input_param {
    shape {
      dim: 1
      dim: 1
      dim: 1501
    }
    shape {
      dim: 1
      dim: 1
    }
  }
}
layer {
  name: "lstm2_"
  type: "Input"
  top: "c_0"
  top: "h_0"
  input_param {
    shape {
      dim: 1
      dim: 1
      dim: 1000
    }
    shape {
      dim: 1
      dim: 1
      dim: 1000
    }
  }
}
layer {
  name: "lstm2_cont_slice"
  type: "Slice"
  bottom: "cont"
  top: "cont_1"
  slice_param {
    axis: 0
  }
}
layer {
  name: "lstm2_x_transform"
  type: "InnerProduct"
  bottom: "x"
  top: "W_xc_x"
  param {
    name: "W_xc"
  }
  param {
    name: "b_c"
  }
  propagate_down: true
  inner_product_param {
    num_output: 4000
    bias_term: true
    weight_filler {
      type: "uniform"
      min: -0.08
      max: 0.08
    }
    bias_filler {
      type: "constant"
      value: 0
    }
    axis: 2
  }
}
layer {
  name: "lstm2_W_xc_x_slice"
  type: "Slice"
  bottom: "W_xc_x"
  top: "W_xc_x_1"
  slice_param {
    axis: 0
  }
}
layer {
  name: "lstm2_h_conted_0"
  type: "Scale"
  bottom: "h_0"
  bottom: "cont_1"
  top: "h_conted_0"
  scale_param {
    axis: 0
  }
}
layer {
  name: "lstm2_transform_1"
  type: "InnerProduct"
  bottom: "h_conted_0"
  top: "W_hc_h_0"
  param {
    name: "W_hc"
  }
  inner_product_param {
    num_output: 4000
    bias_term: false
    weight_filler {
      type: "uniform"
      min: -0.08
      max: 0.08
    }
    axis: 2
  }
}
layer {
  name: "lstm2_gate_input_1"
  type: "Eltwise"
  bottom: "W_hc_h_0"
  bottom: "W_xc_x_1"
  top: "gate_input_1"
  eltwise_param {
    operation: SUM
  }
}
layer {
  name: "lstm2_unit_1"
  type: "LSTMUnit"
  bottom: "c_0"
  bottom: "gate_input_1"
  bottom: "cont_1"
  top: "c_1"
  top: "h_1"
}
layer {
  name: "lstm2_"
  type: "Split"
  bottom: "c_1"
  top: "c_T"
}
layer {
  name: "lstm2_h_concat"
  type: "Concat"
  bottom: "h_1"
  top: "h"
  concat_param {
    axis: 0
  }
}
layer {
  name: "h_pseudoloss"
  type: "Reduction"
  bottom: "h"
  top: "h_pseudoloss"
  loss_weight: 1
}
I0925 22:30:03.341686 32518 net.cpp:91] Creating Layer concat
I0925 22:30:03.341688 32558 net.cpp:141] Setting up lstm1_
I0925 22:30:03.341718 32518 net.cpp:425] concat <- lstm1
I0925 22:30:03.341730 32518 net.cpp:425] concat <- embedded_input_sentence
I0925 22:30:03.341734 32558 net.cpp:148] Top shape: 1 1 1000 (1000)
I0925 22:30:03.341740 32518 net.cpp:425] concat <- reshaped_stage_indicator
I0925 22:30:03.341745 32558 net.cpp:156] Memory required for data: 90016
I0925 22:30:03.341754 32518 net.cpp:399] concat -> lstm1_video_sequence
I0925 22:30:03.341755 32558 layer_factory.hpp:77] Creating layer lstm1_h_concat
I0925 22:30:03.341792 32558 net.cpp:91] Creating Layer lstm1_h_concat
I0925 22:30:03.341802 32558 net.cpp:425] lstm1_h_concat <- h_1
I0925 22:30:03.341816 32558 net.cpp:399] lstm1_h_concat -> h
I0925 22:30:03.341825 32518 net.cpp:141] Setting up concat
I0925 22:30:03.341840 32518 net.cpp:148] Top shape: 1 1 1501 (1501)
I0925 22:30:03.341847 32518 net.cpp:156] Memory required for data: 32412
I0925 22:30:03.341856 32518 layer_factory.hpp:77] Creating layer lstm2
I0925 22:30:03.341869 32520 net.cpp:141] Setting up lstm1_h_conted_0
I0925 22:30:03.341872 32518 net.cpp:91] Creating Layer lstm2
I0925 22:30:03.341891 32520 net.cpp:148] Top shape: 1 1 1000 (1000)
I0925 22:30:03.341893 32518 net.cpp:425] lstm2 <- lstm1_video_sequence
I0925 22:30:03.341898 32520 net.cpp:156] Memory required for data: 46016
I0925 22:30:03.341904 32518 net.cpp:425] lstm2 <- cont_sentence_input_1_split_1
I0925 22:30:03.341907 32520 layer_factory.hpp:77] Creating layer lstm1_transform_1
I0925 22:30:03.341912 32524 layer_factory.hpp:77] Creating layer lstm2_
I0925 22:30:03.341927 32520 net.cpp:91] Creating Layer lstm1_transform_1
I0925 22:30:03.341928 32558 net.cpp:141] Setting up lstm1_h_concat
I0925 22:30:03.341936 32520 net.cpp:425] lstm1_transform_1 <- h_conted_0
I0925 22:30:03.341918 32518 net.cpp:399] lstm2 -> lstm2
I0925 22:30:03.341948 32558 net.cpp:148] Top shape: 1 1 1000 (1000)
I0925 22:30:03.341951 32520 net.cpp:399] lstm1_transform_1 -> W_hc_h_0
I0925 22:30:03.341954 32524 net.cpp:91] Creating Layer lstm2_
I0925 22:30:03.341964 32518 recurrent_layer.cpp:20] Initializing recurrent layer: assuming input batch contains 1 timesteps of 1 independent streams.
I0925 22:30:03.341958 32558 net.cpp:156] Memory required for data: 94016
I0925 22:30:03.341985 32524 net.cpp:399] lstm2_ -> x
I0925 22:30:03.341994 32558 layer_factory.hpp:77] Creating layer h_pseudoloss
I0925 22:30:03.342010 32558 net.cpp:91] Creating Layer h_pseudoloss
I0925 22:30:03.342017 32524 net.cpp:399] lstm2_ -> cont
I0925 22:30:03.342018 32558 net.cpp:425] h_pseudoloss <- h
I0925 22:30:03.342052 32558 net.cpp:399] h_pseudoloss -> h_pseudoloss
I0925 22:30:03.342262 32518 net.cpp:49] Initializing net from parameters: 
layer {
  name: "lstm2_"
  type: "Input"
  top: "x"
  top: "cont"
  input_param {
    shape {
      dim: 1
      dim: 1
      dim: 1501
    }
    shape {
      dim: 1
      dim: 1
    }
  }
}
layer {
  name: "lstm2_"
  type: "Input"
  top: "c_0"
  top: "h_0"
  input_param {
    shape {
      dim: 1
      dim: 1
      dim: 1000
    }
    shape {
      dim: 1
      dim: 1
      dim: 1000
    }
  }
}
layer {
  name: "lstm2_cont_slice"
  type: "Slice"
  bottom: "cont"
  top: "cont_1"
  slice_param {
    axis: 0
  }
}
layer {
  name: "lstm2_x_transform"
  type: "InnerProduct"
  bottom: "x"
  top: "W_xc_x"
  param {
    name: "W_xc"
  }
  param {
    name: "b_c"
  }
  propagate_down: true
  inner_product_param {
    num_output: 4000
    bias_term: true
    weight_filler {
      type: "uniform"
      min: -0.08
      max: 0.08
    }
    bias_filler {
      type: "constant"
      value: 0
    }
    axis: 2
  }
}
layer {
  name: "lstm2_W_xc_x_slice"
  type: "Slice"
  bottom: "W_xc_x"
  top: "W_xc_x_1"
  slice_param {
    axis: 0
  }
}
layer {
  name: "lstm2_h_conted_0"
  type: "Scale"
  bottom: "h_0"
  bottom: "cont_1"
  top: "h_conted_0"
  scale_param {
    axis: 0
  }
}
layer {
  name: "lstm2_transform_1"
  type: "InnerProduct"
  bottom: "h_conted_0"
  top: "W_hc_h_0"
  param {
    name: "W_hc"
  }
  inner_product_param {
    num_output: 4000
    bias_term: false
    weight_filler {
      type: "uniform"
      min: -0.08
      max: 0.08
    }
    axis: 2
  }
}
layer {
  name: "lstm2_gate_input_1"
  type: "Eltwise"
  bottom: "W_hc_h_0"
  bottom: "W_xc_x_1"
  top: "gate_input_1"
  eltwise_param {
    operation: SUM
  }
}
layer {
  name: "lstm2_unit_1"
  type: "LSTMUnit"
  bottom: "c_0"
  bottom: "gate_input_1"
  bottom: "cont_1"
  top: "c_1"
  top: "h_1"
}
layer {
  name: "lstm2_"
  type: "Split"
  bottom: "c_1"
  top: "c_T"
}
layer {
  name: "lstm2_h_concat"
  type: "Concat"
  bottom: "h_1"
  top: "h"
  concat_param {
    axis: 0
  }
}
layer {
  name: "h_pseudoloss"
  type: "Reduction"
  bottom: "h"
  top: "h_pseudoloss"
  loss_weight: 1
}
I0925 22:30:03.342386 32518 layer_factory.hpp:77] Creating layer lstm2_
I0925 22:30:03.342404 32518 net.cpp:91] Creating Layer lstm2_
I0925 22:30:03.342414 32518 net.cpp:399] lstm2_ -> x
I0925 22:30:03.342432 32518 net.cpp:399] lstm2_ -> cont
I0925 22:30:03.352335 32558 net.cpp:141] Setting up h_pseudoloss
I0925 22:30:03.352380 32558 net.cpp:148] Top shape: (1)
…
I0925 22:30:03.352488 32558 net.cpp:219] lstm1_ does not need backward computation.
I0925 22:30:03.352491 32558 net.cpp:261] This network produces output c_T
I0925 22:30:03.352499 32558 net.cpp:261] This network produces output h_pseudoloss
I0925 22:30:03.352515 32558 net.cpp:274] Network initialization done.
I0925 22:30:03.352578 32558 recurrent_layer.cpp:150] Adding parameter 0: W_xc
I0925 22:30:03.352586 32558 recurrent_layer.cpp:150] Adding parameter 1: b_c
I0925 22:30:03.352591 32558 recurrent_layer.cpp:150] Adding parameter 2: W_hc
I0925 22:30:03.352705 32558 net.cpp:141] Setting up lstm1
I0925 22:30:03.352717 32558 net.cpp:148] Top shape: 1 1 1000 (1000)
I0925 22:30:03.352722 32558 net.cpp:156] Memory required for data: 26408
I0925 22:30:03.352740 32558 layer_factory.hpp:77] Creating layer concat
I0925 22:30:03.352756 32558 net.cpp:91] Creating Layer concat
I0925 22:30:03.352764 32558 net.cpp:425] concat <- lstm1
I0925 22:30:03.352771 32558 net.cpp:425] concat <- embedded_input_sentence
I0925 22:30:03.352777 32558 net.cpp:425] concat <- reshaped_stage_indicator
I0925 22:30:03.352785 32558 net.cpp:399] concat -> lstm1_video_sequence
I0925 22:30:03.352823 32558 net.cpp:141] Setting up concat
I0925 22:30:03.352831 32558 net.cpp:148] Top shape: 1 1 1501 (1501)
I0925 22:30:03.352836 32558 net.cpp:156] Memory required for data: 32412
I0925 22:30:03.352843 32558 layer_factory.hpp:77] Creating layer lstm2
I0925 22:30:03.352859 32558 net.cpp:91] Creating Layer lstm2
I0925 22:30:03.352865 32558 net.cpp:425] lstm2 <- lstm1_video_sequence
I0925 22:30:03.352871 32558 net.cpp:425] lstm2 <- cont_sentence_input_1_split_1
I0925 22:30:03.352880 32558 net.cpp:399] lstm2 -> lstm2
I0925 22:30:03.352891 32558 recurrent_layer.cpp:20] Initializing recurrent layer: assuming input batch contains 1 timesteps of 1 independent streams.
I0925 22:30:03.353163 32558 net.cpp:49] Initializing net from parameters: 
layer {
  name: "lstm2_"
  type: "Input"
  top: "x"
  top: "cont"
  input_param {
    shape {
      dim: 1
      dim: 1
      dim: 1501
    }
    shape {
      dim: 1
      dim: 1
    }
  }
}
layer {
  name: "lstm2_"
  type: "Input"
  top: "c_0"
  top: "h_0"
  input_param {
    shape {
      dim: 1
      dim: 1
      dim: 1000
    }
    shape {
      dim: 1
      dim: 1
      dim: 1000
    }
  }
}
layer {
  name: "lstm2_cont_slice"
  type: "Slice"
  bottom: "cont"
  top: "cont_1"
  slice_param {
    axis: 0
  }
}
layer {
  name: "lstm2_x_transform"
  type: "InnerProduct"
  bottom: "x"
  top: "W_xc_x"
  param {
    name: "W_xc"
  }
  param {
    name: "b_c"
  }
  propagate_down: true
  inner_product_param {
    num_output: 4000
    bias_term: true
    weight_filler {
      type: "uniform"
      min: -0.08
      max: 0.08
    }
    bias_filler {
      type: "constant"
      value: 0
    }
    axis: 2
  }
}
layer {
  name: "lstm2_W_xc_x_slice"
  type: "Slice"
  bottom: "W_xc_x"
  top: "W_xc_x_1"
  slice_param {
    axis: 0
  }
}
layer {
  name: "lstm2_h_conted_0"
  type: "Scale"
  bottom: "h_0"
  bottom: "cont_1"
  top: "h_conted_0"
  scale_param {
    axis: 0
  }
}
layer {
  name: "lstm2_transform_1"
  type: "InnerProduct"
  bottom: "h_conted_0"
  top: "W_hc_h_0"
  param {
    name: "W_hc"
  }
  inner_product_param {
    num_output: 4000
    bias_term: false
    weight_filler {
      type: "uniform"
      min: -0.08
      max: 0.08
    }
    axis: 2
  }
}
layer {
  name: "lstm2_gate_input_1"
  type: "Eltwise"
  bottom: "W_hc_h_0"
  bottom: "W_xc_x_1"
  top: "gate_input_1"
  eltwise_param {
    operation: SUM
  }
}
layer {
  name: "lstm2_unit_1"
  type: "LSTMUnit"
  bottom: "c_0"
  bottom: "gate_input_1"
  bottom: "cont_1"
  top: "c_1"
  top: "h_1"
}
layer {
  name: "lstm2_"
  type: "Split"
  bottom: "c_1"
  top: "c_T"
}
layer {
  name: "lstm2_h_concat"
  type: "Concat"
  bottom: "h_1"
  top: "h"
  concat_param {
    axis: 0
  }
}
layer {
  name: "h_pseudoloss"
  type: "Reduction"
  bottom: "h"
  top: "h_pseudoloss"
  loss_weight: 1
}
I0925 22:30:03.353256 32558 layer_factory.hpp:77] Creating layer lstm2_
I0925 22:30:03.353269 32558 net.cpp:91] Creating Layer lstm2_
I0925 22:30:03.353276 32558 net.cpp:399] lstm2_ -> x
I0925 22:30:03.353287 32558 net.cpp:399] lstm2_ -> cont
I0925 22:30:03.353343 32558 net.cpp:141] Setting up lstm2_
I0925 22:30:03.353353 32558 net.cpp:148] Top shape: 1 1 1501 (1501)
I0925 22:30:03.353359 32558 net.cpp:148] Top shape: 1 1 (1)
I0925 22:30:03.353363 32558 net.cpp:156] Memory required for data: 6008
I0925 22:30:03.353368 32558 layer_factory.hpp:77] Creating layer lstm2_
I0925 22:30:03.353380 32558 net.cpp:91] Creating Layer lstm2_
I0925 22:30:03.353389 32558 net.cpp:399] lstm2_ -> c_0
…
I0925 22:30:03.522456 32518 net.cpp:91] Creating Layer lstm2_W_xc_x_slice
I0925 22:30:03.522466 32520 net.cpp:148] Top shape: 1 1 1000 (1000)
I0925 22:30:03.522467 32518 net.cpp:425] lstm2_W_xc_x_slice <- W_xc_x
I0925 22:30:03.522474 32520 net.cpp:148] Top shape: 1 1 1000 (1000)
I0925 22:30:03.522478 32520 net.cpp:156] Memory required for data: 86016
I0925 22:30:03.522483 32520 layer_factory.hpp:77] Creating layer lstm1_
I0925 22:30:03.522485 32518 net.cpp:399] lstm2_W_xc_x_slice -> W_xc_x_1
I0925 22:30:03.522492 32520 net.cpp:91] Creating Layer lstm1_
I0925 22:30:03.522498 32520 net.cpp:425] lstm1_ <- c_1
I0925 22:30:03.522510 32520 net.cpp:399] lstm1_ -> c_T
I0925 22:30:03.522542 32524 net.cpp:141] Setting up lstm2_h_conted_0
I0925 22:30:03.522555 32524 net.cpp:148] Top shape: 1 1 1000 (1000)
I0925 22:30:03.522559 32524 net.cpp:156] Memory required for data: 50020
I0925 22:30:03.522564 32524 layer_factory.hpp:77] Creating layer lstm2_transform_1
I0925 22:30:03.522575 32524 net.cpp:91] Creating Layer lstm2_transform_1
I0925 22:30:03.522581 32524 net.cpp:425] lstm2_transform_1 <- h_conted_0
I0925 22:30:03.522589 32524 net.cpp:399] lstm2_transform_1 -> W_hc_h_0
I0925 22:30:03.610361 32552 net.cpp:141] Setting up lstm2_h_conted_0
I0925 22:30:03.610419 32552 net.cpp:148] Top shape: 1 1 1000 (1000)
I0925 22:30:03.610429 32552 net.cpp:156] Memory required for data: 50020
I0925 22:30:03.610445 32552 layer_factory.hpp:77] Creating layer lstm2_transform_1
I0925 22:30:03.610466 32518 net.cpp:141] Setting up lstm2_W_xc_x_slice
I0925 22:30:03.610477 32552 net.cpp:91] Creating Layer lstm2_transform_1
I0925 22:30:03.610484 32518 net.cpp:148] Top shape: 1 1 4000 (4000)
I0925 22:30:03.610489 32518 net.cpp:156] Memory required for data: 46020
I0925 22:30:03.610489 32552 net.cpp:425] lstm2_transform_1 <- h_conted_0
I0925 22:30:03.610496 32518 layer_factory.hpp:77] Creating layer lstm2_h_conted_0
I0925 22:30:03.610510 32518 net.cpp:91] Creating Layer lstm2_h_conted_0
I0925 22:30:03.610510 32552 net.cpp:399] lstm2_transform_1 -> W_hc_h_0
I0925 22:30:03.610517 32518 net.cpp:425] lstm2_h_conted_0 <- h_0
I0925 22:30:03.610524 32518 net.cpp:425] lstm2_h_conted_0 <- cont_1_lstm2_cont_slice_0_split_0
I0925 22:30:03.610538 32518 net.cpp:399] lstm2_h_conted_0 -> h_conted_0
I0925 22:30:03.610566 32520 net.cpp:141] Setting up lstm1_
I0925 22:30:03.610611 32520 net.cpp:148] Top shape: 1 1 1000 (1000)
I0925 22:30:03.610630 32520 net.cpp:156] Memory required for data: 90016
I0925 22:30:03.610646 32520 layer_factory.hpp:77] Creating layer lstm1_h_concat
I0925 22:30:03.610672 32520 net.cpp:91] Creating Layer lstm1_h_concat
I0925 22:30:03.610689 32520 net.cpp:425] lstm1_h_concat <- h_1
I0925 22:30:03.610714 32520 net.cpp:399] lstm1_h_concat -> h
I0925 22:30:03.627761 32520 net.cpp:141] Setting up lstm1_h_concat
I0925 22:30:03.627831 32520 net.cpp:148] Top shape: 1 1 1000 (1000)
I0925 22:30:03.627848 32520 net.cpp:156] Memory required for data: 94016
I0925 22:30:03.627869 32520 layer_factory.hpp:77] Creating layer h_pseudoloss
I0925 22:30:03.627903 32520 net.cpp:91] Creating Layer h_pseudoloss
I0925 22:30:03.627908 32518 net.cpp:141] Setting up lstm2_h_conted_0
I0925 22:30:03.627923 32520 net.cpp:425] h_pseudoloss <- h
I0925 22:30:03.627928 32518 net.cpp:148] Top shape: 1 1 1000 (1000)
I0925 22:30:03.627946 32518 net.cpp:156] Memory required for data: 50020
I0925 22:30:03.627954 32518 layer_factory.hpp:77] Creating layer lstm2_transform_1
I0925 22:30:03.627961 32520 net.cpp:399] h_pseudoloss -> h_pseudoloss
I0925 22:30:03.627974 32518 net.cpp:91] Creating Layer lstm2_transform_1
I0925 22:30:03.627981 32518 net.cpp:425] lstm2_transform_1 <- h_conted_0
I0925 22:30:03.627991 32518 net.cpp:399] lstm2_transform_1 -> W_hc_h_0
I0925 22:30:03.628005 32558 net.cpp:141] Setting up lstm2_h_conted_0
I0925 22:30:03.628052 32558 net.cpp:148] Top shape: 1 1 1000 (1000)
I0925 22:30:03.628069 32558 net.cpp:156] Memory required for data: 50020
I0925 22:30:03.628085 32558 layer_factory.hpp:77] Creating layer lstm2_transform_1
I0925 22:30:03.628113 32558 net.cpp:91] Creating Layer lstm2_transform_1
I0925 22:30:03.628134 32558 net.cpp:425] lstm2_transform_1 <- h_conted_0
I0925 22:30:03.628159 32558 net.cpp:399] lstm2_transform_1 -> W_hc_h_0
I0925 22:30:03.636584 32520 net.cpp:141] Setting up h_pseudoloss
…
I0925 22:30:03.636811 32520 net.cpp:219] lstm1_ does not need backward computation.
I0925 22:30:03.636817 32520 net.cpp:261] This network produces output c_T
I0925 22:30:03.636827 32520 net.cpp:261] This network produces output h_pseudoloss
I0925 22:30:03.636853 32520 net.cpp:274] Network initialization done.
I0925 22:30:03.636929 32520 recurrent_layer.cpp:150] Adding parameter 0: W_xc
I0925 22:30:03.636940 32520 recurrent_layer.cpp:150] Adding parameter 1: b_c
I0925 22:30:03.636948 32520 recurrent_layer.cpp:150] Adding parameter 2: W_hc
I0925 22:30:03.647336 32520 net.cpp:141] Setting up lstm1
I0925 22:30:03.647384 32520 net.cpp:148] Top shape: 1 1 1000 (1000)
I0925 22:30:03.647393 32520 net.cpp:156] Memory required for data: 26408
I0925 22:30:03.647423 32520 layer_factory.hpp:77] Creating layer concat
I0925 22:30:03.647446 32520 net.cpp:91] Creating Layer concat
I0925 22:30:03.647456 32520 net.cpp:425] concat <- lstm1
I0925 22:30:03.647469 32520 net.cpp:425] concat <- embedded_input_sentence
I0925 22:30:03.647478 32520 net.cpp:425] concat <- reshaped_stage_indicator
I0925 22:30:03.647490 32520 net.cpp:399] concat -> lstm1_video_sequence
I0925 22:30:03.647559 32520 net.cpp:141] Setting up concat
I0925 22:30:03.647573 32520 net.cpp:148] Top shape: 1 1 1501 (1501)
I0925 22:30:03.647580 32520 net.cpp:156] Memory required for data: 32412
I0925 22:30:03.647588 32520 layer_factory.hpp:77] Creating layer lstm2
I0925 22:30:03.647608 32520 net.cpp:91] Creating Layer lstm2
I0925 22:30:03.647616 32520 net.cpp:425] lstm2 <- lstm1_video_sequence
I0925 22:30:03.647625 32520 net.cpp:425] lstm2 <- cont_sentence_input_1_split_1
I0925 22:30:03.647637 32520 net.cpp:399] lstm2 -> lstm2
I0925 22:30:03.647655 32520 recurrent_layer.cpp:20] Initializing recurrent layer: assuming input batch contains 1 timesteps of 1 independent streams.
I0925 22:30:03.648056 32520 net.cpp:49] Initializing net from parameters: 
layer {
  name: "lstm2_"
  type: "Input"
  top: "x"
  top: "cont"
  input_param {
    shape {
      dim: 1
      dim: 1
      dim: 1501
    }
    shape {
      dim: 1
      dim: 1
    }
  }
}
layer {
  name: "lstm2_"
  type: "Input"
  top: "c_0"
  top: "h_0"
  input_param {
    shape {
      dim: 1
      dim: 1
      dim: 1000
    }
    shape {
      dim: 1
      dim: 1
      dim: 1000
    }
  }
}
layer {
  name: "lstm2_cont_slice"
  type: "Slice"
  bottom: "cont"
  top: "cont_1"
  slice_param {
    axis: 0
  }
}
layer {
  name: "lstm2_x_transform"
  type: "InnerProduct"
  bottom: "x"
  top: "W_xc_x"
  param {
    name: "W_xc"
  }
  param {
    name: "b_c"
  }
  propagate_down: true
  inner_product_param {
    num_output: 4000
    bias_term: true
    weight_filler {
      type: "uniform"
      min: -0.08
      max: 0.08
    }
    bias_filler {
      type: "constant"
      value: 0
    }
    axis: 2
  }
}
layer {
  name: "lstm2_W_xc_x_slice"
  type: "Slice"
  bottom: "W_xc_x"
  top: "W_xc_x_1"
  slice_param {
    axis: 0
  }
}
layer {
  name: "lstm2_h_conted_0"
  type: "Scale"
  bottom: "h_0"
  bottom: "cont_1"
  top: "h_conted_0"
  scale_param {
    axis: 0
  }
}
layer {
  name: "lstm2_transform_1"
  type: "InnerProduct"
  bottom: "h_conted_0"
  top: "W_hc_h_0"
  param {
    name: "W_hc"
  }
  inner_product_param {
    num_output: 4000
    bias_term: false
    weight_filler {
      type: "uniform"
      min: -0.08
      max: 0.08
    }
    axis: 2
  }
}
layer {
  name: "lstm2_gate_input_1"
  type: "Eltwise"
  bottom: "W_hc_h_0"
  bottom: "W_xc_x_1"
  top: "gate_input_1"
  eltwise_param {
    operation: SUM
  }
}
layer {
  name: "lstm2_unit_1"
  type: "LSTMUnit"
  bottom: "c_0"
  bottom: "gate_input_1"
  bottom: "cont_1"
  top: "c_1"
  top: "h_1"
}
layer {
  name: "lstm2_"
  type: "Split"
  bottom: "c_1"
  top: "c_T"
}
layer {
  name: "lstm2_h_concat"
  type: "Concat"
  bottom: "h_1"
  top: "h"
  concat_param {
    axis: 0
  }
}
layer {
  name: "h_pseudoloss"
  type: "Reduction"
  bottom: "h"
  top: "h_pseudoloss"
  loss_weight: 1
}
I0925 22:30:03.648190 32520 layer_factory.hpp:77] Creating layer lstm2_
I0925 22:30:03.648207 32520 net.cpp:91] Creating Layer lstm2_
I0925 22:30:03.648217 32520 net.cpp:399] lstm2_ -> x
I0925 22:30:03.648234 32520 net.cpp:399] lstm2_ -> cont
I0925 22:30:03.648542 32520 net.cpp:141] Setting up lstm2_
I0925 22:30:03.648560 32520 net.cpp:148] Top shape: 1 1 1501 (1501)
I0925 22:30:03.648569 32520 net.cpp:148] Top shape: 1 1 (1)
I0925 22:30:03.648576 32520 net.cpp:156] Memory required for data: 6008
I0925 22:30:03.648584 32520 layer_factory.hpp:77] Creating layer lstm2_
I0925 22:30:03.648602 32520 net.cpp:91] Creating Layer lstm2_
I0925 22:30:03.648614 32520 net.cpp:399] lstm2_ -> c_0
I0925 22:30:03.648630 32520 net.cpp:399] lstm2_ -> h_0
I0925 22:30:03.649418 32520 net.cpp:141] Setting up lstm2_
I0925 22:30:03.649436 32520 net.cpp:148] Top shape: 1 1 1000 (1000)
I0925 22:30:03.649446 32520 net.cpp:148] Top shape: 1 1 1000 (1000)
I0925 22:30:03.649452 32520 net.cpp:156] Memory required for data: 14008
I0925 22:30:03.649461 32520 layer_factory.hpp:77] Creating layer lstm2_cont_slice
I0925 22:30:03.649474 32520 net.cpp:91] Creating Layer lstm2_cont_slice
I0925 22:30:03.649482 32520 net.cpp:425] lstm2_cont_slice <- cont
I0925 22:30:03.649494 32520 net.cpp:399] lstm2_cont_slice -> cont_1
I0925 22:30:03.651885 32520 net.cpp:141] Setting up lstm2_cont_slice
I0925 22:30:03.651914 32520 net.cpp:148] Top shape: 1 1 (1)
I0925 22:30:03.651921 32520 net.cpp:156] Memory required for data: 14012
I0925 22:30:03.651929 32520 layer_factory.hpp:77] Creating layer cont_1_lstm2_cont_slice_0_split
I0925 22:30:03.651942 32520 net.cpp:91] Creating Layer cont_1_lstm2_cont_slice_0_split
I0925 22:30:03.651948 32520 net.cpp:425] cont_1_lstm2_cont_slice_0_split <- cont_1
I0925 22:30:03.651958 32552 net.cpp:141] Setting up lstm2_transform_1
I0925 22:30:03.651963 32520 net.cpp:399] cont_1_lstm2_cont_slice_0_split -> cont_1_lstm2_cont_slice_0_split_0
I0925 22:30:03.651984 32552 net.cpp:148] Top shape: 1 1 4000 (4000)
I0925 22:30:03.651990 32552 net.cpp:156] Memory required for data: 66020
I0925 22:30:03.651989 32520 net.cpp:399] cont_1_lstm2_cont_slice_0_split -> cont_1_lstm2_cont_slice_0_split_1
I0925 22:30:03.652006 32552 layer_factory.hpp:77] Creating layer lstm2_gate_input_1
I0925 22:30:03.652021 32552 net.cpp:91] Creating Layer lstm2_gate_input_1
I0925 22:30:03.652029 32552 net.cpp:425] lstm2_gate_input_1 <- W_hc_h_0
I0925 22:30:03.652036 32552 net.cpp:425] lstm2_gate_input_1 <- W_xc_x_1
I0925 22:30:03.652045 32552 net.cpp:399] lstm2_gate_input_1 -> gate_input_1
I0925 22:30:03.652226 32520 net.cpp:141] Setting up cont_1_lstm2_cont_slice_0_split
I0925 22:30:03.652241 32520 net.cpp:148] Top shape: 1 1 (1)
I0925 22:30:03.652251 32520 net.cpp:148] Top shape: 1 1 (1)
I0925 22:30:03.652258 32520 net.cpp:156] Memory required for data: 14020
I0925 22:30:03.652261 32552 net.cpp:141] Setting up lstm2_gate_input_1
I0925 22:30:03.652266 32520 layer_factory.hpp:77] Creating layer lstm2_x_transform
I0925 22:30:03.652272 32552 net.cpp:148] Top shape: 1 1 4000 (4000)
I0925 22:30:03.652277 32552 net.cpp:156] Memory required for data: 82020
I0925 22:30:03.652282 32552 layer_factory.hpp:77] Creating layer lstm2_unit_1
I0925 22:30:03.652287 32520 net.cpp:91] Creating Layer lstm2_x_transform
I0925 22:30:03.652294 32552 net.cpp:91] Creating Layer lstm2_unit_1
I0925 22:30:03.652295 32520 net.cpp:425] lstm2_x_transform <- x
I0925 22:30:03.652300 32552 net.cpp:425] lstm2_unit_1 <- c_0
I0925 22:30:03.652307 32552 net.cpp:425] lstm2_unit_1 <- gate_input_1
I0925 22:30:03.652312 32552 net.cpp:425] lstm2_unit_1 <- cont_1_lstm2_cont_slice_0_split_1
I0925 22:30:03.652312 32520 net.cpp:399] lstm2_x_transform -> W_xc_x
I0925 22:30:03.652319 32552 net.cpp:399] lstm2_unit_1 -> c_1
I0925 22:30:03.652329 32552 net.cpp:399] lstm2_unit_1 -> h_1
I0925 22:30:03.672668 32552 net.cpp:141] Setting up lstm2_unit_1
I0925 22:30:03.672730 32552 net.cpp:148] Top shape: 1 1 1000 (1000)
I0925 22:30:03.672732 32524 net.cpp:141] Setting up lstm2_transform_1
I0925 22:30:03.672739 32552 net.cpp:148] Top shape: 1 1 1000 (1000)
I0925 22:30:03.672755 32552 net.cpp:156] Memory required for data: 90020
I0925 22:30:03.672757 32524 net.cpp:148] Top shape: 1 1 4000 (4000)
I0925 22:30:03.672765 32552 layer_factory.hpp:77] Creating layer lstm2_
I0925 22:30:03.672765 32524 net.cpp:156] Memory required for data: 66020
I0925 22:30:03.672783 32552 net.cpp:91] Creating Layer lstm2_
I0925 22:30:03.672790 32524 layer_factory.hpp:77] Creating layer lstm2_gate_input_1
I0925 22:30:03.672796 32552 net.cpp:425] lstm2_ <- c_1
I0925 22:30:03.672780 32518 net.cpp:141] Setting up lstm2_transform_1
I0925 22:30:03.672806 32552 net.cpp:399] lstm2_ -> c_T
I0925 22:30:03.672812 32518 net.cpp:148] Top shape: 1 1 4000 (4000)
I0925 22:30:03.672812 32524 net.cpp:91] Creating Layer lstm2_gate_input_1
I0925 22:30:03.672818 32518 net.cpp:156] Memory required for data: 66020
I0925 22:30:03.672823 32524 net.cpp:425] lstm2_gate_input_1 <- W_hc_h_0
I0925 22:30:03.672832 32518 layer_factory.hpp:77] Creating layer lstm2_gate_input_1
I0925 22:30:03.672834 32524 net.cpp:425] lstm2_gate_input_1 <- W_xc_x_1
I0925 22:30:03.672847 32518 net.cpp:91] Creating Layer lstm2_gate_input_1
I0925 22:30:03.672854 32518 net.cpp:425] lstm2_gate_input_1 <- W_hc_h_0
I0925 22:30:03.672858 32524 net.cpp:399] lstm2_gate_input_1 -> gate_input_1
I0925 22:30:03.672861 32518 net.cpp:425] lstm2_gate_input_1 <- W_xc_x_1
I0925 22:30:03.672879 32518 net.cpp:399] lstm2_gate_input_1 -> gate_input_1
I0925 22:30:03.676379 32552 net.cpp:141] Setting up lstm2_
I0925 22:30:03.676415 32524 net.cpp:141] Setting up lstm2_gate_input_1
I0925 22:30:03.676431 32552 net.cpp:148] Top shape: 1 1 1000 (1000)
I0925 22:30:03.676437 32552 net.cpp:156] Memory required for data: 94020
I0925 22:30:03.676440 32524 net.cpp:148] Top shape: 1 1 4000 (4000)
I0925 22:30:03.676446 32524 net.cpp:156] Memory required for data: 82020
I0925 22:30:03.676447 32552 layer_factory.hpp:77] Creating layer lstm2_h_concat
I0925 22:30:03.676462 32524 layer_factory.hpp:77] Creating layer lstm2_unit_1
I0925 22:30:03.676478 32524 net.cpp:91] Creating Layer lstm2_unit_1
I0925 22:30:03.676482 32518 net.cpp:141] Setting up lstm2_gate_input_1
I0925 22:30:03.676487 32552 net.cpp:91] Creating Layer lstm2_h_concat
I0925 22:30:03.676504 32518 net.cpp:148] Top shape: 1 1 4000 (4000)
I0925 22:30:03.676508 32552 net.cpp:425] lstm2_h_concat <- h_1
I0925 22:30:03.676487 32524 net.cpp:425] lstm2_unit_1 <- c_0
I0925 22:30:03.676513 32518 net.cpp:156] Memory required for data: 82020
I0925 22:30:03.676523 32552 net.cpp:399] lstm2_h_concat -> h
I0925 22:30:03.676529 32524 net.cpp:425] lstm2_unit_1 <- gate_input_1
I0925 22:30:03.676532 32518 layer_factory.hpp:77] Creating layer lstm2_unit_1
I0925 22:30:03.676539 32524 net.cpp:425] lstm2_unit_1 <- cont_1_lstm2_cont_slice_0_split_1
I0925 22:30:03.676549 32518 net.cpp:91] Creating Layer lstm2_unit_1
I0925 22:30:03.676553 32524 net.cpp:399] lstm2_unit_1 -> c_1
I0925 22:30:03.676556 32518 net.cpp:425] lstm2_unit_1 <- c_0
I0925 22:30:03.676564 32518 net.cpp:425] lstm2_unit_1 <- gate_input_1
I0925 22:30:03.676568 32524 net.cpp:399] lstm2_unit_1 -> h_1
I0925 22:30:03.676570 32518 net.cpp:425] lstm2_unit_1 <- cont_1_lstm2_cont_slice_0_split_1
I0925 22:30:03.676585 32518 net.cpp:399] lstm2_unit_1 -> c_1
I0925 22:30:03.676597 32518 net.cpp:399] lstm2_unit_1 -> h_1
I0925 22:30:03.678865 32524 net.cpp:141] Setting up lstm2_unit_1
I0925 22:30:03.678882 32524 net.cpp:148] Top shape: 1 1 1000 (1000)
I0925 22:30:03.678892 32524 net.cpp:148] Top shape: 1 1 1000 (1000)
I0925 22:30:03.678900 32524 net.cpp:156] Memory required for data: 90020
I0925 22:30:03.678907 32524 layer_factory.hpp:77] Creating layer lstm2_
I0925 22:30:03.678920 32524 net.cpp:91] Creating Layer lstm2_
I0925 22:30:03.678927 32524 net.cpp:425] lstm2_ <- c_1
I0925 22:30:03.678938 32524 net.cpp:399] lstm2_ -> c_T
I0925 22:30:03.678961 32552 net.cpp:141] Setting up lstm2_h_concat
I0925 22:30:03.678979 32552 net.cpp:148] Top shape: 1 1 1000 (1000)
I0925 22:30:03.678984 32552 net.cpp:156] Memory required for data: 98020
I0925 22:30:03.678990 32552 layer_factory.hpp:77] Creating layer h_pseudoloss
I0925 22:30:03.678995 32524 net.cpp:141] Setting up lstm2_
I0925 22:30:03.679003 32552 net.cpp:91] Creating Layer h_pseudoloss
I0925 22:30:03.679008 32552 net.cpp:425] h_pseudoloss <- h
I0925 22:30:03.679009 32524 net.cpp:148] Top shape: 1 1 1000 (1000)
I0925 22:30:03.679018 32524 net.cpp:156] Memory required for data: 94020
I0925 22:30:03.679021 32552 net.cpp:399] h_pseudoloss -> h_pseudoloss
I0925 22:30:03.679024 32524 layer_factory.hpp:77] Creating layer lstm2_h_concat
I0925 22:30:03.679042 32524 net.cpp:91] Creating Layer lstm2_h_concat
I0925 22:30:03.679050 32524 net.cpp:425] lstm2_h_concat <- h_1
I0925 22:30:03.679051 32518 net.cpp:141] Setting up lstm2_unit_1
I0925 22:30:03.679061 32524 net.cpp:399] lstm2_h_concat -> h
I0925 22:30:03.679070 32518 net.cpp:148] Top shape: 1 1 1000 (1000)
I0925 22:30:03.679077 32518 net.cpp:148] Top shape: 1 1 1000 (1000)
I0925 22:30:03.679082 32518 net.cpp:156] Memory required for data: 90020
I0925 22:30:03.679088 32518 layer_factory.hpp:77] Creating layer lstm2_
I0925 22:30:03.679096 32518 net.cpp:91] Creating Layer lstm2_
I0925 22:30:03.679101 32518 net.cpp:425] lstm2_ <- c_1
I0925 22:30:03.679110 32518 net.cpp:399] lstm2_ -> c_T
I0925 22:30:03.679142 32552 net.cpp:141] Setting up h_pseudoloss
I0925 22:30:03.679157 32552 net.cpp:148] Top shape: (1)
I0925 22:30:03.679162 32552 net.cpp:151]     with loss weight 1
I0925 22:30:03.679180 32552 net.cpp:156] Memory required for data: 98024
I0925 22:30:03.679186 32552 net.cpp:217] h_pseudoloss needs backward computation.
I0925 22:30:03.679186 32524 net.cpp:141] Setting up lstm2_h_concat
I0925 22:30:03.679193 32552 net.cpp:217] lstm2_h_concat needs backward computation.
I0925 22:30:03.679208 32552 net.cpp:219] lstm2_ does not need backward computation.
I0925 22:30:03.679208 32524 net.cpp:148] Top shape: 1 1 1000 (1000)
I0925 22:30:03.679219 32552 net.cpp:217] lstm2_unit_1 needs backward computation.
I0925 22:30:03.679227 32524 net.cpp:156] Memory required for data: 98020
I0925 22:30:03.679229 32518 net.cpp:141] Setting up lstm2_
I0925 22:30:03.679236 32524 layer_factory.hpp:77] Creating layer h_pseudoloss
I0925 22:30:03.679234 32552 net.cpp:217] lstm2_gate_input_1 needs backward computation.
I0925 22:30:03.679244 32518 net.cpp:148] Top shape: 1 1 1000 (1000)
I0925 22:30:03.679245 32552 net.cpp:217] lstm2_transform_1 needs backward computation.
I0925 22:30:03.679250 32518 net.cpp:156] Memory required for data: 94020
I0925 22:30:03.679252 32552 net.cpp:219] lstm2_h_conted_0 does not need backward computation.
I0925 22:30:03.679249 32524 net.cpp:91] Creating Layer h_pseudoloss
I0925 22:30:03.679258 32518 layer_factory.hpp:77] Creating layer lstm2_h_concat
…
I0925 22:30:03.679846 32524 net.cpp:219] lstm2_ does not need backward computation.
I0925 22:30:03.679852 32524 net.cpp:261] This network produces output c_T
I0925 22:30:03.679859 32524 net.cpp:261] This network produces output h_pseudoloss
I0925 22:30:03.679886 32524 net.cpp:274] Network initialization done.
I0925 22:30:03.679945 32524 recurrent_layer.cpp:150] Adding parameter 0: W_xc
I0925 22:30:03.679955 32524 recurrent_layer.cpp:150] Adding parameter 1: b_c
I0925 22:30:03.679961 32524 recurrent_layer.cpp:150] Adding parameter 2: W_hc
I0925 22:30:03.763542 32558 net.cpp:141] Setting up lstm2_transform_1
I0925 22:30:03.763603 32558 net.cpp:148] Top shape: 1 1 4000 (4000)
I0925 22:30:03.763613 32558 net.cpp:156] Memory required for data: 66020
I0925 22:30:03.763641 32558 layer_factory.hpp:77] Creating layer lstm2_gate_input_1
I0925 22:30:03.763656 32524 net.cpp:141] Setting up lstm2
I0925 22:30:03.763669 32558 net.cpp:91] Creating Layer lstm2_gate_input_1
I0925 22:30:03.763672 32524 net.cpp:148] Top shape: 1 1 1000 (1000)
I0925 22:30:03.763680 32558 net.cpp:425] lstm2_gate_input_1 <- W_hc_h_0
I0925 22:30:03.763680 32524 net.cpp:156] Memory required for data: 36412
I0925 22:30:03.763700 32558 net.cpp:425] lstm2_gate_input_1 <- W_xc_x_1
I0925 22:30:03.763715 32558 net.cpp:399] lstm2_gate_input_1 -> gate_input_1
I0925 22:30:03.763716 32524 layer_factory.hpp:77] Creating layer predict
I0925 22:30:03.763737 32518 net.cpp:141] Setting up lstm2
I0925 22:30:03.763742 32524 net.cpp:91] Creating Layer predict
I0925 22:30:03.763767 32524 net.cpp:425] predict <- lstm2
I0925 22:30:03.763766 32518 net.cpp:148] Top shape: 1 1 1000 (1000)
I0925 22:30:03.763787 32524 net.cpp:399] predict -> predict
I0925 22:30:03.763787 32518 net.cpp:156] Memory required for data: 36412
I0925 22:30:03.763814 32518 layer_factory.hpp:77] Creating layer predict
I0925 22:30:03.763830 32518 net.cpp:91] Creating Layer predict
I0925 22:30:03.763837 32518 net.cpp:425] predict <- lstm2
I0925 22:30:03.763846 32518 net.cpp:399] predict -> predict
I0925 22:30:03.763873 32558 net.cpp:141] Setting up lstm2_gate_input_1
I0925 22:30:03.763886 32558 net.cpp:148] Top shape: 1 1 4000 (4000)
I0925 22:30:03.763891 32558 net.cpp:156] Memory required for data: 82020
I0925 22:30:03.763896 32558 layer_factory.hpp:77] Creating layer lstm2_unit_1
I0925 22:30:03.763911 32558 net.cpp:91] Creating Layer lstm2_unit_1
I0925 22:30:03.763914 32520 net.cpp:141] Setting up lstm2_x_transform
I0925 22:30:03.763921 32558 net.cpp:425] lstm2_unit_1 <- c_0
I0925 22:30:03.763931 32520 net.cpp:148] Top shape: 1 1 4000 (4000)
I0925 22:30:03.763931 32558 net.cpp:425] lstm2_unit_1 <- gate_input_1
I0925 22:30:03.763936 32520 net.cpp:156] Memory required for data: 30020
I0925 22:30:03.763942 32558 net.cpp:425] lstm2_unit_1 <- cont_1_lstm2_cont_slice_0_split_1
I0925 22:30:03.763949 32520 layer_factory.hpp:77] Creating layer lstm2_W_xc_x_slice
I0925 22:30:03.763952 32558 net.cpp:399] lstm2_unit_1 -> c_1
I0925 22:30:03.763962 32520 net.cpp:91] Creating Layer lstm2_W_xc_x_slice
I0925 22:30:03.763967 32520 net.cpp:425] lstm2_W_xc_x_slice <- W_xc_x
I0925 22:30:03.763967 32558 net.cpp:399] lstm2_unit_1 -> h_1
I0925 22:30:03.763975 32520 net.cpp:399] lstm2_W_xc_x_slice -> W_xc_x_1
I0925 22:30:03.845437 32520 net.cpp:141] Setting up lstm2_W_xc_x_slice
I0925 22:30:03.845497 32520 net.cpp:148] Top shape: 1 1 4000 (4000)
I0925 22:30:03.845507 32520 net.cpp:156] Memory required for data: 46020
I0925 22:30:03.845520 32520 layer_factory.hpp:77] Creating layer lstm2_h_conted_0
I0925 22:30:03.845544 32520 net.cpp:91] Creating Layer lstm2_h_conted_0
I0925 22:30:03.845556 32520 net.cpp:425] lstm2_h_conted_0 <- h_0
I0925 22:30:03.845571 32520 net.cpp:425] lstm2_h_conted_0 <- cont_1_lstm2_cont_slice_0_split_0
I0925 22:30:03.845587 32520 net.cpp:399] lstm2_h_conted_0 -> h_conted_0
I0925 22:30:03.927490 32558 net.cpp:141] Setting up lstm2_unit_1
I0925 22:30:03.927542 32558 net.cpp:148] Top shape: 1 1 1000 (1000)
I0925 22:30:03.927554 32558 net.cpp:148] Top shape: 1 1 1000 (1000)
I0925 22:30:03.927561 32558 net.cpp:156] Memory required for data: 90020
I0925 22:30:03.927573 32558 layer_factory.hpp:77] Creating layer lstm2_
I0925 22:30:03.927594 32558 net.cpp:91] Creating Layer lstm2_
I0925 22:30:03.927604 32558 net.cpp:425] lstm2_ <- c_1
I0925 22:30:03.927620 32558 net.cpp:399] lstm2_ -> c_T
I0925 22:30:03.927747 32558 net.cpp:141] Setting up lstm2_
I0925 22:30:03.927762 32558 net.cpp:148] Top shape: 1 1 1000 (1000)
I0925 22:30:03.927769 32558 net.cpp:156] Memory required for data: 94020
I0925 22:30:03.927779 32558 layer_factory.hpp:77] Creating layer lstm2_h_concat
I0925 22:30:03.927798 32558 net.cpp:91] Creating Layer lstm2_h_concat
I0925 22:30:03.927808 32558 net.cpp:425] lstm2_h_concat <- h_1
I0925 22:30:03.927819 32558 net.cpp:399] lstm2_h_concat -> h
I0925 22:30:03.927862 32520 net.cpp:141] Setting up lstm2_h_conted_0
I0925 22:30:03.927884 32558 net.cpp:141] Setting up lstm2_h_concat
I0925 22:30:03.927898 32520 net.cpp:148] Top shape: 1 1 1000 (1000)
I0925 22:30:03.927898 32558 net.cpp:148] Top shape: 1 1 1000 (1000)
I0925 22:30:03.927930 32520 net.cpp:156] Memory required for data: 50020
I0925 22:30:03.927932 32558 net.cpp:156] Memory required for data: 98020
I0925 22:30:03.927959 32520 layer_factory.hpp:77] Creating layer lstm2_transform_1
I0925 22:30:03.927959 32558 layer_factory.hpp:77] Creating layer h_pseudoloss
I0925 22:30:03.927991 32558 net.cpp:91] Creating Layer h_pseudoloss
I0925 22:30:03.927990 32532 net.cpp:141] Setting up predict
I0925 22:30:03.928009 32532 net.cpp:148] Top shape: 1 1 46168 (46168)
I0925 22:30:03.928000 32558 net.cpp:425] h_pseudoloss <- h
I0925 22:30:03.928019 32532 net.cpp:156] Memory required for data: 221084
I0925 22:30:03.927999 32520 net.cpp:91] Creating Layer lstm2_transform_1
I0925 22:30:03.928033 32532 layer_factory.hpp:77] Creating layer probs
I0925 22:30:03.928035 32558 net.cpp:399] h_pseudoloss -> h_pseudoloss
I0925 22:30:03.928041 32520 net.cpp:425] lstm2_transform_1 <- h_conted_0
…
I0925 22:30:03.928335 32558 net.cpp:219] lstm2_ does not need backward computation.
I0925 22:30:03.928341 32558 net.cpp:261] This network produces output c_T
I0925 22:30:03.928349 32558 net.cpp:261] This network produces output h_pseudoloss
I0925 22:30:03.928408 32558 net.cpp:274] Network initialization done.
I0925 22:30:03.928483 32558 recurrent_layer.cpp:150] Adding parameter 0: W_xc
I0925 22:30:03.928493 32558 recurrent_layer.cpp:150] Adding parameter 1: b_c
I0925 22:30:03.928500 32558 recurrent_layer.cpp:150] Adding parameter 2: W_hc
I0925 22:30:03.941648 32558 net.cpp:141] Setting up lstm2
I0925 22:30:03.941697 32558 net.cpp:148] Top shape: 1 1 1000 (1000)
I0925 22:30:03.941705 32558 net.cpp:156] Memory required for data: 36412
I0925 22:30:03.941735 32558 layer_factory.hpp:77] Creating layer predict
I0925 22:30:03.941761 32558 net.cpp:91] Creating Layer predict
I0925 22:30:03.941771 32558 net.cpp:425] predict <- lstm2
I0925 22:30:03.941786 32558 net.cpp:399] predict -> predict
I0925 22:30:04.045511 32520 net.cpp:141] Setting up lstm2_transform_1
I0925 22:30:04.045562 32520 net.cpp:148] Top shape: 1 1 4000 (4000)
I0925 22:30:04.045574 32520 net.cpp:156] Memory required for data: 66020
I0925 22:30:04.045598 32520 layer_factory.hpp:77] Creating layer lstm2_gate_input_1
I0925 22:30:04.045619 32520 net.cpp:91] Creating Layer lstm2_gate_input_1
I0925 22:30:04.045627 32520 net.cpp:425] lstm2_gate_input_1 <- W_hc_h_0
I0925 22:30:04.045635 32520 net.cpp:425] lstm2_gate_input_1 <- W_xc_x_1
I0925 22:30:04.045646 32520 net.cpp:399] lstm2_gate_input_1 -> gate_input_1
I0925 22:30:04.045716 32520 net.cpp:141] Setting up lstm2_gate_input_1
I0925 22:30:04.045729 32520 net.cpp:148] Top shape: 1 1 4000 (4000)
I0925 22:30:04.045734 32520 net.cpp:156] Memory required for data: 82020
I0925 22:30:04.045740 32520 layer_factory.hpp:77] Creating layer lstm2_unit_1
I0925 22:30:04.045749 32520 net.cpp:91] Creating Layer lstm2_unit_1
I0925 22:30:04.045754 32520 net.cpp:425] lstm2_unit_1 <- c_0
I0925 22:30:04.045760 32520 net.cpp:425] lstm2_unit_1 <- gate_input_1
I0925 22:30:04.045766 32520 net.cpp:425] lstm2_unit_1 <- cont_1_lstm2_cont_slice_0_split_1
I0925 22:30:04.045773 32520 net.cpp:399] lstm2_unit_1 -> c_1
I0925 22:30:04.045783 32520 net.cpp:399] lstm2_unit_1 -> h_1
I0925 22:30:04.045789 32514 net.cpp:141] Setting up predict
I0925 22:30:04.045810 32514 net.cpp:148] Top shape: 1 1 46168 (46168)
I0925 22:30:04.045816 32514 net.cpp:156] Memory required for data: 221084
I0925 22:30:04.045831 32514 layer_factory.hpp:77] Creating layer probs
I0925 22:30:04.045847 32514 net.cpp:91] Creating Layer probs
I0925 22:30:04.045857 32514 net.cpp:425] probs <- predict
I0925 22:30:04.045869 32514 net.cpp:399] probs -> probs
I0925 22:30:04.045871 32520 net.cpp:141] Setting up lstm2_unit_1
I0925 22:30:04.045897 32520 net.cpp:148] Top shape: 1 1 1000 (1000)
I0925 22:30:04.045903 32520 net.cpp:148] Top shape: 1 1 1000 (1000)
I0925 22:30:04.045908 32520 net.cpp:156] Memory required for data: 90020
I0925 22:30:04.045913 32520 layer_factory.hpp:77] Creating layer lstm2_
I0925 22:30:04.045922 32520 net.cpp:91] Creating Layer lstm2_
I0925 22:30:04.045928 32520 net.cpp:425] lstm2_ <- c_1
I0925 22:30:04.045936 32520 net.cpp:399] lstm2_ -> c_T
I0925 22:30:04.045981 32520 net.cpp:141] Setting up lstm2_
I0925 22:30:04.045991 32520 net.cpp:148] Top shape: 1 1 1000 (1000)
I0925 22:30:04.045995 32520 net.cpp:156] Memory required for data: 94020
I0925 22:30:04.046000 32520 layer_factory.hpp:77] Creating layer lstm2_h_concat
I0925 22:30:04.046013 32520 net.cpp:91] Creating Layer lstm2_h_concat
I0925 22:30:04.046020 32520 net.cpp:425] lstm2_h_concat <- h_1
I0925 22:30:04.046026 32520 net.cpp:399] lstm2_h_concat -> h
I0925 22:30:04.046073 32520 net.cpp:141] Setting up lstm2_h_concat
I0925 22:30:04.046083 32520 net.cpp:148] Top shape: 1 1 1000 (1000)
I0925 22:30:04.046087 32520 net.cpp:156] Memory required for data: 98020
I0925 22:30:04.046092 32520 layer_factory.hpp:77] Creating layer h_pseudoloss
I0925 22:30:04.046102 32520 net.cpp:91] Creating Layer h_pseudoloss
I0925 22:30:04.046106 32520 net.cpp:425] h_pseudoloss <- h
I0925 22:30:04.046116 32520 net.cpp:399] h_pseudoloss -> h_pseudoloss
I0925 22:30:04.046239 32520 net.cpp:141] Setting up h_pseudoloss
…
I0925 22:30:04.046344 32520 net.cpp:219] lstm2_ does not need backward computation.
I0925 22:30:04.046347 32520 net.cpp:261] This network produces output c_T
I0925 22:30:04.046352 32520 net.cpp:261] This network produces output h_pseudoloss
I0925 22:30:04.046370 32520 net.cpp:274] Network initialization done.
I0925 22:30:04.046422 32520 recurrent_layer.cpp:150] Adding parameter 0: W_xc
I0925 22:30:04.046428 32520 recurrent_layer.cpp:150] Adding parameter 1: b_c
I0925 22:30:04.046433 32520 recurrent_layer.cpp:150] Adding parameter 2: W_hc
I0925 22:30:04.046974 32520 net.cpp:141] Setting up lstm2
I0925 22:30:04.046989 32520 net.cpp:148] Top shape: 1 1 1000 (1000)
I0925 22:30:04.046994 32520 net.cpp:156] Memory required for data: 36412
I0925 22:30:04.047009 32520 layer_factory.hpp:77] Creating layer predict
I0925 22:30:04.047024 32520 net.cpp:91] Creating Layer predict
I0925 22:30:04.047031 32520 net.cpp:425] predict <- lstm2
I0925 22:30:04.047039 32520 net.cpp:399] predict -> predict
I0925 22:30:04.139693 32552 net.cpp:141] Setting up predict
I0925 22:30:04.139744 32552 net.cpp:148] Top shape: 1 1 46168 (46168)
I0925 22:30:04.139750 32552 net.cpp:156] Memory required for data: 221084
I0925 22:30:04.139765 32552 layer_factory.hpp:77] Creating layer probs
I0925 22:30:04.139782 32552 net.cpp:91] Creating Layer probs
I0925 22:30:04.139791 32552 net.cpp:425] probs <- predict
I0925 22:30:04.139801 32552 net.cpp:399] probs -> probs
I0925 22:30:04.214998 32514 net.cpp:141] Setting up probs
I0925 22:30:04.215052 32514 net.cpp:148] Top shape: 1 1 46168 (46168)
I0925 22:30:04.215059 32514 net.cpp:156] Memory required for data: 405756
I0925 22:30:04.215072 32514 net.cpp:219] probs does not need backward computation.
I0925 22:30:04.215085 32514 net.cpp:219] predict does not need backward computation.
I0925 22:30:04.215095 32514 net.cpp:219] lstm2 does not need backward computation.
I0925 22:30:04.215104 32514 net.cpp:219] concat does not need backward computation.
I0925 22:30:04.215116 32514 net.cpp:219] lstm1 does not need backward computation.
I0925 22:30:04.215126 32514 net.cpp:219] embedding does not need backward computation.
I0925 22:30:04.215132 32514 net.cpp:219] reshape_stage_indicator does not need backward computation.
I0925 22:30:04.215138 32514 net.cpp:219] reshape_frames does not need backward computation.
I0925 22:30:04.215142 32514 net.cpp:219] embed_encoder does not need backward computation.
I0925 22:30:04.215147 32514 net.cpp:219] cont_sentence_input_1_split does not need backward computation.
I0925 22:30:04.215153 32514 net.cpp:219] input does not need backward computation.
I0925 22:30:04.215157 32514 net.cpp:261] This network produces output probs
I0925 22:30:04.215179 32514 net.cpp:274] Network initialization done.
I0925 22:30:04.216269 32552 net.cpp:141] Setting up probs
I0925 22:30:04.216285 32552 net.cpp:148] Top shape: 1 1 46168 (46168)
I0925 22:30:04.216290 32552 net.cpp:156] Memory required for data: 405756
I0925 22:30:04.216296 32552 net.cpp:219] probs does not need backward computation.
I0925 22:30:04.216302 32552 net.cpp:219] predict does not need backward computation.
I0925 22:30:04.216307 32552 net.cpp:219] lstm2 does not need backward computation.
I0925 22:30:04.216313 32552 net.cpp:219] concat does not need backward computation.
I0925 22:30:04.216318 32552 net.cpp:219] lstm1 does not need backward computation.
I0925 22:30:04.216313 32532 net.cpp:141] Setting up probs
I0925 22:30:04.216325 32552 net.cpp:219] embedding does not need backward computation.
I0925 22:30:04.216341 32552 net.cpp:219] reshape_stage_indicator does not need backward computation.
I0925 22:30:04.216343 32532 net.cpp:148] Top shape: 1 1 46168 (46168)
I0925 22:30:04.216346 32552 net.cpp:219] reshape_frames does not need backward computation.
I0925 22:30:04.216357 32532 net.cpp:156] Memory required for data: 405756
I0925 22:30:04.216363 32552 net.cpp:219] embed_encoder does not need backward computation.
I0925 22:30:04.216369 32552 net.cpp:219] cont_sentence_input_1_split does not need backward computation.
I0925 22:30:04.216368 32532 net.cpp:219] probs does not need backward computation.
…
I0925 22:30:04.216454 32532 net.cpp:219] reshape_frames does not need backward computation.
I0925 22:30:04.216462 32532 net.cpp:219] embed_encoder does not need backward computation.
I0925 22:30:04.216472 32532 net.cpp:219] cont_sentence_input_1_split does not need backward computation.
I0925 22:30:04.216481 32532 net.cpp:219] input does not need backward computation.
I0925 22:30:04.216490 32532 net.cpp:261] This network produces output probs
I0925 22:30:04.216513 32532 net.cpp:274] Network initialization done.
I0925 22:30:04.217633 32526 net.cpp:141] Setting up conv1
I0925 22:30:04.217661 32526 net.cpp:148] Top shape: 10 96 55 55 (2904000)
I0925 22:30:04.217670 32526 net.cpp:156] Memory required for data: 17799480
I0925 22:30:04.217697 32526 layer_factory.hpp:77] Creating layer relu1
I0925 22:30:04.217721 32526 net.cpp:91] Creating Layer relu1
I0925 22:30:04.217731 32526 net.cpp:425] relu1 <- conv1
I0925 22:30:04.217744 32526 net.cpp:386] relu1 -> conv1 (in-place)
I0925 22:30:04.218364 32526 net.cpp:141] Setting up relu1
I0925 22:30:04.218382 32526 net.cpp:148] Top shape: 10 96 55 55 (2904000)
I0925 22:30:04.218392 32526 net.cpp:156] Memory required for data: 29415480
I0925 22:30:04.218401 32526 layer_factory.hpp:77] Creating layer pool1
I0925 22:30:04.218423 32526 net.cpp:91] Creating Layer pool1
I0925 22:30:04.218433 32526 net.cpp:425] pool1 <- conv1
I0925 22:30:04.218448 32526 net.cpp:399] pool1 -> pool1
I0925 22:30:04.218572 32526 net.cpp:141] Setting up pool1
I0925 22:30:04.218613 32526 net.cpp:148] Top shape: 10 96 27 27 (699840)
I0925 22:30:04.218624 32526 net.cpp:156] Memory required for data: 32214840
I0925 22:30:04.218633 32526 layer_factory.hpp:77] Creating layer norm1
I0925 22:30:04.218660 32526 net.cpp:91] Creating Layer norm1
I0925 22:30:04.218670 32526 net.cpp:425] norm1 <- pool1
I0925 22:30:04.218685 32526 net.cpp:399] norm1 -> norm1
I0925 22:30:04.219132 32526 net.cpp:141] Setting up norm1
I0925 22:30:04.219151 32526 net.cpp:148] Top shape: 10 96 27 27 (699840)
I0925 22:30:04.219161 32526 net.cpp:156] Memory required for data: 35014200
I0925 22:30:04.219169 32526 layer_factory.hpp:77] Creating layer conv2
I0925 22:30:04.219193 32526 net.cpp:91] Creating Layer conv2
I0925 22:30:04.219202 32526 net.cpp:425] conv2 <- norm1
I0925 22:30:04.219216 32526 net.cpp:399] conv2 -> conv2
I0925 22:30:04.223152 32524 net.cpp:141] Setting up predict
I0925 22:30:04.223199 32524 net.cpp:148] Top shape: 1 1 46168 (46168)
I0925 22:30:04.223206 32524 net.cpp:156] Memory required for data: 221084
I0925 22:30:04.223222 32524 layer_factory.hpp:77] Creating layer probs
I0925 22:30:04.223240 32524 net.cpp:91] Creating Layer probs
I0925 22:30:04.223248 32524 net.cpp:425] probs <- predict
I0925 22:30:04.223258 32524 net.cpp:399] probs -> probs
I0925 22:30:04.224431 32524 net.cpp:141] Setting up probs
I0925 22:30:04.224467 32524 net.cpp:148] Top shape: 1 1 46168 (46168)
I0925 22:30:04.224472 32524 net.cpp:156] Memory required for data: 405756
I0925 22:30:04.224480 32524 net.cpp:219] probs does not need backward computation.
I0925 22:30:04.224488 32524 net.cpp:219] predict does not need backward computation.
I0925 22:30:04.224493 32524 net.cpp:219] lstm2 does not need backward computation.
I0925 22:30:04.224498 32524 net.cpp:219] concat does not need backward computation.
I0925 22:30:04.224508 32524 net.cpp:219] lstm1 does not need backward computation.
I0925 22:30:04.224514 32524 net.cpp:219] embedding does not need backward computation.
I0925 22:30:04.224520 32524 net.cpp:219] reshape_stage_indicator does not need backward computation.
I0925 22:30:04.224525 32524 net.cpp:219] reshape_frames does not need backward computation.
I0925 22:30:04.224530 32524 net.cpp:219] embed_encoder does not need backward computation.
I0925 22:30:04.224535 32524 net.cpp:219] cont_sentence_input_1_split does not need backward computation.
I0925 22:30:04.224541 32524 net.cpp:219] input does not need backward computation.
I0925 22:30:04.224545 32524 net.cpp:261] This network produces output probs
I0925 22:30:04.224563 32524 net.cpp:274] Network initialization done.
I0925 22:30:04.225925 32526 net.cpp:141] Setting up conv2
I0925 22:30:04.225975 32526 net.cpp:148] Top shape: 10 256 27 27 (1866240)
I0925 22:30:04.225987 32526 net.cpp:156] Memory required for data: 42479160
I0925 22:30:04.226022 32526 layer_factory.hpp:77] Creating layer relu2
I0925 22:30:04.226049 32526 net.cpp:91] Creating Layer relu2
I0925 22:30:04.226063 32526 net.cpp:425] relu2 <- conv2
I0925 22:30:04.226079 32526 net.cpp:386] relu2 -> conv2 (in-place)
I0925 22:30:04.226850 32526 net.cpp:141] Setting up relu2
I0925 22:30:04.226873 32526 net.cpp:148] Top shape: 10 256 27 27 (1866240)
I0925 22:30:04.226884 32526 net.cpp:156] Memory required for data: 49944120
I0925 22:30:04.226897 32526 layer_factory.hpp:77] Creating layer pool2
I0925 22:30:04.226917 32526 net.cpp:91] Creating Layer pool2
I0925 22:30:04.226927 32526 net.cpp:425] pool2 <- conv2
I0925 22:30:04.226944 32526 net.cpp:399] pool2 -> pool2
I0925 22:30:04.227098 32526 net.cpp:141] Setting up pool2
I0925 22:30:04.227118 32526 net.cpp:148] Top shape: 10 256 13 13 (432640)
I0925 22:30:04.227128 32526 net.cpp:156] Memory required for data: 51674680
I0925 22:30:04.227138 32526 layer_factory.hpp:77] Creating layer norm2
I0925 22:30:04.227164 32526 net.cpp:91] Creating Layer norm2
I0925 22:30:04.227175 32526 net.cpp:425] norm2 <- pool2
I0925 22:30:04.227191 32526 net.cpp:399] norm2 -> norm2
I0925 22:30:04.227685 32526 net.cpp:141] Setting up norm2
I0925 22:30:04.227705 32526 net.cpp:148] Top shape: 10 256 13 13 (432640)
I0925 22:30:04.227711 32526 net.cpp:156] Memory required for data: 53405240
I0925 22:30:04.227717 32526 layer_factory.hpp:77] Creating layer conv3
I0925 22:30:04.227733 32526 net.cpp:91] Creating Layer conv3
I0925 22:30:04.227740 32526 net.cpp:425] conv3 <- norm2
I0925 22:30:04.227748 32526 net.cpp:399] conv3 -> conv3
I0925 22:30:04.233628 32526 net.cpp:141] Setting up conv3
I0925 22:30:04.233671 32526 net.cpp:148] Top shape: 10 384 13 13 (648960)
I0925 22:30:04.233678 32526 net.cpp:156] Memory required for data: 56001080
I0925 22:30:04.233700 32526 layer_factory.hpp:77] Creating layer relu3
I0925 22:30:04.233717 32526 net.cpp:91] Creating Layer relu3
I0925 22:30:04.233726 32526 net.cpp:425] relu3 <- conv3
I0925 22:30:04.233736 32526 net.cpp:386] relu3 -> conv3 (in-place)
I0925 22:30:04.234124 32526 net.cpp:141] Setting up relu3
I0925 22:30:04.234138 32526 net.cpp:148] Top shape: 10 384 13 13 (648960)
I0925 22:30:04.234143 32526 net.cpp:156] Memory required for data: 58596920
I0925 22:30:04.234149 32526 layer_factory.hpp:77] Creating layer conv4
I0925 22:30:04.234165 32526 net.cpp:91] Creating Layer conv4
I0925 22:30:04.234171 32526 net.cpp:425] conv4 <- conv3
I0925 22:30:04.234180 32526 net.cpp:399] conv4 -> conv4
I0925 22:30:04.262503 32526 net.cpp:141] Setting up conv4
I0925 22:30:04.262560 32526 net.cpp:148] Top shape: 10 384 13 13 (648960)
I0925 22:30:04.262568 32526 net.cpp:156] Memory required for data: 61192760
I0925 22:30:04.262584 32526 layer_factory.hpp:77] Creating layer relu4
I0925 22:30:04.262617 32526 net.cpp:91] Creating Layer relu4
I0925 22:30:04.262629 32526 net.cpp:425] relu4 <- conv4
I0925 22:30:04.262643 32526 net.cpp:386] relu4 -> conv4 (in-place)
I0925 22:30:04.263887 32526 net.cpp:141] Setting up relu4
I0925 22:30:04.263906 32526 net.cpp:148] Top shape: 10 384 13 13 (648960)
I0925 22:30:04.263912 32526 net.cpp:156] Memory required for data: 63788600
I0925 22:30:04.263918 32526 layer_factory.hpp:77] Creating layer conv5
I0925 22:30:04.263936 32526 net.cpp:91] Creating Layer conv5
I0925 22:30:04.263942 32526 net.cpp:425] conv5 <- conv4
I0925 22:30:04.264355 32526 net.cpp:399] conv5 -> conv5
I0925 22:30:04.271996 32526 net.cpp:141] Setting up conv5
I0925 22:30:04.272056 32526 net.cpp:148] Top shape: 10 256 13 13 (432640)
I0925 22:30:04.272063 32526 net.cpp:156] Memory required for data: 65519160
I0925 22:30:04.272091 32526 layer_factory.hpp:77] Creating layer relu5
I0925 22:30:04.272110 32526 net.cpp:91] Creating Layer relu5
I0925 22:30:04.272117 32526 net.cpp:425] relu5 <- conv5
I0925 22:30:04.272126 32526 net.cpp:386] relu5 -> conv5 (in-place)
I0925 22:30:04.272855 32526 net.cpp:141] Setting up relu5
I0925 22:30:04.272871 32526 net.cpp:148] Top shape: 10 256 13 13 (432640)
I0925 22:30:04.272876 32526 net.cpp:156] Memory required for data: 67249720
I0925 22:30:04.272881 32526 layer_factory.hpp:77] Creating layer pool5
I0925 22:30:04.272893 32526 net.cpp:91] Creating Layer pool5
I0925 22:30:04.272898 32526 net.cpp:425] pool5 <- conv5
I0925 22:30:04.272907 32526 net.cpp:399] pool5 -> pool5
I0925 22:30:04.273030 32526 net.cpp:141] Setting up pool5
I0925 22:30:04.273041 32526 net.cpp:148] Top shape: 10 256 6 6 (92160)
I0925 22:30:04.273046 32526 net.cpp:156] Memory required for data: 67618360
I0925 22:30:04.273051 32526 layer_factory.hpp:77] Creating layer fc6
I0925 22:30:04.273598 32526 net.cpp:91] Creating Layer fc6
I0925 22:30:04.273614 32526 net.cpp:425] fc6 <- pool5
I0925 22:30:04.273625 32526 net.cpp:399] fc6 -> fc6
I0925 22:30:04.341353 32518 net.cpp:141] Setting up predict
I0925 22:30:04.341405 32518 net.cpp:148] Top shape: 1 1 46168 (46168)
I0925 22:30:04.341413 32518 net.cpp:156] Memory required for data: 221084
I0925 22:30:04.341428 32518 layer_factory.hpp:77] Creating layer probs
I0925 22:30:04.341449 32518 net.cpp:91] Creating Layer probs
I0925 22:30:04.341456 32518 net.cpp:425] probs <- predict
I0925 22:30:04.341467 32518 net.cpp:399] probs -> probs
I0925 22:30:04.342938 32518 net.cpp:141] Setting up probs
I0925 22:30:04.342978 32518 net.cpp:148] Top shape: 1 1 46168 (46168)
I0925 22:30:04.342983 32518 net.cpp:156] Memory required for data: 405756
I0925 22:30:04.342993 32518 net.cpp:219] probs does not need backward computation.
I0925 22:30:04.343000 32518 net.cpp:219] predict does not need backward computation.
I0925 22:30:04.343005 32518 net.cpp:219] lstm2 does not need backward computation.
I0925 22:30:04.343013 32518 net.cpp:219] concat does not need backward computation.
I0925 22:30:04.343019 32518 net.cpp:219] lstm1 does not need backward computation.
I0925 22:30:04.343025 32518 net.cpp:219] embedding does not need backward computation.
I0925 22:30:04.343029 32518 net.cpp:219] reshape_stage_indicator does not need backward computation.
I0925 22:30:04.343035 32518 net.cpp:219] reshape_frames does not need backward computation.
I0925 22:30:04.343039 32518 net.cpp:219] embed_encoder does not need backward computation.
I0925 22:30:04.343044 32518 net.cpp:219] cont_sentence_input_1_split does not need backward computation.
I0925 22:30:04.343050 32518 net.cpp:219] input does not need backward computation.
I0925 22:30:04.343055 32518 net.cpp:261] This network produces output probs
I0925 22:30:04.343071 32518 net.cpp:274] Network initialization done.
I0925 22:30:04.380489 32526 net.cpp:141] Setting up fc6
I0925 22:30:04.380537 32526 net.cpp:148] Top shape: 10 4096 (40960)
I0925 22:30:04.380548 32526 net.cpp:156] Memory required for data: 67782200
I0925 22:30:04.380563 32526 layer_factory.hpp:77] Creating layer relu6
I0925 22:30:04.380580 32526 net.cpp:91] Creating Layer relu6
I0925 22:30:04.380587 32526 net.cpp:425] relu6 <- fc6
I0925 22:30:04.380595 32526 net.cpp:386] relu6 -> fc6 (in-place)
I0925 22:30:04.381453 32526 net.cpp:141] Setting up relu6
I0925 22:30:04.381466 32526 net.cpp:148] Top shape: 10 4096 (40960)
I0925 22:30:04.381471 32526 net.cpp:156] Memory required for data: 67946040
I0925 22:30:04.381477 32526 layer_factory.hpp:77] Creating layer drop6
I0925 22:30:04.381489 32526 net.cpp:91] Creating Layer drop6
I0925 22:30:04.381494 32526 net.cpp:425] drop6 <- fc6
I0925 22:30:04.381505 32526 net.cpp:386] drop6 -> fc6 (in-place)
I0925 22:30:04.381562 32526 net.cpp:141] Setting up drop6
I0925 22:30:04.381573 32526 net.cpp:148] Top shape: 10 4096 (40960)
I0925 22:30:04.381582 32526 net.cpp:156] Memory required for data: 68109880
I0925 22:30:04.381587 32526 layer_factory.hpp:77] Creating layer fc7
I0925 22:30:04.381598 32526 net.cpp:91] Creating Layer fc7
I0925 22:30:04.381603 32526 net.cpp:425] fc7 <- fc6
I0925 22:30:04.381610 32526 net.cpp:399] fc7 -> fc7
I0925 22:30:04.410996 32558 net.cpp:141] Setting up predict
I0925 22:30:04.411046 32558 net.cpp:148] Top shape: 1 1 46168 (46168)
I0925 22:30:04.411053 32558 net.cpp:156] Memory required for data: 221084
I0925 22:30:04.411068 32558 layer_factory.hpp:77] Creating layer probs
I0925 22:30:04.411087 32558 net.cpp:91] Creating Layer probs
I0925 22:30:04.411095 32558 net.cpp:425] probs <- predict
I0925 22:30:04.411106 32558 net.cpp:399] probs -> probs
I0925 22:30:04.411612 32558 net.cpp:141] Setting up probs
I0925 22:30:04.411625 32558 net.cpp:148] Top shape: 1 1 46168 (46168)
I0925 22:30:04.411630 32558 net.cpp:156] Memory required for data: 405756
I0925 22:30:04.411635 32558 net.cpp:219] probs does not need backward computation.
I0925 22:30:04.411641 32558 net.cpp:219] predict does not need backward computation.
I0925 22:30:04.411646 32558 net.cpp:219] lstm2 does not need backward computation.
I0925 22:30:04.411653 32558 net.cpp:219] concat does not need backward computation.
I0925 22:30:04.411659 32558 net.cpp:219] lstm1 does not need backward computation.
I0925 22:30:04.411665 32558 net.cpp:219] embedding does not need backward computation.
I0925 22:30:04.411670 32558 net.cpp:219] reshape_stage_indicator does not need backward computation.
I0925 22:30:04.411676 32558 net.cpp:219] reshape_frames does not need backward computation.
I0925 22:30:04.411681 32558 net.cpp:219] embed_encoder does not need backward computation.
I0925 22:30:04.411686 32558 net.cpp:219] cont_sentence_input_1_split does not need backward computation.
I0925 22:30:04.411692 32558 net.cpp:219] input does not need backward computation.
I0925 22:30:04.411696 32558 net.cpp:261] This network produces output probs
I0925 22:30:04.411715 32558 net.cpp:274] Network initialization done.
I0925 22:30:04.429586 32526 net.cpp:141] Setting up fc7
I0925 22:30:04.429644 32526 net.cpp:148] Top shape: 10 4096 (40960)
I0925 22:30:04.429651 32526 net.cpp:156] Memory required for data: 68273720
I0925 22:30:04.429666 32526 layer_factory.hpp:77] Creating layer relu7
I0925 22:30:04.430141 32526 net.cpp:91] Creating Layer relu7
I0925 22:30:04.430160 32526 net.cpp:425] relu7 <- fc7
I0925 22:30:04.430171 32526 net.cpp:386] relu7 -> fc7 (in-place)
I0925 22:30:04.431550 32526 net.cpp:141] Setting up relu7
I0925 22:30:04.431565 32526 net.cpp:148] Top shape: 10 4096 (40960)
I0925 22:30:04.431571 32526 net.cpp:156] Memory required for data: 68437560
I0925 22:30:04.431576 32526 layer_factory.hpp:77] Creating layer drop7
I0925 22:30:04.432054 32526 net.cpp:91] Creating Layer drop7
I0925 22:30:04.432063 32526 net.cpp:425] drop7 <- fc7
I0925 22:30:04.432072 32526 net.cpp:386] drop7 -> fc7 (in-place)
I0925 22:30:04.432150 32526 net.cpp:141] Setting up drop7
I0925 22:30:04.432162 32526 net.cpp:148] Top shape: 10 4096 (40960)
I0925 22:30:04.432165 32526 net.cpp:156] Memory required for data: 68601400
I0925 22:30:04.432173 32526 layer_factory.hpp:77] Creating layer fc8
I0925 22:30:04.432184 32526 net.cpp:91] Creating Layer fc8
I0925 22:30:04.432189 32526 net.cpp:425] fc8 <- fc7
I0925 22:30:04.432543 32526 net.cpp:399] fc8 -> fc8
I0925 22:30:04.445487 32526 net.cpp:141] Setting up fc8
I0925 22:30:04.445534 32526 net.cpp:148] Top shape: 10 1000 (10000)
I0925 22:30:04.445539 32526 net.cpp:156] Memory required for data: 68641400
I0925 22:30:04.445554 32526 layer_factory.hpp:77] Creating layer prob
I0925 22:30:04.445574 32526 net.cpp:91] Creating Layer prob
I0925 22:30:04.445581 32526 net.cpp:425] prob <- fc8
I0925 22:30:04.445590 32526 net.cpp:399] prob -> prob
I0925 22:30:04.447883 32526 net.cpp:141] Setting up prob
I0925 22:30:04.447912 32526 net.cpp:148] Top shape: 10 1000 (10000)
I0925 22:30:04.447917 32526 net.cpp:156] Memory required for data: 68681400
I0925 22:30:04.447924 32526 net.cpp:219] prob does not need backward computation.
I0925 22:30:04.447931 32526 net.cpp:219] fc8 does not need backward computation.
I0925 22:30:04.447935 32526 net.cpp:219] drop7 does not need backward computation.
I0925 22:30:04.447940 32526 net.cpp:219] relu7 does not need backward computation.
…
