…
Java HotSpot(TM) 64-Bit Server VM warning: You have loaded library /home/peifeng/work/run/storm102/data/workers/0ad2aebb-acb6-479b-80a5-e249e168dd55/tmp/cvld9167769028114260232/libopencv_java310.xine1.so which might have disabled stack guard. The VM will try to fix the stack guard now.
It's highly recommended that you fix the library with 'execstack -c <libfile>', or link it with '-z noexecstack'.
WARNING: Logging before InitGoogleLogging() is written to STDERR
I0924 00:37:21.873008 24118 net.cpp:49] Initializing net from parameters: 
name: "GoogleNet"
state {
  phase: TEST
}
layer {
  name: "data"
  type: "Input"
  top: "data"
  input_param {
    shape {
      dim: 10
      dim: 3
      dim: 224
      dim: 224
    }
  }
}
layer {
  name: "conv1/7x7_s2"
  type: "Convolution"
  bottom: "data"
  top: "conv1/7x7_s2"
  param {
    lr_mult: 1
    decay_mult: 1
  }
  param {
    lr_mult: 2
    decay_mult: 0
  }
  convolution_param {
    num_output: 64
    pad: 3
    kernel_size: 7
    stride: 2
    weight_filler {
      type: "xavier"
      std: 0.1
    }
    bias_filler {
      type: "constant"
      value: 0.2
    }
  }
}
layer {
  name: "conv1/relu_7x7"
  type: "ReLU"
  bottom: "conv1/7x7_s2"
  top: "conv1/7x7_s2"
}
layer {
  name: "pool1/3x3_s2"
  type: "Pooling"
  bottom: "conv1/7x7_s2"
  top: "pool1/3x3_s2"
  pooling_param {
    pool: MAX
    kernel_size: 3
    stride: 2
  }
}
layer {
  name: "pool1/norm1"
  type: "LRN"
  bottom: "pool1/3x3_s2"
  top: "pool1/norm1"
  lrn_param {
    local_size: 5
    alpha: 0.0001
    beta: 0.75
  }
}
layer {
  name: "conv2/3x3_reduce"
  type: "Convolution"
  bottom: "pool1/norm1"
  top: "conv2/3x3_reduce"
  param {
    lr_mult: 1
    decay_mult: 1
  }
  param {
    lr_mult: 2
    decay_mult: 0
  }
  convolution_param {
    num_output: 64
    kernel_size: 1
    weight_filler {
      type: "xavier"
      std: 0.1
    }
    bias_filler {
      type: "constant"
      value: 0.2
    }
  }
}
layer {
  name: "conv2/relu_3x3_reduce"
  type: "ReLU"
  bottom: "conv2/3x3_reduce"
  top: "conv2/3x3_reduce"
}
layer {
  name: "conv2/3x3"
  type: "Convolution"
  bottom: "conv2/3x3_reduce"
  top: "conv2/3x3"
  param {
    lr_mult: 1
    decay_mult: 1
  }
  param {
    lr_mult: 2
    decay_mult: 0
  }
  convolution_param {
    num_output: 192
    pad: 1
    kernel_size: 3
    weight_filler {
      type: "xavier"
      std: 0.03
    }
    bias_filler {
      type: "constant"
      value: 0.2
    }
  }
}
layer {
  name: "conv2/relu_3x3"
  type: "ReLU"
  bottom: "conv2/3x3"
  top: "conv2/3x3"
}
layer {
  name: "conv2/norm2"
  type: "LRN"
  bottom: "conv2/3x3"
  top: "conv2/norm2"
  lrn_param {
    local_size: 5
    alpha: 0.0001
    beta: 0.75
  }
}
layer {
  name: "pool2/3x3_s2"
  type: "Pooling"
  bottom: "conv2/norm2"
  top: "pool2/3x3_s2"
  pooling_param {
    pool: MAX
    kernel_size: 3
    stride: 2
  }
}
layer {
  name: "inception_3a/1x1"
  type: "Convolution"
  bottom: "pool2/3x3_s2"
  top: "inception_3a/1x1"
  param {
    lr_mult: 1
    decay_mult: 1
  }
  param {
    lr_mult: 2
    decay_mult: 0
  }
  convolution_param {
    num_output: 64
    kernel_size: 1
    weight_filler {
      type: "xavier"
      std: 0.03
    }
    bias_filler {
      type: "constant"
      value: 0.2
    }
  }
}
layer {
  name: "inception_3a/relu_1x1"
  type: "ReLU"
  bottom: "inception_3a/1x1"
  top: "inception_3a/1x1"
}
layer {
  name: "inception_3a/3x3_reduce"
  type: "Convolution"
  bottom: "pool2/3x3_s2"
  top: "inception_3a/3x3_reduce"
  param {
    lr_mult: 1
    decay_mult: 1
  }
  param {
    lr_mult: 2
    decay_mult: 0
  }
  convolution_param {
    num_output: 96
    kernel_size: 1
    weight_filler {
      type: "xavier"
      std: 0.09
    }
    bias_filler {
      type: "constant"
      value: 0.2
    }
  }
}
layer {
  name: "inception_3a/relu_3x3_reduce"
  type: "ReLU"
  bottom: "inception_3a/3x3_reduce"
  top: "inception_3a/3x3_reduce"
}
layer {
  name: "inception_3a/3x3"
  type: "Convolution"
  bottom: "inception_3a/3x3_reduce"
  top: "inception_3a/3x3"
  param {
    lr_mult: 1
    decay_mult: 1
  }
  param {
    lr_mult: 2
    decay_mult: 0
  }
  convolution_param {
    num_output: 128
    pad: 1
    kernel_size: 3
    weight_filler {
      type: "xavier"
      std: 0.03
    }
    bias_filler {
      type: "constant"
      value: 0.2
    }
  }
}
layer {
  name: "inception_3a/relu_3x3"
  type: "ReLU"
  bottom: "inception_3a/3x3"
  top: "inception_3a/3x3"
}
layer {
  name: "inception_3a/5x5_reduce"
  type: "Convolution"
  bottom: "pool2/3x3_s2"
  top: "inception_3a/5x5_reduce"
  param {
    lr_mult: 1
    decay_mult: 1
  }
  param {
    lr_mult: 2
    decay_mult: 0
  }
  convolution_param {
    num_output: 16
    kernel_size: 1
    weight_filler {
      type: "xavier"
      std: 0.2
    }
    bias_filler {
      type: "constant"
      value: 0.2
    }
  }
}
layer {
  name: "inception_3a/relu_5x5_reduce"
  type: "ReLU"
  bottom: "inception_3a/5x5_reduce"
  top: "inception_3a/5x5_reduce"
}
layer {
  name: "inception_3a/5x5"
  type: "Convolution"
  bottom: "inception_3a/5x5_reduce"
  top: "inception_3a/5x5"
  param {
    lr_mult: 1
    decay_mult: 1
  }
  param {
    lr_mult: 2
    decay_mult: 0
  }
  convolution_param {
    num_output: 32
    pad: 2
    kernel_size: 5
    weight_filler {
      type: "xavier"
      std: 0.03
    }
    bias_filler {
      type: "constant"
      value: 0.2
    }
  }
}
layer {
  name: "inception_3a/relu_5x5"
  type: "ReLU"
  bottom: "inception_3a/5x5"
  top: "inception_3a/5x5"
}
layer {
  name: "inception_3a/pool"
  type: "Pooling"
  bottom: "pool2/3x3_s2"
  top: "inception_3a/pool"
  pooling_param {
    pool: MAX
    kernel_size: 3
    stride: 1
    pad: 1
  }
}
layer {
  name: "inception_3a/pool_proj"
  type: "Convolution"
  bottom: "inception_3a/pool"
  top: "inception_3a/pool_proj"
  param {
    lr_mult: 1
    decay_mult: 1
  }
  param {
    lr_mult: 2
    decay_mult: 0
  }
  convolution_param {
    num_output: 32
    kernel_size: 1
    weight_filler {
      type: "xavier"
      std: 0.1
    }
    bias_filler {
      type: "constant"
      value: 0.2
    }
  }
}
layer {
  name: "inception_3a/relu_pool_proj"
  type: "ReLU"
  bottom: "inception_3a/pool_proj"
  top: "inception_3a/pool_proj"
}
layer {
  name: "inception_3a/output"
  type: "Concat"
  bottom: "inception_3a/1x1"
  bottom: "inception_3a/3x3"
  bottom: "inception_3a/5x5"
  bottom: "inception_3a/pool_proj"
  top: "inception_3a/output"
}
layer {
  name: "inception_3b/1x1"
  type: "Convolution"
  bottom: "inception_3a/output"
  top: "inception_3b/1x1"
  param {
    lr_mult: 1
    decay_mult: 1
  }
  param {
    lr_mult: 2
    decay_mult: 0
  }
  convolution_param {
    num_output: 128
    kernel_size: 1
    weight_filler {
      type: "xavier"
      std: 0.03
    }
    bias_filler {
      type: "constant"
      value: 0.2
    }
  }
}
layer {
  name: "inception_3b/relu_1x1"
  type: "ReLU"
  bottom: "inception_3b/1x1"
  top: "inception_3b/1x1"
}
layer {
  name: "inception_3b/3x3_reduce"
  type: "Convolution"
  bottom: "inception_3a/output"
  top: "inception_3b/3x3_reduce"
  param {
    lr_mult: 1
    decay_mult: 1
  }
  param {
    lr_mult: 2
    decay_mult: 0
  }
  convolution_param {
    num_output: 128
    kernel_size: 1
    weight_filler {
      type: "xavier"
      std: 0.09
    }
    bias_filler {
      type: "constant"
      value: 0.2
    }
  }
}
layer {
  name: "inception_3b/relu_3x3_reduce"
  type: "ReLU"
  bottom: "inception_3b/3x3_reduce"
  top: "inception_3b/3x3_reduce"
}
layer {
  name: "inception_3b/3x3"
  type: "Convolution"
  bottom: "inception_3b/3x3_reduce"
  top: "inception_3b/3x3"
  param {
    lr_mult: 1
    decay_mult: 1
  }
  param {
    lr_mult: 2
    decay_mult: 0
  }
  convolution_param {
    num_output: 192
    pad: 1
    kernel_size: 3
    weight_filler {
      type: "xavier"
      std: 0.03
    }
    bias_filler {
      type: "constant"
      value: 0.2
    }
  }
}
layer {
  name: "inception_3b/relu_3x3"
  type: "ReLU"
  bottom: "inception_3b/3x3"
  top: "inception_3b/3x3"
}
layer {
  name: "inception_3b/5x5_reduce"
  type: "Convolution"
  bottom: "inception_3a/output"
  top: "inception_3b/5x5_reduce"
  param {
    lr_mult: 1
    decay_mult: 1
  }
  param {
    lr_mult: 2
    decay_mult: 0
  }
  convolution_param {
    num_output: 32
    kernel_size: 1
    weight_filler {
      type: "xavier"
      std: 0.2
    }
    bias_filler {
      type: "constant"
      value: 0.2
    }
  }
}
layer {
  name: "inception_3b/relu_5x5_reduce"
  type: "ReLU"
  bottom: "inception_3b/5x5_reduce"
  top: "inception_3b/5x5_reduce"
}
layer {
  name: "inception_3b/5x5"
  type: "Convolution"
  bottom: "inception_3b/5x5_reduce"
  top: "inception_3b/5x5"
  param {
    lr_mult: 1
    decay_mult: 1
  }
  param {
    lr_mult: 2
    decay_mult: 0
  }
  convolution_param {
    num_output: 96
    pad: 2
    kernel_size: 5
    weight_filler {
      type: "xavier"
      std: 0.03
    }
    bias_filler {
      type: "constant"
      value: 0.2
    }
  }
}
layer {
  name: "inception_3b/relu_5x5"
  type: "ReLU"
  bottom: "inception_3b/5x5"
  top: "inception_3b/5x5"
}
layer {
  name: "inception_3b/pool"
  type: "Pooling"
  bottom: "inception_3a/output"
  top: "inception_3b/pool"
  pooling_param {
    pool: MAX
    kernel_size: 3
    stride: 1
    pad: 1
  }
}
layer {
  name: "inception_3b/pool_proj"
  type: "Convolution"
  bottom: "inception_3b/pool"
  top: "inception_3b/pool_proj"
  param {
    lr_mult: 1
    decay_mult: 1
  }
  param {
    lr_mult: 2
    decay_mult: 0
  }
  convolution_param {
    num_output: 64
    kernel_size: 1
    weight_filler {
      type: "xavier"
      std: 0.1
    }
    bias_filler {
      type: "constant"
      value: 0.2
    }
  }
}
layer {
  name: "inception_3b/relu_pool_proj"
  type: "ReLU"
  bottom: "inception_3b/pool_proj"
  top: "inception_3b/pool_proj"
}
layer {
  name: "inception_3b/output"
  type: "Concat"
  bottom: "inception_3b/1x1"
  bottom: "inception_3b/3x3"
  bottom: "inception_3b/5x5"
  bottom: "inception_3b/pool_proj"
  top: "inception_3b/output"
}
layer {
  name: "pool3/3x3_s2"
  type: "Pooling"
  bottom: "inception_3b/output"
  top: "pool3/3x3_s2"
  pooling_param {
    pool: MAX
    kernel_size: 3
    stride: 2
  }
}
layer {
  name: "inception_4a/1x1"
  type: "Convolution"
  bottom: "pool3/3x3_s2"
  top: "inception_4a/1x1"
  param {
    lr_mult: 1
    decay_mult: 1
  }
  param {
    lr_mult: 2
    decay_mult: 0
  }
  convolution_param {
    num_output: 192
    kernel_size: 1
    weight_filler {
      type: "xavier"
      std: 0.03
    }
    bias_filler {
      type: "constant"
      value: 0.2
    }
  }
}
layer {
  name: "inception_4a/relu_1x1"
  type: "ReLU"
  bottom: "inception_4a/1x1"
  top: "inception_4a/1x1"
}
layer {
  name: "inception_4a/3x3_reduce"
  type: "Convolution"
  bottom: "pool3/3x3_s2"
  top: "inception_4a/3x3_reduce"
  param {
    lr_mult: 1
    decay_mult: 1
  }
  param {
    lr_mult: 2
    decay_mult: 0
  }
  convolution_param {
    num_output: 96
    kernel_size: 1
    weight_filler {
      type: "xavier"
      std: 0.09
    }
    bias_filler {
      type: "constant"
      value: 0.2
    }
  }
}
layer {
  name: "inception_4a/relu_3x3_reduce"
  type: "ReLU"
  bottom: "inception_4a/3x3_reduce"
  top: "inception_4a/3x3_reduce"
}
layer {
  name: "inception_4a/3x3"
  type: "Convolution"
  bottom: "inception_4a/3x3_reduce"
  top: "inception_4a/3x3"
  param {
    lr_mult: 1
    decay_mult: 1
  }
  param {
    lr_mult: 2
    decay_mult: 0
  }
  convolution_param {
    num_output: 208
    pad: 1
    kernel_size: 3
    weight_filler {
      type: "xavier"
      std: 0.03
    }
    bias_filler {
      type: "constant"
      value: 0.2
    }
  }
}
layer {
  name: "inception_4a/relu_3x3"
  type: "ReLU"
  bottom: "inception_4a/3x3"
  top: "inception_4a/3x3"
}
layer {
  name: "inception_4a/5x5_reduce"
  type: "Convolution"
  bottom: "pool3/3x3_s2"
  top: "inception_4a/5x5_reduce"
  param {
    lr_mult: 1
    decay_mult: 1
  }
  param {
    lr_mult: 2
    decay_mult: 0
  }
  convolution_param {
    num_output: 16
    kernel_size: 1
    weight_filler {
      type: "xavier"
      std: 0.2
    }
    bias_filler {
      type: "constant"
      value: 0.2
    }
  }
}
layer {
  name: "inception_4a/relu_5x5_reduce"
  type: "ReLU"
  bottom: "inception_4a/5x5_reduce"
  top: "inception_4a/5x5_reduce"
}
layer {
  name: "inception_4a/5x5"
  type: "Convolution"
  bottom: "inception_4a/5x5_reduce"
  top: "inception_4a/5x5"
  param {
    lr_mult: 1
    decay_mult: 1
  }
  param {
    lr_mult: 2
    decay_mult: 0
  }
  convolution_param {
    num_output: 48
    pad: 2
    kernel_size: 5
    weight_filler {
      type: "xavier"
      std: 0.03
    }
    bias_filler {
      type: "constant"
      value: 0.2
    }
  }
}
layer {
  name: "inception_4a/relu_5x5"
  type: "ReLU"
  bottom: "inception_4a/5x5"
  top: "inception_4a/5x5"
}
layer {
  name: "inception_4a/pool"
  type: "Pooling"
  bottom: "pool3/3x3_s2"
  top: "inception_4a/pool"
  pooling_param {
    pool: MAX
    kernel_size: 3
    stride: 1
    pad: 1
  }
}
layer {
  name: "inception_4a/pool_proj"
  type: "Convolution"
  bottom: "inception_4a/pool"
  top: "inception_4a/pool_proj"
  param {
    lr_mult: 1
    decay_mult: 1
  }
  param {
    lr_mult: 2
    decay_mult: 0
  }
  convolution_param {
    num_output: 64
    kernel_size: 1
    weight_filler {
      type: "xavier"
      std: 0.1
    }
    bias_filler {
      type: "constant"
      value: 0.2
    }
  }
}
layer {
  name: "inception_4a/relu_pool_proj"
  type: "ReLU"
  bottom: "inception_4a/pool_proj"
  top: "inception_4a/pool_proj"
}
layer {
  name: "inception_4a/output"
  type: "Concat"
  bottom: "inception_4a/1x1"
  bottom: "inception_4a/3x3"
  bottom: "inception_4a/5x5"
  bottom: "inception_4a/pool_proj"
  top: "inception_4a/output"
}
layer {
  name: "inception_4b/1x1"
  type: "Convolution"
  bottom: "inception_4a/output"
  top: "inception_4b/1x1"
  param {
    lr_mult: 1
    decay_mult: 1
  }
  param {
    lr_mult: 2
    decay_mult: 0
  }
  convolution_param {
    num_output: 160
    kernel_size: 1
    weight_filler {
      type: "xavier"
      std: 0.03
    }
    bias_filler {
      type: "constant"
      value: 0.2
    }
  }
}
layer {
  name: "inception_4b/relu_1x1"
  type: "ReLU"
  bottom: "inception_4b/1x1"
  top: "inception_4b/1x1"
}
layer {
  name: "inception_4b/3x3_reduce"
  type: "Convolution"
  bottom: "inception_4a/output"
  top: "inception_4b/3x3_reduce"
  param {
    lr_mult: 1
    decay_mult: 1
  }
  param {
    lr_mult: 2
    decay_mult: 0
  }
  convolution_param {
    num_output: 112
    kernel_size: 1
    weight_filler {
      type: "xavier"
      std: 0.09
    }
    bias_filler {
      type: "constant"
      value: 0.2
    }
  }
}
layer {
  name: "inception_4b/relu_3x3_reduce"
  type: "ReLU"
  bottom: "inception_4b/3x3_reduce"
  top: "inception_4b/3x3_reduce"
}
layer {
  name: "inception_4b/3x3"
  type: "Convolution"
  bottom: "inception_4b/3x3_reduce"
  top: "inception_4b/3x3"
  param {
    lr_mult: 1
    decay_mult: 1
  }
  param {
    lr_mult: 2
    decay_mult: 0
  }
  convolution_param {
    num_output: 224
    pad: 1
    kernel_size: 3
    weight_filler {
      type: "xavier"
      std: 0.03
    }
    bias_filler {
      type: "constant"
      value: 0.2
    }
  }
}
layer {
  name: "inception_4b/relu_3x3"
  type: "ReLU"
  bottom: "inception_4b/3x3"
  top: "inception_4b/3x3"
}
layer {
  name: "inception_4b/5x5_reduce"
  type: "Convolution"
  bottom: "inception_4a/output"
  top: "inception_4b/5x5_reduce"
  param {
    lr_mult: 1
    decay_mult: 1
  }
  param {
    lr_mult: 2
    decay_mult: 0
  }
  convolution_param {
    num_output: 24
    kernel_size: 1
    weight_filler {
      type: "xavier"
      std: 0.2
    }
    bias_filler {
      type: "constant"
      value: 0.2
    }
  }
}
layer {
  name: "inception_4b/relu_5x5_reduce"
  type: "ReLU"
  bottom: "inception_4b/5x5_reduce"
  top: "inception_4b/5x5_reduce"
}
layer {
  name: "inception_4b/5x5"
  type: "Convolution"
  bottom: "inception_4b/5x5_reduce"
  top: "inception_4b/5x5"
  param {
    lr_mult: 1
    decay_mult: 1
  }
  param {
    lr_mult: 2
    decay_mult: 0
  }
  convolution_param {
    num_output: 64
    pad: 2
    kernel_size: 5
    weight_filler {
      type: "xavier"
      std: 0.03
    }
    bias_filler {
      type: "constant"
      value: 0.2
    }
  }
}
layer {
  name: "inception_4b/relu_5x5"
  type: "ReLU"
  bottom: "inception_4b/5x5"
  top: "inception_4b/5x5"
}
layer {
  name: "inception_4b/pool"
  type: "Pooling"
  bottom: "inception_4a/output"
  top: "inception_4b/pool"
  pooling_param {
    pool: MAX
    kernel_size: 3
    stride: 1
    pad: 1
  }
}
layer {
  name: "inception_4b/pool_proj"
  type: "Convolution"
  bottom: "inception_4b/pool"
  top: "inception_4b/pool_proj"
  param {
    lr_mult: 1
    decay_mult: 1
  }
  param {
    lr_mult: 2
    decay_mult: 0
  }
  convolution_param {
    num_output: 64
    kernel_size: 1
    weight_filler {
      type: "xavier"
      std: 0.1
    }
    bias_filler {
      type: "constant"
      value: 0.2
    }
  }
}
layer {
  name: "inception_4b/relu_pool_proj"
  type: "ReLU"
  bottom: "inception_4b/pool_proj"
  top: "inception_4b/pool_proj"
}
layer {
  name: "inception_4b/output"
  type: "Concat"
  bottom: "inception_4b/1x1"
  bottom: "inception_4b/3x3"
  bottom: "inception_4b/5x5"
  bottom: "inception_4b/pool_proj"
  top: "inception_4b/output"
}
layer {
  name: "inception_4c/1x1"
  type: "Convolution"
  bottom: "inception_4b/output"
  top: "inception_4c/1x1"
  param {
    lr_mult: 1
    decay_mult: 1
  }
  param {
    lr_mult: 2
    decay_mult: 0
  }
  convolution_param {
    num_output: 128
    kernel_size: 1
    weight_filler {
      type: "xavier"
      std: 0.03
    }
    bias_filler {
      type: "constant"
      value: 0.2
    }
  }
}
layer {
  name: "inception_4c/relu_1x1"
  type: "ReLU"
  bottom: "inception_4c/1x1"
  top: "inception_4c/1x1"
}
layer {
  name: "inception_4c/3x3_reduce"
  type: "Convolution"
  bottom: "inception_4b/output"
  top: "inception_4c/3x3_reduce"
  param {
    lr_mult: 1
    decay_mult: 1
  }
  param {
    lr_mult: 2
    decay_mult: 0
  }
  convolution_param {
    num_output: 128
    kernel_size: 1
    weight_filler {
      type: "xavier"
      std: 0.09
    }
    bias_filler {
      type: "constant"
      value: 0.2
    }
  }
}
layer {
  name: "inception_4c/relu_3x3_reduce"
  type: "ReLU"
  bottom: "inception_4c/3x3_reduce"
  top: "inception_4c/3x3_reduce"
}
layer {
  name: "inception_4c/3x3"
  type: "Convolution"
  bottom: "inception_4c/3x3_reduce"
  top: "inception_4c/3x3"
  param {
    lr_mult: 1
    decay_mult: 1
  }
  param {
    lr_mult: 2
    decay_mult: 0
  }
  convolution_param {
    num_output: 256
    pad: 1
    kernel_size: 3
    weight_filler {
      type: "xavier"
      std: 0.03
    }
    bias_filler {
      type: "constant"
      value: 0.2
    }
  }
}
layer {
  name: "inception_4c/relu_3x3"
  type: "ReLU"
  bottom: "inception_4c/3x3"
  top: "inception_4c/3x3"
}
layer {
  name: "inception_4c/5x5_reduce"
  type: "Convolution"
  bottom: "inception_4b/output"
  top: "inception_4c/5x5_reduce"
  param {
    lr_mult: 1
    decay_mult: 1
  }
  param {
    lr_mult: 2
    decay_mult: 0
  }
  convolution_param {
    num_output: 24
    kernel_size: 1
    weight_filler {
      type: "xavier"
      std: 0.2
    }
    bias_filler {
      type: "constant"
      value: 0.2
    }
  }
}
layer {
  name: "inception_4c/relu_5x5_reduce"
  type: "ReLU"
  bottom: "inception_4c/5x5_reduce"
  top: "inception_4c/5x5_reduce"
}
layer {
  name: "inception_4c/5x5"
  type: "Convolution"
  bottom: "inception_4c/5x5_reduce"
  top: "inception_4c/5x5"
  param {
    lr_mult: 1
    decay_mult: 1
  }
  param {
    lr_mult: 2
    decay_mult: 0
  }
  convolution_param {
    num_output: 64
    pad: 2
    kernel_size: 5
    weight_filler {
      type: "xavier"
      std: 0.03
    }
    bias_filler {
      type: "constant"
      value: 0.2
    }
  }
}
layer {
  name: "inception_4c/relu_5x5"
  type: "ReLU"
  bottom: "inception_4c/5x5"
  top: "inception_4c/5x5"
}
layer {
  name: "inception_4c/pool"
  type: "Pooling"
  bottom: "inception_4b/output"
  top: "inception_4c/pool"
  pooling_param {
    pool: MAX
    kernel_size: 3
    stride: 1
    pad: 1
  }
}
layer {
  name: "inception_4c/pool_proj"
  type: "Convolution"
  bottom: "inception_4c/pool"
  top: "inception_4c/pool_proj"
  param {
    lr_mult: 1
    decay_mult: 1
  }
  param {
    lr_mult: 2
    decay_mult: 0
  }
  convolution_param {
    num_output: 64
    kernel_size: 1
    weight_filler {
      type: "xavier"
      std: 0.1
    }
    bias_filler {
      type: "constant"
      value: 0.2
    }
  }
}
layer {
  name: "inception_4c/relu_pool_proj"
  type: "ReLU"
  bottom: "inception_4c/pool_proj"
  top: "inception_4c/pool_proj"
}
layer {
  name: "inception_4c/output"
  type: "Concat"
  bottom: "inception_4c/1x1"
  bottom: "inception_4c/3x3"
  bottom: "inception_4c/5x5"
  bottom: "inception_4c/pool_proj"
  top: "inception_4c/output"
}
layer {
  name: "inception_4d/1x1"
  type: "Convolution"
  bottom: "inception_4c/output"
  top: "inception_4d/1x1"
  param {
    lr_mult: 1
    decay_mult: 1
  }
  param {
    lr_mult: 2
    decay_mult: 0
  }
  convolution_param {
    num_output: 112
    kernel_size: 1
    weight_filler {
      type: "xavier"
      std: 0.03
    }
    bias_filler {
      type: "constant"
      value: 0.2
    }
  }
}
layer {
  name: "inception_4d/relu_1x1"
  type: "ReLU"
  bottom: "inception_4d/1x1"
  top: "inception_4d/1x1"
}
layer {
  name: "inception_4d/3x3_reduce"
  type: "Convolution"
  bottom: "inception_4c/output"
  top: "inception_4d/3x3_reduce"
  param {
    lr_mult: 1
    decay_mult: 1
  }
  param {
    lr_mult: 2
    decay_mult: 0
  }
  convolution_param {
    num_output: 144
    kernel_size: 1
    weight_filler {
      type: "xavier"
      std: 0.09
    }
    bias_filler {
      type: "constant"
      value: 0.2
    }
  }
}
layer {
  name: "inception_4d/relu_3x3_reduce"
  type: "ReLU"
  bottom: "inception_4d/3x3_reduce"
  top: "inception_4d/3x3_reduce"
}
layer {
  name: "inception_4d/3x3"
  type: "Convolution"
  bottom: "inception_4d/3x3_reduce"
  top: "inception_4d/3x3"
  param {
    lr_mult: 1
    decay_mult: 1
  }
  param {
    lr_mult: 2
    decay_mult: 0
  }
  convolution_param {
    num_output: 288
    pad: 1
    kernel_size: 3
    weight_filler {
      type: "xavier"
      std: 0.03
    }
    bias_filler {
      type: "constant"
      value: 0.2
    }
  }
}
layer {
  name: "inception_4d/relu_3x3"
  type: "ReLU"
  bottom: "inception_4d/3x3"
  top: "inception_4d/3x3"
}
layer {
  name: "inception_4d/5x5_reduce"
  type: "Convolution"
  bottom: "inception_4c/output"
  top: "inception_4d/5x5_reduce"
  param {
    lr_mult: 1
    decay_mult: 1
  }
  param {
    lr_mult: 2
    decay_mult: 0
  }
  convolution_param {
    num_output: 32
    kernel_size: 1
    weight_filler {
      type: "xavier"
      std: 0.2
    }
    bias_filler {
      type: "constant"
      value: 0.2
    }
  }
}
layer {
  name: "inception_4d/relu_5x5_reduce"
  type: "ReLU"
  bottom: "inception_4d/5x5_reduce"
  top: "inception_4d/5x5_reduce"
}
layer {
  name: "inception_4d/5x5"
  type: "Convolution"
  bottom: "inception_4d/5x5_reduce"
  top: "inception_4d/5x5"
  param {
    lr_mult: 1
    decay_mult: 1
  }
  param {
    lr_mult: 2
    decay_mult: 0
  }
  convolution_param {
    num_output: 64
    pad: 2
    kernel_size: 5
    weight_filler {
      type: "xavier"
      std: 0.03
    }
    bias_filler {
      type: "constant"
      value: 0.2
    }
  }
}
layer {
  name: "inception_4d/relu_5x5"
  type: "ReLU"
  bottom: "inception_4d/5x5"
  top: "inception_4d/5x5"
}
layer {
  name: "inception_4d/pool"
  type: "Pooling"
  bottom: "inception_4c/output"
  top: "inception_4d/pool"
  pooling_param {
    pool: MAX
    kernel_size: 3
    stride: 1
    pad: 1
  }
}
layer {
  name: "inception_4d/pool_proj"
  type: "Convolution"
  bottom: "inception_4d/pool"
  top: "inception_4d/pool_proj"
  param {
    lr_mult: 1
    decay_mult: 1
  }
  param {
    lr_mult: 2
    decay_mult: 0
  }
  convolution_param {
    num_output: 64
    kernel_size: 1
    weight_filler {
      type: "xavier"
      std: 0.1
    }
    bias_filler {
      type: "constant"
      value: 0.2
    }
  }
}
layer {
  name: "inception_4d/relu_pool_proj"
  type: "ReLU"
  bottom: "inception_4d/pool_proj"
  top: "inception_4d/pool_proj"
}
layer {
  name: "inception_4d/output"
  type: "Concat"
  bottom: "inception_4d/1x1"
  bottom: "inception_4d/3x3"
  bottom: "inception_4d/5x5"
  bottom: "inception_4d/pool_proj"
  top: "inception_4d/output"
}
layer {
  name: "inception_4e/1x1"
  type: "Convolution"
  bottom: "inception_4d/output"
  top: "inception_4e/1x1"
  param {
    lr_mult: 1
    decay_mult: 1
  }
  param {
    lr_mult: 2
    decay_mult: 0
  }
  convolution_param {
    num_output: 256
    kernel_size: 1
    weight_filler {
      type: "xavier"
      std: 0.03
    }
    bias_filler {
      type: "constant"
      value: 0.2
    }
  }
}
layer {
  name: "inception_4e/relu_1x1"
  type: "ReLU"
  bottom: "inception_4e/1x1"
  top: "inception_4e/1x1"
}
layer {
  name: "inception_4e/3x3_reduce"
  type: "Convolution"
  bottom: "inception_4d/output"
  top: "inception_4e/3x3_reduce"
  param {
    lr_mult: 1
    decay_mult: 1
  }
  param {
    lr_mult: 2
    decay_mult: 0
  }
  convolution_param {
    num_output: 160
    kernel_size: 1
    weight_filler {
      type: "xavier"
      std: 0.09
    }
    bias_filler {
      type: "constant"
      value: 0.2
    }
  }
}
layer {
  name: "inception_4e/relu_3x3_reduce"
  type: "ReLU"
  bottom: "inception_4e/3x3_reduce"
  top: "inception_4e/3x3_reduce"
}
layer {
  name: "inception_4e/3x3"
  type: "Convolution"
  bottom: "inception_4e/3x3_reduce"
  top: "inception_4e/3x3"
  param {
    lr_mult: 1
    decay_mult: 1
  }
  param {
    lr_mult: 2
    decay_mult: 0
  }
  convolution_param {
    num_output: 320
    pad: 1
    kernel_size: 3
    weight_filler {
      type: "xavier"
      std: 0.03
    }
    bias_filler {
      type: "constant"
      value: 0.2
    }
  }
}
layer {
  name: "inception_4e/relu_3x3"
  type: "ReLU"
  bottom: "inception_4e/3x3"
  top: "inception_4e/3x3"
}
layer {
  name: "inception_4e/5x5_reduce"
  type: "Convolution"
  bottom: "inception_4d/output"
  top: "inception_4e/5x5_reduce"
  param {
    lr_mult: 1
    decay_mult: 1
  }
  param {
    lr_mult: 2
    decay_mult: 0
  }
  convolution_param {
    num_output: 32
    kernel_size: 1
    weight_filler {
      type: "xavier"
      std: 0.2
    }
    bias_filler {
      type: "constant"
      value: 0.2
    }
  }
}
layer {
  name: "inception_4e/relu_5x5_reduce"
  type: "ReLU"
  bottom: "inception_4e/5x5_reduce"
  top: "inception_4e/5x5_reduce"
}
layer {
  name: "inception_4e/5x5"
  type: "Convolution"
  bottom: "inception_4e/5x5_reduce"
  top: "inception_4e/5x5"
  param {
    lr_mult: 1
    decay_mult: 1
  }
  param {
    lr_mult: 2
    decay_mult: 0
  }
  convolution_param {
    num_output: 128
    pad: 2
    kernel_size: 5
    weight_filler {
      type: "xavier"
      std: 0.03
    }
    bias_filler {
      type: "constant"
      value: 0.2
    }
  }
}
layer {
  name: "inception_4e/relu_5x5"
  type: "ReLU"
  bottom: "inception_4e/5x5"
  top: "inception_4e/5x5"
}
layer {
  name: "inception_4e/pool"
  type: "Pooling"
  bottom: "inception_4d/output"
  top: "inception_4e/pool"
  pooling_param {
    pool: MAX
    kernel_size: 3
    stride: 1
    pad: 1
  }
}
layer {
  name: "inception_4e/pool_proj"
  type: "Convolution"
  bottom: "inception_4e/pool"
  top: "inception_4e/pool_proj"
  param {
    lr_mult: 1
    decay_mult: 1
  }
  param {
    lr_mult: 2
    decay_mult: 0
  }
  convolution_param {
    num_output: 128
    kernel_size: 1
    weight_filler {
      type: "xavier"
      std: 0.1
    }
    bias_filler {
      type: "constant"
      value: 0.2
    }
  }
}
layer {
  name: "inception_4e/relu_pool_proj"
  type: "ReLU"
  bottom: "inception_4e/pool_proj"
  top: "inception_4e/pool_proj"
}
layer {
  name: "inception_4e/output"
  type: "Concat"
  bottom: "inception_4e/1x1"
  bottom: "inception_4e/3x3"
  bottom: "inception_4e/5x5"
  bottom: "inception_4e/pool_proj"
  top: "inception_4e/output"
}
layer {
  name: "pool4/3x3_s2"
  type: "Pooling"
  bottom: "inception_4e/output"
  top: "pool4/3x3_s2"
  pooling_param {
    pool: MAX
    kernel_size: 3
    stride: 2
  }
}
layer {
  name: "inception_5a/1x1"
  type: "Convolution"
  bottom: "pool4/3x3_s2"
  top: "inception_5a/1x1"
  param {
    lr_mult: 1
    decay_mult: 1
  }
  param {
    lr_mult: 2
    decay_mult: 0
  }
  convolution_param {
    num_output: 256
    kernel_size: 1
    weight_filler {
      type: "xavier"
      std: 0.03
    }
    bias_filler {
      type: "constant"
      value: 0.2
    }
  }
}
layer {
  name: "inception_5a/relu_1x1"
  type: "ReLU"
  bottom: "inception_5a/1x1"
  top: "inception_5a/1x1"
}
layer {
  name: "inception_5a/3x3_reduce"
  type: "Convolution"
  bottom: "pool4/3x3_s2"
  top: "inception_5a/3x3_reduce"
  param {
    lr_mult: 1
    decay_mult: 1
  }
  param {
    lr_mult: 2
    decay_mult: 0
  }
  convolution_param {
    num_output: 160
    kernel_size: 1
    weight_filler {
      type: "xavier"
      std: 0.09
    }
    bias_filler {
      type: "constant"
      value: 0.2
    }
  }
}
layer {
  name: "inception_5a/relu_3x3_reduce"
  type: "ReLU"
  bottom: "inception_5a/3x3_reduce"
  top: "inception_5a/3x3_reduce"
}
layer {
  name: "inception_5a/3x3"
  type: "Convolution"
  bottom: "inception_5a/3x3_reduce"
  top: "inception_5a/3x3"
  param {
    lr_mult: 1
    decay_mult: 1
  }
  param {
    lr_mult: 2
    decay_mult: 0
  }
  convolution_param {
    num_output: 320
    pad: 1
    kernel_size: 3
    weight_filler {
      type: "xavier"
      std: 0.03
    }
    bias_filler {
      type: "constant"
      value: 0.2
    }
  }
}
layer {
  name: "inception_5a/relu_3x3"
  type: "ReLU"
  bottom: "inception_5a/3x3"
  top: "inception_5a/3x3"
}
layer {
  name: "inception_5a/5x5_reduce"
  type: "Convolution"
  bottom: "pool4/3x3_s2"
  top: "inception_5a/5x5_reduce"
  param {
    lr_mult: 1
    decay_mult: 1
  }
  param {
    lr_mult: 2
    decay_mult: 0
  }
  convolution_param {
    num_output: 32
    kernel_size: 1
    weight_filler {
      type: "xavier"
      std: 0.2
    }
    bias_filler {
      type: "constant"
      value: 0.2
    }
I0924 00:37:21.873975 24118 layer_factory.hpp:77] Creating layer data
I0924 00:37:21.874007 24118 net.cpp:91] Creating Layer data
I0924 00:37:21.874018 24118 net.cpp:399] data -> data
I0924 00:37:22.381656 24118 net.cpp:141] Setting up data
I0924 00:37:22.381768 24118 net.cpp:148] Top shape: 10 3 224 224 (1505280)
I0924 00:37:22.381781 24118 net.cpp:156] Memory required for data: 6021120
I0924 00:37:22.381815 24118 layer_factory.hpp:77] Creating layer conv1/7x7_s2
I0924 00:37:22.381880 24118 net.cpp:91] Creating Layer conv1/7x7_s2
I0924 00:37:22.381896 24118 net.cpp:425] conv1/7x7_s2 <- data
I0924 00:37:22.381920 24118 net.cpp:399] conv1/7x7_s2 -> conv1/7x7_s2
I0924 00:37:22.571548 24118 net.cpp:141] Setting up conv1/7x7_s2
I0924 00:37:22.571614 24118 net.cpp:148] Top shape: 10 64 112 112 (8028160)
I0924 00:37:22.571620 24118 net.cpp:156] Memory required for data: 38133760
I0924 00:37:22.571650 24118 layer_factory.hpp:77] Creating layer conv1/relu_7x7
I0924 00:37:22.571673 24118 net.cpp:91] Creating Layer conv1/relu_7x7
I0924 00:37:22.571679 24118 net.cpp:425] conv1/relu_7x7 <- conv1/7x7_s2
I0924 00:37:22.571691 24118 net.cpp:386] conv1/relu_7x7 -> conv1/7x7_s2 (in-place)
I0924 00:37:22.572094 24118 net.cpp:141] Setting up conv1/relu_7x7
I0924 00:37:22.572108 24118 net.cpp:148] Top shape: 10 64 112 112 (8028160)
I0924 00:37:22.572111 24118 net.cpp:156] Memory required for data: 70246400
I0924 00:37:22.572116 24118 layer_factory.hpp:77] Creating layer pool1/3x3_s2
I0924 00:37:22.572130 24118 net.cpp:91] Creating Layer pool1/3x3_s2
I0924 00:37:22.572135 24118 net.cpp:425] pool1/3x3_s2 <- conv1/7x7_s2
I0924 00:37:22.572145 24118 net.cpp:399] pool1/3x3_s2 -> pool1/3x3_s2
I0924 00:37:22.572232 24118 net.cpp:141] Setting up pool1/3x3_s2
I0924 00:37:22.572242 24118 net.cpp:148] Top shape: 10 64 56 56 (2007040)
I0924 00:37:22.572247 24118 net.cpp:156] Memory required for data: 78274560
I0924 00:37:22.572250 24118 layer_factory.hpp:77] Creating layer pool1/norm1
I0924 00:37:22.572273 24118 net.cpp:91] Creating Layer pool1/norm1
I0924 00:37:22.572278 24118 net.cpp:425] pool1/norm1 <- pool1/3x3_s2
I0924 00:37:22.572286 24118 net.cpp:399] pool1/norm1 -> pool1/norm1
I0924 00:37:22.572563 24118 net.cpp:141] Setting up pool1/norm1
I0924 00:37:22.572574 24118 net.cpp:148] Top shape: 10 64 56 56 (2007040)
I0924 00:37:22.572579 24118 net.cpp:156] Memory required for data: 86302720
I0924 00:37:22.572584 24118 layer_factory.hpp:77] Creating layer conv2/3x3_reduce
I0924 00:37:22.572608 24118 net.cpp:91] Creating Layer conv2/3x3_reduce
I0924 00:37:22.572615 24118 net.cpp:425] conv2/3x3_reduce <- pool1/norm1
I0924 00:37:22.572624 24118 net.cpp:399] conv2/3x3_reduce -> conv2/3x3_reduce
I0924 00:37:22.574662 24118 net.cpp:141] Setting up conv2/3x3_reduce
I0924 00:37:22.574681 24118 net.cpp:148] Top shape: 10 64 56 56 (2007040)
I0924 00:37:22.574687 24118 net.cpp:156] Memory required for data: 94330880
I0924 00:37:22.574698 24118 layer_factory.hpp:77] Creating layer conv2/relu_3x3_reduce
I0924 00:37:22.574707 24118 net.cpp:91] Creating Layer conv2/relu_3x3_reduce
I0924 00:37:22.574712 24118 net.cpp:425] conv2/relu_3x3_reduce <- conv2/3x3_reduce
I0924 00:37:22.574719 24118 net.cpp:386] conv2/relu_3x3_reduce -> conv2/3x3_reduce (in-place)
I0924 00:37:22.575114 24118 net.cpp:141] Setting up conv2/relu_3x3_reduce
I0924 00:37:22.575127 24118 net.cpp:148] Top shape: 10 64 56 56 (2007040)
I0924 00:37:22.575131 24118 net.cpp:156] Memory required for data: 102359040
I0924 00:37:22.575136 24118 layer_factory.hpp:77] Creating layer conv2/3x3
I0924 00:37:22.575153 24118 net.cpp:91] Creating Layer conv2/3x3
I0924 00:37:22.575158 24118 net.cpp:425] conv2/3x3 <- conv2/3x3_reduce
I0924 00:37:22.575170 24118 net.cpp:399] conv2/3x3 -> conv2/3x3
I0924 00:37:22.578150 24118 net.cpp:141] Setting up conv2/3x3
I0924 00:37:22.578169 24118 net.cpp:148] Top shape: 10 192 56 56 (6021120)
I0924 00:37:22.578174 24118 net.cpp:156] Memory required for data: 126443520
I0924 00:37:22.578186 24118 layer_factory.hpp:77] Creating layer conv2/relu_3x3
I0924 00:37:22.578197 24118 net.cpp:91] Creating Layer conv2/relu_3x3
I0924 00:37:22.578202 24118 net.cpp:425] conv2/relu_3x3 <- conv2/3x3
I0924 00:37:22.578208 24118 net.cpp:386] conv2/relu_3x3 -> conv2/3x3 (in-place)
I0924 00:37:22.578447 24118 net.cpp:141] Setting up conv2/relu_3x3
I0924 00:37:22.578459 24118 net.cpp:148] Top shape: 10 192 56 56 (6021120)
I0924 00:37:22.578462 24118 net.cpp:156] Memory required for data: 150528000
I0924 00:37:22.578467 24118 layer_factory.hpp:77] Creating layer conv2/norm2
I0924 00:37:22.578480 24118 net.cpp:91] Creating Layer conv2/norm2
I0924 00:37:22.578483 24118 net.cpp:425] conv2/norm2 <- conv2/3x3
I0924 00:37:22.578490 24118 net.cpp:399] conv2/norm2 -> conv2/norm2
I0924 00:37:22.578922 24118 net.cpp:141] Setting up conv2/norm2
I0924 00:37:22.578938 24118 net.cpp:148] Top shape: 10 192 56 56 (6021120)
I0924 00:37:22.578941 24118 net.cpp:156] Memory required for data: 174612480
I0924 00:37:22.578946 24118 layer_factory.hpp:77] Creating layer pool2/3x3_s2
I0924 00:37:22.578955 24118 net.cpp:91] Creating Layer pool2/3x3_s2
I0924 00:37:22.578960 24118 net.cpp:425] pool2/3x3_s2 <- conv2/norm2
I0924 00:37:22.578968 24118 net.cpp:399] pool2/3x3_s2 -> pool2/3x3_s2
I0924 00:37:22.579020 24118 net.cpp:141] Setting up pool2/3x3_s2
I0924 00:37:22.579027 24118 net.cpp:148] Top shape: 10 192 28 28 (1505280)
I0924 00:37:22.579031 24118 net.cpp:156] Memory required for data: 180633600
I0924 00:37:22.579036 24118 layer_factory.hpp:77] Creating layer pool2/3x3_s2_pool2/3x3_s2_0_split
I0924 00:37:22.579052 24118 net.cpp:91] Creating Layer pool2/3x3_s2_pool2/3x3_s2_0_split
I0924 00:37:22.579057 24118 net.cpp:425] pool2/3x3_s2_pool2/3x3_s2_0_split <- pool2/3x3_s2
I0924 00:37:22.579068 24118 net.cpp:399] pool2/3x3_s2_pool2/3x3_s2_0_split -> pool2/3x3_s2_pool2/3x3_s2_0_split_0
I0924 00:37:22.579078 24118 net.cpp:399] pool2/3x3_s2_pool2/3x3_s2_0_split -> pool2/3x3_s2_pool2/3x3_s2_0_split_1
I0924 00:37:22.579087 24118 net.cpp:399] pool2/3x3_s2_pool2/3x3_s2_0_split -> pool2/3x3_s2_pool2/3x3_s2_0_split_2
I0924 00:37:22.579093 24118 net.cpp:399] pool2/3x3_s2_pool2/3x3_s2_0_split -> pool2/3x3_s2_pool2/3x3_s2_0_split_3
I0924 00:37:22.579166 24118 net.cpp:141] Setting up pool2/3x3_s2_pool2/3x3_s2_0_split
I0924 00:37:22.579176 24118 net.cpp:148] Top shape: 10 192 28 28 (1505280)
I0924 00:37:22.579181 24118 net.cpp:148] Top shape: 10 192 28 28 (1505280)
I0924 00:37:22.579187 24118 net.cpp:148] Top shape: 10 192 28 28 (1505280)
I0924 00:37:22.579192 24118 net.cpp:148] Top shape: 10 192 28 28 (1505280)
I0924 00:37:22.579195 24118 net.cpp:156] Memory required for data: 204718080
I0924 00:37:22.579200 24118 layer_factory.hpp:77] Creating layer inception_3a/1x1
I0924 00:37:22.579215 24118 net.cpp:91] Creating Layer inception_3a/1x1
I0924 00:37:22.579219 24118 net.cpp:425] inception_3a/1x1 <- pool2/3x3_s2_pool2/3x3_s2_0_split_0
I0924 00:37:22.579246 24118 net.cpp:399] inception_3a/1x1 -> inception_3a/1x1
I0924 00:37:22.581143 24118 net.cpp:141] Setting up inception_3a/1x1
I0924 00:37:22.581161 24118 net.cpp:148] Top shape: 10 64 28 28 (501760)
I0924 00:37:22.581166 24118 net.cpp:156] Memory required for data: 206725120
I0924 00:37:22.581176 24118 layer_factory.hpp:77] Creating layer inception_3a/relu_1x1
I0924 00:37:22.581185 24118 net.cpp:91] Creating Layer inception_3a/relu_1x1
I0924 00:37:22.581192 24118 net.cpp:425] inception_3a/relu_1x1 <- inception_3a/1x1
I0924 00:37:22.581202 24118 net.cpp:386] inception_3a/relu_1x1 -> inception_3a/1x1 (in-place)
I0924 00:37:22.581595 24118 net.cpp:141] Setting up inception_3a/relu_1x1
I0924 00:37:22.581607 24118 net.cpp:148] Top shape: 10 64 28 28 (501760)
I0924 00:37:22.581612 24118 net.cpp:156] Memory required for data: 208732160
I0924 00:37:22.581617 24118 layer_factory.hpp:77] Creating layer inception_3a/3x3_reduce
I0924 00:37:22.581634 24118 net.cpp:91] Creating Layer inception_3a/3x3_reduce
I0924 00:37:22.581640 24118 net.cpp:425] inception_3a/3x3_reduce <- pool2/3x3_s2_pool2/3x3_s2_0_split_1
I0924 00:37:22.581650 24118 net.cpp:399] inception_3a/3x3_reduce -> inception_3a/3x3_reduce
I0924 00:37:22.583905 24118 net.cpp:141] Setting up inception_3a/3x3_reduce
I0924 00:37:22.583935 24118 net.cpp:148] Top shape: 10 96 28 28 (752640)
I0924 00:37:22.583940 24118 net.cpp:156] Memory required for data: 211742720
I0924 00:37:22.583952 24118 layer_factory.hpp:77] Creating layer inception_3a/relu_3x3_reduce
I0924 00:37:22.583961 24118 net.cpp:91] Creating Layer inception_3a/relu_3x3_reduce
I0924 00:37:22.583966 24118 net.cpp:425] inception_3a/relu_3x3_reduce <- inception_3a/3x3_reduce
I0924 00:37:22.583976 24118 net.cpp:386] inception_3a/relu_3x3_reduce -> inception_3a/3x3_reduce (in-place)
I0924 00:37:22.584230 24118 net.cpp:141] Setting up inception_3a/relu_3x3_reduce
I0924 00:37:22.584244 24118 net.cpp:148] Top shape: 10 96 28 28 (752640)
I0924 00:37:22.584249 24118 net.cpp:156] Memory required for data: 214753280
I0924 00:37:22.584252 24118 layer_factory.hpp:77] Creating layer inception_3a/3x3
I0924 00:37:22.584270 24118 net.cpp:91] Creating Layer inception_3a/3x3
I0924 00:37:22.584276 24118 net.cpp:425] inception_3a/3x3 <- inception_3a/3x3_reduce
I0924 00:37:22.584286 24118 net.cpp:399] inception_3a/3x3 -> inception_3a/3x3
I0924 00:37:22.586452 24118 net.cpp:141] Setting up inception_3a/3x3
I0924 00:37:22.586468 24118 net.cpp:148] Top shape: 10 128 28 28 (1003520)
I0924 00:37:22.586473 24118 net.cpp:156] Memory required for data: 218767360
I0924 00:37:22.586483 24118 layer_factory.hpp:77] Creating layer inception_3a/relu_3x3
I0924 00:37:22.586491 24118 net.cpp:91] Creating Layer inception_3a/relu_3x3
I0924 00:37:22.586496 24118 net.cpp:425] inception_3a/relu_3x3 <- inception_3a/3x3
I0924 00:37:22.586503 24118 net.cpp:386] inception_3a/relu_3x3 -> inception_3a/3x3 (in-place)
I0924 00:37:22.586889 24118 net.cpp:141] Setting up inception_3a/relu_3x3
I0924 00:37:22.586902 24118 net.cpp:148] Top shape: 10 128 28 28 (1003520)
I0924 00:37:22.586920 24118 net.cpp:156] Memory required for data: 222781440
I0924 00:37:22.586925 24118 layer_factory.hpp:77] Creating layer inception_3a/5x5_reduce
I0924 00:37:22.586944 24118 net.cpp:91] Creating Layer inception_3a/5x5_reduce
I0924 00:37:22.586951 24118 net.cpp:425] inception_3a/5x5_reduce <- pool2/3x3_s2_pool2/3x3_s2_0_split_2
I0924 00:37:22.586961 24118 net.cpp:399] inception_3a/5x5_reduce -> inception_3a/5x5_reduce
I0924 00:37:22.588173 24118 net.cpp:141] Setting up inception_3a/5x5_reduce
I0924 00:37:22.588202 24118 net.cpp:148] Top shape: 10 16 28 28 (125440)
I0924 00:37:22.588207 24118 net.cpp:156] Memory required for data: 223283200
I0924 00:37:22.588222 24118 layer_factory.hpp:77] Creating layer inception_3a/relu_5x5_reduce
I0924 00:37:22.588233 24118 net.cpp:91] Creating Layer inception_3a/relu_5x5_reduce
I0924 00:37:22.588239 24118 net.cpp:425] inception_3a/relu_5x5_reduce <- inception_3a/5x5_reduce
I0924 00:37:22.588246 24118 net.cpp:386] inception_3a/relu_5x5_reduce -> inception_3a/5x5_reduce (in-place)
I0924 00:37:22.588639 24118 net.cpp:141] Setting up inception_3a/relu_5x5_reduce
I0924 00:37:22.588650 24118 net.cpp:148] Top shape: 10 16 28 28 (125440)
I0924 00:37:22.588654 24118 net.cpp:156] Memory required for data: 223784960
I0924 00:37:22.588660 24118 layer_factory.hpp:77] Creating layer inception_3a/5x5
I0924 00:37:22.588675 24118 net.cpp:91] Creating Layer inception_3a/5x5
I0924 00:37:22.588681 24118 net.cpp:425] inception_3a/5x5 <- inception_3a/5x5_reduce
I0924 00:37:22.588693 24118 net.cpp:399] inception_3a/5x5 -> inception_3a/5x5
I0924 00:37:22.590474 24118 net.cpp:141] Setting up inception_3a/5x5
I0924 00:37:22.590509 24118 net.cpp:148] Top shape: 10 32 28 28 (250880)
I0924 00:37:22.590514 24118 net.cpp:156] Memory required for data: 224788480
I0924 00:37:22.590524 24118 layer_factory.hpp:77] Creating layer inception_3a/relu_5x5
I0924 00:37:22.590533 24118 net.cpp:91] Creating Layer inception_3a/relu_5x5
I0924 00:37:22.590538 24118 net.cpp:425] inception_3a/relu_5x5 <- inception_3a/5x5
I0924 00:37:22.590548 24118 net.cpp:386] inception_3a/relu_5x5 -> inception_3a/5x5 (in-place)
I0924 00:37:22.590811 24118 net.cpp:141] Setting up inception_3a/relu_5x5
I0924 00:37:22.590822 24118 net.cpp:148] Top shape: 10 32 28 28 (250880)
I0924 00:37:22.590826 24118 net.cpp:156] Memory required for data: 225792000
I0924 00:37:22.590831 24118 layer_factory.hpp:77] Creating layer inception_3a/pool
I0924 00:37:22.590847 24118 net.cpp:91] Creating Layer inception_3a/pool
I0924 00:37:22.590852 24118 net.cpp:425] inception_3a/pool <- pool2/3x3_s2_pool2/3x3_s2_0_split_3
I0924 00:37:22.590859 24118 net.cpp:399] inception_3a/pool -> inception_3a/pool
I0924 00:37:22.590917 24118 net.cpp:141] Setting up inception_3a/pool
I0924 00:37:22.590926 24118 net.cpp:148] Top shape: 10 192 28 28 (1505280)
I0924 00:37:22.590930 24118 net.cpp:156] Memory required for data: 231813120
I0924 00:37:22.590935 24118 layer_factory.hpp:77] Creating layer inception_3a/pool_proj
I0924 00:37:22.590950 24118 net.cpp:91] Creating Layer inception_3a/pool_proj
I0924 00:37:22.590956 24118 net.cpp:425] inception_3a/pool_proj <- inception_3a/pool
I0924 00:37:22.590967 24118 net.cpp:399] inception_3a/pool_proj -> inception_3a/pool_proj
I0924 00:37:22.592324 24118 net.cpp:141] Setting up inception_3a/pool_proj
I0924 00:37:22.592339 24118 net.cpp:148] Top shape: 10 32 28 28 (250880)
I0924 00:37:22.592344 24118 net.cpp:156] Memory required for data: 232816640
I0924 00:37:22.592357 24118 layer_factory.hpp:77] Creating layer inception_3a/relu_pool_proj
I0924 00:37:22.592366 24118 net.cpp:91] Creating Layer inception_3a/relu_pool_proj
I0924 00:37:22.592384 24118 net.cpp:425] inception_3a/relu_pool_proj <- inception_3a/pool_proj
I0924 00:37:22.592391 24118 net.cpp:386] inception_3a/relu_pool_proj -> inception_3a/pool_proj (in-place)
I0924 00:37:22.592763 24118 net.cpp:141] Setting up inception_3a/relu_pool_proj
I0924 00:37:22.592775 24118 net.cpp:148] Top shape: 10 32 28 28 (250880)
I0924 00:37:22.592779 24118 net.cpp:156] Memory required for data: 233820160
I0924 00:37:22.592784 24118 layer_factory.hpp:77] Creating layer inception_3a/output
I0924 00:37:22.592803 24118 net.cpp:91] Creating Layer inception_3a/output
I0924 00:37:22.592808 24118 net.cpp:425] inception_3a/output <- inception_3a/1x1
I0924 00:37:22.592815 24118 net.cpp:425] inception_3a/output <- inception_3a/3x3
I0924 00:37:22.592820 24118 net.cpp:425] inception_3a/output <- inception_3a/5x5
I0924 00:37:22.592825 24118 net.cpp:425] inception_3a/output <- inception_3a/pool_proj
I0924 00:37:22.592831 24118 net.cpp:399] inception_3a/output -> inception_3a/output
I0924 00:37:22.592880 24118 net.cpp:141] Setting up inception_3a/output
I0924 00:37:22.592890 24118 net.cpp:148] Top shape: 10 256 28 28 (2007040)
I0924 00:37:22.592893 24118 net.cpp:156] Memory required for data: 241848320
I0924 00:37:22.592897 24118 layer_factory.hpp:77] Creating layer inception_3a/output_inception_3a/output_0_split
I0924 00:37:22.592905 24118 net.cpp:91] Creating Layer inception_3a/output_inception_3a/output_0_split
I0924 00:37:22.592910 24118 net.cpp:425] inception_3a/output_inception_3a/output_0_split <- inception_3a/output
I0924 00:37:22.592919 24118 net.cpp:399] inception_3a/output_inception_3a/output_0_split -> inception_3a/output_inception_3a/output_0_split_0
I0924 00:37:22.592928 24118 net.cpp:399] inception_3a/output_inception_3a/output_0_split -> inception_3a/output_inception_3a/output_0_split_1
I0924 00:37:22.592936 24118 net.cpp:399] inception_3a/output_inception_3a/output_0_split -> inception_3a/output_inception_3a/output_0_split_2
I0924 00:37:22.592943 24118 net.cpp:399] inception_3a/output_inception_3a/output_0_split -> inception_3a/output_inception_3a/output_0_split_3
I0924 00:37:22.593017 24118 net.cpp:141] Setting up inception_3a/output_inception_3a/output_0_split
I0924 00:37:22.593029 24118 net.cpp:148] Top shape: 10 256 28 28 (2007040)
I0924 00:37:22.593034 24118 net.cpp:148] Top shape: 10 256 28 28 (2007040)
I0924 00:37:22.593039 24118 net.cpp:148] Top shape: 10 256 28 28 (2007040)
I0924 00:37:22.593044 24118 net.cpp:148] Top shape: 10 256 28 28 (2007040)
I0924 00:37:22.593047 24118 net.cpp:156] Memory required for data: 273960960
I0924 00:37:22.593055 24118 layer_factory.hpp:77] Creating layer inception_3b/1x1
I0924 00:37:22.593070 24118 net.cpp:91] Creating Layer inception_3b/1x1
I0924 00:37:22.593075 24118 net.cpp:425] inception_3b/1x1 <- inception_3a/output_inception_3a/output_0_split_0
I0924 00:37:22.593083 24118 net.cpp:399] inception_3b/1x1 -> inception_3b/1x1
I0924 00:37:22.594508 24118 net.cpp:141] Setting up inception_3b/1x1
I0924 00:37:22.594521 24118 net.cpp:148] Top shape: 10 128 28 28 (1003520)
I0924 00:37:22.594526 24118 net.cpp:156] Memory required for data: 277975040
I0924 00:37:22.594547 24118 layer_factory.hpp:77] Creating layer inception_3b/relu_1x1
I0924 00:37:22.594557 24118 net.cpp:91] Creating Layer inception_3b/relu_1x1
I0924 00:37:22.594561 24118 net.cpp:425] inception_3b/relu_1x1 <- inception_3b/1x1
I0924 00:37:22.594571 24118 net.cpp:386] inception_3b/relu_1x1 -> inception_3b/1x1 (in-place)
I0924 00:37:22.595058 24118 net.cpp:141] Setting up inception_3b/relu_1x1
I0924 00:37:22.595072 24118 net.cpp:148] Top shape: 10 128 28 28 (1003520)
I0924 00:37:22.595077 24118 net.cpp:156] Memory required for data: 281989120
I0924 00:37:22.595082 24118 layer_factory.hpp:77] Creating layer inception_3b/3x3_reduce
I0924 00:37:22.595096 24118 net.cpp:91] Creating Layer inception_3b/3x3_reduce
I0924 00:37:22.595103 24118 net.cpp:425] inception_3b/3x3_reduce <- inception_3a/output_inception_3a/output_0_split_1
I0924 00:37:22.595114 24118 net.cpp:399] inception_3b/3x3_reduce -> inception_3b/3x3_reduce
I0924 00:37:22.596691 24118 net.cpp:141] Setting up inception_3b/3x3_reduce
I0924 00:37:22.596720 24118 net.cpp:148] Top shape: 10 128 28 28 (1003520)
I0924 00:37:22.596726 24118 net.cpp:156] Memory required for data: 286003200
I0924 00:37:22.596735 24118 layer_factory.hpp:77] Creating layer inception_3b/relu_3x3_reduce
I0924 00:37:22.596747 24118 net.cpp:91] Creating Layer inception_3b/relu_3x3_reduce
I0924 00:37:22.596753 24118 net.cpp:425] inception_3b/relu_3x3_reduce <- inception_3b/3x3_reduce
I0924 00:37:22.596762 24118 net.cpp:386] inception_3b/relu_3x3_reduce -> inception_3b/3x3_reduce (in-place)
I0924 00:37:22.596981 24118 net.cpp:141] Setting up inception_3b/relu_3x3_reduce
I0924 00:37:22.596992 24118 net.cpp:148] Top shape: 10 128 28 28 (1003520)
I0924 00:37:22.596995 24118 net.cpp:156] Memory required for data: 290017280
I0924 00:37:22.597000 24118 layer_factory.hpp:77] Creating layer inception_3b/3x3
I0924 00:37:22.597030 24118 net.cpp:91] Creating Layer inception_3b/3x3
I0924 00:37:22.597036 24118 net.cpp:425] inception_3b/3x3 <- inception_3b/3x3_reduce
I0924 00:37:22.597046 24118 net.cpp:399] inception_3b/3x3 -> inception_3b/3x3
I0924 00:37:22.600708 24118 net.cpp:141] Setting up inception_3b/3x3
I0924 00:37:22.600725 24118 net.cpp:148] Top shape: 10 192 28 28 (1505280)
I0924 00:37:22.600730 24118 net.cpp:156] Memory required for data: 296038400
I0924 00:37:22.600739 24118 layer_factory.hpp:77] Creating layer inception_3b/relu_3x3
I0924 00:37:22.600755 24118 net.cpp:91] Creating Layer inception_3b/relu_3x3
I0924 00:37:22.600760 24118 net.cpp:425] inception_3b/relu_3x3 <- inception_3b/3x3
I0924 00:37:22.600769 24118 net.cpp:386] inception_3b/relu_3x3 -> inception_3b/3x3 (in-place)
I0924 00:37:22.601145 24118 net.cpp:141] Setting up inception_3b/relu_3x3
I0924 00:37:22.601158 24118 net.cpp:148] Top shape: 10 192 28 28 (1505280)
I0924 00:37:22.601162 24118 net.cpp:156] Memory required for data: 302059520
I0924 00:37:22.601167 24118 layer_factory.hpp:77] Creating layer inception_3b/5x5_reduce
I0924 00:37:22.601183 24118 net.cpp:91] Creating Layer inception_3b/5x5_reduce
I0924 00:37:22.601189 24118 net.cpp:425] inception_3b/5x5_reduce <- inception_3a/output_inception_3a/output_0_split_2
I0924 00:37:22.601202 24118 net.cpp:399] inception_3b/5x5_reduce -> inception_3b/5x5_reduce
I0924 00:37:22.602421 24118 net.cpp:141] Setting up inception_3b/5x5_reduce
I0924 00:37:22.602439 24118 net.cpp:148] Top shape: 10 32 28 28 (250880)
I0924 00:37:22.602444 24118 net.cpp:156] Memory required for data: 303063040
I0924 00:37:22.602452 24118 layer_factory.hpp:77] Creating layer inception_3b/relu_5x5_reduce
I0924 00:37:22.602466 24118 net.cpp:91] Creating Layer inception_3b/relu_5x5_reduce
I0924 00:37:22.602473 24118 net.cpp:425] inception_3b/relu_5x5_reduce <- inception_3b/5x5_reduce
I0924 00:37:22.602479 24118 net.cpp:386] inception_3b/relu_5x5_reduce -> inception_3b/5x5_reduce (in-place)
I0924 00:37:22.602864 24118 net.cpp:141] Setting up inception_3b/relu_5x5_reduce
I0924 00:37:22.602876 24118 net.cpp:148] Top shape: 10 32 28 28 (250880)
I0924 00:37:22.602881 24118 net.cpp:156] Memory required for data: 304066560
I0924 00:37:22.602886 24118 layer_factory.hpp:77] Creating layer inception_3b/5x5
I0924 00:37:22.602905 24118 net.cpp:91] Creating Layer inception_3b/5x5
I0924 00:37:22.602911 24118 net.cpp:425] inception_3b/5x5 <- inception_3b/5x5_reduce
I0924 00:37:22.602921 24118 net.cpp:399] inception_3b/5x5 -> inception_3b/5x5
I0924 00:37:22.605448 24118 net.cpp:141] Setting up inception_3b/5x5
I0924 00:37:22.605465 24118 net.cpp:148] Top shape: 10 96 28 28 (752640)
I0924 00:37:22.605470 24118 net.cpp:156] Memory required for data: 307077120
I0924 00:37:22.605479 24118 layer_factory.hpp:77] Creating layer inception_3b/relu_5x5
I0924 00:37:22.605487 24118 net.cpp:91] Creating Layer inception_3b/relu_5x5
I0924 00:37:22.605494 24118 net.cpp:425] inception_3b/relu_5x5 <- inception_3b/5x5
I0924 00:37:22.605500 24118 net.cpp:386] inception_3b/relu_5x5 -> inception_3b/5x5 (in-place)
I0924 00:37:22.605720 24118 net.cpp:141] Setting up inception_3b/relu_5x5
I0924 00:37:22.605731 24118 net.cpp:148] Top shape: 10 96 28 28 (752640)
I0924 00:37:22.605736 24118 net.cpp:156] Memory required for data: 310087680
I0924 00:37:22.605741 24118 layer_factory.hpp:77] Creating layer inception_3b/pool
I0924 00:37:22.605753 24118 net.cpp:91] Creating Layer inception_3b/pool
I0924 00:37:22.605762 24118 net.cpp:425] inception_3b/pool <- inception_3a/output_inception_3a/output_0_split_3
I0924 00:37:22.605769 24118 net.cpp:399] inception_3b/pool -> inception_3b/pool
I0924 00:37:22.605830 24118 net.cpp:141] Setting up inception_3b/pool
I0924 00:37:22.605840 24118 net.cpp:148] Top shape: 10 256 28 28 (2007040)
I0924 00:37:22.605844 24118 net.cpp:156] Memory required for data: 318115840
I0924 00:37:22.605849 24118 layer_factory.hpp:77] Creating layer inception_3b/pool_proj
I0924 00:37:22.605864 24118 net.cpp:91] Creating Layer inception_3b/pool_proj
I0924 00:37:22.605870 24118 net.cpp:425] inception_3b/pool_proj <- inception_3b/pool
I0924 00:37:22.605878 24118 net.cpp:399] inception_3b/pool_proj -> inception_3b/pool_proj
I0924 00:37:22.607342 24118 net.cpp:141] Setting up inception_3b/pool_proj
I0924 00:37:22.607360 24118 net.cpp:148] Top shape: 10 64 28 28 (501760)
I0924 00:37:22.607365 24118 net.cpp:156] Memory required for data: 320122880
I0924 00:37:22.607374 24118 layer_factory.hpp:77] Creating layer inception_3b/relu_pool_proj
I0924 00:37:22.607385 24118 net.cpp:91] Creating Layer inception_3b/relu_pool_proj
I0924 00:37:22.607391 24118 net.cpp:425] inception_3b/relu_pool_proj <- inception_3b/pool_proj
I0924 00:37:22.607398 24118 net.cpp:386] inception_3b/relu_pool_proj -> inception_3b/pool_proj (in-place)
I0924 00:37:22.607779 24118 net.cpp:141] Setting up inception_3b/relu_pool_proj
I0924 00:37:22.607791 24118 net.cpp:148] Top shape: 10 64 28 28 (501760)
I0924 00:37:22.607795 24118 net.cpp:156] Memory required for data: 322129920
I0924 00:37:22.607800 24118 layer_factory.hpp:77] Creating layer inception_3b/output
I0924 00:37:22.607811 24118 net.cpp:91] Creating Layer inception_3b/output
I0924 00:37:22.607817 24118 net.cpp:425] inception_3b/output <- inception_3b/1x1
I0924 00:37:22.607823 24118 net.cpp:425] inception_3b/output <- inception_3b/3x3
I0924 00:37:22.607828 24118 net.cpp:425] inception_3b/output <- inception_3b/5x5
I0924 00:37:22.607833 24118 net.cpp:425] inception_3b/output <- inception_3b/pool_proj
I0924 00:37:22.607841 24118 net.cpp:399] inception_3b/output -> inception_3b/output
I0924 00:37:22.607882 24118 net.cpp:141] Setting up inception_3b/output
I0924 00:37:22.607892 24118 net.cpp:148] Top shape: 10 480 28 28 (3763200)
I0924 00:37:22.607895 24118 net.cpp:156] Memory required for data: 337182720
I0924 00:37:22.607900 24118 layer_factory.hpp:77] Creating layer pool3/3x3_s2
I0924 00:37:22.607909 24118 net.cpp:91] Creating Layer pool3/3x3_s2
I0924 00:37:22.607913 24118 net.cpp:425] pool3/3x3_s2 <- inception_3b/output
I0924 00:37:22.607923 24118 net.cpp:399] pool3/3x3_s2 -> pool3/3x3_s2
I0924 00:37:22.607982 24118 net.cpp:141] Setting up pool3/3x3_s2
I0924 00:37:22.607992 24118 net.cpp:148] Top shape: 10 480 14 14 (940800)
I0924 00:37:22.607996 24118 net.cpp:156] Memory required for data: 340945920
I0924 00:37:22.608000 24118 layer_factory.hpp:77] Creating layer pool3/3x3_s2_pool3/3x3_s2_0_split
I0924 00:37:22.608011 24118 net.cpp:91] Creating Layer pool3/3x3_s2_pool3/3x3_s2_0_split
I0924 00:37:22.608016 24118 net.cpp:425] pool3/3x3_s2_pool3/3x3_s2_0_split <- pool3/3x3_s2
I0924 00:37:22.608024 24118 net.cpp:399] pool3/3x3_s2_pool3/3x3_s2_0_split -> pool3/3x3_s2_pool3/3x3_s2_0_split_0
I0924 00:37:22.608033 24118 net.cpp:399] pool3/3x3_s2_pool3/3x3_s2_0_split -> pool3/3x3_s2_pool3/3x3_s2_0_split_1
I0924 00:37:22.608042 24118 net.cpp:399] pool3/3x3_s2_pool3/3x3_s2_0_split -> pool3/3x3_s2_pool3/3x3_s2_0_split_2
I0924 00:37:22.608048 24118 net.cpp:399] pool3/3x3_s2_pool3/3x3_s2_0_split -> pool3/3x3_s2_pool3/3x3_s2_0_split_3
I0924 00:37:22.608125 24118 net.cpp:141] Setting up pool3/3x3_s2_pool3/3x3_s2_0_split
I0924 00:37:22.608134 24118 net.cpp:148] Top shape: 10 480 14 14 (940800)
I0924 00:37:22.608140 24118 net.cpp:148] Top shape: 10 480 14 14 (940800)
I0924 00:37:22.608145 24118 net.cpp:148] Top shape: 10 480 14 14 (940800)
I0924 00:37:22.608150 24118 net.cpp:148] Top shape: 10 480 14 14 (940800)
I0924 00:37:22.608155 24118 net.cpp:156] Memory required for data: 355998720
I0924 00:37:22.608158 24118 layer_factory.hpp:77] Creating layer inception_4a/1x1
I0924 00:37:22.608176 24118 net.cpp:91] Creating Layer inception_4a/1x1
I0924 00:37:22.608181 24118 net.cpp:425] inception_4a/1x1 <- pool3/3x3_s2_pool3/3x3_s2_0_split_0
I0924 00:37:22.608191 24118 net.cpp:399] inception_4a/1x1 -> inception_4a/1x1
I0924 00:37:22.610206 24118 net.cpp:141] Setting up inception_4a/1x1
I0924 00:37:22.610226 24118 net.cpp:148] Top shape: 10 192 14 14 (376320)
I0924 00:37:22.610231 24118 net.cpp:156] Memory required for data: 357504000
I0924 00:37:22.610240 24118 layer_factory.hpp:77] Creating layer inception_4a/relu_1x1
I0924 00:37:22.610249 24118 net.cpp:91] Creating Layer inception_4a/relu_1x1
I0924 00:37:22.610255 24118 net.cpp:425] inception_4a/relu_1x1 <- inception_4a/1x1
I0924 00:37:22.610265 24118 net.cpp:386] inception_4a/relu_1x1 -> inception_4a/1x1 (in-place)
I0924 00:37:22.610661 24118 net.cpp:141] Setting up inception_4a/relu_1x1
I0924 00:37:22.610673 24118 net.cpp:148] Top shape: 10 192 14 14 (376320)
I0924 00:37:22.610678 24118 net.cpp:156] Memory required for data: 359009280
I0924 00:37:22.610683 24118 layer_factory.hpp:77] Creating layer inception_4a/3x3_reduce
I0924 00:37:22.610700 24118 net.cpp:91] Creating Layer inception_4a/3x3_reduce
I0924 00:37:22.610707 24118 net.cpp:425] inception_4a/3x3_reduce <- pool3/3x3_s2_pool3/3x3_s2_0_split_1
I0924 00:37:22.610714 24118 net.cpp:399] inception_4a/3x3_reduce -> inception_4a/3x3_reduce
I0924 00:37:22.613355 24118 net.cpp:141] Setting up inception_4a/3x3_reduce
I0924 00:37:22.613404 24118 net.cpp:148] Top shape: 10 96 14 14 (188160)
I0924 00:37:22.613411 24118 net.cpp:156] Memory required for data: 359761920
I0924 00:37:22.613448 24118 layer_factory.hpp:77] Creating layer inception_4a/relu_3x3_reduce
I0924 00:37:22.613471 24118 net.cpp:91] Creating Layer inception_4a/relu_3x3_reduce
I0924 00:37:22.613484 24118 net.cpp:425] inception_4a/relu_3x3_reduce <- inception_4a/3x3_reduce
I0924 00:37:22.613497 24118 net.cpp:386] inception_4a/relu_3x3_reduce -> inception_4a/3x3_reduce (in-place)
I0924 00:37:22.613809 24118 net.cpp:141] Setting up inception_4a/relu_3x3_reduce
I0924 00:37:22.613824 24118 net.cpp:148] Top shape: 10 96 14 14 (188160)
I0924 00:37:22.613831 24118 net.cpp:156] Memory required for data: 360514560
I0924 00:37:22.613838 24118 layer_factory.hpp:77] Creating layer inception_4a/3x3
I0924 00:37:22.613864 24118 net.cpp:91] Creating Layer inception_4a/3x3
I0924 00:37:22.613873 24118 net.cpp:425] inception_4a/3x3 <- inception_4a/3x3_reduce
I0924 00:37:22.613890 24118 net.cpp:399] inception_4a/3x3 -> inception_4a/3x3
I0924 00:37:22.617377 24118 net.cpp:141] Setting up inception_4a/3x3
I0924 00:37:22.617398 24118 net.cpp:148] Top shape: 10 208 14 14 (407680)
I0924 00:37:22.617403 24118 net.cpp:156] Memory required for data: 362145280
I0924 00:37:22.617411 24118 layer_factory.hpp:77] Creating layer inception_4a/relu_3x3
I0924 00:37:22.617420 24118 net.cpp:91] Creating Layer inception_4a/relu_3x3
I0924 00:37:22.617426 24118 net.cpp:425] inception_4a/relu_3x3 <- inception_4a/3x3
I0924 00:37:22.617437 24118 net.cpp:386] inception_4a/relu_3x3 -> inception_4a/3x3 (in-place)
I0924 00:37:22.617817 24118 net.cpp:141] Setting up inception_4a/relu_3x3
I0924 00:37:22.617830 24118 net.cpp:148] Top shape: 10 208 14 14 (407680)
I0924 00:37:22.617835 24118 net.cpp:156] Memory required for data: 363776000
I0924 00:37:22.617840 24118 layer_factory.hpp:77] Creating layer inception_4a/5x5_reduce
I0924 00:37:22.617857 24118 net.cpp:91] Creating Layer inception_4a/5x5_reduce
I0924 00:37:22.617864 24118 net.cpp:425] inception_4a/5x5_reduce <- pool3/3x3_s2_pool3/3x3_s2_0_split_2
I0924 00:37:22.617877 24118 net.cpp:399] inception_4a/5x5_reduce -> inception_4a/5x5_reduce
I0924 00:37:22.619141 24118 net.cpp:141] Setting up inception_4a/5x5_reduce
I0924 00:37:22.619159 24118 net.cpp:148] Top shape: 10 16 14 14 (31360)
I0924 00:37:22.619164 24118 net.cpp:156] Memory required for data: 363901440
I0924 00:37:22.619174 24118 layer_factory.hpp:77] Creating layer inception_4a/relu_5x5_reduce
I0924 00:37:22.619182 24118 net.cpp:91] Creating Layer inception_4a/relu_5x5_reduce
I0924 00:37:22.619187 24118 net.cpp:425] inception_4a/relu_5x5_reduce <- inception_4a/5x5_reduce
I0924 00:37:22.619195 24118 net.cpp:386] inception_4a/relu_5x5_reduce -> inception_4a/5x5_reduce (in-place)
I0924 00:37:22.619571 24118 net.cpp:141] Setting up inception_4a/relu_5x5_reduce
I0924 00:37:22.619583 24118 net.cpp:148] Top shape: 10 16 14 14 (31360)
I0924 00:37:22.619588 24118 net.cpp:156] Memory required for data: 364026880
I0924 00:37:22.619592 24118 layer_factory.hpp:77] Creating layer inception_4a/5x5
I0924 00:37:22.619609 24118 net.cpp:91] Creating Layer inception_4a/5x5
I0924 00:37:22.619616 24118 net.cpp:425] inception_4a/5x5 <- inception_4a/5x5_reduce
I0924 00:37:22.619626 24118 net.cpp:399] inception_4a/5x5 -> inception_4a/5x5
I0924 00:37:22.621098 24118 net.cpp:141] Setting up inception_4a/5x5
I0924 00:37:22.621127 24118 net.cpp:148] Top shape: 10 48 14 14 (94080)
I0924 00:37:22.621132 24118 net.cpp:156] Memory required for data: 364403200
I0924 00:37:22.621141 24118 layer_factory.hpp:77] Creating layer inception_4a/relu_5x5
I0924 00:37:22.621150 24118 net.cpp:91] Creating Layer inception_4a/relu_5x5
I0924 00:37:22.621158 24118 net.cpp:425] inception_4a/relu_5x5 <- inception_4a/5x5
I0924 00:37:22.621166 24118 net.cpp:386] inception_4a/relu_5x5 -> inception_4a/5x5 (in-place)
I0924 00:37:22.621390 24118 net.cpp:141] Setting up inception_4a/relu_5x5
I0924 00:37:22.621402 24118 net.cpp:148] Top shape: 10 48 14 14 (94080)
I0924 00:37:22.621405 24118 net.cpp:156] Memory required for data: 364779520
I0924 00:37:22.621410 24118 layer_factory.hpp:77] Creating layer inception_4a/pool
I0924 00:37:22.621425 24118 net.cpp:91] Creating Layer inception_4a/pool
I0924 00:37:22.621431 24118 net.cpp:425] inception_4a/pool <- pool3/3x3_s2_pool3/3x3_s2_0_split_3
I0924 00:37:22.621439 24118 net.cpp:399] inception_4a/pool -> inception_4a/pool
I0924 00:37:22.621503 24118 net.cpp:141] Setting up inception_4a/pool
I0924 00:37:22.621511 24118 net.cpp:148] Top shape: 10 480 14 14 (940800)
I0924 00:37:22.621515 24118 net.cpp:156] Memory required for data: 368542720
I0924 00:37:22.621520 24118 layer_factory.hpp:77] Creating layer inception_4a/pool_proj
I0924 00:37:22.621536 24118 net.cpp:91] Creating Layer inception_4a/pool_proj
I0924 00:37:22.621541 24118 net.cpp:425] inception_4a/pool_proj <- inception_4a/pool
I0924 00:37:22.621552 24118 net.cpp:399] inception_4a/pool_proj -> inception_4a/pool_proj
I0924 00:37:22.623119 24118 net.cpp:141] Setting up inception_4a/pool_proj
I0924 00:37:22.623136 24118 net.cpp:148] Top shape: 10 64 14 14 (125440)
I0924 00:37:22.623142 24118 net.cpp:156] Memory required for data: 369044480
I0924 00:37:22.623150 24118 layer_factory.hpp:77] Creating layer inception_4a/relu_pool_proj
I0924 00:37:22.623162 24118 net.cpp:91] Creating Layer inception_4a/relu_pool_proj
I0924 00:37:22.623168 24118 net.cpp:425] inception_4a/relu_pool_proj <- inception_4a/pool_proj
I0924 00:37:22.623175 24118 net.cpp:386] inception_4a/relu_pool_proj -> inception_4a/pool_proj (in-place)
I0924 00:37:22.623559 24118 net.cpp:141] Setting up inception_4a/relu_pool_proj
I0924 00:37:22.623571 24118 net.cpp:148] Top shape: 10 64 14 14 (125440)
I0924 00:37:22.623575 24118 net.cpp:156] Memory required for data: 369546240
I0924 00:37:22.623580 24118 layer_factory.hpp:77] Creating layer inception_4a/output
I0924 00:37:22.623594 24118 net.cpp:91] Creating Layer inception_4a/output
I0924 00:37:22.623599 24118 net.cpp:425] inception_4a/output <- inception_4a/1x1
I0924 00:37:22.623605 24118 net.cpp:425] inception_4a/output <- inception_4a/3x3
I0924 00:37:22.623610 24118 net.cpp:425] inception_4a/output <- inception_4a/5x5
I0924 00:37:22.623615 24118 net.cpp:425] inception_4a/output <- inception_4a/pool_proj
I0924 00:37:22.623622 24118 net.cpp:399] inception_4a/output -> inception_4a/output
I0924 00:37:22.623667 24118 net.cpp:141] Setting up inception_4a/output
I0924 00:37:22.623675 24118 net.cpp:148] Top shape: 10 512 14 14 (1003520)
I0924 00:37:22.623679 24118 net.cpp:156] Memory required for data: 373560320
I0924 00:37:22.623684 24118 layer_factory.hpp:77] Creating layer inception_4a/output_inception_4a/output_0_split
I0924 00:37:22.623694 24118 net.cpp:91] Creating Layer inception_4a/output_inception_4a/output_0_split
I0924 00:37:22.623699 24118 net.cpp:425] inception_4a/output_inception_4a/output_0_split <- inception_4a/output
I0924 00:37:22.623708 24118 net.cpp:399] inception_4a/output_inception_4a/output_0_split -> inception_4a/output_inception_4a/output_0_split_0
I0924 00:37:22.623718 24118 net.cpp:399] inception_4a/output_inception_4a/output_0_split -> inception_4a/output_inception_4a/output_0_split_1
I0924 00:37:22.623725 24118 net.cpp:399] inception_4a/output_inception_4a/output_0_split -> inception_4a/output_inception_4a/output_0_split_2
I0924 00:37:22.623733 24118 net.cpp:399] inception_4a/output_inception_4a/output_0_split -> inception_4a/output_inception_4a/output_0_split_3
I0924 00:37:22.623816 24118 net.cpp:141] Setting up inception_4a/output_inception_4a/output_0_split
I0924 00:37:22.623827 24118 net.cpp:148] Top shape: 10 512 14 14 (1003520)
I0924 00:37:22.623832 24118 net.cpp:148] Top shape: 10 512 14 14 (1003520)
I0924 00:37:22.623837 24118 net.cpp:148] Top shape: 10 512 14 14 (1003520)
I0924 00:37:22.623842 24118 net.cpp:148] Top shape: 10 512 14 14 (1003520)
I0924 00:37:22.623847 24118 net.cpp:156] Memory required for data: 389616640
I0924 00:37:22.623850 24118 layer_factory.hpp:77] Creating layer inception_4b/1x1
I0924 00:37:22.623865 24118 net.cpp:91] Creating Layer inception_4b/1x1
I0924 00:37:22.623872 24118 net.cpp:425] inception_4b/1x1 <- inception_4a/output_inception_4a/output_0_split_0
I0924 00:37:22.623879 24118 net.cpp:399] inception_4b/1x1 -> inception_4b/1x1
I0924 00:37:22.625684 24118 net.cpp:141] Setting up inception_4b/1x1
I0924 00:37:22.625700 24118 net.cpp:148] Top shape: 10 160 14 14 (313600)
I0924 00:37:22.625705 24118 net.cpp:156] Memory required for data: 390871040
I0924 00:37:22.625715 24118 layer_factory.hpp:77] Creating layer inception_4b/relu_1x1
I0924 00:37:22.625731 24118 net.cpp:91] Creating Layer inception_4b/relu_1x1
I0924 00:37:22.625737 24118 net.cpp:425] inception_4b/relu_1x1 <- inception_4b/1x1
I0924 00:37:22.625744 24118 net.cpp:386] inception_4b/relu_1x1 -> inception_4b/1x1 (in-place)
I0924 00:37:22.626127 24118 net.cpp:141] Setting up inception_4b/relu_1x1
I0924 00:37:22.626139 24118 net.cpp:148] Top shape: 10 160 14 14 (313600)
I0924 00:37:22.626143 24118 net.cpp:156] Memory required for data: 392125440
I0924 00:37:22.626148 24118 layer_factory.hpp:77] Creating layer inception_4b/3x3_reduce
I0924 00:37:22.626164 24118 net.cpp:91] Creating Layer inception_4b/3x3_reduce
I0924 00:37:22.626170 24118 net.cpp:425] inception_4b/3x3_reduce <- inception_4a/output_inception_4a/output_0_split_1
I0924 00:37:22.626183 24118 net.cpp:399] inception_4b/3x3_reduce -> inception_4b/3x3_reduce
I0924 00:37:22.627986 24118 net.cpp:141] Setting up inception_4b/3x3_reduce
I0924 00:37:22.628006 24118 net.cpp:148] Top shape: 10 112 14 14 (219520)
I0924 00:37:22.628011 24118 net.cpp:156] Memory required for data: 393003520
I0924 00:37:22.628021 24118 layer_factory.hpp:77] Creating layer inception_4b/relu_3x3_reduce
I0924 00:37:22.628029 24118 net.cpp:91] Creating Layer inception_4b/relu_3x3_reduce
I0924 00:37:22.628036 24118 net.cpp:425] inception_4b/relu_3x3_reduce <- inception_4b/3x3_reduce
I0924 00:37:22.628044 24118 net.cpp:386] inception_4b/relu_3x3_reduce -> inception_4b/3x3_reduce (in-place)
I0924 00:37:22.628271 24118 net.cpp:141] Setting up inception_4b/relu_3x3_reduce
I0924 00:37:22.628283 24118 net.cpp:148] Top shape: 10 112 14 14 (219520)
I0924 00:37:22.628286 24118 net.cpp:156] Memory required for data: 393881600
I0924 00:37:22.628291 24118 layer_factory.hpp:77] Creating layer inception_4b/3x3
I0924 00:37:22.628307 24118 net.cpp:91] Creating Layer inception_4b/3x3
I0924 00:37:22.628314 24118 net.cpp:425] inception_4b/3x3 <- inception_4b/3x3_reduce
I0924 00:37:22.628324 24118 net.cpp:399] inception_4b/3x3 -> inception_4b/3x3
I0924 00:37:22.632176 24118 net.cpp:141] Setting up inception_4b/3x3
I0924 00:37:22.632194 24118 net.cpp:148] Top shape: 10 224 14 14 (439040)
I0924 00:37:22.632200 24118 net.cpp:156] Memory required for data: 395637760
I0924 00:37:22.632208 24118 layer_factory.hpp:77] Creating layer inception_4b/relu_3x3
I0924 00:37:22.632217 24118 net.cpp:91] Creating Layer inception_4b/relu_3x3
I0924 00:37:22.632223 24118 net.cpp:425] inception_4b/relu_3x3 <- inception_4b/3x3
I0924 00:37:22.632230 24118 net.cpp:386] inception_4b/relu_3x3 -> inception_4b/3x3 (in-place)
I0924 00:37:22.632637 24118 net.cpp:141] Setting up inception_4b/relu_3x3
I0924 00:37:22.632650 24118 net.cpp:148] Top shape: 10 224 14 14 (439040)
I0924 00:37:22.632654 24118 net.cpp:156] Memory required for data: 397393920
I0924 00:37:22.632659 24118 layer_factory.hpp:77] Creating layer inception_4b/5x5_reduce
I0924 00:37:22.632686 24118 net.cpp:91] Creating Layer inception_4b/5x5_reduce
I0924 00:37:22.632694 24118 net.cpp:425] inception_4b/5x5_reduce <- inception_4a/output_inception_4a/output_0_split_2
I0924 00:37:22.632702 24118 net.cpp:399] inception_4b/5x5_reduce -> inception_4b/5x5_reduce
I0924 00:37:22.634035 24118 net.cpp:141] Setting up inception_4b/5x5_reduce
I0924 00:37:22.634052 24118 net.cpp:148] Top shape: 10 24 14 14 (47040)
I0924 00:37:22.634057 24118 net.cpp:156] Memory required for data: 397582080
I0924 00:37:22.634066 24118 layer_factory.hpp:77] Creating layer inception_4b/relu_5x5_reduce
I0924 00:37:22.634075 24118 net.cpp:91] Creating Layer inception_4b/relu_5x5_reduce
I0924 00:37:22.634080 24118 net.cpp:425] inception_4b/relu_5x5_reduce <- inception_4b/5x5_reduce
I0924 00:37:22.634088 24118 net.cpp:386] inception_4b/relu_5x5_reduce -> inception_4b/5x5_reduce (in-place)
I0924 00:37:22.634470 24118 net.cpp:141] Setting up inception_4b/relu_5x5_reduce
I0924 00:37:22.634482 24118 net.cpp:148] Top shape: 10 24 14 14 (47040)
I0924 00:37:22.634487 24118 net.cpp:156] Memory required for data: 397770240
I0924 00:37:22.634492 24118 layer_factory.hpp:77] Creating layer inception_4b/5x5
I0924 00:37:22.634510 24118 net.cpp:91] Creating Layer inception_4b/5x5
I0924 00:37:22.634516 24118 net.cpp:425] inception_4b/5x5 <- inception_4b/5x5_reduce
I0924 00:37:22.634526 24118 net.cpp:399] inception_4b/5x5 -> inception_4b/5x5
I0924 00:37:22.636838 24118 net.cpp:141] Setting up inception_4b/5x5
I0924 00:37:22.636857 24118 net.cpp:148] Top shape: 10 64 14 14 (125440)
I0924 00:37:22.636862 24118 net.cpp:156] Memory required for data: 398272000
I0924 00:37:22.636870 24118 layer_factory.hpp:77] Creating layer inception_4b/relu_5x5
I0924 00:37:22.636883 24118 net.cpp:91] Creating Layer inception_4b/relu_5x5
I0924 00:37:22.636890 24118 net.cpp:425] inception_4b/relu_5x5 <- inception_4b/5x5
I0924 00:37:22.636898 24118 net.cpp:386] inception_4b/relu_5x5 -> inception_4b/5x5 (in-place)
I0924 00:37:22.637125 24118 net.cpp:141] Setting up inception_4b/relu_5x5
I0924 00:37:22.637136 24118 net.cpp:148] Top shape: 10 64 14 14 (125440)
I0924 00:37:22.637141 24118 net.cpp:156] Memory required for data: 398773760
I0924 00:37:22.637146 24118 layer_factory.hpp:77] Creating layer inception_4b/pool
I0924 00:37:22.637158 24118 net.cpp:91] Creating Layer inception_4b/pool
I0924 00:37:22.637163 24118 net.cpp:425] inception_4b/pool <- inception_4a/output_inception_4a/output_0_split_3
I0924 00:37:22.637171 24118 net.cpp:399] inception_4b/pool -> inception_4b/pool
I0924 00:37:22.637238 24118 net.cpp:141] Setting up inception_4b/pool
I0924 00:37:22.637246 24118 net.cpp:148] Top shape: 10 512 14 14 (1003520)
I0924 00:37:22.637250 24118 net.cpp:156] Memory required for data: 402787840
I0924 00:37:22.637254 24118 layer_factory.hpp:77] Creating layer inception_4b/pool_proj
I0924 00:37:22.637270 24118 net.cpp:91] Creating Layer inception_4b/pool_proj
I0924 00:37:22.637279 24118 net.cpp:425] inception_4b/pool_proj <- inception_4b/pool
I0924 00:37:22.637286 24118 net.cpp:399] inception_4b/pool_proj -> inception_4b/pool_proj
I0924 00:37:22.638931 24118 net.cpp:141] Setting up inception_4b/pool_proj
I0924 00:37:22.638960 24118 net.cpp:148] Top shape: 10 64 14 14 (125440)
I0924 00:37:22.638965 24118 net.cpp:156] Memory required for data: 403289600
I0924 00:37:22.638973 24118 layer_factory.hpp:77] Creating layer inception_4b/relu_pool_proj
I0924 00:37:22.638985 24118 net.cpp:91] Creating Layer inception_4b/relu_pool_proj
I0924 00:37:22.638991 24118 net.cpp:425] inception_4b/relu_pool_proj <- inception_4b/pool_proj
I0924 00:37:22.638998 24118 net.cpp:386] inception_4b/relu_pool_proj -> inception_4b/pool_proj (in-place)
I0924 00:37:22.639400 24118 net.cpp:141] Setting up inception_4b/relu_pool_proj
I0924 00:37:22.639412 24118 net.cpp:148] Top shape: 10 64 14 14 (125440)
I0924 00:37:22.639417 24118 net.cpp:156] Memory required for data: 403791360
I0924 00:37:22.639422 24118 layer_factory.hpp:77] Creating layer inception_4b/output
I0924 00:37:22.639434 24118 net.cpp:91] Creating Layer inception_4b/output
I0924 00:37:22.639441 24118 net.cpp:425] inception_4b/output <- inception_4b/1x1
I0924 00:37:22.639446 24118 net.cpp:425] inception_4b/output <- inception_4b/3x3
I0924 00:37:22.639451 24118 net.cpp:425] inception_4b/output <- inception_4b/5x5
I0924 00:37:22.639456 24118 net.cpp:425] inception_4b/output <- inception_4b/pool_proj
I0924 00:37:22.639463 24118 net.cpp:399] inception_4b/output -> inception_4b/output
I0924 00:37:22.639506 24118 net.cpp:141] Setting up inception_4b/output
I0924 00:37:22.639515 24118 net.cpp:148] Top shape: 10 512 14 14 (1003520)
I0924 00:37:22.639519 24118 net.cpp:156] Memory required for data: 407805440
I0924 00:37:22.639524 24118 layer_factory.hpp:77] Creating layer inception_4b/output_inception_4b/output_0_split
I0924 00:37:22.639534 24118 net.cpp:91] Creating Layer inception_4b/output_inception_4b/output_0_split
I0924 00:37:22.639539 24118 net.cpp:425] inception_4b/output_inception_4b/output_0_split <- inception_4b/output
I0924 00:37:22.639549 24118 net.cpp:399] inception_4b/output_inception_4b/output_0_split -> inception_4b/output_inception_4b/output_0_split_0
I0924 00:37:22.639559 24118 net.cpp:399] inception_4b/output_inception_4b/output_0_split -> inception_4b/output_inception_4b/output_0_split_1
I0924 00:37:22.639566 24118 net.cpp:399] inception_4b/output_inception_4b/output_0_split -> inception_4b/output_inception_4b/output_0_split_2
I0924 00:37:22.639575 24118 net.cpp:399] inception_4b/output_inception_4b/output_0_split -> inception_4b/output_inception_4b/output_0_split_3
I0924 00:37:22.639660 24118 net.cpp:141] Setting up inception_4b/output_inception_4b/output_0_split
I0924 00:37:22.639669 24118 net.cpp:148] Top shape: 10 512 14 14 (1003520)
I0924 00:37:22.639674 24118 net.cpp:148] Top shape: 10 512 14 14 (1003520)
I0924 00:37:22.639679 24118 net.cpp:148] Top shape: 10 512 14 14 (1003520)
I0924 00:37:22.639684 24118 net.cpp:148] Top shape: 10 512 14 14 (1003520)
I0924 00:37:22.639688 24118 net.cpp:156] Memory required for data: 423861760
I0924 00:37:22.639693 24118 layer_factory.hpp:77] Creating layer inception_4c/1x1
I0924 00:37:22.639709 24118 net.cpp:91] Creating Layer inception_4c/1x1
I0924 00:37:22.639715 24118 net.cpp:425] inception_4c/1x1 <- inception_4b/output_inception_4b/output_0_split_0
I0924 00:37:22.639724 24118 net.cpp:399] inception_4c/1x1 -> inception_4c/1x1
I0924 00:37:22.641414 24118 net.cpp:141] Setting up inception_4c/1x1
I0924 00:37:22.641433 24118 net.cpp:148] Top shape: 10 128 14 14 (250880)
I0924 00:37:22.641438 24118 net.cpp:156] Memory required for data: 424865280
I0924 00:37:22.641446 24118 layer_factory.hpp:77] Creating layer inception_4c/relu_1x1
I0924 00:37:22.641458 24118 net.cpp:91] Creating Layer inception_4c/relu_1x1
I0924 00:37:22.641463 24118 net.cpp:425] inception_4c/relu_1x1 <- inception_4c/1x1
I0924 00:37:22.641470 24118 net.cpp:386] inception_4c/relu_1x1 -> inception_4c/1x1 (in-place)
I0924 00:37:22.641855 24118 net.cpp:141] Setting up inception_4c/relu_1x1
I0924 00:37:22.641871 24118 net.cpp:148] Top shape: 10 128 14 14 (250880)
I0924 00:37:22.641876 24118 net.cpp:156] Memory required for data: 425868800
I0924 00:37:22.641881 24118 layer_factory.hpp:77] Creating layer inception_4c/3x3_reduce
I0924 00:37:22.641897 24118 net.cpp:91] Creating Layer inception_4c/3x3_reduce
I0924 00:37:22.641903 24118 net.cpp:425] inception_4c/3x3_reduce <- inception_4b/output_inception_4b/output_0_split_1
I0924 00:37:22.641916 24118 net.cpp:399] inception_4c/3x3_reduce -> inception_4c/3x3_reduce
I0924 00:37:22.643818 24118 net.cpp:141] Setting up inception_4c/3x3_reduce
I0924 00:37:22.643847 24118 net.cpp:148] Top shape: 10 128 14 14 (250880)
I0924 00:37:22.643853 24118 net.cpp:156] Memory required for data: 426872320
I0924 00:37:22.643862 24118 layer_factory.hpp:77] Creating layer inception_4c/relu_3x3_reduce
I0924 00:37:22.643872 24118 net.cpp:91] Creating Layer inception_4c/relu_3x3_reduce
I0924 00:37:22.643882 24118 net.cpp:425] inception_4c/relu_3x3_reduce <- inception_4c/3x3_reduce
I0924 00:37:22.643888 24118 net.cpp:386] inception_4c/relu_3x3_reduce -> inception_4c/3x3_reduce (in-place)
I0924 00:37:22.644119 24118 net.cpp:141] Setting up inception_4c/relu_3x3_reduce
I0924 00:37:22.644129 24118 net.cpp:148] Top shape: 10 128 14 14 (250880)
I0924 00:37:22.644134 24118 net.cpp:156] Memory required for data: 427875840
I0924 00:37:22.644139 24118 layer_factory.hpp:77] Creating layer inception_4c/3x3
I0924 00:37:22.644156 24118 net.cpp:91] Creating Layer inception_4c/3x3
I0924 00:37:22.644163 24118 net.cpp:425] inception_4c/3x3 <- inception_4c/3x3_reduce
I0924 00:37:22.644171 24118 net.cpp:399] inception_4c/3x3 -> inception_4c/3x3
I0924 00:37:22.648494 24118 net.cpp:141] Setting up inception_4c/3x3
I0924 00:37:22.648522 24118 net.cpp:148] Top shape: 10 256 14 14 (501760)
I0924 00:37:22.648528 24118 net.cpp:156] Memory required for data: 429882880
I0924 00:37:22.648538 24118 layer_factory.hpp:77] Creating layer inception_4c/relu_3x3
I0924 00:37:22.648552 24118 net.cpp:91] Creating Layer inception_4c/relu_3x3
I0924 00:37:22.648560 24118 net.cpp:425] inception_4c/relu_3x3 <- inception_4c/3x3
I0924 00:37:22.648567 24118 net.cpp:386] inception_4c/relu_3x3 -> inception_4c/3x3 (in-place)
I0924 00:37:22.648958 24118 net.cpp:141] Setting up inception_4c/relu_3x3
I0924 00:37:22.648970 24118 net.cpp:148] Top shape: 10 256 14 14 (501760)
I0924 00:37:22.648975 24118 net.cpp:156] Memory required for data: 431889920
I0924 00:37:22.648980 24118 layer_factory.hpp:77] Creating layer inception_4c/5x5_reduce
I0924 00:37:22.648998 24118 net.cpp:91] Creating Layer inception_4c/5x5_reduce
I0924 00:37:22.649003 24118 net.cpp:425] inception_4c/5x5_reduce <- inception_4b/output_inception_4b/output_0_split_2
I0924 00:37:22.649016 24118 net.cpp:399] inception_4c/5x5_reduce -> inception_4c/5x5_reduce
I0924 00:37:22.650406 24118 net.cpp:141] Setting up inception_4c/5x5_reduce
I0924 00:37:22.650436 24118 net.cpp:148] Top shape: 10 24 14 14 (47040)
I0924 00:37:22.650441 24118 net.cpp:156] Memory required for data: 432078080
I0924 00:37:22.650450 24118 layer_factory.hpp:77] Creating layer inception_4c/relu_5x5_reduce
I0924 00:37:22.650460 24118 net.cpp:91] Creating Layer inception_4c/relu_5x5_reduce
I0924 00:37:22.650465 24118 net.cpp:425] inception_4c/relu_5x5_reduce <- inception_4c/5x5_reduce
I0924 00:37:22.650475 24118 net.cpp:386] inception_4c/relu_5x5_reduce -> inception_4c/5x5_reduce (in-place)
I0924 00:37:22.650871 24118 net.cpp:141] Setting up inception_4c/relu_5x5_reduce
I0924 00:37:22.650884 24118 net.cpp:148] Top shape: 10 24 14 14 (47040)
I0924 00:37:22.650889 24118 net.cpp:156] Memory required for data: 432266240
I0924 00:37:22.650894 24118 layer_factory.hpp:77] Creating layer inception_4c/5x5
I0924 00:37:22.650910 24118 net.cpp:91] Creating Layer inception_4c/5x5
I0924 00:37:22.650916 24118 net.cpp:425] inception_4c/5x5 <- inception_4c/5x5_reduce
I0924 00:37:22.650928 24118 net.cpp:399] inception_4c/5x5 -> inception_4c/5x5
I0924 00:37:22.652815 24118 net.cpp:141] Setting up inception_4c/5x5
I0924 00:37:22.652844 24118 net.cpp:148] Top shape: 10 64 14 14 (125440)
I0924 00:37:22.652849 24118 net.cpp:156] Memory required for data: 432768000
I0924 00:37:22.652858 24118 layer_factory.hpp:77] Creating layer inception_4c/relu_5x5
I0924 00:37:22.652870 24118 net.cpp:91] Creating Layer inception_4c/relu_5x5
I0924 00:37:22.652875 24118 net.cpp:425] inception_4c/relu_5x5 <- inception_4c/5x5
I0924 00:37:22.652884 24118 net.cpp:386] inception_4c/relu_5x5 -> inception_4c/5x5 (in-place)
I0924 00:37:22.653117 24118 net.cpp:141] Setting up inception_4c/relu_5x5
I0924 00:37:22.653128 24118 net.cpp:148] Top shape: 10 64 14 14 (125440)
I0924 00:37:22.653132 24118 net.cpp:156] Memory required for data: 433269760
I0924 00:37:22.653137 24118 layer_factory.hpp:77] Creating layer inception_4c/pool
I0924 00:37:22.653151 24118 net.cpp:91] Creating Layer inception_4c/pool
I0924 00:37:22.653157 24118 net.cpp:425] inception_4c/pool <- inception_4b/output_inception_4b/output_0_split_3
I0924 00:37:22.653167 24118 net.cpp:399] inception_4c/pool -> inception_4c/pool
I0924 00:37:22.653234 24118 net.cpp:141] Setting up inception_4c/pool
I0924 00:37:22.653244 24118 net.cpp:148] Top shape: 10 512 14 14 (1003520)
I0924 00:37:22.653247 24118 net.cpp:156] Memory required for data: 437283840
I0924 00:37:22.653251 24118 layer_factory.hpp:77] Creating layer inception_4c/pool_proj
I0924 00:37:22.653266 24118 net.cpp:91] Creating Layer inception_4c/pool_proj
I0924 00:37:22.653272 24118 net.cpp:425] inception_4c/pool_proj <- inception_4c/pool
I0924 00:37:22.653283 24118 net.cpp:399] inception_4c/pool_proj -> inception_4c/pool_proj
I0924 00:37:22.655726 24118 net.cpp:141] Setting up inception_4c/pool_proj
I0924 00:37:22.655758 24118 net.cpp:148] Top shape: 10 64 14 14 (125440)
I0924 00:37:22.655764 24118 net.cpp:156] Memory required for data: 437785600
I0924 00:37:22.655791 24118 layer_factory.hpp:77] Creating layer inception_4c/relu_pool_proj
I0924 00:37:22.655802 24118 net.cpp:91] Creating Layer inception_4c/relu_pool_proj
I0924 00:37:22.655807 24118 net.cpp:425] inception_4c/relu_pool_proj <- inception_4c/pool_proj
I0924 00:37:22.655813 24118 net.cpp:386] inception_4c/relu_pool_proj -> inception_4c/pool_proj (in-place)
I0924 00:37:22.656213 24118 net.cpp:141] Setting up inception_4c/relu_pool_proj
I0924 00:37:22.656224 24118 net.cpp:148] Top shape: 10 64 14 14 (125440)
I0924 00:37:22.656229 24118 net.cpp:156] Memory required for data: 438287360
I0924 00:37:22.656234 24118 layer_factory.hpp:77] Creating layer inception_4c/output
I0924 00:37:22.656246 24118 net.cpp:91] Creating Layer inception_4c/output
I0924 00:37:22.656251 24118 net.cpp:425] inception_4c/output <- inception_4c/1x1
I0924 00:37:22.656257 24118 net.cpp:425] inception_4c/output <- inception_4c/3x3
I0924 00:37:22.656263 24118 net.cpp:425] inception_4c/output <- inception_4c/5x5
I0924 00:37:22.656268 24118 net.cpp:425] inception_4c/output <- inception_4c/pool_proj
I0924 00:37:22.656275 24118 net.cpp:399] inception_4c/output -> inception_4c/output
I0924 00:37:22.656322 24118 net.cpp:141] Setting up inception_4c/output
I0924 00:37:22.656332 24118 net.cpp:148] Top shape: 10 512 14 14 (1003520)
I0924 00:37:22.656337 24118 net.cpp:156] Memory required for data: 442301440
I0924 00:37:22.656342 24118 layer_factory.hpp:77] Creating layer inception_4c/output_inception_4c/output_0_split
I0924 00:37:22.656352 24118 net.cpp:91] Creating Layer inception_4c/output_inception_4c/output_0_split
I0924 00:37:22.656357 24118 net.cpp:425] inception_4c/output_inception_4c/output_0_split <- inception_4c/output
I0924 00:37:22.656365 24118 net.cpp:399] inception_4c/output_inception_4c/output_0_split -> inception_4c/output_inception_4c/output_0_split_0
I0924 00:37:22.656374 24118 net.cpp:399] inception_4c/output_inception_4c/output_0_split -> inception_4c/output_inception_4c/output_0_split_1
I0924 00:37:22.656383 24118 net.cpp:399] inception_4c/output_inception_4c/output_0_split -> inception_4c/output_inception_4c/output_0_split_2
I0924 00:37:22.656390 24118 net.cpp:399] inception_4c/output_inception_4c/output_0_split -> inception_4c/output_inception_4c/output_0_split_3
I0924 00:37:22.656481 24118 net.cpp:141] Setting up inception_4c/output_inception_4c/output_0_split
I0924 00:37:22.656491 24118 net.cpp:148] Top shape: 10 512 14 14 (1003520)
I0924 00:37:22.656497 24118 net.cpp:148] Top shape: 10 512 14 14 (1003520)
I0924 00:37:22.656502 24118 net.cpp:148] Top shape: 10 512 14 14 (1003520)
I0924 00:37:22.656507 24118 net.cpp:148] Top shape: 10 512 14 14 (1003520)
I0924 00:37:22.656512 24118 net.cpp:156] Memory required for data: 458357760
I0924 00:37:22.656515 24118 layer_factory.hpp:77] Creating layer inception_4d/1x1
I0924 00:37:22.656530 24118 net.cpp:91] Creating Layer inception_4d/1x1
I0924 00:37:22.656536 24118 net.cpp:425] inception_4d/1x1 <- inception_4c/output_inception_4c/output_0_split_0
I0924 00:37:22.656545 24118 net.cpp:399] inception_4d/1x1 -> inception_4d/1x1
I0924 00:37:22.658244 24118 net.cpp:141] Setting up inception_4d/1x1
I0924 00:37:22.658260 24118 net.cpp:148] Top shape: 10 112 14 14 (219520)
I0924 00:37:22.658265 24118 net.cpp:156] Memory required for data: 459235840
I0924 00:37:22.658273 24118 layer_factory.hpp:77] Creating layer inception_4d/relu_1x1
I0924 00:37:22.658294 24118 net.cpp:91] Creating Layer inception_4d/relu_1x1
I0924 00:37:22.658300 24118 net.cpp:425] inception_4d/relu_1x1 <- inception_4d/1x1
I0924 00:37:22.658309 24118 net.cpp:386] inception_4d/relu_1x1 -> inception_4d/1x1 (in-place)
I0924 00:37:22.658710 24118 net.cpp:141] Setting up inception_4d/relu_1x1
I0924 00:37:22.658722 24118 net.cpp:148] Top shape: 10 112 14 14 (219520)
I0924 00:37:22.658726 24118 net.cpp:156] Memory required for data: 460113920
I0924 00:37:22.658731 24118 layer_factory.hpp:77] Creating layer inception_4d/3x3_reduce
I0924 00:37:22.658747 24118 net.cpp:91] Creating Layer inception_4d/3x3_reduce
I0924 00:37:22.658753 24118 net.cpp:425] inception_4d/3x3_reduce <- inception_4c/output_inception_4c/output_0_split_1
I0924 00:37:22.658766 24118 net.cpp:399] inception_4d/3x3_reduce -> inception_4d/3x3_reduce
I0924 00:37:22.660768 24118 net.cpp:141] Setting up inception_4d/3x3_reduce
I0924 00:37:22.660785 24118 net.cpp:148] Top shape: 10 144 14 14 (282240)
I0924 00:37:22.660790 24118 net.cpp:156] Memory required for data: 461242880
I0924 00:37:22.660799 24118 layer_factory.hpp:77] Creating layer inception_4d/relu_3x3_reduce
I0924 00:37:22.660807 24118 net.cpp:91] Creating Layer inception_4d/relu_3x3_reduce
I0924 00:37:22.660816 24118 net.cpp:425] inception_4d/relu_3x3_reduce <- inception_4d/3x3_reduce
I0924 00:37:22.660823 24118 net.cpp:386] inception_4d/relu_3x3_reduce -> inception_4d/3x3_reduce (in-place)
I0924 00:37:22.661056 24118 net.cpp:141] Setting up inception_4d/relu_3x3_reduce
I0924 00:37:22.661067 24118 net.cpp:148] Top shape: 10 144 14 14 (282240)
I0924 00:37:22.661072 24118 net.cpp:156] Memory required for data: 462371840
I0924 00:37:22.661077 24118 layer_factory.hpp:77] Creating layer inception_4d/3x3
I0924 00:37:22.661097 24118 net.cpp:91] Creating Layer inception_4d/3x3
I0924 00:37:22.661103 24118 net.cpp:425] inception_4d/3x3 <- inception_4d/3x3_reduce
I0924 00:37:22.661111 24118 net.cpp:399] inception_4d/3x3 -> inception_4d/3x3
I0924 00:37:22.666116 24118 net.cpp:141] Setting up inception_4d/3x3
I0924 00:37:22.666134 24118 net.cpp:148] Top shape: 10 288 14 14 (564480)
I0924 00:37:22.666139 24118 net.cpp:156] Memory required for data: 464629760
I0924 00:37:22.666148 24118 layer_factory.hpp:77] Creating layer inception_4d/relu_3x3
I0924 00:37:22.666158 24118 net.cpp:91] Creating Layer inception_4d/relu_3x3
I0924 00:37:22.666163 24118 net.cpp:425] inception_4d/relu_3x3 <- inception_4d/3x3
I0924 00:37:22.666173 24118 net.cpp:386] inception_4d/relu_3x3 -> inception_4d/3x3 (in-place)
I0924 00:37:22.666571 24118 net.cpp:141] Setting up inception_4d/relu_3x3
I0924 00:37:22.666584 24118 net.cpp:148] Top shape: 10 288 14 14 (564480)
I0924 00:37:22.666589 24118 net.cpp:156] Memory required for data: 466887680
I0924 00:37:22.666594 24118 layer_factory.hpp:77] Creating layer inception_4d/5x5_reduce
I0924 00:37:22.666618 24118 net.cpp:91] Creating Layer inception_4d/5x5_reduce
I0924 00:37:22.666625 24118 net.cpp:425] inception_4d/5x5_reduce <- inception_4c/output_inception_4c/output_0_split_2
I0924 00:37:22.666637 24118 net.cpp:399] inception_4d/5x5_reduce -> inception_4d/5x5_reduce
I0924 00:37:22.668040 24118 net.cpp:141] Setting up inception_4d/5x5_reduce
I0924 00:37:22.668071 24118 net.cpp:148] Top shape: 10 32 14 14 (62720)
I0924 00:37:22.668076 24118 net.cpp:156] Memory required for data: 467138560
I0924 00:37:22.668084 24118 layer_factory.hpp:77] Creating layer inception_4d/relu_5x5_reduce
I0924 00:37:22.668097 24118 net.cpp:91] Creating Layer inception_4d/relu_5x5_reduce
I0924 00:37:22.668103 24118 net.cpp:425] inception_4d/relu_5x5_reduce <- inception_4d/5x5_reduce
I0924 00:37:22.668110 24118 net.cpp:386] inception_4d/relu_5x5_reduce -> inception_4d/5x5_reduce (in-place)
I0924 00:37:22.668504 24118 net.cpp:141] Setting up inception_4d/relu_5x5_reduce
I0924 00:37:22.668516 24118 net.cpp:148] Top shape: 10 32 14 14 (62720)
I0924 00:37:22.668521 24118 net.cpp:156] Memory required for data: 467389440
I0924 00:37:22.668526 24118 layer_factory.hpp:77] Creating layer inception_4d/5x5
I0924 00:37:22.668545 24118 net.cpp:91] Creating Layer inception_4d/5x5
I0924 00:37:22.668551 24118 net.cpp:425] inception_4d/5x5 <- inception_4d/5x5_reduce
I0924 00:37:22.668560 24118 net.cpp:399] inception_4d/5x5 -> inception_4d/5x5
I0924 00:37:22.670353 24118 net.cpp:141] Setting up inception_4d/5x5
I0924 00:37:22.670383 24118 net.cpp:148] Top shape: 10 64 14 14 (125440)
I0924 00:37:22.670388 24118 net.cpp:156] Memory required for data: 467891200
I0924 00:37:22.670397 24118 layer_factory.hpp:77] Creating layer inception_4d/relu_5x5
I0924 00:37:22.670410 24118 net.cpp:91] Creating Layer inception_4d/relu_5x5
I0924 00:37:22.670416 24118 net.cpp:425] inception_4d/relu_5x5 <- inception_4d/5x5
I0924 00:37:22.670423 24118 net.cpp:386] inception_4d/relu_5x5 -> inception_4d/5x5 (in-place)
I0924 00:37:22.670671 24118 net.cpp:141] Setting up inception_4d/relu_5x5
I0924 00:37:22.670684 24118 net.cpp:148] Top shape: 10 64 14 14 (125440)
I0924 00:37:22.670689 24118 net.cpp:156] Memory required for data: 468392960
I0924 00:37:22.670694 24118 layer_factory.hpp:77] Creating layer inception_4d/pool
I0924 00:37:22.670704 24118 net.cpp:91] Creating Layer inception_4d/pool
I0924 00:37:22.670711 24118 net.cpp:425] inception_4d/pool <- inception_4c/output_inception_4c/output_0_split_3
I0924 00:37:22.670718 24118 net.cpp:399] inception_4d/pool -> inception_4d/pool
I0924 00:37:22.670788 24118 net.cpp:141] Setting up inception_4d/pool
I0924 00:37:22.670796 24118 net.cpp:148] Top shape: 10 512 14 14 (1003520)
I0924 00:37:22.670800 24118 net.cpp:156] Memory required for data: 472407040
I0924 00:37:22.670805 24118 layer_factory.hpp:77] Creating layer inception_4d/pool_proj
I0924 00:37:22.670820 24118 net.cpp:91] Creating Layer inception_4d/pool_proj
I0924 00:37:22.670826 24118 net.cpp:425] inception_4d/pool_proj <- inception_4d/pool
I0924 00:37:22.670837 24118 net.cpp:399] inception_4d/pool_proj -> inception_4d/pool_proj
I0924 00:37:22.672526 24118 net.cpp:141] Setting up inception_4d/pool_proj
I0924 00:37:22.672556 24118 net.cpp:148] Top shape: 10 64 14 14 (125440)
I0924 00:37:22.672561 24118 net.cpp:156] Memory required for data: 472908800
I0924 00:37:22.672570 24118 layer_factory.hpp:77] Creating layer inception_4d/relu_pool_proj
I0924 00:37:22.672580 24118 net.cpp:91] Creating Layer inception_4d/relu_pool_proj
I0924 00:37:22.672585 24118 net.cpp:425] inception_4d/relu_pool_proj <- inception_4d/pool_proj
I0924 00:37:22.672596 24118 net.cpp:386] inception_4d/relu_pool_proj -> inception_4d/pool_proj (in-place)
I0924 00:37:22.673001 24118 net.cpp:141] Setting up inception_4d/relu_pool_proj
I0924 00:37:22.673013 24118 net.cpp:148] Top shape: 10 64 14 14 (125440)
I0924 00:37:22.673017 24118 net.cpp:156] Memory required for data: 473410560
I0924 00:37:22.673022 24118 layer_factory.hpp:77] Creating layer inception_4d/output
I0924 00:37:22.673032 24118 net.cpp:91] Creating Layer inception_4d/output
I0924 00:37:22.673037 24118 net.cpp:425] inception_4d/output <- inception_4d/1x1
I0924 00:37:22.673043 24118 net.cpp:425] inception_4d/output <- inception_4d/3x3
I0924 00:37:22.673048 24118 net.cpp:425] inception_4d/output <- inception_4d/5x5
I0924 00:37:22.673053 24118 net.cpp:425] inception_4d/output <- inception_4d/pool_proj
I0924 00:37:22.673063 24118 net.cpp:399] inception_4d/output -> inception_4d/output
I0924 00:37:22.673106 24118 net.cpp:141] Setting up inception_4d/output
I0924 00:37:22.673118 24118 net.cpp:148] Top shape: 10 528 14 14 (1034880)
I0924 00:37:22.673123 24118 net.cpp:156] Memory required for data: 477550080
I0924 00:37:22.673127 24118 layer_factory.hpp:77] Creating layer inception_4d/output_inception_4d/output_0_split
I0924 00:37:22.673136 24118 net.cpp:91] Creating Layer inception_4d/output_inception_4d/output_0_split
I0924 00:37:22.673141 24118 net.cpp:425] inception_4d/output_inception_4d/output_0_split <- inception_4d/output
I0924 00:37:22.673147 24118 net.cpp:399] inception_4d/output_inception_4d/output_0_split -> inception_4d/output_inception_4d/output_0_split_0
I0924 00:37:22.673156 24118 net.cpp:399] inception_4d/output_inception_4d/output_0_split -> inception_4d/output_inception_4d/output_0_split_1
I0924 00:37:22.673164 24118 net.cpp:399] inception_4d/output_inception_4d/output_0_split -> inception_4d/output_inception_4d/output_0_split_2
I0924 00:37:22.673176 24118 net.cpp:399] inception_4d/output_inception_4d/output_0_split -> inception_4d/output_inception_4d/output_0_split_3
I0924 00:37:22.673274 24118 net.cpp:141] Setting up inception_4d/output_inception_4d/output_0_split
I0924 00:37:22.673282 24118 net.cpp:148] Top shape: 10 528 14 14 (1034880)
I0924 00:37:22.673287 24118 net.cpp:148] Top shape: 10 528 14 14 (1034880)
I0924 00:37:22.673292 24118 net.cpp:148] Top shape: 10 528 14 14 (1034880)
I0924 00:37:22.673297 24118 net.cpp:148] Top shape: 10 528 14 14 (1034880)
I0924 00:37:22.673301 24118 net.cpp:156] Memory required for data: 494108160
I0924 00:37:22.673306 24118 layer_factory.hpp:77] Creating layer inception_4e/1x1
I0924 00:37:22.673321 24118 net.cpp:91] Creating Layer inception_4e/1x1
I0924 00:37:22.673327 24118 net.cpp:425] inception_4e/1x1 <- inception_4d/output_inception_4d/output_0_split_0
I0924 00:37:22.673337 24118 net.cpp:399] inception_4e/1x1 -> inception_4e/1x1
I0924 00:37:22.676442 24118 net.cpp:141] Setting up inception_4e/1x1
I0924 00:37:22.676465 24118 net.cpp:148] Top shape: 10 256 14 14 (501760)
I0924 00:37:22.676470 24118 net.cpp:156] Memory required for data: 496115200
I0924 00:37:22.676481 24118 layer_factory.hpp:77] Creating layer inception_4e/relu_1x1
I0924 00:37:22.676489 24118 net.cpp:91] Creating Layer inception_4e/relu_1x1
I0924 00:37:22.676494 24118 net.cpp:425] inception_4e/relu_1x1 <- inception_4e/1x1
I0924 00:37:22.676504 24118 net.cpp:386] inception_4e/relu_1x1 -> inception_4e/1x1 (in-place)
I0924 00:37:22.676899 24118 net.cpp:141] Setting up inception_4e/relu_1x1
I0924 00:37:22.676915 24118 net.cpp:148] Top shape: 10 256 14 14 (501760)
I0924 00:37:22.676919 24118 net.cpp:156] Memory required for data: 498122240
I0924 00:37:22.676924 24118 layer_factory.hpp:77] Creating layer inception_4e/3x3_reduce
I0924 00:37:22.676940 24118 net.cpp:91] Creating Layer inception_4e/3x3_reduce
I0924 00:37:22.676946 24118 net.cpp:425] inception_4e/3x3_reduce <- inception_4d/output_inception_4d/output_0_split_1
I0924 00:37:22.676955 24118 net.cpp:399] inception_4e/3x3_reduce -> inception_4e/3x3_reduce
I0924 00:37:22.679036 24118 net.cpp:141] Setting up inception_4e/3x3_reduce
I0924 00:37:22.679054 24118 net.cpp:148] Top shape: 10 160 14 14 (313600)
I0924 00:37:22.679059 24118 net.cpp:156] Memory required for data: 499376640
I0924 00:37:22.679067 24118 layer_factory.hpp:77] Creating layer inception_4e/relu_3x3_reduce
I0924 00:37:22.679082 24118 net.cpp:91] Creating Layer inception_4e/relu_3x3_reduce
I0924 00:37:22.679088 24118 net.cpp:425] inception_4e/relu_3x3_reduce <- inception_4e/3x3_reduce
I0924 00:37:22.679095 24118 net.cpp:386] inception_4e/relu_3x3_reduce -> inception_4e/3x3_reduce (in-place)
I0924 00:37:22.679334 24118 net.cpp:141] Setting up inception_4e/relu_3x3_reduce
I0924 00:37:22.679345 24118 net.cpp:148] Top shape: 10 160 14 14 (313600)
I0924 00:37:22.679349 24118 net.cpp:156] Memory required for data: 500631040
I0924 00:37:22.679354 24118 layer_factory.hpp:77] Creating layer inception_4e/3x3
I0924 00:37:22.679370 24118 net.cpp:91] Creating Layer inception_4e/3x3
I0924 00:37:22.679376 24118 net.cpp:425] inception_4e/3x3 <- inception_4e/3x3_reduce
I0924 00:37:22.679388 24118 net.cpp:399] inception_4e/3x3 -> inception_4e/3x3
I0924 00:37:22.685266 24118 net.cpp:141] Setting up inception_4e/3x3
I0924 00:37:22.685297 24118 net.cpp:148] Top shape: 10 320 14 14 (627200)
I0924 00:37:22.685302 24118 net.cpp:156] Memory required for data: 503139840
I0924 00:37:22.685312 24118 layer_factory.hpp:77] Creating layer inception_4e/relu_3x3
I0924 00:37:22.685320 24118 net.cpp:91] Creating Layer inception_4e/relu_3x3
I0924 00:37:22.685326 24118 net.cpp:425] inception_4e/relu_3x3 <- inception_4e/3x3
I0924 00:37:22.685336 24118 net.cpp:386] inception_4e/relu_3x3 -> inception_4e/3x3 (in-place)
I0924 00:37:22.685748 24118 net.cpp:141] Setting up inception_4e/relu_3x3
I0924 00:37:22.685761 24118 net.cpp:148] Top shape: 10 320 14 14 (627200)
I0924 00:37:22.685765 24118 net.cpp:156] Memory required for data: 505648640
I0924 00:37:22.685770 24118 layer_factory.hpp:77] Creating layer inception_4e/5x5_reduce
I0924 00:37:22.685786 24118 net.cpp:91] Creating Layer inception_4e/5x5_reduce
I0924 00:37:22.685792 24118 net.cpp:425] inception_4e/5x5_reduce <- inception_4d/output_inception_4d/output_0_split_2
I0924 00:37:22.685806 24118 net.cpp:399] inception_4e/5x5_reduce -> inception_4e/5x5_reduce
I0924 00:37:22.687250 24118 net.cpp:141] Setting up inception_4e/5x5_reduce
I0924 00:37:22.687284 24118 net.cpp:148] Top shape: 10 32 14 14 (62720)
I0924 00:37:22.687290 24118 net.cpp:156] Memory required for data: 505899520
I0924 00:37:22.687299 24118 layer_factory.hpp:77] Creating layer inception_4e/relu_5x5_reduce
I0924 00:37:22.687307 24118 net.cpp:91] Creating Layer inception_4e/relu_5x5_reduce
I0924 00:37:22.687314 24118 net.cpp:425] inception_4e/relu_5x5_reduce <- inception_4e/5x5_reduce
I0924 00:37:22.687322 24118 net.cpp:386] inception_4e/relu_5x5_reduce -> inception_4e/5x5_reduce (in-place)
I0924 00:37:22.687718 24118 net.cpp:141] Setting up inception_4e/relu_5x5_reduce
I0924 00:37:22.687732 24118 net.cpp:148] Top shape: 10 32 14 14 (62720)
I0924 00:37:22.687737 24118 net.cpp:156] Memory required for data: 506150400
I0924 00:37:22.687743 24118 layer_factory.hpp:77] Creating layer inception_4e/5x5
I0924 00:37:22.687758 24118 net.cpp:91] Creating Layer inception_4e/5x5
I0924 00:37:22.687764 24118 net.cpp:425] inception_4e/5x5 <- inception_4e/5x5_reduce
I0924 00:37:22.687772 24118 net.cpp:399] inception_4e/5x5 -> inception_4e/5x5
I0924 00:37:22.690630 24118 net.cpp:141] Setting up inception_4e/5x5
I0924 00:37:22.690659 24118 net.cpp:148] Top shape: 10 128 14 14 (250880)
I0924 00:37:22.690663 24118 net.cpp:156] Memory required for data: 507153920
I0924 00:37:22.690675 24118 layer_factory.hpp:77] Creating layer inception_4e/relu_5x5
I0924 00:37:22.690688 24118 net.cpp:91] Creating Layer inception_4e/relu_5x5
I0924 00:37:22.690696 24118 net.cpp:425] inception_4e/relu_5x5 <- inception_4e/5x5
I0924 00:37:22.690706 24118 net.cpp:386] inception_4e/relu_5x5 -> inception_4e/5x5 (in-place)
I0924 00:37:22.690943 24118 net.cpp:141] Setting up inception_4e/relu_5x5
I0924 00:37:22.690954 24118 net.cpp:148] Top shape: 10 128 14 14 (250880)
I0924 00:37:22.690958 24118 net.cpp:156] Memory required for data: 508157440
I0924 00:37:22.690964 24118 layer_factory.hpp:77] Creating layer inception_4e/pool
I0924 00:37:22.690976 24118 net.cpp:91] Creating Layer inception_4e/pool
I0924 00:37:22.690982 24118 net.cpp:425] inception_4e/pool <- inception_4d/output_inception_4d/output_0_split_3
I0924 00:37:22.690994 24118 net.cpp:399] inception_4e/pool -> inception_4e/pool
I0924 00:37:22.691067 24118 net.cpp:141] Setting up inception_4e/pool
I0924 00:37:22.691076 24118 net.cpp:148] Top shape: 10 528 14 14 (1034880)
I0924 00:37:22.691081 24118 net.cpp:156] Memory required for data: 512296960
I0924 00:37:22.691085 24118 layer_factory.hpp:77] Creating layer inception_4e/pool_proj
I0924 00:37:22.691105 24118 net.cpp:91] Creating Layer inception_4e/pool_proj
I0924 00:37:22.691112 24118 net.cpp:425] inception_4e/pool_proj <- inception_4e/pool
I0924 00:37:22.691120 24118 net.cpp:399] inception_4e/pool_proj -> inception_4e/pool_proj
I0924 00:37:22.693095 24118 net.cpp:141] Setting up inception_4e/pool_proj
I0924 00:37:22.693114 24118 net.cpp:148] Top shape: 10 128 14 14 (250880)
I0924 00:37:22.693119 24118 net.cpp:156] Memory required for data: 513300480
I0924 00:37:22.693127 24118 layer_factory.hpp:77] Creating layer inception_4e/relu_pool_proj
I0924 00:37:22.693140 24118 net.cpp:91] Creating Layer inception_4e/relu_pool_proj
I0924 00:37:22.693146 24118 net.cpp:425] inception_4e/relu_pool_proj <- inception_4e/pool_proj
I0924 00:37:22.693156 24118 net.cpp:386] inception_4e/relu_pool_proj -> inception_4e/pool_proj (in-place)
I0924 00:37:22.693559 24118 net.cpp:141] Setting up inception_4e/relu_pool_proj
I0924 00:37:22.693572 24118 net.cpp:148] Top shape: 10 128 14 14 (250880)
I0924 00:37:22.693577 24118 net.cpp:156] Memory required for data: 514304000
I0924 00:37:22.693581 24118 layer_factory.hpp:77] Creating layer inception_4e/output
I0924 00:37:22.693594 24118 net.cpp:91] Creating Layer inception_4e/output
I0924 00:37:22.693600 24118 net.cpp:425] inception_4e/output <- inception_4e/1x1
I0924 00:37:22.693606 24118 net.cpp:425] inception_4e/output <- inception_4e/3x3
I0924 00:37:22.693611 24118 net.cpp:425] inception_4e/output <- inception_4e/5x5
I0924 00:37:22.693617 24118 net.cpp:425] inception_4e/output <- inception_4e/pool_proj
I0924 00:37:22.693626 24118 net.cpp:399] inception_4e/output -> inception_4e/output
I0924 00:37:22.693671 24118 net.cpp:141] Setting up inception_4e/output
I0924 00:37:22.693681 24118 net.cpp:148] Top shape: 10 832 14 14 (1630720)
I0924 00:37:22.693684 24118 net.cpp:156] Memory required for data: 520826880
I0924 00:37:22.693689 24118 layer_factory.hpp:77] Creating layer pool4/3x3_s2
I0924 00:37:22.693702 24118 net.cpp:91] Creating Layer pool4/3x3_s2
I0924 00:37:22.693707 24118 net.cpp:425] pool4/3x3_s2 <- inception_4e/output
I0924 00:37:22.693714 24118 net.cpp:399] pool4/3x3_s2 -> pool4/3x3_s2
I0924 00:37:22.693784 24118 net.cpp:141] Setting up pool4/3x3_s2
I0924 00:37:22.693794 24118 net.cpp:148] Top shape: 10 832 7 7 (407680)
I0924 00:37:22.693797 24118 net.cpp:156] Memory required for data: 522457600
I0924 00:37:22.693801 24118 layer_factory.hpp:77] Creating layer pool4/3x3_s2_pool4/3x3_s2_0_split
I0924 00:37:22.693811 24118 net.cpp:91] Creating Layer pool4/3x3_s2_pool4/3x3_s2_0_split
I0924 00:37:22.693816 24118 net.cpp:425] pool4/3x3_s2_pool4/3x3_s2_0_split <- pool4/3x3_s2
I0924 00:37:22.693825 24118 net.cpp:399] pool4/3x3_s2_pool4/3x3_s2_0_split -> pool4/3x3_s2_pool4/3x3_s2_0_split_0
I0924 00:37:22.693833 24118 net.cpp:399] pool4/3x3_s2_pool4/3x3_s2_0_split -> pool4/3x3_s2_pool4/3x3_s2_0_split_1
I0924 00:37:22.693841 24118 net.cpp:399] pool4/3x3_s2_pool4/3x3_s2_0_split -> pool4/3x3_s2_pool4/3x3_s2_0_split_2
I0924 00:37:22.693850 24118 net.cpp:399] pool4/3x3_s2_pool4/3x3_s2_0_split -> pool4/3x3_s2_pool4/3x3_s2_0_split_3
I0924 00:37:22.693944 24118 net.cpp:141] Setting up pool4/3x3_s2_pool4/3x3_s2_0_split
I0924 00:37:22.693958 24118 net.cpp:148] Top shape: 10 832 7 7 (407680)
I0924 00:37:22.693963 24118 net.cpp:148] Top shape: 10 832 7 7 (407680)
I0924 00:37:22.693967 24118 net.cpp:148] Top shape: 10 832 7 7 (407680)
I0924 00:37:22.693972 24118 net.cpp:148] Top shape: 10 832 7 7 (407680)
I0924 00:37:22.693976 24118 net.cpp:156] Memory required for data: 528980480
I0924 00:37:22.693980 24118 layer_factory.hpp:77] Creating layer inception_5a/1x1
I0924 00:37:22.693996 24118 net.cpp:91] Creating Layer inception_5a/1x1
I0924 00:37:22.694001 24118 net.cpp:425] inception_5a/1x1 <- pool4/3x3_s2_pool4/3x3_s2_0_split_0
I0924 00:37:22.694010 24118 net.cpp:399] inception_5a/1x1 -> inception_5a/1x1
I0924 00:37:22.697547 24118 net.cpp:141] Setting up inception_5a/1x1
I0924 00:37:22.697566 24118 net.cpp:148] Top shape: 10 256 7 7 (125440)
I0924 00:37:22.697571 24118 net.cpp:156] Memory required for data: 529482240
I0924 00:37:22.697580 24118 layer_factory.hpp:77] Creating layer inception_5a/relu_1x1
I0924 00:37:22.697588 24118 net.cpp:91] Creating Layer inception_5a/relu_1x1
I0924 00:37:22.697594 24118 net.cpp:425] inception_5a/relu_1x1 <- inception_5a/1x1
I0924 00:37:22.697605 24118 net.cpp:386] inception_5a/relu_1x1 -> inception_5a/1x1 (in-place)
I0924 00:37:22.698006 24118 net.cpp:141] Setting up inception_5a/relu_1x1
I0924 00:37:22.698019 24118 net.cpp:148] Top shape: 10 256 7 7 (125440)
I0924 00:37:22.698022 24118 net.cpp:156] Memory required for data: 529984000
I0924 00:37:22.698027 24118 layer_factory.hpp:77] Creating layer inception_5a/3x3_reduce
I0924 00:37:22.698043 24118 net.cpp:91] Creating Layer inception_5a/3x3_reduce
I0924 00:37:22.698050 24118 net.cpp:425] inception_5a/3x3_reduce <- pool4/3x3_s2_pool4/3x3_s2_0_split_1
I0924 00:37:22.698061 24118 net.cpp:399] inception_5a/3x3_reduce -> inception_5a/3x3_reduce
I0924 00:37:22.701203 24118 net.cpp:141] Setting up inception_5a/3x3_reduce
I0924 00:37:22.701233 24118 net.cpp:148] Top shape: 10 160 7 7 (78400)
I0924 00:37:22.701239 24118 net.cpp:156] Memory required for data: 530297600
I0924 00:37:22.701248 24118 layer_factory.hpp:77] Creating layer inception_5a/relu_3x3_reduce
I0924 00:37:22.701261 24118 net.cpp:91] Creating Layer inception_5a/relu_3x3_reduce
I0924 00:37:22.701267 24118 net.cpp:425] inception_5a/relu_3x3_reduce <- inception_5a/3x3_reduce
I0924 00:37:22.701275 24118 net.cpp:386] inception_5a/relu_3x3_reduce -> inception_5a/3x3_reduce (in-place)
I0924 00:37:22.701520 24118 net.cpp:141] Setting up inception_5a/relu_3x3_reduce
I0924 00:37:22.701530 24118 net.cpp:148] Top shape: 10 160 7 7 (78400)
I0924 00:37:22.701535 24118 net.cpp:156] Memory required for data: 530611200
I0924 00:37:22.701540 24118 layer_factory.hpp:77] Creating layer inception_5a/3x3
I0924 00:37:22.701557 24118 net.cpp:91] Creating Layer inception_5a/3x3
I0924 00:37:22.701563 24118 net.cpp:425] inception_5a/3x3 <- inception_5a/3x3_reduce
I0924 00:37:22.701575 24118 net.cpp:399] inception_5a/3x3 -> inception_5a/3x3
I0924 00:37:22.707908 24118 net.cpp:141] Setting up inception_5a/3x3
I0924 00:37:22.707939 24118 net.cpp:148] Top shape: 10 320 7 7 (156800)
I0924 00:37:22.707945 24118 net.cpp:156] Memory required for data: 531238400
I0924 00:37:22.707955 24118 layer_factory.hpp:77] Creating layer inception_5a/relu_3x3
I0924 00:37:22.707967 24118 net.cpp:91] Creating Layer inception_5a/relu_3x3
I0924 00:37:22.707973 24118 net.cpp:425] inception_5a/relu_3x3 <- inception_5a/3x3
I0924 00:37:22.707980 24118 net.cpp:386] inception_5a/relu_3x3 -> inception_5a/3x3 (in-place)
I0924 00:37:22.708401 24118 net.cpp:141] Setting up inception_5a/relu_3x3
I0924 00:37:22.708413 24118 net.cpp:148] Top shape: 10 320 7 7 (156800)
I0924 00:37:22.708418 24118 net.cpp:156] Memory required for data: 531865600
I0924 00:37:22.708423 24118 layer_factory.hpp:77] Creating layer inception_5a/5x5_reduce
I0924 00:37:22.708442 24118 net.cpp:91] Creating Layer inception_5a/5x5_reduce
I0924 00:37:22.708448 24118 net.cpp:425] inception_5a/5x5_reduce <- pool4/3x3_s2_pool4/3x3_s2_0_split_2
I0924 00:37:22.708457 24118 net.cpp:399] inception_5a/5x5_reduce -> inception_5a/5x5_reduce
I0924 00:37:22.710034 24118 net.cpp:141] Setting up inception_5a/5x5_reduce
I0924 00:37:22.710063 24118 net.cpp:148] Top shape: 10 32 7 7 (15680)
I0924 00:37:22.710069 24118 net.cpp:156] Memory required for data: 531928320
I0924 00:37:22.710078 24118 layer_factory.hpp:77] Creating layer inception_5a/relu_5x5_reduce
I0924 00:37:22.710086 24118 net.cpp:91] Creating Layer inception_5a/relu_5x5_reduce
I0924 00:37:22.710093 24118 net.cpp:425] inception_5a/relu_5x5_reduce <- inception_5a/5x5_reduce
I0924 00:37:22.710103 24118 net.cpp:386] inception_5a/relu_5x5_reduce -> inception_5a/5x5_reduce (in-place)
I0924 00:37:22.710507 24118 net.cpp:141] Setting up inception_5a/relu_5x5_reduce
I0924 00:37:22.710520 24118 net.cpp:148] Top shape: 10 32 7 7 (15680)
I0924 00:37:22.710525 24118 net.cpp:156] Memory required for data: 531991040
I0924 00:37:22.710530 24118 layer_factory.hpp:77] Creating layer inception_5a/5x5
I0924 00:37:22.710546 24118 net.cpp:91] Creating Layer inception_5a/5x5
I0924 00:37:22.710552 24118 net.cpp:425] inception_5a/5x5 <- inception_5a/5x5_reduce
I0924 00:37:22.710564 24118 net.cpp:399] inception_5a/5x5 -> inception_5a/5x5
I0924 00:37:22.712817 24118 net.cpp:141] Setting up inception_5a/5x5
I0924 00:37:22.712836 24118 net.cpp:148] Top shape: 10 128 7 7 (62720)
I0924 00:37:22.712841 24118 net.cpp:156] Memory required for data: 532241920
I0924 00:37:22.712849 24118 layer_factory.hpp:77] Creating layer inception_5a/relu_5x5
I0924 00:37:22.712885 24118 net.cpp:91] Creating Layer inception_5a/relu_5x5
I0924 00:37:22.712893 24118 net.cpp:425] inception_5a/relu_5x5 <- inception_5a/5x5
I0924 00:37:22.712899 24118 net.cpp:386] inception_5a/relu_5x5 -> inception_5a/5x5 (in-place)
I0924 00:37:22.713141 24118 net.cpp:141] Setting up inception_5a/relu_5x5
I0924 00:37:22.713152 24118 net.cpp:148] Top shape: 10 128 7 7 (62720)
I0924 00:37:22.713157 24118 net.cpp:156] Memory required for data: 532492800
I0924 00:37:22.713162 24118 layer_factory.hpp:77] Creating layer inception_5a/pool
I0924 00:37:22.713173 24118 net.cpp:91] Creating Layer inception_5a/pool
I0924 00:37:22.713178 24118 net.cpp:425] inception_5a/pool <- pool4/3x3_s2_pool4/3x3_s2_0_split_3
I0924 00:37:22.713191 24118 net.cpp:399] inception_5a/pool -> inception_5a/pool
I0924 00:37:22.713263 24118 net.cpp:141] Setting up inception_5a/pool
I0924 00:37:22.713273 24118 net.cpp:148] Top shape: 10 832 7 7 (407680)
I0924 00:37:22.713276 24118 net.cpp:156] Memory required for data: 534123520
I0924 00:37:22.713280 24118 layer_factory.hpp:77] Creating layer inception_5a/pool_proj
I0924 00:37:22.713299 24118 net.cpp:91] Creating Layer inception_5a/pool_proj
I0924 00:37:22.713304 24118 net.cpp:425] inception_5a/pool_proj <- inception_5a/pool
I0924 00:37:22.713313 24118 net.cpp:399] inception_5a/pool_proj -> inception_5a/pool_proj
I0924 00:37:22.716267 24118 net.cpp:141] Setting up inception_5a/pool_proj
I0924 00:37:22.716285 24118 net.cpp:148] Top shape: 10 128 7 7 (62720)
I0924 00:37:22.716291 24118 net.cpp:156] Memory required for data: 534374400
I0924 00:37:22.716300 24118 layer_factory.hpp:77] Creating layer inception_5a/relu_pool_proj
I0924 00:37:22.716310 24118 net.cpp:91] Creating Layer inception_5a/relu_pool_proj
I0924 00:37:22.716315 24118 net.cpp:425] inception_5a/relu_pool_proj <- inception_5a/pool_proj
I0924 00:37:22.716322 24118 net.cpp:386] inception_5a/relu_pool_proj -> inception_5a/pool_proj (in-place)
I0924 00:37:22.716743 24118 net.cpp:141] Setting up inception_5a/relu_pool_proj
I0924 00:37:22.716755 24118 net.cpp:148] Top shape: 10 128 7 7 (62720)
I0924 00:37:22.716760 24118 net.cpp:156] Memory required for data: 534625280
I0924 00:37:22.716765 24118 layer_factory.hpp:77] Creating layer inception_5a/output
I0924 00:37:22.716774 24118 net.cpp:91] Creating Layer inception_5a/output
I0924 00:37:22.716780 24118 net.cpp:425] inception_5a/output <- inception_5a/1x1
I0924 00:37:22.716786 24118 net.cpp:425] inception_5a/output <- inception_5a/3x3
I0924 00:37:22.716792 24118 net.cpp:425] inception_5a/output <- inception_5a/5x5
I0924 00:37:22.716797 24118 net.cpp:425] inception_5a/output <- inception_5a/pool_proj
I0924 00:37:22.716804 24118 net.cpp:399] inception_5a/output -> inception_5a/output
I0924 00:37:22.716857 24118 net.cpp:141] Setting up inception_5a/output
I0924 00:37:22.716866 24118 net.cpp:148] Top shape: 10 832 7 7 (407680)
I0924 00:37:22.716871 24118 net.cpp:156] Memory required for data: 536256000
I0924 00:37:22.716876 24118 layer_factory.hpp:77] Creating layer inception_5a/output_inception_5a/output_0_split
I0924 00:37:22.716887 24118 net.cpp:91] Creating Layer inception_5a/output_inception_5a/output_0_split
I0924 00:37:22.716892 24118 net.cpp:425] inception_5a/output_inception_5a/output_0_split <- inception_5a/output
I0924 00:37:22.716899 24118 net.cpp:399] inception_5a/output_inception_5a/output_0_split -> inception_5a/output_inception_5a/output_0_split_0
I0924 00:37:22.716908 24118 net.cpp:399] inception_5a/output_inception_5a/output_0_split -> inception_5a/output_inception_5a/output_0_split_1
I0924 00:37:22.716917 24118 net.cpp:399] inception_5a/output_inception_5a/output_0_split -> inception_5a/output_inception_5a/output_0_split_2
I0924 00:37:22.716924 24118 net.cpp:399] inception_5a/output_inception_5a/output_0_split -> inception_5a/output_inception_5a/output_0_split_3
I0924 00:37:22.717032 24118 net.cpp:141] Setting up inception_5a/output_inception_5a/output_0_split
I0924 00:37:22.717041 24118 net.cpp:148] Top shape: 10 832 7 7 (407680)
I0924 00:37:22.717047 24118 net.cpp:148] Top shape: 10 832 7 7 (407680)
I0924 00:37:22.717052 24118 net.cpp:148] Top shape: 10 832 7 7 (407680)
I0924 00:37:22.717057 24118 net.cpp:148] Top shape: 10 832 7 7 (407680)
I0924 00:37:22.717061 24118 net.cpp:156] Memory required for data: 542778880
I0924 00:37:22.717066 24118 layer_factory.hpp:77] Creating layer inception_5b/1x1
I0924 00:37:22.717082 24118 net.cpp:91] Creating Layer inception_5b/1x1
I0924 00:37:22.717087 24118 net.cpp:425] inception_5b/1x1 <- inception_5a/output_inception_5a/output_0_split_0
I0924 00:37:22.717097 24118 net.cpp:399] inception_5b/1x1 -> inception_5b/1x1
I0924 00:37:22.721530 24118 net.cpp:141] Setting up inception_5b/1x1
I0924 00:37:22.721549 24118 net.cpp:148] Top shape: 10 384 7 7 (188160)
I0924 00:37:22.721554 24118 net.cpp:156] Memory required for data: 543531520
I0924 00:37:22.721563 24118 layer_factory.hpp:77] Creating layer inception_5b/relu_1x1
I0924 00:37:22.721573 24118 net.cpp:91] Creating Layer inception_5b/relu_1x1
I0924 00:37:22.721578 24118 net.cpp:425] inception_5b/relu_1x1 <- inception_5b/1x1
I0924 00:37:22.721590 24118 net.cpp:386] inception_5b/relu_1x1 -> inception_5b/1x1 (in-place)
I0924 00:37:22.721998 24118 net.cpp:141] Setting up inception_5b/relu_1x1
I0924 00:37:22.722012 24118 net.cpp:148] Top shape: 10 384 7 7 (188160)
I0924 00:37:22.722015 24118 net.cpp:156] Memory required for data: 544284160
I0924 00:37:22.722020 24118 layer_factory.hpp:77] Creating layer inception_5b/3x3_reduce
I0924 00:37:22.722038 24118 net.cpp:91] Creating Layer inception_5b/3x3_reduce
I0924 00:37:22.722043 24118 net.cpp:425] inception_5b/3x3_reduce <- inception_5a/output_inception_5a/output_0_split_1
I0924 00:37:22.722055 24118 net.cpp:399] inception_5b/3x3_reduce -> inception_5b/3x3_reduce
I0924 00:37:22.725404 24118 net.cpp:141] Setting up inception_5b/3x3_reduce
I0924 00:37:22.725422 24118 net.cpp:148] Top shape: 10 192 7 7 (94080)
I0924 00:37:22.725427 24118 net.cpp:156] Memory required for data: 544660480
I0924 00:37:22.725437 24118 layer_factory.hpp:77] Creating layer inception_5b/relu_3x3_reduce
I0924 00:37:22.725448 24118 net.cpp:91] Creating Layer inception_5b/relu_3x3_reduce
I0924 00:37:22.725455 24118 net.cpp:425] inception_5b/relu_3x3_reduce <- inception_5b/3x3_reduce
I0924 00:37:22.725462 24118 net.cpp:386] inception_5b/relu_3x3_reduce -> inception_5b/3x3_reduce (in-place)
I0924 00:37:22.725708 24118 net.cpp:141] Setting up inception_5b/relu_3x3_reduce
I0924 00:37:22.725718 24118 net.cpp:148] Top shape: 10 192 7 7 (94080)
I0924 00:37:22.725723 24118 net.cpp:156] Memory required for data: 545036800
I0924 00:37:22.725728 24118 layer_factory.hpp:77] Creating layer inception_5b/3x3
I0924 00:37:22.725746 24118 net.cpp:91] Creating Layer inception_5b/3x3
I0924 00:37:22.725752 24118 net.cpp:425] inception_5b/3x3 <- inception_5b/3x3_reduce
I0924 00:37:22.725761 24118 net.cpp:399] inception_5b/3x3 -> inception_5b/3x3
I0924 00:37:22.733687 24118 net.cpp:141] Setting up inception_5b/3x3
I0924 00:37:22.733716 24118 net.cpp:148] Top shape: 10 384 7 7 (188160)
I0924 00:37:22.733721 24118 net.cpp:156] Memory required for data: 545789440
I0924 00:37:22.733731 24118 layer_factory.hpp:77] Creating layer inception_5b/relu_3x3
I0924 00:37:22.733742 24118 net.cpp:91] Creating Layer inception_5b/relu_3x3
I0924 00:37:22.733748 24118 net.cpp:425] inception_5b/relu_3x3 <- inception_5b/3x3
I0924 00:37:22.733757 24118 net.cpp:386] inception_5b/relu_3x3 -> inception_5b/3x3 (in-place)
I0924 00:37:22.734201 24118 net.cpp:141] Setting up inception_5b/relu_3x3
I0924 00:37:22.734216 24118 net.cpp:148] Top shape: 10 384 7 7 (188160)
I0924 00:37:22.734221 24118 net.cpp:156] Memory required for data: 546542080
I0924 00:37:22.734226 24118 layer_factory.hpp:77] Creating layer inception_5b/5x5_reduce
I0924 00:37:22.734241 24118 net.cpp:91] Creating Layer inception_5b/5x5_reduce
I0924 00:37:22.734247 24118 net.cpp:425] inception_5b/5x5_reduce <- inception_5a/output_inception_5a/output_0_split_2
I0924 00:37:22.734259 24118 net.cpp:399] inception_5b/5x5_reduce -> inception_5b/5x5_reduce
I0924 00:37:22.736037 24118 net.cpp:141] Setting up inception_5b/5x5_reduce
I0924 00:37:22.736053 24118 net.cpp:148] Top shape: 10 48 7 7 (23520)
I0924 00:37:22.736058 24118 net.cpp:156] Memory required for data: 546636160
I0924 00:37:22.736080 24118 layer_factory.hpp:77] Creating layer inception_5b/relu_5x5_reduce
I0924 00:37:22.736093 24118 net.cpp:91] Creating Layer inception_5b/relu_5x5_reduce
I0924 00:37:22.736099 24118 net.cpp:425] inception_5b/relu_5x5_reduce <- inception_5b/5x5_reduce
I0924 00:37:22.736105 24118 net.cpp:386] inception_5b/relu_5x5_reduce -> inception_5b/5x5_reduce (in-place)
I0924 00:37:22.736518 24118 net.cpp:141] Setting up inception_5b/relu_5x5_reduce
I0924 00:37:22.736531 24118 net.cpp:148] Top shape: 10 48 7 7 (23520)
I0924 00:37:22.736536 24118 net.cpp:156] Memory required for data: 546730240
I0924 00:37:22.736541 24118 layer_factory.hpp:77] Creating layer inception_5b/5x5
I0924 00:37:22.736559 24118 net.cpp:91] Creating Layer inception_5b/5x5
I0924 00:37:22.736565 24118 net.cpp:425] inception_5b/5x5 <- inception_5b/5x5_reduce
I0924 00:37:22.736588 24118 net.cpp:399] inception_5b/5x5 -> inception_5b/5x5
I0924 00:37:22.739588 24118 net.cpp:141] Setting up inception_5b/5x5
I0924 00:37:22.739605 24118 net.cpp:148] Top shape: 10 128 7 7 (62720)
I0924 00:37:22.739610 24118 net.cpp:156] Memory required for data: 546981120
I0924 00:37:22.739620 24118 layer_factory.hpp:77] Creating layer inception_5b/relu_5x5
I0924 00:37:22.739632 24118 net.cpp:91] Creating Layer inception_5b/relu_5x5
I0924 00:37:22.739639 24118 net.cpp:425] inception_5b/relu_5x5 <- inception_5b/5x5
I0924 00:37:22.739646 24118 net.cpp:386] inception_5b/relu_5x5 -> inception_5b/5x5 (in-place)
I0924 00:37:22.739905 24118 net.cpp:141] Setting up inception_5b/relu_5x5
I0924 00:37:22.739917 24118 net.cpp:148] Top shape: 10 128 7 7 (62720)
I0924 00:37:22.739920 24118 net.cpp:156] Memory required for data: 547232000
I0924 00:37:22.739924 24118 layer_factory.hpp:77] Creating layer inception_5b/pool
I0924 00:37:22.739936 24118 net.cpp:91] Creating Layer inception_5b/pool
I0924 00:37:22.739941 24118 net.cpp:425] inception_5b/pool <- inception_5a/output_inception_5a/output_0_split_3
I0924 00:37:22.739953 24118 net.cpp:399] inception_5b/pool -> inception_5b/pool
I0924 00:37:22.740028 24118 net.cpp:141] Setting up inception_5b/pool
I0924 00:37:22.740037 24118 net.cpp:148] Top shape: 10 832 7 7 (407680)
I0924 00:37:22.740041 24118 net.cpp:156] Memory required for data: 548862720
I0924 00:37:22.740058 24118 layer_factory.hpp:77] Creating layer inception_5b/pool_proj
I0924 00:37:22.740077 24118 net.cpp:91] Creating Layer inception_5b/pool_proj
I0924 00:37:22.740083 24118 net.cpp:425] inception_5b/pool_proj <- inception_5b/pool
I0924 00:37:22.740092 24118 net.cpp:399] inception_5b/pool_proj -> inception_5b/pool_proj
I0924 00:37:22.743269 24118 net.cpp:141] Setting up inception_5b/pool_proj
I0924 00:37:22.743300 24118 net.cpp:148] Top shape: 10 128 7 7 (62720)
I0924 00:37:22.743306 24118 net.cpp:156] Memory required for data: 549113600
I0924 00:37:22.743315 24118 layer_factory.hpp:77] Creating layer inception_5b/relu_pool_proj
I0924 00:37:22.743327 24118 net.cpp:91] Creating Layer inception_5b/relu_pool_proj
I0924 00:37:22.743335 24118 net.cpp:425] inception_5b/relu_pool_proj <- inception_5b/pool_proj
I0924 00:37:22.743341 24118 net.cpp:386] inception_5b/relu_pool_proj -> inception_5b/pool_proj (in-place)
I0924 00:37:22.743777 24118 net.cpp:141] Setting up inception_5b/relu_pool_proj
I0924 00:37:22.743789 24118 net.cpp:148] Top shape: 10 128 7 7 (62720)
I0924 00:37:22.743793 24118 net.cpp:156] Memory required for data: 549364480
I0924 00:37:22.743798 24118 layer_factory.hpp:77] Creating layer inception_5b/output
I0924 00:37:22.743811 24118 net.cpp:91] Creating Layer inception_5b/output
I0924 00:37:22.743816 24118 net.cpp:425] inception_5b/output <- inception_5b/1x1
I0924 00:37:22.743824 24118 net.cpp:425] inception_5b/output <- inception_5b/3x3
I0924 00:37:22.743829 24118 net.cpp:425] inception_5b/output <- inception_5b/5x5
I0924 00:37:22.743834 24118 net.cpp:425] inception_5b/output <- inception_5b/pool_proj
I0924 00:37:22.743841 24118 net.cpp:399] inception_5b/output -> inception_5b/output
I0924 00:37:22.743891 24118 net.cpp:141] Setting up inception_5b/output
I0924 00:37:22.743901 24118 net.cpp:148] Top shape: 10 1024 7 7 (501760)
I0924 00:37:22.743906 24118 net.cpp:156] Memory required for data: 551371520
I0924 00:37:22.743909 24118 layer_factory.hpp:77] Creating layer pool5/7x7_s1
I0924 00:37:22.743924 24118 net.cpp:91] Creating Layer pool5/7x7_s1
I0924 00:37:22.743930 24118 net.cpp:425] pool5/7x7_s1 <- inception_5b/output
I0924 00:37:22.743940 24118 net.cpp:399] pool5/7x7_s1 -> pool5/7x7_s1
I0924 00:37:22.744253 24118 net.cpp:141] Setting up pool5/7x7_s1
I0924 00:37:22.744264 24118 net.cpp:148] Top shape: 10 1024 1 1 (10240)
I0924 00:37:22.744268 24118 net.cpp:156] Memory required for data: 551412480
I0924 00:37:22.744273 24118 layer_factory.hpp:77] Creating layer pool5/drop_7x7_s1
I0924 00:37:22.744292 24118 net.cpp:91] Creating Layer pool5/drop_7x7_s1
I0924 00:37:22.744297 24118 net.cpp:425] pool5/drop_7x7_s1 <- pool5/7x7_s1
I0924 00:37:22.744303 24118 net.cpp:386] pool5/drop_7x7_s1 -> pool5/7x7_s1 (in-place)
I0924 00:37:22.744354 24118 net.cpp:141] Setting up pool5/drop_7x7_s1
I0924 00:37:22.744375 24118 net.cpp:148] Top shape: 10 1024 1 1 (10240)
I0924 00:37:22.744379 24118 net.cpp:156] Memory required for data: 551453440
I0924 00:37:22.744385 24118 layer_factory.hpp:77] Creating layer loss3/classifier
I0924 00:37:22.744406 24118 net.cpp:91] Creating Layer loss3/classifier
I0924 00:37:22.744412 24118 net.cpp:425] loss3/classifier <- pool5/7x7_s1
I0924 00:37:22.744422 24118 net.cpp:399] loss3/classifier -> loss3/classifier
I0924 00:37:22.754360 24118 net.cpp:141] Setting up loss3/classifier
I0924 00:37:22.754381 24118 net.cpp:148] Top shape: 10 1000 (10000)
I0924 00:37:22.754386 24118 net.cpp:156] Memory required for data: 551493440
I0924 00:37:22.754410 24118 layer_factory.hpp:77] Creating layer prob
I0924 00:37:22.754420 24118 net.cpp:91] Creating Layer prob
I0924 00:37:22.754426 24118 net.cpp:425] prob <- loss3/classifier
I0924 00:37:22.754437 24118 net.cpp:399] prob -> prob
I0924 00:37:22.755017 24118 net.cpp:141] Setting up prob
I0924 00:37:22.755029 24118 net.cpp:148] Top shape: 10 1000 (10000)
I0924 00:37:22.755033 24118 net.cpp:156] Memory required for data: 551533440
I0924 00:37:22.755039 24118 net.cpp:219] prob does not need backward computation.
I0924 00:37:22.755043 24118 net.cpp:219] loss3/classifier does not need backward computation.
I0924 00:37:22.755048 24118 net.cpp:219] pool5/drop_7x7_s1 does not need backward computation.
I0924 00:37:22.755051 24118 net.cpp:219] pool5/7x7_s1 does not need backward computation.
…
