…
Java HotSpot(TM) 64-Bit Server VM warning: You have loaded library /tmp/cvld6306146151893154720/libopencv_java310.xine1.so which might have disabled stack guard. The VM will try to fix the stack guard now.
It's highly recommended that you fix the library with 'execstack -c <libfile>', or link it with '-z noexecstack'.
WARNING: Logging before InitGoogleLogging() is written to STDERR
I0713 13:44:50.838467 29885 net.cpp:49] Initializing net from parameters: 
name: "GoogleNet"
state {
  phase: TEST
}
layer {
  name: "data"
  type: "Input"
  top: "data"
  input_param {
    shape {
      dim: 10
      dim: 3
      dim: 224
      dim: 224
    }
  }
}
layer {
  name: "conv1/7x7_s2"
  type: "Convolution"
  bottom: "data"
  top: "conv1/7x7_s2"
  param {
    lr_mult: 1
    decay_mult: 1
  }
  param {
    lr_mult: 2
    decay_mult: 0
  }
  convolution_param {
    num_output: 64
    pad: 3
    kernel_size: 7
    stride: 2
    weight_filler {
      type: "xavier"
      std: 0.1
    }
    bias_filler {
      type: "constant"
      value: 0.2
    }
  }
}
layer {
  name: "conv1/relu_7x7"
  type: "ReLU"
  bottom: "conv1/7x7_s2"
  top: "conv1/7x7_s2"
}
layer {
  name: "pool1/3x3_s2"
  type: "Pooling"
  bottom: "conv1/7x7_s2"
  top: "pool1/3x3_s2"
  pooling_param {
    pool: MAX
    kernel_size: 3
    stride: 2
  }
}
layer {
  name: "pool1/norm1"
  type: "LRN"
  bottom: "pool1/3x3_s2"
  top: "pool1/norm1"
  lrn_param {
    local_size: 5
    alpha: 0.0001
    beta: 0.75
  }
}
layer {
  name: "conv2/3x3_reduce"
  type: "Convolution"
  bottom: "pool1/norm1"
  top: "conv2/3x3_reduce"
  param {
    lr_mult: 1
    decay_mult: 1
  }
  param {
    lr_mult: 2
    decay_mult: 0
  }
  convolution_param {
    num_output: 64
    kernel_size: 1
    weight_filler {
      type: "xavier"
      std: 0.1
    }
    bias_filler {
      type: "constant"
      value: 0.2
    }
  }
}
layer {
  name: "conv2/relu_3x3_reduce"
  type: "ReLU"
  bottom: "conv2/3x3_reduce"
  top: "conv2/3x3_reduce"
}
layer {
  name: "conv2/3x3"
  type: "Convolution"
  bottom: "conv2/3x3_reduce"
  top: "conv2/3x3"
  param {
    lr_mult: 1
    decay_mult: 1
  }
  param {
    lr_mult: 2
    decay_mult: 0
  }
  convolution_param {
    num_output: 192
    pad: 1
    kernel_size: 3
    weight_filler {
      type: "xavier"
      std: 0.03
    }
    bias_filler {
      type: "constant"
      value: 0.2
    }
  }
}
layer {
  name: "conv2/relu_3x3"
  type: "ReLU"
  bottom: "conv2/3x3"
  top: "conv2/3x3"
}
layer {
  name: "conv2/norm2"
  type: "LRN"
  bottom: "conv2/3x3"
  top: "conv2/norm2"
  lrn_param {
    local_size: 5
    alpha: 0.0001
    beta: 0.75
  }
}
layer {
  name: "pool2/3x3_s2"
  type: "Pooling"
  bottom: "conv2/norm2"
  top: "pool2/3x3_s2"
  pooling_param {
    pool: MAX
    kernel_size: 3
    stride: 2
  }
}
layer {
  name: "inception_3a/1x1"
  type: "Convolution"
  bottom: "pool2/3x3_s2"
  top: "inception_3a/1x1"
  param {
    lr_mult: 1
    decay_mult: 1
  }
  param {
    lr_mult: 2
    decay_mult: 0
  }
  convolution_param {
    num_output: 64
    kernel_size: 1
    weight_filler {
      type: "xavier"
      std: 0.03
    }
    bias_filler {
      type: "constant"
      value: 0.2
    }
  }
}
layer {
  name: "inception_3a/relu_1x1"
  type: "ReLU"
  bottom: "inception_3a/1x1"
  top: "inception_3a/1x1"
}
layer {
  name: "inception_3a/3x3_reduce"
  type: "Convolution"
  bottom: "pool2/3x3_s2"
  top: "inception_3a/3x3_reduce"
  param {
    lr_mult: 1
    decay_mult: 1
  }
  param {
    lr_mult: 2
    decay_mult: 0
  }
  convolution_param {
    num_output: 96
    kernel_size: 1
    weight_filler {
      type: "xavier"
      std: 0.09
    }
    bias_filler {
      type: "constant"
      value: 0.2
    }
  }
}
layer {
  name: "inception_3a/relu_3x3_reduce"
  type: "ReLU"
  bottom: "inception_3a/3x3_reduce"
  top: "inception_3a/3x3_reduce"
}
layer {
  name: "inception_3a/3x3"
  type: "Convolution"
  bottom: "inception_3a/3x3_reduce"
  top: "inception_3a/3x3"
  param {
    lr_mult: 1
    decay_mult: 1
  }
  param {
    lr_mult: 2
    decay_mult: 0
  }
  convolution_param {
    num_output: 128
    pad: 1
    kernel_size: 3
    weight_filler {
      type: "xavier"
      std: 0.03
    }
    bias_filler {
      type: "constant"
      value: 0.2
    }
  }
}
layer {
  name: "inception_3a/relu_3x3"
  type: "ReLU"
  bottom: "inception_3a/3x3"
  top: "inception_3a/3x3"
}
layer {
  name: "inception_3a/5x5_reduce"
  type: "Convolution"
  bottom: "pool2/3x3_s2"
  top: "inception_3a/5x5_reduce"
  param {
    lr_mult: 1
    decay_mult: 1
  }
  param {
    lr_mult: 2
    decay_mult: 0
  }
  convolution_param {
    num_output: 16
    kernel_size: 1
    weight_filler {
      type: "xavier"
      std: 0.2
    }
    bias_filler {
      type: "constant"
      value: 0.2
    }
  }
}
layer {
  name: "inception_3a/relu_5x5_reduce"
  type: "ReLU"
  bottom: "inception_3a/5x5_reduce"
  top: "inception_3a/5x5_reduce"
}
layer {
  name: "inception_3a/5x5"
  type: "Convolution"
  bottom: "inception_3a/5x5_reduce"
  top: "inception_3a/5x5"
  param {
    lr_mult: 1
    decay_mult: 1
  }
  param {
    lr_mult: 2
    decay_mult: 0
  }
  convolution_param {
    num_output: 32
    pad: 2
    kernel_size: 5
    weight_filler {
      type: "xavier"
      std: 0.03
    }
    bias_filler {
      type: "constant"
      value: 0.2
    }
  }
}
layer {
  name: "inception_3a/relu_5x5"
  type: "ReLU"
  bottom: "inception_3a/5x5"
  top: "inception_3a/5x5"
}
layer {
  name: "inception_3a/pool"
  type: "Pooling"
  bottom: "pool2/3x3_s2"
  top: "inception_3a/pool"
  pooling_param {
    pool: MAX
    kernel_size: 3
    stride: 1
    pad: 1
  }
}
layer {
  name: "inception_3a/pool_proj"
  type: "Convolution"
  bottom: "inception_3a/pool"
  top: "inception_3a/pool_proj"
  param {
    lr_mult: 1
    decay_mult: 1
  }
  param {
    lr_mult: 2
    decay_mult: 0
  }
  convolution_param {
    num_output: 32
    kernel_size: 1
    weight_filler {
      type: "xavier"
      std: 0.1
    }
    bias_filler {
      type: "constant"
      value: 0.2
    }
  }
}
layer {
  name: "inception_3a/relu_pool_proj"
  type: "ReLU"
  bottom: "inception_3a/pool_proj"
  top: "inception_3a/pool_proj"
}
layer {
  name: "inception_3a/output"
  type: "Concat"
  bottom: "inception_3a/1x1"
  bottom: "inception_3a/3x3"
  bottom: "inception_3a/5x5"
  bottom: "inception_3a/pool_proj"
  top: "inception_3a/output"
}
layer {
  name: "inception_3b/1x1"
  type: "Convolution"
  bottom: "inception_3a/output"
  top: "inception_3b/1x1"
  param {
    lr_mult: 1
    decay_mult: 1
  }
  param {
    lr_mult: 2
    decay_mult: 0
  }
  convolution_param {
    num_output: 128
    kernel_size: 1
    weight_filler {
      type: "xavier"
      std: 0.03
    }
    bias_filler {
      type: "constant"
      value: 0.2
    }
  }
}
layer {
  name: "inception_3b/relu_1x1"
  type: "ReLU"
  bottom: "inception_3b/1x1"
  top: "inception_3b/1x1"
}
layer {
  name: "inception_3b/3x3_reduce"
  type: "Convolution"
  bottom: "inception_3a/output"
  top: "inception_3b/3x3_reduce"
  param {
    lr_mult: 1
    decay_mult: 1
  }
  param {
    lr_mult: 2
    decay_mult: 0
  }
  convolution_param {
    num_output: 128
    kernel_size: 1
    weight_filler {
      type: "xavier"
      std: 0.09
    }
    bias_filler {
      type: "constant"
      value: 0.2
    }
  }
}
layer {
  name: "inception_3b/relu_3x3_reduce"
  type: "ReLU"
  bottom: "inception_3b/3x3_reduce"
  top: "inception_3b/3x3_reduce"
}
layer {
  name: "inception_3b/3x3"
  type: "Convolution"
  bottom: "inception_3b/3x3_reduce"
  top: "inception_3b/3x3"
  param {
    lr_mult: 1
    decay_mult: 1
  }
  param {
    lr_mult: 2
    decay_mult: 0
  }
  convolution_param {
    num_output: 192
    pad: 1
    kernel_size: 3
    weight_filler {
      type: "xavier"
      std: 0.03
    }
    bias_filler {
      type: "constant"
      value: 0.2
    }
  }
}
layer {
  name: "inception_3b/relu_3x3"
  type: "ReLU"
  bottom: "inception_3b/3x3"
  top: "inception_3b/3x3"
}
layer {
  name: "inception_3b/5x5_reduce"
  type: "Convolution"
  bottom: "inception_3a/output"
  top: "inception_3b/5x5_reduce"
  param {
    lr_mult: 1
    decay_mult: 1
  }
  param {
    lr_mult: 2
    decay_mult: 0
  }
  convolution_param {
    num_output: 32
    kernel_size: 1
    weight_filler {
      type: "xavier"
      std: 0.2
    }
    bias_filler {
      type: "constant"
      value: 0.2
    }
  }
}
layer {
  name: "inception_3b/relu_5x5_reduce"
  type: "ReLU"
  bottom: "inception_3b/5x5_reduce"
  top: "inception_3b/5x5_reduce"
}
layer {
  name: "inception_3b/5x5"
  type: "Convolution"
  bottom: "inception_3b/5x5_reduce"
  top: "inception_3b/5x5"
  param {
    lr_mult: 1
    decay_mult: 1
  }
  param {
    lr_mult: 2
    decay_mult: 0
  }
  convolution_param {
    num_output: 96
    pad: 2
    kernel_size: 5
    weight_filler {
      type: "xavier"
      std: 0.03
    }
    bias_filler {
      type: "constant"
      value: 0.2
    }
  }
}
layer {
  name: "inception_3b/relu_5x5"
  type: "ReLU"
  bottom: "inception_3b/5x5"
  top: "inception_3b/5x5"
}
layer {
  name: "inception_3b/pool"
  type: "Pooling"
  bottom: "inception_3a/output"
  top: "inception_3b/pool"
  pooling_param {
    pool: MAX
    kernel_size: 3
    stride: 1
    pad: 1
  }
}
layer {
  name: "inception_3b/pool_proj"
  type: "Convolution"
  bottom: "inception_3b/pool"
  top: "inception_3b/pool_proj"
  param {
    lr_mult: 1
    decay_mult: 1
  }
  param {
    lr_mult: 2
    decay_mult: 0
  }
  convolution_param {
    num_output: 64
    kernel_size: 1
    weight_filler {
      type: "xavier"
      std: 0.1
    }
    bias_filler {
      type: "constant"
      value: 0.2
    }
  }
}
layer {
  name: "inception_3b/relu_pool_proj"
  type: "ReLU"
  bottom: "inception_3b/pool_proj"
  top: "inception_3b/pool_proj"
}
layer {
  name: "inception_3b/output"
  type: "Concat"
  bottom: "inception_3b/1x1"
  bottom: "inception_3b/3x3"
  bottom: "inception_3b/5x5"
  bottom: "inception_3b/pool_proj"
  top: "inception_3b/output"
}
layer {
  name: "pool3/3x3_s2"
  type: "Pooling"
  bottom: "inception_3b/output"
  top: "pool3/3x3_s2"
  pooling_param {
    pool: MAX
    kernel_size: 3
    stride: 2
  }
}
layer {
  name: "inception_4a/1x1"
  type: "Convolution"
  bottom: "pool3/3x3_s2"
  top: "inception_4a/1x1"
  param {
    lr_mult: 1
    decay_mult: 1
  }
  param {
    lr_mult: 2
    decay_mult: 0
  }
  convolution_param {
    num_output: 192
    kernel_size: 1
    weight_filler {
      type: "xavier"
      std: 0.03
    }
    bias_filler {
      type: "constant"
      value: 0.2
    }
  }
}
layer {
  name: "inception_4a/relu_1x1"
  type: "ReLU"
  bottom: "inception_4a/1x1"
  top: "inception_4a/1x1"
}
layer {
  name: "inception_4a/3x3_reduce"
  type: "Convolution"
  bottom: "pool3/3x3_s2"
  top: "inception_4a/3x3_reduce"
  param {
    lr_mult: 1
    decay_mult: 1
  }
  param {
    lr_mult: 2
    decay_mult: 0
  }
  convolution_param {
    num_output: 96
    kernel_size: 1
    weight_filler {
      type: "xavier"
      std: 0.09
    }
    bias_filler {
      type: "constant"
      value: 0.2
    }
  }
}
layer {
  name: "inception_4a/relu_3x3_reduce"
  type: "ReLU"
  bottom: "inception_4a/3x3_reduce"
  top: "inception_4a/3x3_reduce"
}
layer {
  name: "inception_4a/3x3"
  type: "Convolution"
  bottom: "inception_4a/3x3_reduce"
  top: "inception_4a/3x3"
  param {
    lr_mult: 1
    decay_mult: 1
  }
  param {
    lr_mult: 2
    decay_mult: 0
  }
  convolution_param {
    num_output: 208
    pad: 1
    kernel_size: 3
    weight_filler {
      type: "xavier"
      std: 0.03
    }
    bias_filler {
      type: "constant"
      value: 0.2
    }
  }
}
layer {
  name: "inception_4a/relu_3x3"
  type: "ReLU"
  bottom: "inception_4a/3x3"
  top: "inception_4a/3x3"
}
layer {
  name: "inception_4a/5x5_reduce"
  type: "Convolution"
  bottom: "pool3/3x3_s2"
  top: "inception_4a/5x5_reduce"
  param {
    lr_mult: 1
    decay_mult: 1
  }
  param {
    lr_mult: 2
    decay_mult: 0
  }
  convolution_param {
    num_output: 16
    kernel_size: 1
    weight_filler {
      type: "xavier"
      std: 0.2
    }
    bias_filler {
      type: "constant"
      value: 0.2
    }
  }
}
layer {
  name: "inception_4a/relu_5x5_reduce"
  type: "ReLU"
  bottom: "inception_4a/5x5_reduce"
  top: "inception_4a/5x5_reduce"
}
layer {
  name: "inception_4a/5x5"
  type: "Convolution"
  bottom: "inception_4a/5x5_reduce"
  top: "inception_4a/5x5"
  param {
    lr_mult: 1
    decay_mult: 1
  }
  param {
    lr_mult: 2
    decay_mult: 0
  }
  convolution_param {
    num_output: 48
    pad: 2
    kernel_size: 5
    weight_filler {
      type: "xavier"
      std: 0.03
    }
    bias_filler {
      type: "constant"
      value: 0.2
    }
  }
}
layer {
  name: "inception_4a/relu_5x5"
  type: "ReLU"
  bottom: "inception_4a/5x5"
  top: "inception_4a/5x5"
}
layer {
  name: "inception_4a/pool"
  type: "Pooling"
  bottom: "pool3/3x3_s2"
  top: "inception_4a/pool"
  pooling_param {
    pool: MAX
    kernel_size: 3
    stride: 1
    pad: 1
  }
}
layer {
  name: "inception_4a/pool_proj"
  type: "Convolution"
  bottom: "inception_4a/pool"
  top: "inception_4a/pool_proj"
  param {
    lr_mult: 1
    decay_mult: 1
  }
  param {
    lr_mult: 2
    decay_mult: 0
  }
  convolution_param {
    num_output: 64
    kernel_size: 1
    weight_filler {
      type: "xavier"
      std: 0.1
    }
    bias_filler {
      type: "constant"
      value: 0.2
    }
  }
}
layer {
  name: "inception_4a/relu_pool_proj"
  type: "ReLU"
  bottom: "inception_4a/pool_proj"
  top: "inception_4a/pool_proj"
}
layer {
  name: "inception_4a/output"
  type: "Concat"
  bottom: "inception_4a/1x1"
  bottom: "inception_4a/3x3"
  bottom: "inception_4a/5x5"
  bottom: "inception_4a/pool_proj"
  top: "inception_4a/output"
}
layer {
  name: "inception_4b/1x1"
  type: "Convolution"
  bottom: "inception_4a/output"
  top: "inception_4b/1x1"
  param {
    lr_mult: 1
    decay_mult: 1
  }
  param {
    lr_mult: 2
    decay_mult: 0
  }
  convolution_param {
    num_output: 160
    kernel_size: 1
    weight_filler {
      type: "xavier"
      std: 0.03
    }
    bias_filler {
      type: "constant"
      value: 0.2
    }
  }
}
layer {
  name: "inception_4b/relu_1x1"
  type: "ReLU"
  bottom: "inception_4b/1x1"
  top: "inception_4b/1x1"
}
layer {
  name: "inception_4b/3x3_reduce"
  type: "Convolution"
  bottom: "inception_4a/output"
  top: "inception_4b/3x3_reduce"
  param {
    lr_mult: 1
    decay_mult: 1
  }
  param {
    lr_mult: 2
    decay_mult: 0
  }
  convolution_param {
    num_output: 112
    kernel_size: 1
    weight_filler {
      type: "xavier"
      std: 0.09
    }
    bias_filler {
      type: "constant"
      value: 0.2
    }
  }
}
layer {
  name: "inception_4b/relu_3x3_reduce"
  type: "ReLU"
  bottom: "inception_4b/3x3_reduce"
  top: "inception_4b/3x3_reduce"
}
layer {
  name: "inception_4b/3x3"
  type: "Convolution"
  bottom: "inception_4b/3x3_reduce"
  top: "inception_4b/3x3"
  param {
    lr_mult: 1
    decay_mult: 1
  }
  param {
    lr_mult: 2
    decay_mult: 0
  }
  convolution_param {
    num_output: 224
    pad: 1
    kernel_size: 3
    weight_filler {
      type: "xavier"
      std: 0.03
    }
    bias_filler {
      type: "constant"
      value: 0.2
    }
  }
}
layer {
  name: "inception_4b/relu_3x3"
  type: "ReLU"
  bottom: "inception_4b/3x3"
  top: "inception_4b/3x3"
}
layer {
  name: "inception_4b/5x5_reduce"
  type: "Convolution"
  bottom: "inception_4a/output"
  top: "inception_4b/5x5_reduce"
  param {
    lr_mult: 1
    decay_mult: 1
  }
  param {
    lr_mult: 2
    decay_mult: 0
  }
  convolution_param {
    num_output: 24
    kernel_size: 1
    weight_filler {
      type: "xavier"
      std: 0.2
    }
    bias_filler {
      type: "constant"
      value: 0.2
    }
  }
}
layer {
  name: "inception_4b/relu_5x5_reduce"
  type: "ReLU"
  bottom: "inception_4b/5x5_reduce"
  top: "inception_4b/5x5_reduce"
}
layer {
  name: "inception_4b/5x5"
  type: "Convolution"
  bottom: "inception_4b/5x5_reduce"
  top: "inception_4b/5x5"
  param {
    lr_mult: 1
    decay_mult: 1
  }
  param {
    lr_mult: 2
    decay_mult: 0
  }
  convolution_param {
    num_output: 64
    pad: 2
    kernel_size: 5
    weight_filler {
      type: "xavier"
      std: 0.03
    }
    bias_filler {
      type: "constant"
      value: 0.2
    }
  }
}
layer {
  name: "inception_4b/relu_5x5"
  type: "ReLU"
  bottom: "inception_4b/5x5"
  top: "inception_4b/5x5"
}
layer {
  name: "inception_4b/pool"
  type: "Pooling"
  bottom: "inception_4a/output"
  top: "inception_4b/pool"
  pooling_param {
    pool: MAX
    kernel_size: 3
    stride: 1
    pad: 1
  }
}
layer {
  name: "inception_4b/pool_proj"
  type: "Convolution"
  bottom: "inception_4b/pool"
  top: "inception_4b/pool_proj"
  param {
    lr_mult: 1
    decay_mult: 1
  }
  param {
    lr_mult: 2
    decay_mult: 0
  }
  convolution_param {
    num_output: 64
    kernel_size: 1
    weight_filler {
      type: "xavier"
      std: 0.1
    }
    bias_filler {
      type: "constant"
      value: 0.2
    }
  }
}
layer {
  name: "inception_4b/relu_pool_proj"
  type: "ReLU"
  bottom: "inception_4b/pool_proj"
  top: "inception_4b/pool_proj"
}
layer {
  name: "inception_4b/output"
  type: "Concat"
  bottom: "inception_4b/1x1"
  bottom: "inception_4b/3x3"
  bottom: "inception_4b/5x5"
  bottom: "inception_4b/pool_proj"
  top: "inception_4b/output"
}
layer {
  name: "inception_4c/1x1"
  type: "Convolution"
  bottom: "inception_4b/output"
  top: "inception_4c/1x1"
  param {
    lr_mult: 1
    decay_mult: 1
  }
  param {
    lr_mult: 2
    decay_mult: 0
  }
  convolution_param {
    num_output: 128
    kernel_size: 1
    weight_filler {
      type: "xavier"
      std: 0.03
    }
    bias_filler {
      type: "constant"
      value: 0.2
    }
  }
}
layer {
  name: "inception_4c/relu_1x1"
  type: "ReLU"
  bottom: "inception_4c/1x1"
  top: "inception_4c/1x1"
}
layer {
  name: "inception_4c/3x3_reduce"
  type: "Convolution"
  bottom: "inception_4b/output"
  top: "inception_4c/3x3_reduce"
  param {
    lr_mult: 1
    decay_mult: 1
  }
  param {
    lr_mult: 2
    decay_mult: 0
  }
  convolution_param {
    num_output: 128
    kernel_size: 1
    weight_filler {
      type: "xavier"
      std: 0.09
    }
    bias_filler {
      type: "constant"
      value: 0.2
    }
  }
}
layer {
  name: "inception_4c/relu_3x3_reduce"
  type: "ReLU"
  bottom: "inception_4c/3x3_reduce"
  top: "inception_4c/3x3_reduce"
}
layer {
  name: "inception_4c/3x3"
  type: "Convolution"
  bottom: "inception_4c/3x3_reduce"
  top: "inception_4c/3x3"
  param {
    lr_mult: 1
    decay_mult: 1
  }
  param {
    lr_mult: 2
    decay_mult: 0
  }
  convolution_param {
    num_output: 256
    pad: 1
    kernel_size: 3
    weight_filler {
      type: "xavier"
      std: 0.03
    }
    bias_filler {
      type: "constant"
      value: 0.2
    }
  }
}
layer {
  name: "inception_4c/relu_3x3"
  type: "ReLU"
  bottom: "inception_4c/3x3"
  top: "inception_4c/3x3"
}
layer {
  name: "inception_4c/5x5_reduce"
  type: "Convolution"
  bottom: "inception_4b/output"
  top: "inception_4c/5x5_reduce"
  param {
    lr_mult: 1
    decay_mult: 1
  }
  param {
    lr_mult: 2
    decay_mult: 0
  }
  convolution_param {
    num_output: 24
    kernel_size: 1
    weight_filler {
      type: "xavier"
      std: 0.2
    }
    bias_filler {
      type: "constant"
      value: 0.2
    }
  }
}
layer {
  name: "inception_4c/relu_5x5_reduce"
  type: "ReLU"
  bottom: "inception_4c/5x5_reduce"
  top: "inception_4c/5x5_reduce"
}
layer {
  name: "inception_4c/5x5"
  type: "Convolution"
  bottom: "inception_4c/5x5_reduce"
  top: "inception_4c/5x5"
  param {
    lr_mult: 1
    decay_mult: 1
  }
  param {
    lr_mult: 2
    decay_mult: 0
  }
  convolution_param {
    num_output: 64
    pad: 2
    kernel_size: 5
    weight_filler {
      type: "xavier"
      std: 0.03
    }
    bias_filler {
      type: "constant"
      value: 0.2
    }
  }
}
layer {
  name: "inception_4c/relu_5x5"
  type: "ReLU"
  bottom: "inception_4c/5x5"
  top: "inception_4c/5x5"
}
layer {
  name: "inception_4c/pool"
  type: "Pooling"
  bottom: "inception_4b/output"
  top: "inception_4c/pool"
  pooling_param {
    pool: MAX
    kernel_size: 3
    stride: 1
    pad: 1
  }
}
layer {
  name: "inception_4c/pool_proj"
  type: "Convolution"
  bottom: "inception_4c/pool"
  top: "inception_4c/pool_proj"
  param {
    lr_mult: 1
    decay_mult: 1
  }
  param {
    lr_mult: 2
    decay_mult: 0
  }
  convolution_param {
    num_output: 64
    kernel_size: 1
    weight_filler {
      type: "xavier"
      std: 0.1
    }
    bias_filler {
      type: "constant"
      value: 0.2
    }
  }
}
layer {
  name: "inception_4c/relu_pool_proj"
  type: "ReLU"
  bottom: "inception_4c/pool_proj"
  top: "inception_4c/pool_proj"
}
layer {
  name: "inception_4c/output"
  type: "Concat"
  bottom: "inception_4c/1x1"
  bottom: "inception_4c/3x3"
  bottom: "inception_4c/5x5"
  bottom: "inception_4c/pool_proj"
  top: "inception_4c/output"
}
layer {
  name: "inception_4d/1x1"
  type: "Convolution"
  bottom: "inception_4c/output"
  top: "inception_4d/1x1"
  param {
    lr_mult: 1
    decay_mult: 1
  }
  param {
    lr_mult: 2
    decay_mult: 0
  }
  convolution_param {
    num_output: 112
    kernel_size: 1
    weight_filler {
      type: "xavier"
      std: 0.03
    }
    bias_filler {
      type: "constant"
      value: 0.2
    }
  }
}
layer {
  name: "inception_4d/relu_1x1"
  type: "ReLU"
  bottom: "inception_4d/1x1"
  top: "inception_4d/1x1"
}
layer {
  name: "inception_4d/3x3_reduce"
  type: "Convolution"
  bottom: "inception_4c/output"
  top: "inception_4d/3x3_reduce"
  param {
    lr_mult: 1
    decay_mult: 1
  }
  param {
    lr_mult: 2
    decay_mult: 0
  }
  convolution_param {
    num_output: 144
    kernel_size: 1
    weight_filler {
      type: "xavier"
      std: 0.09
    }
    bias_filler {
      type: "constant"
      value: 0.2
    }
  }
}
layer {
  name: "inception_4d/relu_3x3_reduce"
  type: "ReLU"
  bottom: "inception_4d/3x3_reduce"
  top: "inception_4d/3x3_reduce"
}
layer {
  name: "inception_4d/3x3"
  type: "Convolution"
  bottom: "inception_4d/3x3_reduce"
  top: "inception_4d/3x3"
  param {
    lr_mult: 1
    decay_mult: 1
  }
  param {
    lr_mult: 2
    decay_mult: 0
  }
  convolution_param {
    num_output: 288
    pad: 1
    kernel_size: 3
    weight_filler {
      type: "xavier"
      std: 0.03
    }
    bias_filler {
      type: "constant"
      value: 0.2
    }
  }
}
layer {
  name: "inception_4d/relu_3x3"
  type: "ReLU"
  bottom: "inception_4d/3x3"
  top: "inception_4d/3x3"
}
layer {
  name: "inception_4d/5x5_reduce"
  type: "Convolution"
  bottom: "inception_4c/output"
  top: "inception_4d/5x5_reduce"
  param {
    lr_mult: 1
    decay_mult: 1
  }
  param {
    lr_mult: 2
    decay_mult: 0
  }
  convolution_param {
    num_output: 32
    kernel_size: 1
    weight_filler {
      type: "xavier"
      std: 0.2
    }
    bias_filler {
      type: "constant"
      value: 0.2
    }
  }
}
layer {
  name: "inception_4d/relu_5x5_reduce"
  type: "ReLU"
  bottom: "inception_4d/5x5_reduce"
  top: "inception_4d/5x5_reduce"
}
layer {
  name: "inception_4d/5x5"
  type: "Convolution"
  bottom: "inception_4d/5x5_reduce"
  top: "inception_4d/5x5"
  param {
    lr_mult: 1
    decay_mult: 1
  }
  param {
    lr_mult: 2
    decay_mult: 0
  }
  convolution_param {
    num_output: 64
    pad: 2
    kernel_size: 5
    weight_filler {
      type: "xavier"
      std: 0.03
    }
    bias_filler {
      type: "constant"
      value: 0.2
    }
  }
}
layer {
  name: "inception_4d/relu_5x5"
  type: "ReLU"
  bottom: "inception_4d/5x5"
  top: "inception_4d/5x5"
}
layer {
  name: "inception_4d/pool"
  type: "Pooling"
  bottom: "inception_4c/output"
  top: "inception_4d/pool"
  pooling_param {
    pool: MAX
    kernel_size: 3
    stride: 1
    pad: 1
  }
}
layer {
  name: "inception_4d/pool_proj"
  type: "Convolution"
  bottom: "inception_4d/pool"
  top: "inception_4d/pool_proj"
  param {
    lr_mult: 1
    decay_mult: 1
  }
  param {
    lr_mult: 2
    decay_mult: 0
  }
  convolution_param {
    num_output: 64
    kernel_size: 1
    weight_filler {
      type: "xavier"
      std: 0.1
    }
    bias_filler {
      type: "constant"
      value: 0.2
    }
  }
}
layer {
  name: "inception_4d/relu_pool_proj"
  type: "ReLU"
  bottom: "inception_4d/pool_proj"
  top: "inception_4d/pool_proj"
}
layer {
  name: "inception_4d/output"
  type: "Concat"
  bottom: "inception_4d/1x1"
  bottom: "inception_4d/3x3"
  bottom: "inception_4d/5x5"
  bottom: "inception_4d/pool_proj"
  top: "inception_4d/output"
}
layer {
  name: "inception_4e/1x1"
  type: "Convolution"
  bottom: "inception_4d/output"
  top: "inception_4e/1x1"
  param {
    lr_mult: 1
    decay_mult: 1
  }
  param {
    lr_mult: 2
    decay_mult: 0
  }
  convolution_param {
    num_output: 256
    kernel_size: 1
    weight_filler {
      type: "xavier"
      std: 0.03
    }
    bias_filler {
      type: "constant"
      value: 0.2
    }
  }
}
layer {
  name: "inception_4e/relu_1x1"
  type: "ReLU"
  bottom: "inception_4e/1x1"
  top: "inception_4e/1x1"
}
layer {
  name: "inception_4e/3x3_reduce"
  type: "Convolution"
  bottom: "inception_4d/output"
  top: "inception_4e/3x3_reduce"
  param {
    lr_mult: 1
    decay_mult: 1
  }
  param {
    lr_mult: 2
    decay_mult: 0
  }
  convolution_param {
    num_output: 160
    kernel_size: 1
    weight_filler {
      type: "xavier"
      std: 0.09
    }
    bias_filler {
      type: "constant"
      value: 0.2
    }
  }
}
layer {
  name: "inception_4e/relu_3x3_reduce"
  type: "ReLU"
  bottom: "inception_4e/3x3_reduce"
  top: "inception_4e/3x3_reduce"
}
layer {
  name: "inception_4e/3x3"
  type: "Convolution"
  bottom: "inception_4e/3x3_reduce"
  top: "inception_4e/3x3"
  param {
    lr_mult: 1
    decay_mult: 1
  }
  param {
    lr_mult: 2
    decay_mult: 0
  }
  convolution_param {
    num_output: 320
    pad: 1
    kernel_size: 3
    weight_filler {
      type: "xavier"
      std: 0.03
    }
    bias_filler {
      type: "constant"
      value: 0.2
    }
  }
}
layer {
  name: "inception_4e/relu_3x3"
  type: "ReLU"
  bottom: "inception_4e/3x3"
  top: "inception_4e/3x3"
}
layer {
  name: "inception_4e/5x5_reduce"
  type: "Convolution"
  bottom: "inception_4d/output"
  top: "inception_4e/5x5_reduce"
  param {
    lr_mult: 1
    decay_mult: 1
  }
  param {
    lr_mult: 2
    decay_mult: 0
  }
  convolution_param {
    num_output: 32
    kernel_size: 1
    weight_filler {
      type: "xavier"
      std: 0.2
    }
    bias_filler {
      type: "constant"
      value: 0.2
    }
  }
}
layer {
  name: "inception_4e/relu_5x5_reduce"
  type: "ReLU"
  bottom: "inception_4e/5x5_reduce"
  top: "inception_4e/5x5_reduce"
}
layer {
  name: "inception_4e/5x5"
  type: "Convolution"
  bottom: "inception_4e/5x5_reduce"
  top: "inception_4e/5x5"
  param {
    lr_mult: 1
    decay_mult: 1
  }
  param {
    lr_mult: 2
    decay_mult: 0
  }
  convolution_param {
    num_output: 128
    pad: 2
    kernel_size: 5
    weight_filler {
      type: "xavier"
      std: 0.03
    }
    bias_filler {
      type: "constant"
      value: 0.2
    }
  }
}
layer {
  name: "inception_4e/relu_5x5"
  type: "ReLU"
  bottom: "inception_4e/5x5"
  top: "inception_4e/5x5"
}
layer {
  name: "inception_4e/pool"
  type: "Pooling"
  bottom: "inception_4d/output"
  top: "inception_4e/pool"
  pooling_param {
    pool: MAX
    kernel_size: 3
    stride: 1
    pad: 1
  }
}
layer {
  name: "inception_4e/pool_proj"
  type: "Convolution"
  bottom: "inception_4e/pool"
  top: "inception_4e/pool_proj"
  param {
    lr_mult: 1
    decay_mult: 1
  }
  param {
    lr_mult: 2
    decay_mult: 0
  }
  convolution_param {
    num_output: 128
    kernel_size: 1
    weight_filler {
      type: "xavier"
      std: 0.1
    }
    bias_filler {
      type: "constant"
      value: 0.2
    }
  }
}
layer {
  name: "inception_4e/relu_pool_proj"
  type: "ReLU"
  bottom: "inception_4e/pool_proj"
  top: "inception_4e/pool_proj"
}
layer {
  name: "inception_4e/output"
  type: "Concat"
  bottom: "inception_4e/1x1"
  bottom: "inception_4e/3x3"
  bottom: "inception_4e/5x5"
  bottom: "inception_4e/pool_proj"
  top: "inception_4e/output"
}
layer {
  name: "pool4/3x3_s2"
  type: "Pooling"
  bottom: "inception_4e/output"
  top: "pool4/3x3_s2"
  pooling_param {
    pool: MAX
    kernel_size: 3
    stride: 2
  }
}
layer {
  name: "inception_5a/1x1"
  type: "Convolution"
  bottom: "pool4/3x3_s2"
  top: "inception_5a/1x1"
  param {
    lr_mult: 1
    decay_mult: 1
  }
  param {
    lr_mult: 2
    decay_mult: 0
  }
  convolution_param {
    num_output: 256
    kernel_size: 1
    weight_filler {
      type: "xavier"
      std: 0.03
    }
    bias_filler {
      type: "constant"
      value: 0.2
    }
  }
}
layer {
  name: "inception_5a/relu_1x1"
  type: "ReLU"
  bottom: "inception_5a/1x1"
  top: "inception_5a/1x1"
}
layer {
  name: "inception_5a/3x3_reduce"
  type: "Convolution"
  bottom: "pool4/3x3_s2"
  top: "inception_5a/3x3_reduce"
  param {
    lr_mult: 1
    decay_mult: 1
  }
  param {
    lr_mult: 2
    decay_mult: 0
  }
  convolution_param {
    num_output: 160
    kernel_size: 1
    weight_filler {
      type: "xavier"
      std: 0.09
    }
    bias_filler {
      type: "constant"
      value: 0.2
    }
  }
}
layer {
  name: "inception_5a/relu_3x3_reduce"
  type: "ReLU"
  bottom: "inception_5a/3x3_reduce"
  top: "inception_5a/3x3_reduce"
}
layer {
  name: "inception_5a/3x3"
  type: "Convolution"
  bottom: "inception_5a/3x3_reduce"
  top: "inception_5a/3x3"
  param {
    lr_mult: 1
    decay_mult: 1
  }
  param {
    lr_mult: 2
    decay_mult: 0
  }
  convolution_param {
    num_output: 320
    pad: 1
    kernel_size: 3
    weight_filler {
      type: "xavier"
      std: 0.03
    }
    bias_filler {
      type: "constant"
      value: 0.2
    }
  }
}
layer {
  name: "inception_5a/relu_3x3"
  type: "ReLU"
  bottom: "inception_5a/3x3"
  top: "inception_5a/3x3"
}
layer {
  name: "inception_5a/5x5_reduce"
  type: "Convolution"
  bottom: "pool4/3x3_s2"
  top: "inception_5a/5x5_reduce"
  param {
    lr_mult: 1
    decay_mult: 1
  }
  param {
    lr_mult: 2
    decay_mult: 0
  }
  convolution_param {
    num_output: 32
    kernel_size: 1
    weight_filler {
      type: "xavier"
      std: 0.2
    }
    bias_filler {
      type: "constant"
      value: 0.2
    }
I0713 13:44:50.839465 29885 layer_factory.hpp:77] Creating layer data
I0713 13:44:50.839499 29885 net.cpp:91] Creating Layer data
I0713 13:44:50.839511 29885 net.cpp:399] data -> data
I0713 13:44:51.424968 29885 net.cpp:141] Setting up data
I0713 13:44:51.425077 29885 net.cpp:148] Top shape: 10 3 224 224 (1505280)
I0713 13:44:51.425086 29885 net.cpp:156] Memory required for data: 6021120
I0713 13:44:51.425107 29885 layer_factory.hpp:77] Creating layer conv1/7x7_s2
I0713 13:44:51.425155 29885 net.cpp:91] Creating Layer conv1/7x7_s2
I0713 13:44:51.425164 29885 net.cpp:425] conv1/7x7_s2 <- data
I0713 13:44:51.425179 29885 net.cpp:399] conv1/7x7_s2 -> conv1/7x7_s2
I0713 13:44:51.644872 29885 net.cpp:141] Setting up conv1/7x7_s2
I0713 13:44:51.644917 29885 net.cpp:148] Top shape: 10 64 112 112 (8028160)
I0713 13:44:51.644922 29885 net.cpp:156] Memory required for data: 38133760
I0713 13:44:51.644948 29885 layer_factory.hpp:77] Creating layer conv1/relu_7x7
I0713 13:44:51.644965 29885 net.cpp:91] Creating Layer conv1/relu_7x7
I0713 13:44:51.644973 29885 net.cpp:425] conv1/relu_7x7 <- conv1/7x7_s2
I0713 13:44:51.644980 29885 net.cpp:386] conv1/relu_7x7 -> conv1/7x7_s2 (in-place)
I0713 13:44:51.645671 29885 net.cpp:141] Setting up conv1/relu_7x7
I0713 13:44:51.645685 29885 net.cpp:148] Top shape: 10 64 112 112 (8028160)
I0713 13:44:51.645690 29885 net.cpp:156] Memory required for data: 70246400
I0713 13:44:51.645695 29885 layer_factory.hpp:77] Creating layer pool1/3x3_s2
I0713 13:44:51.645709 29885 net.cpp:91] Creating Layer pool1/3x3_s2
I0713 13:44:51.645714 29885 net.cpp:425] pool1/3x3_s2 <- conv1/7x7_s2
I0713 13:44:51.645721 29885 net.cpp:399] pool1/3x3_s2 -> pool1/3x3_s2
I0713 13:44:51.645797 29885 net.cpp:141] Setting up pool1/3x3_s2
I0713 13:44:51.645807 29885 net.cpp:148] Top shape: 10 64 56 56 (2007040)
I0713 13:44:51.645812 29885 net.cpp:156] Memory required for data: 78274560
I0713 13:44:51.645817 29885 layer_factory.hpp:77] Creating layer pool1/norm1
I0713 13:44:51.645833 29885 net.cpp:91] Creating Layer pool1/norm1
I0713 13:44:51.645838 29885 net.cpp:425] pool1/norm1 <- pool1/3x3_s2
I0713 13:44:51.645845 29885 net.cpp:399] pool1/norm1 -> pool1/norm1
I0713 13:44:51.646559 29885 net.cpp:141] Setting up pool1/norm1
I0713 13:44:51.646571 29885 net.cpp:148] Top shape: 10 64 56 56 (2007040)
I0713 13:44:51.646576 29885 net.cpp:156] Memory required for data: 86302720
I0713 13:44:51.646581 29885 layer_factory.hpp:77] Creating layer conv2/3x3_reduce
I0713 13:44:51.646603 29885 net.cpp:91] Creating Layer conv2/3x3_reduce
I0713 13:44:51.646608 29885 net.cpp:425] conv2/3x3_reduce <- pool1/norm1
I0713 13:44:51.646616 29885 net.cpp:399] conv2/3x3_reduce -> conv2/3x3_reduce
I0713 13:44:51.649164 29885 net.cpp:141] Setting up conv2/3x3_reduce
I0713 13:44:51.649185 29885 net.cpp:148] Top shape: 10 64 56 56 (2007040)
I0713 13:44:51.649190 29885 net.cpp:156] Memory required for data: 94330880
I0713 13:44:51.649202 29885 layer_factory.hpp:77] Creating layer conv2/relu_3x3_reduce
I0713 13:44:51.649212 29885 net.cpp:91] Creating Layer conv2/relu_3x3_reduce
I0713 13:44:51.649217 29885 net.cpp:425] conv2/relu_3x3_reduce <- conv2/3x3_reduce
I0713 13:44:51.649224 29885 net.cpp:386] conv2/relu_3x3_reduce -> conv2/3x3_reduce (in-place)
I0713 13:44:51.649912 29885 net.cpp:141] Setting up conv2/relu_3x3_reduce
I0713 13:44:51.649927 29885 net.cpp:148] Top shape: 10 64 56 56 (2007040)
I0713 13:44:51.649932 29885 net.cpp:156] Memory required for data: 102359040
I0713 13:44:51.649937 29885 layer_factory.hpp:77] Creating layer conv2/3x3
I0713 13:44:51.649956 29885 net.cpp:91] Creating Layer conv2/3x3
I0713 13:44:51.649961 29885 net.cpp:425] conv2/3x3 <- conv2/3x3_reduce
I0713 13:44:51.649969 29885 net.cpp:399] conv2/3x3 -> conv2/3x3
I0713 13:44:51.654453 29885 net.cpp:141] Setting up conv2/3x3
I0713 13:44:51.654470 29885 net.cpp:148] Top shape: 10 192 56 56 (6021120)
I0713 13:44:51.654476 29885 net.cpp:156] Memory required for data: 126443520
I0713 13:44:51.654489 29885 layer_factory.hpp:77] Creating layer conv2/relu_3x3
I0713 13:44:51.654502 29885 net.cpp:91] Creating Layer conv2/relu_3x3
I0713 13:44:51.654508 29885 net.cpp:425] conv2/relu_3x3 <- conv2/3x3
I0713 13:44:51.654515 29885 net.cpp:386] conv2/relu_3x3 -> conv2/3x3 (in-place)
I0713 13:44:51.654757 29885 net.cpp:141] Setting up conv2/relu_3x3
I0713 13:44:51.654768 29885 net.cpp:148] Top shape: 10 192 56 56 (6021120)
I0713 13:44:51.654772 29885 net.cpp:156] Memory required for data: 150528000
I0713 13:44:51.654778 29885 layer_factory.hpp:77] Creating layer conv2/norm2
I0713 13:44:51.654786 29885 net.cpp:91] Creating Layer conv2/norm2
I0713 13:44:51.654791 29885 net.cpp:425] conv2/norm2 <- conv2/3x3
I0713 13:44:51.654801 29885 net.cpp:399] conv2/norm2 -> conv2/norm2
I0713 13:44:51.655540 29885 net.cpp:141] Setting up conv2/norm2
I0713 13:44:51.655556 29885 net.cpp:148] Top shape: 10 192 56 56 (6021120)
I0713 13:44:51.655561 29885 net.cpp:156] Memory required for data: 174612480
I0713 13:44:51.655566 29885 layer_factory.hpp:77] Creating layer pool2/3x3_s2
I0713 13:44:51.655583 29885 net.cpp:91] Creating Layer pool2/3x3_s2
I0713 13:44:51.655588 29885 net.cpp:425] pool2/3x3_s2 <- conv2/norm2
I0713 13:44:51.655596 29885 net.cpp:399] pool2/3x3_s2 -> pool2/3x3_s2
I0713 13:44:51.655661 29885 net.cpp:141] Setting up pool2/3x3_s2
I0713 13:44:51.655673 29885 net.cpp:148] Top shape: 10 192 28 28 (1505280)
I0713 13:44:51.655676 29885 net.cpp:156] Memory required for data: 180633600
I0713 13:44:51.655680 29885 layer_factory.hpp:77] Creating layer pool2/3x3_s2_pool2/3x3_s2_0_split
I0713 13:44:51.655697 29885 net.cpp:91] Creating Layer pool2/3x3_s2_pool2/3x3_s2_0_split
I0713 13:44:51.655702 29885 net.cpp:425] pool2/3x3_s2_pool2/3x3_s2_0_split <- pool2/3x3_s2
I0713 13:44:51.655710 29885 net.cpp:399] pool2/3x3_s2_pool2/3x3_s2_0_split -> pool2/3x3_s2_pool2/3x3_s2_0_split_0
I0713 13:44:51.655720 29885 net.cpp:399] pool2/3x3_s2_pool2/3x3_s2_0_split -> pool2/3x3_s2_pool2/3x3_s2_0_split_1
I0713 13:44:51.655730 29885 net.cpp:399] pool2/3x3_s2_pool2/3x3_s2_0_split -> pool2/3x3_s2_pool2/3x3_s2_0_split_2
I0713 13:44:51.655736 29885 net.cpp:399] pool2/3x3_s2_pool2/3x3_s2_0_split -> pool2/3x3_s2_pool2/3x3_s2_0_split_3
I0713 13:44:51.655813 29885 net.cpp:141] Setting up pool2/3x3_s2_pool2/3x3_s2_0_split
I0713 13:44:51.655822 29885 net.cpp:148] Top shape: 10 192 28 28 (1505280)
I0713 13:44:51.655828 29885 net.cpp:148] Top shape: 10 192 28 28 (1505280)
I0713 13:44:51.655833 29885 net.cpp:148] Top shape: 10 192 28 28 (1505280)
I0713 13:44:51.655838 29885 net.cpp:148] Top shape: 10 192 28 28 (1505280)
I0713 13:44:51.655843 29885 net.cpp:156] Memory required for data: 204718080
I0713 13:44:51.655846 29885 layer_factory.hpp:77] Creating layer inception_3a/1x1
I0713 13:44:51.655864 29885 net.cpp:91] Creating Layer inception_3a/1x1
I0713 13:44:51.655869 29885 net.cpp:425] inception_3a/1x1 <- pool2/3x3_s2_pool2/3x3_s2_0_split_0
I0713 13:44:51.655895 29885 net.cpp:399] inception_3a/1x1 -> inception_3a/1x1
I0713 13:44:51.659600 29885 net.cpp:141] Setting up inception_3a/1x1
I0713 13:44:51.659631 29885 net.cpp:148] Top shape: 10 64 28 28 (501760)
I0713 13:44:51.659637 29885 net.cpp:156] Memory required for data: 206725120
I0713 13:44:51.659647 29885 layer_factory.hpp:77] Creating layer inception_3a/relu_1x1
I0713 13:44:51.659657 29885 net.cpp:91] Creating Layer inception_3a/relu_1x1
I0713 13:44:51.659662 29885 net.cpp:425] inception_3a/relu_1x1 <- inception_3a/1x1
I0713 13:44:51.659668 29885 net.cpp:386] inception_3a/relu_1x1 -> inception_3a/1x1 (in-place)
I0713 13:44:51.659909 29885 net.cpp:141] Setting up inception_3a/relu_1x1
I0713 13:44:51.659919 29885 net.cpp:148] Top shape: 10 64 28 28 (501760)
I0713 13:44:51.659924 29885 net.cpp:156] Memory required for data: 208732160
I0713 13:44:51.659929 29885 layer_factory.hpp:77] Creating layer inception_3a/3x3_reduce
I0713 13:44:51.659945 29885 net.cpp:91] Creating Layer inception_3a/3x3_reduce
I0713 13:44:51.659950 29885 net.cpp:425] inception_3a/3x3_reduce <- pool2/3x3_s2_pool2/3x3_s2_0_split_1
I0713 13:44:51.659962 29885 net.cpp:399] inception_3a/3x3_reduce -> inception_3a/3x3_reduce
I0713 13:44:51.663174 29885 net.cpp:141] Setting up inception_3a/3x3_reduce
I0713 13:44:51.663204 29885 net.cpp:148] Top shape: 10 96 28 28 (752640)
I0713 13:44:51.663209 29885 net.cpp:156] Memory required for data: 211742720
I0713 13:44:51.663223 29885 layer_factory.hpp:77] Creating layer inception_3a/relu_3x3_reduce
I0713 13:44:51.663239 29885 net.cpp:91] Creating Layer inception_3a/relu_3x3_reduce
I0713 13:44:51.663256 29885 net.cpp:425] inception_3a/relu_3x3_reduce <- inception_3a/3x3_reduce
I0713 13:44:51.663264 29885 net.cpp:386] inception_3a/relu_3x3_reduce -> inception_3a/3x3_reduce (in-place)
I0713 13:44:51.663501 29885 net.cpp:141] Setting up inception_3a/relu_3x3_reduce
I0713 13:44:51.663513 29885 net.cpp:148] Top shape: 10 96 28 28 (752640)
I0713 13:44:51.663518 29885 net.cpp:156] Memory required for data: 214753280
I0713 13:44:51.663523 29885 layer_factory.hpp:77] Creating layer inception_3a/3x3
I0713 13:44:51.663544 29885 net.cpp:91] Creating Layer inception_3a/3x3
I0713 13:44:51.663550 29885 net.cpp:425] inception_3a/3x3 <- inception_3a/3x3_reduce
I0713 13:44:51.663563 29885 net.cpp:399] inception_3a/3x3 -> inception_3a/3x3
I0713 13:44:51.666357 29885 net.cpp:141] Setting up inception_3a/3x3
I0713 13:44:51.666388 29885 net.cpp:148] Top shape: 10 128 28 28 (1003520)
I0713 13:44:51.666394 29885 net.cpp:156] Memory required for data: 218767360
I0713 13:44:51.666404 29885 layer_factory.hpp:77] Creating layer inception_3a/relu_3x3
I0713 13:44:51.666414 29885 net.cpp:91] Creating Layer inception_3a/relu_3x3
I0713 13:44:51.666419 29885 net.cpp:425] inception_3a/relu_3x3 <- inception_3a/3x3
I0713 13:44:51.666425 29885 net.cpp:386] inception_3a/relu_3x3 -> inception_3a/3x3 (in-place)
I0713 13:44:51.667176 29885 net.cpp:141] Setting up inception_3a/relu_3x3
I0713 13:44:51.667189 29885 net.cpp:148] Top shape: 10 128 28 28 (1003520)
I0713 13:44:51.667194 29885 net.cpp:156] Memory required for data: 222781440
I0713 13:44:51.667201 29885 layer_factory.hpp:77] Creating layer inception_3a/5x5_reduce
I0713 13:44:51.667222 29885 net.cpp:91] Creating Layer inception_3a/5x5_reduce
I0713 13:44:51.667227 29885 net.cpp:425] inception_3a/5x5_reduce <- pool2/3x3_s2_pool2/3x3_s2_0_split_2
I0713 13:44:51.667237 29885 net.cpp:399] inception_3a/5x5_reduce -> inception_3a/5x5_reduce
I0713 13:44:51.669368 29885 net.cpp:141] Setting up inception_3a/5x5_reduce
I0713 13:44:51.669397 29885 net.cpp:148] Top shape: 10 16 28 28 (125440)
I0713 13:44:51.669402 29885 net.cpp:156] Memory required for data: 223283200
I0713 13:44:51.669414 29885 layer_factory.hpp:77] Creating layer inception_3a/relu_5x5_reduce
I0713 13:44:51.669427 29885 net.cpp:91] Creating Layer inception_3a/relu_5x5_reduce
I0713 13:44:51.669433 29885 net.cpp:425] inception_3a/relu_5x5_reduce <- inception_3a/5x5_reduce
I0713 13:44:51.669440 29885 net.cpp:386] inception_3a/relu_5x5_reduce -> inception_3a/5x5_reduce (in-place)
I0713 13:44:51.669679 29885 net.cpp:141] Setting up inception_3a/relu_5x5_reduce
I0713 13:44:51.669689 29885 net.cpp:148] Top shape: 10 16 28 28 (125440)
I0713 13:44:51.669694 29885 net.cpp:156] Memory required for data: 223784960
I0713 13:44:51.669698 29885 layer_factory.hpp:77] Creating layer inception_3a/5x5
I0713 13:44:51.669718 29885 net.cpp:91] Creating Layer inception_3a/5x5
I0713 13:44:51.669723 29885 net.cpp:425] inception_3a/5x5 <- inception_3a/5x5_reduce
I0713 13:44:51.669734 29885 net.cpp:399] inception_3a/5x5 -> inception_3a/5x5
I0713 13:44:51.672900 29885 net.cpp:141] Setting up inception_3a/5x5
I0713 13:44:51.672919 29885 net.cpp:148] Top shape: 10 32 28 28 (250880)
I0713 13:44:51.672922 29885 net.cpp:156] Memory required for data: 224788480
I0713 13:44:51.672936 29885 layer_factory.hpp:77] Creating layer inception_3a/relu_5x5
I0713 13:44:51.672948 29885 net.cpp:91] Creating Layer inception_3a/relu_5x5
I0713 13:44:51.672955 29885 net.cpp:425] inception_3a/relu_5x5 <- inception_3a/5x5
I0713 13:44:51.672961 29885 net.cpp:386] inception_3a/relu_5x5 -> inception_3a/5x5 (in-place)
I0713 13:44:51.673203 29885 net.cpp:141] Setting up inception_3a/relu_5x5
I0713 13:44:51.673214 29885 net.cpp:148] Top shape: 10 32 28 28 (250880)
I0713 13:44:51.673218 29885 net.cpp:156] Memory required for data: 225792000
I0713 13:44:51.673225 29885 layer_factory.hpp:77] Creating layer inception_3a/pool
I0713 13:44:51.673238 29885 net.cpp:91] Creating Layer inception_3a/pool
I0713 13:44:51.673243 29885 net.cpp:425] inception_3a/pool <- pool2/3x3_s2_pool2/3x3_s2_0_split_3
I0713 13:44:51.673259 29885 net.cpp:399] inception_3a/pool -> inception_3a/pool
I0713 13:44:51.673327 29885 net.cpp:141] Setting up inception_3a/pool
I0713 13:44:51.673336 29885 net.cpp:148] Top shape: 10 192 28 28 (1505280)
I0713 13:44:51.673341 29885 net.cpp:156] Memory required for data: 231813120
I0713 13:44:51.673344 29885 layer_factory.hpp:77] Creating layer inception_3a/pool_proj
I0713 13:44:51.673367 29885 net.cpp:91] Creating Layer inception_3a/pool_proj
I0713 13:44:51.673372 29885 net.cpp:425] inception_3a/pool_proj <- inception_3a/pool
I0713 13:44:51.673380 29885 net.cpp:399] inception_3a/pool_proj -> inception_3a/pool_proj
I0713 13:44:51.675408 29885 net.cpp:141] Setting up inception_3a/pool_proj
I0713 13:44:51.675426 29885 net.cpp:148] Top shape: 10 32 28 28 (250880)
I0713 13:44:51.675431 29885 net.cpp:156] Memory required for data: 232816640
I0713 13:44:51.675447 29885 layer_factory.hpp:77] Creating layer inception_3a/relu_pool_proj
I0713 13:44:51.675457 29885 net.cpp:91] Creating Layer inception_3a/relu_pool_proj
I0713 13:44:51.675462 29885 net.cpp:425] inception_3a/relu_pool_proj <- inception_3a/pool_proj
I0713 13:44:51.675470 29885 net.cpp:386] inception_3a/relu_pool_proj -> inception_3a/pool_proj (in-place)
I0713 13:44:51.676170 29885 net.cpp:141] Setting up inception_3a/relu_pool_proj
I0713 13:44:51.676200 29885 net.cpp:148] Top shape: 10 32 28 28 (250880)
I0713 13:44:51.676205 29885 net.cpp:156] Memory required for data: 233820160
I0713 13:44:51.676211 29885 layer_factory.hpp:77] Creating layer inception_3a/output
I0713 13:44:51.676229 29885 net.cpp:91] Creating Layer inception_3a/output
I0713 13:44:51.676245 29885 net.cpp:425] inception_3a/output <- inception_3a/1x1
I0713 13:44:51.676254 29885 net.cpp:425] inception_3a/output <- inception_3a/3x3
I0713 13:44:51.676259 29885 net.cpp:425] inception_3a/output <- inception_3a/5x5
I0713 13:44:51.676264 29885 net.cpp:425] inception_3a/output <- inception_3a/pool_proj
I0713 13:44:51.676270 29885 net.cpp:399] inception_3a/output -> inception_3a/output
I0713 13:44:51.676316 29885 net.cpp:141] Setting up inception_3a/output
I0713 13:44:51.676326 29885 net.cpp:148] Top shape: 10 256 28 28 (2007040)
I0713 13:44:51.676329 29885 net.cpp:156] Memory required for data: 241848320
I0713 13:44:51.676336 29885 layer_factory.hpp:77] Creating layer inception_3a/output_inception_3a/output_0_split
I0713 13:44:51.676344 29885 net.cpp:91] Creating Layer inception_3a/output_inception_3a/output_0_split
I0713 13:44:51.676349 29885 net.cpp:425] inception_3a/output_inception_3a/output_0_split <- inception_3a/output
I0713 13:44:51.676358 29885 net.cpp:399] inception_3a/output_inception_3a/output_0_split -> inception_3a/output_inception_3a/output_0_split_0
I0713 13:44:51.676367 29885 net.cpp:399] inception_3a/output_inception_3a/output_0_split -> inception_3a/output_inception_3a/output_0_split_1
I0713 13:44:51.676375 29885 net.cpp:399] inception_3a/output_inception_3a/output_0_split -> inception_3a/output_inception_3a/output_0_split_2
I0713 13:44:51.676383 29885 net.cpp:399] inception_3a/output_inception_3a/output_0_split -> inception_3a/output_inception_3a/output_0_split_3
I0713 13:44:51.676458 29885 net.cpp:141] Setting up inception_3a/output_inception_3a/output_0_split
I0713 13:44:51.676467 29885 net.cpp:148] Top shape: 10 256 28 28 (2007040)
I0713 13:44:51.676473 29885 net.cpp:148] Top shape: 10 256 28 28 (2007040)
I0713 13:44:51.676478 29885 net.cpp:148] Top shape: 10 256 28 28 (2007040)
I0713 13:44:51.676482 29885 net.cpp:148] Top shape: 10 256 28 28 (2007040)
I0713 13:44:51.676486 29885 net.cpp:156] Memory required for data: 273960960
I0713 13:44:51.676491 29885 layer_factory.hpp:77] Creating layer inception_3b/1x1
I0713 13:44:51.676506 29885 net.cpp:91] Creating Layer inception_3b/1x1
I0713 13:44:51.676512 29885 net.cpp:425] inception_3b/1x1 <- inception_3a/output_inception_3a/output_0_split_0
I0713 13:44:51.676523 29885 net.cpp:399] inception_3b/1x1 -> inception_3b/1x1
I0713 13:44:51.679050 29885 net.cpp:141] Setting up inception_3b/1x1
I0713 13:44:51.679081 29885 net.cpp:148] Top shape: 10 128 28 28 (1003520)
I0713 13:44:51.679087 29885 net.cpp:156] Memory required for data: 277975040
I0713 13:44:51.679098 29885 layer_factory.hpp:77] Creating layer inception_3b/relu_1x1
I0713 13:44:51.679111 29885 net.cpp:91] Creating Layer inception_3b/relu_1x1
I0713 13:44:51.679118 29885 net.cpp:425] inception_3b/relu_1x1 <- inception_3b/1x1
I0713 13:44:51.679126 29885 net.cpp:386] inception_3b/relu_1x1 -> inception_3b/1x1 (in-place)
I0713 13:44:51.679369 29885 net.cpp:141] Setting up inception_3b/relu_1x1
I0713 13:44:51.679381 29885 net.cpp:148] Top shape: 10 128 28 28 (1003520)
I0713 13:44:51.679385 29885 net.cpp:156] Memory required for data: 281989120
I0713 13:44:51.679390 29885 layer_factory.hpp:77] Creating layer inception_3b/3x3_reduce
I0713 13:44:51.679409 29885 net.cpp:91] Creating Layer inception_3b/3x3_reduce
I0713 13:44:51.679415 29885 net.cpp:425] inception_3b/3x3_reduce <- inception_3a/output_inception_3a/output_0_split_1
I0713 13:44:51.679427 29885 net.cpp:399] inception_3b/3x3_reduce -> inception_3b/3x3_reduce
I0713 13:44:51.681720 29885 net.cpp:141] Setting up inception_3b/3x3_reduce
I0713 13:44:51.681738 29885 net.cpp:148] Top shape: 10 128 28 28 (1003520)
I0713 13:44:51.681743 29885 net.cpp:156] Memory required for data: 286003200
I0713 13:44:51.681751 29885 layer_factory.hpp:77] Creating layer inception_3b/relu_3x3_reduce
I0713 13:44:51.681766 29885 net.cpp:91] Creating Layer inception_3b/relu_3x3_reduce
I0713 13:44:51.681771 29885 net.cpp:425] inception_3b/relu_3x3_reduce <- inception_3b/3x3_reduce
I0713 13:44:51.681779 29885 net.cpp:386] inception_3b/relu_3x3_reduce -> inception_3b/3x3_reduce (in-place)
I0713 13:44:51.682008 29885 net.cpp:141] Setting up inception_3b/relu_3x3_reduce
I0713 13:44:51.682018 29885 net.cpp:148] Top shape: 10 128 28 28 (1003520)
I0713 13:44:51.682024 29885 net.cpp:156] Memory required for data: 290017280
I0713 13:44:51.682029 29885 layer_factory.hpp:77] Creating layer inception_3b/3x3
I0713 13:44:51.682045 29885 net.cpp:91] Creating Layer inception_3b/3x3
I0713 13:44:51.682051 29885 net.cpp:425] inception_3b/3x3 <- inception_3b/3x3_reduce
I0713 13:44:51.682062 29885 net.cpp:399] inception_3b/3x3 -> inception_3b/3x3
I0713 13:44:51.686949 29885 net.cpp:141] Setting up inception_3b/3x3
I0713 13:44:51.686981 29885 net.cpp:148] Top shape: 10 192 28 28 (1505280)
I0713 13:44:51.686987 29885 net.cpp:156] Memory required for data: 296038400
I0713 13:44:51.686998 29885 layer_factory.hpp:77] Creating layer inception_3b/relu_3x3
I0713 13:44:51.687018 29885 net.cpp:91] Creating Layer inception_3b/relu_3x3
I0713 13:44:51.687024 29885 net.cpp:425] inception_3b/relu_3x3 <- inception_3b/3x3
I0713 13:44:51.687033 29885 net.cpp:386] inception_3b/relu_3x3 -> inception_3b/3x3 (in-place)
I0713 13:44:51.687739 29885 net.cpp:141] Setting up inception_3b/relu_3x3
I0713 13:44:51.687755 29885 net.cpp:148] Top shape: 10 192 28 28 (1505280)
I0713 13:44:51.687760 29885 net.cpp:156] Memory required for data: 302059520
I0713 13:44:51.687765 29885 layer_factory.hpp:77] Creating layer inception_3b/5x5_reduce
I0713 13:44:51.687784 29885 net.cpp:91] Creating Layer inception_3b/5x5_reduce
I0713 13:44:51.687790 29885 net.cpp:425] inception_3b/5x5_reduce <- inception_3a/output_inception_3a/output_0_split_2
I0713 13:44:51.687803 29885 net.cpp:399] inception_3b/5x5_reduce -> inception_3b/5x5_reduce
I0713 13:44:51.689890 29885 net.cpp:141] Setting up inception_3b/5x5_reduce
I0713 13:44:51.689906 29885 net.cpp:148] Top shape: 10 32 28 28 (250880)
I0713 13:44:51.689911 29885 net.cpp:156] Memory required for data: 303063040
I0713 13:44:51.689921 29885 layer_factory.hpp:77] Creating layer inception_3b/relu_5x5_reduce
I0713 13:44:51.689936 29885 net.cpp:91] Creating Layer inception_3b/relu_5x5_reduce
I0713 13:44:51.689944 29885 net.cpp:425] inception_3b/relu_5x5_reduce <- inception_3b/5x5_reduce
I0713 13:44:51.689950 29885 net.cpp:386] inception_3b/relu_5x5_reduce -> inception_3b/5x5_reduce (in-place)
I0713 13:44:51.690176 29885 net.cpp:141] Setting up inception_3b/relu_5x5_reduce
I0713 13:44:51.690187 29885 net.cpp:148] Top shape: 10 32 28 28 (250880)
I0713 13:44:51.690191 29885 net.cpp:156] Memory required for data: 304066560
I0713 13:44:51.690196 29885 layer_factory.hpp:77] Creating layer inception_3b/5x5
I0713 13:44:51.690217 29885 net.cpp:91] Creating Layer inception_3b/5x5
I0713 13:44:51.690222 29885 net.cpp:425] inception_3b/5x5 <- inception_3b/5x5_reduce
I0713 13:44:51.690233 29885 net.cpp:399] inception_3b/5x5 -> inception_3b/5x5
I0713 13:44:51.693927 29885 net.cpp:141] Setting up inception_3b/5x5
I0713 13:44:51.693959 29885 net.cpp:148] Top shape: 10 96 28 28 (752640)
I0713 13:44:51.693964 29885 net.cpp:156] Memory required for data: 307077120
I0713 13:44:51.693975 29885 layer_factory.hpp:77] Creating layer inception_3b/relu_5x5
I0713 13:44:51.693984 29885 net.cpp:91] Creating Layer inception_3b/relu_5x5
I0713 13:44:51.693989 29885 net.cpp:425] inception_3b/relu_5x5 <- inception_3b/5x5
I0713 13:44:51.693996 29885 net.cpp:386] inception_3b/relu_5x5 -> inception_3b/5x5 (in-place)
I0713 13:44:51.694239 29885 net.cpp:141] Setting up inception_3b/relu_5x5
I0713 13:44:51.694252 29885 net.cpp:148] Top shape: 10 96 28 28 (752640)
I0713 13:44:51.694255 29885 net.cpp:156] Memory required for data: 310087680
I0713 13:44:51.694260 29885 layer_factory.hpp:77] Creating layer inception_3b/pool
I0713 13:44:51.694272 29885 net.cpp:91] Creating Layer inception_3b/pool
I0713 13:44:51.694278 29885 net.cpp:425] inception_3b/pool <- inception_3a/output_inception_3a/output_0_split_3
I0713 13:44:51.694286 29885 net.cpp:399] inception_3b/pool -> inception_3b/pool
I0713 13:44:51.694349 29885 net.cpp:141] Setting up inception_3b/pool
I0713 13:44:51.694357 29885 net.cpp:148] Top shape: 10 256 28 28 (2007040)
I0713 13:44:51.694361 29885 net.cpp:156] Memory required for data: 318115840
I0713 13:44:51.694366 29885 layer_factory.hpp:77] Creating layer inception_3b/pool_proj
I0713 13:44:51.694383 29885 net.cpp:91] Creating Layer inception_3b/pool_proj
I0713 13:44:51.694389 29885 net.cpp:425] inception_3b/pool_proj <- inception_3b/pool
I0713 13:44:51.694401 29885 net.cpp:399] inception_3b/pool_proj -> inception_3b/pool_proj
I0713 13:44:51.696580 29885 net.cpp:141] Setting up inception_3b/pool_proj
I0713 13:44:51.696596 29885 net.cpp:148] Top shape: 10 64 28 28 (501760)
I0713 13:44:51.696614 29885 net.cpp:156] Memory required for data: 320122880
I0713 13:44:51.696624 29885 layer_factory.hpp:77] Creating layer inception_3b/relu_pool_proj
I0713 13:44:51.696633 29885 net.cpp:91] Creating Layer inception_3b/relu_pool_proj
I0713 13:44:51.696640 29885 net.cpp:425] inception_3b/relu_pool_proj <- inception_3b/pool_proj
I0713 13:44:51.696650 29885 net.cpp:386] inception_3b/relu_pool_proj -> inception_3b/pool_proj (in-place)
I0713 13:44:51.697356 29885 net.cpp:141] Setting up inception_3b/relu_pool_proj
I0713 13:44:51.697371 29885 net.cpp:148] Top shape: 10 64 28 28 (501760)
I0713 13:44:51.697376 29885 net.cpp:156] Memory required for data: 322129920
I0713 13:44:51.697381 29885 layer_factory.hpp:77] Creating layer inception_3b/output
I0713 13:44:51.697391 29885 net.cpp:91] Creating Layer inception_3b/output
I0713 13:44:51.697396 29885 net.cpp:425] inception_3b/output <- inception_3b/1x1
I0713 13:44:51.697402 29885 net.cpp:425] inception_3b/output <- inception_3b/3x3
I0713 13:44:51.697407 29885 net.cpp:425] inception_3b/output <- inception_3b/5x5
I0713 13:44:51.697412 29885 net.cpp:425] inception_3b/output <- inception_3b/pool_proj
I0713 13:44:51.697422 29885 net.cpp:399] inception_3b/output -> inception_3b/output
I0713 13:44:51.697466 29885 net.cpp:141] Setting up inception_3b/output
I0713 13:44:51.697475 29885 net.cpp:148] Top shape: 10 480 28 28 (3763200)
I0713 13:44:51.697479 29885 net.cpp:156] Memory required for data: 337182720
I0713 13:44:51.697484 29885 layer_factory.hpp:77] Creating layer pool3/3x3_s2
I0713 13:44:51.697492 29885 net.cpp:91] Creating Layer pool3/3x3_s2
I0713 13:44:51.697496 29885 net.cpp:425] pool3/3x3_s2 <- inception_3b/output
I0713 13:44:51.697507 29885 net.cpp:399] pool3/3x3_s2 -> pool3/3x3_s2
I0713 13:44:51.697564 29885 net.cpp:141] Setting up pool3/3x3_s2
I0713 13:44:51.697577 29885 net.cpp:148] Top shape: 10 480 14 14 (940800)
I0713 13:44:51.697582 29885 net.cpp:156] Memory required for data: 340945920
I0713 13:44:51.697587 29885 layer_factory.hpp:77] Creating layer pool3/3x3_s2_pool3/3x3_s2_0_split
I0713 13:44:51.697595 29885 net.cpp:91] Creating Layer pool3/3x3_s2_pool3/3x3_s2_0_split
I0713 13:44:51.697600 29885 net.cpp:425] pool3/3x3_s2_pool3/3x3_s2_0_split <- pool3/3x3_s2
I0713 13:44:51.697609 29885 net.cpp:399] pool3/3x3_s2_pool3/3x3_s2_0_split -> pool3/3x3_s2_pool3/3x3_s2_0_split_0
I0713 13:44:51.697618 29885 net.cpp:399] pool3/3x3_s2_pool3/3x3_s2_0_split -> pool3/3x3_s2_pool3/3x3_s2_0_split_1
I0713 13:44:51.697625 29885 net.cpp:399] pool3/3x3_s2_pool3/3x3_s2_0_split -> pool3/3x3_s2_pool3/3x3_s2_0_split_2
I0713 13:44:51.697633 29885 net.cpp:399] pool3/3x3_s2_pool3/3x3_s2_0_split -> pool3/3x3_s2_pool3/3x3_s2_0_split_3
I0713 13:44:51.697708 29885 net.cpp:141] Setting up pool3/3x3_s2_pool3/3x3_s2_0_split
I0713 13:44:51.697720 29885 net.cpp:148] Top shape: 10 480 14 14 (940800)
I0713 13:44:51.697724 29885 net.cpp:148] Top shape: 10 480 14 14 (940800)
I0713 13:44:51.697729 29885 net.cpp:148] Top shape: 10 480 14 14 (940800)
I0713 13:44:51.697734 29885 net.cpp:148] Top shape: 10 480 14 14 (940800)
I0713 13:44:51.697738 29885 net.cpp:156] Memory required for data: 355998720
I0713 13:44:51.697742 29885 layer_factory.hpp:77] Creating layer inception_4a/1x1
I0713 13:44:51.697759 29885 net.cpp:91] Creating Layer inception_4a/1x1
I0713 13:44:51.697765 29885 net.cpp:425] inception_4a/1x1 <- pool3/3x3_s2_pool3/3x3_s2_0_split_0
I0713 13:44:51.697773 29885 net.cpp:399] inception_4a/1x1 -> inception_4a/1x1
I0713 13:44:51.701246 29885 net.cpp:141] Setting up inception_4a/1x1
I0713 13:44:51.701263 29885 net.cpp:148] Top shape: 10 192 14 14 (376320)
I0713 13:44:51.701268 29885 net.cpp:156] Memory required for data: 357504000
I0713 13:44:51.701282 29885 layer_factory.hpp:77] Creating layer inception_4a/relu_1x1
I0713 13:44:51.701292 29885 net.cpp:91] Creating Layer inception_4a/relu_1x1
I0713 13:44:51.701299 29885 net.cpp:425] inception_4a/relu_1x1 <- inception_4a/1x1
I0713 13:44:51.701308 29885 net.cpp:386] inception_4a/relu_1x1 -> inception_4a/1x1 (in-place)
I0713 13:44:51.701544 29885 net.cpp:141] Setting up inception_4a/relu_1x1
I0713 13:44:51.701555 29885 net.cpp:148] Top shape: 10 192 14 14 (376320)
I0713 13:44:51.701560 29885 net.cpp:156] Memory required for data: 359009280
I0713 13:44:51.701563 29885 layer_factory.hpp:77] Creating layer inception_4a/3x3_reduce
I0713 13:44:51.701583 29885 net.cpp:91] Creating Layer inception_4a/3x3_reduce
I0713 13:44:51.701589 29885 net.cpp:425] inception_4a/3x3_reduce <- pool3/3x3_s2_pool3/3x3_s2_0_split_1
I0713 13:44:51.701598 29885 net.cpp:399] inception_4a/3x3_reduce -> inception_4a/3x3_reduce
I0713 13:44:51.704067 29885 net.cpp:141] Setting up inception_4a/3x3_reduce
I0713 13:44:51.704085 29885 net.cpp:148] Top shape: 10 96 14 14 (188160)
I0713 13:44:51.704089 29885 net.cpp:156] Memory required for data: 359761920
I0713 13:44:51.704113 29885 layer_factory.hpp:77] Creating layer inception_4a/relu_3x3_reduce
I0713 13:44:51.704123 29885 net.cpp:91] Creating Layer inception_4a/relu_3x3_reduce
I0713 13:44:51.704128 29885 net.cpp:425] inception_4a/relu_3x3_reduce <- inception_4a/3x3_reduce
I0713 13:44:51.704138 29885 net.cpp:386] inception_4a/relu_3x3_reduce -> inception_4a/3x3_reduce (in-place)
I0713 13:44:51.704363 29885 net.cpp:141] Setting up inception_4a/relu_3x3_reduce
I0713 13:44:51.704375 29885 net.cpp:148] Top shape: 10 96 14 14 (188160)
I0713 13:44:51.704378 29885 net.cpp:156] Memory required for data: 360514560
I0713 13:44:51.704385 29885 layer_factory.hpp:77] Creating layer inception_4a/3x3
I0713 13:44:51.704401 29885 net.cpp:91] Creating Layer inception_4a/3x3
I0713 13:44:51.704406 29885 net.cpp:425] inception_4a/3x3 <- inception_4a/3x3_reduce
I0713 13:44:51.704417 29885 net.cpp:399] inception_4a/3x3 -> inception_4a/3x3
I0713 13:44:51.708855 29885 net.cpp:141] Setting up inception_4a/3x3
I0713 13:44:51.708873 29885 net.cpp:148] Top shape: 10 208 14 14 (407680)
I0713 13:44:51.708878 29885 net.cpp:156] Memory required for data: 362145280
I0713 13:44:51.708889 29885 layer_factory.hpp:77] Creating layer inception_4a/relu_3x3
I0713 13:44:51.708900 29885 net.cpp:91] Creating Layer inception_4a/relu_3x3
I0713 13:44:51.708906 29885 net.cpp:425] inception_4a/relu_3x3 <- inception_4a/3x3
I0713 13:44:51.708914 29885 net.cpp:386] inception_4a/relu_3x3 -> inception_4a/3x3 (in-place)
I0713 13:44:51.709620 29885 net.cpp:141] Setting up inception_4a/relu_3x3
I0713 13:44:51.709635 29885 net.cpp:148] Top shape: 10 208 14 14 (407680)
I0713 13:44:51.709640 29885 net.cpp:156] Memory required for data: 363776000
I0713 13:44:51.709645 29885 layer_factory.hpp:77] Creating layer inception_4a/5x5_reduce
I0713 13:44:51.709667 29885 net.cpp:91] Creating Layer inception_4a/5x5_reduce
I0713 13:44:51.709673 29885 net.cpp:425] inception_4a/5x5_reduce <- pool3/3x3_s2_pool3/3x3_s2_0_split_2
I0713 13:44:51.709686 29885 net.cpp:399] inception_4a/5x5_reduce -> inception_4a/5x5_reduce
I0713 13:44:51.711861 29885 net.cpp:141] Setting up inception_4a/5x5_reduce
I0713 13:44:51.711890 29885 net.cpp:148] Top shape: 10 16 14 14 (31360)
I0713 13:44:51.711895 29885 net.cpp:156] Memory required for data: 363901440
I0713 13:44:51.711905 29885 layer_factory.hpp:77] Creating layer inception_4a/relu_5x5_reduce
I0713 13:44:51.711918 29885 net.cpp:91] Creating Layer inception_4a/relu_5x5_reduce
I0713 13:44:51.711925 29885 net.cpp:425] inception_4a/relu_5x5_reduce <- inception_4a/5x5_reduce
I0713 13:44:51.711932 29885 net.cpp:386] inception_4a/relu_5x5_reduce -> inception_4a/5x5_reduce (in-place)
I0713 13:44:51.712169 29885 net.cpp:141] Setting up inception_4a/relu_5x5_reduce
I0713 13:44:51.712180 29885 net.cpp:148] Top shape: 10 16 14 14 (31360)
I0713 13:44:51.712185 29885 net.cpp:156] Memory required for data: 364026880
I0713 13:44:51.712191 29885 layer_factory.hpp:77] Creating layer inception_4a/5x5
I0713 13:44:51.712208 29885 net.cpp:91] Creating Layer inception_4a/5x5
I0713 13:44:51.712215 29885 net.cpp:425] inception_4a/5x5 <- inception_4a/5x5_reduce
I0713 13:44:51.712225 29885 net.cpp:399] inception_4a/5x5 -> inception_4a/5x5
I0713 13:44:51.714380 29885 net.cpp:141] Setting up inception_4a/5x5
I0713 13:44:51.714398 29885 net.cpp:148] Top shape: 10 48 14 14 (94080)
I0713 13:44:51.714416 29885 net.cpp:156] Memory required for data: 364403200
I0713 13:44:51.714426 29885 layer_factory.hpp:77] Creating layer inception_4a/relu_5x5
I0713 13:44:51.714437 29885 net.cpp:91] Creating Layer inception_4a/relu_5x5
I0713 13:44:51.714443 29885 net.cpp:425] inception_4a/relu_5x5 <- inception_4a/5x5
I0713 13:44:51.714450 29885 net.cpp:386] inception_4a/relu_5x5 -> inception_4a/5x5 (in-place)
I0713 13:44:51.714681 29885 net.cpp:141] Setting up inception_4a/relu_5x5
I0713 13:44:51.714700 29885 net.cpp:148] Top shape: 10 48 14 14 (94080)
I0713 13:44:51.714705 29885 net.cpp:156] Memory required for data: 364779520
I0713 13:44:51.714710 29885 layer_factory.hpp:77] Creating layer inception_4a/pool
I0713 13:44:51.714721 29885 net.cpp:91] Creating Layer inception_4a/pool
I0713 13:44:51.714727 29885 net.cpp:425] inception_4a/pool <- pool3/3x3_s2_pool3/3x3_s2_0_split_3
I0713 13:44:51.714735 29885 net.cpp:399] inception_4a/pool -> inception_4a/pool
I0713 13:44:51.714802 29885 net.cpp:141] Setting up inception_4a/pool
I0713 13:44:51.714812 29885 net.cpp:148] Top shape: 10 480 14 14 (940800)
I0713 13:44:51.714815 29885 net.cpp:156] Memory required for data: 368542720
I0713 13:44:51.714820 29885 layer_factory.hpp:77] Creating layer inception_4a/pool_proj
I0713 13:44:51.714838 29885 net.cpp:91] Creating Layer inception_4a/pool_proj
I0713 13:44:51.714843 29885 net.cpp:425] inception_4a/pool_proj <- inception_4a/pool
I0713 13:44:51.714854 29885 net.cpp:399] inception_4a/pool_proj -> inception_4a/pool_proj
I0713 13:44:51.717097 29885 net.cpp:141] Setting up inception_4a/pool_proj
I0713 13:44:51.717113 29885 net.cpp:148] Top shape: 10 64 14 14 (125440)
I0713 13:44:51.717119 29885 net.cpp:156] Memory required for data: 369044480
I0713 13:44:51.717129 29885 layer_factory.hpp:77] Creating layer inception_4a/relu_pool_proj
I0713 13:44:51.717142 29885 net.cpp:91] Creating Layer inception_4a/relu_pool_proj
I0713 13:44:51.717149 29885 net.cpp:425] inception_4a/relu_pool_proj <- inception_4a/pool_proj
I0713 13:44:51.717159 29885 net.cpp:386] inception_4a/relu_pool_proj -> inception_4a/pool_proj (in-place)
I0713 13:44:51.717871 29885 net.cpp:141] Setting up inception_4a/relu_pool_proj
I0713 13:44:51.717887 29885 net.cpp:148] Top shape: 10 64 14 14 (125440)
I0713 13:44:51.717892 29885 net.cpp:156] Memory required for data: 369546240
I0713 13:44:51.717897 29885 layer_factory.hpp:77] Creating layer inception_4a/output
I0713 13:44:51.717906 29885 net.cpp:91] Creating Layer inception_4a/output
I0713 13:44:51.717911 29885 net.cpp:425] inception_4a/output <- inception_4a/1x1
I0713 13:44:51.717917 29885 net.cpp:425] inception_4a/output <- inception_4a/3x3
I0713 13:44:51.717922 29885 net.cpp:425] inception_4a/output <- inception_4a/5x5
I0713 13:44:51.717927 29885 net.cpp:425] inception_4a/output <- inception_4a/pool_proj
I0713 13:44:51.717936 29885 net.cpp:399] inception_4a/output -> inception_4a/output
I0713 13:44:51.717978 29885 net.cpp:141] Setting up inception_4a/output
I0713 13:44:51.717986 29885 net.cpp:148] Top shape: 10 512 14 14 (1003520)
I0713 13:44:51.717990 29885 net.cpp:156] Memory required for data: 373560320
I0713 13:44:51.717996 29885 layer_factory.hpp:77] Creating layer inception_4a/output_inception_4a/output_0_split
I0713 13:44:51.718009 29885 net.cpp:91] Creating Layer inception_4a/output_inception_4a/output_0_split
I0713 13:44:51.718014 29885 net.cpp:425] inception_4a/output_inception_4a/output_0_split <- inception_4a/output
I0713 13:44:51.718021 29885 net.cpp:399] inception_4a/output_inception_4a/output_0_split -> inception_4a/output_inception_4a/output_0_split_0
I0713 13:44:51.718030 29885 net.cpp:399] inception_4a/output_inception_4a/output_0_split -> inception_4a/output_inception_4a/output_0_split_1
I0713 13:44:51.718041 29885 net.cpp:399] inception_4a/output_inception_4a/output_0_split -> inception_4a/output_inception_4a/output_0_split_2
I0713 13:44:51.718049 29885 net.cpp:399] inception_4a/output_inception_4a/output_0_split -> inception_4a/output_inception_4a/output_0_split_3
I0713 13:44:51.718129 29885 net.cpp:141] Setting up inception_4a/output_inception_4a/output_0_split
I0713 13:44:51.718138 29885 net.cpp:148] Top shape: 10 512 14 14 (1003520)
I0713 13:44:51.718143 29885 net.cpp:148] Top shape: 10 512 14 14 (1003520)
I0713 13:44:51.718148 29885 net.cpp:148] Top shape: 10 512 14 14 (1003520)
I0713 13:44:51.718153 29885 net.cpp:148] Top shape: 10 512 14 14 (1003520)
I0713 13:44:51.718158 29885 net.cpp:156] Memory required for data: 389616640
I0713 13:44:51.718161 29885 layer_factory.hpp:77] Creating layer inception_4b/1x1
I0713 13:44:51.718175 29885 net.cpp:91] Creating Layer inception_4b/1x1
I0713 13:44:51.718181 29885 net.cpp:425] inception_4b/1x1 <- inception_4a/output_inception_4a/output_0_split_0
I0713 13:44:51.718192 29885 net.cpp:399] inception_4b/1x1 -> inception_4b/1x1
I0713 13:44:51.720887 29885 net.cpp:141] Setting up inception_4b/1x1
I0713 13:44:51.720908 29885 net.cpp:148] Top shape: 10 160 14 14 (313600)
I0713 13:44:51.720913 29885 net.cpp:156] Memory required for data: 390871040
I0713 13:44:51.720922 29885 layer_factory.hpp:77] Creating layer inception_4b/relu_1x1
I0713 13:44:51.720933 29885 net.cpp:91] Creating Layer inception_4b/relu_1x1
I0713 13:44:51.720938 29885 net.cpp:425] inception_4b/relu_1x1 <- inception_4b/1x1
I0713 13:44:51.720945 29885 net.cpp:386] inception_4b/relu_1x1 -> inception_4b/1x1 (in-place)
I0713 13:44:51.721179 29885 net.cpp:141] Setting up inception_4b/relu_1x1
I0713 13:44:51.721196 29885 net.cpp:148] Top shape: 10 160 14 14 (313600)
I0713 13:44:51.721201 29885 net.cpp:156] Memory required for data: 392125440
I0713 13:44:51.721206 29885 layer_factory.hpp:77] Creating layer inception_4b/3x3_reduce
I0713 13:44:51.721222 29885 net.cpp:91] Creating Layer inception_4b/3x3_reduce
I0713 13:44:51.721227 29885 net.cpp:425] inception_4b/3x3_reduce <- inception_4a/output_inception_4a/output_0_split_1
I0713 13:44:51.721236 29885 net.cpp:399] inception_4b/3x3_reduce -> inception_4b/3x3_reduce
I0713 13:44:51.723740 29885 net.cpp:141] Setting up inception_4b/3x3_reduce
I0713 13:44:51.723769 29885 net.cpp:148] Top shape: 10 112 14 14 (219520)
I0713 13:44:51.723775 29885 net.cpp:156] Memory required for data: 393003520
I0713 13:44:51.723784 29885 layer_factory.hpp:77] Creating layer inception_4b/relu_3x3_reduce
I0713 13:44:51.723793 29885 net.cpp:91] Creating Layer inception_4b/relu_3x3_reduce
I0713 13:44:51.723799 29885 net.cpp:425] inception_4b/relu_3x3_reduce <- inception_4b/3x3_reduce
I0713 13:44:51.723808 29885 net.cpp:386] inception_4b/relu_3x3_reduce -> inception_4b/3x3_reduce (in-place)
I0713 13:44:51.724045 29885 net.cpp:141] Setting up inception_4b/relu_3x3_reduce
I0713 13:44:51.724056 29885 net.cpp:148] Top shape: 10 112 14 14 (219520)
I0713 13:44:51.724061 29885 net.cpp:156] Memory required for data: 393881600
I0713 13:44:51.724066 29885 layer_factory.hpp:77] Creating layer inception_4b/3x3
I0713 13:44:51.724082 29885 net.cpp:91] Creating Layer inception_4b/3x3
I0713 13:44:51.724088 29885 net.cpp:425] inception_4b/3x3 <- inception_4b/3x3_reduce
I0713 13:44:51.724100 29885 net.cpp:399] inception_4b/3x3 -> inception_4b/3x3
I0713 13:44:51.729442 29885 net.cpp:141] Setting up inception_4b/3x3
I0713 13:44:51.729461 29885 net.cpp:148] Top shape: 10 224 14 14 (439040)
I0713 13:44:51.729466 29885 net.cpp:156] Memory required for data: 395637760
I0713 13:44:51.729477 29885 layer_factory.hpp:77] Creating layer inception_4b/relu_3x3
I0713 13:44:51.729487 29885 net.cpp:91] Creating Layer inception_4b/relu_3x3
I0713 13:44:51.729493 29885 net.cpp:425] inception_4b/relu_3x3 <- inception_4b/3x3
I0713 13:44:51.729499 29885 net.cpp:386] inception_4b/relu_3x3 -> inception_4b/3x3 (in-place)
I0713 13:44:51.730242 29885 net.cpp:141] Setting up inception_4b/relu_3x3
I0713 13:44:51.730257 29885 net.cpp:148] Top shape: 10 224 14 14 (439040)
I0713 13:44:51.730262 29885 net.cpp:156] Memory required for data: 397393920
I0713 13:44:51.730268 29885 layer_factory.hpp:77] Creating layer inception_4b/5x5_reduce
I0713 13:44:51.730296 29885 net.cpp:91] Creating Layer inception_4b/5x5_reduce
I0713 13:44:51.730303 29885 net.cpp:425] inception_4b/5x5_reduce <- inception_4a/output_inception_4a/output_0_split_2
I0713 13:44:51.730312 29885 net.cpp:399] inception_4b/5x5_reduce -> inception_4b/5x5_reduce
I0713 13:44:51.732537 29885 net.cpp:141] Setting up inception_4b/5x5_reduce
I0713 13:44:51.732553 29885 net.cpp:148] Top shape: 10 24 14 14 (47040)
I0713 13:44:51.732571 29885 net.cpp:156] Memory required for data: 397582080
I0713 13:44:51.732584 29885 layer_factory.hpp:77] Creating layer inception_4b/relu_5x5_reduce
I0713 13:44:51.732594 29885 net.cpp:91] Creating Layer inception_4b/relu_5x5_reduce
I0713 13:44:51.732600 29885 net.cpp:425] inception_4b/relu_5x5_reduce <- inception_4b/5x5_reduce
I0713 13:44:51.732610 29885 net.cpp:386] inception_4b/relu_5x5_reduce -> inception_4b/5x5_reduce (in-place)
I0713 13:44:51.732851 29885 net.cpp:141] Setting up inception_4b/relu_5x5_reduce
I0713 13:44:51.732862 29885 net.cpp:148] Top shape: 10 24 14 14 (47040)
I0713 13:44:51.732867 29885 net.cpp:156] Memory required for data: 397770240
I0713 13:44:51.732872 29885 layer_factory.hpp:77] Creating layer inception_4b/5x5
I0713 13:44:51.732889 29885 net.cpp:91] Creating Layer inception_4b/5x5
I0713 13:44:51.732895 29885 net.cpp:425] inception_4b/5x5 <- inception_4b/5x5_reduce
I0713 13:44:51.732903 29885 net.cpp:399] inception_4b/5x5 -> inception_4b/5x5
I0713 13:44:51.736364 29885 net.cpp:141] Setting up inception_4b/5x5
I0713 13:44:51.736394 29885 net.cpp:148] Top shape: 10 64 14 14 (125440)
I0713 13:44:51.736400 29885 net.cpp:156] Memory required for data: 398272000
I0713 13:44:51.736408 29885 layer_factory.hpp:77] Creating layer inception_4b/relu_5x5
I0713 13:44:51.736421 29885 net.cpp:91] Creating Layer inception_4b/relu_5x5
I0713 13:44:51.736428 29885 net.cpp:425] inception_4b/relu_5x5 <- inception_4b/5x5
I0713 13:44:51.736433 29885 net.cpp:386] inception_4b/relu_5x5 -> inception_4b/5x5 (in-place)
I0713 13:44:51.736696 29885 net.cpp:141] Setting up inception_4b/relu_5x5
I0713 13:44:51.736706 29885 net.cpp:148] Top shape: 10 64 14 14 (125440)
I0713 13:44:51.736711 29885 net.cpp:156] Memory required for data: 398773760
I0713 13:44:51.736716 29885 layer_factory.hpp:77] Creating layer inception_4b/pool
I0713 13:44:51.736727 29885 net.cpp:91] Creating Layer inception_4b/pool
I0713 13:44:51.736733 29885 net.cpp:425] inception_4b/pool <- inception_4a/output_inception_4a/output_0_split_3
I0713 13:44:51.736742 29885 net.cpp:399] inception_4b/pool -> inception_4b/pool
I0713 13:44:51.736807 29885 net.cpp:141] Setting up inception_4b/pool
I0713 13:44:51.736816 29885 net.cpp:148] Top shape: 10 512 14 14 (1003520)
I0713 13:44:51.736820 29885 net.cpp:156] Memory required for data: 402787840
I0713 13:44:51.736825 29885 layer_factory.hpp:77] Creating layer inception_4b/pool_proj
I0713 13:44:51.736842 29885 net.cpp:91] Creating Layer inception_4b/pool_proj
I0713 13:44:51.736848 29885 net.cpp:425] inception_4b/pool_proj <- inception_4b/pool
I0713 13:44:51.736858 29885 net.cpp:399] inception_4b/pool_proj -> inception_4b/pool_proj
I0713 13:44:51.739166 29885 net.cpp:141] Setting up inception_4b/pool_proj
I0713 13:44:51.739195 29885 net.cpp:148] Top shape: 10 64 14 14 (125440)
I0713 13:44:51.739200 29885 net.cpp:156] Memory required for data: 403289600
I0713 13:44:51.739212 29885 layer_factory.hpp:77] Creating layer inception_4b/relu_pool_proj
I0713 13:44:51.739226 29885 net.cpp:91] Creating Layer inception_4b/relu_pool_proj
I0713 13:44:51.739233 29885 net.cpp:425] inception_4b/relu_pool_proj <- inception_4b/pool_proj
I0713 13:44:51.739239 29885 net.cpp:386] inception_4b/relu_pool_proj -> inception_4b/pool_proj (in-place)
I0713 13:44:51.739962 29885 net.cpp:141] Setting up inception_4b/relu_pool_proj
I0713 13:44:51.739979 29885 net.cpp:148] Top shape: 10 64 14 14 (125440)
I0713 13:44:51.739984 29885 net.cpp:156] Memory required for data: 403791360
I0713 13:44:51.739989 29885 layer_factory.hpp:77] Creating layer inception_4b/output
I0713 13:44:51.740001 29885 net.cpp:91] Creating Layer inception_4b/output
I0713 13:44:51.740007 29885 net.cpp:425] inception_4b/output <- inception_4b/1x1
I0713 13:44:51.740015 29885 net.cpp:425] inception_4b/output <- inception_4b/3x3
I0713 13:44:51.740020 29885 net.cpp:425] inception_4b/output <- inception_4b/5x5
I0713 13:44:51.740025 29885 net.cpp:425] inception_4b/output <- inception_4b/pool_proj
I0713 13:44:51.740031 29885 net.cpp:399] inception_4b/output -> inception_4b/output
I0713 13:44:51.740077 29885 net.cpp:141] Setting up inception_4b/output
I0713 13:44:51.740087 29885 net.cpp:148] Top shape: 10 512 14 14 (1003520)
I0713 13:44:51.740090 29885 net.cpp:156] Memory required for data: 407805440
I0713 13:44:51.740094 29885 layer_factory.hpp:77] Creating layer inception_4b/output_inception_4b/output_0_split
I0713 13:44:51.740105 29885 net.cpp:91] Creating Layer inception_4b/output_inception_4b/output_0_split
I0713 13:44:51.740110 29885 net.cpp:425] inception_4b/output_inception_4b/output_0_split <- inception_4b/output
I0713 13:44:51.740120 29885 net.cpp:399] inception_4b/output_inception_4b/output_0_split -> inception_4b/output_inception_4b/output_0_split_0
I0713 13:44:51.740130 29885 net.cpp:399] inception_4b/output_inception_4b/output_0_split -> inception_4b/output_inception_4b/output_0_split_1
I0713 13:44:51.740139 29885 net.cpp:399] inception_4b/output_inception_4b/output_0_split -> inception_4b/output_inception_4b/output_0_split_2
I0713 13:44:51.740149 29885 net.cpp:399] inception_4b/output_inception_4b/output_0_split -> inception_4b/output_inception_4b/output_0_split_3
I0713 13:44:51.740234 29885 net.cpp:141] Setting up inception_4b/output_inception_4b/output_0_split
I0713 13:44:51.740243 29885 net.cpp:148] Top shape: 10 512 14 14 (1003520)
I0713 13:44:51.740248 29885 net.cpp:148] Top shape: 10 512 14 14 (1003520)
I0713 13:44:51.740253 29885 net.cpp:148] Top shape: 10 512 14 14 (1003520)
I0713 13:44:51.740258 29885 net.cpp:148] Top shape: 10 512 14 14 (1003520)
I0713 13:44:51.740262 29885 net.cpp:156] Memory required for data: 423861760
I0713 13:44:51.740267 29885 layer_factory.hpp:77] Creating layer inception_4c/1x1
I0713 13:44:51.740281 29885 net.cpp:91] Creating Layer inception_4c/1x1
I0713 13:44:51.740288 29885 net.cpp:425] inception_4c/1x1 <- inception_4b/output_inception_4b/output_0_split_0
I0713 13:44:51.740301 29885 net.cpp:399] inception_4c/1x1 -> inception_4c/1x1
I0713 13:44:51.742957 29885 net.cpp:141] Setting up inception_4c/1x1
I0713 13:44:51.742977 29885 net.cpp:148] Top shape: 10 128 14 14 (250880)
I0713 13:44:51.742982 29885 net.cpp:156] Memory required for data: 424865280
I0713 13:44:51.742991 29885 layer_factory.hpp:77] Creating layer inception_4c/relu_1x1
I0713 13:44:51.743000 29885 net.cpp:91] Creating Layer inception_4c/relu_1x1
I0713 13:44:51.743005 29885 net.cpp:425] inception_4c/relu_1x1 <- inception_4c/1x1
I0713 13:44:51.743017 29885 net.cpp:386] inception_4c/relu_1x1 -> inception_4c/1x1 (in-place)
I0713 13:44:51.743255 29885 net.cpp:141] Setting up inception_4c/relu_1x1
I0713 13:44:51.743266 29885 net.cpp:148] Top shape: 10 128 14 14 (250880)
I0713 13:44:51.743270 29885 net.cpp:156] Memory required for data: 425868800
I0713 13:44:51.743275 29885 layer_factory.hpp:77] Creating layer inception_4c/3x3_reduce
I0713 13:44:51.743295 29885 net.cpp:91] Creating Layer inception_4c/3x3_reduce
I0713 13:44:51.743301 29885 net.cpp:425] inception_4c/3x3_reduce <- inception_4b/output_inception_4b/output_0_split_1
I0713 13:44:51.743310 29885 net.cpp:399] inception_4c/3x3_reduce -> inception_4c/3x3_reduce
I0713 13:44:51.745875 29885 net.cpp:141] Setting up inception_4c/3x3_reduce
I0713 13:44:51.745893 29885 net.cpp:148] Top shape: 10 128 14 14 (250880)
I0713 13:44:51.745898 29885 net.cpp:156] Memory required for data: 426872320
I0713 13:44:51.745908 29885 layer_factory.hpp:77] Creating layer inception_4c/relu_3x3_reduce
I0713 13:44:51.745916 29885 net.cpp:91] Creating Layer inception_4c/relu_3x3_reduce
I0713 13:44:51.745923 29885 net.cpp:425] inception_4c/relu_3x3_reduce <- inception_4c/3x3_reduce
I0713 13:44:51.745934 29885 net.cpp:386] inception_4c/relu_3x3_reduce -> inception_4c/3x3_reduce (in-place)
I0713 13:44:51.746170 29885 net.cpp:141] Setting up inception_4c/relu_3x3_reduce
I0713 13:44:51.746181 29885 net.cpp:148] Top shape: 10 128 14 14 (250880)
I0713 13:44:51.746184 29885 net.cpp:156] Memory required for data: 427875840
I0713 13:44:51.746189 29885 layer_factory.hpp:77] Creating layer inception_4c/3x3
I0713 13:44:51.746208 29885 net.cpp:91] Creating Layer inception_4c/3x3
I0713 13:44:51.746214 29885 net.cpp:425] inception_4c/3x3 <- inception_4c/3x3_reduce
I0713 13:44:51.746223 29885 net.cpp:399] inception_4c/3x3 -> inception_4c/3x3
I0713 13:44:51.751811 29885 net.cpp:141] Setting up inception_4c/3x3
I0713 13:44:51.751834 29885 net.cpp:148] Top shape: 10 256 14 14 (501760)
I0713 13:44:51.751839 29885 net.cpp:156] Memory required for data: 429882880
I0713 13:44:51.751849 29885 layer_factory.hpp:77] Creating layer inception_4c/relu_3x3
I0713 13:44:51.751859 29885 net.cpp:91] Creating Layer inception_4c/relu_3x3
I0713 13:44:51.751865 29885 net.cpp:425] inception_4c/relu_3x3 <- inception_4c/3x3
I0713 13:44:51.751873 29885 net.cpp:386] inception_4c/relu_3x3 -> inception_4c/3x3 (in-place)
I0713 13:44:51.752632 29885 net.cpp:141] Setting up inception_4c/relu_3x3
I0713 13:44:51.752648 29885 net.cpp:148] Top shape: 10 256 14 14 (501760)
I0713 13:44:51.752653 29885 net.cpp:156] Memory required for data: 431889920
I0713 13:44:51.752658 29885 layer_factory.hpp:77] Creating layer inception_4c/5x5_reduce
I0713 13:44:51.752677 29885 net.cpp:91] Creating Layer inception_4c/5x5_reduce
I0713 13:44:51.752683 29885 net.cpp:425] inception_4c/5x5_reduce <- inception_4b/output_inception_4b/output_0_split_2
I0713 13:44:51.752696 29885 net.cpp:399] inception_4c/5x5_reduce -> inception_4c/5x5_reduce
I0713 13:44:51.754920 29885 net.cpp:141] Setting up inception_4c/5x5_reduce
I0713 13:44:51.754941 29885 net.cpp:148] Top shape: 10 24 14 14 (47040)
I0713 13:44:51.754946 29885 net.cpp:156] Memory required for data: 432078080
I0713 13:44:51.754956 29885 layer_factory.hpp:77] Creating layer inception_4c/relu_5x5_reduce
I0713 13:44:51.754964 29885 net.cpp:91] Creating Layer inception_4c/relu_5x5_reduce
I0713 13:44:51.754971 29885 net.cpp:425] inception_4c/relu_5x5_reduce <- inception_4c/5x5_reduce
I0713 13:44:51.754979 29885 net.cpp:386] inception_4c/relu_5x5_reduce -> inception_4c/5x5_reduce (in-place)
I0713 13:44:51.755220 29885 net.cpp:141] Setting up inception_4c/relu_5x5_reduce
I0713 13:44:51.755231 29885 net.cpp:148] Top shape: 10 24 14 14 (47040)
I0713 13:44:51.755235 29885 net.cpp:156] Memory required for data: 432266240
I0713 13:44:51.755240 29885 layer_factory.hpp:77] Creating layer inception_4c/5x5
I0713 13:44:51.755260 29885 net.cpp:91] Creating Layer inception_4c/5x5
I0713 13:44:51.755266 29885 net.cpp:425] inception_4c/5x5 <- inception_4c/5x5_reduce
I0713 13:44:51.755275 29885 net.cpp:399] inception_4c/5x5 -> inception_4c/5x5
I0713 13:44:51.758301 29885 net.cpp:141] Setting up inception_4c/5x5
I0713 13:44:51.758332 29885 net.cpp:148] Top shape: 10 64 14 14 (125440)
I0713 13:44:51.758337 29885 net.cpp:156] Memory required for data: 432768000
I0713 13:44:51.758347 29885 layer_factory.hpp:77] Creating layer inception_4c/relu_5x5
I0713 13:44:51.758359 29885 net.cpp:91] Creating Layer inception_4c/relu_5x5
I0713 13:44:51.758365 29885 net.cpp:425] inception_4c/relu_5x5 <- inception_4c/5x5
I0713 13:44:51.758373 29885 net.cpp:386] inception_4c/relu_5x5 -> inception_4c/5x5 (in-place)
I0713 13:44:51.758615 29885 net.cpp:141] Setting up inception_4c/relu_5x5
I0713 13:44:51.758630 29885 net.cpp:148] Top shape: 10 64 14 14 (125440)
I0713 13:44:51.758633 29885 net.cpp:156] Memory required for data: 433269760
I0713 13:44:51.758638 29885 layer_factory.hpp:77] Creating layer inception_4c/pool
I0713 13:44:51.758651 29885 net.cpp:91] Creating Layer inception_4c/pool
I0713 13:44:51.758657 29885 net.cpp:425] inception_4c/pool <- inception_4b/output_inception_4b/output_0_split_3
I0713 13:44:51.758671 29885 net.cpp:399] inception_4c/pool -> inception_4c/pool
I0713 13:44:51.758757 29885 net.cpp:141] Setting up inception_4c/pool
I0713 13:44:51.758770 29885 net.cpp:148] Top shape: 10 512 14 14 (1003520)
I0713 13:44:51.758775 29885 net.cpp:156] Memory required for data: 437283840
I0713 13:44:51.758781 29885 layer_factory.hpp:77] Creating layer inception_4c/pool_proj
I0713 13:44:51.758795 29885 net.cpp:91] Creating Layer inception_4c/pool_proj
I0713 13:44:51.758800 29885 net.cpp:425] inception_4c/pool_proj <- inception_4c/pool
I0713 13:44:51.758812 29885 net.cpp:399] inception_4c/pool_proj -> inception_4c/pool_proj
I0713 13:44:51.762295 29885 net.cpp:141] Setting up inception_4c/pool_proj
I0713 13:44:51.762326 29885 net.cpp:148] Top shape: 10 64 14 14 (125440)
I0713 13:44:51.762331 29885 net.cpp:156] Memory required for data: 437785600
I0713 13:44:51.762361 29885 layer_factory.hpp:77] Creating layer inception_4c/relu_pool_proj
I0713 13:44:51.762372 29885 net.cpp:91] Creating Layer inception_4c/relu_pool_proj
I0713 13:44:51.762377 29885 net.cpp:425] inception_4c/relu_pool_proj <- inception_4c/pool_proj
I0713 13:44:51.762387 29885 net.cpp:386] inception_4c/relu_pool_proj -> inception_4c/pool_proj (in-place)
I0713 13:44:51.763119 29885 net.cpp:141] Setting up inception_4c/relu_pool_proj
I0713 13:44:51.763135 29885 net.cpp:148] Top shape: 10 64 14 14 (125440)
I0713 13:44:51.763140 29885 net.cpp:156] Memory required for data: 438287360
I0713 13:44:51.763145 29885 layer_factory.hpp:77] Creating layer inception_4c/output
I0713 13:44:51.763155 29885 net.cpp:91] Creating Layer inception_4c/output
I0713 13:44:51.763161 29885 net.cpp:425] inception_4c/output <- inception_4c/1x1
I0713 13:44:51.763170 29885 net.cpp:425] inception_4c/output <- inception_4c/3x3
I0713 13:44:51.763176 29885 net.cpp:425] inception_4c/output <- inception_4c/5x5
I0713 13:44:51.763181 29885 net.cpp:425] inception_4c/output <- inception_4c/pool_proj
I0713 13:44:51.763188 29885 net.cpp:399] inception_4c/output -> inception_4c/output
I0713 13:44:51.763236 29885 net.cpp:141] Setting up inception_4c/output
I0713 13:44:51.763245 29885 net.cpp:148] Top shape: 10 512 14 14 (1003520)
I0713 13:44:51.763249 29885 net.cpp:156] Memory required for data: 442301440
I0713 13:44:51.763254 29885 layer_factory.hpp:77] Creating layer inception_4c/output_inception_4c/output_0_split
I0713 13:44:51.763263 29885 net.cpp:91] Creating Layer inception_4c/output_inception_4c/output_0_split
I0713 13:44:51.763268 29885 net.cpp:425] inception_4c/output_inception_4c/output_0_split <- inception_4c/output
I0713 13:44:51.763278 29885 net.cpp:399] inception_4c/output_inception_4c/output_0_split -> inception_4c/output_inception_4c/output_0_split_0
I0713 13:44:51.763288 29885 net.cpp:399] inception_4c/output_inception_4c/output_0_split -> inception_4c/output_inception_4c/output_0_split_1
I0713 13:44:51.763296 29885 net.cpp:399] inception_4c/output_inception_4c/output_0_split -> inception_4c/output_inception_4c/output_0_split_2
I0713 13:44:51.763304 29885 net.cpp:399] inception_4c/output_inception_4c/output_0_split -> inception_4c/output_inception_4c/output_0_split_3
I0713 13:44:51.763394 29885 net.cpp:141] Setting up inception_4c/output_inception_4c/output_0_split
I0713 13:44:51.763403 29885 net.cpp:148] Top shape: 10 512 14 14 (1003520)
I0713 13:44:51.763408 29885 net.cpp:148] Top shape: 10 512 14 14 (1003520)
I0713 13:44:51.763413 29885 net.cpp:148] Top shape: 10 512 14 14 (1003520)
I0713 13:44:51.763418 29885 net.cpp:148] Top shape: 10 512 14 14 (1003520)
I0713 13:44:51.763422 29885 net.cpp:156] Memory required for data: 458357760
I0713 13:44:51.763427 29885 layer_factory.hpp:77] Creating layer inception_4d/1x1
I0713 13:44:51.763448 29885 net.cpp:91] Creating Layer inception_4d/1x1
I0713 13:44:51.763454 29885 net.cpp:425] inception_4d/1x1 <- inception_4c/output_inception_4c/output_0_split_0
I0713 13:44:51.763463 29885 net.cpp:399] inception_4d/1x1 -> inception_4d/1x1
I0713 13:44:51.766044 29885 net.cpp:141] Setting up inception_4d/1x1
I0713 13:44:51.766062 29885 net.cpp:148] Top shape: 10 112 14 14 (219520)
I0713 13:44:51.766067 29885 net.cpp:156] Memory required for data: 459235840
I0713 13:44:51.766075 29885 layer_factory.hpp:77] Creating layer inception_4d/relu_1x1
I0713 13:44:51.766088 29885 net.cpp:91] Creating Layer inception_4d/relu_1x1
I0713 13:44:51.766095 29885 net.cpp:425] inception_4d/relu_1x1 <- inception_4d/1x1
I0713 13:44:51.766103 29885 net.cpp:386] inception_4d/relu_1x1 -> inception_4d/1x1 (in-place)
I0713 13:44:51.766343 29885 net.cpp:141] Setting up inception_4d/relu_1x1
I0713 13:44:51.766355 29885 net.cpp:148] Top shape: 10 112 14 14 (219520)
I0713 13:44:51.766360 29885 net.cpp:156] Memory required for data: 460113920
I0713 13:44:51.766365 29885 layer_factory.hpp:77] Creating layer inception_4d/3x3_reduce
I0713 13:44:51.766386 29885 net.cpp:91] Creating Layer inception_4d/3x3_reduce
I0713 13:44:51.766391 29885 net.cpp:425] inception_4d/3x3_reduce <- inception_4c/output_inception_4c/output_0_split_1
I0713 13:44:51.766401 29885 net.cpp:399] inception_4d/3x3_reduce -> inception_4d/3x3_reduce
I0713 13:44:51.769089 29885 net.cpp:141] Setting up inception_4d/3x3_reduce
I0713 13:44:51.769121 29885 net.cpp:148] Top shape: 10 144 14 14 (282240)
I0713 13:44:51.769126 29885 net.cpp:156] Memory required for data: 461242880
I0713 13:44:51.769137 29885 layer_factory.hpp:77] Creating layer inception_4d/relu_3x3_reduce
I0713 13:44:51.769147 29885 net.cpp:91] Creating Layer inception_4d/relu_3x3_reduce
I0713 13:44:51.769153 29885 net.cpp:425] inception_4d/relu_3x3_reduce <- inception_4d/3x3_reduce
I0713 13:44:51.769160 29885 net.cpp:386] inception_4d/relu_3x3_reduce -> inception_4d/3x3_reduce (in-place)
I0713 13:44:51.769403 29885 net.cpp:141] Setting up inception_4d/relu_3x3_reduce
I0713 13:44:51.769414 29885 net.cpp:148] Top shape: 10 144 14 14 (282240)
I0713 13:44:51.769418 29885 net.cpp:156] Memory required for data: 462371840
I0713 13:44:51.769425 29885 layer_factory.hpp:77] Creating layer inception_4d/3x3
I0713 13:44:51.769441 29885 net.cpp:91] Creating Layer inception_4d/3x3
I0713 13:44:51.769448 29885 net.cpp:425] inception_4d/3x3 <- inception_4d/3x3_reduce
I0713 13:44:51.769459 29885 net.cpp:399] inception_4d/3x3 -> inception_4d/3x3
I0713 13:44:51.775599 29885 net.cpp:141] Setting up inception_4d/3x3
I0713 13:44:51.775617 29885 net.cpp:148] Top shape: 10 288 14 14 (564480)
I0713 13:44:51.775622 29885 net.cpp:156] Memory required for data: 464629760
I0713 13:44:51.775631 29885 layer_factory.hpp:77] Creating layer inception_4d/relu_3x3
I0713 13:44:51.775645 29885 net.cpp:91] Creating Layer inception_4d/relu_3x3
I0713 13:44:51.775650 29885 net.cpp:425] inception_4d/relu_3x3 <- inception_4d/3x3
I0713 13:44:51.775661 29885 net.cpp:386] inception_4d/relu_3x3 -> inception_4d/3x3 (in-place)
I0713 13:44:51.776386 29885 net.cpp:141] Setting up inception_4d/relu_3x3
I0713 13:44:51.776401 29885 net.cpp:148] Top shape: 10 288 14 14 (564480)
I0713 13:44:51.776407 29885 net.cpp:156] Memory required for data: 466887680
I0713 13:44:51.776412 29885 layer_factory.hpp:77] Creating layer inception_4d/5x5_reduce
I0713 13:44:51.776432 29885 net.cpp:91] Creating Layer inception_4d/5x5_reduce
I0713 13:44:51.776438 29885 net.cpp:425] inception_4d/5x5_reduce <- inception_4c/output_inception_4c/output_0_split_2
I0713 13:44:51.776448 29885 net.cpp:399] inception_4d/5x5_reduce -> inception_4d/5x5_reduce
I0713 13:44:51.778738 29885 net.cpp:141] Setting up inception_4d/5x5_reduce
I0713 13:44:51.778754 29885 net.cpp:148] Top shape: 10 32 14 14 (62720)
I0713 13:44:51.778760 29885 net.cpp:156] Memory required for data: 467138560
I0713 13:44:51.778769 29885 layer_factory.hpp:77] Creating layer inception_4d/relu_5x5_reduce
I0713 13:44:51.778781 29885 net.cpp:91] Creating Layer inception_4d/relu_5x5_reduce
I0713 13:44:51.778787 29885 net.cpp:425] inception_4d/relu_5x5_reduce <- inception_4d/5x5_reduce
I0713 13:44:51.778795 29885 net.cpp:386] inception_4d/relu_5x5_reduce -> inception_4d/5x5_reduce (in-place)
I0713 13:44:51.779037 29885 net.cpp:141] Setting up inception_4d/relu_5x5_reduce
I0713 13:44:51.779048 29885 net.cpp:148] Top shape: 10 32 14 14 (62720)
I0713 13:44:51.779052 29885 net.cpp:156] Memory required for data: 467389440
I0713 13:44:51.779057 29885 layer_factory.hpp:77] Creating layer inception_4d/5x5
I0713 13:44:51.779078 29885 net.cpp:91] Creating Layer inception_4d/5x5
I0713 13:44:51.779084 29885 net.cpp:425] inception_4d/5x5 <- inception_4d/5x5_reduce
I0713 13:44:51.779093 29885 net.cpp:399] inception_4d/5x5 -> inception_4d/5x5
I0713 13:44:51.781669 29885 net.cpp:141] Setting up inception_4d/5x5
I0713 13:44:51.781697 29885 net.cpp:148] Top shape: 10 64 14 14 (125440)
I0713 13:44:51.781703 29885 net.cpp:156] Memory required for data: 467891200
I0713 13:44:51.781713 29885 layer_factory.hpp:77] Creating layer inception_4d/relu_5x5
I0713 13:44:51.781721 29885 net.cpp:91] Creating Layer inception_4d/relu_5x5
I0713 13:44:51.781728 29885 net.cpp:425] inception_4d/relu_5x5 <- inception_4d/5x5
I0713 13:44:51.781738 29885 net.cpp:386] inception_4d/relu_5x5 -> inception_4d/5x5 (in-place)
I0713 13:44:51.781980 29885 net.cpp:141] Setting up inception_4d/relu_5x5
I0713 13:44:51.781991 29885 net.cpp:148] Top shape: 10 64 14 14 (125440)
I0713 13:44:51.781996 29885 net.cpp:156] Memory required for data: 468392960
I0713 13:44:51.782001 29885 layer_factory.hpp:77] Creating layer inception_4d/pool
I0713 13:44:51.782017 29885 net.cpp:91] Creating Layer inception_4d/pool
I0713 13:44:51.782023 29885 net.cpp:425] inception_4d/pool <- inception_4c/output_inception_4c/output_0_split_3
I0713 13:44:51.782032 29885 net.cpp:399] inception_4d/pool -> inception_4d/pool
I0713 13:44:51.782102 29885 net.cpp:141] Setting up inception_4d/pool
I0713 13:44:51.782112 29885 net.cpp:148] Top shape: 10 512 14 14 (1003520)
I0713 13:44:51.782116 29885 net.cpp:156] Memory required for data: 472407040
I0713 13:44:51.782121 29885 layer_factory.hpp:77] Creating layer inception_4d/pool_proj
I0713 13:44:51.782137 29885 net.cpp:91] Creating Layer inception_4d/pool_proj
I0713 13:44:51.782143 29885 net.cpp:425] inception_4d/pool_proj <- inception_4d/pool
I0713 13:44:51.782155 29885 net.cpp:399] inception_4d/pool_proj -> inception_4d/pool_proj
I0713 13:44:51.784579 29885 net.cpp:141] Setting up inception_4d/pool_proj
I0713 13:44:51.784595 29885 net.cpp:148] Top shape: 10 64 14 14 (125440)
I0713 13:44:51.784600 29885 net.cpp:156] Memory required for data: 472908800
I0713 13:44:51.784610 29885 layer_factory.hpp:77] Creating layer inception_4d/relu_pool_proj
I0713 13:44:51.784622 29885 net.cpp:91] Creating Layer inception_4d/relu_pool_proj
I0713 13:44:51.784628 29885 net.cpp:425] inception_4d/relu_pool_proj <- inception_4d/pool_proj
I0713 13:44:51.784636 29885 net.cpp:386] inception_4d/relu_pool_proj -> inception_4d/pool_proj (in-place)
I0713 13:44:51.785393 29885 net.cpp:141] Setting up inception_4d/relu_pool_proj
I0713 13:44:51.785408 29885 net.cpp:148] Top shape: 10 64 14 14 (125440)
I0713 13:44:51.785413 29885 net.cpp:156] Memory required for data: 473410560
I0713 13:44:51.785418 29885 layer_factory.hpp:77] Creating layer inception_4d/output
I0713 13:44:51.785426 29885 net.cpp:91] Creating Layer inception_4d/output
I0713 13:44:51.785432 29885 net.cpp:425] inception_4d/output <- inception_4d/1x1
I0713 13:44:51.785437 29885 net.cpp:425] inception_4d/output <- inception_4d/3x3
I0713 13:44:51.785444 29885 net.cpp:425] inception_4d/output <- inception_4d/5x5
I0713 13:44:51.785447 29885 net.cpp:425] inception_4d/output <- inception_4d/pool_proj
I0713 13:44:51.785454 29885 net.cpp:399] inception_4d/output -> inception_4d/output
I0713 13:44:51.785501 29885 net.cpp:141] Setting up inception_4d/output
I0713 13:44:51.785511 29885 net.cpp:148] Top shape: 10 528 14 14 (1034880)
I0713 13:44:51.785514 29885 net.cpp:156] Memory required for data: 477550080
I0713 13:44:51.785518 29885 layer_factory.hpp:77] Creating layer inception_4d/output_inception_4d/output_0_split
I0713 13:44:51.785529 29885 net.cpp:91] Creating Layer inception_4d/output_inception_4d/output_0_split
I0713 13:44:51.785534 29885 net.cpp:425] inception_4d/output_inception_4d/output_0_split <- inception_4d/output
I0713 13:44:51.785542 29885 net.cpp:399] inception_4d/output_inception_4d/output_0_split -> inception_4d/output_inception_4d/output_0_split_0
I0713 13:44:51.785549 29885 net.cpp:399] inception_4d/output_inception_4d/output_0_split -> inception_4d/output_inception_4d/output_0_split_1
I0713 13:44:51.785557 29885 net.cpp:399] inception_4d/output_inception_4d/output_0_split -> inception_4d/output_inception_4d/output_0_split_2
I0713 13:44:51.785578 29885 net.cpp:399] inception_4d/output_inception_4d/output_0_split -> inception_4d/output_inception_4d/output_0_split_3
I0713 13:44:51.785677 29885 net.cpp:141] Setting up inception_4d/output_inception_4d/output_0_split
I0713 13:44:51.785686 29885 net.cpp:148] Top shape: 10 528 14 14 (1034880)
I0713 13:44:51.785692 29885 net.cpp:148] Top shape: 10 528 14 14 (1034880)
I0713 13:44:51.785697 29885 net.cpp:148] Top shape: 10 528 14 14 (1034880)
I0713 13:44:51.785702 29885 net.cpp:148] Top shape: 10 528 14 14 (1034880)
I0713 13:44:51.785706 29885 net.cpp:156] Memory required for data: 494108160
I0713 13:44:51.785711 29885 layer_factory.hpp:77] Creating layer inception_4e/1x1
I0713 13:44:51.785727 29885 net.cpp:91] Creating Layer inception_4e/1x1
I0713 13:44:51.785732 29885 net.cpp:425] inception_4e/1x1 <- inception_4d/output_inception_4d/output_0_split_0
I0713 13:44:51.785743 29885 net.cpp:399] inception_4e/1x1 -> inception_4e/1x1
I0713 13:44:51.790575 29885 net.cpp:141] Setting up inception_4e/1x1
I0713 13:44:51.790592 29885 net.cpp:148] Top shape: 10 256 14 14 (501760)
I0713 13:44:51.790597 29885 net.cpp:156] Memory required for data: 496115200
I0713 13:44:51.790608 29885 layer_factory.hpp:77] Creating layer inception_4e/relu_1x1
I0713 13:44:51.790617 29885 net.cpp:91] Creating Layer inception_4e/relu_1x1
I0713 13:44:51.790623 29885 net.cpp:425] inception_4e/relu_1x1 <- inception_4e/1x1
I0713 13:44:51.790630 29885 net.cpp:386] inception_4e/relu_1x1 -> inception_4e/1x1 (in-place)
I0713 13:44:51.790900 29885 net.cpp:141] Setting up inception_4e/relu_1x1
I0713 13:44:51.790912 29885 net.cpp:148] Top shape: 10 256 14 14 (501760)
I0713 13:44:51.790917 29885 net.cpp:156] Memory required for data: 498122240
I0713 13:44:51.790925 29885 layer_factory.hpp:77] Creating layer inception_4e/3x3_reduce
I0713 13:44:51.790946 29885 net.cpp:91] Creating Layer inception_4e/3x3_reduce
I0713 13:44:51.790951 29885 net.cpp:425] inception_4e/3x3_reduce <- inception_4d/output_inception_4d/output_0_split_1
I0713 13:44:51.790963 29885 net.cpp:399] inception_4e/3x3_reduce -> inception_4e/3x3_reduce
I0713 13:44:51.793771 29885 net.cpp:141] Setting up inception_4e/3x3_reduce
I0713 13:44:51.793788 29885 net.cpp:148] Top shape: 10 160 14 14 (313600)
I0713 13:44:51.793793 29885 net.cpp:156] Memory required for data: 499376640
I0713 13:44:51.793805 29885 layer_factory.hpp:77] Creating layer inception_4e/relu_3x3_reduce
I0713 13:44:51.793815 29885 net.cpp:91] Creating Layer inception_4e/relu_3x3_reduce
I0713 13:44:51.793822 29885 net.cpp:425] inception_4e/relu_3x3_reduce <- inception_4e/3x3_reduce
I0713 13:44:51.793828 29885 net.cpp:386] inception_4e/relu_3x3_reduce -> inception_4e/3x3_reduce (in-place)
I0713 13:44:51.794075 29885 net.cpp:141] Setting up inception_4e/relu_3x3_reduce
I0713 13:44:51.794086 29885 net.cpp:148] Top shape: 10 160 14 14 (313600)
I0713 13:44:51.794090 29885 net.cpp:156] Memory required for data: 500631040
I0713 13:44:51.794095 29885 layer_factory.hpp:77] Creating layer inception_4e/3x3
I0713 13:44:51.794111 29885 net.cpp:91] Creating Layer inception_4e/3x3
I0713 13:44:51.794117 29885 net.cpp:425] inception_4e/3x3 <- inception_4e/3x3_reduce
I0713 13:44:51.794129 29885 net.cpp:399] inception_4e/3x3 -> inception_4e/3x3
I0713 13:44:51.801158 29885 net.cpp:141] Setting up inception_4e/3x3
I0713 13:44:51.801180 29885 net.cpp:148] Top shape: 10 320 14 14 (627200)
I0713 13:44:51.801185 29885 net.cpp:156] Memory required for data: 503139840
I0713 13:44:51.801194 29885 layer_factory.hpp:77] Creating layer inception_4e/relu_3x3
I0713 13:44:51.801204 29885 net.cpp:91] Creating Layer inception_4e/relu_3x3
I0713 13:44:51.801211 29885 net.cpp:425] inception_4e/relu_3x3 <- inception_4e/3x3
I0713 13:44:51.801221 29885 net.cpp:386] inception_4e/relu_3x3 -> inception_4e/3x3 (in-place)
I0713 13:44:51.802001 29885 net.cpp:141] Setting up inception_4e/relu_3x3
I0713 13:44:51.802017 29885 net.cpp:148] Top shape: 10 320 14 14 (627200)
I0713 13:44:51.802022 29885 net.cpp:156] Memory required for data: 505648640
I0713 13:44:51.802029 29885 layer_factory.hpp:77] Creating layer inception_4e/5x5_reduce
I0713 13:44:51.802049 29885 net.cpp:91] Creating Layer inception_4e/5x5_reduce
I0713 13:44:51.802055 29885 net.cpp:425] inception_4e/5x5_reduce <- inception_4d/output_inception_4d/output_0_split_2
I0713 13:44:51.802068 29885 net.cpp:399] inception_4e/5x5_reduce -> inception_4e/5x5_reduce
I0713 13:44:51.804365 29885 net.cpp:141] Setting up inception_4e/5x5_reduce
I0713 13:44:51.804384 29885 net.cpp:148] Top shape: 10 32 14 14 (62720)
I0713 13:44:51.804389 29885 net.cpp:156] Memory required for data: 505899520
I0713 13:44:51.804399 29885 layer_factory.hpp:77] Creating layer inception_4e/relu_5x5_reduce
I0713 13:44:51.804407 29885 net.cpp:91] Creating Layer inception_4e/relu_5x5_reduce
I0713 13:44:51.804414 29885 net.cpp:425] inception_4e/relu_5x5_reduce <- inception_4e/5x5_reduce
I0713 13:44:51.804425 29885 net.cpp:386] inception_4e/relu_5x5_reduce -> inception_4e/5x5_reduce (in-place)
I0713 13:44:51.804671 29885 net.cpp:141] Setting up inception_4e/relu_5x5_reduce
I0713 13:44:51.804683 29885 net.cpp:148] Top shape: 10 32 14 14 (62720)
I0713 13:44:51.804688 29885 net.cpp:156] Memory required for data: 506150400
I0713 13:44:51.804693 29885 layer_factory.hpp:77] Creating layer inception_4e/5x5
I0713 13:44:51.804710 29885 net.cpp:91] Creating Layer inception_4e/5x5
I0713 13:44:51.804716 29885 net.cpp:425] inception_4e/5x5 <- inception_4e/5x5_reduce
I0713 13:44:51.804725 29885 net.cpp:399] inception_4e/5x5 -> inception_4e/5x5
I0713 13:44:51.808838 29885 net.cpp:141] Setting up inception_4e/5x5
I0713 13:44:51.808858 29885 net.cpp:148] Top shape: 10 128 14 14 (250880)
I0713 13:44:51.808863 29885 net.cpp:156] Memory required for data: 507153920
I0713 13:44:51.808873 29885 layer_factory.hpp:77] Creating layer inception_4e/relu_5x5
I0713 13:44:51.808883 29885 net.cpp:91] Creating Layer inception_4e/relu_5x5
I0713 13:44:51.808889 29885 net.cpp:425] inception_4e/relu_5x5 <- inception_4e/5x5
I0713 13:44:51.808900 29885 net.cpp:386] inception_4e/relu_5x5 -> inception_4e/5x5 (in-place)
I0713 13:44:51.809149 29885 net.cpp:141] Setting up inception_4e/relu_5x5
I0713 13:44:51.809162 29885 net.cpp:148] Top shape: 10 128 14 14 (250880)
I0713 13:44:51.809166 29885 net.cpp:156] Memory required for data: 508157440
I0713 13:44:51.809171 29885 layer_factory.hpp:77] Creating layer inception_4e/pool
I0713 13:44:51.809181 29885 net.cpp:91] Creating Layer inception_4e/pool
I0713 13:44:51.809187 29885 net.cpp:425] inception_4e/pool <- inception_4d/output_inception_4d/output_0_split_3
I0713 13:44:51.809195 29885 net.cpp:399] inception_4e/pool -> inception_4e/pool
I0713 13:44:51.809270 29885 net.cpp:141] Setting up inception_4e/pool
I0713 13:44:51.809280 29885 net.cpp:148] Top shape: 10 528 14 14 (1034880)
I0713 13:44:51.809284 29885 net.cpp:156] Memory required for data: 512296960
I0713 13:44:51.809288 29885 layer_factory.hpp:77] Creating layer inception_4e/pool_proj
I0713 13:44:51.809306 29885 net.cpp:91] Creating Layer inception_4e/pool_proj
I0713 13:44:51.809312 29885 net.cpp:425] inception_4e/pool_proj <- inception_4e/pool
I0713 13:44:51.809322 29885 net.cpp:399] inception_4e/pool_proj -> inception_4e/pool_proj
I0713 13:44:51.812101 29885 net.cpp:141] Setting up inception_4e/pool_proj
I0713 13:44:51.812120 29885 net.cpp:148] Top shape: 10 128 14 14 (250880)
I0713 13:44:51.812125 29885 net.cpp:156] Memory required for data: 513300480
I0713 13:44:51.812135 29885 layer_factory.hpp:77] Creating layer inception_4e/relu_pool_proj
I0713 13:44:51.812144 29885 net.cpp:91] Creating Layer inception_4e/relu_pool_proj
I0713 13:44:51.812150 29885 net.cpp:425] inception_4e/relu_pool_proj <- inception_4e/pool_proj
I0713 13:44:51.812160 29885 net.cpp:386] inception_4e/relu_pool_proj -> inception_4e/pool_proj (in-place)
I0713 13:44:51.812906 29885 net.cpp:141] Setting up inception_4e/relu_pool_proj
I0713 13:44:51.812922 29885 net.cpp:148] Top shape: 10 128 14 14 (250880)
I0713 13:44:51.812927 29885 net.cpp:156] Memory required for data: 514304000
I0713 13:44:51.812932 29885 layer_factory.hpp:77] Creating layer inception_4e/output
I0713 13:44:51.812942 29885 net.cpp:91] Creating Layer inception_4e/output
I0713 13:44:51.812947 29885 net.cpp:425] inception_4e/output <- inception_4e/1x1
I0713 13:44:51.812954 29885 net.cpp:425] inception_4e/output <- inception_4e/3x3
I0713 13:44:51.812963 29885 net.cpp:425] inception_4e/output <- inception_4e/5x5
I0713 13:44:51.812968 29885 net.cpp:425] inception_4e/output <- inception_4e/pool_proj
I0713 13:44:51.812974 29885 net.cpp:399] inception_4e/output -> inception_4e/output
I0713 13:44:51.813021 29885 net.cpp:141] Setting up inception_4e/output
I0713 13:44:51.813030 29885 net.cpp:148] Top shape: 10 832 14 14 (1630720)
I0713 13:44:51.813035 29885 net.cpp:156] Memory required for data: 520826880
I0713 13:44:51.813040 29885 layer_factory.hpp:77] Creating layer pool4/3x3_s2
I0713 13:44:51.813052 29885 net.cpp:91] Creating Layer pool4/3x3_s2
I0713 13:44:51.813058 29885 net.cpp:425] pool4/3x3_s2 <- inception_4e/output
I0713 13:44:51.813068 29885 net.cpp:399] pool4/3x3_s2 -> pool4/3x3_s2
I0713 13:44:51.813132 29885 net.cpp:141] Setting up pool4/3x3_s2
I0713 13:44:51.813141 29885 net.cpp:148] Top shape: 10 832 7 7 (407680)
I0713 13:44:51.813144 29885 net.cpp:156] Memory required for data: 522457600
I0713 13:44:51.813149 29885 layer_factory.hpp:77] Creating layer pool4/3x3_s2_pool4/3x3_s2_0_split
I0713 13:44:51.813160 29885 net.cpp:91] Creating Layer pool4/3x3_s2_pool4/3x3_s2_0_split
I0713 13:44:51.813165 29885 net.cpp:425] pool4/3x3_s2_pool4/3x3_s2_0_split <- pool4/3x3_s2
I0713 13:44:51.813172 29885 net.cpp:399] pool4/3x3_s2_pool4/3x3_s2_0_split -> pool4/3x3_s2_pool4/3x3_s2_0_split_0
I0713 13:44:51.813181 29885 net.cpp:399] pool4/3x3_s2_pool4/3x3_s2_0_split -> pool4/3x3_s2_pool4/3x3_s2_0_split_1
I0713 13:44:51.813189 29885 net.cpp:399] pool4/3x3_s2_pool4/3x3_s2_0_split -> pool4/3x3_s2_pool4/3x3_s2_0_split_2
I0713 13:44:51.813196 29885 net.cpp:399] pool4/3x3_s2_pool4/3x3_s2_0_split -> pool4/3x3_s2_pool4/3x3_s2_0_split_3
I0713 13:44:51.813293 29885 net.cpp:141] Setting up pool4/3x3_s2_pool4/3x3_s2_0_split
I0713 13:44:51.813302 29885 net.cpp:148] Top shape: 10 832 7 7 (407680)
I0713 13:44:51.813308 29885 net.cpp:148] Top shape: 10 832 7 7 (407680)
I0713 13:44:51.813313 29885 net.cpp:148] Top shape: 10 832 7 7 (407680)
I0713 13:44:51.813318 29885 net.cpp:148] Top shape: 10 832 7 7 (407680)
I0713 13:44:51.813321 29885 net.cpp:156] Memory required for data: 528980480
I0713 13:44:51.813326 29885 layer_factory.hpp:77] Creating layer inception_5a/1x1
I0713 13:44:51.813344 29885 net.cpp:91] Creating Layer inception_5a/1x1
I0713 13:44:51.813349 29885 net.cpp:425] inception_5a/1x1 <- pool4/3x3_s2_pool4/3x3_s2_0_split_0
I0713 13:44:51.813359 29885 net.cpp:399] inception_5a/1x1 -> inception_5a/1x1
I0713 13:44:51.818435 29885 net.cpp:141] Setting up inception_5a/1x1
I0713 13:44:51.818462 29885 net.cpp:148] Top shape: 10 256 7 7 (125440)
I0713 13:44:51.818467 29885 net.cpp:156] Memory required for data: 529482240
I0713 13:44:51.818477 29885 layer_factory.hpp:77] Creating layer inception_5a/relu_1x1
I0713 13:44:51.818490 29885 net.cpp:91] Creating Layer inception_5a/relu_1x1
I0713 13:44:51.818496 29885 net.cpp:425] inception_5a/relu_1x1 <- inception_5a/1x1
I0713 13:44:51.818506 29885 net.cpp:386] inception_5a/relu_1x1 -> inception_5a/1x1 (in-place)
I0713 13:44:51.818781 29885 net.cpp:141] Setting up inception_5a/relu_1x1
I0713 13:44:51.818794 29885 net.cpp:148] Top shape: 10 256 7 7 (125440)
I0713 13:44:51.818799 29885 net.cpp:156] Memory required for data: 529984000
I0713 13:44:51.818802 29885 layer_factory.hpp:77] Creating layer inception_5a/3x3_reduce
I0713 13:44:51.818821 29885 net.cpp:91] Creating Layer inception_5a/3x3_reduce
I0713 13:44:51.818827 29885 net.cpp:425] inception_5a/3x3_reduce <- pool4/3x3_s2_pool4/3x3_s2_0_split_1
I0713 13:44:51.818840 29885 net.cpp:399] inception_5a/3x3_reduce -> inception_5a/3x3_reduce
I0713 13:44:51.823175 29885 net.cpp:141] Setting up inception_5a/3x3_reduce
I0713 13:44:51.823195 29885 net.cpp:148] Top shape: 10 160 7 7 (78400)
I0713 13:44:51.823200 29885 net.cpp:156] Memory required for data: 530297600
I0713 13:44:51.823210 29885 layer_factory.hpp:77] Creating layer inception_5a/relu_3x3_reduce
I0713 13:44:51.823223 29885 net.cpp:91] Creating Layer inception_5a/relu_3x3_reduce
I0713 13:44:51.823230 29885 net.cpp:425] inception_5a/relu_3x3_reduce <- inception_5a/3x3_reduce
I0713 13:44:51.823237 29885 net.cpp:386] inception_5a/relu_3x3_reduce -> inception_5a/3x3_reduce (in-place)
I0713 13:44:51.823494 29885 net.cpp:141] Setting up inception_5a/relu_3x3_reduce
I0713 13:44:51.823505 29885 net.cpp:148] Top shape: 10 160 7 7 (78400)
I0713 13:44:51.823510 29885 net.cpp:156] Memory required for data: 530611200
I0713 13:44:51.823515 29885 layer_factory.hpp:77] Creating layer inception_5a/3x3
I0713 13:44:51.823532 29885 net.cpp:91] Creating Layer inception_5a/3x3
I0713 13:44:51.823539 29885 net.cpp:425] inception_5a/3x3 <- inception_5a/3x3_reduce
I0713 13:44:51.823550 29885 net.cpp:399] inception_5a/3x3 -> inception_5a/3x3
I0713 13:44:51.832125 29885 net.cpp:141] Setting up inception_5a/3x3
I0713 13:44:51.832150 29885 net.cpp:148] Top shape: 10 320 7 7 (156800)
I0713 13:44:51.832155 29885 net.cpp:156] Memory required for data: 531238400
I0713 13:44:51.832165 29885 layer_factory.hpp:77] Creating layer inception_5a/relu_3x3
I0713 13:44:51.832178 29885 net.cpp:91] Creating Layer inception_5a/relu_3x3
I0713 13:44:51.832186 29885 net.cpp:425] inception_5a/relu_3x3 <- inception_5a/3x3
I0713 13:44:51.832195 29885 net.cpp:386] inception_5a/relu_3x3 -> inception_5a/3x3 (in-place)
I0713 13:44:51.832952 29885 net.cpp:141] Setting up inception_5a/relu_3x3
I0713 13:44:51.832969 29885 net.cpp:148] Top shape: 10 320 7 7 (156800)
I0713 13:44:51.832973 29885 net.cpp:156] Memory required for data: 531865600
I0713 13:44:51.832979 29885 layer_factory.hpp:77] Creating layer inception_5a/5x5_reduce
I0713 13:44:51.832999 29885 net.cpp:91] Creating Layer inception_5a/5x5_reduce
I0713 13:44:51.833006 29885 net.cpp:425] inception_5a/5x5_reduce <- pool4/3x3_s2_pool4/3x3_s2_0_split_2
I0713 13:44:51.833019 29885 net.cpp:399] inception_5a/5x5_reduce -> inception_5a/5x5_reduce
I0713 13:44:51.835552 29885 net.cpp:141] Setting up inception_5a/5x5_reduce
I0713 13:44:51.835572 29885 net.cpp:148] Top shape: 10 32 7 7 (15680)
I0713 13:44:51.835577 29885 net.cpp:156] Memory required for data: 531928320
I0713 13:44:51.835585 29885 layer_factory.hpp:77] Creating layer inception_5a/relu_5x5_reduce
I0713 13:44:51.835595 29885 net.cpp:91] Creating Layer inception_5a/relu_5x5_reduce
I0713 13:44:51.835602 29885 net.cpp:425] inception_5a/relu_5x5_reduce <- inception_5a/5x5_reduce
I0713 13:44:51.835609 29885 net.cpp:386] inception_5a/relu_5x5_reduce -> inception_5a/5x5_reduce (in-place)
I0713 13:44:51.835860 29885 net.cpp:141] Setting up inception_5a/relu_5x5_reduce
I0713 13:44:51.835870 29885 net.cpp:148] Top shape: 10 32 7 7 (15680)
I0713 13:44:51.835875 29885 net.cpp:156] Memory required for data: 531991040
I0713 13:44:51.835881 29885 layer_factory.hpp:77] Creating layer inception_5a/5x5
I0713 13:44:51.835897 29885 net.cpp:91] Creating Layer inception_5a/5x5
I0713 13:44:51.835903 29885 net.cpp:425] inception_5a/5x5 <- inception_5a/5x5_reduce
I0713 13:44:51.835916 29885 net.cpp:399] inception_5a/5x5 -> inception_5a/5x5
I0713 13:44:51.839282 29885 net.cpp:141] Setting up inception_5a/5x5
I0713 13:44:51.839301 29885 net.cpp:148] Top shape: 10 128 7 7 (62720)
I0713 13:44:51.839306 29885 net.cpp:156] Memory required for data: 532241920
I0713 13:44:51.839315 29885 layer_factory.hpp:77] Creating layer inception_5a/relu_5x5
I0713 13:44:51.839354 29885 net.cpp:91] Creating Layer inception_5a/relu_5x5
I0713 13:44:51.839362 29885 net.cpp:425] inception_5a/relu_5x5 <- inception_5a/5x5
I0713 13:44:51.839371 29885 net.cpp:386] inception_5a/relu_5x5 -> inception_5a/5x5 (in-place)
I0713 13:44:51.839625 29885 net.cpp:141] Setting up inception_5a/relu_5x5
I0713 13:44:51.839637 29885 net.cpp:148] Top shape: 10 128 7 7 (62720)
I0713 13:44:51.839642 29885 net.cpp:156] Memory required for data: 532492800
I0713 13:44:51.839648 29885 layer_factory.hpp:77] Creating layer inception_5a/pool
I0713 13:44:51.839660 29885 net.cpp:91] Creating Layer inception_5a/pool
I0713 13:44:51.839666 29885 net.cpp:425] inception_5a/pool <- pool4/3x3_s2_pool4/3x3_s2_0_split_3
I0713 13:44:51.839675 29885 net.cpp:399] inception_5a/pool -> inception_5a/pool
I0713 13:44:51.839753 29885 net.cpp:141] Setting up inception_5a/pool
I0713 13:44:51.839763 29885 net.cpp:148] Top shape: 10 832 7 7 (407680)
I0713 13:44:51.839767 29885 net.cpp:156] Memory required for data: 534123520
I0713 13:44:51.839772 29885 layer_factory.hpp:77] Creating layer inception_5a/pool_proj
I0713 13:44:51.839789 29885 net.cpp:91] Creating Layer inception_5a/pool_proj
I0713 13:44:51.839795 29885 net.cpp:425] inception_5a/pool_proj <- inception_5a/pool
I0713 13:44:51.839807 29885 net.cpp:399] inception_5a/pool_proj -> inception_5a/pool_proj
I0713 13:44:51.844128 29885 net.cpp:141] Setting up inception_5a/pool_proj
I0713 13:44:51.844149 29885 net.cpp:148] Top shape: 10 128 7 7 (62720)
I0713 13:44:51.844154 29885 net.cpp:156] Memory required for data: 534374400
I0713 13:44:51.844164 29885 layer_factory.hpp:77] Creating layer inception_5a/relu_pool_proj
I0713 13:44:51.844177 29885 net.cpp:91] Creating Layer inception_5a/relu_pool_proj
I0713 13:44:51.844184 29885 net.cpp:425] inception_5a/relu_pool_proj <- inception_5a/pool_proj
I0713 13:44:51.844192 29885 net.cpp:386] inception_5a/relu_pool_proj -> inception_5a/pool_proj (in-place)
I0713 13:44:51.844936 29885 net.cpp:141] Setting up inception_5a/relu_pool_proj
I0713 13:44:51.844952 29885 net.cpp:148] Top shape: 10 128 7 7 (62720)
I0713 13:44:51.844956 29885 net.cpp:156] Memory required for data: 534625280
I0713 13:44:51.844961 29885 layer_factory.hpp:77] Creating layer inception_5a/output
I0713 13:44:51.844975 29885 net.cpp:91] Creating Layer inception_5a/output
I0713 13:44:51.844982 29885 net.cpp:425] inception_5a/output <- inception_5a/1x1
I0713 13:44:51.844990 29885 net.cpp:425] inception_5a/output <- inception_5a/3x3
I0713 13:44:51.844995 29885 net.cpp:425] inception_5a/output <- inception_5a/5x5
I0713 13:44:51.845000 29885 net.cpp:425] inception_5a/output <- inception_5a/pool_proj
I0713 13:44:51.845007 29885 net.cpp:399] inception_5a/output -> inception_5a/output
I0713 13:44:51.845059 29885 net.cpp:141] Setting up inception_5a/output
I0713 13:44:51.845068 29885 net.cpp:148] Top shape: 10 832 7 7 (407680)
I0713 13:44:51.845072 29885 net.cpp:156] Memory required for data: 536256000
I0713 13:44:51.845077 29885 layer_factory.hpp:77] Creating layer inception_5a/output_inception_5a/output_0_split
I0713 13:44:51.845088 29885 net.cpp:91] Creating Layer inception_5a/output_inception_5a/output_0_split
I0713 13:44:51.845093 29885 net.cpp:425] inception_5a/output_inception_5a/output_0_split <- inception_5a/output
I0713 13:44:51.845108 29885 net.cpp:399] inception_5a/output_inception_5a/output_0_split -> inception_5a/output_inception_5a/output_0_split_0
I0713 13:44:51.845118 29885 net.cpp:399] inception_5a/output_inception_5a/output_0_split -> inception_5a/output_inception_5a/output_0_split_1
I0713 13:44:51.845126 29885 net.cpp:399] inception_5a/output_inception_5a/output_0_split -> inception_5a/output_inception_5a/output_0_split_2
I0713 13:44:51.845136 29885 net.cpp:399] inception_5a/output_inception_5a/output_0_split -> inception_5a/output_inception_5a/output_0_split_3
I0713 13:44:51.845242 29885 net.cpp:141] Setting up inception_5a/output_inception_5a/output_0_split
I0713 13:44:51.845250 29885 net.cpp:148] Top shape: 10 832 7 7 (407680)
I0713 13:44:51.845257 29885 net.cpp:148] Top shape: 10 832 7 7 (407680)
I0713 13:44:51.845262 29885 net.cpp:148] Top shape: 10 832 7 7 (407680)
I0713 13:44:51.845266 29885 net.cpp:148] Top shape: 10 832 7 7 (407680)
I0713 13:44:51.845269 29885 net.cpp:156] Memory required for data: 542778880
I0713 13:44:51.845274 29885 layer_factory.hpp:77] Creating layer inception_5b/1x1
I0713 13:44:51.845290 29885 net.cpp:91] Creating Layer inception_5b/1x1
I0713 13:44:51.845295 29885 net.cpp:425] inception_5b/1x1 <- inception_5a/output_inception_5a/output_0_split_0
I0713 13:44:51.845307 29885 net.cpp:399] inception_5b/1x1 -> inception_5b/1x1
I0713 13:44:51.851589 29885 net.cpp:141] Setting up inception_5b/1x1
I0713 13:44:51.851611 29885 net.cpp:148] Top shape: 10 384 7 7 (188160)
I0713 13:44:51.851616 29885 net.cpp:156] Memory required for data: 543531520
I0713 13:44:51.851626 29885 layer_factory.hpp:77] Creating layer inception_5b/relu_1x1
I0713 13:44:51.851639 29885 net.cpp:91] Creating Layer inception_5b/relu_1x1
I0713 13:44:51.851646 29885 net.cpp:425] inception_5b/relu_1x1 <- inception_5b/1x1
I0713 13:44:51.851655 29885 net.cpp:386] inception_5b/relu_1x1 -> inception_5b/1x1 (in-place)
I0713 13:44:51.851907 29885 net.cpp:141] Setting up inception_5b/relu_1x1
I0713 13:44:51.851917 29885 net.cpp:148] Top shape: 10 384 7 7 (188160)
I0713 13:44:51.851922 29885 net.cpp:156] Memory required for data: 544284160
I0713 13:44:51.851927 29885 layer_factory.hpp:77] Creating layer inception_5b/3x3_reduce
I0713 13:44:51.851944 29885 net.cpp:91] Creating Layer inception_5b/3x3_reduce
I0713 13:44:51.851950 29885 net.cpp:425] inception_5b/3x3_reduce <- inception_5a/output_inception_5a/output_0_split_1
I0713 13:44:51.851963 29885 net.cpp:399] inception_5b/3x3_reduce -> inception_5b/3x3_reduce
I0713 13:44:51.856451 29885 net.cpp:141] Setting up inception_5b/3x3_reduce
I0713 13:44:51.856472 29885 net.cpp:148] Top shape: 10 192 7 7 (94080)
I0713 13:44:51.856477 29885 net.cpp:156] Memory required for data: 544660480
I0713 13:44:51.856487 29885 layer_factory.hpp:77] Creating layer inception_5b/relu_3x3_reduce
I0713 13:44:51.856497 29885 net.cpp:91] Creating Layer inception_5b/relu_3x3_reduce
I0713 13:44:51.856501 29885 net.cpp:425] inception_5b/relu_3x3_reduce <- inception_5b/3x3_reduce
I0713 13:44:51.856509 29885 net.cpp:386] inception_5b/relu_3x3_reduce -> inception_5b/3x3_reduce (in-place)
I0713 13:44:51.856763 29885 net.cpp:141] Setting up inception_5b/relu_3x3_reduce
I0713 13:44:51.856775 29885 net.cpp:148] Top shape: 10 192 7 7 (94080)
I0713 13:44:51.856780 29885 net.cpp:156] Memory required for data: 545036800
I0713 13:44:51.856784 29885 layer_factory.hpp:77] Creating layer inception_5b/3x3
I0713 13:44:51.856801 29885 net.cpp:91] Creating Layer inception_5b/3x3
I0713 13:44:51.856807 29885 net.cpp:425] inception_5b/3x3 <- inception_5b/3x3_reduce
I0713 13:44:51.856819 29885 net.cpp:399] inception_5b/3x3 -> inception_5b/3x3
I0713 13:44:51.866199 29885 net.cpp:141] Setting up inception_5b/3x3
I0713 13:44:51.866237 29885 net.cpp:148] Top shape: 10 384 7 7 (188160)
I0713 13:44:51.866243 29885 net.cpp:156] Memory required for data: 545789440
I0713 13:44:51.866253 29885 layer_factory.hpp:77] Creating layer inception_5b/relu_3x3
I0713 13:44:51.866267 29885 net.cpp:91] Creating Layer inception_5b/relu_3x3
I0713 13:44:51.866276 29885 net.cpp:425] inception_5b/relu_3x3 <- inception_5b/3x3
I0713 13:44:51.866286 29885 net.cpp:386] inception_5b/relu_3x3 -> inception_5b/3x3 (in-place)
I0713 13:44:51.867050 29885 net.cpp:141] Setting up inception_5b/relu_3x3
I0713 13:44:51.867068 29885 net.cpp:148] Top shape: 10 384 7 7 (188160)
I0713 13:44:51.867072 29885 net.cpp:156] Memory required for data: 546542080
I0713 13:44:51.867077 29885 layer_factory.hpp:77] Creating layer inception_5b/5x5_reduce
I0713 13:44:51.867096 29885 net.cpp:91] Creating Layer inception_5b/5x5_reduce
I0713 13:44:51.867103 29885 net.cpp:425] inception_5b/5x5_reduce <- inception_5a/output_inception_5a/output_0_split_2
I0713 13:44:51.867112 29885 net.cpp:399] inception_5b/5x5_reduce -> inception_5b/5x5_reduce
I0713 13:44:51.869890 29885 net.cpp:141] Setting up inception_5b/5x5_reduce
I0713 13:44:51.869909 29885 net.cpp:148] Top shape: 10 48 7 7 (23520)
I0713 13:44:51.869913 29885 net.cpp:156] Memory required for data: 546636160
I0713 13:44:51.869922 29885 layer_factory.hpp:77] Creating layer inception_5b/relu_5x5_reduce
I0713 13:44:51.869936 29885 net.cpp:91] Creating Layer inception_5b/relu_5x5_reduce
I0713 13:44:51.869942 29885 net.cpp:425] inception_5b/relu_5x5_reduce <- inception_5b/5x5_reduce
I0713 13:44:51.869951 29885 net.cpp:386] inception_5b/relu_5x5_reduce -> inception_5b/5x5_reduce (in-place)
I0713 13:44:51.870205 29885 net.cpp:141] Setting up inception_5b/relu_5x5_reduce
I0713 13:44:51.870216 29885 net.cpp:148] Top shape: 10 48 7 7 (23520)
I0713 13:44:51.870221 29885 net.cpp:156] Memory required for data: 546730240
I0713 13:44:51.870225 29885 layer_factory.hpp:77] Creating layer inception_5b/5x5
I0713 13:44:51.870245 29885 net.cpp:91] Creating Layer inception_5b/5x5
I0713 13:44:51.870251 29885 net.cpp:425] inception_5b/5x5 <- inception_5b/5x5_reduce
I0713 13:44:51.870260 29885 net.cpp:399] inception_5b/5x5 -> inception_5b/5x5
I0713 13:44:51.874290 29885 net.cpp:141] Setting up inception_5b/5x5
I0713 13:44:51.874312 29885 net.cpp:148] Top shape: 10 128 7 7 (62720)
I0713 13:44:51.874316 29885 net.cpp:156] Memory required for data: 546981120
I0713 13:44:51.874326 29885 layer_factory.hpp:77] Creating layer inception_5b/relu_5x5
I0713 13:44:51.874339 29885 net.cpp:91] Creating Layer inception_5b/relu_5x5
I0713 13:44:51.874346 29885 net.cpp:425] inception_5b/relu_5x5 <- inception_5b/5x5
I0713 13:44:51.874354 29885 net.cpp:386] inception_5b/relu_5x5 -> inception_5b/5x5 (in-place)
I0713 13:44:51.874611 29885 net.cpp:141] Setting up inception_5b/relu_5x5
I0713 13:44:51.874622 29885 net.cpp:148] Top shape: 10 128 7 7 (62720)
I0713 13:44:51.874626 29885 net.cpp:156] Memory required for data: 547232000
I0713 13:44:51.874632 29885 layer_factory.hpp:77] Creating layer inception_5b/pool
I0713 13:44:51.874642 29885 net.cpp:91] Creating Layer inception_5b/pool
I0713 13:44:51.874649 29885 net.cpp:425] inception_5b/pool <- inception_5a/output_inception_5a/output_0_split_3
I0713 13:44:51.874658 29885 net.cpp:399] inception_5b/pool -> inception_5b/pool
I0713 13:44:51.874748 29885 net.cpp:141] Setting up inception_5b/pool
I0713 13:44:51.874761 29885 net.cpp:148] Top shape: 10 832 7 7 (407680)
I0713 13:44:51.874766 29885 net.cpp:156] Memory required for data: 548862720
I0713 13:44:51.874770 29885 layer_factory.hpp:77] Creating layer inception_5b/pool_proj
I0713 13:44:51.874788 29885 net.cpp:91] Creating Layer inception_5b/pool_proj
I0713 13:44:51.874794 29885 net.cpp:425] inception_5b/pool_proj <- inception_5b/pool
I0713 13:44:51.874802 29885 net.cpp:399] inception_5b/pool_proj -> inception_5b/pool_proj
I0713 13:44:51.878805 29885 net.cpp:141] Setting up inception_5b/pool_proj
I0713 13:44:51.878823 29885 net.cpp:148] Top shape: 10 128 7 7 (62720)
I0713 13:44:51.878829 29885 net.cpp:156] Memory required for data: 549113600
I0713 13:44:51.878837 29885 layer_factory.hpp:77] Creating layer inception_5b/relu_pool_proj
I0713 13:44:51.878850 29885 net.cpp:91] Creating Layer inception_5b/relu_pool_proj
I0713 13:44:51.878856 29885 net.cpp:425] inception_5b/relu_pool_proj <- inception_5b/pool_proj
I0713 13:44:51.878865 29885 net.cpp:386] inception_5b/relu_pool_proj -> inception_5b/pool_proj (in-place)
I0713 13:44:51.879621 29885 net.cpp:141] Setting up inception_5b/relu_pool_proj
I0713 13:44:51.879640 29885 net.cpp:148] Top shape: 10 128 7 7 (62720)
I0713 13:44:51.879644 29885 net.cpp:156] Memory required for data: 549364480
I0713 13:44:51.879650 29885 layer_factory.hpp:77] Creating layer inception_5b/output
I0713 13:44:51.879659 29885 net.cpp:91] Creating Layer inception_5b/output
I0713 13:44:51.879665 29885 net.cpp:425] inception_5b/output <- inception_5b/1x1
I0713 13:44:51.879672 29885 net.cpp:425] inception_5b/output <- inception_5b/3x3
I0713 13:44:51.879678 29885 net.cpp:425] inception_5b/output <- inception_5b/5x5
I0713 13:44:51.879683 29885 net.cpp:425] inception_5b/output <- inception_5b/pool_proj
I0713 13:44:51.879691 29885 net.cpp:399] inception_5b/output -> inception_5b/output
I0713 13:44:51.879742 29885 net.cpp:141] Setting up inception_5b/output
I0713 13:44:51.879751 29885 net.cpp:148] Top shape: 10 1024 7 7 (501760)
I0713 13:44:51.879755 29885 net.cpp:156] Memory required for data: 551371520
I0713 13:44:51.879760 29885 layer_factory.hpp:77] Creating layer pool5/7x7_s1
I0713 13:44:51.879775 29885 net.cpp:91] Creating Layer pool5/7x7_s1
I0713 13:44:51.879779 29885 net.cpp:425] pool5/7x7_s1 <- inception_5b/output
I0713 13:44:51.879787 29885 net.cpp:399] pool5/7x7_s1 -> pool5/7x7_s1
I0713 13:44:51.880100 29885 net.cpp:141] Setting up pool5/7x7_s1
I0713 13:44:51.880111 29885 net.cpp:148] Top shape: 10 1024 1 1 (10240)
I0713 13:44:51.880116 29885 net.cpp:156] Memory required for data: 551412480
I0713 13:44:51.880122 29885 layer_factory.hpp:77] Creating layer pool5/drop_7x7_s1
I0713 13:44:51.880138 29885 net.cpp:91] Creating Layer pool5/drop_7x7_s1
I0713 13:44:51.880146 29885 net.cpp:425] pool5/drop_7x7_s1 <- pool5/7x7_s1
I0713 13:44:51.880152 29885 net.cpp:386] pool5/drop_7x7_s1 -> pool5/7x7_s1 (in-place)
I0713 13:44:51.880200 29885 net.cpp:141] Setting up pool5/drop_7x7_s1
I0713 13:44:51.880209 29885 net.cpp:148] Top shape: 10 1024 1 1 (10240)
I0713 13:44:51.880213 29885 net.cpp:156] Memory required for data: 551453440
I0713 13:44:51.880218 29885 layer_factory.hpp:77] Creating layer loss3/classifier
I0713 13:44:51.880239 29885 net.cpp:91] Creating Layer loss3/classifier
I0713 13:44:51.880245 29885 net.cpp:425] loss3/classifier <- pool5/7x7_s1
I0713 13:44:51.880254 29885 net.cpp:399] loss3/classifier -> loss3/classifier
I0713 13:44:51.890743 29885 net.cpp:141] Setting up loss3/classifier
I0713 13:44:51.890770 29885 net.cpp:148] Top shape: 10 1000 (10000)
I0713 13:44:51.890774 29885 net.cpp:156] Memory required for data: 551493440
I0713 13:44:51.890786 29885 layer_factory.hpp:77] Creating layer prob
I0713 13:44:51.890799 29885 net.cpp:91] Creating Layer prob
I0713 13:44:51.890805 29885 net.cpp:425] prob <- loss3/classifier
I0713 13:44:51.890817 29885 net.cpp:399] prob -> prob
I0713 13:44:51.892053 29885 net.cpp:141] Setting up prob
I0713 13:44:51.892071 29885 net.cpp:148] Top shape: 10 1000 (10000)
I0713 13:44:51.892076 29885 net.cpp:156] Memory required for data: 551533440
I0713 13:44:51.892081 29885 net.cpp:219] prob does not need backward computation.
I0713 13:44:51.892086 29885 net.cpp:219] loss3/classifier does not need backward computation.
I0713 13:44:51.892091 29885 net.cpp:219] pool5/drop_7x7_s1 does not need backward computation.
I0713 13:44:51.892096 29885 net.cpp:219] pool5/7x7_s1 does not need backward computation.
…
