…
Java HotSpot(TM) 64-Bit Server VM warning: You have loaded library /tmp/cvld5897425545681073762/libopencv_java310.xine1.so which might have disabled stack guard. The VM will try to fix the stack guard now.
It's highly recommended that you fix the library with 'execstack -c <libfile>', or link it with '-z noexecstack'.
WARNING: Logging before InitGoogleLogging() is written to STDERR
I0720 16:32:57.134192 32667 net.cpp:49] Initializing net from parameters: 
name: "CaffeNet"
state {
  phase: TEST
}
layer {
  name: "data"
  type: "Input"
  top: "data"
  input_param {
    shape {
      dim: 10
      dim: 3
      dim: 227
      dim: 227
    }
  }
}
layer {
  name: "conv1"
  type: "Convolution"
  bottom: "data"
  top: "conv1"
  convolution_param {
    num_output: 96
    kernel_size: 11
    stride: 4
  }
}
layer {
  name: "relu1"
  type: "ReLU"
  bottom: "conv1"
  top: "conv1"
}
layer {
  name: "pool1"
  type: "Pooling"
  bottom: "conv1"
  top: "pool1"
  pooling_param {
    pool: MAX
    kernel_size: 3
    stride: 2
  }
}
layer {
  name: "norm1"
  type: "LRN"
  bottom: "pool1"
  top: "norm1"
  lrn_param {
    local_size: 5
    alpha: 0.0001
    beta: 0.75
  }
}
layer {
  name: "conv2"
  type: "Convolution"
  bottom: "norm1"
  top: "conv2"
  convolution_param {
    num_output: 256
    pad: 2
    kernel_size: 5
    group: 2
  }
}
layer {
  name: "relu2"
  type: "ReLU"
  bottom: "conv2"
  top: "conv2"
}
layer {
  name: "pool2"
  type: "Pooling"
  bottom: "conv2"
  top: "pool2"
  pooling_param {
    pool: MAX
    kernel_size: 3
    stride: 2
  }
}
layer {
  name: "norm2"
  type: "LRN"
  bottom: "pool2"
  top: "norm2"
  lrn_param {
    local_size: 5
    alpha: 0.0001
    beta: 0.75
  }
}
layer {
  name: "conv3"
  type: "Convolution"
  bottom: "norm2"
  top: "conv3"
  convolution_param {
    num_output: 384
    pad: 1
    kernel_size: 3
  }
}
layer {
  name: "relu3"
  type: "ReLU"
  bottom: "conv3"
  top: "conv3"
}
layer {
  name: "conv4"
  type: "Convolution"
  bottom: "conv3"
  top: "conv4"
  convolution_param {
    num_output: 384
    pad: 1
    kernel_size: 3
    group: 2
  }
}
layer {
  name: "relu4"
  type: "ReLU"
  bottom: "conv4"
  top: "conv4"
}
layer {
  name: "conv5"
  type: "Convolution"
  bottom: "conv4"
  top: "conv5"
  convolution_param {
    num_output: 256
    pad: 1
    kernel_size: 3
    group: 2
  }
}
layer {
  name: "relu5"
  type: "ReLU"
  bottom: "conv5"
  top: "conv5"
}
layer {
  name: "pool5"
  type: "Pooling"
  bottom: "conv5"
  top: "pool5"
  pooling_param {
    pool: MAX
    kernel_size: 3
    stride: 2
  }
}
layer {
  name: "fc6"
  type: "InnerProduct"
  bottom: "pool5"
  top: "fc6"
  inner_product_param {
    num_output: 4096
  }
}
layer {
  name: "relu6"
  type: "ReLU"
  bottom: "fc6"
  top: "fc6"
}
layer {
  name: "drop6"
  type: "Dropout"
  bottom: "fc6"
  top: "fc6"
  dropout_param {
    dropout_ratio: 0.5
  }
}
layer {
  name: "fc7"
  type: "InnerProduct"
  bottom: "fc6"
  top: "fc7"
  inner_product_param {
    num_output: 4096
  }
}
layer {
  name: "relu7"
  type: "ReLU"
  bottom: "fc7"
  top: "fc7"
}
layer {
  name: "drop7"
  type: "Dropout"
  bottom: "fc7"
  top: "fc7"
  dropout_param {
    dropout_ratio: 0.5
  }
}
layer {
  name: "fc8"
  type: "InnerProduct"
  bottom: "fc7"
  top: "fc8"
  inner_product_param {
    num_output: 1000
  }
}
layer {
  name: "prob"
  type: "Softmax"
  bottom: "fc8"
  top: "prob"
}
I0720 16:32:57.134412 32667 layer_factory.hpp:77] Creating layer data
I0720 16:32:57.134441 32667 net.cpp:91] Creating Layer data
I0720 16:32:57.134454 32667 net.cpp:399] data -> data
I0720 16:32:57.145783 32661 net.cpp:49] Initializing net from parameters: 
name: "CaffeNet"
state {
  phase: TEST
}
layer {
  name: "data"
  type: "Input"
  top: "data"
  input_param {
    shape {
      dim: 10
      dim: 3
      dim: 227
      dim: 227
    }
  }
}
layer {
  name: "conv1"
  type: "Convolution"
  bottom: "data"
  top: "conv1"
  convolution_param {
    num_output: 96
    kernel_size: 11
    stride: 4
  }
}
layer {
  name: "relu1"
  type: "ReLU"
  bottom: "conv1"
  top: "conv1"
}
layer {
  name: "pool1"
  type: "Pooling"
  bottom: "conv1"
  top: "pool1"
  pooling_param {
    pool: MAX
    kernel_size: 3
    stride: 2
  }
}
layer {
  name: "norm1"
  type: "LRN"
  bottom: "pool1"
  top: "norm1"
  lrn_param {
    local_size: 5
    alpha: 0.0001
    beta: 0.75
  }
}
layer {
  name: "conv2"
  type: "Convolution"
  bottom: "norm1"
  top: "conv2"
  convolution_param {
    num_output: 256
    pad: 2
    kernel_size: 5
    group: 2
  }
}
layer {
  name: "relu2"
  type: "ReLU"
  bottom: "conv2"
  top: "conv2"
}
layer {
  name: "pool2"
  type: "Pooling"
  bottom: "conv2"
  top: "pool2"
  pooling_param {
    pool: MAX
    kernel_size: 3
    stride: 2
  }
}
layer {
  name: "norm2"
  type: "LRN"
  bottom: "pool2"
  top: "norm2"
  lrn_param {
    local_size: 5
    alpha: 0.0001
    beta: 0.75
  }
}
layer {
  name: "conv3"
  type: "Convolution"
  bottom: "norm2"
  top: "conv3"
  convolution_param {
    num_output: 384
    pad: 1
    kernel_size: 3
  }
}
layer {
  name: "relu3"
  type: "ReLU"
  bottom: "conv3"
  top: "conv3"
}
layer {
  name: "conv4"
  type: "Convolution"
  bottom: "conv3"
  top: "conv4"
  convolution_param {
    num_output: 384
    pad: 1
    kernel_size: 3
    group: 2
  }
}
layer {
  name: "relu4"
  type: "ReLU"
  bottom: "conv4"
  top: "conv4"
}
layer {
  name: "conv5"
  type: "Convolution"
  bottom: "conv4"
  top: "conv5"
  convolution_param {
    num_output: 256
    pad: 1
    kernel_size: 3
    group: 2
  }
}
layer {
  name: "relu5"
  type: "ReLU"
  bottom: "conv5"
  top: "conv5"
}
layer {
  name: "pool5"
  type: "Pooling"
  bottom: "conv5"
  top: "pool5"
  pooling_param {
    pool: MAX
    kernel_size: 3
    stride: 2
  }
}
layer {
  name: "fc6"
  type: "InnerProduct"
  bottom: "pool5"
  top: "fc6"
  inner_product_param {
    num_output: 4096
  }
}
layer {
  name: "relu6"
  type: "ReLU"
  bottom: "fc6"
  top: "fc6"
}
layer {
  name: "drop6"
  type: "Dropout"
  bottom: "fc6"
  top: "fc6"
  dropout_param {
    dropout_ratio: 0.5
  }
}
layer {
  name: "fc7"
  type: "InnerProduct"
  bottom: "fc6"
  top: "fc7"
  inner_product_param {
    num_output: 4096
  }
}
layer {
  name: "relu7"
  type: "ReLU"
  bottom: "fc7"
  top: "fc7"
}
layer {
  name: "drop7"
  type: "Dropout"
  bottom: "fc7"
  top: "fc7"
  dropout_param {
    dropout_ratio: 0.5
  }
}
layer {
  name: "fc8"
  type: "InnerProduct"
  bottom: "fc7"
  top: "fc8"
  inner_product_param {
    num_output: 1000
  }
}
layer {
  name: "prob"
  type: "Softmax"
  bottom: "fc8"
  top: "prob"
}
I0720 16:32:57.145896 32661 layer_factory.hpp:77] Creating layer data
I0720 16:32:57.145912 32661 net.cpp:91] Creating Layer data
I0720 16:32:57.145920 32661 net.cpp:399] data -> data
I0720 16:32:57.236080 32653 upgrade_proto.cpp:66] Attempting to upgrade input file specified using deprecated input fields: /tmp/cvld5897425545681073762/s2vt.words_to_preds.prototxt
I0720 16:32:57.236150 32653 upgrade_proto.cpp:69] Successfully upgraded file specified using deprecated input fields.
W0720 16:32:57.236158 32653 upgrade_proto.cpp:71] Note that future Caffe releases will only support input layers and not input fields.
I0720 16:32:57.236425 32653 net.cpp:49] Initializing net from parameters: 
name: "s2vt:features_to_lstm"
state {
  phase: TEST
}
layer {
  name: "input"
  type: "Input"
  top: "frames_fc7"
  top: "cont_sentence"
  top: "input_sentence"
  top: "stage_indicator"
  input_param {
    shape {
      dim: 1
      dim: 4096
    }
    shape {
      dim: 1
      dim: 1
    }
    shape {
      dim: 1
      dim: 1
    }
    shape {
      dim: 1
      dim: 1
    }
  }
}
layer {
  name: "embed_encoder"
  type: "InnerProduct"
  bottom: "frames_fc7"
  top: "embedded_in_frames"
  param {
    lr_mult: 1
    decay_mult: 1
  }
  param {
    lr_mult: 2
    decay_mult: 0
  }
  inner_product_param {
    num_output: 500
    weight_filler {
      type: "xavier"
    }
    bias_filler {
      type: "constant"
      value: 0.2
    }
  }
}
layer {
  name: "reshape_frames"
  type: "Reshape"
  bottom: "embedded_in_frames"
  top: "embedded_input_frames"
  reshape_param {
    shape {
      dim: 1
      dim: 1
      dim: 500
    }
  }
}
layer {
  name: "reshape_stage_indicator"
  type: "Reshape"
  bottom: "stage_indicator"
  top: "reshaped_stage_indicator"
  reshape_param {
    shape {
      dim: 1
      dim: 1
      dim: 1
    }
  }
}
layer {
  name: "embedding"
  type: "Embed"
  bottom: "input_sentence"
  top: "embedded_input_sentence"
  param {
    lr_mult: 1
  }
  embed_param {
    num_output: 500
    input_dim: 46168
    bias_term: false
    weight_filler {
      type: "uniform"
      min: -0.08
      max: 0.08
    }
  }
}
layer {
  name: "lstm1"
  type: "LSTM"
  bottom: "embedded_input_frames"
  bottom: "cont_sentence"
  top: "lstm1"
  recurrent_param {
    num_output: 1000
    weight_filler {
      type: "uniform"
      min: -0.08
      max: 0.08
    }
    bias_filler {
      type: "constant"
      value: 0
    }
  }
}
layer {
  name: "concat"
  type: "Concat"
  bottom: "lstm1"
  bottom: "embedded_input_sentence"
  bottom: "reshaped_stage_indicator"
  top: "lstm1_video_sequence"
  concat_param {
    concat_dim: 2
  }
}
layer {
  name: "lstm2"
  type: "LSTM"
  bottom: "lstm1_video_sequence"
  bottom: "cont_sentence"
  top: "lstm2"
  recurrent_param {
    num_output: 1000
    weight_filler {
      type: "uniform"
      min: -0.08
      max: 0.08
    }
    bias_filler {
      type: "constant"
      value: 0
    }
  }
}
layer {
  name: "predict"
  type: "InnerProduct"
  bottom: "lstm2"
  top: "predict"
  param {
    lr_mult: 1
    decay_mult: 1
  }
  param {
    lr_mult: 2
    decay_mult: 0
  }
  inner_product_param {
    num_output: 46168
    weight_filler {
      type: "uniform"
      min: -0.08
      max: 0.08
    }
    bias_filler {
      type: "constant"
      value: 0
    }
    axis: 2
  }
}
layer {
  name: "probs"
  type: "Softmax"
  bottom: "predict"
  top: "probs"
  softmax_param {
    axis: 2
  }
}
I0720 16:32:57.236564 32653 layer_factory.hpp:77] Creating layer input
I0720 16:32:57.236582 32653 net.cpp:91] Creating Layer input
I0720 16:32:57.236589 32653 net.cpp:399] input -> frames_fc7
I0720 16:32:57.236608 32653 net.cpp:399] input -> cont_sentence
I0720 16:32:57.236621 32653 net.cpp:399] input -> input_sentence
I0720 16:32:57.236631 32653 net.cpp:399] input -> stage_indicator
I0720 16:32:57.237123 32649 upgrade_proto.cpp:66] Attempting to upgrade input file specified using deprecated input fields: /tmp/cvld5897425545681073762/s2vt.words_to_preds.prototxt
I0720 16:32:57.237156 32649 upgrade_proto.cpp:69] Successfully upgraded file specified using deprecated input fields.
W0720 16:32:57.237161 32649 upgrade_proto.cpp:71] Note that future Caffe releases will only support input layers and not input fields.
I0720 16:32:57.237373 32649 net.cpp:49] Initializing net from parameters: 
name: "s2vt:features_to_lstm"
state {
  phase: TEST
}
layer {
  name: "input"
  type: "Input"
  top: "frames_fc7"
  top: "cont_sentence"
  top: "input_sentence"
  top: "stage_indicator"
  input_param {
    shape {
      dim: 1
      dim: 4096
    }
    shape {
      dim: 1
      dim: 1
    }
    shape {
      dim: 1
      dim: 1
    }
    shape {
      dim: 1
      dim: 1
    }
  }
}
layer {
  name: "embed_encoder"
  type: "InnerProduct"
  bottom: "frames_fc7"
  top: "embedded_in_frames"
  param {
    lr_mult: 1
    decay_mult: 1
  }
  param {
    lr_mult: 2
    decay_mult: 0
  }
  inner_product_param {
    num_output: 500
    weight_filler {
      type: "xavier"
    }
    bias_filler {
      type: "constant"
      value: 0.2
    }
  }
}
layer {
  name: "reshape_frames"
  type: "Reshape"
  bottom: "embedded_in_frames"
  top: "embedded_input_frames"
  reshape_param {
    shape {
      dim: 1
      dim: 1
      dim: 500
    }
  }
}
layer {
  name: "reshape_stage_indicator"
  type: "Reshape"
  bottom: "stage_indicator"
  top: "reshaped_stage_indicator"
  reshape_param {
    shape {
      dim: 1
      dim: 1
      dim: 1
    }
  }
}
layer {
  name: "embedding"
  type: "Embed"
  bottom: "input_sentence"
  top: "embedded_input_sentence"
  param {
    lr_mult: 1
  }
  embed_param {
    num_output: 500
    input_dim: 46168
    bias_term: false
    weight_filler {
      type: "uniform"
      min: -0.08
      max: 0.08
    }
  }
}
layer {
  name: "lstm1"
  type: "LSTM"
  bottom: "embedded_input_frames"
  bottom: "cont_sentence"
  top: "lstm1"
  recurrent_param {
    num_output: 1000
    weight_filler {
      type: "uniform"
      min: -0.08
      max: 0.08
    }
    bias_filler {
      type: "constant"
      value: 0
    }
  }
}
layer {
  name: "concat"
  type: "Concat"
  bottom: "lstm1"
  bottom: "embedded_input_sentence"
  bottom: "reshaped_stage_indicator"
  top: "lstm1_video_sequence"
  concat_param {
    concat_dim: 2
  }
}
layer {
  name: "lstm2"
  type: "LSTM"
  bottom: "lstm1_video_sequence"
  bottom: "cont_sentence"
  top: "lstm2"
  recurrent_param {
    num_output: 1000
    weight_filler {
      type: "uniform"
      min: -0.08
      max: 0.08
    }
    bias_filler {
      type: "constant"
      value: 0
    }
  }
}
layer {
  name: "predict"
  type: "InnerProduct"
  bottom: "lstm2"
  top: "predict"
  param {
    lr_mult: 1
    decay_mult: 1
  }
  param {
    lr_mult: 2
    decay_mult: 0
  }
  inner_product_param {
    num_output: 46168
    weight_filler {
      type: "uniform"
      min: -0.08
      max: 0.08
    }
    bias_filler {
      type: "constant"
      value: 0
    }
    axis: 2
  }
}
layer {
  name: "probs"
  type: "Softmax"
  bottom: "predict"
  top: "probs"
  softmax_param {
    axis: 2
  }
}
I0720 16:32:57.237468 32649 layer_factory.hpp:77] Creating layer input
I0720 16:32:57.237483 32649 net.cpp:91] Creating Layer input
I0720 16:32:57.237489 32649 net.cpp:399] input -> frames_fc7
I0720 16:32:57.237505 32649 net.cpp:399] input -> cont_sentence
I0720 16:32:57.237514 32649 net.cpp:399] input -> input_sentence
I0720 16:32:57.237524 32649 net.cpp:399] input -> stage_indicator
I0720 16:32:58.071604 32667 net.cpp:141] Setting up data
I0720 16:32:58.071673 32667 net.cpp:148] Top shape: 10 3 227 227 (1545870)
I0720 16:32:58.071681 32667 net.cpp:156] Memory required for data: 6183480
I0720 16:32:58.071698 32667 layer_factory.hpp:77] Creating layer conv1
I0720 16:32:58.071723 32667 net.cpp:91] Creating Layer conv1
I0720 16:32:58.071732 32667 net.cpp:425] conv1 <- data
I0720 16:32:58.071744 32667 net.cpp:399] conv1 -> conv1
I0720 16:32:58.071802 32649 net.cpp:141] Setting up input
I0720 16:32:58.071820 32649 net.cpp:148] Top shape: 1 4096 (4096)
I0720 16:32:58.071826 32649 net.cpp:148] Top shape: 1 1 (1)
I0720 16:32:58.071832 32649 net.cpp:148] Top shape: 1 1 (1)
I0720 16:32:58.071837 32649 net.cpp:148] Top shape: 1 1 (1)
I0720 16:32:58.071841 32649 net.cpp:156] Memory required for data: 16396
I0720 16:32:58.071847 32649 layer_factory.hpp:77] Creating layer cont_sentence_input_1_split
I0720 16:32:58.071864 32649 net.cpp:91] Creating Layer cont_sentence_input_1_split
I0720 16:32:58.071869 32649 net.cpp:425] cont_sentence_input_1_split <- cont_sentence
I0720 16:32:58.071892 32649 net.cpp:399] cont_sentence_input_1_split -> cont_sentence_input_1_split_0
I0720 16:32:58.071903 32649 net.cpp:399] cont_sentence_input_1_split -> cont_sentence_input_1_split_1
I0720 16:32:58.072090 32649 net.cpp:141] Setting up cont_sentence_input_1_split
I0720 16:32:58.072101 32649 net.cpp:148] Top shape: 1 1 (1)
I0720 16:32:58.072106 32649 net.cpp:148] Top shape: 1 1 (1)
I0720 16:32:58.072111 32649 net.cpp:156] Memory required for data: 16404
I0720 16:32:58.072115 32649 layer_factory.hpp:77] Creating layer embed_encoder
I0720 16:32:58.072135 32649 net.cpp:91] Creating Layer embed_encoder
I0720 16:32:58.072140 32649 net.cpp:425] embed_encoder <- frames_fc7
I0720 16:32:58.072149 32649 net.cpp:399] embed_encoder -> embedded_in_frames
I0720 16:32:58.080783 32661 net.cpp:141] Setting up data
I0720 16:32:58.080842 32661 net.cpp:148] Top shape: 10 3 227 227 (1545870)
I0720 16:32:58.080848 32661 net.cpp:156] Memory required for data: 6183480
I0720 16:32:58.080857 32661 layer_factory.hpp:77] Creating layer conv1
I0720 16:32:58.080881 32661 net.cpp:91] Creating Layer conv1
I0720 16:32:58.080889 32661 net.cpp:425] conv1 <- data
I0720 16:32:58.080899 32661 net.cpp:399] conv1 -> conv1
I0720 16:32:58.081676 32653 net.cpp:141] Setting up input
I0720 16:32:58.081703 32653 net.cpp:148] Top shape: 1 4096 (4096)
I0720 16:32:58.081712 32653 net.cpp:148] Top shape: 1 1 (1)
I0720 16:32:58.081717 32653 net.cpp:148] Top shape: 1 1 (1)
I0720 16:32:58.081722 32653 net.cpp:148] Top shape: 1 1 (1)
I0720 16:32:58.081725 32653 net.cpp:156] Memory required for data: 16396
I0720 16:32:58.081733 32653 layer_factory.hpp:77] Creating layer cont_sentence_input_1_split
I0720 16:32:58.081745 32653 net.cpp:91] Creating Layer cont_sentence_input_1_split
I0720 16:32:58.081751 32653 net.cpp:425] cont_sentence_input_1_split <- cont_sentence
I0720 16:32:58.081761 32653 net.cpp:399] cont_sentence_input_1_split -> cont_sentence_input_1_split_0
I0720 16:32:58.081773 32653 net.cpp:399] cont_sentence_input_1_split -> cont_sentence_input_1_split_1
I0720 16:32:58.081934 32653 net.cpp:141] Setting up cont_sentence_input_1_split
I0720 16:32:58.081945 32653 net.cpp:148] Top shape: 1 1 (1)
I0720 16:32:58.081951 32653 net.cpp:148] Top shape: 1 1 (1)
I0720 16:32:58.081955 32653 net.cpp:156] Memory required for data: 16404
I0720 16:32:58.081960 32653 layer_factory.hpp:77] Creating layer embed_encoder
I0720 16:32:58.081972 32653 net.cpp:91] Creating Layer embed_encoder
I0720 16:32:58.081977 32653 net.cpp:425] embed_encoder <- frames_fc7
I0720 16:32:58.081986 32653 net.cpp:399] embed_encoder -> embedded_in_frames
I0720 16:32:58.145082 32649 net.cpp:141] Setting up embed_encoder
I0720 16:32:58.145123 32649 net.cpp:148] Top shape: 1 500 (500)
I0720 16:32:58.145128 32649 net.cpp:156] Memory required for data: 18404
I0720 16:32:58.145151 32649 layer_factory.hpp:77] Creating layer reshape_frames
I0720 16:32:58.145179 32649 net.cpp:91] Creating Layer reshape_frames
I0720 16:32:58.145185 32649 net.cpp:425] reshape_frames <- embedded_in_frames
I0720 16:32:58.145196 32649 net.cpp:399] reshape_frames -> embedded_input_frames
I0720 16:32:58.146136 32653 net.cpp:141] Setting up embed_encoder
I0720 16:32:58.146155 32653 net.cpp:148] Top shape: 1 500 (500)
I0720 16:32:58.146160 32653 net.cpp:156] Memory required for data: 18404
I0720 16:32:58.146174 32653 layer_factory.hpp:77] Creating layer reshape_frames
I0720 16:32:58.146184 32653 net.cpp:91] Creating Layer reshape_frames
I0720 16:32:58.146190 32653 net.cpp:425] reshape_frames <- embedded_in_frames
I0720 16:32:58.146198 32653 net.cpp:399] reshape_frames -> embedded_input_frames
I0720 16:32:58.148008 32649 net.cpp:141] Setting up reshape_frames
I0720 16:32:58.148026 32649 net.cpp:148] Top shape: 1 1 500 (500)
I0720 16:32:58.148031 32649 net.cpp:156] Memory required for data: 20404
I0720 16:32:58.148036 32649 layer_factory.hpp:77] Creating layer reshape_stage_indicator
I0720 16:32:58.148048 32649 net.cpp:91] Creating Layer reshape_stage_indicator
I0720 16:32:58.148053 32649 net.cpp:425] reshape_stage_indicator <- stage_indicator
I0720 16:32:58.148066 32649 net.cpp:399] reshape_stage_indicator -> reshaped_stage_indicator
I0720 16:32:58.149240 32653 net.cpp:141] Setting up reshape_frames
I0720 16:32:58.149258 32653 net.cpp:148] Top shape: 1 1 500 (500)
I0720 16:32:58.149263 32653 net.cpp:156] Memory required for data: 20404
I0720 16:32:58.149268 32653 layer_factory.hpp:77] Creating layer reshape_stage_indicator
I0720 16:32:58.149279 32653 net.cpp:91] Creating Layer reshape_stage_indicator
I0720 16:32:58.149286 32653 net.cpp:425] reshape_stage_indicator <- stage_indicator
I0720 16:32:58.149296 32653 net.cpp:399] reshape_stage_indicator -> reshaped_stage_indicator
I0720 16:32:58.151612 32649 net.cpp:141] Setting up reshape_stage_indicator
I0720 16:32:58.151633 32649 net.cpp:148] Top shape: 1 1 1 (1)
I0720 16:32:58.151636 32649 net.cpp:156] Memory required for data: 20408
I0720 16:32:58.151643 32649 layer_factory.hpp:77] Creating layer embedding
I0720 16:32:58.151662 32649 net.cpp:91] Creating Layer embedding
I0720 16:32:58.151669 32649 net.cpp:425] embedding <- input_sentence
I0720 16:32:58.151676 32649 net.cpp:399] embedding -> embedded_input_sentence
I0720 16:32:58.154337 32653 net.cpp:141] Setting up reshape_stage_indicator
I0720 16:32:58.154356 32653 net.cpp:148] Top shape: 1 1 1 (1)
I0720 16:32:58.154361 32653 net.cpp:156] Memory required for data: 20408
I0720 16:32:58.154366 32653 layer_factory.hpp:77] Creating layer embedding
I0720 16:32:58.154377 32653 net.cpp:91] Creating Layer embedding
I0720 16:32:58.154382 32653 net.cpp:425] embedding <- input_sentence
I0720 16:32:58.154395 32653 net.cpp:399] embedding -> embedded_input_sentence
I0720 16:32:58.430831 32649 net.cpp:141] Setting up embedding
I0720 16:32:58.430877 32649 net.cpp:148] Top shape: 1 1 500 (500)
I0720 16:32:58.430883 32649 net.cpp:156] Memory required for data: 22408
I0720 16:32:58.430899 32649 layer_factory.hpp:77] Creating layer lstm1
I0720 16:32:58.430915 32649 net.cpp:91] Creating Layer lstm1
I0720 16:32:58.430922 32649 net.cpp:425] lstm1 <- embedded_input_frames
I0720 16:32:58.430930 32649 net.cpp:425] lstm1 <- cont_sentence_input_1_split_0
I0720 16:32:58.430941 32649 net.cpp:399] lstm1 -> lstm1
I0720 16:32:58.430970 32649 recurrent_layer.cpp:20] Initializing recurrent layer: assuming input batch contains 1 timesteps of 1 independent streams.
I0720 16:32:58.432255 32649 net.cpp:49] Initializing net from parameters: 
layer {
  name: "lstm1_"
  type: "Input"
  top: "x"
  top: "cont"
  input_param {
    shape {
      dim: 1
      dim: 1
      dim: 500
    }
    shape {
      dim: 1
      dim: 1
    }
  }
}
layer {
  name: "lstm1_"
  type: "Input"
  top: "c_0"
  top: "h_0"
  input_param {
    shape {
      dim: 1
      dim: 1
      dim: 1000
    }
    shape {
      dim: 1
      dim: 1
      dim: 1000
    }
  }
}
layer {
  name: "lstm1_cont_slice"
  type: "Slice"
  bottom: "cont"
  top: "cont_1"
  slice_param {
    axis: 0
  }
}
layer {
  name: "lstm1_x_transform"
  type: "InnerProduct"
  bottom: "x"
  top: "W_xc_x"
  param {
    name: "W_xc"
  }
  param {
    name: "b_c"
  }
  propagate_down: true
  inner_product_param {
    num_output: 4000
    bias_term: true
    weight_filler {
      type: "uniform"
      min: -0.08
      max: 0.08
    }
    bias_filler {
      type: "constant"
      value: 0
    }
    axis: 2
  }
}
layer {
  name: "lstm1_W_xc_x_slice"
  type: "Slice"
  bottom: "W_xc_x"
  top: "W_xc_x_1"
  slice_param {
    axis: 0
  }
}
layer {
  name: "lstm1_h_conted_0"
  type: "Scale"
  bottom: "h_0"
  bottom: "cont_1"
  top: "h_conted_0"
  scale_param {
    axis: 0
  }
}
layer {
  name: "lstm1_transform_1"
  type: "InnerProduct"
  bottom: "h_conted_0"
  top: "W_hc_h_0"
  param {
    name: "W_hc"
  }
  inner_product_param {
    num_output: 4000
    bias_term: false
    weight_filler {
      type: "uniform"
      min: -0.08
      max: 0.08
    }
    axis: 2
  }
}
layer {
  name: "lstm1_gate_input_1"
  type: "Eltwise"
  bottom: "W_hc_h_0"
  bottom: "W_xc_x_1"
  top: "gate_input_1"
  eltwise_param {
    operation: SUM
  }
}
layer {
  name: "lstm1_unit_1"
  type: "LSTMUnit"
  bottom: "c_0"
  bottom: "gate_input_1"
  bottom: "cont_1"
  top: "c_1"
  top: "h_1"
}
layer {
  name: "lstm1_"
  type: "Split"
  bottom: "c_1"
  top: "c_T"
}
layer {
  name: "lstm1_h_concat"
  type: "Concat"
  bottom: "h_1"
  top: "h"
  concat_param {
    axis: 0
  }
}
layer {
  name: "h_pseudoloss"
  type: "Reduction"
  bottom: "h"
  top: "h_pseudoloss"
  loss_weight: 1
}
I0720 16:32:58.432437 32649 layer_factory.hpp:77] Creating layer lstm1_
I0720 16:32:58.432461 32649 net.cpp:91] Creating Layer lstm1_
I0720 16:32:58.432474 32649 net.cpp:399] lstm1_ -> x
I0720 16:32:58.432492 32649 net.cpp:399] lstm1_ -> cont
I0720 16:32:58.433301 32653 net.cpp:141] Setting up embedding
I0720 16:32:58.433322 32653 net.cpp:148] Top shape: 1 1 500 (500)
I0720 16:32:58.433331 32653 net.cpp:156] Memory required for data: 22408
I0720 16:32:58.433348 32653 layer_factory.hpp:77] Creating layer lstm1
I0720 16:32:58.433367 32653 net.cpp:91] Creating Layer lstm1
I0720 16:32:58.433377 32653 net.cpp:425] lstm1 <- embedded_input_frames
I0720 16:32:58.433387 32653 net.cpp:425] lstm1 <- cont_sentence_input_1_split_0
I0720 16:32:58.433403 32653 net.cpp:399] lstm1 -> lstm1
I0720 16:32:58.433418 32653 recurrent_layer.cpp:20] Initializing recurrent layer: assuming input batch contains 1 timesteps of 1 independent streams.
I0720 16:32:58.433745 32653 net.cpp:49] Initializing net from parameters: 
layer {
  name: "lstm1_"
  type: "Input"
  top: "x"
  top: "cont"
  input_param {
    shape {
      dim: 1
      dim: 1
      dim: 500
    }
    shape {
      dim: 1
      dim: 1
    }
  }
}
layer {
  name: "lstm1_"
  type: "Input"
  top: "c_0"
  top: "h_0"
  input_param {
    shape {
      dim: 1
      dim: 1
      dim: 1000
    }
    shape {
      dim: 1
      dim: 1
      dim: 1000
    }
  }
}
layer {
  name: "lstm1_cont_slice"
  type: "Slice"
  bottom: "cont"
  top: "cont_1"
  slice_param {
    axis: 0
  }
}
layer {
  name: "lstm1_x_transform"
  type: "InnerProduct"
  bottom: "x"
  top: "W_xc_x"
  param {
    name: "W_xc"
  }
  param {
    name: "b_c"
  }
  propagate_down: true
  inner_product_param {
    num_output: 4000
    bias_term: true
    weight_filler {
      type: "uniform"
      min: -0.08
      max: 0.08
    }
    bias_filler {
      type: "constant"
      value: 0
    }
    axis: 2
  }
}
layer {
  name: "lstm1_W_xc_x_slice"
  type: "Slice"
  bottom: "W_xc_x"
  top: "W_xc_x_1"
  slice_param {
    axis: 0
  }
}
layer {
  name: "lstm1_h_conted_0"
  type: "Scale"
  bottom: "h_0"
  bottom: "cont_1"
  top: "h_conted_0"
  scale_param {
    axis: 0
  }
}
layer {
  name: "lstm1_transform_1"
  type: "InnerProduct"
  bottom: "h_conted_0"
  top: "W_hc_h_0"
  param {
    name: "W_hc"
  }
  inner_product_param {
    num_output: 4000
    bias_term: false
    weight_filler {
      type: "uniform"
      min: -0.08
      max: 0.08
    }
    axis: 2
  }
}
layer {
  name: "lstm1_gate_input_1"
  type: "Eltwise"
  bottom: "W_hc_h_0"
  bottom: "W_xc_x_1"
  top: "gate_input_1"
  eltwise_param {
    operation: SUM
  }
}
layer {
  name: "lstm1_unit_1"
  type: "LSTMUnit"
  bottom: "c_0"
  bottom: "gate_input_1"
  bottom: "cont_1"
  top: "c_1"
  top: "h_1"
}
layer {
  name: "lstm1_"
  type: "Split"
  bottom: "c_1"
  top: "c_T"
}
layer {
  name: "lstm1_h_concat"
  type: "Concat"
  bottom: "h_1"
  top: "h"
  concat_param {
    axis: 0
  }
}
layer {
  name: "h_pseudoloss"
  type: "Reduction"
  bottom: "h"
  top: "h_pseudoloss"
  loss_weight: 1
}
I0720 16:32:58.433866 32653 layer_factory.hpp:77] Creating layer lstm1_
I0720 16:32:58.433886 32653 net.cpp:91] Creating Layer lstm1_
I0720 16:32:58.433897 32653 net.cpp:399] lstm1_ -> x
I0720 16:32:58.433913 32653 net.cpp:399] lstm1_ -> cont
I0720 16:32:58.441540 32649 net.cpp:141] Setting up lstm1_
I0720 16:32:58.441581 32649 net.cpp:148] Top shape: 1 1 500 (500)
I0720 16:32:58.441593 32649 net.cpp:148] Top shape: 1 1 (1)
I0720 16:32:58.441601 32649 net.cpp:156] Memory required for data: 2004
I0720 16:32:58.441613 32649 layer_factory.hpp:77] Creating layer lstm1_
I0720 16:32:58.441648 32649 net.cpp:91] Creating Layer lstm1_
I0720 16:32:58.441660 32649 net.cpp:399] lstm1_ -> c_0
I0720 16:32:58.441668 32653 net.cpp:141] Setting up lstm1_
I0720 16:32:58.441685 32653 net.cpp:148] Top shape: 1 1 500 (500)
I0720 16:32:58.441689 32649 net.cpp:399] lstm1_ -> h_0
I0720 16:32:58.441692 32653 net.cpp:148] Top shape: 1 1 (1)
I0720 16:32:58.441697 32653 net.cpp:156] Memory required for data: 2004
I0720 16:32:58.441704 32653 layer_factory.hpp:77] Creating layer lstm1_
I0720 16:32:58.441715 32653 net.cpp:91] Creating Layer lstm1_
I0720 16:32:58.441723 32653 net.cpp:399] lstm1_ -> c_0
I0720 16:32:58.441735 32653 net.cpp:399] lstm1_ -> h_0
I0720 16:32:58.446949 32649 net.cpp:141] Setting up lstm1_
I0720 16:32:58.446975 32649 net.cpp:148] Top shape: 1 1 1000 (1000)
I0720 16:32:58.446995 32649 net.cpp:148] Top shape: 1 1 1000 (1000)
I0720 16:32:58.447001 32649 net.cpp:156] Memory required for data: 10004
I0720 16:32:58.447010 32649 layer_factory.hpp:77] Creating layer lstm1_cont_slice
I0720 16:32:58.447031 32649 net.cpp:91] Creating Layer lstm1_cont_slice
I0720 16:32:58.447039 32649 net.cpp:425] lstm1_cont_slice <- cont
I0720 16:32:58.447051 32649 net.cpp:399] lstm1_cont_slice -> cont_1
I0720 16:32:58.447926 32653 net.cpp:141] Setting up lstm1_
I0720 16:32:58.447944 32653 net.cpp:148] Top shape: 1 1 1000 (1000)
I0720 16:32:58.447950 32653 net.cpp:148] Top shape: 1 1 1000 (1000)
I0720 16:32:58.447954 32653 net.cpp:156] Memory required for data: 10004
I0720 16:32:58.447959 32653 layer_factory.hpp:77] Creating layer lstm1_cont_slice
I0720 16:32:58.447969 32653 net.cpp:91] Creating Layer lstm1_cont_slice
I0720 16:32:58.447974 32653 net.cpp:425] lstm1_cont_slice <- cont
I0720 16:32:58.447983 32653 net.cpp:399] lstm1_cont_slice -> cont_1
I0720 16:32:58.447993 32649 net.cpp:141] Setting up lstm1_cont_slice
I0720 16:32:58.448011 32649 net.cpp:148] Top shape: 1 1 (1)
I0720 16:32:58.448019 32649 net.cpp:156] Memory required for data: 10008
I0720 16:32:58.448029 32649 layer_factory.hpp:77] Creating layer cont_1_lstm1_cont_slice_0_split
I0720 16:32:58.448045 32649 net.cpp:91] Creating Layer cont_1_lstm1_cont_slice_0_split
I0720 16:32:58.448053 32649 net.cpp:425] cont_1_lstm1_cont_slice_0_split <- cont_1
I0720 16:32:58.448065 32649 net.cpp:399] cont_1_lstm1_cont_slice_0_split -> cont_1_lstm1_cont_slice_0_split_0
I0720 16:32:58.448078 32649 net.cpp:399] cont_1_lstm1_cont_slice_0_split -> cont_1_lstm1_cont_slice_0_split_1
I0720 16:32:58.452739 32653 net.cpp:141] Setting up lstm1_cont_slice
I0720 16:32:58.452760 32653 net.cpp:148] Top shape: 1 1 (1)
I0720 16:32:58.452765 32653 net.cpp:156] Memory required for data: 10008
I0720 16:32:58.452770 32653 layer_factory.hpp:77] Creating layer cont_1_lstm1_cont_slice_0_split
I0720 16:32:58.452785 32653 net.cpp:91] Creating Layer cont_1_lstm1_cont_slice_0_split
I0720 16:32:58.452790 32653 net.cpp:425] cont_1_lstm1_cont_slice_0_split <- cont_1
I0720 16:32:58.452796 32653 net.cpp:399] cont_1_lstm1_cont_slice_0_split -> cont_1_lstm1_cont_slice_0_split_0
I0720 16:32:58.452805 32653 net.cpp:399] cont_1_lstm1_cont_slice_0_split -> cont_1_lstm1_cont_slice_0_split_1
I0720 16:32:58.453694 32649 net.cpp:141] Setting up cont_1_lstm1_cont_slice_0_split
I0720 16:32:58.453716 32649 net.cpp:148] Top shape: 1 1 (1)
I0720 16:32:58.453727 32649 net.cpp:148] Top shape: 1 1 (1)
I0720 16:32:58.453735 32649 net.cpp:156] Memory required for data: 10016
I0720 16:32:58.453744 32649 layer_factory.hpp:77] Creating layer lstm1_x_transform
I0720 16:32:58.453769 32649 net.cpp:91] Creating Layer lstm1_x_transform
I0720 16:32:58.453779 32649 net.cpp:425] lstm1_x_transform <- x
I0720 16:32:58.453794 32649 net.cpp:399] lstm1_x_transform -> W_xc_x
I0720 16:32:58.464397 32653 net.cpp:141] Setting up cont_1_lstm1_cont_slice_0_split
I0720 16:32:58.464426 32653 net.cpp:148] Top shape: 1 1 (1)
I0720 16:32:58.464433 32653 net.cpp:148] Top shape: 1 1 (1)
I0720 16:32:58.464437 32653 net.cpp:156] Memory required for data: 10016
I0720 16:32:58.464444 32653 layer_factory.hpp:77] Creating layer lstm1_x_transform
I0720 16:32:58.464463 32653 net.cpp:91] Creating Layer lstm1_x_transform
I0720 16:32:58.464469 32653 net.cpp:425] lstm1_x_transform <- x
I0720 16:32:58.464478 32653 net.cpp:399] lstm1_x_transform -> W_xc_x
I0720 16:32:58.528373 32649 net.cpp:141] Setting up lstm1_x_transform
I0720 16:32:58.528429 32649 net.cpp:148] Top shape: 1 1 4000 (4000)
I0720 16:32:58.528435 32649 net.cpp:156] Memory required for data: 26016
I0720 16:32:58.528462 32649 layer_factory.hpp:77] Creating layer lstm1_W_xc_x_slice
I0720 16:32:58.528481 32649 net.cpp:91] Creating Layer lstm1_W_xc_x_slice
I0720 16:32:58.528488 32649 net.cpp:425] lstm1_W_xc_x_slice <- W_xc_x
I0720 16:32:58.528498 32649 net.cpp:399] lstm1_W_xc_x_slice -> W_xc_x_1
I0720 16:32:58.542600 32649 net.cpp:141] Setting up lstm1_W_xc_x_slice
I0720 16:32:58.542625 32649 net.cpp:148] Top shape: 1 1 4000 (4000)
I0720 16:32:58.542630 32649 net.cpp:156] Memory required for data: 42016
I0720 16:32:58.542635 32649 layer_factory.hpp:77] Creating layer lstm1_h_conted_0
I0720 16:32:58.542651 32649 net.cpp:91] Creating Layer lstm1_h_conted_0
I0720 16:32:58.542657 32649 net.cpp:425] lstm1_h_conted_0 <- h_0
I0720 16:32:58.542665 32649 net.cpp:425] lstm1_h_conted_0 <- cont_1_lstm1_cont_slice_0_split_0
I0720 16:32:58.542670 32649 net.cpp:399] lstm1_h_conted_0 -> h_conted_0
I0720 16:32:58.545889 32653 net.cpp:141] Setting up lstm1_x_transform
I0720 16:32:58.545912 32653 net.cpp:148] Top shape: 1 1 4000 (4000)
I0720 16:32:58.545917 32653 net.cpp:156] Memory required for data: 26016
I0720 16:32:58.545930 32653 layer_factory.hpp:77] Creating layer lstm1_W_xc_x_slice
I0720 16:32:58.545944 32653 net.cpp:91] Creating Layer lstm1_W_xc_x_slice
I0720 16:32:58.545951 32653 net.cpp:425] lstm1_W_xc_x_slice <- W_xc_x
I0720 16:32:58.545959 32653 net.cpp:399] lstm1_W_xc_x_slice -> W_xc_x_1
I0720 16:32:58.553472 32653 net.cpp:141] Setting up lstm1_W_xc_x_slice
I0720 16:32:58.553495 32653 net.cpp:148] Top shape: 1 1 4000 (4000)
I0720 16:32:58.553500 32653 net.cpp:156] Memory required for data: 42016
I0720 16:32:58.553506 32653 layer_factory.hpp:77] Creating layer lstm1_h_conted_0
I0720 16:32:58.553520 32653 net.cpp:91] Creating Layer lstm1_h_conted_0
I0720 16:32:58.553526 32653 net.cpp:425] lstm1_h_conted_0 <- h_0
I0720 16:32:58.553534 32653 net.cpp:425] lstm1_h_conted_0 <- cont_1_lstm1_cont_slice_0_split_0
I0720 16:32:58.553540 32653 net.cpp:399] lstm1_h_conted_0 -> h_conted_0
I0720 16:32:58.565292 32649 net.cpp:141] Setting up lstm1_h_conted_0
I0720 16:32:58.565316 32649 net.cpp:148] Top shape: 1 1 1000 (1000)
I0720 16:32:58.565322 32649 net.cpp:156] Memory required for data: 46016
I0720 16:32:58.565327 32649 layer_factory.hpp:77] Creating layer lstm1_transform_1
I0720 16:32:58.565343 32649 net.cpp:91] Creating Layer lstm1_transform_1
I0720 16:32:58.565349 32649 net.cpp:425] lstm1_transform_1 <- h_conted_0
I0720 16:32:58.565361 32649 net.cpp:399] lstm1_transform_1 -> W_hc_h_0
I0720 16:32:58.566244 32653 net.cpp:141] Setting up lstm1_h_conted_0
I0720 16:32:58.566263 32653 net.cpp:148] Top shape: 1 1 1000 (1000)
I0720 16:32:58.566269 32653 net.cpp:156] Memory required for data: 46016
I0720 16:32:58.566274 32653 layer_factory.hpp:77] Creating layer lstm1_transform_1
I0720 16:32:58.566285 32653 net.cpp:91] Creating Layer lstm1_transform_1
I0720 16:32:58.566292 32653 net.cpp:425] lstm1_transform_1 <- h_conted_0
I0720 16:32:58.566303 32653 net.cpp:399] lstm1_transform_1 -> W_hc_h_0
I0720 16:32:58.590114 32661 net.cpp:141] Setting up conv1
I0720 16:32:58.590157 32661 net.cpp:148] Top shape: 10 96 55 55 (2904000)
I0720 16:32:58.590163 32661 net.cpp:156] Memory required for data: 17799480
I0720 16:32:58.590183 32661 layer_factory.hpp:77] Creating layer relu1
I0720 16:32:58.590203 32661 net.cpp:91] Creating Layer relu1
I0720 16:32:58.590209 32661 net.cpp:425] relu1 <- conv1
I0720 16:32:58.590216 32661 net.cpp:386] relu1 -> conv1 (in-place)
I0720 16:32:58.591017 32661 net.cpp:141] Setting up relu1
I0720 16:32:58.591033 32661 net.cpp:148] Top shape: 10 96 55 55 (2904000)
I0720 16:32:58.591038 32661 net.cpp:156] Memory required for data: 29415480
I0720 16:32:58.591044 32661 layer_factory.hpp:77] Creating layer pool1
I0720 16:32:58.591058 32661 net.cpp:91] Creating Layer pool1
I0720 16:32:58.591064 32661 net.cpp:425] pool1 <- conv1
I0720 16:32:58.591073 32661 net.cpp:399] pool1 -> pool1
I0720 16:32:58.591786 32667 net.cpp:141] Setting up conv1
I0720 16:32:58.591807 32661 net.cpp:141] Setting up pool1
I0720 16:32:58.591833 32667 net.cpp:148] Top shape: 10 96 55 55 (2904000)
I0720 16:32:58.591835 32661 net.cpp:148] Top shape: 10 96 27 27 (699840)
I0720 16:32:58.591843 32667 net.cpp:156] Memory required for data: 17799480
I0720 16:32:58.591851 32661 net.cpp:156] Memory required for data: 32214840
I0720 16:32:58.591866 32661 layer_factory.hpp:77] Creating layer norm1
I0720 16:32:58.591876 32667 layer_factory.hpp:77] Creating layer relu1
I0720 16:32:58.591886 32661 net.cpp:91] Creating Layer norm1
I0720 16:32:58.591892 32661 net.cpp:425] norm1 <- pool1
I0720 16:32:58.591895 32667 net.cpp:91] Creating Layer relu1
I0720 16:32:58.591898 32661 net.cpp:399] norm1 -> norm1
I0720 16:32:58.591902 32667 net.cpp:425] relu1 <- conv1
I0720 16:32:58.591910 32667 net.cpp:386] relu1 -> conv1 (in-place)
I0720 16:32:58.592665 32667 net.cpp:141] Setting up relu1
I0720 16:32:58.592681 32667 net.cpp:148] Top shape: 10 96 55 55 (2904000)
I0720 16:32:58.592686 32667 net.cpp:156] Memory required for data: 29415480
I0720 16:32:58.592692 32667 layer_factory.hpp:77] Creating layer pool1
I0720 16:32:58.592702 32667 net.cpp:91] Creating Layer pool1
I0720 16:32:58.592706 32667 net.cpp:425] pool1 <- conv1
I0720 16:32:58.592713 32667 net.cpp:399] pool1 -> pool1
I0720 16:32:58.593005 32667 net.cpp:141] Setting up pool1
I0720 16:32:58.593016 32667 net.cpp:148] Top shape: 10 96 27 27 (699840)
I0720 16:32:58.593020 32667 net.cpp:156] Memory required for data: 32214840
I0720 16:32:58.593025 32667 layer_factory.hpp:77] Creating layer norm1
I0720 16:32:58.593040 32667 net.cpp:91] Creating Layer norm1
I0720 16:32:58.593045 32667 net.cpp:425] norm1 <- pool1
I0720 16:32:58.593052 32667 net.cpp:399] norm1 -> norm1
I0720 16:32:58.593852 32661 net.cpp:141] Setting up norm1
I0720 16:32:58.593866 32661 net.cpp:148] Top shape: 10 96 27 27 (699840)
I0720 16:32:58.593871 32661 net.cpp:156] Memory required for data: 35014200
I0720 16:32:58.593876 32661 layer_factory.hpp:77] Creating layer conv2
I0720 16:32:58.593894 32661 net.cpp:91] Creating Layer conv2
I0720 16:32:58.593899 32661 net.cpp:425] conv2 <- norm1
I0720 16:32:58.593907 32661 net.cpp:399] conv2 -> conv2
I0720 16:32:58.594101 32667 net.cpp:141] Setting up norm1
I0720 16:32:58.594115 32667 net.cpp:148] Top shape: 10 96 27 27 (699840)
I0720 16:32:58.594120 32667 net.cpp:156] Memory required for data: 35014200
I0720 16:32:58.594125 32667 layer_factory.hpp:77] Creating layer conv2
I0720 16:32:58.594141 32667 net.cpp:91] Creating Layer conv2
I0720 16:32:58.594146 32667 net.cpp:425] conv2 <- norm1
I0720 16:32:58.594153 32667 net.cpp:399] conv2 -> conv2
I0720 16:32:58.602623 32661 net.cpp:141] Setting up conv2
I0720 16:32:58.602648 32661 net.cpp:148] Top shape: 10 256 27 27 (1866240)
I0720 16:32:58.602653 32661 net.cpp:156] Memory required for data: 42479160
I0720 16:32:58.602665 32661 layer_factory.hpp:77] Creating layer relu2
I0720 16:32:58.602674 32661 net.cpp:91] Creating Layer relu2
I0720 16:32:58.602679 32661 net.cpp:425] relu2 <- conv2
I0720 16:32:58.602705 32661 net.cpp:386] relu2 -> conv2 (in-place)
I0720 16:32:58.603677 32661 net.cpp:141] Setting up relu2
I0720 16:32:58.603695 32661 net.cpp:148] Top shape: 10 256 27 27 (1866240)
I0720 16:32:58.603700 32661 net.cpp:156] Memory required for data: 49944120
I0720 16:32:58.603705 32661 layer_factory.hpp:77] Creating layer pool2
I0720 16:32:58.603710 32667 net.cpp:141] Setting up conv2
I0720 16:32:58.603721 32661 net.cpp:91] Creating Layer pool2
I0720 16:32:58.603744 32661 net.cpp:425] pool2 <- conv2
I0720 16:32:58.603745 32667 net.cpp:148] Top shape: 10 256 27 27 (1866240)
I0720 16:32:58.603756 32661 net.cpp:399] pool2 -> pool2
I0720 16:32:58.603760 32667 net.cpp:156] Memory required for data: 42479160
I0720 16:32:58.603782 32667 layer_factory.hpp:77] Creating layer relu2
I0720 16:32:58.603796 32667 net.cpp:91] Creating Layer relu2
I0720 16:32:58.603802 32667 net.cpp:425] relu2 <- conv2
I0720 16:32:58.603809 32667 net.cpp:386] relu2 -> conv2 (in-place)
I0720 16:32:58.604620 32661 net.cpp:141] Setting up pool2
I0720 16:32:58.604631 32661 net.cpp:148] Top shape: 10 256 13 13 (432640)
I0720 16:32:58.604635 32661 net.cpp:156] Memory required for data: 51674680
I0720 16:32:58.604640 32661 layer_factory.hpp:77] Creating layer norm2
I0720 16:32:58.604655 32661 net.cpp:91] Creating Layer norm2
I0720 16:32:58.604660 32661 net.cpp:425] norm2 <- pool2
I0720 16:32:58.604667 32661 net.cpp:399] norm2 -> norm2
I0720 16:32:58.604722 32667 net.cpp:141] Setting up relu2
I0720 16:32:58.604735 32667 net.cpp:148] Top shape: 10 256 27 27 (1866240)
I0720 16:32:58.604740 32667 net.cpp:156] Memory required for data: 49944120
I0720 16:32:58.604745 32667 layer_factory.hpp:77] Creating layer pool2
I0720 16:32:58.604758 32667 net.cpp:91] Creating Layer pool2
I0720 16:32:58.604763 32667 net.cpp:425] pool2 <- conv2
I0720 16:32:58.604770 32667 net.cpp:399] pool2 -> pool2
I0720 16:32:58.604964 32667 net.cpp:141] Setting up pool2
I0720 16:32:58.604975 32667 net.cpp:148] Top shape: 10 256 13 13 (432640)
I0720 16:32:58.604979 32667 net.cpp:156] Memory required for data: 51674680
I0720 16:32:58.604984 32667 layer_factory.hpp:77] Creating layer norm2
I0720 16:32:58.604998 32667 net.cpp:91] Creating Layer norm2
I0720 16:32:58.605003 32667 net.cpp:425] norm2 <- pool2
I0720 16:32:58.605010 32667 net.cpp:399] norm2 -> norm2
I0720 16:32:58.605290 32661 net.cpp:141] Setting up norm2
I0720 16:32:58.605305 32661 net.cpp:148] Top shape: 10 256 13 13 (432640)
I0720 16:32:58.605309 32661 net.cpp:156] Memory required for data: 53405240
I0720 16:32:58.605314 32661 layer_factory.hpp:77] Creating layer conv3
I0720 16:32:58.605325 32661 net.cpp:91] Creating Layer conv3
I0720 16:32:58.605330 32661 net.cpp:425] conv3 <- norm2
I0720 16:32:58.605343 32661 net.cpp:399] conv3 -> conv3
I0720 16:32:58.605614 32667 net.cpp:141] Setting up norm2
I0720 16:32:58.605626 32667 net.cpp:148] Top shape: 10 256 13 13 (432640)
I0720 16:32:58.605630 32667 net.cpp:156] Memory required for data: 53405240
I0720 16:32:58.605635 32667 layer_factory.hpp:77] Creating layer conv3
I0720 16:32:58.605653 32667 net.cpp:91] Creating Layer conv3
I0720 16:32:58.605657 32667 net.cpp:425] conv3 <- norm2
I0720 16:32:58.605666 32667 net.cpp:399] conv3 -> conv3
I0720 16:32:58.616044 32649 net.cpp:141] Setting up lstm1_transform_1
I0720 16:32:58.616093 32649 net.cpp:148] Top shape: 1 1 4000 (4000)
I0720 16:32:58.616099 32649 net.cpp:156] Memory required for data: 62016
I0720 16:32:58.616118 32649 layer_factory.hpp:77] Creating layer lstm1_gate_input_1
I0720 16:32:58.616138 32649 net.cpp:91] Creating Layer lstm1_gate_input_1
I0720 16:32:58.616145 32649 net.cpp:425] lstm1_gate_input_1 <- W_hc_h_0
I0720 16:32:58.616153 32649 net.cpp:425] lstm1_gate_input_1 <- W_xc_x_1
I0720 16:32:58.616161 32649 net.cpp:399] lstm1_gate_input_1 -> gate_input_1
I0720 16:32:58.616307 32649 net.cpp:141] Setting up lstm1_gate_input_1
I0720 16:32:58.616318 32649 net.cpp:148] Top shape: 1 1 4000 (4000)
I0720 16:32:58.616322 32649 net.cpp:156] Memory required for data: 78016
I0720 16:32:58.616327 32649 layer_factory.hpp:77] Creating layer lstm1_unit_1
I0720 16:32:58.616338 32649 net.cpp:91] Creating Layer lstm1_unit_1
I0720 16:32:58.616343 32649 net.cpp:425] lstm1_unit_1 <- c_0
I0720 16:32:58.616349 32649 net.cpp:425] lstm1_unit_1 <- gate_input_1
I0720 16:32:58.616354 32649 net.cpp:425] lstm1_unit_1 <- cont_1_lstm1_cont_slice_0_split_1
I0720 16:32:58.616360 32649 net.cpp:399] lstm1_unit_1 -> c_1
I0720 16:32:58.616369 32649 net.cpp:399] lstm1_unit_1 -> h_1
I0720 16:32:58.616377 32661 net.cpp:141] Setting up conv3
I0720 16:32:58.616416 32661 net.cpp:148] Top shape: 10 384 13 13 (648960)
I0720 16:32:58.616422 32661 net.cpp:156] Memory required for data: 56001080
I0720 16:32:58.616438 32661 layer_factory.hpp:77] Creating layer relu3
I0720 16:32:58.616453 32661 net.cpp:91] Creating Layer relu3
I0720 16:32:58.616459 32661 net.cpp:425] relu3 <- conv3
I0720 16:32:58.616466 32661 net.cpp:386] relu3 -> conv3 (in-place)
I0720 16:32:58.617262 32649 net.cpp:141] Setting up lstm1_unit_1
I0720 16:32:58.617274 32649 net.cpp:148] Top shape: 1 1 1000 (1000)
I0720 16:32:58.617280 32649 net.cpp:148] Top shape: 1 1 1000 (1000)
I0720 16:32:58.617283 32649 net.cpp:156] Memory required for data: 86016
I0720 16:32:58.617287 32649 layer_factory.hpp:77] Creating layer lstm1_
I0720 16:32:58.617296 32649 net.cpp:91] Creating Layer lstm1_
I0720 16:32:58.617300 32649 net.cpp:425] lstm1_ <- c_1
I0720 16:32:58.617307 32649 net.cpp:399] lstm1_ -> c_T
I0720 16:32:58.617352 32653 net.cpp:141] Setting up lstm1_transform_1
I0720 16:32:58.617369 32653 net.cpp:148] Top shape: 1 1 4000 (4000)
I0720 16:32:58.617373 32653 net.cpp:156] Memory required for data: 62016
I0720 16:32:58.617389 32653 layer_factory.hpp:77] Creating layer lstm1_gate_input_1
I0720 16:32:58.617403 32653 net.cpp:91] Creating Layer lstm1_gate_input_1
I0720 16:32:58.617408 32653 net.cpp:425] lstm1_gate_input_1 <- W_hc_h_0
I0720 16:32:58.617411 32649 net.cpp:141] Setting up lstm1_
I0720 16:32:58.617415 32653 net.cpp:425] lstm1_gate_input_1 <- W_xc_x_1
I0720 16:32:58.617421 32667 net.cpp:141] Setting up conv3
I0720 16:32:58.617430 32653 net.cpp:399] lstm1_gate_input_1 -> gate_input_1
I0720 16:32:58.617426 32649 net.cpp:148] Top shape: 1 1 1000 (1000)
I0720 16:32:58.617439 32649 net.cpp:156] Memory required for data: 90016
I0720 16:32:58.617440 32667 net.cpp:148] Top shape: 10 384 13 13 (648960)
I0720 16:32:58.617444 32649 layer_factory.hpp:77] Creating layer lstm1_h_concat
I0720 16:32:58.617445 32667 net.cpp:156] Memory required for data: 56001080
I0720 16:32:58.617455 32649 net.cpp:91] Creating Layer lstm1_h_concat
I0720 16:32:58.617460 32667 layer_factory.hpp:77] Creating layer relu3
I0720 16:32:58.617463 32649 net.cpp:425] lstm1_h_concat <- h_1
I0720 16:32:58.617451 32661 net.cpp:141] Setting up relu3
I0720 16:32:58.617477 32667 net.cpp:91] Creating Layer relu3
I0720 16:32:58.617480 32649 net.cpp:399] lstm1_h_concat -> h
I0720 16:32:58.617483 32661 net.cpp:148] Top shape: 10 384 13 13 (648960)
I0720 16:32:58.617492 32661 net.cpp:156] Memory required for data: 58596920
I0720 16:32:58.617483 32667 net.cpp:425] relu3 <- conv3
I0720 16:32:58.617501 32653 net.cpp:141] Setting up lstm1_gate_input_1
I0720 16:32:58.617501 32661 layer_factory.hpp:77] Creating layer conv4
I0720 16:32:58.617511 32667 net.cpp:386] relu3 -> conv3 (in-place)
I0720 16:32:58.617512 32653 net.cpp:148] Top shape: 1 1 4000 (4000)
I0720 16:32:58.617517 32653 net.cpp:156] Memory required for data: 78016
I0720 16:32:58.617522 32653 layer_factory.hpp:77] Creating layer lstm1_unit_1
I0720 16:32:58.617525 32661 net.cpp:91] Creating Layer conv4
I0720 16:32:58.617532 32653 net.cpp:91] Creating Layer lstm1_unit_1
I0720 16:32:58.617533 32661 net.cpp:425] conv4 <- conv3
I0720 16:32:58.617542 32653 net.cpp:425] lstm1_unit_1 <- c_0
I0720 16:32:58.617552 32661 net.cpp:399] conv4 -> conv4
I0720 16:32:58.617557 32653 net.cpp:425] lstm1_unit_1 <- gate_input_1
I0720 16:32:58.617557 32649 net.cpp:141] Setting up lstm1_h_concat
I0720 16:32:58.617565 32653 net.cpp:425] lstm1_unit_1 <- cont_1_lstm1_cont_slice_0_split_1
I0720 16:32:58.617575 32649 net.cpp:148] Top shape: 1 1 1000 (1000)
I0720 16:32:58.617578 32653 net.cpp:399] lstm1_unit_1 -> c_1
I0720 16:32:58.617579 32649 net.cpp:156] Memory required for data: 94016
I0720 16:32:58.617590 32649 layer_factory.hpp:77] Creating layer h_pseudoloss
I0720 16:32:58.617590 32653 net.cpp:399] lstm1_unit_1 -> h_1
I0720 16:32:58.617609 32649 net.cpp:91] Creating Layer h_pseudoloss
I0720 16:32:58.617614 32649 net.cpp:425] h_pseudoloss <- h
I0720 16:32:58.617619 32649 net.cpp:399] h_pseudoloss -> h_pseudoloss
I0720 16:32:58.618657 32649 net.cpp:141] Setting up h_pseudoloss
I0720 16:32:58.618669 32649 net.cpp:148] Top shape: (1)
I0720 16:32:58.618693 32653 net.cpp:141] Setting up lstm1_unit_1
I0720 16:32:58.618711 32653 net.cpp:148] Top shape: 1 1 1000 (1000)
I0720 16:32:58.618718 32653 net.cpp:148] Top shape: 1 1 1000 (1000)
I0720 16:32:58.618722 32653 net.cpp:156] Memory required for data: 86016
I0720 16:32:58.618674 32649 net.cpp:151]     with loss weight 1
I0720 16:32:58.618727 32653 layer_factory.hpp:77] Creating layer lstm1_
I0720 16:32:58.618729 32649 net.cpp:156] Memory required for data: 94020
I0720 16:32:58.618734 32649 net.cpp:217] h_pseudoloss needs backward computation.
I0720 16:32:58.618738 32653 net.cpp:91] Creating Layer lstm1_
I0720 16:32:58.618739 32649 net.cpp:217] lstm1_h_concat needs backward computation.
I0720 16:32:58.618747 32653 net.cpp:425] lstm1_ <- c_1
I0720 16:32:58.618742 32667 net.cpp:141] Setting up relu3
I0720 16:32:58.618757 32653 net.cpp:399] lstm1_ -> c_T
I0720 16:32:58.618753 32649 net.cpp:219] lstm1_ does not need backward computation.
I0720 16:32:58.618763 32649 net.cpp:217] lstm1_unit_1 needs backward computation.
I0720 16:32:58.618763 32667 net.cpp:148] Top shape: 10 384 13 13 (648960)
I0720 16:32:58.618772 32649 net.cpp:217] lstm1_gate_input_1 needs backward computation.
I0720 16:32:58.618775 32667 net.cpp:156] Memory required for data: 58596920
I0720 16:32:58.618777 32649 net.cpp:217] lstm1_transform_1 needs backward computation.
I0720 16:32:58.618780 32667 layer_factory.hpp:77] Creating layer conv4
I0720 16:32:58.618782 32649 net.cpp:219] lstm1_h_conted_0 does not need backward computation.
I0720 16:32:58.618793 32649 net.cpp:217] lstm1_W_xc_x_slice needs backward computation.
I0720 16:32:58.618798 32649 net.cpp:217] lstm1_x_transform needs backward computation.
I0720 16:32:58.618803 32649 net.cpp:219] cont_1_lstm1_cont_slice_0_split does not need backward computation.
I0720 16:32:58.618804 32667 net.cpp:91] Creating Layer conv4
I0720 16:32:58.618808 32649 net.cpp:219] lstm1_cont_slice does not need backward computation.
I0720 16:32:58.618809 32667 net.cpp:425] conv4 <- conv3
I0720 16:32:58.618813 32649 net.cpp:219] lstm1_ does not need backward computation.
I0720 16:32:58.618818 32667 net.cpp:399] conv4 -> conv4
I0720 16:32:58.618818 32649 net.cpp:219] lstm1_ does not need backward computation.
I0720 16:32:58.618826 32649 net.cpp:261] This network produces output c_T
I0720 16:32:58.618831 32649 net.cpp:261] This network produces output h_pseudoloss
I0720 16:32:58.618850 32649 net.cpp:274] Network initialization done.
I0720 16:32:58.618865 32653 net.cpp:141] Setting up lstm1_
I0720 16:32:58.618876 32653 net.cpp:148] Top shape: 1 1 1000 (1000)
I0720 16:32:58.618880 32653 net.cpp:156] Memory required for data: 90016
I0720 16:32:58.618885 32653 layer_factory.hpp:77] Creating layer lstm1_h_concat
I0720 16:32:58.618894 32653 net.cpp:91] Creating Layer lstm1_h_concat
I0720 16:32:58.618898 32653 net.cpp:425] lstm1_h_concat <- h_1
I0720 16:32:58.618907 32653 net.cpp:399] lstm1_h_concat -> h
I0720 16:32:58.618916 32649 recurrent_layer.cpp:150] Adding parameter 0: W_xc
I0720 16:32:58.618922 32649 recurrent_layer.cpp:150] Adding parameter 1: b_c
I0720 16:32:58.618927 32649 recurrent_layer.cpp:150] Adding parameter 2: W_hc
I0720 16:32:58.619081 32653 net.cpp:141] Setting up lstm1_h_concat
I0720 16:32:58.619091 32653 net.cpp:148] Top shape: 1 1 1000 (1000)
I0720 16:32:58.619096 32653 net.cpp:156] Memory required for data: 94016
I0720 16:32:58.619099 32653 layer_factory.hpp:77] Creating layer h_pseudoloss
I0720 16:32:58.619107 32653 net.cpp:91] Creating Layer h_pseudoloss
I0720 16:32:58.619112 32653 net.cpp:425] h_pseudoloss <- h
I0720 16:32:58.619118 32653 net.cpp:399] h_pseudoloss -> h_pseudoloss
I0720 16:32:58.621309 32649 net.cpp:141] Setting up lstm1
I0720 16:32:58.621321 32649 net.cpp:148] Top shape: 1 1 1000 (1000)
I0720 16:32:58.621326 32649 net.cpp:156] Memory required for data: 26408
I0720 16:32:58.621340 32649 layer_factory.hpp:77] Creating layer concat
I0720 16:32:58.621348 32649 net.cpp:91] Creating Layer concat
I0720 16:32:58.621356 32649 net.cpp:425] concat <- lstm1
I0720 16:32:58.621362 32649 net.cpp:425] concat <- embedded_input_sentence
I0720 16:32:58.621367 32649 net.cpp:425] concat <- reshaped_stage_indicator
I0720 16:32:58.621373 32649 net.cpp:399] concat -> lstm1_video_sequence
I0720 16:32:58.621992 32653 net.cpp:141] Setting up h_pseudoloss
I0720 16:32:58.622004 32653 net.cpp:148] Top shape: (1)
I0720 16:32:58.622010 32649 net.cpp:141] Setting up concat
I0720 16:32:58.622009 32653 net.cpp:151]     with loss weight 1
I0720 16:32:58.622023 32649 net.cpp:148] Top shape: 1 1 1501 (1501)
I0720 16:32:58.622023 32653 net.cpp:156] Memory required for data: 94020
I0720 16:32:58.622028 32649 net.cpp:156] Memory required for data: 32412
I0720 16:32:58.622030 32653 net.cpp:217] h_pseudoloss needs backward computation.
I0720 16:32:58.622033 32649 layer_factory.hpp:77] Creating layer lstm2
I0720 16:32:58.622035 32653 net.cpp:217] lstm1_h_concat needs backward computation.
I0720 16:32:58.622040 32653 net.cpp:219] lstm1_ does not need backward computation.
…
I0720 16:32:58.622170 32653 recurrent_layer.cpp:150] Adding parameter 2: W_hc
I0720 16:32:58.623288 32649 net.cpp:49] Initializing net from parameters: 
layer {
  name: "lstm2_"
  type: "Input"
  top: "x"
  top: "cont"
  input_param {
    shape {
      dim: 1
      dim: 1
      dim: 1501
    }
    shape {
      dim: 1
      dim: 1
    }
  }
}
layer {
  name: "lstm2_"
  type: "Input"
  top: "c_0"
  top: "h_0"
  input_param {
    shape {
      dim: 1
      dim: 1
      dim: 1000
    }
    shape {
      dim: 1
      dim: 1
      dim: 1000
    }
  }
}
layer {
  name: "lstm2_cont_slice"
  type: "Slice"
  bottom: "cont"
  top: "cont_1"
  slice_param {
    axis: 0
  }
}
layer {
  name: "lstm2_x_transform"
  type: "InnerProduct"
  bottom: "x"
  top: "W_xc_x"
  param {
    name: "W_xc"
  }
  param {
    name: "b_c"
  }
  propagate_down: true
  inner_product_param {
    num_output: 4000
    bias_term: true
    weight_filler {
      type: "uniform"
      min: -0.08
      max: 0.08
    }
    bias_filler {
      type: "constant"
      value: 0
    }
    axis: 2
  }
}
layer {
  name: "lstm2_W_xc_x_slice"
  type: "Slice"
  bottom: "W_xc_x"
  top: "W_xc_x_1"
  slice_param {
    axis: 0
  }
}
layer {
  name: "lstm2_h_conted_0"
  type: "Scale"
  bottom: "h_0"
  bottom: "cont_1"
  top: "h_conted_0"
  scale_param {
    axis: 0
  }
}
layer {
  name: "lstm2_transform_1"
  type: "InnerProduct"
  bottom: "h_conted_0"
  top: "W_hc_h_0"
  param {
    name: "W_hc"
  }
  inner_product_param {
    num_output: 4000
    bias_term: false
    weight_filler {
      type: "uniform"
      min: -0.08
      max: 0.08
    }
    axis: 2
  }
}
layer {
  name: "lstm2_gate_input_1"
  type: "Eltwise"
  bottom: "W_hc_h_0"
  bottom: "W_xc_x_1"
  top: "gate_input_1"
  eltwise_param {
    operation: SUM
  }
}
layer {
  name: "lstm2_unit_1"
  type: "LSTMUnit"
  bottom: "c_0"
  bottom: "gate_input_1"
  bottom: "cont_1"
  top: "c_1"
  top: "h_1"
}
layer {
  name: "lstm2_"
  type: "Split"
  bottom: "c_1"
  top: "c_T"
}
layer {
  name: "lstm2_h_concat"
  type: "Concat"
  bottom: "h_1"
  top: "h"
  concat_param {
    axis: 0
  }
}
layer {
  name: "h_pseudoloss"
  type: "Reduction"
  bottom: "h"
  top: "h_pseudoloss"
  loss_weight: 1
}
I0720 16:32:58.623389 32649 layer_factory.hpp:77] Creating layer lstm2_
I0720 16:32:58.623400 32649 net.cpp:91] Creating Layer lstm2_
I0720 16:32:58.623406 32649 net.cpp:399] lstm2_ -> x
I0720 16:32:58.623417 32649 net.cpp:399] lstm2_ -> cont
I0720 16:32:58.625008 32653 net.cpp:141] Setting up lstm1
I0720 16:32:58.625027 32653 net.cpp:148] Top shape: 1 1 1000 (1000)
I0720 16:32:58.625032 32653 net.cpp:156] Memory required for data: 26408
I0720 16:32:58.625046 32653 layer_factory.hpp:77] Creating layer concat
I0720 16:32:58.625057 32653 net.cpp:91] Creating Layer concat
I0720 16:32:58.625063 32653 net.cpp:425] concat <- lstm1
I0720 16:32:58.625071 32653 net.cpp:425] concat <- embedded_input_sentence
I0720 16:32:58.625075 32653 net.cpp:425] concat <- reshaped_stage_indicator
I0720 16:32:58.625082 32653 net.cpp:399] concat -> lstm1_video_sequence
I0720 16:32:58.625085 32649 net.cpp:141] Setting up lstm2_
I0720 16:32:58.625102 32649 net.cpp:148] Top shape: 1 1 1501 (1501)
I0720 16:32:58.625108 32649 net.cpp:148] Top shape: 1 1 (1)
I0720 16:32:58.625113 32649 net.cpp:156] Memory required for data: 6008
I0720 16:32:58.625118 32649 layer_factory.hpp:77] Creating layer lstm2_
I0720 16:32:58.625128 32649 net.cpp:91] Creating Layer lstm2_
I0720 16:32:58.625138 32649 net.cpp:399] lstm2_ -> c_0
I0720 16:32:58.625149 32649 net.cpp:399] lstm2_ -> h_0
I0720 16:32:58.625553 32649 net.cpp:141] Setting up lstm2_
I0720 16:32:58.625565 32649 net.cpp:148] Top shape: 1 1 1000 (1000)
I0720 16:32:58.625569 32649 net.cpp:148] Top shape: 1 1 1000 (1000)
I0720 16:32:58.625573 32649 net.cpp:156] Memory required for data: 14008
I0720 16:32:58.625577 32649 layer_factory.hpp:77] Creating layer lstm2_cont_slice
I0720 16:32:58.625577 32653 net.cpp:141] Setting up concat
I0720 16:32:58.625587 32649 net.cpp:91] Creating Layer lstm2_cont_slice
I0720 16:32:58.625589 32653 net.cpp:148] Top shape: 1 1 1501 (1501)
I0720 16:32:58.625593 32649 net.cpp:425] lstm2_cont_slice <- cont
I0720 16:32:58.625594 32653 net.cpp:156] Memory required for data: 32412
I0720 16:32:58.625604 32649 net.cpp:399] lstm2_cont_slice -> cont_1
I0720 16:32:58.625607 32653 layer_factory.hpp:77] Creating layer lstm2
I0720 16:32:58.625618 32653 net.cpp:91] Creating Layer lstm2
I0720 16:32:58.625623 32653 net.cpp:425] lstm2 <- lstm1_video_sequence
I0720 16:32:58.625629 32653 net.cpp:425] lstm2 <- cont_sentence_input_1_split_1
I0720 16:32:58.625636 32653 net.cpp:399] lstm2 -> lstm2
I0720 16:32:58.625645 32653 recurrent_layer.cpp:20] Initializing recurrent layer: assuming input batch contains 1 timesteps of 1 independent streams.
I0720 16:32:58.625670 32649 net.cpp:141] Setting up lstm2_cont_slice
I0720 16:32:58.625680 32649 net.cpp:148] Top shape: 1 1 (1)
I0720 16:32:58.625684 32649 net.cpp:156] Memory required for data: 14012
I0720 16:32:58.625689 32649 layer_factory.hpp:77] Creating layer cont_1_lstm2_cont_slice_0_split
I0720 16:32:58.625695 32649 net.cpp:91] Creating Layer cont_1_lstm2_cont_slice_0_split
I0720 16:32:58.625700 32649 net.cpp:425] cont_1_lstm2_cont_slice_0_split <- cont_1
I0720 16:32:58.625711 32649 net.cpp:399] cont_1_lstm2_cont_slice_0_split -> cont_1_lstm2_cont_slice_0_split_0
I0720 16:32:58.625720 32649 net.cpp:399] cont_1_lstm2_cont_slice_0_split -> cont_1_lstm2_cont_slice_0_split_1
I0720 16:32:58.625841 32653 net.cpp:49] Initializing net from parameters: 
layer {
  name: "lstm2_"
  type: "Input"
  top: "x"
  top: "cont"
  input_param {
    shape {
      dim: 1
      dim: 1
      dim: 1501
    }
    shape {
      dim: 1
      dim: 1
    }
  }
}
layer {
  name: "lstm2_"
  type: "Input"
  top: "c_0"
  top: "h_0"
  input_param {
    shape {
      dim: 1
      dim: 1
      dim: 1000
    }
    shape {
      dim: 1
      dim: 1
      dim: 1000
    }
  }
}
layer {
  name: "lstm2_cont_slice"
  type: "Slice"
  bottom: "cont"
  top: "cont_1"
  slice_param {
    axis: 0
  }
}
layer {
  name: "lstm2_x_transform"
  type: "InnerProduct"
  bottom: "x"
  top: "W_xc_x"
  param {
    name: "W_xc"
  }
  param {
    name: "b_c"
  }
  propagate_down: true
  inner_product_param {
    num_output: 4000
    bias_term: true
    weight_filler {
      type: "uniform"
      min: -0.08
      max: 0.08
    }
    bias_filler {
      type: "constant"
      value: 0
    }
    axis: 2
  }
}
layer {
  name: "lstm2_W_xc_x_slice"
  type: "Slice"
  bottom: "W_xc_x"
  top: "W_xc_x_1"
  slice_param {
    axis: 0
  }
}
layer {
  name: "lstm2_h_conted_0"
  type: "Scale"
  bottom: "h_0"
  bottom: "cont_1"
  top: "h_conted_0"
  scale_param {
    axis: 0
  }
}
layer {
  name: "lstm2_transform_1"
  type: "InnerProduct"
  bottom: "h_conted_0"
  top: "W_hc_h_0"
  param {
    name: "W_hc"
  }
  inner_product_param {
    num_output: 4000
    bias_term: false
    weight_filler {
      type: "uniform"
      min: -0.08
      max: 0.08
    }
    axis: 2
  }
}
layer {
  name: "lstm2_gate_input_1"
  type: "Eltwise"
  bottom: "W_hc_h_0"
  bottom: "W_xc_x_1"
  top: "gate_input_1"
  eltwise_param {
    operation: SUM
  }
}
layer {
  name: "lstm2_unit_1"
  type: "LSTMUnit"
  bottom: "c_0"
  bottom: "gate_input_1"
  bottom: "cont_1"
  top: "c_1"
  top: "h_1"
}
layer {
  name: "lstm2_"
  type: "Split"
  bottom: "c_1"
  top: "c_T"
}
layer {
  name: "lstm2_h_concat"
  type: "Concat"
  bottom: "h_1"
  top: "h"
  concat_param {
    axis: 0
  }
}
layer {
  name: "h_pseudoloss"
  type: "Reduction"
  bottom: "h"
  top: "h_pseudoloss"
  loss_weight: 1
}
I0720 16:32:58.625919 32653 layer_factory.hpp:77] Creating layer lstm2_
I0720 16:32:58.625929 32653 net.cpp:91] Creating Layer lstm2_
I0720 16:32:58.625936 32653 net.cpp:399] lstm2_ -> x
I0720 16:32:58.625946 32653 net.cpp:399] lstm2_ -> cont
I0720 16:32:58.627249 32649 net.cpp:141] Setting up cont_1_lstm2_cont_slice_0_split
I0720 16:32:58.627261 32649 net.cpp:148] Top shape: 1 1 (1)
I0720 16:32:58.627266 32649 net.cpp:148] Top shape: 1 1 (1)
I0720 16:32:58.627270 32649 net.cpp:156] Memory required for data: 14020
I0720 16:32:58.627275 32649 layer_factory.hpp:77] Creating layer lstm2_x_transform
I0720 16:32:58.627288 32649 net.cpp:91] Creating Layer lstm2_x_transform
I0720 16:32:58.627293 32649 net.cpp:425] lstm2_x_transform <- x
I0720 16:32:58.627300 32649 net.cpp:399] lstm2_x_transform -> W_xc_x
I0720 16:32:58.627315 32653 net.cpp:141] Setting up lstm2_
I0720 16:32:58.627326 32653 net.cpp:148] Top shape: 1 1 1501 (1501)
I0720 16:32:58.627331 32653 net.cpp:148] Top shape: 1 1 (1)
I0720 16:32:58.627336 32653 net.cpp:156] Memory required for data: 6008
I0720 16:32:58.627341 32653 layer_factory.hpp:77] Creating layer lstm2_
I0720 16:32:58.627348 32653 net.cpp:91] Creating Layer lstm2_
I0720 16:32:58.627354 32653 net.cpp:399] lstm2_ -> c_0
I0720 16:32:58.627367 32653 net.cpp:399] lstm2_ -> h_0
I0720 16:32:58.640092 32653 net.cpp:141] Setting up lstm2_
I0720 16:32:58.640136 32653 net.cpp:148] Top shape: 1 1 1000 (1000)
I0720 16:32:58.640142 32653 net.cpp:148] Top shape: 1 1 1000 (1000)
I0720 16:32:58.640146 32653 net.cpp:156] Memory required for data: 14008
I0720 16:32:58.640156 32653 layer_factory.hpp:77] Creating layer lstm2_cont_slice
I0720 16:32:58.640177 32653 net.cpp:91] Creating Layer lstm2_cont_slice
I0720 16:32:58.640183 32653 net.cpp:425] lstm2_cont_slice <- cont
I0720 16:32:58.640194 32653 net.cpp:399] lstm2_cont_slice -> cont_1
I0720 16:32:58.640483 32653 net.cpp:141] Setting up lstm2_cont_slice
I0720 16:32:58.640494 32653 net.cpp:148] Top shape: 1 1 (1)
I0720 16:32:58.640498 32653 net.cpp:156] Memory required for data: 14012
I0720 16:32:58.640503 32653 layer_factory.hpp:77] Creating layer cont_1_lstm2_cont_slice_0_split
I0720 16:32:58.640511 32653 net.cpp:91] Creating Layer cont_1_lstm2_cont_slice_0_split
I0720 16:32:58.640516 32653 net.cpp:425] cont_1_lstm2_cont_slice_0_split <- cont_1
I0720 16:32:58.640524 32653 net.cpp:399] cont_1_lstm2_cont_slice_0_split -> cont_1_lstm2_cont_slice_0_split_0
I0720 16:32:58.640532 32653 net.cpp:399] cont_1_lstm2_cont_slice_0_split -> cont_1_lstm2_cont_slice_0_split_1
I0720 16:32:58.642838 32653 net.cpp:141] Setting up cont_1_lstm2_cont_slice_0_split
I0720 16:32:58.642876 32653 net.cpp:148] Top shape: 1 1 (1)
I0720 16:32:58.642882 32653 net.cpp:148] Top shape: 1 1 (1)
I0720 16:32:58.642887 32653 net.cpp:156] Memory required for data: 14020
I0720 16:32:58.642895 32653 layer_factory.hpp:77] Creating layer lstm2_x_transform
I0720 16:32:58.642920 32653 net.cpp:91] Creating Layer lstm2_x_transform
I0720 16:32:58.642926 32653 net.cpp:425] lstm2_x_transform <- x
I0720 16:32:58.642941 32653 net.cpp:399] lstm2_x_transform -> W_xc_x
I0720 16:32:58.657258 32667 net.cpp:141] Setting up conv4
I0720 16:32:58.657316 32667 net.cpp:148] Top shape: 10 384 13 13 (648960)
I0720 16:32:58.657323 32667 net.cpp:156] Memory required for data: 61192760
I0720 16:32:58.657341 32667 layer_factory.hpp:77] Creating layer relu4
I0720 16:32:58.657363 32667 net.cpp:91] Creating Layer relu4
I0720 16:32:58.657371 32667 net.cpp:425] relu4 <- conv4
I0720 16:32:58.657382 32667 net.cpp:386] relu4 -> conv4 (in-place)
I0720 16:32:58.659176 32667 net.cpp:141] Setting up relu4
I0720 16:32:58.659221 32667 net.cpp:148] Top shape: 10 384 13 13 (648960)
I0720 16:32:58.659227 32667 net.cpp:156] Memory required for data: 63788600
I0720 16:32:58.659236 32667 layer_factory.hpp:77] Creating layer conv5
I0720 16:32:58.659277 32667 net.cpp:91] Creating Layer conv5
I0720 16:32:58.659286 32667 net.cpp:425] conv5 <- conv4
I0720 16:32:58.659299 32667 net.cpp:399] conv5 -> conv5
I0720 16:32:58.659293 32661 net.cpp:141] Setting up conv4
I0720 16:32:58.659339 32661 net.cpp:148] Top shape: 10 384 13 13 (648960)
I0720 16:32:58.659349 32661 net.cpp:156] Memory required for data: 61192760
I0720 16:32:58.659370 32661 layer_factory.hpp:77] Creating layer relu4
I0720 16:32:58.659389 32661 net.cpp:91] Creating Layer relu4
I0720 16:32:58.659399 32661 net.cpp:425] relu4 <- conv4
I0720 16:32:58.659412 32661 net.cpp:386] relu4 -> conv4 (in-place)
I0720 16:32:58.661239 32661 net.cpp:141] Setting up relu4
I0720 16:32:58.661267 32661 net.cpp:148] Top shape: 10 384 13 13 (648960)
I0720 16:32:58.661278 32661 net.cpp:156] Memory required for data: 63788600
I0720 16:32:58.661288 32661 layer_factory.hpp:77] Creating layer conv5
I0720 16:32:58.661314 32661 net.cpp:91] Creating Layer conv5
I0720 16:32:58.661325 32661 net.cpp:425] conv5 <- conv4
I0720 16:32:58.661339 32661 net.cpp:399] conv5 -> conv5
I0720 16:32:58.673804 32667 net.cpp:141] Setting up conv5
I0720 16:32:58.673856 32667 net.cpp:148] Top shape: 10 256 13 13 (432640)
I0720 16:32:58.673861 32667 net.cpp:156] Memory required for data: 65519160
I0720 16:32:58.673884 32667 layer_factory.hpp:77] Creating layer relu5
I0720 16:32:58.673902 32667 net.cpp:91] Creating Layer relu5
I0720 16:32:58.673908 32667 net.cpp:425] relu5 <- conv5
I0720 16:32:58.673931 32667 net.cpp:386] relu5 -> conv5 (in-place)
I0720 16:32:58.675357 32667 net.cpp:141] Setting up relu5
I0720 16:32:58.675374 32667 net.cpp:148] Top shape: 10 256 13 13 (432640)
I0720 16:32:58.675379 32667 net.cpp:156] Memory required for data: 67249720
I0720 16:32:58.675384 32667 layer_factory.hpp:77] Creating layer pool5
I0720 16:32:58.675398 32667 net.cpp:91] Creating Layer pool5
I0720 16:32:58.675405 32667 net.cpp:425] pool5 <- conv5
I0720 16:32:58.675412 32667 net.cpp:399] pool5 -> pool5
I0720 16:32:58.676031 32667 net.cpp:141] Setting up pool5
I0720 16:32:58.676044 32667 net.cpp:148] Top shape: 10 256 6 6 (92160)
I0720 16:32:58.676049 32667 net.cpp:156] Memory required for data: 67618360
I0720 16:32:58.676054 32667 layer_factory.hpp:77] Creating layer fc6
I0720 16:32:58.676071 32667 net.cpp:91] Creating Layer fc6
I0720 16:32:58.676076 32667 net.cpp:425] fc6 <- pool5
I0720 16:32:58.676084 32667 net.cpp:399] fc6 -> fc6
I0720 16:32:58.741909 32649 net.cpp:141] Setting up lstm2_x_transform
I0720 16:32:58.741925 32653 net.cpp:141] Setting up lstm2_x_transform
I0720 16:32:58.741968 32649 net.cpp:148] Top shape: 1 1 4000 (4000)
I0720 16:32:58.741969 32653 net.cpp:148] Top shape: 1 1 4000 (4000)
I0720 16:32:58.741974 32649 net.cpp:156] Memory required for data: 30020
I0720 16:32:58.741976 32653 net.cpp:156] Memory required for data: 30020
I0720 16:32:58.742002 32653 layer_factory.hpp:77] Creating layer lstm2_W_xc_x_slice
I0720 16:32:58.742002 32649 layer_factory.hpp:77] Creating layer lstm2_W_xc_x_slice
I0720 16:32:58.742023 32649 net.cpp:91] Creating Layer lstm2_W_xc_x_slice
I0720 16:32:58.742027 32653 net.cpp:91] Creating Layer lstm2_W_xc_x_slice
I0720 16:32:58.742032 32649 net.cpp:425] lstm2_W_xc_x_slice <- W_xc_x
I0720 16:32:58.742033 32653 net.cpp:425] lstm2_W_xc_x_slice <- W_xc_x
I0720 16:32:58.742043 32649 net.cpp:399] lstm2_W_xc_x_slice -> W_xc_x_1
I0720 16:32:58.742043 32653 net.cpp:399] lstm2_W_xc_x_slice -> W_xc_x_1
I0720 16:32:58.742123 32661 net.cpp:141] Setting up conv5
I0720 16:32:58.742167 32661 net.cpp:148] Top shape: 10 256 13 13 (432640)
I0720 16:32:58.742168 32653 net.cpp:141] Setting up lstm2_W_xc_x_slice
I0720 16:32:58.742177 32661 net.cpp:156] Memory required for data: 65519160
I0720 16:32:58.742182 32653 net.cpp:148] Top shape: 1 1 4000 (4000)
I0720 16:32:58.742188 32653 net.cpp:156] Memory required for data: 46020
I0720 16:32:58.742188 32649 net.cpp:141] Setting up lstm2_W_xc_x_slice
I0720 16:32:58.742193 32653 layer_factory.hpp:77] Creating layer lstm2_h_conted_0
I0720 16:32:58.742202 32649 net.cpp:148] Top shape: 1 1 4000 (4000)
I0720 16:32:58.742205 32649 net.cpp:156] Memory required for data: 46020
I0720 16:32:58.742207 32653 net.cpp:91] Creating Layer lstm2_h_conted_0
I0720 16:32:58.742211 32649 layer_factory.hpp:77] Creating layer lstm2_h_conted_0
I0720 16:32:58.742213 32653 net.cpp:425] lstm2_h_conted_0 <- h_0
I0720 16:32:58.742211 32661 layer_factory.hpp:77] Creating layer relu5
I0720 16:32:58.742220 32653 net.cpp:425] lstm2_h_conted_0 <- cont_1_lstm2_cont_slice_0_split_0
I0720 16:32:58.742221 32649 net.cpp:91] Creating Layer lstm2_h_conted_0
I0720 16:32:58.742231 32653 net.cpp:399] lstm2_h_conted_0 -> h_conted_0
I0720 16:32:58.742233 32649 net.cpp:425] lstm2_h_conted_0 <- h_0
I0720 16:32:58.742233 32661 net.cpp:91] Creating Layer relu5
I0720 16:32:58.742240 32649 net.cpp:425] lstm2_h_conted_0 <- cont_1_lstm2_cont_slice_0_split_0
I0720 16:32:58.742245 32661 net.cpp:425] relu5 <- conv5
I0720 16:32:58.742249 32649 net.cpp:399] lstm2_h_conted_0 -> h_conted_0
I0720 16:32:58.742269 32661 net.cpp:386] relu5 -> conv5 (in-place)
I0720 16:32:58.744393 32653 net.cpp:141] Setting up lstm2_h_conted_0
I0720 16:32:58.744410 32649 net.cpp:141] Setting up lstm2_h_conted_0
I0720 16:32:58.744421 32653 net.cpp:148] Top shape: 1 1 1000 (1000)
I0720 16:32:58.744422 32649 net.cpp:148] Top shape: 1 1 1000 (1000)
I0720 16:32:58.744429 32653 net.cpp:156] Memory required for data: 50020
I0720 16:32:58.744432 32649 net.cpp:156] Memory required for data: 50020
I0720 16:32:58.744436 32653 layer_factory.hpp:77] Creating layer lstm2_transform_1
I0720 16:32:58.744438 32649 layer_factory.hpp:77] Creating layer lstm2_transform_1
I0720 16:32:58.744441 32661 net.cpp:141] Setting up relu5
I0720 16:32:58.744455 32649 net.cpp:91] Creating Layer lstm2_transform_1
I0720 16:32:58.744455 32653 net.cpp:91] Creating Layer lstm2_transform_1
I0720 16:32:58.744467 32649 net.cpp:425] lstm2_transform_1 <- h_conted_0
I0720 16:32:58.744469 32653 net.cpp:425] lstm2_transform_1 <- h_conted_0
I0720 16:32:58.744465 32661 net.cpp:148] Top shape: 10 256 13 13 (432640)
I0720 16:32:58.744483 32649 net.cpp:399] lstm2_transform_1 -> W_hc_h_0
I0720 16:32:58.744480 32653 net.cpp:399] lstm2_transform_1 -> W_hc_h_0
I0720 16:32:58.744489 32661 net.cpp:156] Memory required for data: 67249720
I0720 16:32:58.744499 32661 layer_factory.hpp:77] Creating layer pool5
I0720 16:32:58.744514 32661 net.cpp:91] Creating Layer pool5
I0720 16:32:58.744523 32661 net.cpp:425] pool5 <- conv5
I0720 16:32:58.744539 32661 net.cpp:399] pool5 -> pool5
I0720 16:32:58.756952 32661 net.cpp:141] Setting up pool5
I0720 16:32:58.756996 32661 net.cpp:148] Top shape: 10 256 6 6 (92160)
I0720 16:32:58.757005 32661 net.cpp:156] Memory required for data: 67618360
I0720 16:32:58.757017 32661 layer_factory.hpp:77] Creating layer fc6
I0720 16:32:58.757046 32661 net.cpp:91] Creating Layer fc6
I0720 16:32:58.757056 32661 net.cpp:425] fc6 <- pool5
I0720 16:32:58.757071 32661 net.cpp:399] fc6 -> fc6
I0720 16:32:58.830251 32649 net.cpp:141] Setting up lstm2_transform_1
I0720 16:32:58.830319 32649 net.cpp:148] Top shape: 1 1 4000 (4000)
I0720 16:32:58.830325 32649 net.cpp:156] Memory required for data: 66020
I0720 16:32:58.830348 32649 layer_factory.hpp:77] Creating layer lstm2_gate_input_1
I0720 16:32:58.830374 32649 net.cpp:91] Creating Layer lstm2_gate_input_1
I0720 16:32:58.830382 32649 net.cpp:425] lstm2_gate_input_1 <- W_hc_h_0
I0720 16:32:58.830391 32649 net.cpp:425] lstm2_gate_input_1 <- W_xc_x_1
I0720 16:32:58.830399 32649 net.cpp:399] lstm2_gate_input_1 -> gate_input_1
I0720 16:32:58.833344 32653 net.cpp:141] Setting up lstm2_transform_1
I0720 16:32:58.833365 32653 net.cpp:148] Top shape: 1 1 4000 (4000)
I0720 16:32:58.833369 32653 net.cpp:156] Memory required for data: 66020
I0720 16:32:58.833381 32653 layer_factory.hpp:77] Creating layer lstm2_gate_input_1
I0720 16:32:58.833394 32653 net.cpp:91] Creating Layer lstm2_gate_input_1
I0720 16:32:58.833400 32653 net.cpp:425] lstm2_gate_input_1 <- W_hc_h_0
I0720 16:32:58.833405 32653 net.cpp:425] lstm2_gate_input_1 <- W_xc_x_1
I0720 16:32:58.833416 32653 net.cpp:399] lstm2_gate_input_1 -> gate_input_1
I0720 16:32:58.833425 32649 net.cpp:141] Setting up lstm2_gate_input_1
I0720 16:32:58.833442 32649 net.cpp:148] Top shape: 1 1 4000 (4000)
I0720 16:32:58.833456 32649 net.cpp:156] Memory required for data: 82020
I0720 16:32:58.833461 32649 layer_factory.hpp:77] Creating layer lstm2_unit_1
I0720 16:32:58.833477 32649 net.cpp:91] Creating Layer lstm2_unit_1
I0720 16:32:58.833482 32649 net.cpp:425] lstm2_unit_1 <- c_0
I0720 16:32:58.833488 32649 net.cpp:425] lstm2_unit_1 <- gate_input_1
I0720 16:32:58.833494 32649 net.cpp:425] lstm2_unit_1 <- cont_1_lstm2_cont_slice_0_split_1
I0720 16:32:58.833501 32649 net.cpp:399] lstm2_unit_1 -> c_1
I0720 16:32:58.833513 32649 net.cpp:399] lstm2_unit_1 -> h_1
I0720 16:32:58.833537 32653 net.cpp:141] Setting up lstm2_gate_input_1
I0720 16:32:58.833549 32653 net.cpp:148] Top shape: 1 1 4000 (4000)
I0720 16:32:58.833552 32653 net.cpp:156] Memory required for data: 82020
I0720 16:32:58.833556 32653 layer_factory.hpp:77] Creating layer lstm2_unit_1
I0720 16:32:58.833575 32653 net.cpp:91] Creating Layer lstm2_unit_1
I0720 16:32:58.833580 32653 net.cpp:425] lstm2_unit_1 <- c_0
I0720 16:32:58.833585 32653 net.cpp:425] lstm2_unit_1 <- gate_input_1
I0720 16:32:58.833590 32653 net.cpp:425] lstm2_unit_1 <- cont_1_lstm2_cont_slice_0_split_1
I0720 16:32:58.833596 32653 net.cpp:399] lstm2_unit_1 -> c_1
I0720 16:32:58.833605 32653 net.cpp:399] lstm2_unit_1 -> h_1
I0720 16:32:58.833699 32667 net.cpp:141] Setting up fc6
I0720 16:32:58.833717 32667 net.cpp:148] Top shape: 10 4096 (40960)
I0720 16:32:58.833722 32667 net.cpp:156] Memory required for data: 67782200
I0720 16:32:58.833734 32667 layer_factory.hpp:77] Creating layer relu6
I0720 16:32:58.833745 32667 net.cpp:91] Creating Layer relu6
I0720 16:32:58.833750 32667 net.cpp:425] relu6 <- fc6
I0720 16:32:58.833757 32667 net.cpp:386] relu6 -> fc6 (in-place)
I0720 16:32:58.833793 32649 net.cpp:141] Setting up lstm2_unit_1
I0720 16:32:58.833804 32649 net.cpp:148] Top shape: 1 1 1000 (1000)
I0720 16:32:58.833811 32649 net.cpp:148] Top shape: 1 1 1000 (1000)
I0720 16:32:58.833814 32649 net.cpp:156] Memory required for data: 90020
I0720 16:32:58.833819 32649 layer_factory.hpp:77] Creating layer lstm2_
I0720 16:32:58.833837 32649 net.cpp:91] Creating Layer lstm2_
I0720 16:32:58.833842 32649 net.cpp:425] lstm2_ <- c_1
I0720 16:32:58.833850 32649 net.cpp:399] lstm2_ -> c_T
I0720 16:32:58.834071 32653 net.cpp:141] Setting up lstm2_unit_1
I0720 16:32:58.834081 32653 net.cpp:148] Top shape: 1 1 1000 (1000)
I0720 16:32:58.834087 32653 net.cpp:148] Top shape: 1 1 1000 (1000)
I0720 16:32:58.834089 32649 net.cpp:141] Setting up lstm2_
I0720 16:32:58.834091 32653 net.cpp:156] Memory required for data: 90020
I0720 16:32:58.834100 32649 net.cpp:148] Top shape: 1 1 1000 (1000)
I0720 16:32:58.834101 32653 layer_factory.hpp:77] Creating layer lstm2_
I0720 16:32:58.834105 32649 net.cpp:156] Memory required for data: 94020
I0720 16:32:58.834110 32653 net.cpp:91] Creating Layer lstm2_
I0720 16:32:58.834110 32649 layer_factory.hpp:77] Creating layer lstm2_h_concat
I0720 16:32:58.834118 32653 net.cpp:425] lstm2_ <- c_1
I0720 16:32:58.834136 32653 net.cpp:399] lstm2_ -> c_T
I0720 16:32:58.834137 32649 net.cpp:91] Creating Layer lstm2_h_concat
I0720 16:32:58.834142 32649 net.cpp:425] lstm2_h_concat <- h_1
I0720 16:32:58.834152 32649 net.cpp:399] lstm2_h_concat -> h
I0720 16:32:58.834244 32653 net.cpp:141] Setting up lstm2_
I0720 16:32:58.834254 32653 net.cpp:148] Top shape: 1 1 1000 (1000)
I0720 16:32:58.834257 32653 net.cpp:156] Memory required for data: 94020
I0720 16:32:58.834261 32653 layer_factory.hpp:77] Creating layer lstm2_h_concat
I0720 16:32:58.834262 32649 net.cpp:141] Setting up lstm2_h_concat
I0720 16:32:58.834270 32653 net.cpp:91] Creating Layer lstm2_h_concat
I0720 16:32:58.834273 32649 net.cpp:148] Top shape: 1 1 1000 (1000)
I0720 16:32:58.834275 32653 net.cpp:425] lstm2_h_concat <- h_1
I0720 16:32:58.834277 32649 net.cpp:156] Memory required for data: 98020
I0720 16:32:58.834282 32649 layer_factory.hpp:77] Creating layer h_pseudoloss
I0720 16:32:58.834288 32653 net.cpp:399] lstm2_h_concat -> h
I0720 16:32:58.834295 32649 net.cpp:91] Creating Layer h_pseudoloss
I0720 16:32:58.834300 32649 net.cpp:425] h_pseudoloss <- h
I0720 16:32:58.834306 32649 net.cpp:399] h_pseudoloss -> h_pseudoloss
I0720 16:32:58.834309 32667 net.cpp:141] Setting up relu6
I0720 16:32:58.834321 32667 net.cpp:148] Top shape: 10 4096 (40960)
I0720 16:32:58.834326 32667 net.cpp:156] Memory required for data: 67946040
I0720 16:32:58.834331 32667 layer_factory.hpp:77] Creating layer drop6
I0720 16:32:58.834344 32667 net.cpp:91] Creating Layer drop6
I0720 16:32:58.834349 32667 net.cpp:425] drop6 <- fc6
I0720 16:32:58.834355 32667 net.cpp:386] drop6 -> fc6 (in-place)
I0720 16:32:58.834375 32653 net.cpp:141] Setting up lstm2_h_concat
I0720 16:32:58.834385 32653 net.cpp:148] Top shape: 1 1 1000 (1000)
I0720 16:32:58.834389 32653 net.cpp:156] Memory required for data: 98020
I0720 16:32:58.834394 32653 layer_factory.hpp:77] Creating layer h_pseudoloss
I0720 16:32:58.834404 32653 net.cpp:91] Creating Layer h_pseudoloss
I0720 16:32:58.834409 32653 net.cpp:425] h_pseudoloss <- h
I0720 16:32:58.834415 32653 net.cpp:399] h_pseudoloss -> h_pseudoloss
I0720 16:32:58.834437 32667 net.cpp:141] Setting up drop6
I0720 16:32:58.834447 32667 net.cpp:148] Top shape: 10 4096 (40960)
I0720 16:32:58.834451 32667 net.cpp:156] Memory required for data: 68109880
I0720 16:32:58.834456 32667 layer_factory.hpp:77] Creating layer fc7
I0720 16:32:58.834471 32667 net.cpp:91] Creating Layer fc7
I0720 16:32:58.834476 32667 net.cpp:425] fc7 <- fc6
I0720 16:32:58.834486 32667 net.cpp:399] fc7 -> fc7
I0720 16:32:58.834576 32649 net.cpp:141] Setting up h_pseudoloss
I0720 16:32:58.834589 32649 net.cpp:148] Top shape: (1)
…
I0720 16:32:58.864107 32653 net.cpp:219] lstm2_ does not need backward computation.
I0720 16:32:58.864111 32653 net.cpp:261] This network produces output c_T
I0720 16:32:58.864118 32653 net.cpp:261] This network produces output h_pseudoloss
I0720 16:32:58.864137 32653 net.cpp:274] Network initialization done.
I0720 16:32:58.864207 32653 recurrent_layer.cpp:150] Adding parameter 0: W_xc
I0720 16:32:58.864214 32653 recurrent_layer.cpp:150] Adding parameter 1: b_c
I0720 16:32:58.864218 32653 recurrent_layer.cpp:150] Adding parameter 2: W_hc
I0720 16:32:58.866053 32653 net.cpp:141] Setting up lstm2
I0720 16:32:58.866077 32653 net.cpp:148] Top shape: 1 1 1000 (1000)
I0720 16:32:58.866082 32653 net.cpp:156] Memory required for data: 36412
I0720 16:32:58.866085 32649 net.cpp:141] Setting up lstm2
I0720 16:32:58.866102 32649 net.cpp:148] Top shape: 1 1 1000 (1000)
I0720 16:32:58.866102 32653 layer_factory.hpp:77] Creating layer predict
I0720 16:32:58.866111 32649 net.cpp:156] Memory required for data: 36412
I0720 16:32:58.866128 32649 layer_factory.hpp:77] Creating layer predict
I0720 16:32:58.866132 32653 net.cpp:91] Creating Layer predict
I0720 16:32:58.866139 32649 net.cpp:91] Creating Layer predict
I0720 16:32:58.866140 32653 net.cpp:425] predict <- lstm2
I0720 16:32:58.866149 32649 net.cpp:425] predict <- lstm2
I0720 16:32:58.866156 32653 net.cpp:399] predict -> predict
I0720 16:32:58.866158 32649 net.cpp:399] predict -> predict
I0720 16:32:58.960870 32661 net.cpp:141] Setting up fc6
I0720 16:32:58.960889 32667 net.cpp:141] Setting up fc7
I0720 16:32:58.960927 32661 net.cpp:148] Top shape: 10 4096 (40960)
I0720 16:32:58.960934 32661 net.cpp:156] Memory required for data: 67782200
I0720 16:32:58.960942 32667 net.cpp:148] Top shape: 10 4096 (40960)
I0720 16:32:58.960948 32667 net.cpp:156] Memory required for data: 68273720
I0720 16:32:58.960949 32661 layer_factory.hpp:77] Creating layer relu6
I0720 16:32:58.960984 32667 layer_factory.hpp:77] Creating layer relu7
I0720 16:32:58.960990 32661 net.cpp:91] Creating Layer relu6
I0720 16:32:58.960999 32661 net.cpp:425] relu6 <- fc6
I0720 16:32:58.961000 32667 net.cpp:91] Creating Layer relu7
I0720 16:32:58.961007 32661 net.cpp:386] relu6 -> fc6 (in-place)
I0720 16:32:58.961009 32667 net.cpp:425] relu7 <- fc7
I0720 16:32:58.961030 32667 net.cpp:386] relu7 -> fc7 (in-place)
I0720 16:32:58.961434 32661 net.cpp:141] Setting up relu6
I0720 16:32:58.961447 32661 net.cpp:148] Top shape: 10 4096 (40960)
I0720 16:32:58.961450 32661 net.cpp:156] Memory required for data: 67946040
I0720 16:32:58.961455 32661 layer_factory.hpp:77] Creating layer drop6
I0720 16:32:58.961465 32661 net.cpp:91] Creating Layer drop6
I0720 16:32:58.961469 32661 net.cpp:425] drop6 <- fc6
I0720 16:32:58.961479 32661 net.cpp:386] drop6 -> fc6 (in-place)
I0720 16:32:58.963377 32661 net.cpp:141] Setting up drop6
I0720 16:32:58.963390 32661 net.cpp:148] Top shape: 10 4096 (40960)
I0720 16:32:58.963394 32661 net.cpp:156] Memory required for data: 68109880
I0720 16:32:58.963399 32661 layer_factory.hpp:77] Creating layer fc7
I0720 16:32:58.963420 32661 net.cpp:91] Creating Layer fc7
I0720 16:32:58.963426 32661 net.cpp:425] fc7 <- fc6
I0720 16:32:58.963433 32661 net.cpp:399] fc7 -> fc7
I0720 16:32:58.991080 32667 net.cpp:141] Setting up relu7
I0720 16:32:58.991137 32667 net.cpp:148] Top shape: 10 4096 (40960)
I0720 16:32:58.991144 32667 net.cpp:156] Memory required for data: 68437560
I0720 16:32:58.991155 32667 layer_factory.hpp:77] Creating layer drop7
I0720 16:32:58.991179 32667 net.cpp:91] Creating Layer drop7
I0720 16:32:58.991188 32667 net.cpp:425] drop7 <- fc7
I0720 16:32:58.991199 32667 net.cpp:386] drop7 -> fc7 (in-place)
I0720 16:32:58.993726 32667 net.cpp:141] Setting up drop7
I0720 16:32:58.993747 32667 net.cpp:148] Top shape: 10 4096 (40960)
I0720 16:32:58.993752 32667 net.cpp:156] Memory required for data: 68601400
I0720 16:32:58.993757 32667 layer_factory.hpp:77] Creating layer fc8
I0720 16:32:58.993778 32667 net.cpp:91] Creating Layer fc8
I0720 16:32:58.993783 32667 net.cpp:425] fc8 <- fc7
I0720 16:32:58.993791 32667 net.cpp:399] fc8 -> fc8
I0720 16:32:59.009003 32667 net.cpp:141] Setting up fc8
I0720 16:32:59.009063 32667 net.cpp:148] Top shape: 10 1000 (10000)
I0720 16:32:59.009070 32667 net.cpp:156] Memory required for data: 68641400
I0720 16:32:59.009088 32667 layer_factory.hpp:77] Creating layer prob
I0720 16:32:59.009111 32667 net.cpp:91] Creating Layer prob
I0720 16:32:59.009119 32667 net.cpp:425] prob <- fc8
I0720 16:32:59.009130 32667 net.cpp:399] prob -> prob
I0720 16:32:59.009673 32667 net.cpp:141] Setting up prob
I0720 16:32:59.009685 32667 net.cpp:148] Top shape: 10 1000 (10000)
I0720 16:32:59.009690 32667 net.cpp:156] Memory required for data: 68681400
I0720 16:32:59.009696 32667 net.cpp:219] prob does not need backward computation.
I0720 16:32:59.009699 32667 net.cpp:219] fc8 does not need backward computation.
I0720 16:32:59.009704 32667 net.cpp:219] drop7 does not need backward computation.
I0720 16:32:59.009708 32667 net.cpp:219] relu7 does not need backward computation.
…
I0720 16:32:59.009775 32667 net.cpp:219] norm1 does not need backward computation.
I0720 16:32:59.009780 32667 net.cpp:219] pool1 does not need backward computation.
I0720 16:32:59.009784 32667 net.cpp:219] relu1 does not need backward computation.
I0720 16:32:59.009788 32667 net.cpp:219] conv1 does not need backward computation.
I0720 16:32:59.009793 32667 net.cpp:219] data does not need backward computation.
I0720 16:32:59.009795 32667 net.cpp:261] This network produces output prob
I0720 16:32:59.009816 32667 net.cpp:274] Network initialization done.
I0720 16:32:59.013134 32661 net.cpp:141] Setting up fc7
I0720 16:32:59.013182 32661 net.cpp:148] Top shape: 10 4096 (40960)
I0720 16:32:59.013191 32661 net.cpp:156] Memory required for data: 68273720
I0720 16:32:59.013211 32661 layer_factory.hpp:77] Creating layer relu7
I0720 16:32:59.013260 32661 net.cpp:91] Creating Layer relu7
I0720 16:32:59.013273 32661 net.cpp:425] relu7 <- fc7
I0720 16:32:59.013288 32661 net.cpp:386] relu7 -> fc7 (in-place)
I0720 16:32:59.015043 32661 net.cpp:141] Setting up relu7
I0720 16:32:59.015066 32661 net.cpp:148] Top shape: 10 4096 (40960)
I0720 16:32:59.015076 32661 net.cpp:156] Memory required for data: 68437560
I0720 16:32:59.015084 32661 layer_factory.hpp:77] Creating layer drop7
I0720 16:32:59.015110 32661 net.cpp:91] Creating Layer drop7
I0720 16:32:59.015121 32661 net.cpp:425] drop7 <- fc7
I0720 16:32:59.015135 32661 net.cpp:386] drop7 -> fc7 (in-place)
I0720 16:32:59.015249 32661 net.cpp:141] Setting up drop7
I0720 16:32:59.015270 32661 net.cpp:148] Top shape: 10 4096 (40960)
I0720 16:32:59.015280 32661 net.cpp:156] Memory required for data: 68601400
I0720 16:32:59.015288 32661 layer_factory.hpp:77] Creating layer fc8
I0720 16:32:59.015302 32661 net.cpp:91] Creating Layer fc8
I0720 16:32:59.015311 32661 net.cpp:425] fc8 <- fc7
I0720 16:32:59.015326 32661 net.cpp:399] fc8 -> fc8
I0720 16:32:59.030015 32661 net.cpp:141] Setting up fc8
I0720 16:32:59.030063 32661 net.cpp:148] Top shape: 10 1000 (10000)
I0720 16:32:59.030072 32661 net.cpp:156] Memory required for data: 68641400
I0720 16:32:59.030092 32661 layer_factory.hpp:77] Creating layer prob
I0720 16:32:59.030112 32661 net.cpp:91] Creating Layer prob
I0720 16:32:59.030123 32661 net.cpp:425] prob <- fc8
I0720 16:32:59.030138 32661 net.cpp:399] prob -> prob
I0720 16:32:59.031121 32661 net.cpp:141] Setting up prob
I0720 16:32:59.031141 32661 net.cpp:148] Top shape: 10 1000 (10000)
I0720 16:32:59.031150 32661 net.cpp:156] Memory required for data: 68681400
I0720 16:32:59.031160 32661 net.cpp:219] prob does not need backward computation.
I0720 16:32:59.031169 32661 net.cpp:219] fc8 does not need backward computation.
I0720 16:32:59.031178 32661 net.cpp:219] drop7 does not need backward computation.
I0720 16:32:59.031188 32661 net.cpp:219] relu7 does not need backward computation.
…
