…
W0925 22:44:49.449074  9046 upgrade_proto.cpp:71] Note that future Caffe releases will only support input layers and not input fields.
I0925 22:44:49.449553  9046 net.cpp:49] Initializing net from parameters: 
name: "s2vt:features_to_lstm"
state {
  phase: TEST
}
layer {
  name: "input"
  type: "Input"
  top: "frames_fc7"
  top: "cont_sentence"
  top: "input_sentence"
  top: "stage_indicator"
  input_param {
    shape {
      dim: 1
      dim: 4096
    }
    shape {
      dim: 1
      dim: 1
    }
    shape {
      dim: 1
      dim: 1
    }
    shape {
      dim: 1
      dim: 1
    }
  }
}
layer {
  name: "embed_encoder"
  type: "InnerProduct"
  bottom: "frames_fc7"
  top: "embedded_in_frames"
  param {
    lr_mult: 1
    decay_mult: 1
  }
  param {
    lr_mult: 2
    decay_mult: 0
  }
  inner_product_param {
    num_output: 500
    weight_filler {
      type: "xavier"
    }
    bias_filler {
      type: "constant"
      value: 0.2
    }
  }
}
layer {
  name: "reshape_frames"
  type: "Reshape"
  bottom: "embedded_in_frames"
  top: "embedded_input_frames"
  reshape_param {
    shape {
      dim: 1
      dim: 1
      dim: 500
    }
  }
}
layer {
  name: "reshape_stage_indicator"
  type: "Reshape"
  bottom: "stage_indicator"
  top: "reshaped_stage_indicator"
  reshape_param {
    shape {
      dim: 1
      dim: 1
      dim: 1
    }
  }
}
layer {
  name: "embedding"
  type: "Embed"
  bottom: "input_sentence"
  top: "embedded_input_sentence"
  param {
    lr_mult: 1
  }
  embed_param {
    num_output: 500
    input_dim: 46168
    bias_term: false
    weight_filler {
      type: "uniform"
      min: -0.08
      max: 0.08
    }
  }
}
layer {
  name: "lstm1"
  type: "LSTM"
  bottom: "embedded_input_frames"
  bottom: "cont_sentence"
  top: "lstm1"
  recurrent_param {
    num_output: 1000
    weight_filler {
      type: "uniform"
      min: -0.08
      max: 0.08
    }
    bias_filler {
      type: "constant"
      value: 0
    }
  }
}
layer {
  name: "concat"
  type: "Concat"
  bottom: "lstm1"
  bottom: "embedded_input_sentence"
  bottom: "reshaped_stage_indicator"
  top: "lstm1_video_sequence"
  concat_param {
    concat_dim: 2
  }
}
layer {
  name: "lstm2"
  type: "LSTM"
  bottom: "lstm1_video_sequence"
  bottom: "cont_sentence"
  top: "lstm2"
  recurrent_param {
    num_output: 1000
    weight_filler {
      type: "uniform"
      min: -0.08
      max: 0.08
    }
    bias_filler {
      type: "constant"
      value: 0
    }
  }
}
layer {
  name: "predict"
  type: "InnerProduct"
  bottom: "lstm2"
  top: "predict"
  param {
    lr_mult: 1
    decay_mult: 1
  }
  param {
    lr_mult: 2
    decay_mult: 0
  }
  inner_product_param {
    num_output: 46168
    weight_filler {
      type: "uniform"
      min: -0.08
      max: 0.08
    }
    bias_filler {
      type: "constant"
      value: 0
    }
    axis: 2
  }
}
layer {
  name: "probs"
  type: "Softmax"
  bottom: "predict"
  top: "probs"
  softmax_param {
    axis: 2
  }
}
I0925 22:44:49.449759  9046 layer_factory.hpp:77] Creating layer input
I0925 22:44:49.449805  9046 net.cpp:91] Creating Layer input
I0925 22:44:49.449822  9046 net.cpp:399] input -> frames_fc7
I0925 22:44:49.449880  9046 net.cpp:399] input -> cont_sentence
I0925 22:44:49.449904  9046 net.cpp:399] input -> input_sentence
I0925 22:44:49.449923  9046 net.cpp:399] input -> stage_indicator
I0925 22:44:49.453682  9056 upgrade_proto.cpp:66] Attempting to upgrade input file specified using deprecated input fields: /home/peifeng/work/run/storm102/data/workers/7b83b166-f030-4946-93e7-3bf62804879d/tmp/cvld3714707933957703047/s2vt.words_to_preds.prototxt
I0925 22:44:49.453706  9056 upgrade_proto.cpp:69] Successfully upgraded file specified using deprecated input fields.
W0925 22:44:49.453711  9056 upgrade_proto.cpp:71] Note that future Caffe releases will only support input layers and not input fields.
I0925 22:44:49.453903  9056 net.cpp:49] Initializing net from parameters: 
name: "s2vt:features_to_lstm"
state {
  phase: TEST
}
layer {
  name: "input"
  type: "Input"
  top: "frames_fc7"
  top: "cont_sentence"
  top: "input_sentence"
  top: "stage_indicator"
  input_param {
    shape {
      dim: 1
      dim: 4096
    }
    shape {
      dim: 1
      dim: 1
    }
    shape {
      dim: 1
      dim: 1
    }
    shape {
      dim: 1
      dim: 1
    }
  }
}
layer {
  name: "embed_encoder"
  type: "InnerProduct"
  bottom: "frames_fc7"
  top: "embedded_in_frames"
  param {
    lr_mult: 1
    decay_mult: 1
  }
  param {
    lr_mult: 2
    decay_mult: 0
  }
  inner_product_param {
    num_output: 500
    weight_filler {
      type: "xavier"
    }
    bias_filler {
      type: "constant"
      value: 0.2
    }
  }
}
layer {
  name: "reshape_frames"
  type: "Reshape"
  bottom: "embedded_in_frames"
  top: "embedded_input_frames"
  reshape_param {
    shape {
      dim: 1
      dim: 1
      dim: 500
    }
  }
}
layer {
  name: "reshape_stage_indicator"
  type: "Reshape"
  bottom: "stage_indicator"
  top: "reshaped_stage_indicator"
  reshape_param {
    shape {
      dim: 1
      dim: 1
      dim: 1
    }
  }
}
layer {
  name: "embedding"
  type: "Embed"
  bottom: "input_sentence"
  top: "embedded_input_sentence"
  param {
    lr_mult: 1
  }
  embed_param {
    num_output: 500
    input_dim: 46168
    bias_term: false
    weight_filler {
      type: "uniform"
      min: -0.08
      max: 0.08
    }
  }
}
layer {
  name: "lstm1"
  type: "LSTM"
  bottom: "embedded_input_frames"
  bottom: "cont_sentence"
  top: "lstm1"
  recurrent_param {
    num_output: 1000
    weight_filler {
      type: "uniform"
      min: -0.08
      max: 0.08
    }
    bias_filler {
      type: "constant"
      value: 0
    }
  }
}
layer {
  name: "concat"
  type: "Concat"
  bottom: "lstm1"
  bottom: "embedded_input_sentence"
  bottom: "reshaped_stage_indicator"
  top: "lstm1_video_sequence"
  concat_param {
    concat_dim: 2
  }
}
layer {
  name: "lstm2"
  type: "LSTM"
  bottom: "lstm1_video_sequence"
  bottom: "cont_sentence"
  top: "lstm2"
  recurrent_param {
    num_output: 1000
    weight_filler {
      type: "uniform"
      min: -0.08
      max: 0.08
    }
    bias_filler {
      type: "constant"
      value: 0
    }
  }
}
layer {
  name: "predict"
  type: "InnerProduct"
  bottom: "lstm2"
  top: "predict"
  param {
    lr_mult: 1
    decay_mult: 1
  }
  param {
    lr_mult: 2
    decay_mult: 0
  }
  inner_product_param {
    num_output: 46168
    weight_filler {
      type: "uniform"
      min: -0.08
      max: 0.08
    }
    bias_filler {
      type: "constant"
      value: 0
    }
    axis: 2
  }
}
layer {
  name: "probs"
  type: "Softmax"
  bottom: "predict"
  top: "probs"
  softmax_param {
    axis: 2
  }
}
I0925 22:44:49.453990  9056 layer_factory.hpp:77] Creating layer input
I0925 22:44:49.454001  9056 net.cpp:91] Creating Layer input
I0925 22:44:49.454010  9056 net.cpp:399] input -> frames_fc7
I0925 22:44:49.454022  9056 net.cpp:399] input -> cont_sentence
I0925 22:44:49.454035  9056 net.cpp:399] input -> input_sentence
I0925 22:44:49.454044  9056 net.cpp:399] input -> stage_indicator
I0925 22:44:49.454677  9014 upgrade_proto.cpp:66] Attempting to upgrade input file specified using deprecated input fields: /home/peifeng/work/run/storm102/data/workers/7b83b166-f030-4946-93e7-3bf62804879d/tmp/cvld3714707933957703047/s2vt.words_to_preds.prototxt
I0925 22:44:49.454717  9014 upgrade_proto.cpp:69] Successfully upgraded file specified using deprecated input fields.
W0925 22:44:49.454723  9014 upgrade_proto.cpp:71] Note that future Caffe releases will only support input layers and not input fields.
I0925 22:44:49.455090  9014 net.cpp:49] Initializing net from parameters: 
name: "s2vt:features_to_lstm"
state {
  phase: TEST
}
layer {
  name: "input"
  type: "Input"
  top: "frames_fc7"
  top: "cont_sentence"
  top: "input_sentence"
  top: "stage_indicator"
  input_param {
    shape {
      dim: 1
      dim: 4096
    }
    shape {
      dim: 1
      dim: 1
    }
    shape {
      dim: 1
      dim: 1
    }
    shape {
      dim: 1
      dim: 1
    }
  }
}
layer {
  name: "embed_encoder"
  type: "InnerProduct"
  bottom: "frames_fc7"
  top: "embedded_in_frames"
  param {
    lr_mult: 1
    decay_mult: 1
  }
  param {
    lr_mult: 2
    decay_mult: 0
  }
  inner_product_param {
    num_output: 500
    weight_filler {
      type: "xavier"
    }
    bias_filler {
      type: "constant"
      value: 0.2
    }
  }
}
layer {
  name: "reshape_frames"
  type: "Reshape"
  bottom: "embedded_in_frames"
  top: "embedded_input_frames"
  reshape_param {
    shape {
      dim: 1
      dim: 1
      dim: 500
    }
  }
}
layer {
  name: "reshape_stage_indicator"
  type: "Reshape"
  bottom: "stage_indicator"
  top: "reshaped_stage_indicator"
  reshape_param {
    shape {
      dim: 1
      dim: 1
      dim: 1
    }
  }
}
layer {
  name: "embedding"
  type: "Embed"
  bottom: "input_sentence"
  top: "embedded_input_sentence"
  param {
    lr_mult: 1
  }
  embed_param {
    num_output: 500
    input_dim: 46168
    bias_term: false
    weight_filler {
      type: "uniform"
      min: -0.08
      max: 0.08
    }
  }
}
layer {
  name: "lstm1"
  type: "LSTM"
  bottom: "embedded_input_frames"
  bottom: "cont_sentence"
  top: "lstm1"
  recurrent_param {
    num_output: 1000
    weight_filler {
      type: "uniform"
      min: -0.08
      max: 0.08
    }
    bias_filler {
      type: "constant"
      value: 0
    }
  }
}
layer {
  name: "concat"
  type: "Concat"
  bottom: "lstm1"
  bottom: "embedded_input_sentence"
  bottom: "reshaped_stage_indicator"
  top: "lstm1_video_sequence"
  concat_param {
    concat_dim: 2
  }
}
layer {
  name: "lstm2"
  type: "LSTM"
  bottom: "lstm1_video_sequence"
  bottom: "cont_sentence"
  top: "lstm2"
  recurrent_param {
    num_output: 1000
    weight_filler {
      type: "uniform"
      min: -0.08
      max: 0.08
    }
    bias_filler {
      type: "constant"
      value: 0
    }
  }
}
layer {
  name: "predict"
  type: "InnerProduct"
  bottom: "lstm2"
  top: "predict"
  param {
    lr_mult: 1
    decay_mult: 1
  }
  param {
    lr_mult: 2
    decay_mult: 0
  }
  inner_product_param {
    num_output: 46168
    weight_filler {
      type: "uniform"
      min: -0.08
      max: 0.08
    }
    bias_filler {
      type: "constant"
      value: 0
    }
    axis: 2
  }
}
layer {
  name: "probs"
  type: "Softmax"
  bottom: "predict"
  top: "probs"
  softmax_param {
    axis: 2
  }
}
I0925 22:44:49.455227  9014 layer_factory.hpp:77] Creating layer input
I0925 22:44:49.455247  9014 net.cpp:91] Creating Layer input
I0925 22:44:49.455258  9014 net.cpp:399] input -> frames_fc7
I0925 22:44:49.455281  9014 net.cpp:399] input -> cont_sentence
I0925 22:44:49.455296  9014 net.cpp:399] input -> input_sentence
I0925 22:44:49.455310  9014 net.cpp:399] input -> stage_indicator
I0925 22:44:49.457039  9018 upgrade_proto.cpp:66] Attempting to upgrade input file specified using deprecated input fields: /home/peifeng/work/run/storm102/data/workers/7b83b166-f030-4946-93e7-3bf62804879d/tmp/cvld3714707933957703047/s2vt.words_to_preds.prototxt
I0925 22:44:49.457067  9018 upgrade_proto.cpp:69] Successfully upgraded file specified using deprecated input fields.
W0925 22:44:49.457072  9018 upgrade_proto.cpp:71] Note that future Caffe releases will only support input layers and not input fields.
I0925 22:44:49.457278  9018 net.cpp:49] Initializing net from parameters: 
name: "s2vt:features_to_lstm"
state {
  phase: TEST
}
layer {
  name: "input"
  type: "Input"
  top: "frames_fc7"
  top: "cont_sentence"
  top: "input_sentence"
  top: "stage_indicator"
  input_param {
    shape {
      dim: 1
      dim: 4096
    }
    shape {
      dim: 1
      dim: 1
    }
    shape {
      dim: 1
      dim: 1
    }
    shape {
      dim: 1
      dim: 1
    }
  }
}
layer {
  name: "embed_encoder"
  type: "InnerProduct"
  bottom: "frames_fc7"
  top: "embedded_in_frames"
  param {
    lr_mult: 1
    decay_mult: 1
  }
  param {
    lr_mult: 2
    decay_mult: 0
  }
  inner_product_param {
    num_output: 500
    weight_filler {
      type: "xavier"
    }
    bias_filler {
      type: "constant"
      value: 0.2
    }
  }
}
layer {
  name: "reshape_frames"
  type: "Reshape"
  bottom: "embedded_in_frames"
  top: "embedded_input_frames"
  reshape_param {
    shape {
      dim: 1
      dim: 1
      dim: 500
    }
  }
}
layer {
  name: "reshape_stage_indicator"
  type: "Reshape"
  bottom: "stage_indicator"
  top: "reshaped_stage_indicator"
  reshape_param {
    shape {
      dim: 1
      dim: 1
      dim: 1
    }
  }
}
layer {
  name: "embedding"
  type: "Embed"
  bottom: "input_sentence"
  top: "embedded_input_sentence"
  param {
    lr_mult: 1
  }
  embed_param {
    num_output: 500
    input_dim: 46168
    bias_term: false
    weight_filler {
      type: "uniform"
      min: -0.08
      max: 0.08
    }
  }
}
layer {
  name: "lstm1"
  type: "LSTM"
  bottom: "embedded_input_frames"
  bottom: "cont_sentence"
  top: "lstm1"
  recurrent_param {
    num_output: 1000
    weight_filler {
      type: "uniform"
      min: -0.08
      max: 0.08
    }
    bias_filler {
      type: "constant"
      value: 0
    }
  }
}
layer {
  name: "concat"
  type: "Concat"
  bottom: "lstm1"
  bottom: "embedded_input_sentence"
  bottom: "reshaped_stage_indicator"
  top: "lstm1_video_sequence"
  concat_param {
    concat_dim: 2
  }
}
layer {
  name: "lstm2"
  type: "LSTM"
  bottom: "lstm1_video_sequence"
  bottom: "cont_sentence"
  top: "lstm2"
  recurrent_param {
    num_output: 1000
    weight_filler {
      type: "uniform"
      min: -0.08
      max: 0.08
    }
    bias_filler {
      type: "constant"
      value: 0
    }
  }
}
layer {
  name: "predict"
  type: "InnerProduct"
  bottom: "lstm2"
  top: "predict"
  param {
    lr_mult: 1
    decay_mult: 1
  }
  param {
    lr_mult: 2
    decay_mult: 0
  }
  inner_product_param {
    num_output: 46168
    weight_filler {
      type: "uniform"
      min: -0.08
      max: 0.08
    }
    bias_filler {
      type: "constant"
      value: 0
    }
    axis: 2
  }
}
layer {
  name: "probs"
  type: "Softmax"
  bottom: "predict"
  top: "probs"
  softmax_param {
    axis: 2
  }
}
I0925 22:44:49.457365  9018 layer_factory.hpp:77] Creating layer input
I0925 22:44:49.457378  9018 net.cpp:91] Creating Layer input
I0925 22:44:49.457386  9018 net.cpp:399] input -> frames_fc7
I0925 22:44:49.457402  9018 net.cpp:399] input -> cont_sentence
I0925 22:44:49.457413  9018 net.cpp:399] input -> input_sentence
I0925 22:44:49.457423  9018 net.cpp:399] input -> stage_indicator
…
W0925 22:44:49.463101  9012 upgrade_proto.cpp:71] Note that future Caffe releases will only support input layers and not input fields.
I0925 22:44:49.463194  9008 net.cpp:49] Initializing net from parameters: 
name: "s2vt:features_to_lstm"
state {
  phase: TEST
}
layer {
  name: "input"
  type: "Input"
  top: "frames_fc7"
  top: "cont_sentence"
  top: "input_sentence"
  top: "stage_indicator"
  input_param {
    shape {
      dim: 1
      dim: 4096
    }
    shape {
      dim: 1
      dim: 1
    }
    shape {
      dim: 1
      dim: 1
    }
    shape {
      dim: 1
      dim: 1
    }
  }
}
layer {
  name: "embed_encoder"
  type: "InnerProduct"
  bottom: "frames_fc7"
  top: "embedded_in_frames"
  param {
    lr_mult: 1
    decay_mult: 1
  }
  param {
    lr_mult: 2
    decay_mult: 0
  }
  inner_product_param {
    num_output: 500
    weight_filler {
      type: "xavier"
    }
    bias_filler {
      type: "constant"
      value: 0.2
    }
  }
}
layer {
  name: "reshape_frames"
  type: "Reshape"
  bottom: "embedded_in_frames"
  top: "embedded_input_frames"
  reshape_param {
    shape {
      dim: 1
      dim: 1
      dim: 500
    }
  }
}
layer {
  name: "reshape_stage_indicator"
  type: "Reshape"
  bottom: "stage_indicator"
  top: "reshaped_stage_indicator"
  reshape_param {
    shape {
      dim: 1
      dim: 1
      dim: 1
    }
  }
}
layer {
  name: "embedding"
  type: "Embed"
  bottom: "input_sentence"
  top: "embedded_input_sentence"
  param {
    lr_mult: 1
  }
  embed_param {
    num_output: 500
    input_dim: 46168
    bias_term: false
    weight_filler {
      type: "uniform"
      min: -0.08
      max: 0.08
    }
  }
}
layer {
  name: "lstm1"
  type: "LSTM"
  bottom: "embedded_input_frames"
  bottom: "cont_sentence"
  top: "lstm1"
  recurrent_param {
    num_output: 1000
    weight_filler {
      type: "uniform"
      min: -0.08
      max: 0.08
    }
    bias_filler {
      type: "constant"
      value: 0
    }
  }
}
layer {
  name: "concat"
  type: "Concat"
  bottom: "lstm1"
  bottom: "embedded_input_sentence"
  bottom: "reshaped_stage_indicator"
  top: "lstm1_video_sequence"
  concat_param {
    concat_dim: 2
  }
}
layer {
  name: "lstm2"
  type: "LSTM"
  bottom: "lstm1_video_sequence"
  bottom: "cont_sentence"
  top: "lstm2"
  recurrent_param {
    num_output: 1000
    weight_filler {
      type: "uniform"
      min: -0.08
      max: 0.08
    }
    bias_filler {
      type: "constant"
      value: 0
    }
  }
}
layer {
  name: "predict"
  type: "InnerProduct"
  bottom: "lstm2"
  top: "predict"
  param {
    lr_mult: 1
    decay_mult: 1
  }
  param {
    lr_mult: 2
    decay_mult: 0
  }
  inner_product_param {
    num_output: 46168
    weight_filler {
      type: "uniform"
      min: -0.08
      max: 0.08
    }
    bias_filler {
      type: "constant"
      value: 0
    }
    axis: 2
  }
}
layer {
  name: "probs"
  type: "Softmax"
  bottom: "predict"
  top: "probs"
  softmax_param {
    axis: 2
  }
}
I0925 22:44:49.463214  9026 upgrade_proto.cpp:66] Attempting to upgrade input file specified using deprecated input fields: /home/peifeng/work/run/storm102/data/workers/7b83b166-f030-4946-93e7-3bf62804879d/tmp/cvld3714707933957703047/s2vt.words_to_preds.prototxt
I0925 22:44:49.463233  9026 upgrade_proto.cpp:69] Successfully upgraded file specified using deprecated input fields.
…
I0925 22:44:49.463315  9030 upgrade_proto.cpp:66] Attempting to upgrade input file specified using deprecated input fields: /home/peifeng/work/run/storm102/data/workers/7b83b166-f030-4946-93e7-3bf62804879d/tmp/cvld3714707933957703047/s2vt.words_to_preds.prototxt
I0925 22:44:49.463330  9008 net.cpp:399] input -> cont_sentence
I0925 22:44:49.463331  9012 net.cpp:49] Initializing net from parameters: 
name: "s2vt:features_to_lstm"
state {
  phase: TEST
}
layer {
  name: "input"
  type: "Input"
  top: "frames_fc7"
  top: "cont_sentence"
  top: "input_sentence"
  top: "stage_indicator"
  input_param {
    shape {
      dim: 1
      dim: 4096
    }
    shape {
      dim: 1
      dim: 1
    }
    shape {
      dim: 1
      dim: 1
    }
    shape {
      dim: 1
      dim: 1
    }
  }
}
layer {
  name: "embed_encoder"
  type: "InnerProduct"
  bottom: "frames_fc7"
  top: "embedded_in_frames"
  param {
    lr_mult: 1
    decay_mult: 1
  }
  param {
    lr_mult: 2
    decay_mult: 0
  }
  inner_product_param {
    num_output: 500
    weight_filler {
      type: "xavier"
    }
    bias_filler {
      type: "constant"
      value: 0.2
    }
  }
}
layer {
  name: "reshape_frames"
  type: "Reshape"
  bottom: "embedded_in_frames"
  top: "embedded_input_frames"
  reshape_param {
    shape {
      dim: 1
      dim: 1
      dim: 500
    }
  }
}
layer {
  name: "reshape_stage_indicator"
  type: "Reshape"
  bottom: "stage_indicator"
  top: "reshaped_stage_indicator"
  reshape_param {
    shape {
      dim: 1
      dim: 1
      dim: 1
    }
  }
}
layer {
  name: "embedding"
  type: "Embed"
  bottom: "input_sentence"
  top: "embedded_input_sentence"
  param {
    lr_mult: 1
  }
  embed_param {
    num_output: 500
    input_dim: 46168
    bias_term: false
    weight_filler {
      type: "uniform"
      min: -0.08
      max: 0.08
    }
  }
}
layer {
  name: "lstm1"
  type: "LSTM"
  bottom: "embedded_input_frames"
  bottom: "cont_sentence"
  top: "lstm1"
  recurrent_param {
    num_output: 1000
    weight_filler {
      type: "uniform"
      min: -0.08
      max: 0.08
    }
    bias_filler {
      type: "constant"
      value: 0
    }
  }
}
layer {
  name: "concat"
  type: "Concat"
  bottom: "lstm1"
  bottom: "embedded_input_sentence"
  bottom: "reshaped_stage_indicator"
  top: "lstm1_video_sequence"
  concat_param {
    concat_dim: 2
  }
}
layer {
  name: "lstm2"
  type: "LSTM"
  bottom: "lstm1_video_sequence"
  bottom: "cont_sentence"
  top: "lstm2"
  recurrent_param {
    num_output: 1000
    weight_filler {
      type: "uniform"
      min: -0.08
      max: 0.08
    }
    bias_filler {
      type: "constant"
      value: 0
    }
  }
}
layer {
  name: "predict"
  type: "InnerProduct"
  bottom: "lstm2"
  top: "predict"
  param {
    lr_mult: 1
    decay_mult: 1
  }
  param {
    lr_mult: 2
    decay_mult: 0
  }
  inner_product_param {
    num_output: 46168
    weight_filler {
      type: "uniform"
      min: -0.08
      max: 0.08
    }
    bias_filler {
      type: "constant"
      value: 0
    }
    axis: 2
  }
}
layer {
  name: "probs"
  type: "Softmax"
  bottom: "predict"
  top: "probs"
  softmax_param {
    axis: 2
  }
}
I0925 22:44:49.463340  9030 upgrade_proto.cpp:69] Successfully upgraded file specified using deprecated input fields.
I0925 22:44:49.463345  9008 net.cpp:399] input -> input_sentence
W0925 22:44:49.463359  9030 upgrade_proto.cpp:71] Note that future Caffe releases will only support input layers and not input fields.
I0925 22:44:49.463368  9008 net.cpp:399] input -> stage_indicator
I0925 22:44:49.463418  9012 layer_factory.hpp:77] Creating layer input
I0925 22:44:49.463430  9012 net.cpp:91] Creating Layer input
I0925 22:44:49.463438  9012 net.cpp:399] input -> frames_fc7
I0925 22:44:49.463451  9012 net.cpp:399] input -> cont_sentence
I0925 22:44:49.463464  9012 net.cpp:399] input -> input_sentence
I0925 22:44:49.463474  9012 net.cpp:399] input -> stage_indicator
I0925 22:44:49.463480  9026 net.cpp:49] Initializing net from parameters: 
name: "s2vt:features_to_lstm"
state {
  phase: TEST
}
layer {
  name: "input"
  type: "Input"
  top: "frames_fc7"
  top: "cont_sentence"
  top: "input_sentence"
  top: "stage_indicator"
  input_param {
    shape {
      dim: 1
      dim: 4096
    }
    shape {
      dim: 1
      dim: 1
    }
    shape {
      dim: 1
      dim: 1
    }
    shape {
      dim: 1
      dim: 1
    }
  }
}
layer {
  name: "embed_encoder"
  type: "InnerProduct"
  bottom: "frames_fc7"
  top: "embedded_in_frames"
  param {
    lr_mult: 1
    decay_mult: 1
  }
  param {
    lr_mult: 2
    decay_mult: 0
  }
  inner_product_param {
    num_output: 500
    weight_filler {
      type: "xavier"
    }
    bias_filler {
      type: "constant"
      value: 0.2
    }
  }
}
layer {
  name: "reshape_frames"
  type: "Reshape"
  bottom: "embedded_in_frames"
  top: "embedded_input_frames"
  reshape_param {
    shape {
      dim: 1
      dim: 1
      dim: 500
    }
  }
}
layer {
  name: "reshape_stage_indicator"
  type: "Reshape"
  bottom: "stage_indicator"
  top: "reshaped_stage_indicator"
  reshape_param {
    shape {
      dim: 1
      dim: 1
      dim: 1
    }
  }
}
layer {
  name: "embedding"
  type: "Embed"
  bottom: "input_sentence"
  top: "embedded_input_sentence"
  param {
    lr_mult: 1
  }
  embed_param {
    num_output: 500
    input_dim: 46168
    bias_term: false
    weight_filler {
      type: "uniform"
      min: -0.08
      max: 0.08
    }
  }
}
layer {
  name: "lstm1"
  type: "LSTM"
  bottom: "embedded_input_frames"
  bottom: "cont_sentence"
  top: "lstm1"
  recurrent_param {
    num_output: 1000
    weight_filler {
      type: "uniform"
      min: -0.08
      max: 0.08
    }
    bias_filler {
      type: "constant"
      value: 0
    }
  }
}
layer {
  name: "concat"
  type: "Concat"
  bottom: "lstm1"
  bottom: "embedded_input_sentence"
  bottom: "reshaped_stage_indicator"
  top: "lstm1_video_sequence"
  concat_param {
    concat_dim: 2
  }
}
layer {
  name: "lstm2"
  type: "LSTM"
  bottom: "lstm1_video_sequence"
  bottom: "cont_sentence"
  top: "lstm2"
  recurrent_param {
    num_output: 1000
    weight_filler {
      type: "uniform"
      min: -0.08
      max: 0.08
    }
    bias_filler {
      type: "constant"
      value: 0
    }
  }
}
layer {
  name: "predict"
  type: "InnerProduct"
  bottom: "lstm2"
  top: "predict"
  param {
    lr_mult: 1
    decay_mult: 1
  }
  param {
    lr_mult: 2
    decay_mult: 0
  }
  inner_product_param {
    num_output: 46168
    weight_filler {
      type: "uniform"
      min: -0.08
      max: 0.08
    }
    bias_filler {
      type: "constant"
      value: 0
    }
    axis: 2
  }
}
layer {
  name: "probs"
  type: "Softmax"
  bottom: "predict"
  top: "probs"
  softmax_param {
    axis: 2
  }
}
I0925 22:44:49.463568  9026 layer_factory.hpp:77] Creating layer input
I0925 22:44:49.463580  9026 net.cpp:91] Creating Layer input
I0925 22:44:49.463587  9026 net.cpp:399] input -> frames_fc7
I0925 22:44:49.463600  9026 net.cpp:399] input -> cont_sentence
I0925 22:44:49.463610  9026 net.cpp:399] input -> input_sentence
I0925 22:44:49.463621  9026 net.cpp:399] input -> stage_indicator
I0925 22:44:49.463747  9030 net.cpp:49] Initializing net from parameters: 
name: "s2vt:features_to_lstm"
state {
  phase: TEST
}
layer {
  name: "input"
  type: "Input"
  top: "frames_fc7"
  top: "cont_sentence"
  top: "input_sentence"
  top: "stage_indicator"
  input_param {
    shape {
      dim: 1
      dim: 4096
    }
    shape {
      dim: 1
      dim: 1
    }
    shape {
      dim: 1
      dim: 1
    }
    shape {
      dim: 1
      dim: 1
    }
  }
}
layer {
  name: "embed_encoder"
  type: "InnerProduct"
  bottom: "frames_fc7"
  top: "embedded_in_frames"
  param {
    lr_mult: 1
    decay_mult: 1
  }
  param {
    lr_mult: 2
    decay_mult: 0
  }
  inner_product_param {
    num_output: 500
    weight_filler {
      type: "xavier"
    }
    bias_filler {
      type: "constant"
      value: 0.2
    }
  }
}
layer {
  name: "reshape_frames"
  type: "Reshape"
  bottom: "embedded_in_frames"
  top: "embedded_input_frames"
  reshape_param {
    shape {
      dim: 1
      dim: 1
      dim: 500
    }
  }
}
layer {
  name: "reshape_stage_indicator"
  type: "Reshape"
  bottom: "stage_indicator"
  top: "reshaped_stage_indicator"
  reshape_param {
    shape {
      dim: 1
      dim: 1
      dim: 1
    }
  }
}
layer {
  name: "embedding"
  type: "Embed"
  bottom: "input_sentence"
  top: "embedded_input_sentence"
  param {
    lr_mult: 1
  }
  embed_param {
    num_output: 500
    input_dim: 46168
    bias_term: false
    weight_filler {
      type: "uniform"
      min: -0.08
      max: 0.08
    }
  }
}
layer {
  name: "lstm1"
  type: "LSTM"
  bottom: "embedded_input_frames"
  bottom: "cont_sentence"
  top: "lstm1"
  recurrent_param {
    num_output: 1000
    weight_filler {
      type: "uniform"
      min: -0.08
      max: 0.08
    }
    bias_filler {
      type: "constant"
      value: 0
    }
  }
}
layer {
  name: "concat"
  type: "Concat"
  bottom: "lstm1"
  bottom: "embedded_input_sentence"
  bottom: "reshaped_stage_indicator"
  top: "lstm1_video_sequence"
  concat_param {
    concat_dim: 2
  }
}
layer {
  name: "lstm2"
  type: "LSTM"
  bottom: "lstm1_video_sequence"
  bottom: "cont_sentence"
  top: "lstm2"
  recurrent_param {
    num_output: 1000
    weight_filler {
      type: "uniform"
      min: -0.08
      max: 0.08
    }
    bias_filler {
      type: "constant"
      value: 0
    }
  }
}
layer {
  name: "predict"
  type: "InnerProduct"
  bottom: "lstm2"
  top: "predict"
  param {
    lr_mult: 1
    decay_mult: 1
  }
  param {
    lr_mult: 2
    decay_mult: 0
  }
  inner_product_param {
    num_output: 46168
    weight_filler {
      type: "uniform"
      min: -0.08
      max: 0.08
    }
    bias_filler {
      type: "constant"
      value: 0
    }
    axis: 2
  }
}
layer {
  name: "probs"
  type: "Softmax"
  bottom: "predict"
  top: "probs"
  softmax_param {
    axis: 2
  }
}
I0925 22:44:49.463771  9048 net.cpp:49] Initializing net from parameters: 
name: "CaffeNet"
state {
  phase: TEST
}
layer {
  name: "data"
  type: "Input"
  top: "data"
  input_param {
    shape {
      dim: 10
      dim: 3
      dim: 227
      dim: 227
    }
  }
}
layer {
  name: "conv1"
  type: "Convolution"
  bottom: "data"
  top: "conv1"
  convolution_param {
    num_output: 96
    kernel_size: 11
    stride: 4
  }
}
layer {
  name: "relu1"
  type: "ReLU"
  bottom: "conv1"
  top: "conv1"
}
layer {
  name: "pool1"
  type: "Pooling"
  bottom: "conv1"
  top: "pool1"
  pooling_param {
    pool: MAX
    kernel_size: 3
    stride: 2
  }
}
layer {
  name: "norm1"
  type: "LRN"
  bottom: "pool1"
  top: "norm1"
  lrn_param {
    local_size: 5
    alpha: 0.0001
    beta: 0.75
  }
}
layer {
  name: "conv2"
  type: "Convolution"
  bottom: "norm1"
  top: "conv2"
  convolution_param {
    num_output: 256
    pad: 2
    kernel_size: 5
    group: 2
  }
}
layer {
  name: "relu2"
  type: "ReLU"
  bottom: "conv2"
  top: "conv2"
}
layer {
  name: "pool2"
  type: "Pooling"
  bottom: "conv2"
  top: "pool2"
  pooling_param {
    pool: MAX
    kernel_size: 3
    stride: 2
  }
}
layer {
  name: "norm2"
  type: "LRN"
  bottom: "pool2"
  top: "norm2"
  lrn_param {
    local_size: 5
    alpha: 0.0001
    beta: 0.75
  }
}
layer {
  name: "conv3"
  type: "Convolution"
  bottom: "norm2"
  top: "conv3"
  convolution_param {
    num_output: 384
    pad: 1
    kernel_size: 3
  }
}
layer {
  name: "relu3"
  type: "ReLU"
  bottom: "conv3"
  top: "conv3"
}
layer {
  name: "conv4"
  type: "Convolution"
  bottom: "conv3"
  top: "conv4"
  convolution_param {
    num_output: 384
    pad: 1
    kernel_size: 3
    group: 2
  }
}
layer {
  name: "relu4"
  type: "ReLU"
  bottom: "conv4"
  top: "conv4"
}
layer {
  name: "conv5"
  type: "Convolution"
  bottom: "conv4"
  top: "conv5"
  convolution_param {
    num_output: 256
    pad: 1
    kernel_size: 3
    group: 2
  }
}
layer {
  name: "relu5"
  type: "ReLU"
  bottom: "conv5"
  top: "conv5"
}
layer {
  name: "pool5"
  type: "Pooling"
  bottom: "conv5"
  top: "pool5"
  pooling_param {
    pool: MAX
    kernel_size: 3
    stride: 2
  }
}
layer {
  name: "fc6"
  type: "InnerProduct"
  bottom: "pool5"
  top: "fc6"
  inner_product_param {
    num_output: 4096
  }
}
layer {
  name: "relu6"
  type: "ReLU"
  bottom: "fc6"
  top: "fc6"
}
layer {
  name: "drop6"
  type: "Dropout"
  bottom: "fc6"
  top: "fc6"
  dropout_param {
    dropout_ratio: 0.5
  }
}
layer {
  name: "fc7"
  type: "InnerProduct"
  bottom: "fc6"
  top: "fc7"
  inner_product_param {
    num_output: 4096
  }
}
layer {
  name: "relu7"
  type: "ReLU"
  bottom: "fc7"
  top: "fc7"
}
layer {
  name: "drop7"
  type: "Dropout"
  bottom: "fc7"
  top: "fc7"
  dropout_param {
    dropout_ratio: 0.5
  }
}
layer {
  name: "fc8"
  type: "InnerProduct"
  bottom: "fc7"
  top: "fc8"
  inner_product_param {
    num_output: 1000
  }
}
layer {
  name: "prob"
  type: "Softmax"
  bottom: "fc8"
  top: "prob"
}
I0925 22:44:49.463871  9048 layer_factory.hpp:77] Creating layer data
I0925 22:44:49.463884  9048 net.cpp:91] Creating Layer data
I0925 22:44:49.463892  9048 net.cpp:399] data -> data
I0925 22:44:49.463925  9030 layer_factory.hpp:77] Creating layer input
I0925 22:44:49.463951  9030 net.cpp:91] Creating Layer input
I0925 22:44:49.463965  9030 net.cpp:399] input -> frames_fc7
I0925 22:44:49.463986  9030 net.cpp:399] input -> cont_sentence
I0925 22:44:49.464004  9030 net.cpp:399] input -> input_sentence
I0925 22:44:49.464023  9030 net.cpp:399] input -> stage_indicator
I0925 22:44:50.447084  9056 net.cpp:141] Setting up input
I0925 22:44:50.447221  9046 net.cpp:141] Setting up input
I0925 22:44:50.447273  9014 net.cpp:141] Setting up input
I0925 22:44:50.447293  9056 net.cpp:148] Top shape: 1 4096 (4096)
I0925 22:44:50.447293  9046 net.cpp:148] Top shape: 1 4096 (4096)
I0925 22:44:50.447306  9056 net.cpp:148] Top shape: 1 1 (1)
I0925 22:44:50.447312  9014 net.cpp:148] Top shape: 1 4096 (4096)
I0925 22:44:50.447314  9046 net.cpp:148] Top shape: 1 1 (1)
I0925 22:44:50.447331  9014 net.cpp:148] Top shape: 1 1 (1)
I0925 22:44:50.447309  9018 net.cpp:141] Setting up input
I0925 22:44:50.447345  9046 net.cpp:148] Top shape: 1 1 (1)
I0925 22:44:50.447315  9056 net.cpp:148] Top shape: 1 1 (1)
I0925 22:44:50.447346  9014 net.cpp:148] Top shape: 1 1 (1)
I0925 22:44:50.447365  9046 net.cpp:148] Top shape: 1 1 (1)
I0925 22:44:50.447373  9014 net.cpp:148] Top shape: 1 1 (1)
I0925 22:44:50.447360  9018 net.cpp:148] Top shape: 1 4096 (4096)
I0925 22:44:50.447361  9056 net.cpp:148] Top shape: 1 1 (1)
I0925 22:44:50.447396  9018 net.cpp:148] Top shape: 1 1 (1)
I0925 22:44:50.447378  9046 net.cpp:156] Memory required for data: 16396
I0925 22:44:50.447403  9018 net.cpp:148] Top shape: 1 1 (1)
I0925 22:44:50.447383  9014 net.cpp:156] Memory required for data: 16396
I0925 22:44:50.447410  9018 net.cpp:148] Top shape: 1 1 (1)
I0925 22:44:50.447401  9056 net.cpp:156] Memory required for data: 16396
I0925 22:44:50.447415  9018 net.cpp:156] Memory required for data: 16396
I0925 22:44:50.447430  9056 layer_factory.hpp:77] Creating layer cont_sentence_input_1_split
I0925 22:44:50.447430  9018 layer_factory.hpp:77] Creating layer cont_sentence_input_1_split
I0925 22:44:50.447432  9046 layer_factory.hpp:77] Creating layer cont_sentence_input_1_split
…
I0925 22:44:50.447542  9056 net.cpp:399] cont_sentence_input_1_split -> cont_sentence_input_1_split_1
I0925 22:44:50.447546  9046 net.cpp:399] cont_sentence_input_1_split -> cont_sentence_input_1_split_1
I0925 22:44:50.447548  9014 net.cpp:399] cont_sentence_input_1_split -> cont_sentence_input_1_split_0
I0925 22:44:50.447542  9018 net.cpp:399] cont_sentence_input_1_split -> cont_sentence_input_1_split_1
I0925 22:44:50.447582  9014 net.cpp:399] cont_sentence_input_1_split -> cont_sentence_input_1_split_1
I0925 22:44:50.447610  9056 net.cpp:141] Setting up cont_sentence_input_1_split
I0925 22:44:50.447621  9056 net.cpp:148] Top shape: 1 1 (1)
I0925 22:44:50.447628  9056 net.cpp:148] Top shape: 1 1 (1)
I0925 22:44:50.447631  9056 net.cpp:156] Memory required for data: 16404
I0925 22:44:50.447636  9056 layer_factory.hpp:77] Creating layer embed_encoder
I0925 22:44:50.447659  9056 net.cpp:91] Creating Layer embed_encoder
I0925 22:44:50.447664  9056 net.cpp:425] embed_encoder <- frames_fc7
I0925 22:44:50.447674  9056 net.cpp:399] embed_encoder -> embedded_in_frames
I0925 22:44:50.447695  9014 net.cpp:141] Setting up cont_sentence_input_1_split
I0925 22:44:50.447708  9014 net.cpp:148] Top shape: 1 1 (1)
I0925 22:44:50.447715  9014 net.cpp:148] Top shape: 1 1 (1)
I0925 22:44:50.447718  9014 net.cpp:156] Memory required for data: 16404
I0925 22:44:50.447718  9018 net.cpp:141] Setting up cont_sentence_input_1_split
I0925 22:44:50.447724  9014 layer_factory.hpp:77] Creating layer embed_encoder
I0925 22:44:50.447731  9018 net.cpp:148] Top shape: 1 1 (1)
I0925 22:44:50.447736  9018 net.cpp:148] Top shape: 1 1 (1)
I0925 22:44:50.447739  9014 net.cpp:91] Creating Layer embed_encoder
I0925 22:44:50.447741  9018 net.cpp:156] Memory required for data: 16404
I0925 22:44:50.447746  9014 net.cpp:425] embed_encoder <- frames_fc7
I0925 22:44:50.447747  9018 layer_factory.hpp:77] Creating layer embed_encoder
I0925 22:44:50.447757  9014 net.cpp:399] embed_encoder -> embedded_in_frames
I0925 22:44:50.447759  9018 net.cpp:91] Creating Layer embed_encoder
I0925 22:44:50.447765  9018 net.cpp:425] embed_encoder <- frames_fc7
I0925 22:44:50.447775  9018 net.cpp:399] embed_encoder -> embedded_in_frames
I0925 22:44:50.447816  9046 net.cpp:141] Setting up cont_sentence_input_1_split
I0925 22:44:50.447835  9046 net.cpp:148] Top shape: 1 1 (1)
I0925 22:44:50.447847  9046 net.cpp:148] Top shape: 1 1 (1)
I0925 22:44:50.447854  9046 net.cpp:156] Memory required for data: 16404
I0925 22:44:50.447863  9046 layer_factory.hpp:77] Creating layer embed_encoder
I0925 22:44:50.447880  9046 net.cpp:91] Creating Layer embed_encoder
I0925 22:44:50.447890  9046 net.cpp:425] embed_encoder <- frames_fc7
I0925 22:44:50.447902  9046 net.cpp:399] embed_encoder -> embedded_in_frames
I0925 22:44:50.460923  9048 net.cpp:141] Setting up data
I0925 22:44:50.460980  9048 net.cpp:148] Top shape: 10 3 227 227 (1545870)
I0925 22:44:50.460989  9048 net.cpp:156] Memory required for data: 6183480
I0925 22:44:50.461004  9048 layer_factory.hpp:77] Creating layer conv1
I0925 22:44:50.461050  9048 net.cpp:91] Creating Layer conv1
I0925 22:44:50.461060  9048 net.cpp:425] conv1 <- data
I0925 22:44:50.461077  9048 net.cpp:399] conv1 -> conv1
I0925 22:44:50.465515  9008 net.cpp:141] Setting up input
I0925 22:44:50.465569  9008 net.cpp:148] Top shape: 1 4096 (4096)
I0925 22:44:50.465577  9008 net.cpp:148] Top shape: 1 1 (1)
I0925 22:44:50.465584  9008 net.cpp:148] Top shape: 1 1 (1)
I0925 22:44:50.465579  9026 net.cpp:141] Setting up input
I0925 22:44:50.465590  9008 net.cpp:148] Top shape: 1 1 (1)
I0925 22:44:50.465603  9008 net.cpp:156] Memory required for data: 16396
I0925 22:44:50.465605  9026 net.cpp:148] Top shape: 1 4096 (4096)
I0925 22:44:50.465618  9008 layer_factory.hpp:77] Creating layer cont_sentence_input_1_split
I0925 22:44:50.465620  9026 net.cpp:148] Top shape: 1 1 (1)
I0925 22:44:50.465626  9026 net.cpp:148] Top shape: 1 1 (1)
I0925 22:44:50.465632  9026 net.cpp:148] Top shape: 1 1 (1)
I0925 22:44:50.465636  9026 net.cpp:156] Memory required for data: 16396
I0925 22:44:50.465638  9008 net.cpp:91] Creating Layer cont_sentence_input_1_split
I0925 22:44:50.465642  9026 layer_factory.hpp:77] Creating layer cont_sentence_input_1_split
I0925 22:44:50.465646  9008 net.cpp:425] cont_sentence_input_1_split <- cont_sentence
I0925 22:44:50.465656  9026 net.cpp:91] Creating Layer cont_sentence_input_1_split
I0925 22:44:50.465658  9008 net.cpp:399] cont_sentence_input_1_split -> cont_sentence_input_1_split_0
I0925 22:44:50.465662  9026 net.cpp:425] cont_sentence_input_1_split <- cont_sentence
I0925 22:44:50.465669  9026 net.cpp:399] cont_sentence_input_1_split -> cont_sentence_input_1_split_0
I0925 22:44:50.465675  9008 net.cpp:399] cont_sentence_input_1_split -> cont_sentence_input_1_split_1
I0925 22:44:50.465680  9026 net.cpp:399] cont_sentence_input_1_split -> cont_sentence_input_1_split_1
I0925 22:44:50.465692  9030 net.cpp:141] Setting up input
I0925 22:44:50.465716  9030 net.cpp:148] Top shape: 1 4096 (4096)
I0925 22:44:50.465729  9030 net.cpp:148] Top shape: 1 1 (1)
I0925 22:44:50.465739  9030 net.cpp:148] Top shape: 1 1 (1)
I0925 22:44:50.465749  9030 net.cpp:148] Top shape: 1 1 (1)
I0925 22:44:50.465757  9030 net.cpp:156] Memory required for data: 16396
I0925 22:44:50.465767  9030 layer_factory.hpp:77] Creating layer cont_sentence_input_1_split
I0925 22:44:50.465750  9012 net.cpp:141] Setting up input
I0925 22:44:50.465785  9012 net.cpp:148] Top shape: 1 4096 (4096)
I0925 22:44:50.465785  9030 net.cpp:91] Creating Layer cont_sentence_input_1_split
I0925 22:44:50.465801  9012 net.cpp:148] Top shape: 1 1 (1)
I0925 22:44:50.465806  9030 net.cpp:425] cont_sentence_input_1_split <- cont_sentence
I0925 22:44:50.465812  9012 net.cpp:148] Top shape: 1 1 (1)
I0925 22:44:50.465819  9030 net.cpp:399] cont_sentence_input_1_split -> cont_sentence_input_1_split_0
I0925 22:44:50.465822  9012 net.cpp:148] Top shape: 1 1 (1)
I0925 22:44:50.465828  9012 net.cpp:156] Memory required for data: 16396
I0925 22:44:50.465829  9026 net.cpp:141] Setting up cont_sentence_input_1_split
I0925 22:44:50.465837  9012 layer_factory.hpp:77] Creating layer cont_sentence_input_1_split
I0925 22:44:50.465843  9026 net.cpp:148] Top shape: 1 1 (1)
I0925 22:44:50.465849  9026 net.cpp:148] Top shape: 1 1 (1)
I0925 22:44:50.465848  9030 net.cpp:399] cont_sentence_input_1_split -> cont_sentence_input_1_split_1
I0925 22:44:50.465857  9026 net.cpp:156] Memory required for data: 16404
I0925 22:44:50.465857  9008 net.cpp:141] Setting up cont_sentence_input_1_split
I0925 22:44:50.465862  9026 layer_factory.hpp:77] Creating layer embed_encoder
I0925 22:44:50.465869  9012 net.cpp:91] Creating Layer cont_sentence_input_1_split
I0925 22:44:50.465873  9008 net.cpp:148] Top shape: 1 1 (1)
I0925 22:44:50.465886  9012 net.cpp:425] cont_sentence_input_1_split <- cont_sentence
I0925 22:44:50.465893  9008 net.cpp:148] Top shape: 1 1 (1)
I0925 22:44:50.465886  9026 net.cpp:91] Creating Layer embed_encoder
I0925 22:44:50.465900  9008 net.cpp:156] Memory required for data: 16404
I0925 22:44:50.465904  9026 net.cpp:425] embed_encoder <- frames_fc7
I0925 22:44:50.465900  9012 net.cpp:399] cont_sentence_input_1_split -> cont_sentence_input_1_split_0
I0925 22:44:50.465910  9008 layer_factory.hpp:77] Creating layer embed_encoder
I0925 22:44:50.465914  9026 net.cpp:399] embed_encoder -> embedded_in_frames
I0925 22:44:50.465919  9012 net.cpp:399] cont_sentence_input_1_split -> cont_sentence_input_1_split_1
I0925 22:44:50.465924  9008 net.cpp:91] Creating Layer embed_encoder
I0925 22:44:50.465929  9008 net.cpp:425] embed_encoder <- frames_fc7
I0925 22:44:50.465939  9008 net.cpp:399] embed_encoder -> embedded_in_frames
I0925 22:44:50.466050  9012 net.cpp:141] Setting up cont_sentence_input_1_split
I0925 22:44:50.466063  9012 net.cpp:148] Top shape: 1 1 (1)
I0925 22:44:50.466069  9012 net.cpp:148] Top shape: 1 1 (1)
I0925 22:44:50.466073  9012 net.cpp:156] Memory required for data: 16404
I0925 22:44:50.466081  9012 layer_factory.hpp:77] Creating layer embed_encoder
I0925 22:44:50.466101  9012 net.cpp:91] Creating Layer embed_encoder
I0925 22:44:50.466110  9012 net.cpp:425] embed_encoder <- frames_fc7
I0925 22:44:50.466128  9012 net.cpp:399] embed_encoder -> embedded_in_frames
I0925 22:44:50.466130  9030 net.cpp:141] Setting up cont_sentence_input_1_split
I0925 22:44:50.466145  9030 net.cpp:148] Top shape: 1 1 (1)
I0925 22:44:50.466156  9030 net.cpp:148] Top shape: 1 1 (1)
I0925 22:44:50.466162  9030 net.cpp:156] Memory required for data: 16404
I0925 22:44:50.466169  9030 layer_factory.hpp:77] Creating layer embed_encoder
I0925 22:44:50.466189  9030 net.cpp:91] Creating Layer embed_encoder
I0925 22:44:50.466195  9030 net.cpp:425] embed_encoder <- frames_fc7
I0925 22:44:50.466234  9030 net.cpp:399] embed_encoder -> embedded_in_frames
I0925 22:44:50.485431  9056 net.cpp:141] Setting up embed_encoder
I0925 22:44:50.485493  9056 net.cpp:148] Top shape: 1 500 (500)
I0925 22:44:50.485503  9056 net.cpp:156] Memory required for data: 18404
I0925 22:44:50.485543  9056 layer_factory.hpp:77] Creating layer reshape_frames
I0925 22:44:50.485581  9056 net.cpp:91] Creating Layer reshape_frames
I0925 22:44:50.485594  9056 net.cpp:425] reshape_frames <- embedded_in_frames
I0925 22:44:50.485612  9056 net.cpp:399] reshape_frames -> embedded_input_frames
I0925 22:44:50.485860  9046 net.cpp:141] Setting up embed_encoder
I0925 22:44:50.485878  9046 net.cpp:148] Top shape: 1 500 (500)
I0925 22:44:50.485883  9046 net.cpp:156] Memory required for data: 18404
I0925 22:44:50.485898  9046 layer_factory.hpp:77] Creating layer reshape_frames
I0925 22:44:50.485909  9046 net.cpp:91] Creating Layer reshape_frames
I0925 22:44:50.485916  9046 net.cpp:425] reshape_frames <- embedded_in_frames
I0925 22:44:50.485935  9046 net.cpp:399] reshape_frames -> embedded_input_frames
I0925 22:44:50.485949  9056 net.cpp:141] Setting up reshape_frames
I0925 22:44:50.485966  9056 net.cpp:148] Top shape: 1 1 500 (500)
I0925 22:44:50.485973  9056 net.cpp:156] Memory required for data: 20404
I0925 22:44:50.485981  9056 layer_factory.hpp:77] Creating layer reshape_stage_indicator
I0925 22:44:50.486001  9056 net.cpp:91] Creating Layer reshape_stage_indicator
I0925 22:44:50.486009  9056 net.cpp:425] reshape_stage_indicator <- stage_indicator
I0925 22:44:50.486022  9056 net.cpp:399] reshape_stage_indicator -> reshaped_stage_indicator
I0925 22:44:50.486039  9018 net.cpp:141] Setting up embed_encoder
I0925 22:44:50.486057  9018 net.cpp:148] Top shape: 1 500 (500)
I0925 22:44:50.486063  9018 net.cpp:156] Memory required for data: 18404
I0925 22:44:50.486068  9046 net.cpp:141] Setting up reshape_frames
I0925 22:44:50.486079  9018 layer_factory.hpp:77] Creating layer reshape_frames
I0925 22:44:50.486083  9046 net.cpp:148] Top shape: 1 1 500 (500)
I0925 22:44:50.486096  9046 net.cpp:156] Memory required for data: 20404
I0925 22:44:50.486099  9018 net.cpp:91] Creating Layer reshape_frames
I0925 22:44:50.486101  9046 layer_factory.hpp:77] Creating layer reshape_stage_indicator
I0925 22:44:50.486106  9018 net.cpp:425] reshape_frames <- embedded_in_frames
I0925 22:44:50.486112  9046 net.cpp:91] Creating Layer reshape_stage_indicator
I0925 22:44:50.486115  9018 net.cpp:399] reshape_frames -> embedded_input_frames
I0925 22:44:50.486119  9046 net.cpp:425] reshape_stage_indicator <- stage_indicator
I0925 22:44:50.486125  9046 net.cpp:399] reshape_stage_indicator -> reshaped_stage_indicator
I0925 22:44:50.486140  9056 net.cpp:141] Setting up reshape_stage_indicator
I0925 22:44:50.486156  9056 net.cpp:148] Top shape: 1 1 1 (1)
I0925 22:44:50.486163  9056 net.cpp:156] Memory required for data: 20408
I0925 22:44:50.486173  9056 layer_factory.hpp:77] Creating layer embedding
I0925 22:44:50.486192  9056 net.cpp:91] Creating Layer embedding
I0925 22:44:50.486202  9056 net.cpp:425] embedding <- input_sentence
I0925 22:44:50.486207  9014 net.cpp:141] Setting up embed_encoder
I0925 22:44:50.486215  9056 net.cpp:399] embedding -> embedded_input_sentence
I0925 22:44:50.486224  9014 net.cpp:148] Top shape: 1 500 (500)
I0925 22:44:50.486230  9014 net.cpp:156] Memory required for data: 18404
I0925 22:44:50.486233  9018 net.cpp:141] Setting up reshape_frames
I0925 22:44:50.486244  9018 net.cpp:148] Top shape: 1 1 500 (500)
I0925 22:44:50.486246  9014 layer_factory.hpp:77] Creating layer reshape_frames
I0925 22:44:50.486249  9018 net.cpp:156] Memory required for data: 20404
I0925 22:44:50.486254  9018 layer_factory.hpp:77] Creating layer reshape_stage_indicator
I0925 22:44:50.486260  9014 net.cpp:91] Creating Layer reshape_frames
I0925 22:44:50.486266  9046 net.cpp:141] Setting up reshape_stage_indicator
I0925 22:44:50.486268  9014 net.cpp:425] reshape_frames <- embedded_in_frames
I0925 22:44:50.486280  9046 net.cpp:148] Top shape: 1 1 1 (1)
I0925 22:44:50.486268  9018 net.cpp:91] Creating Layer reshape_stage_indicator
I0925 22:44:50.486285  9046 net.cpp:156] Memory required for data: 20408
I0925 22:44:50.486287  9014 net.cpp:399] reshape_frames -> embedded_input_frames
I0925 22:44:50.486289  9018 net.cpp:425] reshape_stage_indicator <- stage_indicator
I0925 22:44:50.486300  9018 net.cpp:399] reshape_stage_indicator -> reshaped_stage_indicator
I0925 22:44:50.486304  9046 layer_factory.hpp:77] Creating layer embedding
I0925 22:44:50.486340  9046 net.cpp:91] Creating Layer embedding
I0925 22:44:50.486346  9046 net.cpp:425] embedding <- input_sentence
I0925 22:44:50.486356  9046 net.cpp:399] embedding -> embedded_input_sentence
I0925 22:44:50.527626  9014 net.cpp:141] Setting up reshape_frames
I0925 22:44:50.527712  9014 net.cpp:148] Top shape: 1 1 500 (500)
I0925 22:44:50.527724  9014 net.cpp:156] Memory required for data: 20404
I0925 22:44:50.527735  9014 layer_factory.hpp:77] Creating layer reshape_stage_indicator
I0925 22:44:50.527796  9014 net.cpp:91] Creating Layer reshape_stage_indicator
I0925 22:44:50.527842  9014 net.cpp:425] reshape_stage_indicator <- stage_indicator
I0925 22:44:50.527868  9014 net.cpp:399] reshape_stage_indicator -> reshaped_stage_indicator
I0925 22:44:50.527626  9018 net.cpp:141] Setting up reshape_stage_indicator
I0925 22:44:50.529053  9018 net.cpp:148] Top shape: 1 1 1 (1)
I0925 22:44:50.529320  9018 net.cpp:156] Memory required for data: 20408
I0925 22:44:50.529495  9018 layer_factory.hpp:77] Creating layer embedding
I0925 22:44:50.529690  9018 net.cpp:91] Creating Layer embedding
I0925 22:44:50.529866  9018 net.cpp:425] embedding <- input_sentence
I0925 22:44:50.530040  9018 net.cpp:399] embedding -> embedded_input_sentence
I0925 22:44:50.581172  9014 net.cpp:141] Setting up reshape_stage_indicator
I0925 22:44:50.581230  9014 net.cpp:148] Top shape: 1 1 1 (1)
I0925 22:44:50.581238  9014 net.cpp:156] Memory required for data: 20408
I0925 22:44:50.581246  9014 layer_factory.hpp:77] Creating layer embedding
I0925 22:44:50.581274  9014 net.cpp:91] Creating Layer embedding
I0925 22:44:50.581282  9014 net.cpp:425] embedding <- input_sentence
I0925 22:44:50.581295  9014 net.cpp:399] embedding -> embedded_input_sentence
I0925 22:44:50.581428  9012 net.cpp:141] Setting up embed_encoder
I0925 22:44:50.581468  9012 net.cpp:148] Top shape: 1 500 (500)
I0925 22:44:50.581475  9012 net.cpp:156] Memory required for data: 18404
I0925 22:44:50.581506  9012 layer_factory.hpp:77] Creating layer reshape_frames
I0925 22:44:50.581526  9012 net.cpp:91] Creating Layer reshape_frames
I0925 22:44:50.581534  9012 net.cpp:425] reshape_frames <- embedded_in_frames
I0925 22:44:50.581547  9012 net.cpp:399] reshape_frames -> embedded_input_frames
I0925 22:44:50.581547  9008 net.cpp:141] Setting up embed_encoder
I0925 22:44:50.581565  9008 net.cpp:148] Top shape: 1 500 (500)
I0925 22:44:50.581570  9008 net.cpp:156] Memory required for data: 18404
I0925 22:44:50.581588  9008 layer_factory.hpp:77] Creating layer reshape_frames
I0925 22:44:50.581600  9008 net.cpp:91] Creating Layer reshape_frames
I0925 22:44:50.581606  9008 net.cpp:425] reshape_frames <- embedded_in_frames
I0925 22:44:50.581615  9008 net.cpp:399] reshape_frames -> embedded_input_frames
I0925 22:44:50.625617  9012 net.cpp:141] Setting up reshape_frames
I0925 22:44:50.625669  9012 net.cpp:148] Top shape: 1 1 500 (500)
I0925 22:44:50.625677  9012 net.cpp:156] Memory required for data: 20404
I0925 22:44:50.625677  9008 net.cpp:141] Setting up reshape_frames
I0925 22:44:50.625689  9012 layer_factory.hpp:77] Creating layer reshape_stage_indicator
I0925 22:44:50.625700  9008 net.cpp:148] Top shape: 1 1 500 (500)
I0925 22:44:50.625710  9008 net.cpp:156] Memory required for data: 20404
I0925 22:44:50.625717  9008 layer_factory.hpp:77] Creating layer reshape_stage_indicator
I0925 22:44:50.625723  9012 net.cpp:91] Creating Layer reshape_stage_indicator
I0925 22:44:50.625735  9008 net.cpp:91] Creating Layer reshape_stage_indicator
I0925 22:44:50.625736  9012 net.cpp:425] reshape_stage_indicator <- stage_indicator
I0925 22:44:50.625752  9008 net.cpp:425] reshape_stage_indicator <- stage_indicator
I0925 22:44:50.625767  9008 net.cpp:399] reshape_stage_indicator -> reshaped_stage_indicator
I0925 22:44:50.625768  9012 net.cpp:399] reshape_stage_indicator -> reshaped_stage_indicator
I0925 22:44:50.671329  9030 net.cpp:141] Setting up embed_encoder
I0925 22:44:50.671368  9008 net.cpp:141] Setting up reshape_stage_indicator
I0925 22:44:50.671383  9030 net.cpp:148] Top shape: 1 500 (500)
I0925 22:44:50.671388  9008 net.cpp:148] Top shape: 1 1 1 (1)
I0925 22:44:50.671389  9030 net.cpp:156] Memory required for data: 18404
I0925 22:44:50.671394  9008 net.cpp:156] Memory required for data: 20408
I0925 22:44:50.671401  9008 layer_factory.hpp:77] Creating layer embedding
I0925 22:44:50.671398  9012 net.cpp:141] Setting up reshape_stage_indicator
I0925 22:44:50.671424  9008 net.cpp:91] Creating Layer embedding
I0925 22:44:50.671425  9012 net.cpp:148] Top shape: 1 1 1 (1)
I0925 22:44:50.671437  9012 net.cpp:156] Memory required for data: 20408
I0925 22:44:50.671445  9012 layer_factory.hpp:77] Creating layer embedding
I0925 22:44:50.671450  9008 net.cpp:425] embedding <- input_sentence
I0925 22:44:50.671423  9030 layer_factory.hpp:77] Creating layer reshape_frames
I0925 22:44:50.671463  9008 net.cpp:399] embedding -> embedded_input_sentence
I0925 22:44:50.671479  9030 net.cpp:91] Creating Layer reshape_frames
I0925 22:44:50.671494  9030 net.cpp:425] reshape_frames <- embedded_in_frames
I0925 22:44:50.671504  9026 net.cpp:141] Setting up embed_encoder
I0925 22:44:50.671492  9012 net.cpp:91] Creating Layer embedding
I0925 22:44:50.671524  9026 net.cpp:148] Top shape: 1 500 (500)
I0925 22:44:50.671525  9030 net.cpp:399] reshape_frames -> embedded_input_frames
I0925 22:44:50.671532  9026 net.cpp:156] Memory required for data: 18404
I0925 22:44:50.671526  9012 net.cpp:425] embedding <- input_sentence
I0925 22:44:50.671556  9026 layer_factory.hpp:77] Creating layer reshape_frames
I0925 22:44:50.671560  9012 net.cpp:399] embedding -> embedded_input_sentence
I0925 22:44:50.671573  9026 net.cpp:91] Creating Layer reshape_frames
I0925 22:44:50.671586  9026 net.cpp:425] reshape_frames <- embedded_in_frames
I0925 22:44:50.671599  9026 net.cpp:399] reshape_frames -> embedded_input_frames
I0925 22:44:50.712937  9030 net.cpp:141] Setting up reshape_frames
I0925 22:44:50.713018  9030 net.cpp:148] Top shape: 1 1 500 (500)
I0925 22:44:50.713035  9030 net.cpp:156] Memory required for data: 20404
I0925 22:44:50.713054  9030 layer_factory.hpp:77] Creating layer reshape_stage_indicator
I0925 22:44:50.713081  9026 net.cpp:141] Setting up reshape_frames
I0925 22:44:50.713104  9026 net.cpp:148] Top shape: 1 1 500 (500)
I0925 22:44:50.713124  9026 net.cpp:156] Memory required for data: 20404
I0925 22:44:50.713135  9026 layer_factory.hpp:77] Creating layer reshape_stage_indicator
I0925 22:44:50.713151  9026 net.cpp:91] Creating Layer reshape_stage_indicator
I0925 22:44:50.713162  9026 net.cpp:425] reshape_stage_indicator <- stage_indicator
I0925 22:44:50.713178  9026 net.cpp:399] reshape_stage_indicator -> reshaped_stage_indicator
I0925 22:44:50.713100  9030 net.cpp:91] Creating Layer reshape_stage_indicator
I0925 22:44:50.715730  9030 net.cpp:425] reshape_stage_indicator <- stage_indicator
I0925 22:44:50.715790  9030 net.cpp:399] reshape_stage_indicator -> reshaped_stage_indicator
I0925 22:44:50.774063  9026 net.cpp:141] Setting up reshape_stage_indicator
I0925 22:44:50.774132  9026 net.cpp:148] Top shape: 1 1 1 (1)
I0925 22:44:50.774140  9026 net.cpp:156] Memory required for data: 20408
I0925 22:44:50.774142  9030 net.cpp:141] Setting up reshape_stage_indicator
I0925 22:44:50.774152  9026 layer_factory.hpp:77] Creating layer embedding
I0925 22:44:50.774164  9030 net.cpp:148] Top shape: 1 1 1 (1)
I0925 22:44:50.774173  9030 net.cpp:156] Memory required for data: 20408
I0925 22:44:50.774180  9030 layer_factory.hpp:77] Creating layer embedding
I0925 22:44:50.774188  9026 net.cpp:91] Creating Layer embedding
I0925 22:44:50.774195  9030 net.cpp:91] Creating Layer embedding
I0925 22:44:50.774197  9026 net.cpp:425] embedding <- input_sentence
I0925 22:44:50.774204  9030 net.cpp:425] embedding <- input_sentence
I0925 22:44:50.774214  9026 net.cpp:399] embedding -> embedded_input_sentence
I0925 22:44:50.774219  9030 net.cpp:399] embedding -> embedded_input_sentence
I0925 22:44:50.828567  9046 net.cpp:141] Setting up embedding
I0925 22:44:50.828629  9046 net.cpp:148] Top shape: 1 1 500 (500)
I0925 22:44:50.828639  9046 net.cpp:156] Memory required for data: 22408
I0925 22:44:50.828667  9046 layer_factory.hpp:77] Creating layer lstm1
I0925 22:44:50.828716  9046 net.cpp:91] Creating Layer lstm1
I0925 22:44:50.828730  9046 net.cpp:425] lstm1 <- embedded_input_frames
I0925 22:44:50.828745  9046 net.cpp:425] lstm1 <- cont_sentence_input_1_split_0
I0925 22:44:50.828760  9046 net.cpp:399] lstm1 -> lstm1
I0925 22:44:50.828821  9046 recurrent_layer.cpp:20] Initializing recurrent layer: assuming input batch contains 1 timesteps of 1 independent streams.
I0925 22:44:50.869663  9018 net.cpp:141] Setting up embedding
I0925 22:44:50.869730  9018 net.cpp:148] Top shape: 1 1 500 (500)
I0925 22:44:50.869741  9018 net.cpp:156] Memory required for data: 22408
I0925 22:44:50.869771  9018 layer_factory.hpp:77] Creating layer lstm1
I0925 22:44:50.869804  9018 net.cpp:91] Creating Layer lstm1
I0925 22:44:50.869817  9018 net.cpp:425] lstm1 <- embedded_input_frames
I0925 22:44:50.869832  9018 net.cpp:425] lstm1 <- cont_sentence_input_1_split_0
I0925 22:44:50.869848  9018 net.cpp:399] lstm1 -> lstm1
I0925 22:44:50.869876  9018 recurrent_layer.cpp:20] Initializing recurrent layer: assuming input batch contains 1 timesteps of 1 independent streams.
I0925 22:44:50.870687  9018 net.cpp:49] Initializing net from parameters: 
layer {
  name: "lstm1_"
  type: "Input"
  top: "x"
  top: "cont"
  input_param {
    shape {
      dim: 1
      dim: 1
      dim: 500
    }
    shape {
      dim: 1
      dim: 1
    }
  }
}
layer {
  name: "lstm1_"
  type: "Input"
  top: "c_0"
  top: "h_0"
  input_param {
    shape {
      dim: 1
      dim: 1
      dim: 1000
    }
    shape {
      dim: 1
      dim: 1
      dim: 1000
    }
  }
}
layer {
  name: "lstm1_cont_slice"
  type: "Slice"
  bottom: "cont"
  top: "cont_1"
  slice_param {
    axis: 0
  }
}
layer {
  name: "lstm1_x_transform"
  type: "InnerProduct"
  bottom: "x"
  top: "W_xc_x"
  param {
    name: "W_xc"
  }
  param {
    name: "b_c"
  }
  propagate_down: true
  inner_product_param {
    num_output: 4000
    bias_term: true
    weight_filler {
      type: "uniform"
      min: -0.08
      max: 0.08
    }
    bias_filler {
      type: "constant"
      value: 0
    }
    axis: 2
  }
}
layer {
  name: "lstm1_W_xc_x_slice"
  type: "Slice"
  bottom: "W_xc_x"
  top: "W_xc_x_1"
  slice_param {
    axis: 0
  }
}
layer {
  name: "lstm1_h_conted_0"
  type: "Scale"
  bottom: "h_0"
  bottom: "cont_1"
  top: "h_conted_0"
  scale_param {
    axis: 0
  }
}
layer {
  name: "lstm1_transform_1"
  type: "InnerProduct"
  bottom: "h_conted_0"
  top: "W_hc_h_0"
  param {
    name: "W_hc"
  }
  inner_product_param {
    num_output: 4000
    bias_term: false
    weight_filler {
      type: "uniform"
      min: -0.08
      max: 0.08
    }
    axis: 2
  }
}
layer {
  name: "lstm1_gate_input_1"
  type: "Eltwise"
  bottom: "W_hc_h_0"
  bottom: "W_xc_x_1"
  top: "gate_input_1"
  eltwise_param {
    operation: SUM
  }
}
layer {
  name: "lstm1_unit_1"
  type: "LSTMUnit"
  bottom: "c_0"
  bottom: "gate_input_1"
  bottom: "cont_1"
  top: "c_1"
  top: "h_1"
}
layer {
  name: "lstm1_"
  type: "Split"
  bottom: "c_1"
  top: "c_T"
}
layer {
  name: "lstm1_h_concat"
  type: "Concat"
  bottom: "h_1"
  top: "h"
  concat_param {
    axis: 0
  }
}
layer {
  name: "h_pseudoloss"
  type: "Reduction"
  bottom: "h"
  top: "h_pseudoloss"
  loss_weight: 1
}
I0925 22:44:50.870874  9018 layer_factory.hpp:77] Creating layer lstm1_
I0925 22:44:50.870900  9018 net.cpp:91] Creating Layer lstm1_
I0925 22:44:50.870913  9018 net.cpp:399] lstm1_ -> x
I0925 22:44:50.870937  9018 net.cpp:399] lstm1_ -> cont
I0925 22:44:50.874030  9046 net.cpp:49] Initializing net from parameters: 
layer {
  name: "lstm1_"
  type: "Input"
  top: "x"
  top: "cont"
  input_param {
    shape {
      dim: 1
      dim: 1
      dim: 500
    }
    shape {
      dim: 1
      dim: 1
    }
  }
}
layer {
  name: "lstm1_"
  type: "Input"
  top: "c_0"
  top: "h_0"
  input_param {
    shape {
      dim: 1
      dim: 1
      dim: 1000
    }
    shape {
      dim: 1
      dim: 1
      dim: 1000
    }
  }
}
layer {
  name: "lstm1_cont_slice"
  type: "Slice"
  bottom: "cont"
  top: "cont_1"
  slice_param {
    axis: 0
  }
}
layer {
  name: "lstm1_x_transform"
  type: "InnerProduct"
  bottom: "x"
  top: "W_xc_x"
  param {
    name: "W_xc"
  }
  param {
    name: "b_c"
  }
  propagate_down: true
  inner_product_param {
    num_output: 4000
    bias_term: true
    weight_filler {
      type: "uniform"
      min: -0.08
      max: 0.08
    }
    bias_filler {
      type: "constant"
      value: 0
    }
    axis: 2
  }
}
layer {
  name: "lstm1_W_xc_x_slice"
  type: "Slice"
  bottom: "W_xc_x"
  top: "W_xc_x_1"
  slice_param {
    axis: 0
  }
}
layer {
  name: "lstm1_h_conted_0"
  type: "Scale"
  bottom: "h_0"
  bottom: "cont_1"
  top: "h_conted_0"
  scale_param {
    axis: 0
  }
}
layer {
  name: "lstm1_transform_1"
  type: "InnerProduct"
  bottom: "h_conted_0"
  top: "W_hc_h_0"
  param {
    name: "W_hc"
  }
  inner_product_param {
    num_output: 4000
    bias_term: false
    weight_filler {
      type: "uniform"
      min: -0.08
      max: 0.08
    }
    axis: 2
  }
}
layer {
  name: "lstm1_gate_input_1"
  type: "Eltwise"
  bottom: "W_hc_h_0"
  bottom: "W_xc_x_1"
  top: "gate_input_1"
  eltwise_param {
    operation: SUM
  }
}
layer {
  name: "lstm1_unit_1"
  type: "LSTMUnit"
  bottom: "c_0"
  bottom: "gate_input_1"
  bottom: "cont_1"
  top: "c_1"
  top: "h_1"
}
layer {
  name: "lstm1_"
  type: "Split"
  bottom: "c_1"
  top: "c_T"
}
layer {
  name: "lstm1_h_concat"
  type: "Concat"
  bottom: "h_1"
  top: "h"
  concat_param {
    axis: 0
  }
}
layer {
  name: "h_pseudoloss"
  type: "Reduction"
  bottom: "h"
  top: "h_pseudoloss"
  loss_weight: 1
}
I0925 22:44:50.874704  9046 layer_factory.hpp:77] Creating layer lstm1_
I0925 22:44:50.874732  9046 net.cpp:91] Creating Layer lstm1_
I0925 22:44:50.874743  9046 net.cpp:399] lstm1_ -> x
I0925 22:44:50.874768  9046 net.cpp:399] lstm1_ -> cont
I0925 22:44:50.876265  9014 net.cpp:141] Setting up embedding
I0925 22:44:50.876284  9014 net.cpp:148] Top shape: 1 1 500 (500)
I0925 22:44:50.876289  9014 net.cpp:156] Memory required for data: 22408
I0925 22:44:50.876302  9014 layer_factory.hpp:77] Creating layer lstm1
I0925 22:44:50.876319  9014 net.cpp:91] Creating Layer lstm1
I0925 22:44:50.876327  9014 net.cpp:425] lstm1 <- embedded_input_frames
I0925 22:44:50.876335  9014 net.cpp:425] lstm1 <- cont_sentence_input_1_split_0
I0925 22:44:50.876345  9014 net.cpp:399] lstm1 -> lstm1
I0925 22:44:50.876359  9014 recurrent_layer.cpp:20] Initializing recurrent layer: assuming input batch contains 1 timesteps of 1 independent streams.
I0925 22:44:50.876482  9056 net.cpp:141] Setting up embedding
I0925 22:44:50.876513  9018 net.cpp:141] Setting up lstm1_
I0925 22:44:50.876528  9056 net.cpp:148] Top shape: 1 1 500 (500)
I0925 22:44:50.876536  9018 net.cpp:148] Top shape: 1 1 500 (500)
I0925 22:44:50.876538  9056 net.cpp:156] Memory required for data: 22408
I0925 22:44:50.876569  9018 net.cpp:148] Top shape: 1 1 (1)
I0925 22:44:50.876577  9018 net.cpp:156] Memory required for data: 2004
I0925 22:44:50.876587  9018 layer_factory.hpp:77] Creating layer lstm1_
I0925 22:44:50.876586  9056 layer_factory.hpp:77] Creating layer lstm1
I0925 22:44:50.876626  9018 net.cpp:91] Creating Layer lstm1_
I0925 22:44:50.876628  9056 net.cpp:91] Creating Layer lstm1
I0925 22:44:50.876633  9014 net.cpp:49] Initializing net from parameters: 
layer {
  name: "lstm1_"
  type: "Input"
  top: "x"
  top: "cont"
  input_param {
    shape {
      dim: 1
      dim: 1
      dim: 500
    }
    shape {
      dim: 1
      dim: 1
    }
  }
}
layer {
  name: "lstm1_"
  type: "Input"
  top: "c_0"
  top: "h_0"
  input_param {
    shape {
      dim: 1
      dim: 1
      dim: 1000
    }
    shape {
      dim: 1
      dim: 1
      dim: 1000
    }
  }
}
layer {
  name: "lstm1_cont_slice"
  type: "Slice"
  bottom: "cont"
  top: "cont_1"
  slice_param {
    axis: 0
  }
}
layer {
  name: "lstm1_x_transform"
  type: "InnerProduct"
  bottom: "x"
  top: "W_xc_x"
  param {
    name: "W_xc"
  }
  param {
    name: "b_c"
  }
  propagate_down: true
  inner_product_param {
    num_output: 4000
    bias_term: true
    weight_filler {
      type: "uniform"
      min: -0.08
      max: 0.08
    }
    bias_filler {
      type: "constant"
      value: 0
    }
    axis: 2
  }
}
layer {
  name: "lstm1_W_xc_x_slice"
  type: "Slice"
  bottom: "W_xc_x"
  top: "W_xc_x_1"
  slice_param {
    axis: 0
  }
}
layer {
  name: "lstm1_h_conted_0"
  type: "Scale"
  bottom: "h_0"
  bottom: "cont_1"
  top: "h_conted_0"
  scale_param {
    axis: 0
  }
}
layer {
  name: "lstm1_transform_1"
  type: "InnerProduct"
  bottom: "h_conted_0"
  top: "W_hc_h_0"
  param {
    name: "W_hc"
  }
  inner_product_param {
    num_output: 4000
    bias_term: false
    weight_filler {
      type: "uniform"
      min: -0.08
      max: 0.08
    }
    axis: 2
  }
}
layer {
  name: "lstm1_gate_input_1"
  type: "Eltwise"
  bottom: "W_hc_h_0"
  bottom: "W_xc_x_1"
  top: "gate_input_1"
  eltwise_param {
    operation: SUM
  }
}
layer {
  name: "lstm1_unit_1"
  type: "LSTMUnit"
  bottom: "c_0"
  bottom: "gate_input_1"
  bottom: "cont_1"
  top: "c_1"
  top: "h_1"
}
layer {
  name: "lstm1_"
  type: "Split"
  bottom: "c_1"
  top: "c_T"
}
layer {
  name: "lstm1_h_concat"
  type: "Concat"
  bottom: "h_1"
  top: "h"
  concat_param {
    axis: 0
  }
}
layer {
  name: "h_pseudoloss"
  type: "Reduction"
  bottom: "h"
  top: "h_pseudoloss"
  loss_weight: 1
}
I0925 22:44:50.876642  9056 net.cpp:425] lstm1 <- embedded_input_frames
I0925 22:44:50.876651  9018 net.cpp:399] lstm1_ -> c_0
I0925 22:44:50.876657  9056 net.cpp:425] lstm1 <- cont_sentence_input_1_split_0
I0925 22:44:50.876657  9046 net.cpp:141] Setting up lstm1_
I0925 22:44:50.876677  9018 net.cpp:399] lstm1_ -> h_0
I0925 22:44:50.876682  9046 net.cpp:148] Top shape: 1 1 500 (500)
I0925 22:44:50.876694  9046 net.cpp:148] Top shape: 1 1 (1)
I0925 22:44:50.876677  9056 net.cpp:399] lstm1 -> lstm1
I0925 22:44:50.876703  9046 net.cpp:156] Memory required for data: 2004
I0925 22:44:50.876713  9046 layer_factory.hpp:77] Creating layer lstm1_
I0925 22:44:50.876723  9014 layer_factory.hpp:77] Creating layer lstm1_
I0925 22:44:50.876729  9046 net.cpp:91] Creating Layer lstm1_
I0925 22:44:50.876737  9046 net.cpp:399] lstm1_ -> c_0
I0925 22:44:50.876720  9056 recurrent_layer.cpp:20] Initializing recurrent layer: assuming input batch contains 1 timesteps of 1 independent streams.
I0925 22:44:50.876766  9046 net.cpp:399] lstm1_ -> h_0
I0925 22:44:50.876745  9014 net.cpp:91] Creating Layer lstm1_
I0925 22:44:50.876783  9014 net.cpp:399] lstm1_ -> x
I0925 22:44:50.876796  9014 net.cpp:399] lstm1_ -> cont
I0925 22:44:50.877185  9056 net.cpp:49] Initializing net from parameters: 
layer {
  name: "lstm1_"
  type: "Input"
  top: "x"
  top: "cont"
  input_param {
    shape {
      dim: 1
      dim: 1
      dim: 500
    }
    shape {
      dim: 1
      dim: 1
    }
  }
}
layer {
  name: "lstm1_"
  type: "Input"
  top: "c_0"
  top: "h_0"
  input_param {
    shape {
      dim: 1
      dim: 1
      dim: 1000
    }
    shape {
      dim: 1
      dim: 1
      dim: 1000
    }
  }
}
layer {
  name: "lstm1_cont_slice"
  type: "Slice"
  bottom: "cont"
  top: "cont_1"
  slice_param {
    axis: 0
  }
}
layer {
  name: "lstm1_x_transform"
  type: "InnerProduct"
  bottom: "x"
  top: "W_xc_x"
  param {
    name: "W_xc"
  }
  param {
    name: "b_c"
  }
  propagate_down: true
  inner_product_param {
    num_output: 4000
    bias_term: true
    weight_filler {
      type: "uniform"
      min: -0.08
      max: 0.08
    }
    bias_filler {
      type: "constant"
      value: 0
    }
    axis: 2
  }
}
layer {
  name: "lstm1_W_xc_x_slice"
  type: "Slice"
  bottom: "W_xc_x"
  top: "W_xc_x_1"
  slice_param {
    axis: 0
  }
}
layer {
  name: "lstm1_h_conted_0"
  type: "Scale"
  bottom: "h_0"
  bottom: "cont_1"
  top: "h_conted_0"
  scale_param {
    axis: 0
  }
}
layer {
  name: "lstm1_transform_1"
  type: "InnerProduct"
  bottom: "h_conted_0"
  top: "W_hc_h_0"
  param {
    name: "W_hc"
  }
  inner_product_param {
    num_output: 4000
    bias_term: false
    weight_filler {
      type: "uniform"
      min: -0.08
      max: 0.08
    }
    axis: 2
  }
}
layer {
  name: "lstm1_gate_input_1"
  type: "Eltwise"
  bottom: "W_hc_h_0"
  bottom: "W_xc_x_1"
  top: "gate_input_1"
  eltwise_param {
    operation: SUM
  }
}
layer {
  name: "lstm1_unit_1"
  type: "LSTMUnit"
  bottom: "c_0"
  bottom: "gate_input_1"
  bottom: "cont_1"
  top: "c_1"
  top: "h_1"
}
layer {
  name: "lstm1_"
  type: "Split"
  bottom: "c_1"
  top: "c_T"
}
layer {
  name: "lstm1_h_concat"
  type: "Concat"
  bottom: "h_1"
  top: "h"
  concat_param {
    axis: 0
  }
}
layer {
  name: "h_pseudoloss"
  type: "Reduction"
  bottom: "h"
  top: "h_pseudoloss"
  loss_weight: 1
}
I0925 22:44:50.877367  9056 layer_factory.hpp:77] Creating layer lstm1_
I0925 22:44:50.877389  9056 net.cpp:91] Creating Layer lstm1_
I0925 22:44:50.877403  9056 net.cpp:399] lstm1_ -> x
I0925 22:44:50.877423  9056 net.cpp:399] lstm1_ -> cont
I0925 22:44:50.878342  9018 net.cpp:141] Setting up lstm1_
I0925 22:44:50.878367  9018 net.cpp:148] Top shape: 1 1 1000 (1000)
I0925 22:44:50.878378  9018 net.cpp:148] Top shape: 1 1 1000 (1000)
I0925 22:44:50.878386  9018 net.cpp:156] Memory required for data: 10004
I0925 22:44:50.878396  9018 layer_factory.hpp:77] Creating layer lstm1_cont_slice
I0925 22:44:50.878413  9018 net.cpp:91] Creating Layer lstm1_cont_slice
I0925 22:44:50.878423  9018 net.cpp:425] lstm1_cont_slice <- cont
I0925 22:44:50.878437  9018 net.cpp:399] lstm1_cont_slice -> cont_1
I0925 22:44:50.878541  9056 net.cpp:141] Setting up lstm1_
I0925 22:44:50.878561  9056 net.cpp:148] Top shape: 1 1 500 (500)
I0925 22:44:50.878569  9056 net.cpp:148] Top shape: 1 1 (1)
I0925 22:44:50.878573  9056 net.cpp:156] Memory required for data: 2004
I0925 22:44:50.878579  9056 layer_factory.hpp:77] Creating layer lstm1_
I0925 22:44:50.878585  9018 net.cpp:141] Setting up lstm1_cont_slice
I0925 22:44:50.878618  9018 net.cpp:148] Top shape: 1 1 (1)
I0925 22:44:50.878623  9018 net.cpp:156] Memory required for data: 10008
I0925 22:44:50.878629  9018 layer_factory.hpp:77] Creating layer cont_1_lstm1_cont_slice_0_split
I0925 22:44:50.878631  9056 net.cpp:91] Creating Layer lstm1_
I0925 22:44:50.878692  9056 net.cpp:399] lstm1_ -> c_0
I0925 22:44:50.878707  9056 net.cpp:399] lstm1_ -> h_0
I0925 22:44:50.878707  9018 net.cpp:91] Creating Layer cont_1_lstm1_cont_slice_0_split
I0925 22:44:50.878742  9018 net.cpp:425] cont_1_lstm1_cont_slice_0_split <- cont_1
I0925 22:44:50.878729  9014 net.cpp:141] Setting up lstm1_
I0925 22:44:50.878767  9018 net.cpp:399] cont_1_lstm1_cont_slice_0_split -> cont_1_lstm1_cont_slice_0_split_0
I0925 22:44:50.878788  9046 net.cpp:141] Setting up lstm1_
I0925 22:44:50.878792  9018 net.cpp:399] cont_1_lstm1_cont_slice_0_split -> cont_1_lstm1_cont_slice_0_split_1
I0925 22:44:50.878809  9046 net.cpp:148] Top shape: 1 1 1000 (1000)
I0925 22:44:50.878793  9014 net.cpp:148] Top shape: 1 1 500 (500)
I0925 22:44:50.878818  9046 net.cpp:148] Top shape: 1 1 1000 (1000)
I0925 22:44:50.878828  9046 net.cpp:156] Memory required for data: 10004
I0925 22:44:50.878831  9014 net.cpp:148] Top shape: 1 1 (1)
I0925 22:44:50.878835  9046 layer_factory.hpp:77] Creating layer lstm1_cont_slice
I0925 22:44:50.878840  9014 net.cpp:156] Memory required for data: 2004
I0925 22:44:50.878844  9056 net.cpp:141] Setting up lstm1_
I0925 22:44:50.878855  9014 layer_factory.hpp:77] Creating layer lstm1_
I0925 22:44:50.878861  9046 net.cpp:91] Creating Layer lstm1_cont_slice
I0925 22:44:50.878859  9056 net.cpp:148] Top shape: 1 1 1000 (1000)
I0925 22:44:50.878871  9046 net.cpp:425] lstm1_cont_slice <- cont
I0925 22:44:50.878877  9056 net.cpp:148] Top shape: 1 1 1000 (1000)
I0925 22:44:50.878881  9046 net.cpp:399] lstm1_cont_slice -> cont_1
I0925 22:44:50.878882  9056 net.cpp:156] Memory required for data: 10004
I0925 22:44:50.878890  9014 net.cpp:91] Creating Layer lstm1_
I0925 22:44:50.878893  9056 layer_factory.hpp:77] Creating layer lstm1_cont_slice
I0925 22:44:50.878912  9056 net.cpp:91] Creating Layer lstm1_cont_slice
I0925 22:44:50.878918  9056 net.cpp:425] lstm1_cont_slice <- cont
I0925 22:44:50.878916  9014 net.cpp:399] lstm1_ -> c_0
I0925 22:44:50.878932  9056 net.cpp:399] lstm1_cont_slice -> cont_1
I0925 22:44:50.878943  9018 net.cpp:141] Setting up cont_1_lstm1_cont_slice_0_split
I0925 22:44:50.878958  9014 net.cpp:399] lstm1_ -> h_0
I0925 22:44:50.878962  9018 net.cpp:148] Top shape: 1 1 (1)
I0925 22:44:50.878975  9018 net.cpp:148] Top shape: 1 1 (1)
I0925 22:44:50.878975  9046 net.cpp:141] Setting up lstm1_cont_slice
I0925 22:44:50.878989  9018 net.cpp:156] Memory required for data: 10016
I0925 22:44:50.878998  9046 net.cpp:148] Top shape: 1 1 (1)
I0925 22:44:50.878999  9018 layer_factory.hpp:77] Creating layer lstm1_x_transform
I0925 22:44:50.879005  9046 net.cpp:156] Memory required for data: 10008
I0925 22:44:50.879011  9056 net.cpp:141] Setting up lstm1_cont_slice
I0925 22:44:50.879014  9046 layer_factory.hpp:77] Creating layer cont_1_lstm1_cont_slice_0_split
I0925 22:44:50.879024  9056 net.cpp:148] Top shape: 1 1 (1)
I0925 22:44:50.879024  9018 net.cpp:91] Creating Layer lstm1_x_transform
I0925 22:44:50.879027  9046 net.cpp:91] Creating Layer cont_1_lstm1_cont_slice_0_split
I0925 22:44:50.879039  9018 net.cpp:425] lstm1_x_transform <- x
I0925 22:44:50.879045  9046 net.cpp:425] cont_1_lstm1_cont_slice_0_split <- cont_1
I0925 22:44:50.879029  9056 net.cpp:156] Memory required for data: 10008
I0925 22:44:50.879055  9056 layer_factory.hpp:77] Creating layer cont_1_lstm1_cont_slice_0_split
I0925 22:44:50.879062  9056 net.cpp:91] Creating Layer cont_1_lstm1_cont_slice_0_split
I0925 22:44:50.879067  9056 net.cpp:425] cont_1_lstm1_cont_slice_0_split <- cont_1
I0925 22:44:50.879087  9046 net.cpp:399] cont_1_lstm1_cont_slice_0_split -> cont_1_lstm1_cont_slice_0_split_0
I0925 22:44:50.879096  9056 net.cpp:399] cont_1_lstm1_cont_slice_0_split -> cont_1_lstm1_cont_slice_0_split_0
I0925 22:44:50.879102  9046 net.cpp:399] cont_1_lstm1_cont_slice_0_split -> cont_1_lstm1_cont_slice_0_split_1
I0925 22:44:50.879089  9018 net.cpp:399] lstm1_x_transform -> W_xc_x
I0925 22:44:50.879113  9056 net.cpp:399] cont_1_lstm1_cont_slice_0_split -> cont_1_lstm1_cont_slice_0_split_1
I0925 22:44:50.879118  9014 net.cpp:141] Setting up lstm1_
I0925 22:44:50.879138  9014 net.cpp:148] Top shape: 1 1 1000 (1000)
I0925 22:44:50.879149  9014 net.cpp:148] Top shape: 1 1 1000 (1000)
I0925 22:44:50.879156  9014 net.cpp:156] Memory required for data: 10004
I0925 22:44:50.879165  9014 layer_factory.hpp:77] Creating layer lstm1_cont_slice
I0925 22:44:50.879181  9014 net.cpp:91] Creating Layer lstm1_cont_slice
I0925 22:44:50.879190  9014 net.cpp:425] lstm1_cont_slice <- cont
I0925 22:44:50.879195  9046 net.cpp:141] Setting up cont_1_lstm1_cont_slice_0_split
I0925 22:44:50.879204  9014 net.cpp:399] lstm1_cont_slice -> cont_1
I0925 22:44:50.879209  9046 net.cpp:148] Top shape: 1 1 (1)
I0925 22:44:50.879216  9046 net.cpp:148] Top shape: 1 1 (1)
I0925 22:44:50.879220  9046 net.cpp:156] Memory required for data: 10016
I0925 22:44:50.879225  9046 layer_factory.hpp:77] Creating layer lstm1_x_transform
I0925 22:44:50.879250  9046 net.cpp:91] Creating Layer lstm1_x_transform
I0925 22:44:50.879258  9046 net.cpp:425] lstm1_x_transform <- x
I0925 22:44:50.879273  9046 net.cpp:399] lstm1_x_transform -> W_xc_x
I0925 22:44:50.884300  9014 net.cpp:141] Setting up lstm1_cont_slice
I0925 22:44:50.884388  9014 net.cpp:148] Top shape: 1 1 (1)
I0925 22:44:50.884397  9014 net.cpp:156] Memory required for data: 10008
I0925 22:44:50.884416  9014 layer_factory.hpp:77] Creating layer cont_1_lstm1_cont_slice_0_split
I0925 22:44:50.884462  9014 net.cpp:91] Creating Layer cont_1_lstm1_cont_slice_0_split
I0925 22:44:50.884481  9014 net.cpp:425] cont_1_lstm1_cont_slice_0_split <- cont_1
I0925 22:44:50.884454  9056 net.cpp:141] Setting up cont_1_lstm1_cont_slice_0_split
I0925 22:44:50.884512  9014 net.cpp:399] cont_1_lstm1_cont_slice_0_split -> cont_1_lstm1_cont_slice_0_split_0
I0925 22:44:50.884531  9056 net.cpp:148] Top shape: 1 1 (1)
I0925 22:44:50.884546  9014 net.cpp:399] cont_1_lstm1_cont_slice_0_split -> cont_1_lstm1_cont_slice_0_split_1
I0925 22:44:50.884552  9056 net.cpp:148] Top shape: 1 1 (1)
I0925 22:44:50.884562  9056 net.cpp:156] Memory required for data: 10016
I0925 22:44:50.884578  9056 layer_factory.hpp:77] Creating layer lstm1_x_transform
I0925 22:44:50.884625  9056 net.cpp:91] Creating Layer lstm1_x_transform
I0925 22:44:50.884642  9056 net.cpp:425] lstm1_x_transform <- x
I0925 22:44:50.884673  9056 net.cpp:399] lstm1_x_transform -> W_xc_x
I0925 22:44:50.884703  9014 net.cpp:141] Setting up cont_1_lstm1_cont_slice_0_split
I0925 22:44:50.884727  9014 net.cpp:148] Top shape: 1 1 (1)
I0925 22:44:50.884742  9014 net.cpp:148] Top shape: 1 1 (1)
I0925 22:44:50.884750  9014 net.cpp:156] Memory required for data: 10016
I0925 22:44:50.884762  9014 layer_factory.hpp:77] Creating layer lstm1_x_transform
I0925 22:44:50.884794  9014 net.cpp:91] Creating Layer lstm1_x_transform
I0925 22:44:50.884807  9014 net.cpp:425] lstm1_x_transform <- x
I0925 22:44:50.884832  9014 net.cpp:399] lstm1_x_transform -> W_xc_x
I0925 22:44:50.910120  9018 net.cpp:141] Setting up lstm1_x_transform
I0925 22:44:50.910171  9018 net.cpp:148] Top shape: 1 1 4000 (4000)
I0925 22:44:50.910181  9018 net.cpp:156] Memory required for data: 26016
I0925 22:44:50.910212  9018 layer_factory.hpp:77] Creating layer lstm1_W_xc_x_slice
I0925 22:44:50.910235  9018 net.cpp:91] Creating Layer lstm1_W_xc_x_slice
I0925 22:44:50.910246  9018 net.cpp:425] lstm1_W_xc_x_slice <- W_xc_x
I0925 22:44:50.910269  9018 net.cpp:399] lstm1_W_xc_x_slice -> W_xc_x_1
I0925 22:44:50.910336  9018 net.cpp:141] Setting up lstm1_W_xc_x_slice
I0925 22:44:50.910352  9018 net.cpp:148] Top shape: 1 1 4000 (4000)
I0925 22:44:50.910362  9018 net.cpp:156] Memory required for data: 42016
I0925 22:44:50.910370  9018 layer_factory.hpp:77] Creating layer lstm1_h_conted_0
I0925 22:44:50.910396  9018 net.cpp:91] Creating Layer lstm1_h_conted_0
I0925 22:44:50.910408  9018 net.cpp:425] lstm1_h_conted_0 <- h_0
I0925 22:44:50.910414  9018 net.cpp:425] lstm1_h_conted_0 <- cont_1_lstm1_cont_slice_0_split_0
I0925 22:44:50.910423  9018 net.cpp:399] lstm1_h_conted_0 -> h_conted_0
I0925 22:44:50.910692  9018 net.cpp:141] Setting up lstm1_h_conted_0
I0925 22:44:50.910706  9018 net.cpp:148] Top shape: 1 1 1000 (1000)
I0925 22:44:50.910711  9018 net.cpp:156] Memory required for data: 46016
I0925 22:44:50.910717  9018 layer_factory.hpp:77] Creating layer lstm1_transform_1
I0925 22:44:50.910735  9018 net.cpp:91] Creating Layer lstm1_transform_1
I0925 22:44:50.910745  9018 net.cpp:425] lstm1_transform_1 <- h_conted_0
I0925 22:44:50.910768  9018 net.cpp:399] lstm1_transform_1 -> W_hc_h_0
I0925 22:44:50.910773  9056 net.cpp:141] Setting up lstm1_x_transform
I0925 22:44:50.910794  9056 net.cpp:148] Top shape: 1 1 4000 (4000)
I0925 22:44:50.910802  9056 net.cpp:156] Memory required for data: 26016
I0925 22:44:50.910821  9056 layer_factory.hpp:77] Creating layer lstm1_W_xc_x_slice
I0925 22:44:50.910835  9056 net.cpp:91] Creating Layer lstm1_W_xc_x_slice
I0925 22:44:50.910845  9056 net.cpp:425] lstm1_W_xc_x_slice <- W_xc_x
I0925 22:44:50.910856  9056 net.cpp:399] lstm1_W_xc_x_slice -> W_xc_x_1
I0925 22:44:50.918987  9056 net.cpp:141] Setting up lstm1_W_xc_x_slice
I0925 22:44:50.919037  9056 net.cpp:148] Top shape: 1 1 4000 (4000)
I0925 22:44:50.919046  9056 net.cpp:156] Memory required for data: 42016
I0925 22:44:50.919059  9056 layer_factory.hpp:77] Creating layer lstm1_h_conted_0
I0925 22:44:50.919085  9056 net.cpp:91] Creating Layer lstm1_h_conted_0
I0925 22:44:50.919095  9056 net.cpp:425] lstm1_h_conted_0 <- h_0
I0925 22:44:50.919109  9056 net.cpp:425] lstm1_h_conted_0 <- cont_1_lstm1_cont_slice_0_split_0
I0925 22:44:50.919123  9056 net.cpp:399] lstm1_h_conted_0 -> h_conted_0
I0925 22:44:50.920507  9056 net.cpp:141] Setting up lstm1_h_conted_0
I0925 22:44:50.920547  9056 net.cpp:148] Top shape: 1 1 1000 (1000)
I0925 22:44:50.920557  9056 net.cpp:156] Memory required for data: 46016
I0925 22:44:50.920567  9056 layer_factory.hpp:77] Creating layer lstm1_transform_1
I0925 22:44:50.920590  9056 net.cpp:91] Creating Layer lstm1_transform_1
I0925 22:44:50.920601  9056 net.cpp:425] lstm1_transform_1 <- h_conted_0
I0925 22:44:50.920621  9056 net.cpp:399] lstm1_transform_1 -> W_hc_h_0
I0925 22:44:50.935161  9046 net.cpp:141] Setting up lstm1_x_transform
I0925 22:44:50.935210  9046 net.cpp:148] Top shape: 1 1 4000 (4000)
I0925 22:44:50.935220  9046 net.cpp:156] Memory required for data: 26016
I0925 22:44:50.935246  9046 layer_factory.hpp:77] Creating layer lstm1_W_xc_x_slice
I0925 22:44:50.935322  9046 net.cpp:91] Creating Layer lstm1_W_xc_x_slice
I0925 22:44:50.935334  9046 net.cpp:425] lstm1_W_xc_x_slice <- W_xc_x
I0925 22:44:50.935348  9046 net.cpp:399] lstm1_W_xc_x_slice -> W_xc_x_1
I0925 22:44:50.935410  9046 net.cpp:141] Setting up lstm1_W_xc_x_slice
I0925 22:44:50.935425  9046 net.cpp:148] Top shape: 1 1 4000 (4000)
I0925 22:44:50.935432  9046 net.cpp:156] Memory required for data: 42016
I0925 22:44:50.935441  9046 layer_factory.hpp:77] Creating layer lstm1_h_conted_0
I0925 22:44:50.935484  9046 net.cpp:91] Creating Layer lstm1_h_conted_0
I0925 22:44:50.935494  9046 net.cpp:425] lstm1_h_conted_0 <- h_0
I0925 22:44:50.935504  9046 net.cpp:425] lstm1_h_conted_0 <- cont_1_lstm1_cont_slice_0_split_0
I0925 22:44:50.935516  9046 net.cpp:399] lstm1_h_conted_0 -> h_conted_0
I0925 22:44:50.935675  9046 net.cpp:141] Setting up lstm1_h_conted_0
I0925 22:44:50.935693  9046 net.cpp:148] Top shape: 1 1 1000 (1000)
I0925 22:44:50.935699  9046 net.cpp:156] Memory required for data: 46016
I0925 22:44:50.935708  9046 layer_factory.hpp:77] Creating layer lstm1_transform_1
I0925 22:44:50.935731  9046 net.cpp:91] Creating Layer lstm1_transform_1
I0925 22:44:50.935740  9046 net.cpp:425] lstm1_transform_1 <- h_conted_0
I0925 22:44:50.935755  9046 net.cpp:399] lstm1_transform_1 -> W_hc_h_0
I0925 22:44:50.946445  9008 net.cpp:141] Setting up embedding
I0925 22:44:50.946501  9008 net.cpp:148] Top shape: 1 1 500 (500)
I0925 22:44:50.946511  9008 net.cpp:156] Memory required for data: 22408
I0925 22:44:50.946539  9008 layer_factory.hpp:77] Creating layer lstm1
I0925 22:44:50.946569  9008 net.cpp:91] Creating Layer lstm1
I0925 22:44:50.946580  9008 net.cpp:425] lstm1 <- embedded_input_frames
I0925 22:44:50.946593  9008 net.cpp:425] lstm1 <- cont_sentence_input_1_split_0
I0925 22:44:50.946656  9008 net.cpp:399] lstm1 -> lstm1
I0925 22:44:50.946681  9008 recurrent_layer.cpp:20] Initializing recurrent layer: assuming input batch contains 1 timesteps of 1 independent streams.
I0925 22:44:50.946725  9014 net.cpp:141] Setting up lstm1_x_transform
I0925 22:44:50.946748  9014 net.cpp:148] Top shape: 1 1 4000 (4000)
I0925 22:44:50.946756  9014 net.cpp:156] Memory required for data: 26016
I0925 22:44:50.946776  9014 layer_factory.hpp:77] Creating layer lstm1_W_xc_x_slice
I0925 22:44:50.946791  9014 net.cpp:91] Creating Layer lstm1_W_xc_x_slice
I0925 22:44:50.946800  9014 net.cpp:425] lstm1_W_xc_x_slice <- W_xc_x
I0925 22:44:50.946817  9014 net.cpp:399] lstm1_W_xc_x_slice -> W_xc_x_1
I0925 22:44:50.946879  9014 net.cpp:141] Setting up lstm1_W_xc_x_slice
I0925 22:44:50.946894  9014 net.cpp:148] Top shape: 1 1 4000 (4000)
I0925 22:44:50.946902  9014 net.cpp:156] Memory required for data: 42016
I0925 22:44:50.946909  9014 layer_factory.hpp:77] Creating layer lstm1_h_conted_0
I0925 22:44:50.946925  9014 net.cpp:91] Creating Layer lstm1_h_conted_0
I0925 22:44:50.946933  9014 net.cpp:425] lstm1_h_conted_0 <- h_0
I0925 22:44:50.946944  9014 net.cpp:425] lstm1_h_conted_0 <- cont_1_lstm1_cont_slice_0_split_0
I0925 22:44:50.946959  9014 net.cpp:399] lstm1_h_conted_0 -> h_conted_0
I0925 22:44:50.947131  9008 net.cpp:49] Initializing net from parameters: 
layer {
  name: "lstm1_"
  type: "Input"
  top: "x"
  top: "cont"
  input_param {
    shape {
      dim: 1
      dim: 1
      dim: 500
    }
    shape {
      dim: 1
      dim: 1
    }
  }
}
layer {
  name: "lstm1_"
  type: "Input"
  top: "c_0"
  top: "h_0"
  input_param {
    shape {
      dim: 1
      dim: 1
      dim: 1000
    }
    shape {
      dim: 1
      dim: 1
      dim: 1000
    }
  }
}
layer {
  name: "lstm1_cont_slice"
  type: "Slice"
  bottom: "cont"
  top: "cont_1"
  slice_param {
    axis: 0
  }
}
layer {
  name: "lstm1_x_transform"
  type: "InnerProduct"
  bottom: "x"
  top: "W_xc_x"
  param {
    name: "W_xc"
  }
  param {
    name: "b_c"
  }
  propagate_down: true
  inner_product_param {
    num_output: 4000
    bias_term: true
    weight_filler {
      type: "uniform"
      min: -0.08
      max: 0.08
    }
    bias_filler {
      type: "constant"
      value: 0
    }
    axis: 2
  }
}
layer {
  name: "lstm1_W_xc_x_slice"
  type: "Slice"
  bottom: "W_xc_x"
  top: "W_xc_x_1"
  slice_param {
    axis: 0
  }
}
layer {
  name: "lstm1_h_conted_0"
  type: "Scale"
  bottom: "h_0"
  bottom: "cont_1"
  top: "h_conted_0"
  scale_param {
    axis: 0
  }
}
layer {
  name: "lstm1_transform_1"
  type: "InnerProduct"
  bottom: "h_conted_0"
  top: "W_hc_h_0"
  param {
    name: "W_hc"
  }
  inner_product_param {
    num_output: 4000
    bias_term: false
    weight_filler {
      type: "uniform"
      min: -0.08
      max: 0.08
    }
    axis: 2
  }
}
layer {
  name: "lstm1_gate_input_1"
  type: "Eltwise"
  bottom: "W_hc_h_0"
  bottom: "W_xc_x_1"
  top: "gate_input_1"
  eltwise_param {
    operation: SUM
  }
}
layer {
  name: "lstm1_unit_1"
  type: "LSTMUnit"
  bottom: "c_0"
  bottom: "gate_input_1"
  bottom: "cont_1"
  top: "c_1"
  top: "h_1"
}
layer {
  name: "lstm1_"
  type: "Split"
  bottom: "c_1"
  top: "c_T"
}
layer {
  name: "lstm1_h_concat"
  type: "Concat"
  bottom: "h_1"
  top: "h"
  concat_param {
    axis: 0
  }
}
layer {
  name: "h_pseudoloss"
  type: "Reduction"
  bottom: "h"
  top: "h_pseudoloss"
  loss_weight: 1
}
I0925 22:44:50.947305  9008 layer_factory.hpp:77] Creating layer lstm1_
I0925 22:44:50.947324  9008 net.cpp:91] Creating Layer lstm1_
I0925 22:44:50.947335  9008 net.cpp:399] lstm1_ -> x
I0925 22:44:50.947352  9008 net.cpp:399] lstm1_ -> cont
I0925 22:44:50.948371  9008 net.cpp:141] Setting up lstm1_
I0925 22:44:50.948390  9008 net.cpp:148] Top shape: 1 1 500 (500)
I0925 22:44:50.948400  9008 net.cpp:148] Top shape: 1 1 (1)
I0925 22:44:50.948405  9008 net.cpp:156] Memory required for data: 2004
I0925 22:44:50.948413  9008 layer_factory.hpp:77] Creating layer lstm1_
I0925 22:44:50.948431  9008 net.cpp:91] Creating Layer lstm1_
I0925 22:44:50.948442  9008 net.cpp:399] lstm1_ -> c_0
I0925 22:44:50.948459  9008 net.cpp:399] lstm1_ -> h_0
I0925 22:44:50.948549  9014 net.cpp:141] Setting up lstm1_h_conted_0
I0925 22:44:50.948570  9014 net.cpp:148] Top shape: 1 1 1000 (1000)
I0925 22:44:50.948577  9014 net.cpp:156] Memory required for data: 46016
I0925 22:44:50.948586  9014 layer_factory.hpp:77] Creating layer lstm1_transform_1
I0925 22:44:50.948604  9014 net.cpp:91] Creating Layer lstm1_transform_1
I0925 22:44:50.948614  9014 net.cpp:425] lstm1_transform_1 <- h_conted_0
I0925 22:44:50.948616  9008 net.cpp:141] Setting up lstm1_
I0925 22:44:50.948631  9008 net.cpp:148] Top shape: 1 1 1000 (1000)
I0925 22:44:50.948632  9014 net.cpp:399] lstm1_transform_1 -> W_hc_h_0
I0925 22:44:50.948640  9008 net.cpp:148] Top shape: 1 1 1000 (1000)
I0925 22:44:50.948647  9008 net.cpp:156] Memory required for data: 10004
I0925 22:44:50.948654  9008 layer_factory.hpp:77] Creating layer lstm1_cont_slice
I0925 22:44:50.948667  9008 net.cpp:91] Creating Layer lstm1_cont_slice
I0925 22:44:50.948674  9008 net.cpp:425] lstm1_cont_slice <- cont
I0925 22:44:50.948688  9008 net.cpp:399] lstm1_cont_slice -> cont_1
I0925 22:44:50.967823  9018 net.cpp:141] Setting up lstm1_transform_1
I0925 22:44:50.967872  9018 net.cpp:148] Top shape: 1 1 4000 (4000)
I0925 22:44:50.967878  9018 net.cpp:156] Memory required for data: 62016
I0925 22:44:50.967900  9018 layer_factory.hpp:77] Creating layer lstm1_gate_input_1
I0925 22:44:50.967929  9018 net.cpp:91] Creating Layer lstm1_gate_input_1
I0925 22:44:50.967936  9018 net.cpp:425] lstm1_gate_input_1 <- W_hc_h_0
I0925 22:44:50.967944  9018 net.cpp:425] lstm1_gate_input_1 <- W_xc_x_1
I0925 22:44:50.967953  9018 net.cpp:399] lstm1_gate_input_1 -> gate_input_1
I0925 22:44:50.967978  9008 net.cpp:141] Setting up lstm1_cont_slice
I0925 22:44:50.968021  9008 net.cpp:148] Top shape: 1 1 (1)
I0925 22:44:50.968029  9008 net.cpp:156] Memory required for data: 10008
I0925 22:44:50.968039  9008 layer_factory.hpp:77] Creating layer cont_1_lstm1_cont_slice_0_split
I0925 22:44:50.968056  9008 net.cpp:91] Creating Layer cont_1_lstm1_cont_slice_0_split
I0925 22:44:50.968066  9008 net.cpp:425] cont_1_lstm1_cont_slice_0_split <- cont_1
I0925 22:44:50.968080  9008 net.cpp:399] cont_1_lstm1_cont_slice_0_split -> cont_1_lstm1_cont_slice_0_split_0
I0925 22:44:50.968096  9008 net.cpp:399] cont_1_lstm1_cont_slice_0_split -> cont_1_lstm1_cont_slice_0_split_1
I0925 22:44:50.975749  9018 net.cpp:141] Setting up lstm1_gate_input_1
I0925 22:44:50.975783  9018 net.cpp:148] Top shape: 1 1 4000 (4000)
I0925 22:44:50.975788  9018 net.cpp:156] Memory required for data: 78016
I0925 22:44:50.975795  9018 layer_factory.hpp:77] Creating layer lstm1_unit_1
I0925 22:44:50.975819  9018 net.cpp:91] Creating Layer lstm1_unit_1
I0925 22:44:50.975826  9018 net.cpp:425] lstm1_unit_1 <- c_0
I0925 22:44:50.975833  9018 net.cpp:425] lstm1_unit_1 <- gate_input_1
I0925 22:44:50.975838  9018 net.cpp:425] lstm1_unit_1 <- cont_1_lstm1_cont_slice_0_split_1
I0925 22:44:50.975868  9018 net.cpp:399] lstm1_unit_1 -> c_1
I0925 22:44:50.975881  9018 net.cpp:399] lstm1_unit_1 -> h_1
I0925 22:44:50.975888  9056 net.cpp:141] Setting up lstm1_transform_1
I0925 22:44:50.975908  9056 net.cpp:148] Top shape: 1 1 4000 (4000)
I0925 22:44:50.975914  9056 net.cpp:156] Memory required for data: 62016
I0925 22:44:50.975929  9056 layer_factory.hpp:77] Creating layer lstm1_gate_input_1
I0925 22:44:50.975940  9056 net.cpp:91] Creating Layer lstm1_gate_input_1
I0925 22:44:50.975947  9056 net.cpp:425] lstm1_gate_input_1 <- W_hc_h_0
I0925 22:44:50.975953  9056 net.cpp:425] lstm1_gate_input_1 <- W_xc_x_1
I0925 22:44:50.975966  9056 net.cpp:399] lstm1_gate_input_1 -> gate_input_1
I0925 22:44:50.975961  9008 net.cpp:141] Setting up cont_1_lstm1_cont_slice_0_split
I0925 22:44:50.976001  9008 net.cpp:148] Top shape: 1 1 (1)
I0925 22:44:50.976011  9008 net.cpp:148] Top shape: 1 1 (1)
I0925 22:44:50.976017  9008 net.cpp:156] Memory required for data: 10016
I0925 22:44:50.976028  9008 layer_factory.hpp:77] Creating layer lstm1_x_transform
I0925 22:44:50.976050  9018 net.cpp:141] Setting up lstm1_unit_1
I0925 22:44:50.976059  9008 net.cpp:91] Creating Layer lstm1_x_transform
I0925 22:44:50.976063  9018 net.cpp:148] Top shape: 1 1 1000 (1000)
I0925 22:44:50.976070  9018 net.cpp:148] Top shape: 1 1 1000 (1000)
I0925 22:44:50.976071  9008 net.cpp:425] lstm1_x_transform <- x
I0925 22:44:50.976075  9018 net.cpp:156] Memory required for data: 86016
I0925 22:44:50.976080  9018 layer_factory.hpp:77] Creating layer lstm1_
I0925 22:44:50.976081  9056 net.cpp:141] Setting up lstm1_gate_input_1
I0925 22:44:50.976089  9018 net.cpp:91] Creating Layer lstm1_
I0925 22:44:50.976094  9056 net.cpp:148] Top shape: 1 1 4000 (4000)
I0925 22:44:50.976099  9056 net.cpp:156] Memory required for data: 78016
I0925 22:44:50.976104  9056 layer_factory.hpp:77] Creating layer lstm1_unit_1
I0925 22:44:50.976106  9018 net.cpp:425] lstm1_ <- c_1
I0925 22:44:50.976089  9008 net.cpp:399] lstm1_x_transform -> W_xc_x
I0925 22:44:50.976112  9056 net.cpp:91] Creating Layer lstm1_unit_1
I0925 22:44:50.976114  9018 net.cpp:399] lstm1_ -> c_T
I0925 22:44:50.976119  9056 net.cpp:425] lstm1_unit_1 <- c_0
I0925 22:44:50.976125  9056 net.cpp:425] lstm1_unit_1 <- gate_input_1
I0925 22:44:50.976130  9056 net.cpp:425] lstm1_unit_1 <- cont_1_lstm1_cont_slice_0_split_1
I0925 22:44:50.976136  9056 net.cpp:399] lstm1_unit_1 -> c_1
I0925 22:44:50.976148  9056 net.cpp:399] lstm1_unit_1 -> h_1
I0925 22:44:50.976158  9018 net.cpp:141] Setting up lstm1_
I0925 22:44:50.976167  9018 net.cpp:148] Top shape: 1 1 1000 (1000)
I0925 22:44:50.976172  9018 net.cpp:156] Memory required for data: 90016
I0925 22:44:50.976177  9018 layer_factory.hpp:77] Creating layer lstm1_h_concat
I0925 22:44:50.976188  9018 net.cpp:91] Creating Layer lstm1_h_concat
I0925 22:44:50.976193  9018 net.cpp:425] lstm1_h_concat <- h_1
I0925 22:44:50.976200  9018 net.cpp:399] lstm1_h_concat -> h
I0925 22:44:50.976225  9056 net.cpp:141] Setting up lstm1_unit_1
I0925 22:44:50.976235  9056 net.cpp:148] Top shape: 1 1 1000 (1000)
I0925 22:44:50.976241  9056 net.cpp:148] Top shape: 1 1 1000 (1000)
I0925 22:44:50.976245  9056 net.cpp:156] Memory required for data: 86016
I0925 22:44:50.976249  9056 layer_factory.hpp:77] Creating layer lstm1_
I0925 22:44:50.976249  9018 net.cpp:141] Setting up lstm1_h_concat
I0925 22:44:50.976258  9056 net.cpp:91] Creating Layer lstm1_
I0925 22:44:50.976259  9018 net.cpp:148] Top shape: 1 1 1000 (1000)
I0925 22:44:50.976272  9056 net.cpp:425] lstm1_ <- c_1
I0925 22:44:50.976276  9018 net.cpp:156] Memory required for data: 94016
I0925 22:44:50.976279  9056 net.cpp:399] lstm1_ -> c_T
I0925 22:44:50.976281  9018 layer_factory.hpp:77] Creating layer h_pseudoloss
I0925 22:44:50.976301  9018 net.cpp:91] Creating Layer h_pseudoloss
I0925 22:44:50.976307  9018 net.cpp:425] h_pseudoloss <- h
I0925 22:44:50.976315  9018 net.cpp:399] h_pseudoloss -> h_pseudoloss
I0925 22:44:50.977239  9056 net.cpp:141] Setting up lstm1_
I0925 22:44:50.977259  9056 net.cpp:148] Top shape: 1 1 1000 (1000)
I0925 22:44:50.977268  9056 net.cpp:156] Memory required for data: 90016
I0925 22:44:50.977278  9056 layer_factory.hpp:77] Creating layer lstm1_h_concat
I0925 22:44:50.977291  9056 net.cpp:91] Creating Layer lstm1_h_concat
I0925 22:44:50.977303  9056 net.cpp:425] lstm1_h_concat <- h_1
I0925 22:44:50.977319  9056 net.cpp:399] lstm1_h_concat -> h
I0925 22:44:50.990336  9056 net.cpp:141] Setting up lstm1_h_concat
I0925 22:44:50.990397  9056 net.cpp:148] Top shape: 1 1 1000 (1000)
I0925 22:44:50.990406  9056 net.cpp:156] Memory required for data: 94016
I0925 22:44:50.990418  9056 layer_factory.hpp:77] Creating layer h_pseudoloss
I0925 22:44:50.990449  9056 net.cpp:91] Creating Layer h_pseudoloss
I0925 22:44:50.990459  9056 net.cpp:425] h_pseudoloss <- h
I0925 22:44:50.990476  9056 net.cpp:399] h_pseudoloss -> h_pseudoloss
I0925 22:44:50.990627  9056 net.cpp:141] Setting up h_pseudoloss
…
I0925 22:44:50.990845  9056 net.cpp:219] lstm1_ does not need backward computation.
I0925 22:44:50.990850  9056 net.cpp:261] This network produces output c_T
I0925 22:44:50.990859  9056 net.cpp:261] This network produces output h_pseudoloss
I0925 22:44:50.990887  9056 net.cpp:274] Network initialization done.
I0925 22:44:50.990973  9056 recurrent_layer.cpp:150] Adding parameter 0: W_xc
I0925 22:44:50.990983  9056 recurrent_layer.cpp:150] Adding parameter 1: b_c
I0925 22:44:50.990990  9056 recurrent_layer.cpp:150] Adding parameter 2: W_hc
I0925 22:44:50.991149  9056 net.cpp:141] Setting up lstm1
I0925 22:44:50.991164  9056 net.cpp:148] Top shape: 1 1 1000 (1000)
I0925 22:44:50.991171  9056 net.cpp:156] Memory required for data: 26408
I0925 22:44:50.991195  9056 layer_factory.hpp:77] Creating layer concat
I0925 22:44:50.991210  9056 net.cpp:91] Creating Layer concat
I0925 22:44:50.991219  9056 net.cpp:425] concat <- lstm1
I0925 22:44:50.991227  9056 net.cpp:425] concat <- embedded_input_sentence
I0925 22:44:50.991235  9056 net.cpp:425] concat <- reshaped_stage_indicator
I0925 22:44:50.991245  9056 net.cpp:399] concat -> lstm1_video_sequence
I0925 22:44:50.991289  9056 net.cpp:141] Setting up concat
I0925 22:44:50.991302  9056 net.cpp:148] Top shape: 1 1 1501 (1501)
I0925 22:44:50.991308  9056 net.cpp:156] Memory required for data: 32412
I0925 22:44:50.991315  9056 layer_factory.hpp:77] Creating layer lstm2
I0925 22:44:50.991334  9056 net.cpp:91] Creating Layer lstm2
I0925 22:44:50.991341  9056 net.cpp:425] lstm2 <- lstm1_video_sequence
I0925 22:44:50.991350  9056 net.cpp:425] lstm2 <- cont_sentence_input_1_split_1
I0925 22:44:50.991360  9056 net.cpp:399] lstm2 -> lstm2
I0925 22:44:50.991375  9056 recurrent_layer.cpp:20] Initializing recurrent layer: assuming input batch contains 1 timesteps of 1 independent streams.
I0925 22:44:50.991725  9056 net.cpp:49] Initializing net from parameters: 
layer {
  name: "lstm2_"
  type: "Input"
  top: "x"
  top: "cont"
  input_param {
    shape {
      dim: 1
      dim: 1
      dim: 1501
    }
    shape {
      dim: 1
      dim: 1
    }
  }
}
layer {
  name: "lstm2_"
  type: "Input"
  top: "c_0"
  top: "h_0"
  input_param {
    shape {
      dim: 1
      dim: 1
      dim: 1000
    }
    shape {
      dim: 1
      dim: 1
      dim: 1000
    }
  }
}
layer {
  name: "lstm2_cont_slice"
  type: "Slice"
  bottom: "cont"
  top: "cont_1"
  slice_param {
    axis: 0
  }
}
layer {
  name: "lstm2_x_transform"
  type: "InnerProduct"
  bottom: "x"
  top: "W_xc_x"
  param {
    name: "W_xc"
  }
  param {
    name: "b_c"
  }
  propagate_down: true
  inner_product_param {
    num_output: 4000
    bias_term: true
    weight_filler {
      type: "uniform"
      min: -0.08
      max: 0.08
    }
    bias_filler {
      type: "constant"
      value: 0
    }
    axis: 2
  }
}
layer {
  name: "lstm2_W_xc_x_slice"
  type: "Slice"
  bottom: "W_xc_x"
  top: "W_xc_x_1"
  slice_param {
    axis: 0
  }
}
layer {
  name: "lstm2_h_conted_0"
  type: "Scale"
  bottom: "h_0"
  bottom: "cont_1"
  top: "h_conted_0"
  scale_param {
    axis: 0
  }
}
layer {
  name: "lstm2_transform_1"
  type: "InnerProduct"
  bottom: "h_conted_0"
  top: "W_hc_h_0"
  param {
    name: "W_hc"
  }
  inner_product_param {
    num_output: 4000
    bias_term: false
    weight_filler {
      type: "uniform"
      min: -0.08
      max: 0.08
    }
    axis: 2
  }
}
layer {
  name: "lstm2_gate_input_1"
  type: "Eltwise"
  bottom: "W_hc_h_0"
  bottom: "W_xc_x_1"
  top: "gate_input_1"
  eltwise_param {
    operation: SUM
  }
}
layer {
  name: "lstm2_unit_1"
  type: "LSTMUnit"
  bottom: "c_0"
  bottom: "gate_input_1"
  bottom: "cont_1"
  top: "c_1"
  top: "h_1"
}
layer {
  name: "lstm2_"
  type: "Split"
  bottom: "c_1"
  top: "c_T"
}
layer {
  name: "lstm2_h_concat"
  type: "Concat"
  bottom: "h_1"
  top: "h"
  concat_param {
    axis: 0
  }
}
layer {
  name: "h_pseudoloss"
  type: "Reduction"
  bottom: "h"
  top: "h_pseudoloss"
  loss_weight: 1
}
I0925 22:44:50.991849  9056 layer_factory.hpp:77] Creating layer lstm2_
I0925 22:44:50.991864  9056 net.cpp:91] Creating Layer lstm2_
I0925 22:44:50.991874  9056 net.cpp:399] lstm2_ -> x
I0925 22:44:50.991889  9056 net.cpp:399] lstm2_ -> cont
I0925 22:44:50.991957  9056 net.cpp:141] Setting up lstm2_
I0925 22:44:50.991971  9056 net.cpp:148] Top shape: 1 1 1501 (1501)
I0925 22:44:50.991979  9056 net.cpp:148] Top shape: 1 1 (1)
I0925 22:44:50.991986  9056 net.cpp:156] Memory required for data: 6008
I0925 22:44:50.991992  9056 layer_factory.hpp:77] Creating layer lstm2_
I0925 22:44:50.992005  9056 net.cpp:91] Creating Layer lstm2_
I0925 22:44:50.992018  9056 net.cpp:399] lstm2_ -> c_0
I0925 22:44:50.992033  9056 net.cpp:399] lstm2_ -> h_0
I0925 22:44:50.992099  9056 net.cpp:141] Setting up lstm2_
I0925 22:44:50.992110  9056 net.cpp:148] Top shape: 1 1 1000 (1000)
I0925 22:44:50.992120  9056 net.cpp:148] Top shape: 1 1 1000 (1000)
I0925 22:44:50.992126  9056 net.cpp:156] Memory required for data: 14008
I0925 22:44:50.992132  9056 layer_factory.hpp:77] Creating layer lstm2_cont_slice
I0925 22:44:50.992151  9056 net.cpp:91] Creating Layer lstm2_cont_slice
I0925 22:44:50.992158  9056 net.cpp:425] lstm2_cont_slice <- cont
I0925 22:44:50.992168  9056 net.cpp:399] lstm2_cont_slice -> cont_1
I0925 22:44:50.992209  9056 net.cpp:141] Setting up lstm2_cont_slice
I0925 22:44:50.992221  9056 net.cpp:148] Top shape: 1 1 (1)
I0925 22:44:50.992228  9056 net.cpp:156] Memory required for data: 14012
I0925 22:44:50.992234  9056 layer_factory.hpp:77] Creating layer cont_1_lstm2_cont_slice_0_split
I0925 22:44:50.992245  9056 net.cpp:91] Creating Layer cont_1_lstm2_cont_slice_0_split
I0925 22:44:50.992252  9056 net.cpp:425] cont_1_lstm2_cont_slice_0_split <- cont_1
I0925 22:44:50.992265  9056 net.cpp:399] cont_1_lstm2_cont_slice_0_split -> cont_1_lstm2_cont_slice_0_split_0
I0925 22:44:50.992277  9056 net.cpp:399] cont_1_lstm2_cont_slice_0_split -> cont_1_lstm2_cont_slice_0_split_1
I0925 22:44:50.992344  9056 net.cpp:141] Setting up cont_1_lstm2_cont_slice_0_split
I0925 22:44:50.992357  9056 net.cpp:148] Top shape: 1 1 (1)
I0925 22:44:50.992365  9056 net.cpp:148] Top shape: 1 1 (1)
I0925 22:44:50.992372  9056 net.cpp:156] Memory required for data: 14020
I0925 22:44:50.992378  9056 layer_factory.hpp:77] Creating layer lstm2_x_transform
I0925 22:44:50.992394  9056 net.cpp:91] Creating Layer lstm2_x_transform
I0925 22:44:50.992403  9056 net.cpp:425] lstm2_x_transform <- x
I0925 22:44:50.992413  9056 net.cpp:399] lstm2_x_transform -> W_xc_x
I0925 22:44:51.016795  9046 net.cpp:141] Setting up lstm1_transform_1
I0925 22:44:51.016824  9018 net.cpp:141] Setting up h_pseudoloss
I0925 22:44:51.016845  9046 net.cpp:148] Top shape: 1 1 4000 (4000)
I0925 22:44:51.016849  9018 net.cpp:148] Top shape: (1)
I0925 22:44:51.016855  9046 net.cpp:156] Memory required for data: 62016
I0925 22:44:51.016857  9018 net.cpp:151]     with loss weight 1
I0925 22:44:51.016877  9018 net.cpp:156] Memory required for data: 94020
I0925 22:44:51.016885  9046 layer_factory.hpp:77] Creating layer lstm1_gate_input_1
I0925 22:44:51.016886  9018 net.cpp:217] h_pseudoloss needs backward computation.
…
I0925 22:44:51.016986  9018 net.cpp:219] cont_1_lstm1_cont_slice_0_split does not need backward computation.
I0925 22:44:51.016995  9018 net.cpp:219] lstm1_cont_slice does not need backward computation.
I0925 22:44:51.017004  9018 net.cpp:219] lstm1_ does not need backward computation.
I0925 22:44:51.017011  9018 net.cpp:219] lstm1_ does not need backward computation.
I0925 22:44:51.017017  9018 net.cpp:261] This network produces output c_T
I0925 22:44:51.017025  9018 net.cpp:261] This network produces output h_pseudoloss
I0925 22:44:51.017031  9046 net.cpp:141] Setting up lstm1_gate_input_1
I0925 22:44:51.017045  9046 net.cpp:148] Top shape: 1 1 4000 (4000)
I0925 22:44:51.017051  9046 net.cpp:156] Memory required for data: 78016
I0925 22:44:51.017057  9018 net.cpp:274] Network initialization done.
I0925 22:44:51.017058  9046 layer_factory.hpp:77] Creating layer lstm1_unit_1
I0925 22:44:51.017078  9046 net.cpp:91] Creating Layer lstm1_unit_1
I0925 22:44:51.017086  9046 net.cpp:425] lstm1_unit_1 <- c_0
I0925 22:44:51.017096  9046 net.cpp:425] lstm1_unit_1 <- gate_input_1
I0925 22:44:51.017103  9046 net.cpp:425] lstm1_unit_1 <- cont_1_lstm1_cont_slice_0_split_1
I0925 22:44:51.017114  9046 net.cpp:399] lstm1_unit_1 -> c_1
I0925 22:44:51.017128  9046 net.cpp:399] lstm1_unit_1 -> h_1
I0925 22:44:51.017130  9018 recurrent_layer.cpp:150] Adding parameter 0: W_xc
I0925 22:44:51.017141  9018 recurrent_layer.cpp:150] Adding parameter 1: b_c
I0925 22:44:51.017149  9018 recurrent_layer.cpp:150] Adding parameter 2: W_hc
I0925 22:44:51.017235  9046 net.cpp:141] Setting up lstm1_unit_1
I0925 22:44:51.017249  9046 net.cpp:148] Top shape: 1 1 1000 (1000)
I0925 22:44:51.017259  9046 net.cpp:148] Top shape: 1 1 1000 (1000)
I0925 22:44:51.017266  9046 net.cpp:156] Memory required for data: 86016
I0925 22:44:51.017273  9046 layer_factory.hpp:77] Creating layer lstm1_
I0925 22:44:51.017287  9046 net.cpp:91] Creating Layer lstm1_
I0925 22:44:51.017293  9046 net.cpp:425] lstm1_ <- c_1
I0925 22:44:51.017309  9046 net.cpp:399] lstm1_ -> c_T
I0925 22:44:51.017357  9046 net.cpp:141] Setting up lstm1_
I0925 22:44:51.017370  9046 net.cpp:148] Top shape: 1 1 1000 (1000)
I0925 22:44:51.017377  9046 net.cpp:156] Memory required for data: 90016
I0925 22:44:51.017385  9046 layer_factory.hpp:77] Creating layer lstm1_h_concat
I0925 22:44:51.017397  9046 net.cpp:91] Creating Layer lstm1_h_concat
I0925 22:44:51.017405  9046 net.cpp:425] lstm1_h_concat <- h_1
I0925 22:44:51.017402  9018 net.cpp:141] Setting up lstm1
I0925 22:44:51.017416  9046 net.cpp:399] lstm1_h_concat -> h
I0925 22:44:51.017426  9018 net.cpp:148] Top shape: 1 1 1000 (1000)
I0925 22:44:51.017434  9018 net.cpp:156] Memory required for data: 26408
I0925 22:44:51.017455  9018 layer_factory.hpp:77] Creating layer concat
I0925 22:44:51.017469  9018 net.cpp:91] Creating Layer concat
I0925 22:44:51.017472  9046 net.cpp:141] Setting up lstm1_h_concat
I0925 22:44:51.017479  9018 net.cpp:425] concat <- lstm1
I0925 22:44:51.017485  9046 net.cpp:148] Top shape: 1 1 1000 (1000)
I0925 22:44:51.017490  9018 net.cpp:425] concat <- embedded_input_sentence
I0925 22:44:51.017509  9018 net.cpp:425] concat <- reshaped_stage_indicator
I0925 22:44:51.017524  9018 net.cpp:399] concat -> lstm1_video_sequence
I0925 22:44:51.017572  9018 net.cpp:141] Setting up concat
I0925 22:44:51.017586  9018 net.cpp:148] Top shape: 1 1 1501 (1501)
I0925 22:44:51.017594  9018 net.cpp:156] Memory required for data: 32412
I0925 22:44:51.017603  9018 layer_factory.hpp:77] Creating layer lstm2
I0925 22:44:51.017621  9018 net.cpp:91] Creating Layer lstm2
I0925 22:44:51.017629  9018 net.cpp:425] lstm2 <- lstm1_video_sequence
I0925 22:44:51.017639  9018 net.cpp:425] lstm2 <- cont_sentence_input_1_split_1
I0925 22:44:51.017652  9018 net.cpp:399] lstm2 -> lstm2
I0925 22:44:51.017668  9018 recurrent_layer.cpp:20] Initializing recurrent layer: assuming input batch contains 1 timesteps of 1 independent streams.
I0925 22:44:51.018039  9018 net.cpp:49] Initializing net from parameters: 
layer {
  name: "lstm2_"
  type: "Input"
  top: "x"
  top: "cont"
  input_param {
    shape {
      dim: 1
      dim: 1
      dim: 1501
    }
    shape {
      dim: 1
      dim: 1
    }
  }
}
layer {
  name: "lstm2_"
  type: "Input"
  top: "c_0"
  top: "h_0"
  input_param {
    shape {
      dim: 1
      dim: 1
      dim: 1000
    }
    shape {
      dim: 1
      dim: 1
      dim: 1000
    }
  }
}
layer {
  name: "lstm2_cont_slice"
  type: "Slice"
  bottom: "cont"
  top: "cont_1"
  slice_param {
    axis: 0
  }
}
layer {
  name: "lstm2_x_transform"
  type: "InnerProduct"
  bottom: "x"
  top: "W_xc_x"
  param {
    name: "W_xc"
  }
  param {
    name: "b_c"
  }
  propagate_down: true
  inner_product_param {
    num_output: 4000
    bias_term: true
    weight_filler {
      type: "uniform"
      min: -0.08
      max: 0.08
    }
    bias_filler {
      type: "constant"
      value: 0
    }
    axis: 2
  }
}
layer {
  name: "lstm2_W_xc_x_slice"
  type: "Slice"
  bottom: "W_xc_x"
  top: "W_xc_x_1"
  slice_param {
    axis: 0
  }
}
layer {
  name: "lstm2_h_conted_0"
  type: "Scale"
  bottom: "h_0"
  bottom: "cont_1"
  top: "h_conted_0"
  scale_param {
    axis: 0
  }
}
layer {
  name: "lstm2_transform_1"
  type: "InnerProduct"
  bottom: "h_conted_0"
  top: "W_hc_h_0"
  param {
    name: "W_hc"
  }
  inner_product_param {
    num_output: 4000
    bias_term: false
    weight_filler {
      type: "uniform"
      min: -0.08
      max: 0.08
    }
    axis: 2
  }
}
layer {
  name: "lstm2_gate_input_1"
  type: "Eltwise"
  bottom: "W_hc_h_0"
  bottom: "W_xc_x_1"
  top: "gate_input_1"
  eltwise_param {
    operation: SUM
  }
}
layer {
  name: "lstm2_unit_1"
  type: "LSTMUnit"
  bottom: "c_0"
  bottom: "gate_input_1"
  bottom: "cont_1"
  top: "c_1"
  top: "h_1"
}
layer {
  name: "lstm2_"
  type: "Split"
  bottom: "c_1"
  top: "c_T"
}
layer {
  name: "lstm2_h_concat"
  type: "Concat"
  bottom: "h_1"
  top: "h"
  concat_param {
    axis: 0
  }
}
layer {
  name: "h_pseudoloss"
  type: "Reduction"
  bottom: "h"
  top: "h_pseudoloss"
  loss_weight: 1
}
I0925 22:44:51.018157  9014 net.cpp:141] Setting up lstm1_transform_1
I0925 22:44:51.017493  9046 net.cpp:156] Memory required for data: 94016
I0925 22:44:51.018198  9046 layer_factory.hpp:77] Creating layer h_pseudoloss
I0925 22:44:51.018203  9014 net.cpp:148] Top shape: 1 1 4000 (4000)
I0925 22:44:51.018213  9046 net.cpp:91] Creating Layer h_pseudoloss
I0925 22:44:51.018213  9014 net.cpp:156] Memory required for data: 62016
I0925 22:44:51.018223  9046 net.cpp:425] h_pseudoloss <- h
I0925 22:44:51.018235  9046 net.cpp:399] h_pseudoloss -> h_pseudoloss
I0925 22:44:51.018239  9014 layer_factory.hpp:77] Creating layer lstm1_gate_input_1
I0925 22:44:51.018268  9014 net.cpp:91] Creating Layer lstm1_gate_input_1
I0925 22:44:51.018278  9014 net.cpp:425] lstm1_gate_input_1 <- W_hc_h_0
I0925 22:44:51.018290  9014 net.cpp:425] lstm1_gate_input_1 <- W_xc_x_1
I0925 22:44:51.018303  9014 net.cpp:399] lstm1_gate_input_1 -> gate_input_1
I0925 22:44:51.018376  9046 net.cpp:141] Setting up h_pseudoloss
I0925 22:44:51.018393  9046 net.cpp:148] Top shape: (1)
I0925 22:44:51.018400  9046 net.cpp:151]     with loss weight 1
I0925 22:44:51.018412  9046 net.cpp:156] Memory required for data: 94020
I0925 22:44:51.018420  9046 net.cpp:217] h_pseudoloss needs backward computation.
I0925 22:44:51.018172  9018 layer_factory.hpp:77] Creating layer lstm2_
I0925 22:44:51.018427  9014 net.cpp:141] Setting up lstm1_gate_input_1
I0925 22:44:51.018450  9018 net.cpp:91] Creating Layer lstm2_
I0925 22:44:51.018452  9014 net.cpp:148] Top shape: 1 1 4000 (4000)
I0925 22:44:51.018462  9014 net.cpp:156] Memory required for data: 78016
I0925 22:44:51.018429  9046 net.cpp:217] lstm1_h_concat needs backward computation.
I0925 22:44:51.018476  9014 layer_factory.hpp:77] Creating layer lstm1_unit_1
I0925 22:44:51.018486  9046 net.cpp:219] lstm1_ does not need backward computation.
I0925 22:44:51.018491  9014 net.cpp:91] Creating Layer lstm1_unit_1
…
I0925 22:44:51.018555  9046 net.cpp:219] cont_1_lstm1_cont_slice_0_split does not need backward computation.
I0925 22:44:51.018632  9046 net.cpp:219] lstm1_cont_slice does not need backward computation.
I0925 22:44:51.018645  9046 net.cpp:219] lstm1_ does not need backward computation.
I0925 22:44:51.018651  9046 net.cpp:219] lstm1_ does not need backward computation.
I0925 22:44:51.018656  9046 net.cpp:261] This network produces output c_T
I0925 22:44:51.018664  9046 net.cpp:261] This network produces output h_pseudoloss
I0925 22:44:51.018682  9014 net.cpp:141] Setting up lstm1_unit_1
I0925 22:44:51.018688  9046 net.cpp:274] Network initialization done.
I0925 22:44:51.018699  9014 net.cpp:148] Top shape: 1 1 1000 (1000)
I0925 22:44:51.018710  9014 net.cpp:148] Top shape: 1 1 1000 (1000)
I0925 22:44:51.018718  9014 net.cpp:156] Memory required for data: 86016
I0925 22:44:51.018725  9014 layer_factory.hpp:77] Creating layer lstm1_
I0925 22:44:51.018738  9014 net.cpp:91] Creating Layer lstm1_
I0925 22:44:51.018746  9014 net.cpp:425] lstm1_ <- c_1
I0925 22:44:51.018757  9014 net.cpp:399] lstm1_ -> c_T
I0925 22:44:51.018770  9046 recurrent_layer.cpp:150] Adding parameter 0: W_xc
I0925 22:44:51.018781  9046 recurrent_layer.cpp:150] Adding parameter 1: b_c
I0925 22:44:51.018790  9046 recurrent_layer.cpp:150] Adding parameter 2: W_hc
I0925 22:44:51.018806  9014 net.cpp:141] Setting up lstm1_
I0925 22:44:51.018821  9014 net.cpp:148] Top shape: 1 1 1000 (1000)
I0925 22:44:51.018827  9014 net.cpp:156] Memory required for data: 90016
I0925 22:44:51.018836  9014 layer_factory.hpp:77] Creating layer lstm1_h_concat
I0925 22:44:51.018848  9014 net.cpp:91] Creating Layer lstm1_h_concat
I0925 22:44:51.018856  9014 net.cpp:425] lstm1_h_concat <- h_1
I0925 22:44:51.018870  9014 net.cpp:399] lstm1_h_concat -> h
I0925 22:44:51.018932  9014 net.cpp:141] Setting up lstm1_h_concat
I0925 22:44:51.018946  9014 net.cpp:148] Top shape: 1 1 1000 (1000)
I0925 22:44:51.018954  9014 net.cpp:156] Memory required for data: 94016
I0925 22:44:51.018962  9014 layer_factory.hpp:77] Creating layer h_pseudoloss
I0925 22:44:51.018978  9014 net.cpp:91] Creating Layer h_pseudoloss
I0925 22:44:51.018986  9014 net.cpp:425] h_pseudoloss <- h
I0925 22:44:51.018997  9014 net.cpp:399] h_pseudoloss -> h_pseudoloss
I0925 22:44:51.018998  9046 net.cpp:141] Setting up lstm1
I0925 22:44:51.019016  9046 net.cpp:148] Top shape: 1 1 1000 (1000)
I0925 22:44:51.019024  9046 net.cpp:156] Memory required for data: 26408
I0925 22:44:51.019048  9046 layer_factory.hpp:77] Creating layer concat
I0925 22:44:51.019062  9046 net.cpp:91] Creating Layer concat
I0925 22:44:51.019074  9046 net.cpp:425] concat <- lstm1
I0925 22:44:51.019084  9046 net.cpp:425] concat <- embedded_input_sentence
I0925 22:44:51.019093  9046 net.cpp:425] concat <- reshaped_stage_indicator
I0925 22:44:51.019104  9046 net.cpp:399] concat -> lstm1_video_sequence
I0925 22:44:51.019140  9014 net.cpp:141] Setting up h_pseudoloss
I0925 22:44:51.019155  9014 net.cpp:148] Top shape: (1)
I0925 22:44:51.019163  9014 net.cpp:151]     with loss weight 1
I0925 22:44:51.019183  9014 net.cpp:156] Memory required for data: 94020
I0925 22:44:51.019192  9014 net.cpp:217] h_pseudoloss needs backward computation.
I0925 22:44:51.019201  9014 net.cpp:217] lstm1_h_concat needs backward computation.
I0925 22:44:51.019209  9014 net.cpp:219] lstm1_ does not need backward computation.
I0925 22:44:51.019210  9018 net.cpp:141] Setting up lstm2_
I0925 22:44:51.019217  9014 net.cpp:217] lstm1_unit_1 needs backward computation.
I0925 22:44:51.019227  9018 net.cpp:148] Top shape: 1 1 1501 (1501)
I0925 22:44:51.019228  9014 net.cpp:217] lstm1_gate_input_1 needs backward computation.
I0925 22:44:51.019237  9018 net.cpp:148] Top shape: 1 1 (1)
I0925 22:44:51.019251  9018 net.cpp:156] Memory required for data: 6008
I0925 22:44:51.019238  9014 net.cpp:217] lstm1_transform_1 needs backward computation.
I0925 22:44:51.019261  9018 layer_factory.hpp:77] Creating layer lstm2_
I0925 22:44:51.019270  9014 net.cpp:219] lstm1_h_conted_0 does not need backward computation.
I0925 22:44:51.019278  9018 net.cpp:91] Creating Layer lstm2_
I0925 22:44:51.019282  9014 net.cpp:217] lstm1_W_xc_x_slice needs backward computation.
I0925 22:44:51.019294  9014 net.cpp:217] lstm1_x_transform needs backward computation.
I0925 22:44:51.019304  9014 net.cpp:219] cont_1_lstm1_cont_slice_0_split does not need backward computation.
I0925 22:44:51.019311  9014 net.cpp:219] lstm1_cont_slice does not need backward computation.
I0925 22:44:51.019320  9014 net.cpp:219] lstm1_ does not need backward computation.
I0925 22:44:51.019327  9014 net.cpp:219] lstm1_ does not need backward computation.
I0925 22:44:51.019341  9014 net.cpp:261] This network produces output c_T
I0925 22:44:51.019350  9014 net.cpp:261] This network produces output h_pseudoloss
I0925 22:44:51.019351  9018 net.cpp:399] lstm2_ -> c_0
I0925 22:44:51.019372  9018 net.cpp:399] lstm2_ -> h_0
I0925 22:44:51.019377  9014 net.cpp:274] Network initialization done.
I0925 22:44:51.019438  9018 net.cpp:141] Setting up lstm2_
I0925 22:44:51.019443  9014 recurrent_layer.cpp:150] Adding parameter 0: W_xc
I0925 22:44:51.019454  9018 net.cpp:148] Top shape: 1 1 1000 (1000)
I0925 22:44:51.019454  9014 recurrent_layer.cpp:150] Adding parameter 1: b_c
I0925 22:44:51.019469  9018 net.cpp:148] Top shape: 1 1 1000 (1000)
I0925 22:44:51.019474  9014 recurrent_layer.cpp:150] Adding parameter 2: W_hc
I0925 22:44:51.019476  9018 net.cpp:156] Memory required for data: 14008
I0925 22:44:51.019486  9018 layer_factory.hpp:77] Creating layer lstm2_cont_slice
I0925 22:44:51.019326  9046 net.cpp:141] Setting up concat
I0925 22:44:51.019510  9046 net.cpp:148] Top shape: 1 1 1501 (1501)
I0925 22:44:51.019517  9046 net.cpp:156] Memory required for data: 32412
I0925 22:44:51.019525  9046 layer_factory.hpp:77] Creating layer lstm2
I0925 22:44:51.019539  9046 net.cpp:91] Creating Layer lstm2
I0925 22:44:51.019547  9046 net.cpp:425] lstm2 <- lstm1_video_sequence
I0925 22:44:51.019557  9046 net.cpp:425] lstm2 <- cont_sentence_input_1_split_1
I0925 22:44:51.019569  9046 net.cpp:399] lstm2 -> lstm2
I0925 22:44:51.019583  9046 recurrent_layer.cpp:20] Initializing recurrent layer: assuming input batch contains 1 timesteps of 1 independent streams.
I0925 22:44:51.019634  9014 net.cpp:141] Setting up lstm1
I0925 22:44:51.019651  9014 net.cpp:148] Top shape: 1 1 1000 (1000)
I0925 22:44:51.019659  9014 net.cpp:156] Memory required for data: 26408
I0925 22:44:51.019680  9014 layer_factory.hpp:77] Creating layer concat
I0925 22:44:51.019692  9014 net.cpp:91] Creating Layer concat
I0925 22:44:51.019701  9014 net.cpp:425] concat <- lstm1
I0925 22:44:51.019712  9014 net.cpp:425] concat <- embedded_input_sentence
I0925 22:44:51.019721  9014 net.cpp:425] concat <- reshaped_stage_indicator
I0925 22:44:51.019732  9014 net.cpp:399] concat -> lstm1_video_sequence
I0925 22:44:51.019781  9014 net.cpp:141] Setting up concat
I0925 22:44:51.019794  9014 net.cpp:148] Top shape: 1 1 1501 (1501)
I0925 22:44:51.019803  9014 net.cpp:156] Memory required for data: 32412
I0925 22:44:51.019810  9014 layer_factory.hpp:77] Creating layer lstm2
I0925 22:44:51.019829  9014 net.cpp:91] Creating Layer lstm2
I0925 22:44:51.019837  9014 net.cpp:425] lstm2 <- lstm1_video_sequence
I0925 22:44:51.019847  9014 net.cpp:425] lstm2 <- cont_sentence_input_1_split_1
I0925 22:44:51.019858  9014 net.cpp:399] lstm2 -> lstm2
I0925 22:44:51.019875  9014 recurrent_layer.cpp:20] Initializing recurrent layer: assuming input batch contains 1 timesteps of 1 independent streams.
I0925 22:44:51.026684  9012 net.cpp:141] Setting up embedding
I0925 22:44:51.026715  9018 net.cpp:91] Creating Layer lstm2_cont_slice
I0925 22:44:51.026731  9012 net.cpp:148] Top shape: 1 1 500 (500)
I0925 22:44:51.026739  9012 net.cpp:156] Memory required for data: 22408
I0925 22:44:51.026741  9018 net.cpp:425] lstm2_cont_slice <- cont
I0925 22:44:51.026762  9012 layer_factory.hpp:77] Creating layer lstm1
I0925 22:44:51.026767  9018 net.cpp:399] lstm2_cont_slice -> cont_1
I0925 22:44:51.026785  9012 net.cpp:91] Creating Layer lstm1
I0925 22:44:51.026796  9012 net.cpp:425] lstm1 <- embedded_input_frames
I0925 22:44:51.026687  9046 net.cpp:49] Initializing net from parameters: 
layer {
  name: "lstm2_"
  type: "Input"
  top: "x"
  top: "cont"
  input_param {
    shape {
      dim: 1
      dim: 1
      dim: 1501
    }
    shape {
      dim: 1
      dim: 1
    }
  }
}
layer {
  name: "lstm2_"
  type: "Input"
  top: "c_0"
  top: "h_0"
  input_param {
    shape {
      dim: 1
      dim: 1
      dim: 1000
    }
    shape {
      dim: 1
      dim: 1
      dim: 1000
    }
  }
}
layer {
  name: "lstm2_cont_slice"
  type: "Slice"
  bottom: "cont"
  top: "cont_1"
  slice_param {
    axis: 0
  }
}
layer {
  name: "lstm2_x_transform"
  type: "InnerProduct"
  bottom: "x"
  top: "W_xc_x"
  param {
    name: "W_xc"
  }
  param {
    name: "b_c"
  }
  propagate_down: true
  inner_product_param {
    num_output: 4000
    bias_term: true
    weight_filler {
      type: "uniform"
      min: -0.08
      max: 0.08
    }
    bias_filler {
      type: "constant"
      value: 0
    }
    axis: 2
  }
}
layer {
  name: "lstm2_W_xc_x_slice"
  type: "Slice"
  bottom: "W_xc_x"
  top: "W_xc_x_1"
  slice_param {
    axis: 0
  }
}
layer {
  name: "lstm2_h_conted_0"
  type: "Scale"
  bottom: "h_0"
  bottom: "cont_1"
  top: "h_conted_0"
  scale_param {
    axis: 0
  }
}
layer {
  name: "lstm2_transform_1"
  type: "InnerProduct"
  bottom: "h_conted_0"
  top: "W_hc_h_0"
  param {
    name: "W_hc"
  }
  inner_product_param {
    num_output: 4000
    bias_term: false
    weight_filler {
      type: "uniform"
      min: -0.08
      max: 0.08
    }
    axis: 2
  }
}
layer {
  name: "lstm2_gate_input_1"
  type: "Eltwise"
  bottom: "W_hc_h_0"
  bottom: "W_xc_x_1"
  top: "gate_input_1"
  eltwise_param {
    operation: SUM
  }
}
layer {
  name: "lstm2_unit_1"
  type: "LSTMUnit"
  bottom: "c_0"
  bottom: "gate_input_1"
  bottom: "cont_1"
  top: "c_1"
  top: "h_1"
}
layer {
  name: "lstm2_"
  type: "Split"
  bottom: "c_1"
  top: "c_T"
}
layer {
  name: "lstm2_h_concat"
  type: "Concat"
  bottom: "h_1"
  top: "h"
  concat_param {
    axis: 0
  }
}
layer {
  name: "h_pseudoloss"
  type: "Reduction"
  bottom: "h"
  top: "h_pseudoloss"
  loss_weight: 1
}
I0925 22:44:51.026808  9012 net.cpp:425] lstm1 <- cont_sentence_input_1_split_0
I0925 22:44:51.026828  9012 net.cpp:399] lstm1 -> lstm1
I0925 22:44:51.026847  9012 recurrent_layer.cpp:20] Initializing recurrent layer: assuming input batch contains 1 timesteps of 1 independent streams.
I0925 22:44:51.027068  9014 net.cpp:49] Initializing net from parameters: 
layer {
  name: "lstm2_"
  type: "Input"
  top: "x"
  top: "cont"
  input_param {
    shape {
      dim: 1
      dim: 1
      dim: 1501
    }
    shape {
      dim: 1
      dim: 1
    }
  }
}
layer {
  name: "lstm2_"
  type: "Input"
  top: "c_0"
  top: "h_0"
  input_param {
    shape {
      dim: 1
      dim: 1
      dim: 1000
    }
    shape {
      dim: 1
      dim: 1
      dim: 1000
    }
  }
}
layer {
  name: "lstm2_cont_slice"
  type: "Slice"
  bottom: "cont"
  top: "cont_1"
  slice_param {
    axis: 0
  }
}
layer {
  name: "lstm2_x_transform"
  type: "InnerProduct"
  bottom: "x"
  top: "W_xc_x"
  param {
    name: "W_xc"
  }
  param {
    name: "b_c"
  }
  propagate_down: true
  inner_product_param {
    num_output: 4000
    bias_term: true
    weight_filler {
      type: "uniform"
      min: -0.08
      max: 0.08
    }
    bias_filler {
      type: "constant"
      value: 0
    }
    axis: 2
  }
}
layer {
  name: "lstm2_W_xc_x_slice"
  type: "Slice"
  bottom: "W_xc_x"
  top: "W_xc_x_1"
  slice_param {
    axis: 0
  }
}
layer {
  name: "lstm2_h_conted_0"
  type: "Scale"
  bottom: "h_0"
  bottom: "cont_1"
  top: "h_conted_0"
  scale_param {
    axis: 0
  }
}
layer {
  name: "lstm2_transform_1"
  type: "InnerProduct"
  bottom: "h_conted_0"
  top: "W_hc_h_0"
  param {
    name: "W_hc"
  }
  inner_product_param {
    num_output: 4000
    bias_term: false
    weight_filler {
      type: "uniform"
      min: -0.08
      max: 0.08
    }
    axis: 2
  }
}
layer {
  name: "lstm2_gate_input_1"
  type: "Eltwise"
  bottom: "W_hc_h_0"
  bottom: "W_xc_x_1"
  top: "gate_input_1"
  eltwise_param {
    operation: SUM
  }
}
layer {
  name: "lstm2_unit_1"
  type: "LSTMUnit"
  bottom: "c_0"
  bottom: "gate_input_1"
  bottom: "cont_1"
  top: "c_1"
  top: "h_1"
}
layer {
  name: "lstm2_"
  type: "Split"
  bottom: "c_1"
  top: "c_T"
}
layer {
  name: "lstm2_h_concat"
  type: "Concat"
  bottom: "h_1"
  top: "h"
  concat_param {
    axis: 0
  }
}
layer {
  name: "h_pseudoloss"
  type: "Reduction"
  bottom: "h"
  top: "h_pseudoloss"
  loss_weight: 1
}
I0925 22:44:51.029333  9046 layer_factory.hpp:77] Creating layer lstm2_
I0925 22:44:51.029359  9046 net.cpp:91] Creating Layer lstm2_
I0925 22:44:51.029366  9046 net.cpp:399] lstm2_ -> x
I0925 22:44:51.029379  9046 net.cpp:399] lstm2_ -> cont
I0925 22:44:51.030511  9014 layer_factory.hpp:77] Creating layer lstm2_
I0925 22:44:51.030511  9012 net.cpp:49] Initializing net from parameters: 
layer {
  name: "lstm1_"
  type: "Input"
  top: "x"
  top: "cont"
  input_param {
    shape {
      dim: 1
      dim: 1
      dim: 500
    }
    shape {
      dim: 1
      dim: 1
    }
  }
}
layer {
  name: "lstm1_"
  type: "Input"
  top: "c_0"
  top: "h_0"
  input_param {
    shape {
      dim: 1
      dim: 1
      dim: 1000
    }
    shape {
      dim: 1
      dim: 1
      dim: 1000
    }
  }
}
layer {
  name: "lstm1_cont_slice"
  type: "Slice"
  bottom: "cont"
  top: "cont_1"
  slice_param {
    axis: 0
  }
}
layer {
  name: "lstm1_x_transform"
  type: "InnerProduct"
  bottom: "x"
  top: "W_xc_x"
  param {
    name: "W_xc"
  }
  param {
    name: "b_c"
  }
  propagate_down: true
  inner_product_param {
    num_output: 4000
    bias_term: true
    weight_filler {
      type: "uniform"
      min: -0.08
      max: 0.08
    }
    bias_filler {
      type: "constant"
      value: 0
    }
    axis: 2
  }
}
layer {
  name: "lstm1_W_xc_x_slice"
  type: "Slice"
  bottom: "W_xc_x"
  top: "W_xc_x_1"
  slice_param {
    axis: 0
  }
}
layer {
  name: "lstm1_h_conted_0"
  type: "Scale"
  bottom: "h_0"
  bottom: "cont_1"
  top: "h_conted_0"
  scale_param {
    axis: 0
  }
}
layer {
  name: "lstm1_transform_1"
  type: "InnerProduct"
  bottom: "h_conted_0"
  top: "W_hc_h_0"
  param {
    name: "W_hc"
  }
  inner_product_param {
    num_output: 4000
    bias_term: false
    weight_filler {
      type: "uniform"
      min: -0.08
      max: 0.08
    }
    axis: 2
  }
}
layer {
  name: "lstm1_gate_input_1"
  type: "Eltwise"
  bottom: "W_hc_h_0"
  bottom: "W_xc_x_1"
  top: "gate_input_1"
  eltwise_param {
    operation: SUM
  }
}
layer {
  name: "lstm1_unit_1"
  type: "LSTMUnit"
  bottom: "c_0"
  bottom: "gate_input_1"
  bottom: "cont_1"
  top: "c_1"
  top: "h_1"
}
layer {
  name: "lstm1_"
  type: "Split"
  bottom: "c_1"
  top: "c_T"
}
layer {
  name: "lstm1_h_concat"
  type: "Concat"
  bottom: "h_1"
  top: "h"
  concat_param {
    axis: 0
  }
}
layer {
  name: "h_pseudoloss"
  type: "Reduction"
  bottom: "h"
  top: "h_pseudoloss"
  loss_weight: 1
}
I0925 22:44:51.032182  9014 net.cpp:91] Creating Layer lstm2_
I0925 22:44:51.032202  9014 net.cpp:399] lstm2_ -> x
I0925 22:44:51.032244  9014 net.cpp:399] lstm2_ -> cont
I0925 22:44:51.038736  9012 layer_factory.hpp:77] Creating layer lstm1_
I0925 22:44:51.038769  9012 net.cpp:91] Creating Layer lstm1_
I0925 22:44:51.038782  9012 net.cpp:399] lstm1_ -> x
I0925 22:44:51.038803  9012 net.cpp:399] lstm1_ -> cont
I0925 22:44:51.057399  9018 net.cpp:141] Setting up lstm2_cont_slice
I0925 22:44:51.057456  9018 net.cpp:148] Top shape: 1 1 (1)
I0925 22:44:51.057471  9018 net.cpp:156] Memory required for data: 14012
I0925 22:44:51.057483  9018 layer_factory.hpp:77] Creating layer cont_1_lstm2_cont_slice_0_split
I0925 22:44:51.057695  9018 net.cpp:91] Creating Layer cont_1_lstm2_cont_slice_0_split
I0925 22:44:51.057713  9018 net.cpp:425] cont_1_lstm2_cont_slice_0_split <- cont_1
I0925 22:44:51.057732  9018 net.cpp:399] cont_1_lstm2_cont_slice_0_split -> cont_1_lstm2_cont_slice_0_split_0
I0925 22:44:51.057761  9018 net.cpp:399] cont_1_lstm2_cont_slice_0_split -> cont_1_lstm2_cont_slice_0_split_1
I0925 22:44:51.057818  9008 net.cpp:141] Setting up lstm1_x_transform
I0925 22:44:51.057857  9046 net.cpp:141] Setting up lstm2_
I0925 22:44:51.057863  9008 net.cpp:148] Top shape: 1 1 4000 (4000)
I0925 22:44:51.057874  9008 net.cpp:156] Memory required for data: 26016
I0925 22:44:51.057875  9046 net.cpp:148] Top shape: 1 1 1501 (1501)
I0925 22:44:51.057891  9046 net.cpp:148] Top shape: 1 1 (1)
I0925 22:44:51.057899  9046 net.cpp:156] Memory required for data: 6008
I0925 22:44:51.057907  9008 layer_factory.hpp:77] Creating layer lstm1_W_xc_x_slice
I0925 22:44:51.057916  9046 layer_factory.hpp:77] Creating layer lstm2_
I0925 22:44:51.057920  9012 net.cpp:141] Setting up lstm1_
I0925 22:44:51.057932  9008 net.cpp:91] Creating Layer lstm1_W_xc_x_slice
I0925 22:44:51.057942  9008 net.cpp:425] lstm1_W_xc_x_slice <- W_xc_x
I0925 22:44:51.057945  9012 net.cpp:148] Top shape: 1 1 500 (500)
I0925 22:44:51.057955  9008 net.cpp:399] lstm1_W_xc_x_slice -> W_xc_x_1
I0925 22:44:51.057958  9012 net.cpp:148] Top shape: 1 1 (1)
I0925 22:44:51.057966  9012 net.cpp:156] Memory required for data: 2004
I0925 22:44:51.057976  9012 layer_factory.hpp:77] Creating layer lstm1_
I0925 22:44:51.057996  9012 net.cpp:91] Creating Layer lstm1_
I0925 22:44:51.058019  9014 net.cpp:141] Setting up lstm2_
I0925 22:44:51.058037  9014 net.cpp:148] Top shape: 1 1 1501 (1501)
I0925 22:44:51.058048  9014 net.cpp:148] Top shape: 1 1 (1)
I0925 22:44:51.058054  9014 net.cpp:156] Memory required for data: 6008
I0925 22:44:51.058063  9014 layer_factory.hpp:77] Creating layer lstm2_
I0925 22:44:51.058079  9014 net.cpp:91] Creating Layer lstm2_
I0925 22:44:51.058145  9012 net.cpp:399] lstm1_ -> c_0
I0925 22:44:51.058166  9046 net.cpp:91] Creating Layer lstm2_
I0925 22:44:51.058169  9018 net.cpp:141] Setting up cont_1_lstm2_cont_slice_0_split
I0925 22:44:51.058179  9012 net.cpp:399] lstm1_ -> h_0
I0925 22:44:51.058185  9046 net.cpp:399] lstm2_ -> c_0
I0925 22:44:51.058195  9018 net.cpp:148] Top shape: 1 1 (1)
I0925 22:44:51.058197  9008 net.cpp:141] Setting up lstm1_W_xc_x_slice
I0925 22:44:51.058208  9046 net.cpp:399] lstm2_ -> h_0
I0925 22:44:51.058214  9008 net.cpp:148] Top shape: 1 1 4000 (4000)
I0925 22:44:51.058210  9018 net.cpp:148] Top shape: 1 1 (1)
I0925 22:44:51.058238  9018 net.cpp:156] Memory required for data: 14020
I0925 22:44:51.058246  9018 layer_factory.hpp:77] Creating layer lstm2_x_transform
I0925 22:44:51.058274  9018 net.cpp:91] Creating Layer lstm2_x_transform
I0925 22:44:51.058282  9018 net.cpp:425] lstm2_x_transform <- x
I0925 22:44:51.058296  9018 net.cpp:399] lstm2_x_transform -> W_xc_x
I0925 22:44:51.058223  9008 net.cpp:156] Memory required for data: 42016
I0925 22:44:51.058346  9008 layer_factory.hpp:77] Creating layer lstm1_h_conted_0
I0925 22:44:51.058363  9008 net.cpp:91] Creating Layer lstm1_h_conted_0
I0925 22:44:51.058372  9008 net.cpp:425] lstm1_h_conted_0 <- h_0
I0925 22:44:51.058382  9008 net.cpp:425] lstm1_h_conted_0 <- cont_1_lstm1_cont_slice_0_split_0
I0925 22:44:51.058450  9014 net.cpp:399] lstm2_ -> c_0
I0925 22:44:51.058475  9014 net.cpp:399] lstm2_ -> h_0
I0925 22:44:51.058531  9046 net.cpp:141] Setting up lstm2_
I0925 22:44:51.058549  9046 net.cpp:148] Top shape: 1 1 1000 (1000)
I0925 22:44:51.058562  9046 net.cpp:148] Top shape: 1 1 1000 (1000)
I0925 22:44:51.058569  9046 net.cpp:156] Memory required for data: 14008
I0925 22:44:51.058578  9046 layer_factory.hpp:77] Creating layer lstm2_cont_slice
I0925 22:44:51.058593  9046 net.cpp:91] Creating Layer lstm2_cont_slice
I0925 22:44:51.058617  9046 net.cpp:425] lstm2_cont_slice <- cont
I0925 22:44:51.058645  9046 net.cpp:399] lstm2_cont_slice -> cont_1
I0925 22:44:51.059139  9008 net.cpp:399] lstm1_h_conted_0 -> h_conted_0
I0925 22:44:51.058663  9012 net.cpp:141] Setting up lstm1_
I0925 22:44:51.059204  9012 net.cpp:148] Top shape: 1 1 1000 (1000)
I0925 22:44:51.059217  9012 net.cpp:148] Top shape: 1 1 1000 (1000)
I0925 22:44:51.059226  9012 net.cpp:156] Memory required for data: 10004
I0925 22:44:51.059234  9012 layer_factory.hpp:77] Creating layer lstm1_cont_slice
I0925 22:44:51.059249  9012 net.cpp:91] Creating Layer lstm1_cont_slice
I0925 22:44:51.059258  9012 net.cpp:425] lstm1_cont_slice <- cont
I0925 22:44:51.059272  9012 net.cpp:399] lstm1_cont_slice -> cont_1
I0925 22:44:51.071586  9046 net.cpp:141] Setting up lstm2_cont_slice
I0925 22:44:51.071643  9046 net.cpp:148] Top shape: 1 1 (1)
I0925 22:44:51.071648  9046 net.cpp:156] Memory required for data: 14012
I0925 22:44:51.071658  9046 layer_factory.hpp:77] Creating layer cont_1_lstm2_cont_slice_0_split
I0925 22:44:51.071676  9046 net.cpp:91] Creating Layer cont_1_lstm2_cont_slice_0_split
I0925 22:44:51.071683  9046 net.cpp:425] cont_1_lstm2_cont_slice_0_split <- cont_1
I0925 22:44:51.071697  9046 net.cpp:399] cont_1_lstm2_cont_slice_0_split -> cont_1_lstm2_cont_slice_0_split_0
I0925 22:44:51.071712  9046 net.cpp:399] cont_1_lstm2_cont_slice_0_split -> cont_1_lstm2_cont_slice_0_split_1
I0925 22:44:51.071835  9008 net.cpp:141] Setting up lstm1_h_conted_0
I0925 22:44:51.071861  9008 net.cpp:148] Top shape: 1 1 1000 (1000)
I0925 22:44:51.071871  9008 net.cpp:156] Memory required for data: 46016
I0925 22:44:51.071882  9008 layer_factory.hpp:77] Creating layer lstm1_transform_1
I0925 22:44:51.071916  9008 net.cpp:91] Creating Layer lstm1_transform_1
I0925 22:44:51.071931  9008 net.cpp:425] lstm1_transform_1 <- h_conted_0
I0925 22:44:51.071949  9008 net.cpp:399] lstm1_transform_1 -> W_hc_h_0
I0925 22:44:51.072363  9012 net.cpp:141] Setting up lstm1_cont_slice
I0925 22:44:51.072408  9014 net.cpp:141] Setting up lstm2_
I0925 22:44:51.072424  9014 net.cpp:148] Top shape: 1 1 1000 (1000)
I0925 22:44:51.072432  9014 net.cpp:148] Top shape: 1 1 1000 (1000)
I0925 22:44:51.072434  9012 net.cpp:148] Top shape: 1 1 (1)
I0925 22:44:51.072437  9014 net.cpp:156] Memory required for data: 14008
I0925 22:44:51.072471  9014 layer_factory.hpp:77] Creating layer lstm2_cont_slice
I0925 22:44:51.072469  9012 net.cpp:156] Memory required for data: 10008
I0925 22:44:51.072494  9014 net.cpp:91] Creating Layer lstm2_cont_slice
I0925 22:44:51.072494  9012 layer_factory.hpp:77] Creating layer cont_1_lstm1_cont_slice_0_split
I0925 22:44:51.072501  9014 net.cpp:425] lstm2_cont_slice <- cont
I0925 22:44:51.072530  9014 net.cpp:399] lstm2_cont_slice -> cont_1
I0925 22:44:51.072543  9012 net.cpp:91] Creating Layer cont_1_lstm1_cont_slice_0_split
I0925 22:44:51.072566  9012 net.cpp:425] cont_1_lstm1_cont_slice_0_split <- cont_1
I0925 22:44:51.072588  9012 net.cpp:399] cont_1_lstm1_cont_slice_0_split -> cont_1_lstm1_cont_slice_0_split_0
I0925 22:44:51.072592  9014 net.cpp:141] Setting up lstm2_cont_slice
I0925 22:44:51.072616  9014 net.cpp:148] Top shape: 1 1 (1)
I0925 22:44:51.072621  9014 net.cpp:156] Memory required for data: 14012
I0925 22:44:51.072623  9012 net.cpp:399] cont_1_lstm1_cont_slice_0_split -> cont_1_lstm1_cont_slice_0_split_1
I0925 22:44:51.072628  9014 layer_factory.hpp:77] Creating layer cont_1_lstm2_cont_slice_0_split
I0925 22:44:51.072654  9014 net.cpp:91] Creating Layer cont_1_lstm2_cont_slice_0_split
I0925 22:44:51.072660  9014 net.cpp:425] cont_1_lstm2_cont_slice_0_split <- cont_1
I0925 22:44:51.072671  9014 net.cpp:399] cont_1_lstm2_cont_slice_0_split -> cont_1_lstm2_cont_slice_0_split_0
I0925 22:44:51.072682  9014 net.cpp:399] cont_1_lstm2_cont_slice_0_split -> cont_1_lstm2_cont_slice_0_split_1
I0925 22:44:51.082330  9046 net.cpp:141] Setting up cont_1_lstm2_cont_slice_0_split
I0925 22:44:51.082379  9046 net.cpp:148] Top shape: 1 1 (1)
I0925 22:44:51.082386  9046 net.cpp:148] Top shape: 1 1 (1)
I0925 22:44:51.082391  9046 net.cpp:156] Memory required for data: 14020
I0925 22:44:51.082399  9046 layer_factory.hpp:77] Creating layer lstm2_x_transform
I0925 22:44:51.082424  9046 net.cpp:91] Creating Layer lstm2_x_transform
I0925 22:44:51.082434  9046 net.cpp:425] lstm2_x_transform <- x
I0925 22:44:51.082456  9046 net.cpp:399] lstm2_x_transform -> W_xc_x
I0925 22:44:51.082476  9012 net.cpp:141] Setting up cont_1_lstm1_cont_slice_0_split
I0925 22:44:51.082514  9012 net.cpp:148] Top shape: 1 1 (1)
I0925 22:44:51.082520  9012 net.cpp:148] Top shape: 1 1 (1)
I0925 22:44:51.082525  9012 net.cpp:156] Memory required for data: 10016
I0925 22:44:51.082532  9012 layer_factory.hpp:77] Creating layer lstm1_x_transform
I0925 22:44:51.082543  9030 net.cpp:141] Setting up embedding
I0925 22:44:51.082556  9012 net.cpp:91] Creating Layer lstm1_x_transform
I0925 22:44:51.082568  9012 net.cpp:425] lstm1_x_transform <- x
I0925 22:44:51.082569  9030 net.cpp:148] Top shape: 1 1 500 (500)
I0925 22:44:51.082607  9030 net.cpp:156] Memory required for data: 22408
I0925 22:44:51.082614  9012 net.cpp:399] lstm1_x_transform -> W_xc_x
I0925 22:44:51.082659  9030 layer_factory.hpp:77] Creating layer lstm1
I0925 22:44:51.082741  9030 net.cpp:91] Creating Layer lstm1
I0925 22:44:51.082751  9030 net.cpp:425] lstm1 <- embedded_input_frames
I0925 22:44:51.082758  9030 net.cpp:425] lstm1 <- cont_sentence_input_1_split_0
I0925 22:44:51.082770  9030 net.cpp:399] lstm1 -> lstm1
I0925 22:44:51.082784  9030 recurrent_layer.cpp:20] Initializing recurrent layer: assuming input batch contains 1 timesteps of 1 independent streams.
I0925 22:44:51.083092  9030 net.cpp:49] Initializing net from parameters: 
layer {
  name: "lstm1_"
  type: "Input"
  top: "x"
  top: "cont"
  input_param {
    shape {
      dim: 1
      dim: 1
      dim: 500
    }
    shape {
      dim: 1
      dim: 1
    }
  }
}
layer {
  name: "lstm1_"
  type: "Input"
  top: "c_0"
  top: "h_0"
  input_param {
    shape {
      dim: 1
      dim: 1
      dim: 1000
    }
    shape {
      dim: 1
      dim: 1
      dim: 1000
    }
  }
}
layer {
  name: "lstm1_cont_slice"
  type: "Slice"
  bottom: "cont"
  top: "cont_1"
  slice_param {
    axis: 0
  }
}
layer {
  name: "lstm1_x_transform"
  type: "InnerProduct"
  bottom: "x"
  top: "W_xc_x"
  param {
    name: "W_xc"
  }
  param {
    name: "b_c"
  }
  propagate_down: true
  inner_product_param {
    num_output: 4000
    bias_term: true
    weight_filler {
      type: "uniform"
      min: -0.08
      max: 0.08
    }
    bias_filler {
      type: "constant"
      value: 0
    }
    axis: 2
  }
}
layer {
  name: "lstm1_W_xc_x_slice"
  type: "Slice"
  bottom: "W_xc_x"
  top: "W_xc_x_1"
  slice_param {
    axis: 0
  }
}
layer {
  name: "lstm1_h_conted_0"
  type: "Scale"
  bottom: "h_0"
  bottom: "cont_1"
  top: "h_conted_0"
  scale_param {
    axis: 0
  }
}
layer {
  name: "lstm1_transform_1"
  type: "InnerProduct"
  bottom: "h_conted_0"
  top: "W_hc_h_0"
  param {
    name: "W_hc"
  }
  inner_product_param {
    num_output: 4000
    bias_term: false
    weight_filler {
      type: "uniform"
      min: -0.08
      max: 0.08
    }
    axis: 2
  }
}
layer {
  name: "lstm1_gate_input_1"
  type: "Eltwise"
  bottom: "W_hc_h_0"
  bottom: "W_xc_x_1"
  top: "gate_input_1"
  eltwise_param {
    operation: SUM
  }
}
layer {
  name: "lstm1_unit_1"
  type: "LSTMUnit"
  bottom: "c_0"
  bottom: "gate_input_1"
  bottom: "cont_1"
  top: "c_1"
  top: "h_1"
}
layer {
  name: "lstm1_"
  type: "Split"
  bottom: "c_1"
  top: "c_T"
}
layer {
  name: "lstm1_h_concat"
  type: "Concat"
  bottom: "h_1"
  top: "h"
  concat_param {
    axis: 0
  }
}
layer {
  name: "h_pseudoloss"
  type: "Reduction"
  bottom: "h"
  top: "h_pseudoloss"
  loss_weight: 1
}
I0925 22:44:51.083187  9030 layer_factory.hpp:77] Creating layer lstm1_
I0925 22:44:51.083199  9030 net.cpp:91] Creating Layer lstm1_
I0925 22:44:51.083206  9030 net.cpp:399] lstm1_ -> x
I0925 22:44:51.083219  9030 net.cpp:399] lstm1_ -> cont
I0925 22:44:51.093255  9056 net.cpp:141] Setting up lstm2_x_transform
I0925 22:44:51.093308  9056 net.cpp:148] Top shape: 1 1 4000 (4000)
I0925 22:44:51.093318  9056 net.cpp:156] Memory required for data: 30020
I0925 22:44:51.093351  9056 layer_factory.hpp:77] Creating layer lstm2_W_xc_x_slice
I0925 22:44:51.093361  9030 net.cpp:141] Setting up lstm1_
I0925 22:44:51.093380  9056 net.cpp:91] Creating Layer lstm2_W_xc_x_slice
I0925 22:44:51.093417  9030 net.cpp:148] Top shape: 1 1 500 (500)
I0925 22:44:51.093420  9056 net.cpp:425] lstm2_W_xc_x_slice <- W_xc_x
I0925 22:44:51.093431  9030 net.cpp:148] Top shape: 1 1 (1)
I0925 22:44:51.093437  9056 net.cpp:399] lstm2_W_xc_x_slice -> W_xc_x_1
I0925 22:44:51.093439  9030 net.cpp:156] Memory required for data: 2004
I0925 22:44:51.093468  9030 layer_factory.hpp:77] Creating layer lstm1_
I0925 22:44:51.093499  9030 net.cpp:91] Creating Layer lstm1_
I0925 22:44:51.093511  9030 net.cpp:399] lstm1_ -> c_0
I0925 22:44:51.093535  9030 net.cpp:399] lstm1_ -> h_0
I0925 22:44:51.093606  9026 net.cpp:141] Setting up embedding
I0925 22:44:51.093624  9026 net.cpp:148] Top shape: 1 1 500 (500)
I0925 22:44:51.093631  9026 net.cpp:156] Memory required for data: 22408
I0925 22:44:51.093652  9026 layer_factory.hpp:77] Creating layer lstm1
I0925 22:44:51.093652  9014 net.cpp:141] Setting up cont_1_lstm2_cont_slice_0_split
I0925 22:44:51.093672  9026 net.cpp:91] Creating Layer lstm1
I0925 22:44:51.093672  9014 net.cpp:148] Top shape: 1 1 (1)
I0925 22:44:51.093690  9026 net.cpp:425] lstm1 <- embedded_input_frames
I0925 22:44:51.093694  9014 net.cpp:148] Top shape: 1 1 (1)
I0925 22:44:51.093703  9026 net.cpp:425] lstm1 <- cont_sentence_input_1_split_0
I0925 22:44:51.093703  9014 net.cpp:156] Memory required for data: 14020
I0925 22:44:51.093721  9014 layer_factory.hpp:77] Creating layer lstm2_x_transform
I0925 22:44:51.093768  9014 net.cpp:91] Creating Layer lstm2_x_transform
I0925 22:44:51.093781  9014 net.cpp:425] lstm2_x_transform <- x
I0925 22:44:51.093798  9014 net.cpp:399] lstm2_x_transform -> W_xc_x
I0925 22:44:51.095274  9026 net.cpp:399] lstm1 -> lstm1
I0925 22:44:51.095307  9026 recurrent_layer.cpp:20] Initializing recurrent layer: assuming input batch contains 1 timesteps of 1 independent streams.
I0925 22:44:51.095605  9026 net.cpp:49] Initializing net from parameters: 
layer {
  name: "lstm1_"
  type: "Input"
  top: "x"
  top: "cont"
  input_param {
    shape {
      dim: 1
      dim: 1
      dim: 500
    }
    shape {
      dim: 1
      dim: 1
    }
  }
}
layer {
  name: "lstm1_"
  type: "Input"
  top: "c_0"
  top: "h_0"
  input_param {
    shape {
      dim: 1
      dim: 1
      dim: 1000
    }
    shape {
      dim: 1
      dim: 1
      dim: 1000
    }
  }
}
layer {
  name: "lstm1_cont_slice"
  type: "Slice"
  bottom: "cont"
  top: "cont_1"
  slice_param {
    axis: 0
  }
}
layer {
  name: "lstm1_x_transform"
  type: "InnerProduct"
  bottom: "x"
  top: "W_xc_x"
  param {
    name: "W_xc"
  }
  param {
    name: "b_c"
  }
  propagate_down: true
  inner_product_param {
    num_output: 4000
    bias_term: true
    weight_filler {
      type: "uniform"
      min: -0.08
      max: 0.08
    }
    bias_filler {
      type: "constant"
      value: 0
    }
    axis: 2
  }
}
layer {
  name: "lstm1_W_xc_x_slice"
  type: "Slice"
  bottom: "W_xc_x"
  top: "W_xc_x_1"
  slice_param {
    axis: 0
  }
}
layer {
  name: "lstm1_h_conted_0"
  type: "Scale"
  bottom: "h_0"
  bottom: "cont_1"
  top: "h_conted_0"
  scale_param {
    axis: 0
  }
}
layer {
  name: "lstm1_transform_1"
  type: "InnerProduct"
  bottom: "h_conted_0"
  top: "W_hc_h_0"
  param {
    name: "W_hc"
  }
  inner_product_param {
    num_output: 4000
    bias_term: false
    weight_filler {
      type: "uniform"
      min: -0.08
      max: 0.08
    }
    axis: 2
  }
}
layer {
  name: "lstm1_gate_input_1"
  type: "Eltwise"
  bottom: "W_hc_h_0"
  bottom: "W_xc_x_1"
  top: "gate_input_1"
  eltwise_param {
    operation: SUM
  }
}
layer {
  name: "lstm1_unit_1"
  type: "LSTMUnit"
  bottom: "c_0"
  bottom: "gate_input_1"
  bottom: "cont_1"
  top: "c_1"
  top: "h_1"
}
layer {
  name: "lstm1_"
  type: "Split"
  bottom: "c_1"
  top: "c_T"
}
layer {
  name: "lstm1_h_concat"
  type: "Concat"
  bottom: "h_1"
  top: "h"
  concat_param {
    axis: 0
  }
}
layer {
  name: "h_pseudoloss"
  type: "Reduction"
  bottom: "h"
  top: "h_pseudoloss"
  loss_weight: 1
}
I0925 22:44:51.095701  9026 layer_factory.hpp:77] Creating layer lstm1_
I0925 22:44:51.095713  9026 net.cpp:91] Creating Layer lstm1_
I0925 22:44:51.095721  9026 net.cpp:399] lstm1_ -> x
I0925 22:44:51.095732  9026 net.cpp:399] lstm1_ -> cont
I0925 22:44:51.108378  9056 net.cpp:141] Setting up lstm2_W_xc_x_slice
I0925 22:44:51.108425  9056 net.cpp:148] Top shape: 1 1 4000 (4000)
I0925 22:44:51.108431  9056 net.cpp:156] Memory required for data: 46020
I0925 22:44:51.108440  9056 layer_factory.hpp:77] Creating layer lstm2_h_conted_0
I0925 22:44:51.108469  9056 net.cpp:91] Creating Layer lstm2_h_conted_0
I0925 22:44:51.108477  9056 net.cpp:425] lstm2_h_conted_0 <- h_0
I0925 22:44:51.108486  9056 net.cpp:425] lstm2_h_conted_0 <- cont_1_lstm2_cont_slice_0_split_0
I0925 22:44:51.108495  9056 net.cpp:399] lstm2_h_conted_0 -> h_conted_0
I0925 22:44:51.108590  9026 net.cpp:141] Setting up lstm1_
I0925 22:44:51.108629  9026 net.cpp:148] Top shape: 1 1 500 (500)
I0925 22:44:51.108636  9026 net.cpp:148] Top shape: 1 1 (1)
I0925 22:44:51.108641  9026 net.cpp:156] Memory required for data: 2004
I0925 22:44:51.108649  9026 layer_factory.hpp:77] Creating layer lstm1_
I0925 22:44:51.108669  9026 net.cpp:91] Creating Layer lstm1_
I0925 22:44:51.108682  9026 net.cpp:399] lstm1_ -> c_0
I0925 22:44:51.108700  9026 net.cpp:399] lstm1_ -> h_0
I0925 22:44:51.112850  9030 net.cpp:141] Setting up lstm1_
I0925 22:44:51.112922  9030 net.cpp:148] Top shape: 1 1 1000 (1000)
I0925 22:44:51.112946  9030 net.cpp:148] Top shape: 1 1 1000 (1000)
I0925 22:44:51.112959  9030 net.cpp:156] Memory required for data: 10004
I0925 22:44:51.112977  9030 layer_factory.hpp:77] Creating layer lstm1_cont_slice
I0925 22:44:51.113013  9030 net.cpp:91] Creating Layer lstm1_cont_slice
I0925 22:44:51.113032  9030 net.cpp:425] lstm1_cont_slice <- cont
I0925 22:44:51.113067  9030 net.cpp:399] lstm1_cont_slice -> cont_1
I0925 22:44:51.128314  9030 net.cpp:141] Setting up lstm1_cont_slice
I0925 22:44:51.128370  9030 net.cpp:148] Top shape: 1 1 (1)
I0925 22:44:51.128376  9030 net.cpp:156] Memory required for data: 10008
I0925 22:44:51.128388  9030 layer_factory.hpp:77] Creating layer cont_1_lstm1_cont_slice_0_split
I0925 22:44:51.128384  9026 net.cpp:141] Setting up lstm1_
I0925 22:44:51.128412  9030 net.cpp:91] Creating Layer cont_1_lstm1_cont_slice_0_split
I0925 22:44:51.128420  9030 net.cpp:425] cont_1_lstm1_cont_slice_0_split <- cont_1
I0925 22:44:51.128430  9026 net.cpp:148] Top shape: 1 1 1000 (1000)
I0925 22:44:51.128433  9030 net.cpp:399] cont_1_lstm1_cont_slice_0_split -> cont_1_lstm1_cont_slice_0_split_0
I0925 22:44:51.128448  9026 net.cpp:148] Top shape: 1 1 1000 (1000)
I0925 22:44:51.128458  9026 net.cpp:156] Memory required for data: 10004
I0925 22:44:51.128465  9030 net.cpp:399] cont_1_lstm1_cont_slice_0_split -> cont_1_lstm1_cont_slice_0_split_1
I0925 22:44:51.128453  9056 net.cpp:141] Setting up lstm2_h_conted_0
I0925 22:44:51.128474  9026 layer_factory.hpp:77] Creating layer lstm1_cont_slice
I0925 22:44:51.128496  9056 net.cpp:148] Top shape: 1 1 1000 (1000)
I0925 22:44:51.128504  9056 net.cpp:156] Memory required for data: 50020
I0925 22:44:51.128510  9056 layer_factory.hpp:77] Creating layer lstm2_transform_1
I0925 22:44:51.128515  9026 net.cpp:91] Creating Layer lstm1_cont_slice
I0925 22:44:51.128525  9026 net.cpp:425] lstm1_cont_slice <- cont
I0925 22:44:51.128535  9056 net.cpp:91] Creating Layer lstm2_transform_1
I0925 22:44:51.128540  9026 net.cpp:399] lstm1_cont_slice -> cont_1
I0925 22:44:51.128545  9056 net.cpp:425] lstm2_transform_1 <- h_conted_0
I0925 22:44:51.128556  9056 net.cpp:399] lstm2_transform_1 -> W_hc_h_0
I0925 22:44:51.128567  9030 net.cpp:141] Setting up cont_1_lstm1_cont_slice_0_split
I0925 22:44:51.128581  9030 net.cpp:148] Top shape: 1 1 (1)
I0925 22:44:51.128587  9030 net.cpp:148] Top shape: 1 1 (1)
I0925 22:44:51.128592  9030 net.cpp:156] Memory required for data: 10016
I0925 22:44:51.128597  9030 layer_factory.hpp:77] Creating layer lstm1_x_transform
I0925 22:44:51.128614  9030 net.cpp:91] Creating Layer lstm1_x_transform
I0925 22:44:51.128624  9030 net.cpp:425] lstm1_x_transform <- x
I0925 22:44:51.128629  9026 net.cpp:141] Setting up lstm1_cont_slice
I0925 22:44:51.128638  9030 net.cpp:399] lstm1_x_transform -> W_xc_x
I0925 22:44:51.128646  9026 net.cpp:148] Top shape: 1 1 (1)
I0925 22:44:51.128654  9026 net.cpp:156] Memory required for data: 10008
I0925 22:44:51.128661  9026 layer_factory.hpp:77] Creating layer cont_1_lstm1_cont_slice_0_split
I0925 22:44:51.128677  9026 net.cpp:91] Creating Layer cont_1_lstm1_cont_slice_0_split
I0925 22:44:51.128685  9026 net.cpp:425] cont_1_lstm1_cont_slice_0_split <- cont_1
I0925 22:44:51.128696  9026 net.cpp:399] cont_1_lstm1_cont_slice_0_split -> cont_1_lstm1_cont_slice_0_split_0
I0925 22:44:51.128710  9026 net.cpp:399] cont_1_lstm1_cont_slice_0_split -> cont_1_lstm1_cont_slice_0_split_1
I0925 22:44:51.145298  9026 net.cpp:141] Setting up cont_1_lstm1_cont_slice_0_split
I0925 22:44:51.145346  9026 net.cpp:148] Top shape: 1 1 (1)
I0925 22:44:51.145354  9026 net.cpp:148] Top shape: 1 1 (1)
I0925 22:44:51.145359  9026 net.cpp:156] Memory required for data: 10016
I0925 22:44:51.145366  9026 layer_factory.hpp:77] Creating layer lstm1_x_transform
I0925 22:44:51.145395  9026 net.cpp:91] Creating Layer lstm1_x_transform
I0925 22:44:51.145401  9026 net.cpp:425] lstm1_x_transform <- x
I0925 22:44:51.145413  9026 net.cpp:399] lstm1_x_transform -> W_xc_x
I0925 22:44:51.149814  9008 net.cpp:141] Setting up lstm1_transform_1
I0925 22:44:51.149863  9008 net.cpp:148] Top shape: 1 1 4000 (4000)
I0925 22:44:51.149873  9008 net.cpp:156] Memory required for data: 62016
I0925 22:44:51.149896  9008 layer_factory.hpp:77] Creating layer lstm1_gate_input_1
I0925 22:44:51.149927  9008 net.cpp:91] Creating Layer lstm1_gate_input_1
I0925 22:44:51.149937  9008 net.cpp:425] lstm1_gate_input_1 <- W_hc_h_0
I0925 22:44:51.149948  9008 net.cpp:425] lstm1_gate_input_1 <- W_xc_x_1
I0925 22:44:51.149963  9008 net.cpp:399] lstm1_gate_input_1 -> gate_input_1
I0925 22:44:51.150287  9018 net.cpp:141] Setting up lstm2_x_transform
I0925 22:44:51.150331  9018 net.cpp:148] Top shape: 1 1 4000 (4000)
I0925 22:44:51.150338  9018 net.cpp:156] Memory required for data: 30020
I0925 22:44:51.150363  9018 layer_factory.hpp:77] Creating layer lstm2_W_xc_x_slice
I0925 22:44:51.150384  9018 net.cpp:91] Creating Layer lstm2_W_xc_x_slice
I0925 22:44:51.150393  9018 net.cpp:425] lstm2_W_xc_x_slice <- W_xc_x
I0925 22:44:51.150406  9018 net.cpp:399] lstm2_W_xc_x_slice -> W_xc_x_1
I0925 22:44:51.150463  9018 net.cpp:141] Setting up lstm2_W_xc_x_slice
I0925 22:44:51.150477  9018 net.cpp:148] Top shape: 1 1 4000 (4000)
I0925 22:44:51.150485  9018 net.cpp:156] Memory required for data: 46020
I0925 22:44:51.150491  9018 layer_factory.hpp:77] Creating layer lstm2_h_conted_0
I0925 22:44:51.150532  9018 net.cpp:91] Creating Layer lstm2_h_conted_0
I0925 22:44:51.150540  9018 net.cpp:425] lstm2_h_conted_0 <- h_0
I0925 22:44:51.150549  9018 net.cpp:425] lstm2_h_conted_0 <- cont_1_lstm2_cont_slice_0_split_0
I0925 22:44:51.150560  9018 net.cpp:399] lstm2_h_conted_0 -> h_conted_0
I0925 22:44:51.150820  9018 net.cpp:141] Setting up lstm2_h_conted_0
I0925 22:44:51.150837  9018 net.cpp:148] Top shape: 1 1 1000 (1000)
I0925 22:44:51.150842  9018 net.cpp:156] Memory required for data: 50020
I0925 22:44:51.150847  9018 layer_factory.hpp:77] Creating layer lstm2_transform_1
I0925 22:44:51.150862  9018 net.cpp:91] Creating Layer lstm2_transform_1
I0925 22:44:51.150861  9008 net.cpp:141] Setting up lstm1_gate_input_1
I0925 22:44:51.150883  9018 net.cpp:425] lstm2_transform_1 <- h_conted_0
I0925 22:44:51.150893  9008 net.cpp:148] Top shape: 1 1 4000 (4000)
I0925 22:44:51.150900  9008 net.cpp:156] Memory required for data: 78016
I0925 22:44:51.150899  9018 net.cpp:399] lstm2_transform_1 -> W_hc_h_0
I0925 22:44:51.150918  9008 layer_factory.hpp:77] Creating layer lstm1_unit_1
I0925 22:44:51.150939  9008 net.cpp:91] Creating Layer lstm1_unit_1
I0925 22:44:51.150949  9008 net.cpp:425] lstm1_unit_1 <- c_0
I0925 22:44:51.150959  9008 net.cpp:425] lstm1_unit_1 <- gate_input_1
I0925 22:44:51.150967  9008 net.cpp:425] lstm1_unit_1 <- cont_1_lstm1_cont_slice_0_split_1
I0925 22:44:51.150979  9008 net.cpp:399] lstm1_unit_1 -> c_1
I0925 22:44:51.150992  9008 net.cpp:399] lstm1_unit_1 -> h_1
I0925 22:44:51.162664  9030 net.cpp:141] Setting up lstm1_x_transform
I0925 22:44:51.162719  9030 net.cpp:148] Top shape: 1 1 4000 (4000)
I0925 22:44:51.162727  9030 net.cpp:156] Memory required for data: 26016
I0925 22:44:51.162756  9030 layer_factory.hpp:77] Creating layer lstm1_W_xc_x_slice
…
I0925 22:44:51.648699  9026 net.cpp:399] lstm2_x_transform -> W_xc_x
I0925 22:44:51.664211  9012 net.cpp:141] Setting up lstm2_
I0925 22:44:51.664273  9012 net.cpp:148] Top shape: 1 1 1501 (1501)
I0925 22:44:51.664286  9012 net.cpp:148] Top shape: 1 1 (1)
I0925 22:44:51.664293  9012 net.cpp:156] Memory required for data: 6008
I0925 22:44:51.664306  9012 layer_factory.hpp:77] Creating layer lstm2_
I0925 22:44:51.664335  9012 net.cpp:91] Creating Layer lstm2_
I0925 22:44:51.664356  9012 net.cpp:399] lstm2_ -> c_0
I0925 22:44:51.664384  9012 net.cpp:399] lstm2_ -> h_0
I0925 22:44:51.664484  9012 net.cpp:141] Setting up lstm2_
I0925 22:44:51.664497  9012 net.cpp:148] Top shape: 1 1 1000 (1000)
I0925 22:44:51.664507  9012 net.cpp:148] Top shape: 1 1 1000 (1000)
I0925 22:44:51.664513  9012 net.cpp:156] Memory required for data: 14008
I0925 22:44:51.664521  9012 layer_factory.hpp:77] Creating layer lstm2_cont_slice
I0925 22:44:51.664541  9012 net.cpp:91] Creating Layer lstm2_cont_slice
I0925 22:44:51.664551  9012 net.cpp:425] lstm2_cont_slice <- cont
I0925 22:44:51.664562  9012 net.cpp:399] lstm2_cont_slice -> cont_1
I0925 22:44:51.664620  9012 net.cpp:141] Setting up lstm2_cont_slice
I0925 22:44:51.664633  9012 net.cpp:148] Top shape: 1 1 (1)
I0925 22:44:51.664640  9012 net.cpp:156] Memory required for data: 14012
I0925 22:44:51.664647  9012 layer_factory.hpp:77] Creating layer cont_1_lstm2_cont_slice_0_split
I0925 22:44:51.664660  9012 net.cpp:91] Creating Layer cont_1_lstm2_cont_slice_0_split
I0925 22:44:51.664667  9012 net.cpp:425] cont_1_lstm2_cont_slice_0_split <- cont_1
I0925 22:44:51.664682  9012 net.cpp:399] cont_1_lstm2_cont_slice_0_split -> cont_1_lstm2_cont_slice_0_split_0
I0925 22:44:51.664695  9012 net.cpp:399] cont_1_lstm2_cont_slice_0_split -> cont_1_lstm2_cont_slice_0_split_1
I0925 22:44:51.664770  9012 net.cpp:141] Setting up cont_1_lstm2_cont_slice_0_split
I0925 22:44:51.664783  9012 net.cpp:148] Top shape: 1 1 (1)
I0925 22:44:51.664793  9012 net.cpp:148] Top shape: 1 1 (1)
I0925 22:44:51.664799  9012 net.cpp:156] Memory required for data: 14020
I0925 22:44:51.664806  9012 layer_factory.hpp:77] Creating layer lstm2_x_transform
I0925 22:44:51.664831  9012 net.cpp:91] Creating Layer lstm2_x_transform
I0925 22:44:51.664841  9012 net.cpp:425] lstm2_x_transform <- x
I0925 22:44:51.664855  9012 net.cpp:399] lstm2_x_transform -> W_xc_x
I0925 22:44:51.689188  9008 net.cpp:141] Setting up lstm2_transform_1
I0925 22:44:51.689256  9008 net.cpp:148] Top shape: 1 1 4000 (4000)
I0925 22:44:51.689266  9008 net.cpp:156] Memory required for data: 66020
I0925 22:44:51.689296  9008 layer_factory.hpp:77] Creating layer lstm2_gate_input_1
I0925 22:44:51.689323  9008 net.cpp:91] Creating Layer lstm2_gate_input_1
I0925 22:44:51.689333  9008 net.cpp:425] lstm2_gate_input_1 <- W_hc_h_0
I0925 22:44:51.689344  9008 net.cpp:425] lstm2_gate_input_1 <- W_xc_x_1
I0925 22:44:51.689357  9008 net.cpp:399] lstm2_gate_input_1 -> gate_input_1
I0925 22:44:51.691165  9008 net.cpp:141] Setting up lstm2_gate_input_1
I0925 22:44:51.691191  9008 net.cpp:148] Top shape: 1 1 4000 (4000)
I0925 22:44:51.691200  9008 net.cpp:156] Memory required for data: 82020
I0925 22:44:51.691206  9008 layer_factory.hpp:77] Creating layer lstm2_unit_1
I0925 22:44:51.691220  9008 net.cpp:91] Creating Layer lstm2_unit_1
I0925 22:44:51.691225  9008 net.cpp:425] lstm2_unit_1 <- c_0
I0925 22:44:51.691231  9008 net.cpp:425] lstm2_unit_1 <- gate_input_1
I0925 22:44:51.691237  9008 net.cpp:425] lstm2_unit_1 <- cont_1_lstm2_cont_slice_0_split_1
I0925 22:44:51.691244  9008 net.cpp:399] lstm2_unit_1 -> c_1
I0925 22:44:51.691254  9008 net.cpp:399] lstm2_unit_1 -> h_1
I0925 22:44:51.691356  9030 net.cpp:141] Setting up lstm2_
I0925 22:44:51.691380  9030 net.cpp:148] Top shape: 1 1 1000 (1000)
I0925 22:44:51.691393  9030 net.cpp:148] Top shape: 1 1 1000 (1000)
I0925 22:44:51.691401  9030 net.cpp:156] Memory required for data: 14008
I0925 22:44:51.691413  9030 layer_factory.hpp:77] Creating layer lstm2_cont_slice
I0925 22:44:51.691431  9030 net.cpp:91] Creating Layer lstm2_cont_slice
I0925 22:44:51.691447  9030 net.cpp:425] lstm2_cont_slice <- cont
I0925 22:44:51.691467  9030 net.cpp:399] lstm2_cont_slice -> cont_1
I0925 22:44:51.691575  9008 net.cpp:141] Setting up lstm2_unit_1
I0925 22:44:51.691586  9008 net.cpp:148] Top shape: 1 1 1000 (1000)
I0925 22:44:51.691592  9008 net.cpp:148] Top shape: 1 1 1000 (1000)
I0925 22:44:51.691596  9008 net.cpp:156] Memory required for data: 90020
I0925 22:44:51.691601  9008 layer_factory.hpp:77] Creating layer lstm2_
I0925 22:44:51.691609  9008 net.cpp:91] Creating Layer lstm2_
I0925 22:44:51.691613  9008 net.cpp:425] lstm2_ <- c_1
I0925 22:44:51.691622  9008 net.cpp:399] lstm2_ -> c_T
I0925 22:44:51.691623  9030 net.cpp:141] Setting up lstm2_cont_slice
I0925 22:44:51.691638  9030 net.cpp:148] Top shape: 1 1 (1)
I0925 22:44:51.691645  9030 net.cpp:156] Memory required for data: 14012
I0925 22:44:51.691656  9030 layer_factory.hpp:77] Creating layer cont_1_lstm2_cont_slice_0_split
I0925 22:44:51.691673  9030 net.cpp:91] Creating Layer cont_1_lstm2_cont_slice_0_split
I0925 22:44:51.691686  9030 net.cpp:425] cont_1_lstm2_cont_slice_0_split <- cont_1
I0925 22:44:51.691696  9030 net.cpp:399] cont_1_lstm2_cont_slice_0_split -> cont_1_lstm2_cont_slice_0_split_0
I0925 22:44:51.691717  9030 net.cpp:399] cont_1_lstm2_cont_slice_0_split -> cont_1_lstm2_cont_slice_0_split_1
I0925 22:44:51.691767  9056 net.cpp:141] Setting up predict
I0925 22:44:51.691805  9008 net.cpp:141] Setting up lstm2_
I0925 22:44:51.691812  9056 net.cpp:148] Top shape: 1 1 46168 (46168)
I0925 22:44:51.691817  9008 net.cpp:148] Top shape: 1 1 1000 (1000)
I0925 22:44:51.691820  9056 net.cpp:156] Memory required for data: 221084
I0925 22:44:51.691823  9008 net.cpp:156] Memory required for data: 94020
I0925 22:44:51.691840  9008 layer_factory.hpp:77] Creating layer lstm2_h_concat
I0925 22:44:51.691846  9056 layer_factory.hpp:77] Creating layer probs
I0925 22:44:51.691854  9008 net.cpp:91] Creating Layer lstm2_h_concat
I0925 22:44:51.691859  9008 net.cpp:425] lstm2_h_concat <- h_1
I0925 22:44:51.691867  9008 net.cpp:399] lstm2_h_concat -> h
I0925 22:44:51.691869  9056 net.cpp:91] Creating Layer probs
I0925 22:44:51.691879  9056 net.cpp:425] probs <- predict
I0925 22:44:51.691892  9056 net.cpp:399] probs -> probs
I0925 22:44:51.691893  9030 net.cpp:141] Setting up cont_1_lstm2_cont_slice_0_split
I0925 22:44:51.691910  9030 net.cpp:148] Top shape: 1 1 (1)
I0925 22:44:51.691918  9030 net.cpp:148] Top shape: 1 1 (1)
I0925 22:44:51.691926  9030 net.cpp:156] Memory required for data: 14020
I0925 22:44:51.691931  9008 net.cpp:141] Setting up lstm2_h_concat
I0925 22:44:51.691936  9030 layer_factory.hpp:77] Creating layer lstm2_x_transform
I0925 22:44:51.691943  9008 net.cpp:148] Top shape: 1 1 1000 (1000)
I0925 22:44:51.691948  9008 net.cpp:156] Memory required for data: 98020
I0925 22:44:51.691953  9008 layer_factory.hpp:77] Creating layer h_pseudoloss
I0925 22:44:51.691963  9008 net.cpp:91] Creating Layer h_pseudoloss
I0925 22:44:51.691967  9008 net.cpp:425] h_pseudoloss <- h
I0925 22:44:51.691967  9030 net.cpp:91] Creating Layer lstm2_x_transform
I0925 22:44:51.691975  9030 net.cpp:425] lstm2_x_transform <- x
…
I0925 22:44:51.708894  9008 net.cpp:219] lstm2_ does not need backward computation.
I0925 22:44:51.708900  9008 net.cpp:261] This network produces output c_T
I0925 22:44:51.708910  9008 net.cpp:261] This network produces output h_pseudoloss
I0925 22:44:51.708940  9008 net.cpp:274] Network initialization done.
I0925 22:44:51.709018  9008 recurrent_layer.cpp:150] Adding parameter 0: W_xc
I0925 22:44:51.709028  9008 recurrent_layer.cpp:150] Adding parameter 1: b_c
I0925 22:44:51.709038  9008 recurrent_layer.cpp:150] Adding parameter 2: W_hc
I0925 22:44:51.709417  9008 net.cpp:141] Setting up lstm2
I0925 22:44:51.709435  9008 net.cpp:148] Top shape: 1 1 1000 (1000)
I0925 22:44:51.709444  9008 net.cpp:156] Memory required for data: 36412
I0925 22:44:51.709467  9008 layer_factory.hpp:77] Creating layer predict
I0925 22:44:51.709492  9008 net.cpp:91] Creating Layer predict
I0925 22:44:51.709502  9008 net.cpp:425] predict <- lstm2
I0925 22:44:51.709517  9008 net.cpp:399] predict -> predict
I0925 22:44:51.809537  9012 net.cpp:141] Setting up lstm2_x_transform
I0925 22:44:51.809598  9012 net.cpp:148] Top shape: 1 1 4000 (4000)
I0925 22:44:51.809589  9030 net.cpp:141] Setting up lstm2_x_transform
I0925 22:44:51.809607  9012 net.cpp:156] Memory required for data: 30020
I0925 22:44:51.809636  9030 net.cpp:148] Top shape: 1 1 4000 (4000)
I0925 22:44:51.809643  9030 net.cpp:156] Memory required for data: 30020
I0925 22:44:51.809662  9012 layer_factory.hpp:77] Creating layer lstm2_W_xc_x_slice
I0925 22:44:51.809666  9030 layer_factory.hpp:77] Creating layer lstm2_W_xc_x_slice
I0925 22:44:51.809687  9012 net.cpp:91] Creating Layer lstm2_W_xc_x_slice
I0925 22:44:51.809689  9030 net.cpp:91] Creating Layer lstm2_W_xc_x_slice
I0925 22:44:51.809698  9012 net.cpp:425] lstm2_W_xc_x_slice <- W_xc_x
I0925 22:44:51.809701  9030 net.cpp:425] lstm2_W_xc_x_slice <- W_xc_x
I0925 22:44:51.809698  9026 net.cpp:141] Setting up lstm2_x_transform
I0925 22:44:51.809715  9012 net.cpp:399] lstm2_W_xc_x_slice -> W_xc_x_1
I0925 22:44:51.809717  9030 net.cpp:399] lstm2_W_xc_x_slice -> W_xc_x_1
I0925 22:44:51.809722  9026 net.cpp:148] Top shape: 1 1 4000 (4000)
I0925 22:44:51.809731  9026 net.cpp:156] Memory required for data: 30020
I0925 22:44:51.809749  9026 layer_factory.hpp:77] Creating layer lstm2_W_xc_x_slice
I0925 22:44:51.809762  9026 net.cpp:91] Creating Layer lstm2_W_xc_x_slice
I0925 22:44:51.809772  9026 net.cpp:425] lstm2_W_xc_x_slice <- W_xc_x
I0925 22:44:51.809782  9026 net.cpp:399] lstm2_W_xc_x_slice -> W_xc_x_1
I0925 22:44:51.809849  9012 net.cpp:141] Setting up lstm2_W_xc_x_slice
I0925 22:44:51.809864  9012 net.cpp:148] Top shape: 1 1 4000 (4000)
I0925 22:44:51.809870  9012 net.cpp:156] Memory required for data: 46020
I0925 22:44:51.809878  9012 layer_factory.hpp:77] Creating layer lstm2_h_conted_0
I0925 22:44:51.809896  9012 net.cpp:91] Creating Layer lstm2_h_conted_0
I0925 22:44:51.809905  9012 net.cpp:425] lstm2_h_conted_0 <- h_0
I0925 22:44:51.809911  9030 net.cpp:141] Setting up lstm2_W_xc_x_slice
I0925 22:44:51.809913  9012 net.cpp:425] lstm2_h_conted_0 <- cont_1_lstm2_cont_slice_0_split_0
I0925 22:44:51.809936  9030 net.cpp:148] Top shape: 1 1 4000 (4000)
I0925 22:44:51.809942  9030 net.cpp:156] Memory required for data: 46020
I0925 22:44:51.809948  9026 net.cpp:141] Setting up lstm2_W_xc_x_slice
I0925 22:44:51.809947  9012 net.cpp:399] lstm2_h_conted_0 -> h_conted_0
I0925 22:44:51.809947  9030 layer_factory.hpp:77] Creating layer lstm2_h_conted_0
I0925 22:44:51.809964  9026 net.cpp:148] Top shape: 1 1 4000 (4000)
I0925 22:44:51.809979  9026 net.cpp:156] Memory required for data: 46020
I0925 22:44:51.809983  9030 net.cpp:91] Creating Layer lstm2_h_conted_0
I0925 22:44:51.809988  9030 net.cpp:425] lstm2_h_conted_0 <- h_0
I0925 22:44:51.809988  9026 layer_factory.hpp:77] Creating layer lstm2_h_conted_0
I0925 22:44:51.810004  9030 net.cpp:425] lstm2_h_conted_0 <- cont_1_lstm2_cont_slice_0_split_0
I0925 22:44:51.810010  9026 net.cpp:91] Creating Layer lstm2_h_conted_0
I0925 22:44:51.810015  9030 net.cpp:399] lstm2_h_conted_0 -> h_conted_0
I0925 22:44:51.810019  9026 net.cpp:425] lstm2_h_conted_0 <- h_0
I0925 22:44:51.810029  9026 net.cpp:425] lstm2_h_conted_0 <- cont_1_lstm2_cont_slice_0_split_0
I0925 22:44:51.810039  9026 net.cpp:399] lstm2_h_conted_0 -> h_conted_0
I0925 22:44:51.810053  9018 net.cpp:141] Setting up predict
I0925 22:44:51.810075  9018 net.cpp:148] Top shape: 1 1 46168 (46168)
I0925 22:44:51.810080  9018 net.cpp:156] Memory required for data: 221084
I0925 22:44:51.810093  9018 layer_factory.hpp:77] Creating layer probs
I0925 22:44:51.810106  9018 net.cpp:91] Creating Layer probs
I0925 22:44:51.810112  9018 net.cpp:425] probs <- predict
I0925 22:44:51.810122  9018 net.cpp:399] probs -> probs
I0925 22:44:51.810245  9030 net.cpp:141] Setting up lstm2_h_conted_0
I0925 22:44:51.810256  9030 net.cpp:148] Top shape: 1 1 1000 (1000)
I0925 22:44:51.810261  9030 net.cpp:156] Memory required for data: 50020
I0925 22:44:51.810266  9030 layer_factory.hpp:77] Creating layer lstm2_transform_1
I0925 22:44:51.810279  9030 net.cpp:91] Creating Layer lstm2_transform_1
I0925 22:44:51.810286  9030 net.cpp:425] lstm2_transform_1 <- h_conted_0
I0925 22:44:51.810293  9030 net.cpp:399] lstm2_transform_1 -> W_hc_h_0
I0925 22:44:51.810366  9026 net.cpp:141] Setting up lstm2_h_conted_0
I0925 22:44:51.810381  9026 net.cpp:148] Top shape: 1 1 1000 (1000)
I0925 22:44:51.810389  9026 net.cpp:156] Memory required for data: 50020
I0925 22:44:51.810395  9026 layer_factory.hpp:77] Creating layer lstm2_transform_1
I0925 22:44:51.810410  9026 net.cpp:91] Creating Layer lstm2_transform_1
I0925 22:44:51.810417  9026 net.cpp:425] lstm2_transform_1 <- h_conted_0
I0925 22:44:51.810428  9026 net.cpp:399] lstm2_transform_1 -> W_hc_h_0
I0925 22:44:51.810581  9012 net.cpp:141] Setting up lstm2_h_conted_0
I0925 22:44:51.810611  9012 net.cpp:148] Top shape: 1 1 1000 (1000)
I0925 22:44:51.810618  9012 net.cpp:156] Memory required for data: 50020
I0925 22:44:51.810626  9012 layer_factory.hpp:77] Creating layer lstm2_transform_1
I0925 22:44:51.810642  9012 net.cpp:91] Creating Layer lstm2_transform_1
I0925 22:44:51.810649  9012 net.cpp:425] lstm2_transform_1 <- h_conted_0
I0925 22:44:51.810662  9012 net.cpp:399] lstm2_transform_1 -> W_hc_h_0
I0925 22:44:51.866161  9030 net.cpp:141] Setting up lstm2_transform_1
I0925 22:44:51.866646  9030 net.cpp:148] Top shape: 1 1 4000 (4000)
I0925 22:44:51.866791  9030 net.cpp:156] Memory required for data: 66020
I0925 22:44:51.866925  9030 layer_factory.hpp:77] Creating layer lstm2_gate_input_1
I0925 22:44:51.867063  9030 net.cpp:91] Creating Layer lstm2_gate_input_1
I0925 22:44:51.867230  9030 net.cpp:425] lstm2_gate_input_1 <- W_hc_h_0
I0925 22:44:51.867354  9030 net.cpp:425] lstm2_gate_input_1 <- W_xc_x_1
I0925 22:44:51.867478  9030 net.cpp:399] lstm2_gate_input_1 -> gate_input_1
I0925 22:44:51.871577  9030 net.cpp:141] Setting up lstm2_gate_input_1
I0925 22:44:51.871879  9030 net.cpp:148] Top shape: 1 1 4000 (4000)
I0925 22:44:51.872011  9030 net.cpp:156] Memory required for data: 82020
I0925 22:44:51.872180  9030 layer_factory.hpp:77] Creating layer lstm2_unit_1
I0925 22:44:51.872349  9030 net.cpp:91] Creating Layer lstm2_unit_1
I0925 22:44:51.872473  9030 net.cpp:425] lstm2_unit_1 <- c_0
I0925 22:44:51.872598  9030 net.cpp:425] lstm2_unit_1 <- gate_input_1
I0925 22:44:51.872720  9030 net.cpp:425] lstm2_unit_1 <- cont_1_lstm2_cont_slice_0_split_1
I0925 22:44:51.872864  9030 net.cpp:399] lstm2_unit_1 -> c_1
I0925 22:44:51.872997  9030 net.cpp:399] lstm2_unit_1 -> h_1
I0925 22:44:51.883749  9012 net.cpp:141] Setting up lstm2_transform_1
I0925 22:44:51.884284  9012 net.cpp:148] Top shape: 1 1 4000 (4000)
I0925 22:44:51.884466  9012 net.cpp:156] Memory required for data: 66020
I0925 22:44:51.884614  9012 layer_factory.hpp:77] Creating layer lstm2_gate_input_1
I0925 22:44:51.884763  9012 net.cpp:91] Creating Layer lstm2_gate_input_1
I0925 22:44:51.884852  9012 net.cpp:425] lstm2_gate_input_1 <- W_hc_h_0
I0925 22:44:51.884912  9012 net.cpp:425] lstm2_gate_input_1 <- W_xc_x_1
I0925 22:44:51.884930  9012 net.cpp:399] lstm2_gate_input_1 -> gate_input_1
I0925 22:44:51.893091  9026 net.cpp:141] Setting up lstm2_transform_1
I0925 22:44:51.893110  9012 net.cpp:141] Setting up lstm2_gate_input_1
I0925 22:44:51.893214  9030 net.cpp:141] Setting up lstm2_unit_1
I0925 22:44:51.893653  9012 net.cpp:148] Top shape: 1 1 4000 (4000)
I0925 22:44:51.893662  9012 net.cpp:156] Memory required for data: 82020
I0925 22:44:51.893664  9030 net.cpp:148] Top shape: 1 1 1000 (1000)
I0925 22:44:51.893672  9012 layer_factory.hpp:77] Creating layer lstm2_unit_1
I0925 22:44:51.893678  9030 net.cpp:148] Top shape: 1 1 1000 (1000)
I0925 22:44:51.893687  9030 net.cpp:156] Memory required for data: 90020
I0925 22:44:51.893690  9012 net.cpp:91] Creating Layer lstm2_unit_1
I0925 22:44:51.893695  9030 layer_factory.hpp:77] Creating layer lstm2_
I0925 22:44:51.893698  9012 net.cpp:425] lstm2_unit_1 <- c_0
I0925 22:44:51.893724  9012 net.cpp:425] lstm2_unit_1 <- gate_input_1
I0925 22:44:51.893723  9030 net.cpp:91] Creating Layer lstm2_
I0925 22:44:51.893738  9012 net.cpp:425] lstm2_unit_1 <- cont_1_lstm2_cont_slice_0_split_1
I0925 22:44:51.893743  9030 net.cpp:425] lstm2_ <- c_1
I0925 22:44:51.893746  9012 net.cpp:399] lstm2_unit_1 -> c_1
I0925 22:44:51.893757  9030 net.cpp:399] lstm2_ -> c_T
I0925 22:44:51.893766  9012 net.cpp:399] lstm2_unit_1 -> h_1
I0925 22:44:51.893992  9030 net.cpp:141] Setting up lstm2_
I0925 22:44:51.894033  9030 net.cpp:148] Top shape: 1 1 1000 (1000)
I0925 22:44:51.894044  9030 net.cpp:156] Memory required for data: 94020
I0925 22:44:51.894053  9030 layer_factory.hpp:77] Creating layer lstm2_h_concat
I0925 22:44:51.894078  9030 net.cpp:91] Creating Layer lstm2_h_concat
I0925 22:44:51.894088  9030 net.cpp:425] lstm2_h_concat <- h_1
I0925 22:44:51.894091  9012 net.cpp:141] Setting up lstm2_unit_1
I0925 22:44:51.894101  9030 net.cpp:399] lstm2_h_concat -> h
I0925 22:44:51.894105  9012 net.cpp:148] Top shape: 1 1 1000 (1000)
I0925 22:44:51.894112  9012 net.cpp:148] Top shape: 1 1 1000 (1000)
I0925 22:44:51.894116  9012 net.cpp:156] Memory required for data: 90020
I0925 22:44:51.894122  9012 layer_factory.hpp:77] Creating layer lstm2_
I0925 22:44:51.894134  9012 net.cpp:91] Creating Layer lstm2_
I0925 22:44:51.894140  9012 net.cpp:425] lstm2_ <- c_1
I0925 22:44:51.894146  9012 net.cpp:399] lstm2_ -> c_T
I0925 22:44:51.894184  9030 net.cpp:141] Setting up lstm2_h_concat
I0925 22:44:51.894199  9030 net.cpp:148] Top shape: 1 1 1000 (1000)
I0925 22:44:51.894204  9030 net.cpp:156] Memory required for data: 98020
I0925 22:44:51.894209  9030 layer_factory.hpp:77] Creating layer h_pseudoloss
I0925 22:44:51.894220  9030 net.cpp:91] Creating Layer h_pseudoloss
I0925 22:44:51.894225  9030 net.cpp:425] h_pseudoloss <- h
I0925 22:44:51.894227  9012 net.cpp:141] Setting up lstm2_
I0925 22:44:51.894239  9012 net.cpp:148] Top shape: 1 1 1000 (1000)
I0925 22:44:51.894251  9012 net.cpp:156] Memory required for data: 94020
I0925 22:44:51.894237  9030 net.cpp:399] h_pseudoloss -> h_pseudoloss
I0925 22:44:51.894256  9012 layer_factory.hpp:77] Creating layer lstm2_h_concat
I0925 22:44:51.894282  9012 net.cpp:91] Creating Layer lstm2_h_concat
I0925 22:44:51.894289  9012 net.cpp:425] lstm2_h_concat <- h_1
I0925 22:44:51.894299  9012 net.cpp:399] lstm2_h_concat -> h
I0925 22:44:51.895165  9012 net.cpp:141] Setting up lstm2_h_concat
I0925 22:44:51.895190  9012 net.cpp:148] Top shape: 1 1 1000 (1000)
I0925 22:44:51.895200  9012 net.cpp:156] Memory required for data: 98020
I0925 22:44:51.895210  9012 layer_factory.hpp:77] Creating layer h_pseudoloss
I0925 22:44:51.895227  9012 net.cpp:91] Creating Layer h_pseudoloss
I0925 22:44:51.895216  9030 net.cpp:141] Setting up h_pseudoloss
I0925 22:44:51.895238  9012 net.cpp:425] h_pseudoloss <- h
I0925 22:44:51.895259  9030 net.cpp:148] Top shape: (1)
…
I0925 22:44:51.895411  9030 net.cpp:219] lstm2_ does not need backward computation.
I0925 22:44:51.895419  9030 net.cpp:219] lstm2_ does not need backward computation.
I0925 22:44:51.895427  9030 net.cpp:261] This network produces output c_T
I0925 22:44:51.895438  9030 net.cpp:261] This network produces output h_pseudoloss
I0925 22:44:51.895467  9030 net.cpp:274] Network initialization done.
I0925 22:44:51.895577  9030 recurrent_layer.cpp:150] Adding parameter 0: W_xc
I0925 22:44:51.895591  9030 recurrent_layer.cpp:150] Adding parameter 1: b_c
I0925 22:44:51.895601  9030 recurrent_layer.cpp:150] Adding parameter 2: W_hc
I0925 22:44:51.893620  9026 net.cpp:148] Top shape: 1 1 4000 (4000)
I0925 22:44:51.898500  9026 net.cpp:156] Memory required for data: 66020
I0925 22:44:51.898531  9026 layer_factory.hpp:77] Creating layer lstm2_gate_input_1
I0925 22:44:51.898561  9026 net.cpp:91] Creating Layer lstm2_gate_input_1
I0925 22:44:51.898571  9026 net.cpp:425] lstm2_gate_input_1 <- W_hc_h_0
I0925 22:44:51.898582  9026 net.cpp:425] lstm2_gate_input_1 <- W_xc_x_1
I0925 22:44:51.898605  9026 net.cpp:399] lstm2_gate_input_1 -> gate_input_1
I0925 22:44:51.901731  9026 net.cpp:141] Setting up lstm2_gate_input_1
I0925 22:44:51.901758  9026 net.cpp:148] Top shape: 1 1 4000 (4000)
I0925 22:44:51.901767  9026 net.cpp:156] Memory required for data: 82020
I0925 22:44:51.901774  9026 layer_factory.hpp:77] Creating layer lstm2_unit_1
I0925 22:44:51.901788  9026 net.cpp:91] Creating Layer lstm2_unit_1
I0925 22:44:51.901796  9026 net.cpp:425] lstm2_unit_1 <- c_0
I0925 22:44:51.901806  9026 net.cpp:425] lstm2_unit_1 <- gate_input_1
I0925 22:44:51.901815  9026 net.cpp:425] lstm2_unit_1 <- cont_1_lstm2_cont_slice_0_split_1
I0925 22:44:51.901825  9026 net.cpp:399] lstm2_unit_1 -> c_1
I0925 22:44:51.901839  9026 net.cpp:399] lstm2_unit_1 -> h_1
I0925 22:44:51.901870  9012 net.cpp:141] Setting up h_pseudoloss
I0925 22:44:51.901895  9012 net.cpp:148] Top shape: (1)
I0925 22:44:51.901904  9012 net.cpp:151]     with loss weight 1
I0925 22:44:51.901931  9012 net.cpp:156] Memory required for data: 98024
I0925 22:44:51.901942  9012 net.cpp:217] h_pseudoloss needs backward computation.
I0925 22:44:51.901952  9012 net.cpp:217] lstm2_h_concat needs backward computation.
I0925 22:44:51.901962  9012 net.cpp:219] lstm2_ does not need backward computation.
I0925 22:44:51.901965  9026 net.cpp:141] Setting up lstm2_unit_1
I0925 22:44:51.901970  9012 net.cpp:217] lstm2_unit_1 needs backward computation.
I0925 22:44:51.901980  9026 net.cpp:148] Top shape: 1 1 1000 (1000)
I0925 22:44:51.901983  9012 net.cpp:217] lstm2_gate_input_1 needs backward computation.
I0925 22:44:51.901990  9026 net.cpp:148] Top shape: 1 1 1000 (1000)
I0925 22:44:51.901995  9012 net.cpp:217] lstm2_transform_1 needs backward computation.
I0925 22:44:51.901998  9026 net.cpp:156] Memory required for data: 90020
I0925 22:44:51.902014  9012 net.cpp:219] lstm2_h_conted_0 does not need backward computation.
I0925 22:44:51.902019  9026 layer_factory.hpp:77] Creating layer lstm2_
I0925 22:44:51.902029  9012 net.cpp:217] lstm2_W_xc_x_slice needs backward computation.
I0925 22:44:51.902035  9026 net.cpp:91] Creating Layer lstm2_
I0925 22:44:51.902040  9012 net.cpp:217] lstm2_x_transform needs backward computation.
I0925 22:44:51.902045  9026 net.cpp:425] lstm2_ <- c_1
I0925 22:44:51.902055  9026 net.cpp:399] lstm2_ -> c_T
I0925 22:44:51.902052  9012 net.cpp:219] cont_1_lstm2_cont_slice_0_split does not need backward computation.
I0925 22:44:51.902070  9012 net.cpp:219] lstm2_cont_slice does not need backward computation.
I0925 22:44:51.902081  9012 net.cpp:219] lstm2_ does not need backward computation.
I0925 22:44:51.902091  9012 net.cpp:219] lstm2_ does not need backward computation.
I0925 22:44:51.902096  9012 net.cpp:261] This network produces output c_T
I0925 22:44:51.902106  9012 net.cpp:261] This network produces output h_pseudoloss
I0925 22:44:51.902117  9026 net.cpp:141] Setting up lstm2_
I0925 22:44:51.902127  9012 net.cpp:274] Network initialization done.
I0925 22:44:51.902130  9026 net.cpp:148] Top shape: 1 1 1000 (1000)
I0925 22:44:51.902137  9026 net.cpp:156] Memory required for data: 94020
I0925 22:44:51.902144  9026 layer_factory.hpp:77] Creating layer lstm2_h_concat
I0925 22:44:51.902158  9026 net.cpp:91] Creating Layer lstm2_h_concat
I0925 22:44:51.902165  9026 net.cpp:425] lstm2_h_concat <- h_1
I0925 22:44:51.902179  9026 net.cpp:399] lstm2_h_concat -> h
I0925 22:44:51.902189  9012 recurrent_layer.cpp:150] Adding parameter 0: W_xc
I0925 22:44:51.902200  9012 recurrent_layer.cpp:150] Adding parameter 1: b_c
I0925 22:44:51.902199  9030 net.cpp:141] Setting up lstm2
I0925 22:44:51.902233  9012 recurrent_layer.cpp:150] Adding parameter 2: W_hc
I0925 22:44:51.902256  9030 net.cpp:148] Top shape: 1 1 1000 (1000)
I0925 22:44:51.902266  9030 net.cpp:156] Memory required for data: 36412
I0925 22:44:51.902271  9026 net.cpp:141] Setting up lstm2_h_concat
I0925 22:44:51.902288  9026 net.cpp:148] Top shape: 1 1 1000 (1000)
I0925 22:44:51.902295  9026 net.cpp:156] Memory required for data: 98020
I0925 22:44:51.902302  9026 layer_factory.hpp:77] Creating layer h_pseudoloss
I0925 22:44:51.902314  9026 net.cpp:91] Creating Layer h_pseudoloss
I0925 22:44:51.902323  9026 net.cpp:425] h_pseudoloss <- h
I0925 22:44:51.902333  9026 net.cpp:399] h_pseudoloss -> h_pseudoloss
I0925 22:44:51.902381  9030 layer_factory.hpp:77] Creating layer predict
I0925 22:44:51.902413  9030 net.cpp:91] Creating Layer predict
I0925 22:44:51.902427  9030 net.cpp:425] predict <- lstm2
I0925 22:44:51.902446  9030 net.cpp:399] predict -> predict
I0925 22:44:51.902477  9012 net.cpp:141] Setting up lstm2
I0925 22:44:51.902489  9012 net.cpp:148] Top shape: 1 1 1000 (1000)
I0925 22:44:51.902494  9012 net.cpp:156] Memory required for data: 36412
I0925 22:44:51.902518  9012 layer_factory.hpp:77] Creating layer predict
I0925 22:44:51.902539  9012 net.cpp:91] Creating Layer predict
I0925 22:44:51.902549  9012 net.cpp:425] predict <- lstm2
I0925 22:44:51.902564  9012 net.cpp:399] predict -> predict
I0925 22:44:51.902688  9026 net.cpp:141] Setting up h_pseudoloss
…
I0925 22:44:51.902847  9026 net.cpp:261] This network produces output h_pseudoloss
I0925 22:44:51.902868  9026 net.cpp:274] Network initialization done.
I0925 22:44:51.902930  9026 recurrent_layer.cpp:150] Adding parameter 0: W_xc
I0925 22:44:51.902938  9026 recurrent_layer.cpp:150] Adding parameter 1: b_c
I0925 22:44:51.902945  9026 recurrent_layer.cpp:150] Adding parameter 2: W_hc
I0925 22:44:52.065467  9026 net.cpp:141] Setting up lstm2
I0925 22:44:52.065795  9046 net.cpp:141] Setting up predict
I0925 22:44:52.065868  9014 net.cpp:141] Setting up predict
I0925 22:44:52.065892  9046 net.cpp:148] Top shape: 1 1 46168 (46168)
I0925 22:44:52.065893  9014 net.cpp:148] Top shape: 1 1 46168 (46168)
I0925 22:44:52.065917  9046 net.cpp:156] Memory required for data: 221084
I0925 22:44:52.065922  9014 net.cpp:156] Memory required for data: 221084
I0925 22:44:52.065940  9046 layer_factory.hpp:77] Creating layer probs
I0925 22:44:52.065942  9014 layer_factory.hpp:77] Creating layer probs
I0925 22:44:52.065973  9014 net.cpp:91] Creating Layer probs
I0925 22:44:52.065974  9046 net.cpp:91] Creating Layer probs
I0925 22:44:52.065992  9014 net.cpp:425] probs <- predict
I0925 22:44:52.065997  9046 net.cpp:425] probs <- predict
I0925 22:44:52.066012  9014 net.cpp:399] probs -> probs
I0925 22:44:52.066014  9046 net.cpp:399] probs -> probs
I0925 22:44:52.066778  9026 net.cpp:148] Top shape: 1 1 1000 (1000)
I0925 22:44:52.066892  9026 net.cpp:156] Memory required for data: 36412
I0925 22:44:52.067023  9026 layer_factory.hpp:77] Creating layer predict
I0925 22:44:52.067195  9026 net.cpp:91] Creating Layer predict
I0925 22:44:52.067311  9026 net.cpp:425] predict <- lstm2
I0925 22:44:52.067428  9026 net.cpp:399] predict -> predict
I0925 22:44:52.218482  9008 net.cpp:141] Setting up predict
I0925 22:44:52.218967  9008 net.cpp:148] Top shape: 1 1 46168 (46168)
I0925 22:44:52.218981  9008 net.cpp:156] Memory required for data: 221084
I0925 22:44:52.218997  9008 layer_factory.hpp:77] Creating layer probs
I0925 22:44:52.219015  9008 net.cpp:91] Creating Layer probs
I0925 22:44:52.219022  9008 net.cpp:425] probs <- predict
I0925 22:44:52.219033  9008 net.cpp:399] probs -> probs
I0925 22:44:52.342813  9018 net.cpp:141] Setting up probs
I0925 22:44:52.342866  9018 net.cpp:148] Top shape: 1 1 46168 (46168)
I0925 22:44:52.342877  9018 net.cpp:156] Memory required for data: 405756
I0925 22:44:52.342890  9018 net.cpp:219] probs does not need backward computation.
I0925 22:44:52.342900  9018 net.cpp:219] predict does not need backward computation.
I0925 22:44:52.342912  9018 net.cpp:219] lstm2 does not need backward computation.
I0925 22:44:52.342923  9018 net.cpp:219] concat does not need backward computation.
I0925 22:44:52.342933  9018 net.cpp:219] lstm1 does not need backward computation.
I0925 22:44:52.342947  9018 net.cpp:219] embedding does not need backward computation.
I0925 22:44:52.342957  9018 net.cpp:219] reshape_stage_indicator does not need backward computation.
I0925 22:44:52.342965  9018 net.cpp:219] reshape_frames does not need backward computation.
I0925 22:44:52.342973  9018 net.cpp:219] embed_encoder does not need backward computation.
I0925 22:44:52.342986  9018 net.cpp:219] cont_sentence_input_1_split does not need backward computation.
I0925 22:44:52.342996  9018 net.cpp:219] input does not need backward computation.
I0925 22:44:52.343003  9018 net.cpp:261] This network produces output probs
I0925 22:44:52.343034  9018 net.cpp:274] Network initialization done.
I0925 22:44:52.352305  9008 net.cpp:141] Setting up probs
I0925 22:44:52.352375  9008 net.cpp:148] Top shape: 1 1 46168 (46168)
I0925 22:44:52.352385  9008 net.cpp:156] Memory required for data: 405756
I0925 22:44:52.352397  9008 net.cpp:219] probs does not need backward computation.
I0925 22:44:52.352409  9008 net.cpp:219] predict does not need backward computation.
I0925 22:44:52.352418  9008 net.cpp:219] lstm2 does not need backward computation.
I0925 22:44:52.352427  9008 net.cpp:219] concat does not need backward computation.
I0925 22:44:52.352438  9008 net.cpp:219] lstm1 does not need backward computation.
I0925 22:44:52.352450  9008 net.cpp:219] embedding does not need backward computation.
I0925 22:44:52.352458  9008 net.cpp:219] reshape_stage_indicator does not need backward computation.
I0925 22:44:52.352466  9008 net.cpp:219] reshape_frames does not need backward computation.
I0925 22:44:52.352478  9008 net.cpp:219] embed_encoder does not need backward computation.
I0925 22:44:52.352486  9008 net.cpp:219] cont_sentence_input_1_split does not need backward computation.
I0925 22:44:52.352496  9008 net.cpp:219] input does not need backward computation.
I0925 22:44:52.352504  9008 net.cpp:261] This network produces output probs
I0925 22:44:52.352533  9008 net.cpp:274] Network initialization done.
I0925 22:44:52.353150  9046 net.cpp:141] Setting up probs
I0925 22:44:52.353212  9046 net.cpp:148] Top shape: 1 1 46168 (46168)
I0925 22:44:52.353224  9046 net.cpp:156] Memory required for data: 405756
I0925 22:44:52.353240  9046 net.cpp:219] probs does not need backward computation.
I0925 22:44:52.353252  9046 net.cpp:219] predict does not need backward computation.
I0925 22:44:52.353267  9046 net.cpp:219] lstm2 does not need backward computation.
I0925 22:44:52.353283  9046 net.cpp:219] concat does not need backward computation.
I0925 22:44:52.353302  9046 net.cpp:219] lstm1 does not need backward computation.
I0925 22:44:52.353317  9046 net.cpp:219] embedding does not need backward computation.
I0925 22:44:52.353327  9046 net.cpp:219] reshape_stage_indicator does not need backward computation.
I0925 22:44:52.353361  9046 net.cpp:219] reshape_frames does not need backward computation.
I0925 22:44:52.353375  9046 net.cpp:219] embed_encoder does not need backward computation.
I0925 22:44:52.353381  9046 net.cpp:219] cont_sentence_input_1_split does not need backward computation.
I0925 22:44:52.353389  9046 net.cpp:219] input does not need backward computation.
I0925 22:44:52.353394  9046 net.cpp:261] This network produces output probs
I0925 22:44:52.353426  9046 net.cpp:274] Network initialization done.
I0925 22:44:52.353468  9056 net.cpp:141] Setting up probs
I0925 22:44:52.353487  9056 net.cpp:148] Top shape: 1 1 46168 (46168)
I0925 22:44:52.353493  9056 net.cpp:156] Memory required for data: 405756
I0925 22:44:52.353502  9056 net.cpp:219] probs does not need backward computation.
I0925 22:44:52.353512  9056 net.cpp:219] predict does not need backward computation.
I0925 22:44:52.353519  9056 net.cpp:219] lstm2 does not need backward computation.
I0925 22:44:52.353529  9056 net.cpp:219] concat does not need backward computation.
I0925 22:44:52.353539  9056 net.cpp:219] lstm1 does not need backward computation.
I0925 22:44:52.353549  9056 net.cpp:219] embedding does not need backward computation.
I0925 22:44:52.353557  9056 net.cpp:219] reshape_stage_indicator does not need backward computation.
I0925 22:44:52.353565  9056 net.cpp:219] reshape_frames does not need backward computation.
I0925 22:44:52.353574  9056 net.cpp:219] embed_encoder does not need backward computation.
I0925 22:44:52.353581  9056 net.cpp:219] cont_sentence_input_1_split does not need backward computation.
I0925 22:44:52.353590  9056 net.cpp:219] input does not need backward computation.
I0925 22:44:52.353597  9056 net.cpp:261] This network produces output probs
I0925 22:44:52.353623  9056 net.cpp:274] Network initialization done.
I0925 22:44:52.355273  9014 net.cpp:141] Setting up probs
I0925 22:44:52.355303  9014 net.cpp:148] Top shape: 1 1 46168 (46168)
I0925 22:44:52.355307  9014 net.cpp:156] Memory required for data: 405756
I0925 22:44:52.355314  9014 net.cpp:219] probs does not need backward computation.
I0925 22:44:52.355321  9014 net.cpp:219] predict does not need backward computation.
I0925 22:44:52.355326  9014 net.cpp:219] lstm2 does not need backward computation.
I0925 22:44:52.355331  9014 net.cpp:219] concat does not need backward computation.
I0925 22:44:52.355339  9014 net.cpp:219] lstm1 does not need backward computation.
I0925 22:44:52.355408  9014 net.cpp:219] embedding does not need backward computation.
I0925 22:44:52.355427  9014 net.cpp:219] reshape_stage_indicator does not need backward computation.
I0925 22:44:52.355437  9014 net.cpp:219] reshape_frames does not need backward computation.
I0925 22:44:52.355446  9014 net.cpp:219] embed_encoder does not need backward computation.
I0925 22:44:52.355458  9014 net.cpp:219] cont_sentence_input_1_split does not need backward computation.
I0925 22:44:52.355469  9014 net.cpp:219] input does not need backward computation.
I0925 22:44:52.355479  9014 net.cpp:261] This network produces output probs
I0925 22:44:52.355506  9014 net.cpp:274] Network initialization done.
I0925 22:44:52.356701  9048 net.cpp:141] Setting up conv1
I0925 22:44:52.356722  9048 net.cpp:148] Top shape: 10 96 55 55 (2904000)
I0925 22:44:52.356729  9048 net.cpp:156] Memory required for data: 17799480
I0925 22:44:52.356751  9048 layer_factory.hpp:77] Creating layer relu1
I0925 22:44:52.356770  9048 net.cpp:91] Creating Layer relu1
I0925 22:44:52.356776  9048 net.cpp:425] relu1 <- conv1
I0925 22:44:52.356786  9048 net.cpp:386] relu1 -> conv1 (in-place)
I0925 22:44:52.357230  9048 net.cpp:141] Setting up relu1
I0925 22:44:52.357244  9048 net.cpp:148] Top shape: 10 96 55 55 (2904000)
I0925 22:44:52.357249  9048 net.cpp:156] Memory required for data: 29415480
I0925 22:44:52.357255  9048 layer_factory.hpp:77] Creating layer pool1
I0925 22:44:52.357270  9048 net.cpp:91] Creating Layer pool1
I0925 22:44:52.357275  9048 net.cpp:425] pool1 <- conv1
I0925 22:44:52.357282  9048 net.cpp:399] pool1 -> pool1
I0925 22:44:52.357364  9048 net.cpp:141] Setting up pool1
I0925 22:44:52.357375  9048 net.cpp:148] Top shape: 10 96 27 27 (699840)
I0925 22:44:52.357380  9048 net.cpp:156] Memory required for data: 32214840
I0925 22:44:52.357385  9048 layer_factory.hpp:77] Creating layer norm1
I0925 22:44:52.357403  9048 net.cpp:91] Creating Layer norm1
I0925 22:44:52.357409  9048 net.cpp:425] norm1 <- pool1
I0925 22:44:52.357416  9048 net.cpp:399] norm1 -> norm1
I0925 22:44:52.357692  9048 net.cpp:141] Setting up norm1
I0925 22:44:52.357704  9048 net.cpp:148] Top shape: 10 96 27 27 (699840)
I0925 22:44:52.357709  9048 net.cpp:156] Memory required for data: 35014200
I0925 22:44:52.357717  9048 layer_factory.hpp:77] Creating layer conv2
I0925 22:44:52.357733  9048 net.cpp:91] Creating Layer conv2
I0925 22:44:52.357739  9048 net.cpp:425] conv2 <- norm1
I0925 22:44:52.357746  9048 net.cpp:399] conv2 -> conv2
I0925 22:44:52.362105  9048 net.cpp:141] Setting up conv2
I0925 22:44:52.362164  9048 net.cpp:148] Top shape: 10 256 27 27 (1866240)
I0925 22:44:52.362174  9048 net.cpp:156] Memory required for data: 42479160
I0925 22:44:52.362197  9048 layer_factory.hpp:77] Creating layer relu2
I0925 22:44:52.362220  9048 net.cpp:91] Creating Layer relu2
I0925 22:44:52.362231  9048 net.cpp:425] relu2 <- conv2
I0925 22:44:52.362241  9048 net.cpp:386] relu2 -> conv2 (in-place)
I0925 22:44:52.362550  9048 net.cpp:141] Setting up relu2
I0925 22:44:52.362567  9048 net.cpp:148] Top shape: 10 256 27 27 (1866240)
I0925 22:44:52.362573  9048 net.cpp:156] Memory required for data: 49944120
I0925 22:44:52.362579  9048 layer_factory.hpp:77] Creating layer pool2
I0925 22:44:52.362591  9048 net.cpp:91] Creating Layer pool2
I0925 22:44:52.362614  9048 net.cpp:425] pool2 <- conv2
I0925 22:44:52.362629  9048 net.cpp:399] pool2 -> pool2
I0925 22:44:52.362715  9048 net.cpp:141] Setting up pool2
I0925 22:44:52.362727  9048 net.cpp:148] Top shape: 10 256 13 13 (432640)
I0925 22:44:52.362736  9048 net.cpp:156] Memory required for data: 51674680
I0925 22:44:52.362745  9048 layer_factory.hpp:77] Creating layer norm2
I0925 22:44:52.362762  9048 net.cpp:91] Creating Layer norm2
I0925 22:44:52.362767  9048 net.cpp:425] norm2 <- pool2
I0925 22:44:52.362776  9048 net.cpp:399] norm2 -> norm2
I0925 22:44:52.363409  9048 net.cpp:141] Setting up norm2
I0925 22:44:52.363427  9048 net.cpp:148] Top shape: 10 256 13 13 (432640)
I0925 22:44:52.363432  9048 net.cpp:156] Memory required for data: 53405240
I0925 22:44:52.363466  9048 layer_factory.hpp:77] Creating layer conv3
I0925 22:44:52.363489  9048 net.cpp:91] Creating Layer conv3
I0925 22:44:52.363494  9048 net.cpp:425] conv3 <- norm2
I0925 22:44:52.363503  9048 net.cpp:399] conv3 -> conv3
I0925 22:44:52.414230  9048 net.cpp:141] Setting up conv3
I0925 22:44:52.414304  9048 net.cpp:148] Top shape: 10 384 13 13 (648960)
I0925 22:44:52.414314  9048 net.cpp:156] Memory required for data: 56001080
I0925 22:44:52.414866  9048 layer_factory.hpp:77] Creating layer relu3
I0925 22:44:52.414921  9048 net.cpp:91] Creating Layer relu3
I0925 22:44:52.414942  9048 net.cpp:425] relu3 <- conv3
I0925 22:44:52.415383  9048 net.cpp:386] relu3 -> conv3 (in-place)
I0925 22:44:52.417883  9048 net.cpp:141] Setting up relu3
I0925 22:44:52.417945  9048 net.cpp:148] Top shape: 10 384 13 13 (648960)
I0925 22:44:52.417956  9048 net.cpp:156] Memory required for data: 58596920
I0925 22:44:52.417970  9048 layer_factory.hpp:77] Creating layer conv4
I0925 22:44:52.418401  9048 net.cpp:91] Creating Layer conv4
I0925 22:44:52.418417  9048 net.cpp:425] conv4 <- conv3
I0925 22:44:52.418438  9048 net.cpp:399] conv4 -> conv4
I0925 22:44:52.423243  9012 net.cpp:141] Setting up predict
I0925 22:44:52.423298  9012 net.cpp:148] Top shape: 1 1 46168 (46168)
I0925 22:44:52.423306  9012 net.cpp:156] Memory required for data: 221084
I0925 22:44:52.423346  9012 layer_factory.hpp:77] Creating layer probs
I0925 22:44:52.423368  9012 net.cpp:91] Creating Layer probs
I0925 22:44:52.423378  9012 net.cpp:425] probs <- predict
I0925 22:44:52.423393  9012 net.cpp:399] probs -> probs
I0925 22:44:52.424417  9012 net.cpp:141] Setting up probs
I0925 22:44:52.424437  9012 net.cpp:148] Top shape: 1 1 46168 (46168)
I0925 22:44:52.424445  9012 net.cpp:156] Memory required for data: 405756
I0925 22:44:52.424454  9012 net.cpp:219] probs does not need backward computation.
I0925 22:44:52.424464  9012 net.cpp:219] predict does not need backward computation.
I0925 22:44:52.424475  9012 net.cpp:219] lstm2 does not need backward computation.
I0925 22:44:52.424486  9012 net.cpp:219] concat does not need backward computation.
I0925 22:44:52.424497  9012 net.cpp:219] lstm1 does not need backward computation.
I0925 22:44:52.424510  9012 net.cpp:219] embedding does not need backward computation.
I0925 22:44:52.424518  9012 net.cpp:219] reshape_stage_indicator does not need backward computation.
I0925 22:44:52.424526  9012 net.cpp:219] reshape_frames does not need backward computation.
I0925 22:44:52.424535  9012 net.cpp:219] embed_encoder does not need backward computation.
I0925 22:44:52.424545  9012 net.cpp:219] cont_sentence_input_1_split does not need backward computation.
I0925 22:44:52.424553  9012 net.cpp:219] input does not need backward computation.
I0925 22:44:52.424561  9012 net.cpp:261] This network produces output probs
I0925 22:44:52.424587  9012 net.cpp:274] Network initialization done.
I0925 22:44:52.449254  9030 net.cpp:141] Setting up predict
I0925 22:44:52.449326  9030 net.cpp:148] Top shape: 1 1 46168 (46168)
I0925 22:44:52.449338  9030 net.cpp:156] Memory required for data: 221084
I0925 22:44:52.449365  9030 layer_factory.hpp:77] Creating layer probs
I0925 22:44:52.449398  9030 net.cpp:91] Creating Layer probs
I0925 22:44:52.449412  9030 net.cpp:425] probs <- predict
I0925 22:44:52.449429  9030 net.cpp:399] probs -> probs
I0925 22:44:52.456486  9048 net.cpp:141] Setting up conv4
I0925 22:44:52.456544  9048 net.cpp:148] Top shape: 10 384 13 13 (648960)
I0925 22:44:52.456553  9048 net.cpp:156] Memory required for data: 61192760
I0925 22:44:52.456579  9048 layer_factory.hpp:77] Creating layer relu4
I0925 22:44:52.456486  9030 net.cpp:141] Setting up probs
I0925 22:44:52.456630  9030 net.cpp:148] Top shape: 1 1 46168 (46168)
I0925 22:44:52.456637  9030 net.cpp:156] Memory required for data: 405756
I0925 22:44:52.456646  9030 net.cpp:219] probs does not need backward computation.
I0925 22:44:52.456656  9030 net.cpp:219] predict does not need backward computation.
I0925 22:44:52.456665  9030 net.cpp:219] lstm2 does not need backward computation.
I0925 22:44:52.456673  9030 net.cpp:219] concat does not need backward computation.
I0925 22:44:52.456682  9030 net.cpp:219] lstm1 does not need backward computation.
I0925 22:44:52.456692  9030 net.cpp:219] embedding does not need backward computation.
I0925 22:44:52.456701  9030 net.cpp:219] reshape_stage_indicator does not need backward computation.
I0925 22:44:52.456701  9048 net.cpp:91] Creating Layer relu4
I0925 22:44:52.456708  9030 net.cpp:219] reshape_frames does not need backward computation.
I0925 22:44:52.456714  9048 net.cpp:425] relu4 <- conv4
I0925 22:44:52.456717  9030 net.cpp:219] embed_encoder does not need backward computation.
I0925 22:44:52.456724  9030 net.cpp:219] cont_sentence_input_1_split does not need backward computation.
I0925 22:44:52.456733  9030 net.cpp:219] input does not need backward computation.
I0925 22:44:52.456734  9048 net.cpp:386] relu4 -> conv4 (in-place)
I0925 22:44:52.456739  9030 net.cpp:261] This network produces output probs
I0925 22:44:52.456764  9030 net.cpp:274] Network initialization done.
I0925 22:44:52.457610  9048 net.cpp:141] Setting up relu4
I0925 22:44:52.457628  9048 net.cpp:148] Top shape: 10 384 13 13 (648960)
I0925 22:44:52.457635  9048 net.cpp:156] Memory required for data: 63788600
I0925 22:44:52.457643  9048 layer_factory.hpp:77] Creating layer conv5
I0925 22:44:52.457691  9048 net.cpp:91] Creating Layer conv5
I0925 22:44:52.457701  9048 net.cpp:425] conv5 <- conv4
I0925 22:44:52.457715  9048 net.cpp:399] conv5 -> conv5
I0925 22:44:52.476430  9048 net.cpp:141] Setting up conv5
I0925 22:44:52.476505  9048 net.cpp:148] Top shape: 10 256 13 13 (432640)
I0925 22:44:52.476516  9048 net.cpp:156] Memory required for data: 65519160
I0925 22:44:52.476555  9048 layer_factory.hpp:77] Creating layer relu5
I0925 22:44:52.477011  9048 net.cpp:91] Creating Layer relu5
I0925 22:44:52.477052  9048 net.cpp:425] relu5 <- conv5
I0925 22:44:52.477074  9048 net.cpp:386] relu5 -> conv5 (in-place)
I0925 22:44:52.478621  9048 net.cpp:141] Setting up relu5
I0925 22:44:52.478660  9048 net.cpp:148] Top shape: 10 256 13 13 (432640)
I0925 22:44:52.478672  9048 net.cpp:156] Memory required for data: 67249720
I0925 22:44:52.478684  9048 layer_factory.hpp:77] Creating layer pool5
I0925 22:44:52.478710  9048 net.cpp:91] Creating Layer pool5
I0925 22:44:52.478721  9048 net.cpp:425] pool5 <- conv5
I0925 22:44:52.479212  9048 net.cpp:399] pool5 -> pool5
I0925 22:44:52.479521  9048 net.cpp:141] Setting up pool5
I0925 22:44:52.479555  9048 net.cpp:148] Top shape: 10 256 6 6 (92160)
I0925 22:44:52.479569  9048 net.cpp:156] Memory required for data: 67618360
I0925 22:44:52.479583  9048 layer_factory.hpp:77] Creating layer fc6
I0925 22:44:52.479740  9048 net.cpp:91] Creating Layer fc6
I0925 22:44:52.479760  9048 net.cpp:425] fc6 <- pool5
I0925 22:44:52.479779  9048 net.cpp:399] fc6 -> fc6
I0925 22:44:52.599273  9048 net.cpp:141] Setting up fc6
I0925 22:44:52.599340  9048 net.cpp:148] Top shape: 10 4096 (40960)
I0925 22:44:52.599346  9048 net.cpp:156] Memory required for data: 67782200
I0925 22:44:52.599369  9048 layer_factory.hpp:77] Creating layer relu6
I0925 22:44:52.599392  9048 net.cpp:91] Creating Layer relu6
I0925 22:44:52.599400  9048 net.cpp:425] relu6 <- fc6
I0925 22:44:52.599422  9048 net.cpp:386] relu6 -> fc6 (in-place)
I0925 22:44:52.600296  9048 net.cpp:141] Setting up relu6
I0925 22:44:52.600327  9048 net.cpp:148] Top shape: 10 4096 (40960)
I0925 22:44:52.600333  9048 net.cpp:156] Memory required for data: 67946040
I0925 22:44:52.600340  9048 layer_factory.hpp:77] Creating layer drop6
I0925 22:44:52.600361  9048 net.cpp:91] Creating Layer drop6
I0925 22:44:52.600368  9048 net.cpp:425] drop6 <- fc6
I0925 22:44:52.600375  9048 net.cpp:386] drop6 -> fc6 (in-place)
I0925 22:44:52.600484  9048 net.cpp:141] Setting up drop6
I0925 22:44:52.600494  9048 net.cpp:148] Top shape: 10 4096 (40960)
I0925 22:44:52.600498  9048 net.cpp:156] Memory required for data: 68109880
I0925 22:44:52.600503  9048 layer_factory.hpp:77] Creating layer fc7
I0925 22:44:52.600515  9048 net.cpp:91] Creating Layer fc7
I0925 22:44:52.600520  9048 net.cpp:425] fc7 <- fc6
I0925 22:44:52.600531  9048 net.cpp:399] fc7 -> fc7
I0925 22:44:52.633404  9026 net.cpp:141] Setting up predict
I0925 22:44:52.633458  9026 net.cpp:148] Top shape: 1 1 46168 (46168)
I0925 22:44:52.633465  9026 net.cpp:156] Memory required for data: 221084
I0925 22:44:52.633482  9026 layer_factory.hpp:77] Creating layer probs
I0925 22:44:52.633502  9026 net.cpp:91] Creating Layer probs
I0925 22:44:52.633522  9026 net.cpp:425] probs <- predict
I0925 22:44:52.633535  9026 net.cpp:399] probs -> probs
I0925 22:44:52.634665  9026 net.cpp:141] Setting up probs
I0925 22:44:52.634722  9026 net.cpp:148] Top shape: 1 1 46168 (46168)
I0925 22:44:52.634732  9026 net.cpp:156] Memory required for data: 405756
I0925 22:44:52.634747  9026 net.cpp:219] probs does not need backward computation.
I0925 22:44:52.634757  9026 net.cpp:219] predict does not need backward computation.
I0925 22:44:52.634798  9026 net.cpp:219] lstm2 does not need backward computation.
I0925 22:44:52.634807  9026 net.cpp:219] concat does not need backward computation.
I0925 22:44:52.634814  9026 net.cpp:219] lstm1 does not need backward computation.
I0925 22:44:52.634821  9026 net.cpp:219] embedding does not need backward computation.
I0925 22:44:52.634829  9026 net.cpp:219] reshape_stage_indicator does not need backward computation.
I0925 22:44:52.634840  9026 net.cpp:219] reshape_frames does not need backward computation.
I0925 22:44:52.634848  9026 net.cpp:219] embed_encoder does not need backward computation.
I0925 22:44:52.634858  9026 net.cpp:219] cont_sentence_input_1_split does not need backward computation.
I0925 22:44:52.634868  9026 net.cpp:219] input does not need backward computation.
I0925 22:44:52.634876  9026 net.cpp:261] This network produces output probs
I0925 22:44:52.634899  9026 net.cpp:274] Network initialization done.
I0925 22:44:52.650493  9048 net.cpp:141] Setting up fc7
I0925 22:44:52.650544  9048 net.cpp:148] Top shape: 10 4096 (40960)
I0925 22:44:52.650549  9048 net.cpp:156] Memory required for data: 68273720
I0925 22:44:52.650563  9048 layer_factory.hpp:77] Creating layer relu7
I0925 22:44:52.650579  9048 net.cpp:91] Creating Layer relu7
I0925 22:44:52.650586  9048 net.cpp:425] relu7 <- fc7
I0925 22:44:52.650610  9048 net.cpp:386] relu7 -> fc7 (in-place)
I0925 22:44:52.651921  9048 net.cpp:141] Setting up relu7
I0925 22:44:52.651940  9048 net.cpp:148] Top shape: 10 4096 (40960)
I0925 22:44:52.651945  9048 net.cpp:156] Memory required for data: 68437560
I0925 22:44:52.651969  9048 layer_factory.hpp:77] Creating layer drop7
I0925 22:44:52.651981  9048 net.cpp:91] Creating Layer drop7
I0925 22:44:52.651986  9048 net.cpp:425] drop7 <- fc7
I0925 22:44:52.652452  9048 net.cpp:386] drop7 -> fc7 (in-place)
I0925 22:44:52.652523  9048 net.cpp:141] Setting up drop7
I0925 22:44:52.652534  9048 net.cpp:148] Top shape: 10 4096 (40960)
I0925 22:44:52.652539  9048 net.cpp:156] Memory required for data: 68601400
I0925 22:44:52.652544  9048 layer_factory.hpp:77] Creating layer fc8
I0925 22:44:52.652556  9048 net.cpp:91] Creating Layer fc8
I0925 22:44:52.652561  9048 net.cpp:425] fc8 <- fc7
I0925 22:44:52.652568  9048 net.cpp:399] fc8 -> fc8
I0925 22:44:52.666049  9048 net.cpp:141] Setting up fc8
I0925 22:44:52.666101  9048 net.cpp:148] Top shape: 10 1000 (10000)
I0925 22:44:52.666108  9048 net.cpp:156] Memory required for data: 68641400
I0925 22:44:52.666126  9048 layer_factory.hpp:77] Creating layer prob
I0925 22:44:52.666146  9048 net.cpp:91] Creating Layer prob
I0925 22:44:52.666153  9048 net.cpp:425] prob <- fc8
I0925 22:44:52.666168  9048 net.cpp:399] prob -> prob
I0925 22:44:52.667909  9048 net.cpp:141] Setting up prob
I0925 22:44:52.667923  9048 net.cpp:148] Top shape: 10 1000 (10000)
I0925 22:44:52.667928  9048 net.cpp:156] Memory required for data: 68681400
I0925 22:44:52.667934  9048 net.cpp:219] prob does not need backward computation.
I0925 22:44:52.667939  9048 net.cpp:219] fc8 does not need backward computation.
I0925 22:44:52.667944  9048 net.cpp:219] drop7 does not need backward computation.
I0925 22:44:52.667948  9048 net.cpp:219] relu7 does not need backward computation.
…
