…
Java HotSpot(TM) 64-Bit Server VM warning: You have loaded library /tmp/cvld3900102424628850932/libopencv_java310.xine1.so which might have disabled stack guard. The VM will try to fix the stack guard now.
It's highly recommended that you fix the library with 'execstack -c <libfile>', or link it with '-z noexecstack'.
WARNING: Logging before InitGoogleLogging() is written to STDERR
I0715 00:27:31.253289 17369 net.cpp:49] Initializing net from parameters: 
name: "GoogleNet"
state {
  phase: TEST
}
layer {
  name: "data"
  type: "Input"
  top: "data"
  input_param {
    shape {
      dim: 10
      dim: 3
      dim: 224
      dim: 224
    }
  }
}
layer {
  name: "conv1/7x7_s2"
  type: "Convolution"
  bottom: "data"
  top: "conv1/7x7_s2"
  param {
    lr_mult: 1
    decay_mult: 1
  }
  param {
    lr_mult: 2
    decay_mult: 0
  }
  convolution_param {
    num_output: 64
    pad: 3
    kernel_size: 7
    stride: 2
    weight_filler {
      type: "xavier"
      std: 0.1
    }
    bias_filler {
      type: "constant"
      value: 0.2
    }
  }
}
layer {
  name: "conv1/relu_7x7"
  type: "ReLU"
  bottom: "conv1/7x7_s2"
  top: "conv1/7x7_s2"
}
layer {
  name: "pool1/3x3_s2"
  type: "Pooling"
  bottom: "conv1/7x7_s2"
  top: "pool1/3x3_s2"
  pooling_param {
    pool: MAX
    kernel_size: 3
    stride: 2
  }
}
layer {
  name: "pool1/norm1"
  type: "LRN"
  bottom: "pool1/3x3_s2"
  top: "pool1/norm1"
  lrn_param {
    local_size: 5
    alpha: 0.0001
    beta: 0.75
  }
}
layer {
  name: "conv2/3x3_reduce"
  type: "Convolution"
  bottom: "pool1/norm1"
  top: "conv2/3x3_reduce"
  param {
    lr_mult: 1
    decay_mult: 1
  }
  param {
    lr_mult: 2
    decay_mult: 0
  }
  convolution_param {
    num_output: 64
    kernel_size: 1
    weight_filler {
      type: "xavier"
      std: 0.1
    }
    bias_filler {
      type: "constant"
      value: 0.2
    }
  }
}
layer {
  name: "conv2/relu_3x3_reduce"
  type: "ReLU"
  bottom: "conv2/3x3_reduce"
  top: "conv2/3x3_reduce"
}
layer {
  name: "conv2/3x3"
  type: "Convolution"
  bottom: "conv2/3x3_reduce"
  top: "conv2/3x3"
  param {
    lr_mult: 1
    decay_mult: 1
  }
  param {
    lr_mult: 2
    decay_mult: 0
  }
  convolution_param {
    num_output: 192
    pad: 1
    kernel_size: 3
    weight_filler {
      type: "xavier"
      std: 0.03
    }
    bias_filler {
      type: "constant"
      value: 0.2
    }
  }
}
layer {
  name: "conv2/relu_3x3"
  type: "ReLU"
  bottom: "conv2/3x3"
  top: "conv2/3x3"
}
layer {
  name: "conv2/norm2"
  type: "LRN"
  bottom: "conv2/3x3"
  top: "conv2/norm2"
  lrn_param {
    local_size: 5
    alpha: 0.0001
    beta: 0.75
  }
}
layer {
  name: "pool2/3x3_s2"
  type: "Pooling"
  bottom: "conv2/norm2"
  top: "pool2/3x3_s2"
  pooling_param {
    pool: MAX
    kernel_size: 3
    stride: 2
  }
}
layer {
  name: "inception_3a/1x1"
  type: "Convolution"
  bottom: "pool2/3x3_s2"
  top: "inception_3a/1x1"
  param {
    lr_mult: 1
    decay_mult: 1
  }
  param {
    lr_mult: 2
    decay_mult: 0
  }
  convolution_param {
    num_output: 64
    kernel_size: 1
    weight_filler {
      type: "xavier"
      std: 0.03
    }
    bias_filler {
      type: "constant"
      value: 0.2
    }
  }
}
layer {
  name: "inception_3a/relu_1x1"
  type: "ReLU"
  bottom: "inception_3a/1x1"
  top: "inception_3a/1x1"
}
layer {
  name: "inception_3a/3x3_reduce"
  type: "Convolution"
  bottom: "pool2/3x3_s2"
  top: "inception_3a/3x3_reduce"
  param {
    lr_mult: 1
    decay_mult: 1
  }
  param {
    lr_mult: 2
    decay_mult: 0
  }
  convolution_param {
    num_output: 96
    kernel_size: 1
    weight_filler {
      type: "xavier"
      std: 0.09
    }
    bias_filler {
      type: "constant"
      value: 0.2
    }
  }
}
layer {
  name: "inception_3a/relu_3x3_reduce"
  type: "ReLU"
  bottom: "inception_3a/3x3_reduce"
  top: "inception_3a/3x3_reduce"
}
layer {
  name: "inception_3a/3x3"
  type: "Convolution"
  bottom: "inception_3a/3x3_reduce"
  top: "inception_3a/3x3"
  param {
    lr_mult: 1
    decay_mult: 1
  }
  param {
    lr_mult: 2
    decay_mult: 0
  }
  convolution_param {
    num_output: 128
    pad: 1
    kernel_size: 3
    weight_filler {
      type: "xavier"
      std: 0.03
    }
    bias_filler {
      type: "constant"
      value: 0.2
    }
  }
}
layer {
  name: "inception_3a/relu_3x3"
  type: "ReLU"
  bottom: "inception_3a/3x3"
  top: "inception_3a/3x3"
}
layer {
  name: "inception_3a/5x5_reduce"
  type: "Convolution"
  bottom: "pool2/3x3_s2"
  top: "inception_3a/5x5_reduce"
  param {
    lr_mult: 1
    decay_mult: 1
  }
  param {
    lr_mult: 2
    decay_mult: 0
  }
  convolution_param {
    num_output: 16
    kernel_size: 1
    weight_filler {
      type: "xavier"
      std: 0.2
    }
    bias_filler {
      type: "constant"
      value: 0.2
    }
  }
}
layer {
  name: "inception_3a/relu_5x5_reduce"
  type: "ReLU"
  bottom: "inception_3a/5x5_reduce"
  top: "inception_3a/5x5_reduce"
}
layer {
  name: "inception_3a/5x5"
  type: "Convolution"
  bottom: "inception_3a/5x5_reduce"
  top: "inception_3a/5x5"
  param {
    lr_mult: 1
    decay_mult: 1
  }
  param {
    lr_mult: 2
    decay_mult: 0
  }
  convolution_param {
    num_output: 32
    pad: 2
    kernel_size: 5
    weight_filler {
      type: "xavier"
      std: 0.03
    }
    bias_filler {
      type: "constant"
      value: 0.2
    }
  }
}
layer {
  name: "inception_3a/relu_5x5"
  type: "ReLU"
  bottom: "inception_3a/5x5"
  top: "inception_3a/5x5"
}
layer {
  name: "inception_3a/pool"
  type: "Pooling"
  bottom: "pool2/3x3_s2"
  top: "inception_3a/pool"
  pooling_param {
    pool: MAX
    kernel_size: 3
    stride: 1
    pad: 1
  }
}
layer {
  name: "inception_3a/pool_proj"
  type: "Convolution"
  bottom: "inception_3a/pool"
  top: "inception_3a/pool_proj"
  param {
    lr_mult: 1
    decay_mult: 1
  }
  param {
    lr_mult: 2
    decay_mult: 0
  }
  convolution_param {
    num_output: 32
    kernel_size: 1
    weight_filler {
      type: "xavier"
      std: 0.1
    }
    bias_filler {
      type: "constant"
      value: 0.2
    }
  }
}
layer {
  name: "inception_3a/relu_pool_proj"
  type: "ReLU"
  bottom: "inception_3a/pool_proj"
  top: "inception_3a/pool_proj"
}
layer {
  name: "inception_3a/output"
  type: "Concat"
  bottom: "inception_3a/1x1"
  bottom: "inception_3a/3x3"
  bottom: "inception_3a/5x5"
  bottom: "inception_3a/pool_proj"
  top: "inception_3a/output"
}
layer {
  name: "inception_3b/1x1"
  type: "Convolution"
  bottom: "inception_3a/output"
  top: "inception_3b/1x1"
  param {
    lr_mult: 1
    decay_mult: 1
  }
  param {
    lr_mult: 2
    decay_mult: 0
  }
  convolution_param {
    num_output: 128
    kernel_size: 1
    weight_filler {
      type: "xavier"
      std: 0.03
    }
    bias_filler {
      type: "constant"
      value: 0.2
    }
  }
}
layer {
  name: "inception_3b/relu_1x1"
  type: "ReLU"
  bottom: "inception_3b/1x1"
  top: "inception_3b/1x1"
}
layer {
  name: "inception_3b/3x3_reduce"
  type: "Convolution"
  bottom: "inception_3a/output"
  top: "inception_3b/3x3_reduce"
  param {
    lr_mult: 1
    decay_mult: 1
  }
  param {
    lr_mult: 2
    decay_mult: 0
  }
  convolution_param {
    num_output: 128
    kernel_size: 1
    weight_filler {
      type: "xavier"
      std: 0.09
    }
    bias_filler {
      type: "constant"
      value: 0.2
    }
  }
}
layer {
  name: "inception_3b/relu_3x3_reduce"
  type: "ReLU"
  bottom: "inception_3b/3x3_reduce"
  top: "inception_3b/3x3_reduce"
}
layer {
  name: "inception_3b/3x3"
  type: "Convolution"
  bottom: "inception_3b/3x3_reduce"
  top: "inception_3b/3x3"
  param {
    lr_mult: 1
    decay_mult: 1
  }
  param {
    lr_mult: 2
    decay_mult: 0
  }
  convolution_param {
    num_output: 192
    pad: 1
    kernel_size: 3
    weight_filler {
      type: "xavier"
      std: 0.03
    }
    bias_filler {
      type: "constant"
      value: 0.2
    }
  }
}
layer {
  name: "inception_3b/relu_3x3"
  type: "ReLU"
  bottom: "inception_3b/3x3"
  top: "inception_3b/3x3"
}
layer {
  name: "inception_3b/5x5_reduce"
  type: "Convolution"
  bottom: "inception_3a/output"
  top: "inception_3b/5x5_reduce"
  param {
    lr_mult: 1
    decay_mult: 1
  }
  param {
    lr_mult: 2
    decay_mult: 0
  }
  convolution_param {
    num_output: 32
    kernel_size: 1
    weight_filler {
      type: "xavier"
      std: 0.2
    }
    bias_filler {
      type: "constant"
      value: 0.2
    }
  }
}
layer {
  name: "inception_3b/relu_5x5_reduce"
  type: "ReLU"
  bottom: "inception_3b/5x5_reduce"
  top: "inception_3b/5x5_reduce"
}
layer {
  name: "inception_3b/5x5"
  type: "Convolution"
  bottom: "inception_3b/5x5_reduce"
  top: "inception_3b/5x5"
  param {
    lr_mult: 1
    decay_mult: 1
  }
  param {
    lr_mult: 2
    decay_mult: 0
  }
  convolution_param {
    num_output: 96
    pad: 2
    kernel_size: 5
    weight_filler {
      type: "xavier"
      std: 0.03
    }
    bias_filler {
      type: "constant"
      value: 0.2
    }
  }
}
layer {
  name: "inception_3b/relu_5x5"
  type: "ReLU"
  bottom: "inception_3b/5x5"
  top: "inception_3b/5x5"
}
layer {
  name: "inception_3b/pool"
  type: "Pooling"
  bottom: "inception_3a/output"
  top: "inception_3b/pool"
  pooling_param {
    pool: MAX
    kernel_size: 3
    stride: 1
    pad: 1
  }
}
layer {
  name: "inception_3b/pool_proj"
  type: "Convolution"
  bottom: "inception_3b/pool"
  top: "inception_3b/pool_proj"
  param {
    lr_mult: 1
    decay_mult: 1
  }
  param {
    lr_mult: 2
    decay_mult: 0
  }
  convolution_param {
    num_output: 64
    kernel_size: 1
    weight_filler {
      type: "xavier"
      std: 0.1
    }
    bias_filler {
      type: "constant"
      value: 0.2
    }
  }
}
layer {
  name: "inception_3b/relu_pool_proj"
  type: "ReLU"
  bottom: "inception_3b/pool_proj"
  top: "inception_3b/pool_proj"
}
layer {
  name: "inception_3b/output"
  type: "Concat"
  bottom: "inception_3b/1x1"
  bottom: "inception_3b/3x3"
  bottom: "inception_3b/5x5"
  bottom: "inception_3b/pool_proj"
  top: "inception_3b/output"
}
layer {
  name: "pool3/3x3_s2"
  type: "Pooling"
  bottom: "inception_3b/output"
  top: "pool3/3x3_s2"
  pooling_param {
    pool: MAX
    kernel_size: 3
    stride: 2
  }
}
layer {
  name: "inception_4a/1x1"
  type: "Convolution"
  bottom: "pool3/3x3_s2"
  top: "inception_4a/1x1"
  param {
    lr_mult: 1
    decay_mult: 1
  }
  param {
    lr_mult: 2
    decay_mult: 0
  }
  convolution_param {
    num_output: 192
    kernel_size: 1
    weight_filler {
      type: "xavier"
      std: 0.03
    }
    bias_filler {
      type: "constant"
      value: 0.2
    }
  }
}
layer {
  name: "inception_4a/relu_1x1"
  type: "ReLU"
  bottom: "inception_4a/1x1"
  top: "inception_4a/1x1"
}
layer {
  name: "inception_4a/3x3_reduce"
  type: "Convolution"
  bottom: "pool3/3x3_s2"
  top: "inception_4a/3x3_reduce"
  param {
    lr_mult: 1
    decay_mult: 1
  }
  param {
    lr_mult: 2
    decay_mult: 0
  }
  convolution_param {
    num_output: 96
    kernel_size: 1
    weight_filler {
      type: "xavier"
      std: 0.09
    }
    bias_filler {
      type: "constant"
      value: 0.2
    }
  }
}
layer {
  name: "inception_4a/relu_3x3_reduce"
  type: "ReLU"
  bottom: "inception_4a/3x3_reduce"
  top: "inception_4a/3x3_reduce"
}
layer {
  name: "inception_4a/3x3"
  type: "Convolution"
  bottom: "inception_4a/3x3_reduce"
  top: "inception_4a/3x3"
  param {
    lr_mult: 1
    decay_mult: 1
  }
  param {
    lr_mult: 2
    decay_mult: 0
  }
  convolution_param {
    num_output: 208
    pad: 1
    kernel_size: 3
    weight_filler {
      type: "xavier"
      std: 0.03
    }
    bias_filler {
      type: "constant"
      value: 0.2
    }
  }
}
layer {
  name: "inception_4a/relu_3x3"
  type: "ReLU"
  bottom: "inception_4a/3x3"
  top: "inception_4a/3x3"
}
layer {
  name: "inception_4a/5x5_reduce"
  type: "Convolution"
  bottom: "pool3/3x3_s2"
  top: "inception_4a/5x5_reduce"
  param {
    lr_mult: 1
    decay_mult: 1
  }
  param {
    lr_mult: 2
    decay_mult: 0
  }
  convolution_param {
    num_output: 16
    kernel_size: 1
    weight_filler {
      type: "xavier"
      std: 0.2
    }
    bias_filler {
      type: "constant"
      value: 0.2
    }
  }
}
layer {
  name: "inception_4a/relu_5x5_reduce"
  type: "ReLU"
  bottom: "inception_4a/5x5_reduce"
  top: "inception_4a/5x5_reduce"
}
layer {
  name: "inception_4a/5x5"
  type: "Convolution"
  bottom: "inception_4a/5x5_reduce"
  top: "inception_4a/5x5"
  param {
    lr_mult: 1
    decay_mult: 1
  }
  param {
    lr_mult: 2
    decay_mult: 0
  }
  convolution_param {
    num_output: 48
    pad: 2
    kernel_size: 5
    weight_filler {
      type: "xavier"
      std: 0.03
    }
    bias_filler {
      type: "constant"
      value: 0.2
    }
  }
}
layer {
  name: "inception_4a/relu_5x5"
  type: "ReLU"
  bottom: "inception_4a/5x5"
  top: "inception_4a/5x5"
}
layer {
  name: "inception_4a/pool"
  type: "Pooling"
  bottom: "pool3/3x3_s2"
  top: "inception_4a/pool"
  pooling_param {
    pool: MAX
    kernel_size: 3
    stride: 1
    pad: 1
  }
}
layer {
  name: "inception_4a/pool_proj"
  type: "Convolution"
  bottom: "inception_4a/pool"
  top: "inception_4a/pool_proj"
  param {
    lr_mult: 1
    decay_mult: 1
  }
  param {
    lr_mult: 2
    decay_mult: 0
  }
  convolution_param {
    num_output: 64
    kernel_size: 1
    weight_filler {
      type: "xavier"
      std: 0.1
    }
    bias_filler {
      type: "constant"
      value: 0.2
    }
  }
}
layer {
  name: "inception_4a/relu_pool_proj"
  type: "ReLU"
  bottom: "inception_4a/pool_proj"
  top: "inception_4a/pool_proj"
}
layer {
  name: "inception_4a/output"
  type: "Concat"
  bottom: "inception_4a/1x1"
  bottom: "inception_4a/3x3"
  bottom: "inception_4a/5x5"
  bottom: "inception_4a/pool_proj"
  top: "inception_4a/output"
}
layer {
  name: "inception_4b/1x1"
  type: "Convolution"
  bottom: "inception_4a/output"
  top: "inception_4b/1x1"
  param {
    lr_mult: 1
    decay_mult: 1
  }
  param {
    lr_mult: 2
    decay_mult: 0
  }
  convolution_param {
    num_output: 160
    kernel_size: 1
    weight_filler {
      type: "xavier"
      std: 0.03
    }
    bias_filler {
      type: "constant"
      value: 0.2
    }
  }
}
layer {
  name: "inception_4b/relu_1x1"
  type: "ReLU"
  bottom: "inception_4b/1x1"
  top: "inception_4b/1x1"
}
layer {
  name: "inception_4b/3x3_reduce"
  type: "Convolution"
  bottom: "inception_4a/output"
  top: "inception_4b/3x3_reduce"
  param {
    lr_mult: 1
    decay_mult: 1
  }
  param {
    lr_mult: 2
    decay_mult: 0
  }
  convolution_param {
    num_output: 112
    kernel_size: 1
    weight_filler {
      type: "xavier"
      std: 0.09
    }
    bias_filler {
      type: "constant"
      value: 0.2
    }
  }
}
layer {
  name: "inception_4b/relu_3x3_reduce"
  type: "ReLU"
  bottom: "inception_4b/3x3_reduce"
  top: "inception_4b/3x3_reduce"
}
layer {
  name: "inception_4b/3x3"
  type: "Convolution"
  bottom: "inception_4b/3x3_reduce"
  top: "inception_4b/3x3"
  param {
    lr_mult: 1
    decay_mult: 1
  }
  param {
    lr_mult: 2
    decay_mult: 0
  }
  convolution_param {
    num_output: 224
    pad: 1
    kernel_size: 3
    weight_filler {
      type: "xavier"
      std: 0.03
    }
    bias_filler {
      type: "constant"
      value: 0.2
    }
  }
}
layer {
  name: "inception_4b/relu_3x3"
  type: "ReLU"
  bottom: "inception_4b/3x3"
  top: "inception_4b/3x3"
}
layer {
  name: "inception_4b/5x5_reduce"
  type: "Convolution"
  bottom: "inception_4a/output"
  top: "inception_4b/5x5_reduce"
  param {
    lr_mult: 1
    decay_mult: 1
  }
  param {
    lr_mult: 2
    decay_mult: 0
  }
  convolution_param {
    num_output: 24
    kernel_size: 1
    weight_filler {
      type: "xavier"
      std: 0.2
    }
    bias_filler {
      type: "constant"
      value: 0.2
    }
  }
}
layer {
  name: "inception_4b/relu_5x5_reduce"
  type: "ReLU"
  bottom: "inception_4b/5x5_reduce"
  top: "inception_4b/5x5_reduce"
}
layer {
  name: "inception_4b/5x5"
  type: "Convolution"
  bottom: "inception_4b/5x5_reduce"
  top: "inception_4b/5x5"
  param {
    lr_mult: 1
    decay_mult: 1
  }
  param {
    lr_mult: 2
    decay_mult: 0
  }
  convolution_param {
    num_output: 64
    pad: 2
    kernel_size: 5
    weight_filler {
      type: "xavier"
      std: 0.03
    }
    bias_filler {
      type: "constant"
      value: 0.2
    }
  }
}
layer {
  name: "inception_4b/relu_5x5"
  type: "ReLU"
  bottom: "inception_4b/5x5"
  top: "inception_4b/5x5"
}
layer {
  name: "inception_4b/pool"
  type: "Pooling"
  bottom: "inception_4a/output"
  top: "inception_4b/pool"
  pooling_param {
    pool: MAX
    kernel_size: 3
    stride: 1
    pad: 1
  }
}
layer {
  name: "inception_4b/pool_proj"
  type: "Convolution"
  bottom: "inception_4b/pool"
  top: "inception_4b/pool_proj"
  param {
    lr_mult: 1
    decay_mult: 1
  }
  param {
    lr_mult: 2
    decay_mult: 0
  }
  convolution_param {
    num_output: 64
    kernel_size: 1
    weight_filler {
      type: "xavier"
      std: 0.1
    }
    bias_filler {
      type: "constant"
      value: 0.2
    }
  }
}
layer {
  name: "inception_4b/relu_pool_proj"
  type: "ReLU"
  bottom: "inception_4b/pool_proj"
  top: "inception_4b/pool_proj"
}
layer {
  name: "inception_4b/output"
  type: "Concat"
  bottom: "inception_4b/1x1"
  bottom: "inception_4b/3x3"
  bottom: "inception_4b/5x5"
  bottom: "inception_4b/pool_proj"
  top: "inception_4b/output"
}
layer {
  name: "inception_4c/1x1"
  type: "Convolution"
  bottom: "inception_4b/output"
  top: "inception_4c/1x1"
  param {
    lr_mult: 1
    decay_mult: 1
  }
  param {
    lr_mult: 2
    decay_mult: 0
  }
  convolution_param {
    num_output: 128
    kernel_size: 1
    weight_filler {
      type: "xavier"
      std: 0.03
    }
    bias_filler {
      type: "constant"
      value: 0.2
    }
  }
}
layer {
  name: "inception_4c/relu_1x1"
  type: "ReLU"
  bottom: "inception_4c/1x1"
  top: "inception_4c/1x1"
}
layer {
  name: "inception_4c/3x3_reduce"
  type: "Convolution"
  bottom: "inception_4b/output"
  top: "inception_4c/3x3_reduce"
  param {
    lr_mult: 1
    decay_mult: 1
  }
  param {
    lr_mult: 2
    decay_mult: 0
  }
  convolution_param {
    num_output: 128
    kernel_size: 1
    weight_filler {
      type: "xavier"
      std: 0.09
    }
    bias_filler {
      type: "constant"
      value: 0.2
    }
  }
}
layer {
  name: "inception_4c/relu_3x3_reduce"
  type: "ReLU"
  bottom: "inception_4c/3x3_reduce"
  top: "inception_4c/3x3_reduce"
}
layer {
  name: "inception_4c/3x3"
  type: "Convolution"
  bottom: "inception_4c/3x3_reduce"
  top: "inception_4c/3x3"
  param {
    lr_mult: 1
    decay_mult: 1
  }
  param {
    lr_mult: 2
    decay_mult: 0
  }
  convolution_param {
    num_output: 256
    pad: 1
    kernel_size: 3
    weight_filler {
      type: "xavier"
      std: 0.03
    }
    bias_filler {
      type: "constant"
      value: 0.2
    }
  }
}
layer {
  name: "inception_4c/relu_3x3"
  type: "ReLU"
  bottom: "inception_4c/3x3"
  top: "inception_4c/3x3"
}
layer {
  name: "inception_4c/5x5_reduce"
  type: "Convolution"
  bottom: "inception_4b/output"
  top: "inception_4c/5x5_reduce"
  param {
    lr_mult: 1
    decay_mult: 1
  }
  param {
    lr_mult: 2
    decay_mult: 0
  }
  convolution_param {
    num_output: 24
    kernel_size: 1
    weight_filler {
      type: "xavier"
      std: 0.2
    }
    bias_filler {
      type: "constant"
      value: 0.2
    }
  }
}
layer {
  name: "inception_4c/relu_5x5_reduce"
  type: "ReLU"
  bottom: "inception_4c/5x5_reduce"
  top: "inception_4c/5x5_reduce"
}
layer {
  name: "inception_4c/5x5"
  type: "Convolution"
  bottom: "inception_4c/5x5_reduce"
  top: "inception_4c/5x5"
  param {
    lr_mult: 1
    decay_mult: 1
  }
  param {
    lr_mult: 2
    decay_mult: 0
  }
  convolution_param {
    num_output: 64
    pad: 2
    kernel_size: 5
    weight_filler {
      type: "xavier"
      std: 0.03
    }
    bias_filler {
      type: "constant"
      value: 0.2
    }
  }
}
layer {
  name: "inception_4c/relu_5x5"
  type: "ReLU"
  bottom: "inception_4c/5x5"
  top: "inception_4c/5x5"
}
layer {
  name: "inception_4c/pool"
  type: "Pooling"
  bottom: "inception_4b/output"
  top: "inception_4c/pool"
  pooling_param {
    pool: MAX
    kernel_size: 3
    stride: 1
    pad: 1
  }
}
layer {
  name: "inception_4c/pool_proj"
  type: "Convolution"
  bottom: "inception_4c/pool"
  top: "inception_4c/pool_proj"
  param {
    lr_mult: 1
    decay_mult: 1
  }
  param {
    lr_mult: 2
    decay_mult: 0
  }
  convolution_param {
    num_output: 64
    kernel_size: 1
    weight_filler {
      type: "xavier"
      std: 0.1
    }
    bias_filler {
      type: "constant"
      value: 0.2
    }
  }
}
layer {
  name: "inception_4c/relu_pool_proj"
  type: "ReLU"
  bottom: "inception_4c/pool_proj"
  top: "inception_4c/pool_proj"
}
layer {
  name: "inception_4c/output"
  type: "Concat"
  bottom: "inception_4c/1x1"
  bottom: "inception_4c/3x3"
  bottom: "inception_4c/5x5"
  bottom: "inception_4c/pool_proj"
  top: "inception_4c/output"
}
layer {
  name: "inception_4d/1x1"
  type: "Convolution"
  bottom: "inception_4c/output"
  top: "inception_4d/1x1"
  param {
    lr_mult: 1
    decay_mult: 1
  }
  param {
    lr_mult: 2
    decay_mult: 0
  }
  convolution_param {
    num_output: 112
    kernel_size: 1
    weight_filler {
      type: "xavier"
      std: 0.03
    }
    bias_filler {
      type: "constant"
      value: 0.2
    }
  }
}
layer {
  name: "inception_4d/relu_1x1"
  type: "ReLU"
  bottom: "inception_4d/1x1"
  top: "inception_4d/1x1"
}
layer {
  name: "inception_4d/3x3_reduce"
  type: "Convolution"
  bottom: "inception_4c/output"
  top: "inception_4d/3x3_reduce"
  param {
    lr_mult: 1
    decay_mult: 1
  }
  param {
    lr_mult: 2
    decay_mult: 0
  }
  convolution_param {
    num_output: 144
    kernel_size: 1
    weight_filler {
      type: "xavier"
      std: 0.09
    }
    bias_filler {
      type: "constant"
      value: 0.2
    }
  }
}
layer {
  name: "inception_4d/relu_3x3_reduce"
  type: "ReLU"
  bottom: "inception_4d/3x3_reduce"
  top: "inception_4d/3x3_reduce"
}
layer {
  name: "inception_4d/3x3"
  type: "Convolution"
  bottom: "inception_4d/3x3_reduce"
  top: "inception_4d/3x3"
  param {
    lr_mult: 1
    decay_mult: 1
  }
  param {
    lr_mult: 2
    decay_mult: 0
  }
  convolution_param {
    num_output: 288
    pad: 1
    kernel_size: 3
    weight_filler {
      type: "xavier"
      std: 0.03
    }
    bias_filler {
      type: "constant"
      value: 0.2
    }
  }
}
layer {
  name: "inception_4d/relu_3x3"
  type: "ReLU"
  bottom: "inception_4d/3x3"
  top: "inception_4d/3x3"
}
layer {
  name: "inception_4d/5x5_reduce"
  type: "Convolution"
  bottom: "inception_4c/output"
  top: "inception_4d/5x5_reduce"
  param {
    lr_mult: 1
    decay_mult: 1
  }
  param {
    lr_mult: 2
    decay_mult: 0
  }
  convolution_param {
    num_output: 32
    kernel_size: 1
    weight_filler {
      type: "xavier"
      std: 0.2
    }
    bias_filler {
      type: "constant"
      value: 0.2
    }
  }
}
layer {
  name: "inception_4d/relu_5x5_reduce"
  type: "ReLU"
  bottom: "inception_4d/5x5_reduce"
  top: "inception_4d/5x5_reduce"
}
layer {
  name: "inception_4d/5x5"
  type: "Convolution"
  bottom: "inception_4d/5x5_reduce"
  top: "inception_4d/5x5"
  param {
    lr_mult: 1
    decay_mult: 1
  }
  param {
    lr_mult: 2
    decay_mult: 0
  }
  convolution_param {
    num_output: 64
    pad: 2
    kernel_size: 5
    weight_filler {
      type: "xavier"
      std: 0.03
    }
    bias_filler {
      type: "constant"
      value: 0.2
    }
  }
}
layer {
  name: "inception_4d/relu_5x5"
  type: "ReLU"
  bottom: "inception_4d/5x5"
  top: "inception_4d/5x5"
}
layer {
  name: "inception_4d/pool"
  type: "Pooling"
  bottom: "inception_4c/output"
  top: "inception_4d/pool"
  pooling_param {
    pool: MAX
    kernel_size: 3
    stride: 1
    pad: 1
  }
}
layer {
  name: "inception_4d/pool_proj"
  type: "Convolution"
  bottom: "inception_4d/pool"
  top: "inception_4d/pool_proj"
  param {
    lr_mult: 1
    decay_mult: 1
  }
  param {
    lr_mult: 2
    decay_mult: 0
  }
  convolution_param {
    num_output: 64
    kernel_size: 1
    weight_filler {
      type: "xavier"
      std: 0.1
    }
    bias_filler {
      type: "constant"
      value: 0.2
    }
  }
}
layer {
  name: "inception_4d/relu_pool_proj"
  type: "ReLU"
  bottom: "inception_4d/pool_proj"
  top: "inception_4d/pool_proj"
}
layer {
  name: "inception_4d/output"
  type: "Concat"
  bottom: "inception_4d/1x1"
  bottom: "inception_4d/3x3"
  bottom: "inception_4d/5x5"
  bottom: "inception_4d/pool_proj"
  top: "inception_4d/output"
}
layer {
  name: "inception_4e/1x1"
  type: "Convolution"
  bottom: "inception_4d/output"
  top: "inception_4e/1x1"
  param {
    lr_mult: 1
    decay_mult: 1
  }
  param {
    lr_mult: 2
    decay_mult: 0
  }
  convolution_param {
    num_output: 256
    kernel_size: 1
    weight_filler {
      type: "xavier"
      std: 0.03
    }
    bias_filler {
      type: "constant"
      value: 0.2
    }
  }
}
layer {
  name: "inception_4e/relu_1x1"
  type: "ReLU"
  bottom: "inception_4e/1x1"
  top: "inception_4e/1x1"
}
layer {
  name: "inception_4e/3x3_reduce"
  type: "Convolution"
  bottom: "inception_4d/output"
  top: "inception_4e/3x3_reduce"
  param {
    lr_mult: 1
    decay_mult: 1
  }
  param {
    lr_mult: 2
    decay_mult: 0
  }
  convolution_param {
    num_output: 160
    kernel_size: 1
    weight_filler {
      type: "xavier"
      std: 0.09
    }
    bias_filler {
      type: "constant"
      value: 0.2
    }
  }
}
layer {
  name: "inception_4e/relu_3x3_reduce"
  type: "ReLU"
  bottom: "inception_4e/3x3_reduce"
  top: "inception_4e/3x3_reduce"
}
layer {
  name: "inception_4e/3x3"
  type: "Convolution"
  bottom: "inception_4e/3x3_reduce"
  top: "inception_4e/3x3"
  param {
    lr_mult: 1
    decay_mult: 1
  }
  param {
    lr_mult: 2
    decay_mult: 0
  }
  convolution_param {
    num_output: 320
    pad: 1
    kernel_size: 3
    weight_filler {
      type: "xavier"
      std: 0.03
    }
    bias_filler {
      type: "constant"
      value: 0.2
    }
  }
}
layer {
  name: "inception_4e/relu_3x3"
  type: "ReLU"
  bottom: "inception_4e/3x3"
  top: "inception_4e/3x3"
}
layer {
  name: "inception_4e/5x5_reduce"
  type: "Convolution"
  bottom: "inception_4d/output"
  top: "inception_4e/5x5_reduce"
  param {
    lr_mult: 1
    decay_mult: 1
  }
  param {
    lr_mult: 2
    decay_mult: 0
  }
  convolution_param {
    num_output: 32
    kernel_size: 1
    weight_filler {
      type: "xavier"
      std: 0.2
    }
    bias_filler {
      type: "constant"
      value: 0.2
    }
  }
}
layer {
  name: "inception_4e/relu_5x5_reduce"
  type: "ReLU"
  bottom: "inception_4e/5x5_reduce"
  top: "inception_4e/5x5_reduce"
}
layer {
  name: "inception_4e/5x5"
  type: "Convolution"
  bottom: "inception_4e/5x5_reduce"
  top: "inception_4e/5x5"
  param {
    lr_mult: 1
    decay_mult: 1
  }
  param {
    lr_mult: 2
    decay_mult: 0
  }
  convolution_param {
    num_output: 128
    pad: 2
    kernel_size: 5
    weight_filler {
      type: "xavier"
      std: 0.03
    }
    bias_filler {
      type: "constant"
      value: 0.2
    }
  }
}
layer {
  name: "inception_4e/relu_5x5"
  type: "ReLU"
  bottom: "inception_4e/5x5"
  top: "inception_4e/5x5"
}
layer {
  name: "inception_4e/pool"
  type: "Pooling"
  bottom: "inception_4d/output"
  top: "inception_4e/pool"
  pooling_param {
    pool: MAX
    kernel_size: 3
    stride: 1
    pad: 1
  }
}
layer {
  name: "inception_4e/pool_proj"
  type: "Convolution"
  bottom: "inception_4e/pool"
  top: "inception_4e/pool_proj"
  param {
    lr_mult: 1
    decay_mult: 1
  }
  param {
    lr_mult: 2
    decay_mult: 0
  }
  convolution_param {
    num_output: 128
    kernel_size: 1
    weight_filler {
      type: "xavier"
      std: 0.1
    }
    bias_filler {
      type: "constant"
      value: 0.2
    }
  }
}
layer {
  name: "inception_4e/relu_pool_proj"
  type: "ReLU"
  bottom: "inception_4e/pool_proj"
  top: "inception_4e/pool_proj"
}
layer {
  name: "inception_4e/output"
  type: "Concat"
  bottom: "inception_4e/1x1"
  bottom: "inception_4e/3x3"
  bottom: "inception_4e/5x5"
  bottom: "inception_4e/pool_proj"
  top: "inception_4e/output"
}
layer {
  name: "pool4/3x3_s2"
  type: "Pooling"
  bottom: "inception_4e/output"
  top: "pool4/3x3_s2"
  pooling_param {
    pool: MAX
    kernel_size: 3
    stride: 2
  }
}
layer {
  name: "inception_5a/1x1"
  type: "Convolution"
  bottom: "pool4/3x3_s2"
  top: "inception_5a/1x1"
  param {
    lr_mult: 1
    decay_mult: 1
  }
  param {
    lr_mult: 2
    decay_mult: 0
  }
  convolution_param {
    num_output: 256
    kernel_size: 1
    weight_filler {
      type: "xavier"
      std: 0.03
    }
    bias_filler {
      type: "constant"
      value: 0.2
    }
  }
}
layer {
  name: "inception_5a/relu_1x1"
  type: "ReLU"
  bottom: "inception_5a/1x1"
  top: "inception_5a/1x1"
}
layer {
  name: "inception_5a/3x3_reduce"
  type: "Convolution"
  bottom: "pool4/3x3_s2"
  top: "inception_5a/3x3_reduce"
  param {
    lr_mult: 1
    decay_mult: 1
  }
  param {
    lr_mult: 2
    decay_mult: 0
  }
  convolution_param {
    num_output: 160
    kernel_size: 1
    weight_filler {
      type: "xavier"
      std: 0.09
    }
    bias_filler {
      type: "constant"
      value: 0.2
    }
  }
}
layer {
  name: "inception_5a/relu_3x3_reduce"
  type: "ReLU"
  bottom: "inception_5a/3x3_reduce"
  top: "inception_5a/3x3_reduce"
}
layer {
  name: "inception_5a/3x3"
  type: "Convolution"
  bottom: "inception_5a/3x3_reduce"
  top: "inception_5a/3x3"
  param {
    lr_mult: 1
    decay_mult: 1
  }
  param {
    lr_mult: 2
    decay_mult: 0
  }
  convolution_param {
    num_output: 320
    pad: 1
    kernel_size: 3
    weight_filler {
      type: "xavier"
      std: 0.03
    }
    bias_filler {
      type: "constant"
      value: 0.2
    }
  }
}
layer {
  name: "inception_5a/relu_3x3"
  type: "ReLU"
  bottom: "inception_5a/3x3"
  top: "inception_5a/3x3"
}
layer {
  name: "inception_5a/5x5_reduce"
  type: "Convolution"
  bottom: "pool4/3x3_s2"
  top: "inception_5a/5x5_reduce"
  param {
    lr_mult: 1
    decay_mult: 1
  }
  param {
    lr_mult: 2
    decay_mult: 0
  }
  convolution_param {
    num_output: 32
    kernel_size: 1
    weight_filler {
      type: "xavier"
      std: 0.2
    }
    bias_filler {
      type: "constant"
      value: 0.2
    }
I0715 00:27:31.253288 17373 net.cpp:49] Initializing net from parameters: 
name: "GoogleNet"
state {
  phase: TEST
}
layer {
  name: "data"
  type: "Input"
  top: "data"
  input_param {
    shape {
      dim: 10
      dim: 3
      dim: 224
      dim: 224
    }
  }
}
layer {
  name: "conv1/7x7_s2"
  type: "Convolution"
  bottom: "data"
  top: "conv1/7x7_s2"
  param {
    lr_mult: 1
    decay_mult: 1
  }
  param {
    lr_mult: 2
    decay_mult: 0
  }
  convolution_param {
    num_output: 64
    pad: 3
    kernel_size: 7
    stride: 2
    weight_filler {
      type: "xavier"
      std: 0.1
    }
    bias_filler {
      type: "constant"
      value: 0.2
    }
  }
}
layer {
  name: "conv1/relu_7x7"
  type: "ReLU"
  bottom: "conv1/7x7_s2"
  top: "conv1/7x7_s2"
}
layer {
  name: "pool1/3x3_s2"
  type: "Pooling"
  bottom: "conv1/7x7_s2"
  top: "pool1/3x3_s2"
  pooling_param {
    pool: MAX
    kernel_size: 3
    stride: 2
  }
}
layer {
  name: "pool1/norm1"
  type: "LRN"
  bottom: "pool1/3x3_s2"
  top: "pool1/norm1"
  lrn_param {
    local_size: 5
    alpha: 0.0001
    beta: 0.75
  }
}
layer {
  name: "conv2/3x3_reduce"
  type: "Convolution"
  bottom: "pool1/norm1"
  top: "conv2/3x3_reduce"
  param {
    lr_mult: 1
    decay_mult: 1
  }
  param {
    lr_mult: 2
    decay_mult: 0
  }
  convolution_param {
    num_output: 64
    kernel_size: 1
    weight_filler {
      type: "xavier"
      std: 0.1
    }
    bias_filler {
      type: "constant"
      value: 0.2
    }
  }
}
layer {
  name: "conv2/relu_3x3_reduce"
  type: "ReLU"
  bottom: "conv2/3x3_reduce"
  top: "conv2/3x3_reduce"
}
layer {
  name: "conv2/3x3"
  type: "Convolution"
  bottom: "conv2/3x3_reduce"
  top: "conv2/3x3"
  param {
    lr_mult: 1
    decay_mult: 1
  }
  param {
    lr_mult: 2
    decay_mult: 0
  }
  convolution_param {
    num_output: 192
    pad: 1
    kernel_size: 3
    weight_filler {
      type: "xavier"
      std: 0.03
    }
    bias_filler {
      type: "constant"
      value: 0.2
    }
  }
}
layer {
  name: "conv2/relu_3x3"
  type: "ReLU"
  bottom: "conv2/3x3"
  top: "conv2/3x3"
}
layer {
  name: "conv2/norm2"
  type: "LRN"
  bottom: "conv2/3x3"
  top: "conv2/norm2"
  lrn_param {
    local_size: 5
    alpha: 0.0001
    beta: 0.75
  }
}
layer {
  name: "pool2/3x3_s2"
  type: "Pooling"
  bottom: "conv2/norm2"
  top: "pool2/3x3_s2"
  pooling_param {
    pool: MAX
    kernel_size: 3
    stride: 2
  }
}
layer {
  name: "inception_3a/1x1"
  type: "Convolution"
  bottom: "pool2/3x3_s2"
  top: "inception_3a/1x1"
  param {
    lr_mult: 1
    decay_mult: 1
  }
  param {
    lr_mult: 2
    decay_mult: 0
  }
  convolution_param {
    num_output: 64
    kernel_size: 1
    weight_filler {
      type: "xavier"
      std: 0.03
    }
    bias_filler {
      type: "constant"
      value: 0.2
    }
  }
}
layer {
  name: "inception_3a/relu_1x1"
  type: "ReLU"
  bottom: "inception_3a/1x1"
  top: "inception_3a/1x1"
}
layer {
  name: "inception_3a/3x3_reduce"
  type: "Convolution"
  bottom: "pool2/3x3_s2"
  top: "inception_3a/3x3_reduce"
  param {
    lr_mult: 1
    decay_mult: 1
  }
  param {
    lr_mult: 2
    decay_mult: 0
  }
  convolution_param {
    num_output: 96
    kernel_size: 1
    weight_filler {
      type: "xavier"
      std: 0.09
    }
    bias_filler {
      type: "constant"
      value: 0.2
    }
  }
}
layer {
  name: "inception_3a/relu_3x3_reduce"
  type: "ReLU"
  bottom: "inception_3a/3x3_reduce"
  top: "inception_3a/3x3_reduce"
}
layer {
  name: "inception_3a/3x3"
  type: "Convolution"
  bottom: "inception_3a/3x3_reduce"
  top: "inception_3a/3x3"
  param {
    lr_mult: 1
    decay_mult: 1
  }
  param {
    lr_mult: 2
    decay_mult: 0
  }
  convolution_param {
    num_output: 128
    pad: 1
    kernel_size: 3
    weight_filler {
      type: "xavier"
      std: 0.03
    }
    bias_filler {
      type: "constant"
      value: 0.2
    }
  }
}
layer {
  name: "inception_3a/relu_3x3"
  type: "ReLU"
  bottom: "inception_3a/3x3"
  top: "inception_3a/3x3"
}
layer {
  name: "inception_3a/5x5_reduce"
  type: "Convolution"
  bottom: "pool2/3x3_s2"
  top: "inception_3a/5x5_reduce"
  param {
    lr_mult: 1
    decay_mult: 1
  }
  param {
    lr_mult: 2
    decay_mult: 0
  }
  convolution_param {
    num_output: 16
    kernel_size: 1
    weight_filler {
      type: "xavier"
      std: 0.2
    }
    bias_filler {
      type: "constant"
      value: 0.2
    }
  }
}
layer {
  name: "inception_3a/relu_5x5_reduce"
  type: "ReLU"
  bottom: "inception_3a/5x5_reduce"
  top: "inception_3a/5x5_reduce"
}
layer {
  name: "inception_3a/5x5"
  type: "Convolution"
  bottom: "inception_3a/5x5_reduce"
  top: "inception_3a/5x5"
  param {
    lr_mult: 1
    decay_mult: 1
  }
  param {
    lr_mult: 2
    decay_mult: 0
  }
  convolution_param {
    num_output: 32
    pad: 2
    kernel_size: 5
    weight_filler {
      type: "xavier"
      std: 0.03
    }
    bias_filler {
      type: "constant"
      value: 0.2
    }
  }
}
layer {
  name: "inception_3a/relu_5x5"
  type: "ReLU"
  bottom: "inception_3a/5x5"
  top: "inception_3a/5x5"
}
layer {
  name: "inception_3a/pool"
  type: "Pooling"
  bottom: "pool2/3x3_s2"
  top: "inception_3a/pool"
  pooling_param {
    pool: MAX
    kernel_size: 3
    stride: 1
    pad: 1
  }
}
layer {
  name: "inception_3a/pool_proj"
  type: "Convolution"
  bottom: "inception_3a/pool"
  top: "inception_3a/pool_proj"
  param {
    lr_mult: 1
    decay_mult: 1
  }
  param {
    lr_mult: 2
    decay_mult: 0
  }
  convolution_param {
    num_output: 32
    kernel_size: 1
    weight_filler {
      type: "xavier"
      std: 0.1
    }
    bias_filler {
      type: "constant"
      value: 0.2
    }
  }
}
layer {
  name: "inception_3a/relu_pool_proj"
  type: "ReLU"
  bottom: "inception_3a/pool_proj"
  top: "inception_3a/pool_proj"
}
layer {
  name: "inception_3a/output"
  type: "Concat"
  bottom: "inception_3a/1x1"
  bottom: "inception_3a/3x3"
  bottom: "inception_3a/5x5"
  bottom: "inception_3a/pool_proj"
  top: "inception_3a/output"
}
layer {
  name: "inception_3b/1x1"
  type: "Convolution"
  bottom: "inception_3a/output"
  top: "inception_3b/1x1"
  param {
    lr_mult: 1
    decay_mult: 1
  }
  param {
    lr_mult: 2
    decay_mult: 0
  }
  convolution_param {
    num_output: 128
    kernel_size: 1
    weight_filler {
      type: "xavier"
      std: 0.03
    }
    bias_filler {
      type: "constant"
      value: 0.2
    }
  }
}
layer {
  name: "inception_3b/relu_1x1"
  type: "ReLU"
  bottom: "inception_3b/1x1"
  top: "inception_3b/1x1"
}
layer {
  name: "inception_3b/3x3_reduce"
  type: "Convolution"
  bottom: "inception_3a/output"
  top: "inception_3b/3x3_reduce"
  param {
    lr_mult: 1
    decay_mult: 1
  }
  param {
    lr_mult: 2
    decay_mult: 0
  }
  convolution_param {
    num_output: 128
    kernel_size: 1
    weight_filler {
      type: "xavier"
      std: 0.09
    }
    bias_filler {
      type: "constant"
      value: 0.2
    }
  }
}
layer {
  name: "inception_3b/relu_3x3_reduce"
  type: "ReLU"
  bottom: "inception_3b/3x3_reduce"
  top: "inception_3b/3x3_reduce"
}
layer {
  name: "inception_3b/3x3"
  type: "Convolution"
  bottom: "inception_3b/3x3_reduce"
  top: "inception_3b/3x3"
  param {
    lr_mult: 1
    decay_mult: 1
  }
  param {
    lr_mult: 2
    decay_mult: 0
  }
  convolution_param {
    num_output: 192
    pad: 1
    kernel_size: 3
    weight_filler {
      type: "xavier"
      std: 0.03
    }
    bias_filler {
      type: "constant"
      value: 0.2
    }
  }
}
layer {
  name: "inception_3b/relu_3x3"
  type: "ReLU"
  bottom: "inception_3b/3x3"
  top: "inception_3b/3x3"
}
layer {
  name: "inception_3b/5x5_reduce"
  type: "Convolution"
  bottom: "inception_3a/output"
  top: "inception_3b/5x5_reduce"
  param {
    lr_mult: 1
    decay_mult: 1
  }
  param {
    lr_mult: 2
    decay_mult: 0
  }
  convolution_param {
    num_output: 32
    kernel_size: 1
    weight_filler {
      type: "xavier"
      std: 0.2
    }
    bias_filler {
      type: "constant"
      value: 0.2
    }
  }
}
layer {
  name: "inception_3b/relu_5x5_reduce"
  type: "ReLU"
  bottom: "inception_3b/5x5_reduce"
  top: "inception_3b/5x5_reduce"
}
layer {
  name: "inception_3b/5x5"
  type: "Convolution"
  bottom: "inception_3b/5x5_reduce"
  top: "inception_3b/5x5"
  param {
    lr_mult: 1
    decay_mult: 1
  }
  param {
    lr_mult: 2
    decay_mult: 0
  }
  convolution_param {
    num_output: 96
    pad: 2
    kernel_size: 5
    weight_filler {
      type: "xavier"
      std: 0.03
    }
    bias_filler {
      type: "constant"
      value: 0.2
    }
  }
}
layer {
  name: "inception_3b/relu_5x5"
  type: "ReLU"
  bottom: "inception_3b/5x5"
  top: "inception_3b/5x5"
}
layer {
  name: "inception_3b/pool"
  type: "Pooling"
  bottom: "inception_3a/output"
  top: "inception_3b/pool"
  pooling_param {
    pool: MAX
    kernel_size: 3
    stride: 1
    pad: 1
  }
}
layer {
  name: "inception_3b/pool_proj"
  type: "Convolution"
  bottom: "inception_3b/pool"
  top: "inception_3b/pool_proj"
  param {
    lr_mult: 1
    decay_mult: 1
  }
  param {
    lr_mult: 2
    decay_mult: 0
  }
  convolution_param {
    num_output: 64
    kernel_size: 1
    weight_filler {
      type: "xavier"
      std: 0.1
    }
    bias_filler {
      type: "constant"
      value: 0.2
    }
  }
}
layer {
  name: "inception_3b/relu_pool_proj"
  type: "ReLU"
  bottom: "inception_3b/pool_proj"
  top: "inception_3b/pool_proj"
}
layer {
  name: "inception_3b/output"
  type: "Concat"
  bottom: "inception_3b/1x1"
  bottom: "inception_3b/3x3"
  bottom: "inception_3b/5x5"
  bottom: "inception_3b/pool_proj"
  top: "inception_3b/output"
}
layer {
  name: "pool3/3x3_s2"
  type: "Pooling"
  bottom: "inception_3b/output"
  top: "pool3/3x3_s2"
  pooling_param {
    pool: MAX
    kernel_size: 3
    stride: 2
  }
}
layer {
  name: "inception_4a/1x1"
  type: "Convolution"
  bottom: "pool3/3x3_s2"
  top: "inception_4a/1x1"
  param {
    lr_mult: 1
    decay_mult: 1
  }
  param {
    lr_mult: 2
    decay_mult: 0
  }
  convolution_param {
    num_output: 192
    kernel_size: 1
    weight_filler {
      type: "xavier"
      std: 0.03
    }
    bias_filler {
      type: "constant"
      value: 0.2
    }
  }
}
layer {
  name: "inception_4a/relu_1x1"
  type: "ReLU"
  bottom: "inception_4a/1x1"
  top: "inception_4a/1x1"
}
layer {
  name: "inception_4a/3x3_reduce"
  type: "Convolution"
  bottom: "pool3/3x3_s2"
  top: "inception_4a/3x3_reduce"
  param {
    lr_mult: 1
    decay_mult: 1
  }
  param {
    lr_mult: 2
    decay_mult: 0
  }
  convolution_param {
    num_output: 96
    kernel_size: 1
    weight_filler {
      type: "xavier"
      std: 0.09
    }
    bias_filler {
      type: "constant"
      value: 0.2
    }
  }
}
layer {
  name: "inception_4a/relu_3x3_reduce"
  type: "ReLU"
  bottom: "inception_4a/3x3_reduce"
  top: "inception_4a/3x3_reduce"
}
layer {
  name: "inception_4a/3x3"
  type: "Convolution"
  bottom: "inception_4a/3x3_reduce"
  top: "inception_4a/3x3"
  param {
    lr_mult: 1
    decay_mult: 1
  }
  param {
    lr_mult: 2
    decay_mult: 0
  }
  convolution_param {
    num_output: 208
    pad: 1
    kernel_size: 3
    weight_filler {
      type: "xavier"
      std: 0.03
    }
    bias_filler {
      type: "constant"
      value: 0.2
    }
  }
}
layer {
  name: "inception_4a/relu_3x3"
  type: "ReLU"
  bottom: "inception_4a/3x3"
  top: "inception_4a/3x3"
}
layer {
  name: "inception_4a/5x5_reduce"
  type: "Convolution"
  bottom: "pool3/3x3_s2"
  top: "inception_4a/5x5_reduce"
  param {
    lr_mult: 1
    decay_mult: 1
  }
  param {
    lr_mult: 2
    decay_mult: 0
  }
  convolution_param {
    num_output: 16
    kernel_size: 1
    weight_filler {
      type: "xavier"
      std: 0.2
    }
    bias_filler {
      type: "constant"
      value: 0.2
    }
  }
}
layer {
  name: "inception_4a/relu_5x5_reduce"
  type: "ReLU"
  bottom: "inception_4a/5x5_reduce"
  top: "inception_4a/5x5_reduce"
}
layer {
  name: "inception_4a/5x5"
  type: "Convolution"
  bottom: "inception_4a/5x5_reduce"
  top: "inception_4a/5x5"
  param {
    lr_mult: 1
    decay_mult: 1
  }
  param {
    lr_mult: 2
    decay_mult: 0
  }
  convolution_param {
    num_output: 48
    pad: 2
    kernel_size: 5
    weight_filler {
      type: "xavier"
      std: 0.03
    }
    bias_filler {
      type: "constant"
      value: 0.2
    }
  }
}
layer {
  name: "inception_4a/relu_5x5"
  type: "ReLU"
  bottom: "inception_4a/5x5"
  top: "inception_4a/5x5"
}
layer {
  name: "inception_4a/pool"
  type: "Pooling"
  bottom: "pool3/3x3_s2"
  top: "inception_4a/pool"
  pooling_param {
    pool: MAX
    kernel_size: 3
    stride: 1
    pad: 1
  }
}
layer {
  name: "inception_4a/pool_proj"
  type: "Convolution"
  bottom: "inception_4a/pool"
  top: "inception_4a/pool_proj"
  param {
    lr_mult: 1
    decay_mult: 1
  }
  param {
    lr_mult: 2
    decay_mult: 0
  }
  convolution_param {
    num_output: 64
    kernel_size: 1
    weight_filler {
      type: "xavier"
      std: 0.1
    }
    bias_filler {
      type: "constant"
      value: 0.2
    }
  }
}
layer {
  name: "inception_4a/relu_pool_proj"
  type: "ReLU"
  bottom: "inception_4a/pool_proj"
  top: "inception_4a/pool_proj"
}
layer {
  name: "inception_4a/output"
  type: "Concat"
  bottom: "inception_4a/1x1"
  bottom: "inception_4a/3x3"
  bottom: "inception_4a/5x5"
  bottom: "inception_4a/pool_proj"
  top: "inception_4a/output"
}
layer {
  name: "inception_4b/1x1"
  type: "Convolution"
  bottom: "inception_4a/output"
  top: "inception_4b/1x1"
  param {
    lr_mult: 1
    decay_mult: 1
  }
  param {
    lr_mult: 2
    decay_mult: 0
  }
  convolution_param {
    num_output: 160
    kernel_size: 1
    weight_filler {
      type: "xavier"
      std: 0.03
    }
    bias_filler {
      type: "constant"
      value: 0.2
    }
  }
}
layer {
  name: "inception_4b/relu_1x1"
  type: "ReLU"
  bottom: "inception_4b/1x1"
  top: "inception_4b/1x1"
}
layer {
  name: "inception_4b/3x3_reduce"
  type: "Convolution"
  bottom: "inception_4a/output"
  top: "inception_4b/3x3_reduce"
  param {
    lr_mult: 1
    decay_mult: 1
  }
  param {
    lr_mult: 2
    decay_mult: 0
  }
  convolution_param {
    num_output: 112
    kernel_size: 1
    weight_filler {
      type: "xavier"
      std: 0.09
    }
    bias_filler {
      type: "constant"
      value: 0.2
    }
  }
}
layer {
  name: "inception_4b/relu_3x3_reduce"
  type: "ReLU"
  bottom: "inception_4b/3x3_reduce"
  top: "inception_4b/3x3_reduce"
}
layer {
  name: "inception_4b/3x3"
  type: "Convolution"
  bottom: "inception_4b/3x3_reduce"
  top: "inception_4b/3x3"
  param {
    lr_mult: 1
    decay_mult: 1
  }
  param {
    lr_mult: 2
    decay_mult: 0
  }
  convolution_param {
    num_output: 224
    pad: 1
    kernel_size: 3
    weight_filler {
      type: "xavier"
      std: 0.03
    }
    bias_filler {
      type: "constant"
      value: 0.2
    }
  }
}
layer {
  name: "inception_4b/relu_3x3"
  type: "ReLU"
  bottom: "inception_4b/3x3"
  top: "inception_4b/3x3"
}
layer {
  name: "inception_4b/5x5_reduce"
  type: "Convolution"
  bottom: "inception_4a/output"
  top: "inception_4b/5x5_reduce"
  param {
    lr_mult: 1
    decay_mult: 1
  }
  param {
    lr_mult: 2
    decay_mult: 0
  }
  convolution_param {
    num_output: 24
    kernel_size: 1
    weight_filler {
      type: "xavier"
      std: 0.2
    }
    bias_filler {
      type: "constant"
      value: 0.2
    }
  }
}
layer {
  name: "inception_4b/relu_5x5_reduce"
  type: "ReLU"
  bottom: "inception_4b/5x5_reduce"
  top: "inception_4b/5x5_reduce"
}
layer {
  name: "inception_4b/5x5"
  type: "Convolution"
  bottom: "inception_4b/5x5_reduce"
  top: "inception_4b/5x5"
  param {
    lr_mult: 1
    decay_mult: 1
  }
  param {
    lr_mult: 2
    decay_mult: 0
  }
  convolution_param {
    num_output: 64
    pad: 2
    kernel_size: 5
    weight_filler {
      type: "xavier"
      std: 0.03
    }
    bias_filler {
      type: "constant"
      value: 0.2
    }
  }
}
layer {
  name: "inception_4b/relu_5x5"
  type: "ReLU"
  bottom: "inception_4b/5x5"
  top: "inception_4b/5x5"
}
layer {
  name: "inception_4b/pool"
  type: "Pooling"
  bottom: "inception_4a/output"
  top: "inception_4b/pool"
  pooling_param {
    pool: MAX
    kernel_size: 3
    stride: 1
    pad: 1
  }
}
layer {
  name: "inception_4b/pool_proj"
  type: "Convolution"
  bottom: "inception_4b/pool"
  top: "inception_4b/pool_proj"
  param {
    lr_mult: 1
    decay_mult: 1
  }
  param {
    lr_mult: 2
    decay_mult: 0
  }
  convolution_param {
    num_output: 64
    kernel_size: 1
    weight_filler {
      type: "xavier"
      std: 0.1
    }
    bias_filler {
      type: "constant"
      value: 0.2
    }
  }
}
layer {
  name: "inception_4b/relu_pool_proj"
  type: "ReLU"
  bottom: "inception_4b/pool_proj"
  top: "inception_4b/pool_proj"
}
layer {
  name: "inception_4b/output"
  type: "Concat"
  bottom: "inception_4b/1x1"
  bottom: "inception_4b/3x3"
  bottom: "inception_4b/5x5"
  bottom: "inception_4b/pool_proj"
  top: "inception_4b/output"
}
layer {
  name: "inception_4c/1x1"
  type: "Convolution"
  bottom: "inception_4b/output"
  top: "inception_4c/1x1"
  param {
    lr_mult: 1
    decay_mult: 1
  }
  param {
    lr_mult: 2
    decay_mult: 0
  }
  convolution_param {
    num_output: 128
    kernel_size: 1
    weight_filler {
      type: "xavier"
      std: 0.03
    }
    bias_filler {
      type: "constant"
      value: 0.2
    }
  }
}
layer {
  name: "inception_4c/relu_1x1"
  type: "ReLU"
  bottom: "inception_4c/1x1"
  top: "inception_4c/1x1"
}
layer {
  name: "inception_4c/3x3_reduce"
  type: "Convolution"
  bottom: "inception_4b/output"
  top: "inception_4c/3x3_reduce"
  param {
    lr_mult: 1
    decay_mult: 1
  }
  param {
    lr_mult: 2
    decay_mult: 0
  }
  convolution_param {
    num_output: 128
    kernel_size: 1
    weight_filler {
      type: "xavier"
      std: 0.09
    }
    bias_filler {
      type: "constant"
      value: 0.2
    }
  }
}
layer {
  name: "inception_4c/relu_3x3_reduce"
  type: "ReLU"
  bottom: "inception_4c/3x3_reduce"
  top: "inception_4c/3x3_reduce"
}
layer {
  name: "inception_4c/3x3"
  type: "Convolution"
  bottom: "inception_4c/3x3_reduce"
  top: "inception_4c/3x3"
  param {
    lr_mult: 1
    decay_mult: 1
  }
  param {
    lr_mult: 2
    decay_mult: 0
  }
  convolution_param {
    num_output: 256
    pad: 1
    kernel_size: 3
    weight_filler {
      type: "xavier"
      std: 0.03
    }
    bias_filler {
      type: "constant"
      value: 0.2
    }
  }
}
layer {
  name: "inception_4c/relu_3x3"
  type: "ReLU"
  bottom: "inception_4c/3x3"
  top: "inception_4c/3x3"
}
layer {
  name: "inception_4c/5x5_reduce"
  type: "Convolution"
  bottom: "inception_4b/output"
  top: "inception_4c/5x5_reduce"
  param {
    lr_mult: 1
    decay_mult: 1
  }
  param {
    lr_mult: 2
    decay_mult: 0
  }
  convolution_param {
    num_output: 24
    kernel_size: 1
    weight_filler {
      type: "xavier"
      std: 0.2
    }
    bias_filler {
      type: "constant"
      value: 0.2
    }
  }
}
layer {
  name: "inception_4c/relu_5x5_reduce"
  type: "ReLU"
  bottom: "inception_4c/5x5_reduce"
  top: "inception_4c/5x5_reduce"
}
layer {
  name: "inception_4c/5x5"
  type: "Convolution"
  bottom: "inception_4c/5x5_reduce"
  top: "inception_4c/5x5"
  param {
    lr_mult: 1
    decay_mult: 1
  }
  param {
    lr_mult: 2
    decay_mult: 0
  }
  convolution_param {
    num_output: 64
    pad: 2
    kernel_size: 5
    weight_filler {
      type: "xavier"
      std: 0.03
    }
    bias_filler {
      type: "constant"
      value: 0.2
    }
  }
}
layer {
  name: "inception_4c/relu_5x5"
  type: "ReLU"
  bottom: "inception_4c/5x5"
  top: "inception_4c/5x5"
}
layer {
  name: "inception_4c/pool"
  type: "Pooling"
  bottom: "inception_4b/output"
  top: "inception_4c/pool"
  pooling_param {
    pool: MAX
    kernel_size: 3
    stride: 1
    pad: 1
  }
}
layer {
  name: "inception_4c/pool_proj"
  type: "Convolution"
  bottom: "inception_4c/pool"
  top: "inception_4c/pool_proj"
  param {
    lr_mult: 1
    decay_mult: 1
  }
  param {
    lr_mult: 2
    decay_mult: 0
  }
  convolution_param {
    num_output: 64
    kernel_size: 1
    weight_filler {
      type: "xavier"
      std: 0.1
    }
    bias_filler {
      type: "constant"
      value: 0.2
    }
  }
}
layer {
  name: "inception_4c/relu_pool_proj"
  type: "ReLU"
  bottom: "inception_4c/pool_proj"
  top: "inception_4c/pool_proj"
}
layer {
  name: "inception_4c/output"
  type: "Concat"
  bottom: "inception_4c/1x1"
  bottom: "inception_4c/3x3"
  bottom: "inception_4c/5x5"
  bottom: "inception_4c/pool_proj"
  top: "inception_4c/output"
}
layer {
  name: "inception_4d/1x1"
  type: "Convolution"
  bottom: "inception_4c/output"
  top: "inception_4d/1x1"
  param {
    lr_mult: 1
    decay_mult: 1
  }
  param {
    lr_mult: 2
    decay_mult: 0
  }
  convolution_param {
    num_output: 112
    kernel_size: 1
    weight_filler {
      type: "xavier"
      std: 0.03
    }
    bias_filler {
      type: "constant"
      value: 0.2
    }
  }
}
layer {
  name: "inception_4d/relu_1x1"
  type: "ReLU"
  bottom: "inception_4d/1x1"
  top: "inception_4d/1x1"
}
layer {
  name: "inception_4d/3x3_reduce"
  type: "Convolution"
  bottom: "inception_4c/output"
  top: "inception_4d/3x3_reduce"
  param {
    lr_mult: 1
    decay_mult: 1
  }
  param {
    lr_mult: 2
    decay_mult: 0
  }
  convolution_param {
    num_output: 144
    kernel_size: 1
    weight_filler {
      type: "xavier"
      std: 0.09
    }
    bias_filler {
      type: "constant"
      value: 0.2
    }
  }
}
layer {
  name: "inception_4d/relu_3x3_reduce"
  type: "ReLU"
  bottom: "inception_4d/3x3_reduce"
  top: "inception_4d/3x3_reduce"
}
layer {
  name: "inception_4d/3x3"
  type: "Convolution"
  bottom: "inception_4d/3x3_reduce"
  top: "inception_4d/3x3"
  param {
    lr_mult: 1
    decay_mult: 1
  }
  param {
    lr_mult: 2
    decay_mult: 0
  }
  convolution_param {
    num_output: 288
    pad: 1
    kernel_size: 3
    weight_filler {
      type: "xavier"
      std: 0.03
    }
    bias_filler {
      type: "constant"
      value: 0.2
    }
  }
}
layer {
  name: "inception_4d/relu_3x3"
  type: "ReLU"
  bottom: "inception_4d/3x3"
  top: "inception_4d/3x3"
}
layer {
  name: "inception_4d/5x5_reduce"
  type: "Convolution"
  bottom: "inception_4c/output"
  top: "inception_4d/5x5_reduce"
  param {
    lr_mult: 1
    decay_mult: 1
  }
  param {
    lr_mult: 2
    decay_mult: 0
  }
  convolution_param {
    num_output: 32
    kernel_size: 1
    weight_filler {
      type: "xavier"
      std: 0.2
    }
    bias_filler {
      type: "constant"
      value: 0.2
    }
  }
}
layer {
  name: "inception_4d/relu_5x5_reduce"
  type: "ReLU"
  bottom: "inception_4d/5x5_reduce"
  top: "inception_4d/5x5_reduce"
}
layer {
  name: "inception_4d/5x5"
  type: "Convolution"
  bottom: "inception_4d/5x5_reduce"
  top: "inception_4d/5x5"
  param {
    lr_mult: 1
    decay_mult: 1
  }
  param {
    lr_mult: 2
    decay_mult: 0
  }
  convolution_param {
    num_output: 64
    pad: 2
    kernel_size: 5
    weight_filler {
      type: "xavier"
      std: 0.03
    }
    bias_filler {
      type: "constant"
      value: 0.2
    }
  }
}
layer {
  name: "inception_4d/relu_5x5"
  type: "ReLU"
  bottom: "inception_4d/5x5"
  top: "inception_4d/5x5"
}
layer {
  name: "inception_4d/pool"
  type: "Pooling"
  bottom: "inception_4c/output"
  top: "inception_4d/pool"
  pooling_param {
    pool: MAX
    kernel_size: 3
    stride: 1
    pad: 1
  }
}
layer {
  name: "inception_4d/pool_proj"
  type: "Convolution"
  bottom: "inception_4d/pool"
  top: "inception_4d/pool_proj"
  param {
    lr_mult: 1
    decay_mult: 1
  }
  param {
    lr_mult: 2
    decay_mult: 0
  }
  convolution_param {
    num_output: 64
    kernel_size: 1
    weight_filler {
      type: "xavier"
      std: 0.1
    }
    bias_filler {
      type: "constant"
      value: 0.2
    }
  }
}
layer {
  name: "inception_4d/relu_pool_proj"
  type: "ReLU"
  bottom: "inception_4d/pool_proj"
  top: "inception_4d/pool_proj"
}
layer {
  name: "inception_4d/output"
  type: "Concat"
  bottom: "inception_4d/1x1"
  bottom: "inception_4d/3x3"
  bottom: "inception_4d/5x5"
  bottom: "inception_4d/pool_proj"
  top: "inception_4d/output"
}
layer {
  name: "inception_4e/1x1"
  type: "Convolution"
  bottom: "inception_4d/output"
  top: "inception_4e/1x1"
  param {
    lr_mult: 1
    decay_mult: 1
  }
  param {
    lr_mult: 2
    decay_mult: 0
  }
  convolution_param {
    num_output: 256
    kernel_size: 1
    weight_filler {
      type: "xavier"
      std: 0.03
    }
    bias_filler {
      type: "constant"
      value: 0.2
    }
  }
}
layer {
  name: "inception_4e/relu_1x1"
  type: "ReLU"
  bottom: "inception_4e/1x1"
  top: "inception_4e/1x1"
}
layer {
  name: "inception_4e/3x3_reduce"
  type: "Convolution"
  bottom: "inception_4d/output"
  top: "inception_4e/3x3_reduce"
  param {
    lr_mult: 1
    decay_mult: 1
  }
  param {
    lr_mult: 2
    decay_mult: 0
  }
  convolution_param {
    num_output: 160
    kernel_size: 1
    weight_filler {
      type: "xavier"
      std: 0.09
    }
    bias_filler {
      type: "constant"
      value: 0.2
    }
  }
}
layer {
  name: "inception_4e/relu_3x3_reduce"
  type: "ReLU"
  bottom: "inception_4e/3x3_reduce"
  top: "inception_4e/3x3_reduce"
}
layer {
  name: "inception_4e/3x3"
  type: "Convolution"
  bottom: "inception_4e/3x3_reduce"
  top: "inception_4e/3x3"
  param {
    lr_mult: 1
    decay_mult: 1
  }
  param {
    lr_mult: 2
    decay_mult: 0
  }
  convolution_param {
    num_output: 320
    pad: 1
    kernel_size: 3
    weight_filler {
      type: "xavier"
      std: 0.03
    }
    bias_filler {
      type: "constant"
      value: 0.2
    }
  }
}
layer {
  name: "inception_4e/relu_3x3"
  type: "ReLU"
  bottom: "inception_4e/3x3"
  top: "inception_4e/3x3"
}
layer {
  name: "inception_4e/5x5_reduce"
  type: "Convolution"
  bottom: "inception_4d/output"
  top: "inception_4e/5x5_reduce"
  param {
    lr_mult: 1
    decay_mult: 1
  }
  param {
    lr_mult: 2
    decay_mult: 0
  }
  convolution_param {
    num_output: 32
    kernel_size: 1
    weight_filler {
      type: "xavier"
      std: 0.2
    }
    bias_filler {
      type: "constant"
      value: 0.2
    }
  }
}
layer {
  name: "inception_4e/relu_5x5_reduce"
  type: "ReLU"
  bottom: "inception_4e/5x5_reduce"
  top: "inception_4e/5x5_reduce"
}
layer {
  name: "inception_4e/5x5"
  type: "Convolution"
  bottom: "inception_4e/5x5_reduce"
  top: "inception_4e/5x5"
  param {
    lr_mult: 1
    decay_mult: 1
  }
  param {
    lr_mult: 2
    decay_mult: 0
  }
  convolution_param {
    num_output: 128
    pad: 2
    kernel_size: 5
    weight_filler {
      type: "xavier"
      std: 0.03
    }
    bias_filler {
      type: "constant"
      value: 0.2
    }
  }
}
layer {
  name: "inception_4e/relu_5x5"
  type: "ReLU"
  bottom: "inception_4e/5x5"
  top: "inception_4e/5x5"
}
layer {
  name: "inception_4e/pool"
  type: "Pooling"
  bottom: "inception_4d/output"
  top: "inception_4e/pool"
  pooling_param {
    pool: MAX
    kernel_size: 3
    stride: 1
    pad: 1
  }
}
layer {
  name: "inception_4e/pool_proj"
  type: "Convolution"
  bottom: "inception_4e/pool"
  top: "inception_4e/pool_proj"
  param {
    lr_mult: 1
    decay_mult: 1
  }
  param {
    lr_mult: 2
    decay_mult: 0
  }
  convolution_param {
    num_output: 128
    kernel_size: 1
    weight_filler {
      type: "xavier"
      std: 0.1
    }
    bias_filler {
      type: "constant"
      value: 0.2
    }
  }
}
layer {
  name: "inception_4e/relu_pool_proj"
  type: "ReLU"
  bottom: "inception_4e/pool_proj"
  top: "inception_4e/pool_proj"
}
layer {
  name: "inception_4e/output"
  type: "Concat"
  bottom: "inception_4e/1x1"
  bottom: "inception_4e/3x3"
  bottom: "inception_4e/5x5"
  bottom: "inception_4e/pool_proj"
  top: "inception_4e/output"
}
layer {
  name: "pool4/3x3_s2"
  type: "Pooling"
  bottom: "inception_4e/output"
  top: "pool4/3x3_s2"
  pooling_param {
    pool: MAX
    kernel_size: 3
    stride: 2
  }
}
layer {
  name: "inception_5a/1x1"
  type: "Convolution"
  bottom: "pool4/3x3_s2"
  top: "inception_5a/1x1"
  param {
    lr_mult: 1
    decay_mult: 1
  }
  param {
    lr_mult: 2
    decay_mult: 0
  }
  convolution_param {
    num_output: 256
    kernel_size: 1
    weight_filler {
      type: "xavier"
      std: 0.03
    }
    bias_filler {
      type: "constant"
      value: 0.2
    }
  }
}
layer {
  name: "inception_5a/relu_1x1"
  type: "ReLU"
  bottom: "inception_5a/1x1"
  top: "inception_5a/1x1"
}
layer {
  name: "inception_5a/3x3_reduce"
  type: "Convolution"
  bottom: "pool4/3x3_s2"
  top: "inception_5a/3x3_reduce"
  param {
    lr_mult: 1
    decay_mult: 1
  }
  param {
    lr_mult: 2
    decay_mult: 0
  }
  convolution_param {
    num_output: 160
    kernel_size: 1
    weight_filler {
      type: "xavier"
      std: 0.09
    }
    bias_filler {
      type: "constant"
      value: 0.2
    }
  }
}
layer {
  name: "inception_5a/relu_3x3_reduce"
  type: "ReLU"
  bottom: "inception_5a/3x3_reduce"
  top: "inception_5a/3x3_reduce"
}
layer {
  name: "inception_5a/3x3"
  type: "Convolution"
  bottom: "inception_5a/3x3_reduce"
  top: "inception_5a/3x3"
  param {
    lr_mult: 1
    decay_mult: 1
  }
  param {
    lr_mult: 2
    decay_mult: 0
  }
  convolution_param {
    num_output: 320
    pad: 1
    kernel_size: 3
    weight_filler {
      type: "xavier"
      std: 0.03
    }
    bias_filler {
      type: "constant"
      value: 0.2
    }
  }
}
layer {
  name: "inception_5a/relu_3x3"
  type: "ReLU"
  bottom: "inception_5a/3x3"
  top: "inception_5a/3x3"
}
layer {
  name: "inception_5a/5x5_reduce"
  type: "Convolution"
  bottom: "pool4/3x3_s2"
  top: "inception_5a/5x5_reduce"
  param {
    lr_mult: 1
    decay_mult: 1
  }
  param {
    lr_mult: 2
    decay_mult: 0
  }
  convolution_param {
    num_output: 32
    kernel_size: 1
    weight_filler {
      type: "xavier"
      std: 0.2
    }
    bias_filler {
      type: "constant"
      value: 0.2
    }
I0715 00:27:31.254326 17369 layer_factory.hpp:77] Creating layer data
I0715 00:27:31.254329 17373 layer_factory.hpp:77] Creating layer data
I0715 00:27:31.254364 17373 net.cpp:91] Creating Layer data
I0715 00:27:31.254364 17369 net.cpp:91] Creating Layer data
I0715 00:27:31.254380 17373 net.cpp:399] data -> data
I0715 00:27:31.254382 17369 net.cpp:399] data -> data
I0715 00:27:31.837606 17369 net.cpp:141] Setting up data
I0715 00:27:31.837676 17369 net.cpp:148] Top shape: 10 3 224 224 (1505280)
I0715 00:27:31.837682 17373 net.cpp:141] Setting up data
I0715 00:27:31.837728 17373 net.cpp:148] Top shape: 10 3 224 224 (1505280)
I0715 00:27:31.837735 17373 net.cpp:156] Memory required for data: 6021120
I0715 00:27:31.837682 17369 net.cpp:156] Memory required for data: 6021120
I0715 00:27:31.837772 17373 layer_factory.hpp:77] Creating layer conv1/7x7_s2
I0715 00:27:31.837777 17369 layer_factory.hpp:77] Creating layer conv1/7x7_s2
I0715 00:27:31.837816 17373 net.cpp:91] Creating Layer conv1/7x7_s2
I0715 00:27:31.837817 17369 net.cpp:91] Creating Layer conv1/7x7_s2
I0715 00:27:31.837831 17373 net.cpp:425] conv1/7x7_s2 <- data
I0715 00:27:31.837831 17369 net.cpp:425] conv1/7x7_s2 <- data
I0715 00:27:31.837852 17369 net.cpp:399] conv1/7x7_s2 -> conv1/7x7_s2
I0715 00:27:31.837852 17373 net.cpp:399] conv1/7x7_s2 -> conv1/7x7_s2
I0715 00:27:32.086526 17369 net.cpp:141] Setting up conv1/7x7_s2
I0715 00:27:32.086526 17373 net.cpp:141] Setting up conv1/7x7_s2
I0715 00:27:32.086587 17369 net.cpp:148] Top shape: 10 64 112 112 (8028160)
I0715 00:27:32.086591 17373 net.cpp:148] Top shape: 10 64 112 112 (8028160)
I0715 00:27:32.086596 17369 net.cpp:156] Memory required for data: 38133760
I0715 00:27:32.086597 17373 net.cpp:156] Memory required for data: 38133760
I0715 00:27:32.086634 17369 layer_factory.hpp:77] Creating layer conv1/relu_7x7
I0715 00:27:32.086635 17373 layer_factory.hpp:77] Creating layer conv1/relu_7x7
I0715 00:27:32.086658 17369 net.cpp:91] Creating Layer conv1/relu_7x7
I0715 00:27:32.086658 17373 net.cpp:91] Creating Layer conv1/relu_7x7
I0715 00:27:32.086668 17369 net.cpp:425] conv1/relu_7x7 <- conv1/7x7_s2
I0715 00:27:32.086670 17373 net.cpp:425] conv1/relu_7x7 <- conv1/7x7_s2
I0715 00:27:32.086678 17369 net.cpp:386] conv1/relu_7x7 -> conv1/7x7_s2 (in-place)
I0715 00:27:32.086681 17373 net.cpp:386] conv1/relu_7x7 -> conv1/7x7_s2 (in-place)
I0715 00:27:32.087894 17369 net.cpp:141] Setting up conv1/relu_7x7
I0715 00:27:32.087898 17373 net.cpp:141] Setting up conv1/relu_7x7
I0715 00:27:32.087909 17369 net.cpp:148] Top shape: 10 64 112 112 (8028160)
I0715 00:27:32.087914 17373 net.cpp:148] Top shape: 10 64 112 112 (8028160)
I0715 00:27:32.087915 17369 net.cpp:156] Memory required for data: 70246400
I0715 00:27:32.087920 17373 net.cpp:156] Memory required for data: 70246400
I0715 00:27:32.087923 17369 layer_factory.hpp:77] Creating layer pool1/3x3_s2
I0715 00:27:32.087926 17373 layer_factory.hpp:77] Creating layer pool1/3x3_s2
I0715 00:27:32.087936 17369 net.cpp:91] Creating Layer pool1/3x3_s2
I0715 00:27:32.087936 17373 net.cpp:91] Creating Layer pool1/3x3_s2
I0715 00:27:32.087945 17369 net.cpp:425] pool1/3x3_s2 <- conv1/7x7_s2
I0715 00:27:32.087949 17373 net.cpp:425] pool1/3x3_s2 <- conv1/7x7_s2
I0715 00:27:32.087959 17369 net.cpp:399] pool1/3x3_s2 -> pool1/3x3_s2
I0715 00:27:32.087961 17373 net.cpp:399] pool1/3x3_s2 -> pool1/3x3_s2
I0715 00:27:32.088057 17373 net.cpp:141] Setting up pool1/3x3_s2
I0715 00:27:32.088070 17373 net.cpp:148] Top shape: 10 64 56 56 (2007040)
I0715 00:27:32.088075 17373 net.cpp:156] Memory required for data: 78274560
I0715 00:27:32.088081 17373 layer_factory.hpp:77] Creating layer pool1/norm1
I0715 00:27:32.088099 17373 net.cpp:91] Creating Layer pool1/norm1
I0715 00:27:32.088104 17373 net.cpp:425] pool1/norm1 <- pool1/3x3_s2
I0715 00:27:32.088116 17373 net.cpp:399] pool1/norm1 -> pool1/norm1
I0715 00:27:32.088152 17369 net.cpp:141] Setting up pool1/3x3_s2
I0715 00:27:32.088191 17369 net.cpp:148] Top shape: 10 64 56 56 (2007040)
I0715 00:27:32.088196 17369 net.cpp:156] Memory required for data: 78274560
I0715 00:27:32.088205 17369 layer_factory.hpp:77] Creating layer pool1/norm1
I0715 00:27:32.088230 17369 net.cpp:91] Creating Layer pool1/norm1
I0715 00:27:32.088238 17369 net.cpp:425] pool1/norm1 <- pool1/3x3_s2
I0715 00:27:32.088249 17369 net.cpp:399] pool1/norm1 -> pool1/norm1
I0715 00:27:32.089444 17369 net.cpp:141] Setting up pool1/norm1
I0715 00:27:32.089467 17369 net.cpp:148] Top shape: 10 64 56 56 (2007040)
I0715 00:27:32.089473 17369 net.cpp:156] Memory required for data: 86302720
I0715 00:27:32.089478 17369 layer_factory.hpp:77] Creating layer conv2/3x3_reduce
I0715 00:27:32.089481 17373 net.cpp:141] Setting up pool1/norm1
I0715 00:27:32.089498 17373 net.cpp:148] Top shape: 10 64 56 56 (2007040)
I0715 00:27:32.089504 17373 net.cpp:156] Memory required for data: 86302720
I0715 00:27:32.089506 17369 net.cpp:91] Creating Layer conv2/3x3_reduce
I0715 00:27:32.089510 17373 layer_factory.hpp:77] Creating layer conv2/3x3_reduce
I0715 00:27:32.089514 17369 net.cpp:425] conv2/3x3_reduce <- pool1/norm1
I0715 00:27:32.089524 17369 net.cpp:399] conv2/3x3_reduce -> conv2/3x3_reduce
I0715 00:27:32.089535 17373 net.cpp:91] Creating Layer conv2/3x3_reduce
I0715 00:27:32.089543 17373 net.cpp:425] conv2/3x3_reduce <- pool1/norm1
I0715 00:27:32.089556 17373 net.cpp:399] conv2/3x3_reduce -> conv2/3x3_reduce
I0715 00:27:32.094727 17369 net.cpp:141] Setting up conv2/3x3_reduce
I0715 00:27:32.094746 17369 net.cpp:148] Top shape: 10 64 56 56 (2007040)
I0715 00:27:32.094754 17369 net.cpp:156] Memory required for data: 94330880
I0715 00:27:32.094769 17369 layer_factory.hpp:77] Creating layer conv2/relu_3x3_reduce
I0715 00:27:32.094779 17369 net.cpp:91] Creating Layer conv2/relu_3x3_reduce
I0715 00:27:32.094784 17369 net.cpp:425] conv2/relu_3x3_reduce <- conv2/3x3_reduce
I0715 00:27:32.094790 17369 net.cpp:386] conv2/relu_3x3_reduce -> conv2/3x3_reduce (in-place)
I0715 00:27:32.096416 17369 net.cpp:141] Setting up conv2/relu_3x3_reduce
I0715 00:27:32.096446 17369 net.cpp:148] Top shape: 10 64 56 56 (2007040)
I0715 00:27:32.096451 17369 net.cpp:156] Memory required for data: 102359040
I0715 00:27:32.096457 17369 layer_factory.hpp:77] Creating layer conv2/3x3
I0715 00:27:32.096475 17369 net.cpp:91] Creating Layer conv2/3x3
I0715 00:27:32.096482 17369 net.cpp:425] conv2/3x3 <- conv2/3x3_reduce
I0715 00:27:32.096489 17369 net.cpp:399] conv2/3x3 -> conv2/3x3
I0715 00:27:32.096550 17373 net.cpp:141] Setting up conv2/3x3_reduce
I0715 00:27:32.096570 17373 net.cpp:148] Top shape: 10 64 56 56 (2007040)
I0715 00:27:32.096576 17373 net.cpp:156] Memory required for data: 94330880
I0715 00:27:32.096591 17373 layer_factory.hpp:77] Creating layer conv2/relu_3x3_reduce
I0715 00:27:32.096601 17373 net.cpp:91] Creating Layer conv2/relu_3x3_reduce
I0715 00:27:32.096607 17373 net.cpp:425] conv2/relu_3x3_reduce <- conv2/3x3_reduce
I0715 00:27:32.096619 17373 net.cpp:386] conv2/relu_3x3_reduce -> conv2/3x3_reduce (in-place)
I0715 00:27:32.098047 17373 net.cpp:141] Setting up conv2/relu_3x3_reduce
I0715 00:27:32.098068 17373 net.cpp:148] Top shape: 10 64 56 56 (2007040)
I0715 00:27:32.098074 17373 net.cpp:156] Memory required for data: 102359040
I0715 00:27:32.098080 17373 layer_factory.hpp:77] Creating layer conv2/3x3
I0715 00:27:32.098099 17373 net.cpp:91] Creating Layer conv2/3x3
I0715 00:27:32.098105 17373 net.cpp:425] conv2/3x3 <- conv2/3x3_reduce
I0715 00:27:32.098115 17373 net.cpp:399] conv2/3x3 -> conv2/3x3
I0715 00:27:32.102668 17369 net.cpp:141] Setting up conv2/3x3
I0715 00:27:32.102707 17369 net.cpp:148] Top shape: 10 192 56 56 (6021120)
I0715 00:27:32.102713 17369 net.cpp:156] Memory required for data: 126443520
I0715 00:27:32.102726 17369 layer_factory.hpp:77] Creating layer conv2/relu_3x3
I0715 00:27:32.102741 17369 net.cpp:91] Creating Layer conv2/relu_3x3
I0715 00:27:32.102746 17369 net.cpp:425] conv2/relu_3x3 <- conv2/3x3
I0715 00:27:32.102754 17369 net.cpp:386] conv2/relu_3x3 -> conv2/3x3 (in-place)
I0715 00:27:32.104118 17369 net.cpp:141] Setting up conv2/relu_3x3
I0715 00:27:32.104138 17369 net.cpp:148] Top shape: 10 192 56 56 (6021120)
I0715 00:27:32.104135 17373 net.cpp:141] Setting up conv2/3x3
I0715 00:27:32.104145 17369 net.cpp:156] Memory required for data: 150528000
I0715 00:27:32.104157 17373 net.cpp:148] Top shape: 10 192 56 56 (6021120)
I0715 00:27:32.104159 17369 layer_factory.hpp:77] Creating layer conv2/norm2
I0715 00:27:32.104163 17373 net.cpp:156] Memory required for data: 126443520
I0715 00:27:32.104172 17369 net.cpp:91] Creating Layer conv2/norm2
I0715 00:27:32.104178 17369 net.cpp:425] conv2/norm2 <- conv2/3x3
I0715 00:27:32.104179 17373 layer_factory.hpp:77] Creating layer conv2/relu_3x3
I0715 00:27:32.104192 17369 net.cpp:399] conv2/norm2 -> conv2/norm2
I0715 00:27:32.104197 17373 net.cpp:91] Creating Layer conv2/relu_3x3
I0715 00:27:32.104203 17373 net.cpp:425] conv2/relu_3x3 <- conv2/3x3
I0715 00:27:32.104214 17373 net.cpp:386] conv2/relu_3x3 -> conv2/3x3 (in-place)
I0715 00:27:32.105330 17369 net.cpp:141] Setting up conv2/norm2
I0715 00:27:32.105347 17369 net.cpp:148] Top shape: 10 192 56 56 (6021120)
I0715 00:27:32.105352 17369 net.cpp:156] Memory required for data: 174612480
I0715 00:27:32.105358 17369 layer_factory.hpp:77] Creating layer pool2/3x3_s2
I0715 00:27:32.105376 17373 net.cpp:141] Setting up conv2/relu_3x3
I0715 00:27:32.105381 17369 net.cpp:91] Creating Layer pool2/3x3_s2
I0715 00:27:32.105391 17373 net.cpp:148] Top shape: 10 192 56 56 (6021120)
I0715 00:27:32.105394 17369 net.cpp:425] pool2/3x3_s2 <- conv2/norm2
I0715 00:27:32.105398 17373 net.cpp:156] Memory required for data: 150528000
I0715 00:27:32.105403 17369 net.cpp:399] pool2/3x3_s2 -> pool2/3x3_s2
I0715 00:27:32.105404 17373 layer_factory.hpp:77] Creating layer conv2/norm2
I0715 00:27:32.105432 17373 net.cpp:91] Creating Layer conv2/norm2
I0715 00:27:32.105438 17373 net.cpp:425] conv2/norm2 <- conv2/3x3
I0715 00:27:32.105446 17373 net.cpp:399] conv2/norm2 -> conv2/norm2
I0715 00:27:32.105473 17369 net.cpp:141] Setting up pool2/3x3_s2
I0715 00:27:32.105484 17369 net.cpp:148] Top shape: 10 192 28 28 (1505280)
I0715 00:27:32.105489 17369 net.cpp:156] Memory required for data: 180633600
I0715 00:27:32.105494 17369 layer_factory.hpp:77] Creating layer pool2/3x3_s2_pool2/3x3_s2_0_split
I0715 00:27:32.105511 17369 net.cpp:91] Creating Layer pool2/3x3_s2_pool2/3x3_s2_0_split
I0715 00:27:32.105516 17369 net.cpp:425] pool2/3x3_s2_pool2/3x3_s2_0_split <- pool2/3x3_s2
I0715 00:27:32.105525 17369 net.cpp:399] pool2/3x3_s2_pool2/3x3_s2_0_split -> pool2/3x3_s2_pool2/3x3_s2_0_split_0
I0715 00:27:32.105535 17369 net.cpp:399] pool2/3x3_s2_pool2/3x3_s2_0_split -> pool2/3x3_s2_pool2/3x3_s2_0_split_1
I0715 00:27:32.105542 17369 net.cpp:399] pool2/3x3_s2_pool2/3x3_s2_0_split -> pool2/3x3_s2_pool2/3x3_s2_0_split_2
I0715 00:27:32.105550 17369 net.cpp:399] pool2/3x3_s2_pool2/3x3_s2_0_split -> pool2/3x3_s2_pool2/3x3_s2_0_split_3
I0715 00:27:32.106335 17369 net.cpp:141] Setting up pool2/3x3_s2_pool2/3x3_s2_0_split
I0715 00:27:32.106348 17369 net.cpp:148] Top shape: 10 192 28 28 (1505280)
I0715 00:27:32.106353 17369 net.cpp:148] Top shape: 10 192 28 28 (1505280)
I0715 00:27:32.106359 17369 net.cpp:148] Top shape: 10 192 28 28 (1505280)
I0715 00:27:32.106364 17369 net.cpp:148] Top shape: 10 192 28 28 (1505280)
I0715 00:27:32.106367 17369 net.cpp:156] Memory required for data: 204718080
I0715 00:27:32.106372 17369 layer_factory.hpp:77] Creating layer inception_3a/1x1
I0715 00:27:32.106389 17369 net.cpp:91] Creating Layer inception_3a/1x1
I0715 00:27:32.106395 17369 net.cpp:425] inception_3a/1x1 <- pool2/3x3_s2_pool2/3x3_s2_0_split_0
I0715 00:27:32.106421 17369 net.cpp:399] inception_3a/1x1 -> inception_3a/1x1
I0715 00:27:32.106715 17373 net.cpp:141] Setting up conv2/norm2
I0715 00:27:32.106732 17373 net.cpp:148] Top shape: 10 192 56 56 (6021120)
I0715 00:27:32.106737 17373 net.cpp:156] Memory required for data: 174612480
I0715 00:27:32.106744 17373 layer_factory.hpp:77] Creating layer pool2/3x3_s2
I0715 00:27:32.106758 17373 net.cpp:91] Creating Layer pool2/3x3_s2
I0715 00:27:32.106765 17373 net.cpp:425] pool2/3x3_s2 <- conv2/norm2
I0715 00:27:32.106776 17373 net.cpp:399] pool2/3x3_s2 -> pool2/3x3_s2
I0715 00:27:32.106953 17373 net.cpp:141] Setting up pool2/3x3_s2
I0715 00:27:32.106966 17373 net.cpp:148] Top shape: 10 192 28 28 (1505280)
I0715 00:27:32.106971 17373 net.cpp:156] Memory required for data: 180633600
I0715 00:27:32.106976 17373 layer_factory.hpp:77] Creating layer pool2/3x3_s2_pool2/3x3_s2_0_split
I0715 00:27:32.106989 17373 net.cpp:91] Creating Layer pool2/3x3_s2_pool2/3x3_s2_0_split
I0715 00:27:32.106994 17373 net.cpp:425] pool2/3x3_s2_pool2/3x3_s2_0_split <- pool2/3x3_s2
I0715 00:27:32.107002 17373 net.cpp:399] pool2/3x3_s2_pool2/3x3_s2_0_split -> pool2/3x3_s2_pool2/3x3_s2_0_split_0
I0715 00:27:32.107012 17373 net.cpp:399] pool2/3x3_s2_pool2/3x3_s2_0_split -> pool2/3x3_s2_pool2/3x3_s2_0_split_1
I0715 00:27:32.107022 17373 net.cpp:399] pool2/3x3_s2_pool2/3x3_s2_0_split -> pool2/3x3_s2_pool2/3x3_s2_0_split_2
I0715 00:27:32.107030 17373 net.cpp:399] pool2/3x3_s2_pool2/3x3_s2_0_split -> pool2/3x3_s2_pool2/3x3_s2_0_split_3
I0715 00:27:32.107210 17373 net.cpp:141] Setting up pool2/3x3_s2_pool2/3x3_s2_0_split
I0715 00:27:32.107223 17373 net.cpp:148] Top shape: 10 192 28 28 (1505280)
I0715 00:27:32.107229 17373 net.cpp:148] Top shape: 10 192 28 28 (1505280)
I0715 00:27:32.107236 17373 net.cpp:148] Top shape: 10 192 28 28 (1505280)
I0715 00:27:32.107242 17373 net.cpp:148] Top shape: 10 192 28 28 (1505280)
I0715 00:27:32.107246 17373 net.cpp:156] Memory required for data: 204718080
I0715 00:27:32.107252 17373 layer_factory.hpp:77] Creating layer inception_3a/1x1
I0715 00:27:32.107270 17373 net.cpp:91] Creating Layer inception_3a/1x1
I0715 00:27:32.107277 17373 net.cpp:425] inception_3a/1x1 <- pool2/3x3_s2_pool2/3x3_s2_0_split_0
I0715 00:27:32.107290 17373 net.cpp:399] inception_3a/1x1 -> inception_3a/1x1
I0715 00:27:32.112645 17369 net.cpp:141] Setting up inception_3a/1x1
I0715 00:27:32.112678 17369 net.cpp:148] Top shape: 10 64 28 28 (501760)
I0715 00:27:32.112684 17369 net.cpp:156] Memory required for data: 206725120
I0715 00:27:32.112699 17369 layer_factory.hpp:77] Creating layer inception_3a/relu_1x1
I0715 00:27:32.112711 17369 net.cpp:91] Creating Layer inception_3a/relu_1x1
I0715 00:27:32.112718 17369 net.cpp:425] inception_3a/relu_1x1 <- inception_3a/1x1
I0715 00:27:32.112732 17369 net.cpp:386] inception_3a/relu_1x1 -> inception_3a/1x1 (in-place)
I0715 00:27:32.114599 17369 net.cpp:141] Setting up inception_3a/relu_1x1
I0715 00:27:32.114620 17369 net.cpp:148] Top shape: 10 64 28 28 (501760)
I0715 00:27:32.114626 17369 net.cpp:156] Memory required for data: 208732160
I0715 00:27:32.114632 17369 layer_factory.hpp:77] Creating layer inception_3a/3x3_reduce
I0715 00:27:32.114653 17369 net.cpp:91] Creating Layer inception_3a/3x3_reduce
I0715 00:27:32.114660 17369 net.cpp:425] inception_3a/3x3_reduce <- pool2/3x3_s2_pool2/3x3_s2_0_split_1
I0715 00:27:32.114671 17369 net.cpp:399] inception_3a/3x3_reduce -> inception_3a/3x3_reduce
I0715 00:27:32.115028 17373 net.cpp:141] Setting up inception_3a/1x1
I0715 00:27:32.115048 17373 net.cpp:148] Top shape: 10 64 28 28 (501760)
I0715 00:27:32.115056 17373 net.cpp:156] Memory required for data: 206725120
I0715 00:27:32.115067 17373 layer_factory.hpp:77] Creating layer inception_3a/relu_1x1
I0715 00:27:32.115077 17373 net.cpp:91] Creating Layer inception_3a/relu_1x1
I0715 00:27:32.115095 17373 net.cpp:425] inception_3a/relu_1x1 <- inception_3a/1x1
I0715 00:27:32.115104 17373 net.cpp:386] inception_3a/relu_1x1 -> inception_3a/1x1 (in-place)
I0715 00:27:32.116895 17373 net.cpp:141] Setting up inception_3a/relu_1x1
I0715 00:27:32.116919 17373 net.cpp:148] Top shape: 10 64 28 28 (501760)
I0715 00:27:32.116925 17373 net.cpp:156] Memory required for data: 208732160
I0715 00:27:32.116931 17373 layer_factory.hpp:77] Creating layer inception_3a/3x3_reduce
I0715 00:27:32.116955 17373 net.cpp:91] Creating Layer inception_3a/3x3_reduce
I0715 00:27:32.116961 17373 net.cpp:425] inception_3a/3x3_reduce <- pool2/3x3_s2_pool2/3x3_s2_0_split_1
I0715 00:27:32.116972 17373 net.cpp:399] inception_3a/3x3_reduce -> inception_3a/3x3_reduce
I0715 00:27:32.121249 17369 net.cpp:141] Setting up inception_3a/3x3_reduce
I0715 00:27:32.121273 17369 net.cpp:148] Top shape: 10 96 28 28 (752640)
I0715 00:27:32.121279 17369 net.cpp:156] Memory required for data: 211742720
I0715 00:27:32.121297 17369 layer_factory.hpp:77] Creating layer inception_3a/relu_3x3_reduce
I0715 00:27:32.121312 17369 net.cpp:91] Creating Layer inception_3a/relu_3x3_reduce
I0715 00:27:32.121320 17369 net.cpp:425] inception_3a/relu_3x3_reduce <- inception_3a/3x3_reduce
I0715 00:27:32.121328 17369 net.cpp:386] inception_3a/relu_3x3_reduce -> inception_3a/3x3_reduce (in-place)
I0715 00:27:32.122390 17369 net.cpp:141] Setting up inception_3a/relu_3x3_reduce
I0715 00:27:32.122407 17369 net.cpp:148] Top shape: 10 96 28 28 (752640)
I0715 00:27:32.122413 17369 net.cpp:156] Memory required for data: 214753280
I0715 00:27:32.122421 17369 layer_factory.hpp:77] Creating layer inception_3a/3x3
I0715 00:27:32.122444 17369 net.cpp:91] Creating Layer inception_3a/3x3
I0715 00:27:32.122452 17369 net.cpp:425] inception_3a/3x3 <- inception_3a/3x3_reduce
I0715 00:27:32.122462 17369 net.cpp:399] inception_3a/3x3 -> inception_3a/3x3
I0715 00:27:32.122581 17373 net.cpp:141] Setting up inception_3a/3x3_reduce
I0715 00:27:32.122597 17373 net.cpp:148] Top shape: 10 96 28 28 (752640)
I0715 00:27:32.122602 17373 net.cpp:156] Memory required for data: 211742720
I0715 00:27:32.122619 17373 layer_factory.hpp:77] Creating layer inception_3a/relu_3x3_reduce
I0715 00:27:32.122633 17373 net.cpp:91] Creating Layer inception_3a/relu_3x3_reduce
I0715 00:27:32.122640 17373 net.cpp:425] inception_3a/relu_3x3_reduce <- inception_3a/3x3_reduce
I0715 00:27:32.122648 17373 net.cpp:386] inception_3a/relu_3x3_reduce -> inception_3a/3x3_reduce (in-place)
I0715 00:27:32.124203 17373 net.cpp:141] Setting up inception_3a/relu_3x3_reduce
I0715 00:27:32.124222 17373 net.cpp:148] Top shape: 10 96 28 28 (752640)
I0715 00:27:32.124227 17373 net.cpp:156] Memory required for data: 214753280
I0715 00:27:32.124233 17373 layer_factory.hpp:77] Creating layer inception_3a/3x3
I0715 00:27:32.124256 17373 net.cpp:91] Creating Layer inception_3a/3x3
I0715 00:27:32.124264 17373 net.cpp:425] inception_3a/3x3 <- inception_3a/3x3_reduce
I0715 00:27:32.124274 17373 net.cpp:399] inception_3a/3x3 -> inception_3a/3x3
I0715 00:27:32.129400 17369 net.cpp:141] Setting up inception_3a/3x3
I0715 00:27:32.129418 17369 net.cpp:148] Top shape: 10 128 28 28 (1003520)
I0715 00:27:32.129426 17369 net.cpp:156] Memory required for data: 218767360
I0715 00:27:32.129436 17369 layer_factory.hpp:77] Creating layer inception_3a/relu_3x3
I0715 00:27:32.129446 17369 net.cpp:91] Creating Layer inception_3a/relu_3x3
I0715 00:27:32.129452 17369 net.cpp:425] inception_3a/relu_3x3 <- inception_3a/3x3
I0715 00:27:32.129465 17369 net.cpp:386] inception_3a/relu_3x3 -> inception_3a/3x3 (in-place)
I0715 00:27:32.129752 17373 net.cpp:141] Setting up inception_3a/3x3
I0715 00:27:32.129770 17373 net.cpp:148] Top shape: 10 128 28 28 (1003520)
I0715 00:27:32.129775 17373 net.cpp:156] Memory required for data: 218767360
I0715 00:27:32.129784 17373 layer_factory.hpp:77] Creating layer inception_3a/relu_3x3
I0715 00:27:32.129794 17373 net.cpp:91] Creating Layer inception_3a/relu_3x3
I0715 00:27:32.129801 17373 net.cpp:425] inception_3a/relu_3x3 <- inception_3a/3x3
I0715 00:27:32.129812 17373 net.cpp:386] inception_3a/relu_3x3 -> inception_3a/3x3 (in-place)
I0715 00:27:32.129839 17369 net.cpp:141] Setting up inception_3a/relu_3x3
I0715 00:27:32.129853 17369 net.cpp:148] Top shape: 10 128 28 28 (1003520)
I0715 00:27:32.129858 17369 net.cpp:156] Memory required for data: 222781440
I0715 00:27:32.129863 17369 layer_factory.hpp:77] Creating layer inception_3a/5x5_reduce
I0715 00:27:32.129881 17369 net.cpp:91] Creating Layer inception_3a/5x5_reduce
I0715 00:27:32.129887 17369 net.cpp:425] inception_3a/5x5_reduce <- pool2/3x3_s2_pool2/3x3_s2_0_split_2
I0715 00:27:32.129902 17369 net.cpp:399] inception_3a/5x5_reduce -> inception_3a/5x5_reduce
I0715 00:27:32.130914 17373 net.cpp:141] Setting up inception_3a/relu_3x3
I0715 00:27:32.130933 17373 net.cpp:148] Top shape: 10 128 28 28 (1003520)
I0715 00:27:32.130937 17373 net.cpp:156] Memory required for data: 222781440
I0715 00:27:32.130944 17373 layer_factory.hpp:77] Creating layer inception_3a/5x5_reduce
I0715 00:27:32.130960 17373 net.cpp:91] Creating Layer inception_3a/5x5_reduce
I0715 00:27:32.130967 17373 net.cpp:425] inception_3a/5x5_reduce <- pool2/3x3_s2_pool2/3x3_s2_0_split_2
I0715 00:27:32.130981 17373 net.cpp:399] inception_3a/5x5_reduce -> inception_3a/5x5_reduce
I0715 00:27:32.134907 17369 net.cpp:141] Setting up inception_3a/5x5_reduce
I0715 00:27:32.134925 17369 net.cpp:148] Top shape: 10 16 28 28 (125440)
I0715 00:27:32.134932 17369 net.cpp:156] Memory required for data: 223283200
I0715 00:27:32.134941 17369 layer_factory.hpp:77] Creating layer inception_3a/relu_5x5_reduce
I0715 00:27:32.134955 17369 net.cpp:91] Creating Layer inception_3a/relu_5x5_reduce
I0715 00:27:32.134963 17369 net.cpp:425] inception_3a/relu_5x5_reduce <- inception_3a/5x5_reduce
I0715 00:27:32.134970 17369 net.cpp:386] inception_3a/relu_5x5_reduce -> inception_3a/5x5_reduce (in-place)
I0715 00:27:32.135944 17373 net.cpp:141] Setting up inception_3a/5x5_reduce
I0715 00:27:32.135962 17373 net.cpp:148] Top shape: 10 16 28 28 (125440)
I0715 00:27:32.135967 17373 net.cpp:156] Memory required for data: 223283200
I0715 00:27:32.135978 17373 layer_factory.hpp:77] Creating layer inception_3a/relu_5x5_reduce
I0715 00:27:32.135990 17373 net.cpp:91] Creating Layer inception_3a/relu_5x5_reduce
I0715 00:27:32.135998 17373 net.cpp:425] inception_3a/relu_5x5_reduce <- inception_3a/5x5_reduce
I0715 00:27:32.136006 17373 net.cpp:386] inception_3a/relu_5x5_reduce -> inception_3a/5x5_reduce (in-place)
I0715 00:27:32.136009 17369 net.cpp:141] Setting up inception_3a/relu_5x5_reduce
I0715 00:27:32.136024 17369 net.cpp:148] Top shape: 10 16 28 28 (125440)
I0715 00:27:32.136029 17369 net.cpp:156] Memory required for data: 223784960
I0715 00:27:32.136035 17369 layer_factory.hpp:77] Creating layer inception_3a/5x5
I0715 00:27:32.136055 17369 net.cpp:91] Creating Layer inception_3a/5x5
I0715 00:27:32.136062 17369 net.cpp:425] inception_3a/5x5 <- inception_3a/5x5_reduce
I0715 00:27:32.136072 17369 net.cpp:399] inception_3a/5x5 -> inception_3a/5x5
I0715 00:27:32.136548 17373 net.cpp:141] Setting up inception_3a/relu_5x5_reduce
I0715 00:27:32.136561 17373 net.cpp:148] Top shape: 10 16 28 28 (125440)
I0715 00:27:32.136567 17373 net.cpp:156] Memory required for data: 223784960
I0715 00:27:32.136572 17373 layer_factory.hpp:77] Creating layer inception_3a/5x5
I0715 00:27:32.136595 17373 net.cpp:91] Creating Layer inception_3a/5x5
I0715 00:27:32.136601 17373 net.cpp:425] inception_3a/5x5 <- inception_3a/5x5_reduce
I0715 00:27:32.136611 17373 net.cpp:399] inception_3a/5x5 -> inception_3a/5x5
I0715 00:27:32.142632 17369 net.cpp:141] Setting up inception_3a/5x5
I0715 00:27:32.142652 17369 net.cpp:148] Top shape: 10 32 28 28 (250880)
I0715 00:27:32.142658 17369 net.cpp:156] Memory required for data: 224788480
I0715 00:27:32.142678 17369 layer_factory.hpp:77] Creating layer inception_3a/relu_5x5
I0715 00:27:32.142699 17369 net.cpp:91] Creating Layer inception_3a/relu_5x5
I0715 00:27:32.142706 17369 net.cpp:425] inception_3a/relu_5x5 <- inception_3a/5x5
I0715 00:27:32.142719 17369 net.cpp:386] inception_3a/relu_5x5 -> inception_3a/5x5 (in-place)
I0715 00:27:32.143448 17373 net.cpp:141] Setting up inception_3a/5x5
I0715 00:27:32.143471 17373 net.cpp:148] Top shape: 10 32 28 28 (250880)
I0715 00:27:32.143477 17373 net.cpp:156] Memory required for data: 224788480
I0715 00:27:32.143488 17373 layer_factory.hpp:77] Creating layer inception_3a/relu_5x5
I0715 00:27:32.143498 17373 net.cpp:91] Creating Layer inception_3a/relu_5x5
I0715 00:27:32.143504 17373 net.cpp:425] inception_3a/relu_5x5 <- inception_3a/5x5
I0715 00:27:32.143515 17373 net.cpp:386] inception_3a/relu_5x5 -> inception_3a/5x5 (in-place)
I0715 00:27:32.144671 17369 net.cpp:141] Setting up inception_3a/relu_5x5
I0715 00:27:32.144682 17373 net.cpp:141] Setting up inception_3a/relu_5x5
I0715 00:27:32.144693 17369 net.cpp:148] Top shape: 10 32 28 28 (250880)
I0715 00:27:32.144696 17373 net.cpp:148] Top shape: 10 32 28 28 (250880)
I0715 00:27:32.144700 17369 net.cpp:156] Memory required for data: 225792000
I0715 00:27:32.144701 17373 net.cpp:156] Memory required for data: 225792000
I0715 00:27:32.144706 17369 layer_factory.hpp:77] Creating layer inception_3a/pool
I0715 00:27:32.144707 17373 layer_factory.hpp:77] Creating layer inception_3a/pool
I0715 00:27:32.144726 17369 net.cpp:91] Creating Layer inception_3a/pool
I0715 00:27:32.144731 17373 net.cpp:91] Creating Layer inception_3a/pool
I0715 00:27:32.144734 17369 net.cpp:425] inception_3a/pool <- pool2/3x3_s2_pool2/3x3_s2_0_split_3
I0715 00:27:32.144738 17373 net.cpp:425] inception_3a/pool <- pool2/3x3_s2_pool2/3x3_s2_0_split_3
I0715 00:27:32.144744 17369 net.cpp:399] inception_3a/pool -> inception_3a/pool
I0715 00:27:32.144748 17373 net.cpp:399] inception_3a/pool -> inception_3a/pool
I0715 00:27:32.144881 17369 net.cpp:141] Setting up inception_3a/pool
I0715 00:27:32.144893 17369 net.cpp:148] Top shape: 10 192 28 28 (1505280)
I0715 00:27:32.144898 17369 net.cpp:156] Memory required for data: 231813120
I0715 00:27:32.144904 17369 layer_factory.hpp:77] Creating layer inception_3a/pool_proj
I0715 00:27:32.144906 17373 net.cpp:141] Setting up inception_3a/pool
I0715 00:27:32.144919 17373 net.cpp:148] Top shape: 10 192 28 28 (1505280)
I0715 00:27:32.144922 17369 net.cpp:91] Creating Layer inception_3a/pool_proj
I0715 00:27:32.144924 17373 net.cpp:156] Memory required for data: 231813120
I0715 00:27:32.144928 17369 net.cpp:425] inception_3a/pool_proj <- inception_3a/pool
I0715 00:27:32.144930 17373 layer_factory.hpp:77] Creating layer inception_3a/pool_proj
I0715 00:27:32.144949 17369 net.cpp:399] inception_3a/pool_proj -> inception_3a/pool_proj
I0715 00:27:32.144953 17373 net.cpp:91] Creating Layer inception_3a/pool_proj
I0715 00:27:32.144960 17373 net.cpp:425] inception_3a/pool_proj <- inception_3a/pool
I0715 00:27:32.144974 17373 net.cpp:399] inception_3a/pool_proj -> inception_3a/pool_proj
I0715 00:27:32.149863 17373 net.cpp:141] Setting up inception_3a/pool_proj
I0715 00:27:32.149885 17373 net.cpp:148] Top shape: 10 32 28 28 (250880)
I0715 00:27:32.149891 17373 net.cpp:156] Memory required for data: 232816640
I0715 00:27:32.149906 17373 layer_factory.hpp:77] Creating layer inception_3a/relu_pool_proj
I0715 00:27:32.149920 17373 net.cpp:91] Creating Layer inception_3a/relu_pool_proj
I0715 00:27:32.149926 17373 net.cpp:425] inception_3a/relu_pool_proj <- inception_3a/pool_proj
I0715 00:27:32.149935 17373 net.cpp:386] inception_3a/relu_pool_proj -> inception_3a/pool_proj (in-place)
I0715 00:27:32.150221 17369 net.cpp:141] Setting up inception_3a/pool_proj
I0715 00:27:32.150239 17369 net.cpp:148] Top shape: 10 32 28 28 (250880)
I0715 00:27:32.150244 17369 net.cpp:156] Memory required for data: 232816640
I0715 00:27:32.150266 17369 layer_factory.hpp:77] Creating layer inception_3a/relu_pool_proj
I0715 00:27:32.150279 17369 net.cpp:91] Creating Layer inception_3a/relu_pool_proj
I0715 00:27:32.150285 17369 net.cpp:425] inception_3a/relu_pool_proj <- inception_3a/pool_proj
I0715 00:27:32.150295 17369 net.cpp:386] inception_3a/relu_pool_proj -> inception_3a/pool_proj (in-place)
I0715 00:27:32.150310 17373 net.cpp:141] Setting up inception_3a/relu_pool_proj
I0715 00:27:32.150324 17373 net.cpp:148] Top shape: 10 32 28 28 (250880)
I0715 00:27:32.150329 17373 net.cpp:156] Memory required for data: 233820160
I0715 00:27:32.150336 17373 layer_factory.hpp:77] Creating layer inception_3a/output
I0715 00:27:32.150358 17373 net.cpp:91] Creating Layer inception_3a/output
I0715 00:27:32.150365 17373 net.cpp:425] inception_3a/output <- inception_3a/1x1
I0715 00:27:32.150372 17373 net.cpp:425] inception_3a/output <- inception_3a/3x3
I0715 00:27:32.150378 17373 net.cpp:425] inception_3a/output <- inception_3a/5x5
I0715 00:27:32.150384 17373 net.cpp:425] inception_3a/output <- inception_3a/pool_proj
I0715 00:27:32.150394 17373 net.cpp:399] inception_3a/output -> inception_3a/output
I0715 00:27:32.151082 17373 net.cpp:141] Setting up inception_3a/output
I0715 00:27:32.151094 17373 net.cpp:148] Top shape: 10 256 28 28 (2007040)
I0715 00:27:32.151098 17373 net.cpp:156] Memory required for data: 241848320
I0715 00:27:32.151104 17373 layer_factory.hpp:77] Creating layer inception_3a/output_inception_3a/output_0_split
I0715 00:27:32.151119 17373 net.cpp:91] Creating Layer inception_3a/output_inception_3a/output_0_split
I0715 00:27:32.151125 17373 net.cpp:425] inception_3a/output_inception_3a/output_0_split <- inception_3a/output
I0715 00:27:32.151134 17373 net.cpp:399] inception_3a/output_inception_3a/output_0_split -> inception_3a/output_inception_3a/output_0_split_0
I0715 00:27:32.151144 17373 net.cpp:399] inception_3a/output_inception_3a/output_0_split -> inception_3a/output_inception_3a/output_0_split_1
I0715 00:27:32.151154 17373 net.cpp:399] inception_3a/output_inception_3a/output_0_split -> inception_3a/output_inception_3a/output_0_split_2
I0715 00:27:32.151170 17373 net.cpp:399] inception_3a/output_inception_3a/output_0_split -> inception_3a/output_inception_3a/output_0_split_3
I0715 00:27:32.151190 17369 net.cpp:141] Setting up inception_3a/relu_pool_proj
I0715 00:27:32.151206 17369 net.cpp:148] Top shape: 10 32 28 28 (250880)
I0715 00:27:32.151211 17369 net.cpp:156] Memory required for data: 233820160
I0715 00:27:32.151217 17369 layer_factory.hpp:77] Creating layer inception_3a/output
I0715 00:27:32.151229 17369 net.cpp:91] Creating Layer inception_3a/output
I0715 00:27:32.151235 17369 net.cpp:425] inception_3a/output <- inception_3a/1x1
I0715 00:27:32.151243 17369 net.cpp:425] inception_3a/output <- inception_3a/3x3
I0715 00:27:32.151249 17369 net.cpp:425] inception_3a/output <- inception_3a/5x5
I0715 00:27:32.151255 17369 net.cpp:425] inception_3a/output <- inception_3a/pool_proj
I0715 00:27:32.151262 17369 net.cpp:399] inception_3a/output -> inception_3a/output
I0715 00:27:32.151268 17373 net.cpp:141] Setting up inception_3a/output_inception_3a/output_0_split
I0715 00:27:32.151278 17373 net.cpp:148] Top shape: 10 256 28 28 (2007040)
I0715 00:27:32.151284 17373 net.cpp:148] Top shape: 10 256 28 28 (2007040)
I0715 00:27:32.151290 17373 net.cpp:148] Top shape: 10 256 28 28 (2007040)
I0715 00:27:32.151296 17373 net.cpp:148] Top shape: 10 256 28 28 (2007040)
I0715 00:27:32.151301 17373 net.cpp:156] Memory required for data: 273960960
I0715 00:27:32.151306 17373 layer_factory.hpp:77] Creating layer inception_3b/1x1
I0715 00:27:32.151317 17369 net.cpp:141] Setting up inception_3a/output
I0715 00:27:32.151324 17373 net.cpp:91] Creating Layer inception_3b/1x1
I0715 00:27:32.151327 17369 net.cpp:148] Top shape: 10 256 28 28 (2007040)
I0715 00:27:32.151329 17373 net.cpp:425] inception_3b/1x1 <- inception_3a/output_inception_3a/output_0_split_0
I0715 00:27:32.151334 17369 net.cpp:156] Memory required for data: 241848320
I0715 00:27:32.151338 17369 layer_factory.hpp:77] Creating layer inception_3a/output_inception_3a/output_0_split
I0715 00:27:32.151343 17373 net.cpp:399] inception_3b/1x1 -> inception_3b/1x1
I0715 00:27:32.151347 17369 net.cpp:91] Creating Layer inception_3a/output_inception_3a/output_0_split
I0715 00:27:32.151352 17369 net.cpp:425] inception_3a/output_inception_3a/output_0_split <- inception_3a/output
I0715 00:27:32.151363 17369 net.cpp:399] inception_3a/output_inception_3a/output_0_split -> inception_3a/output_inception_3a/output_0_split_0
I0715 00:27:32.151373 17369 net.cpp:399] inception_3a/output_inception_3a/output_0_split -> inception_3a/output_inception_3a/output_0_split_1
I0715 00:27:32.151382 17369 net.cpp:399] inception_3a/output_inception_3a/output_0_split -> inception_3a/output_inception_3a/output_0_split_2
I0715 00:27:32.151391 17369 net.cpp:399] inception_3a/output_inception_3a/output_0_split -> inception_3a/output_inception_3a/output_0_split_3
I0715 00:27:32.151689 17369 net.cpp:141] Setting up inception_3a/output_inception_3a/output_0_split
I0715 00:27:32.151705 17369 net.cpp:148] Top shape: 10 256 28 28 (2007040)
I0715 00:27:32.151711 17369 net.cpp:148] Top shape: 10 256 28 28 (2007040)
I0715 00:27:32.151717 17369 net.cpp:148] Top shape: 10 256 28 28 (2007040)
I0715 00:27:32.151722 17369 net.cpp:148] Top shape: 10 256 28 28 (2007040)
I0715 00:27:32.151727 17369 net.cpp:156] Memory required for data: 273960960
I0715 00:27:32.151733 17369 layer_factory.hpp:77] Creating layer inception_3b/1x1
I0715 00:27:32.151751 17369 net.cpp:91] Creating Layer inception_3b/1x1
I0715 00:27:32.151757 17369 net.cpp:425] inception_3b/1x1 <- inception_3a/output_inception_3a/output_0_split_0
I0715 00:27:32.151767 17369 net.cpp:399] inception_3b/1x1 -> inception_3b/1x1
I0715 00:27:32.155547 17373 net.cpp:141] Setting up inception_3b/1x1
I0715 00:27:32.155565 17373 net.cpp:148] Top shape: 10 128 28 28 (1003520)
I0715 00:27:32.155571 17373 net.cpp:156] Memory required for data: 277975040
I0715 00:27:32.155581 17373 layer_factory.hpp:77] Creating layer inception_3b/relu_1x1
I0715 00:27:32.155591 17373 net.cpp:91] Creating Layer inception_3b/relu_1x1
I0715 00:27:32.155597 17373 net.cpp:425] inception_3b/relu_1x1 <- inception_3b/1x1
I0715 00:27:32.155608 17373 net.cpp:386] inception_3b/relu_1x1 -> inception_3b/1x1 (in-place)
I0715 00:27:32.156771 17373 net.cpp:141] Setting up inception_3b/relu_1x1
I0715 00:27:32.156787 17373 net.cpp:148] Top shape: 10 128 28 28 (1003520)
I0715 00:27:32.156792 17373 net.cpp:156] Memory required for data: 281989120
I0715 00:27:32.156798 17373 layer_factory.hpp:77] Creating layer inception_3b/3x3_reduce
I0715 00:27:32.156817 17373 net.cpp:91] Creating Layer inception_3b/3x3_reduce
I0715 00:27:32.156823 17373 net.cpp:425] inception_3b/3x3_reduce <- inception_3a/output_inception_3a/output_0_split_1
I0715 00:27:32.156842 17373 net.cpp:399] inception_3b/3x3_reduce -> inception_3b/3x3_reduce
I0715 00:27:32.156847 17369 net.cpp:141] Setting up inception_3b/1x1
I0715 00:27:32.156865 17369 net.cpp:148] Top shape: 10 128 28 28 (1003520)
I0715 00:27:32.156872 17369 net.cpp:156] Memory required for data: 277975040
I0715 00:27:32.156882 17369 layer_factory.hpp:77] Creating layer inception_3b/relu_1x1
I0715 00:27:32.156891 17369 net.cpp:91] Creating Layer inception_3b/relu_1x1
I0715 00:27:32.156898 17369 net.cpp:425] inception_3b/relu_1x1 <- inception_3b/1x1
I0715 00:27:32.156905 17369 net.cpp:386] inception_3b/relu_1x1 -> inception_3b/1x1 (in-place)
I0715 00:27:32.157377 17369 net.cpp:141] Setting up inception_3b/relu_1x1
I0715 00:27:32.157392 17369 net.cpp:148] Top shape: 10 128 28 28 (1003520)
I0715 00:27:32.157397 17369 net.cpp:156] Memory required for data: 281989120
I0715 00:27:32.157402 17369 layer_factory.hpp:77] Creating layer inception_3b/3x3_reduce
I0715 00:27:32.157421 17369 net.cpp:91] Creating Layer inception_3b/3x3_reduce
I0715 00:27:32.157428 17369 net.cpp:425] inception_3b/3x3_reduce <- inception_3a/output_inception_3a/output_0_split_1
I0715 00:27:32.157443 17369 net.cpp:399] inception_3b/3x3_reduce -> inception_3b/3x3_reduce
I0715 00:27:32.162106 17373 net.cpp:141] Setting up inception_3b/3x3_reduce
I0715 00:27:32.162125 17373 net.cpp:148] Top shape: 10 128 28 28 (1003520)
I0715 00:27:32.162132 17373 net.cpp:156] Memory required for data: 286003200
I0715 00:27:32.162142 17373 layer_factory.hpp:77] Creating layer inception_3b/relu_3x3_reduce
I0715 00:27:32.162152 17373 net.cpp:91] Creating Layer inception_3b/relu_3x3_reduce
I0715 00:27:32.162158 17373 net.cpp:425] inception_3b/relu_3x3_reduce <- inception_3b/3x3_reduce
I0715 00:27:32.162169 17373 net.cpp:386] inception_3b/relu_3x3_reduce -> inception_3b/3x3_reduce (in-place)
I0715 00:27:32.163063 17369 net.cpp:141] Setting up inception_3b/3x3_reduce
I0715 00:27:32.163081 17369 net.cpp:148] Top shape: 10 128 28 28 (1003520)
I0715 00:27:32.163087 17369 net.cpp:156] Memory required for data: 286003200
I0715 00:27:32.163097 17369 layer_factory.hpp:77] Creating layer inception_3b/relu_3x3_reduce
I0715 00:27:32.163107 17369 net.cpp:91] Creating Layer inception_3b/relu_3x3_reduce
I0715 00:27:32.163113 17369 net.cpp:425] inception_3b/relu_3x3_reduce <- inception_3b/3x3_reduce
I0715 00:27:32.163135 17369 net.cpp:386] inception_3b/relu_3x3_reduce -> inception_3b/3x3_reduce (in-place)
I0715 00:27:32.163133 17373 net.cpp:141] Setting up inception_3b/relu_3x3_reduce
I0715 00:27:32.163149 17373 net.cpp:148] Top shape: 10 128 28 28 (1003520)
I0715 00:27:32.163154 17373 net.cpp:156] Memory required for data: 290017280
I0715 00:27:32.163161 17373 layer_factory.hpp:77] Creating layer inception_3b/3x3
I0715 00:27:32.163177 17373 net.cpp:91] Creating Layer inception_3b/3x3
I0715 00:27:32.163183 17373 net.cpp:425] inception_3b/3x3 <- inception_3b/3x3_reduce
I0715 00:27:32.163197 17373 net.cpp:399] inception_3b/3x3 -> inception_3b/3x3
I0715 00:27:32.164803 17369 net.cpp:141] Setting up inception_3b/relu_3x3_reduce
I0715 00:27:32.164824 17369 net.cpp:148] Top shape: 10 128 28 28 (1003520)
I0715 00:27:32.164829 17369 net.cpp:156] Memory required for data: 290017280
I0715 00:27:32.164835 17369 layer_factory.hpp:77] Creating layer inception_3b/3x3
I0715 00:27:32.164854 17369 net.cpp:91] Creating Layer inception_3b/3x3
I0715 00:27:32.164860 17369 net.cpp:425] inception_3b/3x3 <- inception_3b/3x3_reduce
I0715 00:27:32.164870 17369 net.cpp:399] inception_3b/3x3 -> inception_3b/3x3
I0715 00:27:32.170593 17373 net.cpp:141] Setting up inception_3b/3x3
I0715 00:27:32.170614 17373 net.cpp:148] Top shape: 10 192 28 28 (1505280)
I0715 00:27:32.170619 17373 net.cpp:156] Memory required for data: 296038400
I0715 00:27:32.170630 17373 layer_factory.hpp:77] Creating layer inception_3b/relu_3x3
I0715 00:27:32.170655 17373 net.cpp:91] Creating Layer inception_3b/relu_3x3
I0715 00:27:32.170661 17373 net.cpp:425] inception_3b/relu_3x3 <- inception_3b/3x3
I0715 00:27:32.170670 17373 net.cpp:386] inception_3b/relu_3x3 -> inception_3b/3x3 (in-place)
I0715 00:27:32.171818 17373 net.cpp:141] Setting up inception_3b/relu_3x3
I0715 00:27:32.171833 17373 net.cpp:148] Top shape: 10 192 28 28 (1505280)
I0715 00:27:32.171839 17373 net.cpp:156] Memory required for data: 302059520
I0715 00:27:32.171845 17373 layer_factory.hpp:77] Creating layer inception_3b/5x5_reduce
I0715 00:27:32.171862 17373 net.cpp:91] Creating Layer inception_3b/5x5_reduce
I0715 00:27:32.171869 17373 net.cpp:425] inception_3b/5x5_reduce <- inception_3a/output_inception_3a/output_0_split_2
I0715 00:27:32.171883 17373 net.cpp:399] inception_3b/5x5_reduce -> inception_3b/5x5_reduce
I0715 00:27:32.172355 17369 net.cpp:141] Setting up inception_3b/3x3
I0715 00:27:32.172375 17369 net.cpp:148] Top shape: 10 192 28 28 (1505280)
I0715 00:27:32.172381 17369 net.cpp:156] Memory required for data: 296038400
I0715 00:27:32.172391 17369 layer_factory.hpp:77] Creating layer inception_3b/relu_3x3
I0715 00:27:32.172410 17369 net.cpp:91] Creating Layer inception_3b/relu_3x3
I0715 00:27:32.172416 17369 net.cpp:425] inception_3b/relu_3x3 <- inception_3b/3x3
I0715 00:27:32.172425 17369 net.cpp:386] inception_3b/relu_3x3 -> inception_3b/3x3 (in-place)
I0715 00:27:32.174139 17369 net.cpp:141] Setting up inception_3b/relu_3x3
I0715 00:27:32.174154 17369 net.cpp:148] Top shape: 10 192 28 28 (1505280)
I0715 00:27:32.174160 17369 net.cpp:156] Memory required for data: 302059520
I0715 00:27:32.174165 17369 layer_factory.hpp:77] Creating layer inception_3b/5x5_reduce
I0715 00:27:32.174182 17369 net.cpp:91] Creating Layer inception_3b/5x5_reduce
I0715 00:27:32.174190 17369 net.cpp:425] inception_3b/5x5_reduce <- inception_3a/output_inception_3a/output_0_split_2
I0715 00:27:32.174203 17369 net.cpp:399] inception_3b/5x5_reduce -> inception_3b/5x5_reduce
I0715 00:27:32.177062 17373 net.cpp:141] Setting up inception_3b/5x5_reduce
I0715 00:27:32.177086 17373 net.cpp:148] Top shape: 10 32 28 28 (250880)
I0715 00:27:32.177093 17373 net.cpp:156] Memory required for data: 303063040
I0715 00:27:32.177106 17373 layer_factory.hpp:77] Creating layer inception_3b/relu_5x5_reduce
I0715 00:27:32.177117 17373 net.cpp:91] Creating Layer inception_3b/relu_5x5_reduce
I0715 00:27:32.177124 17373 net.cpp:425] inception_3b/relu_5x5_reduce <- inception_3b/5x5_reduce
I0715 00:27:32.177134 17373 net.cpp:386] inception_3b/relu_5x5_reduce -> inception_3b/5x5_reduce (in-place)
I0715 00:27:32.178256 17373 net.cpp:141] Setting up inception_3b/relu_5x5_reduce
I0715 00:27:32.178273 17373 net.cpp:148] Top shape: 10 32 28 28 (250880)
I0715 00:27:32.178279 17373 net.cpp:156] Memory required for data: 304066560
I0715 00:27:32.178285 17373 layer_factory.hpp:77] Creating layer inception_3b/5x5
I0715 00:27:32.178304 17373 net.cpp:91] Creating Layer inception_3b/5x5
I0715 00:27:32.178311 17373 net.cpp:425] inception_3b/5x5 <- inception_3b/5x5_reduce
I0715 00:27:32.178324 17373 net.cpp:399] inception_3b/5x5 -> inception_3b/5x5
I0715 00:27:32.178470 17369 net.cpp:141] Setting up inception_3b/5x5_reduce
I0715 00:27:32.178488 17369 net.cpp:148] Top shape: 10 32 28 28 (250880)
I0715 00:27:32.178493 17369 net.cpp:156] Memory required for data: 303063040
I0715 00:27:32.178503 17369 layer_factory.hpp:77] Creating layer inception_3b/relu_5x5_reduce
I0715 00:27:32.178514 17369 net.cpp:91] Creating Layer inception_3b/relu_5x5_reduce
I0715 00:27:32.178521 17369 net.cpp:425] inception_3b/relu_5x5_reduce <- inception_3b/5x5_reduce
I0715 00:27:32.178530 17369 net.cpp:386] inception_3b/relu_5x5_reduce -> inception_3b/5x5_reduce (in-place)
I0715 00:27:32.180135 17369 net.cpp:141] Setting up inception_3b/relu_5x5_reduce
I0715 00:27:32.180156 17369 net.cpp:148] Top shape: 10 32 28 28 (250880)
I0715 00:27:32.180162 17369 net.cpp:156] Memory required for data: 304066560
I0715 00:27:32.180168 17369 layer_factory.hpp:77] Creating layer inception_3b/5x5
I0715 00:27:32.180186 17369 net.cpp:91] Creating Layer inception_3b/5x5
I0715 00:27:32.180193 17369 net.cpp:425] inception_3b/5x5 <- inception_3b/5x5_reduce
I0715 00:27:32.180203 17369 net.cpp:399] inception_3b/5x5 -> inception_3b/5x5
I0715 00:27:32.184902 17373 net.cpp:141] Setting up inception_3b/5x5
I0715 00:27:32.184921 17373 net.cpp:148] Top shape: 10 96 28 28 (752640)
I0715 00:27:32.184927 17373 net.cpp:156] Memory required for data: 307077120
I0715 00:27:32.184942 17373 layer_factory.hpp:77] Creating layer inception_3b/relu_5x5
I0715 00:27:32.184952 17373 net.cpp:91] Creating Layer inception_3b/relu_5x5
I0715 00:27:32.184959 17373 net.cpp:425] inception_3b/relu_5x5 <- inception_3b/5x5
I0715 00:27:32.184970 17373 net.cpp:386] inception_3b/relu_5x5 -> inception_3b/5x5 (in-place)
I0715 00:27:32.186167 17373 net.cpp:141] Setting up inception_3b/relu_5x5
I0715 00:27:32.186184 17373 net.cpp:148] Top shape: 10 96 28 28 (752640)
I0715 00:27:32.186190 17373 net.cpp:156] Memory required for data: 310087680
I0715 00:27:32.186195 17373 layer_factory.hpp:77] Creating layer inception_3b/pool
I0715 00:27:32.186206 17373 net.cpp:91] Creating Layer inception_3b/pool
I0715 00:27:32.186213 17373 net.cpp:425] inception_3b/pool <- inception_3a/output_inception_3a/output_0_split_3
I0715 00:27:32.186225 17373 net.cpp:399] inception_3b/pool -> inception_3b/pool
I0715 00:27:32.186269 17369 net.cpp:141] Setting up inception_3b/5x5
I0715 00:27:32.186286 17369 net.cpp:148] Top shape: 10 96 28 28 (752640)
I0715 00:27:32.186291 17369 net.cpp:156] Memory required for data: 307077120
I0715 00:27:32.186302 17369 layer_factory.hpp:77] Creating layer inception_3b/relu_5x5
I0715 00:27:32.186311 17369 net.cpp:91] Creating Layer inception_3b/relu_5x5
I0715 00:27:32.186318 17369 net.cpp:425] inception_3b/relu_5x5 <- inception_3b/5x5
I0715 00:27:32.186333 17373 net.cpp:141] Setting up inception_3b/pool
I0715 00:27:32.186337 17369 net.cpp:386] inception_3b/relu_5x5 -> inception_3b/5x5 (in-place)
I0715 00:27:32.186352 17373 net.cpp:148] Top shape: 10 256 28 28 (2007040)
I0715 00:27:32.186357 17373 net.cpp:156] Memory required for data: 318115840
I0715 00:27:32.186362 17373 layer_factory.hpp:77] Creating layer inception_3b/pool_proj
I0715 00:27:32.186380 17373 net.cpp:91] Creating Layer inception_3b/pool_proj
I0715 00:27:32.186388 17373 net.cpp:425] inception_3b/pool_proj <- inception_3b/pool
I0715 00:27:32.186398 17373 net.cpp:399] inception_3b/pool_proj -> inception_3b/pool_proj
I0715 00:27:32.186893 17369 net.cpp:141] Setting up inception_3b/relu_5x5
I0715 00:27:32.186909 17369 net.cpp:148] Top shape: 10 96 28 28 (752640)
I0715 00:27:32.186914 17369 net.cpp:156] Memory required for data: 310087680
I0715 00:27:32.186920 17369 layer_factory.hpp:77] Creating layer inception_3b/pool
I0715 00:27:32.186930 17369 net.cpp:91] Creating Layer inception_3b/pool
I0715 00:27:32.186936 17369 net.cpp:425] inception_3b/pool <- inception_3a/output_inception_3a/output_0_split_3
I0715 00:27:32.186944 17369 net.cpp:399] inception_3b/pool -> inception_3b/pool
I0715 00:27:32.187100 17369 net.cpp:141] Setting up inception_3b/pool
I0715 00:27:32.187113 17369 net.cpp:148] Top shape: 10 256 28 28 (2007040)
I0715 00:27:32.187117 17369 net.cpp:156] Memory required for data: 318115840
I0715 00:27:32.187124 17369 layer_factory.hpp:77] Creating layer inception_3b/pool_proj
I0715 00:27:32.187140 17369 net.cpp:91] Creating Layer inception_3b/pool_proj
I0715 00:27:32.187147 17369 net.cpp:425] inception_3b/pool_proj <- inception_3b/pool
I0715 00:27:32.187160 17369 net.cpp:399] inception_3b/pool_proj -> inception_3b/pool_proj
I0715 00:27:32.190829 17373 net.cpp:141] Setting up inception_3b/pool_proj
I0715 00:27:32.190850 17373 net.cpp:148] Top shape: 10 64 28 28 (501760)
I0715 00:27:32.190855 17373 net.cpp:156] Memory required for data: 320122880
I0715 00:27:32.190865 17373 layer_factory.hpp:77] Creating layer inception_3b/relu_pool_proj
I0715 00:27:32.190881 17373 net.cpp:91] Creating Layer inception_3b/relu_pool_proj
I0715 00:27:32.190888 17373 net.cpp:425] inception_3b/relu_pool_proj <- inception_3b/pool_proj
I0715 00:27:32.190897 17373 net.cpp:386] inception_3b/relu_pool_proj -> inception_3b/pool_proj (in-place)
I0715 00:27:32.192010 17373 net.cpp:141] Setting up inception_3b/relu_pool_proj
I0715 00:27:32.192026 17373 net.cpp:148] Top shape: 10 64 28 28 (501760)
I0715 00:27:32.192033 17373 net.cpp:156] Memory required for data: 322129920
I0715 00:27:32.192037 17373 layer_factory.hpp:77] Creating layer inception_3b/output
I0715 00:27:32.192047 17373 net.cpp:91] Creating Layer inception_3b/output
I0715 00:27:32.192054 17373 net.cpp:425] inception_3b/output <- inception_3b/1x1
I0715 00:27:32.192060 17373 net.cpp:425] inception_3b/output <- inception_3b/3x3
I0715 00:27:32.192066 17373 net.cpp:425] inception_3b/output <- inception_3b/5x5
I0715 00:27:32.192072 17373 net.cpp:425] inception_3b/output <- inception_3b/pool_proj
I0715 00:27:32.192080 17373 net.cpp:399] inception_3b/output -> inception_3b/output
I0715 00:27:32.192152 17373 net.cpp:141] Setting up inception_3b/output
I0715 00:27:32.192164 17373 net.cpp:148] Top shape: 10 480 28 28 (3763200)
I0715 00:27:32.192169 17373 net.cpp:156] Memory required for data: 337182720
I0715 00:27:32.192174 17373 layer_factory.hpp:77] Creating layer pool3/3x3_s2
I0715 00:27:32.192185 17373 net.cpp:91] Creating Layer pool3/3x3_s2
I0715 00:27:32.192193 17373 net.cpp:425] pool3/3x3_s2 <- inception_3b/output
I0715 00:27:32.192199 17373 net.cpp:399] pool3/3x3_s2 -> pool3/3x3_s2
I0715 00:27:32.192292 17369 net.cpp:141] Setting up inception_3b/pool_proj
I0715 00:27:32.192308 17369 net.cpp:148] Top shape: 10 64 28 28 (501760)
I0715 00:27:32.192314 17369 net.cpp:156] Memory required for data: 320122880
I0715 00:27:32.192322 17373 net.cpp:141] Setting up pool3/3x3_s2
I0715 00:27:32.192329 17369 layer_factory.hpp:77] Creating layer inception_3b/relu_pool_proj
I0715 00:27:32.192334 17373 net.cpp:148] Top shape: 10 480 14 14 (940800)
I0715 00:27:32.192339 17369 net.cpp:91] Creating Layer inception_3b/relu_pool_proj
I0715 00:27:32.192339 17373 net.cpp:156] Memory required for data: 340945920
I0715 00:27:32.192350 17369 net.cpp:425] inception_3b/relu_pool_proj <- inception_3b/pool_proj
I0715 00:27:32.192353 17373 layer_factory.hpp:77] Creating layer pool3/3x3_s2_pool3/3x3_s2_0_split
I0715 00:27:32.192361 17369 net.cpp:386] inception_3b/relu_pool_proj -> inception_3b/pool_proj (in-place)
I0715 00:27:32.192368 17373 net.cpp:91] Creating Layer pool3/3x3_s2_pool3/3x3_s2_0_split
I0715 00:27:32.192374 17373 net.cpp:425] pool3/3x3_s2_pool3/3x3_s2_0_split <- pool3/3x3_s2
I0715 00:27:32.192384 17373 net.cpp:399] pool3/3x3_s2_pool3/3x3_s2_0_split -> pool3/3x3_s2_pool3/3x3_s2_0_split_0
I0715 00:27:32.192392 17373 net.cpp:399] pool3/3x3_s2_pool3/3x3_s2_0_split -> pool3/3x3_s2_pool3/3x3_s2_0_split_1
I0715 00:27:32.192405 17373 net.cpp:399] pool3/3x3_s2_pool3/3x3_s2_0_split -> pool3/3x3_s2_pool3/3x3_s2_0_split_2
I0715 00:27:32.192414 17373 net.cpp:399] pool3/3x3_s2_pool3/3x3_s2_0_split -> pool3/3x3_s2_pool3/3x3_s2_0_split_3
I0715 00:27:32.193230 17373 net.cpp:141] Setting up pool3/3x3_s2_pool3/3x3_s2_0_split
I0715 00:27:32.193243 17373 net.cpp:148] Top shape: 10 480 14 14 (940800)
I0715 00:27:32.193250 17373 net.cpp:148] Top shape: 10 480 14 14 (940800)
I0715 00:27:32.193255 17373 net.cpp:148] Top shape: 10 480 14 14 (940800)
I0715 00:27:32.193261 17373 net.cpp:148] Top shape: 10 480 14 14 (940800)
I0715 00:27:32.193266 17373 net.cpp:156] Memory required for data: 355998720
I0715 00:27:32.193271 17373 layer_factory.hpp:77] Creating layer inception_4a/1x1
I0715 00:27:32.193287 17373 net.cpp:91] Creating Layer inception_4a/1x1
I0715 00:27:32.193294 17373 net.cpp:425] inception_4a/1x1 <- pool3/3x3_s2_pool3/3x3_s2_0_split_0
I0715 00:27:32.193307 17373 net.cpp:399] inception_4a/1x1 -> inception_4a/1x1
I0715 00:27:32.193331 17369 net.cpp:141] Setting up inception_3b/relu_pool_proj
I0715 00:27:32.193346 17369 net.cpp:148] Top shape: 10 64 28 28 (501760)
I0715 00:27:32.193351 17369 net.cpp:156] Memory required for data: 322129920
I0715 00:27:32.193356 17369 layer_factory.hpp:77] Creating layer inception_3b/output
I0715 00:27:32.193367 17369 net.cpp:91] Creating Layer inception_3b/output
I0715 00:27:32.193372 17369 net.cpp:425] inception_3b/output <- inception_3b/1x1
I0715 00:27:32.193379 17369 net.cpp:425] inception_3b/output <- inception_3b/3x3
I0715 00:27:32.193385 17369 net.cpp:425] inception_3b/output <- inception_3b/5x5
I0715 00:27:32.193392 17369 net.cpp:425] inception_3b/output <- inception_3b/pool_proj
I0715 00:27:32.193402 17369 net.cpp:399] inception_3b/output -> inception_3b/output
I0715 00:27:32.193534 17369 net.cpp:141] Setting up inception_3b/output
I0715 00:27:32.193547 17369 net.cpp:148] Top shape: 10 480 28 28 (3763200)
I0715 00:27:32.193552 17369 net.cpp:156] Memory required for data: 337182720
I0715 00:27:32.193557 17369 layer_factory.hpp:77] Creating layer pool3/3x3_s2
I0715 00:27:32.193572 17369 net.cpp:91] Creating Layer pool3/3x3_s2
I0715 00:27:32.193578 17369 net.cpp:425] pool3/3x3_s2 <- inception_3b/output
I0715 00:27:32.193585 17369 net.cpp:399] pool3/3x3_s2 -> pool3/3x3_s2
I0715 00:27:32.193660 17369 net.cpp:141] Setting up pool3/3x3_s2
I0715 00:27:32.193673 17369 net.cpp:148] Top shape: 10 480 14 14 (940800)
I0715 00:27:32.193678 17369 net.cpp:156] Memory required for data: 340945920
I0715 00:27:32.193684 17369 layer_factory.hpp:77] Creating layer pool3/3x3_s2_pool3/3x3_s2_0_split
I0715 00:27:32.193693 17369 net.cpp:91] Creating Layer pool3/3x3_s2_pool3/3x3_s2_0_split
I0715 00:27:32.193698 17369 net.cpp:425] pool3/3x3_s2_pool3/3x3_s2_0_split <- pool3/3x3_s2
I0715 00:27:32.193706 17369 net.cpp:399] pool3/3x3_s2_pool3/3x3_s2_0_split -> pool3/3x3_s2_pool3/3x3_s2_0_split_0
I0715 00:27:32.193714 17369 net.cpp:399] pool3/3x3_s2_pool3/3x3_s2_0_split -> pool3/3x3_s2_pool3/3x3_s2_0_split_1
I0715 00:27:32.193727 17369 net.cpp:399] pool3/3x3_s2_pool3/3x3_s2_0_split -> pool3/3x3_s2_pool3/3x3_s2_0_split_2
I0715 00:27:32.193737 17369 net.cpp:399] pool3/3x3_s2_pool3/3x3_s2_0_split -> pool3/3x3_s2_pool3/3x3_s2_0_split_3
I0715 00:27:32.193836 17369 net.cpp:141] Setting up pool3/3x3_s2_pool3/3x3_s2_0_split
I0715 00:27:32.193846 17369 net.cpp:148] Top shape: 10 480 14 14 (940800)
I0715 00:27:32.193852 17369 net.cpp:148] Top shape: 10 480 14 14 (940800)
I0715 00:27:32.193858 17369 net.cpp:148] Top shape: 10 480 14 14 (940800)
I0715 00:27:32.193864 17369 net.cpp:148] Top shape: 10 480 14 14 (940800)
I0715 00:27:32.193868 17369 net.cpp:156] Memory required for data: 355998720
I0715 00:27:32.193874 17369 layer_factory.hpp:77] Creating layer inception_4a/1x1
I0715 00:27:32.193891 17369 net.cpp:91] Creating Layer inception_4a/1x1
I0715 00:27:32.193899 17369 net.cpp:425] inception_4a/1x1 <- pool3/3x3_s2_pool3/3x3_s2_0_split_0
I0715 00:27:32.193909 17369 net.cpp:399] inception_4a/1x1 -> inception_4a/1x1
I0715 00:27:32.199556 17373 net.cpp:141] Setting up inception_4a/1x1
I0715 00:27:32.199579 17373 net.cpp:148] Top shape: 10 192 14 14 (376320)
I0715 00:27:32.199584 17373 net.cpp:156] Memory required for data: 357504000
I0715 00:27:32.199595 17373 layer_factory.hpp:77] Creating layer inception_4a/relu_1x1
I0715 00:27:32.199605 17373 net.cpp:91] Creating Layer inception_4a/relu_1x1
I0715 00:27:32.199612 17373 net.cpp:425] inception_4a/relu_1x1 <- inception_4a/1x1
I0715 00:27:32.199623 17373 net.cpp:386] inception_4a/relu_1x1 -> inception_4a/1x1 (in-place)
I0715 00:27:32.200733 17373 net.cpp:141] Setting up inception_4a/relu_1x1
I0715 00:27:32.200750 17373 net.cpp:148] Top shape: 10 192 14 14 (376320)
I0715 00:27:32.200757 17373 net.cpp:156] Memory required for data: 359009280
I0715 00:27:32.200762 17373 layer_factory.hpp:77] Creating layer inception_4a/3x3_reduce
I0715 00:27:32.200779 17373 net.cpp:91] Creating Layer inception_4a/3x3_reduce
I0715 00:27:32.200786 17373 net.cpp:425] inception_4a/3x3_reduce <- pool3/3x3_s2_pool3/3x3_s2_0_split_1
I0715 00:27:32.200800 17373 net.cpp:399] inception_4a/3x3_reduce -> inception_4a/3x3_reduce
I0715 00:27:32.200969 17369 net.cpp:141] Setting up inception_4a/1x1
I0715 00:27:32.200994 17369 net.cpp:148] Top shape: 10 192 14 14 (376320)
I0715 00:27:32.201000 17369 net.cpp:156] Memory required for data: 357504000
I0715 00:27:32.201011 17369 layer_factory.hpp:77] Creating layer inception_4a/relu_1x1
I0715 00:27:32.201020 17369 net.cpp:91] Creating Layer inception_4a/relu_1x1
I0715 00:27:32.201027 17369 net.cpp:425] inception_4a/relu_1x1 <- inception_4a/1x1
I0715 00:27:32.201038 17369 net.cpp:386] inception_4a/relu_1x1 -> inception_4a/1x1 (in-place)
I0715 00:27:32.201503 17369 net.cpp:141] Setting up inception_4a/relu_1x1
I0715 00:27:32.201517 17369 net.cpp:148] Top shape: 10 192 14 14 (376320)
I0715 00:27:32.201522 17369 net.cpp:156] Memory required for data: 359009280
I0715 00:27:32.201529 17369 layer_factory.hpp:77] Creating layer inception_4a/3x3_reduce
I0715 00:27:32.201545 17369 net.cpp:91] Creating Layer inception_4a/3x3_reduce
I0715 00:27:32.201555 17369 net.cpp:425] inception_4a/3x3_reduce <- pool3/3x3_s2_pool3/3x3_s2_0_split_1
I0715 00:27:32.201565 17369 net.cpp:399] inception_4a/3x3_reduce -> inception_4a/3x3_reduce
I0715 00:27:32.206331 17373 net.cpp:141] Setting up inception_4a/3x3_reduce
I0715 00:27:32.206349 17373 net.cpp:148] Top shape: 10 96 14 14 (188160)
I0715 00:27:32.206356 17373 net.cpp:156] Memory required for data: 359761920
I0715 00:27:32.206377 17373 layer_factory.hpp:77] Creating layer inception_4a/relu_3x3_reduce
I0715 00:27:32.206387 17373 net.cpp:91] Creating Layer inception_4a/relu_3x3_reduce
I0715 00:27:32.206394 17373 net.cpp:425] inception_4a/relu_3x3_reduce <- inception_4a/3x3_reduce
I0715 00:27:32.206403 17373 net.cpp:386] inception_4a/relu_3x3_reduce -> inception_4a/3x3_reduce (in-place)
I0715 00:27:32.207808 17373 net.cpp:141] Setting up inception_4a/relu_3x3_reduce
I0715 00:27:32.207825 17373 net.cpp:148] Top shape: 10 96 14 14 (188160)
I0715 00:27:32.207831 17373 net.cpp:156] Memory required for data: 360514560
I0715 00:27:32.207837 17373 layer_factory.hpp:77] Creating layer inception_4a/3x3
I0715 00:27:32.207855 17373 net.cpp:91] Creating Layer inception_4a/3x3
I0715 00:27:32.207864 17373 net.cpp:425] inception_4a/3x3 <- inception_4a/3x3_reduce
I0715 00:27:32.207876 17373 net.cpp:399] inception_4a/3x3 -> inception_4a/3x3
I0715 00:27:32.207927 17369 net.cpp:141] Setting up inception_4a/3x3_reduce
I0715 00:27:32.207947 17369 net.cpp:148] Top shape: 10 96 14 14 (188160)
I0715 00:27:32.207952 17369 net.cpp:156] Memory required for data: 359761920
I0715 00:27:32.207975 17369 layer_factory.hpp:77] Creating layer inception_4a/relu_3x3_reduce
I0715 00:27:32.207986 17369 net.cpp:91] Creating Layer inception_4a/relu_3x3_reduce
I0715 00:27:32.207993 17369 net.cpp:425] inception_4a/relu_3x3_reduce <- inception_4a/3x3_reduce
I0715 00:27:32.208004 17369 net.cpp:386] inception_4a/relu_3x3_reduce -> inception_4a/3x3_reduce (in-place)
I0715 00:27:32.209626 17369 net.cpp:141] Setting up inception_4a/relu_3x3_reduce
I0715 00:27:32.209645 17369 net.cpp:148] Top shape: 10 96 14 14 (188160)
I0715 00:27:32.209650 17369 net.cpp:156] Memory required for data: 360514560
I0715 00:27:32.209656 17369 layer_factory.hpp:77] Creating layer inception_4a/3x3
I0715 00:27:32.209676 17369 net.cpp:91] Creating Layer inception_4a/3x3
I0715 00:27:32.209686 17369 net.cpp:425] inception_4a/3x3 <- inception_4a/3x3_reduce
I0715 00:27:32.209697 17369 net.cpp:399] inception_4a/3x3 -> inception_4a/3x3
I0715 00:27:32.214313 17373 net.cpp:141] Setting up inception_4a/3x3
I0715 00:27:32.214334 17373 net.cpp:148] Top shape: 10 208 14 14 (407680)
I0715 00:27:32.214339 17373 net.cpp:156] Memory required for data: 362145280
I0715 00:27:32.214350 17373 layer_factory.hpp:77] Creating layer inception_4a/relu_3x3
I0715 00:27:32.214360 17373 net.cpp:91] Creating Layer inception_4a/relu_3x3
I0715 00:27:32.214366 17373 net.cpp:425] inception_4a/relu_3x3 <- inception_4a/3x3
I0715 00:27:32.214375 17373 net.cpp:386] inception_4a/relu_3x3 -> inception_4a/3x3 (in-place)
I0715 00:27:32.215759 17373 net.cpp:141] Setting up inception_4a/relu_3x3
I0715 00:27:32.215776 17373 net.cpp:148] Top shape: 10 208 14 14 (407680)
I0715 00:27:32.215782 17373 net.cpp:156] Memory required for data: 363776000
I0715 00:27:32.215788 17373 layer_factory.hpp:77] Creating layer inception_4a/5x5_reduce
I0715 00:27:32.215806 17373 net.cpp:91] Creating Layer inception_4a/5x5_reduce
I0715 00:27:32.215818 17373 net.cpp:425] inception_4a/5x5_reduce <- pool3/3x3_s2_pool3/3x3_s2_0_split_2
I0715 00:27:32.215832 17373 net.cpp:399] inception_4a/5x5_reduce -> inception_4a/5x5_reduce
I0715 00:27:32.216379 17369 net.cpp:141] Setting up inception_4a/3x3
I0715 00:27:32.216398 17369 net.cpp:148] Top shape: 10 208 14 14 (407680)
I0715 00:27:32.216404 17369 net.cpp:156] Memory required for data: 362145280
I0715 00:27:32.216415 17369 layer_factory.hpp:77] Creating layer inception_4a/relu_3x3
I0715 00:27:32.216425 17369 net.cpp:91] Creating Layer inception_4a/relu_3x3
I0715 00:27:32.216435 17369 net.cpp:425] inception_4a/relu_3x3 <- inception_4a/3x3
I0715 00:27:32.216444 17369 net.cpp:386] inception_4a/relu_3x3 -> inception_4a/3x3 (in-place)
I0715 00:27:32.217725 17369 net.cpp:141] Setting up inception_4a/relu_3x3
I0715 00:27:32.217742 17369 net.cpp:148] Top shape: 10 208 14 14 (407680)
I0715 00:27:32.217747 17369 net.cpp:156] Memory required for data: 363776000
I0715 00:27:32.217753 17369 layer_factory.hpp:77] Creating layer inception_4a/5x5_reduce
I0715 00:27:32.217770 17369 net.cpp:91] Creating Layer inception_4a/5x5_reduce
I0715 00:27:32.217777 17369 net.cpp:425] inception_4a/5x5_reduce <- pool3/3x3_s2_pool3/3x3_s2_0_split_2
I0715 00:27:32.217792 17369 net.cpp:399] inception_4a/5x5_reduce -> inception_4a/5x5_reduce
I0715 00:27:32.222157 17373 net.cpp:141] Setting up inception_4a/5x5_reduce
I0715 00:27:32.222208 17373 net.cpp:148] Top shape: 10 16 14 14 (31360)
I0715 00:27:32.222215 17373 net.cpp:156] Memory required for data: 363901440
I0715 00:27:32.222230 17373 layer_factory.hpp:77] Creating layer inception_4a/relu_5x5_reduce
I0715 00:27:32.222245 17373 net.cpp:91] Creating Layer inception_4a/relu_5x5_reduce
I0715 00:27:32.222254 17373 net.cpp:425] inception_4a/relu_5x5_reduce <- inception_4a/5x5_reduce
I0715 00:27:32.222266 17373 net.cpp:386] inception_4a/relu_5x5_reduce -> inception_4a/5x5_reduce (in-place)
I0715 00:27:32.223441 17373 net.cpp:141] Setting up inception_4a/relu_5x5_reduce
I0715 00:27:32.223469 17373 net.cpp:148] Top shape: 10 16 14 14 (31360)
I0715 00:27:32.223475 17373 net.cpp:156] Memory required for data: 364026880
I0715 00:27:32.223480 17373 layer_factory.hpp:77] Creating layer inception_4a/5x5
I0715 00:27:32.223502 17373 net.cpp:91] Creating Layer inception_4a/5x5
I0715 00:27:32.223508 17373 net.cpp:425] inception_4a/5x5 <- inception_4a/5x5_reduce
I0715 00:27:32.223521 17373 net.cpp:399] inception_4a/5x5 -> inception_4a/5x5
I0715 00:27:32.223954 17369 net.cpp:141] Setting up inception_4a/5x5_reduce
I0715 00:27:32.223976 17369 net.cpp:148] Top shape: 10 16 14 14 (31360)
I0715 00:27:32.223984 17369 net.cpp:156] Memory required for data: 363901440
I0715 00:27:32.223995 17369 layer_factory.hpp:77] Creating layer inception_4a/relu_5x5_reduce
I0715 00:27:32.224006 17369 net.cpp:91] Creating Layer inception_4a/relu_5x5_reduce
I0715 00:27:32.224014 17369 net.cpp:425] inception_4a/relu_5x5_reduce <- inception_4a/5x5_reduce
I0715 00:27:32.224022 17369 net.cpp:386] inception_4a/relu_5x5_reduce -> inception_4a/5x5_reduce (in-place)
I0715 00:27:32.226022 17369 net.cpp:141] Setting up inception_4a/relu_5x5_reduce
I0715 00:27:32.226047 17369 net.cpp:148] Top shape: 10 16 14 14 (31360)
I0715 00:27:32.226052 17369 net.cpp:156] Memory required for data: 364026880
I0715 00:27:32.226058 17369 layer_factory.hpp:77] Creating layer inception_4a/5x5
I0715 00:27:32.226075 17369 net.cpp:91] Creating Layer inception_4a/5x5
I0715 00:27:32.226083 17369 net.cpp:425] inception_4a/5x5 <- inception_4a/5x5_reduce
I0715 00:27:32.226096 17369 net.cpp:399] inception_4a/5x5 -> inception_4a/5x5
I0715 00:27:32.229465 17373 net.cpp:141] Setting up inception_4a/5x5
I0715 00:27:32.229496 17373 net.cpp:148] Top shape: 10 48 14 14 (94080)
I0715 00:27:32.229502 17373 net.cpp:156] Memory required for data: 364403200
I0715 00:27:32.229511 17373 layer_factory.hpp:77] Creating layer inception_4a/relu_5x5
I0715 00:27:32.229524 17373 net.cpp:91] Creating Layer inception_4a/relu_5x5
I0715 00:27:32.229531 17373 net.cpp:425] inception_4a/relu_5x5 <- inception_4a/5x5
I0715 00:27:32.229539 17373 net.cpp:386] inception_4a/relu_5x5 -> inception_4a/5x5 (in-place)
I0715 00:27:32.229918 17373 net.cpp:141] Setting up inception_4a/relu_5x5
I0715 00:27:32.229931 17373 net.cpp:148] Top shape: 10 48 14 14 (94080)
I0715 00:27:32.229935 17373 net.cpp:156] Memory required for data: 364779520
I0715 00:27:32.229941 17373 layer_factory.hpp:77] Creating layer inception_4a/pool
I0715 00:27:32.229951 17373 net.cpp:91] Creating Layer inception_4a/pool
I0715 00:27:32.229957 17373 net.cpp:425] inception_4a/pool <- pool3/3x3_s2_pool3/3x3_s2_0_split_3
I0715 00:27:32.229969 17373 net.cpp:399] inception_4a/pool -> inception_4a/pool
I0715 00:27:32.230751 17373 net.cpp:141] Setting up inception_4a/pool
I0715 00:27:32.230765 17373 net.cpp:148] Top shape: 10 480 14 14 (940800)
I0715 00:27:32.230770 17373 net.cpp:156] Memory required for data: 368542720
I0715 00:27:32.230775 17373 layer_factory.hpp:77] Creating layer inception_4a/pool_proj
I0715 00:27:32.230795 17373 net.cpp:91] Creating Layer inception_4a/pool_proj
I0715 00:27:32.230801 17373 net.cpp:425] inception_4a/pool_proj <- inception_4a/pool
I0715 00:27:32.230810 17373 net.cpp:399] inception_4a/pool_proj -> inception_4a/pool_proj
I0715 00:27:32.232591 17369 net.cpp:141] Setting up inception_4a/5x5
I0715 00:27:32.232611 17369 net.cpp:148] Top shape: 10 48 14 14 (94080)
I0715 00:27:32.232616 17369 net.cpp:156] Memory required for data: 364403200
I0715 00:27:32.232628 17369 layer_factory.hpp:77] Creating layer inception_4a/relu_5x5
I0715 00:27:32.232637 17369 net.cpp:91] Creating Layer inception_4a/relu_5x5
I0715 00:27:32.232645 17369 net.cpp:425] inception_4a/relu_5x5 <- inception_4a/5x5
I0715 00:27:32.232657 17369 net.cpp:386] inception_4a/relu_5x5 -> inception_4a/5x5 (in-place)
I0715 00:27:32.234254 17369 net.cpp:141] Setting up inception_4a/relu_5x5
I0715 00:27:32.234269 17369 net.cpp:148] Top shape: 10 48 14 14 (94080)
I0715 00:27:32.234273 17369 net.cpp:156] Memory required for data: 364779520
I0715 00:27:32.234279 17369 layer_factory.hpp:77] Creating layer inception_4a/pool
I0715 00:27:32.234292 17369 net.cpp:91] Creating Layer inception_4a/pool
I0715 00:27:32.234297 17369 net.cpp:425] inception_4a/pool <- pool3/3x3_s2_pool3/3x3_s2_0_split_3
I0715 00:27:32.234305 17369 net.cpp:399] inception_4a/pool -> inception_4a/pool
I0715 00:27:32.234434 17369 net.cpp:141] Setting up inception_4a/pool
I0715 00:27:32.234446 17369 net.cpp:148] Top shape: 10 480 14 14 (940800)
I0715 00:27:32.234450 17369 net.cpp:156] Memory required for data: 368542720
I0715 00:27:32.234455 17369 layer_factory.hpp:77] Creating layer inception_4a/pool_proj
I0715 00:27:32.234472 17369 net.cpp:91] Creating Layer inception_4a/pool_proj
I0715 00:27:32.234478 17369 net.cpp:425] inception_4a/pool_proj <- inception_4a/pool
I0715 00:27:32.234489 17369 net.cpp:399] inception_4a/pool_proj -> inception_4a/pool_proj
I0715 00:27:32.234944 17373 net.cpp:141] Setting up inception_4a/pool_proj
I0715 00:27:32.234961 17373 net.cpp:148] Top shape: 10 64 14 14 (125440)
I0715 00:27:32.234966 17373 net.cpp:156] Memory required for data: 369044480
I0715 00:27:32.234977 17373 layer_factory.hpp:77] Creating layer inception_4a/relu_pool_proj
I0715 00:27:32.234984 17373 net.cpp:91] Creating Layer inception_4a/relu_pool_proj
I0715 00:27:32.234992 17373 net.cpp:425] inception_4a/relu_pool_proj <- inception_4a/pool_proj
I0715 00:27:32.235000 17373 net.cpp:386] inception_4a/relu_pool_proj -> inception_4a/pool_proj (in-place)
I0715 00:27:32.236102 17373 net.cpp:141] Setting up inception_4a/relu_pool_proj
I0715 00:27:32.236116 17373 net.cpp:148] Top shape: 10 64 14 14 (125440)
I0715 00:27:32.236121 17373 net.cpp:156] Memory required for data: 369546240
I0715 00:27:32.236126 17373 layer_factory.hpp:77] Creating layer inception_4a/output
I0715 00:27:32.236141 17373 net.cpp:91] Creating Layer inception_4a/output
I0715 00:27:32.236148 17373 net.cpp:425] inception_4a/output <- inception_4a/1x1
I0715 00:27:32.236155 17373 net.cpp:425] inception_4a/output <- inception_4a/3x3
I0715 00:27:32.236161 17373 net.cpp:425] inception_4a/output <- inception_4a/5x5
I0715 00:27:32.236166 17373 net.cpp:425] inception_4a/output <- inception_4a/pool_proj
I0715 00:27:32.236173 17373 net.cpp:399] inception_4a/output -> inception_4a/output
I0715 00:27:32.236771 17373 net.cpp:141] Setting up inception_4a/output
I0715 00:27:32.236784 17373 net.cpp:148] Top shape: 10 512 14 14 (1003520)
I0715 00:27:32.236788 17373 net.cpp:156] Memory required for data: 373560320
I0715 00:27:32.236793 17373 layer_factory.hpp:77] Creating layer inception_4a/output_inception_4a/output_0_split
I0715 00:27:32.236804 17373 net.cpp:91] Creating Layer inception_4a/output_inception_4a/output_0_split
I0715 00:27:32.236809 17373 net.cpp:425] inception_4a/output_inception_4a/output_0_split <- inception_4a/output
I0715 00:27:32.236819 17373 net.cpp:399] inception_4a/output_inception_4a/output_0_split -> inception_4a/output_inception_4a/output_0_split_0
I0715 00:27:32.236829 17373 net.cpp:399] inception_4a/output_inception_4a/output_0_split -> inception_4a/output_inception_4a/output_0_split_1
I0715 00:27:32.236837 17373 net.cpp:399] inception_4a/output_inception_4a/output_0_split -> inception_4a/output_inception_4a/output_0_split_2
I0715 00:27:32.236845 17373 net.cpp:399] inception_4a/output_inception_4a/output_0_split -> inception_4a/output_inception_4a/output_0_split_3
I0715 00:27:32.237041 17373 net.cpp:141] Setting up inception_4a/output_inception_4a/output_0_split
I0715 00:27:32.237052 17373 net.cpp:148] Top shape: 10 512 14 14 (1003520)
I0715 00:27:32.237058 17373 net.cpp:148] Top shape: 10 512 14 14 (1003520)
I0715 00:27:32.237063 17373 net.cpp:148] Top shape: 10 512 14 14 (1003520)
I0715 00:27:32.237068 17373 net.cpp:148] Top shape: 10 512 14 14 (1003520)
I0715 00:27:32.237072 17373 net.cpp:156] Memory required for data: 389616640
I0715 00:27:32.237077 17373 layer_factory.hpp:77] Creating layer inception_4b/1x1
I0715 00:27:32.237097 17373 net.cpp:91] Creating Layer inception_4b/1x1
I0715 00:27:32.237102 17373 net.cpp:425] inception_4b/1x1 <- inception_4a/output_inception_4a/output_0_split_0
I0715 00:27:32.237112 17373 net.cpp:399] inception_4b/1x1 -> inception_4b/1x1
I0715 00:27:32.237782 17369 net.cpp:141] Setting up inception_4a/pool_proj
I0715 00:27:32.237802 17369 net.cpp:148] Top shape: 10 64 14 14 (125440)
I0715 00:27:32.237807 17369 net.cpp:156] Memory required for data: 369044480
I0715 00:27:32.237817 17369 layer_factory.hpp:77] Creating layer inception_4a/relu_pool_proj
I0715 00:27:32.237825 17369 net.cpp:91] Creating Layer inception_4a/relu_pool_proj
I0715 00:27:32.237833 17369 net.cpp:425] inception_4a/relu_pool_proj <- inception_4a/pool_proj
I0715 00:27:32.237841 17369 net.cpp:386] inception_4a/relu_pool_proj -> inception_4a/pool_proj (in-place)
I0715 00:27:32.238958 17369 net.cpp:141] Setting up inception_4a/relu_pool_proj
I0715 00:27:32.238973 17369 net.cpp:148] Top shape: 10 64 14 14 (125440)
I0715 00:27:32.238978 17369 net.cpp:156] Memory required for data: 369546240
I0715 00:27:32.238986 17369 layer_factory.hpp:77] Creating layer inception_4a/output
I0715 00:27:32.238994 17369 net.cpp:91] Creating Layer inception_4a/output
I0715 00:27:32.239001 17369 net.cpp:425] inception_4a/output <- inception_4a/1x1
I0715 00:27:32.239007 17369 net.cpp:425] inception_4a/output <- inception_4a/3x3
I0715 00:27:32.239017 17369 net.cpp:425] inception_4a/output <- inception_4a/5x5
I0715 00:27:32.239022 17369 net.cpp:425] inception_4a/output <- inception_4a/pool_proj
I0715 00:27:32.239028 17369 net.cpp:399] inception_4a/output -> inception_4a/output
I0715 00:27:32.239678 17369 net.cpp:141] Setting up inception_4a/output
I0715 00:27:32.239691 17369 net.cpp:148] Top shape: 10 512 14 14 (1003520)
I0715 00:27:32.239694 17369 net.cpp:156] Memory required for data: 373560320
I0715 00:27:32.239701 17369 layer_factory.hpp:77] Creating layer inception_4a/output_inception_4a/output_0_split
I0715 00:27:32.239714 17369 net.cpp:91] Creating Layer inception_4a/output_inception_4a/output_0_split
I0715 00:27:32.239719 17369 net.cpp:425] inception_4a/output_inception_4a/output_0_split <- inception_4a/output
I0715 00:27:32.239729 17369 net.cpp:399] inception_4a/output_inception_4a/output_0_split -> inception_4a/output_inception_4a/output_0_split_0
I0715 00:27:32.239738 17369 net.cpp:399] inception_4a/output_inception_4a/output_0_split -> inception_4a/output_inception_4a/output_0_split_1
I0715 00:27:32.239748 17369 net.cpp:399] inception_4a/output_inception_4a/output_0_split -> inception_4a/output_inception_4a/output_0_split_2
I0715 00:27:32.239754 17369 net.cpp:399] inception_4a/output_inception_4a/output_0_split -> inception_4a/output_inception_4a/output_0_split_3
I0715 00:27:32.239873 17369 net.cpp:141] Setting up inception_4a/output_inception_4a/output_0_split
I0715 00:27:32.239883 17369 net.cpp:148] Top shape: 10 512 14 14 (1003520)
I0715 00:27:32.239889 17369 net.cpp:148] Top shape: 10 512 14 14 (1003520)
I0715 00:27:32.239894 17369 net.cpp:148] Top shape: 10 512 14 14 (1003520)
I0715 00:27:32.239899 17369 net.cpp:148] Top shape: 10 512 14 14 (1003520)
I0715 00:27:32.239903 17369 net.cpp:156] Memory required for data: 389616640
I0715 00:27:32.239908 17369 layer_factory.hpp:77] Creating layer inception_4b/1x1
I0715 00:27:32.239925 17369 net.cpp:91] Creating Layer inception_4b/1x1
I0715 00:27:32.239931 17369 net.cpp:425] inception_4b/1x1 <- inception_4a/output_inception_4a/output_0_split_0
I0715 00:27:32.239944 17369 net.cpp:399] inception_4b/1x1 -> inception_4b/1x1
I0715 00:27:32.241044 17373 net.cpp:141] Setting up inception_4b/1x1
I0715 00:27:32.241062 17373 net.cpp:148] Top shape: 10 160 14 14 (313600)
I0715 00:27:32.241067 17373 net.cpp:156] Memory required for data: 390871040
I0715 00:27:32.241077 17373 layer_factory.hpp:77] Creating layer inception_4b/relu_1x1
I0715 00:27:32.241086 17373 net.cpp:91] Creating Layer inception_4b/relu_1x1
I0715 00:27:32.241092 17373 net.cpp:425] inception_4b/relu_1x1 <- inception_4b/1x1
I0715 00:27:32.241099 17373 net.cpp:386] inception_4b/relu_1x1 -> inception_4b/1x1 (in-place)
I0715 00:27:32.241349 17373 net.cpp:141] Setting up inception_4b/relu_1x1
I0715 00:27:32.241360 17373 net.cpp:148] Top shape: 10 160 14 14 (313600)
I0715 00:27:32.241364 17373 net.cpp:156] Memory required for data: 392125440
I0715 00:27:32.241369 17373 layer_factory.hpp:77] Creating layer inception_4b/3x3_reduce
I0715 00:27:32.241385 17373 net.cpp:91] Creating Layer inception_4b/3x3_reduce
I0715 00:27:32.241391 17373 net.cpp:425] inception_4b/3x3_reduce <- inception_4a/output_inception_4a/output_0_split_1
I0715 00:27:32.241405 17373 net.cpp:399] inception_4b/3x3_reduce -> inception_4b/3x3_reduce
I0715 00:27:32.245980 17373 net.cpp:141] Setting up inception_4b/3x3_reduce
I0715 00:27:32.245996 17373 net.cpp:148] Top shape: 10 112 14 14 (219520)
I0715 00:27:32.246001 17373 net.cpp:156] Memory required for data: 393003520
I0715 00:27:32.246004 17369 net.cpp:141] Setting up inception_4b/1x1
I0715 00:27:32.246011 17373 layer_factory.hpp:77] Creating layer inception_4b/relu_3x3_reduce
I0715 00:27:32.246019 17369 net.cpp:148] Top shape: 10 160 14 14 (313600)
I0715 00:27:32.246023 17373 net.cpp:91] Creating Layer inception_4b/relu_3x3_reduce
I0715 00:27:32.246024 17369 net.cpp:156] Memory required for data: 390871040
I0715 00:27:32.246032 17373 net.cpp:425] inception_4b/relu_3x3_reduce <- inception_4b/3x3_reduce
I0715 00:27:32.246040 17369 layer_factory.hpp:77] Creating layer inception_4b/relu_1x1
I0715 00:27:32.246042 17373 net.cpp:386] inception_4b/relu_3x3_reduce -> inception_4b/3x3_reduce (in-place)
I0715 00:27:32.246053 17369 net.cpp:91] Creating Layer inception_4b/relu_1x1
I0715 00:27:32.246059 17369 net.cpp:425] inception_4b/relu_1x1 <- inception_4b/1x1
I0715 00:27:32.246073 17369 net.cpp:386] inception_4b/relu_1x1 -> inception_4b/1x1 (in-place)
I0715 00:27:32.247100 17373 net.cpp:141] Setting up inception_4b/relu_3x3_reduce
I0715 00:27:32.247107 17369 net.cpp:141] Setting up inception_4b/relu_1x1
I0715 00:27:32.247113 17373 net.cpp:148] Top shape: 10 112 14 14 (219520)
I0715 00:27:32.247119 17373 net.cpp:156] Memory required for data: 393881600
I0715 00:27:32.247119 17369 net.cpp:148] Top shape: 10 160 14 14 (313600)
I0715 00:27:32.247124 17373 layer_factory.hpp:77] Creating layer inception_4b/3x3
I0715 00:27:32.247125 17369 net.cpp:156] Memory required for data: 392125440
I0715 00:27:32.247136 17369 layer_factory.hpp:77] Creating layer inception_4b/3x3_reduce
I0715 00:27:32.247143 17373 net.cpp:91] Creating Layer inception_4b/3x3
I0715 00:27:32.247150 17373 net.cpp:425] inception_4b/3x3 <- inception_4b/3x3_reduce
I0715 00:27:32.247153 17369 net.cpp:91] Creating Layer inception_4b/3x3_reduce
I0715 00:27:32.247159 17369 net.cpp:425] inception_4b/3x3_reduce <- inception_4a/output_inception_4a/output_0_split_1
I0715 00:27:32.247161 17373 net.cpp:399] inception_4b/3x3 -> inception_4b/3x3
I0715 00:27:32.247171 17369 net.cpp:399] inception_4b/3x3_reduce -> inception_4b/3x3_reduce
I0715 00:27:32.252306 17369 net.cpp:141] Setting up inception_4b/3x3_reduce
I0715 00:27:32.252323 17369 net.cpp:148] Top shape: 10 112 14 14 (219520)
I0715 00:27:32.252328 17369 net.cpp:156] Memory required for data: 393003520
I0715 00:27:32.252338 17369 layer_factory.hpp:77] Creating layer inception_4b/relu_3x3_reduce
I0715 00:27:32.252348 17369 net.cpp:91] Creating Layer inception_4b/relu_3x3_reduce
I0715 00:27:32.252354 17369 net.cpp:425] inception_4b/relu_3x3_reduce <- inception_4b/3x3_reduce
I0715 00:27:32.252362 17369 net.cpp:386] inception_4b/relu_3x3_reduce -> inception_4b/3x3_reduce (in-place)
I0715 00:27:32.254096 17373 net.cpp:141] Setting up inception_4b/3x3
I0715 00:27:32.254112 17373 net.cpp:148] Top shape: 10 224 14 14 (439040)
I0715 00:27:32.254112 17369 net.cpp:141] Setting up inception_4b/relu_3x3_reduce
I0715 00:27:32.254119 17373 net.cpp:156] Memory required for data: 395637760
I0715 00:27:32.254129 17373 layer_factory.hpp:77] Creating layer inception_4b/relu_3x3
I0715 00:27:32.254129 17369 net.cpp:148] Top shape: 10 112 14 14 (219520)
I0715 00:27:32.254140 17369 net.cpp:156] Memory required for data: 393881600
I0715 00:27:32.254144 17373 net.cpp:91] Creating Layer inception_4b/relu_3x3
I0715 00:27:32.254146 17369 layer_factory.hpp:77] Creating layer inception_4b/3x3
I0715 00:27:32.254151 17373 net.cpp:425] inception_4b/relu_3x3 <- inception_4b/3x3
I0715 00:27:32.254159 17373 net.cpp:386] inception_4b/relu_3x3 -> inception_4b/3x3 (in-place)
I0715 00:27:32.254163 17369 net.cpp:91] Creating Layer inception_4b/3x3
I0715 00:27:32.254169 17369 net.cpp:425] inception_4b/3x3 <- inception_4b/3x3_reduce
I0715 00:27:32.254179 17369 net.cpp:399] inception_4b/3x3 -> inception_4b/3x3
I0715 00:27:32.255712 17373 net.cpp:141] Setting up inception_4b/relu_3x3
I0715 00:27:32.255725 17373 net.cpp:148] Top shape: 10 224 14 14 (439040)
I0715 00:27:32.255730 17373 net.cpp:156] Memory required for data: 397393920
I0715 00:27:32.255736 17373 layer_factory.hpp:77] Creating layer inception_4b/5x5_reduce
I0715 00:27:32.255765 17373 net.cpp:91] Creating Layer inception_4b/5x5_reduce
I0715 00:27:32.255772 17373 net.cpp:425] inception_4b/5x5_reduce <- inception_4a/output_inception_4a/output_0_split_2
I0715 00:27:32.255782 17373 net.cpp:399] inception_4b/5x5_reduce -> inception_4b/5x5_reduce
I0715 00:27:32.259837 17373 net.cpp:141] Setting up inception_4b/5x5_reduce
I0715 00:27:32.259855 17373 net.cpp:148] Top shape: 10 24 14 14 (47040)
I0715 00:27:32.259860 17373 net.cpp:156] Memory required for data: 397582080
I0715 00:27:32.259870 17373 layer_factory.hpp:77] Creating layer inception_4b/relu_5x5_reduce
I0715 00:27:32.259878 17373 net.cpp:91] Creating Layer inception_4b/relu_5x5_reduce
I0715 00:27:32.259884 17373 net.cpp:425] inception_4b/relu_5x5_reduce <- inception_4b/5x5_reduce
I0715 00:27:32.259894 17373 net.cpp:386] inception_4b/relu_5x5_reduce -> inception_4b/5x5_reduce (in-place)
I0715 00:27:32.261003 17373 net.cpp:141] Setting up inception_4b/relu_5x5_reduce
I0715 00:27:32.261016 17373 net.cpp:148] Top shape: 10 24 14 14 (47040)
I0715 00:27:32.261021 17373 net.cpp:156] Memory required for data: 397770240
I0715 00:27:32.261026 17373 layer_factory.hpp:77] Creating layer inception_4b/5x5
I0715 00:27:32.261044 17373 net.cpp:91] Creating Layer inception_4b/5x5
I0715 00:27:32.261051 17373 net.cpp:425] inception_4b/5x5 <- inception_4b/5x5_reduce
I0715 00:27:32.261061 17373 net.cpp:399] inception_4b/5x5 -> inception_4b/5x5
I0715 00:27:32.261076 17369 net.cpp:141] Setting up inception_4b/3x3
I0715 00:27:32.261091 17369 net.cpp:148] Top shape: 10 224 14 14 (439040)
I0715 00:27:32.261096 17369 net.cpp:156] Memory required for data: 395637760
I0715 00:27:32.261106 17369 layer_factory.hpp:77] Creating layer inception_4b/relu_3x3
I0715 00:27:32.261117 17369 net.cpp:91] Creating Layer inception_4b/relu_3x3
I0715 00:27:32.261123 17369 net.cpp:425] inception_4b/relu_3x3 <- inception_4b/3x3
I0715 00:27:32.261131 17369 net.cpp:386] inception_4b/relu_3x3 -> inception_4b/3x3 (in-place)
I0715 00:27:32.261586 17369 net.cpp:141] Setting up inception_4b/relu_3x3
I0715 00:27:32.261598 17369 net.cpp:148] Top shape: 10 224 14 14 (439040)
I0715 00:27:32.261602 17369 net.cpp:156] Memory required for data: 397393920
I0715 00:27:32.261607 17369 layer_factory.hpp:77] Creating layer inception_4b/5x5_reduce
I0715 00:27:32.261638 17369 net.cpp:91] Creating Layer inception_4b/5x5_reduce
I0715 00:27:32.261644 17369 net.cpp:425] inception_4b/5x5_reduce <- inception_4a/output_inception_4a/output_0_split_2
I0715 00:27:32.261654 17369 net.cpp:399] inception_4b/5x5_reduce -> inception_4b/5x5_reduce
I0715 00:27:32.266027 17373 net.cpp:141] Setting up inception_4b/5x5
I0715 00:27:32.266043 17373 net.cpp:148] Top shape: 10 64 14 14 (125440)
I0715 00:27:32.266048 17373 net.cpp:156] Memory required for data: 398272000
I0715 00:27:32.266058 17373 layer_factory.hpp:77] Creating layer inception_4b/relu_5x5
I0715 00:27:32.266072 17373 net.cpp:91] Creating Layer inception_4b/relu_5x5
I0715 00:27:32.266077 17373 net.cpp:425] inception_4b/relu_5x5 <- inception_4b/5x5
I0715 00:27:32.266085 17373 net.cpp:386] inception_4b/relu_5x5 -> inception_4b/5x5 (in-place)
I0715 00:27:32.266424 17369 net.cpp:141] Setting up inception_4b/5x5_reduce
I0715 00:27:32.266443 17369 net.cpp:148] Top shape: 10 24 14 14 (47040)
I0715 00:27:32.266448 17369 net.cpp:156] Memory required for data: 397582080
I0715 00:27:32.266458 17369 layer_factory.hpp:77] Creating layer inception_4b/relu_5x5_reduce
I0715 00:27:32.266471 17369 net.cpp:91] Creating Layer inception_4b/relu_5x5_reduce
I0715 00:27:32.266477 17369 net.cpp:425] inception_4b/relu_5x5_reduce <- inception_4b/5x5_reduce
I0715 00:27:32.266484 17369 net.cpp:386] inception_4b/relu_5x5_reduce -> inception_4b/5x5_reduce (in-place)
I0715 00:27:32.266487 17373 net.cpp:141] Setting up inception_4b/relu_5x5
I0715 00:27:32.266500 17373 net.cpp:148] Top shape: 10 64 14 14 (125440)
I0715 00:27:32.266505 17373 net.cpp:156] Memory required for data: 398773760
I0715 00:27:32.266510 17373 layer_factory.hpp:77] Creating layer inception_4b/pool
I0715 00:27:32.266520 17373 net.cpp:91] Creating Layer inception_4b/pool
I0715 00:27:32.266525 17373 net.cpp:425] inception_4b/pool <- inception_4a/output_inception_4a/output_0_split_3
I0715 00:27:32.266536 17373 net.cpp:399] inception_4b/pool -> inception_4b/pool
I0715 00:27:32.267212 17373 net.cpp:141] Setting up inception_4b/pool
I0715 00:27:32.267225 17373 net.cpp:148] Top shape: 10 512 14 14 (1003520)
I0715 00:27:32.267230 17373 net.cpp:156] Memory required for data: 402787840
I0715 00:27:32.267235 17373 layer_factory.hpp:77] Creating layer inception_4b/pool_proj
I0715 00:27:32.267254 17373 net.cpp:91] Creating Layer inception_4b/pool_proj
I0715 00:27:32.267261 17373 net.cpp:425] inception_4b/pool_proj <- inception_4b/pool
I0715 00:27:32.267269 17373 net.cpp:399] inception_4b/pool_proj -> inception_4b/pool_proj
I0715 00:27:32.267431 17369 net.cpp:141] Setting up inception_4b/relu_5x5_reduce
I0715 00:27:32.267444 17369 net.cpp:148] Top shape: 10 24 14 14 (47040)
I0715 00:27:32.267449 17369 net.cpp:156] Memory required for data: 397770240
I0715 00:27:32.267454 17369 layer_factory.hpp:77] Creating layer inception_4b/5x5
I0715 00:27:32.267477 17369 net.cpp:91] Creating Layer inception_4b/5x5
I0715 00:27:32.267483 17369 net.cpp:425] inception_4b/5x5 <- inception_4b/5x5_reduce
I0715 00:27:32.267493 17369 net.cpp:399] inception_4b/5x5 -> inception_4b/5x5
I0715 00:27:32.272737 17369 net.cpp:141] Setting up inception_4b/5x5
I0715 00:27:32.272753 17369 net.cpp:148] Top shape: 10 64 14 14 (125440)
I0715 00:27:32.272758 17369 net.cpp:156] Memory required for data: 398272000
I0715 00:27:32.272768 17369 layer_factory.hpp:77] Creating layer inception_4b/relu_5x5
I0715 00:27:32.272789 17369 net.cpp:91] Creating Layer inception_4b/relu_5x5
I0715 00:27:32.272796 17369 net.cpp:425] inception_4b/relu_5x5 <- inception_4b/5x5
I0715 00:27:32.272795 17373 net.cpp:141] Setting up inception_4b/pool_proj
I0715 00:27:32.272805 17369 net.cpp:386] inception_4b/relu_5x5 -> inception_4b/5x5 (in-place)
I0715 00:27:32.272810 17373 net.cpp:148] Top shape: 10 64 14 14 (125440)
I0715 00:27:32.272815 17373 net.cpp:156] Memory required for data: 403289600
I0715 00:27:32.272825 17373 layer_factory.hpp:77] Creating layer inception_4b/relu_pool_proj
I0715 00:27:32.272833 17373 net.cpp:91] Creating Layer inception_4b/relu_pool_proj
I0715 00:27:32.272840 17373 net.cpp:425] inception_4b/relu_pool_proj <- inception_4b/pool_proj
I0715 00:27:32.272846 17373 net.cpp:386] inception_4b/relu_pool_proj -> inception_4b/pool_proj (in-place)
I0715 00:27:32.273874 17369 net.cpp:141] Setting up inception_4b/relu_5x5
I0715 00:27:32.273880 17373 net.cpp:141] Setting up inception_4b/relu_pool_proj
I0715 00:27:32.273891 17369 net.cpp:148] Top shape: 10 64 14 14 (125440)
I0715 00:27:32.273896 17369 net.cpp:156] Memory required for data: 398773760
I0715 00:27:32.273896 17373 net.cpp:148] Top shape: 10 64 14 14 (125440)
I0715 00:27:32.273902 17369 layer_factory.hpp:77] Creating layer inception_4b/pool
I0715 00:27:32.273902 17373 net.cpp:156] Memory required for data: 403791360
I0715 00:27:32.273913 17373 layer_factory.hpp:77] Creating layer inception_4b/output
I0715 00:27:32.273917 17369 net.cpp:91] Creating Layer inception_4b/pool
I0715 00:27:32.273924 17369 net.cpp:425] inception_4b/pool <- inception_4a/output_inception_4a/output_0_split_3
I0715 00:27:32.273926 17373 net.cpp:91] Creating Layer inception_4b/output
I0715 00:27:32.273932 17373 net.cpp:425] inception_4b/output <- inception_4b/1x1
I0715 00:27:32.273932 17369 net.cpp:399] inception_4b/pool -> inception_4b/pool
I0715 00:27:32.273941 17373 net.cpp:425] inception_4b/output <- inception_4b/3x3
I0715 00:27:32.273947 17373 net.cpp:425] inception_4b/output <- inception_4b/5x5
I0715 00:27:32.273952 17373 net.cpp:425] inception_4b/output <- inception_4b/pool_proj
I0715 00:27:32.273958 17373 net.cpp:399] inception_4b/output -> inception_4b/output
I0715 00:27:32.274036 17373 net.cpp:141] Setting up inception_4b/output
I0715 00:27:32.274047 17373 net.cpp:148] Top shape: 10 512 14 14 (1003520)
I0715 00:27:32.274051 17373 net.cpp:156] Memory required for data: 407805440
I0715 00:27:32.274056 17373 layer_factory.hpp:77] Creating layer inception_4b/output_inception_4b/output_0_split
I0715 00:27:32.274065 17373 net.cpp:91] Creating Layer inception_4b/output_inception_4b/output_0_split
I0715 00:27:32.274070 17373 net.cpp:425] inception_4b/output_inception_4b/output_0_split <- inception_4b/output
I0715 00:27:32.274070 17369 net.cpp:141] Setting up inception_4b/pool
I0715 00:27:32.274080 17373 net.cpp:399] inception_4b/output_inception_4b/output_0_split -> inception_4b/output_inception_4b/output_0_split_0
I0715 00:27:32.274081 17369 net.cpp:148] Top shape: 10 512 14 14 (1003520)
I0715 00:27:32.274086 17369 net.cpp:156] Memory required for data: 402787840
I0715 00:27:32.274090 17373 net.cpp:399] inception_4b/output_inception_4b/output_0_split -> inception_4b/output_inception_4b/output_0_split_1
I0715 00:27:32.274091 17369 layer_factory.hpp:77] Creating layer inception_4b/pool_proj
I0715 00:27:32.274097 17373 net.cpp:399] inception_4b/output_inception_4b/output_0_split -> inception_4b/output_inception_4b/output_0_split_2
I0715 00:27:32.274106 17373 net.cpp:399] inception_4b/output_inception_4b/output_0_split -> inception_4b/output_inception_4b/output_0_split_3
I0715 00:27:32.274107 17369 net.cpp:91] Creating Layer inception_4b/pool_proj
I0715 00:27:32.274113 17369 net.cpp:425] inception_4b/pool_proj <- inception_4b/pool
I0715 00:27:32.274127 17369 net.cpp:399] inception_4b/pool_proj -> inception_4b/pool_proj
I0715 00:27:32.274323 17373 net.cpp:141] Setting up inception_4b/output_inception_4b/output_0_split
I0715 00:27:32.274334 17373 net.cpp:148] Top shape: 10 512 14 14 (1003520)
I0715 00:27:32.274340 17373 net.cpp:148] Top shape: 10 512 14 14 (1003520)
I0715 00:27:32.274345 17373 net.cpp:148] Top shape: 10 512 14 14 (1003520)
I0715 00:27:32.274350 17373 net.cpp:148] Top shape: 10 512 14 14 (1003520)
I0715 00:27:32.274354 17373 net.cpp:156] Memory required for data: 423861760
I0715 00:27:32.274359 17373 layer_factory.hpp:77] Creating layer inception_4c/1x1
I0715 00:27:32.274375 17373 net.cpp:91] Creating Layer inception_4c/1x1
I0715 00:27:32.274381 17373 net.cpp:425] inception_4c/1x1 <- inception_4b/output_inception_4b/output_0_split_0
I0715 00:27:32.274390 17373 net.cpp:399] inception_4c/1x1 -> inception_4c/1x1
I0715 00:27:32.279098 17369 net.cpp:141] Setting up inception_4b/pool_proj
I0715 00:27:32.279119 17369 net.cpp:148] Top shape: 10 64 14 14 (125440)
I0715 00:27:32.279125 17369 net.cpp:156] Memory required for data: 403289600
I0715 00:27:32.279139 17369 layer_factory.hpp:77] Creating layer inception_4b/relu_pool_proj
I0715 00:27:32.279148 17369 net.cpp:91] Creating Layer inception_4b/relu_pool_proj
I0715 00:27:32.279155 17369 net.cpp:425] inception_4b/relu_pool_proj <- inception_4b/pool_proj
I0715 00:27:32.279165 17369 net.cpp:386] inception_4b/relu_pool_proj -> inception_4b/pool_proj (in-place)
I0715 00:27:32.279992 17373 net.cpp:141] Setting up inception_4c/1x1
I0715 00:27:32.280009 17373 net.cpp:148] Top shape: 10 128 14 14 (250880)
I0715 00:27:32.280014 17373 net.cpp:156] Memory required for data: 424865280
I0715 00:27:32.280025 17373 layer_factory.hpp:77] Creating layer inception_4c/relu_1x1
…
I0715 00:27:32.409430 17369 net.cpp:148] Top shape: 10 32 14 14 (62720)
I0715 00:27:32.409435 17369 net.cpp:156] Memory required for data: 505899520
I0715 00:27:32.409446 17369 layer_factory.hpp:77] Creating layer inception_4e/relu_5x5_reduce
I0715 00:27:32.409458 17369 net.cpp:91] Creating Layer inception_4e/relu_5x5_reduce
I0715 00:27:32.409466 17369 net.cpp:425] inception_4e/relu_5x5_reduce <- inception_4e/5x5_reduce
I0715 00:27:32.409474 17369 net.cpp:386] inception_4e/relu_5x5_reduce -> inception_4e/5x5_reduce (in-place)
I0715 00:27:32.410655 17373 net.cpp:141] Setting up inception_4e/relu_5x5
I0715 00:27:32.410671 17373 net.cpp:148] Top shape: 10 128 14 14 (250880)
I0715 00:27:32.410676 17369 net.cpp:141] Setting up inception_4e/relu_5x5_reduce
I0715 00:27:32.410679 17373 net.cpp:156] Memory required for data: 508157440
I0715 00:27:32.410701 17369 net.cpp:148] Top shape: 10 32 14 14 (62720)
I0715 00:27:32.410701 17373 layer_factory.hpp:77] Creating layer inception_4e/pool
I0715 00:27:32.410707 17369 net.cpp:156] Memory required for data: 506150400
I0715 00:27:32.410713 17369 layer_factory.hpp:77] Creating layer inception_4e/5x5
I0715 00:27:32.410713 17373 net.cpp:91] Creating Layer inception_4e/pool
I0715 00:27:32.410727 17373 net.cpp:425] inception_4e/pool <- inception_4d/output_inception_4d/output_0_split_3
I0715 00:27:32.410737 17373 net.cpp:399] inception_4e/pool -> inception_4e/pool
I0715 00:27:32.410738 17369 net.cpp:91] Creating Layer inception_4e/5x5
I0715 00:27:32.410747 17369 net.cpp:425] inception_4e/5x5 <- inception_4e/5x5_reduce
I0715 00:27:32.410758 17369 net.cpp:399] inception_4e/5x5 -> inception_4e/5x5
I0715 00:27:32.410919 17373 net.cpp:141] Setting up inception_4e/pool
I0715 00:27:32.410933 17373 net.cpp:148] Top shape: 10 528 14 14 (1034880)
I0715 00:27:32.410938 17373 net.cpp:156] Memory required for data: 512296960
I0715 00:27:32.410943 17373 layer_factory.hpp:77] Creating layer inception_4e/pool_proj
I0715 00:27:32.410960 17373 net.cpp:91] Creating Layer inception_4e/pool_proj
I0715 00:27:32.410967 17373 net.cpp:425] inception_4e/pool_proj <- inception_4e/pool
I0715 00:27:32.410979 17373 net.cpp:399] inception_4e/pool_proj -> inception_4e/pool_proj
I0715 00:27:32.416671 17369 net.cpp:141] Setting up inception_4e/5x5
I0715 00:27:32.416689 17369 net.cpp:148] Top shape: 10 128 14 14 (250880)
I0715 00:27:32.416695 17369 net.cpp:156] Memory required for data: 507153920
I0715 00:27:32.416705 17369 layer_factory.hpp:77] Creating layer inception_4e/relu_5x5
I0715 00:27:32.416715 17369 net.cpp:91] Creating Layer inception_4e/relu_5x5
I0715 00:27:32.416723 17369 net.cpp:425] inception_4e/relu_5x5 <- inception_4e/5x5
I0715 00:27:32.416735 17369 net.cpp:386] inception_4e/relu_5x5 -> inception_4e/5x5 (in-place)
I0715 00:27:32.418092 17369 net.cpp:141] Setting up inception_4e/relu_5x5
I0715 00:27:32.418109 17369 net.cpp:148] Top shape: 10 128 14 14 (250880)
I0715 00:27:32.418115 17369 net.cpp:156] Memory required for data: 508157440
I0715 00:27:32.418120 17369 layer_factory.hpp:77] Creating layer inception_4e/pool
I0715 00:27:32.418130 17369 net.cpp:91] Creating Layer inception_4e/pool
I0715 00:27:32.418138 17369 net.cpp:425] inception_4e/pool <- inception_4d/output_inception_4d/output_0_split_3
I0715 00:27:32.418150 17369 net.cpp:399] inception_4e/pool -> inception_4e/pool
I0715 00:27:32.418308 17373 net.cpp:141] Setting up inception_4e/pool_proj
I0715 00:27:32.418323 17373 net.cpp:148] Top shape: 10 128 14 14 (250880)
I0715 00:27:32.418329 17373 net.cpp:156] Memory required for data: 513300480
I0715 00:27:32.418340 17373 layer_factory.hpp:77] Creating layer inception_4e/relu_pool_proj
I0715 00:27:32.418344 17369 net.cpp:141] Setting up inception_4e/pool
I0715 00:27:32.418352 17373 net.cpp:91] Creating Layer inception_4e/relu_pool_proj
I0715 00:27:32.418357 17369 net.cpp:148] Top shape: 10 528 14 14 (1034880)
I0715 00:27:32.418360 17373 net.cpp:425] inception_4e/relu_pool_proj <- inception_4e/pool_proj
I0715 00:27:32.418364 17369 net.cpp:156] Memory required for data: 512296960
I0715 00:27:32.418370 17369 layer_factory.hpp:77] Creating layer inception_4e/pool_proj
I0715 00:27:32.418370 17373 net.cpp:386] inception_4e/relu_pool_proj -> inception_4e/pool_proj (in-place)
I0715 00:27:32.418390 17369 net.cpp:91] Creating Layer inception_4e/pool_proj
I0715 00:27:32.418398 17369 net.cpp:425] inception_4e/pool_proj <- inception_4e/pool
I0715 00:27:32.418408 17369 net.cpp:399] inception_4e/pool_proj -> inception_4e/pool_proj
I0715 00:27:32.419069 17373 net.cpp:141] Setting up inception_4e/relu_pool_proj
I0715 00:27:32.419083 17373 net.cpp:148] Top shape: 10 128 14 14 (250880)
I0715 00:27:32.419088 17373 net.cpp:156] Memory required for data: 514304000
I0715 00:27:32.419095 17373 layer_factory.hpp:77] Creating layer inception_4e/output
I0715 00:27:32.419111 17373 net.cpp:91] Creating Layer inception_4e/output
I0715 00:27:32.419118 17373 net.cpp:425] inception_4e/output <- inception_4e/1x1
I0715 00:27:32.419126 17373 net.cpp:425] inception_4e/output <- inception_4e/3x3
I0715 00:27:32.419132 17373 net.cpp:425] inception_4e/output <- inception_4e/5x5
I0715 00:27:32.419138 17373 net.cpp:425] inception_4e/output <- inception_4e/pool_proj
I0715 00:27:32.419148 17373 net.cpp:399] inception_4e/output -> inception_4e/output
I0715 00:27:32.419214 17373 net.cpp:141] Setting up inception_4e/output
I0715 00:27:32.419226 17373 net.cpp:148] Top shape: 10 832 14 14 (1630720)
I0715 00:27:32.419231 17373 net.cpp:156] Memory required for data: 520826880
I0715 00:27:32.419236 17373 layer_factory.hpp:77] Creating layer pool4/3x3_s2
I0715 00:27:32.419253 17373 net.cpp:91] Creating Layer pool4/3x3_s2
I0715 00:27:32.419260 17373 net.cpp:425] pool4/3x3_s2 <- inception_4e/output
I0715 00:27:32.419268 17373 net.cpp:399] pool4/3x3_s2 -> pool4/3x3_s2
I0715 00:27:32.419365 17373 net.cpp:141] Setting up pool4/3x3_s2
I0715 00:27:32.419378 17373 net.cpp:148] Top shape: 10 832 7 7 (407680)
I0715 00:27:32.419383 17373 net.cpp:156] Memory required for data: 522457600
I0715 00:27:32.419387 17373 layer_factory.hpp:77] Creating layer pool4/3x3_s2_pool4/3x3_s2_0_split
I0715 00:27:32.419396 17373 net.cpp:91] Creating Layer pool4/3x3_s2_pool4/3x3_s2_0_split
I0715 00:27:32.419402 17373 net.cpp:425] pool4/3x3_s2_pool4/3x3_s2_0_split <- pool4/3x3_s2
I0715 00:27:32.419414 17373 net.cpp:399] pool4/3x3_s2_pool4/3x3_s2_0_split -> pool4/3x3_s2_pool4/3x3_s2_0_split_0
I0715 00:27:32.419423 17373 net.cpp:399] pool4/3x3_s2_pool4/3x3_s2_0_split -> pool4/3x3_s2_pool4/3x3_s2_0_split_1
I0715 00:27:32.419431 17373 net.cpp:399] pool4/3x3_s2_pool4/3x3_s2_0_split -> pool4/3x3_s2_pool4/3x3_s2_0_split_2
I0715 00:27:32.419440 17373 net.cpp:399] pool4/3x3_s2_pool4/3x3_s2_0_split -> pool4/3x3_s2_pool4/3x3_s2_0_split_3
I0715 00:27:32.419587 17373 net.cpp:141] Setting up pool4/3x3_s2_pool4/3x3_s2_0_split
I0715 00:27:32.419601 17373 net.cpp:148] Top shape: 10 832 7 7 (407680)
I0715 00:27:32.419607 17373 net.cpp:148] Top shape: 10 832 7 7 (407680)
I0715 00:27:32.419613 17373 net.cpp:148] Top shape: 10 832 7 7 (407680)
I0715 00:27:32.419620 17373 net.cpp:148] Top shape: 10 832 7 7 (407680)
I0715 00:27:32.419625 17373 net.cpp:156] Memory required for data: 528980480
I0715 00:27:32.419630 17373 layer_factory.hpp:77] Creating layer inception_5a/1x1
I0715 00:27:32.419646 17373 net.cpp:91] Creating Layer inception_5a/1x1
I0715 00:27:32.419653 17373 net.cpp:425] inception_5a/1x1 <- pool4/3x3_s2_pool4/3x3_s2_0_split_0
I0715 00:27:32.419663 17373 net.cpp:399] inception_5a/1x1 -> inception_5a/1x1
I0715 00:27:32.424815 17369 net.cpp:141] Setting up inception_4e/pool_proj
I0715 00:27:32.424845 17369 net.cpp:148] Top shape: 10 128 14 14 (250880)
I0715 00:27:32.424854 17369 net.cpp:156] Memory required for data: 513300480
I0715 00:27:32.424865 17369 layer_factory.hpp:77] Creating layer inception_4e/relu_pool_proj
I0715 00:27:32.424877 17369 net.cpp:91] Creating Layer inception_4e/relu_pool_proj
I0715 00:27:32.424885 17369 net.cpp:425] inception_4e/relu_pool_proj <- inception_4e/pool_proj
I0715 00:27:32.424893 17369 net.cpp:386] inception_4e/relu_pool_proj -> inception_4e/pool_proj (in-place)
I0715 00:27:32.426477 17369 net.cpp:141] Setting up inception_4e/relu_pool_proj
I0715 00:27:32.426496 17369 net.cpp:148] Top shape: 10 128 14 14 (250880)
I0715 00:27:32.426501 17369 net.cpp:156] Memory required for data: 514304000
I0715 00:27:32.426507 17369 layer_factory.hpp:77] Creating layer inception_4e/output
I0715 00:27:32.426517 17369 net.cpp:91] Creating Layer inception_4e/output
I0715 00:27:32.426523 17369 net.cpp:425] inception_4e/output <- inception_4e/1x1
I0715 00:27:32.426532 17369 net.cpp:425] inception_4e/output <- inception_4e/3x3
I0715 00:27:32.426537 17369 net.cpp:425] inception_4e/output <- inception_4e/5x5
I0715 00:27:32.426544 17369 net.cpp:425] inception_4e/output <- inception_4e/pool_proj
I0715 00:27:32.426551 17369 net.cpp:399] inception_4e/output -> inception_4e/output
I0715 00:27:32.426673 17369 net.cpp:141] Setting up inception_4e/output
I0715 00:27:32.426700 17369 net.cpp:148] Top shape: 10 832 14 14 (1630720)
I0715 00:27:32.426707 17369 net.cpp:156] Memory required for data: 520826880
I0715 00:27:32.426713 17369 layer_factory.hpp:77] Creating layer pool4/3x3_s2
I0715 00:27:32.426725 17369 net.cpp:91] Creating Layer pool4/3x3_s2
I0715 00:27:32.426733 17369 net.cpp:425] pool4/3x3_s2 <- inception_4e/output
I0715 00:27:32.426740 17369 net.cpp:399] pool4/3x3_s2 -> pool4/3x3_s2
I0715 00:27:32.427757 17369 net.cpp:141] Setting up pool4/3x3_s2
I0715 00:27:32.427773 17369 net.cpp:148] Top shape: 10 832 7 7 (407680)
I0715 00:27:32.427778 17369 net.cpp:156] Memory required for data: 522457600
I0715 00:27:32.427783 17369 layer_factory.hpp:77] Creating layer pool4/3x3_s2_pool4/3x3_s2_0_split
I0715 00:27:32.427793 17369 net.cpp:91] Creating Layer pool4/3x3_s2_pool4/3x3_s2_0_split
I0715 00:27:32.427798 17369 net.cpp:425] pool4/3x3_s2_pool4/3x3_s2_0_split <- pool4/3x3_s2
I0715 00:27:32.427806 17369 net.cpp:399] pool4/3x3_s2_pool4/3x3_s2_0_split -> pool4/3x3_s2_pool4/3x3_s2_0_split_0
I0715 00:27:32.427819 17369 net.cpp:399] pool4/3x3_s2_pool4/3x3_s2_0_split -> pool4/3x3_s2_pool4/3x3_s2_0_split_1
I0715 00:27:32.427829 17369 net.cpp:399] pool4/3x3_s2_pool4/3x3_s2_0_split -> pool4/3x3_s2_pool4/3x3_s2_0_split_2
I0715 00:27:32.427839 17369 net.cpp:399] pool4/3x3_s2_pool4/3x3_s2_0_split -> pool4/3x3_s2_pool4/3x3_s2_0_split_3
I0715 00:27:32.428194 17369 net.cpp:141] Setting up pool4/3x3_s2_pool4/3x3_s2_0_split
I0715 00:27:32.428207 17369 net.cpp:148] Top shape: 10 832 7 7 (407680)
I0715 00:27:32.428213 17369 net.cpp:148] Top shape: 10 832 7 7 (407680)
I0715 00:27:32.428220 17369 net.cpp:148] Top shape: 10 832 7 7 (407680)
I0715 00:27:32.428225 17369 net.cpp:148] Top shape: 10 832 7 7 (407680)
I0715 00:27:32.428231 17369 net.cpp:156] Memory required for data: 528980480
I0715 00:27:32.428236 17369 layer_factory.hpp:77] Creating layer inception_5a/1x1
I0715 00:27:32.428256 17369 net.cpp:91] Creating Layer inception_5a/1x1
I0715 00:27:32.428263 17369 net.cpp:425] inception_5a/1x1 <- pool4/3x3_s2_pool4/3x3_s2_0_split_0
I0715 00:27:32.428273 17369 net.cpp:399] inception_5a/1x1 -> inception_5a/1x1
I0715 00:27:32.431804 17373 net.cpp:141] Setting up inception_5a/1x1
I0715 00:27:32.431836 17373 net.cpp:148] Top shape: 10 256 7 7 (125440)
I0715 00:27:32.431849 17373 net.cpp:156] Memory required for data: 529482240
I0715 00:27:32.431869 17373 layer_factory.hpp:77] Creating layer inception_5a/relu_1x1
I0715 00:27:32.431888 17373 net.cpp:91] Creating Layer inception_5a/relu_1x1
I0715 00:27:32.431902 17373 net.cpp:425] inception_5a/relu_1x1 <- inception_5a/1x1
I0715 00:27:32.431917 17373 net.cpp:386] inception_5a/relu_1x1 -> inception_5a/1x1 (in-place)
I0715 00:27:32.434957 17373 net.cpp:141] Setting up inception_5a/relu_1x1
I0715 00:27:32.434983 17373 net.cpp:148] Top shape: 10 256 7 7 (125440)
I0715 00:27:32.434993 17373 net.cpp:156] Memory required for data: 529984000
I0715 00:27:32.435003 17373 layer_factory.hpp:77] Creating layer inception_5a/3x3_reduce
I0715 00:27:32.435039 17373 net.cpp:91] Creating Layer inception_5a/3x3_reduce
I0715 00:27:32.435051 17373 net.cpp:425] inception_5a/3x3_reduce <- pool4/3x3_s2_pool4/3x3_s2_0_split_1
I0715 00:27:32.435073 17373 net.cpp:399] inception_5a/3x3_reduce -> inception_5a/3x3_reduce
I0715 00:27:32.435307 17369 net.cpp:141] Setting up inception_5a/1x1
I0715 00:27:32.435324 17369 net.cpp:148] Top shape: 10 256 7 7 (125440)
I0715 00:27:32.435330 17369 net.cpp:156] Memory required for data: 529482240
I0715 00:27:32.435341 17369 layer_factory.hpp:77] Creating layer inception_5a/relu_1x1
I0715 00:27:32.435351 17369 net.cpp:91] Creating Layer inception_5a/relu_1x1
I0715 00:27:32.435359 17369 net.cpp:425] inception_5a/relu_1x1 <- inception_5a/1x1
I0715 00:27:32.435369 17369 net.cpp:386] inception_5a/relu_1x1 -> inception_5a/1x1 (in-place)
I0715 00:27:32.436100 17369 net.cpp:141] Setting up inception_5a/relu_1x1
I0715 00:27:32.436115 17369 net.cpp:148] Top shape: 10 256 7 7 (125440)
I0715 00:27:32.436120 17369 net.cpp:156] Memory required for data: 529984000
I0715 00:27:32.436126 17369 layer_factory.hpp:77] Creating layer inception_5a/3x3_reduce
I0715 00:27:32.436146 17369 net.cpp:91] Creating Layer inception_5a/3x3_reduce
I0715 00:27:32.436154 17369 net.cpp:425] inception_5a/3x3_reduce <- pool4/3x3_s2_pool4/3x3_s2_0_split_1
I0715 00:27:32.436164 17369 net.cpp:399] inception_5a/3x3_reduce -> inception_5a/3x3_reduce
I0715 00:27:32.444738 17373 net.cpp:141] Setting up inception_5a/3x3_reduce
I0715 00:27:32.444762 17373 net.cpp:148] Top shape: 10 160 7 7 (78400)
I0715 00:27:32.444768 17373 net.cpp:156] Memory required for data: 530297600
I0715 00:27:32.444780 17373 layer_factory.hpp:77] Creating layer inception_5a/relu_3x3_reduce
I0715 00:27:32.444798 17373 net.cpp:91] Creating Layer inception_5a/relu_3x3_reduce
I0715 00:27:32.444805 17373 net.cpp:425] inception_5a/relu_3x3_reduce <- inception_5a/3x3_reduce
I0715 00:27:32.444814 17373 net.cpp:386] inception_5a/relu_3x3_reduce -> inception_5a/3x3_reduce (in-place)
I0715 00:27:32.445869 17369 net.cpp:141] Setting up inception_5a/3x3_reduce
I0715 00:27:32.445888 17369 net.cpp:148] Top shape: 10 160 7 7 (78400)
I0715 00:27:32.445894 17369 net.cpp:156] Memory required for data: 530297600
I0715 00:27:32.445905 17369 layer_factory.hpp:77] Creating layer inception_5a/relu_3x3_reduce
I0715 00:27:32.445916 17369 net.cpp:91] Creating Layer inception_5a/relu_3x3_reduce
I0715 00:27:32.445922 17369 net.cpp:425] inception_5a/relu_3x3_reduce <- inception_5a/3x3_reduce
I0715 00:27:32.445936 17369 net.cpp:386] inception_5a/relu_3x3_reduce -> inception_5a/3x3_reduce (in-place)
I0715 00:27:32.445956 17373 net.cpp:141] Setting up inception_5a/relu_3x3_reduce
I0715 00:27:32.445972 17373 net.cpp:148] Top shape: 10 160 7 7 (78400)
I0715 00:27:32.445977 17373 net.cpp:156] Memory required for data: 530611200
I0715 00:27:32.445984 17373 layer_factory.hpp:77] Creating layer inception_5a/3x3
I0715 00:27:32.446005 17373 net.cpp:91] Creating Layer inception_5a/3x3
I0715 00:27:32.446012 17373 net.cpp:425] inception_5a/3x3 <- inception_5a/3x3_reduce
I0715 00:27:32.446022 17373 net.cpp:399] inception_5a/3x3 -> inception_5a/3x3
I0715 00:27:32.448168 17369 net.cpp:141] Setting up inception_5a/relu_3x3_reduce
I0715 00:27:32.448185 17369 net.cpp:148] Top shape: 10 160 7 7 (78400)
I0715 00:27:32.448191 17369 net.cpp:156] Memory required for data: 530611200
I0715 00:27:32.448197 17369 layer_factory.hpp:77] Creating layer inception_5a/3x3
I0715 00:27:32.448216 17369 net.cpp:91] Creating Layer inception_5a/3x3
I0715 00:27:32.448223 17369 net.cpp:425] inception_5a/3x3 <- inception_5a/3x3_reduce
I0715 00:27:32.448235 17369 net.cpp:399] inception_5a/3x3 -> inception_5a/3x3
I0715 00:27:32.456877 17373 net.cpp:141] Setting up inception_5a/3x3
I0715 00:27:32.456902 17373 net.cpp:148] Top shape: 10 320 7 7 (156800)
I0715 00:27:32.456907 17373 net.cpp:156] Memory required for data: 531238400
I0715 00:27:32.456918 17373 layer_factory.hpp:77] Creating layer inception_5a/relu_3x3
I0715 00:27:32.456929 17373 net.cpp:91] Creating Layer inception_5a/relu_3x3
I0715 00:27:32.456938 17373 net.cpp:425] inception_5a/relu_3x3 <- inception_5a/3x3
I0715 00:27:32.456945 17373 net.cpp:386] inception_5a/relu_3x3 -> inception_5a/3x3 (in-place)
I0715 00:27:32.458143 17373 net.cpp:141] Setting up inception_5a/relu_3x3
I0715 00:27:32.458159 17373 net.cpp:148] Top shape: 10 320 7 7 (156800)
I0715 00:27:32.458165 17373 net.cpp:156] Memory required for data: 531865600
I0715 00:27:32.458171 17373 layer_factory.hpp:77] Creating layer inception_5a/5x5_reduce
I0715 00:27:32.458189 17373 net.cpp:91] Creating Layer inception_5a/5x5_reduce
I0715 00:27:32.458196 17373 net.cpp:425] inception_5a/5x5_reduce <- pool4/3x3_s2_pool4/3x3_s2_0_split_2
I0715 00:27:32.458211 17373 net.cpp:399] inception_5a/5x5_reduce -> inception_5a/5x5_reduce
I0715 00:27:32.459915 17369 net.cpp:141] Setting up inception_5a/3x3
I0715 00:27:32.459935 17369 net.cpp:148] Top shape: 10 320 7 7 (156800)
I0715 00:27:32.459941 17369 net.cpp:156] Memory required for data: 531238400
I0715 00:27:32.459952 17369 layer_factory.hpp:77] Creating layer inception_5a/relu_3x3
I0715 00:27:32.459970 17369 net.cpp:91] Creating Layer inception_5a/relu_3x3
I0715 00:27:32.459977 17369 net.cpp:425] inception_5a/relu_3x3 <- inception_5a/3x3
I0715 00:27:32.459986 17369 net.cpp:386] inception_5a/relu_3x3 -> inception_5a/3x3 (in-place)
I0715 00:27:32.461431 17369 net.cpp:141] Setting up inception_5a/relu_3x3
I0715 00:27:32.461450 17369 net.cpp:148] Top shape: 10 320 7 7 (156800)
I0715 00:27:32.461455 17369 net.cpp:156] Memory required for data: 531865600
I0715 00:27:32.461462 17369 layer_factory.hpp:77] Creating layer inception_5a/5x5_reduce
I0715 00:27:32.461484 17369 net.cpp:91] Creating Layer inception_5a/5x5_reduce
I0715 00:27:32.461493 17369 net.cpp:425] inception_5a/5x5_reduce <- pool4/3x3_s2_pool4/3x3_s2_0_split_2
I0715 00:27:32.461503 17369 net.cpp:399] inception_5a/5x5_reduce -> inception_5a/5x5_reduce
I0715 00:27:32.467291 17369 net.cpp:141] Setting up inception_5a/5x5_reduce
I0715 00:27:32.467317 17369 net.cpp:148] Top shape: 10 32 7 7 (15680)
I0715 00:27:32.467324 17369 net.cpp:156] Memory required for data: 531928320
I0715 00:27:32.467335 17369 layer_factory.hpp:77] Creating layer inception_5a/relu_5x5_reduce
I0715 00:27:32.467346 17369 net.cpp:91] Creating Layer inception_5a/relu_5x5_reduce
I0715 00:27:32.467355 17369 net.cpp:425] inception_5a/relu_5x5_reduce <- inception_5a/5x5_reduce
I0715 00:27:32.467366 17369 net.cpp:386] inception_5a/relu_5x5_reduce -> inception_5a/5x5_reduce (in-place)
I0715 00:27:32.468737 17369 net.cpp:141] Setting up inception_5a/relu_5x5_reduce
I0715 00:27:32.468755 17369 net.cpp:148] Top shape: 10 32 7 7 (15680)
I0715 00:27:32.468761 17369 net.cpp:156] Memory required for data: 531991040
I0715 00:27:32.468768 17369 layer_factory.hpp:77] Creating layer inception_5a/5x5
I0715 00:27:32.468791 17369 net.cpp:91] Creating Layer inception_5a/5x5
I0715 00:27:32.468798 17369 net.cpp:425] inception_5a/5x5 <- inception_5a/5x5_reduce
I0715 00:27:32.468813 17369 net.cpp:399] inception_5a/5x5 -> inception_5a/5x5
I0715 00:27:32.469133 17373 net.cpp:141] Setting up inception_5a/5x5_reduce
I0715 00:27:32.469161 17373 net.cpp:148] Top shape: 10 32 7 7 (15680)
I0715 00:27:32.469173 17373 net.cpp:156] Memory required for data: 531928320
I0715 00:27:32.469192 17373 layer_factory.hpp:77] Creating layer inception_5a/relu_5x5_reduce
I0715 00:27:32.469209 17373 net.cpp:91] Creating Layer inception_5a/relu_5x5_reduce
I0715 00:27:32.469223 17373 net.cpp:425] inception_5a/relu_5x5_reduce <- inception_5a/5x5_reduce
I0715 00:27:32.469238 17373 net.cpp:386] inception_5a/relu_5x5_reduce -> inception_5a/5x5_reduce (in-place)
I0715 00:27:32.469776 17373 net.cpp:141] Setting up inception_5a/relu_5x5_reduce
I0715 00:27:32.469794 17373 net.cpp:148] Top shape: 10 32 7 7 (15680)
I0715 00:27:32.469799 17373 net.cpp:156] Memory required for data: 531991040
I0715 00:27:32.469805 17373 layer_factory.hpp:77] Creating layer inception_5a/5x5
I0715 00:27:32.469825 17373 net.cpp:91] Creating Layer inception_5a/5x5
I0715 00:27:32.469832 17373 net.cpp:425] inception_5a/5x5 <- inception_5a/5x5_reduce
I0715 00:27:32.469846 17373 net.cpp:399] inception_5a/5x5 -> inception_5a/5x5
I0715 00:27:32.476207 17369 net.cpp:141] Setting up inception_5a/5x5
I0715 00:27:32.476230 17369 net.cpp:148] Top shape: 10 128 7 7 (62720)
I0715 00:27:32.476236 17369 net.cpp:156] Memory required for data: 532241920
I0715 00:27:32.476248 17369 layer_factory.hpp:77] Creating layer inception_5a/relu_5x5
I0715 00:27:32.476287 17369 net.cpp:91] Creating Layer inception_5a/relu_5x5
I0715 00:27:32.476296 17369 net.cpp:425] inception_5a/relu_5x5 <- inception_5a/5x5
I0715 00:27:32.476305 17369 net.cpp:386] inception_5a/relu_5x5 -> inception_5a/5x5 (in-place)
I0715 00:27:32.477324 17373 net.cpp:141] Setting up inception_5a/5x5
I0715 00:27:32.477345 17373 net.cpp:148] Top shape: 10 128 7 7 (62720)
I0715 00:27:32.477351 17373 net.cpp:156] Memory required for data: 532241920
I0715 00:27:32.477362 17373 layer_factory.hpp:77] Creating layer inception_5a/relu_5x5
I0715 00:27:32.477403 17373 net.cpp:91] Creating Layer inception_5a/relu_5x5
I0715 00:27:32.477411 17373 net.cpp:425] inception_5a/relu_5x5 <- inception_5a/5x5
I0715 00:27:32.477427 17373 net.cpp:386] inception_5a/relu_5x5 -> inception_5a/5x5 (in-place)
I0715 00:27:32.477649 17369 net.cpp:141] Setting up inception_5a/relu_5x5
I0715 00:27:32.477668 17369 net.cpp:148] Top shape: 10 128 7 7 (62720)
I0715 00:27:32.477672 17369 net.cpp:156] Memory required for data: 532492800
I0715 00:27:32.477679 17369 layer_factory.hpp:77] Creating layer inception_5a/pool
I0715 00:27:32.477691 17369 net.cpp:91] Creating Layer inception_5a/pool
I0715 00:27:32.477699 17369 net.cpp:425] inception_5a/pool <- pool4/3x3_s2_pool4/3x3_s2_0_split_3
I0715 00:27:32.477707 17369 net.cpp:399] inception_5a/pool -> inception_5a/pool
I0715 00:27:32.477864 17369 net.cpp:141] Setting up inception_5a/pool
I0715 00:27:32.477876 17369 net.cpp:148] Top shape: 10 832 7 7 (407680)
I0715 00:27:32.477881 17369 net.cpp:156] Memory required for data: 534123520
I0715 00:27:32.477887 17369 layer_factory.hpp:77] Creating layer inception_5a/pool_proj
I0715 00:27:32.477893 17373 net.cpp:141] Setting up inception_5a/relu_5x5
I0715 00:27:32.477906 17369 net.cpp:91] Creating Layer inception_5a/pool_proj
I0715 00:27:32.477907 17373 net.cpp:148] Top shape: 10 128 7 7 (62720)
I0715 00:27:32.477915 17369 net.cpp:425] inception_5a/pool_proj <- inception_5a/pool
I0715 00:27:32.477915 17373 net.cpp:156] Memory required for data: 532492800
I0715 00:27:32.477929 17373 layer_factory.hpp:77] Creating layer inception_5a/pool
I0715 00:27:32.477932 17369 net.cpp:399] inception_5a/pool_proj -> inception_5a/pool_proj
I0715 00:27:32.477943 17373 net.cpp:91] Creating Layer inception_5a/pool
I0715 00:27:32.477952 17373 net.cpp:425] inception_5a/pool <- pool4/3x3_s2_pool4/3x3_s2_0_split_3
I0715 00:27:32.477963 17373 net.cpp:399] inception_5a/pool -> inception_5a/pool
I0715 00:27:32.478366 17373 net.cpp:141] Setting up inception_5a/pool
I0715 00:27:32.478379 17373 net.cpp:148] Top shape: 10 832 7 7 (407680)
I0715 00:27:32.478384 17373 net.cpp:156] Memory required for data: 534123520
I0715 00:27:32.478391 17373 layer_factory.hpp:77] Creating layer inception_5a/pool_proj
I0715 00:27:32.478407 17373 net.cpp:91] Creating Layer inception_5a/pool_proj
I0715 00:27:32.478413 17373 net.cpp:425] inception_5a/pool_proj <- inception_5a/pool
I0715 00:27:32.478427 17373 net.cpp:399] inception_5a/pool_proj -> inception_5a/pool_proj
I0715 00:27:32.485410 17369 net.cpp:141] Setting up inception_5a/pool_proj
I0715 00:27:32.485431 17369 net.cpp:148] Top shape: 10 128 7 7 (62720)
I0715 00:27:32.485437 17369 net.cpp:156] Memory required for data: 534374400
I0715 00:27:32.485450 17369 layer_factory.hpp:77] Creating layer inception_5a/relu_pool_proj
I0715 00:27:32.485460 17369 net.cpp:91] Creating Layer inception_5a/relu_pool_proj
I0715 00:27:32.485466 17369 net.cpp:425] inception_5a/relu_pool_proj <- inception_5a/pool_proj
I0715 00:27:32.485477 17369 net.cpp:386] inception_5a/relu_pool_proj -> inception_5a/pool_proj (in-place)
I0715 00:27:32.485994 17373 net.cpp:141] Setting up inception_5a/pool_proj
I0715 00:27:32.486013 17373 net.cpp:148] Top shape: 10 128 7 7 (62720)
I0715 00:27:32.486019 17373 net.cpp:156] Memory required for data: 534374400
I0715 00:27:32.486032 17373 layer_factory.hpp:77] Creating layer inception_5a/relu_pool_proj
I0715 00:27:32.486042 17373 net.cpp:91] Creating Layer inception_5a/relu_pool_proj
I0715 00:27:32.486047 17373 net.cpp:425] inception_5a/relu_pool_proj <- inception_5a/pool_proj
I0715 00:27:32.486059 17373 net.cpp:386] inception_5a/relu_pool_proj -> inception_5a/pool_proj (in-place)
I0715 00:27:32.486076 17369 net.cpp:141] Setting up inception_5a/relu_pool_proj
I0715 00:27:32.486090 17369 net.cpp:148] Top shape: 10 128 7 7 (62720)
I0715 00:27:32.486096 17369 net.cpp:156] Memory required for data: 534625280
I0715 00:27:32.486101 17369 layer_factory.hpp:77] Creating layer inception_5a/output
I0715 00:27:32.486115 17369 net.cpp:91] Creating Layer inception_5a/output
I0715 00:27:32.486122 17369 net.cpp:425] inception_5a/output <- inception_5a/1x1
I0715 00:27:32.486130 17369 net.cpp:425] inception_5a/output <- inception_5a/3x3
I0715 00:27:32.486136 17369 net.cpp:425] inception_5a/output <- inception_5a/5x5
I0715 00:27:32.486143 17369 net.cpp:425] inception_5a/output <- inception_5a/pool_proj
I0715 00:27:32.486151 17369 net.cpp:399] inception_5a/output -> inception_5a/output
I0715 00:27:32.486939 17369 net.cpp:141] Setting up inception_5a/output
I0715 00:27:32.486955 17369 net.cpp:148] Top shape: 10 832 7 7 (407680)
I0715 00:27:32.486961 17369 net.cpp:156] Memory required for data: 536256000
I0715 00:27:32.486968 17369 layer_factory.hpp:77] Creating layer inception_5a/output_inception_5a/output_0_split
I0715 00:27:32.486976 17369 net.cpp:91] Creating Layer inception_5a/output_inception_5a/output_0_split
I0715 00:27:32.486982 17369 net.cpp:425] inception_5a/output_inception_5a/output_0_split <- inception_5a/output
I0715 00:27:32.486996 17369 net.cpp:399] inception_5a/output_inception_5a/output_0_split -> inception_5a/output_inception_5a/output_0_split_0
I0715 00:27:32.487009 17369 net.cpp:399] inception_5a/output_inception_5a/output_0_split -> inception_5a/output_inception_5a/output_0_split_1
I0715 00:27:32.487017 17369 net.cpp:399] inception_5a/output_inception_5a/output_0_split -> inception_5a/output_inception_5a/output_0_split_2
I0715 00:27:32.487026 17369 net.cpp:399] inception_5a/output_inception_5a/output_0_split -> inception_5a/output_inception_5a/output_0_split_3
I0715 00:27:32.487232 17373 net.cpp:141] Setting up inception_5a/relu_pool_proj
I0715 00:27:32.487246 17373 net.cpp:148] Top shape: 10 128 7 7 (62720)
I0715 00:27:32.487252 17373 net.cpp:156] Memory required for data: 534625280
I0715 00:27:32.487257 17373 layer_factory.hpp:77] Creating layer inception_5a/output
I0715 00:27:32.487275 17369 net.cpp:141] Setting up inception_5a/output_inception_5a/output_0_split
I0715 00:27:32.487280 17373 net.cpp:91] Creating Layer inception_5a/output
I0715 00:27:32.487288 17369 net.cpp:148] Top shape: 10 832 7 7 (407680)
I0715 00:27:32.487290 17373 net.cpp:425] inception_5a/output <- inception_5a/1x1
I0715 00:27:32.487295 17369 net.cpp:148] Top shape: 10 832 7 7 (407680)
I0715 00:27:32.487298 17373 net.cpp:425] inception_5a/output <- inception_5a/3x3
I0715 00:27:32.487301 17369 net.cpp:148] Top shape: 10 832 7 7 (407680)
I0715 00:27:32.487305 17373 net.cpp:425] inception_5a/output <- inception_5a/5x5
I0715 00:27:32.487308 17369 net.cpp:148] Top shape: 10 832 7 7 (407680)
I0715 00:27:32.487311 17373 net.cpp:425] inception_5a/output <- inception_5a/pool_proj
I0715 00:27:32.487313 17369 net.cpp:156] Memory required for data: 542778880
I0715 00:27:32.487319 17369 layer_factory.hpp:77] Creating layer inception_5b/1x1
I0715 00:27:32.487323 17373 net.cpp:399] inception_5a/output -> inception_5a/output
I0715 00:27:32.487339 17369 net.cpp:91] Creating Layer inception_5b/1x1
I0715 00:27:32.487346 17369 net.cpp:425] inception_5b/1x1 <- inception_5a/output_inception_5a/output_0_split_0
I0715 00:27:32.487356 17369 net.cpp:399] inception_5b/1x1 -> inception_5b/1x1
I0715 00:27:32.487396 17373 net.cpp:141] Setting up inception_5a/output
I0715 00:27:32.487408 17373 net.cpp:148] Top shape: 10 832 7 7 (407680)
I0715 00:27:32.487413 17373 net.cpp:156] Memory required for data: 536256000
I0715 00:27:32.487419 17373 layer_factory.hpp:77] Creating layer inception_5a/output_inception_5a/output_0_split
I0715 00:27:32.487432 17373 net.cpp:91] Creating Layer inception_5a/output_inception_5a/output_0_split
I0715 00:27:32.487439 17373 net.cpp:425] inception_5a/output_inception_5a/output_0_split <- inception_5a/output
I0715 00:27:32.487447 17373 net.cpp:399] inception_5a/output_inception_5a/output_0_split -> inception_5a/output_inception_5a/output_0_split_0
I0715 00:27:32.487457 17373 net.cpp:399] inception_5a/output_inception_5a/output_0_split -> inception_5a/output_inception_5a/output_0_split_1
I0715 00:27:32.487467 17373 net.cpp:399] inception_5a/output_inception_5a/output_0_split -> inception_5a/output_inception_5a/output_0_split_2
I0715 00:27:32.487478 17373 net.cpp:399] inception_5a/output_inception_5a/output_0_split -> inception_5a/output_inception_5a/output_0_split_3
I0715 00:27:32.487857 17373 net.cpp:141] Setting up inception_5a/output_inception_5a/output_0_split
I0715 00:27:32.487870 17373 net.cpp:148] Top shape: 10 832 7 7 (407680)
I0715 00:27:32.487876 17373 net.cpp:148] Top shape: 10 832 7 7 (407680)
I0715 00:27:32.487882 17373 net.cpp:148] Top shape: 10 832 7 7 (407680)
I0715 00:27:32.487889 17373 net.cpp:148] Top shape: 10 832 7 7 (407680)
I0715 00:27:32.487893 17373 net.cpp:156] Memory required for data: 542778880
I0715 00:27:32.487898 17373 layer_factory.hpp:77] Creating layer inception_5b/1x1
I0715 00:27:32.487915 17373 net.cpp:91] Creating Layer inception_5b/1x1
I0715 00:27:32.487921 17373 net.cpp:425] inception_5b/1x1 <- inception_5a/output_inception_5a/output_0_split_0
I0715 00:27:32.487937 17373 net.cpp:399] inception_5b/1x1 -> inception_5b/1x1
I0715 00:27:32.496937 17369 net.cpp:141] Setting up inception_5b/1x1
I0715 00:27:32.496960 17369 net.cpp:148] Top shape: 10 384 7 7 (188160)
I0715 00:27:32.496966 17369 net.cpp:156] Memory required for data: 543531520
I0715 00:27:32.496976 17369 layer_factory.hpp:77] Creating layer inception_5b/relu_1x1
I0715 00:27:32.496987 17369 net.cpp:91] Creating Layer inception_5b/relu_1x1
I0715 00:27:32.496994 17369 net.cpp:425] inception_5b/relu_1x1 <- inception_5b/1x1
I0715 00:27:32.497007 17369 net.cpp:386] inception_5b/relu_1x1 -> inception_5b/1x1 (in-place)
I0715 00:27:32.498338 17369 net.cpp:141] Setting up inception_5b/relu_1x1
I0715 00:27:32.498355 17369 net.cpp:148] Top shape: 10 384 7 7 (188160)
I0715 00:27:32.498360 17369 net.cpp:156] Memory required for data: 544284160
I0715 00:27:32.498366 17369 layer_factory.hpp:77] Creating layer inception_5b/3x3_reduce
I0715 00:27:32.498388 17369 net.cpp:91] Creating Layer inception_5b/3x3_reduce
I0715 00:27:32.498394 17369 net.cpp:425] inception_5b/3x3_reduce <- inception_5a/output_inception_5a/output_0_split_1
I0715 00:27:32.498405 17369 net.cpp:399] inception_5b/3x3_reduce -> inception_5b/3x3_reduce
I0715 00:27:32.500248 17373 net.cpp:141] Setting up inception_5b/1x1
I0715 00:27:32.500268 17373 net.cpp:148] Top shape: 10 384 7 7 (188160)
I0715 00:27:32.500274 17373 net.cpp:156] Memory required for data: 543531520
I0715 00:27:32.500285 17373 layer_factory.hpp:77] Creating layer inception_5b/relu_1x1
I0715 00:27:32.500299 17373 net.cpp:91] Creating Layer inception_5b/relu_1x1
I0715 00:27:32.500308 17373 net.cpp:425] inception_5b/relu_1x1 <- inception_5b/1x1
I0715 00:27:32.500316 17373 net.cpp:386] inception_5b/relu_1x1 -> inception_5b/1x1 (in-place)
I0715 00:27:32.500638 17373 net.cpp:141] Setting up inception_5b/relu_1x1
I0715 00:27:32.500650 17373 net.cpp:148] Top shape: 10 384 7 7 (188160)
I0715 00:27:32.500655 17373 net.cpp:156] Memory required for data: 544284160
I0715 00:27:32.500660 17373 layer_factory.hpp:77] Creating layer inception_5b/3x3_reduce
I0715 00:27:32.500679 17373 net.cpp:91] Creating Layer inception_5b/3x3_reduce
I0715 00:27:32.500685 17373 net.cpp:425] inception_5b/3x3_reduce <- inception_5a/output_inception_5a/output_0_split_1
I0715 00:27:32.500699 17373 net.cpp:399] inception_5b/3x3_reduce -> inception_5b/3x3_reduce
I0715 00:27:32.507329 17369 net.cpp:141] Setting up inception_5b/3x3_reduce
I0715 00:27:32.507349 17369 net.cpp:148] Top shape: 10 192 7 7 (94080)
I0715 00:27:32.507355 17369 net.cpp:156] Memory required for data: 544660480
I0715 00:27:32.507366 17369 layer_factory.hpp:77] Creating layer inception_5b/relu_3x3_reduce
I0715 00:27:32.507376 17369 net.cpp:91] Creating Layer inception_5b/relu_3x3_reduce
I0715 00:27:32.507383 17369 net.cpp:425] inception_5b/relu_3x3_reduce <- inception_5b/3x3_reduce
I0715 00:27:32.507395 17369 net.cpp:386] inception_5b/relu_3x3_reduce -> inception_5b/3x3_reduce (in-place)
I0715 00:27:32.508512 17373 net.cpp:141] Setting up inception_5b/3x3_reduce
I0715 00:27:32.508529 17373 net.cpp:148] Top shape: 10 192 7 7 (94080)
I0715 00:27:32.508535 17373 net.cpp:156] Memory required for data: 544660480
I0715 00:27:32.508546 17373 layer_factory.hpp:77] Creating layer inception_5b/relu_3x3_reduce
I0715 00:27:32.508559 17373 net.cpp:91] Creating Layer inception_5b/relu_3x3_reduce
I0715 00:27:32.508568 17373 net.cpp:425] inception_5b/relu_3x3_reduce <- inception_5b/3x3_reduce
I0715 00:27:32.508577 17373 net.cpp:386] inception_5b/relu_3x3_reduce -> inception_5b/3x3_reduce (in-place)
I0715 00:27:32.508604 17369 net.cpp:141] Setting up inception_5b/relu_3x3_reduce
I0715 00:27:32.508618 17369 net.cpp:148] Top shape: 10 192 7 7 (94080)
I0715 00:27:32.508623 17369 net.cpp:156] Memory required for data: 545036800
I0715 00:27:32.508630 17369 layer_factory.hpp:77] Creating layer inception_5b/3x3
I0715 00:27:32.508646 17369 net.cpp:91] Creating Layer inception_5b/3x3
I0715 00:27:32.508653 17369 net.cpp:425] inception_5b/3x3 <- inception_5b/3x3_reduce
I0715 00:27:32.508666 17369 net.cpp:399] inception_5b/3x3 -> inception_5b/3x3
I0715 00:27:32.509374 17373 net.cpp:141] Setting up inception_5b/relu_3x3_reduce
I0715 00:27:32.509390 17373 net.cpp:148] Top shape: 10 192 7 7 (94080)
I0715 00:27:32.509395 17373 net.cpp:156] Memory required for data: 545036800
I0715 00:27:32.509402 17373 layer_factory.hpp:77] Creating layer inception_5b/3x3
I0715 00:27:32.509420 17373 net.cpp:91] Creating Layer inception_5b/3x3
I0715 00:27:32.509428 17373 net.cpp:425] inception_5b/3x3 <- inception_5b/3x3_reduce
I0715 00:27:32.509440 17373 net.cpp:399] inception_5b/3x3 -> inception_5b/3x3
I0715 00:27:32.519692 17369 net.cpp:141] Setting up inception_5b/3x3
I0715 00:27:32.519716 17369 net.cpp:148] Top shape: 10 384 7 7 (188160)
I0715 00:27:32.519721 17369 net.cpp:156] Memory required for data: 545789440
I0715 00:27:32.519733 17369 layer_factory.hpp:77] Creating layer inception_5b/relu_3x3
I0715 00:27:32.519748 17369 net.cpp:91] Creating Layer inception_5b/relu_3x3
I0715 00:27:32.519755 17369 net.cpp:425] inception_5b/relu_3x3 <- inception_5b/3x3
I0715 00:27:32.519764 17369 net.cpp:386] inception_5b/relu_3x3 -> inception_5b/3x3 (in-place)
I0715 00:27:32.520946 17369 net.cpp:141] Setting up inception_5b/relu_3x3
I0715 00:27:32.520962 17369 net.cpp:148] Top shape: 10 384 7 7 (188160)
I0715 00:27:32.520968 17369 net.cpp:156] Memory required for data: 546542080
I0715 00:27:32.520974 17369 layer_factory.hpp:77] Creating layer inception_5b/5x5_reduce
I0715 00:27:32.520997 17369 net.cpp:91] Creating Layer inception_5b/5x5_reduce
I0715 00:27:32.521003 17369 net.cpp:425] inception_5b/5x5_reduce <- inception_5a/output_inception_5a/output_0_split_2
I0715 00:27:32.521016 17369 net.cpp:399] inception_5b/5x5_reduce -> inception_5b/5x5_reduce
I0715 00:27:32.524197 17373 net.cpp:141] Setting up inception_5b/3x3
I0715 00:27:32.524217 17373 net.cpp:148] Top shape: 10 384 7 7 (188160)
I0715 00:27:32.524224 17373 net.cpp:156] Memory required for data: 545789440
I0715 00:27:32.524235 17373 layer_factory.hpp:77] Creating layer inception_5b/relu_3x3
I0715 00:27:32.524246 17373 net.cpp:91] Creating Layer inception_5b/relu_3x3
I0715 00:27:32.524255 17373 net.cpp:425] inception_5b/relu_3x3 <- inception_5b/3x3
I0715 00:27:32.524263 17373 net.cpp:386] inception_5b/relu_3x3 -> inception_5b/3x3 (in-place)
I0715 00:27:32.526247 17373 net.cpp:141] Setting up inception_5b/relu_3x3
I0715 00:27:32.526267 17373 net.cpp:148] Top shape: 10 384 7 7 (188160)
I0715 00:27:32.526273 17373 net.cpp:156] Memory required for data: 546542080
I0715 00:27:32.526278 17373 layer_factory.hpp:77] Creating layer inception_5b/5x5_reduce
I0715 00:27:32.526296 17373 net.cpp:91] Creating Layer inception_5b/5x5_reduce
I0715 00:27:32.526304 17373 net.cpp:425] inception_5b/5x5_reduce <- inception_5a/output_inception_5a/output_0_split_2
I0715 00:27:32.526315 17373 net.cpp:399] inception_5b/5x5_reduce -> inception_5b/5x5_reduce
I0715 00:27:32.528254 17369 net.cpp:141] Setting up inception_5b/5x5_reduce
I0715 00:27:32.528276 17369 net.cpp:148] Top shape: 10 48 7 7 (23520)
I0715 00:27:32.528282 17369 net.cpp:156] Memory required for data: 546636160
I0715 00:27:32.528295 17369 layer_factory.hpp:77] Creating layer inception_5b/relu_5x5_reduce
I0715 00:27:32.528303 17369 net.cpp:91] Creating Layer inception_5b/relu_5x5_reduce
I0715 00:27:32.528311 17369 net.cpp:425] inception_5b/relu_5x5_reduce <- inception_5b/5x5_reduce
I0715 00:27:32.528322 17369 net.cpp:386] inception_5b/relu_5x5_reduce -> inception_5b/5x5_reduce (in-place)
I0715 00:27:32.529563 17369 net.cpp:141] Setting up inception_5b/relu_5x5_reduce
I0715 00:27:32.529579 17369 net.cpp:148] Top shape: 10 48 7 7 (23520)
I0715 00:27:32.529584 17369 net.cpp:156] Memory required for data: 546730240
I0715 00:27:32.529590 17369 layer_factory.hpp:77] Creating layer inception_5b/5x5
I0715 00:27:32.529615 17369 net.cpp:91] Creating Layer inception_5b/5x5
I0715 00:27:32.529623 17369 net.cpp:425] inception_5b/5x5 <- inception_5b/5x5_reduce
I0715 00:27:32.529633 17369 net.cpp:399] inception_5b/5x5 -> inception_5b/5x5
I0715 00:27:32.531414 17373 net.cpp:141] Setting up inception_5b/5x5_reduce
I0715 00:27:32.531435 17373 net.cpp:148] Top shape: 10 48 7 7 (23520)
I0715 00:27:32.531441 17373 net.cpp:156] Memory required for data: 546636160
I0715 00:27:32.531452 17373 layer_factory.hpp:77] Creating layer inception_5b/relu_5x5_reduce
I0715 00:27:32.531466 17373 net.cpp:91] Creating Layer inception_5b/relu_5x5_reduce
I0715 00:27:32.531472 17373 net.cpp:425] inception_5b/relu_5x5_reduce <- inception_5b/5x5_reduce
I0715 00:27:32.531481 17373 net.cpp:386] inception_5b/relu_5x5_reduce -> inception_5b/5x5_reduce (in-place)
I0715 00:27:32.532785 17373 net.cpp:141] Setting up inception_5b/relu_5x5_reduce
I0715 00:27:32.532801 17373 net.cpp:148] Top shape: 10 48 7 7 (23520)
I0715 00:27:32.532806 17373 net.cpp:156] Memory required for data: 546730240
I0715 00:27:32.532812 17373 layer_factory.hpp:77] Creating layer inception_5b/5x5
I0715 00:27:32.532830 17373 net.cpp:91] Creating Layer inception_5b/5x5
I0715 00:27:32.532840 17373 net.cpp:425] inception_5b/5x5 <- inception_5b/5x5_reduce
I0715 00:27:32.532850 17373 net.cpp:399] inception_5b/5x5 -> inception_5b/5x5
I0715 00:27:32.536450 17369 net.cpp:141] Setting up inception_5b/5x5
I0715 00:27:32.536474 17369 net.cpp:148] Top shape: 10 128 7 7 (62720)
I0715 00:27:32.536480 17369 net.cpp:156] Memory required for data: 546981120
I0715 00:27:32.536491 17369 layer_factory.hpp:77] Creating layer inception_5b/relu_5x5
I0715 00:27:32.536501 17369 net.cpp:91] Creating Layer inception_5b/relu_5x5
I0715 00:27:32.536507 17369 net.cpp:425] inception_5b/relu_5x5 <- inception_5b/5x5
I0715 00:27:32.536519 17369 net.cpp:386] inception_5b/relu_5x5 -> inception_5b/5x5 (in-place)
I0715 00:27:32.538380 17369 net.cpp:141] Setting up inception_5b/relu_5x5
I0715 00:27:32.538398 17369 net.cpp:148] Top shape: 10 128 7 7 (62720)
I0715 00:27:32.538403 17369 net.cpp:156] Memory required for data: 547232000
I0715 00:27:32.538408 17369 layer_factory.hpp:77] Creating layer inception_5b/pool
I0715 00:27:32.538431 17369 net.cpp:91] Creating Layer inception_5b/pool
I0715 00:27:32.538439 17369 net.cpp:425] inception_5b/pool <- inception_5a/output_inception_5a/output_0_split_3
I0715 00:27:32.538450 17369 net.cpp:399] inception_5b/pool -> inception_5b/pool
I0715 00:27:32.538599 17369 net.cpp:141] Setting up inception_5b/pool
I0715 00:27:32.538611 17369 net.cpp:148] Top shape: 10 832 7 7 (407680)
I0715 00:27:32.538616 17369 net.cpp:156] Memory required for data: 548862720
I0715 00:27:32.538622 17369 layer_factory.hpp:77] Creating layer inception_5b/pool_proj
I0715 00:27:32.538642 17369 net.cpp:91] Creating Layer inception_5b/pool_proj
I0715 00:27:32.538650 17369 net.cpp:425] inception_5b/pool_proj <- inception_5b/pool
I0715 00:27:32.538662 17369 net.cpp:399] inception_5b/pool_proj -> inception_5b/pool_proj
I0715 00:27:32.540469 17373 net.cpp:141] Setting up inception_5b/5x5
I0715 00:27:32.540495 17373 net.cpp:148] Top shape: 10 128 7 7 (62720)
I0715 00:27:32.540501 17373 net.cpp:156] Memory required for data: 546981120
I0715 00:27:32.540513 17373 layer_factory.hpp:77] Creating layer inception_5b/relu_5x5
I0715 00:27:32.540524 17373 net.cpp:91] Creating Layer inception_5b/relu_5x5
I0715 00:27:32.540530 17373 net.cpp:425] inception_5b/relu_5x5 <- inception_5b/5x5
I0715 00:27:32.540539 17373 net.cpp:386] inception_5b/relu_5x5 -> inception_5b/5x5 (in-place)
I0715 00:27:32.541811 17373 net.cpp:141] Setting up inception_5b/relu_5x5
I0715 00:27:32.541826 17373 net.cpp:148] Top shape: 10 128 7 7 (62720)
I0715 00:27:32.541832 17373 net.cpp:156] Memory required for data: 547232000
I0715 00:27:32.541838 17373 layer_factory.hpp:77] Creating layer inception_5b/pool
I0715 00:27:32.541851 17373 net.cpp:91] Creating Layer inception_5b/pool
I0715 00:27:32.541857 17373 net.cpp:425] inception_5b/pool <- inception_5a/output_inception_5a/output_0_split_3
I0715 00:27:32.541867 17373 net.cpp:399] inception_5b/pool -> inception_5b/pool
I0715 00:27:32.542657 17373 net.cpp:141] Setting up inception_5b/pool
I0715 00:27:32.542671 17373 net.cpp:148] Top shape: 10 832 7 7 (407680)
I0715 00:27:32.542677 17373 net.cpp:156] Memory required for data: 548862720
I0715 00:27:32.542685 17373 layer_factory.hpp:77] Creating layer inception_5b/pool_proj
I0715 00:27:32.542729 17373 net.cpp:91] Creating Layer inception_5b/pool_proj
I0715 00:27:32.542738 17373 net.cpp:425] inception_5b/pool_proj <- inception_5b/pool
I0715 00:27:32.542752 17373 net.cpp:399] inception_5b/pool_proj -> inception_5b/pool_proj
I0715 00:27:32.544380 17369 net.cpp:141] Setting up inception_5b/pool_proj
I0715 00:27:32.544400 17369 net.cpp:148] Top shape: 10 128 7 7 (62720)
I0715 00:27:32.544409 17369 net.cpp:156] Memory required for data: 549113600
I0715 00:27:32.544420 17369 layer_factory.hpp:77] Creating layer inception_5b/relu_pool_proj
I0715 00:27:32.544430 17369 net.cpp:91] Creating Layer inception_5b/relu_pool_proj
I0715 00:27:32.544436 17369 net.cpp:425] inception_5b/relu_pool_proj <- inception_5b/pool_proj
I0715 00:27:32.544445 17369 net.cpp:386] inception_5b/relu_pool_proj -> inception_5b/pool_proj (in-place)
I0715 00:27:32.544790 17369 net.cpp:141] Setting up inception_5b/relu_pool_proj
I0715 00:27:32.544802 17369 net.cpp:148] Top shape: 10 128 7 7 (62720)
I0715 00:27:32.544807 17369 net.cpp:156] Memory required for data: 549364480
I0715 00:27:32.544813 17369 layer_factory.hpp:77] Creating layer inception_5b/output
I0715 00:27:32.544822 17369 net.cpp:91] Creating Layer inception_5b/output
I0715 00:27:32.544828 17369 net.cpp:425] inception_5b/output <- inception_5b/1x1
I0715 00:27:32.544836 17369 net.cpp:425] inception_5b/output <- inception_5b/3x3
I0715 00:27:32.544842 17369 net.cpp:425] inception_5b/output <- inception_5b/5x5
I0715 00:27:32.544849 17369 net.cpp:425] inception_5b/output <- inception_5b/pool_proj
I0715 00:27:32.544859 17369 net.cpp:399] inception_5b/output -> inception_5b/output
I0715 00:27:32.544903 17369 net.cpp:141] Setting up inception_5b/output
I0715 00:27:32.544914 17369 net.cpp:148] Top shape: 10 1024 7 7 (501760)
I0715 00:27:32.544917 17369 net.cpp:156] Memory required for data: 551371520
I0715 00:27:32.544924 17369 layer_factory.hpp:77] Creating layer pool5/7x7_s1
I0715 00:27:32.544937 17369 net.cpp:91] Creating Layer pool5/7x7_s1
I0715 00:27:32.544944 17369 net.cpp:425] pool5/7x7_s1 <- inception_5b/output
I0715 00:27:32.544952 17369 net.cpp:399] pool5/7x7_s1 -> pool5/7x7_s1
I0715 00:27:32.546949 17369 net.cpp:141] Setting up pool5/7x7_s1
I0715 00:27:32.546968 17369 net.cpp:148] Top shape: 10 1024 1 1 (10240)
I0715 00:27:32.546974 17369 net.cpp:156] Memory required for data: 551412480
I0715 00:27:32.546980 17369 layer_factory.hpp:77] Creating layer pool5/drop_7x7_s1
I0715 00:27:32.546999 17369 net.cpp:91] Creating Layer pool5/drop_7x7_s1
I0715 00:27:32.547005 17369 net.cpp:425] pool5/drop_7x7_s1 <- pool5/7x7_s1
I0715 00:27:32.547013 17369 net.cpp:386] pool5/drop_7x7_s1 -> pool5/7x7_s1 (in-place)
I0715 00:27:32.547222 17369 net.cpp:141] Setting up pool5/drop_7x7_s1
I0715 00:27:32.547235 17369 net.cpp:148] Top shape: 10 1024 1 1 (10240)
I0715 00:27:32.547240 17369 net.cpp:156] Memory required for data: 551453440
I0715 00:27:32.547245 17369 layer_factory.hpp:77] Creating layer loss3/classifier
I0715 00:27:32.547260 17369 net.cpp:91] Creating Layer loss3/classifier
I0715 00:27:32.547266 17369 net.cpp:425] loss3/classifier <- pool5/7x7_s1
I0715 00:27:32.547276 17369 net.cpp:399] loss3/classifier -> loss3/classifier
I0715 00:27:32.551213 17373 net.cpp:141] Setting up inception_5b/pool_proj
I0715 00:27:32.551239 17373 net.cpp:148] Top shape: 10 128 7 7 (62720)
I0715 00:27:32.551245 17373 net.cpp:156] Memory required for data: 549113600
I0715 00:27:32.551256 17373 layer_factory.hpp:77] Creating layer inception_5b/relu_pool_proj
I0715 00:27:32.551267 17373 net.cpp:91] Creating Layer inception_5b/relu_pool_proj
I0715 00:27:32.551275 17373 net.cpp:425] inception_5b/relu_pool_proj <- inception_5b/pool_proj
I0715 00:27:32.551283 17373 net.cpp:386] inception_5b/relu_pool_proj -> inception_5b/pool_proj (in-place)
I0715 00:27:32.551611 17373 net.cpp:141] Setting up inception_5b/relu_pool_proj
I0715 00:27:32.551623 17373 net.cpp:148] Top shape: 10 128 7 7 (62720)
I0715 00:27:32.551630 17373 net.cpp:156] Memory required for data: 549364480
I0715 00:27:32.551635 17373 layer_factory.hpp:77] Creating layer inception_5b/output
I0715 00:27:32.551643 17373 net.cpp:91] Creating Layer inception_5b/output
I0715 00:27:32.551650 17373 net.cpp:425] inception_5b/output <- inception_5b/1x1
I0715 00:27:32.551666 17373 net.cpp:425] inception_5b/output <- inception_5b/3x3
I0715 00:27:32.551673 17373 net.cpp:425] inception_5b/output <- inception_5b/5x5
I0715 00:27:32.551681 17373 net.cpp:425] inception_5b/output <- inception_5b/pool_proj
I0715 00:27:32.551687 17373 net.cpp:399] inception_5b/output -> inception_5b/output
I0715 00:27:32.551729 17373 net.cpp:141] Setting up inception_5b/output
I0715 00:27:32.551739 17373 net.cpp:148] Top shape: 10 1024 7 7 (501760)
I0715 00:27:32.551744 17373 net.cpp:156] Memory required for data: 551371520
I0715 00:27:32.551753 17373 layer_factory.hpp:77] Creating layer pool5/7x7_s1
I0715 00:27:32.551766 17373 net.cpp:91] Creating Layer pool5/7x7_s1
I0715 00:27:32.551774 17373 net.cpp:425] pool5/7x7_s1 <- inception_5b/output
I0715 00:27:32.551784 17373 net.cpp:399] pool5/7x7_s1 -> pool5/7x7_s1
I0715 00:27:32.552721 17373 net.cpp:141] Setting up pool5/7x7_s1
I0715 00:27:32.552739 17373 net.cpp:148] Top shape: 10 1024 1 1 (10240)
I0715 00:27:32.552745 17373 net.cpp:156] Memory required for data: 551412480
I0715 00:27:32.552752 17373 layer_factory.hpp:77] Creating layer pool5/drop_7x7_s1
I0715 00:27:32.552760 17373 net.cpp:91] Creating Layer pool5/drop_7x7_s1
I0715 00:27:32.552767 17373 net.cpp:425] pool5/drop_7x7_s1 <- pool5/7x7_s1
I0715 00:27:32.552778 17373 net.cpp:386] pool5/drop_7x7_s1 -> pool5/7x7_s1 (in-place)
I0715 00:27:32.552814 17373 net.cpp:141] Setting up pool5/drop_7x7_s1
I0715 00:27:32.552826 17373 net.cpp:148] Top shape: 10 1024 1 1 (10240)
I0715 00:27:32.552831 17373 net.cpp:156] Memory required for data: 551453440
I0715 00:27:32.552839 17373 layer_factory.hpp:77] Creating layer loss3/classifier
I0715 00:27:32.552848 17373 net.cpp:91] Creating Layer loss3/classifier
I0715 00:27:32.552855 17373 net.cpp:425] loss3/classifier <- pool5/7x7_s1
I0715 00:27:32.552867 17373 net.cpp:399] loss3/classifier -> loss3/classifier
I0715 00:27:32.558833 17369 net.cpp:141] Setting up loss3/classifier
I0715 00:27:32.558861 17369 net.cpp:148] Top shape: 10 1000 (10000)
I0715 00:27:32.558866 17369 net.cpp:156] Memory required for data: 551493440
I0715 00:27:32.558878 17369 layer_factory.hpp:77] Creating layer prob
I0715 00:27:32.558894 17369 net.cpp:91] Creating Layer prob
I0715 00:27:32.558902 17369 net.cpp:425] prob <- loss3/classifier
I0715 00:27:32.558912 17369 net.cpp:399] prob -> prob
I0715 00:27:32.559401 17369 net.cpp:141] Setting up prob
I0715 00:27:32.559418 17369 net.cpp:148] Top shape: 10 1000 (10000)
I0715 00:27:32.559424 17369 net.cpp:156] Memory required for data: 551533440
I0715 00:27:32.559429 17369 net.cpp:219] prob does not need backward computation.
I0715 00:27:32.559435 17369 net.cpp:219] loss3/classifier does not need backward computation.
I0715 00:27:32.559440 17369 net.cpp:219] pool5/drop_7x7_s1 does not need backward computation.
I0715 00:27:32.559445 17369 net.cpp:219] pool5/7x7_s1 does not need backward computation.
…
