…
Java HotSpot(TM) 64-Bit Server VM warning: You have loaded library /tmp/cvld7429445427210810204/libopencv_java310.xine1.so which might have disabled stack guard. The VM will try to fix the stack guard now.
It's highly recommended that you fix the library with 'execstack -c <libfile>', or link it with '-z noexecstack'.
WARNING: Logging before InitGoogleLogging() is written to STDERR
I0720 13:54:12.388988  1908 net.cpp:49] Initializing net from parameters: 
name: "CaffeNet"
state {
  phase: TEST
}
layer {
  name: "data"
  type: "Input"
  top: "data"
  input_param {
    shape {
      dim: 10
      dim: 3
      dim: 227
      dim: 227
    }
  }
}
layer {
  name: "conv1"
  type: "Convolution"
  bottom: "data"
  top: "conv1"
  convolution_param {
    num_output: 96
    kernel_size: 11
    stride: 4
  }
}
layer {
  name: "relu1"
  type: "ReLU"
  bottom: "conv1"
  top: "conv1"
}
layer {
  name: "pool1"
  type: "Pooling"
  bottom: "conv1"
  top: "pool1"
  pooling_param {
    pool: MAX
    kernel_size: 3
    stride: 2
  }
}
layer {
  name: "norm1"
  type: "LRN"
  bottom: "pool1"
  top: "norm1"
  lrn_param {
    local_size: 5
    alpha: 0.0001
    beta: 0.75
  }
}
layer {
  name: "conv2"
  type: "Convolution"
  bottom: "norm1"
  top: "conv2"
  convolution_param {
    num_output: 256
    pad: 2
    kernel_size: 5
    group: 2
  }
}
layer {
  name: "relu2"
  type: "ReLU"
  bottom: "conv2"
  top: "conv2"
}
layer {
  name: "pool2"
  type: "Pooling"
  bottom: "conv2"
  top: "pool2"
  pooling_param {
    pool: MAX
    kernel_size: 3
    stride: 2
  }
}
layer {
  name: "norm2"
  type: "LRN"
  bottom: "pool2"
  top: "norm2"
  lrn_param {
    local_size: 5
    alpha: 0.0001
    beta: 0.75
  }
}
layer {
  name: "conv3"
  type: "Convolution"
  bottom: "norm2"
  top: "conv3"
  convolution_param {
    num_output: 384
    pad: 1
    kernel_size: 3
  }
}
layer {
  name: "relu3"
  type: "ReLU"
  bottom: "conv3"
  top: "conv3"
}
layer {
  name: "conv4"
  type: "Convolution"
  bottom: "conv3"
  top: "conv4"
  convolution_param {
    num_output: 384
    pad: 1
    kernel_size: 3
    group: 2
  }
}
layer {
  name: "relu4"
  type: "ReLU"
  bottom: "conv4"
  top: "conv4"
}
layer {
  name: "conv5"
  type: "Convolution"
  bottom: "conv4"
  top: "conv5"
  convolution_param {
    num_output: 256
    pad: 1
    kernel_size: 3
    group: 2
  }
}
layer {
  name: "relu5"
  type: "ReLU"
  bottom: "conv5"
  top: "conv5"
}
layer {
  name: "pool5"
  type: "Pooling"
  bottom: "conv5"
  top: "pool5"
  pooling_param {
    pool: MAX
    kernel_size: 3
    stride: 2
  }
}
layer {
  name: "fc6"
  type: "InnerProduct"
  bottom: "pool5"
  top: "fc6"
  inner_product_param {
    num_output: 4096
  }
}
layer {
  name: "relu6"
  type: "ReLU"
  bottom: "fc6"
  top: "fc6"
}
layer {
  name: "drop6"
  type: "Dropout"
  bottom: "fc6"
  top: "fc6"
  dropout_param {
    dropout_ratio: 0.5
  }
}
layer {
  name: "fc7"
  type: "InnerProduct"
  bottom: "fc6"
  top: "fc7"
  inner_product_param {
    num_output: 4096
  }
}
layer {
  name: "relu7"
  type: "ReLU"
  bottom: "fc7"
  top: "fc7"
}
layer {
  name: "drop7"
  type: "Dropout"
  bottom: "fc7"
  top: "fc7"
  dropout_param {
    dropout_ratio: 0.5
  }
}
layer {
  name: "fc8"
  type: "InnerProduct"
  bottom: "fc7"
  top: "fc8"
  inner_product_param {
    num_output: 1000
  }
}
layer {
  name: "prob"
  type: "Softmax"
  bottom: "fc8"
  top: "prob"
}
I0720 13:54:12.388988  1912 net.cpp:49] Initializing net from parameters: 
name: "CaffeNet"
state {
  phase: TEST
}
layer {
  name: "data"
  type: "Input"
  top: "data"
  input_param {
    shape {
      dim: 10
      dim: 3
      dim: 227
      dim: 227
    }
  }
}
layer {
  name: "conv1"
  type: "Convolution"
  bottom: "data"
  top: "conv1"
  convolution_param {
    num_output: 96
    kernel_size: 11
    stride: 4
  }
}
layer {
  name: "relu1"
  type: "ReLU"
  bottom: "conv1"
  top: "conv1"
}
layer {
  name: "pool1"
  type: "Pooling"
  bottom: "conv1"
  top: "pool1"
  pooling_param {
    pool: MAX
    kernel_size: 3
    stride: 2
  }
}
layer {
  name: "norm1"
  type: "LRN"
  bottom: "pool1"
  top: "norm1"
  lrn_param {
    local_size: 5
    alpha: 0.0001
    beta: 0.75
  }
}
layer {
  name: "conv2"
  type: "Convolution"
  bottom: "norm1"
  top: "conv2"
  convolution_param {
    num_output: 256
    pad: 2
    kernel_size: 5
    group: 2
  }
}
layer {
  name: "relu2"
  type: "ReLU"
  bottom: "conv2"
  top: "conv2"
}
layer {
  name: "pool2"
  type: "Pooling"
  bottom: "conv2"
  top: "pool2"
  pooling_param {
    pool: MAX
    kernel_size: 3
    stride: 2
  }
}
layer {
  name: "norm2"
  type: "LRN"
  bottom: "pool2"
  top: "norm2"
  lrn_param {
    local_size: 5
    alpha: 0.0001
    beta: 0.75
  }
}
layer {
  name: "conv3"
  type: "Convolution"
  bottom: "norm2"
  top: "conv3"
  convolution_param {
    num_output: 384
    pad: 1
    kernel_size: 3
  }
}
layer {
  name: "relu3"
  type: "ReLU"
  bottom: "conv3"
  top: "conv3"
}
layer {
  name: "conv4"
  type: "Convolution"
  bottom: "conv3"
  top: "conv4"
  convolution_param {
    num_output: 384
    pad: 1
    kernel_size: 3
    group: 2
  }
}
layer {
  name: "relu4"
  type: "ReLU"
  bottom: "conv4"
  top: "conv4"
}
layer {
  name: "conv5"
  type: "Convolution"
  bottom: "conv4"
  top: "conv5"
  convolution_param {
    num_output: 256
    pad: 1
    kernel_size: 3
    group: 2
  }
}
layer {
  name: "relu5"
  type: "ReLU"
  bottom: "conv5"
  top: "conv5"
}
layer {
  name: "pool5"
  type: "Pooling"
  bottom: "conv5"
  top: "pool5"
  pooling_param {
    pool: MAX
    kernel_size: 3
    stride: 2
  }
}
layer {
  name: "fc6"
  type: "InnerProduct"
  bottom: "pool5"
  top: "fc6"
  inner_product_param {
    num_output: 4096
  }
}
layer {
  name: "relu6"
  type: "ReLU"
  bottom: "fc6"
  top: "fc6"
}
layer {
  name: "drop6"
  type: "Dropout"
  bottom: "fc6"
  top: "fc6"
  dropout_param {
    dropout_ratio: 0.5
  }
}
layer {
  name: "fc7"
  type: "InnerProduct"
  bottom: "fc6"
  top: "fc7"
  inner_product_param {
    num_output: 4096
  }
}
layer {
  name: "relu7"
  type: "ReLU"
  bottom: "fc7"
  top: "fc7"
}
layer {
  name: "drop7"
  type: "Dropout"
  bottom: "fc7"
  top: "fc7"
  dropout_param {
    dropout_ratio: 0.5
  }
}
layer {
  name: "fc8"
  type: "InnerProduct"
  bottom: "fc7"
  top: "fc8"
  inner_product_param {
    num_output: 1000
  }
}
layer {
  name: "prob"
  type: "Softmax"
  bottom: "fc8"
  top: "prob"
}
I0720 13:54:12.388988  1920 net.cpp:49] Initializing net from parameters: 
name: "CaffeNet"
state {
  phase: TEST
}
layer {
  name: "data"
  type: "Input"
  top: "data"
  input_param {
    shape {
      dim: 10
      dim: 3
      dim: 227
      dim: 227
    }
  }
}
layer {
  name: "conv1"
  type: "Convolution"
  bottom: "data"
  top: "conv1"
  convolution_param {
    num_output: 96
    kernel_size: 11
    stride: 4
  }
}
layer {
  name: "relu1"
  type: "ReLU"
  bottom: "conv1"
  top: "conv1"
}
layer {
  name: "pool1"
  type: "Pooling"
  bottom: "conv1"
  top: "pool1"
  pooling_param {
    pool: MAX
    kernel_size: 3
    stride: 2
  }
}
layer {
  name: "norm1"
  type: "LRN"
  bottom: "pool1"
  top: "norm1"
  lrn_param {
    local_size: 5
    alpha: 0.0001
    beta: 0.75
  }
}
layer {
  name: "conv2"
  type: "Convolution"
  bottom: "norm1"
  top: "conv2"
  convolution_param {
    num_output: 256
    pad: 2
    kernel_size: 5
    group: 2
  }
}
layer {
  name: "relu2"
  type: "ReLU"
  bottom: "conv2"
  top: "conv2"
}
layer {
  name: "pool2"
  type: "Pooling"
  bottom: "conv2"
  top: "pool2"
  pooling_param {
    pool: MAX
    kernel_size: 3
    stride: 2
  }
}
layer {
  name: "norm2"
  type: "LRN"
  bottom: "pool2"
  top: "norm2"
  lrn_param {
    local_size: 5
    alpha: 0.0001
    beta: 0.75
  }
}
layer {
  name: "conv3"
  type: "Convolution"
  bottom: "norm2"
  top: "conv3"
  convolution_param {
    num_output: 384
    pad: 1
    kernel_size: 3
  }
}
layer {
  name: "relu3"
  type: "ReLU"
  bottom: "conv3"
  top: "conv3"
}
layer {
  name: "conv4"
  type: "Convolution"
  bottom: "conv3"
  top: "conv4"
  convolution_param {
    num_output: 384
    pad: 1
    kernel_size: 3
    group: 2
  }
}
layer {
  name: "relu4"
  type: "ReLU"
  bottom: "conv4"
  top: "conv4"
}
layer {
  name: "conv5"
  type: "Convolution"
  bottom: "conv4"
  top: "conv5"
  convolution_param {
    num_output: 256
    pad: 1
    kernel_size: 3
    group: 2
  }
}
layer {
  name: "relu5"
  type: "ReLU"
  bottom: "conv5"
  top: "conv5"
}
layer {
  name: "pool5"
  type: "Pooling"
  bottom: "conv5"
  top: "pool5"
  pooling_param {
    pool: MAX
    kernel_size: 3
    stride: 2
  }
}
layer {
  name: "fc6"
  type: "InnerProduct"
  bottom: "pool5"
  top: "fc6"
  inner_product_param {
    num_output: 4096
  }
}
layer {
  name: "relu6"
  type: "ReLU"
  bottom: "fc6"
  top: "fc6"
}
layer {
  name: "drop6"
  type: "Dropout"
  bottom: "fc6"
  top: "fc6"
  dropout_param {
    dropout_ratio: 0.5
  }
}
layer {
  name: "fc7"
  type: "InnerProduct"
  bottom: "fc6"
  top: "fc7"
  inner_product_param {
    num_output: 4096
  }
}
layer {
  name: "relu7"
  type: "ReLU"
  bottom: "fc7"
  top: "fc7"
}
layer {
  name: "drop7"
  type: "Dropout"
  bottom: "fc7"
  top: "fc7"
  dropout_param {
    dropout_ratio: 0.5
  }
}
layer {
  name: "fc8"
  type: "InnerProduct"
  bottom: "fc7"
  top: "fc8"
  inner_product_param {
    num_output: 1000
  }
}
layer {
  name: "prob"
  type: "Softmax"
  bottom: "fc8"
  top: "prob"
}
I0720 13:54:12.388988  1926 net.cpp:49] Initializing net from parameters: 
name: "CaffeNet"
state {
  phase: TEST
}
layer {
  name: "data"
  type: "Input"
  top: "data"
  input_param {
    shape {
      dim: 10
      dim: 3
      dim: 227
      dim: 227
    }
  }
}
layer {
  name: "conv1"
  type: "Convolution"
  bottom: "data"
  top: "conv1"
  convolution_param {
    num_output: 96
    kernel_size: 11
    stride: 4
  }
}
layer {
  name: "relu1"
  type: "ReLU"
  bottom: "conv1"
  top: "conv1"
}
layer {
  name: "pool1"
  type: "Pooling"
  bottom: "conv1"
  top: "pool1"
  pooling_param {
    pool: MAX
    kernel_size: 3
    stride: 2
  }
}
layer {
  name: "norm1"
  type: "LRN"
  bottom: "pool1"
  top: "norm1"
  lrn_param {
    local_size: 5
    alpha: 0.0001
    beta: 0.75
  }
}
layer {
  name: "conv2"
  type: "Convolution"
  bottom: "norm1"
  top: "conv2"
  convolution_param {
    num_output: 256
    pad: 2
    kernel_size: 5
    group: 2
  }
}
layer {
  name: "relu2"
  type: "ReLU"
  bottom: "conv2"
  top: "conv2"
}
layer {
  name: "pool2"
  type: "Pooling"
  bottom: "conv2"
  top: "pool2"
  pooling_param {
    pool: MAX
    kernel_size: 3
    stride: 2
  }
}
layer {
  name: "norm2"
  type: "LRN"
  bottom: "pool2"
  top: "norm2"
  lrn_param {
    local_size: 5
    alpha: 0.0001
    beta: 0.75
  }
}
layer {
  name: "conv3"
  type: "Convolution"
  bottom: "norm2"
  top: "conv3"
  convolution_param {
    num_output: 384
    pad: 1
    kernel_size: 3
  }
}
layer {
  name: "relu3"
  type: "ReLU"
  bottom: "conv3"
  top: "conv3"
}
layer {
  name: "conv4"
  type: "Convolution"
  bottom: "conv3"
  top: "conv4"
  convolution_param {
    num_output: 384
    pad: 1
    kernel_size: 3
    group: 2
  }
}
layer {
  name: "relu4"
  type: "ReLU"
  bottom: "conv4"
  top: "conv4"
}
layer {
  name: "conv5"
  type: "Convolution"
  bottom: "conv4"
  top: "conv5"
  convolution_param {
    num_output: 256
    pad: 1
    kernel_size: 3
    group: 2
  }
}
layer {
  name: "relu5"
  type: "ReLU"
  bottom: "conv5"
  top: "conv5"
}
layer {
  name: "pool5"
  type: "Pooling"
  bottom: "conv5"
  top: "pool5"
  pooling_param {
    pool: MAX
    kernel_size: 3
    stride: 2
  }
}
layer {
  name: "fc6"
  type: "InnerProduct"
  bottom: "pool5"
  top: "fc6"
  inner_product_param {
    num_output: 4096
  }
}
layer {
  name: "relu6"
  type: "ReLU"
  bottom: "fc6"
  top: "fc6"
}
layer {
  name: "drop6"
  type: "Dropout"
  bottom: "fc6"
  top: "fc6"
  dropout_param {
    dropout_ratio: 0.5
  }
}
layer {
  name: "fc7"
  type: "InnerProduct"
  bottom: "fc6"
  top: "fc7"
  inner_product_param {
    num_output: 4096
  }
}
layer {
  name: "relu7"
  type: "ReLU"
  bottom: "fc7"
  top: "fc7"
}
layer {
  name: "drop7"
  type: "Dropout"
  bottom: "fc7"
  top: "fc7"
  dropout_param {
    dropout_ratio: 0.5
  }
}
layer {
  name: "fc8"
  type: "InnerProduct"
  bottom: "fc7"
  top: "fc8"
  inner_product_param {
    num_output: 1000
  }
}
layer {
  name: "prob"
  type: "Softmax"
  bottom: "fc8"
  top: "prob"
}
I0720 13:54:12.388988  1884 net.cpp:49] Initializing net from parameters: 
name: "CaffeNet"
state {
  phase: TEST
}
layer {
  name: "data"
  type: "Input"
  top: "data"
  input_param {
    shape {
      dim: 10
      dim: 3
      dim: 227
      dim: 227
    }
  }
}
layer {
  name: "conv1"
  type: "Convolution"
  bottom: "data"
  top: "conv1"
  convolution_param {
    num_output: 96
    kernel_size: 11
    stride: 4
  }
}
layer {
  name: "relu1"
  type: "ReLU"
  bottom: "conv1"
  top: "conv1"
}
layer {
  name: "pool1"
  type: "Pooling"
  bottom: "conv1"
  top: "pool1"
  pooling_param {
    pool: MAX
    kernel_size: 3
    stride: 2
  }
}
layer {
  name: "norm1"
  type: "LRN"
  bottom: "pool1"
  top: "norm1"
  lrn_param {
    local_size: 5
    alpha: 0.0001
    beta: 0.75
  }
}
layer {
  name: "conv2"
  type: "Convolution"
  bottom: "norm1"
  top: "conv2"
  convolution_param {
    num_output: 256
    pad: 2
    kernel_size: 5
    group: 2
  }
}
layer {
  name: "relu2"
  type: "ReLU"
  bottom: "conv2"
  top: "conv2"
}
layer {
  name: "pool2"
  type: "Pooling"
  bottom: "conv2"
  top: "pool2"
  pooling_param {
    pool: MAX
    kernel_size: 3
    stride: 2
  }
}
layer {
  name: "norm2"
  type: "LRN"
  bottom: "pool2"
  top: "norm2"
  lrn_param {
    local_size: 5
    alpha: 0.0001
    beta: 0.75
  }
}
layer {
  name: "conv3"
  type: "Convolution"
  bottom: "norm2"
  top: "conv3"
  convolution_param {
    num_output: 384
    pad: 1
    kernel_size: 3
  }
}
layer {
  name: "relu3"
  type: "ReLU"
  bottom: "conv3"
  top: "conv3"
}
layer {
  name: "conv4"
  type: "Convolution"
  bottom: "conv3"
  top: "conv4"
  convolution_param {
    num_output: 384
    pad: 1
    kernel_size: 3
    group: 2
  }
}
layer {
  name: "relu4"
  type: "ReLU"
  bottom: "conv4"
  top: "conv4"
}
layer {
  name: "conv5"
  type: "Convolution"
  bottom: "conv4"
  top: "conv5"
  convolution_param {
    num_output: 256
    pad: 1
    kernel_size: 3
    group: 2
  }
}
layer {
  name: "relu5"
  type: "ReLU"
  bottom: "conv5"
  top: "conv5"
}
layer {
  name: "pool5"
  type: "Pooling"
  bottom: "conv5"
  top: "pool5"
  pooling_param {
    pool: MAX
    kernel_size: 3
    stride: 2
  }
}
layer {
  name: "fc6"
  type: "InnerProduct"
  bottom: "pool5"
  top: "fc6"
  inner_product_param {
    num_output: 4096
  }
}
layer {
  name: "relu6"
  type: "ReLU"
  bottom: "fc6"
  top: "fc6"
}
layer {
  name: "drop6"
  type: "Dropout"
  bottom: "fc6"
  top: "fc6"
  dropout_param {
    dropout_ratio: 0.5
  }
}
layer {
  name: "fc7"
  type: "InnerProduct"
  bottom: "fc6"
  top: "fc7"
  inner_product_param {
    num_output: 4096
  }
}
layer {
  name: "relu7"
  type: "ReLU"
  bottom: "fc7"
  top: "fc7"
}
layer {
  name: "drop7"
  type: "Dropout"
  bottom: "fc7"
  top: "fc7"
  dropout_param {
    dropout_ratio: 0.5
  }
}
layer {
  name: "fc8"
  type: "InnerProduct"
  bottom: "fc7"
  top: "fc8"
  inner_product_param {
    num_output: 1000
  }
}
layer {
  name: "prob"
  type: "Softmax"
  bottom: "fc8"
  top: "prob"
}
I0720 13:54:12.388988  1924 net.cpp:49] Initializing net from parameters: 
name: "CaffeNet"
state {
  phase: TEST
}
layer {
  name: "data"
  type: "Input"
  top: "data"
  input_param {
    shape {
      dim: 10
      dim: 3
      dim: 227
      dim: 227
    }
  }
}
layer {
  name: "conv1"
  type: "Convolution"
  bottom: "data"
  top: "conv1"
  convolution_param {
    num_output: 96
    kernel_size: 11
    stride: 4
  }
}
layer {
  name: "relu1"
  type: "ReLU"
  bottom: "conv1"
  top: "conv1"
}
layer {
  name: "pool1"
  type: "Pooling"
  bottom: "conv1"
  top: "pool1"
  pooling_param {
    pool: MAX
    kernel_size: 3
    stride: 2
  }
}
layer {
  name: "norm1"
  type: "LRN"
  bottom: "pool1"
  top: "norm1"
  lrn_param {
    local_size: 5
    alpha: 0.0001
    beta: 0.75
  }
}
layer {
  name: "conv2"
  type: "Convolution"
  bottom: "norm1"
  top: "conv2"
  convolution_param {
    num_output: 256
    pad: 2
    kernel_size: 5
    group: 2
  }
}
layer {
  name: "relu2"
  type: "ReLU"
  bottom: "conv2"
  top: "conv2"
}
layer {
  name: "pool2"
  type: "Pooling"
  bottom: "conv2"
  top: "pool2"
  pooling_param {
    pool: MAX
    kernel_size: 3
    stride: 2
  }
}
layer {
  name: "norm2"
  type: "LRN"
  bottom: "pool2"
  top: "norm2"
  lrn_param {
    local_size: 5
    alpha: 0.0001
    beta: 0.75
  }
}
layer {
  name: "conv3"
  type: "Convolution"
  bottom: "norm2"
  top: "conv3"
  convolution_param {
    num_output: 384
    pad: 1
    kernel_size: 3
  }
}
layer {
  name: "relu3"
  type: "ReLU"
  bottom: "conv3"
  top: "conv3"
}
layer {
  name: "conv4"
  type: "Convolution"
  bottom: "conv3"
  top: "conv4"
  convolution_param {
    num_output: 384
    pad: 1
    kernel_size: 3
    group: 2
  }
}
layer {
  name: "relu4"
  type: "ReLU"
  bottom: "conv4"
  top: "conv4"
}
layer {
  name: "conv5"
  type: "Convolution"
  bottom: "conv4"
  top: "conv5"
  convolution_param {
    num_output: 256
    pad: 1
    kernel_size: 3
    group: 2
  }
}
layer {
  name: "relu5"
  type: "ReLU"
  bottom: "conv5"
  top: "conv5"
}
layer {
  name: "pool5"
  type: "Pooling"
  bottom: "conv5"
  top: "pool5"
  pooling_param {
    pool: MAX
    kernel_size: 3
    stride: 2
  }
}
layer {
  name: "fc6"
  type: "InnerProduct"
  bottom: "pool5"
  top: "fc6"
  inner_product_param {
    num_output: 4096
  }
}
layer {
  name: "relu6"
  type: "ReLU"
  bottom: "fc6"
  top: "fc6"
}
layer {
  name: "drop6"
  type: "Dropout"
  bottom: "fc6"
  top: "fc6"
  dropout_param {
    dropout_ratio: 0.5
  }
}
layer {
  name: "fc7"
  type: "InnerProduct"
  bottom: "fc6"
  top: "fc7"
  inner_product_param {
    num_output: 4096
  }
}
layer {
  name: "relu7"
  type: "ReLU"
  bottom: "fc7"
  top: "fc7"
}
layer {
  name: "drop7"
  type: "Dropout"
  bottom: "fc7"
  top: "fc7"
  dropout_param {
    dropout_ratio: 0.5
  }
}
layer {
  name: "fc8"
  type: "InnerProduct"
  bottom: "fc7"
  top: "fc8"
  inner_product_param {
    num_output: 1000
  }
}
layer {
  name: "prob"
  type: "Softmax"
  bottom: "fc8"
  top: "prob"
}
I0720 13:54:12.388988  1906 net.cpp:49] Initializing net from parameters: 
name: "CaffeNet"
state {
  phase: TEST
}
layer {
  name: "data"
  type: "Input"
  top: "data"
  input_param {
    shape {
      dim: 10
      dim: 3
      dim: 227
      dim: 227
    }
  }
}
layer {
  name: "conv1"
  type: "Convolution"
  bottom: "data"
  top: "conv1"
  convolution_param {
    num_output: 96
    kernel_size: 11
    stride: 4
  }
}
layer {
  name: "relu1"
  type: "ReLU"
  bottom: "conv1"
  top: "conv1"
}
layer {
  name: "pool1"
  type: "Pooling"
  bottom: "conv1"
  top: "pool1"
  pooling_param {
    pool: MAX
    kernel_size: 3
    stride: 2
  }
}
layer {
  name: "norm1"
  type: "LRN"
  bottom: "pool1"
  top: "norm1"
  lrn_param {
    local_size: 5
    alpha: 0.0001
    beta: 0.75
  }
}
layer {
  name: "conv2"
  type: "Convolution"
  bottom: "norm1"
  top: "conv2"
  convolution_param {
    num_output: 256
    pad: 2
    kernel_size: 5
    group: 2
  }
}
layer {
  name: "relu2"
  type: "ReLU"
  bottom: "conv2"
  top: "conv2"
}
layer {
  name: "pool2"
  type: "Pooling"
  bottom: "conv2"
  top: "pool2"
  pooling_param {
    pool: MAX
    kernel_size: 3
    stride: 2
  }
}
layer {
  name: "norm2"
  type: "LRN"
  bottom: "pool2"
  top: "norm2"
  lrn_param {
    local_size: 5
    alpha: 0.0001
    beta: 0.75
  }
}
layer {
  name: "conv3"
  type: "Convolution"
  bottom: "norm2"
  top: "conv3"
  convolution_param {
    num_output: 384
    pad: 1
    kernel_size: 3
  }
}
layer {
  name: "relu3"
  type: "ReLU"
  bottom: "conv3"
  top: "conv3"
}
layer {
  name: "conv4"
  type: "Convolution"
  bottom: "conv3"
  top: "conv4"
  convolution_param {
    num_output: 384
    pad: 1
    kernel_size: 3
    group: 2
  }
}
layer {
  name: "relu4"
  type: "ReLU"
  bottom: "conv4"
  top: "conv4"
}
layer {
  name: "conv5"
  type: "Convolution"
  bottom: "conv4"
  top: "conv5"
  convolution_param {
    num_output: 256
    pad: 1
    kernel_size: 3
    group: 2
  }
}
layer {
  name: "relu5"
  type: "ReLU"
  bottom: "conv5"
  top: "conv5"
}
layer {
  name: "pool5"
  type: "Pooling"
  bottom: "conv5"
  top: "pool5"
  pooling_param {
    pool: MAX
    kernel_size: 3
    stride: 2
  }
}
layer {
  name: "fc6"
  type: "InnerProduct"
  bottom: "pool5"
  top: "fc6"
  inner_product_param {
    num_output: 4096
  }
}
layer {
  name: "relu6"
  type: "ReLU"
  bottom: "fc6"
  top: "fc6"
}
layer {
  name: "drop6"
  type: "Dropout"
  bottom: "fc6"
  top: "fc6"
  dropout_param {
    dropout_ratio: 0.5
  }
}
layer {
  name: "fc7"
  type: "InnerProduct"
  bottom: "fc6"
  top: "fc7"
  inner_product_param {
    num_output: 4096
  }
}
layer {
  name: "relu7"
  type: "ReLU"
  bottom: "fc7"
  top: "fc7"
}
layer {
  name: "drop7"
  type: "Dropout"
  bottom: "fc7"
  top: "fc7"
  dropout_param {
    dropout_ratio: 0.5
  }
}
layer {
  name: "fc8"
  type: "InnerProduct"
  bottom: "fc7"
  top: "fc8"
  inner_product_param {
    num_output: 1000
  }
}
layer {
  name: "prob"
  type: "Softmax"
  bottom: "fc8"
  top: "prob"
}
I0720 13:54:12.389156  1918 net.cpp:49] Initializing net from parameters: 
name: "CaffeNet"
state {
  phase: TEST
}
layer {
  name: "data"
  type: "Input"
  top: "data"
  input_param {
    shape {
      dim: 10
      dim: 3
      dim: 227
      dim: 227
    }
  }
}
layer {
  name: "conv1"
  type: "Convolution"
  bottom: "data"
  top: "conv1"
  convolution_param {
    num_output: 96
    kernel_size: 11
    stride: 4
  }
}
layer {
  name: "relu1"
  type: "ReLU"
  bottom: "conv1"
  top: "conv1"
}
layer {
  name: "pool1"
  type: "Pooling"
  bottom: "conv1"
  top: "pool1"
  pooling_param {
    pool: MAX
    kernel_size: 3
    stride: 2
  }
}
layer {
  name: "norm1"
  type: "LRN"
  bottom: "pool1"
  top: "norm1"
  lrn_param {
    local_size: 5
    alpha: 0.0001
    beta: 0.75
  }
}
layer {
  name: "conv2"
  type: "Convolution"
  bottom: "norm1"
  top: "conv2"
  convolution_param {
    num_output: 256
    pad: 2
    kernel_size: 5
    group: 2
  }
}
layer {
  name: "relu2"
  type: "ReLU"
  bottom: "conv2"
  top: "conv2"
}
layer {
  name: "pool2"
  type: "Pooling"
  bottom: "conv2"
  top: "pool2"
  pooling_param {
    pool: MAX
    kernel_size: 3
    stride: 2
  }
}
layer {
  name: "norm2"
  type: "LRN"
  bottom: "pool2"
  top: "norm2"
  lrn_param {
    local_size: 5
    alpha: 0.0001
    beta: 0.75
  }
}
layer {
  name: "conv3"
  type: "Convolution"
  bottom: "norm2"
  top: "conv3"
  convolution_param {
    num_output: 384
    pad: 1
    kernel_size: 3
  }
}
layer {
  name: "relu3"
  type: "ReLU"
  bottom: "conv3"
  top: "conv3"
}
layer {
  name: "conv4"
  type: "Convolution"
  bottom: "conv3"
  top: "conv4"
  convolution_param {
    num_output: 384
    pad: 1
    kernel_size: 3
    group: 2
  }
}
layer {
  name: "relu4"
  type: "ReLU"
  bottom: "conv4"
  top: "conv4"
}
layer {
  name: "conv5"
  type: "Convolution"
  bottom: "conv4"
  top: "conv5"
  convolution_param {
    num_output: 256
    pad: 1
    kernel_size: 3
    group: 2
  }
}
layer {
  name: "relu5"
  type: "ReLU"
  bottom: "conv5"
  top: "conv5"
}
layer {
  name: "pool5"
  type: "Pooling"
  bottom: "conv5"
  top: "pool5"
  pooling_param {
    pool: MAX
    kernel_size: 3
    stride: 2
  }
}
layer {
  name: "fc6"
  type: "InnerProduct"
  bottom: "pool5"
  top: "fc6"
  inner_product_param {
    num_output: 4096
  }
}
layer {
  name: "relu6"
  type: "ReLU"
  bottom: "fc6"
  top: "fc6"
}
layer {
  name: "drop6"
  type: "Dropout"
  bottom: "fc6"
  top: "fc6"
  dropout_param {
    dropout_ratio: 0.5
  }
}
layer {
  name: "fc7"
  type: "InnerProduct"
  bottom: "fc6"
  top: "fc7"
  inner_product_param {
    num_output: 4096
  }
}
layer {
  name: "relu7"
  type: "ReLU"
  bottom: "fc7"
  top: "fc7"
}
layer {
  name: "drop7"
  type: "Dropout"
  bottom: "fc7"
  top: "fc7"
  dropout_param {
    dropout_ratio: 0.5
  }
}
layer {
  name: "fc8"
  type: "InnerProduct"
  bottom: "fc7"
  top: "fc8"
  inner_product_param {
    num_output: 1000
  }
}
layer {
  name: "prob"
  type: "Softmax"
  bottom: "fc8"
  top: "prob"
}
I0720 13:54:12.389156  1902 net.cpp:49] Initializing net from parameters: 
name: "CaffeNet"
state {
  phase: TEST
}
layer {
  name: "data"
  type: "Input"
  top: "data"
  input_param {
    shape {
      dim: 10
      dim: 3
      dim: 227
      dim: 227
    }
  }
}
layer {
  name: "conv1"
  type: "Convolution"
  bottom: "data"
  top: "conv1"
  convolution_param {
    num_output: 96
    kernel_size: 11
    stride: 4
  }
}
layer {
  name: "relu1"
  type: "ReLU"
  bottom: "conv1"
  top: "conv1"
}
layer {
  name: "pool1"
  type: "Pooling"
  bottom: "conv1"
  top: "pool1"
  pooling_param {
    pool: MAX
    kernel_size: 3
    stride: 2
  }
}
layer {
  name: "norm1"
  type: "LRN"
  bottom: "pool1"
  top: "norm1"
  lrn_param {
    local_size: 5
    alpha: 0.0001
    beta: 0.75
  }
}
layer {
  name: "conv2"
  type: "Convolution"
  bottom: "norm1"
  top: "conv2"
  convolution_param {
    num_output: 256
    pad: 2
    kernel_size: 5
    group: 2
  }
}
layer {
  name: "relu2"
  type: "ReLU"
  bottom: "conv2"
  top: "conv2"
}
layer {
  name: "pool2"
  type: "Pooling"
  bottom: "conv2"
  top: "pool2"
  pooling_param {
    pool: MAX
    kernel_size: 3
    stride: 2
  }
}
layer {
  name: "norm2"
  type: "LRN"
  bottom: "pool2"
  top: "norm2"
  lrn_param {
    local_size: 5
    alpha: 0.0001
    beta: 0.75
  }
}
layer {
  name: "conv3"
  type: "Convolution"
  bottom: "norm2"
  top: "conv3"
  convolution_param {
    num_output: 384
    pad: 1
    kernel_size: 3
  }
}
layer {
  name: "relu3"
  type: "ReLU"
  bottom: "conv3"
  top: "conv3"
}
layer {
  name: "conv4"
  type: "Convolution"
  bottom: "conv3"
  top: "conv4"
  convolution_param {
    num_output: 384
    pad: 1
    kernel_size: 3
    group: 2
  }
}
layer {
  name: "relu4"
  type: "ReLU"
  bottom: "conv4"
  top: "conv4"
}
layer {
  name: "conv5"
  type: "Convolution"
  bottom: "conv4"
  top: "conv5"
  convolution_param {
    num_output: 256
    pad: 1
    kernel_size: 3
    group: 2
  }
}
layer {
  name: "relu5"
  type: "ReLU"
  bottom: "conv5"
  top: "conv5"
}
layer {
  name: "pool5"
  type: "Pooling"
  bottom: "conv5"
  top: "pool5"
  pooling_param {
    pool: MAX
    kernel_size: 3
    stride: 2
  }
}
layer {
  name: "fc6"
  type: "InnerProduct"
  bottom: "pool5"
  top: "fc6"
  inner_product_param {
    num_output: 4096
  }
}
layer {
  name: "relu6"
  type: "ReLU"
  bottom: "fc6"
  top: "fc6"
}
layer {
  name: "drop6"
  type: "Dropout"
  bottom: "fc6"
  top: "fc6"
  dropout_param {
    dropout_ratio: 0.5
  }
}
layer {
  name: "fc7"
  type: "InnerProduct"
  bottom: "fc6"
  top: "fc7"
  inner_product_param {
    num_output: 4096
  }
}
layer {
  name: "relu7"
  type: "ReLU"
  bottom: "fc7"
  top: "fc7"
}
layer {
  name: "drop7"
  type: "Dropout"
  bottom: "fc7"
  top: "fc7"
  dropout_param {
    dropout_ratio: 0.5
  }
}
layer {
  name: "fc8"
  type: "InnerProduct"
  bottom: "fc7"
  top: "fc8"
  inner_product_param {
    num_output: 1000
  }
}
layer {
  name: "prob"
  type: "Softmax"
  bottom: "fc8"
  top: "prob"
}
I0720 13:54:12.388988  1914 net.cpp:49] Initializing net from parameters: 
name: "CaffeNet"
state {
  phase: TEST
}
layer {
  name: "data"
  type: "Input"
  top: "data"
  input_param {
    shape {
      dim: 10
      dim: 3
      dim: 227
      dim: 227
    }
  }
}
layer {
  name: "conv1"
  type: "Convolution"
  bottom: "data"
  top: "conv1"
  convolution_param {
    num_output: 96
    kernel_size: 11
    stride: 4
  }
}
layer {
  name: "relu1"
  type: "ReLU"
  bottom: "conv1"
  top: "conv1"
}
layer {
  name: "pool1"
  type: "Pooling"
  bottom: "conv1"
  top: "pool1"
  pooling_param {
    pool: MAX
    kernel_size: 3
    stride: 2
  }
}
layer {
  name: "norm1"
  type: "LRN"
  bottom: "pool1"
  top: "norm1"
  lrn_param {
    local_size: 5
    alpha: 0.0001
    beta: 0.75
  }
}
layer {
  name: "conv2"
  type: "Convolution"
  bottom: "norm1"
  top: "conv2"
  convolution_param {
    num_output: 256
    pad: 2
    kernel_size: 5
    group: 2
  }
}
layer {
  name: "relu2"
  type: "ReLU"
  bottom: "conv2"
  top: "conv2"
}
layer {
  name: "pool2"
  type: "Pooling"
  bottom: "conv2"
  top: "pool2"
  pooling_param {
    pool: MAX
    kernel_size: 3
    stride: 2
  }
}
layer {
  name: "norm2"
  type: "LRN"
  bottom: "pool2"
  top: "norm2"
  lrn_param {
    local_size: 5
    alpha: 0.0001
    beta: 0.75
  }
}
layer {
  name: "conv3"
  type: "Convolution"
  bottom: "norm2"
  top: "conv3"
  convolution_param {
    num_output: 384
    pad: 1
    kernel_size: 3
  }
}
layer {
  name: "relu3"
  type: "ReLU"
  bottom: "conv3"
  top: "conv3"
}
layer {
  name: "conv4"
  type: "Convolution"
  bottom: "conv3"
  top: "conv4"
  convolution_param {
    num_output: 384
    pad: 1
    kernel_size: 3
    group: 2
  }
}
layer {
  name: "relu4"
  type: "ReLU"
  bottom: "conv4"
  top: "conv4"
}
layer {
  name: "conv5"
  type: "Convolution"
  bottom: "conv4"
  top: "conv5"
  convolution_param {
    num_output: 256
    pad: 1
    kernel_size: 3
    group: 2
  }
}
layer {
  name: "relu5"
  type: "ReLU"
  bottom: "conv5"
  top: "conv5"
}
layer {
  name: "pool5"
  type: "Pooling"
  bottom: "conv5"
  top: "pool5"
  pooling_param {
    pool: MAX
    kernel_size: 3
    stride: 2
  }
}
layer {
  name: "fc6"
  type: "InnerProduct"
  bottom: "pool5"
  top: "fc6"
  inner_product_param {
    num_output: 4096
  }
}
layer {
  name: "relu6"
  type: "ReLU"
  bottom: "fc6"
  top: "fc6"
}
layer {
  name: "drop6"
  type: "Dropout"
  bottom: "fc6"
  top: "fc6"
  dropout_param {
    dropout_ratio: 0.5
  }
}
layer {
  name: "fc7"
  type: "InnerProduct"
  bottom: "fc6"
  top: "fc7"
  inner_product_param {
    num_output: 4096
  }
}
layer {
  name: "relu7"
  type: "ReLU"
  bottom: "fc7"
  top: "fc7"
}
layer {
  name: "drop7"
  type: "Dropout"
  bottom: "fc7"
  top: "fc7"
  dropout_param {
    dropout_ratio: 0.5
  }
}
layer {
  name: "fc8"
  type: "InnerProduct"
  bottom: "fc7"
  top: "fc8"
  inner_product_param {
    num_output: 1000
  }
}
layer {
  name: "prob"
  type: "Softmax"
  bottom: "fc8"
  top: "prob"
}
I0720 13:54:12.389209  1908 layer_factory.hpp:77] Creating layer data
I0720 13:54:12.389209  1920 layer_factory.hpp:77] Creating layer data
I0720 13:54:12.389209  1912 layer_factory.hpp:77] Creating layer data
I0720 13:54:12.389225  1884 layer_factory.hpp:77] Creating layer data
I0720 13:54:12.389211  1926 layer_factory.hpp:77] Creating layer data
I0720 13:54:12.389233  1924 layer_factory.hpp:77] Creating layer data
…
I0720 13:54:12.389315  1884 net.cpp:141] Setting up data
I0720 13:54:12.389317  1924 net.cpp:141] Setting up data
I0720 13:54:12.389317  1908 net.cpp:141] Setting up data
I0720 13:54:12.389309  1902 layer_factory.hpp:77] Creating layer data
I0720 13:54:12.389314  1926 net.cpp:141] Setting up data
I0720 13:54:12.389315  1906 net.cpp:141] Setting up data
I0720 13:54:12.389313  1920 net.cpp:141] Setting up data
I0720 13:54:12.389333  1918 net.cpp:91] Creating Layer data
I0720 13:54:12.389345  1902 net.cpp:91] Creating Layer data
I0720 13:54:12.389317  1912 net.cpp:141] Setting up data
I0720 13:54:12.389358  1924 net.cpp:148] Top shape: 10 3 227 227 (1545870)
I0720 13:54:12.389359  1906 net.cpp:148] Top shape: 10 3 227 227 (1545870)
I0720 13:54:12.389366  1912 net.cpp:148] Top shape: 10 3 227 227 (1545870)
I0720 13:54:12.389358  1926 net.cpp:148] Top shape: 10 3 227 227 (1545870)
I0720 13:54:12.389356  1918 net.cpp:399] data -> data
I0720 13:54:12.389376  1912 net.cpp:156] Memory required for data: 6183480
I0720 13:54:12.389359  1908 net.cpp:148] Top shape: 10 3 227 227 (1545870)
I0720 13:54:12.389360  1920 net.cpp:148] Top shape: 10 3 227 227 (1545870)
I0720 13:54:12.389379  1926 net.cpp:156] Memory required for data: 6183480
I0720 13:54:12.389369  1924 net.cpp:156] Memory required for data: 6183480
I0720 13:54:12.389358  1884 net.cpp:148] Top shape: 10 3 227 227 (1545870)
I0720 13:54:12.389356  1902 net.cpp:399] data -> data
I0720 13:54:12.389394  1920 net.cpp:156] Memory required for data: 6183480
I0720 13:54:12.389396  1926 layer_factory.hpp:77] Creating layer conv1
I0720 13:54:12.389374  1906 net.cpp:156] Memory required for data: 6183480
I0720 13:54:12.389399  1924 layer_factory.hpp:77] Creating layer conv1
I0720 13:54:12.389391  1908 net.cpp:156] Memory required for data: 6183480
I0720 13:54:12.389400  1884 net.cpp:156] Memory required for data: 6183480
I0720 13:54:12.389390  1912 layer_factory.hpp:77] Creating layer conv1
I0720 13:54:12.389406  1920 layer_factory.hpp:77] Creating layer conv1
I0720 13:54:12.389420  1926 net.cpp:91] Creating Layer conv1
I0720 13:54:12.389399  1918 net.cpp:141] Setting up data
I0720 13:54:12.389413  1906 layer_factory.hpp:77] Creating layer conv1
I0720 13:54:12.389420  1924 net.cpp:91] Creating Layer conv1
I0720 13:54:12.389430  1926 net.cpp:425] conv1 <- data
I0720 13:54:12.389399  1914 layer_factory.hpp:77] Creating layer data
I0720 13:54:12.389438  1924 net.cpp:425] conv1 <- data
I0720 13:54:12.389441  1918 net.cpp:148] Top shape: 10 3 227 227 (1545870)
I0720 13:54:12.389417  1908 layer_factory.hpp:77] Creating layer conv1
I0720 13:54:12.389446  1926 net.cpp:399] conv1 -> conv1
I0720 13:54:12.389433  1920 net.cpp:91] Creating Layer conv1
I0720 13:54:12.389451  1924 net.cpp:399] conv1 -> conv1
I0720 13:54:12.389420  1884 layer_factory.hpp:77] Creating layer conv1
I0720 13:54:12.389454  1918 net.cpp:156] Memory required for data: 6183480
I0720 13:54:12.389456  1914 net.cpp:91] Creating Layer data
I0720 13:54:12.389461  1908 net.cpp:91] Creating Layer conv1
I0720 13:54:12.389467  1918 layer_factory.hpp:77] Creating layer conv1
I0720 13:54:12.389472  1884 net.cpp:91] Creating Layer conv1
I0720 13:54:12.389472  1908 net.cpp:425] conv1 <- data
I0720 13:54:12.389428  1912 net.cpp:91] Creating Layer conv1
I0720 13:54:12.389484  1884 net.cpp:425] conv1 <- data
I0720 13:54:12.389415  1902 net.cpp:141] Setting up data
I0720 13:54:12.389492  1912 net.cpp:425] conv1 <- data
I0720 13:54:12.389494  1884 net.cpp:399] conv1 -> conv1
I0720 13:54:12.389461  1920 net.cpp:425] conv1 <- data
I0720 13:54:12.389443  1906 net.cpp:91] Creating Layer conv1
I0720 13:54:12.389487  1918 net.cpp:91] Creating Layer conv1
I0720 13:54:12.389474  1914 net.cpp:399] data -> data
I0720 13:54:12.389488  1908 net.cpp:399] conv1 -> conv1
I0720 13:54:12.389504  1912 net.cpp:399] conv1 -> conv1
I0720 13:54:12.389508  1902 net.cpp:148] Top shape: 10 3 227 227 (1545870)
I0720 13:54:12.389510  1906 net.cpp:425] conv1 <- data
I0720 13:54:12.389533  1914 net.cpp:141] Setting up data
I0720 13:54:12.389518  1918 net.cpp:425] conv1 <- data
I0720 13:54:12.389544  1906 net.cpp:399] conv1 -> conv1
I0720 13:54:12.389534  1902 net.cpp:156] Memory required for data: 6183480
I0720 13:54:12.389510  1920 net.cpp:399] conv1 -> conv1
I0720 13:54:12.389554  1914 net.cpp:148] Top shape: 10 3 227 227 (1545870)
I0720 13:54:12.389556  1902 layer_factory.hpp:77] Creating layer conv1
I0720 13:54:12.389564  1914 net.cpp:156] Memory required for data: 6183480
I0720 13:54:12.389556  1918 net.cpp:399] conv1 -> conv1
I0720 13:54:12.389575  1914 layer_factory.hpp:77] Creating layer conv1
I0720 13:54:12.389578  1902 net.cpp:91] Creating Layer conv1
I0720 13:54:12.389590  1902 net.cpp:425] conv1 <- data
…
W0720 13:54:12.945175  1886 upgrade_proto.cpp:71] Note that future Caffe releases will only support input layers and not input fields.
I0720 13:54:12.945430  1886 net.cpp:49] Initializing net from parameters: 
name: "s2vt:features_to_lstm"
state {
  phase: TEST
}
layer {
  name: "input"
  type: "Input"
  top: "frames_fc7"
  top: "cont_sentence"
  top: "input_sentence"
  top: "stage_indicator"
  input_param {
    shape {
      dim: 1
      dim: 4096
    }
    shape {
      dim: 1
      dim: 1
    }
    shape {
      dim: 1
      dim: 1
    }
    shape {
      dim: 1
      dim: 1
    }
  }
}
layer {
  name: "embed_encoder"
  type: "InnerProduct"
  bottom: "frames_fc7"
  top: "embedded_in_frames"
  param {
    lr_mult: 1
    decay_mult: 1
  }
  param {
    lr_mult: 2
    decay_mult: 0
  }
  inner_product_param {
    num_output: 500
    weight_filler {
      type: "xavier"
    }
    bias_filler {
      type: "constant"
      value: 0.2
    }
  }
}
layer {
  name: "reshape_frames"
  type: "Reshape"
  bottom: "embedded_in_frames"
  top: "embedded_input_frames"
  reshape_param {
    shape {
      dim: 1
      dim: 1
      dim: 500
    }
  }
}
layer {
  name: "reshape_stage_indicator"
  type: "Reshape"
  bottom: "stage_indicator"
  top: "reshaped_stage_indicator"
  reshape_param {
    shape {
      dim: 1
      dim: 1
      dim: 1
    }
  }
}
layer {
  name: "embedding"
  type: "Embed"
  bottom: "input_sentence"
  top: "embedded_input_sentence"
  param {
    lr_mult: 1
  }
  embed_param {
    num_output: 500
    input_dim: 46168
    bias_term: false
    weight_filler {
      type: "uniform"
      min: -0.08
      max: 0.08
    }
  }
}
layer {
  name: "lstm1"
  type: "LSTM"
  bottom: "embedded_input_frames"
  bottom: "cont_sentence"
  top: "lstm1"
  recurrent_param {
    num_output: 1000
    weight_filler {
      type: "uniform"
      min: -0.08
      max: 0.08
    }
    bias_filler {
      type: "constant"
      value: 0
    }
  }
}
layer {
  name: "concat"
  type: "Concat"
  bottom: "lstm1"
  bottom: "embedded_input_sentence"
  bottom: "reshaped_stage_indicator"
  top: "lstm1_video_sequence"
  concat_param {
    concat_dim: 2
  }
}
layer {
  name: "lstm2"
  type: "LSTM"
  bottom: "lstm1_video_sequence"
  bottom: "cont_sentence"
  top: "lstm2"
  recurrent_param {
    num_output: 1000
    weight_filler {
      type: "uniform"
      min: -0.08
      max: 0.08
    }
    bias_filler {
      type: "constant"
      value: 0
    }
  }
}
layer {
  name: "predict"
  type: "InnerProduct"
  bottom: "lstm2"
  top: "predict"
  param {
    lr_mult: 1
    decay_mult: 1
  }
  param {
    lr_mult: 2
    decay_mult: 0
  }
  inner_product_param {
    num_output: 46168
    weight_filler {
      type: "uniform"
      min: -0.08
      max: 0.08
    }
    bias_filler {
      type: "constant"
      value: 0
    }
    axis: 2
  }
}
layer {
  name: "probs"
  type: "Softmax"
  bottom: "predict"
  top: "probs"
  softmax_param {
    axis: 2
  }
}
I0720 13:54:12.945528  1886 layer_factory.hpp:77] Creating layer input
I0720 13:54:12.945544  1886 net.cpp:91] Creating Layer input
I0720 13:54:12.945552  1886 net.cpp:399] input -> frames_fc7
I0720 13:54:12.945571  1886 net.cpp:399] input -> cont_sentence
I0720 13:54:12.945581  1886 net.cpp:399] input -> input_sentence
I0720 13:54:12.945591  1886 net.cpp:399] input -> stage_indicator
I0720 13:54:12.956392  1886 net.cpp:141] Setting up input
I0720 13:54:12.956414  1886 net.cpp:148] Top shape: 1 4096 (4096)
I0720 13:54:12.956421  1886 net.cpp:148] Top shape: 1 1 (1)
I0720 13:54:12.956426  1886 net.cpp:148] Top shape: 1 1 (1)
I0720 13:54:12.956432  1886 net.cpp:148] Top shape: 1 1 (1)
I0720 13:54:12.956436  1886 net.cpp:156] Memory required for data: 16396
I0720 13:54:12.956444  1886 layer_factory.hpp:77] Creating layer cont_sentence_input_1_split
I0720 13:54:12.956464  1886 net.cpp:91] Creating Layer cont_sentence_input_1_split
I0720 13:54:12.956470  1886 net.cpp:425] cont_sentence_input_1_split <- cont_sentence
I0720 13:54:12.956492  1886 net.cpp:399] cont_sentence_input_1_split -> cont_sentence_input_1_split_0
I0720 13:54:12.956503  1886 net.cpp:399] cont_sentence_input_1_split -> cont_sentence_input_1_split_1
I0720 13:54:12.956548  1886 net.cpp:141] Setting up cont_sentence_input_1_split
I0720 13:54:12.956557  1886 net.cpp:148] Top shape: 1 1 (1)
I0720 13:54:12.956563  1886 net.cpp:148] Top shape: 1 1 (1)
I0720 13:54:12.956571  1886 net.cpp:156] Memory required for data: 16404
I0720 13:54:12.956580  1886 layer_factory.hpp:77] Creating layer embed_encoder
I0720 13:54:12.956604  1886 net.cpp:91] Creating Layer embed_encoder
I0720 13:54:12.956610  1886 net.cpp:425] embed_encoder <- frames_fc7
I0720 13:54:12.956619  1886 net.cpp:399] embed_encoder -> embedded_in_frames
I0720 13:54:12.979933  1886 net.cpp:141] Setting up embed_encoder
I0720 13:54:12.979981  1886 net.cpp:148] Top shape: 1 500 (500)
I0720 13:54:12.979987  1886 net.cpp:156] Memory required for data: 18404
I0720 13:54:12.980016  1886 layer_factory.hpp:77] Creating layer reshape_frames
I0720 13:54:12.980048  1886 net.cpp:91] Creating Layer reshape_frames
I0720 13:54:12.980057  1886 net.cpp:425] reshape_frames <- embedded_in_frames
I0720 13:54:12.980068  1886 net.cpp:399] reshape_frames -> embedded_input_frames
I0720 13:54:12.982409  1886 net.cpp:141] Setting up reshape_frames
I0720 13:54:12.982429  1886 net.cpp:148] Top shape: 1 1 500 (500)
I0720 13:54:12.982434  1886 net.cpp:156] Memory required for data: 20404
I0720 13:54:12.982439  1886 layer_factory.hpp:77] Creating layer reshape_stage_indicator
I0720 13:54:12.982457  1886 net.cpp:91] Creating Layer reshape_stage_indicator
I0720 13:54:12.982465  1886 net.cpp:425] reshape_stage_indicator <- stage_indicator
I0720 13:54:12.982472  1886 net.cpp:399] reshape_stage_indicator -> reshaped_stage_indicator
I0720 13:54:12.983268  1886 net.cpp:141] Setting up reshape_stage_indicator
I0720 13:54:12.983289  1886 net.cpp:148] Top shape: 1 1 1 (1)
I0720 13:54:12.983294  1886 net.cpp:156] Memory required for data: 20408
I0720 13:54:12.983299  1886 layer_factory.hpp:77] Creating layer embedding
I0720 13:54:12.983311  1886 net.cpp:91] Creating Layer embedding
I0720 13:54:12.983317  1886 net.cpp:425] embedding <- input_sentence
I0720 13:54:12.983330  1886 net.cpp:399] embedding -> embedded_input_sentence
I0720 13:54:13.205569  1886 net.cpp:141] Setting up embedding
I0720 13:54:13.205615  1886 net.cpp:148] Top shape: 1 1 500 (500)
I0720 13:54:13.205621  1886 net.cpp:156] Memory required for data: 22408
I0720 13:54:13.205639  1886 layer_factory.hpp:77] Creating layer lstm1
I0720 13:54:13.205662  1886 net.cpp:91] Creating Layer lstm1
I0720 13:54:13.205672  1886 net.cpp:425] lstm1 <- embedded_input_frames
I0720 13:54:13.205680  1886 net.cpp:425] lstm1 <- cont_sentence_input_1_split_0
I0720 13:54:13.205690  1886 net.cpp:399] lstm1 -> lstm1
I0720 13:54:13.205727  1886 recurrent_layer.cpp:20] Initializing recurrent layer: assuming input batch contains 1 timesteps of 1 independent streams.
I0720 13:54:13.206084  1886 net.cpp:49] Initializing net from parameters: 
layer {
  name: "lstm1_"
  type: "Input"
  top: "x"
  top: "cont"
  input_param {
    shape {
      dim: 1
      dim: 1
      dim: 500
    }
    shape {
      dim: 1
      dim: 1
    }
  }
}
layer {
  name: "lstm1_"
  type: "Input"
  top: "c_0"
  top: "h_0"
  input_param {
    shape {
      dim: 1
      dim: 1
      dim: 1000
    }
    shape {
      dim: 1
      dim: 1
      dim: 1000
    }
  }
}
layer {
  name: "lstm1_cont_slice"
  type: "Slice"
  bottom: "cont"
  top: "cont_1"
  slice_param {
    axis: 0
  }
}
layer {
  name: "lstm1_x_transform"
  type: "InnerProduct"
  bottom: "x"
  top: "W_xc_x"
  param {
    name: "W_xc"
  }
  param {
    name: "b_c"
  }
  propagate_down: true
  inner_product_param {
    num_output: 4000
    bias_term: true
    weight_filler {
      type: "uniform"
      min: -0.08
      max: 0.08
    }
    bias_filler {
      type: "constant"
      value: 0
    }
    axis: 2
  }
}
layer {
  name: "lstm1_W_xc_x_slice"
  type: "Slice"
  bottom: "W_xc_x"
  top: "W_xc_x_1"
  slice_param {
    axis: 0
  }
}
layer {
  name: "lstm1_h_conted_0"
  type: "Scale"
  bottom: "h_0"
  bottom: "cont_1"
  top: "h_conted_0"
  scale_param {
    axis: 0
  }
}
layer {
  name: "lstm1_transform_1"
  type: "InnerProduct"
  bottom: "h_conted_0"
  top: "W_hc_h_0"
  param {
    name: "W_hc"
  }
  inner_product_param {
    num_output: 4000
    bias_term: false
    weight_filler {
      type: "uniform"
      min: -0.08
      max: 0.08
    }
    axis: 2
  }
}
layer {
  name: "lstm1_gate_input_1"
  type: "Eltwise"
  bottom: "W_hc_h_0"
  bottom: "W_xc_x_1"
  top: "gate_input_1"
  eltwise_param {
    operation: SUM
  }
}
layer {
  name: "lstm1_unit_1"
  type: "LSTMUnit"
  bottom: "c_0"
  bottom: "gate_input_1"
  bottom: "cont_1"
  top: "c_1"
  top: "h_1"
}
layer {
  name: "lstm1_"
  type: "Split"
  bottom: "c_1"
  top: "c_T"
}
layer {
  name: "lstm1_h_concat"
  type: "Concat"
  bottom: "h_1"
  top: "h"
  concat_param {
    axis: 0
  }
}
layer {
  name: "h_pseudoloss"
  type: "Reduction"
  bottom: "h"
  top: "h_pseudoloss"
  loss_weight: 1
}
I0720 13:54:13.206176  1886 layer_factory.hpp:77] Creating layer lstm1_
I0720 13:54:13.206188  1886 net.cpp:91] Creating Layer lstm1_
I0720 13:54:13.206194  1886 net.cpp:399] lstm1_ -> x
I0720 13:54:13.206207  1886 net.cpp:399] lstm1_ -> cont
I0720 13:54:13.208377  1886 net.cpp:141] Setting up lstm1_
I0720 13:54:13.208396  1886 net.cpp:148] Top shape: 1 1 500 (500)
I0720 13:54:13.208403  1886 net.cpp:148] Top shape: 1 1 (1)
I0720 13:54:13.208408  1886 net.cpp:156] Memory required for data: 2004
I0720 13:54:13.208413  1886 layer_factory.hpp:77] Creating layer lstm1_
I0720 13:54:13.208430  1886 net.cpp:91] Creating Layer lstm1_
I0720 13:54:13.208436  1886 net.cpp:399] lstm1_ -> c_0
I0720 13:54:13.208451  1886 net.cpp:399] lstm1_ -> h_0
I0720 13:54:13.217946  1886 net.cpp:141] Setting up lstm1_
I0720 13:54:13.217985  1886 net.cpp:148] Top shape: 1 1 1000 (1000)
I0720 13:54:13.217993  1886 net.cpp:148] Top shape: 1 1 1000 (1000)
I0720 13:54:13.217998  1886 net.cpp:156] Memory required for data: 10004
I0720 13:54:13.218006  1886 layer_factory.hpp:77] Creating layer lstm1_cont_slice
I0720 13:54:13.218027  1886 net.cpp:91] Creating Layer lstm1_cont_slice
I0720 13:54:13.218034  1886 net.cpp:425] lstm1_cont_slice <- cont
I0720 13:54:13.218047  1886 net.cpp:399] lstm1_cont_slice -> cont_1
I0720 13:54:13.218116  1886 net.cpp:141] Setting up lstm1_cont_slice
I0720 13:54:13.218134  1886 net.cpp:148] Top shape: 1 1 (1)
I0720 13:54:13.218144  1886 net.cpp:156] Memory required for data: 10008
I0720 13:54:13.218153  1886 layer_factory.hpp:77] Creating layer cont_1_lstm1_cont_slice_0_split
I0720 13:54:13.218168  1886 net.cpp:91] Creating Layer cont_1_lstm1_cont_slice_0_split
I0720 13:54:13.218179  1886 net.cpp:425] cont_1_lstm1_cont_slice_0_split <- cont_1
I0720 13:54:13.218194  1886 net.cpp:399] cont_1_lstm1_cont_slice_0_split -> cont_1_lstm1_cont_slice_0_split_0
I0720 13:54:13.218205  1886 net.cpp:399] cont_1_lstm1_cont_slice_0_split -> cont_1_lstm1_cont_slice_0_split_1
I0720 13:54:13.218260  1886 net.cpp:141] Setting up cont_1_lstm1_cont_slice_0_split
I0720 13:54:13.218269  1886 net.cpp:148] Top shape: 1 1 (1)
I0720 13:54:13.218277  1886 net.cpp:148] Top shape: 1 1 (1)
I0720 13:54:13.218281  1886 net.cpp:156] Memory required for data: 10016
I0720 13:54:13.218286  1886 layer_factory.hpp:77] Creating layer lstm1_x_transform
I0720 13:54:13.218302  1886 net.cpp:91] Creating Layer lstm1_x_transform
I0720 13:54:13.218307  1886 net.cpp:425] lstm1_x_transform <- x
I0720 13:54:13.218317  1886 net.cpp:399] lstm1_x_transform -> W_xc_x
I0720 13:54:13.244686  1886 net.cpp:141] Setting up lstm1_x_transform
I0720 13:54:13.244737  1886 net.cpp:148] Top shape: 1 1 4000 (4000)
I0720 13:54:13.244743  1886 net.cpp:156] Memory required for data: 26016
I0720 13:54:13.244767  1886 layer_factory.hpp:77] Creating layer lstm1_W_xc_x_slice
I0720 13:54:13.244784  1886 net.cpp:91] Creating Layer lstm1_W_xc_x_slice
I0720 13:54:13.244791  1886 net.cpp:425] lstm1_W_xc_x_slice <- W_xc_x
I0720 13:54:13.244804  1886 net.cpp:399] lstm1_W_xc_x_slice -> W_xc_x_1
I0720 13:54:13.245484  1886 net.cpp:141] Setting up lstm1_W_xc_x_slice
I0720 13:54:13.245502  1886 net.cpp:148] Top shape: 1 1 4000 (4000)
I0720 13:54:13.245507  1886 net.cpp:156] Memory required for data: 42016
I0720 13:54:13.245512  1886 layer_factory.hpp:77] Creating layer lstm1_h_conted_0
I0720 13:54:13.245534  1886 net.cpp:91] Creating Layer lstm1_h_conted_0
I0720 13:54:13.245543  1886 net.cpp:425] lstm1_h_conted_0 <- h_0
I0720 13:54:13.245554  1886 net.cpp:425] lstm1_h_conted_0 <- cont_1_lstm1_cont_slice_0_split_0
I0720 13:54:13.245571  1886 net.cpp:399] lstm1_h_conted_0 -> h_conted_0
I0720 13:54:13.247653  1886 net.cpp:141] Setting up lstm1_h_conted_0
I0720 13:54:13.247669  1886 net.cpp:148] Top shape: 1 1 1000 (1000)
I0720 13:54:13.247673  1886 net.cpp:156] Memory required for data: 46016
I0720 13:54:13.247679  1886 layer_factory.hpp:77] Creating layer lstm1_transform_1
I0720 13:54:13.247695  1886 net.cpp:91] Creating Layer lstm1_transform_1
I0720 13:54:13.247700  1886 net.cpp:425] lstm1_transform_1 <- h_conted_0
I0720 13:54:13.247709  1886 net.cpp:399] lstm1_transform_1 -> W_hc_h_0
I0720 13:54:13.265530  1912 net.cpp:141] Setting up conv1
I0720 13:54:13.265581  1912 net.cpp:148] Top shape: 10 96 55 55 (2904000)
I0720 13:54:13.265588  1912 net.cpp:156] Memory required for data: 17799480
I0720 13:54:13.265619  1912 layer_factory.hpp:77] Creating layer relu1
I0720 13:54:13.265645  1912 net.cpp:91] Creating Layer relu1
I0720 13:54:13.265656  1912 net.cpp:425] relu1 <- conv1
I0720 13:54:13.265674  1912 net.cpp:386] relu1 -> conv1 (in-place)
I0720 13:54:13.265679  1914 net.cpp:141] Setting up conv1
I0720 13:54:13.265698  1914 net.cpp:148] Top shape: 10 96 55 55 (2904000)
I0720 13:54:13.265704  1914 net.cpp:156] Memory required for data: 17799480
I0720 13:54:13.265718  1914 layer_factory.hpp:77] Creating layer relu1
I0720 13:54:13.265733  1914 net.cpp:91] Creating Layer relu1
I0720 13:54:13.265743  1914 net.cpp:425] relu1 <- conv1
I0720 13:54:13.265755  1914 net.cpp:386] relu1 -> conv1 (in-place)
I0720 13:54:13.266392  1918 net.cpp:141] Setting up conv1
I0720 13:54:13.266418  1918 net.cpp:148] Top shape: 10 96 55 55 (2904000)
I0720 13:54:13.266429  1918 net.cpp:156] Memory required for data: 17799480
I0720 13:54:13.266451  1918 layer_factory.hpp:77] Creating layer relu1
I0720 13:54:13.266469  1918 net.cpp:91] Creating Layer relu1
I0720 13:54:13.266480  1918 net.cpp:425] relu1 <- conv1
I0720 13:54:13.266492  1918 net.cpp:386] relu1 -> conv1 (in-place)
I0720 13:54:13.269474  1926 net.cpp:141] Setting up conv1
I0720 13:54:13.269500  1926 net.cpp:148] Top shape: 10 96 55 55 (2904000)
I0720 13:54:13.269506  1926 net.cpp:156] Memory required for data: 17799480
I0720 13:54:13.269521  1926 layer_factory.hpp:77] Creating layer relu1
I0720 13:54:13.269531  1926 net.cpp:91] Creating Layer relu1
I0720 13:54:13.269537  1926 net.cpp:425] relu1 <- conv1
I0720 13:54:13.269544  1926 net.cpp:386] relu1 -> conv1 (in-place)
I0720 13:54:13.271476  1908 net.cpp:141] Setting up conv1
I0720 13:54:13.271499  1908 net.cpp:148] Top shape: 10 96 55 55 (2904000)
I0720 13:54:13.271508  1908 net.cpp:156] Memory required for data: 17799480
I0720 13:54:13.271528  1908 layer_factory.hpp:77] Creating layer relu1
I0720 13:54:13.271539  1908 net.cpp:91] Creating Layer relu1
I0720 13:54:13.271544  1908 net.cpp:425] relu1 <- conv1
I0720 13:54:13.271554  1908 net.cpp:386] relu1 -> conv1 (in-place)
I0720 13:54:13.271608  1912 net.cpp:141] Setting up relu1
I0720 13:54:13.271625  1912 net.cpp:148] Top shape: 10 96 55 55 (2904000)
I0720 13:54:13.271630  1912 net.cpp:156] Memory required for data: 29415480
I0720 13:54:13.271636  1912 layer_factory.hpp:77] Creating layer pool1
I0720 13:54:13.271651  1912 net.cpp:91] Creating Layer pool1
I0720 13:54:13.271656  1912 net.cpp:425] pool1 <- conv1
I0720 13:54:13.271663  1912 net.cpp:399] pool1 -> pool1
I0720 13:54:13.271690  1912 net.cpp:141] Setting up pool1
I0720 13:54:13.271700  1912 net.cpp:148] Top shape: 10 96 27 27 (699840)
I0720 13:54:13.271705  1912 net.cpp:156] Memory required for data: 32214840
I0720 13:54:13.271709  1912 layer_factory.hpp:77] Creating layer norm1
I0720 13:54:13.271724  1912 net.cpp:91] Creating Layer norm1
I0720 13:54:13.271733  1912 net.cpp:425] norm1 <- pool1
I0720 13:54:13.271745  1912 net.cpp:399] norm1 -> norm1
I0720 13:54:13.271872  1920 net.cpp:141] Setting up conv1
I0720 13:54:13.271888  1920 net.cpp:148] Top shape: 10 96 55 55 (2904000)
I0720 13:54:13.271893  1920 net.cpp:156] Memory required for data: 17799480
I0720 13:54:13.271905  1920 layer_factory.hpp:77] Creating layer relu1
I0720 13:54:13.271920  1920 net.cpp:91] Creating Layer relu1
I0720 13:54:13.271927  1920 net.cpp:425] relu1 <- conv1
I0720 13:54:13.271924  1902 net.cpp:141] Setting up conv1
I0720 13:54:13.271934  1920 net.cpp:386] relu1 -> conv1 (in-place)
I0720 13:54:13.271942  1902 net.cpp:148] Top shape: 10 96 55 55 (2904000)
I0720 13:54:13.271948  1902 net.cpp:156] Memory required for data: 17799480
I0720 13:54:13.271960  1902 layer_factory.hpp:77] Creating layer relu1
I0720 13:54:13.271970  1902 net.cpp:91] Creating Layer relu1
I0720 13:54:13.271975  1902 net.cpp:425] relu1 <- conv1
I0720 13:54:13.271981  1902 net.cpp:386] relu1 -> conv1 (in-place)
I0720 13:54:13.273057  1914 net.cpp:141] Setting up relu1
I0720 13:54:13.273072  1914 net.cpp:148] Top shape: 10 96 55 55 (2904000)
I0720 13:54:13.273077  1914 net.cpp:156] Memory required for data: 29415480
I0720 13:54:13.273085  1914 layer_factory.hpp:77] Creating layer pool1
I0720 13:54:13.273099  1914 net.cpp:91] Creating Layer pool1
I0720 13:54:13.273105  1914 net.cpp:425] pool1 <- conv1
I0720 13:54:13.273113  1914 net.cpp:399] pool1 -> pool1
I0720 13:54:13.273124  1914 net.cpp:141] Setting up pool1
I0720 13:54:13.273131  1914 net.cpp:148] Top shape: 10 96 27 27 (699840)
I0720 13:54:13.273135  1914 net.cpp:156] Memory required for data: 32214840
I0720 13:54:13.273140  1914 layer_factory.hpp:77] Creating layer norm1
I0720 13:54:13.273150  1914 net.cpp:91] Creating Layer norm1
I0720 13:54:13.273155  1914 net.cpp:425] norm1 <- pool1
I0720 13:54:13.273165  1914 net.cpp:399] norm1 -> norm1
I0720 13:54:13.274555  1884 net.cpp:141] Setting up conv1
I0720 13:54:13.274574  1884 net.cpp:148] Top shape: 10 96 55 55 (2904000)
I0720 13:54:13.274579  1884 net.cpp:156] Memory required for data: 17799480
I0720 13:54:13.274595  1884 layer_factory.hpp:77] Creating layer relu1
I0720 13:54:13.274603  1884 net.cpp:91] Creating Layer relu1
I0720 13:54:13.274610  1884 net.cpp:425] relu1 <- conv1
I0720 13:54:13.274618  1884 net.cpp:386] relu1 -> conv1 (in-place)
I0720 13:54:13.274879  1920 net.cpp:141] Setting up relu1
I0720 13:54:13.274893  1926 net.cpp:141] Setting up relu1
I0720 13:54:13.274901  1920 net.cpp:148] Top shape: 10 96 55 55 (2904000)
I0720 13:54:13.274907  1920 net.cpp:156] Memory required for data: 29415480
I0720 13:54:13.274911  1926 net.cpp:148] Top shape: 10 96 55 55 (2904000)
I0720 13:54:13.274914  1920 layer_factory.hpp:77] Creating layer pool1
I0720 13:54:13.274924  1926 net.cpp:156] Memory required for data: 29415480
I0720 13:54:13.274930  1920 net.cpp:91] Creating Layer pool1
I0720 13:54:13.274933  1926 layer_factory.hpp:77] Creating layer pool1
I0720 13:54:13.274942  1920 net.cpp:425] pool1 <- conv1
I0720 13:54:13.274950  1920 net.cpp:399] pool1 -> pool1
I0720 13:54:13.274950  1926 net.cpp:91] Creating Layer pool1
I0720 13:54:13.274956  1926 net.cpp:425] pool1 <- conv1
I0720 13:54:13.274963  1920 net.cpp:141] Setting up pool1
I0720 13:54:13.274965  1926 net.cpp:399] pool1 -> pool1
I0720 13:54:13.274971  1920 net.cpp:148] Top shape: 10 96 27 27 (699840)
I0720 13:54:13.274976  1920 net.cpp:156] Memory required for data: 32214840
I0720 13:54:13.274978  1926 net.cpp:141] Setting up pool1
I0720 13:54:13.274981  1920 layer_factory.hpp:77] Creating layer norm1
I0720 13:54:13.274986  1926 net.cpp:148] Top shape: 10 96 27 27 (699840)
I0720 13:54:13.274991  1926 net.cpp:156] Memory required for data: 32214840
I0720 13:54:13.274993  1920 net.cpp:91] Creating Layer norm1
I0720 13:54:13.274996  1926 layer_factory.hpp:77] Creating layer norm1
I0720 13:54:13.274998  1920 net.cpp:425] norm1 <- pool1
I0720 13:54:13.275004  1926 net.cpp:91] Creating Layer norm1
I0720 13:54:13.275005  1920 net.cpp:399] norm1 -> norm1
I0720 13:54:13.275013  1926 net.cpp:425] norm1 <- pool1
I0720 13:54:13.275020  1926 net.cpp:399] norm1 -> norm1
I0720 13:54:13.275969  1912 net.cpp:141] Setting up norm1
I0720 13:54:13.275985  1912 net.cpp:148] Top shape: 10 96 27 27 (699840)
I0720 13:54:13.275990  1912 net.cpp:156] Memory required for data: 35014200
I0720 13:54:13.275995  1912 layer_factory.hpp:77] Creating layer conv2
I0720 13:54:13.276011  1912 net.cpp:91] Creating Layer conv2
I0720 13:54:13.276021  1912 net.cpp:425] conv2 <- norm1
I0720 13:54:13.276032  1912 net.cpp:399] conv2 -> conv2
I0720 13:54:13.277652  1920 net.cpp:141] Setting up norm1
I0720 13:54:13.277660  1918 net.cpp:141] Setting up relu1
I0720 13:54:13.277669  1920 net.cpp:148] Top shape: 10 96 27 27 (699840)
I0720 13:54:13.277675  1918 net.cpp:148] Top shape: 10 96 55 55 (2904000)
I0720 13:54:13.277679  1920 net.cpp:156] Memory required for data: 35014200
I0720 13:54:13.277681  1918 net.cpp:156] Memory required for data: 29415480
I0720 13:54:13.277686  1920 layer_factory.hpp:77] Creating layer conv2
I0720 13:54:13.277688  1918 layer_factory.hpp:77] Creating layer pool1
I0720 13:54:13.277700  1920 net.cpp:91] Creating Layer conv2
I0720 13:54:13.277703  1918 net.cpp:91] Creating Layer pool1
I0720 13:54:13.277706  1920 net.cpp:425] conv2 <- norm1
I0720 13:54:13.277711  1918 net.cpp:425] pool1 <- conv1
I0720 13:54:13.277714  1920 net.cpp:399] conv2 -> conv2
I0720 13:54:13.277719  1918 net.cpp:399] pool1 -> pool1
I0720 13:54:13.277734  1918 net.cpp:141] Setting up pool1
I0720 13:54:13.277740  1918 net.cpp:148] Top shape: 10 96 27 27 (699840)
I0720 13:54:13.277739  1884 net.cpp:141] Setting up relu1
I0720 13:54:13.277745  1918 net.cpp:156] Memory required for data: 32214840
I0720 13:54:13.277763  1918 layer_factory.hpp:77] Creating layer norm1
I0720 13:54:13.277765  1884 net.cpp:148] Top shape: 10 96 55 55 (2904000)
I0720 13:54:13.277777  1918 net.cpp:91] Creating Layer norm1
I0720 13:54:13.277776  1884 net.cpp:156] Memory required for data: 29415480
I0720 13:54:13.277786  1918 net.cpp:425] norm1 <- pool1
I0720 13:54:13.277791  1884 layer_factory.hpp:77] Creating layer pool1
I0720 13:54:13.277793  1918 net.cpp:399] norm1 -> norm1
I0720 13:54:13.277791  1914 net.cpp:141] Setting up norm1
I0720 13:54:13.277806  1884 net.cpp:91] Creating Layer pool1
I0720 13:54:13.277812  1884 net.cpp:425] pool1 <- conv1
I0720 13:54:13.277814  1914 net.cpp:148] Top shape: 10 96 27 27 (699840)
I0720 13:54:13.277818  1884 net.cpp:399] pool1 -> pool1
I0720 13:54:13.277829  1914 net.cpp:156] Memory required for data: 35014200
I0720 13:54:13.277839  1884 net.cpp:141] Setting up pool1
I0720 13:54:13.277840  1914 layer_factory.hpp:77] Creating layer conv2
I0720 13:54:13.277854  1884 net.cpp:148] Top shape: 10 96 27 27 (699840)
I0720 13:54:13.277858  1884 net.cpp:156] Memory required for data: 32214840
I0720 13:54:13.277856  1914 net.cpp:91] Creating Layer conv2
I0720 13:54:13.277870  1884 layer_factory.hpp:77] Creating layer norm1
I0720 13:54:13.277881  1914 net.cpp:425] conv2 <- norm1
I0720 13:54:13.277887  1884 net.cpp:91] Creating Layer norm1
I0720 13:54:13.277892  1884 net.cpp:425] norm1 <- pool1
I0720 13:54:13.277899  1884 net.cpp:399] norm1 -> norm1
I0720 13:54:13.277900  1914 net.cpp:399] conv2 -> conv2
I0720 13:54:13.279134  1924 net.cpp:141] Setting up conv1
I0720 13:54:13.279170  1906 net.cpp:141] Setting up conv1
I0720 13:54:13.279177  1924 net.cpp:148] Top shape: 10 96 55 55 (2904000)
I0720 13:54:13.279194  1906 net.cpp:148] Top shape: 10 96 55 55 (2904000)
I0720 13:54:13.279194  1924 net.cpp:156] Memory required for data: 17799480
I0720 13:54:13.279203  1906 net.cpp:156] Memory required for data: 17799480
I0720 13:54:13.279227  1924 layer_factory.hpp:77] Creating layer relu1
I0720 13:54:13.279227  1906 layer_factory.hpp:77] Creating layer relu1
I0720 13:54:13.279247  1924 net.cpp:91] Creating Layer relu1
I0720 13:54:13.279254  1924 net.cpp:425] relu1 <- conv1
I0720 13:54:13.279254  1906 net.cpp:91] Creating Layer relu1
I0720 13:54:13.279263  1906 net.cpp:425] relu1 <- conv1
I0720 13:54:13.279263  1924 net.cpp:386] relu1 -> conv1 (in-place)
I0720 13:54:13.279273  1906 net.cpp:386] relu1 -> conv1 (in-place)
I0720 13:54:13.279824  1908 net.cpp:141] Setting up relu1
I0720 13:54:13.279839  1908 net.cpp:148] Top shape: 10 96 55 55 (2904000)
I0720 13:54:13.279845  1908 net.cpp:156] Memory required for data: 29415480
I0720 13:54:13.279850  1908 layer_factory.hpp:77] Creating layer pool1
I0720 13:54:13.279860  1908 net.cpp:91] Creating Layer pool1
I0720 13:54:13.279865  1908 net.cpp:425] pool1 <- conv1
I0720 13:54:13.279871  1908 net.cpp:399] pool1 -> pool1
I0720 13:54:13.279884  1908 net.cpp:141] Setting up pool1
I0720 13:54:13.279894  1908 net.cpp:148] Top shape: 10 96 27 27 (699840)
I0720 13:54:13.279902  1908 net.cpp:156] Memory required for data: 32214840
I0720 13:54:13.279907  1908 layer_factory.hpp:77] Creating layer norm1
I0720 13:54:13.279919  1908 net.cpp:91] Creating Layer norm1
I0720 13:54:13.279924  1908 net.cpp:425] norm1 <- pool1
I0720 13:54:13.279932  1908 net.cpp:399] norm1 -> norm1
I0720 13:54:13.281728  1918 net.cpp:141] Setting up norm1
I0720 13:54:13.281744  1918 net.cpp:148] Top shape: 10 96 27 27 (699840)
I0720 13:54:13.281749  1918 net.cpp:156] Memory required for data: 35014200
I0720 13:54:13.281755  1918 layer_factory.hpp:77] Creating layer conv2
I0720 13:54:13.281769  1918 net.cpp:91] Creating Layer conv2
I0720 13:54:13.281774  1918 net.cpp:425] conv2 <- norm1
I0720 13:54:13.281785  1918 net.cpp:399] conv2 -> conv2
I0720 13:54:13.281796  1926 net.cpp:141] Setting up norm1
I0720 13:54:13.281816  1926 net.cpp:148] Top shape: 10 96 27 27 (699840)
I0720 13:54:13.281821  1926 net.cpp:156] Memory required for data: 35014200
I0720 13:54:13.281827  1926 layer_factory.hpp:77] Creating layer conv2
I0720 13:54:13.281838  1926 net.cpp:91] Creating Layer conv2
I0720 13:54:13.281844  1926 net.cpp:425] conv2 <- norm1
I0720 13:54:13.281865  1926 net.cpp:399] conv2 -> conv2
I0720 13:54:13.283259  1902 net.cpp:141] Setting up relu1
I0720 13:54:13.283278  1902 net.cpp:148] Top shape: 10 96 55 55 (2904000)
I0720 13:54:13.283283  1902 net.cpp:156] Memory required for data: 29415480
I0720 13:54:13.283289  1902 layer_factory.hpp:77] Creating layer pool1
I0720 13:54:13.283300  1902 net.cpp:91] Creating Layer pool1
I0720 13:54:13.283305  1902 net.cpp:425] pool1 <- conv1
I0720 13:54:13.283313  1902 net.cpp:399] pool1 -> pool1
I0720 13:54:13.283326  1902 net.cpp:141] Setting up pool1
I0720 13:54:13.283334  1902 net.cpp:148] Top shape: 10 96 27 27 (699840)
I0720 13:54:13.283337  1902 net.cpp:156] Memory required for data: 32214840
I0720 13:54:13.283341  1902 layer_factory.hpp:77] Creating layer norm1
I0720 13:54:13.283352  1902 net.cpp:91] Creating Layer norm1
I0720 13:54:13.283357  1902 net.cpp:425] norm1 <- pool1
I0720 13:54:13.283365  1902 net.cpp:399] norm1 -> norm1
I0720 13:54:13.285856  1884 net.cpp:141] Setting up norm1
I0720 13:54:13.285881  1884 net.cpp:148] Top shape: 10 96 27 27 (699840)
I0720 13:54:13.285890  1884 net.cpp:156] Memory required for data: 35014200
I0720 13:54:13.285900  1884 layer_factory.hpp:77] Creating layer conv2
I0720 13:54:13.285918  1884 net.cpp:91] Creating Layer conv2
I0720 13:54:13.285928  1884 net.cpp:425] conv2 <- norm1
I0720 13:54:13.285940  1884 net.cpp:399] conv2 -> conv2
I0720 13:54:13.286063  1886 net.cpp:141] Setting up lstm1_transform_1
I0720 13:54:13.286079  1886 net.cpp:148] Top shape: 1 1 4000 (4000)
I0720 13:54:13.286087  1886 net.cpp:156] Memory required for data: 62016
I0720 13:54:13.286103  1886 layer_factory.hpp:77] Creating layer lstm1_gate_input_1
I0720 13:54:13.286118  1886 net.cpp:91] Creating Layer lstm1_gate_input_1
I0720 13:54:13.286124  1886 net.cpp:425] lstm1_gate_input_1 <- W_hc_h_0
I0720 13:54:13.286130  1886 net.cpp:425] lstm1_gate_input_1 <- W_xc_x_1
I0720 13:54:13.286140  1886 net.cpp:399] lstm1_gate_input_1 -> gate_input_1
I0720 13:54:13.286993  1908 net.cpp:141] Setting up norm1
I0720 13:54:13.287009  1908 net.cpp:148] Top shape: 10 96 27 27 (699840)
I0720 13:54:13.287014  1908 net.cpp:156] Memory required for data: 35014200
I0720 13:54:13.287020  1908 layer_factory.hpp:77] Creating layer conv2
I0720 13:54:13.287032  1908 net.cpp:91] Creating Layer conv2
I0720 13:54:13.287039  1908 net.cpp:425] conv2 <- norm1
I0720 13:54:13.287045  1908 net.cpp:399] conv2 -> conv2
I0720 13:54:13.288028  1886 net.cpp:141] Setting up lstm1_gate_input_1
I0720 13:54:13.288048  1886 net.cpp:148] Top shape: 1 1 4000 (4000)
I0720 13:54:13.288053  1886 net.cpp:156] Memory required for data: 78016
I0720 13:54:13.288058  1886 layer_factory.hpp:77] Creating layer lstm1_unit_1
I0720 13:54:13.288074  1886 net.cpp:91] Creating Layer lstm1_unit_1
I0720 13:54:13.288079  1886 net.cpp:425] lstm1_unit_1 <- c_0
I0720 13:54:13.288085  1886 net.cpp:425] lstm1_unit_1 <- gate_input_1
I0720 13:54:13.288090  1886 net.cpp:425] lstm1_unit_1 <- cont_1_lstm1_cont_slice_0_split_1
I0720 13:54:13.288097  1886 net.cpp:399] lstm1_unit_1 -> c_1
I0720 13:54:13.288106  1886 net.cpp:399] lstm1_unit_1 -> h_1
I0720 13:54:13.290570  1906 net.cpp:141] Setting up relu1
I0720 13:54:13.290587  1906 net.cpp:148] Top shape: 10 96 55 55 (2904000)
I0720 13:54:13.290592  1906 net.cpp:156] Memory required for data: 29415480
I0720 13:54:13.290598  1906 layer_factory.hpp:77] Creating layer pool1
I0720 13:54:13.290609  1906 net.cpp:91] Creating Layer pool1
I0720 13:54:13.290616  1906 net.cpp:425] pool1 <- conv1
I0720 13:54:13.290622  1906 net.cpp:399] pool1 -> pool1
I0720 13:54:13.290637  1906 net.cpp:141] Setting up pool1
I0720 13:54:13.290645  1906 net.cpp:148] Top shape: 10 96 27 27 (699840)
I0720 13:54:13.290649  1906 net.cpp:156] Memory required for data: 32214840
I0720 13:54:13.290653  1906 layer_factory.hpp:77] Creating layer norm1
I0720 13:54:13.290665  1906 net.cpp:91] Creating Layer norm1
I0720 13:54:13.290674  1906 net.cpp:425] norm1 <- pool1
I0720 13:54:13.290698  1906 net.cpp:399] norm1 -> norm1
I0720 13:54:13.290771  1886 net.cpp:141] Setting up lstm1_unit_1
I0720 13:54:13.290789  1886 net.cpp:148] Top shape: 1 1 1000 (1000)
I0720 13:54:13.290796  1886 net.cpp:148] Top shape: 1 1 1000 (1000)
I0720 13:54:13.290801  1886 net.cpp:156] Memory required for data: 86016
I0720 13:54:13.290805  1886 layer_factory.hpp:77] Creating layer lstm1_
I0720 13:54:13.290814  1886 net.cpp:91] Creating Layer lstm1_
I0720 13:54:13.290819  1886 net.cpp:425] lstm1_ <- c_1
I0720 13:54:13.290829  1886 net.cpp:399] lstm1_ -> c_T
I0720 13:54:13.291499  1902 net.cpp:141] Setting up norm1
I0720 13:54:13.291517  1902 net.cpp:148] Top shape: 10 96 27 27 (699840)
I0720 13:54:13.291522  1902 net.cpp:156] Memory required for data: 35014200
I0720 13:54:13.291528  1902 layer_factory.hpp:77] Creating layer conv2
I0720 13:54:13.291539  1902 net.cpp:91] Creating Layer conv2
I0720 13:54:13.291544  1902 net.cpp:425] conv2 <- norm1
I0720 13:54:13.291553  1902 net.cpp:399] conv2 -> conv2
I0720 13:54:13.292855  1924 net.cpp:141] Setting up relu1
I0720 13:54:13.292889  1924 net.cpp:148] Top shape: 10 96 55 55 (2904000)
I0720 13:54:13.292896  1924 net.cpp:156] Memory required for data: 29415480
I0720 13:54:13.292902  1924 layer_factory.hpp:77] Creating layer pool1
I0720 13:54:13.292918  1924 net.cpp:91] Creating Layer pool1
I0720 13:54:13.292924  1924 net.cpp:425] pool1 <- conv1
I0720 13:54:13.292933  1924 net.cpp:399] pool1 -> pool1
I0720 13:54:13.292951  1924 net.cpp:141] Setting up pool1
I0720 13:54:13.292959  1924 net.cpp:148] Top shape: 10 96 27 27 (699840)
I0720 13:54:13.292963  1924 net.cpp:156] Memory required for data: 32214840
I0720 13:54:13.292968  1924 layer_factory.hpp:77] Creating layer norm1
I0720 13:54:13.292981  1924 net.cpp:91] Creating Layer norm1
I0720 13:54:13.292986  1924 net.cpp:425] norm1 <- pool1
I0720 13:54:13.292995  1924 net.cpp:399] norm1 -> norm1
I0720 13:54:13.295492  1886 net.cpp:141] Setting up lstm1_
I0720 13:54:13.295516  1886 net.cpp:148] Top shape: 1 1 1000 (1000)
I0720 13:54:13.295521  1886 net.cpp:156] Memory required for data: 90016
I0720 13:54:13.295527  1886 layer_factory.hpp:77] Creating layer lstm1_h_concat
I0720 13:54:13.295537  1886 net.cpp:91] Creating Layer lstm1_h_concat
I0720 13:54:13.295543  1886 net.cpp:425] lstm1_h_concat <- h_1
I0720 13:54:13.295552  1886 net.cpp:399] lstm1_h_concat -> h
I0720 13:54:13.296432  1886 net.cpp:141] Setting up lstm1_h_concat
I0720 13:54:13.296450  1886 net.cpp:148] Top shape: 1 1 1000 (1000)
I0720 13:54:13.296457  1886 net.cpp:156] Memory required for data: 94016
I0720 13:54:13.296461  1886 layer_factory.hpp:77] Creating layer h_pseudoloss
I0720 13:54:13.296478  1886 net.cpp:91] Creating Layer h_pseudoloss
I0720 13:54:13.296483  1886 net.cpp:425] h_pseudoloss <- h
I0720 13:54:13.296491  1886 net.cpp:399] h_pseudoloss -> h_pseudoloss
I0720 13:54:13.298485  1886 net.cpp:141] Setting up h_pseudoloss
…
I0720 13:54:13.298609  1886 net.cpp:219] cont_1_lstm1_cont_slice_0_split does not need backward computation.
I0720 13:54:13.298614  1886 net.cpp:219] lstm1_cont_slice does not need backward computation.
I0720 13:54:13.298619  1886 net.cpp:219] lstm1_ does not need backward computation.
I0720 13:54:13.298622  1886 net.cpp:219] lstm1_ does not need backward computation.
I0720 13:54:13.298629  1886 net.cpp:261] This network produces output c_T
I0720 13:54:13.298637  1886 net.cpp:261] This network produces output h_pseudoloss
I0720 13:54:13.298660  1886 net.cpp:274] Network initialization done.
I0720 13:54:13.298660  1924 net.cpp:141] Setting up norm1
I0720 13:54:13.298681  1924 net.cpp:148] Top shape: 10 96 27 27 (699840)
I0720 13:54:13.298693  1924 net.cpp:156] Memory required for data: 35014200
I0720 13:54:13.298702  1924 layer_factory.hpp:77] Creating layer conv2
I0720 13:54:13.298720  1924 net.cpp:91] Creating Layer conv2
I0720 13:54:13.298727  1924 net.cpp:425] conv2 <- norm1
I0720 13:54:13.298728  1886 recurrent_layer.cpp:150] Adding parameter 0: W_xc
I0720 13:54:13.298734  1924 net.cpp:399] conv2 -> conv2
I0720 13:54:13.298738  1886 recurrent_layer.cpp:150] Adding parameter 1: b_c
I0720 13:54:13.298745  1886 recurrent_layer.cpp:150] Adding parameter 2: W_hc
I0720 13:54:13.300999  1906 net.cpp:141] Setting up norm1
I0720 13:54:13.301019  1906 net.cpp:148] Top shape: 10 96 27 27 (699840)
I0720 13:54:13.301025  1906 net.cpp:156] Memory required for data: 35014200
I0720 13:54:13.301034  1906 layer_factory.hpp:77] Creating layer conv2
I0720 13:54:13.301054  1906 net.cpp:91] Creating Layer conv2
I0720 13:54:13.301060  1906 net.cpp:425] conv2 <- norm1
I0720 13:54:13.301067  1906 net.cpp:399] conv2 -> conv2
I0720 13:54:13.301308  1886 net.cpp:141] Setting up lstm1
I0720 13:54:13.301326  1886 net.cpp:148] Top shape: 1 1 1000 (1000)
I0720 13:54:13.301334  1886 net.cpp:156] Memory required for data: 26408
I0720 13:54:13.301357  1886 layer_factory.hpp:77] Creating layer concat
I0720 13:54:13.301367  1886 net.cpp:91] Creating Layer concat
I0720 13:54:13.301373  1886 net.cpp:425] concat <- lstm1
I0720 13:54:13.301383  1886 net.cpp:425] concat <- embedded_input_sentence
I0720 13:54:13.301393  1886 net.cpp:425] concat <- reshaped_stage_indicator
I0720 13:54:13.301400  1886 net.cpp:399] concat -> lstm1_video_sequence
I0720 13:54:13.303258  1886 net.cpp:141] Setting up concat
I0720 13:54:13.303278  1886 net.cpp:148] Top shape: 1 1 1501 (1501)
I0720 13:54:13.303284  1886 net.cpp:156] Memory required for data: 32412
I0720 13:54:13.303289  1886 layer_factory.hpp:77] Creating layer lstm2
I0720 13:54:13.303303  1886 net.cpp:91] Creating Layer lstm2
I0720 13:54:13.303308  1886 net.cpp:425] lstm2 <- lstm1_video_sequence
I0720 13:54:13.303314  1886 net.cpp:425] lstm2 <- cont_sentence_input_1_split_1
I0720 13:54:13.303323  1886 net.cpp:399] lstm2 -> lstm2
I0720 13:54:13.303334  1886 recurrent_layer.cpp:20] Initializing recurrent layer: assuming input batch contains 1 timesteps of 1 independent streams.
I0720 13:54:13.303596  1886 net.cpp:49] Initializing net from parameters: 
layer {
  name: "lstm2_"
  type: "Input"
  top: "x"
  top: "cont"
  input_param {
    shape {
      dim: 1
      dim: 1
      dim: 1501
    }
    shape {
      dim: 1
      dim: 1
    }
  }
}
layer {
  name: "lstm2_"
  type: "Input"
  top: "c_0"
  top: "h_0"
  input_param {
    shape {
      dim: 1
      dim: 1
      dim: 1000
    }
    shape {
      dim: 1
      dim: 1
      dim: 1000
    }
  }
}
layer {
  name: "lstm2_cont_slice"
  type: "Slice"
  bottom: "cont"
  top: "cont_1"
  slice_param {
    axis: 0
  }
}
layer {
  name: "lstm2_x_transform"
  type: "InnerProduct"
  bottom: "x"
  top: "W_xc_x"
  param {
    name: "W_xc"
  }
  param {
    name: "b_c"
  }
  propagate_down: true
  inner_product_param {
    num_output: 4000
    bias_term: true
    weight_filler {
      type: "uniform"
      min: -0.08
      max: 0.08
    }
    bias_filler {
      type: "constant"
      value: 0
    }
    axis: 2
  }
}
layer {
  name: "lstm2_W_xc_x_slice"
  type: "Slice"
  bottom: "W_xc_x"
  top: "W_xc_x_1"
  slice_param {
    axis: 0
  }
}
layer {
  name: "lstm2_h_conted_0"
  type: "Scale"
  bottom: "h_0"
  bottom: "cont_1"
  top: "h_conted_0"
  scale_param {
    axis: 0
  }
}
layer {
  name: "lstm2_transform_1"
  type: "InnerProduct"
  bottom: "h_conted_0"
  top: "W_hc_h_0"
  param {
    name: "W_hc"
  }
  inner_product_param {
    num_output: 4000
    bias_term: false
    weight_filler {
      type: "uniform"
      min: -0.08
      max: 0.08
    }
    axis: 2
  }
}
layer {
  name: "lstm2_gate_input_1"
  type: "Eltwise"
  bottom: "W_hc_h_0"
  bottom: "W_xc_x_1"
  top: "gate_input_1"
  eltwise_param {
    operation: SUM
  }
}
layer {
  name: "lstm2_unit_1"
  type: "LSTMUnit"
  bottom: "c_0"
  bottom: "gate_input_1"
  bottom: "cont_1"
  top: "c_1"
  top: "h_1"
}
layer {
  name: "lstm2_"
  type: "Split"
  bottom: "c_1"
  top: "c_T"
}
layer {
  name: "lstm2_h_concat"
  type: "Concat"
  bottom: "h_1"
  top: "h"
  concat_param {
    axis: 0
  }
}
layer {
  name: "h_pseudoloss"
  type: "Reduction"
  bottom: "h"
  top: "h_pseudoloss"
  loss_weight: 1
}
I0720 13:54:13.303681  1886 layer_factory.hpp:77] Creating layer lstm2_
I0720 13:54:13.303692  1886 net.cpp:91] Creating Layer lstm2_
I0720 13:54:13.303699  1886 net.cpp:399] lstm2_ -> x
I0720 13:54:13.303710  1886 net.cpp:399] lstm2_ -> cont
I0720 13:54:13.305492  1886 net.cpp:141] Setting up lstm2_
I0720 13:54:13.305510  1886 net.cpp:148] Top shape: 1 1 1501 (1501)
I0720 13:54:13.305516  1886 net.cpp:148] Top shape: 1 1 (1)
I0720 13:54:13.305521  1886 net.cpp:156] Memory required for data: 6008
I0720 13:54:13.305526  1886 layer_factory.hpp:77] Creating layer lstm2_
I0720 13:54:13.305546  1886 net.cpp:91] Creating Layer lstm2_
I0720 13:54:13.305554  1886 net.cpp:399] lstm2_ -> c_0
I0720 13:54:13.305567  1886 net.cpp:399] lstm2_ -> h_0
I0720 13:54:13.307410  1886 net.cpp:141] Setting up lstm2_
I0720 13:54:13.307423  1886 net.cpp:148] Top shape: 1 1 1000 (1000)
I0720 13:54:13.307430  1886 net.cpp:148] Top shape: 1 1 1000 (1000)
I0720 13:54:13.307433  1886 net.cpp:156] Memory required for data: 14008
I0720 13:54:13.307438  1886 layer_factory.hpp:77] Creating layer lstm2_cont_slice
I0720 13:54:13.307447  1886 net.cpp:91] Creating Layer lstm2_cont_slice
I0720 13:54:13.307452  1886 net.cpp:425] lstm2_cont_slice <- cont
I0720 13:54:13.307459  1886 net.cpp:399] lstm2_cont_slice -> cont_1
I0720 13:54:13.307509  1886 net.cpp:141] Setting up lstm2_cont_slice
I0720 13:54:13.307520  1886 net.cpp:148] Top shape: 1 1 (1)
I0720 13:54:13.307524  1886 net.cpp:156] Memory required for data: 14012
I0720 13:54:13.307529  1886 layer_factory.hpp:77] Creating layer cont_1_lstm2_cont_slice_0_split
I0720 13:54:13.307535  1886 net.cpp:91] Creating Layer cont_1_lstm2_cont_slice_0_split
I0720 13:54:13.307540  1886 net.cpp:425] cont_1_lstm2_cont_slice_0_split <- cont_1
I0720 13:54:13.307554  1886 net.cpp:399] cont_1_lstm2_cont_slice_0_split -> cont_1_lstm2_cont_slice_0_split_0
I0720 13:54:13.307562  1886 net.cpp:399] cont_1_lstm2_cont_slice_0_split -> cont_1_lstm2_cont_slice_0_split_1
I0720 13:54:13.308681  1886 net.cpp:141] Setting up cont_1_lstm2_cont_slice_0_split
I0720 13:54:13.308693  1886 net.cpp:148] Top shape: 1 1 (1)
I0720 13:54:13.308703  1886 net.cpp:148] Top shape: 1 1 (1)
I0720 13:54:13.308709  1886 net.cpp:156] Memory required for data: 14020
I0720 13:54:13.308714  1886 layer_factory.hpp:77] Creating layer lstm2_x_transform
I0720 13:54:13.308728  1886 net.cpp:91] Creating Layer lstm2_x_transform
I0720 13:54:13.308733  1886 net.cpp:425] lstm2_x_transform <- x
I0720 13:54:13.308744  1886 net.cpp:399] lstm2_x_transform -> W_xc_x
I0720 13:54:13.325947  1926 net.cpp:141] Setting up conv2
I0720 13:54:13.326005  1926 net.cpp:148] Top shape: 10 256 27 27 (1866240)
I0720 13:54:13.326011  1926 net.cpp:156] Memory required for data: 42479160
I0720 13:54:13.326035  1926 layer_factory.hpp:77] Creating layer relu2
I0720 13:54:13.326051  1926 net.cpp:91] Creating Layer relu2
I0720 13:54:13.326058  1926 net.cpp:425] relu2 <- conv2
I0720 13:54:13.326071  1926 net.cpp:386] relu2 -> conv2 (in-place)
I0720 13:54:13.328218  1908 net.cpp:141] Setting up conv2
I0720 13:54:13.328243  1908 net.cpp:148] Top shape: 10 256 27 27 (1866240)
I0720 13:54:13.328249  1908 net.cpp:156] Memory required for data: 42479160
I0720 13:54:13.328263  1908 layer_factory.hpp:77] Creating layer relu2
I0720 13:54:13.328272  1908 net.cpp:91] Creating Layer relu2
I0720 13:54:13.328277  1908 net.cpp:425] relu2 <- conv2
I0720 13:54:13.328286  1908 net.cpp:386] relu2 -> conv2 (in-place)
I0720 13:54:13.331862  1924 net.cpp:141] Setting up conv2
I0720 13:54:13.331902  1924 net.cpp:148] Top shape: 10 256 27 27 (1866240)
I0720 13:54:13.331909  1924 net.cpp:156] Memory required for data: 42479160
I0720 13:54:13.331928  1924 layer_factory.hpp:77] Creating layer relu2
I0720 13:54:13.331943  1924 net.cpp:91] Creating Layer relu2
I0720 13:54:13.331949  1924 net.cpp:425] relu2 <- conv2
I0720 13:54:13.331960  1924 net.cpp:386] relu2 -> conv2 (in-place)
I0720 13:54:13.332161  1926 net.cpp:141] Setting up relu2
I0720 13:54:13.332186  1926 net.cpp:148] Top shape: 10 256 27 27 (1866240)
I0720 13:54:13.332196  1926 net.cpp:156] Memory required for data: 49944120
I0720 13:54:13.332206  1926 layer_factory.hpp:77] Creating layer pool2
I0720 13:54:13.332222  1926 net.cpp:91] Creating Layer pool2
I0720 13:54:13.332231  1926 net.cpp:425] pool2 <- conv2
I0720 13:54:13.332244  1926 net.cpp:399] pool2 -> pool2
I0720 13:54:13.332269  1926 net.cpp:141] Setting up pool2
I0720 13:54:13.332283  1926 net.cpp:148] Top shape: 10 256 13 13 (432640)
I0720 13:54:13.332290  1926 net.cpp:156] Memory required for data: 51674680
I0720 13:54:13.332299  1926 layer_factory.hpp:77] Creating layer norm2
I0720 13:54:13.332326  1926 net.cpp:91] Creating Layer norm2
I0720 13:54:13.332340  1926 net.cpp:425] norm2 <- pool2
I0720 13:54:13.332353  1926 net.cpp:399] norm2 -> norm2
I0720 13:54:13.335142  1924 net.cpp:141] Setting up relu2
I0720 13:54:13.335165  1924 net.cpp:148] Top shape: 10 256 27 27 (1866240)
I0720 13:54:13.335170  1924 net.cpp:156] Memory required for data: 49944120
I0720 13:54:13.335176  1924 layer_factory.hpp:77] Creating layer pool2
I0720 13:54:13.335189  1924 net.cpp:91] Creating Layer pool2
I0720 13:54:13.335194  1924 net.cpp:425] pool2 <- conv2
I0720 13:54:13.335202  1924 net.cpp:399] pool2 -> pool2
I0720 13:54:13.335217  1924 net.cpp:141] Setting up pool2
I0720 13:54:13.335224  1924 net.cpp:148] Top shape: 10 256 13 13 (432640)
I0720 13:54:13.335228  1924 net.cpp:156] Memory required for data: 51674680
I0720 13:54:13.335232  1924 layer_factory.hpp:77] Creating layer norm2
I0720 13:54:13.335247  1924 net.cpp:91] Creating Layer norm2
I0720 13:54:13.335252  1924 net.cpp:425] norm2 <- pool2
I0720 13:54:13.335259  1924 net.cpp:399] norm2 -> norm2
I0720 13:54:13.335281  1912 net.cpp:141] Setting up conv2
I0720 13:54:13.335302  1912 net.cpp:148] Top shape: 10 256 27 27 (1866240)
I0720 13:54:13.335309  1912 net.cpp:156] Memory required for data: 42479160
I0720 13:54:13.335322  1912 layer_factory.hpp:77] Creating layer relu2
I0720 13:54:13.335335  1912 net.cpp:91] Creating Layer relu2
I0720 13:54:13.335345  1912 net.cpp:425] relu2 <- conv2
I0720 13:54:13.335355  1912 net.cpp:386] relu2 -> conv2 (in-place)
I0720 13:54:13.335630  1908 net.cpp:141] Setting up relu2
I0720 13:54:13.335650  1908 net.cpp:148] Top shape: 10 256 27 27 (1866240)
I0720 13:54:13.335656  1908 net.cpp:156] Memory required for data: 49944120
I0720 13:54:13.335661  1908 layer_factory.hpp:77] Creating layer pool2
I0720 13:54:13.335670  1908 net.cpp:91] Creating Layer pool2
I0720 13:54:13.335676  1908 net.cpp:425] pool2 <- conv2
I0720 13:54:13.335690  1908 net.cpp:399] pool2 -> pool2
I0720 13:54:13.335702  1908 net.cpp:141] Setting up pool2
I0720 13:54:13.335708  1908 net.cpp:148] Top shape: 10 256 13 13 (432640)
I0720 13:54:13.335712  1908 net.cpp:156] Memory required for data: 51674680
I0720 13:54:13.335717  1908 layer_factory.hpp:77] Creating layer norm2
I0720 13:54:13.335728  1908 net.cpp:91] Creating Layer norm2
I0720 13:54:13.335733  1908 net.cpp:425] norm2 <- pool2
I0720 13:54:13.335741  1908 net.cpp:399] norm2 -> norm2
I0720 13:54:13.337424  1884 net.cpp:141] Setting up conv2
I0720 13:54:13.337441  1884 net.cpp:148] Top shape: 10 256 27 27 (1866240)
I0720 13:54:13.337447  1884 net.cpp:156] Memory required for data: 42479160
I0720 13:54:13.337465  1884 layer_factory.hpp:77] Creating layer relu2
I0720 13:54:13.337474  1884 net.cpp:91] Creating Layer relu2
I0720 13:54:13.337481  1884 net.cpp:425] relu2 <- conv2
I0720 13:54:13.337481  1920 net.cpp:141] Setting up conv2
I0720 13:54:13.337491  1884 net.cpp:386] relu2 -> conv2 (in-place)
I0720 13:54:13.337499  1920 net.cpp:148] Top shape: 10 256 27 27 (1866240)
I0720 13:54:13.337505  1920 net.cpp:156] Memory required for data: 42479160
I0720 13:54:13.337519  1920 layer_factory.hpp:77] Creating layer relu2
I0720 13:54:13.337533  1920 net.cpp:91] Creating Layer relu2
I0720 13:54:13.337543  1920 net.cpp:425] relu2 <- conv2
I0720 13:54:13.337553  1920 net.cpp:386] relu2 -> conv2 (in-place)
I0720 13:54:13.339562  1926 net.cpp:141] Setting up norm2
I0720 13:54:13.339584  1926 net.cpp:148] Top shape: 10 256 13 13 (432640)
I0720 13:54:13.339591  1926 net.cpp:156] Memory required for data: 53405240
I0720 13:54:13.339596  1926 layer_factory.hpp:77] Creating layer conv3
I0720 13:54:13.339614  1926 net.cpp:91] Creating Layer conv3
I0720 13:54:13.339620  1926 net.cpp:425] conv3 <- norm2
I0720 13:54:13.339627  1926 net.cpp:399] conv3 -> conv3
I0720 13:54:13.339710  1884 net.cpp:141] Setting up relu2
I0720 13:54:13.339725  1884 net.cpp:148] Top shape: 10 256 27 27 (1866240)
I0720 13:54:13.339730  1884 net.cpp:156] Memory required for data: 49944120
I0720 13:54:13.339735  1884 layer_factory.hpp:77] Creating layer pool2
I0720 13:54:13.339745  1884 net.cpp:91] Creating Layer pool2
I0720 13:54:13.339751  1884 net.cpp:425] pool2 <- conv2
I0720 13:54:13.339757  1884 net.cpp:399] pool2 -> pool2
I0720 13:54:13.339769  1884 net.cpp:141] Setting up pool2
I0720 13:54:13.339779  1884 net.cpp:148] Top shape: 10 256 13 13 (432640)
I0720 13:54:13.339784  1884 net.cpp:156] Memory required for data: 51674680
I0720 13:54:13.339788  1884 layer_factory.hpp:77] Creating layer norm2
I0720 13:54:13.339797  1884 net.cpp:91] Creating Layer norm2
I0720 13:54:13.339802  1884 net.cpp:425] norm2 <- pool2
I0720 13:54:13.339810  1884 net.cpp:399] norm2 -> norm2
I0720 13:54:13.340641  1920 net.cpp:141] Setting up relu2
I0720 13:54:13.340662  1920 net.cpp:148] Top shape: 10 256 27 27 (1866240)
I0720 13:54:13.340668  1920 net.cpp:156] Memory required for data: 49944120
I0720 13:54:13.340674  1920 layer_factory.hpp:77] Creating layer pool2
I0720 13:54:13.340687  1920 net.cpp:91] Creating Layer pool2
I0720 13:54:13.340692  1920 net.cpp:425] pool2 <- conv2
I0720 13:54:13.340699  1920 net.cpp:399] pool2 -> pool2
I0720 13:54:13.340714  1920 net.cpp:141] Setting up pool2
I0720 13:54:13.340721  1920 net.cpp:148] Top shape: 10 256 13 13 (432640)
I0720 13:54:13.340725  1920 net.cpp:156] Memory required for data: 51674680
I0720 13:54:13.340729  1920 layer_factory.hpp:77] Creating layer norm2
I0720 13:54:13.340739  1920 net.cpp:91] Creating Layer norm2
I0720 13:54:13.340744  1920 net.cpp:425] norm2 <- pool2
I0720 13:54:13.340764  1920 net.cpp:399] norm2 -> norm2
I0720 13:54:13.341413  1914 net.cpp:141] Setting up conv2
I0720 13:54:13.341436  1914 net.cpp:148] Top shape: 10 256 27 27 (1866240)
I0720 13:54:13.341441  1914 net.cpp:156] Memory required for data: 42479160
I0720 13:54:13.341456  1914 layer_factory.hpp:77] Creating layer relu2
I0720 13:54:13.341470  1914 net.cpp:91] Creating Layer relu2
I0720 13:54:13.341475  1914 net.cpp:425] relu2 <- conv2
I0720 13:54:13.341482  1914 net.cpp:386] relu2 -> conv2 (in-place)
I0720 13:54:13.344388  1924 net.cpp:141] Setting up norm2
I0720 13:54:13.344403  1902 net.cpp:141] Setting up conv2
I0720 13:54:13.344418  1924 net.cpp:148] Top shape: 10 256 13 13 (432640)
I0720 13:54:13.344422  1902 net.cpp:148] Top shape: 10 256 27 27 (1866240)
I0720 13:54:13.344424  1924 net.cpp:156] Memory required for data: 53405240
I0720 13:54:13.344436  1902 net.cpp:156] Memory required for data: 42479160
I0720 13:54:13.344442  1924 layer_factory.hpp:77] Creating layer conv3
I0720 13:54:13.344452  1902 layer_factory.hpp:77] Creating layer relu2
I0720 13:54:13.344461  1902 net.cpp:91] Creating Layer relu2
I0720 13:54:13.344463  1924 net.cpp:91] Creating Layer conv3
I0720 13:54:13.344467  1902 net.cpp:425] relu2 <- conv2
I0720 13:54:13.344470  1924 net.cpp:425] conv3 <- norm2
I0720 13:54:13.344475  1902 net.cpp:386] relu2 -> conv2 (in-place)
I0720 13:54:13.344480  1924 net.cpp:399] conv3 -> conv3
I0720 13:54:13.344611  1914 net.cpp:141] Setting up relu2
I0720 13:54:13.344630  1914 net.cpp:148] Top shape: 10 256 27 27 (1866240)
I0720 13:54:13.344638  1914 net.cpp:156] Memory required for data: 49944120
I0720 13:54:13.344647  1914 layer_factory.hpp:77] Creating layer pool2
I0720 13:54:13.344665  1914 net.cpp:91] Creating Layer pool2
I0720 13:54:13.344671  1914 net.cpp:425] pool2 <- conv2
I0720 13:54:13.344681  1914 net.cpp:399] pool2 -> pool2
I0720 13:54:13.344693  1914 net.cpp:141] Setting up pool2
I0720 13:54:13.344701  1914 net.cpp:148] Top shape: 10 256 13 13 (432640)
I0720 13:54:13.344709  1914 net.cpp:156] Memory required for data: 51674680
I0720 13:54:13.344713  1914 layer_factory.hpp:77] Creating layer norm2
I0720 13:54:13.344727  1914 net.cpp:91] Creating Layer norm2
I0720 13:54:13.344732  1914 net.cpp:425] norm2 <- pool2
I0720 13:54:13.344738  1914 net.cpp:399] norm2 -> norm2
I0720 13:54:13.345731  1920 net.cpp:141] Setting up norm2
I0720 13:54:13.345748  1920 net.cpp:148] Top shape: 10 256 13 13 (432640)
I0720 13:54:13.345754  1920 net.cpp:156] Memory required for data: 53405240
I0720 13:54:13.345760  1920 layer_factory.hpp:77] Creating layer conv3
I0720 13:54:13.345774  1920 net.cpp:91] Creating Layer conv3
I0720 13:54:13.345779  1920 net.cpp:425] conv3 <- norm2
I0720 13:54:13.345788  1920 net.cpp:399] conv3 -> conv3
I0720 13:54:13.346195  1912 net.cpp:141] Setting up relu2
I0720 13:54:13.346215  1912 net.cpp:148] Top shape: 10 256 27 27 (1866240)
I0720 13:54:13.346220  1912 net.cpp:156] Memory required for data: 49944120
I0720 13:54:13.346225  1912 layer_factory.hpp:77] Creating layer pool2
I0720 13:54:13.346236  1912 net.cpp:91] Creating Layer pool2
I0720 13:54:13.346242  1912 net.cpp:425] pool2 <- conv2
I0720 13:54:13.346252  1912 net.cpp:399] pool2 -> pool2
I0720 13:54:13.346261  1908 net.cpp:141] Setting up norm2
I0720 13:54:13.346271  1912 net.cpp:141] Setting up pool2
I0720 13:54:13.346271  1902 net.cpp:141] Setting up relu2
I0720 13:54:13.346282  1908 net.cpp:148] Top shape: 10 256 13 13 (432640)
I0720 13:54:13.346293  1912 net.cpp:148] Top shape: 10 256 13 13 (432640)
I0720 13:54:13.346297  1902 net.cpp:148] Top shape: 10 256 27 27 (1866240)
I0720 13:54:13.346300  1908 net.cpp:156] Memory required for data: 53405240
I0720 13:54:13.346305  1902 net.cpp:156] Memory required for data: 49944120
I0720 13:54:13.346303  1912 net.cpp:156] Memory required for data: 51674680
I0720 13:54:13.346314  1902 layer_factory.hpp:77] Creating layer pool2
I0720 13:54:13.346318  1908 layer_factory.hpp:77] Creating layer conv3
I0720 13:54:13.346320  1912 layer_factory.hpp:77] Creating layer norm2
I0720 13:54:13.346333  1902 net.cpp:91] Creating Layer pool2
I0720 13:54:13.346335  1912 net.cpp:91] Creating Layer norm2
I0720 13:54:13.346340  1908 net.cpp:91] Creating Layer conv3
I0720 13:54:13.346343  1902 net.cpp:425] pool2 <- conv2
I0720 13:54:13.346343  1912 net.cpp:425] norm2 <- pool2
I0720 13:54:13.346351  1908 net.cpp:425] conv3 <- norm2
I0720 13:54:13.346359  1902 net.cpp:399] pool2 -> pool2
I0720 13:54:13.346364  1912 net.cpp:399] norm2 -> norm2
I0720 13:54:13.346369  1908 net.cpp:399] conv3 -> conv3
I0720 13:54:13.346379  1902 net.cpp:141] Setting up pool2
I0720 13:54:13.346391  1902 net.cpp:148] Top shape: 10 256 13 13 (432640)
I0720 13:54:13.346396  1902 net.cpp:156] Memory required for data: 51674680
I0720 13:54:13.346401  1902 layer_factory.hpp:77] Creating layer norm2
I0720 13:54:13.346413  1902 net.cpp:91] Creating Layer norm2
I0720 13:54:13.346418  1902 net.cpp:425] norm2 <- pool2
I0720 13:54:13.346427  1902 net.cpp:399] norm2 -> norm2
I0720 13:54:13.346446  1884 net.cpp:141] Setting up norm2
I0720 13:54:13.346464  1884 net.cpp:148] Top shape: 10 256 13 13 (432640)
I0720 13:54:13.346470  1884 net.cpp:156] Memory required for data: 53405240
I0720 13:54:13.346477  1884 layer_factory.hpp:77] Creating layer conv3
I0720 13:54:13.346487  1884 net.cpp:91] Creating Layer conv3
I0720 13:54:13.346493  1884 net.cpp:425] conv3 <- norm2
I0720 13:54:13.346503  1884 net.cpp:399] conv3 -> conv3
I0720 13:54:13.351253  1914 net.cpp:141] Setting up norm2
I0720 13:54:13.351290  1914 net.cpp:148] Top shape: 10 256 13 13 (432640)
I0720 13:54:13.351296  1914 net.cpp:156] Memory required for data: 53405240
I0720 13:54:13.351303  1914 layer_factory.hpp:77] Creating layer conv3
I0720 13:54:13.351325  1914 net.cpp:91] Creating Layer conv3
I0720 13:54:13.351330  1914 net.cpp:425] conv3 <- norm2
I0720 13:54:13.351339  1914 net.cpp:399] conv3 -> conv3
I0720 13:54:13.352891  1906 net.cpp:141] Setting up conv2
I0720 13:54:13.352916  1906 net.cpp:148] Top shape: 10 256 27 27 (1866240)
I0720 13:54:13.352922  1906 net.cpp:156] Memory required for data: 42479160
I0720 13:54:13.352939  1906 layer_factory.hpp:77] Creating layer relu2
I0720 13:54:13.352951  1906 net.cpp:91] Creating Layer relu2
I0720 13:54:13.352955  1906 net.cpp:425] relu2 <- conv2
I0720 13:54:13.352965  1906 net.cpp:386] relu2 -> conv2 (in-place)
I0720 13:54:13.353929  1918 net.cpp:141] Setting up conv2
I0720 13:54:13.353955  1918 net.cpp:148] Top shape: 10 256 27 27 (1866240)
I0720 13:54:13.353963  1918 net.cpp:156] Memory required for data: 42479160
I0720 13:54:13.353983  1918 layer_factory.hpp:77] Creating layer relu2
I0720 13:54:13.353996  1918 net.cpp:91] Creating Layer relu2
I0720 13:54:13.354006  1918 net.cpp:425] relu2 <- conv2
I0720 13:54:13.354017  1918 net.cpp:386] relu2 -> conv2 (in-place)
I0720 13:54:13.354868  1902 net.cpp:141] Setting up norm2
I0720 13:54:13.354885  1902 net.cpp:148] Top shape: 10 256 13 13 (432640)
I0720 13:54:13.354890  1902 net.cpp:156] Memory required for data: 53405240
I0720 13:54:13.354897  1902 layer_factory.hpp:77] Creating layer conv3
I0720 13:54:13.354910  1902 net.cpp:91] Creating Layer conv3
I0720 13:54:13.354917  1902 net.cpp:425] conv3 <- norm2
I0720 13:54:13.354923  1902 net.cpp:399] conv3 -> conv3
I0720 13:54:13.358464  1912 net.cpp:141] Setting up norm2
I0720 13:54:13.358489  1912 net.cpp:148] Top shape: 10 256 13 13 (432640)
I0720 13:54:13.358494  1912 net.cpp:156] Memory required for data: 53405240
I0720 13:54:13.358500  1912 layer_factory.hpp:77] Creating layer conv3
I0720 13:54:13.358516  1912 net.cpp:91] Creating Layer conv3
I0720 13:54:13.358522  1912 net.cpp:425] conv3 <- norm2
I0720 13:54:13.358530  1912 net.cpp:399] conv3 -> conv3
I0720 13:54:13.359220  1924 net.cpp:141] Setting up conv3
I0720 13:54:13.359256  1924 net.cpp:148] Top shape: 10 384 13 13 (648960)
I0720 13:54:13.359262  1924 net.cpp:156] Memory required for data: 56001080
I0720 13:54:13.359279  1924 layer_factory.hpp:77] Creating layer relu3
I0720 13:54:13.359293  1924 net.cpp:91] Creating Layer relu3
I0720 13:54:13.359299  1924 net.cpp:425] relu3 <- conv3
I0720 13:54:13.359310  1924 net.cpp:386] relu3 -> conv3 (in-place)
I0720 13:54:13.359422  1906 net.cpp:141] Setting up relu2
I0720 13:54:13.359441  1906 net.cpp:148] Top shape: 10 256 27 27 (1866240)
I0720 13:54:13.359447  1906 net.cpp:156] Memory required for data: 49944120
I0720 13:54:13.359452  1906 layer_factory.hpp:77] Creating layer pool2
I0720 13:54:13.359462  1906 net.cpp:91] Creating Layer pool2
I0720 13:54:13.359468  1906 net.cpp:425] pool2 <- conv2
I0720 13:54:13.359477  1906 net.cpp:399] pool2 -> pool2
I0720 13:54:13.359493  1906 net.cpp:141] Setting up pool2
I0720 13:54:13.359499  1906 net.cpp:148] Top shape: 10 256 13 13 (432640)
I0720 13:54:13.359504  1906 net.cpp:156] Memory required for data: 51674680
I0720 13:54:13.359508  1906 layer_factory.hpp:77] Creating layer norm2
I0720 13:54:13.359521  1906 net.cpp:91] Creating Layer norm2
I0720 13:54:13.359526  1906 net.cpp:425] norm2 <- pool2
I0720 13:54:13.359534  1906 net.cpp:399] norm2 -> norm2
I0720 13:54:13.363189  1918 net.cpp:141] Setting up relu2
I0720 13:54:13.363220  1918 net.cpp:148] Top shape: 10 256 27 27 (1866240)
I0720 13:54:13.363229  1918 net.cpp:156] Memory required for data: 49944120
I0720 13:54:13.363237  1918 layer_factory.hpp:77] Creating layer pool2
I0720 13:54:13.363250  1918 net.cpp:91] Creating Layer pool2
I0720 13:54:13.363258  1918 net.cpp:425] pool2 <- conv2
I0720 13:54:13.363270  1918 net.cpp:399] pool2 -> pool2
I0720 13:54:13.363291  1918 net.cpp:141] Setting up pool2
I0720 13:54:13.363301  1918 net.cpp:148] Top shape: 10 256 13 13 (432640)
I0720 13:54:13.363307  1918 net.cpp:156] Memory required for data: 51674680
I0720 13:54:13.363314  1918 layer_factory.hpp:77] Creating layer norm2
I0720 13:54:13.363328  1918 net.cpp:91] Creating Layer norm2
I0720 13:54:13.363337  1918 net.cpp:425] norm2 <- pool2
I0720 13:54:13.363346  1918 net.cpp:399] norm2 -> norm2
I0720 13:54:13.364603  1926 net.cpp:141] Setting up conv3
I0720 13:54:13.364622  1926 net.cpp:148] Top shape: 10 384 13 13 (648960)
I0720 13:54:13.364627  1926 net.cpp:156] Memory required for data: 56001080
I0720 13:54:13.364645  1926 layer_factory.hpp:77] Creating layer relu3
I0720 13:54:13.364655  1926 net.cpp:91] Creating Layer relu3
I0720 13:54:13.364660  1926 net.cpp:425] relu3 <- conv3
I0720 13:54:13.364667  1926 net.cpp:386] relu3 -> conv3 (in-place)
I0720 13:54:13.365952  1920 net.cpp:141] Setting up conv3
I0720 13:54:13.365968  1920 net.cpp:148] Top shape: 10 384 13 13 (648960)
I0720 13:54:13.365975  1920 net.cpp:156] Memory required for data: 56001080
I0720 13:54:13.365968  1884 net.cpp:141] Setting up conv3
I0720 13:54:13.365994  1884 net.cpp:148] Top shape: 10 384 13 13 (648960)
I0720 13:54:13.365998  1920 layer_factory.hpp:77] Creating layer relu3
I0720 13:54:13.366001  1884 net.cpp:156] Memory required for data: 56001080
I0720 13:54:13.366017  1920 net.cpp:91] Creating Layer relu3
I0720 13:54:13.366025  1884 layer_factory.hpp:77] Creating layer relu3
I0720 13:54:13.366029  1920 net.cpp:425] relu3 <- conv3
I0720 13:54:13.366034  1884 net.cpp:91] Creating Layer relu3
I0720 13:54:13.366041  1884 net.cpp:425] relu3 <- conv3
I0720 13:54:13.366044  1920 net.cpp:386] relu3 -> conv3 (in-place)
I0720 13:54:13.366051  1884 net.cpp:386] relu3 -> conv3 (in-place)
I0720 13:54:13.367465  1926 net.cpp:141] Setting up relu3
I0720 13:54:13.367482  1926 net.cpp:148] Top shape: 10 384 13 13 (648960)
I0720 13:54:13.367487  1926 net.cpp:156] Memory required for data: 58596920
I0720 13:54:13.367492  1926 layer_factory.hpp:77] Creating layer conv4
I0720 13:54:13.367511  1926 net.cpp:91] Creating Layer conv4
I0720 13:54:13.367516  1926 net.cpp:425] conv4 <- conv3
I0720 13:54:13.367523  1926 net.cpp:399] conv4 -> conv4
I0720 13:54:13.369216  1918 net.cpp:141] Setting up norm2
I0720 13:54:13.369240  1918 net.cpp:148] Top shape: 10 256 13 13 (432640)
I0720 13:54:13.369248  1918 net.cpp:156] Memory required for data: 53405240
I0720 13:54:13.369258  1918 layer_factory.hpp:77] Creating layer conv3
I0720 13:54:13.369278  1918 net.cpp:91] Creating Layer conv3
I0720 13:54:13.369288  1918 net.cpp:425] conv3 <- norm2
I0720 13:54:13.369302  1918 net.cpp:399] conv3 -> conv3
I0720 13:54:13.369451  1902 net.cpp:141] Setting up conv3
I0720 13:54:13.369467  1902 net.cpp:148] Top shape: 10 384 13 13 (648960)
I0720 13:54:13.369477  1902 net.cpp:156] Memory required for data: 56001080
I0720 13:54:13.369498  1902 layer_factory.hpp:77] Creating layer relu3
I0720 13:54:13.369513  1902 net.cpp:91] Creating Layer relu3
I0720 13:54:13.369524  1902 net.cpp:425] relu3 <- conv3
I0720 13:54:13.369527  1920 net.cpp:141] Setting up relu3
I0720 13:54:13.369531  1924 net.cpp:141] Setting up relu3
I0720 13:54:13.369555  1920 net.cpp:148] Top shape: 10 384 13 13 (648960)
I0720 13:54:13.369557  1924 net.cpp:148] Top shape: 10 384 13 13 (648960)
I0720 13:54:13.369568  1920 net.cpp:156] Memory required for data: 58596920
I0720 13:54:13.369554  1902 net.cpp:386] relu3 -> conv3 (in-place)
I0720 13:54:13.369580  1920 layer_factory.hpp:77] Creating layer conv4
I0720 13:54:13.369573  1924 net.cpp:156] Memory required for data: 58596920
I0720 13:54:13.369596  1924 layer_factory.hpp:77] Creating layer conv4
I0720 13:54:13.369598  1920 net.cpp:91] Creating Layer conv4
I0720 13:54:13.369611  1920 net.cpp:425] conv4 <- conv3
I0720 13:54:13.369616  1924 net.cpp:91] Creating Layer conv4
I0720 13:54:13.369623  1924 net.cpp:425] conv4 <- conv3
I0720 13:54:13.369634  1924 net.cpp:399] conv4 -> conv4
I0720 13:54:13.369642  1920 net.cpp:399] conv4 -> conv4
I0720 13:54:13.373375  1908 net.cpp:141] Setting up conv3
I0720 13:54:13.373405  1908 net.cpp:148] Top shape: 10 384 13 13 (648960)
I0720 13:54:13.373416  1908 net.cpp:156] Memory required for data: 56001080
I0720 13:54:13.373441  1908 layer_factory.hpp:77] Creating layer relu3
I0720 13:54:13.373462  1908 net.cpp:91] Creating Layer relu3
I0720 13:54:13.373472  1908 net.cpp:425] relu3 <- conv3
I0720 13:54:13.373484  1908 net.cpp:386] relu3 -> conv3 (in-place)
I0720 13:54:13.374614  1886 net.cpp:141] Setting up lstm2_x_transform
I0720 13:54:13.374634  1886 net.cpp:148] Top shape: 1 1 4000 (4000)
I0720 13:54:13.374639  1886 net.cpp:156] Memory required for data: 30020
I0720 13:54:13.374651  1886 layer_factory.hpp:77] Creating layer lstm2_W_xc_x_slice
I0720 13:54:13.374662  1886 net.cpp:91] Creating Layer lstm2_W_xc_x_slice
I0720 13:54:13.374668  1886 net.cpp:425] lstm2_W_xc_x_slice <- W_xc_x
I0720 13:54:13.374676  1886 net.cpp:399] lstm2_W_xc_x_slice -> W_xc_x_1
I0720 13:54:13.375380  1906 net.cpp:141] Setting up norm2
I0720 13:54:13.375407  1906 net.cpp:148] Top shape: 10 256 13 13 (432640)
I0720 13:54:13.375417  1906 net.cpp:156] Memory required for data: 53405240
I0720 13:54:13.375427  1906 layer_factory.hpp:77] Creating layer conv3
I0720 13:54:13.375444  1906 net.cpp:91] Creating Layer conv3
I0720 13:54:13.375452  1906 net.cpp:425] conv3 <- norm2
I0720 13:54:13.375461  1906 net.cpp:399] conv3 -> conv3
I0720 13:54:13.375579  1902 net.cpp:141] Setting up relu3
I0720 13:54:13.375592  1902 net.cpp:148] Top shape: 10 384 13 13 (648960)
I0720 13:54:13.375597  1902 net.cpp:156] Memory required for data: 58596920
I0720 13:54:13.375602  1902 layer_factory.hpp:77] Creating layer conv4
I0720 13:54:13.375618  1902 net.cpp:91] Creating Layer conv4
I0720 13:54:13.375625  1902 net.cpp:425] conv4 <- conv3
I0720 13:54:13.375634  1902 net.cpp:399] conv4 -> conv4
I0720 13:54:13.375865  1886 net.cpp:141] Setting up lstm2_W_xc_x_slice
I0720 13:54:13.375885  1886 net.cpp:148] Top shape: 1 1 4000 (4000)
I0720 13:54:13.375893  1886 net.cpp:156] Memory required for data: 46020
I0720 13:54:13.375903  1886 layer_factory.hpp:77] Creating layer lstm2_h_conted_0
I0720 13:54:13.375919  1886 net.cpp:91] Creating Layer lstm2_h_conted_0
I0720 13:54:13.375929  1886 net.cpp:425] lstm2_h_conted_0 <- h_0
I0720 13:54:13.375941  1886 net.cpp:425] lstm2_h_conted_0 <- cont_1_lstm2_cont_slice_0_split_0
I0720 13:54:13.375953  1886 net.cpp:399] lstm2_h_conted_0 -> h_conted_0
I0720 13:54:13.376760  1884 net.cpp:141] Setting up relu3
I0720 13:54:13.376780  1884 net.cpp:148] Top shape: 10 384 13 13 (648960)
I0720 13:54:13.376786  1884 net.cpp:156] Memory required for data: 58596920
I0720 13:54:13.376791  1884 layer_factory.hpp:77] Creating layer conv4
I0720 13:54:13.376806  1884 net.cpp:91] Creating Layer conv4
I0720 13:54:13.376812  1884 net.cpp:425] conv4 <- conv3
I0720 13:54:13.376822  1884 net.cpp:399] conv4 -> conv4
I0720 13:54:13.378464  1912 net.cpp:141] Setting up conv3
I0720 13:54:13.378485  1912 net.cpp:148] Top shape: 10 384 13 13 (648960)
I0720 13:54:13.378491  1912 net.cpp:156] Memory required for data: 56001080
I0720 13:54:13.378505  1912 layer_factory.hpp:77] Creating layer relu3
I0720 13:54:13.378517  1912 net.cpp:91] Creating Layer relu3
I0720 13:54:13.378523  1912 net.cpp:425] relu3 <- conv3
I0720 13:54:13.378530  1912 net.cpp:386] relu3 -> conv3 (in-place)
I0720 13:54:13.383661  1886 net.cpp:141] Setting up lstm2_h_conted_0
I0720 13:54:13.383682  1886 net.cpp:148] Top shape: 1 1 1000 (1000)
I0720 13:54:13.383688  1886 net.cpp:156] Memory required for data: 50020
I0720 13:54:13.383693  1886 layer_factory.hpp:77] Creating layer lstm2_transform_1
I0720 13:54:13.383708  1886 net.cpp:91] Creating Layer lstm2_transform_1
I0720 13:54:13.383713  1886 net.cpp:425] lstm2_transform_1 <- h_conted_0
I0720 13:54:13.383723  1886 net.cpp:399] lstm2_transform_1 -> W_hc_h_0
I0720 13:54:13.384519  1912 net.cpp:141] Setting up relu3
I0720 13:54:13.384543  1912 net.cpp:148] Top shape: 10 384 13 13 (648960)
I0720 13:54:13.384548  1912 net.cpp:156] Memory required for data: 58596920
I0720 13:54:13.384554  1912 layer_factory.hpp:77] Creating layer conv4
I0720 13:54:13.384568  1912 net.cpp:91] Creating Layer conv4
I0720 13:54:13.384574  1912 net.cpp:425] conv4 <- conv3
I0720 13:54:13.384582  1912 net.cpp:399] conv4 -> conv4
I0720 13:54:13.385677  1914 net.cpp:141] Setting up conv3
I0720 13:54:13.385699  1914 net.cpp:148] Top shape: 10 384 13 13 (648960)
I0720 13:54:13.385705  1914 net.cpp:156] Memory required for data: 56001080
I0720 13:54:13.385720  1914 layer_factory.hpp:77] Creating layer relu3
I0720 13:54:13.385733  1914 net.cpp:91] Creating Layer relu3
I0720 13:54:13.385738  1914 net.cpp:425] relu3 <- conv3
I0720 13:54:13.385746  1914 net.cpp:386] relu3 -> conv3 (in-place)
I0720 13:54:13.398921  1924 net.cpp:141] Setting up conv4
I0720 13:54:13.398973  1924 net.cpp:148] Top shape: 10 384 13 13 (648960)
I0720 13:54:13.398980  1924 net.cpp:156] Memory required for data: 61192760
I0720 13:54:13.398993  1924 layer_factory.hpp:77] Creating layer relu4
I0720 13:54:13.399008  1924 net.cpp:91] Creating Layer relu4
I0720 13:54:13.399013  1924 net.cpp:425] relu4 <- conv4
I0720 13:54:13.399021  1924 net.cpp:386] relu4 -> conv4 (in-place)
I0720 13:54:13.402899  1914 net.cpp:141] Setting up relu3
I0720 13:54:13.402942  1914 net.cpp:148] Top shape: 10 384 13 13 (648960)
I0720 13:54:13.402952  1914 net.cpp:156] Memory required for data: 58596920
I0720 13:54:13.402966  1914 layer_factory.hpp:77] Creating layer conv4
I0720 13:54:13.402998  1914 net.cpp:91] Creating Layer conv4
I0720 13:54:13.403010  1914 net.cpp:425] conv4 <- conv3
I0720 13:54:13.403028  1914 net.cpp:399] conv4 -> conv4
I0720 13:54:13.412799  1906 net.cpp:141] Setting up conv3
I0720 13:54:13.412850  1906 net.cpp:148] Top shape: 10 384 13 13 (648960)
I0720 13:54:13.412861  1906 net.cpp:156] Memory required for data: 56001080
I0720 13:54:13.412892  1906 layer_factory.hpp:77] Creating layer relu3
I0720 13:54:13.412911  1906 net.cpp:91] Creating Layer relu3
I0720 13:54:13.412921  1906 net.cpp:425] relu3 <- conv3
I0720 13:54:13.412940  1906 net.cpp:386] relu3 -> conv3 (in-place)
I0720 13:54:13.413007  1926 net.cpp:141] Setting up conv4
I0720 13:54:13.413033  1926 net.cpp:148] Top shape: 10 384 13 13 (648960)
I0720 13:54:13.413039  1926 net.cpp:156] Memory required for data: 61192760
I0720 13:54:13.413054  1926 layer_factory.hpp:77] Creating layer relu4
I0720 13:54:13.413058  1908 net.cpp:141] Setting up relu3
I0720 13:54:13.413069  1926 net.cpp:91] Creating Layer relu4
I0720 13:54:13.413089  1926 net.cpp:425] relu4 <- conv4
I0720 13:54:13.413089  1908 net.cpp:148] Top shape: 10 384 13 13 (648960)
I0720 13:54:13.413105  1926 net.cpp:386] relu4 -> conv4 (in-place)
I0720 13:54:13.413115  1908 net.cpp:156] Memory required for data: 58596920
I0720 13:54:13.413132  1908 layer_factory.hpp:77] Creating layer conv4
I0720 13:54:13.413161  1908 net.cpp:91] Creating Layer conv4
I0720 13:54:13.413173  1908 net.cpp:425] conv4 <- conv3
I0720 13:54:13.413187  1908 net.cpp:399] conv4 -> conv4
I0720 13:54:13.414860  1926 net.cpp:141] Setting up relu4
I0720 13:54:13.414885  1926 net.cpp:148] Top shape: 10 384 13 13 (648960)
I0720 13:54:13.414891  1926 net.cpp:156] Memory required for data: 63788600
I0720 13:54:13.414896  1926 layer_factory.hpp:77] Creating layer conv5
I0720 13:54:13.414912  1926 net.cpp:91] Creating Layer conv5
I0720 13:54:13.414917  1926 net.cpp:425] conv5 <- conv4
I0720 13:54:13.414930  1926 net.cpp:399] conv5 -> conv5
I0720 13:54:13.417074  1918 net.cpp:141] Setting up conv3
I0720 13:54:13.417098  1918 net.cpp:148] Top shape: 10 384 13 13 (648960)
I0720 13:54:13.417103  1918 net.cpp:156] Memory required for data: 56001080
I0720 13:54:13.417119  1918 layer_factory.hpp:77] Creating layer relu3
I0720 13:54:13.417132  1918 net.cpp:91] Creating Layer relu3
I0720 13:54:13.417138  1918 net.cpp:425] relu3 <- conv3
I0720 13:54:13.417145  1918 net.cpp:386] relu3 -> conv3 (in-place)
I0720 13:54:13.420068  1924 net.cpp:141] Setting up relu4
I0720 13:54:13.420089  1924 net.cpp:148] Top shape: 10 384 13 13 (648960)
I0720 13:54:13.420095  1924 net.cpp:156] Memory required for data: 63788600
I0720 13:54:13.420101  1924 layer_factory.hpp:77] Creating layer conv5
I0720 13:54:13.420116  1924 net.cpp:91] Creating Layer conv5
I0720 13:54:13.420122  1924 net.cpp:425] conv5 <- conv4
I0720 13:54:13.420130  1924 net.cpp:399] conv5 -> conv5
I0720 13:54:13.423919  1918 net.cpp:141] Setting up relu3
I0720 13:54:13.423941  1918 net.cpp:148] Top shape: 10 384 13 13 (648960)
I0720 13:54:13.423946  1918 net.cpp:156] Memory required for data: 58596920
I0720 13:54:13.423952  1918 layer_factory.hpp:77] Creating layer conv4
I0720 13:54:13.423967  1918 net.cpp:91] Creating Layer conv4
I0720 13:54:13.423974  1918 net.cpp:425] conv4 <- conv3
I0720 13:54:13.423984  1918 net.cpp:399] conv4 -> conv4
I0720 13:54:13.427364  1906 net.cpp:141] Setting up relu3
I0720 13:54:13.427407  1906 net.cpp:148] Top shape: 10 384 13 13 (648960)
I0720 13:54:13.427415  1906 net.cpp:156] Memory required for data: 58596920
I0720 13:54:13.427428  1906 layer_factory.hpp:77] Creating layer conv4
I0720 13:54:13.427455  1906 net.cpp:91] Creating Layer conv4
I0720 13:54:13.427464  1906 net.cpp:425] conv4 <- conv3
I0720 13:54:13.427479  1906 net.cpp:399] conv4 -> conv4
I0720 13:54:13.427491  1920 net.cpp:141] Setting up conv4
I0720 13:54:13.427511  1920 net.cpp:148] Top shape: 10 384 13 13 (648960)
I0720 13:54:13.427517  1920 net.cpp:156] Memory required for data: 61192760
I0720 13:54:13.427528  1920 layer_factory.hpp:77] Creating layer relu4
I0720 13:54:13.427538  1920 net.cpp:91] Creating Layer relu4
I0720 13:54:13.427544  1920 net.cpp:425] relu4 <- conv4
I0720 13:54:13.427551  1920 net.cpp:386] relu4 -> conv4 (in-place)
I0720 13:54:13.429122  1886 net.cpp:141] Setting up lstm2_transform_1
I0720 13:54:13.429143  1886 net.cpp:148] Top shape: 1 1 4000 (4000)
I0720 13:54:13.429148  1886 net.cpp:156] Memory required for data: 66020
I0720 13:54:13.429160  1886 layer_factory.hpp:77] Creating layer lstm2_gate_input_1
I0720 13:54:13.429173  1886 net.cpp:91] Creating Layer lstm2_gate_input_1
I0720 13:54:13.429179  1886 net.cpp:425] lstm2_gate_input_1 <- W_hc_h_0
I0720 13:54:13.429186  1886 net.cpp:425] lstm2_gate_input_1 <- W_xc_x_1
I0720 13:54:13.429196  1886 net.cpp:399] lstm2_gate_input_1 -> gate_input_1
I0720 13:54:13.430305  1886 net.cpp:141] Setting up lstm2_gate_input_1
I0720 13:54:13.430318  1886 net.cpp:148] Top shape: 1 1 4000 (4000)
I0720 13:54:13.430323  1886 net.cpp:156] Memory required for data: 82020
I0720 13:54:13.430328  1886 layer_factory.hpp:77] Creating layer lstm2_unit_1
I0720 13:54:13.430336  1886 net.cpp:91] Creating Layer lstm2_unit_1
I0720 13:54:13.430341  1886 net.cpp:425] lstm2_unit_1 <- c_0
I0720 13:54:13.430347  1886 net.cpp:425] lstm2_unit_1 <- gate_input_1
I0720 13:54:13.430353  1886 net.cpp:425] lstm2_unit_1 <- cont_1_lstm2_cont_slice_0_split_1
I0720 13:54:13.430359  1886 net.cpp:399] lstm2_unit_1 -> c_1
I0720 13:54:13.430371  1886 net.cpp:399] lstm2_unit_1 -> h_1
I0720 13:54:13.432705  1920 net.cpp:141] Setting up relu4
I0720 13:54:13.432723  1920 net.cpp:148] Top shape: 10 384 13 13 (648960)
I0720 13:54:13.432729  1920 net.cpp:156] Memory required for data: 63788600
I0720 13:54:13.432735  1920 layer_factory.hpp:77] Creating layer conv5
I0720 13:54:13.432750  1920 net.cpp:91] Creating Layer conv5
I0720 13:54:13.432755  1920 net.cpp:425] conv5 <- conv4
I0720 13:54:13.432767  1920 net.cpp:399] conv5 -> conv5
I0720 13:54:13.432889  1884 net.cpp:141] Setting up conv4
I0720 13:54:13.432893  1886 net.cpp:141] Setting up lstm2_unit_1
I0720 13:54:13.432915  1884 net.cpp:148] Top shape: 10 384 13 13 (648960)
I0720 13:54:13.432922  1884 net.cpp:156] Memory required for data: 61192760
I0720 13:54:13.432922  1886 net.cpp:148] Top shape: 1 1 1000 (1000)
I0720 13:54:13.432932  1886 net.cpp:148] Top shape: 1 1 1000 (1000)
I0720 13:54:13.432935  1884 layer_factory.hpp:77] Creating layer relu4
I0720 13:54:13.432940  1886 net.cpp:156] Memory required for data: 90020
I0720 13:54:13.432946  1884 net.cpp:91] Creating Layer relu4
I0720 13:54:13.432951  1886 layer_factory.hpp:77] Creating layer lstm2_
I0720 13:54:13.432955  1884 net.cpp:425] relu4 <- conv4
I0720 13:54:13.432965  1886 net.cpp:91] Creating Layer lstm2_
I0720 13:54:13.432966  1884 net.cpp:386] relu4 -> conv4 (in-place)
I0720 13:54:13.432971  1886 net.cpp:425] lstm2_ <- c_1
I0720 13:54:13.432979  1886 net.cpp:399] lstm2_ -> c_T
I0720 13:54:13.436240  1886 net.cpp:141] Setting up lstm2_
I0720 13:54:13.436260  1886 net.cpp:148] Top shape: 1 1 1000 (1000)
I0720 13:54:13.436265  1886 net.cpp:156] Memory required for data: 94020
I0720 13:54:13.436271  1886 layer_factory.hpp:77] Creating layer lstm2_h_concat
I0720 13:54:13.436281  1886 net.cpp:91] Creating Layer lstm2_h_concat
I0720 13:54:13.436286  1886 net.cpp:425] lstm2_h_concat <- h_1
I0720 13:54:13.436297  1886 net.cpp:399] lstm2_h_concat -> h
I0720 13:54:13.438485  1886 net.cpp:141] Setting up lstm2_h_concat
I0720 13:54:13.438513  1886 net.cpp:148] Top shape: 1 1 1000 (1000)
I0720 13:54:13.438521  1886 net.cpp:156] Memory required for data: 98020
I0720 13:54:13.438531  1886 layer_factory.hpp:77] Creating layer h_pseudoloss
I0720 13:54:13.438555  1886 net.cpp:91] Creating Layer h_pseudoloss
I0720 13:54:13.438565  1886 net.cpp:425] h_pseudoloss <- h
I0720 13:54:13.438580  1886 net.cpp:399] h_pseudoloss -> h_pseudoloss
I0720 13:54:13.438709  1908 net.cpp:141] Setting up conv4
I0720 13:54:13.438737  1908 net.cpp:148] Top shape: 10 384 13 13 (648960)
I0720 13:54:13.438747  1908 net.cpp:156] Memory required for data: 61192760
I0720 13:54:13.438766  1908 layer_factory.hpp:77] Creating layer relu4
I0720 13:54:13.438781  1908 net.cpp:91] Creating Layer relu4
I0720 13:54:13.438788  1908 net.cpp:425] relu4 <- conv4
I0720 13:54:13.438796  1908 net.cpp:386] relu4 -> conv4 (in-place)
I0720 13:54:13.440654  1886 net.cpp:141] Setting up h_pseudoloss
…
I0720 13:54:13.440745  1886 net.cpp:219] cont_1_lstm2_cont_slice_0_split does not need backward computation.
I0720 13:54:13.440749  1886 net.cpp:219] lstm2_cont_slice does not need backward computation.
I0720 13:54:13.440755  1886 net.cpp:219] lstm2_ does not need backward computation.
I0720 13:54:13.440759  1886 net.cpp:219] lstm2_ does not need backward computation.
I0720 13:54:13.440762  1886 net.cpp:261] This network produces output c_T
I0720 13:54:13.440768  1886 net.cpp:261] This network produces output h_pseudoloss
I0720 13:54:13.440784  1886 net.cpp:274] Network initialization done.
I0720 13:54:13.440809  1884 net.cpp:141] Setting up relu4
I0720 13:54:13.440826  1884 net.cpp:148] Top shape: 10 384 13 13 (648960)
I0720 13:54:13.440832  1884 net.cpp:156] Memory required for data: 63788600
I0720 13:54:13.440831  1886 recurrent_layer.cpp:150] Adding parameter 0: W_xc
I0720 13:54:13.440842  1884 layer_factory.hpp:77] Creating layer conv5
I0720 13:54:13.440853  1886 recurrent_layer.cpp:150] Adding parameter 1: b_c
I0720 13:54:13.440867  1886 recurrent_layer.cpp:150] Adding parameter 2: W_hc
I0720 13:54:13.440873  1884 net.cpp:91] Creating Layer conv5
I0720 13:54:13.440881  1884 net.cpp:425] conv5 <- conv4
I0720 13:54:13.440891  1884 net.cpp:399] conv5 -> conv5
I0720 13:54:13.443351  1918 net.cpp:141] Setting up conv4
I0720 13:54:13.443374  1918 net.cpp:148] Top shape: 10 384 13 13 (648960)
I0720 13:54:13.443380  1918 net.cpp:156] Memory required for data: 61192760
I0720 13:54:13.443390  1918 layer_factory.hpp:77] Creating layer relu4
I0720 13:54:13.443399  1918 net.cpp:91] Creating Layer relu4
I0720 13:54:13.443405  1918 net.cpp:425] relu4 <- conv4
I0720 13:54:13.443415  1918 net.cpp:386] relu4 -> conv4 (in-place)
I0720 13:54:13.446117  1886 net.cpp:141] Setting up lstm2
I0720 13:54:13.446143  1886 net.cpp:148] Top shape: 1 1 1000 (1000)
I0720 13:54:13.446149  1886 net.cpp:156] Memory required for data: 36412
I0720 13:54:13.446166  1886 layer_factory.hpp:77] Creating layer predict
I0720 13:54:13.446180  1886 net.cpp:91] Creating Layer predict
I0720 13:54:13.446187  1886 net.cpp:425] predict <- lstm2
I0720 13:54:13.446195  1886 net.cpp:399] predict -> predict
I0720 13:54:13.525276  1912 net.cpp:141] Setting up conv4
I0720 13:54:13.525334  1912 net.cpp:148] Top shape: 10 384 13 13 (648960)
I0720 13:54:13.525346  1912 net.cpp:156] Memory required for data: 61192760
I0720 13:54:13.525367  1912 layer_factory.hpp:77] Creating layer relu4
I0720 13:54:13.525393  1912 net.cpp:91] Creating Layer relu4
I0720 13:54:13.525404  1912 net.cpp:425] relu4 <- conv4
I0720 13:54:13.525420  1912 net.cpp:386] relu4 -> conv4 (in-place)
I0720 13:54:13.525773  1918 net.cpp:141] Setting up relu4
I0720 13:54:13.525792  1918 net.cpp:148] Top shape: 10 384 13 13 (648960)
I0720 13:54:13.525799  1918 net.cpp:156] Memory required for data: 63788600
I0720 13:54:13.525804  1918 layer_factory.hpp:77] Creating layer conv5
I0720 13:54:13.525822  1918 net.cpp:91] Creating Layer conv5
I0720 13:54:13.525828  1918 net.cpp:425] conv5 <- conv4
I0720 13:54:13.525838  1918 net.cpp:399] conv5 -> conv5
I0720 13:54:13.530580  1912 net.cpp:141] Setting up relu4
I0720 13:54:13.530627  1912 net.cpp:148] Top shape: 10 384 13 13 (648960)
I0720 13:54:13.530633  1912 net.cpp:156] Memory required for data: 63788600
I0720 13:54:13.530642  1912 layer_factory.hpp:77] Creating layer conv5
I0720 13:54:13.530668  1912 net.cpp:91] Creating Layer conv5
I0720 13:54:13.530675  1912 net.cpp:425] conv5 <- conv4
I0720 13:54:13.530704  1912 net.cpp:399] conv5 -> conv5
I0720 13:54:13.530812  1902 net.cpp:141] Setting up conv4
I0720 13:54:13.530838  1902 net.cpp:148] Top shape: 10 384 13 13 (648960)
I0720 13:54:13.530844  1902 net.cpp:156] Memory required for data: 61192760
I0720 13:54:13.530858  1902 layer_factory.hpp:77] Creating layer relu4
I0720 13:54:13.530869  1902 net.cpp:91] Creating Layer relu4
I0720 13:54:13.530876  1902 net.cpp:425] relu4 <- conv4
I0720 13:54:13.530885  1902 net.cpp:386] relu4 -> conv4 (in-place)
I0720 13:54:13.536062  1908 net.cpp:141] Setting up relu4
I0720 13:54:13.536111  1908 net.cpp:148] Top shape: 10 384 13 13 (648960)
I0720 13:54:13.536118  1908 net.cpp:156] Memory required for data: 63788600
I0720 13:54:13.536128  1908 layer_factory.hpp:77] Creating layer conv5
I0720 13:54:13.536154  1908 net.cpp:91] Creating Layer conv5
I0720 13:54:13.536160  1908 net.cpp:425] conv5 <- conv4
I0720 13:54:13.536171  1908 net.cpp:399] conv5 -> conv5
I0720 13:54:13.537642  1914 net.cpp:141] Setting up conv4
I0720 13:54:13.537673  1914 net.cpp:148] Top shape: 10 384 13 13 (648960)
I0720 13:54:13.537679  1914 net.cpp:156] Memory required for data: 61192760
I0720 13:54:13.537693  1914 layer_factory.hpp:77] Creating layer relu4
I0720 13:54:13.537706  1914 net.cpp:91] Creating Layer relu4
I0720 13:54:13.537716  1914 net.cpp:425] relu4 <- conv4
I0720 13:54:13.537724  1914 net.cpp:386] relu4 -> conv4 (in-place)
I0720 13:54:13.544800  1926 net.cpp:141] Setting up conv5
I0720 13:54:13.544801  1902 net.cpp:141] Setting up relu4
I0720 13:54:13.544833  1926 net.cpp:148] Top shape: 10 256 13 13 (432640)
I0720 13:54:13.544839  1926 net.cpp:156] Memory required for data: 65519160
I0720 13:54:13.544841  1902 net.cpp:148] Top shape: 10 384 13 13 (648960)
I0720 13:54:13.544847  1902 net.cpp:156] Memory required for data: 63788600
I0720 13:54:13.544854  1902 layer_factory.hpp:77] Creating layer conv5
I0720 13:54:13.544862  1926 layer_factory.hpp:77] Creating layer relu5
I0720 13:54:13.544870  1902 net.cpp:91] Creating Layer conv5
I0720 13:54:13.544872  1926 net.cpp:91] Creating Layer relu5
I0720 13:54:13.544878  1902 net.cpp:425] conv5 <- conv4
I0720 13:54:13.544879  1926 net.cpp:425] relu5 <- conv5
I0720 13:54:13.544886  1902 net.cpp:399] conv5 -> conv5
I0720 13:54:13.544886  1926 net.cpp:386] relu5 -> conv5 (in-place)
I0720 13:54:13.547744  1924 net.cpp:141] Setting up conv5
I0720 13:54:13.547770  1924 net.cpp:148] Top shape: 10 256 13 13 (432640)
I0720 13:54:13.547780  1924 net.cpp:156] Memory required for data: 65519160
I0720 13:54:13.547806  1924 layer_factory.hpp:77] Creating layer relu5
I0720 13:54:13.547827  1924 net.cpp:91] Creating Layer relu5
I0720 13:54:13.547839  1924 net.cpp:425] relu5 <- conv5
I0720 13:54:13.547852  1924 net.cpp:386] relu5 -> conv5 (in-place)
I0720 13:54:13.548010  1884 net.cpp:141] Setting up conv5
I0720 13:54:13.548028  1884 net.cpp:148] Top shape: 10 256 13 13 (432640)
I0720 13:54:13.548033  1884 net.cpp:156] Memory required for data: 65519160
I0720 13:54:13.548048  1884 layer_factory.hpp:77] Creating layer relu5
I0720 13:54:13.548058  1884 net.cpp:91] Creating Layer relu5
I0720 13:54:13.548072  1884 net.cpp:425] relu5 <- conv5
I0720 13:54:13.548080  1884 net.cpp:386] relu5 -> conv5 (in-place)
I0720 13:54:13.548388  1926 net.cpp:141] Setting up relu5
I0720 13:54:13.548406  1926 net.cpp:148] Top shape: 10 256 13 13 (432640)
I0720 13:54:13.548411  1926 net.cpp:156] Memory required for data: 67249720
I0720 13:54:13.548418  1926 layer_factory.hpp:77] Creating layer pool5
I0720 13:54:13.548430  1926 net.cpp:91] Creating Layer pool5
I0720 13:54:13.548437  1926 net.cpp:425] pool5 <- conv5
I0720 13:54:13.548449  1926 net.cpp:399] pool5 -> pool5
I0720 13:54:13.548465  1926 net.cpp:141] Setting up pool5
I0720 13:54:13.548473  1926 net.cpp:148] Top shape: 10 256 6 6 (92160)
I0720 13:54:13.548480  1926 net.cpp:156] Memory required for data: 67618360
I0720 13:54:13.548483  1926 layer_factory.hpp:77] Creating layer fc6
I0720 13:54:13.548507  1926 net.cpp:91] Creating Layer fc6
I0720 13:54:13.548514  1926 net.cpp:425] fc6 <- pool5
I0720 13:54:13.548522  1926 net.cpp:399] fc6 -> fc6
I0720 13:54:13.556926  1920 net.cpp:141] Setting up conv5
I0720 13:54:13.556996  1920 net.cpp:148] Top shape: 10 256 13 13 (432640)
I0720 13:54:13.557009  1920 net.cpp:156] Memory required for data: 65519160
I0720 13:54:13.557041  1920 layer_factory.hpp:77] Creating layer relu5
I0720 13:54:13.557426  1920 net.cpp:91] Creating Layer relu5
I0720 13:54:13.557442  1920 net.cpp:425] relu5 <- conv5
I0720 13:54:13.557461  1920 net.cpp:386] relu5 -> conv5 (in-place)
I0720 13:54:13.561856  1914 net.cpp:141] Setting up relu4
I0720 13:54:13.561856  1906 net.cpp:141] Setting up conv4
I0720 13:54:13.561895  1914 net.cpp:148] Top shape: 10 384 13 13 (648960)
I0720 13:54:13.561899  1906 net.cpp:148] Top shape: 10 384 13 13 (648960)
I0720 13:54:13.561905  1914 net.cpp:156] Memory required for data: 63788600
I0720 13:54:13.561906  1906 net.cpp:156] Memory required for data: 61192760
I0720 13:54:13.561920  1914 layer_factory.hpp:77] Creating layer conv5
I0720 13:54:13.561929  1906 layer_factory.hpp:77] Creating layer relu4
I0720 13:54:13.561941  1906 net.cpp:91] Creating Layer relu4
I0720 13:54:13.561950  1906 net.cpp:425] relu4 <- conv4
I0720 13:54:13.562427  1914 net.cpp:91] Creating Layer conv5
I0720 13:54:13.562427  1906 net.cpp:386] relu4 -> conv4 (in-place)
I0720 13:54:13.562451  1914 net.cpp:425] conv5 <- conv4
I0720 13:54:13.562468  1914 net.cpp:399] conv5 -> conv5
I0720 13:54:13.563118  1884 net.cpp:141] Setting up relu5
I0720 13:54:13.563174  1884 net.cpp:148] Top shape: 10 256 13 13 (432640)
I0720 13:54:13.563187  1884 net.cpp:156] Memory required for data: 67249720
I0720 13:54:13.563205  1884 layer_factory.hpp:77] Creating layer pool5
I0720 13:54:13.563621  1884 net.cpp:91] Creating Layer pool5
I0720 13:54:13.563652  1884 net.cpp:425] pool5 <- conv5
I0720 13:54:13.563685  1884 net.cpp:399] pool5 -> pool5
I0720 13:54:13.563731  1884 net.cpp:141] Setting up pool5
I0720 13:54:13.563748  1884 net.cpp:148] Top shape: 10 256 6 6 (92160)
I0720 13:54:13.563758  1884 net.cpp:156] Memory required for data: 67618360
I0720 13:54:13.563771  1884 layer_factory.hpp:77] Creating layer fc6
I0720 13:54:13.564299  1884 net.cpp:91] Creating Layer fc6
I0720 13:54:13.564332  1884 net.cpp:425] fc6 <- pool5
I0720 13:54:13.564348  1884 net.cpp:399] fc6 -> fc6
I0720 13:54:13.569747  1906 net.cpp:141] Setting up relu4
I0720 13:54:13.569792  1906 net.cpp:148] Top shape: 10 384 13 13 (648960)
I0720 13:54:13.569802  1906 net.cpp:156] Memory required for data: 63788600
I0720 13:54:13.569813  1906 layer_factory.hpp:77] Creating layer conv5
I0720 13:54:13.569842  1906 net.cpp:91] Creating Layer conv5
I0720 13:54:13.569852  1906 net.cpp:425] conv5 <- conv4
I0720 13:54:13.569871  1906 net.cpp:399] conv5 -> conv5
I0720 13:54:13.569944  1920 net.cpp:141] Setting up relu5
I0720 13:54:13.569967  1920 net.cpp:148] Top shape: 10 256 13 13 (432640)
I0720 13:54:13.569977  1920 net.cpp:156] Memory required for data: 67249720
I0720 13:54:13.569988  1920 layer_factory.hpp:77] Creating layer pool5
I0720 13:54:13.570004  1920 net.cpp:91] Creating Layer pool5
I0720 13:54:13.570014  1920 net.cpp:425] pool5 <- conv5
I0720 13:54:13.570758  1920 net.cpp:399] pool5 -> pool5
I0720 13:54:13.570796  1920 net.cpp:141] Setting up pool5
I0720 13:54:13.570812  1920 net.cpp:148] Top shape: 10 256 6 6 (92160)
I0720 13:54:13.570822  1920 net.cpp:156] Memory required for data: 67618360
I0720 13:54:13.570830  1920 layer_factory.hpp:77] Creating layer fc6
I0720 13:54:13.570852  1920 net.cpp:91] Creating Layer fc6
I0720 13:54:13.570863  1920 net.cpp:425] fc6 <- pool5
I0720 13:54:13.570884  1920 net.cpp:399] fc6 -> fc6
I0720 13:54:13.574802  1924 net.cpp:141] Setting up relu5
I0720 13:54:13.574852  1924 net.cpp:148] Top shape: 10 256 13 13 (432640)
I0720 13:54:13.574859  1924 net.cpp:156] Memory required for data: 67249720
I0720 13:54:13.574868  1924 layer_factory.hpp:77] Creating layer pool5
I0720 13:54:13.575408  1924 net.cpp:91] Creating Layer pool5
I0720 13:54:13.575428  1924 net.cpp:425] pool5 <- conv5
I0720 13:54:13.575443  1924 net.cpp:399] pool5 -> pool5
I0720 13:54:13.575466  1924 net.cpp:141] Setting up pool5
I0720 13:54:13.575474  1924 net.cpp:148] Top shape: 10 256 6 6 (92160)
I0720 13:54:13.575479  1924 net.cpp:156] Memory required for data: 67618360
I0720 13:54:13.575484  1924 layer_factory.hpp:77] Creating layer fc6
I0720 13:54:13.575498  1924 net.cpp:91] Creating Layer fc6
I0720 13:54:13.575503  1924 net.cpp:425] fc6 <- pool5
I0720 13:54:13.576210  1924 net.cpp:399] fc6 -> fc6
I0720 13:54:13.625331  1912 net.cpp:141] Setting up conv5
I0720 13:54:13.625399  1912 net.cpp:148] Top shape: 10 256 13 13 (432640)
I0720 13:54:13.625407  1912 net.cpp:156] Memory required for data: 65519160
I0720 13:54:13.625432  1912 layer_factory.hpp:77] Creating layer relu5
I0720 13:54:13.625449  1912 net.cpp:91] Creating Layer relu5
I0720 13:54:13.625457  1912 net.cpp:425] relu5 <- conv5
I0720 13:54:13.626476  1912 net.cpp:386] relu5 -> conv5 (in-place)
I0720 13:54:13.642323  1926 net.cpp:141] Setting up fc6
I0720 13:54:13.642387  1926 net.cpp:148] Top shape: 10 4096 (40960)
I0720 13:54:13.642395  1926 net.cpp:156] Memory required for data: 67782200
I0720 13:54:13.642411  1926 layer_factory.hpp:77] Creating layer relu6
I0720 13:54:13.642429  1926 net.cpp:91] Creating Layer relu6
I0720 13:54:13.642437  1926 net.cpp:425] relu6 <- fc6
I0720 13:54:13.642447  1926 net.cpp:386] relu6 -> fc6 (in-place)
I0720 13:54:13.650259  1912 net.cpp:141] Setting up relu5
I0720 13:54:13.650344  1912 net.cpp:148] Top shape: 10 256 13 13 (432640)
I0720 13:54:13.650357  1912 net.cpp:156] Memory required for data: 67249720
I0720 13:54:13.650372  1912 layer_factory.hpp:77] Creating layer pool5
I0720 13:54:13.650403  1912 net.cpp:91] Creating Layer pool5
I0720 13:54:13.650413  1912 net.cpp:425] pool5 <- conv5
I0720 13:54:13.650434  1912 net.cpp:399] pool5 -> pool5
I0720 13:54:13.650467  1912 net.cpp:141] Setting up pool5
I0720 13:54:13.650480  1912 net.cpp:148] Top shape: 10 256 6 6 (92160)
I0720 13:54:13.650488  1912 net.cpp:156] Memory required for data: 67618360
I0720 13:54:13.650496  1912 layer_factory.hpp:77] Creating layer fc6
I0720 13:54:13.650516  1912 net.cpp:91] Creating Layer fc6
I0720 13:54:13.650524  1912 net.cpp:425] fc6 <- pool5
I0720 13:54:13.650542  1912 net.cpp:399] fc6 -> fc6
I0720 13:54:13.657160  1920 net.cpp:141] Setting up fc6
I0720 13:54:13.657222  1920 net.cpp:148] Top shape: 10 4096 (40960)
I0720 13:54:13.657228  1920 net.cpp:156] Memory required for data: 67782200
I0720 13:54:13.657245  1920 layer_factory.hpp:77] Creating layer relu6
I0720 13:54:13.657263  1920 net.cpp:91] Creating Layer relu6
I0720 13:54:13.657270  1920 net.cpp:425] relu6 <- fc6
I0720 13:54:13.657281  1920 net.cpp:386] relu6 -> fc6 (in-place)
I0720 13:54:13.661417  1924 net.cpp:141] Setting up fc6
I0720 13:54:13.661473  1924 net.cpp:148] Top shape: 10 4096 (40960)
I0720 13:54:13.661479  1924 net.cpp:156] Memory required for data: 67782200
I0720 13:54:13.661496  1924 layer_factory.hpp:77] Creating layer relu6
I0720 13:54:13.661996  1924 net.cpp:91] Creating Layer relu6
I0720 13:54:13.662014  1924 net.cpp:425] relu6 <- fc6
I0720 13:54:13.662024  1924 net.cpp:386] relu6 -> fc6 (in-place)
I0720 13:54:13.662545  1884 net.cpp:141] Setting up fc6
I0720 13:54:13.662565  1884 net.cpp:148] Top shape: 10 4096 (40960)
I0720 13:54:13.662570  1884 net.cpp:156] Memory required for data: 67782200
I0720 13:54:13.662581  1884 layer_factory.hpp:77] Creating layer relu6
I0720 13:54:13.662590  1884 net.cpp:91] Creating Layer relu6
I0720 13:54:13.662596  1884 net.cpp:425] relu6 <- fc6
I0720 13:54:13.662607  1884 net.cpp:386] relu6 -> fc6 (in-place)
I0720 13:54:13.668575  1884 net.cpp:141] Setting up relu6
I0720 13:54:13.668607  1884 net.cpp:148] Top shape: 10 4096 (40960)
I0720 13:54:13.668613  1884 net.cpp:156] Memory required for data: 67946040
I0720 13:54:13.668618  1884 layer_factory.hpp:77] Creating layer drop6
I0720 13:54:13.668634  1884 net.cpp:91] Creating Layer drop6
I0720 13:54:13.668640  1884 net.cpp:425] drop6 <- fc6
I0720 13:54:13.668648  1884 net.cpp:386] drop6 -> fc6 (in-place)
I0720 13:54:13.668670  1884 net.cpp:141] Setting up drop6
I0720 13:54:13.668676  1884 net.cpp:148] Top shape: 10 4096 (40960)
I0720 13:54:13.668681  1884 net.cpp:156] Memory required for data: 68109880
I0720 13:54:13.668685  1884 layer_factory.hpp:77] Creating layer fc7
I0720 13:54:13.668699  1884 net.cpp:91] Creating Layer fc7
I0720 13:54:13.668704  1884 net.cpp:425] fc7 <- fc6
I0720 13:54:13.668709  1884 net.cpp:399] fc7 -> fc7
I0720 13:54:13.672562  1926 net.cpp:141] Setting up relu6
I0720 13:54:13.672595  1926 net.cpp:148] Top shape: 10 4096 (40960)
I0720 13:54:13.672600  1926 net.cpp:156] Memory required for data: 67946040
I0720 13:54:13.672607  1926 layer_factory.hpp:77] Creating layer drop6
I0720 13:54:13.672624  1926 net.cpp:91] Creating Layer drop6
I0720 13:54:13.672631  1926 net.cpp:425] drop6 <- fc6
I0720 13:54:13.672641  1926 net.cpp:386] drop6 -> fc6 (in-place)
I0720 13:54:13.672653  1926 net.cpp:141] Setting up drop6
I0720 13:54:13.672659  1926 net.cpp:148] Top shape: 10 4096 (40960)
I0720 13:54:13.672664  1926 net.cpp:156] Memory required for data: 68109880
I0720 13:54:13.672668  1926 layer_factory.hpp:77] Creating layer fc7
I0720 13:54:13.672677  1926 net.cpp:91] Creating Layer fc7
I0720 13:54:13.672682  1926 net.cpp:425] fc7 <- fc6
I0720 13:54:13.673177  1926 net.cpp:399] fc7 -> fc7
I0720 13:54:13.673748  1920 net.cpp:141] Setting up relu6
I0720 13:54:13.673812  1920 net.cpp:148] Top shape: 10 4096 (40960)
I0720 13:54:13.673823  1920 net.cpp:156] Memory required for data: 67946040
I0720 13:54:13.673837  1920 layer_factory.hpp:77] Creating layer drop6
I0720 13:54:13.673856  1920 net.cpp:91] Creating Layer drop6
I0720 13:54:13.673863  1920 net.cpp:425] drop6 <- fc6
I0720 13:54:13.673873  1920 net.cpp:386] drop6 -> fc6 (in-place)
I0720 13:54:13.673889  1920 net.cpp:141] Setting up drop6
I0720 13:54:13.673897  1920 net.cpp:148] Top shape: 10 4096 (40960)
I0720 13:54:13.673900  1920 net.cpp:156] Memory required for data: 68109880
I0720 13:54:13.673905  1920 layer_factory.hpp:77] Creating layer fc7
I0720 13:54:13.674314  1920 net.cpp:91] Creating Layer fc7
I0720 13:54:13.674335  1920 net.cpp:425] fc7 <- fc6
I0720 13:54:13.674351  1920 net.cpp:399] fc7 -> fc7
I0720 13:54:13.695282  1924 net.cpp:141] Setting up relu6
I0720 13:54:13.695366  1924 net.cpp:148] Top shape: 10 4096 (40960)
I0720 13:54:13.695379  1924 net.cpp:156] Memory required for data: 67946040
I0720 13:54:13.695391  1924 layer_factory.hpp:77] Creating layer drop6
I0720 13:54:13.696372  1924 net.cpp:91] Creating Layer drop6
I0720 13:54:13.696418  1924 net.cpp:425] drop6 <- fc6
I0720 13:54:13.696949  1908 net.cpp:141] Setting up conv5
I0720 13:54:13.696971  1908 net.cpp:148] Top shape: 10 256 13 13 (432640)
I0720 13:54:13.696977  1908 net.cpp:156] Memory required for data: 65519160
I0720 13:54:13.696974  1924 net.cpp:386] drop6 -> fc6 (in-place)
I0720 13:54:13.696996  1908 layer_factory.hpp:77] Creating layer relu5
I0720 13:54:13.697010  1908 net.cpp:91] Creating Layer relu5
I0720 13:54:13.697017  1908 net.cpp:425] relu5 <- conv5
I0720 13:54:13.697016  1924 net.cpp:141] Setting up drop6
I0720 13:54:13.697024  1908 net.cpp:386] relu5 -> conv5 (in-place)
I0720 13:54:13.697033  1924 net.cpp:148] Top shape: 10 4096 (40960)
I0720 13:54:13.697043  1924 net.cpp:156] Memory required for data: 68109880
I0720 13:54:13.697057  1924 layer_factory.hpp:77] Creating layer fc7
I0720 13:54:13.697077  1924 net.cpp:91] Creating Layer fc7
I0720 13:54:13.697088  1924 net.cpp:425] fc7 <- fc6
I0720 13:54:13.697103  1924 net.cpp:399] fc7 -> fc7
I0720 13:54:13.706979  1884 net.cpp:141] Setting up fc7
I0720 13:54:13.707033  1884 net.cpp:148] Top shape: 10 4096 (40960)
I0720 13:54:13.707039  1884 net.cpp:156] Memory required for data: 68273720
I0720 13:54:13.707056  1884 layer_factory.hpp:77] Creating layer relu7
I0720 13:54:13.707072  1884 net.cpp:91] Creating Layer relu7
I0720 13:54:13.707079  1884 net.cpp:425] relu7 <- fc7
I0720 13:54:13.707090  1884 net.cpp:386] relu7 -> fc7 (in-place)
I0720 13:54:13.709887  1920 net.cpp:141] Setting up fc7
I0720 13:54:13.709956  1920 net.cpp:148] Top shape: 10 4096 (40960)
I0720 13:54:13.709966  1920 net.cpp:156] Memory required for data: 68273720
I0720 13:54:13.709990  1920 layer_factory.hpp:77] Creating layer relu7
I0720 13:54:13.710012  1920 net.cpp:91] Creating Layer relu7
I0720 13:54:13.710023  1920 net.cpp:425] relu7 <- fc7
I0720 13:54:13.710043  1920 net.cpp:386] relu7 -> fc7 (in-place)
I0720 13:54:13.710880  1908 net.cpp:141] Setting up relu5
I0720 13:54:13.710929  1908 net.cpp:148] Top shape: 10 256 13 13 (432640)
I0720 13:54:13.710929  1884 net.cpp:141] Setting up relu7
I0720 13:54:13.710937  1908 net.cpp:156] Memory required for data: 67249720
I0720 13:54:13.710952  1884 net.cpp:148] Top shape: 10 4096 (40960)
I0720 13:54:13.710957  1908 layer_factory.hpp:77] Creating layer pool5
I0720 13:54:13.710958  1884 net.cpp:156] Memory required for data: 68437560
I0720 13:54:13.710965  1884 layer_factory.hpp:77] Creating layer drop7
I0720 13:54:13.710979  1908 net.cpp:91] Creating Layer pool5
I0720 13:54:13.710980  1884 net.cpp:91] Creating Layer drop7
I0720 13:54:13.710988  1908 net.cpp:425] pool5 <- conv5
I0720 13:54:13.710988  1884 net.cpp:425] drop7 <- fc7
I0720 13:54:13.711004  1884 net.cpp:386] drop7 -> fc7 (in-place)
I0720 13:54:13.711004  1908 net.cpp:399] pool5 -> pool5
I0720 13:54:13.711024  1884 net.cpp:141] Setting up drop7
I0720 13:54:13.711027  1908 net.cpp:141] Setting up pool5
I0720 13:54:13.711030  1884 net.cpp:148] Top shape: 10 4096 (40960)
I0720 13:54:13.711035  1884 net.cpp:156] Memory required for data: 68601400
I0720 13:54:13.711036  1908 net.cpp:148] Top shape: 10 256 6 6 (92160)
I0720 13:54:13.711041  1908 net.cpp:156] Memory required for data: 67618360
I0720 13:54:13.711041  1884 layer_factory.hpp:77] Creating layer fc8
I0720 13:54:13.711048  1908 layer_factory.hpp:77] Creating layer fc6
I0720 13:54:13.711062  1884 net.cpp:91] Creating Layer fc8
I0720 13:54:13.711067  1908 net.cpp:91] Creating Layer fc6
I0720 13:54:13.711068  1884 net.cpp:425] fc8 <- fc7
I0720 13:54:13.711076  1908 net.cpp:425] fc6 <- pool5
I0720 13:54:13.711088  1908 net.cpp:399] fc6 -> fc6
I0720 13:54:13.711091  1884 net.cpp:399] fc8 -> fc8
I0720 13:54:13.711861  1918 net.cpp:141] Setting up conv5
I0720 13:54:13.711884  1918 net.cpp:148] Top shape: 10 256 13 13 (432640)
I0720 13:54:13.711889  1918 net.cpp:156] Memory required for data: 65519160
I0720 13:54:13.712409  1918 layer_factory.hpp:77] Creating layer relu5
I0720 13:54:13.712437  1918 net.cpp:91] Creating Layer relu5
I0720 13:54:13.712445  1918 net.cpp:425] relu5 <- conv5
I0720 13:54:13.712457  1918 net.cpp:386] relu5 -> conv5 (in-place)
I0720 13:54:13.714496  1926 net.cpp:141] Setting up fc7
I0720 13:54:13.714557  1926 net.cpp:148] Top shape: 10 4096 (40960)
I0720 13:54:13.714568  1926 net.cpp:156] Memory required for data: 68273720
I0720 13:54:13.714596  1926 layer_factory.hpp:77] Creating layer relu7
I0720 13:54:13.714622  1926 net.cpp:91] Creating Layer relu7
I0720 13:54:13.714634  1926 net.cpp:425] relu7 <- fc7
I0720 13:54:13.714650  1926 net.cpp:386] relu7 -> fc7 (in-place)
I0720 13:54:13.720134  1884 net.cpp:141] Setting up fc8
I0720 13:54:13.720181  1884 net.cpp:148] Top shape: 10 1000 (10000)
I0720 13:54:13.720187  1884 net.cpp:156] Memory required for data: 68641400
I0720 13:54:13.720202  1884 layer_factory.hpp:77] Creating layer prob
I0720 13:54:13.720217  1884 net.cpp:91] Creating Layer prob
I0720 13:54:13.720224  1884 net.cpp:425] prob <- fc8
I0720 13:54:13.720233  1884 net.cpp:399] prob -> prob
I0720 13:54:13.722878  1912 net.cpp:141] Setting up fc6
I0720 13:54:13.722941  1912 net.cpp:148] Top shape: 10 4096 (40960)
I0720 13:54:13.722950  1912 net.cpp:156] Memory required for data: 67782200
I0720 13:54:13.722968  1912 layer_factory.hpp:77] Creating layer relu6
I0720 13:54:13.722985  1912 net.cpp:91] Creating Layer relu6
I0720 13:54:13.722992  1912 net.cpp:425] relu6 <- fc6
I0720 13:54:13.723001  1912 net.cpp:386] relu6 -> fc6 (in-place)
I0720 13:54:13.723465  1926 net.cpp:141] Setting up relu7
I0720 13:54:13.723531  1926 net.cpp:148] Top shape: 10 4096 (40960)
I0720 13:54:13.723543  1926 net.cpp:156] Memory required for data: 68437560
I0720 13:54:13.723554  1926 layer_factory.hpp:77] Creating layer drop7
I0720 13:54:13.723572  1926 net.cpp:91] Creating Layer drop7
I0720 13:54:13.723579  1926 net.cpp:425] drop7 <- fc7
I0720 13:54:13.724530  1926 net.cpp:386] drop7 -> fc7 (in-place)
I0720 13:54:13.724599  1926 net.cpp:141] Setting up drop7
I0720 13:54:13.724630  1926 net.cpp:148] Top shape: 10 4096 (40960)
I0720 13:54:13.724642  1926 net.cpp:156] Memory required for data: 68601400
I0720 13:54:13.724649  1926 layer_factory.hpp:77] Creating layer fc8
I0720 13:54:13.724663  1926 net.cpp:91] Creating Layer fc8
I0720 13:54:13.724668  1926 net.cpp:425] fc8 <- fc7
I0720 13:54:13.725059  1926 net.cpp:399] fc8 -> fc8
I0720 13:54:13.725069  1914 net.cpp:141] Setting up conv5
I0720 13:54:13.725069  1920 net.cpp:141] Setting up relu7
I0720 13:54:13.725090  1914 net.cpp:148] Top shape: 10 256 13 13 (432640)
I0720 13:54:13.725096  1920 net.cpp:148] Top shape: 10 4096 (40960)
I0720 13:54:13.725096  1914 net.cpp:156] Memory required for data: 65519160
I0720 13:54:13.725105  1920 net.cpp:156] Memory required for data: 68437560
I0720 13:54:13.725111  1920 layer_factory.hpp:77] Creating layer drop7
I0720 13:54:13.725121  1920 net.cpp:91] Creating Layer drop7
I0720 13:54:13.725124  1914 layer_factory.hpp:77] Creating layer relu5
I0720 13:54:13.725128  1920 net.cpp:425] drop7 <- fc7
I0720 13:54:13.725136  1920 net.cpp:386] drop7 -> fc7 (in-place)
I0720 13:54:13.725138  1914 net.cpp:91] Creating Layer relu5
I0720 13:54:13.725147  1920 net.cpp:141] Setting up drop7
I0720 13:54:13.725148  1914 net.cpp:425] relu5 <- conv5
I0720 13:54:13.725153  1920 net.cpp:148] Top shape: 10 4096 (40960)
I0720 13:54:13.725158  1920 net.cpp:156] Memory required for data: 68601400
I0720 13:54:13.725160  1914 net.cpp:386] relu5 -> conv5 (in-place)
I0720 13:54:13.725163  1920 layer_factory.hpp:77] Creating layer fc8
I0720 13:54:13.725628  1920 net.cpp:91] Creating Layer fc8
I0720 13:54:13.725644  1920 net.cpp:425] fc8 <- fc7
I0720 13:54:13.725656  1920 net.cpp:399] fc8 -> fc8
I0720 13:54:13.734153  1912 net.cpp:141] Setting up relu6
I0720 13:54:13.734194  1920 net.cpp:141] Setting up fc8
I0720 13:54:13.734237  1912 net.cpp:148] Top shape: 10 4096 (40960)
I0720 13:54:13.734241  1906 net.cpp:141] Setting up conv5
I0720 13:54:13.734238  1920 net.cpp:148] Top shape: 10 1000 (10000)
I0720 13:54:13.734252  1912 net.cpp:156] Memory required for data: 67946040
I0720 13:54:13.734266  1920 net.cpp:156] Memory required for data: 68641400
I0720 13:54:13.734263  1906 net.cpp:148] Top shape: 10 256 13 13 (432640)
I0720 13:54:13.734279  1912 layer_factory.hpp:77] Creating layer drop6
I0720 13:54:13.734287  1920 layer_factory.hpp:77] Creating layer prob
I0720 13:54:13.734280  1906 net.cpp:156] Memory required for data: 65519160
I0720 13:54:13.734308  1920 net.cpp:91] Creating Layer prob
I0720 13:54:13.734308  1912 net.cpp:91] Creating Layer drop6
I0720 13:54:13.734323  1920 net.cpp:425] prob <- fc8
I0720 13:54:13.734328  1912 net.cpp:425] drop6 <- fc6
I0720 13:54:13.734783  1906 layer_factory.hpp:77] Creating layer relu5
I0720 13:54:13.734802  1906 net.cpp:91] Creating Layer relu5
I0720 13:54:13.734810  1906 net.cpp:425] relu5 <- conv5
I0720 13:54:13.734818  1920 net.cpp:399] prob -> prob
I0720 13:54:13.734822  1906 net.cpp:386] relu5 -> conv5 (in-place)
I0720 13:54:13.734817  1912 net.cpp:386] drop6 -> fc6 (in-place)
I0720 13:54:13.734921  1912 net.cpp:141] Setting up drop6
I0720 13:54:13.734937  1912 net.cpp:148] Top shape: 10 4096 (40960)
I0720 13:54:13.734947  1912 net.cpp:156] Memory required for data: 68109880
I0720 13:54:13.734957  1912 layer_factory.hpp:77] Creating layer fc7
I0720 13:54:13.734977  1912 net.cpp:91] Creating Layer fc7
I0720 13:54:13.734987  1912 net.cpp:425] fc7 <- fc6
I0720 13:54:13.735441  1912 net.cpp:399] fc7 -> fc7
I0720 13:54:13.735442  1918 net.cpp:141] Setting up relu5
I0720 13:54:13.735484  1918 net.cpp:148] Top shape: 10 256 13 13 (432640)
I0720 13:54:13.735491  1918 net.cpp:156] Memory required for data: 67249720
I0720 13:54:13.735499  1918 layer_factory.hpp:77] Creating layer pool5
I0720 13:54:13.735517  1918 net.cpp:91] Creating Layer pool5
I0720 13:54:13.735524  1918 net.cpp:425] pool5 <- conv5
I0720 13:54:13.736058  1918 net.cpp:399] pool5 -> pool5
I0720 13:54:13.736068  1902 net.cpp:141] Setting up conv5
I0720 13:54:13.736091  1918 net.cpp:141] Setting up pool5
I0720 13:54:13.736100  1918 net.cpp:148] Top shape: 10 256 6 6 (92160)
I0720 13:54:13.736102  1902 net.cpp:148] Top shape: 10 256 13 13 (432640)
I0720 13:54:13.736135  1902 net.cpp:156] Memory required for data: 65519160
I0720 13:54:13.736105  1918 net.cpp:156] Memory required for data: 67618360
I0720 13:54:13.736169  1902 layer_factory.hpp:77] Creating layer relu5
I0720 13:54:13.736173  1918 layer_factory.hpp:77] Creating layer fc6
I0720 13:54:13.736201  1918 net.cpp:91] Creating Layer fc6
I0720 13:54:13.736207  1918 net.cpp:425] fc6 <- pool5
I0720 13:54:13.736214  1918 net.cpp:399] fc6 -> fc6
I0720 13:54:13.736695  1902 net.cpp:91] Creating Layer relu5
I0720 13:54:13.736713  1902 net.cpp:425] relu5 <- conv5
I0720 13:54:13.736732  1902 net.cpp:386] relu5 -> conv5 (in-place)
I0720 13:54:13.739795  1906 net.cpp:141] Setting up relu5
I0720 13:54:13.739846  1906 net.cpp:148] Top shape: 10 256 13 13 (432640)
I0720 13:54:13.739852  1906 net.cpp:156] Memory required for data: 67249720
I0720 13:54:13.739862  1906 layer_factory.hpp:77] Creating layer pool5
I0720 13:54:13.739882  1906 net.cpp:91] Creating Layer pool5
I0720 13:54:13.739889  1906 net.cpp:425] pool5 <- conv5
I0720 13:54:13.740329  1906 net.cpp:399] pool5 -> pool5
I0720 13:54:13.740334  1924 net.cpp:141] Setting up fc7
I0720 13:54:13.740357  1906 net.cpp:141] Setting up pool5
I0720 13:54:13.740378  1906 net.cpp:148] Top shape: 10 256 6 6 (92160)
I0720 13:54:13.740381  1924 net.cpp:148] Top shape: 10 4096 (40960)
I0720 13:54:13.740383  1906 net.cpp:156] Memory required for data: 67618360
I0720 13:54:13.740388  1924 net.cpp:156] Memory required for data: 68273720
I0720 13:54:13.740389  1906 layer_factory.hpp:77] Creating layer fc6
I0720 13:54:13.740406  1924 layer_factory.hpp:77] Creating layer relu7
I0720 13:54:13.740411  1906 net.cpp:91] Creating Layer fc6
I0720 13:54:13.740417  1906 net.cpp:425] fc6 <- pool5
I0720 13:54:13.740422  1924 net.cpp:91] Creating Layer relu7
I0720 13:54:13.740914  1926 net.cpp:141] Setting up fc8
I0720 13:54:13.740909  1906 net.cpp:399] fc6 -> fc6
I0720 13:54:13.740931  1924 net.cpp:425] relu7 <- fc7
I0720 13:54:13.740933  1926 net.cpp:148] Top shape: 10 1000 (10000)
I0720 13:54:13.740949  1926 net.cpp:156] Memory required for data: 68641400
I0720 13:54:13.740952  1924 net.cpp:386] relu7 -> fc7 (in-place)
I0720 13:54:13.740967  1926 layer_factory.hpp:77] Creating layer prob
I0720 13:54:13.741652  1926 net.cpp:91] Creating Layer prob
I0720 13:54:13.741674  1926 net.cpp:425] prob <- fc8
I0720 13:54:13.741691  1926 net.cpp:399] prob -> prob
I0720 13:54:13.744618  1914 net.cpp:141] Setting up relu5
I0720 13:54:13.744669  1914 net.cpp:148] Top shape: 10 256 13 13 (432640)
I0720 13:54:13.744676  1914 net.cpp:156] Memory required for data: 67249720
I0720 13:54:13.744688  1914 layer_factory.hpp:77] Creating layer pool5
I0720 13:54:13.744709  1914 net.cpp:91] Creating Layer pool5
I0720 13:54:13.744717  1914 net.cpp:425] pool5 <- conv5
I0720 13:54:13.744729  1914 net.cpp:399] pool5 -> pool5
I0720 13:54:13.744750  1914 net.cpp:141] Setting up pool5
I0720 13:54:13.744756  1914 net.cpp:148] Top shape: 10 256 6 6 (92160)
I0720 13:54:13.744760  1914 net.cpp:156] Memory required for data: 67618360
I0720 13:54:13.744765  1914 layer_factory.hpp:77] Creating layer fc6
I0720 13:54:13.745242  1914 net.cpp:91] Creating Layer fc6
I0720 13:54:13.745252  1914 net.cpp:425] fc6 <- pool5
I0720 13:54:13.745260  1914 net.cpp:399] fc6 -> fc6
I0720 13:54:13.746925  1924 net.cpp:141] Setting up relu7
I0720 13:54:13.746925  1884 net.cpp:141] Setting up prob
I0720 13:54:13.746963  1924 net.cpp:148] Top shape: 10 4096 (40960)
I0720 13:54:13.746968  1884 net.cpp:148] Top shape: 10 1000 (10000)
I0720 13:54:13.746974  1884 net.cpp:156] Memory required for data: 68681400
I0720 13:54:13.746974  1924 net.cpp:156] Memory required for data: 68437560
I0720 13:54:13.746983  1884 net.cpp:219] prob does not need backward computation.
I0720 13:54:13.746989  1884 net.cpp:219] fc8 does not need backward computation.
I0720 13:54:13.746986  1924 layer_factory.hpp:77] Creating layer drop7
…
I0720 13:54:13.801481  1912 net.cpp:219] norm1 does not need backward computation.
I0720 13:54:13.801491  1912 net.cpp:219] pool1 does not need backward computation.
I0720 13:54:13.801499  1912 net.cpp:219] relu1 does not need backward computation.
I0720 13:54:13.801507  1912 net.cpp:219] conv1 does not need backward computation.
I0720 13:54:13.801517  1912 net.cpp:219] data does not need backward computation.
I0720 13:54:13.801524  1912 net.cpp:261] This network produces output prob
I0720 13:54:13.801555  1912 net.cpp:274] Network initialization done.
I0720 13:54:13.814378  1908 net.cpp:141] Setting up fc6
I0720 13:54:13.814470  1908 net.cpp:148] Top shape: 10 4096 (40960)
I0720 13:54:13.814482  1908 net.cpp:156] Memory required for data: 67782200
I0720 13:54:13.814514  1908 layer_factory.hpp:77] Creating layer relu6
I0720 13:54:13.814543  1908 net.cpp:91] Creating Layer relu6
I0720 13:54:13.814558  1908 net.cpp:425] relu6 <- fc6
I0720 13:54:13.814574  1908 net.cpp:386] relu6 -> fc6 (in-place)
I0720 13:54:13.820461  1908 net.cpp:141] Setting up relu6
I0720 13:54:13.820523  1908 net.cpp:148] Top shape: 10 4096 (40960)
I0720 13:54:13.820534  1908 net.cpp:156] Memory required for data: 67946040
I0720 13:54:13.820552  1908 layer_factory.hpp:77] Creating layer drop6
I0720 13:54:13.820581  1908 net.cpp:91] Creating Layer drop6
I0720 13:54:13.820595  1908 net.cpp:425] drop6 <- fc6
I0720 13:54:13.820614  1908 net.cpp:386] drop6 -> fc6 (in-place)
I0720 13:54:13.820642  1908 net.cpp:141] Setting up drop6
I0720 13:54:13.820657  1908 net.cpp:148] Top shape: 10 4096 (40960)
I0720 13:54:13.820665  1908 net.cpp:156] Memory required for data: 68109880
I0720 13:54:13.820675  1908 layer_factory.hpp:77] Creating layer fc7
I0720 13:54:13.821157  1908 net.cpp:91] Creating Layer fc7
I0720 13:54:13.821183  1908 net.cpp:425] fc7 <- fc6
I0720 13:54:13.821203  1908 net.cpp:399] fc7 -> fc7
I0720 13:54:13.825146  1918 net.cpp:141] Setting up fc6
I0720 13:54:13.825201  1918 net.cpp:148] Top shape: 10 4096 (40960)
I0720 13:54:13.825208  1918 net.cpp:156] Memory required for data: 67782200
I0720 13:54:13.825225  1918 layer_factory.hpp:77] Creating layer relu6
I0720 13:54:13.825242  1918 net.cpp:91] Creating Layer relu6
I0720 13:54:13.825249  1918 net.cpp:425] relu6 <- fc6
I0720 13:54:13.825696  1906 net.cpp:141] Setting up fc6
I0720 13:54:13.825716  1918 net.cpp:386] relu6 -> fc6 (in-place)
I0720 13:54:13.825758  1906 net.cpp:148] Top shape: 10 4096 (40960)
I0720 13:54:13.825768  1906 net.cpp:156] Memory required for data: 67782200
I0720 13:54:13.825789  1906 layer_factory.hpp:77] Creating layer relu6
I0720 13:54:13.825809  1906 net.cpp:91] Creating Layer relu6
I0720 13:54:13.825819  1906 net.cpp:425] relu6 <- fc6
I0720 13:54:13.825831  1906 net.cpp:386] relu6 -> fc6 (in-place)
I0720 13:54:13.831208  1906 net.cpp:141] Setting up relu6
I0720 13:54:13.831265  1906 net.cpp:148] Top shape: 10 4096 (40960)
I0720 13:54:13.831275  1906 net.cpp:156] Memory required for data: 67946040
I0720 13:54:13.831290  1906 layer_factory.hpp:77] Creating layer drop6
I0720 13:54:13.831315  1906 net.cpp:91] Creating Layer drop6
I0720 13:54:13.831324  1906 net.cpp:425] drop6 <- fc6
I0720 13:54:13.831779  1906 net.cpp:386] drop6 -> fc6 (in-place)
I0720 13:54:13.831792  1918 net.cpp:141] Setting up relu6
I0720 13:54:13.831816  1906 net.cpp:141] Setting up drop6
I0720 13:54:13.831837  1918 net.cpp:148] Top shape: 10 4096 (40960)
I0720 13:54:13.831838  1906 net.cpp:148] Top shape: 10 4096 (40960)
I0720 13:54:13.831845  1918 net.cpp:156] Memory required for data: 67946040
I0720 13:54:13.831850  1906 net.cpp:156] Memory required for data: 68109880
I0720 13:54:13.831854  1918 layer_factory.hpp:77] Creating layer drop6
I0720 13:54:13.831861  1906 layer_factory.hpp:77] Creating layer fc7
I0720 13:54:13.831881  1906 net.cpp:91] Creating Layer fc7
I0720 13:54:13.831892  1906 net.cpp:425] fc7 <- fc6
I0720 13:54:13.832617  1918 net.cpp:91] Creating Layer drop6
I0720 13:54:13.832634  1906 net.cpp:399] fc7 -> fc7
I0720 13:54:13.832648  1918 net.cpp:425] drop6 <- fc6
I0720 13:54:13.832667  1918 net.cpp:386] drop6 -> fc6 (in-place)
I0720 13:54:13.832691  1918 net.cpp:141] Setting up drop6
I0720 13:54:13.833187  1918 net.cpp:148] Top shape: 10 4096 (40960)
I0720 13:54:13.833204  1918 net.cpp:156] Memory required for data: 68109880
I0720 13:54:13.833215  1918 layer_factory.hpp:77] Creating layer fc7
I0720 13:54:13.833235  1918 net.cpp:91] Creating Layer fc7
I0720 13:54:13.833243  1918 net.cpp:425] fc7 <- fc6
I0720 13:54:13.833256  1918 net.cpp:399] fc7 -> fc7
I0720 13:54:13.849155  1914 net.cpp:141] Setting up fc6
I0720 13:54:13.849228  1914 net.cpp:148] Top shape: 10 4096 (40960)
I0720 13:54:13.849239  1914 net.cpp:156] Memory required for data: 67782200
I0720 13:54:13.849264  1914 layer_factory.hpp:77] Creating layer relu6
I0720 13:54:13.849288  1914 net.cpp:91] Creating Layer relu6
I0720 13:54:13.849298  1914 net.cpp:425] relu6 <- fc6
I0720 13:54:13.849886  1914 net.cpp:386] relu6 -> fc6 (in-place)
I0720 13:54:13.851186  1914 net.cpp:141] Setting up relu6
I0720 13:54:13.851232  1914 net.cpp:148] Top shape: 10 4096 (40960)
I0720 13:54:13.851244  1914 net.cpp:156] Memory required for data: 67946040
I0720 13:54:13.851259  1914 layer_factory.hpp:77] Creating layer drop6
I0720 13:54:13.851284  1914 net.cpp:91] Creating Layer drop6
I0720 13:54:13.851296  1914 net.cpp:425] drop6 <- fc6
I0720 13:54:13.851315  1914 net.cpp:386] drop6 -> fc6 (in-place)
I0720 13:54:13.851339  1914 net.cpp:141] Setting up drop6
I0720 13:54:13.851354  1914 net.cpp:148] Top shape: 10 4096 (40960)
I0720 13:54:13.851364  1914 net.cpp:156] Memory required for data: 68109880
I0720 13:54:13.851374  1914 layer_factory.hpp:77] Creating layer fc7
I0720 13:54:13.851868  1914 net.cpp:91] Creating Layer fc7
I0720 13:54:13.851889  1914 net.cpp:425] fc7 <- fc6
I0720 13:54:13.851907  1914 net.cpp:399] fc7 -> fc7
I0720 13:54:13.865857  1906 net.cpp:141] Setting up fc7
I0720 13:54:13.865936  1906 net.cpp:148] Top shape: 10 4096 (40960)
I0720 13:54:13.865942  1906 net.cpp:156] Memory required for data: 68273720
I0720 13:54:13.865962  1906 layer_factory.hpp:77] Creating layer relu7
I0720 13:54:13.866420  1906 net.cpp:91] Creating Layer relu7
I0720 13:54:13.866446  1906 net.cpp:425] relu7 <- fc7
I0720 13:54:13.866462  1906 net.cpp:386] relu7 -> fc7 (in-place)
I0720 13:54:13.872134  1906 net.cpp:141] Setting up relu7
I0720 13:54:13.872225  1906 net.cpp:148] Top shape: 10 4096 (40960)
I0720 13:54:13.872231  1906 net.cpp:156] Memory required for data: 68437560
I0720 13:54:13.872246  1906 layer_factory.hpp:77] Creating layer drop7
I0720 13:54:13.872647  1906 net.cpp:91] Creating Layer drop7
I0720 13:54:13.872666  1906 net.cpp:425] drop7 <- fc7
I0720 13:54:13.872684  1906 net.cpp:386] drop7 -> fc7 (in-place)
I0720 13:54:13.872710  1906 net.cpp:141] Setting up drop7
I0720 13:54:13.872720  1906 net.cpp:148] Top shape: 10 4096 (40960)
I0720 13:54:13.872725  1906 net.cpp:156] Memory required for data: 68601400
I0720 13:54:13.872730  1906 layer_factory.hpp:77] Creating layer fc8
I0720 13:54:13.872745  1906 net.cpp:91] Creating Layer fc8
I0720 13:54:13.872748  1906 net.cpp:425] fc8 <- fc7
I0720 13:54:13.872756  1906 net.cpp:399] fc8 -> fc8
I0720 13:54:13.873396  1918 net.cpp:141] Setting up fc7
I0720 13:54:13.873471  1918 net.cpp:148] Top shape: 10 4096 (40960)
I0720 13:54:13.873477  1918 net.cpp:156] Memory required for data: 68273720
I0720 13:54:13.873499  1918 layer_factory.hpp:77] Creating layer relu7
I0720 13:54:13.873522  1918 net.cpp:91] Creating Layer relu7
I0720 13:54:13.873531  1918 net.cpp:425] relu7 <- fc7
I0720 13:54:13.873548  1918 net.cpp:386] relu7 -> fc7 (in-place)
I0720 13:54:13.875244  1918 net.cpp:141] Setting up relu7
I0720 13:54:13.875322  1918 net.cpp:148] Top shape: 10 4096 (40960)
I0720 13:54:13.875330  1918 net.cpp:156] Memory required for data: 68437560
I0720 13:54:13.875344  1918 layer_factory.hpp:77] Creating layer drop7
I0720 13:54:13.875844  1918 net.cpp:91] Creating Layer drop7
I0720 13:54:13.875866  1918 net.cpp:425] drop7 <- fc7
I0720 13:54:13.875882  1918 net.cpp:386] drop7 -> fc7 (in-place)
I0720 13:54:13.875905  1918 net.cpp:141] Setting up drop7
I0720 13:54:13.876363  1908 net.cpp:141] Setting up fc7
I0720 13:54:13.876387  1908 net.cpp:148] Top shape: 10 4096 (40960)
I0720 13:54:13.876392  1908 net.cpp:156] Memory required for data: 68273720
I0720 13:54:13.876391  1918 net.cpp:148] Top shape: 10 4096 (40960)
I0720 13:54:13.876410  1918 net.cpp:156] Memory required for data: 68601400
I0720 13:54:13.876412  1908 layer_factory.hpp:77] Creating layer relu7
I0720 13:54:13.876416  1918 layer_factory.hpp:77] Creating layer fc8
I0720 13:54:13.876426  1908 net.cpp:91] Creating Layer relu7
I0720 13:54:13.876431  1918 net.cpp:91] Creating Layer fc8
I0720 13:54:13.876433  1908 net.cpp:425] relu7 <- fc7
I0720 13:54:13.876438  1918 net.cpp:425] fc8 <- fc7
I0720 13:54:13.876448  1918 net.cpp:399] fc8 -> fc8
I0720 13:54:13.876967  1908 net.cpp:386] relu7 -> fc7 (in-place)
I0720 13:54:13.877535  1902 net.cpp:141] Setting up fc6
I0720 13:54:13.877589  1902 net.cpp:148] Top shape: 10 4096 (40960)
I0720 13:54:13.877609  1902 net.cpp:156] Memory required for data: 67782200
I0720 13:54:13.877650  1902 layer_factory.hpp:77] Creating layer relu6
I0720 13:54:13.878155  1902 net.cpp:91] Creating Layer relu6
I0720 13:54:13.878186  1902 net.cpp:425] relu6 <- fc6
I0720 13:54:13.878217  1902 net.cpp:386] relu6 -> fc6 (in-place)
I0720 13:54:13.883072  1908 net.cpp:141] Setting up relu7
I0720 13:54:13.883141  1908 net.cpp:148] Top shape: 10 4096 (40960)
I0720 13:54:13.883149  1908 net.cpp:156] Memory required for data: 68437560
I0720 13:54:13.883164  1908 layer_factory.hpp:77] Creating layer drop7
I0720 13:54:13.883635  1908 net.cpp:91] Creating Layer drop7
I0720 13:54:13.883642  1906 net.cpp:141] Setting up fc8
I0720 13:54:13.883659  1908 net.cpp:425] drop7 <- fc7
I0720 13:54:13.883700  1906 net.cpp:148] Top shape: 10 1000 (10000)
I0720 13:54:13.883708  1906 net.cpp:156] Memory required for data: 68641400
I0720 13:54:13.883710  1908 net.cpp:386] drop7 -> fc7 (in-place)
I0720 13:54:13.883728  1906 layer_factory.hpp:77] Creating layer prob
I0720 13:54:13.883746  1906 net.cpp:91] Creating Layer prob
I0720 13:54:13.883746  1908 net.cpp:141] Setting up drop7
I0720 13:54:13.883754  1906 net.cpp:425] prob <- fc8
I0720 13:54:13.883765  1908 net.cpp:148] Top shape: 10 4096 (40960)
I0720 13:54:13.883770  1906 net.cpp:399] prob -> prob
I0720 13:54:13.883774  1908 net.cpp:156] Memory required for data: 68601400
I0720 13:54:13.883786  1908 layer_factory.hpp:77] Creating layer fc8
I0720 13:54:13.883811  1908 net.cpp:91] Creating Layer fc8
I0720 13:54:13.883823  1908 net.cpp:425] fc8 <- fc7
I0720 13:54:13.883837  1908 net.cpp:399] fc8 -> fc8
I0720 13:54:13.888375  1918 net.cpp:141] Setting up fc8
I0720 13:54:13.888444  1918 net.cpp:148] Top shape: 10 1000 (10000)
I0720 13:54:13.888450  1918 net.cpp:156] Memory required for data: 68641400
I0720 13:54:13.888469  1918 layer_factory.hpp:77] Creating layer prob
I0720 13:54:13.888489  1918 net.cpp:91] Creating Layer prob
I0720 13:54:13.888497  1918 net.cpp:425] prob <- fc8
I0720 13:54:13.888514  1918 net.cpp:399] prob -> prob
I0720 13:54:13.889170  1906 net.cpp:141] Setting up prob
I0720 13:54:13.889216  1906 net.cpp:148] Top shape: 10 1000 (10000)
I0720 13:54:13.889222  1906 net.cpp:156] Memory required for data: 68681400
I0720 13:54:13.889231  1906 net.cpp:219] prob does not need backward computation.
I0720 13:54:13.889238  1906 net.cpp:219] fc8 does not need backward computation.
I0720 13:54:13.889245  1906 net.cpp:219] drop7 does not need backward computation.
I0720 13:54:13.889248  1906 net.cpp:219] relu7 does not need backward computation.
I0720 13:54:13.889252  1906 net.cpp:219] fc7 does not need backward computation.
I0720 13:54:13.889257  1906 net.cpp:219] drop6 does not need backward computation.
I0720 13:54:13.889261  1906 net.cpp:219] relu6 does not need backward computation.
I0720 13:54:13.889258  1914 net.cpp:141] Setting up fc7
I0720 13:54:13.889266  1906 net.cpp:219] fc6 does not need backward computation.
I0720 13:54:13.889281  1906 net.cpp:219] pool5 does not need backward computation.
I0720 13:54:13.889283  1914 net.cpp:148] Top shape: 10 4096 (40960)
I0720 13:54:13.889286  1906 net.cpp:219] relu5 does not need backward computation.
I0720 13:54:13.889294  1914 net.cpp:156] Memory required for data: 68273720
I0720 13:54:13.889297  1906 net.cpp:219] conv5 does not need backward computation.
I0720 13:54:13.889308  1906 net.cpp:219] relu4 does not need backward computation.
I0720 13:54:13.889313  1906 net.cpp:219] conv4 does not need backward computation.
…
I0720 13:54:13.890746  1918 net.cpp:219] pool1 does not need backward computation.
I0720 13:54:13.890751  1918 net.cpp:219] relu1 does not need backward computation.
I0720 13:54:13.890756  1918 net.cpp:219] conv1 does not need backward computation.
I0720 13:54:13.890760  1918 net.cpp:219] data does not need backward computation.
I0720 13:54:13.890759  1902 net.cpp:386] drop6 -> fc6 (in-place)
I0720 13:54:13.890775  1918 net.cpp:261] This network produces output prob
I0720 13:54:13.890806  1918 net.cpp:274] Network initialization done.
I0720 13:54:13.890810  1902 net.cpp:141] Setting up drop6
I0720 13:54:13.890833  1902 net.cpp:148] Top shape: 10 4096 (40960)
I0720 13:54:13.890848  1902 net.cpp:156] Memory required for data: 68109880
I0720 13:54:13.890863  1902 layer_factory.hpp:77] Creating layer fc7
I0720 13:54:13.890889  1902 net.cpp:91] Creating Layer fc7
I0720 13:54:13.890905  1902 net.cpp:425] fc7 <- fc6
I0720 13:54:13.890935  1902 net.cpp:399] fc7 -> fc7
I0720 13:54:13.894727  1914 net.cpp:141] Setting up relu7
I0720 13:54:13.894788  1914 net.cpp:148] Top shape: 10 4096 (40960)
I0720 13:54:13.894795  1914 net.cpp:156] Memory required for data: 68437560
I0720 13:54:13.894810  1914 layer_factory.hpp:77] Creating layer drop7
I0720 13:54:13.894839  1914 net.cpp:91] Creating Layer drop7
I0720 13:54:13.894848  1914 net.cpp:425] drop7 <- fc7
I0720 13:54:13.894884  1914 net.cpp:386] drop7 -> fc7 (in-place)
I0720 13:54:13.894914  1914 net.cpp:141] Setting up drop7
I0720 13:54:13.894924  1914 net.cpp:148] Top shape: 10 4096 (40960)
I0720 13:54:13.894932  1914 net.cpp:156] Memory required for data: 68601400
I0720 13:54:13.894938  1914 layer_factory.hpp:77] Creating layer fc8
I0720 13:54:13.894953  1914 net.cpp:91] Creating Layer fc8
I0720 13:54:13.894961  1914 net.cpp:425] fc8 <- fc7
I0720 13:54:13.894975  1914 net.cpp:399] fc8 -> fc8
I0720 13:54:13.896574  1908 net.cpp:141] Setting up fc8
I0720 13:54:13.896641  1908 net.cpp:148] Top shape: 10 1000 (10000)
I0720 13:54:13.896653  1908 net.cpp:156] Memory required for data: 68641400
I0720 13:54:13.896682  1908 layer_factory.hpp:77] Creating layer prob
I0720 13:54:13.897485  1908 net.cpp:91] Creating Layer prob
I0720 13:54:13.897524  1908 net.cpp:425] prob <- fc8
I0720 13:54:13.897560  1908 net.cpp:399] prob -> prob
I0720 13:54:13.901127  1908 net.cpp:141] Setting up prob
I0720 13:54:13.901912  1908 net.cpp:148] Top shape: 10 1000 (10000)
I0720 13:54:13.901940  1908 net.cpp:156] Memory required for data: 68681400
I0720 13:54:13.901957  1908 net.cpp:219] prob does not need backward computation.
I0720 13:54:13.901970  1908 net.cpp:219] fc8 does not need backward computation.
I0720 13:54:13.901980  1908 net.cpp:219] drop7 does not need backward computation.
I0720 13:54:13.901990  1908 net.cpp:219] relu7 does not need backward computation.
…
