…
Java HotSpot(TM) 64-Bit Server VM warning: You have loaded library /tmp/cvld5755750553229570988/libopencv_java310.xine1.so which might have disabled stack guard. The VM will try to fix the stack guard now.
It's highly recommended that you fix the library with 'execstack -c <libfile>', or link it with '-z noexecstack'.
WARNING: Logging before InitGoogleLogging() is written to STDERR
I0714 21:23:41.213490 26469 net.cpp:49] Initializing net from parameters: 
name: "GoogleNet"
state {
  phase: TEST
}
layer {
  name: "data"
  type: "Input"
  top: "data"
  input_param {
    shape {
      dim: 10
      dim: 3
      dim: 224
      dim: 224
    }
  }
}
layer {
  name: "conv1/7x7_s2"
  type: "Convolution"
  bottom: "data"
  top: "conv1/7x7_s2"
  param {
    lr_mult: 1
    decay_mult: 1
  }
  param {
    lr_mult: 2
    decay_mult: 0
  }
  convolution_param {
    num_output: 64
    pad: 3
    kernel_size: 7
    stride: 2
    weight_filler {
      type: "xavier"
      std: 0.1
    }
    bias_filler {
      type: "constant"
      value: 0.2
    }
  }
}
layer {
  name: "conv1/relu_7x7"
  type: "ReLU"
  bottom: "conv1/7x7_s2"
  top: "conv1/7x7_s2"
}
layer {
  name: "pool1/3x3_s2"
  type: "Pooling"
  bottom: "conv1/7x7_s2"
  top: "pool1/3x3_s2"
  pooling_param {
    pool: MAX
    kernel_size: 3
    stride: 2
  }
}
layer {
  name: "pool1/norm1"
  type: "LRN"
  bottom: "pool1/3x3_s2"
  top: "pool1/norm1"
  lrn_param {
    local_size: 5
    alpha: 0.0001
    beta: 0.75
  }
}
layer {
  name: "conv2/3x3_reduce"
  type: "Convolution"
  bottom: "pool1/norm1"
  top: "conv2/3x3_reduce"
  param {
    lr_mult: 1
    decay_mult: 1
  }
  param {
    lr_mult: 2
    decay_mult: 0
  }
  convolution_param {
    num_output: 64
    kernel_size: 1
    weight_filler {
      type: "xavier"
      std: 0.1
    }
    bias_filler {
      type: "constant"
      value: 0.2
    }
  }
}
layer {
  name: "conv2/relu_3x3_reduce"
  type: "ReLU"
  bottom: "conv2/3x3_reduce"
  top: "conv2/3x3_reduce"
}
layer {
  name: "conv2/3x3"
  type: "Convolution"
  bottom: "conv2/3x3_reduce"
  top: "conv2/3x3"
  param {
    lr_mult: 1
    decay_mult: 1
  }
  param {
    lr_mult: 2
    decay_mult: 0
  }
  convolution_param {
    num_output: 192
    pad: 1
    kernel_size: 3
    weight_filler {
      type: "xavier"
      std: 0.03
    }
    bias_filler {
      type: "constant"
      value: 0.2
    }
  }
}
layer {
  name: "conv2/relu_3x3"
  type: "ReLU"
  bottom: "conv2/3x3"
  top: "conv2/3x3"
}
layer {
  name: "conv2/norm2"
  type: "LRN"
  bottom: "conv2/3x3"
  top: "conv2/norm2"
  lrn_param {
    local_size: 5
    alpha: 0.0001
    beta: 0.75
  }
}
layer {
  name: "pool2/3x3_s2"
  type: "Pooling"
  bottom: "conv2/norm2"
  top: "pool2/3x3_s2"
  pooling_param {
    pool: MAX
    kernel_size: 3
    stride: 2
  }
}
layer {
  name: "inception_3a/1x1"
  type: "Convolution"
  bottom: "pool2/3x3_s2"
  top: "inception_3a/1x1"
  param {
    lr_mult: 1
    decay_mult: 1
  }
  param {
    lr_mult: 2
    decay_mult: 0
  }
  convolution_param {
    num_output: 64
    kernel_size: 1
    weight_filler {
      type: "xavier"
      std: 0.03
    }
    bias_filler {
      type: "constant"
      value: 0.2
    }
  }
}
layer {
  name: "inception_3a/relu_1x1"
  type: "ReLU"
  bottom: "inception_3a/1x1"
  top: "inception_3a/1x1"
}
layer {
  name: "inception_3a/3x3_reduce"
  type: "Convolution"
  bottom: "pool2/3x3_s2"
  top: "inception_3a/3x3_reduce"
  param {
    lr_mult: 1
    decay_mult: 1
  }
  param {
    lr_mult: 2
    decay_mult: 0
  }
  convolution_param {
    num_output: 96
    kernel_size: 1
    weight_filler {
      type: "xavier"
      std: 0.09
    }
    bias_filler {
      type: "constant"
      value: 0.2
    }
  }
}
layer {
  name: "inception_3a/relu_3x3_reduce"
  type: "ReLU"
  bottom: "inception_3a/3x3_reduce"
  top: "inception_3a/3x3_reduce"
}
layer {
  name: "inception_3a/3x3"
  type: "Convolution"
  bottom: "inception_3a/3x3_reduce"
  top: "inception_3a/3x3"
  param {
    lr_mult: 1
    decay_mult: 1
  }
  param {
    lr_mult: 2
    decay_mult: 0
  }
  convolution_param {
    num_output: 128
    pad: 1
    kernel_size: 3
    weight_filler {
      type: "xavier"
      std: 0.03
    }
    bias_filler {
      type: "constant"
      value: 0.2
    }
  }
}
layer {
  name: "inception_3a/relu_3x3"
  type: "ReLU"
  bottom: "inception_3a/3x3"
  top: "inception_3a/3x3"
}
layer {
  name: "inception_3a/5x5_reduce"
  type: "Convolution"
  bottom: "pool2/3x3_s2"
  top: "inception_3a/5x5_reduce"
  param {
    lr_mult: 1
    decay_mult: 1
  }
  param {
    lr_mult: 2
    decay_mult: 0
  }
  convolution_param {
    num_output: 16
    kernel_size: 1
    weight_filler {
      type: "xavier"
      std: 0.2
    }
    bias_filler {
      type: "constant"
      value: 0.2
    }
  }
}
layer {
  name: "inception_3a/relu_5x5_reduce"
  type: "ReLU"
  bottom: "inception_3a/5x5_reduce"
  top: "inception_3a/5x5_reduce"
}
layer {
  name: "inception_3a/5x5"
  type: "Convolution"
  bottom: "inception_3a/5x5_reduce"
  top: "inception_3a/5x5"
  param {
    lr_mult: 1
    decay_mult: 1
  }
  param {
    lr_mult: 2
    decay_mult: 0
  }
  convolution_param {
    num_output: 32
    pad: 2
    kernel_size: 5
    weight_filler {
      type: "xavier"
      std: 0.03
    }
    bias_filler {
      type: "constant"
      value: 0.2
    }
  }
}
layer {
  name: "inception_3a/relu_5x5"
  type: "ReLU"
  bottom: "inception_3a/5x5"
  top: "inception_3a/5x5"
}
layer {
  name: "inception_3a/pool"
  type: "Pooling"
  bottom: "pool2/3x3_s2"
  top: "inception_3a/pool"
  pooling_param {
    pool: MAX
    kernel_size: 3
    stride: 1
    pad: 1
  }
}
layer {
  name: "inception_3a/pool_proj"
  type: "Convolution"
  bottom: "inception_3a/pool"
  top: "inception_3a/pool_proj"
  param {
    lr_mult: 1
    decay_mult: 1
  }
  param {
    lr_mult: 2
    decay_mult: 0
  }
  convolution_param {
    num_output: 32
    kernel_size: 1
    weight_filler {
      type: "xavier"
      std: 0.1
    }
    bias_filler {
      type: "constant"
      value: 0.2
    }
  }
}
layer {
  name: "inception_3a/relu_pool_proj"
  type: "ReLU"
  bottom: "inception_3a/pool_proj"
  top: "inception_3a/pool_proj"
}
layer {
  name: "inception_3a/output"
  type: "Concat"
  bottom: "inception_3a/1x1"
  bottom: "inception_3a/3x3"
  bottom: "inception_3a/5x5"
  bottom: "inception_3a/pool_proj"
  top: "inception_3a/output"
}
layer {
  name: "inception_3b/1x1"
  type: "Convolution"
  bottom: "inception_3a/output"
  top: "inception_3b/1x1"
  param {
    lr_mult: 1
    decay_mult: 1
  }
  param {
    lr_mult: 2
    decay_mult: 0
  }
  convolution_param {
    num_output: 128
    kernel_size: 1
    weight_filler {
      type: "xavier"
      std: 0.03
    }
    bias_filler {
      type: "constant"
      value: 0.2
    }
  }
}
layer {
  name: "inception_3b/relu_1x1"
  type: "ReLU"
  bottom: "inception_3b/1x1"
  top: "inception_3b/1x1"
}
layer {
  name: "inception_3b/3x3_reduce"
  type: "Convolution"
  bottom: "inception_3a/output"
  top: "inception_3b/3x3_reduce"
  param {
    lr_mult: 1
    decay_mult: 1
  }
  param {
    lr_mult: 2
    decay_mult: 0
  }
  convolution_param {
    num_output: 128
    kernel_size: 1
    weight_filler {
      type: "xavier"
      std: 0.09
    }
    bias_filler {
      type: "constant"
      value: 0.2
    }
  }
}
layer {
  name: "inception_3b/relu_3x3_reduce"
  type: "ReLU"
  bottom: "inception_3b/3x3_reduce"
  top: "inception_3b/3x3_reduce"
}
layer {
  name: "inception_3b/3x3"
  type: "Convolution"
  bottom: "inception_3b/3x3_reduce"
  top: "inception_3b/3x3"
  param {
    lr_mult: 1
    decay_mult: 1
  }
  param {
    lr_mult: 2
    decay_mult: 0
  }
  convolution_param {
    num_output: 192
    pad: 1
    kernel_size: 3
    weight_filler {
      type: "xavier"
      std: 0.03
    }
    bias_filler {
      type: "constant"
      value: 0.2
    }
  }
}
layer {
  name: "inception_3b/relu_3x3"
  type: "ReLU"
  bottom: "inception_3b/3x3"
  top: "inception_3b/3x3"
}
layer {
  name: "inception_3b/5x5_reduce"
  type: "Convolution"
  bottom: "inception_3a/output"
  top: "inception_3b/5x5_reduce"
  param {
    lr_mult: 1
    decay_mult: 1
  }
  param {
    lr_mult: 2
    decay_mult: 0
  }
  convolution_param {
    num_output: 32
    kernel_size: 1
    weight_filler {
      type: "xavier"
      std: 0.2
    }
    bias_filler {
      type: "constant"
      value: 0.2
    }
  }
}
layer {
  name: "inception_3b/relu_5x5_reduce"
  type: "ReLU"
  bottom: "inception_3b/5x5_reduce"
  top: "inception_3b/5x5_reduce"
}
layer {
  name: "inception_3b/5x5"
  type: "Convolution"
  bottom: "inception_3b/5x5_reduce"
  top: "inception_3b/5x5"
  param {
    lr_mult: 1
    decay_mult: 1
  }
  param {
    lr_mult: 2
    decay_mult: 0
  }
  convolution_param {
    num_output: 96
    pad: 2
    kernel_size: 5
    weight_filler {
      type: "xavier"
      std: 0.03
    }
    bias_filler {
      type: "constant"
      value: 0.2
    }
  }
}
layer {
  name: "inception_3b/relu_5x5"
  type: "ReLU"
  bottom: "inception_3b/5x5"
  top: "inception_3b/5x5"
}
layer {
  name: "inception_3b/pool"
  type: "Pooling"
  bottom: "inception_3a/output"
  top: "inception_3b/pool"
  pooling_param {
    pool: MAX
    kernel_size: 3
    stride: 1
    pad: 1
  }
}
layer {
  name: "inception_3b/pool_proj"
  type: "Convolution"
  bottom: "inception_3b/pool"
  top: "inception_3b/pool_proj"
  param {
    lr_mult: 1
    decay_mult: 1
  }
  param {
    lr_mult: 2
    decay_mult: 0
  }
  convolution_param {
    num_output: 64
    kernel_size: 1
    weight_filler {
      type: "xavier"
      std: 0.1
    }
    bias_filler {
      type: "constant"
      value: 0.2
    }
  }
}
layer {
  name: "inception_3b/relu_pool_proj"
  type: "ReLU"
  bottom: "inception_3b/pool_proj"
  top: "inception_3b/pool_proj"
}
layer {
  name: "inception_3b/output"
  type: "Concat"
  bottom: "inception_3b/1x1"
  bottom: "inception_3b/3x3"
  bottom: "inception_3b/5x5"
  bottom: "inception_3b/pool_proj"
  top: "inception_3b/output"
}
layer {
  name: "pool3/3x3_s2"
  type: "Pooling"
  bottom: "inception_3b/output"
  top: "pool3/3x3_s2"
  pooling_param {
    pool: MAX
    kernel_size: 3
    stride: 2
  }
}
layer {
  name: "inception_4a/1x1"
  type: "Convolution"
  bottom: "pool3/3x3_s2"
  top: "inception_4a/1x1"
  param {
    lr_mult: 1
    decay_mult: 1
  }
  param {
    lr_mult: 2
    decay_mult: 0
  }
  convolution_param {
    num_output: 192
    kernel_size: 1
    weight_filler {
      type: "xavier"
      std: 0.03
    }
    bias_filler {
      type: "constant"
      value: 0.2
    }
  }
}
layer {
  name: "inception_4a/relu_1x1"
  type: "ReLU"
  bottom: "inception_4a/1x1"
  top: "inception_4a/1x1"
}
layer {
  name: "inception_4a/3x3_reduce"
  type: "Convolution"
  bottom: "pool3/3x3_s2"
  top: "inception_4a/3x3_reduce"
  param {
    lr_mult: 1
    decay_mult: 1
  }
  param {
    lr_mult: 2
    decay_mult: 0
  }
  convolution_param {
    num_output: 96
    kernel_size: 1
    weight_filler {
      type: "xavier"
      std: 0.09
    }
    bias_filler {
      type: "constant"
      value: 0.2
    }
  }
}
layer {
  name: "inception_4a/relu_3x3_reduce"
  type: "ReLU"
  bottom: "inception_4a/3x3_reduce"
  top: "inception_4a/3x3_reduce"
}
layer {
  name: "inception_4a/3x3"
  type: "Convolution"
  bottom: "inception_4a/3x3_reduce"
  top: "inception_4a/3x3"
  param {
    lr_mult: 1
    decay_mult: 1
  }
  param {
    lr_mult: 2
    decay_mult: 0
  }
  convolution_param {
    num_output: 208
    pad: 1
    kernel_size: 3
    weight_filler {
      type: "xavier"
      std: 0.03
    }
    bias_filler {
      type: "constant"
      value: 0.2
    }
  }
}
layer {
  name: "inception_4a/relu_3x3"
  type: "ReLU"
  bottom: "inception_4a/3x3"
  top: "inception_4a/3x3"
}
layer {
  name: "inception_4a/5x5_reduce"
  type: "Convolution"
  bottom: "pool3/3x3_s2"
  top: "inception_4a/5x5_reduce"
  param {
    lr_mult: 1
    decay_mult: 1
  }
  param {
    lr_mult: 2
    decay_mult: 0
  }
  convolution_param {
    num_output: 16
    kernel_size: 1
    weight_filler {
      type: "xavier"
      std: 0.2
    }
    bias_filler {
      type: "constant"
      value: 0.2
    }
  }
}
layer {
  name: "inception_4a/relu_5x5_reduce"
  type: "ReLU"
  bottom: "inception_4a/5x5_reduce"
  top: "inception_4a/5x5_reduce"
}
layer {
  name: "inception_4a/5x5"
  type: "Convolution"
  bottom: "inception_4a/5x5_reduce"
  top: "inception_4a/5x5"
  param {
    lr_mult: 1
    decay_mult: 1
  }
  param {
    lr_mult: 2
    decay_mult: 0
  }
  convolution_param {
    num_output: 48
    pad: 2
    kernel_size: 5
    weight_filler {
      type: "xavier"
      std: 0.03
    }
    bias_filler {
      type: "constant"
      value: 0.2
    }
  }
}
layer {
  name: "inception_4a/relu_5x5"
  type: "ReLU"
  bottom: "inception_4a/5x5"
  top: "inception_4a/5x5"
}
layer {
  name: "inception_4a/pool"
  type: "Pooling"
  bottom: "pool3/3x3_s2"
  top: "inception_4a/pool"
  pooling_param {
    pool: MAX
    kernel_size: 3
    stride: 1
    pad: 1
  }
}
layer {
  name: "inception_4a/pool_proj"
  type: "Convolution"
  bottom: "inception_4a/pool"
  top: "inception_4a/pool_proj"
  param {
    lr_mult: 1
    decay_mult: 1
  }
  param {
    lr_mult: 2
    decay_mult: 0
  }
  convolution_param {
    num_output: 64
    kernel_size: 1
    weight_filler {
      type: "xavier"
      std: 0.1
    }
    bias_filler {
      type: "constant"
      value: 0.2
    }
  }
}
layer {
  name: "inception_4a/relu_pool_proj"
  type: "ReLU"
  bottom: "inception_4a/pool_proj"
  top: "inception_4a/pool_proj"
}
layer {
  name: "inception_4a/output"
  type: "Concat"
  bottom: "inception_4a/1x1"
  bottom: "inception_4a/3x3"
  bottom: "inception_4a/5x5"
  bottom: "inception_4a/pool_proj"
  top: "inception_4a/output"
}
layer {
  name: "inception_4b/1x1"
  type: "Convolution"
  bottom: "inception_4a/output"
  top: "inception_4b/1x1"
  param {
    lr_mult: 1
    decay_mult: 1
  }
  param {
    lr_mult: 2
    decay_mult: 0
  }
  convolution_param {
    num_output: 160
    kernel_size: 1
    weight_filler {
      type: "xavier"
      std: 0.03
    }
    bias_filler {
      type: "constant"
      value: 0.2
    }
  }
}
layer {
  name: "inception_4b/relu_1x1"
  type: "ReLU"
  bottom: "inception_4b/1x1"
  top: "inception_4b/1x1"
}
layer {
  name: "inception_4b/3x3_reduce"
  type: "Convolution"
  bottom: "inception_4a/output"
  top: "inception_4b/3x3_reduce"
  param {
    lr_mult: 1
    decay_mult: 1
  }
  param {
    lr_mult: 2
    decay_mult: 0
  }
  convolution_param {
    num_output: 112
    kernel_size: 1
    weight_filler {
      type: "xavier"
      std: 0.09
    }
    bias_filler {
      type: "constant"
      value: 0.2
    }
  }
}
layer {
  name: "inception_4b/relu_3x3_reduce"
  type: "ReLU"
  bottom: "inception_4b/3x3_reduce"
  top: "inception_4b/3x3_reduce"
}
layer {
  name: "inception_4b/3x3"
  type: "Convolution"
  bottom: "inception_4b/3x3_reduce"
  top: "inception_4b/3x3"
  param {
    lr_mult: 1
    decay_mult: 1
  }
  param {
    lr_mult: 2
    decay_mult: 0
  }
  convolution_param {
    num_output: 224
    pad: 1
    kernel_size: 3
    weight_filler {
      type: "xavier"
      std: 0.03
    }
    bias_filler {
      type: "constant"
      value: 0.2
    }
  }
}
layer {
  name: "inception_4b/relu_3x3"
  type: "ReLU"
  bottom: "inception_4b/3x3"
  top: "inception_4b/3x3"
}
layer {
  name: "inception_4b/5x5_reduce"
  type: "Convolution"
  bottom: "inception_4a/output"
  top: "inception_4b/5x5_reduce"
  param {
    lr_mult: 1
    decay_mult: 1
  }
  param {
    lr_mult: 2
    decay_mult: 0
  }
  convolution_param {
    num_output: 24
    kernel_size: 1
    weight_filler {
      type: "xavier"
      std: 0.2
    }
    bias_filler {
      type: "constant"
      value: 0.2
    }
  }
}
layer {
  name: "inception_4b/relu_5x5_reduce"
  type: "ReLU"
  bottom: "inception_4b/5x5_reduce"
  top: "inception_4b/5x5_reduce"
}
layer {
  name: "inception_4b/5x5"
  type: "Convolution"
  bottom: "inception_4b/5x5_reduce"
  top: "inception_4b/5x5"
  param {
    lr_mult: 1
    decay_mult: 1
  }
  param {
    lr_mult: 2
    decay_mult: 0
  }
  convolution_param {
    num_output: 64
    pad: 2
    kernel_size: 5
    weight_filler {
      type: "xavier"
      std: 0.03
    }
    bias_filler {
      type: "constant"
      value: 0.2
    }
  }
}
layer {
  name: "inception_4b/relu_5x5"
  type: "ReLU"
  bottom: "inception_4b/5x5"
  top: "inception_4b/5x5"
}
layer {
  name: "inception_4b/pool"
  type: "Pooling"
  bottom: "inception_4a/output"
  top: "inception_4b/pool"
  pooling_param {
    pool: MAX
    kernel_size: 3
    stride: 1
    pad: 1
  }
}
layer {
  name: "inception_4b/pool_proj"
  type: "Convolution"
  bottom: "inception_4b/pool"
  top: "inception_4b/pool_proj"
  param {
    lr_mult: 1
    decay_mult: 1
  }
  param {
    lr_mult: 2
    decay_mult: 0
  }
  convolution_param {
    num_output: 64
    kernel_size: 1
    weight_filler {
      type: "xavier"
      std: 0.1
    }
    bias_filler {
      type: "constant"
      value: 0.2
    }
  }
}
layer {
  name: "inception_4b/relu_pool_proj"
  type: "ReLU"
  bottom: "inception_4b/pool_proj"
  top: "inception_4b/pool_proj"
}
layer {
  name: "inception_4b/output"
  type: "Concat"
  bottom: "inception_4b/1x1"
  bottom: "inception_4b/3x3"
  bottom: "inception_4b/5x5"
  bottom: "inception_4b/pool_proj"
  top: "inception_4b/output"
}
layer {
  name: "inception_4c/1x1"
  type: "Convolution"
  bottom: "inception_4b/output"
  top: "inception_4c/1x1"
  param {
    lr_mult: 1
    decay_mult: 1
  }
  param {
    lr_mult: 2
    decay_mult: 0
  }
  convolution_param {
    num_output: 128
    kernel_size: 1
    weight_filler {
      type: "xavier"
      std: 0.03
    }
    bias_filler {
      type: "constant"
      value: 0.2
    }
  }
}
layer {
  name: "inception_4c/relu_1x1"
  type: "ReLU"
  bottom: "inception_4c/1x1"
  top: "inception_4c/1x1"
}
layer {
  name: "inception_4c/3x3_reduce"
  type: "Convolution"
  bottom: "inception_4b/output"
  top: "inception_4c/3x3_reduce"
  param {
    lr_mult: 1
    decay_mult: 1
  }
  param {
    lr_mult: 2
    decay_mult: 0
  }
  convolution_param {
    num_output: 128
    kernel_size: 1
    weight_filler {
      type: "xavier"
      std: 0.09
    }
    bias_filler {
      type: "constant"
      value: 0.2
    }
  }
}
layer {
  name: "inception_4c/relu_3x3_reduce"
  type: "ReLU"
  bottom: "inception_4c/3x3_reduce"
  top: "inception_4c/3x3_reduce"
}
layer {
  name: "inception_4c/3x3"
  type: "Convolution"
  bottom: "inception_4c/3x3_reduce"
  top: "inception_4c/3x3"
  param {
    lr_mult: 1
    decay_mult: 1
  }
  param {
    lr_mult: 2
    decay_mult: 0
  }
  convolution_param {
    num_output: 256
    pad: 1
    kernel_size: 3
    weight_filler {
      type: "xavier"
      std: 0.03
    }
    bias_filler {
      type: "constant"
      value: 0.2
    }
  }
}
layer {
  name: "inception_4c/relu_3x3"
  type: "ReLU"
  bottom: "inception_4c/3x3"
  top: "inception_4c/3x3"
}
layer {
  name: "inception_4c/5x5_reduce"
  type: "Convolution"
  bottom: "inception_4b/output"
  top: "inception_4c/5x5_reduce"
  param {
    lr_mult: 1
    decay_mult: 1
  }
  param {
    lr_mult: 2
    decay_mult: 0
  }
  convolution_param {
    num_output: 24
    kernel_size: 1
    weight_filler {
      type: "xavier"
      std: 0.2
    }
    bias_filler {
      type: "constant"
      value: 0.2
    }
  }
}
layer {
  name: "inception_4c/relu_5x5_reduce"
  type: "ReLU"
  bottom: "inception_4c/5x5_reduce"
  top: "inception_4c/5x5_reduce"
}
layer {
  name: "inception_4c/5x5"
  type: "Convolution"
  bottom: "inception_4c/5x5_reduce"
  top: "inception_4c/5x5"
  param {
    lr_mult: 1
    decay_mult: 1
  }
  param {
    lr_mult: 2
    decay_mult: 0
  }
  convolution_param {
    num_output: 64
    pad: 2
    kernel_size: 5
    weight_filler {
      type: "xavier"
      std: 0.03
    }
    bias_filler {
      type: "constant"
      value: 0.2
    }
  }
}
layer {
  name: "inception_4c/relu_5x5"
  type: "ReLU"
  bottom: "inception_4c/5x5"
  top: "inception_4c/5x5"
}
layer {
  name: "inception_4c/pool"
  type: "Pooling"
  bottom: "inception_4b/output"
  top: "inception_4c/pool"
  pooling_param {
    pool: MAX
    kernel_size: 3
    stride: 1
    pad: 1
  }
}
layer {
  name: "inception_4c/pool_proj"
  type: "Convolution"
  bottom: "inception_4c/pool"
  top: "inception_4c/pool_proj"
  param {
    lr_mult: 1
    decay_mult: 1
  }
  param {
    lr_mult: 2
    decay_mult: 0
  }
  convolution_param {
    num_output: 64
    kernel_size: 1
    weight_filler {
      type: "xavier"
      std: 0.1
    }
    bias_filler {
      type: "constant"
      value: 0.2
    }
  }
}
layer {
  name: "inception_4c/relu_pool_proj"
  type: "ReLU"
  bottom: "inception_4c/pool_proj"
  top: "inception_4c/pool_proj"
}
layer {
  name: "inception_4c/output"
  type: "Concat"
  bottom: "inception_4c/1x1"
  bottom: "inception_4c/3x3"
  bottom: "inception_4c/5x5"
  bottom: "inception_4c/pool_proj"
  top: "inception_4c/output"
}
layer {
  name: "inception_4d/1x1"
  type: "Convolution"
  bottom: "inception_4c/output"
  top: "inception_4d/1x1"
  param {
    lr_mult: 1
    decay_mult: 1
  }
  param {
    lr_mult: 2
    decay_mult: 0
  }
  convolution_param {
    num_output: 112
    kernel_size: 1
    weight_filler {
      type: "xavier"
      std: 0.03
    }
    bias_filler {
      type: "constant"
      value: 0.2
    }
  }
}
layer {
  name: "inception_4d/relu_1x1"
  type: "ReLU"
  bottom: "inception_4d/1x1"
  top: "inception_4d/1x1"
}
layer {
  name: "inception_4d/3x3_reduce"
  type: "Convolution"
  bottom: "inception_4c/output"
  top: "inception_4d/3x3_reduce"
  param {
    lr_mult: 1
    decay_mult: 1
  }
  param {
    lr_mult: 2
    decay_mult: 0
  }
  convolution_param {
    num_output: 144
    kernel_size: 1
    weight_filler {
      type: "xavier"
      std: 0.09
    }
    bias_filler {
      type: "constant"
      value: 0.2
    }
  }
}
layer {
  name: "inception_4d/relu_3x3_reduce"
  type: "ReLU"
  bottom: "inception_4d/3x3_reduce"
  top: "inception_4d/3x3_reduce"
}
layer {
  name: "inception_4d/3x3"
  type: "Convolution"
  bottom: "inception_4d/3x3_reduce"
  top: "inception_4d/3x3"
  param {
    lr_mult: 1
    decay_mult: 1
  }
  param {
    lr_mult: 2
    decay_mult: 0
  }
  convolution_param {
    num_output: 288
    pad: 1
    kernel_size: 3
    weight_filler {
      type: "xavier"
      std: 0.03
    }
    bias_filler {
      type: "constant"
      value: 0.2
    }
  }
}
layer {
  name: "inception_4d/relu_3x3"
  type: "ReLU"
  bottom: "inception_4d/3x3"
  top: "inception_4d/3x3"
}
layer {
  name: "inception_4d/5x5_reduce"
  type: "Convolution"
  bottom: "inception_4c/output"
  top: "inception_4d/5x5_reduce"
  param {
    lr_mult: 1
    decay_mult: 1
  }
  param {
    lr_mult: 2
    decay_mult: 0
  }
  convolution_param {
    num_output: 32
    kernel_size: 1
    weight_filler {
      type: "xavier"
      std: 0.2
    }
    bias_filler {
      type: "constant"
      value: 0.2
    }
  }
}
layer {
  name: "inception_4d/relu_5x5_reduce"
  type: "ReLU"
  bottom: "inception_4d/5x5_reduce"
  top: "inception_4d/5x5_reduce"
}
layer {
  name: "inception_4d/5x5"
  type: "Convolution"
  bottom: "inception_4d/5x5_reduce"
  top: "inception_4d/5x5"
  param {
    lr_mult: 1
    decay_mult: 1
  }
  param {
    lr_mult: 2
    decay_mult: 0
  }
  convolution_param {
    num_output: 64
    pad: 2
    kernel_size: 5
    weight_filler {
      type: "xavier"
      std: 0.03
    }
    bias_filler {
      type: "constant"
      value: 0.2
    }
  }
}
layer {
  name: "inception_4d/relu_5x5"
  type: "ReLU"
  bottom: "inception_4d/5x5"
  top: "inception_4d/5x5"
}
layer {
  name: "inception_4d/pool"
  type: "Pooling"
  bottom: "inception_4c/output"
  top: "inception_4d/pool"
  pooling_param {
    pool: MAX
    kernel_size: 3
    stride: 1
    pad: 1
  }
}
layer {
  name: "inception_4d/pool_proj"
  type: "Convolution"
  bottom: "inception_4d/pool"
  top: "inception_4d/pool_proj"
  param {
    lr_mult: 1
    decay_mult: 1
  }
  param {
    lr_mult: 2
    decay_mult: 0
  }
  convolution_param {
    num_output: 64
    kernel_size: 1
    weight_filler {
      type: "xavier"
      std: 0.1
    }
    bias_filler {
      type: "constant"
      value: 0.2
    }
  }
}
layer {
  name: "inception_4d/relu_pool_proj"
  type: "ReLU"
  bottom: "inception_4d/pool_proj"
  top: "inception_4d/pool_proj"
}
layer {
  name: "inception_4d/output"
  type: "Concat"
  bottom: "inception_4d/1x1"
  bottom: "inception_4d/3x3"
  bottom: "inception_4d/5x5"
  bottom: "inception_4d/pool_proj"
  top: "inception_4d/output"
}
layer {
  name: "inception_4e/1x1"
  type: "Convolution"
  bottom: "inception_4d/output"
  top: "inception_4e/1x1"
  param {
    lr_mult: 1
    decay_mult: 1
  }
  param {
    lr_mult: 2
    decay_mult: 0
  }
  convolution_param {
    num_output: 256
    kernel_size: 1
    weight_filler {
      type: "xavier"
      std: 0.03
    }
    bias_filler {
      type: "constant"
      value: 0.2
    }
  }
}
layer {
  name: "inception_4e/relu_1x1"
  type: "ReLU"
  bottom: "inception_4e/1x1"
  top: "inception_4e/1x1"
}
layer {
  name: "inception_4e/3x3_reduce"
  type: "Convolution"
  bottom: "inception_4d/output"
  top: "inception_4e/3x3_reduce"
  param {
    lr_mult: 1
    decay_mult: 1
  }
  param {
    lr_mult: 2
    decay_mult: 0
  }
  convolution_param {
    num_output: 160
    kernel_size: 1
    weight_filler {
      type: "xavier"
      std: 0.09
    }
    bias_filler {
      type: "constant"
      value: 0.2
    }
  }
}
layer {
  name: "inception_4e/relu_3x3_reduce"
  type: "ReLU"
  bottom: "inception_4e/3x3_reduce"
  top: "inception_4e/3x3_reduce"
}
layer {
  name: "inception_4e/3x3"
  type: "Convolution"
  bottom: "inception_4e/3x3_reduce"
  top: "inception_4e/3x3"
  param {
    lr_mult: 1
    decay_mult: 1
  }
  param {
    lr_mult: 2
    decay_mult: 0
  }
  convolution_param {
    num_output: 320
    pad: 1
    kernel_size: 3
    weight_filler {
      type: "xavier"
      std: 0.03
    }
    bias_filler {
      type: "constant"
      value: 0.2
    }
  }
}
layer {
  name: "inception_4e/relu_3x3"
  type: "ReLU"
  bottom: "inception_4e/3x3"
  top: "inception_4e/3x3"
}
layer {
  name: "inception_4e/5x5_reduce"
  type: "Convolution"
  bottom: "inception_4d/output"
  top: "inception_4e/5x5_reduce"
  param {
    lr_mult: 1
    decay_mult: 1
  }
  param {
    lr_mult: 2
    decay_mult: 0
  }
  convolution_param {
    num_output: 32
    kernel_size: 1
    weight_filler {
      type: "xavier"
      std: 0.2
    }
    bias_filler {
      type: "constant"
      value: 0.2
    }
  }
}
layer {
  name: "inception_4e/relu_5x5_reduce"
  type: "ReLU"
  bottom: "inception_4e/5x5_reduce"
  top: "inception_4e/5x5_reduce"
}
layer {
  name: "inception_4e/5x5"
  type: "Convolution"
  bottom: "inception_4e/5x5_reduce"
  top: "inception_4e/5x5"
  param {
    lr_mult: 1
    decay_mult: 1
  }
  param {
    lr_mult: 2
    decay_mult: 0
  }
  convolution_param {
    num_output: 128
    pad: 2
    kernel_size: 5
    weight_filler {
      type: "xavier"
      std: 0.03
    }
    bias_filler {
      type: "constant"
      value: 0.2
    }
  }
}
layer {
  name: "inception_4e/relu_5x5"
  type: "ReLU"
  bottom: "inception_4e/5x5"
  top: "inception_4e/5x5"
}
layer {
  name: "inception_4e/pool"
  type: "Pooling"
  bottom: "inception_4d/output"
  top: "inception_4e/pool"
  pooling_param {
    pool: MAX
    kernel_size: 3
    stride: 1
    pad: 1
  }
}
layer {
  name: "inception_4e/pool_proj"
  type: "Convolution"
  bottom: "inception_4e/pool"
  top: "inception_4e/pool_proj"
  param {
    lr_mult: 1
    decay_mult: 1
  }
  param {
    lr_mult: 2
    decay_mult: 0
  }
  convolution_param {
    num_output: 128
    kernel_size: 1
    weight_filler {
      type: "xavier"
      std: 0.1
    }
    bias_filler {
      type: "constant"
      value: 0.2
    }
  }
}
layer {
  name: "inception_4e/relu_pool_proj"
  type: "ReLU"
  bottom: "inception_4e/pool_proj"
  top: "inception_4e/pool_proj"
}
layer {
  name: "inception_4e/output"
  type: "Concat"
  bottom: "inception_4e/1x1"
  bottom: "inception_4e/3x3"
  bottom: "inception_4e/5x5"
  bottom: "inception_4e/pool_proj"
  top: "inception_4e/output"
}
layer {
  name: "pool4/3x3_s2"
  type: "Pooling"
  bottom: "inception_4e/output"
  top: "pool4/3x3_s2"
  pooling_param {
    pool: MAX
    kernel_size: 3
    stride: 2
  }
}
layer {
  name: "inception_5a/1x1"
  type: "Convolution"
  bottom: "pool4/3x3_s2"
  top: "inception_5a/1x1"
  param {
    lr_mult: 1
    decay_mult: 1
  }
  param {
    lr_mult: 2
    decay_mult: 0
  }
  convolution_param {
    num_output: 256
    kernel_size: 1
    weight_filler {
      type: "xavier"
      std: 0.03
    }
    bias_filler {
      type: "constant"
      value: 0.2
    }
  }
}
layer {
  name: "inception_5a/relu_1x1"
  type: "ReLU"
  bottom: "inception_5a/1x1"
  top: "inception_5a/1x1"
}
layer {
  name: "inception_5a/3x3_reduce"
  type: "Convolution"
  bottom: "pool4/3x3_s2"
  top: "inception_5a/3x3_reduce"
  param {
    lr_mult: 1
    decay_mult: 1
  }
  param {
    lr_mult: 2
    decay_mult: 0
  }
  convolution_param {
    num_output: 160
    kernel_size: 1
    weight_filler {
      type: "xavier"
      std: 0.09
    }
    bias_filler {
      type: "constant"
      value: 0.2
    }
  }
}
layer {
  name: "inception_5a/relu_3x3_reduce"
  type: "ReLU"
  bottom: "inception_5a/3x3_reduce"
  top: "inception_5a/3x3_reduce"
}
layer {
  name: "inception_5a/3x3"
  type: "Convolution"
  bottom: "inception_5a/3x3_reduce"
  top: "inception_5a/3x3"
  param {
    lr_mult: 1
    decay_mult: 1
  }
  param {
    lr_mult: 2
    decay_mult: 0
  }
  convolution_param {
    num_output: 320
    pad: 1
    kernel_size: 3
    weight_filler {
      type: "xavier"
      std: 0.03
    }
    bias_filler {
      type: "constant"
      value: 0.2
    }
  }
}
layer {
  name: "inception_5a/relu_3x3"
  type: "ReLU"
  bottom: "inception_5a/3x3"
  top: "inception_5a/3x3"
}
layer {
  name: "inception_5a/5x5_reduce"
  type: "Convolution"
  bottom: "pool4/3x3_s2"
  top: "inception_5a/5x5_reduce"
  param {
    lr_mult: 1
    decay_mult: 1
  }
  param {
    lr_mult: 2
    decay_mult: 0
  }
  convolution_param {
    num_output: 32
    kernel_size: 1
    weight_filler {
      type: "xavier"
      std: 0.2
    }
    bias_filler {
      type: "constant"
      value: 0.2
    }
I0714 21:23:41.215909 26469 layer_factory.hpp:77] Creating layer data
I0714 21:23:41.215961 26469 net.cpp:91] Creating Layer data
I0714 21:23:41.215984 26469 net.cpp:399] data -> data
I0714 21:23:41.225411 26465 net.cpp:49] Initializing net from parameters: 
name: "GoogleNet"
state {
  phase: TEST
}
layer {
  name: "data"
  type: "Input"
  top: "data"
  input_param {
    shape {
      dim: 10
      dim: 3
      dim: 224
      dim: 224
    }
  }
}
layer {
  name: "conv1/7x7_s2"
  type: "Convolution"
  bottom: "data"
  top: "conv1/7x7_s2"
  param {
    lr_mult: 1
    decay_mult: 1
  }
  param {
    lr_mult: 2
    decay_mult: 0
  }
  convolution_param {
    num_output: 64
    pad: 3
    kernel_size: 7
    stride: 2
    weight_filler {
      type: "xavier"
      std: 0.1
    }
    bias_filler {
      type: "constant"
      value: 0.2
    }
  }
}
layer {
  name: "conv1/relu_7x7"
  type: "ReLU"
  bottom: "conv1/7x7_s2"
  top: "conv1/7x7_s2"
}
layer {
  name: "pool1/3x3_s2"
  type: "Pooling"
  bottom: "conv1/7x7_s2"
  top: "pool1/3x3_s2"
  pooling_param {
    pool: MAX
    kernel_size: 3
    stride: 2
  }
}
layer {
  name: "pool1/norm1"
  type: "LRN"
  bottom: "pool1/3x3_s2"
  top: "pool1/norm1"
  lrn_param {
    local_size: 5
    alpha: 0.0001
    beta: 0.75
  }
}
layer {
  name: "conv2/3x3_reduce"
  type: "Convolution"
  bottom: "pool1/norm1"
  top: "conv2/3x3_reduce"
  param {
    lr_mult: 1
    decay_mult: 1
  }
  param {
    lr_mult: 2
    decay_mult: 0
  }
  convolution_param {
    num_output: 64
    kernel_size: 1
    weight_filler {
      type: "xavier"
      std: 0.1
    }
    bias_filler {
      type: "constant"
      value: 0.2
    }
  }
}
layer {
  name: "conv2/relu_3x3_reduce"
  type: "ReLU"
  bottom: "conv2/3x3_reduce"
  top: "conv2/3x3_reduce"
}
layer {
  name: "conv2/3x3"
  type: "Convolution"
  bottom: "conv2/3x3_reduce"
  top: "conv2/3x3"
  param {
    lr_mult: 1
    decay_mult: 1
  }
  param {
    lr_mult: 2
    decay_mult: 0
  }
  convolution_param {
    num_output: 192
    pad: 1
    kernel_size: 3
    weight_filler {
      type: "xavier"
      std: 0.03
    }
    bias_filler {
      type: "constant"
      value: 0.2
    }
  }
}
layer {
  name: "conv2/relu_3x3"
  type: "ReLU"
  bottom: "conv2/3x3"
  top: "conv2/3x3"
}
layer {
  name: "conv2/norm2"
  type: "LRN"
  bottom: "conv2/3x3"
  top: "conv2/norm2"
  lrn_param {
    local_size: 5
    alpha: 0.0001
    beta: 0.75
  }
}
layer {
  name: "pool2/3x3_s2"
  type: "Pooling"
  bottom: "conv2/norm2"
  top: "pool2/3x3_s2"
  pooling_param {
    pool: MAX
    kernel_size: 3
    stride: 2
  }
}
layer {
  name: "inception_3a/1x1"
  type: "Convolution"
  bottom: "pool2/3x3_s2"
  top: "inception_3a/1x1"
  param {
    lr_mult: 1
    decay_mult: 1
  }
  param {
    lr_mult: 2
    decay_mult: 0
  }
  convolution_param {
    num_output: 64
    kernel_size: 1
    weight_filler {
      type: "xavier"
      std: 0.03
    }
    bias_filler {
      type: "constant"
      value: 0.2
    }
  }
}
layer {
  name: "inception_3a/relu_1x1"
  type: "ReLU"
  bottom: "inception_3a/1x1"
  top: "inception_3a/1x1"
}
layer {
  name: "inception_3a/3x3_reduce"
  type: "Convolution"
  bottom: "pool2/3x3_s2"
  top: "inception_3a/3x3_reduce"
  param {
    lr_mult: 1
    decay_mult: 1
  }
  param {
    lr_mult: 2
    decay_mult: 0
  }
  convolution_param {
    num_output: 96
    kernel_size: 1
    weight_filler {
      type: "xavier"
      std: 0.09
    }
    bias_filler {
      type: "constant"
      value: 0.2
    }
  }
}
layer {
  name: "inception_3a/relu_3x3_reduce"
  type: "ReLU"
  bottom: "inception_3a/3x3_reduce"
  top: "inception_3a/3x3_reduce"
}
layer {
  name: "inception_3a/3x3"
  type: "Convolution"
  bottom: "inception_3a/3x3_reduce"
  top: "inception_3a/3x3"
  param {
    lr_mult: 1
    decay_mult: 1
  }
  param {
    lr_mult: 2
    decay_mult: 0
  }
  convolution_param {
    num_output: 128
    pad: 1
    kernel_size: 3
    weight_filler {
      type: "xavier"
      std: 0.03
    }
    bias_filler {
      type: "constant"
      value: 0.2
    }
  }
}
layer {
  name: "inception_3a/relu_3x3"
  type: "ReLU"
  bottom: "inception_3a/3x3"
  top: "inception_3a/3x3"
}
layer {
  name: "inception_3a/5x5_reduce"
  type: "Convolution"
  bottom: "pool2/3x3_s2"
  top: "inception_3a/5x5_reduce"
  param {
    lr_mult: 1
    decay_mult: 1
  }
  param {
    lr_mult: 2
    decay_mult: 0
  }
  convolution_param {
    num_output: 16
    kernel_size: 1
    weight_filler {
      type: "xavier"
      std: 0.2
    }
    bias_filler {
      type: "constant"
      value: 0.2
    }
  }
}
layer {
  name: "inception_3a/relu_5x5_reduce"
  type: "ReLU"
  bottom: "inception_3a/5x5_reduce"
  top: "inception_3a/5x5_reduce"
}
layer {
  name: "inception_3a/5x5"
  type: "Convolution"
  bottom: "inception_3a/5x5_reduce"
  top: "inception_3a/5x5"
  param {
    lr_mult: 1
    decay_mult: 1
  }
  param {
    lr_mult: 2
    decay_mult: 0
  }
  convolution_param {
    num_output: 32
    pad: 2
    kernel_size: 5
    weight_filler {
      type: "xavier"
      std: 0.03
    }
    bias_filler {
      type: "constant"
      value: 0.2
    }
  }
}
layer {
  name: "inception_3a/relu_5x5"
  type: "ReLU"
  bottom: "inception_3a/5x5"
  top: "inception_3a/5x5"
}
layer {
  name: "inception_3a/pool"
  type: "Pooling"
  bottom: "pool2/3x3_s2"
  top: "inception_3a/pool"
  pooling_param {
    pool: MAX
    kernel_size: 3
    stride: 1
    pad: 1
  }
}
layer {
  name: "inception_3a/pool_proj"
  type: "Convolution"
  bottom: "inception_3a/pool"
  top: "inception_3a/pool_proj"
  param {
    lr_mult: 1
    decay_mult: 1
  }
  param {
    lr_mult: 2
    decay_mult: 0
  }
  convolution_param {
    num_output: 32
    kernel_size: 1
    weight_filler {
      type: "xavier"
      std: 0.1
    }
    bias_filler {
      type: "constant"
      value: 0.2
    }
  }
}
layer {
  name: "inception_3a/relu_pool_proj"
  type: "ReLU"
  bottom: "inception_3a/pool_proj"
  top: "inception_3a/pool_proj"
}
layer {
  name: "inception_3a/output"
  type: "Concat"
  bottom: "inception_3a/1x1"
  bottom: "inception_3a/3x3"
  bottom: "inception_3a/5x5"
  bottom: "inception_3a/pool_proj"
  top: "inception_3a/output"
}
layer {
  name: "inception_3b/1x1"
  type: "Convolution"
  bottom: "inception_3a/output"
  top: "inception_3b/1x1"
  param {
    lr_mult: 1
    decay_mult: 1
  }
  param {
    lr_mult: 2
    decay_mult: 0
  }
  convolution_param {
    num_output: 128
    kernel_size: 1
    weight_filler {
      type: "xavier"
      std: 0.03
    }
    bias_filler {
      type: "constant"
      value: 0.2
    }
  }
}
layer {
  name: "inception_3b/relu_1x1"
  type: "ReLU"
  bottom: "inception_3b/1x1"
  top: "inception_3b/1x1"
}
layer {
  name: "inception_3b/3x3_reduce"
  type: "Convolution"
  bottom: "inception_3a/output"
  top: "inception_3b/3x3_reduce"
  param {
    lr_mult: 1
    decay_mult: 1
  }
  param {
    lr_mult: 2
    decay_mult: 0
  }
  convolution_param {
    num_output: 128
    kernel_size: 1
    weight_filler {
      type: "xavier"
      std: 0.09
    }
    bias_filler {
      type: "constant"
      value: 0.2
    }
  }
}
layer {
  name: "inception_3b/relu_3x3_reduce"
  type: "ReLU"
  bottom: "inception_3b/3x3_reduce"
  top: "inception_3b/3x3_reduce"
}
layer {
  name: "inception_3b/3x3"
  type: "Convolution"
  bottom: "inception_3b/3x3_reduce"
  top: "inception_3b/3x3"
  param {
    lr_mult: 1
    decay_mult: 1
  }
  param {
    lr_mult: 2
    decay_mult: 0
  }
  convolution_param {
    num_output: 192
    pad: 1
    kernel_size: 3
    weight_filler {
      type: "xavier"
      std: 0.03
    }
    bias_filler {
      type: "constant"
      value: 0.2
    }
  }
}
layer {
  name: "inception_3b/relu_3x3"
  type: "ReLU"
  bottom: "inception_3b/3x3"
  top: "inception_3b/3x3"
}
layer {
  name: "inception_3b/5x5_reduce"
  type: "Convolution"
  bottom: "inception_3a/output"
  top: "inception_3b/5x5_reduce"
  param {
    lr_mult: 1
    decay_mult: 1
  }
  param {
    lr_mult: 2
    decay_mult: 0
  }
  convolution_param {
    num_output: 32
    kernel_size: 1
    weight_filler {
      type: "xavier"
      std: 0.2
    }
    bias_filler {
      type: "constant"
      value: 0.2
    }
  }
}
layer {
  name: "inception_3b/relu_5x5_reduce"
  type: "ReLU"
  bottom: "inception_3b/5x5_reduce"
  top: "inception_3b/5x5_reduce"
}
layer {
  name: "inception_3b/5x5"
  type: "Convolution"
  bottom: "inception_3b/5x5_reduce"
  top: "inception_3b/5x5"
  param {
    lr_mult: 1
    decay_mult: 1
  }
  param {
    lr_mult: 2
    decay_mult: 0
  }
  convolution_param {
    num_output: 96
    pad: 2
    kernel_size: 5
    weight_filler {
      type: "xavier"
      std: 0.03
    }
    bias_filler {
      type: "constant"
      value: 0.2
    }
  }
}
layer {
  name: "inception_3b/relu_5x5"
  type: "ReLU"
  bottom: "inception_3b/5x5"
  top: "inception_3b/5x5"
}
layer {
  name: "inception_3b/pool"
  type: "Pooling"
  bottom: "inception_3a/output"
  top: "inception_3b/pool"
  pooling_param {
    pool: MAX
    kernel_size: 3
    stride: 1
    pad: 1
  }
}
layer {
  name: "inception_3b/pool_proj"
  type: "Convolution"
  bottom: "inception_3b/pool"
  top: "inception_3b/pool_proj"
  param {
    lr_mult: 1
    decay_mult: 1
  }
  param {
    lr_mult: 2
    decay_mult: 0
  }
  convolution_param {
    num_output: 64
    kernel_size: 1
    weight_filler {
      type: "xavier"
      std: 0.1
    }
    bias_filler {
      type: "constant"
      value: 0.2
    }
  }
}
layer {
  name: "inception_3b/relu_pool_proj"
  type: "ReLU"
  bottom: "inception_3b/pool_proj"
  top: "inception_3b/pool_proj"
}
layer {
  name: "inception_3b/output"
  type: "Concat"
  bottom: "inception_3b/1x1"
  bottom: "inception_3b/3x3"
  bottom: "inception_3b/5x5"
  bottom: "inception_3b/pool_proj"
  top: "inception_3b/output"
}
layer {
  name: "pool3/3x3_s2"
  type: "Pooling"
  bottom: "inception_3b/output"
  top: "pool3/3x3_s2"
  pooling_param {
    pool: MAX
    kernel_size: 3
    stride: 2
  }
}
layer {
  name: "inception_4a/1x1"
  type: "Convolution"
  bottom: "pool3/3x3_s2"
  top: "inception_4a/1x1"
  param {
    lr_mult: 1
    decay_mult: 1
  }
  param {
    lr_mult: 2
    decay_mult: 0
  }
  convolution_param {
    num_output: 192
    kernel_size: 1
    weight_filler {
      type: "xavier"
      std: 0.03
    }
    bias_filler {
      type: "constant"
      value: 0.2
    }
  }
}
layer {
  name: "inception_4a/relu_1x1"
  type: "ReLU"
  bottom: "inception_4a/1x1"
  top: "inception_4a/1x1"
}
layer {
  name: "inception_4a/3x3_reduce"
  type: "Convolution"
  bottom: "pool3/3x3_s2"
  top: "inception_4a/3x3_reduce"
  param {
    lr_mult: 1
    decay_mult: 1
  }
  param {
    lr_mult: 2
    decay_mult: 0
  }
  convolution_param {
    num_output: 96
    kernel_size: 1
    weight_filler {
      type: "xavier"
      std: 0.09
    }
    bias_filler {
      type: "constant"
      value: 0.2
    }
  }
}
layer {
  name: "inception_4a/relu_3x3_reduce"
  type: "ReLU"
  bottom: "inception_4a/3x3_reduce"
  top: "inception_4a/3x3_reduce"
}
layer {
  name: "inception_4a/3x3"
  type: "Convolution"
  bottom: "inception_4a/3x3_reduce"
  top: "inception_4a/3x3"
  param {
    lr_mult: 1
    decay_mult: 1
  }
  param {
    lr_mult: 2
    decay_mult: 0
  }
  convolution_param {
    num_output: 208
    pad: 1
    kernel_size: 3
    weight_filler {
      type: "xavier"
      std: 0.03
    }
    bias_filler {
      type: "constant"
      value: 0.2
    }
  }
}
layer {
  name: "inception_4a/relu_3x3"
  type: "ReLU"
  bottom: "inception_4a/3x3"
  top: "inception_4a/3x3"
}
layer {
  name: "inception_4a/5x5_reduce"
  type: "Convolution"
  bottom: "pool3/3x3_s2"
  top: "inception_4a/5x5_reduce"
  param {
    lr_mult: 1
    decay_mult: 1
  }
  param {
    lr_mult: 2
    decay_mult: 0
  }
  convolution_param {
    num_output: 16
    kernel_size: 1
    weight_filler {
      type: "xavier"
      std: 0.2
    }
    bias_filler {
      type: "constant"
      value: 0.2
    }
  }
}
layer {
  name: "inception_4a/relu_5x5_reduce"
  type: "ReLU"
  bottom: "inception_4a/5x5_reduce"
  top: "inception_4a/5x5_reduce"
}
layer {
  name: "inception_4a/5x5"
  type: "Convolution"
  bottom: "inception_4a/5x5_reduce"
  top: "inception_4a/5x5"
  param {
    lr_mult: 1
    decay_mult: 1
  }
  param {
    lr_mult: 2
    decay_mult: 0
  }
  convolution_param {
    num_output: 48
    pad: 2
    kernel_size: 5
    weight_filler {
      type: "xavier"
      std: 0.03
    }
    bias_filler {
      type: "constant"
      value: 0.2
    }
  }
}
layer {
  name: "inception_4a/relu_5x5"
  type: "ReLU"
  bottom: "inception_4a/5x5"
  top: "inception_4a/5x5"
}
layer {
  name: "inception_4a/pool"
  type: "Pooling"
  bottom: "pool3/3x3_s2"
  top: "inception_4a/pool"
  pooling_param {
    pool: MAX
    kernel_size: 3
    stride: 1
    pad: 1
  }
}
layer {
  name: "inception_4a/pool_proj"
  type: "Convolution"
  bottom: "inception_4a/pool"
  top: "inception_4a/pool_proj"
  param {
    lr_mult: 1
    decay_mult: 1
  }
  param {
    lr_mult: 2
    decay_mult: 0
  }
  convolution_param {
    num_output: 64
    kernel_size: 1
    weight_filler {
      type: "xavier"
      std: 0.1
    }
    bias_filler {
      type: "constant"
      value: 0.2
    }
  }
}
layer {
  name: "inception_4a/relu_pool_proj"
  type: "ReLU"
  bottom: "inception_4a/pool_proj"
  top: "inception_4a/pool_proj"
}
layer {
  name: "inception_4a/output"
  type: "Concat"
  bottom: "inception_4a/1x1"
  bottom: "inception_4a/3x3"
  bottom: "inception_4a/5x5"
  bottom: "inception_4a/pool_proj"
  top: "inception_4a/output"
}
layer {
  name: "inception_4b/1x1"
  type: "Convolution"
  bottom: "inception_4a/output"
  top: "inception_4b/1x1"
  param {
    lr_mult: 1
    decay_mult: 1
  }
  param {
    lr_mult: 2
    decay_mult: 0
  }
  convolution_param {
    num_output: 160
    kernel_size: 1
    weight_filler {
      type: "xavier"
      std: 0.03
    }
    bias_filler {
      type: "constant"
      value: 0.2
    }
  }
}
layer {
  name: "inception_4b/relu_1x1"
  type: "ReLU"
  bottom: "inception_4b/1x1"
  top: "inception_4b/1x1"
}
layer {
  name: "inception_4b/3x3_reduce"
  type: "Convolution"
  bottom: "inception_4a/output"
  top: "inception_4b/3x3_reduce"
  param {
    lr_mult: 1
    decay_mult: 1
  }
  param {
    lr_mult: 2
    decay_mult: 0
  }
  convolution_param {
    num_output: 112
    kernel_size: 1
    weight_filler {
      type: "xavier"
      std: 0.09
    }
    bias_filler {
      type: "constant"
      value: 0.2
    }
  }
}
layer {
  name: "inception_4b/relu_3x3_reduce"
  type: "ReLU"
  bottom: "inception_4b/3x3_reduce"
  top: "inception_4b/3x3_reduce"
}
layer {
  name: "inception_4b/3x3"
  type: "Convolution"
  bottom: "inception_4b/3x3_reduce"
  top: "inception_4b/3x3"
  param {
    lr_mult: 1
    decay_mult: 1
  }
  param {
    lr_mult: 2
    decay_mult: 0
  }
  convolution_param {
    num_output: 224
    pad: 1
    kernel_size: 3
    weight_filler {
      type: "xavier"
      std: 0.03
    }
    bias_filler {
      type: "constant"
      value: 0.2
    }
  }
}
layer {
  name: "inception_4b/relu_3x3"
  type: "ReLU"
  bottom: "inception_4b/3x3"
  top: "inception_4b/3x3"
}
layer {
  name: "inception_4b/5x5_reduce"
  type: "Convolution"
  bottom: "inception_4a/output"
  top: "inception_4b/5x5_reduce"
  param {
    lr_mult: 1
    decay_mult: 1
  }
  param {
    lr_mult: 2
    decay_mult: 0
  }
  convolution_param {
    num_output: 24
    kernel_size: 1
    weight_filler {
      type: "xavier"
      std: 0.2
    }
    bias_filler {
      type: "constant"
      value: 0.2
    }
  }
}
layer {
  name: "inception_4b/relu_5x5_reduce"
  type: "ReLU"
  bottom: "inception_4b/5x5_reduce"
  top: "inception_4b/5x5_reduce"
}
layer {
  name: "inception_4b/5x5"
  type: "Convolution"
  bottom: "inception_4b/5x5_reduce"
  top: "inception_4b/5x5"
  param {
    lr_mult: 1
    decay_mult: 1
  }
  param {
    lr_mult: 2
    decay_mult: 0
  }
  convolution_param {
    num_output: 64
    pad: 2
    kernel_size: 5
    weight_filler {
      type: "xavier"
      std: 0.03
    }
    bias_filler {
      type: "constant"
      value: 0.2
    }
  }
}
layer {
  name: "inception_4b/relu_5x5"
  type: "ReLU"
  bottom: "inception_4b/5x5"
  top: "inception_4b/5x5"
}
layer {
  name: "inception_4b/pool"
  type: "Pooling"
  bottom: "inception_4a/output"
  top: "inception_4b/pool"
  pooling_param {
    pool: MAX
    kernel_size: 3
    stride: 1
    pad: 1
  }
}
layer {
  name: "inception_4b/pool_proj"
  type: "Convolution"
  bottom: "inception_4b/pool"
  top: "inception_4b/pool_proj"
  param {
    lr_mult: 1
    decay_mult: 1
  }
  param {
    lr_mult: 2
    decay_mult: 0
  }
  convolution_param {
    num_output: 64
    kernel_size: 1
    weight_filler {
      type: "xavier"
      std: 0.1
    }
    bias_filler {
      type: "constant"
      value: 0.2
    }
  }
}
layer {
  name: "inception_4b/relu_pool_proj"
  type: "ReLU"
  bottom: "inception_4b/pool_proj"
  top: "inception_4b/pool_proj"
}
layer {
  name: "inception_4b/output"
  type: "Concat"
  bottom: "inception_4b/1x1"
  bottom: "inception_4b/3x3"
  bottom: "inception_4b/5x5"
  bottom: "inception_4b/pool_proj"
  top: "inception_4b/output"
}
layer {
  name: "inception_4c/1x1"
  type: "Convolution"
  bottom: "inception_4b/output"
  top: "inception_4c/1x1"
  param {
    lr_mult: 1
    decay_mult: 1
  }
  param {
    lr_mult: 2
    decay_mult: 0
  }
  convolution_param {
    num_output: 128
    kernel_size: 1
    weight_filler {
      type: "xavier"
      std: 0.03
    }
    bias_filler {
      type: "constant"
      value: 0.2
    }
  }
}
layer {
  name: "inception_4c/relu_1x1"
  type: "ReLU"
  bottom: "inception_4c/1x1"
  top: "inception_4c/1x1"
}
layer {
  name: "inception_4c/3x3_reduce"
  type: "Convolution"
  bottom: "inception_4b/output"
  top: "inception_4c/3x3_reduce"
  param {
    lr_mult: 1
    decay_mult: 1
  }
  param {
    lr_mult: 2
    decay_mult: 0
  }
  convolution_param {
    num_output: 128
    kernel_size: 1
    weight_filler {
      type: "xavier"
      std: 0.09
    }
    bias_filler {
      type: "constant"
      value: 0.2
    }
  }
}
layer {
  name: "inception_4c/relu_3x3_reduce"
  type: "ReLU"
  bottom: "inception_4c/3x3_reduce"
  top: "inception_4c/3x3_reduce"
}
layer {
  name: "inception_4c/3x3"
  type: "Convolution"
  bottom: "inception_4c/3x3_reduce"
  top: "inception_4c/3x3"
  param {
    lr_mult: 1
    decay_mult: 1
  }
  param {
    lr_mult: 2
    decay_mult: 0
  }
  convolution_param {
    num_output: 256
    pad: 1
    kernel_size: 3
    weight_filler {
      type: "xavier"
      std: 0.03
    }
    bias_filler {
      type: "constant"
      value: 0.2
    }
  }
}
layer {
  name: "inception_4c/relu_3x3"
  type: "ReLU"
  bottom: "inception_4c/3x3"
  top: "inception_4c/3x3"
}
layer {
  name: "inception_4c/5x5_reduce"
  type: "Convolution"
  bottom: "inception_4b/output"
  top: "inception_4c/5x5_reduce"
  param {
    lr_mult: 1
    decay_mult: 1
  }
  param {
    lr_mult: 2
    decay_mult: 0
  }
  convolution_param {
    num_output: 24
    kernel_size: 1
    weight_filler {
      type: "xavier"
      std: 0.2
    }
    bias_filler {
      type: "constant"
      value: 0.2
    }
  }
}
layer {
  name: "inception_4c/relu_5x5_reduce"
  type: "ReLU"
  bottom: "inception_4c/5x5_reduce"
  top: "inception_4c/5x5_reduce"
}
layer {
  name: "inception_4c/5x5"
  type: "Convolution"
  bottom: "inception_4c/5x5_reduce"
  top: "inception_4c/5x5"
  param {
    lr_mult: 1
    decay_mult: 1
  }
  param {
    lr_mult: 2
    decay_mult: 0
  }
  convolution_param {
    num_output: 64
    pad: 2
    kernel_size: 5
    weight_filler {
      type: "xavier"
      std: 0.03
    }
    bias_filler {
      type: "constant"
      value: 0.2
    }
  }
}
layer {
  name: "inception_4c/relu_5x5"
  type: "ReLU"
  bottom: "inception_4c/5x5"
  top: "inception_4c/5x5"
}
layer {
  name: "inception_4c/pool"
  type: "Pooling"
  bottom: "inception_4b/output"
  top: "inception_4c/pool"
  pooling_param {
    pool: MAX
    kernel_size: 3
    stride: 1
    pad: 1
  }
}
layer {
  name: "inception_4c/pool_proj"
  type: "Convolution"
  bottom: "inception_4c/pool"
  top: "inception_4c/pool_proj"
  param {
    lr_mult: 1
    decay_mult: 1
  }
  param {
    lr_mult: 2
    decay_mult: 0
  }
  convolution_param {
    num_output: 64
    kernel_size: 1
    weight_filler {
      type: "xavier"
      std: 0.1
    }
    bias_filler {
      type: "constant"
      value: 0.2
    }
  }
}
layer {
  name: "inception_4c/relu_pool_proj"
  type: "ReLU"
  bottom: "inception_4c/pool_proj"
  top: "inception_4c/pool_proj"
}
layer {
  name: "inception_4c/output"
  type: "Concat"
  bottom: "inception_4c/1x1"
  bottom: "inception_4c/3x3"
  bottom: "inception_4c/5x5"
  bottom: "inception_4c/pool_proj"
  top: "inception_4c/output"
}
layer {
  name: "inception_4d/1x1"
  type: "Convolution"
  bottom: "inception_4c/output"
  top: "inception_4d/1x1"
  param {
    lr_mult: 1
    decay_mult: 1
  }
  param {
    lr_mult: 2
    decay_mult: 0
  }
  convolution_param {
    num_output: 112
    kernel_size: 1
    weight_filler {
      type: "xavier"
      std: 0.03
    }
    bias_filler {
      type: "constant"
      value: 0.2
    }
  }
}
layer {
  name: "inception_4d/relu_1x1"
  type: "ReLU"
  bottom: "inception_4d/1x1"
  top: "inception_4d/1x1"
}
layer {
  name: "inception_4d/3x3_reduce"
  type: "Convolution"
  bottom: "inception_4c/output"
  top: "inception_4d/3x3_reduce"
  param {
    lr_mult: 1
    decay_mult: 1
  }
  param {
    lr_mult: 2
    decay_mult: 0
  }
  convolution_param {
    num_output: 144
    kernel_size: 1
    weight_filler {
      type: "xavier"
      std: 0.09
    }
    bias_filler {
      type: "constant"
      value: 0.2
    }
  }
}
layer {
  name: "inception_4d/relu_3x3_reduce"
  type: "ReLU"
  bottom: "inception_4d/3x3_reduce"
  top: "inception_4d/3x3_reduce"
}
layer {
  name: "inception_4d/3x3"
  type: "Convolution"
  bottom: "inception_4d/3x3_reduce"
  top: "inception_4d/3x3"
  param {
    lr_mult: 1
    decay_mult: 1
  }
  param {
    lr_mult: 2
    decay_mult: 0
  }
  convolution_param {
    num_output: 288
    pad: 1
    kernel_size: 3
    weight_filler {
      type: "xavier"
      std: 0.03
    }
    bias_filler {
      type: "constant"
      value: 0.2
    }
  }
}
layer {
  name: "inception_4d/relu_3x3"
  type: "ReLU"
  bottom: "inception_4d/3x3"
  top: "inception_4d/3x3"
}
layer {
  name: "inception_4d/5x5_reduce"
  type: "Convolution"
  bottom: "inception_4c/output"
  top: "inception_4d/5x5_reduce"
  param {
    lr_mult: 1
    decay_mult: 1
  }
  param {
    lr_mult: 2
    decay_mult: 0
  }
  convolution_param {
    num_output: 32
    kernel_size: 1
    weight_filler {
      type: "xavier"
      std: 0.2
    }
    bias_filler {
      type: "constant"
      value: 0.2
    }
  }
}
layer {
  name: "inception_4d/relu_5x5_reduce"
  type: "ReLU"
  bottom: "inception_4d/5x5_reduce"
  top: "inception_4d/5x5_reduce"
}
layer {
  name: "inception_4d/5x5"
  type: "Convolution"
  bottom: "inception_4d/5x5_reduce"
  top: "inception_4d/5x5"
  param {
    lr_mult: 1
    decay_mult: 1
  }
  param {
    lr_mult: 2
    decay_mult: 0
  }
  convolution_param {
    num_output: 64
    pad: 2
    kernel_size: 5
    weight_filler {
      type: "xavier"
      std: 0.03
    }
    bias_filler {
      type: "constant"
      value: 0.2
    }
  }
}
layer {
  name: "inception_4d/relu_5x5"
  type: "ReLU"
  bottom: "inception_4d/5x5"
  top: "inception_4d/5x5"
}
layer {
  name: "inception_4d/pool"
  type: "Pooling"
  bottom: "inception_4c/output"
  top: "inception_4d/pool"
  pooling_param {
    pool: MAX
    kernel_size: 3
    stride: 1
    pad: 1
  }
}
layer {
  name: "inception_4d/pool_proj"
  type: "Convolution"
  bottom: "inception_4d/pool"
  top: "inception_4d/pool_proj"
  param {
    lr_mult: 1
    decay_mult: 1
  }
  param {
    lr_mult: 2
    decay_mult: 0
  }
  convolution_param {
    num_output: 64
    kernel_size: 1
    weight_filler {
      type: "xavier"
      std: 0.1
    }
    bias_filler {
      type: "constant"
      value: 0.2
    }
  }
}
layer {
  name: "inception_4d/relu_pool_proj"
  type: "ReLU"
  bottom: "inception_4d/pool_proj"
  top: "inception_4d/pool_proj"
}
layer {
  name: "inception_4d/output"
  type: "Concat"
  bottom: "inception_4d/1x1"
  bottom: "inception_4d/3x3"
  bottom: "inception_4d/5x5"
  bottom: "inception_4d/pool_proj"
  top: "inception_4d/output"
}
layer {
  name: "inception_4e/1x1"
  type: "Convolution"
  bottom: "inception_4d/output"
  top: "inception_4e/1x1"
  param {
    lr_mult: 1
    decay_mult: 1
  }
  param {
    lr_mult: 2
    decay_mult: 0
  }
  convolution_param {
    num_output: 256
    kernel_size: 1
    weight_filler {
      type: "xavier"
      std: 0.03
    }
    bias_filler {
      type: "constant"
      value: 0.2
    }
  }
}
layer {
  name: "inception_4e/relu_1x1"
  type: "ReLU"
  bottom: "inception_4e/1x1"
  top: "inception_4e/1x1"
}
layer {
  name: "inception_4e/3x3_reduce"
  type: "Convolution"
  bottom: "inception_4d/output"
  top: "inception_4e/3x3_reduce"
  param {
    lr_mult: 1
    decay_mult: 1
  }
  param {
    lr_mult: 2
    decay_mult: 0
  }
  convolution_param {
    num_output: 160
    kernel_size: 1
    weight_filler {
      type: "xavier"
      std: 0.09
    }
    bias_filler {
      type: "constant"
      value: 0.2
    }
  }
}
layer {
  name: "inception_4e/relu_3x3_reduce"
  type: "ReLU"
  bottom: "inception_4e/3x3_reduce"
  top: "inception_4e/3x3_reduce"
}
layer {
  name: "inception_4e/3x3"
  type: "Convolution"
  bottom: "inception_4e/3x3_reduce"
  top: "inception_4e/3x3"
  param {
    lr_mult: 1
    decay_mult: 1
  }
  param {
    lr_mult: 2
    decay_mult: 0
  }
  convolution_param {
    num_output: 320
    pad: 1
    kernel_size: 3
    weight_filler {
      type: "xavier"
      std: 0.03
    }
    bias_filler {
      type: "constant"
      value: 0.2
    }
  }
}
layer {
  name: "inception_4e/relu_3x3"
  type: "ReLU"
  bottom: "inception_4e/3x3"
  top: "inception_4e/3x3"
}
layer {
  name: "inception_4e/5x5_reduce"
  type: "Convolution"
  bottom: "inception_4d/output"
  top: "inception_4e/5x5_reduce"
  param {
    lr_mult: 1
    decay_mult: 1
  }
  param {
    lr_mult: 2
    decay_mult: 0
  }
  convolution_param {
    num_output: 32
    kernel_size: 1
    weight_filler {
      type: "xavier"
      std: 0.2
    }
    bias_filler {
      type: "constant"
      value: 0.2
    }
  }
}
layer {
  name: "inception_4e/relu_5x5_reduce"
  type: "ReLU"
  bottom: "inception_4e/5x5_reduce"
  top: "inception_4e/5x5_reduce"
}
layer {
  name: "inception_4e/5x5"
  type: "Convolution"
  bottom: "inception_4e/5x5_reduce"
  top: "inception_4e/5x5"
  param {
    lr_mult: 1
    decay_mult: 1
  }
  param {
    lr_mult: 2
    decay_mult: 0
  }
  convolution_param {
    num_output: 128
    pad: 2
    kernel_size: 5
    weight_filler {
      type: "xavier"
      std: 0.03
    }
    bias_filler {
      type: "constant"
      value: 0.2
    }
  }
}
layer {
  name: "inception_4e/relu_5x5"
  type: "ReLU"
  bottom: "inception_4e/5x5"
  top: "inception_4e/5x5"
}
layer {
  name: "inception_4e/pool"
  type: "Pooling"
  bottom: "inception_4d/output"
  top: "inception_4e/pool"
  pooling_param {
    pool: MAX
    kernel_size: 3
    stride: 1
    pad: 1
  }
}
layer {
  name: "inception_4e/pool_proj"
  type: "Convolution"
  bottom: "inception_4e/pool"
  top: "inception_4e/pool_proj"
  param {
    lr_mult: 1
    decay_mult: 1
  }
  param {
    lr_mult: 2
    decay_mult: 0
  }
  convolution_param {
    num_output: 128
    kernel_size: 1
    weight_filler {
      type: "xavier"
      std: 0.1
    }
    bias_filler {
      type: "constant"
      value: 0.2
    }
  }
}
layer {
  name: "inception_4e/relu_pool_proj"
  type: "ReLU"
  bottom: "inception_4e/pool_proj"
  top: "inception_4e/pool_proj"
}
layer {
  name: "inception_4e/output"
  type: "Concat"
  bottom: "inception_4e/1x1"
  bottom: "inception_4e/3x3"
  bottom: "inception_4e/5x5"
  bottom: "inception_4e/pool_proj"
  top: "inception_4e/output"
}
layer {
  name: "pool4/3x3_s2"
  type: "Pooling"
  bottom: "inception_4e/output"
  top: "pool4/3x3_s2"
  pooling_param {
    pool: MAX
    kernel_size: 3
    stride: 2
  }
}
layer {
  name: "inception_5a/1x1"
  type: "Convolution"
  bottom: "pool4/3x3_s2"
  top: "inception_5a/1x1"
  param {
    lr_mult: 1
    decay_mult: 1
  }
  param {
    lr_mult: 2
    decay_mult: 0
  }
  convolution_param {
    num_output: 256
    kernel_size: 1
    weight_filler {
      type: "xavier"
      std: 0.03
    }
    bias_filler {
      type: "constant"
      value: 0.2
    }
  }
}
layer {
  name: "inception_5a/relu_1x1"
  type: "ReLU"
  bottom: "inception_5a/1x1"
  top: "inception_5a/1x1"
}
layer {
  name: "inception_5a/3x3_reduce"
  type: "Convolution"
  bottom: "pool4/3x3_s2"
  top: "inception_5a/3x3_reduce"
  param {
    lr_mult: 1
    decay_mult: 1
  }
  param {
    lr_mult: 2
    decay_mult: 0
  }
  convolution_param {
    num_output: 160
    kernel_size: 1
    weight_filler {
      type: "xavier"
      std: 0.09
    }
    bias_filler {
      type: "constant"
      value: 0.2
    }
  }
}
layer {
  name: "inception_5a/relu_3x3_reduce"
  type: "ReLU"
  bottom: "inception_5a/3x3_reduce"
  top: "inception_5a/3x3_reduce"
}
layer {
  name: "inception_5a/3x3"
  type: "Convolution"
  bottom: "inception_5a/3x3_reduce"
  top: "inception_5a/3x3"
  param {
    lr_mult: 1
    decay_mult: 1
  }
  param {
    lr_mult: 2
    decay_mult: 0
  }
  convolution_param {
    num_output: 320
    pad: 1
    kernel_size: 3
    weight_filler {
      type: "xavier"
      std: 0.03
    }
    bias_filler {
      type: "constant"
      value: 0.2
    }
  }
}
layer {
  name: "inception_5a/relu_3x3"
  type: "ReLU"
  bottom: "inception_5a/3x3"
  top: "inception_5a/3x3"
}
layer {
  name: "inception_5a/5x5_reduce"
  type: "Convolution"
  bottom: "pool4/3x3_s2"
  top: "inception_5a/5x5_reduce"
  param {
    lr_mult: 1
    decay_mult: 1
  }
  param {
    lr_mult: 2
    decay_mult: 0
  }
  convolution_param {
    num_output: 32
    kernel_size: 1
    weight_filler {
      type: "xavier"
      std: 0.2
    }
    bias_filler {
      type: "constant"
      value: 0.2
    }
I0714 21:23:41.226400 26465 layer_factory.hpp:77] Creating layer data
I0714 21:23:41.226420 26465 net.cpp:91] Creating Layer data
I0714 21:23:41.226428 26465 net.cpp:399] data -> data
I0714 21:23:42.339072 26469 net.cpp:141] Setting up data
I0714 21:23:42.339174 26469 net.cpp:148] Top shape: 10 3 224 224 (1505280)
I0714 21:23:42.339181 26469 net.cpp:156] Memory required for data: 6021120
I0714 21:23:42.339207 26469 layer_factory.hpp:77] Creating layer conv1/7x7_s2
I0714 21:23:42.339257 26469 net.cpp:91] Creating Layer conv1/7x7_s2
I0714 21:23:42.339267 26469 net.cpp:425] conv1/7x7_s2 <- data
I0714 21:23:42.339283 26469 net.cpp:399] conv1/7x7_s2 -> conv1/7x7_s2
I0714 21:23:42.341235 26465 net.cpp:141] Setting up data
I0714 21:23:42.341292 26465 net.cpp:148] Top shape: 10 3 224 224 (1505280)
I0714 21:23:42.341300 26465 net.cpp:156] Memory required for data: 6021120
I0714 21:23:42.341310 26465 layer_factory.hpp:77] Creating layer conv1/7x7_s2
I0714 21:23:42.341341 26465 net.cpp:91] Creating Layer conv1/7x7_s2
I0714 21:23:42.341347 26465 net.cpp:425] conv1/7x7_s2 <- data
I0714 21:23:42.341358 26465 net.cpp:399] conv1/7x7_s2 -> conv1/7x7_s2
I0714 21:23:42.778771 26469 net.cpp:141] Setting up conv1/7x7_s2
I0714 21:23:42.778836 26469 net.cpp:148] Top shape: 10 64 112 112 (8028160)
I0714 21:23:42.778844 26469 net.cpp:156] Memory required for data: 38133760
I0714 21:23:42.778883 26469 layer_factory.hpp:77] Creating layer conv1/relu_7x7
I0714 21:23:42.778908 26469 net.cpp:91] Creating Layer conv1/relu_7x7
I0714 21:23:42.778916 26469 net.cpp:425] conv1/relu_7x7 <- conv1/7x7_s2
I0714 21:23:42.778928 26469 net.cpp:386] conv1/relu_7x7 -> conv1/7x7_s2 (in-place)
I0714 21:23:42.780463 26469 net.cpp:141] Setting up conv1/relu_7x7
I0714 21:23:42.780483 26469 net.cpp:148] Top shape: 10 64 112 112 (8028160)
I0714 21:23:42.780488 26469 net.cpp:156] Memory required for data: 70246400
I0714 21:23:42.780493 26469 layer_factory.hpp:77] Creating layer pool1/3x3_s2
I0714 21:23:42.780509 26469 net.cpp:91] Creating Layer pool1/3x3_s2
I0714 21:23:42.780515 26469 net.cpp:425] pool1/3x3_s2 <- conv1/7x7_s2
I0714 21:23:42.780527 26469 net.cpp:399] pool1/3x3_s2 -> pool1/3x3_s2
I0714 21:23:42.780550 26465 net.cpp:141] Setting up conv1/7x7_s2
I0714 21:23:42.780593 26465 net.cpp:148] Top shape: 10 64 112 112 (8028160)
I0714 21:23:42.780599 26465 net.cpp:156] Memory required for data: 38133760
I0714 21:23:42.780621 26465 layer_factory.hpp:77] Creating layer conv1/relu_7x7
I0714 21:23:42.780638 26465 net.cpp:91] Creating Layer conv1/relu_7x7
I0714 21:23:42.780644 26465 net.cpp:425] conv1/relu_7x7 <- conv1/7x7_s2
I0714 21:23:42.780653 26465 net.cpp:386] conv1/relu_7x7 -> conv1/7x7_s2 (in-place)
I0714 21:23:42.781424 26469 net.cpp:141] Setting up pool1/3x3_s2
I0714 21:23:42.781440 26469 net.cpp:148] Top shape: 10 64 56 56 (2007040)
I0714 21:23:42.781445 26469 net.cpp:156] Memory required for data: 78274560
I0714 21:23:42.781451 26469 layer_factory.hpp:77] Creating layer pool1/norm1
I0714 21:23:42.781476 26469 net.cpp:91] Creating Layer pool1/norm1
I0714 21:23:42.781483 26469 net.cpp:425] pool1/norm1 <- pool1/3x3_s2
I0714 21:23:42.781491 26469 net.cpp:399] pool1/norm1 -> pool1/norm1
I0714 21:23:42.781527 26465 net.cpp:141] Setting up conv1/relu_7x7
I0714 21:23:42.781541 26465 net.cpp:148] Top shape: 10 64 112 112 (8028160)
I0714 21:23:42.781546 26465 net.cpp:156] Memory required for data: 70246400
I0714 21:23:42.781553 26465 layer_factory.hpp:77] Creating layer pool1/3x3_s2
I0714 21:23:42.781563 26465 net.cpp:91] Creating Layer pool1/3x3_s2
I0714 21:23:42.781569 26465 net.cpp:425] pool1/3x3_s2 <- conv1/7x7_s2
I0714 21:23:42.781580 26465 net.cpp:399] pool1/3x3_s2 -> pool1/3x3_s2
I0714 21:23:42.782387 26465 net.cpp:141] Setting up pool1/3x3_s2
I0714 21:23:42.782405 26465 net.cpp:148] Top shape: 10 64 56 56 (2007040)
I0714 21:23:42.782410 26465 net.cpp:156] Memory required for data: 78274560
I0714 21:23:42.782416 26465 layer_factory.hpp:77] Creating layer pool1/norm1
I0714 21:23:42.782433 26465 net.cpp:91] Creating Layer pool1/norm1
I0714 21:23:42.782438 26465 net.cpp:425] pool1/norm1 <- pool1/3x3_s2
I0714 21:23:42.782446 26465 net.cpp:399] pool1/norm1 -> pool1/norm1
I0714 21:23:42.783313 26469 net.cpp:141] Setting up pool1/norm1
I0714 21:23:42.783334 26469 net.cpp:148] Top shape: 10 64 56 56 (2007040)
I0714 21:23:42.783339 26469 net.cpp:156] Memory required for data: 86302720
I0714 21:23:42.783345 26469 layer_factory.hpp:77] Creating layer conv2/3x3_reduce
I0714 21:23:42.783375 26469 net.cpp:91] Creating Layer conv2/3x3_reduce
I0714 21:23:42.783381 26469 net.cpp:425] conv2/3x3_reduce <- pool1/norm1
I0714 21:23:42.783393 26469 net.cpp:399] conv2/3x3_reduce -> conv2/3x3_reduce
I0714 21:23:42.783516 26465 net.cpp:141] Setting up pool1/norm1
I0714 21:23:42.783532 26465 net.cpp:148] Top shape: 10 64 56 56 (2007040)
I0714 21:23:42.783537 26465 net.cpp:156] Memory required for data: 86302720
I0714 21:23:42.783543 26465 layer_factory.hpp:77] Creating layer conv2/3x3_reduce
I0714 21:23:42.783576 26465 net.cpp:91] Creating Layer conv2/3x3_reduce
I0714 21:23:42.783583 26465 net.cpp:425] conv2/3x3_reduce <- pool1/norm1
I0714 21:23:42.783593 26465 net.cpp:399] conv2/3x3_reduce -> conv2/3x3_reduce
I0714 21:23:42.790909 26469 net.cpp:141] Setting up conv2/3x3_reduce
I0714 21:23:42.790930 26469 net.cpp:148] Top shape: 10 64 56 56 (2007040)
I0714 21:23:42.790935 26469 net.cpp:156] Memory required for data: 94330880
I0714 21:23:42.790949 26469 layer_factory.hpp:77] Creating layer conv2/relu_3x3_reduce
I0714 21:23:42.790959 26469 net.cpp:91] Creating Layer conv2/relu_3x3_reduce
I0714 21:23:42.790964 26469 net.cpp:425] conv2/relu_3x3_reduce <- conv2/3x3_reduce
I0714 21:23:42.790977 26469 net.cpp:386] conv2/relu_3x3_reduce -> conv2/3x3_reduce (in-place)
I0714 21:23:42.791985 26469 net.cpp:141] Setting up conv2/relu_3x3_reduce
I0714 21:23:42.792001 26469 net.cpp:148] Top shape: 10 64 56 56 (2007040)
I0714 21:23:42.792007 26469 net.cpp:156] Memory required for data: 102359040
I0714 21:23:42.792013 26469 layer_factory.hpp:77] Creating layer conv2/3x3
I0714 21:23:42.792013 26465 net.cpp:141] Setting up conv2/3x3_reduce
I0714 21:23:42.792032 26469 net.cpp:91] Creating Layer conv2/3x3
I0714 21:23:42.792033 26465 net.cpp:148] Top shape: 10 64 56 56 (2007040)
I0714 21:23:42.792039 26469 net.cpp:425] conv2/3x3 <- conv2/3x3_reduce
I0714 21:23:42.792042 26465 net.cpp:156] Memory required for data: 94330880
I0714 21:23:42.792059 26469 net.cpp:399] conv2/3x3 -> conv2/3x3
I0714 21:23:42.792068 26465 layer_factory.hpp:77] Creating layer conv2/relu_3x3_reduce
I0714 21:23:42.792078 26465 net.cpp:91] Creating Layer conv2/relu_3x3_reduce
I0714 21:23:42.792083 26465 net.cpp:425] conv2/relu_3x3_reduce <- conv2/3x3_reduce
I0714 21:23:42.792091 26465 net.cpp:386] conv2/relu_3x3_reduce -> conv2/3x3_reduce (in-place)
I0714 21:23:42.793267 26465 net.cpp:141] Setting up conv2/relu_3x3_reduce
I0714 21:23:42.793287 26465 net.cpp:148] Top shape: 10 64 56 56 (2007040)
I0714 21:23:42.793293 26465 net.cpp:156] Memory required for data: 102359040
I0714 21:23:42.793299 26465 layer_factory.hpp:77] Creating layer conv2/3x3
I0714 21:23:42.793318 26465 net.cpp:91] Creating Layer conv2/3x3
I0714 21:23:42.793324 26465 net.cpp:425] conv2/3x3 <- conv2/3x3_reduce
I0714 21:23:42.793336 26465 net.cpp:399] conv2/3x3 -> conv2/3x3
I0714 21:23:42.801863 26469 net.cpp:141] Setting up conv2/3x3
I0714 21:23:42.801887 26469 net.cpp:148] Top shape: 10 192 56 56 (6021120)
I0714 21:23:42.801892 26469 net.cpp:156] Memory required for data: 126443520
I0714 21:23:42.801910 26469 layer_factory.hpp:77] Creating layer conv2/relu_3x3
I0714 21:23:42.801923 26469 net.cpp:91] Creating Layer conv2/relu_3x3
I0714 21:23:42.801928 26469 net.cpp:425] conv2/relu_3x3 <- conv2/3x3
I0714 21:23:42.801939 26469 net.cpp:386] conv2/relu_3x3 -> conv2/3x3 (in-place)
I0714 21:23:42.802350 26469 net.cpp:141] Setting up conv2/relu_3x3
I0714 21:23:42.802363 26469 net.cpp:148] Top shape: 10 192 56 56 (6021120)
I0714 21:23:42.802368 26469 net.cpp:156] Memory required for data: 150528000
I0714 21:23:42.802374 26469 layer_factory.hpp:77] Creating layer conv2/norm2
I0714 21:23:42.802398 26469 net.cpp:91] Creating Layer conv2/norm2
I0714 21:23:42.802405 26469 net.cpp:425] conv2/norm2 <- conv2/3x3
I0714 21:23:42.802417 26469 net.cpp:399] conv2/norm2 -> conv2/norm2
I0714 21:23:42.803050 26465 net.cpp:141] Setting up conv2/3x3
I0714 21:23:42.803076 26465 net.cpp:148] Top shape: 10 192 56 56 (6021120)
I0714 21:23:42.803081 26465 net.cpp:156] Memory required for data: 126443520
I0714 21:23:42.803097 26465 layer_factory.hpp:77] Creating layer conv2/relu_3x3
I0714 21:23:42.803112 26465 net.cpp:91] Creating Layer conv2/relu_3x3
I0714 21:23:42.803118 26465 net.cpp:425] conv2/relu_3x3 <- conv2/3x3
I0714 21:23:42.803128 26465 net.cpp:386] conv2/relu_3x3 -> conv2/3x3 (in-place)
I0714 21:23:42.803416 26465 net.cpp:141] Setting up conv2/relu_3x3
I0714 21:23:42.803428 26465 net.cpp:148] Top shape: 10 192 56 56 (6021120)
I0714 21:23:42.803433 26465 net.cpp:156] Memory required for data: 150528000
I0714 21:23:42.803438 26465 layer_factory.hpp:77] Creating layer conv2/norm2
I0714 21:23:42.803452 26465 net.cpp:91] Creating Layer conv2/norm2
I0714 21:23:42.803457 26465 net.cpp:425] conv2/norm2 <- conv2/3x3
I0714 21:23:42.803465 26465 net.cpp:399] conv2/norm2 -> conv2/norm2
I0714 21:23:42.804441 26469 net.cpp:141] Setting up conv2/norm2
I0714 21:23:42.804461 26469 net.cpp:148] Top shape: 10 192 56 56 (6021120)
I0714 21:23:42.804466 26469 net.cpp:156] Memory required for data: 174612480
I0714 21:23:42.804472 26469 layer_factory.hpp:77] Creating layer pool2/3x3_s2
I0714 21:23:42.804481 26469 net.cpp:91] Creating Layer pool2/3x3_s2
I0714 21:23:42.804487 26469 net.cpp:425] pool2/3x3_s2 <- conv2/norm2
I0714 21:23:42.804499 26469 net.cpp:399] pool2/3x3_s2 -> pool2/3x3_s2
I0714 21:23:42.804735 26469 net.cpp:141] Setting up pool2/3x3_s2
I0714 21:23:42.804747 26469 net.cpp:148] Top shape: 10 192 28 28 (1505280)
I0714 21:23:42.804752 26469 net.cpp:156] Memory required for data: 180633600
I0714 21:23:42.804757 26469 layer_factory.hpp:77] Creating layer pool2/3x3_s2_pool2/3x3_s2_0_split
I0714 21:23:42.804764 26465 net.cpp:141] Setting up conv2/norm2
I0714 21:23:42.804777 26469 net.cpp:91] Creating Layer pool2/3x3_s2_pool2/3x3_s2_0_split
I0714 21:23:42.804780 26465 net.cpp:148] Top shape: 10 192 56 56 (6021120)
I0714 21:23:42.804783 26469 net.cpp:425] pool2/3x3_s2_pool2/3x3_s2_0_split <- pool2/3x3_s2
I0714 21:23:42.804785 26465 net.cpp:156] Memory required for data: 174612480
I0714 21:23:42.804792 26465 layer_factory.hpp:77] Creating layer pool2/3x3_s2
I0714 21:23:42.804796 26469 net.cpp:399] pool2/3x3_s2_pool2/3x3_s2_0_split -> pool2/3x3_s2_pool2/3x3_s2_0_split_0
I0714 21:23:42.804802 26465 net.cpp:91] Creating Layer pool2/3x3_s2
I0714 21:23:42.804808 26465 net.cpp:425] pool2/3x3_s2 <- conv2/norm2
I0714 21:23:42.804810 26469 net.cpp:399] pool2/3x3_s2_pool2/3x3_s2_0_split -> pool2/3x3_s2_pool2/3x3_s2_0_split_1
I0714 21:23:42.804819 26469 net.cpp:399] pool2/3x3_s2_pool2/3x3_s2_0_split -> pool2/3x3_s2_pool2/3x3_s2_0_split_2
I0714 21:23:42.804821 26465 net.cpp:399] pool2/3x3_s2 -> pool2/3x3_s2
I0714 21:23:42.804828 26469 net.cpp:399] pool2/3x3_s2_pool2/3x3_s2_0_split -> pool2/3x3_s2_pool2/3x3_s2_0_split_3
I0714 21:23:42.805043 26465 net.cpp:141] Setting up pool2/3x3_s2
I0714 21:23:42.805057 26465 net.cpp:148] Top shape: 10 192 28 28 (1505280)
I0714 21:23:42.805061 26465 net.cpp:156] Memory required for data: 180633600
I0714 21:23:42.805066 26465 layer_factory.hpp:77] Creating layer pool2/3x3_s2_pool2/3x3_s2_0_split
I0714 21:23:42.805075 26465 net.cpp:91] Creating Layer pool2/3x3_s2_pool2/3x3_s2_0_split
I0714 21:23:42.805080 26465 net.cpp:425] pool2/3x3_s2_pool2/3x3_s2_0_split <- pool2/3x3_s2
I0714 21:23:42.805094 26465 net.cpp:399] pool2/3x3_s2_pool2/3x3_s2_0_split -> pool2/3x3_s2_pool2/3x3_s2_0_split_0
I0714 21:23:42.805112 26465 net.cpp:399] pool2/3x3_s2_pool2/3x3_s2_0_split -> pool2/3x3_s2_pool2/3x3_s2_0_split_1
I0714 21:23:42.805130 26465 net.cpp:399] pool2/3x3_s2_pool2/3x3_s2_0_split -> pool2/3x3_s2_pool2/3x3_s2_0_split_2
I0714 21:23:42.805136 26469 net.cpp:141] Setting up pool2/3x3_s2_pool2/3x3_s2_0_split
I0714 21:23:42.805146 26465 net.cpp:399] pool2/3x3_s2_pool2/3x3_s2_0_split -> pool2/3x3_s2_pool2/3x3_s2_0_split_3
I0714 21:23:42.805150 26469 net.cpp:148] Top shape: 10 192 28 28 (1505280)
I0714 21:23:42.805167 26469 net.cpp:148] Top shape: 10 192 28 28 (1505280)
I0714 21:23:42.805173 26469 net.cpp:148] Top shape: 10 192 28 28 (1505280)
I0714 21:23:42.805178 26469 net.cpp:148] Top shape: 10 192 28 28 (1505280)
I0714 21:23:42.805182 26469 net.cpp:156] Memory required for data: 204718080
I0714 21:23:42.805188 26469 layer_factory.hpp:77] Creating layer inception_3a/1x1
I0714 21:23:42.805205 26469 net.cpp:91] Creating Layer inception_3a/1x1
I0714 21:23:42.805212 26469 net.cpp:425] inception_3a/1x1 <- pool2/3x3_s2_pool2/3x3_s2_0_split_0
I0714 21:23:42.805244 26469 net.cpp:399] inception_3a/1x1 -> inception_3a/1x1
I0714 21:23:42.805691 26465 net.cpp:141] Setting up pool2/3x3_s2_pool2/3x3_s2_0_split
I0714 21:23:42.805708 26465 net.cpp:148] Top shape: 10 192 28 28 (1505280)
I0714 21:23:42.805716 26465 net.cpp:148] Top shape: 10 192 28 28 (1505280)
I0714 21:23:42.805721 26465 net.cpp:148] Top shape: 10 192 28 28 (1505280)
I0714 21:23:42.805727 26465 net.cpp:148] Top shape: 10 192 28 28 (1505280)
I0714 21:23:42.805732 26465 net.cpp:156] Memory required for data: 204718080
I0714 21:23:42.805737 26465 layer_factory.hpp:77] Creating layer inception_3a/1x1
I0714 21:23:42.805755 26465 net.cpp:91] Creating Layer inception_3a/1x1
I0714 21:23:42.805762 26465 net.cpp:425] inception_3a/1x1 <- pool2/3x3_s2_pool2/3x3_s2_0_split_0
I0714 21:23:42.805780 26465 net.cpp:399] inception_3a/1x1 -> inception_3a/1x1
I0714 21:23:42.813905 26469 net.cpp:141] Setting up inception_3a/1x1
I0714 21:23:42.813928 26469 net.cpp:148] Top shape: 10 64 28 28 (501760)
I0714 21:23:42.813935 26469 net.cpp:156] Memory required for data: 206725120
I0714 21:23:42.813946 26469 layer_factory.hpp:77] Creating layer inception_3a/relu_1x1
I0714 21:23:42.813956 26469 net.cpp:91] Creating Layer inception_3a/relu_1x1
I0714 21:23:42.813961 26469 net.cpp:425] inception_3a/relu_1x1 <- inception_3a/1x1
I0714 21:23:42.813973 26469 net.cpp:386] inception_3a/relu_1x1 -> inception_3a/1x1 (in-place)
I0714 21:23:42.814954 26469 net.cpp:141] Setting up inception_3a/relu_1x1
I0714 21:23:42.814970 26469 net.cpp:148] Top shape: 10 64 28 28 (501760)
I0714 21:23:42.814975 26469 net.cpp:156] Memory required for data: 208732160
I0714 21:23:42.814980 26469 layer_factory.hpp:77] Creating layer inception_3a/3x3_reduce
I0714 21:23:42.815003 26469 net.cpp:91] Creating Layer inception_3a/3x3_reduce
I0714 21:23:42.815011 26469 net.cpp:425] inception_3a/3x3_reduce <- pool2/3x3_s2_pool2/3x3_s2_0_split_1
I0714 21:23:42.815021 26469 net.cpp:399] inception_3a/3x3_reduce -> inception_3a/3x3_reduce
I0714 21:23:42.817574 26465 net.cpp:141] Setting up inception_3a/1x1
I0714 21:23:42.817615 26465 net.cpp:148] Top shape: 10 64 28 28 (501760)
I0714 21:23:42.817620 26465 net.cpp:156] Memory required for data: 206725120
I0714 21:23:42.817641 26465 layer_factory.hpp:77] Creating layer inception_3a/relu_1x1
I0714 21:23:42.817656 26465 net.cpp:91] Creating Layer inception_3a/relu_1x1
I0714 21:23:42.817663 26465 net.cpp:425] inception_3a/relu_1x1 <- inception_3a/1x1
I0714 21:23:42.817677 26465 net.cpp:386] inception_3a/relu_1x1 -> inception_3a/1x1 (in-place)
I0714 21:23:42.818616 26465 net.cpp:141] Setting up inception_3a/relu_1x1
I0714 21:23:42.818630 26465 net.cpp:148] Top shape: 10 64 28 28 (501760)
I0714 21:23:42.818635 26465 net.cpp:156] Memory required for data: 208732160
I0714 21:23:42.818640 26465 layer_factory.hpp:77] Creating layer inception_3a/3x3_reduce
I0714 21:23:42.818665 26465 net.cpp:91] Creating Layer inception_3a/3x3_reduce
I0714 21:23:42.818673 26465 net.cpp:425] inception_3a/3x3_reduce <- pool2/3x3_s2_pool2/3x3_s2_0_split_1
I0714 21:23:42.818684 26465 net.cpp:399] inception_3a/3x3_reduce -> inception_3a/3x3_reduce
I0714 21:23:42.825938 26469 net.cpp:141] Setting up inception_3a/3x3_reduce
I0714 21:23:42.825964 26469 net.cpp:148] Top shape: 10 96 28 28 (752640)
I0714 21:23:42.825971 26469 net.cpp:156] Memory required for data: 211742720
I0714 21:23:42.825989 26469 layer_factory.hpp:77] Creating layer inception_3a/relu_3x3_reduce
I0714 21:23:42.826004 26469 net.cpp:91] Creating Layer inception_3a/relu_3x3_reduce
I0714 21:23:42.826012 26469 net.cpp:425] inception_3a/relu_3x3_reduce <- inception_3a/3x3_reduce
I0714 21:23:42.826021 26469 net.cpp:386] inception_3a/relu_3x3_reduce -> inception_3a/3x3_reduce (in-place)
I0714 21:23:42.826311 26465 net.cpp:141] Setting up inception_3a/3x3_reduce
I0714 21:23:42.826330 26465 net.cpp:148] Top shape: 10 96 28 28 (752640)
I0714 21:23:42.826336 26465 net.cpp:156] Memory required for data: 211742720
I0714 21:23:42.826351 26465 layer_factory.hpp:77] Creating layer inception_3a/relu_3x3_reduce
I0714 21:23:42.826365 26465 net.cpp:91] Creating Layer inception_3a/relu_3x3_reduce
I0714 21:23:42.826372 26465 net.cpp:425] inception_3a/relu_3x3_reduce <- inception_3a/3x3_reduce
I0714 21:23:42.826380 26465 net.cpp:386] inception_3a/relu_3x3_reduce -> inception_3a/3x3_reduce (in-place)
I0714 21:23:42.826382 26469 net.cpp:141] Setting up inception_3a/relu_3x3_reduce
I0714 21:23:42.826396 26469 net.cpp:148] Top shape: 10 96 28 28 (752640)
I0714 21:23:42.826401 26469 net.cpp:156] Memory required for data: 214753280
I0714 21:23:42.826406 26469 layer_factory.hpp:77] Creating layer inception_3a/3x3
I0714 21:23:42.826431 26469 net.cpp:91] Creating Layer inception_3a/3x3
I0714 21:23:42.826439 26469 net.cpp:425] inception_3a/3x3 <- inception_3a/3x3_reduce
I0714 21:23:42.826449 26469 net.cpp:399] inception_3a/3x3 -> inception_3a/3x3
I0714 21:23:42.826815 26465 net.cpp:141] Setting up inception_3a/relu_3x3_reduce
I0714 21:23:42.826830 26465 net.cpp:148] Top shape: 10 96 28 28 (752640)
I0714 21:23:42.826835 26465 net.cpp:156] Memory required for data: 214753280
I0714 21:23:42.826841 26465 layer_factory.hpp:77] Creating layer inception_3a/3x3
I0714 21:23:42.826863 26465 net.cpp:91] Creating Layer inception_3a/3x3
I0714 21:23:42.826869 26465 net.cpp:425] inception_3a/3x3 <- inception_3a/3x3_reduce
I0714 21:23:42.826881 26465 net.cpp:399] inception_3a/3x3 -> inception_3a/3x3
I0714 21:23:42.831154 26469 net.cpp:141] Setting up inception_3a/3x3
I0714 21:23:42.831173 26469 net.cpp:148] Top shape: 10 128 28 28 (1003520)
I0714 21:23:42.831179 26469 net.cpp:156] Memory required for data: 218767360
I0714 21:23:42.831190 26469 layer_factory.hpp:77] Creating layer inception_3a/relu_3x3
I0714 21:23:42.831200 26469 net.cpp:91] Creating Layer inception_3a/relu_3x3
I0714 21:23:42.831207 26469 net.cpp:425] inception_3a/relu_3x3 <- inception_3a/3x3
I0714 21:23:42.831217 26469 net.cpp:386] inception_3a/relu_3x3 -> inception_3a/3x3 (in-place)
I0714 21:23:42.832228 26469 net.cpp:141] Setting up inception_3a/relu_3x3
I0714 21:23:42.832245 26469 net.cpp:148] Top shape: 10 128 28 28 (1003520)
I0714 21:23:42.832252 26469 net.cpp:156] Memory required for data: 222781440
I0714 21:23:42.832257 26469 layer_factory.hpp:77] Creating layer inception_3a/5x5_reduce
I0714 21:23:42.832274 26469 net.cpp:91] Creating Layer inception_3a/5x5_reduce
I0714 21:23:42.832283 26469 net.cpp:425] inception_3a/5x5_reduce <- pool2/3x3_s2_pool2/3x3_s2_0_split_2
I0714 21:23:42.832286 26465 net.cpp:141] Setting up inception_3a/3x3
I0714 21:23:42.832295 26469 net.cpp:399] inception_3a/5x5_reduce -> inception_3a/5x5_reduce
I0714 21:23:42.832304 26465 net.cpp:148] Top shape: 10 128 28 28 (1003520)
I0714 21:23:42.832309 26465 net.cpp:156] Memory required for data: 218767360
I0714 21:23:42.832320 26465 layer_factory.hpp:77] Creating layer inception_3a/relu_3x3
I0714 21:23:42.832329 26465 net.cpp:91] Creating Layer inception_3a/relu_3x3
I0714 21:23:42.832335 26465 net.cpp:425] inception_3a/relu_3x3 <- inception_3a/3x3
I0714 21:23:42.832343 26465 net.cpp:386] inception_3a/relu_3x3 -> inception_3a/3x3 (in-place)
I0714 21:23:42.833340 26465 net.cpp:141] Setting up inception_3a/relu_3x3
I0714 21:23:42.833356 26465 net.cpp:148] Top shape: 10 128 28 28 (1003520)
I0714 21:23:42.833362 26465 net.cpp:156] Memory required for data: 222781440
I0714 21:23:42.833367 26465 layer_factory.hpp:77] Creating layer inception_3a/5x5_reduce
I0714 21:23:42.833385 26465 net.cpp:91] Creating Layer inception_3a/5x5_reduce
I0714 21:23:42.833392 26465 net.cpp:425] inception_3a/5x5_reduce <- pool2/3x3_s2_pool2/3x3_s2_0_split_2
I0714 21:23:42.833405 26465 net.cpp:399] inception_3a/5x5_reduce -> inception_3a/5x5_reduce
I0714 21:23:42.837704 26469 net.cpp:141] Setting up inception_3a/5x5_reduce
I0714 21:23:42.837724 26469 net.cpp:148] Top shape: 10 16 28 28 (125440)
I0714 21:23:42.837729 26469 net.cpp:156] Memory required for data: 223283200
I0714 21:23:42.837739 26469 layer_factory.hpp:77] Creating layer inception_3a/relu_5x5_reduce
I0714 21:23:42.837749 26469 net.cpp:91] Creating Layer inception_3a/relu_5x5_reduce
I0714 21:23:42.837755 26469 net.cpp:425] inception_3a/relu_5x5_reduce <- inception_3a/5x5_reduce
I0714 21:23:42.837764 26469 net.cpp:386] inception_3a/relu_5x5_reduce -> inception_3a/5x5_reduce (in-place)
I0714 21:23:42.838198 26469 net.cpp:141] Setting up inception_3a/relu_5x5_reduce
I0714 21:23:42.838213 26469 net.cpp:148] Top shape: 10 16 28 28 (125440)
I0714 21:23:42.838218 26469 net.cpp:156] Memory required for data: 223784960
I0714 21:23:42.838224 26469 layer_factory.hpp:77] Creating layer inception_3a/5x5
I0714 21:23:42.838243 26469 net.cpp:91] Creating Layer inception_3a/5x5
I0714 21:23:42.838249 26469 net.cpp:425] inception_3a/5x5 <- inception_3a/5x5_reduce
I0714 21:23:42.838258 26469 net.cpp:399] inception_3a/5x5 -> inception_3a/5x5
I0714 21:23:42.838295 26465 net.cpp:141] Setting up inception_3a/5x5_reduce
I0714 21:23:42.838312 26465 net.cpp:148] Top shape: 10 16 28 28 (125440)
I0714 21:23:42.838317 26465 net.cpp:156] Memory required for data: 223283200
I0714 21:23:42.838327 26465 layer_factory.hpp:77] Creating layer inception_3a/relu_5x5_reduce
I0714 21:23:42.838336 26465 net.cpp:91] Creating Layer inception_3a/relu_5x5_reduce
I0714 21:23:42.838342 26465 net.cpp:425] inception_3a/relu_5x5_reduce <- inception_3a/5x5_reduce
I0714 21:23:42.838356 26465 net.cpp:386] inception_3a/relu_5x5_reduce -> inception_3a/5x5_reduce (in-place)
I0714 21:23:42.838848 26465 net.cpp:141] Setting up inception_3a/relu_5x5_reduce
I0714 21:23:42.838866 26465 net.cpp:148] Top shape: 10 16 28 28 (125440)
I0714 21:23:42.838871 26465 net.cpp:156] Memory required for data: 223784960
I0714 21:23:42.838877 26465 layer_factory.hpp:77] Creating layer inception_3a/5x5
I0714 21:23:42.838896 26465 net.cpp:91] Creating Layer inception_3a/5x5
I0714 21:23:42.838902 26465 net.cpp:425] inception_3a/5x5 <- inception_3a/5x5_reduce
I0714 21:23:42.838912 26465 net.cpp:399] inception_3a/5x5 -> inception_3a/5x5
I0714 21:23:42.844583 26469 net.cpp:141] Setting up inception_3a/5x5
I0714 21:23:42.844604 26469 net.cpp:148] Top shape: 10 32 28 28 (250880)
I0714 21:23:42.844609 26469 net.cpp:156] Memory required for data: 224788480
I0714 21:23:42.844619 26469 layer_factory.hpp:77] Creating layer inception_3a/relu_5x5
I0714 21:23:42.844631 26469 net.cpp:91] Creating Layer inception_3a/relu_5x5
I0714 21:23:42.844637 26469 net.cpp:425] inception_3a/relu_5x5 <- inception_3a/5x5
I0714 21:23:42.844645 26469 net.cpp:386] inception_3a/relu_5x5 -> inception_3a/5x5 (in-place)
I0714 21:23:42.845048 26469 net.cpp:141] Setting up inception_3a/relu_5x5
I0714 21:23:42.845065 26469 net.cpp:148] Top shape: 10 32 28 28 (250880)
I0714 21:23:42.845070 26469 net.cpp:156] Memory required for data: 225792000
I0714 21:23:42.845075 26469 layer_factory.hpp:77] Creating layer inception_3a/pool
I0714 21:23:42.845089 26469 net.cpp:91] Creating Layer inception_3a/pool
I0714 21:23:42.845095 26469 net.cpp:425] inception_3a/pool <- pool2/3x3_s2_pool2/3x3_s2_0_split_3
I0714 21:23:42.845108 26469 net.cpp:399] inception_3a/pool -> inception_3a/pool
I0714 21:23:42.845698 26465 net.cpp:141] Setting up inception_3a/5x5
I0714 21:23:42.845718 26465 net.cpp:148] Top shape: 10 32 28 28 (250880)
I0714 21:23:42.845724 26465 net.cpp:156] Memory required for data: 224788480
I0714 21:23:42.845734 26465 layer_factory.hpp:77] Creating layer inception_3a/relu_5x5
I0714 21:23:42.845736 26469 net.cpp:141] Setting up inception_3a/pool
I0714 21:23:42.845746 26465 net.cpp:91] Creating Layer inception_3a/relu_5x5
I0714 21:23:42.845748 26469 net.cpp:148] Top shape: 10 192 28 28 (1505280)
I0714 21:23:42.845754 26465 net.cpp:425] inception_3a/relu_5x5 <- inception_3a/5x5
I0714 21:23:42.845754 26469 net.cpp:156] Memory required for data: 231813120
I0714 21:23:42.845767 26465 net.cpp:386] inception_3a/relu_5x5 -> inception_3a/5x5 (in-place)
I0714 21:23:42.845769 26469 layer_factory.hpp:77] Creating layer inception_3a/pool_proj
I0714 21:23:42.845789 26469 net.cpp:91] Creating Layer inception_3a/pool_proj
I0714 21:23:42.845796 26469 net.cpp:425] inception_3a/pool_proj <- inception_3a/pool
I0714 21:23:42.845806 26469 net.cpp:399] inception_3a/pool_proj -> inception_3a/pool_proj
I0714 21:23:42.846190 26465 net.cpp:141] Setting up inception_3a/relu_5x5
I0714 21:23:42.846204 26465 net.cpp:148] Top shape: 10 32 28 28 (250880)
I0714 21:23:42.846210 26465 net.cpp:156] Memory required for data: 225792000
I0714 21:23:42.846215 26465 layer_factory.hpp:77] Creating layer inception_3a/pool
I0714 21:23:42.846226 26465 net.cpp:91] Creating Layer inception_3a/pool
I0714 21:23:42.846233 26465 net.cpp:425] inception_3a/pool <- pool2/3x3_s2_pool2/3x3_s2_0_split_3
I0714 21:23:42.846243 26465 net.cpp:399] inception_3a/pool -> inception_3a/pool
I0714 21:23:42.846434 26465 net.cpp:141] Setting up inception_3a/pool
I0714 21:23:42.846446 26465 net.cpp:148] Top shape: 10 192 28 28 (1505280)
I0714 21:23:42.846451 26465 net.cpp:156] Memory required for data: 231813120
I0714 21:23:42.846457 26465 layer_factory.hpp:77] Creating layer inception_3a/pool_proj
I0714 21:23:42.846475 26465 net.cpp:91] Creating Layer inception_3a/pool_proj
I0714 21:23:42.846482 26465 net.cpp:425] inception_3a/pool_proj <- inception_3a/pool
I0714 21:23:42.846493 26465 net.cpp:399] inception_3a/pool_proj -> inception_3a/pool_proj
I0714 21:23:42.850524 26469 net.cpp:141] Setting up inception_3a/pool_proj
I0714 21:23:42.850543 26469 net.cpp:148] Top shape: 10 32 28 28 (250880)
I0714 21:23:42.850549 26469 net.cpp:156] Memory required for data: 232816640
I0714 21:23:42.850569 26469 layer_factory.hpp:77] Creating layer inception_3a/relu_pool_proj
I0714 21:23:42.850579 26469 net.cpp:91] Creating Layer inception_3a/relu_pool_proj
I0714 21:23:42.850585 26469 net.cpp:425] inception_3a/relu_pool_proj <- inception_3a/pool_proj
I0714 21:23:42.850595 26469 net.cpp:386] inception_3a/relu_pool_proj -> inception_3a/pool_proj (in-place)
I0714 21:23:42.851586 26469 net.cpp:141] Setting up inception_3a/relu_pool_proj
I0714 21:23:42.851603 26469 net.cpp:148] Top shape: 10 32 28 28 (250880)
I0714 21:23:42.851609 26469 net.cpp:156] Memory required for data: 233820160
I0714 21:23:42.851614 26469 layer_factory.hpp:77] Creating layer inception_3a/output
I0714 21:23:42.851634 26469 net.cpp:91] Creating Layer inception_3a/output
I0714 21:23:42.851640 26469 net.cpp:425] inception_3a/output <- inception_3a/1x1
I0714 21:23:42.851649 26469 net.cpp:425] inception_3a/output <- inception_3a/3x3
I0714 21:23:42.851654 26469 net.cpp:425] inception_3a/output <- inception_3a/5x5
I0714 21:23:42.851660 26469 net.cpp:425] inception_3a/output <- inception_3a/pool_proj
I0714 21:23:42.851670 26469 net.cpp:399] inception_3a/output -> inception_3a/output
I0714 21:23:42.851681 26465 net.cpp:141] Setting up inception_3a/pool_proj
I0714 21:23:42.851706 26465 net.cpp:148] Top shape: 10 32 28 28 (250880)
I0714 21:23:42.851713 26465 net.cpp:156] Memory required for data: 232816640
I0714 21:23:42.851733 26465 layer_factory.hpp:77] Creating layer inception_3a/relu_pool_proj
I0714 21:23:42.851743 26465 net.cpp:91] Creating Layer inception_3a/relu_pool_proj
I0714 21:23:42.851742 26469 net.cpp:141] Setting up inception_3a/output
I0714 21:23:42.851755 26465 net.cpp:425] inception_3a/relu_pool_proj <- inception_3a/pool_proj
I0714 21:23:42.851763 26469 net.cpp:148] Top shape: 10 256 28 28 (2007040)
I0714 21:23:42.851768 26465 net.cpp:386] inception_3a/relu_pool_proj -> inception_3a/pool_proj (in-place)
I0714 21:23:42.851768 26469 net.cpp:156] Memory required for data: 241848320
I0714 21:23:42.851780 26469 layer_factory.hpp:77] Creating layer inception_3a/output_inception_3a/output_0_split
I0714 21:23:42.851794 26469 net.cpp:91] Creating Layer inception_3a/output_inception_3a/output_0_split
I0714 21:23:42.851799 26469 net.cpp:425] inception_3a/output_inception_3a/output_0_split <- inception_3a/output
I0714 21:23:42.851807 26469 net.cpp:399] inception_3a/output_inception_3a/output_0_split -> inception_3a/output_inception_3a/output_0_split_0
I0714 21:23:42.851817 26469 net.cpp:399] inception_3a/output_inception_3a/output_0_split -> inception_3a/output_inception_3a/output_0_split_1
I0714 21:23:42.851826 26469 net.cpp:399] inception_3a/output_inception_3a/output_0_split -> inception_3a/output_inception_3a/output_0_split_2
I0714 21:23:42.851835 26469 net.cpp:399] inception_3a/output_inception_3a/output_0_split -> inception_3a/output_inception_3a/output_0_split_3
I0714 21:23:42.852746 26469 net.cpp:141] Setting up inception_3a/output_inception_3a/output_0_split
I0714 21:23:42.852752 26465 net.cpp:141] Setting up inception_3a/relu_pool_proj
I0714 21:23:42.852768 26469 net.cpp:148] Top shape: 10 256 28 28 (2007040)
I0714 21:23:42.852772 26465 net.cpp:148] Top shape: 10 32 28 28 (250880)
I0714 21:23:42.852777 26469 net.cpp:148] Top shape: 10 256 28 28 (2007040)
I0714 21:23:42.852778 26465 net.cpp:156] Memory required for data: 233820160
I0714 21:23:42.852782 26469 net.cpp:148] Top shape: 10 256 28 28 (2007040)
I0714 21:23:42.852784 26465 layer_factory.hpp:77] Creating layer inception_3a/output
I0714 21:23:42.852788 26469 net.cpp:148] Top shape: 10 256 28 28 (2007040)
I0714 21:23:42.852793 26469 net.cpp:156] Memory required for data: 273960960
I0714 21:23:42.852793 26465 net.cpp:91] Creating Layer inception_3a/output
I0714 21:23:42.852798 26469 layer_factory.hpp:77] Creating layer inception_3b/1x1
I0714 21:23:42.852800 26465 net.cpp:425] inception_3a/output <- inception_3a/1x1
I0714 21:23:42.852808 26465 net.cpp:425] inception_3a/output <- inception_3a/3x3
I0714 21:23:42.852814 26465 net.cpp:425] inception_3a/output <- inception_3a/5x5
I0714 21:23:42.852819 26465 net.cpp:425] inception_3a/output <- inception_3a/pool_proj
I0714 21:23:42.852821 26469 net.cpp:91] Creating Layer inception_3b/1x1
I0714 21:23:42.852828 26469 net.cpp:425] inception_3b/1x1 <- inception_3a/output_inception_3a/output_0_split_0
I0714 21:23:42.852831 26465 net.cpp:399] inception_3a/output -> inception_3a/output
I0714 21:23:42.852838 26469 net.cpp:399] inception_3b/1x1 -> inception_3b/1x1
I0714 21:23:42.852921 26465 net.cpp:141] Setting up inception_3a/output
I0714 21:23:42.852933 26465 net.cpp:148] Top shape: 10 256 28 28 (2007040)
I0714 21:23:42.852938 26465 net.cpp:156] Memory required for data: 241848320
I0714 21:23:42.852944 26465 layer_factory.hpp:77] Creating layer inception_3a/output_inception_3a/output_0_split
I0714 21:23:42.852952 26465 net.cpp:91] Creating Layer inception_3a/output_inception_3a/output_0_split
I0714 21:23:42.852957 26465 net.cpp:425] inception_3a/output_inception_3a/output_0_split <- inception_3a/output
I0714 21:23:42.852967 26465 net.cpp:399] inception_3a/output_inception_3a/output_0_split -> inception_3a/output_inception_3a/output_0_split_0
I0714 21:23:42.852978 26465 net.cpp:399] inception_3a/output_inception_3a/output_0_split -> inception_3a/output_inception_3a/output_0_split_1
I0714 21:23:42.852988 26465 net.cpp:399] inception_3a/output_inception_3a/output_0_split -> inception_3a/output_inception_3a/output_0_split_2
I0714 21:23:42.852995 26465 net.cpp:399] inception_3a/output_inception_3a/output_0_split -> inception_3a/output_inception_3a/output_0_split_3
I0714 21:23:42.853374 26465 net.cpp:141] Setting up inception_3a/output_inception_3a/output_0_split
I0714 21:23:42.853386 26465 net.cpp:148] Top shape: 10 256 28 28 (2007040)
I0714 21:23:42.853392 26465 net.cpp:148] Top shape: 10 256 28 28 (2007040)
I0714 21:23:42.853399 26465 net.cpp:148] Top shape: 10 256 28 28 (2007040)
I0714 21:23:42.853404 26465 net.cpp:148] Top shape: 10 256 28 28 (2007040)
I0714 21:23:42.853409 26465 net.cpp:156] Memory required for data: 273960960
I0714 21:23:42.853413 26465 layer_factory.hpp:77] Creating layer inception_3b/1x1
I0714 21:23:42.853430 26465 net.cpp:91] Creating Layer inception_3b/1x1
I0714 21:23:42.853438 26465 net.cpp:425] inception_3b/1x1 <- inception_3a/output_inception_3a/output_0_split_0
I0714 21:23:42.853448 26465 net.cpp:399] inception_3b/1x1 -> inception_3b/1x1
I0714 21:23:42.856830 26469 net.cpp:141] Setting up inception_3b/1x1
I0714 21:23:42.856851 26469 net.cpp:148] Top shape: 10 128 28 28 (1003520)
I0714 21:23:42.856858 26469 net.cpp:156] Memory required for data: 277975040
I0714 21:23:42.856868 26469 layer_factory.hpp:77] Creating layer inception_3b/relu_1x1
I0714 21:23:42.856878 26469 net.cpp:91] Creating Layer inception_3b/relu_1x1
I0714 21:23:42.856884 26469 net.cpp:425] inception_3b/relu_1x1 <- inception_3b/1x1
I0714 21:23:42.856895 26469 net.cpp:386] inception_3b/relu_1x1 -> inception_3b/1x1 (in-place)
I0714 21:23:42.857220 26465 net.cpp:141] Setting up inception_3b/1x1
I0714 21:23:42.857244 26465 net.cpp:148] Top shape: 10 128 28 28 (1003520)
I0714 21:23:42.857251 26465 net.cpp:156] Memory required for data: 277975040
I0714 21:23:42.857257 26469 net.cpp:141] Setting up inception_3b/relu_1x1
I0714 21:23:42.857267 26465 layer_factory.hpp:77] Creating layer inception_3b/relu_1x1
I0714 21:23:42.857275 26469 net.cpp:148] Top shape: 10 128 28 28 (1003520)
I0714 21:23:42.857280 26469 net.cpp:156] Memory required for data: 281989120
I0714 21:23:42.857282 26465 net.cpp:91] Creating Layer inception_3b/relu_1x1
I0714 21:23:42.857285 26469 layer_factory.hpp:77] Creating layer inception_3b/3x3_reduce
I0714 21:23:42.857300 26465 net.cpp:425] inception_3b/relu_1x1 <- inception_3b/1x1
I0714 21:23:42.857321 26469 net.cpp:91] Creating Layer inception_3b/3x3_reduce
I0714 21:23:42.857328 26469 net.cpp:425] inception_3b/3x3_reduce <- inception_3a/output_inception_3a/output_0_split_1
I0714 21:23:42.857331 26465 net.cpp:386] inception_3b/relu_1x1 -> inception_3b/1x1 (in-place)
I0714 21:23:42.857338 26469 net.cpp:399] inception_3b/3x3_reduce -> inception_3b/3x3_reduce
I0714 21:23:42.857971 26465 net.cpp:141] Setting up inception_3b/relu_1x1
I0714 21:23:42.857993 26465 net.cpp:148] Top shape: 10 128 28 28 (1003520)
I0714 21:23:42.858005 26465 net.cpp:156] Memory required for data: 281989120
I0714 21:23:42.858013 26465 layer_factory.hpp:77] Creating layer inception_3b/3x3_reduce
I0714 21:23:42.858038 26465 net.cpp:91] Creating Layer inception_3b/3x3_reduce
I0714 21:23:42.858052 26465 net.cpp:425] inception_3b/3x3_reduce <- inception_3a/output_inception_3a/output_0_split_1
I0714 21:23:42.858077 26465 net.cpp:399] inception_3b/3x3_reduce -> inception_3b/3x3_reduce
I0714 21:23:42.862071 26469 net.cpp:141] Setting up inception_3b/3x3_reduce
I0714 21:23:42.862090 26469 net.cpp:148] Top shape: 10 128 28 28 (1003520)
I0714 21:23:42.862097 26469 net.cpp:156] Memory required for data: 286003200
I0714 21:23:42.862107 26469 layer_factory.hpp:77] Creating layer inception_3b/relu_3x3_reduce
I0714 21:23:42.862118 26469 net.cpp:91] Creating Layer inception_3b/relu_3x3_reduce
I0714 21:23:42.862123 26469 net.cpp:425] inception_3b/relu_3x3_reduce <- inception_3b/3x3_reduce
I0714 21:23:42.862134 26469 net.cpp:386] inception_3b/relu_3x3_reduce -> inception_3b/3x3_reduce (in-place)
I0714 21:23:42.862476 26469 net.cpp:141] Setting up inception_3b/relu_3x3_reduce
I0714 21:23:42.862489 26469 net.cpp:148] Top shape: 10 128 28 28 (1003520)
I0714 21:23:42.862494 26469 net.cpp:156] Memory required for data: 290017280
I0714 21:23:42.862499 26469 layer_factory.hpp:77] Creating layer inception_3b/3x3
I0714 21:23:42.862524 26469 net.cpp:91] Creating Layer inception_3b/3x3
I0714 21:23:42.862531 26469 net.cpp:425] inception_3b/3x3 <- inception_3b/3x3_reduce
I0714 21:23:42.862541 26469 net.cpp:399] inception_3b/3x3 -> inception_3b/3x3
I0714 21:23:42.865625 26465 net.cpp:141] Setting up inception_3b/3x3_reduce
I0714 21:23:42.865650 26465 net.cpp:148] Top shape: 10 128 28 28 (1003520)
I0714 21:23:42.865658 26465 net.cpp:156] Memory required for data: 286003200
I0714 21:23:42.865667 26465 layer_factory.hpp:77] Creating layer inception_3b/relu_3x3_reduce
I0714 21:23:42.865677 26465 net.cpp:91] Creating Layer inception_3b/relu_3x3_reduce
I0714 21:23:42.865684 26465 net.cpp:425] inception_3b/relu_3x3_reduce <- inception_3b/3x3_reduce
I0714 21:23:42.865694 26465 net.cpp:386] inception_3b/relu_3x3_reduce -> inception_3b/3x3_reduce (in-place)
I0714 21:23:42.865972 26465 net.cpp:141] Setting up inception_3b/relu_3x3_reduce
I0714 21:23:42.865985 26465 net.cpp:148] Top shape: 10 128 28 28 (1003520)
I0714 21:23:42.865990 26465 net.cpp:156] Memory required for data: 290017280
I0714 21:23:42.865996 26465 layer_factory.hpp:77] Creating layer inception_3b/3x3
I0714 21:23:42.866019 26465 net.cpp:91] Creating Layer inception_3b/3x3
I0714 21:23:42.866025 26465 net.cpp:425] inception_3b/3x3 <- inception_3b/3x3_reduce
I0714 21:23:42.866035 26465 net.cpp:399] inception_3b/3x3 -> inception_3b/3x3
I0714 21:23:42.872120 26469 net.cpp:141] Setting up inception_3b/3x3
I0714 21:23:42.872143 26469 net.cpp:148] Top shape: 10 192 28 28 (1505280)
I0714 21:23:42.872148 26469 net.cpp:156] Memory required for data: 296038400
I0714 21:23:42.872159 26469 layer_factory.hpp:77] Creating layer inception_3b/relu_3x3
I0714 21:23:42.872175 26469 net.cpp:91] Creating Layer inception_3b/relu_3x3
I0714 21:23:42.872182 26469 net.cpp:425] inception_3b/relu_3x3 <- inception_3b/3x3
I0714 21:23:42.872200 26469 net.cpp:386] inception_3b/relu_3x3 -> inception_3b/3x3 (in-place)
I0714 21:23:42.873224 26469 net.cpp:141] Setting up inception_3b/relu_3x3
I0714 21:23:42.873241 26469 net.cpp:148] Top shape: 10 192 28 28 (1505280)
I0714 21:23:42.873247 26469 net.cpp:156] Memory required for data: 302059520
I0714 21:23:42.873252 26469 layer_factory.hpp:77] Creating layer inception_3b/5x5_reduce
I0714 21:23:42.873272 26469 net.cpp:91] Creating Layer inception_3b/5x5_reduce
I0714 21:23:42.873281 26469 net.cpp:425] inception_3b/5x5_reduce <- inception_3a/output_inception_3a/output_0_split_2
I0714 21:23:42.873291 26469 net.cpp:399] inception_3b/5x5_reduce -> inception_3b/5x5_reduce
I0714 21:23:42.873333 26465 net.cpp:141] Setting up inception_3b/3x3
I0714 21:23:42.873350 26465 net.cpp:148] Top shape: 10 192 28 28 (1505280)
I0714 21:23:42.873356 26465 net.cpp:156] Memory required for data: 296038400
I0714 21:23:42.873366 26465 layer_factory.hpp:77] Creating layer inception_3b/relu_3x3
I0714 21:23:42.873380 26465 net.cpp:91] Creating Layer inception_3b/relu_3x3
I0714 21:23:42.873386 26465 net.cpp:425] inception_3b/relu_3x3 <- inception_3b/3x3
I0714 21:23:42.873399 26465 net.cpp:386] inception_3b/relu_3x3 -> inception_3b/3x3 (in-place)
I0714 21:23:42.874408 26465 net.cpp:141] Setting up inception_3b/relu_3x3
I0714 21:23:42.874425 26465 net.cpp:148] Top shape: 10 192 28 28 (1505280)
I0714 21:23:42.874430 26465 net.cpp:156] Memory required for data: 302059520
I0714 21:23:42.874436 26465 layer_factory.hpp:77] Creating layer inception_3b/5x5_reduce
I0714 21:23:42.874454 26465 net.cpp:91] Creating Layer inception_3b/5x5_reduce
I0714 21:23:42.874460 26465 net.cpp:425] inception_3b/5x5_reduce <- inception_3a/output_inception_3a/output_0_split_2
I0714 21:23:42.874474 26465 net.cpp:399] inception_3b/5x5_reduce -> inception_3b/5x5_reduce
I0714 21:23:42.879128 26469 net.cpp:141] Setting up inception_3b/5x5_reduce
I0714 21:23:42.879148 26469 net.cpp:148] Top shape: 10 32 28 28 (250880)
I0714 21:23:42.879153 26469 net.cpp:156] Memory required for data: 303063040
I0714 21:23:42.879163 26469 layer_factory.hpp:77] Creating layer inception_3b/relu_5x5_reduce
I0714 21:23:42.879178 26469 net.cpp:91] Creating Layer inception_3b/relu_5x5_reduce
I0714 21:23:42.879184 26469 net.cpp:425] inception_3b/relu_5x5_reduce <- inception_3b/5x5_reduce
I0714 21:23:42.879194 26469 net.cpp:386] inception_3b/relu_5x5_reduce -> inception_3b/5x5_reduce (in-place)
I0714 21:23:42.879606 26469 net.cpp:141] Setting up inception_3b/relu_5x5_reduce
I0714 21:23:42.879621 26469 net.cpp:148] Top shape: 10 32 28 28 (250880)
I0714 21:23:42.879626 26469 net.cpp:156] Memory required for data: 304066560
I0714 21:23:42.879632 26469 layer_factory.hpp:77] Creating layer inception_3b/5x5
I0714 21:23:42.879652 26469 net.cpp:91] Creating Layer inception_3b/5x5
I0714 21:23:42.879658 26469 net.cpp:425] inception_3b/5x5 <- inception_3b/5x5_reduce
I0714 21:23:42.879670 26469 net.cpp:399] inception_3b/5x5 -> inception_3b/5x5
I0714 21:23:42.879768 26465 net.cpp:141] Setting up inception_3b/5x5_reduce
I0714 21:23:42.879784 26465 net.cpp:148] Top shape: 10 32 28 28 (250880)
I0714 21:23:42.879789 26465 net.cpp:156] Memory required for data: 303063040
I0714 21:23:42.879799 26465 layer_factory.hpp:77] Creating layer inception_3b/relu_5x5_reduce
I0714 21:23:42.879812 26465 net.cpp:91] Creating Layer inception_3b/relu_5x5_reduce
I0714 21:23:42.879824 26465 net.cpp:425] inception_3b/relu_5x5_reduce <- inception_3b/5x5_reduce
I0714 21:23:42.879840 26465 net.cpp:386] inception_3b/relu_5x5_reduce -> inception_3b/5x5_reduce (in-place)
I0714 21:23:42.880257 26465 net.cpp:141] Setting up inception_3b/relu_5x5_reduce
I0714 21:23:42.880273 26465 net.cpp:148] Top shape: 10 32 28 28 (250880)
I0714 21:23:42.880278 26465 net.cpp:156] Memory required for data: 304066560
I0714 21:23:42.880283 26465 layer_factory.hpp:77] Creating layer inception_3b/5x5
I0714 21:23:42.880301 26465 net.cpp:91] Creating Layer inception_3b/5x5
I0714 21:23:42.880308 26465 net.cpp:425] inception_3b/5x5 <- inception_3b/5x5_reduce
I0714 21:23:42.880318 26465 net.cpp:399] inception_3b/5x5 -> inception_3b/5x5
I0714 21:23:42.887586 26469 net.cpp:141] Setting up inception_3b/5x5
I0714 21:23:42.887608 26469 net.cpp:148] Top shape: 10 96 28 28 (752640)
I0714 21:23:42.887616 26469 net.cpp:156] Memory required for data: 307077120
I0714 21:23:42.887627 26469 layer_factory.hpp:77] Creating layer inception_3b/relu_5x5
I0714 21:23:42.887637 26469 net.cpp:91] Creating Layer inception_3b/relu_5x5
I0714 21:23:42.887644 26469 net.cpp:425] inception_3b/relu_5x5 <- inception_3b/5x5
I0714 21:23:42.887652 26469 net.cpp:386] inception_3b/relu_5x5 -> inception_3b/5x5 (in-place)
I0714 21:23:42.887986 26465 net.cpp:141] Setting up inception_3b/5x5
I0714 21:23:42.888003 26465 net.cpp:148] Top shape: 10 96 28 28 (752640)
I0714 21:23:42.888008 26465 net.cpp:156] Memory required for data: 307077120
I0714 21:23:42.888018 26465 layer_factory.hpp:77] Creating layer inception_3b/relu_5x5
I0714 21:23:42.888027 26469 net.cpp:141] Setting up inception_3b/relu_5x5
I0714 21:23:42.888031 26465 net.cpp:91] Creating Layer inception_3b/relu_5x5
I0714 21:23:42.888044 26469 net.cpp:148] Top shape: 10 96 28 28 (752640)
I0714 21:23:42.888047 26465 net.cpp:425] inception_3b/relu_5x5 <- inception_3b/5x5
I0714 21:23:42.888049 26469 net.cpp:156] Memory required for data: 310087680
I0714 21:23:42.888056 26469 layer_factory.hpp:77] Creating layer inception_3b/pool
I0714 21:23:42.888056 26465 net.cpp:386] inception_3b/relu_5x5 -> inception_3b/5x5 (in-place)
I0714 21:23:42.888065 26469 net.cpp:91] Creating Layer inception_3b/pool
I0714 21:23:42.888072 26469 net.cpp:425] inception_3b/pool <- inception_3a/output_inception_3a/output_0_split_3
I0714 21:23:42.888084 26469 net.cpp:399] inception_3b/pool -> inception_3b/pool
I0714 21:23:42.888350 26469 net.cpp:141] Setting up inception_3b/pool
I0714 21:23:42.888362 26469 net.cpp:148] Top shape: 10 256 28 28 (2007040)
I0714 21:23:42.888367 26469 net.cpp:156] Memory required for data: 318115840
I0714 21:23:42.888372 26469 layer_factory.hpp:77] Creating layer inception_3b/pool_proj
I0714 21:23:42.888389 26469 net.cpp:91] Creating Layer inception_3b/pool_proj
I0714 21:23:42.888396 26469 net.cpp:425] inception_3b/pool_proj <- inception_3b/pool
I0714 21:23:42.888406 26469 net.cpp:399] inception_3b/pool_proj -> inception_3b/pool_proj
I0714 21:23:42.888417 26465 net.cpp:141] Setting up inception_3b/relu_5x5
I0714 21:23:42.888433 26465 net.cpp:148] Top shape: 10 96 28 28 (752640)
I0714 21:23:42.888438 26465 net.cpp:156] Memory required for data: 310087680
I0714 21:23:42.888443 26465 layer_factory.hpp:77] Creating layer inception_3b/pool
I0714 21:23:42.888454 26465 net.cpp:91] Creating Layer inception_3b/pool
I0714 21:23:42.888465 26465 net.cpp:425] inception_3b/pool <- inception_3a/output_inception_3a/output_0_split_3
I0714 21:23:42.888483 26465 net.cpp:399] inception_3b/pool -> inception_3b/pool
I0714 21:23:42.888689 26465 net.cpp:141] Setting up inception_3b/pool
I0714 21:23:42.888701 26465 net.cpp:148] Top shape: 10 256 28 28 (2007040)
I0714 21:23:42.888706 26465 net.cpp:156] Memory required for data: 318115840
I0714 21:23:42.888711 26465 layer_factory.hpp:77] Creating layer inception_3b/pool_proj
I0714 21:23:42.888731 26465 net.cpp:91] Creating Layer inception_3b/pool_proj
I0714 21:23:42.888737 26465 net.cpp:425] inception_3b/pool_proj <- inception_3b/pool
I0714 21:23:42.888747 26465 net.cpp:399] inception_3b/pool_proj -> inception_3b/pool_proj
I0714 21:23:42.892519 26469 net.cpp:141] Setting up inception_3b/pool_proj
I0714 21:23:42.892539 26469 net.cpp:148] Top shape: 10 64 28 28 (501760)
I0714 21:23:42.892544 26469 net.cpp:156] Memory required for data: 320122880
I0714 21:23:42.892555 26469 layer_factory.hpp:77] Creating layer inception_3b/relu_pool_proj
I0714 21:23:42.892568 26469 net.cpp:91] Creating Layer inception_3b/relu_pool_proj
I0714 21:23:42.892575 26469 net.cpp:425] inception_3b/relu_pool_proj <- inception_3b/pool_proj
I0714 21:23:42.892583 26469 net.cpp:386] inception_3b/relu_pool_proj -> inception_3b/pool_proj (in-place)
I0714 21:23:42.893566 26469 net.cpp:141] Setting up inception_3b/relu_pool_proj
I0714 21:23:42.893584 26469 net.cpp:148] Top shape: 10 64 28 28 (501760)
I0714 21:23:42.893589 26469 net.cpp:156] Memory required for data: 322129920
I0714 21:23:42.893594 26469 layer_factory.hpp:77] Creating layer inception_3b/output
I0714 21:23:42.893610 26469 net.cpp:91] Creating Layer inception_3b/output
I0714 21:23:42.893615 26469 net.cpp:425] inception_3b/output <- inception_3b/1x1
I0714 21:23:42.893625 26469 net.cpp:425] inception_3b/output <- inception_3b/3x3
I0714 21:23:42.893630 26469 net.cpp:425] inception_3b/output <- inception_3b/5x5
I0714 21:23:42.893636 26469 net.cpp:425] inception_3b/output <- inception_3b/pool_proj
I0714 21:23:42.893643 26469 net.cpp:399] inception_3b/output -> inception_3b/output
I0714 21:23:42.893673 26465 net.cpp:141] Setting up inception_3b/pool_proj
I0714 21:23:42.893689 26465 net.cpp:148] Top shape: 10 64 28 28 (501760)
I0714 21:23:42.893695 26465 net.cpp:156] Memory required for data: 320122880
I0714 21:23:42.893705 26465 layer_factory.hpp:77] Creating layer inception_3b/relu_pool_proj
I0714 21:23:42.893714 26465 net.cpp:91] Creating Layer inception_3b/relu_pool_proj
I0714 21:23:42.893718 26469 net.cpp:141] Setting up inception_3b/output
I0714 21:23:42.893720 26465 net.cpp:425] inception_3b/relu_pool_proj <- inception_3b/pool_proj
I0714 21:23:42.893733 26469 net.cpp:148] Top shape: 10 480 28 28 (3763200)
I0714 21:23:42.893738 26469 net.cpp:156] Memory required for data: 337182720
I0714 21:23:42.893743 26465 net.cpp:386] inception_3b/relu_pool_proj -> inception_3b/pool_proj (in-place)
I0714 21:23:42.893743 26469 layer_factory.hpp:77] Creating layer pool3/3x3_s2
I0714 21:23:42.893765 26469 net.cpp:91] Creating Layer pool3/3x3_s2
I0714 21:23:42.893772 26469 net.cpp:425] pool3/3x3_s2 <- inception_3b/output
I0714 21:23:42.893784 26469 net.cpp:399] pool3/3x3_s2 -> pool3/3x3_s2
I0714 21:23:42.894609 26469 net.cpp:141] Setting up pool3/3x3_s2
I0714 21:23:42.894623 26469 net.cpp:148] Top shape: 10 480 14 14 (940800)
I0714 21:23:42.894628 26469 net.cpp:156] Memory required for data: 340945920
I0714 21:23:42.894632 26469 layer_factory.hpp:77] Creating layer pool3/3x3_s2_pool3/3x3_s2_0_split
I0714 21:23:42.894642 26469 net.cpp:91] Creating Layer pool3/3x3_s2_pool3/3x3_s2_0_split
I0714 21:23:42.894647 26469 net.cpp:425] pool3/3x3_s2_pool3/3x3_s2_0_split <- pool3/3x3_s2
I0714 21:23:42.894657 26469 net.cpp:399] pool3/3x3_s2_pool3/3x3_s2_0_split -> pool3/3x3_s2_pool3/3x3_s2_0_split_0
I0714 21:23:42.894667 26469 net.cpp:399] pool3/3x3_s2_pool3/3x3_s2_0_split -> pool3/3x3_s2_pool3/3x3_s2_0_split_1
I0714 21:23:42.894676 26469 net.cpp:399] pool3/3x3_s2_pool3/3x3_s2_0_split -> pool3/3x3_s2_pool3/3x3_s2_0_split_2
I0714 21:23:42.894680 26465 net.cpp:141] Setting up inception_3b/relu_pool_proj
I0714 21:23:42.894685 26469 net.cpp:399] pool3/3x3_s2_pool3/3x3_s2_0_split -> pool3/3x3_s2_pool3/3x3_s2_0_split_3
I0714 21:23:42.894703 26465 net.cpp:148] Top shape: 10 64 28 28 (501760)
I0714 21:23:42.894708 26465 net.cpp:156] Memory required for data: 322129920
I0714 21:23:42.894714 26465 layer_factory.hpp:77] Creating layer inception_3b/output
I0714 21:23:42.894727 26465 net.cpp:91] Creating Layer inception_3b/output
I0714 21:23:42.894733 26465 net.cpp:425] inception_3b/output <- inception_3b/1x1
I0714 21:23:42.894740 26465 net.cpp:425] inception_3b/output <- inception_3b/3x3
I0714 21:23:42.894747 26465 net.cpp:425] inception_3b/output <- inception_3b/5x5
I0714 21:23:42.894752 26465 net.cpp:425] inception_3b/output <- inception_3b/pool_proj
I0714 21:23:42.894759 26465 net.cpp:399] inception_3b/output -> inception_3b/output
I0714 21:23:42.894872 26465 net.cpp:141] Setting up inception_3b/output
I0714 21:23:42.894886 26465 net.cpp:148] Top shape: 10 480 28 28 (3763200)
I0714 21:23:42.894889 26465 net.cpp:156] Memory required for data: 337182720
I0714 21:23:42.894894 26465 layer_factory.hpp:77] Creating layer pool3/3x3_s2
I0714 21:23:42.894909 26465 net.cpp:91] Creating Layer pool3/3x3_s2
I0714 21:23:42.894915 26465 net.cpp:425] pool3/3x3_s2 <- inception_3b/output
I0714 21:23:42.894923 26465 net.cpp:399] pool3/3x3_s2 -> pool3/3x3_s2
I0714 21:23:42.894958 26469 net.cpp:141] Setting up pool3/3x3_s2_pool3/3x3_s2_0_split
I0714 21:23:42.894970 26469 net.cpp:148] Top shape: 10 480 14 14 (940800)
I0714 21:23:42.894976 26469 net.cpp:148] Top shape: 10 480 14 14 (940800)
I0714 21:23:42.894982 26469 net.cpp:148] Top shape: 10 480 14 14 (940800)
I0714 21:23:42.894987 26469 net.cpp:148] Top shape: 10 480 14 14 (940800)
I0714 21:23:42.894991 26469 net.cpp:156] Memory required for data: 355998720
I0714 21:23:42.894996 26469 layer_factory.hpp:77] Creating layer inception_4a/1x1
I0714 21:23:42.895015 26469 net.cpp:91] Creating Layer inception_4a/1x1
I0714 21:23:42.895021 26469 net.cpp:425] inception_4a/1x1 <- pool3/3x3_s2_pool3/3x3_s2_0_split_0
I0714 21:23:42.895031 26469 net.cpp:399] inception_4a/1x1 -> inception_4a/1x1
I0714 21:23:42.895071 26465 net.cpp:141] Setting up pool3/3x3_s2
I0714 21:23:42.895086 26465 net.cpp:148] Top shape: 10 480 14 14 (940800)
I0714 21:23:42.895090 26465 net.cpp:156] Memory required for data: 340945920
I0714 21:23:42.895095 26465 layer_factory.hpp:77] Creating layer pool3/3x3_s2_pool3/3x3_s2_0_split
I0714 21:23:42.895104 26465 net.cpp:91] Creating Layer pool3/3x3_s2_pool3/3x3_s2_0_split
I0714 21:23:42.895109 26465 net.cpp:425] pool3/3x3_s2_pool3/3x3_s2_0_split <- pool3/3x3_s2
I0714 21:23:42.895120 26465 net.cpp:399] pool3/3x3_s2_pool3/3x3_s2_0_split -> pool3/3x3_s2_pool3/3x3_s2_0_split_0
I0714 21:23:42.895129 26465 net.cpp:399] pool3/3x3_s2_pool3/3x3_s2_0_split -> pool3/3x3_s2_pool3/3x3_s2_0_split_1
I0714 21:23:42.895138 26465 net.cpp:399] pool3/3x3_s2_pool3/3x3_s2_0_split -> pool3/3x3_s2_pool3/3x3_s2_0_split_2
I0714 21:23:42.895146 26465 net.cpp:399] pool3/3x3_s2_pool3/3x3_s2_0_split -> pool3/3x3_s2_pool3/3x3_s2_0_split_3
I0714 21:23:42.895563 26465 net.cpp:141] Setting up pool3/3x3_s2_pool3/3x3_s2_0_split
I0714 21:23:42.895576 26465 net.cpp:148] Top shape: 10 480 14 14 (940800)
I0714 21:23:42.895581 26465 net.cpp:148] Top shape: 10 480 14 14 (940800)
I0714 21:23:42.895587 26465 net.cpp:148] Top shape: 10 480 14 14 (940800)
I0714 21:23:42.895592 26465 net.cpp:148] Top shape: 10 480 14 14 (940800)
I0714 21:23:42.895597 26465 net.cpp:156] Memory required for data: 355998720
I0714 21:23:42.895602 26465 layer_factory.hpp:77] Creating layer inception_4a/1x1
I0714 21:23:42.895618 26465 net.cpp:91] Creating Layer inception_4a/1x1
I0714 21:23:42.895625 26465 net.cpp:425] inception_4a/1x1 <- pool3/3x3_s2_pool3/3x3_s2_0_split_0
I0714 21:23:42.895635 26465 net.cpp:399] inception_4a/1x1 -> inception_4a/1x1
I0714 21:23:42.901207 26469 net.cpp:141] Setting up inception_4a/1x1
I0714 21:23:42.901228 26469 net.cpp:148] Top shape: 10 192 14 14 (376320)
I0714 21:23:42.901233 26469 net.cpp:156] Memory required for data: 357504000
I0714 21:23:42.901244 26469 layer_factory.hpp:77] Creating layer inception_4a/relu_1x1
I0714 21:23:42.901257 26469 net.cpp:91] Creating Layer inception_4a/relu_1x1
I0714 21:23:42.901264 26469 net.cpp:425] inception_4a/relu_1x1 <- inception_4a/1x1
I0714 21:23:42.901273 26469 net.cpp:386] inception_4a/relu_1x1 -> inception_4a/1x1 (in-place)
I0714 21:23:42.901695 26469 net.cpp:141] Setting up inception_4a/relu_1x1
I0714 21:23:42.901710 26469 net.cpp:148] Top shape: 10 192 14 14 (376320)
I0714 21:23:42.901715 26469 net.cpp:156] Memory required for data: 359009280
I0714 21:23:42.901721 26469 layer_factory.hpp:77] Creating layer inception_4a/3x3_reduce
I0714 21:23:42.901741 26469 net.cpp:91] Creating Layer inception_4a/3x3_reduce
I0714 21:23:42.901748 26469 net.cpp:425] inception_4a/3x3_reduce <- pool3/3x3_s2_pool3/3x3_s2_0_split_1
I0714 21:23:42.901754 26465 net.cpp:141] Setting up inception_4a/1x1
I0714 21:23:42.901758 26469 net.cpp:399] inception_4a/3x3_reduce -> inception_4a/3x3_reduce
I0714 21:23:42.901774 26465 net.cpp:148] Top shape: 10 192 14 14 (376320)
I0714 21:23:42.901780 26465 net.cpp:156] Memory required for data: 357504000
I0714 21:23:42.901793 26465 layer_factory.hpp:77] Creating layer inception_4a/relu_1x1
I0714 21:23:42.901803 26465 net.cpp:91] Creating Layer inception_4a/relu_1x1
I0714 21:23:42.901809 26465 net.cpp:425] inception_4a/relu_1x1 <- inception_4a/1x1
I0714 21:23:42.901820 26465 net.cpp:386] inception_4a/relu_1x1 -> inception_4a/1x1 (in-place)
I0714 21:23:42.902261 26465 net.cpp:141] Setting up inception_4a/relu_1x1
I0714 21:23:42.902276 26465 net.cpp:148] Top shape: 10 192 14 14 (376320)
I0714 21:23:42.902281 26465 net.cpp:156] Memory required for data: 359009280
I0714 21:23:42.902286 26465 layer_factory.hpp:77] Creating layer inception_4a/3x3_reduce
I0714 21:23:42.902303 26465 net.cpp:91] Creating Layer inception_4a/3x3_reduce
I0714 21:23:42.902310 26465 net.cpp:425] inception_4a/3x3_reduce <- pool3/3x3_s2_pool3/3x3_s2_0_split_1
I0714 21:23:42.902323 26465 net.cpp:399] inception_4a/3x3_reduce -> inception_4a/3x3_reduce
I0714 21:23:42.906416 26469 net.cpp:141] Setting up inception_4a/3x3_reduce
I0714 21:23:42.906436 26469 net.cpp:148] Top shape: 10 96 14 14 (188160)
I0714 21:23:42.906441 26469 net.cpp:156] Memory required for data: 359761920
I0714 21:23:42.906477 26469 layer_factory.hpp:77] Creating layer inception_4a/relu_3x3_reduce
I0714 21:23:42.906491 26469 net.cpp:91] Creating Layer inception_4a/relu_3x3_reduce
I0714 21:23:42.906497 26469 net.cpp:425] inception_4a/relu_3x3_reduce <- inception_4a/3x3_reduce
I0714 21:23:42.906505 26469 net.cpp:386] inception_4a/relu_3x3_reduce -> inception_4a/3x3_reduce (in-place)
I0714 21:23:42.906819 26465 net.cpp:141] Setting up inception_4a/3x3_reduce
I0714 21:23:42.906838 26465 net.cpp:148] Top shape: 10 96 14 14 (188160)
I0714 21:23:42.906844 26465 net.cpp:156] Memory required for data: 359761920
I0714 21:23:42.906877 26465 layer_factory.hpp:77] Creating layer inception_4a/relu_3x3_reduce
I0714 21:23:42.906886 26465 net.cpp:91] Creating Layer inception_4a/relu_3x3_reduce
I0714 21:23:42.906886 26469 net.cpp:141] Setting up inception_4a/relu_3x3_reduce
I0714 21:23:42.906893 26465 net.cpp:425] inception_4a/relu_3x3_reduce <- inception_4a/3x3_reduce
I0714 21:23:42.906904 26469 net.cpp:148] Top shape: 10 96 14 14 (188160)
I0714 21:23:42.906909 26469 net.cpp:156] Memory required for data: 360514560
I0714 21:23:42.906913 26465 net.cpp:386] inception_4a/relu_3x3_reduce -> inception_4a/3x3_reduce (in-place)
I0714 21:23:42.906915 26469 layer_factory.hpp:77] Creating layer inception_4a/3x3
I0714 21:23:42.906935 26469 net.cpp:91] Creating Layer inception_4a/3x3
I0714 21:23:42.906942 26469 net.cpp:425] inception_4a/3x3 <- inception_4a/3x3_reduce
I0714 21:23:42.906952 26469 net.cpp:399] inception_4a/3x3 -> inception_4a/3x3
I0714 21:23:42.907352 26465 net.cpp:141] Setting up inception_4a/relu_3x3_reduce
I0714 21:23:42.907366 26465 net.cpp:148] Top shape: 10 96 14 14 (188160)
I0714 21:23:42.907371 26465 net.cpp:156] Memory required for data: 360514560
I0714 21:23:42.907377 26465 layer_factory.hpp:77] Creating layer inception_4a/3x3
I0714 21:23:42.907395 26465 net.cpp:91] Creating Layer inception_4a/3x3
I0714 21:23:42.907402 26465 net.cpp:425] inception_4a/3x3 <- inception_4a/3x3_reduce
I0714 21:23:42.907413 26465 net.cpp:399] inception_4a/3x3 -> inception_4a/3x3
I0714 21:23:42.915227 26469 net.cpp:141] Setting up inception_4a/3x3
I0714 21:23:42.915248 26469 net.cpp:148] Top shape: 10 208 14 14 (407680)
I0714 21:23:42.915254 26469 net.cpp:156] Memory required for data: 362145280
I0714 21:23:42.915264 26469 layer_factory.hpp:77] Creating layer inception_4a/relu_3x3
I0714 21:23:42.915280 26469 net.cpp:91] Creating Layer inception_4a/relu_3x3
I0714 21:23:42.915288 26469 net.cpp:425] inception_4a/relu_3x3 <- inception_4a/3x3
I0714 21:23:42.915297 26469 net.cpp:386] inception_4a/relu_3x3 -> inception_4a/3x3 (in-place)
I0714 21:23:42.916290 26469 net.cpp:141] Setting up inception_4a/relu_3x3
I0714 21:23:42.916308 26469 net.cpp:148] Top shape: 10 208 14 14 (407680)
I0714 21:23:42.916313 26469 net.cpp:156] Memory required for data: 363776000
I0714 21:23:42.916319 26469 layer_factory.hpp:77] Creating layer inception_4a/5x5_reduce
I0714 21:23:42.916340 26469 net.cpp:91] Creating Layer inception_4a/5x5_reduce
I0714 21:23:42.916349 26469 net.cpp:425] inception_4a/5x5_reduce <- pool3/3x3_s2_pool3/3x3_s2_0_split_2
I0714 21:23:42.916360 26469 net.cpp:399] inception_4a/5x5_reduce -> inception_4a/5x5_reduce
I0714 21:23:42.916473 26465 net.cpp:141] Setting up inception_4a/3x3
I0714 21:23:42.916489 26465 net.cpp:148] Top shape: 10 208 14 14 (407680)
I0714 21:23:42.916496 26465 net.cpp:156] Memory required for data: 362145280
I0714 21:23:42.916506 26465 layer_factory.hpp:77] Creating layer inception_4a/relu_3x3
I0714 21:23:42.916514 26465 net.cpp:91] Creating Layer inception_4a/relu_3x3
I0714 21:23:42.916520 26465 net.cpp:425] inception_4a/relu_3x3 <- inception_4a/3x3
I0714 21:23:42.916532 26465 net.cpp:386] inception_4a/relu_3x3 -> inception_4a/3x3 (in-place)
I0714 21:23:42.917562 26465 net.cpp:141] Setting up inception_4a/relu_3x3
I0714 21:23:42.917580 26465 net.cpp:148] Top shape: 10 208 14 14 (407680)
I0714 21:23:42.917585 26465 net.cpp:156] Memory required for data: 363776000
I0714 21:23:42.917593 26465 layer_factory.hpp:77] Creating layer inception_4a/5x5_reduce
I0714 21:23:42.917611 26465 net.cpp:91] Creating Layer inception_4a/5x5_reduce
I0714 21:23:42.917619 26465 net.cpp:425] inception_4a/5x5_reduce <- pool3/3x3_s2_pool3/3x3_s2_0_split_2
I0714 21:23:42.917630 26465 net.cpp:399] inception_4a/5x5_reduce -> inception_4a/5x5_reduce
I0714 21:23:42.922046 26469 net.cpp:141] Setting up inception_4a/5x5_reduce
I0714 21:23:42.922066 26469 net.cpp:148] Top shape: 10 16 14 14 (31360)
I0714 21:23:42.922072 26469 net.cpp:156] Memory required for data: 363901440
I0714 21:23:42.922081 26469 layer_factory.hpp:77] Creating layer inception_4a/relu_5x5_reduce
I0714 21:23:42.922096 26469 net.cpp:91] Creating Layer inception_4a/relu_5x5_reduce
I0714 21:23:42.922103 26469 net.cpp:425] inception_4a/relu_5x5_reduce <- inception_4a/5x5_reduce
I0714 21:23:42.922113 26469 net.cpp:386] inception_4a/relu_5x5_reduce -> inception_4a/5x5_reduce (in-place)
I0714 21:23:42.922554 26469 net.cpp:141] Setting up inception_4a/relu_5x5_reduce
I0714 21:23:42.922570 26469 net.cpp:148] Top shape: 10 16 14 14 (31360)
I0714 21:23:42.922575 26469 net.cpp:156] Memory required for data: 364026880
I0714 21:23:42.922581 26469 layer_factory.hpp:77] Creating layer inception_4a/5x5
I0714 21:23:42.922600 26469 net.cpp:91] Creating Layer inception_4a/5x5
I0714 21:23:42.922610 26469 net.cpp:425] inception_4a/5x5 <- inception_4a/5x5_reduce
I0714 21:23:42.922619 26469 net.cpp:399] inception_4a/5x5 -> inception_4a/5x5
I0714 21:23:42.922654 26465 net.cpp:141] Setting up inception_4a/5x5_reduce
I0714 21:23:42.922672 26465 net.cpp:148] Top shape: 10 16 14 14 (31360)
I0714 21:23:42.922677 26465 net.cpp:156] Memory required for data: 363901440
I0714 21:23:42.922698 26465 layer_factory.hpp:77] Creating layer inception_4a/relu_5x5_reduce
I0714 21:23:42.922711 26465 net.cpp:91] Creating Layer inception_4a/relu_5x5_reduce
I0714 21:23:42.922719 26465 net.cpp:425] inception_4a/relu_5x5_reduce <- inception_4a/5x5_reduce
I0714 21:23:42.922727 26465 net.cpp:386] inception_4a/relu_5x5_reduce -> inception_4a/5x5_reduce (in-place)
I0714 21:23:42.923184 26465 net.cpp:141] Setting up inception_4a/relu_5x5_reduce
I0714 21:23:42.923198 26465 net.cpp:148] Top shape: 10 16 14 14 (31360)
I0714 21:23:42.923203 26465 net.cpp:156] Memory required for data: 364026880
I0714 21:23:42.923208 26465 layer_factory.hpp:77] Creating layer inception_4a/5x5
I0714 21:23:42.923226 26465 net.cpp:91] Creating Layer inception_4a/5x5
I0714 21:23:42.923233 26465 net.cpp:425] inception_4a/5x5 <- inception_4a/5x5_reduce
I0714 21:23:42.923244 26465 net.cpp:399] inception_4a/5x5 -> inception_4a/5x5
I0714 21:23:42.927111 26469 net.cpp:141] Setting up inception_4a/5x5
I0714 21:23:42.927129 26469 net.cpp:148] Top shape: 10 48 14 14 (94080)
I0714 21:23:42.927135 26469 net.cpp:156] Memory required for data: 364403200
I0714 21:23:42.927145 26469 layer_factory.hpp:77] Creating layer inception_4a/relu_5x5
I0714 21:23:42.927157 26469 net.cpp:91] Creating Layer inception_4a/relu_5x5
I0714 21:23:42.927165 26469 net.cpp:425] inception_4a/relu_5x5 <- inception_4a/5x5
I0714 21:23:42.927172 26469 net.cpp:386] inception_4a/relu_5x5 -> inception_4a/5x5 (in-place)
I0714 21:23:42.927572 26465 net.cpp:141] Setting up inception_4a/5x5
I0714 21:23:42.927592 26465 net.cpp:148] Top shape: 10 48 14 14 (94080)
I0714 21:23:42.927592 26469 net.cpp:141] Setting up inception_4a/relu_5x5
I0714 21:23:42.927597 26465 net.cpp:156] Memory required for data: 364403200
I0714 21:23:42.927613 26469 net.cpp:148] Top shape: 10 48 14 14 (94080)
I0714 21:23:42.927613 26465 layer_factory.hpp:77] Creating layer inception_4a/relu_5x5
I0714 21:23:42.927623 26469 net.cpp:156] Memory required for data: 364779520
I0714 21:23:42.927628 26469 layer_factory.hpp:77] Creating layer inception_4a/pool
I0714 21:23:42.927630 26465 net.cpp:91] Creating Layer inception_4a/relu_5x5
I0714 21:23:42.927637 26465 net.cpp:425] inception_4a/relu_5x5 <- inception_4a/5x5
I0714 21:23:42.927639 26469 net.cpp:91] Creating Layer inception_4a/pool
I0714 21:23:42.927644 26469 net.cpp:425] inception_4a/pool <- pool3/3x3_s2_pool3/3x3_s2_0_split_3
I0714 21:23:42.927649 26465 net.cpp:386] inception_4a/relu_5x5 -> inception_4a/5x5 (in-place)
I0714 21:23:42.927655 26469 net.cpp:399] inception_4a/pool -> inception_4a/pool
I0714 21:23:42.927959 26469 net.cpp:141] Setting up inception_4a/pool
I0714 21:23:42.927971 26469 net.cpp:148] Top shape: 10 480 14 14 (940800)
I0714 21:23:42.927976 26469 net.cpp:156] Memory required for data: 368542720
I0714 21:23:42.927981 26469 layer_factory.hpp:77] Creating layer inception_4a/pool_proj
I0714 21:23:42.928001 26469 net.cpp:91] Creating Layer inception_4a/pool_proj
I0714 21:23:42.928009 26469 net.cpp:425] inception_4a/pool_proj <- inception_4a/pool
I0714 21:23:42.928019 26469 net.cpp:399] inception_4a/pool_proj -> inception_4a/pool_proj
I0714 21:23:42.928028 26465 net.cpp:141] Setting up inception_4a/relu_5x5
I0714 21:23:42.928042 26465 net.cpp:148] Top shape: 10 48 14 14 (94080)
I0714 21:23:42.928047 26465 net.cpp:156] Memory required for data: 364779520
I0714 21:23:42.928052 26465 layer_factory.hpp:77] Creating layer inception_4a/pool
I0714 21:23:42.928066 26465 net.cpp:91] Creating Layer inception_4a/pool
I0714 21:23:42.928072 26465 net.cpp:425] inception_4a/pool <- pool3/3x3_s2_pool3/3x3_s2_0_split_3
I0714 21:23:42.928081 26465 net.cpp:399] inception_4a/pool -> inception_4a/pool
I0714 21:23:42.928359 26465 net.cpp:141] Setting up inception_4a/pool
I0714 21:23:42.928374 26465 net.cpp:148] Top shape: 10 480 14 14 (940800)
I0714 21:23:42.928378 26465 net.cpp:156] Memory required for data: 368542720
I0714 21:23:42.928383 26465 layer_factory.hpp:77] Creating layer inception_4a/pool_proj
I0714 21:23:42.928402 26465 net.cpp:91] Creating Layer inception_4a/pool_proj
I0714 21:23:42.928409 26465 net.cpp:425] inception_4a/pool_proj <- inception_4a/pool
I0714 21:23:42.928419 26465 net.cpp:399] inception_4a/pool_proj -> inception_4a/pool_proj
I0714 21:23:42.932212 26469 net.cpp:141] Setting up inception_4a/pool_proj
I0714 21:23:42.932232 26469 net.cpp:148] Top shape: 10 64 14 14 (125440)
I0714 21:23:42.932238 26469 net.cpp:156] Memory required for data: 369044480
I0714 21:23:42.932248 26469 layer_factory.hpp:77] Creating layer inception_4a/relu_pool_proj
I0714 21:23:42.932258 26469 net.cpp:91] Creating Layer inception_4a/relu_pool_proj
I0714 21:23:42.932265 26469 net.cpp:425] inception_4a/relu_pool_proj <- inception_4a/pool_proj
I0714 21:23:42.932276 26469 net.cpp:386] inception_4a/relu_pool_proj -> inception_4a/pool_proj (in-place)
I0714 21:23:42.933302 26469 net.cpp:141] Setting up inception_4a/relu_pool_proj
I0714 21:23:42.933320 26469 net.cpp:148] Top shape: 10 64 14 14 (125440)
I0714 21:23:42.933325 26469 net.cpp:156] Memory required for data: 369546240
I0714 21:23:42.933331 26469 layer_factory.hpp:77] Creating layer inception_4a/output
I0714 21:23:42.933341 26469 net.cpp:91] Creating Layer inception_4a/output
I0714 21:23:42.933347 26469 net.cpp:425] inception_4a/output <- inception_4a/1x1
I0714 21:23:42.933354 26469 net.cpp:425] inception_4a/output <- inception_4a/3x3
I0714 21:23:42.933360 26469 net.cpp:425] inception_4a/output <- inception_4a/5x5
I0714 21:23:42.933367 26469 net.cpp:425] inception_4a/output <- inception_4a/pool_proj
I0714 21:23:42.933377 26469 net.cpp:399] inception_4a/output -> inception_4a/output
I0714 21:23:42.933399 26465 net.cpp:141] Setting up inception_4a/pool_proj
I0714 21:23:42.933416 26465 net.cpp:148] Top shape: 10 64 14 14 (125440)
I0714 21:23:42.933421 26465 net.cpp:156] Memory required for data: 369044480
I0714 21:23:42.933431 26465 layer_factory.hpp:77] Creating layer inception_4a/relu_pool_proj
I0714 21:23:42.933444 26465 net.cpp:91] Creating Layer inception_4a/relu_pool_proj
I0714 21:23:42.933450 26465 net.cpp:425] inception_4a/relu_pool_proj <- inception_4a/pool_proj
I0714 21:23:42.933454 26469 net.cpp:141] Setting up inception_4a/output
I0714 21:23:42.933459 26465 net.cpp:386] inception_4a/relu_pool_proj -> inception_4a/pool_proj (in-place)
I0714 21:23:42.933465 26469 net.cpp:148] Top shape: 10 512 14 14 (1003520)
I0714 21:23:42.933470 26469 net.cpp:156] Memory required for data: 373560320
I0714 21:23:42.933475 26469 layer_factory.hpp:77] Creating layer inception_4a/output_inception_4a/output_0_split
I0714 21:23:42.933486 26469 net.cpp:91] Creating Layer inception_4a/output_inception_4a/output_0_split
I0714 21:23:42.933491 26469 net.cpp:425] inception_4a/output_inception_4a/output_0_split <- inception_4a/output
I0714 21:23:42.933500 26469 net.cpp:399] inception_4a/output_inception_4a/output_0_split -> inception_4a/output_inception_4a/output_0_split_0
I0714 21:23:42.933509 26469 net.cpp:399] inception_4a/output_inception_4a/output_0_split -> inception_4a/output_inception_4a/output_0_split_1
I0714 21:23:42.933518 26469 net.cpp:399] inception_4a/output_inception_4a/output_0_split -> inception_4a/output_inception_4a/output_0_split_2
I0714 21:23:42.933526 26469 net.cpp:399] inception_4a/output_inception_4a/output_0_split -> inception_4a/output_inception_4a/output_0_split_3
I0714 21:23:42.934430 26469 net.cpp:141] Setting up inception_4a/output_inception_4a/output_0_split
I0714 21:23:42.934443 26469 net.cpp:148] Top shape: 10 512 14 14 (1003520)
I0714 21:23:42.934450 26469 net.cpp:148] Top shape: 10 512 14 14 (1003520)
I0714 21:23:42.934455 26469 net.cpp:148] Top shape: 10 512 14 14 (1003520)
I0714 21:23:42.934461 26469 net.cpp:148] Top shape: 10 512 14 14 (1003520)
I0714 21:23:42.934465 26469 net.cpp:156] Memory required for data: 389616640
I0714 21:23:42.934463 26465 net.cpp:141] Setting up inception_4a/relu_pool_proj
I0714 21:23:42.934470 26469 layer_factory.hpp:77] Creating layer inception_4b/1x1
I0714 21:23:42.934478 26465 net.cpp:148] Top shape: 10 64 14 14 (125440)
I0714 21:23:42.934484 26465 net.cpp:156] Memory required for data: 369546240
I0714 21:23:42.934489 26465 layer_factory.hpp:77] Creating layer inception_4a/output
I0714 21:23:42.934490 26469 net.cpp:91] Creating Layer inception_4b/1x1
I0714 21:23:42.934497 26469 net.cpp:425] inception_4b/1x1 <- inception_4a/output_inception_4a/output_0_split_0
I0714 21:23:42.934502 26465 net.cpp:91] Creating Layer inception_4a/output
I0714 21:23:42.934506 26469 net.cpp:399] inception_4b/1x1 -> inception_4b/1x1
I0714 21:23:42.934509 26465 net.cpp:425] inception_4a/output <- inception_4a/1x1
I0714 21:23:42.934516 26465 net.cpp:425] inception_4a/output <- inception_4a/3x3
I0714 21:23:42.934522 26465 net.cpp:425] inception_4a/output <- inception_4a/5x5
I0714 21:23:42.934528 26465 net.cpp:425] inception_4a/output <- inception_4a/pool_proj
I0714 21:23:42.934535 26465 net.cpp:399] inception_4a/output -> inception_4a/output
I0714 21:23:42.934674 26465 net.cpp:141] Setting up inception_4a/output
I0714 21:23:42.934695 26465 net.cpp:148] Top shape: 10 512 14 14 (1003520)
I0714 21:23:42.934701 26465 net.cpp:156] Memory required for data: 373560320
I0714 21:23:42.934708 26465 layer_factory.hpp:77] Creating layer inception_4a/output_inception_4a/output_0_split
I0714 21:23:42.934722 26465 net.cpp:91] Creating Layer inception_4a/output_inception_4a/output_0_split
I0714 21:23:42.934733 26465 net.cpp:425] inception_4a/output_inception_4a/output_0_split <- inception_4a/output
I0714 21:23:42.934752 26465 net.cpp:399] inception_4a/output_inception_4a/output_0_split -> inception_4a/output_inception_4a/output_0_split_0
I0714 21:23:42.934765 26465 net.cpp:399] inception_4a/output_inception_4a/output_0_split -> inception_4a/output_inception_4a/output_0_split_1
I0714 21:23:42.934774 26465 net.cpp:399] inception_4a/output_inception_4a/output_0_split -> inception_4a/output_inception_4a/output_0_split_2
I0714 21:23:42.934783 26465 net.cpp:399] inception_4a/output_inception_4a/output_0_split -> inception_4a/output_inception_4a/output_0_split_3
I0714 21:23:42.935187 26465 net.cpp:141] Setting up inception_4a/output_inception_4a/output_0_split
I0714 21:23:42.935200 26465 net.cpp:148] Top shape: 10 512 14 14 (1003520)
I0714 21:23:42.935206 26465 net.cpp:148] Top shape: 10 512 14 14 (1003520)
I0714 21:23:42.935211 26465 net.cpp:148] Top shape: 10 512 14 14 (1003520)
I0714 21:23:42.935217 26465 net.cpp:148] Top shape: 10 512 14 14 (1003520)
I0714 21:23:42.935221 26465 net.cpp:156] Memory required for data: 389616640
I0714 21:23:42.935226 26465 layer_factory.hpp:77] Creating layer inception_4b/1x1
I0714 21:23:42.935243 26465 net.cpp:91] Creating Layer inception_4b/1x1
I0714 21:23:42.935250 26465 net.cpp:425] inception_4b/1x1 <- inception_4a/output_inception_4a/output_0_split_0
I0714 21:23:42.935262 26465 net.cpp:399] inception_4b/1x1 -> inception_4b/1x1
I0714 21:23:42.939862 26469 net.cpp:141] Setting up inception_4b/1x1
I0714 21:23:42.939882 26469 net.cpp:148] Top shape: 10 160 14 14 (313600)
I0714 21:23:42.939888 26469 net.cpp:156] Memory required for data: 390871040
I0714 21:23:42.939898 26469 layer_factory.hpp:77] Creating layer inception_4b/relu_1x1
I0714 21:23:42.939911 26469 net.cpp:91] Creating Layer inception_4b/relu_1x1
I0714 21:23:42.939919 26469 net.cpp:425] inception_4b/relu_1x1 <- inception_4b/1x1
I0714 21:23:42.939927 26469 net.cpp:386] inception_4b/relu_1x1 -> inception_4b/1x1 (in-place)
I0714 21:23:42.940372 26469 net.cpp:141] Setting up inception_4b/relu_1x1
I0714 21:23:42.940387 26469 net.cpp:148] Top shape: 10 160 14 14 (313600)
I0714 21:23:42.940392 26469 net.cpp:156] Memory required for data: 392125440
I0714 21:23:42.940398 26469 layer_factory.hpp:77] Creating layer inception_4b/3x3_reduce
I0714 21:23:42.940417 26469 net.cpp:91] Creating Layer inception_4b/3x3_reduce
I0714 21:23:42.940423 26469 net.cpp:425] inception_4b/3x3_reduce <- inception_4a/output_inception_4a/output_0_split_1
I0714 21:23:42.940436 26469 net.cpp:399] inception_4b/3x3_reduce -> inception_4b/3x3_reduce
I0714 21:23:42.940479 26465 net.cpp:141] Setting up inception_4b/1x1
I0714 21:23:42.940495 26465 net.cpp:148] Top shape: 10 160 14 14 (313600)
I0714 21:23:42.940500 26465 net.cpp:156] Memory required for data: 390871040
I0714 21:23:42.940510 26465 layer_factory.hpp:77] Creating layer inception_4b/relu_1x1
I0714 21:23:42.940523 26465 net.cpp:91] Creating Layer inception_4b/relu_1x1
I0714 21:23:42.940529 26465 net.cpp:425] inception_4b/relu_1x1 <- inception_4b/1x1
I0714 21:23:42.940537 26465 net.cpp:386] inception_4b/relu_1x1 -> inception_4b/1x1 (in-place)
I0714 21:23:42.940969 26465 net.cpp:141] Setting up inception_4b/relu_1x1
I0714 21:23:42.940984 26465 net.cpp:148] Top shape: 10 160 14 14 (313600)
I0714 21:23:42.940989 26465 net.cpp:156] Memory required for data: 392125440
I0714 21:23:42.940994 26465 layer_factory.hpp:77] Creating layer inception_4b/3x3_reduce
I0714 21:23:42.941011 26465 net.cpp:91] Creating Layer inception_4b/3x3_reduce
I0714 21:23:42.941018 26465 net.cpp:425] inception_4b/3x3_reduce <- inception_4a/output_inception_4a/output_0_split_1
I0714 21:23:42.941027 26465 net.cpp:399] inception_4b/3x3_reduce -> inception_4b/3x3_reduce
I0714 21:23:42.945163 26469 net.cpp:141] Setting up inception_4b/3x3_reduce
I0714 21:23:42.945185 26469 net.cpp:148] Top shape: 10 112 14 14 (219520)
I0714 21:23:42.945191 26469 net.cpp:156] Memory required for data: 393003520
I0714 21:23:42.945201 26469 layer_factory.hpp:77] Creating layer inception_4b/relu_3x3_reduce
I0714 21:23:42.945210 26469 net.cpp:91] Creating Layer inception_4b/relu_3x3_reduce
I0714 21:23:42.945216 26469 net.cpp:425] inception_4b/relu_3x3_reduce <- inception_4b/3x3_reduce
I0714 21:23:42.945225 26469 net.cpp:386] inception_4b/relu_3x3_reduce -> inception_4b/3x3_reduce (in-place)
I0714 21:23:42.945581 26465 net.cpp:141] Setting up inception_4b/3x3_reduce
I0714 21:23:42.945597 26465 net.cpp:148] Top shape: 10 112 14 14 (219520)
I0714 21:23:42.945603 26465 net.cpp:156] Memory required for data: 393003520
I0714 21:23:42.945601 26469 net.cpp:141] Setting up inception_4b/relu_3x3_reduce
I0714 21:23:42.945613 26465 layer_factory.hpp:77] Creating layer inception_4b/relu_3x3_reduce
I0714 21:23:42.945616 26469 net.cpp:148] Top shape: 10 112 14 14 (219520)
I0714 21:23:42.945621 26469 net.cpp:156] Memory required for data: 393881600
I0714 21:23:42.945626 26469 layer_factory.hpp:77] Creating layer inception_4b/3x3
I0714 21:23:42.945626 26465 net.cpp:91] Creating Layer inception_4b/relu_3x3_reduce
I0714 21:23:42.945634 26465 net.cpp:425] inception_4b/relu_3x3_reduce <- inception_4b/3x3_reduce
I0714 21:23:42.945643 26465 net.cpp:386] inception_4b/relu_3x3_reduce -> inception_4b/3x3_reduce (in-place)
I0714 21:23:42.945643 26469 net.cpp:91] Creating Layer inception_4b/3x3
I0714 21:23:42.945658 26469 net.cpp:425] inception_4b/3x3 <- inception_4b/3x3_reduce
I0714 21:23:42.945672 26469 net.cpp:399] inception_4b/3x3 -> inception_4b/3x3
I0714 21:23:42.946061 26465 net.cpp:141] Setting up inception_4b/relu_3x3_reduce
I0714 21:23:42.946075 26465 net.cpp:148] Top shape: 10 112 14 14 (219520)
I0714 21:23:42.946080 26465 net.cpp:156] Memory required for data: 393881600
I0714 21:23:42.946085 26465 layer_factory.hpp:77] Creating layer inception_4b/3x3
I0714 21:23:42.946105 26465 net.cpp:91] Creating Layer inception_4b/3x3
I0714 21:23:42.946111 26465 net.cpp:425] inception_4b/3x3 <- inception_4b/3x3_reduce
I0714 21:23:42.946121 26465 net.cpp:399] inception_4b/3x3 -> inception_4b/3x3
I0714 21:23:42.954619 26469 net.cpp:141] Setting up inception_4b/3x3
I0714 21:23:42.954640 26469 net.cpp:148] Top shape: 10 224 14 14 (439040)
I0714 21:23:42.954646 26469 net.cpp:156] Memory required for data: 395637760
I0714 21:23:42.954658 26469 layer_factory.hpp:77] Creating layer inception_4b/relu_3x3
I0714 21:23:42.954677 26469 net.cpp:91] Creating Layer inception_4b/relu_3x3
I0714 21:23:42.954684 26469 net.cpp:425] inception_4b/relu_3x3 <- inception_4b/3x3
I0714 21:23:42.954702 26469 net.cpp:386] inception_4b/relu_3x3 -> inception_4b/3x3 (in-place)
I0714 21:23:42.956151 26469 net.cpp:141] Setting up inception_4b/relu_3x3
I0714 21:23:42.956169 26469 net.cpp:148] Top shape: 10 224 14 14 (439040)
I0714 21:23:42.956176 26469 net.cpp:156] Memory required for data: 397393920
I0714 21:23:42.956182 26469 layer_factory.hpp:77] Creating layer inception_4b/5x5_reduce
I0714 21:23:42.956210 26469 net.cpp:91] Creating Layer inception_4b/5x5_reduce
I0714 21:23:42.956218 26469 net.cpp:425] inception_4b/5x5_reduce <- inception_4a/output_inception_4a/output_0_split_2
I0714 21:23:42.956228 26469 net.cpp:399] inception_4b/5x5_reduce -> inception_4b/5x5_reduce
I0714 21:23:42.956372 26465 net.cpp:141] Setting up inception_4b/3x3
I0714 21:23:42.956389 26465 net.cpp:148] Top shape: 10 224 14 14 (439040)
I0714 21:23:42.956394 26465 net.cpp:156] Memory required for data: 395637760
I0714 21:23:42.956404 26465 layer_factory.hpp:77] Creating layer inception_4b/relu_3x3
I0714 21:23:42.956413 26465 net.cpp:91] Creating Layer inception_4b/relu_3x3
I0714 21:23:42.956419 26465 net.cpp:425] inception_4b/relu_3x3 <- inception_4b/3x3
I0714 21:23:42.956430 26465 net.cpp:386] inception_4b/relu_3x3 -> inception_4b/3x3 (in-place)
I0714 21:23:42.957453 26465 net.cpp:141] Setting up inception_4b/relu_3x3
I0714 21:23:42.957471 26465 net.cpp:148] Top shape: 10 224 14 14 (439040)
I0714 21:23:42.957478 26465 net.cpp:156] Memory required for data: 397393920
I0714 21:23:42.957482 26465 layer_factory.hpp:77] Creating layer inception_4b/5x5_reduce
I0714 21:23:42.957511 26465 net.cpp:91] Creating Layer inception_4b/5x5_reduce
I0714 21:23:42.957518 26465 net.cpp:425] inception_4b/5x5_reduce <- inception_4a/output_inception_4a/output_0_split_2
I0714 21:23:42.957531 26465 net.cpp:399] inception_4b/5x5_reduce -> inception_4b/5x5_reduce
I0714 21:23:42.962534 26469 net.cpp:141] Setting up inception_4b/5x5_reduce
I0714 21:23:42.962564 26469 net.cpp:148] Top shape: 10 24 14 14 (47040)
I0714 21:23:42.962575 26469 net.cpp:156] Memory required for data: 397582080
I0714 21:23:42.962595 26469 layer_factory.hpp:77] Creating layer inception_4b/relu_5x5_reduce
I0714 21:23:42.962611 26469 net.cpp:91] Creating Layer inception_4b/relu_5x5_reduce
I0714 21:23:42.962622 26469 net.cpp:425] inception_4b/relu_5x5_reduce <- inception_4b/5x5_reduce
I0714 21:23:42.962643 26469 net.cpp:386] inception_4b/relu_5x5_reduce -> inception_4b/5x5_reduce (in-place)
I0714 21:23:42.963246 26465 net.cpp:141] Setting up inception_4b/5x5_reduce
I0714 21:23:42.963269 26465 net.cpp:148] Top shape: 10 24 14 14 (47040)
I0714 21:23:42.963275 26465 net.cpp:156] Memory required for data: 397582080
I0714 21:23:42.963286 26465 layer_factory.hpp:77] Creating layer inception_4b/relu_5x5_reduce
I0714 21:23:42.963295 26465 net.cpp:91] Creating Layer inception_4b/relu_5x5_reduce
I0714 21:23:42.963301 26465 net.cpp:425] inception_4b/relu_5x5_reduce <- inception_4b/5x5_reduce
I0714 21:23:42.963310 26465 net.cpp:386] inception_4b/relu_5x5_reduce -> inception_4b/5x5_reduce (in-place)
I0714 21:23:42.963320 26469 net.cpp:141] Setting up inception_4b/relu_5x5_reduce
I0714 21:23:42.963346 26469 net.cpp:148] Top shape: 10 24 14 14 (47040)
I0714 21:23:42.963356 26469 net.cpp:156] Memory required for data: 397770240
I0714 21:23:42.963366 26469 layer_factory.hpp:77] Creating layer inception_4b/5x5
I0714 21:23:42.963400 26469 net.cpp:91] Creating Layer inception_4b/5x5
I0714 21:23:42.963413 26469 net.cpp:425] inception_4b/5x5 <- inception_4b/5x5_reduce
I0714 21:23:42.963429 26469 net.cpp:399] inception_4b/5x5 -> inception_4b/5x5
I0714 21:23:42.963771 26465 net.cpp:141] Setting up inception_4b/relu_5x5_reduce
I0714 21:23:42.963785 26465 net.cpp:148] Top shape: 10 24 14 14 (47040)
I0714 21:23:42.963790 26465 net.cpp:156] Memory required for data: 397770240
I0714 21:23:42.963795 26465 layer_factory.hpp:77] Creating layer inception_4b/5x5
I0714 21:23:42.963812 26465 net.cpp:91] Creating Layer inception_4b/5x5
I0714 21:23:42.963819 26465 net.cpp:425] inception_4b/5x5 <- inception_4b/5x5_reduce
I0714 21:23:42.963830 26465 net.cpp:399] inception_4b/5x5 -> inception_4b/5x5
I0714 21:23:42.972187 26469 net.cpp:141] Setting up inception_4b/5x5
I0714 21:23:42.972213 26469 net.cpp:148] Top shape: 10 64 14 14 (125440)
I0714 21:23:42.972218 26469 net.cpp:156] Memory required for data: 398272000
I0714 21:23:42.972229 26469 layer_factory.hpp:77] Creating layer inception_4b/relu_5x5
I0714 21:23:42.972244 26469 net.cpp:91] Creating Layer inception_4b/relu_5x5
I0714 21:23:42.972251 26469 net.cpp:425] inception_4b/relu_5x5 <- inception_4b/5x5
I0714 21:23:42.972262 26469 net.cpp:386] inception_4b/relu_5x5 -> inception_4b/5x5 (in-place)
I0714 21:23:42.972599 26465 net.cpp:141] Setting up inception_4b/5x5
I0714 21:23:42.972615 26465 net.cpp:148] Top shape: 10 64 14 14 (125440)
I0714 21:23:42.972621 26465 net.cpp:156] Memory required for data: 398272000
I0714 21:23:42.972630 26465 layer_factory.hpp:77] Creating layer inception_4b/relu_5x5
I0714 21:23:42.972645 26465 net.cpp:91] Creating Layer inception_4b/relu_5x5
I0714 21:23:42.972651 26465 net.cpp:425] inception_4b/relu_5x5 <- inception_4b/5x5
I0714 21:23:42.972659 26465 net.cpp:386] inception_4b/relu_5x5 -> inception_4b/5x5 (in-place)
I0714 21:23:42.972671 26469 net.cpp:141] Setting up inception_4b/relu_5x5
I0714 21:23:42.972684 26469 net.cpp:148] Top shape: 10 64 14 14 (125440)
I0714 21:23:42.972689 26469 net.cpp:156] Memory required for data: 398773760
I0714 21:23:42.972694 26469 layer_factory.hpp:77] Creating layer inception_4b/pool
I0714 21:23:42.972712 26469 net.cpp:91] Creating Layer inception_4b/pool
I0714 21:23:42.972720 26469 net.cpp:425] inception_4b/pool <- inception_4a/output_inception_4a/output_0_split_3
I0714 21:23:42.972729 26469 net.cpp:399] inception_4b/pool -> inception_4b/pool
I0714 21:23:42.972983 26469 net.cpp:141] Setting up inception_4b/pool
I0714 21:23:42.972996 26469 net.cpp:148] Top shape: 10 512 14 14 (1003520)
I0714 21:23:42.973001 26469 net.cpp:156] Memory required for data: 402787840
I0714 21:23:42.973007 26469 layer_factory.hpp:77] Creating layer inception_4b/pool_proj
I0714 21:23:42.973026 26469 net.cpp:91] Creating Layer inception_4b/pool_proj
I0714 21:23:42.973031 26469 net.cpp:425] inception_4b/pool_proj <- inception_4b/pool
I0714 21:23:42.973043 26469 net.cpp:399] inception_4b/pool_proj -> inception_4b/pool_proj
I0714 21:23:42.973057 26465 net.cpp:141] Setting up inception_4b/relu_5x5
I0714 21:23:42.973070 26465 net.cpp:148] Top shape: 10 64 14 14 (125440)
I0714 21:23:42.973075 26465 net.cpp:156] Memory required for data: 398773760
I0714 21:23:42.973080 26465 layer_factory.hpp:77] Creating layer inception_4b/pool
I0714 21:23:42.973089 26465 net.cpp:91] Creating Layer inception_4b/pool
I0714 21:23:42.973095 26465 net.cpp:425] inception_4b/pool <- inception_4a/output_inception_4a/output_0_split_3
I0714 21:23:42.973109 26465 net.cpp:399] inception_4b/pool -> inception_4b/pool
I0714 21:23:42.973305 26465 net.cpp:141] Setting up inception_4b/pool
I0714 21:23:42.973318 26465 net.cpp:148] Top shape: 10 512 14 14 (1003520)
I0714 21:23:42.973322 26465 net.cpp:156] Memory required for data: 402787840
I0714 21:23:42.973328 26465 layer_factory.hpp:77] Creating layer inception_4b/pool_proj
I0714 21:23:42.973351 26465 net.cpp:91] Creating Layer inception_4b/pool_proj
I0714 21:23:42.973358 26465 net.cpp:425] inception_4b/pool_proj <- inception_4b/pool
I0714 21:23:42.973368 26465 net.cpp:399] inception_4b/pool_proj -> inception_4b/pool_proj
I0714 21:23:42.977416 26469 net.cpp:141] Setting up inception_4b/pool_proj
I0714 21:23:42.977437 26469 net.cpp:148] Top shape: 10 64 14 14 (125440)
I0714 21:23:42.977442 26469 net.cpp:156] Memory required for data: 403289600
I0714 21:23:42.977452 26469 layer_factory.hpp:77] Creating layer inception_4b/relu_pool_proj
I0714 21:23:42.977463 26469 net.cpp:91] Creating Layer inception_4b/relu_pool_proj
I0714 21:23:42.977470 26469 net.cpp:425] inception_4b/relu_pool_proj <- inception_4b/pool_proj
I0714 21:23:42.977483 26469 net.cpp:386] inception_4b/relu_pool_proj -> inception_4b/pool_proj (in-place)
I0714 21:23:42.978520 26469 net.cpp:141] Setting up inception_4b/relu_pool_proj
I0714 21:23:42.978538 26469 net.cpp:148] Top shape: 10 64 14 14 (125440)
I0714 21:23:42.978543 26469 net.cpp:156] Memory required for data: 403791360
I0714 21:23:42.978549 26469 layer_factory.hpp:77] Creating layer inception_4b/output
I0714 21:23:42.978559 26469 net.cpp:91] Creating Layer inception_4b/output
I0714 21:23:42.978565 26469 net.cpp:425] inception_4b/output <- inception_4b/1x1
I0714 21:23:42.978572 26469 net.cpp:425] inception_4b/output <- inception_4b/3x3
I0714 21:23:42.978579 26469 net.cpp:425] inception_4b/output <- inception_4b/5x5
I0714 21:23:42.978585 26469 net.cpp:425] inception_4b/output <- inception_4b/pool_proj
I0714 21:23:42.978588 26465 net.cpp:141] Setting up inception_4b/pool_proj
I0714 21:23:42.978596 26469 net.cpp:399] inception_4b/output -> inception_4b/output
I0714 21:23:42.978606 26465 net.cpp:148] Top shape: 10 64 14 14 (125440)
I0714 21:23:42.978612 26465 net.cpp:156] Memory required for data: 403289600
I0714 21:23:42.978623 26465 layer_factory.hpp:77] Creating layer inception_4b/relu_pool_proj
I0714 21:23:42.978633 26465 net.cpp:91] Creating Layer inception_4b/relu_pool_proj
I0714 21:23:42.978639 26465 net.cpp:425] inception_4b/relu_pool_proj <- inception_4b/pool_proj
I0714 21:23:42.978647 26465 net.cpp:386] inception_4b/relu_pool_proj -> inception_4b/pool_proj (in-place)
I0714 21:23:42.978678 26469 net.cpp:141] Setting up inception_4b/output
I0714 21:23:42.978701 26469 net.cpp:148] Top shape: 10 512 14 14 (1003520)
I0714 21:23:42.978706 26469 net.cpp:156] Memory required for data: 407805440
I0714 21:23:42.978711 26469 layer_factory.hpp:77] Creating layer inception_4b/output_inception_4b/output_0_split
I0714 21:23:42.978734 26469 net.cpp:91] Creating Layer inception_4b/output_inception_4b/output_0_split
I0714 21:23:42.978740 26469 net.cpp:425] inception_4b/output_inception_4b/output_0_split <- inception_4b/output
I0714 21:23:42.978749 26469 net.cpp:399] inception_4b/output_inception_4b/output_0_split -> inception_4b/output_inception_4b/output_0_split_0
I0714 21:23:42.978760 26469 net.cpp:399] inception_4b/output_inception_4b/output_0_split -> inception_4b/output_inception_4b/output_0_split_1
I0714 21:23:42.978771 26469 net.cpp:399] inception_4b/output_inception_4b/output_0_split -> inception_4b/output_inception_4b/output_0_split_2
I0714 21:23:42.978780 26469 net.cpp:399] inception_4b/output_inception_4b/output_0_split -> inception_4b/output_inception_4b/output_0_split_3
I0714 21:23:42.979682 26469 net.cpp:141] Setting up inception_4b/output_inception_4b/output_0_split
I0714 21:23:42.979697 26469 net.cpp:148] Top shape: 10 512 14 14 (1003520)
I0714 21:23:42.979694 26465 net.cpp:141] Setting up inception_4b/relu_pool_proj
I0714 21:23:42.979703 26469 net.cpp:148] Top shape: 10 512 14 14 (1003520)
I0714 21:23:42.979709 26469 net.cpp:148] Top shape: 10 512 14 14 (1003520)
I0714 21:23:42.979710 26465 net.cpp:148] Top shape: 10 64 14 14 (125440)
I0714 21:23:42.979715 26469 net.cpp:148] Top shape: 10 512 14 14 (1003520)
I0714 21:23:42.979715 26465 net.cpp:156] Memory required for data: 403791360
I0714 21:23:42.979720 26469 net.cpp:156] Memory required for data: 423861760
I0714 21:23:42.979722 26465 layer_factory.hpp:77] Creating layer inception_4b/output
I0714 21:23:42.979727 26469 layer_factory.hpp:77] Creating layer inception_4c/1x1
I0714 21:23:42.979732 26465 net.cpp:91] Creating Layer inception_4b/output
I0714 21:23:42.979738 26465 net.cpp:425] inception_4b/output <- inception_4b/1x1
I0714 21:23:42.979744 26469 net.cpp:91] Creating Layer inception_4c/1x1
I0714 21:23:42.979745 26465 net.cpp:425] inception_4b/output <- inception_4b/3x3
…
I0714 21:23:43.129328 26465 net.cpp:141] Setting up inception_4e/relu_5x5_reduce
I0714 21:23:43.129343 26465 net.cpp:148] Top shape: 10 32 14 14 (62720)
I0714 21:23:43.129348 26465 net.cpp:156] Memory required for data: 506150400
I0714 21:23:43.129354 26465 layer_factory.hpp:77] Creating layer inception_4e/5x5
I0714 21:23:43.129371 26465 net.cpp:91] Creating Layer inception_4e/5x5
I0714 21:23:43.129379 26465 net.cpp:425] inception_4e/5x5 <- inception_4e/5x5_reduce
I0714 21:23:43.129387 26465 net.cpp:399] inception_4e/5x5 -> inception_4e/5x5
I0714 21:23:43.133677 26469 net.cpp:141] Setting up inception_4e/5x5
I0714 21:23:43.133700 26469 net.cpp:148] Top shape: 10 128 14 14 (250880)
I0714 21:23:43.133707 26469 net.cpp:156] Memory required for data: 507153920
I0714 21:23:43.133716 26469 layer_factory.hpp:77] Creating layer inception_4e/relu_5x5
I0714 21:23:43.133726 26469 net.cpp:91] Creating Layer inception_4e/relu_5x5
I0714 21:23:43.133733 26469 net.cpp:425] inception_4e/relu_5x5 <- inception_4e/5x5
I0714 21:23:43.133741 26469 net.cpp:386] inception_4e/relu_5x5 -> inception_4e/5x5 (in-place)
I0714 21:23:43.134053 26469 net.cpp:141] Setting up inception_4e/relu_5x5
I0714 21:23:43.134066 26469 net.cpp:148] Top shape: 10 128 14 14 (250880)
I0714 21:23:43.134071 26469 net.cpp:156] Memory required for data: 508157440
I0714 21:23:43.134076 26469 layer_factory.hpp:77] Creating layer inception_4e/pool
I0714 21:23:43.134089 26469 net.cpp:91] Creating Layer inception_4e/pool
I0714 21:23:43.134096 26469 net.cpp:425] inception_4e/pool <- inception_4d/output_inception_4d/output_0_split_3
I0714 21:23:43.134104 26469 net.cpp:399] inception_4e/pool -> inception_4e/pool
I0714 21:23:43.135064 26469 net.cpp:141] Setting up inception_4e/pool
I0714 21:23:43.135079 26469 net.cpp:148] Top shape: 10 528 14 14 (1034880)
I0714 21:23:43.135084 26469 net.cpp:156] Memory required for data: 512296960
I0714 21:23:43.135089 26469 layer_factory.hpp:77] Creating layer inception_4e/pool_proj
I0714 21:23:43.135107 26469 net.cpp:91] Creating Layer inception_4e/pool_proj
I0714 21:23:43.135113 26469 net.cpp:425] inception_4e/pool_proj <- inception_4e/pool
I0714 21:23:43.135128 26469 net.cpp:399] inception_4e/pool_proj -> inception_4e/pool_proj
I0714 21:23:43.137127 26465 net.cpp:141] Setting up inception_4e/5x5
I0714 21:23:43.137148 26465 net.cpp:148] Top shape: 10 128 14 14 (250880)
I0714 21:23:43.137154 26465 net.cpp:156] Memory required for data: 507153920
I0714 21:23:43.137171 26465 layer_factory.hpp:77] Creating layer inception_4e/relu_5x5
I0714 21:23:43.137197 26465 net.cpp:91] Creating Layer inception_4e/relu_5x5
I0714 21:23:43.137207 26465 net.cpp:425] inception_4e/relu_5x5 <- inception_4e/5x5
I0714 21:23:43.137215 26465 net.cpp:386] inception_4e/relu_5x5 -> inception_4e/5x5 (in-place)
I0714 21:23:43.137631 26465 net.cpp:141] Setting up inception_4e/relu_5x5
I0714 21:23:43.137645 26465 net.cpp:148] Top shape: 10 128 14 14 (250880)
I0714 21:23:43.137650 26465 net.cpp:156] Memory required for data: 508157440
I0714 21:23:43.137655 26465 layer_factory.hpp:77] Creating layer inception_4e/pool
I0714 21:23:43.137668 26465 net.cpp:91] Creating Layer inception_4e/pool
I0714 21:23:43.137676 26465 net.cpp:425] inception_4e/pool <- inception_4d/output_inception_4d/output_0_split_3
I0714 21:23:43.137686 26465 net.cpp:399] inception_4e/pool -> inception_4e/pool
I0714 21:23:43.138511 26465 net.cpp:141] Setting up inception_4e/pool
I0714 21:23:43.138525 26465 net.cpp:148] Top shape: 10 528 14 14 (1034880)
I0714 21:23:43.138530 26465 net.cpp:156] Memory required for data: 512296960
I0714 21:23:43.138535 26465 layer_factory.hpp:77] Creating layer inception_4e/pool_proj
I0714 21:23:43.138556 26465 net.cpp:91] Creating Layer inception_4e/pool_proj
I0714 21:23:43.138563 26465 net.cpp:425] inception_4e/pool_proj <- inception_4e/pool
I0714 21:23:43.138573 26465 net.cpp:399] inception_4e/pool_proj -> inception_4e/pool_proj
I0714 21:23:43.140617 26469 net.cpp:141] Setting up inception_4e/pool_proj
I0714 21:23:43.140638 26469 net.cpp:148] Top shape: 10 128 14 14 (250880)
I0714 21:23:43.140645 26469 net.cpp:156] Memory required for data: 513300480
I0714 21:23:43.140655 26469 layer_factory.hpp:77] Creating layer inception_4e/relu_pool_proj
I0714 21:23:43.140669 26469 net.cpp:91] Creating Layer inception_4e/relu_pool_proj
I0714 21:23:43.140676 26469 net.cpp:425] inception_4e/relu_pool_proj <- inception_4e/pool_proj
I0714 21:23:43.140686 26469 net.cpp:386] inception_4e/relu_pool_proj -> inception_4e/pool_proj (in-place)
I0714 21:23:43.141666 26469 net.cpp:141] Setting up inception_4e/relu_pool_proj
I0714 21:23:43.141685 26469 net.cpp:148] Top shape: 10 128 14 14 (250880)
I0714 21:23:43.141690 26469 net.cpp:156] Memory required for data: 514304000
I0714 21:23:43.141695 26469 layer_factory.hpp:77] Creating layer inception_4e/output
I0714 21:23:43.141708 26469 net.cpp:91] Creating Layer inception_4e/output
I0714 21:23:43.141716 26469 net.cpp:425] inception_4e/output <- inception_4e/1x1
I0714 21:23:43.141723 26469 net.cpp:425] inception_4e/output <- inception_4e/3x3
I0714 21:23:43.141729 26469 net.cpp:425] inception_4e/output <- inception_4e/5x5
I0714 21:23:43.141736 26469 net.cpp:425] inception_4e/output <- inception_4e/pool_proj
I0714 21:23:43.141744 26469 net.cpp:399] inception_4e/output -> inception_4e/output
I0714 21:23:43.142415 26469 net.cpp:141] Setting up inception_4e/output
I0714 21:23:43.142429 26469 net.cpp:148] Top shape: 10 832 14 14 (1630720)
I0714 21:23:43.142433 26469 net.cpp:156] Memory required for data: 520826880
I0714 21:23:43.142439 26469 layer_factory.hpp:77] Creating layer pool4/3x3_s2
I0714 21:23:43.142448 26469 net.cpp:91] Creating Layer pool4/3x3_s2
I0714 21:23:43.142454 26469 net.cpp:425] pool4/3x3_s2 <- inception_4e/output
I0714 21:23:43.142465 26469 net.cpp:399] pool4/3x3_s2 -> pool4/3x3_s2
I0714 21:23:43.142659 26469 net.cpp:141] Setting up pool4/3x3_s2
I0714 21:23:43.142671 26469 net.cpp:148] Top shape: 10 832 7 7 (407680)
I0714 21:23:43.142676 26469 net.cpp:156] Memory required for data: 522457600
I0714 21:23:43.142681 26469 layer_factory.hpp:77] Creating layer pool4/3x3_s2_pool4/3x3_s2_0_split
I0714 21:23:43.142700 26469 net.cpp:91] Creating Layer pool4/3x3_s2_pool4/3x3_s2_0_split
I0714 21:23:43.142707 26469 net.cpp:425] pool4/3x3_s2_pool4/3x3_s2_0_split <- pool4/3x3_s2
I0714 21:23:43.142719 26469 net.cpp:399] pool4/3x3_s2_pool4/3x3_s2_0_split -> pool4/3x3_s2_pool4/3x3_s2_0_split_0
I0714 21:23:43.142729 26469 net.cpp:399] pool4/3x3_s2_pool4/3x3_s2_0_split -> pool4/3x3_s2_pool4/3x3_s2_0_split_1
I0714 21:23:43.142737 26469 net.cpp:399] pool4/3x3_s2_pool4/3x3_s2_0_split -> pool4/3x3_s2_pool4/3x3_s2_0_split_2
I0714 21:23:43.142746 26469 net.cpp:399] pool4/3x3_s2_pool4/3x3_s2_0_split -> pool4/3x3_s2_pool4/3x3_s2_0_split_3
I0714 21:23:43.143666 26469 net.cpp:141] Setting up pool4/3x3_s2_pool4/3x3_s2_0_split
I0714 21:23:43.143682 26469 net.cpp:148] Top shape: 10 832 7 7 (407680)
I0714 21:23:43.143687 26469 net.cpp:148] Top shape: 10 832 7 7 (407680)
I0714 21:23:43.143693 26469 net.cpp:148] Top shape: 10 832 7 7 (407680)
I0714 21:23:43.143698 26469 net.cpp:148] Top shape: 10 832 7 7 (407680)
I0714 21:23:43.143703 26469 net.cpp:156] Memory required for data: 528980480
I0714 21:23:43.143708 26469 layer_factory.hpp:77] Creating layer inception_5a/1x1
I0714 21:23:43.143731 26469 net.cpp:91] Creating Layer inception_5a/1x1
I0714 21:23:43.143738 26469 net.cpp:425] inception_5a/1x1 <- pool4/3x3_s2_pool4/3x3_s2_0_split_0
I0714 21:23:43.143749 26469 net.cpp:399] inception_5a/1x1 -> inception_5a/1x1
I0714 21:23:43.146816 26465 net.cpp:141] Setting up inception_4e/pool_proj
I0714 21:23:43.146850 26465 net.cpp:148] Top shape: 10 128 14 14 (250880)
I0714 21:23:43.146862 26465 net.cpp:156] Memory required for data: 513300480
I0714 21:23:43.146881 26465 layer_factory.hpp:77] Creating layer inception_4e/relu_pool_proj
I0714 21:23:43.146899 26465 net.cpp:91] Creating Layer inception_4e/relu_pool_proj
I0714 21:23:43.146914 26465 net.cpp:425] inception_4e/relu_pool_proj <- inception_4e/pool_proj
I0714 21:23:43.146936 26465 net.cpp:386] inception_4e/relu_pool_proj -> inception_4e/pool_proj (in-place)
I0714 21:23:43.148222 26465 net.cpp:141] Setting up inception_4e/relu_pool_proj
I0714 21:23:43.148250 26465 net.cpp:148] Top shape: 10 128 14 14 (250880)
I0714 21:23:43.148259 26465 net.cpp:156] Memory required for data: 514304000
I0714 21:23:43.148269 26465 layer_factory.hpp:77] Creating layer inception_4e/output
I0714 21:23:43.148294 26465 net.cpp:91] Creating Layer inception_4e/output
I0714 21:23:43.148305 26465 net.cpp:425] inception_4e/output <- inception_4e/1x1
I0714 21:23:43.148318 26465 net.cpp:425] inception_4e/output <- inception_4e/3x3
I0714 21:23:43.148329 26465 net.cpp:425] inception_4e/output <- inception_4e/5x5
I0714 21:23:43.148339 26465 net.cpp:425] inception_4e/output <- inception_4e/pool_proj
I0714 21:23:43.148350 26465 net.cpp:399] inception_4e/output -> inception_4e/output
I0714 21:23:43.148484 26465 net.cpp:141] Setting up inception_4e/output
I0714 21:23:43.148505 26465 net.cpp:148] Top shape: 10 832 14 14 (1630720)
I0714 21:23:43.148514 26465 net.cpp:156] Memory required for data: 520826880
I0714 21:23:43.148525 26465 layer_factory.hpp:77] Creating layer pool4/3x3_s2
I0714 21:23:43.148548 26465 net.cpp:91] Creating Layer pool4/3x3_s2
I0714 21:23:43.148561 26465 net.cpp:425] pool4/3x3_s2 <- inception_4e/output
I0714 21:23:43.148576 26465 net.cpp:399] pool4/3x3_s2 -> pool4/3x3_s2
I0714 21:23:43.149044 26465 net.cpp:141] Setting up pool4/3x3_s2
I0714 21:23:43.149063 26465 net.cpp:148] Top shape: 10 832 7 7 (407680)
I0714 21:23:43.149071 26465 net.cpp:156] Memory required for data: 522457600
I0714 21:23:43.149080 26465 layer_factory.hpp:77] Creating layer pool4/3x3_s2_pool4/3x3_s2_0_split
I0714 21:23:43.149101 26465 net.cpp:91] Creating Layer pool4/3x3_s2_pool4/3x3_s2_0_split
I0714 21:23:43.149111 26465 net.cpp:425] pool4/3x3_s2_pool4/3x3_s2_0_split <- pool4/3x3_s2
I0714 21:23:43.149127 26465 net.cpp:399] pool4/3x3_s2_pool4/3x3_s2_0_split -> pool4/3x3_s2_pool4/3x3_s2_0_split_0
I0714 21:23:43.149145 26465 net.cpp:399] pool4/3x3_s2_pool4/3x3_s2_0_split -> pool4/3x3_s2_pool4/3x3_s2_0_split_1
I0714 21:23:43.149166 26465 net.cpp:399] pool4/3x3_s2_pool4/3x3_s2_0_split -> pool4/3x3_s2_pool4/3x3_s2_0_split_2
I0714 21:23:43.149184 26465 net.cpp:399] pool4/3x3_s2_pool4/3x3_s2_0_split -> pool4/3x3_s2_pool4/3x3_s2_0_split_3
I0714 21:23:43.151235 26465 net.cpp:141] Setting up pool4/3x3_s2_pool4/3x3_s2_0_split
I0714 21:23:43.151264 26465 net.cpp:148] Top shape: 10 832 7 7 (407680)
I0714 21:23:43.151279 26465 net.cpp:148] Top shape: 10 832 7 7 (407680)
I0714 21:23:43.151291 26465 net.cpp:148] Top shape: 10 832 7 7 (407680)
I0714 21:23:43.151301 26465 net.cpp:148] Top shape: 10 832 7 7 (407680)
I0714 21:23:43.151309 26465 net.cpp:156] Memory required for data: 528980480
I0714 21:23:43.151319 26465 layer_factory.hpp:77] Creating layer inception_5a/1x1
I0714 21:23:43.151350 26465 net.cpp:91] Creating Layer inception_5a/1x1
I0714 21:23:43.151365 26465 net.cpp:425] inception_5a/1x1 <- pool4/3x3_s2_pool4/3x3_s2_0_split_0
I0714 21:23:43.151382 26465 net.cpp:399] inception_5a/1x1 -> inception_5a/1x1
I0714 21:23:43.152030 26469 net.cpp:141] Setting up inception_5a/1x1
I0714 21:23:43.152051 26469 net.cpp:148] Top shape: 10 256 7 7 (125440)
I0714 21:23:43.152057 26469 net.cpp:156] Memory required for data: 529482240
I0714 21:23:43.152070 26469 layer_factory.hpp:77] Creating layer inception_5a/relu_1x1
I0714 21:23:43.152079 26469 net.cpp:91] Creating Layer inception_5a/relu_1x1
I0714 21:23:43.152086 26469 net.cpp:425] inception_5a/relu_1x1 <- inception_5a/1x1
I0714 21:23:43.152094 26469 net.cpp:386] inception_5a/relu_1x1 -> inception_5a/1x1 (in-place)
I0714 21:23:43.152590 26469 net.cpp:141] Setting up inception_5a/relu_1x1
I0714 21:23:43.152606 26469 net.cpp:148] Top shape: 10 256 7 7 (125440)
I0714 21:23:43.152611 26469 net.cpp:156] Memory required for data: 529984000
I0714 21:23:43.152616 26469 layer_factory.hpp:77] Creating layer inception_5a/3x3_reduce
I0714 21:23:43.152637 26469 net.cpp:91] Creating Layer inception_5a/3x3_reduce
I0714 21:23:43.152644 26469 net.cpp:425] inception_5a/3x3_reduce <- pool4/3x3_s2_pool4/3x3_s2_0_split_1
I0714 21:23:43.152658 26469 net.cpp:399] inception_5a/3x3_reduce -> inception_5a/3x3_reduce
I0714 21:23:43.161823 26465 net.cpp:141] Setting up inception_5a/1x1
I0714 21:23:43.161851 26465 net.cpp:148] Top shape: 10 256 7 7 (125440)
I0714 21:23:43.161857 26465 net.cpp:156] Memory required for data: 529482240
I0714 21:23:43.161869 26465 layer_factory.hpp:77] Creating layer inception_5a/relu_1x1
I0714 21:23:43.161880 26465 net.cpp:91] Creating Layer inception_5a/relu_1x1
I0714 21:23:43.161886 26465 net.cpp:425] inception_5a/relu_1x1 <- inception_5a/1x1
I0714 21:23:43.161898 26465 net.cpp:386] inception_5a/relu_1x1 -> inception_5a/1x1 (in-place)
I0714 21:23:43.162297 26469 net.cpp:141] Setting up inception_5a/3x3_reduce
I0714 21:23:43.162317 26469 net.cpp:148] Top shape: 10 160 7 7 (78400)
I0714 21:23:43.162314 26465 net.cpp:141] Setting up inception_5a/relu_1x1
I0714 21:23:43.162327 26469 net.cpp:156] Memory required for data: 530297600
I0714 21:23:43.162338 26465 net.cpp:148] Top shape: 10 256 7 7 (125440)
I0714 21:23:43.162344 26465 net.cpp:156] Memory required for data: 529984000
I0714 21:23:43.162346 26469 layer_factory.hpp:77] Creating layer inception_5a/relu_3x3_reduce
I0714 21:23:43.162350 26465 layer_factory.hpp:77] Creating layer inception_5a/3x3_reduce
I0714 21:23:43.162360 26469 net.cpp:91] Creating Layer inception_5a/relu_3x3_reduce
I0714 21:23:43.162369 26469 net.cpp:425] inception_5a/relu_3x3_reduce <- inception_5a/3x3_reduce
I0714 21:23:43.162371 26465 net.cpp:91] Creating Layer inception_5a/3x3_reduce
I0714 21:23:43.162379 26469 net.cpp:386] inception_5a/relu_3x3_reduce -> inception_5a/3x3_reduce (in-place)
I0714 21:23:43.162379 26465 net.cpp:425] inception_5a/3x3_reduce <- pool4/3x3_s2_pool4/3x3_s2_0_split_1
I0714 21:23:43.162396 26465 net.cpp:399] inception_5a/3x3_reduce -> inception_5a/3x3_reduce
I0714 21:23:43.162864 26469 net.cpp:141] Setting up inception_5a/relu_3x3_reduce
I0714 21:23:43.162878 26469 net.cpp:148] Top shape: 10 160 7 7 (78400)
I0714 21:23:43.162884 26469 net.cpp:156] Memory required for data: 530611200
I0714 21:23:43.162889 26469 layer_factory.hpp:77] Creating layer inception_5a/3x3
I0714 21:23:43.162907 26469 net.cpp:91] Creating Layer inception_5a/3x3
I0714 21:23:43.162915 26469 net.cpp:425] inception_5a/3x3 <- inception_5a/3x3_reduce
I0714 21:23:43.162927 26469 net.cpp:399] inception_5a/3x3 -> inception_5a/3x3
I0714 21:23:43.170230 26465 net.cpp:141] Setting up inception_5a/3x3_reduce
I0714 21:23:43.170258 26465 net.cpp:148] Top shape: 10 160 7 7 (78400)
I0714 21:23:43.170264 26465 net.cpp:156] Memory required for data: 530297600
I0714 21:23:43.170274 26465 layer_factory.hpp:77] Creating layer inception_5a/relu_3x3_reduce
I0714 21:23:43.170284 26465 net.cpp:91] Creating Layer inception_5a/relu_3x3_reduce
I0714 21:23:43.170292 26465 net.cpp:425] inception_5a/relu_3x3_reduce <- inception_5a/3x3_reduce
I0714 21:23:43.170305 26465 net.cpp:386] inception_5a/relu_3x3_reduce -> inception_5a/3x3_reduce (in-place)
I0714 21:23:43.170610 26465 net.cpp:141] Setting up inception_5a/relu_3x3_reduce
I0714 21:23:43.170624 26465 net.cpp:148] Top shape: 10 160 7 7 (78400)
I0714 21:23:43.170629 26465 net.cpp:156] Memory required for data: 530611200
I0714 21:23:43.170634 26465 layer_factory.hpp:77] Creating layer inception_5a/3x3
I0714 21:23:43.170650 26465 net.cpp:91] Creating Layer inception_5a/3x3
I0714 21:23:43.170657 26465 net.cpp:425] inception_5a/3x3 <- inception_5a/3x3_reduce
I0714 21:23:43.170670 26465 net.cpp:399] inception_5a/3x3 -> inception_5a/3x3
I0714 21:23:43.177350 26469 net.cpp:141] Setting up inception_5a/3x3
I0714 21:23:43.177374 26469 net.cpp:148] Top shape: 10 320 7 7 (156800)
I0714 21:23:43.177381 26469 net.cpp:156] Memory required for data: 531238400
I0714 21:23:43.177392 26469 layer_factory.hpp:77] Creating layer inception_5a/relu_3x3
I0714 21:23:43.177402 26469 net.cpp:91] Creating Layer inception_5a/relu_3x3
I0714 21:23:43.177410 26469 net.cpp:425] inception_5a/relu_3x3 <- inception_5a/3x3
I0714 21:23:43.177431 26469 net.cpp:386] inception_5a/relu_3x3 -> inception_5a/3x3 (in-place)
I0714 21:23:43.178436 26469 net.cpp:141] Setting up inception_5a/relu_3x3
I0714 21:23:43.178453 26469 net.cpp:148] Top shape: 10 320 7 7 (156800)
I0714 21:23:43.178458 26469 net.cpp:156] Memory required for data: 531865600
I0714 21:23:43.178464 26469 layer_factory.hpp:77] Creating layer inception_5a/5x5_reduce
I0714 21:23:43.178481 26469 net.cpp:91] Creating Layer inception_5a/5x5_reduce
I0714 21:23:43.178489 26469 net.cpp:425] inception_5a/5x5_reduce <- pool4/3x3_s2_pool4/3x3_s2_0_split_2
I0714 21:23:43.178504 26469 net.cpp:399] inception_5a/5x5_reduce -> inception_5a/5x5_reduce
I0714 21:23:43.182610 26465 net.cpp:141] Setting up inception_5a/3x3
I0714 21:23:43.182631 26465 net.cpp:148] Top shape: 10 320 7 7 (156800)
I0714 21:23:43.182637 26465 net.cpp:156] Memory required for data: 531238400
I0714 21:23:43.182648 26465 layer_factory.hpp:77] Creating layer inception_5a/relu_3x3
I0714 21:23:43.182672 26465 net.cpp:91] Creating Layer inception_5a/relu_3x3
I0714 21:23:43.182682 26465 net.cpp:425] inception_5a/relu_3x3 <- inception_5a/3x3
I0714 21:23:43.182698 26465 net.cpp:386] inception_5a/relu_3x3 -> inception_5a/3x3 (in-place)
I0714 21:23:43.183606 26465 net.cpp:141] Setting up inception_5a/relu_3x3
I0714 21:23:43.183624 26465 net.cpp:148] Top shape: 10 320 7 7 (156800)
I0714 21:23:43.183629 26465 net.cpp:156] Memory required for data: 531865600
I0714 21:23:43.183635 26465 layer_factory.hpp:77] Creating layer inception_5a/5x5_reduce
I0714 21:23:43.183655 26465 net.cpp:91] Creating Layer inception_5a/5x5_reduce
I0714 21:23:43.183663 26465 net.cpp:425] inception_5a/5x5_reduce <- pool4/3x3_s2_pool4/3x3_s2_0_split_2
I0714 21:23:43.183675 26465 net.cpp:399] inception_5a/5x5_reduce -> inception_5a/5x5_reduce
I0714 21:23:43.186064 26469 net.cpp:141] Setting up inception_5a/5x5_reduce
I0714 21:23:43.186086 26469 net.cpp:148] Top shape: 10 32 7 7 (15680)
I0714 21:23:43.186092 26469 net.cpp:156] Memory required for data: 531928320
I0714 21:23:43.186103 26469 layer_factory.hpp:77] Creating layer inception_5a/relu_5x5_reduce
I0714 21:23:43.186113 26469 net.cpp:91] Creating Layer inception_5a/relu_5x5_reduce
I0714 21:23:43.186120 26469 net.cpp:425] inception_5a/relu_5x5_reduce <- inception_5a/5x5_reduce
I0714 21:23:43.186132 26469 net.cpp:386] inception_5a/relu_5x5_reduce -> inception_5a/5x5_reduce (in-place)
I0714 21:23:43.186517 26469 net.cpp:141] Setting up inception_5a/relu_5x5_reduce
I0714 21:23:43.186532 26469 net.cpp:148] Top shape: 10 32 7 7 (15680)
I0714 21:23:43.186537 26469 net.cpp:156] Memory required for data: 531991040
I0714 21:23:43.186543 26469 layer_factory.hpp:77] Creating layer inception_5a/5x5
I0714 21:23:43.186564 26469 net.cpp:91] Creating Layer inception_5a/5x5
I0714 21:23:43.186571 26469 net.cpp:425] inception_5a/5x5 <- inception_5a/5x5_reduce
I0714 21:23:43.186581 26469 net.cpp:399] inception_5a/5x5 -> inception_5a/5x5
I0714 21:23:43.189054 26465 net.cpp:141] Setting up inception_5a/5x5_reduce
I0714 21:23:43.189076 26465 net.cpp:148] Top shape: 10 32 7 7 (15680)
I0714 21:23:43.189082 26465 net.cpp:156] Memory required for data: 531928320
I0714 21:23:43.189091 26465 layer_factory.hpp:77] Creating layer inception_5a/relu_5x5_reduce
I0714 21:23:43.189105 26465 net.cpp:91] Creating Layer inception_5a/relu_5x5_reduce
I0714 21:23:43.189113 26465 net.cpp:425] inception_5a/relu_5x5_reduce <- inception_5a/5x5_reduce
I0714 21:23:43.189121 26465 net.cpp:386] inception_5a/relu_5x5_reduce -> inception_5a/5x5_reduce (in-place)
I0714 21:23:43.189429 26465 net.cpp:141] Setting up inception_5a/relu_5x5_reduce
I0714 21:23:43.189442 26465 net.cpp:148] Top shape: 10 32 7 7 (15680)
I0714 21:23:43.189447 26465 net.cpp:156] Memory required for data: 531991040
I0714 21:23:43.189452 26465 layer_factory.hpp:77] Creating layer inception_5a/5x5
I0714 21:23:43.189471 26465 net.cpp:91] Creating Layer inception_5a/5x5
I0714 21:23:43.189477 26465 net.cpp:425] inception_5a/5x5 <- inception_5a/5x5_reduce
I0714 21:23:43.189492 26465 net.cpp:399] inception_5a/5x5 -> inception_5a/5x5
I0714 21:23:43.193526 26469 net.cpp:141] Setting up inception_5a/5x5
I0714 21:23:43.193547 26469 net.cpp:148] Top shape: 10 128 7 7 (62720)
I0714 21:23:43.193553 26469 net.cpp:156] Memory required for data: 532241920
I0714 21:23:43.193563 26469 layer_factory.hpp:77] Creating layer inception_5a/relu_5x5
I0714 21:23:43.193603 26469 net.cpp:91] Creating Layer inception_5a/relu_5x5
I0714 21:23:43.193611 26469 net.cpp:425] inception_5a/relu_5x5 <- inception_5a/5x5
I0714 21:23:43.193620 26469 net.cpp:386] inception_5a/relu_5x5 -> inception_5a/5x5 (in-place)
I0714 21:23:43.194025 26469 net.cpp:141] Setting up inception_5a/relu_5x5
I0714 21:23:43.194037 26469 net.cpp:148] Top shape: 10 128 7 7 (62720)
I0714 21:23:43.194042 26469 net.cpp:156] Memory required for data: 532492800
I0714 21:23:43.194048 26469 layer_factory.hpp:77] Creating layer inception_5a/pool
I0714 21:23:43.194063 26469 net.cpp:91] Creating Layer inception_5a/pool
I0714 21:23:43.194070 26469 net.cpp:425] inception_5a/pool <- pool4/3x3_s2_pool4/3x3_s2_0_split_3
I0714 21:23:43.194079 26469 net.cpp:399] inception_5a/pool -> inception_5a/pool
I0714 21:23:43.194803 26469 net.cpp:141] Setting up inception_5a/pool
I0714 21:23:43.194816 26469 net.cpp:148] Top shape: 10 832 7 7 (407680)
I0714 21:23:43.194821 26469 net.cpp:156] Memory required for data: 534123520
I0714 21:23:43.194828 26469 layer_factory.hpp:77] Creating layer inception_5a/pool_proj
I0714 21:23:43.194847 26469 net.cpp:91] Creating Layer inception_5a/pool_proj
I0714 21:23:43.194854 26469 net.cpp:425] inception_5a/pool_proj <- inception_5a/pool
I0714 21:23:43.194866 26469 net.cpp:399] inception_5a/pool_proj -> inception_5a/pool_proj
I0714 21:23:43.195577 26465 net.cpp:141] Setting up inception_5a/5x5
I0714 21:23:43.195595 26465 net.cpp:148] Top shape: 10 128 7 7 (62720)
I0714 21:23:43.195600 26465 net.cpp:156] Memory required for data: 532241920
I0714 21:23:43.195611 26465 layer_factory.hpp:77] Creating layer inception_5a/relu_5x5
I0714 21:23:43.195644 26465 net.cpp:91] Creating Layer inception_5a/relu_5x5
I0714 21:23:43.195652 26465 net.cpp:425] inception_5a/relu_5x5 <- inception_5a/5x5
I0714 21:23:43.195660 26465 net.cpp:386] inception_5a/relu_5x5 -> inception_5a/5x5 (in-place)
I0714 21:23:43.196452 26465 net.cpp:141] Setting up inception_5a/relu_5x5
I0714 21:23:43.196468 26465 net.cpp:148] Top shape: 10 128 7 7 (62720)
I0714 21:23:43.196473 26465 net.cpp:156] Memory required for data: 532492800
I0714 21:23:43.196480 26465 layer_factory.hpp:77] Creating layer inception_5a/pool
I0714 21:23:43.196490 26465 net.cpp:91] Creating Layer inception_5a/pool
I0714 21:23:43.196496 26465 net.cpp:425] inception_5a/pool <- pool4/3x3_s2_pool4/3x3_s2_0_split_3
I0714 21:23:43.196508 26465 net.cpp:399] inception_5a/pool -> inception_5a/pool
I0714 21:23:43.197854 26465 net.cpp:141] Setting up inception_5a/pool
I0714 21:23:43.197870 26465 net.cpp:148] Top shape: 10 832 7 7 (407680)
I0714 21:23:43.197875 26465 net.cpp:156] Memory required for data: 534123520
I0714 21:23:43.197880 26465 layer_factory.hpp:77] Creating layer inception_5a/pool_proj
I0714 21:23:43.197898 26465 net.cpp:91] Creating Layer inception_5a/pool_proj
I0714 21:23:43.197906 26465 net.cpp:425] inception_5a/pool_proj <- inception_5a/pool
I0714 21:23:43.197917 26465 net.cpp:399] inception_5a/pool_proj -> inception_5a/pool_proj
I0714 21:23:43.204046 26469 net.cpp:141] Setting up inception_5a/pool_proj
I0714 21:23:43.204071 26469 net.cpp:148] Top shape: 10 128 7 7 (62720)
I0714 21:23:43.204077 26469 net.cpp:156] Memory required for data: 534374400
I0714 21:23:43.204087 26469 layer_factory.hpp:77] Creating layer inception_5a/relu_pool_proj
I0714 21:23:43.204097 26469 net.cpp:91] Creating Layer inception_5a/relu_pool_proj
I0714 21:23:43.204104 26469 net.cpp:425] inception_5a/relu_pool_proj <- inception_5a/pool_proj
I0714 21:23:43.204113 26469 net.cpp:386] inception_5a/relu_pool_proj -> inception_5a/pool_proj (in-place)
I0714 21:23:43.205178 26469 net.cpp:141] Setting up inception_5a/relu_pool_proj
I0714 21:23:43.205198 26469 net.cpp:148] Top shape: 10 128 7 7 (62720)
I0714 21:23:43.205202 26469 net.cpp:156] Memory required for data: 534625280
I0714 21:23:43.205209 26469 layer_factory.hpp:77] Creating layer inception_5a/output
I0714 21:23:43.205217 26469 net.cpp:91] Creating Layer inception_5a/output
I0714 21:23:43.205224 26469 net.cpp:425] inception_5a/output <- inception_5a/1x1
I0714 21:23:43.205232 26469 net.cpp:425] inception_5a/output <- inception_5a/3x3
I0714 21:23:43.205238 26469 net.cpp:425] inception_5a/output <- inception_5a/5x5
I0714 21:23:43.205245 26469 net.cpp:425] inception_5a/output <- inception_5a/pool_proj
I0714 21:23:43.205251 26469 net.cpp:399] inception_5a/output -> inception_5a/output
I0714 21:23:43.205392 26469 net.cpp:141] Setting up inception_5a/output
I0714 21:23:43.205405 26469 net.cpp:148] Top shape: 10 832 7 7 (407680)
I0714 21:23:43.205410 26469 net.cpp:156] Memory required for data: 536256000
I0714 21:23:43.205415 26469 layer_factory.hpp:77] Creating layer inception_5a/output_inception_5a/output_0_split
I0714 21:23:43.205423 26469 net.cpp:91] Creating Layer inception_5a/output_inception_5a/output_0_split
I0714 21:23:43.205430 26469 net.cpp:425] inception_5a/output_inception_5a/output_0_split <- inception_5a/output
I0714 21:23:43.205436 26465 net.cpp:141] Setting up inception_5a/pool_proj
I0714 21:23:43.205441 26469 net.cpp:399] inception_5a/output_inception_5a/output_0_split -> inception_5a/output_inception_5a/output_0_split_0
I0714 21:23:43.205456 26465 net.cpp:148] Top shape: 10 128 7 7 (62720)
I0714 21:23:43.205463 26465 net.cpp:156] Memory required for data: 534374400
I0714 21:23:43.205463 26469 net.cpp:399] inception_5a/output_inception_5a/output_0_split -> inception_5a/output_inception_5a/output_0_split_1
I0714 21:23:43.205473 26465 layer_factory.hpp:77] Creating layer inception_5a/relu_pool_proj
I0714 21:23:43.205474 26469 net.cpp:399] inception_5a/output_inception_5a/output_0_split -> inception_5a/output_inception_5a/output_0_split_2
I0714 21:23:43.205488 26465 net.cpp:91] Creating Layer inception_5a/relu_pool_proj
I0714 21:23:43.205490 26469 net.cpp:399] inception_5a/output_inception_5a/output_0_split -> inception_5a/output_inception_5a/output_0_split_3
I0714 21:23:43.205497 26465 net.cpp:425] inception_5a/relu_pool_proj <- inception_5a/pool_proj
I0714 21:23:43.205505 26465 net.cpp:386] inception_5a/relu_pool_proj -> inception_5a/pool_proj (in-place)
I0714 21:23:43.206626 26465 net.cpp:141] Setting up inception_5a/relu_pool_proj
I0714 21:23:43.206646 26465 net.cpp:148] Top shape: 10 128 7 7 (62720)
I0714 21:23:43.206651 26465 net.cpp:156] Memory required for data: 534625280
I0714 21:23:43.206652 26469 net.cpp:141] Setting up inception_5a/output_inception_5a/output_0_split
I0714 21:23:43.206657 26465 layer_factory.hpp:77] Creating layer inception_5a/output
I0714 21:23:43.206671 26469 net.cpp:148] Top shape: 10 832 7 7 (407680)
I0714 21:23:43.206678 26469 net.cpp:148] Top shape: 10 832 7 7 (407680)
I0714 21:23:43.206678 26465 net.cpp:91] Creating Layer inception_5a/output
I0714 21:23:43.206697 26469 net.cpp:148] Top shape: 10 832 7 7 (407680)
I0714 21:23:43.206706 26469 net.cpp:148] Top shape: 10 832 7 7 (407680)
I0714 21:23:43.206704 26465 net.cpp:425] inception_5a/output <- inception_5a/1x1
I0714 21:23:43.206709 26469 net.cpp:156] Memory required for data: 542778880
I0714 21:23:43.206715 26469 layer_factory.hpp:77] Creating layer inception_5b/1x1
I0714 21:23:43.206718 26465 net.cpp:425] inception_5a/output <- inception_5a/3x3
I0714 21:23:43.206729 26465 net.cpp:425] inception_5a/output <- inception_5a/5x5
I0714 21:23:43.206735 26469 net.cpp:91] Creating Layer inception_5b/1x1
I0714 21:23:43.206735 26465 net.cpp:425] inception_5a/output <- inception_5a/pool_proj
I0714 21:23:43.206746 26469 net.cpp:425] inception_5b/1x1 <- inception_5a/output_inception_5a/output_0_split_0
I0714 21:23:43.206753 26465 net.cpp:399] inception_5a/output -> inception_5a/output
I0714 21:23:43.206766 26469 net.cpp:399] inception_5b/1x1 -> inception_5b/1x1
I0714 21:23:43.206877 26465 net.cpp:141] Setting up inception_5a/output
I0714 21:23:43.206892 26465 net.cpp:148] Top shape: 10 832 7 7 (407680)
I0714 21:23:43.206897 26465 net.cpp:156] Memory required for data: 536256000
I0714 21:23:43.206902 26465 layer_factory.hpp:77] Creating layer inception_5a/output_inception_5a/output_0_split
I0714 21:23:43.206910 26465 net.cpp:91] Creating Layer inception_5a/output_inception_5a/output_0_split
I0714 21:23:43.206917 26465 net.cpp:425] inception_5a/output_inception_5a/output_0_split <- inception_5a/output
I0714 21:23:43.206924 26465 net.cpp:399] inception_5a/output_inception_5a/output_0_split -> inception_5a/output_inception_5a/output_0_split_0
I0714 21:23:43.206934 26465 net.cpp:399] inception_5a/output_inception_5a/output_0_split -> inception_5a/output_inception_5a/output_0_split_1
I0714 21:23:43.206948 26465 net.cpp:399] inception_5a/output_inception_5a/output_0_split -> inception_5a/output_inception_5a/output_0_split_2
I0714 21:23:43.206957 26465 net.cpp:399] inception_5a/output_inception_5a/output_0_split -> inception_5a/output_inception_5a/output_0_split_3
I0714 21:23:43.207406 26465 net.cpp:141] Setting up inception_5a/output_inception_5a/output_0_split
I0714 21:23:43.207419 26465 net.cpp:148] Top shape: 10 832 7 7 (407680)
I0714 21:23:43.207427 26465 net.cpp:148] Top shape: 10 832 7 7 (407680)
I0714 21:23:43.207432 26465 net.cpp:148] Top shape: 10 832 7 7 (407680)
I0714 21:23:43.207437 26465 net.cpp:148] Top shape: 10 832 7 7 (407680)
I0714 21:23:43.207442 26465 net.cpp:156] Memory required for data: 542778880
I0714 21:23:43.207447 26465 layer_factory.hpp:77] Creating layer inception_5b/1x1
I0714 21:23:43.207465 26465 net.cpp:91] Creating Layer inception_5b/1x1
I0714 21:23:43.207471 26465 net.cpp:425] inception_5b/1x1 <- inception_5a/output_inception_5a/output_0_split_0
I0714 21:23:43.207481 26465 net.cpp:399] inception_5b/1x1 -> inception_5b/1x1
I0714 21:23:43.215909 26469 net.cpp:141] Setting up inception_5b/1x1
I0714 21:23:43.215950 26469 net.cpp:148] Top shape: 10 384 7 7 (188160)
I0714 21:23:43.215955 26469 net.cpp:156] Memory required for data: 543531520
I0714 21:23:43.215970 26469 layer_factory.hpp:77] Creating layer inception_5b/relu_1x1
I0714 21:23:43.215987 26469 net.cpp:91] Creating Layer inception_5b/relu_1x1
I0714 21:23:43.215996 26469 net.cpp:425] inception_5b/relu_1x1 <- inception_5b/1x1
I0714 21:23:43.216007 26469 net.cpp:386] inception_5b/relu_1x1 -> inception_5b/1x1 (in-place)
I0714 21:23:43.216334 26469 net.cpp:141] Setting up inception_5b/relu_1x1
I0714 21:23:43.216347 26469 net.cpp:148] Top shape: 10 384 7 7 (188160)
I0714 21:23:43.216352 26469 net.cpp:156] Memory required for data: 544284160
I0714 21:23:43.216357 26469 layer_factory.hpp:77] Creating layer inception_5b/3x3_reduce
I0714 21:23:43.216377 26469 net.cpp:91] Creating Layer inception_5b/3x3_reduce
I0714 21:23:43.216385 26469 net.cpp:425] inception_5b/3x3_reduce <- inception_5a/output_inception_5a/output_0_split_1
I0714 21:23:43.216398 26469 net.cpp:399] inception_5b/3x3_reduce -> inception_5b/3x3_reduce
I0714 21:23:43.222123 26465 net.cpp:141] Setting up inception_5b/1x1
I0714 21:23:43.222163 26465 net.cpp:148] Top shape: 10 384 7 7 (188160)
I0714 21:23:43.222172 26465 net.cpp:156] Memory required for data: 543531520
I0714 21:23:43.222187 26465 layer_factory.hpp:77] Creating layer inception_5b/relu_1x1
I0714 21:23:43.222201 26465 net.cpp:91] Creating Layer inception_5b/relu_1x1
I0714 21:23:43.222211 26465 net.cpp:425] inception_5b/relu_1x1 <- inception_5b/1x1
I0714 21:23:43.222245 26465 net.cpp:386] inception_5b/relu_1x1 -> inception_5b/1x1 (in-place)
I0714 21:23:43.222678 26465 net.cpp:141] Setting up inception_5b/relu_1x1
I0714 21:23:43.222718 26465 net.cpp:148] Top shape: 10 384 7 7 (188160)
I0714 21:23:43.222726 26465 net.cpp:156] Memory required for data: 544284160
I0714 21:23:43.222733 26465 layer_factory.hpp:77] Creating layer inception_5b/3x3_reduce
I0714 21:23:43.222780 26465 net.cpp:91] Creating Layer inception_5b/3x3_reduce
I0714 21:23:43.222795 26465 net.cpp:425] inception_5b/3x3_reduce <- inception_5a/output_inception_5a/output_0_split_1
I0714 21:23:43.222811 26465 net.cpp:399] inception_5b/3x3_reduce -> inception_5b/3x3_reduce
I0714 21:23:43.229219 26469 net.cpp:141] Setting up inception_5b/3x3_reduce
I0714 21:23:43.229260 26469 net.cpp:148] Top shape: 10 192 7 7 (94080)
I0714 21:23:43.229267 26469 net.cpp:156] Memory required for data: 544660480
I0714 21:23:43.229282 26469 layer_factory.hpp:77] Creating layer inception_5b/relu_3x3_reduce
I0714 21:23:43.229296 26469 net.cpp:91] Creating Layer inception_5b/relu_3x3_reduce
I0714 21:23:43.229306 26469 net.cpp:425] inception_5b/relu_3x3_reduce <- inception_5b/3x3_reduce
I0714 21:23:43.229322 26469 net.cpp:386] inception_5b/relu_3x3_reduce -> inception_5b/3x3_reduce (in-place)
I0714 21:23:43.229745 26469 net.cpp:141] Setting up inception_5b/relu_3x3_reduce
I0714 21:23:43.229759 26469 net.cpp:148] Top shape: 10 192 7 7 (94080)
I0714 21:23:43.229764 26469 net.cpp:156] Memory required for data: 545036800
I0714 21:23:43.229770 26469 layer_factory.hpp:77] Creating layer inception_5b/3x3
I0714 21:23:43.229799 26469 net.cpp:91] Creating Layer inception_5b/3x3
I0714 21:23:43.229806 26469 net.cpp:425] inception_5b/3x3 <- inception_5b/3x3_reduce
I0714 21:23:43.229820 26469 net.cpp:399] inception_5b/3x3 -> inception_5b/3x3
I0714 21:23:43.235133 26465 net.cpp:141] Setting up inception_5b/3x3_reduce
I0714 21:23:43.235157 26465 net.cpp:148] Top shape: 10 192 7 7 (94080)
I0714 21:23:43.235162 26465 net.cpp:156] Memory required for data: 544660480
I0714 21:23:43.235173 26465 layer_factory.hpp:77] Creating layer inception_5b/relu_3x3_reduce
I0714 21:23:43.235186 26465 net.cpp:91] Creating Layer inception_5b/relu_3x3_reduce
I0714 21:23:43.235194 26465 net.cpp:425] inception_5b/relu_3x3_reduce <- inception_5b/3x3_reduce
I0714 21:23:43.235203 26465 net.cpp:386] inception_5b/relu_3x3_reduce -> inception_5b/3x3_reduce (in-place)
I0714 21:23:43.235525 26465 net.cpp:141] Setting up inception_5b/relu_3x3_reduce
I0714 21:23:43.235546 26465 net.cpp:148] Top shape: 10 192 7 7 (94080)
I0714 21:23:43.235554 26465 net.cpp:156] Memory required for data: 545036800
I0714 21:23:43.235560 26465 layer_factory.hpp:77] Creating layer inception_5b/3x3
I0714 21:23:43.235579 26465 net.cpp:91] Creating Layer inception_5b/3x3
I0714 21:23:43.235584 26465 net.cpp:425] inception_5b/3x3 <- inception_5b/3x3_reduce
I0714 21:23:43.235599 26465 net.cpp:399] inception_5b/3x3 -> inception_5b/3x3
I0714 21:23:43.243172 26469 net.cpp:141] Setting up inception_5b/3x3
I0714 21:23:43.243196 26469 net.cpp:148] Top shape: 10 384 7 7 (188160)
I0714 21:23:43.243201 26469 net.cpp:156] Memory required for data: 545789440
I0714 21:23:43.243213 26469 layer_factory.hpp:77] Creating layer inception_5b/relu_3x3
I0714 21:23:43.243227 26469 net.cpp:91] Creating Layer inception_5b/relu_3x3
I0714 21:23:43.243234 26469 net.cpp:425] inception_5b/relu_3x3 <- inception_5b/3x3
I0714 21:23:43.243243 26469 net.cpp:386] inception_5b/relu_3x3 -> inception_5b/3x3 (in-place)
I0714 21:23:43.244115 26469 net.cpp:141] Setting up inception_5b/relu_3x3
I0714 21:23:43.244132 26469 net.cpp:148] Top shape: 10 384 7 7 (188160)
I0714 21:23:43.244138 26469 net.cpp:156] Memory required for data: 546542080
I0714 21:23:43.244143 26469 layer_factory.hpp:77] Creating layer inception_5b/5x5_reduce
I0714 21:23:43.244164 26469 net.cpp:91] Creating Layer inception_5b/5x5_reduce
I0714 21:23:43.244173 26469 net.cpp:425] inception_5b/5x5_reduce <- inception_5a/output_inception_5a/output_0_split_2
I0714 21:23:43.244182 26469 net.cpp:399] inception_5b/5x5_reduce -> inception_5b/5x5_reduce
I0714 21:23:43.249250 26465 net.cpp:141] Setting up inception_5b/3x3
I0714 21:23:43.249270 26465 net.cpp:148] Top shape: 10 384 7 7 (188160)
I0714 21:23:43.249275 26465 net.cpp:156] Memory required for data: 545789440
I0714 21:23:43.249286 26465 layer_factory.hpp:77] Creating layer inception_5b/relu_3x3
I0714 21:23:43.249295 26465 net.cpp:91] Creating Layer inception_5b/relu_3x3
I0714 21:23:43.249302 26465 net.cpp:425] inception_5b/relu_3x3 <- inception_5b/3x3
I0714 21:23:43.249315 26465 net.cpp:386] inception_5b/relu_3x3 -> inception_5b/3x3 (in-place)
I0714 21:23:43.250376 26465 net.cpp:141] Setting up inception_5b/relu_3x3
I0714 21:23:43.250393 26465 net.cpp:148] Top shape: 10 384 7 7 (188160)
I0714 21:23:43.250399 26465 net.cpp:156] Memory required for data: 546542080
I0714 21:23:43.250406 26465 layer_factory.hpp:77] Creating layer inception_5b/5x5_reduce
I0714 21:23:43.250427 26465 net.cpp:91] Creating Layer inception_5b/5x5_reduce
I0714 21:23:43.250437 26465 net.cpp:425] inception_5b/5x5_reduce <- inception_5a/output_inception_5a/output_0_split_2
I0714 21:23:43.250447 26465 net.cpp:399] inception_5b/5x5_reduce -> inception_5b/5x5_reduce
I0714 21:23:43.250576 26469 net.cpp:141] Setting up inception_5b/5x5_reduce
I0714 21:23:43.250593 26469 net.cpp:148] Top shape: 10 48 7 7 (23520)
I0714 21:23:43.250598 26469 net.cpp:156] Memory required for data: 546636160
I0714 21:23:43.250608 26469 layer_factory.hpp:77] Creating layer inception_5b/relu_5x5_reduce
I0714 21:23:43.250622 26469 net.cpp:91] Creating Layer inception_5b/relu_5x5_reduce
I0714 21:23:43.250628 26469 net.cpp:425] inception_5b/relu_5x5_reduce <- inception_5b/5x5_reduce
I0714 21:23:43.250638 26469 net.cpp:386] inception_5b/relu_5x5_reduce -> inception_5b/5x5_reduce (in-place)
I0714 21:23:43.251127 26469 net.cpp:141] Setting up inception_5b/relu_5x5_reduce
I0714 21:23:43.251145 26469 net.cpp:148] Top shape: 10 48 7 7 (23520)
I0714 21:23:43.251150 26469 net.cpp:156] Memory required for data: 546730240
I0714 21:23:43.251157 26469 layer_factory.hpp:77] Creating layer inception_5b/5x5
I0714 21:23:43.251174 26469 net.cpp:91] Creating Layer inception_5b/5x5
I0714 21:23:43.251181 26469 net.cpp:425] inception_5b/5x5 <- inception_5b/5x5_reduce
I0714 21:23:43.251193 26469 net.cpp:399] inception_5b/5x5 -> inception_5b/5x5
I0714 21:23:43.256337 26465 net.cpp:141] Setting up inception_5b/5x5_reduce
I0714 21:23:43.256356 26465 net.cpp:148] Top shape: 10 48 7 7 (23520)
I0714 21:23:43.256362 26465 net.cpp:156] Memory required for data: 546636160
I0714 21:23:43.256372 26465 layer_factory.hpp:77] Creating layer inception_5b/relu_5x5_reduce
I0714 21:23:43.256383 26465 net.cpp:91] Creating Layer inception_5b/relu_5x5_reduce
I0714 21:23:43.256391 26465 net.cpp:425] inception_5b/relu_5x5_reduce <- inception_5b/5x5_reduce
I0714 21:23:43.256402 26465 net.cpp:386] inception_5b/relu_5x5_reduce -> inception_5b/5x5_reduce (in-place)
I0714 21:23:43.256747 26465 net.cpp:141] Setting up inception_5b/relu_5x5_reduce
I0714 21:23:43.256762 26465 net.cpp:148] Top shape: 10 48 7 7 (23520)
I0714 21:23:43.256765 26465 net.cpp:156] Memory required for data: 546730240
I0714 21:23:43.256772 26465 layer_factory.hpp:77] Creating layer inception_5b/5x5
I0714 21:23:43.256788 26465 net.cpp:91] Creating Layer inception_5b/5x5
I0714 21:23:43.256794 26465 net.cpp:425] inception_5b/5x5 <- inception_5b/5x5_reduce
I0714 21:23:43.256808 26465 net.cpp:399] inception_5b/5x5 -> inception_5b/5x5
I0714 21:23:43.258225 26469 net.cpp:141] Setting up inception_5b/5x5
I0714 21:23:43.258249 26469 net.cpp:148] Top shape: 10 128 7 7 (62720)
I0714 21:23:43.258255 26469 net.cpp:156] Memory required for data: 546981120
I0714 21:23:43.258265 26469 layer_factory.hpp:77] Creating layer inception_5b/relu_5x5
I0714 21:23:43.258277 26469 net.cpp:91] Creating Layer inception_5b/relu_5x5
I0714 21:23:43.258285 26469 net.cpp:425] inception_5b/relu_5x5 <- inception_5b/5x5
I0714 21:23:43.258292 26469 net.cpp:386] inception_5b/relu_5x5 -> inception_5b/5x5 (in-place)
I0714 21:23:43.258610 26469 net.cpp:141] Setting up inception_5b/relu_5x5
I0714 21:23:43.258621 26469 net.cpp:148] Top shape: 10 128 7 7 (62720)
I0714 21:23:43.258626 26469 net.cpp:156] Memory required for data: 547232000
I0714 21:23:43.258632 26469 layer_factory.hpp:77] Creating layer inception_5b/pool
I0714 21:23:43.258643 26469 net.cpp:91] Creating Layer inception_5b/pool
I0714 21:23:43.258649 26469 net.cpp:425] inception_5b/pool <- inception_5a/output_inception_5a/output_0_split_3
I0714 21:23:43.258661 26469 net.cpp:399] inception_5b/pool -> inception_5b/pool
I0714 21:23:43.258852 26469 net.cpp:141] Setting up inception_5b/pool
I0714 21:23:43.258864 26469 net.cpp:148] Top shape: 10 832 7 7 (407680)
I0714 21:23:43.258869 26469 net.cpp:156] Memory required for data: 548862720
I0714 21:23:43.258875 26469 layer_factory.hpp:77] Creating layer inception_5b/pool_proj
I0714 21:23:43.258891 26469 net.cpp:91] Creating Layer inception_5b/pool_proj
I0714 21:23:43.258898 26469 net.cpp:425] inception_5b/pool_proj <- inception_5b/pool
I0714 21:23:43.258910 26469 net.cpp:399] inception_5b/pool_proj -> inception_5b/pool_proj
I0714 21:23:43.265293 26465 net.cpp:141] Setting up inception_5b/5x5
I0714 21:23:43.265313 26465 net.cpp:148] Top shape: 10 128 7 7 (62720)
I0714 21:23:43.265318 26465 net.cpp:156] Memory required for data: 546981120
I0714 21:23:43.265329 26465 layer_factory.hpp:77] Creating layer inception_5b/relu_5x5
I0714 21:23:43.265338 26465 net.cpp:91] Creating Layer inception_5b/relu_5x5
I0714 21:23:43.265352 26465 net.cpp:425] inception_5b/relu_5x5 <- inception_5b/5x5
I0714 21:23:43.265359 26465 net.cpp:386] inception_5b/relu_5x5 -> inception_5b/5x5 (in-place)
I0714 21:23:43.265846 26465 net.cpp:141] Setting up inception_5b/relu_5x5
I0714 21:23:43.265862 26465 net.cpp:148] Top shape: 10 128 7 7 (62720)
I0714 21:23:43.265867 26465 net.cpp:156] Memory required for data: 547232000
I0714 21:23:43.265872 26465 layer_factory.hpp:77] Creating layer inception_5b/pool
I0714 21:23:43.265885 26465 net.cpp:91] Creating Layer inception_5b/pool
I0714 21:23:43.265892 26465 net.cpp:425] inception_5b/pool <- inception_5a/output_inception_5a/output_0_split_3
I0714 21:23:43.265902 26465 net.cpp:399] inception_5b/pool -> inception_5b/pool
I0714 21:23:43.266114 26469 net.cpp:141] Setting up inception_5b/pool_proj
I0714 21:23:43.266130 26469 net.cpp:148] Top shape: 10 128 7 7 (62720)
I0714 21:23:43.266136 26469 net.cpp:156] Memory required for data: 549113600
I0714 21:23:43.266147 26469 layer_factory.hpp:77] Creating layer inception_5b/relu_pool_proj
I0714 21:23:43.266152 26465 net.cpp:141] Setting up inception_5b/pool
I0714 21:23:43.266156 26469 net.cpp:91] Creating Layer inception_5b/relu_pool_proj
I0714 21:23:43.266170 26465 net.cpp:148] Top shape: 10 832 7 7 (407680)
I0714 21:23:43.266171 26469 net.cpp:425] inception_5b/relu_pool_proj <- inception_5b/pool_proj
I0714 21:23:43.266175 26465 net.cpp:156] Memory required for data: 548862720
I0714 21:23:43.266180 26465 layer_factory.hpp:77] Creating layer inception_5b/pool_proj
I0714 21:23:43.266185 26469 net.cpp:386] inception_5b/relu_pool_proj -> inception_5b/pool_proj (in-place)
I0714 21:23:43.266201 26465 net.cpp:91] Creating Layer inception_5b/pool_proj
I0714 21:23:43.266207 26465 net.cpp:425] inception_5b/pool_proj <- inception_5b/pool
I0714 21:23:43.266217 26465 net.cpp:399] inception_5b/pool_proj -> inception_5b/pool_proj
I0714 21:23:43.267292 26469 net.cpp:141] Setting up inception_5b/relu_pool_proj
I0714 21:23:43.267310 26469 net.cpp:148] Top shape: 10 128 7 7 (62720)
I0714 21:23:43.267315 26469 net.cpp:156] Memory required for data: 549364480
I0714 21:23:43.267321 26469 layer_factory.hpp:77] Creating layer inception_5b/output
I0714 21:23:43.267331 26469 net.cpp:91] Creating Layer inception_5b/output
I0714 21:23:43.267338 26469 net.cpp:425] inception_5b/output <- inception_5b/1x1
I0714 21:23:43.267345 26469 net.cpp:425] inception_5b/output <- inception_5b/3x3
I0714 21:23:43.267351 26469 net.cpp:425] inception_5b/output <- inception_5b/5x5
I0714 21:23:43.267357 26469 net.cpp:425] inception_5b/output <- inception_5b/pool_proj
I0714 21:23:43.267369 26469 net.cpp:399] inception_5b/output -> inception_5b/output
I0714 21:23:43.267547 26469 net.cpp:141] Setting up inception_5b/output
I0714 21:23:43.267560 26469 net.cpp:148] Top shape: 10 1024 7 7 (501760)
I0714 21:23:43.267565 26469 net.cpp:156] Memory required for data: 551371520
I0714 21:23:43.267570 26469 layer_factory.hpp:77] Creating layer pool5/7x7_s1
I0714 21:23:43.267583 26469 net.cpp:91] Creating Layer pool5/7x7_s1
I0714 21:23:43.267590 26469 net.cpp:425] pool5/7x7_s1 <- inception_5b/output
I0714 21:23:43.267599 26469 net.cpp:399] pool5/7x7_s1 -> pool5/7x7_s1
I0714 21:23:43.269032 26469 net.cpp:141] Setting up pool5/7x7_s1
I0714 21:23:43.269098 26469 net.cpp:148] Top shape: 10 1024 1 1 (10240)
I0714 21:23:43.269111 26469 net.cpp:156] Memory required for data: 551412480
I0714 21:23:43.269124 26469 layer_factory.hpp:77] Creating layer pool5/drop_7x7_s1
I0714 21:23:43.269162 26469 net.cpp:91] Creating Layer pool5/drop_7x7_s1
I0714 21:23:43.269176 26469 net.cpp:425] pool5/drop_7x7_s1 <- pool5/7x7_s1
I0714 21:23:43.269193 26469 net.cpp:386] pool5/drop_7x7_s1 -> pool5/7x7_s1 (in-place)
I0714 21:23:43.269753 26469 net.cpp:141] Setting up pool5/drop_7x7_s1
I0714 21:23:43.269774 26469 net.cpp:148] Top shape: 10 1024 1 1 (10240)
I0714 21:23:43.269783 26469 net.cpp:156] Memory required for data: 551453440
I0714 21:23:43.269791 26469 layer_factory.hpp:77] Creating layer loss3/classifier
I0714 21:23:43.269822 26469 net.cpp:91] Creating Layer loss3/classifier
I0714 21:23:43.269834 26469 net.cpp:425] loss3/classifier <- pool5/7x7_s1
I0714 21:23:43.269858 26469 net.cpp:399] loss3/classifier -> loss3/classifier
I0714 21:23:43.278246 26465 net.cpp:141] Setting up inception_5b/pool_proj
I0714 21:23:43.278272 26465 net.cpp:148] Top shape: 10 128 7 7 (62720)
I0714 21:23:43.278280 26465 net.cpp:156] Memory required for data: 549113600
I0714 21:23:43.278290 26465 layer_factory.hpp:77] Creating layer inception_5b/relu_pool_proj
I0714 21:23:43.278306 26465 net.cpp:91] Creating Layer inception_5b/relu_pool_proj
I0714 21:23:43.278314 26465 net.cpp:425] inception_5b/relu_pool_proj <- inception_5b/pool_proj
I0714 21:23:43.278322 26465 net.cpp:386] inception_5b/relu_pool_proj -> inception_5b/pool_proj (in-place)
I0714 21:23:43.279322 26465 net.cpp:141] Setting up inception_5b/relu_pool_proj
I0714 21:23:43.279345 26465 net.cpp:148] Top shape: 10 128 7 7 (62720)
I0714 21:23:43.279350 26465 net.cpp:156] Memory required for data: 549364480
I0714 21:23:43.279356 26465 layer_factory.hpp:77] Creating layer inception_5b/output
I0714 21:23:43.279366 26465 net.cpp:91] Creating Layer inception_5b/output
I0714 21:23:43.279371 26465 net.cpp:425] inception_5b/output <- inception_5b/1x1
I0714 21:23:43.279379 26465 net.cpp:425] inception_5b/output <- inception_5b/3x3
I0714 21:23:43.279386 26465 net.cpp:425] inception_5b/output <- inception_5b/5x5
I0714 21:23:43.279391 26465 net.cpp:425] inception_5b/output <- inception_5b/pool_proj
I0714 21:23:43.279397 26465 net.cpp:399] inception_5b/output -> inception_5b/output
I0714 21:23:43.279508 26465 net.cpp:141] Setting up inception_5b/output
I0714 21:23:43.279520 26465 net.cpp:148] Top shape: 10 1024 7 7 (501760)
I0714 21:23:43.279525 26465 net.cpp:156] Memory required for data: 551371520
I0714 21:23:43.279531 26465 layer_factory.hpp:77] Creating layer pool5/7x7_s1
I0714 21:23:43.279541 26465 net.cpp:91] Creating Layer pool5/7x7_s1
I0714 21:23:43.279546 26465 net.cpp:425] pool5/7x7_s1 <- inception_5b/output
I0714 21:23:43.279558 26465 net.cpp:399] pool5/7x7_s1 -> pool5/7x7_s1
I0714 21:23:43.279937 26465 net.cpp:141] Setting up pool5/7x7_s1
I0714 21:23:43.279950 26465 net.cpp:148] Top shape: 10 1024 1 1 (10240)
I0714 21:23:43.279954 26465 net.cpp:156] Memory required for data: 551412480
I0714 21:23:43.279960 26465 layer_factory.hpp:77] Creating layer pool5/drop_7x7_s1
I0714 21:23:43.279970 26465 net.cpp:91] Creating Layer pool5/drop_7x7_s1
I0714 21:23:43.279976 26465 net.cpp:425] pool5/drop_7x7_s1 <- pool5/7x7_s1
I0714 21:23:43.279985 26465 net.cpp:386] pool5/drop_7x7_s1 -> pool5/7x7_s1 (in-place)
I0714 21:23:43.280071 26465 net.cpp:141] Setting up pool5/drop_7x7_s1
I0714 21:23:43.280082 26465 net.cpp:148] Top shape: 10 1024 1 1 (10240)
I0714 21:23:43.280087 26465 net.cpp:156] Memory required for data: 551453440
I0714 21:23:43.280092 26465 layer_factory.hpp:77] Creating layer loss3/classifier
I0714 21:23:43.280107 26465 net.cpp:91] Creating Layer loss3/classifier
I0714 21:23:43.280113 26465 net.cpp:425] loss3/classifier <- pool5/7x7_s1
I0714 21:23:43.280122 26465 net.cpp:399] loss3/classifier -> loss3/classifier
I0714 21:23:43.289232 26469 net.cpp:141] Setting up loss3/classifier
I0714 21:23:43.289278 26469 net.cpp:148] Top shape: 10 1000 (10000)
I0714 21:23:43.289288 26469 net.cpp:156] Memory required for data: 551493440
I0714 21:23:43.289309 26469 layer_factory.hpp:77] Creating layer prob
I0714 21:23:43.289330 26469 net.cpp:91] Creating Layer prob
I0714 21:23:43.289341 26469 net.cpp:425] prob <- loss3/classifier
I0714 21:23:43.289361 26469 net.cpp:399] prob -> prob
I0714 21:23:43.291561 26469 net.cpp:141] Setting up prob
I0714 21:23:43.291589 26469 net.cpp:148] Top shape: 10 1000 (10000)
I0714 21:23:43.291597 26469 net.cpp:156] Memory required for data: 551533440
I0714 21:23:43.291606 26469 net.cpp:219] prob does not need backward computation.
I0714 21:23:43.291616 26469 net.cpp:219] loss3/classifier does not need backward computation.
I0714 21:23:43.291625 26469 net.cpp:219] pool5/drop_7x7_s1 does not need backward computation.
I0714 21:23:43.291633 26469 net.cpp:219] pool5/7x7_s1 does not need backward computation.
…
