…
2016-07-20 14:00:23.549 STDERR [INFO] I0720 14:00:23.343474  6666 net.cpp:91] Creating Layer data
2016-07-20 14:00:23.549 STDERR [INFO] I0720 14:00:23.343477  6660 layer_factory.hpp:77] Creating layer conv1
2016-07-20 14:00:23.549 STDERR [INFO] I0720 14:00:23.343484  6668 net.cpp:141] Setting up data
2016-07-20 14:00:23.549 STDERR [INFO] I0720 14:00:23.343511  6644 net.cpp:141] Setting up data
2016-07-20 14:00:23.550 STDERR [INFO] I0720 14:00:23.343514  6664 net.cpp:141] Setting up data
2016-07-20 14:00:23.550 STDERR [INFO] I0720 14:00:23.343466  6654 net.cpp:91] Creating Layer conv1
2016-07-20 14:00:23.550 STDERR [INFO] I0720 14:00:23.343528  6644 net.cpp:148] Top shape: 10 3 227 227 (1545870)
2016-07-20 14:00:23.550 STDERR [INFO] I0720 14:00:23.343457  6678 layer_factory.hpp:77] Creating layer data
2016-07-20 14:00:23.550 STDERR [INFO] I0720 14:00:23.343549  6644 net.cpp:156] Memory required for data: 6183480
2016-07-20 14:00:23.550 STDERR [INFO] I0720 14:00:23.343463  6680 net.cpp:399] data -> data
2016-07-20 14:00:23.550 STDERR [INFO] I0720 14:00:23.343554  6654 net.cpp:425] conv1 <- data
2016-07-20 14:00:23.550 STDERR [INFO] I0720 14:00:23.343525  6660 net.cpp:91] Creating Layer conv1
2016-07-20 14:00:23.550 STDERR [INFO] I0720 14:00:23.343528  6668 net.cpp:148] Top shape: 10 3 227 227 (1545870)
2016-07-20 14:00:23.550 STDERR [INFO] I0720 14:00:23.343569  6678 net.cpp:91] Creating Layer data
2016-07-20 14:00:23.550 STDERR [INFO] I0720 14:00:23.343574  6660 net.cpp:425] conv1 <- data
2016-07-20 14:00:23.550 STDERR [INFO] I0720 14:00:23.343575  6680 net.cpp:141] Setting up data
2016-07-20 14:00:23.550 STDERR [INFO] I0720 14:00:23.343559  6644 layer_factory.hpp:77] Creating layer conv1
2016-07-20 14:00:23.550 STDERR [INFO] I0720 14:00:23.343586  6678 net.cpp:399] data -> data
2016-07-20 14:00:23.550 STDERR [INFO] I0720 14:00:23.343514  6666 net.cpp:399] data -> data
2016-07-20 14:00:23.551 STDERR [INFO] I0720 14:00:23.343595  6680 net.cpp:148] Top shape: 10 3 227 227 (1545870)
2016-07-20 14:00:23.551 STDERR [INFO] I0720 14:00:23.343578  6654 net.cpp:399] conv1 -> conv1
2016-07-20 14:00:23.551 STDERR [INFO] I0720 14:00:23.343484  6672 layer_factory.hpp:77] Creating layer conv1
2016-07-20 14:00:23.551 STDERR [INFO] I0720 14:00:23.343580  6668 net.cpp:156] Memory required for data: 6183480
2016-07-20 14:00:23.551 STDERR [INFO] I0720 14:00:23.343587  6660 net.cpp:399] conv1 -> conv1
2016-07-20 14:00:23.551 STDERR [INFO] I0720 14:00:23.343535  6664 net.cpp:148] Top shape: 10 3 227 227 (1545870)
2016-07-20 14:00:23.551 STDERR [INFO] I0720 14:00:23.343606  6680 net.cpp:156] Memory required for data: 6183480
2016-07-20 14:00:23.551 STDERR [INFO] I0720 14:00:23.343621  6668 layer_factory.hpp:77] Creating layer conv1
2016-07-20 14:00:23.552 STDERR [INFO] I0720 14:00:23.343610  6678 net.cpp:141] Setting up data
2016-07-20 14:00:23.552 STDERR [INFO] I0720 14:00:23.343629  6664 net.cpp:156] Memory required for data: 6183480
2016-07-20 14:00:23.552 STDERR [INFO] I0720 14:00:23.343622  6672 net.cpp:91] Creating Layer conv1
2016-07-20 14:00:23.552 STDERR [INFO] I0720 14:00:23.343605  6644 net.cpp:91] Creating Layer conv1
2016-07-20 14:00:23.552 STDERR [INFO] I0720 14:00:23.343643  6664 layer_factory.hpp:77] Creating layer conv1
2016-07-20 14:00:23.552 STDERR [INFO] I0720 14:00:23.343613  6666 net.cpp:141] Setting up data
2016-07-20 14:00:23.552 STDERR [INFO] I0720 14:00:23.343647  6678 net.cpp:148] Top shape: 10 3 227 227 (1545870)
2016-07-20 14:00:23.552 STDERR [INFO] I0720 14:00:23.343652  6644 net.cpp:425] conv1 <- data
2016-07-20 14:00:23.552 STDERR [INFO] I0720 14:00:23.343627  6674 layer_factory.hpp:77] Creating layer data
2016-07-20 14:00:23.552 STDERR [INFO] I0720 14:00:23.343662  6678 net.cpp:156] Memory required for data: 6183480
2016-07-20 14:00:23.552 STDERR [INFO] I0720 14:00:23.343662  6666 net.cpp:148] Top shape: 10 3 227 227 (1545870)
2016-07-20 14:00:23.552 STDERR [INFO] I0720 14:00:23.343632  6680 layer_factory.hpp:77] Creating layer conv1
2016-07-20 14:00:23.552 STDERR [INFO] I0720 14:00:23.343647  6672 net.cpp:425] conv1 <- data
2016-07-20 14:00:23.552 STDERR [INFO] I0720 14:00:23.343675  6678 layer_factory.hpp:77] Creating layer conv1
2016-07-20 14:00:23.552 STDERR [INFO] I0720 14:00:23.343677  6666 net.cpp:156] Memory required for data: 6183480
…
2016-07-20 14:00:23.904 STDERR [INFO] I0720 14:00:23.890913  6646 net.cpp:91] Creating Layer input
2016-07-20 14:00:23.904 STDERR [INFO] I0720 14:00:23.890920  6646 net.cpp:399] input -> frames_fc7
2016-07-20 14:00:23.904 STDERR [INFO] I0720 14:00:23.890938  6646 net.cpp:399] input -> cont_sentence
2016-07-20 14:00:23.904 STDERR [INFO] I0720 14:00:23.890949  6646 net.cpp:399] input -> input_sentence
2016-07-20 14:00:23.904 STDERR [INFO] I0720 14:00:23.890957  6646 net.cpp:399] input -> stage_indicator
2016-07-20 14:00:23.905 STDERR [INFO] I0720 14:00:23.899387  6646 net.cpp:141] Setting up input
2016-07-20 14:00:23.905 STDERR [INFO] I0720 14:00:23.899433  6646 net.cpp:148] Top shape: 1 4096 (4096)
2016-07-20 14:00:23.905 STDERR [INFO] I0720 14:00:23.899441  6646 net.cpp:148] Top shape: 1 1 (1)
2016-07-20 14:00:23.905 STDERR [INFO] I0720 14:00:23.899446  6646 net.cpp:148] Top shape: 1 1 (1)
2016-07-20 14:00:23.905 STDERR [INFO] I0720 14:00:23.899451  6646 net.cpp:148] Top shape: 1 1 (1)
2016-07-20 14:00:23.905 STDERR [INFO] I0720 14:00:23.899454  6646 net.cpp:156] Memory required for data: 16396
2016-07-20 14:00:23.905 STDERR [INFO] I0720 14:00:23.899464  6646 layer_factory.hpp:77] Creating layer cont_sentence_input_1_split
2016-07-20 14:00:23.905 STDERR [INFO] I0720 14:00:23.899539  6646 net.cpp:91] Creating Layer cont_sentence_input_1_split
2016-07-20 14:00:23.905 STDERR [INFO] I0720 14:00:23.899550  6646 net.cpp:425] cont_sentence_input_1_split <- cont_sentence
2016-07-20 14:00:23.905 STDERR [INFO] I0720 14:00:23.899585  6646 net.cpp:399] cont_sentence_input_1_split -> cont_sentence_input_1_split_0
2016-07-20 14:00:23.905 STDERR [INFO] I0720 14:00:23.899600  6646 net.cpp:399] cont_sentence_input_1_split -> cont_sentence_input_1_split_1
2016-07-20 14:00:23.905 STDERR [INFO] I0720 14:00:23.899670  6646 net.cpp:141] Setting up cont_sentence_input_1_split
2016-07-20 14:00:23.905 STDERR [INFO] I0720 14:00:23.899682  6646 net.cpp:148] Top shape: 1 1 (1)
2016-07-20 14:00:23.905 STDERR [INFO] I0720 14:00:23.899687  6646 net.cpp:148] Top shape: 1 1 (1)
2016-07-20 14:00:23.905 STDERR [INFO] I0720 14:00:23.899690  6646 net.cpp:156] Memory required for data: 16404
2016-07-20 14:00:23.905 STDERR [INFO] I0720 14:00:23.899695  6646 layer_factory.hpp:77] Creating layer embed_encoder
2016-07-20 14:00:23.905 STDERR [INFO] I0720 14:00:23.899718  6646 net.cpp:91] Creating Layer embed_encoder
2016-07-20 14:00:23.905 STDERR [INFO] I0720 14:00:23.899724  6646 net.cpp:425] embed_encoder <- frames_fc7
2016-07-20 14:00:23.905 STDERR [INFO] I0720 14:00:23.899732  6646 net.cpp:399] embed_encoder -> embedded_in_frames
2016-07-20 14:00:23.951 STDERR [INFO] I0720 14:00:23.951022  6646 net.cpp:141] Setting up embed_encoder
2016-07-20 14:00:23.951 STDERR [INFO] I0720 14:00:23.951076  6646 net.cpp:148] Top shape: 1 500 (500)
2016-07-20 14:00:23.951 STDERR [INFO] I0720 14:00:23.951082  6646 net.cpp:156] Memory required for data: 18404
2016-07-20 14:00:23.951 STDERR [INFO] I0720 14:00:23.951115  6646 layer_factory.hpp:77] Creating layer reshape_frames
2016-07-20 14:00:23.951 STDERR [INFO] I0720 14:00:23.951150  6646 net.cpp:91] Creating Layer reshape_frames
2016-07-20 14:00:23.951 STDERR [INFO] I0720 14:00:23.951159  6646 net.cpp:425] reshape_frames <- embedded_in_frames
2016-07-20 14:00:23.951 STDERR [INFO] I0720 14:00:23.951169  6646 net.cpp:399] reshape_frames -> embedded_input_frames
2016-07-20 14:00:23.952 STDERR [INFO] I0720 14:00:23.952201  6646 net.cpp:141] Setting up reshape_frames
2016-07-20 14:00:23.952 STDERR [INFO] I0720 14:00:23.952250  6646 net.cpp:148] Top shape: 1 1 500 (500)
2016-07-20 14:00:23.952 STDERR [INFO] I0720 14:00:23.952255  6646 net.cpp:156] Memory required for data: 20404
2016-07-20 14:00:23.952 STDERR [INFO] I0720 14:00:23.952265  6646 layer_factory.hpp:77] Creating layer reshape_stage_indicator
2016-07-20 14:00:23.952 STDERR [INFO] I0720 14:00:23.952288  6646 net.cpp:91] Creating Layer reshape_stage_indicator
2016-07-20 14:00:23.952 STDERR [INFO] I0720 14:00:23.952296  6646 net.cpp:425] reshape_stage_indicator <- stage_indicator
2016-07-20 14:00:23.952 STDERR [INFO] I0720 14:00:23.952327  6646 net.cpp:399] reshape_stage_indicator -> reshaped_stage_indicator
2016-07-20 14:00:23.952 STDERR [INFO] I0720 14:00:23.952435  6646 net.cpp:141] Setting up reshape_stage_indicator
2016-07-20 14:00:23.952 STDERR [INFO] I0720 14:00:23.952445  6646 net.cpp:148] Top shape: 1 1 1 (1)
2016-07-20 14:00:23.952 STDERR [INFO] I0720 14:00:23.952450  6646 net.cpp:156] Memory required for data: 20408
2016-07-20 14:00:23.952 STDERR [INFO] I0720 14:00:23.952453  6646 layer_factory.hpp:77] Creating layer embedding
2016-07-20 14:00:23.953 STDERR [INFO] I0720 14:00:23.952467  6646 net.cpp:91] Creating Layer embedding
2016-07-20 14:00:23.953 STDERR [INFO] I0720 14:00:23.952471  6646 net.cpp:425] embedding <- input_sentence
…
2016-07-20 14:00:24.214 STDERR [INFO] }
2016-07-20 14:00:24.215 STDERR [INFO] I0720 14:00:24.204854  6646 layer_factory.hpp:77] Creating layer lstm1_
2016-07-20 14:00:24.215 STDERR [INFO] I0720 14:00:24.204866  6646 net.cpp:91] Creating Layer lstm1_
2016-07-20 14:00:24.215 STDERR [INFO] I0720 14:00:24.204872  6646 net.cpp:399] lstm1_ -> x
2016-07-20 14:00:24.215 STDERR [INFO] I0720 14:00:24.204885  6646 net.cpp:399] lstm1_ -> cont
2016-07-20 14:00:24.215 STDERR [INFO] I0720 14:00:24.211503  6646 net.cpp:141] Setting up lstm1_
2016-07-20 14:00:24.215 STDERR [INFO] I0720 14:00:24.211539  6646 net.cpp:148] Top shape: 1 1 500 (500)
2016-07-20 14:00:24.215 STDERR [INFO] I0720 14:00:24.211549  6646 net.cpp:148] Top shape: 1 1 (1)
2016-07-20 14:00:24.215 STDERR [INFO] I0720 14:00:24.211557  6646 net.cpp:156] Memory required for data: 2004
2016-07-20 14:00:24.215 STDERR [INFO] I0720 14:00:24.211568  6646 layer_factory.hpp:77] Creating layer lstm1_
2016-07-20 14:00:24.215 STDERR [INFO] I0720 14:00:24.211591  6646 net.cpp:91] Creating Layer lstm1_
2016-07-20 14:00:24.216 STDERR [INFO] I0720 14:00:24.211606  6646 net.cpp:399] lstm1_ -> c_0
2016-07-20 14:00:24.216 STDERR [INFO] I0720 14:00:24.211627  6646 net.cpp:399] lstm1_ -> h_0
2016-07-20 14:00:24.217 n.t.s.b.CVParticleBolt [INFO] [Timing] RequestID: 0 StreamID: home/peifeng/work/data/frame.320x240.jpg SequenceNr: 92 Leaving scale: 1469037624217 Size: 3530
2016-07-20 14:00:24.221 STDERR [INFO] I0720 14:00:24.221223  6646 net.cpp:141] Setting up lstm1_
2016-07-20 14:00:24.221 STDERR [INFO] I0720 14:00:24.221261  6646 net.cpp:148] Top shape: 1 1 1000 (1000)
2016-07-20 14:00:24.221 STDERR [INFO] I0720 14:00:24.221268  6646 net.cpp:148] Top shape: 1 1 1000 (1000)
2016-07-20 14:00:24.221 STDERR [INFO] I0720 14:00:24.221272  6646 net.cpp:156] Memory required for data: 10004
2016-07-20 14:00:24.221 STDERR [INFO] I0720 14:00:24.221278  6646 layer_factory.hpp:77] Creating layer lstm1_cont_slice
2016-07-20 14:00:24.221 STDERR [INFO] I0720 14:00:24.221294  6646 net.cpp:91] Creating Layer lstm1_cont_slice
2016-07-20 14:00:24.221 STDERR [INFO] I0720 14:00:24.221300  6646 net.cpp:425] lstm1_cont_slice <- cont
2016-07-20 14:00:24.221 STDERR [INFO] I0720 14:00:24.221313  6646 net.cpp:399] lstm1_cont_slice -> cont_1
2016-07-20 14:00:24.225 STDERR [INFO] I0720 14:00:24.225164  6646 net.cpp:141] Setting up lstm1_cont_slice
2016-07-20 14:00:24.225 STDERR [INFO] I0720 14:00:24.225186  6646 net.cpp:148] Top shape: 1 1 (1)
2016-07-20 14:00:24.225 STDERR [INFO] I0720 14:00:24.225191  6646 net.cpp:156] Memory required for data: 10008
2016-07-20 14:00:24.225 STDERR [INFO] I0720 14:00:24.225196  6646 layer_factory.hpp:77] Creating layer cont_1_lstm1_cont_slice_0_split
2016-07-20 14:00:24.225 STDERR [INFO] I0720 14:00:24.225211  6646 net.cpp:91] Creating Layer cont_1_lstm1_cont_slice_0_split
2016-07-20 14:00:24.225 STDERR [INFO] I0720 14:00:24.225216  6646 net.cpp:425] cont_1_lstm1_cont_slice_0_split <- cont_1
2016-07-20 14:00:24.225 STDERR [INFO] I0720 14:00:24.225224  6646 net.cpp:399] cont_1_lstm1_cont_slice_0_split -> cont_1_lstm1_cont_slice_0_split_0
2016-07-20 14:00:24.225 STDERR [INFO] I0720 14:00:24.225232  6646 net.cpp:399] cont_1_lstm1_cont_slice_0_split -> cont_1_lstm1_cont_slice_0_split_1
2016-07-20 14:00:24.240 STDERR [INFO] I0720 14:00:24.240814  6646 net.cpp:141] Setting up cont_1_lstm1_cont_slice_0_split
2016-07-20 14:00:24.241 STDERR [INFO] I0720 14:00:24.240844  6646 net.cpp:148] Top shape: 1 1 (1)
2016-07-20 14:00:24.241 STDERR [INFO] I0720 14:00:24.240855  6646 net.cpp:148] Top shape: 1 1 (1)
2016-07-20 14:00:24.241 STDERR [INFO] I0720 14:00:24.240864  6646 net.cpp:156] Memory required for data: 10016
2016-07-20 14:00:24.241 STDERR [INFO] I0720 14:00:24.240872  6646 layer_factory.hpp:77] Creating layer lstm1_x_transform
2016-07-20 14:00:24.241 STDERR [INFO] I0720 14:00:24.240895  6646 net.cpp:91] Creating Layer lstm1_x_transform
2016-07-20 14:00:24.241 STDERR [INFO] I0720 14:00:24.240900  6646 net.cpp:425] lstm1_x_transform <- x
2016-07-20 14:00:24.241 STDERR [INFO] I0720 14:00:24.240911  6646 net.cpp:399] lstm1_x_transform -> W_xc_x
2016-07-20 14:00:24.292 STDERR [INFO] I0720 14:00:24.292287  6646 net.cpp:141] Setting up lstm1_x_transform
2016-07-20 14:00:24.292 STDERR [INFO] I0720 14:00:24.292336  6646 net.cpp:148] Top shape: 1 1 4000 (4000)
2016-07-20 14:00:24.292 STDERR [INFO] I0720 14:00:24.292343  6646 net.cpp:156] Memory required for data: 26016
2016-07-20 14:00:24.292 STDERR [INFO] I0720 14:00:24.292366  6646 layer_factory.hpp:77] Creating layer lstm1_W_xc_x_slice
2016-07-20 14:00:24.292 STDERR [INFO] I0720 14:00:24.292385  6646 net.cpp:91] Creating Layer lstm1_W_xc_x_slice
2016-07-20 14:00:24.293 STDERR [INFO] I0720 14:00:24.292392  6646 net.cpp:425] lstm1_W_xc_x_slice <- W_xc_x
2016-07-20 14:00:24.293 STDERR [INFO] I0720 14:00:24.292403  6646 net.cpp:399] lstm1_W_xc_x_slice -> W_xc_x_1
2016-07-20 14:00:24.293 STDERR [INFO] I0720 14:00:24.293089  6646 net.cpp:141] Setting up lstm1_W_xc_x_slice
2016-07-20 14:00:24.293 STDERR [INFO] I0720 14:00:24.293107  6646 net.cpp:148] Top shape: 1 1 4000 (4000)
2016-07-20 14:00:24.293 STDERR [INFO] I0720 14:00:24.293112  6646 net.cpp:156] Memory required for data: 42016
2016-07-20 14:00:24.293 STDERR [INFO] I0720 14:00:24.293118  6646 layer_factory.hpp:77] Creating layer lstm1_h_conted_0
2016-07-20 14:00:24.293 STDERR [INFO] I0720 14:00:24.293139  6646 net.cpp:91] Creating Layer lstm1_h_conted_0
2016-07-20 14:00:24.293 STDERR [INFO] I0720 14:00:24.293144  6646 net.cpp:425] lstm1_h_conted_0 <- h_0
2016-07-20 14:00:24.293 STDERR [INFO] I0720 14:00:24.293151  6646 net.cpp:425] lstm1_h_conted_0 <- cont_1_lstm1_cont_slice_0_split_0
2016-07-20 14:00:24.293 STDERR [INFO] I0720 14:00:24.293161  6646 net.cpp:399] lstm1_h_conted_0 -> h_conted_0
2016-07-20 14:00:24.304 STDERR [INFO] I0720 14:00:24.303975  6646 net.cpp:141] Setting up lstm1_h_conted_0
2016-07-20 14:00:24.304 STDERR [INFO] I0720 14:00:24.304003  6646 net.cpp:148] Top shape: 1 1 1000 (1000)
2016-07-20 14:00:24.304 STDERR [INFO] I0720 14:00:24.304008  6646 net.cpp:156] Memory required for data: 46016
2016-07-20 14:00:24.304 STDERR [INFO] I0720 14:00:24.304013  6646 layer_factory.hpp:77] Creating layer lstm1_transform_1
2016-07-20 14:00:24.304 STDERR [INFO] I0720 14:00:24.304029  6646 net.cpp:91] Creating Layer lstm1_transform_1
2016-07-20 14:00:24.304 STDERR [INFO] I0720 14:00:24.304034  6646 net.cpp:425] lstm1_transform_1 <- h_conted_0
2016-07-20 14:00:24.304 STDERR [INFO] I0720 14:00:24.304045  6646 net.cpp:399] lstm1_transform_1 -> W_hc_h_0
2016-07-20 14:00:24.304 STDERR [INFO] I0720 14:00:24.304098  6666 net.cpp:141] Setting up conv1
2016-07-20 14:00:24.304 STDERR [INFO] I0720 14:00:24.304139  6666 net.cpp:148] Top shape: 10 96 55 55 (2904000)
2016-07-20 14:00:24.304 STDERR [INFO] I0720 14:00:24.304146  6666 net.cpp:156] Memory required for data: 17799480
2016-07-20 14:00:24.304 STDERR [INFO] I0720 14:00:24.304168  6666 layer_factory.hpp:77] Creating layer relu1
2016-07-20 14:00:24.304 STDERR [INFO] I0720 14:00:24.304183  6666 net.cpp:91] Creating Layer relu1
2016-07-20 14:00:24.304 STDERR [INFO] I0720 14:00:24.304189  6666 net.cpp:425] relu1 <- conv1
2016-07-20 14:00:24.304 STDERR [INFO] I0720 14:00:24.304198  6666 net.cpp:386] relu1 -> conv1 (in-place)
2016-07-20 14:00:24.304 STDERR [INFO] I0720 14:00:24.304832  6664 net.cpp:141] Setting up conv1
2016-07-20 14:00:24.304 STDERR [INFO] I0720 14:00:24.304862  6664 net.cpp:148] Top shape: 10 96 55 55 (2904000)
2016-07-20 14:00:24.304 STDERR [INFO] I0720 14:00:24.304872  6664 net.cpp:156] Memory required for data: 17799480
2016-07-20 14:00:24.305 STDERR [INFO] I0720 14:00:24.304895  6664 layer_factory.hpp:77] Creating layer relu1
2016-07-20 14:00:24.305 STDERR [INFO] I0720 14:00:24.304913  6664 net.cpp:91] Creating Layer relu1
2016-07-20 14:00:24.305 STDERR [INFO] I0720 14:00:24.304921  6664 net.cpp:425] relu1 <- conv1
2016-07-20 14:00:24.305 STDERR [INFO] I0720 14:00:24.304932  6664 net.cpp:386] relu1 -> conv1 (in-place)
2016-07-20 14:00:24.305 STDERR [INFO] I0720 14:00:24.304944  6674 net.cpp:141] Setting up conv1
2016-07-20 14:00:24.305 STDERR [INFO] I0720 14:00:24.304962  6674 net.cpp:148] Top shape: 10 96 55 55 (2904000)
2016-07-20 14:00:24.305 STDERR [INFO] I0720 14:00:24.304970  6674 net.cpp:156] Memory required for data: 17799480
2016-07-20 14:00:24.305 STDERR [INFO] I0720 14:00:24.304996  6674 layer_factory.hpp:77] Creating layer relu1
2016-07-20 14:00:24.305 STDERR [INFO] I0720 14:00:24.305011  6674 net.cpp:91] Creating Layer relu1
2016-07-20 14:00:24.305 STDERR [INFO] I0720 14:00:24.305019  6674 net.cpp:425] relu1 <- conv1
2016-07-20 14:00:24.305 STDERR [INFO] I0720 14:00:24.305029  6674 net.cpp:386] relu1 -> conv1 (in-place)
2016-07-20 14:00:24.316 STDERR [INFO] I0720 14:00:24.316535  6678 net.cpp:141] Setting up conv1
2016-07-20 14:00:24.317 STDERR [INFO] I0720 14:00:24.316583  6660 net.cpp:141] Setting up conv1
2016-07-20 14:00:24.317 STDERR [INFO] I0720 14:00:24.316602  6660 net.cpp:148] Top shape: 10 96 55 55 (2904000)
2016-07-20 14:00:24.317 STDERR [INFO] I0720 14:00:24.316604  6678 net.cpp:148] Top shape: 10 96 55 55 (2904000)
2016-07-20 14:00:24.317 STDERR [INFO] I0720 14:00:24.316607  6660 net.cpp:156] Memory required for data: 17799480
2016-07-20 14:00:24.317 STDERR [INFO] I0720 14:00:24.316627  6678 net.cpp:156] Memory required for data: 17799480
2016-07-20 14:00:24.317 STDERR [INFO] I0720 14:00:24.316654  6660 layer_factory.hpp:77] Creating layer relu1
2016-07-20 14:00:24.317 STDERR [INFO] I0720 14:00:24.316659  6678 layer_factory.hpp:77] Creating layer relu1
2016-07-20 14:00:24.317 STDERR [INFO] I0720 14:00:24.316668  6660 net.cpp:91] Creating Layer relu1
2016-07-20 14:00:24.317 STDERR [INFO] I0720 14:00:24.316673  6660 net.cpp:425] relu1 <- conv1
2016-07-20 14:00:24.317 STDERR [INFO] I0720 14:00:24.316679  6678 net.cpp:91] Creating Layer relu1
2016-07-20 14:00:24.317 STDERR [INFO] I0720 14:00:24.316684  6660 net.cpp:386] relu1 -> conv1 (in-place)
2016-07-20 14:00:24.317 STDERR [INFO] I0720 14:00:24.316690  6678 net.cpp:425] relu1 <- conv1
2016-07-20 14:00:24.317 STDERR [INFO] I0720 14:00:24.316702  6678 net.cpp:386] relu1 -> conv1 (in-place)
2016-07-20 14:00:24.318 STDERR [INFO] I0720 14:00:24.317884  6678 net.cpp:141] Setting up relu1
2016-07-20 14:00:24.318 STDERR [INFO] I0720 14:00:24.317904  6678 net.cpp:148] Top shape: 10 96 55 55 (2904000)
2016-07-20 14:00:24.318 STDERR [INFO] I0720 14:00:24.317910  6678 net.cpp:156] Memory required for data: 29415480
2016-07-20 14:00:24.318 STDERR [INFO] I0720 14:00:24.317915  6678 layer_factory.hpp:77] Creating layer pool1
2016-07-20 14:00:24.318 STDERR [INFO] I0720 14:00:24.317934  6678 net.cpp:91] Creating Layer pool1
2016-07-20 14:00:24.318 STDERR [INFO] I0720 14:00:24.317942  6678 net.cpp:425] pool1 <- conv1
2016-07-20 14:00:24.318 STDERR [INFO] I0720 14:00:24.317955  6678 net.cpp:399] pool1 -> pool1
2016-07-20 14:00:24.318 STDERR [INFO] I0720 14:00:24.317986  6678 net.cpp:141] Setting up pool1
2016-07-20 14:00:24.318 STDERR [INFO] I0720 14:00:24.317994  6678 net.cpp:148] Top shape: 10 96 27 27 (699840)
2016-07-20 14:00:24.318 STDERR [INFO] I0720 14:00:24.317998  6678 net.cpp:156] Memory required for data: 32214840
2016-07-20 14:00:24.318 STDERR [INFO] I0720 14:00:24.318002  6678 layer_factory.hpp:77] Creating layer norm1
2016-07-20 14:00:24.318 STDERR [INFO] I0720 14:00:24.318030  6678 net.cpp:91] Creating Layer norm1
2016-07-20 14:00:24.318 STDERR [INFO] I0720 14:00:24.318037  6678 net.cpp:425] norm1 <- pool1
2016-07-20 14:00:24.319 STDERR [INFO] I0720 14:00:24.318042  6678 net.cpp:399] norm1 -> norm1
2016-07-20 14:00:24.319 STDERR [INFO] I0720 14:00:24.318241  6668 net.cpp:141] Setting up conv1
2016-07-20 14:00:24.319 STDERR [INFO] I0720 14:00:24.318262  6668 net.cpp:148] Top shape: 10 96 55 55 (2904000)
2016-07-20 14:00:24.319 STDERR [INFO] I0720 14:00:24.318272  6668 net.cpp:156] Memory required for data: 17799480
2016-07-20 14:00:24.319 STDERR [INFO] I0720 14:00:24.318295  6668 layer_factory.hpp:77] Creating layer relu1
2016-07-20 14:00:24.319 STDERR [INFO] I0720 14:00:24.318310  6668 net.cpp:91] Creating Layer relu1
2016-07-20 14:00:24.319 STDERR [INFO] I0720 14:00:24.318316  6668 net.cpp:425] relu1 <- conv1
2016-07-20 14:00:24.319 STDERR [INFO] I0720 14:00:24.318323  6668 net.cpp:386] relu1 -> conv1 (in-place)
2016-07-20 14:00:24.319 STDERR [INFO] I0720 14:00:24.318404  6666 net.cpp:141] Setting up relu1
2016-07-20 14:00:24.319 STDERR [INFO] I0720 14:00:24.318414  6666 net.cpp:148] Top shape: 10 96 55 55 (2904000)
2016-07-20 14:00:24.319 STDERR [INFO] I0720 14:00:24.318418  6666 net.cpp:156] Memory required for data: 29415480
2016-07-20 14:00:24.320 STDERR [INFO] I0720 14:00:24.318423  6666 layer_factory.hpp:77] Creating layer pool1
2016-07-20 14:00:24.320 STDERR [INFO] I0720 14:00:24.318434  6666 net.cpp:91] Creating Layer pool1
2016-07-20 14:00:24.320 STDERR [INFO] I0720 14:00:24.318439  6666 net.cpp:425] pool1 <- conv1
2016-07-20 14:00:24.320 STDERR [INFO] I0720 14:00:24.318444  6666 net.cpp:399] pool1 -> pool1
2016-07-20 14:00:24.320 STDERR [INFO] I0720 14:00:24.318459  6666 net.cpp:141] Setting up pool1
2016-07-20 14:00:24.320 STDERR [INFO] I0720 14:00:24.318470  6666 net.cpp:148] Top shape: 10 96 27 27 (699840)
2016-07-20 14:00:24.320 STDERR [INFO] I0720 14:00:24.318473  6666 net.cpp:156] Memory required for data: 32214840
2016-07-20 14:00:24.320 STDERR [INFO] I0720 14:00:24.318477  6666 layer_factory.hpp:77] Creating layer norm1
2016-07-20 14:00:24.320 STDERR [INFO] I0720 14:00:24.318493  6666 net.cpp:91] Creating Layer norm1
2016-07-20 14:00:24.320 STDERR [INFO] I0720 14:00:24.318497  6666 net.cpp:425] norm1 <- pool1
2016-07-20 14:00:24.320 STDERR [INFO] I0720 14:00:24.318506  6666 net.cpp:399] norm1 -> norm1
2016-07-20 14:00:24.320 STDERR [INFO] I0720 14:00:24.319427  6674 net.cpp:141] Setting up relu1
2016-07-20 14:00:24.320 STDERR [INFO] I0720 14:00:24.319447  6674 net.cpp:148] Top shape: 10 96 55 55 (2904000)
2016-07-20 14:00:24.321 STDERR [INFO] I0720 14:00:24.319454  6674 net.cpp:156] Memory required for data: 29415480
2016-07-20 14:00:24.321 STDERR [INFO] I0720 14:00:24.319463  6674 layer_factory.hpp:77] Creating layer pool1
2016-07-20 14:00:24.321 STDERR [INFO] I0720 14:00:24.319469  6644 net.cpp:141] Setting up conv1
2016-07-20 14:00:24.321 STDERR [INFO] I0720 14:00:24.319476  6674 net.cpp:91] Creating Layer pool1
2016-07-20 14:00:24.321 STDERR [INFO] I0720 14:00:24.319484  6674 net.cpp:425] pool1 <- conv1
2016-07-20 14:00:24.321 STDERR [INFO] I0720 14:00:24.319484  6644 net.cpp:148] Top shape: 10 96 55 55 (2904000)
2016-07-20 14:00:24.321 STDERR [INFO] I0720 14:00:24.319494  6644 net.cpp:156] Memory required for data: 17799480
2016-07-20 14:00:24.321 STDERR [INFO] I0720 14:00:24.319495  6674 net.cpp:399] pool1 -> pool1
2016-07-20 14:00:24.321 STDERR [INFO] I0720 14:00:24.319510  6654 net.cpp:141] Setting up conv1
2016-07-20 14:00:24.321 STDERR [INFO] I0720 14:00:24.319519  6644 layer_factory.hpp:77] Creating layer relu1
2016-07-20 14:00:24.321 STDERR [INFO] I0720 14:00:24.319527  6674 net.cpp:141] Setting up pool1
2016-07-20 14:00:24.321 STDERR [INFO] I0720 14:00:24.319535  6654 net.cpp:148] Top shape: 10 96 55 55 (2904000)
2016-07-20 14:00:24.321 STDERR [INFO] I0720 14:00:24.319540  6674 net.cpp:148] Top shape: 10 96 27 27 (699840)
2016-07-20 14:00:24.321 STDERR [INFO] I0720 14:00:24.319535  6644 net.cpp:91] Creating Layer relu1
2016-07-20 14:00:24.321 STDERR [INFO] I0720 14:00:24.319551  6654 net.cpp:156] Memory required for data: 17799480
2016-07-20 14:00:24.321 STDERR [INFO] I0720 14:00:24.319548  6674 net.cpp:156] Memory required for data: 32214840
2016-07-20 14:00:24.321 STDERR [INFO] I0720 14:00:24.319561  6644 net.cpp:425] relu1 <- conv1
…
2016-07-20 14:00:24.322 STDERR [INFO] I0720 14:00:24.319597  6674 net.cpp:425] norm1 <- pool1
2016-07-20 14:00:24.322 STDERR [INFO] I0720 14:00:24.319599  6654 net.cpp:91] Creating Layer relu1
2016-07-20 14:00:24.322 STDERR [INFO] I0720 14:00:24.319605  6674 net.cpp:399] norm1 -> norm1
2016-07-20 14:00:24.322 STDERR [INFO] I0720 14:00:24.319610  6654 net.cpp:425] relu1 <- conv1
2016-07-20 14:00:24.322 STDERR [INFO] I0720 14:00:24.319627  6654 net.cpp:386] relu1 -> conv1 (in-place)
2016-07-20 14:00:24.322 STDERR [INFO] I0720 14:00:24.319854  6672 net.cpp:141] Setting up conv1
2016-07-20 14:00:24.322 STDERR [INFO] I0720 14:00:24.319876  6672 net.cpp:148] Top shape: 10 96 55 55 (2904000)
2016-07-20 14:00:24.322 STDERR [INFO] I0720 14:00:24.319885  6672 net.cpp:156] Memory required for data: 17799480
2016-07-20 14:00:24.322 STDERR [INFO] I0720 14:00:24.319911  6672 layer_factory.hpp:77] Creating layer relu1
2016-07-20 14:00:24.322 STDERR [INFO] I0720 14:00:24.319929  6672 net.cpp:91] Creating Layer relu1
2016-07-20 14:00:24.322 STDERR [INFO] I0720 14:00:24.319941  6672 net.cpp:425] relu1 <- conv1
2016-07-20 14:00:24.322 STDERR [INFO] I0720 14:00:24.319953  6672 net.cpp:386] relu1 -> conv1 (in-place)
2016-07-20 14:00:24.324 STDERR [INFO] I0720 14:00:24.323796  6672 net.cpp:141] Setting up relu1
2016-07-20 14:00:24.324 STDERR [INFO] I0720 14:00:24.323828  6664 net.cpp:141] Setting up relu1
2016-07-20 14:00:24.324 STDERR [INFO] I0720 14:00:24.323833  6672 net.cpp:148] Top shape: 10 96 55 55 (2904000)
2016-07-20 14:00:24.324 STDERR [INFO] I0720 14:00:24.323849  6664 net.cpp:148] Top shape: 10 96 55 55 (2904000)
2016-07-20 14:00:24.324 STDERR [INFO] I0720 14:00:24.323853  6672 net.cpp:156] Memory required for data: 29415480
2016-07-20 14:00:24.324 STDERR [INFO] I0720 14:00:24.323855  6664 net.cpp:156] Memory required for data: 29415480
2016-07-20 14:00:24.324 STDERR [INFO] I0720 14:00:24.323868  6672 layer_factory.hpp:77] Creating layer pool1
2016-07-20 14:00:24.324 STDERR [INFO] I0720 14:00:24.323878  6664 layer_factory.hpp:77] Creating layer pool1
2016-07-20 14:00:24.324 STDERR [INFO] I0720 14:00:24.323887  6672 net.cpp:91] Creating Layer pool1
2016-07-20 14:00:24.324 STDERR [INFO] I0720 14:00:24.323886  6680 net.cpp:141] Setting up conv1
2016-07-20 14:00:24.324 STDERR [INFO] I0720 14:00:24.323901  6672 net.cpp:425] pool1 <- conv1
2016-07-20 14:00:24.325 STDERR [INFO] I0720 14:00:24.323897  6664 net.cpp:91] Creating Layer pool1
2016-07-20 14:00:24.325 STDERR [INFO] I0720 14:00:24.323915  6664 net.cpp:425] pool1 <- conv1
2016-07-20 14:00:24.325 STDERR [INFO] I0720 14:00:24.323915  6680 net.cpp:148] Top shape: 10 96 55 55 (2904000)
2016-07-20 14:00:24.325 STDERR [INFO] I0720 14:00:24.323916  6672 net.cpp:399] pool1 -> pool1
2016-07-20 14:00:24.325 STDERR [INFO] I0720 14:00:24.323931  6680 net.cpp:156] Memory required for data: 17799480
2016-07-20 14:00:24.325 STDERR [INFO] I0720 14:00:24.323935  6664 net.cpp:399] pool1 -> pool1
2016-07-20 14:00:24.325 STDERR [INFO] I0720 14:00:24.323953  6672 net.cpp:141] Setting up pool1
2016-07-20 14:00:24.325 STDERR [INFO] I0720 14:00:24.323958  6664 net.cpp:141] Setting up pool1
2016-07-20 14:00:24.325 STDERR [INFO] I0720 14:00:24.323954  6680 layer_factory.hpp:77] Creating layer relu1
2016-07-20 14:00:24.325 STDERR [INFO] I0720 14:00:24.323971  6672 net.cpp:148] Top shape: 10 96 27 27 (699840)
2016-07-20 14:00:24.325 STDERR [INFO] I0720 14:00:24.323976  6664 net.cpp:148] Top shape: 10 96 27 27 (699840)
2016-07-20 14:00:24.325 STDERR [INFO] I0720 14:00:24.323979  6672 net.cpp:156] Memory required for data: 32214840
2016-07-20 14:00:24.325 STDERR [INFO] I0720 14:00:24.323984  6664 net.cpp:156] Memory required for data: 32214840
2016-07-20 14:00:24.325 STDERR [INFO] I0720 14:00:24.323987  6680 net.cpp:91] Creating Layer relu1
2016-07-20 14:00:24.326 STDERR [INFO] I0720 14:00:24.323988  6672 layer_factory.hpp:77] Creating layer norm1
2016-07-20 14:00:24.326 STDERR [INFO] I0720 14:00:24.323994  6664 layer_factory.hpp:77] Creating layer norm1
2016-07-20 14:00:24.326 STDERR [INFO] I0720 14:00:24.323999  6680 net.cpp:425] relu1 <- conv1
2016-07-20 14:00:24.326 STDERR [INFO] I0720 14:00:24.324009  6672 net.cpp:91] Creating Layer norm1
2016-07-20 14:00:24.326 STDERR [INFO] I0720 14:00:24.324013  6664 net.cpp:91] Creating Layer norm1
2016-07-20 14:00:24.326 STDERR [INFO] I0720 14:00:24.324010  6680 net.cpp:386] relu1 -> conv1 (in-place)
2016-07-20 14:00:24.326 STDERR [INFO] I0720 14:00:24.324015  6660 net.cpp:141] Setting up relu1
2016-07-20 14:00:24.326 STDERR [INFO] I0720 14:00:24.324020  6664 net.cpp:425] norm1 <- pool1
2016-07-20 14:00:24.326 STDERR [INFO] I0720 14:00:24.324021  6672 net.cpp:425] norm1 <- pool1
2016-07-20 14:00:24.326 STDERR [INFO] I0720 14:00:24.324039  6664 net.cpp:399] norm1 -> norm1
2016-07-20 14:00:24.326 STDERR [INFO] I0720 14:00:24.324036  6660 net.cpp:148] Top shape: 10 96 55 55 (2904000)
2016-07-20 14:00:24.326 STDERR [INFO] I0720 14:00:24.324053  6672 net.cpp:399] norm1 -> norm1
2016-07-20 14:00:24.326 STDERR [INFO] I0720 14:00:24.324054  6660 net.cpp:156] Memory required for data: 29415480
2016-07-20 14:00:24.326 STDERR [INFO] I0720 14:00:24.324065  6660 layer_factory.hpp:77] Creating layer pool1
2016-07-20 14:00:24.326 STDERR [INFO] I0720 14:00:24.324089  6660 net.cpp:91] Creating Layer pool1
2016-07-20 14:00:24.327 STDERR [INFO] I0720 14:00:24.324098  6660 net.cpp:425] pool1 <- conv1
2016-07-20 14:00:24.327 STDERR [INFO] I0720 14:00:24.324111  6660 net.cpp:399] pool1 -> pool1
2016-07-20 14:00:24.327 STDERR [INFO] I0720 14:00:24.324131  6660 net.cpp:141] Setting up pool1
2016-07-20 14:00:24.327 STDERR [INFO] I0720 14:00:24.324142  6660 net.cpp:148] Top shape: 10 96 27 27 (699840)
2016-07-20 14:00:24.327 STDERR [INFO] I0720 14:00:24.324146  6660 net.cpp:156] Memory required for data: 32214840
2016-07-20 14:00:24.327 STDERR [INFO] I0720 14:00:24.324151  6660 layer_factory.hpp:77] Creating layer norm1
2016-07-20 14:00:24.327 STDERR [INFO] I0720 14:00:24.324161  6660 net.cpp:91] Creating Layer norm1
2016-07-20 14:00:24.327 STDERR [INFO] I0720 14:00:24.324164  6660 net.cpp:425] norm1 <- pool1
2016-07-20 14:00:24.327 STDERR [INFO] I0720 14:00:24.324173  6660 net.cpp:399] norm1 -> norm1
2016-07-20 14:00:24.327 STDERR [INFO] I0720 14:00:24.325728  6654 net.cpp:141] Setting up relu1
2016-07-20 14:00:24.328 STDERR [INFO] I0720 14:00:24.325743  6654 net.cpp:148] Top shape: 10 96 55 55 (2904000)
2016-07-20 14:00:24.328 STDERR [INFO] I0720 14:00:24.325748  6654 net.cpp:156] Memory required for data: 29415480
2016-07-20 14:00:24.328 STDERR [INFO] I0720 14:00:24.325753  6654 layer_factory.hpp:77] Creating layer pool1
2016-07-20 14:00:24.328 STDERR [INFO] I0720 14:00:24.325764  6654 net.cpp:91] Creating Layer pool1
2016-07-20 14:00:24.328 STDERR [INFO] I0720 14:00:24.325769  6654 net.cpp:425] pool1 <- conv1
2016-07-20 14:00:24.328 STDERR [INFO] I0720 14:00:24.325776  6654 net.cpp:399] pool1 -> pool1
2016-07-20 14:00:24.328 STDERR [INFO] I0720 14:00:24.325788  6654 net.cpp:141] Setting up pool1
2016-07-20 14:00:24.328 STDERR [INFO] I0720 14:00:24.325798  6654 net.cpp:148] Top shape: 10 96 27 27 (699840)
2016-07-20 14:00:24.328 STDERR [INFO] I0720 14:00:24.325801  6654 net.cpp:156] Memory required for data: 32214840
2016-07-20 14:00:24.328 STDERR [INFO] I0720 14:00:24.325805  6654 layer_factory.hpp:77] Creating layer norm1
2016-07-20 14:00:24.328 STDERR [INFO] I0720 14:00:24.325814  6654 net.cpp:91] Creating Layer norm1
2016-07-20 14:00:24.328 STDERR [INFO] I0720 14:00:24.325819  6654 net.cpp:425] norm1 <- pool1
2016-07-20 14:00:24.328 STDERR [INFO] I0720 14:00:24.325826  6654 net.cpp:399] norm1 -> norm1
2016-07-20 14:00:24.328 STDERR [INFO] I0720 14:00:24.325924  6644 net.cpp:141] Setting up relu1
2016-07-20 14:00:24.328 STDERR [INFO] I0720 14:00:24.325937  6644 net.cpp:148] Top shape: 10 96 55 55 (2904000)
2016-07-20 14:00:24.329 STDERR [INFO] I0720 14:00:24.325942  6644 net.cpp:156] Memory required for data: 29415480
2016-07-20 14:00:24.329 STDERR [INFO] I0720 14:00:24.325951  6644 layer_factory.hpp:77] Creating layer pool1
2016-07-20 14:00:24.329 STDERR [INFO] I0720 14:00:24.325961  6644 net.cpp:91] Creating Layer pool1
2016-07-20 14:00:24.329 STDERR [INFO] I0720 14:00:24.325966  6644 net.cpp:425] pool1 <- conv1
2016-07-20 14:00:24.329 STDERR [INFO] I0720 14:00:24.325963  6668 net.cpp:141] Setting up relu1
2016-07-20 14:00:24.329 STDERR [INFO] I0720 14:00:24.325975  6644 net.cpp:399] pool1 -> pool1
2016-07-20 14:00:24.329 STDERR [INFO] I0720 14:00:24.325979  6668 net.cpp:148] Top shape: 10 96 55 55 (2904000)
2016-07-20 14:00:24.329 STDERR [INFO] I0720 14:00:24.325984  6668 net.cpp:156] Memory required for data: 29415480
2016-07-20 14:00:24.329 STDERR [INFO] I0720 14:00:24.325987  6644 net.cpp:141] Setting up pool1
2016-07-20 14:00:24.329 STDERR [INFO] I0720 14:00:24.325990  6668 layer_factory.hpp:77] Creating layer pool1
2016-07-20 14:00:24.329 STDERR [INFO] I0720 14:00:24.325994  6644 net.cpp:148] Top shape: 10 96 27 27 (699840)
2016-07-20 14:00:24.329 STDERR [INFO] I0720 14:00:24.325999  6644 net.cpp:156] Memory required for data: 32214840
2016-07-20 14:00:24.329 STDERR [INFO] I0720 14:00:24.326002  6644 layer_factory.hpp:77] Creating layer norm1
2016-07-20 14:00:24.329 STDERR [INFO] I0720 14:00:24.326005  6668 net.cpp:91] Creating Layer pool1
2016-07-20 14:00:24.330 STDERR [INFO] I0720 14:00:24.326014  6644 net.cpp:91] Creating Layer norm1
2016-07-20 14:00:24.330 STDERR [INFO] I0720 14:00:24.326014  6668 net.cpp:425] pool1 <- conv1
2016-07-20 14:00:24.330 STDERR [INFO] I0720 14:00:24.326017  6644 net.cpp:425] norm1 <- pool1
2016-07-20 14:00:24.330 STDERR [INFO] I0720 14:00:24.326023  6644 net.cpp:399] norm1 -> norm1
2016-07-20 14:00:24.330 STDERR [INFO] I0720 14:00:24.326025  6668 net.cpp:399] pool1 -> pool1
2016-07-20 14:00:24.330 STDERR [INFO] I0720 14:00:24.326038  6668 net.cpp:141] Setting up pool1
2016-07-20 14:00:24.330 STDERR [INFO] I0720 14:00:24.326045  6668 net.cpp:148] Top shape: 10 96 27 27 (699840)
2016-07-20 14:00:24.330 STDERR [INFO] I0720 14:00:24.326050  6668 net.cpp:156] Memory required for data: 32214840
2016-07-20 14:00:24.330 STDERR [INFO] I0720 14:00:24.326053  6668 layer_factory.hpp:77] Creating layer norm1
2016-07-20 14:00:24.330 STDERR [INFO] I0720 14:00:24.326064  6668 net.cpp:91] Creating Layer norm1
2016-07-20 14:00:24.330 STDERR [INFO] I0720 14:00:24.326071  6668 net.cpp:425] norm1 <- pool1
2016-07-20 14:00:24.330 STDERR [INFO] I0720 14:00:24.326081  6668 net.cpp:399] norm1 -> norm1
2016-07-20 14:00:24.330 STDERR [INFO] I0720 14:00:24.327797  6664 net.cpp:141] Setting up norm1
2016-07-20 14:00:24.330 STDERR [INFO] I0720 14:00:24.327812  6664 net.cpp:148] Top shape: 10 96 27 27 (699840)
2016-07-20 14:00:24.330 STDERR [INFO] I0720 14:00:24.327817  6664 net.cpp:156] Memory required for data: 35014200
2016-07-20 14:00:24.331 STDERR [INFO] I0720 14:00:24.327822  6664 layer_factory.hpp:77] Creating layer conv2
2016-07-20 14:00:24.331 STDERR [INFO] I0720 14:00:24.327847  6678 net.cpp:141] Setting up norm1
2016-07-20 14:00:24.331 STDERR [INFO] I0720 14:00:24.327853  6664 net.cpp:91] Creating Layer conv2
2016-07-20 14:00:24.331 STDERR [INFO] I0720 14:00:24.327860  6664 net.cpp:425] conv2 <- norm1
2016-07-20 14:00:24.331 STDERR [INFO] I0720 14:00:24.327860  6678 net.cpp:148] Top shape: 10 96 27 27 (699840)
2016-07-20 14:00:24.331 STDERR [INFO] I0720 14:00:24.327867  6678 net.cpp:156] Memory required for data: 35014200
2016-07-20 14:00:24.331 STDERR [INFO] I0720 14:00:24.327869  6664 net.cpp:399] conv2 -> conv2
2016-07-20 14:00:24.331 STDERR [INFO] I0720 14:00:24.327872  6678 layer_factory.hpp:77] Creating layer conv2
2016-07-20 14:00:24.331 STDERR [INFO] I0720 14:00:24.327885  6678 net.cpp:91] Creating Layer conv2
2016-07-20 14:00:24.331 STDERR [INFO] I0720 14:00:24.327891  6678 net.cpp:425] conv2 <- norm1
2016-07-20 14:00:24.331 STDERR [INFO] I0720 14:00:24.327909  6678 net.cpp:399] conv2 -> conv2
2016-07-20 14:00:24.331 STDERR [INFO] I0720 14:00:24.327918  6666 net.cpp:141] Setting up norm1
2016-07-20 14:00:24.331 STDERR [INFO] I0720 14:00:24.327939  6666 net.cpp:148] Top shape: 10 96 27 27 (699840)
2016-07-20 14:00:24.331 STDERR [INFO] I0720 14:00:24.327946  6666 net.cpp:156] Memory required for data: 35014200
2016-07-20 14:00:24.331 STDERR [INFO] I0720 14:00:24.327956  6666 layer_factory.hpp:77] Creating layer conv2
2016-07-20 14:00:24.332 STDERR [INFO] I0720 14:00:24.327998  6666 net.cpp:91] Creating Layer conv2
2016-07-20 14:00:24.332 STDERR [INFO] I0720 14:00:24.328006  6666 net.cpp:425] conv2 <- norm1
2016-07-20 14:00:24.332 STDERR [INFO] I0720 14:00:24.328012  6666 net.cpp:399] conv2 -> conv2
2016-07-20 14:00:24.332 STDERR [INFO] I0720 14:00:24.328238  6680 net.cpp:141] Setting up relu1
2016-07-20 14:00:24.332 STDERR [INFO] I0720 14:00:24.328256  6680 net.cpp:148] Top shape: 10 96 55 55 (2904000)
2016-07-20 14:00:24.332 STDERR [INFO] I0720 14:00:24.328265  6680 net.cpp:156] Memory required for data: 29415480
2016-07-20 14:00:24.332 STDERR [INFO] I0720 14:00:24.328275  6680 layer_factory.hpp:77] Creating layer pool1
2016-07-20 14:00:24.332 STDERR [INFO] I0720 14:00:24.328289  6680 net.cpp:91] Creating Layer pool1
2016-07-20 14:00:24.332 STDERR [INFO] I0720 14:00:24.328297  6680 net.cpp:425] pool1 <- conv1
2016-07-20 14:00:24.332 STDERR [INFO] I0720 14:00:24.328313  6680 net.cpp:399] pool1 -> pool1
2016-07-20 14:00:24.333 STDERR [INFO] I0720 14:00:24.328333  6680 net.cpp:141] Setting up pool1
2016-07-20 14:00:24.333 STDERR [INFO] I0720 14:00:24.328346  6680 net.cpp:148] Top shape: 10 96 27 27 (699840)
2016-07-20 14:00:24.333 STDERR [INFO] I0720 14:00:24.328353  6680 net.cpp:156] Memory required for data: 32214840
2016-07-20 14:00:24.333 STDERR [INFO] I0720 14:00:24.328362  6680 layer_factory.hpp:77] Creating layer norm1
2016-07-20 14:00:24.333 STDERR [INFO] I0720 14:00:24.328380  6680 net.cpp:91] Creating Layer norm1
2016-07-20 14:00:24.333 STDERR [INFO] I0720 14:00:24.328389  6680 net.cpp:425] norm1 <- pool1
2016-07-20 14:00:24.333 STDERR [INFO] I0720 14:00:24.328400  6680 net.cpp:399] norm1 -> norm1
2016-07-20 14:00:24.333 STDERR [INFO] I0720 14:00:24.328920  6660 net.cpp:141] Setting up norm1
2016-07-20 14:00:24.333 STDERR [INFO] I0720 14:00:24.328938  6660 net.cpp:148] Top shape: 10 96 27 27 (699840)
2016-07-20 14:00:24.333 STDERR [INFO] I0720 14:00:24.328948  6660 net.cpp:156] Memory required for data: 35014200
2016-07-20 14:00:24.333 STDERR [INFO] I0720 14:00:24.328953  6660 layer_factory.hpp:77] Creating layer conv2
2016-07-20 14:00:24.333 STDERR [INFO] I0720 14:00:24.329005  6660 net.cpp:91] Creating Layer conv2
2016-07-20 14:00:24.333 STDERR [INFO] I0720 14:00:24.329015  6660 net.cpp:425] conv2 <- norm1
2016-07-20 14:00:24.333 STDERR [INFO] I0720 14:00:24.329042  6660 net.cpp:399] conv2 -> conv2
2016-07-20 14:00:24.333 STDERR [INFO] I0720 14:00:24.329044  6674 net.cpp:141] Setting up norm1
2016-07-20 14:00:24.333 STDERR [INFO] I0720 14:00:24.329059  6674 net.cpp:148] Top shape: 10 96 27 27 (699840)
2016-07-20 14:00:24.333 STDERR [INFO] I0720 14:00:24.329067  6674 net.cpp:156] Memory required for data: 35014200
2016-07-20 14:00:24.333 STDERR [INFO] I0720 14:00:24.329071  6672 net.cpp:141] Setting up norm1
2016-07-20 14:00:24.333 STDERR [INFO] I0720 14:00:24.329077  6674 layer_factory.hpp:77] Creating layer conv2
2016-07-20 14:00:24.334 STDERR [INFO] I0720 14:00:24.329095  6672 net.cpp:148] Top shape: 10 96 27 27 (699840)
2016-07-20 14:00:24.334 STDERR [INFO] I0720 14:00:24.329104  6672 net.cpp:156] Memory required for data: 35014200
2016-07-20 14:00:24.334 STDERR [INFO] I0720 14:00:24.329110  6672 layer_factory.hpp:77] Creating layer conv2
2016-07-20 14:00:24.334 STDERR [INFO] I0720 14:00:24.329126  6672 net.cpp:91] Creating Layer conv2
2016-07-20 14:00:24.334 STDERR [INFO] I0720 14:00:24.329136  6672 net.cpp:425] conv2 <- norm1
2016-07-20 14:00:24.334 STDERR [INFO] I0720 14:00:24.329138  6674 net.cpp:91] Creating Layer conv2
2016-07-20 14:00:24.334 STDERR [INFO] I0720 14:00:24.329145  6672 net.cpp:399] conv2 -> conv2
2016-07-20 14:00:24.334 STDERR [INFO] I0720 14:00:24.329154  6674 net.cpp:425] conv2 <- norm1
2016-07-20 14:00:24.334 STDERR [INFO] I0720 14:00:24.329164  6674 net.cpp:399] conv2 -> conv2
2016-07-20 14:00:24.334 STDERR [INFO] I0720 14:00:24.329190  6644 net.cpp:141] Setting up norm1
2016-07-20 14:00:24.334 STDERR [INFO] I0720 14:00:24.329208  6644 net.cpp:148] Top shape: 10 96 27 27 (699840)
2016-07-20 14:00:24.334 STDERR [INFO] I0720 14:00:24.329217  6644 net.cpp:156] Memory required for data: 35014200
2016-07-20 14:00:24.334 STDERR [INFO] I0720 14:00:24.329226  6644 layer_factory.hpp:77] Creating layer conv2
2016-07-20 14:00:24.334 STDERR [INFO] I0720 14:00:24.329238  6644 net.cpp:91] Creating Layer conv2
2016-07-20 14:00:24.334 STDERR [INFO] I0720 14:00:24.329243  6644 net.cpp:425] conv2 <- norm1
2016-07-20 14:00:24.334 STDERR [INFO] I0720 14:00:24.329282  6680 net.cpp:141] Setting up norm1
2016-07-20 14:00:24.334 STDERR [INFO] I0720 14:00:24.329293  6644 net.cpp:399] conv2 -> conv2
2016-07-20 14:00:24.334 STDERR [INFO] I0720 14:00:24.329299  6680 net.cpp:148] Top shape: 10 96 27 27 (699840)
2016-07-20 14:00:24.334 STDERR [INFO] I0720 14:00:24.329319  6680 net.cpp:156] Memory required for data: 35014200
2016-07-20 14:00:24.334 STDERR [INFO] I0720 14:00:24.329327  6680 layer_factory.hpp:77] Creating layer conv2
2016-07-20 14:00:24.334 STDERR [INFO] I0720 14:00:24.329375  6654 net.cpp:141] Setting up norm1
2016-07-20 14:00:24.334 STDERR [INFO] I0720 14:00:24.329378  6668 net.cpp:141] Setting up norm1
2016-07-20 14:00:24.334 STDERR [INFO] I0720 14:00:24.329387  6654 net.cpp:148] Top shape: 10 96 27 27 (699840)
2016-07-20 14:00:24.334 STDERR [INFO] I0720 14:00:24.329392  6668 net.cpp:148] Top shape: 10 96 27 27 (699840)
2016-07-20 14:00:24.334 STDERR [INFO] I0720 14:00:24.329393  6654 net.cpp:156] Memory required for data: 35014200
2016-07-20 14:00:24.335 STDERR [INFO] I0720 14:00:24.329401  6680 net.cpp:91] Creating Layer conv2
2016-07-20 14:00:24.335 STDERR [INFO] I0720 14:00:24.329401  6668 net.cpp:156] Memory required for data: 35014200
2016-07-20 14:00:24.335 STDERR [INFO] I0720 14:00:24.329417  6680 net.cpp:425] conv2 <- norm1
…
2016-07-20 14:00:24.335 STDERR [INFO] I0720 14:00:24.329481  6668 net.cpp:91] Creating Layer conv2
2016-07-20 14:00:24.335 STDERR [INFO] I0720 14:00:24.329483  6654 net.cpp:425] conv2 <- norm1
2016-07-20 14:00:24.335 STDERR [INFO] I0720 14:00:24.329493  6668 net.cpp:425] conv2 <- norm1
2016-07-20 14:00:24.335 STDERR [INFO] I0720 14:00:24.329514  6654 net.cpp:399] conv2 -> conv2
2016-07-20 14:00:24.335 STDERR [INFO] I0720 14:00:24.329521  6668 net.cpp:399] conv2 -> conv2
2016-07-20 14:00:24.349 STDERR [INFO] I0720 14:00:24.349563  6646 net.cpp:141] Setting up lstm1_transform_1
2016-07-20 14:00:24.350 STDERR [INFO] I0720 14:00:24.349613  6646 net.cpp:148] Top shape: 1 1 4000 (4000)
2016-07-20 14:00:24.350 STDERR [INFO] I0720 14:00:24.349619  6646 net.cpp:156] Memory required for data: 62016
2016-07-20 14:00:24.350 STDERR [INFO] I0720 14:00:24.349642  6646 layer_factory.hpp:77] Creating layer lstm1_gate_input_1
2016-07-20 14:00:24.350 STDERR [INFO] I0720 14:00:24.349664  6646 net.cpp:91] Creating Layer lstm1_gate_input_1
2016-07-20 14:00:24.350 STDERR [INFO] I0720 14:00:24.349671  6646 net.cpp:425] lstm1_gate_input_1 <- W_hc_h_0
2016-07-20 14:00:24.350 STDERR [INFO] I0720 14:00:24.349679  6646 net.cpp:425] lstm1_gate_input_1 <- W_xc_x_1
2016-07-20 14:00:24.350 STDERR [INFO] I0720 14:00:24.349687  6646 net.cpp:399] lstm1_gate_input_1 -> gate_input_1
2016-07-20 14:00:24.351 STDERR [INFO] I0720 14:00:24.351481  6646 net.cpp:141] Setting up lstm1_gate_input_1
2016-07-20 14:00:24.351 STDERR [INFO] I0720 14:00:24.351495  6646 net.cpp:148] Top shape: 1 1 4000 (4000)
2016-07-20 14:00:24.351 STDERR [INFO] I0720 14:00:24.351500  6646 net.cpp:156] Memory required for data: 78016
2016-07-20 14:00:24.351 STDERR [INFO] I0720 14:00:24.351505  6646 layer_factory.hpp:77] Creating layer lstm1_unit_1
2016-07-20 14:00:24.351 STDERR [INFO] I0720 14:00:24.351513  6646 net.cpp:91] Creating Layer lstm1_unit_1
2016-07-20 14:00:24.351 STDERR [INFO] I0720 14:00:24.351517  6646 net.cpp:425] lstm1_unit_1 <- c_0
2016-07-20 14:00:24.351 STDERR [INFO] I0720 14:00:24.351523  6646 net.cpp:425] lstm1_unit_1 <- gate_input_1
2016-07-20 14:00:24.352 STDERR [INFO] I0720 14:00:24.351528  6646 net.cpp:425] lstm1_unit_1 <- cont_1_lstm1_cont_slice_0_split_1
2016-07-20 14:00:24.352 STDERR [INFO] I0720 14:00:24.351537  6646 net.cpp:399] lstm1_unit_1 -> c_1
2016-07-20 14:00:24.352 STDERR [INFO] I0720 14:00:24.351547  6646 net.cpp:399] lstm1_unit_1 -> h_1
2016-07-20 14:00:24.356 STDERR [INFO] I0720 14:00:24.356848  6646 net.cpp:141] Setting up lstm1_unit_1
2016-07-20 14:00:24.357 STDERR [INFO] I0720 14:00:24.356869  6646 net.cpp:148] Top shape: 1 1 1000 (1000)
2016-07-20 14:00:24.357 STDERR [INFO] I0720 14:00:24.356876  6646 net.cpp:148] Top shape: 1 1 1000 (1000)
2016-07-20 14:00:24.357 STDERR [INFO] I0720 14:00:24.356880  6646 net.cpp:156] Memory required for data: 86016
2016-07-20 14:00:24.357 STDERR [INFO] I0720 14:00:24.356885  6646 layer_factory.hpp:77] Creating layer lstm1_
2016-07-20 14:00:24.357 STDERR [INFO] I0720 14:00:24.356899  6646 net.cpp:91] Creating Layer lstm1_
2016-07-20 14:00:24.357 STDERR [INFO] I0720 14:00:24.356904  6646 net.cpp:425] lstm1_ <- c_1
2016-07-20 14:00:24.357 STDERR [INFO] I0720 14:00:24.356911  6646 net.cpp:399] lstm1_ -> c_T
2016-07-20 14:00:24.359 STDERR [INFO] I0720 14:00:24.359429  6646 net.cpp:141] Setting up lstm1_
2016-07-20 14:00:24.359 STDERR [INFO] I0720 14:00:24.359449  6646 net.cpp:148] Top shape: 1 1 1000 (1000)
2016-07-20 14:00:24.359 STDERR [INFO] I0720 14:00:24.359454  6646 net.cpp:156] Memory required for data: 90016
2016-07-20 14:00:24.359 STDERR [INFO] I0720 14:00:24.359459  6646 layer_factory.hpp:77] Creating layer lstm1_h_concat
2016-07-20 14:00:24.359 STDERR [INFO] I0720 14:00:24.359475  6646 net.cpp:91] Creating Layer lstm1_h_concat
2016-07-20 14:00:24.359 STDERR [INFO] I0720 14:00:24.359480  6646 net.cpp:425] lstm1_h_concat <- h_1
2016-07-20 14:00:24.359 STDERR [INFO] I0720 14:00:24.359488  6646 net.cpp:399] lstm1_h_concat -> h
2016-07-20 14:00:24.359 STDERR [INFO] I0720 14:00:24.359740  6646 net.cpp:141] Setting up lstm1_h_concat
2016-07-20 14:00:24.359 STDERR [INFO] I0720 14:00:24.359750  6646 net.cpp:148] Top shape: 1 1 1000 (1000)
2016-07-20 14:00:24.360 STDERR [INFO] I0720 14:00:24.359755  6646 net.cpp:156] Memory required for data: 94016
2016-07-20 14:00:24.360 STDERR [INFO] I0720 14:00:24.359760  6646 layer_factory.hpp:77] Creating layer h_pseudoloss
2016-07-20 14:00:24.360 STDERR [INFO] I0720 14:00:24.359774  6646 net.cpp:91] Creating Layer h_pseudoloss
2016-07-20 14:00:24.360 STDERR [INFO] I0720 14:00:24.359779  6646 net.cpp:425] h_pseudoloss <- h
2016-07-20 14:00:24.360 STDERR [INFO] I0720 14:00:24.359786  6646 net.cpp:399] h_pseudoloss -> h_pseudoloss
2016-07-20 14:00:24.367 STDERR [INFO] I0720 14:00:24.367750  6660 net.cpp:141] Setting up conv2
2016-07-20 14:00:24.368 STDERR [INFO] I0720 14:00:24.367797  6660 net.cpp:148] Top shape: 10 256 27 27 (1866240)
2016-07-20 14:00:24.368 STDERR [INFO] I0720 14:00:24.367807  6660 net.cpp:156] Memory required for data: 42479160
2016-07-20 14:00:24.368 STDERR [INFO] I0720 14:00:24.367835  6660 layer_factory.hpp:77] Creating layer relu2
2016-07-20 14:00:24.368 STDERR [INFO] I0720 14:00:24.367863  6660 net.cpp:91] Creating Layer relu2
2016-07-20 14:00:24.368 STDERR [INFO] I0720 14:00:24.367875  6660 net.cpp:425] relu2 <- conv2
…
2016-07-20 14:00:24.371 STDERR [INFO] I0720 14:00:24.370569  6646 net.cpp:274] Network initialization done.
2016-07-20 14:00:24.371 STDERR [INFO] I0720 14:00:24.370630  6646 recurrent_layer.cpp:150] Adding parameter 0: W_xc
2016-07-20 14:00:24.371 STDERR [INFO] I0720 14:00:24.370637  6646 recurrent_layer.cpp:150] Adding parameter 1: b_c
2016-07-20 14:00:24.371 STDERR [INFO] I0720 14:00:24.370641  6646 recurrent_layer.cpp:150] Adding parameter 2: W_hc
2016-07-20 14:00:24.371 STDERR [INFO] I0720 14:00:24.371279  6680 net.cpp:141] Setting up conv2
2016-07-20 14:00:24.371 STDERR [INFO] I0720 14:00:24.371302  6680 net.cpp:148] Top shape: 10 256 27 27 (1866240)
2016-07-20 14:00:24.371 STDERR [INFO] I0720 14:00:24.371309  6680 net.cpp:156] Memory required for data: 42479160
2016-07-20 14:00:24.371 STDERR [INFO] I0720 14:00:24.371323  6680 layer_factory.hpp:77] Creating layer relu2
2016-07-20 14:00:24.371 STDERR [INFO] I0720 14:00:24.371333  6680 net.cpp:91] Creating Layer relu2
2016-07-20 14:00:24.371 STDERR [INFO] I0720 14:00:24.371338  6680 net.cpp:425] relu2 <- conv2
2016-07-20 14:00:24.371 STDERR [INFO] I0720 14:00:24.371345  6680 net.cpp:386] relu2 -> conv2 (in-place)
2016-07-20 14:00:24.371 STDERR [INFO] I0720 14:00:24.371757  6654 net.cpp:141] Setting up conv2
2016-07-20 14:00:24.371 STDERR [INFO] I0720 14:00:24.371772  6654 net.cpp:148] Top shape: 10 256 27 27 (1866240)
2016-07-20 14:00:24.372 STDERR [INFO] I0720 14:00:24.371776  6654 net.cpp:156] Memory required for data: 42479160
2016-07-20 14:00:24.372 STDERR [INFO] I0720 14:00:24.371790  6654 layer_factory.hpp:77] Creating layer relu2
2016-07-20 14:00:24.372 STDERR [INFO] I0720 14:00:24.371798  6654 net.cpp:91] Creating Layer relu2
2016-07-20 14:00:24.372 STDERR [INFO] I0720 14:00:24.371803  6654 net.cpp:425] relu2 <- conv2
2016-07-20 14:00:24.372 STDERR [INFO] I0720 14:00:24.371809  6654 net.cpp:386] relu2 -> conv2 (in-place)
2016-07-20 14:00:24.373 STDERR [INFO] I0720 14:00:24.373811  6646 net.cpp:141] Setting up lstm1
2016-07-20 14:00:24.374 STDERR [INFO] I0720 14:00:24.373826  6646 net.cpp:148] Top shape: 1 1 1000 (1000)
2016-07-20 14:00:24.374 STDERR [INFO] I0720 14:00:24.373831  6646 net.cpp:156] Memory required for data: 26408
2016-07-20 14:00:24.374 STDERR [INFO] I0720 14:00:24.373844  6646 layer_factory.hpp:77] Creating layer concat
2016-07-20 14:00:24.374 STDERR [INFO] I0720 14:00:24.373855  6646 net.cpp:91] Creating Layer concat
2016-07-20 14:00:24.374 STDERR [INFO] I0720 14:00:24.373862  6646 net.cpp:425] concat <- lstm1
2016-07-20 14:00:24.374 STDERR [INFO] I0720 14:00:24.373868  6646 net.cpp:425] concat <- embedded_input_sentence
2016-07-20 14:00:24.374 STDERR [INFO] I0720 14:00:24.373874  6646 net.cpp:425] concat <- reshaped_stage_indicator
2016-07-20 14:00:24.374 STDERR [INFO] I0720 14:00:24.373880  6646 net.cpp:399] concat -> lstm1_video_sequence
2016-07-20 14:00:24.375 STDERR [INFO] I0720 14:00:24.375030  6654 net.cpp:141] Setting up relu2
2016-07-20 14:00:24.375 STDERR [INFO] I0720 14:00:24.375051  6654 net.cpp:148] Top shape: 10 256 27 27 (1866240)
2016-07-20 14:00:24.375 STDERR [INFO] I0720 14:00:24.375057  6654 net.cpp:156] Memory required for data: 49944120
2016-07-20 14:00:24.375 STDERR [INFO] I0720 14:00:24.375063  6654 layer_factory.hpp:77] Creating layer pool2
2016-07-20 14:00:24.375 STDERR [INFO] I0720 14:00:24.375073  6654 net.cpp:91] Creating Layer pool2
2016-07-20 14:00:24.375 STDERR [INFO] I0720 14:00:24.375078  6654 net.cpp:425] pool2 <- conv2
2016-07-20 14:00:24.375 STDERR [INFO] I0720 14:00:24.375085  6654 net.cpp:399] pool2 -> pool2
2016-07-20 14:00:24.375 STDERR [INFO] I0720 14:00:24.375103  6654 net.cpp:141] Setting up pool2
2016-07-20 14:00:24.375 STDERR [INFO] I0720 14:00:24.375110  6654 net.cpp:148] Top shape: 10 256 13 13 (432640)
2016-07-20 14:00:24.375 STDERR [INFO] I0720 14:00:24.375114  6654 net.cpp:156] Memory required for data: 51674680
2016-07-20 14:00:24.375 STDERR [INFO] I0720 14:00:24.375118  6654 layer_factory.hpp:77] Creating layer norm2
2016-07-20 14:00:24.375 STDERR [INFO] I0720 14:00:24.375133  6654 net.cpp:91] Creating Layer norm2
2016-07-20 14:00:24.375 STDERR [INFO] I0720 14:00:24.375144  6654 net.cpp:425] norm2 <- pool2
2016-07-20 14:00:24.375 STDERR [INFO] I0720 14:00:24.375154  6654 net.cpp:399] norm2 -> norm2
2016-07-20 14:00:24.375 STDERR [INFO] I0720 14:00:24.375243  6646 net.cpp:141] Setting up concat
2016-07-20 14:00:24.375 STDERR [INFO] I0720 14:00:24.375255  6646 net.cpp:148] Top shape: 1 1 1501 (1501)
2016-07-20 14:00:24.375 STDERR [INFO] I0720 14:00:24.375259  6646 net.cpp:156] Memory required for data: 32412
2016-07-20 14:00:24.376 STDERR [INFO] I0720 14:00:24.375263  6646 layer_factory.hpp:77] Creating layer lstm2
2016-07-20 14:00:24.376 STDERR [INFO] I0720 14:00:24.375277  6646 net.cpp:91] Creating Layer lstm2
2016-07-20 14:00:24.376 STDERR [INFO] I0720 14:00:24.375283  6646 net.cpp:425] lstm2 <- lstm1_video_sequence
…
2016-07-20 14:00:24.389 STDERR [INFO] }
2016-07-20 14:00:24.389 STDERR [INFO] I0720 14:00:24.375640  6646 layer_factory.hpp:77] Creating layer lstm2_
2016-07-20 14:00:24.389 STDERR [INFO] I0720 14:00:24.375651  6646 net.cpp:91] Creating Layer lstm2_
2016-07-20 14:00:24.389 STDERR [INFO] I0720 14:00:24.375658  6646 net.cpp:399] lstm2_ -> x
2016-07-20 14:00:24.389 STDERR [INFO] I0720 14:00:24.375668  6646 net.cpp:399] lstm2_ -> cont
2016-07-20 14:00:24.389 STDERR [INFO] I0720 14:00:24.376255  6668 net.cpp:141] Setting up conv2
2016-07-20 14:00:24.389 STDERR [INFO] I0720 14:00:24.376274  6668 net.cpp:148] Top shape: 10 256 27 27 (1866240)
2016-07-20 14:00:24.389 STDERR [INFO] I0720 14:00:24.376279  6668 net.cpp:156] Memory required for data: 42479160
2016-07-20 14:00:24.389 STDERR [INFO] I0720 14:00:24.376292  6668 layer_factory.hpp:77] Creating layer relu2
2016-07-20 14:00:24.389 STDERR [INFO] I0720 14:00:24.376302  6668 net.cpp:91] Creating Layer relu2
2016-07-20 14:00:24.389 STDERR [INFO] I0720 14:00:24.376307  6668 net.cpp:425] relu2 <- conv2
2016-07-20 14:00:24.390 STDERR [INFO] I0720 14:00:24.376313  6668 net.cpp:386] relu2 -> conv2 (in-place)
2016-07-20 14:00:24.390 STDERR [INFO] I0720 14:00:24.381170  6660 net.cpp:141] Setting up relu2
2016-07-20 14:00:24.390 STDERR [INFO] I0720 14:00:24.381196  6660 net.cpp:148] Top shape: 10 256 27 27 (1866240)
2016-07-20 14:00:24.390 STDERR [INFO] I0720 14:00:24.381206  6660 net.cpp:156] Memory required for data: 49944120
2016-07-20 14:00:24.390 STDERR [INFO] I0720 14:00:24.381216  6660 layer_factory.hpp:77] Creating layer pool2
2016-07-20 14:00:24.390 STDERR [INFO] I0720 14:00:24.381237  6660 net.cpp:91] Creating Layer pool2
2016-07-20 14:00:24.390 STDERR [INFO] I0720 14:00:24.381248  6660 net.cpp:425] pool2 <- conv2
2016-07-20 14:00:24.390 STDERR [INFO] I0720 14:00:24.381263  6660 net.cpp:399] pool2 -> pool2
2016-07-20 14:00:24.390 STDERR [INFO] I0720 14:00:24.381285  6660 net.cpp:141] Setting up pool2
2016-07-20 14:00:24.391 STDERR [INFO] I0720 14:00:24.381302  6660 net.cpp:148] Top shape: 10 256 13 13 (432640)
2016-07-20 14:00:24.391 STDERR [INFO] I0720 14:00:24.381309  6660 net.cpp:156] Memory required for data: 51674680
2016-07-20 14:00:24.391 STDERR [INFO] I0720 14:00:24.381317  6660 layer_factory.hpp:77] Creating layer norm2
2016-07-20 14:00:24.391 STDERR [INFO] I0720 14:00:24.381341  6660 net.cpp:91] Creating Layer norm2
2016-07-20 14:00:24.391 STDERR [INFO] I0720 14:00:24.381351  6660 net.cpp:425] norm2 <- pool2
2016-07-20 14:00:24.391 STDERR [INFO] I0720 14:00:24.381366  6660 net.cpp:399] norm2 -> norm2
2016-07-20 14:00:24.391 STDERR [INFO] I0720 14:00:24.381678  6660 net.cpp:141] Setting up norm2
2016-07-20 14:00:24.391 STDERR [INFO] I0720 14:00:24.381690  6660 net.cpp:148] Top shape: 10 256 13 13 (432640)
2016-07-20 14:00:24.391 STDERR [INFO] I0720 14:00:24.381695  6660 net.cpp:156] Memory required for data: 53405240
2016-07-20 14:00:24.391 STDERR [INFO] I0720 14:00:24.381700  6660 layer_factory.hpp:77] Creating layer conv3
2016-07-20 14:00:24.391 STDERR [INFO] I0720 14:00:24.381716  6660 net.cpp:91] Creating Layer conv3
2016-07-20 14:00:24.391 STDERR [INFO] I0720 14:00:24.381721  6660 net.cpp:425] conv3 <- norm2
2016-07-20 14:00:24.391 STDERR [INFO] I0720 14:00:24.381728  6660 net.cpp:399] conv3 -> conv3
2016-07-20 14:00:24.391 STDERR [INFO] I0720 14:00:24.381805  6666 net.cpp:141] Setting up conv2
2016-07-20 14:00:24.391 STDERR [INFO] I0720 14:00:24.381830  6666 net.cpp:148] Top shape: 10 256 27 27 (1866240)
2016-07-20 14:00:24.392 STDERR [INFO] I0720 14:00:24.381852  6666 net.cpp:156] Memory required for data: 42479160
2016-07-20 14:00:24.392 STDERR [INFO] I0720 14:00:24.381850  6672 net.cpp:141] Setting up conv2
2016-07-20 14:00:24.392 STDERR [INFO] I0720 14:00:24.381889  6666 layer_factory.hpp:77] Creating layer relu2
2016-07-20 14:00:24.392 STDERR [INFO] I0720 14:00:24.381892  6672 net.cpp:148] Top shape: 10 256 27 27 (1866240)
2016-07-20 14:00:24.392 STDERR [INFO] I0720 14:00:24.381903  6672 net.cpp:156] Memory required for data: 42479160
2016-07-20 14:00:24.392 STDERR [INFO] I0720 14:00:24.381911  6666 net.cpp:91] Creating Layer relu2
2016-07-20 14:00:24.392 STDERR [INFO] I0720 14:00:24.381920  6666 net.cpp:425] relu2 <- conv2
2016-07-20 14:00:24.392 STDERR [INFO] I0720 14:00:24.381928  6672 layer_factory.hpp:77] Creating layer relu2
2016-07-20 14:00:24.392 STDERR [INFO] I0720 14:00:24.381932  6680 net.cpp:141] Setting up relu2
2016-07-20 14:00:24.392 STDERR [INFO] I0720 14:00:24.381939  6666 net.cpp:386] relu2 -> conv2 (in-place)
2016-07-20 14:00:24.392 STDERR [INFO] I0720 14:00:24.381953  6680 net.cpp:148] Top shape: 10 256 27 27 (1866240)
2016-07-20 14:00:24.392 STDERR [INFO] I0720 14:00:24.381958  6672 net.cpp:91] Creating Layer relu2
2016-07-20 14:00:24.392 STDERR [INFO] I0720 14:00:24.381976  6672 net.cpp:425] relu2 <- conv2
2016-07-20 14:00:24.392 STDERR [INFO] I0720 14:00:24.381963  6680 net.cpp:156] Memory required for data: 49944120
2016-07-20 14:00:24.392 STDERR [INFO] I0720 14:00:24.381994  6672 net.cpp:386] relu2 -> conv2 (in-place)
2016-07-20 14:00:24.393 STDERR [INFO] I0720 14:00:24.381999  6680 layer_factory.hpp:77] Creating layer pool2
2016-07-20 14:00:24.393 STDERR [INFO] I0720 14:00:24.382014  6680 net.cpp:91] Creating Layer pool2
2016-07-20 14:00:24.393 STDERR [INFO] I0720 14:00:24.382022  6680 net.cpp:425] pool2 <- conv2
2016-07-20 14:00:24.393 STDERR [INFO] I0720 14:00:24.382055  6680 net.cpp:399] pool2 -> pool2
2016-07-20 14:00:24.393 STDERR [INFO] I0720 14:00:24.382076  6680 net.cpp:141] Setting up pool2
2016-07-20 14:00:24.393 STDERR [INFO] I0720 14:00:24.382088  6680 net.cpp:148] Top shape: 10 256 13 13 (432640)
2016-07-20 14:00:24.393 STDERR [INFO] I0720 14:00:24.382096  6680 net.cpp:156] Memory required for data: 51674680
2016-07-20 14:00:24.393 STDERR [INFO] I0720 14:00:24.382112  6680 layer_factory.hpp:77] Creating layer norm2
2016-07-20 14:00:24.393 STDERR [INFO] I0720 14:00:24.382129  6680 net.cpp:91] Creating Layer norm2
2016-07-20 14:00:24.393 STDERR [INFO] I0720 14:00:24.382138  6680 net.cpp:425] norm2 <- pool2
2016-07-20 14:00:24.393 STDERR [INFO] I0720 14:00:24.382148  6680 net.cpp:399] norm2 -> norm2
2016-07-20 14:00:24.393 STDERR [INFO] I0720 14:00:24.382490  6646 net.cpp:141] Setting up lstm2_
2016-07-20 14:00:24.393 STDERR [INFO] I0720 14:00:24.382511  6646 net.cpp:148] Top shape: 1 1 1501 (1501)
2016-07-20 14:00:24.393 STDERR [INFO] I0720 14:00:24.382519  6646 net.cpp:148] Top shape: 1 1 (1)
2016-07-20 14:00:24.393 STDERR [INFO] I0720 14:00:24.382521  6646 net.cpp:156] Memory required for data: 6008
2016-07-20 14:00:24.394 STDERR [INFO] I0720 14:00:24.382527  6646 layer_factory.hpp:77] Creating layer lstm2_
2016-07-20 14:00:24.394 STDERR [INFO] I0720 14:00:24.382539  6646 net.cpp:91] Creating Layer lstm2_
2016-07-20 14:00:24.394 STDERR [INFO] I0720 14:00:24.382671  6646 net.cpp:399] lstm2_ -> c_0
2016-07-20 14:00:24.394 STDERR [INFO] I0720 14:00:24.382696  6646 net.cpp:399] lstm2_ -> h_0
2016-07-20 14:00:24.394 STDERR [INFO] I0720 14:00:24.386193  6654 net.cpp:141] Setting up norm2
2016-07-20 14:00:24.394 STDERR [INFO] I0720 14:00:24.386222  6654 net.cpp:148] Top shape: 10 256 13 13 (432640)
2016-07-20 14:00:24.394 STDERR [INFO] I0720 14:00:24.386227  6654 net.cpp:156] Memory required for data: 53405240
2016-07-20 14:00:24.395 STDERR [INFO] I0720 14:00:24.386235  6654 layer_factory.hpp:77] Creating layer conv3
2016-07-20 14:00:24.395 STDERR [INFO] I0720 14:00:24.386262  6654 net.cpp:91] Creating Layer conv3
2016-07-20 14:00:24.395 STDERR [INFO] I0720 14:00:24.386273  6654 net.cpp:425] conv3 <- norm2
2016-07-20 14:00:24.395 STDERR [INFO] I0720 14:00:24.386286  6654 net.cpp:399] conv3 -> conv3
2016-07-20 14:00:24.395 STDERR [INFO] I0720 14:00:24.387454  6674 net.cpp:141] Setting up conv2
2016-07-20 14:00:24.395 STDERR [INFO] I0720 14:00:24.387481  6674 net.cpp:148] Top shape: 10 256 27 27 (1866240)
2016-07-20 14:00:24.395 STDERR [INFO] I0720 14:00:24.387496  6674 net.cpp:156] Memory required for data: 42479160
2016-07-20 14:00:24.395 STDERR [INFO] I0720 14:00:24.387523  6674 layer_factory.hpp:77] Creating layer relu2
2016-07-20 14:00:24.395 STDERR [INFO] I0720 14:00:24.387542  6674 net.cpp:91] Creating Layer relu2
2016-07-20 14:00:24.395 STDERR [INFO] I0720 14:00:24.387552  6674 net.cpp:425] relu2 <- conv2
2016-07-20 14:00:24.395 STDERR [INFO] I0720 14:00:24.387563  6674 net.cpp:386] relu2 -> conv2 (in-place)
2016-07-20 14:00:24.395 STDERR [INFO] I0720 14:00:24.387694  6668 net.cpp:141] Setting up relu2
2016-07-20 14:00:24.395 STDERR [INFO] I0720 14:00:24.387717  6668 net.cpp:148] Top shape: 10 256 27 27 (1866240)
2016-07-20 14:00:24.395 STDERR [INFO] I0720 14:00:24.387725  6668 net.cpp:156] Memory required for data: 49944120
2016-07-20 14:00:24.395 STDERR [INFO] I0720 14:00:24.387737  6668 layer_factory.hpp:77] Creating layer pool2
2016-07-20 14:00:24.396 STDERR [INFO] I0720 14:00:24.387753  6668 net.cpp:91] Creating Layer pool2
2016-07-20 14:00:24.396 STDERR [INFO] I0720 14:00:24.387763  6668 net.cpp:425] pool2 <- conv2
2016-07-20 14:00:24.396 STDERR [INFO] I0720 14:00:24.387775  6668 net.cpp:399] pool2 -> pool2
2016-07-20 14:00:24.396 STDERR [INFO] I0720 14:00:24.387796  6668 net.cpp:141] Setting up pool2
2016-07-20 14:00:24.396 STDERR [INFO] I0720 14:00:24.387809  6668 net.cpp:148] Top shape: 10 256 13 13 (432640)
2016-07-20 14:00:24.396 STDERR [INFO] I0720 14:00:24.387816  6668 net.cpp:156] Memory required for data: 51674680
2016-07-20 14:00:24.396 STDERR [INFO] I0720 14:00:24.387825  6668 layer_factory.hpp:77] Creating layer norm2
2016-07-20 14:00:24.396 STDERR [INFO] I0720 14:00:24.387842  6668 net.cpp:91] Creating Layer norm2
2016-07-20 14:00:24.396 STDERR [INFO] I0720 14:00:24.387850  6668 net.cpp:425] norm2 <- pool2
2016-07-20 14:00:24.396 STDERR [INFO] I0720 14:00:24.387862  6668 net.cpp:399] norm2 -> norm2
2016-07-20 14:00:24.396 STDERR [INFO] I0720 14:00:24.390146  6668 net.cpp:141] Setting up norm2
2016-07-20 14:00:24.396 STDERR [INFO] I0720 14:00:24.390180  6668 net.cpp:148] Top shape: 10 256 13 13 (432640)
2016-07-20 14:00:24.396 STDERR [INFO] I0720 14:00:24.390188  6668 net.cpp:156] Memory required for data: 53405240
2016-07-20 14:00:24.396 STDERR [INFO] I0720 14:00:24.390194  6668 layer_factory.hpp:77] Creating layer conv3
2016-07-20 14:00:24.396 STDERR [INFO] I0720 14:00:24.390211  6668 net.cpp:91] Creating Layer conv3
2016-07-20 14:00:24.396 STDERR [INFO] I0720 14:00:24.390214  6646 net.cpp:141] Setting up lstm2_
2016-07-20 14:00:24.396 STDERR [INFO] I0720 14:00:24.390221  6668 net.cpp:425] conv3 <- norm2
2016-07-20 14:00:24.397 STDERR [INFO] I0720 14:00:24.390239  6646 net.cpp:148] Top shape: 1 1 1000 (1000)
2016-07-20 14:00:24.397 STDERR [INFO] I0720 14:00:24.390246  6646 net.cpp:148] Top shape: 1 1 1000 (1000)
2016-07-20 14:00:24.397 STDERR [INFO] I0720 14:00:24.390252  6646 net.cpp:156] Memory required for data: 14008
2016-07-20 14:00:24.397 STDERR [INFO] I0720 14:00:24.390246  6664 net.cpp:141] Setting up conv2
2016-07-20 14:00:24.397 STDERR [INFO] I0720 14:00:24.390262  6668 net.cpp:399] conv3 -> conv3
2016-07-20 14:00:24.397 STDERR [INFO] I0720 14:00:24.390287  6664 net.cpp:148] Top shape: 10 256 27 27 (1866240)
2016-07-20 14:00:24.397 STDERR [INFO] I0720 14:00:24.390262  6646 layer_factory.hpp:77] Creating layer lstm2_cont_slice
2016-07-20 14:00:24.397 STDERR [INFO] I0720 14:00:24.390302  6664 net.cpp:156] Memory required for data: 42479160
2016-07-20 14:00:24.397 STDERR [INFO] I0720 14:00:24.390313  6646 net.cpp:91] Creating Layer lstm2_cont_slice
2016-07-20 14:00:24.397 STDERR [INFO] I0720 14:00:24.390321  6646 net.cpp:425] lstm2_cont_slice <- cont
2016-07-20 14:00:24.397 STDERR [INFO] I0720 14:00:24.390323  6664 layer_factory.hpp:77] Creating layer relu2
2016-07-20 14:00:24.397 STDERR [INFO] I0720 14:00:24.390331  6646 net.cpp:399] lstm2_cont_slice -> cont_1
2016-07-20 14:00:24.397 STDERR [INFO] I0720 14:00:24.390336  6664 net.cpp:91] Creating Layer relu2
2016-07-20 14:00:24.397 STDERR [INFO] I0720 14:00:24.390342  6664 net.cpp:425] relu2 <- conv2
2016-07-20 14:00:24.398 STDERR [INFO] I0720 14:00:24.390354  6664 net.cpp:386] relu2 -> conv2 (in-place)
2016-07-20 14:00:24.398 STDERR [INFO] I0720 14:00:24.391816  6644 net.cpp:141] Setting up conv2
2016-07-20 14:00:24.398 STDERR [INFO] I0720 14:00:24.391839  6644 net.cpp:148] Top shape: 10 256 27 27 (1866240)
2016-07-20 14:00:24.398 STDERR [INFO] I0720 14:00:24.391844  6644 net.cpp:156] Memory required for data: 42479160
2016-07-20 14:00:24.398 STDERR [INFO] I0720 14:00:24.391858  6644 layer_factory.hpp:77] Creating layer relu2
2016-07-20 14:00:24.398 STDERR [INFO] I0720 14:00:24.391872  6644 net.cpp:91] Creating Layer relu2
2016-07-20 14:00:24.398 STDERR [INFO] I0720 14:00:24.391877  6644 net.cpp:425] relu2 <- conv2
2016-07-20 14:00:24.398 STDERR [INFO] I0720 14:00:24.391893  6644 net.cpp:386] relu2 -> conv2 (in-place)
2016-07-20 14:00:24.398 STDERR [INFO] I0720 14:00:24.393236  6680 net.cpp:141] Setting up norm2
2016-07-20 14:00:24.398 STDERR [INFO] I0720 14:00:24.393260  6680 net.cpp:148] Top shape: 10 256 13 13 (432640)
2016-07-20 14:00:24.399 STDERR [INFO] I0720 14:00:24.393268  6680 net.cpp:156] Memory required for data: 53405240
2016-07-20 14:00:24.399 STDERR [INFO] I0720 14:00:24.393275  6680 layer_factory.hpp:77] Creating layer conv3
2016-07-20 14:00:24.399 STDERR [INFO] I0720 14:00:24.393288  6680 net.cpp:91] Creating Layer conv3
2016-07-20 14:00:24.399 STDERR [INFO] I0720 14:00:24.393295  6680 net.cpp:425] conv3 <- norm2
2016-07-20 14:00:24.399 STDERR [INFO] I0720 14:00:24.393304  6680 net.cpp:399] conv3 -> conv3
2016-07-20 14:00:24.399 STDERR [INFO] I0720 14:00:24.395535  6672 net.cpp:141] Setting up relu2
2016-07-20 14:00:24.399 STDERR [INFO] I0720 14:00:24.395567  6672 net.cpp:148] Top shape: 10 256 27 27 (1866240)
2016-07-20 14:00:24.399 STDERR [INFO] I0720 14:00:24.395576  6672 net.cpp:156] Memory required for data: 49944120
2016-07-20 14:00:24.399 STDERR [INFO] I0720 14:00:24.395587  6672 layer_factory.hpp:77] Creating layer pool2
2016-07-20 14:00:24.399 STDERR [INFO] I0720 14:00:24.395628  6672 net.cpp:91] Creating Layer pool2
2016-07-20 14:00:24.399 STDERR [INFO] I0720 14:00:24.395648  6672 net.cpp:425] pool2 <- conv2
2016-07-20 14:00:24.399 STDERR [INFO] I0720 14:00:24.395664  6672 net.cpp:399] pool2 -> pool2
2016-07-20 14:00:24.399 STDERR [INFO] I0720 14:00:24.395691  6672 net.cpp:141] Setting up pool2
2016-07-20 14:00:24.399 STDERR [INFO] I0720 14:00:24.395705  6672 net.cpp:148] Top shape: 10 256 13 13 (432640)
2016-07-20 14:00:24.399 STDERR [INFO] I0720 14:00:24.395709  6672 net.cpp:156] Memory required for data: 51674680
2016-07-20 14:00:24.400 STDERR [INFO] I0720 14:00:24.395714  6672 layer_factory.hpp:77] Creating layer norm2
2016-07-20 14:00:24.400 n.t.s.f.RefreshingImageFetcher$ImageReader [INFO] [Timing] RequestID: 0 StreamID: home/peifeng/work/data/frame.320x240.jpg SequenceNr: 93 Entering queue: 1469037624400
2016-07-20 14:00:24.400 STDERR [INFO] I0720 14:00:24.395727  6672 net.cpp:91] Creating Layer norm2
2016-07-20 14:00:24.400 STDERR [INFO] I0720 14:00:24.395732  6672 net.cpp:425] norm2 <- pool2
2016-07-20 14:00:24.400 n.t.s.f.RefreshingImageFetcher$ImageReader [INFO] [Timing] RequestID: 0 StreamID: home/peifeng/work/data/frame.320x240.jpg SequenceNr: 94 Entering queue: 1469037624400
2016-07-20 14:00:24.400 STDERR [INFO] I0720 14:00:24.395752  6672 net.cpp:399] norm2 -> norm2
2016-07-20 14:00:24.400 n.t.s.f.RefreshingImageFetcher$ImageReader [INFO] [Timing] RequestID: 0 StreamID: home/peifeng/work/data/frame.320x240.jpg SequenceNr: 95 Entering queue: 1469037624400
2016-07-20 14:00:24.400 STDERR [INFO] I0720 14:00:24.399605  6646 net.cpp:141] Setting up lstm2_cont_slice
2016-07-20 14:00:24.400 STDERR [INFO] I0720 14:00:24.399631  6646 net.cpp:148] Top shape: 1 1 (1)
2016-07-20 14:00:24.400 STDERR [INFO] I0720 14:00:24.399636  6646 net.cpp:156] Memory required for data: 14012
2016-07-20 14:00:24.400 STDERR [INFO] I0720 14:00:24.399641  6646 layer_factory.hpp:77] Creating layer cont_1_lstm2_cont_slice_0_split
2016-07-20 14:00:24.400 STDERR [INFO] I0720 14:00:24.399651  6646 net.cpp:91] Creating Layer cont_1_lstm2_cont_slice_0_split
2016-07-20 14:00:24.400 STDERR [INFO] I0720 14:00:24.399655  6646 net.cpp:425] cont_1_lstm2_cont_slice_0_split <- cont_1
2016-07-20 14:00:24.400 STDERR [INFO] I0720 14:00:24.399667  6646 net.cpp:399] cont_1_lstm2_cont_slice_0_split -> cont_1_lstm2_cont_slice_0_split_0
2016-07-20 14:00:24.400 STDERR [INFO] I0720 14:00:24.399677  6646 net.cpp:399] cont_1_lstm2_cont_slice_0_split -> cont_1_lstm2_cont_slice_0_split_1
2016-07-20 14:00:24.400 STDERR [INFO] I0720 14:00:24.399667  6678 net.cpp:141] Setting up conv2
2016-07-20 14:00:24.400 STDERR [INFO] I0720 14:00:24.399706  6678 net.cpp:148] Top shape: 10 256 27 27 (1866240)
2016-07-20 14:00:24.401 STDERR [INFO] I0720 14:00:24.399713  6678 net.cpp:156] Memory required for data: 42479160
2016-07-20 14:00:24.401 STDERR [INFO] I0720 14:00:24.399730  6678 layer_factory.hpp:77] Creating layer relu2
2016-07-20 14:00:24.401 STDERR [INFO] I0720 14:00:24.399742  6678 net.cpp:91] Creating Layer relu2
2016-07-20 14:00:24.401 STDERR [INFO] I0720 14:00:24.399747  6678 net.cpp:425] relu2 <- conv2
…
2016-07-20 14:00:24.413 STDERR [INFO] I0720 14:00:24.400898  6650 net.cpp:91] Creating Layer input
2016-07-20 14:00:24.413 STDERR [INFO] I0720 14:00:24.400904  6650 net.cpp:399] input -> frames_fc7
2016-07-20 14:00:24.413 STDERR [INFO] I0720 14:00:24.400916  6650 net.cpp:399] input -> cont_sentence
2016-07-20 14:00:24.413 STDERR [INFO] I0720 14:00:24.400926  6650 net.cpp:399] input -> input_sentence
2016-07-20 14:00:24.413 STDERR [INFO] I0720 14:00:24.400935  6650 net.cpp:399] input -> stage_indicator
2016-07-20 14:00:24.413 STDERR [INFO] I0720 14:00:24.401399  6666 net.cpp:141] Setting up relu2
2016-07-20 14:00:24.413 STDERR [INFO] I0720 14:00:24.401417  6666 net.cpp:148] Top shape: 10 256 27 27 (1866240)
2016-07-20 14:00:24.413 STDERR [INFO] I0720 14:00:24.401422  6666 net.cpp:156] Memory required for data: 49944120
2016-07-20 14:00:24.413 STDERR [INFO] I0720 14:00:24.401428  6666 layer_factory.hpp:77] Creating layer pool2
2016-07-20 14:00:24.413 STDERR [INFO] I0720 14:00:24.401459  6674 net.cpp:141] Setting up relu2
2016-07-20 14:00:24.413 STDERR [INFO] I0720 14:00:24.401461  6666 net.cpp:91] Creating Layer pool2
2016-07-20 14:00:24.414 STDERR [INFO] I0720 14:00:24.401479  6674 net.cpp:148] Top shape: 10 256 27 27 (1866240)
2016-07-20 14:00:24.414 STDERR [INFO] I0720 14:00:24.401482  6666 net.cpp:425] pool2 <- conv2
2016-07-20 14:00:24.414 STDERR [INFO] I0720 14:00:24.401485  6674 net.cpp:156] Memory required for data: 49944120
2016-07-20 14:00:24.414 STDERR [INFO] I0720 14:00:24.401491  6674 layer_factory.hpp:77] Creating layer pool2
2016-07-20 14:00:24.414 STDERR [INFO] I0720 14:00:24.401495  6666 net.cpp:399] pool2 -> pool2
2016-07-20 14:00:24.414 STDERR [INFO] I0720 14:00:24.401500  6674 net.cpp:91] Creating Layer pool2
2016-07-20 14:00:24.414 STDERR [INFO] I0720 14:00:24.401505  6674 net.cpp:425] pool2 <- conv2
2016-07-20 14:00:24.414 STDERR [INFO] I0720 14:00:24.401511  6666 net.cpp:141] Setting up pool2
2016-07-20 14:00:24.414 n.t.s.b.CVParticleBolt [INFO] [Timing] RequestID: 0 StreamID: home/peifeng/work/data/frame.320x240.jpg SequenceNr: 95 Leaving scale: 1469037624414 Size: 3530
2016-07-20 14:00:24.414 STDERR [INFO] I0720 14:00:24.401512  6674 net.cpp:399] pool2 -> pool2
2016-07-20 14:00:24.414 STDERR [INFO] I0720 14:00:24.401522  6666 net.cpp:148] Top shape: 10 256 13 13 (432640)
2016-07-20 14:00:24.414 STDERR [INFO] I0720 14:00:24.401526  6666 net.cpp:156] Memory required for data: 51674680
2016-07-20 14:00:24.415 STDERR [INFO] I0720 14:00:24.401530  6666 layer_factory.hpp:77] Creating layer norm2
2016-07-20 14:00:24.415 STDERR [INFO] I0720 14:00:24.401535  6674 net.cpp:141] Setting up pool2
2016-07-20 14:00:24.415 STDERR [INFO] I0720 14:00:24.401542  6674 net.cpp:148] Top shape: 10 256 13 13 (432640)
2016-07-20 14:00:24.415 STDERR [INFO] I0720 14:00:24.401546  6666 net.cpp:91] Creating Layer norm2
2016-07-20 14:00:24.415 STDERR [INFO] I0720 14:00:24.401546  6674 net.cpp:156] Memory required for data: 51674680
2016-07-20 14:00:24.415 STDERR [INFO] I0720 14:00:24.401552  6666 net.cpp:425] norm2 <- pool2
2016-07-20 14:00:24.415 STDERR [INFO] I0720 14:00:24.401556  6674 layer_factory.hpp:77] Creating layer norm2
2016-07-20 14:00:24.415 STDERR [INFO] I0720 14:00:24.401559  6666 net.cpp:399] norm2 -> norm2
2016-07-20 14:00:24.415 STDERR [INFO] I0720 14:00:24.401568  6674 net.cpp:91] Creating Layer norm2
2016-07-20 14:00:24.415 STDERR [INFO] I0720 14:00:24.401572  6674 net.cpp:425] norm2 <- pool2
2016-07-20 14:00:24.415 STDERR [INFO] I0720 14:00:24.401578  6674 net.cpp:399] norm2 -> norm2
2016-07-20 14:00:24.416 STDERR [INFO] I0720 14:00:24.402753  6646 net.cpp:141] Setting up cont_1_lstm2_cont_slice_0_split
2016-07-20 14:00:24.416 STDERR [INFO] I0720 14:00:24.402772  6646 net.cpp:148] Top shape: 1 1 (1)
2016-07-20 14:00:24.416 STDERR [INFO] I0720 14:00:24.402778  6646 net.cpp:148] Top shape: 1 1 (1)
2016-07-20 14:00:24.416 STDERR [INFO] I0720 14:00:24.402782  6646 net.cpp:156] Memory required for data: 14020
2016-07-20 14:00:24.416 STDERR [INFO] I0720 14:00:24.402787  6646 layer_factory.hpp:77] Creating layer lstm2_x_transform
2016-07-20 14:00:24.416 STDERR [INFO] I0720 14:00:24.402803  6646 net.cpp:91] Creating Layer lstm2_x_transform
2016-07-20 14:00:24.416 STDERR [INFO] I0720 14:00:24.402808  6646 net.cpp:425] lstm2_x_transform <- x
2016-07-20 14:00:24.416 STDERR [INFO] I0720 14:00:24.402817  6646 net.cpp:399] lstm2_x_transform -> W_xc_x
2016-07-20 14:00:24.416 STDERR [INFO] I0720 14:00:24.404242  6654 net.cpp:141] Setting up conv3
2016-07-20 14:00:24.416 STDERR [INFO] I0720 14:00:24.404261  6654 net.cpp:148] Top shape: 10 384 13 13 (648960)
2016-07-20 14:00:24.416 STDERR [INFO] I0720 14:00:24.404266  6654 net.cpp:156] Memory required for data: 56001080
2016-07-20 14:00:24.416 STDERR [INFO] I0720 14:00:24.404280  6654 layer_factory.hpp:77] Creating layer relu3
2016-07-20 14:00:24.416 STDERR [INFO] I0720 14:00:24.404295  6654 net.cpp:91] Creating Layer relu3
2016-07-20 14:00:24.416 STDERR [INFO] I0720 14:00:24.404301  6654 net.cpp:425] relu3 <- conv3
2016-07-20 14:00:24.416 STDERR [INFO] I0720 14:00:24.404309  6654 net.cpp:386] relu3 -> conv3 (in-place)
2016-07-20 14:00:24.416 STDERR [INFO] I0720 14:00:24.405484  6654 net.cpp:141] Setting up relu3
2016-07-20 14:00:24.416 STDERR [INFO] I0720 14:00:24.405501  6654 net.cpp:148] Top shape: 10 384 13 13 (648960)
2016-07-20 14:00:24.417 STDERR [INFO] I0720 14:00:24.405506  6654 net.cpp:156] Memory required for data: 58596920
2016-07-20 14:00:24.417 STDERR [INFO] I0720 14:00:24.405511  6654 layer_factory.hpp:77] Creating layer conv4
2016-07-20 14:00:24.417 STDERR [INFO] I0720 14:00:24.405530  6654 net.cpp:91] Creating Layer conv4
2016-07-20 14:00:24.417 STDERR [INFO] I0720 14:00:24.405535  6654 net.cpp:425] conv4 <- conv3
2016-07-20 14:00:24.417 STDERR [INFO] I0720 14:00:24.405545  6654 net.cpp:399] conv4 -> conv4
2016-07-20 14:00:24.417 STDERR [INFO] I0720 14:00:24.409466  6678 net.cpp:141] Setting up relu2
2016-07-20 14:00:24.417 STDERR [INFO] I0720 14:00:24.409498  6678 net.cpp:148] Top shape: 10 256 27 27 (1866240)
2016-07-20 14:00:24.417 STDERR [INFO] I0720 14:00:24.409503  6678 net.cpp:156] Memory required for data: 49944120
2016-07-20 14:00:24.417 STDERR [INFO] I0720 14:00:24.409510  6678 layer_factory.hpp:77] Creating layer pool2
2016-07-20 14:00:24.417 STDERR [INFO] I0720 14:00:24.409528  6678 net.cpp:91] Creating Layer pool2
2016-07-20 14:00:24.417 STDERR [INFO] I0720 14:00:24.409533  6678 net.cpp:425] pool2 <- conv2
2016-07-20 14:00:24.417 STDERR [INFO] I0720 14:00:24.409543  6678 net.cpp:399] pool2 -> pool2
2016-07-20 14:00:24.417 STDERR [INFO] I0720 14:00:24.409559  6678 net.cpp:141] Setting up pool2
2016-07-20 14:00:24.417 STDERR [INFO] I0720 14:00:24.409565  6678 net.cpp:148] Top shape: 10 256 13 13 (432640)
2016-07-20 14:00:24.417 STDERR [INFO] I0720 14:00:24.409571  6678 net.cpp:156] Memory required for data: 51674680
2016-07-20 14:00:24.417 STDERR [INFO] I0720 14:00:24.409580  6678 layer_factory.hpp:77] Creating layer norm2
2016-07-20 14:00:24.417 STDERR [INFO] I0720 14:00:24.410115  6678 net.cpp:91] Creating Layer norm2
2016-07-20 14:00:24.418 STDERR [INFO] I0720 14:00:24.410125  6678 net.cpp:425] norm2 <- pool2
2016-07-20 14:00:24.418 STDERR [INFO] I0720 14:00:24.410140  6678 net.cpp:399] norm2 -> norm2
2016-07-20 14:00:24.418 STDERR [INFO] I0720 14:00:24.411140  6672 net.cpp:141] Setting up norm2
2016-07-20 14:00:24.418 STDERR [INFO] I0720 14:00:24.411156  6672 net.cpp:148] Top shape: 10 256 13 13 (432640)
2016-07-20 14:00:24.418 STDERR [INFO] I0720 14:00:24.411161  6672 net.cpp:156] Memory required for data: 53405240
2016-07-20 14:00:24.418 STDERR [INFO] I0720 14:00:24.411167  6672 layer_factory.hpp:77] Creating layer conv3
2016-07-20 14:00:24.418 STDERR [INFO] I0720 14:00:24.411185  6672 net.cpp:91] Creating Layer conv3
2016-07-20 14:00:24.418 STDERR [INFO] I0720 14:00:24.411191  6672 net.cpp:425] conv3 <- norm2
2016-07-20 14:00:24.418 STDERR [INFO] I0720 14:00:24.411200  6672 net.cpp:399] conv3 -> conv3
2016-07-20 14:00:24.418 STDERR [INFO] I0720 14:00:24.411206  6664 net.cpp:141] Setting up relu2
2016-07-20 14:00:24.418 STDERR [INFO] I0720 14:00:24.411227  6664 net.cpp:148] Top shape: 10 256 27 27 (1866240)
2016-07-20 14:00:24.418 STDERR [INFO] I0720 14:00:24.411234  6664 net.cpp:156] Memory required for data: 49944120
2016-07-20 14:00:24.418 STDERR [INFO] I0720 14:00:24.411240  6664 layer_factory.hpp:77] Creating layer pool2
2016-07-20 14:00:24.418 STDERR [INFO] I0720 14:00:24.411255  6664 net.cpp:91] Creating Layer pool2
2016-07-20 14:00:24.418 STDERR [INFO] I0720 14:00:24.411265  6664 net.cpp:425] pool2 <- conv2
2016-07-20 14:00:24.419 STDERR [INFO] I0720 14:00:24.411278  6664 net.cpp:399] pool2 -> pool2
2016-07-20 14:00:24.419 STDERR [INFO] I0720 14:00:24.411293  6664 net.cpp:141] Setting up pool2
2016-07-20 14:00:24.419 STDERR [INFO] I0720 14:00:24.411300  6664 net.cpp:148] Top shape: 10 256 13 13 (432640)
2016-07-20 14:00:24.419 STDERR [INFO] I0720 14:00:24.411303  6664 net.cpp:156] Memory required for data: 51674680
2016-07-20 14:00:24.419 STDERR [INFO] I0720 14:00:24.411309  6664 layer_factory.hpp:77] Creating layer norm2
2016-07-20 14:00:24.419 STDERR [INFO] I0720 14:00:24.411320  6664 net.cpp:91] Creating Layer norm2
2016-07-20 14:00:24.419 STDERR [INFO] I0720 14:00:24.411324  6664 net.cpp:425] norm2 <- pool2
2016-07-20 14:00:24.419 STDERR [INFO] I0720 14:00:24.411330  6664 net.cpp:399] norm2 -> norm2
2016-07-20 14:00:24.425 STDERR [INFO] I0720 14:00:24.425624  6644 net.cpp:141] Setting up relu2
2016-07-20 14:00:24.425 STDERR [INFO] I0720 14:00:24.425624  6666 net.cpp:141] Setting up norm2
2016-07-20 14:00:24.426 STDERR [INFO] I0720 14:00:24.425669  6644 net.cpp:148] Top shape: 10 256 27 27 (1866240)
2016-07-20 14:00:24.426 STDERR [INFO] I0720 14:00:24.425675  6644 net.cpp:156] Memory required for data: 49944120
2016-07-20 14:00:24.426 STDERR [INFO] I0720 14:00:24.425678  6666 net.cpp:148] Top shape: 10 256 13 13 (432640)
2016-07-20 14:00:24.426 STDERR [INFO] I0720 14:00:24.425684  6644 layer_factory.hpp:77] Creating layer pool2
2016-07-20 14:00:24.426 STDERR [INFO] I0720 14:00:24.425686  6666 net.cpp:156] Memory required for data: 53405240
2016-07-20 14:00:24.426 STDERR [INFO] I0720 14:00:24.425696  6666 layer_factory.hpp:77] Creating layer conv3
2016-07-20 14:00:24.426 STDERR [INFO] I0720 14:00:24.425704  6644 net.cpp:91] Creating Layer pool2
2016-07-20 14:00:24.426 STDERR [INFO] I0720 14:00:24.425711  6644 net.cpp:425] pool2 <- conv2
2016-07-20 14:00:24.426 STDERR [INFO] I0720 14:00:24.425721  6644 net.cpp:399] pool2 -> pool2
2016-07-20 14:00:24.426 STDERR [INFO] I0720 14:00:24.425721  6666 net.cpp:91] Creating Layer conv3
2016-07-20 14:00:24.426 STDERR [INFO] I0720 14:00:24.425732  6666 net.cpp:425] conv3 <- norm2
2016-07-20 14:00:24.426 STDERR [INFO] I0720 14:00:24.425741  6644 net.cpp:141] Setting up pool2
2016-07-20 14:00:24.426 STDERR [INFO] I0720 14:00:24.425745  6666 net.cpp:399] conv3 -> conv3
2016-07-20 14:00:24.426 STDERR [INFO] I0720 14:00:24.425748  6644 net.cpp:148] Top shape: 10 256 13 13 (432640)
2016-07-20 14:00:24.426 STDERR [INFO] I0720 14:00:24.425752  6644 net.cpp:156] Memory required for data: 51674680
2016-07-20 14:00:24.426 STDERR [INFO] I0720 14:00:24.425756  6644 layer_factory.hpp:77] Creating layer norm2
2016-07-20 14:00:24.426 STDERR [INFO] I0720 14:00:24.425770  6644 net.cpp:91] Creating Layer norm2
2016-07-20 14:00:24.427 STDERR [INFO] I0720 14:00:24.425773  6644 net.cpp:425] norm2 <- pool2
2016-07-20 14:00:24.427 STDERR [INFO] I0720 14:00:24.425782  6644 net.cpp:399] norm2 -> norm2
2016-07-20 14:00:24.427 STDERR [INFO] I0720 14:00:24.427346  6674 net.cpp:141] Setting up norm2
2016-07-20 14:00:24.427 STDERR [INFO] I0720 14:00:24.427369  6674 net.cpp:148] Top shape: 10 256 13 13 (432640)
2016-07-20 14:00:24.427 STDERR [INFO] I0720 14:00:24.427374  6674 net.cpp:156] Memory required for data: 53405240
2016-07-20 14:00:24.427 STDERR [INFO] I0720 14:00:24.427381  6674 layer_factory.hpp:77] Creating layer conv3
2016-07-20 14:00:24.427 STDERR [INFO] I0720 14:00:24.427400  6674 net.cpp:91] Creating Layer conv3
2016-07-20 14:00:24.427 STDERR [INFO] I0720 14:00:24.427407  6674 net.cpp:425] conv3 <- norm2
2016-07-20 14:00:24.427 STDERR [INFO] I0720 14:00:24.427414  6674 net.cpp:399] conv3 -> conv3
2016-07-20 14:00:24.430 STDERR [INFO] I0720 14:00:24.430593  6678 net.cpp:141] Setting up norm2
2016-07-20 14:00:24.430 STDERR [INFO] I0720 14:00:24.430636  6678 net.cpp:148] Top shape: 10 256 13 13 (432640)
2016-07-20 14:00:24.430 STDERR [INFO] I0720 14:00:24.430646  6678 net.cpp:156] Memory required for data: 53405240
2016-07-20 14:00:24.431 STDERR [INFO] I0720 14:00:24.430658  6678 layer_factory.hpp:77] Creating layer conv3
2016-07-20 14:00:24.431 STDERR [INFO] I0720 14:00:24.430696  6678 net.cpp:91] Creating Layer conv3
2016-07-20 14:00:24.431 STDERR [INFO] I0720 14:00:24.430711  6678 net.cpp:425] conv3 <- norm2
2016-07-20 14:00:24.431 STDERR [INFO] I0720 14:00:24.430754  6678 net.cpp:399] conv3 -> conv3
2016-07-20 14:00:24.432 STDERR [INFO] I0720 14:00:24.432351  6660 net.cpp:141] Setting up conv3
2016-07-20 14:00:24.432 STDERR [INFO] I0720 14:00:24.432385  6660 net.cpp:148] Top shape: 10 384 13 13 (648960)
2016-07-20 14:00:24.432 STDERR [INFO] I0720 14:00:24.432395  6660 net.cpp:156] Memory required for data: 56001080
2016-07-20 14:00:24.432 STDERR [INFO] I0720 14:00:24.432421  6660 layer_factory.hpp:77] Creating layer relu3
2016-07-20 14:00:24.432 STDERR [INFO] I0720 14:00:24.432440  6660 net.cpp:91] Creating Layer relu3
2016-07-20 14:00:24.432 STDERR [INFO] I0720 14:00:24.432451  6660 net.cpp:425] relu3 <- conv3
2016-07-20 14:00:24.432 STDERR [INFO] I0720 14:00:24.432458  6664 net.cpp:141] Setting up norm2
2016-07-20 14:00:24.432 STDERR [INFO] I0720 14:00:24.432463  6660 net.cpp:386] relu3 -> conv3 (in-place)
2016-07-20 14:00:24.432 STDERR [INFO] I0720 14:00:24.432482  6664 net.cpp:148] Top shape: 10 256 13 13 (432640)
2016-07-20 14:00:24.433 STDERR [INFO] I0720 14:00:24.432487  6664 net.cpp:156] Memory required for data: 53405240
2016-07-20 14:00:24.433 STDERR [INFO] I0720 14:00:24.432495  6664 layer_factory.hpp:77] Creating layer conv3
2016-07-20 14:00:24.433 STDERR [INFO] I0720 14:00:24.432514  6664 net.cpp:91] Creating Layer conv3
2016-07-20 14:00:24.433 STDERR [INFO] I0720 14:00:24.432521  6664 net.cpp:425] conv3 <- norm2
2016-07-20 14:00:24.433 STDERR [INFO] I0720 14:00:24.432545  6664 net.cpp:399] conv3 -> conv3
2016-07-20 14:00:24.436 STDERR [INFO] I0720 14:00:24.436692  6644 net.cpp:141] Setting up norm2
2016-07-20 14:00:24.436 STDERR [INFO] I0720 14:00:24.436720  6644 net.cpp:148] Top shape: 10 256 13 13 (432640)
2016-07-20 14:00:24.437 STDERR [INFO] I0720 14:00:24.436725  6644 net.cpp:156] Memory required for data: 53405240
2016-07-20 14:00:24.437 STDERR [INFO] I0720 14:00:24.436731  6644 layer_factory.hpp:77] Creating layer conv3
2016-07-20 14:00:24.437 STDERR [INFO] I0720 14:00:24.436748  6644 net.cpp:91] Creating Layer conv3
2016-07-20 14:00:24.437 STDERR [INFO] I0720 14:00:24.436755  6644 net.cpp:425] conv3 <- norm2
2016-07-20 14:00:24.437 STDERR [INFO] I0720 14:00:24.436771  6644 net.cpp:399] conv3 -> conv3
2016-07-20 14:00:24.437 STDERR [INFO] I0720 14:00:24.437597  6668 net.cpp:141] Setting up conv3
2016-07-20 14:00:24.437 STDERR [INFO] I0720 14:00:24.437614  6668 net.cpp:148] Top shape: 10 384 13 13 (648960)
2016-07-20 14:00:24.437 STDERR [INFO] I0720 14:00:24.437619  6668 net.cpp:156] Memory required for data: 56001080
2016-07-20 14:00:24.437 STDERR [INFO] I0720 14:00:24.437644  6668 layer_factory.hpp:77] Creating layer relu3
2016-07-20 14:00:24.437 STDERR [INFO] I0720 14:00:24.437672  6668 net.cpp:91] Creating Layer relu3
2016-07-20 14:00:24.437 STDERR [INFO] I0720 14:00:24.437681  6668 net.cpp:425] relu3 <- conv3
2016-07-20 14:00:24.438 STDERR [INFO] I0720 14:00:24.437693  6668 net.cpp:386] relu3 -> conv3 (in-place)
2016-07-20 14:00:24.438 STDERR [INFO] I0720 14:00:24.437891  6680 net.cpp:141] Setting up conv3
2016-07-20 14:00:24.438 STDERR [INFO] I0720 14:00:24.437907  6680 net.cpp:148] Top shape: 10 384 13 13 (648960)
2016-07-20 14:00:24.438 STDERR [INFO] I0720 14:00:24.437912  6680 net.cpp:156] Memory required for data: 56001080
2016-07-20 14:00:24.438 STDERR [INFO] I0720 14:00:24.437925  6680 layer_factory.hpp:77] Creating layer relu3
2016-07-20 14:00:24.438 STDERR [INFO] I0720 14:00:24.437934  6680 net.cpp:91] Creating Layer relu3
2016-07-20 14:00:24.438 STDERR [INFO] I0720 14:00:24.437939  6680 net.cpp:425] relu3 <- conv3
2016-07-20 14:00:24.438 STDERR [INFO] I0720 14:00:24.437948  6680 net.cpp:386] relu3 -> conv3 (in-place)
2016-07-20 14:00:24.443 STDERR [INFO] I0720 14:00:24.443918  6678 net.cpp:141] Setting up conv3
2016-07-20 14:00:24.444 STDERR [INFO] I0720 14:00:24.443939  6678 net.cpp:148] Top shape: 10 384 13 13 (648960)
2016-07-20 14:00:24.444 STDERR [INFO] I0720 14:00:24.443945  6678 net.cpp:156] Memory required for data: 56001080
2016-07-20 14:00:24.444 STDERR [INFO] I0720 14:00:24.443964  6678 layer_factory.hpp:77] Creating layer relu3
2016-07-20 14:00:24.444 STDERR [INFO] I0720 14:00:24.443979  6678 net.cpp:91] Creating Layer relu3
2016-07-20 14:00:24.444 STDERR [INFO] I0720 14:00:24.443986  6678 net.cpp:425] relu3 <- conv3
2016-07-20 14:00:24.444 STDERR [INFO] I0720 14:00:24.444003  6678 net.cpp:386] relu3 -> conv3 (in-place)
2016-07-20 14:00:24.444 STDERR [INFO] I0720 14:00:24.444036  6668 net.cpp:141] Setting up relu3
2016-07-20 14:00:24.444 STDERR [INFO] I0720 14:00:24.444036  6654 net.cpp:141] Setting up conv4
2016-07-20 14:00:24.444 STDERR [INFO] I0720 14:00:24.444053  6668 net.cpp:148] Top shape: 10 384 13 13 (648960)
2016-07-20 14:00:24.444 STDERR [INFO] I0720 14:00:24.444058  6668 net.cpp:156] Memory required for data: 58596920
2016-07-20 14:00:24.444 STDERR [INFO] I0720 14:00:24.444063  6668 layer_factory.hpp:77] Creating layer conv4
2016-07-20 14:00:24.444 STDERR [INFO] I0720 14:00:24.444063  6654 net.cpp:148] Top shape: 10 384 13 13 (648960)
2016-07-20 14:00:24.444 STDERR [INFO] I0720 14:00:24.444073  6654 net.cpp:156] Memory required for data: 61192760
2016-07-20 14:00:24.444 STDERR [INFO] I0720 14:00:24.444080  6668 net.cpp:91] Creating Layer conv4
2016-07-20 14:00:24.445 STDERR [INFO] I0720 14:00:24.444085  6668 net.cpp:425] conv4 <- conv3
2016-07-20 14:00:24.445 STDERR [INFO] I0720 14:00:24.444087  6654 layer_factory.hpp:77] Creating layer relu4
2016-07-20 14:00:24.445 STDERR [INFO] I0720 14:00:24.444100  6668 net.cpp:399] conv4 -> conv4
2016-07-20 14:00:24.445 STDERR [INFO] I0720 14:00:24.444103  6654 net.cpp:91] Creating Layer relu4
2016-07-20 14:00:24.445 STDERR [INFO] I0720 14:00:24.444113  6654 net.cpp:425] relu4 <- conv4
2016-07-20 14:00:24.445 STDERR [INFO] I0720 14:00:24.444124  6654 net.cpp:386] relu4 -> conv4 (in-place)
2016-07-20 14:00:24.445 STDERR [INFO] I0720 14:00:24.444298  6680 net.cpp:141] Setting up relu3
2016-07-20 14:00:24.445 STDERR [INFO] I0720 14:00:24.444316  6680 net.cpp:148] Top shape: 10 384 13 13 (648960)
2016-07-20 14:00:24.445 STDERR [INFO] I0720 14:00:24.444321  6680 net.cpp:156] Memory required for data: 58596920
2016-07-20 14:00:24.445 STDERR [INFO] I0720 14:00:24.444326  6680 layer_factory.hpp:77] Creating layer conv4
2016-07-20 14:00:24.445 STDERR [INFO] I0720 14:00:24.444337  6680 net.cpp:91] Creating Layer conv4
2016-07-20 14:00:24.445 STDERR [INFO] I0720 14:00:24.444341  6680 net.cpp:425] conv4 <- conv3
2016-07-20 14:00:24.445 STDERR [INFO] I0720 14:00:24.444370  6680 net.cpp:399] conv4 -> conv4
2016-07-20 14:00:24.446 STDERR [INFO] I0720 14:00:24.445981  6660 net.cpp:141] Setting up relu3
2016-07-20 14:00:24.446 STDERR [INFO] I0720 14:00:24.445999  6660 net.cpp:148] Top shape: 10 384 13 13 (648960)
2016-07-20 14:00:24.446 STDERR [INFO] I0720 14:00:24.446004  6660 net.cpp:156] Memory required for data: 58596920
2016-07-20 14:00:24.446 STDERR [INFO] I0720 14:00:24.446010  6660 layer_factory.hpp:77] Creating layer conv4
2016-07-20 14:00:24.446 STDERR [INFO] I0720 14:00:24.446038  6660 net.cpp:91] Creating Layer conv4
2016-07-20 14:00:24.446 STDERR [INFO] I0720 14:00:24.446050  6660 net.cpp:425] conv4 <- conv3
2016-07-20 14:00:24.446 STDERR [INFO] I0720 14:00:24.446058  6654 net.cpp:141] Setting up relu4
2016-07-20 14:00:24.446 STDERR [INFO] I0720 14:00:24.446063  6660 net.cpp:399] conv4 -> conv4
2016-07-20 14:00:24.446 STDERR [INFO] I0720 14:00:24.446081  6654 net.cpp:148] Top shape: 10 384 13 13 (648960)
2016-07-20 14:00:24.446 STDERR [INFO] I0720 14:00:24.446080  6672 net.cpp:141] Setting up conv3
2016-07-20 14:00:24.446 STDERR [INFO] I0720 14:00:24.446094  6654 net.cpp:156] Memory required for data: 63788600
2016-07-20 14:00:24.446 STDERR [INFO] I0720 14:00:24.446105  6654 layer_factory.hpp:77] Creating layer conv5
2016-07-20 14:00:24.446 STDERR [INFO] I0720 14:00:24.446105  6672 net.cpp:148] Top shape: 10 384 13 13 (648960)
2016-07-20 14:00:24.447 STDERR [INFO] I0720 14:00:24.446115  6672 net.cpp:156] Memory required for data: 56001080
2016-07-20 14:00:24.447 STDERR [INFO] I0720 14:00:24.446138  6672 layer_factory.hpp:77] Creating layer relu3
2016-07-20 14:00:24.447 STDERR [INFO] I0720 14:00:24.446166  6654 net.cpp:91] Creating Layer conv5
2016-07-20 14:00:24.447 STDERR [INFO] I0720 14:00:24.446173  6672 net.cpp:91] Creating Layer relu3
2016-07-20 14:00:24.447 STDERR [INFO] I0720 14:00:24.446177  6654 net.cpp:425] conv5 <- conv4
2016-07-20 14:00:24.447 STDERR [INFO] I0720 14:00:24.446184  6672 net.cpp:425] relu3 <- conv3
2016-07-20 14:00:24.447 STDERR [INFO] I0720 14:00:24.446190  6654 net.cpp:399] conv5 -> conv5
2016-07-20 14:00:24.447 STDERR [INFO] I0720 14:00:24.446197  6672 net.cpp:386] relu3 -> conv3 (in-place)
2016-07-20 14:00:24.449 STDERR [INFO] I0720 14:00:24.449682  6678 net.cpp:141] Setting up relu3
2016-07-20 14:00:24.449 STDERR [INFO] I0720 14:00:24.449713  6678 net.cpp:148] Top shape: 10 384 13 13 (648960)
2016-07-20 14:00:24.449 STDERR [INFO] I0720 14:00:24.449718  6678 net.cpp:156] Memory required for data: 58596920
2016-07-20 14:00:24.450 STDERR [INFO] I0720 14:00:24.449726  6678 layer_factory.hpp:77] Creating layer conv4
2016-07-20 14:00:24.450 STDERR [INFO] I0720 14:00:24.449760  6678 net.cpp:91] Creating Layer conv4
2016-07-20 14:00:24.450 STDERR [INFO] I0720 14:00:24.449775  6678 net.cpp:425] conv4 <- conv3
2016-07-20 14:00:24.450 STDERR [INFO] I0720 14:00:24.449797  6678 net.cpp:399] conv4 -> conv4
2016-07-20 14:00:24.455 STDERR [INFO] I0720 14:00:24.455765  6672 net.cpp:141] Setting up relu3
2016-07-20 14:00:24.456 STDERR [INFO] I0720 14:00:24.455787  6672 net.cpp:148] Top shape: 10 384 13 13 (648960)
2016-07-20 14:00:24.456 STDERR [INFO] I0720 14:00:24.455793  6672 net.cpp:156] Memory required for data: 58596920
2016-07-20 14:00:24.456 STDERR [INFO] I0720 14:00:24.455803  6672 layer_factory.hpp:77] Creating layer conv4
2016-07-20 14:00:24.456 STDERR [INFO] I0720 14:00:24.455826  6672 net.cpp:91] Creating Layer conv4
2016-07-20 14:00:24.456 STDERR [INFO] I0720 14:00:24.455832  6672 net.cpp:425] conv4 <- conv3
2016-07-20 14:00:24.456 STDERR [INFO] I0720 14:00:24.455839  6672 net.cpp:399] conv4 -> conv4
2016-07-20 14:00:24.456 STDERR [INFO] I0720 14:00:24.456946  6674 net.cpp:141] Setting up conv3
2016-07-20 14:00:24.457 STDERR [INFO] I0720 14:00:24.456969  6674 net.cpp:148] Top shape: 10 384 13 13 (648960)
2016-07-20 14:00:24.457 STDERR [INFO] I0720 14:00:24.456974  6674 net.cpp:156] Memory required for data: 56001080
2016-07-20 14:00:24.457 STDERR [INFO] I0720 14:00:24.456990  6674 layer_factory.hpp:77] Creating layer relu3
2016-07-20 14:00:24.457 STDERR [INFO] I0720 14:00:24.457017  6674 net.cpp:91] Creating Layer relu3
2016-07-20 14:00:24.457 STDERR [INFO] I0720 14:00:24.457026  6674 net.cpp:425] relu3 <- conv3
2016-07-20 14:00:24.457 STDERR [INFO] I0720 14:00:24.457033  6674 net.cpp:386] relu3 -> conv3 (in-place)
2016-07-20 14:00:24.458 STDERR [INFO] I0720 14:00:24.458395  6644 net.cpp:141] Setting up conv3
2016-07-20 14:00:24.458 STDERR [INFO] I0720 14:00:24.458412  6644 net.cpp:148] Top shape: 10 384 13 13 (648960)
2016-07-20 14:00:24.458 STDERR [INFO] I0720 14:00:24.458416  6644 net.cpp:156] Memory required for data: 56001080
2016-07-20 14:00:24.458 STDERR [INFO] I0720 14:00:24.458436  6644 layer_factory.hpp:77] Creating layer relu3
2016-07-20 14:00:24.458 STDERR [INFO] I0720 14:00:24.458446  6644 net.cpp:91] Creating Layer relu3
2016-07-20 14:00:24.458 STDERR [INFO] I0720 14:00:24.458451  6644 net.cpp:425] relu3 <- conv3
2016-07-20 14:00:24.458 STDERR [INFO] I0720 14:00:24.458462  6644 net.cpp:386] relu3 -> conv3 (in-place)
2016-07-20 14:00:24.459 STDERR [INFO] I0720 14:00:24.459321  6666 net.cpp:141] Setting up conv3
2016-07-20 14:00:24.459 STDERR [INFO] I0720 14:00:24.459341  6666 net.cpp:148] Top shape: 10 384 13 13 (648960)
2016-07-20 14:00:24.459 STDERR [INFO] I0720 14:00:24.459347  6666 net.cpp:156] Memory required for data: 56001080
2016-07-20 14:00:24.459 STDERR [INFO] I0720 14:00:24.459364  6666 layer_factory.hpp:77] Creating layer relu3
2016-07-20 14:00:24.459 STDERR [INFO] I0720 14:00:24.459373  6666 net.cpp:91] Creating Layer relu3
2016-07-20 14:00:24.459 STDERR [INFO] I0720 14:00:24.459378  6666 net.cpp:425] relu3 <- conv3
2016-07-20 14:00:24.459 STDERR [INFO] I0720 14:00:24.459388  6666 net.cpp:386] relu3 -> conv3 (in-place)
2016-07-20 14:00:24.461 STDERR [INFO] I0720 14:00:24.461410  6664 net.cpp:141] Setting up conv3
2016-07-20 14:00:24.461 STDERR [INFO] I0720 14:00:24.461429  6664 net.cpp:148] Top shape: 10 384 13 13 (648960)
2016-07-20 14:00:24.461 STDERR [INFO] I0720 14:00:24.461434  6664 net.cpp:156] Memory required for data: 56001080
2016-07-20 14:00:24.461 STDERR [INFO] I0720 14:00:24.461449  6664 layer_factory.hpp:77] Creating layer relu3
2016-07-20 14:00:24.461 STDERR [INFO] I0720 14:00:24.461458  6664 net.cpp:91] Creating Layer relu3
2016-07-20 14:00:24.461 STDERR [INFO] I0720 14:00:24.461463  6664 net.cpp:425] relu3 <- conv3
2016-07-20 14:00:24.461 STDERR [INFO] I0720 14:00:24.461505  6664 net.cpp:386] relu3 -> conv3 (in-place)
2016-07-20 14:00:24.463 STDERR [INFO] I0720 14:00:24.463476  6644 net.cpp:141] Setting up relu3
2016-07-20 14:00:24.463 STDERR [INFO] I0720 14:00:24.463495  6644 net.cpp:148] Top shape: 10 384 13 13 (648960)
2016-07-20 14:00:24.463 STDERR [INFO] I0720 14:00:24.463500  6644 net.cpp:156] Memory required for data: 58596920
2016-07-20 14:00:24.463 STDERR [INFO] I0720 14:00:24.463505  6644 layer_factory.hpp:77] Creating layer conv4
2016-07-20 14:00:24.463 STDERR [INFO] I0720 14:00:24.463518  6644 net.cpp:91] Creating Layer conv4
2016-07-20 14:00:24.463 STDERR [INFO] I0720 14:00:24.463523  6644 net.cpp:425] conv4 <- conv3
2016-07-20 14:00:24.463 STDERR [INFO] I0720 14:00:24.463536  6644 net.cpp:399] conv4 -> conv4
2016-07-20 14:00:24.464 STDERR [INFO] I0720 14:00:24.463989  6666 net.cpp:141] Setting up relu3
2016-07-20 14:00:24.464 STDERR [INFO] I0720 14:00:24.464004  6666 net.cpp:148] Top shape: 10 384 13 13 (648960)
2016-07-20 14:00:24.464 STDERR [INFO] I0720 14:00:24.464009  6666 net.cpp:156] Memory required for data: 58596920
2016-07-20 14:00:24.464 STDERR [INFO] I0720 14:00:24.464013  6666 layer_factory.hpp:77] Creating layer conv4
2016-07-20 14:00:24.464 STDERR [INFO] I0720 14:00:24.464027  6666 net.cpp:91] Creating Layer conv4
2016-07-20 14:00:24.464 STDERR [INFO] I0720 14:00:24.464032  6666 net.cpp:425] conv4 <- conv3
2016-07-20 14:00:24.465 STDERR [INFO] I0720 14:00:24.464042  6666 net.cpp:399] conv4 -> conv4
2016-07-20 14:00:24.465 STDERR [INFO] I0720 14:00:24.465435  6674 net.cpp:141] Setting up relu3
2016-07-20 14:00:24.465 STDERR [INFO] I0720 14:00:24.465461  6674 net.cpp:148] Top shape: 10 384 13 13 (648960)
2016-07-20 14:00:24.465 STDERR [INFO] I0720 14:00:24.465468  6674 net.cpp:156] Memory required for data: 58596920
2016-07-20 14:00:24.465 STDERR [INFO] I0720 14:00:24.465479  6674 layer_factory.hpp:77] Creating layer conv4
2016-07-20 14:00:24.465 STDERR [INFO] I0720 14:00:24.465500  6674 net.cpp:91] Creating Layer conv4
2016-07-20 14:00:24.465 STDERR [INFO] I0720 14:00:24.465512  6674 net.cpp:425] conv4 <- conv3
2016-07-20 14:00:24.465 STDERR [INFO] I0720 14:00:24.465525  6674 net.cpp:399] conv4 -> conv4
2016-07-20 14:00:24.471 STDERR [INFO] I0720 14:00:24.470892  6664 net.cpp:141] Setting up relu3
2016-07-20 14:00:24.471 STDERR [INFO] I0720 14:00:24.470918  6664 net.cpp:148] Top shape: 10 384 13 13 (648960)
2016-07-20 14:00:24.471 STDERR [INFO] I0720 14:00:24.470923  6664 net.cpp:156] Memory required for data: 58596920
2016-07-20 14:00:24.471 STDERR [INFO] I0720 14:00:24.470932  6664 layer_factory.hpp:77] Creating layer conv4
2016-07-20 14:00:24.471 STDERR [INFO] I0720 14:00:24.470955  6664 net.cpp:91] Creating Layer conv4
2016-07-20 14:00:24.471 STDERR [INFO] I0720 14:00:24.470964  6664 net.cpp:425] conv4 <- conv3
2016-07-20 14:00:24.471 STDERR [INFO] I0720 14:00:24.470973  6664 net.cpp:399] conv4 -> conv4
2016-07-20 14:00:24.487 STDERR [INFO] I0720 14:00:24.487746  6646 net.cpp:141] Setting up lstm2_x_transform
2016-07-20 14:00:24.488 STDERR [INFO] I0720 14:00:24.487792  6646 net.cpp:148] Top shape: 1 1 4000 (4000)
2016-07-20 14:00:24.488 STDERR [INFO] I0720 14:00:24.487797  6646 net.cpp:156] Memory required for data: 30020
2016-07-20 14:00:24.488 STDERR [INFO] I0720 14:00:24.487820  6646 layer_factory.hpp:77] Creating layer lstm2_W_xc_x_slice
2016-07-20 14:00:24.488 STDERR [INFO] I0720 14:00:24.487835  6646 net.cpp:91] Creating Layer lstm2_W_xc_x_slice
2016-07-20 14:00:24.488 STDERR [INFO] I0720 14:00:24.487843  6646 net.cpp:425] lstm2_W_xc_x_slice <- W_xc_x
2016-07-20 14:00:24.488 STDERR [INFO] I0720 14:00:24.487851  6646 net.cpp:399] lstm2_W_xc_x_slice -> W_xc_x_1
2016-07-20 14:00:24.494 STDERR [INFO] I0720 14:00:24.494199  6646 net.cpp:141] Setting up lstm2_W_xc_x_slice
2016-07-20 14:00:24.494 STDERR [INFO] I0720 14:00:24.494235  6646 net.cpp:148] Top shape: 1 1 4000 (4000)
2016-07-20 14:00:24.494 STDERR [INFO] I0720 14:00:24.494241  6646 net.cpp:156] Memory required for data: 46020
2016-07-20 14:00:24.494 STDERR [INFO] I0720 14:00:24.494248  6646 layer_factory.hpp:77] Creating layer lstm2_h_conted_0
2016-07-20 14:00:24.494 STDERR [INFO] I0720 14:00:24.494263  6646 net.cpp:91] Creating Layer lstm2_h_conted_0
2016-07-20 14:00:24.494 STDERR [INFO] I0720 14:00:24.494269  6646 net.cpp:425] lstm2_h_conted_0 <- h_0
2016-07-20 14:00:24.494 STDERR [INFO] I0720 14:00:24.494278  6646 net.cpp:425] lstm2_h_conted_0 <- cont_1_lstm2_cont_slice_0_split_0
2016-07-20 14:00:24.494 STDERR [INFO] I0720 14:00:24.494285  6646 net.cpp:399] lstm2_h_conted_0 -> h_conted_0
2016-07-20 14:00:24.496 STDERR [INFO] I0720 14:00:24.495954  6680 net.cpp:141] Setting up conv4
2016-07-20 14:00:24.496 STDERR [INFO] I0720 14:00:24.495990  6680 net.cpp:148] Top shape: 10 384 13 13 (648960)
2016-07-20 14:00:24.496 STDERR [INFO] I0720 14:00:24.495996  6680 net.cpp:156] Memory required for data: 61192760
2016-07-20 14:00:24.496 STDERR [INFO] I0720 14:00:24.496009  6680 layer_factory.hpp:77] Creating layer relu4
2016-07-20 14:00:24.496 STDERR [INFO] I0720 14:00:24.496027  6680 net.cpp:91] Creating Layer relu4
2016-07-20 14:00:24.496 STDERR [INFO] I0720 14:00:24.496036  6680 net.cpp:425] relu4 <- conv4
2016-07-20 14:00:24.496 STDERR [INFO] I0720 14:00:24.496043  6680 net.cpp:386] relu4 -> conv4 (in-place)
2016-07-20 14:00:24.504 STDERR [INFO] I0720 14:00:24.503944  6646 net.cpp:141] Setting up lstm2_h_conted_0
2016-07-20 14:00:24.504 STDERR [INFO] I0720 14:00:24.503995  6646 net.cpp:148] Top shape: 1 1 1000 (1000)
2016-07-20 14:00:24.504 STDERR [INFO] I0720 14:00:24.504004  6646 net.cpp:156] Memory required for data: 50020
2016-07-20 14:00:24.504 STDERR [INFO] I0720 14:00:24.504015  6646 layer_factory.hpp:77] Creating layer lstm2_transform_1
2016-07-20 14:00:24.504 STDERR [INFO] I0720 14:00:24.504045  6646 net.cpp:91] Creating Layer lstm2_transform_1
2016-07-20 14:00:24.504 STDERR [INFO] I0720 14:00:24.504056  6646 net.cpp:425] lstm2_transform_1 <- h_conted_0
2016-07-20 14:00:24.504 STDERR [INFO] I0720 14:00:24.504073  6646 net.cpp:399] lstm2_transform_1 -> W_hc_h_0
2016-07-20 14:00:24.507 STDERR [INFO] I0720 14:00:24.507189  6660 net.cpp:141] Setting up conv4
2016-07-20 14:00:24.507 STDERR [INFO] I0720 14:00:24.507215  6660 net.cpp:148] Top shape: 10 384 13 13 (648960)
2016-07-20 14:00:24.507 STDERR [INFO] I0720 14:00:24.507222  6660 net.cpp:156] Memory required for data: 61192760
2016-07-20 14:00:24.507 STDERR [INFO] I0720 14:00:24.507237  6660 layer_factory.hpp:77] Creating layer relu4
2016-07-20 14:00:24.507 STDERR [INFO] I0720 14:00:24.507247  6660 net.cpp:91] Creating Layer relu4
2016-07-20 14:00:24.507 STDERR [INFO] I0720 14:00:24.507252  6660 net.cpp:425] relu4 <- conv4
2016-07-20 14:00:24.507 STDERR [INFO] I0720 14:00:24.507259  6660 net.cpp:386] relu4 -> conv4 (in-place)
2016-07-20 14:00:24.507 STDERR [INFO] I0720 14:00:24.507342  6668 net.cpp:141] Setting up conv4
2016-07-20 14:00:24.507 STDERR [INFO] I0720 14:00:24.507366  6668 net.cpp:148] Top shape: 10 384 13 13 (648960)
2016-07-20 14:00:24.507 STDERR [INFO] I0720 14:00:24.507376  6668 net.cpp:156] Memory required for data: 61192760
2016-07-20 14:00:24.507 STDERR [INFO] I0720 14:00:24.507390  6668 layer_factory.hpp:77] Creating layer relu4
2016-07-20 14:00:24.507 STDERR [INFO] I0720 14:00:24.507405  6668 net.cpp:91] Creating Layer relu4
2016-07-20 14:00:24.507 STDERR [INFO] I0720 14:00:24.507411  6668 net.cpp:425] relu4 <- conv4
2016-07-20 14:00:24.507 STDERR [INFO] I0720 14:00:24.507418  6668 net.cpp:386] relu4 -> conv4 (in-place)
2016-07-20 14:00:24.507 STDERR [INFO] I0720 14:00:24.507676  6654 net.cpp:141] Setting up conv5
2016-07-20 14:00:24.508 STDERR [INFO] I0720 14:00:24.507694  6654 net.cpp:148] Top shape: 10 256 13 13 (432640)
2016-07-20 14:00:24.508 STDERR [INFO] I0720 14:00:24.507699  6654 net.cpp:156] Memory required for data: 65519160
2016-07-20 14:00:24.508 STDERR [INFO] I0720 14:00:24.507719  6654 layer_factory.hpp:77] Creating layer relu5
2016-07-20 14:00:24.508 STDERR [INFO] I0720 14:00:24.507728  6654 net.cpp:91] Creating Layer relu5
2016-07-20 14:00:24.508 STDERR [INFO] I0720 14:00:24.507733  6654 net.cpp:425] relu5 <- conv5
2016-07-20 14:00:24.508 STDERR [INFO] I0720 14:00:24.507740  6654 net.cpp:386] relu5 -> conv5 (in-place)
2016-07-20 14:00:24.508 STDERR [INFO] I0720 14:00:24.508563  6678 net.cpp:141] Setting up conv4
2016-07-20 14:00:24.508 STDERR [INFO] I0720 14:00:24.508580  6678 net.cpp:148] Top shape: 10 384 13 13 (648960)
2016-07-20 14:00:24.508 STDERR [INFO] I0720 14:00:24.508585  6678 net.cpp:156] Memory required for data: 61192760
2016-07-20 14:00:24.508 STDERR [INFO] I0720 14:00:24.508594  6678 layer_factory.hpp:77] Creating layer relu4
2016-07-20 14:00:24.508 STDERR [INFO] I0720 14:00:24.508604  6678 net.cpp:91] Creating Layer relu4
2016-07-20 14:00:24.508 STDERR [INFO] I0720 14:00:24.508608  6678 net.cpp:425] relu4 <- conv4
2016-07-20 14:00:24.508 STDERR [INFO] I0720 14:00:24.508617  6678 net.cpp:386] relu4 -> conv4 (in-place)
2016-07-20 14:00:24.517 STDERR [INFO] I0720 14:00:24.517361  6680 net.cpp:141] Setting up relu4
2016-07-20 14:00:24.517 STDERR [INFO] I0720 14:00:24.517381  6680 net.cpp:148] Top shape: 10 384 13 13 (648960)
2016-07-20 14:00:24.517 STDERR [INFO] I0720 14:00:24.517387  6680 net.cpp:156] Memory required for data: 63788600
2016-07-20 14:00:24.517 STDERR [INFO] I0720 14:00:24.517393  6680 layer_factory.hpp:77] Creating layer conv5
2016-07-20 14:00:24.517 STDERR [INFO] I0720 14:00:24.517408  6680 net.cpp:91] Creating Layer conv5
2016-07-20 14:00:24.517 STDERR [INFO] I0720 14:00:24.517413  6680 net.cpp:425] conv5 <- conv4
2016-07-20 14:00:24.517 STDERR [INFO] I0720 14:00:24.517421  6680 net.cpp:399] conv5 -> conv5
2016-07-20 14:00:24.530 STDERR [INFO] I0720 14:00:24.530513  6668 net.cpp:141] Setting up relu4
2016-07-20 14:00:24.530 STDERR [INFO] I0720 14:00:24.530537  6668 net.cpp:148] Top shape: 10 384 13 13 (648960)
2016-07-20 14:00:24.530 STDERR [INFO] I0720 14:00:24.530544  6668 net.cpp:156] Memory required for data: 63788600
2016-07-20 14:00:24.530 STDERR [INFO] I0720 14:00:24.530550  6668 layer_factory.hpp:77] Creating layer conv5
2016-07-20 14:00:24.530 STDERR [INFO] I0720 14:00:24.530553  6660 net.cpp:141] Setting up relu4
2016-07-20 14:00:24.530 STDERR [INFO] I0720 14:00:24.530565  6668 net.cpp:91] Creating Layer conv5
2016-07-20 14:00:24.530 STDERR [INFO] I0720 14:00:24.530571  6660 net.cpp:148] Top shape: 10 384 13 13 (648960)
2016-07-20 14:00:24.530 STDERR [INFO] I0720 14:00:24.530571  6668 net.cpp:425] conv5 <- conv4
2016-07-20 14:00:24.531 STDERR [INFO] I0720 14:00:24.530580  6660 net.cpp:156] Memory required for data: 63788600
2016-07-20 14:00:24.531 STDERR [INFO] I0720 14:00:24.530586  6660 layer_factory.hpp:77] Creating layer conv5
2016-07-20 14:00:24.531 STDERR [INFO] I0720 14:00:24.530587  6668 net.cpp:399] conv5 -> conv5
2016-07-20 14:00:24.531 STDERR [INFO] I0720 14:00:24.530599  6660 net.cpp:91] Creating Layer conv5
2016-07-20 14:00:24.531 STDERR [INFO] I0720 14:00:24.530604  6660 net.cpp:425] conv5 <- conv4
2016-07-20 14:00:24.531 STDERR [INFO] I0720 14:00:24.530612  6660 net.cpp:399] conv5 -> conv5
2016-07-20 14:00:24.531 STDERR [INFO] I0720 14:00:24.530679  6654 net.cpp:141] Setting up relu5
2016-07-20 14:00:24.531 STDERR [INFO] I0720 14:00:24.530709  6654 net.cpp:148] Top shape: 10 256 13 13 (432640)
2016-07-20 14:00:24.531 STDERR [INFO] I0720 14:00:24.530717  6654 net.cpp:156] Memory required for data: 67249720
2016-07-20 14:00:24.531 STDERR [INFO] I0720 14:00:24.530726  6654 layer_factory.hpp:77] Creating layer pool5
2016-07-20 14:00:24.531 STDERR [INFO] I0720 14:00:24.530737  6654 net.cpp:91] Creating Layer pool5
2016-07-20 14:00:24.531 STDERR [INFO] I0720 14:00:24.530742  6654 net.cpp:425] pool5 <- conv5
2016-07-20 14:00:24.531 STDERR [INFO] I0720 14:00:24.530757  6654 net.cpp:399] pool5 -> pool5
2016-07-20 14:00:24.531 STDERR [INFO] I0720 14:00:24.530777  6654 net.cpp:141] Setting up pool5
2016-07-20 14:00:24.531 STDERR [INFO] I0720 14:00:24.530791  6654 net.cpp:148] Top shape: 10 256 6 6 (92160)
2016-07-20 14:00:24.531 STDERR [INFO] I0720 14:00:24.530796  6654 net.cpp:156] Memory required for data: 67618360
2016-07-20 14:00:24.531 STDERR [INFO] I0720 14:00:24.530800  6654 layer_factory.hpp:77] Creating layer fc6
2016-07-20 14:00:24.531 STDERR [INFO] I0720 14:00:24.530820  6654 net.cpp:91] Creating Layer fc6
2016-07-20 14:00:24.531 STDERR [INFO] I0720 14:00:24.530827  6654 net.cpp:425] fc6 <- pool5
2016-07-20 14:00:24.531 STDERR [INFO] I0720 14:00:24.530833  6654 net.cpp:399] fc6 -> fc6
2016-07-20 14:00:24.536 STDERR [INFO] I0720 14:00:24.536684  6666 net.cpp:141] Setting up conv4
2016-07-20 14:00:24.537 STDERR [INFO] I0720 14:00:24.536739  6666 net.cpp:148] Top shape: 10 384 13 13 (648960)
2016-07-20 14:00:24.537 STDERR [INFO] I0720 14:00:24.536744  6666 net.cpp:156] Memory required for data: 61192760
2016-07-20 14:00:24.537 STDERR [INFO] I0720 14:00:24.536761  6666 layer_factory.hpp:77] Creating layer relu4
2016-07-20 14:00:24.537 STDERR [INFO] I0720 14:00:24.536777  6666 net.cpp:91] Creating Layer relu4
2016-07-20 14:00:24.537 STDERR [INFO] I0720 14:00:24.536784  6666 net.cpp:425] relu4 <- conv4
2016-07-20 14:00:24.537 STDERR [INFO] I0720 14:00:24.536793  6666 net.cpp:386] relu4 -> conv4 (in-place)
2016-07-20 14:00:24.542 STDERR [INFO] I0720 14:00:24.542383  6674 net.cpp:141] Setting up conv4
2016-07-20 14:00:24.542 STDERR [INFO] I0720 14:00:24.542454  6674 net.cpp:148] Top shape: 10 384 13 13 (648960)
2016-07-20 14:00:24.542 STDERR [INFO] I0720 14:00:24.542467  6674 net.cpp:156] Memory required for data: 61192760
2016-07-20 14:00:24.542 STDERR [INFO] I0720 14:00:24.542493  6674 layer_factory.hpp:77] Creating layer relu4
2016-07-20 14:00:24.543 STDERR [INFO] I0720 14:00:24.542518  6674 net.cpp:91] Creating Layer relu4
2016-07-20 14:00:24.543 STDERR [INFO] I0720 14:00:24.543025  6674 net.cpp:425] relu4 <- conv4
2016-07-20 14:00:24.543 STDERR [INFO] I0720 14:00:24.543057  6674 net.cpp:386] relu4 -> conv4 (in-place)
2016-07-20 14:00:24.544 STDERR [INFO] I0720 14:00:24.544292  6672 net.cpp:141] Setting up conv4
2016-07-20 14:00:24.544 STDERR [INFO] I0720 14:00:24.544319  6672 net.cpp:148] Top shape: 10 384 13 13 (648960)
2016-07-20 14:00:24.544 STDERR [INFO] I0720 14:00:24.544325  6672 net.cpp:156] Memory required for data: 61192760
2016-07-20 14:00:24.544 STDERR [INFO] I0720 14:00:24.544337  6672 layer_factory.hpp:77] Creating layer relu4
2016-07-20 14:00:24.544 STDERR [INFO] I0720 14:00:24.544816  6672 net.cpp:91] Creating Layer relu4
2016-07-20 14:00:24.544 STDERR [INFO] I0720 14:00:24.544834  6672 net.cpp:425] relu4 <- conv4
2016-07-20 14:00:24.544 STDERR [INFO] I0720 14:00:24.544844  6672 net.cpp:386] relu4 -> conv4 (in-place)
2016-07-20 14:00:24.557 STDERR [INFO] I0720 14:00:24.556982  6644 net.cpp:141] Setting up conv4
2016-07-20 14:00:24.557 STDERR [INFO] I0720 14:00:24.557034  6644 net.cpp:148] Top shape: 10 384 13 13 (648960)
2016-07-20 14:00:24.557 STDERR [INFO] I0720 14:00:24.557044  6644 net.cpp:156] Memory required for data: 61192760
2016-07-20 14:00:24.557 STDERR [INFO] I0720 14:00:24.557061  6644 layer_factory.hpp:77] Creating layer relu4
2016-07-20 14:00:24.557 STDERR [INFO] I0720 14:00:24.557078  6644 net.cpp:91] Creating Layer relu4
2016-07-20 14:00:24.557 STDERR [INFO] I0720 14:00:24.557085  6644 net.cpp:425] relu4 <- conv4
2016-07-20 14:00:24.557 STDERR [INFO] I0720 14:00:24.557093  6644 net.cpp:386] relu4 -> conv4 (in-place)
2016-07-20 14:00:24.557 STDERR [INFO] I0720 14:00:24.557595  6678 net.cpp:141] Setting up relu4
2016-07-20 14:00:24.557 STDERR [INFO] I0720 14:00:24.557613  6678 net.cpp:148] Top shape: 10 384 13 13 (648960)
2016-07-20 14:00:24.557 STDERR [INFO] I0720 14:00:24.557618  6678 net.cpp:156] Memory required for data: 63788600
2016-07-20 14:00:24.557 STDERR [INFO] I0720 14:00:24.557624  6678 layer_factory.hpp:77] Creating layer conv5
2016-07-20 14:00:24.557 STDERR [INFO] I0720 14:00:24.557648  6678 net.cpp:91] Creating Layer conv5
2016-07-20 14:00:24.557 STDERR [INFO] I0720 14:00:24.557660  6678 net.cpp:425] conv5 <- conv4
2016-07-20 14:00:24.557 STDERR [INFO] I0720 14:00:24.557674  6678 net.cpp:399] conv5 -> conv5
2016-07-20 14:00:24.557 STDERR [INFO] I0720 14:00:24.557682  6666 net.cpp:141] Setting up relu4
2016-07-20 14:00:24.558 STDERR [INFO] I0720 14:00:24.557698  6666 net.cpp:148] Top shape: 10 384 13 13 (648960)
2016-07-20 14:00:24.558 STDERR [INFO] I0720 14:00:24.557705  6666 net.cpp:156] Memory required for data: 63788600
2016-07-20 14:00:24.558 STDERR [INFO] I0720 14:00:24.557714  6666 layer_factory.hpp:77] Creating layer conv5
2016-07-20 14:00:24.558 STDERR [INFO] I0720 14:00:24.558243  6666 net.cpp:91] Creating Layer conv5
2016-07-20 14:00:24.558 STDERR [INFO] I0720 14:00:24.558266  6666 net.cpp:425] conv5 <- conv4
2016-07-20 14:00:24.558 STDERR [INFO] I0720 14:00:24.558285  6666 net.cpp:399] conv5 -> conv5
2016-07-20 14:00:24.576 STDERR [INFO] I0720 14:00:24.576002  6646 net.cpp:141] Setting up lstm2_transform_1
2016-07-20 14:00:24.576 STDERR [INFO] I0720 14:00:24.576061  6646 net.cpp:148] Top shape: 1 1 4000 (4000)
2016-07-20 14:00:24.576 STDERR [INFO] I0720 14:00:24.576067  6646 net.cpp:156] Memory required for data: 66020
2016-07-20 14:00:24.576 STDERR [INFO] I0720 14:00:24.576091  6646 layer_factory.hpp:77] Creating layer lstm2_gate_input_1
2016-07-20 14:00:24.576 STDERR [INFO] I0720 14:00:24.576110  6646 net.cpp:91] Creating Layer lstm2_gate_input_1
2016-07-20 14:00:24.576 STDERR [INFO] I0720 14:00:24.576117  6646 net.cpp:425] lstm2_gate_input_1 <- W_hc_h_0
2016-07-20 14:00:24.576 STDERR [INFO] I0720 14:00:24.576127  6646 net.cpp:425] lstm2_gate_input_1 <- W_xc_x_1
2016-07-20 14:00:24.576 STDERR [INFO] I0720 14:00:24.576134  6646 net.cpp:399] lstm2_gate_input_1 -> gate_input_1
2016-07-20 14:00:24.576 STDERR [INFO] I0720 14:00:24.576140  6664 net.cpp:141] Setting up conv4
2016-07-20 14:00:24.576 STDERR [INFO] I0720 14:00:24.576184  6664 net.cpp:148] Top shape: 10 384 13 13 (648960)
2016-07-20 14:00:24.576 STDERR [INFO] I0720 14:00:24.576189  6664 net.cpp:156] Memory required for data: 61192760
2016-07-20 14:00:24.576 STDERR [INFO] I0720 14:00:24.576203  6664 layer_factory.hpp:77] Creating layer relu4
2016-07-20 14:00:24.576 STDERR [INFO] I0720 14:00:24.576220  6664 net.cpp:91] Creating Layer relu4
2016-07-20 14:00:24.576 STDERR [INFO] I0720 14:00:24.576227  6664 net.cpp:425] relu4 <- conv4
2016-07-20 14:00:24.577 STDERR [INFO] I0720 14:00:24.576239  6664 net.cpp:386] relu4 -> conv4 (in-place)
2016-07-20 14:00:24.578 STDERR [INFO] I0720 14:00:24.578276  6644 net.cpp:141] Setting up relu4
2016-07-20 14:00:24.578 STDERR [INFO] I0720 14:00:24.578333  6644 net.cpp:148] Top shape: 10 384 13 13 (648960)
2016-07-20 14:00:24.578 STDERR [INFO] I0720 14:00:24.578341  6644 net.cpp:156] Memory required for data: 63788600
2016-07-20 14:00:24.578 STDERR [INFO] I0720 14:00:24.578349  6644 layer_factory.hpp:77] Creating layer conv5
2016-07-20 14:00:24.578 STDERR [INFO] I0720 14:00:24.578372  6644 net.cpp:91] Creating Layer conv5
2016-07-20 14:00:24.579 STDERR [INFO] I0720 14:00:24.578379  6644 net.cpp:425] conv5 <- conv4
2016-07-20 14:00:24.579 STDERR [INFO] I0720 14:00:24.578394  6644 net.cpp:399] conv5 -> conv5
2016-07-20 14:00:24.582 STDERR [INFO] I0720 14:00:24.581950  6646 net.cpp:141] Setting up lstm2_gate_input_1
2016-07-20 14:00:24.582 STDERR [INFO] I0720 14:00:24.581976  6646 net.cpp:148] Top shape: 1 1 4000 (4000)
2016-07-20 14:00:24.582 STDERR [INFO] I0720 14:00:24.581981  6646 net.cpp:156] Memory required for data: 82020
2016-07-20 14:00:24.582 STDERR [INFO] I0720 14:00:24.581987  6646 layer_factory.hpp:77] Creating layer lstm2_unit_1
2016-07-20 14:00:24.582 STDERR [INFO] I0720 14:00:24.581996  6646 net.cpp:91] Creating Layer lstm2_unit_1
2016-07-20 14:00:24.582 STDERR [INFO] I0720 14:00:24.582001  6646 net.cpp:425] lstm2_unit_1 <- c_0
2016-07-20 14:00:24.582 STDERR [INFO] I0720 14:00:24.582007  6646 net.cpp:425] lstm2_unit_1 <- gate_input_1
2016-07-20 14:00:24.582 STDERR [INFO] I0720 14:00:24.582013  6646 net.cpp:425] lstm2_unit_1 <- cont_1_lstm2_cont_slice_0_split_1
2016-07-20 14:00:24.582 STDERR [INFO] I0720 14:00:24.582020  6646 net.cpp:399] lstm2_unit_1 -> c_1
2016-07-20 14:00:24.582 STDERR [INFO] I0720 14:00:24.582029  6646 net.cpp:399] lstm2_unit_1 -> h_1
2016-07-20 14:00:24.584 STDERR [INFO] I0720 14:00:24.584219  6672 net.cpp:141] Setting up relu4
2016-07-20 14:00:24.584 STDERR [INFO] I0720 14:00:24.584261  6672 net.cpp:148] Top shape: 10 384 13 13 (648960)
2016-07-20 14:00:24.584 STDERR [INFO] I0720 14:00:24.584270  6672 net.cpp:156] Memory required for data: 63788600
2016-07-20 14:00:24.584 STDERR [INFO] I0720 14:00:24.584281  6672 layer_factory.hpp:77] Creating layer conv5
2016-07-20 14:00:24.584 STDERR [INFO] I0720 14:00:24.584306  6672 net.cpp:91] Creating Layer conv5
2016-07-20 14:00:24.584 STDERR [INFO] I0720 14:00:24.584314  6672 net.cpp:425] conv5 <- conv4
2016-07-20 14:00:24.584 STDERR [INFO] I0720 14:00:24.584324  6672 net.cpp:399] conv5 -> conv5
2016-07-20 14:00:24.587 STDERR [INFO] I0720 14:00:24.587610  6646 net.cpp:141] Setting up lstm2_unit_1
2016-07-20 14:00:24.587 STDERR [INFO] I0720 14:00:24.587643  6646 net.cpp:148] Top shape: 1 1 1000 (1000)
2016-07-20 14:00:24.587 STDERR [INFO] I0720 14:00:24.587651  6646 net.cpp:148] Top shape: 1 1 1000 (1000)
2016-07-20 14:00:24.588 STDERR [INFO] I0720 14:00:24.587654  6646 net.cpp:156] Memory required for data: 90020
2016-07-20 14:00:24.588 STDERR [INFO] I0720 14:00:24.587661  6646 layer_factory.hpp:77] Creating layer lstm2_
2016-07-20 14:00:24.588 STDERR [INFO] I0720 14:00:24.587674  6646 net.cpp:91] Creating Layer lstm2_
2016-07-20 14:00:24.588 STDERR [INFO] I0720 14:00:24.587679  6646 net.cpp:425] lstm2_ <- c_1
2016-07-20 14:00:24.588 STDERR [INFO] I0720 14:00:24.587689  6646 net.cpp:399] lstm2_ -> c_T
2016-07-20 14:00:24.591 STDERR [INFO] I0720 14:00:24.591588  6674 net.cpp:141] Setting up relu4
2016-07-20 14:00:24.591 STDERR [INFO] I0720 14:00:24.591651  6674 net.cpp:148] Top shape: 10 384 13 13 (648960)
2016-07-20 14:00:24.592 STDERR [INFO] I0720 14:00:24.591667  6674 net.cpp:156] Memory required for data: 63788600
2016-07-20 14:00:24.592 STDERR [INFO] I0720 14:00:24.591686  6674 layer_factory.hpp:77] Creating layer conv5
2016-07-20 14:00:24.592 STDERR [INFO] I0720 14:00:24.591749  6674 net.cpp:91] Creating Layer conv5
2016-07-20 14:00:24.592 STDERR [INFO] I0720 14:00:24.591770  6674 net.cpp:425] conv5 <- conv4
2016-07-20 14:00:24.592 STDERR [INFO] I0720 14:00:24.591802  6674 net.cpp:399] conv5 -> conv5
2016-07-20 14:00:24.595 STDERR [INFO] I0720 14:00:24.594985  6654 net.cpp:141] Setting up fc6
2016-07-20 14:00:24.595 STDERR [INFO] I0720 14:00:24.595032  6654 net.cpp:148] Top shape: 10 4096 (40960)
2016-07-20 14:00:24.595 STDERR [INFO] I0720 14:00:24.595042  6654 net.cpp:156] Memory required for data: 67782200
2016-07-20 14:00:24.595 STDERR [INFO] I0720 14:00:24.595065  6654 layer_factory.hpp:77] Creating layer relu6
2016-07-20 14:00:24.595 STDERR [INFO] I0720 14:00:24.595087  6654 net.cpp:91] Creating Layer relu6
2016-07-20 14:00:24.595 STDERR [INFO] I0720 14:00:24.595096  6654 net.cpp:425] relu6 <- fc6
2016-07-20 14:00:24.595 STDERR [INFO] I0720 14:00:24.595119  6654 net.cpp:386] relu6 -> fc6 (in-place)
2016-07-20 14:00:24.599 STDERR [INFO] I0720 14:00:24.598963  6646 net.cpp:141] Setting up lstm2_
2016-07-20 14:00:24.599 STDERR [INFO] I0720 14:00:24.599002  6646 net.cpp:148] Top shape: 1 1 1000 (1000)
2016-07-20 14:00:24.599 STDERR [INFO] I0720 14:00:24.599009  6646 net.cpp:156] Memory required for data: 94020
2016-07-20 14:00:24.599 STDERR [INFO] I0720 14:00:24.599015  6646 layer_factory.hpp:77] Creating layer lstm2_h_concat
2016-07-20 14:00:24.599 STDERR [INFO] I0720 14:00:24.599032  6646 net.cpp:91] Creating Layer lstm2_h_concat
2016-07-20 14:00:24.599 STDERR [INFO] I0720 14:00:24.599040  6646 net.cpp:425] lstm2_h_concat <- h_1
2016-07-20 14:00:24.599 STDERR [INFO] I0720 14:00:24.599050  6646 net.cpp:399] lstm2_h_concat -> h
2016-07-20 14:00:24.599 STDERR [INFO] I0720 14:00:24.599177  6664 net.cpp:141] Setting up relu4
2016-07-20 14:00:24.599 STDERR [INFO] I0720 14:00:24.599200  6664 net.cpp:148] Top shape: 10 384 13 13 (648960)
2016-07-20 14:00:24.599 STDERR [INFO] I0720 14:00:24.599205  6664 net.cpp:156] Memory required for data: 63788600
2016-07-20 14:00:24.599 STDERR [INFO] I0720 14:00:24.599210  6664 layer_factory.hpp:77] Creating layer conv5
2016-07-20 14:00:24.599 STDERR [INFO] I0720 14:00:24.599225  6664 net.cpp:91] Creating Layer conv5
2016-07-20 14:00:24.599 STDERR [INFO] I0720 14:00:24.599234  6664 net.cpp:425] conv5 <- conv4
2016-07-20 14:00:24.599 STDERR [INFO] I0720 14:00:24.599249  6664 net.cpp:399] conv5 -> conv5
2016-07-20 14:00:24.599 STDERR [INFO] I0720 14:00:24.599520  6646 net.cpp:141] Setting up lstm2_h_concat
2016-07-20 14:00:24.599 STDERR [INFO] I0720 14:00:24.599534  6646 net.cpp:148] Top shape: 1 1 1000 (1000)
2016-07-20 14:00:24.599 STDERR [INFO] I0720 14:00:24.599539  6646 net.cpp:156] Memory required for data: 98020
2016-07-20 14:00:24.599 STDERR [INFO] I0720 14:00:24.599542  6646 layer_factory.hpp:77] Creating layer h_pseudoloss
2016-07-20 14:00:24.599 STDERR [INFO] I0720 14:00:24.599551  6646 net.cpp:91] Creating Layer h_pseudoloss
2016-07-20 14:00:24.599 STDERR [INFO] I0720 14:00:24.599556  6646 net.cpp:425] h_pseudoloss <- h
2016-07-20 14:00:24.600 n.t.s.f.RefreshingImageFetcher$ImageReader [INFO] [Timing] RequestID: 0 StreamID: home/peifeng/work/data/frame.320x240.jpg SequenceNr: 96 Entering queue: 1469037624600
2016-07-20 14:00:24.600 n.t.s.f.RefreshingImageFetcher$ImageReader [INFO] [Timing] RequestID: 0 StreamID: home/peifeng/work/data/frame.320x240.jpg SequenceNr: 97 Entering queue: 1469037624600
2016-07-20 14:00:24.600 n.t.s.f.RefreshingImageFetcher$ImageReader [INFO] [Timing] RequestID: 0 StreamID: home/peifeng/work/data/frame.320x240.jpg SequenceNr: 98 Entering queue: 1469037624600
2016-07-20 14:00:24.600 STDERR [INFO] I0720 14:00:24.599562  6646 net.cpp:399] h_pseudoloss -> h_pseudoloss
2016-07-20 14:00:24.601 STDERR [INFO] I0720 14:00:24.601455  6654 net.cpp:141] Setting up relu6
2016-07-20 14:00:24.601 STDERR [INFO] I0720 14:00:24.601478  6654 net.cpp:148] Top shape: 10 4096 (40960)
2016-07-20 14:00:24.601 STDERR [INFO] I0720 14:00:24.601483  6654 net.cpp:156] Memory required for data: 67946040
2016-07-20 14:00:24.601 STDERR [INFO] I0720 14:00:24.601490  6654 layer_factory.hpp:77] Creating layer drop6
2016-07-20 14:00:24.601 STDERR [INFO] I0720 14:00:24.601500  6654 net.cpp:91] Creating Layer drop6
2016-07-20 14:00:24.601 STDERR [INFO] I0720 14:00:24.601506  6654 net.cpp:425] drop6 <- fc6
2016-07-20 14:00:24.601 STDERR [INFO] I0720 14:00:24.601516  6654 net.cpp:386] drop6 -> fc6 (in-place)
2016-07-20 14:00:24.601 STDERR [INFO] I0720 14:00:24.601538  6654 net.cpp:141] Setting up drop6
2016-07-20 14:00:24.601 STDERR [INFO] I0720 14:00:24.601544  6654 net.cpp:148] Top shape: 10 4096 (40960)
2016-07-20 14:00:24.602 STDERR [INFO] I0720 14:00:24.601548  6654 net.cpp:156] Memory required for data: 68109880
2016-07-20 14:00:24.602 STDERR [INFO] I0720 14:00:24.601553  6654 layer_factory.hpp:77] Creating layer fc7
2016-07-20 14:00:24.602 STDERR [INFO] I0720 14:00:24.601563  6654 net.cpp:91] Creating Layer fc7
2016-07-20 14:00:24.602 STDERR [INFO] I0720 14:00:24.601568  6654 net.cpp:425] fc7 <- fc6
…
2016-07-20 14:00:24.638 STDERR [INFO] I0720 14:00:24.637620  6646 recurrent_layer.cpp:150] Adding parameter 2: W_hc
2016-07-20 14:00:24.640 n.t.s.b.CVParticleBolt [INFO] [Timing] RequestID: 0 StreamID: home/peifeng/work/data/frame.320x240.jpg SequenceNr: 97 Leaving scale: 1469037624640 Size: 3530
2016-07-20 14:00:24.643 n.t.s.b.CVParticleBolt [INFO] [Timing] RequestID: 0 StreamID: home/peifeng/work/data/frame.320x240.jpg SequenceNr: 98 Leaving scale: 1469037624643 Size: 3530
2016-07-20 14:00:24.644 STDERR [INFO] I0720 14:00:24.644381  6654 net.cpp:141] Setting up relu7
2016-07-20 14:00:24.644 STDERR [INFO] I0720 14:00:24.644428  6654 net.cpp:148] Top shape: 10 4096 (40960)
2016-07-20 14:00:24.644 STDERR [INFO] I0720 14:00:24.644438  6654 net.cpp:156] Memory required for data: 68437560
2016-07-20 14:00:24.644 STDERR [INFO] I0720 14:00:24.644451  6654 layer_factory.hpp:77] Creating layer drop7
2016-07-20 14:00:24.644 STDERR [INFO] I0720 14:00:24.644474  6654 net.cpp:91] Creating Layer drop7
2016-07-20 14:00:24.644 STDERR [INFO] I0720 14:00:24.644485  6654 net.cpp:425] drop7 <- fc7
2016-07-20 14:00:24.644 STDERR [INFO] I0720 14:00:24.644503  6654 net.cpp:386] drop7 -> fc7 (in-place)
2016-07-20 14:00:24.644 STDERR [INFO] I0720 14:00:24.644527  6654 net.cpp:141] Setting up drop7
2016-07-20 14:00:24.645 STDERR [INFO] I0720 14:00:24.644536  6654 net.cpp:148] Top shape: 10 4096 (40960)
2016-07-20 14:00:24.645 STDERR [INFO] I0720 14:00:24.644539  6654 net.cpp:156] Memory required for data: 68601400
2016-07-20 14:00:24.645 STDERR [INFO] I0720 14:00:24.644544  6654 layer_factory.hpp:77] Creating layer fc8
2016-07-20 14:00:24.645 STDERR [INFO] I0720 14:00:24.644556  6654 net.cpp:91] Creating Layer fc8
2016-07-20 14:00:24.645 STDERR [INFO] I0720 14:00:24.644561  6654 net.cpp:425] fc8 <- fc7
2016-07-20 14:00:24.645 STDERR [INFO] I0720 14:00:24.644567  6654 net.cpp:399] fc8 -> fc8
2016-07-20 14:00:24.652 STDERR [INFO] I0720 14:00:24.652784  6654 net.cpp:141] Setting up fc8
2016-07-20 14:00:24.653 STDERR [INFO] I0720 14:00:24.652828  6654 net.cpp:148] Top shape: 10 1000 (10000)
2016-07-20 14:00:24.653 STDERR [INFO] I0720 14:00:24.652834  6654 net.cpp:156] Memory required for data: 68641400
2016-07-20 14:00:24.653 STDERR [INFO] I0720 14:00:24.652849  6654 layer_factory.hpp:77] Creating layer prob
2016-07-20 14:00:24.653 STDERR [INFO] I0720 14:00:24.652868  6654 net.cpp:91] Creating Layer prob
2016-07-20 14:00:24.653 STDERR [INFO] I0720 14:00:24.652873  6654 net.cpp:425] prob <- fc8
2016-07-20 14:00:24.653 STDERR [INFO] I0720 14:00:24.652882  6654 net.cpp:399] prob -> prob
2016-07-20 14:00:24.655 STDERR [INFO] I0720 14:00:24.655328  6646 net.cpp:141] Setting up lstm2
2016-07-20 14:00:24.655 STDERR [INFO] I0720 14:00:24.655364  6646 net.cpp:148] Top shape: 1 1 1000 (1000)
2016-07-20 14:00:24.655 STDERR [INFO] I0720 14:00:24.655370  6646 net.cpp:156] Memory required for data: 36412
2016-07-20 14:00:24.655 STDERR [INFO] I0720 14:00:24.655390  6646 layer_factory.hpp:77] Creating layer predict
2016-07-20 14:00:24.655 STDERR [INFO] I0720 14:00:24.655407  6646 net.cpp:91] Creating Layer predict
2016-07-20 14:00:24.655 STDERR [INFO] I0720 14:00:24.655413  6646 net.cpp:425] predict <- lstm2
2016-07-20 14:00:24.655 STDERR [INFO] I0720 14:00:24.655422  6646 net.cpp:399] predict -> predict
2016-07-20 14:00:24.659 STDERR [INFO] I0720 14:00:24.659626  6654 net.cpp:141] Setting up prob
2016-07-20 14:00:24.659 STDERR [INFO] I0720 14:00:24.659680  6654 net.cpp:148] Top shape: 10 1000 (10000)
2016-07-20 14:00:24.659 STDERR [INFO] I0720 14:00:24.659689  6654 net.cpp:156] Memory required for data: 68681400
2016-07-20 14:00:24.659 STDERR [INFO] I0720 14:00:24.659698  6654 net.cpp:219] prob does not need backward computation.
2016-07-20 14:00:24.660 STDERR [INFO] I0720 14:00:24.659703  6654 net.cpp:219] fc8 does not need backward computation.
2016-07-20 14:00:24.660 STDERR [INFO] I0720 14:00:24.659708  6654 net.cpp:219] drop7 does not need backward computation.
…
2016-07-20 14:00:24.660 STDERR [INFO] I0720 14:00:24.659788  6654 net.cpp:219] conv1 does not need backward computation.
2016-07-20 14:00:24.660 STDERR [INFO] I0720 14:00:24.659793  6654 net.cpp:219] data does not need backward computation.
2016-07-20 14:00:24.660 STDERR [INFO] I0720 14:00:24.659796  6654 net.cpp:261] This network produces output prob
2016-07-20 14:00:24.660 STDERR [INFO] I0720 14:00:24.659826  6654 net.cpp:274] Network initialization done.
2016-07-20 14:00:24.661 STDERR [INFO] I0720 14:00:24.661557  6680 net.cpp:141] Setting up conv5
2016-07-20 14:00:24.661 STDERR [INFO] I0720 14:00:24.661589  6680 net.cpp:148] Top shape: 10 256 13 13 (432640)
2016-07-20 14:00:24.661 STDERR [INFO] I0720 14:00:24.661599  6680 net.cpp:156] Memory required for data: 65519160
2016-07-20 14:00:24.661 STDERR [INFO] I0720 14:00:24.661625  6680 layer_factory.hpp:77] Creating layer relu5
2016-07-20 14:00:24.661 STDERR [INFO] I0720 14:00:24.661664  6680 net.cpp:91] Creating Layer relu5
2016-07-20 14:00:24.661 STDERR [INFO] I0720 14:00:24.661677  6680 net.cpp:425] relu5 <- conv5
2016-07-20 14:00:24.661 STDERR [INFO] I0720 14:00:24.661690  6680 net.cpp:386] relu5 -> conv5 (in-place)
2016-07-20 14:00:24.755 STDERR [INFO] I0720 14:00:24.755637  6668 net.cpp:141] Setting up conv5
2016-07-20 14:00:24.756 STDERR [INFO] I0720 14:00:24.755692  6668 net.cpp:148] Top shape: 10 256 13 13 (432640)
2016-07-20 14:00:24.756 STDERR [INFO] I0720 14:00:24.755697  6668 net.cpp:156] Memory required for data: 65519160
2016-07-20 14:00:24.756 STDERR [INFO] I0720 14:00:24.755725  6668 layer_factory.hpp:77] Creating layer relu5
2016-07-20 14:00:24.756 STDERR [INFO] I0720 14:00:24.755743  6668 net.cpp:91] Creating Layer relu5
2016-07-20 14:00:24.756 STDERR [INFO] I0720 14:00:24.755749  6668 net.cpp:425] relu5 <- conv5
2016-07-20 14:00:24.756 STDERR [INFO] I0720 14:00:24.755760  6668 net.cpp:386] relu5 -> conv5 (in-place)
2016-07-20 14:00:24.757 STDERR [INFO] I0720 14:00:24.757664  6678 net.cpp:141] Setting up conv5
2016-07-20 14:00:24.758 STDERR [INFO] I0720 14:00:24.757716  6678 net.cpp:148] Top shape: 10 256 13 13 (432640)
2016-07-20 14:00:24.758 STDERR [INFO] I0720 14:00:24.757725  6678 net.cpp:156] Memory required for data: 65519160
2016-07-20 14:00:24.758 STDERR [INFO] I0720 14:00:24.757763  6678 layer_factory.hpp:77] Creating layer relu5
2016-07-20 14:00:24.758 STDERR [INFO] I0720 14:00:24.757789  6678 net.cpp:91] Creating Layer relu5
2016-07-20 14:00:24.758 STDERR [INFO] I0720 14:00:24.757800  6678 net.cpp:425] relu5 <- conv5
2016-07-20 14:00:24.758 STDERR [INFO] I0720 14:00:24.757814  6678 net.cpp:386] relu5 -> conv5 (in-place)
2016-07-20 14:00:24.763 STDERR [INFO] I0720 14:00:24.762902  6680 net.cpp:141] Setting up relu5
2016-07-20 14:00:24.763 STDERR [INFO] I0720 14:00:24.762945  6680 net.cpp:148] Top shape: 10 256 13 13 (432640)
2016-07-20 14:00:24.763 STDERR [INFO] I0720 14:00:24.762951  6680 net.cpp:156] Memory required for data: 67249720
2016-07-20 14:00:24.763 STDERR [INFO] I0720 14:00:24.762960  6680 layer_factory.hpp:77] Creating layer pool5
2016-07-20 14:00:24.763 STDERR [INFO] I0720 14:00:24.762982  6680 net.cpp:91] Creating Layer pool5
2016-07-20 14:00:24.763 STDERR [INFO] I0720 14:00:24.762989  6680 net.cpp:425] pool5 <- conv5
2016-07-20 14:00:24.763 STDERR [INFO] I0720 14:00:24.763002  6680 net.cpp:399] pool5 -> pool5
2016-07-20 14:00:24.763 STDERR [INFO] I0720 14:00:24.763022  6680 net.cpp:141] Setting up pool5
2016-07-20 14:00:24.763 STDERR [INFO] I0720 14:00:24.763030  6680 net.cpp:148] Top shape: 10 256 6 6 (92160)
2016-07-20 14:00:24.763 STDERR [INFO] I0720 14:00:24.763036  6680 net.cpp:156] Memory required for data: 67618360
2016-07-20 14:00:24.763 STDERR [INFO] I0720 14:00:24.763043  6680 layer_factory.hpp:77] Creating layer fc6
2016-07-20 14:00:24.763 STDERR [INFO] I0720 14:00:24.763062  6680 net.cpp:91] Creating Layer fc6
2016-07-20 14:00:24.763 STDERR [INFO] I0720 14:00:24.763070  6680 net.cpp:425] fc6 <- pool5
2016-07-20 14:00:24.763 STDERR [INFO] I0720 14:00:24.763077  6668 net.cpp:141] Setting up relu5
2016-07-20 14:00:24.763 STDERR [INFO] I0720 14:00:24.763095  6680 net.cpp:399] fc6 -> fc6
2016-07-20 14:00:24.763 STDERR [INFO] I0720 14:00:24.763115  6668 net.cpp:148] Top shape: 10 256 13 13 (432640)
2016-07-20 14:00:24.763 STDERR [INFO] I0720 14:00:24.763123  6668 net.cpp:156] Memory required for data: 67249720
2016-07-20 14:00:24.763 STDERR [INFO] I0720 14:00:24.763130  6668 layer_factory.hpp:77] Creating layer pool5
2016-07-20 14:00:24.764 STDERR [INFO] I0720 14:00:24.763152  6660 net.cpp:141] Setting up conv5
2016-07-20 14:00:24.764 STDERR [INFO] I0720 14:00:24.763166  6668 net.cpp:91] Creating Layer pool5
2016-07-20 14:00:24.764 STDERR [INFO] I0720 14:00:24.763177  6668 net.cpp:425] pool5 <- conv5
2016-07-20 14:00:24.764 STDERR [INFO] I0720 14:00:24.763176  6660 net.cpp:148] Top shape: 10 256 13 13 (432640)
2016-07-20 14:00:24.764 STDERR [INFO] I0720 14:00:24.763188  6668 net.cpp:399] pool5 -> pool5
2016-07-20 14:00:24.764 STDERR [INFO] I0720 14:00:24.763188  6660 net.cpp:156] Memory required for data: 65519160
2016-07-20 14:00:24.764 STDERR [INFO] I0720 14:00:24.763216  6660 layer_factory.hpp:77] Creating layer relu5
2016-07-20 14:00:24.764 STDERR [INFO] I0720 14:00:24.763231  6660 net.cpp:91] Creating Layer relu5
2016-07-20 14:00:24.764 STDERR [INFO] I0720 14:00:24.763239  6660 net.cpp:425] relu5 <- conv5
2016-07-20 14:00:24.764 STDERR [INFO] I0720 14:00:24.763705  6668 net.cpp:141] Setting up pool5
2016-07-20 14:00:24.764 STDERR [INFO] I0720 14:00:24.763715  6668 net.cpp:148] Top shape: 10 256 6 6 (92160)
2016-07-20 14:00:24.764 STDERR [INFO] I0720 14:00:24.763720  6668 net.cpp:156] Memory required for data: 67618360
2016-07-20 14:00:24.764 STDERR [INFO] I0720 14:00:24.763725  6668 layer_factory.hpp:77] Creating layer fc6
2016-07-20 14:00:24.764 STDERR [INFO] I0720 14:00:24.763738  6668 net.cpp:91] Creating Layer fc6
2016-07-20 14:00:24.764 STDERR [INFO] I0720 14:00:24.763742  6668 net.cpp:425] fc6 <- pool5
2016-07-20 14:00:24.764 STDERR [INFO] I0720 14:00:24.764226  6668 net.cpp:399] fc6 -> fc6
2016-07-20 14:00:24.764 STDERR [INFO] I0720 14:00:24.764235  6660 net.cpp:386] relu5 -> conv5 (in-place)
2016-07-20 14:00:24.769 STDERR [INFO] I0720 14:00:24.769582  6678 net.cpp:141] Setting up relu5
2016-07-20 14:00:24.769 STDERR [INFO] I0720 14:00:24.769650  6678 net.cpp:148] Top shape: 10 256 13 13 (432640)
2016-07-20 14:00:24.770 STDERR [INFO] I0720 14:00:24.769661  6678 net.cpp:156] Memory required for data: 67249720
2016-07-20 14:00:24.770 STDERR [INFO] I0720 14:00:24.769678  6678 layer_factory.hpp:77] Creating layer pool5
2016-07-20 14:00:24.770 STDERR [INFO] I0720 14:00:24.770658  6678 net.cpp:91] Creating Layer pool5
2016-07-20 14:00:24.770 STDERR [INFO] I0720 14:00:24.770705  6678 net.cpp:425] pool5 <- conv5
2016-07-20 14:00:24.770 STDERR [INFO] I0720 14:00:24.770728  6678 net.cpp:399] pool5 -> pool5
2016-07-20 14:00:24.770 STDERR [INFO] I0720 14:00:24.770761  6678 net.cpp:141] Setting up pool5
2016-07-20 14:00:24.770 STDERR [INFO] I0720 14:00:24.770776  6678 net.cpp:148] Top shape: 10 256 6 6 (92160)
2016-07-20 14:00:24.770 STDERR [INFO] I0720 14:00:24.770787  6678 net.cpp:156] Memory required for data: 67618360
2016-07-20 14:00:24.770 STDERR [INFO] I0720 14:00:24.770795  6678 layer_factory.hpp:77] Creating layer fc6
2016-07-20 14:00:24.771 STDERR [INFO] I0720 14:00:24.771710  6678 net.cpp:91] Creating Layer fc6
2016-07-20 14:00:24.771 STDERR [INFO] I0720 14:00:24.771731  6678 net.cpp:425] fc6 <- pool5
…
2016-07-20 14:00:24.806 n.t.s.s.CVParticleSpout [INFO] [Timing] RequestID: 0 StreamID: home/peifeng/work/data/frame.320x240.jpg SequenceNr: 100 Leaving fetcher: 1469037624806 Size: 8702
2016-07-20 14:00:24.806 n.t.s.b.CVParticleBolt [INFO] [Timing] RequestID: 0 StreamID: home/peifeng/work/data/frame.320x240.jpg SequenceNr: 100 Entering scale: 1469037624806
2016-07-20 14:00:24.808 n.t.s.b.CVParticleBolt [INFO] [Timing] RequestID: 0 StreamID: home/peifeng/work/data/frame.320x240.jpg SequenceNr: 99 Leaving scale: 1469037624808 Size: 3530
2016-07-20 14:00:24.808 STDERR [INFO] I0720 14:00:24.807874  6666 net.cpp:141] Setting up conv5
2016-07-20 14:00:24.808 STDERR [INFO] I0720 14:00:24.807941  6666 net.cpp:148] Top shape: 10 256 13 13 (432640)
2016-07-20 14:00:24.808 STDERR [INFO] I0720 14:00:24.807953  6666 net.cpp:156] Memory required for data: 65519160
2016-07-20 14:00:24.808 STDERR [INFO] I0720 14:00:24.808943  6666 layer_factory.hpp:77] Creating layer relu5
2016-07-20 14:00:24.809 STDERR [INFO] I0720 14:00:24.808986  6666 net.cpp:91] Creating Layer relu5
2016-07-20 14:00:24.809 STDERR [INFO] I0720 14:00:24.809000  6666 net.cpp:425] relu5 <- conv5
2016-07-20 14:00:24.809 STDERR [INFO] I0720 14:00:24.809499  6666 net.cpp:386] relu5 -> conv5 (in-place)
2016-07-20 14:00:24.810 n.t.s.b.CVParticleBolt [INFO] [Timing] RequestID: 0 StreamID: home/peifeng/work/data/frame.320x240.jpg SequenceNr: 101 Entering scale: 1469037624810
2016-07-20 14:00:24.810 n.t.s.s.CVParticleSpout [INFO] [Timing] RequestID: 0 StreamID: home/peifeng/work/data/frame.320x240.jpg SequenceNr: 101 Leaving fetcher: 1469037624810 Size: 8702
2016-07-20 14:00:24.812 n.t.s.b.CVParticleBolt [INFO] [Timing] RequestID: 0 StreamID: home/peifeng/work/data/frame.320x240.jpg SequenceNr: 100 Leaving scale: 1469037624812 Size: 3530
2016-07-20 14:00:24.815 n.t.s.b.CVParticleBolt [INFO] [Timing] RequestID: 0 StreamID: home/peifeng/work/data/frame.320x240.jpg SequenceNr: 101 Leaving scale: 1469037624814 Size: 3530
2016-07-20 14:00:24.816 STDERR [INFO] I0720 14:00:24.816107  6660 net.cpp:141] Setting up relu5
2016-07-20 14:00:24.816 STDERR [INFO] I0720 14:00:24.816164  6660 net.cpp:148] Top shape: 10 256 13 13 (432640)
2016-07-20 14:00:24.816 STDERR [INFO] I0720 14:00:24.816171  6660 net.cpp:156] Memory required for data: 67249720
2016-07-20 14:00:24.816 STDERR [INFO] I0720 14:00:24.816181  6660 layer_factory.hpp:77] Creating layer pool5
2016-07-20 14:00:24.817 STDERR [INFO] I0720 14:00:24.817152  6660 net.cpp:91] Creating Layer pool5
2016-07-20 14:00:24.817 STDERR [INFO] I0720 14:00:24.817168  6660 net.cpp:425] pool5 <- conv5
2016-07-20 14:00:24.817 STDERR [INFO] I0720 14:00:24.817180  6660 net.cpp:399] pool5 -> pool5
2016-07-20 14:00:24.817 STDERR [INFO] I0720 14:00:24.817204  6660 net.cpp:141] Setting up pool5
2016-07-20 14:00:24.817 STDERR [INFO] I0720 14:00:24.817754  6660 net.cpp:148] Top shape: 10 256 6 6 (92160)
2016-07-20 14:00:24.817 STDERR [INFO] I0720 14:00:24.817762  6660 net.cpp:156] Memory required for data: 67618360
2016-07-20 14:00:24.817 STDERR [INFO] I0720 14:00:24.817767  6660 layer_factory.hpp:77] Creating layer fc6
2016-07-20 14:00:24.817 STDERR [INFO] I0720 14:00:24.817785  6660 net.cpp:91] Creating Layer fc6
2016-07-20 14:00:24.818 STDERR [INFO] I0720 14:00:24.817790  6660 net.cpp:425] fc6 <- pool5
2016-07-20 14:00:24.818 STDERR [INFO] I0720 14:00:24.817796  6660 net.cpp:399] fc6 -> fc6
2016-07-20 14:00:24.821 STDERR [INFO] I0720 14:00:24.821004  6674 net.cpp:141] Setting up conv5
2016-07-20 14:00:24.821 STDERR [INFO] I0720 14:00:24.821075  6674 net.cpp:148] Top shape: 10 256 13 13 (432640)
2016-07-20 14:00:24.821 STDERR [INFO] I0720 14:00:24.821087  6674 net.cpp:156] Memory required for data: 65519160
2016-07-20 14:00:24.821 STDERR [INFO] I0720 14:00:24.821125  6674 layer_factory.hpp:77] Creating layer relu5
2016-07-20 14:00:24.821 STDERR [INFO] I0720 14:00:24.821151  6674 net.cpp:91] Creating Layer relu5
2016-07-20 14:00:24.821 STDERR [INFO] I0720 14:00:24.821164  6674 net.cpp:425] relu5 <- conv5
2016-07-20 14:00:24.822 STDERR [INFO] I0720 14:00:24.822055  6674 net.cpp:386] relu5 -> conv5 (in-place)
2016-07-20 14:00:24.823 STDERR [INFO] I0720 14:00:24.823271  6644 net.cpp:141] Setting up conv5
2016-07-20 14:00:24.823 STDERR [INFO] I0720 14:00:24.823312  6644 net.cpp:148] Top shape: 10 256 13 13 (432640)
2016-07-20 14:00:24.823 STDERR [INFO] I0720 14:00:24.823321  6644 net.cpp:156] Memory required for data: 65519160
2016-07-20 14:00:24.823 STDERR [INFO] I0720 14:00:24.823343  6644 layer_factory.hpp:77] Creating layer relu5
2016-07-20 14:00:24.823 STDERR [INFO] I0720 14:00:24.823359  6644 net.cpp:91] Creating Layer relu5
2016-07-20 14:00:24.823 STDERR [INFO] I0720 14:00:24.823364  6644 net.cpp:425] relu5 <- conv5
2016-07-20 14:00:24.824 STDERR [INFO] I0720 14:00:24.824384  6644 net.cpp:386] relu5 -> conv5 (in-place)
2016-07-20 14:00:24.841 STDERR [INFO] I0720 14:00:24.841137  6672 net.cpp:141] Setting up conv5
2016-07-20 14:00:24.841 STDERR [INFO] I0720 14:00:24.841193  6672 net.cpp:148] Top shape: 10 256 13 13 (432640)
2016-07-20 14:00:24.841 STDERR [INFO] I0720 14:00:24.841199  6672 net.cpp:156] Memory required for data: 65519160
2016-07-20 14:00:24.841 STDERR [INFO] I0720 14:00:24.841223  6672 layer_factory.hpp:77] Creating layer relu5
2016-07-20 14:00:24.841 STDERR [INFO] I0720 14:00:24.841787  6672 net.cpp:91] Creating Layer relu5
2016-07-20 14:00:24.841 STDERR [INFO] I0720 14:00:24.841794  6666 net.cpp:141] Setting up relu5
2016-07-20 14:00:24.842 STDERR [INFO] I0720 14:00:24.841804  6664 net.cpp:141] Setting up conv5
2016-07-20 14:00:24.842 STDERR [INFO] I0720 14:00:24.841817  6666 net.cpp:148] Top shape: 10 256 13 13 (432640)
2016-07-20 14:00:24.842 STDERR [INFO] I0720 14:00:24.841809  6672 net.cpp:425] relu5 <- conv5
2016-07-20 14:00:24.842 STDERR [INFO] I0720 14:00:24.841804  6674 net.cpp:141] Setting up relu5
2016-07-20 14:00:24.842 STDERR [INFO] I0720 14:00:24.841835  6672 net.cpp:386] relu5 -> conv5 (in-place)
2016-07-20 14:00:24.842 STDERR [INFO] I0720 14:00:24.841827  6666 net.cpp:156] Memory required for data: 67249720
2016-07-20 14:00:24.842 STDERR [INFO] I0720 14:00:24.841828  6664 net.cpp:148] Top shape: 10 256 13 13 (432640)
2016-07-20 14:00:24.842 STDERR [INFO] I0720 14:00:24.841850  6666 layer_factory.hpp:77] Creating layer pool5
2016-07-20 14:00:24.842 STDERR [INFO] I0720 14:00:24.841850  6664 net.cpp:156] Memory required for data: 65519160
2016-07-20 14:00:24.842 STDERR [INFO] I0720 14:00:24.841866  6666 net.cpp:91] Creating Layer pool5
2016-07-20 14:00:24.842 STDERR [INFO] I0720 14:00:24.841872  6666 net.cpp:425] pool5 <- conv5
2016-07-20 14:00:24.842 STDERR [INFO] I0720 14:00:24.842416  6674 net.cpp:148] Top shape: 10 256 13 13 (432640)
2016-07-20 14:00:24.843 STDERR [INFO] I0720 14:00:24.842425  6674 net.cpp:156] Memory required for data: 67249720
2016-07-20 14:00:24.843 STDERR [INFO] I0720 14:00:24.842432  6674 layer_factory.hpp:77] Creating layer pool5
2016-07-20 14:00:24.843 STDERR [INFO] I0720 14:00:24.842440  6674 net.cpp:91] Creating Layer pool5
2016-07-20 14:00:24.843 STDERR [INFO] I0720 14:00:24.842447  6674 net.cpp:425] pool5 <- conv5
2016-07-20 14:00:24.843 STDERR [INFO] I0720 14:00:24.842460  6664 layer_factory.hpp:77] Creating layer relu5
2016-07-20 14:00:24.843 STDERR [INFO] I0720 14:00:24.842459  6674 net.cpp:399] pool5 -> pool5
2016-07-20 14:00:24.843 STDERR [INFO] I0720 14:00:24.842463  6666 net.cpp:399] pool5 -> pool5
2016-07-20 14:00:24.843 STDERR [INFO] I0720 14:00:24.842488  6664 net.cpp:91] Creating Layer relu5
2016-07-20 14:00:24.844 STDERR [INFO] I0720 14:00:24.842459  6644 net.cpp:141] Setting up relu5
2016-07-20 14:00:24.844 STDERR [INFO] I0720 14:00:24.842504  6674 net.cpp:141] Setting up pool5
2016-07-20 14:00:24.844 STDERR [INFO] I0720 14:00:24.842505  6666 net.cpp:141] Setting up pool5
2016-07-20 14:00:24.844 STDERR [INFO] I0720 14:00:24.842519  6644 net.cpp:148] Top shape: 10 256 13 13 (432640)
2016-07-20 14:00:24.844 STDERR [INFO] I0720 14:00:24.842500  6664 net.cpp:425] relu5 <- conv5
2016-07-20 14:00:24.844 STDERR [INFO] I0720 14:00:24.842524  6674 net.cpp:148] Top shape: 10 256 6 6 (92160)
2016-07-20 14:00:24.844 STDERR [INFO] I0720 14:00:24.842530  6666 net.cpp:148] Top shape: 10 256 6 6 (92160)
2016-07-20 14:00:24.844 STDERR [INFO] I0720 14:00:24.842526  6644 net.cpp:156] Memory required for data: 67249720
2016-07-20 14:00:24.844 STDERR [INFO] I0720 14:00:24.842538  6674 net.cpp:156] Memory required for data: 67618360
2016-07-20 14:00:24.844 STDERR [INFO] I0720 14:00:24.842546  6644 layer_factory.hpp:77] Creating layer pool5
2016-07-20 14:00:24.844 STDERR [INFO] I0720 14:00:24.842535  6666 net.cpp:156] Memory required for data: 67618360
…
2016-07-20 14:00:24.844 STDERR [INFO] I0720 14:00:24.843085  6644 net.cpp:399] pool5 -> pool5
2016-07-20 14:00:24.845 STDERR [INFO] I0720 14:00:24.843099  6666 net.cpp:91] Creating Layer fc6
2016-07-20 14:00:24.845 STDERR [INFO] I0720 14:00:24.843108  6644 net.cpp:141] Setting up pool5
2016-07-20 14:00:24.845 STDERR [INFO] I0720 14:00:24.843116  6674 net.cpp:91] Creating Layer fc6
2016-07-20 14:00:24.845 STDERR [INFO] I0720 14:00:24.843121  6666 net.cpp:425] fc6 <- pool5
2016-07-20 14:00:24.845 STDERR [INFO] I0720 14:00:24.843137  6674 net.cpp:425] fc6 <- pool5
2016-07-20 14:00:24.845 STDERR [INFO] I0720 14:00:24.843122  6644 net.cpp:148] Top shape: 10 256 6 6 (92160)
2016-07-20 14:00:24.845 STDERR [INFO] I0720 14:00:24.843158  6644 net.cpp:156] Memory required for data: 67618360
2016-07-20 14:00:24.845 STDERR [INFO] I0720 14:00:24.843168  6644 layer_factory.hpp:77] Creating layer fc6
2016-07-20 14:00:24.845 STDERR [INFO] I0720 14:00:24.843674  6674 net.cpp:399] fc6 -> fc6
2016-07-20 14:00:24.845 STDERR [INFO] I0720 14:00:24.843677  6666 net.cpp:399] fc6 -> fc6
2016-07-20 14:00:24.845 STDERR [INFO] I0720 14:00:24.844475  6644 net.cpp:91] Creating Layer fc6
2016-07-20 14:00:24.845 STDERR [INFO] I0720 14:00:24.844491  6644 net.cpp:425] fc6 <- pool5
2016-07-20 14:00:24.845 STDERR [INFO] I0720 14:00:24.844504  6644 net.cpp:399] fc6 -> fc6
2016-07-20 14:00:24.852 STDERR [INFO] I0720 14:00:24.852150  6664 net.cpp:141] Setting up relu5
2016-07-20 14:00:24.852 STDERR [INFO] I0720 14:00:24.852154  6672 net.cpp:141] Setting up relu5
2016-07-20 14:00:24.852 STDERR [INFO] I0720 14:00:24.852201  6664 net.cpp:148] Top shape: 10 256 13 13 (432640)
2016-07-20 14:00:24.852 STDERR [INFO] I0720 14:00:24.852208  6664 net.cpp:156] Memory required for data: 67249720
2016-07-20 14:00:24.852 STDERR [INFO] I0720 14:00:24.852217  6664 layer_factory.hpp:77] Creating layer pool5
2016-07-20 14:00:24.852 STDERR [INFO] I0720 14:00:24.852236  6664 net.cpp:91] Creating Layer pool5
2016-07-20 14:00:24.852 STDERR [INFO] I0720 14:00:24.852243  6664 net.cpp:425] pool5 <- conv5
2016-07-20 14:00:24.853 STDERR [INFO] I0720 14:00:24.853543  6664 net.cpp:399] pool5 -> pool5
2016-07-20 14:00:24.853 STDERR [INFO] I0720 14:00:24.853554  6672 net.cpp:148] Top shape: 10 256 13 13 (432640)
2016-07-20 14:00:24.853 STDERR [INFO] I0720 14:00:24.853582  6664 net.cpp:141] Setting up pool5
2016-07-20 14:00:24.853 STDERR [INFO] I0720 14:00:24.853592  6664 net.cpp:148] Top shape: 10 256 6 6 (92160)
2016-07-20 14:00:24.853 STDERR [INFO] I0720 14:00:24.853597  6664 net.cpp:156] Memory required for data: 67618360
2016-07-20 14:00:24.853 STDERR [INFO] I0720 14:00:24.853591  6672 net.cpp:156] Memory required for data: 67249720
2016-07-20 14:00:24.853 STDERR [INFO] I0720 14:00:24.853602  6664 layer_factory.hpp:77] Creating layer fc6
2016-07-20 14:00:24.853 STDERR [INFO] I0720 14:00:24.853628  6672 layer_factory.hpp:77] Creating layer pool5
2016-07-20 14:00:24.853 STDERR [INFO] I0720 14:00:24.853653  6672 net.cpp:91] Creating Layer pool5
2016-07-20 14:00:24.854 STDERR [INFO] I0720 14:00:24.853662  6672 net.cpp:425] pool5 <- conv5
2016-07-20 14:00:24.854 STDERR [INFO] I0720 14:00:24.854868  6664 net.cpp:91] Creating Layer fc6
2016-07-20 14:00:24.855 STDERR [INFO] I0720 14:00:24.854885  6664 net.cpp:425] fc6 <- pool5
2016-07-20 14:00:24.855 STDERR [INFO] I0720 14:00:24.854899  6664 net.cpp:399] fc6 -> fc6
2016-07-20 14:00:24.855 STDERR [INFO] I0720 14:00:24.854894  6672 net.cpp:399] pool5 -> pool5
2016-07-20 14:00:24.855 STDERR [INFO] I0720 14:00:24.854946  6672 net.cpp:141] Setting up pool5
2016-07-20 14:00:24.855 STDERR [INFO] I0720 14:00:24.854965  6672 net.cpp:148] Top shape: 10 256 6 6 (92160)
2016-07-20 14:00:24.855 STDERR [INFO] I0720 14:00:24.854974  6672 net.cpp:156] Memory required for data: 67618360
2016-07-20 14:00:24.855 STDERR [INFO] I0720 14:00:24.854985  6672 layer_factory.hpp:77] Creating layer fc6
2016-07-20 14:00:24.855 STDERR [INFO] I0720 14:00:24.855006  6672 net.cpp:91] Creating Layer fc6
2016-07-20 14:00:24.855 STDERR [INFO] I0720 14:00:24.855016  6672 net.cpp:425] fc6 <- pool5
2016-07-20 14:00:24.856 STDERR [INFO] I0720 14:00:24.856293  6672 net.cpp:399] fc6 -> fc6
2016-07-20 14:00:24.925 STDERR [INFO] I0720 14:00:24.925140  6678 net.cpp:141] Setting up fc6
2016-07-20 14:00:24.925 STDERR [INFO] I0720 14:00:24.925225  6678 net.cpp:148] Top shape: 10 4096 (40960)
2016-07-20 14:00:24.925 STDERR [INFO] I0720 14:00:24.925236  6678 net.cpp:156] Memory required for data: 67782200
2016-07-20 14:00:24.925 STDERR [INFO] I0720 14:00:24.925266  6678 layer_factory.hpp:77] Creating layer relu6
2016-07-20 14:00:24.925 STDERR [INFO] I0720 14:00:24.925297  6678 net.cpp:91] Creating Layer relu6
2016-07-20 14:00:24.925 STDERR [INFO] I0720 14:00:24.925309  6678 net.cpp:425] relu6 <- fc6
2016-07-20 14:00:24.926 STDERR [INFO] I0720 14:00:24.926100  6678 net.cpp:386] relu6 -> fc6 (in-place)
2016-07-20 14:00:24.931 STDERR [INFO] I0720 14:00:24.931025  6678 net.cpp:141] Setting up relu6
2016-07-20 14:00:24.931 STDERR [INFO] I0720 14:00:24.931095  6678 net.cpp:148] Top shape: 10 4096 (40960)
2016-07-20 14:00:24.931 STDERR [INFO] I0720 14:00:24.931102  6678 net.cpp:156] Memory required for data: 67946040
…
2016-07-20 14:00:25.027 STDERR [INFO] I0720 14:00:25.027276  6674 net.cpp:156] Memory required for data: 68273720
2016-07-20 14:00:25.027 STDERR [INFO] I0720 14:00:25.027277  6664 net.cpp:148] Top shape: 10 4096 (40960)
2016-07-20 14:00:25.027 STDERR [INFO] I0720 14:00:25.027284  6664 net.cpp:156] Memory required for data: 67946040
2016-07-20 14:00:25.027 STDERR [INFO] I0720 14:00:25.027292  6664 layer_factory.hpp:77] Creating layer drop6
2016-07-20 14:00:25.027 STDERR [INFO] I0720 14:00:25.027292  6674 layer_factory.hpp:77] Creating layer relu7
2016-07-20 14:00:25.027 STDERR [INFO] I0720 14:00:25.027307  6664 net.cpp:91] Creating Layer drop6
2016-07-20 14:00:25.027 STDERR [INFO] I0720 14:00:25.027309  6674 net.cpp:91] Creating Layer relu7
2016-07-20 14:00:25.027 STDERR [INFO] I0720 14:00:25.027314  6664 net.cpp:425] drop6 <- fc6
2016-07-20 14:00:25.028 STDERR [INFO] I0720 14:00:25.027317  6674 net.cpp:425] relu7 <- fc7
2016-07-20 14:00:25.028 STDERR [INFO] I0720 14:00:25.027827  6680 net.cpp:141] Setting up relu7
2016-07-20 14:00:25.028 STDERR [INFO] I0720 14:00:25.027823  6678 net.cpp:141] Setting up relu7
2016-07-20 14:00:25.028 STDERR [INFO] I0720 14:00:25.027849  6680 net.cpp:148] Top shape: 10 4096 (40960)
2016-07-20 14:00:25.028 STDERR [INFO] I0720 14:00:25.027827  6668 net.cpp:141] Setting up relu7
2016-07-20 14:00:25.028 STDERR [INFO] I0720 14:00:25.027845  6664 net.cpp:386] drop6 -> fc6 (in-place)
2016-07-20 14:00:25.028 STDERR [INFO] I0720 14:00:25.027822  6674 net.cpp:386] relu7 -> fc7 (in-place)
2016-07-20 14:00:25.028 STDERR [INFO] I0720 14:00:25.027856  6680 net.cpp:156] Memory required for data: 68437560
2016-07-20 14:00:25.028 STDERR [INFO] I0720 14:00:25.027895  6664 net.cpp:141] Setting up drop6
2016-07-20 14:00:25.028 STDERR [INFO] I0720 14:00:25.027866  6678 net.cpp:148] Top shape: 10 4096 (40960)
2016-07-20 14:00:25.028 STDERR [INFO] I0720 14:00:25.027904  6680 layer_factory.hpp:77] Creating layer drop7
2016-07-20 14:00:25.028 STDERR [INFO] I0720 14:00:25.027905  6664 net.cpp:148] Top shape: 10 4096 (40960)
2016-07-20 14:00:25.028 STDERR [INFO] I0720 14:00:25.027930  6680 net.cpp:91] Creating Layer drop7
2016-07-20 14:00:25.028 STDERR [INFO] I0720 14:00:25.027920  6678 net.cpp:156] Memory required for data: 68437560
2016-07-20 14:00:25.028 STDERR [INFO] I0720 14:00:25.027937  6680 net.cpp:425] drop7 <- fc7
2016-07-20 14:00:25.028 STDERR [INFO] I0720 14:00:25.027933  6664 net.cpp:156] Memory required for data: 68109880
2016-07-20 14:00:25.028 STDERR [INFO] I0720 14:00:25.027946  6680 net.cpp:386] drop7 -> fc7 (in-place)
2016-07-20 14:00:25.028 STDERR [INFO] I0720 14:00:25.027950  6678 layer_factory.hpp:77] Creating layer drop7
2016-07-20 14:00:25.028 STDERR [INFO] I0720 14:00:25.027957  6680 net.cpp:141] Setting up drop7
2016-07-20 14:00:25.028 STDERR [INFO] I0720 14:00:25.027951  6664 layer_factory.hpp:77] Creating layer fc7
2016-07-20 14:00:25.028 STDERR [INFO] I0720 14:00:25.027964  6680 net.cpp:148] Top shape: 10 4096 (40960)
2016-07-20 14:00:25.028 STDERR [INFO] I0720 14:00:25.027968  6680 net.cpp:156] Memory required for data: 68601400
2016-07-20 14:00:25.028 STDERR [INFO] I0720 14:00:25.027972  6680 layer_factory.hpp:77] Creating layer fc8
2016-07-20 14:00:25.028 STDERR [INFO] I0720 14:00:25.027976  6664 net.cpp:91] Creating Layer fc7
2016-07-20 14:00:25.029 STDERR [INFO] I0720 14:00:25.027981  6664 net.cpp:425] fc7 <- fc6
2016-07-20 14:00:25.029 STDERR [INFO] I0720 14:00:25.027989  6664 net.cpp:399] fc7 -> fc7
2016-07-20 14:00:25.029 STDERR [INFO] I0720 14:00:25.028334  6668 net.cpp:148] Top shape: 10 4096 (40960)
2016-07-20 14:00:25.029 STDERR [INFO] I0720 14:00:25.028349  6668 net.cpp:156] Memory required for data: 68437560
2016-07-20 14:00:25.029 STDERR [INFO] I0720 14:00:25.028360  6668 layer_factory.hpp:77] Creating layer drop7
2016-07-20 14:00:25.029 STDERR [INFO] I0720 14:00:25.028375  6668 net.cpp:91] Creating Layer drop7
2016-07-20 14:00:25.029 STDERR [INFO] I0720 14:00:25.028388  6668 net.cpp:425] drop7 <- fc7
2016-07-20 14:00:25.029 STDERR [INFO] I0720 14:00:25.028400  6668 net.cpp:386] drop7 -> fc7 (in-place)
2016-07-20 14:00:25.029 STDERR [INFO] I0720 14:00:25.028420  6668 net.cpp:141] Setting up drop7
2016-07-20 14:00:25.029 STDERR [INFO] I0720 14:00:25.028435  6668 net.cpp:148] Top shape: 10 4096 (40960)
2016-07-20 14:00:25.029 STDERR [INFO] I0720 14:00:25.028444  6668 net.cpp:156] Memory required for data: 68601400
2016-07-20 14:00:25.029 STDERR [INFO] I0720 14:00:25.028453  6668 layer_factory.hpp:77] Creating layer fc8
2016-07-20 14:00:25.029 STDERR [INFO] I0720 14:00:25.028460  6678 net.cpp:91] Creating Layer drop7
2016-07-20 14:00:25.029 STDERR [INFO] I0720 14:00:25.028460  6680 net.cpp:91] Creating Layer fc8
2016-07-20 14:00:25.029 STDERR [INFO] I0720 14:00:25.028481  6678 net.cpp:425] drop7 <- fc7
2016-07-20 14:00:25.029 STDERR [INFO] I0720 14:00:25.028491  6680 net.cpp:425] fc8 <- fc7
2016-07-20 14:00:25.029 STDERR [INFO] I0720 14:00:25.028499  6678 net.cpp:386] drop7 -> fc7 (in-place)
2016-07-20 14:00:25.029 STDERR [INFO] I0720 14:00:25.028502  6680 net.cpp:399] fc8 -> fc8
2016-07-20 14:00:25.029 STDERR [INFO] I0720 14:00:25.028523  6678 net.cpp:141] Setting up drop7
2016-07-20 14:00:25.029 STDERR [INFO] I0720 14:00:25.028538  6678 net.cpp:148] Top shape: 10 4096 (40960)
2016-07-20 14:00:25.029 STDERR [INFO] I0720 14:00:25.028547  6678 net.cpp:156] Memory required for data: 68601400
2016-07-20 14:00:25.029 STDERR [INFO] I0720 14:00:25.028558  6678 layer_factory.hpp:77] Creating layer fc8
2016-07-20 14:00:25.029 STDERR [INFO] I0720 14:00:25.029553  6668 net.cpp:91] Creating Layer fc8
2016-07-20 14:00:25.029 STDERR [INFO] I0720 14:00:25.029567  6678 net.cpp:91] Creating Layer fc8
2016-07-20 14:00:25.029 STDERR [INFO] I0720 14:00:25.029569  6668 net.cpp:425] fc8 <- fc7
2016-07-20 14:00:25.030 STDERR [INFO] I0720 14:00:25.029587  6678 net.cpp:425] fc8 <- fc7
2016-07-20 14:00:25.030 STDERR [INFO] I0720 14:00:25.029599  6668 net.cpp:399] fc8 -> fc8
2016-07-20 14:00:25.030 STDERR [INFO] I0720 14:00:25.029602  6678 net.cpp:399] fc8 -> fc8
2016-07-20 14:00:25.035 STDERR [INFO] I0720 14:00:25.035681  6674 net.cpp:141] Setting up relu7
2016-07-20 14:00:25.036 STDERR [INFO] I0720 14:00:25.035739  6674 net.cpp:148] Top shape: 10 4096 (40960)
2016-07-20 14:00:25.036 STDERR [INFO] I0720 14:00:25.035747  6674 net.cpp:156] Memory required for data: 68437560
2016-07-20 14:00:25.036 STDERR [INFO] I0720 14:00:25.035755  6674 layer_factory.hpp:77] Creating layer drop7
2016-07-20 14:00:25.036 STDERR [INFO] I0720 14:00:25.036206  6674 net.cpp:91] Creating Layer drop7
2016-07-20 14:00:25.036 STDERR [INFO] I0720 14:00:25.036226  6674 net.cpp:425] drop7 <- fc7
2016-07-20 14:00:25.036 STDERR [INFO] I0720 14:00:25.036239  6674 net.cpp:386] drop7 -> fc7 (in-place)
2016-07-20 14:00:25.036 STDERR [INFO] I0720 14:00:25.036258  6674 net.cpp:141] Setting up drop7
2016-07-20 14:00:25.036 STDERR [INFO] I0720 14:00:25.036265  6674 net.cpp:148] Top shape: 10 4096 (40960)
2016-07-20 14:00:25.036 STDERR [INFO] I0720 14:00:25.036269  6674 net.cpp:156] Memory required for data: 68601400
2016-07-20 14:00:25.036 STDERR [INFO] I0720 14:00:25.036274  6674 layer_factory.hpp:77] Creating layer fc8
2016-07-20 14:00:25.036 STDERR [INFO] I0720 14:00:25.036285  6674 net.cpp:91] Creating Layer fc8
2016-07-20 14:00:25.036 STDERR [INFO] I0720 14:00:25.036289  6674 net.cpp:425] fc8 <- fc7
2016-07-20 14:00:25.037 STDERR [INFO] I0720 14:00:25.037335  6674 net.cpp:399] fc8 -> fc8
2016-07-20 14:00:25.069 STDERR [INFO] I0720 14:00:25.069270  6668 net.cpp:141] Setting up fc8
2016-07-20 14:00:25.069 STDERR [INFO] I0720 14:00:25.069231  6674 net.cpp:141] Setting up fc8
2016-07-20 14:00:25.069 STDERR [INFO] I0720 14:00:25.069330  6674 net.cpp:148] Top shape: 10 1000 (10000)
2016-07-20 14:00:25.069 STDERR [INFO] I0720 14:00:25.069330  6668 net.cpp:148] Top shape: 10 1000 (10000)
2016-07-20 14:00:25.069 STDERR [INFO] I0720 14:00:25.069339  6674 net.cpp:156] Memory required for data: 68641400
2016-07-20 14:00:25.069 STDERR [INFO] I0720 14:00:25.069342  6668 net.cpp:156] Memory required for data: 68641400
2016-07-20 14:00:25.069 STDERR [INFO] I0720 14:00:25.069357  6674 layer_factory.hpp:77] Creating layer prob
2016-07-20 14:00:25.070 STDERR [INFO] I0720 14:00:25.069360  6668 layer_factory.hpp:77] Creating layer prob
2016-07-20 14:00:25.070 STDERR [INFO] I0720 14:00:25.069376  6674 net.cpp:91] Creating Layer prob
2016-07-20 14:00:25.070 STDERR [INFO] I0720 14:00:25.069377  6668 net.cpp:91] Creating Layer prob
2016-07-20 14:00:25.070 STDERR [INFO] I0720 14:00:25.069385  6674 net.cpp:425] prob <- fc8
2016-07-20 14:00:25.070 STDERR [INFO] I0720 14:00:25.069388  6668 net.cpp:425] prob <- fc8
2016-07-20 14:00:25.070 STDERR [INFO] I0720 14:00:25.069396  6674 net.cpp:399] prob -> prob
2016-07-20 14:00:25.070 STDERR [INFO] I0720 14:00:25.069855  6668 net.cpp:399] prob -> prob
2016-07-20 14:00:25.070 STDERR [INFO] I0720 14:00:25.069856  6680 net.cpp:141] Setting up fc8
2016-07-20 14:00:25.070 STDERR [INFO] I0720 14:00:25.069906  6680 net.cpp:148] Top shape: 10 1000 (10000)
2016-07-20 14:00:25.070 STDERR [INFO] I0720 14:00:25.069912  6680 net.cpp:156] Memory required for data: 68641400
2016-07-20 14:00:25.070 STDERR [INFO] I0720 14:00:25.069927  6680 layer_factory.hpp:77] Creating layer prob
2016-07-20 14:00:25.070 STDERR [INFO] I0720 14:00:25.069942  6680 net.cpp:91] Creating Layer prob
2016-07-20 14:00:25.070 STDERR [INFO] I0720 14:00:25.069949  6680 net.cpp:425] prob <- fc8
2016-07-20 14:00:25.070 STDERR [INFO] I0720 14:00:25.070001  6680 net.cpp:399] prob -> prob
2016-07-20 14:00:25.072 STDERR [INFO] I0720 14:00:25.072285  6678 net.cpp:141] Setting up fc8
2016-07-20 14:00:25.072 STDERR [INFO] I0720 14:00:25.072378  6678 net.cpp:148] Top shape: 10 1000 (10000)
2016-07-20 14:00:25.072 STDERR [INFO] I0720 14:00:25.072396  6678 net.cpp:156] Memory required for data: 68641400
2016-07-20 14:00:25.072 STDERR [INFO] I0720 14:00:25.072432  6678 layer_factory.hpp:77] Creating layer prob
2016-07-20 14:00:25.073 STDERR [INFO] I0720 14:00:25.072983  6678 net.cpp:91] Creating Layer prob
2016-07-20 14:00:25.073 STDERR [INFO] I0720 14:00:25.073009  6678 net.cpp:425] prob <- fc8
2016-07-20 14:00:25.073 STDERR [INFO] I0720 14:00:25.073062  6678 net.cpp:399] prob -> prob
2016-07-20 14:00:25.074 STDERR [INFO] I0720 14:00:25.074551  6660 net.cpp:141] Setting up fc7
2016-07-20 14:00:25.074 STDERR [INFO] I0720 14:00:25.074610  6660 net.cpp:148] Top shape: 10 4096 (40960)
2016-07-20 14:00:25.075 STDERR [INFO] I0720 14:00:25.074615  6660 net.cpp:156] Memory required for data: 68273720
2016-07-20 14:00:25.075 STDERR [INFO] I0720 14:00:25.074635  6660 layer_factory.hpp:77] Creating layer relu7
2016-07-20 14:00:25.075 STDERR [INFO] I0720 14:00:25.074654  6660 net.cpp:91] Creating Layer relu7
2016-07-20 14:00:25.075 STDERR [INFO] I0720 14:00:25.074661  6660 net.cpp:425] relu7 <- fc7
2016-07-20 14:00:25.075 STDERR [INFO] I0720 14:00:25.074735  6660 net.cpp:386] relu7 -> fc7 (in-place)
2016-07-20 14:00:25.075 STDERR [INFO] I0720 14:00:25.074821  6666 net.cpp:141] Setting up fc7
2016-07-20 14:00:25.075 STDERR [INFO] I0720 14:00:25.074867  6666 net.cpp:148] Top shape: 10 4096 (40960)
2016-07-20 14:00:25.075 STDERR [INFO] I0720 14:00:25.074873  6666 net.cpp:156] Memory required for data: 68273720
2016-07-20 14:00:25.075 STDERR [INFO] I0720 14:00:25.074888  6666 layer_factory.hpp:77] Creating layer relu7
2016-07-20 14:00:25.075 STDERR [INFO] I0720 14:00:25.074904  6666 net.cpp:91] Creating Layer relu7
2016-07-20 14:00:25.075 STDERR [INFO] I0720 14:00:25.074911  6666 net.cpp:425] relu7 <- fc7
2016-07-20 14:00:25.075 STDERR [INFO] I0720 14:00:25.074920  6666 net.cpp:386] relu7 -> fc7 (in-place)
2016-07-20 14:00:25.080 STDERR [INFO] I0720 14:00:25.080603  6644 net.cpp:141] Setting up fc7
2016-07-20 14:00:25.081 STDERR [INFO] I0720 14:00:25.080656  6644 net.cpp:148] Top shape: 10 4096 (40960)
2016-07-20 14:00:25.081 STDERR [INFO] I0720 14:00:25.080662  6644 net.cpp:156] Memory required for data: 68273720
2016-07-20 14:00:25.081 STDERR [INFO] I0720 14:00:25.080677  6644 layer_factory.hpp:77] Creating layer relu7
2016-07-20 14:00:25.081 STDERR [INFO] I0720 14:00:25.080693  6644 net.cpp:91] Creating Layer relu7
2016-07-20 14:00:25.081 STDERR [INFO] I0720 14:00:25.080703  6644 net.cpp:425] relu7 <- fc7
2016-07-20 14:00:25.081 STDERR [INFO] I0720 14:00:25.080690  6664 net.cpp:141] Setting up fc7
2016-07-20 14:00:25.081 STDERR [INFO] I0720 14:00:25.080713  6644 net.cpp:386] relu7 -> fc7 (in-place)
2016-07-20 14:00:25.081 STDERR [INFO] I0720 14:00:25.080734  6664 net.cpp:148] Top shape: 10 4096 (40960)
2016-07-20 14:00:25.081 STDERR [INFO] I0720 14:00:25.080740  6664 net.cpp:156] Memory required for data: 68273720
2016-07-20 14:00:25.081 STDERR [INFO] I0720 14:00:25.080754  6664 layer_factory.hpp:77] Creating layer relu7
2016-07-20 14:00:25.081 STDERR [INFO] I0720 14:00:25.080771  6664 net.cpp:91] Creating Layer relu7
2016-07-20 14:00:25.081 STDERR [INFO] I0720 14:00:25.080777  6664 net.cpp:425] relu7 <- fc7
2016-07-20 14:00:25.081 STDERR [INFO] I0720 14:00:25.080786  6664 net.cpp:386] relu7 -> fc7 (in-place)
2016-07-20 14:00:25.083 STDERR [INFO] I0720 14:00:25.083483  6674 net.cpp:141] Setting up prob
2016-07-20 14:00:25.083 STDERR [INFO] I0720 14:00:25.083508  6674 net.cpp:148] Top shape: 10 1000 (10000)
2016-07-20 14:00:25.083 STDERR [INFO] I0720 14:00:25.083515  6674 net.cpp:156] Memory required for data: 68681400
2016-07-20 14:00:25.083 STDERR [INFO] I0720 14:00:25.083525  6674 net.cpp:219] prob does not need backward computation.
2016-07-20 14:00:25.083 STDERR [INFO] I0720 14:00:25.083534  6674 net.cpp:219] fc8 does not need backward computation.
2016-07-20 14:00:25.083 STDERR [INFO] I0720 14:00:25.083540  6674 net.cpp:219] drop7 does not need backward computation.
…
2016-07-20 14:00:25.088 STDERR [INFO] I0720 14:00:25.084131  6668 net.cpp:219] data does not need backward computation.
2016-07-20 14:00:25.088 STDERR [INFO] I0720 14:00:25.084139  6668 net.cpp:261] This network produces output prob
2016-07-20 14:00:25.088 STDERR [INFO] I0720 14:00:25.084802  6668 net.cpp:274] Network initialization done.
2016-07-20 14:00:25.088 STDERR [INFO] I0720 14:00:25.084802  6666 net.cpp:386] drop7 -> fc7 (in-place)
2016-07-20 14:00:25.088 STDERR [INFO] I0720 14:00:25.084839  6666 net.cpp:141] Setting up drop7
2016-07-20 14:00:25.088 STDERR [INFO] I0720 14:00:25.084837  6664 net.cpp:141] Setting up relu7
2016-07-20 14:00:25.088 STDERR [INFO] I0720 14:00:25.084848  6666 net.cpp:148] Top shape: 10 4096 (40960)
2016-07-20 14:00:25.088 STDERR [INFO] I0720 14:00:25.084852  6664 net.cpp:148] Top shape: 10 4096 (40960)
2016-07-20 14:00:25.088 STDERR [INFO] I0720 14:00:25.084853  6666 net.cpp:156] Memory required for data: 68601400
2016-07-20 14:00:25.088 STDERR [INFO] I0720 14:00:25.084861  6664 net.cpp:156] Memory required for data: 68437560
2016-07-20 14:00:25.088 STDERR [INFO] I0720 14:00:25.084864  6666 layer_factory.hpp:77] Creating layer fc8
2016-07-20 14:00:25.088 STDERR [INFO] I0720 14:00:25.084867  6664 layer_factory.hpp:77] Creating layer drop7
2016-07-20 14:00:25.088 STDERR [INFO] I0720 14:00:25.084877  6666 net.cpp:91] Creating Layer fc8
2016-07-20 14:00:25.088 STDERR [INFO] I0720 14:00:25.084878  6664 net.cpp:91] Creating Layer drop7
2016-07-20 14:00:25.088 STDERR [INFO] I0720 14:00:25.084882  6666 net.cpp:425] fc8 <- fc7
2016-07-20 14:00:25.088 STDERR [INFO] I0720 14:00:25.084885  6664 net.cpp:425] drop7 <- fc7
2016-07-20 14:00:25.088 STDERR [INFO] I0720 14:00:25.084892  6664 net.cpp:386] drop7 -> fc7 (in-place)
2016-07-20 14:00:25.088 STDERR [INFO] I0720 14:00:25.084903  6664 net.cpp:141] Setting up drop7
2016-07-20 14:00:25.088 STDERR [INFO] I0720 14:00:25.084908  6664 net.cpp:148] Top shape: 10 4096 (40960)
2016-07-20 14:00:25.088 STDERR [INFO] I0720 14:00:25.084908  6666 net.cpp:399] fc8 -> fc8
2016-07-20 14:00:25.088 STDERR [INFO] I0720 14:00:25.084915  6664 net.cpp:156] Memory required for data: 68601400
2016-07-20 14:00:25.088 STDERR [INFO] I0720 14:00:25.084926  6664 layer_factory.hpp:77] Creating layer fc8
2016-07-20 14:00:25.088 STDERR [INFO] I0720 14:00:25.084935  6664 net.cpp:91] Creating Layer fc8
2016-07-20 14:00:25.088 STDERR [INFO] I0720 14:00:25.084939  6664 net.cpp:425] fc8 <- fc7
2016-07-20 14:00:25.088 STDERR [INFO] I0720 14:00:25.084974  6664 net.cpp:399] fc8 -> fc8
2016-07-20 14:00:25.088 STDERR [INFO] I0720 14:00:25.085142  6678 net.cpp:141] Setting up prob
2016-07-20 14:00:25.088 STDERR [INFO] I0720 14:00:25.085167  6678 net.cpp:148] Top shape: 10 1000 (10000)
2016-07-20 14:00:25.089 STDERR [INFO] I0720 14:00:25.085175  6678 net.cpp:156] Memory required for data: 68681400
2016-07-20 14:00:25.089 STDERR [INFO] I0720 14:00:25.085186  6678 net.cpp:219] prob does not need backward computation.
2016-07-20 14:00:25.089 STDERR [INFO] I0720 14:00:25.085192  6678 net.cpp:219] fc8 does not need backward computation.
2016-07-20 14:00:25.089 STDERR [INFO] I0720 14:00:25.085196  6678 net.cpp:219] drop7 does not need backward computation.
2016-07-20 14:00:25.089 STDERR [INFO] I0720 14:00:25.085204  6678 net.cpp:219] relu7 does not need backward computation.
2016-07-20 14:00:25.089 STDERR [INFO] I0720 14:00:25.085211  6678 net.cpp:219] fc7 does not need backward computation.
2016-07-20 14:00:25.089 STDERR [INFO] I0720 14:00:25.085219  6678 net.cpp:219] drop6 does not need backward computation.
2016-07-20 14:00:25.089 STDERR [INFO] I0720 14:00:25.085222  6644 net.cpp:141] Setting up relu7
2016-07-20 14:00:25.089 STDERR [INFO] I0720 14:00:25.085227  6678 net.cpp:219] relu6 does not need backward computation.
2016-07-20 14:00:25.089 STDERR [INFO] I0720 14:00:25.085233  6678 net.cpp:219] fc6 does not need backward computation.
2016-07-20 14:00:25.089 STDERR [INFO] I0720 14:00:25.085235  6644 net.cpp:148] Top shape: 10 4096 (40960)
2016-07-20 14:00:25.089 STDERR [INFO] I0720 14:00:25.085242  6678 net.cpp:219] pool5 does not need backward computation.
2016-07-20 14:00:25.089 STDERR [INFO] I0720 14:00:25.085242  6644 net.cpp:156] Memory required for data: 68437560
2016-07-20 14:00:25.089 STDERR [INFO] I0720 14:00:25.085248  6660 net.cpp:141] Setting up relu7
2016-07-20 14:00:25.089 STDERR [INFO] I0720 14:00:25.085258  6644 layer_factory.hpp:77] Creating layer drop7
2016-07-20 14:00:25.089 STDERR [INFO] I0720 14:00:25.085253  6678 net.cpp:219] relu5 does not need backward computation.
2016-07-20 14:00:25.089 STDERR [INFO] I0720 14:00:25.085270  6660 net.cpp:148] Top shape: 10 4096 (40960)
2016-07-20 14:00:25.089 STDERR [INFO] I0720 14:00:25.085273  6678 net.cpp:219] conv5 does not need backward computation.
2016-07-20 14:00:25.089 STDERR [INFO] I0720 14:00:25.085275  6660 net.cpp:156] Memory required for data: 68437560
2016-07-20 14:00:25.089 STDERR [INFO] I0720 14:00:25.085278  6644 net.cpp:91] Creating Layer drop7
2016-07-20 14:00:25.089 STDERR [INFO] I0720 14:00:25.085281  6678 net.cpp:219] relu4 does not need backward computation.
…
2016-07-20 14:00:25.089 STDERR [INFO] I0720 14:00:25.085309  6678 net.cpp:219] conv3 does not need backward computation.
2016-07-20 14:00:25.090 STDERR [INFO] I0720 14:00:25.085306  6660 net.cpp:425] drop7 <- fc7
2016-07-20 14:00:25.090 STDERR [INFO] I0720 14:00:25.085319  6678 net.cpp:219] norm2 does not need backward computation.
2016-07-20 14:00:25.090 STDERR [INFO] I0720 14:00:25.085324  6644 net.cpp:141] Setting up drop7
2016-07-20 14:00:25.090 STDERR [INFO] I0720 14:00:25.085326  6678 net.cpp:219] pool2 does not need backward computation.
2016-07-20 14:00:25.090 STDERR [INFO] I0720 14:00:25.085333  6644 net.cpp:148] Top shape: 10 4096 (40960)
2016-07-20 14:00:25.090 STDERR [INFO] I0720 14:00:25.085335  6678 net.cpp:219] relu2 does not need backward computation.
2016-07-20 14:00:25.090 STDERR [INFO] I0720 14:00:25.085345  6644 net.cpp:156] Memory required for data: 68601400
2016-07-20 14:00:25.090 STDERR [INFO] I0720 14:00:25.085356  6678 net.cpp:219] conv2 does not need backward computation.
2016-07-20 14:00:25.090 STDERR [INFO] I0720 14:00:25.085361  6644 layer_factory.hpp:77] Creating layer fc8
2016-07-20 14:00:25.090 STDERR [INFO] I0720 14:00:25.085356  6660 net.cpp:386] drop7 -> fc7 (in-place)
2016-07-20 14:00:25.090 STDERR [INFO] I0720 14:00:25.085368  6678 net.cpp:219] norm1 does not need backward computation.
2016-07-20 14:00:25.090 STDERR [INFO] I0720 14:00:25.085374  6644 net.cpp:91] Creating Layer fc8
2016-07-20 14:00:25.090 STDERR [INFO] I0720 14:00:25.085377  6678 net.cpp:219] pool1 does not need backward computation.
2016-07-20 14:00:25.090 STDERR [INFO] I0720 14:00:25.085376  6660 net.cpp:141] Setting up drop7
2016-07-20 14:00:25.090 STDERR [INFO] I0720 14:00:25.085386  6644 net.cpp:425] fc8 <- fc7
2016-07-20 14:00:25.090 STDERR [INFO] I0720 14:00:25.085386  6678 net.cpp:219] relu1 does not need backward computation.
2016-07-20 14:00:25.090 STDERR [INFO] I0720 14:00:25.085389  6660 net.cpp:148] Top shape: 10 4096 (40960)
2016-07-20 14:00:25.090 STDERR [INFO] I0720 14:00:25.085400  6678 net.cpp:219] conv1 does not need backward computation.
2016-07-20 14:00:25.090 STDERR [INFO] I0720 14:00:25.085402  6660 net.cpp:156] Memory required for data: 68601400
2016-07-20 14:00:25.090 STDERR [INFO] I0720 14:00:25.085412  6678 net.cpp:219] data does not need backward computation.
2016-07-20 14:00:25.090 STDERR [INFO] I0720 14:00:25.085413  6660 layer_factory.hpp:77] Creating layer fc8
2016-07-20 14:00:25.090 STDERR [INFO] I0720 14:00:25.085419  6678 net.cpp:261] This network produces output prob
2016-07-20 14:00:25.090 STDERR [INFO] I0720 14:00:25.085427  6660 net.cpp:91] Creating Layer fc8
2016-07-20 14:00:25.090 STDERR [INFO] I0720 14:00:25.085430  6660 net.cpp:425] fc8 <- fc7
2016-07-20 14:00:25.090 STDERR [INFO] I0720 14:00:25.085440  6660 net.cpp:399] fc8 -> fc8
2016-07-20 14:00:25.091 STDERR [INFO] I0720 14:00:25.085446  6678 net.cpp:274] Network initialization done.
2016-07-20 14:00:25.091 STDERR [INFO] I0720 14:00:25.085446  6644 net.cpp:399] fc8 -> fc8
2016-07-20 14:00:25.091 STDERR [INFO] I0720 14:00:25.085983  6672 net.cpp:141] Setting up fc7
2016-07-20 14:00:25.091 STDERR [INFO] I0720 14:00:25.086009  6672 net.cpp:148] Top shape: 10 4096 (40960)
2016-07-20 14:00:25.091 STDERR [INFO] I0720 14:00:25.086017  6672 net.cpp:156] Memory required for data: 68273720
2016-07-20 14:00:25.091 STDERR [INFO] I0720 14:00:25.086035  6672 layer_factory.hpp:77] Creating layer relu7
2016-07-20 14:00:25.091 STDERR [INFO] I0720 14:00:25.086483  6672 net.cpp:91] Creating Layer relu7
2016-07-20 14:00:25.091 STDERR [INFO] I0720 14:00:25.086499  6672 net.cpp:425] relu7 <- fc7
2016-07-20 14:00:25.091 STDERR [INFO] I0720 14:00:25.086514  6672 net.cpp:386] relu7 -> fc7 (in-place)
2016-07-20 14:00:25.091 STDERR [INFO] I0720 14:00:25.090761  6672 net.cpp:141] Setting up relu7
2016-07-20 14:00:25.091 STDERR [INFO] I0720 14:00:25.090802  6672 net.cpp:148] Top shape: 10 4096 (40960)
2016-07-20 14:00:25.091 STDERR [INFO] I0720 14:00:25.090811  6672 net.cpp:156] Memory required for data: 68437560
2016-07-20 14:00:25.091 STDERR [INFO] I0720 14:00:25.090823  6672 layer_factory.hpp:77] Creating layer drop7
2016-07-20 14:00:25.091 STDERR [INFO] I0720 14:00:25.090843  6672 net.cpp:91] Creating Layer drop7
2016-07-20 14:00:25.091 STDERR [INFO] I0720 14:00:25.090853  6672 net.cpp:425] drop7 <- fc7
2016-07-20 14:00:25.091 STDERR [INFO] I0720 14:00:25.091392  6672 net.cpp:386] drop7 -> fc7 (in-place)
2016-07-20 14:00:25.091 STDERR [INFO] I0720 14:00:25.091424  6672 net.cpp:141] Setting up drop7
2016-07-20 14:00:25.091 STDERR [INFO] I0720 14:00:25.091439  6672 net.cpp:148] Top shape: 10 4096 (40960)
2016-07-20 14:00:25.091 STDERR [INFO] I0720 14:00:25.091449  6672 net.cpp:156] Memory required for data: 68601400
2016-07-20 14:00:25.091 STDERR [INFO] I0720 14:00:25.091459  6672 layer_factory.hpp:77] Creating layer fc8
2016-07-20 14:00:25.091 STDERR [INFO] I0720 14:00:25.091480  6672 net.cpp:91] Creating Layer fc8
2016-07-20 14:00:25.091 STDERR [INFO] I0720 14:00:25.091490  6672 net.cpp:425] fc8 <- fc7
2016-07-20 14:00:25.091 STDERR [INFO] I0720 14:00:25.091505  6672 net.cpp:399] fc8 -> fc8
2016-07-20 14:00:25.103 STDERR [INFO] I0720 14:00:25.103461  6666 net.cpp:141] Setting up fc8
2016-07-20 14:00:25.103 STDERR [INFO] I0720 14:00:25.103515  6666 net.cpp:148] Top shape: 10 1000 (10000)
2016-07-20 14:00:25.103 STDERR [INFO] I0720 14:00:25.103521  6666 net.cpp:156] Memory required for data: 68641400
2016-07-20 14:00:25.103 STDERR [INFO] I0720 14:00:25.103536  6666 layer_factory.hpp:77] Creating layer prob
2016-07-20 14:00:25.103 STDERR [INFO] I0720 14:00:25.103971  6666 net.cpp:91] Creating Layer prob
2016-07-20 14:00:25.104 STDERR [INFO] I0720 14:00:25.103983  6666 net.cpp:425] prob <- fc8
2016-07-20 14:00:25.104 STDERR [INFO] I0720 14:00:25.103994  6666 net.cpp:399] prob -> prob
2016-07-20 14:00:25.105 STDERR [INFO] I0720 14:00:25.104997  6664 net.cpp:141] Setting up fc8
2016-07-20 14:00:25.105 STDERR [INFO] I0720 14:00:25.105020  6664 net.cpp:148] Top shape: 10 1000 (10000)
2016-07-20 14:00:25.105 STDERR [INFO] I0720 14:00:25.105026  6664 net.cpp:156] Memory required for data: 68641400
2016-07-20 14:00:25.105 STDERR [INFO] I0720 14:00:25.105037  6664 layer_factory.hpp:77] Creating layer prob
2016-07-20 14:00:25.105 STDERR [INFO] I0720 14:00:25.105047  6664 net.cpp:91] Creating Layer prob
2016-07-20 14:00:25.105 STDERR [INFO] I0720 14:00:25.105053  6664 net.cpp:425] prob <- fc8
2016-07-20 14:00:25.105 STDERR [INFO] I0720 14:00:25.105060  6664 net.cpp:399] prob -> prob
2016-07-20 14:00:25.109 STDERR [INFO] I0720 14:00:25.109314  6660 net.cpp:141] Setting up fc8
2016-07-20 14:00:25.109 STDERR [INFO] I0720 14:00:25.109374  6660 net.cpp:148] Top shape: 10 1000 (10000)
2016-07-20 14:00:25.109 STDERR [INFO] I0720 14:00:25.109382  6660 net.cpp:156] Memory required for data: 68641400
2016-07-20 14:00:25.109 STDERR [INFO] I0720 14:00:25.109403  6660 layer_factory.hpp:77] Creating layer prob
2016-07-20 14:00:25.109 STDERR [INFO] I0720 14:00:25.109954  6660 net.cpp:91] Creating Layer prob
2016-07-20 14:00:25.110 STDERR [INFO] I0720 14:00:25.109972  6660 net.cpp:425] prob <- fc8
2016-07-20 14:00:25.110 STDERR [INFO] I0720 14:00:25.109990  6660 net.cpp:399] prob -> prob
2016-07-20 14:00:25.110 STDERR [INFO] I0720 14:00:25.110050  6666 net.cpp:141] Setting up prob
2016-07-20 14:00:25.110 STDERR [INFO] I0720 14:00:25.110076  6666 net.cpp:148] Top shape: 10 1000 (10000)
2016-07-20 14:00:25.110 STDERR [INFO] I0720 14:00:25.110081  6666 net.cpp:156] Memory required for data: 68681400
2016-07-20 14:00:25.110 STDERR [INFO] I0720 14:00:25.110087  6666 net.cpp:219] prob does not need backward computation.
2016-07-20 14:00:25.110 STDERR [INFO] I0720 14:00:25.110092  6666 net.cpp:219] fc8 does not need backward computation.
2016-07-20 14:00:25.110 STDERR [INFO] I0720 14:00:25.110097  6666 net.cpp:219] drop7 does not need backward computation.
2016-07-20 14:00:25.110 STDERR [INFO] I0720 14:00:25.110101  6666 net.cpp:219] relu7 does not need backward computation.
2016-07-20 14:00:25.110 STDERR [INFO] I0720 14:00:25.110105  6666 net.cpp:219] fc7 does not need backward computation.
2016-07-20 14:00:25.110 STDERR [INFO] I0720 14:00:25.110110  6666 net.cpp:219] drop6 does not need backward computation.
2016-07-20 14:00:25.110 STDERR [INFO] I0720 14:00:25.110108  6664 net.cpp:141] Setting up prob
2016-07-20 14:00:25.110 STDERR [INFO] I0720 14:00:25.110115  6666 net.cpp:219] relu6 does not need backward computation.
2016-07-20 14:00:25.110 STDERR [INFO] I0720 14:00:25.110131  6664 net.cpp:148] Top shape: 10 1000 (10000)
2016-07-20 14:00:25.110 STDERR [INFO] I0720 14:00:25.110132  6666 net.cpp:219] fc6 does not need backward computation.
2016-07-20 14:00:25.111 STDERR [INFO] I0720 14:00:25.110137  6664 net.cpp:156] Memory required for data: 68681400
2016-07-20 14:00:25.111 STDERR [INFO] I0720 14:00:25.110139  6666 net.cpp:219] pool5 does not need backward computation.
2016-07-20 14:00:25.111 STDERR [INFO] I0720 14:00:25.110142  6664 net.cpp:219] prob does not need backward computation.
…
2016-07-20 14:00:27.097 n.t.s.b.CVParticleBolt [INFO] [Timing] RequestID: 0 StreamID: home/peifeng/work/data/frame.320x240.jpg SequenceNr: 8 Entering vgg_feature: 1469037627097
2016-07-20 14:00:27.097 n.t.s.b.CVParticleBolt [INFO] [Timing] RequestID: 0 StreamID: home/peifeng/work/data/frame.320x240.jpg SequenceNr: 7 Entering frame_grouper_batcher: 1469037627097
2016-07-20 14:00:27.097 n.t.s.b.CVParticleBolt [INFO] Get 0 batches from batcher
2016-07-20 14:00:27.108 STDERR [INFO] I0720 14:00:27.108186  6650 net.cpp:141] Setting up input
2016-07-20 14:00:27.108 STDERR [INFO] I0720 14:00:27.108249  6650 net.cpp:148] Top shape: 1 4096 (4096)
2016-07-20 14:00:27.108 STDERR [INFO] I0720 14:00:27.108261  6650 net.cpp:148] Top shape: 1 1 (1)
2016-07-20 14:00:27.108 STDERR [INFO] I0720 14:00:27.108270  6650 net.cpp:148] Top shape: 1 1 (1)
2016-07-20 14:00:27.108 STDERR [INFO] I0720 14:00:27.108278  6650 net.cpp:148] Top shape: 1 1 (1)
2016-07-20 14:00:27.108 STDERR [INFO] I0720 14:00:27.108284  6650 net.cpp:156] Memory required for data: 16396
2016-07-20 14:00:27.108 STDERR [INFO] I0720 14:00:27.108297  6650 layer_factory.hpp:77] Creating layer cont_sentence_input_1_split
2016-07-20 14:00:27.108 STDERR [INFO] I0720 14:00:27.108326  6650 net.cpp:91] Creating Layer cont_sentence_input_1_split
2016-07-20 14:00:27.108 STDERR [INFO] I0720 14:00:27.108336  6650 net.cpp:425] cont_sentence_input_1_split <- cont_sentence
2016-07-20 14:00:27.108 STDERR [INFO] I0720 14:00:27.108350  6650 net.cpp:399] cont_sentence_input_1_split -> cont_sentence_input_1_split_0
2016-07-20 14:00:27.108 STDERR [INFO] I0720 14:00:27.108368  6650 net.cpp:399] cont_sentence_input_1_split -> cont_sentence_input_1_split_1
2016-07-20 14:00:27.108 STDERR [INFO] I0720 14:00:27.108461  6650 net.cpp:141] Setting up cont_sentence_input_1_split
2016-07-20 14:00:27.108 STDERR [INFO] I0720 14:00:27.108474  6650 net.cpp:148] Top shape: 1 1 (1)
2016-07-20 14:00:27.109 STDERR [INFO] I0720 14:00:27.108484  6650 net.cpp:148] Top shape: 1 1 (1)
2016-07-20 14:00:27.109 STDERR [INFO] I0720 14:00:27.108489  6650 net.cpp:156] Memory required for data: 16404
2016-07-20 14:00:27.109 STDERR [INFO] I0720 14:00:27.108496  6650 layer_factory.hpp:77] Creating layer embed_encoder
2016-07-20 14:00:27.109 STDERR [INFO] I0720 14:00:27.108518  6650 net.cpp:91] Creating Layer embed_encoder
2016-07-20 14:00:27.109 STDERR [INFO] I0720 14:00:27.108526  6650 net.cpp:425] embed_encoder <- frames_fc7
…
2016-07-20 14:00:27.394 STDERR [INFO] }
2016-07-20 14:00:27.394 STDERR [INFO] I0720 14:00:27.384593  6650 layer_factory.hpp:77] Creating layer lstm1_
2016-07-20 14:00:27.394 STDERR [INFO] I0720 14:00:27.384606  6650 net.cpp:91] Creating Layer lstm1_
2016-07-20 14:00:27.394 STDERR [INFO] I0720 14:00:27.384613  6650 net.cpp:399] lstm1_ -> x
2016-07-20 14:00:27.394 STDERR [INFO] I0720 14:00:27.384624  6650 net.cpp:399] lstm1_ -> cont
2016-07-20 14:00:27.394 STDERR [INFO] I0720 14:00:27.384712  6650 net.cpp:141] Setting up lstm1_
2016-07-20 14:00:27.394 STDERR [INFO] I0720 14:00:27.384722  6650 net.cpp:148] Top shape: 1 1 500 (500)
2016-07-20 14:00:27.394 STDERR [INFO] I0720 14:00:27.384728  6650 net.cpp:148] Top shape: 1 1 (1)
2016-07-20 14:00:27.394 STDERR [INFO] I0720 14:00:27.384732  6650 net.cpp:156] Memory required for data: 2004
2016-07-20 14:00:27.394 STDERR [INFO] I0720 14:00:27.384737  6650 layer_factory.hpp:77] Creating layer lstm1_
2016-07-20 14:00:27.394 STDERR [INFO] I0720 14:00:27.384749  6650 net.cpp:91] Creating Layer lstm1_
2016-07-20 14:00:27.394 STDERR [INFO] I0720 14:00:27.384755  6650 net.cpp:399] lstm1_ -> c_0
2016-07-20 14:00:27.394 STDERR [INFO] I0720 14:00:27.384768  6650 net.cpp:399] lstm1_ -> h_0
2016-07-20 14:00:27.394 STDERR [INFO] I0720 14:00:27.384919  6650 net.cpp:141] Setting up lstm1_
2016-07-20 14:00:27.394 STDERR [INFO] I0720 14:00:27.384932  6650 net.cpp:148] Top shape: 1 1 1000 (1000)
2016-07-20 14:00:27.395 STDERR [INFO] I0720 14:00:27.384937  6650 net.cpp:148] Top shape: 1 1 1000 (1000)
2016-07-20 14:00:27.395 STDERR [INFO] I0720 14:00:27.384940  6650 net.cpp:156] Memory required for data: 10004
2016-07-20 14:00:27.395 STDERR [INFO] I0720 14:00:27.384945  6650 layer_factory.hpp:77] Creating layer lstm1_cont_slice
2016-07-20 14:00:27.395 STDERR [INFO] I0720 14:00:27.384968  6650 net.cpp:91] Creating Layer lstm1_cont_slice
2016-07-20 14:00:27.395 STDERR [INFO] I0720 14:00:27.384973  6650 net.cpp:425] lstm1_cont_slice <- cont
2016-07-20 14:00:27.395 STDERR [INFO] I0720 14:00:27.384980  6650 net.cpp:399] lstm1_cont_slice -> cont_1
2016-07-20 14:00:27.395 STDERR [INFO] I0720 14:00:27.385046  6650 net.cpp:141] Setting up lstm1_cont_slice
2016-07-20 14:00:27.395 STDERR [INFO] I0720 14:00:27.385056  6650 net.cpp:148] Top shape: 1 1 (1)
2016-07-20 14:00:27.395 STDERR [INFO] I0720 14:00:27.385061  6650 net.cpp:156] Memory required for data: 10008
2016-07-20 14:00:27.395 STDERR [INFO] I0720 14:00:27.385066  6650 layer_factory.hpp:77] Creating layer cont_1_lstm1_cont_slice_0_split
2016-07-20 14:00:27.395 STDERR [INFO] I0720 14:00:27.385072  6650 net.cpp:91] Creating Layer cont_1_lstm1_cont_slice_0_split
2016-07-20 14:00:27.395 STDERR [INFO] I0720 14:00:27.385077  6650 net.cpp:425] cont_1_lstm1_cont_slice_0_split <- cont_1
2016-07-20 14:00:27.395 STDERR [INFO] I0720 14:00:27.385083  6650 net.cpp:399] cont_1_lstm1_cont_slice_0_split -> cont_1_lstm1_cont_slice_0_split_0
2016-07-20 14:00:27.395 STDERR [INFO] I0720 14:00:27.385092  6650 net.cpp:399] cont_1_lstm1_cont_slice_0_split -> cont_1_lstm1_cont_slice_0_split_1
2016-07-20 14:00:27.395 STDERR [INFO] I0720 14:00:27.385162  6650 net.cpp:141] Setting up cont_1_lstm1_cont_slice_0_split
2016-07-20 14:00:27.395 STDERR [INFO] I0720 14:00:27.385171  6650 net.cpp:148] Top shape: 1 1 (1)
2016-07-20 14:00:27.395 STDERR [INFO] I0720 14:00:27.385176  6650 net.cpp:148] Top shape: 1 1 (1)
2016-07-20 14:00:27.396 STDERR [INFO] I0720 14:00:27.385180  6650 net.cpp:156] Memory required for data: 10016
2016-07-20 14:00:27.396 STDERR [INFO] I0720 14:00:27.385185  6650 layer_factory.hpp:77] Creating layer lstm1_x_transform
2016-07-20 14:00:27.396 STDERR [INFO] I0720 14:00:27.385198  6650 net.cpp:91] Creating Layer lstm1_x_transform
2016-07-20 14:00:27.396 STDERR [INFO] I0720 14:00:27.385203  6650 net.cpp:425] lstm1_x_transform <- x
…
2016-07-20 14:00:27.436 n.t.s.b.CVParticleBolt [INFO] [Timing] RequestID: 0 StreamID: home/peifeng/work/data/frame.320x240.jpg SequenceNr: 21 Entering vgg_feature: 1469037627436
2016-07-20 14:00:27.436 n.t.s.b.CVParticleBolt [INFO] [Timing] RequestID: 0 StreamID: home/peifeng/work/data/frame.320x240.jpg SequenceNr: 9 Entering frame_grouper_batcher: 1469037627436
2016-07-20 14:00:27.437 n.t.s.b.CVParticleBolt [INFO] Get 0 batches from batcher
2016-07-20 14:00:27.457 STDERR [INFO] I0720 14:00:27.457855  6650 net.cpp:141] Setting up lstm1_transform_1
2016-07-20 14:00:27.458 STDERR [INFO] I0720 14:00:27.457907  6650 net.cpp:148] Top shape: 1 1 4000 (4000)
2016-07-20 14:00:27.458 STDERR [INFO] I0720 14:00:27.457913  6650 net.cpp:156] Memory required for data: 62016
2016-07-20 14:00:27.458 STDERR [INFO] I0720 14:00:27.457938  6650 layer_factory.hpp:77] Creating layer lstm1_gate_input_1
2016-07-20 14:00:27.458 STDERR [INFO] I0720 14:00:27.457959  6650 net.cpp:91] Creating Layer lstm1_gate_input_1
2016-07-20 14:00:27.458 STDERR [INFO] I0720 14:00:27.457967  6650 net.cpp:425] lstm1_gate_input_1 <- W_hc_h_0
2016-07-20 14:00:27.458 STDERR [INFO] I0720 14:00:27.457975  6650 net.cpp:425] lstm1_gate_input_1 <- W_xc_x_1
2016-07-20 14:00:27.458 STDERR [INFO] I0720 14:00:27.457983  6650 net.cpp:399] lstm1_gate_input_1 -> gate_input_1
2016-07-20 14:00:27.458 STDERR [INFO] I0720 14:00:27.458070  6650 net.cpp:141] Setting up lstm1_gate_input_1
2016-07-20 14:00:27.458 STDERR [INFO] I0720 14:00:27.458081  6650 net.cpp:148] Top shape: 1 1 4000 (4000)
2016-07-20 14:00:27.458 STDERR [INFO] I0720 14:00:27.458086  6650 net.cpp:156] Memory required for data: 78016
2016-07-20 14:00:27.458 STDERR [INFO] I0720 14:00:27.458089  6650 layer_factory.hpp:77] Creating layer lstm1_unit_1
2016-07-20 14:00:27.458 STDERR [INFO] I0720 14:00:27.458098  6650 net.cpp:91] Creating Layer lstm1_unit_1
2016-07-20 14:00:27.458 STDERR [INFO] I0720 14:00:27.458102  6650 net.cpp:425] lstm1_unit_1 <- c_0
2016-07-20 14:00:27.458 STDERR [INFO] I0720 14:00:27.458108  6650 net.cpp:425] lstm1_unit_1 <- gate_input_1
2016-07-20 14:00:27.458 STDERR [INFO] I0720 14:00:27.458112  6650 net.cpp:425] lstm1_unit_1 <- cont_1_lstm1_cont_slice_0_split_1
2016-07-20 14:00:27.458 STDERR [INFO] I0720 14:00:27.458119  6650 net.cpp:399] lstm1_unit_1 -> c_1
2016-07-20 14:00:27.458 STDERR [INFO] I0720 14:00:27.458127  6650 net.cpp:399] lstm1_unit_1 -> h_1
2016-07-20 14:00:27.458 STDERR [INFO] I0720 14:00:27.458221  6650 net.cpp:141] Setting up lstm1_unit_1
2016-07-20 14:00:27.459 STDERR [INFO] I0720 14:00:27.458230  6650 net.cpp:148] Top shape: 1 1 1000 (1000)
2016-07-20 14:00:27.459 STDERR [INFO] I0720 14:00:27.458236  6650 net.cpp:148] Top shape: 1 1 1000 (1000)
2016-07-20 14:00:27.459 STDERR [INFO] I0720 14:00:27.458240  6650 net.cpp:156] Memory required for data: 86016
2016-07-20 14:00:27.459 STDERR [INFO] I0720 14:00:27.458245  6650 layer_factory.hpp:77] Creating layer lstm1_
2016-07-20 14:00:27.459 STDERR [INFO] I0720 14:00:27.458252  6650 net.cpp:91] Creating Layer lstm1_
2016-07-20 14:00:27.459 STDERR [INFO] I0720 14:00:27.458257  6650 net.cpp:425] lstm1_ <- c_1
2016-07-20 14:00:27.459 STDERR [INFO] I0720 14:00:27.458263  6650 net.cpp:399] lstm1_ -> c_T
2016-07-20 14:00:27.459 STDERR [INFO] I0720 14:00:27.458305  6650 net.cpp:141] Setting up lstm1_
2016-07-20 14:00:27.459 STDERR [INFO] I0720 14:00:27.458314  6650 net.cpp:148] Top shape: 1 1 1000 (1000)
2016-07-20 14:00:27.459 STDERR [INFO] I0720 14:00:27.458318  6650 net.cpp:156] Memory required for data: 90016
2016-07-20 14:00:27.459 STDERR [INFO] I0720 14:00:27.458323  6650 layer_factory.hpp:77] Creating layer lstm1_h_concat
2016-07-20 14:00:27.459 STDERR [INFO] I0720 14:00:27.458334  6650 net.cpp:91] Creating Layer lstm1_h_concat
2016-07-20 14:00:27.459 STDERR [INFO] I0720 14:00:27.458338  6650 net.cpp:425] lstm1_h_concat <- h_1
2016-07-20 14:00:27.459 STDERR [INFO] I0720 14:00:27.458345  6650 net.cpp:399] lstm1_h_concat -> h
2016-07-20 14:00:27.459 STDERR [INFO] I0720 14:00:27.458391  6650 net.cpp:141] Setting up lstm1_h_concat
2016-07-20 14:00:27.459 STDERR [INFO] I0720 14:00:27.458400  6650 net.cpp:148] Top shape: 1 1 1000 (1000)
2016-07-20 14:00:27.459 STDERR [INFO] I0720 14:00:27.458405  6650 net.cpp:156] Memory required for data: 94016
2016-07-20 14:00:27.459 STDERR [INFO] I0720 14:00:27.458408  6650 layer_factory.hpp:77] Creating layer h_pseudoloss
2016-07-20 14:00:27.459 STDERR [INFO] I0720 14:00:27.458420  6650 net.cpp:91] Creating Layer h_pseudoloss
2016-07-20 14:00:27.459 STDERR [INFO] I0720 14:00:27.458425  6650 net.cpp:425] h_pseudoloss <- h
…
2016-07-20 14:00:27.466 STDERR [INFO] }
2016-07-20 14:00:27.466 STDERR [INFO] I0720 14:00:27.459362  6650 layer_factory.hpp:77] Creating layer lstm2_
2016-07-20 14:00:27.466 STDERR [INFO] I0720 14:00:27.459377  6650 net.cpp:91] Creating Layer lstm2_
2016-07-20 14:00:27.466 STDERR [INFO] I0720 14:00:27.459383  6650 net.cpp:399] lstm2_ -> x
2016-07-20 14:00:27.466 STDERR [INFO] I0720 14:00:27.459393  6650 net.cpp:399] lstm2_ -> cont
2016-07-20 14:00:27.466 STDERR [INFO] I0720 14:00:27.459465  6650 net.cpp:141] Setting up lstm2_
2016-07-20 14:00:27.466 STDERR [INFO] I0720 14:00:27.459473  6650 net.cpp:148] Top shape: 1 1 1501 (1501)
2016-07-20 14:00:27.466 STDERR [INFO] I0720 14:00:27.459480  6650 net.cpp:148] Top shape: 1 1 (1)
2016-07-20 14:00:27.466 STDERR [INFO] I0720 14:00:27.459483  6650 net.cpp:156] Memory required for data: 6008
2016-07-20 14:00:27.466 STDERR [INFO] I0720 14:00:27.459487  6650 layer_factory.hpp:77] Creating layer lstm2_
2016-07-20 14:00:27.466 STDERR [INFO] I0720 14:00:27.459501  6650 net.cpp:91] Creating Layer lstm2_
2016-07-20 14:00:27.466 STDERR [INFO] I0720 14:00:27.459506  6650 net.cpp:399] lstm2_ -> c_0
2016-07-20 14:00:27.466 STDERR [INFO] I0720 14:00:27.459518  6650 net.cpp:399] lstm2_ -> h_0
2016-07-20 14:00:27.467 STDERR [INFO] I0720 14:00:27.459590  6650 net.cpp:141] Setting up lstm2_
2016-07-20 14:00:27.467 STDERR [INFO] I0720 14:00:27.459599  6650 net.cpp:148] Top shape: 1 1 1000 (1000)
2016-07-20 14:00:27.467 STDERR [INFO] I0720 14:00:27.459604  6650 net.cpp:148] Top shape: 1 1 1000 (1000)
2016-07-20 14:00:27.467 STDERR [INFO] I0720 14:00:27.459609  6650 net.cpp:156] Memory required for data: 14008
2016-07-20 14:00:27.467 STDERR [INFO] I0720 14:00:27.459612  6650 layer_factory.hpp:77] Creating layer lstm2_cont_slice
2016-07-20 14:00:27.467 STDERR [INFO] I0720 14:00:27.459624  6650 net.cpp:91] Creating Layer lstm2_cont_slice
2016-07-20 14:00:27.467 STDERR [INFO] I0720 14:00:27.459628  6650 net.cpp:425] lstm2_cont_slice <- cont
2016-07-20 14:00:27.467 STDERR [INFO] I0720 14:00:27.459635  6650 net.cpp:399] lstm2_cont_slice -> cont_1
2016-07-20 14:00:27.467 STDERR [INFO] I0720 14:00:27.459679  6650 net.cpp:141] Setting up lstm2_cont_slice
2016-07-20 14:00:27.467 STDERR [INFO] I0720 14:00:27.459688  6650 net.cpp:148] Top shape: 1 1 (1)
2016-07-20 14:00:27.467 STDERR [INFO] I0720 14:00:27.459692  6650 net.cpp:156] Memory required for data: 14012
2016-07-20 14:00:27.467 STDERR [INFO] I0720 14:00:27.459697  6650 layer_factory.hpp:77] Creating layer cont_1_lstm2_cont_slice_0_split
2016-07-20 14:00:27.467 STDERR [INFO] I0720 14:00:27.459707  6650 net.cpp:91] Creating Layer cont_1_lstm2_cont_slice_0_split
2016-07-20 14:00:27.467 STDERR [INFO] I0720 14:00:27.459712  6650 net.cpp:425] cont_1_lstm2_cont_slice_0_split <- cont_1
2016-07-20 14:00:27.467 STDERR [INFO] I0720 14:00:27.459718  6650 net.cpp:399] cont_1_lstm2_cont_slice_0_split -> cont_1_lstm2_cont_slice_0_split_0
2016-07-20 14:00:27.467 STDERR [INFO] I0720 14:00:27.459725  6650 net.cpp:399] cont_1_lstm2_cont_slice_0_split -> cont_1_lstm2_cont_slice_0_split_1
2016-07-20 14:00:27.467 STDERR [INFO] I0720 14:00:27.459791  6650 net.cpp:141] Setting up cont_1_lstm2_cont_slice_0_split
2016-07-20 14:00:27.467 STDERR [INFO] I0720 14:00:27.459800  6650 net.cpp:148] Top shape: 1 1 (1)
2016-07-20 14:00:27.467 STDERR [INFO] I0720 14:00:27.459805  6650 net.cpp:148] Top shape: 1 1 (1)
2016-07-20 14:00:27.467 STDERR [INFO] I0720 14:00:27.459808  6650 net.cpp:156] Memory required for data: 14020
2016-07-20 14:00:27.467 STDERR [INFO] I0720 14:00:27.459812  6650 layer_factory.hpp:77] Creating layer lstm2_x_transform
2016-07-20 14:00:27.467 STDERR [INFO] I0720 14:00:27.459828  6650 net.cpp:91] Creating Layer lstm2_x_transform
2016-07-20 14:00:27.467 STDERR [INFO] I0720 14:00:27.459833  6650 net.cpp:425] lstm2_x_transform <- x
…
2016-07-20 14:00:27.522 n.t.s.b.CVParticleBolt [INFO] [Timing] RequestID: 0 StreamID: home/peifeng/work/data/frame.320x240.jpg SequenceNr: 20 Entering vgg_feature: 1469037627522
2016-07-20 14:00:27.522 n.t.s.b.CVParticleBolt [INFO] [Timing] RequestID: 0 StreamID: home/peifeng/work/data/frame.320x240.jpg SequenceNr: 10 Entering frame_grouper_batcher: 1469037627522
2016-07-20 14:00:27.522 n.t.s.b.CVParticleBolt [INFO] Get 0 batches from batcher
2016-07-20 14:00:27.534 STDERR [INFO] I0720 14:00:27.534332  6650 net.cpp:141] Setting up lstm2_x_transform
2016-07-20 14:00:27.534 STDERR [INFO] I0720 14:00:27.534390  6650 net.cpp:148] Top shape: 1 1 4000 (4000)
2016-07-20 14:00:27.534 STDERR [INFO] I0720 14:00:27.534399  6650 net.cpp:156] Memory required for data: 30020
2016-07-20 14:00:27.534 STDERR [INFO] I0720 14:00:27.534428  6650 layer_factory.hpp:77] Creating layer lstm2_W_xc_x_slice
2016-07-20 14:00:27.534 STDERR [INFO] I0720 14:00:27.534451  6650 net.cpp:91] Creating Layer lstm2_W_xc_x_slice
2016-07-20 14:00:27.535 STDERR [INFO] I0720 14:00:27.534461  6650 net.cpp:425] lstm2_W_xc_x_slice <- W_xc_x
2016-07-20 14:00:27.535 STDERR [INFO] I0720 14:00:27.534473  6650 net.cpp:399] lstm2_W_xc_x_slice -> W_xc_x_1
2016-07-20 14:00:27.535 STDERR [INFO] I0720 14:00:27.534550  6650 net.cpp:141] Setting up lstm2_W_xc_x_slice
2016-07-20 14:00:27.535 STDERR [INFO] I0720 14:00:27.534566  6650 net.cpp:148] Top shape: 1 1 4000 (4000)
2016-07-20 14:00:27.535 STDERR [INFO] I0720 14:00:27.534572  6650 net.cpp:156] Memory required for data: 46020
2016-07-20 14:00:27.535 STDERR [INFO] I0720 14:00:27.534580  6650 layer_factory.hpp:77] Creating layer lstm2_h_conted_0
2016-07-20 14:00:27.535 STDERR [INFO] I0720 14:00:27.534593  6650 net.cpp:91] Creating Layer lstm2_h_conted_0
2016-07-20 14:00:27.535 STDERR [INFO] I0720 14:00:27.534601  6650 net.cpp:425] lstm2_h_conted_0 <- h_0
2016-07-20 14:00:27.535 STDERR [INFO] I0720 14:00:27.534610  6650 net.cpp:425] lstm2_h_conted_0 <- cont_1_lstm2_cont_slice_0_split_0
2016-07-20 14:00:27.535 STDERR [INFO] I0720 14:00:27.534626  6650 net.cpp:399] lstm2_h_conted_0 -> h_conted_0
2016-07-20 14:00:27.535 STDERR [INFO] I0720 14:00:27.534838  6650 net.cpp:141] Setting up lstm2_h_conted_0
2016-07-20 14:00:27.535 STDERR [INFO] I0720 14:00:27.534853  6650 net.cpp:148] Top shape: 1 1 1000 (1000)
2016-07-20 14:00:27.535 STDERR [INFO] I0720 14:00:27.534860  6650 net.cpp:156] Memory required for data: 50020
2016-07-20 14:00:27.535 STDERR [INFO] I0720 14:00:27.534868  6650 layer_factory.hpp:77] Creating layer lstm2_transform_1
2016-07-20 14:00:27.535 STDERR [INFO] I0720 14:00:27.534884  6650 net.cpp:91] Creating Layer lstm2_transform_1
2016-07-20 14:00:27.535 STDERR [INFO] I0720 14:00:27.534893  6650 net.cpp:425] lstm2_transform_1 <- h_conted_0
2016-07-20 14:00:27.535 STDERR [INFO] I0720 14:00:27.534906  6650 net.cpp:399] lstm2_transform_1 -> W_hc_h_0
2016-07-20 14:00:27.592 STDERR [INFO] I0720 14:00:27.592062  6650 net.cpp:141] Setting up lstm2_transform_1
2016-07-20 14:00:27.592 STDERR [INFO] I0720 14:00:27.592120  6650 net.cpp:148] Top shape: 1 1 4000 (4000)
2016-07-20 14:00:27.592 STDERR [INFO] I0720 14:00:27.592129  6650 net.cpp:156] Memory required for data: 66020
2016-07-20 14:00:27.592 STDERR [INFO] I0720 14:00:27.592155  6650 layer_factory.hpp:77] Creating layer lstm2_gate_input_1
2016-07-20 14:00:27.592 STDERR [INFO] I0720 14:00:27.592180  6650 net.cpp:91] Creating Layer lstm2_gate_input_1
2016-07-20 14:00:27.592 STDERR [INFO] I0720 14:00:27.592190  6650 net.cpp:425] lstm2_gate_input_1 <- W_hc_h_0
2016-07-20 14:00:27.592 STDERR [INFO] I0720 14:00:27.592202  6650 net.cpp:425] lstm2_gate_input_1 <- W_xc_x_1
2016-07-20 14:00:27.592 STDERR [INFO] I0720 14:00:27.592219  6650 net.cpp:399] lstm2_gate_input_1 -> gate_input_1
2016-07-20 14:00:27.592 STDERR [INFO] I0720 14:00:27.592300  6650 net.cpp:141] Setting up lstm2_gate_input_1
2016-07-20 14:00:27.592 STDERR [INFO] I0720 14:00:27.592314  6650 net.cpp:148] Top shape: 1 1 4000 (4000)
2016-07-20 14:00:27.592 STDERR [INFO] I0720 14:00:27.592321  6650 net.cpp:156] Memory required for data: 82020
2016-07-20 14:00:27.592 STDERR [INFO] I0720 14:00:27.592329  6650 layer_factory.hpp:77] Creating layer lstm2_unit_1
2016-07-20 14:00:27.592 STDERR [INFO] I0720 14:00:27.592341  6650 net.cpp:91] Creating Layer lstm2_unit_1
2016-07-20 14:00:27.592 STDERR [INFO] I0720 14:00:27.592350  6650 net.cpp:425] lstm2_unit_1 <- c_0
2016-07-20 14:00:27.592 STDERR [INFO] I0720 14:00:27.592358  6650 net.cpp:425] lstm2_unit_1 <- gate_input_1
2016-07-20 14:00:27.592 STDERR [INFO] I0720 14:00:27.592367  6650 net.cpp:425] lstm2_unit_1 <- cont_1_lstm2_cont_slice_0_split_1
2016-07-20 14:00:27.592 STDERR [INFO] I0720 14:00:27.592391  6650 net.cpp:399] lstm2_unit_1 -> c_1
2016-07-20 14:00:27.593 STDERR [INFO] I0720 14:00:27.592408  6650 net.cpp:399] lstm2_unit_1 -> h_1
2016-07-20 14:00:27.593 STDERR [INFO] I0720 14:00:27.592561  6650 net.cpp:141] Setting up lstm2_unit_1
2016-07-20 14:00:27.593 STDERR [INFO] I0720 14:00:27.592576  6650 net.cpp:148] Top shape: 1 1 1000 (1000)
2016-07-20 14:00:27.593 STDERR [INFO] I0720 14:00:27.592586  6650 net.cpp:148] Top shape: 1 1 1000 (1000)
2016-07-20 14:00:27.593 STDERR [INFO] I0720 14:00:27.592592  6650 net.cpp:156] Memory required for data: 90020
2016-07-20 14:00:27.593 STDERR [INFO] I0720 14:00:27.592599  6650 layer_factory.hpp:77] Creating layer lstm2_
2016-07-20 14:00:27.593 STDERR [INFO] I0720 14:00:27.592612  6650 net.cpp:91] Creating Layer lstm2_
2016-07-20 14:00:27.593 STDERR [INFO] I0720 14:00:27.592618  6650 net.cpp:425] lstm2_ <- c_1
2016-07-20 14:00:27.593 STDERR [INFO] I0720 14:00:27.592629  6650 net.cpp:399] lstm2_ -> c_T
2016-07-20 14:00:27.593 STDERR [INFO] I0720 14:00:27.592705  6650 net.cpp:141] Setting up lstm2_
2016-07-20 14:00:27.593 STDERR [INFO] I0720 14:00:27.592720  6650 net.cpp:148] Top shape: 1 1 1000 (1000)
2016-07-20 14:00:27.593 STDERR [INFO] I0720 14:00:27.592726  6650 net.cpp:156] Memory required for data: 94020
2016-07-20 14:00:27.593 STDERR [INFO] I0720 14:00:27.592735  6650 layer_factory.hpp:77] Creating layer lstm2_h_concat
2016-07-20 14:00:27.593 STDERR [INFO] I0720 14:00:27.592747  6650 net.cpp:91] Creating Layer lstm2_h_concat
2016-07-20 14:00:27.593 STDERR [INFO] I0720 14:00:27.592754  6650 net.cpp:425] lstm2_h_concat <- h_1
2016-07-20 14:00:27.593 STDERR [INFO] I0720 14:00:27.592778  6650 net.cpp:399] lstm2_h_concat -> h
2016-07-20 14:00:27.593 STDERR [INFO] I0720 14:00:27.592846  6650 net.cpp:141] Setting up lstm2_h_concat
2016-07-20 14:00:27.593 STDERR [INFO] I0720 14:00:27.592859  6650 net.cpp:148] Top shape: 1 1 1000 (1000)
2016-07-20 14:00:27.593 STDERR [INFO] I0720 14:00:27.592866  6650 net.cpp:156] Memory required for data: 98020
2016-07-20 14:00:27.593 STDERR [INFO] I0720 14:00:27.592875  6650 layer_factory.hpp:77] Creating layer h_pseudoloss
2016-07-20 14:00:27.593 STDERR [INFO] I0720 14:00:27.592886  6650 net.cpp:91] Creating Layer h_pseudoloss
2016-07-20 14:00:27.593 STDERR [INFO] I0720 14:00:27.592893  6650 net.cpp:425] h_pseudoloss <- h
…
