…
Java HotSpot(TM) 64-Bit Server VM warning: You have loaded library /tmp/cvld6379953663353717581/libopencv_java310.xine1.so which might have disabled stack guard. The VM will try to fix the stack guard now.
It's highly recommended that you fix the library with 'execstack -c <libfile>', or link it with '-z noexecstack'.
WARNING: Logging before InitGoogleLogging() is written to STDERR
I0714 23:43:21.450091 11473 net.cpp:49] Initializing net from parameters: 
name: "GoogleNet"
state {
  phase: TEST
}
layer {
  name: "data"
  type: "Input"
  top: "data"
  input_param {
    shape {
      dim: 10
      dim: 3
      dim: 224
      dim: 224
    }
  }
}
layer {
  name: "conv1/7x7_s2"
  type: "Convolution"
  bottom: "data"
  top: "conv1/7x7_s2"
  param {
    lr_mult: 1
    decay_mult: 1
  }
  param {
    lr_mult: 2
    decay_mult: 0
  }
  convolution_param {
    num_output: 64
    pad: 3
    kernel_size: 7
    stride: 2
    weight_filler {
      type: "xavier"
      std: 0.1
    }
    bias_filler {
      type: "constant"
      value: 0.2
    }
  }
}
layer {
  name: "conv1/relu_7x7"
  type: "ReLU"
  bottom: "conv1/7x7_s2"
  top: "conv1/7x7_s2"
}
layer {
  name: "pool1/3x3_s2"
  type: "Pooling"
  bottom: "conv1/7x7_s2"
  top: "pool1/3x3_s2"
  pooling_param {
    pool: MAX
    kernel_size: 3
    stride: 2
  }
}
layer {
  name: "pool1/norm1"
  type: "LRN"
  bottom: "pool1/3x3_s2"
  top: "pool1/norm1"
  lrn_param {
    local_size: 5
    alpha: 0.0001
    beta: 0.75
  }
}
layer {
  name: "conv2/3x3_reduce"
  type: "Convolution"
  bottom: "pool1/norm1"
  top: "conv2/3x3_reduce"
  param {
    lr_mult: 1
    decay_mult: 1
  }
  param {
    lr_mult: 2
    decay_mult: 0
  }
  convolution_param {
    num_output: 64
    kernel_size: 1
    weight_filler {
      type: "xavier"
      std: 0.1
    }
    bias_filler {
      type: "constant"
      value: 0.2
    }
  }
}
layer {
  name: "conv2/relu_3x3_reduce"
  type: "ReLU"
  bottom: "conv2/3x3_reduce"
  top: "conv2/3x3_reduce"
}
layer {
  name: "conv2/3x3"
  type: "Convolution"
  bottom: "conv2/3x3_reduce"
  top: "conv2/3x3"
  param {
    lr_mult: 1
    decay_mult: 1
  }
  param {
    lr_mult: 2
    decay_mult: 0
  }
  convolution_param {
    num_output: 192
    pad: 1
    kernel_size: 3
    weight_filler {
      type: "xavier"
      std: 0.03
    }
    bias_filler {
      type: "constant"
      value: 0.2
    }
  }
}
layer {
  name: "conv2/relu_3x3"
  type: "ReLU"
  bottom: "conv2/3x3"
  top: "conv2/3x3"
}
layer {
  name: "conv2/norm2"
  type: "LRN"
  bottom: "conv2/3x3"
  top: "conv2/norm2"
  lrn_param {
    local_size: 5
    alpha: 0.0001
    beta: 0.75
  }
}
layer {
  name: "pool2/3x3_s2"
  type: "Pooling"
  bottom: "conv2/norm2"
  top: "pool2/3x3_s2"
  pooling_param {
    pool: MAX
    kernel_size: 3
    stride: 2
  }
}
layer {
  name: "inception_3a/1x1"
  type: "Convolution"
  bottom: "pool2/3x3_s2"
  top: "inception_3a/1x1"
  param {
    lr_mult: 1
    decay_mult: 1
  }
  param {
    lr_mult: 2
    decay_mult: 0
  }
  convolution_param {
    num_output: 64
    kernel_size: 1
    weight_filler {
      type: "xavier"
      std: 0.03
    }
    bias_filler {
      type: "constant"
      value: 0.2
    }
  }
}
layer {
  name: "inception_3a/relu_1x1"
  type: "ReLU"
  bottom: "inception_3a/1x1"
  top: "inception_3a/1x1"
}
layer {
  name: "inception_3a/3x3_reduce"
  type: "Convolution"
  bottom: "pool2/3x3_s2"
  top: "inception_3a/3x3_reduce"
  param {
    lr_mult: 1
    decay_mult: 1
  }
  param {
    lr_mult: 2
    decay_mult: 0
  }
  convolution_param {
    num_output: 96
    kernel_size: 1
    weight_filler {
      type: "xavier"
      std: 0.09
    }
    bias_filler {
      type: "constant"
      value: 0.2
    }
  }
}
layer {
  name: "inception_3a/relu_3x3_reduce"
  type: "ReLU"
  bottom: "inception_3a/3x3_reduce"
  top: "inception_3a/3x3_reduce"
}
layer {
  name: "inception_3a/3x3"
  type: "Convolution"
  bottom: "inception_3a/3x3_reduce"
  top: "inception_3a/3x3"
  param {
    lr_mult: 1
    decay_mult: 1
  }
  param {
    lr_mult: 2
    decay_mult: 0
  }
  convolution_param {
    num_output: 128
    pad: 1
    kernel_size: 3
    weight_filler {
      type: "xavier"
      std: 0.03
    }
    bias_filler {
      type: "constant"
      value: 0.2
    }
  }
}
layer {
  name: "inception_3a/relu_3x3"
  type: "ReLU"
  bottom: "inception_3a/3x3"
  top: "inception_3a/3x3"
}
layer {
  name: "inception_3a/5x5_reduce"
  type: "Convolution"
  bottom: "pool2/3x3_s2"
  top: "inception_3a/5x5_reduce"
  param {
    lr_mult: 1
    decay_mult: 1
  }
  param {
    lr_mult: 2
    decay_mult: 0
  }
  convolution_param {
    num_output: 16
    kernel_size: 1
    weight_filler {
      type: "xavier"
      std: 0.2
    }
    bias_filler {
      type: "constant"
      value: 0.2
    }
  }
}
layer {
  name: "inception_3a/relu_5x5_reduce"
  type: "ReLU"
  bottom: "inception_3a/5x5_reduce"
  top: "inception_3a/5x5_reduce"
}
layer {
  name: "inception_3a/5x5"
  type: "Convolution"
  bottom: "inception_3a/5x5_reduce"
  top: "inception_3a/5x5"
  param {
    lr_mult: 1
    decay_mult: 1
  }
  param {
    lr_mult: 2
    decay_mult: 0
  }
  convolution_param {
    num_output: 32
    pad: 2
    kernel_size: 5
    weight_filler {
      type: "xavier"
      std: 0.03
    }
    bias_filler {
      type: "constant"
      value: 0.2
    }
  }
}
layer {
  name: "inception_3a/relu_5x5"
  type: "ReLU"
  bottom: "inception_3a/5x5"
  top: "inception_3a/5x5"
}
layer {
  name: "inception_3a/pool"
  type: "Pooling"
  bottom: "pool2/3x3_s2"
  top: "inception_3a/pool"
  pooling_param {
    pool: MAX
    kernel_size: 3
    stride: 1
    pad: 1
  }
}
layer {
  name: "inception_3a/pool_proj"
  type: "Convolution"
  bottom: "inception_3a/pool"
  top: "inception_3a/pool_proj"
  param {
    lr_mult: 1
    decay_mult: 1
  }
  param {
    lr_mult: 2
    decay_mult: 0
  }
  convolution_param {
    num_output: 32
    kernel_size: 1
    weight_filler {
      type: "xavier"
      std: 0.1
    }
    bias_filler {
      type: "constant"
      value: 0.2
    }
  }
}
layer {
  name: "inception_3a/relu_pool_proj"
  type: "ReLU"
  bottom: "inception_3a/pool_proj"
  top: "inception_3a/pool_proj"
}
layer {
  name: "inception_3a/output"
  type: "Concat"
  bottom: "inception_3a/1x1"
  bottom: "inception_3a/3x3"
  bottom: "inception_3a/5x5"
  bottom: "inception_3a/pool_proj"
  top: "inception_3a/output"
}
layer {
  name: "inception_3b/1x1"
  type: "Convolution"
  bottom: "inception_3a/output"
  top: "inception_3b/1x1"
  param {
    lr_mult: 1
    decay_mult: 1
  }
  param {
    lr_mult: 2
    decay_mult: 0
  }
  convolution_param {
    num_output: 128
    kernel_size: 1
    weight_filler {
      type: "xavier"
      std: 0.03
    }
    bias_filler {
      type: "constant"
      value: 0.2
    }
  }
}
layer {
  name: "inception_3b/relu_1x1"
  type: "ReLU"
  bottom: "inception_3b/1x1"
  top: "inception_3b/1x1"
}
layer {
  name: "inception_3b/3x3_reduce"
  type: "Convolution"
  bottom: "inception_3a/output"
  top: "inception_3b/3x3_reduce"
  param {
    lr_mult: 1
    decay_mult: 1
  }
  param {
    lr_mult: 2
    decay_mult: 0
  }
  convolution_param {
    num_output: 128
    kernel_size: 1
    weight_filler {
      type: "xavier"
      std: 0.09
    }
    bias_filler {
      type: "constant"
      value: 0.2
    }
  }
}
layer {
  name: "inception_3b/relu_3x3_reduce"
  type: "ReLU"
  bottom: "inception_3b/3x3_reduce"
  top: "inception_3b/3x3_reduce"
}
layer {
  name: "inception_3b/3x3"
  type: "Convolution"
  bottom: "inception_3b/3x3_reduce"
  top: "inception_3b/3x3"
  param {
    lr_mult: 1
    decay_mult: 1
  }
  param {
    lr_mult: 2
    decay_mult: 0
  }
  convolution_param {
    num_output: 192
    pad: 1
    kernel_size: 3
    weight_filler {
      type: "xavier"
      std: 0.03
    }
    bias_filler {
      type: "constant"
      value: 0.2
    }
  }
}
layer {
  name: "inception_3b/relu_3x3"
  type: "ReLU"
  bottom: "inception_3b/3x3"
  top: "inception_3b/3x3"
}
layer {
  name: "inception_3b/5x5_reduce"
  type: "Convolution"
  bottom: "inception_3a/output"
  top: "inception_3b/5x5_reduce"
  param {
    lr_mult: 1
    decay_mult: 1
  }
  param {
    lr_mult: 2
    decay_mult: 0
  }
  convolution_param {
    num_output: 32
    kernel_size: 1
    weight_filler {
      type: "xavier"
      std: 0.2
    }
    bias_filler {
      type: "constant"
      value: 0.2
    }
  }
}
layer {
  name: "inception_3b/relu_5x5_reduce"
  type: "ReLU"
  bottom: "inception_3b/5x5_reduce"
  top: "inception_3b/5x5_reduce"
}
layer {
  name: "inception_3b/5x5"
  type: "Convolution"
  bottom: "inception_3b/5x5_reduce"
  top: "inception_3b/5x5"
  param {
    lr_mult: 1
    decay_mult: 1
  }
  param {
    lr_mult: 2
    decay_mult: 0
  }
  convolution_param {
    num_output: 96
    pad: 2
    kernel_size: 5
    weight_filler {
      type: "xavier"
      std: 0.03
    }
    bias_filler {
      type: "constant"
      value: 0.2
    }
  }
}
layer {
  name: "inception_3b/relu_5x5"
  type: "ReLU"
  bottom: "inception_3b/5x5"
  top: "inception_3b/5x5"
}
layer {
  name: "inception_3b/pool"
  type: "Pooling"
  bottom: "inception_3a/output"
  top: "inception_3b/pool"
  pooling_param {
    pool: MAX
    kernel_size: 3
    stride: 1
    pad: 1
  }
}
layer {
  name: "inception_3b/pool_proj"
  type: "Convolution"
  bottom: "inception_3b/pool"
  top: "inception_3b/pool_proj"
  param {
    lr_mult: 1
    decay_mult: 1
  }
  param {
    lr_mult: 2
    decay_mult: 0
  }
  convolution_param {
    num_output: 64
    kernel_size: 1
    weight_filler {
      type: "xavier"
      std: 0.1
    }
    bias_filler {
      type: "constant"
      value: 0.2
    }
  }
}
layer {
  name: "inception_3b/relu_pool_proj"
  type: "ReLU"
  bottom: "inception_3b/pool_proj"
  top: "inception_3b/pool_proj"
}
layer {
  name: "inception_3b/output"
  type: "Concat"
  bottom: "inception_3b/1x1"
  bottom: "inception_3b/3x3"
  bottom: "inception_3b/5x5"
  bottom: "inception_3b/pool_proj"
  top: "inception_3b/output"
}
layer {
  name: "pool3/3x3_s2"
  type: "Pooling"
  bottom: "inception_3b/output"
  top: "pool3/3x3_s2"
  pooling_param {
    pool: MAX
    kernel_size: 3
    stride: 2
  }
}
layer {
  name: "inception_4a/1x1"
  type: "Convolution"
  bottom: "pool3/3x3_s2"
  top: "inception_4a/1x1"
  param {
    lr_mult: 1
    decay_mult: 1
  }
  param {
    lr_mult: 2
    decay_mult: 0
  }
  convolution_param {
    num_output: 192
    kernel_size: 1
    weight_filler {
      type: "xavier"
      std: 0.03
    }
    bias_filler {
      type: "constant"
      value: 0.2
    }
  }
}
layer {
  name: "inception_4a/relu_1x1"
  type: "ReLU"
  bottom: "inception_4a/1x1"
  top: "inception_4a/1x1"
}
layer {
  name: "inception_4a/3x3_reduce"
  type: "Convolution"
  bottom: "pool3/3x3_s2"
  top: "inception_4a/3x3_reduce"
  param {
    lr_mult: 1
    decay_mult: 1
  }
  param {
    lr_mult: 2
    decay_mult: 0
  }
  convolution_param {
    num_output: 96
    kernel_size: 1
    weight_filler {
      type: "xavier"
      std: 0.09
    }
    bias_filler {
      type: "constant"
      value: 0.2
    }
  }
}
layer {
  name: "inception_4a/relu_3x3_reduce"
  type: "ReLU"
  bottom: "inception_4a/3x3_reduce"
  top: "inception_4a/3x3_reduce"
}
layer {
  name: "inception_4a/3x3"
  type: "Convolution"
  bottom: "inception_4a/3x3_reduce"
  top: "inception_4a/3x3"
  param {
    lr_mult: 1
    decay_mult: 1
  }
  param {
    lr_mult: 2
    decay_mult: 0
  }
  convolution_param {
    num_output: 208
    pad: 1
    kernel_size: 3
    weight_filler {
      type: "xavier"
      std: 0.03
    }
    bias_filler {
      type: "constant"
      value: 0.2
    }
  }
}
layer {
  name: "inception_4a/relu_3x3"
  type: "ReLU"
  bottom: "inception_4a/3x3"
  top: "inception_4a/3x3"
}
layer {
  name: "inception_4a/5x5_reduce"
  type: "Convolution"
  bottom: "pool3/3x3_s2"
  top: "inception_4a/5x5_reduce"
  param {
    lr_mult: 1
    decay_mult: 1
  }
  param {
    lr_mult: 2
    decay_mult: 0
  }
  convolution_param {
    num_output: 16
    kernel_size: 1
    weight_filler {
      type: "xavier"
      std: 0.2
    }
    bias_filler {
      type: "constant"
      value: 0.2
    }
  }
}
layer {
  name: "inception_4a/relu_5x5_reduce"
  type: "ReLU"
  bottom: "inception_4a/5x5_reduce"
  top: "inception_4a/5x5_reduce"
}
layer {
  name: "inception_4a/5x5"
  type: "Convolution"
  bottom: "inception_4a/5x5_reduce"
  top: "inception_4a/5x5"
  param {
    lr_mult: 1
    decay_mult: 1
  }
  param {
    lr_mult: 2
    decay_mult: 0
  }
  convolution_param {
    num_output: 48
    pad: 2
    kernel_size: 5
    weight_filler {
      type: "xavier"
      std: 0.03
    }
    bias_filler {
      type: "constant"
      value: 0.2
    }
  }
}
layer {
  name: "inception_4a/relu_5x5"
  type: "ReLU"
  bottom: "inception_4a/5x5"
  top: "inception_4a/5x5"
}
layer {
  name: "inception_4a/pool"
  type: "Pooling"
  bottom: "pool3/3x3_s2"
  top: "inception_4a/pool"
  pooling_param {
    pool: MAX
    kernel_size: 3
    stride: 1
    pad: 1
  }
}
layer {
  name: "inception_4a/pool_proj"
  type: "Convolution"
  bottom: "inception_4a/pool"
  top: "inception_4a/pool_proj"
  param {
    lr_mult: 1
    decay_mult: 1
  }
  param {
    lr_mult: 2
    decay_mult: 0
  }
  convolution_param {
    num_output: 64
    kernel_size: 1
    weight_filler {
      type: "xavier"
      std: 0.1
    }
    bias_filler {
      type: "constant"
      value: 0.2
    }
  }
}
layer {
  name: "inception_4a/relu_pool_proj"
  type: "ReLU"
  bottom: "inception_4a/pool_proj"
  top: "inception_4a/pool_proj"
}
layer {
  name: "inception_4a/output"
  type: "Concat"
  bottom: "inception_4a/1x1"
  bottom: "inception_4a/3x3"
  bottom: "inception_4a/5x5"
  bottom: "inception_4a/pool_proj"
  top: "inception_4a/output"
}
layer {
  name: "inception_4b/1x1"
  type: "Convolution"
  bottom: "inception_4a/output"
  top: "inception_4b/1x1"
  param {
    lr_mult: 1
    decay_mult: 1
  }
  param {
    lr_mult: 2
    decay_mult: 0
  }
  convolution_param {
    num_output: 160
    kernel_size: 1
    weight_filler {
      type: "xavier"
      std: 0.03
    }
    bias_filler {
      type: "constant"
      value: 0.2
    }
  }
}
layer {
  name: "inception_4b/relu_1x1"
  type: "ReLU"
  bottom: "inception_4b/1x1"
  top: "inception_4b/1x1"
}
layer {
  name: "inception_4b/3x3_reduce"
  type: "Convolution"
  bottom: "inception_4a/output"
  top: "inception_4b/3x3_reduce"
  param {
    lr_mult: 1
    decay_mult: 1
  }
  param {
    lr_mult: 2
    decay_mult: 0
  }
  convolution_param {
    num_output: 112
    kernel_size: 1
    weight_filler {
      type: "xavier"
      std: 0.09
    }
    bias_filler {
      type: "constant"
      value: 0.2
    }
  }
}
layer {
  name: "inception_4b/relu_3x3_reduce"
  type: "ReLU"
  bottom: "inception_4b/3x3_reduce"
  top: "inception_4b/3x3_reduce"
}
layer {
  name: "inception_4b/3x3"
  type: "Convolution"
  bottom: "inception_4b/3x3_reduce"
  top: "inception_4b/3x3"
  param {
    lr_mult: 1
    decay_mult: 1
  }
  param {
    lr_mult: 2
    decay_mult: 0
  }
  convolution_param {
    num_output: 224
    pad: 1
    kernel_size: 3
    weight_filler {
      type: "xavier"
      std: 0.03
    }
    bias_filler {
      type: "constant"
      value: 0.2
    }
  }
}
layer {
  name: "inception_4b/relu_3x3"
  type: "ReLU"
  bottom: "inception_4b/3x3"
  top: "inception_4b/3x3"
}
layer {
  name: "inception_4b/5x5_reduce"
  type: "Convolution"
  bottom: "inception_4a/output"
  top: "inception_4b/5x5_reduce"
  param {
    lr_mult: 1
    decay_mult: 1
  }
  param {
    lr_mult: 2
    decay_mult: 0
  }
  convolution_param {
    num_output: 24
    kernel_size: 1
    weight_filler {
      type: "xavier"
      std: 0.2
    }
    bias_filler {
      type: "constant"
      value: 0.2
    }
  }
}
layer {
  name: "inception_4b/relu_5x5_reduce"
  type: "ReLU"
  bottom: "inception_4b/5x5_reduce"
  top: "inception_4b/5x5_reduce"
}
layer {
  name: "inception_4b/5x5"
  type: "Convolution"
  bottom: "inception_4b/5x5_reduce"
  top: "inception_4b/5x5"
  param {
    lr_mult: 1
    decay_mult: 1
  }
  param {
    lr_mult: 2
    decay_mult: 0
  }
  convolution_param {
    num_output: 64
    pad: 2
    kernel_size: 5
    weight_filler {
      type: "xavier"
      std: 0.03
    }
    bias_filler {
      type: "constant"
      value: 0.2
    }
  }
}
layer {
  name: "inception_4b/relu_5x5"
  type: "ReLU"
  bottom: "inception_4b/5x5"
  top: "inception_4b/5x5"
}
layer {
  name: "inception_4b/pool"
  type: "Pooling"
  bottom: "inception_4a/output"
  top: "inception_4b/pool"
  pooling_param {
    pool: MAX
    kernel_size: 3
    stride: 1
    pad: 1
  }
}
layer {
  name: "inception_4b/pool_proj"
  type: "Convolution"
  bottom: "inception_4b/pool"
  top: "inception_4b/pool_proj"
  param {
    lr_mult: 1
    decay_mult: 1
  }
  param {
    lr_mult: 2
    decay_mult: 0
  }
  convolution_param {
    num_output: 64
    kernel_size: 1
    weight_filler {
      type: "xavier"
      std: 0.1
    }
    bias_filler {
      type: "constant"
      value: 0.2
    }
  }
}
layer {
  name: "inception_4b/relu_pool_proj"
  type: "ReLU"
  bottom: "inception_4b/pool_proj"
  top: "inception_4b/pool_proj"
}
layer {
  name: "inception_4b/output"
  type: "Concat"
  bottom: "inception_4b/1x1"
  bottom: "inception_4b/3x3"
  bottom: "inception_4b/5x5"
  bottom: "inception_4b/pool_proj"
  top: "inception_4b/output"
}
layer {
  name: "inception_4c/1x1"
  type: "Convolution"
  bottom: "inception_4b/output"
  top: "inception_4c/1x1"
  param {
    lr_mult: 1
    decay_mult: 1
  }
  param {
    lr_mult: 2
    decay_mult: 0
  }
  convolution_param {
    num_output: 128
    kernel_size: 1
    weight_filler {
      type: "xavier"
      std: 0.03
    }
    bias_filler {
      type: "constant"
      value: 0.2
    }
  }
}
layer {
  name: "inception_4c/relu_1x1"
  type: "ReLU"
  bottom: "inception_4c/1x1"
  top: "inception_4c/1x1"
}
layer {
  name: "inception_4c/3x3_reduce"
  type: "Convolution"
  bottom: "inception_4b/output"
  top: "inception_4c/3x3_reduce"
  param {
    lr_mult: 1
    decay_mult: 1
  }
  param {
    lr_mult: 2
    decay_mult: 0
  }
  convolution_param {
    num_output: 128
    kernel_size: 1
    weight_filler {
      type: "xavier"
      std: 0.09
    }
    bias_filler {
      type: "constant"
      value: 0.2
    }
  }
}
layer {
  name: "inception_4c/relu_3x3_reduce"
  type: "ReLU"
  bottom: "inception_4c/3x3_reduce"
  top: "inception_4c/3x3_reduce"
}
layer {
  name: "inception_4c/3x3"
  type: "Convolution"
  bottom: "inception_4c/3x3_reduce"
  top: "inception_4c/3x3"
  param {
    lr_mult: 1
    decay_mult: 1
  }
  param {
    lr_mult: 2
    decay_mult: 0
  }
  convolution_param {
    num_output: 256
    pad: 1
    kernel_size: 3
    weight_filler {
      type: "xavier"
      std: 0.03
    }
    bias_filler {
      type: "constant"
      value: 0.2
    }
  }
}
layer {
  name: "inception_4c/relu_3x3"
  type: "ReLU"
  bottom: "inception_4c/3x3"
  top: "inception_4c/3x3"
}
layer {
  name: "inception_4c/5x5_reduce"
  type: "Convolution"
  bottom: "inception_4b/output"
  top: "inception_4c/5x5_reduce"
  param {
    lr_mult: 1
    decay_mult: 1
  }
  param {
    lr_mult: 2
    decay_mult: 0
  }
  convolution_param {
    num_output: 24
    kernel_size: 1
    weight_filler {
      type: "xavier"
      std: 0.2
    }
    bias_filler {
      type: "constant"
      value: 0.2
    }
  }
}
layer {
  name: "inception_4c/relu_5x5_reduce"
  type: "ReLU"
  bottom: "inception_4c/5x5_reduce"
  top: "inception_4c/5x5_reduce"
}
layer {
  name: "inception_4c/5x5"
  type: "Convolution"
  bottom: "inception_4c/5x5_reduce"
  top: "inception_4c/5x5"
  param {
    lr_mult: 1
    decay_mult: 1
  }
  param {
    lr_mult: 2
    decay_mult: 0
  }
  convolution_param {
    num_output: 64
    pad: 2
    kernel_size: 5
    weight_filler {
      type: "xavier"
      std: 0.03
    }
    bias_filler {
      type: "constant"
      value: 0.2
    }
  }
}
layer {
  name: "inception_4c/relu_5x5"
  type: "ReLU"
  bottom: "inception_4c/5x5"
  top: "inception_4c/5x5"
}
layer {
  name: "inception_4c/pool"
  type: "Pooling"
  bottom: "inception_4b/output"
  top: "inception_4c/pool"
  pooling_param {
    pool: MAX
    kernel_size: 3
    stride: 1
    pad: 1
  }
}
layer {
  name: "inception_4c/pool_proj"
  type: "Convolution"
  bottom: "inception_4c/pool"
  top: "inception_4c/pool_proj"
  param {
    lr_mult: 1
    decay_mult: 1
  }
  param {
    lr_mult: 2
    decay_mult: 0
  }
  convolution_param {
    num_output: 64
    kernel_size: 1
    weight_filler {
      type: "xavier"
      std: 0.1
    }
    bias_filler {
      type: "constant"
      value: 0.2
    }
  }
}
layer {
  name: "inception_4c/relu_pool_proj"
  type: "ReLU"
  bottom: "inception_4c/pool_proj"
  top: "inception_4c/pool_proj"
}
layer {
  name: "inception_4c/output"
  type: "Concat"
  bottom: "inception_4c/1x1"
  bottom: "inception_4c/3x3"
  bottom: "inception_4c/5x5"
  bottom: "inception_4c/pool_proj"
  top: "inception_4c/output"
}
layer {
  name: "inception_4d/1x1"
  type: "Convolution"
  bottom: "inception_4c/output"
  top: "inception_4d/1x1"
  param {
    lr_mult: 1
    decay_mult: 1
  }
  param {
    lr_mult: 2
    decay_mult: 0
  }
  convolution_param {
    num_output: 112
    kernel_size: 1
    weight_filler {
      type: "xavier"
      std: 0.03
    }
    bias_filler {
      type: "constant"
      value: 0.2
    }
  }
}
layer {
  name: "inception_4d/relu_1x1"
  type: "ReLU"
  bottom: "inception_4d/1x1"
  top: "inception_4d/1x1"
}
layer {
  name: "inception_4d/3x3_reduce"
  type: "Convolution"
  bottom: "inception_4c/output"
  top: "inception_4d/3x3_reduce"
  param {
    lr_mult: 1
    decay_mult: 1
  }
  param {
    lr_mult: 2
    decay_mult: 0
  }
  convolution_param {
    num_output: 144
    kernel_size: 1
    weight_filler {
      type: "xavier"
      std: 0.09
    }
    bias_filler {
      type: "constant"
      value: 0.2
    }
  }
}
layer {
  name: "inception_4d/relu_3x3_reduce"
  type: "ReLU"
  bottom: "inception_4d/3x3_reduce"
  top: "inception_4d/3x3_reduce"
}
layer {
  name: "inception_4d/3x3"
  type: "Convolution"
  bottom: "inception_4d/3x3_reduce"
  top: "inception_4d/3x3"
  param {
    lr_mult: 1
    decay_mult: 1
  }
  param {
    lr_mult: 2
    decay_mult: 0
  }
  convolution_param {
    num_output: 288
    pad: 1
    kernel_size: 3
    weight_filler {
      type: "xavier"
      std: 0.03
    }
    bias_filler {
      type: "constant"
      value: 0.2
    }
  }
}
layer {
  name: "inception_4d/relu_3x3"
  type: "ReLU"
  bottom: "inception_4d/3x3"
  top: "inception_4d/3x3"
}
layer {
  name: "inception_4d/5x5_reduce"
  type: "Convolution"
  bottom: "inception_4c/output"
  top: "inception_4d/5x5_reduce"
  param {
    lr_mult: 1
    decay_mult: 1
  }
  param {
    lr_mult: 2
    decay_mult: 0
  }
  convolution_param {
    num_output: 32
    kernel_size: 1
    weight_filler {
      type: "xavier"
      std: 0.2
    }
    bias_filler {
      type: "constant"
      value: 0.2
    }
  }
}
layer {
  name: "inception_4d/relu_5x5_reduce"
  type: "ReLU"
  bottom: "inception_4d/5x5_reduce"
  top: "inception_4d/5x5_reduce"
}
layer {
  name: "inception_4d/5x5"
  type: "Convolution"
  bottom: "inception_4d/5x5_reduce"
  top: "inception_4d/5x5"
  param {
    lr_mult: 1
    decay_mult: 1
  }
  param {
    lr_mult: 2
    decay_mult: 0
  }
  convolution_param {
    num_output: 64
    pad: 2
    kernel_size: 5
    weight_filler {
      type: "xavier"
      std: 0.03
    }
    bias_filler {
      type: "constant"
      value: 0.2
    }
  }
}
layer {
  name: "inception_4d/relu_5x5"
  type: "ReLU"
  bottom: "inception_4d/5x5"
  top: "inception_4d/5x5"
}
layer {
  name: "inception_4d/pool"
  type: "Pooling"
  bottom: "inception_4c/output"
  top: "inception_4d/pool"
  pooling_param {
    pool: MAX
    kernel_size: 3
    stride: 1
    pad: 1
  }
}
layer {
  name: "inception_4d/pool_proj"
  type: "Convolution"
  bottom: "inception_4d/pool"
  top: "inception_4d/pool_proj"
  param {
    lr_mult: 1
    decay_mult: 1
  }
  param {
    lr_mult: 2
    decay_mult: 0
  }
  convolution_param {
    num_output: 64
    kernel_size: 1
    weight_filler {
      type: "xavier"
      std: 0.1
    }
    bias_filler {
      type: "constant"
      value: 0.2
    }
  }
}
layer {
  name: "inception_4d/relu_pool_proj"
  type: "ReLU"
  bottom: "inception_4d/pool_proj"
  top: "inception_4d/pool_proj"
}
layer {
  name: "inception_4d/output"
  type: "Concat"
  bottom: "inception_4d/1x1"
  bottom: "inception_4d/3x3"
  bottom: "inception_4d/5x5"
  bottom: "inception_4d/pool_proj"
  top: "inception_4d/output"
}
layer {
  name: "inception_4e/1x1"
  type: "Convolution"
  bottom: "inception_4d/output"
  top: "inception_4e/1x1"
  param {
    lr_mult: 1
    decay_mult: 1
  }
  param {
    lr_mult: 2
    decay_mult: 0
  }
  convolution_param {
    num_output: 256
    kernel_size: 1
    weight_filler {
      type: "xavier"
      std: 0.03
    }
    bias_filler {
      type: "constant"
      value: 0.2
    }
  }
}
layer {
  name: "inception_4e/relu_1x1"
  type: "ReLU"
  bottom: "inception_4e/1x1"
  top: "inception_4e/1x1"
}
layer {
  name: "inception_4e/3x3_reduce"
  type: "Convolution"
  bottom: "inception_4d/output"
  top: "inception_4e/3x3_reduce"
  param {
    lr_mult: 1
    decay_mult: 1
  }
  param {
    lr_mult: 2
    decay_mult: 0
  }
  convolution_param {
    num_output: 160
    kernel_size: 1
    weight_filler {
      type: "xavier"
      std: 0.09
    }
    bias_filler {
      type: "constant"
      value: 0.2
    }
  }
}
layer {
  name: "inception_4e/relu_3x3_reduce"
  type: "ReLU"
  bottom: "inception_4e/3x3_reduce"
  top: "inception_4e/3x3_reduce"
}
layer {
  name: "inception_4e/3x3"
  type: "Convolution"
  bottom: "inception_4e/3x3_reduce"
  top: "inception_4e/3x3"
  param {
    lr_mult: 1
    decay_mult: 1
  }
  param {
    lr_mult: 2
    decay_mult: 0
  }
  convolution_param {
    num_output: 320
    pad: 1
    kernel_size: 3
    weight_filler {
      type: "xavier"
      std: 0.03
    }
    bias_filler {
      type: "constant"
      value: 0.2
    }
  }
}
layer {
  name: "inception_4e/relu_3x3"
  type: "ReLU"
  bottom: "inception_4e/3x3"
  top: "inception_4e/3x3"
}
layer {
  name: "inception_4e/5x5_reduce"
  type: "Convolution"
  bottom: "inception_4d/output"
  top: "inception_4e/5x5_reduce"
  param {
    lr_mult: 1
    decay_mult: 1
  }
  param {
    lr_mult: 2
    decay_mult: 0
  }
  convolution_param {
    num_output: 32
    kernel_size: 1
    weight_filler {
      type: "xavier"
      std: 0.2
    }
    bias_filler {
      type: "constant"
      value: 0.2
    }
  }
}
layer {
  name: "inception_4e/relu_5x5_reduce"
  type: "ReLU"
  bottom: "inception_4e/5x5_reduce"
  top: "inception_4e/5x5_reduce"
}
layer {
  name: "inception_4e/5x5"
  type: "Convolution"
  bottom: "inception_4e/5x5_reduce"
  top: "inception_4e/5x5"
  param {
    lr_mult: 1
    decay_mult: 1
  }
  param {
    lr_mult: 2
    decay_mult: 0
  }
  convolution_param {
    num_output: 128
    pad: 2
    kernel_size: 5
    weight_filler {
      type: "xavier"
      std: 0.03
    }
    bias_filler {
      type: "constant"
      value: 0.2
    }
  }
}
layer {
  name: "inception_4e/relu_5x5"
  type: "ReLU"
  bottom: "inception_4e/5x5"
  top: "inception_4e/5x5"
}
layer {
  name: "inception_4e/pool"
  type: "Pooling"
  bottom: "inception_4d/output"
  top: "inception_4e/pool"
  pooling_param {
    pool: MAX
    kernel_size: 3
    stride: 1
    pad: 1
  }
}
layer {
  name: "inception_4e/pool_proj"
  type: "Convolution"
  bottom: "inception_4e/pool"
  top: "inception_4e/pool_proj"
  param {
    lr_mult: 1
    decay_mult: 1
  }
  param {
    lr_mult: 2
    decay_mult: 0
  }
  convolution_param {
    num_output: 128
    kernel_size: 1
    weight_filler {
      type: "xavier"
      std: 0.1
    }
    bias_filler {
      type: "constant"
      value: 0.2
    }
  }
}
layer {
  name: "inception_4e/relu_pool_proj"
  type: "ReLU"
  bottom: "inception_4e/pool_proj"
  top: "inception_4e/pool_proj"
}
layer {
  name: "inception_4e/output"
  type: "Concat"
  bottom: "inception_4e/1x1"
  bottom: "inception_4e/3x3"
  bottom: "inception_4e/5x5"
  bottom: "inception_4e/pool_proj"
  top: "inception_4e/output"
}
layer {
  name: "pool4/3x3_s2"
  type: "Pooling"
  bottom: "inception_4e/output"
  top: "pool4/3x3_s2"
  pooling_param {
    pool: MAX
    kernel_size: 3
    stride: 2
  }
}
layer {
  name: "inception_5a/1x1"
  type: "Convolution"
  bottom: "pool4/3x3_s2"
  top: "inception_5a/1x1"
  param {
    lr_mult: 1
    decay_mult: 1
  }
  param {
    lr_mult: 2
    decay_mult: 0
  }
  convolution_param {
    num_output: 256
    kernel_size: 1
    weight_filler {
      type: "xavier"
      std: 0.03
    }
    bias_filler {
      type: "constant"
      value: 0.2
    }
  }
}
layer {
  name: "inception_5a/relu_1x1"
  type: "ReLU"
  bottom: "inception_5a/1x1"
  top: "inception_5a/1x1"
}
layer {
  name: "inception_5a/3x3_reduce"
  type: "Convolution"
  bottom: "pool4/3x3_s2"
  top: "inception_5a/3x3_reduce"
  param {
    lr_mult: 1
    decay_mult: 1
  }
  param {
    lr_mult: 2
    decay_mult: 0
  }
  convolution_param {
    num_output: 160
    kernel_size: 1
    weight_filler {
      type: "xavier"
      std: 0.09
    }
    bias_filler {
      type: "constant"
      value: 0.2
    }
  }
}
layer {
  name: "inception_5a/relu_3x3_reduce"
  type: "ReLU"
  bottom: "inception_5a/3x3_reduce"
  top: "inception_5a/3x3_reduce"
}
layer {
  name: "inception_5a/3x3"
  type: "Convolution"
  bottom: "inception_5a/3x3_reduce"
  top: "inception_5a/3x3"
  param {
    lr_mult: 1
    decay_mult: 1
  }
  param {
    lr_mult: 2
    decay_mult: 0
  }
  convolution_param {
    num_output: 320
    pad: 1
    kernel_size: 3
    weight_filler {
      type: "xavier"
      std: 0.03
    }
    bias_filler {
      type: "constant"
      value: 0.2
    }
  }
}
layer {
  name: "inception_5a/relu_3x3"
  type: "ReLU"
  bottom: "inception_5a/3x3"
  top: "inception_5a/3x3"
}
layer {
  name: "inception_5a/5x5_reduce"
  type: "Convolution"
  bottom: "pool4/3x3_s2"
  top: "inception_5a/5x5_reduce"
  param {
    lr_mult: 1
    decay_mult: 1
  }
  param {
    lr_mult: 2
    decay_mult: 0
  }
  convolution_param {
    num_output: 32
    kernel_size: 1
    weight_filler {
      type: "xavier"
      std: 0.2
    }
    bias_filler {
      type: "constant"
      value: 0.2
    }
I0714 23:43:21.450876 11469 net.cpp:49] Initializing net from parameters: 
name: "GoogleNet"
state {
  phase: TEST
}
layer {
  name: "data"
  type: "Input"
  top: "data"
  input_param {
    shape {
      dim: 10
      dim: 3
      dim: 224
      dim: 224
    }
  }
}
layer {
  name: "conv1/7x7_s2"
  type: "Convolution"
  bottom: "data"
  top: "conv1/7x7_s2"
  param {
    lr_mult: 1
    decay_mult: 1
  }
  param {
    lr_mult: 2
    decay_mult: 0
  }
  convolution_param {
    num_output: 64
    pad: 3
    kernel_size: 7
    stride: 2
    weight_filler {
      type: "xavier"
      std: 0.1
    }
    bias_filler {
      type: "constant"
      value: 0.2
    }
  }
}
layer {
  name: "conv1/relu_7x7"
  type: "ReLU"
  bottom: "conv1/7x7_s2"
  top: "conv1/7x7_s2"
}
layer {
  name: "pool1/3x3_s2"
  type: "Pooling"
  bottom: "conv1/7x7_s2"
  top: "pool1/3x3_s2"
  pooling_param {
    pool: MAX
    kernel_size: 3
    stride: 2
  }
}
layer {
  name: "pool1/norm1"
  type: "LRN"
  bottom: "pool1/3x3_s2"
  top: "pool1/norm1"
  lrn_param {
    local_size: 5
    alpha: 0.0001
    beta: 0.75
  }
}
layer {
  name: "conv2/3x3_reduce"
  type: "Convolution"
  bottom: "pool1/norm1"
  top: "conv2/3x3_reduce"
  param {
    lr_mult: 1
    decay_mult: 1
  }
  param {
    lr_mult: 2
    decay_mult: 0
  }
  convolution_param {
    num_output: 64
    kernel_size: 1
    weight_filler {
      type: "xavier"
      std: 0.1
    }
    bias_filler {
      type: "constant"
      value: 0.2
    }
  }
}
layer {
  name: "conv2/relu_3x3_reduce"
  type: "ReLU"
  bottom: "conv2/3x3_reduce"
  top: "conv2/3x3_reduce"
}
layer {
  name: "conv2/3x3"
  type: "Convolution"
  bottom: "conv2/3x3_reduce"
  top: "conv2/3x3"
  param {
    lr_mult: 1
    decay_mult: 1
  }
  param {
    lr_mult: 2
    decay_mult: 0
  }
  convolution_param {
    num_output: 192
    pad: 1
    kernel_size: 3
    weight_filler {
      type: "xavier"
      std: 0.03
    }
    bias_filler {
      type: "constant"
      value: 0.2
    }
  }
}
layer {
  name: "conv2/relu_3x3"
  type: "ReLU"
  bottom: "conv2/3x3"
  top: "conv2/3x3"
}
layer {
  name: "conv2/norm2"
  type: "LRN"
  bottom: "conv2/3x3"
  top: "conv2/norm2"
  lrn_param {
    local_size: 5
    alpha: 0.0001
    beta: 0.75
  }
}
layer {
  name: "pool2/3x3_s2"
  type: "Pooling"
  bottom: "conv2/norm2"
  top: "pool2/3x3_s2"
  pooling_param {
    pool: MAX
    kernel_size: 3
    stride: 2
  }
}
layer {
  name: "inception_3a/1x1"
  type: "Convolution"
  bottom: "pool2/3x3_s2"
  top: "inception_3a/1x1"
  param {
    lr_mult: 1
    decay_mult: 1
  }
  param {
    lr_mult: 2
    decay_mult: 0
  }
  convolution_param {
    num_output: 64
    kernel_size: 1
    weight_filler {
      type: "xavier"
      std: 0.03
    }
    bias_filler {
      type: "constant"
      value: 0.2
    }
  }
}
layer {
  name: "inception_3a/relu_1x1"
  type: "ReLU"
  bottom: "inception_3a/1x1"
  top: "inception_3a/1x1"
}
layer {
  name: "inception_3a/3x3_reduce"
  type: "Convolution"
  bottom: "pool2/3x3_s2"
  top: "inception_3a/3x3_reduce"
  param {
    lr_mult: 1
    decay_mult: 1
  }
  param {
    lr_mult: 2
    decay_mult: 0
  }
  convolution_param {
    num_output: 96
    kernel_size: 1
    weight_filler {
      type: "xavier"
      std: 0.09
    }
    bias_filler {
      type: "constant"
      value: 0.2
    }
  }
}
layer {
  name: "inception_3a/relu_3x3_reduce"
  type: "ReLU"
  bottom: "inception_3a/3x3_reduce"
  top: "inception_3a/3x3_reduce"
}
layer {
  name: "inception_3a/3x3"
  type: "Convolution"
  bottom: "inception_3a/3x3_reduce"
  top: "inception_3a/3x3"
  param {
    lr_mult: 1
    decay_mult: 1
  }
  param {
    lr_mult: 2
    decay_mult: 0
  }
  convolution_param {
    num_output: 128
    pad: 1
    kernel_size: 3
    weight_filler {
      type: "xavier"
      std: 0.03
    }
    bias_filler {
      type: "constant"
      value: 0.2
    }
  }
}
layer {
  name: "inception_3a/relu_3x3"
  type: "ReLU"
  bottom: "inception_3a/3x3"
  top: "inception_3a/3x3"
}
layer {
  name: "inception_3a/5x5_reduce"
  type: "Convolution"
  bottom: "pool2/3x3_s2"
  top: "inception_3a/5x5_reduce"
  param {
    lr_mult: 1
    decay_mult: 1
  }
  param {
    lr_mult: 2
    decay_mult: 0
  }
  convolution_param {
    num_output: 16
    kernel_size: 1
    weight_filler {
      type: "xavier"
      std: 0.2
    }
    bias_filler {
      type: "constant"
      value: 0.2
    }
  }
}
layer {
  name: "inception_3a/relu_5x5_reduce"
  type: "ReLU"
  bottom: "inception_3a/5x5_reduce"
  top: "inception_3a/5x5_reduce"
}
layer {
  name: "inception_3a/5x5"
  type: "Convolution"
  bottom: "inception_3a/5x5_reduce"
  top: "inception_3a/5x5"
  param {
    lr_mult: 1
    decay_mult: 1
  }
  param {
    lr_mult: 2
    decay_mult: 0
  }
  convolution_param {
    num_output: 32
    pad: 2
    kernel_size: 5
    weight_filler {
      type: "xavier"
      std: 0.03
    }
    bias_filler {
      type: "constant"
      value: 0.2
    }
  }
}
layer {
  name: "inception_3a/relu_5x5"
  type: "ReLU"
  bottom: "inception_3a/5x5"
  top: "inception_3a/5x5"
}
layer {
  name: "inception_3a/pool"
  type: "Pooling"
  bottom: "pool2/3x3_s2"
  top: "inception_3a/pool"
  pooling_param {
    pool: MAX
    kernel_size: 3
    stride: 1
    pad: 1
  }
}
layer {
  name: "inception_3a/pool_proj"
  type: "Convolution"
  bottom: "inception_3a/pool"
  top: "inception_3a/pool_proj"
  param {
    lr_mult: 1
    decay_mult: 1
  }
  param {
    lr_mult: 2
    decay_mult: 0
  }
  convolution_param {
    num_output: 32
    kernel_size: 1
    weight_filler {
      type: "xavier"
      std: 0.1
    }
    bias_filler {
      type: "constant"
      value: 0.2
    }
  }
}
layer {
  name: "inception_3a/relu_pool_proj"
  type: "ReLU"
  bottom: "inception_3a/pool_proj"
  top: "inception_3a/pool_proj"
}
layer {
  name: "inception_3a/output"
  type: "Concat"
  bottom: "inception_3a/1x1"
  bottom: "inception_3a/3x3"
  bottom: "inception_3a/5x5"
  bottom: "inception_3a/pool_proj"
  top: "inception_3a/output"
}
layer {
  name: "inception_3b/1x1"
  type: "Convolution"
  bottom: "inception_3a/output"
  top: "inception_3b/1x1"
  param {
    lr_mult: 1
    decay_mult: 1
  }
  param {
    lr_mult: 2
    decay_mult: 0
  }
  convolution_param {
    num_output: 128
    kernel_size: 1
    weight_filler {
      type: "xavier"
      std: 0.03
    }
    bias_filler {
      type: "constant"
      value: 0.2
    }
  }
}
layer {
  name: "inception_3b/relu_1x1"
  type: "ReLU"
  bottom: "inception_3b/1x1"
  top: "inception_3b/1x1"
}
layer {
  name: "inception_3b/3x3_reduce"
  type: "Convolution"
  bottom: "inception_3a/output"
  top: "inception_3b/3x3_reduce"
  param {
    lr_mult: 1
    decay_mult: 1
  }
  param {
    lr_mult: 2
    decay_mult: 0
  }
  convolution_param {
    num_output: 128
    kernel_size: 1
    weight_filler {
      type: "xavier"
      std: 0.09
    }
    bias_filler {
      type: "constant"
      value: 0.2
    }
  }
}
layer {
  name: "inception_3b/relu_3x3_reduce"
  type: "ReLU"
  bottom: "inception_3b/3x3_reduce"
  top: "inception_3b/3x3_reduce"
}
layer {
  name: "inception_3b/3x3"
  type: "Convolution"
  bottom: "inception_3b/3x3_reduce"
  top: "inception_3b/3x3"
  param {
    lr_mult: 1
    decay_mult: 1
  }
  param {
    lr_mult: 2
    decay_mult: 0
  }
  convolution_param {
    num_output: 192
    pad: 1
    kernel_size: 3
    weight_filler {
      type: "xavier"
      std: 0.03
    }
    bias_filler {
      type: "constant"
      value: 0.2
    }
  }
}
layer {
  name: "inception_3b/relu_3x3"
  type: "ReLU"
  bottom: "inception_3b/3x3"
  top: "inception_3b/3x3"
}
layer {
  name: "inception_3b/5x5_reduce"
  type: "Convolution"
  bottom: "inception_3a/output"
  top: "inception_3b/5x5_reduce"
  param {
    lr_mult: 1
    decay_mult: 1
  }
  param {
    lr_mult: 2
    decay_mult: 0
  }
  convolution_param {
    num_output: 32
    kernel_size: 1
    weight_filler {
      type: "xavier"
      std: 0.2
    }
    bias_filler {
      type: "constant"
      value: 0.2
    }
  }
}
layer {
  name: "inception_3b/relu_5x5_reduce"
  type: "ReLU"
  bottom: "inception_3b/5x5_reduce"
  top: "inception_3b/5x5_reduce"
}
layer {
  name: "inception_3b/5x5"
  type: "Convolution"
  bottom: "inception_3b/5x5_reduce"
  top: "inception_3b/5x5"
  param {
    lr_mult: 1
    decay_mult: 1
  }
  param {
    lr_mult: 2
    decay_mult: 0
  }
  convolution_param {
    num_output: 96
    pad: 2
    kernel_size: 5
    weight_filler {
      type: "xavier"
      std: 0.03
    }
    bias_filler {
      type: "constant"
      value: 0.2
    }
  }
}
layer {
  name: "inception_3b/relu_5x5"
  type: "ReLU"
  bottom: "inception_3b/5x5"
  top: "inception_3b/5x5"
}
layer {
  name: "inception_3b/pool"
  type: "Pooling"
  bottom: "inception_3a/output"
  top: "inception_3b/pool"
  pooling_param {
    pool: MAX
    kernel_size: 3
    stride: 1
    pad: 1
  }
}
layer {
  name: "inception_3b/pool_proj"
  type: "Convolution"
  bottom: "inception_3b/pool"
  top: "inception_3b/pool_proj"
  param {
    lr_mult: 1
    decay_mult: 1
  }
  param {
    lr_mult: 2
    decay_mult: 0
  }
  convolution_param {
    num_output: 64
    kernel_size: 1
    weight_filler {
      type: "xavier"
      std: 0.1
    }
    bias_filler {
      type: "constant"
      value: 0.2
    }
  }
}
layer {
  name: "inception_3b/relu_pool_proj"
  type: "ReLU"
  bottom: "inception_3b/pool_proj"
  top: "inception_3b/pool_proj"
}
layer {
  name: "inception_3b/output"
  type: "Concat"
  bottom: "inception_3b/1x1"
  bottom: "inception_3b/3x3"
  bottom: "inception_3b/5x5"
  bottom: "inception_3b/pool_proj"
  top: "inception_3b/output"
}
layer {
  name: "pool3/3x3_s2"
  type: "Pooling"
  bottom: "inception_3b/output"
  top: "pool3/3x3_s2"
  pooling_param {
    pool: MAX
    kernel_size: 3
    stride: 2
  }
}
layer {
  name: "inception_4a/1x1"
  type: "Convolution"
  bottom: "pool3/3x3_s2"
  top: "inception_4a/1x1"
  param {
    lr_mult: 1
    decay_mult: 1
  }
  param {
    lr_mult: 2
    decay_mult: 0
  }
  convolution_param {
    num_output: 192
    kernel_size: 1
    weight_filler {
      type: "xavier"
      std: 0.03
    }
    bias_filler {
      type: "constant"
      value: 0.2
    }
  }
}
layer {
  name: "inception_4a/relu_1x1"
  type: "ReLU"
  bottom: "inception_4a/1x1"
  top: "inception_4a/1x1"
}
layer {
  name: "inception_4a/3x3_reduce"
  type: "Convolution"
  bottom: "pool3/3x3_s2"
  top: "inception_4a/3x3_reduce"
  param {
    lr_mult: 1
    decay_mult: 1
  }
  param {
    lr_mult: 2
    decay_mult: 0
  }
  convolution_param {
    num_output: 96
    kernel_size: 1
    weight_filler {
      type: "xavier"
      std: 0.09
    }
    bias_filler {
      type: "constant"
      value: 0.2
    }
  }
}
layer {
  name: "inception_4a/relu_3x3_reduce"
  type: "ReLU"
  bottom: "inception_4a/3x3_reduce"
  top: "inception_4a/3x3_reduce"
}
layer {
  name: "inception_4a/3x3"
  type: "Convolution"
  bottom: "inception_4a/3x3_reduce"
  top: "inception_4a/3x3"
  param {
    lr_mult: 1
    decay_mult: 1
  }
  param {
    lr_mult: 2
    decay_mult: 0
  }
  convolution_param {
    num_output: 208
    pad: 1
    kernel_size: 3
    weight_filler {
      type: "xavier"
      std: 0.03
    }
    bias_filler {
      type: "constant"
      value: 0.2
    }
  }
}
layer {
  name: "inception_4a/relu_3x3"
  type: "ReLU"
  bottom: "inception_4a/3x3"
  top: "inception_4a/3x3"
}
layer {
  name: "inception_4a/5x5_reduce"
  type: "Convolution"
  bottom: "pool3/3x3_s2"
  top: "inception_4a/5x5_reduce"
  param {
    lr_mult: 1
    decay_mult: 1
  }
  param {
    lr_mult: 2
    decay_mult: 0
  }
  convolution_param {
    num_output: 16
    kernel_size: 1
    weight_filler {
      type: "xavier"
      std: 0.2
    }
    bias_filler {
      type: "constant"
      value: 0.2
    }
  }
}
layer {
  name: "inception_4a/relu_5x5_reduce"
  type: "ReLU"
  bottom: "inception_4a/5x5_reduce"
  top: "inception_4a/5x5_reduce"
}
layer {
  name: "inception_4a/5x5"
  type: "Convolution"
  bottom: "inception_4a/5x5_reduce"
  top: "inception_4a/5x5"
  param {
    lr_mult: 1
    decay_mult: 1
  }
  param {
    lr_mult: 2
    decay_mult: 0
  }
  convolution_param {
    num_output: 48
    pad: 2
    kernel_size: 5
    weight_filler {
      type: "xavier"
      std: 0.03
    }
    bias_filler {
      type: "constant"
      value: 0.2
    }
  }
}
layer {
  name: "inception_4a/relu_5x5"
  type: "ReLU"
  bottom: "inception_4a/5x5"
  top: "inception_4a/5x5"
}
layer {
  name: "inception_4a/pool"
  type: "Pooling"
  bottom: "pool3/3x3_s2"
  top: "inception_4a/pool"
  pooling_param {
    pool: MAX
    kernel_size: 3
    stride: 1
    pad: 1
  }
}
layer {
  name: "inception_4a/pool_proj"
  type: "Convolution"
  bottom: "inception_4a/pool"
  top: "inception_4a/pool_proj"
  param {
    lr_mult: 1
    decay_mult: 1
  }
  param {
    lr_mult: 2
    decay_mult: 0
  }
  convolution_param {
    num_output: 64
    kernel_size: 1
    weight_filler {
      type: "xavier"
      std: 0.1
    }
    bias_filler {
      type: "constant"
      value: 0.2
    }
  }
}
layer {
  name: "inception_4a/relu_pool_proj"
  type: "ReLU"
  bottom: "inception_4a/pool_proj"
  top: "inception_4a/pool_proj"
}
layer {
  name: "inception_4a/output"
  type: "Concat"
  bottom: "inception_4a/1x1"
  bottom: "inception_4a/3x3"
  bottom: "inception_4a/5x5"
  bottom: "inception_4a/pool_proj"
  top: "inception_4a/output"
}
layer {
  name: "inception_4b/1x1"
  type: "Convolution"
  bottom: "inception_4a/output"
  top: "inception_4b/1x1"
  param {
    lr_mult: 1
    decay_mult: 1
  }
  param {
    lr_mult: 2
    decay_mult: 0
  }
  convolution_param {
    num_output: 160
    kernel_size: 1
    weight_filler {
      type: "xavier"
      std: 0.03
    }
    bias_filler {
      type: "constant"
      value: 0.2
    }
  }
}
layer {
  name: "inception_4b/relu_1x1"
  type: "ReLU"
  bottom: "inception_4b/1x1"
  top: "inception_4b/1x1"
}
layer {
  name: "inception_4b/3x3_reduce"
  type: "Convolution"
  bottom: "inception_4a/output"
  top: "inception_4b/3x3_reduce"
  param {
    lr_mult: 1
    decay_mult: 1
  }
  param {
    lr_mult: 2
    decay_mult: 0
  }
  convolution_param {
    num_output: 112
    kernel_size: 1
    weight_filler {
      type: "xavier"
      std: 0.09
    }
    bias_filler {
      type: "constant"
      value: 0.2
    }
  }
}
layer {
  name: "inception_4b/relu_3x3_reduce"
  type: "ReLU"
  bottom: "inception_4b/3x3_reduce"
  top: "inception_4b/3x3_reduce"
}
layer {
  name: "inception_4b/3x3"
  type: "Convolution"
  bottom: "inception_4b/3x3_reduce"
  top: "inception_4b/3x3"
  param {
    lr_mult: 1
    decay_mult: 1
  }
  param {
    lr_mult: 2
    decay_mult: 0
  }
  convolution_param {
    num_output: 224
    pad: 1
    kernel_size: 3
    weight_filler {
      type: "xavier"
      std: 0.03
    }
    bias_filler {
      type: "constant"
      value: 0.2
    }
  }
}
layer {
  name: "inception_4b/relu_3x3"
  type: "ReLU"
  bottom: "inception_4b/3x3"
  top: "inception_4b/3x3"
}
layer {
  name: "inception_4b/5x5_reduce"
  type: "Convolution"
  bottom: "inception_4a/output"
  top: "inception_4b/5x5_reduce"
  param {
    lr_mult: 1
    decay_mult: 1
  }
  param {
    lr_mult: 2
    decay_mult: 0
  }
  convolution_param {
    num_output: 24
    kernel_size: 1
    weight_filler {
      type: "xavier"
      std: 0.2
    }
    bias_filler {
      type: "constant"
      value: 0.2
    }
  }
}
layer {
  name: "inception_4b/relu_5x5_reduce"
  type: "ReLU"
  bottom: "inception_4b/5x5_reduce"
  top: "inception_4b/5x5_reduce"
}
layer {
  name: "inception_4b/5x5"
  type: "Convolution"
  bottom: "inception_4b/5x5_reduce"
  top: "inception_4b/5x5"
  param {
    lr_mult: 1
    decay_mult: 1
  }
  param {
    lr_mult: 2
    decay_mult: 0
  }
  convolution_param {
    num_output: 64
    pad: 2
    kernel_size: 5
    weight_filler {
      type: "xavier"
      std: 0.03
    }
    bias_filler {
      type: "constant"
      value: 0.2
    }
  }
}
layer {
  name: "inception_4b/relu_5x5"
  type: "ReLU"
  bottom: "inception_4b/5x5"
  top: "inception_4b/5x5"
}
layer {
  name: "inception_4b/pool"
  type: "Pooling"
  bottom: "inception_4a/output"
  top: "inception_4b/pool"
  pooling_param {
    pool: MAX
    kernel_size: 3
    stride: 1
    pad: 1
  }
}
layer {
  name: "inception_4b/pool_proj"
  type: "Convolution"
  bottom: "inception_4b/pool"
  top: "inception_4b/pool_proj"
  param {
    lr_mult: 1
    decay_mult: 1
  }
  param {
    lr_mult: 2
    decay_mult: 0
  }
  convolution_param {
    num_output: 64
    kernel_size: 1
    weight_filler {
      type: "xavier"
      std: 0.1
    }
    bias_filler {
      type: "constant"
      value: 0.2
    }
  }
}
layer {
  name: "inception_4b/relu_pool_proj"
  type: "ReLU"
  bottom: "inception_4b/pool_proj"
  top: "inception_4b/pool_proj"
}
layer {
  name: "inception_4b/output"
  type: "Concat"
  bottom: "inception_4b/1x1"
  bottom: "inception_4b/3x3"
  bottom: "inception_4b/5x5"
  bottom: "inception_4b/pool_proj"
  top: "inception_4b/output"
}
layer {
  name: "inception_4c/1x1"
  type: "Convolution"
  bottom: "inception_4b/output"
  top: "inception_4c/1x1"
  param {
    lr_mult: 1
    decay_mult: 1
  }
  param {
    lr_mult: 2
    decay_mult: 0
  }
  convolution_param {
    num_output: 128
    kernel_size: 1
    weight_filler {
      type: "xavier"
      std: 0.03
    }
    bias_filler {
      type: "constant"
      value: 0.2
    }
  }
}
layer {
  name: "inception_4c/relu_1x1"
  type: "ReLU"
  bottom: "inception_4c/1x1"
  top: "inception_4c/1x1"
}
layer {
  name: "inception_4c/3x3_reduce"
  type: "Convolution"
  bottom: "inception_4b/output"
  top: "inception_4c/3x3_reduce"
  param {
    lr_mult: 1
    decay_mult: 1
  }
  param {
    lr_mult: 2
    decay_mult: 0
  }
  convolution_param {
    num_output: 128
    kernel_size: 1
    weight_filler {
      type: "xavier"
      std: 0.09
    }
    bias_filler {
      type: "constant"
      value: 0.2
    }
  }
}
layer {
  name: "inception_4c/relu_3x3_reduce"
  type: "ReLU"
  bottom: "inception_4c/3x3_reduce"
  top: "inception_4c/3x3_reduce"
}
layer {
  name: "inception_4c/3x3"
  type: "Convolution"
  bottom: "inception_4c/3x3_reduce"
  top: "inception_4c/3x3"
  param {
    lr_mult: 1
    decay_mult: 1
  }
  param {
    lr_mult: 2
    decay_mult: 0
  }
  convolution_param {
    num_output: 256
    pad: 1
    kernel_size: 3
    weight_filler {
      type: "xavier"
      std: 0.03
    }
    bias_filler {
      type: "constant"
      value: 0.2
    }
  }
}
layer {
  name: "inception_4c/relu_3x3"
  type: "ReLU"
  bottom: "inception_4c/3x3"
  top: "inception_4c/3x3"
}
layer {
  name: "inception_4c/5x5_reduce"
  type: "Convolution"
  bottom: "inception_4b/output"
  top: "inception_4c/5x5_reduce"
  param {
    lr_mult: 1
    decay_mult: 1
  }
  param {
    lr_mult: 2
    decay_mult: 0
  }
  convolution_param {
    num_output: 24
    kernel_size: 1
    weight_filler {
      type: "xavier"
      std: 0.2
    }
    bias_filler {
      type: "constant"
      value: 0.2
    }
  }
}
layer {
  name: "inception_4c/relu_5x5_reduce"
  type: "ReLU"
  bottom: "inception_4c/5x5_reduce"
  top: "inception_4c/5x5_reduce"
}
layer {
  name: "inception_4c/5x5"
  type: "Convolution"
  bottom: "inception_4c/5x5_reduce"
  top: "inception_4c/5x5"
  param {
    lr_mult: 1
    decay_mult: 1
  }
  param {
    lr_mult: 2
    decay_mult: 0
  }
  convolution_param {
    num_output: 64
    pad: 2
    kernel_size: 5
    weight_filler {
      type: "xavier"
      std: 0.03
    }
    bias_filler {
      type: "constant"
      value: 0.2
    }
  }
}
layer {
  name: "inception_4c/relu_5x5"
  type: "ReLU"
  bottom: "inception_4c/5x5"
  top: "inception_4c/5x5"
}
layer {
  name: "inception_4c/pool"
  type: "Pooling"
  bottom: "inception_4b/output"
  top: "inception_4c/pool"
  pooling_param {
    pool: MAX
    kernel_size: 3
    stride: 1
    pad: 1
  }
}
layer {
  name: "inception_4c/pool_proj"
  type: "Convolution"
  bottom: "inception_4c/pool"
  top: "inception_4c/pool_proj"
  param {
    lr_mult: 1
    decay_mult: 1
  }
  param {
    lr_mult: 2
    decay_mult: 0
  }
  convolution_param {
    num_output: 64
    kernel_size: 1
    weight_filler {
      type: "xavier"
      std: 0.1
    }
    bias_filler {
      type: "constant"
      value: 0.2
    }
  }
}
layer {
  name: "inception_4c/relu_pool_proj"
  type: "ReLU"
  bottom: "inception_4c/pool_proj"
  top: "inception_4c/pool_proj"
}
layer {
  name: "inception_4c/output"
  type: "Concat"
  bottom: "inception_4c/1x1"
  bottom: "inception_4c/3x3"
  bottom: "inception_4c/5x5"
  bottom: "inception_4c/pool_proj"
  top: "inception_4c/output"
}
layer {
  name: "inception_4d/1x1"
  type: "Convolution"
  bottom: "inception_4c/output"
  top: "inception_4d/1x1"
  param {
    lr_mult: 1
    decay_mult: 1
  }
  param {
    lr_mult: 2
    decay_mult: 0
  }
  convolution_param {
    num_output: 112
    kernel_size: 1
    weight_filler {
      type: "xavier"
      std: 0.03
    }
    bias_filler {
      type: "constant"
      value: 0.2
    }
  }
}
layer {
  name: "inception_4d/relu_1x1"
  type: "ReLU"
  bottom: "inception_4d/1x1"
  top: "inception_4d/1x1"
}
layer {
  name: "inception_4d/3x3_reduce"
  type: "Convolution"
  bottom: "inception_4c/output"
  top: "inception_4d/3x3_reduce"
  param {
    lr_mult: 1
    decay_mult: 1
  }
  param {
    lr_mult: 2
    decay_mult: 0
  }
  convolution_param {
    num_output: 144
    kernel_size: 1
    weight_filler {
      type: "xavier"
      std: 0.09
    }
    bias_filler {
      type: "constant"
      value: 0.2
    }
  }
}
layer {
  name: "inception_4d/relu_3x3_reduce"
  type: "ReLU"
  bottom: "inception_4d/3x3_reduce"
  top: "inception_4d/3x3_reduce"
}
layer {
  name: "inception_4d/3x3"
  type: "Convolution"
  bottom: "inception_4d/3x3_reduce"
  top: "inception_4d/3x3"
  param {
    lr_mult: 1
    decay_mult: 1
  }
  param {
    lr_mult: 2
    decay_mult: 0
  }
  convolution_param {
    num_output: 288
    pad: 1
    kernel_size: 3
    weight_filler {
      type: "xavier"
      std: 0.03
    }
    bias_filler {
      type: "constant"
      value: 0.2
    }
  }
}
layer {
  name: "inception_4d/relu_3x3"
  type: "ReLU"
  bottom: "inception_4d/3x3"
  top: "inception_4d/3x3"
}
layer {
  name: "inception_4d/5x5_reduce"
  type: "Convolution"
  bottom: "inception_4c/output"
  top: "inception_4d/5x5_reduce"
  param {
    lr_mult: 1
    decay_mult: 1
  }
  param {
    lr_mult: 2
    decay_mult: 0
  }
  convolution_param {
    num_output: 32
    kernel_size: 1
    weight_filler {
      type: "xavier"
      std: 0.2
    }
    bias_filler {
      type: "constant"
      value: 0.2
    }
  }
}
layer {
  name: "inception_4d/relu_5x5_reduce"
  type: "ReLU"
  bottom: "inception_4d/5x5_reduce"
  top: "inception_4d/5x5_reduce"
}
layer {
  name: "inception_4d/5x5"
  type: "Convolution"
  bottom: "inception_4d/5x5_reduce"
  top: "inception_4d/5x5"
  param {
    lr_mult: 1
    decay_mult: 1
  }
  param {
    lr_mult: 2
    decay_mult: 0
  }
  convolution_param {
    num_output: 64
    pad: 2
    kernel_size: 5
    weight_filler {
      type: "xavier"
      std: 0.03
    }
    bias_filler {
      type: "constant"
      value: 0.2
    }
  }
}
layer {
  name: "inception_4d/relu_5x5"
  type: "ReLU"
  bottom: "inception_4d/5x5"
  top: "inception_4d/5x5"
}
layer {
  name: "inception_4d/pool"
  type: "Pooling"
  bottom: "inception_4c/output"
  top: "inception_4d/pool"
  pooling_param {
    pool: MAX
    kernel_size: 3
    stride: 1
    pad: 1
  }
}
layer {
  name: "inception_4d/pool_proj"
  type: "Convolution"
  bottom: "inception_4d/pool"
  top: "inception_4d/pool_proj"
  param {
    lr_mult: 1
    decay_mult: 1
  }
  param {
    lr_mult: 2
    decay_mult: 0
  }
  convolution_param {
    num_output: 64
    kernel_size: 1
    weight_filler {
      type: "xavier"
      std: 0.1
    }
    bias_filler {
      type: "constant"
      value: 0.2
    }
  }
}
layer {
  name: "inception_4d/relu_pool_proj"
  type: "ReLU"
  bottom: "inception_4d/pool_proj"
  top: "inception_4d/pool_proj"
}
layer {
  name: "inception_4d/output"
  type: "Concat"
  bottom: "inception_4d/1x1"
  bottom: "inception_4d/3x3"
  bottom: "inception_4d/5x5"
  bottom: "inception_4d/pool_proj"
  top: "inception_4d/output"
}
layer {
  name: "inception_4e/1x1"
  type: "Convolution"
  bottom: "inception_4d/output"
  top: "inception_4e/1x1"
  param {
    lr_mult: 1
    decay_mult: 1
  }
  param {
    lr_mult: 2
    decay_mult: 0
  }
  convolution_param {
    num_output: 256
    kernel_size: 1
    weight_filler {
      type: "xavier"
      std: 0.03
    }
    bias_filler {
      type: "constant"
      value: 0.2
    }
  }
}
layer {
  name: "inception_4e/relu_1x1"
  type: "ReLU"
  bottom: "inception_4e/1x1"
  top: "inception_4e/1x1"
}
layer {
  name: "inception_4e/3x3_reduce"
  type: "Convolution"
  bottom: "inception_4d/output"
  top: "inception_4e/3x3_reduce"
  param {
    lr_mult: 1
    decay_mult: 1
  }
  param {
    lr_mult: 2
    decay_mult: 0
  }
  convolution_param {
    num_output: 160
    kernel_size: 1
    weight_filler {
      type: "xavier"
      std: 0.09
    }
    bias_filler {
      type: "constant"
      value: 0.2
    }
  }
}
layer {
  name: "inception_4e/relu_3x3_reduce"
  type: "ReLU"
  bottom: "inception_4e/3x3_reduce"
  top: "inception_4e/3x3_reduce"
}
layer {
  name: "inception_4e/3x3"
  type: "Convolution"
  bottom: "inception_4e/3x3_reduce"
  top: "inception_4e/3x3"
  param {
    lr_mult: 1
    decay_mult: 1
  }
  param {
    lr_mult: 2
    decay_mult: 0
  }
  convolution_param {
    num_output: 320
    pad: 1
    kernel_size: 3
    weight_filler {
      type: "xavier"
      std: 0.03
    }
    bias_filler {
      type: "constant"
      value: 0.2
    }
  }
}
layer {
  name: "inception_4e/relu_3x3"
  type: "ReLU"
  bottom: "inception_4e/3x3"
  top: "inception_4e/3x3"
}
layer {
  name: "inception_4e/5x5_reduce"
  type: "Convolution"
  bottom: "inception_4d/output"
  top: "inception_4e/5x5_reduce"
  param {
    lr_mult: 1
    decay_mult: 1
  }
  param {
    lr_mult: 2
    decay_mult: 0
  }
  convolution_param {
    num_output: 32
    kernel_size: 1
    weight_filler {
      type: "xavier"
      std: 0.2
    }
    bias_filler {
      type: "constant"
      value: 0.2
    }
  }
}
layer {
  name: "inception_4e/relu_5x5_reduce"
  type: "ReLU"
  bottom: "inception_4e/5x5_reduce"
  top: "inception_4e/5x5_reduce"
}
layer {
  name: "inception_4e/5x5"
  type: "Convolution"
  bottom: "inception_4e/5x5_reduce"
  top: "inception_4e/5x5"
  param {
    lr_mult: 1
    decay_mult: 1
  }
  param {
    lr_mult: 2
    decay_mult: 0
  }
  convolution_param {
    num_output: 128
    pad: 2
    kernel_size: 5
    weight_filler {
      type: "xavier"
      std: 0.03
    }
    bias_filler {
      type: "constant"
      value: 0.2
    }
  }
}
layer {
  name: "inception_4e/relu_5x5"
  type: "ReLU"
  bottom: "inception_4e/5x5"
  top: "inception_4e/5x5"
}
layer {
  name: "inception_4e/pool"
  type: "Pooling"
  bottom: "inception_4d/output"
  top: "inception_4e/pool"
  pooling_param {
    pool: MAX
    kernel_size: 3
    stride: 1
    pad: 1
  }
}
layer {
  name: "inception_4e/pool_proj"
  type: "Convolution"
  bottom: "inception_4e/pool"
  top: "inception_4e/pool_proj"
  param {
    lr_mult: 1
    decay_mult: 1
  }
  param {
    lr_mult: 2
    decay_mult: 0
  }
  convolution_param {
    num_output: 128
    kernel_size: 1
    weight_filler {
      type: "xavier"
      std: 0.1
    }
    bias_filler {
      type: "constant"
      value: 0.2
    }
  }
}
layer {
  name: "inception_4e/relu_pool_proj"
  type: "ReLU"
  bottom: "inception_4e/pool_proj"
  top: "inception_4e/pool_proj"
}
layer {
  name: "inception_4e/output"
  type: "Concat"
  bottom: "inception_4e/1x1"
  bottom: "inception_4e/3x3"
  bottom: "inception_4e/5x5"
  bottom: "inception_4e/pool_proj"
  top: "inception_4e/output"
}
layer {
  name: "pool4/3x3_s2"
  type: "Pooling"
  bottom: "inception_4e/output"
  top: "pool4/3x3_s2"
  pooling_param {
    pool: MAX
    kernel_size: 3
    stride: 2
  }
}
layer {
  name: "inception_5a/1x1"
  type: "Convolution"
  bottom: "pool4/3x3_s2"
  top: "inception_5a/1x1"
  param {
    lr_mult: 1
    decay_mult: 1
  }
  param {
    lr_mult: 2
    decay_mult: 0
  }
  convolution_param {
    num_output: 256
    kernel_size: 1
    weight_filler {
      type: "xavier"
      std: 0.03
    }
    bias_filler {
      type: "constant"
      value: 0.2
    }
  }
}
layer {
  name: "inception_5a/relu_1x1"
  type: "ReLU"
  bottom: "inception_5a/1x1"
  top: "inception_5a/1x1"
}
layer {
  name: "inception_5a/3x3_reduce"
  type: "Convolution"
  bottom: "pool4/3x3_s2"
  top: "inception_5a/3x3_reduce"
  param {
    lr_mult: 1
    decay_mult: 1
  }
  param {
    lr_mult: 2
    decay_mult: 0
  }
  convolution_param {
    num_output: 160
    kernel_size: 1
    weight_filler {
      type: "xavier"
      std: 0.09
    }
    bias_filler {
      type: "constant"
      value: 0.2
    }
  }
}
layer {
  name: "inception_5a/relu_3x3_reduce"
  type: "ReLU"
  bottom: "inception_5a/3x3_reduce"
  top: "inception_5a/3x3_reduce"
}
layer {
  name: "inception_5a/3x3"
  type: "Convolution"
  bottom: "inception_5a/3x3_reduce"
  top: "inception_5a/3x3"
  param {
    lr_mult: 1
    decay_mult: 1
  }
  param {
    lr_mult: 2
    decay_mult: 0
  }
  convolution_param {
    num_output: 320
    pad: 1
    kernel_size: 3
    weight_filler {
      type: "xavier"
      std: 0.03
    }
    bias_filler {
      type: "constant"
      value: 0.2
    }
  }
}
layer {
  name: "inception_5a/relu_3x3"
  type: "ReLU"
  bottom: "inception_5a/3x3"
  top: "inception_5a/3x3"
}
layer {
  name: "inception_5a/5x5_reduce"
  type: "Convolution"
  bottom: "pool4/3x3_s2"
  top: "inception_5a/5x5_reduce"
  param {
    lr_mult: 1
    decay_mult: 1
  }
  param {
    lr_mult: 2
    decay_mult: 0
  }
  convolution_param {
    num_output: 32
    kernel_size: 1
    weight_filler {
      type: "xavier"
      std: 0.2
    }
    bias_filler {
      type: "constant"
      value: 0.2
    }
I0714 23:43:21.451002 11473 layer_factory.hpp:77] Creating layer data
I0714 23:43:21.451035 11473 net.cpp:91] Creating Layer data
I0714 23:43:21.451045 11473 net.cpp:399] data -> data
I0714 23:43:21.451752 11469 layer_factory.hpp:77] Creating layer data
I0714 23:43:21.451771 11469 net.cpp:91] Creating Layer data
I0714 23:43:21.451779 11469 net.cpp:399] data -> data
I0714 23:43:22.042644 11473 net.cpp:141] Setting up data
I0714 23:43:22.042737 11473 net.cpp:148] Top shape: 10 3 224 224 (1505280)
I0714 23:43:22.042732 11469 net.cpp:141] Setting up data
I0714 23:43:22.042744 11473 net.cpp:156] Memory required for data: 6021120
I0714 23:43:22.042779 11469 net.cpp:148] Top shape: 10 3 224 224 (1505280)
I0714 23:43:22.042785 11469 net.cpp:156] Memory required for data: 6021120
I0714 23:43:22.042798 11469 layer_factory.hpp:77] Creating layer conv1/7x7_s2
I0714 23:43:22.042803 11473 layer_factory.hpp:77] Creating layer conv1/7x7_s2
I0714 23:43:22.042837 11469 net.cpp:91] Creating Layer conv1/7x7_s2
I0714 23:43:22.042837 11473 net.cpp:91] Creating Layer conv1/7x7_s2
I0714 23:43:22.042860 11469 net.cpp:425] conv1/7x7_s2 <- data
I0714 23:43:22.042862 11473 net.cpp:425] conv1/7x7_s2 <- data
I0714 23:43:22.042876 11469 net.cpp:399] conv1/7x7_s2 -> conv1/7x7_s2
I0714 23:43:22.042876 11473 net.cpp:399] conv1/7x7_s2 -> conv1/7x7_s2
I0714 23:43:22.291687 11469 net.cpp:141] Setting up conv1/7x7_s2
I0714 23:43:22.291764 11469 net.cpp:148] Top shape: 10 64 112 112 (8028160)
I0714 23:43:22.291770 11469 net.cpp:156] Memory required for data: 38133760
I0714 23:43:22.291805 11469 layer_factory.hpp:77] Creating layer conv1/relu_7x7
I0714 23:43:22.291828 11469 net.cpp:91] Creating Layer conv1/relu_7x7
I0714 23:43:22.291834 11469 net.cpp:425] conv1/relu_7x7 <- conv1/7x7_s2
I0714 23:43:22.291843 11469 net.cpp:386] conv1/relu_7x7 -> conv1/7x7_s2 (in-place)
I0714 23:43:22.293252 11469 net.cpp:141] Setting up conv1/relu_7x7
I0714 23:43:22.293278 11469 net.cpp:148] Top shape: 10 64 112 112 (8028160)
I0714 23:43:22.293283 11469 net.cpp:156] Memory required for data: 70246400
I0714 23:43:22.293288 11469 layer_factory.hpp:77] Creating layer pool1/3x3_s2
I0714 23:43:22.293303 11469 net.cpp:91] Creating Layer pool1/3x3_s2
I0714 23:43:22.293308 11469 net.cpp:425] pool1/3x3_s2 <- conv1/7x7_s2
I0714 23:43:22.293315 11469 net.cpp:399] pool1/3x3_s2 -> pool1/3x3_s2
I0714 23:43:22.293696 11469 net.cpp:141] Setting up pool1/3x3_s2
I0714 23:43:22.293762 11469 net.cpp:148] Top shape: 10 64 56 56 (2007040)
I0714 23:43:22.293773 11469 net.cpp:156] Memory required for data: 78274560
I0714 23:43:22.293800 11469 layer_factory.hpp:77] Creating layer pool1/norm1
I0714 23:43:22.293829 11469 net.cpp:91] Creating Layer pool1/norm1
I0714 23:43:22.293838 11469 net.cpp:425] pool1/norm1 <- pool1/3x3_s2
I0714 23:43:22.293848 11469 net.cpp:399] pool1/norm1 -> pool1/norm1
I0714 23:43:22.295235 11469 net.cpp:141] Setting up pool1/norm1
I0714 23:43:22.295275 11469 net.cpp:148] Top shape: 10 64 56 56 (2007040)
I0714 23:43:22.295286 11469 net.cpp:156] Memory required for data: 86302720
I0714 23:43:22.295297 11469 layer_factory.hpp:77] Creating layer conv2/3x3_reduce
I0714 23:43:22.295338 11469 net.cpp:91] Creating Layer conv2/3x3_reduce
I0714 23:43:22.295346 11469 net.cpp:425] conv2/3x3_reduce <- pool1/norm1
I0714 23:43:22.295354 11469 net.cpp:399] conv2/3x3_reduce -> conv2/3x3_reduce
I0714 23:43:22.295400 11473 net.cpp:141] Setting up conv1/7x7_s2
I0714 23:43:22.295421 11473 net.cpp:148] Top shape: 10 64 112 112 (8028160)
I0714 23:43:22.295428 11473 net.cpp:156] Memory required for data: 38133760
I0714 23:43:22.295449 11473 layer_factory.hpp:77] Creating layer conv1/relu_7x7
I0714 23:43:22.295460 11473 net.cpp:91] Creating Layer conv1/relu_7x7
I0714 23:43:22.295466 11473 net.cpp:425] conv1/relu_7x7 <- conv1/7x7_s2
I0714 23:43:22.295477 11473 net.cpp:386] conv1/relu_7x7 -> conv1/7x7_s2 (in-place)
I0714 23:43:22.298316 11473 net.cpp:141] Setting up conv1/relu_7x7
I0714 23:43:22.298347 11473 net.cpp:148] Top shape: 10 64 112 112 (8028160)
I0714 23:43:22.298357 11473 net.cpp:156] Memory required for data: 70246400
I0714 23:43:22.298367 11473 layer_factory.hpp:77] Creating layer pool1/3x3_s2
I0714 23:43:22.298401 11473 net.cpp:91] Creating Layer pool1/3x3_s2
I0714 23:43:22.298408 11473 net.cpp:425] pool1/3x3_s2 <- conv1/7x7_s2
I0714 23:43:22.298415 11473 net.cpp:399] pool1/3x3_s2 -> pool1/3x3_s2
I0714 23:43:22.298589 11473 net.cpp:141] Setting up pool1/3x3_s2
I0714 23:43:22.298601 11473 net.cpp:148] Top shape: 10 64 56 56 (2007040)
I0714 23:43:22.298605 11473 net.cpp:156] Memory required for data: 78274560
I0714 23:43:22.298610 11473 layer_factory.hpp:77] Creating layer pool1/norm1
I0714 23:43:22.298621 11473 net.cpp:91] Creating Layer pool1/norm1
I0714 23:43:22.298626 11473 net.cpp:425] pool1/norm1 <- pool1/3x3_s2
I0714 23:43:22.298637 11473 net.cpp:399] pool1/norm1 -> pool1/norm1
I0714 23:43:22.301401 11473 net.cpp:141] Setting up pool1/norm1
I0714 23:43:22.301431 11473 net.cpp:148] Top shape: 10 64 56 56 (2007040)
I0714 23:43:22.301440 11473 net.cpp:156] Memory required for data: 86302720
I0714 23:43:22.301450 11473 layer_factory.hpp:77] Creating layer conv2/3x3_reduce
I0714 23:43:22.301481 11473 net.cpp:91] Creating Layer conv2/3x3_reduce
I0714 23:43:22.301491 11473 net.cpp:425] conv2/3x3_reduce <- pool1/norm1
I0714 23:43:22.301512 11473 net.cpp:399] conv2/3x3_reduce -> conv2/3x3_reduce
I0714 23:43:22.303983 11469 net.cpp:141] Setting up conv2/3x3_reduce
I0714 23:43:22.304019 11469 net.cpp:148] Top shape: 10 64 56 56 (2007040)
I0714 23:43:22.304030 11469 net.cpp:156] Memory required for data: 94330880
I0714 23:43:22.304055 11469 layer_factory.hpp:77] Creating layer conv2/relu_3x3_reduce
I0714 23:43:22.304072 11469 net.cpp:91] Creating Layer conv2/relu_3x3_reduce
I0714 23:43:22.304081 11469 net.cpp:425] conv2/relu_3x3_reduce <- conv2/3x3_reduce
I0714 23:43:22.304095 11469 net.cpp:386] conv2/relu_3x3_reduce -> conv2/3x3_reduce (in-place)
I0714 23:43:22.307183 11469 net.cpp:141] Setting up conv2/relu_3x3_reduce
I0714 23:43:22.307207 11469 net.cpp:148] Top shape: 10 64 56 56 (2007040)
I0714 23:43:22.307215 11469 net.cpp:156] Memory required for data: 102359040
I0714 23:43:22.307224 11469 layer_factory.hpp:77] Creating layer conv2/3x3
I0714 23:43:22.307245 11469 net.cpp:91] Creating Layer conv2/3x3
I0714 23:43:22.307253 11469 net.cpp:425] conv2/3x3 <- conv2/3x3_reduce
I0714 23:43:22.307266 11469 net.cpp:399] conv2/3x3 -> conv2/3x3
I0714 23:43:22.307416 11473 net.cpp:141] Setting up conv2/3x3_reduce
I0714 23:43:22.307440 11473 net.cpp:148] Top shape: 10 64 56 56 (2007040)
I0714 23:43:22.307446 11473 net.cpp:156] Memory required for data: 94330880
I0714 23:43:22.307466 11473 layer_factory.hpp:77] Creating layer conv2/relu_3x3_reduce
I0714 23:43:22.307478 11473 net.cpp:91] Creating Layer conv2/relu_3x3_reduce
I0714 23:43:22.307485 11473 net.cpp:425] conv2/relu_3x3_reduce <- conv2/3x3_reduce
I0714 23:43:22.307500 11473 net.cpp:386] conv2/relu_3x3_reduce -> conv2/3x3_reduce (in-place)
I0714 23:43:22.309504 11473 net.cpp:141] Setting up conv2/relu_3x3_reduce
I0714 23:43:22.309527 11473 net.cpp:148] Top shape: 10 64 56 56 (2007040)
I0714 23:43:22.309535 11473 net.cpp:156] Memory required for data: 102359040
I0714 23:43:22.309541 11473 layer_factory.hpp:77] Creating layer conv2/3x3
I0714 23:43:22.309566 11473 net.cpp:91] Creating Layer conv2/3x3
I0714 23:43:22.309574 11473 net.cpp:425] conv2/3x3 <- conv2/3x3_reduce
I0714 23:43:22.309590 11473 net.cpp:399] conv2/3x3 -> conv2/3x3
I0714 23:43:22.317734 11469 net.cpp:141] Setting up conv2/3x3
I0714 23:43:22.317766 11469 net.cpp:148] Top shape: 10 192 56 56 (6021120)
I0714 23:43:22.317765 11473 net.cpp:141] Setting up conv2/3x3
I0714 23:43:22.317777 11469 net.cpp:156] Memory required for data: 126443520
I0714 23:43:22.317790 11473 net.cpp:148] Top shape: 10 192 56 56 (6021120)
I0714 23:43:22.317797 11473 net.cpp:156] Memory required for data: 126443520
I0714 23:43:22.317800 11469 layer_factory.hpp:77] Creating layer conv2/relu_3x3
I0714 23:43:22.317816 11469 net.cpp:91] Creating Layer conv2/relu_3x3
I0714 23:43:22.317816 11473 layer_factory.hpp:77] Creating layer conv2/relu_3x3
I0714 23:43:22.317823 11469 net.cpp:425] conv2/relu_3x3 <- conv2/3x3
I0714 23:43:22.317832 11473 net.cpp:91] Creating Layer conv2/relu_3x3
I0714 23:43:22.317834 11469 net.cpp:386] conv2/relu_3x3 -> conv2/3x3 (in-place)
I0714 23:43:22.317842 11473 net.cpp:425] conv2/relu_3x3 <- conv2/3x3
I0714 23:43:22.317858 11473 net.cpp:386] conv2/relu_3x3 -> conv2/3x3 (in-place)
I0714 23:43:22.319365 11473 net.cpp:141] Setting up conv2/relu_3x3
I0714 23:43:22.319388 11473 net.cpp:148] Top shape: 10 192 56 56 (6021120)
I0714 23:43:22.319394 11473 net.cpp:156] Memory required for data: 150528000
I0714 23:43:22.319401 11473 layer_factory.hpp:77] Creating layer conv2/norm2
I0714 23:43:22.319401 11469 net.cpp:141] Setting up conv2/relu_3x3
I0714 23:43:22.319418 11469 net.cpp:148] Top shape: 10 192 56 56 (6021120)
I0714 23:43:22.319419 11473 net.cpp:91] Creating Layer conv2/norm2
I0714 23:43:22.319424 11469 net.cpp:156] Memory required for data: 150528000
I0714 23:43:22.319427 11473 net.cpp:425] conv2/norm2 <- conv2/3x3
I0714 23:43:22.319432 11469 layer_factory.hpp:77] Creating layer conv2/norm2
I0714 23:43:22.319440 11473 net.cpp:399] conv2/norm2 -> conv2/norm2
I0714 23:43:22.319448 11469 net.cpp:91] Creating Layer conv2/norm2
I0714 23:43:22.319455 11469 net.cpp:425] conv2/norm2 <- conv2/3x3
I0714 23:43:22.319465 11469 net.cpp:399] conv2/norm2 -> conv2/norm2
I0714 23:43:22.320989 11473 net.cpp:141] Setting up conv2/norm2
I0714 23:43:22.321008 11473 net.cpp:148] Top shape: 10 192 56 56 (6021120)
I0714 23:43:22.321014 11473 net.cpp:156] Memory required for data: 174612480
I0714 23:43:22.321022 11473 layer_factory.hpp:77] Creating layer pool2/3x3_s2
I0714 23:43:22.321038 11473 net.cpp:91] Creating Layer pool2/3x3_s2
I0714 23:43:22.321045 11473 net.cpp:425] pool2/3x3_s2 <- conv2/norm2
I0714 23:43:22.321055 11473 net.cpp:399] pool2/3x3_s2 -> pool2/3x3_s2
I0714 23:43:22.321068 11469 net.cpp:141] Setting up conv2/norm2
I0714 23:43:22.321090 11469 net.cpp:148] Top shape: 10 192 56 56 (6021120)
I0714 23:43:22.321097 11469 net.cpp:156] Memory required for data: 174612480
I0714 23:43:22.321105 11469 layer_factory.hpp:77] Creating layer pool2/3x3_s2
I0714 23:43:22.321115 11469 net.cpp:91] Creating Layer pool2/3x3_s2
I0714 23:43:22.321122 11469 net.cpp:425] pool2/3x3_s2 <- conv2/norm2
I0714 23:43:22.321131 11469 net.cpp:399] pool2/3x3_s2 -> pool2/3x3_s2
I0714 23:43:22.321140 11473 net.cpp:141] Setting up pool2/3x3_s2
I0714 23:43:22.321151 11473 net.cpp:148] Top shape: 10 192 28 28 (1505280)
I0714 23:43:22.321157 11473 net.cpp:156] Memory required for data: 180633600
I0714 23:43:22.321163 11473 layer_factory.hpp:77] Creating layer pool2/3x3_s2_pool2/3x3_s2_0_split
I0714 23:43:22.321185 11473 net.cpp:91] Creating Layer pool2/3x3_s2_pool2/3x3_s2_0_split
I0714 23:43:22.321192 11473 net.cpp:425] pool2/3x3_s2_pool2/3x3_s2_0_split <- pool2/3x3_s2
I0714 23:43:22.321207 11473 net.cpp:399] pool2/3x3_s2_pool2/3x3_s2_0_split -> pool2/3x3_s2_pool2/3x3_s2_0_split_0
I0714 23:43:22.321215 11469 net.cpp:141] Setting up pool2/3x3_s2
I0714 23:43:22.321219 11473 net.cpp:399] pool2/3x3_s2_pool2/3x3_s2_0_split -> pool2/3x3_s2_pool2/3x3_s2_0_split_1
I0714 23:43:22.321235 11469 net.cpp:148] Top shape: 10 192 28 28 (1505280)
I0714 23:43:22.321243 11469 net.cpp:156] Memory required for data: 180633600
I0714 23:43:22.321243 11473 net.cpp:399] pool2/3x3_s2_pool2/3x3_s2_0_split -> pool2/3x3_s2_pool2/3x3_s2_0_split_2
I0714 23:43:22.321249 11469 layer_factory.hpp:77] Creating layer pool2/3x3_s2_pool2/3x3_s2_0_split
I0714 23:43:22.321254 11473 net.cpp:399] pool2/3x3_s2_pool2/3x3_s2_0_split -> pool2/3x3_s2_pool2/3x3_s2_0_split_3
I0714 23:43:22.321259 11469 net.cpp:91] Creating Layer pool2/3x3_s2_pool2/3x3_s2_0_split
I0714 23:43:22.321266 11469 net.cpp:425] pool2/3x3_s2_pool2/3x3_s2_0_split <- pool2/3x3_s2
I0714 23:43:22.321280 11469 net.cpp:399] pool2/3x3_s2_pool2/3x3_s2_0_split -> pool2/3x3_s2_pool2/3x3_s2_0_split_0
I0714 23:43:22.321293 11469 net.cpp:399] pool2/3x3_s2_pool2/3x3_s2_0_split -> pool2/3x3_s2_pool2/3x3_s2_0_split_1
I0714 23:43:22.321305 11469 net.cpp:399] pool2/3x3_s2_pool2/3x3_s2_0_split -> pool2/3x3_s2_pool2/3x3_s2_0_split_2
I0714 23:43:22.321318 11469 net.cpp:399] pool2/3x3_s2_pool2/3x3_s2_0_split -> pool2/3x3_s2_pool2/3x3_s2_0_split_3
I0714 23:43:22.321379 11473 net.cpp:141] Setting up pool2/3x3_s2_pool2/3x3_s2_0_split
I0714 23:43:22.321393 11473 net.cpp:148] Top shape: 10 192 28 28 (1505280)
I0714 23:43:22.321401 11473 net.cpp:148] Top shape: 10 192 28 28 (1505280)
I0714 23:43:22.321408 11473 net.cpp:148] Top shape: 10 192 28 28 (1505280)
I0714 23:43:22.321415 11473 net.cpp:148] Top shape: 10 192 28 28 (1505280)
I0714 23:43:22.321421 11473 net.cpp:156] Memory required for data: 204718080
I0714 23:43:22.321427 11473 layer_factory.hpp:77] Creating layer inception_3a/1x1
I0714 23:43:22.321449 11473 net.cpp:91] Creating Layer inception_3a/1x1
I0714 23:43:22.321456 11473 net.cpp:425] inception_3a/1x1 <- pool2/3x3_s2_pool2/3x3_s2_0_split_0
I0714 23:43:22.321480 11469 net.cpp:141] Setting up pool2/3x3_s2_pool2/3x3_s2_0_split
I0714 23:43:22.321492 11473 net.cpp:399] inception_3a/1x1 -> inception_3a/1x1
I0714 23:43:22.321494 11469 net.cpp:148] Top shape: 10 192 28 28 (1505280)
I0714 23:43:22.321512 11469 net.cpp:148] Top shape: 10 192 28 28 (1505280)
I0714 23:43:22.321521 11469 net.cpp:148] Top shape: 10 192 28 28 (1505280)
I0714 23:43:22.321528 11469 net.cpp:148] Top shape: 10 192 28 28 (1505280)
I0714 23:43:22.321533 11469 net.cpp:156] Memory required for data: 204718080
I0714 23:43:22.321540 11469 layer_factory.hpp:77] Creating layer inception_3a/1x1
I0714 23:43:22.321559 11469 net.cpp:91] Creating Layer inception_3a/1x1
I0714 23:43:22.321568 11469 net.cpp:425] inception_3a/1x1 <- pool2/3x3_s2_pool2/3x3_s2_0_split_0
I0714 23:43:22.321584 11469 net.cpp:399] inception_3a/1x1 -> inception_3a/1x1
I0714 23:43:22.329288 11469 net.cpp:141] Setting up inception_3a/1x1
I0714 23:43:22.329313 11469 net.cpp:148] Top shape: 10 64 28 28 (501760)
I0714 23:43:22.329319 11469 net.cpp:156] Memory required for data: 206725120
I0714 23:43:22.329314 11473 net.cpp:141] Setting up inception_3a/1x1
I0714 23:43:22.329332 11469 layer_factory.hpp:77] Creating layer inception_3a/relu_1x1
I0714 23:43:22.329339 11473 net.cpp:148] Top shape: 10 64 28 28 (501760)
I0714 23:43:22.329344 11469 net.cpp:91] Creating Layer inception_3a/relu_1x1
I0714 23:43:22.329345 11473 net.cpp:156] Memory required for data: 206725120
I0714 23:43:22.329350 11469 net.cpp:425] inception_3a/relu_1x1 <- inception_3a/1x1
I0714 23:43:22.329357 11473 layer_factory.hpp:77] Creating layer inception_3a/relu_1x1
I0714 23:43:22.329360 11469 net.cpp:386] inception_3a/relu_1x1 -> inception_3a/1x1 (in-place)
I0714 23:43:22.329368 11473 net.cpp:91] Creating Layer inception_3a/relu_1x1
I0714 23:43:22.329375 11473 net.cpp:425] inception_3a/relu_1x1 <- inception_3a/1x1
I0714 23:43:22.329385 11473 net.cpp:386] inception_3a/relu_1x1 -> inception_3a/1x1 (in-place)
I0714 23:43:22.330657 11473 net.cpp:141] Setting up inception_3a/relu_1x1
I0714 23:43:22.330660 11469 net.cpp:141] Setting up inception_3a/relu_1x1
I0714 23:43:22.330677 11473 net.cpp:148] Top shape: 10 64 28 28 (501760)
I0714 23:43:22.330684 11469 net.cpp:148] Top shape: 10 64 28 28 (501760)
I0714 23:43:22.330683 11473 net.cpp:156] Memory required for data: 208732160
I0714 23:43:22.330708 11469 net.cpp:156] Memory required for data: 208732160
I0714 23:43:22.330711 11473 layer_factory.hpp:77] Creating layer inception_3a/3x3_reduce
I0714 23:43:22.330714 11469 layer_factory.hpp:77] Creating layer inception_3a/3x3_reduce
I0714 23:43:22.330731 11473 net.cpp:91] Creating Layer inception_3a/3x3_reduce
I0714 23:43:22.330735 11469 net.cpp:91] Creating Layer inception_3a/3x3_reduce
I0714 23:43:22.330739 11473 net.cpp:425] inception_3a/3x3_reduce <- pool2/3x3_s2_pool2/3x3_s2_0_split_1
I0714 23:43:22.330744 11469 net.cpp:425] inception_3a/3x3_reduce <- pool2/3x3_s2_pool2/3x3_s2_0_split_1
I0714 23:43:22.330755 11473 net.cpp:399] inception_3a/3x3_reduce -> inception_3a/3x3_reduce
I0714 23:43:22.330757 11469 net.cpp:399] inception_3a/3x3_reduce -> inception_3a/3x3_reduce
I0714 23:43:22.337685 11473 net.cpp:141] Setting up inception_3a/3x3_reduce
I0714 23:43:22.337710 11473 net.cpp:148] Top shape: 10 96 28 28 (752640)
I0714 23:43:22.337716 11473 net.cpp:156] Memory required for data: 211742720
I0714 23:43:22.337733 11473 layer_factory.hpp:77] Creating layer inception_3a/relu_3x3_reduce
I0714 23:43:22.337744 11473 net.cpp:91] Creating Layer inception_3a/relu_3x3_reduce
I0714 23:43:22.337751 11473 net.cpp:425] inception_3a/relu_3x3_reduce <- inception_3a/3x3_reduce
I0714 23:43:22.337772 11473 net.cpp:386] inception_3a/relu_3x3_reduce -> inception_3a/3x3_reduce (in-place)
I0714 23:43:22.338654 11469 net.cpp:141] Setting up inception_3a/3x3_reduce
I0714 23:43:22.338680 11469 net.cpp:148] Top shape: 10 96 28 28 (752640)
I0714 23:43:22.338699 11469 net.cpp:156] Memory required for data: 211742720
I0714 23:43:22.338717 11469 layer_factory.hpp:77] Creating layer inception_3a/relu_3x3_reduce
I0714 23:43:22.338729 11469 net.cpp:91] Creating Layer inception_3a/relu_3x3_reduce
I0714 23:43:22.338749 11469 net.cpp:425] inception_3a/relu_3x3_reduce <- inception_3a/3x3_reduce
I0714 23:43:22.338757 11469 net.cpp:386] inception_3a/relu_3x3_reduce -> inception_3a/3x3_reduce (in-place)
I0714 23:43:22.338773 11473 net.cpp:141] Setting up inception_3a/relu_3x3_reduce
I0714 23:43:22.338788 11473 net.cpp:148] Top shape: 10 96 28 28 (752640)
I0714 23:43:22.338793 11473 net.cpp:156] Memory required for data: 214753280
I0714 23:43:22.338798 11473 layer_factory.hpp:77] Creating layer inception_3a/3x3
I0714 23:43:22.338821 11473 net.cpp:91] Creating Layer inception_3a/3x3
I0714 23:43:22.338829 11473 net.cpp:425] inception_3a/3x3 <- inception_3a/3x3_reduce
I0714 23:43:22.338838 11473 net.cpp:399] inception_3a/3x3 -> inception_3a/3x3
I0714 23:43:22.340490 11469 net.cpp:141] Setting up inception_3a/relu_3x3_reduce
I0714 23:43:22.340508 11469 net.cpp:148] Top shape: 10 96 28 28 (752640)
I0714 23:43:22.340513 11469 net.cpp:156] Memory required for data: 214753280
I0714 23:43:22.340519 11469 layer_factory.hpp:77] Creating layer inception_3a/3x3
I0714 23:43:22.340558 11469 net.cpp:91] Creating Layer inception_3a/3x3
I0714 23:43:22.340564 11469 net.cpp:425] inception_3a/3x3 <- inception_3a/3x3_reduce
I0714 23:43:22.340574 11469 net.cpp:399] inception_3a/3x3 -> inception_3a/3x3
I0714 23:43:22.346103 11473 net.cpp:141] Setting up inception_3a/3x3
I0714 23:43:22.346125 11473 net.cpp:148] Top shape: 10 128 28 28 (1003520)
I0714 23:43:22.346130 11473 net.cpp:156] Memory required for data: 218767360
I0714 23:43:22.346140 11473 layer_factory.hpp:77] Creating layer inception_3a/relu_3x3
I0714 23:43:22.346150 11473 net.cpp:91] Creating Layer inception_3a/relu_3x3
I0714 23:43:22.346156 11473 net.cpp:425] inception_3a/relu_3x3 <- inception_3a/3x3
I0714 23:43:22.346163 11473 net.cpp:386] inception_3a/relu_3x3 -> inception_3a/3x3 (in-place)
I0714 23:43:22.346525 11469 net.cpp:141] Setting up inception_3a/3x3
I0714 23:43:22.346544 11469 net.cpp:148] Top shape: 10 128 28 28 (1003520)
I0714 23:43:22.346549 11469 net.cpp:156] Memory required for data: 218767360
I0714 23:43:22.346560 11469 layer_factory.hpp:77] Creating layer inception_3a/relu_3x3
I0714 23:43:22.346570 11469 net.cpp:91] Creating Layer inception_3a/relu_3x3
I0714 23:43:22.346576 11469 net.cpp:425] inception_3a/relu_3x3 <- inception_3a/3x3
I0714 23:43:22.346592 11469 net.cpp:386] inception_3a/relu_3x3 -> inception_3a/3x3 (in-place)
I0714 23:43:22.346601 11473 net.cpp:141] Setting up inception_3a/relu_3x3
I0714 23:43:22.346616 11473 net.cpp:148] Top shape: 10 128 28 28 (1003520)
I0714 23:43:22.346621 11473 net.cpp:156] Memory required for data: 222781440
I0714 23:43:22.346626 11473 layer_factory.hpp:77] Creating layer inception_3a/5x5_reduce
I0714 23:43:22.346643 11473 net.cpp:91] Creating Layer inception_3a/5x5_reduce
I0714 23:43:22.346650 11473 net.cpp:425] inception_3a/5x5_reduce <- pool2/3x3_s2_pool2/3x3_s2_0_split_2
I0714 23:43:22.346668 11473 net.cpp:399] inception_3a/5x5_reduce -> inception_3a/5x5_reduce
I0714 23:43:22.348034 11469 net.cpp:141] Setting up inception_3a/relu_3x3
I0714 23:43:22.348052 11469 net.cpp:148] Top shape: 10 128 28 28 (1003520)
I0714 23:43:22.348058 11469 net.cpp:156] Memory required for data: 222781440
I0714 23:43:22.348064 11469 layer_factory.hpp:77] Creating layer inception_3a/5x5_reduce
I0714 23:43:22.348104 11469 net.cpp:91] Creating Layer inception_3a/5x5_reduce
I0714 23:43:22.348114 11469 net.cpp:425] inception_3a/5x5_reduce <- pool2/3x3_s2_pool2/3x3_s2_0_split_2
I0714 23:43:22.348126 11469 net.cpp:399] inception_3a/5x5_reduce -> inception_3a/5x5_reduce
I0714 23:43:22.351729 11473 net.cpp:141] Setting up inception_3a/5x5_reduce
I0714 23:43:22.351765 11473 net.cpp:148] Top shape: 10 16 28 28 (125440)
I0714 23:43:22.351771 11473 net.cpp:156] Memory required for data: 223283200
I0714 23:43:22.351781 11473 layer_factory.hpp:77] Creating layer inception_3a/relu_5x5_reduce
I0714 23:43:22.351791 11473 net.cpp:91] Creating Layer inception_3a/relu_5x5_reduce
I0714 23:43:22.351799 11473 net.cpp:425] inception_3a/relu_5x5_reduce <- inception_3a/5x5_reduce
I0714 23:43:22.351806 11473 net.cpp:386] inception_3a/relu_5x5_reduce -> inception_3a/5x5_reduce (in-place)
I0714 23:43:22.352989 11473 net.cpp:141] Setting up inception_3a/relu_5x5_reduce
I0714 23:43:22.353008 11473 net.cpp:148] Top shape: 10 16 28 28 (125440)
I0714 23:43:22.353013 11473 net.cpp:156] Memory required for data: 223784960
I0714 23:43:22.353018 11473 layer_factory.hpp:77] Creating layer inception_3a/5x5
I0714 23:43:22.353037 11473 net.cpp:91] Creating Layer inception_3a/5x5
I0714 23:43:22.353044 11473 net.cpp:425] inception_3a/5x5 <- inception_3a/5x5_reduce
I0714 23:43:22.353056 11473 net.cpp:399] inception_3a/5x5 -> inception_3a/5x5
I0714 23:43:22.353189 11469 net.cpp:141] Setting up inception_3a/5x5_reduce
I0714 23:43:22.353206 11469 net.cpp:148] Top shape: 10 16 28 28 (125440)
I0714 23:43:22.353212 11469 net.cpp:156] Memory required for data: 223283200
I0714 23:43:22.353222 11469 layer_factory.hpp:77] Creating layer inception_3a/relu_5x5_reduce
I0714 23:43:22.353235 11469 net.cpp:91] Creating Layer inception_3a/relu_5x5_reduce
I0714 23:43:22.353241 11469 net.cpp:425] inception_3a/relu_5x5_reduce <- inception_3a/5x5_reduce
I0714 23:43:22.353248 11469 net.cpp:386] inception_3a/relu_5x5_reduce -> inception_3a/5x5_reduce (in-place)
I0714 23:43:22.353662 11469 net.cpp:141] Setting up inception_3a/relu_5x5_reduce
I0714 23:43:22.353675 11469 net.cpp:148] Top shape: 10 16 28 28 (125440)
I0714 23:43:22.353679 11469 net.cpp:156] Memory required for data: 223784960
I0714 23:43:22.353685 11469 layer_factory.hpp:77] Creating layer inception_3a/5x5
I0714 23:43:22.353713 11469 net.cpp:91] Creating Layer inception_3a/5x5
I0714 23:43:22.353718 11469 net.cpp:425] inception_3a/5x5 <- inception_3a/5x5_reduce
I0714 23:43:22.353727 11469 net.cpp:399] inception_3a/5x5 -> inception_3a/5x5
I0714 23:43:22.358906 11473 net.cpp:141] Setting up inception_3a/5x5
I0714 23:43:22.358927 11473 net.cpp:148] Top shape: 10 32 28 28 (250880)
I0714 23:43:22.358935 11473 net.cpp:156] Memory required for data: 224788480
I0714 23:43:22.358945 11473 layer_factory.hpp:77] Creating layer inception_3a/relu_5x5
I0714 23:43:22.358954 11473 net.cpp:91] Creating Layer inception_3a/relu_5x5
I0714 23:43:22.358960 11473 net.cpp:425] inception_3a/relu_5x5 <- inception_3a/5x5
I0714 23:43:22.358968 11473 net.cpp:386] inception_3a/relu_5x5 -> inception_3a/5x5 (in-place)
I0714 23:43:22.360601 11473 net.cpp:141] Setting up inception_3a/relu_5x5
I0714 23:43:22.360617 11473 net.cpp:148] Top shape: 10 32 28 28 (250880)
I0714 23:43:22.360622 11473 net.cpp:156] Memory required for data: 225792000
I0714 23:43:22.360627 11473 layer_factory.hpp:77] Creating layer inception_3a/pool
I0714 23:43:22.360638 11473 net.cpp:91] Creating Layer inception_3a/pool
I0714 23:43:22.360643 11473 net.cpp:425] inception_3a/pool <- pool2/3x3_s2_pool2/3x3_s2_0_split_3
I0714 23:43:22.360654 11473 net.cpp:399] inception_3a/pool -> inception_3a/pool
I0714 23:43:22.361369 11469 net.cpp:141] Setting up inception_3a/5x5
I0714 23:43:22.361388 11469 net.cpp:148] Top shape: 10 32 28 28 (250880)
I0714 23:43:22.361392 11473 net.cpp:141] Setting up inception_3a/pool
I0714 23:43:22.361393 11469 net.cpp:156] Memory required for data: 224788480
I0714 23:43:22.361408 11473 net.cpp:148] Top shape: 10 192 28 28 (1505280)
I0714 23:43:22.361413 11469 layer_factory.hpp:77] Creating layer inception_3a/relu_5x5
I0714 23:43:22.361413 11473 net.cpp:156] Memory required for data: 231813120
I0714 23:43:22.361425 11473 layer_factory.hpp:77] Creating layer inception_3a/pool_proj
I0714 23:43:22.361428 11469 net.cpp:91] Creating Layer inception_3a/relu_5x5
I0714 23:43:22.361434 11469 net.cpp:425] inception_3a/relu_5x5 <- inception_3a/5x5
I0714 23:43:22.361443 11469 net.cpp:386] inception_3a/relu_5x5 -> inception_3a/5x5 (in-place)
I0714 23:43:22.361443 11473 net.cpp:91] Creating Layer inception_3a/pool_proj
I0714 23:43:22.361450 11473 net.cpp:425] inception_3a/pool_proj <- inception_3a/pool
I0714 23:43:22.361459 11473 net.cpp:399] inception_3a/pool_proj -> inception_3a/pool_proj
I0714 23:43:22.361982 11469 net.cpp:141] Setting up inception_3a/relu_5x5
I0714 23:43:22.361996 11469 net.cpp:148] Top shape: 10 32 28 28 (250880)
I0714 23:43:22.362001 11469 net.cpp:156] Memory required for data: 225792000
I0714 23:43:22.362006 11469 layer_factory.hpp:77] Creating layer inception_3a/pool
I0714 23:43:22.362020 11469 net.cpp:91] Creating Layer inception_3a/pool
I0714 23:43:22.362025 11469 net.cpp:425] inception_3a/pool <- pool2/3x3_s2_pool2/3x3_s2_0_split_3
I0714 23:43:22.362035 11469 net.cpp:399] inception_3a/pool -> inception_3a/pool
I0714 23:43:22.362884 11469 net.cpp:141] Setting up inception_3a/pool
I0714 23:43:22.362900 11469 net.cpp:148] Top shape: 10 192 28 28 (1505280)
I0714 23:43:22.362905 11469 net.cpp:156] Memory required for data: 231813120
I0714 23:43:22.362910 11469 layer_factory.hpp:77] Creating layer inception_3a/pool_proj
I0714 23:43:22.362925 11469 net.cpp:91] Creating Layer inception_3a/pool_proj
I0714 23:43:22.362931 11469 net.cpp:425] inception_3a/pool_proj <- inception_3a/pool
I0714 23:43:22.362943 11469 net.cpp:399] inception_3a/pool_proj -> inception_3a/pool_proj
I0714 23:43:22.365809 11473 net.cpp:141] Setting up inception_3a/pool_proj
I0714 23:43:22.365828 11473 net.cpp:148] Top shape: 10 32 28 28 (250880)
I0714 23:43:22.365833 11473 net.cpp:156] Memory required for data: 232816640
I0714 23:43:22.365852 11473 layer_factory.hpp:77] Creating layer inception_3a/relu_pool_proj
I0714 23:43:22.365864 11473 net.cpp:91] Creating Layer inception_3a/relu_pool_proj
I0714 23:43:22.365870 11473 net.cpp:425] inception_3a/relu_pool_proj <- inception_3a/pool_proj
I0714 23:43:22.365878 11473 net.cpp:386] inception_3a/relu_pool_proj -> inception_3a/pool_proj (in-place)
I0714 23:43:22.366892 11473 net.cpp:141] Setting up inception_3a/relu_pool_proj
I0714 23:43:22.366909 11473 net.cpp:148] Top shape: 10 32 28 28 (250880)
I0714 23:43:22.366914 11473 net.cpp:156] Memory required for data: 233820160
I0714 23:43:22.366919 11473 layer_factory.hpp:77] Creating layer inception_3a/output
I0714 23:43:22.366940 11473 net.cpp:91] Creating Layer inception_3a/output
I0714 23:43:22.366947 11473 net.cpp:425] inception_3a/output <- inception_3a/1x1
I0714 23:43:22.366953 11473 net.cpp:425] inception_3a/output <- inception_3a/3x3
I0714 23:43:22.366961 11473 net.cpp:425] inception_3a/output <- inception_3a/5x5
I0714 23:43:22.366966 11473 net.cpp:425] inception_3a/output <- inception_3a/pool_proj
I0714 23:43:22.366972 11473 net.cpp:399] inception_3a/output -> inception_3a/output
I0714 23:43:22.367092 11473 net.cpp:141] Setting up inception_3a/output
I0714 23:43:22.367103 11473 net.cpp:148] Top shape: 10 256 28 28 (2007040)
I0714 23:43:22.367108 11473 net.cpp:156] Memory required for data: 241848320
I0714 23:43:22.367115 11473 layer_factory.hpp:77] Creating layer inception_3a/output_inception_3a/output_0_split
I0714 23:43:22.367122 11473 net.cpp:91] Creating Layer inception_3a/output_inception_3a/output_0_split
I0714 23:43:22.367127 11473 net.cpp:425] inception_3a/output_inception_3a/output_0_split <- inception_3a/output
I0714 23:43:22.367128 11469 net.cpp:141] Setting up inception_3a/pool_proj
I0714 23:43:22.367141 11473 net.cpp:399] inception_3a/output_inception_3a/output_0_split -> inception_3a/output_inception_3a/output_0_split_0
I0714 23:43:22.367144 11469 net.cpp:148] Top shape: 10 32 28 28 (250880)
I0714 23:43:22.367151 11469 net.cpp:156] Memory required for data: 232816640
I0714 23:43:22.367151 11473 net.cpp:399] inception_3a/output_inception_3a/output_0_split -> inception_3a/output_inception_3a/output_0_split_1
I0714 23:43:22.367161 11473 net.cpp:399] inception_3a/output_inception_3a/output_0_split -> inception_3a/output_inception_3a/output_0_split_2
I0714 23:43:22.367164 11469 layer_factory.hpp:77] Creating layer inception_3a/relu_pool_proj
I0714 23:43:22.367168 11473 net.cpp:399] inception_3a/output_inception_3a/output_0_split -> inception_3a/output_inception_3a/output_0_split_3
I0714 23:43:22.367177 11469 net.cpp:91] Creating Layer inception_3a/relu_pool_proj
I0714 23:43:22.367184 11469 net.cpp:425] inception_3a/relu_pool_proj <- inception_3a/pool_proj
I0714 23:43:22.367192 11469 net.cpp:386] inception_3a/relu_pool_proj -> inception_3a/pool_proj (in-place)
I0714 23:43:22.367907 11473 net.cpp:141] Setting up inception_3a/output_inception_3a/output_0_split
I0714 23:43:22.367918 11473 net.cpp:148] Top shape: 10 256 28 28 (2007040)
I0714 23:43:22.367923 11473 net.cpp:148] Top shape: 10 256 28 28 (2007040)
I0714 23:43:22.367929 11473 net.cpp:148] Top shape: 10 256 28 28 (2007040)
I0714 23:43:22.367934 11473 net.cpp:148] Top shape: 10 256 28 28 (2007040)
I0714 23:43:22.367938 11473 net.cpp:156] Memory required for data: 273960960
I0714 23:43:22.367944 11473 layer_factory.hpp:77] Creating layer inception_3b/1x1
I0714 23:43:22.367962 11473 net.cpp:91] Creating Layer inception_3b/1x1
I0714 23:43:22.367969 11473 net.cpp:425] inception_3b/1x1 <- inception_3a/output_inception_3a/output_0_split_0
I0714 23:43:22.367977 11473 net.cpp:399] inception_3b/1x1 -> inception_3b/1x1
I0714 23:43:22.368309 11469 net.cpp:141] Setting up inception_3a/relu_pool_proj
I0714 23:43:22.368324 11469 net.cpp:148] Top shape: 10 32 28 28 (250880)
I0714 23:43:22.368330 11469 net.cpp:156] Memory required for data: 233820160
I0714 23:43:22.368335 11469 layer_factory.hpp:77] Creating layer inception_3a/output
I0714 23:43:22.368346 11469 net.cpp:91] Creating Layer inception_3a/output
I0714 23:43:22.368352 11469 net.cpp:425] inception_3a/output <- inception_3a/1x1
I0714 23:43:22.368360 11469 net.cpp:425] inception_3a/output <- inception_3a/3x3
I0714 23:43:22.368366 11469 net.cpp:425] inception_3a/output <- inception_3a/5x5
I0714 23:43:22.368371 11469 net.cpp:425] inception_3a/output <- inception_3a/pool_proj
I0714 23:43:22.368377 11469 net.cpp:399] inception_3a/output -> inception_3a/output
I0714 23:43:22.368437 11469 net.cpp:141] Setting up inception_3a/output
I0714 23:43:22.368446 11469 net.cpp:148] Top shape: 10 256 28 28 (2007040)
I0714 23:43:22.368450 11469 net.cpp:156] Memory required for data: 241848320
I0714 23:43:22.368455 11469 layer_factory.hpp:77] Creating layer inception_3a/output_inception_3a/output_0_split
I0714 23:43:22.368463 11469 net.cpp:91] Creating Layer inception_3a/output_inception_3a/output_0_split
I0714 23:43:22.368468 11469 net.cpp:425] inception_3a/output_inception_3a/output_0_split <- inception_3a/output
I0714 23:43:22.368479 11469 net.cpp:399] inception_3a/output_inception_3a/output_0_split -> inception_3a/output_inception_3a/output_0_split_0
I0714 23:43:22.368489 11469 net.cpp:399] inception_3a/output_inception_3a/output_0_split -> inception_3a/output_inception_3a/output_0_split_1
I0714 23:43:22.368497 11469 net.cpp:399] inception_3a/output_inception_3a/output_0_split -> inception_3a/output_inception_3a/output_0_split_2
I0714 23:43:22.368505 11469 net.cpp:399] inception_3a/output_inception_3a/output_0_split -> inception_3a/output_inception_3a/output_0_split_3
I0714 23:43:22.368618 11469 net.cpp:141] Setting up inception_3a/output_inception_3a/output_0_split
I0714 23:43:22.368629 11469 net.cpp:148] Top shape: 10 256 28 28 (2007040)
I0714 23:43:22.368635 11469 net.cpp:148] Top shape: 10 256 28 28 (2007040)
I0714 23:43:22.368640 11469 net.cpp:148] Top shape: 10 256 28 28 (2007040)
I0714 23:43:22.368646 11469 net.cpp:148] Top shape: 10 256 28 28 (2007040)
I0714 23:43:22.368650 11469 net.cpp:156] Memory required for data: 273960960
I0714 23:43:22.368655 11469 layer_factory.hpp:77] Creating layer inception_3b/1x1
I0714 23:43:22.368674 11469 net.cpp:91] Creating Layer inception_3b/1x1
I0714 23:43:22.368680 11469 net.cpp:425] inception_3b/1x1 <- inception_3a/output_inception_3a/output_0_split_0
I0714 23:43:22.368690 11469 net.cpp:399] inception_3b/1x1 -> inception_3b/1x1
I0714 23:43:22.372292 11473 net.cpp:141] Setting up inception_3b/1x1
I0714 23:43:22.372309 11473 net.cpp:148] Top shape: 10 128 28 28 (1003520)
I0714 23:43:22.372315 11473 net.cpp:156] Memory required for data: 277975040
I0714 23:43:22.372325 11473 layer_factory.hpp:77] Creating layer inception_3b/relu_1x1
I0714 23:43:22.372344 11473 net.cpp:91] Creating Layer inception_3b/relu_1x1
I0714 23:43:22.372351 11473 net.cpp:425] inception_3b/relu_1x1 <- inception_3b/1x1
I0714 23:43:22.372360 11473 net.cpp:386] inception_3b/relu_1x1 -> inception_3b/1x1 (in-place)
I0714 23:43:22.373414 11473 net.cpp:141] Setting up inception_3b/relu_1x1
I0714 23:43:22.373432 11473 net.cpp:148] Top shape: 10 128 28 28 (1003520)
I0714 23:43:22.373437 11473 net.cpp:156] Memory required for data: 281989120
I0714 23:43:22.373443 11473 layer_factory.hpp:77] Creating layer inception_3b/3x3_reduce
I0714 23:43:22.373459 11473 net.cpp:91] Creating Layer inception_3b/3x3_reduce
I0714 23:43:22.373466 11473 net.cpp:425] inception_3b/3x3_reduce <- inception_3a/output_inception_3a/output_0_split_1
I0714 23:43:22.373474 11473 net.cpp:399] inception_3b/3x3_reduce -> inception_3b/3x3_reduce
I0714 23:43:22.373620 11469 net.cpp:141] Setting up inception_3b/1x1
I0714 23:43:22.373634 11469 net.cpp:148] Top shape: 10 128 28 28 (1003520)
I0714 23:43:22.373639 11469 net.cpp:156] Memory required for data: 277975040
I0714 23:43:22.373649 11469 layer_factory.hpp:77] Creating layer inception_3b/relu_1x1
I0714 23:43:22.373662 11469 net.cpp:91] Creating Layer inception_3b/relu_1x1
I0714 23:43:22.373668 11469 net.cpp:425] inception_3b/relu_1x1 <- inception_3b/1x1
I0714 23:43:22.373678 11469 net.cpp:386] inception_3b/relu_1x1 -> inception_3b/1x1 (in-place)
I0714 23:43:22.374073 11469 net.cpp:141] Setting up inception_3b/relu_1x1
I0714 23:43:22.374086 11469 net.cpp:148] Top shape: 10 128 28 28 (1003520)
I0714 23:43:22.374091 11469 net.cpp:156] Memory required for data: 281989120
I0714 23:43:22.374096 11469 layer_factory.hpp:77] Creating layer inception_3b/3x3_reduce
I0714 23:43:22.374112 11469 net.cpp:91] Creating Layer inception_3b/3x3_reduce
I0714 23:43:22.374119 11469 net.cpp:425] inception_3b/3x3_reduce <- inception_3a/output_inception_3a/output_0_split_1
I0714 23:43:22.374130 11469 net.cpp:399] inception_3b/3x3_reduce -> inception_3b/3x3_reduce
I0714 23:43:22.377722 11473 net.cpp:141] Setting up inception_3b/3x3_reduce
I0714 23:43:22.377740 11473 net.cpp:148] Top shape: 10 128 28 28 (1003520)
I0714 23:43:22.377746 11473 net.cpp:156] Memory required for data: 286003200
I0714 23:43:22.377756 11473 layer_factory.hpp:77] Creating layer inception_3b/relu_3x3_reduce
I0714 23:43:22.377765 11473 net.cpp:91] Creating Layer inception_3b/relu_3x3_reduce
I0714 23:43:22.377771 11473 net.cpp:425] inception_3b/relu_3x3_reduce <- inception_3b/3x3_reduce
I0714 23:43:22.377784 11473 net.cpp:386] inception_3b/relu_3x3_reduce -> inception_3b/3x3_reduce (in-place)
I0714 23:43:22.379438 11473 net.cpp:141] Setting up inception_3b/relu_3x3_reduce
I0714 23:43:22.379453 11473 net.cpp:148] Top shape: 10 128 28 28 (1003520)
I0714 23:43:22.379458 11473 net.cpp:156] Memory required for data: 290017280
I0714 23:43:22.379464 11473 layer_factory.hpp:77] Creating layer inception_3b/3x3
I0714 23:43:22.379482 11473 net.cpp:91] Creating Layer inception_3b/3x3
I0714 23:43:22.379487 11473 net.cpp:425] inception_3b/3x3 <- inception_3b/3x3_reduce
I0714 23:43:22.379500 11473 net.cpp:399] inception_3b/3x3 -> inception_3b/3x3
I0714 23:43:22.379647 11469 net.cpp:141] Setting up inception_3b/3x3_reduce
I0714 23:43:22.379662 11469 net.cpp:148] Top shape: 10 128 28 28 (1003520)
I0714 23:43:22.379667 11469 net.cpp:156] Memory required for data: 286003200
I0714 23:43:22.379678 11469 layer_factory.hpp:77] Creating layer inception_3b/relu_3x3_reduce
I0714 23:43:22.379698 11469 net.cpp:91] Creating Layer inception_3b/relu_3x3_reduce
I0714 23:43:22.379704 11469 net.cpp:425] inception_3b/relu_3x3_reduce <- inception_3b/3x3_reduce
I0714 23:43:22.379712 11469 net.cpp:386] inception_3b/relu_3x3_reduce -> inception_3b/3x3_reduce (in-place)
I0714 23:43:22.381247 11469 net.cpp:141] Setting up inception_3b/relu_3x3_reduce
I0714 23:43:22.381263 11469 net.cpp:148] Top shape: 10 128 28 28 (1003520)
I0714 23:43:22.381268 11469 net.cpp:156] Memory required for data: 290017280
I0714 23:43:22.381273 11469 layer_factory.hpp:77] Creating layer inception_3b/3x3
I0714 23:43:22.381290 11469 net.cpp:91] Creating Layer inception_3b/3x3
I0714 23:43:22.381297 11469 net.cpp:425] inception_3b/3x3 <- inception_3b/3x3_reduce
I0714 23:43:22.381309 11469 net.cpp:399] inception_3b/3x3 -> inception_3b/3x3
I0714 23:43:22.386651 11473 net.cpp:141] Setting up inception_3b/3x3
I0714 23:43:22.386670 11473 net.cpp:148] Top shape: 10 192 28 28 (1505280)
I0714 23:43:22.386675 11473 net.cpp:156] Memory required for data: 296038400
I0714 23:43:22.386694 11473 layer_factory.hpp:77] Creating layer inception_3b/relu_3x3
I0714 23:43:22.386713 11473 net.cpp:91] Creating Layer inception_3b/relu_3x3
I0714 23:43:22.386718 11473 net.cpp:425] inception_3b/relu_3x3 <- inception_3b/3x3
I0714 23:43:22.386726 11473 net.cpp:386] inception_3b/relu_3x3 -> inception_3b/3x3 (in-place)
I0714 23:43:22.387833 11473 net.cpp:141] Setting up inception_3b/relu_3x3
I0714 23:43:22.387850 11473 net.cpp:148] Top shape: 10 192 28 28 (1505280)
I0714 23:43:22.387856 11473 net.cpp:156] Memory required for data: 302059520
I0714 23:43:22.387861 11473 layer_factory.hpp:77] Creating layer inception_3b/5x5_reduce
I0714 23:43:22.387878 11473 net.cpp:91] Creating Layer inception_3b/5x5_reduce
I0714 23:43:22.387886 11473 net.cpp:425] inception_3b/5x5_reduce <- inception_3a/output_inception_3a/output_0_split_2
I0714 23:43:22.387897 11473 net.cpp:399] inception_3b/5x5_reduce -> inception_3b/5x5_reduce
I0714 23:43:22.389494 11469 net.cpp:141] Setting up inception_3b/3x3
I0714 23:43:22.389513 11469 net.cpp:148] Top shape: 10 192 28 28 (1505280)
I0714 23:43:22.389518 11469 net.cpp:156] Memory required for data: 296038400
I0714 23:43:22.389528 11469 layer_factory.hpp:77] Creating layer inception_3b/relu_3x3
I0714 23:43:22.389544 11469 net.cpp:91] Creating Layer inception_3b/relu_3x3
I0714 23:43:22.389550 11469 net.cpp:425] inception_3b/relu_3x3 <- inception_3b/3x3
I0714 23:43:22.389559 11469 net.cpp:386] inception_3b/relu_3x3 -> inception_3b/3x3 (in-place)
I0714 23:43:22.391502 11469 net.cpp:141] Setting up inception_3b/relu_3x3
I0714 23:43:22.391528 11469 net.cpp:148] Top shape: 10 192 28 28 (1505280)
I0714 23:43:22.391535 11469 net.cpp:156] Memory required for data: 302059520
I0714 23:43:22.391541 11469 layer_factory.hpp:77] Creating layer inception_3b/5x5_reduce
I0714 23:43:22.391561 11469 net.cpp:91] Creating Layer inception_3b/5x5_reduce
I0714 23:43:22.391569 11469 net.cpp:425] inception_3b/5x5_reduce <- inception_3a/output_inception_3a/output_0_split_2
I0714 23:43:22.391579 11469 net.cpp:399] inception_3b/5x5_reduce -> inception_3b/5x5_reduce
I0714 23:43:22.391782 11473 net.cpp:141] Setting up inception_3b/5x5_reduce
I0714 23:43:22.391801 11473 net.cpp:148] Top shape: 10 32 28 28 (250880)
I0714 23:43:22.391808 11473 net.cpp:156] Memory required for data: 303063040
I0714 23:43:22.391818 11473 layer_factory.hpp:77] Creating layer inception_3b/relu_5x5_reduce
I0714 23:43:22.391827 11473 net.cpp:91] Creating Layer inception_3b/relu_5x5_reduce
I0714 23:43:22.391834 11473 net.cpp:425] inception_3b/relu_5x5_reduce <- inception_3b/5x5_reduce
I0714 23:43:22.391845 11473 net.cpp:386] inception_3b/relu_5x5_reduce -> inception_3b/5x5_reduce (in-place)
I0714 23:43:22.392285 11473 net.cpp:141] Setting up inception_3b/relu_5x5_reduce
I0714 23:43:22.392298 11473 net.cpp:148] Top shape: 10 32 28 28 (250880)
I0714 23:43:22.392303 11473 net.cpp:156] Memory required for data: 304066560
I0714 23:43:22.392308 11473 layer_factory.hpp:77] Creating layer inception_3b/5x5
I0714 23:43:22.392326 11473 net.cpp:91] Creating Layer inception_3b/5x5
I0714 23:43:22.392333 11473 net.cpp:425] inception_3b/5x5 <- inception_3b/5x5_reduce
I0714 23:43:22.392343 11473 net.cpp:399] inception_3b/5x5 -> inception_3b/5x5
I0714 23:43:22.396759 11469 net.cpp:141] Setting up inception_3b/5x5_reduce
I0714 23:43:22.396780 11469 net.cpp:148] Top shape: 10 32 28 28 (250880)
I0714 23:43:22.396785 11469 net.cpp:156] Memory required for data: 303063040
I0714 23:43:22.396795 11469 layer_factory.hpp:77] Creating layer inception_3b/relu_5x5_reduce
I0714 23:43:22.396811 11469 net.cpp:91] Creating Layer inception_3b/relu_5x5_reduce
I0714 23:43:22.396818 11469 net.cpp:425] inception_3b/relu_5x5_reduce <- inception_3b/5x5_reduce
I0714 23:43:22.396826 11469 net.cpp:386] inception_3b/relu_5x5_reduce -> inception_3b/5x5_reduce (in-place)
I0714 23:43:22.398172 11469 net.cpp:141] Setting up inception_3b/relu_5x5_reduce
I0714 23:43:22.398190 11469 net.cpp:148] Top shape: 10 32 28 28 (250880)
I0714 23:43:22.398195 11469 net.cpp:156] Memory required for data: 304066560
I0714 23:43:22.398200 11469 layer_factory.hpp:77] Creating layer inception_3b/5x5
I0714 23:43:22.398221 11469 net.cpp:91] Creating Layer inception_3b/5x5
I0714 23:43:22.398227 11469 net.cpp:425] inception_3b/5x5 <- inception_3b/5x5_reduce
I0714 23:43:22.398236 11469 net.cpp:399] inception_3b/5x5 -> inception_3b/5x5
I0714 23:43:22.398414 11473 net.cpp:141] Setting up inception_3b/5x5
I0714 23:43:22.398432 11473 net.cpp:148] Top shape: 10 96 28 28 (752640)
I0714 23:43:22.398437 11473 net.cpp:156] Memory required for data: 307077120
I0714 23:43:22.398447 11473 layer_factory.hpp:77] Creating layer inception_3b/relu_5x5
I0714 23:43:22.398463 11473 net.cpp:91] Creating Layer inception_3b/relu_5x5
I0714 23:43:22.398469 11473 net.cpp:425] inception_3b/relu_5x5 <- inception_3b/5x5
I0714 23:43:22.398479 11473 net.cpp:386] inception_3b/relu_5x5 -> inception_3b/5x5 (in-place)
I0714 23:43:22.399452 11473 net.cpp:141] Setting up inception_3b/relu_5x5
I0714 23:43:22.399471 11473 net.cpp:148] Top shape: 10 96 28 28 (752640)
I0714 23:43:22.399476 11473 net.cpp:156] Memory required for data: 310087680
I0714 23:43:22.399482 11473 layer_factory.hpp:77] Creating layer inception_3b/pool
I0714 23:43:22.399492 11473 net.cpp:91] Creating Layer inception_3b/pool
I0714 23:43:22.399497 11473 net.cpp:425] inception_3b/pool <- inception_3a/output_inception_3a/output_0_split_3
I0714 23:43:22.399508 11473 net.cpp:399] inception_3b/pool -> inception_3b/pool
I0714 23:43:22.399580 11473 net.cpp:141] Setting up inception_3b/pool
I0714 23:43:22.399593 11473 net.cpp:148] Top shape: 10 256 28 28 (2007040)
I0714 23:43:22.399597 11473 net.cpp:156] Memory required for data: 318115840
I0714 23:43:22.399602 11473 layer_factory.hpp:77] Creating layer inception_3b/pool_proj
I0714 23:43:22.399616 11473 net.cpp:91] Creating Layer inception_3b/pool_proj
I0714 23:43:22.399621 11473 net.cpp:425] inception_3b/pool_proj <- inception_3b/pool
I0714 23:43:22.399634 11473 net.cpp:399] inception_3b/pool_proj -> inception_3b/pool_proj
I0714 23:43:22.404086 11473 net.cpp:141] Setting up inception_3b/pool_proj
I0714 23:43:22.404106 11473 net.cpp:148] Top shape: 10 64 28 28 (501760)
I0714 23:43:22.404112 11473 net.cpp:156] Memory required for data: 320122880
I0714 23:43:22.404122 11473 layer_factory.hpp:77] Creating layer inception_3b/relu_pool_proj
I0714 23:43:22.404120 11469 net.cpp:141] Setting up inception_3b/5x5
I0714 23:43:22.404132 11473 net.cpp:91] Creating Layer inception_3b/relu_pool_proj
I0714 23:43:22.404137 11469 net.cpp:148] Top shape: 10 96 28 28 (752640)
I0714 23:43:22.404139 11473 net.cpp:425] inception_3b/relu_pool_proj <- inception_3b/pool_proj
I0714 23:43:22.404147 11469 net.cpp:156] Memory required for data: 307077120
I0714 23:43:22.404155 11473 net.cpp:386] inception_3b/relu_pool_proj -> inception_3b/pool_proj (in-place)
I0714 23:43:22.404158 11469 layer_factory.hpp:77] Creating layer inception_3b/relu_5x5
I0714 23:43:22.404171 11469 net.cpp:91] Creating Layer inception_3b/relu_5x5
I0714 23:43:22.404178 11469 net.cpp:425] inception_3b/relu_5x5 <- inception_3b/5x5
I0714 23:43:22.404186 11469 net.cpp:386] inception_3b/relu_5x5 -> inception_3b/5x5 (in-place)
I0714 23:43:22.405354 11469 net.cpp:141] Setting up inception_3b/relu_5x5
I0714 23:43:22.405367 11473 net.cpp:141] Setting up inception_3b/relu_pool_proj
I0714 23:43:22.405375 11469 net.cpp:148] Top shape: 10 96 28 28 (752640)
I0714 23:43:22.405381 11473 net.cpp:148] Top shape: 10 64 28 28 (501760)
I0714 23:43:22.405382 11469 net.cpp:156] Memory required for data: 310087680
I0714 23:43:22.405386 11473 net.cpp:156] Memory required for data: 322129920
I0714 23:43:22.405390 11469 layer_factory.hpp:77] Creating layer inception_3b/pool
I0714 23:43:22.405391 11473 layer_factory.hpp:77] Creating layer inception_3b/output
I0714 23:43:22.405401 11473 net.cpp:91] Creating Layer inception_3b/output
I0714 23:43:22.405403 11469 net.cpp:91] Creating Layer inception_3b/pool
I0714 23:43:22.405407 11473 net.cpp:425] inception_3b/output <- inception_3b/1x1
I0714 23:43:22.405411 11469 net.cpp:425] inception_3b/pool <- inception_3a/output_inception_3a/output_0_split_3
I0714 23:43:22.405416 11473 net.cpp:425] inception_3b/output <- inception_3b/3x3
I0714 23:43:22.405421 11469 net.cpp:399] inception_3b/pool -> inception_3b/pool
I0714 23:43:22.405421 11473 net.cpp:425] inception_3b/output <- inception_3b/5x5
I0714 23:43:22.405434 11473 net.cpp:425] inception_3b/output <- inception_3b/pool_proj
I0714 23:43:22.405441 11473 net.cpp:399] inception_3b/output -> inception_3b/output
I0714 23:43:22.405529 11473 net.cpp:141] Setting up inception_3b/output
I0714 23:43:22.405540 11473 net.cpp:148] Top shape: 10 480 28 28 (3763200)
I0714 23:43:22.405545 11473 net.cpp:156] Memory required for data: 337182720
I0714 23:43:22.405550 11473 layer_factory.hpp:77] Creating layer pool3/3x3_s2
I0714 23:43:22.405561 11473 net.cpp:91] Creating Layer pool3/3x3_s2
I0714 23:43:22.405560 11469 net.cpp:141] Setting up inception_3b/pool
I0714 23:43:22.405585 11469 net.cpp:148] Top shape: 10 256 28 28 (2007040)
I0714 23:43:22.405589 11469 net.cpp:156] Memory required for data: 318115840
I0714 23:43:22.405571 11473 net.cpp:425] pool3/3x3_s2 <- inception_3b/output
I0714 23:43:22.405596 11469 layer_factory.hpp:77] Creating layer inception_3b/pool_proj
I0714 23:43:22.405611 11473 net.cpp:399] pool3/3x3_s2 -> pool3/3x3_s2
I0714 23:43:22.405622 11469 net.cpp:91] Creating Layer inception_3b/pool_proj
I0714 23:43:22.405628 11469 net.cpp:425] inception_3b/pool_proj <- inception_3b/pool
I0714 23:43:22.405654 11469 net.cpp:399] inception_3b/pool_proj -> inception_3b/pool_proj
I0714 23:43:22.405696 11473 net.cpp:141] Setting up pool3/3x3_s2
I0714 23:43:22.405709 11473 net.cpp:148] Top shape: 10 480 14 14 (940800)
I0714 23:43:22.405712 11473 net.cpp:156] Memory required for data: 340945920
I0714 23:43:22.405717 11473 layer_factory.hpp:77] Creating layer pool3/3x3_s2_pool3/3x3_s2_0_split
I0714 23:43:22.405731 11473 net.cpp:91] Creating Layer pool3/3x3_s2_pool3/3x3_s2_0_split
I0714 23:43:22.405736 11473 net.cpp:425] pool3/3x3_s2_pool3/3x3_s2_0_split <- pool3/3x3_s2
I0714 23:43:22.405745 11473 net.cpp:399] pool3/3x3_s2_pool3/3x3_s2_0_split -> pool3/3x3_s2_pool3/3x3_s2_0_split_0
I0714 23:43:22.405752 11473 net.cpp:399] pool3/3x3_s2_pool3/3x3_s2_0_split -> pool3/3x3_s2_pool3/3x3_s2_0_split_1
I0714 23:43:22.405761 11473 net.cpp:399] pool3/3x3_s2_pool3/3x3_s2_0_split -> pool3/3x3_s2_pool3/3x3_s2_0_split_2
I0714 23:43:22.405772 11473 net.cpp:399] pool3/3x3_s2_pool3/3x3_s2_0_split -> pool3/3x3_s2_pool3/3x3_s2_0_split_3
I0714 23:43:22.406059 11473 net.cpp:141] Setting up pool3/3x3_s2_pool3/3x3_s2_0_split
I0714 23:43:22.406070 11473 net.cpp:148] Top shape: 10 480 14 14 (940800)
I0714 23:43:22.406076 11473 net.cpp:148] Top shape: 10 480 14 14 (940800)
I0714 23:43:22.406081 11473 net.cpp:148] Top shape: 10 480 14 14 (940800)
I0714 23:43:22.406087 11473 net.cpp:148] Top shape: 10 480 14 14 (940800)
I0714 23:43:22.406091 11473 net.cpp:156] Memory required for data: 355998720
I0714 23:43:22.406096 11473 layer_factory.hpp:77] Creating layer inception_4a/1x1
I0714 23:43:22.406112 11473 net.cpp:91] Creating Layer inception_4a/1x1
I0714 23:43:22.406118 11473 net.cpp:425] inception_4a/1x1 <- pool3/3x3_s2_pool3/3x3_s2_0_split_0
I0714 23:43:22.406131 11473 net.cpp:399] inception_4a/1x1 -> inception_4a/1x1
I0714 23:43:22.411705 11469 net.cpp:141] Setting up inception_3b/pool_proj
I0714 23:43:22.411730 11469 net.cpp:148] Top shape: 10 64 28 28 (501760)
I0714 23:43:22.411736 11469 net.cpp:156] Memory required for data: 320122880
I0714 23:43:22.411747 11469 layer_factory.hpp:77] Creating layer inception_3b/relu_pool_proj
I0714 23:43:22.411757 11469 net.cpp:91] Creating Layer inception_3b/relu_pool_proj
I0714 23:43:22.411764 11469 net.cpp:425] inception_3b/relu_pool_proj <- inception_3b/pool_proj
I0714 23:43:22.411774 11469 net.cpp:386] inception_3b/relu_pool_proj -> inception_3b/pool_proj (in-place)
I0714 23:43:22.412827 11473 net.cpp:141] Setting up inception_4a/1x1
I0714 23:43:22.412855 11473 net.cpp:148] Top shape: 10 192 14 14 (376320)
I0714 23:43:22.412861 11473 net.cpp:156] Memory required for data: 357504000
I0714 23:43:22.412873 11473 layer_factory.hpp:77] Creating layer inception_4a/relu_1x1
I0714 23:43:22.412883 11473 net.cpp:91] Creating Layer inception_4a/relu_1x1
I0714 23:43:22.412891 11473 net.cpp:425] inception_4a/relu_1x1 <- inception_4a/1x1
I0714 23:43:22.412904 11473 net.cpp:386] inception_4a/relu_1x1 -> inception_4a/1x1 (in-place)
I0714 23:43:22.413774 11469 net.cpp:141] Setting up inception_3b/relu_pool_proj
I0714 23:43:22.413792 11469 net.cpp:148] Top shape: 10 64 28 28 (501760)
I0714 23:43:22.413797 11469 net.cpp:156] Memory required for data: 322129920
I0714 23:43:22.413803 11469 layer_factory.hpp:77] Creating layer inception_3b/output
I0714 23:43:22.413812 11469 net.cpp:91] Creating Layer inception_3b/output
I0714 23:43:22.413818 11469 net.cpp:425] inception_3b/output <- inception_3b/1x1
I0714 23:43:22.413826 11469 net.cpp:425] inception_3b/output <- inception_3b/3x3
I0714 23:43:22.413832 11469 net.cpp:425] inception_3b/output <- inception_3b/5x5
I0714 23:43:22.413838 11469 net.cpp:425] inception_3b/output <- inception_3b/pool_proj
I0714 23:43:22.413846 11473 net.cpp:141] Setting up inception_4a/relu_1x1
I0714 23:43:22.413849 11469 net.cpp:399] inception_3b/output -> inception_3b/output
I0714 23:43:22.413864 11473 net.cpp:148] Top shape: 10 192 14 14 (376320)
I0714 23:43:22.413871 11473 net.cpp:156] Memory required for data: 359009280
I0714 23:43:22.413874 11473 layer_factory.hpp:77] Creating layer inception_4a/3x3_reduce
I0714 23:43:22.413897 11473 net.cpp:91] Creating Layer inception_4a/3x3_reduce
I0714 23:43:22.413903 11473 net.cpp:425] inception_4a/3x3_reduce <- pool3/3x3_s2_pool3/3x3_s2_0_split_1
I0714 23:43:22.413913 11473 net.cpp:399] inception_4a/3x3_reduce -> inception_4a/3x3_reduce
I0714 23:43:22.413933 11469 net.cpp:141] Setting up inception_3b/output
I0714 23:43:22.413947 11469 net.cpp:148] Top shape: 10 480 28 28 (3763200)
I0714 23:43:22.413951 11469 net.cpp:156] Memory required for data: 337182720
I0714 23:43:22.413956 11469 layer_factory.hpp:77] Creating layer pool3/3x3_s2
I0714 23:43:22.413965 11469 net.cpp:91] Creating Layer pool3/3x3_s2
I0714 23:43:22.413970 11469 net.cpp:425] pool3/3x3_s2 <- inception_3b/output
I0714 23:43:22.413977 11469 net.cpp:399] pool3/3x3_s2 -> pool3/3x3_s2
I0714 23:43:22.414268 11469 net.cpp:141] Setting up pool3/3x3_s2
I0714 23:43:22.414279 11469 net.cpp:148] Top shape: 10 480 14 14 (940800)
I0714 23:43:22.414284 11469 net.cpp:156] Memory required for data: 340945920
I0714 23:43:22.414289 11469 layer_factory.hpp:77] Creating layer pool3/3x3_s2_pool3/3x3_s2_0_split
I0714 23:43:22.414301 11469 net.cpp:91] Creating Layer pool3/3x3_s2_pool3/3x3_s2_0_split
I0714 23:43:22.414307 11469 net.cpp:425] pool3/3x3_s2_pool3/3x3_s2_0_split <- pool3/3x3_s2
I0714 23:43:22.414314 11469 net.cpp:399] pool3/3x3_s2_pool3/3x3_s2_0_split -> pool3/3x3_s2_pool3/3x3_s2_0_split_0
I0714 23:43:22.414325 11469 net.cpp:399] pool3/3x3_s2_pool3/3x3_s2_0_split -> pool3/3x3_s2_pool3/3x3_s2_0_split_1
I0714 23:43:22.414335 11469 net.cpp:399] pool3/3x3_s2_pool3/3x3_s2_0_split -> pool3/3x3_s2_pool3/3x3_s2_0_split_2
I0714 23:43:22.414342 11469 net.cpp:399] pool3/3x3_s2_pool3/3x3_s2_0_split -> pool3/3x3_s2_pool3/3x3_s2_0_split_3
I0714 23:43:22.414446 11469 net.cpp:141] Setting up pool3/3x3_s2_pool3/3x3_s2_0_split
I0714 23:43:22.414456 11469 net.cpp:148] Top shape: 10 480 14 14 (940800)
I0714 23:43:22.414463 11469 net.cpp:148] Top shape: 10 480 14 14 (940800)
I0714 23:43:22.414469 11469 net.cpp:148] Top shape: 10 480 14 14 (940800)
I0714 23:43:22.414474 11469 net.cpp:148] Top shape: 10 480 14 14 (940800)
I0714 23:43:22.414477 11469 net.cpp:156] Memory required for data: 355998720
I0714 23:43:22.414482 11469 layer_factory.hpp:77] Creating layer inception_4a/1x1
I0714 23:43:22.414499 11469 net.cpp:91] Creating Layer inception_4a/1x1
I0714 23:43:22.414504 11469 net.cpp:425] inception_4a/1x1 <- pool3/3x3_s2_pool3/3x3_s2_0_split_0
I0714 23:43:22.414516 11469 net.cpp:399] inception_4a/1x1 -> inception_4a/1x1
I0714 23:43:22.418787 11473 net.cpp:141] Setting up inception_4a/3x3_reduce
I0714 23:43:22.418822 11473 net.cpp:148] Top shape: 10 96 14 14 (188160)
I0714 23:43:22.418828 11473 net.cpp:156] Memory required for data: 359761920
I0714 23:43:22.418851 11473 layer_factory.hpp:77] Creating layer inception_4a/relu_3x3_reduce
I0714 23:43:22.418861 11473 net.cpp:91] Creating Layer inception_4a/relu_3x3_reduce
I0714 23:43:22.418866 11473 net.cpp:425] inception_4a/relu_3x3_reduce <- inception_4a/3x3_reduce
I0714 23:43:22.418874 11473 net.cpp:386] inception_4a/relu_3x3_reduce -> inception_4a/3x3_reduce (in-place)
I0714 23:43:22.419921 11473 net.cpp:141] Setting up inception_4a/relu_3x3_reduce
I0714 23:43:22.419947 11473 net.cpp:148] Top shape: 10 96 14 14 (188160)
I0714 23:43:22.419952 11473 net.cpp:156] Memory required for data: 360514560
I0714 23:43:22.419957 11473 layer_factory.hpp:77] Creating layer inception_4a/3x3
I0714 23:43:22.419975 11473 net.cpp:91] Creating Layer inception_4a/3x3
I0714 23:43:22.419981 11473 net.cpp:425] inception_4a/3x3 <- inception_4a/3x3_reduce
I0714 23:43:22.419992 11473 net.cpp:399] inception_4a/3x3 -> inception_4a/3x3
I0714 23:43:22.422651 11469 net.cpp:141] Setting up inception_4a/1x1
I0714 23:43:22.422678 11469 net.cpp:148] Top shape: 10 192 14 14 (376320)
I0714 23:43:22.422683 11469 net.cpp:156] Memory required for data: 357504000
I0714 23:43:22.422706 11469 layer_factory.hpp:77] Creating layer inception_4a/relu_1x1
I0714 23:43:22.422721 11469 net.cpp:91] Creating Layer inception_4a/relu_1x1
I0714 23:43:22.422727 11469 net.cpp:425] inception_4a/relu_1x1 <- inception_4a/1x1
I0714 23:43:22.422741 11469 net.cpp:386] inception_4a/relu_1x1 -> inception_4a/1x1 (in-place)
I0714 23:43:22.423993 11469 net.cpp:141] Setting up inception_4a/relu_1x1
I0714 23:43:22.424010 11469 net.cpp:148] Top shape: 10 192 14 14 (376320)
I0714 23:43:22.424015 11469 net.cpp:156] Memory required for data: 359009280
I0714 23:43:22.424021 11469 layer_factory.hpp:77] Creating layer inception_4a/3x3_reduce
I0714 23:43:22.424038 11469 net.cpp:91] Creating Layer inception_4a/3x3_reduce
I0714 23:43:22.424046 11469 net.cpp:425] inception_4a/3x3_reduce <- pool3/3x3_s2_pool3/3x3_s2_0_split_1
I0714 23:43:22.424059 11469 net.cpp:399] inception_4a/3x3_reduce -> inception_4a/3x3_reduce
I0714 23:43:22.425972 11473 net.cpp:141] Setting up inception_4a/3x3
I0714 23:43:22.426003 11473 net.cpp:148] Top shape: 10 208 14 14 (407680)
I0714 23:43:22.426009 11473 net.cpp:156] Memory required for data: 362145280
I0714 23:43:22.426018 11473 layer_factory.hpp:77] Creating layer inception_4a/relu_3x3
I0714 23:43:22.426030 11473 net.cpp:91] Creating Layer inception_4a/relu_3x3
I0714 23:43:22.426036 11473 net.cpp:425] inception_4a/relu_3x3 <- inception_4a/3x3
I0714 23:43:22.426048 11473 net.cpp:386] inception_4a/relu_3x3 -> inception_4a/3x3 (in-place)
I0714 23:43:22.426475 11473 net.cpp:141] Setting up inception_4a/relu_3x3
I0714 23:43:22.426487 11473 net.cpp:148] Top shape: 10 208 14 14 (407680)
I0714 23:43:22.426492 11473 net.cpp:156] Memory required for data: 363776000
I0714 23:43:22.426496 11473 layer_factory.hpp:77] Creating layer inception_4a/5x5_reduce
I0714 23:43:22.426512 11473 net.cpp:91] Creating Layer inception_4a/5x5_reduce
I0714 23:43:22.426518 11473 net.cpp:425] inception_4a/5x5_reduce <- pool3/3x3_s2_pool3/3x3_s2_0_split_2
I0714 23:43:22.426528 11473 net.cpp:399] inception_4a/5x5_reduce -> inception_4a/5x5_reduce
I0714 23:43:22.430865 11473 net.cpp:141] Setting up inception_4a/5x5_reduce
I0714 23:43:22.430881 11473 net.cpp:148] Top shape: 10 16 14 14 (31360)
I0714 23:43:22.430886 11473 net.cpp:156] Memory required for data: 363901440
I0714 23:43:22.430894 11473 layer_factory.hpp:77] Creating layer inception_4a/relu_5x5_reduce
I0714 23:43:22.430904 11473 net.cpp:91] Creating Layer inception_4a/relu_5x5_reduce
I0714 23:43:22.430910 11473 net.cpp:425] inception_4a/relu_5x5_reduce <- inception_4a/5x5_reduce
I0714 23:43:22.430917 11473 net.cpp:386] inception_4a/relu_5x5_reduce -> inception_4a/5x5_reduce (in-place)
I0714 23:43:22.431277 11469 net.cpp:141] Setting up inception_4a/3x3_reduce
I0714 23:43:22.431294 11469 net.cpp:148] Top shape: 10 96 14 14 (188160)
I0714 23:43:22.431300 11469 net.cpp:156] Memory required for data: 359761920
I0714 23:43:22.431321 11469 layer_factory.hpp:77] Creating layer inception_4a/relu_3x3_reduce
I0714 23:43:22.431334 11469 net.cpp:91] Creating Layer inception_4a/relu_3x3_reduce
I0714 23:43:22.431341 11469 net.cpp:425] inception_4a/relu_3x3_reduce <- inception_4a/3x3_reduce
I0714 23:43:22.431349 11469 net.cpp:386] inception_4a/relu_3x3_reduce -> inception_4a/3x3_reduce (in-place)
I0714 23:43:22.431378 11473 net.cpp:141] Setting up inception_4a/relu_5x5_reduce
I0714 23:43:22.431391 11473 net.cpp:148] Top shape: 10 16 14 14 (31360)
I0714 23:43:22.431396 11473 net.cpp:156] Memory required for data: 364026880
I0714 23:43:22.431401 11473 layer_factory.hpp:77] Creating layer inception_4a/5x5
I0714 23:43:22.431417 11473 net.cpp:91] Creating Layer inception_4a/5x5
I0714 23:43:22.431423 11473 net.cpp:425] inception_4a/5x5 <- inception_4a/5x5_reduce
I0714 23:43:22.431432 11473 net.cpp:399] inception_4a/5x5 -> inception_4a/5x5
I0714 23:43:22.433528 11469 net.cpp:141] Setting up inception_4a/relu_3x3_reduce
I0714 23:43:22.433547 11469 net.cpp:148] Top shape: 10 96 14 14 (188160)
I0714 23:43:22.433552 11469 net.cpp:156] Memory required for data: 360514560
I0714 23:43:22.433558 11469 layer_factory.hpp:77] Creating layer inception_4a/3x3
I0714 23:43:22.433578 11469 net.cpp:91] Creating Layer inception_4a/3x3
I0714 23:43:22.433585 11469 net.cpp:425] inception_4a/3x3 <- inception_4a/3x3_reduce
I0714 23:43:22.433595 11469 net.cpp:399] inception_4a/3x3 -> inception_4a/3x3
I0714 23:43:22.437198 11473 net.cpp:141] Setting up inception_4a/5x5
I0714 23:43:22.437230 11473 net.cpp:148] Top shape: 10 48 14 14 (94080)
I0714 23:43:22.437237 11473 net.cpp:156] Memory required for data: 364403200
I0714 23:43:22.437245 11473 layer_factory.hpp:77] Creating layer inception_4a/relu_5x5
I0714 23:43:22.437253 11473 net.cpp:91] Creating Layer inception_4a/relu_5x5
I0714 23:43:22.437258 11473 net.cpp:425] inception_4a/relu_5x5 <- inception_4a/5x5
I0714 23:43:22.437269 11473 net.cpp:386] inception_4a/relu_5x5 -> inception_4a/5x5 (in-place)
I0714 23:43:22.438266 11473 net.cpp:141] Setting up inception_4a/relu_5x5
I0714 23:43:22.438293 11473 net.cpp:148] Top shape: 10 48 14 14 (94080)
I0714 23:43:22.438298 11473 net.cpp:156] Memory required for data: 364779520
I0714 23:43:22.438303 11473 layer_factory.hpp:77] Creating layer inception_4a/pool
I0714 23:43:22.438313 11473 net.cpp:91] Creating Layer inception_4a/pool
I0714 23:43:22.438318 11473 net.cpp:425] inception_4a/pool <- pool3/3x3_s2_pool3/3x3_s2_0_split_3
I0714 23:43:22.438339 11473 net.cpp:399] inception_4a/pool -> inception_4a/pool
I0714 23:43:22.438638 11473 net.cpp:141] Setting up inception_4a/pool
I0714 23:43:22.438649 11473 net.cpp:148] Top shape: 10 480 14 14 (940800)
I0714 23:43:22.438653 11473 net.cpp:156] Memory required for data: 368542720
I0714 23:43:22.438657 11473 layer_factory.hpp:77] Creating layer inception_4a/pool_proj
I0714 23:43:22.438675 11473 net.cpp:91] Creating Layer inception_4a/pool_proj
I0714 23:43:22.438681 11473 net.cpp:425] inception_4a/pool_proj <- inception_4a/pool
I0714 23:43:22.438699 11473 net.cpp:399] inception_4a/pool_proj -> inception_4a/pool_proj
I0714 23:43:22.440088 11469 net.cpp:141] Setting up inception_4a/3x3
I0714 23:43:22.440111 11469 net.cpp:148] Top shape: 10 208 14 14 (407680)
I0714 23:43:22.440116 11469 net.cpp:156] Memory required for data: 362145280
I0714 23:43:22.440127 11469 layer_factory.hpp:77] Creating layer inception_4a/relu_3x3
I0714 23:43:22.440136 11469 net.cpp:91] Creating Layer inception_4a/relu_3x3
I0714 23:43:22.440142 11469 net.cpp:425] inception_4a/relu_3x3 <- inception_4a/3x3
I0714 23:43:22.440150 11469 net.cpp:386] inception_4a/relu_3x3 -> inception_4a/3x3 (in-place)
I0714 23:43:22.442029 11469 net.cpp:141] Setting up inception_4a/relu_3x3
I0714 23:43:22.442044 11469 net.cpp:148] Top shape: 10 208 14 14 (407680)
I0714 23:43:22.442049 11469 net.cpp:156] Memory required for data: 363776000
I0714 23:43:22.442054 11469 layer_factory.hpp:77] Creating layer inception_4a/5x5_reduce
I0714 23:43:22.442070 11469 net.cpp:91] Creating Layer inception_4a/5x5_reduce
I0714 23:43:22.442077 11469 net.cpp:425] inception_4a/5x5_reduce <- pool3/3x3_s2_pool3/3x3_s2_0_split_2
I0714 23:43:22.442095 11469 net.cpp:399] inception_4a/5x5_reduce -> inception_4a/5x5_reduce
I0714 23:43:22.444509 11473 net.cpp:141] Setting up inception_4a/pool_proj
I0714 23:43:22.444541 11473 net.cpp:148] Top shape: 10 64 14 14 (125440)
I0714 23:43:22.444547 11473 net.cpp:156] Memory required for data: 369044480
I0714 23:43:22.444556 11473 layer_factory.hpp:77] Creating layer inception_4a/relu_pool_proj
I0714 23:43:22.444564 11473 net.cpp:91] Creating Layer inception_4a/relu_pool_proj
I0714 23:43:22.444571 11473 net.cpp:425] inception_4a/relu_pool_proj <- inception_4a/pool_proj
I0714 23:43:22.444577 11473 net.cpp:386] inception_4a/relu_pool_proj -> inception_4a/pool_proj (in-place)
I0714 23:43:22.445775 11473 net.cpp:141] Setting up inception_4a/relu_pool_proj
I0714 23:43:22.445801 11473 net.cpp:148] Top shape: 10 64 14 14 (125440)
I0714 23:43:22.445806 11473 net.cpp:156] Memory required for data: 369546240
I0714 23:43:22.445811 11473 layer_factory.hpp:77] Creating layer inception_4a/output
I0714 23:43:22.445822 11473 net.cpp:91] Creating Layer inception_4a/output
I0714 23:43:22.445827 11473 net.cpp:425] inception_4a/output <- inception_4a/1x1
I0714 23:43:22.445833 11473 net.cpp:425] inception_4a/output <- inception_4a/3x3
I0714 23:43:22.445839 11473 net.cpp:425] inception_4a/output <- inception_4a/5x5
I0714 23:43:22.445844 11473 net.cpp:425] inception_4a/output <- inception_4a/pool_proj
I0714 23:43:22.445850 11473 net.cpp:399] inception_4a/output -> inception_4a/output
I0714 23:43:22.446588 11473 net.cpp:141] Setting up inception_4a/output
I0714 23:43:22.446600 11473 net.cpp:148] Top shape: 10 512 14 14 (1003520)
I0714 23:43:22.446604 11473 net.cpp:156] Memory required for data: 373560320
I0714 23:43:22.446609 11473 layer_factory.hpp:77] Creating layer inception_4a/output_inception_4a/output_0_split
I0714 23:43:22.446617 11473 net.cpp:91] Creating Layer inception_4a/output_inception_4a/output_0_split
I0714 23:43:22.446622 11473 net.cpp:425] inception_4a/output_inception_4a/output_0_split <- inception_4a/output
I0714 23:43:22.446631 11473 net.cpp:399] inception_4a/output_inception_4a/output_0_split -> inception_4a/output_inception_4a/output_0_split_0
I0714 23:43:22.446640 11473 net.cpp:399] inception_4a/output_inception_4a/output_0_split -> inception_4a/output_inception_4a/output_0_split_1
I0714 23:43:22.446647 11473 net.cpp:399] inception_4a/output_inception_4a/output_0_split -> inception_4a/output_inception_4a/output_0_split_2
I0714 23:43:22.446655 11473 net.cpp:399] inception_4a/output_inception_4a/output_0_split -> inception_4a/output_inception_4a/output_0_split_3
I0714 23:43:22.446815 11473 net.cpp:141] Setting up inception_4a/output_inception_4a/output_0_split
I0714 23:43:22.446828 11473 net.cpp:148] Top shape: 10 512 14 14 (1003520)
I0714 23:43:22.446833 11473 net.cpp:148] Top shape: 10 512 14 14 (1003520)
I0714 23:43:22.446838 11473 net.cpp:148] Top shape: 10 512 14 14 (1003520)
I0714 23:43:22.446843 11473 net.cpp:148] Top shape: 10 512 14 14 (1003520)
I0714 23:43:22.446847 11473 net.cpp:156] Memory required for data: 389616640
I0714 23:43:22.446851 11473 layer_factory.hpp:77] Creating layer inception_4b/1x1
I0714 23:43:22.446868 11473 net.cpp:91] Creating Layer inception_4b/1x1
I0714 23:43:22.446873 11473 net.cpp:425] inception_4b/1x1 <- inception_4a/output_inception_4a/output_0_split_0
I0714 23:43:22.446882 11473 net.cpp:399] inception_4b/1x1 -> inception_4b/1x1
I0714 23:43:22.447273 11469 net.cpp:141] Setting up inception_4a/5x5_reduce
I0714 23:43:22.447289 11469 net.cpp:148] Top shape: 10 16 14 14 (31360)
I0714 23:43:22.447294 11469 net.cpp:156] Memory required for data: 363901440
I0714 23:43:22.447304 11469 layer_factory.hpp:77] Creating layer inception_4a/relu_5x5_reduce
I0714 23:43:22.447317 11469 net.cpp:91] Creating Layer inception_4a/relu_5x5_reduce
I0714 23:43:22.447324 11469 net.cpp:425] inception_4a/relu_5x5_reduce <- inception_4a/5x5_reduce
I0714 23:43:22.447335 11469 net.cpp:386] inception_4a/relu_5x5_reduce -> inception_4a/5x5_reduce (in-place)
I0714 23:43:22.447608 11469 net.cpp:141] Setting up inception_4a/relu_5x5_reduce
I0714 23:43:22.447620 11469 net.cpp:148] Top shape: 10 16 14 14 (31360)
I0714 23:43:22.447625 11469 net.cpp:156] Memory required for data: 364026880
I0714 23:43:22.447631 11469 layer_factory.hpp:77] Creating layer inception_4a/5x5
I0714 23:43:22.447648 11469 net.cpp:91] Creating Layer inception_4a/5x5
I0714 23:43:22.447654 11469 net.cpp:425] inception_4a/5x5 <- inception_4a/5x5_reduce
I0714 23:43:22.447669 11469 net.cpp:399] inception_4a/5x5 -> inception_4a/5x5
I0714 23:43:22.452383 11473 net.cpp:141] Setting up inception_4b/1x1
I0714 23:43:22.452412 11473 net.cpp:148] Top shape: 10 160 14 14 (313600)
I0714 23:43:22.452419 11473 net.cpp:156] Memory required for data: 390871040
I0714 23:43:22.452427 11473 layer_factory.hpp:77] Creating layer inception_4b/relu_1x1
I0714 23:43:22.452437 11473 net.cpp:91] Creating Layer inception_4b/relu_1x1
I0714 23:43:22.452443 11473 net.cpp:425] inception_4b/relu_1x1 <- inception_4b/1x1
I0714 23:43:22.452450 11473 net.cpp:386] inception_4b/relu_1x1 -> inception_4b/1x1 (in-place)
I0714 23:43:22.452639 11469 net.cpp:141] Setting up inception_4a/5x5
I0714 23:43:22.452656 11469 net.cpp:148] Top shape: 10 48 14 14 (94080)
I0714 23:43:22.452661 11469 net.cpp:156] Memory required for data: 364403200
I0714 23:43:22.452672 11469 layer_factory.hpp:77] Creating layer inception_4a/relu_5x5
I0714 23:43:22.452682 11469 net.cpp:91] Creating Layer inception_4a/relu_5x5
I0714 23:43:22.452688 11469 net.cpp:425] inception_4a/relu_5x5 <- inception_4a/5x5
I0714 23:43:22.452697 11469 net.cpp:386] inception_4a/relu_5x5 -> inception_4a/5x5 (in-place)
I0714 23:43:22.453722 11473 net.cpp:141] Setting up inception_4b/relu_1x1
I0714 23:43:22.453752 11473 net.cpp:148] Top shape: 10 160 14 14 (313600)
I0714 23:43:22.453757 11473 net.cpp:156] Memory required for data: 392125440
I0714 23:43:22.453761 11473 layer_factory.hpp:77] Creating layer inception_4b/3x3_reduce
I0714 23:43:22.453769 11469 net.cpp:141] Setting up inception_4a/relu_5x5
I0714 23:43:22.453776 11473 net.cpp:91] Creating Layer inception_4b/3x3_reduce
I0714 23:43:22.453784 11473 net.cpp:425] inception_4b/3x3_reduce <- inception_4a/output_inception_4a/output_0_split_1
I0714 23:43:22.453786 11469 net.cpp:148] Top shape: 10 48 14 14 (94080)
I0714 23:43:22.453793 11469 net.cpp:156] Memory required for data: 364779520
I0714 23:43:22.453794 11473 net.cpp:399] inception_4b/3x3_reduce -> inception_4b/3x3_reduce
I0714 23:43:22.453800 11469 layer_factory.hpp:77] Creating layer inception_4a/pool
I0714 23:43:22.453814 11469 net.cpp:91] Creating Layer inception_4a/pool
I0714 23:43:22.453819 11469 net.cpp:425] inception_4a/pool <- pool3/3x3_s2_pool3/3x3_s2_0_split_3
I0714 23:43:22.453827 11469 net.cpp:399] inception_4a/pool -> inception_4a/pool
I0714 23:43:22.454140 11469 net.cpp:141] Setting up inception_4a/pool
I0714 23:43:22.454154 11469 net.cpp:148] Top shape: 10 480 14 14 (940800)
I0714 23:43:22.454157 11469 net.cpp:156] Memory required for data: 368542720
I0714 23:43:22.454164 11469 layer_factory.hpp:77] Creating layer inception_4a/pool_proj
I0714 23:43:22.454180 11469 net.cpp:91] Creating Layer inception_4a/pool_proj
I0714 23:43:22.454186 11469 net.cpp:425] inception_4a/pool_proj <- inception_4a/pool
I0714 23:43:22.454198 11469 net.cpp:399] inception_4a/pool_proj -> inception_4a/pool_proj
I0714 23:43:22.458518 11473 net.cpp:141] Setting up inception_4b/3x3_reduce
I0714 23:43:22.458549 11473 net.cpp:148] Top shape: 10 112 14 14 (219520)
I0714 23:43:22.458554 11473 net.cpp:156] Memory required for data: 393003520
I0714 23:43:22.458562 11473 layer_factory.hpp:77] Creating layer inception_4b/relu_3x3_reduce
I0714 23:43:22.458570 11473 net.cpp:91] Creating Layer inception_4b/relu_3x3_reduce
I0714 23:43:22.458575 11473 net.cpp:425] inception_4b/relu_3x3_reduce <- inception_4b/3x3_reduce
I0714 23:43:22.458585 11473 net.cpp:386] inception_4b/relu_3x3_reduce -> inception_4b/3x3_reduce (in-place)
I0714 23:43:22.459322 11469 net.cpp:141] Setting up inception_4a/pool_proj
I0714 23:43:22.459338 11469 net.cpp:148] Top shape: 10 64 14 14 (125440)
I0714 23:43:22.459344 11469 net.cpp:156] Memory required for data: 369044480
I0714 23:43:22.459354 11469 layer_factory.hpp:77] Creating layer inception_4a/relu_pool_proj
I0714 23:43:22.459363 11469 net.cpp:91] Creating Layer inception_4a/relu_pool_proj
I0714 23:43:22.459369 11469 net.cpp:425] inception_4a/relu_pool_proj <- inception_4a/pool_proj
I0714 23:43:22.459381 11469 net.cpp:386] inception_4a/relu_pool_proj -> inception_4a/pool_proj (in-place)
I0714 23:43:22.459432 11473 net.cpp:141] Setting up inception_4b/relu_3x3_reduce
I0714 23:43:22.459445 11473 net.cpp:148] Top shape: 10 112 14 14 (219520)
I0714 23:43:22.459450 11473 net.cpp:156] Memory required for data: 393881600
I0714 23:43:22.459455 11473 layer_factory.hpp:77] Creating layer inception_4b/3x3
I0714 23:43:22.459470 11473 net.cpp:91] Creating Layer inception_4b/3x3
I0714 23:43:22.459475 11473 net.cpp:425] inception_4b/3x3 <- inception_4b/3x3_reduce
I0714 23:43:22.459487 11473 net.cpp:399] inception_4b/3x3 -> inception_4b/3x3
I0714 23:43:22.461017 11469 net.cpp:141] Setting up inception_4a/relu_pool_proj
I0714 23:43:22.461035 11469 net.cpp:148] Top shape: 10 64 14 14 (125440)
I0714 23:43:22.461040 11469 net.cpp:156] Memory required for data: 369546240
I0714 23:43:22.461045 11469 layer_factory.hpp:77] Creating layer inception_4a/output
I0714 23:43:22.461055 11469 net.cpp:91] Creating Layer inception_4a/output
I0714 23:43:22.461061 11469 net.cpp:425] inception_4a/output <- inception_4a/1x1
I0714 23:43:22.461066 11469 net.cpp:425] inception_4a/output <- inception_4a/3x3
I0714 23:43:22.461072 11469 net.cpp:425] inception_4a/output <- inception_4a/5x5
I0714 23:43:22.461078 11469 net.cpp:425] inception_4a/output <- inception_4a/pool_proj
I0714 23:43:22.461086 11469 net.cpp:399] inception_4a/output -> inception_4a/output
I0714 23:43:22.461153 11469 net.cpp:141] Setting up inception_4a/output
I0714 23:43:22.461163 11469 net.cpp:148] Top shape: 10 512 14 14 (1003520)
I0714 23:43:22.461168 11469 net.cpp:156] Memory required for data: 373560320
I0714 23:43:22.461172 11469 layer_factory.hpp:77] Creating layer inception_4a/output_inception_4a/output_0_split
I0714 23:43:22.461186 11469 net.cpp:91] Creating Layer inception_4a/output_inception_4a/output_0_split
I0714 23:43:22.461191 11469 net.cpp:425] inception_4a/output_inception_4a/output_0_split <- inception_4a/output
I0714 23:43:22.461199 11469 net.cpp:399] inception_4a/output_inception_4a/output_0_split -> inception_4a/output_inception_4a/output_0_split_0
I0714 23:43:22.461208 11469 net.cpp:399] inception_4a/output_inception_4a/output_0_split -> inception_4a/output_inception_4a/output_0_split_1
I0714 23:43:22.461217 11469 net.cpp:399] inception_4a/output_inception_4a/output_0_split -> inception_4a/output_inception_4a/output_0_split_2
I0714 23:43:22.461225 11469 net.cpp:399] inception_4a/output_inception_4a/output_0_split -> inception_4a/output_inception_4a/output_0_split_3
I0714 23:43:22.461338 11469 net.cpp:141] Setting up inception_4a/output_inception_4a/output_0_split
I0714 23:43:22.461347 11469 net.cpp:148] Top shape: 10 512 14 14 (1003520)
I0714 23:43:22.461354 11469 net.cpp:148] Top shape: 10 512 14 14 (1003520)
I0714 23:43:22.461359 11469 net.cpp:148] Top shape: 10 512 14 14 (1003520)
I0714 23:43:22.461365 11469 net.cpp:148] Top shape: 10 512 14 14 (1003520)
I0714 23:43:22.461369 11469 net.cpp:156] Memory required for data: 389616640
I0714 23:43:22.461374 11469 layer_factory.hpp:77] Creating layer inception_4b/1x1
I0714 23:43:22.461390 11469 net.cpp:91] Creating Layer inception_4b/1x1
I0714 23:43:22.461395 11469 net.cpp:425] inception_4b/1x1 <- inception_4a/output_inception_4a/output_0_split_0
I0714 23:43:22.461406 11469 net.cpp:399] inception_4b/1x1 -> inception_4b/1x1
I0714 23:43:22.467017 11469 net.cpp:141] Setting up inception_4b/1x1
I0714 23:43:22.467036 11469 net.cpp:148] Top shape: 10 160 14 14 (313600)
I0714 23:43:22.467041 11469 net.cpp:156] Memory required for data: 390871040
I0714 23:43:22.467043 11473 net.cpp:141] Setting up inception_4b/3x3
I0714 23:43:22.467052 11469 layer_factory.hpp:77] Creating layer inception_4b/relu_1x1
I0714 23:43:22.467058 11473 net.cpp:148] Top shape: 10 224 14 14 (439040)
I0714 23:43:22.467063 11469 net.cpp:91] Creating Layer inception_4b/relu_1x1
I0714 23:43:22.467063 11473 net.cpp:156] Memory required for data: 395637760
I0714 23:43:22.467073 11469 net.cpp:425] inception_4b/relu_1x1 <- inception_4b/1x1
I0714 23:43:22.467082 11473 layer_factory.hpp:77] Creating layer inception_4b/relu_3x3
I0714 23:43:22.467085 11469 net.cpp:386] inception_4b/relu_1x1 -> inception_4b/1x1 (in-place)
I0714 23:43:22.467095 11473 net.cpp:91] Creating Layer inception_4b/relu_3x3
I0714 23:43:22.467103 11473 net.cpp:425] inception_4b/relu_3x3 <- inception_4b/3x3
I0714 23:43:22.467109 11473 net.cpp:386] inception_4b/relu_3x3 -> inception_4b/3x3 (in-place)
I0714 23:43:22.468206 11473 net.cpp:141] Setting up inception_4b/relu_3x3
I0714 23:43:22.468221 11473 net.cpp:148] Top shape: 10 224 14 14 (439040)
I0714 23:43:22.468238 11473 net.cpp:156] Memory required for data: 397393920
I0714 23:43:22.468243 11473 layer_factory.hpp:77] Creating layer inception_4b/5x5_reduce
I0714 23:43:22.468252 11469 net.cpp:141] Setting up inception_4b/relu_1x1
I0714 23:43:22.468267 11469 net.cpp:148] Top shape: 10 160 14 14 (313600)
I0714 23:43:22.468271 11473 net.cpp:91] Creating Layer inception_4b/5x5_reduce
I0714 23:43:22.468273 11469 net.cpp:156] Memory required for data: 392125440
I0714 23:43:22.468277 11473 net.cpp:425] inception_4b/5x5_reduce <- inception_4a/output_inception_4a/output_0_split_2
I0714 23:43:22.468281 11469 layer_factory.hpp:77] Creating layer inception_4b/3x3_reduce
I0714 23:43:22.468288 11473 net.cpp:399] inception_4b/5x5_reduce -> inception_4b/5x5_reduce
I0714 23:43:22.468297 11469 net.cpp:91] Creating Layer inception_4b/3x3_reduce
I0714 23:43:22.468303 11469 net.cpp:425] inception_4b/3x3_reduce <- inception_4a/output_inception_4a/output_0_split_1
I0714 23:43:22.468317 11469 net.cpp:399] inception_4b/3x3_reduce -> inception_4b/3x3_reduce
I0714 23:43:22.472565 11473 net.cpp:141] Setting up inception_4b/5x5_reduce
I0714 23:43:22.472594 11473 net.cpp:148] Top shape: 10 24 14 14 (47040)
I0714 23:43:22.472599 11473 net.cpp:156] Memory required for data: 397582080
I0714 23:43:22.472609 11473 layer_factory.hpp:77] Creating layer inception_4b/relu_5x5_reduce
I0714 23:43:22.472617 11473 net.cpp:91] Creating Layer inception_4b/relu_5x5_reduce
I0714 23:43:22.472622 11473 net.cpp:425] inception_4b/relu_5x5_reduce <- inception_4b/5x5_reduce
I0714 23:43:22.472632 11473 net.cpp:386] inception_4b/relu_5x5_reduce -> inception_4b/5x5_reduce (in-place)
I0714 23:43:22.473711 11473 net.cpp:141] Setting up inception_4b/relu_5x5_reduce
I0714 23:43:22.473737 11473 net.cpp:148] Top shape: 10 24 14 14 (47040)
I0714 23:43:22.473742 11473 net.cpp:156] Memory required for data: 397770240
I0714 23:43:22.473747 11473 layer_factory.hpp:77] Creating layer inception_4b/5x5
I0714 23:43:22.473767 11473 net.cpp:91] Creating Layer inception_4b/5x5
I0714 23:43:22.473773 11473 net.cpp:425] inception_4b/5x5 <- inception_4b/5x5_reduce
I0714 23:43:22.473783 11473 net.cpp:399] inception_4b/5x5 -> inception_4b/5x5
I0714 23:43:22.474633 11469 net.cpp:141] Setting up inception_4b/3x3_reduce
I0714 23:43:22.474653 11469 net.cpp:148] Top shape: 10 112 14 14 (219520)
I0714 23:43:22.474658 11469 net.cpp:156] Memory required for data: 393003520
I0714 23:43:22.474668 11469 layer_factory.hpp:77] Creating layer inception_4b/relu_3x3_reduce
I0714 23:43:22.474683 11469 net.cpp:91] Creating Layer inception_4b/relu_3x3_reduce
I0714 23:43:22.474699 11469 net.cpp:425] inception_4b/relu_3x3_reduce <- inception_4b/3x3_reduce
I0714 23:43:22.474709 11469 net.cpp:386] inception_4b/relu_3x3_reduce -> inception_4b/3x3_reduce (in-place)
I0714 23:43:22.476514 11469 net.cpp:141] Setting up inception_4b/relu_3x3_reduce
I0714 23:43:22.476529 11469 net.cpp:148] Top shape: 10 112 14 14 (219520)
I0714 23:43:22.476536 11469 net.cpp:156] Memory required for data: 393881600
I0714 23:43:22.476541 11469 layer_factory.hpp:77] Creating layer inception_4b/3x3
I0714 23:43:22.476562 11469 net.cpp:91] Creating Layer inception_4b/3x3
I0714 23:43:22.476569 11469 net.cpp:425] inception_4b/3x3 <- inception_4b/3x3_reduce
I0714 23:43:22.476579 11469 net.cpp:399] inception_4b/3x3 -> inception_4b/3x3
I0714 23:43:22.478902 11473 net.cpp:141] Setting up inception_4b/5x5
I0714 23:43:22.478934 11473 net.cpp:148] Top shape: 10 64 14 14 (125440)
I0714 23:43:22.478940 11473 net.cpp:156] Memory required for data: 398272000
I0714 23:43:22.478948 11473 layer_factory.hpp:77] Creating layer inception_4b/relu_5x5
I0714 23:43:22.478960 11473 net.cpp:91] Creating Layer inception_4b/relu_5x5
I0714 23:43:22.478965 11473 net.cpp:425] inception_4b/relu_5x5 <- inception_4b/5x5
I0714 23:43:22.478972 11473 net.cpp:386] inception_4b/relu_5x5 -> inception_4b/5x5 (in-place)
I0714 23:43:22.479218 11473 net.cpp:141] Setting up inception_4b/relu_5x5
I0714 23:43:22.479229 11473 net.cpp:148] Top shape: 10 64 14 14 (125440)
I0714 23:43:22.479233 11473 net.cpp:156] Memory required for data: 398773760
I0714 23:43:22.479238 11473 layer_factory.hpp:77] Creating layer inception_4b/pool
I0714 23:43:22.479245 11473 net.cpp:91] Creating Layer inception_4b/pool
I0714 23:43:22.479250 11473 net.cpp:425] inception_4b/pool <- inception_4a/output_inception_4a/output_0_split_3
I0714 23:43:22.479264 11473 net.cpp:399] inception_4b/pool -> inception_4b/pool
I0714 23:43:22.479379 11473 net.cpp:141] Setting up inception_4b/pool
I0714 23:43:22.479396 11473 net.cpp:148] Top shape: 10 512 14 14 (1003520)
I0714 23:43:22.479404 11473 net.cpp:156] Memory required for data: 402787840
I0714 23:43:22.479411 11473 layer_factory.hpp:77] Creating layer inception_4b/pool_proj
I0714 23:43:22.479440 11473 net.cpp:91] Creating Layer inception_4b/pool_proj
I0714 23:43:22.479451 11473 net.cpp:425] inception_4b/pool_proj <- inception_4b/pool
I0714 23:43:22.479465 11473 net.cpp:399] inception_4b/pool_proj -> inception_4b/pool_proj
I0714 23:43:22.485265 11473 net.cpp:141] Setting up inception_4b/pool_proj
I0714 23:43:22.485283 11473 net.cpp:148] Top shape: 10 64 14 14 (125440)
I0714 23:43:22.485291 11473 net.cpp:156] Memory required for data: 403289600
I0714 23:43:22.485301 11473 layer_factory.hpp:77] Creating layer inception_4b/relu_pool_proj
I0714 23:43:22.485311 11473 net.cpp:91] Creating Layer inception_4b/relu_pool_proj
I0714 23:43:22.485316 11473 net.cpp:425] inception_4b/relu_pool_proj <- inception_4b/pool_proj
I0714 23:43:22.485324 11473 net.cpp:386] inception_4b/relu_pool_proj -> inception_4b/pool_proj (in-place)
I0714 23:43:22.485857 11473 net.cpp:141] Setting up inception_4b/relu_pool_proj
I0714 23:43:22.485872 11473 net.cpp:148] Top shape: 10 64 14 14 (125440)
I0714 23:43:22.485877 11473 net.cpp:156] Memory required for data: 403791360
I0714 23:43:22.485882 11473 layer_factory.hpp:77] Creating layer inception_4b/output
I0714 23:43:22.485894 11473 net.cpp:91] Creating Layer inception_4b/output
I0714 23:43:22.485899 11473 net.cpp:425] inception_4b/output <- inception_4b/1x1
I0714 23:43:22.485905 11473 net.cpp:425] inception_4b/output <- inception_4b/3x3
I0714 23:43:22.485910 11473 net.cpp:425] inception_4b/output <- inception_4b/5x5
I0714 23:43:22.485916 11473 net.cpp:425] inception_4b/output <- inception_4b/pool_proj
I0714 23:43:22.485924 11473 net.cpp:399] inception_4b/output -> inception_4b/output
I0714 23:43:22.486093 11473 net.cpp:141] Setting up inception_4b/output
I0714 23:43:22.486106 11473 net.cpp:148] Top shape: 10 512 14 14 (1003520)
I0714 23:43:22.486110 11473 net.cpp:156] Memory required for data: 407805440
I0714 23:43:22.486115 11473 layer_factory.hpp:77] Creating layer inception_4b/output_inception_4b/output_0_split
I0714 23:43:22.486124 11473 net.cpp:91] Creating Layer inception_4b/output_inception_4b/output_0_split
I0714 23:43:22.486129 11473 net.cpp:425] inception_4b/output_inception_4b/output_0_split <- inception_4b/output
I0714 23:43:22.486152 11473 net.cpp:399] inception_4b/output_inception_4b/output_0_split -> inception_4b/output_inception_4b/output_0_split_0
I0714 23:43:22.486151 11469 net.cpp:141] Setting up inception_4b/3x3
I0714 23:43:22.486166 11473 net.cpp:399] inception_4b/output_inception_4b/output_0_split -> inception_4b/output_inception_4b/output_0_split_1
I0714 23:43:22.486176 11469 net.cpp:148] Top shape: 10 224 14 14 (439040)
I0714 23:43:22.486177 11473 net.cpp:399] inception_4b/output_inception_4b/output_0_split -> inception_4b/output_inception_4b/output_0_split_2
I0714 23:43:22.486181 11469 net.cpp:156] Memory required for data: 395637760
I0714 23:43:22.486187 11473 net.cpp:399] inception_4b/output_inception_4b/output_0_split -> inception_4b/output_inception_4b/output_0_split_3
I0714 23:43:22.486196 11469 layer_factory.hpp:77] Creating layer inception_4b/relu_3x3
I0714 23:43:22.486209 11469 net.cpp:91] Creating Layer inception_4b/relu_3x3
I0714 23:43:22.486217 11469 net.cpp:425] inception_4b/relu_3x3 <- inception_4b/3x3
I0714 23:43:22.486227 11469 net.cpp:386] inception_4b/relu_3x3 -> inception_4b/3x3 (in-place)
I0714 23:43:22.487215 11473 net.cpp:141] Setting up inception_4b/output_inception_4b/output_0_split
I0714 23:43:22.487234 11473 net.cpp:148] Top shape: 10 512 14 14 (1003520)
I0714 23:43:22.487241 11473 net.cpp:148] Top shape: 10 512 14 14 (1003520)
I0714 23:43:22.487246 11473 net.cpp:148] Top shape: 10 512 14 14 (1003520)
I0714 23:43:22.487251 11473 net.cpp:148] Top shape: 10 512 14 14 (1003520)
I0714 23:43:22.487257 11473 net.cpp:156] Memory required for data: 423861760
I0714 23:43:22.487262 11473 layer_factory.hpp:77] Creating layer inception_4c/1x1
I0714 23:43:22.487288 11473 net.cpp:91] Creating Layer inception_4c/1x1
I0714 23:43:22.487295 11473 net.cpp:425] inception_4c/1x1 <- inception_4b/output_inception_4b/output_0_split_0
I0714 23:43:22.487306 11473 net.cpp:399] inception_4c/1x1 -> inception_4c/1x1
I0714 23:43:22.487709 11469 net.cpp:141] Setting up inception_4b/relu_3x3
I0714 23:43:22.487728 11469 net.cpp:148] Top shape: 10 224 14 14 (439040)
I0714 23:43:22.487733 11469 net.cpp:156] Memory required for data: 397393920
I0714 23:43:22.487740 11469 layer_factory.hpp:77] Creating layer inception_4b/5x5_reduce
I0714 23:43:22.487771 11469 net.cpp:91] Creating Layer inception_4b/5x5_reduce
I0714 23:43:22.487779 11469 net.cpp:425] inception_4b/5x5_reduce <- inception_4a/output_inception_4a/output_0_split_2
I0714 23:43:22.487797 11469 net.cpp:399] inception_4b/5x5_reduce -> inception_4b/5x5_reduce
I0714 23:43:22.492944 11473 net.cpp:141] Setting up inception_4c/1x1
I0714 23:43:22.492969 11473 net.cpp:148] Top shape: 10 128 14 14 (250880)
I0714 23:43:22.492975 11473 net.cpp:156] Memory required for data: 424865280
I0714 23:43:22.492986 11473 layer_factory.hpp:77] Creating layer inception_4c/relu_1x1
I0714 23:43:22.492996 11473 net.cpp:91] Creating Layer inception_4c/relu_1x1
I0714 23:43:22.493005 11473 net.cpp:425] inception_4c/relu_1x1 <- inception_4c/1x1
I0714 23:43:22.493011 11473 net.cpp:386] inception_4c/relu_1x1 -> inception_4c/1x1 (in-place)
I0714 23:43:22.494490 11473 net.cpp:141] Setting up inception_4c/relu_1x1
I0714 23:43:22.494508 11473 net.cpp:148] Top shape: 10 128 14 14 (250880)
I0714 23:43:22.494513 11473 net.cpp:156] Memory required for data: 425868800
I0714 23:43:22.494518 11473 layer_factory.hpp:77] Creating layer inception_4c/3x3_reduce
I0714 23:43:22.494536 11473 net.cpp:91] Creating Layer inception_4c/3x3_reduce
I0714 23:43:22.494541 11473 net.cpp:425] inception_4c/3x3_reduce <- inception_4b/output_inception_4b/output_0_split_1
I0714 23:43:22.494567 11473 net.cpp:399] inception_4c/3x3_reduce -> inception_4c/3x3_reduce
I0714 23:43:22.495328 11469 net.cpp:141] Setting up inception_4b/5x5_reduce
I0714 23:43:22.495353 11469 net.cpp:148] Top shape: 10 24 14 14 (47040)
I0714 23:43:22.495362 11469 net.cpp:156] Memory required for data: 397582080
I0714 23:43:22.495374 11469 layer_factory.hpp:77] Creating layer inception_4b/relu_5x5_reduce
I0714 23:43:22.495401 11469 net.cpp:91] Creating Layer inception_4b/relu_5x5_reduce
I0714 23:43:22.495410 11469 net.cpp:425] inception_4b/relu_5x5_reduce <- inception_4b/5x5_reduce
I0714 23:43:22.495420 11469 net.cpp:386] inception_4b/relu_5x5_reduce -> inception_4b/5x5_reduce (in-place)
I0714 23:43:22.497268 11469 net.cpp:141] Setting up inception_4b/relu_5x5_reduce
I0714 23:43:22.497285 11469 net.cpp:148] Top shape: 10 24 14 14 (47040)
I0714 23:43:22.497292 11469 net.cpp:156] Memory required for data: 397770240
I0714 23:43:22.497298 11469 layer_factory.hpp:77] Creating layer inception_4b/5x5
I0714 23:43:22.497335 11469 net.cpp:91] Creating Layer inception_4b/5x5
I0714 23:43:22.497347 11469 net.cpp:425] inception_4b/5x5 <- inception_4b/5x5_reduce
I0714 23:43:22.497362 11469 net.cpp:399] inception_4b/5x5 -> inception_4b/5x5
I0714 23:43:22.500483 11473 net.cpp:141] Setting up inception_4c/3x3_reduce
I0714 23:43:22.500506 11473 net.cpp:148] Top shape: 10 128 14 14 (250880)
I0714 23:43:22.500512 11473 net.cpp:156] Memory required for data: 426872320
I0714 23:43:22.500521 11473 layer_factory.hpp:77] Creating layer inception_4c/relu_3x3_reduce
I0714 23:43:22.500531 11473 net.cpp:91] Creating Layer inception_4c/relu_3x3_reduce
I0714 23:43:22.500536 11473 net.cpp:425] inception_4c/relu_3x3_reduce <- inception_4c/3x3_reduce
I0714 23:43:22.500955 11473 net.cpp:386] inception_4c/relu_3x3_reduce -> inception_4c/3x3_reduce (in-place)
I0714 23:43:22.503895 11473 net.cpp:141] Setting up inception_4c/relu_3x3_reduce
I0714 23:43:22.503914 11473 net.cpp:148] Top shape: 10 128 14 14 (250880)
I0714 23:43:22.503922 11473 net.cpp:156] Memory required for data: 427875840
I0714 23:43:22.503927 11473 layer_factory.hpp:77] Creating layer inception_4c/3x3
I0714 23:43:22.503942 11473 net.cpp:91] Creating Layer inception_4c/3x3
I0714 23:43:22.503947 11473 net.cpp:425] inception_4c/3x3 <- inception_4c/3x3_reduce
I0714 23:43:22.503959 11473 net.cpp:399] inception_4c/3x3 -> inception_4c/3x3
I0714 23:43:22.507271 11469 net.cpp:141] Setting up inception_4b/5x5
I0714 23:43:22.507290 11469 net.cpp:148] Top shape: 10 64 14 14 (125440)
I0714 23:43:22.507297 11469 net.cpp:156] Memory required for data: 398272000
I0714 23:43:22.507307 11469 layer_factory.hpp:77] Creating layer inception_4b/relu_5x5
…
I0714 23:43:22.620611 11473 net.cpp:425] inception_5a/1x1 <- pool4/3x3_s2_pool4/3x3_s2_0_split_0
I0714 23:43:22.620620 11473 net.cpp:399] inception_5a/1x1 -> inception_5a/1x1
I0714 23:43:22.624490 11469 net.cpp:141] Setting up inception_4e/1x1
I0714 23:43:22.624511 11469 net.cpp:148] Top shape: 10 256 14 14 (501760)
I0714 23:43:22.624516 11469 net.cpp:156] Memory required for data: 496115200
I0714 23:43:22.624527 11469 layer_factory.hpp:77] Creating layer inception_4e/relu_1x1
I0714 23:43:22.624536 11469 net.cpp:91] Creating Layer inception_4e/relu_1x1
I0714 23:43:22.624542 11469 net.cpp:425] inception_4e/relu_1x1 <- inception_4e/1x1
I0714 23:43:22.624554 11469 net.cpp:386] inception_4e/relu_1x1 -> inception_4e/1x1 (in-place)
I0714 23:43:22.626449 11469 net.cpp:141] Setting up inception_4e/relu_1x1
I0714 23:43:22.626464 11469 net.cpp:148] Top shape: 10 256 14 14 (501760)
I0714 23:43:22.626469 11469 net.cpp:156] Memory required for data: 498122240
I0714 23:43:22.626476 11469 layer_factory.hpp:77] Creating layer inception_4e/3x3_reduce
I0714 23:43:22.626492 11469 net.cpp:91] Creating Layer inception_4e/3x3_reduce
I0714 23:43:22.626499 11469 net.cpp:425] inception_4e/3x3_reduce <- inception_4d/output_inception_4d/output_0_split_1
I0714 23:43:22.626508 11469 net.cpp:399] inception_4e/3x3_reduce -> inception_4e/3x3_reduce
I0714 23:43:22.626888 11473 net.cpp:141] Setting up inception_5a/1x1
I0714 23:43:22.626904 11473 net.cpp:148] Top shape: 10 256 7 7 (125440)
I0714 23:43:22.626909 11473 net.cpp:156] Memory required for data: 529482240
I0714 23:43:22.626919 11473 layer_factory.hpp:77] Creating layer inception_5a/relu_1x1
I0714 23:43:22.626926 11473 net.cpp:91] Creating Layer inception_5a/relu_1x1
I0714 23:43:22.626931 11473 net.cpp:425] inception_5a/relu_1x1 <- inception_5a/1x1
I0714 23:43:22.626938 11473 net.cpp:386] inception_5a/relu_1x1 -> inception_5a/1x1 (in-place)
I0714 23:43:22.627492 11473 net.cpp:141] Setting up inception_5a/relu_1x1
I0714 23:43:22.627507 11473 net.cpp:148] Top shape: 10 256 7 7 (125440)
I0714 23:43:22.627526 11473 net.cpp:156] Memory required for data: 529984000
I0714 23:43:22.627531 11473 layer_factory.hpp:77] Creating layer inception_5a/3x3_reduce
I0714 23:43:22.627544 11473 net.cpp:91] Creating Layer inception_5a/3x3_reduce
I0714 23:43:22.627550 11473 net.cpp:425] inception_5a/3x3_reduce <- pool4/3x3_s2_pool4/3x3_s2_0_split_1
I0714 23:43:22.627562 11473 net.cpp:399] inception_5a/3x3_reduce -> inception_5a/3x3_reduce
I0714 23:43:22.634428 11473 net.cpp:141] Setting up inception_5a/3x3_reduce
I0714 23:43:22.634457 11473 net.cpp:148] Top shape: 10 160 7 7 (78400)
I0714 23:43:22.634464 11473 net.cpp:156] Memory required for data: 530297600
I0714 23:43:22.634472 11473 layer_factory.hpp:77] Creating layer inception_5a/relu_3x3_reduce
I0714 23:43:22.634485 11473 net.cpp:91] Creating Layer inception_5a/relu_3x3_reduce
I0714 23:43:22.634490 11473 net.cpp:425] inception_5a/relu_3x3_reduce <- inception_5a/3x3_reduce
I0714 23:43:22.634497 11473 net.cpp:386] inception_5a/relu_3x3_reduce -> inception_5a/3x3_reduce (in-place)
I0714 23:43:22.635428 11469 net.cpp:141] Setting up inception_4e/3x3_reduce
I0714 23:43:22.635449 11469 net.cpp:148] Top shape: 10 160 14 14 (313600)
I0714 23:43:22.635455 11469 net.cpp:156] Memory required for data: 499376640
I0714 23:43:22.635464 11469 layer_factory.hpp:77] Creating layer inception_4e/relu_3x3_reduce
I0714 23:43:22.635476 11469 net.cpp:91] Creating Layer inception_4e/relu_3x3_reduce
I0714 23:43:22.635483 11469 net.cpp:425] inception_4e/relu_3x3_reduce <- inception_4e/3x3_reduce
I0714 23:43:22.635490 11469 net.cpp:386] inception_4e/relu_3x3_reduce -> inception_4e/3x3_reduce (in-place)
I0714 23:43:22.635509 11473 net.cpp:141] Setting up inception_5a/relu_3x3_reduce
I0714 23:43:22.635522 11473 net.cpp:148] Top shape: 10 160 7 7 (78400)
I0714 23:43:22.635527 11473 net.cpp:156] Memory required for data: 530611200
I0714 23:43:22.635532 11473 layer_factory.hpp:77] Creating layer inception_5a/3x3
I0714 23:43:22.635550 11473 net.cpp:91] Creating Layer inception_5a/3x3
I0714 23:43:22.635557 11473 net.cpp:425] inception_5a/3x3 <- inception_5a/3x3_reduce
I0714 23:43:22.635565 11473 net.cpp:399] inception_5a/3x3 -> inception_5a/3x3
I0714 23:43:22.637606 11469 net.cpp:141] Setting up inception_4e/relu_3x3_reduce
I0714 23:43:22.637622 11469 net.cpp:148] Top shape: 10 160 14 14 (313600)
I0714 23:43:22.637627 11469 net.cpp:156] Memory required for data: 500631040
I0714 23:43:22.637632 11469 layer_factory.hpp:77] Creating layer inception_4e/3x3
I0714 23:43:22.637652 11469 net.cpp:91] Creating Layer inception_4e/3x3
I0714 23:43:22.637658 11469 net.cpp:425] inception_4e/3x3 <- inception_4e/3x3_reduce
I0714 23:43:22.637668 11469 net.cpp:399] inception_4e/3x3 -> inception_4e/3x3
I0714 23:43:22.643394 11473 net.cpp:141] Setting up inception_5a/3x3
I0714 23:43:22.643429 11473 net.cpp:148] Top shape: 10 320 7 7 (156800)
I0714 23:43:22.643434 11473 net.cpp:156] Memory required for data: 531238400
I0714 23:43:22.643443 11473 layer_factory.hpp:77] Creating layer inception_5a/relu_3x3
I0714 23:43:22.643456 11473 net.cpp:91] Creating Layer inception_5a/relu_3x3
I0714 23:43:22.643462 11473 net.cpp:425] inception_5a/relu_3x3 <- inception_5a/3x3
I0714 23:43:22.643470 11473 net.cpp:386] inception_5a/relu_3x3 -> inception_5a/3x3 (in-place)
I0714 23:43:22.643791 11473 net.cpp:141] Setting up inception_5a/relu_3x3
I0714 23:43:22.643802 11473 net.cpp:148] Top shape: 10 320 7 7 (156800)
I0714 23:43:22.643806 11473 net.cpp:156] Memory required for data: 531865600
I0714 23:43:22.643811 11473 layer_factory.hpp:77] Creating layer inception_5a/5x5_reduce
I0714 23:43:22.643826 11473 net.cpp:91] Creating Layer inception_5a/5x5_reduce
I0714 23:43:22.643831 11473 net.cpp:425] inception_5a/5x5_reduce <- pool4/3x3_s2_pool4/3x3_s2_0_split_2
I0714 23:43:22.643842 11473 net.cpp:399] inception_5a/5x5_reduce -> inception_5a/5x5_reduce
I0714 23:43:22.649375 11473 net.cpp:141] Setting up inception_5a/5x5_reduce
I0714 23:43:22.649394 11473 net.cpp:148] Top shape: 10 32 7 7 (15680)
I0714 23:43:22.649399 11473 net.cpp:156] Memory required for data: 531928320
I0714 23:43:22.649407 11473 layer_factory.hpp:77] Creating layer inception_5a/relu_5x5_reduce
I0714 23:43:22.649420 11473 net.cpp:91] Creating Layer inception_5a/relu_5x5_reduce
I0714 23:43:22.649415 11469 net.cpp:141] Setting up inception_4e/3x3
I0714 23:43:22.649425 11473 net.cpp:425] inception_5a/relu_5x5_reduce <- inception_5a/5x5_reduce
I0714 23:43:22.649446 11469 net.cpp:148] Top shape: 10 320 14 14 (627200)
I0714 23:43:22.649451 11473 net.cpp:386] inception_5a/relu_5x5_reduce -> inception_5a/5x5_reduce (in-place)
I0714 23:43:22.649453 11469 net.cpp:156] Memory required for data: 503139840
I0714 23:43:22.649466 11469 layer_factory.hpp:77] Creating layer inception_4e/relu_3x3
I0714 23:43:22.649477 11469 net.cpp:91] Creating Layer inception_4e/relu_3x3
I0714 23:43:22.649484 11469 net.cpp:425] inception_4e/relu_3x3 <- inception_4e/3x3
I0714 23:43:22.649495 11469 net.cpp:386] inception_4e/relu_3x3 -> inception_4e/3x3 (in-place)
I0714 23:43:22.650636 11473 net.cpp:141] Setting up inception_5a/relu_5x5_reduce
I0714 23:43:22.650651 11473 net.cpp:148] Top shape: 10 32 7 7 (15680)
I0714 23:43:22.650656 11473 net.cpp:156] Memory required for data: 531991040
I0714 23:43:22.650660 11473 layer_factory.hpp:77] Creating layer inception_5a/5x5
I0714 23:43:22.650673 11469 net.cpp:141] Setting up inception_4e/relu_3x3
I0714 23:43:22.650679 11473 net.cpp:91] Creating Layer inception_5a/5x5
I0714 23:43:22.650699 11469 net.cpp:148] Top shape: 10 320 14 14 (627200)
I0714 23:43:22.650704 11473 net.cpp:425] inception_5a/5x5 <- inception_5a/5x5_reduce
I0714 23:43:22.650707 11469 net.cpp:156] Memory required for data: 505648640
I0714 23:43:22.650713 11469 layer_factory.hpp:77] Creating layer inception_4e/5x5_reduce
I0714 23:43:22.650717 11473 net.cpp:399] inception_5a/5x5 -> inception_5a/5x5
I0714 23:43:22.650737 11469 net.cpp:91] Creating Layer inception_4e/5x5_reduce
I0714 23:43:22.650743 11469 net.cpp:425] inception_4e/5x5_reduce <- inception_4d/output_inception_4d/output_0_split_2
I0714 23:43:22.650754 11469 net.cpp:399] inception_4e/5x5_reduce -> inception_4e/5x5_reduce
I0714 23:43:22.655608 11473 net.cpp:141] Setting up inception_5a/5x5
I0714 23:43:22.655627 11473 net.cpp:148] Top shape: 10 128 7 7 (62720)
I0714 23:43:22.655632 11473 net.cpp:156] Memory required for data: 532241920
I0714 23:43:22.655640 11473 layer_factory.hpp:77] Creating layer inception_5a/relu_5x5
I0714 23:43:22.655676 11473 net.cpp:91] Creating Layer inception_5a/relu_5x5
I0714 23:43:22.655683 11473 net.cpp:425] inception_5a/relu_5x5 <- inception_5a/5x5
I0714 23:43:22.655689 11473 net.cpp:386] inception_5a/relu_5x5 -> inception_5a/5x5 (in-place)
I0714 23:43:22.656886 11473 net.cpp:141] Setting up inception_5a/relu_5x5
I0714 23:43:22.656900 11473 net.cpp:148] Top shape: 10 128 7 7 (62720)
I0714 23:43:22.656904 11473 net.cpp:156] Memory required for data: 532492800
I0714 23:43:22.656910 11473 layer_factory.hpp:77] Creating layer inception_5a/pool
I0714 23:43:22.656931 11473 net.cpp:91] Creating Layer inception_5a/pool
I0714 23:43:22.656939 11473 net.cpp:425] inception_5a/pool <- pool4/3x3_s2_pool4/3x3_s2_0_split_3
I0714 23:43:22.656949 11473 net.cpp:399] inception_5a/pool -> inception_5a/pool
I0714 23:43:22.657217 11473 net.cpp:141] Setting up inception_5a/pool
I0714 23:43:22.657228 11473 net.cpp:148] Top shape: 10 832 7 7 (407680)
I0714 23:43:22.657232 11473 net.cpp:156] Memory required for data: 534123520
I0714 23:43:22.657236 11473 layer_factory.hpp:77] Creating layer inception_5a/pool_proj
I0714 23:43:22.657250 11473 net.cpp:91] Creating Layer inception_5a/pool_proj
I0714 23:43:22.657255 11473 net.cpp:425] inception_5a/pool_proj <- inception_5a/pool
I0714 23:43:22.657266 11473 net.cpp:399] inception_5a/pool_proj -> inception_5a/pool_proj
I0714 23:43:22.658813 11469 net.cpp:141] Setting up inception_4e/5x5_reduce
I0714 23:43:22.658839 11469 net.cpp:148] Top shape: 10 32 14 14 (62720)
I0714 23:43:22.658845 11469 net.cpp:156] Memory required for data: 505899520
I0714 23:43:22.658856 11469 layer_factory.hpp:77] Creating layer inception_4e/relu_5x5_reduce
I0714 23:43:22.658866 11469 net.cpp:91] Creating Layer inception_4e/relu_5x5_reduce
I0714 23:43:22.658874 11469 net.cpp:425] inception_4e/relu_5x5_reduce <- inception_4e/5x5_reduce
I0714 23:43:22.658881 11469 net.cpp:386] inception_4e/relu_5x5_reduce -> inception_4e/5x5_reduce (in-place)
I0714 23:43:22.660179 11469 net.cpp:141] Setting up inception_4e/relu_5x5_reduce
I0714 23:43:22.660197 11469 net.cpp:148] Top shape: 10 32 14 14 (62720)
I0714 23:43:22.660202 11469 net.cpp:156] Memory required for data: 506150400
I0714 23:43:22.660207 11469 layer_factory.hpp:77] Creating layer inception_4e/5x5
I0714 23:43:22.660225 11469 net.cpp:91] Creating Layer inception_4e/5x5
I0714 23:43:22.660233 11469 net.cpp:425] inception_4e/5x5 <- inception_4e/5x5_reduce
I0714 23:43:22.660245 11469 net.cpp:399] inception_4e/5x5 -> inception_4e/5x5
I0714 23:43:22.662765 11473 net.cpp:141] Setting up inception_5a/pool_proj
I0714 23:43:22.662786 11473 net.cpp:148] Top shape: 10 128 7 7 (62720)
I0714 23:43:22.662791 11473 net.cpp:156] Memory required for data: 534374400
I0714 23:43:22.662799 11473 layer_factory.hpp:77] Creating layer inception_5a/relu_pool_proj
I0714 23:43:22.662811 11473 net.cpp:91] Creating Layer inception_5a/relu_pool_proj
I0714 23:43:22.662816 11473 net.cpp:425] inception_5a/relu_pool_proj <- inception_5a/pool_proj
I0714 23:43:22.662822 11473 net.cpp:386] inception_5a/relu_pool_proj -> inception_5a/pool_proj (in-place)
I0714 23:43:22.663975 11473 net.cpp:141] Setting up inception_5a/relu_pool_proj
I0714 23:43:22.663990 11473 net.cpp:148] Top shape: 10 128 7 7 (62720)
I0714 23:43:22.663995 11473 net.cpp:156] Memory required for data: 534625280
I0714 23:43:22.664000 11473 layer_factory.hpp:77] Creating layer inception_5a/output
I0714 23:43:22.664012 11473 net.cpp:91] Creating Layer inception_5a/output
I0714 23:43:22.664018 11473 net.cpp:425] inception_5a/output <- inception_5a/1x1
I0714 23:43:22.664024 11473 net.cpp:425] inception_5a/output <- inception_5a/3x3
I0714 23:43:22.664029 11473 net.cpp:425] inception_5a/output <- inception_5a/5x5
I0714 23:43:22.664034 11473 net.cpp:425] inception_5a/output <- inception_5a/pool_proj
I0714 23:43:22.664041 11473 net.cpp:399] inception_5a/output -> inception_5a/output
I0714 23:43:22.664713 11473 net.cpp:141] Setting up inception_5a/output
I0714 23:43:22.664726 11473 net.cpp:148] Top shape: 10 832 7 7 (407680)
I0714 23:43:22.664731 11473 net.cpp:156] Memory required for data: 536256000
I0714 23:43:22.664734 11473 layer_factory.hpp:77] Creating layer inception_5a/output_inception_5a/output_0_split
I0714 23:43:22.664747 11473 net.cpp:91] Creating Layer inception_5a/output_inception_5a/output_0_split
I0714 23:43:22.664753 11473 net.cpp:425] inception_5a/output_inception_5a/output_0_split <- inception_5a/output
I0714 23:43:22.664762 11473 net.cpp:399] inception_5a/output_inception_5a/output_0_split -> inception_5a/output_inception_5a/output_0_split_0
I0714 23:43:22.664770 11473 net.cpp:399] inception_5a/output_inception_5a/output_0_split -> inception_5a/output_inception_5a/output_0_split_1
I0714 23:43:22.664778 11473 net.cpp:399] inception_5a/output_inception_5a/output_0_split -> inception_5a/output_inception_5a/output_0_split_2
I0714 23:43:22.664786 11473 net.cpp:399] inception_5a/output_inception_5a/output_0_split -> inception_5a/output_inception_5a/output_0_split_3
I0714 23:43:22.665110 11473 net.cpp:141] Setting up inception_5a/output_inception_5a/output_0_split
I0714 23:43:22.665120 11473 net.cpp:148] Top shape: 10 832 7 7 (407680)
I0714 23:43:22.665125 11473 net.cpp:148] Top shape: 10 832 7 7 (407680)
I0714 23:43:22.665130 11473 net.cpp:148] Top shape: 10 832 7 7 (407680)
I0714 23:43:22.665135 11473 net.cpp:148] Top shape: 10 832 7 7 (407680)
I0714 23:43:22.665139 11473 net.cpp:156] Memory required for data: 542778880
I0714 23:43:22.665143 11473 layer_factory.hpp:77] Creating layer inception_5b/1x1
I0714 23:43:22.665158 11473 net.cpp:91] Creating Layer inception_5b/1x1
I0714 23:43:22.665163 11473 net.cpp:425] inception_5b/1x1 <- inception_5a/output_inception_5a/output_0_split_0
I0714 23:43:22.665174 11473 net.cpp:399] inception_5b/1x1 -> inception_5b/1x1
I0714 23:43:22.667870 11469 net.cpp:141] Setting up inception_4e/5x5
I0714 23:43:22.667891 11469 net.cpp:148] Top shape: 10 128 14 14 (250880)
I0714 23:43:22.667897 11469 net.cpp:156] Memory required for data: 507153920
I0714 23:43:22.667907 11469 layer_factory.hpp:77] Creating layer inception_4e/relu_5x5
I0714 23:43:22.667917 11469 net.cpp:91] Creating Layer inception_4e/relu_5x5
I0714 23:43:22.667922 11469 net.cpp:425] inception_4e/relu_5x5 <- inception_4e/5x5
I0714 23:43:22.667930 11469 net.cpp:386] inception_4e/relu_5x5 -> inception_4e/5x5 (in-place)
I0714 23:43:22.668241 11469 net.cpp:141] Setting up inception_4e/relu_5x5
I0714 23:43:22.668254 11469 net.cpp:148] Top shape: 10 128 14 14 (250880)
I0714 23:43:22.668258 11469 net.cpp:156] Memory required for data: 508157440
I0714 23:43:22.668264 11469 layer_factory.hpp:77] Creating layer inception_4e/pool
I0714 23:43:22.668277 11469 net.cpp:91] Creating Layer inception_4e/pool
I0714 23:43:22.668282 11469 net.cpp:425] inception_4e/pool <- inception_4d/output_inception_4d/output_0_split_3
I0714 23:43:22.668290 11469 net.cpp:399] inception_4e/pool -> inception_4e/pool
I0714 23:43:22.668406 11469 net.cpp:141] Setting up inception_4e/pool
I0714 23:43:22.668417 11469 net.cpp:148] Top shape: 10 528 14 14 (1034880)
I0714 23:43:22.668421 11469 net.cpp:156] Memory required for data: 512296960
I0714 23:43:22.668426 11469 layer_factory.hpp:77] Creating layer inception_4e/pool_proj
I0714 23:43:22.668442 11469 net.cpp:91] Creating Layer inception_4e/pool_proj
I0714 23:43:22.668449 11469 net.cpp:425] inception_4e/pool_proj <- inception_4e/pool
I0714 23:43:22.668460 11469 net.cpp:399] inception_4e/pool_proj -> inception_4e/pool_proj
I0714 23:43:22.672806 11473 net.cpp:141] Setting up inception_5b/1x1
I0714 23:43:22.672830 11473 net.cpp:148] Top shape: 10 384 7 7 (188160)
I0714 23:43:22.672835 11473 net.cpp:156] Memory required for data: 543531520
I0714 23:43:22.672844 11473 layer_factory.hpp:77] Creating layer inception_5b/relu_1x1
I0714 23:43:22.672853 11473 net.cpp:91] Creating Layer inception_5b/relu_1x1
I0714 23:43:22.672858 11473 net.cpp:425] inception_5b/relu_1x1 <- inception_5b/1x1
I0714 23:43:22.672865 11473 net.cpp:386] inception_5b/relu_1x1 -> inception_5b/1x1 (in-place)
I0714 23:43:22.674973 11473 net.cpp:141] Setting up inception_5b/relu_1x1
I0714 23:43:22.674988 11473 net.cpp:148] Top shape: 10 384 7 7 (188160)
I0714 23:43:22.674993 11473 net.cpp:156] Memory required for data: 544284160
I0714 23:43:22.674998 11473 layer_factory.hpp:77] Creating layer inception_5b/3x3_reduce
I0714 23:43:22.675011 11473 net.cpp:91] Creating Layer inception_5b/3x3_reduce
I0714 23:43:22.675017 11473 net.cpp:425] inception_5b/3x3_reduce <- inception_5a/output_inception_5a/output_0_split_1
I0714 23:43:22.675022 11469 net.cpp:141] Setting up inception_4e/pool_proj
I0714 23:43:22.675030 11473 net.cpp:399] inception_5b/3x3_reduce -> inception_5b/3x3_reduce
I0714 23:43:22.675040 11469 net.cpp:148] Top shape: 10 128 14 14 (250880)
I0714 23:43:22.675046 11469 net.cpp:156] Memory required for data: 513300480
I0714 23:43:22.675056 11469 layer_factory.hpp:77] Creating layer inception_4e/relu_pool_proj
I0714 23:43:22.675070 11469 net.cpp:91] Creating Layer inception_4e/relu_pool_proj
I0714 23:43:22.675076 11469 net.cpp:425] inception_4e/relu_pool_proj <- inception_4e/pool_proj
I0714 23:43:22.675084 11469 net.cpp:386] inception_4e/relu_pool_proj -> inception_4e/pool_proj (in-place)
I0714 23:43:22.676976 11469 net.cpp:141] Setting up inception_4e/relu_pool_proj
I0714 23:43:22.676995 11469 net.cpp:148] Top shape: 10 128 14 14 (250880)
I0714 23:43:22.677000 11469 net.cpp:156] Memory required for data: 514304000
I0714 23:43:22.677006 11469 layer_factory.hpp:77] Creating layer inception_4e/output
I0714 23:43:22.677014 11469 net.cpp:91] Creating Layer inception_4e/output
I0714 23:43:22.677021 11469 net.cpp:425] inception_4e/output <- inception_4e/1x1
I0714 23:43:22.677027 11469 net.cpp:425] inception_4e/output <- inception_4e/3x3
I0714 23:43:22.677033 11469 net.cpp:425] inception_4e/output <- inception_4e/5x5
I0714 23:43:22.677039 11469 net.cpp:425] inception_4e/output <- inception_4e/pool_proj
I0714 23:43:22.677047 11469 net.cpp:399] inception_4e/output -> inception_4e/output
I0714 23:43:22.677129 11469 net.cpp:141] Setting up inception_4e/output
I0714 23:43:22.677144 11469 net.cpp:148] Top shape: 10 832 14 14 (1630720)
I0714 23:43:22.677147 11469 net.cpp:156] Memory required for data: 520826880
I0714 23:43:22.677152 11469 layer_factory.hpp:77] Creating layer pool4/3x3_s2
I0714 23:43:22.677161 11469 net.cpp:91] Creating Layer pool4/3x3_s2
I0714 23:43:22.677166 11469 net.cpp:425] pool4/3x3_s2 <- inception_4e/output
I0714 23:43:22.677175 11469 net.cpp:399] pool4/3x3_s2 -> pool4/3x3_s2
I0714 23:43:22.677276 11469 net.cpp:141] Setting up pool4/3x3_s2
I0714 23:43:22.677287 11469 net.cpp:148] Top shape: 10 832 7 7 (407680)
I0714 23:43:22.677291 11469 net.cpp:156] Memory required for data: 522457600
I0714 23:43:22.677296 11469 layer_factory.hpp:77] Creating layer pool4/3x3_s2_pool4/3x3_s2_0_split
I0714 23:43:22.677305 11469 net.cpp:91] Creating Layer pool4/3x3_s2_pool4/3x3_s2_0_split
I0714 23:43:22.677310 11469 net.cpp:425] pool4/3x3_s2_pool4/3x3_s2_0_split <- pool4/3x3_s2
I0714 23:43:22.677321 11469 net.cpp:399] pool4/3x3_s2_pool4/3x3_s2_0_split -> pool4/3x3_s2_pool4/3x3_s2_0_split_0
I0714 23:43:22.677331 11469 net.cpp:399] pool4/3x3_s2_pool4/3x3_s2_0_split -> pool4/3x3_s2_pool4/3x3_s2_0_split_1
I0714 23:43:22.677340 11469 net.cpp:399] pool4/3x3_s2_pool4/3x3_s2_0_split -> pool4/3x3_s2_pool4/3x3_s2_0_split_2
I0714 23:43:22.677348 11469 net.cpp:399] pool4/3x3_s2_pool4/3x3_s2_0_split -> pool4/3x3_s2_pool4/3x3_s2_0_split_3
I0714 23:43:22.677515 11469 net.cpp:141] Setting up pool4/3x3_s2_pool4/3x3_s2_0_split
I0714 23:43:22.677525 11469 net.cpp:148] Top shape: 10 832 7 7 (407680)
I0714 23:43:22.677531 11469 net.cpp:148] Top shape: 10 832 7 7 (407680)
I0714 23:43:22.677537 11469 net.cpp:148] Top shape: 10 832 7 7 (407680)
I0714 23:43:22.677542 11469 net.cpp:148] Top shape: 10 832 7 7 (407680)
I0714 23:43:22.677546 11469 net.cpp:156] Memory required for data: 528980480
I0714 23:43:22.677551 11469 layer_factory.hpp:77] Creating layer inception_5a/1x1
I0714 23:43:22.677570 11469 net.cpp:91] Creating Layer inception_5a/1x1
I0714 23:43:22.677577 11469 net.cpp:425] inception_5a/1x1 <- pool4/3x3_s2_pool4/3x3_s2_0_split_0
I0714 23:43:22.677585 11469 net.cpp:399] inception_5a/1x1 -> inception_5a/1x1
I0714 23:43:22.682973 11473 net.cpp:141] Setting up inception_5b/3x3_reduce
I0714 23:43:22.682997 11473 net.cpp:148] Top shape: 10 192 7 7 (94080)
I0714 23:43:22.683002 11473 net.cpp:156] Memory required for data: 544660480
I0714 23:43:22.683012 11473 layer_factory.hpp:77] Creating layer inception_5b/relu_3x3_reduce
I0714 23:43:22.683032 11473 net.cpp:91] Creating Layer inception_5b/relu_3x3_reduce
I0714 23:43:22.683038 11473 net.cpp:425] inception_5b/relu_3x3_reduce <- inception_5b/3x3_reduce
I0714 23:43:22.683046 11473 net.cpp:386] inception_5b/relu_3x3_reduce -> inception_5b/3x3_reduce (in-place)
I0714 23:43:22.684643 11473 net.cpp:141] Setting up inception_5b/relu_3x3_reduce
I0714 23:43:22.684658 11473 net.cpp:148] Top shape: 10 192 7 7 (94080)
I0714 23:43:22.684661 11473 net.cpp:156] Memory required for data: 545036800
I0714 23:43:22.684666 11473 layer_factory.hpp:77] Creating layer inception_5b/3x3
I0714 23:43:22.684684 11473 net.cpp:91] Creating Layer inception_5b/3x3
I0714 23:43:22.684689 11473 net.cpp:425] inception_5b/3x3 <- inception_5b/3x3_reduce
I0714 23:43:22.684700 11473 net.cpp:399] inception_5b/3x3 -> inception_5b/3x3
I0714 23:43:22.684700 11469 net.cpp:141] Setting up inception_5a/1x1
I0714 23:43:22.684720 11469 net.cpp:148] Top shape: 10 256 7 7 (125440)
I0714 23:43:22.684726 11469 net.cpp:156] Memory required for data: 529482240
I0714 23:43:22.684737 11469 layer_factory.hpp:77] Creating layer inception_5a/relu_1x1
I0714 23:43:22.684751 11469 net.cpp:91] Creating Layer inception_5a/relu_1x1
I0714 23:43:22.684757 11469 net.cpp:425] inception_5a/relu_1x1 <- inception_5a/1x1
I0714 23:43:22.684765 11469 net.cpp:386] inception_5a/relu_1x1 -> inception_5a/1x1 (in-place)
I0714 23:43:22.687814 11469 net.cpp:141] Setting up inception_5a/relu_1x1
I0714 23:43:22.687834 11469 net.cpp:148] Top shape: 10 256 7 7 (125440)
I0714 23:43:22.687840 11469 net.cpp:156] Memory required for data: 529984000
I0714 23:43:22.687845 11469 layer_factory.hpp:77] Creating layer inception_5a/3x3_reduce
I0714 23:43:22.687866 11469 net.cpp:91] Creating Layer inception_5a/3x3_reduce
I0714 23:43:22.687873 11469 net.cpp:425] inception_5a/3x3_reduce <- pool4/3x3_s2_pool4/3x3_s2_0_split_1
I0714 23:43:22.687883 11469 net.cpp:399] inception_5a/3x3_reduce -> inception_5a/3x3_reduce
I0714 23:43:22.695134 11469 net.cpp:141] Setting up inception_5a/3x3_reduce
I0714 23:43:22.695157 11469 net.cpp:148] Top shape: 10 160 7 7 (78400)
I0714 23:43:22.695163 11469 net.cpp:156] Memory required for data: 530297600
I0714 23:43:22.695173 11469 layer_factory.hpp:77] Creating layer inception_5a/relu_3x3_reduce
I0714 23:43:22.695183 11469 net.cpp:91] Creating Layer inception_5a/relu_3x3_reduce
I0714 23:43:22.695189 11469 net.cpp:425] inception_5a/relu_3x3_reduce <- inception_5a/3x3_reduce
I0714 23:43:22.695183 11473 net.cpp:141] Setting up inception_5b/3x3
I0714 23:43:22.695199 11469 net.cpp:386] inception_5a/relu_3x3_reduce -> inception_5a/3x3_reduce (in-place)
I0714 23:43:22.695205 11473 net.cpp:148] Top shape: 10 384 7 7 (188160)
I0714 23:43:22.695210 11473 net.cpp:156] Memory required for data: 545789440
I0714 23:43:22.695220 11473 layer_factory.hpp:77] Creating layer inception_5b/relu_3x3
I0714 23:43:22.695228 11473 net.cpp:91] Creating Layer inception_5b/relu_3x3
I0714 23:43:22.695233 11473 net.cpp:425] inception_5b/relu_3x3 <- inception_5b/3x3
I0714 23:43:22.695240 11473 net.cpp:386] inception_5b/relu_3x3 -> inception_5b/3x3 (in-place)
I0714 23:43:22.696477 11469 net.cpp:141] Setting up inception_5a/relu_3x3_reduce
I0714 23:43:22.696496 11469 net.cpp:148] Top shape: 10 160 7 7 (78400)
I0714 23:43:22.696501 11469 net.cpp:156] Memory required for data: 530611200
I0714 23:43:22.696501 11473 net.cpp:141] Setting up inception_5b/relu_3x3
I0714 23:43:22.696506 11469 layer_factory.hpp:77] Creating layer inception_5a/3x3
I0714 23:43:22.696517 11473 net.cpp:148] Top shape: 10 384 7 7 (188160)
I0714 23:43:22.696522 11473 net.cpp:156] Memory required for data: 546542080
I0714 23:43:22.696528 11473 layer_factory.hpp:77] Creating layer inception_5b/5x5_reduce
I0714 23:43:22.696534 11469 net.cpp:91] Creating Layer inception_5a/3x3
I0714 23:43:22.696542 11473 net.cpp:91] Creating Layer inception_5b/5x5_reduce
I0714 23:43:22.696542 11469 net.cpp:425] inception_5a/3x3 <- inception_5a/3x3_reduce
I0714 23:43:22.696552 11473 net.cpp:425] inception_5b/5x5_reduce <- inception_5a/output_inception_5a/output_0_split_2
I0714 23:43:22.696565 11469 net.cpp:399] inception_5a/3x3 -> inception_5a/3x3
I0714 23:43:22.696573 11473 net.cpp:399] inception_5b/5x5_reduce -> inception_5b/5x5_reduce
I0714 23:43:22.701303 11473 net.cpp:141] Setting up inception_5b/5x5_reduce
I0714 23:43:22.701333 11473 net.cpp:148] Top shape: 10 48 7 7 (23520)
I0714 23:43:22.701339 11473 net.cpp:156] Memory required for data: 546636160
I0714 23:43:22.701347 11473 layer_factory.hpp:77] Creating layer inception_5b/relu_5x5_reduce
I0714 23:43:22.701356 11473 net.cpp:91] Creating Layer inception_5b/relu_5x5_reduce
I0714 23:43:22.701361 11473 net.cpp:425] inception_5b/relu_5x5_reduce <- inception_5b/5x5_reduce
I0714 23:43:22.701372 11473 net.cpp:386] inception_5b/relu_5x5_reduce -> inception_5b/5x5_reduce (in-place)
I0714 23:43:22.702148 11473 net.cpp:141] Setting up inception_5b/relu_5x5_reduce
I0714 23:43:22.702174 11473 net.cpp:148] Top shape: 10 48 7 7 (23520)
I0714 23:43:22.702180 11473 net.cpp:156] Memory required for data: 546730240
I0714 23:43:22.702185 11473 layer_factory.hpp:77] Creating layer inception_5b/5x5
I0714 23:43:22.702200 11473 net.cpp:91] Creating Layer inception_5b/5x5
I0714 23:43:22.702206 11473 net.cpp:425] inception_5b/5x5 <- inception_5b/5x5_reduce
I0714 23:43:22.702217 11473 net.cpp:399] inception_5b/5x5 -> inception_5b/5x5
I0714 23:43:22.709208 11469 net.cpp:141] Setting up inception_5a/3x3
I0714 23:43:22.709233 11469 net.cpp:148] Top shape: 10 320 7 7 (156800)
I0714 23:43:22.709239 11469 net.cpp:156] Memory required for data: 531238400
I0714 23:43:22.709252 11469 layer_factory.hpp:77] Creating layer inception_5a/relu_3x3
I0714 23:43:22.709262 11469 net.cpp:91] Creating Layer inception_5a/relu_3x3
I0714 23:43:22.709269 11469 net.cpp:425] inception_5a/relu_3x3 <- inception_5a/3x3
I0714 23:43:22.709276 11469 net.cpp:386] inception_5a/relu_3x3 -> inception_5a/3x3 (in-place)
I0714 23:43:22.709468 11473 net.cpp:141] Setting up inception_5b/5x5
I0714 23:43:22.709483 11473 net.cpp:148] Top shape: 10 128 7 7 (62720)
I0714 23:43:22.709488 11473 net.cpp:156] Memory required for data: 546981120
I0714 23:43:22.709496 11473 layer_factory.hpp:77] Creating layer inception_5b/relu_5x5
I0714 23:43:22.709506 11473 net.cpp:91] Creating Layer inception_5b/relu_5x5
I0714 23:43:22.709511 11473 net.cpp:425] inception_5b/relu_5x5 <- inception_5b/5x5
I0714 23:43:22.709518 11473 net.cpp:386] inception_5b/relu_5x5 -> inception_5b/5x5 (in-place)
I0714 23:43:22.710697 11473 net.cpp:141] Setting up inception_5b/relu_5x5
I0714 23:43:22.710726 11473 net.cpp:148] Top shape: 10 128 7 7 (62720)
I0714 23:43:22.710731 11473 net.cpp:156] Memory required for data: 547232000
I0714 23:43:22.710736 11473 layer_factory.hpp:77] Creating layer inception_5b/pool
I0714 23:43:22.710746 11469 net.cpp:141] Setting up inception_5a/relu_3x3
I0714 23:43:22.710749 11473 net.cpp:91] Creating Layer inception_5b/pool
I0714 23:43:22.710765 11469 net.cpp:148] Top shape: 10 320 7 7 (156800)
I0714 23:43:22.710767 11473 net.cpp:425] inception_5b/pool <- inception_5a/output_inception_5a/output_0_split_3
I0714 23:43:22.710774 11469 net.cpp:156] Memory required for data: 531865600
I0714 23:43:22.710788 11473 net.cpp:399] inception_5b/pool -> inception_5b/pool
I0714 23:43:22.710790 11469 layer_factory.hpp:77] Creating layer inception_5a/5x5_reduce
I0714 23:43:22.710806 11469 net.cpp:91] Creating Layer inception_5a/5x5_reduce
I0714 23:43:22.710813 11469 net.cpp:425] inception_5a/5x5_reduce <- pool4/3x3_s2_pool4/3x3_s2_0_split_2
I0714 23:43:22.710829 11469 net.cpp:399] inception_5a/5x5_reduce -> inception_5a/5x5_reduce
I0714 23:43:22.710902 11473 net.cpp:141] Setting up inception_5b/pool
I0714 23:43:22.710912 11473 net.cpp:148] Top shape: 10 832 7 7 (407680)
I0714 23:43:22.710916 11473 net.cpp:156] Memory required for data: 548862720
I0714 23:43:22.710922 11473 layer_factory.hpp:77] Creating layer inception_5b/pool_proj
I0714 23:43:22.710934 11473 net.cpp:91] Creating Layer inception_5b/pool_proj
I0714 23:43:22.710940 11473 net.cpp:425] inception_5b/pool_proj <- inception_5b/pool
I0714 23:43:22.710952 11473 net.cpp:399] inception_5b/pool_proj -> inception_5b/pool_proj
I0714 23:43:22.717118 11473 net.cpp:141] Setting up inception_5b/pool_proj
I0714 23:43:22.717134 11473 net.cpp:148] Top shape: 10 128 7 7 (62720)
I0714 23:43:22.717139 11473 net.cpp:156] Memory required for data: 549113600
I0714 23:43:22.717147 11473 layer_factory.hpp:77] Creating layer inception_5b/relu_pool_proj
I0714 23:43:22.717154 11473 net.cpp:91] Creating Layer inception_5b/relu_pool_proj
I0714 23:43:22.717160 11473 net.cpp:425] inception_5b/relu_pool_proj <- inception_5b/pool_proj
I0714 23:43:22.717180 11473 net.cpp:386] inception_5b/relu_pool_proj -> inception_5b/pool_proj (in-place)
I0714 23:43:22.718005 11469 net.cpp:141] Setting up inception_5a/5x5_reduce
I0714 23:43:22.718025 11469 net.cpp:148] Top shape: 10 32 7 7 (15680)
I0714 23:43:22.718031 11469 net.cpp:156] Memory required for data: 531928320
I0714 23:43:22.718041 11469 layer_factory.hpp:77] Creating layer inception_5a/relu_5x5_reduce
I0714 23:43:22.718050 11469 net.cpp:91] Creating Layer inception_5a/relu_5x5_reduce
I0714 23:43:22.718057 11469 net.cpp:425] inception_5a/relu_5x5_reduce <- inception_5a/5x5_reduce
I0714 23:43:22.718070 11469 net.cpp:386] inception_5a/relu_5x5_reduce -> inception_5a/5x5_reduce (in-place)
I0714 23:43:22.718140 11473 net.cpp:141] Setting up inception_5b/relu_pool_proj
I0714 23:43:22.718153 11473 net.cpp:148] Top shape: 10 128 7 7 (62720)
I0714 23:43:22.718158 11473 net.cpp:156] Memory required for data: 549364480
I0714 23:43:22.718163 11473 layer_factory.hpp:77] Creating layer inception_5b/output
I0714 23:43:22.718170 11473 net.cpp:91] Creating Layer inception_5b/output
I0714 23:43:22.718175 11473 net.cpp:425] inception_5b/output <- inception_5b/1x1
I0714 23:43:22.718181 11473 net.cpp:425] inception_5b/output <- inception_5b/3x3
I0714 23:43:22.718186 11473 net.cpp:425] inception_5b/output <- inception_5b/5x5
I0714 23:43:22.718191 11473 net.cpp:425] inception_5b/output <- inception_5b/pool_proj
I0714 23:43:22.718200 11473 net.cpp:399] inception_5b/output -> inception_5b/output
I0714 23:43:22.718403 11473 net.cpp:141] Setting up inception_5b/output
I0714 23:43:22.718417 11473 net.cpp:148] Top shape: 10 1024 7 7 (501760)
I0714 23:43:22.718422 11473 net.cpp:156] Memory required for data: 551371520
I0714 23:43:22.718426 11473 layer_factory.hpp:77] Creating layer pool5/7x7_s1
I0714 23:43:22.718433 11473 net.cpp:91] Creating Layer pool5/7x7_s1
I0714 23:43:22.718438 11473 net.cpp:425] pool5/7x7_s1 <- inception_5b/output
I0714 23:43:22.718446 11473 net.cpp:399] pool5/7x7_s1 -> pool5/7x7_s1
I0714 23:43:22.719416 11473 net.cpp:141] Setting up pool5/7x7_s1
I0714 23:43:22.719422 11469 net.cpp:141] Setting up inception_5a/relu_5x5_reduce
I0714 23:43:22.719449 11473 net.cpp:148] Top shape: 10 1024 1 1 (10240)
I0714 23:43:22.719451 11469 net.cpp:148] Top shape: 10 32 7 7 (15680)
I0714 23:43:22.719455 11473 net.cpp:156] Memory required for data: 551412480
I0714 23:43:22.719457 11469 net.cpp:156] Memory required for data: 531991040
I0714 23:43:22.719461 11473 layer_factory.hpp:77] Creating layer pool5/drop_7x7_s1
I0714 23:43:22.719463 11469 layer_factory.hpp:77] Creating layer inception_5a/5x5
I0714 23:43:22.719472 11473 net.cpp:91] Creating Layer pool5/drop_7x7_s1
I0714 23:43:22.719477 11473 net.cpp:425] pool5/drop_7x7_s1 <- pool5/7x7_s1
I0714 23:43:22.719481 11469 net.cpp:91] Creating Layer inception_5a/5x5
I0714 23:43:22.719486 11473 net.cpp:386] pool5/drop_7x7_s1 -> pool5/7x7_s1 (in-place)
I0714 23:43:22.719488 11469 net.cpp:425] inception_5a/5x5 <- inception_5a/5x5_reduce
I0714 23:43:22.719499 11469 net.cpp:399] inception_5a/5x5 -> inception_5a/5x5
I0714 23:43:22.719557 11473 net.cpp:141] Setting up pool5/drop_7x7_s1
I0714 23:43:22.719566 11473 net.cpp:148] Top shape: 10 1024 1 1 (10240)
I0714 23:43:22.719570 11473 net.cpp:156] Memory required for data: 551453440
I0714 23:43:22.719574 11473 layer_factory.hpp:77] Creating layer loss3/classifier
I0714 23:43:22.719599 11473 net.cpp:91] Creating Layer loss3/classifier
I0714 23:43:22.719604 11473 net.cpp:425] loss3/classifier <- pool5/7x7_s1
I0714 23:43:22.719612 11473 net.cpp:399] loss3/classifier -> loss3/classifier
I0714 23:43:22.725136 11469 net.cpp:141] Setting up inception_5a/5x5
I0714 23:43:22.725157 11469 net.cpp:148] Top shape: 10 128 7 7 (62720)
I0714 23:43:22.725163 11469 net.cpp:156] Memory required for data: 532241920
I0714 23:43:22.725172 11469 layer_factory.hpp:77] Creating layer inception_5a/relu_5x5
I0714 23:43:22.725208 11469 net.cpp:91] Creating Layer inception_5a/relu_5x5
I0714 23:43:22.725215 11469 net.cpp:425] inception_5a/relu_5x5 <- inception_5a/5x5
I0714 23:43:22.725224 11469 net.cpp:386] inception_5a/relu_5x5 -> inception_5a/5x5 (in-place)
I0714 23:43:22.726079 11469 net.cpp:141] Setting up inception_5a/relu_5x5
I0714 23:43:22.726096 11469 net.cpp:148] Top shape: 10 128 7 7 (62720)
I0714 23:43:22.726102 11469 net.cpp:156] Memory required for data: 532492800
I0714 23:43:22.726109 11469 layer_factory.hpp:77] Creating layer inception_5a/pool
I0714 23:43:22.726122 11469 net.cpp:91] Creating Layer inception_5a/pool
I0714 23:43:22.726128 11469 net.cpp:425] inception_5a/pool <- pool4/3x3_s2_pool4/3x3_s2_0_split_3
I0714 23:43:22.726140 11469 net.cpp:399] inception_5a/pool -> inception_5a/pool
I0714 23:43:22.726256 11469 net.cpp:141] Setting up inception_5a/pool
I0714 23:43:22.726267 11469 net.cpp:148] Top shape: 10 832 7 7 (407680)
I0714 23:43:22.726271 11469 net.cpp:156] Memory required for data: 534123520
I0714 23:43:22.726276 11469 layer_factory.hpp:77] Creating layer inception_5a/pool_proj
I0714 23:43:22.726291 11469 net.cpp:91] Creating Layer inception_5a/pool_proj
I0714 23:43:22.726297 11469 net.cpp:425] inception_5a/pool_proj <- inception_5a/pool
I0714 23:43:22.726310 11469 net.cpp:399] inception_5a/pool_proj -> inception_5a/pool_proj
I0714 23:43:22.730005 11473 net.cpp:141] Setting up loss3/classifier
I0714 23:43:22.730036 11473 net.cpp:148] Top shape: 10 1000 (10000)
I0714 23:43:22.730042 11473 net.cpp:156] Memory required for data: 551493440
I0714 23:43:22.730051 11473 layer_factory.hpp:77] Creating layer prob
I0714 23:43:22.730062 11473 net.cpp:91] Creating Layer prob
I0714 23:43:22.730067 11473 net.cpp:425] prob <- loss3/classifier
I0714 23:43:22.730077 11473 net.cpp:399] prob -> prob
I0714 23:43:22.731741 11473 net.cpp:141] Setting up prob
I0714 23:43:22.731771 11473 net.cpp:148] Top shape: 10 1000 (10000)
I0714 23:43:22.731776 11473 net.cpp:156] Memory required for data: 551533440
I0714 23:43:22.731781 11473 net.cpp:219] prob does not need backward computation.
I0714 23:43:22.731786 11473 net.cpp:219] loss3/classifier does not need backward computation.
I0714 23:43:22.731791 11473 net.cpp:219] pool5/drop_7x7_s1 does not need backward computation.
I0714 23:43:22.731794 11473 net.cpp:219] pool5/7x7_s1 does not need backward computation.
…
I0714 23:43:22.732468 11473 net.cpp:219] pool1/3x3_s2 does not need backward computation.
I0714 23:43:22.732473 11473 net.cpp:219] conv1/relu_7x7 does not need backward computation.
I0714 23:43:22.732476 11473 net.cpp:219] conv1/7x7_s2 does not need backward computation.
I0714 23:43:22.732481 11473 net.cpp:219] data does not need backward computation.
I0714 23:43:22.732484 11473 net.cpp:261] This network produces output prob
I0714 23:43:22.732616 11473 net.cpp:274] Network initialization done.
I0714 23:43:22.733244 11469 net.cpp:141] Setting up inception_5a/relu_pool_proj
I0714 23:43:22.733260 11469 net.cpp:148] Top shape: 10 128 7 7 (62720)
I0714 23:43:22.733265 11469 net.cpp:156] Memory required for data: 534625280
I0714 23:43:22.733273 11469 layer_factory.hpp:77] Creating layer inception_5a/output
I0714 23:43:22.733286 11469 net.cpp:91] Creating Layer inception_5a/output
I0714 23:43:22.733297 11469 net.cpp:425] inception_5a/output <- inception_5a/1x1
I0714 23:43:22.733306 11469 net.cpp:425] inception_5a/output <- inception_5a/3x3
I0714 23:43:22.733311 11469 net.cpp:425] inception_5a/output <- inception_5a/5x5
I0714 23:43:22.733317 11469 net.cpp:425] inception_5a/output <- inception_5a/pool_proj
I0714 23:43:22.733330 11469 net.cpp:399] inception_5a/output -> inception_5a/output
I0714 23:43:22.733407 11469 net.cpp:141] Setting up inception_5a/output
I0714 23:43:22.733418 11469 net.cpp:148] Top shape: 10 832 7 7 (407680)
I0714 23:43:22.733422 11469 net.cpp:156] Memory required for data: 536256000
I0714 23:43:22.733428 11469 layer_factory.hpp:77] Creating layer inception_5a/output_inception_5a/output_0_split
I0714 23:43:22.733436 11469 net.cpp:91] Creating Layer inception_5a/output_inception_5a/output_0_split
I0714 23:43:22.733443 11469 net.cpp:425] inception_5a/output_inception_5a/output_0_split <- inception_5a/output
I0714 23:43:22.733449 11469 net.cpp:399] inception_5a/output_inception_5a/output_0_split -> inception_5a/output_inception_5a/output_0_split_0
I0714 23:43:22.733469 11469 net.cpp:399] inception_5a/output_inception_5a/output_0_split -> inception_5a/output_inception_5a/output_0_split_1
I0714 23:43:22.733480 11469 net.cpp:399] inception_5a/output_inception_5a/output_0_split -> inception_5a/output_inception_5a/output_0_split_2
I0714 23:43:22.733489 11469 net.cpp:399] inception_5a/output_inception_5a/output_0_split -> inception_5a/output_inception_5a/output_0_split_3
I0714 23:43:22.733671 11469 net.cpp:141] Setting up inception_5a/output_inception_5a/output_0_split
I0714 23:43:22.733682 11469 net.cpp:148] Top shape: 10 832 7 7 (407680)
I0714 23:43:22.733688 11469 net.cpp:148] Top shape: 10 832 7 7 (407680)
I0714 23:43:22.733693 11469 net.cpp:148] Top shape: 10 832 7 7 (407680)
I0714 23:43:22.733700 11469 net.cpp:148] Top shape: 10 832 7 7 (407680)
I0714 23:43:22.733703 11469 net.cpp:156] Memory required for data: 542778880
I0714 23:43:22.733708 11469 layer_factory.hpp:77] Creating layer inception_5b/1x1
I0714 23:43:22.733737 11469 net.cpp:91] Creating Layer inception_5b/1x1
I0714 23:43:22.733744 11469 net.cpp:425] inception_5b/1x1 <- inception_5a/output_inception_5a/output_0_split_0
I0714 23:43:22.733754 11469 net.cpp:399] inception_5b/1x1 -> inception_5b/1x1
I0714 23:43:22.742207 11469 net.cpp:141] Setting up inception_5b/1x1
I0714 23:43:22.742230 11469 net.cpp:148] Top shape: 10 384 7 7 (188160)
I0714 23:43:22.742236 11469 net.cpp:156] Memory required for data: 543531520
I0714 23:43:22.742249 11469 layer_factory.hpp:77] Creating layer inception_5b/relu_1x1
I0714 23:43:22.742260 11469 net.cpp:91] Creating Layer inception_5b/relu_1x1
I0714 23:43:22.742266 11469 net.cpp:425] inception_5b/relu_1x1 <- inception_5b/1x1
I0714 23:43:22.742276 11469 net.cpp:386] inception_5b/relu_1x1 -> inception_5b/1x1 (in-place)
I0714 23:43:22.742589 11469 net.cpp:141] Setting up inception_5b/relu_1x1
I0714 23:43:22.742602 11469 net.cpp:148] Top shape: 10 384 7 7 (188160)
I0714 23:43:22.742607 11469 net.cpp:156] Memory required for data: 544284160
I0714 23:43:22.742612 11469 layer_factory.hpp:77] Creating layer inception_5b/3x3_reduce
I0714 23:43:22.742630 11469 net.cpp:91] Creating Layer inception_5b/3x3_reduce
I0714 23:43:22.742637 11469 net.cpp:425] inception_5b/3x3_reduce <- inception_5a/output_inception_5a/output_0_split_1
I0714 23:43:22.742648 11469 net.cpp:399] inception_5b/3x3_reduce -> inception_5b/3x3_reduce
I0714 23:43:22.748443 11469 net.cpp:141] Setting up inception_5b/3x3_reduce
I0714 23:43:22.748464 11469 net.cpp:148] Top shape: 10 192 7 7 (94080)
I0714 23:43:22.748469 11469 net.cpp:156] Memory required for data: 544660480
I0714 23:43:22.748479 11469 layer_factory.hpp:77] Creating layer inception_5b/relu_3x3_reduce
I0714 23:43:22.748493 11469 net.cpp:91] Creating Layer inception_5b/relu_3x3_reduce
I0714 23:43:22.748500 11469 net.cpp:425] inception_5b/relu_3x3_reduce <- inception_5b/3x3_reduce
I0714 23:43:22.748510 11469 net.cpp:386] inception_5b/relu_3x3_reduce -> inception_5b/3x3_reduce (in-place)
I0714 23:43:22.749383 11469 net.cpp:141] Setting up inception_5b/relu_3x3_reduce
I0714 23:43:22.749402 11469 net.cpp:148] Top shape: 10 192 7 7 (94080)
I0714 23:43:22.749406 11469 net.cpp:156] Memory required for data: 545036800
I0714 23:43:22.749411 11469 layer_factory.hpp:77] Creating layer inception_5b/3x3
I0714 23:43:22.749428 11469 net.cpp:91] Creating Layer inception_5b/3x3
I0714 23:43:22.749434 11469 net.cpp:425] inception_5b/3x3 <- inception_5b/3x3_reduce
I0714 23:43:22.749452 11469 net.cpp:399] inception_5b/3x3 -> inception_5b/3x3
I0714 23:43:22.759547 11469 net.cpp:141] Setting up inception_5b/3x3
I0714 23:43:22.759572 11469 net.cpp:148] Top shape: 10 384 7 7 (188160)
I0714 23:43:22.759578 11469 net.cpp:156] Memory required for data: 545789440
I0714 23:43:22.759588 11469 layer_factory.hpp:77] Creating layer inception_5b/relu_3x3
I0714 23:43:22.759601 11469 net.cpp:91] Creating Layer inception_5b/relu_3x3
I0714 23:43:22.759608 11469 net.cpp:425] inception_5b/relu_3x3 <- inception_5b/3x3
I0714 23:43:22.759616 11469 net.cpp:386] inception_5b/relu_3x3 -> inception_5b/3x3 (in-place)
I0714 23:43:22.760507 11469 net.cpp:141] Setting up inception_5b/relu_3x3
I0714 23:43:22.760529 11469 net.cpp:148] Top shape: 10 384 7 7 (188160)
I0714 23:43:22.760534 11469 net.cpp:156] Memory required for data: 546542080
I0714 23:43:22.760540 11469 layer_factory.hpp:77] Creating layer inception_5b/5x5_reduce
I0714 23:43:22.760553 11469 net.cpp:91] Creating Layer inception_5b/5x5_reduce
I0714 23:43:22.760560 11469 net.cpp:425] inception_5b/5x5_reduce <- inception_5a/output_inception_5a/output_0_split_2
I0714 23:43:22.760574 11469 net.cpp:399] inception_5b/5x5_reduce -> inception_5b/5x5_reduce
I0714 23:43:22.763510 11469 net.cpp:141] Setting up inception_5b/5x5_reduce
I0714 23:43:22.763528 11469 net.cpp:148] Top shape: 10 48 7 7 (23520)
I0714 23:43:22.763535 11469 net.cpp:156] Memory required for data: 546636160
I0714 23:43:22.763545 11469 layer_factory.hpp:77] Creating layer inception_5b/relu_5x5_reduce
I0714 23:43:22.764055 11469 net.cpp:91] Creating Layer inception_5b/relu_5x5_reduce
I0714 23:43:22.764077 11469 net.cpp:425] inception_5b/relu_5x5_reduce <- inception_5b/5x5_reduce
I0714 23:43:22.764088 11469 net.cpp:386] inception_5b/relu_5x5_reduce -> inception_5b/5x5_reduce (in-place)
I0714 23:43:22.764427 11469 net.cpp:141] Setting up inception_5b/relu_5x5_reduce
I0714 23:43:22.764444 11469 net.cpp:148] Top shape: 10 48 7 7 (23520)
I0714 23:43:22.764449 11469 net.cpp:156] Memory required for data: 546730240
I0714 23:43:22.764456 11469 layer_factory.hpp:77] Creating layer inception_5b/5x5
I0714 23:43:22.764487 11469 net.cpp:91] Creating Layer inception_5b/5x5
I0714 23:43:22.764494 11469 net.cpp:425] inception_5b/5x5 <- inception_5b/5x5_reduce
I0714 23:43:22.764508 11469 net.cpp:399] inception_5b/5x5 -> inception_5b/5x5
I0714 23:43:22.768447 11469 net.cpp:141] Setting up inception_5b/5x5
I0714 23:43:22.768468 11469 net.cpp:148] Top shape: 10 128 7 7 (62720)
I0714 23:43:22.768476 11469 net.cpp:156] Memory required for data: 546981120
I0714 23:43:22.768487 11469 layer_factory.hpp:77] Creating layer inception_5b/relu_5x5
I0714 23:43:22.768497 11469 net.cpp:91] Creating Layer inception_5b/relu_5x5
I0714 23:43:22.768504 11469 net.cpp:425] inception_5b/relu_5x5 <- inception_5b/5x5
I0714 23:43:22.768512 11469 net.cpp:386] inception_5b/relu_5x5 -> inception_5b/5x5 (in-place)
I0714 23:43:22.769387 11469 net.cpp:141] Setting up inception_5b/relu_5x5
I0714 23:43:22.769405 11469 net.cpp:148] Top shape: 10 128 7 7 (62720)
I0714 23:43:22.769412 11469 net.cpp:156] Memory required for data: 547232000
I0714 23:43:22.769417 11469 layer_factory.hpp:77] Creating layer inception_5b/pool
I0714 23:43:22.769426 11469 net.cpp:91] Creating Layer inception_5b/pool
I0714 23:43:22.769433 11469 net.cpp:425] inception_5b/pool <- inception_5a/output_inception_5a/output_0_split_3
I0714 23:43:22.769441 11469 net.cpp:399] inception_5b/pool -> inception_5b/pool
I0714 23:43:22.769512 11469 net.cpp:141] Setting up inception_5b/pool
I0714 23:43:22.769522 11469 net.cpp:148] Top shape: 10 832 7 7 (407680)
I0714 23:43:22.769527 11469 net.cpp:156] Memory required for data: 548862720
I0714 23:43:22.769531 11469 layer_factory.hpp:77] Creating layer inception_5b/pool_proj
I0714 23:43:22.769547 11469 net.cpp:91] Creating Layer inception_5b/pool_proj
I0714 23:43:22.769554 11469 net.cpp:425] inception_5b/pool_proj <- inception_5b/pool
I0714 23:43:22.769565 11469 net.cpp:399] inception_5b/pool_proj -> inception_5b/pool_proj
I0714 23:43:22.773656 11469 net.cpp:141] Setting up inception_5b/pool_proj
I0714 23:43:22.773677 11469 net.cpp:148] Top shape: 10 128 7 7 (62720)
I0714 23:43:22.773682 11469 net.cpp:156] Memory required for data: 549113600
I0714 23:43:22.773692 11469 layer_factory.hpp:77] Creating layer inception_5b/relu_pool_proj
I0714 23:43:22.773705 11469 net.cpp:91] Creating Layer inception_5b/relu_pool_proj
I0714 23:43:22.773711 11469 net.cpp:425] inception_5b/relu_pool_proj <- inception_5b/pool_proj
I0714 23:43:22.773720 11469 net.cpp:386] inception_5b/relu_pool_proj -> inception_5b/pool_proj (in-place)
I0714 23:43:22.774595 11469 net.cpp:141] Setting up inception_5b/relu_pool_proj
I0714 23:43:22.774612 11469 net.cpp:148] Top shape: 10 128 7 7 (62720)
I0714 23:43:22.774617 11469 net.cpp:156] Memory required for data: 549364480
I0714 23:43:22.774623 11469 layer_factory.hpp:77] Creating layer inception_5b/output
I0714 23:43:22.774636 11469 net.cpp:91] Creating Layer inception_5b/output
I0714 23:43:22.774642 11469 net.cpp:425] inception_5b/output <- inception_5b/1x1
I0714 23:43:22.774649 11469 net.cpp:425] inception_5b/output <- inception_5b/3x3
I0714 23:43:22.774655 11469 net.cpp:425] inception_5b/output <- inception_5b/5x5
I0714 23:43:22.774662 11469 net.cpp:425] inception_5b/output <- inception_5b/pool_proj
I0714 23:43:22.774667 11469 net.cpp:399] inception_5b/output -> inception_5b/output
I0714 23:43:22.774729 11469 net.cpp:141] Setting up inception_5b/output
I0714 23:43:22.774741 11469 net.cpp:148] Top shape: 10 1024 7 7 (501760)
I0714 23:43:22.774745 11469 net.cpp:156] Memory required for data: 551371520
I0714 23:43:22.774750 11469 layer_factory.hpp:77] Creating layer pool5/7x7_s1
I0714 23:43:22.774758 11469 net.cpp:91] Creating Layer pool5/7x7_s1
I0714 23:43:22.774763 11469 net.cpp:425] pool5/7x7_s1 <- inception_5b/output
I0714 23:43:22.774777 11469 net.cpp:399] pool5/7x7_s1 -> pool5/7x7_s1
I0714 23:43:22.775135 11469 net.cpp:141] Setting up pool5/7x7_s1
I0714 23:43:22.775151 11469 net.cpp:148] Top shape: 10 1024 1 1 (10240)
I0714 23:43:22.775156 11469 net.cpp:156] Memory required for data: 551412480
I0714 23:43:22.775161 11469 layer_factory.hpp:77] Creating layer pool5/drop_7x7_s1
I0714 23:43:22.775171 11469 net.cpp:91] Creating Layer pool5/drop_7x7_s1
I0714 23:43:22.775177 11469 net.cpp:425] pool5/drop_7x7_s1 <- pool5/7x7_s1
I0714 23:43:22.775182 11469 net.cpp:386] pool5/drop_7x7_s1 -> pool5/7x7_s1 (in-place)
I0714 23:43:22.775226 11469 net.cpp:141] Setting up pool5/drop_7x7_s1
I0714 23:43:22.775235 11469 net.cpp:148] Top shape: 10 1024 1 1 (10240)
I0714 23:43:22.775240 11469 net.cpp:156] Memory required for data: 551453440
I0714 23:43:22.775244 11469 layer_factory.hpp:77] Creating layer loss3/classifier
I0714 23:43:22.775259 11469 net.cpp:91] Creating Layer loss3/classifier
I0714 23:43:22.775264 11469 net.cpp:425] loss3/classifier <- pool5/7x7_s1
I0714 23:43:22.775271 11469 net.cpp:399] loss3/classifier -> loss3/classifier
I0714 23:43:22.784723 11473 upgrade_proto.cpp:52] Attempting to upgrade input file specified using deprecated V1LayerParameter: /tmp/cvld6379953663353717581/bvlc_googlenet.caffemodel
I0714 23:43:22.786834 11469 net.cpp:141] Setting up loss3/classifier
I0714 23:43:22.786856 11469 net.cpp:148] Top shape: 10 1000 (10000)
I0714 23:43:22.786861 11469 net.cpp:156] Memory required for data: 551493440
I0714 23:43:22.786872 11469 layer_factory.hpp:77] Creating layer prob
I0714 23:43:22.786888 11469 net.cpp:91] Creating Layer prob
I0714 23:43:22.786895 11469 net.cpp:425] prob <- loss3/classifier
I0714 23:43:22.786903 11469 net.cpp:399] prob -> prob
I0714 23:43:22.788019 11469 net.cpp:141] Setting up prob
I0714 23:43:22.788036 11469 net.cpp:148] Top shape: 10 1000 (10000)
I0714 23:43:22.788041 11469 net.cpp:156] Memory required for data: 551533440
I0714 23:43:22.788048 11469 net.cpp:219] prob does not need backward computation.
I0714 23:43:22.788053 11469 net.cpp:219] loss3/classifier does not need backward computation.
I0714 23:43:22.788058 11469 net.cpp:219] pool5/drop_7x7_s1 does not need backward computation.
I0714 23:43:22.788063 11469 net.cpp:219] pool5/7x7_s1 does not need backward computation.
…
