…
Java HotSpot(TM) 64-Bit Server VM warning: You have loaded library /tmp/cvld1649438614371306489/libopencv_java310.xine1.so which might have disabled stack guard. The VM will try to fix the stack guard now.
It's highly recommended that you fix the library with 'execstack -c <libfile>', or link it with '-z noexecstack'.
WARNING: Logging before InitGoogleLogging() is written to STDERR
I0720 14:32:25.444886 23348 net.cpp:49] Initializing net from parameters: 
name: "CaffeNet"
state {
  phase: TEST
}
layer {
  name: "data"
  type: "Input"
  top: "data"
  input_param {
    shape {
      dim: 10
      dim: 3
      dim: 227
      dim: 227
    }
  }
}
layer {
  name: "conv1"
  type: "Convolution"
  bottom: "data"
  top: "conv1"
  convolution_param {
    num_output: 96
    kernel_size: 11
    stride: 4
  }
}
layer {
  name: "relu1"
  type: "ReLU"
  bottom: "conv1"
  top: "conv1"
}
layer {
  name: "pool1"
  type: "Pooling"
  bottom: "conv1"
  top: "pool1"
  pooling_param {
    pool: MAX
    kernel_size: 3
    stride: 2
  }
}
layer {
  name: "norm1"
  type: "LRN"
  bottom: "pool1"
  top: "norm1"
  lrn_param {
    local_size: 5
    alpha: 0.0001
    beta: 0.75
  }
}
layer {
  name: "conv2"
  type: "Convolution"
  bottom: "norm1"
  top: "conv2"
  convolution_param {
    num_output: 256
    pad: 2
    kernel_size: 5
    group: 2
  }
}
layer {
  name: "relu2"
  type: "ReLU"
  bottom: "conv2"
  top: "conv2"
}
layer {
  name: "pool2"
  type: "Pooling"
  bottom: "conv2"
  top: "pool2"
  pooling_param {
    pool: MAX
    kernel_size: 3
    stride: 2
  }
}
layer {
  name: "norm2"
  type: "LRN"
  bottom: "pool2"
  top: "norm2"
  lrn_param {
    local_size: 5
    alpha: 0.0001
    beta: 0.75
  }
}
layer {
  name: "conv3"
  type: "Convolution"
  bottom: "norm2"
  top: "conv3"
  convolution_param {
    num_output: 384
    pad: 1
    kernel_size: 3
  }
}
layer {
  name: "relu3"
  type: "ReLU"
  bottom: "conv3"
  top: "conv3"
}
layer {
  name: "conv4"
  type: "Convolution"
  bottom: "conv3"
  top: "conv4"
  convolution_param {
    num_output: 384
    pad: 1
    kernel_size: 3
    group: 2
  }
}
layer {
  name: "relu4"
  type: "ReLU"
  bottom: "conv4"
  top: "conv4"
}
layer {
  name: "conv5"
  type: "Convolution"
  bottom: "conv4"
  top: "conv5"
  convolution_param {
    num_output: 256
    pad: 1
    kernel_size: 3
    group: 2
  }
}
layer {
  name: "relu5"
  type: "ReLU"
  bottom: "conv5"
  top: "conv5"
}
layer {
  name: "pool5"
  type: "Pooling"
  bottom: "conv5"
  top: "pool5"
  pooling_param {
    pool: MAX
    kernel_size: 3
    stride: 2
  }
}
layer {
  name: "fc6"
  type: "InnerProduct"
  bottom: "pool5"
  top: "fc6"
  inner_product_param {
    num_output: 4096
  }
}
layer {
  name: "relu6"
  type: "ReLU"
  bottom: "fc6"
  top: "fc6"
}
layer {
  name: "drop6"
  type: "Dropout"
  bottom: "fc6"
  top: "fc6"
  dropout_param {
    dropout_ratio: 0.5
  }
}
layer {
  name: "fc7"
  type: "InnerProduct"
  bottom: "fc6"
  top: "fc7"
  inner_product_param {
    num_output: 4096
  }
}
layer {
  name: "relu7"
  type: "ReLU"
  bottom: "fc7"
  top: "fc7"
}
layer {
  name: "drop7"
  type: "Dropout"
  bottom: "fc7"
  top: "fc7"
  dropout_param {
    dropout_ratio: 0.5
  }
}
layer {
  name: "fc8"
  type: "InnerProduct"
  bottom: "fc7"
  top: "fc8"
  inner_product_param {
    num_output: 1000
  }
}
layer {
  name: "prob"
  type: "Softmax"
  bottom: "fc8"
  top: "prob"
}
I0720 14:32:25.445111 23348 layer_factory.hpp:77] Creating layer data
I0720 14:32:25.445139 23348 net.cpp:91] Creating Layer data
I0720 14:32:25.445158 23348 net.cpp:399] data -> data
I0720 14:32:25.892323 23344 upgrade_proto.cpp:66] Attempting to upgrade input file specified using deprecated input fields: /tmp/cvld1649438614371306489/s2vt.words_to_preds.prototxt
I0720 14:32:25.892379 23344 upgrade_proto.cpp:69] Successfully upgraded file specified using deprecated input fields.
W0720 14:32:25.892391 23344 upgrade_proto.cpp:71] Note that future Caffe releases will only support input layers and not input fields.
I0720 14:32:25.892833 23344 net.cpp:49] Initializing net from parameters: 
name: "s2vt:features_to_lstm"
state {
  phase: TEST
}
layer {
  name: "input"
  type: "Input"
  top: "frames_fc7"
  top: "cont_sentence"
  top: "input_sentence"
  top: "stage_indicator"
  input_param {
    shape {
      dim: 1
      dim: 4096
    }
    shape {
      dim: 1
      dim: 1
    }
    shape {
      dim: 1
      dim: 1
    }
    shape {
      dim: 1
      dim: 1
    }
  }
}
layer {
  name: "embed_encoder"
  type: "InnerProduct"
  bottom: "frames_fc7"
  top: "embedded_in_frames"
  param {
    lr_mult: 1
    decay_mult: 1
  }
  param {
    lr_mult: 2
    decay_mult: 0
  }
  inner_product_param {
    num_output: 500
    weight_filler {
      type: "xavier"
    }
    bias_filler {
      type: "constant"
      value: 0.2
    }
  }
}
layer {
  name: "reshape_frames"
  type: "Reshape"
  bottom: "embedded_in_frames"
  top: "embedded_input_frames"
  reshape_param {
    shape {
      dim: 1
      dim: 1
      dim: 500
    }
  }
}
layer {
  name: "reshape_stage_indicator"
  type: "Reshape"
  bottom: "stage_indicator"
  top: "reshaped_stage_indicator"
  reshape_param {
    shape {
      dim: 1
      dim: 1
      dim: 1
    }
  }
}
layer {
  name: "embedding"
  type: "Embed"
  bottom: "input_sentence"
  top: "embedded_input_sentence"
  param {
    lr_mult: 1
  }
  embed_param {
    num_output: 500
    input_dim: 46168
    bias_term: false
    weight_filler {
      type: "uniform"
      min: -0.08
      max: 0.08
    }
  }
}
layer {
  name: "lstm1"
  type: "LSTM"
  bottom: "embedded_input_frames"
  bottom: "cont_sentence"
  top: "lstm1"
  recurrent_param {
    num_output: 1000
    weight_filler {
      type: "uniform"
      min: -0.08
      max: 0.08
    }
    bias_filler {
      type: "constant"
      value: 0
    }
  }
}
layer {
  name: "concat"
  type: "Concat"
  bottom: "lstm1"
  bottom: "embedded_input_sentence"
  bottom: "reshaped_stage_indicator"
  top: "lstm1_video_sequence"
  concat_param {
    concat_dim: 2
  }
}
layer {
  name: "lstm2"
  type: "LSTM"
  bottom: "lstm1_video_sequence"
  bottom: "cont_sentence"
  top: "lstm2"
  recurrent_param {
    num_output: 1000
    weight_filler {
      type: "uniform"
      min: -0.08
      max: 0.08
    }
    bias_filler {
      type: "constant"
      value: 0
    }
  }
}
layer {
  name: "predict"
  type: "InnerProduct"
  bottom: "lstm2"
  top: "predict"
  param {
    lr_mult: 1
    decay_mult: 1
  }
  param {
    lr_mult: 2
    decay_mult: 0
  }
  inner_product_param {
    num_output: 46168
    weight_filler {
      type: "uniform"
      min: -0.08
      max: 0.08
    }
    bias_filler {
      type: "constant"
      value: 0
    }
    axis: 2
  }
}
layer {
  name: "probs"
  type: "Softmax"
  bottom: "predict"
  top: "probs"
  softmax_param {
    axis: 2
  }
}
I0720 14:32:25.893020 23344 layer_factory.hpp:77] Creating layer input
I0720 14:32:25.893045 23344 net.cpp:91] Creating Layer input
I0720 14:32:25.893061 23344 net.cpp:399] input -> frames_fc7
I0720 14:32:25.893086 23344 net.cpp:399] input -> cont_sentence
I0720 14:32:25.893115 23344 net.cpp:399] input -> input_sentence
I0720 14:32:25.893133 23344 net.cpp:399] input -> stage_indicator
I0720 14:32:25.893158 23344 net.cpp:141] Setting up input
I0720 14:32:25.893182 23368 upgrade_proto.cpp:66] Attempting to upgrade input file specified using deprecated input fields: /tmp/cvld1649438614371306489/s2vt.words_to_preds.prototxt
I0720 14:32:25.893187 23344 net.cpp:148] Top shape: 1 4096 (4096)
I0720 14:32:25.893211 23368 upgrade_proto.cpp:69] Successfully upgraded file specified using deprecated input fields.
I0720 14:32:25.893214 23344 net.cpp:148] Top shape: 1 1 (1)
W0720 14:32:25.893219 23368 upgrade_proto.cpp:71] Note that future Caffe releases will only support input layers and not input fields.
I0720 14:32:25.893226 23344 net.cpp:148] Top shape: 1 1 (1)
I0720 14:32:25.893239 23344 net.cpp:148] Top shape: 1 1 (1)
I0720 14:32:25.893245 23344 net.cpp:156] Memory required for data: 16396
I0720 14:32:25.893267 23344 layer_factory.hpp:77] Creating layer cont_sentence_input_1_split
I0720 14:32:25.893296 23344 net.cpp:91] Creating Layer cont_sentence_input_1_split
I0720 14:32:25.893311 23344 net.cpp:425] cont_sentence_input_1_split <- cont_sentence
I0720 14:32:25.893340 23344 net.cpp:399] cont_sentence_input_1_split -> cont_sentence_input_1_split_0
I0720 14:32:25.893357 23344 net.cpp:399] cont_sentence_input_1_split -> cont_sentence_input_1_split_1
I0720 14:32:25.893383 23344 net.cpp:141] Setting up cont_sentence_input_1_split
I0720 14:32:25.893394 23344 net.cpp:148] Top shape: 1 1 (1)
I0720 14:32:25.893404 23344 net.cpp:148] Top shape: 1 1 (1)
I0720 14:32:25.893410 23344 net.cpp:156] Memory required for data: 16404
I0720 14:32:25.893419 23344 layer_factory.hpp:77] Creating layer embed_encoder
I0720 14:32:25.893440 23344 net.cpp:91] Creating Layer embed_encoder
I0720 14:32:25.893450 23344 net.cpp:425] embed_encoder <- frames_fc7
I0720 14:32:25.893462 23344 net.cpp:399] embed_encoder -> embedded_in_frames
I0720 14:32:25.893496 23368 net.cpp:49] Initializing net from parameters: 
name: "s2vt:features_to_lstm"
state {
  phase: TEST
}
layer {
  name: "input"
  type: "Input"
  top: "frames_fc7"
  top: "cont_sentence"
  top: "input_sentence"
  top: "stage_indicator"
  input_param {
    shape {
      dim: 1
      dim: 4096
    }
    shape {
      dim: 1
      dim: 1
    }
    shape {
      dim: 1
      dim: 1
    }
    shape {
      dim: 1
      dim: 1
    }
  }
}
layer {
  name: "embed_encoder"
  type: "InnerProduct"
  bottom: "frames_fc7"
  top: "embedded_in_frames"
  param {
    lr_mult: 1
    decay_mult: 1
  }
  param {
    lr_mult: 2
    decay_mult: 0
  }
  inner_product_param {
    num_output: 500
    weight_filler {
      type: "xavier"
    }
    bias_filler {
      type: "constant"
      value: 0.2
    }
  }
}
layer {
  name: "reshape_frames"
  type: "Reshape"
  bottom: "embedded_in_frames"
  top: "embedded_input_frames"
  reshape_param {
    shape {
      dim: 1
      dim: 1
      dim: 500
    }
  }
}
layer {
  name: "reshape_stage_indicator"
  type: "Reshape"
  bottom: "stage_indicator"
  top: "reshaped_stage_indicator"
  reshape_param {
    shape {
      dim: 1
      dim: 1
      dim: 1
    }
  }
}
layer {
  name: "embedding"
  type: "Embed"
  bottom: "input_sentence"
  top: "embedded_input_sentence"
  param {
    lr_mult: 1
  }
  embed_param {
    num_output: 500
    input_dim: 46168
    bias_term: false
    weight_filler {
      type: "uniform"
      min: -0.08
      max: 0.08
    }
  }
}
layer {
  name: "lstm1"
  type: "LSTM"
  bottom: "embedded_input_frames"
  bottom: "cont_sentence"
  top: "lstm1"
  recurrent_param {
    num_output: 1000
    weight_filler {
      type: "uniform"
      min: -0.08
      max: 0.08
    }
    bias_filler {
      type: "constant"
      value: 0
    }
  }
}
layer {
  name: "concat"
  type: "Concat"
  bottom: "lstm1"
  bottom: "embedded_input_sentence"
  bottom: "reshaped_stage_indicator"
  top: "lstm1_video_sequence"
  concat_param {
    concat_dim: 2
  }
}
layer {
  name: "lstm2"
  type: "LSTM"
  bottom: "lstm1_video_sequence"
  bottom: "cont_sentence"
  top: "lstm2"
  recurrent_param {
    num_output: 1000
    weight_filler {
      type: "uniform"
      min: -0.08
      max: 0.08
    }
    bias_filler {
      type: "constant"
      value: 0
    }
  }
}
layer {
  name: "predict"
  type: "InnerProduct"
  bottom: "lstm2"
  top: "predict"
  param {
    lr_mult: 1
    decay_mult: 1
  }
  param {
    lr_mult: 2
    decay_mult: 0
  }
  inner_product_param {
    num_output: 46168
    weight_filler {
      type: "uniform"
      min: -0.08
      max: 0.08
    }
    bias_filler {
      type: "constant"
      value: 0
    }
    axis: 2
  }
}
layer {
  name: "probs"
  type: "Softmax"
  bottom: "predict"
  top: "probs"
  softmax_param {
    axis: 2
  }
}
I0720 14:32:25.893604 23368 layer_factory.hpp:77] Creating layer input
I0720 14:32:25.893618 23368 net.cpp:91] Creating Layer input
I0720 14:32:25.893630 23368 net.cpp:399] input -> frames_fc7
I0720 14:32:25.893646 23368 net.cpp:399] input -> cont_sentence
I0720 14:32:25.893662 23368 net.cpp:399] input -> input_sentence
I0720 14:32:25.893676 23368 net.cpp:399] input -> stage_indicator
I0720 14:32:25.893692 23368 net.cpp:141] Setting up input
I0720 14:32:25.893703 23368 net.cpp:148] Top shape: 1 4096 (4096)
I0720 14:32:25.893712 23368 net.cpp:148] Top shape: 1 1 (1)
I0720 14:32:25.893720 23368 net.cpp:148] Top shape: 1 1 (1)
I0720 14:32:25.893728 23368 net.cpp:148] Top shape: 1 1 (1)
I0720 14:32:25.893734 23368 net.cpp:156] Memory required for data: 16396
I0720 14:32:25.893741 23368 layer_factory.hpp:77] Creating layer cont_sentence_input_1_split
I0720 14:32:25.893751 23368 net.cpp:91] Creating Layer cont_sentence_input_1_split
I0720 14:32:25.893759 23368 net.cpp:425] cont_sentence_input_1_split <- cont_sentence
I0720 14:32:25.893769 23368 net.cpp:399] cont_sentence_input_1_split -> cont_sentence_input_1_split_0
I0720 14:32:25.893779 23368 net.cpp:399] cont_sentence_input_1_split -> cont_sentence_input_1_split_1
I0720 14:32:25.893792 23368 net.cpp:141] Setting up cont_sentence_input_1_split
I0720 14:32:25.893802 23368 net.cpp:148] Top shape: 1 1 (1)
I0720 14:32:25.893810 23368 net.cpp:148] Top shape: 1 1 (1)
I0720 14:32:25.893818 23368 net.cpp:156] Memory required for data: 16404
I0720 14:32:25.893826 23368 layer_factory.hpp:77] Creating layer embed_encoder
I0720 14:32:25.893841 23368 net.cpp:91] Creating Layer embed_encoder
I0720 14:32:25.893848 23368 net.cpp:425] embed_encoder <- frames_fc7
I0720 14:32:25.893862 23368 net.cpp:399] embed_encoder -> embedded_in_frames
I0720 14:32:25.894309 23340 upgrade_proto.cpp:66] Attempting to upgrade input file specified using deprecated input fields: /tmp/cvld1649438614371306489/s2vt.words_to_preds.prototxt
I0720 14:32:25.894330 23340 upgrade_proto.cpp:69] Successfully upgraded file specified using deprecated input fields.
W0720 14:32:25.894336 23340 upgrade_proto.cpp:71] Note that future Caffe releases will only support input layers and not input fields.
I0720 14:32:25.895275 23340 net.cpp:49] Initializing net from parameters: 
name: "s2vt:features_to_lstm"
state {
  phase: TEST
}
layer {
  name: "input"
  type: "Input"
  top: "frames_fc7"
  top: "cont_sentence"
  top: "input_sentence"
  top: "stage_indicator"
  input_param {
    shape {
      dim: 1
      dim: 4096
    }
    shape {
      dim: 1
      dim: 1
    }
    shape {
      dim: 1
      dim: 1
    }
    shape {
      dim: 1
      dim: 1
    }
  }
}
layer {
  name: "embed_encoder"
  type: "InnerProduct"
  bottom: "frames_fc7"
  top: "embedded_in_frames"
  param {
    lr_mult: 1
    decay_mult: 1
  }
  param {
    lr_mult: 2
    decay_mult: 0
  }
  inner_product_param {
    num_output: 500
    weight_filler {
      type: "xavier"
    }
    bias_filler {
      type: "constant"
      value: 0.2
    }
  }
}
layer {
  name: "reshape_frames"
  type: "Reshape"
  bottom: "embedded_in_frames"
  top: "embedded_input_frames"
  reshape_param {
    shape {
      dim: 1
      dim: 1
      dim: 500
    }
  }
}
layer {
  name: "reshape_stage_indicator"
  type: "Reshape"
  bottom: "stage_indicator"
  top: "reshaped_stage_indicator"
  reshape_param {
    shape {
      dim: 1
      dim: 1
      dim: 1
    }
  }
}
layer {
  name: "embedding"
  type: "Embed"
  bottom: "input_sentence"
  top: "embedded_input_sentence"
  param {
    lr_mult: 1
  }
  embed_param {
    num_output: 500
    input_dim: 46168
    bias_term: false
    weight_filler {
      type: "uniform"
      min: -0.08
      max: 0.08
    }
  }
}
layer {
  name: "lstm1"
  type: "LSTM"
  bottom: "embedded_input_frames"
  bottom: "cont_sentence"
  top: "lstm1"
  recurrent_param {
    num_output: 1000
    weight_filler {
      type: "uniform"
      min: -0.08
      max: 0.08
    }
    bias_filler {
      type: "constant"
      value: 0
    }
  }
}
layer {
  name: "concat"
  type: "Concat"
  bottom: "lstm1"
  bottom: "embedded_input_sentence"
  bottom: "reshaped_stage_indicator"
  top: "lstm1_video_sequence"
  concat_param {
    concat_dim: 2
  }
}
layer {
  name: "lstm2"
  type: "LSTM"
  bottom: "lstm1_video_sequence"
  bottom: "cont_sentence"
  top: "lstm2"
  recurrent_param {
    num_output: 1000
    weight_filler {
      type: "uniform"
      min: -0.08
      max: 0.08
    }
    bias_filler {
      type: "constant"
      value: 0
    }
  }
}
layer {
  name: "predict"
  type: "InnerProduct"
  bottom: "lstm2"
  top: "predict"
  param {
    lr_mult: 1
    decay_mult: 1
  }
  param {
    lr_mult: 2
    decay_mult: 0
  }
  inner_product_param {
    num_output: 46168
    weight_filler {
      type: "uniform"
      min: -0.08
      max: 0.08
    }
    bias_filler {
      type: "constant"
      value: 0
    }
    axis: 2
  }
}
layer {
  name: "probs"
  type: "Softmax"
  bottom: "predict"
  top: "probs"
  softmax_param {
    axis: 2
  }
}
I0720 14:32:25.895402 23340 layer_factory.hpp:77] Creating layer input
I0720 14:32:25.895422 23340 net.cpp:91] Creating Layer input
I0720 14:32:25.895421 23350 upgrade_proto.cpp:66] Attempting to upgrade input file specified using deprecated input fields: /tmp/cvld1649438614371306489/s2vt.words_to_preds.prototxt
I0720 14:32:25.895437 23340 net.cpp:399] input -> frames_fc7
I0720 14:32:25.895444 23350 upgrade_proto.cpp:69] Successfully upgraded file specified using deprecated input fields.
W0720 14:32:25.895453 23350 upgrade_proto.cpp:71] Note that future Caffe releases will only support input layers and not input fields.
I0720 14:32:25.895454 23340 net.cpp:399] input -> cont_sentence
I0720 14:32:25.895473 23340 net.cpp:399] input -> input_sentence
I0720 14:32:25.895490 23340 net.cpp:399] input -> stage_indicator
I0720 14:32:25.895509 23340 net.cpp:141] Setting up input
I0720 14:32:25.895520 23340 net.cpp:148] Top shape: 1 4096 (4096)
I0720 14:32:25.895530 23340 net.cpp:148] Top shape: 1 1 (1)
I0720 14:32:25.895540 23340 net.cpp:148] Top shape: 1 1 (1)
I0720 14:32:25.895551 23340 net.cpp:148] Top shape: 1 1 (1)
I0720 14:32:25.895558 23340 net.cpp:156] Memory required for data: 16396
I0720 14:32:25.895566 23340 layer_factory.hpp:77] Creating layer cont_sentence_input_1_split
I0720 14:32:25.895581 23340 net.cpp:91] Creating Layer cont_sentence_input_1_split
I0720 14:32:25.895588 23340 net.cpp:425] cont_sentence_input_1_split <- cont_sentence
I0720 14:32:25.895601 23340 net.cpp:399] cont_sentence_input_1_split -> cont_sentence_input_1_split_0
I0720 14:32:25.895614 23340 net.cpp:399] cont_sentence_input_1_split -> cont_sentence_input_1_split_1
I0720 14:32:25.895629 23340 net.cpp:141] Setting up cont_sentence_input_1_split
I0720 14:32:25.895642 23340 net.cpp:148] Top shape: 1 1 (1)
I0720 14:32:25.895650 23340 net.cpp:148] Top shape: 1 1 (1)
I0720 14:32:25.895658 23340 net.cpp:156] Memory required for data: 16404
I0720 14:32:25.895665 23340 layer_factory.hpp:77] Creating layer embed_encoder
I0720 14:32:25.895683 23340 net.cpp:91] Creating Layer embed_encoder
I0720 14:32:25.895690 23340 net.cpp:425] embed_encoder <- frames_fc7
I0720 14:32:25.895706 23340 net.cpp:399] embed_encoder -> embedded_in_frames
I0720 14:32:25.895728 23342 upgrade_proto.cpp:66] Attempting to upgrade input file specified using deprecated input fields: /tmp/cvld1649438614371306489/s2vt.words_to_preds.prototxt
…
W0720 14:32:25.895830 23336 upgrade_proto.cpp:71] Note that future Caffe releases will only support input layers and not input fields.
I0720 14:32:25.895828 23350 net.cpp:49] Initializing net from parameters: 
name: "s2vt:features_to_lstm"
state {
  phase: TEST
}
layer {
  name: "input"
  type: "Input"
  top: "frames_fc7"
  top: "cont_sentence"
  top: "input_sentence"
  top: "stage_indicator"
  input_param {
    shape {
      dim: 1
      dim: 4096
    }
    shape {
      dim: 1
      dim: 1
    }
    shape {
      dim: 1
      dim: 1
    }
    shape {
      dim: 1
      dim: 1
    }
  }
}
layer {
  name: "embed_encoder"
  type: "InnerProduct"
  bottom: "frames_fc7"
  top: "embedded_in_frames"
  param {
    lr_mult: 1
    decay_mult: 1
  }
  param {
    lr_mult: 2
    decay_mult: 0
  }
  inner_product_param {
    num_output: 500
    weight_filler {
      type: "xavier"
    }
    bias_filler {
      type: "constant"
      value: 0.2
    }
  }
}
layer {
  name: "reshape_frames"
  type: "Reshape"
  bottom: "embedded_in_frames"
  top: "embedded_input_frames"
  reshape_param {
    shape {
      dim: 1
      dim: 1
      dim: 500
    }
  }
}
layer {
  name: "reshape_stage_indicator"
  type: "Reshape"
  bottom: "stage_indicator"
  top: "reshaped_stage_indicator"
  reshape_param {
    shape {
      dim: 1
      dim: 1
      dim: 1
    }
  }
}
layer {
  name: "embedding"
  type: "Embed"
  bottom: "input_sentence"
  top: "embedded_input_sentence"
  param {
    lr_mult: 1
  }
  embed_param {
    num_output: 500
    input_dim: 46168
    bias_term: false
    weight_filler {
      type: "uniform"
      min: -0.08
      max: 0.08
    }
  }
}
layer {
  name: "lstm1"
  type: "LSTM"
  bottom: "embedded_input_frames"
  bottom: "cont_sentence"
  top: "lstm1"
  recurrent_param {
    num_output: 1000
    weight_filler {
      type: "uniform"
      min: -0.08
      max: 0.08
    }
    bias_filler {
      type: "constant"
      value: 0
    }
  }
}
layer {
  name: "concat"
  type: "Concat"
  bottom: "lstm1"
  bottom: "embedded_input_sentence"
  bottom: "reshaped_stage_indicator"
  top: "lstm1_video_sequence"
  concat_param {
    concat_dim: 2
  }
}
layer {
  name: "lstm2"
  type: "LSTM"
  bottom: "lstm1_video_sequence"
  bottom: "cont_sentence"
  top: "lstm2"
  recurrent_param {
    num_output: 1000
    weight_filler {
      type: "uniform"
      min: -0.08
      max: 0.08
    }
    bias_filler {
      type: "constant"
      value: 0
    }
  }
}
layer {
  name: "predict"
  type: "InnerProduct"
  bottom: "lstm2"
  top: "predict"
  param {
    lr_mult: 1
    decay_mult: 1
  }
  param {
    lr_mult: 2
    decay_mult: 0
  }
  inner_product_param {
    num_output: 46168
    weight_filler {
      type: "uniform"
      min: -0.08
      max: 0.08
    }
    bias_filler {
      type: "constant"
      value: 0
    }
    axis: 2
  }
}
layer {
  name: "probs"
  type: "Softmax"
  bottom: "predict"
  top: "probs"
  softmax_param {
    axis: 2
  }
}
I0720 14:32:25.895959 23350 layer_factory.hpp:77] Creating layer input
I0720 14:32:25.895977 23350 net.cpp:91] Creating Layer input
I0720 14:32:25.895989 23350 net.cpp:399] input -> frames_fc7
I0720 14:32:25.896008 23350 net.cpp:399] input -> cont_sentence
I0720 14:32:25.896024 23350 net.cpp:399] input -> input_sentence
I0720 14:32:25.896042 23350 net.cpp:399] input -> stage_indicator
I0720 14:32:25.896062 23350 net.cpp:141] Setting up input
I0720 14:32:25.896075 23350 net.cpp:148] Top shape: 1 4096 (4096)
I0720 14:32:25.896086 23350 net.cpp:148] Top shape: 1 1 (1)
I0720 14:32:25.896096 23350 net.cpp:148] Top shape: 1 1 (1)
I0720 14:32:25.896107 23350 net.cpp:148] Top shape: 1 1 (1)
I0720 14:32:25.896116 23350 net.cpp:156] Memory required for data: 16396
I0720 14:32:25.896126 23350 layer_factory.hpp:77] Creating layer cont_sentence_input_1_split
I0720 14:32:25.896137 23350 net.cpp:91] Creating Layer cont_sentence_input_1_split
I0720 14:32:25.896145 23350 net.cpp:425] cont_sentence_input_1_split <- cont_sentence
I0720 14:32:25.896158 23350 net.cpp:399] cont_sentence_input_1_split -> cont_sentence_input_1_split_0
I0720 14:32:25.896162 23354 net.cpp:49] Initializing net from parameters: 
name: "s2vt:features_to_lstm"
state {
  phase: TEST
}
layer {
  name: "input"
  type: "Input"
  top: "frames_fc7"
  top: "cont_sentence"
  top: "input_sentence"
  top: "stage_indicator"
  input_param {
    shape {
      dim: 1
      dim: 4096
    }
    shape {
      dim: 1
      dim: 1
    }
    shape {
      dim: 1
      dim: 1
    }
    shape {
      dim: 1
      dim: 1
    }
  }
}
layer {
  name: "embed_encoder"
  type: "InnerProduct"
  bottom: "frames_fc7"
  top: "embedded_in_frames"
  param {
    lr_mult: 1
    decay_mult: 1
  }
  param {
    lr_mult: 2
    decay_mult: 0
  }
  inner_product_param {
    num_output: 500
    weight_filler {
      type: "xavier"
    }
    bias_filler {
      type: "constant"
      value: 0.2
    }
  }
}
layer {
  name: "reshape_frames"
  type: "Reshape"
  bottom: "embedded_in_frames"
  top: "embedded_input_frames"
  reshape_param {
    shape {
      dim: 1
      dim: 1
      dim: 500
    }
  }
}
layer {
  name: "reshape_stage_indicator"
  type: "Reshape"
  bottom: "stage_indicator"
  top: "reshaped_stage_indicator"
  reshape_param {
    shape {
      dim: 1
      dim: 1
      dim: 1
    }
  }
}
layer {
  name: "embedding"
  type: "Embed"
  bottom: "input_sentence"
  top: "embedded_input_sentence"
  param {
    lr_mult: 1
  }
  embed_param {
    num_output: 500
    input_dim: 46168
    bias_term: false
    weight_filler {
      type: "uniform"
      min: -0.08
      max: 0.08
    }
  }
}
layer {
  name: "lstm1"
  type: "LSTM"
  bottom: "embedded_input_frames"
  bottom: "cont_sentence"
  top: "lstm1"
  recurrent_param {
    num_output: 1000
    weight_filler {
      type: "uniform"
      min: -0.08
      max: 0.08
    }
    bias_filler {
      type: "constant"
      value: 0
    }
  }
}
layer {
  name: "concat"
  type: "Concat"
  bottom: "lstm1"
  bottom: "embedded_input_sentence"
  bottom: "reshaped_stage_indicator"
  top: "lstm1_video_sequence"
  concat_param {
    concat_dim: 2
  }
}
layer {
  name: "lstm2"
  type: "LSTM"
  bottom: "lstm1_video_sequence"
  bottom: "cont_sentence"
  top: "lstm2"
  recurrent_param {
    num_output: 1000
    weight_filler {
      type: "uniform"
      min: -0.08
      max: 0.08
    }
    bias_filler {
      type: "constant"
      value: 0
    }
  }
}
layer {
  name: "predict"
  type: "InnerProduct"
  bottom: "lstm2"
  top: "predict"
  param {
    lr_mult: 1
    decay_mult: 1
  }
  param {
    lr_mult: 2
    decay_mult: 0
  }
  inner_product_param {
    num_output: 46168
    weight_filler {
      type: "uniform"
      min: -0.08
      max: 0.08
    }
    bias_filler {
      type: "constant"
      value: 0
    }
    axis: 2
  }
}
layer {
  name: "probs"
  type: "Softmax"
  bottom: "predict"
  top: "probs"
  softmax_param {
    axis: 2
  }
}
I0720 14:32:25.896173 23350 net.cpp:399] cont_sentence_input_1_split -> cont_sentence_input_1_split_1
I0720 14:32:25.896188 23350 net.cpp:141] Setting up cont_sentence_input_1_split
I0720 14:32:25.896200 23350 net.cpp:148] Top shape: 1 1 (1)
I0720 14:32:25.896204 23336 net.cpp:49] Initializing net from parameters: 
name: "s2vt:features_to_lstm"
state {
  phase: TEST
}
layer {
  name: "input"
  type: "Input"
  top: "frames_fc7"
  top: "cont_sentence"
  top: "input_sentence"
  top: "stage_indicator"
  input_param {
    shape {
      dim: 1
      dim: 4096
    }
    shape {
      dim: 1
      dim: 1
    }
    shape {
      dim: 1
      dim: 1
    }
    shape {
      dim: 1
      dim: 1
    }
  }
}
layer {
  name: "embed_encoder"
  type: "InnerProduct"
  bottom: "frames_fc7"
  top: "embedded_in_frames"
  param {
    lr_mult: 1
    decay_mult: 1
  }
  param {
    lr_mult: 2
    decay_mult: 0
  }
  inner_product_param {
    num_output: 500
    weight_filler {
      type: "xavier"
    }
    bias_filler {
      type: "constant"
      value: 0.2
    }
  }
}
layer {
  name: "reshape_frames"
  type: "Reshape"
  bottom: "embedded_in_frames"
  top: "embedded_input_frames"
  reshape_param {
    shape {
      dim: 1
      dim: 1
      dim: 500
    }
  }
}
layer {
  name: "reshape_stage_indicator"
  type: "Reshape"
  bottom: "stage_indicator"
  top: "reshaped_stage_indicator"
  reshape_param {
    shape {
      dim: 1
      dim: 1
      dim: 1
    }
  }
}
layer {
  name: "embedding"
  type: "Embed"
  bottom: "input_sentence"
  top: "embedded_input_sentence"
  param {
    lr_mult: 1
  }
  embed_param {
    num_output: 500
    input_dim: 46168
    bias_term: false
    weight_filler {
      type: "uniform"
      min: -0.08
      max: 0.08
    }
  }
}
layer {
  name: "lstm1"
  type: "LSTM"
  bottom: "embedded_input_frames"
  bottom: "cont_sentence"
  top: "lstm1"
  recurrent_param {
    num_output: 1000
    weight_filler {
      type: "uniform"
      min: -0.08
      max: 0.08
    }
    bias_filler {
      type: "constant"
      value: 0
    }
  }
}
layer {
  name: "concat"
  type: "Concat"
  bottom: "lstm1"
  bottom: "embedded_input_sentence"
  bottom: "reshaped_stage_indicator"
  top: "lstm1_video_sequence"
  concat_param {
    concat_dim: 2
  }
}
layer {
  name: "lstm2"
  type: "LSTM"
  bottom: "lstm1_video_sequence"
  bottom: "cont_sentence"
  top: "lstm2"
  recurrent_param {
    num_output: 1000
    weight_filler {
      type: "uniform"
      min: -0.08
      max: 0.08
    }
    bias_filler {
      type: "constant"
      value: 0
    }
  }
}
layer {
  name: "predict"
  type: "InnerProduct"
  bottom: "lstm2"
  top: "predict"
  param {
    lr_mult: 1
    decay_mult: 1
  }
  param {
    lr_mult: 2
    decay_mult: 0
  }
  inner_product_param {
    num_output: 46168
    weight_filler {
      type: "uniform"
      min: -0.08
      max: 0.08
    }
    bias_filler {
      type: "constant"
      value: 0
    }
    axis: 2
  }
}
layer {
  name: "probs"
  type: "Softmax"
  bottom: "predict"
  top: "probs"
  softmax_param {
    axis: 2
  }
}
I0720 14:32:25.896211 23350 net.cpp:148] Top shape: 1 1 (1)
I0720 14:32:25.896237 23350 net.cpp:156] Memory required for data: 16404
I0720 14:32:25.896246 23350 layer_factory.hpp:77] Creating layer embed_encoder
I0720 14:32:25.896263 23350 net.cpp:91] Creating Layer embed_encoder
I0720 14:32:25.896272 23350 net.cpp:425] embed_encoder <- frames_fc7
I0720 14:32:25.896284 23354 layer_factory.hpp:77] Creating layer input
I0720 14:32:25.896287 23362 upgrade_proto.cpp:66] Attempting to upgrade input file specified using deprecated input fields: /tmp/cvld1649438614371306489/s2vt.words_to_preds.prototxt
…
W0720 14:32:25.896606 23352 upgrade_proto.cpp:71] Note that future Caffe releases will only support input layers and not input fields.
W0720 14:32:25.896610 23364 upgrade_proto.cpp:71] Note that future Caffe releases will only support input layers and not input fields.
I0720 14:32:25.896612 23336 net.cpp:399] input -> frames_fc7
I0720 14:32:25.896633 23336 net.cpp:399] input -> cont_sentence
I0720 14:32:25.896651 23336 net.cpp:399] input -> input_sentence
I0720 14:32:25.896668 23336 net.cpp:399] input -> stage_indicator
I0720 14:32:25.896687 23336 net.cpp:141] Setting up input
I0720 14:32:25.896699 23336 net.cpp:148] Top shape: 1 4096 (4096)
I0720 14:32:25.896710 23336 net.cpp:148] Top shape: 1 1 (1)
I0720 14:32:25.896720 23336 net.cpp:148] Top shape: 1 1 (1)
I0720 14:32:25.896731 23336 net.cpp:148] Top shape: 1 1 (1)
I0720 14:32:25.896739 23336 net.cpp:156] Memory required for data: 16396
I0720 14:32:25.896747 23336 layer_factory.hpp:77] Creating layer cont_sentence_input_1_split
I0720 14:32:25.896764 23336 net.cpp:91] Creating Layer cont_sentence_input_1_split
I0720 14:32:25.896773 23336 net.cpp:425] cont_sentence_input_1_split <- cont_sentence
I0720 14:32:25.896786 23336 net.cpp:399] cont_sentence_input_1_split -> cont_sentence_input_1_split_0
I0720 14:32:25.896801 23336 net.cpp:399] cont_sentence_input_1_split -> cont_sentence_input_1_split_1
I0720 14:32:25.896817 23336 net.cpp:141] Setting up cont_sentence_input_1_split
I0720 14:32:25.896831 23336 net.cpp:148] Top shape: 1 1 (1)
I0720 14:32:25.896841 23336 net.cpp:148] Top shape: 1 1 (1)
I0720 14:32:25.896847 23336 net.cpp:156] Memory required for data: 16404
I0720 14:32:25.896857 23336 layer_factory.hpp:77] Creating layer embed_encoder
I0720 14:32:25.896874 23336 net.cpp:91] Creating Layer embed_encoder
I0720 14:32:25.896877 23362 net.cpp:49] Initializing net from parameters: 
name: "s2vt:features_to_lstm"
state {
  phase: TEST
}
layer {
  name: "input"
  type: "Input"
  top: "frames_fc7"
  top: "cont_sentence"
  top: "input_sentence"
  top: "stage_indicator"
  input_param {
    shape {
      dim: 1
      dim: 4096
    }
    shape {
      dim: 1
      dim: 1
    }
    shape {
      dim: 1
      dim: 1
    }
    shape {
      dim: 1
      dim: 1
    }
  }
}
layer {
  name: "embed_encoder"
  type: "InnerProduct"
  bottom: "frames_fc7"
  top: "embedded_in_frames"
  param {
    lr_mult: 1
    decay_mult: 1
  }
  param {
    lr_mult: 2
    decay_mult: 0
  }
  inner_product_param {
    num_output: 500
    weight_filler {
      type: "xavier"
    }
    bias_filler {
      type: "constant"
      value: 0.2
    }
  }
}
layer {
  name: "reshape_frames"
  type: "Reshape"
  bottom: "embedded_in_frames"
  top: "embedded_input_frames"
  reshape_param {
    shape {
      dim: 1
      dim: 1
      dim: 500
    }
  }
}
layer {
  name: "reshape_stage_indicator"
  type: "Reshape"
  bottom: "stage_indicator"
  top: "reshaped_stage_indicator"
  reshape_param {
    shape {
      dim: 1
      dim: 1
      dim: 1
    }
  }
}
layer {
  name: "embedding"
  type: "Embed"
  bottom: "input_sentence"
  top: "embedded_input_sentence"
  param {
    lr_mult: 1
  }
  embed_param {
    num_output: 500
    input_dim: 46168
    bias_term: false
    weight_filler {
      type: "uniform"
      min: -0.08
      max: 0.08
    }
  }
}
layer {
  name: "lstm1"
  type: "LSTM"
  bottom: "embedded_input_frames"
  bottom: "cont_sentence"
  top: "lstm1"
  recurrent_param {
    num_output: 1000
    weight_filler {
      type: "uniform"
      min: -0.08
      max: 0.08
    }
    bias_filler {
      type: "constant"
      value: 0
    }
  }
}
layer {
  name: "concat"
  type: "Concat"
  bottom: "lstm1"
  bottom: "embedded_input_sentence"
  bottom: "reshaped_stage_indicator"
  top: "lstm1_video_sequence"
  concat_param {
    concat_dim: 2
  }
}
layer {
  name: "lstm2"
  type: "LSTM"
  bottom: "lstm1_video_sequence"
  bottom: "cont_sentence"
  top: "lstm2"
  recurrent_param {
    num_output: 1000
    weight_filler {
      type: "uniform"
      min: -0.08
      max: 0.08
    }
    bias_filler {
      type: "constant"
      value: 0
    }
  }
}
layer {
  name: "predict"
  type: "InnerProduct"
  bottom: "lstm2"
  top: "predict"
  param {
    lr_mult: 1
    decay_mult: 1
  }
  param {
    lr_mult: 2
    decay_mult: 0
  }
  inner_product_param {
    num_output: 46168
    weight_filler {
      type: "uniform"
      min: -0.08
      max: 0.08
    }
    bias_filler {
      type: "constant"
      value: 0
    }
    axis: 2
  }
}
layer {
  name: "probs"
  type: "Softmax"
  bottom: "predict"
  top: "probs"
  softmax_param {
    axis: 2
  }
}
I0720 14:32:25.896883 23336 net.cpp:425] embed_encoder <- frames_fc7
I0720 14:32:25.896919 23336 net.cpp:399] embed_encoder -> embedded_in_frames
I0720 14:32:25.896932 23364 net.cpp:49] Initializing net from parameters: 
name: "s2vt:features_to_lstm"
state {
  phase: TEST
}
layer {
  name: "input"
  type: "Input"
  top: "frames_fc7"
  top: "cont_sentence"
  top: "input_sentence"
  top: "stage_indicator"
  input_param {
    shape {
      dim: 1
      dim: 4096
    }
    shape {
      dim: 1
      dim: 1
    }
    shape {
      dim: 1
      dim: 1
    }
    shape {
      dim: 1
      dim: 1
    }
  }
}
layer {
  name: "embed_encoder"
  type: "InnerProduct"
  bottom: "frames_fc7"
  top: "embedded_in_frames"
  param {
    lr_mult: 1
    decay_mult: 1
  }
  param {
    lr_mult: 2
    decay_mult: 0
  }
  inner_product_param {
    num_output: 500
    weight_filler {
      type: "xavier"
    }
    bias_filler {
      type: "constant"
      value: 0.2
    }
  }
}
layer {
  name: "reshape_frames"
  type: "Reshape"
  bottom: "embedded_in_frames"
  top: "embedded_input_frames"
  reshape_param {
    shape {
      dim: 1
      dim: 1
      dim: 500
    }
  }
}
layer {
  name: "reshape_stage_indicator"
  type: "Reshape"
  bottom: "stage_indicator"
  top: "reshaped_stage_indicator"
  reshape_param {
    shape {
      dim: 1
      dim: 1
      dim: 1
    }
  }
}
layer {
  name: "embedding"
  type: "Embed"
  bottom: "input_sentence"
  top: "embedded_input_sentence"
  param {
    lr_mult: 1
  }
  embed_param {
    num_output: 500
    input_dim: 46168
    bias_term: false
    weight_filler {
      type: "uniform"
      min: -0.08
      max: 0.08
    }
  }
}
layer {
  name: "lstm1"
  type: "LSTM"
  bottom: "embedded_input_frames"
  bottom: "cont_sentence"
  top: "lstm1"
  recurrent_param {
    num_output: 1000
    weight_filler {
      type: "uniform"
      min: -0.08
      max: 0.08
    }
    bias_filler {
      type: "constant"
      value: 0
    }
  }
}
layer {
  name: "concat"
  type: "Concat"
  bottom: "lstm1"
  bottom: "embedded_input_sentence"
  bottom: "reshaped_stage_indicator"
  top: "lstm1_video_sequence"
  concat_param {
    concat_dim: 2
  }
}
layer {
  name: "lstm2"
  type: "LSTM"
  bottom: "lstm1_video_sequence"
  bottom: "cont_sentence"
  top: "lstm2"
  recurrent_param {
    num_output: 1000
    weight_filler {
      type: "uniform"
      min: -0.08
      max: 0.08
    }
    bias_filler {
      type: "constant"
      value: 0
    }
  }
}
layer {
  name: "predict"
  type: "InnerProduct"
  bottom: "lstm2"
  top: "predict"
  param {
    lr_mult: 1
    decay_mult: 1
  }
  param {
    lr_mult: 2
    decay_mult: 0
  }
  inner_product_param {
    num_output: 46168
    weight_filler {
      type: "uniform"
      min: -0.08
      max: 0.08
    }
    bias_filler {
      type: "constant"
      value: 0
    }
    axis: 2
  }
}
layer {
  name: "probs"
  type: "Softmax"
  bottom: "predict"
  top: "probs"
  softmax_param {
    axis: 2
  }
}
I0720 14:32:25.896581 23354 net.cpp:399] input -> stage_indicator
I0720 14:32:25.896970 23354 net.cpp:141] Setting up input
I0720 14:32:25.896981 23354 net.cpp:148] Top shape: 1 4096 (4096)
I0720 14:32:25.896993 23354 net.cpp:148] Top shape: 1 1 (1)
I0720 14:32:25.896991 23352 net.cpp:49] Initializing net from parameters: 
name: "s2vt:features_to_lstm"
state {
  phase: TEST
}
layer {
  name: "input"
  type: "Input"
  top: "frames_fc7"
  top: "cont_sentence"
  top: "input_sentence"
  top: "stage_indicator"
  input_param {
    shape {
      dim: 1
      dim: 4096
    }
    shape {
      dim: 1
      dim: 1
    }
    shape {
      dim: 1
      dim: 1
    }
    shape {
      dim: 1
      dim: 1
    }
  }
}
layer {
  name: "embed_encoder"
  type: "InnerProduct"
  bottom: "frames_fc7"
  top: "embedded_in_frames"
  param {
    lr_mult: 1
    decay_mult: 1
  }
  param {
    lr_mult: 2
    decay_mult: 0
  }
  inner_product_param {
    num_output: 500
    weight_filler {
      type: "xavier"
    }
    bias_filler {
      type: "constant"
      value: 0.2
    }
  }
}
layer {
  name: "reshape_frames"
  type: "Reshape"
  bottom: "embedded_in_frames"
  top: "embedded_input_frames"
  reshape_param {
    shape {
      dim: 1
      dim: 1
      dim: 500
    }
  }
}
layer {
  name: "reshape_stage_indicator"
  type: "Reshape"
  bottom: "stage_indicator"
  top: "reshaped_stage_indicator"
  reshape_param {
    shape {
      dim: 1
      dim: 1
      dim: 1
    }
  }
}
layer {
  name: "embedding"
  type: "Embed"
  bottom: "input_sentence"
  top: "embedded_input_sentence"
  param {
    lr_mult: 1
  }
  embed_param {
    num_output: 500
    input_dim: 46168
    bias_term: false
    weight_filler {
      type: "uniform"
      min: -0.08
      max: 0.08
    }
  }
}
layer {
  name: "lstm1"
  type: "LSTM"
  bottom: "embedded_input_frames"
  bottom: "cont_sentence"
  top: "lstm1"
  recurrent_param {
    num_output: 1000
    weight_filler {
      type: "uniform"
      min: -0.08
      max: 0.08
    }
    bias_filler {
      type: "constant"
      value: 0
    }
  }
}
layer {
  name: "concat"
  type: "Concat"
  bottom: "lstm1"
  bottom: "embedded_input_sentence"
  bottom: "reshaped_stage_indicator"
  top: "lstm1_video_sequence"
  concat_param {
    concat_dim: 2
  }
}
layer {
  name: "lstm2"
  type: "LSTM"
  bottom: "lstm1_video_sequence"
  bottom: "cont_sentence"
  top: "lstm2"
  recurrent_param {
    num_output: 1000
    weight_filler {
      type: "uniform"
      min: -0.08
      max: 0.08
    }
    bias_filler {
      type: "constant"
      value: 0
    }
  }
}
layer {
  name: "predict"
  type: "InnerProduct"
  bottom: "lstm2"
  top: "predict"
  param {
    lr_mult: 1
    decay_mult: 1
  }
  param {
    lr_mult: 2
    decay_mult: 0
  }
  inner_product_param {
    num_output: 46168
    weight_filler {
      type: "uniform"
      min: -0.08
      max: 0.08
    }
    bias_filler {
      type: "constant"
      value: 0
    }
    axis: 2
  }
}
layer {
  name: "probs"
  type: "Softmax"
  bottom: "predict"
  top: "probs"
  softmax_param {
    axis: 2
  }
}
I0720 14:32:25.897003 23354 net.cpp:148] Top shape: 1 1 (1)
I0720 14:32:25.897032 23354 net.cpp:148] Top shape: 1 1 (1)
I0720 14:32:25.897040 23354 net.cpp:156] Memory required for data: 16396
I0720 14:32:25.897049 23354 layer_factory.hpp:77] Creating layer cont_sentence_input_1_split
I0720 14:32:25.897063 23354 net.cpp:91] Creating Layer cont_sentence_input_1_split
I0720 14:32:25.897064 23364 layer_factory.hpp:77] Creating layer input
I0720 14:32:25.897071 23354 net.cpp:425] cont_sentence_input_1_split <- cont_sentence
I0720 14:32:25.897084 23364 net.cpp:91] Creating Layer input
I0720 14:32:25.897085 23354 net.cpp:399] cont_sentence_input_1_split -> cont_sentence_input_1_split_0
I0720 14:32:25.897109 23364 net.cpp:399] input -> frames_fc7
I0720 14:32:25.897116 23354 net.cpp:399] cont_sentence_input_1_split -> cont_sentence_input_1_split_1
I0720 14:32:25.897127 23364 net.cpp:399] input -> cont_sentence
I0720 14:32:25.897133 23354 net.cpp:141] Setting up cont_sentence_input_1_split
I0720 14:32:25.897140 23352 layer_factory.hpp:77] Creating layer input
I0720 14:32:25.897146 23354 net.cpp:148] Top shape: 1 1 (1)
I0720 14:32:25.897145 23364 net.cpp:399] input -> input_sentence
I0720 14:32:25.897167 23352 net.cpp:91] Creating Layer input
I0720 14:32:25.897169 23354 net.cpp:148] Top shape: 1 1 (1)
I0720 14:32:25.897186 23364 net.cpp:399] input -> stage_indicator
I0720 14:32:25.897187 23352 net.cpp:399] input -> frames_fc7
I0720 14:32:25.897188 23354 net.cpp:156] Memory required for data: 16404
I0720 14:32:25.897205 23364 net.cpp:141] Setting up input
I0720 14:32:25.897207 23354 layer_factory.hpp:77] Creating layer embed_encoder
I0720 14:32:25.897223 23364 net.cpp:148] Top shape: 1 4096 (4096)
I0720 14:32:25.897214 23352 net.cpp:399] input -> cont_sentence
I0720 14:32:25.897238 23364 net.cpp:148] Top shape: 1 1 (1)
I0720 14:32:25.897238 23354 net.cpp:91] Creating Layer embed_encoder
I0720 14:32:25.897248 23342 net.cpp:49] Initializing net from parameters: 
name: "s2vt:features_to_lstm"
state {
  phase: TEST
}
layer {
  name: "input"
  type: "Input"
  top: "frames_fc7"
  top: "cont_sentence"
  top: "input_sentence"
  top: "stage_indicator"
  input_param {
    shape {
      dim: 1
      dim: 4096
    }
    shape {
      dim: 1
      dim: 1
    }
    shape {
      dim: 1
      dim: 1
    }
    shape {
      dim: 1
      dim: 1
    }
  }
}
layer {
  name: "embed_encoder"
  type: "InnerProduct"
  bottom: "frames_fc7"
  top: "embedded_in_frames"
  param {
    lr_mult: 1
    decay_mult: 1
  }
  param {
    lr_mult: 2
    decay_mult: 0
  }
  inner_product_param {
    num_output: 500
    weight_filler {
      type: "xavier"
    }
    bias_filler {
      type: "constant"
      value: 0.2
    }
  }
}
layer {
  name: "reshape_frames"
  type: "Reshape"
  bottom: "embedded_in_frames"
  top: "embedded_input_frames"
  reshape_param {
    shape {
      dim: 1
      dim: 1
      dim: 500
    }
  }
}
layer {
  name: "reshape_stage_indicator"
  type: "Reshape"
  bottom: "stage_indicator"
  top: "reshaped_stage_indicator"
  reshape_param {
    shape {
      dim: 1
      dim: 1
      dim: 1
    }
  }
}
layer {
  name: "embedding"
  type: "Embed"
  bottom: "input_sentence"
  top: "embedded_input_sentence"
  param {
    lr_mult: 1
  }
  embed_param {
    num_output: 500
    input_dim: 46168
    bias_term: false
    weight_filler {
      type: "uniform"
      min: -0.08
      max: 0.08
    }
  }
}
layer {
  name: "lstm1"
  type: "LSTM"
  bottom: "embedded_input_frames"
  bottom: "cont_sentence"
  top: "lstm1"
  recurrent_param {
    num_output: 1000
    weight_filler {
      type: "uniform"
      min: -0.08
      max: 0.08
    }
    bias_filler {
      type: "constant"
      value: 0
    }
  }
}
layer {
  name: "concat"
  type: "Concat"
  bottom: "lstm1"
  bottom: "embedded_input_sentence"
  bottom: "reshaped_stage_indicator"
  top: "lstm1_video_sequence"
  concat_param {
    concat_dim: 2
  }
}
layer {
  name: "lstm2"
  type: "LSTM"
  bottom: "lstm1_video_sequence"
  bottom: "cont_sentence"
  top: "lstm2"
  recurrent_param {
    num_output: 1000
    weight_filler {
      type: "uniform"
      min: -0.08
      max: 0.08
    }
    bias_filler {
      type: "constant"
      value: 0
    }
  }
}
layer {
  name: "predict"
  type: "InnerProduct"
  bottom: "lstm2"
  top: "predict"
  param {
    lr_mult: 1
    decay_mult: 1
  }
  param {
    lr_mult: 2
    decay_mult: 0
  }
  inner_product_param {
    num_output: 46168
    weight_filler {
      type: "uniform"
      min: -0.08
      max: 0.08
    }
    bias_filler {
      type: "constant"
      value: 0
    }
    axis: 2
  }
}
layer {
  name: "probs"
  type: "Softmax"
  bottom: "predict"
  top: "probs"
  softmax_param {
    axis: 2
  }
}
I0720 14:32:25.897256 23352 net.cpp:399] input -> input_sentence
I0720 14:32:25.897258 23354 net.cpp:425] embed_encoder <- frames_fc7
I0720 14:32:25.897254 23364 net.cpp:148] Top shape: 1 1 (1)
I0720 14:32:25.897284 23352 net.cpp:399] input -> stage_indicator
I0720 14:32:25.897289 23364 net.cpp:148] Top shape: 1 1 (1)
I0720 14:32:25.897286 23354 net.cpp:399] embed_encoder -> embedded_in_frames
I0720 14:32:25.897299 23364 net.cpp:156] Memory required for data: 16396
I0720 14:32:25.897308 23364 layer_factory.hpp:77] Creating layer cont_sentence_input_1_split
I0720 14:32:25.897311 23352 net.cpp:141] Setting up input
I0720 14:32:25.897321 23364 net.cpp:91] Creating Layer cont_sentence_input_1_split
I0720 14:32:25.897330 23364 net.cpp:425] cont_sentence_input_1_split <- cont_sentence
I0720 14:32:25.897330 23352 net.cpp:148] Top shape: 1 4096 (4096)
I0720 14:32:25.897341 23364 net.cpp:399] cont_sentence_input_1_split -> cont_sentence_input_1_split_0
I0720 14:32:25.897343 23352 net.cpp:148] Top shape: 1 1 (1)
I0720 14:32:25.897356 23352 net.cpp:148] Top shape: 1 1 (1)
I0720 14:32:25.897356 23364 net.cpp:399] cont_sentence_input_1_split -> cont_sentence_input_1_split_1
I0720 14:32:25.897367 23352 net.cpp:148] Top shape: 1 1 (1)
I0720 14:32:25.897373 23364 net.cpp:141] Setting up cont_sentence_input_1_split
I0720 14:32:25.897378 23362 layer_factory.hpp:77] Creating layer input
I0720 14:32:25.897375 23352 net.cpp:156] Memory required for data: 16396
I0720 14:32:25.897392 23364 net.cpp:148] Top shape: 1 1 (1)
I0720 14:32:25.897403 23362 net.cpp:91] Creating Layer input
I0720 14:32:25.897406 23352 layer_factory.hpp:77] Creating layer cont_sentence_input_1_split
I0720 14:32:25.897413 23364 net.cpp:148] Top shape: 1 1 (1)
I0720 14:32:25.897415 23362 net.cpp:399] input -> frames_fc7
I0720 14:32:25.897421 23364 net.cpp:156] Memory required for data: 16404
I0720 14:32:25.897423 23352 net.cpp:91] Creating Layer cont_sentence_input_1_split
I0720 14:32:25.897430 23364 layer_factory.hpp:77] Creating layer embed_encoder
I0720 14:32:25.897434 23352 net.cpp:425] cont_sentence_input_1_split <- cont_sentence
I0720 14:32:25.897447 23364 net.cpp:91] Creating Layer embed_encoder
I0720 14:32:25.897456 23364 net.cpp:425] embed_encoder <- frames_fc7
I0720 14:32:25.897457 23352 net.cpp:399] cont_sentence_input_1_split -> cont_sentence_input_1_split_0
I0720 14:32:25.897471 23364 net.cpp:399] embed_encoder -> embedded_in_frames
I0720 14:32:25.897480 23352 net.cpp:399] cont_sentence_input_1_split -> cont_sentence_input_1_split_1
I0720 14:32:25.897434 23362 net.cpp:399] input -> cont_sentence
I0720 14:32:25.897500 23352 net.cpp:141] Setting up cont_sentence_input_1_split
I0720 14:32:25.897511 23362 net.cpp:399] input -> input_sentence
I0720 14:32:25.897516 23352 net.cpp:148] Top shape: 1 1 (1)
I0720 14:32:25.897526 23352 net.cpp:148] Top shape: 1 1 (1)
I0720 14:32:25.897531 23362 net.cpp:399] input -> stage_indicator
I0720 14:32:25.897536 23352 net.cpp:156] Memory required for data: 16404
I0720 14:32:25.897545 23352 layer_factory.hpp:77] Creating layer embed_encoder
I0720 14:32:25.897550 23362 net.cpp:141] Setting up input
I0720 14:32:25.897563 23362 net.cpp:148] Top shape: 1 4096 (4096)
I0720 14:32:25.897565 23352 net.cpp:91] Creating Layer embed_encoder
I0720 14:32:25.897574 23362 net.cpp:148] Top shape: 1 1 (1)
I0720 14:32:25.897578 23352 net.cpp:425] embed_encoder <- frames_fc7
I0720 14:32:25.897586 23362 net.cpp:148] Top shape: 1 1 (1)
I0720 14:32:25.897593 23352 net.cpp:399] embed_encoder -> embedded_in_frames
I0720 14:32:25.897605 23342 layer_factory.hpp:77] Creating layer input
I0720 14:32:25.897620 23342 net.cpp:91] Creating Layer input
I0720 14:32:25.897630 23342 net.cpp:399] input -> frames_fc7
I0720 14:32:25.897645 23342 net.cpp:399] input -> cont_sentence
I0720 14:32:25.897660 23342 net.cpp:399] input -> input_sentence
I0720 14:32:25.897675 23342 net.cpp:399] input -> stage_indicator
I0720 14:32:25.897689 23342 net.cpp:141] Setting up input
I0720 14:32:25.897699 23342 net.cpp:148] Top shape: 1 4096 (4096)
I0720 14:32:25.897708 23342 net.cpp:148] Top shape: 1 1 (1)
I0720 14:32:25.897716 23342 net.cpp:148] Top shape: 1 1 (1)
I0720 14:32:25.897724 23342 net.cpp:148] Top shape: 1 1 (1)
I0720 14:32:25.897730 23342 net.cpp:156] Memory required for data: 16396
I0720 14:32:25.897737 23342 layer_factory.hpp:77] Creating layer cont_sentence_input_1_split
I0720 14:32:25.897748 23342 net.cpp:91] Creating Layer cont_sentence_input_1_split
I0720 14:32:25.897755 23342 net.cpp:425] cont_sentence_input_1_split <- cont_sentence
I0720 14:32:25.897768 23342 net.cpp:399] cont_sentence_input_1_split -> cont_sentence_input_1_split_0
I0720 14:32:25.897781 23342 net.cpp:399] cont_sentence_input_1_split -> cont_sentence_input_1_split_1
I0720 14:32:25.897795 23342 net.cpp:141] Setting up cont_sentence_input_1_split
I0720 14:32:25.897805 23342 net.cpp:148] Top shape: 1 1 (1)
I0720 14:32:25.897814 23342 net.cpp:148] Top shape: 1 1 (1)
I0720 14:32:25.897820 23342 net.cpp:156] Memory required for data: 16404
I0720 14:32:25.897828 23342 layer_factory.hpp:77] Creating layer embed_encoder
I0720 14:32:25.897845 23342 net.cpp:91] Creating Layer embed_encoder
I0720 14:32:25.897855 23342 net.cpp:425] embed_encoder <- frames_fc7
I0720 14:32:25.897868 23342 net.cpp:399] embed_encoder -> embedded_in_frames
I0720 14:32:25.897596 23362 net.cpp:148] Top shape: 1 1 (1)
I0720 14:32:25.897896 23362 net.cpp:156] Memory required for data: 16396
I0720 14:32:25.897903 23362 layer_factory.hpp:77] Creating layer cont_sentence_input_1_split
I0720 14:32:25.897914 23362 net.cpp:91] Creating Layer cont_sentence_input_1_split
I0720 14:32:25.897922 23362 net.cpp:425] cont_sentence_input_1_split <- cont_sentence
I0720 14:32:25.898340 23362 net.cpp:399] cont_sentence_input_1_split -> cont_sentence_input_1_split_0
I0720 14:32:25.898365 23362 net.cpp:399] cont_sentence_input_1_split -> cont_sentence_input_1_split_1
I0720 14:32:25.898381 23362 net.cpp:141] Setting up cont_sentence_input_1_split
I0720 14:32:25.898391 23362 net.cpp:148] Top shape: 1 1 (1)
I0720 14:32:25.898397 23362 net.cpp:148] Top shape: 1 1 (1)
I0720 14:32:25.898403 23362 net.cpp:156] Memory required for data: 16404
I0720 14:32:25.898411 23362 layer_factory.hpp:77] Creating layer embed_encoder
I0720 14:32:25.898425 23362 net.cpp:91] Creating Layer embed_encoder
I0720 14:32:25.898430 23362 net.cpp:425] embed_encoder <- frames_fc7
I0720 14:32:25.898438 23362 net.cpp:399] embed_encoder -> embedded_in_frames
I0720 14:32:25.926816 23362 net.cpp:141] Setting up embed_encoder
I0720 14:32:25.926861 23362 net.cpp:148] Top shape: 1 500 (500)
I0720 14:32:25.926872 23362 net.cpp:156] Memory required for data: 18404
I0720 14:32:25.926908 23362 layer_factory.hpp:77] Creating layer reshape_frames
I0720 14:32:25.926910 23350 net.cpp:141] Setting up embed_encoder
I0720 14:32:25.926952 23350 net.cpp:148] Top shape: 1 500 (500)
I0720 14:32:25.926959 23350 net.cpp:156] Memory required for data: 18404
I0720 14:32:25.926980 23350 layer_factory.hpp:77] Creating layer reshape_frames
I0720 14:32:25.926986 23362 net.cpp:91] Creating Layer reshape_frames
I0720 14:32:25.927002 23362 net.cpp:425] reshape_frames <- embedded_in_frames
I0720 14:32:25.927003 23350 net.cpp:91] Creating Layer reshape_frames
I0720 14:32:25.927029 23350 net.cpp:425] reshape_frames <- embedded_in_frames
I0720 14:32:25.927057 23350 net.cpp:399] reshape_frames -> embedded_input_frames
I0720 14:32:25.927028 23362 net.cpp:399] reshape_frames -> embedded_input_frames
I0720 14:32:25.927098 23350 net.cpp:141] Setting up reshape_frames
I0720 14:32:25.927101 23362 net.cpp:141] Setting up reshape_frames
I0720 14:32:25.927106 23350 net.cpp:148] Top shape: 1 1 500 (500)
I0720 14:32:25.927129 23350 net.cpp:156] Memory required for data: 20404
I0720 14:32:25.927148 23350 layer_factory.hpp:77] Creating layer reshape_stage_indicator
I0720 14:32:25.927126 23362 net.cpp:148] Top shape: 1 1 500 (500)
I0720 14:32:25.927163 23362 net.cpp:156] Memory required for data: 20404
I0720 14:32:25.927167 23350 net.cpp:91] Creating Layer reshape_stage_indicator
I0720 14:32:25.927175 23350 net.cpp:425] reshape_stage_indicator <- stage_indicator
I0720 14:32:25.927176 23362 layer_factory.hpp:77] Creating layer reshape_stage_indicator
I0720 14:32:25.927184 23350 net.cpp:399] reshape_stage_indicator -> reshaped_stage_indicator
I0720 14:32:25.927198 23350 net.cpp:141] Setting up reshape_stage_indicator
I0720 14:32:25.927207 23350 net.cpp:148] Top shape: 1 1 1 (1)
I0720 14:32:25.927206 23362 net.cpp:91] Creating Layer reshape_stage_indicator
I0720 14:32:25.927213 23350 net.cpp:156] Memory required for data: 20408
I0720 14:32:25.927219 23350 layer_factory.hpp:77] Creating layer embedding
I0720 14:32:25.927219 23362 net.cpp:425] reshape_stage_indicator <- stage_indicator
I0720 14:32:25.927251 23350 net.cpp:91] Creating Layer embedding
I0720 14:32:25.927258 23350 net.cpp:425] embedding <- input_sentence
I0720 14:32:25.927258 23362 net.cpp:399] reshape_stage_indicator -> reshaped_stage_indicator
I0720 14:32:25.927268 23350 net.cpp:399] embedding -> embedded_input_sentence
I0720 14:32:25.927281 23362 net.cpp:141] Setting up reshape_stage_indicator
I0720 14:32:25.927294 23362 net.cpp:148] Top shape: 1 1 1 (1)
I0720 14:32:25.927302 23362 net.cpp:156] Memory required for data: 20408
I0720 14:32:25.927311 23362 layer_factory.hpp:77] Creating layer embedding
I0720 14:32:25.927837 23362 net.cpp:91] Creating Layer embedding
I0720 14:32:25.927852 23362 net.cpp:425] embedding <- input_sentence
I0720 14:32:25.927866 23362 net.cpp:399] embedding -> embedded_input_sentence
I0720 14:32:25.927922 23340 net.cpp:141] Setting up embed_encoder
I0720 14:32:25.927947 23340 net.cpp:148] Top shape: 1 500 (500)
I0720 14:32:25.927954 23340 net.cpp:156] Memory required for data: 18404
I0720 14:32:25.928483 23340 layer_factory.hpp:77] Creating layer reshape_frames
I0720 14:32:25.928510 23340 net.cpp:91] Creating Layer reshape_frames
I0720 14:32:25.928521 23340 net.cpp:425] reshape_frames <- embedded_in_frames
I0720 14:32:25.928544 23340 net.cpp:399] reshape_frames -> embedded_input_frames
I0720 14:32:25.928565 23340 net.cpp:141] Setting up reshape_frames
I0720 14:32:25.928576 23340 net.cpp:148] Top shape: 1 1 500 (500)
I0720 14:32:25.928585 23340 net.cpp:156] Memory required for data: 20404
I0720 14:32:25.928592 23340 layer_factory.hpp:77] Creating layer reshape_stage_indicator
I0720 14:32:25.928607 23340 net.cpp:91] Creating Layer reshape_stage_indicator
I0720 14:32:25.928616 23340 net.cpp:425] reshape_stage_indicator <- stage_indicator
I0720 14:32:25.928628 23340 net.cpp:399] reshape_stage_indicator -> reshaped_stage_indicator
I0720 14:32:25.928647 23340 net.cpp:141] Setting up reshape_stage_indicator
I0720 14:32:25.928658 23340 net.cpp:148] Top shape: 1 1 1 (1)
I0720 14:32:25.928664 23340 net.cpp:156] Memory required for data: 20408
I0720 14:32:25.928673 23340 layer_factory.hpp:77] Creating layer embedding
I0720 14:32:25.929147 23340 net.cpp:91] Creating Layer embedding
I0720 14:32:25.929159 23340 net.cpp:425] embedding <- input_sentence
I0720 14:32:25.929177 23340 net.cpp:399] embedding -> embedded_input_sentence
I0720 14:32:25.930876 23354 net.cpp:141] Setting up embed_encoder
I0720 14:32:25.930907 23354 net.cpp:148] Top shape: 1 500 (500)
I0720 14:32:25.930915 23354 net.cpp:156] Memory required for data: 18404
I0720 14:32:25.930939 23354 layer_factory.hpp:77] Creating layer reshape_frames
I0720 14:32:25.931917 23354 net.cpp:91] Creating Layer reshape_frames
I0720 14:32:25.931936 23354 net.cpp:425] reshape_frames <- embedded_in_frames
I0720 14:32:25.931953 23354 net.cpp:399] reshape_frames -> embedded_input_frames
I0720 14:32:25.931977 23354 net.cpp:141] Setting up reshape_frames
I0720 14:32:25.931989 23354 net.cpp:148] Top shape: 1 1 500 (500)
I0720 14:32:25.931998 23354 net.cpp:156] Memory required for data: 20404
I0720 14:32:25.932005 23354 layer_factory.hpp:77] Creating layer reshape_stage_indicator
I0720 14:32:25.932487 23354 net.cpp:91] Creating Layer reshape_stage_indicator
I0720 14:32:25.932499 23354 net.cpp:425] reshape_stage_indicator <- stage_indicator
I0720 14:32:25.932512 23354 net.cpp:399] reshape_stage_indicator -> reshaped_stage_indicator
I0720 14:32:25.932531 23354 net.cpp:141] Setting up reshape_stage_indicator
I0720 14:32:25.932545 23354 net.cpp:148] Top shape: 1 1 1 (1)
I0720 14:32:25.932554 23354 net.cpp:156] Memory required for data: 20408
I0720 14:32:25.932564 23354 layer_factory.hpp:77] Creating layer embedding
I0720 14:32:25.933037 23354 net.cpp:91] Creating Layer embedding
I0720 14:32:25.933050 23354 net.cpp:425] embedding <- input_sentence
I0720 14:32:25.933065 23354 net.cpp:399] embedding -> embedded_input_sentence
I0720 14:32:25.934859 23364 net.cpp:141] Setting up embed_encoder
I0720 14:32:25.934906 23364 net.cpp:148] Top shape: 1 500 (500)
I0720 14:32:25.934913 23364 net.cpp:156] Memory required for data: 18404
I0720 14:32:25.934937 23364 layer_factory.hpp:77] Creating layer reshape_frames
I0720 14:32:25.934957 23364 net.cpp:91] Creating Layer reshape_frames
I0720 14:32:25.934968 23364 net.cpp:425] reshape_frames <- embedded_in_frames
I0720 14:32:25.935837 23364 net.cpp:399] reshape_frames -> embedded_input_frames
I0720 14:32:25.935883 23364 net.cpp:141] Setting up reshape_frames
I0720 14:32:25.935883 23344 net.cpp:141] Setting up embed_encoder
I0720 14:32:25.935909 23364 net.cpp:148] Top shape: 1 1 500 (500)
I0720 14:32:25.935912 23344 net.cpp:148] Top shape: 1 500 (500)
I0720 14:32:25.935925 23364 net.cpp:156] Memory required for data: 20404
I0720 14:32:25.935927 23344 net.cpp:156] Memory required for data: 18404
I0720 14:32:25.935941 23364 layer_factory.hpp:77] Creating layer reshape_stage_indicator
I0720 14:32:25.935956 23344 layer_factory.hpp:77] Creating layer reshape_frames
I0720 14:32:25.935967 23364 net.cpp:91] Creating Layer reshape_stage_indicator
I0720 14:32:25.935976 23344 net.cpp:91] Creating Layer reshape_frames
I0720 14:32:25.935984 23364 net.cpp:425] reshape_stage_indicator <- stage_indicator
I0720 14:32:25.935986 23344 net.cpp:425] reshape_frames <- embedded_in_frames
I0720 14:32:25.936007 23344 net.cpp:399] reshape_frames -> embedded_input_frames
I0720 14:32:25.936007 23364 net.cpp:399] reshape_stage_indicator -> reshaped_stage_indicator
I0720 14:32:25.936023 23344 net.cpp:141] Setting up reshape_frames
I0720 14:32:25.936033 23344 net.cpp:148] Top shape: 1 1 500 (500)
I0720 14:32:25.936033 23364 net.cpp:141] Setting up reshape_stage_indicator
I0720 14:32:25.936039 23344 net.cpp:156] Memory required for data: 20404
I0720 14:32:25.936055 23344 layer_factory.hpp:77] Creating layer reshape_stage_indicator
I0720 14:32:25.936058 23364 net.cpp:148] Top shape: 1 1 1 (1)
I0720 14:32:25.936069 23364 net.cpp:156] Memory required for data: 20408
I0720 14:32:25.936077 23364 layer_factory.hpp:77] Creating layer embedding
I0720 14:32:25.936094 23364 net.cpp:91] Creating Layer embedding
I0720 14:32:25.936105 23364 net.cpp:425] embedding <- input_sentence
I0720 14:32:25.936547 23364 net.cpp:399] embedding -> embedded_input_sentence
I0720 14:32:25.936560 23368 net.cpp:141] Setting up embed_encoder
I0720 14:32:25.936606 23368 net.cpp:148] Top shape: 1 500 (500)
I0720 14:32:25.936605 23344 net.cpp:91] Creating Layer reshape_stage_indicator
I0720 14:32:25.936615 23368 net.cpp:156] Memory required for data: 18404
I0720 14:32:25.936621 23344 net.cpp:425] reshape_stage_indicator <- stage_indicator
I0720 14:32:25.936635 23344 net.cpp:399] reshape_stage_indicator -> reshaped_stage_indicator
I0720 14:32:25.936648 23344 net.cpp:141] Setting up reshape_stage_indicator
I0720 14:32:25.936655 23344 net.cpp:148] Top shape: 1 1 1 (1)
I0720 14:32:25.936660 23344 net.cpp:156] Memory required for data: 20408
I0720 14:32:25.936664 23344 layer_factory.hpp:77] Creating layer embedding
I0720 14:32:25.937230 23352 net.cpp:141] Setting up embed_encoder
I0720 14:32:25.937235 23344 net.cpp:91] Creating Layer embedding
I0720 14:32:25.937242 23368 layer_factory.hpp:77] Creating layer reshape_frames
I0720 14:32:25.937252 23344 net.cpp:425] embedding <- input_sentence
I0720 14:32:25.937252 23352 net.cpp:148] Top shape: 1 500 (500)
I0720 14:32:25.937279 23352 net.cpp:156] Memory required for data: 18404
I0720 14:32:25.937284 23368 net.cpp:91] Creating Layer reshape_frames
I0720 14:32:25.937280 23344 net.cpp:399] embedding -> embedded_input_sentence
I0720 14:32:25.937295 23368 net.cpp:425] reshape_frames <- embedded_in_frames
I0720 14:32:25.937304 23352 layer_factory.hpp:77] Creating layer reshape_frames
I0720 14:32:25.937830 23352 net.cpp:91] Creating Layer reshape_frames
I0720 14:32:25.937844 23352 net.cpp:425] reshape_frames <- embedded_in_frames
I0720 14:32:25.937860 23352 net.cpp:399] reshape_frames -> embedded_input_frames
I0720 14:32:25.937855 23368 net.cpp:399] reshape_frames -> embedded_input_frames
I0720 14:32:25.937885 23352 net.cpp:141] Setting up reshape_frames
I0720 14:32:25.937897 23352 net.cpp:148] Top shape: 1 1 500 (500)
I0720 14:32:25.937906 23352 net.cpp:156] Memory required for data: 20404
I0720 14:32:25.937911 23368 net.cpp:141] Setting up reshape_frames
I0720 14:32:25.937914 23352 layer_factory.hpp:77] Creating layer reshape_stage_indicator
I0720 14:32:25.937927 23368 net.cpp:148] Top shape: 1 1 500 (500)
I0720 14:32:25.937932 23368 net.cpp:156] Memory required for data: 20404
I0720 14:32:25.937929 23352 net.cpp:91] Creating Layer reshape_stage_indicator
I0720 14:32:25.937945 23368 layer_factory.hpp:77] Creating layer reshape_stage_indicator
I0720 14:32:25.937958 23352 net.cpp:425] reshape_stage_indicator <- stage_indicator
I0720 14:32:25.937969 23368 net.cpp:91] Creating Layer reshape_stage_indicator
I0720 14:32:25.937976 23368 net.cpp:425] reshape_stage_indicator <- stage_indicator
I0720 14:32:25.937985 23368 net.cpp:399] reshape_stage_indicator -> reshaped_stage_indicator
I0720 14:32:25.937999 23368 net.cpp:141] Setting up reshape_stage_indicator
I0720 14:32:25.938006 23368 net.cpp:148] Top shape: 1 1 1 (1)
I0720 14:32:25.938011 23368 net.cpp:156] Memory required for data: 20408
I0720 14:32:25.938016 23368 layer_factory.hpp:77] Creating layer embedding
I0720 14:32:25.938539 23352 net.cpp:399] reshape_stage_indicator -> reshaped_stage_indicator
I0720 14:32:25.938555 23368 net.cpp:91] Creating Layer embedding
I0720 14:32:25.938565 23352 net.cpp:141] Setting up reshape_stage_indicator
I0720 14:32:25.938582 23368 net.cpp:425] embedding <- input_sentence
I0720 14:32:25.938590 23352 net.cpp:148] Top shape: 1 1 1 (1)
I0720 14:32:25.938594 23352 net.cpp:156] Memory required for data: 20408
I0720 14:32:25.938599 23352 layer_factory.hpp:77] Creating layer embedding
I0720 14:32:25.939097 23352 net.cpp:91] Creating Layer embedding
I0720 14:32:25.939101 23368 net.cpp:399] embedding -> embedded_input_sentence
I0720 14:32:25.939110 23352 net.cpp:425] embedding <- input_sentence
I0720 14:32:25.939133 23352 net.cpp:399] embedding -> embedded_input_sentence
I0720 14:32:25.943114 23336 net.cpp:141] Setting up embed_encoder
I0720 14:32:25.943183 23336 net.cpp:148] Top shape: 1 500 (500)
I0720 14:32:25.943195 23336 net.cpp:156] Memory required for data: 18404
I0720 14:32:25.944229 23336 layer_factory.hpp:77] Creating layer reshape_frames
I0720 14:32:25.944283 23336 net.cpp:91] Creating Layer reshape_frames
I0720 14:32:25.944300 23336 net.cpp:425] reshape_frames <- embedded_in_frames
I0720 14:32:25.944800 23336 net.cpp:399] reshape_frames -> embedded_input_frames
I0720 14:32:25.944869 23336 net.cpp:141] Setting up reshape_frames
I0720 14:32:25.944895 23336 net.cpp:148] Top shape: 1 1 500 (500)
I0720 14:32:25.944903 23336 net.cpp:156] Memory required for data: 20404
I0720 14:32:25.944910 23336 layer_factory.hpp:77] Creating layer reshape_stage_indicator
I0720 14:32:25.944922 23336 net.cpp:91] Creating Layer reshape_stage_indicator
I0720 14:32:25.944928 23336 net.cpp:425] reshape_stage_indicator <- stage_indicator
I0720 14:32:25.944937 23336 net.cpp:399] reshape_stage_indicator -> reshaped_stage_indicator
I0720 14:32:25.944952 23336 net.cpp:141] Setting up reshape_stage_indicator
I0720 14:32:25.944959 23336 net.cpp:148] Top shape: 1 1 1 (1)
I0720 14:32:25.944964 23336 net.cpp:156] Memory required for data: 20408
I0720 14:32:25.944969 23336 layer_factory.hpp:77] Creating layer embedding
I0720 14:32:25.945921 23336 net.cpp:91] Creating Layer embedding
I0720 14:32:25.945973 23336 net.cpp:425] embedding <- input_sentence
I0720 14:32:25.946516 23336 net.cpp:399] embedding -> embedded_input_sentence
I0720 14:32:25.947401 23342 net.cpp:141] Setting up embed_encoder
I0720 14:32:25.947449 23342 net.cpp:148] Top shape: 1 500 (500)
I0720 14:32:25.947459 23342 net.cpp:156] Memory required for data: 18404
I0720 14:32:25.947489 23342 layer_factory.hpp:77] Creating layer reshape_frames
I0720 14:32:25.947986 23342 net.cpp:91] Creating Layer reshape_frames
I0720 14:32:25.948004 23342 net.cpp:425] reshape_frames <- embedded_in_frames
I0720 14:32:25.948016 23342 net.cpp:399] reshape_frames -> embedded_input_frames
I0720 14:32:25.948035 23342 net.cpp:141] Setting up reshape_frames
I0720 14:32:25.948041 23342 net.cpp:148] Top shape: 1 1 500 (500)
I0720 14:32:25.948045 23342 net.cpp:156] Memory required for data: 20404
I0720 14:32:25.948050 23342 layer_factory.hpp:77] Creating layer reshape_stage_indicator
I0720 14:32:25.949396 23342 net.cpp:91] Creating Layer reshape_stage_indicator
I0720 14:32:25.949440 23342 net.cpp:425] reshape_stage_indicator <- stage_indicator
I0720 14:32:25.949465 23342 net.cpp:399] reshape_stage_indicator -> reshaped_stage_indicator
I0720 14:32:25.949491 23342 net.cpp:141] Setting up reshape_stage_indicator
I0720 14:32:25.949509 23342 net.cpp:148] Top shape: 1 1 1 (1)
I0720 14:32:25.949519 23342 net.cpp:156] Memory required for data: 20408
I0720 14:32:25.949530 23342 layer_factory.hpp:77] Creating layer embedding
I0720 14:32:25.950278 23342 net.cpp:91] Creating Layer embedding
I0720 14:32:25.950304 23342 net.cpp:425] embedding <- input_sentence
I0720 14:32:25.950323 23342 net.cpp:399] embedding -> embedded_input_sentence
I0720 14:32:26.133368 23348 net.cpp:141] Setting up data
I0720 14:32:26.133417 23348 net.cpp:148] Top shape: 10 3 227 227 (1545870)
I0720 14:32:26.133426 23348 net.cpp:156] Memory required for data: 6183480
I0720 14:32:26.133440 23348 layer_factory.hpp:77] Creating layer conv1
I0720 14:32:26.133486 23348 net.cpp:91] Creating Layer conv1
I0720 14:32:26.133496 23348 net.cpp:425] conv1 <- data
I0720 14:32:26.133514 23348 net.cpp:399] conv1 -> conv1
I0720 14:32:26.191332 23350 net.cpp:141] Setting up embedding
I0720 14:32:26.191403 23350 net.cpp:148] Top shape: 1 1 500 (500)
I0720 14:32:26.191411 23350 net.cpp:156] Memory required for data: 22408
I0720 14:32:26.191432 23350 layer_factory.hpp:77] Creating layer lstm1
I0720 14:32:26.191457 23350 net.cpp:91] Creating Layer lstm1
I0720 14:32:26.191464 23350 net.cpp:425] lstm1 <- embedded_input_frames
I0720 14:32:26.191474 23350 net.cpp:425] lstm1 <- cont_sentence_input_1_split_0
I0720 14:32:26.191496 23350 net.cpp:399] lstm1 -> lstm1
I0720 14:32:26.191545 23350 recurrent_layer.cpp:20] Initializing recurrent layer: assuming input batch contains 1 timesteps of 1 independent streams.
I0720 14:32:26.191977 23350 net.cpp:49] Initializing net from parameters: 
layer {
  name: "lstm1_"
  type: "Input"
  top: "x"
  top: "cont"
  input_param {
    shape {
      dim: 1
      dim: 1
      dim: 500
    }
    shape {
      dim: 1
      dim: 1
    }
  }
}
layer {
  name: "lstm1_"
  type: "Input"
  top: "c_0"
  top: "h_0"
  input_param {
    shape {
      dim: 1
      dim: 1
      dim: 1000
    }
    shape {
      dim: 1
      dim: 1
      dim: 1000
    }
  }
}
layer {
  name: "lstm1_cont_slice"
  type: "Slice"
  bottom: "cont"
  top: "cont_1"
  slice_param {
    axis: 0
  }
}
layer {
  name: "lstm1_x_transform"
  type: "InnerProduct"
  bottom: "x"
  top: "W_xc_x"
  param {
    name: "W_xc"
  }
  param {
    name: "b_c"
  }
  propagate_down: true
  inner_product_param {
    num_output: 4000
    bias_term: true
    weight_filler {
      type: "uniform"
      min: -0.08
      max: 0.08
    }
    bias_filler {
      type: "constant"
      value: 0
    }
    axis: 2
  }
}
layer {
  name: "lstm1_W_xc_x_slice"
  type: "Slice"
  bottom: "W_xc_x"
  top: "W_xc_x_1"
  slice_param {
    axis: 0
  }
}
layer {
  name: "lstm1_h_conted_0"
  type: "Scale"
  bottom: "h_0"
  bottom: "cont_1"
  top: "h_conted_0"
  scale_param {
    axis: 0
  }
}
layer {
  name: "lstm1_transform_1"
  type: "InnerProduct"
  bottom: "h_conted_0"
  top: "W_hc_h_0"
  param {
    name: "W_hc"
  }
  inner_product_param {
    num_output: 4000
    bias_term: false
    weight_filler {
      type: "uniform"
      min: -0.08
      max: 0.08
    }
    axis: 2
  }
}
layer {
  name: "lstm1_gate_input_1"
  type: "Eltwise"
  bottom: "W_hc_h_0"
  bottom: "W_xc_x_1"
  top: "gate_input_1"
  eltwise_param {
    operation: SUM
  }
}
layer {
  name: "lstm1_unit_1"
  type: "LSTMUnit"
  bottom: "c_0"
  bottom: "gate_input_1"
  bottom: "cont_1"
  top: "c_1"
  top: "h_1"
}
layer {
  name: "lstm1_"
  type: "Split"
  bottom: "c_1"
  top: "c_T"
}
layer {
  name: "lstm1_h_concat"
  type: "Concat"
  bottom: "h_1"
  top: "h"
  concat_param {
    axis: 0
  }
}
layer {
  name: "h_pseudoloss"
  type: "Reduction"
  bottom: "h"
  top: "h_pseudoloss"
  loss_weight: 1
}
I0720 14:32:26.192085 23350 layer_factory.hpp:77] Creating layer lstm1_
I0720 14:32:26.192101 23350 net.cpp:91] Creating Layer lstm1_
I0720 14:32:26.192107 23350 net.cpp:399] lstm1_ -> x
I0720 14:32:26.192121 23350 net.cpp:399] lstm1_ -> cont
I0720 14:32:26.192134 23350 net.cpp:141] Setting up lstm1_
I0720 14:32:26.192143 23350 net.cpp:148] Top shape: 1 1 500 (500)
I0720 14:32:26.192149 23350 net.cpp:148] Top shape: 1 1 (1)
I0720 14:32:26.192154 23350 net.cpp:156] Memory required for data: 2004
I0720 14:32:26.192159 23350 layer_factory.hpp:77] Creating layer lstm1_
I0720 14:32:26.192167 23350 net.cpp:91] Creating Layer lstm1_
I0720 14:32:26.192174 23350 net.cpp:399] lstm1_ -> c_0
I0720 14:32:26.192183 23350 net.cpp:399] lstm1_ -> h_0
I0720 14:32:26.192194 23350 net.cpp:141] Setting up lstm1_
I0720 14:32:26.192201 23350 net.cpp:148] Top shape: 1 1 1000 (1000)
I0720 14:32:26.192208 23350 net.cpp:148] Top shape: 1 1 1000 (1000)
I0720 14:32:26.192211 23350 net.cpp:156] Memory required for data: 10004
I0720 14:32:26.192216 23350 layer_factory.hpp:77] Creating layer lstm1_cont_slice
I0720 14:32:26.192224 23350 net.cpp:91] Creating Layer lstm1_cont_slice
I0720 14:32:26.192229 23350 net.cpp:425] lstm1_cont_slice <- cont
I0720 14:32:26.192237 23350 net.cpp:399] lstm1_cont_slice -> cont_1
I0720 14:32:26.192251 23350 net.cpp:141] Setting up lstm1_cont_slice
I0720 14:32:26.192258 23350 net.cpp:148] Top shape: 1 1 (1)
I0720 14:32:26.192262 23350 net.cpp:156] Memory required for data: 10008
I0720 14:32:26.192267 23350 layer_factory.hpp:77] Creating layer cont_1_lstm1_cont_slice_0_split
I0720 14:32:26.192279 23350 net.cpp:91] Creating Layer cont_1_lstm1_cont_slice_0_split
I0720 14:32:26.192286 23350 net.cpp:425] cont_1_lstm1_cont_slice_0_split <- cont_1
I0720 14:32:26.192292 23350 net.cpp:399] cont_1_lstm1_cont_slice_0_split -> cont_1_lstm1_cont_slice_0_split_0
I0720 14:32:26.192301 23350 net.cpp:399] cont_1_lstm1_cont_slice_0_split -> cont_1_lstm1_cont_slice_0_split_1
I0720 14:32:26.192312 23350 net.cpp:141] Setting up cont_1_lstm1_cont_slice_0_split
I0720 14:32:26.192322 23350 net.cpp:148] Top shape: 1 1 (1)
I0720 14:32:26.192327 23350 net.cpp:148] Top shape: 1 1 (1)
I0720 14:32:26.192332 23350 net.cpp:156] Memory required for data: 10016
I0720 14:32:26.192335 23350 layer_factory.hpp:77] Creating layer lstm1_x_transform
I0720 14:32:26.192345 23350 net.cpp:91] Creating Layer lstm1_x_transform
I0720 14:32:26.192350 23350 net.cpp:425] lstm1_x_transform <- x
I0720 14:32:26.192363 23350 net.cpp:399] lstm1_x_transform -> W_xc_x
I0720 14:32:26.211941 23350 net.cpp:141] Setting up lstm1_x_transform
I0720 14:32:26.211989 23350 net.cpp:148] Top shape: 1 1 4000 (4000)
I0720 14:32:26.211995 23350 net.cpp:156] Memory required for data: 26016
I0720 14:32:26.212018 23350 layer_factory.hpp:77] Creating layer lstm1_W_xc_x_slice
I0720 14:32:26.212034 23350 net.cpp:91] Creating Layer lstm1_W_xc_x_slice
I0720 14:32:26.212043 23350 net.cpp:425] lstm1_W_xc_x_slice <- W_xc_x
I0720 14:32:26.212052 23350 net.cpp:399] lstm1_W_xc_x_slice -> W_xc_x_1
I0720 14:32:26.212074 23350 net.cpp:141] Setting up lstm1_W_xc_x_slice
I0720 14:32:26.212082 23350 net.cpp:148] Top shape: 1 1 4000 (4000)
I0720 14:32:26.212086 23350 net.cpp:156] Memory required for data: 42016
I0720 14:32:26.212091 23350 layer_factory.hpp:77] Creating layer lstm1_h_conted_0
I0720 14:32:26.212108 23350 net.cpp:91] Creating Layer lstm1_h_conted_0
I0720 14:32:26.212115 23350 net.cpp:425] lstm1_h_conted_0 <- h_0
I0720 14:32:26.212121 23350 net.cpp:425] lstm1_h_conted_0 <- cont_1_lstm1_cont_slice_0_split_0
I0720 14:32:26.212131 23350 net.cpp:399] lstm1_h_conted_0 -> h_conted_0
I0720 14:32:26.212164 23350 net.cpp:141] Setting up lstm1_h_conted_0
I0720 14:32:26.212172 23350 net.cpp:148] Top shape: 1 1 1000 (1000)
I0720 14:32:26.212177 23350 net.cpp:156] Memory required for data: 46016
I0720 14:32:26.212182 23350 layer_factory.hpp:77] Creating layer lstm1_transform_1
I0720 14:32:26.212193 23350 net.cpp:91] Creating Layer lstm1_transform_1
I0720 14:32:26.212198 23350 net.cpp:425] lstm1_transform_1 <- h_conted_0
I0720 14:32:26.212209 23350 net.cpp:399] lstm1_transform_1 -> W_hc_h_0
I0720 14:32:26.237334 23368 net.cpp:141] Setting up embedding
I0720 14:32:26.237397 23368 net.cpp:148] Top shape: 1 1 500 (500)
I0720 14:32:26.237411 23368 net.cpp:156] Memory required for data: 22408
I0720 14:32:26.237439 23368 layer_factory.hpp:77] Creating layer lstm1
I0720 14:32:26.237473 23368 net.cpp:91] Creating Layer lstm1
I0720 14:32:26.237488 23368 net.cpp:425] lstm1 <- embedded_input_frames
I0720 14:32:26.237504 23368 net.cpp:425] lstm1 <- cont_sentence_input_1_split_0
I0720 14:32:26.237534 23368 net.cpp:399] lstm1 -> lstm1
I0720 14:32:26.237565 23368 recurrent_layer.cpp:20] Initializing recurrent layer: assuming input batch contains 1 timesteps of 1 independent streams.
I0720 14:32:26.238077 23368 net.cpp:49] Initializing net from parameters: 
layer {
  name: "lstm1_"
  type: "Input"
  top: "x"
  top: "cont"
  input_param {
    shape {
      dim: 1
      dim: 1
      dim: 500
    }
    shape {
      dim: 1
      dim: 1
    }
  }
}
layer {
  name: "lstm1_"
  type: "Input"
  top: "c_0"
  top: "h_0"
  input_param {
    shape {
      dim: 1
      dim: 1
      dim: 1000
    }
    shape {
      dim: 1
      dim: 1
      dim: 1000
    }
  }
}
layer {
  name: "lstm1_cont_slice"
  type: "Slice"
  bottom: "cont"
  top: "cont_1"
  slice_param {
    axis: 0
  }
}
layer {
  name: "lstm1_x_transform"
  type: "InnerProduct"
  bottom: "x"
  top: "W_xc_x"
  param {
    name: "W_xc"
  }
  param {
    name: "b_c"
  }
  propagate_down: true
  inner_product_param {
    num_output: 4000
    bias_term: true
    weight_filler {
      type: "uniform"
      min: -0.08
      max: 0.08
    }
    bias_filler {
      type: "constant"
      value: 0
    }
    axis: 2
  }
}
layer {
  name: "lstm1_W_xc_x_slice"
  type: "Slice"
  bottom: "W_xc_x"
  top: "W_xc_x_1"
  slice_param {
    axis: 0
  }
}
layer {
  name: "lstm1_h_conted_0"
  type: "Scale"
  bottom: "h_0"
  bottom: "cont_1"
  top: "h_conted_0"
  scale_param {
    axis: 0
  }
}
layer {
  name: "lstm1_transform_1"
  type: "InnerProduct"
  bottom: "h_conted_0"
  top: "W_hc_h_0"
  param {
    name: "W_hc"
  }
  inner_product_param {
    num_output: 4000
    bias_term: false
    weight_filler {
      type: "uniform"
      min: -0.08
      max: 0.08
    }
    axis: 2
  }
}
layer {
  name: "lstm1_gate_input_1"
  type: "Eltwise"
  bottom: "W_hc_h_0"
  bottom: "W_xc_x_1"
  top: "gate_input_1"
  eltwise_param {
    operation: SUM
  }
}
layer {
  name: "lstm1_unit_1"
  type: "LSTMUnit"
  bottom: "c_0"
  bottom: "gate_input_1"
  bottom: "cont_1"
  top: "c_1"
  top: "h_1"
}
layer {
  name: "lstm1_"
  type: "Split"
  bottom: "c_1"
  top: "c_T"
}
layer {
  name: "lstm1_h_concat"
  type: "Concat"
  bottom: "h_1"
  top: "h"
  concat_param {
    axis: 0
  }
}
layer {
  name: "h_pseudoloss"
  type: "Reduction"
  bottom: "h"
  top: "h_pseudoloss"
  loss_weight: 1
}
I0720 14:32:26.238248 23368 layer_factory.hpp:77] Creating layer lstm1_
I0720 14:32:26.238271 23368 net.cpp:91] Creating Layer lstm1_
I0720 14:32:26.238282 23368 net.cpp:399] lstm1_ -> x
I0720 14:32:26.238302 23368 net.cpp:399] lstm1_ -> cont
I0720 14:32:26.238325 23368 net.cpp:141] Setting up lstm1_
I0720 14:32:26.238342 23368 net.cpp:148] Top shape: 1 1 500 (500)
I0720 14:32:26.238355 23368 net.cpp:148] Top shape: 1 1 (1)
I0720 14:32:26.238363 23368 net.cpp:156] Memory required for data: 2004
I0720 14:32:26.238373 23368 layer_factory.hpp:77] Creating layer lstm1_
I0720 14:32:26.238389 23368 net.cpp:91] Creating Layer lstm1_
I0720 14:32:26.238400 23368 net.cpp:399] lstm1_ -> c_0
I0720 14:32:26.238416 23368 net.cpp:399] lstm1_ -> h_0
I0720 14:32:26.238432 23368 net.cpp:141] Setting up lstm1_
I0720 14:32:26.238446 23368 net.cpp:148] Top shape: 1 1 1000 (1000)
I0720 14:32:26.238457 23368 net.cpp:148] Top shape: 1 1 1000 (1000)
I0720 14:32:26.238467 23368 net.cpp:156] Memory required for data: 10004
I0720 14:32:26.238476 23368 layer_factory.hpp:77] Creating layer lstm1_cont_slice
I0720 14:32:26.238493 23368 net.cpp:91] Creating Layer lstm1_cont_slice
I0720 14:32:26.238502 23368 net.cpp:425] lstm1_cont_slice <- cont
I0720 14:32:26.238513 23368 net.cpp:399] lstm1_cont_slice -> cont_1
I0720 14:32:26.238543 23368 net.cpp:141] Setting up lstm1_cont_slice
I0720 14:32:26.238559 23368 net.cpp:148] Top shape: 1 1 (1)
I0720 14:32:26.238569 23368 net.cpp:156] Memory required for data: 10008
I0720 14:32:26.238577 23368 layer_factory.hpp:77] Creating layer cont_1_lstm1_cont_slice_0_split
I0720 14:32:26.238595 23368 net.cpp:91] Creating Layer cont_1_lstm1_cont_slice_0_split
I0720 14:32:26.238605 23368 net.cpp:425] cont_1_lstm1_cont_slice_0_split <- cont_1
I0720 14:32:26.238616 23368 net.cpp:399] cont_1_lstm1_cont_slice_0_split -> cont_1_lstm1_cont_slice_0_split_0
I0720 14:32:26.238636 23368 net.cpp:399] cont_1_lstm1_cont_slice_0_split -> cont_1_lstm1_cont_slice_0_split_1
I0720 14:32:26.238654 23368 net.cpp:141] Setting up cont_1_lstm1_cont_slice_0_split
I0720 14:32:26.238669 23368 net.cpp:148] Top shape: 1 1 (1)
I0720 14:32:26.238680 23368 net.cpp:148] Top shape: 1 1 (1)
I0720 14:32:26.238698 23368 net.cpp:156] Memory required for data: 10016
I0720 14:32:26.238708 23368 layer_factory.hpp:77] Creating layer lstm1_x_transform
I0720 14:32:26.238724 23368 net.cpp:91] Creating Layer lstm1_x_transform
I0720 14:32:26.238732 23368 net.cpp:425] lstm1_x_transform <- x
I0720 14:32:26.238751 23368 net.cpp:399] lstm1_x_transform -> W_xc_x
I0720 14:32:26.249174 23352 net.cpp:141] Setting up embedding
I0720 14:32:26.249222 23352 net.cpp:148] Top shape: 1 1 500 (500)
I0720 14:32:26.249229 23352 net.cpp:156] Memory required for data: 22408
I0720 14:32:26.249250 23352 layer_factory.hpp:77] Creating layer lstm1
I0720 14:32:26.249289 23352 net.cpp:91] Creating Layer lstm1
I0720 14:32:26.249300 23352 net.cpp:425] lstm1 <- embedded_input_frames
I0720 14:32:26.249311 23352 net.cpp:425] lstm1 <- cont_sentence_input_1_split_0
I0720 14:32:26.249323 23352 net.cpp:399] lstm1 -> lstm1
I0720 14:32:26.249346 23352 recurrent_layer.cpp:20] Initializing recurrent layer: assuming input batch contains 1 timesteps of 1 independent streams.
I0720 14:32:26.249729 23352 net.cpp:49] Initializing net from parameters: 
layer {
  name: "lstm1_"
  type: "Input"
  top: "x"
  top: "cont"
  input_param {
    shape {
      dim: 1
      dim: 1
      dim: 500
    }
    shape {
      dim: 1
      dim: 1
    }
  }
}
layer {
  name: "lstm1_"
  type: "Input"
  top: "c_0"
  top: "h_0"
  input_param {
    shape {
      dim: 1
      dim: 1
      dim: 1000
    }
    shape {
      dim: 1
      dim: 1
      dim: 1000
    }
  }
}
layer {
  name: "lstm1_cont_slice"
  type: "Slice"
  bottom: "cont"
  top: "cont_1"
  slice_param {
    axis: 0
  }
}
layer {
  name: "lstm1_x_transform"
  type: "InnerProduct"
  bottom: "x"
  top: "W_xc_x"
  param {
    name: "W_xc"
  }
  param {
    name: "b_c"
  }
  propagate_down: true
  inner_product_param {
    num_output: 4000
    bias_term: true
    weight_filler {
      type: "uniform"
      min: -0.08
      max: 0.08
    }
    bias_filler {
      type: "constant"
      value: 0
    }
    axis: 2
  }
}
layer {
  name: "lstm1_W_xc_x_slice"
  type: "Slice"
  bottom: "W_xc_x"
  top: "W_xc_x_1"
  slice_param {
    axis: 0
  }
}
layer {
  name: "lstm1_h_conted_0"
  type: "Scale"
  bottom: "h_0"
  bottom: "cont_1"
  top: "h_conted_0"
  scale_param {
    axis: 0
  }
}
layer {
  name: "lstm1_transform_1"
  type: "InnerProduct"
  bottom: "h_conted_0"
  top: "W_hc_h_0"
  param {
    name: "W_hc"
  }
  inner_product_param {
    num_output: 4000
    bias_term: false
    weight_filler {
      type: "uniform"
      min: -0.08
      max: 0.08
    }
    axis: 2
  }
}
layer {
  name: "lstm1_gate_input_1"
  type: "Eltwise"
  bottom: "W_hc_h_0"
  bottom: "W_xc_x_1"
  top: "gate_input_1"
  eltwise_param {
    operation: SUM
  }
}
layer {
  name: "lstm1_unit_1"
  type: "LSTMUnit"
  bottom: "c_0"
  bottom: "gate_input_1"
  bottom: "cont_1"
  top: "c_1"
  top: "h_1"
}
layer {
  name: "lstm1_"
  type: "Split"
  bottom: "c_1"
  top: "c_T"
}
layer {
  name: "lstm1_h_concat"
  type: "Concat"
  bottom: "h_1"
  top: "h"
  concat_param {
    axis: 0
  }
}
layer {
  name: "h_pseudoloss"
  type: "Reduction"
  bottom: "h"
  top: "h_pseudoloss"
  loss_weight: 1
}
I0720 14:32:26.249851 23352 layer_factory.hpp:77] Creating layer lstm1_
I0720 14:32:26.249867 23352 net.cpp:91] Creating Layer lstm1_
I0720 14:32:26.249877 23352 net.cpp:399] lstm1_ -> x
I0720 14:32:26.249893 23352 net.cpp:399] lstm1_ -> cont
I0720 14:32:26.249909 23352 net.cpp:141] Setting up lstm1_
I0720 14:32:26.249920 23352 net.cpp:148] Top shape: 1 1 500 (500)
I0720 14:32:26.249928 23352 net.cpp:148] Top shape: 1 1 (1)
I0720 14:32:26.249934 23352 net.cpp:156] Memory required for data: 2004
I0720 14:32:26.249941 23352 layer_factory.hpp:77] Creating layer lstm1_
I0720 14:32:26.249953 23352 net.cpp:91] Creating Layer lstm1_
I0720 14:32:26.249961 23352 net.cpp:399] lstm1_ -> c_0
I0720 14:32:26.249975 23352 net.cpp:399] lstm1_ -> h_0
I0720 14:32:26.249989 23352 net.cpp:141] Setting up lstm1_
I0720 14:32:26.249999 23352 net.cpp:148] Top shape: 1 1 1000 (1000)
I0720 14:32:26.250006 23352 net.cpp:148] Top shape: 1 1 1000 (1000)
I0720 14:32:26.250012 23352 net.cpp:156] Memory required for data: 10004
I0720 14:32:26.250018 23352 layer_factory.hpp:77] Creating layer lstm1_cont_slice
I0720 14:32:26.250035 23352 net.cpp:91] Creating Layer lstm1_cont_slice
I0720 14:32:26.250041 23352 net.cpp:425] lstm1_cont_slice <- cont
I0720 14:32:26.250052 23352 net.cpp:399] lstm1_cont_slice -> cont_1
I0720 14:32:26.250068 23352 net.cpp:141] Setting up lstm1_cont_slice
I0720 14:32:26.250078 23352 net.cpp:148] Top shape: 1 1 (1)
I0720 14:32:26.250084 23352 net.cpp:156] Memory required for data: 10008
I0720 14:32:26.250092 23352 layer_factory.hpp:77] Creating layer cont_1_lstm1_cont_slice_0_split
I0720 14:32:26.250107 23352 net.cpp:91] Creating Layer cont_1_lstm1_cont_slice_0_split
I0720 14:32:26.250113 23352 net.cpp:425] cont_1_lstm1_cont_slice_0_split <- cont_1
I0720 14:32:26.250123 23352 net.cpp:399] cont_1_lstm1_cont_slice_0_split -> cont_1_lstm1_cont_slice_0_split_0
I0720 14:32:26.250133 23352 net.cpp:399] cont_1_lstm1_cont_slice_0_split -> cont_1_lstm1_cont_slice_0_split_1
I0720 14:32:26.250146 23352 net.cpp:141] Setting up cont_1_lstm1_cont_slice_0_split
I0720 14:32:26.250155 23352 net.cpp:148] Top shape: 1 1 (1)
I0720 14:32:26.250164 23352 net.cpp:148] Top shape: 1 1 (1)
I0720 14:32:26.250169 23352 net.cpp:156] Memory required for data: 10016
I0720 14:32:26.250175 23352 layer_factory.hpp:77] Creating layer lstm1_x_transform
I0720 14:32:26.250192 23352 net.cpp:91] Creating Layer lstm1_x_transform
I0720 14:32:26.250200 23352 net.cpp:425] lstm1_x_transform <- x
I0720 14:32:26.250213 23352 net.cpp:399] lstm1_x_transform -> W_xc_x
I0720 14:32:26.250286 23350 net.cpp:141] Setting up lstm1_transform_1
I0720 14:32:26.250324 23350 net.cpp:148] Top shape: 1 1 4000 (4000)
I0720 14:32:26.250329 23350 net.cpp:156] Memory required for data: 62016
I0720 14:32:26.250346 23350 layer_factory.hpp:77] Creating layer lstm1_gate_input_1
I0720 14:32:26.250370 23350 net.cpp:91] Creating Layer lstm1_gate_input_1
I0720 14:32:26.250378 23350 net.cpp:425] lstm1_gate_input_1 <- W_hc_h_0
I0720 14:32:26.250386 23350 net.cpp:425] lstm1_gate_input_1 <- W_xc_x_1
I0720 14:32:26.250394 23350 net.cpp:399] lstm1_gate_input_1 -> gate_input_1
I0720 14:32:26.250421 23350 net.cpp:141] Setting up lstm1_gate_input_1
I0720 14:32:26.250428 23350 net.cpp:148] Top shape: 1 1 4000 (4000)
I0720 14:32:26.250433 23350 net.cpp:156] Memory required for data: 78016
I0720 14:32:26.250438 23350 layer_factory.hpp:77] Creating layer lstm1_unit_1
I0720 14:32:26.250463 23350 net.cpp:91] Creating Layer lstm1_unit_1
I0720 14:32:26.250468 23350 net.cpp:425] lstm1_unit_1 <- c_0
I0720 14:32:26.250809 23350 net.cpp:425] lstm1_unit_1 <- gate_input_1
I0720 14:32:26.250831 23350 net.cpp:425] lstm1_unit_1 <- cont_1_lstm1_cont_slice_0_split_1
I0720 14:32:26.250843 23350 net.cpp:399] lstm1_unit_1 -> c_1
I0720 14:32:26.250854 23350 net.cpp:399] lstm1_unit_1 -> h_1
I0720 14:32:26.250875 23350 net.cpp:141] Setting up lstm1_unit_1
I0720 14:32:26.250887 23350 net.cpp:148] Top shape: 1 1 1000 (1000)
I0720 14:32:26.250893 23350 net.cpp:148] Top shape: 1 1 1000 (1000)
I0720 14:32:26.250898 23350 net.cpp:156] Memory required for data: 86016
I0720 14:32:26.250905 23350 layer_factory.hpp:77] Creating layer lstm1_
I0720 14:32:26.250912 23350 net.cpp:91] Creating Layer lstm1_
I0720 14:32:26.250917 23350 net.cpp:425] lstm1_ <- c_1
I0720 14:32:26.250924 23350 net.cpp:399] lstm1_ -> c_T
I0720 14:32:26.250933 23350 net.cpp:141] Setting up lstm1_
I0720 14:32:26.250941 23350 net.cpp:148] Top shape: 1 1 1000 (1000)
I0720 14:32:26.250944 23350 net.cpp:156] Memory required for data: 90016
I0720 14:32:26.250948 23350 layer_factory.hpp:77] Creating layer lstm1_h_concat
I0720 14:32:26.252133 23350 net.cpp:91] Creating Layer lstm1_h_concat
I0720 14:32:26.252153 23350 net.cpp:425] lstm1_h_concat <- h_1
I0720 14:32:26.252166 23350 net.cpp:399] lstm1_h_concat -> h
I0720 14:32:26.252184 23350 net.cpp:141] Setting up lstm1_h_concat
I0720 14:32:26.252193 23350 net.cpp:148] Top shape: 1 1 1000 (1000)
I0720 14:32:26.252198 23350 net.cpp:156] Memory required for data: 94016
I0720 14:32:26.252204 23350 layer_factory.hpp:77] Creating layer h_pseudoloss
I0720 14:32:26.252248 23350 net.cpp:91] Creating Layer h_pseudoloss
I0720 14:32:26.252254 23350 net.cpp:425] h_pseudoloss <- h
I0720 14:32:26.252262 23350 net.cpp:399] h_pseudoloss -> h_pseudoloss
I0720 14:32:26.252295 23350 net.cpp:141] Setting up h_pseudoloss
…
I0720 14:32:26.252426 23350 net.cpp:219] lstm1_ does not need backward computation.
I0720 14:32:26.252430 23350 net.cpp:261] This network produces output c_T
I0720 14:32:26.252435 23350 net.cpp:261] This network produces output h_pseudoloss
I0720 14:32:26.252452 23350 net.cpp:274] Network initialization done.
I0720 14:32:26.252518 23350 recurrent_layer.cpp:150] Adding parameter 0: W_xc
I0720 14:32:26.252526 23350 recurrent_layer.cpp:150] Adding parameter 1: b_c
I0720 14:32:26.252531 23350 recurrent_layer.cpp:150] Adding parameter 2: W_hc
I0720 14:32:26.252580 23350 net.cpp:141] Setting up lstm1
I0720 14:32:26.252590 23350 net.cpp:148] Top shape: 1 1 1000 (1000)
I0720 14:32:26.252594 23350 net.cpp:156] Memory required for data: 26408
I0720 14:32:26.252609 23350 layer_factory.hpp:77] Creating layer concat
I0720 14:32:26.252619 23350 net.cpp:91] Creating Layer concat
I0720 14:32:26.252625 23350 net.cpp:425] concat <- lstm1
I0720 14:32:26.252634 23350 net.cpp:425] concat <- embedded_input_sentence
I0720 14:32:26.252638 23350 net.cpp:425] concat <- reshaped_stage_indicator
I0720 14:32:26.252645 23350 net.cpp:399] concat -> lstm1_video_sequence
I0720 14:32:26.252656 23350 net.cpp:141] Setting up concat
I0720 14:32:26.252663 23350 net.cpp:148] Top shape: 1 1 1501 (1501)
I0720 14:32:26.252668 23350 net.cpp:156] Memory required for data: 32412
I0720 14:32:26.252672 23350 layer_factory.hpp:77] Creating layer lstm2
I0720 14:32:26.252687 23350 net.cpp:91] Creating Layer lstm2
I0720 14:32:26.252692 23350 net.cpp:425] lstm2 <- lstm1_video_sequence
I0720 14:32:26.252701 23350 net.cpp:425] lstm2 <- cont_sentence_input_1_split_1
I0720 14:32:26.252707 23350 net.cpp:399] lstm2 -> lstm2
I0720 14:32:26.252718 23350 recurrent_layer.cpp:20] Initializing recurrent layer: assuming input batch contains 1 timesteps of 1 independent streams.
I0720 14:32:26.253015 23350 net.cpp:49] Initializing net from parameters: 
layer {
  name: "lstm2_"
  type: "Input"
  top: "x"
  top: "cont"
  input_param {
    shape {
      dim: 1
      dim: 1
      dim: 1501
    }
    shape {
      dim: 1
      dim: 1
    }
  }
}
layer {
  name: "lstm2_"
  type: "Input"
  top: "c_0"
  top: "h_0"
  input_param {
    shape {
      dim: 1
      dim: 1
      dim: 1000
    }
    shape {
      dim: 1
      dim: 1
      dim: 1000
    }
  }
}
layer {
  name: "lstm2_cont_slice"
  type: "Slice"
  bottom: "cont"
  top: "cont_1"
  slice_param {
    axis: 0
  }
}
layer {
  name: "lstm2_x_transform"
  type: "InnerProduct"
  bottom: "x"
  top: "W_xc_x"
  param {
    name: "W_xc"
  }
  param {
    name: "b_c"
  }
  propagate_down: true
  inner_product_param {
    num_output: 4000
    bias_term: true
    weight_filler {
      type: "uniform"
      min: -0.08
      max: 0.08
    }
    bias_filler {
      type: "constant"
      value: 0
    }
    axis: 2
  }
}
layer {
  name: "lstm2_W_xc_x_slice"
  type: "Slice"
  bottom: "W_xc_x"
  top: "W_xc_x_1"
  slice_param {
    axis: 0
  }
}
layer {
  name: "lstm2_h_conted_0"
  type: "Scale"
  bottom: "h_0"
  bottom: "cont_1"
  top: "h_conted_0"
  scale_param {
    axis: 0
  }
}
layer {
  name: "lstm2_transform_1"
  type: "InnerProduct"
  bottom: "h_conted_0"
  top: "W_hc_h_0"
  param {
    name: "W_hc"
  }
  inner_product_param {
    num_output: 4000
    bias_term: false
    weight_filler {
      type: "uniform"
      min: -0.08
      max: 0.08
    }
    axis: 2
  }
}
layer {
  name: "lstm2_gate_input_1"
  type: "Eltwise"
  bottom: "W_hc_h_0"
  bottom: "W_xc_x_1"
  top: "gate_input_1"
  eltwise_param {
    operation: SUM
  }
}
layer {
  name: "lstm2_unit_1"
  type: "LSTMUnit"
  bottom: "c_0"
  bottom: "gate_input_1"
  bottom: "cont_1"
  top: "c_1"
  top: "h_1"
}
layer {
  name: "lstm2_"
  type: "Split"
  bottom: "c_1"
  top: "c_T"
}
layer {
  name: "lstm2_h_concat"
  type: "Concat"
  bottom: "h_1"
  top: "h"
  concat_param {
    axis: 0
  }
}
layer {
  name: "h_pseudoloss"
  type: "Reduction"
  bottom: "h"
  top: "h_pseudoloss"
  loss_weight: 1
}
I0720 14:32:26.253114 23350 layer_factory.hpp:77] Creating layer lstm2_
I0720 14:32:26.253129 23350 net.cpp:91] Creating Layer lstm2_
I0720 14:32:26.253135 23350 net.cpp:399] lstm2_ -> x
I0720 14:32:26.253147 23350 net.cpp:399] lstm2_ -> cont
I0720 14:32:26.253159 23350 net.cpp:141] Setting up lstm2_
I0720 14:32:26.253167 23350 net.cpp:148] Top shape: 1 1 1501 (1501)
I0720 14:32:26.253175 23350 net.cpp:148] Top shape: 1 1 (1)
I0720 14:32:26.253178 23350 net.cpp:156] Memory required for data: 6008
I0720 14:32:26.253183 23350 layer_factory.hpp:77] Creating layer lstm2_
I0720 14:32:26.253191 23350 net.cpp:91] Creating Layer lstm2_
I0720 14:32:26.253198 23350 net.cpp:399] lstm2_ -> c_0
I0720 14:32:26.253212 23350 net.cpp:399] lstm2_ -> h_0
I0720 14:32:26.253223 23350 net.cpp:141] Setting up lstm2_
I0720 14:32:26.253232 23350 net.cpp:148] Top shape: 1 1 1000 (1000)
I0720 14:32:26.253237 23350 net.cpp:148] Top shape: 1 1 1000 (1000)
I0720 14:32:26.253242 23350 net.cpp:156] Memory required for data: 14008
I0720 14:32:26.253245 23350 layer_factory.hpp:77] Creating layer lstm2_cont_slice
I0720 14:32:26.253253 23350 net.cpp:91] Creating Layer lstm2_cont_slice
I0720 14:32:26.253258 23350 net.cpp:425] lstm2_cont_slice <- cont
I0720 14:32:26.253267 23350 net.cpp:399] lstm2_cont_slice -> cont_1
I0720 14:32:26.253278 23350 net.cpp:141] Setting up lstm2_cont_slice
I0720 14:32:26.253284 23350 net.cpp:148] Top shape: 1 1 (1)
I0720 14:32:26.253289 23350 net.cpp:156] Memory required for data: 14012
I0720 14:32:26.253294 23350 layer_factory.hpp:77] Creating layer cont_1_lstm2_cont_slice_0_split
I0720 14:32:26.253303 23350 net.cpp:91] Creating Layer cont_1_lstm2_cont_slice_0_split
I0720 14:32:26.253306 23350 net.cpp:425] cont_1_lstm2_cont_slice_0_split <- cont_1
I0720 14:32:26.253314 23350 net.cpp:399] cont_1_lstm2_cont_slice_0_split -> cont_1_lstm2_cont_slice_0_split_0
I0720 14:32:26.253321 23350 net.cpp:399] cont_1_lstm2_cont_slice_0_split -> cont_1_lstm2_cont_slice_0_split_1
I0720 14:32:26.253330 23350 net.cpp:141] Setting up cont_1_lstm2_cont_slice_0_split
I0720 14:32:26.253337 23350 net.cpp:148] Top shape: 1 1 (1)
I0720 14:32:26.253342 23350 net.cpp:148] Top shape: 1 1 (1)
I0720 14:32:26.253346 23350 net.cpp:156] Memory required for data: 14020
I0720 14:32:26.253351 23350 layer_factory.hpp:77] Creating layer lstm2_x_transform
I0720 14:32:26.253365 23350 net.cpp:91] Creating Layer lstm2_x_transform
I0720 14:32:26.253371 23350 net.cpp:425] lstm2_x_transform <- x
I0720 14:32:26.253378 23350 net.cpp:399] lstm2_x_transform -> W_xc_x
I0720 14:32:26.257001 23340 net.cpp:141] Setting up embedding
I0720 14:32:26.257066 23340 net.cpp:148] Top shape: 1 1 500 (500)
I0720 14:32:26.257076 23340 net.cpp:156] Memory required for data: 22408
I0720 14:32:26.257102 23340 layer_factory.hpp:77] Creating layer lstm1
I0720 14:32:26.257130 23340 net.cpp:91] Creating Layer lstm1
I0720 14:32:26.257143 23340 net.cpp:425] lstm1 <- embedded_input_frames
I0720 14:32:26.257158 23340 net.cpp:425] lstm1 <- cont_sentence_input_1_split_0
I0720 14:32:26.257537 23340 net.cpp:399] lstm1 -> lstm1
I0720 14:32:26.257570 23340 recurrent_layer.cpp:20] Initializing recurrent layer: assuming input batch contains 1 timesteps of 1 independent streams.
I0720 14:32:26.258956 23340 net.cpp:49] Initializing net from parameters: 
layer {
  name: "lstm1_"
  type: "Input"
  top: "x"
  top: "cont"
  input_param {
    shape {
      dim: 1
      dim: 1
      dim: 500
    }
    shape {
      dim: 1
      dim: 1
    }
  }
}
layer {
  name: "lstm1_"
  type: "Input"
  top: "c_0"
  top: "h_0"
  input_param {
    shape {
      dim: 1
      dim: 1
      dim: 1000
    }
    shape {
      dim: 1
      dim: 1
      dim: 1000
    }
  }
}
layer {
  name: "lstm1_cont_slice"
  type: "Slice"
  bottom: "cont"
  top: "cont_1"
  slice_param {
    axis: 0
  }
}
layer {
  name: "lstm1_x_transform"
  type: "InnerProduct"
  bottom: "x"
  top: "W_xc_x"
  param {
    name: "W_xc"
  }
  param {
    name: "b_c"
  }
  propagate_down: true
  inner_product_param {
    num_output: 4000
    bias_term: true
    weight_filler {
      type: "uniform"
      min: -0.08
      max: 0.08
    }
    bias_filler {
      type: "constant"
      value: 0
    }
    axis: 2
  }
}
layer {
  name: "lstm1_W_xc_x_slice"
  type: "Slice"
  bottom: "W_xc_x"
  top: "W_xc_x_1"
  slice_param {
    axis: 0
  }
}
layer {
  name: "lstm1_h_conted_0"
  type: "Scale"
  bottom: "h_0"
  bottom: "cont_1"
  top: "h_conted_0"
  scale_param {
    axis: 0
  }
}
layer {
  name: "lstm1_transform_1"
  type: "InnerProduct"
  bottom: "h_conted_0"
  top: "W_hc_h_0"
  param {
    name: "W_hc"
  }
  inner_product_param {
    num_output: 4000
    bias_term: false
    weight_filler {
      type: "uniform"
      min: -0.08
      max: 0.08
    }
    axis: 2
  }
}
layer {
  name: "lstm1_gate_input_1"
  type: "Eltwise"
  bottom: "W_hc_h_0"
  bottom: "W_xc_x_1"
  top: "gate_input_1"
  eltwise_param {
    operation: SUM
  }
}
layer {
  name: "lstm1_unit_1"
  type: "LSTMUnit"
  bottom: "c_0"
  bottom: "gate_input_1"
  bottom: "cont_1"
  top: "c_1"
  top: "h_1"
}
layer {
  name: "lstm1_"
  type: "Split"
  bottom: "c_1"
  top: "c_T"
}
layer {
  name: "lstm1_h_concat"
  type: "Concat"
  bottom: "h_1"
  top: "h"
  concat_param {
    axis: 0
  }
}
layer {
  name: "h_pseudoloss"
  type: "Reduction"
  bottom: "h"
  top: "h_pseudoloss"
  loss_weight: 1
}
I0720 14:32:26.259632 23340 layer_factory.hpp:77] Creating layer lstm1_
I0720 14:32:26.259660 23340 net.cpp:91] Creating Layer lstm1_
I0720 14:32:26.259673 23340 net.cpp:399] lstm1_ -> x
I0720 14:32:26.259696 23340 net.cpp:399] lstm1_ -> cont
I0720 14:32:26.259721 23340 net.cpp:141] Setting up lstm1_
I0720 14:32:26.259737 23340 net.cpp:148] Top shape: 1 1 500 (500)
I0720 14:32:26.259747 23340 net.cpp:148] Top shape: 1 1 (1)
I0720 14:32:26.259754 23340 net.cpp:156] Memory required for data: 2004
I0720 14:32:26.259764 23340 layer_factory.hpp:77] Creating layer lstm1_
I0720 14:32:26.259778 23340 net.cpp:91] Creating Layer lstm1_
I0720 14:32:26.259789 23340 net.cpp:399] lstm1_ -> c_0
I0720 14:32:26.259805 23340 net.cpp:399] lstm1_ -> h_0
I0720 14:32:26.259824 23340 net.cpp:141] Setting up lstm1_
I0720 14:32:26.259835 23340 net.cpp:148] Top shape: 1 1 1000 (1000)
I0720 14:32:26.259845 23340 net.cpp:148] Top shape: 1 1 1000 (1000)
I0720 14:32:26.259853 23340 net.cpp:156] Memory required for data: 10004
I0720 14:32:26.259861 23340 layer_factory.hpp:77] Creating layer lstm1_cont_slice
I0720 14:32:26.259876 23340 net.cpp:91] Creating Layer lstm1_cont_slice
I0720 14:32:26.259884 23340 net.cpp:425] lstm1_cont_slice <- cont
I0720 14:32:26.259897 23340 net.cpp:399] lstm1_cont_slice -> cont_1
I0720 14:32:26.259919 23340 net.cpp:141] Setting up lstm1_cont_slice
I0720 14:32:26.259932 23340 net.cpp:148] Top shape: 1 1 (1)
I0720 14:32:26.259939 23340 net.cpp:156] Memory required for data: 10008
I0720 14:32:26.259948 23340 layer_factory.hpp:77] Creating layer cont_1_lstm1_cont_slice_0_split
I0720 14:32:26.260232 23354 net.cpp:141] Setting up embedding
I0720 14:32:26.261757 23344 net.cpp:141] Setting up embedding
I0720 14:32:26.261775 23344 net.cpp:148] Top shape: 1 1 500 (500)
I0720 14:32:26.261780 23344 net.cpp:156] Memory required for data: 22408
I0720 14:32:26.261795 23344 layer_factory.hpp:77] Creating layer lstm1
I0720 14:32:26.261818 23340 net.cpp:91] Creating Layer cont_1_lstm1_cont_slice_0_split
I0720 14:32:26.261831 23354 net.cpp:148] Top shape: 1 1 500 (500)
I0720 14:32:26.261837 23340 net.cpp:425] cont_1_lstm1_cont_slice_0_split <- cont_1
I0720 14:32:26.261842 23354 net.cpp:156] Memory required for data: 22408
I0720 14:32:26.261854 23354 layer_factory.hpp:77] Creating layer lstm1
I0720 14:32:26.261853 23340 net.cpp:399] cont_1_lstm1_cont_slice_0_split -> cont_1_lstm1_cont_slice_0_split_0
I0720 14:32:26.261864 23354 net.cpp:91] Creating Layer lstm1
I0720 14:32:26.261871 23354 net.cpp:425] lstm1 <- embedded_input_frames
I0720 14:32:26.261879 23354 net.cpp:425] lstm1 <- cont_sentence_input_1_split_0
I0720 14:32:26.262007 23340 net.cpp:399] cont_1_lstm1_cont_slice_0_split -> cont_1_lstm1_cont_slice_0_split_1
I0720 14:32:26.262024 23344 net.cpp:91] Creating Layer lstm1
I0720 14:32:26.262032 23340 net.cpp:141] Setting up cont_1_lstm1_cont_slice_0_split
I0720 14:32:26.262024 23354 net.cpp:399] lstm1 -> lstm1
I0720 14:32:26.262045 23340 net.cpp:148] Top shape: 1 1 (1)
I0720 14:32:26.262049 23344 net.cpp:425] lstm1 <- embedded_input_frames
I0720 14:32:26.262058 23340 net.cpp:148] Top shape: 1 1 (1)
I0720 14:32:26.262061 23344 net.cpp:425] lstm1 <- cont_sentence_input_1_split_0
I0720 14:32:26.262064 23354 recurrent_layer.cpp:20] Initializing recurrent layer: assuming input batch contains 1 timesteps of 1 independent streams.
I0720 14:32:26.262065 23340 net.cpp:156] Memory required for data: 10016
I0720 14:32:26.262089 23340 layer_factory.hpp:77] Creating layer lstm1_x_transform
I0720 14:32:26.262111 23340 net.cpp:91] Creating Layer lstm1_x_transform
I0720 14:32:26.262120 23340 net.cpp:425] lstm1_x_transform <- x
I0720 14:32:26.262594 23344 net.cpp:399] lstm1 -> lstm1
I0720 14:32:26.262609 23340 net.cpp:399] lstm1_x_transform -> W_xc_x
I0720 14:32:26.262614 23344 recurrent_layer.cpp:20] Initializing recurrent layer: assuming input batch contains 1 timesteps of 1 independent streams.
I0720 14:32:26.263388 23354 net.cpp:49] Initializing net from parameters: 
layer {
  name: "lstm1_"
  type: "Input"
  top: "x"
  top: "cont"
  input_param {
    shape {
      dim: 1
      dim: 1
      dim: 500
    }
    shape {
      dim: 1
      dim: 1
    }
  }
}
layer {
  name: "lstm1_"
  type: "Input"
  top: "c_0"
  top: "h_0"
  input_param {
    shape {
      dim: 1
      dim: 1
      dim: 1000
    }
    shape {
      dim: 1
      dim: 1
      dim: 1000
    }
  }
}
layer {
  name: "lstm1_cont_slice"
  type: "Slice"
  bottom: "cont"
  top: "cont_1"
  slice_param {
    axis: 0
  }
}
layer {
  name: "lstm1_x_transform"
  type: "InnerProduct"
  bottom: "x"
  top: "W_xc_x"
  param {
    name: "W_xc"
  }
  param {
    name: "b_c"
  }
  propagate_down: true
  inner_product_param {
    num_output: 4000
    bias_term: true
    weight_filler {
      type: "uniform"
      min: -0.08
      max: 0.08
    }
    bias_filler {
      type: "constant"
      value: 0
    }
    axis: 2
  }
}
layer {
  name: "lstm1_W_xc_x_slice"
  type: "Slice"
  bottom: "W_xc_x"
  top: "W_xc_x_1"
  slice_param {
    axis: 0
  }
}
layer {
  name: "lstm1_h_conted_0"
  type: "Scale"
  bottom: "h_0"
  bottom: "cont_1"
  top: "h_conted_0"
  scale_param {
    axis: 0
  }
}
layer {
  name: "lstm1_transform_1"
  type: "InnerProduct"
  bottom: "h_conted_0"
  top: "W_hc_h_0"
  param {
    name: "W_hc"
  }
  inner_product_param {
    num_output: 4000
    bias_term: false
    weight_filler {
      type: "uniform"
      min: -0.08
      max: 0.08
    }
    axis: 2
  }
}
layer {
  name: "lstm1_gate_input_1"
  type: "Eltwise"
  bottom: "W_hc_h_0"
  bottom: "W_xc_x_1"
  top: "gate_input_1"
  eltwise_param {
    operation: SUM
  }
}
layer {
  name: "lstm1_unit_1"
  type: "LSTMUnit"
  bottom: "c_0"
  bottom: "gate_input_1"
  bottom: "cont_1"
  top: "c_1"
  top: "h_1"
}
layer {
  name: "lstm1_"
  type: "Split"
  bottom: "c_1"
  top: "c_T"
}
layer {
  name: "lstm1_h_concat"
  type: "Concat"
  bottom: "h_1"
  top: "h"
  concat_param {
    axis: 0
  }
}
layer {
  name: "h_pseudoloss"
  type: "Reduction"
  bottom: "h"
  top: "h_pseudoloss"
  loss_weight: 1
}
I0720 14:32:26.263388 23344 net.cpp:49] Initializing net from parameters: 
layer {
  name: "lstm1_"
  type: "Input"
  top: "x"
  top: "cont"
  input_param {
    shape {
      dim: 1
      dim: 1
      dim: 500
    }
    shape {
      dim: 1
      dim: 1
    }
  }
}
layer {
  name: "lstm1_"
  type: "Input"
  top: "c_0"
  top: "h_0"
  input_param {
    shape {
      dim: 1
      dim: 1
      dim: 1000
    }
    shape {
      dim: 1
      dim: 1
      dim: 1000
    }
  }
}
layer {
  name: "lstm1_cont_slice"
  type: "Slice"
  bottom: "cont"
  top: "cont_1"
  slice_param {
    axis: 0
  }
}
layer {
  name: "lstm1_x_transform"
  type: "InnerProduct"
  bottom: "x"
  top: "W_xc_x"
  param {
    name: "W_xc"
  }
  param {
    name: "b_c"
  }
  propagate_down: true
  inner_product_param {
    num_output: 4000
    bias_term: true
    weight_filler {
      type: "uniform"
      min: -0.08
      max: 0.08
    }
    bias_filler {
      type: "constant"
      value: 0
    }
    axis: 2
  }
}
layer {
  name: "lstm1_W_xc_x_slice"
  type: "Slice"
  bottom: "W_xc_x"
  top: "W_xc_x_1"
  slice_param {
    axis: 0
  }
}
layer {
  name: "lstm1_h_conted_0"
  type: "Scale"
  bottom: "h_0"
  bottom: "cont_1"
  top: "h_conted_0"
  scale_param {
    axis: 0
  }
}
layer {
  name: "lstm1_transform_1"
  type: "InnerProduct"
  bottom: "h_conted_0"
  top: "W_hc_h_0"
  param {
    name: "W_hc"
  }
  inner_product_param {
    num_output: 4000
    bias_term: false
    weight_filler {
      type: "uniform"
      min: -0.08
      max: 0.08
    }
    axis: 2
  }
}
layer {
  name: "lstm1_gate_input_1"
  type: "Eltwise"
  bottom: "W_hc_h_0"
  bottom: "W_xc_x_1"
  top: "gate_input_1"
  eltwise_param {
    operation: SUM
  }
}
layer {
  name: "lstm1_unit_1"
  type: "LSTMUnit"
  bottom: "c_0"
  bottom: "gate_input_1"
  bottom: "cont_1"
  top: "c_1"
  top: "h_1"
}
layer {
  name: "lstm1_"
  type: "Split"
  bottom: "c_1"
  top: "c_T"
}
layer {
  name: "lstm1_h_concat"
  type: "Concat"
  bottom: "h_1"
  top: "h"
  concat_param {
    axis: 0
  }
}
layer {
  name: "h_pseudoloss"
  type: "Reduction"
  bottom: "h"
  top: "h_pseudoloss"
  loss_weight: 1
}
I0720 14:32:26.264034 23344 layer_factory.hpp:77] Creating layer lstm1_
I0720 14:32:26.264057 23344 net.cpp:91] Creating Layer lstm1_
I0720 14:32:26.264065 23344 net.cpp:399] lstm1_ -> x
I0720 14:32:26.264076 23344 net.cpp:399] lstm1_ -> cont
I0720 14:32:26.264091 23344 net.cpp:141] Setting up lstm1_
I0720 14:32:26.264098 23344 net.cpp:148] Top shape: 1 1 500 (500)
I0720 14:32:26.264103 23344 net.cpp:148] Top shape: 1 1 (1)
I0720 14:32:26.264107 23344 net.cpp:156] Memory required for data: 2004
I0720 14:32:26.264112 23344 layer_factory.hpp:77] Creating layer lstm1_
I0720 14:32:26.264119 23344 net.cpp:91] Creating Layer lstm1_
I0720 14:32:26.264125 23344 net.cpp:399] lstm1_ -> c_0
I0720 14:32:26.264133 23344 net.cpp:399] lstm1_ -> h_0
I0720 14:32:26.264142 23344 net.cpp:141] Setting up lstm1_
I0720 14:32:26.264149 23344 net.cpp:148] Top shape: 1 1 1000 (1000)
I0720 14:32:26.264154 23344 net.cpp:148] Top shape: 1 1 1000 (1000)
I0720 14:32:26.264158 23344 net.cpp:156] Memory required for data: 10004
I0720 14:32:26.264161 23344 layer_factory.hpp:77] Creating layer lstm1_cont_slice
I0720 14:32:26.264178 23354 layer_factory.hpp:77] Creating layer lstm1_
I0720 14:32:26.264762 23344 net.cpp:91] Creating Layer lstm1_cont_slice
I0720 14:32:26.264776 23344 net.cpp:425] lstm1_cont_slice <- cont
I0720 14:32:26.264782 23354 net.cpp:91] Creating Layer lstm1_
I0720 14:32:26.264791 23344 net.cpp:399] lstm1_cont_slice -> cont_1
I0720 14:32:26.264793 23354 net.cpp:399] lstm1_ -> x
I0720 14:32:26.264807 23354 net.cpp:399] lstm1_ -> cont
I0720 14:32:26.264811 23344 net.cpp:141] Setting up lstm1_cont_slice
I0720 14:32:26.264823 23344 net.cpp:148] Top shape: 1 1 (1)
I0720 14:32:26.264824 23354 net.cpp:141] Setting up lstm1_
I0720 14:32:26.264832 23344 net.cpp:156] Memory required for data: 10008
I0720 14:32:26.264835 23354 net.cpp:148] Top shape: 1 1 500 (500)
I0720 14:32:26.264844 23354 net.cpp:148] Top shape: 1 1 (1)
I0720 14:32:26.264852 23354 net.cpp:156] Memory required for data: 2004
I0720 14:32:26.264861 23354 layer_factory.hpp:77] Creating layer lstm1_
I0720 14:32:26.264839 23344 layer_factory.hpp:77] Creating layer cont_1_lstm1_cont_slice_0_split
I0720 14:32:26.264875 23354 net.cpp:91] Creating Layer lstm1_
I0720 14:32:26.264881 23344 net.cpp:91] Creating Layer cont_1_lstm1_cont_slice_0_split
I0720 14:32:26.264885 23354 net.cpp:399] lstm1_ -> c_0
I0720 14:32:26.264889 23344 net.cpp:425] cont_1_lstm1_cont_slice_0_split <- cont_1
I0720 14:32:26.264900 23344 net.cpp:399] cont_1_lstm1_cont_slice_0_split -> cont_1_lstm1_cont_slice_0_split_0
I0720 14:32:26.264900 23354 net.cpp:399] lstm1_ -> h_0
I0720 14:32:26.264919 23344 net.cpp:399] cont_1_lstm1_cont_slice_0_split -> cont_1_lstm1_cont_slice_0_split_1
I0720 14:32:26.264926 23354 net.cpp:141] Setting up lstm1_
I0720 14:32:26.264935 23344 net.cpp:141] Setting up cont_1_lstm1_cont_slice_0_split
I0720 14:32:26.264937 23354 net.cpp:148] Top shape: 1 1 1000 (1000)
I0720 14:32:26.264945 23344 net.cpp:148] Top shape: 1 1 (1)
I0720 14:32:26.264946 23354 net.cpp:148] Top shape: 1 1 1000 (1000)
I0720 14:32:26.264960 23354 net.cpp:156] Memory required for data: 10004
I0720 14:32:26.264958 23344 net.cpp:148] Top shape: 1 1 (1)
I0720 14:32:26.264972 23354 layer_factory.hpp:77] Creating layer lstm1_cont_slice
I0720 14:32:26.264974 23344 net.cpp:156] Memory required for data: 10016
I0720 14:32:26.264987 23344 layer_factory.hpp:77] Creating layer lstm1_x_transform
I0720 14:32:26.264988 23354 net.cpp:91] Creating Layer lstm1_cont_slice
I0720 14:32:26.265002 23354 net.cpp:425] lstm1_cont_slice <- cont
I0720 14:32:26.265013 23354 net.cpp:399] lstm1_cont_slice -> cont_1
I0720 14:32:26.265031 23354 net.cpp:141] Setting up lstm1_cont_slice
I0720 14:32:26.265033 23344 net.cpp:91] Creating Layer lstm1_x_transform
I0720 14:32:26.265046 23354 net.cpp:148] Top shape: 1 1 (1)
I0720 14:32:26.265048 23344 net.cpp:425] lstm1_x_transform <- x
I0720 14:32:26.265058 23354 net.cpp:156] Memory required for data: 10008
I0720 14:32:26.265066 23354 layer_factory.hpp:77] Creating layer cont_1_lstm1_cont_slice_0_split
I0720 14:32:26.265089 23344 net.cpp:399] lstm1_x_transform -> W_xc_x
I0720 14:32:26.265152 23354 net.cpp:91] Creating Layer cont_1_lstm1_cont_slice_0_split
I0720 14:32:26.265167 23354 net.cpp:425] cont_1_lstm1_cont_slice_0_split <- cont_1
I0720 14:32:26.265180 23354 net.cpp:399] cont_1_lstm1_cont_slice_0_split -> cont_1_lstm1_cont_slice_0_split_0
I0720 14:32:26.265195 23354 net.cpp:399] cont_1_lstm1_cont_slice_0_split -> cont_1_lstm1_cont_slice_0_split_1
I0720 14:32:26.265213 23354 net.cpp:141] Setting up cont_1_lstm1_cont_slice_0_split
I0720 14:32:26.265702 23354 net.cpp:148] Top shape: 1 1 (1)
I0720 14:32:26.265732 23354 net.cpp:148] Top shape: 1 1 (1)
I0720 14:32:26.265750 23354 net.cpp:156] Memory required for data: 10016
I0720 14:32:26.265769 23354 layer_factory.hpp:77] Creating layer lstm1_x_transform
I0720 14:32:26.265799 23354 net.cpp:91] Creating Layer lstm1_x_transform
I0720 14:32:26.265810 23354 net.cpp:425] lstm1_x_transform <- x
I0720 14:32:26.266340 23354 net.cpp:399] lstm1_x_transform -> W_xc_x
I0720 14:32:26.267601 23362 net.cpp:141] Setting up embedding
I0720 14:32:26.267627 23362 net.cpp:148] Top shape: 1 1 500 (500)
I0720 14:32:26.267633 23362 net.cpp:156] Memory required for data: 22408
I0720 14:32:26.267650 23362 layer_factory.hpp:77] Creating layer lstm1
I0720 14:32:26.268213 23362 net.cpp:91] Creating Layer lstm1
I0720 14:32:26.268227 23362 net.cpp:425] lstm1 <- embedded_input_frames
I0720 14:32:26.268239 23362 net.cpp:425] lstm1 <- cont_sentence_input_1_split_0
I0720 14:32:26.268285 23362 net.cpp:399] lstm1 -> lstm1
I0720 14:32:26.268303 23362 recurrent_layer.cpp:20] Initializing recurrent layer: assuming input batch contains 1 timesteps of 1 independent streams.
I0720 14:32:26.268321 23368 net.cpp:141] Setting up lstm1_x_transform
I0720 14:32:26.268369 23368 net.cpp:148] Top shape: 1 1 4000 (4000)
I0720 14:32:26.268378 23368 net.cpp:156] Memory required for data: 26016
I0720 14:32:26.268406 23368 layer_factory.hpp:77] Creating layer lstm1_W_xc_x_slice
I0720 14:32:26.268429 23368 net.cpp:91] Creating Layer lstm1_W_xc_x_slice
I0720 14:32:26.268440 23368 net.cpp:425] lstm1_W_xc_x_slice <- W_xc_x
I0720 14:32:26.268841 23368 net.cpp:399] lstm1_W_xc_x_slice -> W_xc_x_1
I0720 14:32:26.268877 23368 net.cpp:141] Setting up lstm1_W_xc_x_slice
I0720 14:32:26.268892 23368 net.cpp:148] Top shape: 1 1 4000 (4000)
I0720 14:32:26.268899 23368 net.cpp:156] Memory required for data: 42016
I0720 14:32:26.268908 23368 layer_factory.hpp:77] Creating layer lstm1_h_conted_0
I0720 14:32:26.268924 23368 net.cpp:91] Creating Layer lstm1_h_conted_0
I0720 14:32:26.268934 23368 net.cpp:425] lstm1_h_conted_0 <- h_0
I0720 14:32:26.268945 23368 net.cpp:425] lstm1_h_conted_0 <- cont_1_lstm1_cont_slice_0_split_0
I0720 14:32:26.268964 23368 net.cpp:399] lstm1_h_conted_0 -> h_conted_0
I0720 14:32:26.269147 23368 net.cpp:141] Setting up lstm1_h_conted_0
I0720 14:32:26.269165 23368 net.cpp:148] Top shape: 1 1 1000 (1000)
I0720 14:32:26.269172 23368 net.cpp:156] Memory required for data: 46016
I0720 14:32:26.269181 23368 layer_factory.hpp:77] Creating layer lstm1_transform_1
I0720 14:32:26.269201 23368 net.cpp:91] Creating Layer lstm1_transform_1
I0720 14:32:26.269209 23368 net.cpp:425] lstm1_transform_1 <- h_conted_0
I0720 14:32:26.269424 23368 net.cpp:399] lstm1_transform_1 -> W_hc_h_0
I0720 14:32:26.269525 23362 net.cpp:49] Initializing net from parameters: 
layer {
  name: "lstm1_"
  type: "Input"
  top: "x"
  top: "cont"
  input_param {
    shape {
      dim: 1
      dim: 1
      dim: 500
    }
    shape {
      dim: 1
      dim: 1
    }
  }
}
layer {
  name: "lstm1_"
  type: "Input"
  top: "c_0"
  top: "h_0"
  input_param {
    shape {
      dim: 1
      dim: 1
      dim: 1000
    }
    shape {
      dim: 1
      dim: 1
      dim: 1000
    }
  }
}
layer {
  name: "lstm1_cont_slice"
  type: "Slice"
  bottom: "cont"
  top: "cont_1"
  slice_param {
    axis: 0
  }
}
layer {
  name: "lstm1_x_transform"
  type: "InnerProduct"
  bottom: "x"
  top: "W_xc_x"
  param {
    name: "W_xc"
  }
  param {
    name: "b_c"
  }
  propagate_down: true
  inner_product_param {
    num_output: 4000
    bias_term: true
    weight_filler {
      type: "uniform"
      min: -0.08
      max: 0.08
    }
    bias_filler {
      type: "constant"
      value: 0
    }
    axis: 2
  }
}
layer {
  name: "lstm1_W_xc_x_slice"
  type: "Slice"
  bottom: "W_xc_x"
  top: "W_xc_x_1"
  slice_param {
    axis: 0
  }
}
layer {
  name: "lstm1_h_conted_0"
  type: "Scale"
  bottom: "h_0"
  bottom: "cont_1"
  top: "h_conted_0"
  scale_param {
    axis: 0
  }
}
layer {
  name: "lstm1_transform_1"
  type: "InnerProduct"
  bottom: "h_conted_0"
  top: "W_hc_h_0"
  param {
    name: "W_hc"
  }
  inner_product_param {
    num_output: 4000
    bias_term: false
    weight_filler {
      type: "uniform"
      min: -0.08
      max: 0.08
    }
    axis: 2
  }
}
layer {
  name: "lstm1_gate_input_1"
  type: "Eltwise"
  bottom: "W_hc_h_0"
  bottom: "W_xc_x_1"
  top: "gate_input_1"
  eltwise_param {
    operation: SUM
  }
}
layer {
  name: "lstm1_unit_1"
  type: "LSTMUnit"
  bottom: "c_0"
  bottom: "gate_input_1"
  bottom: "cont_1"
  top: "c_1"
  top: "h_1"
}
layer {
  name: "lstm1_"
  type: "Split"
  bottom: "c_1"
  top: "c_T"
}
layer {
  name: "lstm1_h_concat"
  type: "Concat"
  bottom: "h_1"
  top: "h"
  concat_param {
    axis: 0
  }
}
layer {
  name: "h_pseudoloss"
  type: "Reduction"
  bottom: "h"
  top: "h_pseudoloss"
  loss_weight: 1
}
I0720 14:32:26.269676 23362 layer_factory.hpp:77] Creating layer lstm1_
I0720 14:32:26.269695 23362 net.cpp:91] Creating Layer lstm1_
I0720 14:32:26.269703 23362 net.cpp:399] lstm1_ -> x
I0720 14:32:26.269719 23362 net.cpp:399] lstm1_ -> cont
I0720 14:32:26.269737 23362 net.cpp:141] Setting up lstm1_
I0720 14:32:26.269748 23362 net.cpp:148] Top shape: 1 1 500 (500)
I0720 14:32:26.269757 23362 net.cpp:148] Top shape: 1 1 (1)
I0720 14:32:26.269763 23362 net.cpp:156] Memory required for data: 2004
I0720 14:32:26.269771 23362 layer_factory.hpp:77] Creating layer lstm1_
I0720 14:32:26.269783 23362 net.cpp:91] Creating Layer lstm1_
I0720 14:32:26.269791 23362 net.cpp:399] lstm1_ -> c_0
I0720 14:32:26.269804 23362 net.cpp:399] lstm1_ -> h_0
I0720 14:32:26.269819 23362 net.cpp:141] Setting up lstm1_
I0720 14:32:26.269827 23362 net.cpp:148] Top shape: 1 1 1000 (1000)
I0720 14:32:26.269836 23362 net.cpp:148] Top shape: 1 1 1000 (1000)
I0720 14:32:26.269842 23362 net.cpp:156] Memory required for data: 10004
I0720 14:32:26.269848 23362 layer_factory.hpp:77] Creating layer lstm1_cont_slice
I0720 14:32:26.269891 23362 net.cpp:91] Creating Layer lstm1_cont_slice
I0720 14:32:26.269901 23362 net.cpp:425] lstm1_cont_slice <- cont
I0720 14:32:26.269912 23362 net.cpp:399] lstm1_cont_slice -> cont_1
I0720 14:32:26.269927 23362 net.cpp:141] Setting up lstm1_cont_slice
I0720 14:32:26.269938 23362 net.cpp:148] Top shape: 1 1 (1)
I0720 14:32:26.269944 23362 net.cpp:156] Memory required for data: 10008
I0720 14:32:26.269951 23362 layer_factory.hpp:77] Creating layer cont_1_lstm1_cont_slice_0_split
I0720 14:32:26.269978 23362 net.cpp:91] Creating Layer cont_1_lstm1_cont_slice_0_split
I0720 14:32:26.269984 23362 net.cpp:425] cont_1_lstm1_cont_slice_0_split <- cont_1
I0720 14:32:26.269994 23362 net.cpp:399] cont_1_lstm1_cont_slice_0_split -> cont_1_lstm1_cont_slice_0_split_0
I0720 14:32:26.270005 23362 net.cpp:399] cont_1_lstm1_cont_slice_0_split -> cont_1_lstm1_cont_slice_0_split_1
I0720 14:32:26.270018 23362 net.cpp:141] Setting up cont_1_lstm1_cont_slice_0_split
I0720 14:32:26.270027 23362 net.cpp:148] Top shape: 1 1 (1)
I0720 14:32:26.270035 23362 net.cpp:148] Top shape: 1 1 (1)
I0720 14:32:26.270041 23362 net.cpp:156] Memory required for data: 10016
I0720 14:32:26.270047 23362 layer_factory.hpp:77] Creating layer lstm1_x_transform
I0720 14:32:26.270601 23362 net.cpp:91] Creating Layer lstm1_x_transform
I0720 14:32:26.270612 23362 net.cpp:425] lstm1_x_transform <- x
I0720 14:32:26.270627 23362 net.cpp:399] lstm1_x_transform -> W_xc_x
I0720 14:32:26.277076 23364 net.cpp:141] Setting up embedding
I0720 14:32:26.277115 23364 net.cpp:148] Top shape: 1 1 500 (500)
I0720 14:32:26.277122 23364 net.cpp:156] Memory required for data: 22408
I0720 14:32:26.277137 23364 layer_factory.hpp:77] Creating layer lstm1
I0720 14:32:26.277181 23364 net.cpp:91] Creating Layer lstm1
I0720 14:32:26.277190 23364 net.cpp:425] lstm1 <- embedded_input_frames
I0720 14:32:26.277199 23364 net.cpp:425] lstm1 <- cont_sentence_input_1_split_0
I0720 14:32:26.277207 23364 net.cpp:399] lstm1 -> lstm1
I0720 14:32:26.277222 23364 recurrent_layer.cpp:20] Initializing recurrent layer: assuming input batch contains 1 timesteps of 1 independent streams.
I0720 14:32:26.277555 23342 net.cpp:141] Setting up embedding
I0720 14:32:26.277576 23342 net.cpp:148] Top shape: 1 1 500 (500)
I0720 14:32:26.277585 23342 net.cpp:156] Memory required for data: 22408
I0720 14:32:26.277601 23342 layer_factory.hpp:77] Creating layer lstm1
I0720 14:32:26.277712 23342 net.cpp:91] Creating Layer lstm1
I0720 14:32:26.277726 23342 net.cpp:425] lstm1 <- embedded_input_frames
I0720 14:32:26.277737 23342 net.cpp:425] lstm1 <- cont_sentence_input_1_split_0
I0720 14:32:26.277753 23342 net.cpp:399] lstm1 -> lstm1
I0720 14:32:26.277753 23352 net.cpp:141] Setting up lstm1_x_transform
I0720 14:32:26.277772 23342 recurrent_layer.cpp:20] Initializing recurrent layer: assuming input batch contains 1 timesteps of 1 independent streams.
I0720 14:32:26.277776 23352 net.cpp:148] Top shape: 1 1 4000 (4000)
I0720 14:32:26.277784 23352 net.cpp:156] Memory required for data: 26016
I0720 14:32:26.277801 23352 layer_factory.hpp:77] Creating layer lstm1_W_xc_x_slice
I0720 14:32:26.277839 23352 net.cpp:91] Creating Layer lstm1_W_xc_x_slice
I0720 14:32:26.277851 23352 net.cpp:425] lstm1_W_xc_x_slice <- W_xc_x
I0720 14:32:26.277864 23352 net.cpp:399] lstm1_W_xc_x_slice -> W_xc_x_1
I0720 14:32:26.277887 23352 net.cpp:141] Setting up lstm1_W_xc_x_slice
I0720 14:32:26.277902 23352 net.cpp:148] Top shape: 1 1 4000 (4000)
I0720 14:32:26.277909 23352 net.cpp:156] Memory required for data: 42016
I0720 14:32:26.277918 23352 layer_factory.hpp:77] Creating layer lstm1_h_conted_0
I0720 14:32:26.277954 23352 net.cpp:91] Creating Layer lstm1_h_conted_0
I0720 14:32:26.277964 23352 net.cpp:425] lstm1_h_conted_0 <- h_0
I0720 14:32:26.277976 23352 net.cpp:425] lstm1_h_conted_0 <- cont_1_lstm1_cont_slice_0_split_0
I0720 14:32:26.277987 23352 net.cpp:399] lstm1_h_conted_0 -> h_conted_0
I0720 14:32:26.278043 23352 net.cpp:141] Setting up lstm1_h_conted_0
I0720 14:32:26.278056 23352 net.cpp:148] Top shape: 1 1 1000 (1000)
I0720 14:32:26.278064 23352 net.cpp:156] Memory required for data: 46016
I0720 14:32:26.278072 23352 layer_factory.hpp:77] Creating layer lstm1_transform_1
I0720 14:32:26.278129 23352 net.cpp:91] Creating Layer lstm1_transform_1
I0720 14:32:26.278139 23352 net.cpp:425] lstm1_transform_1 <- h_conted_0
I0720 14:32:26.278156 23352 net.cpp:399] lstm1_transform_1 -> W_hc_h_0
I0720 14:32:26.278170 23364 net.cpp:49] Initializing net from parameters: 
layer {
  name: "lstm1_"
  type: "Input"
  top: "x"
  top: "cont"
  input_param {
    shape {
      dim: 1
      dim: 1
      dim: 500
    }
    shape {
      dim: 1
      dim: 1
    }
  }
}
layer {
  name: "lstm1_"
  type: "Input"
  top: "c_0"
  top: "h_0"
  input_param {
    shape {
      dim: 1
      dim: 1
      dim: 1000
    }
    shape {
      dim: 1
      dim: 1
      dim: 1000
    }
  }
}
layer {
  name: "lstm1_cont_slice"
  type: "Slice"
  bottom: "cont"
  top: "cont_1"
  slice_param {
    axis: 0
  }
}
layer {
  name: "lstm1_x_transform"
  type: "InnerProduct"
  bottom: "x"
  top: "W_xc_x"
  param {
    name: "W_xc"
  }
  param {
    name: "b_c"
  }
  propagate_down: true
  inner_product_param {
    num_output: 4000
    bias_term: true
    weight_filler {
      type: "uniform"
      min: -0.08
      max: 0.08
    }
    bias_filler {
      type: "constant"
      value: 0
    }
    axis: 2
  }
}
layer {
  name: "lstm1_W_xc_x_slice"
  type: "Slice"
  bottom: "W_xc_x"
  top: "W_xc_x_1"
  slice_param {
    axis: 0
  }
}
layer {
  name: "lstm1_h_conted_0"
  type: "Scale"
  bottom: "h_0"
  bottom: "cont_1"
  top: "h_conted_0"
  scale_param {
    axis: 0
  }
}
layer {
  name: "lstm1_transform_1"
  type: "InnerProduct"
  bottom: "h_conted_0"
  top: "W_hc_h_0"
  param {
    name: "W_hc"
  }
  inner_product_param {
    num_output: 4000
    bias_term: false
    weight_filler {
      type: "uniform"
      min: -0.08
      max: 0.08
    }
    axis: 2
  }
}
layer {
  name: "lstm1_gate_input_1"
  type: "Eltwise"
  bottom: "W_hc_h_0"
  bottom: "W_xc_x_1"
  top: "gate_input_1"
  eltwise_param {
    operation: SUM
  }
}
layer {
  name: "lstm1_unit_1"
  type: "LSTMUnit"
  bottom: "c_0"
  bottom: "gate_input_1"
  bottom: "cont_1"
  top: "c_1"
  top: "h_1"
}
layer {
  name: "lstm1_"
  type: "Split"
  bottom: "c_1"
  top: "c_T"
}
layer {
  name: "lstm1_h_concat"
  type: "Concat"
  bottom: "h_1"
  top: "h"
  concat_param {
    axis: 0
  }
}
layer {
  name: "h_pseudoloss"
  type: "Reduction"
  bottom: "h"
  top: "h_pseudoloss"
  loss_weight: 1
}
I0720 14:32:26.278224 23342 net.cpp:49] Initializing net from parameters: 
layer {
  name: "lstm1_"
  type: "Input"
  top: "x"
  top: "cont"
  input_param {
    shape {
      dim: 1
      dim: 1
      dim: 500
    }
    shape {
      dim: 1
      dim: 1
    }
  }
}
layer {
  name: "lstm1_"
  type: "Input"
  top: "c_0"
  top: "h_0"
  input_param {
    shape {
      dim: 1
      dim: 1
      dim: 1000
    }
    shape {
      dim: 1
      dim: 1
      dim: 1000
    }
  }
}
layer {
  name: "lstm1_cont_slice"
  type: "Slice"
  bottom: "cont"
  top: "cont_1"
  slice_param {
    axis: 0
  }
}
layer {
  name: "lstm1_x_transform"
  type: "InnerProduct"
  bottom: "x"
  top: "W_xc_x"
  param {
    name: "W_xc"
  }
  param {
    name: "b_c"
  }
  propagate_down: true
  inner_product_param {
    num_output: 4000
    bias_term: true
    weight_filler {
      type: "uniform"
      min: -0.08
      max: 0.08
    }
    bias_filler {
      type: "constant"
      value: 0
    }
    axis: 2
  }
}
layer {
  name: "lstm1_W_xc_x_slice"
  type: "Slice"
  bottom: "W_xc_x"
  top: "W_xc_x_1"
  slice_param {
    axis: 0
  }
}
layer {
  name: "lstm1_h_conted_0"
  type: "Scale"
  bottom: "h_0"
  bottom: "cont_1"
  top: "h_conted_0"
  scale_param {
    axis: 0
  }
}
layer {
  name: "lstm1_transform_1"
  type: "InnerProduct"
  bottom: "h_conted_0"
  top: "W_hc_h_0"
  param {
    name: "W_hc"
  }
  inner_product_param {
    num_output: 4000
    bias_term: false
    weight_filler {
      type: "uniform"
      min: -0.08
      max: 0.08
    }
    axis: 2
  }
}
layer {
  name: "lstm1_gate_input_1"
  type: "Eltwise"
  bottom: "W_hc_h_0"
  bottom: "W_xc_x_1"
  top: "gate_input_1"
  eltwise_param {
    operation: SUM
  }
}
layer {
  name: "lstm1_unit_1"
  type: "LSTMUnit"
  bottom: "c_0"
  bottom: "gate_input_1"
  bottom: "cont_1"
  top: "c_1"
  top: "h_1"
}
layer {
  name: "lstm1_"
  type: "Split"
  bottom: "c_1"
  top: "c_T"
}
layer {
  name: "lstm1_h_concat"
  type: "Concat"
  bottom: "h_1"
  top: "h"
  concat_param {
    axis: 0
  }
}
layer {
  name: "h_pseudoloss"
  type: "Reduction"
  bottom: "h"
  top: "h_pseudoloss"
  loss_weight: 1
}
I0720 14:32:26.278293 23364 layer_factory.hpp:77] Creating layer lstm1_
I0720 14:32:26.278312 23364 net.cpp:91] Creating Layer lstm1_
I0720 14:32:26.278323 23364 net.cpp:399] lstm1_ -> x
I0720 14:32:26.278340 23364 net.cpp:399] lstm1_ -> cont
I0720 14:32:26.278360 23364 net.cpp:141] Setting up lstm1_
I0720 14:32:26.278370 23364 net.cpp:148] Top shape: 1 1 500 (500)
I0720 14:32:26.278375 23364 net.cpp:148] Top shape: 1 1 (1)
I0720 14:32:26.278383 23364 net.cpp:156] Memory required for data: 2004
I0720 14:32:26.278390 23364 layer_factory.hpp:77] Creating layer lstm1_
I0720 14:32:26.278389 23342 layer_factory.hpp:77] Creating layer lstm1_
I0720 14:32:26.278408 23364 net.cpp:91] Creating Layer lstm1_
I0720 14:32:26.278414 23342 net.cpp:91] Creating Layer lstm1_
I0720 14:32:26.278420 23364 net.cpp:399] lstm1_ -> c_0
I0720 14:32:26.278425 23342 net.cpp:399] lstm1_ -> x
I0720 14:32:26.278437 23364 net.cpp:399] lstm1_ -> h_0
I0720 14:32:26.278442 23342 net.cpp:399] lstm1_ -> cont
I0720 14:32:26.278455 23364 net.cpp:141] Setting up lstm1_
I0720 14:32:26.278460 23342 net.cpp:141] Setting up lstm1_
I0720 14:32:26.278470 23364 net.cpp:148] Top shape: 1 1 1000 (1000)
I0720 14:32:26.278472 23342 net.cpp:148] Top shape: 1 1 500 (500)
I0720 14:32:26.278481 23364 net.cpp:148] Top shape: 1 1 1000 (1000)
I0720 14:32:26.278482 23342 net.cpp:148] Top shape: 1 1 (1)
I0720 14:32:26.278489 23364 net.cpp:156] Memory required for data: 10004
I0720 14:32:26.278491 23342 net.cpp:156] Memory required for data: 2004
I0720 14:32:26.278502 23364 layer_factory.hpp:77] Creating layer lstm1_cont_slice
I0720 14:32:26.278508 23342 layer_factory.hpp:77] Creating layer lstm1_
I0720 14:32:26.278522 23342 net.cpp:91] Creating Layer lstm1_
I0720 14:32:26.278532 23342 net.cpp:399] lstm1_ -> c_0
I0720 14:32:26.278540 23364 net.cpp:91] Creating Layer lstm1_cont_slice
I0720 14:32:26.278547 23342 net.cpp:399] lstm1_ -> h_0
I0720 14:32:26.278551 23364 net.cpp:425] lstm1_cont_slice <- cont
I0720 14:32:26.278560 23342 net.cpp:141] Setting up lstm1_
I0720 14:32:26.278568 23364 net.cpp:399] lstm1_cont_slice -> cont_1
I0720 14:32:26.278571 23342 net.cpp:148] Top shape: 1 1 1000 (1000)
I0720 14:32:26.278580 23342 net.cpp:148] Top shape: 1 1 1000 (1000)
I0720 14:32:26.278586 23364 net.cpp:141] Setting up lstm1_cont_slice
I0720 14:32:26.278587 23342 net.cpp:156] Memory required for data: 10004
I0720 14:32:26.278604 23364 net.cpp:148] Top shape: 1 1 (1)
I0720 14:32:26.278604 23342 layer_factory.hpp:77] Creating layer lstm1_cont_slice
I0720 14:32:26.278614 23364 net.cpp:156] Memory required for data: 10008
I0720 14:32:26.278625 23364 layer_factory.hpp:77] Creating layer cont_1_lstm1_cont_slice_0_split
I0720 14:32:26.278637 23364 net.cpp:91] Creating Layer cont_1_lstm1_cont_slice_0_split
I0720 14:32:26.278646 23364 net.cpp:425] cont_1_lstm1_cont_slice_0_split <- cont_1
I0720 14:32:26.278647 23342 net.cpp:91] Creating Layer lstm1_cont_slice
I0720 14:32:26.278658 23342 net.cpp:425] lstm1_cont_slice <- cont
I0720 14:32:26.278661 23364 net.cpp:399] cont_1_lstm1_cont_slice_0_split -> cont_1_lstm1_cont_slice_0_split_0
I0720 14:32:26.278671 23342 net.cpp:399] lstm1_cont_slice -> cont_1
I0720 14:32:26.278676 23364 net.cpp:399] cont_1_lstm1_cont_slice_0_split -> cont_1_lstm1_cont_slice_0_split_1
I0720 14:32:26.278697 23342 net.cpp:141] Setting up lstm1_cont_slice
I0720 14:32:26.278704 23364 net.cpp:141] Setting up cont_1_lstm1_cont_slice_0_split
I0720 14:32:26.278709 23342 net.cpp:148] Top shape: 1 1 (1)
I0720 14:32:26.278715 23364 net.cpp:148] Top shape: 1 1 (1)
I0720 14:32:26.278717 23342 net.cpp:156] Memory required for data: 10008
I0720 14:32:26.278728 23364 net.cpp:148] Top shape: 1 1 (1)
I0720 14:32:26.278735 23364 net.cpp:156] Memory required for data: 10016
I0720 14:32:26.278725 23342 layer_factory.hpp:77] Creating layer cont_1_lstm1_cont_slice_0_split
I0720 14:32:26.278746 23364 layer_factory.hpp:77] Creating layer lstm1_x_transform
I0720 14:32:26.278751 23342 net.cpp:91] Creating Layer cont_1_lstm1_cont_slice_0_split
I0720 14:32:26.278759 23342 net.cpp:425] cont_1_lstm1_cont_slice_0_split <- cont_1
I0720 14:32:26.278769 23342 net.cpp:399] cont_1_lstm1_cont_slice_0_split -> cont_1_lstm1_cont_slice_0_split_0
I0720 14:32:26.278782 23342 net.cpp:399] cont_1_lstm1_cont_slice_0_split -> cont_1_lstm1_cont_slice_0_split_1
I0720 14:32:26.278784 23364 net.cpp:91] Creating Layer lstm1_x_transform
I0720 14:32:26.278795 23364 net.cpp:425] lstm1_x_transform <- x
I0720 14:32:26.278795 23342 net.cpp:141] Setting up cont_1_lstm1_cont_slice_0_split
I0720 14:32:26.278807 23342 net.cpp:148] Top shape: 1 1 (1)
I0720 14:32:26.278810 23364 net.cpp:399] lstm1_x_transform -> W_xc_x
I0720 14:32:26.278815 23342 net.cpp:148] Top shape: 1 1 (1)
I0720 14:32:26.278822 23342 net.cpp:156] Memory required for data: 10016
I0720 14:32:26.278831 23342 layer_factory.hpp:77] Creating layer lstm1_x_transform
I0720 14:32:26.278887 23342 net.cpp:91] Creating Layer lstm1_x_transform
I0720 14:32:26.278897 23342 net.cpp:425] lstm1_x_transform <- x
I0720 14:32:26.278915 23342 net.cpp:399] lstm1_x_transform -> W_xc_x
I0720 14:32:26.280586 23336 net.cpp:141] Setting up embedding
I0720 14:32:26.280614 23336 net.cpp:148] Top shape: 1 1 500 (500)
I0720 14:32:26.280622 23336 net.cpp:156] Memory required for data: 22408
I0720 14:32:26.280637 23336 layer_factory.hpp:77] Creating layer lstm1
I0720 14:32:26.280655 23336 net.cpp:91] Creating Layer lstm1
I0720 14:32:26.280664 23336 net.cpp:425] lstm1 <- embedded_input_frames
I0720 14:32:26.280674 23336 net.cpp:425] lstm1 <- cont_sentence_input_1_split_0
I0720 14:32:26.281261 23336 net.cpp:399] lstm1 -> lstm1
I0720 14:32:26.281291 23336 recurrent_layer.cpp:20] Initializing recurrent layer: assuming input batch contains 1 timesteps of 1 independent streams.
I0720 14:32:26.282536 23336 net.cpp:49] Initializing net from parameters: 
layer {
  name: "lstm1_"
  type: "Input"
  top: "x"
  top: "cont"
  input_param {
    shape {
      dim: 1
      dim: 1
      dim: 500
    }
    shape {
      dim: 1
      dim: 1
    }
  }
}
layer {
  name: "lstm1_"
  type: "Input"
  top: "c_0"
  top: "h_0"
  input_param {
    shape {
      dim: 1
      dim: 1
      dim: 1000
    }
    shape {
      dim: 1
      dim: 1
      dim: 1000
    }
  }
}
layer {
  name: "lstm1_cont_slice"
  type: "Slice"
  bottom: "cont"
  top: "cont_1"
  slice_param {
    axis: 0
  }
}
layer {
  name: "lstm1_x_transform"
  type: "InnerProduct"
  bottom: "x"
  top: "W_xc_x"
  param {
    name: "W_xc"
  }
  param {
    name: "b_c"
  }
  propagate_down: true
  inner_product_param {
    num_output: 4000
    bias_term: true
    weight_filler {
      type: "uniform"
      min: -0.08
      max: 0.08
    }
    bias_filler {
      type: "constant"
      value: 0
    }
    axis: 2
  }
}
layer {
  name: "lstm1_W_xc_x_slice"
  type: "Slice"
  bottom: "W_xc_x"
  top: "W_xc_x_1"
  slice_param {
    axis: 0
  }
}
layer {
  name: "lstm1_h_conted_0"
  type: "Scale"
  bottom: "h_0"
  bottom: "cont_1"
  top: "h_conted_0"
  scale_param {
    axis: 0
  }
}
layer {
  name: "lstm1_transform_1"
  type: "InnerProduct"
  bottom: "h_conted_0"
  top: "W_hc_h_0"
  param {
    name: "W_hc"
  }
  inner_product_param {
    num_output: 4000
    bias_term: false
    weight_filler {
      type: "uniform"
      min: -0.08
      max: 0.08
    }
    axis: 2
  }
}
layer {
  name: "lstm1_gate_input_1"
  type: "Eltwise"
  bottom: "W_hc_h_0"
  bottom: "W_xc_x_1"
  top: "gate_input_1"
  eltwise_param {
    operation: SUM
  }
}
layer {
  name: "lstm1_unit_1"
  type: "LSTMUnit"
  bottom: "c_0"
  bottom: "gate_input_1"
  bottom: "cont_1"
  top: "c_1"
  top: "h_1"
}
layer {
  name: "lstm1_"
  type: "Split"
  bottom: "c_1"
  top: "c_T"
}
layer {
  name: "lstm1_h_concat"
  type: "Concat"
  bottom: "h_1"
  top: "h"
  concat_param {
    axis: 0
  }
}
layer {
  name: "h_pseudoloss"
  type: "Reduction"
  bottom: "h"
  top: "h_pseudoloss"
  loss_weight: 1
}
I0720 14:32:26.284508 23336 layer_factory.hpp:77] Creating layer lstm1_
I0720 14:32:26.284536 23336 net.cpp:91] Creating Layer lstm1_
I0720 14:32:26.284548 23336 net.cpp:399] lstm1_ -> x
I0720 14:32:26.284569 23336 net.cpp:399] lstm1_ -> cont
I0720 14:32:26.284592 23336 net.cpp:141] Setting up lstm1_
I0720 14:32:26.284605 23336 net.cpp:148] Top shape: 1 1 500 (500)
I0720 14:32:26.284620 23336 net.cpp:148] Top shape: 1 1 (1)
I0720 14:32:26.284628 23336 net.cpp:156] Memory required for data: 2004
I0720 14:32:26.284636 23336 layer_factory.hpp:77] Creating layer lstm1_
I0720 14:32:26.284651 23336 net.cpp:91] Creating Layer lstm1_
I0720 14:32:26.284662 23336 net.cpp:399] lstm1_ -> c_0
I0720 14:32:26.284679 23336 net.cpp:399] lstm1_ -> h_0
I0720 14:32:26.284693 23336 net.cpp:141] Setting up lstm1_
I0720 14:32:26.284708 23336 net.cpp:148] Top shape: 1 1 1000 (1000)
I0720 14:32:26.284719 23336 net.cpp:148] Top shape: 1 1 1000 (1000)
I0720 14:32:26.284729 23336 net.cpp:156] Memory required for data: 10004
I0720 14:32:26.284736 23336 layer_factory.hpp:77] Creating layer lstm1_cont_slice
I0720 14:32:26.284747 23336 net.cpp:91] Creating Layer lstm1_cont_slice
I0720 14:32:26.284754 23336 net.cpp:425] lstm1_cont_slice <- cont
I0720 14:32:26.284765 23336 net.cpp:399] lstm1_cont_slice -> cont_1
I0720 14:32:26.285320 23336 net.cpp:141] Setting up lstm1_cont_slice
I0720 14:32:26.285346 23336 net.cpp:148] Top shape: 1 1 (1)
I0720 14:32:26.285356 23336 net.cpp:156] Memory required for data: 10008
I0720 14:32:26.285363 23336 layer_factory.hpp:77] Creating layer cont_1_lstm1_cont_slice_0_split
I0720 14:32:26.285377 23336 net.cpp:91] Creating Layer cont_1_lstm1_cont_slice_0_split
I0720 14:32:26.285384 23336 net.cpp:425] cont_1_lstm1_cont_slice_0_split <- cont_1
I0720 14:32:26.285395 23336 net.cpp:399] cont_1_lstm1_cont_slice_0_split -> cont_1_lstm1_cont_slice_0_split_0
I0720 14:32:26.285414 23336 net.cpp:399] cont_1_lstm1_cont_slice_0_split -> cont_1_lstm1_cont_slice_0_split_1
I0720 14:32:26.285431 23336 net.cpp:141] Setting up cont_1_lstm1_cont_slice_0_split
I0720 14:32:26.285442 23336 net.cpp:148] Top shape: 1 1 (1)
I0720 14:32:26.285450 23336 net.cpp:148] Top shape: 1 1 (1)
I0720 14:32:26.285456 23336 net.cpp:156] Memory required for data: 10016
I0720 14:32:26.285464 23336 layer_factory.hpp:77] Creating layer lstm1_x_transform
I0720 14:32:26.285480 23336 net.cpp:91] Creating Layer lstm1_x_transform
I0720 14:32:26.285490 23336 net.cpp:425] lstm1_x_transform <- x
I0720 14:32:26.285526 23336 net.cpp:399] lstm1_x_transform -> W_xc_x
I0720 14:32:26.293562 23354 net.cpp:141] Setting up lstm1_x_transform
I0720 14:32:26.293601 23354 net.cpp:148] Top shape: 1 1 4000 (4000)
I0720 14:32:26.293608 23354 net.cpp:156] Memory required for data: 26016
I0720 14:32:26.293630 23354 layer_factory.hpp:77] Creating layer lstm1_W_xc_x_slice
I0720 14:32:26.293651 23354 net.cpp:91] Creating Layer lstm1_W_xc_x_slice
I0720 14:32:26.293661 23354 net.cpp:425] lstm1_W_xc_x_slice <- W_xc_x
I0720 14:32:26.293674 23354 net.cpp:399] lstm1_W_xc_x_slice -> W_xc_x_1
I0720 14:32:26.293679 23344 net.cpp:141] Setting up lstm1_x_transform
I0720 14:32:26.293694 23344 net.cpp:148] Top shape: 1 1 4000 (4000)
I0720 14:32:26.293699 23354 net.cpp:141] Setting up lstm1_W_xc_x_slice
I0720 14:32:26.293702 23344 net.cpp:156] Memory required for data: 26016
I0720 14:32:26.293710 23354 net.cpp:148] Top shape: 1 1 4000 (4000)
I0720 14:32:26.293716 23344 layer_factory.hpp:77] Creating layer lstm1_W_xc_x_slice
I0720 14:32:26.293717 23354 net.cpp:156] Memory required for data: 42016
I0720 14:32:26.293726 23354 layer_factory.hpp:77] Creating layer lstm1_h_conted_0
I0720 14:32:26.293733 23344 net.cpp:91] Creating Layer lstm1_W_xc_x_slice
I0720 14:32:26.293742 23344 net.cpp:425] lstm1_W_xc_x_slice <- W_xc_x
I0720 14:32:26.293745 23354 net.cpp:91] Creating Layer lstm1_h_conted_0
I0720 14:32:26.293753 23354 net.cpp:425] lstm1_h_conted_0 <- h_0
I0720 14:32:26.293753 23344 net.cpp:399] lstm1_W_xc_x_slice -> W_xc_x_1
I0720 14:32:26.293763 23354 net.cpp:425] lstm1_h_conted_0 <- cont_1_lstm1_cont_slice_0_split_0
I0720 14:32:26.293774 23344 net.cpp:141] Setting up lstm1_W_xc_x_slice
I0720 14:32:26.293777 23354 net.cpp:399] lstm1_h_conted_0 -> h_conted_0
I0720 14:32:26.293787 23344 net.cpp:148] Top shape: 1 1 4000 (4000)
I0720 14:32:26.293794 23344 net.cpp:156] Memory required for data: 42016
I0720 14:32:26.293802 23344 layer_factory.hpp:77] Creating layer lstm1_h_conted_0
I0720 14:32:26.293804 23354 net.cpp:141] Setting up lstm1_h_conted_0
I0720 14:32:26.293813 23344 net.cpp:91] Creating Layer lstm1_h_conted_0
I0720 14:32:26.293813 23354 net.cpp:148] Top shape: 1 1 1000 (1000)
I0720 14:32:26.293833 23344 net.cpp:425] lstm1_h_conted_0 <- h_0
I0720 14:32:26.293838 23354 net.cpp:156] Memory required for data: 46016
I0720 14:32:26.293843 23344 net.cpp:425] lstm1_h_conted_0 <- cont_1_lstm1_cont_slice_0_split_0
I0720 14:32:26.293846 23354 layer_factory.hpp:77] Creating layer lstm1_transform_1
I0720 14:32:26.293853 23344 net.cpp:399] lstm1_h_conted_0 -> h_conted_0
I0720 14:32:26.293861 23354 net.cpp:91] Creating Layer lstm1_transform_1
I0720 14:32:26.293869 23354 net.cpp:425] lstm1_transform_1 <- h_conted_0
I0720 14:32:26.293887 23354 net.cpp:399] lstm1_transform_1 -> W_hc_h_0
I0720 14:32:26.293887 23344 net.cpp:141] Setting up lstm1_h_conted_0
I0720 14:32:26.293910 23344 net.cpp:148] Top shape: 1 1 1000 (1000)
I0720 14:32:26.293917 23344 net.cpp:156] Memory required for data: 46016
I0720 14:32:26.293925 23344 layer_factory.hpp:77] Creating layer lstm1_transform_1
I0720 14:32:26.293938 23344 net.cpp:91] Creating Layer lstm1_transform_1
I0720 14:32:26.293947 23344 net.cpp:425] lstm1_transform_1 <- h_conted_0
I0720 14:32:26.293964 23344 net.cpp:399] lstm1_transform_1 -> W_hc_h_0
I0720 14:32:26.297428 23340 net.cpp:141] Setting up lstm1_x_transform
I0720 14:32:26.297469 23340 net.cpp:148] Top shape: 1 1 4000 (4000)
I0720 14:32:26.297477 23340 net.cpp:156] Memory required for data: 26016
I0720 14:32:26.297502 23340 layer_factory.hpp:77] Creating layer lstm1_W_xc_x_slice
I0720 14:32:26.297521 23340 net.cpp:91] Creating Layer lstm1_W_xc_x_slice
I0720 14:32:26.297531 23340 net.cpp:425] lstm1_W_xc_x_slice <- W_xc_x
I0720 14:32:26.298277 23340 net.cpp:399] lstm1_W_xc_x_slice -> W_xc_x_1
I0720 14:32:26.298305 23340 net.cpp:141] Setting up lstm1_W_xc_x_slice
I0720 14:32:26.298317 23340 net.cpp:148] Top shape: 1 1 4000 (4000)
I0720 14:32:26.298323 23340 net.cpp:156] Memory required for data: 42016
I0720 14:32:26.298331 23340 layer_factory.hpp:77] Creating layer lstm1_h_conted_0
I0720 14:32:26.298344 23340 net.cpp:91] Creating Layer lstm1_h_conted_0
I0720 14:32:26.298352 23340 net.cpp:425] lstm1_h_conted_0 <- h_0
I0720 14:32:26.298362 23340 net.cpp:425] lstm1_h_conted_0 <- cont_1_lstm1_cont_slice_0_split_0
I0720 14:32:26.298374 23340 net.cpp:399] lstm1_h_conted_0 -> h_conted_0
I0720 14:32:26.298413 23340 net.cpp:141] Setting up lstm1_h_conted_0
I0720 14:32:26.298424 23340 net.cpp:148] Top shape: 1 1 1000 (1000)
I0720 14:32:26.298430 23340 net.cpp:156] Memory required for data: 46016
I0720 14:32:26.298437 23340 layer_factory.hpp:77] Creating layer lstm1_transform_1
I0720 14:32:26.298451 23340 net.cpp:91] Creating Layer lstm1_transform_1
I0720 14:32:26.298458 23340 net.cpp:425] lstm1_transform_1 <- h_conted_0
I0720 14:32:26.298986 23340 net.cpp:399] lstm1_transform_1 -> W_hc_h_0
I0720 14:32:26.306484 23336 net.cpp:141] Setting up lstm1_x_transform
I0720 14:32:26.306531 23336 net.cpp:148] Top shape: 1 1 4000 (4000)
I0720 14:32:26.306541 23336 net.cpp:156] Memory required for data: 26016
I0720 14:32:26.306567 23336 layer_factory.hpp:77] Creating layer lstm1_W_xc_x_slice
I0720 14:32:26.306587 23336 net.cpp:91] Creating Layer lstm1_W_xc_x_slice
I0720 14:32:26.306598 23336 net.cpp:425] lstm1_W_xc_x_slice <- W_xc_x
I0720 14:32:26.306628 23336 net.cpp:399] lstm1_W_xc_x_slice -> W_xc_x_1
I0720 14:32:26.306656 23336 net.cpp:141] Setting up lstm1_W_xc_x_slice
I0720 14:32:26.306670 23336 net.cpp:148] Top shape: 1 1 4000 (4000)
I0720 14:32:26.306679 23336 net.cpp:156] Memory required for data: 42016
I0720 14:32:26.306702 23336 layer_factory.hpp:77] Creating layer lstm1_h_conted_0
I0720 14:32:26.306718 23336 net.cpp:91] Creating Layer lstm1_h_conted_0
I0720 14:32:26.306733 23336 net.cpp:425] lstm1_h_conted_0 <- h_0
I0720 14:32:26.306746 23336 net.cpp:425] lstm1_h_conted_0 <- cont_1_lstm1_cont_slice_0_split_0
I0720 14:32:26.306759 23336 net.cpp:399] lstm1_h_conted_0 -> h_conted_0
I0720 14:32:26.306803 23336 net.cpp:141] Setting up lstm1_h_conted_0
I0720 14:32:26.306818 23336 net.cpp:148] Top shape: 1 1 1000 (1000)
I0720 14:32:26.306826 23336 net.cpp:156] Memory required for data: 46016
I0720 14:32:26.306835 23336 layer_factory.hpp:77] Creating layer lstm1_transform_1
I0720 14:32:26.306852 23336 net.cpp:91] Creating Layer lstm1_transform_1
I0720 14:32:26.306861 23336 net.cpp:425] lstm1_transform_1 <- h_conted_0
I0720 14:32:26.306893 23336 net.cpp:399] lstm1_transform_1 -> W_hc_h_0
I0720 14:32:26.307104 23362 net.cpp:141] Setting up lstm1_x_transform
I0720 14:32:26.307127 23362 net.cpp:148] Top shape: 1 1 4000 (4000)
I0720 14:32:26.307137 23362 net.cpp:156] Memory required for data: 26016
I0720 14:32:26.307157 23362 layer_factory.hpp:77] Creating layer lstm1_W_xc_x_slice
I0720 14:32:26.307185 23362 net.cpp:91] Creating Layer lstm1_W_xc_x_slice
I0720 14:32:26.307199 23362 net.cpp:425] lstm1_W_xc_x_slice <- W_xc_x
I0720 14:32:26.307214 23362 net.cpp:399] lstm1_W_xc_x_slice -> W_xc_x_1
I0720 14:32:26.307241 23362 net.cpp:141] Setting up lstm1_W_xc_x_slice
I0720 14:32:26.307257 23362 net.cpp:148] Top shape: 1 1 4000 (4000)
I0720 14:32:26.307266 23362 net.cpp:156] Memory required for data: 42016
I0720 14:32:26.307276 23362 layer_factory.hpp:77] Creating layer lstm1_h_conted_0
I0720 14:32:26.307291 23362 net.cpp:91] Creating Layer lstm1_h_conted_0
I0720 14:32:26.307301 23362 net.cpp:425] lstm1_h_conted_0 <- h_0
I0720 14:32:26.307312 23362 net.cpp:425] lstm1_h_conted_0 <- cont_1_lstm1_cont_slice_0_split_0
I0720 14:32:26.307327 23362 net.cpp:399] lstm1_h_conted_0 -> h_conted_0
I0720 14:32:26.307397 23362 net.cpp:141] Setting up lstm1_h_conted_0
I0720 14:32:26.307415 23362 net.cpp:148] Top shape: 1 1 1000 (1000)
I0720 14:32:26.307423 23362 net.cpp:156] Memory required for data: 46016
I0720 14:32:26.307432 23362 layer_factory.hpp:77] Creating layer lstm1_transform_1
I0720 14:32:26.307448 23362 net.cpp:91] Creating Layer lstm1_transform_1
I0720 14:32:26.307458 23362 net.cpp:425] lstm1_transform_1 <- h_conted_0
I0720 14:32:26.307489 23362 net.cpp:399] lstm1_transform_1 -> W_hc_h_0
I0720 14:32:26.311238 23364 net.cpp:141] Setting up lstm1_x_transform
I0720 14:32:26.311238 23342 net.cpp:141] Setting up lstm1_x_transform
I0720 14:32:26.311283 23364 net.cpp:148] Top shape: 1 1 4000 (4000)
I0720 14:32:26.311285 23342 net.cpp:148] Top shape: 1 1 4000 (4000)
I0720 14:32:26.311295 23364 net.cpp:156] Memory required for data: 26016
I0720 14:32:26.311301 23342 net.cpp:156] Memory required for data: 26016
I0720 14:32:26.311318 23342 layer_factory.hpp:77] Creating layer lstm1_W_xc_x_slice
I0720 14:32:26.311318 23364 layer_factory.hpp:77] Creating layer lstm1_W_xc_x_slice
I0720 14:32:26.311859 23342 net.cpp:91] Creating Layer lstm1_W_xc_x_slice
I0720 14:32:26.311859 23364 net.cpp:91] Creating Layer lstm1_W_xc_x_slice
I0720 14:32:26.311874 23342 net.cpp:425] lstm1_W_xc_x_slice <- W_xc_x
I0720 14:32:26.311878 23364 net.cpp:425] lstm1_W_xc_x_slice <- W_xc_x
I0720 14:32:26.311892 23364 net.cpp:399] lstm1_W_xc_x_slice -> W_xc_x_1
I0720 14:32:26.311887 23342 net.cpp:399] lstm1_W_xc_x_slice -> W_xc_x_1
I0720 14:32:26.311916 23364 net.cpp:141] Setting up lstm1_W_xc_x_slice
I0720 14:32:26.311923 23342 net.cpp:141] Setting up lstm1_W_xc_x_slice
I0720 14:32:26.311928 23364 net.cpp:148] Top shape: 1 1 4000 (4000)
I0720 14:32:26.311935 23364 net.cpp:156] Memory required for data: 42016
I0720 14:32:26.311935 23342 net.cpp:148] Top shape: 1 1 4000 (4000)
I0720 14:32:26.311947 23364 layer_factory.hpp:77] Creating layer lstm1_h_conted_0
I0720 14:32:26.311952 23342 net.cpp:156] Memory required for data: 42016
I0720 14:32:26.311960 23342 layer_factory.hpp:77] Creating layer lstm1_h_conted_0
I0720 14:32:26.311961 23364 net.cpp:91] Creating Layer lstm1_h_conted_0
I0720 14:32:26.311975 23342 net.cpp:91] Creating Layer lstm1_h_conted_0
I0720 14:32:26.311975 23364 net.cpp:425] lstm1_h_conted_0 <- h_0
I0720 14:32:26.311986 23342 net.cpp:425] lstm1_h_conted_0 <- h_0
I0720 14:32:26.311992 23364 net.cpp:425] lstm1_h_conted_0 <- cont_1_lstm1_cont_slice_0_split_0
I0720 14:32:26.311995 23342 net.cpp:425] lstm1_h_conted_0 <- cont_1_lstm1_cont_slice_0_split_0
I0720 14:32:26.312003 23364 net.cpp:399] lstm1_h_conted_0 -> h_conted_0
I0720 14:32:26.312005 23342 net.cpp:399] lstm1_h_conted_0 -> h_conted_0
I0720 14:32:26.312517 23364 net.cpp:141] Setting up lstm1_h_conted_0
I0720 14:32:26.312531 23364 net.cpp:148] Top shape: 1 1 1000 (1000)
I0720 14:32:26.312537 23364 net.cpp:156] Memory required for data: 46016
I0720 14:32:26.312546 23364 layer_factory.hpp:77] Creating layer lstm1_transform_1
I0720 14:32:26.312561 23364 net.cpp:91] Creating Layer lstm1_transform_1
I0720 14:32:26.312569 23364 net.cpp:425] lstm1_transform_1 <- h_conted_0
I0720 14:32:26.312582 23364 net.cpp:399] lstm1_transform_1 -> W_hc_h_0
I0720 14:32:26.315325 23342 net.cpp:141] Setting up lstm1_h_conted_0
I0720 14:32:26.315347 23342 net.cpp:148] Top shape: 1 1 1000 (1000)
I0720 14:32:26.315353 23342 net.cpp:156] Memory required for data: 46016
I0720 14:32:26.315361 23342 layer_factory.hpp:77] Creating layer lstm1_transform_1
I0720 14:32:26.315376 23342 net.cpp:91] Creating Layer lstm1_transform_1
I0720 14:32:26.315384 23342 net.cpp:425] lstm1_transform_1 <- h_conted_0
I0720 14:32:26.315832 23342 net.cpp:399] lstm1_transform_1 -> W_hc_h_0
I0720 14:32:26.321504 23352 net.cpp:141] Setting up lstm1_transform_1
I0720 14:32:26.321542 23352 net.cpp:148] Top shape: 1 1 4000 (4000)
I0720 14:32:26.321547 23352 net.cpp:156] Memory required for data: 62016
I0720 14:32:26.321564 23352 layer_factory.hpp:77] Creating layer lstm1_gate_input_1
I0720 14:32:26.321581 23352 net.cpp:91] Creating Layer lstm1_gate_input_1
I0720 14:32:26.321588 23352 net.cpp:425] lstm1_gate_input_1 <- W_hc_h_0
I0720 14:32:26.321595 23352 net.cpp:425] lstm1_gate_input_1 <- W_xc_x_1
I0720 14:32:26.321768 23352 net.cpp:399] lstm1_gate_input_1 -> gate_input_1
I0720 14:32:26.321792 23352 net.cpp:141] Setting up lstm1_gate_input_1
I0720 14:32:26.321805 23352 net.cpp:148] Top shape: 1 1 4000 (4000)
I0720 14:32:26.321813 23352 net.cpp:156] Memory required for data: 78016
I0720 14:32:26.321821 23352 layer_factory.hpp:77] Creating layer lstm1_unit_1
I0720 14:32:26.321835 23352 net.cpp:91] Creating Layer lstm1_unit_1
I0720 14:32:26.321844 23352 net.cpp:425] lstm1_unit_1 <- c_0
I0720 14:32:26.321862 23352 net.cpp:425] lstm1_unit_1 <- gate_input_1
I0720 14:32:26.321872 23352 net.cpp:425] lstm1_unit_1 <- cont_1_lstm1_cont_slice_0_split_1
I0720 14:32:26.321882 23352 net.cpp:399] lstm1_unit_1 -> c_1
I0720 14:32:26.321889 23352 net.cpp:399] lstm1_unit_1 -> h_1
I0720 14:32:26.321900 23352 net.cpp:141] Setting up lstm1_unit_1
I0720 14:32:26.321907 23352 net.cpp:148] Top shape: 1 1 1000 (1000)
I0720 14:32:26.321912 23352 net.cpp:148] Top shape: 1 1 1000 (1000)
I0720 14:32:26.321915 23352 net.cpp:156] Memory required for data: 86016
I0720 14:32:26.321919 23352 layer_factory.hpp:77] Creating layer lstm1_
I0720 14:32:26.321926 23352 net.cpp:91] Creating Layer lstm1_
I0720 14:32:26.321930 23352 net.cpp:425] lstm1_ <- c_1
I0720 14:32:26.322376 23352 net.cpp:399] lstm1_ -> c_T
I0720 14:32:26.322396 23352 net.cpp:141] Setting up lstm1_
I0720 14:32:26.322407 23352 net.cpp:148] Top shape: 1 1 1000 (1000)
I0720 14:32:26.322415 23352 net.cpp:156] Memory required for data: 90016
I0720 14:32:26.322423 23352 layer_factory.hpp:77] Creating layer lstm1_h_concat
I0720 14:32:26.322441 23352 net.cpp:91] Creating Layer lstm1_h_concat
I0720 14:32:26.322450 23352 net.cpp:425] lstm1_h_concat <- h_1
I0720 14:32:26.322463 23352 net.cpp:399] lstm1_h_concat -> h
I0720 14:32:26.322484 23352 net.cpp:141] Setting up lstm1_h_concat
I0720 14:32:26.322495 23352 net.cpp:148] Top shape: 1 1 1000 (1000)
I0720 14:32:26.322502 23352 net.cpp:156] Memory required for data: 94016
I0720 14:32:26.322510 23352 layer_factory.hpp:77] Creating layer h_pseudoloss
…
I0720 14:32:26.496636 23362 net.cpp:148] Top shape: 1 1 4000 (4000)
I0720 14:32:26.496649 23362 net.cpp:156] Memory required for data: 30020
I0720 14:32:26.496677 23362 layer_factory.hpp:77] Creating layer lstm2_W_xc_x_slice
I0720 14:32:26.496695 23362 net.cpp:91] Creating Layer lstm2_W_xc_x_slice
I0720 14:32:26.496701 23362 net.cpp:425] lstm2_W_xc_x_slice <- W_xc_x
I0720 14:32:26.496711 23362 net.cpp:399] lstm2_W_xc_x_slice -> W_xc_x_1
I0720 14:32:26.497189 23362 net.cpp:141] Setting up lstm2_W_xc_x_slice
I0720 14:32:26.497211 23362 net.cpp:148] Top shape: 1 1 4000 (4000)
I0720 14:32:26.497217 23362 net.cpp:156] Memory required for data: 46020
I0720 14:32:26.497222 23362 layer_factory.hpp:77] Creating layer lstm2_h_conted_0
I0720 14:32:26.497232 23362 net.cpp:91] Creating Layer lstm2_h_conted_0
I0720 14:32:26.497237 23362 net.cpp:425] lstm2_h_conted_0 <- h_0
I0720 14:32:26.497243 23362 net.cpp:425] lstm2_h_conted_0 <- cont_1_lstm2_cont_slice_0_split_0
I0720 14:32:26.497251 23362 net.cpp:399] lstm2_h_conted_0 -> h_conted_0
I0720 14:32:26.498185 23362 net.cpp:141] Setting up lstm2_h_conted_0
I0720 14:32:26.498200 23362 net.cpp:148] Top shape: 1 1 1000 (1000)
I0720 14:32:26.498204 23362 net.cpp:156] Memory required for data: 50020
I0720 14:32:26.498209 23362 layer_factory.hpp:77] Creating layer lstm2_transform_1
I0720 14:32:26.498222 23362 net.cpp:91] Creating Layer lstm2_transform_1
I0720 14:32:26.498227 23362 net.cpp:425] lstm2_transform_1 <- h_conted_0
I0720 14:32:26.498728 23362 net.cpp:399] lstm2_transform_1 -> W_hc_h_0
I0720 14:32:26.500656 23354 net.cpp:141] Setting up lstm2_transform_1
I0720 14:32:26.500679 23354 net.cpp:148] Top shape: 1 1 4000 (4000)
I0720 14:32:26.500685 23354 net.cpp:156] Memory required for data: 66020
I0720 14:32:26.500701 23354 layer_factory.hpp:77] Creating layer lstm2_gate_input_1
I0720 14:32:26.502758 23354 net.cpp:91] Creating Layer lstm2_gate_input_1
I0720 14:32:26.502776 23354 net.cpp:425] lstm2_gate_input_1 <- W_hc_h_0
I0720 14:32:26.502787 23354 net.cpp:425] lstm2_gate_input_1 <- W_xc_x_1
I0720 14:32:26.502799 23354 net.cpp:399] lstm2_gate_input_1 -> gate_input_1
I0720 14:32:26.502820 23354 net.cpp:141] Setting up lstm2_gate_input_1
I0720 14:32:26.503294 23354 net.cpp:148] Top shape: 1 1 4000 (4000)
I0720 14:32:26.503309 23354 net.cpp:156] Memory required for data: 82020
I0720 14:32:26.503316 23354 layer_factory.hpp:77] Creating layer lstm2_unit_1
I0720 14:32:26.503329 23354 net.cpp:91] Creating Layer lstm2_unit_1
I0720 14:32:26.503336 23354 net.cpp:425] lstm2_unit_1 <- c_0
I0720 14:32:26.503346 23354 net.cpp:425] lstm2_unit_1 <- gate_input_1
I0720 14:32:26.503353 23354 net.cpp:425] lstm2_unit_1 <- cont_1_lstm2_cont_slice_0_split_1
I0720 14:32:26.503363 23354 net.cpp:399] lstm2_unit_1 -> c_1
I0720 14:32:26.503376 23354 net.cpp:399] lstm2_unit_1 -> h_1
I0720 14:32:26.503391 23354 net.cpp:141] Setting up lstm2_unit_1
I0720 14:32:26.503401 23354 net.cpp:148] Top shape: 1 1 1000 (1000)
I0720 14:32:26.503410 23354 net.cpp:148] Top shape: 1 1 1000 (1000)
I0720 14:32:26.503417 23354 net.cpp:156] Memory required for data: 90020
I0720 14:32:26.503422 23354 layer_factory.hpp:77] Creating layer lstm2_
I0720 14:32:26.503912 23354 net.cpp:91] Creating Layer lstm2_
I0720 14:32:26.503932 23354 net.cpp:425] lstm2_ <- c_1
I0720 14:32:26.503943 23354 net.cpp:399] lstm2_ -> c_T
I0720 14:32:26.503954 23354 net.cpp:141] Setting up lstm2_
I0720 14:32:26.503996 23354 net.cpp:148] Top shape: 1 1 1000 (1000)
I0720 14:32:26.504005 23354 net.cpp:156] Memory required for data: 94020
I0720 14:32:26.504011 23354 layer_factory.hpp:77] Creating layer lstm2_h_concat
I0720 14:32:26.504021 23354 net.cpp:91] Creating Layer lstm2_h_concat
I0720 14:32:26.504026 23354 net.cpp:425] lstm2_h_concat <- h_1
I0720 14:32:26.504032 23354 net.cpp:399] lstm2_h_concat -> h
I0720 14:32:26.504045 23354 net.cpp:141] Setting up lstm2_h_concat
I0720 14:32:26.504052 23354 net.cpp:148] Top shape: 1 1 1000 (1000)
I0720 14:32:26.504056 23354 net.cpp:156] Memory required for data: 98020
I0720 14:32:26.504060 23354 layer_factory.hpp:77] Creating layer h_pseudoloss
I0720 14:32:26.504075 23354 net.cpp:91] Creating Layer h_pseudoloss
I0720 14:32:26.504083 23354 net.cpp:425] h_pseudoloss <- h
I0720 14:32:26.504516 23354 net.cpp:399] h_pseudoloss -> h_pseudoloss
I0720 14:32:26.504616 23354 net.cpp:141] Setting up h_pseudoloss
…
I0720 14:32:26.504709 23354 net.cpp:219] lstm2_ does not need backward computation.
I0720 14:32:26.504711 23354 net.cpp:261] This network produces output c_T
I0720 14:32:26.504715 23354 net.cpp:261] This network produces output h_pseudoloss
I0720 14:32:26.505146 23354 net.cpp:274] Network initialization done.
I0720 14:32:26.505215 23354 recurrent_layer.cpp:150] Adding parameter 0: W_xc
I0720 14:32:26.505223 23354 recurrent_layer.cpp:150] Adding parameter 1: b_c
I0720 14:32:26.505228 23354 recurrent_layer.cpp:150] Adding parameter 2: W_hc
I0720 14:32:26.505270 23354 net.cpp:141] Setting up lstm2
I0720 14:32:26.505278 23354 net.cpp:148] Top shape: 1 1 1000 (1000)
I0720 14:32:26.505282 23354 net.cpp:156] Memory required for data: 36412
I0720 14:32:26.505295 23354 layer_factory.hpp:77] Creating layer predict
I0720 14:32:26.505307 23354 net.cpp:91] Creating Layer predict
I0720 14:32:26.505313 23354 net.cpp:425] predict <- lstm2
I0720 14:32:26.505321 23354 net.cpp:399] predict -> predict
I0720 14:32:26.530199 23364 net.cpp:141] Setting up lstm2_x_transform
I0720 14:32:26.530249 23364 net.cpp:148] Top shape: 1 1 4000 (4000)
I0720 14:32:26.530259 23364 net.cpp:156] Memory required for data: 30020
I0720 14:32:26.530287 23364 layer_factory.hpp:77] Creating layer lstm2_W_xc_x_slice
I0720 14:32:26.530308 23364 net.cpp:91] Creating Layer lstm2_W_xc_x_slice
I0720 14:32:26.530318 23364 net.cpp:425] lstm2_W_xc_x_slice <- W_xc_x
I0720 14:32:26.530695 23364 net.cpp:399] lstm2_W_xc_x_slice -> W_xc_x_1
I0720 14:32:26.530733 23364 net.cpp:141] Setting up lstm2_W_xc_x_slice
I0720 14:32:26.530750 23364 net.cpp:148] Top shape: 1 1 4000 (4000)
I0720 14:32:26.530761 23364 net.cpp:156] Memory required for data: 46020
I0720 14:32:26.530771 23364 layer_factory.hpp:77] Creating layer lstm2_h_conted_0
I0720 14:32:26.530787 23364 net.cpp:91] Creating Layer lstm2_h_conted_0
I0720 14:32:26.530798 23364 net.cpp:425] lstm2_h_conted_0 <- h_0
I0720 14:32:26.530810 23364 net.cpp:425] lstm2_h_conted_0 <- cont_1_lstm2_cont_slice_0_split_0
I0720 14:32:26.530825 23364 net.cpp:399] lstm2_h_conted_0 -> h_conted_0
I0720 14:32:26.531191 23364 net.cpp:141] Setting up lstm2_h_conted_0
I0720 14:32:26.531211 23364 net.cpp:148] Top shape: 1 1 1000 (1000)
I0720 14:32:26.531221 23364 net.cpp:156] Memory required for data: 50020
I0720 14:32:26.531231 23364 layer_factory.hpp:77] Creating layer lstm2_transform_1
I0720 14:32:26.531688 23364 net.cpp:91] Creating Layer lstm2_transform_1
I0720 14:32:26.531704 23364 net.cpp:425] lstm2_transform_1 <- h_conted_0
I0720 14:32:26.531723 23364 net.cpp:399] lstm2_transform_1 -> W_hc_h_0
I0720 14:32:26.537434 23336 net.cpp:141] Setting up lstm2_x_transform
I0720 14:32:26.537503 23336 net.cpp:148] Top shape: 1 1 4000 (4000)
I0720 14:32:26.537511 23336 net.cpp:156] Memory required for data: 30020
I0720 14:32:26.538477 23336 layer_factory.hpp:77] Creating layer lstm2_W_xc_x_slice
I0720 14:32:26.538517 23336 net.cpp:91] Creating Layer lstm2_W_xc_x_slice
I0720 14:32:26.538530 23336 net.cpp:425] lstm2_W_xc_x_slice <- W_xc_x
I0720 14:32:26.539016 23336 net.cpp:399] lstm2_W_xc_x_slice -> W_xc_x_1
I0720 14:32:26.539062 23336 net.cpp:141] Setting up lstm2_W_xc_x_slice
I0720 14:32:26.539083 23336 net.cpp:148] Top shape: 1 1 4000 (4000)
I0720 14:32:26.539093 23336 net.cpp:156] Memory required for data: 46020
I0720 14:32:26.539104 23336 layer_factory.hpp:77] Creating layer lstm2_h_conted_0
I0720 14:32:26.539122 23336 net.cpp:91] Creating Layer lstm2_h_conted_0
I0720 14:32:26.539132 23336 net.cpp:425] lstm2_h_conted_0 <- h_0
I0720 14:32:26.539144 23336 net.cpp:425] lstm2_h_conted_0 <- cont_1_lstm2_cont_slice_0_split_0
I0720 14:32:26.540058 23336 net.cpp:399] lstm2_h_conted_0 -> h_conted_0
I0720 14:32:26.540658 23336 net.cpp:141] Setting up lstm2_h_conted_0
I0720 14:32:26.540683 23336 net.cpp:148] Top shape: 1 1 1000 (1000)
I0720 14:32:26.540694 23336 net.cpp:156] Memory required for data: 50020
I0720 14:32:26.540705 23336 layer_factory.hpp:77] Creating layer lstm2_transform_1
I0720 14:32:26.540731 23336 net.cpp:91] Creating Layer lstm2_transform_1
I0720 14:32:26.540742 23336 net.cpp:425] lstm2_transform_1 <- h_conted_0
I0720 14:32:26.540758 23336 net.cpp:399] lstm2_transform_1 -> W_hc_h_0
I0720 14:32:26.553156 23340 net.cpp:141] Setting up lstm2_transform_1
I0720 14:32:26.553215 23340 net.cpp:148] Top shape: 1 1 4000 (4000)
I0720 14:32:26.553222 23340 net.cpp:156] Memory required for data: 66020
I0720 14:32:26.553251 23340 layer_factory.hpp:77] Creating layer lstm2_gate_input_1
I0720 14:32:26.554146 23340 net.cpp:91] Creating Layer lstm2_gate_input_1
I0720 14:32:26.554162 23340 net.cpp:425] lstm2_gate_input_1 <- W_hc_h_0
I0720 14:32:26.554174 23340 net.cpp:425] lstm2_gate_input_1 <- W_xc_x_1
I0720 14:32:26.554188 23340 net.cpp:399] lstm2_gate_input_1 -> gate_input_1
I0720 14:32:26.554209 23340 net.cpp:141] Setting up lstm2_gate_input_1
I0720 14:32:26.554973 23340 net.cpp:148] Top shape: 1 1 4000 (4000)
I0720 14:32:26.554983 23340 net.cpp:156] Memory required for data: 82020
I0720 14:32:26.554991 23340 layer_factory.hpp:77] Creating layer lstm2_unit_1
I0720 14:32:26.555009 23340 net.cpp:91] Creating Layer lstm2_unit_1
I0720 14:32:26.555017 23340 net.cpp:425] lstm2_unit_1 <- c_0
I0720 14:32:26.555027 23340 net.cpp:425] lstm2_unit_1 <- gate_input_1
I0720 14:32:26.555035 23340 net.cpp:425] lstm2_unit_1 <- cont_1_lstm2_cont_slice_0_split_1
I0720 14:32:26.555047 23340 net.cpp:399] lstm2_unit_1 -> c_1
I0720 14:32:26.555063 23340 net.cpp:399] lstm2_unit_1 -> h_1
I0720 14:32:26.555078 23340 net.cpp:141] Setting up lstm2_unit_1
I0720 14:32:26.555086 23340 net.cpp:148] Top shape: 1 1 1000 (1000)
I0720 14:32:26.555095 23340 net.cpp:148] Top shape: 1 1 1000 (1000)
I0720 14:32:26.555101 23340 net.cpp:156] Memory required for data: 90020
I0720 14:32:26.555107 23340 layer_factory.hpp:77] Creating layer lstm2_
I0720 14:32:26.555518 23340 net.cpp:91] Creating Layer lstm2_
I0720 14:32:26.555536 23340 net.cpp:425] lstm2_ <- c_1
I0720 14:32:26.556321 23340 net.cpp:399] lstm2_ -> c_T
I0720 14:32:26.556347 23340 net.cpp:141] Setting up lstm2_
I0720 14:32:26.556361 23340 net.cpp:148] Top shape: 1 1 1000 (1000)
I0720 14:32:26.556370 23340 net.cpp:156] Memory required for data: 94020
I0720 14:32:26.556376 23340 layer_factory.hpp:77] Creating layer lstm2_h_concat
I0720 14:32:26.556390 23340 net.cpp:91] Creating Layer lstm2_h_concat
I0720 14:32:26.556396 23340 net.cpp:425] lstm2_h_concat <- h_1
I0720 14:32:26.556411 23340 net.cpp:399] lstm2_h_concat -> h
I0720 14:32:26.556429 23340 net.cpp:141] Setting up lstm2_h_concat
I0720 14:32:26.556442 23340 net.cpp:148] Top shape: 1 1 1000 (1000)
I0720 14:32:26.556452 23340 net.cpp:156] Memory required for data: 98020
I0720 14:32:26.556458 23340 layer_factory.hpp:77] Creating layer h_pseudoloss
I0720 14:32:26.556857 23340 net.cpp:91] Creating Layer h_pseudoloss
I0720 14:32:26.556869 23340 net.cpp:425] h_pseudoloss <- h
I0720 14:32:26.556884 23340 net.cpp:399] h_pseudoloss -> h_pseudoloss
I0720 14:32:26.557407 23340 net.cpp:141] Setting up h_pseudoloss
…
I0720 14:32:26.557554 23340 net.cpp:219] lstm2_ does not need backward computation.
I0720 14:32:26.557560 23340 net.cpp:261] This network produces output c_T
I0720 14:32:26.557567 23340 net.cpp:261] This network produces output h_pseudoloss
I0720 14:32:26.558035 23340 net.cpp:274] Network initialization done.
I0720 14:32:26.558115 23340 recurrent_layer.cpp:150] Adding parameter 0: W_xc
I0720 14:32:26.558127 23340 recurrent_layer.cpp:150] Adding parameter 1: b_c
I0720 14:32:26.558136 23340 recurrent_layer.cpp:150] Adding parameter 2: W_hc
I0720 14:32:26.558200 23340 net.cpp:141] Setting up lstm2
I0720 14:32:26.558218 23340 net.cpp:148] Top shape: 1 1 1000 (1000)
I0720 14:32:26.558223 23340 net.cpp:156] Memory required for data: 36412
I0720 14:32:26.558243 23340 layer_factory.hpp:77] Creating layer predict
I0720 14:32:26.558260 23340 net.cpp:91] Creating Layer predict
I0720 14:32:26.558269 23340 net.cpp:425] predict <- lstm2
I0720 14:32:26.558279 23340 net.cpp:399] predict -> predict
I0720 14:32:26.569865 23362 net.cpp:141] Setting up lstm2_transform_1
I0720 14:32:26.569910 23362 net.cpp:148] Top shape: 1 1 4000 (4000)
I0720 14:32:26.569914 23362 net.cpp:156] Memory required for data: 66020
I0720 14:32:26.569932 23362 layer_factory.hpp:77] Creating layer lstm2_gate_input_1
I0720 14:32:26.569949 23362 net.cpp:91] Creating Layer lstm2_gate_input_1
I0720 14:32:26.569957 23362 net.cpp:425] lstm2_gate_input_1 <- W_hc_h_0
I0720 14:32:26.569963 23362 net.cpp:425] lstm2_gate_input_1 <- W_xc_x_1
I0720 14:32:26.569970 23362 net.cpp:399] lstm2_gate_input_1 -> gate_input_1
I0720 14:32:26.569985 23362 net.cpp:141] Setting up lstm2_gate_input_1
I0720 14:32:26.569993 23362 net.cpp:148] Top shape: 1 1 4000 (4000)
I0720 14:32:26.569995 23362 net.cpp:156] Memory required for data: 82020
I0720 14:32:26.570000 23362 layer_factory.hpp:77] Creating layer lstm2_unit_1
I0720 14:32:26.570708 23362 net.cpp:91] Creating Layer lstm2_unit_1
I0720 14:32:26.570729 23362 net.cpp:425] lstm2_unit_1 <- c_0
I0720 14:32:26.570740 23362 net.cpp:425] lstm2_unit_1 <- gate_input_1
I0720 14:32:26.570746 23362 net.cpp:425] lstm2_unit_1 <- cont_1_lstm2_cont_slice_0_split_1
I0720 14:32:26.570755 23362 net.cpp:399] lstm2_unit_1 -> c_1
I0720 14:32:26.570765 23362 net.cpp:399] lstm2_unit_1 -> h_1
I0720 14:32:26.570775 23362 net.cpp:141] Setting up lstm2_unit_1
I0720 14:32:26.571414 23362 net.cpp:148] Top shape: 1 1 1000 (1000)
I0720 14:32:26.571437 23362 net.cpp:148] Top shape: 1 1 1000 (1000)
I0720 14:32:26.571445 23362 net.cpp:156] Memory required for data: 90020
I0720 14:32:26.571455 23362 layer_factory.hpp:77] Creating layer lstm2_
I0720 14:32:26.571463 23362 net.cpp:91] Creating Layer lstm2_
I0720 14:32:26.571468 23362 net.cpp:425] lstm2_ <- c_1
I0720 14:32:26.571475 23362 net.cpp:399] lstm2_ -> c_T
I0720 14:32:26.571485 23362 net.cpp:141] Setting up lstm2_
I0720 14:32:26.571491 23362 net.cpp:148] Top shape: 1 1 1000 (1000)
I0720 14:32:26.571496 23362 net.cpp:156] Memory required for data: 94020
I0720 14:32:26.571499 23362 layer_factory.hpp:77] Creating layer lstm2_h_concat
I0720 14:32:26.571964 23362 net.cpp:91] Creating Layer lstm2_h_concat
I0720 14:32:26.571979 23362 net.cpp:425] lstm2_h_concat <- h_1
I0720 14:32:26.571993 23362 net.cpp:399] lstm2_h_concat -> h
I0720 14:32:26.572012 23362 net.cpp:141] Setting up lstm2_h_concat
I0720 14:32:26.572021 23362 net.cpp:148] Top shape: 1 1 1000 (1000)
I0720 14:32:26.572024 23362 net.cpp:156] Memory required for data: 98020
I0720 14:32:26.572029 23362 layer_factory.hpp:77] Creating layer h_pseudoloss
I0720 14:32:26.572533 23362 net.cpp:91] Creating Layer h_pseudoloss
I0720 14:32:26.572547 23362 net.cpp:425] h_pseudoloss <- h
I0720 14:32:26.572556 23362 net.cpp:399] h_pseudoloss -> h_pseudoloss
I0720 14:32:26.574096 23362 net.cpp:141] Setting up h_pseudoloss
…
I0720 14:32:26.574708 23362 net.cpp:219] lstm2_ does not need backward computation.
I0720 14:32:26.574712 23362 net.cpp:261] This network produces output c_T
I0720 14:32:26.574717 23362 net.cpp:261] This network produces output h_pseudoloss
I0720 14:32:26.574733 23362 net.cpp:274] Network initialization done.
I0720 14:32:26.574784 23362 recurrent_layer.cpp:150] Adding parameter 0: W_xc
I0720 14:32:26.574790 23362 recurrent_layer.cpp:150] Adding parameter 1: b_c
I0720 14:32:26.574795 23362 recurrent_layer.cpp:150] Adding parameter 2: W_hc
I0720 14:32:26.574838 23362 net.cpp:141] Setting up lstm2
I0720 14:32:26.574847 23362 net.cpp:148] Top shape: 1 1 1000 (1000)
I0720 14:32:26.574851 23362 net.cpp:156] Memory required for data: 36412
I0720 14:32:26.574867 23362 layer_factory.hpp:77] Creating layer predict
I0720 14:32:26.574887 23362 net.cpp:91] Creating Layer predict
I0720 14:32:26.574899 23362 net.cpp:425] predict <- lstm2
I0720 14:32:26.574908 23362 net.cpp:399] predict -> predict
I0720 14:32:26.600272 23342 net.cpp:141] Setting up lstm2_x_transform
I0720 14:32:26.600769 23342 net.cpp:148] Top shape: 1 1 4000 (4000)
I0720 14:32:26.600785 23342 net.cpp:156] Memory required for data: 30020
I0720 14:32:26.600812 23342 layer_factory.hpp:77] Creating layer lstm2_W_xc_x_slice
I0720 14:32:26.600831 23342 net.cpp:91] Creating Layer lstm2_W_xc_x_slice
I0720 14:32:26.600841 23342 net.cpp:425] lstm2_W_xc_x_slice <- W_xc_x
I0720 14:32:26.600852 23342 net.cpp:399] lstm2_W_xc_x_slice -> W_xc_x_1
I0720 14:32:26.601219 23344 net.cpp:141] Setting up lstm2_transform_1
I0720 14:32:26.601243 23344 net.cpp:148] Top shape: 1 1 4000 (4000)
I0720 14:32:26.601253 23344 net.cpp:156] Memory required for data: 66020
I0720 14:32:26.601270 23344 layer_factory.hpp:77] Creating layer lstm2_gate_input_1
I0720 14:32:26.601291 23344 net.cpp:91] Creating Layer lstm2_gate_input_1
I0720 14:32:26.601303 23344 net.cpp:425] lstm2_gate_input_1 <- W_hc_h_0
I0720 14:32:26.601316 23344 net.cpp:425] lstm2_gate_input_1 <- W_xc_x_1
I0720 14:32:26.601330 23344 net.cpp:399] lstm2_gate_input_1 -> gate_input_1
I0720 14:32:26.601352 23344 net.cpp:141] Setting up lstm2_gate_input_1
I0720 14:32:26.601367 23344 net.cpp:148] Top shape: 1 1 4000 (4000)
I0720 14:32:26.601375 23344 net.cpp:156] Memory required for data: 82020
I0720 14:32:26.601384 23344 layer_factory.hpp:77] Creating layer lstm2_unit_1
I0720 14:32:26.602329 23342 net.cpp:141] Setting up lstm2_W_xc_x_slice
I0720 14:32:26.602371 23344 net.cpp:91] Creating Layer lstm2_unit_1
I0720 14:32:26.602388 23344 net.cpp:425] lstm2_unit_1 <- c_0
I0720 14:32:26.602388 23342 net.cpp:148] Top shape: 1 1 4000 (4000)
I0720 14:32:26.602404 23344 net.cpp:425] lstm2_unit_1 <- gate_input_1
I0720 14:32:26.602406 23342 net.cpp:156] Memory required for data: 46020
I0720 14:32:26.602416 23344 net.cpp:425] lstm2_unit_1 <- cont_1_lstm2_cont_slice_0_split_1
I0720 14:32:26.602421 23342 layer_factory.hpp:77] Creating layer lstm2_h_conted_0
I0720 14:32:26.602430 23344 net.cpp:399] lstm2_unit_1 -> c_1
I0720 14:32:26.602442 23342 net.cpp:91] Creating Layer lstm2_h_conted_0
I0720 14:32:26.602448 23344 net.cpp:399] lstm2_unit_1 -> h_1
I0720 14:32:26.602454 23342 net.cpp:425] lstm2_h_conted_0 <- h_0
I0720 14:32:26.602468 23344 net.cpp:141] Setting up lstm2_unit_1
I0720 14:32:26.602468 23342 net.cpp:425] lstm2_h_conted_0 <- cont_1_lstm2_cont_slice_0_split_0
I0720 14:32:26.602496 23342 net.cpp:399] lstm2_h_conted_0 -> h_conted_0
I0720 14:32:26.603329 23344 net.cpp:148] Top shape: 1 1 1000 (1000)
I0720 14:32:26.603350 23344 net.cpp:148] Top shape: 1 1 1000 (1000)
I0720 14:32:26.603356 23342 net.cpp:141] Setting up lstm2_h_conted_0
I0720 14:32:26.603360 23344 net.cpp:156] Memory required for data: 90020
I0720 14:32:26.603381 23342 net.cpp:148] Top shape: 1 1 1000 (1000)
I0720 14:32:26.603382 23344 layer_factory.hpp:77] Creating layer lstm2_
I0720 14:32:26.603397 23342 net.cpp:156] Memory required for data: 50020
I0720 14:32:26.603409 23342 layer_factory.hpp:77] Creating layer lstm2_transform_1
I0720 14:32:26.603410 23344 net.cpp:91] Creating Layer lstm2_
I0720 14:32:26.603422 23344 net.cpp:425] lstm2_ <- c_1
I0720 14:32:26.603432 23342 net.cpp:91] Creating Layer lstm2_transform_1
I0720 14:32:26.603437 23344 net.cpp:399] lstm2_ -> c_T
I0720 14:32:26.603443 23342 net.cpp:425] lstm2_transform_1 <- h_conted_0
I0720 14:32:26.603456 23344 net.cpp:141] Setting up lstm2_
I0720 14:32:26.603471 23344 net.cpp:148] Top shape: 1 1 1000 (1000)
I0720 14:32:26.603480 23344 net.cpp:156] Memory required for data: 94020
I0720 14:32:26.603489 23344 layer_factory.hpp:77] Creating layer lstm2_h_concat
I0720 14:32:26.604394 23344 net.cpp:91] Creating Layer lstm2_h_concat
I0720 14:32:26.604394 23342 net.cpp:399] lstm2_transform_1 -> W_hc_h_0
I0720 14:32:26.604415 23344 net.cpp:425] lstm2_h_concat <- h_1
I0720 14:32:26.604431 23344 net.cpp:399] lstm2_h_concat -> h
I0720 14:32:26.604452 23344 net.cpp:141] Setting up lstm2_h_concat
I0720 14:32:26.604465 23344 net.cpp:148] Top shape: 1 1 1000 (1000)
I0720 14:32:26.604471 23344 net.cpp:156] Memory required for data: 98020
I0720 14:32:26.604480 23344 layer_factory.hpp:77] Creating layer h_pseudoloss
I0720 14:32:26.605051 23344 net.cpp:91] Creating Layer h_pseudoloss
I0720 14:32:26.605067 23344 net.cpp:425] h_pseudoloss <- h
I0720 14:32:26.605082 23344 net.cpp:399] h_pseudoloss -> h_pseudoloss
I0720 14:32:26.606071 23364 net.cpp:141] Setting up lstm2_transform_1
I0720 14:32:26.606097 23364 net.cpp:148] Top shape: 1 1 4000 (4000)
I0720 14:32:26.606103 23364 net.cpp:156] Memory required for data: 66020
I0720 14:32:26.606117 23364 layer_factory.hpp:77] Creating layer lstm2_gate_input_1
I0720 14:32:26.606132 23364 net.cpp:91] Creating Layer lstm2_gate_input_1
I0720 14:32:26.606137 23364 net.cpp:425] lstm2_gate_input_1 <- W_hc_h_0
I0720 14:32:26.606143 23364 net.cpp:425] lstm2_gate_input_1 <- W_xc_x_1
I0720 14:32:26.610774 23344 net.cpp:141] Setting up h_pseudoloss
I0720 14:32:26.610782 23364 net.cpp:399] lstm2_gate_input_1 -> gate_input_1
I0720 14:32:26.610803 23344 net.cpp:148] Top shape: (1)
I0720 14:32:26.610824 23364 net.cpp:141] Setting up lstm2_gate_input_1
I0720 14:32:26.610813 23344 net.cpp:151]     with loss weight 1
I0720 14:32:26.610857 23364 net.cpp:148] Top shape: 1 1 4000 (4000)
I0720 14:32:26.610860 23344 net.cpp:156] Memory required for data: 98024
I0720 14:32:26.610870 23344 net.cpp:217] h_pseudoloss needs backward computation.
I0720 14:32:26.610868 23364 net.cpp:156] Memory required for data: 82020
I0720 14:32:26.610877 23344 net.cpp:217] lstm2_h_concat needs backward computation.
I0720 14:32:26.610882 23344 net.cpp:219] lstm2_ does not need backward computation.
I0720 14:32:26.610882 23364 layer_factory.hpp:77] Creating layer lstm2_unit_1
I0720 14:32:26.610888 23344 net.cpp:217] lstm2_unit_1 needs backward computation.
I0720 14:32:26.610894 23344 net.cpp:217] lstm2_gate_input_1 needs backward computation.
I0720 14:32:26.610899 23344 net.cpp:217] lstm2_transform_1 needs backward computation.
I0720 14:32:26.610901 23364 net.cpp:91] Creating Layer lstm2_unit_1
I0720 14:32:26.610904 23344 net.cpp:219] lstm2_h_conted_0 does not need backward computation.
I0720 14:32:26.610924 23364 net.cpp:425] lstm2_unit_1 <- c_0
I0720 14:32:26.610939 23364 net.cpp:425] lstm2_unit_1 <- gate_input_1
I0720 14:32:26.610949 23364 net.cpp:425] lstm2_unit_1 <- cont_1_lstm2_cont_slice_0_split_1
I0720 14:32:26.610966 23364 net.cpp:399] lstm2_unit_1 -> c_1
I0720 14:32:26.610983 23364 net.cpp:399] lstm2_unit_1 -> h_1
I0720 14:32:26.611004 23364 net.cpp:141] Setting up lstm2_unit_1
I0720 14:32:26.611017 23364 net.cpp:148] Top shape: 1 1 1000 (1000)
I0720 14:32:26.611030 23364 net.cpp:148] Top shape: 1 1 1000 (1000)
I0720 14:32:26.611038 23364 net.cpp:156] Memory required for data: 90020
I0720 14:32:26.611049 23364 layer_factory.hpp:77] Creating layer lstm2_
I0720 14:32:26.611065 23364 net.cpp:91] Creating Layer lstm2_
I0720 14:32:26.611075 23364 net.cpp:425] lstm2_ <- c_1
I0720 14:32:26.611089 23364 net.cpp:399] lstm2_ -> c_T
I0720 14:32:26.611106 23364 net.cpp:141] Setting up lstm2_
I0720 14:32:26.611117 23364 net.cpp:148] Top shape: 1 1 1000 (1000)
I0720 14:32:26.611125 23364 net.cpp:156] Memory required for data: 94020
I0720 14:32:26.611135 23364 layer_factory.hpp:77] Creating layer lstm2_h_concat
I0720 14:32:26.611152 23364 net.cpp:91] Creating Layer lstm2_h_concat
I0720 14:32:26.611163 23364 net.cpp:425] lstm2_h_concat <- h_1
I0720 14:32:26.611673 23344 net.cpp:217] lstm2_W_xc_x_slice needs backward computation.
I0720 14:32:26.611692 23344 net.cpp:217] lstm2_x_transform needs backward computation.
I0720 14:32:26.611691 23364 net.cpp:399] lstm2_h_concat -> h
I0720 14:32:26.611721 23344 net.cpp:219] cont_1_lstm2_cont_slice_0_split does not need backward computation.
I0720 14:32:26.611735 23344 net.cpp:219] lstm2_cont_slice does not need backward computation.
I0720 14:32:26.611745 23364 net.cpp:141] Setting up lstm2_h_concat
I0720 14:32:26.611747 23344 net.cpp:219] lstm2_ does not need backward computation.
I0720 14:32:26.611766 23364 net.cpp:148] Top shape: 1 1 1000 (1000)
I0720 14:32:26.611766 23344 net.cpp:219] lstm2_ does not need backward computation.
I0720 14:32:26.611781 23364 net.cpp:156] Memory required for data: 98020
I0720 14:32:26.611788 23344 net.cpp:261] This network produces output c_T
I0720 14:32:26.611793 23364 layer_factory.hpp:77] Creating layer h_pseudoloss
I0720 14:32:26.611799 23344 net.cpp:261] This network produces output h_pseudoloss
I0720 14:32:26.611810 23364 net.cpp:91] Creating Layer h_pseudoloss
I0720 14:32:26.611820 23364 net.cpp:425] h_pseudoloss <- h
I0720 14:32:26.611824 23344 net.cpp:274] Network initialization done.
I0720 14:32:26.611835 23364 net.cpp:399] h_pseudoloss -> h_pseudoloss
I0720 14:32:26.611904 23344 recurrent_layer.cpp:150] Adding parameter 0: W_xc
I0720 14:32:26.611917 23344 recurrent_layer.cpp:150] Adding parameter 1: b_c
I0720 14:32:26.611925 23344 recurrent_layer.cpp:150] Adding parameter 2: W_hc
I0720 14:32:26.611992 23344 net.cpp:141] Setting up lstm2
I0720 14:32:26.612009 23344 net.cpp:148] Top shape: 1 1 1000 (1000)
I0720 14:32:26.612018 23344 net.cpp:156] Memory required for data: 36412
I0720 14:32:26.612041 23344 layer_factory.hpp:77] Creating layer predict
I0720 14:32:26.612062 23344 net.cpp:91] Creating Layer predict
I0720 14:32:26.612074 23344 net.cpp:425] predict <- lstm2
I0720 14:32:26.612089 23344 net.cpp:399] predict -> predict
I0720 14:32:26.613196 23364 net.cpp:141] Setting up h_pseudoloss
…
I0720 14:32:26.669806 23342 net.cpp:219] lstm2_ does not need backward computation.
I0720 14:32:26.669812 23342 net.cpp:261] This network produces output c_T
I0720 14:32:26.669818 23342 net.cpp:261] This network produces output h_pseudoloss
I0720 14:32:26.669834 23342 net.cpp:274] Network initialization done.
I0720 14:32:26.669889 23342 recurrent_layer.cpp:150] Adding parameter 0: W_xc
I0720 14:32:26.669895 23342 recurrent_layer.cpp:150] Adding parameter 1: b_c
I0720 14:32:26.669900 23342 recurrent_layer.cpp:150] Adding parameter 2: W_hc
I0720 14:32:26.669947 23342 net.cpp:141] Setting up lstm2
I0720 14:32:26.669956 23342 net.cpp:148] Top shape: 1 1 1000 (1000)
I0720 14:32:26.669960 23342 net.cpp:156] Memory required for data: 36412
I0720 14:32:26.669975 23342 layer_factory.hpp:77] Creating layer predict
I0720 14:32:26.669991 23342 net.cpp:91] Creating Layer predict
I0720 14:32:26.669996 23342 net.cpp:425] predict <- lstm2
I0720 14:32:26.670003 23342 net.cpp:399] predict -> predict
I0720 14:32:26.893828 23348 net.cpp:141] Setting up conv1
I0720 14:32:26.893874 23348 net.cpp:148] Top shape: 10 96 55 55 (2904000)
I0720 14:32:26.893880 23348 net.cpp:156] Memory required for data: 17799480
I0720 14:32:26.893901 23348 layer_factory.hpp:77] Creating layer relu1
I0720 14:32:26.893918 23348 net.cpp:91] Creating Layer relu1
I0720 14:32:26.893925 23348 net.cpp:425] relu1 <- conv1
I0720 14:32:26.893934 23348 net.cpp:386] relu1 -> conv1 (in-place)
I0720 14:32:26.895261 23348 net.cpp:141] Setting up relu1
I0720 14:32:26.895282 23348 net.cpp:148] Top shape: 10 96 55 55 (2904000)
I0720 14:32:26.895288 23348 net.cpp:156] Memory required for data: 29415480
I0720 14:32:26.895294 23348 layer_factory.hpp:77] Creating layer pool1
I0720 14:32:26.895308 23348 net.cpp:91] Creating Layer pool1
I0720 14:32:26.895313 23348 net.cpp:425] pool1 <- conv1
I0720 14:32:26.895321 23348 net.cpp:399] pool1 -> pool1
I0720 14:32:26.895397 23348 net.cpp:141] Setting up pool1
I0720 14:32:26.895407 23348 net.cpp:148] Top shape: 10 96 27 27 (699840)
I0720 14:32:26.895411 23348 net.cpp:156] Memory required for data: 32214840
I0720 14:32:26.895416 23348 layer_factory.hpp:77] Creating layer norm1
I0720 14:32:26.895432 23348 net.cpp:91] Creating Layer norm1
I0720 14:32:26.895437 23348 net.cpp:425] norm1 <- pool1
I0720 14:32:26.895443 23348 net.cpp:399] norm1 -> norm1
I0720 14:32:26.896647 23348 net.cpp:141] Setting up norm1
I0720 14:32:26.896667 23348 net.cpp:148] Top shape: 10 96 27 27 (699840)
I0720 14:32:26.896672 23348 net.cpp:156] Memory required for data: 35014200
I0720 14:32:26.896677 23348 layer_factory.hpp:77] Creating layer conv2
I0720 14:32:26.896692 23348 net.cpp:91] Creating Layer conv2
I0720 14:32:26.896697 23348 net.cpp:425] conv2 <- norm1
I0720 14:32:26.896704 23348 net.cpp:399] conv2 -> conv2
I0720 14:32:26.903070 23348 net.cpp:141] Setting up conv2
I0720 14:32:26.903112 23348 net.cpp:148] Top shape: 10 256 27 27 (1866240)
I0720 14:32:26.903117 23348 net.cpp:156] Memory required for data: 42479160
I0720 14:32:26.903141 23348 layer_factory.hpp:77] Creating layer relu2
I0720 14:32:26.903162 23348 net.cpp:91] Creating Layer relu2
I0720 14:32:26.903169 23348 net.cpp:425] relu2 <- conv2
I0720 14:32:26.903182 23348 net.cpp:386] relu2 -> conv2 (in-place)
I0720 14:32:26.904409 23348 net.cpp:141] Setting up relu2
I0720 14:32:26.904428 23348 net.cpp:148] Top shape: 10 256 27 27 (1866240)
I0720 14:32:26.904433 23348 net.cpp:156] Memory required for data: 49944120
I0720 14:32:26.904438 23348 layer_factory.hpp:77] Creating layer pool2
I0720 14:32:26.904453 23348 net.cpp:91] Creating Layer pool2
I0720 14:32:26.904458 23348 net.cpp:425] pool2 <- conv2
I0720 14:32:26.904464 23348 net.cpp:399] pool2 -> pool2
I0720 14:32:26.904530 23348 net.cpp:141] Setting up pool2
I0720 14:32:26.904538 23348 net.cpp:148] Top shape: 10 256 13 13 (432640)
I0720 14:32:26.904542 23348 net.cpp:156] Memory required for data: 51674680
I0720 14:32:26.904546 23348 layer_factory.hpp:77] Creating layer norm2
I0720 14:32:26.904561 23348 net.cpp:91] Creating Layer norm2
I0720 14:32:26.904566 23348 net.cpp:425] norm2 <- pool2
I0720 14:32:26.904572 23348 net.cpp:399] norm2 -> norm2
I0720 14:32:26.904829 23348 net.cpp:141] Setting up norm2
I0720 14:32:26.904841 23348 net.cpp:148] Top shape: 10 256 13 13 (432640)
I0720 14:32:26.904845 23348 net.cpp:156] Memory required for data: 53405240
I0720 14:32:26.904850 23348 layer_factory.hpp:77] Creating layer conv3
I0720 14:32:26.904865 23348 net.cpp:91] Creating Layer conv3
I0720 14:32:26.904871 23348 net.cpp:425] conv3 <- norm2
I0720 14:32:26.904877 23348 net.cpp:399] conv3 -> conv3
I0720 14:32:26.910598 23348 net.cpp:141] Setting up conv3
I0720 14:32:26.910645 23348 net.cpp:148] Top shape: 10 384 13 13 (648960)
I0720 14:32:26.910653 23348 net.cpp:156] Memory required for data: 56001080
I0720 14:32:26.910671 23348 layer_factory.hpp:77] Creating layer relu3
I0720 14:32:26.910697 23348 net.cpp:91] Creating Layer relu3
I0720 14:32:26.910706 23348 net.cpp:425] relu3 <- conv3
I0720 14:32:26.910718 23348 net.cpp:386] relu3 -> conv3 (in-place)
I0720 14:32:26.911797 23348 net.cpp:141] Setting up relu3
I0720 14:32:26.911810 23348 net.cpp:148] Top shape: 10 384 13 13 (648960)
I0720 14:32:26.911814 23348 net.cpp:156] Memory required for data: 58596920
I0720 14:32:26.911819 23348 layer_factory.hpp:77] Creating layer conv4
I0720 14:32:26.911837 23348 net.cpp:91] Creating Layer conv4
I0720 14:32:26.911844 23348 net.cpp:425] conv4 <- conv3
I0720 14:32:26.911854 23348 net.cpp:399] conv4 -> conv4
I0720 14:32:26.919517 23348 net.cpp:141] Setting up conv4
I0720 14:32:26.919556 23348 net.cpp:148] Top shape: 10 384 13 13 (648960)
I0720 14:32:26.919561 23348 net.cpp:156] Memory required for data: 61192760
I0720 14:32:26.919575 23348 layer_factory.hpp:77] Creating layer relu4
I0720 14:32:26.919597 23348 net.cpp:91] Creating Layer relu4
I0720 14:32:26.919605 23348 net.cpp:425] relu4 <- conv4
I0720 14:32:26.919612 23348 net.cpp:386] relu4 -> conv4 (in-place)
I0720 14:32:26.920573 23348 net.cpp:141] Setting up relu4
I0720 14:32:26.920598 23348 net.cpp:148] Top shape: 10 384 13 13 (648960)
I0720 14:32:26.920608 23348 net.cpp:156] Memory required for data: 63788600
I0720 14:32:26.920616 23348 layer_factory.hpp:77] Creating layer conv5
I0720 14:32:26.920644 23348 net.cpp:91] Creating Layer conv5
I0720 14:32:26.920655 23348 net.cpp:425] conv5 <- conv4
I0720 14:32:26.920672 23348 net.cpp:399] conv5 -> conv5
I0720 14:32:26.922821 23352 net.cpp:141] Setting up predict
I0720 14:32:26.922868 23352 net.cpp:148] Top shape: 1 1 46168 (46168)
I0720 14:32:26.922873 23352 net.cpp:156] Memory required for data: 221084
I0720 14:32:26.922889 23352 layer_factory.hpp:77] Creating layer probs
I0720 14:32:26.922907 23352 net.cpp:91] Creating Layer probs
I0720 14:32:26.922915 23352 net.cpp:425] probs <- predict
I0720 14:32:26.922926 23352 net.cpp:399] probs -> probs
I0720 14:32:26.923979 23352 net.cpp:141] Setting up probs
I0720 14:32:26.923998 23352 net.cpp:148] Top shape: 1 1 46168 (46168)
I0720 14:32:26.924005 23352 net.cpp:156] Memory required for data: 405756
I0720 14:32:26.924010 23352 net.cpp:219] probs does not need backward computation.
I0720 14:32:26.924016 23352 net.cpp:219] predict does not need backward computation.
I0720 14:32:26.924021 23352 net.cpp:219] lstm2 does not need backward computation.
I0720 14:32:26.924027 23352 net.cpp:219] concat does not need backward computation.
I0720 14:32:26.924033 23352 net.cpp:219] lstm1 does not need backward computation.
I0720 14:32:26.924041 23352 net.cpp:219] embedding does not need backward computation.
I0720 14:32:26.924046 23352 net.cpp:219] reshape_stage_indicator does not need backward computation.
I0720 14:32:26.924051 23352 net.cpp:219] reshape_frames does not need backward computation.
I0720 14:32:26.924054 23352 net.cpp:219] embed_encoder does not need backward computation.
I0720 14:32:26.924059 23352 net.cpp:219] cont_sentence_input_1_split does not need backward computation.
I0720 14:32:26.924064 23352 net.cpp:219] input does not need backward computation.
I0720 14:32:26.924068 23352 net.cpp:261] This network produces output probs
I0720 14:32:26.924108 23352 net.cpp:274] Network initialization done.
I0720 14:32:26.929688 23348 net.cpp:141] Setting up conv5
I0720 14:32:26.929730 23348 net.cpp:148] Top shape: 10 256 13 13 (432640)
I0720 14:32:26.929736 23348 net.cpp:156] Memory required for data: 65519160
I0720 14:32:26.929756 23348 layer_factory.hpp:77] Creating layer relu5
I0720 14:32:26.929771 23348 net.cpp:91] Creating Layer relu5
I0720 14:32:26.929778 23348 net.cpp:425] relu5 <- conv5
I0720 14:32:26.929790 23348 net.cpp:386] relu5 -> conv5 (in-place)
I0720 14:32:26.930028 23348 net.cpp:141] Setting up relu5
I0720 14:32:26.930042 23348 net.cpp:148] Top shape: 10 256 13 13 (432640)
I0720 14:32:26.930047 23348 net.cpp:156] Memory required for data: 67249720
I0720 14:32:26.930052 23348 layer_factory.hpp:77] Creating layer pool5
I0720 14:32:26.930060 23348 net.cpp:91] Creating Layer pool5
I0720 14:32:26.930065 23348 net.cpp:425] pool5 <- conv5
I0720 14:32:26.930071 23348 net.cpp:399] pool5 -> pool5
I0720 14:32:26.930133 23348 net.cpp:141] Setting up pool5
I0720 14:32:26.930142 23348 net.cpp:148] Top shape: 10 256 6 6 (92160)
I0720 14:32:26.930146 23348 net.cpp:156] Memory required for data: 67618360
I0720 14:32:26.930151 23348 layer_factory.hpp:77] Creating layer fc6
I0720 14:32:26.930169 23348 net.cpp:91] Creating Layer fc6
I0720 14:32:26.930174 23348 net.cpp:425] fc6 <- pool5
I0720 14:32:26.930181 23348 net.cpp:399] fc6 -> fc6
I0720 14:32:26.991689 23350 net.cpp:141] Setting up predict
I0720 14:32:26.991736 23350 net.cpp:148] Top shape: 1 1 46168 (46168)
I0720 14:32:26.991744 23350 net.cpp:156] Memory required for data: 221084
I0720 14:32:26.991762 23350 layer_factory.hpp:77] Creating layer probs
I0720 14:32:26.991783 23350 net.cpp:91] Creating Layer probs
I0720 14:32:26.991792 23350 net.cpp:425] probs <- predict
I0720 14:32:26.991806 23350 net.cpp:399] probs -> probs
I0720 14:32:27.002509 23350 net.cpp:141] Setting up probs
I0720 14:32:27.002554 23350 net.cpp:148] Top shape: 1 1 46168 (46168)
I0720 14:32:27.002562 23350 net.cpp:156] Memory required for data: 405756
I0720 14:32:27.002573 23350 net.cpp:219] probs does not need backward computation.
I0720 14:32:27.002583 23350 net.cpp:219] predict does not need backward computation.
I0720 14:32:27.002591 23350 net.cpp:219] lstm2 does not need backward computation.
I0720 14:32:27.002599 23350 net.cpp:219] concat does not need backward computation.
I0720 14:32:27.002607 23350 net.cpp:219] lstm1 does not need backward computation.
I0720 14:32:27.002615 23350 net.cpp:219] embedding does not need backward computation.
I0720 14:32:27.002622 23350 net.cpp:219] reshape_stage_indicator does not need backward computation.
I0720 14:32:27.002630 23350 net.cpp:219] reshape_frames does not need backward computation.
I0720 14:32:27.002637 23350 net.cpp:219] embed_encoder does not need backward computation.
I0720 14:32:27.002645 23350 net.cpp:219] cont_sentence_input_1_split does not need backward computation.
I0720 14:32:27.002652 23350 net.cpp:219] input does not need backward computation.
I0720 14:32:27.002657 23350 net.cpp:261] This network produces output probs
I0720 14:32:27.002684 23350 net.cpp:274] Network initialization done.
I0720 14:32:27.027319 23340 net.cpp:141] Setting up predict
I0720 14:32:27.027384 23340 net.cpp:148] Top shape: 1 1 46168 (46168)
I0720 14:32:27.027392 23340 net.cpp:156] Memory required for data: 221084
I0720 14:32:27.027416 23340 layer_factory.hpp:77] Creating layer probs
I0720 14:32:27.027446 23340 net.cpp:91] Creating Layer probs
I0720 14:32:27.027458 23340 net.cpp:425] probs <- predict
I0720 14:32:27.027477 23340 net.cpp:399] probs -> probs
I0720 14:32:27.028789 23340 net.cpp:141] Setting up probs
I0720 14:32:27.028817 23340 net.cpp:148] Top shape: 1 1 46168 (46168)
I0720 14:32:27.028823 23340 net.cpp:156] Memory required for data: 405756
I0720 14:32:27.028828 23340 net.cpp:219] probs does not need backward computation.
I0720 14:32:27.028836 23340 net.cpp:219] predict does not need backward computation.
I0720 14:32:27.028841 23340 net.cpp:219] lstm2 does not need backward computation.
I0720 14:32:27.028846 23340 net.cpp:219] concat does not need backward computation.
I0720 14:32:27.028851 23340 net.cpp:219] lstm1 does not need backward computation.
I0720 14:32:27.028856 23340 net.cpp:219] embedding does not need backward computation.
I0720 14:32:27.028861 23340 net.cpp:219] reshape_stage_indicator does not need backward computation.
I0720 14:32:27.028867 23340 net.cpp:219] reshape_frames does not need backward computation.
I0720 14:32:27.028872 23340 net.cpp:219] embed_encoder does not need backward computation.
I0720 14:32:27.028877 23340 net.cpp:219] cont_sentence_input_1_split does not need backward computation.
I0720 14:32:27.028882 23340 net.cpp:219] input does not need backward computation.
I0720 14:32:27.028885 23340 net.cpp:261] This network produces output probs
I0720 14:32:27.028899 23340 net.cpp:274] Network initialization done.
I0720 14:32:27.040959 23348 net.cpp:141] Setting up fc6
I0720 14:32:27.041010 23348 net.cpp:148] Top shape: 10 4096 (40960)
I0720 14:32:27.041018 23348 net.cpp:156] Memory required for data: 67782200
I0720 14:32:27.041038 23348 layer_factory.hpp:77] Creating layer relu6
I0720 14:32:27.041059 23348 net.cpp:91] Creating Layer relu6
I0720 14:32:27.041067 23348 net.cpp:425] relu6 <- fc6
I0720 14:32:27.041445 23348 net.cpp:386] relu6 -> fc6 (in-place)
I0720 14:32:27.044824 23348 net.cpp:141] Setting up relu6
I0720 14:32:27.044867 23348 net.cpp:148] Top shape: 10 4096 (40960)
I0720 14:32:27.044875 23348 net.cpp:156] Memory required for data: 67946040
I0720 14:32:27.044885 23348 layer_factory.hpp:77] Creating layer drop6
I0720 14:32:27.044905 23348 net.cpp:91] Creating Layer drop6
I0720 14:32:27.044914 23348 net.cpp:425] drop6 <- fc6
I0720 14:32:27.044931 23348 net.cpp:386] drop6 -> fc6 (in-place)
I0720 14:32:27.045017 23348 net.cpp:141] Setting up drop6
I0720 14:32:27.045028 23348 net.cpp:148] Top shape: 10 4096 (40960)
I0720 14:32:27.045034 23348 net.cpp:156] Memory required for data: 68109880
I0720 14:32:27.045042 23348 layer_factory.hpp:77] Creating layer fc7
I0720 14:32:27.045055 23348 net.cpp:91] Creating Layer fc7
I0720 14:32:27.045063 23348 net.cpp:425] fc7 <- fc6
I0720 14:32:27.045071 23348 net.cpp:399] fc7 -> fc7
I0720 14:32:27.081831 23368 net.cpp:141] Setting up predict
I0720 14:32:27.082221 23368 net.cpp:148] Top shape: 1 1 46168 (46168)
I0720 14:32:27.082362 23368 net.cpp:156] Memory required for data: 221084
I0720 14:32:27.082391 23368 layer_factory.hpp:77] Creating layer probs
I0720 14:32:27.082412 23368 net.cpp:91] Creating Layer probs
I0720 14:32:27.082422 23368 net.cpp:425] probs <- predict
I0720 14:32:27.082435 23368 net.cpp:399] probs -> probs
I0720 14:32:27.082757 23362 net.cpp:141] Setting up predict
I0720 14:32:27.082782 23362 net.cpp:148] Top shape: 1 1 46168 (46168)
I0720 14:32:27.082792 23362 net.cpp:156] Memory required for data: 221084
I0720 14:32:27.082809 23362 layer_factory.hpp:77] Creating layer probs
I0720 14:32:27.082828 23362 net.cpp:91] Creating Layer probs
I0720 14:32:27.082839 23362 net.cpp:425] probs <- predict
I0720 14:32:27.082854 23362 net.cpp:399] probs -> probs
I0720 14:32:27.091167 23368 net.cpp:141] Setting up probs
I0720 14:32:27.091167 23362 net.cpp:141] Setting up probs
I0720 14:32:27.091224 23368 net.cpp:148] Top shape: 1 1 46168 (46168)
I0720 14:32:27.091224 23362 net.cpp:148] Top shape: 1 1 46168 (46168)
I0720 14:32:27.091238 23368 net.cpp:156] Memory required for data: 405756
I0720 14:32:27.091243 23362 net.cpp:156] Memory required for data: 405756
I0720 14:32:27.091248 23368 net.cpp:219] probs does not need backward computation.
I0720 14:32:27.091253 23362 net.cpp:219] probs does not need backward computation.
I0720 14:32:27.091259 23368 net.cpp:219] predict does not need backward computation.
…
I0720 14:32:27.091332 23362 net.cpp:219] cont_sentence_input_1_split does not need backward computation.
I0720 14:32:27.091336 23368 net.cpp:219] input does not need backward computation.
I0720 14:32:27.091342 23368 net.cpp:261] This network produces output probs
I0720 14:32:27.091342 23362 net.cpp:219] input does not need backward computation.
I0720 14:32:27.091359 23362 net.cpp:261] This network produces output probs
I0720 14:32:27.091370 23368 net.cpp:274] Network initialization done.
I0720 14:32:27.091385 23362 net.cpp:274] Network initialization done.
I0720 14:32:27.095614 23354 net.cpp:141] Setting up predict
I0720 14:32:27.095674 23354 net.cpp:148] Top shape: 1 1 46168 (46168)
I0720 14:32:27.095686 23354 net.cpp:156] Memory required for data: 221084
I0720 14:32:27.095710 23354 layer_factory.hpp:77] Creating layer probs
I0720 14:32:27.095737 23354 net.cpp:91] Creating Layer probs
I0720 14:32:27.095751 23354 net.cpp:425] probs <- predict
I0720 14:32:27.095768 23354 net.cpp:399] probs -> probs
I0720 14:32:27.100540 23354 net.cpp:141] Setting up probs
I0720 14:32:27.100606 23354 net.cpp:148] Top shape: 1 1 46168 (46168)
I0720 14:32:27.100617 23354 net.cpp:156] Memory required for data: 405756
I0720 14:32:27.100631 23354 net.cpp:219] probs does not need backward computation.
I0720 14:32:27.100643 23354 net.cpp:219] predict does not need backward computation.
I0720 14:32:27.100654 23354 net.cpp:219] lstm2 does not need backward computation.
I0720 14:32:27.100664 23354 net.cpp:219] concat does not need backward computation.
I0720 14:32:27.100675 23354 net.cpp:219] lstm1 does not need backward computation.
I0720 14:32:27.100685 23354 net.cpp:219] embedding does not need backward computation.
I0720 14:32:27.100694 23354 net.cpp:219] reshape_stage_indicator does not need backward computation.
I0720 14:32:27.100704 23354 net.cpp:219] reshape_frames does not need backward computation.
I0720 14:32:27.100714 23354 net.cpp:219] embed_encoder does not need backward computation.
I0720 14:32:27.100724 23354 net.cpp:219] cont_sentence_input_1_split does not need backward computation.
I0720 14:32:27.100733 23354 net.cpp:219] input does not need backward computation.
I0720 14:32:27.100741 23354 net.cpp:261] This network produces output probs
I0720 14:32:27.100775 23354 net.cpp:274] Network initialization done.
I0720 14:32:27.106988 23348 net.cpp:141] Setting up fc7
I0720 14:32:27.107035 23348 net.cpp:148] Top shape: 10 4096 (40960)
I0720 14:32:27.107043 23348 net.cpp:156] Memory required for data: 68273720
I0720 14:32:27.107064 23348 layer_factory.hpp:77] Creating layer relu7
I0720 14:32:27.107092 23348 net.cpp:91] Creating Layer relu7
I0720 14:32:27.107102 23348 net.cpp:425] relu7 <- fc7
I0720 14:32:27.107115 23348 net.cpp:386] relu7 -> fc7 (in-place)
I0720 14:32:27.107995 23336 net.cpp:141] Setting up predict
I0720 14:32:27.108041 23336 net.cpp:148] Top shape: 1 1 46168 (46168)
I0720 14:32:27.108047 23336 net.cpp:156] Memory required for data: 221084
I0720 14:32:27.108063 23336 layer_factory.hpp:77] Creating layer probs
I0720 14:32:27.108080 23336 net.cpp:91] Creating Layer probs
I0720 14:32:27.108088 23336 net.cpp:425] probs <- predict
I0720 14:32:27.108099 23336 net.cpp:399] probs -> probs
I0720 14:32:27.108149 23348 net.cpp:141] Setting up relu7
I0720 14:32:27.108176 23348 net.cpp:148] Top shape: 10 4096 (40960)
I0720 14:32:27.108184 23348 net.cpp:156] Memory required for data: 68437560
I0720 14:32:27.108193 23348 layer_factory.hpp:77] Creating layer drop7
I0720 14:32:27.108211 23348 net.cpp:91] Creating Layer drop7
I0720 14:32:27.108219 23348 net.cpp:425] drop7 <- fc7
I0720 14:32:27.108708 23348 net.cpp:386] drop7 -> fc7 (in-place)
I0720 14:32:27.110465 23348 net.cpp:141] Setting up drop7
I0720 14:32:27.110507 23348 net.cpp:148] Top shape: 10 4096 (40960)
I0720 14:32:27.110515 23348 net.cpp:156] Memory required for data: 68601400
I0720 14:32:27.110527 23348 layer_factory.hpp:77] Creating layer fc8
I0720 14:32:27.110548 23348 net.cpp:91] Creating Layer fc8
I0720 14:32:27.110556 23348 net.cpp:425] fc8 <- fc7
I0720 14:32:27.110570 23348 net.cpp:399] fc8 -> fc8
I0720 14:32:27.120548 23336 net.cpp:141] Setting up probs
I0720 14:32:27.120617 23336 net.cpp:148] Top shape: 1 1 46168 (46168)
I0720 14:32:27.120623 23336 net.cpp:156] Memory required for data: 405756
I0720 14:32:27.120635 23336 net.cpp:219] probs does not need backward computation.
I0720 14:32:27.120645 23336 net.cpp:219] predict does not need backward computation.
I0720 14:32:27.120651 23336 net.cpp:219] lstm2 does not need backward computation.
I0720 14:32:27.120656 23336 net.cpp:219] concat does not need backward computation.
I0720 14:32:27.120662 23336 net.cpp:219] lstm1 does not need backward computation.
I0720 14:32:27.120668 23336 net.cpp:219] embedding does not need backward computation.
I0720 14:32:27.120673 23336 net.cpp:219] reshape_stage_indicator does not need backward computation.
I0720 14:32:27.120678 23336 net.cpp:219] reshape_frames does not need backward computation.
I0720 14:32:27.120683 23336 net.cpp:219] embed_encoder does not need backward computation.
I0720 14:32:27.120687 23336 net.cpp:219] cont_sentence_input_1_split does not need backward computation.
I0720 14:32:27.120693 23336 net.cpp:219] input does not need backward computation.
I0720 14:32:27.120697 23336 net.cpp:261] This network produces output probs
I0720 14:32:27.121127 23336 net.cpp:274] Network initialization done.
I0720 14:32:27.125648 23344 net.cpp:141] Setting up predict
I0720 14:32:27.125700 23344 net.cpp:148] Top shape: 1 1 46168 (46168)
I0720 14:32:27.125706 23344 net.cpp:156] Memory required for data: 221084
I0720 14:32:27.125721 23344 layer_factory.hpp:77] Creating layer probs
I0720 14:32:27.125738 23344 net.cpp:91] Creating Layer probs
I0720 14:32:27.125746 23344 net.cpp:425] probs <- predict
I0720 14:32:27.125756 23344 net.cpp:399] probs -> probs
I0720 14:32:27.127269 23344 net.cpp:141] Setting up probs
I0720 14:32:27.127321 23344 net.cpp:148] Top shape: 1 1 46168 (46168)
I0720 14:32:27.127328 23344 net.cpp:156] Memory required for data: 405756
I0720 14:32:27.127338 23344 net.cpp:219] probs does not need backward computation.
I0720 14:32:27.127348 23344 net.cpp:219] predict does not need backward computation.
I0720 14:32:27.127357 23344 net.cpp:219] lstm2 does not need backward computation.
I0720 14:32:27.127367 23344 net.cpp:219] concat does not need backward computation.
I0720 14:32:27.127377 23344 net.cpp:219] lstm1 does not need backward computation.
I0720 14:32:27.127388 23344 net.cpp:219] embedding does not need backward computation.
I0720 14:32:27.127395 23344 net.cpp:219] reshape_stage_indicator does not need backward computation.
I0720 14:32:27.127403 23344 net.cpp:219] reshape_frames does not need backward computation.
I0720 14:32:27.127410 23344 net.cpp:219] embed_encoder does not need backward computation.
I0720 14:32:27.127418 23344 net.cpp:219] cont_sentence_input_1_split does not need backward computation.
I0720 14:32:27.127426 23344 net.cpp:219] input does not need backward computation.
I0720 14:32:27.127432 23344 net.cpp:261] This network produces output probs
I0720 14:32:27.127833 23348 net.cpp:141] Setting up fc8
I0720 14:32:27.127835 23344 net.cpp:274] Network initialization done.
I0720 14:32:27.127859 23348 net.cpp:148] Top shape: 10 1000 (10000)
I0720 14:32:27.127866 23348 net.cpp:156] Memory required for data: 68641400
I0720 14:32:27.127883 23348 layer_factory.hpp:77] Creating layer prob
I0720 14:32:27.128376 23348 net.cpp:91] Creating Layer prob
I0720 14:32:27.128391 23348 net.cpp:425] prob <- fc8
I0720 14:32:27.128407 23348 net.cpp:399] prob -> prob
I0720 14:32:27.134405 23348 net.cpp:141] Setting up prob
I0720 14:32:27.134452 23348 net.cpp:148] Top shape: 10 1000 (10000)
I0720 14:32:27.134461 23348 net.cpp:156] Memory required for data: 68681400
I0720 14:32:27.134472 23348 net.cpp:219] prob does not need backward computation.
I0720 14:32:27.134481 23348 net.cpp:219] fc8 does not need backward computation.
I0720 14:32:27.134490 23348 net.cpp:219] drop7 does not need backward computation.
I0720 14:32:27.134495 23348 net.cpp:219] relu7 does not need backward computation.
…
