…
2016-07-14 23:39:24.015 n.t.s.b.CVParticleBolt [INFO] [Timing] RequestID: 0 StreamID: home/peifeng/work/data/frame.320x240.jpg SequenceNr: 67 Leaving scale: 1468553964015 Size: 3530
2016-07-14 23:39:24.017 n.t.s.b.CVParticleBolt [INFO] [Timing] RequestID: 0 StreamID: home/peifeng/work/data/frame.320x240.jpg SequenceNr: 68 Leaving scale: 1468553964017 Size: 3530
2016-07-14 23:39:24.050 STDERR [INFO] I0714 23:39:24.050004  8730 net.cpp:141] Setting up conv1/7x7_s2
2016-07-14 23:39:24.050 STDERR [INFO] I0714 23:39:24.050004  8726 net.cpp:141] Setting up conv1/7x7_s2
2016-07-14 23:39:24.050 STDERR [INFO] I0714 23:39:24.050072  8730 net.cpp:148] Top shape: 10 64 112 112 (8028160)
2016-07-14 23:39:24.050 STDERR [INFO] I0714 23:39:24.050073  8726 net.cpp:148] Top shape: 10 64 112 112 (8028160)
2016-07-14 23:39:24.050 STDERR [INFO] I0714 23:39:24.050082  8730 net.cpp:156] Memory required for data: 38133760
2016-07-14 23:39:24.051 STDERR [INFO] I0714 23:39:24.050086  8726 net.cpp:156] Memory required for data: 38133760
2016-07-14 23:39:24.051 STDERR [INFO] I0714 23:39:24.050117  8730 layer_factory.hpp:77] Creating layer conv1/relu_7x7
2016-07-14 23:39:24.051 STDERR [INFO] I0714 23:39:24.050122  8726 layer_factory.hpp:77] Creating layer conv1/relu_7x7
2016-07-14 23:39:24.051 STDERR [INFO] I0714 23:39:24.050142  8730 net.cpp:91] Creating Layer conv1/relu_7x7
2016-07-14 23:39:24.051 STDERR [INFO] I0714 23:39:24.050142  8726 net.cpp:91] Creating Layer conv1/relu_7x7
2016-07-14 23:39:24.051 STDERR [INFO] I0714 23:39:24.050153  8730 net.cpp:425] conv1/relu_7x7 <- conv1/7x7_s2
2016-07-14 23:39:24.051 STDERR [INFO] I0714 23:39:24.050155  8726 net.cpp:425] conv1/relu_7x7 <- conv1/7x7_s2
2016-07-14 23:39:24.051 STDERR [INFO] I0714 23:39:24.050163  8730 net.cpp:386] conv1/relu_7x7 -> conv1/7x7_s2 (in-place)
2016-07-14 23:39:24.051 STDERR [INFO] I0714 23:39:24.050166  8726 net.cpp:386] conv1/relu_7x7 -> conv1/7x7_s2 (in-place)
2016-07-14 23:39:24.051 STDERR [INFO] I0714 23:39:24.051306  8730 net.cpp:141] Setting up conv1/relu_7x7
2016-07-14 23:39:24.051 STDERR [INFO] I0714 23:39:24.051311  8726 net.cpp:141] Setting up conv1/relu_7x7
2016-07-14 23:39:24.051 STDERR [INFO] I0714 23:39:24.051321  8730 net.cpp:148] Top shape: 10 64 112 112 (8028160)
2016-07-14 23:39:24.051 STDERR [INFO] I0714 23:39:24.051324  8726 net.cpp:148] Top shape: 10 64 112 112 (8028160)
2016-07-14 23:39:24.051 STDERR [INFO] I0714 23:39:24.051326  8730 net.cpp:156] Memory required for data: 70246400
2016-07-14 23:39:24.051 STDERR [INFO] I0714 23:39:24.051329  8726 net.cpp:156] Memory required for data: 70246400
2016-07-14 23:39:24.051 STDERR [INFO] I0714 23:39:24.051332  8730 layer_factory.hpp:77] Creating layer pool1/3x3_s2
2016-07-14 23:39:24.051 STDERR [INFO] I0714 23:39:24.051336  8726 layer_factory.hpp:77] Creating layer pool1/3x3_s2
2016-07-14 23:39:24.051 STDERR [INFO] I0714 23:39:24.051348  8730 net.cpp:91] Creating Layer pool1/3x3_s2
2016-07-14 23:39:24.051 STDERR [INFO] I0714 23:39:24.051352  8726 net.cpp:91] Creating Layer pool1/3x3_s2
2016-07-14 23:39:24.051 STDERR [INFO] I0714 23:39:24.051354  8730 net.cpp:425] pool1/3x3_s2 <- conv1/7x7_s2
2016-07-14 23:39:24.051 STDERR [INFO] I0714 23:39:24.051359  8726 net.cpp:425] pool1/3x3_s2 <- conv1/7x7_s2
2016-07-14 23:39:24.052 STDERR [INFO] I0714 23:39:24.051364  8730 net.cpp:399] pool1/3x3_s2 -> pool1/3x3_s2
2016-07-14 23:39:24.052 STDERR [INFO] I0714 23:39:24.051367  8726 net.cpp:399] pool1/3x3_s2 -> pool1/3x3_s2
2016-07-14 23:39:24.052 STDERR [INFO] I0714 23:39:24.051502  8726 net.cpp:141] Setting up pool1/3x3_s2
2016-07-14 23:39:24.052 STDERR [INFO] I0714 23:39:24.051515  8726 net.cpp:148] Top shape: 10 64 56 56 (2007040)
2016-07-14 23:39:24.052 STDERR [INFO] I0714 23:39:24.051520  8726 net.cpp:156] Memory required for data: 78274560
2016-07-14 23:39:24.052 STDERR [INFO] I0714 23:39:24.051522  8730 net.cpp:141] Setting up pool1/3x3_s2
2016-07-14 23:39:24.052 STDERR [INFO] I0714 23:39:24.051525  8726 layer_factory.hpp:77] Creating layer pool1/norm1
2016-07-14 23:39:24.052 STDERR [INFO] I0714 23:39:24.051538  8730 net.cpp:148] Top shape: 10 64 56 56 (2007040)
2016-07-14 23:39:24.052 STDERR [INFO] I0714 23:39:24.051543  8730 net.cpp:156] Memory required for data: 78274560
2016-07-14 23:39:24.052 STDERR [INFO] I0714 23:39:24.051548  8730 layer_factory.hpp:77] Creating layer pool1/norm1
2016-07-14 23:39:24.052 STDERR [INFO] I0714 23:39:24.051556  8726 net.cpp:91] Creating Layer pool1/norm1
2016-07-14 23:39:24.052 STDERR [INFO] I0714 23:39:24.051560  8730 net.cpp:91] Creating Layer pool1/norm1
2016-07-14 23:39:24.052 STDERR [INFO] I0714 23:39:24.051563  8726 net.cpp:425] pool1/norm1 <- pool1/3x3_s2
2016-07-14 23:39:24.052 STDERR [INFO] I0714 23:39:24.051566  8730 net.cpp:425] pool1/norm1 <- pool1/3x3_s2
2016-07-14 23:39:24.052 STDERR [INFO] I0714 23:39:24.051571  8726 net.cpp:399] pool1/norm1 -> pool1/norm1
2016-07-14 23:39:24.052 STDERR [INFO] I0714 23:39:24.051574  8730 net.cpp:399] pool1/norm1 -> pool1/norm1
2016-07-14 23:39:24.052 STDERR [INFO] I0714 23:39:24.052809  8726 net.cpp:141] Setting up pool1/norm1
2016-07-14 23:39:24.052 STDERR [INFO] I0714 23:39:24.052825  8726 net.cpp:148] Top shape: 10 64 56 56 (2007040)
2016-07-14 23:39:24.052 STDERR [INFO] I0714 23:39:24.052830  8726 net.cpp:156] Memory required for data: 86302720
2016-07-14 23:39:24.053 STDERR [INFO] I0714 23:39:24.052835  8726 layer_factory.hpp:77] Creating layer conv2/3x3_reduce
2016-07-14 23:39:24.053 STDERR [INFO] I0714 23:39:24.052834  8730 net.cpp:141] Setting up pool1/norm1
2016-07-14 23:39:24.053 STDERR [INFO] I0714 23:39:24.052850  8730 net.cpp:148] Top shape: 10 64 56 56 (2007040)
2016-07-14 23:39:24.053 STDERR [INFO] I0714 23:39:24.052855  8730 net.cpp:156] Memory required for data: 86302720
2016-07-14 23:39:24.053 STDERR [INFO] I0714 23:39:24.052860  8730 layer_factory.hpp:77] Creating layer conv2/3x3_reduce
2016-07-14 23:39:24.053 STDERR [INFO] I0714 23:39:24.052865  8726 net.cpp:91] Creating Layer conv2/3x3_reduce
2016-07-14 23:39:24.053 STDERR [INFO] I0714 23:39:24.052871  8726 net.cpp:425] conv2/3x3_reduce <- pool1/norm1
2016-07-14 23:39:24.053 STDERR [INFO] I0714 23:39:24.052876  8730 net.cpp:91] Creating Layer conv2/3x3_reduce
2016-07-14 23:39:24.053 STDERR [INFO] I0714 23:39:24.052882  8730 net.cpp:425] conv2/3x3_reduce <- pool1/norm1
2016-07-14 23:39:24.053 STDERR [INFO] I0714 23:39:24.052883  8726 net.cpp:399] conv2/3x3_reduce -> conv2/3x3_reduce
2016-07-14 23:39:24.053 STDERR [INFO] I0714 23:39:24.052891  8730 net.cpp:399] conv2/3x3_reduce -> conv2/3x3_reduce
2016-07-14 23:39:24.058 STDERR [INFO] I0714 23:39:24.058833  8726 net.cpp:141] Setting up conv2/3x3_reduce
2016-07-14 23:39:24.059 STDERR [INFO] I0714 23:39:24.058856  8726 net.cpp:148] Top shape: 10 64 56 56 (2007040)
2016-07-14 23:39:24.059 STDERR [INFO] I0714 23:39:24.058861  8726 net.cpp:156] Memory required for data: 94330880
2016-07-14 23:39:24.059 STDERR [INFO] I0714 23:39:24.058874  8726 layer_factory.hpp:77] Creating layer conv2/relu_3x3_reduce
2016-07-14 23:39:24.059 STDERR [INFO] I0714 23:39:24.058884  8726 net.cpp:91] Creating Layer conv2/relu_3x3_reduce
2016-07-14 23:39:24.059 STDERR [INFO] I0714 23:39:24.058889  8726 net.cpp:425] conv2/relu_3x3_reduce <- conv2/3x3_reduce
2016-07-14 23:39:24.059 STDERR [INFO] I0714 23:39:24.058897  8726 net.cpp:386] conv2/relu_3x3_reduce -> conv2/3x3_reduce (in-place)
2016-07-14 23:39:24.059 STDERR [INFO] I0714 23:39:24.059778  8730 net.cpp:141] Setting up conv2/3x3_reduce
2016-07-14 23:39:24.059 STDERR [INFO] I0714 23:39:24.059798  8730 net.cpp:148] Top shape: 10 64 56 56 (2007040)
2016-07-14 23:39:24.059 STDERR [INFO] I0714 23:39:24.059803  8730 net.cpp:156] Memory required for data: 94330880
2016-07-14 23:39:24.060 STDERR [INFO] I0714 23:39:24.059820  8730 layer_factory.hpp:77] Creating layer conv2/relu_3x3_reduce
2016-07-14 23:39:24.060 STDERR [INFO] I0714 23:39:24.059830  8730 net.cpp:91] Creating Layer conv2/relu_3x3_reduce
2016-07-14 23:39:24.060 STDERR [INFO] I0714 23:39:24.059836  8730 net.cpp:425] conv2/relu_3x3_reduce <- conv2/3x3_reduce
2016-07-14 23:39:24.060 STDERR [INFO] I0714 23:39:24.059846  8730 net.cpp:386] conv2/relu_3x3_reduce -> conv2/3x3_reduce (in-place)
2016-07-14 23:39:24.060 STDERR [INFO] I0714 23:39:24.059859  8726 net.cpp:141] Setting up conv2/relu_3x3_reduce
2016-07-14 23:39:24.060 STDERR [INFO] I0714 23:39:24.059875  8726 net.cpp:148] Top shape: 10 64 56 56 (2007040)
2016-07-14 23:39:24.060 STDERR [INFO] I0714 23:39:24.059880  8726 net.cpp:156] Memory required for data: 102359040
2016-07-14 23:39:24.060 STDERR [INFO] I0714 23:39:24.059885  8726 layer_factory.hpp:77] Creating layer conv2/3x3
2016-07-14 23:39:24.060 STDERR [INFO] I0714 23:39:24.059912  8726 net.cpp:91] Creating Layer conv2/3x3
2016-07-14 23:39:24.060 STDERR [INFO] I0714 23:39:24.059919  8726 net.cpp:425] conv2/3x3 <- conv2/3x3_reduce
2016-07-14 23:39:24.060 STDERR [INFO] I0714 23:39:24.059931  8726 net.cpp:399] conv2/3x3 -> conv2/3x3
2016-07-14 23:39:24.061 STDERR [INFO] I0714 23:39:24.061475  8730 net.cpp:141] Setting up conv2/relu_3x3_reduce
2016-07-14 23:39:24.061 STDERR [INFO] I0714 23:39:24.061492  8730 net.cpp:148] Top shape: 10 64 56 56 (2007040)
2016-07-14 23:39:24.061 STDERR [INFO] I0714 23:39:24.061497  8730 net.cpp:156] Memory required for data: 102359040
2016-07-14 23:39:24.061 STDERR [INFO] I0714 23:39:24.061503  8730 layer_factory.hpp:77] Creating layer conv2/3x3
2016-07-14 23:39:24.061 STDERR [INFO] I0714 23:39:24.061527  8730 net.cpp:91] Creating Layer conv2/3x3
2016-07-14 23:39:24.061 STDERR [INFO] I0714 23:39:24.061532  8730 net.cpp:425] conv2/3x3 <- conv2/3x3_reduce
2016-07-14 23:39:24.061 STDERR [INFO] I0714 23:39:24.061542  8730 net.cpp:399] conv2/3x3 -> conv2/3x3
2016-07-14 23:39:24.067 STDERR [INFO] I0714 23:39:24.067515  8726 net.cpp:141] Setting up conv2/3x3
2016-07-14 23:39:24.067 STDERR [INFO] I0714 23:39:24.067535  8726 net.cpp:148] Top shape: 10 192 56 56 (6021120)
2016-07-14 23:39:24.067 STDERR [INFO] I0714 23:39:24.067533  8730 net.cpp:141] Setting up conv2/3x3
2016-07-14 23:39:24.067 STDERR [INFO] I0714 23:39:24.067543  8726 net.cpp:156] Memory required for data: 126443520
2016-07-14 23:39:24.067 STDERR [INFO] I0714 23:39:24.067550  8730 net.cpp:148] Top shape: 10 192 56 56 (6021120)
2016-07-14 23:39:24.067 STDERR [INFO] I0714 23:39:24.067558  8730 net.cpp:156] Memory required for data: 126443520
2016-07-14 23:39:24.067 STDERR [INFO] I0714 23:39:24.067558  8726 layer_factory.hpp:77] Creating layer conv2/relu_3x3
2016-07-14 23:39:24.068 STDERR [INFO] I0714 23:39:24.067570  8730 layer_factory.hpp:77] Creating layer conv2/relu_3x3
2016-07-14 23:39:24.068 STDERR [INFO] I0714 23:39:24.067574  8726 net.cpp:91] Creating Layer conv2/relu_3x3
2016-07-14 23:39:24.068 STDERR [INFO] I0714 23:39:24.067579  8726 net.cpp:425] conv2/relu_3x3 <- conv2/3x3
2016-07-14 23:39:24.068 STDERR [INFO] I0714 23:39:24.067586  8730 net.cpp:91] Creating Layer conv2/relu_3x3
2016-07-14 23:39:24.068 STDERR [INFO] I0714 23:39:24.067586  8726 net.cpp:386] conv2/relu_3x3 -> conv2/3x3 (in-place)
2016-07-14 23:39:24.068 STDERR [INFO] I0714 23:39:24.067596  8730 net.cpp:425] conv2/relu_3x3 <- conv2/3x3
2016-07-14 23:39:24.068 STDERR [INFO] I0714 23:39:24.067607  8730 net.cpp:386] conv2/relu_3x3 -> conv2/3x3 (in-place)
2016-07-14 23:39:24.068 STDERR [INFO] I0714 23:39:24.068670  8726 net.cpp:141] Setting up conv2/relu_3x3
2016-07-14 23:39:24.068 STDERR [INFO] I0714 23:39:24.068686  8726 net.cpp:148] Top shape: 10 192 56 56 (6021120)
2016-07-14 23:39:24.068 STDERR [INFO] I0714 23:39:24.068691  8726 net.cpp:156] Memory required for data: 150528000
2016-07-14 23:39:24.068 STDERR [INFO] I0714 23:39:24.068697  8726 layer_factory.hpp:77] Creating layer conv2/norm2
2016-07-14 23:39:24.068 STDERR [INFO] I0714 23:39:24.068716  8726 net.cpp:91] Creating Layer conv2/norm2
2016-07-14 23:39:24.069 STDERR [INFO] I0714 23:39:24.068722  8726 net.cpp:425] conv2/norm2 <- conv2/3x3
2016-07-14 23:39:24.069 STDERR [INFO] I0714 23:39:24.068730  8726 net.cpp:399] conv2/norm2 -> conv2/norm2
2016-07-14 23:39:24.069 STDERR [INFO] I0714 23:39:24.068729  8730 net.cpp:141] Setting up conv2/relu_3x3
2016-07-14 23:39:24.069 STDERR [INFO] I0714 23:39:24.068745  8730 net.cpp:148] Top shape: 10 192 56 56 (6021120)
2016-07-14 23:39:24.069 STDERR [INFO] I0714 23:39:24.068750  8730 net.cpp:156] Memory required for data: 150528000
2016-07-14 23:39:24.069 STDERR [INFO] I0714 23:39:24.068755  8730 layer_factory.hpp:77] Creating layer conv2/norm2
2016-07-14 23:39:24.069 STDERR [INFO] I0714 23:39:24.068768  8730 net.cpp:91] Creating Layer conv2/norm2
2016-07-14 23:39:24.069 STDERR [INFO] I0714 23:39:24.068773  8730 net.cpp:425] conv2/norm2 <- conv2/3x3
2016-07-14 23:39:24.069 STDERR [INFO] I0714 23:39:24.068781  8730 net.cpp:399] conv2/norm2 -> conv2/norm2
2016-07-14 23:39:24.070 STDERR [INFO] I0714 23:39:24.069905  8726 net.cpp:141] Setting up conv2/norm2
2016-07-14 23:39:24.070 STDERR [INFO] I0714 23:39:24.069919  8726 net.cpp:148] Top shape: 10 192 56 56 (6021120)
2016-07-14 23:39:24.070 STDERR [INFO] I0714 23:39:24.069924  8726 net.cpp:156] Memory required for data: 174612480
2016-07-14 23:39:24.070 STDERR [INFO] I0714 23:39:24.069929  8726 layer_factory.hpp:77] Creating layer pool2/3x3_s2
2016-07-14 23:39:24.070 STDERR [INFO] I0714 23:39:24.069942  8726 net.cpp:91] Creating Layer pool2/3x3_s2
2016-07-14 23:39:24.070 STDERR [INFO] I0714 23:39:24.069948  8726 net.cpp:425] pool2/3x3_s2 <- conv2/norm2
2016-07-14 23:39:24.070 STDERR [INFO] I0714 23:39:24.069958  8726 net.cpp:399] pool2/3x3_s2 -> pool2/3x3_s2
2016-07-14 23:39:24.070 STDERR [INFO] I0714 23:39:24.069959  8730 net.cpp:141] Setting up conv2/norm2
2016-07-14 23:39:24.070 STDERR [INFO] I0714 23:39:24.069973  8730 net.cpp:148] Top shape: 10 192 56 56 (6021120)
2016-07-14 23:39:24.070 STDERR [INFO] I0714 23:39:24.069979  8730 net.cpp:156] Memory required for data: 174612480
2016-07-14 23:39:24.070 STDERR [INFO] I0714 23:39:24.069984  8730 layer_factory.hpp:77] Creating layer pool2/3x3_s2
2016-07-14 23:39:24.070 STDERR [INFO] I0714 23:39:24.069998  8730 net.cpp:91] Creating Layer pool2/3x3_s2
2016-07-14 23:39:24.070 STDERR [INFO] I0714 23:39:24.070003  8730 net.cpp:425] pool2/3x3_s2 <- conv2/norm2
2016-07-14 23:39:24.070 STDERR [INFO] I0714 23:39:24.070010  8730 net.cpp:399] pool2/3x3_s2 -> pool2/3x3_s2
2016-07-14 23:39:24.070 STDERR [INFO] I0714 23:39:24.070021  8726 net.cpp:141] Setting up pool2/3x3_s2
2016-07-14 23:39:24.070 STDERR [INFO] I0714 23:39:24.070031  8726 net.cpp:148] Top shape: 10 192 28 28 (1505280)
2016-07-14 23:39:24.070 STDERR [INFO] I0714 23:39:24.070035  8726 net.cpp:156] Memory required for data: 180633600
2016-07-14 23:39:24.070 STDERR [INFO] I0714 23:39:24.070040  8726 layer_factory.hpp:77] Creating layer pool2/3x3_s2_pool2/3x3_s2_0_split
2016-07-14 23:39:24.070 STDERR [INFO] I0714 23:39:24.070061  8726 net.cpp:91] Creating Layer pool2/3x3_s2_pool2/3x3_s2_0_split
2016-07-14 23:39:24.070 STDERR [INFO] I0714 23:39:24.070067  8726 net.cpp:425] pool2/3x3_s2_pool2/3x3_s2_0_split <- pool2/3x3_s2
2016-07-14 23:39:24.071 STDERR [INFO] I0714 23:39:24.070075  8726 net.cpp:399] pool2/3x3_s2_pool2/3x3_s2_0_split -> pool2/3x3_s2_pool2/3x3_s2_0_split_0
2016-07-14 23:39:24.071 STDERR [INFO] I0714 23:39:24.070075  8730 net.cpp:141] Setting up pool2/3x3_s2
2016-07-14 23:39:24.071 STDERR [INFO] I0714 23:39:24.070083  8726 net.cpp:399] pool2/3x3_s2_pool2/3x3_s2_0_split -> pool2/3x3_s2_pool2/3x3_s2_0_split_1
2016-07-14 23:39:24.071 STDERR [INFO] I0714 23:39:24.070085  8730 net.cpp:148] Top shape: 10 192 28 28 (1505280)
2016-07-14 23:39:24.071 STDERR [INFO] I0714 23:39:24.070091  8730 net.cpp:156] Memory required for data: 180633600
2016-07-14 23:39:24.071 STDERR [INFO] I0714 23:39:24.070093  8726 net.cpp:399] pool2/3x3_s2_pool2/3x3_s2_0_split -> pool2/3x3_s2_pool2/3x3_s2_0_split_2
2016-07-14 23:39:24.071 STDERR [INFO] I0714 23:39:24.070096  8730 layer_factory.hpp:77] Creating layer pool2/3x3_s2_pool2/3x3_s2_0_split
…
2016-07-14 23:39:24.071 STDERR [INFO] I0714 23:39:24.070132  8730 net.cpp:399] pool2/3x3_s2_pool2/3x3_s2_0_split -> pool2/3x3_s2_pool2/3x3_s2_0_split_1
2016-07-14 23:39:24.071 STDERR [INFO] I0714 23:39:24.070140  8730 net.cpp:399] pool2/3x3_s2_pool2/3x3_s2_0_split -> pool2/3x3_s2_pool2/3x3_s2_0_split_2
2016-07-14 23:39:24.071 STDERR [INFO] I0714 23:39:24.070148  8730 net.cpp:399] pool2/3x3_s2_pool2/3x3_s2_0_split -> pool2/3x3_s2_pool2/3x3_s2_0_split_3
2016-07-14 23:39:24.071 STDERR [INFO] I0714 23:39:24.070196  8726 net.cpp:141] Setting up pool2/3x3_s2_pool2/3x3_s2_0_split
2016-07-14 23:39:24.071 STDERR [INFO] I0714 23:39:24.070207  8726 net.cpp:148] Top shape: 10 192 28 28 (1505280)
2016-07-14 23:39:24.071 STDERR [INFO] I0714 23:39:24.070214  8726 net.cpp:148] Top shape: 10 192 28 28 (1505280)
2016-07-14 23:39:24.072 STDERR [INFO] I0714 23:39:24.070220  8726 net.cpp:148] Top shape: 10 192 28 28 (1505280)
2016-07-14 23:39:24.073 STDERR [INFO] I0714 23:39:24.070225  8726 net.cpp:148] Top shape: 10 192 28 28 (1505280)
2016-07-14 23:39:24.073 STDERR [INFO] I0714 23:39:24.070230  8726 net.cpp:156] Memory required for data: 204718080
2016-07-14 23:39:24.073 STDERR [INFO] I0714 23:39:24.070235  8726 layer_factory.hpp:77] Creating layer inception_3a/1x1
2016-07-14 23:39:24.073 STDERR [INFO] I0714 23:39:24.070252  8726 net.cpp:91] Creating Layer inception_3a/1x1
2016-07-14 23:39:24.073 STDERR [INFO] I0714 23:39:24.070258  8726 net.cpp:425] inception_3a/1x1 <- pool2/3x3_s2_pool2/3x3_s2_0_split_0
2016-07-14 23:39:24.073 STDERR [INFO] I0714 23:39:24.070276  8730 net.cpp:141] Setting up pool2/3x3_s2_pool2/3x3_s2_0_split
2016-07-14 23:39:24.073 STDERR [INFO] I0714 23:39:24.070288  8726 net.cpp:399] inception_3a/1x1 -> inception_3a/1x1
2016-07-14 23:39:24.073 STDERR [INFO] I0714 23:39:24.070291  8730 net.cpp:148] Top shape: 10 192 28 28 (1505280)
2016-07-14 23:39:24.073 STDERR [INFO] I0714 23:39:24.070298  8730 net.cpp:148] Top shape: 10 192 28 28 (1505280)
2016-07-14 23:39:24.073 STDERR [INFO] I0714 23:39:24.070304  8730 net.cpp:148] Top shape: 10 192 28 28 (1505280)
2016-07-14 23:39:24.073 STDERR [INFO] I0714 23:39:24.070309  8730 net.cpp:148] Top shape: 10 192 28 28 (1505280)
2016-07-14 23:39:24.073 STDERR [INFO] I0714 23:39:24.070314  8730 net.cpp:156] Memory required for data: 204718080
2016-07-14 23:39:24.073 STDERR [INFO] I0714 23:39:24.070319  8730 layer_factory.hpp:77] Creating layer inception_3a/1x1
2016-07-14 23:39:24.073 STDERR [INFO] I0714 23:39:24.070335  8730 net.cpp:91] Creating Layer inception_3a/1x1
2016-07-14 23:39:24.073 STDERR [INFO] I0714 23:39:24.070341  8730 net.cpp:425] inception_3a/1x1 <- pool2/3x3_s2_pool2/3x3_s2_0_split_0
2016-07-14 23:39:24.073 STDERR [INFO] I0714 23:39:24.070350  8730 net.cpp:399] inception_3a/1x1 -> inception_3a/1x1
2016-07-14 23:39:24.077 STDERR [INFO] I0714 23:39:24.077122  8730 net.cpp:141] Setting up inception_3a/1x1
2016-07-14 23:39:24.077 STDERR [INFO] I0714 23:39:24.077145  8730 net.cpp:148] Top shape: 10 64 28 28 (501760)
2016-07-14 23:39:24.077 STDERR [INFO] I0714 23:39:24.077142  8726 net.cpp:141] Setting up inception_3a/1x1
2016-07-14 23:39:24.077 STDERR [INFO] I0714 23:39:24.077154  8730 net.cpp:156] Memory required for data: 206725120
2016-07-14 23:39:24.077 STDERR [INFO] I0714 23:39:24.077167  8726 net.cpp:148] Top shape: 10 64 28 28 (501760)
2016-07-14 23:39:24.077 STDERR [INFO] I0714 23:39:24.077173  8726 net.cpp:156] Memory required for data: 206725120
2016-07-14 23:39:24.077 STDERR [INFO] I0714 23:39:24.077174  8730 layer_factory.hpp:77] Creating layer inception_3a/relu_1x1
2016-07-14 23:39:24.077 STDERR [INFO] I0714 23:39:24.077184  8726 layer_factory.hpp:77] Creating layer inception_3a/relu_1x1
2016-07-14 23:39:24.077 STDERR [INFO] I0714 23:39:24.077184  8730 net.cpp:91] Creating Layer inception_3a/relu_1x1
2016-07-14 23:39:24.077 STDERR [INFO] I0714 23:39:24.077196  8726 net.cpp:91] Creating Layer inception_3a/relu_1x1
2016-07-14 23:39:24.077 STDERR [INFO] I0714 23:39:24.077198  8730 net.cpp:425] inception_3a/relu_1x1 <- inception_3a/1x1
2016-07-14 23:39:24.077 STDERR [INFO] I0714 23:39:24.077203  8726 net.cpp:425] inception_3a/relu_1x1 <- inception_3a/1x1
2016-07-14 23:39:24.077 STDERR [INFO] I0714 23:39:24.077208  8730 net.cpp:386] inception_3a/relu_1x1 -> inception_3a/1x1 (in-place)
2016-07-14 23:39:24.077 STDERR [INFO] I0714 23:39:24.077216  8726 net.cpp:386] inception_3a/relu_1x1 -> inception_3a/1x1 (in-place)
2016-07-14 23:39:24.078 STDERR [INFO] I0714 23:39:24.078327  8730 net.cpp:141] Setting up inception_3a/relu_1x1
2016-07-14 23:39:24.078 STDERR [INFO] I0714 23:39:24.078344  8730 net.cpp:148] Top shape: 10 64 28 28 (501760)
2016-07-14 23:39:24.078 STDERR [INFO] I0714 23:39:24.078342  8726 net.cpp:141] Setting up inception_3a/relu_1x1
2016-07-14 23:39:24.078 STDERR [INFO] I0714 23:39:24.078351  8730 net.cpp:156] Memory required for data: 208732160
2016-07-14 23:39:24.078 STDERR [INFO] I0714 23:39:24.078356  8730 layer_factory.hpp:77] Creating layer inception_3a/3x3_reduce
2016-07-14 23:39:24.078 STDERR [INFO] I0714 23:39:24.078356  8726 net.cpp:148] Top shape: 10 64 28 28 (501760)
2016-07-14 23:39:24.078 STDERR [INFO] I0714 23:39:24.078363  8726 net.cpp:156] Memory required for data: 208732160
2016-07-14 23:39:24.078 STDERR [INFO] I0714 23:39:24.078369  8726 layer_factory.hpp:77] Creating layer inception_3a/3x3_reduce
2016-07-14 23:39:24.078 STDERR [INFO] I0714 23:39:24.078374  8730 net.cpp:91] Creating Layer inception_3a/3x3_reduce
2016-07-14 23:39:24.079 STDERR [INFO] I0714 23:39:24.078382  8730 net.cpp:425] inception_3a/3x3_reduce <- pool2/3x3_s2_pool2/3x3_s2_0_split_1
2016-07-14 23:39:24.079 STDERR [INFO] I0714 23:39:24.078383  8726 net.cpp:91] Creating Layer inception_3a/3x3_reduce
2016-07-14 23:39:24.079 STDERR [INFO] I0714 23:39:24.078389  8726 net.cpp:425] inception_3a/3x3_reduce <- pool2/3x3_s2_pool2/3x3_s2_0_split_1
2016-07-14 23:39:24.079 STDERR [INFO] I0714 23:39:24.078393  8730 net.cpp:399] inception_3a/3x3_reduce -> inception_3a/3x3_reduce
2016-07-14 23:39:24.079 STDERR [INFO] I0714 23:39:24.078403  8726 net.cpp:399] inception_3a/3x3_reduce -> inception_3a/3x3_reduce
2016-07-14 23:39:24.084 STDERR [INFO] I0714 23:39:24.084373  8730 net.cpp:141] Setting up inception_3a/3x3_reduce
2016-07-14 23:39:24.084 STDERR [INFO] I0714 23:39:24.084395  8730 net.cpp:148] Top shape: 10 96 28 28 (752640)
2016-07-14 23:39:24.084 STDERR [INFO] I0714 23:39:24.084400  8730 net.cpp:156] Memory required for data: 211742720
2016-07-14 23:39:24.084 STDERR [INFO] I0714 23:39:24.084419  8730 layer_factory.hpp:77] Creating layer inception_3a/relu_3x3_reduce
2016-07-14 23:39:24.084 STDERR [INFO] I0714 23:39:24.084429  8730 net.cpp:91] Creating Layer inception_3a/relu_3x3_reduce
2016-07-14 23:39:24.084 STDERR [INFO] I0714 23:39:24.084435  8730 net.cpp:425] inception_3a/relu_3x3_reduce <- inception_3a/3x3_reduce
2016-07-14 23:39:24.084 STDERR [INFO] I0714 23:39:24.084445  8730 net.cpp:386] inception_3a/relu_3x3_reduce -> inception_3a/3x3_reduce (in-place)
2016-07-14 23:39:24.085 STDERR [INFO] I0714 23:39:24.085243  8726 net.cpp:141] Setting up inception_3a/3x3_reduce
2016-07-14 23:39:24.085 STDERR [INFO] I0714 23:39:24.085261  8726 net.cpp:148] Top shape: 10 96 28 28 (752640)
2016-07-14 23:39:24.085 STDERR [INFO] I0714 23:39:24.085266  8726 net.cpp:156] Memory required for data: 211742720
2016-07-14 23:39:24.085 STDERR [INFO] I0714 23:39:24.085280  8726 layer_factory.hpp:77] Creating layer inception_3a/relu_3x3_reduce
2016-07-14 23:39:24.085 STDERR [INFO] I0714 23:39:24.085292  8726 net.cpp:91] Creating Layer inception_3a/relu_3x3_reduce
2016-07-14 23:39:24.085 STDERR [INFO] I0714 23:39:24.085299  8726 net.cpp:425] inception_3a/relu_3x3_reduce <- inception_3a/3x3_reduce
2016-07-14 23:39:24.085 STDERR [INFO] I0714 23:39:24.085305  8726 net.cpp:386] inception_3a/relu_3x3_reduce -> inception_3a/3x3_reduce (in-place)
2016-07-14 23:39:24.085 STDERR [INFO] I0714 23:39:24.085578  8730 net.cpp:141] Setting up inception_3a/relu_3x3_reduce
2016-07-14 23:39:24.085 STDERR [INFO] I0714 23:39:24.085592  8730 net.cpp:148] Top shape: 10 96 28 28 (752640)
2016-07-14 23:39:24.085 STDERR [INFO] I0714 23:39:24.085598  8730 net.cpp:156] Memory required for data: 214753280
2016-07-14 23:39:24.085 STDERR [INFO] I0714 23:39:24.085603  8730 layer_factory.hpp:77] Creating layer inception_3a/3x3
2016-07-14 23:39:24.085 STDERR [INFO] I0714 23:39:24.085630  8730 net.cpp:91] Creating Layer inception_3a/3x3
2016-07-14 23:39:24.085 STDERR [INFO] I0714 23:39:24.085633  8726 net.cpp:141] Setting up inception_3a/relu_3x3_reduce
2016-07-14 23:39:24.085 STDERR [INFO] I0714 23:39:24.085638  8730 net.cpp:425] inception_3a/3x3 <- inception_3a/3x3_reduce
2016-07-14 23:39:24.086 STDERR [INFO] I0714 23:39:24.085649  8726 net.cpp:148] Top shape: 10 96 28 28 (752640)
2016-07-14 23:39:24.086 STDERR [INFO] I0714 23:39:24.085654  8726 net.cpp:156] Memory required for data: 214753280
2016-07-14 23:39:24.086 STDERR [INFO] I0714 23:39:24.085659  8730 net.cpp:399] inception_3a/3x3 -> inception_3a/3x3
2016-07-14 23:39:24.086 STDERR [INFO] I0714 23:39:24.085659  8726 layer_factory.hpp:77] Creating layer inception_3a/3x3
2016-07-14 23:39:24.086 STDERR [INFO] I0714 23:39:24.085690  8726 net.cpp:91] Creating Layer inception_3a/3x3
2016-07-14 23:39:24.086 STDERR [INFO] I0714 23:39:24.085696  8726 net.cpp:425] inception_3a/3x3 <- inception_3a/3x3_reduce
2016-07-14 23:39:24.086 STDERR [INFO] I0714 23:39:24.085710  8726 net.cpp:399] inception_3a/3x3 -> inception_3a/3x3
2016-07-14 23:39:24.092 STDERR [INFO] I0714 23:39:24.092378  8730 net.cpp:141] Setting up inception_3a/3x3
2016-07-14 23:39:24.092 STDERR [INFO] I0714 23:39:24.092398  8730 net.cpp:148] Top shape: 10 128 28 28 (1003520)
2016-07-14 23:39:24.092 STDERR [INFO] I0714 23:39:24.092404  8730 net.cpp:156] Memory required for data: 218767360
2016-07-14 23:39:24.092 STDERR [INFO] I0714 23:39:24.092414  8730 layer_factory.hpp:77] Creating layer inception_3a/relu_3x3
2016-07-14 23:39:24.092 STDERR [INFO] I0714 23:39:24.092428  8730 net.cpp:91] Creating Layer inception_3a/relu_3x3
2016-07-14 23:39:24.092 STDERR [INFO] I0714 23:39:24.092435  8730 net.cpp:425] inception_3a/relu_3x3 <- inception_3a/3x3
2016-07-14 23:39:24.092 STDERR [INFO] I0714 23:39:24.092443  8730 net.cpp:386] inception_3a/relu_3x3 -> inception_3a/3x3 (in-place)
2016-07-14 23:39:24.092 STDERR [INFO] I0714 23:39:24.092690  8726 net.cpp:141] Setting up inception_3a/3x3
2016-07-14 23:39:24.092 STDERR [INFO] I0714 23:39:24.092708  8726 net.cpp:148] Top shape: 10 128 28 28 (1003520)
2016-07-14 23:39:24.092 STDERR [INFO] I0714 23:39:24.092715  8726 net.cpp:156] Memory required for data: 218767360
2016-07-14 23:39:24.092 STDERR [INFO] I0714 23:39:24.092725  8726 layer_factory.hpp:77] Creating layer inception_3a/relu_3x3
2016-07-14 23:39:24.093 STDERR [INFO] I0714 23:39:24.092733  8726 net.cpp:91] Creating Layer inception_3a/relu_3x3
2016-07-14 23:39:24.093 STDERR [INFO] I0714 23:39:24.092739  8726 net.cpp:425] inception_3a/relu_3x3 <- inception_3a/3x3
2016-07-14 23:39:24.093 STDERR [INFO] I0714 23:39:24.092746  8726 net.cpp:386] inception_3a/relu_3x3 -> inception_3a/3x3 (in-place)
2016-07-14 23:39:24.093 STDERR [INFO] I0714 23:39:24.093497  8730 net.cpp:141] Setting up inception_3a/relu_3x3
2016-07-14 23:39:24.093 STDERR [INFO] I0714 23:39:24.093513  8730 net.cpp:148] Top shape: 10 128 28 28 (1003520)
2016-07-14 23:39:24.093 STDERR [INFO] I0714 23:39:24.093518  8730 net.cpp:156] Memory required for data: 222781440
2016-07-14 23:39:24.093 STDERR [INFO] I0714 23:39:24.093523  8730 layer_factory.hpp:77] Creating layer inception_3a/5x5_reduce
2016-07-14 23:39:24.093 STDERR [INFO] I0714 23:39:24.093541  8730 net.cpp:91] Creating Layer inception_3a/5x5_reduce
2016-07-14 23:39:24.093 STDERR [INFO] I0714 23:39:24.093549  8730 net.cpp:425] inception_3a/5x5_reduce <- pool2/3x3_s2_pool2/3x3_s2_0_split_2
2016-07-14 23:39:24.093 STDERR [INFO] I0714 23:39:24.093564  8730 net.cpp:399] inception_3a/5x5_reduce -> inception_3a/5x5_reduce
2016-07-14 23:39:24.093 STDERR [INFO] I0714 23:39:24.093581  8726 net.cpp:141] Setting up inception_3a/relu_3x3
2016-07-14 23:39:24.093 STDERR [INFO] I0714 23:39:24.093596  8726 net.cpp:148] Top shape: 10 128 28 28 (1003520)
2016-07-14 23:39:24.094 STDERR [INFO] I0714 23:39:24.093601  8726 net.cpp:156] Memory required for data: 222781440
2016-07-14 23:39:24.094 STDERR [INFO] I0714 23:39:24.093606  8726 layer_factory.hpp:77] Creating layer inception_3a/5x5_reduce
2016-07-14 23:39:24.094 STDERR [INFO] I0714 23:39:24.093624  8726 net.cpp:91] Creating Layer inception_3a/5x5_reduce
2016-07-14 23:39:24.094 STDERR [INFO] I0714 23:39:24.093631  8726 net.cpp:425] inception_3a/5x5_reduce <- pool2/3x3_s2_pool2/3x3_s2_0_split_2
2016-07-14 23:39:24.094 STDERR [INFO] I0714 23:39:24.093641  8726 net.cpp:399] inception_3a/5x5_reduce -> inception_3a/5x5_reduce
2016-07-14 23:39:24.098 STDERR [INFO] I0714 23:39:24.097942  8730 net.cpp:141] Setting up inception_3a/5x5_reduce
2016-07-14 23:39:24.098 STDERR [INFO] I0714 23:39:24.097961  8730 net.cpp:148] Top shape: 10 16 28 28 (125440)
2016-07-14 23:39:24.098 STDERR [INFO] I0714 23:39:24.097967  8730 net.cpp:156] Memory required for data: 223283200
2016-07-14 23:39:24.098 STDERR [INFO] I0714 23:39:24.097977  8730 layer_factory.hpp:77] Creating layer inception_3a/relu_5x5_reduce
2016-07-14 23:39:24.098 STDERR [INFO] I0714 23:39:24.097986  8730 net.cpp:91] Creating Layer inception_3a/relu_5x5_reduce
2016-07-14 23:39:24.098 STDERR [INFO] I0714 23:39:24.097992  8730 net.cpp:425] inception_3a/relu_5x5_reduce <- inception_3a/5x5_reduce
2016-07-14 23:39:24.098 STDERR [INFO] I0714 23:39:24.098003  8730 net.cpp:386] inception_3a/relu_5x5_reduce -> inception_3a/5x5_reduce (in-place)
2016-07-14 23:39:24.098 STDERR [INFO] I0714 23:39:24.098693  8726 net.cpp:141] Setting up inception_3a/5x5_reduce
2016-07-14 23:39:24.098 STDERR [INFO] I0714 23:39:24.098713  8726 net.cpp:148] Top shape: 10 16 28 28 (125440)
2016-07-14 23:39:24.098 STDERR [INFO] I0714 23:39:24.098719  8726 net.cpp:156] Memory required for data: 223283200
2016-07-14 23:39:24.098 STDERR [INFO] I0714 23:39:24.098729  8726 layer_factory.hpp:77] Creating layer inception_3a/relu_5x5_reduce
2016-07-14 23:39:24.098 STDERR [INFO] I0714 23:39:24.098738  8726 net.cpp:91] Creating Layer inception_3a/relu_5x5_reduce
2016-07-14 23:39:24.099 STDERR [INFO] I0714 23:39:24.098744  8726 net.cpp:425] inception_3a/relu_5x5_reduce <- inception_3a/5x5_reduce
2016-07-14 23:39:24.099 STDERR [INFO] I0714 23:39:24.098752  8726 net.cpp:386] inception_3a/relu_5x5_reduce -> inception_3a/5x5_reduce (in-place)
2016-07-14 23:39:24.099 STDERR [INFO] I0714 23:39:24.099230  8730 net.cpp:141] Setting up inception_3a/relu_5x5_reduce
2016-07-14 23:39:24.099 STDERR [INFO] I0714 23:39:24.099233  8726 net.cpp:141] Setting up inception_3a/relu_5x5_reduce
2016-07-14 23:39:24.099 STDERR [INFO] I0714 23:39:24.099248  8730 net.cpp:148] Top shape: 10 16 28 28 (125440)
2016-07-14 23:39:24.099 STDERR [INFO] I0714 23:39:24.099254  8730 net.cpp:156] Memory required for data: 223784960
2016-07-14 23:39:24.099 STDERR [INFO] I0714 23:39:24.099252  8726 net.cpp:148] Top shape: 10 16 28 28 (125440)
2016-07-14 23:39:24.099 STDERR [INFO] I0714 23:39:24.099259  8730 layer_factory.hpp:77] Creating layer inception_3a/5x5
2016-07-14 23:39:24.099 STDERR [INFO] I0714 23:39:24.099262  8726 net.cpp:156] Memory required for data: 223784960
2016-07-14 23:39:24.099 STDERR [INFO] I0714 23:39:24.099268  8726 layer_factory.hpp:77] Creating layer inception_3a/5x5
2016-07-14 23:39:24.099 STDERR [INFO] I0714 23:39:24.099277  8730 net.cpp:91] Creating Layer inception_3a/5x5
2016-07-14 23:39:24.099 STDERR [INFO] I0714 23:39:24.099282  8726 net.cpp:91] Creating Layer inception_3a/5x5
2016-07-14 23:39:24.099 STDERR [INFO] I0714 23:39:24.099284  8730 net.cpp:425] inception_3a/5x5 <- inception_3a/5x5_reduce
2016-07-14 23:39:24.099 STDERR [INFO] I0714 23:39:24.099293  8726 net.cpp:425] inception_3a/5x5 <- inception_3a/5x5_reduce
2016-07-14 23:39:24.099 STDERR [INFO] I0714 23:39:24.099308  8730 net.cpp:399] inception_3a/5x5 -> inception_3a/5x5
2016-07-14 23:39:24.099 STDERR [INFO] I0714 23:39:24.099313  8726 net.cpp:399] inception_3a/5x5 -> inception_3a/5x5
2016-07-14 23:39:24.105 STDERR [INFO] I0714 23:39:24.105761  8730 net.cpp:141] Setting up inception_3a/5x5
2016-07-14 23:39:24.105 STDERR [INFO] I0714 23:39:24.105782  8730 net.cpp:148] Top shape: 10 32 28 28 (250880)
2016-07-14 23:39:24.106 STDERR [INFO] I0714 23:39:24.105787  8730 net.cpp:156] Memory required for data: 224788480
2016-07-14 23:39:24.106 STDERR [INFO] I0714 23:39:24.105800  8730 layer_factory.hpp:77] Creating layer inception_3a/relu_5x5
2016-07-14 23:39:24.106 STDERR [INFO] I0714 23:39:24.105810  8730 net.cpp:91] Creating Layer inception_3a/relu_5x5
2016-07-14 23:39:24.106 STDERR [INFO] I0714 23:39:24.105816  8730 net.cpp:425] inception_3a/relu_5x5 <- inception_3a/5x5
2016-07-14 23:39:24.106 STDERR [INFO] I0714 23:39:24.105824  8730 net.cpp:386] inception_3a/relu_5x5 -> inception_3a/5x5 (in-place)
2016-07-14 23:39:24.106 STDERR [INFO] I0714 23:39:24.106403  8726 net.cpp:141] Setting up inception_3a/5x5
2016-07-14 23:39:24.106 STDERR [INFO] I0714 23:39:24.106426  8726 net.cpp:148] Top shape: 10 32 28 28 (250880)
2016-07-14 23:39:24.106 STDERR [INFO] I0714 23:39:24.106431  8726 net.cpp:156] Memory required for data: 224788480
2016-07-14 23:39:24.106 STDERR [INFO] I0714 23:39:24.106441  8726 layer_factory.hpp:77] Creating layer inception_3a/relu_5x5
2016-07-14 23:39:24.106 STDERR [INFO] I0714 23:39:24.106451  8726 net.cpp:91] Creating Layer inception_3a/relu_5x5
2016-07-14 23:39:24.106 STDERR [INFO] I0714 23:39:24.106457  8726 net.cpp:425] inception_3a/relu_5x5 <- inception_3a/5x5
2016-07-14 23:39:24.106 STDERR [INFO] I0714 23:39:24.106464  8726 net.cpp:386] inception_3a/relu_5x5 -> inception_3a/5x5 (in-place)
2016-07-14 23:39:24.107 STDERR [INFO] I0714 23:39:24.107539  8730 net.cpp:141] Setting up inception_3a/relu_5x5
2016-07-14 23:39:24.107 STDERR [INFO] I0714 23:39:24.107558  8730 net.cpp:148] Top shape: 10 32 28 28 (250880)
2016-07-14 23:39:24.107 STDERR [INFO] I0714 23:39:24.107563  8730 net.cpp:156] Memory required for data: 225792000
2016-07-14 23:39:24.107 STDERR [INFO] I0714 23:39:24.107564  8726 net.cpp:141] Setting up inception_3a/relu_5x5
2016-07-14 23:39:24.107 STDERR [INFO] I0714 23:39:24.107568  8730 layer_factory.hpp:77] Creating layer inception_3a/pool
2016-07-14 23:39:24.107 STDERR [INFO] I0714 23:39:24.107581  8726 net.cpp:148] Top shape: 10 32 28 28 (250880)
2016-07-14 23:39:24.107 STDERR [INFO] I0714 23:39:24.107586  8726 net.cpp:156] Memory required for data: 225792000
2016-07-14 23:39:24.107 STDERR [INFO] I0714 23:39:24.107591  8730 net.cpp:91] Creating Layer inception_3a/pool
2016-07-14 23:39:24.108 STDERR [INFO] I0714 23:39:24.107591  8726 layer_factory.hpp:77] Creating layer inception_3a/pool
2016-07-14 23:39:24.108 STDERR [INFO] I0714 23:39:24.107601  8730 net.cpp:425] inception_3a/pool <- pool2/3x3_s2_pool2/3x3_s2_0_split_3
2016-07-14 23:39:24.108 STDERR [INFO] I0714 23:39:24.107612  8726 net.cpp:91] Creating Layer inception_3a/pool
2016-07-14 23:39:24.108 STDERR [INFO] I0714 23:39:24.107614  8730 net.cpp:399] inception_3a/pool -> inception_3a/pool
2016-07-14 23:39:24.108 STDERR [INFO] I0714 23:39:24.107621  8726 net.cpp:425] inception_3a/pool <- pool2/3x3_s2_pool2/3x3_s2_0_split_3
2016-07-14 23:39:24.108 STDERR [INFO] I0714 23:39:24.107630  8726 net.cpp:399] inception_3a/pool -> inception_3a/pool
2016-07-14 23:39:24.108 STDERR [INFO] I0714 23:39:24.107743  8730 net.cpp:141] Setting up inception_3a/pool
2016-07-14 23:39:24.108 STDERR [INFO] I0714 23:39:24.107755  8730 net.cpp:148] Top shape: 10 192 28 28 (1505280)
2016-07-14 23:39:24.108 STDERR [INFO] I0714 23:39:24.107760  8730 net.cpp:156] Memory required for data: 231813120
2016-07-14 23:39:24.108 STDERR [INFO] I0714 23:39:24.107765  8730 layer_factory.hpp:77] Creating layer inception_3a/pool_proj
2016-07-14 23:39:24.108 STDERR [INFO] I0714 23:39:24.107772  8726 net.cpp:141] Setting up inception_3a/pool
2016-07-14 23:39:24.108 STDERR [INFO] I0714 23:39:24.107781  8730 net.cpp:91] Creating Layer inception_3a/pool_proj
2016-07-14 23:39:24.108 STDERR [INFO] I0714 23:39:24.107784  8726 net.cpp:148] Top shape: 10 192 28 28 (1505280)
2016-07-14 23:39:24.108 STDERR [INFO] I0714 23:39:24.107787  8730 net.cpp:425] inception_3a/pool_proj <- inception_3a/pool
2016-07-14 23:39:24.108 STDERR [INFO] I0714 23:39:24.107789  8726 net.cpp:156] Memory required for data: 231813120
2016-07-14 23:39:24.108 STDERR [INFO] I0714 23:39:24.107795  8726 layer_factory.hpp:77] Creating layer inception_3a/pool_proj
2016-07-14 23:39:24.108 STDERR [INFO] I0714 23:39:24.107800  8730 net.cpp:399] inception_3a/pool_proj -> inception_3a/pool_proj
2016-07-14 23:39:24.108 STDERR [INFO] I0714 23:39:24.107811  8726 net.cpp:91] Creating Layer inception_3a/pool_proj
2016-07-14 23:39:24.108 STDERR [INFO] I0714 23:39:24.107817  8726 net.cpp:425] inception_3a/pool_proj <- inception_3a/pool
2016-07-14 23:39:24.108 STDERR [INFO] I0714 23:39:24.107830  8726 net.cpp:399] inception_3a/pool_proj -> inception_3a/pool_proj
2016-07-14 23:39:24.112 STDERR [INFO] I0714 23:39:24.112813  8726 net.cpp:141] Setting up inception_3a/pool_proj
2016-07-14 23:39:24.113 STDERR [INFO] I0714 23:39:24.112831  8726 net.cpp:148] Top shape: 10 32 28 28 (250880)
2016-07-14 23:39:24.113 STDERR [INFO] I0714 23:39:24.112838  8726 net.cpp:156] Memory required for data: 232816640
2016-07-14 23:39:24.113 STDERR [INFO] I0714 23:39:24.112851  8726 layer_factory.hpp:77] Creating layer inception_3a/relu_pool_proj
2016-07-14 23:39:24.113 STDERR [INFO] I0714 23:39:24.112865  8726 net.cpp:91] Creating Layer inception_3a/relu_pool_proj
2016-07-14 23:39:24.113 STDERR [INFO] I0714 23:39:24.112871  8726 net.cpp:425] inception_3a/relu_pool_proj <- inception_3a/pool_proj
2016-07-14 23:39:24.113 STDERR [INFO] I0714 23:39:24.112879  8726 net.cpp:386] inception_3a/relu_pool_proj -> inception_3a/pool_proj (in-place)
2016-07-14 23:39:24.113 STDERR [INFO] I0714 23:39:24.113183  8730 net.cpp:141] Setting up inception_3a/pool_proj
2016-07-14 23:39:24.113 STDERR [INFO] I0714 23:39:24.113198  8730 net.cpp:148] Top shape: 10 32 28 28 (250880)
2016-07-14 23:39:24.113 STDERR [INFO] I0714 23:39:24.113204  8730 net.cpp:156] Memory required for data: 232816640
2016-07-14 23:39:24.113 STDERR [INFO] I0714 23:39:24.113221  8730 layer_factory.hpp:77] Creating layer inception_3a/relu_pool_proj
2016-07-14 23:39:24.113 STDERR [INFO] I0714 23:39:24.113231  8730 net.cpp:91] Creating Layer inception_3a/relu_pool_proj
2016-07-14 23:39:24.113 STDERR [INFO] I0714 23:39:24.113237  8730 net.cpp:425] inception_3a/relu_pool_proj <- inception_3a/pool_proj
2016-07-14 23:39:24.113 STDERR [INFO] I0714 23:39:24.113247  8730 net.cpp:386] inception_3a/relu_pool_proj -> inception_3a/pool_proj (in-place)
2016-07-14 23:39:24.113 STDERR [INFO] I0714 23:39:24.113245  8726 net.cpp:141] Setting up inception_3a/relu_pool_proj
2016-07-14 23:39:24.113 STDERR [INFO] I0714 23:39:24.113265  8726 net.cpp:148] Top shape: 10 32 28 28 (250880)
2016-07-14 23:39:24.113 STDERR [INFO] I0714 23:39:24.113270  8726 net.cpp:156] Memory required for data: 233820160
2016-07-14 23:39:24.113 STDERR [INFO] I0714 23:39:24.113276  8726 layer_factory.hpp:77] Creating layer inception_3a/output
2016-07-14 23:39:24.113 STDERR [INFO] I0714 23:39:24.113294  8726 net.cpp:91] Creating Layer inception_3a/output
2016-07-14 23:39:24.113 STDERR [INFO] I0714 23:39:24.113301  8726 net.cpp:425] inception_3a/output <- inception_3a/1x1
2016-07-14 23:39:24.113 STDERR [INFO] I0714 23:39:24.113307  8726 net.cpp:425] inception_3a/output <- inception_3a/3x3
2016-07-14 23:39:24.113 STDERR [INFO] I0714 23:39:24.113313  8726 net.cpp:425] inception_3a/output <- inception_3a/5x5
2016-07-14 23:39:24.113 STDERR [INFO] I0714 23:39:24.113318  8726 net.cpp:425] inception_3a/output <- inception_3a/pool_proj
2016-07-14 23:39:24.114 STDERR [INFO] I0714 23:39:24.113330  8726 net.cpp:399] inception_3a/output -> inception_3a/output
2016-07-14 23:39:24.114 STDERR [INFO] I0714 23:39:24.114012  8726 net.cpp:141] Setting up inception_3a/output
2016-07-14 23:39:24.114 STDERR [INFO] I0714 23:39:24.114024  8726 net.cpp:148] Top shape: 10 256 28 28 (2007040)
2016-07-14 23:39:24.114 STDERR [INFO] I0714 23:39:24.114029  8726 net.cpp:156] Memory required for data: 241848320
2016-07-14 23:39:24.114 STDERR [INFO] I0714 23:39:24.114034  8726 layer_factory.hpp:77] Creating layer inception_3a/output_inception_3a/output_0_split
2016-07-14 23:39:24.114 STDERR [INFO] I0714 23:39:24.114044  8726 net.cpp:91] Creating Layer inception_3a/output_inception_3a/output_0_split
2016-07-14 23:39:24.114 STDERR [INFO] I0714 23:39:24.114049  8726 net.cpp:425] inception_3a/output_inception_3a/output_0_split <- inception_3a/output
2016-07-14 23:39:24.114 STDERR [INFO] I0714 23:39:24.114056  8726 net.cpp:399] inception_3a/output_inception_3a/output_0_split -> inception_3a/output_inception_3a/output_0_split_0
2016-07-14 23:39:24.114 STDERR [INFO] I0714 23:39:24.114068  8726 net.cpp:399] inception_3a/output_inception_3a/output_0_split -> inception_3a/output_inception_3a/output_0_split_1
2016-07-14 23:39:24.114 STDERR [INFO] I0714 23:39:24.114079  8726 net.cpp:399] inception_3a/output_inception_3a/output_0_split -> inception_3a/output_inception_3a/output_0_split_2
2016-07-14 23:39:24.114 STDERR [INFO] I0714 23:39:24.114087  8726 net.cpp:399] inception_3a/output_inception_3a/output_0_split -> inception_3a/output_inception_3a/output_0_split_3
2016-07-14 23:39:24.114 STDERR [INFO] I0714 23:39:24.114146  8730 net.cpp:141] Setting up inception_3a/relu_pool_proj
2016-07-14 23:39:24.114 STDERR [INFO] I0714 23:39:24.114161  8730 net.cpp:148] Top shape: 10 32 28 28 (250880)
2016-07-14 23:39:24.114 STDERR [INFO] I0714 23:39:24.114166  8730 net.cpp:156] Memory required for data: 233820160
2016-07-14 23:39:24.114 STDERR [INFO] I0714 23:39:24.114171  8730 layer_factory.hpp:77] Creating layer inception_3a/output
2016-07-14 23:39:24.114 STDERR [INFO] I0714 23:39:24.114181  8730 net.cpp:91] Creating Layer inception_3a/output
2016-07-14 23:39:24.114 STDERR [INFO] I0714 23:39:24.114187  8730 net.cpp:425] inception_3a/output <- inception_3a/1x1
2016-07-14 23:39:24.114 STDERR [INFO] I0714 23:39:24.114190  8726 net.cpp:141] Setting up inception_3a/output_inception_3a/output_0_split
2016-07-14 23:39:24.114 STDERR [INFO] I0714 23:39:24.114192  8730 net.cpp:425] inception_3a/output <- inception_3a/3x3
2016-07-14 23:39:24.114 STDERR [INFO] I0714 23:39:24.114203  8726 net.cpp:148] Top shape: 10 256 28 28 (2007040)
2016-07-14 23:39:24.115 STDERR [INFO] I0714 23:39:24.114207  8730 net.cpp:425] inception_3a/output <- inception_3a/5x5
2016-07-14 23:39:24.115 STDERR [INFO] I0714 23:39:24.114210  8726 net.cpp:148] Top shape: 10 256 28 28 (2007040)
2016-07-14 23:39:24.115 STDERR [INFO] I0714 23:39:24.114212  8730 net.cpp:425] inception_3a/output <- inception_3a/pool_proj
2016-07-14 23:39:24.115 STDERR [INFO] I0714 23:39:24.114217  8726 net.cpp:148] Top shape: 10 256 28 28 (2007040)
2016-07-14 23:39:24.115 STDERR [INFO] I0714 23:39:24.114222  8726 net.cpp:148] Top shape: 10 256 28 28 (2007040)
2016-07-14 23:39:24.115 STDERR [INFO] I0714 23:39:24.114223  8730 net.cpp:399] inception_3a/output -> inception_3a/output
2016-07-14 23:39:24.115 STDERR [INFO] I0714 23:39:24.114225  8726 net.cpp:156] Memory required for data: 273960960
2016-07-14 23:39:24.115 STDERR [INFO] I0714 23:39:24.114231  8726 layer_factory.hpp:77] Creating layer inception_3b/1x1
2016-07-14 23:39:24.115 STDERR [INFO] I0714 23:39:24.114251  8726 net.cpp:91] Creating Layer inception_3b/1x1
2016-07-14 23:39:24.115 STDERR [INFO] I0714 23:39:24.114258  8726 net.cpp:425] inception_3b/1x1 <- inception_3a/output_inception_3a/output_0_split_0
2016-07-14 23:39:24.115 STDERR [INFO] I0714 23:39:24.114267  8726 net.cpp:399] inception_3b/1x1 -> inception_3b/1x1
2016-07-14 23:39:24.115 STDERR [INFO] I0714 23:39:24.114270  8730 net.cpp:141] Setting up inception_3a/output
2016-07-14 23:39:24.115 STDERR [INFO] I0714 23:39:24.114280  8730 net.cpp:148] Top shape: 10 256 28 28 (2007040)
2016-07-14 23:39:24.115 STDERR [INFO] I0714 23:39:24.114285  8730 net.cpp:156] Memory required for data: 241848320
2016-07-14 23:39:24.115 STDERR [INFO] I0714 23:39:24.114290  8730 layer_factory.hpp:77] Creating layer inception_3a/output_inception_3a/output_0_split
2016-07-14 23:39:24.115 STDERR [INFO] I0714 23:39:24.114303  8730 net.cpp:91] Creating Layer inception_3a/output_inception_3a/output_0_split
…
2016-07-14 23:39:24.115 STDERR [INFO] I0714 23:39:24.114327  8730 net.cpp:399] inception_3a/output_inception_3a/output_0_split -> inception_3a/output_inception_3a/output_0_split_1
2016-07-14 23:39:24.115 STDERR [INFO] I0714 23:39:24.114336  8730 net.cpp:399] inception_3a/output_inception_3a/output_0_split -> inception_3a/output_inception_3a/output_0_split_2
2016-07-14 23:39:24.115 STDERR [INFO] I0714 23:39:24.114344  8730 net.cpp:399] inception_3a/output_inception_3a/output_0_split -> inception_3a/output_inception_3a/output_0_split_3
2016-07-14 23:39:24.115 STDERR [INFO] I0714 23:39:24.114619  8730 net.cpp:141] Setting up inception_3a/output_inception_3a/output_0_split
2016-07-14 23:39:24.115 STDERR [INFO] I0714 23:39:24.114631  8730 net.cpp:148] Top shape: 10 256 28 28 (2007040)
2016-07-14 23:39:24.116 STDERR [INFO] I0714 23:39:24.114637  8730 net.cpp:148] Top shape: 10 256 28 28 (2007040)
2016-07-14 23:39:24.116 STDERR [INFO] I0714 23:39:24.114644  8730 net.cpp:148] Top shape: 10 256 28 28 (2007040)
2016-07-14 23:39:24.116 STDERR [INFO] I0714 23:39:24.114650  8730 net.cpp:148] Top shape: 10 256 28 28 (2007040)
2016-07-14 23:39:24.116 STDERR [INFO] I0714 23:39:24.114653  8730 net.cpp:156] Memory required for data: 273960960
2016-07-14 23:39:24.116 STDERR [INFO] I0714 23:39:24.114657  8730 layer_factory.hpp:77] Creating layer inception_3b/1x1
2016-07-14 23:39:24.116 STDERR [INFO] I0714 23:39:24.114673  8730 net.cpp:91] Creating Layer inception_3b/1x1
2016-07-14 23:39:24.116 STDERR [INFO] I0714 23:39:24.114678  8730 net.cpp:425] inception_3b/1x1 <- inception_3a/output_inception_3a/output_0_split_0
2016-07-14 23:39:24.116 STDERR [INFO] I0714 23:39:24.114699  8730 net.cpp:399] inception_3b/1x1 -> inception_3b/1x1
2016-07-14 23:39:24.118 STDERR [INFO] I0714 23:39:24.118378  8726 net.cpp:141] Setting up inception_3b/1x1
2016-07-14 23:39:24.118 STDERR [INFO] I0714 23:39:24.118396  8726 net.cpp:148] Top shape: 10 128 28 28 (1003520)
2016-07-14 23:39:24.118 STDERR [INFO] I0714 23:39:24.118402  8726 net.cpp:156] Memory required for data: 277975040
2016-07-14 23:39:24.118 STDERR [INFO] I0714 23:39:24.118412  8726 layer_factory.hpp:77] Creating layer inception_3b/relu_1x1
2016-07-14 23:39:24.118 STDERR [INFO] I0714 23:39:24.118428  8726 net.cpp:91] Creating Layer inception_3b/relu_1x1
2016-07-14 23:39:24.118 STDERR [INFO] I0714 23:39:24.118435  8726 net.cpp:425] inception_3b/relu_1x1 <- inception_3b/1x1
2016-07-14 23:39:24.118 STDERR [INFO] I0714 23:39:24.118443  8726 net.cpp:386] inception_3b/relu_1x1 -> inception_3b/1x1 (in-place)
2016-07-14 23:39:24.119 STDERR [INFO] I0714 23:39:24.119652  8726 net.cpp:141] Setting up inception_3b/relu_1x1
2016-07-14 23:39:24.119 STDERR [INFO] I0714 23:39:24.119673  8726 net.cpp:148] Top shape: 10 128 28 28 (1003520)
2016-07-14 23:39:24.119 STDERR [INFO] I0714 23:39:24.119678  8726 net.cpp:156] Memory required for data: 281989120
2016-07-14 23:39:24.120 STDERR [INFO] I0714 23:39:24.119684  8726 layer_factory.hpp:77] Creating layer inception_3b/3x3_reduce
2016-07-14 23:39:24.120 STDERR [INFO] I0714 23:39:24.119704  8726 net.cpp:91] Creating Layer inception_3b/3x3_reduce
2016-07-14 23:39:24.120 STDERR [INFO] I0714 23:39:24.119710  8726 net.cpp:425] inception_3b/3x3_reduce <- inception_3a/output_inception_3a/output_0_split_1
2016-07-14 23:39:24.120 STDERR [INFO] I0714 23:39:24.119720  8726 net.cpp:399] inception_3b/3x3_reduce -> inception_3b/3x3_reduce
2016-07-14 23:39:24.120 STDERR [INFO] I0714 23:39:24.119889  8730 net.cpp:141] Setting up inception_3b/1x1
2016-07-14 23:39:24.120 STDERR [INFO] I0714 23:39:24.119904  8730 net.cpp:148] Top shape: 10 128 28 28 (1003520)
2016-07-14 23:39:24.120 STDERR [INFO] I0714 23:39:24.119910  8730 net.cpp:156] Memory required for data: 277975040
2016-07-14 23:39:24.120 STDERR [INFO] I0714 23:39:24.119920  8730 layer_factory.hpp:77] Creating layer inception_3b/relu_1x1
2016-07-14 23:39:24.120 STDERR [INFO] I0714 23:39:24.119930  8730 net.cpp:91] Creating Layer inception_3b/relu_1x1
2016-07-14 23:39:24.120 STDERR [INFO] I0714 23:39:24.119935  8730 net.cpp:425] inception_3b/relu_1x1 <- inception_3b/1x1
2016-07-14 23:39:24.120 STDERR [INFO] I0714 23:39:24.119946  8730 net.cpp:386] inception_3b/relu_1x1 -> inception_3b/1x1 (in-place)
2016-07-14 23:39:24.120 STDERR [INFO] I0714 23:39:24.120367  8730 net.cpp:141] Setting up inception_3b/relu_1x1
2016-07-14 23:39:24.121 STDERR [INFO] I0714 23:39:24.120383  8730 net.cpp:148] Top shape: 10 128 28 28 (1003520)
2016-07-14 23:39:24.121 STDERR [INFO] I0714 23:39:24.120388  8730 net.cpp:156] Memory required for data: 281989120
2016-07-14 23:39:24.121 STDERR [INFO] I0714 23:39:24.120393  8730 layer_factory.hpp:77] Creating layer inception_3b/3x3_reduce
2016-07-14 23:39:24.121 STDERR [INFO] I0714 23:39:24.120410  8730 net.cpp:91] Creating Layer inception_3b/3x3_reduce
2016-07-14 23:39:24.121 STDERR [INFO] I0714 23:39:24.120416  8730 net.cpp:425] inception_3b/3x3_reduce <- inception_3a/output_inception_3a/output_0_split_1
2016-07-14 23:39:24.121 STDERR [INFO] I0714 23:39:24.120426  8730 net.cpp:399] inception_3b/3x3_reduce -> inception_3b/3x3_reduce
2016-07-14 23:39:24.125 STDERR [INFO] I0714 23:39:24.125088  8726 net.cpp:141] Setting up inception_3b/3x3_reduce
2016-07-14 23:39:24.125 STDERR [INFO] I0714 23:39:24.125108  8726 net.cpp:148] Top shape: 10 128 28 28 (1003520)
2016-07-14 23:39:24.125 STDERR [INFO] I0714 23:39:24.125113  8726 net.cpp:156] Memory required for data: 286003200
2016-07-14 23:39:24.125 STDERR [INFO] I0714 23:39:24.125123  8726 layer_factory.hpp:77] Creating layer inception_3b/relu_3x3_reduce
2016-07-14 23:39:24.125 STDERR [INFO] I0714 23:39:24.125135  8726 net.cpp:91] Creating Layer inception_3b/relu_3x3_reduce
2016-07-14 23:39:24.125 STDERR [INFO] I0714 23:39:24.125141  8726 net.cpp:425] inception_3b/relu_3x3_reduce <- inception_3b/3x3_reduce
2016-07-14 23:39:24.125 STDERR [INFO] I0714 23:39:24.125149  8726 net.cpp:386] inception_3b/relu_3x3_reduce -> inception_3b/3x3_reduce (in-place)
2016-07-14 23:39:24.126 STDERR [INFO] I0714 23:39:24.126036  8730 net.cpp:141] Setting up inception_3b/3x3_reduce
2016-07-14 23:39:24.126 STDERR [INFO] I0714 23:39:24.126055  8730 net.cpp:148] Top shape: 10 128 28 28 (1003520)
2016-07-14 23:39:24.126 STDERR [INFO] I0714 23:39:24.126060  8730 net.cpp:156] Memory required for data: 286003200
2016-07-14 23:39:24.126 STDERR [INFO] I0714 23:39:24.126075  8730 layer_factory.hpp:77] Creating layer inception_3b/relu_3x3_reduce
2016-07-14 23:39:24.126 STDERR [INFO] I0714 23:39:24.126087  8730 net.cpp:91] Creating Layer inception_3b/relu_3x3_reduce
2016-07-14 23:39:24.126 STDERR [INFO] I0714 23:39:24.126093  8730 net.cpp:425] inception_3b/relu_3x3_reduce <- inception_3b/3x3_reduce
2016-07-14 23:39:24.126 STDERR [INFO] I0714 23:39:24.126103  8730 net.cpp:386] inception_3b/relu_3x3_reduce -> inception_3b/3x3_reduce (in-place)
2016-07-14 23:39:24.126 STDERR [INFO] I0714 23:39:24.126101  8726 net.cpp:141] Setting up inception_3b/relu_3x3_reduce
2016-07-14 23:39:24.126 STDERR [INFO] I0714 23:39:24.126119  8726 net.cpp:148] Top shape: 10 128 28 28 (1003520)
2016-07-14 23:39:24.126 STDERR [INFO] I0714 23:39:24.126124  8726 net.cpp:156] Memory required for data: 290017280
2016-07-14 23:39:24.126 STDERR [INFO] I0714 23:39:24.126129  8726 layer_factory.hpp:77] Creating layer inception_3b/3x3
2016-07-14 23:39:24.126 STDERR [INFO] I0714 23:39:24.126147  8726 net.cpp:91] Creating Layer inception_3b/3x3
2016-07-14 23:39:24.126 STDERR [INFO] I0714 23:39:24.126154  8726 net.cpp:425] inception_3b/3x3 <- inception_3b/3x3_reduce
2016-07-14 23:39:24.126 STDERR [INFO] I0714 23:39:24.126164  8726 net.cpp:399] inception_3b/3x3 -> inception_3b/3x3
2016-07-14 23:39:24.127 STDERR [INFO] I0714 23:39:24.127825  8730 net.cpp:141] Setting up inception_3b/relu_3x3_reduce
2016-07-14 23:39:24.128 STDERR [INFO] I0714 23:39:24.127842  8730 net.cpp:148] Top shape: 10 128 28 28 (1003520)
2016-07-14 23:39:24.128 STDERR [INFO] I0714 23:39:24.127847  8730 net.cpp:156] Memory required for data: 290017280
2016-07-14 23:39:24.128 STDERR [INFO] I0714 23:39:24.127852  8730 layer_factory.hpp:77] Creating layer inception_3b/3x3
2016-07-14 23:39:24.128 STDERR [INFO] I0714 23:39:24.127871  8730 net.cpp:91] Creating Layer inception_3b/3x3
2016-07-14 23:39:24.128 STDERR [INFO] I0714 23:39:24.127877  8730 net.cpp:425] inception_3b/3x3 <- inception_3b/3x3_reduce
2016-07-14 23:39:24.128 STDERR [INFO] I0714 23:39:24.127889  8730 net.cpp:399] inception_3b/3x3 -> inception_3b/3x3
2016-07-14 23:39:24.133 STDERR [INFO] I0714 23:39:24.133325  8726 net.cpp:141] Setting up inception_3b/3x3
2016-07-14 23:39:24.133 STDERR [INFO] I0714 23:39:24.133347  8726 net.cpp:148] Top shape: 10 192 28 28 (1505280)
2016-07-14 23:39:24.133 STDERR [INFO] I0714 23:39:24.133353  8726 net.cpp:156] Memory required for data: 296038400
2016-07-14 23:39:24.133 STDERR [INFO] I0714 23:39:24.133364  8726 layer_factory.hpp:77] Creating layer inception_3b/relu_3x3
2016-07-14 23:39:24.133 STDERR [INFO] I0714 23:39:24.133378  8726 net.cpp:91] Creating Layer inception_3b/relu_3x3
2016-07-14 23:39:24.133 STDERR [INFO] I0714 23:39:24.133383  8726 net.cpp:425] inception_3b/relu_3x3 <- inception_3b/3x3
2016-07-14 23:39:24.133 STDERR [INFO] I0714 23:39:24.133396  8726 net.cpp:386] inception_3b/relu_3x3 -> inception_3b/3x3 (in-place)
2016-07-14 23:39:24.134 STDERR [INFO] I0714 23:39:24.134554  8726 net.cpp:141] Setting up inception_3b/relu_3x3
2016-07-14 23:39:24.134 STDERR [INFO] I0714 23:39:24.134572  8726 net.cpp:148] Top shape: 10 192 28 28 (1505280)
2016-07-14 23:39:24.134 STDERR [INFO] I0714 23:39:24.134577  8726 net.cpp:156] Memory required for data: 302059520
2016-07-14 23:39:24.134 STDERR [INFO] I0714 23:39:24.134582  8726 layer_factory.hpp:77] Creating layer inception_3b/5x5_reduce
2016-07-14 23:39:24.134 STDERR [INFO] I0714 23:39:24.134604  8726 net.cpp:91] Creating Layer inception_3b/5x5_reduce
2016-07-14 23:39:24.134 STDERR [INFO] I0714 23:39:24.134611  8726 net.cpp:425] inception_3b/5x5_reduce <- inception_3a/output_inception_3a/output_0_split_2
2016-07-14 23:39:24.135 STDERR [INFO] I0714 23:39:24.134624  8726 net.cpp:399] inception_3b/5x5_reduce -> inception_3b/5x5_reduce
2016-07-14 23:39:24.136 STDERR [INFO] I0714 23:39:24.136152  8730 net.cpp:141] Setting up inception_3b/3x3
2016-07-14 23:39:24.136 STDERR [INFO] I0714 23:39:24.136170  8730 net.cpp:148] Top shape: 10 192 28 28 (1505280)
2016-07-14 23:39:24.136 STDERR [INFO] I0714 23:39:24.136176  8730 net.cpp:156] Memory required for data: 296038400
2016-07-14 23:39:24.136 STDERR [INFO] I0714 23:39:24.136186  8730 layer_factory.hpp:77] Creating layer inception_3b/relu_3x3
2016-07-14 23:39:24.136 STDERR [INFO] I0714 23:39:24.136204  8730 net.cpp:91] Creating Layer inception_3b/relu_3x3
2016-07-14 23:39:24.136 STDERR [INFO] I0714 23:39:24.136210  8730 net.cpp:425] inception_3b/relu_3x3 <- inception_3b/3x3
2016-07-14 23:39:24.136 STDERR [INFO] I0714 23:39:24.136219  8730 net.cpp:386] inception_3b/relu_3x3 -> inception_3b/3x3 (in-place)
2016-07-14 23:39:24.138 STDERR [INFO] I0714 23:39:24.138101  8730 net.cpp:141] Setting up inception_3b/relu_3x3
2016-07-14 23:39:24.138 STDERR [INFO] I0714 23:39:24.138119  8730 net.cpp:148] Top shape: 10 192 28 28 (1505280)
2016-07-14 23:39:24.138 STDERR [INFO] I0714 23:39:24.138124  8730 net.cpp:156] Memory required for data: 302059520
2016-07-14 23:39:24.138 STDERR [INFO] I0714 23:39:24.138129  8730 layer_factory.hpp:77] Creating layer inception_3b/5x5_reduce
2016-07-14 23:39:24.138 STDERR [INFO] I0714 23:39:24.138147  8730 net.cpp:91] Creating Layer inception_3b/5x5_reduce
2016-07-14 23:39:24.138 STDERR [INFO] I0714 23:39:24.138154  8730 net.cpp:425] inception_3b/5x5_reduce <- inception_3a/output_inception_3a/output_0_split_2
2016-07-14 23:39:24.138 STDERR [INFO] I0714 23:39:24.138164  8730 net.cpp:399] inception_3b/5x5_reduce -> inception_3b/5x5_reduce
2016-07-14 23:39:24.139 STDERR [INFO] I0714 23:39:24.138955  8726 net.cpp:141] Setting up inception_3b/5x5_reduce
2016-07-14 23:39:24.139 STDERR [INFO] I0714 23:39:24.138973  8726 net.cpp:148] Top shape: 10 32 28 28 (250880)
2016-07-14 23:39:24.139 STDERR [INFO] I0714 23:39:24.138978  8726 net.cpp:156] Memory required for data: 303063040
2016-07-14 23:39:24.139 STDERR [INFO] I0714 23:39:24.138988  8726 layer_factory.hpp:77] Creating layer inception_3b/relu_5x5_reduce
2016-07-14 23:39:24.139 STDERR [INFO] I0714 23:39:24.139001  8726 net.cpp:91] Creating Layer inception_3b/relu_5x5_reduce
2016-07-14 23:39:24.139 STDERR [INFO] I0714 23:39:24.139008  8726 net.cpp:425] inception_3b/relu_5x5_reduce <- inception_3b/5x5_reduce
2016-07-14 23:39:24.139 STDERR [INFO] I0714 23:39:24.139015  8726 net.cpp:386] inception_3b/relu_5x5_reduce -> inception_3b/5x5_reduce (in-place)
2016-07-14 23:39:24.140 STDERR [INFO] I0714 23:39:24.140276  8726 net.cpp:141] Setting up inception_3b/relu_5x5_reduce
2016-07-14 23:39:24.140 STDERR [INFO] I0714 23:39:24.140295  8726 net.cpp:148] Top shape: 10 32 28 28 (250880)
2016-07-14 23:39:24.140 STDERR [INFO] I0714 23:39:24.140300  8726 net.cpp:156] Memory required for data: 304066560
2016-07-14 23:39:24.140 STDERR [INFO] I0714 23:39:24.140305  8726 layer_factory.hpp:77] Creating layer inception_3b/5x5
2016-07-14 23:39:24.140 STDERR [INFO] I0714 23:39:24.140326  8726 net.cpp:91] Creating Layer inception_3b/5x5
2016-07-14 23:39:24.140 STDERR [INFO] I0714 23:39:24.140333  8726 net.cpp:425] inception_3b/5x5 <- inception_3b/5x5_reduce
2016-07-14 23:39:24.140 STDERR [INFO] I0714 23:39:24.140343  8726 net.cpp:399] inception_3b/5x5 -> inception_3b/5x5
2016-07-14 23:39:24.142 STDERR [INFO] I0714 23:39:24.142676  8730 net.cpp:141] Setting up inception_3b/5x5_reduce
2016-07-14 23:39:24.142 STDERR [INFO] I0714 23:39:24.142714  8730 net.cpp:148] Top shape: 10 32 28 28 (250880)
2016-07-14 23:39:24.142 STDERR [INFO] I0714 23:39:24.142719  8730 net.cpp:156] Memory required for data: 303063040
2016-07-14 23:39:24.143 STDERR [INFO] I0714 23:39:24.142729  8730 layer_factory.hpp:77] Creating layer inception_3b/relu_5x5_reduce
2016-07-14 23:39:24.143 STDERR [INFO] I0714 23:39:24.142737  8730 net.cpp:91] Creating Layer inception_3b/relu_5x5_reduce
2016-07-14 23:39:24.143 STDERR [INFO] I0714 23:39:24.142747  8730 net.cpp:425] inception_3b/relu_5x5_reduce <- inception_3b/5x5_reduce
2016-07-14 23:39:24.143 STDERR [INFO] I0714 23:39:24.142755  8730 net.cpp:386] inception_3b/relu_5x5_reduce -> inception_3b/5x5_reduce (in-place)
2016-07-14 23:39:24.143 STDERR [INFO] I0714 23:39:24.143024  8730 net.cpp:141] Setting up inception_3b/relu_5x5_reduce
2016-07-14 23:39:24.143 STDERR [INFO] I0714 23:39:24.143036  8730 net.cpp:148] Top shape: 10 32 28 28 (250880)
2016-07-14 23:39:24.143 STDERR [INFO] I0714 23:39:24.143041  8730 net.cpp:156] Memory required for data: 304066560
2016-07-14 23:39:24.143 STDERR [INFO] I0714 23:39:24.143046  8730 layer_factory.hpp:77] Creating layer inception_3b/5x5
2016-07-14 23:39:24.143 STDERR [INFO] I0714 23:39:24.143069  8730 net.cpp:91] Creating Layer inception_3b/5x5
2016-07-14 23:39:24.143 STDERR [INFO] I0714 23:39:24.143076  8730 net.cpp:425] inception_3b/5x5 <- inception_3b/5x5_reduce
2016-07-14 23:39:24.143 STDERR [INFO] I0714 23:39:24.143101  8730 net.cpp:399] inception_3b/5x5 -> inception_3b/5x5
2016-07-14 23:39:24.147 STDERR [INFO] I0714 23:39:24.147877  8726 net.cpp:141] Setting up inception_3b/5x5
2016-07-14 23:39:24.148 STDERR [INFO] I0714 23:39:24.147897  8726 net.cpp:148] Top shape: 10 96 28 28 (752640)
2016-07-14 23:39:24.148 STDERR [INFO] I0714 23:39:24.147902  8726 net.cpp:156] Memory required for data: 307077120
2016-07-14 23:39:24.148 STDERR [INFO] I0714 23:39:24.147917  8726 layer_factory.hpp:77] Creating layer inception_3b/relu_5x5
2016-07-14 23:39:24.148 STDERR [INFO] I0714 23:39:24.147927  8726 net.cpp:91] Creating Layer inception_3b/relu_5x5
2016-07-14 23:39:24.148 STDERR [INFO] I0714 23:39:24.147933  8726 net.cpp:425] inception_3b/relu_5x5 <- inception_3b/5x5
2016-07-14 23:39:24.148 STDERR [INFO] I0714 23:39:24.147943  8726 net.cpp:386] inception_3b/relu_5x5 -> inception_3b/5x5 (in-place)
2016-07-14 23:39:24.149 STDERR [INFO] I0714 23:39:24.148942  8730 net.cpp:141] Setting up inception_3b/5x5
2016-07-14 23:39:24.149 STDERR [INFO] I0714 23:39:24.148960  8730 net.cpp:148] Top shape: 10 96 28 28 (752640)
2016-07-14 23:39:24.149 STDERR [INFO] I0714 23:39:24.148965  8730 net.cpp:156] Memory required for data: 307077120
2016-07-14 23:39:24.149 STDERR [INFO] I0714 23:39:24.148975  8730 layer_factory.hpp:77] Creating layer inception_3b/relu_5x5
2016-07-14 23:39:24.149 STDERR [INFO] I0714 23:39:24.148984  8730 net.cpp:91] Creating Layer inception_3b/relu_5x5
2016-07-14 23:39:24.149 STDERR [INFO] I0714 23:39:24.148993  8730 net.cpp:425] inception_3b/relu_5x5 <- inception_3b/5x5
2016-07-14 23:39:24.149 STDERR [INFO] I0714 23:39:24.149000  8730 net.cpp:386] inception_3b/relu_5x5 -> inception_3b/5x5 (in-place)
2016-07-14 23:39:24.149 STDERR [INFO] I0714 23:39:24.149011  8726 net.cpp:141] Setting up inception_3b/relu_5x5
2016-07-14 23:39:24.149 STDERR [INFO] I0714 23:39:24.149026  8726 net.cpp:148] Top shape: 10 96 28 28 (752640)
2016-07-14 23:39:24.149 STDERR [INFO] I0714 23:39:24.149031  8726 net.cpp:156] Memory required for data: 310087680
2016-07-14 23:39:24.149 STDERR [INFO] I0714 23:39:24.149036  8726 layer_factory.hpp:77] Creating layer inception_3b/pool
2016-07-14 23:39:24.149 STDERR [INFO] I0714 23:39:24.149047  8726 net.cpp:91] Creating Layer inception_3b/pool
2016-07-14 23:39:24.149 STDERR [INFO] I0714 23:39:24.149054  8726 net.cpp:425] inception_3b/pool <- inception_3a/output_inception_3a/output_0_split_3
2016-07-14 23:39:24.149 STDERR [INFO] I0714 23:39:24.149065  8726 net.cpp:399] inception_3b/pool -> inception_3b/pool
2016-07-14 23:39:24.149 STDERR [INFO] I0714 23:39:24.149266  8726 net.cpp:141] Setting up inception_3b/pool
2016-07-14 23:39:24.149 STDERR [INFO] I0714 23:39:24.149279  8726 net.cpp:148] Top shape: 10 256 28 28 (2007040)
2016-07-14 23:39:24.149 STDERR [INFO] I0714 23:39:24.149284  8726 net.cpp:156] Memory required for data: 318115840
2016-07-14 23:39:24.149 STDERR [INFO] I0714 23:39:24.149289  8726 layer_factory.hpp:77] Creating layer inception_3b/pool_proj
2016-07-14 23:39:24.149 STDERR [INFO] I0714 23:39:24.149307  8726 net.cpp:91] Creating Layer inception_3b/pool_proj
2016-07-14 23:39:24.149 STDERR [INFO] I0714 23:39:24.149312  8726 net.cpp:425] inception_3b/pool_proj <- inception_3b/pool
2016-07-14 23:39:24.149 STDERR [INFO] I0714 23:39:24.149322  8726 net.cpp:399] inception_3b/pool_proj -> inception_3b/pool_proj
2016-07-14 23:39:24.150 STDERR [INFO] I0714 23:39:24.149595  8730 net.cpp:141] Setting up inception_3b/relu_5x5
2016-07-14 23:39:24.150 STDERR [INFO] I0714 23:39:24.149607  8730 net.cpp:148] Top shape: 10 96 28 28 (752640)
2016-07-14 23:39:24.150 STDERR [INFO] I0714 23:39:24.149612  8730 net.cpp:156] Memory required for data: 310087680
2016-07-14 23:39:24.150 STDERR [INFO] I0714 23:39:24.149617  8730 layer_factory.hpp:77] Creating layer inception_3b/pool
2016-07-14 23:39:24.150 STDERR [INFO] I0714 23:39:24.149631  8730 net.cpp:91] Creating Layer inception_3b/pool
2016-07-14 23:39:24.150 STDERR [INFO] I0714 23:39:24.149636  8730 net.cpp:425] inception_3b/pool <- inception_3a/output_inception_3a/output_0_split_3
2016-07-14 23:39:24.150 STDERR [INFO] I0714 23:39:24.149644  8730 net.cpp:399] inception_3b/pool -> inception_3b/pool
2016-07-14 23:39:24.150 STDERR [INFO] I0714 23:39:24.149724  8730 net.cpp:141] Setting up inception_3b/pool
2016-07-14 23:39:24.150 STDERR [INFO] I0714 23:39:24.149735  8730 net.cpp:148] Top shape: 10 256 28 28 (2007040)
2016-07-14 23:39:24.150 STDERR [INFO] I0714 23:39:24.149739  8730 net.cpp:156] Memory required for data: 318115840
2016-07-14 23:39:24.150 STDERR [INFO] I0714 23:39:24.149744  8730 layer_factory.hpp:77] Creating layer inception_3b/pool_proj
2016-07-14 23:39:24.150 STDERR [INFO] I0714 23:39:24.149760  8730 net.cpp:91] Creating Layer inception_3b/pool_proj
2016-07-14 23:39:24.150 STDERR [INFO] I0714 23:39:24.149766  8730 net.cpp:425] inception_3b/pool_proj <- inception_3b/pool
2016-07-14 23:39:24.150 STDERR [INFO] I0714 23:39:24.149780  8730 net.cpp:399] inception_3b/pool_proj -> inception_3b/pool_proj
2016-07-14 23:39:24.154 STDERR [INFO] I0714 23:39:24.154325  8726 net.cpp:141] Setting up inception_3b/pool_proj
2016-07-14 23:39:24.154 STDERR [INFO] I0714 23:39:24.154342  8726 net.cpp:148] Top shape: 10 64 28 28 (501760)
2016-07-14 23:39:24.154 STDERR [INFO] I0714 23:39:24.154348  8726 net.cpp:156] Memory required for data: 320122880
2016-07-14 23:39:24.154 STDERR [INFO] I0714 23:39:24.154357  8726 layer_factory.hpp:77] Creating layer inception_3b/relu_pool_proj
2016-07-14 23:39:24.154 STDERR [INFO] I0714 23:39:24.154371  8726 net.cpp:91] Creating Layer inception_3b/relu_pool_proj
2016-07-14 23:39:24.154 STDERR [INFO] I0714 23:39:24.154378  8726 net.cpp:425] inception_3b/relu_pool_proj <- inception_3b/pool_proj
2016-07-14 23:39:24.154 STDERR [INFO] I0714 23:39:24.154387  8726 net.cpp:386] inception_3b/relu_pool_proj -> inception_3b/pool_proj (in-place)
2016-07-14 23:39:24.154 STDERR [INFO] I0714 23:39:24.154937  8726 net.cpp:141] Setting up inception_3b/relu_pool_proj
2016-07-14 23:39:24.155 STDERR [INFO] I0714 23:39:24.154952  8726 net.cpp:148] Top shape: 10 64 28 28 (501760)
2016-07-14 23:39:24.155 STDERR [INFO] I0714 23:39:24.154956  8726 net.cpp:156] Memory required for data: 322129920
2016-07-14 23:39:24.155 STDERR [INFO] I0714 23:39:24.154958  8730 net.cpp:141] Setting up inception_3b/pool_proj
2016-07-14 23:39:24.155 STDERR [INFO] I0714 23:39:24.154963  8726 layer_factory.hpp:77] Creating layer inception_3b/output
2016-07-14 23:39:24.155 STDERR [INFO] I0714 23:39:24.154978  8730 net.cpp:148] Top shape: 10 64 28 28 (501760)
2016-07-14 23:39:24.155 STDERR [INFO] I0714 23:39:24.154983  8726 net.cpp:91] Creating Layer inception_3b/output
2016-07-14 23:39:24.155 STDERR [INFO] I0714 23:39:24.154983  8730 net.cpp:156] Memory required for data: 320122880
2016-07-14 23:39:24.155 STDERR [INFO] I0714 23:39:24.154992  8726 net.cpp:425] inception_3b/output <- inception_3b/1x1
2016-07-14 23:39:24.155 STDERR [INFO] I0714 23:39:24.154999  8726 net.cpp:425] inception_3b/output <- inception_3b/3x3
…
2016-07-14 23:39:24.155 STDERR [INFO] I0714 23:39:24.155011  8726 net.cpp:425] inception_3b/output <- inception_3b/pool_proj
2016-07-14 23:39:24.155 STDERR [INFO] I0714 23:39:24.155019  8730 net.cpp:425] inception_3b/relu_pool_proj <- inception_3b/pool_proj
2016-07-14 23:39:24.155 STDERR [INFO] I0714 23:39:24.155025  8726 net.cpp:399] inception_3b/output -> inception_3b/output
2016-07-14 23:39:24.155 STDERR [INFO] I0714 23:39:24.155032  8730 net.cpp:386] inception_3b/relu_pool_proj -> inception_3b/pool_proj (in-place)
2016-07-14 23:39:24.155 STDERR [INFO] I0714 23:39:24.155083  8726 net.cpp:141] Setting up inception_3b/output
2016-07-14 23:39:24.155 STDERR [INFO] I0714 23:39:24.155094  8726 net.cpp:148] Top shape: 10 480 28 28 (3763200)
2016-07-14 23:39:24.155 STDERR [INFO] I0714 23:39:24.155098  8726 net.cpp:156] Memory required for data: 337182720
2016-07-14 23:39:24.155 STDERR [INFO] I0714 23:39:24.155103  8726 layer_factory.hpp:77] Creating layer pool3/3x3_s2
2016-07-14 23:39:24.155 STDERR [INFO] I0714 23:39:24.155114  8726 net.cpp:91] Creating Layer pool3/3x3_s2
2016-07-14 23:39:24.155 STDERR [INFO] I0714 23:39:24.155120  8726 net.cpp:425] pool3/3x3_s2 <- inception_3b/output
2016-07-14 23:39:24.155 STDERR [INFO] I0714 23:39:24.155128  8726 net.cpp:399] pool3/3x3_s2 -> pool3/3x3_s2
2016-07-14 23:39:24.156 STDERR [INFO] I0714 23:39:24.155885  8726 net.cpp:141] Setting up pool3/3x3_s2
2016-07-14 23:39:24.156 STDERR [INFO] I0714 23:39:24.155897  8726 net.cpp:148] Top shape: 10 480 14 14 (940800)
2016-07-14 23:39:24.156 STDERR [INFO] I0714 23:39:24.155902  8726 net.cpp:156] Memory required for data: 340945920
2016-07-14 23:39:24.156 STDERR [INFO] I0714 23:39:24.155907  8726 layer_factory.hpp:77] Creating layer pool3/3x3_s2_pool3/3x3_s2_0_split
2016-07-14 23:39:24.156 STDERR [INFO] I0714 23:39:24.155921  8726 net.cpp:91] Creating Layer pool3/3x3_s2_pool3/3x3_s2_0_split
2016-07-14 23:39:24.156 STDERR [INFO] I0714 23:39:24.155926  8726 net.cpp:425] pool3/3x3_s2_pool3/3x3_s2_0_split <- pool3/3x3_s2
2016-07-14 23:39:24.156 STDERR [INFO] I0714 23:39:24.155935  8726 net.cpp:399] pool3/3x3_s2_pool3/3x3_s2_0_split -> pool3/3x3_s2_pool3/3x3_s2_0_split_0
2016-07-14 23:39:24.156 STDERR [INFO] I0714 23:39:24.155943  8726 net.cpp:399] pool3/3x3_s2_pool3/3x3_s2_0_split -> pool3/3x3_s2_pool3/3x3_s2_0_split_1
2016-07-14 23:39:24.156 STDERR [INFO] I0714 23:39:24.155956  8726 net.cpp:399] pool3/3x3_s2_pool3/3x3_s2_0_split -> pool3/3x3_s2_pool3/3x3_s2_0_split_2
2016-07-14 23:39:24.156 STDERR [INFO] I0714 23:39:24.155963  8726 net.cpp:399] pool3/3x3_s2_pool3/3x3_s2_0_split -> pool3/3x3_s2_pool3/3x3_s2_0_split_3
2016-07-14 23:39:24.156 STDERR [INFO] I0714 23:39:24.155984  8730 net.cpp:141] Setting up inception_3b/relu_pool_proj
2016-07-14 23:39:24.156 STDERR [INFO] I0714 23:39:24.155998  8730 net.cpp:148] Top shape: 10 64 28 28 (501760)
2016-07-14 23:39:24.156 STDERR [INFO] I0714 23:39:24.156003  8730 net.cpp:156] Memory required for data: 322129920
2016-07-14 23:39:24.156 STDERR [INFO] I0714 23:39:24.156009  8730 layer_factory.hpp:77] Creating layer inception_3b/output
2016-07-14 23:39:24.156 STDERR [INFO] I0714 23:39:24.156018  8730 net.cpp:91] Creating Layer inception_3b/output
2016-07-14 23:39:24.156 STDERR [INFO] I0714 23:39:24.156023  8730 net.cpp:425] inception_3b/output <- inception_3b/1x1
2016-07-14 23:39:24.156 STDERR [INFO] I0714 23:39:24.156030  8730 net.cpp:425] inception_3b/output <- inception_3b/3x3
2016-07-14 23:39:24.156 STDERR [INFO] I0714 23:39:24.156036  8730 net.cpp:425] inception_3b/output <- inception_3b/5x5
2016-07-14 23:39:24.156 STDERR [INFO] I0714 23:39:24.156041  8730 net.cpp:425] inception_3b/output <- inception_3b/pool_proj
2016-07-14 23:39:24.157 STDERR [INFO] I0714 23:39:24.156052  8730 net.cpp:399] inception_3b/output -> inception_3b/output
2016-07-14 23:39:24.157 STDERR [INFO] I0714 23:39:24.156062  8726 net.cpp:141] Setting up pool3/3x3_s2_pool3/3x3_s2_0_split
2016-07-14 23:39:24.157 STDERR [INFO] I0714 23:39:24.156072  8726 net.cpp:148] Top shape: 10 480 14 14 (940800)
2016-07-14 23:39:24.157 STDERR [INFO] I0714 23:39:24.156078  8726 net.cpp:148] Top shape: 10 480 14 14 (940800)
2016-07-14 23:39:24.157 STDERR [INFO] I0714 23:39:24.156083  8726 net.cpp:148] Top shape: 10 480 14 14 (940800)
2016-07-14 23:39:24.157 STDERR [INFO] I0714 23:39:24.156090  8726 net.cpp:148] Top shape: 10 480 14 14 (940800)
2016-07-14 23:39:24.157 STDERR [INFO] I0714 23:39:24.156093  8726 net.cpp:156] Memory required for data: 355998720
2016-07-14 23:39:24.157 STDERR [INFO] I0714 23:39:24.156098  8726 layer_factory.hpp:77] Creating layer inception_4a/1x1
2016-07-14 23:39:24.157 STDERR [INFO] I0714 23:39:24.156103  8730 net.cpp:141] Setting up inception_3b/output
2016-07-14 23:39:24.157 STDERR [INFO] I0714 23:39:24.156113  8726 net.cpp:91] Creating Layer inception_4a/1x1
2016-07-14 23:39:24.157 STDERR [INFO] I0714 23:39:24.156117  8730 net.cpp:148] Top shape: 10 480 28 28 (3763200)
2016-07-14 23:39:24.157 STDERR [INFO] I0714 23:39:24.156119  8726 net.cpp:425] inception_4a/1x1 <- pool3/3x3_s2_pool3/3x3_s2_0_split_0
2016-07-14 23:39:24.157 STDERR [INFO] I0714 23:39:24.156122  8730 net.cpp:156] Memory required for data: 337182720
2016-07-14 23:39:24.157 STDERR [INFO] I0714 23:39:24.156127  8730 layer_factory.hpp:77] Creating layer pool3/3x3_s2
2016-07-14 23:39:24.157 STDERR [INFO] I0714 23:39:24.156132  8726 net.cpp:399] inception_4a/1x1 -> inception_4a/1x1
2016-07-14 23:39:24.157 STDERR [INFO] I0714 23:39:24.156136  8730 net.cpp:91] Creating Layer pool3/3x3_s2
2016-07-14 23:39:24.157 STDERR [INFO] I0714 23:39:24.156141  8730 net.cpp:425] pool3/3x3_s2 <- inception_3b/output
2016-07-14 23:39:24.157 STDERR [INFO] I0714 23:39:24.156149  8730 net.cpp:399] pool3/3x3_s2 -> pool3/3x3_s2
2016-07-14 23:39:24.157 STDERR [INFO] I0714 23:39:24.156425  8730 net.cpp:141] Setting up pool3/3x3_s2
2016-07-14 23:39:24.157 STDERR [INFO] I0714 23:39:24.156438  8730 net.cpp:148] Top shape: 10 480 14 14 (940800)
2016-07-14 23:39:24.157 STDERR [INFO] I0714 23:39:24.156442  8730 net.cpp:156] Memory required for data: 340945920
2016-07-14 23:39:24.157 STDERR [INFO] I0714 23:39:24.156447  8730 layer_factory.hpp:77] Creating layer pool3/3x3_s2_pool3/3x3_s2_0_split
2016-07-14 23:39:24.158 STDERR [INFO] I0714 23:39:24.156461  8730 net.cpp:91] Creating Layer pool3/3x3_s2_pool3/3x3_s2_0_split
2016-07-14 23:39:24.158 STDERR [INFO] I0714 23:39:24.156466  8730 net.cpp:425] pool3/3x3_s2_pool3/3x3_s2_0_split <- pool3/3x3_s2
2016-07-14 23:39:24.158 STDERR [INFO] I0714 23:39:24.156476  8730 net.cpp:399] pool3/3x3_s2_pool3/3x3_s2_0_split -> pool3/3x3_s2_pool3/3x3_s2_0_split_0
2016-07-14 23:39:24.158 STDERR [INFO] I0714 23:39:24.156486  8730 net.cpp:399] pool3/3x3_s2_pool3/3x3_s2_0_split -> pool3/3x3_s2_pool3/3x3_s2_0_split_1
2016-07-14 23:39:24.158 STDERR [INFO] I0714 23:39:24.156493  8730 net.cpp:399] pool3/3x3_s2_pool3/3x3_s2_0_split -> pool3/3x3_s2_pool3/3x3_s2_0_split_2
2016-07-14 23:39:24.158 STDERR [INFO] I0714 23:39:24.156502  8730 net.cpp:399] pool3/3x3_s2_pool3/3x3_s2_0_split -> pool3/3x3_s2_pool3/3x3_s2_0_split_3
2016-07-14 23:39:24.158 STDERR [INFO] I0714 23:39:24.156600  8730 net.cpp:141] Setting up pool3/3x3_s2_pool3/3x3_s2_0_split
2016-07-14 23:39:24.158 STDERR [INFO] I0714 23:39:24.156610  8730 net.cpp:148] Top shape: 10 480 14 14 (940800)
2016-07-14 23:39:24.158 STDERR [INFO] I0714 23:39:24.156616  8730 net.cpp:148] Top shape: 10 480 14 14 (940800)
2016-07-14 23:39:24.158 STDERR [INFO] I0714 23:39:24.156622  8730 net.cpp:148] Top shape: 10 480 14 14 (940800)
2016-07-14 23:39:24.158 STDERR [INFO] I0714 23:39:24.156627  8730 net.cpp:148] Top shape: 10 480 14 14 (940800)
2016-07-14 23:39:24.158 STDERR [INFO] I0714 23:39:24.156631  8730 net.cpp:156] Memory required for data: 355998720
2016-07-14 23:39:24.159 STDERR [INFO] I0714 23:39:24.156636  8730 layer_factory.hpp:77] Creating layer inception_4a/1x1
2016-07-14 23:39:24.159 STDERR [INFO] I0714 23:39:24.156651  8730 net.cpp:91] Creating Layer inception_4a/1x1
2016-07-14 23:39:24.159 STDERR [INFO] I0714 23:39:24.156657  8730 net.cpp:425] inception_4a/1x1 <- pool3/3x3_s2_pool3/3x3_s2_0_split_0
2016-07-14 23:39:24.159 STDERR [INFO] I0714 23:39:24.156674  8730 net.cpp:399] inception_4a/1x1 -> inception_4a/1x1
2016-07-14 23:39:24.162 STDERR [INFO] I0714 23:39:24.162291  8726 net.cpp:141] Setting up inception_4a/1x1
2016-07-14 23:39:24.162 STDERR [INFO] I0714 23:39:24.162310  8726 net.cpp:148] Top shape: 10 192 14 14 (376320)
2016-07-14 23:39:24.162 STDERR [INFO] I0714 23:39:24.162317  8726 net.cpp:156] Memory required for data: 357504000
2016-07-14 23:39:24.162 STDERR [INFO] I0714 23:39:24.162327  8726 layer_factory.hpp:77] Creating layer inception_4a/relu_1x1
2016-07-14 23:39:24.162 STDERR [INFO] I0714 23:39:24.162350  8726 net.cpp:91] Creating Layer inception_4a/relu_1x1
2016-07-14 23:39:24.162 STDERR [INFO] I0714 23:39:24.162358  8726 net.cpp:425] inception_4a/relu_1x1 <- inception_4a/1x1
2016-07-14 23:39:24.162 STDERR [INFO] I0714 23:39:24.162365  8726 net.cpp:386] inception_4a/relu_1x1 -> inception_4a/1x1 (in-place)
2016-07-14 23:39:24.163 STDERR [INFO] I0714 23:39:24.163578  8726 net.cpp:141] Setting up inception_4a/relu_1x1
2016-07-14 23:39:24.163 STDERR [INFO] I0714 23:39:24.163599  8726 net.cpp:148] Top shape: 10 192 14 14 (376320)
2016-07-14 23:39:24.163 STDERR [INFO] I0714 23:39:24.163604  8726 net.cpp:156] Memory required for data: 359009280
2016-07-14 23:39:24.163 STDERR [INFO] I0714 23:39:24.163609  8726 layer_factory.hpp:77] Creating layer inception_4a/3x3_reduce
2016-07-14 23:39:24.163 STDERR [INFO] I0714 23:39:24.163625  8726 net.cpp:91] Creating Layer inception_4a/3x3_reduce
2016-07-14 23:39:24.163 STDERR [INFO] I0714 23:39:24.163632  8726 net.cpp:425] inception_4a/3x3_reduce <- pool3/3x3_s2_pool3/3x3_s2_0_split_1
2016-07-14 23:39:24.163 STDERR [INFO] I0714 23:39:24.163642  8726 net.cpp:399] inception_4a/3x3_reduce -> inception_4a/3x3_reduce
2016-07-14 23:39:24.164 STDERR [INFO] I0714 23:39:24.163769  8730 net.cpp:141] Setting up inception_4a/1x1
2016-07-14 23:39:24.164 STDERR [INFO] I0714 23:39:24.163785  8730 net.cpp:148] Top shape: 10 192 14 14 (376320)
2016-07-14 23:39:24.164 STDERR [INFO] I0714 23:39:24.163790  8730 net.cpp:156] Memory required for data: 357504000
2016-07-14 23:39:24.164 STDERR [INFO] I0714 23:39:24.163800  8730 layer_factory.hpp:77] Creating layer inception_4a/relu_1x1
2016-07-14 23:39:24.164 STDERR [INFO] I0714 23:39:24.163810  8730 net.cpp:91] Creating Layer inception_4a/relu_1x1
2016-07-14 23:39:24.164 STDERR [INFO] I0714 23:39:24.163816  8730 net.cpp:425] inception_4a/relu_1x1 <- inception_4a/1x1
2016-07-14 23:39:24.164 STDERR [INFO] I0714 23:39:24.163827  8730 net.cpp:386] inception_4a/relu_1x1 -> inception_4a/1x1 (in-place)
2016-07-14 23:39:24.164 STDERR [INFO] I0714 23:39:24.164250  8730 net.cpp:141] Setting up inception_4a/relu_1x1
2016-07-14 23:39:24.164 STDERR [INFO] I0714 23:39:24.164266  8730 net.cpp:148] Top shape: 10 192 14 14 (376320)
2016-07-14 23:39:24.164 STDERR [INFO] I0714 23:39:24.164271  8730 net.cpp:156] Memory required for data: 359009280
2016-07-14 23:39:24.164 STDERR [INFO] I0714 23:39:24.164276  8730 layer_factory.hpp:77] Creating layer inception_4a/3x3_reduce
2016-07-14 23:39:24.164 STDERR [INFO] I0714 23:39:24.164294  8730 net.cpp:91] Creating Layer inception_4a/3x3_reduce
2016-07-14 23:39:24.164 STDERR [INFO] I0714 23:39:24.164300  8730 net.cpp:425] inception_4a/3x3_reduce <- pool3/3x3_s2_pool3/3x3_s2_0_split_1
2016-07-14 23:39:24.164 STDERR [INFO] I0714 23:39:24.164310  8730 net.cpp:399] inception_4a/3x3_reduce -> inception_4a/3x3_reduce
2016-07-14 23:39:24.169 STDERR [INFO] I0714 23:39:24.169019  8726 net.cpp:141] Setting up inception_4a/3x3_reduce
2016-07-14 23:39:24.169 STDERR [INFO] I0714 23:39:24.169039  8726 net.cpp:148] Top shape: 10 96 14 14 (188160)
2016-07-14 23:39:24.169 STDERR [INFO] I0714 23:39:24.169044  8726 net.cpp:156] Memory required for data: 359761920
2016-07-14 23:39:24.169 STDERR [INFO] I0714 23:39:24.169070  8726 layer_factory.hpp:77] Creating layer inception_4a/relu_3x3_reduce
2016-07-14 23:39:24.169 STDERR [INFO] I0714 23:39:24.169080  8726 net.cpp:91] Creating Layer inception_4a/relu_3x3_reduce
2016-07-14 23:39:24.169 STDERR [INFO] I0714 23:39:24.169086  8726 net.cpp:425] inception_4a/relu_3x3_reduce <- inception_4a/3x3_reduce
2016-07-14 23:39:24.169 STDERR [INFO] I0714 23:39:24.169095  8726 net.cpp:386] inception_4a/relu_3x3_reduce -> inception_4a/3x3_reduce (in-place)
2016-07-14 23:39:24.170 STDERR [INFO] I0714 23:39:24.170096  8730 net.cpp:141] Setting up inception_4a/3x3_reduce
2016-07-14 23:39:24.170 STDERR [INFO] I0714 23:39:24.170114  8730 net.cpp:148] Top shape: 10 96 14 14 (188160)
2016-07-14 23:39:24.170 STDERR [INFO] I0714 23:39:24.170120  8730 net.cpp:156] Memory required for data: 359761920
2016-07-14 23:39:24.170 STDERR [INFO] I0714 23:39:24.170148  8730 layer_factory.hpp:77] Creating layer inception_4a/relu_3x3_reduce
2016-07-14 23:39:24.170 STDERR [INFO] I0714 23:39:24.170159  8730 net.cpp:91] Creating Layer inception_4a/relu_3x3_reduce
2016-07-14 23:39:24.170 STDERR [INFO] I0714 23:39:24.170166  8730 net.cpp:425] inception_4a/relu_3x3_reduce <- inception_4a/3x3_reduce
2016-07-14 23:39:24.170 STDERR [INFO] I0714 23:39:24.170167  8726 net.cpp:141] Setting up inception_4a/relu_3x3_reduce
2016-07-14 23:39:24.170 STDERR [INFO] I0714 23:39:24.170177  8730 net.cpp:386] inception_4a/relu_3x3_reduce -> inception_4a/3x3_reduce (in-place)
2016-07-14 23:39:24.170 STDERR [INFO] I0714 23:39:24.170182  8726 net.cpp:148] Top shape: 10 96 14 14 (188160)
2016-07-14 23:39:24.170 STDERR [INFO] I0714 23:39:24.170187  8726 net.cpp:156] Memory required for data: 360514560
2016-07-14 23:39:24.170 STDERR [INFO] I0714 23:39:24.170202  8726 layer_factory.hpp:77] Creating layer inception_4a/3x3
2016-07-14 23:39:24.170 STDERR [INFO] I0714 23:39:24.170219  8726 net.cpp:91] Creating Layer inception_4a/3x3
2016-07-14 23:39:24.170 STDERR [INFO] I0714 23:39:24.170227  8726 net.cpp:425] inception_4a/3x3 <- inception_4a/3x3_reduce
2016-07-14 23:39:24.170 STDERR [INFO] I0714 23:39:24.170236  8726 net.cpp:399] inception_4a/3x3 -> inception_4a/3x3
2016-07-14 23:39:24.170 STDERR [INFO] I0714 23:39:24.170817  8730 net.cpp:141] Setting up inception_4a/relu_3x3_reduce
2016-07-14 23:39:24.170 STDERR [INFO] I0714 23:39:24.170850  8730 net.cpp:148] Top shape: 10 96 14 14 (188160)
2016-07-14 23:39:24.171 STDERR [INFO] I0714 23:39:24.170856  8730 net.cpp:156] Memory required for data: 360514560
2016-07-14 23:39:24.171 STDERR [INFO] I0714 23:39:24.170862  8730 layer_factory.hpp:77] Creating layer inception_4a/3x3
2016-07-14 23:39:24.171 STDERR [INFO] I0714 23:39:24.171336  8730 net.cpp:91] Creating Layer inception_4a/3x3
2016-07-14 23:39:24.171 STDERR [INFO] I0714 23:39:24.171347  8730 net.cpp:425] inception_4a/3x3 <- inception_4a/3x3_reduce
2016-07-14 23:39:24.171 STDERR [INFO] I0714 23:39:24.171358  8730 net.cpp:399] inception_4a/3x3 -> inception_4a/3x3
2016-07-14 23:39:24.177 STDERR [INFO] I0714 23:39:24.176959  8726 net.cpp:141] Setting up inception_4a/3x3
2016-07-14 23:39:24.177 STDERR [INFO] I0714 23:39:24.176983  8726 net.cpp:148] Top shape: 10 208 14 14 (407680)
2016-07-14 23:39:24.177 STDERR [INFO] I0714 23:39:24.176990  8726 net.cpp:156] Memory required for data: 362145280
2016-07-14 23:39:24.177 STDERR [INFO] I0714 23:39:24.177000  8726 layer_factory.hpp:77] Creating layer inception_4a/relu_3x3
2016-07-14 23:39:24.177 STDERR [INFO] I0714 23:39:24.177009  8726 net.cpp:91] Creating Layer inception_4a/relu_3x3
2016-07-14 23:39:24.177 STDERR [INFO] I0714 23:39:24.177016  8726 net.cpp:425] inception_4a/relu_3x3 <- inception_4a/3x3
2016-07-14 23:39:24.177 STDERR [INFO] I0714 23:39:24.177023  8726 net.cpp:386] inception_4a/relu_3x3 -> inception_4a/3x3 (in-place)
2016-07-14 23:39:24.178 STDERR [INFO] I0714 23:39:24.178380  8726 net.cpp:141] Setting up inception_4a/relu_3x3
2016-07-14 23:39:24.178 STDERR [INFO] I0714 23:39:24.178397  8726 net.cpp:148] Top shape: 10 208 14 14 (407680)
2016-07-14 23:39:24.178 STDERR [INFO] I0714 23:39:24.178402  8726 net.cpp:156] Memory required for data: 363776000
2016-07-14 23:39:24.178 STDERR [INFO] I0714 23:39:24.178408  8726 layer_factory.hpp:77] Creating layer inception_4a/5x5_reduce
2016-07-14 23:39:24.178 STDERR [INFO] I0714 23:39:24.178431  8726 net.cpp:91] Creating Layer inception_4a/5x5_reduce
2016-07-14 23:39:24.178 STDERR [INFO] I0714 23:39:24.178437  8726 net.cpp:425] inception_4a/5x5_reduce <- pool3/3x3_s2_pool3/3x3_s2_0_split_2
2016-07-14 23:39:24.178 STDERR [INFO] I0714 23:39:24.178447  8726 net.cpp:399] inception_4a/5x5_reduce -> inception_4a/5x5_reduce
2016-07-14 23:39:24.178 STDERR [INFO] I0714 23:39:24.178458  8730 net.cpp:141] Setting up inception_4a/3x3
2016-07-14 23:39:24.178 STDERR [INFO] I0714 23:39:24.178475  8730 net.cpp:148] Top shape: 10 208 14 14 (407680)
2016-07-14 23:39:24.179 STDERR [INFO] I0714 23:39:24.178480  8730 net.cpp:156] Memory required for data: 362145280
2016-07-14 23:39:24.179 STDERR [INFO] I0714 23:39:24.178490  8730 layer_factory.hpp:77] Creating layer inception_4a/relu_3x3
2016-07-14 23:39:24.179 STDERR [INFO] I0714 23:39:24.178503  8730 net.cpp:91] Creating Layer inception_4a/relu_3x3
2016-07-14 23:39:24.179 STDERR [INFO] I0714 23:39:24.178510  8730 net.cpp:425] inception_4a/relu_3x3 <- inception_4a/3x3
2016-07-14 23:39:24.179 STDERR [INFO] I0714 23:39:24.178519  8730 net.cpp:386] inception_4a/relu_3x3 -> inception_4a/3x3 (in-place)
2016-07-14 23:39:24.179 STDERR [INFO] I0714 23:39:24.179863  8730 net.cpp:141] Setting up inception_4a/relu_3x3
2016-07-14 23:39:24.180 STDERR [INFO] I0714 23:39:24.179880  8730 net.cpp:148] Top shape: 10 208 14 14 (407680)
2016-07-14 23:39:24.180 STDERR [INFO] I0714 23:39:24.179886  8730 net.cpp:156] Memory required for data: 363776000
2016-07-14 23:39:24.180 STDERR [INFO] I0714 23:39:24.179891  8730 layer_factory.hpp:77] Creating layer inception_4a/5x5_reduce
2016-07-14 23:39:24.180 STDERR [INFO] I0714 23:39:24.179911  8730 net.cpp:91] Creating Layer inception_4a/5x5_reduce
2016-07-14 23:39:24.180 STDERR [INFO] I0714 23:39:24.179919  8730 net.cpp:425] inception_4a/5x5_reduce <- pool3/3x3_s2_pool3/3x3_s2_0_split_2
2016-07-14 23:39:24.180 STDERR [INFO] I0714 23:39:24.179929  8730 net.cpp:399] inception_4a/5x5_reduce -> inception_4a/5x5_reduce
2016-07-14 23:39:24.183 STDERR [INFO] I0714 23:39:24.183501  8726 net.cpp:141] Setting up inception_4a/5x5_reduce
2016-07-14 23:39:24.183 STDERR [INFO] I0714 23:39:24.183518  8726 net.cpp:148] Top shape: 10 16 14 14 (31360)
2016-07-14 23:39:24.183 STDERR [INFO] I0714 23:39:24.183524  8726 net.cpp:156] Memory required for data: 363901440
2016-07-14 23:39:24.183 STDERR [INFO] I0714 23:39:24.183534  8726 layer_factory.hpp:77] Creating layer inception_4a/relu_5x5_reduce
2016-07-14 23:39:24.183 STDERR [INFO] I0714 23:39:24.183543  8726 net.cpp:91] Creating Layer inception_4a/relu_5x5_reduce
2016-07-14 23:39:24.183 STDERR [INFO] I0714 23:39:24.183549  8726 net.cpp:425] inception_4a/relu_5x5_reduce <- inception_4a/5x5_reduce
2016-07-14 23:39:24.183 STDERR [INFO] I0714 23:39:24.183563  8726 net.cpp:386] inception_4a/relu_5x5_reduce -> inception_4a/5x5_reduce (in-place)
2016-07-14 23:39:24.184 STDERR [INFO] I0714 23:39:24.184710  8726 net.cpp:141] Setting up inception_4a/relu_5x5_reduce
2016-07-14 23:39:24.184 STDERR [INFO] I0714 23:39:24.184726  8726 net.cpp:148] Top shape: 10 16 14 14 (31360)
2016-07-14 23:39:24.184 STDERR [INFO] I0714 23:39:24.184731  8726 net.cpp:156] Memory required for data: 364026880
2016-07-14 23:39:24.185 STDERR [INFO] I0714 23:39:24.184736  8726 layer_factory.hpp:77] Creating layer inception_4a/5x5
2016-07-14 23:39:24.185 STDERR [INFO] I0714 23:39:24.184754  8726 net.cpp:91] Creating Layer inception_4a/5x5
2016-07-14 23:39:24.185 STDERR [INFO] I0714 23:39:24.184762  8726 net.cpp:425] inception_4a/5x5 <- inception_4a/5x5_reduce
2016-07-14 23:39:24.185 STDERR [INFO] I0714 23:39:24.184773  8726 net.cpp:399] inception_4a/5x5 -> inception_4a/5x5
2016-07-14 23:39:24.185 STDERR [INFO] I0714 23:39:24.184900  8730 net.cpp:141] Setting up inception_4a/5x5_reduce
2016-07-14 23:39:24.185 STDERR [INFO] I0714 23:39:24.184916  8730 net.cpp:148] Top shape: 10 16 14 14 (31360)
2016-07-14 23:39:24.185 STDERR [INFO] I0714 23:39:24.184921  8730 net.cpp:156] Memory required for data: 363901440
2016-07-14 23:39:24.185 STDERR [INFO] I0714 23:39:24.184931  8730 layer_factory.hpp:77] Creating layer inception_4a/relu_5x5_reduce
2016-07-14 23:39:24.185 STDERR [INFO] I0714 23:39:24.184947  8730 net.cpp:91] Creating Layer inception_4a/relu_5x5_reduce
2016-07-14 23:39:24.185 STDERR [INFO] I0714 23:39:24.184952  8730 net.cpp:425] inception_4a/relu_5x5_reduce <- inception_4a/5x5_reduce
2016-07-14 23:39:24.185 STDERR [INFO] I0714 23:39:24.184960  8730 net.cpp:386] inception_4a/relu_5x5_reduce -> inception_4a/5x5_reduce (in-place)
2016-07-14 23:39:24.186 STDERR [INFO] I0714 23:39:24.186545  8730 net.cpp:141] Setting up inception_4a/relu_5x5_reduce
2016-07-14 23:39:24.186 STDERR [INFO] I0714 23:39:24.186561  8730 net.cpp:148] Top shape: 10 16 14 14 (31360)
2016-07-14 23:39:24.186 STDERR [INFO] I0714 23:39:24.186566  8730 net.cpp:156] Memory required for data: 364026880
2016-07-14 23:39:24.186 STDERR [INFO] I0714 23:39:24.186571  8730 layer_factory.hpp:77] Creating layer inception_4a/5x5
2016-07-14 23:39:24.186 STDERR [INFO] I0714 23:39:24.186589  8730 net.cpp:91] Creating Layer inception_4a/5x5
2016-07-14 23:39:24.186 STDERR [INFO] I0714 23:39:24.186595  8730 net.cpp:425] inception_4a/5x5 <- inception_4a/5x5_reduce
2016-07-14 23:39:24.186 STDERR [INFO] I0714 23:39:24.186609  8730 net.cpp:399] inception_4a/5x5 -> inception_4a/5x5
2016-07-14 23:39:24.192 STDERR [INFO] I0714 23:39:24.191947  8726 net.cpp:141] Setting up inception_4a/5x5
2016-07-14 23:39:24.192 STDERR [INFO] I0714 23:39:24.191967  8726 net.cpp:148] Top shape: 10 48 14 14 (94080)
2016-07-14 23:39:24.192 STDERR [INFO] I0714 23:39:24.191972  8726 net.cpp:156] Memory required for data: 364403200
2016-07-14 23:39:24.192 STDERR [INFO] I0714 23:39:24.191982  8726 layer_factory.hpp:77] Creating layer inception_4a/relu_5x5
2016-07-14 23:39:24.192 STDERR [INFO] I0714 23:39:24.191994  8726 net.cpp:91] Creating Layer inception_4a/relu_5x5
2016-07-14 23:39:24.192 STDERR [INFO] I0714 23:39:24.192000  8726 net.cpp:425] inception_4a/relu_5x5 <- inception_4a/5x5
2016-07-14 23:39:24.192 STDERR [INFO] I0714 23:39:24.192008  8726 net.cpp:386] inception_4a/relu_5x5 -> inception_4a/5x5 (in-place)
2016-07-14 23:39:24.193 STDERR [INFO] I0714 23:39:24.193070  8730 net.cpp:141] Setting up inception_4a/5x5
2016-07-14 23:39:24.193 STDERR [INFO] I0714 23:39:24.193089  8726 net.cpp:141] Setting up inception_4a/relu_5x5
2016-07-14 23:39:24.193 STDERR [INFO] I0714 23:39:24.193092  8730 net.cpp:148] Top shape: 10 48 14 14 (94080)
2016-07-14 23:39:24.193 STDERR [INFO] I0714 23:39:24.193105  8726 net.cpp:148] Top shape: 10 48 14 14 (94080)
2016-07-14 23:39:24.193 STDERR [INFO] I0714 23:39:24.193106  8730 net.cpp:156] Memory required for data: 364403200
2016-07-14 23:39:24.193 STDERR [INFO] I0714 23:39:24.193114  8726 net.cpp:156] Memory required for data: 364779520
2016-07-14 23:39:24.193 STDERR [INFO] I0714 23:39:24.193120  8726 layer_factory.hpp:77] Creating layer inception_4a/pool
2016-07-14 23:39:24.193 STDERR [INFO] I0714 23:39:24.193122  8730 layer_factory.hpp:77] Creating layer inception_4a/relu_5x5
2016-07-14 23:39:24.193 STDERR [INFO] I0714 23:39:24.193132  8730 net.cpp:91] Creating Layer inception_4a/relu_5x5
2016-07-14 23:39:24.193 STDERR [INFO] I0714 23:39:24.193132  8726 net.cpp:91] Creating Layer inception_4a/pool
2016-07-14 23:39:24.193 STDERR [INFO] I0714 23:39:24.193138  8730 net.cpp:425] inception_4a/relu_5x5 <- inception_4a/5x5
2016-07-14 23:39:24.193 STDERR [INFO] I0714 23:39:24.193140  8726 net.cpp:425] inception_4a/pool <- pool3/3x3_s2_pool3/3x3_s2_0_split_3
2016-07-14 23:39:24.193 STDERR [INFO] I0714 23:39:24.193146  8730 net.cpp:386] inception_4a/relu_5x5 -> inception_4a/5x5 (in-place)
2016-07-14 23:39:24.193 STDERR [INFO] I0714 23:39:24.193148  8726 net.cpp:399] inception_4a/pool -> inception_4a/pool
2016-07-14 23:39:24.193 STDERR [INFO] I0714 23:39:24.193516  8726 net.cpp:141] Setting up inception_4a/pool
2016-07-14 23:39:24.193 STDERR [INFO] I0714 23:39:24.193537  8726 net.cpp:148] Top shape: 10 480 14 14 (940800)
2016-07-14 23:39:24.194 STDERR [INFO] I0714 23:39:24.193545  8726 net.cpp:156] Memory required for data: 368542720
2016-07-14 23:39:24.194 STDERR [INFO] I0714 23:39:24.193554  8726 layer_factory.hpp:77] Creating layer inception_4a/pool_proj
2016-07-14 23:39:24.194 STDERR [INFO] I0714 23:39:24.193584  8730 net.cpp:141] Setting up inception_4a/relu_5x5
2016-07-14 23:39:24.194 STDERR [INFO] I0714 23:39:24.193593  8726 net.cpp:91] Creating Layer inception_4a/pool_proj
2016-07-14 23:39:24.194 STDERR [INFO] I0714 23:39:24.193598  8730 net.cpp:148] Top shape: 10 48 14 14 (94080)
2016-07-14 23:39:24.194 STDERR [INFO] I0714 23:39:24.193610  8730 net.cpp:156] Memory required for data: 364779520
2016-07-14 23:39:24.194 STDERR [INFO] I0714 23:39:24.193610  8726 net.cpp:425] inception_4a/pool_proj <- inception_4a/pool
2016-07-14 23:39:24.194 STDERR [INFO] I0714 23:39:24.193620  8730 layer_factory.hpp:77] Creating layer inception_4a/pool
2016-07-14 23:39:24.194 STDERR [INFO] I0714 23:39:24.193636  8730 net.cpp:91] Creating Layer inception_4a/pool
2016-07-14 23:39:24.194 STDERR [INFO] I0714 23:39:24.193644  8726 net.cpp:399] inception_4a/pool_proj -> inception_4a/pool_proj
2016-07-14 23:39:24.194 STDERR [INFO] I0714 23:39:24.193646  8730 net.cpp:425] inception_4a/pool <- pool3/3x3_s2_pool3/3x3_s2_0_split_3
2016-07-14 23:39:24.194 STDERR [INFO] I0714 23:39:24.193663  8730 net.cpp:399] inception_4a/pool -> inception_4a/pool
2016-07-14 23:39:24.194 STDERR [INFO] I0714 23:39:24.193859  8730 net.cpp:141] Setting up inception_4a/pool
2016-07-14 23:39:24.194 STDERR [INFO] I0714 23:39:24.193871  8730 net.cpp:148] Top shape: 10 480 14 14 (940800)
2016-07-14 23:39:24.194 STDERR [INFO] I0714 23:39:24.193876  8730 net.cpp:156] Memory required for data: 368542720
2016-07-14 23:39:24.194 STDERR [INFO] I0714 23:39:24.193881  8730 layer_factory.hpp:77] Creating layer inception_4a/pool_proj
2016-07-14 23:39:24.194 STDERR [INFO] I0714 23:39:24.193898  8730 net.cpp:91] Creating Layer inception_4a/pool_proj
2016-07-14 23:39:24.194 STDERR [INFO] I0714 23:39:24.193904  8730 net.cpp:425] inception_4a/pool_proj <- inception_4a/pool
2016-07-14 23:39:24.194 STDERR [INFO] I0714 23:39:24.193913  8730 net.cpp:399] inception_4a/pool_proj -> inception_4a/pool_proj
2016-07-14 23:39:24.199 STDERR [INFO] I0714 23:39:24.199039  8726 net.cpp:141] Setting up inception_4a/pool_proj
2016-07-14 23:39:24.199 STDERR [INFO] I0714 23:39:24.199059  8726 net.cpp:148] Top shape: 10 64 14 14 (125440)
2016-07-14 23:39:24.199 STDERR [INFO] I0714 23:39:24.199064  8726 net.cpp:156] Memory required for data: 369044480
2016-07-14 23:39:24.199 STDERR [INFO] I0714 23:39:24.199074  8726 layer_factory.hpp:77] Creating layer inception_4a/relu_pool_proj
2016-07-14 23:39:24.199 STDERR [INFO] I0714 23:39:24.199087  8726 net.cpp:91] Creating Layer inception_4a/relu_pool_proj
2016-07-14 23:39:24.199 STDERR [INFO] I0714 23:39:24.199095  8726 net.cpp:425] inception_4a/relu_pool_proj <- inception_4a/pool_proj
2016-07-14 23:39:24.199 STDERR [INFO] I0714 23:39:24.199102  8726 net.cpp:386] inception_4a/relu_pool_proj -> inception_4a/pool_proj (in-place)
2016-07-14 23:39:24.199 STDERR [INFO] I0714 23:39:24.199479  8730 net.cpp:141] Setting up inception_4a/pool_proj
2016-07-14 23:39:24.199 STDERR [INFO] I0714 23:39:24.199496  8730 net.cpp:148] Top shape: 10 64 14 14 (125440)
2016-07-14 23:39:24.199 STDERR [INFO] I0714 23:39:24.199501  8730 net.cpp:156] Memory required for data: 369044480
2016-07-14 23:39:24.199 STDERR [INFO] I0714 23:39:24.199511  8730 layer_factory.hpp:77] Creating layer inception_4a/relu_pool_proj
2016-07-14 23:39:24.199 STDERR [INFO] I0714 23:39:24.199522  8730 net.cpp:91] Creating Layer inception_4a/relu_pool_proj
2016-07-14 23:39:24.199 STDERR [INFO] I0714 23:39:24.199529  8730 net.cpp:425] inception_4a/relu_pool_proj <- inception_4a/pool_proj
2016-07-14 23:39:24.199 STDERR [INFO] I0714 23:39:24.199537  8730 net.cpp:386] inception_4a/relu_pool_proj -> inception_4a/pool_proj (in-place)
2016-07-14 23:39:24.199 STDERR [INFO] I0714 23:39:24.199545  8726 net.cpp:141] Setting up inception_4a/relu_pool_proj
2016-07-14 23:39:24.199 STDERR [INFO] I0714 23:39:24.199559  8726 net.cpp:148] Top shape: 10 64 14 14 (125440)
2016-07-14 23:39:24.199 STDERR [INFO] I0714 23:39:24.199564  8726 net.cpp:156] Memory required for data: 369546240
2016-07-14 23:39:24.199 STDERR [INFO] I0714 23:39:24.199569  8726 layer_factory.hpp:77] Creating layer inception_4a/output
2016-07-14 23:39:24.200 STDERR [INFO] I0714 23:39:24.199579  8726 net.cpp:91] Creating Layer inception_4a/output
2016-07-14 23:39:24.200 STDERR [INFO] I0714 23:39:24.199584  8726 net.cpp:425] inception_4a/output <- inception_4a/1x1
…
2016-07-14 23:39:24.200 STDERR [INFO] I0714 23:39:24.199612  8726 net.cpp:399] inception_4a/output -> inception_4a/output
2016-07-14 23:39:24.200 n.t.s.f.RefreshingImageFetcher$ImageReader [INFO] [Timing] RequestID: 0 StreamID: home/peifeng/work/data/frame.320x240.jpg SequenceNr: 70 Entering queue: 1468553964200
2016-07-14 23:39:24.200 STDERR [INFO] I0714 23:39:24.200325  8726 net.cpp:141] Setting up inception_4a/output
2016-07-14 23:39:24.200 n.t.s.f.RefreshingImageFetcher$ImageReader [INFO] [Timing] RequestID: 0 StreamID: home/peifeng/work/data/frame.320x240.jpg SequenceNr: 71 Entering queue: 1468553964200
2016-07-14 23:39:24.200 STDERR [INFO] I0714 23:39:24.200340  8726 net.cpp:148] Top shape: 10 512 14 14 (1003520)
2016-07-14 23:39:24.200 STDERR [INFO] I0714 23:39:24.200345  8726 net.cpp:156] Memory required for data: 373560320
2016-07-14 23:39:24.200 STDERR [INFO] I0714 23:39:24.200350  8726 layer_factory.hpp:77] Creating layer inception_4a/output_inception_4a/output_0_split
2016-07-14 23:39:24.200 STDERR [INFO] I0714 23:39:24.200361  8726 net.cpp:91] Creating Layer inception_4a/output_inception_4a/output_0_split
2016-07-14 23:39:24.200 STDERR [INFO] I0714 23:39:24.200366  8726 net.cpp:425] inception_4a/output_inception_4a/output_0_split <- inception_4a/output
2016-07-14 23:39:24.200 STDERR [INFO] I0714 23:39:24.200373  8726 net.cpp:399] inception_4a/output_inception_4a/output_0_split -> inception_4a/output_inception_4a/output_0_split_0
2016-07-14 23:39:24.200 STDERR [INFO] I0714 23:39:24.200382  8726 net.cpp:399] inception_4a/output_inception_4a/output_0_split -> inception_4a/output_inception_4a/output_0_split_1
2016-07-14 23:39:24.200 STDERR [INFO] I0714 23:39:24.200392  8726 net.cpp:399] inception_4a/output_inception_4a/output_0_split -> inception_4a/output_inception_4a/output_0_split_2
2016-07-14 23:39:24.200 STDERR [INFO] I0714 23:39:24.200404  8726 net.cpp:399] inception_4a/output_inception_4a/output_0_split -> inception_4a/output_inception_4a/output_0_split_3
2016-07-14 23:39:24.200 STDERR [INFO] I0714 23:39:24.200436  8730 net.cpp:141] Setting up inception_4a/relu_pool_proj
2016-07-14 23:39:24.200 STDERR [INFO] I0714 23:39:24.200450  8730 net.cpp:148] Top shape: 10 64 14 14 (125440)
2016-07-14 23:39:24.200 STDERR [INFO] I0714 23:39:24.200455  8730 net.cpp:156] Memory required for data: 369546240
2016-07-14 23:39:24.200 STDERR [INFO] I0714 23:39:24.200461  8730 layer_factory.hpp:77] Creating layer inception_4a/output
2016-07-14 23:39:24.200 STDERR [INFO] I0714 23:39:24.200482  8730 net.cpp:91] Creating Layer inception_4a/output
2016-07-14 23:39:24.200 STDERR [INFO] I0714 23:39:24.200489  8730 net.cpp:425] inception_4a/output <- inception_4a/1x1
2016-07-14 23:39:24.201 STDERR [INFO] I0714 23:39:24.200496  8730 net.cpp:425] inception_4a/output <- inception_4a/3x3
2016-07-14 23:39:24.201 STDERR [INFO] I0714 23:39:24.200502  8730 net.cpp:425] inception_4a/output <- inception_4a/5x5
2016-07-14 23:39:24.201 STDERR [INFO] I0714 23:39:24.200508  8730 net.cpp:425] inception_4a/output <- inception_4a/pool_proj
2016-07-14 23:39:24.201 STDERR [INFO] I0714 23:39:24.200517  8730 net.cpp:399] inception_4a/output -> inception_4a/output
2016-07-14 23:39:24.201 STDERR [INFO] I0714 23:39:24.200537  8726 net.cpp:141] Setting up inception_4a/output_inception_4a/output_0_split
2016-07-14 23:39:24.201 STDERR [INFO] I0714 23:39:24.200548  8726 net.cpp:148] Top shape: 10 512 14 14 (1003520)
2016-07-14 23:39:24.201 STDERR [INFO] I0714 23:39:24.200556  8726 net.cpp:148] Top shape: 10 512 14 14 (1003520)
2016-07-14 23:39:24.201 STDERR [INFO] I0714 23:39:24.200561  8726 net.cpp:148] Top shape: 10 512 14 14 (1003520)
2016-07-14 23:39:24.201 STDERR [INFO] I0714 23:39:24.200567  8726 net.cpp:148] Top shape: 10 512 14 14 (1003520)
2016-07-14 23:39:24.202 STDERR [INFO] I0714 23:39:24.200570  8726 net.cpp:156] Memory required for data: 389616640
2016-07-14 23:39:24.202 STDERR [INFO] I0714 23:39:24.200573  8730 net.cpp:141] Setting up inception_4a/output
2016-07-14 23:39:24.202 STDERR [INFO] I0714 23:39:24.200575  8726 layer_factory.hpp:77] Creating layer inception_4b/1x1
2016-07-14 23:39:24.202 STDERR [INFO] I0714 23:39:24.200587  8730 net.cpp:148] Top shape: 10 512 14 14 (1003520)
2016-07-14 23:39:24.202 STDERR [INFO] I0714 23:39:24.200592  8730 net.cpp:156] Memory required for data: 373560320
2016-07-14 23:39:24.202 STDERR [INFO] I0714 23:39:24.200598  8730 layer_factory.hpp:77] Creating layer inception_4a/output_inception_4a/output_0_split
2016-07-14 23:39:24.202 STDERR [INFO] I0714 23:39:24.200611  8726 net.cpp:91] Creating Layer inception_4b/1x1
2016-07-14 23:39:24.202 STDERR [INFO] I0714 23:39:24.200618  8730 net.cpp:91] Creating Layer inception_4a/output_inception_4a/output_0_split
…
2016-07-14 23:39:24.202 STDERR [INFO] I0714 23:39:24.200645  8730 net.cpp:399] inception_4a/output_inception_4a/output_0_split -> inception_4a/output_inception_4a/output_0_split_1
2016-07-14 23:39:24.202 STDERR [INFO] I0714 23:39:24.200654  8730 net.cpp:399] inception_4a/output_inception_4a/output_0_split -> inception_4a/output_inception_4a/output_0_split_2
2016-07-14 23:39:24.202 STDERR [INFO] I0714 23:39:24.200665  8730 net.cpp:399] inception_4a/output_inception_4a/output_0_split -> inception_4a/output_inception_4a/output_0_split_3
2016-07-14 23:39:24.202 STDERR [INFO] I0714 23:39:24.201035  8730 net.cpp:141] Setting up inception_4a/output_inception_4a/output_0_split
2016-07-14 23:39:24.202 STDERR [INFO] I0714 23:39:24.201047  8730 net.cpp:148] Top shape: 10 512 14 14 (1003520)
2016-07-14 23:39:24.202 STDERR [INFO] I0714 23:39:24.201053  8730 net.cpp:148] Top shape: 10 512 14 14 (1003520)
2016-07-14 23:39:24.202 STDERR [INFO] I0714 23:39:24.201058  8730 net.cpp:148] Top shape: 10 512 14 14 (1003520)
2016-07-14 23:39:24.202 STDERR [INFO] I0714 23:39:24.201064  8730 net.cpp:148] Top shape: 10 512 14 14 (1003520)
2016-07-14 23:39:24.202 STDERR [INFO] I0714 23:39:24.201068  8730 net.cpp:156] Memory required for data: 389616640
2016-07-14 23:39:24.202 STDERR [INFO] I0714 23:39:24.201073  8730 layer_factory.hpp:77] Creating layer inception_4b/1x1
2016-07-14 23:39:24.202 STDERR [INFO] I0714 23:39:24.201089  8730 net.cpp:91] Creating Layer inception_4b/1x1
2016-07-14 23:39:24.203 STDERR [INFO] I0714 23:39:24.201094  8730 net.cpp:425] inception_4b/1x1 <- inception_4a/output_inception_4a/output_0_split_0
2016-07-14 23:39:24.203 STDERR [INFO] I0714 23:39:24.201107  8730 net.cpp:399] inception_4b/1x1 -> inception_4b/1x1
2016-07-14 23:39:24.204 n.t.s.s.CVParticleSpout [INFO] [Timing] RequestID: 0 StreamID: home/peifeng/work/data/frame.320x240.jpg SequenceNr: 69 Leaving fetcher: 1468553964204 Size: 8702
2016-07-14 23:39:24.204 n.t.s.b.CVParticleBolt [INFO] [Timing] RequestID: 0 StreamID: home/peifeng/work/data/frame.320x240.jpg SequenceNr: 69 Entering scale: 1468553964204
2016-07-14 23:39:24.207 STDERR [INFO] I0714 23:39:24.207371  8730 net.cpp:141] Setting up inception_4b/1x1
2016-07-14 23:39:24.207 STDERR [INFO] I0714 23:39:24.207419  8730 net.cpp:148] Top shape: 10 160 14 14 (313600)
2016-07-14 23:39:24.207 STDERR [INFO] I0714 23:39:24.207425  8730 net.cpp:156] Memory required for data: 390871040
2016-07-14 23:39:24.207 STDERR [INFO] I0714 23:39:24.207442  8730 layer_factory.hpp:77] Creating layer inception_4b/relu_1x1
2016-07-14 23:39:24.207 STDERR [INFO] I0714 23:39:24.207459  8730 net.cpp:91] Creating Layer inception_4b/relu_1x1
2016-07-14 23:39:24.207 STDERR [INFO] I0714 23:39:24.207468  8730 net.cpp:425] inception_4b/relu_1x1 <- inception_4b/1x1
2016-07-14 23:39:24.207 STDERR [INFO] I0714 23:39:24.207479  8730 net.cpp:386] inception_4b/relu_1x1 -> inception_4b/1x1 (in-place)
2016-07-14 23:39:24.208 n.t.s.s.CVParticleSpout [INFO] [Timing] RequestID: 0 StreamID: home/peifeng/work/data/frame.320x240.jpg SequenceNr: 70 Leaving fetcher: 1468553964208 Size: 8702
2016-07-14 23:39:24.208 n.t.s.b.CVParticleBolt [INFO] [Timing] RequestID: 0 StreamID: home/peifeng/work/data/frame.320x240.jpg SequenceNr: 70 Entering scale: 1468553964208
2016-07-14 23:39:24.209 STDERR [INFO] I0714 23:39:24.209025  8730 net.cpp:141] Setting up inception_4b/relu_1x1
2016-07-14 23:39:24.209 STDERR [INFO] I0714 23:39:24.209022  8726 net.cpp:141] Setting up inception_4b/1x1
2016-07-14 23:39:24.209 STDERR [INFO] I0714 23:39:24.209049  8730 net.cpp:148] Top shape: 10 160 14 14 (313600)
2016-07-14 23:39:24.209 STDERR [INFO] I0714 23:39:24.209055  8730 net.cpp:156] Memory required for data: 392125440
2016-07-14 23:39:24.209 STDERR [INFO] I0714 23:39:24.209061  8730 layer_factory.hpp:77] Creating layer inception_4b/3x3_reduce
2016-07-14 23:39:24.209 STDERR [INFO] I0714 23:39:24.209062  8726 net.cpp:148] Top shape: 10 160 14 14 (313600)
2016-07-14 23:39:24.209 STDERR [INFO] I0714 23:39:24.209072  8726 net.cpp:156] Memory required for data: 390871040
2016-07-14 23:39:24.209 STDERR [INFO] I0714 23:39:24.209086  8730 net.cpp:91] Creating Layer inception_4b/3x3_reduce
2016-07-14 23:39:24.209 STDERR [INFO] I0714 23:39:24.209090  8726 layer_factory.hpp:77] Creating layer inception_4b/relu_1x1
2016-07-14 23:39:24.209 STDERR [INFO] I0714 23:39:24.209094  8730 net.cpp:425] inception_4b/3x3_reduce <- inception_4a/output_inception_4a/output_0_split_1
2016-07-14 23:39:24.209 STDERR [INFO] I0714 23:39:24.209110  8726 net.cpp:91] Creating Layer inception_4b/relu_1x1
2016-07-14 23:39:24.209 STDERR [INFO] I0714 23:39:24.209113  8730 net.cpp:399] inception_4b/3x3_reduce -> inception_4b/3x3_reduce
2016-07-14 23:39:24.209 STDERR [INFO] I0714 23:39:24.209122  8726 net.cpp:425] inception_4b/relu_1x1 <- inception_4b/1x1
2016-07-14 23:39:24.209 STDERR [INFO] I0714 23:39:24.209141  8726 net.cpp:386] inception_4b/relu_1x1 -> inception_4b/1x1 (in-place)
2016-07-14 23:39:24.210 STDERR [INFO] I0714 23:39:24.210021  8726 net.cpp:141] Setting up inception_4b/relu_1x1
2016-07-14 23:39:24.210 STDERR [INFO] I0714 23:39:24.210048  8726 net.cpp:148] Top shape: 10 160 14 14 (313600)
2016-07-14 23:39:24.210 STDERR [INFO] I0714 23:39:24.210058  8726 net.cpp:156] Memory required for data: 392125440
2016-07-14 23:39:24.210 STDERR [INFO] I0714 23:39:24.210069  8726 layer_factory.hpp:77] Creating layer inception_4b/3x3_reduce
2016-07-14 23:39:24.210 STDERR [INFO] I0714 23:39:24.210100  8726 net.cpp:91] Creating Layer inception_4b/3x3_reduce
2016-07-14 23:39:24.210 STDERR [INFO] I0714 23:39:24.210115  8726 net.cpp:425] inception_4b/3x3_reduce <- inception_4a/output_inception_4a/output_0_split_1
…
2016-07-14 23:39:24.211 n.t.s.b.CVParticleBolt [INFO] [Timing] RequestID: 0 StreamID: home/peifeng/work/data/frame.320x240.jpg SequenceNr: 71 Entering scale: 1468553964211
2016-07-14 23:39:24.211 n.t.s.b.CVParticleBolt [INFO] [Timing] RequestID: 0 StreamID: home/peifeng/work/data/frame.320x240.jpg SequenceNr: 69 Leaving scale: 1468553964211 Size: 3530
2016-07-14 23:39:24.214 n.t.s.b.CVParticleBolt [INFO] [Timing] RequestID: 0 StreamID: home/peifeng/work/data/frame.320x240.jpg SequenceNr: 70 Leaving scale: 1468553964214 Size: 3530
2016-07-14 23:39:24.216 STDERR [INFO] I0714 23:39:24.216177  8730 net.cpp:141] Setting up inception_4b/3x3_reduce
2016-07-14 23:39:24.216 STDERR [INFO] I0714 23:39:24.216203  8730 net.cpp:148] Top shape: 10 112 14 14 (219520)
2016-07-14 23:39:24.216 STDERR [INFO] I0714 23:39:24.216209  8730 net.cpp:156] Memory required for data: 393003520
2016-07-14 23:39:24.216 STDERR [INFO] I0714 23:39:24.216223  8730 layer_factory.hpp:77] Creating layer inception_4b/relu_3x3_reduce
2016-07-14 23:39:24.216 STDERR [INFO] I0714 23:39:24.216235  8730 net.cpp:91] Creating Layer inception_4b/relu_3x3_reduce
2016-07-14 23:39:24.216 STDERR [INFO] I0714 23:39:24.216245  8730 net.cpp:425] inception_4b/relu_3x3_reduce <- inception_4b/3x3_reduce
2016-07-14 23:39:24.216 STDERR [INFO] I0714 23:39:24.216254  8730 net.cpp:386] inception_4b/relu_3x3_reduce -> inception_4b/3x3_reduce (in-place)
2016-07-14 23:39:24.216 n.t.s.b.CVParticleBolt [INFO] [Timing] RequestID: 0 StreamID: home/peifeng/work/data/frame.320x240.jpg SequenceNr: 71 Leaving scale: 1468553964216 Size: 3530
2016-07-14 23:39:24.217 STDERR [INFO] I0714 23:39:24.217291  8726 net.cpp:141] Setting up inception_4b/3x3_reduce
2016-07-14 23:39:24.217 STDERR [INFO] I0714 23:39:24.217313  8726 net.cpp:148] Top shape: 10 112 14 14 (219520)
2016-07-14 23:39:24.217 STDERR [INFO] I0714 23:39:24.217317  8726 net.cpp:156] Memory required for data: 393003520
2016-07-14 23:39:24.217 STDERR [INFO] I0714 23:39:24.217329  8726 layer_factory.hpp:77] Creating layer inception_4b/relu_3x3_reduce
2016-07-14 23:39:24.217 STDERR [INFO] I0714 23:39:24.217339  8726 net.cpp:91] Creating Layer inception_4b/relu_3x3_reduce
2016-07-14 23:39:24.217 STDERR [INFO] I0714 23:39:24.217345  8726 net.cpp:425] inception_4b/relu_3x3_reduce <- inception_4b/3x3_reduce
2016-07-14 23:39:24.217 STDERR [INFO] I0714 23:39:24.217353  8726 net.cpp:386] inception_4b/relu_3x3_reduce -> inception_4b/3x3_reduce (in-place)
2016-07-14 23:39:24.217 STDERR [INFO] I0714 23:39:24.217360  8730 net.cpp:141] Setting up inception_4b/relu_3x3_reduce
2016-07-14 23:39:24.217 STDERR [INFO] I0714 23:39:24.217375  8730 net.cpp:148] Top shape: 10 112 14 14 (219520)
2016-07-14 23:39:24.217 STDERR [INFO] I0714 23:39:24.217380  8730 net.cpp:156] Memory required for data: 393881600
2016-07-14 23:39:24.217 STDERR [INFO] I0714 23:39:24.217384  8730 layer_factory.hpp:77] Creating layer inception_4b/3x3
2016-07-14 23:39:24.217 STDERR [INFO] I0714 23:39:24.217412  8730 net.cpp:91] Creating Layer inception_4b/3x3
2016-07-14 23:39:24.217 STDERR [INFO] I0714 23:39:24.217418  8730 net.cpp:425] inception_4b/3x3 <- inception_4b/3x3_reduce
2016-07-14 23:39:24.217 STDERR [INFO] I0714 23:39:24.217432  8730 net.cpp:399] inception_4b/3x3 -> inception_4b/3x3
2016-07-14 23:39:24.219 STDERR [INFO] I0714 23:39:24.219151  8726 net.cpp:141] Setting up inception_4b/relu_3x3_reduce
2016-07-14 23:39:24.219 STDERR [INFO] I0714 23:39:24.219168  8726 net.cpp:148] Top shape: 10 112 14 14 (219520)
2016-07-14 23:39:24.219 STDERR [INFO] I0714 23:39:24.219173  8726 net.cpp:156] Memory required for data: 393881600
2016-07-14 23:39:24.219 STDERR [INFO] I0714 23:39:24.219179  8726 layer_factory.hpp:77] Creating layer inception_4b/3x3
2016-07-14 23:39:24.219 STDERR [INFO] I0714 23:39:24.219198  8726 net.cpp:91] Creating Layer inception_4b/3x3
2016-07-14 23:39:24.219 STDERR [INFO] I0714 23:39:24.219204  8726 net.cpp:425] inception_4b/3x3 <- inception_4b/3x3_reduce
2016-07-14 23:39:24.219 STDERR [INFO] I0714 23:39:24.219218  8726 net.cpp:399] inception_4b/3x3 -> inception_4b/3x3
2016-07-14 23:39:24.225 STDERR [INFO] I0714 23:39:24.225150  8730 net.cpp:141] Setting up inception_4b/3x3
2016-07-14 23:39:24.225 STDERR [INFO] I0714 23:39:24.225172  8730 net.cpp:148] Top shape: 10 224 14 14 (439040)
2016-07-14 23:39:24.225 STDERR [INFO] I0714 23:39:24.225178  8730 net.cpp:156] Memory required for data: 395637760
2016-07-14 23:39:24.225 STDERR [INFO] I0714 23:39:24.225188  8730 layer_factory.hpp:77] Creating layer inception_4b/relu_3x3
2016-07-14 23:39:24.225 STDERR [INFO] I0714 23:39:24.225199  8730 net.cpp:91] Creating Layer inception_4b/relu_3x3
2016-07-14 23:39:24.225 STDERR [INFO] I0714 23:39:24.225205  8730 net.cpp:425] inception_4b/relu_3x3 <- inception_4b/3x3
2016-07-14 23:39:24.225 STDERR [INFO] I0714 23:39:24.225216  8730 net.cpp:386] inception_4b/relu_3x3 -> inception_4b/3x3 (in-place)
2016-07-14 23:39:24.226 STDERR [INFO] I0714 23:39:24.226862  8730 net.cpp:141] Setting up inception_4b/relu_3x3
2016-07-14 23:39:24.226 STDERR [INFO] I0714 23:39:24.226883  8730 net.cpp:148] Top shape: 10 224 14 14 (439040)
2016-07-14 23:39:24.227 STDERR [INFO] I0714 23:39:24.226889  8730 net.cpp:156] Memory required for data: 397393920
2016-07-14 23:39:24.227 STDERR [INFO] I0714 23:39:24.226897  8730 layer_factory.hpp:77] Creating layer inception_4b/5x5_reduce
2016-07-14 23:39:24.227 STDERR [INFO] I0714 23:39:24.226953  8730 net.cpp:91] Creating Layer inception_4b/5x5_reduce
2016-07-14 23:39:24.227 STDERR [INFO] I0714 23:39:24.226964  8730 net.cpp:425] inception_4b/5x5_reduce <- inception_4a/output_inception_4a/output_0_split_2
2016-07-14 23:39:24.227 STDERR [INFO] I0714 23:39:24.226977  8730 net.cpp:399] inception_4b/5x5_reduce -> inception_4b/5x5_reduce
2016-07-14 23:39:24.227 STDERR [INFO] I0714 23:39:24.227138  8726 net.cpp:141] Setting up inception_4b/3x3
2016-07-14 23:39:24.227 STDERR [INFO] I0714 23:39:24.227157  8726 net.cpp:148] Top shape: 10 224 14 14 (439040)
2016-07-14 23:39:24.227 STDERR [INFO] I0714 23:39:24.227164  8726 net.cpp:156] Memory required for data: 395637760
2016-07-14 23:39:24.227 STDERR [INFO] I0714 23:39:24.227175  8726 layer_factory.hpp:77] Creating layer inception_4b/relu_3x3
2016-07-14 23:39:24.227 STDERR [INFO] I0714 23:39:24.227205  8726 net.cpp:91] Creating Layer inception_4b/relu_3x3
2016-07-14 23:39:24.227 STDERR [INFO] I0714 23:39:24.227216  8726 net.cpp:425] inception_4b/relu_3x3 <- inception_4b/3x3
2016-07-14 23:39:24.227 STDERR [INFO] I0714 23:39:24.227224  8726 net.cpp:386] inception_4b/relu_3x3 -> inception_4b/3x3 (in-place)
2016-07-14 23:39:24.228 STDERR [INFO] I0714 23:39:24.228401  8726 net.cpp:141] Setting up inception_4b/relu_3x3
2016-07-14 23:39:24.228 STDERR [INFO] I0714 23:39:24.228420  8726 net.cpp:148] Top shape: 10 224 14 14 (439040)
2016-07-14 23:39:24.228 STDERR [INFO] I0714 23:39:24.228425  8726 net.cpp:156] Memory required for data: 397393920
2016-07-14 23:39:24.228 STDERR [INFO] I0714 23:39:24.228431  8726 layer_factory.hpp:77] Creating layer inception_4b/5x5_reduce
2016-07-14 23:39:24.228 STDERR [INFO] I0714 23:39:24.228485  8726 net.cpp:91] Creating Layer inception_4b/5x5_reduce
2016-07-14 23:39:24.228 STDERR [INFO] I0714 23:39:24.228497  8726 net.cpp:425] inception_4b/5x5_reduce <- inception_4a/output_inception_4a/output_0_split_2
2016-07-14 23:39:24.228 STDERR [INFO] I0714 23:39:24.228508  8726 net.cpp:399] inception_4b/5x5_reduce -> inception_4b/5x5_reduce
2016-07-14 23:39:24.233 STDERR [INFO] I0714 23:39:24.233602  8730 net.cpp:141] Setting up inception_4b/5x5_reduce
2016-07-14 23:39:24.233 STDERR [INFO] I0714 23:39:24.233621  8730 net.cpp:148] Top shape: 10 24 14 14 (47040)
2016-07-14 23:39:24.233 STDERR [INFO] I0714 23:39:24.233628  8730 net.cpp:156] Memory required for data: 397582080
2016-07-14 23:39:24.233 STDERR [INFO] I0714 23:39:24.233639  8730 layer_factory.hpp:77] Creating layer inception_4b/relu_5x5_reduce
2016-07-14 23:39:24.233 STDERR [INFO] I0714 23:39:24.233650  8730 net.cpp:91] Creating Layer inception_4b/relu_5x5_reduce
2016-07-14 23:39:24.233 STDERR [INFO] I0714 23:39:24.233657  8730 net.cpp:425] inception_4b/relu_5x5_reduce <- inception_4b/5x5_reduce
2016-07-14 23:39:24.234 STDERR [INFO] I0714 23:39:24.233671  8730 net.cpp:386] inception_4b/relu_5x5_reduce -> inception_4b/5x5_reduce (in-place)
2016-07-14 23:39:24.234 STDERR [INFO] I0714 23:39:24.234943  8730 net.cpp:141] Setting up inception_4b/relu_5x5_reduce
2016-07-14 23:39:24.235 STDERR [INFO] I0714 23:39:24.234961  8730 net.cpp:148] Top shape: 10 24 14 14 (47040)
2016-07-14 23:39:24.235 STDERR [INFO] I0714 23:39:24.234968  8730 net.cpp:156] Memory required for data: 397770240
2016-07-14 23:39:24.235 STDERR [INFO] I0714 23:39:24.234975  8730 layer_factory.hpp:77] Creating layer inception_4b/5x5
2016-07-14 23:39:24.235 STDERR [INFO] I0714 23:39:24.235009  8730 net.cpp:91] Creating Layer inception_4b/5x5
2016-07-14 23:39:24.235 STDERR [INFO] I0714 23:39:24.235020  8730 net.cpp:425] inception_4b/5x5 <- inception_4b/5x5_reduce
2016-07-14 23:39:24.235 STDERR [INFO] I0714 23:39:24.235040  8730 net.cpp:399] inception_4b/5x5 -> inception_4b/5x5
2016-07-14 23:39:24.235 STDERR [INFO] I0714 23:39:24.235218  8726 net.cpp:141] Setting up inception_4b/5x5_reduce
2016-07-14 23:39:24.235 STDERR [INFO] I0714 23:39:24.235234  8726 net.cpp:148] Top shape: 10 24 14 14 (47040)
2016-07-14 23:39:24.235 STDERR [INFO] I0714 23:39:24.235240  8726 net.cpp:156] Memory required for data: 397582080
2016-07-14 23:39:24.235 STDERR [INFO] I0714 23:39:24.235251  8726 layer_factory.hpp:77] Creating layer inception_4b/relu_5x5_reduce
2016-07-14 23:39:24.235 STDERR [INFO] I0714 23:39:24.235263  8726 net.cpp:91] Creating Layer inception_4b/relu_5x5_reduce
2016-07-14 23:39:24.235 STDERR [INFO] I0714 23:39:24.235270  8726 net.cpp:425] inception_4b/relu_5x5_reduce <- inception_4b/5x5_reduce
2016-07-14 23:39:24.235 STDERR [INFO] I0714 23:39:24.235278  8726 net.cpp:386] inception_4b/relu_5x5_reduce -> inception_4b/5x5_reduce (in-place)
2016-07-14 23:39:24.235 STDERR [INFO] I0714 23:39:24.235893  8726 net.cpp:141] Setting up inception_4b/relu_5x5_reduce
2016-07-14 23:39:24.235 STDERR [INFO] I0714 23:39:24.235909  8726 net.cpp:148] Top shape: 10 24 14 14 (47040)
2016-07-14 23:39:24.236 STDERR [INFO] I0714 23:39:24.235916  8726 net.cpp:156] Memory required for data: 397770240
2016-07-14 23:39:24.236 STDERR [INFO] I0714 23:39:24.235923  8726 layer_factory.hpp:77] Creating layer inception_4b/5x5
2016-07-14 23:39:24.236 STDERR [INFO] I0714 23:39:24.235944  8726 net.cpp:91] Creating Layer inception_4b/5x5
2016-07-14 23:39:24.236 STDERR [INFO] I0714 23:39:24.235951  8726 net.cpp:425] inception_4b/5x5 <- inception_4b/5x5_reduce
2016-07-14 23:39:24.236 STDERR [INFO] I0714 23:39:24.235985  8726 net.cpp:399] inception_4b/5x5 -> inception_4b/5x5
2016-07-14 23:39:24.245 STDERR [INFO] I0714 23:39:24.245262  8730 net.cpp:141] Setting up inception_4b/5x5
2016-07-14 23:39:24.245 STDERR [INFO] I0714 23:39:24.245281  8730 net.cpp:148] Top shape: 10 64 14 14 (125440)
2016-07-14 23:39:24.245 STDERR [INFO] I0714 23:39:24.245287  8730 net.cpp:156] Memory required for data: 398272000
2016-07-14 23:39:24.245 STDERR [INFO] I0714 23:39:24.245296  8730 layer_factory.hpp:77] Creating layer inception_4b/relu_5x5
2016-07-14 23:39:24.245 STDERR [INFO] I0714 23:39:24.245309  8730 net.cpp:91] Creating Layer inception_4b/relu_5x5
2016-07-14 23:39:24.245 STDERR [INFO] I0714 23:39:24.245316  8730 net.cpp:425] inception_4b/relu_5x5 <- inception_4b/5x5
2016-07-14 23:39:24.245 STDERR [INFO] I0714 23:39:24.245324  8730 net.cpp:386] inception_4b/relu_5x5 -> inception_4b/5x5 (in-place)
2016-07-14 23:39:24.246 STDERR [INFO] I0714 23:39:24.246215  8726 net.cpp:141] Setting up inception_4b/5x5
2016-07-14 23:39:24.246 STDERR [INFO] I0714 23:39:24.246234  8726 net.cpp:148] Top shape: 10 64 14 14 (125440)
2016-07-14 23:39:24.246 STDERR [INFO] I0714 23:39:24.246239  8726 net.cpp:156] Memory required for data: 398272000
2016-07-14 23:39:24.246 STDERR [INFO] I0714 23:39:24.246249  8726 layer_factory.hpp:77] Creating layer inception_4b/relu_5x5
2016-07-14 23:39:24.246 STDERR [INFO] I0714 23:39:24.246261  8726 net.cpp:91] Creating Layer inception_4b/relu_5x5
2016-07-14 23:39:24.246 STDERR [INFO] I0714 23:39:24.246268  8726 net.cpp:425] inception_4b/relu_5x5 <- inception_4b/5x5
2016-07-14 23:39:24.246 STDERR [INFO] I0714 23:39:24.246276  8726 net.cpp:386] inception_4b/relu_5x5 -> inception_4b/5x5 (in-place)
2016-07-14 23:39:24.246 STDERR [INFO] I0714 23:39:24.246508  8730 net.cpp:141] Setting up inception_4b/relu_5x5
2016-07-14 23:39:24.246 STDERR [INFO] I0714 23:39:24.246523  8730 net.cpp:148] Top shape: 10 64 14 14 (125440)
2016-07-14 23:39:24.246 STDERR [INFO] I0714 23:39:24.246531  8730 net.cpp:156] Memory required for data: 398773760
2016-07-14 23:39:24.246 STDERR [INFO] I0714 23:39:24.246536  8730 layer_factory.hpp:77] Creating layer inception_4b/pool
2016-07-14 23:39:24.246 STDERR [INFO] I0714 23:39:24.246551  8730 net.cpp:91] Creating Layer inception_4b/pool
2016-07-14 23:39:24.246 STDERR [INFO] I0714 23:39:24.246556  8730 net.cpp:425] inception_4b/pool <- inception_4a/output_inception_4a/output_0_split_3
2016-07-14 23:39:24.246 STDERR [INFO] I0714 23:39:24.246564  8730 net.cpp:399] inception_4b/pool -> inception_4b/pool
2016-07-14 23:39:24.247 STDERR [INFO] I0714 23:39:24.246614  8726 net.cpp:141] Setting up inception_4b/relu_5x5
2016-07-14 23:39:24.247 STDERR [INFO] I0714 23:39:24.246628  8726 net.cpp:148] Top shape: 10 64 14 14 (125440)
2016-07-14 23:39:24.247 STDERR [INFO] I0714 23:39:24.246632  8726 net.cpp:156] Memory required for data: 398773760
2016-07-14 23:39:24.247 STDERR [INFO] I0714 23:39:24.246637  8726 layer_factory.hpp:77] Creating layer inception_4b/pool
2016-07-14 23:39:24.247 STDERR [INFO] I0714 23:39:24.246650  8726 net.cpp:91] Creating Layer inception_4b/pool
2016-07-14 23:39:24.247 STDERR [INFO] I0714 23:39:24.246656  8726 net.cpp:425] inception_4b/pool <- inception_4a/output_inception_4a/output_0_split_3
2016-07-14 23:39:24.247 STDERR [INFO] I0714 23:39:24.246667  8726 net.cpp:399] inception_4b/pool -> inception_4b/pool
2016-07-14 23:39:24.247 STDERR [INFO] I0714 23:39:24.246695  8730 net.cpp:141] Setting up inception_4b/pool
2016-07-14 23:39:24.247 STDERR [INFO] I0714 23:39:24.246707  8730 net.cpp:148] Top shape: 10 512 14 14 (1003520)
2016-07-14 23:39:24.247 STDERR [INFO] I0714 23:39:24.246712  8730 net.cpp:156] Memory required for data: 402787840
2016-07-14 23:39:24.247 STDERR [INFO] I0714 23:39:24.246717  8730 layer_factory.hpp:77] Creating layer inception_4b/pool_proj
2016-07-14 23:39:24.247 STDERR [INFO] I0714 23:39:24.246736  8730 net.cpp:91] Creating Layer inception_4b/pool_proj
2016-07-14 23:39:24.247 STDERR [INFO] I0714 23:39:24.246747  8730 net.cpp:425] inception_4b/pool_proj <- inception_4b/pool
2016-07-14 23:39:24.247 STDERR [INFO] I0714 23:39:24.246764  8730 net.cpp:399] inception_4b/pool_proj -> inception_4b/pool_proj
2016-07-14 23:39:24.247 STDERR [INFO] I0714 23:39:24.246769  8726 net.cpp:141] Setting up inception_4b/pool
2016-07-14 23:39:24.247 STDERR [INFO] I0714 23:39:24.246781  8726 net.cpp:148] Top shape: 10 512 14 14 (1003520)
2016-07-14 23:39:24.247 STDERR [INFO] I0714 23:39:24.246785  8726 net.cpp:156] Memory required for data: 402787840
2016-07-14 23:39:24.247 STDERR [INFO] I0714 23:39:24.246790  8726 layer_factory.hpp:77] Creating layer inception_4b/pool_proj
2016-07-14 23:39:24.247 STDERR [INFO] I0714 23:39:24.246808  8726 net.cpp:91] Creating Layer inception_4b/pool_proj
2016-07-14 23:39:24.247 STDERR [INFO] I0714 23:39:24.246814  8726 net.cpp:425] inception_4b/pool_proj <- inception_4b/pool
2016-07-14 23:39:24.247 STDERR [INFO] I0714 23:39:24.246825  8726 net.cpp:399] inception_4b/pool_proj -> inception_4b/pool_proj
2016-07-14 23:39:24.252 STDERR [INFO] I0714 23:39:24.252076  8730 net.cpp:141] Setting up inception_4b/pool_proj
2016-07-14 23:39:24.252 STDERR [INFO] I0714 23:39:24.252095  8730 net.cpp:148] Top shape: 10 64 14 14 (125440)
2016-07-14 23:39:24.252 STDERR [INFO] I0714 23:39:24.252100  8730 net.cpp:156] Memory required for data: 403289600
2016-07-14 23:39:24.252 STDERR [INFO] I0714 23:39:24.252110  8730 layer_factory.hpp:77] Creating layer inception_4b/relu_pool_proj
2016-07-14 23:39:24.252 STDERR [INFO] I0714 23:39:24.252123  8730 net.cpp:91] Creating Layer inception_4b/relu_pool_proj
2016-07-14 23:39:24.252 STDERR [INFO] I0714 23:39:24.252130  8730 net.cpp:425] inception_4b/relu_pool_proj <- inception_4b/pool_proj
2016-07-14 23:39:24.252 STDERR [INFO] I0714 23:39:24.252140  8730 net.cpp:386] inception_4b/relu_pool_proj -> inception_4b/pool_proj (in-place)
2016-07-14 23:39:24.252 STDERR [INFO] I0714 23:39:24.252526  8726 net.cpp:141] Setting up inception_4b/pool_proj
2016-07-14 23:39:24.252 STDERR [INFO] I0714 23:39:24.252542  8726 net.cpp:148] Top shape: 10 64 14 14 (125440)
2016-07-14 23:39:24.252 STDERR [INFO] I0714 23:39:24.252547  8726 net.cpp:156] Memory required for data: 403289600
2016-07-14 23:39:24.252 STDERR [INFO] I0714 23:39:24.252557  8726 layer_factory.hpp:77] Creating layer inception_4b/relu_pool_proj
2016-07-14 23:39:24.252 STDERR [INFO] I0714 23:39:24.252568  8726 net.cpp:91] Creating Layer inception_4b/relu_pool_proj
2016-07-14 23:39:24.252 STDERR [INFO] I0714 23:39:24.252573  8726 net.cpp:425] inception_4b/relu_pool_proj <- inception_4b/pool_proj
2016-07-14 23:39:24.252 STDERR [INFO] I0714 23:39:24.252591  8726 net.cpp:386] inception_4b/relu_pool_proj -> inception_4b/pool_proj (in-place)
2016-07-14 23:39:24.252 STDERR [INFO] I0714 23:39:24.252612  8730 net.cpp:141] Setting up inception_4b/relu_pool_proj
2016-07-14 23:39:24.252 STDERR [INFO] I0714 23:39:24.252625  8730 net.cpp:148] Top shape: 10 64 14 14 (125440)
2016-07-14 23:39:24.252 STDERR [INFO] I0714 23:39:24.252630  8730 net.cpp:156] Memory required for data: 403791360
2016-07-14 23:39:24.253 STDERR [INFO] I0714 23:39:24.252635  8730 layer_factory.hpp:77] Creating layer inception_4b/output
2016-07-14 23:39:24.253 STDERR [INFO] I0714 23:39:24.252645  8730 net.cpp:91] Creating Layer inception_4b/output
2016-07-14 23:39:24.253 STDERR [INFO] I0714 23:39:24.252651  8730 net.cpp:425] inception_4b/output <- inception_4b/1x1
2016-07-14 23:39:24.253 STDERR [INFO] I0714 23:39:24.252660  8730 net.cpp:425] inception_4b/output <- inception_4b/3x3
2016-07-14 23:39:24.253 STDERR [INFO] I0714 23:39:24.252665  8730 net.cpp:425] inception_4b/output <- inception_4b/5x5
2016-07-14 23:39:24.253 STDERR [INFO] I0714 23:39:24.252671  8730 net.cpp:425] inception_4b/output <- inception_4b/pool_proj
2016-07-14 23:39:24.253 STDERR [INFO] I0714 23:39:24.252681  8730 net.cpp:399] inception_4b/output -> inception_4b/output
2016-07-14 23:39:24.253 STDERR [INFO] I0714 23:39:24.253427  8730 net.cpp:141] Setting up inception_4b/output
2016-07-14 23:39:24.253 STDERR [INFO] I0714 23:39:24.253440  8730 net.cpp:148] Top shape: 10 512 14 14 (1003520)
2016-07-14 23:39:24.253 STDERR [INFO] I0714 23:39:24.253445  8730 net.cpp:156] Memory required for data: 407805440
2016-07-14 23:39:24.253 STDERR [INFO] I0714 23:39:24.253450  8730 layer_factory.hpp:77] Creating layer inception_4b/output_inception_4b/output_0_split
2016-07-14 23:39:24.253 STDERR [INFO] I0714 23:39:24.253461  8730 net.cpp:91] Creating Layer inception_4b/output_inception_4b/output_0_split
2016-07-14 23:39:24.253 STDERR [INFO] I0714 23:39:24.253466  8730 net.cpp:425] inception_4b/output_inception_4b/output_0_split <- inception_4b/output
2016-07-14 23:39:24.253 STDERR [INFO] I0714 23:39:24.253479  8730 net.cpp:399] inception_4b/output_inception_4b/output_0_split -> inception_4b/output_inception_4b/output_0_split_0
2016-07-14 23:39:24.253 STDERR [INFO] I0714 23:39:24.253489  8730 net.cpp:399] inception_4b/output_inception_4b/output_0_split -> inception_4b/output_inception_4b/output_0_split_1
2016-07-14 23:39:24.254 STDERR [INFO] I0714 23:39:24.253499  8730 net.cpp:399] inception_4b/output_inception_4b/output_0_split -> inception_4b/output_inception_4b/output_0_split_2
2016-07-14 23:39:24.254 STDERR [INFO] I0714 23:39:24.253506  8730 net.cpp:399] inception_4b/output_inception_4b/output_0_split -> inception_4b/output_inception_4b/output_0_split_3
2016-07-14 23:39:24.254 STDERR [INFO] I0714 23:39:24.253598  8726 net.cpp:141] Setting up inception_4b/relu_pool_proj
2016-07-14 23:39:24.254 STDERR [INFO] I0714 23:39:24.253612  8726 net.cpp:148] Top shape: 10 64 14 14 (125440)
2016-07-14 23:39:24.254 STDERR [INFO] I0714 23:39:24.253618  8726 net.cpp:156] Memory required for data: 403791360
2016-07-14 23:39:24.254 STDERR [INFO] I0714 23:39:24.253623  8726 layer_factory.hpp:77] Creating layer inception_4b/output
2016-07-14 23:39:24.254 STDERR [INFO] I0714 23:39:24.253633  8726 net.cpp:91] Creating Layer inception_4b/output
2016-07-14 23:39:24.254 STDERR [INFO] I0714 23:39:24.253638  8726 net.cpp:425] inception_4b/output <- inception_4b/1x1
2016-07-14 23:39:24.254 STDERR [INFO] I0714 23:39:24.253644  8726 net.cpp:425] inception_4b/output <- inception_4b/3x3
2016-07-14 23:39:24.254 STDERR [INFO] I0714 23:39:24.253651  8726 net.cpp:425] inception_4b/output <- inception_4b/5x5
2016-07-14 23:39:24.254 STDERR [INFO] I0714 23:39:24.253656  8726 net.cpp:425] inception_4b/output <- inception_4b/pool_proj
2016-07-14 23:39:24.254 STDERR [INFO] I0714 23:39:24.253670  8726 net.cpp:399] inception_4b/output -> inception_4b/output
2016-07-14 23:39:24.255 STDERR [INFO] I0714 23:39:24.253669  8730 net.cpp:141] Setting up inception_4b/output_inception_4b/output_0_split
2016-07-14 23:39:24.255 STDERR [INFO] I0714 23:39:24.253687  8730 net.cpp:148] Top shape: 10 512 14 14 (1003520)
2016-07-14 23:39:24.255 STDERR [INFO] I0714 23:39:24.253695  8730 net.cpp:148] Top shape: 10 512 14 14 (1003520)
2016-07-14 23:39:24.255 STDERR [INFO] I0714 23:39:24.253700  8730 net.cpp:148] Top shape: 10 512 14 14 (1003520)
2016-07-14 23:39:24.255 STDERR [INFO] I0714 23:39:24.253705  8730 net.cpp:148] Top shape: 10 512 14 14 (1003520)
2016-07-14 23:39:24.255 STDERR [INFO] I0714 23:39:24.253710  8730 net.cpp:156] Memory required for data: 423861760
2016-07-14 23:39:24.255 STDERR [INFO] I0714 23:39:24.253715  8730 layer_factory.hpp:77] Creating layer inception_4c/1x1
2016-07-14 23:39:24.255 STDERR [INFO] I0714 23:39:24.253734  8730 net.cpp:91] Creating Layer inception_4c/1x1
2016-07-14 23:39:24.255 STDERR [INFO] I0714 23:39:24.253736  8726 net.cpp:141] Setting up inception_4b/output
2016-07-14 23:39:24.255 STDERR [INFO] I0714 23:39:24.253741  8730 net.cpp:425] inception_4c/1x1 <- inception_4b/output_inception_4b/output_0_split_0
2016-07-14 23:39:24.255 STDERR [INFO] I0714 23:39:24.253747  8726 net.cpp:148] Top shape: 10 512 14 14 (1003520)
2016-07-14 23:39:24.255 STDERR [INFO] I0714 23:39:24.253751  8730 net.cpp:399] inception_4c/1x1 -> inception_4c/1x1
2016-07-14 23:39:24.255 STDERR [INFO] I0714 23:39:24.253752  8726 net.cpp:156] Memory required for data: 407805440
2016-07-14 23:39:24.255 STDERR [INFO] I0714 23:39:24.253758  8726 layer_factory.hpp:77] Creating layer inception_4b/output_inception_4b/output_0_split
…
2016-07-14 23:39:24.255 STDERR [INFO] I0714 23:39:24.253793  8726 net.cpp:399] inception_4b/output_inception_4b/output_0_split -> inception_4b/output_inception_4b/output_0_split_1
2016-07-14 23:39:24.255 STDERR [INFO] I0714 23:39:24.253803  8726 net.cpp:399] inception_4b/output_inception_4b/output_0_split -> inception_4b/output_inception_4b/output_0_split_2
2016-07-14 23:39:24.255 STDERR [INFO] I0714 23:39:24.253811  8726 net.cpp:399] inception_4b/output_inception_4b/output_0_split -> inception_4b/output_inception_4b/output_0_split_3
2016-07-14 23:39:24.255 STDERR [INFO] I0714 23:39:24.254176  8726 net.cpp:141] Setting up inception_4b/output_inception_4b/output_0_split
2016-07-14 23:39:24.255 STDERR [INFO] I0714 23:39:24.254189  8726 net.cpp:148] Top shape: 10 512 14 14 (1003520)
2016-07-14 23:39:24.255 STDERR [INFO] I0714 23:39:24.254195  8726 net.cpp:148] Top shape: 10 512 14 14 (1003520)
2016-07-14 23:39:24.255 STDERR [INFO] I0714 23:39:24.254201  8726 net.cpp:148] Top shape: 10 512 14 14 (1003520)
2016-07-14 23:39:24.256 STDERR [INFO] I0714 23:39:24.254206  8726 net.cpp:148] Top shape: 10 512 14 14 (1003520)
2016-07-14 23:39:24.256 STDERR [INFO] I0714 23:39:24.254210  8726 net.cpp:156] Memory required for data: 423861760
2016-07-14 23:39:24.256 STDERR [INFO] I0714 23:39:24.254216  8726 layer_factory.hpp:77] Creating layer inception_4c/1x1
2016-07-14 23:39:24.256 STDERR [INFO] I0714 23:39:24.254237  8726 net.cpp:91] Creating Layer inception_4c/1x1
2016-07-14 23:39:24.256 STDERR [INFO] I0714 23:39:24.254245  8726 net.cpp:425] inception_4c/1x1 <- inception_4b/output_inception_4b/output_0_split_0
2016-07-14 23:39:24.256 STDERR [INFO] I0714 23:39:24.254253  8726 net.cpp:399] inception_4c/1x1 -> inception_4c/1x1
2016-07-14 23:39:24.259 STDERR [INFO] I0714 23:39:24.259769  8726 net.cpp:141] Setting up inception_4c/1x1
2016-07-14 23:39:24.260 STDERR [INFO] I0714 23:39:24.259790  8726 net.cpp:148] Top shape: 10 128 14 14 (250880)
2016-07-14 23:39:24.260 STDERR [INFO] I0714 23:39:24.259796  8726 net.cpp:156] Memory required for data: 424865280
2016-07-14 23:39:24.260 STDERR [INFO] I0714 23:39:24.259798  8730 net.cpp:141] Setting up inception_4c/1x1
2016-07-14 23:39:24.260 STDERR [INFO] I0714 23:39:24.259806  8726 layer_factory.hpp:77] Creating layer inception_4c/relu_1x1
2016-07-14 23:39:24.260 STDERR [INFO] I0714 23:39:24.259820  8730 net.cpp:148] Top shape: 10 128 14 14 (250880)
2016-07-14 23:39:24.260 STDERR [INFO] I0714 23:39:24.259824  8726 net.cpp:91] Creating Layer inception_4c/relu_1x1
2016-07-14 23:39:24.260 STDERR [INFO] I0714 23:39:24.259826  8730 net.cpp:156] Memory required for data: 424865280
2016-07-14 23:39:24.260 STDERR [INFO] I0714 23:39:24.259830  8726 net.cpp:425] inception_4c/relu_1x1 <- inception_4c/1x1
2016-07-14 23:39:24.260 STDERR [INFO] I0714 23:39:24.259837  8730 layer_factory.hpp:77] Creating layer inception_4c/relu_1x1
2016-07-14 23:39:24.260 STDERR [INFO] I0714 23:39:24.259838  8726 net.cpp:386] inception_4c/relu_1x1 -> inception_4c/1x1 (in-place)
2016-07-14 23:39:24.260 STDERR [INFO] I0714 23:39:24.259847  8730 net.cpp:91] Creating Layer inception_4c/relu_1x1
2016-07-14 23:39:24.260 STDERR [INFO] I0714 23:39:24.259853  8730 net.cpp:425] inception_4c/relu_1x1 <- inception_4c/1x1
2016-07-14 23:39:24.260 STDERR [INFO] I0714 23:39:24.259861  8730 net.cpp:386] inception_4c/relu_1x1 -> inception_4c/1x1 (in-place)
2016-07-14 23:39:24.261 STDERR [INFO] I0714 23:39:24.261051  8726 net.cpp:141] Setting up inception_4c/relu_1x1
2016-07-14 23:39:24.261 STDERR [INFO] I0714 23:39:24.261054  8730 net.cpp:141] Setting up inception_4c/relu_1x1
2016-07-14 23:39:24.261 STDERR [INFO] I0714 23:39:24.261070  8726 net.cpp:148] Top shape: 10 128 14 14 (250880)
2016-07-14 23:39:24.261 STDERR [INFO] I0714 23:39:24.261075  8726 net.cpp:156] Memory required for data: 425868800
2016-07-14 23:39:24.261 STDERR [INFO] I0714 23:39:24.261077  8730 net.cpp:148] Top shape: 10 128 14 14 (250880)
2016-07-14 23:39:24.261 STDERR [INFO] I0714 23:39:24.261080  8726 layer_factory.hpp:77] Creating layer inception_4c/3x3_reduce
2016-07-14 23:39:24.261 STDERR [INFO] I0714 23:39:24.261082  8730 net.cpp:156] Memory required for data: 425868800
2016-07-14 23:39:24.261 STDERR [INFO] I0714 23:39:24.261088  8730 layer_factory.hpp:77] Creating layer inception_4c/3x3_reduce
2016-07-14 23:39:24.261 STDERR [INFO] I0714 23:39:24.261099  8726 net.cpp:91] Creating Layer inception_4c/3x3_reduce
2016-07-14 23:39:24.261 STDERR [INFO] I0714 23:39:24.261106  8730 net.cpp:91] Creating Layer inception_4c/3x3_reduce
2016-07-14 23:39:24.261 STDERR [INFO] I0714 23:39:24.261106  8726 net.cpp:425] inception_4c/3x3_reduce <- inception_4b/output_inception_4b/output_0_split_1
2016-07-14 23:39:24.261 STDERR [INFO] I0714 23:39:24.261112  8730 net.cpp:425] inception_4c/3x3_reduce <- inception_4b/output_inception_4b/output_0_split_1
2016-07-14 23:39:24.261 STDERR [INFO] I0714 23:39:24.261121  8726 net.cpp:399] inception_4c/3x3_reduce -> inception_4c/3x3_reduce
2016-07-14 23:39:24.261 STDERR [INFO] I0714 23:39:24.261126  8730 net.cpp:399] inception_4c/3x3_reduce -> inception_4c/3x3_reduce
2016-07-14 23:39:24.268 STDERR [INFO] I0714 23:39:24.267953  8726 net.cpp:141] Setting up inception_4c/3x3_reduce
2016-07-14 23:39:24.268 STDERR [INFO] I0714 23:39:24.267974  8726 net.cpp:148] Top shape: 10 128 14 14 (250880)
2016-07-14 23:39:24.268 STDERR [INFO] I0714 23:39:24.267979  8726 net.cpp:156] Memory required for data: 426872320
2016-07-14 23:39:24.268 STDERR [INFO] I0714 23:39:24.267990  8726 layer_factory.hpp:77] Creating layer inception_4c/relu_3x3_reduce
2016-07-14 23:39:24.268 STDERR [INFO] I0714 23:39:24.268002  8726 net.cpp:91] Creating Layer inception_4c/relu_3x3_reduce
2016-07-14 23:39:24.268 STDERR [INFO] I0714 23:39:24.268007  8726 net.cpp:425] inception_4c/relu_3x3_reduce <- inception_4c/3x3_reduce
2016-07-14 23:39:24.268 STDERR [INFO] I0714 23:39:24.268015  8726 net.cpp:386] inception_4c/relu_3x3_reduce -> inception_4c/3x3_reduce (in-place)
2016-07-14 23:39:24.269 STDERR [INFO] I0714 23:39:24.269053  8730 net.cpp:141] Setting up inception_4c/3x3_reduce
2016-07-14 23:39:24.269 STDERR [INFO] I0714 23:39:24.269071  8730 net.cpp:148] Top shape: 10 128 14 14 (250880)
2016-07-14 23:39:24.269 STDERR [INFO] I0714 23:39:24.269076  8730 net.cpp:156] Memory required for data: 426872320
2016-07-14 23:39:24.269 STDERR [INFO] I0714 23:39:24.269088  8730 layer_factory.hpp:77] Creating layer inception_4c/relu_3x3_reduce
2016-07-14 23:39:24.269 STDERR [INFO] I0714 23:39:24.269098  8730 net.cpp:91] Creating Layer inception_4c/relu_3x3_reduce
2016-07-14 23:39:24.269 STDERR [INFO] I0714 23:39:24.269104  8730 net.cpp:425] inception_4c/relu_3x3_reduce <- inception_4c/3x3_reduce
2016-07-14 23:39:24.269 STDERR [INFO] I0714 23:39:24.269111  8730 net.cpp:386] inception_4c/relu_3x3_reduce -> inception_4c/3x3_reduce (in-place)
2016-07-14 23:39:24.269 STDERR [INFO] I0714 23:39:24.269126  8726 net.cpp:141] Setting up inception_4c/relu_3x3_reduce
2016-07-14 23:39:24.269 STDERR [INFO] I0714 23:39:24.269141  8726 net.cpp:148] Top shape: 10 128 14 14 (250880)
2016-07-14 23:39:24.269 STDERR [INFO] I0714 23:39:24.269146  8726 net.cpp:156] Memory required for data: 427875840
2016-07-14 23:39:24.269 STDERR [INFO] I0714 23:39:24.269152  8726 layer_factory.hpp:77] Creating layer inception_4c/3x3
2016-07-14 23:39:24.269 STDERR [INFO] I0714 23:39:24.269167  8726 net.cpp:91] Creating Layer inception_4c/3x3
2016-07-14 23:39:24.269 STDERR [INFO] I0714 23:39:24.269173  8726 net.cpp:425] inception_4c/3x3 <- inception_4c/3x3_reduce
2016-07-14 23:39:24.269 STDERR [INFO] I0714 23:39:24.269182  8726 net.cpp:399] inception_4c/3x3 -> inception_4c/3x3
2016-07-14 23:39:24.271 STDERR [INFO] I0714 23:39:24.270974  8730 net.cpp:141] Setting up inception_4c/relu_3x3_reduce
2016-07-14 23:39:24.271 STDERR [INFO] I0714 23:39:24.270992  8730 net.cpp:148] Top shape: 10 128 14 14 (250880)
2016-07-14 23:39:24.271 STDERR [INFO] I0714 23:39:24.270997  8730 net.cpp:156] Memory required for data: 427875840
2016-07-14 23:39:24.271 STDERR [INFO] I0714 23:39:24.271003  8730 layer_factory.hpp:77] Creating layer inception_4c/3x3
2016-07-14 23:39:24.271 STDERR [INFO] I0714 23:39:24.271019  8730 net.cpp:91] Creating Layer inception_4c/3x3
2016-07-14 23:39:24.271 STDERR [INFO] I0714 23:39:24.271026  8730 net.cpp:425] inception_4c/3x3 <- inception_4c/3x3_reduce
2016-07-14 23:39:24.271 STDERR [INFO] I0714 23:39:24.271041  8730 net.cpp:399] inception_4c/3x3 -> inception_4c/3x3
2016-07-14 23:39:24.276 STDERR [INFO] I0714 23:39:24.276913  8726 net.cpp:141] Setting up inception_4c/3x3
2016-07-14 23:39:24.277 STDERR [INFO] I0714 23:39:24.276934  8726 net.cpp:148] Top shape: 10 256 14 14 (501760)
2016-07-14 23:39:24.277 STDERR [INFO] I0714 23:39:24.276939  8726 net.cpp:156] Memory required for data: 429882880
2016-07-14 23:39:24.277 STDERR [INFO] I0714 23:39:24.276949  8726 layer_factory.hpp:77] Creating layer inception_4c/relu_3x3
2016-07-14 23:39:24.277 STDERR [INFO] I0714 23:39:24.276959  8726 net.cpp:91] Creating Layer inception_4c/relu_3x3
2016-07-14 23:39:24.277 STDERR [INFO] I0714 23:39:24.276965  8726 net.cpp:425] inception_4c/relu_3x3 <- inception_4c/3x3
2016-07-14 23:39:24.277 STDERR [INFO] I0714 23:39:24.276984  8726 net.cpp:386] inception_4c/relu_3x3 -> inception_4c/3x3 (in-place)
2016-07-14 23:39:24.278 STDERR [INFO] I0714 23:39:24.278275  8726 net.cpp:141] Setting up inception_4c/relu_3x3
2016-07-14 23:39:24.278 STDERR [INFO] I0714 23:39:24.278292  8726 net.cpp:148] Top shape: 10 256 14 14 (501760)
2016-07-14 23:39:24.278 STDERR [INFO] I0714 23:39:24.278297  8726 net.cpp:156] Memory required for data: 431889920
2016-07-14 23:39:24.278 STDERR [INFO] I0714 23:39:24.278302  8726 layer_factory.hpp:77] Creating layer inception_4c/5x5_reduce
2016-07-14 23:39:24.278 STDERR [INFO] I0714 23:39:24.278321  8726 net.cpp:91] Creating Layer inception_4c/5x5_reduce
2016-07-14 23:39:24.278 STDERR [INFO] I0714 23:39:24.278328  8726 net.cpp:425] inception_4c/5x5_reduce <- inception_4b/output_inception_4b/output_0_split_2
2016-07-14 23:39:24.278 STDERR [INFO] I0714 23:39:24.278342  8726 net.cpp:399] inception_4c/5x5_reduce -> inception_4c/5x5_reduce
2016-07-14 23:39:24.278 STDERR [INFO] I0714 23:39:24.278658  8730 net.cpp:141] Setting up inception_4c/3x3
2016-07-14 23:39:24.278 STDERR [INFO] I0714 23:39:24.278674  8730 net.cpp:148] Top shape: 10 256 14 14 (501760)
2016-07-14 23:39:24.278 STDERR [INFO] I0714 23:39:24.278679  8730 net.cpp:156] Memory required for data: 429882880
2016-07-14 23:39:24.278 STDERR [INFO] I0714 23:39:24.278697  8730 layer_factory.hpp:77] Creating layer inception_4c/relu_3x3
2016-07-14 23:39:24.278 STDERR [INFO] I0714 23:39:24.278710  8730 net.cpp:91] Creating Layer inception_4c/relu_3x3
2016-07-14 23:39:24.278 STDERR [INFO] I0714 23:39:24.278717  8730 net.cpp:425] inception_4c/relu_3x3 <- inception_4c/3x3
2016-07-14 23:39:24.279 STDERR [INFO] I0714 23:39:24.278724  8730 net.cpp:386] inception_4c/relu_3x3 -> inception_4c/3x3 (in-place)
2016-07-14 23:39:24.279 STDERR [INFO] I0714 23:39:24.279767  8730 net.cpp:141] Setting up inception_4c/relu_3x3
2016-07-14 23:39:24.279 STDERR [INFO] I0714 23:39:24.279784  8730 net.cpp:148] Top shape: 10 256 14 14 (501760)
2016-07-14 23:39:24.279 STDERR [INFO] I0714 23:39:24.279789  8730 net.cpp:156] Memory required for data: 431889920
2016-07-14 23:39:24.279 STDERR [INFO] I0714 23:39:24.279795  8730 layer_factory.hpp:77] Creating layer inception_4c/5x5_reduce
2016-07-14 23:39:24.280 STDERR [INFO] I0714 23:39:24.279813  8730 net.cpp:91] Creating Layer inception_4c/5x5_reduce
2016-07-14 23:39:24.280 STDERR [INFO] I0714 23:39:24.279819  8730 net.cpp:425] inception_4c/5x5_reduce <- inception_4b/output_inception_4b/output_0_split_2
2016-07-14 23:39:24.280 STDERR [INFO] I0714 23:39:24.279834  8730 net.cpp:399] inception_4c/5x5_reduce -> inception_4c/5x5_reduce
2016-07-14 23:39:24.284 STDERR [INFO] I0714 23:39:24.283953  8726 net.cpp:141] Setting up inception_4c/5x5_reduce
2016-07-14 23:39:24.284 STDERR [INFO] I0714 23:39:24.283973  8726 net.cpp:148] Top shape: 10 24 14 14 (47040)
2016-07-14 23:39:24.284 STDERR [INFO] I0714 23:39:24.283978  8726 net.cpp:156] Memory required for data: 432078080
2016-07-14 23:39:24.284 STDERR [INFO] I0714 23:39:24.283988  8726 layer_factory.hpp:77] Creating layer inception_4c/relu_5x5_reduce
2016-07-14 23:39:24.284 STDERR [INFO] I0714 23:39:24.283998  8726 net.cpp:91] Creating Layer inception_4c/relu_5x5_reduce
2016-07-14 23:39:24.284 STDERR [INFO] I0714 23:39:24.284004  8726 net.cpp:425] inception_4c/relu_5x5_reduce <- inception_4c/5x5_reduce
2016-07-14 23:39:24.284 STDERR [INFO] I0714 23:39:24.284014  8726 net.cpp:386] inception_4c/relu_5x5_reduce -> inception_4c/5x5_reduce (in-place)
2016-07-14 23:39:24.285 STDERR [INFO] I0714 23:39:24.285284  8726 net.cpp:141] Setting up inception_4c/relu_5x5_reduce
2016-07-14 23:39:24.285 STDERR [INFO] I0714 23:39:24.285300  8726 net.cpp:148] Top shape: 10 24 14 14 (47040)
2016-07-14 23:39:24.285 STDERR [INFO] I0714 23:39:24.285306  8726 net.cpp:156] Memory required for data: 432266240
2016-07-14 23:39:24.285 STDERR [INFO] I0714 23:39:24.285311  8726 layer_factory.hpp:77] Creating layer inception_4c/5x5
2016-07-14 23:39:24.285 STDERR [INFO] I0714 23:39:24.285329  8726 net.cpp:91] Creating Layer inception_4c/5x5
2016-07-14 23:39:24.285 STDERR [INFO] I0714 23:39:24.285336  8726 net.cpp:425] inception_4c/5x5 <- inception_4c/5x5_reduce
2016-07-14 23:39:24.285 STDERR [INFO] I0714 23:39:24.285349  8726 net.cpp:399] inception_4c/5x5 -> inception_4c/5x5
2016-07-14 23:39:24.285 STDERR [INFO] I0714 23:39:24.285370  8730 net.cpp:141] Setting up inception_4c/5x5_reduce
2016-07-14 23:39:24.285 STDERR [INFO] I0714 23:39:24.285390  8730 net.cpp:148] Top shape: 10 24 14 14 (47040)
2016-07-14 23:39:24.285 STDERR [INFO] I0714 23:39:24.285396  8730 net.cpp:156] Memory required for data: 432078080
2016-07-14 23:39:24.285 STDERR [INFO] I0714 23:39:24.285406  8730 layer_factory.hpp:77] Creating layer inception_4c/relu_5x5_reduce
2016-07-14 23:39:24.285 STDERR [INFO] I0714 23:39:24.285415  8730 net.cpp:91] Creating Layer inception_4c/relu_5x5_reduce
2016-07-14 23:39:24.285 STDERR [INFO] I0714 23:39:24.285421  8730 net.cpp:425] inception_4c/relu_5x5_reduce <- inception_4c/5x5_reduce
2016-07-14 23:39:24.285 STDERR [INFO] I0714 23:39:24.285431  8730 net.cpp:386] inception_4c/relu_5x5_reduce -> inception_4c/5x5_reduce (in-place)
2016-07-14 23:39:24.286 STDERR [INFO] I0714 23:39:24.285955  8730 net.cpp:141] Setting up inception_4c/relu_5x5_reduce
2016-07-14 23:39:24.286 STDERR [INFO] I0714 23:39:24.285969  8730 net.cpp:148] Top shape: 10 24 14 14 (47040)
2016-07-14 23:39:24.286 STDERR [INFO] I0714 23:39:24.285974  8730 net.cpp:156] Memory required for data: 432266240
2016-07-14 23:39:24.286 STDERR [INFO] I0714 23:39:24.285979  8730 layer_factory.hpp:77] Creating layer inception_4c/5x5
2016-07-14 23:39:24.286 STDERR [INFO] I0714 23:39:24.285998  8730 net.cpp:91] Creating Layer inception_4c/5x5
2016-07-14 23:39:24.286 STDERR [INFO] I0714 23:39:24.286005  8730 net.cpp:425] inception_4c/5x5 <- inception_4c/5x5_reduce
2016-07-14 23:39:24.286 STDERR [INFO] I0714 23:39:24.286015  8730 net.cpp:399] inception_4c/5x5 -> inception_4c/5x5
2016-07-14 23:39:24.291 STDERR [INFO] I0714 23:39:24.291723  8726 net.cpp:141] Setting up inception_4c/5x5
2016-07-14 23:39:24.291 STDERR [INFO] I0714 23:39:24.291743  8726 net.cpp:148] Top shape: 10 64 14 14 (125440)
2016-07-14 23:39:24.291 STDERR [INFO] I0714 23:39:24.291749  8726 net.cpp:156] Memory required for data: 432768000
2016-07-14 23:39:24.292 STDERR [INFO] I0714 23:39:24.291759  8726 layer_factory.hpp:77] Creating layer inception_4c/relu_5x5
2016-07-14 23:39:24.292 STDERR [INFO] I0714 23:39:24.291771  8726 net.cpp:91] Creating Layer inception_4c/relu_5x5
2016-07-14 23:39:24.292 STDERR [INFO] I0714 23:39:24.291777  8726 net.cpp:425] inception_4c/relu_5x5 <- inception_4c/5x5
2016-07-14 23:39:24.292 STDERR [INFO] I0714 23:39:24.291785  8726 net.cpp:386] inception_4c/relu_5x5 -> inception_4c/5x5 (in-place)
2016-07-14 23:39:24.292 STDERR [INFO] I0714 23:39:24.291934  8730 net.cpp:141] Setting up inception_4c/5x5
2016-07-14 23:39:24.292 STDERR [INFO] I0714 23:39:24.291949  8730 net.cpp:148] Top shape: 10 64 14 14 (125440)
2016-07-14 23:39:24.292 STDERR [INFO] I0714 23:39:24.291954  8730 net.cpp:156] Memory required for data: 432768000
2016-07-14 23:39:24.292 STDERR [INFO] I0714 23:39:24.291965  8730 layer_factory.hpp:77] Creating layer inception_4c/relu_5x5
2016-07-14 23:39:24.292 STDERR [INFO] I0714 23:39:24.291975  8730 net.cpp:91] Creating Layer inception_4c/relu_5x5
2016-07-14 23:39:24.292 STDERR [INFO] I0714 23:39:24.291982  8730 net.cpp:425] inception_4c/relu_5x5 <- inception_4c/5x5
2016-07-14 23:39:24.292 STDERR [INFO] I0714 23:39:24.291990  8730 net.cpp:386] inception_4c/relu_5x5 -> inception_4c/5x5 (in-place)
2016-07-14 23:39:24.293 STDERR [INFO] I0714 23:39:24.293094  8730 net.cpp:141] Setting up inception_4c/relu_5x5
2016-07-14 23:39:24.293 STDERR [INFO] I0714 23:39:24.293109  8730 net.cpp:148] Top shape: 10 64 14 14 (125440)
2016-07-14 23:39:24.293 STDERR [INFO] I0714 23:39:24.293114  8730 net.cpp:156] Memory required for data: 433269760
2016-07-14 23:39:24.293 STDERR [INFO] I0714 23:39:24.293119  8730 layer_factory.hpp:77] Creating layer inception_4c/pool
2016-07-14 23:39:24.293 STDERR [INFO] I0714 23:39:24.293121  8726 net.cpp:141] Setting up inception_4c/relu_5x5
2016-07-14 23:39:24.293 STDERR [INFO] I0714 23:39:24.293133  8730 net.cpp:91] Creating Layer inception_4c/pool
2016-07-14 23:39:24.293 STDERR [INFO] I0714 23:39:24.293136  8726 net.cpp:148] Top shape: 10 64 14 14 (125440)
2016-07-14 23:39:24.293 STDERR [INFO] I0714 23:39:24.293139  8730 net.cpp:425] inception_4c/pool <- inception_4b/output_inception_4b/output_0_split_3
2016-07-14 23:39:24.293 STDERR [INFO] I0714 23:39:24.293141  8726 net.cpp:156] Memory required for data: 433269760
2016-07-14 23:39:24.293 STDERR [INFO] I0714 23:39:24.293148  8726 layer_factory.hpp:77] Creating layer inception_4c/pool
2016-07-14 23:39:24.293 STDERR [INFO] I0714 23:39:24.293151  8730 net.cpp:399] inception_4c/pool -> inception_4c/pool
2016-07-14 23:39:24.293 STDERR [INFO] I0714 23:39:24.293160  8726 net.cpp:91] Creating Layer inception_4c/pool
2016-07-14 23:39:24.293 STDERR [INFO] I0714 23:39:24.293167  8726 net.cpp:425] inception_4c/pool <- inception_4b/output_inception_4b/output_0_split_3
2016-07-14 23:39:24.293 STDERR [INFO] I0714 23:39:24.293175  8726 net.cpp:399] inception_4c/pool -> inception_4c/pool
2016-07-14 23:39:24.293 STDERR [INFO] I0714 23:39:24.293313  8730 net.cpp:141] Setting up inception_4c/pool
2016-07-14 23:39:24.293 STDERR [INFO] I0714 23:39:24.293325  8730 net.cpp:148] Top shape: 10 512 14 14 (1003520)
2016-07-14 23:39:24.293 STDERR [INFO] I0714 23:39:24.293329  8730 net.cpp:156] Memory required for data: 437283840
2016-07-14 23:39:24.293 STDERR [INFO] I0714 23:39:24.293335  8730 layer_factory.hpp:77] Creating layer inception_4c/pool_proj
2016-07-14 23:39:24.294 STDERR [INFO] I0714 23:39:24.293351  8730 net.cpp:91] Creating Layer inception_4c/pool_proj
2016-07-14 23:39:24.294 STDERR [INFO] I0714 23:39:24.293352  8726 net.cpp:141] Setting up inception_4c/pool
2016-07-14 23:39:24.294 STDERR [INFO] I0714 23:39:24.293357  8730 net.cpp:425] inception_4c/pool_proj <- inception_4c/pool
2016-07-14 23:39:24.294 STDERR [INFO] I0714 23:39:24.293365  8726 net.cpp:148] Top shape: 10 512 14 14 (1003520)
2016-07-14 23:39:24.294 STDERR [INFO] I0714 23:39:24.293370  8726 net.cpp:156] Memory required for data: 437283840
2016-07-14 23:39:24.294 STDERR [INFO] I0714 23:39:24.293371  8730 net.cpp:399] inception_4c/pool_proj -> inception_4c/pool_proj
2016-07-14 23:39:24.294 STDERR [INFO] I0714 23:39:24.293375  8726 layer_factory.hpp:77] Creating layer inception_4c/pool_proj
2016-07-14 23:39:24.294 STDERR [INFO] I0714 23:39:24.293393  8726 net.cpp:91] Creating Layer inception_4c/pool_proj
2016-07-14 23:39:24.294 STDERR [INFO] I0714 23:39:24.293400  8726 net.cpp:425] inception_4c/pool_proj <- inception_4c/pool
…
2016-07-14 23:39:24.436 STDERR [INFO] I0714 23:39:24.435881  8726 net.cpp:156] Memory required for data: 531865600
2016-07-14 23:39:24.436 STDERR [INFO] I0714 23:39:24.435886  8726 layer_factory.hpp:77] Creating layer inception_5a/5x5_reduce
2016-07-14 23:39:24.436 STDERR [INFO] I0714 23:39:24.435902  8726 net.cpp:91] Creating Layer inception_5a/5x5_reduce
2016-07-14 23:39:24.436 STDERR [INFO] I0714 23:39:24.435909  8726 net.cpp:425] inception_5a/5x5_reduce <- pool4/3x3_s2_pool4/3x3_s2_0_split_2
2016-07-14 23:39:24.436 STDERR [INFO] I0714 23:39:24.435919  8726 net.cpp:399] inception_5a/5x5_reduce -> inception_5a/5x5_reduce
2016-07-14 23:39:24.440 STDERR [INFO] I0714 23:39:24.440821  8730 net.cpp:141] Setting up inception_5a/3x3
2016-07-14 23:39:24.441 STDERR [INFO] I0714 23:39:24.440845  8730 net.cpp:148] Top shape: 10 320 7 7 (156800)
2016-07-14 23:39:24.441 STDERR [INFO] I0714 23:39:24.440850  8730 net.cpp:156] Memory required for data: 531238400
2016-07-14 23:39:24.441 STDERR [INFO] I0714 23:39:24.440865  8730 layer_factory.hpp:77] Creating layer inception_5a/relu_3x3
2016-07-14 23:39:24.441 STDERR [INFO] I0714 23:39:24.440876  8730 net.cpp:91] Creating Layer inception_5a/relu_3x3
2016-07-14 23:39:24.441 STDERR [INFO] I0714 23:39:24.440882  8730 net.cpp:425] inception_5a/relu_3x3 <- inception_5a/3x3
2016-07-14 23:39:24.441 STDERR [INFO] I0714 23:39:24.440893  8730 net.cpp:386] inception_5a/relu_3x3 -> inception_5a/3x3 (in-place)
2016-07-14 23:39:24.442 STDERR [INFO] I0714 23:39:24.442121  8726 net.cpp:141] Setting up inception_5a/5x5_reduce
2016-07-14 23:39:24.442 STDERR [INFO] I0714 23:39:24.442145  8726 net.cpp:148] Top shape: 10 32 7 7 (15680)
2016-07-14 23:39:24.442 STDERR [INFO] I0714 23:39:24.442150  8726 net.cpp:156] Memory required for data: 531928320
2016-07-14 23:39:24.442 STDERR [INFO] I0714 23:39:24.442162  8726 layer_factory.hpp:77] Creating layer inception_5a/relu_5x5_reduce
2016-07-14 23:39:24.442 STDERR [INFO] I0714 23:39:24.442170  8726 net.cpp:91] Creating Layer inception_5a/relu_5x5_reduce
2016-07-14 23:39:24.442 STDERR [INFO] I0714 23:39:24.442178  8726 net.cpp:425] inception_5a/relu_5x5_reduce <- inception_5a/5x5_reduce
2016-07-14 23:39:24.442 STDERR [INFO] I0714 23:39:24.442188  8726 net.cpp:386] inception_5a/relu_5x5_reduce -> inception_5a/5x5_reduce (in-place)
2016-07-14 23:39:24.442 STDERR [INFO] I0714 23:39:24.442421  8730 net.cpp:141] Setting up inception_5a/relu_3x3
2016-07-14 23:39:24.442 STDERR [INFO] I0714 23:39:24.442437  8730 net.cpp:148] Top shape: 10 320 7 7 (156800)
2016-07-14 23:39:24.442 STDERR [INFO] I0714 23:39:24.442442  8730 net.cpp:156] Memory required for data: 531865600
2016-07-14 23:39:24.443 STDERR [INFO] I0714 23:39:24.442448  8730 layer_factory.hpp:77] Creating layer inception_5a/5x5_reduce
2016-07-14 23:39:24.443 STDERR [INFO] I0714 23:39:24.442464  8730 net.cpp:91] Creating Layer inception_5a/5x5_reduce
2016-07-14 23:39:24.443 STDERR [INFO] I0714 23:39:24.442471  8730 net.cpp:425] inception_5a/5x5_reduce <- pool4/3x3_s2_pool4/3x3_s2_0_split_2
2016-07-14 23:39:24.443 STDERR [INFO] I0714 23:39:24.442486  8730 net.cpp:399] inception_5a/5x5_reduce -> inception_5a/5x5_reduce
2016-07-14 23:39:24.443 STDERR [INFO] I0714 23:39:24.443009  8726 net.cpp:141] Setting up inception_5a/relu_5x5_reduce
2016-07-14 23:39:24.443 STDERR [INFO] I0714 23:39:24.443025  8726 net.cpp:148] Top shape: 10 32 7 7 (15680)
2016-07-14 23:39:24.443 STDERR [INFO] I0714 23:39:24.443030  8726 net.cpp:156] Memory required for data: 531991040
2016-07-14 23:39:24.443 STDERR [INFO] I0714 23:39:24.443035  8726 layer_factory.hpp:77] Creating layer inception_5a/5x5
2016-07-14 23:39:24.443 STDERR [INFO] I0714 23:39:24.443053  8726 net.cpp:91] Creating Layer inception_5a/5x5
2016-07-14 23:39:24.443 STDERR [INFO] I0714 23:39:24.443058  8726 net.cpp:425] inception_5a/5x5 <- inception_5a/5x5_reduce
2016-07-14 23:39:24.443 STDERR [INFO] I0714 23:39:24.443068  8726 net.cpp:399] inception_5a/5x5 -> inception_5a/5x5
2016-07-14 23:39:24.447 STDERR [INFO] I0714 23:39:24.447926  8726 net.cpp:141] Setting up inception_5a/5x5
2016-07-14 23:39:24.448 STDERR [INFO] I0714 23:39:24.447957  8726 net.cpp:148] Top shape: 10 128 7 7 (62720)
2016-07-14 23:39:24.448 STDERR [INFO] I0714 23:39:24.447962  8726 net.cpp:156] Memory required for data: 532241920
2016-07-14 23:39:24.448 STDERR [INFO] I0714 23:39:24.447973  8726 layer_factory.hpp:77] Creating layer inception_5a/relu_5x5
2016-07-14 23:39:24.448 STDERR [INFO] I0714 23:39:24.448017  8726 net.cpp:91] Creating Layer inception_5a/relu_5x5
2016-07-14 23:39:24.448 STDERR [INFO] I0714 23:39:24.448026  8726 net.cpp:425] inception_5a/relu_5x5 <- inception_5a/5x5
2016-07-14 23:39:24.448 STDERR [INFO] I0714 23:39:24.448035  8726 net.cpp:386] inception_5a/relu_5x5 -> inception_5a/5x5 (in-place)
2016-07-14 23:39:24.449 STDERR [INFO] I0714 23:39:24.449383  8726 net.cpp:141] Setting up inception_5a/relu_5x5
2016-07-14 23:39:24.449 STDERR [INFO] I0714 23:39:24.449399  8726 net.cpp:148] Top shape: 10 128 7 7 (62720)
2016-07-14 23:39:24.449 STDERR [INFO] I0714 23:39:24.449404  8726 net.cpp:156] Memory required for data: 532492800
2016-07-14 23:39:24.449 STDERR [INFO] I0714 23:39:24.449409  8726 layer_factory.hpp:77] Creating layer inception_5a/pool
2016-07-14 23:39:24.449 STDERR [INFO] I0714 23:39:24.449421  8726 net.cpp:91] Creating Layer inception_5a/pool
2016-07-14 23:39:24.449 STDERR [INFO] I0714 23:39:24.449429  8726 net.cpp:425] inception_5a/pool <- pool4/3x3_s2_pool4/3x3_s2_0_split_3
2016-07-14 23:39:24.449 STDERR [INFO] I0714 23:39:24.449436  8726 net.cpp:399] inception_5a/pool -> inception_5a/pool
2016-07-14 23:39:24.449 STDERR [INFO] I0714 23:39:24.449684  8726 net.cpp:141] Setting up inception_5a/pool
2016-07-14 23:39:24.449 STDERR [INFO] I0714 23:39:24.449695  8726 net.cpp:148] Top shape: 10 832 7 7 (407680)
2016-07-14 23:39:24.450 STDERR [INFO] I0714 23:39:24.449699  8726 net.cpp:156] Memory required for data: 534123520
2016-07-14 23:39:24.450 STDERR [INFO] I0714 23:39:24.449704  8726 layer_factory.hpp:77] Creating layer inception_5a/pool_proj
2016-07-14 23:39:24.450 STDERR [INFO] I0714 23:39:24.449723  8726 net.cpp:91] Creating Layer inception_5a/pool_proj
2016-07-14 23:39:24.450 STDERR [INFO] I0714 23:39:24.449728  8726 net.cpp:425] inception_5a/pool_proj <- inception_5a/pool
2016-07-14 23:39:24.450 STDERR [INFO] I0714 23:39:24.449739  8726 net.cpp:399] inception_5a/pool_proj -> inception_5a/pool_proj
2016-07-14 23:39:24.452 STDERR [INFO] I0714 23:39:24.452388  8730 net.cpp:141] Setting up inception_5a/5x5_reduce
2016-07-14 23:39:24.452 STDERR [INFO] I0714 23:39:24.452414  8730 net.cpp:148] Top shape: 10 32 7 7 (15680)
2016-07-14 23:39:24.452 STDERR [INFO] I0714 23:39:24.452419  8730 net.cpp:156] Memory required for data: 531928320
2016-07-14 23:39:24.452 STDERR [INFO] I0714 23:39:24.452430  8730 layer_factory.hpp:77] Creating layer inception_5a/relu_5x5_reduce
2016-07-14 23:39:24.452 STDERR [INFO] I0714 23:39:24.452440  8730 net.cpp:91] Creating Layer inception_5a/relu_5x5_reduce
2016-07-14 23:39:24.452 STDERR [INFO] I0714 23:39:24.452446  8730 net.cpp:425] inception_5a/relu_5x5_reduce <- inception_5a/5x5_reduce
2016-07-14 23:39:24.452 STDERR [INFO] I0714 23:39:24.452458  8730 net.cpp:386] inception_5a/relu_5x5_reduce -> inception_5a/5x5_reduce (in-place)
2016-07-14 23:39:24.453 STDERR [INFO] I0714 23:39:24.453896  8730 net.cpp:141] Setting up inception_5a/relu_5x5_reduce
2016-07-14 23:39:24.454 STDERR [INFO] I0714 23:39:24.453912  8730 net.cpp:148] Top shape: 10 32 7 7 (15680)
2016-07-14 23:39:24.454 STDERR [INFO] I0714 23:39:24.453917  8730 net.cpp:156] Memory required for data: 531991040
2016-07-14 23:39:24.454 STDERR [INFO] I0714 23:39:24.453923  8730 layer_factory.hpp:77] Creating layer inception_5a/5x5
2016-07-14 23:39:24.454 STDERR [INFO] I0714 23:39:24.453944  8730 net.cpp:91] Creating Layer inception_5a/5x5
2016-07-14 23:39:24.454 STDERR [INFO] I0714 23:39:24.453951  8730 net.cpp:425] inception_5a/5x5 <- inception_5a/5x5_reduce
2016-07-14 23:39:24.454 STDERR [INFO] I0714 23:39:24.453961  8730 net.cpp:399] inception_5a/5x5 -> inception_5a/5x5
2016-07-14 23:39:24.455 STDERR [INFO] I0714 23:39:24.455569  8726 net.cpp:141] Setting up inception_5a/pool_proj
2016-07-14 23:39:24.455 STDERR [INFO] I0714 23:39:24.455602  8726 net.cpp:148] Top shape: 10 128 7 7 (62720)
2016-07-14 23:39:24.455 STDERR [INFO] I0714 23:39:24.455608  8726 net.cpp:156] Memory required for data: 534374400
2016-07-14 23:39:24.455 STDERR [INFO] I0714 23:39:24.455620  8726 layer_factory.hpp:77] Creating layer inception_5a/relu_pool_proj
2016-07-14 23:39:24.455 STDERR [INFO] I0714 23:39:24.455631  8726 net.cpp:91] Creating Layer inception_5a/relu_pool_proj
2016-07-14 23:39:24.455 STDERR [INFO] I0714 23:39:24.455641  8726 net.cpp:425] inception_5a/relu_pool_proj <- inception_5a/pool_proj
2016-07-14 23:39:24.456 STDERR [INFO] I0714 23:39:24.455649  8726 net.cpp:386] inception_5a/relu_pool_proj -> inception_5a/pool_proj (in-place)
2016-07-14 23:39:24.456 STDERR [INFO] I0714 23:39:24.455930  8726 net.cpp:141] Setting up inception_5a/relu_pool_proj
2016-07-14 23:39:24.456 STDERR [INFO] I0714 23:39:24.455941  8726 net.cpp:148] Top shape: 10 128 7 7 (62720)
2016-07-14 23:39:24.456 STDERR [INFO] I0714 23:39:24.455945  8726 net.cpp:156] Memory required for data: 534625280
2016-07-14 23:39:24.456 STDERR [INFO] I0714 23:39:24.455950  8726 layer_factory.hpp:77] Creating layer inception_5a/output
2016-07-14 23:39:24.456 STDERR [INFO] I0714 23:39:24.455962  8726 net.cpp:91] Creating Layer inception_5a/output
2016-07-14 23:39:24.456 STDERR [INFO] I0714 23:39:24.455970  8726 net.cpp:425] inception_5a/output <- inception_5a/1x1
2016-07-14 23:39:24.456 STDERR [INFO] I0714 23:39:24.455976  8726 net.cpp:425] inception_5a/output <- inception_5a/3x3
2016-07-14 23:39:24.456 STDERR [INFO] I0714 23:39:24.455981  8726 net.cpp:425] inception_5a/output <- inception_5a/5x5
2016-07-14 23:39:24.456 STDERR [INFO] I0714 23:39:24.455986  8726 net.cpp:425] inception_5a/output <- inception_5a/pool_proj
2016-07-14 23:39:24.456 STDERR [INFO] I0714 23:39:24.455993  8726 net.cpp:399] inception_5a/output -> inception_5a/output
2016-07-14 23:39:24.456 STDERR [INFO] I0714 23:39:24.456060  8726 net.cpp:141] Setting up inception_5a/output
2016-07-14 23:39:24.456 STDERR [INFO] I0714 23:39:24.456069  8726 net.cpp:148] Top shape: 10 832 7 7 (407680)
2016-07-14 23:39:24.456 STDERR [INFO] I0714 23:39:24.456073  8726 net.cpp:156] Memory required for data: 536256000
2016-07-14 23:39:24.456 STDERR [INFO] I0714 23:39:24.456079  8726 layer_factory.hpp:77] Creating layer inception_5a/output_inception_5a/output_0_split
2016-07-14 23:39:24.456 STDERR [INFO] I0714 23:39:24.456086  8726 net.cpp:91] Creating Layer inception_5a/output_inception_5a/output_0_split
…
2016-07-14 23:39:24.456 STDERR [INFO] I0714 23:39:24.456110  8726 net.cpp:399] inception_5a/output_inception_5a/output_0_split -> inception_5a/output_inception_5a/output_0_split_1
2016-07-14 23:39:24.456 STDERR [INFO] I0714 23:39:24.456118  8726 net.cpp:399] inception_5a/output_inception_5a/output_0_split -> inception_5a/output_inception_5a/output_0_split_2
2016-07-14 23:39:24.456 STDERR [INFO] I0714 23:39:24.456126  8726 net.cpp:399] inception_5a/output_inception_5a/output_0_split -> inception_5a/output_inception_5a/output_0_split_3
2016-07-14 23:39:24.456 STDERR [INFO] I0714 23:39:24.456362  8726 net.cpp:141] Setting up inception_5a/output_inception_5a/output_0_split
2016-07-14 23:39:24.456 STDERR [INFO] I0714 23:39:24.456372  8726 net.cpp:148] Top shape: 10 832 7 7 (407680)
2016-07-14 23:39:24.456 STDERR [INFO] I0714 23:39:24.456377  8726 net.cpp:148] Top shape: 10 832 7 7 (407680)
2016-07-14 23:39:24.456 STDERR [INFO] I0714 23:39:24.456382  8726 net.cpp:148] Top shape: 10 832 7 7 (407680)
2016-07-14 23:39:24.456 STDERR [INFO] I0714 23:39:24.456387  8726 net.cpp:148] Top shape: 10 832 7 7 (407680)
2016-07-14 23:39:24.456 STDERR [INFO] I0714 23:39:24.456392  8726 net.cpp:156] Memory required for data: 542778880
2016-07-14 23:39:24.457 STDERR [INFO] I0714 23:39:24.456395  8726 layer_factory.hpp:77] Creating layer inception_5b/1x1
2016-07-14 23:39:24.457 STDERR [INFO] I0714 23:39:24.456414  8726 net.cpp:91] Creating Layer inception_5b/1x1
2016-07-14 23:39:24.457 STDERR [INFO] I0714 23:39:24.456420  8726 net.cpp:425] inception_5b/1x1 <- inception_5a/output_inception_5a/output_0_split_0
2016-07-14 23:39:24.457 STDERR [INFO] I0714 23:39:24.456429  8726 net.cpp:399] inception_5b/1x1 -> inception_5b/1x1
2016-07-14 23:39:24.460 STDERR [INFO] I0714 23:39:24.460644  8730 net.cpp:141] Setting up inception_5a/5x5
2016-07-14 23:39:24.460 STDERR [INFO] I0714 23:39:24.460667  8730 net.cpp:148] Top shape: 10 128 7 7 (62720)
2016-07-14 23:39:24.460 STDERR [INFO] I0714 23:39:24.460674  8730 net.cpp:156] Memory required for data: 532241920
2016-07-14 23:39:24.460 STDERR [INFO] I0714 23:39:24.460683  8730 layer_factory.hpp:77] Creating layer inception_5a/relu_5x5
2016-07-14 23:39:24.460 STDERR [INFO] I0714 23:39:24.460718  8730 net.cpp:91] Creating Layer inception_5a/relu_5x5
2016-07-14 23:39:24.461 STDERR [INFO] I0714 23:39:24.460726  8730 net.cpp:425] inception_5a/relu_5x5 <- inception_5a/5x5
2016-07-14 23:39:24.461 STDERR [INFO] I0714 23:39:24.460734  8730 net.cpp:386] inception_5a/relu_5x5 -> inception_5a/5x5 (in-place)
2016-07-14 23:39:24.461 STDERR [INFO] I0714 23:39:24.461056  8730 net.cpp:141] Setting up inception_5a/relu_5x5
2016-07-14 23:39:24.461 STDERR [INFO] I0714 23:39:24.461069  8730 net.cpp:148] Top shape: 10 128 7 7 (62720)
2016-07-14 23:39:24.461 STDERR [INFO] I0714 23:39:24.461074  8730 net.cpp:156] Memory required for data: 532492800
2016-07-14 23:39:24.461 STDERR [INFO] I0714 23:39:24.461081  8730 layer_factory.hpp:77] Creating layer inception_5a/pool
2016-07-14 23:39:24.461 STDERR [INFO] I0714 23:39:24.461092  8730 net.cpp:91] Creating Layer inception_5a/pool
2016-07-14 23:39:24.461 STDERR [INFO] I0714 23:39:24.461098  8730 net.cpp:425] inception_5a/pool <- pool4/3x3_s2_pool4/3x3_s2_0_split_3
2016-07-14 23:39:24.461 STDERR [INFO] I0714 23:39:24.461107  8730 net.cpp:399] inception_5a/pool -> inception_5a/pool
2016-07-14 23:39:24.461 STDERR [INFO] I0714 23:39:24.461222  8730 net.cpp:141] Setting up inception_5a/pool
2016-07-14 23:39:24.461 STDERR [INFO] I0714 23:39:24.461235  8730 net.cpp:148] Top shape: 10 832 7 7 (407680)
2016-07-14 23:39:24.461 STDERR [INFO] I0714 23:39:24.461238  8730 net.cpp:156] Memory required for data: 534123520
2016-07-14 23:39:24.461 STDERR [INFO] I0714 23:39:24.461243  8730 layer_factory.hpp:77] Creating layer inception_5a/pool_proj
2016-07-14 23:39:24.461 STDERR [INFO] I0714 23:39:24.461263  8730 net.cpp:91] Creating Layer inception_5a/pool_proj
2016-07-14 23:39:24.461 STDERR [INFO] I0714 23:39:24.461269  8730 net.cpp:425] inception_5a/pool_proj <- inception_5a/pool
2016-07-14 23:39:24.461 STDERR [INFO] I0714 23:39:24.461279  8730 net.cpp:399] inception_5a/pool_proj -> inception_5a/pool_proj
2016-07-14 23:39:24.466 STDERR [INFO] I0714 23:39:24.466598  8726 net.cpp:141] Setting up inception_5b/1x1
2016-07-14 23:39:24.466 STDERR [INFO] I0714 23:39:24.466626  8726 net.cpp:148] Top shape: 10 384 7 7 (188160)
2016-07-14 23:39:24.466 STDERR [INFO] I0714 23:39:24.466631  8726 net.cpp:156] Memory required for data: 543531520
2016-07-14 23:39:24.466 STDERR [INFO] I0714 23:39:24.466641  8726 layer_factory.hpp:77] Creating layer inception_5b/relu_1x1
2016-07-14 23:39:24.466 STDERR [INFO] I0714 23:39:24.466655  8726 net.cpp:91] Creating Layer inception_5b/relu_1x1
2016-07-14 23:39:24.466 STDERR [INFO] I0714 23:39:24.466662  8726 net.cpp:425] inception_5b/relu_1x1 <- inception_5b/1x1
2016-07-14 23:39:24.467 STDERR [INFO] I0714 23:39:24.466670  8726 net.cpp:386] inception_5b/relu_1x1 -> inception_5b/1x1 (in-place)
2016-07-14 23:39:24.468 STDERR [INFO] I0714 23:39:24.468475  8726 net.cpp:141] Setting up inception_5b/relu_1x1
2016-07-14 23:39:24.468 STDERR [INFO] I0714 23:39:24.468492  8726 net.cpp:148] Top shape: 10 384 7 7 (188160)
2016-07-14 23:39:24.468 STDERR [INFO] I0714 23:39:24.468497  8726 net.cpp:156] Memory required for data: 544284160
2016-07-14 23:39:24.468 STDERR [INFO] I0714 23:39:24.468502  8726 layer_factory.hpp:77] Creating layer inception_5b/3x3_reduce
2016-07-14 23:39:24.468 STDERR [INFO] I0714 23:39:24.468521  8726 net.cpp:91] Creating Layer inception_5b/3x3_reduce
2016-07-14 23:39:24.468 STDERR [INFO] I0714 23:39:24.468528  8726 net.cpp:425] inception_5b/3x3_reduce <- inception_5a/output_inception_5a/output_0_split_1
2016-07-14 23:39:24.468 STDERR [INFO] I0714 23:39:24.468538  8726 net.cpp:399] inception_5b/3x3_reduce -> inception_5b/3x3_reduce
2016-07-14 23:39:24.471 STDERR [INFO] I0714 23:39:24.471449  8730 net.cpp:141] Setting up inception_5a/pool_proj
2016-07-14 23:39:24.471 STDERR [INFO] I0714 23:39:24.471473  8730 net.cpp:148] Top shape: 10 128 7 7 (62720)
2016-07-14 23:39:24.471 STDERR [INFO] I0714 23:39:24.471479  8730 net.cpp:156] Memory required for data: 534374400
2016-07-14 23:39:24.471 STDERR [INFO] I0714 23:39:24.471490  8730 layer_factory.hpp:77] Creating layer inception_5a/relu_pool_proj
2016-07-14 23:39:24.471 STDERR [INFO] I0714 23:39:24.471501  8730 net.cpp:91] Creating Layer inception_5a/relu_pool_proj
2016-07-14 23:39:24.471 STDERR [INFO] I0714 23:39:24.471508  8730 net.cpp:425] inception_5a/relu_pool_proj <- inception_5a/pool_proj
2016-07-14 23:39:24.471 STDERR [INFO] I0714 23:39:24.471520  8730 net.cpp:386] inception_5a/relu_pool_proj -> inception_5a/pool_proj (in-place)
2016-07-14 23:39:24.471 STDERR [INFO] I0714 23:39:24.471846  8730 net.cpp:141] Setting up inception_5a/relu_pool_proj
2016-07-14 23:39:24.471 STDERR [INFO] I0714 23:39:24.471863  8730 net.cpp:148] Top shape: 10 128 7 7 (62720)
2016-07-14 23:39:24.472 STDERR [INFO] I0714 23:39:24.471868  8730 net.cpp:156] Memory required for data: 534625280
2016-07-14 23:39:24.472 STDERR [INFO] I0714 23:39:24.471873  8730 layer_factory.hpp:77] Creating layer inception_5a/output
2016-07-14 23:39:24.472 STDERR [INFO] I0714 23:39:24.471884  8730 net.cpp:91] Creating Layer inception_5a/output
2016-07-14 23:39:24.472 STDERR [INFO] I0714 23:39:24.471889  8730 net.cpp:425] inception_5a/output <- inception_5a/1x1
2016-07-14 23:39:24.472 STDERR [INFO] I0714 23:39:24.471896  8730 net.cpp:425] inception_5a/output <- inception_5a/3x3
2016-07-14 23:39:24.472 STDERR [INFO] I0714 23:39:24.471902  8730 net.cpp:425] inception_5a/output <- inception_5a/5x5
2016-07-14 23:39:24.472 STDERR [INFO] I0714 23:39:24.471907  8730 net.cpp:425] inception_5a/output <- inception_5a/pool_proj
2016-07-14 23:39:24.472 STDERR [INFO] I0714 23:39:24.471915  8730 net.cpp:399] inception_5a/output -> inception_5a/output
2016-07-14 23:39:24.472 STDERR [INFO] I0714 23:39:24.471990  8730 net.cpp:141] Setting up inception_5a/output
2016-07-14 23:39:24.472 STDERR [INFO] I0714 23:39:24.472002  8730 net.cpp:148] Top shape: 10 832 7 7 (407680)
2016-07-14 23:39:24.472 STDERR [INFO] I0714 23:39:24.472007  8730 net.cpp:156] Memory required for data: 536256000
2016-07-14 23:39:24.472 STDERR [INFO] I0714 23:39:24.472012  8730 layer_factory.hpp:77] Creating layer inception_5a/output_inception_5a/output_0_split
2016-07-14 23:39:24.472 STDERR [INFO] I0714 23:39:24.472023  8730 net.cpp:91] Creating Layer inception_5a/output_inception_5a/output_0_split
…
2016-07-14 23:39:24.472 STDERR [INFO] I0714 23:39:24.472046  8730 net.cpp:399] inception_5a/output_inception_5a/output_0_split -> inception_5a/output_inception_5a/output_0_split_1
2016-07-14 23:39:24.472 STDERR [INFO] I0714 23:39:24.472054  8730 net.cpp:399] inception_5a/output_inception_5a/output_0_split -> inception_5a/output_inception_5a/output_0_split_2
2016-07-14 23:39:24.472 STDERR [INFO] I0714 23:39:24.472064  8730 net.cpp:399] inception_5a/output_inception_5a/output_0_split -> inception_5a/output_inception_5a/output_0_split_3
2016-07-14 23:39:24.472 STDERR [INFO] I0714 23:39:24.472242  8730 net.cpp:141] Setting up inception_5a/output_inception_5a/output_0_split
2016-07-14 23:39:24.472 STDERR [INFO] I0714 23:39:24.472254  8730 net.cpp:148] Top shape: 10 832 7 7 (407680)
2016-07-14 23:39:24.472 STDERR [INFO] I0714 23:39:24.472260  8730 net.cpp:148] Top shape: 10 832 7 7 (407680)
2016-07-14 23:39:24.472 STDERR [INFO] I0714 23:39:24.472265  8730 net.cpp:148] Top shape: 10 832 7 7 (407680)
2016-07-14 23:39:24.472 STDERR [INFO] I0714 23:39:24.472271  8730 net.cpp:148] Top shape: 10 832 7 7 (407680)
2016-07-14 23:39:24.472 STDERR [INFO] I0714 23:39:24.472275  8730 net.cpp:156] Memory required for data: 542778880
2016-07-14 23:39:24.472 STDERR [INFO] I0714 23:39:24.472280  8730 layer_factory.hpp:77] Creating layer inception_5b/1x1
2016-07-14 23:39:24.472 STDERR [INFO] I0714 23:39:24.472297  8730 net.cpp:91] Creating Layer inception_5b/1x1
2016-07-14 23:39:24.473 STDERR [INFO] I0714 23:39:24.472304  8730 net.cpp:425] inception_5b/1x1 <- inception_5a/output_inception_5a/output_0_split_0
2016-07-14 23:39:24.473 STDERR [INFO] I0714 23:39:24.472316  8730 net.cpp:399] inception_5b/1x1 -> inception_5b/1x1
2016-07-14 23:39:24.476 STDERR [INFO] I0714 23:39:24.476497  8726 net.cpp:141] Setting up inception_5b/3x3_reduce
2016-07-14 23:39:24.476 STDERR [INFO] I0714 23:39:24.476521  8726 net.cpp:148] Top shape: 10 192 7 7 (94080)
2016-07-14 23:39:24.476 STDERR [INFO] I0714 23:39:24.476527  8726 net.cpp:156] Memory required for data: 544660480
2016-07-14 23:39:24.476 STDERR [INFO] I0714 23:39:24.476537  8726 layer_factory.hpp:77] Creating layer inception_5b/relu_3x3_reduce
2016-07-14 23:39:24.476 STDERR [INFO] I0714 23:39:24.476553  8726 net.cpp:91] Creating Layer inception_5b/relu_3x3_reduce
2016-07-14 23:39:24.476 STDERR [INFO] I0714 23:39:24.476560  8726 net.cpp:425] inception_5b/relu_3x3_reduce <- inception_5b/3x3_reduce
2016-07-14 23:39:24.476 STDERR [INFO] I0714 23:39:24.476567  8726 net.cpp:386] inception_5b/relu_3x3_reduce -> inception_5b/3x3_reduce (in-place)
2016-07-14 23:39:24.476 STDERR [INFO] I0714 23:39:24.476845  8726 net.cpp:141] Setting up inception_5b/relu_3x3_reduce
2016-07-14 23:39:24.476 STDERR [INFO] I0714 23:39:24.476856  8726 net.cpp:148] Top shape: 10 192 7 7 (94080)
2016-07-14 23:39:24.477 STDERR [INFO] I0714 23:39:24.476861  8726 net.cpp:156] Memory required for data: 545036800
2016-07-14 23:39:24.477 STDERR [INFO] I0714 23:39:24.476866  8726 layer_factory.hpp:77] Creating layer inception_5b/3x3
2016-07-14 23:39:24.477 STDERR [INFO] I0714 23:39:24.476881  8726 net.cpp:91] Creating Layer inception_5b/3x3
2016-07-14 23:39:24.477 STDERR [INFO] I0714 23:39:24.476886  8726 net.cpp:425] inception_5b/3x3 <- inception_5b/3x3_reduce
2016-07-14 23:39:24.477 STDERR [INFO] I0714 23:39:24.476897  8726 net.cpp:399] inception_5b/3x3 -> inception_5b/3x3
2016-07-14 23:39:24.481 STDERR [INFO] I0714 23:39:24.481657  8730 net.cpp:141] Setting up inception_5b/1x1
2016-07-14 23:39:24.481 STDERR [INFO] I0714 23:39:24.481680  8730 net.cpp:148] Top shape: 10 384 7 7 (188160)
2016-07-14 23:39:24.481 STDERR [INFO] I0714 23:39:24.481686  8730 net.cpp:156] Memory required for data: 543531520
2016-07-14 23:39:24.481 STDERR [INFO] I0714 23:39:24.481696  8730 layer_factory.hpp:77] Creating layer inception_5b/relu_1x1
2016-07-14 23:39:24.482 STDERR [INFO] I0714 23:39:24.481708  8730 net.cpp:91] Creating Layer inception_5b/relu_1x1
2016-07-14 23:39:24.482 STDERR [INFO] I0714 23:39:24.481714  8730 net.cpp:425] inception_5b/relu_1x1 <- inception_5b/1x1
2016-07-14 23:39:24.482 STDERR [INFO] I0714 23:39:24.481724  8730 net.cpp:386] inception_5b/relu_1x1 -> inception_5b/1x1 (in-place)
2016-07-14 23:39:24.482 STDERR [INFO] I0714 23:39:24.482605  8730 net.cpp:141] Setting up inception_5b/relu_1x1
2016-07-14 23:39:24.482 STDERR [INFO] I0714 23:39:24.482623  8730 net.cpp:148] Top shape: 10 384 7 7 (188160)
2016-07-14 23:39:24.482 STDERR [INFO] I0714 23:39:24.482628  8730 net.cpp:156] Memory required for data: 544284160
2016-07-14 23:39:24.482 STDERR [INFO] I0714 23:39:24.482633  8730 layer_factory.hpp:77] Creating layer inception_5b/3x3_reduce
2016-07-14 23:39:24.482 STDERR [INFO] I0714 23:39:24.482650  8730 net.cpp:91] Creating Layer inception_5b/3x3_reduce
2016-07-14 23:39:24.482 STDERR [INFO] I0714 23:39:24.482657  8730 net.cpp:425] inception_5b/3x3_reduce <- inception_5a/output_inception_5a/output_0_split_1
2016-07-14 23:39:24.482 STDERR [INFO] I0714 23:39:24.482671  8730 net.cpp:399] inception_5b/3x3_reduce -> inception_5b/3x3_reduce
2016-07-14 23:39:24.487 STDERR [INFO] I0714 23:39:24.487702  8726 net.cpp:141] Setting up inception_5b/3x3
2016-07-14 23:39:24.488 STDERR [INFO] I0714 23:39:24.487738  8726 net.cpp:148] Top shape: 10 384 7 7 (188160)
2016-07-14 23:39:24.488 STDERR [INFO] I0714 23:39:24.487743  8726 net.cpp:156] Memory required for data: 545789440
2016-07-14 23:39:24.488 STDERR [INFO] I0714 23:39:24.487756  8726 layer_factory.hpp:77] Creating layer inception_5b/relu_3x3
2016-07-14 23:39:24.488 STDERR [INFO] I0714 23:39:24.487771  8726 net.cpp:91] Creating Layer inception_5b/relu_3x3
2016-07-14 23:39:24.488 STDERR [INFO] I0714 23:39:24.487777  8726 net.cpp:425] inception_5b/relu_3x3 <- inception_5b/3x3
2016-07-14 23:39:24.488 STDERR [INFO] I0714 23:39:24.487787  8726 net.cpp:386] inception_5b/relu_3x3 -> inception_5b/3x3 (in-place)
2016-07-14 23:39:24.489 STDERR [INFO] I0714 23:39:24.489032  8726 net.cpp:141] Setting up inception_5b/relu_3x3
2016-07-14 23:39:24.489 STDERR [INFO] I0714 23:39:24.489047  8726 net.cpp:148] Top shape: 10 384 7 7 (188160)
2016-07-14 23:39:24.489 STDERR [INFO] I0714 23:39:24.489051  8726 net.cpp:156] Memory required for data: 546542080
2016-07-14 23:39:24.489 STDERR [INFO] I0714 23:39:24.489056  8726 layer_factory.hpp:77] Creating layer inception_5b/5x5_reduce
2016-07-14 23:39:24.489 STDERR [INFO] I0714 23:39:24.489074  8726 net.cpp:91] Creating Layer inception_5b/5x5_reduce
2016-07-14 23:39:24.489 STDERR [INFO] I0714 23:39:24.489081  8726 net.cpp:425] inception_5b/5x5_reduce <- inception_5a/output_inception_5a/output_0_split_2
2016-07-14 23:39:24.489 STDERR [INFO] I0714 23:39:24.489090  8726 net.cpp:399] inception_5b/5x5_reduce -> inception_5b/5x5_reduce
2016-07-14 23:39:24.490 STDERR [INFO] I0714 23:39:24.490828  8730 net.cpp:141] Setting up inception_5b/3x3_reduce
2016-07-14 23:39:24.491 STDERR [INFO] I0714 23:39:24.490849  8730 net.cpp:148] Top shape: 10 192 7 7 (94080)
2016-07-14 23:39:24.491 STDERR [INFO] I0714 23:39:24.490854  8730 net.cpp:156] Memory required for data: 544660480
2016-07-14 23:39:24.491 STDERR [INFO] I0714 23:39:24.490865  8730 layer_factory.hpp:77] Creating layer inception_5b/relu_3x3_reduce
2016-07-14 23:39:24.491 STDERR [INFO] I0714 23:39:24.490875  8730 net.cpp:91] Creating Layer inception_5b/relu_3x3_reduce
2016-07-14 23:39:24.491 STDERR [INFO] I0714 23:39:24.490881  8730 net.cpp:425] inception_5b/relu_3x3_reduce <- inception_5b/3x3_reduce
2016-07-14 23:39:24.491 STDERR [INFO] I0714 23:39:24.490895  8730 net.cpp:386] inception_5b/relu_3x3_reduce -> inception_5b/3x3_reduce (in-place)
2016-07-14 23:39:24.493 STDERR [INFO] I0714 23:39:24.493122  8730 net.cpp:141] Setting up inception_5b/relu_3x3_reduce
2016-07-14 23:39:24.493 STDERR [INFO] I0714 23:39:24.493139  8730 net.cpp:148] Top shape: 10 192 7 7 (94080)
2016-07-14 23:39:24.493 STDERR [INFO] I0714 23:39:24.493144  8730 net.cpp:156] Memory required for data: 545036800
2016-07-14 23:39:24.493 STDERR [INFO] I0714 23:39:24.493149  8730 layer_factory.hpp:77] Creating layer inception_5b/3x3
2016-07-14 23:39:24.493 STDERR [INFO] I0714 23:39:24.493170  8730 net.cpp:91] Creating Layer inception_5b/3x3
2016-07-14 23:39:24.493 STDERR [INFO] I0714 23:39:24.493176  8730 net.cpp:425] inception_5b/3x3 <- inception_5b/3x3_reduce
2016-07-14 23:39:24.493 STDERR [INFO] I0714 23:39:24.493185  8730 net.cpp:399] inception_5b/3x3 -> inception_5b/3x3
2016-07-14 23:39:24.496 STDERR [INFO] I0714 23:39:24.496278  8726 net.cpp:141] Setting up inception_5b/5x5_reduce
2016-07-14 23:39:24.496 STDERR [INFO] I0714 23:39:24.496301  8726 net.cpp:148] Top shape: 10 48 7 7 (23520)
2016-07-14 23:39:24.496 STDERR [INFO] I0714 23:39:24.496306  8726 net.cpp:156] Memory required for data: 546636160
2016-07-14 23:39:24.496 STDERR [INFO] I0714 23:39:24.496316  8726 layer_factory.hpp:77] Creating layer inception_5b/relu_5x5_reduce
2016-07-14 23:39:24.496 STDERR [INFO] I0714 23:39:24.496328  8726 net.cpp:91] Creating Layer inception_5b/relu_5x5_reduce
2016-07-14 23:39:24.496 STDERR [INFO] I0714 23:39:24.496335  8726 net.cpp:425] inception_5b/relu_5x5_reduce <- inception_5b/5x5_reduce
2016-07-14 23:39:24.496 STDERR [INFO] I0714 23:39:24.496342  8726 net.cpp:386] inception_5b/relu_5x5_reduce -> inception_5b/5x5_reduce (in-place)
2016-07-14 23:39:24.497 STDERR [INFO] I0714 23:39:24.497186  8726 net.cpp:141] Setting up inception_5b/relu_5x5_reduce
2016-07-14 23:39:24.497 STDERR [INFO] I0714 23:39:24.497202  8726 net.cpp:148] Top shape: 10 48 7 7 (23520)
2016-07-14 23:39:24.497 STDERR [INFO] I0714 23:39:24.497208  8726 net.cpp:156] Memory required for data: 546730240
2016-07-14 23:39:24.497 STDERR [INFO] I0714 23:39:24.497213  8726 layer_factory.hpp:77] Creating layer inception_5b/5x5
2016-07-14 23:39:24.497 STDERR [INFO] I0714 23:39:24.497226  8726 net.cpp:91] Creating Layer inception_5b/5x5
2016-07-14 23:39:24.497 STDERR [INFO] I0714 23:39:24.497232  8726 net.cpp:425] inception_5b/5x5 <- inception_5b/5x5_reduce
2016-07-14 23:39:24.497 STDERR [INFO] I0714 23:39:24.497244  8726 net.cpp:399] inception_5b/5x5 -> inception_5b/5x5
2016-07-14 23:39:24.502 STDERR [INFO] I0714 23:39:24.502337  8726 net.cpp:141] Setting up inception_5b/5x5
2016-07-14 23:39:24.502 STDERR [INFO] I0714 23:39:24.502357  8726 net.cpp:148] Top shape: 10 128 7 7 (62720)
2016-07-14 23:39:24.502 STDERR [INFO] I0714 23:39:24.502362  8726 net.cpp:156] Memory required for data: 546981120
2016-07-14 23:39:24.502 STDERR [INFO] I0714 23:39:24.502372  8726 layer_factory.hpp:77] Creating layer inception_5b/relu_5x5
2016-07-14 23:39:24.502 STDERR [INFO] I0714 23:39:24.502384  8726 net.cpp:91] Creating Layer inception_5b/relu_5x5
2016-07-14 23:39:24.502 STDERR [INFO] I0714 23:39:24.502390  8726 net.cpp:425] inception_5b/relu_5x5 <- inception_5b/5x5
2016-07-14 23:39:24.502 STDERR [INFO] I0714 23:39:24.502398  8726 net.cpp:386] inception_5b/relu_5x5 -> inception_5b/5x5 (in-place)
2016-07-14 23:39:24.503 STDERR [INFO] I0714 23:39:24.503631  8726 net.cpp:141] Setting up inception_5b/relu_5x5
2016-07-14 23:39:24.503 STDERR [INFO] I0714 23:39:24.503646  8726 net.cpp:148] Top shape: 10 128 7 7 (62720)
2016-07-14 23:39:24.503 STDERR [INFO] I0714 23:39:24.503651  8726 net.cpp:156] Memory required for data: 547232000
2016-07-14 23:39:24.503 STDERR [INFO] I0714 23:39:24.503656  8726 layer_factory.hpp:77] Creating layer inception_5b/pool
2016-07-14 23:39:24.503 STDERR [INFO] I0714 23:39:24.503669  8726 net.cpp:91] Creating Layer inception_5b/pool
2016-07-14 23:39:24.503 STDERR [INFO] I0714 23:39:24.503675  8726 net.cpp:425] inception_5b/pool <- inception_5a/output_inception_5a/output_0_split_3
2016-07-14 23:39:24.503 STDERR [INFO] I0714 23:39:24.503684  8726 net.cpp:399] inception_5b/pool -> inception_5b/pool
2016-07-14 23:39:24.504 STDERR [INFO] I0714 23:39:24.503901  8726 net.cpp:141] Setting up inception_5b/pool
2016-07-14 23:39:24.504 STDERR [INFO] I0714 23:39:24.503911  8726 net.cpp:148] Top shape: 10 832 7 7 (407680)
2016-07-14 23:39:24.504 STDERR [INFO] I0714 23:39:24.503916  8726 net.cpp:156] Memory required for data: 548862720
2016-07-14 23:39:24.504 STDERR [INFO] I0714 23:39:24.503921  8726 layer_factory.hpp:77] Creating layer inception_5b/pool_proj
2016-07-14 23:39:24.504 STDERR [INFO] I0714 23:39:24.503934  8726 net.cpp:91] Creating Layer inception_5b/pool_proj
2016-07-14 23:39:24.504 STDERR [INFO] I0714 23:39:24.503939  8726 net.cpp:425] inception_5b/pool_proj <- inception_5b/pool
2016-07-14 23:39:24.504 STDERR [INFO] I0714 23:39:24.503954  8726 net.cpp:399] inception_5b/pool_proj -> inception_5b/pool_proj
2016-07-14 23:39:24.506 STDERR [INFO] I0714 23:39:24.506348  8730 net.cpp:141] Setting up inception_5b/3x3
2016-07-14 23:39:24.506 STDERR [INFO] I0714 23:39:24.506371  8730 net.cpp:148] Top shape: 10 384 7 7 (188160)
2016-07-14 23:39:24.506 STDERR [INFO] I0714 23:39:24.506377  8730 net.cpp:156] Memory required for data: 545789440
2016-07-14 23:39:24.506 STDERR [INFO] I0714 23:39:24.506387  8730 layer_factory.hpp:77] Creating layer inception_5b/relu_3x3
2016-07-14 23:39:24.506 STDERR [INFO] I0714 23:39:24.506397  8730 net.cpp:91] Creating Layer inception_5b/relu_3x3
2016-07-14 23:39:24.506 STDERR [INFO] I0714 23:39:24.506407  8730 net.cpp:425] inception_5b/relu_3x3 <- inception_5b/3x3
2016-07-14 23:39:24.506 STDERR [INFO] I0714 23:39:24.506414  8730 net.cpp:386] inception_5b/relu_3x3 -> inception_5b/3x3 (in-place)
2016-07-14 23:39:24.506 STDERR [INFO] I0714 23:39:24.506747  8730 net.cpp:141] Setting up inception_5b/relu_3x3
2016-07-14 23:39:24.506 STDERR [INFO] I0714 23:39:24.506759  8730 net.cpp:148] Top shape: 10 384 7 7 (188160)
2016-07-14 23:39:24.506 STDERR [INFO] I0714 23:39:24.506764  8730 net.cpp:156] Memory required for data: 546542080
2016-07-14 23:39:24.506 STDERR [INFO] I0714 23:39:24.506769  8730 layer_factory.hpp:77] Creating layer inception_5b/5x5_reduce
2016-07-14 23:39:24.506 STDERR [INFO] I0714 23:39:24.506788  8730 net.cpp:91] Creating Layer inception_5b/5x5_reduce
2016-07-14 23:39:24.507 STDERR [INFO] I0714 23:39:24.506795  8730 net.cpp:425] inception_5b/5x5_reduce <- inception_5a/output_inception_5a/output_0_split_2
2016-07-14 23:39:24.507 STDERR [INFO] I0714 23:39:24.506808  8730 net.cpp:399] inception_5b/5x5_reduce -> inception_5b/5x5_reduce
2016-07-14 23:39:24.511 STDERR [INFO] I0714 23:39:24.511435  8726 net.cpp:141] Setting up inception_5b/pool_proj
2016-07-14 23:39:24.511 STDERR [INFO] I0714 23:39:24.511476  8726 net.cpp:148] Top shape: 10 128 7 7 (62720)
2016-07-14 23:39:24.511 STDERR [INFO] I0714 23:39:24.511482  8726 net.cpp:156] Memory required for data: 549113600
2016-07-14 23:39:24.511 STDERR [INFO] I0714 23:39:24.511493  8726 layer_factory.hpp:77] Creating layer inception_5b/relu_pool_proj
2016-07-14 23:39:24.511 STDERR [INFO] I0714 23:39:24.511504  8726 net.cpp:91] Creating Layer inception_5b/relu_pool_proj
2016-07-14 23:39:24.511 STDERR [INFO] I0714 23:39:24.511512  8726 net.cpp:425] inception_5b/relu_pool_proj <- inception_5b/pool_proj
2016-07-14 23:39:24.511 STDERR [INFO] I0714 23:39:24.511523  8726 net.cpp:386] inception_5b/relu_pool_proj -> inception_5b/pool_proj (in-place)
2016-07-14 23:39:24.512 STDERR [INFO] I0714 23:39:24.512476  8726 net.cpp:141] Setting up inception_5b/relu_pool_proj
2016-07-14 23:39:24.512 STDERR [INFO] I0714 23:39:24.512491  8726 net.cpp:148] Top shape: 10 128 7 7 (62720)
2016-07-14 23:39:24.512 STDERR [INFO] I0714 23:39:24.512509  8726 net.cpp:156] Memory required for data: 549364480
2016-07-14 23:39:24.512 STDERR [INFO] I0714 23:39:24.512514  8726 layer_factory.hpp:77] Creating layer inception_5b/output
2016-07-14 23:39:24.512 STDERR [INFO] I0714 23:39:24.512523  8726 net.cpp:91] Creating Layer inception_5b/output
2016-07-14 23:39:24.512 STDERR [INFO] I0714 23:39:24.512528  8726 net.cpp:425] inception_5b/output <- inception_5b/1x1
2016-07-14 23:39:24.512 STDERR [INFO] I0714 23:39:24.512536  8726 net.cpp:425] inception_5b/output <- inception_5b/3x3
2016-07-14 23:39:24.512 STDERR [INFO] I0714 23:39:24.512540  8726 net.cpp:425] inception_5b/output <- inception_5b/5x5
2016-07-14 23:39:24.512 STDERR [INFO] I0714 23:39:24.512545  8726 net.cpp:425] inception_5b/output <- inception_5b/pool_proj
2016-07-14 23:39:24.512 STDERR [INFO] I0714 23:39:24.512555  8726 net.cpp:399] inception_5b/output -> inception_5b/output
2016-07-14 23:39:24.512 STDERR [INFO] I0714 23:39:24.512610  8726 net.cpp:141] Setting up inception_5b/output
2016-07-14 23:39:24.512 STDERR [INFO] I0714 23:39:24.512619  8726 net.cpp:148] Top shape: 10 1024 7 7 (501760)
2016-07-14 23:39:24.513 STDERR [INFO] I0714 23:39:24.512622  8726 net.cpp:156] Memory required for data: 551371520
2016-07-14 23:39:24.513 STDERR [INFO] I0714 23:39:24.512627  8726 layer_factory.hpp:77] Creating layer pool5/7x7_s1
2016-07-14 23:39:24.513 STDERR [INFO] I0714 23:39:24.512635  8726 net.cpp:91] Creating Layer pool5/7x7_s1
2016-07-14 23:39:24.513 STDERR [INFO] I0714 23:39:24.512640  8726 net.cpp:425] pool5/7x7_s1 <- inception_5b/output
2016-07-14 23:39:24.513 STDERR [INFO] I0714 23:39:24.512651  8726 net.cpp:399] pool5/7x7_s1 -> pool5/7x7_s1
2016-07-14 23:39:24.513 STDERR [INFO] I0714 23:39:24.513797  8726 net.cpp:141] Setting up pool5/7x7_s1
2016-07-14 23:39:24.513 STDERR [INFO] I0714 23:39:24.513824  8726 net.cpp:148] Top shape: 10 1024 1 1 (10240)
2016-07-14 23:39:24.513 STDERR [INFO] I0714 23:39:24.513829  8726 net.cpp:156] Memory required for data: 551412480
2016-07-14 23:39:24.513 STDERR [INFO] I0714 23:39:24.513834  8726 layer_factory.hpp:77] Creating layer pool5/drop_7x7_s1
2016-07-14 23:39:24.514 STDERR [INFO] I0714 23:39:24.513852  8726 net.cpp:91] Creating Layer pool5/drop_7x7_s1
2016-07-14 23:39:24.514 STDERR [INFO] I0714 23:39:24.513859  8726 net.cpp:425] pool5/drop_7x7_s1 <- pool5/7x7_s1
2016-07-14 23:39:24.514 STDERR [INFO] I0714 23:39:24.513864  8726 net.cpp:386] pool5/drop_7x7_s1 -> pool5/7x7_s1 (in-place)
2016-07-14 23:39:24.514 STDERR [INFO] I0714 23:39:24.513936  8726 net.cpp:141] Setting up pool5/drop_7x7_s1
2016-07-14 23:39:24.514 STDERR [INFO] I0714 23:39:24.513945  8726 net.cpp:148] Top shape: 10 1024 1 1 (10240)
2016-07-14 23:39:24.514 STDERR [INFO] I0714 23:39:24.513950  8726 net.cpp:156] Memory required for data: 551453440
2016-07-14 23:39:24.514 STDERR [INFO] I0714 23:39:24.513954  8726 layer_factory.hpp:77] Creating layer loss3/classifier
2016-07-14 23:39:24.514 STDERR [INFO] I0714 23:39:24.513970  8726 net.cpp:91] Creating Layer loss3/classifier
2016-07-14 23:39:24.514 STDERR [INFO] I0714 23:39:24.513975  8726 net.cpp:425] loss3/classifier <- pool5/7x7_s1
2016-07-14 23:39:24.514 STDERR [INFO] I0714 23:39:24.513988  8726 net.cpp:399] loss3/classifier -> loss3/classifier
2016-07-14 23:39:24.516 STDERR [INFO] I0714 23:39:24.516916  8730 net.cpp:141] Setting up inception_5b/5x5_reduce
2016-07-14 23:39:24.517 STDERR [INFO] I0714 23:39:24.516937  8730 net.cpp:148] Top shape: 10 48 7 7 (23520)
2016-07-14 23:39:24.517 STDERR [INFO] I0714 23:39:24.516942  8730 net.cpp:156] Memory required for data: 546636160
2016-07-14 23:39:24.517 STDERR [INFO] I0714 23:39:24.516953  8730 layer_factory.hpp:77] Creating layer inception_5b/relu_5x5_reduce
2016-07-14 23:39:24.517 STDERR [INFO] I0714 23:39:24.516963  8730 net.cpp:91] Creating Layer inception_5b/relu_5x5_reduce
2016-07-14 23:39:24.517 STDERR [INFO] I0714 23:39:24.516970  8730 net.cpp:425] inception_5b/relu_5x5_reduce <- inception_5b/5x5_reduce
2016-07-14 23:39:24.517 STDERR [INFO] I0714 23:39:24.516983  8730 net.cpp:386] inception_5b/relu_5x5_reduce -> inception_5b/5x5_reduce (in-place)
2016-07-14 23:39:24.517 STDERR [INFO] I0714 23:39:24.517904  8730 net.cpp:141] Setting up inception_5b/relu_5x5_reduce
2016-07-14 23:39:24.518 STDERR [INFO] I0714 23:39:24.517922  8730 net.cpp:148] Top shape: 10 48 7 7 (23520)
2016-07-14 23:39:24.518 STDERR [INFO] I0714 23:39:24.517927  8730 net.cpp:156] Memory required for data: 546730240
2016-07-14 23:39:24.518 STDERR [INFO] I0714 23:39:24.517933  8730 layer_factory.hpp:77] Creating layer inception_5b/5x5
2016-07-14 23:39:24.518 STDERR [INFO] I0714 23:39:24.517953  8730 net.cpp:91] Creating Layer inception_5b/5x5
2016-07-14 23:39:24.518 STDERR [INFO] I0714 23:39:24.517961  8730 net.cpp:425] inception_5b/5x5 <- inception_5b/5x5_reduce
2016-07-14 23:39:24.518 STDERR [INFO] I0714 23:39:24.517971  8730 net.cpp:399] inception_5b/5x5 -> inception_5b/5x5
2016-07-14 23:39:24.521 STDERR [INFO] I0714 23:39:24.521275  8730 net.cpp:141] Setting up inception_5b/5x5
2016-07-14 23:39:24.521 STDERR [INFO] I0714 23:39:24.521296  8730 net.cpp:148] Top shape: 10 128 7 7 (62720)
2016-07-14 23:39:24.521 STDERR [INFO] I0714 23:39:24.521301  8730 net.cpp:156] Memory required for data: 546981120
2016-07-14 23:39:24.521 STDERR [INFO] I0714 23:39:24.521309  8730 layer_factory.hpp:77] Creating layer inception_5b/relu_5x5
2016-07-14 23:39:24.521 STDERR [INFO] I0714 23:39:24.521322  8730 net.cpp:91] Creating Layer inception_5b/relu_5x5
2016-07-14 23:39:24.521 STDERR [INFO] I0714 23:39:24.521328  8730 net.cpp:425] inception_5b/relu_5x5 <- inception_5b/5x5
2016-07-14 23:39:24.521 STDERR [INFO] I0714 23:39:24.521337  8730 net.cpp:386] inception_5b/relu_5x5 -> inception_5b/5x5 (in-place)
2016-07-14 23:39:24.522 STDERR [INFO] I0714 23:39:24.522219  8730 net.cpp:141] Setting up inception_5b/relu_5x5
2016-07-14 23:39:24.522 STDERR [INFO] I0714 23:39:24.522238  8730 net.cpp:148] Top shape: 10 128 7 7 (62720)
2016-07-14 23:39:24.522 STDERR [INFO] I0714 23:39:24.522244  8730 net.cpp:156] Memory required for data: 547232000
2016-07-14 23:39:24.522 STDERR [INFO] I0714 23:39:24.522250  8730 layer_factory.hpp:77] Creating layer inception_5b/pool
2016-07-14 23:39:24.522 STDERR [INFO] I0714 23:39:24.522260  8730 net.cpp:91] Creating Layer inception_5b/pool
2016-07-14 23:39:24.522 STDERR [INFO] I0714 23:39:24.522267  8730 net.cpp:425] inception_5b/pool <- inception_5a/output_inception_5a/output_0_split_3
2016-07-14 23:39:24.522 STDERR [INFO] I0714 23:39:24.522275  8730 net.cpp:399] inception_5b/pool -> inception_5b/pool
2016-07-14 23:39:24.522 STDERR [INFO] I0714 23:39:24.522346  8730 net.cpp:141] Setting up inception_5b/pool
2016-07-14 23:39:24.522 STDERR [INFO] I0714 23:39:24.522356  8730 net.cpp:148] Top shape: 10 832 7 7 (407680)
2016-07-14 23:39:24.522 STDERR [INFO] I0714 23:39:24.522361  8730 net.cpp:156] Memory required for data: 548862720
2016-07-14 23:39:24.522 STDERR [INFO] I0714 23:39:24.522366  8730 layer_factory.hpp:77] Creating layer inception_5b/pool_proj
2016-07-14 23:39:24.522 STDERR [INFO] I0714 23:39:24.522382  8730 net.cpp:91] Creating Layer inception_5b/pool_proj
2016-07-14 23:39:24.522 STDERR [INFO] I0714 23:39:24.522388  8730 net.cpp:425] inception_5b/pool_proj <- inception_5b/pool
2016-07-14 23:39:24.522 STDERR [INFO] I0714 23:39:24.522400  8730 net.cpp:399] inception_5b/pool_proj -> inception_5b/pool_proj
2016-07-14 23:39:24.524 STDERR [INFO] I0714 23:39:24.524298  8726 net.cpp:141] Setting up loss3/classifier
2016-07-14 23:39:24.524 STDERR [INFO] I0714 23:39:24.524343  8726 net.cpp:148] Top shape: 10 1000 (10000)
2016-07-14 23:39:24.524 STDERR [INFO] I0714 23:39:24.524349  8726 net.cpp:156] Memory required for data: 551493440
2016-07-14 23:39:24.524 STDERR [INFO] I0714 23:39:24.524360  8726 layer_factory.hpp:77] Creating layer prob
2016-07-14 23:39:24.524 STDERR [INFO] I0714 23:39:24.524371  8726 net.cpp:91] Creating Layer prob
2016-07-14 23:39:24.524 STDERR [INFO] I0714 23:39:24.524377  8726 net.cpp:425] prob <- loss3/classifier
2016-07-14 23:39:24.524 STDERR [INFO] I0714 23:39:24.524386  8726 net.cpp:399] prob -> prob
2016-07-14 23:39:24.526 STDERR [INFO] I0714 23:39:24.526278  8726 net.cpp:141] Setting up prob
2016-07-14 23:39:24.526 STDERR [INFO] I0714 23:39:24.526306  8726 net.cpp:148] Top shape: 10 1000 (10000)
2016-07-14 23:39:24.526 STDERR [INFO] I0714 23:39:24.526311  8726 net.cpp:156] Memory required for data: 551533440
2016-07-14 23:39:24.526 STDERR [INFO] I0714 23:39:24.526316  8726 net.cpp:219] prob does not need backward computation.
2016-07-14 23:39:24.526 STDERR [INFO] I0714 23:39:24.526321  8726 net.cpp:219] loss3/classifier does not need backward computation.
2016-07-14 23:39:24.526 STDERR [INFO] I0714 23:39:24.526325  8726 net.cpp:219] pool5/drop_7x7_s1 does not need backward computation.
…
2016-07-14 23:39:24.531 STDERR [INFO] I0714 23:39:24.526989  8726 net.cpp:219] conv1/7x7_s2 does not need backward computation.
2016-07-14 23:39:24.531 STDERR [INFO] I0714 23:39:24.526993  8726 net.cpp:219] data does not need backward computation.
2016-07-14 23:39:24.532 STDERR [INFO] I0714 23:39:24.526998  8726 net.cpp:261] This network produces output prob
2016-07-14 23:39:24.532 STDERR [INFO] I0714 23:39:24.527144  8726 net.cpp:274] Network initialization done.
2016-07-14 23:39:24.532 STDERR [INFO] I0714 23:39:24.527864  8730 net.cpp:141] Setting up inception_5b/pool_proj
2016-07-14 23:39:24.532 STDERR [INFO] I0714 23:39:24.527882  8730 net.cpp:148] Top shape: 10 128 7 7 (62720)
2016-07-14 23:39:24.532 STDERR [INFO] I0714 23:39:24.527887  8730 net.cpp:156] Memory required for data: 549113600
2016-07-14 23:39:24.532 STDERR [INFO] I0714 23:39:24.527897  8730 layer_factory.hpp:77] Creating layer inception_5b/relu_pool_proj
2016-07-14 23:39:24.532 STDERR [INFO] I0714 23:39:24.527912  8730 net.cpp:91] Creating Layer inception_5b/relu_pool_proj
2016-07-14 23:39:24.532 STDERR [INFO] I0714 23:39:24.527920  8730 net.cpp:425] inception_5b/relu_pool_proj <- inception_5b/pool_proj
2016-07-14 23:39:24.532 STDERR [INFO] I0714 23:39:24.527927  8730 net.cpp:386] inception_5b/relu_pool_proj -> inception_5b/pool_proj (in-place)
2016-07-14 23:39:24.532 STDERR [INFO] I0714 23:39:24.528838  8730 net.cpp:141] Setting up inception_5b/relu_pool_proj
2016-07-14 23:39:24.532 STDERR [INFO] I0714 23:39:24.528852  8730 net.cpp:148] Top shape: 10 128 7 7 (62720)
2016-07-14 23:39:24.532 STDERR [INFO] I0714 23:39:24.528861  8730 net.cpp:156] Memory required for data: 549364480
2016-07-14 23:39:24.532 STDERR [INFO] I0714 23:39:24.528867  8730 layer_factory.hpp:77] Creating layer inception_5b/output
2016-07-14 23:39:24.532 STDERR [INFO] I0714 23:39:24.528877  8730 net.cpp:91] Creating Layer inception_5b/output
2016-07-14 23:39:24.532 STDERR [INFO] I0714 23:39:24.528882  8730 net.cpp:425] inception_5b/output <- inception_5b/1x1
2016-07-14 23:39:24.532 STDERR [INFO] I0714 23:39:24.528889  8730 net.cpp:425] inception_5b/output <- inception_5b/3x3
2016-07-14 23:39:24.532 STDERR [INFO] I0714 23:39:24.528895  8730 net.cpp:425] inception_5b/output <- inception_5b/5x5
2016-07-14 23:39:24.532 STDERR [INFO] I0714 23:39:24.528901  8730 net.cpp:425] inception_5b/output <- inception_5b/pool_proj
2016-07-14 23:39:24.532 STDERR [INFO] I0714 23:39:24.528908  8730 net.cpp:399] inception_5b/output -> inception_5b/output
2016-07-14 23:39:24.532 STDERR [INFO] I0714 23:39:24.528959  8730 net.cpp:141] Setting up inception_5b/output
2016-07-14 23:39:24.532 STDERR [INFO] I0714 23:39:24.528970  8730 net.cpp:148] Top shape: 10 1024 7 7 (501760)
2016-07-14 23:39:24.532 STDERR [INFO] I0714 23:39:24.528975  8730 net.cpp:156] Memory required for data: 551371520
2016-07-14 23:39:24.532 STDERR [INFO] I0714 23:39:24.528980  8730 layer_factory.hpp:77] Creating layer pool5/7x7_s1
2016-07-14 23:39:24.532 STDERR [INFO] I0714 23:39:24.528990  8730 net.cpp:91] Creating Layer pool5/7x7_s1
2016-07-14 23:39:24.532 STDERR [INFO] I0714 23:39:24.528998  8730 net.cpp:425] pool5/7x7_s1 <- inception_5b/output
2016-07-14 23:39:24.532 STDERR [INFO] I0714 23:39:24.529006  8730 net.cpp:399] pool5/7x7_s1 -> pool5/7x7_s1
2016-07-14 23:39:24.532 STDERR [INFO] I0714 23:39:24.529359  8730 net.cpp:141] Setting up pool5/7x7_s1
2016-07-14 23:39:24.532 STDERR [INFO] I0714 23:39:24.529371  8730 net.cpp:148] Top shape: 10 1024 1 1 (10240)
2016-07-14 23:39:24.532 STDERR [INFO] I0714 23:39:24.529376  8730 net.cpp:156] Memory required for data: 551412480
2016-07-14 23:39:24.532 STDERR [INFO] I0714 23:39:24.529382  8730 layer_factory.hpp:77] Creating layer pool5/drop_7x7_s1
2016-07-14 23:39:24.533 STDERR [INFO] I0714 23:39:24.529393  8730 net.cpp:91] Creating Layer pool5/drop_7x7_s1
2016-07-14 23:39:24.533 STDERR [INFO] I0714 23:39:24.529398  8730 net.cpp:425] pool5/drop_7x7_s1 <- pool5/7x7_s1
2016-07-14 23:39:24.533 STDERR [INFO] I0714 23:39:24.529405  8730 net.cpp:386] pool5/drop_7x7_s1 -> pool5/7x7_s1 (in-place)
2016-07-14 23:39:24.533 STDERR [INFO] I0714 23:39:24.529446  8730 net.cpp:141] Setting up pool5/drop_7x7_s1
2016-07-14 23:39:24.533 STDERR [INFO] I0714 23:39:24.529456  8730 net.cpp:148] Top shape: 10 1024 1 1 (10240)
2016-07-14 23:39:24.533 STDERR [INFO] I0714 23:39:24.529460  8730 net.cpp:156] Memory required for data: 551453440
2016-07-14 23:39:24.533 STDERR [INFO] I0714 23:39:24.529465  8730 layer_factory.hpp:77] Creating layer loss3/classifier
2016-07-14 23:39:24.533 STDERR [INFO] I0714 23:39:24.529481  8730 net.cpp:91] Creating Layer loss3/classifier
2016-07-14 23:39:24.533 STDERR [INFO] I0714 23:39:24.529486  8730 net.cpp:425] loss3/classifier <- pool5/7x7_s1
2016-07-14 23:39:24.533 STDERR [INFO] I0714 23:39:24.529495  8730 net.cpp:399] loss3/classifier -> loss3/classifier
2016-07-14 23:39:24.541 STDERR [INFO] I0714 23:39:24.541117  8730 net.cpp:141] Setting up loss3/classifier
2016-07-14 23:39:24.541 STDERR [INFO] I0714 23:39:24.541142  8730 net.cpp:148] Top shape: 10 1000 (10000)
2016-07-14 23:39:24.541 STDERR [INFO] I0714 23:39:24.541148  8730 net.cpp:156] Memory required for data: 551493440
2016-07-14 23:39:24.541 STDERR [INFO] I0714 23:39:24.541158  8730 layer_factory.hpp:77] Creating layer prob
2016-07-14 23:39:24.541 STDERR [INFO] I0714 23:39:24.541169  8730 net.cpp:91] Creating Layer prob
2016-07-14 23:39:24.541 STDERR [INFO] I0714 23:39:24.541175  8730 net.cpp:425] prob <- loss3/classifier
2016-07-14 23:39:24.541 STDERR [INFO] I0714 23:39:24.541187  8730 net.cpp:399] prob -> prob
2016-07-14 23:39:24.542 STDERR [INFO] I0714 23:39:24.542356  8730 net.cpp:141] Setting up prob
2016-07-14 23:39:24.542 STDERR [INFO] I0714 23:39:24.542373  8730 net.cpp:148] Top shape: 10 1000 (10000)
2016-07-14 23:39:24.542 STDERR [INFO] I0714 23:39:24.542378  8730 net.cpp:156] Memory required for data: 551533440
2016-07-14 23:39:24.542 STDERR [INFO] I0714 23:39:24.542384  8730 net.cpp:219] prob does not need backward computation.
2016-07-14 23:39:24.542 STDERR [INFO] I0714 23:39:24.542389  8730 net.cpp:219] loss3/classifier does not need backward computation.
2016-07-14 23:39:24.542 STDERR [INFO] I0714 23:39:24.542397  8730 net.cpp:219] pool5/drop_7x7_s1 does not need backward computation.
…
