…
Java HotSpot(TM) 64-Bit Server VM warning: You have loaded library /home/peifeng/work/run/storm102/data/workers/503aa109-34aa-4b92-ae5b-baf4fd6f421a/tmp/cvld4565862960172434044/libopencv_java310.xine1.so which might have disabled stack guard. The VM will try to fix the stack guard now.
It's highly recommended that you fix the library with 'execstack -c <libfile>', or link it with '-z noexecstack'.
WARNING: Logging before InitGoogleLogging() is written to STDERR
Loading the model + trained: 1959.5ms
I0924 03:02:03.307763 12509 net.cpp:49] Initializing net from parameters: 
Using cv::Size and some other stuff: 0.034ms
name: "CaffeNet"
state {
  phase: TEST
}
layer {
  name: "data"
  type: "Input"
  top: "data"
  input_param {
    shape {
      dim: 10
      dim: 3
      dim: 227
      dim: 227
    }
  }
}
layer {
  name: "conv1"
  type: "Convolution"
  bottom: "data"
  top: "conv1"
  convolution_param {
    num_output: 96
    kernel_size: 11
    stride: 4
  }
}
layer {
  name: "relu1"
  type: "ReLU"
  bottom: "conv1"
  top: "conv1"
}
layer {
  name: "pool1"
  type: "Pooling"
  bottom: "conv1"
  top: "pool1"
  pooling_param {
    pool: MAX
    kernel_size: 3
    stride: 2
  }
}
layer {
  name: "norm1"
  type: "LRN"
  bottom: "pool1"
  top: "norm1"
  lrn_param {
    local_size: 5
    alpha: 0.0001
    beta: 0.75
  }
}
layer {
  name: "conv2"
  type: "Convolution"
  bottom: "norm1"
  top: "conv2"
  convolution_param {
    num_output: 256
    pad: 2
    kernel_size: 5
    group: 2
  }
}
layer {
  name: "relu2"
  type: "ReLU"
  bottom: "conv2"
  top: "conv2"
}
layer {
  name: "pool2"
  type: "Pooling"
  bottom: "conv2"
  top: "pool2"
  pooling_param {
    pool: MAX
    kernel_size: 3
    stride: 2
  }
}
layer {
  name: "norm2"
  type: "LRN"
  bottom: "pool2"
  top: "norm2"
  lrn_param {
    local_size: 5
    alpha: 0.0001
    beta: 0.75
  }
}
layer {
  name: "conv3"
  type: "Convolution"
  bottom: "norm2"
  top: "conv3"
  convolution_param {
    num_output: 384
    pad: 1
    kernel_size: 3
  }
}
layer {
  name: "relu3"
  type: "ReLU"
  bottom: "conv3"
  top: "conv3"
}
layer {
  name: "conv4"
  type: "Convolution"
  bottom: "conv3"
  top: "conv4"
  convolution_param {
    num_output: 384
    pad: 1
    kernel_size: 3
    group: 2
  }
}
layer {
  name: "relu4"
  type: "ReLU"
  bottom: "conv4"
  top: "conv4"
}
layer {
  name: "conv5"
  type: "Convolution"
  bottom: "conv4"
  top: "conv5"
  convolution_param {
    num_output: 256
    pad: 1
    kernel_size: 3
    group: 2
  }
}
layer {
  name: "relu5"
  type: "ReLU"
  bottom: "conv5"
  top: "conv5"
}
layer {
  name: "pool5"
  type: "Pooling"
  bottom: "conv5"
  top: "pool5"
  pooling_param {
    pool: MAX
    kernel_size: 3
    stride: 2
  }
}
layer {
  name: "fc6"
  type: "InnerProduct"
  bottom: "pool5"
  top: "fc6"
  inner_product_param {
    num_output: 4096
  }
}
layer {
  name: "relu6"
  type: "ReLU"
  bottom: "fc6"
  top: "fc6"
}
layer {
  name: "drop6"
  type: "Dropout"
  bottom: "fc6"
  top: "fc6"
  dropout_param {
    dropout_ratio: 0.5
  }
}
layer {
  name: "fc7"
  type: "InnerProduct"
  bottom: "fc6"
  top: "fc7"
  inner_product_param {
    num_output: 4096
  }
}
layer {
  name: "relu7"
  type: "ReLU"
  bottom: "fc7"
  top: "fc7"
}
layer {
  name: "drop7"
  type: "Dropout"
  bottom: "fc7"
  top: "fc7"
  dropout_param {
    dropout_ratio: 0.5
  }
}
layer {
  name: "fc8"
  type: "InnerProduct"
  bottom: "fc7"
  top: "fc8"
  inner_product_param {
    num_output: 1000
  }
}
layer {
  name: "prob"
  type: "Softmax"
  bottom: "fc8"
  top: "prob"
}
I0924 03:02:03.307981 12509 layer_factory.hpp:77] Creating layer data
I0924 03:02:03.308017 12509 net.cpp:91] Creating Layer data
I0924 03:02:03.308027 12509 net.cpp:399] data -> data
I0924 03:02:03.851688 12509 net.cpp:141] Setting up data
I0924 03:02:03.851788 12509 net.cpp:148] Top shape: 10 3 227 227 (1545870)
I0924 03:02:03.851796 12509 net.cpp:156] Memory required for data: 6183480
I0924 03:02:03.851815 12509 layer_factory.hpp:77] Creating layer conv1
I0924 03:02:03.851846 12509 net.cpp:91] Creating Layer conv1
I0924 03:02:03.851856 12509 net.cpp:425] conv1 <- data
I0924 03:02:03.851871 12509 net.cpp:399] conv1 -> conv1
I0924 03:02:04.046283 12509 net.cpp:141] Setting up conv1
I0924 03:02:04.046336 12509 net.cpp:148] Top shape: 10 96 55 55 (2904000)
I0924 03:02:04.046344 12509 net.cpp:156] Memory required for data: 17799480
I0924 03:02:04.046372 12509 layer_factory.hpp:77] Creating layer relu1
I0924 03:02:04.046392 12509 net.cpp:91] Creating Layer relu1
I0924 03:02:04.046401 12509 net.cpp:425] relu1 <- conv1
I0924 03:02:04.046408 12509 net.cpp:386] relu1 -> conv1 (in-place)
I0924 03:02:04.046880 12509 net.cpp:141] Setting up relu1
I0924 03:02:04.046895 12509 net.cpp:148] Top shape: 10 96 55 55 (2904000)
I0924 03:02:04.046901 12509 net.cpp:156] Memory required for data: 29415480
I0924 03:02:04.046907 12509 layer_factory.hpp:77] Creating layer pool1
I0924 03:02:04.046921 12509 net.cpp:91] Creating Layer pool1
I0924 03:02:04.046927 12509 net.cpp:425] pool1 <- conv1
I0924 03:02:04.046936 12509 net.cpp:399] pool1 -> pool1
I0924 03:02:04.047024 12509 net.cpp:141] Setting up pool1
I0924 03:02:04.047036 12509 net.cpp:148] Top shape: 10 96 27 27 (699840)
I0924 03:02:04.047042 12509 net.cpp:156] Memory required for data: 32214840
I0924 03:02:04.047047 12509 layer_factory.hpp:77] Creating layer norm1
I0924 03:02:04.047070 12509 net.cpp:91] Creating Layer norm1
I0924 03:02:04.047076 12509 net.cpp:425] norm1 <- pool1
I0924 03:02:04.047086 12509 net.cpp:399] norm1 -> norm1
I0924 03:02:04.047386 12509 net.cpp:141] Setting up norm1
I0924 03:02:04.047399 12509 net.cpp:148] Top shape: 10 96 27 27 (699840)
I0924 03:02:04.047405 12509 net.cpp:156] Memory required for data: 35014200
I0924 03:02:04.047410 12509 layer_factory.hpp:77] Creating layer conv2
I0924 03:02:04.047430 12509 net.cpp:91] Creating Layer conv2
I0924 03:02:04.047435 12509 net.cpp:425] conv2 <- norm1
I0924 03:02:04.047443 12509 net.cpp:399] conv2 -> conv2
I0924 03:02:04.051731 12509 net.cpp:141] Setting up conv2
I0924 03:02:04.051749 12509 net.cpp:148] Top shape: 10 256 27 27 (1866240)
I0924 03:02:04.051755 12509 net.cpp:156] Memory required for data: 42479160
I0924 03:02:04.051769 12509 layer_factory.hpp:77] Creating layer relu2
I0924 03:02:04.051779 12509 net.cpp:91] Creating Layer relu2
I0924 03:02:04.051789 12509 net.cpp:425] relu2 <- conv2
I0924 03:02:04.051796 12509 net.cpp:386] relu2 -> conv2 (in-place)
I0924 03:02:04.052233 12509 net.cpp:141] Setting up relu2
I0924 03:02:04.052248 12509 net.cpp:148] Top shape: 10 256 27 27 (1866240)
I0924 03:02:04.052253 12509 net.cpp:156] Memory required for data: 49944120
I0924 03:02:04.052259 12509 layer_factory.hpp:77] Creating layer pool2
I0924 03:02:04.052274 12509 net.cpp:91] Creating Layer pool2
I0924 03:02:04.052280 12509 net.cpp:425] pool2 <- conv2
I0924 03:02:04.052289 12509 net.cpp:399] pool2 -> pool2
I0924 03:02:04.052355 12509 net.cpp:141] Setting up pool2
I0924 03:02:04.052366 12509 net.cpp:148] Top shape: 10 256 13 13 (432640)
I0924 03:02:04.052371 12509 net.cpp:156] Memory required for data: 51674680
I0924 03:02:04.052376 12509 layer_factory.hpp:77] Creating layer norm2
I0924 03:02:04.052391 12509 net.cpp:91] Creating Layer norm2
I0924 03:02:04.052397 12509 net.cpp:425] norm2 <- pool2
I0924 03:02:04.052404 12509 net.cpp:399] norm2 -> norm2
I0924 03:02:04.052687 12509 net.cpp:141] Setting up norm2
I0924 03:02:04.052702 12509 net.cpp:148] Top shape: 10 256 13 13 (432640)
I0924 03:02:04.052711 12509 net.cpp:156] Memory required for data: 53405240
I0924 03:02:04.052716 12509 layer_factory.hpp:77] Creating layer conv3
I0924 03:02:04.052727 12509 net.cpp:91] Creating Layer conv3
I0924 03:02:04.052733 12509 net.cpp:425] conv3 <- norm2
I0924 03:02:04.052745 12509 net.cpp:399] conv3 -> conv3
I0924 03:02:04.056689 12509 net.cpp:141] Setting up conv3
I0924 03:02:04.056706 12509 net.cpp:148] Top shape: 10 384 13 13 (648960)
I0924 03:02:04.056712 12509 net.cpp:156] Memory required for data: 56001080
I0924 03:02:04.056727 12509 layer_factory.hpp:77] Creating layer relu3
I0924 03:02:04.056737 12509 net.cpp:91] Creating Layer relu3
I0924 03:02:04.056743 12509 net.cpp:425] relu3 <- conv3
I0924 03:02:04.056756 12509 net.cpp:386] relu3 -> conv3 (in-place)
I0924 03:02:04.056998 12509 net.cpp:141] Setting up relu3
I0924 03:02:04.057011 12509 net.cpp:148] Top shape: 10 384 13 13 (648960)
I0924 03:02:04.057016 12509 net.cpp:156] Memory required for data: 58596920
I0924 03:02:04.057023 12509 layer_factory.hpp:77] Creating layer conv4
I0924 03:02:04.057036 12509 net.cpp:91] Creating Layer conv4
I0924 03:02:04.057042 12509 net.cpp:425] conv4 <- conv3
I0924 03:02:04.057054 12509 net.cpp:399] conv4 -> conv4
I0924 03:02:04.061473 12509 net.cpp:141] Setting up conv4
I0924 03:02:04.061491 12509 net.cpp:148] Top shape: 10 384 13 13 (648960)
I0924 03:02:04.061497 12509 net.cpp:156] Memory required for data: 61192760
I0924 03:02:04.061507 12509 layer_factory.hpp:77] Creating layer relu4
I0924 03:02:04.061522 12509 net.cpp:91] Creating Layer relu4
I0924 03:02:04.061528 12509 net.cpp:425] relu4 <- conv4
I0924 03:02:04.061537 12509 net.cpp:386] relu4 -> conv4 (in-place)
I0924 03:02:04.061967 12509 net.cpp:141] Setting up relu4
I0924 03:02:04.061982 12509 net.cpp:148] Top shape: 10 384 13 13 (648960)
I0924 03:02:04.061987 12509 net.cpp:156] Memory required for data: 63788600
I0924 03:02:04.061993 12509 layer_factory.hpp:77] Creating layer conv5
I0924 03:02:04.062012 12509 net.cpp:91] Creating Layer conv5
I0924 03:02:04.062018 12509 net.cpp:425] conv5 <- conv4
I0924 03:02:04.062031 12509 net.cpp:399] conv5 -> conv5
I0924 03:02:04.065968 12509 net.cpp:141] Setting up conv5
I0924 03:02:04.065985 12509 net.cpp:148] Top shape: 10 256 13 13 (432640)
I0924 03:02:04.065990 12509 net.cpp:156] Memory required for data: 65519160
I0924 03:02:04.066005 12509 layer_factory.hpp:77] Creating layer relu5
I0924 03:02:04.066015 12509 net.cpp:91] Creating Layer relu5
I0924 03:02:04.066021 12509 net.cpp:425] relu5 <- conv5
I0924 03:02:04.066031 12509 net.cpp:386] relu5 -> conv5 (in-place)
I0924 03:02:04.066481 12509 net.cpp:141] Setting up relu5
I0924 03:02:04.066496 12509 net.cpp:148] Top shape: 10 256 13 13 (432640)
I0924 03:02:04.066503 12509 net.cpp:156] Memory required for data: 67249720
I0924 03:02:04.066509 12509 layer_factory.hpp:77] Creating layer pool5
I0924 03:02:04.066521 12509 net.cpp:91] Creating Layer pool5
I0924 03:02:04.066527 12509 net.cpp:425] pool5 <- conv5
I0924 03:02:04.066535 12509 net.cpp:399] pool5 -> pool5
I0924 03:02:04.066619 12509 net.cpp:141] Setting up pool5
I0924 03:02:04.066632 12509 net.cpp:148] Top shape: 10 256 6 6 (92160)
I0924 03:02:04.066637 12509 net.cpp:156] Memory required for data: 67618360
I0924 03:02:04.066642 12509 layer_factory.hpp:77] Creating layer fc6
I0924 03:02:04.066661 12509 net.cpp:91] Creating Layer fc6
I0924 03:02:04.066668 12509 net.cpp:425] fc6 <- pool5
I0924 03:02:04.066681 12509 net.cpp:399] fc6 -> fc6
I0924 03:02:04.182359 12509 net.cpp:141] Setting up fc6
I0924 03:02:04.182411 12509 net.cpp:148] Top shape: 10 4096 (40960)
I0924 03:02:04.182418 12509 net.cpp:156] Memory required for data: 67782200
I0924 03:02:04.182432 12509 layer_factory.hpp:77] Creating layer relu6
I0924 03:02:04.182452 12509 net.cpp:91] Creating Layer relu6
I0924 03:02:04.182461 12509 net.cpp:425] relu6 <- fc6
I0924 03:02:04.182469 12509 net.cpp:386] relu6 -> fc6 (in-place)
I0924 03:02:04.182885 12509 net.cpp:141] Setting up relu6
I0924 03:02:04.182899 12509 net.cpp:148] Top shape: 10 4096 (40960)
I0924 03:02:04.182905 12509 net.cpp:156] Memory required for data: 67946040
I0924 03:02:04.182911 12509 layer_factory.hpp:77] Creating layer drop6
I0924 03:02:04.182927 12509 net.cpp:91] Creating Layer drop6
I0924 03:02:04.182934 12509 net.cpp:425] drop6 <- fc6
I0924 03:02:04.182947 12509 net.cpp:386] drop6 -> fc6 (in-place)
I0924 03:02:04.183004 12509 net.cpp:141] Setting up drop6
I0924 03:02:04.183017 12509 net.cpp:148] Top shape: 10 4096 (40960)
I0924 03:02:04.183022 12509 net.cpp:156] Memory required for data: 68109880
I0924 03:02:04.183027 12509 layer_factory.hpp:77] Creating layer fc7
I0924 03:02:04.183043 12509 net.cpp:91] Creating Layer fc7
I0924 03:02:04.183049 12509 net.cpp:425] fc7 <- fc6
I0924 03:02:04.183058 12509 net.cpp:399] fc7 -> fc7
I0924 03:02:04.235626 12509 net.cpp:141] Setting up fc7
I0924 03:02:04.235677 12509 net.cpp:148] Top shape: 10 4096 (40960)
I0924 03:02:04.235683 12509 net.cpp:156] Memory required for data: 68273720
I0924 03:02:04.235697 12509 layer_factory.hpp:77] Creating layer relu7
I0924 03:02:04.235718 12509 net.cpp:91] Creating Layer relu7
I0924 03:02:04.235724 12509 net.cpp:425] relu7 <- fc7
I0924 03:02:04.235734 12509 net.cpp:386] relu7 -> fc7 (in-place)
I0924 03:02:04.236436 12509 net.cpp:141] Setting up relu7
I0924 03:02:04.236451 12509 net.cpp:148] Top shape: 10 4096 (40960)
I0924 03:02:04.236457 12509 net.cpp:156] Memory required for data: 68437560
I0924 03:02:04.236464 12509 layer_factory.hpp:77] Creating layer drop7
I0924 03:02:04.236477 12509 net.cpp:91] Creating Layer drop7
I0924 03:02:04.236484 12509 net.cpp:425] drop7 <- fc7
I0924 03:02:04.236490 12509 net.cpp:386] drop7 -> fc7 (in-place)
I0924 03:02:04.236533 12509 net.cpp:141] Setting up drop7
I0924 03:02:04.236543 12509 net.cpp:148] Top shape: 10 4096 (40960)
I0924 03:02:04.236548 12509 net.cpp:156] Memory required for data: 68601400
I0924 03:02:04.236553 12509 layer_factory.hpp:77] Creating layer fc8
I0924 03:02:04.236572 12509 net.cpp:91] Creating Layer fc8
I0924 03:02:04.236578 12509 net.cpp:425] fc8 <- fc7
I0924 03:02:04.236588 12509 net.cpp:399] fc8 -> fc8
I0924 03:02:04.249523 12509 net.cpp:141] Setting up fc8
I0924 03:02:04.249572 12509 net.cpp:148] Top shape: 10 1000 (10000)
I0924 03:02:04.249583 12509 net.cpp:156] Memory required for data: 68641400
I0924 03:02:04.249596 12509 layer_factory.hpp:77] Creating layer prob
I0924 03:02:04.249614 12509 net.cpp:91] Creating Layer prob
I0924 03:02:04.249621 12509 net.cpp:425] prob <- fc8
I0924 03:02:04.249632 12509 net.cpp:399] prob -> prob
I0924 03:02:04.250118 12509 net.cpp:141] Setting up prob
I0924 03:02:04.250131 12509 net.cpp:148] Top shape: 10 1000 (10000)
I0924 03:02:04.250138 12509 net.cpp:156] Memory required for data: 68681400
I0924 03:02:04.250144 12509 net.cpp:219] prob does not need backward computation.
I0924 03:02:04.250149 12509 net.cpp:219] fc8 does not need backward computation.
I0924 03:02:04.250154 12509 net.cpp:219] drop7 does not need backward computation.
I0924 03:02:04.250159 12509 net.cpp:219] relu7 does not need backward computation.
…
W0924 03:02:11.356616 12493 upgrade_proto.cpp:71] Note that future Caffe releases will only support input layers and not input fields.
I0924 03:02:11.357002 12493 net.cpp:49] Initializing net from parameters: 
name: "s2vt:features_to_lstm"
state {
  phase: TEST
}
layer {
  name: "input"
  type: "Input"
  top: "frames_fc7"
  top: "cont_sentence"
  top: "input_sentence"
  top: "stage_indicator"
  input_param {
    shape {
      dim: 1
      dim: 4096
    }
    shape {
      dim: 1
      dim: 1
    }
    shape {
      dim: 1
      dim: 1
    }
    shape {
      dim: 1
      dim: 1
    }
  }
}
layer {
  name: "embed_encoder"
  type: "InnerProduct"
  bottom: "frames_fc7"
  top: "embedded_in_frames"
  param {
    lr_mult: 1
    decay_mult: 1
  }
  param {
    lr_mult: 2
    decay_mult: 0
  }
  inner_product_param {
    num_output: 500
    weight_filler {
      type: "xavier"
    }
    bias_filler {
      type: "constant"
      value: 0.2
    }
  }
}
layer {
  name: "reshape_frames"
  type: "Reshape"
  bottom: "embedded_in_frames"
  top: "embedded_input_frames"
  reshape_param {
    shape {
      dim: 1
      dim: 1
      dim: 500
    }
  }
}
layer {
  name: "reshape_stage_indicator"
  type: "Reshape"
  bottom: "stage_indicator"
  top: "reshaped_stage_indicator"
  reshape_param {
    shape {
      dim: 1
      dim: 1
      dim: 1
    }
  }
}
layer {
  name: "embedding"
  type: "Embed"
  bottom: "input_sentence"
  top: "embedded_input_sentence"
  param {
    lr_mult: 1
  }
  embed_param {
    num_output: 500
    input_dim: 46168
    bias_term: false
    weight_filler {
      type: "uniform"
      min: -0.08
      max: 0.08
    }
  }
}
layer {
  name: "lstm1"
  type: "LSTM"
  bottom: "embedded_input_frames"
  bottom: "cont_sentence"
  top: "lstm1"
  recurrent_param {
    num_output: 1000
    weight_filler {
      type: "uniform"
      min: -0.08
      max: 0.08
    }
    bias_filler {
      type: "constant"
      value: 0
    }
  }
}
layer {
  name: "concat"
  type: "Concat"
  bottom: "lstm1"
  bottom: "embedded_input_sentence"
  bottom: "reshaped_stage_indicator"
  top: "lstm1_video_sequence"
  concat_param {
    concat_dim: 2
  }
}
layer {
  name: "lstm2"
  type: "LSTM"
  bottom: "lstm1_video_sequence"
  bottom: "cont_sentence"
  top: "lstm2"
  recurrent_param {
    num_output: 1000
    weight_filler {
      type: "uniform"
      min: -0.08
      max: 0.08
    }
    bias_filler {
      type: "constant"
      value: 0
    }
  }
}
layer {
  name: "predict"
  type: "InnerProduct"
  bottom: "lstm2"
  top: "predict"
  param {
    lr_mult: 1
    decay_mult: 1
  }
  param {
    lr_mult: 2
    decay_mult: 0
  }
  inner_product_param {
    num_output: 46168
    weight_filler {
      type: "uniform"
      min: -0.08
      max: 0.08
    }
    bias_filler {
      type: "constant"
      value: 0
    }
    axis: 2
  }
}
layer {
  name: "probs"
  type: "Softmax"
  bottom: "predict"
  top: "probs"
  softmax_param {
    axis: 2
  }
}
I0924 03:02:11.357151 12493 layer_factory.hpp:77] Creating layer input
I0924 03:02:11.357178 12493 net.cpp:91] Creating Layer input
I0924 03:02:11.357190 12493 net.cpp:399] input -> frames_fc7
I0924 03:02:11.357215 12493 net.cpp:399] input -> cont_sentence
I0924 03:02:11.357231 12493 net.cpp:399] input -> input_sentence
I0924 03:02:11.357247 12493 net.cpp:399] input -> stage_indicator
I0924 03:02:11.357475 12493 net.cpp:141] Setting up input
I0924 03:02:11.357493 12493 net.cpp:148] Top shape: 1 4096 (4096)
I0924 03:02:11.357496 12483 upgrade_proto.cpp:66] Attempting to upgrade input file specified using deprecated input fields: /home/peifeng/work/run/storm102/data/workers/503aa109-34aa-4b92-ae5b-baf4fd6f421a/tmp/cvld4565862960172434044/s2vt.words_to_preds.prototxt
I0924 03:02:11.357529 12483 upgrade_proto.cpp:69] Successfully upgraded file specified using deprecated input fields.
W0924 03:02:11.357538 12483 upgrade_proto.cpp:71] Note that future Caffe releases will only support input layers and not input fields.
I0924 03:02:11.357956 12483 net.cpp:49] Initializing net from parameters: 
name: "s2vt:features_to_lstm"
state {
  phase: TEST
}
layer {
  name: "input"
  type: "Input"
  top: "frames_fc7"
  top: "cont_sentence"
  top: "input_sentence"
  top: "stage_indicator"
  input_param {
    shape {
      dim: 1
      dim: 4096
    }
    shape {
      dim: 1
      dim: 1
    }
    shape {
      dim: 1
      dim: 1
    }
    shape {
      dim: 1
      dim: 1
    }
  }
}
layer {
  name: "embed_encoder"
  type: "InnerProduct"
  bottom: "frames_fc7"
  top: "embedded_in_frames"
  param {
    lr_mult: 1
    decay_mult: 1
  }
  param {
    lr_mult: 2
    decay_mult: 0
  }
  inner_product_param {
    num_output: 500
    weight_filler {
      type: "xavier"
    }
    bias_filler {
      type: "constant"
      value: 0.2
    }
  }
}
layer {
  name: "reshape_frames"
  type: "Reshape"
  bottom: "embedded_in_frames"
  top: "embedded_input_frames"
  reshape_param {
    shape {
      dim: 1
      dim: 1
      dim: 500
    }
  }
}
layer {
  name: "reshape_stage_indicator"
  type: "Reshape"
  bottom: "stage_indicator"
  top: "reshaped_stage_indicator"
  reshape_param {
    shape {
      dim: 1
      dim: 1
      dim: 1
    }
  }
}
layer {
  name: "embedding"
  type: "Embed"
  bottom: "input_sentence"
  top: "embedded_input_sentence"
  param {
    lr_mult: 1
  }
  embed_param {
    num_output: 500
    input_dim: 46168
    bias_term: false
    weight_filler {
      type: "uniform"
      min: -0.08
      max: 0.08
    }
  }
}
layer {
  name: "lstm1"
  type: "LSTM"
  bottom: "embedded_input_frames"
  bottom: "cont_sentence"
  top: "lstm1"
  recurrent_param {
    num_output: 1000
    weight_filler {
      type: "uniform"
      min: -0.08
      max: 0.08
    }
    bias_filler {
      type: "constant"
      value: 0
    }
  }
}
layer {
  name: "concat"
  type: "Concat"
  bottom: "lstm1"
  bottom: "embedded_input_sentence"
  bottom: "reshaped_stage_indicator"
  top: "lstm1_video_sequence"
  concat_param {
    concat_dim: 2
  }
}
layer {
  name: "lstm2"
  type: "LSTM"
  bottom: "lstm1_video_sequence"
  bottom: "cont_sentence"
  top: "lstm2"
  recurrent_param {
    num_output: 1000
    weight_filler {
      type: "uniform"
      min: -0.08
      max: 0.08
    }
    bias_filler {
      type: "constant"
      value: 0
    }
  }
}
layer {
  name: "predict"
  type: "InnerProduct"
  bottom: "lstm2"
  top: "predict"
  param {
    lr_mult: 1
    decay_mult: 1
  }
  param {
    lr_mult: 2
    decay_mult: 0
  }
  inner_product_param {
    num_output: 46168
    weight_filler {
      type: "uniform"
      min: -0.08
      max: 0.08
    }
    bias_filler {
      type: "constant"
      value: 0
    }
    axis: 2
  }
}
layer {
  name: "probs"
  type: "Softmax"
  bottom: "predict"
  top: "probs"
  softmax_param {
    axis: 2
  }
}
I0924 03:02:11.358109 12483 layer_factory.hpp:77] Creating layer input
I0924 03:02:11.358127 12483 net.cpp:91] Creating Layer input
I0924 03:02:11.358139 12483 net.cpp:399] input -> frames_fc7
I0924 03:02:11.358155 12483 net.cpp:399] input -> cont_sentence
I0924 03:02:11.358201 12483 net.cpp:399] input -> input_sentence
I0924 03:02:11.358217 12483 net.cpp:399] input -> stage_indicator
I0924 03:02:11.358321 12517 upgrade_proto.cpp:66] Attempting to upgrade input file specified using deprecated input fields: /home/peifeng/work/run/storm102/data/workers/503aa109-34aa-4b92-ae5b-baf4fd6f421a/tmp/cvld4565862960172434044/s2vt.words_to_preds.prototxt
I0924 03:02:11.358346 12517 upgrade_proto.cpp:69] Successfully upgraded file specified using deprecated input fields.
W0924 03:02:11.358355 12517 upgrade_proto.cpp:71] Note that future Caffe releases will only support input layers and not input fields.
I0924 03:02:11.358445 12483 net.cpp:141] Setting up input
I0924 03:02:11.358464 12483 net.cpp:148] Top shape: 1 4096 (4096)
I0924 03:02:11.358476 12483 net.cpp:148] Top shape: 1 1 (1)
I0924 03:02:11.358487 12483 net.cpp:148] Top shape: 1 1 (1)
I0924 03:02:11.358499 12483 net.cpp:148] Top shape: 1 1 (1)
I0924 03:02:11.358505 12483 net.cpp:156] Memory required for data: 16396
I0924 03:02:11.358516 12483 layer_factory.hpp:77] Creating layer cont_sentence_input_1_split
I0924 03:02:11.358543 12483 net.cpp:91] Creating Layer cont_sentence_input_1_split
I0924 03:02:11.358553 12483 net.cpp:425] cont_sentence_input_1_split <- cont_sentence
I0924 03:02:11.358614 12483 net.cpp:399] cont_sentence_input_1_split -> cont_sentence_input_1_split_0
I0924 03:02:11.357503 12493 net.cpp:148] Top shape: 1 1 (1)
I0924 03:02:11.358638 12483 net.cpp:399] cont_sentence_input_1_split -> cont_sentence_input_1_split_1
I0924 03:02:11.358683 12493 net.cpp:148] Top shape: 1 1 (1)
I0924 03:02:11.358707 12493 net.cpp:148] Top shape: 1 1 (1)
I0924 03:02:11.358716 12493 net.cpp:156] Memory required for data: 16396
I0924 03:02:11.358727 12493 layer_factory.hpp:77] Creating layer cont_sentence_input_1_split
I0924 03:02:11.358749 12493 net.cpp:91] Creating Layer cont_sentence_input_1_split
I0924 03:02:11.358754 12517 net.cpp:49] Initializing net from parameters: 
name: "s2vt:features_to_lstm"
state {
  phase: TEST
}
layer {
  name: "input"
  type: "Input"
  top: "frames_fc7"
  top: "cont_sentence"
  top: "input_sentence"
  top: "stage_indicator"
  input_param {
    shape {
      dim: 1
      dim: 4096
    }
    shape {
      dim: 1
      dim: 1
    }
    shape {
      dim: 1
      dim: 1
    }
    shape {
      dim: 1
      dim: 1
    }
  }
}
layer {
  name: "embed_encoder"
  type: "InnerProduct"
  bottom: "frames_fc7"
  top: "embedded_in_frames"
  param {
    lr_mult: 1
    decay_mult: 1
  }
  param {
    lr_mult: 2
    decay_mult: 0
  }
  inner_product_param {
    num_output: 500
    weight_filler {
      type: "xavier"
    }
    bias_filler {
      type: "constant"
      value: 0.2
    }
  }
}
layer {
  name: "reshape_frames"
  type: "Reshape"
  bottom: "embedded_in_frames"
  top: "embedded_input_frames"
  reshape_param {
    shape {
      dim: 1
      dim: 1
      dim: 500
    }
  }
}
layer {
  name: "reshape_stage_indicator"
  type: "Reshape"
  bottom: "stage_indicator"
  top: "reshaped_stage_indicator"
  reshape_param {
    shape {
      dim: 1
      dim: 1
      dim: 1
    }
  }
}
layer {
  name: "embedding"
  type: "Embed"
  bottom: "input_sentence"
  top: "embedded_input_sentence"
  param {
    lr_mult: 1
  }
  embed_param {
    num_output: 500
    input_dim: 46168
    bias_term: false
    weight_filler {
      type: "uniform"
      min: -0.08
      max: 0.08
    }
  }
}
layer {
  name: "lstm1"
  type: "LSTM"
  bottom: "embedded_input_frames"
  bottom: "cont_sentence"
  top: "lstm1"
  recurrent_param {
    num_output: 1000
    weight_filler {
      type: "uniform"
      min: -0.08
      max: 0.08
    }
    bias_filler {
      type: "constant"
      value: 0
    }
  }
}
layer {
  name: "concat"
  type: "Concat"
  bottom: "lstm1"
  bottom: "embedded_input_sentence"
  bottom: "reshaped_stage_indicator"
  top: "lstm1_video_sequence"
  concat_param {
    concat_dim: 2
  }
}
layer {
  name: "lstm2"
  type: "LSTM"
  bottom: "lstm1_video_sequence"
  bottom: "cont_sentence"
  top: "lstm2"
  recurrent_param {
    num_output: 1000
    weight_filler {
      type: "uniform"
      min: -0.08
      max: 0.08
    }
    bias_filler {
      type: "constant"
      value: 0
    }
  }
}
layer {
  name: "predict"
  type: "InnerProduct"
  bottom: "lstm2"
  top: "predict"
  param {
    lr_mult: 1
    decay_mult: 1
  }
  param {
    lr_mult: 2
    decay_mult: 0
  }
  inner_product_param {
    num_output: 46168
    weight_filler {
      type: "uniform"
      min: -0.08
      max: 0.08
    }
    bias_filler {
      type: "constant"
      value: 0
    }
    axis: 2
  }
}
layer {
  name: "probs"
  type: "Softmax"
  bottom: "predict"
  top: "probs"
  softmax_param {
    axis: 2
  }
}
I0924 03:02:11.358762 12483 net.cpp:141] Setting up cont_sentence_input_1_split
I0924 03:02:11.358763 12493 net.cpp:425] cont_sentence_input_1_split <- cont_sentence
I0924 03:02:11.358788 12483 net.cpp:148] Top shape: 1 1 (1)
I0924 03:02:11.358799 12483 net.cpp:148] Top shape: 1 1 (1)
I0924 03:02:11.358808 12483 net.cpp:156] Memory required for data: 16404
I0924 03:02:11.358806 12493 net.cpp:399] cont_sentence_input_1_split -> cont_sentence_input_1_split_0
I0924 03:02:11.358829 12483 layer_factory.hpp:77] Creating layer embed_encoder
I0924 03:02:11.358857 12493 net.cpp:399] cont_sentence_input_1_split -> cont_sentence_input_1_split_1
I0924 03:02:11.358873 12517 layer_factory.hpp:77] Creating layer input
…
I0924 03:02:11.359025 12487 upgrade_proto.cpp:69] Successfully upgraded file specified using deprecated input fields.
W0924 03:02:11.359030 12487 upgrade_proto.cpp:71] Note that future Caffe releases will only support input layers and not input fields.
I0924 03:02:11.359033 12485 upgrade_proto.cpp:69] Successfully upgraded file specified using deprecated input fields.
W0924 03:02:11.359045 12485 upgrade_proto.cpp:71] Note that future Caffe releases will only support input layers and not input fields.
I0924 03:02:11.359133 12517 net.cpp:141] Setting up input
I0924 03:02:11.359148 12517 net.cpp:148] Top shape: 1 4096 (4096)
I0924 03:02:11.359159 12517 net.cpp:148] Top shape: 1 1 (1)
I0924 03:02:11.359169 12517 net.cpp:148] Top shape: 1 1 (1)
I0924 03:02:11.359179 12517 net.cpp:148] Top shape: 1 1 (1)
I0924 03:02:11.359184 12517 net.cpp:156] Memory required for data: 16396
I0924 03:02:11.359194 12517 layer_factory.hpp:77] Creating layer cont_sentence_input_1_split
I0924 03:02:11.359199 12493 net.cpp:141] Setting up cont_sentence_input_1_split
I0924 03:02:11.359207 12517 net.cpp:91] Creating Layer cont_sentence_input_1_split
I0924 03:02:11.359217 12517 net.cpp:425] cont_sentence_input_1_split <- cont_sentence
I0924 03:02:11.359220 12493 net.cpp:148] Top shape: 1 1 (1)
I0924 03:02:11.359231 12517 net.cpp:399] cont_sentence_input_1_split -> cont_sentence_input_1_split_0
I0924 03:02:11.359232 12493 net.cpp:148] Top shape: 1 1 (1)
I0924 03:02:11.359261 12517 net.cpp:399] cont_sentence_input_1_split -> cont_sentence_input_1_split_1
I0924 03:02:11.359266 12493 net.cpp:156] Memory required for data: 16404
I0924 03:02:11.359277 12493 layer_factory.hpp:77] Creating layer embed_encoder
I0924 03:02:11.359284 12487 net.cpp:49] Initializing net from parameters: 
name: "s2vt:features_to_lstm"
state {
  phase: TEST
}
layer {
  name: "input"
  type: "Input"
  top: "frames_fc7"
  top: "cont_sentence"
  top: "input_sentence"
  top: "stage_indicator"
  input_param {
    shape {
      dim: 1
      dim: 4096
    }
    shape {
      dim: 1
      dim: 1
    }
    shape {
      dim: 1
      dim: 1
    }
    shape {
      dim: 1
      dim: 1
    }
  }
}
layer {
  name: "embed_encoder"
  type: "InnerProduct"
  bottom: "frames_fc7"
  top: "embedded_in_frames"
  param {
    lr_mult: 1
    decay_mult: 1
  }
  param {
    lr_mult: 2
    decay_mult: 0
  }
  inner_product_param {
    num_output: 500
    weight_filler {
      type: "xavier"
    }
    bias_filler {
      type: "constant"
      value: 0.2
    }
  }
}
layer {
  name: "reshape_frames"
  type: "Reshape"
  bottom: "embedded_in_frames"
  top: "embedded_input_frames"
  reshape_param {
    shape {
      dim: 1
      dim: 1
      dim: 500
    }
  }
}
layer {
  name: "reshape_stage_indicator"
  type: "Reshape"
  bottom: "stage_indicator"
  top: "reshaped_stage_indicator"
  reshape_param {
    shape {
      dim: 1
      dim: 1
      dim: 1
    }
  }
}
layer {
  name: "embedding"
  type: "Embed"
  bottom: "input_sentence"
  top: "embedded_input_sentence"
  param {
    lr_mult: 1
  }
  embed_param {
    num_output: 500
    input_dim: 46168
    bias_term: false
    weight_filler {
      type: "uniform"
      min: -0.08
      max: 0.08
    }
  }
}
layer {
  name: "lstm1"
  type: "LSTM"
  bottom: "embedded_input_frames"
  bottom: "cont_sentence"
  top: "lstm1"
  recurrent_param {
    num_output: 1000
    weight_filler {
      type: "uniform"
      min: -0.08
      max: 0.08
    }
    bias_filler {
      type: "constant"
      value: 0
    }
  }
}
layer {
  name: "concat"
  type: "Concat"
  bottom: "lstm1"
  bottom: "embedded_input_sentence"
  bottom: "reshaped_stage_indicator"
  top: "lstm1_video_sequence"
  concat_param {
    concat_dim: 2
  }
}
layer {
  name: "lstm2"
  type: "LSTM"
  bottom: "lstm1_video_sequence"
  bottom: "cont_sentence"
  top: "lstm2"
  recurrent_param {
    num_output: 1000
    weight_filler {
      type: "uniform"
      min: -0.08
      max: 0.08
    }
    bias_filler {
      type: "constant"
      value: 0
    }
  }
}
layer {
  name: "predict"
  type: "InnerProduct"
  bottom: "lstm2"
  top: "predict"
  param {
    lr_mult: 1
    decay_mult: 1
  }
  param {
    lr_mult: 2
    decay_mult: 0
  }
  inner_product_param {
    num_output: 46168
    weight_filler {
      type: "uniform"
      min: -0.08
      max: 0.08
    }
    bias_filler {
      type: "constant"
      value: 0
    }
    axis: 2
  }
}
layer {
  name: "probs"
  type: "Softmax"
  bottom: "predict"
  top: "probs"
  softmax_param {
    axis: 2
  }
}
I0924 03:02:11.359298 12493 net.cpp:91] Creating Layer embed_encoder
I0924 03:02:11.359311 12493 net.cpp:425] embed_encoder <- frames_fc7
I0924 03:02:11.359326 12493 net.cpp:399] embed_encoder -> embedded_in_frames
I0924 03:02:11.359408 12511 net.cpp:49] Initializing net from parameters: 
name: "s2vt:features_to_lstm"
state {
  phase: TEST
}
layer {
  name: "input"
  type: "Input"
  top: "frames_fc7"
  top: "cont_sentence"
  top: "input_sentence"
  top: "stage_indicator"
  input_param {
    shape {
      dim: 1
      dim: 4096
    }
    shape {
      dim: 1
      dim: 1
    }
    shape {
      dim: 1
      dim: 1
    }
    shape {
      dim: 1
      dim: 1
    }
  }
}
layer {
  name: "embed_encoder"
  type: "InnerProduct"
  bottom: "frames_fc7"
  top: "embedded_in_frames"
  param {
    lr_mult: 1
    decay_mult: 1
  }
  param {
    lr_mult: 2
    decay_mult: 0
  }
  inner_product_param {
    num_output: 500
    weight_filler {
      type: "xavier"
    }
    bias_filler {
      type: "constant"
      value: 0.2
    }
  }
}
layer {
  name: "reshape_frames"
  type: "Reshape"
  bottom: "embedded_in_frames"
  top: "embedded_input_frames"
  reshape_param {
    shape {
      dim: 1
      dim: 1
      dim: 500
    }
  }
}
layer {
  name: "reshape_stage_indicator"
  type: "Reshape"
  bottom: "stage_indicator"
  top: "reshaped_stage_indicator"
  reshape_param {
    shape {
      dim: 1
      dim: 1
      dim: 1
    }
  }
}
layer {
  name: "embedding"
  type: "Embed"
  bottom: "input_sentence"
  top: "embedded_input_sentence"
  param {
    lr_mult: 1
  }
  embed_param {
    num_output: 500
    input_dim: 46168
    bias_term: false
    weight_filler {
      type: "uniform"
      min: -0.08
      max: 0.08
    }
  }
}
layer {
  name: "lstm1"
  type: "LSTM"
  bottom: "embedded_input_frames"
  bottom: "cont_sentence"
  top: "lstm1"
  recurrent_param {
    num_output: 1000
    weight_filler {
      type: "uniform"
      min: -0.08
      max: 0.08
    }
    bias_filler {
      type: "constant"
      value: 0
    }
  }
}
layer {
  name: "concat"
  type: "Concat"
  bottom: "lstm1"
  bottom: "embedded_input_sentence"
  bottom: "reshaped_stage_indicator"
  top: "lstm1_video_sequence"
  concat_param {
    concat_dim: 2
  }
}
layer {
  name: "lstm2"
  type: "LSTM"
  bottom: "lstm1_video_sequence"
  bottom: "cont_sentence"
  top: "lstm2"
  recurrent_param {
    num_output: 1000
    weight_filler {
      type: "uniform"
      min: -0.08
      max: 0.08
    }
    bias_filler {
      type: "constant"
      value: 0
    }
  }
}
layer {
  name: "predict"
  type: "InnerProduct"
  bottom: "lstm2"
  top: "predict"
  param {
    lr_mult: 1
    decay_mult: 1
  }
  param {
    lr_mult: 2
    decay_mult: 0
  }
  inner_product_param {
    num_output: 46168
    weight_filler {
      type: "uniform"
      min: -0.08
      max: 0.08
    }
    bias_filler {
      type: "constant"
      value: 0
    }
    axis: 2
  }
}
layer {
  name: "probs"
  type: "Softmax"
  bottom: "predict"
  top: "probs"
  softmax_param {
    axis: 2
  }
}
I0924 03:02:11.359421 12487 layer_factory.hpp:77] Creating layer input
I0924 03:02:11.359442 12487 net.cpp:91] Creating Layer input
I0924 03:02:11.359457 12487 net.cpp:399] input -> frames_fc7
I0924 03:02:11.359467 12485 net.cpp:49] Initializing net from parameters: 
name: "s2vt:features_to_lstm"
state {
  phase: TEST
}
layer {
  name: "input"
  type: "Input"
  top: "frames_fc7"
  top: "cont_sentence"
  top: "input_sentence"
  top: "stage_indicator"
  input_param {
    shape {
      dim: 1
      dim: 4096
    }
    shape {
      dim: 1
      dim: 1
    }
    shape {
      dim: 1
      dim: 1
    }
    shape {
      dim: 1
      dim: 1
    }
  }
}
layer {
  name: "embed_encoder"
  type: "InnerProduct"
  bottom: "frames_fc7"
  top: "embedded_in_frames"
  param {
    lr_mult: 1
    decay_mult: 1
  }
  param {
    lr_mult: 2
    decay_mult: 0
  }
  inner_product_param {
    num_output: 500
    weight_filler {
      type: "xavier"
    }
    bias_filler {
      type: "constant"
      value: 0.2
    }
  }
}
layer {
  name: "reshape_frames"
  type: "Reshape"
  bottom: "embedded_in_frames"
  top: "embedded_input_frames"
  reshape_param {
    shape {
      dim: 1
      dim: 1
      dim: 500
    }
  }
}
layer {
  name: "reshape_stage_indicator"
  type: "Reshape"
  bottom: "stage_indicator"
  top: "reshaped_stage_indicator"
  reshape_param {
    shape {
      dim: 1
      dim: 1
      dim: 1
    }
  }
}
layer {
  name: "embedding"
  type: "Embed"
  bottom: "input_sentence"
  top: "embedded_input_sentence"
  param {
    lr_mult: 1
  }
  embed_param {
    num_output: 500
    input_dim: 46168
    bias_term: false
    weight_filler {
      type: "uniform"
      min: -0.08
      max: 0.08
    }
  }
}
layer {
  name: "lstm1"
  type: "LSTM"
  bottom: "embedded_input_frames"
  bottom: "cont_sentence"
  top: "lstm1"
  recurrent_param {
    num_output: 1000
    weight_filler {
      type: "uniform"
      min: -0.08
      max: 0.08
    }
    bias_filler {
      type: "constant"
      value: 0
    }
  }
}
layer {
  name: "concat"
  type: "Concat"
  bottom: "lstm1"
  bottom: "embedded_input_sentence"
  bottom: "reshaped_stage_indicator"
  top: "lstm1_video_sequence"
  concat_param {
    concat_dim: 2
  }
}
layer {
  name: "lstm2"
  type: "LSTM"
  bottom: "lstm1_video_sequence"
  bottom: "cont_sentence"
  top: "lstm2"
  recurrent_param {
    num_output: 1000
    weight_filler {
      type: "uniform"
      min: -0.08
      max: 0.08
    }
    bias_filler {
      type: "constant"
      value: 0
    }
  }
}
layer {
  name: "predict"
  type: "InnerProduct"
  bottom: "lstm2"
  top: "predict"
  param {
    lr_mult: 1
    decay_mult: 1
  }
  param {
    lr_mult: 2
    decay_mult: 0
  }
  inner_product_param {
    num_output: 46168
    weight_filler {
      type: "uniform"
      min: -0.08
      max: 0.08
    }
    bias_filler {
      type: "constant"
      value: 0
    }
    axis: 2
  }
}
layer {
  name: "probs"
  type: "Softmax"
  bottom: "predict"
  top: "probs"
  softmax_param {
    axis: 2
  }
}
I0924 03:02:11.359478 12487 net.cpp:399] input -> cont_sentence
I0924 03:02:11.359498 12487 net.cpp:399] input -> input_sentence
I0924 03:02:11.359519 12487 net.cpp:399] input -> stage_indicator
I0924 03:02:11.359562 12511 layer_factory.hpp:77] Creating layer input
I0924 03:02:11.359585 12511 net.cpp:91] Creating Layer input
I0924 03:02:11.359598 12511 net.cpp:399] input -> frames_fc7
I0924 03:02:11.359616 12485 layer_factory.hpp:77] Creating layer input
I0924 03:02:11.359622 12511 net.cpp:399] input -> cont_sentence
I0924 03:02:11.359639 12485 net.cpp:91] Creating Layer input
I0924 03:02:11.359657 12485 net.cpp:399] input -> frames_fc7
I0924 03:02:11.359679 12485 net.cpp:399] input -> cont_sentence
I0924 03:02:11.359701 12485 net.cpp:399] input -> input_sentence
I0924 03:02:11.359725 12485 net.cpp:399] input -> stage_indicator
I0924 03:02:11.363236 12511 net.cpp:399] input -> input_sentence
I0924 03:02:11.363306 12511 net.cpp:399] input -> stage_indicator
I0924 03:02:11.364404 12517 net.cpp:141] Setting up cont_sentence_input_1_split
I0924 03:02:11.364440 12517 net.cpp:148] Top shape: 1 1 (1)
I0924 03:02:11.364451 12517 net.cpp:148] Top shape: 1 1 (1)
I0924 03:02:11.364459 12517 net.cpp:156] Memory required for data: 16404
I0924 03:02:11.364469 12517 layer_factory.hpp:77] Creating layer embed_encoder
I0924 03:02:11.364497 12517 net.cpp:91] Creating Layer embed_encoder
I0924 03:02:11.364507 12517 net.cpp:425] embed_encoder <- frames_fc7
I0924 03:02:11.364526 12517 net.cpp:399] embed_encoder -> embedded_in_frames
I0924 03:02:11.369602 12485 net.cpp:141] Setting up input
I0924 03:02:11.369666 12485 net.cpp:148] Top shape: 1 4096 (4096)
I0924 03:02:11.369684 12485 net.cpp:148] Top shape: 1 1 (1)
I0924 03:02:11.369698 12485 net.cpp:148] Top shape: 1 1 (1)
I0924 03:02:11.369709 12485 net.cpp:148] Top shape: 1 1 (1)
I0924 03:02:11.369716 12485 net.cpp:156] Memory required for data: 16396
I0924 03:02:11.369734 12485 layer_factory.hpp:77] Creating layer cont_sentence_input_1_split
I0924 03:02:11.369768 12485 net.cpp:91] Creating Layer cont_sentence_input_1_split
I0924 03:02:11.369782 12485 net.cpp:425] cont_sentence_input_1_split <- cont_sentence
I0924 03:02:11.369806 12485 net.cpp:399] cont_sentence_input_1_split -> cont_sentence_input_1_split_0
I0924 03:02:11.369834 12485 net.cpp:399] cont_sentence_input_1_split -> cont_sentence_input_1_split_1
I0924 03:02:11.369942 12485 net.cpp:141] Setting up cont_sentence_input_1_split
I0924 03:02:11.369961 12485 net.cpp:148] Top shape: 1 1 (1)
I0924 03:02:11.369973 12485 net.cpp:148] Top shape: 1 1 (1)
I0924 03:02:11.369982 12485 net.cpp:156] Memory required for data: 16404
I0924 03:02:11.369992 12485 layer_factory.hpp:77] Creating layer embed_encoder
I0924 03:02:11.372269 12485 net.cpp:91] Creating Layer embed_encoder
I0924 03:02:11.372292 12485 net.cpp:425] embed_encoder <- frames_fc7
I0924 03:02:11.372306 12485 net.cpp:399] embed_encoder -> embedded_in_frames
I0924 03:02:11.390955 12511 net.cpp:141] Setting up input
I0924 03:02:11.391012 12511 net.cpp:148] Top shape: 1 4096 (4096)
I0924 03:02:11.391027 12511 net.cpp:148] Top shape: 1 1 (1)
I0924 03:02:11.391037 12511 net.cpp:148] Top shape: 1 1 (1)
I0924 03:02:11.391049 12511 net.cpp:148] Top shape: 1 1 (1)
I0924 03:02:11.391057 12511 net.cpp:156] Memory required for data: 16396
I0924 03:02:11.391072 12511 layer_factory.hpp:77] Creating layer cont_sentence_input_1_split
I0924 03:02:11.391105 12511 net.cpp:91] Creating Layer cont_sentence_input_1_split
I0924 03:02:11.391119 12511 net.cpp:425] cont_sentence_input_1_split <- cont_sentence
I0924 03:02:11.391141 12511 net.cpp:399] cont_sentence_input_1_split -> cont_sentence_input_1_split_0
I0924 03:02:11.391168 12511 net.cpp:399] cont_sentence_input_1_split -> cont_sentence_input_1_split_1
I0924 03:02:11.391361 12511 net.cpp:141] Setting up cont_sentence_input_1_split
I0924 03:02:11.391381 12511 net.cpp:148] Top shape: 1 1 (1)
I0924 03:02:11.391393 12511 net.cpp:148] Top shape: 1 1 (1)
I0924 03:02:11.391402 12511 net.cpp:156] Memory required for data: 16404
I0924 03:02:11.391410 12511 layer_factory.hpp:77] Creating layer embed_encoder
I0924 03:02:11.391436 12511 net.cpp:91] Creating Layer embed_encoder
I0924 03:02:11.391450 12511 net.cpp:425] embed_encoder <- frames_fc7
I0924 03:02:11.391468 12511 net.cpp:399] embed_encoder -> embedded_in_frames
I0924 03:02:11.391544 12493 net.cpp:141] Setting up embed_encoder
I0924 03:02:11.391582 12493 net.cpp:148] Top shape: 1 500 (500)
I0924 03:02:11.391588 12493 net.cpp:156] Memory required for data: 18404
I0924 03:02:11.391608 12493 layer_factory.hpp:77] Creating layer reshape_frames
I0924 03:02:11.391631 12493 net.cpp:91] Creating Layer reshape_frames
I0924 03:02:11.391639 12493 net.cpp:425] reshape_frames <- embedded_in_frames
I0924 03:02:11.391651 12493 net.cpp:399] reshape_frames -> embedded_input_frames
I0924 03:02:11.396807 12483 net.cpp:141] Setting up embed_encoder
I0924 03:02:11.396829 12483 net.cpp:148] Top shape: 1 500 (500)
I0924 03:02:11.396836 12483 net.cpp:156] Memory required for data: 18404
I0924 03:02:11.396852 12483 layer_factory.hpp:77] Creating layer reshape_frames
I0924 03:02:11.396867 12483 net.cpp:91] Creating Layer reshape_frames
I0924 03:02:11.396874 12483 net.cpp:425] reshape_frames <- embedded_in_frames
I0924 03:02:11.396888 12483 net.cpp:399] reshape_frames -> embedded_input_frames
I0924 03:02:11.396930 12487 net.cpp:141] Setting up input
I0924 03:02:11.396957 12483 net.cpp:141] Setting up reshape_frames
I0924 03:02:11.396970 12487 net.cpp:148] Top shape: 1 4096 (4096)
I0924 03:02:11.396970 12483 net.cpp:148] Top shape: 1 1 500 (500)
I0924 03:02:11.396997 12483 net.cpp:156] Memory required for data: 20404
I0924 03:02:11.396998 12493 net.cpp:141] Setting up reshape_frames
I0924 03:02:11.396986 12487 net.cpp:148] Top shape: 1 1 (1)
I0924 03:02:11.397022 12493 net.cpp:148] Top shape: 1 1 500 (500)
I0924 03:02:11.397007 12483 layer_factory.hpp:77] Creating layer reshape_stage_indicator
I0924 03:02:11.397032 12487 net.cpp:148] Top shape: 1 1 (1)
I0924 03:02:11.397029 12493 net.cpp:156] Memory required for data: 20404
I0924 03:02:11.397039 12487 net.cpp:148] Top shape: 1 1 (1)
I0924 03:02:11.397049 12493 layer_factory.hpp:77] Creating layer reshape_stage_indicator
I0924 03:02:11.397054 12487 net.cpp:156] Memory required for data: 16396
I0924 03:02:11.397049 12483 net.cpp:91] Creating Layer reshape_stage_indicator
I0924 03:02:11.397064 12487 layer_factory.hpp:77] Creating layer cont_sentence_input_1_split
I0924 03:02:11.397069 12493 net.cpp:91] Creating Layer reshape_stage_indicator
I0924 03:02:11.397066 12483 net.cpp:425] reshape_stage_indicator <- stage_indicator
I0924 03:02:11.397078 12493 net.cpp:425] reshape_stage_indicator <- stage_indicator
I0924 03:02:11.397089 12487 net.cpp:91] Creating Layer cont_sentence_input_1_split
I0924 03:02:11.397090 12483 net.cpp:399] reshape_stage_indicator -> reshaped_stage_indicator
I0924 03:02:11.397094 12493 net.cpp:399] reshape_stage_indicator -> reshaped_stage_indicator
I0924 03:02:11.397099 12487 net.cpp:425] cont_sentence_input_1_split <- cont_sentence
I0924 03:02:11.397112 12487 net.cpp:399] cont_sentence_input_1_split -> cont_sentence_input_1_split_0
I0924 03:02:11.397128 12487 net.cpp:399] cont_sentence_input_1_split -> cont_sentence_input_1_split_1
I0924 03:02:11.397146 12483 net.cpp:141] Setting up reshape_stage_indicator
I0924 03:02:11.397158 12483 net.cpp:148] Top shape: 1 1 1 (1)
I0924 03:02:11.397163 12483 net.cpp:156] Memory required for data: 20408
I0924 03:02:11.397169 12483 layer_factory.hpp:77] Creating layer embedding
I0924 03:02:11.397186 12483 net.cpp:91] Creating Layer embedding
I0924 03:02:11.397189 12493 net.cpp:141] Setting up reshape_stage_indicator
I0924 03:02:11.397192 12483 net.cpp:425] embedding <- input_sentence
I0924 03:02:11.397207 12493 net.cpp:148] Top shape: 1 1 1 (1)
I0924 03:02:11.397212 12493 net.cpp:156] Memory required for data: 20408
I0924 03:02:11.397213 12483 net.cpp:399] embedding -> embedded_input_sentence
I0924 03:02:11.397217 12493 layer_factory.hpp:77] Creating layer embedding
I0924 03:02:11.397230 12493 net.cpp:91] Creating Layer embedding
I0924 03:02:11.397236 12493 net.cpp:425] embedding <- input_sentence
I0924 03:02:11.397245 12493 net.cpp:399] embedding -> embedded_input_sentence
I0924 03:02:11.397261 12487 net.cpp:141] Setting up cont_sentence_input_1_split
I0924 03:02:11.397274 12487 net.cpp:148] Top shape: 1 1 (1)
I0924 03:02:11.397279 12487 net.cpp:148] Top shape: 1 1 (1)
I0924 03:02:11.397284 12487 net.cpp:156] Memory required for data: 16404
I0924 03:02:11.397289 12487 layer_factory.hpp:77] Creating layer embed_encoder
I0924 03:02:11.397307 12487 net.cpp:91] Creating Layer embed_encoder
I0924 03:02:11.397312 12487 net.cpp:425] embed_encoder <- frames_fc7
I0924 03:02:11.397323 12487 net.cpp:399] embed_encoder -> embedded_in_frames
I0924 03:02:11.506995 12485 net.cpp:141] Setting up embed_encoder
I0924 03:02:11.507055 12485 net.cpp:148] Top shape: 1 500 (500)
I0924 03:02:11.507064 12485 net.cpp:156] Memory required for data: 18404
I0924 03:02:11.507097 12485 layer_factory.hpp:77] Creating layer reshape_frames
I0924 03:02:11.507128 12485 net.cpp:91] Creating Layer reshape_frames
I0924 03:02:11.507139 12485 net.cpp:425] reshape_frames <- embedded_in_frames
I0924 03:02:11.507155 12485 net.cpp:399] reshape_frames -> embedded_input_frames
I0924 03:02:11.507221 12485 net.cpp:141] Setting up reshape_frames
I0924 03:02:11.507235 12485 net.cpp:148] Top shape: 1 1 500 (500)
I0924 03:02:11.507241 12485 net.cpp:156] Memory required for data: 20404
I0924 03:02:11.507248 12485 layer_factory.hpp:77] Creating layer reshape_stage_indicator
I0924 03:02:11.507264 12485 net.cpp:91] Creating Layer reshape_stage_indicator
I0924 03:02:11.507273 12485 net.cpp:425] reshape_stage_indicator <- stage_indicator
I0924 03:02:11.507287 12485 net.cpp:399] reshape_stage_indicator -> reshaped_stage_indicator
I0924 03:02:11.507342 12485 net.cpp:141] Setting up reshape_stage_indicator
I0924 03:02:11.507355 12485 net.cpp:148] Top shape: 1 1 1 (1)
I0924 03:02:11.507362 12485 net.cpp:156] Memory required for data: 20408
I0924 03:02:11.507370 12485 layer_factory.hpp:77] Creating layer embedding
I0924 03:02:11.507390 12485 net.cpp:91] Creating Layer embedding
I0924 03:02:11.507398 12485 net.cpp:425] embedding <- input_sentence
I0924 03:02:11.507412 12485 net.cpp:399] embedding -> embedded_input_sentence
I0924 03:02:11.555101 12517 net.cpp:141] Setting up embed_encoder
I0924 03:02:11.555301 12511 net.cpp:141] Setting up embed_encoder
I0924 03:02:11.555500 12487 net.cpp:141] Setting up embed_encoder
I0924 03:02:11.555790 12517 net.cpp:148] Top shape: 1 500 (500)
I0924 03:02:11.556161 12511 net.cpp:148] Top shape: 1 500 (500)
I0924 03:02:11.556656 12487 net.cpp:148] Top shape: 1 500 (500)
I0924 03:02:11.556813 12517 net.cpp:156] Memory required for data: 18404
I0924 03:02:11.557011 12511 net.cpp:156] Memory required for data: 18404
I0924 03:02:11.557458 12487 net.cpp:156] Memory required for data: 18404
I0924 03:02:11.557701 12517 layer_factory.hpp:77] Creating layer reshape_frames
I0924 03:02:11.557821 12511 layer_factory.hpp:77] Creating layer reshape_frames
I0924 03:02:11.558136 12487 layer_factory.hpp:77] Creating layer reshape_frames
I0924 03:02:11.558375 12517 net.cpp:91] Creating Layer reshape_frames
I0924 03:02:11.558624 12511 net.cpp:91] Creating Layer reshape_frames
I0924 03:02:11.558953 12517 net.cpp:425] reshape_frames <- embedded_in_frames
I0924 03:02:11.558954 12487 net.cpp:91] Creating Layer reshape_frames
I0924 03:02:11.558964 12511 net.cpp:425] reshape_frames <- embedded_in_frames
I0924 03:02:11.558990 12511 net.cpp:399] reshape_frames -> embedded_input_frames
I0924 03:02:11.558980 12487 net.cpp:425] reshape_frames <- embedded_in_frames
I0924 03:02:11.559023 12487 net.cpp:399] reshape_frames -> embedded_input_frames
I0924 03:02:11.559110 12511 net.cpp:141] Setting up reshape_frames
I0924 03:02:11.559128 12511 net.cpp:148] Top shape: 1 1 500 (500)
I0924 03:02:11.559135 12511 net.cpp:156] Memory required for data: 20404
I0924 03:02:11.559144 12511 layer_factory.hpp:77] Creating layer reshape_stage_indicator
I0924 03:02:11.559161 12511 net.cpp:91] Creating Layer reshape_stage_indicator
I0924 03:02:11.559170 12511 net.cpp:425] reshape_stage_indicator <- stage_indicator
I0924 03:02:11.559185 12511 net.cpp:399] reshape_stage_indicator -> reshaped_stage_indicator
I0924 03:02:11.559283 12487 net.cpp:141] Setting up reshape_frames
I0924 03:02:11.559312 12487 net.cpp:148] Top shape: 1 1 500 (500)
I0924 03:02:11.559326 12487 net.cpp:156] Memory required for data: 20404
I0924 03:02:11.559330 12511 net.cpp:141] Setting up reshape_stage_indicator
I0924 03:02:11.559362 12487 layer_factory.hpp:77] Creating layer reshape_stage_indicator
I0924 03:02:11.559375 12511 net.cpp:148] Top shape: 1 1 1 (1)
I0924 03:02:11.559386 12511 net.cpp:156] Memory required for data: 20408
I0924 03:02:11.559394 12511 layer_factory.hpp:77] Creating layer embedding
I0924 03:02:11.559398 12487 net.cpp:91] Creating Layer reshape_stage_indicator
I0924 03:02:11.559412 12511 net.cpp:91] Creating Layer embedding
I0924 03:02:11.559422 12511 net.cpp:425] embedding <- input_sentence
I0924 03:02:11.559420 12487 net.cpp:425] reshape_stage_indicator <- stage_indicator
I0924 03:02:11.559438 12511 net.cpp:399] embedding -> embedded_input_sentence
I0924 03:02:11.559451 12487 net.cpp:399] reshape_stage_indicator -> reshaped_stage_indicator
I0924 03:02:11.558981 12517 net.cpp:399] reshape_frames -> embedded_input_frames
I0924 03:02:11.635182 12517 net.cpp:141] Setting up reshape_frames
I0924 03:02:11.637354 12517 net.cpp:148] Top shape: 1 1 500 (500)
I0924 03:02:11.637378 12517 net.cpp:156] Memory required for data: 20404
I0924 03:02:11.637392 12517 layer_factory.hpp:77] Creating layer reshape_stage_indicator
I0924 03:02:11.637434 12517 net.cpp:91] Creating Layer reshape_stage_indicator
I0924 03:02:11.637446 12517 net.cpp:425] reshape_stage_indicator <- stage_indicator
I0924 03:02:11.637465 12517 net.cpp:399] reshape_stage_indicator -> reshaped_stage_indicator
I0924 03:02:11.637642 12517 net.cpp:141] Setting up reshape_stage_indicator
I0924 03:02:11.637656 12517 net.cpp:148] Top shape: 1 1 1 (1)
I0924 03:02:11.637663 12517 net.cpp:156] Memory required for data: 20408
I0924 03:02:11.637670 12517 layer_factory.hpp:77] Creating layer embedding
I0924 03:02:11.637694 12517 net.cpp:91] Creating Layer embedding
I0924 03:02:11.637702 12517 net.cpp:425] embedding <- input_sentence
I0924 03:02:11.637715 12517 net.cpp:399] embedding -> embedded_input_sentence
I0924 03:02:11.652683 12487 net.cpp:141] Setting up reshape_stage_indicator
I0924 03:02:11.653383 12487 net.cpp:148] Top shape: 1 1 1 (1)
I0924 03:02:11.653650 12487 net.cpp:156] Memory required for data: 20408
I0924 03:02:11.653843 12487 layer_factory.hpp:77] Creating layer embedding
I0924 03:02:11.654033 12487 net.cpp:91] Creating Layer embedding
I0924 03:02:11.656388 12487 net.cpp:425] embedding <- input_sentence
I0924 03:02:11.656729 12487 net.cpp:399] embedding -> embedded_input_sentence
I0924 03:02:11.744784 12493 net.cpp:141] Setting up embedding
I0924 03:02:11.744812 12483 net.cpp:141] Setting up embedding
I0924 03:02:11.744863 12483 net.cpp:148] Top shape: 1 1 500 (500)
I0924 03:02:11.744861 12493 net.cpp:148] Top shape: 1 1 500 (500)
I0924 03:02:11.744884 12483 net.cpp:156] Memory required for data: 22408
I0924 03:02:11.744915 12493 net.cpp:156] Memory required for data: 22408
I0924 03:02:11.744937 12483 layer_factory.hpp:77] Creating layer lstm1
I0924 03:02:11.744947 12493 layer_factory.hpp:77] Creating layer lstm1
I0924 03:02:11.744963 12483 net.cpp:91] Creating Layer lstm1
I0924 03:02:11.744967 12493 net.cpp:91] Creating Layer lstm1
…
I0924 03:02:11.745046 12493 recurrent_layer.cpp:20] Initializing recurrent layer: assuming input batch contains 1 timesteps of 1 independent streams.
I0924 03:02:11.745690 12483 net.cpp:49] Initializing net from parameters: 
layer {
  name: "lstm1_"
  type: "Input"
  top: "x"
  top: "cont"
  input_param {
    shape {
      dim: 1
      dim: 1
      dim: 500
    }
    shape {
      dim: 1
      dim: 1
    }
  }
}
layer {
  name: "lstm1_"
  type: "Input"
  top: "c_0"
  top: "h_0"
  input_param {
    shape {
      dim: 1
      dim: 1
      dim: 1000
    }
    shape {
      dim: 1
      dim: 1
      dim: 1000
    }
  }
}
layer {
  name: "lstm1_cont_slice"
  type: "Slice"
  bottom: "cont"
  top: "cont_1"
  slice_param {
    axis: 0
  }
}
layer {
  name: "lstm1_x_transform"
  type: "InnerProduct"
  bottom: "x"
  top: "W_xc_x"
  param {
    name: "W_xc"
  }
  param {
    name: "b_c"
  }
  propagate_down: true
  inner_product_param {
    num_output: 4000
    bias_term: true
    weight_filler {
      type: "uniform"
      min: -0.08
      max: 0.08
    }
    bias_filler {
      type: "constant"
      value: 0
    }
    axis: 2
  }
}
layer {
  name: "lstm1_W_xc_x_slice"
  type: "Slice"
  bottom: "W_xc_x"
  top: "W_xc_x_1"
  slice_param {
    axis: 0
  }
}
layer {
  name: "lstm1_h_conted_0"
  type: "Scale"
  bottom: "h_0"
  bottom: "cont_1"
  top: "h_conted_0"
  scale_param {
    axis: 0
  }
}
layer {
  name: "lstm1_transform_1"
  type: "InnerProduct"
  bottom: "h_conted_0"
  top: "W_hc_h_0"
  param {
    name: "W_hc"
  }
  inner_product_param {
    num_output: 4000
    bias_term: false
    weight_filler {
      type: "uniform"
      min: -0.08
      max: 0.08
    }
    axis: 2
  }
}
layer {
  name: "lstm1_gate_input_1"
  type: "Eltwise"
  bottom: "W_hc_h_0"
  bottom: "W_xc_x_1"
  top: "gate_input_1"
  eltwise_param {
    operation: SUM
  }
}
layer {
  name: "lstm1_unit_1"
  type: "LSTMUnit"
  bottom: "c_0"
  bottom: "gate_input_1"
  bottom: "cont_1"
  top: "c_1"
  top: "h_1"
}
layer {
  name: "lstm1_"
  type: "Split"
  bottom: "c_1"
  top: "c_T"
}
layer {
  name: "lstm1_h_concat"
  type: "Concat"
  bottom: "h_1"
  top: "h"
  concat_param {
    axis: 0
  }
}
layer {
  name: "h_pseudoloss"
  type: "Reduction"
  bottom: "h"
  top: "h_pseudoloss"
  loss_weight: 1
}
I0924 03:02:11.745705 12493 net.cpp:49] Initializing net from parameters: 
layer {
  name: "lstm1_"
  type: "Input"
  top: "x"
  top: "cont"
  input_param {
    shape {
      dim: 1
      dim: 1
      dim: 500
    }
    shape {
      dim: 1
      dim: 1
    }
  }
}
layer {
  name: "lstm1_"
  type: "Input"
  top: "c_0"
  top: "h_0"
  input_param {
    shape {
      dim: 1
      dim: 1
      dim: 1000
    }
    shape {
      dim: 1
      dim: 1
      dim: 1000
    }
  }
}
layer {
  name: "lstm1_cont_slice"
  type: "Slice"
  bottom: "cont"
  top: "cont_1"
  slice_param {
    axis: 0
  }
}
layer {
  name: "lstm1_x_transform"
  type: "InnerProduct"
  bottom: "x"
  top: "W_xc_x"
  param {
    name: "W_xc"
  }
  param {
    name: "b_c"
  }
  propagate_down: true
  inner_product_param {
    num_output: 4000
    bias_term: true
    weight_filler {
      type: "uniform"
      min: -0.08
      max: 0.08
    }
    bias_filler {
      type: "constant"
      value: 0
    }
    axis: 2
  }
}
layer {
  name: "lstm1_W_xc_x_slice"
  type: "Slice"
  bottom: "W_xc_x"
  top: "W_xc_x_1"
  slice_param {
    axis: 0
  }
}
layer {
  name: "lstm1_h_conted_0"
  type: "Scale"
  bottom: "h_0"
  bottom: "cont_1"
  top: "h_conted_0"
  scale_param {
    axis: 0
  }
}
layer {
  name: "lstm1_transform_1"
  type: "InnerProduct"
  bottom: "h_conted_0"
  top: "W_hc_h_0"
  param {
    name: "W_hc"
  }
  inner_product_param {
    num_output: 4000
    bias_term: false
    weight_filler {
      type: "uniform"
      min: -0.08
      max: 0.08
    }
    axis: 2
  }
}
layer {
  name: "lstm1_gate_input_1"
  type: "Eltwise"
  bottom: "W_hc_h_0"
  bottom: "W_xc_x_1"
  top: "gate_input_1"
  eltwise_param {
    operation: SUM
  }
}
layer {
  name: "lstm1_unit_1"
  type: "LSTMUnit"
  bottom: "c_0"
  bottom: "gate_input_1"
  bottom: "cont_1"
  top: "c_1"
  top: "h_1"
}
layer {
  name: "lstm1_"
  type: "Split"
  bottom: "c_1"
  top: "c_T"
}
layer {
  name: "lstm1_h_concat"
  type: "Concat"
  bottom: "h_1"
  top: "h"
  concat_param {
    axis: 0
  }
}
layer {
  name: "h_pseudoloss"
  type: "Reduction"
  bottom: "h"
  top: "h_pseudoloss"
  loss_weight: 1
}
I0924 03:02:11.747354 12483 layer_factory.hpp:77] Creating layer lstm1_
I0924 03:02:11.747359 12493 layer_factory.hpp:77] Creating layer lstm1_
I0924 03:02:11.747397 12483 net.cpp:91] Creating Layer lstm1_
I0924 03:02:11.747426 12483 net.cpp:399] lstm1_ -> x
I0924 03:02:11.747427 12493 net.cpp:91] Creating Layer lstm1_
I0924 03:02:11.747442 12493 net.cpp:399] lstm1_ -> x
I0924 03:02:11.747447 12483 net.cpp:399] lstm1_ -> cont
I0924 03:02:11.747460 12493 net.cpp:399] lstm1_ -> cont
I0924 03:02:11.870101 12483 net.cpp:141] Setting up lstm1_
I0924 03:02:11.870162 12483 net.cpp:148] Top shape: 1 1 500 (500)
I0924 03:02:11.870177 12483 net.cpp:148] Top shape: 1 1 (1)
I0924 03:02:11.870184 12483 net.cpp:156] Memory required for data: 2004
I0924 03:02:11.870195 12483 layer_factory.hpp:77] Creating layer lstm1_
I0924 03:02:11.870225 12483 net.cpp:91] Creating Layer lstm1_
I0924 03:02:11.870247 12483 net.cpp:399] lstm1_ -> c_0
I0924 03:02:11.870277 12483 net.cpp:399] lstm1_ -> h_0
I0924 03:02:11.870371 12483 net.cpp:141] Setting up lstm1_
I0924 03:02:11.870386 12483 net.cpp:148] Top shape: 1 1 1000 (1000)
I0924 03:02:11.870396 12483 net.cpp:148] Top shape: 1 1 1000 (1000)
I0924 03:02:11.870403 12483 net.cpp:156] Memory required for data: 10004
I0924 03:02:11.870410 12483 layer_factory.hpp:77] Creating layer lstm1_cont_slice
I0924 03:02:11.870429 12483 net.cpp:91] Creating Layer lstm1_cont_slice
I0924 03:02:11.870438 12483 net.cpp:425] lstm1_cont_slice <- cont
I0924 03:02:11.870451 12483 net.cpp:399] lstm1_cont_slice -> cont_1
I0924 03:02:11.870512 12483 net.cpp:141] Setting up lstm1_cont_slice
I0924 03:02:11.870527 12483 net.cpp:148] Top shape: 1 1 (1)
I0924 03:02:11.870533 12483 net.cpp:156] Memory required for data: 10008
I0924 03:02:11.870542 12483 layer_factory.hpp:77] Creating layer cont_1_lstm1_cont_slice_0_split
I0924 03:02:11.870551 12483 net.cpp:91] Creating Layer cont_1_lstm1_cont_slice_0_split
I0924 03:02:11.870560 12483 net.cpp:425] cont_1_lstm1_cont_slice_0_split <- cont_1
I0924 03:02:11.870574 12483 net.cpp:399] cont_1_lstm1_cont_slice_0_split -> cont_1_lstm1_cont_slice_0_split_0
I0924 03:02:11.870589 12483 net.cpp:399] cont_1_lstm1_cont_slice_0_split -> cont_1_lstm1_cont_slice_0_split_1
I0924 03:02:11.870683 12483 net.cpp:141] Setting up cont_1_lstm1_cont_slice_0_split
I0924 03:02:11.870698 12483 net.cpp:148] Top shape: 1 1 (1)
I0924 03:02:11.870708 12483 net.cpp:148] Top shape: 1 1 (1)
I0924 03:02:11.870717 12483 net.cpp:156] Memory required for data: 10016
I0924 03:02:11.870723 12483 layer_factory.hpp:77] Creating layer lstm1_x_transform
I0924 03:02:11.870746 12483 net.cpp:91] Creating Layer lstm1_x_transform
I0924 03:02:11.870755 12483 net.cpp:425] lstm1_x_transform <- x
I0924 03:02:11.870770 12483 net.cpp:399] lstm1_x_transform -> W_xc_x
I0924 03:02:11.960619 12485 net.cpp:141] Setting up embedding
I0924 03:02:11.960671 12485 net.cpp:148] Top shape: 1 1 500 (500)
I0924 03:02:11.960677 12485 net.cpp:156] Memory required for data: 22408
I0924 03:02:11.960702 12485 layer_factory.hpp:77] Creating layer lstm1
I0924 03:02:11.960729 12485 net.cpp:91] Creating Layer lstm1
I0924 03:02:11.960738 12485 net.cpp:425] lstm1 <- embedded_input_frames
I0924 03:02:11.960748 12485 net.cpp:425] lstm1 <- cont_sentence_input_1_split_0
I0924 03:02:11.960762 12485 net.cpp:399] lstm1 -> lstm1
I0924 03:02:11.960785 12485 recurrent_layer.cpp:20] Initializing recurrent layer: assuming input batch contains 1 timesteps of 1 independent streams.
I0924 03:02:11.960773 12493 net.cpp:141] Setting up lstm1_
I0924 03:02:11.960815 12511 net.cpp:141] Setting up embedding
I0924 03:02:11.960824 12493 net.cpp:148] Top shape: 1 1 500 (500)
I0924 03:02:11.960836 12511 net.cpp:148] Top shape: 1 1 500 (500)
I0924 03:02:11.960839 12493 net.cpp:148] Top shape: 1 1 (1)
I0924 03:02:11.960842 12511 net.cpp:156] Memory required for data: 22408
I0924 03:02:11.960845 12493 net.cpp:156] Memory required for data: 2004
I0924 03:02:11.960858 12493 layer_factory.hpp:77] Creating layer lstm1_
I0924 03:02:11.960861 12511 layer_factory.hpp:77] Creating layer lstm1
I0924 03:02:11.960880 12511 net.cpp:91] Creating Layer lstm1
I0924 03:02:11.960885 12493 net.cpp:91] Creating Layer lstm1_
I0924 03:02:11.960888 12511 net.cpp:425] lstm1 <- embedded_input_frames
I0924 03:02:11.960898 12511 net.cpp:425] lstm1 <- cont_sentence_input_1_split_0
I0924 03:02:11.960908 12511 net.cpp:399] lstm1 -> lstm1
I0924 03:02:11.960908 12493 net.cpp:399] lstm1_ -> c_0
I0924 03:02:11.960927 12511 recurrent_layer.cpp:20] Initializing recurrent layer: assuming input batch contains 1 timesteps of 1 independent streams.
I0924 03:02:11.960932 12493 net.cpp:399] lstm1_ -> h_0
I0924 03:02:11.961021 12493 net.cpp:141] Setting up lstm1_
I0924 03:02:11.961036 12493 net.cpp:148] Top shape: 1 1 1000 (1000)
I0924 03:02:11.961046 12493 net.cpp:148] Top shape: 1 1 1000 (1000)
I0924 03:02:11.961053 12493 net.cpp:156] Memory required for data: 10004
I0924 03:02:11.961061 12493 layer_factory.hpp:77] Creating layer lstm1_cont_slice
I0924 03:02:11.961081 12493 net.cpp:91] Creating Layer lstm1_cont_slice
I0924 03:02:11.961088 12493 net.cpp:425] lstm1_cont_slice <- cont
I0924 03:02:11.961099 12493 net.cpp:399] lstm1_cont_slice -> cont_1
I0924 03:02:11.961112 12485 net.cpp:49] Initializing net from parameters: 
layer {
  name: "lstm1_"
  type: "Input"
  top: "x"
  top: "cont"
  input_param {
    shape {
      dim: 1
      dim: 1
      dim: 500
    }
    shape {
      dim: 1
      dim: 1
    }
  }
}
layer {
  name: "lstm1_"
  type: "Input"
  top: "c_0"
  top: "h_0"
  input_param {
    shape {
      dim: 1
      dim: 1
      dim: 1000
    }
    shape {
      dim: 1
      dim: 1
      dim: 1000
    }
  }
}
layer {
  name: "lstm1_cont_slice"
  type: "Slice"
  bottom: "cont"
  top: "cont_1"
  slice_param {
    axis: 0
  }
}
layer {
  name: "lstm1_x_transform"
  type: "InnerProduct"
  bottom: "x"
  top: "W_xc_x"
  param {
    name: "W_xc"
  }
  param {
    name: "b_c"
  }
  propagate_down: true
  inner_product_param {
    num_output: 4000
    bias_term: true
    weight_filler {
      type: "uniform"
      min: -0.08
      max: 0.08
    }
    bias_filler {
      type: "constant"
      value: 0
    }
    axis: 2
  }
}
layer {
  name: "lstm1_W_xc_x_slice"
  type: "Slice"
  bottom: "W_xc_x"
  top: "W_xc_x_1"
  slice_param {
    axis: 0
  }
}
layer {
  name: "lstm1_h_conted_0"
  type: "Scale"
  bottom: "h_0"
  bottom: "cont_1"
  top: "h_conted_0"
  scale_param {
    axis: 0
  }
}
layer {
  name: "lstm1_transform_1"
  type: "InnerProduct"
  bottom: "h_conted_0"
  top: "W_hc_h_0"
  param {
    name: "W_hc"
  }
  inner_product_param {
    num_output: 4000
    bias_term: false
    weight_filler {
      type: "uniform"
      min: -0.08
      max: 0.08
    }
    axis: 2
  }
}
layer {
  name: "lstm1_gate_input_1"
  type: "Eltwise"
  bottom: "W_hc_h_0"
  bottom: "W_xc_x_1"
  top: "gate_input_1"
  eltwise_param {
    operation: SUM
  }
}
layer {
  name: "lstm1_unit_1"
  type: "LSTMUnit"
  bottom: "c_0"
  bottom: "gate_input_1"
  bottom: "cont_1"
  top: "c_1"
  top: "h_1"
}
layer {
  name: "lstm1_"
  type: "Split"
  bottom: "c_1"
  top: "c_T"
}
layer {
  name: "lstm1_h_concat"
  type: "Concat"
  bottom: "h_1"
  top: "h"
  concat_param {
    axis: 0
  }
}
layer {
  name: "h_pseudoloss"
  type: "Reduction"
  bottom: "h"
  top: "h_pseudoloss"
  loss_weight: 1
}
I0924 03:02:11.961158 12493 net.cpp:141] Setting up lstm1_cont_slice
I0924 03:02:11.961174 12493 net.cpp:148] Top shape: 1 1 (1)
I0924 03:02:11.961182 12493 net.cpp:156] Memory required for data: 10008
I0924 03:02:11.961191 12493 layer_factory.hpp:77] Creating layer cont_1_lstm1_cont_slice_0_split
I0924 03:02:11.961205 12493 net.cpp:91] Creating Layer cont_1_lstm1_cont_slice_0_split
I0924 03:02:11.961212 12493 net.cpp:425] cont_1_lstm1_cont_slice_0_split <- cont_1
I0924 03:02:11.961215 12485 layer_factory.hpp:77] Creating layer lstm1_
I0924 03:02:11.961211 12511 net.cpp:49] Initializing net from parameters: 
layer {
  name: "lstm1_"
  type: "Input"
  top: "x"
  top: "cont"
  input_param {
    shape {
      dim: 1
      dim: 1
      dim: 500
    }
    shape {
      dim: 1
      dim: 1
    }
  }
}
layer {
  name: "lstm1_"
  type: "Input"
  top: "c_0"
  top: "h_0"
  input_param {
    shape {
      dim: 1
      dim: 1
      dim: 1000
    }
    shape {
      dim: 1
      dim: 1
      dim: 1000
    }
  }
}
layer {
  name: "lstm1_cont_slice"
  type: "Slice"
  bottom: "cont"
  top: "cont_1"
  slice_param {
    axis: 0
  }
}
layer {
  name: "lstm1_x_transform"
  type: "InnerProduct"
  bottom: "x"
  top: "W_xc_x"
  param {
    name: "W_xc"
  }
  param {
    name: "b_c"
  }
  propagate_down: true
  inner_product_param {
    num_output: 4000
    bias_term: true
    weight_filler {
      type: "uniform"
      min: -0.08
      max: 0.08
    }
    bias_filler {
      type: "constant"
      value: 0
    }
    axis: 2
  }
}
layer {
  name: "lstm1_W_xc_x_slice"
  type: "Slice"
  bottom: "W_xc_x"
  top: "W_xc_x_1"
  slice_param {
    axis: 0
  }
}
layer {
  name: "lstm1_h_conted_0"
  type: "Scale"
  bottom: "h_0"
  bottom: "cont_1"
  top: "h_conted_0"
  scale_param {
    axis: 0
  }
}
layer {
  name: "lstm1_transform_1"
  type: "InnerProduct"
  bottom: "h_conted_0"
  top: "W_hc_h_0"
  param {
    name: "W_hc"
  }
  inner_product_param {
    num_output: 4000
    bias_term: false
    weight_filler {
      type: "uniform"
      min: -0.08
      max: 0.08
    }
    axis: 2
  }
}
layer {
  name: "lstm1_gate_input_1"
  type: "Eltwise"
  bottom: "W_hc_h_0"
  bottom: "W_xc_x_1"
  top: "gate_input_1"
  eltwise_param {
    operation: SUM
  }
}
layer {
  name: "lstm1_unit_1"
  type: "LSTMUnit"
  bottom: "c_0"
  bottom: "gate_input_1"
  bottom: "cont_1"
  top: "c_1"
  top: "h_1"
}
layer {
  name: "lstm1_"
  type: "Split"
  bottom: "c_1"
  top: "c_T"
}
layer {
  name: "lstm1_h_concat"
  type: "Concat"
  bottom: "h_1"
  top: "h"
  concat_param {
    axis: 0
  }
}
layer {
  name: "h_pseudoloss"
  type: "Reduction"
  bottom: "h"
  top: "h_pseudoloss"
  loss_weight: 1
}
I0924 03:02:11.961241 12485 net.cpp:91] Creating Layer lstm1_
I0924 03:02:11.961248 12485 net.cpp:399] lstm1_ -> x
I0924 03:02:11.961248 12493 net.cpp:399] cont_1_lstm1_cont_slice_0_split -> cont_1_lstm1_cont_slice_0_split_0
I0924 03:02:11.961261 12485 net.cpp:399] lstm1_ -> cont
I0924 03:02:11.961266 12493 net.cpp:399] cont_1_lstm1_cont_slice_0_split -> cont_1_lstm1_cont_slice_0_split_1
I0924 03:02:11.961324 12511 layer_factory.hpp:77] Creating layer lstm1_
I0924 03:02:11.961336 12511 net.cpp:91] Creating Layer lstm1_
I0924 03:02:11.961343 12511 net.cpp:399] lstm1_ -> x
I0924 03:02:11.961354 12511 net.cpp:399] lstm1_ -> cont
I0924 03:02:11.961365 12485 net.cpp:141] Setting up lstm1_
I0924 03:02:11.961376 12485 net.cpp:148] Top shape: 1 1 500 (500)
I0924 03:02:11.961382 12485 net.cpp:148] Top shape: 1 1 (1)
I0924 03:02:11.961387 12485 net.cpp:156] Memory required for data: 2004
I0924 03:02:11.961392 12485 layer_factory.hpp:77] Creating layer lstm1_
I0924 03:02:11.961401 12485 net.cpp:91] Creating Layer lstm1_
I0924 03:02:11.961410 12485 net.cpp:399] lstm1_ -> c_0
I0924 03:02:11.961421 12485 net.cpp:399] lstm1_ -> h_0
I0924 03:02:11.961516 12493 net.cpp:141] Setting up cont_1_lstm1_cont_slice_0_split
I0924 03:02:11.961532 12493 net.cpp:148] Top shape: 1 1 (1)
I0924 03:02:11.961541 12493 net.cpp:148] Top shape: 1 1 (1)
I0924 03:02:11.961549 12493 net.cpp:156] Memory required for data: 10016
I0924 03:02:11.961555 12493 layer_factory.hpp:77] Creating layer lstm1_x_transform
I0924 03:02:11.961575 12493 net.cpp:91] Creating Layer lstm1_x_transform
I0924 03:02:11.961583 12493 net.cpp:425] lstm1_x_transform <- x
I0924 03:02:11.961596 12493 net.cpp:399] lstm1_x_transform -> W_xc_x
I0924 03:02:11.961639 12511 net.cpp:141] Setting up lstm1_
I0924 03:02:11.961652 12511 net.cpp:148] Top shape: 1 1 500 (500)
I0924 03:02:11.961658 12511 net.cpp:148] Top shape: 1 1 (1)
I0924 03:02:11.961661 12511 net.cpp:156] Memory required for data: 2004
I0924 03:02:11.961668 12511 layer_factory.hpp:77] Creating layer lstm1_
I0924 03:02:11.961676 12511 net.cpp:91] Creating Layer lstm1_
I0924 03:02:11.961686 12511 net.cpp:399] lstm1_ -> c_0
I0924 03:02:11.961696 12511 net.cpp:399] lstm1_ -> h_0
I0924 03:02:11.961755 12511 net.cpp:141] Setting up lstm1_
I0924 03:02:11.961763 12511 net.cpp:148] Top shape: 1 1 1000 (1000)
I0924 03:02:11.961769 12511 net.cpp:148] Top shape: 1 1 1000 (1000)
I0924 03:02:11.961773 12511 net.cpp:156] Memory required for data: 10004
I0924 03:02:11.961778 12511 layer_factory.hpp:77] Creating layer lstm1_cont_slice
I0924 03:02:11.961791 12511 net.cpp:91] Creating Layer lstm1_cont_slice
I0924 03:02:11.961796 12511 net.cpp:425] lstm1_cont_slice <- cont
I0924 03:02:11.961803 12511 net.cpp:399] lstm1_cont_slice -> cont_1
I0924 03:02:11.961840 12511 net.cpp:141] Setting up lstm1_cont_slice
I0924 03:02:11.961849 12511 net.cpp:148] Top shape: 1 1 (1)
I0924 03:02:11.961854 12511 net.cpp:156] Memory required for data: 10008
I0924 03:02:11.961858 12511 layer_factory.hpp:77] Creating layer cont_1_lstm1_cont_slice_0_split
I0924 03:02:11.961865 12511 net.cpp:91] Creating Layer cont_1_lstm1_cont_slice_0_split
I0924 03:02:11.961870 12511 net.cpp:425] cont_1_lstm1_cont_slice_0_split <- cont_1
I0924 03:02:11.961879 12511 net.cpp:399] cont_1_lstm1_cont_slice_0_split -> cont_1_lstm1_cont_slice_0_split_0
I0924 03:02:11.961889 12511 net.cpp:399] cont_1_lstm1_cont_slice_0_split -> cont_1_lstm1_cont_slice_0_split_1
I0924 03:02:11.961936 12511 net.cpp:141] Setting up cont_1_lstm1_cont_slice_0_split
I0924 03:02:11.961946 12511 net.cpp:148] Top shape: 1 1 (1)
I0924 03:02:11.961951 12511 net.cpp:148] Top shape: 1 1 (1)
I0924 03:02:11.961956 12511 net.cpp:156] Memory required for data: 10016
I0924 03:02:11.961959 12511 layer_factory.hpp:77] Creating layer lstm1_x_transform
I0924 03:02:11.961972 12511 net.cpp:91] Creating Layer lstm1_x_transform
I0924 03:02:11.961977 12511 net.cpp:425] lstm1_x_transform <- x
I0924 03:02:11.961985 12511 net.cpp:399] lstm1_x_transform -> W_xc_x
I0924 03:02:12.019215 12485 net.cpp:141] Setting up lstm1_
I0924 03:02:12.019299 12485 net.cpp:148] Top shape: 1 1 1000 (1000)
I0924 03:02:12.019318 12485 net.cpp:148] Top shape: 1 1 1000 (1000)
I0924 03:02:12.019330 12485 net.cpp:156] Memory required for data: 10004
I0924 03:02:12.019350 12485 layer_factory.hpp:77] Creating layer lstm1_cont_slice
I0924 03:02:12.019388 12485 net.cpp:91] Creating Layer lstm1_cont_slice
I0924 03:02:12.019405 12485 net.cpp:425] lstm1_cont_slice <- cont
I0924 03:02:12.019430 12485 net.cpp:399] lstm1_cont_slice -> cont_1
I0924 03:02:12.019527 12485 net.cpp:141] Setting up lstm1_cont_slice
I0924 03:02:12.019541 12485 net.cpp:148] Top shape: 1 1 (1)
I0924 03:02:12.019547 12485 net.cpp:156] Memory required for data: 10008
I0924 03:02:12.019554 12485 layer_factory.hpp:77] Creating layer cont_1_lstm1_cont_slice_0_split
I0924 03:02:12.019569 12485 net.cpp:91] Creating Layer cont_1_lstm1_cont_slice_0_split
I0924 03:02:12.019577 12485 net.cpp:425] cont_1_lstm1_cont_slice_0_split <- cont_1
I0924 03:02:12.019587 12485 net.cpp:399] cont_1_lstm1_cont_slice_0_split -> cont_1_lstm1_cont_slice_0_split_0
I0924 03:02:12.019599 12485 net.cpp:399] cont_1_lstm1_cont_slice_0_split -> cont_1_lstm1_cont_slice_0_split_1
I0924 03:02:12.019670 12485 net.cpp:141] Setting up cont_1_lstm1_cont_slice_0_split
I0924 03:02:12.019682 12485 net.cpp:148] Top shape: 1 1 (1)
I0924 03:02:12.019691 12485 net.cpp:148] Top shape: 1 1 (1)
I0924 03:02:12.019698 12485 net.cpp:156] Memory required for data: 10016
I0924 03:02:12.019706 12485 layer_factory.hpp:77] Creating layer lstm1_x_transform
I0924 03:02:12.019731 12485 net.cpp:91] Creating Layer lstm1_x_transform
I0924 03:02:12.019738 12485 net.cpp:425] lstm1_x_transform <- x
I0924 03:02:12.019750 12485 net.cpp:399] lstm1_x_transform -> W_xc_x
I0924 03:02:12.116698 12517 net.cpp:141] Setting up embedding
I0924 03:02:12.117316 12517 net.cpp:148] Top shape: 1 1 500 (500)
I0924 03:02:12.117332 12517 net.cpp:156] Memory required for data: 22408
I0924 03:02:12.117367 12517 layer_factory.hpp:77] Creating layer lstm1
I0924 03:02:12.117405 12517 net.cpp:91] Creating Layer lstm1
I0924 03:02:12.117419 12517 net.cpp:425] lstm1 <- embedded_input_frames
I0924 03:02:12.117431 12517 net.cpp:425] lstm1 <- cont_sentence_input_1_split_0
I0924 03:02:12.117447 12517 net.cpp:399] lstm1 -> lstm1
I0924 03:02:12.117468 12517 recurrent_layer.cpp:20] Initializing recurrent layer: assuming input batch contains 1 timesteps of 1 independent streams.
I0924 03:02:12.117913 12511 net.cpp:141] Setting up lstm1_x_transform
I0924 03:02:12.117930 12511 net.cpp:148] Top shape: 1 1 4000 (4000)
I0924 03:02:12.117936 12511 net.cpp:156] Memory required for data: 26016
I0924 03:02:12.117957 12511 layer_factory.hpp:77] Creating layer lstm1_W_xc_x_slice
I0924 03:02:12.117981 12511 net.cpp:91] Creating Layer lstm1_W_xc_x_slice
I0924 03:02:12.117988 12511 net.cpp:425] lstm1_W_xc_x_slice <- W_xc_x
I0924 03:02:12.117998 12511 net.cpp:399] lstm1_W_xc_x_slice -> W_xc_x_1
I0924 03:02:12.118154 12485 net.cpp:141] Setting up lstm1_x_transform
I0924 03:02:12.118191 12483 net.cpp:141] Setting up lstm1_x_transform
I0924 03:02:12.118199 12485 net.cpp:148] Top shape: 1 1 4000 (4000)
I0924 03:02:12.118208 12485 net.cpp:156] Memory required for data: 26016
I0924 03:02:12.118213 12483 net.cpp:148] Top shape: 1 1 4000 (4000)
I0924 03:02:12.118222 12483 net.cpp:156] Memory required for data: 26016
I0924 03:02:12.118230 12511 net.cpp:141] Setting up lstm1_W_xc_x_slice
I0924 03:02:12.118235 12485 layer_factory.hpp:77] Creating layer lstm1_W_xc_x_slice
I0924 03:02:12.118244 12483 layer_factory.hpp:77] Creating layer lstm1_W_xc_x_slice
I0924 03:02:12.118250 12511 net.cpp:148] Top shape: 1 1 4000 (4000)
I0924 03:02:12.118268 12483 net.cpp:91] Creating Layer lstm1_W_xc_x_slice
I0924 03:02:12.118259 12511 net.cpp:156] Memory required for data: 42016
I0924 03:02:12.118269 12517 net.cpp:49] Initializing net from parameters: 
layer {
  name: "lstm1_"
  type: "Input"
  top: "x"
  top: "cont"
  input_param {
    shape {
      dim: 1
      dim: 1
      dim: 500
    }
    shape {
      dim: 1
      dim: 1
    }
  }
}
layer {
  name: "lstm1_"
  type: "Input"
  top: "c_0"
  top: "h_0"
  input_param {
    shape {
      dim: 1
      dim: 1
      dim: 1000
    }
    shape {
      dim: 1
      dim: 1
      dim: 1000
    }
  }
}
layer {
  name: "lstm1_cont_slice"
  type: "Slice"
  bottom: "cont"
  top: "cont_1"
  slice_param {
    axis: 0
  }
}
layer {
  name: "lstm1_x_transform"
  type: "InnerProduct"
  bottom: "x"
  top: "W_xc_x"
  param {
    name: "W_xc"
  }
  param {
    name: "b_c"
  }
  propagate_down: true
  inner_product_param {
    num_output: 4000
    bias_term: true
    weight_filler {
      type: "uniform"
      min: -0.08
      max: 0.08
    }
    bias_filler {
      type: "constant"
      value: 0
    }
    axis: 2
  }
}
layer {
  name: "lstm1_W_xc_x_slice"
  type: "Slice"
  bottom: "W_xc_x"
  top: "W_xc_x_1"
  slice_param {
    axis: 0
  }
}
layer {
  name: "lstm1_h_conted_0"
  type: "Scale"
  bottom: "h_0"
  bottom: "cont_1"
  top: "h_conted_0"
  scale_param {
    axis: 0
  }
}
layer {
  name: "lstm1_transform_1"
  type: "InnerProduct"
  bottom: "h_conted_0"
  top: "W_hc_h_0"
  param {
    name: "W_hc"
  }
  inner_product_param {
    num_output: 4000
    bias_term: false
    weight_filler {
      type: "uniform"
      min: -0.08
      max: 0.08
    }
    axis: 2
  }
}
layer {
  name: "lstm1_gate_input_1"
  type: "Eltwise"
  bottom: "W_hc_h_0"
  bottom: "W_xc_x_1"
  top: "gate_input_1"
  eltwise_param {
    operation: SUM
  }
}
layer {
  name: "lstm1_unit_1"
  type: "LSTMUnit"
  bottom: "c_0"
  bottom: "gate_input_1"
  bottom: "cont_1"
  top: "c_1"
  top: "h_1"
}
layer {
  name: "lstm1_"
  type: "Split"
  bottom: "c_1"
  top: "c_T"
}
layer {
  name: "lstm1_h_concat"
  type: "Concat"
  bottom: "h_1"
  top: "h"
  concat_param {
    axis: 0
  }
}
layer {
  name: "h_pseudoloss"
  type: "Reduction"
  bottom: "h"
  top: "h_pseudoloss"
  loss_weight: 1
}
I0924 03:02:12.118294 12511 layer_factory.hpp:77] Creating layer lstm1_h_conted_0
I0924 03:02:12.118295 12483 net.cpp:425] lstm1_W_xc_x_slice <- W_xc_x
I0924 03:02:12.118259 12485 net.cpp:91] Creating Layer lstm1_W_xc_x_slice
I0924 03:02:12.119828 12511 net.cpp:91] Creating Layer lstm1_h_conted_0
I0924 03:02:12.119851 12483 net.cpp:399] lstm1_W_xc_x_slice -> W_xc_x_1
I0924 03:02:12.119838 12485 net.cpp:425] lstm1_W_xc_x_slice <- W_xc_x
I0924 03:02:12.119874 12511 net.cpp:425] lstm1_h_conted_0 <- h_0
I0924 03:02:12.119886 12511 net.cpp:425] lstm1_h_conted_0 <- cont_1_lstm1_cont_slice_0_split_0
I0924 03:02:12.119892 12485 net.cpp:399] lstm1_W_xc_x_slice -> W_xc_x_1
I0924 03:02:12.119895 12511 net.cpp:399] lstm1_h_conted_0 -> h_conted_0
I0924 03:02:12.119935 12517 layer_factory.hpp:77] Creating layer lstm1_
I0924 03:02:12.119957 12517 net.cpp:91] Creating Layer lstm1_
I0924 03:02:12.119967 12517 net.cpp:399] lstm1_ -> x
I0924 03:02:12.119997 12517 net.cpp:399] lstm1_ -> cont
I0924 03:02:12.120040 12483 net.cpp:141] Setting up lstm1_W_xc_x_slice
I0924 03:02:12.120060 12483 net.cpp:148] Top shape: 1 1 4000 (4000)
I0924 03:02:12.120067 12483 net.cpp:156] Memory required for data: 42016
I0924 03:02:12.120076 12483 layer_factory.hpp:77] Creating layer lstm1_h_conted_0
I0924 03:02:12.120098 12483 net.cpp:91] Creating Layer lstm1_h_conted_0
I0924 03:02:12.120107 12483 net.cpp:425] lstm1_h_conted_0 <- h_0
I0924 03:02:12.120117 12483 net.cpp:425] lstm1_h_conted_0 <- cont_1_lstm1_cont_slice_0_split_0
I0924 03:02:12.120131 12483 net.cpp:399] lstm1_h_conted_0 -> h_conted_0
I0924 03:02:12.120442 12485 net.cpp:141] Setting up lstm1_W_xc_x_slice
I0924 03:02:12.120481 12485 net.cpp:148] Top shape: 1 1 4000 (4000)
I0924 03:02:12.120487 12517 net.cpp:141] Setting up lstm1_
I0924 03:02:12.120491 12485 net.cpp:156] Memory required for data: 42016
I0924 03:02:12.120515 12517 net.cpp:148] Top shape: 1 1 500 (500)
I0924 03:02:12.120522 12485 layer_factory.hpp:77] Creating layer lstm1_h_conted_0
I0924 03:02:12.120529 12517 net.cpp:148] Top shape: 1 1 (1)
I0924 03:02:12.120537 12517 net.cpp:156] Memory required for data: 2004
I0924 03:02:12.120546 12517 layer_factory.hpp:77] Creating layer lstm1_
I0924 03:02:12.120548 12485 net.cpp:91] Creating Layer lstm1_h_conted_0
I0924 03:02:12.120556 12511 net.cpp:141] Setting up lstm1_h_conted_0
I0924 03:02:12.120564 12517 net.cpp:91] Creating Layer lstm1_
I0924 03:02:12.120560 12485 net.cpp:425] lstm1_h_conted_0 <- h_0
I0924 03:02:12.120585 12517 net.cpp:399] lstm1_ -> c_0
I0924 03:02:12.120576 12511 net.cpp:148] Top shape: 1 1 1000 (1000)
I0924 03:02:12.120594 12485 net.cpp:425] lstm1_h_conted_0 <- cont_1_lstm1_cont_slice_0_split_0
I0924 03:02:12.120609 12517 net.cpp:399] lstm1_ -> h_0
I0924 03:02:12.120609 12511 net.cpp:156] Memory required for data: 46016
I0924 03:02:12.120626 12511 layer_factory.hpp:77] Creating layer lstm1_transform_1
I0924 03:02:12.120628 12485 net.cpp:399] lstm1_h_conted_0 -> h_conted_0
I0924 03:02:12.120643 12511 net.cpp:91] Creating Layer lstm1_transform_1
I0924 03:02:12.120654 12511 net.cpp:425] lstm1_transform_1 <- h_conted_0
I0924 03:02:12.120671 12511 net.cpp:399] lstm1_transform_1 -> W_hc_h_0
I0924 03:02:12.122419 12483 net.cpp:141] Setting up lstm1_h_conted_0
I0924 03:02:12.122472 12483 net.cpp:148] Top shape: 1 1 1000 (1000)
I0924 03:02:12.122483 12483 net.cpp:156] Memory required for data: 46016
I0924 03:02:12.122500 12483 layer_factory.hpp:77] Creating layer lstm1_transform_1
I0924 03:02:12.122532 12517 net.cpp:141] Setting up lstm1_
I0924 03:02:12.122544 12483 net.cpp:91] Creating Layer lstm1_transform_1
I0924 03:02:12.122580 12517 net.cpp:148] Top shape: 1 1 1000 (1000)
I0924 03:02:12.122584 12483 net.cpp:425] lstm1_transform_1 <- h_conted_0
I0924 03:02:12.122592 12517 net.cpp:148] Top shape: 1 1 1000 (1000)
I0924 03:02:12.122637 12517 net.cpp:156] Memory required for data: 10004
I0924 03:02:12.122645 12517 layer_factory.hpp:77] Creating layer lstm1_cont_slice
I0924 03:02:12.122664 12517 net.cpp:91] Creating Layer lstm1_cont_slice
I0924 03:02:12.122674 12517 net.cpp:425] lstm1_cont_slice <- cont
I0924 03:02:12.122675 12483 net.cpp:399] lstm1_transform_1 -> W_hc_h_0
I0924 03:02:12.122689 12517 net.cpp:399] lstm1_cont_slice -> cont_1
I0924 03:02:12.143914 12517 net.cpp:141] Setting up lstm1_cont_slice
I0924 03:02:12.143959 12517 net.cpp:148] Top shape: 1 1 (1)
I0924 03:02:12.143964 12517 net.cpp:156] Memory required for data: 10008
I0924 03:02:12.143971 12517 layer_factory.hpp:77] Creating layer cont_1_lstm1_cont_slice_0_split
I0924 03:02:12.143986 12517 net.cpp:91] Creating Layer cont_1_lstm1_cont_slice_0_split
I0924 03:02:12.143993 12517 net.cpp:425] cont_1_lstm1_cont_slice_0_split <- cont_1
I0924 03:02:12.144006 12517 net.cpp:399] cont_1_lstm1_cont_slice_0_split -> cont_1_lstm1_cont_slice_0_split_0
I0924 03:02:12.144019 12517 net.cpp:399] cont_1_lstm1_cont_slice_0_split -> cont_1_lstm1_cont_slice_0_split_1
I0924 03:02:12.144023 12487 net.cpp:141] Setting up embedding
I0924 03:02:12.144042 12487 net.cpp:148] Top shape: 1 1 500 (500)
I0924 03:02:12.144047 12487 net.cpp:156] Memory required for data: 22408
I0924 03:02:12.144062 12487 layer_factory.hpp:77] Creating layer lstm1
I0924 03:02:12.144121 12487 net.cpp:91] Creating Layer lstm1
I0924 03:02:12.144134 12485 net.cpp:141] Setting up lstm1_h_conted_0
I0924 03:02:12.144157 12487 net.cpp:425] lstm1 <- embedded_input_frames
I0924 03:02:12.144165 12485 net.cpp:148] Top shape: 1 1 1000 (1000)
I0924 03:02:12.144172 12485 net.cpp:156] Memory required for data: 46016
I0924 03:02:12.144173 12487 net.cpp:425] lstm1 <- cont_sentence_input_1_split_0
I0924 03:02:12.144179 12485 layer_factory.hpp:77] Creating layer lstm1_transform_1
I0924 03:02:12.144189 12487 net.cpp:399] lstm1 -> lstm1
I0924 03:02:12.144197 12485 net.cpp:91] Creating Layer lstm1_transform_1
I0924 03:02:12.144208 12485 net.cpp:425] lstm1_transform_1 <- h_conted_0
I0924 03:02:12.144214 12487 recurrent_layer.cpp:20] Initializing recurrent layer: assuming input batch contains 1 timesteps of 1 independent streams.
I0924 03:02:12.144227 12485 net.cpp:399] lstm1_transform_1 -> W_hc_h_0
I0924 03:02:12.153254 12487 net.cpp:49] Initializing net from parameters: 
layer {
  name: "lstm1_"
  type: "Input"
  top: "x"
  top: "cont"
  input_param {
    shape {
      dim: 1
      dim: 1
      dim: 500
    }
    shape {
      dim: 1
      dim: 1
    }
  }
}
layer {
  name: "lstm1_"
  type: "Input"
  top: "c_0"
  top: "h_0"
  input_param {
    shape {
      dim: 1
      dim: 1
      dim: 1000
    }
    shape {
      dim: 1
      dim: 1
      dim: 1000
    }
  }
}
layer {
  name: "lstm1_cont_slice"
  type: "Slice"
  bottom: "cont"
  top: "cont_1"
  slice_param {
    axis: 0
  }
}
layer {
  name: "lstm1_x_transform"
  type: "InnerProduct"
  bottom: "x"
  top: "W_xc_x"
  param {
    name: "W_xc"
  }
  param {
    name: "b_c"
  }
  propagate_down: true
  inner_product_param {
    num_output: 4000
    bias_term: true
    weight_filler {
      type: "uniform"
      min: -0.08
      max: 0.08
    }
    bias_filler {
      type: "constant"
      value: 0
    }
    axis: 2
  }
}
layer {
  name: "lstm1_W_xc_x_slice"
  type: "Slice"
  bottom: "W_xc_x"
  top: "W_xc_x_1"
  slice_param {
    axis: 0
  }
}
layer {
  name: "lstm1_h_conted_0"
  type: "Scale"
  bottom: "h_0"
  bottom: "cont_1"
  top: "h_conted_0"
  scale_param {
    axis: 0
  }
}
layer {
  name: "lstm1_transform_1"
  type: "InnerProduct"
  bottom: "h_conted_0"
  top: "W_hc_h_0"
  param {
    name: "W_hc"
  }
  inner_product_param {
    num_output: 4000
    bias_term: false
    weight_filler {
      type: "uniform"
      min: -0.08
      max: 0.08
    }
    axis: 2
  }
}
layer {
  name: "lstm1_gate_input_1"
  type: "Eltwise"
  bottom: "W_hc_h_0"
  bottom: "W_xc_x_1"
  top: "gate_input_1"
  eltwise_param {
    operation: SUM
  }
}
layer {
  name: "lstm1_unit_1"
  type: "LSTMUnit"
  bottom: "c_0"
  bottom: "gate_input_1"
  bottom: "cont_1"
  top: "c_1"
  top: "h_1"
}
layer {
  name: "lstm1_"
  type: "Split"
  bottom: "c_1"
  top: "c_T"
}
layer {
  name: "lstm1_h_concat"
  type: "Concat"
  bottom: "h_1"
  top: "h"
  concat_param {
    axis: 0
  }
}
layer {
  name: "h_pseudoloss"
  type: "Reduction"
  bottom: "h"
  top: "h_pseudoloss"
  loss_weight: 1
}
I0924 03:02:12.153470 12487 layer_factory.hpp:77] Creating layer lstm1_
I0924 03:02:12.153494 12487 net.cpp:91] Creating Layer lstm1_
I0924 03:02:12.153506 12487 net.cpp:399] lstm1_ -> x
I0924 03:02:12.153532 12487 net.cpp:399] lstm1_ -> cont
I0924 03:02:12.154727 12517 net.cpp:141] Setting up cont_1_lstm1_cont_slice_0_split
I0924 03:02:12.154806 12517 net.cpp:148] Top shape: 1 1 (1)
I0924 03:02:12.154844 12517 net.cpp:148] Top shape: 1 1 (1)
I0924 03:02:12.154858 12517 net.cpp:156] Memory required for data: 10016
I0924 03:02:12.154877 12517 layer_factory.hpp:77] Creating layer lstm1_x_transform
I0924 03:02:12.154919 12517 net.cpp:91] Creating Layer lstm1_x_transform
I0924 03:02:12.154950 12517 net.cpp:425] lstm1_x_transform <- x
I0924 03:02:12.156651 12517 net.cpp:399] lstm1_x_transform -> W_xc_x
I0924 03:02:12.167830 12487 net.cpp:141] Setting up lstm1_
I0924 03:02:12.167909 12487 net.cpp:148] Top shape: 1 1 500 (500)
I0924 03:02:12.167932 12487 net.cpp:148] Top shape: 1 1 (1)
I0924 03:02:12.167940 12487 net.cpp:156] Memory required for data: 2004
I0924 03:02:12.167958 12487 layer_factory.hpp:77] Creating layer lstm1_
I0924 03:02:12.168017 12487 net.cpp:91] Creating Layer lstm1_
I0924 03:02:12.168037 12487 net.cpp:399] lstm1_ -> c_0
I0924 03:02:12.168071 12487 net.cpp:399] lstm1_ -> h_0
I0924 03:02:12.168460 12487 net.cpp:141] Setting up lstm1_
I0924 03:02:12.168500 12487 net.cpp:148] Top shape: 1 1 1000 (1000)
I0924 03:02:12.168511 12487 net.cpp:148] Top shape: 1 1 1000 (1000)
I0924 03:02:12.168519 12487 net.cpp:156] Memory required for data: 10004
I0924 03:02:12.168530 12487 layer_factory.hpp:77] Creating layer lstm1_cont_slice
I0924 03:02:12.168556 12487 net.cpp:91] Creating Layer lstm1_cont_slice
I0924 03:02:12.168566 12487 net.cpp:425] lstm1_cont_slice <- cont
I0924 03:02:12.168586 12487 net.cpp:399] lstm1_cont_slice -> cont_1
I0924 03:02:12.168683 12487 net.cpp:141] Setting up lstm1_cont_slice
I0924 03:02:12.168697 12487 net.cpp:148] Top shape: 1 1 (1)
I0924 03:02:12.168704 12487 net.cpp:156] Memory required for data: 10008
I0924 03:02:12.168735 12487 layer_factory.hpp:77] Creating layer cont_1_lstm1_cont_slice_0_split
I0924 03:02:12.168748 12487 net.cpp:91] Creating Layer cont_1_lstm1_cont_slice_0_split
I0924 03:02:12.168756 12487 net.cpp:425] cont_1_lstm1_cont_slice_0_split <- cont_1
I0924 03:02:12.168767 12487 net.cpp:399] cont_1_lstm1_cont_slice_0_split -> cont_1_lstm1_cont_slice_0_split_0
I0924 03:02:12.168784 12487 net.cpp:399] cont_1_lstm1_cont_slice_0_split -> cont_1_lstm1_cont_slice_0_split_1
I0924 03:02:12.168865 12487 net.cpp:141] Setting up cont_1_lstm1_cont_slice_0_split
I0924 03:02:12.168879 12487 net.cpp:148] Top shape: 1 1 (1)
I0924 03:02:12.168889 12487 net.cpp:148] Top shape: 1 1 (1)
I0924 03:02:12.168895 12487 net.cpp:156] Memory required for data: 10016
I0924 03:02:12.168902 12487 layer_factory.hpp:77] Creating layer lstm1_x_transform
I0924 03:02:12.168931 12487 net.cpp:91] Creating Layer lstm1_x_transform
I0924 03:02:12.168939 12487 net.cpp:425] lstm1_x_transform <- x
I0924 03:02:12.168956 12487 net.cpp:399] lstm1_x_transform -> W_xc_x
I0924 03:02:12.184003 12493 net.cpp:141] Setting up lstm1_x_transform
I0924 03:02:12.184031 12511 net.cpp:141] Setting up lstm1_transform_1
I0924 03:02:12.184062 12511 net.cpp:148] Top shape: 1 1 4000 (4000)
I0924 03:02:12.184063 12493 net.cpp:148] Top shape: 1 1 4000 (4000)
I0924 03:02:12.184073 12511 net.cpp:156] Memory required for data: 62016
I0924 03:02:12.184084 12493 net.cpp:156] Memory required for data: 26016
I0924 03:02:12.184100 12511 layer_factory.hpp:77] Creating layer lstm1_gate_input_1
I0924 03:02:12.184105 12493 layer_factory.hpp:77] Creating layer lstm1_W_xc_x_slice
I0924 03:02:12.184125 12493 net.cpp:91] Creating Layer lstm1_W_xc_x_slice
I0924 03:02:12.184128 12511 net.cpp:91] Creating Layer lstm1_gate_input_1
I0924 03:02:12.184134 12511 net.cpp:425] lstm1_gate_input_1 <- W_hc_h_0
I0924 03:02:12.184135 12493 net.cpp:425] lstm1_W_xc_x_slice <- W_xc_x
I0924 03:02:12.184141 12511 net.cpp:425] lstm1_gate_input_1 <- W_xc_x_1
I0924 03:02:12.184150 12511 net.cpp:399] lstm1_gate_input_1 -> gate_input_1
I0924 03:02:12.184151 12493 net.cpp:399] lstm1_W_xc_x_slice -> W_xc_x_1
I0924 03:02:12.184223 12511 net.cpp:141] Setting up lstm1_gate_input_1
I0924 03:02:12.184234 12511 net.cpp:148] Top shape: 1 1 4000 (4000)
I0924 03:02:12.184238 12511 net.cpp:156] Memory required for data: 78016
I0924 03:02:12.184243 12511 layer_factory.hpp:77] Creating layer lstm1_unit_1
I0924 03:02:12.184252 12511 net.cpp:91] Creating Layer lstm1_unit_1
I0924 03:02:12.184257 12511 net.cpp:425] lstm1_unit_1 <- c_0
I0924 03:02:12.184263 12511 net.cpp:425] lstm1_unit_1 <- gate_input_1
I0924 03:02:12.184262 12493 net.cpp:141] Setting up lstm1_W_xc_x_slice
I0924 03:02:12.184269 12511 net.cpp:425] lstm1_unit_1 <- cont_1_lstm1_cont_slice_0_split_1
I0924 03:02:12.184275 12493 net.cpp:148] Top shape: 1 1 4000 (4000)
I0924 03:02:12.184276 12511 net.cpp:399] lstm1_unit_1 -> c_1
I0924 03:02:12.184280 12493 net.cpp:156] Memory required for data: 42016
I0924 03:02:12.184286 12511 net.cpp:399] lstm1_unit_1 -> h_1
I0924 03:02:12.184285 12493 layer_factory.hpp:77] Creating layer lstm1_h_conted_0
I0924 03:02:12.184334 12493 net.cpp:91] Creating Layer lstm1_h_conted_0
I0924 03:02:12.184342 12493 net.cpp:425] lstm1_h_conted_0 <- h_0
I0924 03:02:12.184350 12493 net.cpp:425] lstm1_h_conted_0 <- cont_1_lstm1_cont_slice_0_split_0
I0924 03:02:12.184357 12493 net.cpp:399] lstm1_h_conted_0 -> h_conted_0
I0924 03:02:12.184363 12511 net.cpp:141] Setting up lstm1_unit_1
I0924 03:02:12.184373 12511 net.cpp:148] Top shape: 1 1 1000 (1000)
I0924 03:02:12.184379 12511 net.cpp:148] Top shape: 1 1 1000 (1000)
I0924 03:02:12.184383 12511 net.cpp:156] Memory required for data: 86016
I0924 03:02:12.184387 12511 layer_factory.hpp:77] Creating layer lstm1_
I0924 03:02:12.184398 12511 net.cpp:91] Creating Layer lstm1_
I0924 03:02:12.184403 12511 net.cpp:425] lstm1_ <- c_1
I0924 03:02:12.184411 12511 net.cpp:399] lstm1_ -> c_T
I0924 03:02:12.184523 12511 net.cpp:141] Setting up lstm1_
I0924 03:02:12.184537 12511 net.cpp:148] Top shape: 1 1 1000 (1000)
I0924 03:02:12.184541 12511 net.cpp:156] Memory required for data: 90016
I0924 03:02:12.184547 12511 layer_factory.hpp:77] Creating layer lstm1_h_concat
I0924 03:02:12.184561 12511 net.cpp:91] Creating Layer lstm1_h_concat
I0924 03:02:12.184571 12511 net.cpp:425] lstm1_h_concat <- h_1
I0924 03:02:12.184589 12511 net.cpp:399] lstm1_h_concat -> h
I0924 03:02:12.184643 12493 net.cpp:141] Setting up lstm1_h_conted_0
I0924 03:02:12.184655 12493 net.cpp:148] Top shape: 1 1 1000 (1000)
I0924 03:02:12.184665 12493 net.cpp:156] Memory required for data: 46016
I0924 03:02:12.184674 12493 layer_factory.hpp:77] Creating layer lstm1_transform_1
I0924 03:02:12.184680 12511 net.cpp:141] Setting up lstm1_h_concat
I0924 03:02:12.184692 12511 net.cpp:148] Top shape: 1 1 1000 (1000)
I0924 03:02:12.184695 12493 net.cpp:91] Creating Layer lstm1_transform_1
I0924 03:02:12.184696 12511 net.cpp:156] Memory required for data: 94016
I0924 03:02:12.184700 12493 net.cpp:425] lstm1_transform_1 <- h_conted_0
I0924 03:02:12.184702 12511 layer_factory.hpp:77] Creating layer h_pseudoloss
I0924 03:02:12.184710 12493 net.cpp:399] lstm1_transform_1 -> W_hc_h_0
I0924 03:02:12.184717 12511 net.cpp:91] Creating Layer h_pseudoloss
…
I0924 03:02:12.192785 12511 net.cpp:219] lstm1_ does not need backward computation.
I0924 03:02:12.192791 12511 net.cpp:261] This network produces output c_T
I0924 03:02:12.192800 12511 net.cpp:261] This network produces output h_pseudoloss
I0924 03:02:12.192829 12511 net.cpp:274] Network initialization done.
I0924 03:02:12.192930 12511 recurrent_layer.cpp:150] Adding parameter 0: W_xc
I0924 03:02:12.192945 12511 recurrent_layer.cpp:150] Adding parameter 1: b_c
I0924 03:02:12.192953 12511 recurrent_layer.cpp:150] Adding parameter 2: W_hc
I0924 03:02:12.193169 12511 net.cpp:141] Setting up lstm1
I0924 03:02:12.193194 12511 net.cpp:148] Top shape: 1 1 1000 (1000)
I0924 03:02:12.193204 12511 net.cpp:156] Memory required for data: 26408
I0924 03:02:12.193238 12511 layer_factory.hpp:77] Creating layer concat
I0924 03:02:12.193265 12511 net.cpp:91] Creating Layer concat
I0924 03:02:12.193281 12511 net.cpp:425] concat <- lstm1
I0924 03:02:12.193296 12511 net.cpp:425] concat <- embedded_input_sentence
I0924 03:02:12.193306 12511 net.cpp:425] concat <- reshaped_stage_indicator
I0924 03:02:12.193320 12511 net.cpp:399] concat -> lstm1_video_sequence
I0924 03:02:12.193389 12511 net.cpp:141] Setting up concat
I0924 03:02:12.193408 12511 net.cpp:148] Top shape: 1 1 1501 (1501)
I0924 03:02:12.193416 12511 net.cpp:156] Memory required for data: 32412
I0924 03:02:12.193426 12511 layer_factory.hpp:77] Creating layer lstm2
I0924 03:02:12.193451 12511 net.cpp:91] Creating Layer lstm2
I0924 03:02:12.193495 12511 net.cpp:425] lstm2 <- lstm1_video_sequence
I0924 03:02:12.193511 12511 net.cpp:425] lstm2 <- cont_sentence_input_1_split_1
I0924 03:02:12.193527 12511 net.cpp:399] lstm2 -> lstm2
I0924 03:02:12.193547 12511 recurrent_layer.cpp:20] Initializing recurrent layer: assuming input batch contains 1 timesteps of 1 independent streams.
I0924 03:02:12.193994 12511 net.cpp:49] Initializing net from parameters: 
layer {
  name: "lstm2_"
  type: "Input"
  top: "x"
  top: "cont"
  input_param {
    shape {
      dim: 1
      dim: 1
      dim: 1501
    }
    shape {
      dim: 1
      dim: 1
    }
  }
}
layer {
  name: "lstm2_"
  type: "Input"
  top: "c_0"
  top: "h_0"
  input_param {
    shape {
      dim: 1
      dim: 1
      dim: 1000
    }
    shape {
      dim: 1
      dim: 1
      dim: 1000
    }
  }
}
layer {
  name: "lstm2_cont_slice"
  type: "Slice"
  bottom: "cont"
  top: "cont_1"
  slice_param {
    axis: 0
  }
}
layer {
  name: "lstm2_x_transform"
  type: "InnerProduct"
  bottom: "x"
  top: "W_xc_x"
  param {
    name: "W_xc"
  }
  param {
    name: "b_c"
  }
  propagate_down: true
  inner_product_param {
    num_output: 4000
    bias_term: true
    weight_filler {
      type: "uniform"
      min: -0.08
      max: 0.08
    }
    bias_filler {
      type: "constant"
      value: 0
    }
    axis: 2
  }
}
layer {
  name: "lstm2_W_xc_x_slice"
  type: "Slice"
  bottom: "W_xc_x"
  top: "W_xc_x_1"
  slice_param {
    axis: 0
  }
}
layer {
  name: "lstm2_h_conted_0"
  type: "Scale"
  bottom: "h_0"
  bottom: "cont_1"
  top: "h_conted_0"
  scale_param {
    axis: 0
  }
}
layer {
  name: "lstm2_transform_1"
  type: "InnerProduct"
  bottom: "h_conted_0"
  top: "W_hc_h_0"
  param {
    name: "W_hc"
  }
  inner_product_param {
    num_output: 4000
    bias_term: false
    weight_filler {
      type: "uniform"
      min: -0.08
      max: 0.08
    }
    axis: 2
  }
}
layer {
  name: "lstm2_gate_input_1"
  type: "Eltwise"
  bottom: "W_hc_h_0"
  bottom: "W_xc_x_1"
  top: "gate_input_1"
  eltwise_param {
    operation: SUM
  }
}
layer {
  name: "lstm2_unit_1"
  type: "LSTMUnit"
  bottom: "c_0"
  bottom: "gate_input_1"
  bottom: "cont_1"
  top: "c_1"
  top: "h_1"
}
layer {
  name: "lstm2_"
  type: "Split"
  bottom: "c_1"
  top: "c_T"
}
layer {
  name: "lstm2_h_concat"
  type: "Concat"
  bottom: "h_1"
  top: "h"
  concat_param {
    axis: 0
  }
}
layer {
  name: "h_pseudoloss"
  type: "Reduction"
  bottom: "h"
  top: "h_pseudoloss"
  loss_weight: 1
}
I0924 03:02:12.194146 12511 layer_factory.hpp:77] Creating layer lstm2_
I0924 03:02:12.194169 12511 net.cpp:91] Creating Layer lstm2_
I0924 03:02:12.194182 12511 net.cpp:399] lstm2_ -> x
I0924 03:02:12.194201 12511 net.cpp:399] lstm2_ -> cont
I0924 03:02:12.196835 12511 net.cpp:141] Setting up lstm2_
I0924 03:02:12.196884 12511 net.cpp:148] Top shape: 1 1 1501 (1501)
I0924 03:02:12.196897 12511 net.cpp:148] Top shape: 1 1 (1)
I0924 03:02:12.196904 12511 net.cpp:156] Memory required for data: 6008
I0924 03:02:12.196918 12511 layer_factory.hpp:77] Creating layer lstm2_
I0924 03:02:12.196949 12511 net.cpp:91] Creating Layer lstm2_
I0924 03:02:12.196974 12511 net.cpp:399] lstm2_ -> c_0
I0924 03:02:12.197005 12511 net.cpp:399] lstm2_ -> h_0
I0924 03:02:12.197140 12511 net.cpp:141] Setting up lstm2_
I0924 03:02:12.197186 12511 net.cpp:148] Top shape: 1 1 1000 (1000)
I0924 03:02:12.197208 12511 net.cpp:148] Top shape: 1 1 1000 (1000)
I0924 03:02:12.197219 12511 net.cpp:156] Memory required for data: 14008
I0924 03:02:12.197233 12511 layer_factory.hpp:77] Creating layer lstm2_cont_slice
I0924 03:02:12.197259 12511 net.cpp:91] Creating Layer lstm2_cont_slice
I0924 03:02:12.197275 12511 net.cpp:425] lstm2_cont_slice <- cont
I0924 03:02:12.197296 12511 net.cpp:399] lstm2_cont_slice -> cont_1
I0924 03:02:12.198673 12511 net.cpp:141] Setting up lstm2_cont_slice
I0924 03:02:12.198743 12511 net.cpp:148] Top shape: 1 1 (1)
I0924 03:02:12.198752 12511 net.cpp:156] Memory required for data: 14012
I0924 03:02:12.198763 12511 layer_factory.hpp:77] Creating layer cont_1_lstm2_cont_slice_0_split
I0924 03:02:12.198786 12511 net.cpp:91] Creating Layer cont_1_lstm2_cont_slice_0_split
I0924 03:02:12.198801 12511 net.cpp:425] cont_1_lstm2_cont_slice_0_split <- cont_1
I0924 03:02:12.198814 12511 net.cpp:399] cont_1_lstm2_cont_slice_0_split -> cont_1_lstm2_cont_slice_0_split_0
I0924 03:02:12.198832 12511 net.cpp:399] cont_1_lstm2_cont_slice_0_split -> cont_1_lstm2_cont_slice_0_split_1
I0924 03:02:12.199012 12511 net.cpp:141] Setting up cont_1_lstm2_cont_slice_0_split
I0924 03:02:12.199028 12511 net.cpp:148] Top shape: 1 1 (1)
I0924 03:02:12.199039 12511 net.cpp:148] Top shape: 1 1 (1)
I0924 03:02:12.199046 12511 net.cpp:156] Memory required for data: 14020
I0924 03:02:12.199055 12511 layer_factory.hpp:77] Creating layer lstm2_x_transform
I0924 03:02:12.199077 12511 net.cpp:91] Creating Layer lstm2_x_transform
I0924 03:02:12.199090 12511 net.cpp:425] lstm2_x_transform <- x
I0924 03:02:12.199110 12511 net.cpp:399] lstm2_x_transform -> W_xc_x
I0924 03:02:12.213446 12517 net.cpp:141] Setting up lstm1_x_transform
I0924 03:02:12.213502 12517 net.cpp:148] Top shape: 1 1 4000 (4000)
I0924 03:02:12.213513 12517 net.cpp:156] Memory required for data: 26016
I0924 03:02:12.213543 12517 layer_factory.hpp:77] Creating layer lstm1_W_xc_x_slice
I0924 03:02:12.213564 12517 net.cpp:91] Creating Layer lstm1_W_xc_x_slice
I0924 03:02:12.213575 12517 net.cpp:425] lstm1_W_xc_x_slice <- W_xc_x
I0924 03:02:12.213589 12517 net.cpp:399] lstm1_W_xc_x_slice -> W_xc_x_1
I0924 03:02:12.213665 12517 net.cpp:141] Setting up lstm1_W_xc_x_slice
I0924 03:02:12.213681 12517 net.cpp:148] Top shape: 1 1 4000 (4000)
I0924 03:02:12.213690 12517 net.cpp:156] Memory required for data: 42016
I0924 03:02:12.213698 12517 layer_factory.hpp:77] Creating layer lstm1_h_conted_0
I0924 03:02:12.213713 12517 net.cpp:91] Creating Layer lstm1_h_conted_0
I0924 03:02:12.213723 12517 net.cpp:425] lstm1_h_conted_0 <- h_0
I0924 03:02:12.213732 12517 net.cpp:425] lstm1_h_conted_0 <- cont_1_lstm1_cont_slice_0_split_0
I0924 03:02:12.213745 12517 net.cpp:399] lstm1_h_conted_0 -> h_conted_0
I0924 03:02:12.213907 12517 net.cpp:141] Setting up lstm1_h_conted_0
I0924 03:02:12.213922 12517 net.cpp:148] Top shape: 1 1 1000 (1000)
I0924 03:02:12.213930 12517 net.cpp:156] Memory required for data: 46016
I0924 03:02:12.213937 12517 layer_factory.hpp:77] Creating layer lstm1_transform_1
I0924 03:02:12.213958 12517 net.cpp:91] Creating Layer lstm1_transform_1
I0924 03:02:12.213966 12517 net.cpp:425] lstm1_transform_1 <- h_conted_0
I0924 03:02:12.213984 12517 net.cpp:399] lstm1_transform_1 -> W_hc_h_0
I0924 03:02:12.223315 12487 net.cpp:141] Setting up lstm1_x_transform
I0924 03:02:12.223369 12487 net.cpp:148] Top shape: 1 1 4000 (4000)
I0924 03:02:12.223379 12487 net.cpp:156] Memory required for data: 26016
I0924 03:02:12.223412 12487 layer_factory.hpp:77] Creating layer lstm1_W_xc_x_slice
I0924 03:02:12.223441 12487 net.cpp:91] Creating Layer lstm1_W_xc_x_slice
I0924 03:02:12.223453 12487 net.cpp:425] lstm1_W_xc_x_slice <- W_xc_x
I0924 03:02:12.223466 12487 net.cpp:399] lstm1_W_xc_x_slice -> W_xc_x_1
I0924 03:02:12.223542 12487 net.cpp:141] Setting up lstm1_W_xc_x_slice
I0924 03:02:12.223561 12487 net.cpp:148] Top shape: 1 1 4000 (4000)
I0924 03:02:12.223567 12487 net.cpp:156] Memory required for data: 42016
I0924 03:02:12.223574 12487 layer_factory.hpp:77] Creating layer lstm1_h_conted_0
I0924 03:02:12.223595 12487 net.cpp:91] Creating Layer lstm1_h_conted_0
I0924 03:02:12.223604 12487 net.cpp:425] lstm1_h_conted_0 <- h_0
I0924 03:02:12.223614 12487 net.cpp:425] lstm1_h_conted_0 <- cont_1_lstm1_cont_slice_0_split_0
I0924 03:02:12.223626 12487 net.cpp:399] lstm1_h_conted_0 -> h_conted_0
I0924 03:02:12.223798 12487 net.cpp:141] Setting up lstm1_h_conted_0
I0924 03:02:12.223811 12487 net.cpp:148] Top shape: 1 1 1000 (1000)
I0924 03:02:12.223819 12487 net.cpp:156] Memory required for data: 46016
I0924 03:02:12.223830 12487 layer_factory.hpp:77] Creating layer lstm1_transform_1
I0924 03:02:12.223852 12487 net.cpp:91] Creating Layer lstm1_transform_1
I0924 03:02:12.223863 12487 net.cpp:425] lstm1_transform_1 <- h_conted_0
I0924 03:02:12.223876 12487 net.cpp:399] lstm1_transform_1 -> W_hc_h_0
I0924 03:02:12.231705 12483 net.cpp:141] Setting up lstm1_transform_1
I0924 03:02:12.231705 12485 net.cpp:141] Setting up lstm1_transform_1
I0924 03:02:12.231783 12485 net.cpp:148] Top shape: 1 1 4000 (4000)
I0924 03:02:12.231783 12483 net.cpp:148] Top shape: 1 1 4000 (4000)
I0924 03:02:12.231817 12483 net.cpp:156] Memory required for data: 62016
I0924 03:02:12.231833 12485 net.cpp:156] Memory required for data: 62016
I0924 03:02:12.231864 12483 layer_factory.hpp:77] Creating layer lstm1_gate_input_1
I0924 03:02:12.231876 12485 layer_factory.hpp:77] Creating layer lstm1_gate_input_1
I0924 03:02:12.231932 12483 net.cpp:91] Creating Layer lstm1_gate_input_1
I0924 03:02:12.231935 12485 net.cpp:91] Creating Layer lstm1_gate_input_1
I0924 03:02:12.231950 12483 net.cpp:425] lstm1_gate_input_1 <- W_hc_h_0
I0924 03:02:12.231952 12485 net.cpp:425] lstm1_gate_input_1 <- W_hc_h_0
I0924 03:02:12.231971 12485 net.cpp:425] lstm1_gate_input_1 <- W_xc_x_1
I0924 03:02:12.231969 12483 net.cpp:425] lstm1_gate_input_1 <- W_xc_x_1
I0924 03:02:12.231999 12485 net.cpp:399] lstm1_gate_input_1 -> gate_input_1
I0924 03:02:12.232007 12483 net.cpp:399] lstm1_gate_input_1 -> gate_input_1
I0924 03:02:12.232086 12483 net.cpp:141] Setting up lstm1_gate_input_1
I0924 03:02:12.232101 12483 net.cpp:148] Top shape: 1 1 4000 (4000)
I0924 03:02:12.232110 12483 net.cpp:156] Memory required for data: 78016
I0924 03:02:12.232118 12483 layer_factory.hpp:77] Creating layer lstm1_unit_1
I0924 03:02:12.232121 12485 net.cpp:141] Setting up lstm1_gate_input_1
I0924 03:02:12.232133 12485 net.cpp:148] Top shape: 1 1 4000 (4000)
I0924 03:02:12.232138 12483 net.cpp:91] Creating Layer lstm1_unit_1
I0924 03:02:12.232141 12485 net.cpp:156] Memory required for data: 78016
I0924 03:02:12.232147 12483 net.cpp:425] lstm1_unit_1 <- c_0
I0924 03:02:12.232148 12485 layer_factory.hpp:77] Creating layer lstm1_unit_1
I0924 03:02:12.232163 12483 net.cpp:425] lstm1_unit_1 <- gate_input_1
I0924 03:02:12.232168 12485 net.cpp:91] Creating Layer lstm1_unit_1
I0924 03:02:12.232173 12483 net.cpp:425] lstm1_unit_1 <- cont_1_lstm1_cont_slice_0_split_1
I0924 03:02:12.232177 12485 net.cpp:425] lstm1_unit_1 <- c_0
I0924 03:02:12.232184 12485 net.cpp:425] lstm1_unit_1 <- gate_input_1
I0924 03:02:12.232184 12483 net.cpp:399] lstm1_unit_1 -> c_1
I0924 03:02:12.232208 12485 net.cpp:425] lstm1_unit_1 <- cont_1_lstm1_cont_slice_0_split_1
I0924 03:02:12.232220 12483 net.cpp:399] lstm1_unit_1 -> h_1
I0924 03:02:12.232221 12485 net.cpp:399] lstm1_unit_1 -> c_1
I0924 03:02:12.232244 12485 net.cpp:399] lstm1_unit_1 -> h_1
I0924 03:02:12.232440 12483 net.cpp:141] Setting up lstm1_unit_1
I0924 03:02:12.232458 12483 net.cpp:148] Top shape: 1 1 1000 (1000)
I0924 03:02:12.232470 12483 net.cpp:148] Top shape: 1 1 1000 (1000)
I0924 03:02:12.232472 12485 net.cpp:141] Setting up lstm1_unit_1
I0924 03:02:12.232478 12483 net.cpp:156] Memory required for data: 86016
I0924 03:02:12.232486 12485 net.cpp:148] Top shape: 1 1 1000 (1000)
I0924 03:02:12.232486 12483 layer_factory.hpp:77] Creating layer lstm1_
I0924 03:02:12.232501 12485 net.cpp:148] Top shape: 1 1 1000 (1000)
I0924 03:02:12.232508 12485 net.cpp:156] Memory required for data: 86016
I0924 03:02:12.232509 12483 net.cpp:91] Creating Layer lstm1_
I0924 03:02:12.232522 12485 layer_factory.hpp:77] Creating layer lstm1_
I0924 03:02:12.232523 12483 net.cpp:425] lstm1_ <- c_1
I0924 03:02:12.232532 12485 net.cpp:91] Creating Layer lstm1_
I0924 03:02:12.232542 12485 net.cpp:425] lstm1_ <- c_1
I0924 03:02:12.232543 12483 net.cpp:399] lstm1_ -> c_T
I0924 03:02:12.232553 12485 net.cpp:399] lstm1_ -> c_T
I0924 03:02:12.232606 12483 net.cpp:141] Setting up lstm1_
I0924 03:02:12.232625 12483 net.cpp:148] Top shape: 1 1 1000 (1000)
I0924 03:02:12.232635 12483 net.cpp:156] Memory required for data: 90016
I0924 03:02:12.232645 12483 layer_factory.hpp:77] Creating layer lstm1_h_concat
I0924 03:02:12.232645 12485 net.cpp:141] Setting up lstm1_
I0924 03:02:12.232666 12485 net.cpp:148] Top shape: 1 1 1000 (1000)
I0924 03:02:12.232666 12483 net.cpp:91] Creating Layer lstm1_h_concat
I0924 03:02:12.232681 12485 net.cpp:156] Memory required for data: 90016
I0924 03:02:12.232683 12483 net.cpp:425] lstm1_h_concat <- h_1
I0924 03:02:12.232688 12485 layer_factory.hpp:77] Creating layer lstm1_h_concat
I0924 03:02:12.232695 12483 net.cpp:399] lstm1_h_concat -> h
I0924 03:02:12.232702 12485 net.cpp:91] Creating Layer lstm1_h_concat
I0924 03:02:12.232710 12485 net.cpp:425] lstm1_h_concat <- h_1
I0924 03:02:12.232723 12485 net.cpp:399] lstm1_h_concat -> h
I0924 03:02:12.232765 12483 net.cpp:141] Setting up lstm1_h_concat
I0924 03:02:12.232782 12483 net.cpp:148] Top shape: 1 1 1000 (1000)
I0924 03:02:12.232790 12483 net.cpp:156] Memory required for data: 94016
I0924 03:02:12.232800 12485 net.cpp:141] Setting up lstm1_h_concat
I0924 03:02:12.232800 12483 layer_factory.hpp:77] Creating layer h_pseudoloss
I0924 03:02:12.232820 12485 net.cpp:148] Top shape: 1 1 1000 (1000)
I0924 03:02:12.232830 12485 net.cpp:156] Memory required for data: 94016
I0924 03:02:12.232834 12483 net.cpp:91] Creating Layer h_pseudoloss
I0924 03:02:12.232839 12485 layer_factory.hpp:77] Creating layer h_pseudoloss
I0924 03:02:12.232844 12483 net.cpp:425] h_pseudoloss <- h
I0924 03:02:12.232861 12483 net.cpp:399] h_pseudoloss -> h_pseudoloss
I0924 03:02:12.232873 12485 net.cpp:91] Creating Layer h_pseudoloss
…
I0924 03:02:12.236276 12483 recurrent_layer.cpp:20] Initializing recurrent layer: assuming input batch contains 1 timesteps of 1 independent streams.
I0924 03:02:12.236721 12483 net.cpp:49] Initializing net from parameters: 
layer {
  name: "lstm2_"
  type: "Input"
  top: "x"
  top: "cont"
  input_param {
    shape {
      dim: 1
      dim: 1
      dim: 1501
    }
    shape {
      dim: 1
      dim: 1
    }
  }
}
layer {
  name: "lstm2_"
  type: "Input"
  top: "c_0"
  top: "h_0"
  input_param {
    shape {
      dim: 1
      dim: 1
      dim: 1000
    }
    shape {
      dim: 1
      dim: 1
      dim: 1000
    }
  }
}
layer {
  name: "lstm2_cont_slice"
  type: "Slice"
  bottom: "cont"
  top: "cont_1"
  slice_param {
    axis: 0
  }
}
layer {
  name: "lstm2_x_transform"
  type: "InnerProduct"
  bottom: "x"
  top: "W_xc_x"
  param {
    name: "W_xc"
  }
  param {
    name: "b_c"
  }
  propagate_down: true
  inner_product_param {
    num_output: 4000
    bias_term: true
    weight_filler {
      type: "uniform"
      min: -0.08
      max: 0.08
    }
    bias_filler {
      type: "constant"
      value: 0
    }
    axis: 2
  }
}
layer {
  name: "lstm2_W_xc_x_slice"
  type: "Slice"
  bottom: "W_xc_x"
  top: "W_xc_x_1"
  slice_param {
    axis: 0
  }
}
layer {
  name: "lstm2_h_conted_0"
  type: "Scale"
  bottom: "h_0"
  bottom: "cont_1"
  top: "h_conted_0"
  scale_param {
    axis: 0
  }
}
layer {
  name: "lstm2_transform_1"
  type: "InnerProduct"
  bottom: "h_conted_0"
  top: "W_hc_h_0"
  param {
    name: "W_hc"
  }
  inner_product_param {
    num_output: 4000
    bias_term: false
    weight_filler {
      type: "uniform"
      min: -0.08
      max: 0.08
    }
    axis: 2
  }
}
layer {
  name: "lstm2_gate_input_1"
  type: "Eltwise"
  bottom: "W_hc_h_0"
  bottom: "W_xc_x_1"
  top: "gate_input_1"
  eltwise_param {
    operation: SUM
  }
}
layer {
  name: "lstm2_unit_1"
  type: "LSTMUnit"
  bottom: "c_0"
  bottom: "gate_input_1"
  bottom: "cont_1"
  top: "c_1"
  top: "h_1"
}
layer {
  name: "lstm2_"
  type: "Split"
  bottom: "c_1"
  top: "c_T"
}
layer {
  name: "lstm2_h_concat"
  type: "Concat"
  bottom: "h_1"
  top: "h"
  concat_param {
    axis: 0
  }
}
layer {
  name: "h_pseudoloss"
  type: "Reduction"
  bottom: "h"
  top: "h_pseudoloss"
  loss_weight: 1
}
I0924 03:02:12.236721 12485 net.cpp:49] Initializing net from parameters: 
layer {
  name: "lstm2_"
  type: "Input"
  top: "x"
  top: "cont"
  input_param {
    shape {
      dim: 1
      dim: 1
      dim: 1501
    }
    shape {
      dim: 1
      dim: 1
    }
  }
}
layer {
  name: "lstm2_"
  type: "Input"
  top: "c_0"
  top: "h_0"
  input_param {
    shape {
      dim: 1
      dim: 1
      dim: 1000
    }
    shape {
      dim: 1
      dim: 1
      dim: 1000
    }
  }
}
layer {
  name: "lstm2_cont_slice"
  type: "Slice"
  bottom: "cont"
  top: "cont_1"
  slice_param {
    axis: 0
  }
}
layer {
  name: "lstm2_x_transform"
  type: "InnerProduct"
  bottom: "x"
  top: "W_xc_x"
  param {
    name: "W_xc"
  }
  param {
    name: "b_c"
  }
  propagate_down: true
  inner_product_param {
    num_output: 4000
    bias_term: true
    weight_filler {
      type: "uniform"
      min: -0.08
      max: 0.08
    }
    bias_filler {
      type: "constant"
      value: 0
    }
    axis: 2
  }
}
layer {
  name: "lstm2_W_xc_x_slice"
  type: "Slice"
  bottom: "W_xc_x"
  top: "W_xc_x_1"
  slice_param {
    axis: 0
  }
}
layer {
  name: "lstm2_h_conted_0"
  type: "Scale"
  bottom: "h_0"
  bottom: "cont_1"
  top: "h_conted_0"
  scale_param {
    axis: 0
  }
}
layer {
  name: "lstm2_transform_1"
  type: "InnerProduct"
  bottom: "h_conted_0"
  top: "W_hc_h_0"
  param {
    name: "W_hc"
  }
  inner_product_param {
    num_output: 4000
    bias_term: false
    weight_filler {
      type: "uniform"
      min: -0.08
      max: 0.08
    }
    axis: 2
  }
}
layer {
  name: "lstm2_gate_input_1"
  type: "Eltwise"
  bottom: "W_hc_h_0"
  bottom: "W_xc_x_1"
  top: "gate_input_1"
  eltwise_param {
    operation: SUM
  }
}
layer {
  name: "lstm2_unit_1"
  type: "LSTMUnit"
  bottom: "c_0"
  bottom: "gate_input_1"
  bottom: "cont_1"
  top: "c_1"
  top: "h_1"
}
layer {
  name: "lstm2_"
  type: "Split"
  bottom: "c_1"
  top: "c_T"
}
layer {
  name: "lstm2_h_concat"
  type: "Concat"
  bottom: "h_1"
  top: "h"
  concat_param {
    axis: 0
  }
}
layer {
  name: "h_pseudoloss"
  type: "Reduction"
  bottom: "h"
  top: "h_pseudoloss"
  loss_weight: 1
}
I0924 03:02:12.236868 12483 layer_factory.hpp:77] Creating layer lstm2_
I0924 03:02:12.236868 12485 layer_factory.hpp:77] Creating layer lstm2_
I0924 03:02:12.236897 12483 net.cpp:91] Creating Layer lstm2_
I0924 03:02:12.236897 12485 net.cpp:91] Creating Layer lstm2_
I0924 03:02:12.236917 12483 net.cpp:399] lstm2_ -> x
I0924 03:02:12.236917 12485 net.cpp:399] lstm2_ -> x
I0924 03:02:12.236939 12485 net.cpp:399] lstm2_ -> cont
I0924 03:02:12.236939 12483 net.cpp:399] lstm2_ -> cont
I0924 03:02:12.239099 12485 net.cpp:141] Setting up lstm2_
I0924 03:02:12.239121 12483 net.cpp:141] Setting up lstm2_
I0924 03:02:12.239157 12483 net.cpp:148] Top shape: 1 1 1501 (1501)
I0924 03:02:12.239157 12485 net.cpp:148] Top shape: 1 1 1501 (1501)
I0924 03:02:12.239177 12485 net.cpp:148] Top shape: 1 1 (1)
I0924 03:02:12.239177 12483 net.cpp:148] Top shape: 1 1 (1)
I0924 03:02:12.239188 12485 net.cpp:156] Memory required for data: 6008
I0924 03:02:12.239193 12483 net.cpp:156] Memory required for data: 6008
I0924 03:02:12.239204 12483 layer_factory.hpp:77] Creating layer lstm2_
I0924 03:02:12.239204 12485 layer_factory.hpp:77] Creating layer lstm2_
I0924 03:02:12.239243 12485 net.cpp:91] Creating Layer lstm2_
I0924 03:02:12.239250 12483 net.cpp:91] Creating Layer lstm2_
I0924 03:02:12.239264 12483 net.cpp:399] lstm2_ -> c_0
I0924 03:02:12.239264 12485 net.cpp:399] lstm2_ -> c_0
I0924 03:02:12.239297 12485 net.cpp:399] lstm2_ -> h_0
I0924 03:02:12.239297 12483 net.cpp:399] lstm2_ -> h_0
I0924 03:02:12.239418 12483 net.cpp:141] Setting up lstm2_
I0924 03:02:12.239436 12483 net.cpp:148] Top shape: 1 1 1000 (1000)
I0924 03:02:12.239447 12483 net.cpp:148] Top shape: 1 1 1000 (1000)
I0924 03:02:12.239454 12483 net.cpp:156] Memory required for data: 14008
I0924 03:02:12.239462 12483 layer_factory.hpp:77] Creating layer lstm2_cont_slice
I0924 03:02:12.239464 12485 net.cpp:141] Setting up lstm2_
I0924 03:02:12.239475 12485 net.cpp:148] Top shape: 1 1 1000 (1000)
I0924 03:02:12.239480 12483 net.cpp:91] Creating Layer lstm2_cont_slice
I0924 03:02:12.239487 12485 net.cpp:148] Top shape: 1 1 1000 (1000)
I0924 03:02:12.239490 12483 net.cpp:425] lstm2_cont_slice <- cont
I0924 03:02:12.239495 12485 net.cpp:156] Memory required for data: 14008
I0924 03:02:12.239502 12485 layer_factory.hpp:77] Creating layer lstm2_cont_slice
I0924 03:02:12.239502 12483 net.cpp:399] lstm2_cont_slice -> cont_1
I0924 03:02:12.239521 12485 net.cpp:91] Creating Layer lstm2_cont_slice
I0924 03:02:12.239531 12485 net.cpp:425] lstm2_cont_slice <- cont
I0924 03:02:12.239543 12485 net.cpp:399] lstm2_cont_slice -> cont_1
I0924 03:02:12.239585 12493 net.cpp:141] Setting up lstm1_transform_1
I0924 03:02:12.239612 12485 net.cpp:141] Setting up lstm2_cont_slice
I0924 03:02:12.239629 12485 net.cpp:148] Top shape: 1 1 (1)
I0924 03:02:12.239630 12493 net.cpp:148] Top shape: 1 1 4000 (4000)
I0924 03:02:12.239647 12483 net.cpp:141] Setting up lstm2_cont_slice
I0924 03:02:12.239662 12493 net.cpp:156] Memory required for data: 62016
I0924 03:02:12.239663 12483 net.cpp:148] Top shape: 1 1 (1)
I0924 03:02:12.239673 12483 net.cpp:156] Memory required for data: 14012
I0924 03:02:12.239646 12485 net.cpp:156] Memory required for data: 14012
I0924 03:02:12.239681 12483 layer_factory.hpp:77] Creating layer cont_1_lstm2_cont_slice_0_split
I0924 03:02:12.239683 12485 layer_factory.hpp:77] Creating layer cont_1_lstm2_cont_slice_0_split
I0924 03:02:12.239687 12493 layer_factory.hpp:77] Creating layer lstm1_gate_input_1
…
I0924 03:02:12.239733 12493 net.cpp:91] Creating Layer lstm1_gate_input_1
I0924 03:02:12.239759 12483 net.cpp:399] cont_1_lstm2_cont_slice_0_split -> cont_1_lstm2_cont_slice_0_split_1
I0924 03:02:12.239753 12485 net.cpp:399] cont_1_lstm2_cont_slice_0_split -> cont_1_lstm2_cont_slice_0_split_1
I0924 03:02:12.239769 12493 net.cpp:425] lstm1_gate_input_1 <- W_hc_h_0
I0924 03:02:12.239780 12493 net.cpp:425] lstm1_gate_input_1 <- W_xc_x_1
I0924 03:02:12.239789 12493 net.cpp:399] lstm1_gate_input_1 -> gate_input_1
I0924 03:02:12.239881 12493 net.cpp:141] Setting up lstm1_gate_input_1
I0924 03:02:12.239894 12493 net.cpp:148] Top shape: 1 1 4000 (4000)
I0924 03:02:12.239900 12493 net.cpp:156] Memory required for data: 78016
I0924 03:02:12.239905 12493 layer_factory.hpp:77] Creating layer lstm1_unit_1
I0924 03:02:12.239915 12493 net.cpp:91] Creating Layer lstm1_unit_1
I0924 03:02:12.239920 12493 net.cpp:425] lstm1_unit_1 <- c_0
I0924 03:02:12.239926 12493 net.cpp:425] lstm1_unit_1 <- gate_input_1
I0924 03:02:12.239933 12493 net.cpp:425] lstm1_unit_1 <- cont_1_lstm1_cont_slice_0_split_1
I0924 03:02:12.239940 12493 net.cpp:399] lstm1_unit_1 -> c_1
I0924 03:02:12.239949 12493 net.cpp:399] lstm1_unit_1 -> h_1
I0924 03:02:12.239964 12483 net.cpp:141] Setting up cont_1_lstm2_cont_slice_0_split
I0924 03:02:12.239985 12483 net.cpp:148] Top shape: 1 1 (1)
I0924 03:02:12.239997 12483 net.cpp:148] Top shape: 1 1 (1)
I0924 03:02:12.239998 12485 net.cpp:141] Setting up cont_1_lstm2_cont_slice_0_split
I0924 03:02:12.240005 12483 net.cpp:156] Memory required for data: 14020
I0924 03:02:12.240012 12485 net.cpp:148] Top shape: 1 1 (1)
I0924 03:02:12.240016 12483 layer_factory.hpp:77] Creating layer lstm2_x_transform
I0924 03:02:12.240022 12485 net.cpp:148] Top shape: 1 1 (1)
I0924 03:02:12.240028 12485 net.cpp:156] Memory required for data: 14020
I0924 03:02:12.240036 12485 layer_factory.hpp:77] Creating layer lstm2_x_transform
I0924 03:02:12.240038 12483 net.cpp:91] Creating Layer lstm2_x_transform
I0924 03:02:12.240047 12483 net.cpp:425] lstm2_x_transform <- x
I0924 03:02:12.240056 12485 net.cpp:91] Creating Layer lstm2_x_transform
I0924 03:02:12.240064 12485 net.cpp:425] lstm2_x_transform <- x
I0924 03:02:12.240064 12483 net.cpp:399] lstm2_x_transform -> W_xc_x
I0924 03:02:12.240084 12485 net.cpp:399] lstm2_x_transform -> W_xc_x
I0924 03:02:12.240087 12493 net.cpp:141] Setting up lstm1_unit_1
I0924 03:02:12.240098 12493 net.cpp:148] Top shape: 1 1 1000 (1000)
I0924 03:02:12.240104 12493 net.cpp:148] Top shape: 1 1 1000 (1000)
I0924 03:02:12.240108 12493 net.cpp:156] Memory required for data: 86016
I0924 03:02:12.240113 12493 layer_factory.hpp:77] Creating layer lstm1_
I0924 03:02:12.240124 12493 net.cpp:91] Creating Layer lstm1_
I0924 03:02:12.240129 12493 net.cpp:425] lstm1_ <- c_1
I0924 03:02:12.240137 12493 net.cpp:399] lstm1_ -> c_T
I0924 03:02:12.240186 12493 net.cpp:141] Setting up lstm1_
I0924 03:02:12.240196 12493 net.cpp:148] Top shape: 1 1 1000 (1000)
I0924 03:02:12.240200 12493 net.cpp:156] Memory required for data: 90016
I0924 03:02:12.240206 12493 layer_factory.hpp:77] Creating layer lstm1_h_concat
I0924 03:02:12.240214 12493 net.cpp:91] Creating Layer lstm1_h_concat
I0924 03:02:12.240219 12493 net.cpp:425] lstm1_h_concat <- h_1
I0924 03:02:12.240471 12493 net.cpp:399] lstm1_h_concat -> h
I0924 03:02:12.266433 12493 net.cpp:141] Setting up lstm1_h_concat
I0924 03:02:12.266486 12493 net.cpp:148] Top shape: 1 1 1000 (1000)
I0924 03:02:12.266492 12493 net.cpp:156] Memory required for data: 94016
I0924 03:02:12.266500 12493 layer_factory.hpp:77] Creating layer h_pseudoloss
I0924 03:02:12.266496 12517 net.cpp:141] Setting up lstm1_transform_1
I0924 03:02:12.266520 12517 net.cpp:148] Top shape: 1 1 4000 (4000)
I0924 03:02:12.266546 12517 net.cpp:156] Memory required for data: 62016
I0924 03:02:12.266521 12493 net.cpp:91] Creating Layer h_pseudoloss
I0924 03:02:12.266566 12517 layer_factory.hpp:77] Creating layer lstm1_gate_input_1
I0924 03:02:12.266564 12493 net.cpp:425] h_pseudoloss <- h
I0924 03:02:12.266615 12517 net.cpp:91] Creating Layer lstm1_gate_input_1
I0924 03:02:12.266619 12493 net.cpp:399] h_pseudoloss -> h_pseudoloss
I0924 03:02:12.266628 12517 net.cpp:425] lstm1_gate_input_1 <- W_hc_h_0
I0924 03:02:12.266638 12517 net.cpp:425] lstm1_gate_input_1 <- W_xc_x_1
I0924 03:02:12.266654 12517 net.cpp:399] lstm1_gate_input_1 -> gate_input_1
I0924 03:02:12.266795 12511 net.cpp:141] Setting up lstm2_x_transform
I0924 03:02:12.266814 12511 net.cpp:148] Top shape: 1 1 4000 (4000)
I0924 03:02:12.266821 12511 net.cpp:156] Memory required for data: 30020
I0924 03:02:12.266839 12511 layer_factory.hpp:77] Creating layer lstm2_W_xc_x_slice
I0924 03:02:12.266854 12511 net.cpp:91] Creating Layer lstm2_W_xc_x_slice
I0924 03:02:12.266862 12511 net.cpp:425] lstm2_W_xc_x_slice <- W_xc_x
I0924 03:02:12.266875 12511 net.cpp:399] lstm2_W_xc_x_slice -> W_xc_x_1
I0924 03:02:12.266938 12511 net.cpp:141] Setting up lstm2_W_xc_x_slice
I0924 03:02:12.266953 12511 net.cpp:148] Top shape: 1 1 4000 (4000)
I0924 03:02:12.266959 12511 net.cpp:156] Memory required for data: 46020
I0924 03:02:12.266968 12511 layer_factory.hpp:77] Creating layer lstm2_h_conted_0
I0924 03:02:12.266981 12511 net.cpp:91] Creating Layer lstm2_h_conted_0
I0924 03:02:12.266989 12511 net.cpp:425] lstm2_h_conted_0 <- h_0
I0924 03:02:12.266999 12511 net.cpp:425] lstm2_h_conted_0 <- cont_1_lstm2_cont_slice_0_split_0
I0924 03:02:12.267011 12511 net.cpp:399] lstm2_h_conted_0 -> h_conted_0
I0924 03:02:12.267163 12511 net.cpp:141] Setting up lstm2_h_conted_0
I0924 03:02:12.267179 12511 net.cpp:148] Top shape: 1 1 1000 (1000)
I0924 03:02:12.267185 12511 net.cpp:156] Memory required for data: 50020
I0924 03:02:12.267194 12511 layer_factory.hpp:77] Creating layer lstm2_transform_1
I0924 03:02:12.267210 12511 net.cpp:91] Creating Layer lstm2_transform_1
I0924 03:02:12.267217 12511 net.cpp:425] lstm2_transform_1 <- h_conted_0
I0924 03:02:12.267233 12511 net.cpp:399] lstm2_transform_1 -> W_hc_h_0
I0924 03:02:12.279675 12517 net.cpp:141] Setting up lstm1_gate_input_1
I0924 03:02:12.279731 12517 net.cpp:148] Top shape: 1 1 4000 (4000)
I0924 03:02:12.279742 12517 net.cpp:156] Memory required for data: 78016
I0924 03:02:12.279755 12517 layer_factory.hpp:77] Creating layer lstm1_unit_1
I0924 03:02:12.279778 12517 net.cpp:91] Creating Layer lstm1_unit_1
I0924 03:02:12.279788 12517 net.cpp:425] lstm1_unit_1 <- c_0
I0924 03:02:12.279803 12517 net.cpp:425] lstm1_unit_1 <- gate_input_1
I0924 03:02:12.279806 12493 net.cpp:141] Setting up h_pseudoloss
…
I0924 03:02:12.279986 12493 net.cpp:219] cont_1_lstm1_cont_slice_0_split does not need backward computation.
I0924 03:02:12.279995 12493 net.cpp:219] lstm1_cont_slice does not need backward computation.
I0924 03:02:12.280005 12493 net.cpp:219] lstm1_ does not need backward computation.
I0924 03:02:12.280012 12493 net.cpp:219] lstm1_ does not need backward computation.
I0924 03:02:12.280019 12493 net.cpp:261] This network produces output c_T
I0924 03:02:12.280027 12493 net.cpp:261] This network produces output h_pseudoloss
I0924 03:02:12.280073 12517 net.cpp:141] Setting up lstm1_unit_1
I0924 03:02:12.280089 12517 net.cpp:148] Top shape: 1 1 1000 (1000)
I0924 03:02:12.280092 12493 net.cpp:274] Network initialization done.
I0924 03:02:12.280099 12517 net.cpp:148] Top shape: 1 1 1000 (1000)
I0924 03:02:12.280107 12517 net.cpp:156] Memory required for data: 86016
I0924 03:02:12.280114 12517 layer_factory.hpp:77] Creating layer lstm1_
I0924 03:02:12.280128 12517 net.cpp:91] Creating Layer lstm1_
I0924 03:02:12.280135 12517 net.cpp:425] lstm1_ <- c_1
I0924 03:02:12.280148 12517 net.cpp:399] lstm1_ -> c_T
I0924 03:02:12.280172 12493 recurrent_layer.cpp:150] Adding parameter 0: W_xc
I0924 03:02:12.280184 12493 recurrent_layer.cpp:150] Adding parameter 1: b_c
I0924 03:02:12.280194 12493 recurrent_layer.cpp:150] Adding parameter 2: W_hc
I0924 03:02:12.280200 12487 net.cpp:141] Setting up lstm1_transform_1
I0924 03:02:12.280230 12517 net.cpp:141] Setting up lstm1_
I0924 03:02:12.280246 12517 net.cpp:148] Top shape: 1 1 1000 (1000)
I0924 03:02:12.280253 12517 net.cpp:156] Memory required for data: 90016
I0924 03:02:12.280273 12517 layer_factory.hpp:77] Creating layer lstm1_h_concat
I0924 03:02:12.280289 12517 net.cpp:91] Creating Layer lstm1_h_concat
I0924 03:02:12.280299 12517 net.cpp:425] lstm1_h_concat <- h_1
I0924 03:02:12.280315 12517 net.cpp:399] lstm1_h_concat -> h
I0924 03:02:12.280380 12517 net.cpp:141] Setting up lstm1_h_concat
I0924 03:02:12.280395 12517 net.cpp:148] Top shape: 1 1 1000 (1000)
I0924 03:02:12.280252 12487 net.cpp:148] Top shape: 1 1 4000 (4000)
I0924 03:02:12.280401 12517 net.cpp:156] Memory required for data: 94016
I0924 03:02:12.280426 12487 net.cpp:156] Memory required for data: 62016
I0924 03:02:12.280431 12493 net.cpp:141] Setting up lstm1
I0924 03:02:12.280431 12517 layer_factory.hpp:77] Creating layer h_pseudoloss
I0924 03:02:12.280464 12493 net.cpp:148] Top shape: 1 1 1000 (1000)
I0924 03:02:12.280473 12517 net.cpp:91] Creating Layer h_pseudoloss
I0924 03:02:12.280474 12493 net.cpp:156] Memory required for data: 26408
I0924 03:02:12.280488 12517 net.cpp:425] h_pseudoloss <- h
I0924 03:02:12.280458 12487 layer_factory.hpp:77] Creating layer lstm1_gate_input_1
I0924 03:02:12.280503 12517 net.cpp:399] h_pseudoloss -> h_pseudoloss
I0924 03:02:12.280524 12493 layer_factory.hpp:77] Creating layer concat
…
I0924 03:02:12.280894 12517 net.cpp:219] lstm1_ does not need backward computation.
I0924 03:02:12.280900 12487 net.cpp:425] lstm1_unit_1 <- cont_1_lstm1_cont_slice_0_split_1
I0924 03:02:12.280902 12517 net.cpp:261] This network produces output c_T
I0924 03:02:12.280910 12487 net.cpp:399] lstm1_unit_1 -> c_1
I0924 03:02:12.280912 12517 net.cpp:261] This network produces output h_pseudoloss
I0924 03:02:12.280921 12487 net.cpp:399] lstm1_unit_1 -> h_1
I0924 03:02:12.280944 12517 net.cpp:274] Network initialization done.
I0924 03:02:12.281013 12487 net.cpp:141] Setting up lstm1_unit_1
I0924 03:02:12.281031 12487 net.cpp:148] Top shape: 1 1 1000 (1000)
I0924 03:02:12.281013 12517 recurrent_layer.cpp:150] Adding parameter 0: W_xc
I0924 03:02:12.281039 12487 net.cpp:148] Top shape: 1 1 1000 (1000)
I0924 03:02:12.281044 12517 recurrent_layer.cpp:150] Adding parameter 1: b_c
I0924 03:02:12.281044 12487 net.cpp:156] Memory required for data: 86016
I0924 03:02:12.281061 12487 layer_factory.hpp:77] Creating layer lstm1_
I0924 03:02:12.281060 12517 recurrent_layer.cpp:150] Adding parameter 2: W_hc
I0924 03:02:12.281080 12487 net.cpp:91] Creating Layer lstm1_
I0924 03:02:12.281097 12487 net.cpp:425] lstm1_ <- c_1
I0924 03:02:12.281110 12487 net.cpp:399] lstm1_ -> c_T
I0924 03:02:12.281219 12487 net.cpp:141] Setting up lstm1_
I0924 03:02:12.281230 12487 net.cpp:148] Top shape: 1 1 1000 (1000)
I0924 03:02:12.281234 12487 net.cpp:156] Memory required for data: 90016
I0924 03:02:12.281239 12487 layer_factory.hpp:77] Creating layer lstm1_h_concat
I0924 03:02:12.281250 12487 net.cpp:91] Creating Layer lstm1_h_concat
I0924 03:02:12.281255 12487 net.cpp:425] lstm1_h_concat <- h_1
I0924 03:02:12.281262 12487 net.cpp:399] lstm1_h_concat -> h
I0924 03:02:12.281261 12493 net.cpp:49] Initializing net from parameters: 
layer {
  name: "lstm2_"
  type: "Input"
  top: "x"
  top: "cont"
  input_param {
    shape {
      dim: 1
      dim: 1
      dim: 1501
    }
    shape {
      dim: 1
      dim: 1
    }
  }
}
layer {
  name: "lstm2_"
  type: "Input"
  top: "c_0"
  top: "h_0"
  input_param {
    shape {
      dim: 1
      dim: 1
      dim: 1000
    }
    shape {
      dim: 1
      dim: 1
      dim: 1000
    }
  }
}
layer {
  name: "lstm2_cont_slice"
  type: "Slice"
  bottom: "cont"
  top: "cont_1"
  slice_param {
    axis: 0
  }
}
layer {
  name: "lstm2_x_transform"
  type: "InnerProduct"
  bottom: "x"
  top: "W_xc_x"
  param {
    name: "W_xc"
  }
  param {
    name: "b_c"
  }
  propagate_down: true
  inner_product_param {
    num_output: 4000
    bias_term: true
    weight_filler {
      type: "uniform"
      min: -0.08
      max: 0.08
    }
    bias_filler {
      type: "constant"
      value: 0
    }
    axis: 2
  }
}
layer {
  name: "lstm2_W_xc_x_slice"
  type: "Slice"
  bottom: "W_xc_x"
  top: "W_xc_x_1"
  slice_param {
    axis: 0
  }
}
layer {
  name: "lstm2_h_conted_0"
  type: "Scale"
  bottom: "h_0"
  bottom: "cont_1"
  top: "h_conted_0"
  scale_param {
    axis: 0
  }
}
layer {
  name: "lstm2_transform_1"
  type: "InnerProduct"
  bottom: "h_conted_0"
  top: "W_hc_h_0"
  param {
    name: "W_hc"
  }
  inner_product_param {
    num_output: 4000
    bias_term: false
    weight_filler {
      type: "uniform"
      min: -0.08
      max: 0.08
    }
    axis: 2
  }
}
layer {
  name: "lstm2_gate_input_1"
  type: "Eltwise"
  bottom: "W_hc_h_0"
  bottom: "W_xc_x_1"
  top: "gate_input_1"
  eltwise_param {
    operation: SUM
  }
}
layer {
  name: "lstm2_unit_1"
  type: "LSTMUnit"
  bottom: "c_0"
  bottom: "gate_input_1"
  bottom: "cont_1"
  top: "c_1"
  top: "h_1"
}
layer {
  name: "lstm2_"
  type: "Split"
  bottom: "c_1"
  top: "c_T"
}
layer {
  name: "lstm2_h_concat"
  type: "Concat"
  bottom: "h_1"
  top: "h"
  concat_param {
    axis: 0
  }
}
layer {
  name: "h_pseudoloss"
  type: "Reduction"
  bottom: "h"
  top: "h_pseudoloss"
  loss_weight: 1
}
I0924 03:02:12.281280 12517 net.cpp:141] Setting up lstm1
I0924 03:02:12.281298 12517 net.cpp:148] Top shape: 1 1 1000 (1000)
I0924 03:02:12.281306 12517 net.cpp:156] Memory required for data: 26408
I0924 03:02:12.281328 12517 layer_factory.hpp:77] Creating layer concat
I0924 03:02:12.281337 12487 net.cpp:141] Setting up lstm1_h_concat
I0924 03:02:12.281342 12517 net.cpp:91] Creating Layer concat
I0924 03:02:12.281349 12487 net.cpp:148] Top shape: 1 1 1000 (1000)
I0924 03:02:12.281353 12517 net.cpp:425] concat <- lstm1
I0924 03:02:12.281357 12487 net.cpp:156] Memory required for data: 94016
I0924 03:02:12.281365 12517 net.cpp:425] concat <- embedded_input_sentence
I0924 03:02:12.281366 12487 layer_factory.hpp:77] Creating layer h_pseudoloss
I0924 03:02:12.281388 12517 net.cpp:425] concat <- reshaped_stage_indicator
I0924 03:02:12.281400 12517 net.cpp:399] concat -> lstm1_video_sequence
I0924 03:02:12.281407 12493 layer_factory.hpp:77] Creating layer lstm2_
I0924 03:02:12.281416 12487 net.cpp:91] Creating Layer h_pseudoloss
I0924 03:02:12.281425 12487 net.cpp:425] h_pseudoloss <- h
I0924 03:02:12.281430 12493 net.cpp:91] Creating Layer lstm2_
I0924 03:02:12.281435 12487 net.cpp:399] h_pseudoloss -> h_pseudoloss
I0924 03:02:12.281452 12493 net.cpp:399] lstm2_ -> x
I0924 03:02:12.281472 12493 net.cpp:399] lstm2_ -> cont
I0924 03:02:12.281483 12517 net.cpp:141] Setting up concat
I0924 03:02:12.281502 12517 net.cpp:148] Top shape: 1 1 1501 (1501)
I0924 03:02:12.281509 12517 net.cpp:156] Memory required for data: 32412
I0924 03:02:12.281518 12517 layer_factory.hpp:77] Creating layer lstm2
I0924 03:02:12.281561 12517 net.cpp:91] Creating Layer lstm2
I0924 03:02:12.281571 12517 net.cpp:425] lstm2 <- lstm1_video_sequence
I0924 03:02:12.281582 12517 net.cpp:425] lstm2 <- cont_sentence_input_1_split_1
I0924 03:02:12.281594 12517 net.cpp:399] lstm2 -> lstm2
…
I0924 03:02:12.281697 12487 net.cpp:217] lstm1_transform_1 needs backward computation.
I0924 03:02:12.281702 12487 net.cpp:219] lstm1_h_conted_0 does not need backward computation.
I0924 03:02:12.281708 12487 net.cpp:217] lstm1_W_xc_x_slice needs backward computation.
I0924 03:02:12.281713 12487 net.cpp:217] lstm1_x_transform needs backward computation.
I0924 03:02:12.281718 12493 net.cpp:141] Setting up lstm2_
I0924 03:02:12.281718 12487 net.cpp:219] cont_1_lstm1_cont_slice_0_split does not need backward computation.
I0924 03:02:12.281745 12487 net.cpp:219] lstm1_cont_slice does not need backward computation.
I0924 03:02:12.281744 12493 net.cpp:148] Top shape: 1 1 1501 (1501)
I0924 03:02:12.281760 12487 net.cpp:219] lstm1_ does not need backward computation.
I0924 03:02:12.281780 12493 net.cpp:148] Top shape: 1 1 (1)
I0924 03:02:12.281781 12487 net.cpp:219] lstm1_ does not need backward computation.
I0924 03:02:12.281791 12493 net.cpp:156] Memory required for data: 6008
I0924 03:02:12.281798 12487 net.cpp:261] This network produces output c_T
I0924 03:02:12.281802 12493 layer_factory.hpp:77] Creating layer lstm2_
I0924 03:02:12.281805 12487 net.cpp:261] This network produces output h_pseudoloss
I0924 03:02:12.281823 12493 net.cpp:91] Creating Layer lstm2_
I0924 03:02:12.281838 12493 net.cpp:399] lstm2_ -> c_0
I0924 03:02:12.281838 12487 net.cpp:274] Network initialization done.
I0924 03:02:12.281862 12493 net.cpp:399] lstm2_ -> h_0
I0924 03:02:12.281935 12517 net.cpp:49] Initializing net from parameters: 
layer {
  name: "lstm2_"
  type: "Input"
  top: "x"
  top: "cont"
  input_param {
    shape {
      dim: 1
      dim: 1
      dim: 1501
    }
    shape {
      dim: 1
      dim: 1
    }
  }
}
layer {
  name: "lstm2_"
  type: "Input"
  top: "c_0"
  top: "h_0"
  input_param {
    shape {
      dim: 1
      dim: 1
      dim: 1000
    }
    shape {
      dim: 1
      dim: 1
      dim: 1000
    }
  }
}
layer {
  name: "lstm2_cont_slice"
  type: "Slice"
  bottom: "cont"
  top: "cont_1"
  slice_param {
    axis: 0
  }
}
layer {
  name: "lstm2_x_transform"
  type: "InnerProduct"
  bottom: "x"
  top: "W_xc_x"
  param {
    name: "W_xc"
  }
  param {
    name: "b_c"
  }
  propagate_down: true
  inner_product_param {
    num_output: 4000
    bias_term: true
    weight_filler {
      type: "uniform"
      min: -0.08
      max: 0.08
    }
    bias_filler {
      type: "constant"
      value: 0
    }
    axis: 2
  }
}
layer {
  name: "lstm2_W_xc_x_slice"
  type: "Slice"
  bottom: "W_xc_x"
  top: "W_xc_x_1"
  slice_param {
    axis: 0
  }
}
layer {
  name: "lstm2_h_conted_0"
  type: "Scale"
  bottom: "h_0"
  bottom: "cont_1"
  top: "h_conted_0"
  scale_param {
    axis: 0
  }
}
layer {
  name: "lstm2_transform_1"
  type: "InnerProduct"
  bottom: "h_conted_0"
  top: "W_hc_h_0"
  param {
    name: "W_hc"
  }
  inner_product_param {
    num_output: 4000
    bias_term: false
    weight_filler {
      type: "uniform"
      min: -0.08
      max: 0.08
    }
    axis: 2
  }
}
layer {
  name: "lstm2_gate_input_1"
  type: "Eltwise"
  bottom: "W_hc_h_0"
  bottom: "W_xc_x_1"
  top: "gate_input_1"
  eltwise_param {
    operation: SUM
  }
}
layer {
  name: "lstm2_unit_1"
  type: "LSTMUnit"
  bottom: "c_0"
  bottom: "gate_input_1"
  bottom: "cont_1"
  top: "c_1"
  top: "h_1"
}
layer {
  name: "lstm2_"
  type: "Split"
  bottom: "c_1"
  top: "c_T"
}
layer {
  name: "lstm2_h_concat"
  type: "Concat"
  bottom: "h_1"
  top: "h"
  concat_param {
    axis: 0
  }
}
layer {
  name: "h_pseudoloss"
  type: "Reduction"
  bottom: "h"
  top: "h_pseudoloss"
  loss_weight: 1
}
I0924 03:02:12.281945 12487 recurrent_layer.cpp:150] Adding parameter 0: W_xc
I0924 03:02:12.281960 12487 recurrent_layer.cpp:150] Adding parameter 1: b_c
I0924 03:02:12.281965 12493 net.cpp:141] Setting up lstm2_
I0924 03:02:12.281967 12487 recurrent_layer.cpp:150] Adding parameter 2: W_hc
I0924 03:02:12.281985 12493 net.cpp:148] Top shape: 1 1 1000 (1000)
I0924 03:02:12.281996 12493 net.cpp:148] Top shape: 1 1 1000 (1000)
I0924 03:02:12.282003 12493 net.cpp:156] Memory required for data: 14008
I0924 03:02:12.282011 12493 layer_factory.hpp:77] Creating layer lstm2_cont_slice
I0924 03:02:12.282026 12493 net.cpp:91] Creating Layer lstm2_cont_slice
I0924 03:02:12.282033 12493 net.cpp:425] lstm2_cont_slice <- cont
I0924 03:02:12.282044 12493 net.cpp:399] lstm2_cont_slice -> cont_1
I0924 03:02:12.282061 12517 layer_factory.hpp:77] Creating layer lstm2_
I0924 03:02:12.282076 12517 net.cpp:91] Creating Layer lstm2_
I0924 03:02:12.282088 12517 net.cpp:399] lstm2_ -> x
I0924 03:02:12.282104 12517 net.cpp:399] lstm2_ -> cont
I0924 03:02:12.282133 12493 net.cpp:141] Setting up lstm2_cont_slice
I0924 03:02:12.282148 12493 net.cpp:148] Top shape: 1 1 (1)
I0924 03:02:12.282155 12493 net.cpp:156] Memory required for data: 14012
I0924 03:02:12.282163 12493 layer_factory.hpp:77] Creating layer cont_1_lstm2_cont_slice_0_split
I0924 03:02:12.282174 12493 net.cpp:91] Creating Layer cont_1_lstm2_cont_slice_0_split
I0924 03:02:12.282186 12493 net.cpp:425] cont_1_lstm2_cont_slice_0_split <- cont_1
I0924 03:02:12.282196 12493 net.cpp:399] cont_1_lstm2_cont_slice_0_split -> cont_1_lstm2_cont_slice_0_split_0
I0924 03:02:12.282202 12517 net.cpp:141] Setting up lstm2_
I0924 03:02:12.282209 12493 net.cpp:399] cont_1_lstm2_cont_slice_0_split -> cont_1_lstm2_cont_slice_0_split_1
I0924 03:02:12.282217 12517 net.cpp:148] Top shape: 1 1 1501 (1501)
I0924 03:02:12.282227 12517 net.cpp:148] Top shape: 1 1 (1)
I0924 03:02:12.282234 12517 net.cpp:156] Memory required for data: 6008
I0924 03:02:12.282243 12517 layer_factory.hpp:77] Creating layer lstm2_
I0924 03:02:12.282258 12517 net.cpp:91] Creating Layer lstm2_
I0924 03:02:12.282274 12517 net.cpp:399] lstm2_ -> c_0
I0924 03:02:12.282289 12517 net.cpp:399] lstm2_ -> h_0
I0924 03:02:12.282277 12487 net.cpp:141] Setting up lstm1
I0924 03:02:12.282318 12487 net.cpp:148] Top shape: 1 1 1000 (1000)
I0924 03:02:12.282327 12487 net.cpp:156] Memory required for data: 26408
I0924 03:02:12.282397 12487 layer_factory.hpp:77] Creating layer concat
I0924 03:02:12.282431 12493 net.cpp:141] Setting up cont_1_lstm2_cont_slice_0_split
I0924 03:02:12.282433 12487 net.cpp:91] Creating Layer concat
I0924 03:02:12.282451 12493 net.cpp:148] Top shape: 1 1 (1)
I0924 03:02:12.282466 12493 net.cpp:148] Top shape: 1 1 (1)
I0924 03:02:12.282464 12487 net.cpp:425] concat <- lstm1
I0924 03:02:12.282464 12517 net.cpp:141] Setting up lstm2_
I0924 03:02:12.282495 12487 net.cpp:425] concat <- embedded_input_sentence
I0924 03:02:12.282480 12493 net.cpp:156] Memory required for data: 14020
I0924 03:02:12.282506 12487 net.cpp:425] concat <- reshaped_stage_indicator
I0924 03:02:12.282510 12517 net.cpp:148] Top shape: 1 1 1000 (1000)
I0924 03:02:12.282521 12487 net.cpp:399] concat -> lstm1_video_sequence
I0924 03:02:12.282527 12517 net.cpp:148] Top shape: 1 1 1000 (1000)
I0924 03:02:12.282512 12493 layer_factory.hpp:77] Creating layer lstm2_x_transform
I0924 03:02:12.282536 12517 net.cpp:156] Memory required for data: 14008
I0924 03:02:12.282544 12517 layer_factory.hpp:77] Creating layer lstm2_cont_slice
I0924 03:02:12.282552 12493 net.cpp:91] Creating Layer lstm2_x_transform
I0924 03:02:12.282562 12517 net.cpp:91] Creating Layer lstm2_cont_slice
I0924 03:02:12.282562 12493 net.cpp:425] lstm2_x_transform <- x
I0924 03:02:12.282575 12517 net.cpp:425] lstm2_cont_slice <- cont
I0924 03:02:12.282588 12517 net.cpp:399] lstm2_cont_slice -> cont_1
I0924 03:02:12.282589 12493 net.cpp:399] lstm2_x_transform -> W_xc_x
I0924 03:02:12.282618 12487 net.cpp:141] Setting up concat
I0924 03:02:12.282635 12487 net.cpp:148] Top shape: 1 1 1501 (1501)
I0924 03:02:12.282644 12487 net.cpp:156] Memory required for data: 32412
I0924 03:02:12.282654 12487 layer_factory.hpp:77] Creating layer lstm2
I0924 03:02:12.282683 12517 net.cpp:141] Setting up lstm2_cont_slice
I0924 03:02:12.282691 12487 net.cpp:91] Creating Layer lstm2
I0924 03:02:12.282699 12517 net.cpp:148] Top shape: 1 1 (1)
I0924 03:02:12.282703 12487 net.cpp:425] lstm2 <- lstm1_video_sequence
I0924 03:02:12.282707 12517 net.cpp:156] Memory required for data: 14012
I0924 03:02:12.282716 12487 net.cpp:425] lstm2 <- cont_sentence_input_1_split_1
I0924 03:02:12.282716 12517 layer_factory.hpp:77] Creating layer cont_1_lstm2_cont_slice_0_split
I0924 03:02:12.282737 12487 net.cpp:399] lstm2 -> lstm2
I0924 03:02:12.282743 12517 net.cpp:91] Creating Layer cont_1_lstm2_cont_slice_0_split
I0924 03:02:12.282752 12517 net.cpp:425] cont_1_lstm2_cont_slice_0_split <- cont_1
I0924 03:02:12.282757 12487 recurrent_layer.cpp:20] Initializing recurrent layer: assuming input batch contains 1 timesteps of 1 independent streams.
I0924 03:02:12.282768 12517 net.cpp:399] cont_1_lstm2_cont_slice_0_split -> cont_1_lstm2_cont_slice_0_split_0
I0924 03:02:12.282783 12517 net.cpp:399] cont_1_lstm2_cont_slice_0_split -> cont_1_lstm2_cont_slice_0_split_1
I0924 03:02:12.283165 12487 net.cpp:49] Initializing net from parameters: 
layer {
  name: "lstm2_"
  type: "Input"
  top: "x"
  top: "cont"
  input_param {
    shape {
      dim: 1
      dim: 1
      dim: 1501
    }
    shape {
      dim: 1
      dim: 1
    }
  }
}
layer {
  name: "lstm2_"
  type: "Input"
  top: "c_0"
  top: "h_0"
  input_param {
    shape {
      dim: 1
      dim: 1
      dim: 1000
    }
    shape {
      dim: 1
      dim: 1
      dim: 1000
    }
  }
}
layer {
  name: "lstm2_cont_slice"
  type: "Slice"
  bottom: "cont"
  top: "cont_1"
  slice_param {
    axis: 0
  }
}
layer {
  name: "lstm2_x_transform"
  type: "InnerProduct"
  bottom: "x"
  top: "W_xc_x"
  param {
    name: "W_xc"
  }
  param {
    name: "b_c"
  }
  propagate_down: true
  inner_product_param {
    num_output: 4000
    bias_term: true
    weight_filler {
      type: "uniform"
      min: -0.08
      max: 0.08
    }
    bias_filler {
      type: "constant"
      value: 0
    }
    axis: 2
  }
}
layer {
  name: "lstm2_W_xc_x_slice"
  type: "Slice"
  bottom: "W_xc_x"
  top: "W_xc_x_1"
  slice_param {
    axis: 0
  }
}
layer {
  name: "lstm2_h_conted_0"
  type: "Scale"
  bottom: "h_0"
  bottom: "cont_1"
  top: "h_conted_0"
  scale_param {
    axis: 0
  }
}
layer {
  name: "lstm2_transform_1"
  type: "InnerProduct"
  bottom: "h_conted_0"
  top: "W_hc_h_0"
  param {
    name: "W_hc"
  }
  inner_product_param {
    num_output: 4000
    bias_term: false
    weight_filler {
      type: "uniform"
      min: -0.08
      max: 0.08
    }
    axis: 2
  }
}
layer {
  name: "lstm2_gate_input_1"
  type: "Eltwise"
  bottom: "W_hc_h_0"
  bottom: "W_xc_x_1"
  top: "gate_input_1"
  eltwise_param {
    operation: SUM
  }
}
layer {
  name: "lstm2_unit_1"
  type: "LSTMUnit"
  bottom: "c_0"
  bottom: "gate_input_1"
  bottom: "cont_1"
  top: "c_1"
  top: "h_1"
}
layer {
  name: "lstm2_"
  type: "Split"
  bottom: "c_1"
  top: "c_T"
}
layer {
  name: "lstm2_h_concat"
  type: "Concat"
  bottom: "h_1"
  top: "h"
  concat_param {
    axis: 0
  }
}
layer {
  name: "h_pseudoloss"
  type: "Reduction"
  bottom: "h"
  top: "h_pseudoloss"
  loss_weight: 1
}
I0924 03:02:12.283310 12487 layer_factory.hpp:77] Creating layer lstm2_
I0924 03:02:12.283330 12487 net.cpp:91] Creating Layer lstm2_
I0924 03:02:12.283342 12487 net.cpp:399] lstm2_ -> x
I0924 03:02:12.283360 12487 net.cpp:399] lstm2_ -> cont
I0924 03:02:12.301470 12517 net.cpp:141] Setting up cont_1_lstm2_cont_slice_0_split
I0924 03:02:12.301517 12517 net.cpp:148] Top shape: 1 1 (1)
I0924 03:02:12.301528 12517 net.cpp:148] Top shape: 1 1 (1)
I0924 03:02:12.301535 12517 net.cpp:156] Memory required for data: 14020
I0924 03:02:12.301548 12517 layer_factory.hpp:77] Creating layer lstm2_x_transform
I0924 03:02:12.301535 12487 net.cpp:141] Setting up lstm2_
I0924 03:02:12.301581 12487 net.cpp:148] Top shape: 1 1 1501 (1501)
I0924 03:02:12.301596 12487 net.cpp:148] Top shape: 1 1 (1)
I0924 03:02:12.301602 12487 net.cpp:156] Memory required for data: 6008
I0924 03:02:12.301612 12487 layer_factory.hpp:77] Creating layer lstm2_
I0924 03:02:12.301642 12487 net.cpp:91] Creating Layer lstm2_
I0924 03:02:12.301641 12517 net.cpp:91] Creating Layer lstm2_x_transform
I0924 03:02:12.301671 12487 net.cpp:399] lstm2_ -> c_0
I0924 03:02:12.301676 12517 net.cpp:425] lstm2_x_transform <- x
I0924 03:02:12.301697 12517 net.cpp:399] lstm2_x_transform -> W_xc_x
I0924 03:02:12.301702 12487 net.cpp:399] lstm2_ -> h_0
I0924 03:02:12.316298 12487 net.cpp:141] Setting up lstm2_
I0924 03:02:12.316356 12487 net.cpp:148] Top shape: 1 1 1000 (1000)
I0924 03:02:12.316368 12487 net.cpp:148] Top shape: 1 1 1000 (1000)
I0924 03:02:12.316375 12487 net.cpp:156] Memory required for data: 14008
I0924 03:02:12.316386 12487 layer_factory.hpp:77] Creating layer lstm2_cont_slice
I0924 03:02:12.316411 12487 net.cpp:91] Creating Layer lstm2_cont_slice
I0924 03:02:12.316421 12487 net.cpp:425] lstm2_cont_slice <- cont
I0924 03:02:12.316437 12487 net.cpp:399] lstm2_cont_slice -> cont_1
I0924 03:02:12.316593 12487 net.cpp:141] Setting up lstm2_cont_slice
I0924 03:02:12.316609 12487 net.cpp:148] Top shape: 1 1 (1)
I0924 03:02:12.316617 12487 net.cpp:156] Memory required for data: 14012
I0924 03:02:12.316623 12487 layer_factory.hpp:77] Creating layer cont_1_lstm2_cont_slice_0_split
I0924 03:02:12.316637 12487 net.cpp:91] Creating Layer cont_1_lstm2_cont_slice_0_split
I0924 03:02:12.316639 12511 net.cpp:141] Setting up lstm2_transform_1
I0924 03:02:12.316644 12487 net.cpp:425] cont_1_lstm2_cont_slice_0_split <- cont_1
I0924 03:02:12.316669 12511 net.cpp:148] Top shape: 1 1 4000 (4000)
I0924 03:02:12.316675 12511 net.cpp:156] Memory required for data: 66020
I0924 03:02:12.316680 12487 net.cpp:399] cont_1_lstm2_cont_slice_0_split -> cont_1_lstm2_cont_slice_0_split_0
I0924 03:02:12.316689 12511 layer_factory.hpp:77] Creating layer lstm2_gate_input_1
I0924 03:02:12.316695 12487 net.cpp:399] cont_1_lstm2_cont_slice_0_split -> cont_1_lstm2_cont_slice_0_split_1
I0924 03:02:12.316704 12511 net.cpp:91] Creating Layer lstm2_gate_input_1
I0924 03:02:12.316711 12511 net.cpp:425] lstm2_gate_input_1 <- W_hc_h_0
I0924 03:02:12.316722 12511 net.cpp:425] lstm2_gate_input_1 <- W_xc_x_1
I0924 03:02:12.316730 12511 net.cpp:399] lstm2_gate_input_1 -> gate_input_1
I0924 03:02:12.316808 12511 net.cpp:141] Setting up lstm2_gate_input_1
I0924 03:02:12.316820 12511 net.cpp:148] Top shape: 1 1 4000 (4000)
I0924 03:02:12.316825 12511 net.cpp:156] Memory required for data: 82020
I0924 03:02:12.316830 12511 layer_factory.hpp:77] Creating layer lstm2_unit_1
I0924 03:02:12.316839 12511 net.cpp:91] Creating Layer lstm2_unit_1
I0924 03:02:12.316844 12511 net.cpp:425] lstm2_unit_1 <- c_0
I0924 03:02:12.316851 12511 net.cpp:425] lstm2_unit_1 <- gate_input_1
I0924 03:02:12.316853 12487 net.cpp:141] Setting up cont_1_lstm2_cont_slice_0_split
I0924 03:02:12.316857 12511 net.cpp:425] lstm2_unit_1 <- cont_1_lstm2_cont_slice_0_split_1
I0924 03:02:12.316879 12487 net.cpp:148] Top shape: 1 1 (1)
I0924 03:02:12.316884 12511 net.cpp:399] lstm2_unit_1 -> c_1
I0924 03:02:12.316891 12487 net.cpp:148] Top shape: 1 1 (1)
I0924 03:02:12.316896 12511 net.cpp:399] lstm2_unit_1 -> h_1
I0924 03:02:12.316900 12487 net.cpp:156] Memory required for data: 14020
I0924 03:02:12.316910 12487 layer_factory.hpp:77] Creating layer lstm2_x_transform
I0924 03:02:12.316931 12487 net.cpp:91] Creating Layer lstm2_x_transform
I0924 03:02:12.316939 12487 net.cpp:425] lstm2_x_transform <- x
I0924 03:02:12.316956 12487 net.cpp:399] lstm2_x_transform -> W_xc_x
I0924 03:02:12.316997 12511 net.cpp:141] Setting up lstm2_unit_1
I0924 03:02:12.317008 12511 net.cpp:148] Top shape: 1 1 1000 (1000)
I0924 03:02:12.317016 12511 net.cpp:148] Top shape: 1 1 1000 (1000)
I0924 03:02:12.317020 12511 net.cpp:156] Memory required for data: 90020
I0924 03:02:12.317025 12511 layer_factory.hpp:77] Creating layer lstm2_
I0924 03:02:12.317034 12511 net.cpp:91] Creating Layer lstm2_
I0924 03:02:12.317039 12511 net.cpp:425] lstm2_ <- c_1
I0924 03:02:12.317047 12511 net.cpp:399] lstm2_ -> c_T
I0924 03:02:12.336640 12511 net.cpp:141] Setting up lstm2_
I0924 03:02:12.336695 12511 net.cpp:148] Top shape: 1 1 1000 (1000)
I0924 03:02:12.336705 12511 net.cpp:156] Memory required for data: 94020
I0924 03:02:12.336717 12511 layer_factory.hpp:77] Creating layer lstm2_h_concat
I0924 03:02:12.336740 12511 net.cpp:91] Creating Layer lstm2_h_concat
I0924 03:02:12.336750 12511 net.cpp:425] lstm2_h_concat <- h_1
I0924 03:02:12.336771 12511 net.cpp:399] lstm2_h_concat -> h
I0924 03:02:12.336902 12511 net.cpp:141] Setting up lstm2_h_concat
I0924 03:02:12.336918 12511 net.cpp:148] Top shape: 1 1 1000 (1000)
I0924 03:02:12.336926 12511 net.cpp:156] Memory required for data: 98020
I0924 03:02:12.336935 12511 layer_factory.hpp:77] Creating layer h_pseudoloss
I0924 03:02:12.337584 12511 net.cpp:91] Creating Layer h_pseudoloss
I0924 03:02:12.337602 12511 net.cpp:425] h_pseudoloss <- h
I0924 03:02:12.337599 12483 net.cpp:141] Setting up lstm2_x_transform
I0924 03:02:12.337617 12511 net.cpp:399] h_pseudoloss -> h_pseudoloss
I0924 03:02:12.337654 12483 net.cpp:148] Top shape: 1 1 4000 (4000)
I0924 03:02:12.337663 12483 net.cpp:156] Memory required for data: 30020
I0924 03:02:12.337689 12483 layer_factory.hpp:77] Creating layer lstm2_W_xc_x_slice
I0924 03:02:12.337709 12483 net.cpp:91] Creating Layer lstm2_W_xc_x_slice
I0924 03:02:12.337719 12483 net.cpp:425] lstm2_W_xc_x_slice <- W_xc_x
I0924 03:02:12.337733 12483 net.cpp:399] lstm2_W_xc_x_slice -> W_xc_x_1
I0924 03:02:12.337839 12511 net.cpp:141] Setting up h_pseudoloss
I0924 03:02:12.337857 12511 net.cpp:148] Top shape: (1)
I0924 03:02:12.337864 12511 net.cpp:151]     with loss weight 1
I0924 03:02:12.337891 12511 net.cpp:156] Memory required for data: 98024
I0924 03:02:12.337900 12511 net.cpp:217] h_pseudoloss needs backward computation.
I0924 03:02:12.337903 12483 net.cpp:141] Setting up lstm2_W_xc_x_slice
I0924 03:02:12.337908 12511 net.cpp:217] lstm2_h_concat needs backward computation.
I0924 03:02:12.337918 12511 net.cpp:219] lstm2_ does not need backward computation.
I0924 03:02:12.337920 12483 net.cpp:148] Top shape: 1 1 4000 (4000)
I0924 03:02:12.337926 12511 net.cpp:217] lstm2_unit_1 needs backward computation.
I0924 03:02:12.337929 12483 net.cpp:156] Memory required for data: 46020
I0924 03:02:12.337939 12511 net.cpp:217] lstm2_gate_input_1 needs backward computation.
I0924 03:02:12.337939 12483 layer_factory.hpp:77] Creating layer lstm2_h_conted_0
I0924 03:02:12.337954 12511 net.cpp:217] lstm2_transform_1 needs backward computation.
…
I0924 03:02:12.338004 12511 net.cpp:219] lstm2_cont_slice does not need backward computation.
I0924 03:02:12.338006 12483 net.cpp:399] lstm2_h_conted_0 -> h_conted_0
I0924 03:02:12.338019 12511 net.cpp:219] lstm2_ does not need backward computation.
I0924 03:02:12.338052 12511 net.cpp:219] lstm2_ does not need backward computation.
I0924 03:02:12.338058 12511 net.cpp:261] This network produces output c_T
I0924 03:02:12.338068 12511 net.cpp:261] This network produces output h_pseudoloss
I0924 03:02:12.339272 12483 net.cpp:141] Setting up lstm2_h_conted_0
I0924 03:02:12.339274 12511 net.cpp:274] Network initialization done.
I0924 03:02:12.339294 12483 net.cpp:148] Top shape: 1 1 1000 (1000)
I0924 03:02:12.339316 12483 net.cpp:156] Memory required for data: 50020
I0924 03:02:12.339324 12483 layer_factory.hpp:77] Creating layer lstm2_transform_1
I0924 03:02:12.339344 12483 net.cpp:91] Creating Layer lstm2_transform_1
I0924 03:02:12.339351 12483 net.cpp:425] lstm2_transform_1 <- h_conted_0
I0924 03:02:12.339365 12483 net.cpp:399] lstm2_transform_1 -> W_hc_h_0
I0924 03:02:12.339385 12511 recurrent_layer.cpp:150] Adding parameter 0: W_xc
I0924 03:02:12.339397 12511 recurrent_layer.cpp:150] Adding parameter 1: b_c
I0924 03:02:12.339406 12511 recurrent_layer.cpp:150] Adding parameter 2: W_hc
I0924 03:02:12.348752 12511 net.cpp:141] Setting up lstm2
I0924 03:02:12.348810 12511 net.cpp:148] Top shape: 1 1 1000 (1000)
I0924 03:02:12.348824 12511 net.cpp:156] Memory required for data: 36412
I0924 03:02:12.348855 12511 layer_factory.hpp:77] Creating layer predict
I0924 03:02:12.348886 12511 net.cpp:91] Creating Layer predict
I0924 03:02:12.348898 12511 net.cpp:425] predict <- lstm2
I0924 03:02:12.348915 12511 net.cpp:399] predict -> predict
I0924 03:02:12.431922 12483 net.cpp:141] Setting up lstm2_transform_1
I0924 03:02:12.432004 12483 net.cpp:148] Top shape: 1 1 4000 (4000)
I0924 03:02:12.432018 12483 net.cpp:156] Memory required for data: 66020
I0924 03:02:12.432051 12483 layer_factory.hpp:77] Creating layer lstm2_gate_input_1
I0924 03:02:12.432091 12483 net.cpp:91] Creating Layer lstm2_gate_input_1
I0924 03:02:12.432077 12487 net.cpp:141] Setting up lstm2_x_transform
I0924 03:02:12.432147 12487 net.cpp:148] Top shape: 1 1 4000 (4000)
I0924 03:02:12.432154 12487 net.cpp:156] Memory required for data: 30020
I0924 03:02:12.432176 12487 layer_factory.hpp:77] Creating layer lstm2_W_xc_x_slice
I0924 03:02:12.432193 12487 net.cpp:91] Creating Layer lstm2_W_xc_x_slice
I0924 03:02:12.432200 12487 net.cpp:425] lstm2_W_xc_x_slice <- W_xc_x
I0924 03:02:12.432211 12487 net.cpp:399] lstm2_W_xc_x_slice -> W_xc_x_1
I0924 03:02:12.432215 12485 net.cpp:141] Setting up lstm2_x_transform
I0924 03:02:12.432236 12485 net.cpp:148] Top shape: 1 1 4000 (4000)
I0924 03:02:12.432245 12485 net.cpp:156] Memory required for data: 30020
I0924 03:02:12.432265 12485 layer_factory.hpp:77] Creating layer lstm2_W_xc_x_slice
I0924 03:02:12.432283 12485 net.cpp:91] Creating Layer lstm2_W_xc_x_slice
I0924 03:02:12.432296 12485 net.cpp:425] lstm2_W_xc_x_slice <- W_xc_x
I0924 03:02:12.432312 12485 net.cpp:399] lstm2_W_xc_x_slice -> W_xc_x_1
I0924 03:02:12.432117 12483 net.cpp:425] lstm2_gate_input_1 <- W_hc_h_0
I0924 03:02:12.432358 12483 net.cpp:425] lstm2_gate_input_1 <- W_xc_x_1
I0924 03:02:12.432379 12487 net.cpp:141] Setting up lstm2_W_xc_x_slice
I0924 03:02:12.432380 12483 net.cpp:399] lstm2_gate_input_1 -> gate_input_1
I0924 03:02:12.432410 12487 net.cpp:148] Top shape: 1 1 4000 (4000)
I0924 03:02:12.432437 12487 net.cpp:156] Memory required for data: 46020
I0924 03:02:12.432448 12487 layer_factory.hpp:77] Creating layer lstm2_h_conted_0
I0924 03:02:12.432466 12487 net.cpp:91] Creating Layer lstm2_h_conted_0
I0924 03:02:12.432476 12487 net.cpp:425] lstm2_h_conted_0 <- h_0
I0924 03:02:12.432487 12487 net.cpp:425] lstm2_h_conted_0 <- cont_1_lstm2_cont_slice_0_split_0
I0924 03:02:12.432494 12487 net.cpp:399] lstm2_h_conted_0 -> h_conted_0
I0924 03:02:12.432546 12485 net.cpp:141] Setting up lstm2_W_xc_x_slice
I0924 03:02:12.432565 12485 net.cpp:148] Top shape: 1 1 4000 (4000)
I0924 03:02:12.432574 12485 net.cpp:156] Memory required for data: 46020
I0924 03:02:12.432590 12485 layer_factory.hpp:77] Creating layer lstm2_h_conted_0
I0924 03:02:12.432605 12485 net.cpp:91] Creating Layer lstm2_h_conted_0
I0924 03:02:12.432615 12485 net.cpp:425] lstm2_h_conted_0 <- h_0
I0924 03:02:12.432624 12485 net.cpp:425] lstm2_h_conted_0 <- cont_1_lstm2_cont_slice_0_split_0
I0924 03:02:12.432636 12485 net.cpp:399] lstm2_h_conted_0 -> h_conted_0
I0924 03:02:12.432654 12517 net.cpp:141] Setting up lstm2_x_transform
I0924 03:02:12.432675 12517 net.cpp:148] Top shape: 1 1 4000 (4000)
I0924 03:02:12.432682 12517 net.cpp:156] Memory required for data: 30020
I0924 03:02:12.432694 12517 layer_factory.hpp:77] Creating layer lstm2_W_xc_x_slice
I0924 03:02:12.432708 12517 net.cpp:91] Creating Layer lstm2_W_xc_x_slice
I0924 03:02:12.432714 12517 net.cpp:425] lstm2_W_xc_x_slice <- W_xc_x
I0924 03:02:12.432723 12517 net.cpp:399] lstm2_W_xc_x_slice -> W_xc_x_1
I0924 03:02:12.432878 12485 net.cpp:141] Setting up lstm2_h_conted_0
I0924 03:02:12.432896 12485 net.cpp:148] Top shape: 1 1 1000 (1000)
I0924 03:02:12.432904 12485 net.cpp:156] Memory required for data: 50020
I0924 03:02:12.432912 12485 layer_factory.hpp:77] Creating layer lstm2_transform_1
I0924 03:02:12.432924 12517 net.cpp:141] Setting up lstm2_W_xc_x_slice
I0924 03:02:12.432932 12485 net.cpp:91] Creating Layer lstm2_transform_1
I0924 03:02:12.432936 12517 net.cpp:148] Top shape: 1 1 4000 (4000)
I0924 03:02:12.432952 12485 net.cpp:425] lstm2_transform_1 <- h_conted_0
I0924 03:02:12.432957 12517 net.cpp:156] Memory required for data: 46020
I0924 03:02:12.432963 12517 layer_factory.hpp:77] Creating layer lstm2_h_conted_0
I0924 03:02:12.432971 12485 net.cpp:399] lstm2_transform_1 -> W_hc_h_0
I0924 03:02:12.432976 12517 net.cpp:91] Creating Layer lstm2_h_conted_0
I0924 03:02:12.432972 12493 net.cpp:141] Setting up lstm2_x_transform
I0924 03:02:12.432994 12517 net.cpp:425] lstm2_h_conted_0 <- h_0
I0924 03:02:12.433014 12517 net.cpp:425] lstm2_h_conted_0 <- cont_1_lstm2_cont_slice_0_split_0
I0924 03:02:12.433017 12493 net.cpp:148] Top shape: 1 1 4000 (4000)
I0924 03:02:12.433024 12517 net.cpp:399] lstm2_h_conted_0 -> h_conted_0
I0924 03:02:12.433027 12493 net.cpp:156] Memory required for data: 30020
I0924 03:02:12.433043 12493 layer_factory.hpp:77] Creating layer lstm2_W_xc_x_slice
I0924 03:02:12.433054 12493 net.cpp:91] Creating Layer lstm2_W_xc_x_slice
I0924 03:02:12.433061 12493 net.cpp:425] lstm2_W_xc_x_slice <- W_xc_x
I0924 03:02:12.433071 12493 net.cpp:399] lstm2_W_xc_x_slice -> W_xc_x_1
I0924 03:02:12.433078 12483 net.cpp:141] Setting up lstm2_gate_input_1
I0924 03:02:12.433100 12483 net.cpp:148] Top shape: 1 1 4000 (4000)
I0924 03:02:12.433109 12483 net.cpp:156] Memory required for data: 82020
I0924 03:02:12.433117 12483 layer_factory.hpp:77] Creating layer lstm2_unit_1
I0924 03:02:12.433132 12483 net.cpp:91] Creating Layer lstm2_unit_1
I0924 03:02:12.433141 12483 net.cpp:425] lstm2_unit_1 <- c_0
I0924 03:02:12.433152 12483 net.cpp:425] lstm2_unit_1 <- gate_input_1
I0924 03:02:12.433163 12483 net.cpp:425] lstm2_unit_1 <- cont_1_lstm2_cont_slice_0_split_1
I0924 03:02:12.433176 12483 net.cpp:399] lstm2_unit_1 -> c_1
I0924 03:02:12.433193 12483 net.cpp:399] lstm2_unit_1 -> h_1
I0924 03:02:12.433218 12493 net.cpp:141] Setting up lstm2_W_xc_x_slice
I0924 03:02:12.433238 12493 net.cpp:148] Top shape: 1 1 4000 (4000)
I0924 03:02:12.433248 12493 net.cpp:156] Memory required for data: 46020
I0924 03:02:12.433257 12493 layer_factory.hpp:77] Creating layer lstm2_h_conted_0
I0924 03:02:12.433274 12493 net.cpp:91] Creating Layer lstm2_h_conted_0
I0924 03:02:12.433281 12493 net.cpp:425] lstm2_h_conted_0 <- h_0
I0924 03:02:12.433290 12493 net.cpp:425] lstm2_h_conted_0 <- cont_1_lstm2_cont_slice_0_split_0
I0924 03:02:12.433297 12493 net.cpp:399] lstm2_h_conted_0 -> h_conted_0
I0924 03:02:12.433352 12517 net.cpp:141] Setting up lstm2_h_conted_0
I0924 03:02:12.433364 12517 net.cpp:148] Top shape: 1 1 1000 (1000)
I0924 03:02:12.433368 12517 net.cpp:156] Memory required for data: 50020
I0924 03:02:12.433373 12517 layer_factory.hpp:77] Creating layer lstm2_transform_1
I0924 03:02:12.433390 12517 net.cpp:91] Creating Layer lstm2_transform_1
I0924 03:02:12.433395 12517 net.cpp:425] lstm2_transform_1 <- h_conted_0
I0924 03:02:12.433395 12487 net.cpp:141] Setting up lstm2_h_conted_0
I0924 03:02:12.433408 12517 net.cpp:399] lstm2_transform_1 -> W_hc_h_0
I0924 03:02:12.433413 12487 net.cpp:148] Top shape: 1 1 1000 (1000)
I0924 03:02:12.433416 12487 net.cpp:156] Memory required for data: 50020
I0924 03:02:12.433423 12487 layer_factory.hpp:77] Creating layer lstm2_transform_1
I0924 03:02:12.433436 12487 net.cpp:91] Creating Layer lstm2_transform_1
I0924 03:02:12.433444 12487 net.cpp:425] lstm2_transform_1 <- h_conted_0
I0924 03:02:12.433454 12487 net.cpp:399] lstm2_transform_1 -> W_hc_h_0
I0924 03:02:12.433547 12483 net.cpp:141] Setting up lstm2_unit_1
I0924 03:02:12.433568 12483 net.cpp:148] Top shape: 1 1 1000 (1000)
I0924 03:02:12.433579 12483 net.cpp:148] Top shape: 1 1 1000 (1000)
I0924 03:02:12.433588 12483 net.cpp:156] Memory required for data: 90020
I0924 03:02:12.433596 12483 layer_factory.hpp:77] Creating layer lstm2_
I0924 03:02:12.433614 12483 net.cpp:91] Creating Layer lstm2_
I0924 03:02:12.433624 12483 net.cpp:425] lstm2_ <- c_1
I0924 03:02:12.433637 12483 net.cpp:399] lstm2_ -> c_T
I0924 03:02:12.433697 12483 net.cpp:141] Setting up lstm2_
I0924 03:02:12.433713 12483 net.cpp:148] Top shape: 1 1 1000 (1000)
I0924 03:02:12.433722 12483 net.cpp:156] Memory required for data: 94020
I0924 03:02:12.433732 12483 layer_factory.hpp:77] Creating layer lstm2_h_concat
I0924 03:02:12.433753 12483 net.cpp:91] Creating Layer lstm2_h_concat
I0924 03:02:12.433761 12483 net.cpp:425] lstm2_h_concat <- h_1
I0924 03:02:12.433779 12483 net.cpp:399] lstm2_h_concat -> h
I0924 03:02:12.433843 12483 net.cpp:141] Setting up lstm2_h_concat
I0924 03:02:12.433861 12483 net.cpp:148] Top shape: 1 1 1000 (1000)
I0924 03:02:12.433871 12483 net.cpp:156] Memory required for data: 98020
I0924 03:02:12.433881 12483 layer_factory.hpp:77] Creating layer h_pseudoloss
I0924 03:02:12.433895 12483 net.cpp:91] Creating Layer h_pseudoloss
I0924 03:02:12.433905 12483 net.cpp:425] h_pseudoloss <- h
I0924 03:02:12.433922 12483 net.cpp:399] h_pseudoloss -> h_pseudoloss
I0924 03:02:12.434079 12483 net.cpp:141] Setting up h_pseudoloss
…
I0924 03:02:12.434260 12483 net.cpp:219] lstm2_ does not need backward computation.
I0924 03:02:12.434268 12483 net.cpp:261] This network produces output c_T
I0924 03:02:12.434278 12483 net.cpp:261] This network produces output h_pseudoloss
I0924 03:02:12.434306 12483 net.cpp:274] Network initialization done.
I0924 03:02:12.434392 12483 recurrent_layer.cpp:150] Adding parameter 0: W_xc
I0924 03:02:12.434409 12483 recurrent_layer.cpp:150] Adding parameter 1: b_c
I0924 03:02:12.434419 12483 recurrent_layer.cpp:150] Adding parameter 2: W_hc
I0924 03:02:12.436915 12483 net.cpp:141] Setting up lstm2
I0924 03:02:12.436983 12483 net.cpp:148] Top shape: 1 1 1000 (1000)
I0924 03:02:12.437000 12483 net.cpp:156] Memory required for data: 36412
I0924 03:02:12.437049 12483 layer_factory.hpp:77] Creating layer predict
I0924 03:02:12.437088 12483 net.cpp:91] Creating Layer predict
I0924 03:02:12.437114 12483 net.cpp:425] predict <- lstm2
I0924 03:02:12.437129 12483 net.cpp:399] predict -> predict
I0924 03:02:12.539046 12493 net.cpp:141] Setting up lstm2_h_conted_0
I0924 03:02:12.539104 12493 net.cpp:148] Top shape: 1 1 1000 (1000)
I0924 03:02:12.539114 12493 net.cpp:156] Memory required for data: 50020
I0924 03:02:12.539126 12493 layer_factory.hpp:77] Creating layer lstm2_transform_1
I0924 03:02:12.539152 12493 net.cpp:91] Creating Layer lstm2_transform_1
I0924 03:02:12.539165 12493 net.cpp:425] lstm2_transform_1 <- h_conted_0
I0924 03:02:12.539191 12493 net.cpp:399] lstm2_transform_1 -> W_hc_h_0
I0924 03:02:12.562878 12487 net.cpp:141] Setting up lstm2_transform_1
I0924 03:02:12.562932 12487 net.cpp:148] Top shape: 1 1 4000 (4000)
I0924 03:02:12.562943 12487 net.cpp:156] Memory required for data: 66020
I0924 03:02:12.562971 12487 layer_factory.hpp:77] Creating layer lstm2_gate_input_1
I0924 03:02:12.562999 12487 net.cpp:91] Creating Layer lstm2_gate_input_1
I0924 03:02:12.563010 12487 net.cpp:425] lstm2_gate_input_1 <- W_hc_h_0
I0924 03:02:12.563020 12487 net.cpp:425] lstm2_gate_input_1 <- W_xc_x_1
I0924 03:02:12.563038 12487 net.cpp:399] lstm2_gate_input_1 -> gate_input_1
I0924 03:02:12.563112 12487 net.cpp:141] Setting up lstm2_gate_input_1
I0924 03:02:12.563130 12487 net.cpp:148] Top shape: 1 1 4000 (4000)
I0924 03:02:12.563138 12487 net.cpp:156] Memory required for data: 82020
I0924 03:02:12.563148 12487 layer_factory.hpp:77] Creating layer lstm2_unit_1
I0924 03:02:12.563163 12487 net.cpp:91] Creating Layer lstm2_unit_1
I0924 03:02:12.563170 12487 net.cpp:425] lstm2_unit_1 <- c_0
I0924 03:02:12.563180 12487 net.cpp:425] lstm2_unit_1 <- gate_input_1
I0924 03:02:12.563189 12487 net.cpp:425] lstm2_unit_1 <- cont_1_lstm2_cont_slice_0_split_1
I0924 03:02:12.563200 12487 net.cpp:399] lstm2_unit_1 -> c_1
I0924 03:02:12.563215 12487 net.cpp:399] lstm2_unit_1 -> h_1
I0924 03:02:12.563334 12487 net.cpp:141] Setting up lstm2_unit_1
I0924 03:02:12.563354 12487 net.cpp:148] Top shape: 1 1 1000 (1000)
I0924 03:02:12.563364 12487 net.cpp:148] Top shape: 1 1 1000 (1000)
I0924 03:02:12.563372 12487 net.cpp:156] Memory required for data: 90020
I0924 03:02:12.563380 12487 layer_factory.hpp:77] Creating layer lstm2_
I0924 03:02:12.563395 12487 net.cpp:91] Creating Layer lstm2_
I0924 03:02:12.563403 12487 net.cpp:425] lstm2_ <- c_1
I0924 03:02:12.563416 12487 net.cpp:399] lstm2_ -> c_T
I0924 03:02:12.563468 12487 net.cpp:141] Setting up lstm2_
I0924 03:02:12.563482 12487 net.cpp:148] Top shape: 1 1 1000 (1000)
I0924 03:02:12.563490 12487 net.cpp:156] Memory required for data: 94020
I0924 03:02:12.563498 12487 layer_factory.hpp:77] Creating layer lstm2_h_concat
I0924 03:02:12.563518 12487 net.cpp:91] Creating Layer lstm2_h_concat
I0924 03:02:12.563525 12487 net.cpp:425] lstm2_h_concat <- h_1
I0924 03:02:12.563541 12487 net.cpp:399] lstm2_h_concat -> h
I0924 03:02:12.563606 12487 net.cpp:141] Setting up lstm2_h_concat
I0924 03:02:12.563622 12487 net.cpp:148] Top shape: 1 1 1000 (1000)
I0924 03:02:12.563629 12487 net.cpp:156] Memory required for data: 98020
I0924 03:02:12.563638 12487 layer_factory.hpp:77] Creating layer h_pseudoloss
I0924 03:02:12.563657 12487 net.cpp:91] Creating Layer h_pseudoloss
I0924 03:02:12.563666 12487 net.cpp:425] h_pseudoloss <- h
I0924 03:02:12.563678 12487 net.cpp:399] h_pseudoloss -> h_pseudoloss
I0924 03:02:12.563844 12487 net.cpp:141] Setting up h_pseudoloss
…
I0924 03:02:12.564046 12487 net.cpp:219] lstm2_ does not need backward computation.
I0924 03:02:12.564055 12487 net.cpp:261] This network produces output c_T
I0924 03:02:12.564065 12487 net.cpp:261] This network produces output h_pseudoloss
I0924 03:02:12.564093 12487 net.cpp:274] Network initialization done.
I0924 03:02:12.564174 12487 recurrent_layer.cpp:150] Adding parameter 0: W_xc
I0924 03:02:12.564187 12487 recurrent_layer.cpp:150] Adding parameter 1: b_c
I0924 03:02:12.564196 12487 recurrent_layer.cpp:150] Adding parameter 2: W_hc
I0924 03:02:12.564407 12487 net.cpp:141] Setting up lstm2
I0924 03:02:12.564429 12487 net.cpp:148] Top shape: 1 1 1000 (1000)
I0924 03:02:12.564440 12487 net.cpp:156] Memory required for data: 36412
I0924 03:02:12.564471 12487 layer_factory.hpp:77] Creating layer predict
I0924 03:02:12.564491 12487 net.cpp:91] Creating Layer predict
I0924 03:02:12.564503 12487 net.cpp:425] predict <- lstm2
I0924 03:02:12.564520 12487 net.cpp:399] predict -> predict
I0924 03:02:12.646080 12485 net.cpp:141] Setting up lstm2_transform_1
I0924 03:02:12.646143 12485 net.cpp:148] Top shape: 1 1 4000 (4000)
I0924 03:02:12.646150 12485 net.cpp:156] Memory required for data: 66020
I0924 03:02:12.646178 12485 layer_factory.hpp:77] Creating layer lstm2_gate_input_1
I0924 03:02:12.646188 12517 net.cpp:141] Setting up lstm2_transform_1
I0924 03:02:12.646209 12485 net.cpp:91] Creating Layer lstm2_gate_input_1
I0924 03:02:12.646250 12485 net.cpp:425] lstm2_gate_input_1 <- W_hc_h_0
I0924 03:02:12.646248 12493 net.cpp:141] Setting up lstm2_transform_1
I0924 03:02:12.646275 12485 net.cpp:425] lstm2_gate_input_1 <- W_xc_x_1
I0924 03:02:12.646248 12517 net.cpp:148] Top shape: 1 1 4000 (4000)
I0924 03:02:12.646286 12485 net.cpp:399] lstm2_gate_input_1 -> gate_input_1
I0924 03:02:12.646286 12493 net.cpp:148] Top shape: 1 1 4000 (4000)
I0924 03:02:12.646289 12517 net.cpp:156] Memory required for data: 66020
I0924 03:02:12.646293 12493 net.cpp:156] Memory required for data: 66020
I0924 03:02:12.646311 12493 layer_factory.hpp:77] Creating layer lstm2_gate_input_1
I0924 03:02:12.646311 12517 layer_factory.hpp:77] Creating layer lstm2_gate_input_1
I0924 03:02:12.646337 12493 net.cpp:91] Creating Layer lstm2_gate_input_1
I0924 03:02:12.646342 12517 net.cpp:91] Creating Layer lstm2_gate_input_1
I0924 03:02:12.646345 12493 net.cpp:425] lstm2_gate_input_1 <- W_hc_h_0
I0924 03:02:12.646348 12517 net.cpp:425] lstm2_gate_input_1 <- W_hc_h_0
I0924 03:02:12.646356 12517 net.cpp:425] lstm2_gate_input_1 <- W_xc_x_1
I0924 03:02:12.646356 12493 net.cpp:425] lstm2_gate_input_1 <- W_xc_x_1
I0924 03:02:12.646379 12517 net.cpp:399] lstm2_gate_input_1 -> gate_input_1
I0924 03:02:12.646384 12493 net.cpp:399] lstm2_gate_input_1 -> gate_input_1
I0924 03:02:12.646586 12485 net.cpp:141] Setting up lstm2_gate_input_1
I0924 03:02:12.646589 12517 net.cpp:141] Setting up lstm2_gate_input_1
I0924 03:02:12.646620 12493 net.cpp:141] Setting up lstm2_gate_input_1
I0924 03:02:12.646620 12485 net.cpp:148] Top shape: 1 1 4000 (4000)
I0924 03:02:12.646637 12493 net.cpp:148] Top shape: 1 1 4000 (4000)
I0924 03:02:12.646639 12517 net.cpp:148] Top shape: 1 1 4000 (4000)
I0924 03:02:12.646641 12485 net.cpp:156] Memory required for data: 82020
I0924 03:02:12.646644 12493 net.cpp:156] Memory required for data: 82020
I0924 03:02:12.646647 12517 net.cpp:156] Memory required for data: 82020
I0924 03:02:12.646649 12485 layer_factory.hpp:77] Creating layer lstm2_unit_1
I0924 03:02:12.646651 12493 layer_factory.hpp:77] Creating layer lstm2_unit_1
I0924 03:02:12.646653 12517 layer_factory.hpp:77] Creating layer lstm2_unit_1
…
I0924 03:02:12.646705 12493 net.cpp:425] lstm2_unit_1 <- c_0
I0924 03:02:12.646708 12485 net.cpp:399] lstm2_unit_1 -> c_1
I0924 03:02:12.646705 12517 net.cpp:399] lstm2_unit_1 -> h_1
I0924 03:02:12.646718 12485 net.cpp:399] lstm2_unit_1 -> h_1
I0924 03:02:12.646721 12493 net.cpp:425] lstm2_unit_1 <- gate_input_1
I0924 03:02:12.646728 12493 net.cpp:425] lstm2_unit_1 <- cont_1_lstm2_cont_slice_0_split_1
I0924 03:02:12.646744 12493 net.cpp:399] lstm2_unit_1 -> c_1
I0924 03:02:12.646754 12493 net.cpp:399] lstm2_unit_1 -> h_1
I0924 03:02:12.646812 12517 net.cpp:141] Setting up lstm2_unit_1
I0924 03:02:12.646823 12517 net.cpp:148] Top shape: 1 1 1000 (1000)
I0924 03:02:12.646829 12517 net.cpp:148] Top shape: 1 1 1000 (1000)
I0924 03:02:12.646834 12517 net.cpp:156] Memory required for data: 90020
I0924 03:02:12.646838 12517 layer_factory.hpp:77] Creating layer lstm2_
I0924 03:02:12.646849 12517 net.cpp:91] Creating Layer lstm2_
I0924 03:02:12.646854 12517 net.cpp:425] lstm2_ <- c_1
I0924 03:02:12.646862 12517 net.cpp:399] lstm2_ -> c_T
I0924 03:02:12.646910 12485 net.cpp:141] Setting up lstm2_unit_1
I0924 03:02:12.646922 12485 net.cpp:148] Top shape: 1 1 1000 (1000)
I0924 03:02:12.646929 12485 net.cpp:148] Top shape: 1 1 1000 (1000)
I0924 03:02:12.646934 12485 net.cpp:156] Memory required for data: 90020
I0924 03:02:12.646937 12485 layer_factory.hpp:77] Creating layer lstm2_
I0924 03:02:12.646951 12485 net.cpp:91] Creating Layer lstm2_
I0924 03:02:12.646956 12485 net.cpp:425] lstm2_ <- c_1
I0924 03:02:12.646960 12517 net.cpp:141] Setting up lstm2_
I0924 03:02:12.646965 12485 net.cpp:399] lstm2_ -> c_T
I0924 03:02:12.646977 12517 net.cpp:148] Top shape: 1 1 1000 (1000)
I0924 03:02:12.646982 12517 net.cpp:156] Memory required for data: 94020
I0924 03:02:12.646987 12517 layer_factory.hpp:77] Creating layer lstm2_h_concat
I0924 03:02:12.646997 12517 net.cpp:91] Creating Layer lstm2_h_concat
I0924 03:02:12.647002 12517 net.cpp:425] lstm2_h_concat <- h_1
I0924 03:02:12.647047 12493 net.cpp:141] Setting up lstm2_unit_1
I0924 03:02:12.647053 12517 net.cpp:399] lstm2_h_concat -> h
I0924 03:02:12.647058 12493 net.cpp:148] Top shape: 1 1 1000 (1000)
I0924 03:02:12.647064 12493 net.cpp:148] Top shape: 1 1 1000 (1000)
I0924 03:02:12.647069 12493 net.cpp:156] Memory required for data: 90020
I0924 03:02:12.647074 12493 layer_factory.hpp:77] Creating layer lstm2_
I0924 03:02:12.647083 12493 net.cpp:91] Creating Layer lstm2_
I0924 03:02:12.647088 12493 net.cpp:425] lstm2_ <- c_1
I0924 03:02:12.647094 12493 net.cpp:399] lstm2_ -> c_T
I0924 03:02:12.647096 12485 net.cpp:141] Setting up lstm2_
I0924 03:02:12.647109 12485 net.cpp:148] Top shape: 1 1 1000 (1000)
I0924 03:02:12.647112 12485 net.cpp:156] Memory required for data: 94020
I0924 03:02:12.647117 12485 layer_factory.hpp:77] Creating layer lstm2_h_concat
I0924 03:02:12.647127 12485 net.cpp:91] Creating Layer lstm2_h_concat
I0924 03:02:12.647132 12485 net.cpp:425] lstm2_h_concat <- h_1
I0924 03:02:12.647142 12485 net.cpp:399] lstm2_h_concat -> h
I0924 03:02:12.647150 12517 net.cpp:141] Setting up lstm2_h_concat
I0924 03:02:12.647161 12517 net.cpp:148] Top shape: 1 1 1000 (1000)
I0924 03:02:12.647166 12517 net.cpp:156] Memory required for data: 98020
I0924 03:02:12.647169 12517 layer_factory.hpp:77] Creating layer h_pseudoloss
I0924 03:02:12.647179 12517 net.cpp:91] Creating Layer h_pseudoloss
I0924 03:02:12.647184 12517 net.cpp:425] h_pseudoloss <- h
I0924 03:02:12.647186 12493 net.cpp:141] Setting up lstm2_
I0924 03:02:12.647192 12517 net.cpp:399] h_pseudoloss -> h_pseudoloss
I0924 03:02:12.647197 12493 net.cpp:148] Top shape: 1 1 1000 (1000)
I0924 03:02:12.647202 12493 net.cpp:156] Memory required for data: 94020
I0924 03:02:12.647207 12493 layer_factory.hpp:77] Creating layer lstm2_h_concat
I0924 03:02:12.647217 12493 net.cpp:91] Creating Layer lstm2_h_concat
I0924 03:02:12.647222 12493 net.cpp:425] lstm2_h_concat <- h_1
I0924 03:02:12.647230 12493 net.cpp:399] lstm2_h_concat -> h
I0924 03:02:12.647238 12485 net.cpp:141] Setting up lstm2_h_concat
I0924 03:02:12.647249 12485 net.cpp:148] Top shape: 1 1 1000 (1000)
I0924 03:02:12.647254 12485 net.cpp:156] Memory required for data: 98020
I0924 03:02:12.647258 12485 layer_factory.hpp:77] Creating layer h_pseudoloss
I0924 03:02:12.647269 12485 net.cpp:91] Creating Layer h_pseudoloss
I0924 03:02:12.647274 12485 net.cpp:425] h_pseudoloss <- h
I0924 03:02:12.647280 12485 net.cpp:399] h_pseudoloss -> h_pseudoloss
I0924 03:02:12.647330 12493 net.cpp:141] Setting up lstm2_h_concat
I0924 03:02:12.647341 12493 net.cpp:148] Top shape: 1 1 1000 (1000)
I0924 03:02:12.647344 12493 net.cpp:156] Memory required for data: 98020
I0924 03:02:12.647351 12493 layer_factory.hpp:77] Creating layer h_pseudoloss
I0924 03:02:12.647362 12493 net.cpp:91] Creating Layer h_pseudoloss
I0924 03:02:12.647367 12493 net.cpp:425] h_pseudoloss <- h
I0924 03:02:12.647374 12493 net.cpp:399] h_pseudoloss -> h_pseudoloss
I0924 03:02:12.647498 12485 net.cpp:141] Setting up h_pseudoloss
…
I0924 03:02:12.647848 12493 net.cpp:274] Network initialization done.
I0924 03:02:12.647847 12517 recurrent_layer.cpp:150] Adding parameter 0: W_xc
I0924 03:02:12.647861 12517 recurrent_layer.cpp:150] Adding parameter 1: b_c
I0924 03:02:12.647866 12517 recurrent_layer.cpp:150] Adding parameter 2: W_hc
I0924 03:02:12.647897 12493 recurrent_layer.cpp:150] Adding parameter 0: W_xc
I0924 03:02:12.647904 12493 recurrent_layer.cpp:150] Adding parameter 1: b_c
I0924 03:02:12.647908 12493 recurrent_layer.cpp:150] Adding parameter 2: W_hc
I0924 03:02:12.648103 12485 net.cpp:141] Setting up lstm2
I0924 03:02:12.648115 12485 net.cpp:148] Top shape: 1 1 1000 (1000)
I0924 03:02:12.648120 12485 net.cpp:156] Memory required for data: 36412
I0924 03:02:12.648135 12485 layer_factory.hpp:77] Creating layer predict
I0924 03:02:12.648151 12485 net.cpp:91] Creating Layer predict
I0924 03:02:12.648159 12485 net.cpp:425] predict <- lstm2
I0924 03:02:12.648156 12493 net.cpp:141] Setting up lstm2
I0924 03:02:12.648172 12485 net.cpp:399] predict -> predict
I0924 03:02:12.648185 12493 net.cpp:148] Top shape: 1 1 1000 (1000)
I0924 03:02:12.648190 12493 net.cpp:156] Memory required for data: 36412
I0924 03:02:12.648187 12517 net.cpp:141] Setting up lstm2
I0924 03:02:12.648207 12517 net.cpp:148] Top shape: 1 1 1000 (1000)
I0924 03:02:12.648211 12493 layer_factory.hpp:77] Creating layer predict
I0924 03:02:12.648212 12517 net.cpp:156] Memory required for data: 36412
I0924 03:02:12.648226 12493 net.cpp:91] Creating Layer predict
I0924 03:02:12.648227 12517 layer_factory.hpp:77] Creating layer predict
I0924 03:02:12.648231 12493 net.cpp:425] predict <- lstm2
I0924 03:02:12.648239 12517 net.cpp:91] Creating Layer predict
I0924 03:02:12.648239 12493 net.cpp:399] predict -> predict
I0924 03:02:12.648249 12517 net.cpp:425] predict <- lstm2
I0924 03:02:12.648257 12517 net.cpp:399] predict -> predict
I0924 03:02:12.920815 12511 net.cpp:141] Setting up predict
I0924 03:02:12.920869 12511 net.cpp:148] Top shape: 1 1 46168 (46168)
I0924 03:02:12.920879 12511 net.cpp:156] Memory required for data: 221084
I0924 03:02:12.920899 12511 layer_factory.hpp:77] Creating layer probs
I0924 03:02:12.920922 12511 net.cpp:91] Creating Layer probs
I0924 03:02:12.920933 12511 net.cpp:425] probs <- predict
I0924 03:02:12.920949 12511 net.cpp:399] probs -> probs
I0924 03:02:12.921000 12483 net.cpp:141] Setting up predict
I0924 03:02:12.921059 12483 net.cpp:148] Top shape: 1 1 46168 (46168)
I0924 03:02:12.921077 12483 net.cpp:156] Memory required for data: 221084
I0924 03:02:12.921109 12483 layer_factory.hpp:77] Creating layer probs
I0924 03:02:12.921142 12483 net.cpp:91] Creating Layer probs
I0924 03:02:12.921162 12483 net.cpp:425] probs <- predict
I0924 03:02:12.921187 12483 net.cpp:399] probs -> probs
I0924 03:02:12.932250 12483 net.cpp:141] Setting up probs
I0924 03:02:12.932497 12511 net.cpp:141] Setting up probs
I0924 03:02:12.932778 12483 net.cpp:148] Top shape: 1 1 46168 (46168)
I0924 03:02:12.932793 12483 net.cpp:156] Memory required for data: 405756
I0924 03:02:12.932799 12511 net.cpp:148] Top shape: 1 1 46168 (46168)
I0924 03:02:12.932808 12483 net.cpp:219] probs does not need backward computation.
I0924 03:02:12.932813 12511 net.cpp:156] Memory required for data: 405756
I0924 03:02:12.932821 12483 net.cpp:219] predict does not need backward computation.
I0924 03:02:12.932827 12511 net.cpp:219] probs does not need backward computation.
I0924 03:02:12.932832 12483 net.cpp:219] lstm2 does not need backward computation.
…
I0924 03:02:12.932945 12511 net.cpp:219] cont_sentence_input_1_split does not need backward computation.
I0924 03:02:12.932950 12483 net.cpp:261] This network produces output probs
I0924 03:02:12.932955 12511 net.cpp:219] input does not need backward computation.
I0924 03:02:12.932965 12511 net.cpp:261] This network produces output probs
I0924 03:02:12.932983 12483 net.cpp:274] Network initialization done.
I0924 03:02:12.932992 12511 net.cpp:274] Network initialization done.
Loading the mean file: 50984ms
I0924 03:02:13.058271 12487 net.cpp:141] Setting up predict
I0924 03:02:13.058753 12487 net.cpp:148] Top shape: 1 1 46168 (46168)
I0924 03:02:13.058889 12487 net.cpp:156] Memory required for data: 221084
I0924 03:02:13.059034 12487 layer_factory.hpp:77] Creating layer probs
I0924 03:02:13.059226 12487 net.cpp:91] Creating Layer probs
I0924 03:02:13.059376 12487 net.cpp:425] probs <- predict
I0924 03:02:13.059520 12487 net.cpp:399] probs -> probs
I0924 03:02:13.064620 12487 net.cpp:141] Setting up probs
I0924 03:02:13.065018 12487 net.cpp:148] Top shape: 1 1 46168 (46168)
I0924 03:02:13.065248 12487 net.cpp:156] Memory required for data: 405756
I0924 03:02:13.065399 12487 net.cpp:219] probs does not need backward computation.
I0924 03:02:13.065534 12487 net.cpp:219] predict does not need backward computation.
I0924 03:02:13.065663 12487 net.cpp:219] lstm2 does not need backward computation.
I0924 03:02:13.065793 12487 net.cpp:219] concat does not need backward computation.
I0924 03:02:13.065932 12487 net.cpp:219] lstm1 does not need backward computation.
I0924 03:02:13.066069 12487 net.cpp:219] embedding does not need backward computation.
I0924 03:02:13.066239 12487 net.cpp:219] reshape_stage_indicator does not need backward computation.
I0924 03:02:13.066375 12487 net.cpp:219] reshape_frames does not need backward computation.
I0924 03:02:13.066505 12487 net.cpp:219] embed_encoder does not need backward computation.
I0924 03:02:13.066673 12487 net.cpp:219] cont_sentence_input_1_split does not need backward computation.
I0924 03:02:13.066807 12487 net.cpp:219] input does not need backward computation.
I0924 03:02:13.066931 12487 net.cpp:261] This network produces output probs
I0924 03:02:13.067073 12487 net.cpp:274] Network initialization done.
I0924 03:02:13.130522 12485 net.cpp:141] Setting up predict
I0924 03:02:13.130616 12485 net.cpp:148] Top shape: 1 1 46168 (46168)
I0924 03:02:13.130631 12485 net.cpp:156] Memory required for data: 221084
I0924 03:02:13.130662 12485 layer_factory.hpp:77] Creating layer probs
I0924 03:02:13.130692 12485 net.cpp:91] Creating Layer probs
I0924 03:02:13.130707 12485 net.cpp:425] probs <- predict
I0924 03:02:13.130719 12485 net.cpp:399] probs -> probs
I0924 03:02:13.131822 12485 net.cpp:141] Setting up probs
I0924 03:02:13.131871 12485 net.cpp:148] Top shape: 1 1 46168 (46168)
I0924 03:02:13.131883 12485 net.cpp:156] Memory required for data: 405756
I0924 03:02:13.131901 12485 net.cpp:219] probs does not need backward computation.
I0924 03:02:13.131912 12485 net.cpp:219] predict does not need backward computation.
I0924 03:02:13.131925 12485 net.cpp:219] lstm2 does not need backward computation.
I0924 03:02:13.131938 12485 net.cpp:219] concat does not need backward computation.
I0924 03:02:13.131952 12485 net.cpp:219] lstm1 does not need backward computation.
I0924 03:02:13.131963 12485 net.cpp:219] embedding does not need backward computation.
I0924 03:02:13.131973 12485 net.cpp:219] reshape_stage_indicator does not need backward computation.
I0924 03:02:13.131986 12485 net.cpp:219] reshape_frames does not need backward computation.
I0924 03:02:13.131996 12485 net.cpp:219] embed_encoder does not need backward computation.
I0924 03:02:13.132007 12485 net.cpp:219] cont_sentence_input_1_split does not need backward computation.
I0924 03:02:13.132020 12485 net.cpp:219] input does not need backward computation.
I0924 03:02:13.132028 12485 net.cpp:261] This network produces output probs
I0924 03:02:13.132066 12485 net.cpp:274] Network initialization done.
I0924 03:02:13.274715 12493 net.cpp:141] Setting up predict
I0924 03:02:13.274765 12493 net.cpp:148] Top shape: 1 1 46168 (46168)
I0924 03:02:13.274771 12493 net.cpp:156] Memory required for data: 221084
I0924 03:02:13.274785 12493 layer_factory.hpp:77] Creating layer probs
I0924 03:02:13.274803 12493 net.cpp:91] Creating Layer probs
I0924 03:02:13.274811 12493 net.cpp:425] probs <- predict
I0924 03:02:13.274821 12493 net.cpp:399] probs -> probs
I0924 03:02:13.275564 12493 net.cpp:141] Setting up probs
I0924 03:02:13.275588 12493 net.cpp:148] Top shape: 1 1 46168 (46168)
I0924 03:02:13.275593 12493 net.cpp:156] Memory required for data: 405756
I0924 03:02:13.275599 12493 net.cpp:219] probs does not need backward computation.
I0924 03:02:13.275604 12493 net.cpp:219] predict does not need backward computation.
I0924 03:02:13.275609 12493 net.cpp:219] lstm2 does not need backward computation.
I0924 03:02:13.275616 12493 net.cpp:219] concat does not need backward computation.
I0924 03:02:13.275622 12493 net.cpp:219] lstm1 does not need backward computation.
I0924 03:02:13.275629 12493 net.cpp:219] embedding does not need backward computation.
I0924 03:02:13.275634 12493 net.cpp:219] reshape_stage_indicator does not need backward computation.
I0924 03:02:13.275638 12493 net.cpp:219] reshape_frames does not need backward computation.
I0924 03:02:13.275643 12493 net.cpp:219] embed_encoder does not need backward computation.
I0924 03:02:13.275648 12493 net.cpp:219] cont_sentence_input_1_split does not need backward computation.
I0924 03:02:13.275655 12493 net.cpp:219] input does not need backward computation.
I0924 03:02:13.275658 12493 net.cpp:261] This network produces output probs
I0924 03:02:13.275673 12493 net.cpp:274] Network initialization done.
I0924 03:02:13.364260 12517 net.cpp:141] Setting up predict
I0924 03:02:13.364337 12517 net.cpp:148] Top shape: 1 1 46168 (46168)
I0924 03:02:13.364351 12517 net.cpp:156] Memory required for data: 221084
I0924 03:02:13.364378 12517 layer_factory.hpp:77] Creating layer probs
I0924 03:02:13.364409 12517 net.cpp:91] Creating Layer probs
I0924 03:02:13.364424 12517 net.cpp:425] probs <- predict
I0924 03:02:13.364444 12517 net.cpp:399] probs -> probs
I0924 03:02:13.365772 12517 net.cpp:141] Setting up probs
I0924 03:02:13.365840 12517 net.cpp:148] Top shape: 1 1 46168 (46168)
I0924 03:02:13.365850 12517 net.cpp:156] Memory required for data: 405756
I0924 03:02:13.365865 12517 net.cpp:219] probs does not need backward computation.
I0924 03:02:13.365878 12517 net.cpp:219] predict does not need backward computation.
I0924 03:02:13.365887 12517 net.cpp:219] lstm2 does not need backward computation.
I0924 03:02:13.365897 12517 net.cpp:219] concat does not need backward computation.
…
