…
Java HotSpot(TM) 64-Bit Server VM warning: You have loaded library /home/peifeng/work/run/storm102/data/workers/c84f05ae-80c0-4aad-b689-149b3e3baf1b/tmp/cvld5178951872729846562/libopencv_java310.xine1.so which might have disabled stack guard. The VM will try to fix the stack guard now.
It's highly recommended that you fix the library with 'execstack -c <libfile>', or link it with '-z noexecstack'.
WARNING: Logging before InitGoogleLogging() is written to STDERR
I0913 20:37:55.720789  7755 net.cpp:49] Initializing net from parameters: 
name: "GoogleNet"
state {
  phase: TEST
}
layer {
  name: "data"
  type: "Input"
  top: "data"
  input_param {
    shape {
      dim: 10
      dim: 3
      dim: 224
      dim: 224
    }
  }
}
layer {
  name: "conv1/7x7_s2"
  type: "Convolution"
  bottom: "data"
  top: "conv1/7x7_s2"
  param {
    lr_mult: 1
    decay_mult: 1
  }
  param {
    lr_mult: 2
    decay_mult: 0
  }
  convolution_param {
    num_output: 64
    pad: 3
    kernel_size: 7
    stride: 2
    weight_filler {
      type: "xavier"
      std: 0.1
    }
    bias_filler {
      type: "constant"
      value: 0.2
    }
  }
}
layer {
  name: "conv1/relu_7x7"
  type: "ReLU"
  bottom: "conv1/7x7_s2"
  top: "conv1/7x7_s2"
}
layer {
  name: "pool1/3x3_s2"
  type: "Pooling"
  bottom: "conv1/7x7_s2"
  top: "pool1/3x3_s2"
  pooling_param {
    pool: MAX
    kernel_size: 3
    stride: 2
  }
}
layer {
  name: "pool1/norm1"
  type: "LRN"
  bottom: "pool1/3x3_s2"
  top: "pool1/norm1"
  lrn_param {
    local_size: 5
    alpha: 0.0001
    beta: 0.75
  }
}
layer {
  name: "conv2/3x3_reduce"
  type: "Convolution"
  bottom: "pool1/norm1"
  top: "conv2/3x3_reduce"
  param {
    lr_mult: 1
    decay_mult: 1
  }
  param {
    lr_mult: 2
    decay_mult: 0
  }
  convolution_param {
    num_output: 64
    kernel_size: 1
    weight_filler {
      type: "xavier"
      std: 0.1
    }
    bias_filler {
      type: "constant"
      value: 0.2
    }
  }
}
layer {
  name: "conv2/relu_3x3_reduce"
  type: "ReLU"
  bottom: "conv2/3x3_reduce"
  top: "conv2/3x3_reduce"
}
layer {
  name: "conv2/3x3"
  type: "Convolution"
  bottom: "conv2/3x3_reduce"
  top: "conv2/3x3"
  param {
    lr_mult: 1
    decay_mult: 1
  }
  param {
    lr_mult: 2
    decay_mult: 0
  }
  convolution_param {
    num_output: 192
    pad: 1
    kernel_size: 3
    weight_filler {
      type: "xavier"
      std: 0.03
    }
    bias_filler {
      type: "constant"
      value: 0.2
    }
  }
}
layer {
  name: "conv2/relu_3x3"
  type: "ReLU"
  bottom: "conv2/3x3"
  top: "conv2/3x3"
}
layer {
  name: "conv2/norm2"
  type: "LRN"
  bottom: "conv2/3x3"
  top: "conv2/norm2"
  lrn_param {
    local_size: 5
    alpha: 0.0001
    beta: 0.75
  }
}
layer {
  name: "pool2/3x3_s2"
  type: "Pooling"
  bottom: "conv2/norm2"
  top: "pool2/3x3_s2"
  pooling_param {
    pool: MAX
    kernel_size: 3
    stride: 2
  }
}
layer {
  name: "inception_3a/1x1"
  type: "Convolution"
  bottom: "pool2/3x3_s2"
  top: "inception_3a/1x1"
  param {
    lr_mult: 1
    decay_mult: 1
  }
  param {
    lr_mult: 2
    decay_mult: 0
  }
  convolution_param {
    num_output: 64
    kernel_size: 1
    weight_filler {
      type: "xavier"
      std: 0.03
    }
    bias_filler {
      type: "constant"
      value: 0.2
    }
  }
}
layer {
  name: "inception_3a/relu_1x1"
  type: "ReLU"
  bottom: "inception_3a/1x1"
  top: "inception_3a/1x1"
}
layer {
  name: "inception_3a/3x3_reduce"
  type: "Convolution"
  bottom: "pool2/3x3_s2"
  top: "inception_3a/3x3_reduce"
  param {
    lr_mult: 1
    decay_mult: 1
  }
  param {
    lr_mult: 2
    decay_mult: 0
  }
  convolution_param {
    num_output: 96
    kernel_size: 1
    weight_filler {
      type: "xavier"
      std: 0.09
    }
    bias_filler {
      type: "constant"
      value: 0.2
    }
  }
}
layer {
  name: "inception_3a/relu_3x3_reduce"
  type: "ReLU"
  bottom: "inception_3a/3x3_reduce"
  top: "inception_3a/3x3_reduce"
}
layer {
  name: "inception_3a/3x3"
  type: "Convolution"
  bottom: "inception_3a/3x3_reduce"
  top: "inception_3a/3x3"
  param {
    lr_mult: 1
    decay_mult: 1
  }
  param {
    lr_mult: 2
    decay_mult: 0
  }
  convolution_param {
    num_output: 128
    pad: 1
    kernel_size: 3
    weight_filler {
      type: "xavier"
      std: 0.03
    }
    bias_filler {
      type: "constant"
      value: 0.2
    }
  }
}
layer {
  name: "inception_3a/relu_3x3"
  type: "ReLU"
  bottom: "inception_3a/3x3"
  top: "inception_3a/3x3"
}
layer {
  name: "inception_3a/5x5_reduce"
  type: "Convolution"
  bottom: "pool2/3x3_s2"
  top: "inception_3a/5x5_reduce"
  param {
    lr_mult: 1
    decay_mult: 1
  }
  param {
    lr_mult: 2
    decay_mult: 0
  }
  convolution_param {
    num_output: 16
    kernel_size: 1
    weight_filler {
      type: "xavier"
      std: 0.2
    }
    bias_filler {
      type: "constant"
      value: 0.2
    }
  }
}
layer {
  name: "inception_3a/relu_5x5_reduce"
  type: "ReLU"
  bottom: "inception_3a/5x5_reduce"
  top: "inception_3a/5x5_reduce"
}
layer {
  name: "inception_3a/5x5"
  type: "Convolution"
  bottom: "inception_3a/5x5_reduce"
  top: "inception_3a/5x5"
  param {
    lr_mult: 1
    decay_mult: 1
  }
  param {
    lr_mult: 2
    decay_mult: 0
  }
  convolution_param {
    num_output: 32
    pad: 2
    kernel_size: 5
    weight_filler {
      type: "xavier"
      std: 0.03
    }
    bias_filler {
      type: "constant"
      value: 0.2
    }
  }
}
layer {
  name: "inception_3a/relu_5x5"
  type: "ReLU"
  bottom: "inception_3a/5x5"
  top: "inception_3a/5x5"
}
layer {
  name: "inception_3a/pool"
  type: "Pooling"
  bottom: "pool2/3x3_s2"
  top: "inception_3a/pool"
  pooling_param {
    pool: MAX
    kernel_size: 3
    stride: 1
    pad: 1
  }
}
layer {
  name: "inception_3a/pool_proj"
  type: "Convolution"
  bottom: "inception_3a/pool"
  top: "inception_3a/pool_proj"
  param {
    lr_mult: 1
    decay_mult: 1
  }
  param {
    lr_mult: 2
    decay_mult: 0
  }
  convolution_param {
    num_output: 32
    kernel_size: 1
    weight_filler {
      type: "xavier"
      std: 0.1
    }
    bias_filler {
      type: "constant"
      value: 0.2
    }
  }
}
layer {
  name: "inception_3a/relu_pool_proj"
  type: "ReLU"
  bottom: "inception_3a/pool_proj"
  top: "inception_3a/pool_proj"
}
layer {
  name: "inception_3a/output"
  type: "Concat"
  bottom: "inception_3a/1x1"
  bottom: "inception_3a/3x3"
  bottom: "inception_3a/5x5"
  bottom: "inception_3a/pool_proj"
  top: "inception_3a/output"
}
layer {
  name: "inception_3b/1x1"
  type: "Convolution"
  bottom: "inception_3a/output"
  top: "inception_3b/1x1"
  param {
    lr_mult: 1
    decay_mult: 1
  }
  param {
    lr_mult: 2
    decay_mult: 0
  }
  convolution_param {
    num_output: 128
    kernel_size: 1
    weight_filler {
      type: "xavier"
      std: 0.03
    }
    bias_filler {
      type: "constant"
      value: 0.2
    }
  }
}
layer {
  name: "inception_3b/relu_1x1"
  type: "ReLU"
  bottom: "inception_3b/1x1"
  top: "inception_3b/1x1"
}
layer {
  name: "inception_3b/3x3_reduce"
  type: "Convolution"
  bottom: "inception_3a/output"
  top: "inception_3b/3x3_reduce"
  param {
    lr_mult: 1
    decay_mult: 1
  }
  param {
    lr_mult: 2
    decay_mult: 0
  }
  convolution_param {
    num_output: 128
    kernel_size: 1
    weight_filler {
      type: "xavier"
      std: 0.09
    }
    bias_filler {
      type: "constant"
      value: 0.2
    }
  }
}
layer {
  name: "inception_3b/relu_3x3_reduce"
  type: "ReLU"
  bottom: "inception_3b/3x3_reduce"
  top: "inception_3b/3x3_reduce"
}
layer {
  name: "inception_3b/3x3"
  type: "Convolution"
  bottom: "inception_3b/3x3_reduce"
  top: "inception_3b/3x3"
  param {
    lr_mult: 1
    decay_mult: 1
  }
  param {
    lr_mult: 2
    decay_mult: 0
  }
  convolution_param {
    num_output: 192
    pad: 1
    kernel_size: 3
    weight_filler {
      type: "xavier"
      std: 0.03
    }
    bias_filler {
      type: "constant"
      value: 0.2
    }
  }
}
layer {
  name: "inception_3b/relu_3x3"
  type: "ReLU"
  bottom: "inception_3b/3x3"
  top: "inception_3b/3x3"
}
layer {
  name: "inception_3b/5x5_reduce"
  type: "Convolution"
  bottom: "inception_3a/output"
  top: "inception_3b/5x5_reduce"
  param {
    lr_mult: 1
    decay_mult: 1
  }
  param {
    lr_mult: 2
    decay_mult: 0
  }
  convolution_param {
    num_output: 32
    kernel_size: 1
    weight_filler {
      type: "xavier"
      std: 0.2
    }
    bias_filler {
      type: "constant"
      value: 0.2
    }
  }
}
layer {
  name: "inception_3b/relu_5x5_reduce"
  type: "ReLU"
  bottom: "inception_3b/5x5_reduce"
  top: "inception_3b/5x5_reduce"
}
layer {
  name: "inception_3b/5x5"
  type: "Convolution"
  bottom: "inception_3b/5x5_reduce"
  top: "inception_3b/5x5"
  param {
    lr_mult: 1
    decay_mult: 1
  }
  param {
    lr_mult: 2
    decay_mult: 0
  }
  convolution_param {
    num_output: 96
    pad: 2
    kernel_size: 5
    weight_filler {
      type: "xavier"
      std: 0.03
    }
    bias_filler {
      type: "constant"
      value: 0.2
    }
  }
}
layer {
  name: "inception_3b/relu_5x5"
  type: "ReLU"
  bottom: "inception_3b/5x5"
  top: "inception_3b/5x5"
}
layer {
  name: "inception_3b/pool"
  type: "Pooling"
  bottom: "inception_3a/output"
  top: "inception_3b/pool"
  pooling_param {
    pool: MAX
    kernel_size: 3
    stride: 1
    pad: 1
  }
}
layer {
  name: "inception_3b/pool_proj"
  type: "Convolution"
  bottom: "inception_3b/pool"
  top: "inception_3b/pool_proj"
  param {
    lr_mult: 1
    decay_mult: 1
  }
  param {
    lr_mult: 2
    decay_mult: 0
  }
  convolution_param {
    num_output: 64
    kernel_size: 1
    weight_filler {
      type: "xavier"
      std: 0.1
    }
    bias_filler {
      type: "constant"
      value: 0.2
    }
  }
}
layer {
  name: "inception_3b/relu_pool_proj"
  type: "ReLU"
  bottom: "inception_3b/pool_proj"
  top: "inception_3b/pool_proj"
}
layer {
  name: "inception_3b/output"
  type: "Concat"
  bottom: "inception_3b/1x1"
  bottom: "inception_3b/3x3"
  bottom: "inception_3b/5x5"
  bottom: "inception_3b/pool_proj"
  top: "inception_3b/output"
}
layer {
  name: "pool3/3x3_s2"
  type: "Pooling"
  bottom: "inception_3b/output"
  top: "pool3/3x3_s2"
  pooling_param {
    pool: MAX
    kernel_size: 3
    stride: 2
  }
}
layer {
  name: "inception_4a/1x1"
  type: "Convolution"
  bottom: "pool3/3x3_s2"
  top: "inception_4a/1x1"
  param {
    lr_mult: 1
    decay_mult: 1
  }
  param {
    lr_mult: 2
    decay_mult: 0
  }
  convolution_param {
    num_output: 192
    kernel_size: 1
    weight_filler {
      type: "xavier"
      std: 0.03
    }
    bias_filler {
      type: "constant"
      value: 0.2
    }
  }
}
layer {
  name: "inception_4a/relu_1x1"
  type: "ReLU"
  bottom: "inception_4a/1x1"
  top: "inception_4a/1x1"
}
layer {
  name: "inception_4a/3x3_reduce"
  type: "Convolution"
  bottom: "pool3/3x3_s2"
  top: "inception_4a/3x3_reduce"
  param {
    lr_mult: 1
    decay_mult: 1
  }
  param {
    lr_mult: 2
    decay_mult: 0
  }
  convolution_param {
    num_output: 96
    kernel_size: 1
    weight_filler {
      type: "xavier"
      std: 0.09
    }
    bias_filler {
      type: "constant"
      value: 0.2
    }
  }
}
layer {
  name: "inception_4a/relu_3x3_reduce"
  type: "ReLU"
  bottom: "inception_4a/3x3_reduce"
  top: "inception_4a/3x3_reduce"
}
layer {
  name: "inception_4a/3x3"
  type: "Convolution"
  bottom: "inception_4a/3x3_reduce"
  top: "inception_4a/3x3"
  param {
    lr_mult: 1
    decay_mult: 1
  }
  param {
    lr_mult: 2
    decay_mult: 0
  }
  convolution_param {
    num_output: 208
    pad: 1
    kernel_size: 3
    weight_filler {
      type: "xavier"
      std: 0.03
    }
    bias_filler {
      type: "constant"
      value: 0.2
    }
  }
}
layer {
  name: "inception_4a/relu_3x3"
  type: "ReLU"
  bottom: "inception_4a/3x3"
  top: "inception_4a/3x3"
}
layer {
  name: "inception_4a/5x5_reduce"
  type: "Convolution"
  bottom: "pool3/3x3_s2"
  top: "inception_4a/5x5_reduce"
  param {
    lr_mult: 1
    decay_mult: 1
  }
  param {
    lr_mult: 2
    decay_mult: 0
  }
  convolution_param {
    num_output: 16
    kernel_size: 1
    weight_filler {
      type: "xavier"
      std: 0.2
    }
    bias_filler {
      type: "constant"
      value: 0.2
    }
  }
}
layer {
  name: "inception_4a/relu_5x5_reduce"
  type: "ReLU"
  bottom: "inception_4a/5x5_reduce"
  top: "inception_4a/5x5_reduce"
}
layer {
  name: "inception_4a/5x5"
  type: "Convolution"
  bottom: "inception_4a/5x5_reduce"
  top: "inception_4a/5x5"
  param {
    lr_mult: 1
    decay_mult: 1
  }
  param {
    lr_mult: 2
    decay_mult: 0
  }
  convolution_param {
    num_output: 48
    pad: 2
    kernel_size: 5
    weight_filler {
      type: "xavier"
      std: 0.03
    }
    bias_filler {
      type: "constant"
      value: 0.2
    }
  }
}
layer {
  name: "inception_4a/relu_5x5"
  type: "ReLU"
  bottom: "inception_4a/5x5"
  top: "inception_4a/5x5"
}
layer {
  name: "inception_4a/pool"
  type: "Pooling"
  bottom: "pool3/3x3_s2"
  top: "inception_4a/pool"
  pooling_param {
    pool: MAX
    kernel_size: 3
    stride: 1
    pad: 1
  }
}
layer {
  name: "inception_4a/pool_proj"
  type: "Convolution"
  bottom: "inception_4a/pool"
  top: "inception_4a/pool_proj"
  param {
    lr_mult: 1
    decay_mult: 1
  }
  param {
    lr_mult: 2
    decay_mult: 0
  }
  convolution_param {
    num_output: 64
    kernel_size: 1
    weight_filler {
      type: "xavier"
      std: 0.1
    }
    bias_filler {
      type: "constant"
      value: 0.2
    }
  }
}
layer {
  name: "inception_4a/relu_pool_proj"
  type: "ReLU"
  bottom: "inception_4a/pool_proj"
  top: "inception_4a/pool_proj"
}
layer {
  name: "inception_4a/output"
  type: "Concat"
  bottom: "inception_4a/1x1"
  bottom: "inception_4a/3x3"
  bottom: "inception_4a/5x5"
  bottom: "inception_4a/pool_proj"
  top: "inception_4a/output"
}
layer {
  name: "inception_4b/1x1"
  type: "Convolution"
  bottom: "inception_4a/output"
  top: "inception_4b/1x1"
  param {
    lr_mult: 1
    decay_mult: 1
  }
  param {
    lr_mult: 2
    decay_mult: 0
  }
  convolution_param {
    num_output: 160
    kernel_size: 1
    weight_filler {
      type: "xavier"
      std: 0.03
    }
    bias_filler {
      type: "constant"
      value: 0.2
    }
  }
}
layer {
  name: "inception_4b/relu_1x1"
  type: "ReLU"
  bottom: "inception_4b/1x1"
  top: "inception_4b/1x1"
}
layer {
  name: "inception_4b/3x3_reduce"
  type: "Convolution"
  bottom: "inception_4a/output"
  top: "inception_4b/3x3_reduce"
  param {
    lr_mult: 1
    decay_mult: 1
  }
  param {
    lr_mult: 2
    decay_mult: 0
  }
  convolution_param {
    num_output: 112
    kernel_size: 1
    weight_filler {
      type: "xavier"
      std: 0.09
    }
    bias_filler {
      type: "constant"
      value: 0.2
    }
  }
}
layer {
  name: "inception_4b/relu_3x3_reduce"
  type: "ReLU"
  bottom: "inception_4b/3x3_reduce"
  top: "inception_4b/3x3_reduce"
}
layer {
  name: "inception_4b/3x3"
  type: "Convolution"
  bottom: "inception_4b/3x3_reduce"
  top: "inception_4b/3x3"
  param {
    lr_mult: 1
    decay_mult: 1
  }
  param {
    lr_mult: 2
    decay_mult: 0
  }
  convolution_param {
    num_output: 224
    pad: 1
    kernel_size: 3
    weight_filler {
      type: "xavier"
      std: 0.03
    }
    bias_filler {
      type: "constant"
      value: 0.2
    }
  }
}
layer {
  name: "inception_4b/relu_3x3"
  type: "ReLU"
  bottom: "inception_4b/3x3"
  top: "inception_4b/3x3"
}
layer {
  name: "inception_4b/5x5_reduce"
  type: "Convolution"
  bottom: "inception_4a/output"
  top: "inception_4b/5x5_reduce"
  param {
    lr_mult: 1
    decay_mult: 1
  }
  param {
    lr_mult: 2
    decay_mult: 0
  }
  convolution_param {
    num_output: 24
    kernel_size: 1
    weight_filler {
      type: "xavier"
      std: 0.2
    }
    bias_filler {
      type: "constant"
      value: 0.2
    }
  }
}
layer {
  name: "inception_4b/relu_5x5_reduce"
  type: "ReLU"
  bottom: "inception_4b/5x5_reduce"
  top: "inception_4b/5x5_reduce"
}
layer {
  name: "inception_4b/5x5"
  type: "Convolution"
  bottom: "inception_4b/5x5_reduce"
  top: "inception_4b/5x5"
  param {
    lr_mult: 1
    decay_mult: 1
  }
  param {
    lr_mult: 2
    decay_mult: 0
  }
  convolution_param {
    num_output: 64
    pad: 2
    kernel_size: 5
    weight_filler {
      type: "xavier"
      std: 0.03
    }
    bias_filler {
      type: "constant"
      value: 0.2
    }
  }
}
layer {
  name: "inception_4b/relu_5x5"
  type: "ReLU"
  bottom: "inception_4b/5x5"
  top: "inception_4b/5x5"
}
layer {
  name: "inception_4b/pool"
  type: "Pooling"
  bottom: "inception_4a/output"
  top: "inception_4b/pool"
  pooling_param {
    pool: MAX
    kernel_size: 3
    stride: 1
    pad: 1
  }
}
layer {
  name: "inception_4b/pool_proj"
  type: "Convolution"
  bottom: "inception_4b/pool"
  top: "inception_4b/pool_proj"
  param {
    lr_mult: 1
    decay_mult: 1
  }
  param {
    lr_mult: 2
    decay_mult: 0
  }
  convolution_param {
    num_output: 64
    kernel_size: 1
    weight_filler {
      type: "xavier"
      std: 0.1
    }
    bias_filler {
      type: "constant"
      value: 0.2
    }
  }
}
layer {
  name: "inception_4b/relu_pool_proj"
  type: "ReLU"
  bottom: "inception_4b/pool_proj"
  top: "inception_4b/pool_proj"
}
layer {
  name: "inception_4b/output"
  type: "Concat"
  bottom: "inception_4b/1x1"
  bottom: "inception_4b/3x3"
  bottom: "inception_4b/5x5"
  bottom: "inception_4b/pool_proj"
  top: "inception_4b/output"
}
layer {
  name: "inception_4c/1x1"
  type: "Convolution"
  bottom: "inception_4b/output"
  top: "inception_4c/1x1"
  param {
    lr_mult: 1
    decay_mult: 1
  }
  param {
    lr_mult: 2
    decay_mult: 0
  }
  convolution_param {
    num_output: 128
    kernel_size: 1
    weight_filler {
      type: "xavier"
      std: 0.03
    }
    bias_filler {
      type: "constant"
      value: 0.2
    }
  }
}
layer {
  name: "inception_4c/relu_1x1"
  type: "ReLU"
  bottom: "inception_4c/1x1"
  top: "inception_4c/1x1"
}
layer {
  name: "inception_4c/3x3_reduce"
  type: "Convolution"
  bottom: "inception_4b/output"
  top: "inception_4c/3x3_reduce"
  param {
    lr_mult: 1
    decay_mult: 1
  }
  param {
    lr_mult: 2
    decay_mult: 0
  }
  convolution_param {
    num_output: 128
    kernel_size: 1
    weight_filler {
      type: "xavier"
      std: 0.09
    }
    bias_filler {
      type: "constant"
      value: 0.2
    }
  }
}
layer {
  name: "inception_4c/relu_3x3_reduce"
  type: "ReLU"
  bottom: "inception_4c/3x3_reduce"
  top: "inception_4c/3x3_reduce"
}
layer {
  name: "inception_4c/3x3"
  type: "Convolution"
  bottom: "inception_4c/3x3_reduce"
  top: "inception_4c/3x3"
  param {
    lr_mult: 1
    decay_mult: 1
  }
  param {
    lr_mult: 2
    decay_mult: 0
  }
  convolution_param {
    num_output: 256
    pad: 1
    kernel_size: 3
    weight_filler {
      type: "xavier"
      std: 0.03
    }
    bias_filler {
      type: "constant"
      value: 0.2
    }
  }
}
layer {
  name: "inception_4c/relu_3x3"
  type: "ReLU"
  bottom: "inception_4c/3x3"
  top: "inception_4c/3x3"
}
layer {
  name: "inception_4c/5x5_reduce"
  type: "Convolution"
  bottom: "inception_4b/output"
  top: "inception_4c/5x5_reduce"
  param {
    lr_mult: 1
    decay_mult: 1
  }
  param {
    lr_mult: 2
    decay_mult: 0
  }
  convolution_param {
    num_output: 24
    kernel_size: 1
    weight_filler {
      type: "xavier"
      std: 0.2
    }
    bias_filler {
      type: "constant"
      value: 0.2
    }
  }
}
layer {
  name: "inception_4c/relu_5x5_reduce"
  type: "ReLU"
  bottom: "inception_4c/5x5_reduce"
  top: "inception_4c/5x5_reduce"
}
layer {
  name: "inception_4c/5x5"
  type: "Convolution"
  bottom: "inception_4c/5x5_reduce"
  top: "inception_4c/5x5"
  param {
    lr_mult: 1
    decay_mult: 1
  }
  param {
    lr_mult: 2
    decay_mult: 0
  }
  convolution_param {
    num_output: 64
    pad: 2
    kernel_size: 5
    weight_filler {
      type: "xavier"
      std: 0.03
    }
    bias_filler {
      type: "constant"
      value: 0.2
    }
  }
}
layer {
  name: "inception_4c/relu_5x5"
  type: "ReLU"
  bottom: "inception_4c/5x5"
  top: "inception_4c/5x5"
}
layer {
  name: "inception_4c/pool"
  type: "Pooling"
  bottom: "inception_4b/output"
  top: "inception_4c/pool"
  pooling_param {
    pool: MAX
    kernel_size: 3
    stride: 1
    pad: 1
  }
}
layer {
  name: "inception_4c/pool_proj"
  type: "Convolution"
  bottom: "inception_4c/pool"
  top: "inception_4c/pool_proj"
  param {
    lr_mult: 1
    decay_mult: 1
  }
  param {
    lr_mult: 2
    decay_mult: 0
  }
  convolution_param {
    num_output: 64
    kernel_size: 1
    weight_filler {
      type: "xavier"
      std: 0.1
    }
    bias_filler {
      type: "constant"
      value: 0.2
    }
  }
}
layer {
  name: "inception_4c/relu_pool_proj"
  type: "ReLU"
  bottom: "inception_4c/pool_proj"
  top: "inception_4c/pool_proj"
}
layer {
  name: "inception_4c/output"
  type: "Concat"
  bottom: "inception_4c/1x1"
  bottom: "inception_4c/3x3"
  bottom: "inception_4c/5x5"
  bottom: "inception_4c/pool_proj"
  top: "inception_4c/output"
}
layer {
  name: "inception_4d/1x1"
  type: "Convolution"
  bottom: "inception_4c/output"
  top: "inception_4d/1x1"
  param {
    lr_mult: 1
    decay_mult: 1
  }
  param {
    lr_mult: 2
    decay_mult: 0
  }
  convolution_param {
    num_output: 112
    kernel_size: 1
    weight_filler {
      type: "xavier"
      std: 0.03
    }
    bias_filler {
      type: "constant"
      value: 0.2
    }
  }
}
layer {
  name: "inception_4d/relu_1x1"
  type: "ReLU"
  bottom: "inception_4d/1x1"
  top: "inception_4d/1x1"
}
layer {
  name: "inception_4d/3x3_reduce"
  type: "Convolution"
  bottom: "inception_4c/output"
  top: "inception_4d/3x3_reduce"
  param {
    lr_mult: 1
    decay_mult: 1
  }
  param {
    lr_mult: 2
    decay_mult: 0
  }
  convolution_param {
    num_output: 144
    kernel_size: 1
    weight_filler {
      type: "xavier"
      std: 0.09
    }
    bias_filler {
      type: "constant"
      value: 0.2
    }
  }
}
layer {
  name: "inception_4d/relu_3x3_reduce"
  type: "ReLU"
  bottom: "inception_4d/3x3_reduce"
  top: "inception_4d/3x3_reduce"
}
layer {
  name: "inception_4d/3x3"
  type: "Convolution"
  bottom: "inception_4d/3x3_reduce"
  top: "inception_4d/3x3"
  param {
    lr_mult: 1
    decay_mult: 1
  }
  param {
    lr_mult: 2
    decay_mult: 0
  }
  convolution_param {
    num_output: 288
    pad: 1
    kernel_size: 3
    weight_filler {
      type: "xavier"
      std: 0.03
    }
    bias_filler {
      type: "constant"
      value: 0.2
    }
  }
}
layer {
  name: "inception_4d/relu_3x3"
  type: "ReLU"
  bottom: "inception_4d/3x3"
  top: "inception_4d/3x3"
}
layer {
  name: "inception_4d/5x5_reduce"
  type: "Convolution"
  bottom: "inception_4c/output"
  top: "inception_4d/5x5_reduce"
  param {
    lr_mult: 1
    decay_mult: 1
  }
  param {
    lr_mult: 2
    decay_mult: 0
  }
  convolution_param {
    num_output: 32
    kernel_size: 1
    weight_filler {
      type: "xavier"
      std: 0.2
    }
    bias_filler {
      type: "constant"
      value: 0.2
    }
  }
}
layer {
  name: "inception_4d/relu_5x5_reduce"
  type: "ReLU"
  bottom: "inception_4d/5x5_reduce"
  top: "inception_4d/5x5_reduce"
}
layer {
  name: "inception_4d/5x5"
  type: "Convolution"
  bottom: "inception_4d/5x5_reduce"
  top: "inception_4d/5x5"
  param {
    lr_mult: 1
    decay_mult: 1
  }
  param {
    lr_mult: 2
    decay_mult: 0
  }
  convolution_param {
    num_output: 64
    pad: 2
    kernel_size: 5
    weight_filler {
      type: "xavier"
      std: 0.03
    }
    bias_filler {
      type: "constant"
      value: 0.2
    }
  }
}
layer {
  name: "inception_4d/relu_5x5"
  type: "ReLU"
  bottom: "inception_4d/5x5"
  top: "inception_4d/5x5"
}
layer {
  name: "inception_4d/pool"
  type: "Pooling"
  bottom: "inception_4c/output"
  top: "inception_4d/pool"
  pooling_param {
    pool: MAX
    kernel_size: 3
    stride: 1
    pad: 1
  }
}
layer {
  name: "inception_4d/pool_proj"
  type: "Convolution"
  bottom: "inception_4d/pool"
  top: "inception_4d/pool_proj"
  param {
    lr_mult: 1
    decay_mult: 1
  }
  param {
    lr_mult: 2
    decay_mult: 0
  }
  convolution_param {
    num_output: 64
    kernel_size: 1
    weight_filler {
      type: "xavier"
      std: 0.1
    }
    bias_filler {
      type: "constant"
      value: 0.2
    }
  }
}
layer {
  name: "inception_4d/relu_pool_proj"
  type: "ReLU"
  bottom: "inception_4d/pool_proj"
  top: "inception_4d/pool_proj"
}
layer {
  name: "inception_4d/output"
  type: "Concat"
  bottom: "inception_4d/1x1"
  bottom: "inception_4d/3x3"
  bottom: "inception_4d/5x5"
  bottom: "inception_4d/pool_proj"
  top: "inception_4d/output"
}
layer {
  name: "inception_4e/1x1"
  type: "Convolution"
  bottom: "inception_4d/output"
  top: "inception_4e/1x1"
  param {
    lr_mult: 1
    decay_mult: 1
  }
  param {
    lr_mult: 2
    decay_mult: 0
  }
  convolution_param {
    num_output: 256
    kernel_size: 1
    weight_filler {
      type: "xavier"
      std: 0.03
    }
    bias_filler {
      type: "constant"
      value: 0.2
    }
  }
}
layer {
  name: "inception_4e/relu_1x1"
  type: "ReLU"
  bottom: "inception_4e/1x1"
  top: "inception_4e/1x1"
}
layer {
  name: "inception_4e/3x3_reduce"
  type: "Convolution"
  bottom: "inception_4d/output"
  top: "inception_4e/3x3_reduce"
  param {
    lr_mult: 1
    decay_mult: 1
  }
  param {
    lr_mult: 2
    decay_mult: 0
  }
  convolution_param {
    num_output: 160
    kernel_size: 1
    weight_filler {
      type: "xavier"
      std: 0.09
    }
    bias_filler {
      type: "constant"
      value: 0.2
    }
  }
}
layer {
  name: "inception_4e/relu_3x3_reduce"
  type: "ReLU"
  bottom: "inception_4e/3x3_reduce"
  top: "inception_4e/3x3_reduce"
}
layer {
  name: "inception_4e/3x3"
  type: "Convolution"
  bottom: "inception_4e/3x3_reduce"
  top: "inception_4e/3x3"
  param {
    lr_mult: 1
    decay_mult: 1
  }
  param {
    lr_mult: 2
    decay_mult: 0
  }
  convolution_param {
    num_output: 320
    pad: 1
    kernel_size: 3
    weight_filler {
      type: "xavier"
      std: 0.03
    }
    bias_filler {
      type: "constant"
      value: 0.2
    }
  }
}
layer {
  name: "inception_4e/relu_3x3"
  type: "ReLU"
  bottom: "inception_4e/3x3"
  top: "inception_4e/3x3"
}
layer {
  name: "inception_4e/5x5_reduce"
  type: "Convolution"
  bottom: "inception_4d/output"
  top: "inception_4e/5x5_reduce"
  param {
    lr_mult: 1
    decay_mult: 1
  }
  param {
    lr_mult: 2
    decay_mult: 0
  }
  convolution_param {
    num_output: 32
    kernel_size: 1
    weight_filler {
      type: "xavier"
      std: 0.2
    }
    bias_filler {
      type: "constant"
      value: 0.2
    }
  }
}
layer {
  name: "inception_4e/relu_5x5_reduce"
  type: "ReLU"
  bottom: "inception_4e/5x5_reduce"
  top: "inception_4e/5x5_reduce"
}
layer {
  name: "inception_4e/5x5"
  type: "Convolution"
  bottom: "inception_4e/5x5_reduce"
  top: "inception_4e/5x5"
  param {
    lr_mult: 1
    decay_mult: 1
  }
  param {
    lr_mult: 2
    decay_mult: 0
  }
  convolution_param {
    num_output: 128
    pad: 2
    kernel_size: 5
    weight_filler {
      type: "xavier"
      std: 0.03
    }
    bias_filler {
      type: "constant"
      value: 0.2
    }
  }
}
layer {
  name: "inception_4e/relu_5x5"
  type: "ReLU"
  bottom: "inception_4e/5x5"
  top: "inception_4e/5x5"
}
layer {
  name: "inception_4e/pool"
  type: "Pooling"
  bottom: "inception_4d/output"
  top: "inception_4e/pool"
  pooling_param {
    pool: MAX
    kernel_size: 3
    stride: 1
    pad: 1
  }
}
layer {
  name: "inception_4e/pool_proj"
  type: "Convolution"
  bottom: "inception_4e/pool"
  top: "inception_4e/pool_proj"
  param {
    lr_mult: 1
    decay_mult: 1
  }
  param {
    lr_mult: 2
    decay_mult: 0
  }
  convolution_param {
    num_output: 128
    kernel_size: 1
    weight_filler {
      type: "xavier"
      std: 0.1
    }
    bias_filler {
      type: "constant"
      value: 0.2
    }
  }
}
layer {
  name: "inception_4e/relu_pool_proj"
  type: "ReLU"
  bottom: "inception_4e/pool_proj"
  top: "inception_4e/pool_proj"
}
layer {
  name: "inception_4e/output"
  type: "Concat"
  bottom: "inception_4e/1x1"
  bottom: "inception_4e/3x3"
  bottom: "inception_4e/5x5"
  bottom: "inception_4e/pool_proj"
  top: "inception_4e/output"
}
layer {
  name: "pool4/3x3_s2"
  type: "Pooling"
  bottom: "inception_4e/output"
  top: "pool4/3x3_s2"
  pooling_param {
    pool: MAX
    kernel_size: 3
    stride: 2
  }
}
layer {
  name: "inception_5a/1x1"
  type: "Convolution"
  bottom: "pool4/3x3_s2"
  top: "inception_5a/1x1"
  param {
    lr_mult: 1
    decay_mult: 1
  }
  param {
    lr_mult: 2
    decay_mult: 0
  }
  convolution_param {
    num_output: 256
    kernel_size: 1
    weight_filler {
      type: "xavier"
      std: 0.03
    }
    bias_filler {
      type: "constant"
      value: 0.2
    }
  }
}
layer {
  name: "inception_5a/relu_1x1"
  type: "ReLU"
  bottom: "inception_5a/1x1"
  top: "inception_5a/1x1"
}
layer {
  name: "inception_5a/3x3_reduce"
  type: "Convolution"
  bottom: "pool4/3x3_s2"
  top: "inception_5a/3x3_reduce"
  param {
    lr_mult: 1
    decay_mult: 1
  }
  param {
    lr_mult: 2
    decay_mult: 0
  }
  convolution_param {
    num_output: 160
    kernel_size: 1
    weight_filler {
      type: "xavier"
      std: 0.09
    }
    bias_filler {
      type: "constant"
      value: 0.2
    }
  }
}
layer {
  name: "inception_5a/relu_3x3_reduce"
  type: "ReLU"
  bottom: "inception_5a/3x3_reduce"
  top: "inception_5a/3x3_reduce"
}
layer {
  name: "inception_5a/3x3"
  type: "Convolution"
  bottom: "inception_5a/3x3_reduce"
  top: "inception_5a/3x3"
  param {
    lr_mult: 1
    decay_mult: 1
  }
  param {
    lr_mult: 2
    decay_mult: 0
  }
  convolution_param {
    num_output: 320
    pad: 1
    kernel_size: 3
    weight_filler {
      type: "xavier"
      std: 0.03
    }
    bias_filler {
      type: "constant"
      value: 0.2
    }
  }
}
layer {
  name: "inception_5a/relu_3x3"
  type: "ReLU"
  bottom: "inception_5a/3x3"
  top: "inception_5a/3x3"
}
layer {
  name: "inception_5a/5x5_reduce"
  type: "Convolution"
  bottom: "pool4/3x3_s2"
  top: "inception_5a/5x5_reduce"
  param {
    lr_mult: 1
    decay_mult: 1
  }
  param {
    lr_mult: 2
    decay_mult: 0
  }
  convolution_param {
    num_output: 32
    kernel_size: 1
    weight_filler {
      type: "xavier"
      std: 0.2
    }
    bias_filler {
      type: "constant"
      value: 0.2
    }
I0913 20:37:55.721642  7755 layer_factory.hpp:77] Creating layer data
I0913 20:37:55.721671  7755 net.cpp:91] Creating Layer data
I0913 20:37:55.721683  7755 net.cpp:399] data -> data
I0913 20:37:56.212316  7755 net.cpp:141] Setting up data
I0913 20:37:56.212402  7755 net.cpp:148] Top shape: 10 3 224 224 (1505280)
I0913 20:37:56.212414  7755 net.cpp:156] Memory required for data: 6021120
I0913 20:37:56.212442  7755 layer_factory.hpp:77] Creating layer conv1/7x7_s2
I0913 20:37:56.212491  7755 net.cpp:91] Creating Layer conv1/7x7_s2
I0913 20:37:56.212507  7755 net.cpp:425] conv1/7x7_s2 <- data
I0913 20:37:56.212529  7755 net.cpp:399] conv1/7x7_s2 -> conv1/7x7_s2
I0913 20:37:56.395176  7755 net.cpp:141] Setting up conv1/7x7_s2
I0913 20:37:56.395227  7755 net.cpp:148] Top shape: 10 64 112 112 (8028160)
I0913 20:37:56.395234  7755 net.cpp:156] Memory required for data: 38133760
I0913 20:37:56.395262  7755 layer_factory.hpp:77] Creating layer conv1/relu_7x7
I0913 20:37:56.395284  7755 net.cpp:91] Creating Layer conv1/relu_7x7
I0913 20:37:56.395292  7755 net.cpp:425] conv1/relu_7x7 <- conv1/7x7_s2
I0913 20:37:56.395298  7755 net.cpp:386] conv1/relu_7x7 -> conv1/7x7_s2 (in-place)
I0913 20:37:56.395699  7755 net.cpp:141] Setting up conv1/relu_7x7
I0913 20:37:56.395711  7755 net.cpp:148] Top shape: 10 64 112 112 (8028160)
I0913 20:37:56.395716  7755 net.cpp:156] Memory required for data: 70246400
I0913 20:37:56.395721  7755 layer_factory.hpp:77] Creating layer pool1/3x3_s2
I0913 20:37:56.395735  7755 net.cpp:91] Creating Layer pool1/3x3_s2
I0913 20:37:56.395740  7755 net.cpp:425] pool1/3x3_s2 <- conv1/7x7_s2
I0913 20:37:56.395747  7755 net.cpp:399] pool1/3x3_s2 -> pool1/3x3_s2
I0913 20:37:56.395820  7755 net.cpp:141] Setting up pool1/3x3_s2
I0913 20:37:56.395830  7755 net.cpp:148] Top shape: 10 64 56 56 (2007040)
I0913 20:37:56.395835  7755 net.cpp:156] Memory required for data: 78274560
I0913 20:37:56.395839  7755 layer_factory.hpp:77] Creating layer pool1/norm1
I0913 20:37:56.395856  7755 net.cpp:91] Creating Layer pool1/norm1
I0913 20:37:56.395861  7755 net.cpp:425] pool1/norm1 <- pool1/3x3_s2
I0913 20:37:56.395869  7755 net.cpp:399] pool1/norm1 -> pool1/norm1
I0913 20:37:56.396129  7755 net.cpp:141] Setting up pool1/norm1
I0913 20:37:56.396142  7755 net.cpp:148] Top shape: 10 64 56 56 (2007040)
I0913 20:37:56.396145  7755 net.cpp:156] Memory required for data: 86302720
I0913 20:37:56.396152  7755 layer_factory.hpp:77] Creating layer conv2/3x3_reduce
I0913 20:37:56.396170  7755 net.cpp:91] Creating Layer conv2/3x3_reduce
I0913 20:37:56.396175  7755 net.cpp:425] conv2/3x3_reduce <- pool1/norm1
I0913 20:37:56.396183  7755 net.cpp:399] conv2/3x3_reduce -> conv2/3x3_reduce
I0913 20:37:56.398178  7755 net.cpp:141] Setting up conv2/3x3_reduce
I0913 20:37:56.398196  7755 net.cpp:148] Top shape: 10 64 56 56 (2007040)
I0913 20:37:56.398201  7755 net.cpp:156] Memory required for data: 94330880
I0913 20:37:56.398212  7755 layer_factory.hpp:77] Creating layer conv2/relu_3x3_reduce
I0913 20:37:56.398221  7755 net.cpp:91] Creating Layer conv2/relu_3x3_reduce
I0913 20:37:56.398226  7755 net.cpp:425] conv2/relu_3x3_reduce <- conv2/3x3_reduce
I0913 20:37:56.398233  7755 net.cpp:386] conv2/relu_3x3_reduce -> conv2/3x3_reduce (in-place)
I0913 20:37:56.398609  7755 net.cpp:141] Setting up conv2/relu_3x3_reduce
I0913 20:37:56.398622  7755 net.cpp:148] Top shape: 10 64 56 56 (2007040)
I0913 20:37:56.398627  7755 net.cpp:156] Memory required for data: 102359040
I0913 20:37:56.398633  7755 layer_factory.hpp:77] Creating layer conv2/3x3
I0913 20:37:56.398644  7755 net.cpp:91] Creating Layer conv2/3x3
I0913 20:37:56.398649  7755 net.cpp:425] conv2/3x3 <- conv2/3x3_reduce
I0913 20:37:56.398658  7755 net.cpp:399] conv2/3x3 -> conv2/3x3
I0913 20:37:56.401842  7755 net.cpp:141] Setting up conv2/3x3
I0913 20:37:56.401866  7755 net.cpp:148] Top shape: 10 192 56 56 (6021120)
I0913 20:37:56.401876  7755 net.cpp:156] Memory required for data: 126443520
I0913 20:37:56.401897  7755 layer_factory.hpp:77] Creating layer conv2/relu_3x3
I0913 20:37:56.401921  7755 net.cpp:91] Creating Layer conv2/relu_3x3
I0913 20:37:56.401932  7755 net.cpp:425] conv2/relu_3x3 <- conv2/3x3
I0913 20:37:56.401947  7755 net.cpp:386] conv2/relu_3x3 -> conv2/3x3 (in-place)
I0913 20:37:56.402333  7755 net.cpp:141] Setting up conv2/relu_3x3
I0913 20:37:56.402350  7755 net.cpp:148] Top shape: 10 192 56 56 (6021120)
I0913 20:37:56.402360  7755 net.cpp:156] Memory required for data: 150528000
I0913 20:37:56.402369  7755 layer_factory.hpp:77] Creating layer conv2/norm2
I0913 20:37:56.402392  7755 net.cpp:91] Creating Layer conv2/norm2
I0913 20:37:56.402405  7755 net.cpp:425] conv2/norm2 <- conv2/3x3
I0913 20:37:56.402417  7755 net.cpp:399] conv2/norm2 -> conv2/norm2
I0913 20:37:56.403131  7755 net.cpp:141] Setting up conv2/norm2
I0913 20:37:56.403151  7755 net.cpp:148] Top shape: 10 192 56 56 (6021120)
I0913 20:37:56.403161  7755 net.cpp:156] Memory required for data: 174612480
I0913 20:37:56.403169  7755 layer_factory.hpp:77] Creating layer pool2/3x3_s2
I0913 20:37:56.403192  7755 net.cpp:91] Creating Layer pool2/3x3_s2
I0913 20:37:56.403204  7755 net.cpp:425] pool2/3x3_s2 <- conv2/norm2
I0913 20:37:56.403226  7755 net.cpp:399] pool2/3x3_s2 -> pool2/3x3_s2
I0913 20:37:56.403316  7755 net.cpp:141] Setting up pool2/3x3_s2
I0913 20:37:56.403334  7755 net.cpp:148] Top shape: 10 192 28 28 (1505280)
I0913 20:37:56.403343  7755 net.cpp:156] Memory required for data: 180633600
I0913 20:37:56.403352  7755 layer_factory.hpp:77] Creating layer pool2/3x3_s2_pool2/3x3_s2_0_split
I0913 20:37:56.403383  7755 net.cpp:91] Creating Layer pool2/3x3_s2_pool2/3x3_s2_0_split
I0913 20:37:56.403395  7755 net.cpp:425] pool2/3x3_s2_pool2/3x3_s2_0_split <- pool2/3x3_s2
I0913 20:37:56.403409  7755 net.cpp:399] pool2/3x3_s2_pool2/3x3_s2_0_split -> pool2/3x3_s2_pool2/3x3_s2_0_split_0
I0913 20:37:56.403425  7755 net.cpp:399] pool2/3x3_s2_pool2/3x3_s2_0_split -> pool2/3x3_s2_pool2/3x3_s2_0_split_1
I0913 20:37:56.403439  7755 net.cpp:399] pool2/3x3_s2_pool2/3x3_s2_0_split -> pool2/3x3_s2_pool2/3x3_s2_0_split_2
I0913 20:37:56.403457  7755 net.cpp:399] pool2/3x3_s2_pool2/3x3_s2_0_split -> pool2/3x3_s2_pool2/3x3_s2_0_split_3
I0913 20:37:56.403594  7755 net.cpp:141] Setting up pool2/3x3_s2_pool2/3x3_s2_0_split
I0913 20:37:56.403612  7755 net.cpp:148] Top shape: 10 192 28 28 (1505280)
I0913 20:37:56.403625  7755 net.cpp:148] Top shape: 10 192 28 28 (1505280)
I0913 20:37:56.403635  7755 net.cpp:148] Top shape: 10 192 28 28 (1505280)
I0913 20:37:56.403646  7755 net.cpp:148] Top shape: 10 192 28 28 (1505280)
I0913 20:37:56.403655  7755 net.cpp:156] Memory required for data: 204718080
I0913 20:37:56.403663  7755 layer_factory.hpp:77] Creating layer inception_3a/1x1
I0913 20:37:56.403694  7755 net.cpp:91] Creating Layer inception_3a/1x1
I0913 20:37:56.403707  7755 net.cpp:425] inception_3a/1x1 <- pool2/3x3_s2_pool2/3x3_s2_0_split_0
I0913 20:37:56.403753  7755 net.cpp:399] inception_3a/1x1 -> inception_3a/1x1
I0913 20:37:56.406674  7755 net.cpp:141] Setting up inception_3a/1x1
I0913 20:37:56.406695  7755 net.cpp:148] Top shape: 10 64 28 28 (501760)
I0913 20:37:56.406705  7755 net.cpp:156] Memory required for data: 206725120
I0913 20:37:56.406723  7755 layer_factory.hpp:77] Creating layer inception_3a/relu_1x1
I0913 20:37:56.406738  7755 net.cpp:91] Creating Layer inception_3a/relu_1x1
I0913 20:37:56.406747  7755 net.cpp:425] inception_3a/relu_1x1 <- inception_3a/1x1
I0913 20:37:56.406765  7755 net.cpp:386] inception_3a/relu_1x1 -> inception_3a/1x1 (in-place)
I0913 20:37:56.407371  7755 net.cpp:141] Setting up inception_3a/relu_1x1
I0913 20:37:56.407389  7755 net.cpp:148] Top shape: 10 64 28 28 (501760)
I0913 20:37:56.407398  7755 net.cpp:156] Memory required for data: 208732160
I0913 20:37:56.407408  7755 layer_factory.hpp:77] Creating layer inception_3a/3x3_reduce
I0913 20:37:56.407433  7755 net.cpp:91] Creating Layer inception_3a/3x3_reduce
I0913 20:37:56.407446  7755 net.cpp:425] inception_3a/3x3_reduce <- pool2/3x3_s2_pool2/3x3_s2_0_split_1
I0913 20:37:56.407467  7755 net.cpp:399] inception_3a/3x3_reduce -> inception_3a/3x3_reduce
I0913 20:37:56.410214  7755 net.cpp:141] Setting up inception_3a/3x3_reduce
I0913 20:37:56.410235  7755 net.cpp:148] Top shape: 10 96 28 28 (752640)
I0913 20:37:56.410244  7755 net.cpp:156] Memory required for data: 211742720
I0913 20:37:56.410271  7755 layer_factory.hpp:77] Creating layer inception_3a/relu_3x3_reduce
I0913 20:37:56.410287  7755 net.cpp:91] Creating Layer inception_3a/relu_3x3_reduce
I0913 20:37:56.410297  7755 net.cpp:425] inception_3a/relu_3x3_reduce <- inception_3a/3x3_reduce
I0913 20:37:56.410312  7755 net.cpp:386] inception_3a/relu_3x3_reduce -> inception_3a/3x3_reduce (in-place)
I0913 20:37:56.410708  7755 net.cpp:141] Setting up inception_3a/relu_3x3_reduce
I0913 20:37:56.410727  7755 net.cpp:148] Top shape: 10 96 28 28 (752640)
I0913 20:37:56.410737  7755 net.cpp:156] Memory required for data: 214753280
I0913 20:37:56.410747  7755 layer_factory.hpp:77] Creating layer inception_3a/3x3
I0913 20:37:56.410778  7755 net.cpp:91] Creating Layer inception_3a/3x3
I0913 20:37:56.410790  7755 net.cpp:425] inception_3a/3x3 <- inception_3a/3x3_reduce
I0913 20:37:56.410807  7755 net.cpp:399] inception_3a/3x3 -> inception_3a/3x3
I0913 20:37:56.413286  7755 net.cpp:141] Setting up inception_3a/3x3
I0913 20:37:56.413317  7755 net.cpp:148] Top shape: 10 128 28 28 (1003520)
I0913 20:37:56.413326  7755 net.cpp:156] Memory required for data: 218767360
I0913 20:37:56.413342  7755 layer_factory.hpp:77] Creating layer inception_3a/relu_3x3
I0913 20:37:56.413359  7755 net.cpp:91] Creating Layer inception_3a/relu_3x3
I0913 20:37:56.413369  7755 net.cpp:425] inception_3a/relu_3x3 <- inception_3a/3x3
I0913 20:37:56.413383  7755 net.cpp:386] inception_3a/relu_3x3 -> inception_3a/3x3 (in-place)
I0913 20:37:56.413995  7755 net.cpp:141] Setting up inception_3a/relu_3x3
I0913 20:37:56.414017  7755 net.cpp:148] Top shape: 10 128 28 28 (1003520)
I0913 20:37:56.414028  7755 net.cpp:156] Memory required for data: 222781440
I0913 20:37:56.414038  7755 layer_factory.hpp:77] Creating layer inception_3a/5x5_reduce
I0913 20:37:56.414062  7755 net.cpp:91] Creating Layer inception_3a/5x5_reduce
I0913 20:37:56.414072  7755 net.cpp:425] inception_3a/5x5_reduce <- pool2/3x3_s2_pool2/3x3_s2_0_split_2
I0913 20:37:56.414088  7755 net.cpp:399] inception_3a/5x5_reduce -> inception_3a/5x5_reduce
I0913 20:37:56.415634  7755 net.cpp:141] Setting up inception_3a/5x5_reduce
I0913 20:37:56.415658  7755 net.cpp:148] Top shape: 10 16 28 28 (125440)
I0913 20:37:56.415668  7755 net.cpp:156] Memory required for data: 223283200
I0913 20:37:56.415683  7755 layer_factory.hpp:77] Creating layer inception_3a/relu_5x5_reduce
I0913 20:37:56.415696  7755 net.cpp:91] Creating Layer inception_3a/relu_5x5_reduce
I0913 20:37:56.415706  7755 net.cpp:425] inception_3a/relu_5x5_reduce <- inception_3a/5x5_reduce
I0913 20:37:56.415719  7755 net.cpp:386] inception_3a/relu_5x5_reduce -> inception_3a/5x5_reduce (in-place)
I0913 20:37:56.416345  7755 net.cpp:141] Setting up inception_3a/relu_5x5_reduce
I0913 20:37:56.416365  7755 net.cpp:148] Top shape: 10 16 28 28 (125440)
I0913 20:37:56.416375  7755 net.cpp:156] Memory required for data: 223784960
I0913 20:37:56.416384  7755 layer_factory.hpp:77] Creating layer inception_3a/5x5
I0913 20:37:56.416417  7755 net.cpp:91] Creating Layer inception_3a/5x5
I0913 20:37:56.416429  7755 net.cpp:425] inception_3a/5x5 <- inception_3a/5x5_reduce
I0913 20:37:56.416450  7755 net.cpp:399] inception_3a/5x5 -> inception_3a/5x5
I0913 20:37:56.418655  7755 net.cpp:141] Setting up inception_3a/5x5
I0913 20:37:56.418676  7755 net.cpp:148] Top shape: 10 32 28 28 (250880)
I0913 20:37:56.418686  7755 net.cpp:156] Memory required for data: 224788480
I0913 20:37:56.418702  7755 layer_factory.hpp:77] Creating layer inception_3a/relu_5x5
I0913 20:37:56.418716  7755 net.cpp:91] Creating Layer inception_3a/relu_5x5
I0913 20:37:56.418726  7755 net.cpp:425] inception_3a/relu_5x5 <- inception_3a/5x5
I0913 20:37:56.418745  7755 net.cpp:386] inception_3a/relu_5x5 -> inception_3a/5x5 (in-place)
I0913 20:37:56.419138  7755 net.cpp:141] Setting up inception_3a/relu_5x5
I0913 20:37:56.419160  7755 net.cpp:148] Top shape: 10 32 28 28 (250880)
I0913 20:37:56.419169  7755 net.cpp:156] Memory required for data: 225792000
I0913 20:37:56.419178  7755 layer_factory.hpp:77] Creating layer inception_3a/pool
I0913 20:37:56.419194  7755 net.cpp:91] Creating Layer inception_3a/pool
I0913 20:37:56.419205  7755 net.cpp:425] inception_3a/pool <- pool2/3x3_s2_pool2/3x3_s2_0_split_3
I0913 20:37:56.419219  7755 net.cpp:399] inception_3a/pool -> inception_3a/pool
I0913 20:37:56.419319  7755 net.cpp:141] Setting up inception_3a/pool
I0913 20:37:56.419337  7755 net.cpp:148] Top shape: 10 192 28 28 (1505280)
I0913 20:37:56.419345  7755 net.cpp:156] Memory required for data: 231813120
I0913 20:37:56.419354  7755 layer_factory.hpp:77] Creating layer inception_3a/pool_proj
I0913 20:37:56.419379  7755 net.cpp:91] Creating Layer inception_3a/pool_proj
I0913 20:37:56.419391  7755 net.cpp:425] inception_3a/pool_proj <- inception_3a/pool
I0913 20:37:56.419411  7755 net.cpp:399] inception_3a/pool_proj -> inception_3a/pool_proj
I0913 20:37:56.421371  7755 net.cpp:141] Setting up inception_3a/pool_proj
I0913 20:37:56.421392  7755 net.cpp:148] Top shape: 10 32 28 28 (250880)
I0913 20:37:56.421401  7755 net.cpp:156] Memory required for data: 232816640
I0913 20:37:56.421427  7755 layer_factory.hpp:77] Creating layer inception_3a/relu_pool_proj
I0913 20:37:56.421445  7755 net.cpp:91] Creating Layer inception_3a/relu_pool_proj
I0913 20:37:56.421457  7755 net.cpp:425] inception_3a/relu_pool_proj <- inception_3a/pool_proj
I0913 20:37:56.421469  7755 net.cpp:386] inception_3a/relu_pool_proj -> inception_3a/pool_proj (in-place)
I0913 20:37:56.422073  7755 net.cpp:141] Setting up inception_3a/relu_pool_proj
I0913 20:37:56.422092  7755 net.cpp:148] Top shape: 10 32 28 28 (250880)
I0913 20:37:56.422101  7755 net.cpp:156] Memory required for data: 233820160
I0913 20:37:56.422111  7755 layer_factory.hpp:77] Creating layer inception_3a/output
I0913 20:37:56.422143  7755 net.cpp:91] Creating Layer inception_3a/output
I0913 20:37:56.422155  7755 net.cpp:425] inception_3a/output <- inception_3a/1x1
I0913 20:37:56.422166  7755 net.cpp:425] inception_3a/output <- inception_3a/3x3
I0913 20:37:56.422176  7755 net.cpp:425] inception_3a/output <- inception_3a/5x5
I0913 20:37:56.422186  7755 net.cpp:425] inception_3a/output <- inception_3a/pool_proj
I0913 20:37:56.422199  7755 net.cpp:399] inception_3a/output -> inception_3a/output
I0913 20:37:56.422260  7755 net.cpp:141] Setting up inception_3a/output
I0913 20:37:56.422276  7755 net.cpp:148] Top shape: 10 256 28 28 (2007040)
I0913 20:37:56.422286  7755 net.cpp:156] Memory required for data: 241848320
I0913 20:37:56.422294  7755 layer_factory.hpp:77] Creating layer inception_3a/output_inception_3a/output_0_split
I0913 20:37:56.422308  7755 net.cpp:91] Creating Layer inception_3a/output_inception_3a/output_0_split
I0913 20:37:56.422318  7755 net.cpp:425] inception_3a/output_inception_3a/output_0_split <- inception_3a/output
I0913 20:37:56.422336  7755 net.cpp:399] inception_3a/output_inception_3a/output_0_split -> inception_3a/output_inception_3a/output_0_split_0
I0913 20:37:56.422353  7755 net.cpp:399] inception_3a/output_inception_3a/output_0_split -> inception_3a/output_inception_3a/output_0_split_1
I0913 20:37:56.422370  7755 net.cpp:399] inception_3a/output_inception_3a/output_0_split -> inception_3a/output_inception_3a/output_0_split_2
I0913 20:37:56.422385  7755 net.cpp:399] inception_3a/output_inception_3a/output_0_split -> inception_3a/output_inception_3a/output_0_split_3
I0913 20:37:56.422534  7755 net.cpp:141] Setting up inception_3a/output_inception_3a/output_0_split
I0913 20:37:56.422551  7755 net.cpp:148] Top shape: 10 256 28 28 (2007040)
I0913 20:37:56.422564  7755 net.cpp:148] Top shape: 10 256 28 28 (2007040)
I0913 20:37:56.422574  7755 net.cpp:148] Top shape: 10 256 28 28 (2007040)
I0913 20:37:56.422585  7755 net.cpp:148] Top shape: 10 256 28 28 (2007040)
I0913 20:37:56.422593  7755 net.cpp:156] Memory required for data: 273960960
I0913 20:37:56.422602  7755 layer_factory.hpp:77] Creating layer inception_3b/1x1
I0913 20:37:56.422626  7755 net.cpp:91] Creating Layer inception_3b/1x1
I0913 20:37:56.422638  7755 net.cpp:425] inception_3b/1x1 <- inception_3a/output_inception_3a/output_0_split_0
I0913 20:37:56.422655  7755 net.cpp:399] inception_3b/1x1 -> inception_3b/1x1
I0913 20:37:56.425041  7755 net.cpp:141] Setting up inception_3b/1x1
I0913 20:37:56.425065  7755 net.cpp:148] Top shape: 10 128 28 28 (1003520)
I0913 20:37:56.425074  7755 net.cpp:156] Memory required for data: 277975040
I0913 20:37:56.425089  7755 layer_factory.hpp:77] Creating layer inception_3b/relu_1x1
I0913 20:37:56.425103  7755 net.cpp:91] Creating Layer inception_3b/relu_1x1
I0913 20:37:56.425113  7755 net.cpp:425] inception_3b/relu_1x1 <- inception_3b/1x1
I0913 20:37:56.425127  7755 net.cpp:386] inception_3b/relu_1x1 -> inception_3b/1x1 (in-place)
I0913 20:37:56.425735  7755 net.cpp:141] Setting up inception_3b/relu_1x1
I0913 20:37:56.425755  7755 net.cpp:148] Top shape: 10 128 28 28 (1003520)
I0913 20:37:56.425763  7755 net.cpp:156] Memory required for data: 281989120
I0913 20:37:56.425773  7755 layer_factory.hpp:77] Creating layer inception_3b/3x3_reduce
I0913 20:37:56.425798  7755 net.cpp:91] Creating Layer inception_3b/3x3_reduce
I0913 20:37:56.425811  7755 net.cpp:425] inception_3b/3x3_reduce <- inception_3a/output_inception_3a/output_0_split_1
I0913 20:37:56.425832  7755 net.cpp:399] inception_3b/3x3_reduce -> inception_3b/3x3_reduce
I0913 20:37:56.427714  7755 net.cpp:141] Setting up inception_3b/3x3_reduce
I0913 20:37:56.427736  7755 net.cpp:148] Top shape: 10 128 28 28 (1003520)
I0913 20:37:56.427745  7755 net.cpp:156] Memory required for data: 286003200
I0913 20:37:56.427760  7755 layer_factory.hpp:77] Creating layer inception_3b/relu_3x3_reduce
I0913 20:37:56.427778  7755 net.cpp:91] Creating Layer inception_3b/relu_3x3_reduce
I0913 20:37:56.427789  7755 net.cpp:425] inception_3b/relu_3x3_reduce <- inception_3b/3x3_reduce
I0913 20:37:56.427803  7755 net.cpp:386] inception_3b/relu_3x3_reduce -> inception_3b/3x3_reduce (in-place)
I0913 20:37:56.428195  7755 net.cpp:141] Setting up inception_3b/relu_3x3_reduce
I0913 20:37:56.428215  7755 net.cpp:148] Top shape: 10 128 28 28 (1003520)
I0913 20:37:56.428225  7755 net.cpp:156] Memory required for data: 290017280
I0913 20:37:56.428233  7755 layer_factory.hpp:77] Creating layer inception_3b/3x3
I0913 20:37:56.428259  7755 net.cpp:91] Creating Layer inception_3b/3x3
I0913 20:37:56.428272  7755 net.cpp:425] inception_3b/3x3 <- inception_3b/3x3_reduce
I0913 20:37:56.428293  7755 net.cpp:399] inception_3b/3x3 -> inception_3b/3x3
I0913 20:37:56.432363  7755 net.cpp:141] Setting up inception_3b/3x3
I0913 20:37:56.432385  7755 net.cpp:148] Top shape: 10 192 28 28 (1505280)
I0913 20:37:56.432395  7755 net.cpp:156] Memory required for data: 296038400
I0913 20:37:56.432410  7755 layer_factory.hpp:77] Creating layer inception_3b/relu_3x3
I0913 20:37:56.432432  7755 net.cpp:91] Creating Layer inception_3b/relu_3x3
I0913 20:37:56.432442  7755 net.cpp:425] inception_3b/relu_3x3 <- inception_3b/3x3
I0913 20:37:56.432456  7755 net.cpp:386] inception_3b/relu_3x3 -> inception_3b/3x3 (in-place)
I0913 20:37:56.433070  7755 net.cpp:141] Setting up inception_3b/relu_3x3
I0913 20:37:56.433089  7755 net.cpp:148] Top shape: 10 192 28 28 (1505280)
I0913 20:37:56.433099  7755 net.cpp:156] Memory required for data: 302059520
I0913 20:37:56.433109  7755 layer_factory.hpp:77] Creating layer inception_3b/5x5_reduce
I0913 20:37:56.433133  7755 net.cpp:91] Creating Layer inception_3b/5x5_reduce
I0913 20:37:56.433145  7755 net.cpp:425] inception_3b/5x5_reduce <- inception_3a/output_inception_3a/output_0_split_2
I0913 20:37:56.433164  7755 net.cpp:399] inception_3b/5x5_reduce -> inception_3b/5x5_reduce
I0913 20:37:56.434691  7755 net.cpp:141] Setting up inception_3b/5x5_reduce
I0913 20:37:56.434711  7755 net.cpp:148] Top shape: 10 32 28 28 (250880)
I0913 20:37:56.434720  7755 net.cpp:156] Memory required for data: 303063040
I0913 20:37:56.434736  7755 layer_factory.hpp:77] Creating layer inception_3b/relu_5x5_reduce
I0913 20:37:56.434756  7755 net.cpp:91] Creating Layer inception_3b/relu_5x5_reduce
I0913 20:37:56.434767  7755 net.cpp:425] inception_3b/relu_5x5_reduce <- inception_3b/5x5_reduce
I0913 20:37:56.434779  7755 net.cpp:386] inception_3b/relu_5x5_reduce -> inception_3b/5x5_reduce (in-place)
I0913 20:37:56.435394  7755 net.cpp:141] Setting up inception_3b/relu_5x5_reduce
I0913 20:37:56.435411  7755 net.cpp:148] Top shape: 10 32 28 28 (250880)
I0913 20:37:56.435421  7755 net.cpp:156] Memory required for data: 304066560
I0913 20:37:56.435431  7755 layer_factory.hpp:77] Creating layer inception_3b/5x5
I0913 20:37:56.435456  7755 net.cpp:91] Creating Layer inception_3b/5x5
I0913 20:37:56.435467  7755 net.cpp:425] inception_3b/5x5 <- inception_3b/5x5_reduce
I0913 20:37:56.435488  7755 net.cpp:399] inception_3b/5x5 -> inception_3b/5x5
I0913 20:37:56.438432  7755 net.cpp:141] Setting up inception_3b/5x5
I0913 20:37:56.438455  7755 net.cpp:148] Top shape: 10 96 28 28 (752640)
I0913 20:37:56.438464  7755 net.cpp:156] Memory required for data: 307077120
I0913 20:37:56.438480  7755 layer_factory.hpp:77] Creating layer inception_3b/relu_5x5
I0913 20:37:56.438494  7755 net.cpp:91] Creating Layer inception_3b/relu_5x5
I0913 20:37:56.438504  7755 net.cpp:425] inception_3b/relu_5x5 <- inception_3b/5x5
I0913 20:37:56.438518  7755 net.cpp:386] inception_3b/relu_5x5 -> inception_3b/5x5 (in-place)
I0913 20:37:56.438902  7755 net.cpp:141] Setting up inception_3b/relu_5x5
I0913 20:37:56.438921  7755 net.cpp:148] Top shape: 10 96 28 28 (752640)
I0913 20:37:56.438930  7755 net.cpp:156] Memory required for data: 310087680
I0913 20:37:56.438940  7755 layer_factory.hpp:77] Creating layer inception_3b/pool
I0913 20:37:56.438957  7755 net.cpp:91] Creating Layer inception_3b/pool
I0913 20:37:56.438969  7755 net.cpp:425] inception_3b/pool <- inception_3a/output_inception_3a/output_0_split_3
I0913 20:37:56.438983  7755 net.cpp:399] inception_3b/pool -> inception_3b/pool
I0913 20:37:56.439085  7755 net.cpp:141] Setting up inception_3b/pool
I0913 20:37:56.439101  7755 net.cpp:148] Top shape: 10 256 28 28 (2007040)
I0913 20:37:56.439110  7755 net.cpp:156] Memory required for data: 318115840
I0913 20:37:56.439118  7755 layer_factory.hpp:77] Creating layer inception_3b/pool_proj
I0913 20:37:56.439142  7755 net.cpp:91] Creating Layer inception_3b/pool_proj
I0913 20:37:56.439155  7755 net.cpp:425] inception_3b/pool_proj <- inception_3b/pool
I0913 20:37:56.439175  7755 net.cpp:399] inception_3b/pool_proj -> inception_3b/pool_proj
I0913 20:37:56.441187  7755 net.cpp:141] Setting up inception_3b/pool_proj
I0913 20:37:56.441208  7755 net.cpp:148] Top shape: 10 64 28 28 (501760)
I0913 20:37:56.441217  7755 net.cpp:156] Memory required for data: 320122880
I0913 20:37:56.441234  7755 layer_factory.hpp:77] Creating layer inception_3b/relu_pool_proj
I0913 20:37:56.441247  7755 net.cpp:91] Creating Layer inception_3b/relu_pool_proj
I0913 20:37:56.441259  7755 net.cpp:425] inception_3b/relu_pool_proj <- inception_3b/pool_proj
I0913 20:37:56.441283  7755 net.cpp:386] inception_3b/relu_pool_proj -> inception_3b/pool_proj (in-place)
I0913 20:37:56.441893  7755 net.cpp:141] Setting up inception_3b/relu_pool_proj
I0913 20:37:56.441915  7755 net.cpp:148] Top shape: 10 64 28 28 (501760)
I0913 20:37:56.441923  7755 net.cpp:156] Memory required for data: 322129920
I0913 20:37:56.441933  7755 layer_factory.hpp:77] Creating layer inception_3b/output
I0913 20:37:56.441947  7755 net.cpp:91] Creating Layer inception_3b/output
I0913 20:37:56.441957  7755 net.cpp:425] inception_3b/output <- inception_3b/1x1
I0913 20:37:56.441974  7755 net.cpp:425] inception_3b/output <- inception_3b/3x3
I0913 20:37:56.441987  7755 net.cpp:425] inception_3b/output <- inception_3b/5x5
I0913 20:37:56.441998  7755 net.cpp:425] inception_3b/output <- inception_3b/pool_proj
I0913 20:37:56.442011  7755 net.cpp:399] inception_3b/output -> inception_3b/output
I0913 20:37:56.442075  7755 net.cpp:141] Setting up inception_3b/output
I0913 20:37:56.442091  7755 net.cpp:148] Top shape: 10 480 28 28 (3763200)
I0913 20:37:56.442101  7755 net.cpp:156] Memory required for data: 337182720
I0913 20:37:56.442111  7755 layer_factory.hpp:77] Creating layer pool3/3x3_s2
I0913 20:37:56.442124  7755 net.cpp:91] Creating Layer pool3/3x3_s2
I0913 20:37:56.442136  7755 net.cpp:425] pool3/3x3_s2 <- inception_3b/output
I0913 20:37:56.442154  7755 net.cpp:399] pool3/3x3_s2 -> pool3/3x3_s2
I0913 20:37:56.442262  7755 net.cpp:141] Setting up pool3/3x3_s2
I0913 20:37:56.442279  7755 net.cpp:148] Top shape: 10 480 14 14 (940800)
I0913 20:37:56.442288  7755 net.cpp:156] Memory required for data: 340945920
I0913 20:37:56.442297  7755 layer_factory.hpp:77] Creating layer pool3/3x3_s2_pool3/3x3_s2_0_split
I0913 20:37:56.442312  7755 net.cpp:91] Creating Layer pool3/3x3_s2_pool3/3x3_s2_0_split
I0913 20:37:56.442322  7755 net.cpp:425] pool3/3x3_s2_pool3/3x3_s2_0_split <- pool3/3x3_s2
I0913 20:37:56.442338  7755 net.cpp:399] pool3/3x3_s2_pool3/3x3_s2_0_split -> pool3/3x3_s2_pool3/3x3_s2_0_split_0
I0913 20:37:56.442355  7755 net.cpp:399] pool3/3x3_s2_pool3/3x3_s2_0_split -> pool3/3x3_s2_pool3/3x3_s2_0_split_1
I0913 20:37:56.442371  7755 net.cpp:399] pool3/3x3_s2_pool3/3x3_s2_0_split -> pool3/3x3_s2_pool3/3x3_s2_0_split_2
I0913 20:37:56.442384  7755 net.cpp:399] pool3/3x3_s2_pool3/3x3_s2_0_split -> pool3/3x3_s2_pool3/3x3_s2_0_split_3
I0913 20:37:56.442533  7755 net.cpp:141] Setting up pool3/3x3_s2_pool3/3x3_s2_0_split
I0913 20:37:56.442553  7755 net.cpp:148] Top shape: 10 480 14 14 (940800)
I0913 20:37:56.442564  7755 net.cpp:148] Top shape: 10 480 14 14 (940800)
I0913 20:37:56.442575  7755 net.cpp:148] Top shape: 10 480 14 14 (940800)
I0913 20:37:56.442585  7755 net.cpp:148] Top shape: 10 480 14 14 (940800)
I0913 20:37:56.442594  7755 net.cpp:156] Memory required for data: 355998720
I0913 20:37:56.442602  7755 layer_factory.hpp:77] Creating layer inception_4a/1x1
I0913 20:37:56.442628  7755 net.cpp:91] Creating Layer inception_4a/1x1
I0913 20:37:56.442641  7755 net.cpp:425] inception_4a/1x1 <- pool3/3x3_s2_pool3/3x3_s2_0_split_0
I0913 20:37:56.442657  7755 net.cpp:399] inception_4a/1x1 -> inception_4a/1x1
I0913 20:37:56.445670  7755 net.cpp:141] Setting up inception_4a/1x1
I0913 20:37:56.445693  7755 net.cpp:148] Top shape: 10 192 14 14 (376320)
I0913 20:37:56.445703  7755 net.cpp:156] Memory required for data: 357504000
I0913 20:37:56.445720  7755 layer_factory.hpp:77] Creating layer inception_4a/relu_1x1
I0913 20:37:56.445740  7755 net.cpp:91] Creating Layer inception_4a/relu_1x1
I0913 20:37:56.445754  7755 net.cpp:425] inception_4a/relu_1x1 <- inception_4a/1x1
I0913 20:37:56.445766  7755 net.cpp:386] inception_4a/relu_1x1 -> inception_4a/1x1 (in-place)
I0913 20:37:56.446374  7755 net.cpp:141] Setting up inception_4a/relu_1x1
I0913 20:37:56.446393  7755 net.cpp:148] Top shape: 10 192 14 14 (376320)
I0913 20:37:56.446403  7755 net.cpp:156] Memory required for data: 359009280
I0913 20:37:56.446413  7755 layer_factory.hpp:77] Creating layer inception_4a/3x3_reduce
I0913 20:37:56.446441  7755 net.cpp:91] Creating Layer inception_4a/3x3_reduce
I0913 20:37:56.446455  7755 net.cpp:425] inception_4a/3x3_reduce <- pool3/3x3_s2_pool3/3x3_s2_0_split_1
I0913 20:37:56.446472  7755 net.cpp:399] inception_4a/3x3_reduce -> inception_4a/3x3_reduce
I0913 20:37:56.449026  7755 net.cpp:141] Setting up inception_4a/3x3_reduce
I0913 20:37:56.449045  7755 net.cpp:148] Top shape: 10 96 14 14 (188160)
I0913 20:37:56.449054  7755 net.cpp:156] Memory required for data: 359761920
I0913 20:37:56.449082  7755 layer_factory.hpp:77] Creating layer inception_4a/relu_3x3_reduce
I0913 20:37:56.449095  7755 net.cpp:91] Creating Layer inception_4a/relu_3x3_reduce
I0913 20:37:56.449102  7755 net.cpp:425] inception_4a/relu_3x3_reduce <- inception_4a/3x3_reduce
I0913 20:37:56.449117  7755 net.cpp:386] inception_4a/relu_3x3_reduce -> inception_4a/3x3_reduce (in-place)
I0913 20:37:56.449424  7755 net.cpp:141] Setting up inception_4a/relu_3x3_reduce
I0913 20:37:56.449441  7755 net.cpp:148] Top shape: 10 96 14 14 (188160)
I0913 20:37:56.449448  7755 net.cpp:156] Memory required for data: 360514560
I0913 20:37:56.449456  7755 layer_factory.hpp:77] Creating layer inception_4a/3x3
I0913 20:37:56.449476  7755 net.cpp:91] Creating Layer inception_4a/3x3
I0913 20:37:56.449486  7755 net.cpp:425] inception_4a/3x3 <- inception_4a/3x3_reduce
I0913 20:37:56.449498  7755 net.cpp:399] inception_4a/3x3 -> inception_4a/3x3
I0913 20:37:56.453770  7755 net.cpp:141] Setting up inception_4a/3x3
I0913 20:37:56.453793  7755 net.cpp:148] Top shape: 10 208 14 14 (407680)
I0913 20:37:56.453802  7755 net.cpp:156] Memory required for data: 362145280
I0913 20:37:56.453819  7755 layer_factory.hpp:77] Creating layer inception_4a/relu_3x3
I0913 20:37:56.453838  7755 net.cpp:91] Creating Layer inception_4a/relu_3x3
I0913 20:37:56.453850  7755 net.cpp:425] inception_4a/relu_3x3 <- inception_4a/3x3
I0913 20:37:56.453865  7755 net.cpp:386] inception_4a/relu_3x3 -> inception_4a/3x3 (in-place)
I0913 20:37:56.454496  7755 net.cpp:141] Setting up inception_4a/relu_3x3
I0913 20:37:56.454519  7755 net.cpp:148] Top shape: 10 208 14 14 (407680)
I0913 20:37:56.454530  7755 net.cpp:156] Memory required for data: 363776000
I0913 20:37:56.454540  7755 layer_factory.hpp:77] Creating layer inception_4a/5x5_reduce
I0913 20:37:56.454565  7755 net.cpp:91] Creating Layer inception_4a/5x5_reduce
I0913 20:37:56.454578  7755 net.cpp:425] inception_4a/5x5_reduce <- pool3/3x3_s2_pool3/3x3_s2_0_split_2
I0913 20:37:56.454596  7755 net.cpp:399] inception_4a/5x5_reduce -> inception_4a/5x5_reduce
I0913 20:37:56.456323  7755 net.cpp:141] Setting up inception_4a/5x5_reduce
I0913 20:37:56.456346  7755 net.cpp:148] Top shape: 10 16 14 14 (31360)
I0913 20:37:56.456354  7755 net.cpp:156] Memory required for data: 363901440
I0913 20:37:56.456370  7755 layer_factory.hpp:77] Creating layer inception_4a/relu_5x5_reduce
I0913 20:37:56.456384  7755 net.cpp:91] Creating Layer inception_4a/relu_5x5_reduce
I0913 20:37:56.456395  7755 net.cpp:425] inception_4a/relu_5x5_reduce <- inception_4a/5x5_reduce
I0913 20:37:56.456414  7755 net.cpp:386] inception_4a/relu_5x5_reduce -> inception_4a/5x5_reduce (in-place)
I0913 20:37:56.457031  7755 net.cpp:141] Setting up inception_4a/relu_5x5_reduce
I0913 20:37:56.457052  7755 net.cpp:148] Top shape: 10 16 14 14 (31360)
I0913 20:37:56.457062  7755 net.cpp:156] Memory required for data: 364026880
I0913 20:37:56.457072  7755 layer_factory.hpp:77] Creating layer inception_4a/5x5
I0913 20:37:56.457096  7755 net.cpp:91] Creating Layer inception_4a/5x5
I0913 20:37:56.457108  7755 net.cpp:425] inception_4a/5x5 <- inception_4a/5x5_reduce
I0913 20:37:56.457129  7755 net.cpp:399] inception_4a/5x5 -> inception_4a/5x5
I0913 20:37:56.458907  7755 net.cpp:141] Setting up inception_4a/5x5
I0913 20:37:56.458927  7755 net.cpp:148] Top shape: 10 48 14 14 (94080)
I0913 20:37:56.458936  7755 net.cpp:156] Memory required for data: 364403200
I0913 20:37:56.458952  7755 layer_factory.hpp:77] Creating layer inception_4a/relu_5x5
I0913 20:37:56.458966  7755 net.cpp:91] Creating Layer inception_4a/relu_5x5
I0913 20:37:56.458977  7755 net.cpp:425] inception_4a/relu_5x5 <- inception_4a/5x5
I0913 20:37:56.458997  7755 net.cpp:386] inception_4a/relu_5x5 -> inception_4a/5x5 (in-place)
I0913 20:37:56.459391  7755 net.cpp:141] Setting up inception_4a/relu_5x5
I0913 20:37:56.459409  7755 net.cpp:148] Top shape: 10 48 14 14 (94080)
I0913 20:37:56.459419  7755 net.cpp:156] Memory required for data: 364779520
I0913 20:37:56.459429  7755 layer_factory.hpp:77] Creating layer inception_4a/pool
I0913 20:37:56.459450  7755 net.cpp:91] Creating Layer inception_4a/pool
I0913 20:37:56.459461  7755 net.cpp:425] inception_4a/pool <- pool3/3x3_s2_pool3/3x3_s2_0_split_3
I0913 20:37:56.459475  7755 net.cpp:399] inception_4a/pool -> inception_4a/pool
I0913 20:37:56.459581  7755 net.cpp:141] Setting up inception_4a/pool
I0913 20:37:56.459599  7755 net.cpp:148] Top shape: 10 480 14 14 (940800)
I0913 20:37:56.459606  7755 net.cpp:156] Memory required for data: 368542720
I0913 20:37:56.459615  7755 layer_factory.hpp:77] Creating layer inception_4a/pool_proj
I0913 20:37:56.459640  7755 net.cpp:91] Creating Layer inception_4a/pool_proj
I0913 20:37:56.459652  7755 net.cpp:425] inception_4a/pool_proj <- inception_4a/pool
I0913 20:37:56.459673  7755 net.cpp:399] inception_4a/pool_proj -> inception_4a/pool_proj
I0913 20:37:56.461730  7755 net.cpp:141] Setting up inception_4a/pool_proj
I0913 20:37:56.461751  7755 net.cpp:148] Top shape: 10 64 14 14 (125440)
I0913 20:37:56.461760  7755 net.cpp:156] Memory required for data: 369044480
I0913 20:37:56.461776  7755 layer_factory.hpp:77] Creating layer inception_4a/relu_pool_proj
I0913 20:37:56.461791  7755 net.cpp:91] Creating Layer inception_4a/relu_pool_proj
I0913 20:37:56.461802  7755 net.cpp:425] inception_4a/relu_pool_proj <- inception_4a/pool_proj
I0913 20:37:56.461819  7755 net.cpp:386] inception_4a/relu_pool_proj -> inception_4a/pool_proj (in-place)
I0913 20:37:56.462430  7755 net.cpp:141] Setting up inception_4a/relu_pool_proj
I0913 20:37:56.462450  7755 net.cpp:148] Top shape: 10 64 14 14 (125440)
I0913 20:37:56.462458  7755 net.cpp:156] Memory required for data: 369546240
I0913 20:37:56.462467  7755 layer_factory.hpp:77] Creating layer inception_4a/output
I0913 20:37:56.462482  7755 net.cpp:91] Creating Layer inception_4a/output
I0913 20:37:56.462498  7755 net.cpp:425] inception_4a/output <- inception_4a/1x1
I0913 20:37:56.462510  7755 net.cpp:425] inception_4a/output <- inception_4a/3x3
I0913 20:37:56.462522  7755 net.cpp:425] inception_4a/output <- inception_4a/5x5
I0913 20:37:56.462532  7755 net.cpp:425] inception_4a/output <- inception_4a/pool_proj
I0913 20:37:56.462545  7755 net.cpp:399] inception_4a/output -> inception_4a/output
I0913 20:37:56.462607  7755 net.cpp:141] Setting up inception_4a/output
I0913 20:37:56.462623  7755 net.cpp:148] Top shape: 10 512 14 14 (1003520)
I0913 20:37:56.462631  7755 net.cpp:156] Memory required for data: 373560320
I0913 20:37:56.462641  7755 layer_factory.hpp:77] Creating layer inception_4a/output_inception_4a/output_0_split
I0913 20:37:56.462661  7755 net.cpp:91] Creating Layer inception_4a/output_inception_4a/output_0_split
I0913 20:37:56.462673  7755 net.cpp:425] inception_4a/output_inception_4a/output_0_split <- inception_4a/output
I0913 20:37:56.462692  7755 net.cpp:399] inception_4a/output_inception_4a/output_0_split -> inception_4a/output_inception_4a/output_0_split_0
I0913 20:37:56.462709  7755 net.cpp:399] inception_4a/output_inception_4a/output_0_split -> inception_4a/output_inception_4a/output_0_split_1
I0913 20:37:56.462726  7755 net.cpp:399] inception_4a/output_inception_4a/output_0_split -> inception_4a/output_inception_4a/output_0_split_2
I0913 20:37:56.462743  7755 net.cpp:399] inception_4a/output_inception_4a/output_0_split -> inception_4a/output_inception_4a/output_0_split_3
I0913 20:37:56.462905  7755 net.cpp:141] Setting up inception_4a/output_inception_4a/output_0_split
I0913 20:37:56.462923  7755 net.cpp:148] Top shape: 10 512 14 14 (1003520)
I0913 20:37:56.462939  7755 net.cpp:148] Top shape: 10 512 14 14 (1003520)
I0913 20:37:56.462949  7755 net.cpp:148] Top shape: 10 512 14 14 (1003520)
I0913 20:37:56.462960  7755 net.cpp:148] Top shape: 10 512 14 14 (1003520)
I0913 20:37:56.462967  7755 net.cpp:156] Memory required for data: 389616640
I0913 20:37:56.462976  7755 layer_factory.hpp:77] Creating layer inception_4b/1x1
I0913 20:37:56.462995  7755 net.cpp:91] Creating Layer inception_4b/1x1
I0913 20:37:56.463006  7755 net.cpp:425] inception_4b/1x1 <- inception_4a/output_inception_4a/output_0_split_0
I0913 20:37:56.463029  7755 net.cpp:399] inception_4b/1x1 -> inception_4b/1x1
I0913 20:37:56.465291  7755 net.cpp:141] Setting up inception_4b/1x1
I0913 20:37:56.465311  7755 net.cpp:148] Top shape: 10 160 14 14 (313600)
I0913 20:37:56.465315  7755 net.cpp:156] Memory required for data: 390871040
I0913 20:37:56.465324  7755 layer_factory.hpp:77] Creating layer inception_4b/relu_1x1
I0913 20:37:56.465332  7755 net.cpp:91] Creating Layer inception_4b/relu_1x1
I0913 20:37:56.465338  7755 net.cpp:425] inception_4b/relu_1x1 <- inception_4b/1x1
I0913 20:37:56.465345  7755 net.cpp:386] inception_4b/relu_1x1 -> inception_4b/1x1 (in-place)
I0913 20:37:56.465762  7755 net.cpp:141] Setting up inception_4b/relu_1x1
I0913 20:37:56.465775  7755 net.cpp:148] Top shape: 10 160 14 14 (313600)
I0913 20:37:56.465780  7755 net.cpp:156] Memory required for data: 392125440
I0913 20:37:56.465785  7755 layer_factory.hpp:77] Creating layer inception_4b/3x3_reduce
I0913 20:37:56.465801  7755 net.cpp:91] Creating Layer inception_4b/3x3_reduce
I0913 20:37:56.465806  7755 net.cpp:425] inception_4b/3x3_reduce <- inception_4a/output_inception_4a/output_0_split_1
I0913 20:37:56.465817  7755 net.cpp:399] inception_4b/3x3_reduce -> inception_4b/3x3_reduce
I0913 20:37:56.467667  7755 net.cpp:141] Setting up inception_4b/3x3_reduce
I0913 20:37:56.467684  7755 net.cpp:148] Top shape: 10 112 14 14 (219520)
I0913 20:37:56.467689  7755 net.cpp:156] Memory required for data: 393003520
I0913 20:37:56.467696  7755 layer_factory.hpp:77] Creating layer inception_4b/relu_3x3_reduce
I0913 20:37:56.467705  7755 net.cpp:91] Creating Layer inception_4b/relu_3x3_reduce
I0913 20:37:56.467710  7755 net.cpp:425] inception_4b/relu_3x3_reduce <- inception_4b/3x3_reduce
I0913 20:37:56.467720  7755 net.cpp:386] inception_4b/relu_3x3_reduce -> inception_4b/3x3_reduce (in-place)
I0913 20:37:56.467950  7755 net.cpp:141] Setting up inception_4b/relu_3x3_reduce
I0913 20:37:56.467969  7755 net.cpp:148] Top shape: 10 112 14 14 (219520)
I0913 20:37:56.467974  7755 net.cpp:156] Memory required for data: 393881600
I0913 20:37:56.467979  7755 layer_factory.hpp:77] Creating layer inception_4b/3x3
I0913 20:37:56.467993  7755 net.cpp:91] Creating Layer inception_4b/3x3
I0913 20:37:56.467999  7755 net.cpp:425] inception_4b/3x3 <- inception_4b/3x3_reduce
I0913 20:37:56.468008  7755 net.cpp:399] inception_4b/3x3 -> inception_4b/3x3
I0913 20:37:56.472129  7755 net.cpp:141] Setting up inception_4b/3x3
I0913 20:37:56.472146  7755 net.cpp:148] Top shape: 10 224 14 14 (439040)
I0913 20:37:56.472152  7755 net.cpp:156] Memory required for data: 395637760
I0913 20:37:56.472160  7755 layer_factory.hpp:77] Creating layer inception_4b/relu_3x3
I0913 20:37:56.472168  7755 net.cpp:91] Creating Layer inception_4b/relu_3x3
I0913 20:37:56.472174  7755 net.cpp:425] inception_4b/relu_3x3 <- inception_4b/3x3
I0913 20:37:56.472184  7755 net.cpp:386] inception_4b/relu_3x3 -> inception_4b/3x3 (in-place)
I0913 20:37:56.472601  7755 net.cpp:141] Setting up inception_4b/relu_3x3
I0913 20:37:56.472614  7755 net.cpp:148] Top shape: 10 224 14 14 (439040)
I0913 20:37:56.472617  7755 net.cpp:156] Memory required for data: 397393920
I0913 20:37:56.472622  7755 layer_factory.hpp:77] Creating layer inception_4b/5x5_reduce
I0913 20:37:56.472647  7755 net.cpp:91] Creating Layer inception_4b/5x5_reduce
I0913 20:37:56.472653  7755 net.cpp:425] inception_4b/5x5_reduce <- inception_4a/output_inception_4a/output_0_split_2
I0913 20:37:56.472662  7755 net.cpp:399] inception_4b/5x5_reduce -> inception_4b/5x5_reduce
I0913 20:37:56.474010  7755 net.cpp:141] Setting up inception_4b/5x5_reduce
I0913 20:37:56.474026  7755 net.cpp:148] Top shape: 10 24 14 14 (47040)
I0913 20:37:56.474030  7755 net.cpp:156] Memory required for data: 397582080
I0913 20:37:56.474040  7755 layer_factory.hpp:77] Creating layer inception_4b/relu_5x5_reduce
I0913 20:37:56.474051  7755 net.cpp:91] Creating Layer inception_4b/relu_5x5_reduce
I0913 20:37:56.474057  7755 net.cpp:425] inception_4b/relu_5x5_reduce <- inception_4b/5x5_reduce
I0913 20:37:56.474064  7755 net.cpp:386] inception_4b/relu_5x5_reduce -> inception_4b/5x5_reduce (in-place)
I0913 20:37:56.474463  7755 net.cpp:141] Setting up inception_4b/relu_5x5_reduce
I0913 20:37:56.474475  7755 net.cpp:148] Top shape: 10 24 14 14 (47040)
I0913 20:37:56.474480  7755 net.cpp:156] Memory required for data: 397770240
I0913 20:37:56.474485  7755 layer_factory.hpp:77] Creating layer inception_4b/5x5
I0913 20:37:56.474503  7755 net.cpp:91] Creating Layer inception_4b/5x5
I0913 20:37:56.474509  7755 net.cpp:425] inception_4b/5x5 <- inception_4b/5x5_reduce
I0913 20:37:56.474516  7755 net.cpp:399] inception_4b/5x5 -> inception_4b/5x5
I0913 20:37:56.476902  7755 net.cpp:141] Setting up inception_4b/5x5
I0913 20:37:56.476930  7755 net.cpp:148] Top shape: 10 64 14 14 (125440)
I0913 20:37:56.476936  7755 net.cpp:156] Memory required for data: 398272000
I0913 20:37:56.476944  7755 layer_factory.hpp:77] Creating layer inception_4b/relu_5x5
I0913 20:37:56.476953  7755 net.cpp:91] Creating Layer inception_4b/relu_5x5
I0913 20:37:56.476958  7755 net.cpp:425] inception_4b/relu_5x5 <- inception_4b/5x5
I0913 20:37:56.476969  7755 net.cpp:386] inception_4b/relu_5x5 -> inception_4b/5x5 (in-place)
I0913 20:37:56.477200  7755 net.cpp:141] Setting up inception_4b/relu_5x5
I0913 20:37:56.477212  7755 net.cpp:148] Top shape: 10 64 14 14 (125440)
I0913 20:37:56.477217  7755 net.cpp:156] Memory required for data: 398773760
I0913 20:37:56.477222  7755 layer_factory.hpp:77] Creating layer inception_4b/pool
I0913 20:37:56.477231  7755 net.cpp:91] Creating Layer inception_4b/pool
I0913 20:37:56.477236  7755 net.cpp:425] inception_4b/pool <- inception_4a/output_inception_4a/output_0_split_3
I0913 20:37:56.477243  7755 net.cpp:399] inception_4b/pool -> inception_4b/pool
I0913 20:37:56.477308  7755 net.cpp:141] Setting up inception_4b/pool
I0913 20:37:56.477318  7755 net.cpp:148] Top shape: 10 512 14 14 (1003520)
I0913 20:37:56.477321  7755 net.cpp:156] Memory required for data: 402787840
I0913 20:37:56.477325  7755 layer_factory.hpp:77] Creating layer inception_4b/pool_proj
I0913 20:37:56.477340  7755 net.cpp:91] Creating Layer inception_4b/pool_proj
I0913 20:37:56.477345  7755 net.cpp:425] inception_4b/pool_proj <- inception_4b/pool
I0913 20:37:56.477355  7755 net.cpp:399] inception_4b/pool_proj -> inception_4b/pool_proj
I0913 20:37:56.479008  7755 net.cpp:141] Setting up inception_4b/pool_proj
I0913 20:37:56.479024  7755 net.cpp:148] Top shape: 10 64 14 14 (125440)
I0913 20:37:56.479029  7755 net.cpp:156] Memory required for data: 403289600
I0913 20:37:56.479038  7755 layer_factory.hpp:77] Creating layer inception_4b/relu_pool_proj
I0913 20:37:56.479046  7755 net.cpp:91] Creating Layer inception_4b/relu_pool_proj
I0913 20:37:56.479051  7755 net.cpp:425] inception_4b/relu_pool_proj <- inception_4b/pool_proj
I0913 20:37:56.479061  7755 net.cpp:386] inception_4b/relu_pool_proj -> inception_4b/pool_proj (in-place)
I0913 20:37:56.479465  7755 net.cpp:141] Setting up inception_4b/relu_pool_proj
I0913 20:37:56.479477  7755 net.cpp:148] Top shape: 10 64 14 14 (125440)
I0913 20:37:56.479481  7755 net.cpp:156] Memory required for data: 403791360
I0913 20:37:56.479486  7755 layer_factory.hpp:77] Creating layer inception_4b/output
I0913 20:37:56.479496  7755 net.cpp:91] Creating Layer inception_4b/output
I0913 20:37:56.479501  7755 net.cpp:425] inception_4b/output <- inception_4b/1x1
I0913 20:37:56.479506  7755 net.cpp:425] inception_4b/output <- inception_4b/3x3
I0913 20:37:56.479513  7755 net.cpp:425] inception_4b/output <- inception_4b/5x5
I0913 20:37:56.479519  7755 net.cpp:425] inception_4b/output <- inception_4b/pool_proj
I0913 20:37:56.479526  7755 net.cpp:399] inception_4b/output -> inception_4b/output
I0913 20:37:56.479567  7755 net.cpp:141] Setting up inception_4b/output
I0913 20:37:56.479574  7755 net.cpp:148] Top shape: 10 512 14 14 (1003520)
I0913 20:37:56.479579  7755 net.cpp:156] Memory required for data: 407805440
I0913 20:37:56.479583  7755 layer_factory.hpp:77] Creating layer inception_4b/output_inception_4b/output_0_split
I0913 20:37:56.479596  7755 net.cpp:91] Creating Layer inception_4b/output_inception_4b/output_0_split
I0913 20:37:56.479601  7755 net.cpp:425] inception_4b/output_inception_4b/output_0_split <- inception_4b/output
I0913 20:37:56.479607  7755 net.cpp:399] inception_4b/output_inception_4b/output_0_split -> inception_4b/output_inception_4b/output_0_split_0
I0913 20:37:56.479619  7755 net.cpp:399] inception_4b/output_inception_4b/output_0_split -> inception_4b/output_inception_4b/output_0_split_1
I0913 20:37:56.479626  7755 net.cpp:399] inception_4b/output_inception_4b/output_0_split -> inception_4b/output_inception_4b/output_0_split_2
I0913 20:37:56.479635  7755 net.cpp:399] inception_4b/output_inception_4b/output_0_split -> inception_4b/output_inception_4b/output_0_split_3
I0913 20:37:56.479718  7755 net.cpp:141] Setting up inception_4b/output_inception_4b/output_0_split
I0913 20:37:56.479727  7755 net.cpp:148] Top shape: 10 512 14 14 (1003520)
I0913 20:37:56.479732  7755 net.cpp:148] Top shape: 10 512 14 14 (1003520)
I0913 20:37:56.479737  7755 net.cpp:148] Top shape: 10 512 14 14 (1003520)
I0913 20:37:56.479743  7755 net.cpp:148] Top shape: 10 512 14 14 (1003520)
I0913 20:37:56.479745  7755 net.cpp:156] Memory required for data: 423861760
I0913 20:37:56.479750  7755 layer_factory.hpp:77] Creating layer inception_4c/1x1
I0913 20:37:56.479763  7755 net.cpp:91] Creating Layer inception_4c/1x1
I0913 20:37:56.479768  7755 net.cpp:425] inception_4c/1x1 <- inception_4b/output_inception_4b/output_0_split_0
I0913 20:37:56.479779  7755 net.cpp:399] inception_4c/1x1 -> inception_4c/1x1
I0913 20:37:56.481520  7755 net.cpp:141] Setting up inception_4c/1x1
I0913 20:37:56.481536  7755 net.cpp:148] Top shape: 10 128 14 14 (250880)
I0913 20:37:56.481541  7755 net.cpp:156] Memory required for data: 424865280
I0913 20:37:56.481550  7755 layer_factory.hpp:77] Creating layer inception_4c/relu_1x1
I0913 20:37:56.481561  7755 net.cpp:91] Creating Layer inception_4c/relu_1x1
I0913 20:37:56.481567  7755 net.cpp:425] inception_4c/relu_1x1 <- inception_4c/1x1
I0913 20:37:56.481576  7755 net.cpp:386] inception_4c/relu_1x1 -> inception_4c/1x1 (in-place)
I0913 20:37:56.481978  7755 net.cpp:141] Setting up inception_4c/relu_1x1
I0913 20:37:56.481989  7755 net.cpp:148] Top shape: 10 128 14 14 (250880)
I0913 20:37:56.481994  7755 net.cpp:156] Memory required for data: 425868800
I0913 20:37:56.481999  7755 layer_factory.hpp:77] Creating layer inception_4c/3x3_reduce
I0913 20:37:56.482013  7755 net.cpp:91] Creating Layer inception_4c/3x3_reduce
I0913 20:37:56.482019  7755 net.cpp:425] inception_4c/3x3_reduce <- inception_4b/output_inception_4b/output_0_split_1
I0913 20:37:56.482028  7755 net.cpp:399] inception_4c/3x3_reduce -> inception_4c/3x3_reduce
I0913 20:37:56.483939  7755 net.cpp:141] Setting up inception_4c/3x3_reduce
I0913 20:37:56.483968  7755 net.cpp:148] Top shape: 10 128 14 14 (250880)
I0913 20:37:56.483973  7755 net.cpp:156] Memory required for data: 426872320
I0913 20:37:56.483981  7755 layer_factory.hpp:77] Creating layer inception_4c/relu_3x3_reduce
I0913 20:37:56.483990  7755 net.cpp:91] Creating Layer inception_4c/relu_3x3_reduce
I0913 20:37:56.483996  7755 net.cpp:425] inception_4c/relu_3x3_reduce <- inception_4c/3x3_reduce
I0913 20:37:56.484002  7755 net.cpp:386] inception_4c/relu_3x3_reduce -> inception_4c/3x3_reduce (in-place)
I0913 20:37:56.484252  7755 net.cpp:141] Setting up inception_4c/relu_3x3_reduce
I0913 20:37:56.484266  7755 net.cpp:148] Top shape: 10 128 14 14 (250880)
I0913 20:37:56.484271  7755 net.cpp:156] Memory required for data: 427875840
I0913 20:37:56.484275  7755 layer_factory.hpp:77] Creating layer inception_4c/3x3
I0913 20:37:56.484289  7755 net.cpp:91] Creating Layer inception_4c/3x3
I0913 20:37:56.484295  7755 net.cpp:425] inception_4c/3x3 <- inception_4c/3x3_reduce
I0913 20:37:56.484303  7755 net.cpp:399] inception_4c/3x3 -> inception_4c/3x3
I0913 20:37:56.488646  7755 net.cpp:141] Setting up inception_4c/3x3
I0913 20:37:56.488663  7755 net.cpp:148] Top shape: 10 256 14 14 (501760)
I0913 20:37:56.488668  7755 net.cpp:156] Memory required for data: 429882880
I0913 20:37:56.488677  7755 layer_factory.hpp:77] Creating layer inception_4c/relu_3x3
I0913 20:37:56.488685  7755 net.cpp:91] Creating Layer inception_4c/relu_3x3
I0913 20:37:56.488692  7755 net.cpp:425] inception_4c/relu_3x3 <- inception_4c/3x3
I0913 20:37:56.488701  7755 net.cpp:386] inception_4c/relu_3x3 -> inception_4c/3x3 (in-place)
I0913 20:37:56.489107  7755 net.cpp:141] Setting up inception_4c/relu_3x3
I0913 20:37:56.489120  7755 net.cpp:148] Top shape: 10 256 14 14 (501760)
I0913 20:37:56.489123  7755 net.cpp:156] Memory required for data: 431889920
I0913 20:37:56.489128  7755 layer_factory.hpp:77] Creating layer inception_4c/5x5_reduce
I0913 20:37:56.489143  7755 net.cpp:91] Creating Layer inception_4c/5x5_reduce
I0913 20:37:56.489151  7755 net.cpp:425] inception_4c/5x5_reduce <- inception_4b/output_inception_4b/output_0_split_2
I0913 20:37:56.489161  7755 net.cpp:399] inception_4c/5x5_reduce -> inception_4c/5x5_reduce
I0913 20:37:56.490522  7755 net.cpp:141] Setting up inception_4c/5x5_reduce
I0913 20:37:56.490545  7755 net.cpp:148] Top shape: 10 24 14 14 (47040)
I0913 20:37:56.490550  7755 net.cpp:156] Memory required for data: 432078080
I0913 20:37:56.490559  7755 layer_factory.hpp:77] Creating layer inception_4c/relu_5x5_reduce
I0913 20:37:56.490567  7755 net.cpp:91] Creating Layer inception_4c/relu_5x5_reduce
I0913 20:37:56.490573  7755 net.cpp:425] inception_4c/relu_5x5_reduce <- inception_4c/5x5_reduce
I0913 20:37:56.490582  7755 net.cpp:386] inception_4c/relu_5x5_reduce -> inception_4c/5x5_reduce (in-place)
I0913 20:37:56.490988  7755 net.cpp:141] Setting up inception_4c/relu_5x5_reduce
I0913 20:37:56.491000  7755 net.cpp:148] Top shape: 10 24 14 14 (47040)
I0913 20:37:56.491005  7755 net.cpp:156] Memory required for data: 432266240
I0913 20:37:56.491010  7755 layer_factory.hpp:77] Creating layer inception_4c/5x5
I0913 20:37:56.491025  7755 net.cpp:91] Creating Layer inception_4c/5x5
I0913 20:37:56.491031  7755 net.cpp:425] inception_4c/5x5 <- inception_4c/5x5_reduce
I0913 20:37:56.491042  7755 net.cpp:399] inception_4c/5x5 -> inception_4c/5x5
I0913 20:37:56.493038  7755 net.cpp:141] Setting up inception_4c/5x5
I0913 20:37:56.493057  7755 net.cpp:148] Top shape: 10 64 14 14 (125440)
I0913 20:37:56.493062  7755 net.cpp:156] Memory required for data: 432768000
I0913 20:37:56.493069  7755 layer_factory.hpp:77] Creating layer inception_4c/relu_5x5
I0913 20:37:56.493077  7755 net.cpp:91] Creating Layer inception_4c/relu_5x5
I0913 20:37:56.493083  7755 net.cpp:425] inception_4c/relu_5x5 <- inception_4c/5x5
I0913 20:37:56.493093  7755 net.cpp:386] inception_4c/relu_5x5 -> inception_4c/5x5 (in-place)
I0913 20:37:56.493326  7755 net.cpp:141] Setting up inception_4c/relu_5x5
I0913 20:37:56.493337  7755 net.cpp:148] Top shape: 10 64 14 14 (125440)
I0913 20:37:56.493341  7755 net.cpp:156] Memory required for data: 433269760
I0913 20:37:56.493346  7755 layer_factory.hpp:77] Creating layer inception_4c/pool
I0913 20:37:56.493360  7755 net.cpp:91] Creating Layer inception_4c/pool
I0913 20:37:56.493365  7755 net.cpp:425] inception_4c/pool <- inception_4b/output_inception_4b/output_0_split_3
I0913 20:37:56.493371  7755 net.cpp:399] inception_4c/pool -> inception_4c/pool
I0913 20:37:56.493440  7755 net.cpp:141] Setting up inception_4c/pool
I0913 20:37:56.493449  7755 net.cpp:148] Top shape: 10 512 14 14 (1003520)
I0913 20:37:56.493453  7755 net.cpp:156] Memory required for data: 437283840
I0913 20:37:56.493458  7755 layer_factory.hpp:77] Creating layer inception_4c/pool_proj
I0913 20:37:56.493472  7755 net.cpp:91] Creating Layer inception_4c/pool_proj
I0913 20:37:56.493477  7755 net.cpp:425] inception_4c/pool_proj <- inception_4c/pool
I0913 20:37:56.493487  7755 net.cpp:399] inception_4c/pool_proj -> inception_4c/pool_proj
I0913 20:37:56.495875  7755 net.cpp:141] Setting up inception_4c/pool_proj
I0913 20:37:56.495892  7755 net.cpp:148] Top shape: 10 64 14 14 (125440)
I0913 20:37:56.495896  7755 net.cpp:156] Memory required for data: 437785600
I0913 20:37:56.495924  7755 layer_factory.hpp:77] Creating layer inception_4c/relu_pool_proj
I0913 20:37:56.495934  7755 net.cpp:91] Creating Layer inception_4c/relu_pool_proj
I0913 20:37:56.495939  7755 net.cpp:425] inception_4c/relu_pool_proj <- inception_4c/pool_proj
I0913 20:37:56.495949  7755 net.cpp:386] inception_4c/relu_pool_proj -> inception_4c/pool_proj (in-place)
I0913 20:37:56.496366  7755 net.cpp:141] Setting up inception_4c/relu_pool_proj
I0913 20:37:56.496379  7755 net.cpp:148] Top shape: 10 64 14 14 (125440)
I0913 20:37:56.496383  7755 net.cpp:156] Memory required for data: 438287360
I0913 20:37:56.496388  7755 layer_factory.hpp:77] Creating layer inception_4c/output
I0913 20:37:56.496397  7755 net.cpp:91] Creating Layer inception_4c/output
I0913 20:37:56.496403  7755 net.cpp:425] inception_4c/output <- inception_4c/1x1
I0913 20:37:56.496409  7755 net.cpp:425] inception_4c/output <- inception_4c/3x3
I0913 20:37:56.496414  7755 net.cpp:425] inception_4c/output <- inception_4c/5x5
I0913 20:37:56.496420  7755 net.cpp:425] inception_4c/output <- inception_4c/pool_proj
I0913 20:37:56.496428  7755 net.cpp:399] inception_4c/output -> inception_4c/output
I0913 20:37:56.496472  7755 net.cpp:141] Setting up inception_4c/output
I0913 20:37:56.496481  7755 net.cpp:148] Top shape: 10 512 14 14 (1003520)
I0913 20:37:56.496485  7755 net.cpp:156] Memory required for data: 442301440
I0913 20:37:56.496490  7755 layer_factory.hpp:77] Creating layer inception_4c/output_inception_4c/output_0_split
I0913 20:37:56.496506  7755 net.cpp:91] Creating Layer inception_4c/output_inception_4c/output_0_split
I0913 20:37:56.496511  7755 net.cpp:425] inception_4c/output_inception_4c/output_0_split <- inception_4c/output
I0913 20:37:56.496517  7755 net.cpp:399] inception_4c/output_inception_4c/output_0_split -> inception_4c/output_inception_4c/output_0_split_0
I0913 20:37:56.496526  7755 net.cpp:399] inception_4c/output_inception_4c/output_0_split -> inception_4c/output_inception_4c/output_0_split_1
I0913 20:37:56.496536  7755 net.cpp:399] inception_4c/output_inception_4c/output_0_split -> inception_4c/output_inception_4c/output_0_split_2
I0913 20:37:56.496544  7755 net.cpp:399] inception_4c/output_inception_4c/output_0_split -> inception_4c/output_inception_4c/output_0_split_3
I0913 20:37:56.496632  7755 net.cpp:141] Setting up inception_4c/output_inception_4c/output_0_split
I0913 20:37:56.496640  7755 net.cpp:148] Top shape: 10 512 14 14 (1003520)
I0913 20:37:56.496646  7755 net.cpp:148] Top shape: 10 512 14 14 (1003520)
I0913 20:37:56.496651  7755 net.cpp:148] Top shape: 10 512 14 14 (1003520)
I0913 20:37:56.496656  7755 net.cpp:148] Top shape: 10 512 14 14 (1003520)
I0913 20:37:56.496659  7755 net.cpp:156] Memory required for data: 458357760
I0913 20:37:56.496665  7755 layer_factory.hpp:77] Creating layer inception_4d/1x1
I0913 20:37:56.496677  7755 net.cpp:91] Creating Layer inception_4d/1x1
I0913 20:37:56.496682  7755 net.cpp:425] inception_4d/1x1 <- inception_4c/output_inception_4c/output_0_split_0
I0913 20:37:56.496693  7755 net.cpp:399] inception_4d/1x1 -> inception_4d/1x1
I0913 20:37:56.498378  7755 net.cpp:141] Setting up inception_4d/1x1
I0913 20:37:56.498394  7755 net.cpp:148] Top shape: 10 112 14 14 (219520)
I0913 20:37:56.498399  7755 net.cpp:156] Memory required for data: 459235840
I0913 20:37:56.498407  7755 layer_factory.hpp:77] Creating layer inception_4d/relu_1x1
I0913 20:37:56.498417  7755 net.cpp:91] Creating Layer inception_4d/relu_1x1
I0913 20:37:56.498423  7755 net.cpp:425] inception_4d/relu_1x1 <- inception_4d/1x1
I0913 20:37:56.498430  7755 net.cpp:386] inception_4d/relu_1x1 -> inception_4d/1x1 (in-place)
I0913 20:37:56.498841  7755 net.cpp:141] Setting up inception_4d/relu_1x1
I0913 20:37:56.498855  7755 net.cpp:148] Top shape: 10 112 14 14 (219520)
I0913 20:37:56.498860  7755 net.cpp:156] Memory required for data: 460113920
I0913 20:37:56.498865  7755 layer_factory.hpp:77] Creating layer inception_4d/3x3_reduce
I0913 20:37:56.498878  7755 net.cpp:91] Creating Layer inception_4d/3x3_reduce
I0913 20:37:56.498884  7755 net.cpp:425] inception_4d/3x3_reduce <- inception_4c/output_inception_4c/output_0_split_1
I0913 20:37:56.498896  7755 net.cpp:399] inception_4d/3x3_reduce -> inception_4d/3x3_reduce
I0913 20:37:56.500937  7755 net.cpp:141] Setting up inception_4d/3x3_reduce
I0913 20:37:56.500954  7755 net.cpp:148] Top shape: 10 144 14 14 (282240)
I0913 20:37:56.500959  7755 net.cpp:156] Memory required for data: 461242880
I0913 20:37:56.500967  7755 layer_factory.hpp:77] Creating layer inception_4d/relu_3x3_reduce
I0913 20:37:56.500977  7755 net.cpp:91] Creating Layer inception_4d/relu_3x3_reduce
I0913 20:37:56.500982  7755 net.cpp:425] inception_4d/relu_3x3_reduce <- inception_4d/3x3_reduce
I0913 20:37:56.500993  7755 net.cpp:386] inception_4d/relu_3x3_reduce -> inception_4d/3x3_reduce (in-place)
I0913 20:37:56.501226  7755 net.cpp:141] Setting up inception_4d/relu_3x3_reduce
I0913 20:37:56.501247  7755 net.cpp:148] Top shape: 10 144 14 14 (282240)
I0913 20:37:56.501252  7755 net.cpp:156] Memory required for data: 462371840
I0913 20:37:56.501257  7755 layer_factory.hpp:77] Creating layer inception_4d/3x3
I0913 20:37:56.501272  7755 net.cpp:91] Creating Layer inception_4d/3x3
I0913 20:37:56.501277  7755 net.cpp:425] inception_4d/3x3 <- inception_4d/3x3_reduce
I0913 20:37:56.501286  7755 net.cpp:399] inception_4d/3x3 -> inception_4d/3x3
I0913 20:37:56.506372  7755 net.cpp:141] Setting up inception_4d/3x3
I0913 20:37:56.506391  7755 net.cpp:148] Top shape: 10 288 14 14 (564480)
I0913 20:37:56.506395  7755 net.cpp:156] Memory required for data: 464629760
I0913 20:37:56.506403  7755 layer_factory.hpp:77] Creating layer inception_4d/relu_3x3
I0913 20:37:56.506412  7755 net.cpp:91] Creating Layer inception_4d/relu_3x3
I0913 20:37:56.506417  7755 net.cpp:425] inception_4d/relu_3x3 <- inception_4d/3x3
I0913 20:37:56.506428  7755 net.cpp:386] inception_4d/relu_3x3 -> inception_4d/3x3 (in-place)
I0913 20:37:56.506835  7755 net.cpp:141] Setting up inception_4d/relu_3x3
I0913 20:37:56.506847  7755 net.cpp:148] Top shape: 10 288 14 14 (564480)
I0913 20:37:56.506852  7755 net.cpp:156] Memory required for data: 466887680
I0913 20:37:56.506857  7755 layer_factory.hpp:77] Creating layer inception_4d/5x5_reduce
I0913 20:37:56.506872  7755 net.cpp:91] Creating Layer inception_4d/5x5_reduce
I0913 20:37:56.506878  7755 net.cpp:425] inception_4d/5x5_reduce <- inception_4c/output_inception_4c/output_0_split_2
I0913 20:37:56.506891  7755 net.cpp:399] inception_4d/5x5_reduce -> inception_4d/5x5_reduce
I0913 20:37:56.508327  7755 net.cpp:141] Setting up inception_4d/5x5_reduce
I0913 20:37:56.508344  7755 net.cpp:148] Top shape: 10 32 14 14 (62720)
I0913 20:37:56.508349  7755 net.cpp:156] Memory required for data: 467138560
I0913 20:37:56.508358  7755 layer_factory.hpp:77] Creating layer inception_4d/relu_5x5_reduce
I0913 20:37:56.508368  7755 net.cpp:91] Creating Layer inception_4d/relu_5x5_reduce
I0913 20:37:56.508373  7755 net.cpp:425] inception_4d/relu_5x5_reduce <- inception_4d/5x5_reduce
I0913 20:37:56.508380  7755 net.cpp:386] inception_4d/relu_5x5_reduce -> inception_4d/5x5_reduce (in-place)
I0913 20:37:56.508781  7755 net.cpp:141] Setting up inception_4d/relu_5x5_reduce
I0913 20:37:56.508795  7755 net.cpp:148] Top shape: 10 32 14 14 (62720)
I0913 20:37:56.508800  7755 net.cpp:156] Memory required for data: 467389440
I0913 20:37:56.508805  7755 layer_factory.hpp:77] Creating layer inception_4d/5x5
I0913 20:37:56.508819  7755 net.cpp:91] Creating Layer inception_4d/5x5
I0913 20:37:56.508826  7755 net.cpp:425] inception_4d/5x5 <- inception_4d/5x5_reduce
I0913 20:37:56.508834  7755 net.cpp:399] inception_4d/5x5 -> inception_4d/5x5
I0913 20:37:56.510653  7755 net.cpp:141] Setting up inception_4d/5x5
I0913 20:37:56.510669  7755 net.cpp:148] Top shape: 10 64 14 14 (125440)
I0913 20:37:56.510673  7755 net.cpp:156] Memory required for data: 467891200
I0913 20:37:56.510682  7755 layer_factory.hpp:77] Creating layer inception_4d/relu_5x5
I0913 20:37:56.510690  7755 net.cpp:91] Creating Layer inception_4d/relu_5x5
I0913 20:37:56.510695  7755 net.cpp:425] inception_4d/relu_5x5 <- inception_4d/5x5
I0913 20:37:56.510702  7755 net.cpp:386] inception_4d/relu_5x5 -> inception_4d/5x5 (in-place)
I0913 20:37:56.510941  7755 net.cpp:141] Setting up inception_4d/relu_5x5
I0913 20:37:56.510951  7755 net.cpp:148] Top shape: 10 64 14 14 (125440)
I0913 20:37:56.510957  7755 net.cpp:156] Memory required for data: 468392960
I0913 20:37:56.510960  7755 layer_factory.hpp:77] Creating layer inception_4d/pool
I0913 20:37:56.510973  7755 net.cpp:91] Creating Layer inception_4d/pool
I0913 20:37:56.510978  7755 net.cpp:425] inception_4d/pool <- inception_4c/output_inception_4c/output_0_split_3
I0913 20:37:56.510985  7755 net.cpp:399] inception_4d/pool -> inception_4d/pool
I0913 20:37:56.511054  7755 net.cpp:141] Setting up inception_4d/pool
I0913 20:37:56.511063  7755 net.cpp:148] Top shape: 10 512 14 14 (1003520)
I0913 20:37:56.511067  7755 net.cpp:156] Memory required for data: 472407040
I0913 20:37:56.511072  7755 layer_factory.hpp:77] Creating layer inception_4d/pool_proj
I0913 20:37:56.511085  7755 net.cpp:91] Creating Layer inception_4d/pool_proj
I0913 20:37:56.511091  7755 net.cpp:425] inception_4d/pool_proj <- inception_4d/pool
I0913 20:37:56.511101  7755 net.cpp:399] inception_4d/pool_proj -> inception_4d/pool_proj
I0913 20:37:56.512832  7755 net.cpp:141] Setting up inception_4d/pool_proj
I0913 20:37:56.512850  7755 net.cpp:148] Top shape: 10 64 14 14 (125440)
I0913 20:37:56.512854  7755 net.cpp:156] Memory required for data: 472908800
I0913 20:37:56.512862  7755 layer_factory.hpp:77] Creating layer inception_4d/relu_pool_proj
I0913 20:37:56.512871  7755 net.cpp:91] Creating Layer inception_4d/relu_pool_proj
I0913 20:37:56.512876  7755 net.cpp:425] inception_4d/relu_pool_proj <- inception_4d/pool_proj
I0913 20:37:56.512887  7755 net.cpp:386] inception_4d/relu_pool_proj -> inception_4d/pool_proj (in-place)
I0913 20:37:56.513296  7755 net.cpp:141] Setting up inception_4d/relu_pool_proj
I0913 20:37:56.513309  7755 net.cpp:148] Top shape: 10 64 14 14 (125440)
I0913 20:37:56.513314  7755 net.cpp:156] Memory required for data: 473410560
I0913 20:37:56.513317  7755 layer_factory.hpp:77] Creating layer inception_4d/output
I0913 20:37:56.513329  7755 net.cpp:91] Creating Layer inception_4d/output
I0913 20:37:56.513335  7755 net.cpp:425] inception_4d/output <- inception_4d/1x1
I0913 20:37:56.513341  7755 net.cpp:425] inception_4d/output <- inception_4d/3x3
I0913 20:37:56.513347  7755 net.cpp:425] inception_4d/output <- inception_4d/5x5
I0913 20:37:56.513352  7755 net.cpp:425] inception_4d/output <- inception_4d/pool_proj
I0913 20:37:56.513358  7755 net.cpp:399] inception_4d/output -> inception_4d/output
I0913 20:37:56.513404  7755 net.cpp:141] Setting up inception_4d/output
I0913 20:37:56.513412  7755 net.cpp:148] Top shape: 10 528 14 14 (1034880)
I0913 20:37:56.513417  7755 net.cpp:156] Memory required for data: 477550080
I0913 20:37:56.513422  7755 layer_factory.hpp:77] Creating layer inception_4d/output_inception_4d/output_0_split
I0913 20:37:56.513430  7755 net.cpp:91] Creating Layer inception_4d/output_inception_4d/output_0_split
I0913 20:37:56.513434  7755 net.cpp:425] inception_4d/output_inception_4d/output_0_split <- inception_4d/output
I0913 20:37:56.513445  7755 net.cpp:399] inception_4d/output_inception_4d/output_0_split -> inception_4d/output_inception_4d/output_0_split_0
I0913 20:37:56.513455  7755 net.cpp:399] inception_4d/output_inception_4d/output_0_split -> inception_4d/output_inception_4d/output_0_split_1
I0913 20:37:56.513463  7755 net.cpp:399] inception_4d/output_inception_4d/output_0_split -> inception_4d/output_inception_4d/output_0_split_2
I0913 20:37:56.513471  7755 net.cpp:399] inception_4d/output_inception_4d/output_0_split -> inception_4d/output_inception_4d/output_0_split_3
I0913 20:37:56.513566  7755 net.cpp:141] Setting up inception_4d/output_inception_4d/output_0_split
I0913 20:37:56.513574  7755 net.cpp:148] Top shape: 10 528 14 14 (1034880)
I0913 20:37:56.513579  7755 net.cpp:148] Top shape: 10 528 14 14 (1034880)
I0913 20:37:56.513584  7755 net.cpp:148] Top shape: 10 528 14 14 (1034880)
I0913 20:37:56.513589  7755 net.cpp:148] Top shape: 10 528 14 14 (1034880)
I0913 20:37:56.513593  7755 net.cpp:156] Memory required for data: 494108160
I0913 20:37:56.513598  7755 layer_factory.hpp:77] Creating layer inception_4e/1x1
I0913 20:37:56.513613  7755 net.cpp:91] Creating Layer inception_4e/1x1
I0913 20:37:56.513619  7755 net.cpp:425] inception_4e/1x1 <- inception_4d/output_inception_4d/output_0_split_0
I0913 20:37:56.513628  7755 net.cpp:399] inception_4e/1x1 -> inception_4e/1x1
I0913 20:37:56.516880  7755 net.cpp:141] Setting up inception_4e/1x1
I0913 20:37:56.516911  7755 net.cpp:148] Top shape: 10 256 14 14 (501760)
I0913 20:37:56.516916  7755 net.cpp:156] Memory required for data: 496115200
I0913 20:37:56.516924  7755 layer_factory.hpp:77] Creating layer inception_4e/relu_1x1
I0913 20:37:56.516932  7755 net.cpp:91] Creating Layer inception_4e/relu_1x1
I0913 20:37:56.516938  7755 net.cpp:425] inception_4e/relu_1x1 <- inception_4e/1x1
I0913 20:37:56.516948  7755 net.cpp:386] inception_4e/relu_1x1 -> inception_4e/1x1 (in-place)
I0913 20:37:56.517357  7755 net.cpp:141] Setting up inception_4e/relu_1x1
I0913 20:37:56.517369  7755 net.cpp:148] Top shape: 10 256 14 14 (501760)
I0913 20:37:56.517374  7755 net.cpp:156] Memory required for data: 498122240
I0913 20:37:56.517379  7755 layer_factory.hpp:77] Creating layer inception_4e/3x3_reduce
I0913 20:37:56.517393  7755 net.cpp:91] Creating Layer inception_4e/3x3_reduce
I0913 20:37:56.517400  7755 net.cpp:425] inception_4e/3x3_reduce <- inception_4d/output_inception_4d/output_0_split_1
I0913 20:37:56.517410  7755 net.cpp:399] inception_4e/3x3_reduce -> inception_4e/3x3_reduce
I0913 20:37:56.519498  7755 net.cpp:141] Setting up inception_4e/3x3_reduce
I0913 20:37:56.519527  7755 net.cpp:148] Top shape: 10 160 14 14 (313600)
I0913 20:37:56.519532  7755 net.cpp:156] Memory required for data: 499376640
I0913 20:37:56.519541  7755 layer_factory.hpp:77] Creating layer inception_4e/relu_3x3_reduce
I0913 20:37:56.519553  7755 net.cpp:91] Creating Layer inception_4e/relu_3x3_reduce
I0913 20:37:56.519559  7755 net.cpp:425] inception_4e/relu_3x3_reduce <- inception_4e/3x3_reduce
I0913 20:37:56.519567  7755 net.cpp:386] inception_4e/relu_3x3_reduce -> inception_4e/3x3_reduce (in-place)
I0913 20:37:56.519800  7755 net.cpp:141] Setting up inception_4e/relu_3x3_reduce
I0913 20:37:56.519811  7755 net.cpp:148] Top shape: 10 160 14 14 (313600)
I0913 20:37:56.519815  7755 net.cpp:156] Memory required for data: 500631040
I0913 20:37:56.519820  7755 layer_factory.hpp:77] Creating layer inception_4e/3x3
I0913 20:37:56.519837  7755 net.cpp:91] Creating Layer inception_4e/3x3
I0913 20:37:56.519843  7755 net.cpp:425] inception_4e/3x3 <- inception_4e/3x3_reduce
I0913 20:37:56.519855  7755 net.cpp:399] inception_4e/3x3 -> inception_4e/3x3
I0913 20:37:56.526763  7755 net.cpp:141] Setting up inception_4e/3x3
I0913 20:37:56.526823  7755 net.cpp:148] Top shape: 10 320 14 14 (627200)
I0913 20:37:56.526836  7755 net.cpp:156] Memory required for data: 503139840
I0913 20:37:56.526862  7755 layer_factory.hpp:77] Creating layer inception_4e/relu_3x3
I0913 20:37:56.526888  7755 net.cpp:91] Creating Layer inception_4e/relu_3x3
I0913 20:37:56.526903  7755 net.cpp:425] inception_4e/relu_3x3 <- inception_4e/3x3
I0913 20:37:56.526921  7755 net.cpp:386] inception_4e/relu_3x3 -> inception_4e/3x3 (in-place)
I0913 20:37:56.527848  7755 net.cpp:141] Setting up inception_4e/relu_3x3
I0913 20:37:56.527871  7755 net.cpp:148] Top shape: 10 320 14 14 (627200)
I0913 20:37:56.527882  7755 net.cpp:156] Memory required for data: 505648640
I0913 20:37:56.527892  7755 layer_factory.hpp:77] Creating layer inception_4e/5x5_reduce
I0913 20:37:56.527937  7755 net.cpp:91] Creating Layer inception_4e/5x5_reduce
I0913 20:37:56.527951  7755 net.cpp:425] inception_4e/5x5_reduce <- inception_4d/output_inception_4d/output_0_split_2
I0913 20:37:56.527976  7755 net.cpp:399] inception_4e/5x5_reduce -> inception_4e/5x5_reduce
I0913 20:37:56.530607  7755 net.cpp:141] Setting up inception_4e/5x5_reduce
I0913 20:37:56.530630  7755 net.cpp:148] Top shape: 10 32 14 14 (62720)
I0913 20:37:56.530637  7755 net.cpp:156] Memory required for data: 505899520
I0913 20:37:56.530650  7755 layer_factory.hpp:77] Creating layer inception_4e/relu_5x5_reduce
I0913 20:37:56.530666  7755 net.cpp:91] Creating Layer inception_4e/relu_5x5_reduce
I0913 20:37:56.530675  7755 net.cpp:425] inception_4e/relu_5x5_reduce <- inception_4e/5x5_reduce
I0913 20:37:56.530686  7755 net.cpp:386] inception_4e/relu_5x5_reduce -> inception_4e/5x5_reduce (in-place)
I0913 20:37:56.531204  7755 net.cpp:141] Setting up inception_4e/relu_5x5_reduce
I0913 20:37:56.531222  7755 net.cpp:148] Top shape: 10 32 14 14 (62720)
I0913 20:37:56.531229  7755 net.cpp:156] Memory required for data: 506150400
I0913 20:37:56.531237  7755 layer_factory.hpp:77] Creating layer inception_4e/5x5
I0913 20:37:56.531261  7755 net.cpp:91] Creating Layer inception_4e/5x5
I0913 20:37:56.531270  7755 net.cpp:425] inception_4e/5x5 <- inception_4e/5x5_reduce
I0913 20:37:56.531282  7755 net.cpp:399] inception_4e/5x5 -> inception_4e/5x5
I0913 20:37:56.535109  7755 net.cpp:141] Setting up inception_4e/5x5
I0913 20:37:56.535133  7755 net.cpp:148] Top shape: 10 128 14 14 (250880)
I0913 20:37:56.535140  7755 net.cpp:156] Memory required for data: 507153920
I0913 20:37:56.535153  7755 layer_factory.hpp:77] Creating layer inception_4e/relu_5x5
I0913 20:37:56.535166  7755 net.cpp:91] Creating Layer inception_4e/relu_5x5
I0913 20:37:56.535176  7755 net.cpp:425] inception_4e/relu_5x5 <- inception_4e/5x5
I0913 20:37:56.535186  7755 net.cpp:386] inception_4e/relu_5x5 -> inception_4e/5x5 (in-place)
I0913 20:37:56.535495  7755 net.cpp:141] Setting up inception_4e/relu_5x5
I0913 20:37:56.535511  7755 net.cpp:148] Top shape: 10 128 14 14 (250880)
I0913 20:37:56.535518  7755 net.cpp:156] Memory required for data: 508157440
I0913 20:37:56.535526  7755 layer_factory.hpp:77] Creating layer inception_4e/pool
I0913 20:37:56.535542  7755 net.cpp:91] Creating Layer inception_4e/pool
I0913 20:37:56.535547  7755 net.cpp:425] inception_4e/pool <- inception_4d/output_inception_4d/output_0_split_3
I0913 20:37:56.535557  7755 net.cpp:399] inception_4e/pool -> inception_4e/pool
I0913 20:37:56.535629  7755 net.cpp:141] Setting up inception_4e/pool
I0913 20:37:56.535639  7755 net.cpp:148] Top shape: 10 528 14 14 (1034880)
I0913 20:37:56.535642  7755 net.cpp:156] Memory required for data: 512296960
I0913 20:37:56.535647  7755 layer_factory.hpp:77] Creating layer inception_4e/pool_proj
I0913 20:37:56.535660  7755 net.cpp:91] Creating Layer inception_4e/pool_proj
I0913 20:37:56.535670  7755 net.cpp:425] inception_4e/pool_proj <- inception_4e/pool
I0913 20:37:56.535687  7755 net.cpp:399] inception_4e/pool_proj -> inception_4e/pool_proj
I0913 20:37:56.537724  7755 net.cpp:141] Setting up inception_4e/pool_proj
I0913 20:37:56.537742  7755 net.cpp:148] Top shape: 10 128 14 14 (250880)
I0913 20:37:56.537747  7755 net.cpp:156] Memory required for data: 513300480
I0913 20:37:56.537756  7755 layer_factory.hpp:77] Creating layer inception_4e/relu_pool_proj
I0913 20:37:56.537765  7755 net.cpp:91] Creating Layer inception_4e/relu_pool_proj
I0913 20:37:56.537770  7755 net.cpp:425] inception_4e/relu_pool_proj <- inception_4e/pool_proj
I0913 20:37:56.537781  7755 net.cpp:386] inception_4e/relu_pool_proj -> inception_4e/pool_proj (in-place)
I0913 20:37:56.538220  7755 net.cpp:141] Setting up inception_4e/relu_pool_proj
I0913 20:37:56.538239  7755 net.cpp:148] Top shape: 10 128 14 14 (250880)
I0913 20:37:56.538242  7755 net.cpp:156] Memory required for data: 514304000
I0913 20:37:56.538247  7755 layer_factory.hpp:77] Creating layer inception_4e/output
I0913 20:37:56.538256  7755 net.cpp:91] Creating Layer inception_4e/output
I0913 20:37:56.538261  7755 net.cpp:425] inception_4e/output <- inception_4e/1x1
I0913 20:37:56.538269  7755 net.cpp:425] inception_4e/output <- inception_4e/3x3
I0913 20:37:56.538274  7755 net.cpp:425] inception_4e/output <- inception_4e/5x5
I0913 20:37:56.538278  7755 net.cpp:425] inception_4e/output <- inception_4e/pool_proj
I0913 20:37:56.538290  7755 net.cpp:399] inception_4e/output -> inception_4e/output
I0913 20:37:56.538336  7755 net.cpp:141] Setting up inception_4e/output
I0913 20:37:56.538347  7755 net.cpp:148] Top shape: 10 832 14 14 (1630720)
I0913 20:37:56.538352  7755 net.cpp:156] Memory required for data: 520826880
I0913 20:37:56.538357  7755 layer_factory.hpp:77] Creating layer pool4/3x3_s2
I0913 20:37:56.538363  7755 net.cpp:91] Creating Layer pool4/3x3_s2
I0913 20:37:56.538368  7755 net.cpp:425] pool4/3x3_s2 <- inception_4e/output
I0913 20:37:56.538375  7755 net.cpp:399] pool4/3x3_s2 -> pool4/3x3_s2
I0913 20:37:56.538439  7755 net.cpp:141] Setting up pool4/3x3_s2
I0913 20:37:56.538447  7755 net.cpp:148] Top shape: 10 832 7 7 (407680)
I0913 20:37:56.538451  7755 net.cpp:156] Memory required for data: 522457600
I0913 20:37:56.538455  7755 layer_factory.hpp:77] Creating layer pool4/3x3_s2_pool4/3x3_s2_0_split
I0913 20:37:56.538465  7755 net.cpp:91] Creating Layer pool4/3x3_s2_pool4/3x3_s2_0_split
I0913 20:37:56.538470  7755 net.cpp:425] pool4/3x3_s2_pool4/3x3_s2_0_split <- pool4/3x3_s2
I0913 20:37:56.538480  7755 net.cpp:399] pool4/3x3_s2_pool4/3x3_s2_0_split -> pool4/3x3_s2_pool4/3x3_s2_0_split_0
I0913 20:37:56.538487  7755 net.cpp:399] pool4/3x3_s2_pool4/3x3_s2_0_split -> pool4/3x3_s2_pool4/3x3_s2_0_split_1
I0913 20:37:56.538496  7755 net.cpp:399] pool4/3x3_s2_pool4/3x3_s2_0_split -> pool4/3x3_s2_pool4/3x3_s2_0_split_2
I0913 20:37:56.538506  7755 net.cpp:399] pool4/3x3_s2_pool4/3x3_s2_0_split -> pool4/3x3_s2_pool4/3x3_s2_0_split_3
I0913 20:37:56.538599  7755 net.cpp:141] Setting up pool4/3x3_s2_pool4/3x3_s2_0_split
I0913 20:37:56.538609  7755 net.cpp:148] Top shape: 10 832 7 7 (407680)
I0913 20:37:56.538614  7755 net.cpp:148] Top shape: 10 832 7 7 (407680)
I0913 20:37:56.538619  7755 net.cpp:148] Top shape: 10 832 7 7 (407680)
I0913 20:37:56.538624  7755 net.cpp:148] Top shape: 10 832 7 7 (407680)
I0913 20:37:56.538627  7755 net.cpp:156] Memory required for data: 528980480
I0913 20:37:56.538631  7755 layer_factory.hpp:77] Creating layer inception_5a/1x1
I0913 20:37:56.538647  7755 net.cpp:91] Creating Layer inception_5a/1x1
I0913 20:37:56.538653  7755 net.cpp:425] inception_5a/1x1 <- pool4/3x3_s2_pool4/3x3_s2_0_split_0
I0913 20:37:56.538664  7755 net.cpp:399] inception_5a/1x1 -> inception_5a/1x1
I0913 20:37:56.542273  7755 net.cpp:141] Setting up inception_5a/1x1
I0913 20:37:56.542302  7755 net.cpp:148] Top shape: 10 256 7 7 (125440)
I0913 20:37:56.542309  7755 net.cpp:156] Memory required for data: 529482240
I0913 20:37:56.542317  7755 layer_factory.hpp:77] Creating layer inception_5a/relu_1x1
I0913 20:37:56.542325  7755 net.cpp:91] Creating Layer inception_5a/relu_1x1
I0913 20:37:56.542331  7755 net.cpp:425] inception_5a/relu_1x1 <- inception_5a/1x1
I0913 20:37:56.542341  7755 net.cpp:386] inception_5a/relu_1x1 -> inception_5a/1x1 (in-place)
I0913 20:37:56.542762  7755 net.cpp:141] Setting up inception_5a/relu_1x1
I0913 20:37:56.542776  7755 net.cpp:148] Top shape: 10 256 7 7 (125440)
I0913 20:37:56.542781  7755 net.cpp:156] Memory required for data: 529984000
I0913 20:37:56.542786  7755 layer_factory.hpp:77] Creating layer inception_5a/3x3_reduce
I0913 20:37:56.542803  7755 net.cpp:91] Creating Layer inception_5a/3x3_reduce
I0913 20:37:56.542809  7755 net.cpp:425] inception_5a/3x3_reduce <- pool4/3x3_s2_pool4/3x3_s2_0_split_1
I0913 20:37:56.542819  7755 net.cpp:399] inception_5a/3x3_reduce -> inception_5a/3x3_reduce
I0913 20:37:56.546061  7755 net.cpp:141] Setting up inception_5a/3x3_reduce
I0913 20:37:56.546083  7755 net.cpp:148] Top shape: 10 160 7 7 (78400)
I0913 20:37:56.546088  7755 net.cpp:156] Memory required for data: 530297600
I0913 20:37:56.546097  7755 layer_factory.hpp:77] Creating layer inception_5a/relu_3x3_reduce
I0913 20:37:56.546105  7755 net.cpp:91] Creating Layer inception_5a/relu_3x3_reduce
I0913 20:37:56.546111  7755 net.cpp:425] inception_5a/relu_3x3_reduce <- inception_5a/3x3_reduce
I0913 20:37:56.546118  7755 net.cpp:386] inception_5a/relu_3x3_reduce -> inception_5a/3x3_reduce (in-place)
I0913 20:37:56.546365  7755 net.cpp:141] Setting up inception_5a/relu_3x3_reduce
I0913 20:37:56.546375  7755 net.cpp:148] Top shape: 10 160 7 7 (78400)
I0913 20:37:56.546380  7755 net.cpp:156] Memory required for data: 530611200
I0913 20:37:56.546385  7755 layer_factory.hpp:77] Creating layer inception_5a/3x3
I0913 20:37:56.546398  7755 net.cpp:91] Creating Layer inception_5a/3x3
I0913 20:37:56.546404  7755 net.cpp:425] inception_5a/3x3 <- inception_5a/3x3_reduce
I0913 20:37:56.546416  7755 net.cpp:399] inception_5a/3x3 -> inception_5a/3x3
I0913 20:37:56.552876  7755 net.cpp:141] Setting up inception_5a/3x3
I0913 20:37:56.552896  7755 net.cpp:148] Top shape: 10 320 7 7 (156800)
I0913 20:37:56.552901  7755 net.cpp:156] Memory required for data: 531238400
I0913 20:37:56.552911  7755 layer_factory.hpp:77] Creating layer inception_5a/relu_3x3
I0913 20:37:56.552918  7755 net.cpp:91] Creating Layer inception_5a/relu_3x3
I0913 20:37:56.552924  7755 net.cpp:425] inception_5a/relu_3x3 <- inception_5a/3x3
I0913 20:37:56.552935  7755 net.cpp:386] inception_5a/relu_3x3 -> inception_5a/3x3 (in-place)
I0913 20:37:56.553362  7755 net.cpp:141] Setting up inception_5a/relu_3x3
I0913 20:37:56.553375  7755 net.cpp:148] Top shape: 10 320 7 7 (156800)
I0913 20:37:56.553380  7755 net.cpp:156] Memory required for data: 531865600
I0913 20:37:56.553385  7755 layer_factory.hpp:77] Creating layer inception_5a/5x5_reduce
I0913 20:37:56.553405  7755 net.cpp:91] Creating Layer inception_5a/5x5_reduce
I0913 20:37:56.553411  7755 net.cpp:425] inception_5a/5x5_reduce <- pool4/3x3_s2_pool4/3x3_s2_0_split_2
I0913 20:37:56.553421  7755 net.cpp:399] inception_5a/5x5_reduce -> inception_5a/5x5_reduce
I0913 20:37:56.554970  7755 net.cpp:141] Setting up inception_5a/5x5_reduce
I0913 20:37:56.554986  7755 net.cpp:148] Top shape: 10 32 7 7 (15680)
I0913 20:37:56.554991  7755 net.cpp:156] Memory required for data: 531928320
I0913 20:37:56.554999  7755 layer_factory.hpp:77] Creating layer inception_5a/relu_5x5_reduce
I0913 20:37:56.555011  7755 net.cpp:91] Creating Layer inception_5a/relu_5x5_reduce
I0913 20:37:56.555017  7755 net.cpp:425] inception_5a/relu_5x5_reduce <- inception_5a/5x5_reduce
I0913 20:37:56.555024  7755 net.cpp:386] inception_5a/relu_5x5_reduce -> inception_5a/5x5_reduce (in-place)
I0913 20:37:56.555436  7755 net.cpp:141] Setting up inception_5a/relu_5x5_reduce
I0913 20:37:56.555449  7755 net.cpp:148] Top shape: 10 32 7 7 (15680)
I0913 20:37:56.555452  7755 net.cpp:156] Memory required for data: 531991040
I0913 20:37:56.555457  7755 layer_factory.hpp:77] Creating layer inception_5a/5x5
I0913 20:37:56.555474  7755 net.cpp:91] Creating Layer inception_5a/5x5
I0913 20:37:56.555480  7755 net.cpp:425] inception_5a/5x5 <- inception_5a/5x5_reduce
I0913 20:37:56.555488  7755 net.cpp:399] inception_5a/5x5 -> inception_5a/5x5
I0913 20:37:56.557799  7755 net.cpp:141] Setting up inception_5a/5x5
I0913 20:37:56.557817  7755 net.cpp:148] Top shape: 10 128 7 7 (62720)
I0913 20:37:56.557822  7755 net.cpp:156] Memory required for data: 532241920
I0913 20:37:56.557831  7755 layer_factory.hpp:77] Creating layer inception_5a/relu_5x5
I0913 20:37:56.557867  7755 net.cpp:91] Creating Layer inception_5a/relu_5x5
I0913 20:37:56.557873  7755 net.cpp:425] inception_5a/relu_5x5 <- inception_5a/5x5
I0913 20:37:56.557880  7755 net.cpp:386] inception_5a/relu_5x5 -> inception_5a/5x5 (in-place)
I0913 20:37:56.558121  7755 net.cpp:141] Setting up inception_5a/relu_5x5
I0913 20:37:56.558135  7755 net.cpp:148] Top shape: 10 128 7 7 (62720)
I0913 20:37:56.558138  7755 net.cpp:156] Memory required for data: 532492800
I0913 20:37:56.558145  7755 layer_factory.hpp:77] Creating layer inception_5a/pool
I0913 20:37:56.558154  7755 net.cpp:91] Creating Layer inception_5a/pool
I0913 20:37:56.558159  7755 net.cpp:425] inception_5a/pool <- pool4/3x3_s2_pool4/3x3_s2_0_split_3
I0913 20:37:56.558166  7755 net.cpp:399] inception_5a/pool -> inception_5a/pool
I0913 20:37:56.558241  7755 net.cpp:141] Setting up inception_5a/pool
I0913 20:37:56.558250  7755 net.cpp:148] Top shape: 10 832 7 7 (407680)
I0913 20:37:56.558254  7755 net.cpp:156] Memory required for data: 534123520
I0913 20:37:56.558259  7755 layer_factory.hpp:77] Creating layer inception_5a/pool_proj
I0913 20:37:56.558272  7755 net.cpp:91] Creating Layer inception_5a/pool_proj
I0913 20:37:56.558279  7755 net.cpp:425] inception_5a/pool_proj <- inception_5a/pool
I0913 20:37:56.558289  7755 net.cpp:399] inception_5a/pool_proj -> inception_5a/pool_proj
I0913 20:37:56.561336  7755 net.cpp:141] Setting up inception_5a/pool_proj
I0913 20:37:56.561357  7755 net.cpp:148] Top shape: 10 128 7 7 (62720)
I0913 20:37:56.561362  7755 net.cpp:156] Memory required for data: 534374400
I0913 20:37:56.561370  7755 layer_factory.hpp:77] Creating layer inception_5a/relu_pool_proj
I0913 20:37:56.561378  7755 net.cpp:91] Creating Layer inception_5a/relu_pool_proj
I0913 20:37:56.561384  7755 net.cpp:425] inception_5a/relu_pool_proj <- inception_5a/pool_proj
I0913 20:37:56.561391  7755 net.cpp:386] inception_5a/relu_pool_proj -> inception_5a/pool_proj (in-place)
I0913 20:37:56.561818  7755 net.cpp:141] Setting up inception_5a/relu_pool_proj
I0913 20:37:56.561830  7755 net.cpp:148] Top shape: 10 128 7 7 (62720)
I0913 20:37:56.561835  7755 net.cpp:156] Memory required for data: 534625280
I0913 20:37:56.561839  7755 layer_factory.hpp:77] Creating layer inception_5a/output
I0913 20:37:56.561848  7755 net.cpp:91] Creating Layer inception_5a/output
I0913 20:37:56.561853  7755 net.cpp:425] inception_5a/output <- inception_5a/1x1
I0913 20:37:56.561859  7755 net.cpp:425] inception_5a/output <- inception_5a/3x3
I0913 20:37:56.561866  7755 net.cpp:425] inception_5a/output <- inception_5a/5x5
I0913 20:37:56.561871  7755 net.cpp:425] inception_5a/output <- inception_5a/pool_proj
I0913 20:37:56.561880  7755 net.cpp:399] inception_5a/output -> inception_5a/output
I0913 20:37:56.561928  7755 net.cpp:141] Setting up inception_5a/output
I0913 20:37:56.561939  7755 net.cpp:148] Top shape: 10 832 7 7 (407680)
I0913 20:37:56.561944  7755 net.cpp:156] Memory required for data: 536256000
I0913 20:37:56.561949  7755 layer_factory.hpp:77] Creating layer inception_5a/output_inception_5a/output_0_split
I0913 20:37:56.561956  7755 net.cpp:91] Creating Layer inception_5a/output_inception_5a/output_0_split
I0913 20:37:56.561961  7755 net.cpp:425] inception_5a/output_inception_5a/output_0_split <- inception_5a/output
I0913 20:37:56.561969  7755 net.cpp:399] inception_5a/output_inception_5a/output_0_split -> inception_5a/output_inception_5a/output_0_split_0
I0913 20:37:56.561976  7755 net.cpp:399] inception_5a/output_inception_5a/output_0_split -> inception_5a/output_inception_5a/output_0_split_1
I0913 20:37:56.561985  7755 net.cpp:399] inception_5a/output_inception_5a/output_0_split -> inception_5a/output_inception_5a/output_0_split_2
I0913 20:37:56.561996  7755 net.cpp:399] inception_5a/output_inception_5a/output_0_split -> inception_5a/output_inception_5a/output_0_split_3
I0913 20:37:56.562099  7755 net.cpp:141] Setting up inception_5a/output_inception_5a/output_0_split
I0913 20:37:56.562108  7755 net.cpp:148] Top shape: 10 832 7 7 (407680)
I0913 20:37:56.562114  7755 net.cpp:148] Top shape: 10 832 7 7 (407680)
I0913 20:37:56.562119  7755 net.cpp:148] Top shape: 10 832 7 7 (407680)
I0913 20:37:56.562124  7755 net.cpp:148] Top shape: 10 832 7 7 (407680)
I0913 20:37:56.562127  7755 net.cpp:156] Memory required for data: 542778880
I0913 20:37:56.562132  7755 layer_factory.hpp:77] Creating layer inception_5b/1x1
I0913 20:37:56.562146  7755 net.cpp:91] Creating Layer inception_5b/1x1
I0913 20:37:56.562152  7755 net.cpp:425] inception_5b/1x1 <- inception_5a/output_inception_5a/output_0_split_0
I0913 20:37:56.562162  7755 net.cpp:399] inception_5b/1x1 -> inception_5b/1x1
I0913 20:37:56.566686  7755 net.cpp:141] Setting up inception_5b/1x1
I0913 20:37:56.566716  7755 net.cpp:148] Top shape: 10 384 7 7 (188160)
I0913 20:37:56.566721  7755 net.cpp:156] Memory required for data: 543531520
I0913 20:37:56.566730  7755 layer_factory.hpp:77] Creating layer inception_5b/relu_1x1
I0913 20:37:56.566738  7755 net.cpp:91] Creating Layer inception_5b/relu_1x1
I0913 20:37:56.566745  7755 net.cpp:425] inception_5b/relu_1x1 <- inception_5b/1x1
I0913 20:37:56.566753  7755 net.cpp:386] inception_5b/relu_1x1 -> inception_5b/1x1 (in-place)
I0913 20:37:56.567167  7755 net.cpp:141] Setting up inception_5b/relu_1x1
I0913 20:37:56.567178  7755 net.cpp:148] Top shape: 10 384 7 7 (188160)
I0913 20:37:56.567183  7755 net.cpp:156] Memory required for data: 544284160
I0913 20:37:56.567188  7755 layer_factory.hpp:77] Creating layer inception_5b/3x3_reduce
I0913 20:37:56.567201  7755 net.cpp:91] Creating Layer inception_5b/3x3_reduce
I0913 20:37:56.567208  7755 net.cpp:425] inception_5b/3x3_reduce <- inception_5a/output_inception_5a/output_0_split_1
I0913 20:37:56.567219  7755 net.cpp:399] inception_5b/3x3_reduce -> inception_5b/3x3_reduce
I0913 20:37:56.570683  7755 net.cpp:141] Setting up inception_5b/3x3_reduce
I0913 20:37:56.570701  7755 net.cpp:148] Top shape: 10 192 7 7 (94080)
I0913 20:37:56.570705  7755 net.cpp:156] Memory required for data: 544660480
I0913 20:37:56.570714  7755 layer_factory.hpp:77] Creating layer inception_5b/relu_3x3_reduce
I0913 20:37:56.570722  7755 net.cpp:91] Creating Layer inception_5b/relu_3x3_reduce
I0913 20:37:56.570729  7755 net.cpp:425] inception_5b/relu_3x3_reduce <- inception_5b/3x3_reduce
I0913 20:37:56.570737  7755 net.cpp:386] inception_5b/relu_3x3_reduce -> inception_5b/3x3_reduce (in-place)
I0913 20:37:56.570981  7755 net.cpp:141] Setting up inception_5b/relu_3x3_reduce
I0913 20:37:56.570991  7755 net.cpp:148] Top shape: 10 192 7 7 (94080)
I0913 20:37:56.570996  7755 net.cpp:156] Memory required for data: 545036800
I0913 20:37:56.571000  7755 layer_factory.hpp:77] Creating layer inception_5b/3x3
I0913 20:37:56.571017  7755 net.cpp:91] Creating Layer inception_5b/3x3
I0913 20:37:56.571022  7755 net.cpp:425] inception_5b/3x3 <- inception_5b/3x3_reduce
I0913 20:37:56.571030  7755 net.cpp:399] inception_5b/3x3 -> inception_5b/3x3
I0913 20:37:56.579344  7755 net.cpp:141] Setting up inception_5b/3x3
I0913 20:37:56.579365  7755 net.cpp:148] Top shape: 10 384 7 7 (188160)
I0913 20:37:56.579370  7755 net.cpp:156] Memory required for data: 545789440
I0913 20:37:56.579378  7755 layer_factory.hpp:77] Creating layer inception_5b/relu_3x3
I0913 20:37:56.579387  7755 net.cpp:91] Creating Layer inception_5b/relu_3x3
I0913 20:37:56.579392  7755 net.cpp:425] inception_5b/relu_3x3 <- inception_5b/3x3
I0913 20:37:56.579403  7755 net.cpp:386] inception_5b/relu_3x3 -> inception_5b/3x3 (in-place)
I0913 20:37:56.579830  7755 net.cpp:141] Setting up inception_5b/relu_3x3
I0913 20:37:56.579845  7755 net.cpp:148] Top shape: 10 384 7 7 (188160)
I0913 20:37:56.579850  7755 net.cpp:156] Memory required for data: 546542080
I0913 20:37:56.579855  7755 layer_factory.hpp:77] Creating layer inception_5b/5x5_reduce
I0913 20:37:56.579871  7755 net.cpp:91] Creating Layer inception_5b/5x5_reduce
I0913 20:37:56.579877  7755 net.cpp:425] inception_5b/5x5_reduce <- inception_5a/output_inception_5a/output_0_split_2
I0913 20:37:56.579888  7755 net.cpp:399] inception_5b/5x5_reduce -> inception_5b/5x5_reduce
I0913 20:37:56.581627  7755 net.cpp:141] Setting up inception_5b/5x5_reduce
I0913 20:37:56.581642  7755 net.cpp:148] Top shape: 10 48 7 7 (23520)
I0913 20:37:56.581647  7755 net.cpp:156] Memory required for data: 546636160
I0913 20:37:56.581655  7755 layer_factory.hpp:77] Creating layer inception_5b/relu_5x5_reduce
I0913 20:37:56.581663  7755 net.cpp:91] Creating Layer inception_5b/relu_5x5_reduce
I0913 20:37:56.581670  7755 net.cpp:425] inception_5b/relu_5x5_reduce <- inception_5b/5x5_reduce
I0913 20:37:56.581679  7755 net.cpp:386] inception_5b/relu_5x5_reduce -> inception_5b/5x5_reduce (in-place)
I0913 20:37:56.582078  7755 net.cpp:141] Setting up inception_5b/relu_5x5_reduce
I0913 20:37:56.582093  7755 net.cpp:148] Top shape: 10 48 7 7 (23520)
I0913 20:37:56.582098  7755 net.cpp:156] Memory required for data: 546730240
I0913 20:37:56.582103  7755 layer_factory.hpp:77] Creating layer inception_5b/5x5
I0913 20:37:56.582116  7755 net.cpp:91] Creating Layer inception_5b/5x5
I0913 20:37:56.582123  7755 net.cpp:425] inception_5b/5x5 <- inception_5b/5x5_reduce
I0913 20:37:56.582132  7755 net.cpp:399] inception_5b/5x5 -> inception_5b/5x5
I0913 20:37:56.585185  7755 net.cpp:141] Setting up inception_5b/5x5
I0913 20:37:56.585212  7755 net.cpp:148] Top shape: 10 128 7 7 (62720)
I0913 20:37:56.585218  7755 net.cpp:156] Memory required for data: 546981120
I0913 20:37:56.585227  7755 layer_factory.hpp:77] Creating layer inception_5b/relu_5x5
I0913 20:37:56.585242  7755 net.cpp:91] Creating Layer inception_5b/relu_5x5
I0913 20:37:56.585249  7755 net.cpp:425] inception_5b/relu_5x5 <- inception_5b/5x5
I0913 20:37:56.585258  7755 net.cpp:386] inception_5b/relu_5x5 -> inception_5b/5x5 (in-place)
I0913 20:37:56.585505  7755 net.cpp:141] Setting up inception_5b/relu_5x5
I0913 20:37:56.585515  7755 net.cpp:148] Top shape: 10 128 7 7 (62720)
I0913 20:37:56.585520  7755 net.cpp:156] Memory required for data: 547232000
I0913 20:37:56.585525  7755 layer_factory.hpp:77] Creating layer inception_5b/pool
I0913 20:37:56.585538  7755 net.cpp:91] Creating Layer inception_5b/pool
I0913 20:37:56.585543  7755 net.cpp:425] inception_5b/pool <- inception_5a/output_inception_5a/output_0_split_3
I0913 20:37:56.585551  7755 net.cpp:399] inception_5b/pool -> inception_5b/pool
I0913 20:37:56.585630  7755 net.cpp:141] Setting up inception_5b/pool
I0913 20:37:56.585640  7755 net.cpp:148] Top shape: 10 832 7 7 (407680)
I0913 20:37:56.585644  7755 net.cpp:156] Memory required for data: 548862720
I0913 20:37:56.585649  7755 layer_factory.hpp:77] Creating layer inception_5b/pool_proj
I0913 20:37:56.585661  7755 net.cpp:91] Creating Layer inception_5b/pool_proj
I0913 20:37:56.585667  7755 net.cpp:425] inception_5b/pool_proj <- inception_5b/pool
I0913 20:37:56.585675  7755 net.cpp:399] inception_5b/pool_proj -> inception_5b/pool_proj
I0913 20:37:56.588724  7755 net.cpp:141] Setting up inception_5b/pool_proj
I0913 20:37:56.588742  7755 net.cpp:148] Top shape: 10 128 7 7 (62720)
I0913 20:37:56.588760  7755 net.cpp:156] Memory required for data: 549113600
I0913 20:37:56.588768  7755 layer_factory.hpp:77] Creating layer inception_5b/relu_pool_proj
I0913 20:37:56.588778  7755 net.cpp:91] Creating Layer inception_5b/relu_pool_proj
I0913 20:37:56.588783  7755 net.cpp:425] inception_5b/relu_pool_proj <- inception_5b/pool_proj
I0913 20:37:56.588793  7755 net.cpp:386] inception_5b/relu_pool_proj -> inception_5b/pool_proj (in-place)
I0913 20:37:56.589231  7755 net.cpp:141] Setting up inception_5b/relu_pool_proj
I0913 20:37:56.589242  7755 net.cpp:148] Top shape: 10 128 7 7 (62720)
I0913 20:37:56.589246  7755 net.cpp:156] Memory required for data: 549364480
I0913 20:37:56.589251  7755 layer_factory.hpp:77] Creating layer inception_5b/output
I0913 20:37:56.589260  7755 net.cpp:91] Creating Layer inception_5b/output
I0913 20:37:56.589265  7755 net.cpp:425] inception_5b/output <- inception_5b/1x1
I0913 20:37:56.589272  7755 net.cpp:425] inception_5b/output <- inception_5b/3x3
I0913 20:37:56.589275  7755 net.cpp:425] inception_5b/output <- inception_5b/5x5
I0913 20:37:56.589280  7755 net.cpp:425] inception_5b/output <- inception_5b/pool_proj
I0913 20:37:56.589290  7755 net.cpp:399] inception_5b/output -> inception_5b/output
I0913 20:37:56.589340  7755 net.cpp:141] Setting up inception_5b/output
I0913 20:37:56.589349  7755 net.cpp:148] Top shape: 10 1024 7 7 (501760)
I0913 20:37:56.589352  7755 net.cpp:156] Memory required for data: 551371520
I0913 20:37:56.589357  7755 layer_factory.hpp:77] Creating layer pool5/7x7_s1
I0913 20:37:56.589365  7755 net.cpp:91] Creating Layer pool5/7x7_s1
I0913 20:37:56.589370  7755 net.cpp:425] pool5/7x7_s1 <- inception_5b/output
I0913 20:37:56.589380  7755 net.cpp:399] pool5/7x7_s1 -> pool5/7x7_s1
I0913 20:37:56.589673  7755 net.cpp:141] Setting up pool5/7x7_s1
I0913 20:37:56.589684  7755 net.cpp:148] Top shape: 10 1024 1 1 (10240)
I0913 20:37:56.589687  7755 net.cpp:156] Memory required for data: 551412480
I0913 20:37:56.589691  7755 layer_factory.hpp:77] Creating layer pool5/drop_7x7_s1
I0913 20:37:56.589711  7755 net.cpp:91] Creating Layer pool5/drop_7x7_s1
I0913 20:37:56.589717  7755 net.cpp:425] pool5/drop_7x7_s1 <- pool5/7x7_s1
I0913 20:37:56.589723  7755 net.cpp:386] pool5/drop_7x7_s1 -> pool5/7x7_s1 (in-place)
I0913 20:37:56.589773  7755 net.cpp:141] Setting up pool5/drop_7x7_s1
I0913 20:37:56.589782  7755 net.cpp:148] Top shape: 10 1024 1 1 (10240)
I0913 20:37:56.589785  7755 net.cpp:156] Memory required for data: 551453440
I0913 20:37:56.589790  7755 layer_factory.hpp:77] Creating layer loss3/classifier
I0913 20:37:56.589807  7755 net.cpp:91] Creating Layer loss3/classifier
I0913 20:37:56.589812  7755 net.cpp:425] loss3/classifier <- pool5/7x7_s1
I0913 20:37:56.589839  7755 net.cpp:399] loss3/classifier -> loss3/classifier
I0913 20:37:56.599424  7755 net.cpp:141] Setting up loss3/classifier
I0913 20:37:56.599444  7755 net.cpp:148] Top shape: 10 1000 (10000)
I0913 20:37:56.599448  7755 net.cpp:156] Memory required for data: 551493440
I0913 20:37:56.599457  7755 layer_factory.hpp:77] Creating layer prob
I0913 20:37:56.599467  7755 net.cpp:91] Creating Layer prob
I0913 20:37:56.599472  7755 net.cpp:425] prob <- loss3/classifier
I0913 20:37:56.599478  7755 net.cpp:399] prob -> prob
I0913 20:37:56.600047  7755 net.cpp:141] Setting up prob
I0913 20:37:56.600062  7755 net.cpp:148] Top shape: 10 1000 (10000)
I0913 20:37:56.600066  7755 net.cpp:156] Memory required for data: 551533440
I0913 20:37:56.600078  7755 net.cpp:219] prob does not need backward computation.
I0913 20:37:56.600085  7755 net.cpp:219] loss3/classifier does not need backward computation.
I0913 20:37:56.600088  7755 net.cpp:219] pool5/drop_7x7_s1 does not need backward computation.
I0913 20:37:56.600092  7755 net.cpp:219] pool5/7x7_s1 does not need backward computation.
…
