…
Java HotSpot(TM) 64-Bit Server VM warning: You have loaded library /home/peifeng/work/run/storm102/data/workers/3acea4ca-d4b8-4d7b-9681-0542def7d4e6/tmp/cvld4291719538085398960/libopencv_java310.xine1.so which might have disabled stack guard. The VM will try to fix the stack guard now.
It's highly recommended that you fix the library with 'execstack -c <libfile>', or link it with '-z noexecstack'.
WARNING: Logging before InitGoogleLogging() is written to STDERR
I0913 21:12:19.382254 18047 net.cpp:49] Initializing net from parameters: 
name: "CaffeNet"
state {
  phase: TEST
}
layer {
  name: "data"
  type: "Input"
  top: "data"
  input_param {
    shape {
      dim: 10
      dim: 3
      dim: 227
      dim: 227
    }
  }
}
layer {
  name: "conv1"
  type: "Convolution"
  bottom: "data"
  top: "conv1"
  convolution_param {
    num_output: 96
    kernel_size: 11
    stride: 4
  }
}
layer {
  name: "relu1"
  type: "ReLU"
  bottom: "conv1"
  top: "conv1"
}
layer {
  name: "pool1"
  type: "Pooling"
  bottom: "conv1"
  top: "pool1"
  pooling_param {
    pool: MAX
    kernel_size: 3
    stride: 2
  }
}
layer {
  name: "norm1"
  type: "LRN"
  bottom: "pool1"
  top: "norm1"
  lrn_param {
    local_size: 5
    alpha: 0.0001
    beta: 0.75
  }
}
layer {
  name: "conv2"
  type: "Convolution"
  bottom: "norm1"
  top: "conv2"
  convolution_param {
    num_output: 256
    pad: 2
    kernel_size: 5
    group: 2
  }
}
layer {
  name: "relu2"
  type: "ReLU"
  bottom: "conv2"
  top: "conv2"
}
layer {
  name: "pool2"
  type: "Pooling"
  bottom: "conv2"
  top: "pool2"
  pooling_param {
    pool: MAX
    kernel_size: 3
    stride: 2
  }
}
layer {
  name: "norm2"
  type: "LRN"
  bottom: "pool2"
  top: "norm2"
  lrn_param {
    local_size: 5
    alpha: 0.0001
    beta: 0.75
  }
}
layer {
  name: "conv3"
  type: "Convolution"
  bottom: "norm2"
  top: "conv3"
  convolution_param {
    num_output: 384
    pad: 1
    kernel_size: 3
  }
}
layer {
  name: "relu3"
  type: "ReLU"
  bottom: "conv3"
  top: "conv3"
}
layer {
  name: "conv4"
  type: "Convolution"
  bottom: "conv3"
  top: "conv4"
  convolution_param {
    num_output: 384
    pad: 1
    kernel_size: 3
    group: 2
  }
}
layer {
  name: "relu4"
  type: "ReLU"
  bottom: "conv4"
  top: "conv4"
}
layer {
  name: "conv5"
  type: "Convolution"
  bottom: "conv4"
  top: "conv5"
  convolution_param {
    num_output: 256
    pad: 1
    kernel_size: 3
    group: 2
  }
}
layer {
  name: "relu5"
  type: "ReLU"
  bottom: "conv5"
  top: "conv5"
}
layer {
  name: "pool5"
  type: "Pooling"
  bottom: "conv5"
  top: "pool5"
  pooling_param {
    pool: MAX
    kernel_size: 3
    stride: 2
  }
}
layer {
  name: "fc6"
  type: "InnerProduct"
  bottom: "pool5"
  top: "fc6"
  inner_product_param {
    num_output: 4096
  }
}
layer {
  name: "relu6"
  type: "ReLU"
  bottom: "fc6"
  top: "fc6"
}
layer {
  name: "drop6"
  type: "Dropout"
  bottom: "fc6"
  top: "fc6"
  dropout_param {
    dropout_ratio: 0.5
  }
}
layer {
  name: "fc7"
  type: "InnerProduct"
  bottom: "fc6"
  top: "fc7"
  inner_product_param {
    num_output: 4096
  }
}
layer {
  name: "relu7"
  type: "ReLU"
  bottom: "fc7"
  top: "fc7"
}
layer {
  name: "drop7"
  type: "Dropout"
  bottom: "fc7"
  top: "fc7"
  dropout_param {
    dropout_ratio: 0.5
  }
}
layer {
  name: "fc8"
  type: "InnerProduct"
  bottom: "fc7"
  top: "fc8"
  inner_product_param {
    num_output: 1000
  }
}
layer {
  name: "prob"
  type: "Softmax"
  bottom: "fc8"
  top: "prob"
}
I0913 21:12:19.382450 18047 layer_factory.hpp:77] Creating layer data
I0913 21:12:19.382477 18047 net.cpp:91] Creating Layer data
I0913 21:12:19.382488 18047 net.cpp:399] data -> data
I0913 21:12:19.903192 18047 net.cpp:141] Setting up data
I0913 21:12:19.903395 18047 net.cpp:148] Top shape: 10 3 227 227 (1545870)
I0913 21:12:19.903404 18047 net.cpp:156] Memory required for data: 6183480
I0913 21:12:19.903435 18047 layer_factory.hpp:77] Creating layer conv1
I0913 21:12:19.903475 18047 net.cpp:91] Creating Layer conv1
I0913 21:12:19.903484 18047 net.cpp:425] conv1 <- data
I0913 21:12:19.903498 18047 net.cpp:399] conv1 -> conv1
I0913 21:12:20.028067 18037 upgrade_proto.cpp:66] Attempting to upgrade input file specified using deprecated input fields: /home/peifeng/work/run/storm102/data/workers/3acea4ca-d4b8-4d7b-9681-0542def7d4e6/tmp/cvld4291719538085398960/s2vt.words_to_preds.prototxt
I0913 21:12:20.028136 18037 upgrade_proto.cpp:69] Successfully upgraded file specified using deprecated input fields.
W0913 21:12:20.028144 18037 upgrade_proto.cpp:71] Note that future Caffe releases will only support input layers and not input fields.
I0913 21:12:20.028408 18037 net.cpp:49] Initializing net from parameters: 
name: "s2vt:features_to_lstm"
state {
  phase: TEST
}
layer {
  name: "input"
  type: "Input"
  top: "frames_fc7"
  top: "cont_sentence"
  top: "input_sentence"
  top: "stage_indicator"
  input_param {
    shape {
      dim: 1
      dim: 4096
    }
    shape {
      dim: 1
      dim: 1
    }
    shape {
      dim: 1
      dim: 1
    }
    shape {
      dim: 1
      dim: 1
    }
  }
}
layer {
  name: "embed_encoder"
  type: "InnerProduct"
  bottom: "frames_fc7"
  top: "embedded_in_frames"
  param {
    lr_mult: 1
    decay_mult: 1
  }
  param {
    lr_mult: 2
    decay_mult: 0
  }
  inner_product_param {
    num_output: 500
    weight_filler {
      type: "xavier"
    }
    bias_filler {
      type: "constant"
      value: 0.2
    }
  }
}
layer {
  name: "reshape_frames"
  type: "Reshape"
  bottom: "embedded_in_frames"
  top: "embedded_input_frames"
  reshape_param {
    shape {
      dim: 1
      dim: 1
      dim: 500
    }
  }
}
layer {
  name: "reshape_stage_indicator"
  type: "Reshape"
  bottom: "stage_indicator"
  top: "reshaped_stage_indicator"
  reshape_param {
    shape {
      dim: 1
      dim: 1
      dim: 1
    }
  }
}
layer {
  name: "embedding"
  type: "Embed"
  bottom: "input_sentence"
  top: "embedded_input_sentence"
  param {
    lr_mult: 1
  }
  embed_param {
    num_output: 500
    input_dim: 46168
    bias_term: false
    weight_filler {
      type: "uniform"
      min: -0.08
      max: 0.08
    }
  }
}
layer {
  name: "lstm1"
  type: "LSTM"
  bottom: "embedded_input_frames"
  bottom: "cont_sentence"
  top: "lstm1"
  recurrent_param {
    num_output: 1000
    weight_filler {
      type: "uniform"
      min: -0.08
      max: 0.08
    }
    bias_filler {
      type: "constant"
      value: 0
    }
  }
}
layer {
  name: "concat"
  type: "Concat"
  bottom: "lstm1"
  bottom: "embedded_input_sentence"
  bottom: "reshaped_stage_indicator"
  top: "lstm1_video_sequence"
  concat_param {
    concat_dim: 2
  }
}
layer {
  name: "lstm2"
  type: "LSTM"
  bottom: "lstm1_video_sequence"
  bottom: "cont_sentence"
  top: "lstm2"
  recurrent_param {
    num_output: 1000
    weight_filler {
      type: "uniform"
      min: -0.08
      max: 0.08
    }
    bias_filler {
      type: "constant"
      value: 0
    }
  }
}
layer {
  name: "predict"
  type: "InnerProduct"
  bottom: "lstm2"
  top: "predict"
  param {
    lr_mult: 1
    decay_mult: 1
  }
  param {
    lr_mult: 2
    decay_mult: 0
  }
  inner_product_param {
    num_output: 46168
    weight_filler {
      type: "uniform"
      min: -0.08
      max: 0.08
    }
    bias_filler {
      type: "constant"
      value: 0
    }
    axis: 2
  }
}
layer {
  name: "probs"
  type: "Softmax"
  bottom: "predict"
  top: "probs"
  softmax_param {
    axis: 2
  }
}
I0913 21:12:20.028507 18037 layer_factory.hpp:77] Creating layer input
I0913 21:12:20.028535 18037 net.cpp:91] Creating Layer input
I0913 21:12:20.028544 18037 net.cpp:399] input -> frames_fc7
I0913 21:12:20.028563 18037 net.cpp:399] input -> cont_sentence
I0913 21:12:20.028574 18037 net.cpp:399] input -> input_sentence
I0913 21:12:20.028584 18037 net.cpp:399] input -> stage_indicator
I0913 21:12:20.029909 18037 net.cpp:141] Setting up input
I0913 21:12:20.029928 18037 net.cpp:148] Top shape: 1 4096 (4096)
I0913 21:12:20.029935 18037 net.cpp:148] Top shape: 1 1 (1)
I0913 21:12:20.029940 18037 net.cpp:148] Top shape: 1 1 (1)
I0913 21:12:20.029947 18037 net.cpp:148] Top shape: 1 1 (1)
I0913 21:12:20.029950 18037 net.cpp:156] Memory required for data: 16396
I0913 21:12:20.029956 18037 layer_factory.hpp:77] Creating layer cont_sentence_input_1_split
I0913 21:12:20.029989 18037 net.cpp:91] Creating Layer cont_sentence_input_1_split
I0913 21:12:20.029995 18037 net.cpp:425] cont_sentence_input_1_split <- cont_sentence
I0913 21:12:20.030015 18037 net.cpp:399] cont_sentence_input_1_split -> cont_sentence_input_1_split_0
I0913 21:12:20.030026 18037 net.cpp:399] cont_sentence_input_1_split -> cont_sentence_input_1_split_1
I0913 21:12:20.033879 18037 net.cpp:141] Setting up cont_sentence_input_1_split
I0913 21:12:20.033896 18037 net.cpp:148] Top shape: 1 1 (1)
I0913 21:12:20.033903 18037 net.cpp:148] Top shape: 1 1 (1)
I0913 21:12:20.033907 18037 net.cpp:156] Memory required for data: 16404
I0913 21:12:20.033913 18037 layer_factory.hpp:77] Creating layer embed_encoder
I0913 21:12:20.033933 18037 net.cpp:91] Creating Layer embed_encoder
I0913 21:12:20.033939 18037 net.cpp:425] embed_encoder <- frames_fc7
I0913 21:12:20.033949 18037 net.cpp:399] embed_encoder -> embedded_in_frames
I0913 21:12:20.059963 18037 net.cpp:141] Setting up embed_encoder
I0913 21:12:20.060014 18037 net.cpp:148] Top shape: 1 500 (500)
I0913 21:12:20.060020 18037 net.cpp:156] Memory required for data: 18404
I0913 21:12:20.060047 18037 layer_factory.hpp:77] Creating layer reshape_frames
I0913 21:12:20.060091 18037 net.cpp:91] Creating Layer reshape_frames
I0913 21:12:20.060099 18037 net.cpp:425] reshape_frames <- embedded_in_frames
I0913 21:12:20.060111 18037 net.cpp:399] reshape_frames -> embedded_input_frames
I0913 21:12:20.060266 18037 net.cpp:141] Setting up reshape_frames
I0913 21:12:20.060276 18037 net.cpp:148] Top shape: 1 1 500 (500)
I0913 21:12:20.060281 18037 net.cpp:156] Memory required for data: 20404
I0913 21:12:20.060286 18037 layer_factory.hpp:77] Creating layer reshape_stage_indicator
I0913 21:12:20.060297 18037 net.cpp:91] Creating Layer reshape_stage_indicator
I0913 21:12:20.060302 18037 net.cpp:425] reshape_stage_indicator <- stage_indicator
I0913 21:12:20.060322 18037 net.cpp:399] reshape_stage_indicator -> reshaped_stage_indicator
I0913 21:12:20.063189 18037 net.cpp:141] Setting up reshape_stage_indicator
I0913 21:12:20.063208 18037 net.cpp:148] Top shape: 1 1 1 (1)
I0913 21:12:20.063213 18037 net.cpp:156] Memory required for data: 20408
I0913 21:12:20.063220 18037 layer_factory.hpp:77] Creating layer embedding
I0913 21:12:20.063232 18037 net.cpp:91] Creating Layer embedding
I0913 21:12:20.063238 18037 net.cpp:425] embedding <- input_sentence
I0913 21:12:20.063251 18037 net.cpp:399] embedding -> embedded_input_sentence
I0913 21:12:20.128206 18047 net.cpp:141] Setting up conv1
I0913 21:12:20.128249 18047 net.cpp:148] Top shape: 10 96 55 55 (2904000)
I0913 21:12:20.128257 18047 net.cpp:156] Memory required for data: 17799480
I0913 21:12:20.128276 18047 layer_factory.hpp:77] Creating layer relu1
I0913 21:12:20.128293 18047 net.cpp:91] Creating Layer relu1
I0913 21:12:20.128299 18047 net.cpp:425] relu1 <- conv1
I0913 21:12:20.128307 18047 net.cpp:386] relu1 -> conv1 (in-place)
I0913 21:12:20.128686 18047 net.cpp:141] Setting up relu1
I0913 21:12:20.128700 18047 net.cpp:148] Top shape: 10 96 55 55 (2904000)
I0913 21:12:20.128705 18047 net.cpp:156] Memory required for data: 29415480
I0913 21:12:20.128710 18047 layer_factory.hpp:77] Creating layer pool1
I0913 21:12:20.128722 18047 net.cpp:91] Creating Layer pool1
I0913 21:12:20.128727 18047 net.cpp:425] pool1 <- conv1
I0913 21:12:20.128736 18047 net.cpp:399] pool1 -> pool1
I0913 21:12:20.128801 18047 net.cpp:141] Setting up pool1
I0913 21:12:20.128811 18047 net.cpp:148] Top shape: 10 96 27 27 (699840)
I0913 21:12:20.128816 18047 net.cpp:156] Memory required for data: 32214840
I0913 21:12:20.128821 18047 layer_factory.hpp:77] Creating layer norm1
I0913 21:12:20.128837 18047 net.cpp:91] Creating Layer norm1
I0913 21:12:20.128842 18047 net.cpp:425] norm1 <- pool1
I0913 21:12:20.128849 18047 net.cpp:399] norm1 -> norm1
I0913 21:12:20.129103 18047 net.cpp:141] Setting up norm1
I0913 21:12:20.129117 18047 net.cpp:148] Top shape: 10 96 27 27 (699840)
I0913 21:12:20.129122 18047 net.cpp:156] Memory required for data: 35014200
I0913 21:12:20.129127 18047 layer_factory.hpp:77] Creating layer conv2
I0913 21:12:20.129156 18047 net.cpp:91] Creating Layer conv2
I0913 21:12:20.129161 18047 net.cpp:425] conv2 <- norm1
I0913 21:12:20.129168 18047 net.cpp:399] conv2 -> conv2
I0913 21:12:20.132324 18047 net.cpp:141] Setting up conv2
I0913 21:12:20.132344 18047 net.cpp:148] Top shape: 10 256 27 27 (1866240)
I0913 21:12:20.132349 18047 net.cpp:156] Memory required for data: 42479160
I0913 21:12:20.132361 18047 layer_factory.hpp:77] Creating layer relu2
I0913 21:12:20.132369 18047 net.cpp:91] Creating Layer relu2
I0913 21:12:20.132375 18047 net.cpp:425] relu2 <- conv2
I0913 21:12:20.132383 18047 net.cpp:386] relu2 -> conv2 (in-place)
I0913 21:12:20.132766 18047 net.cpp:141] Setting up relu2
I0913 21:12:20.132779 18047 net.cpp:148] Top shape: 10 256 27 27 (1866240)
I0913 21:12:20.132783 18047 net.cpp:156] Memory required for data: 49944120
I0913 21:12:20.132789 18047 layer_factory.hpp:77] Creating layer pool2
I0913 21:12:20.132812 18047 net.cpp:91] Creating Layer pool2
I0913 21:12:20.132818 18047 net.cpp:425] pool2 <- conv2
I0913 21:12:20.132825 18047 net.cpp:399] pool2 -> pool2
I0913 21:12:20.132882 18047 net.cpp:141] Setting up pool2
I0913 21:12:20.132892 18047 net.cpp:148] Top shape: 10 256 13 13 (432640)
I0913 21:12:20.132896 18047 net.cpp:156] Memory required for data: 51674680
I0913 21:12:20.132901 18047 layer_factory.hpp:77] Creating layer norm2
I0913 21:12:20.132913 18047 net.cpp:91] Creating Layer norm2
I0913 21:12:20.132918 18047 net.cpp:425] norm2 <- pool2
I0913 21:12:20.132925 18047 net.cpp:399] norm2 -> norm2
I0913 21:12:20.133182 18047 net.cpp:141] Setting up norm2
I0913 21:12:20.133193 18047 net.cpp:148] Top shape: 10 256 13 13 (432640)
I0913 21:12:20.133198 18047 net.cpp:156] Memory required for data: 53405240
I0913 21:12:20.133203 18047 layer_factory.hpp:77] Creating layer conv3
I0913 21:12:20.133215 18047 net.cpp:91] Creating Layer conv3
I0913 21:12:20.133220 18047 net.cpp:425] conv3 <- norm2
I0913 21:12:20.133227 18047 net.cpp:399] conv3 -> conv3
I0913 21:12:20.136878 18047 net.cpp:141] Setting up conv3
I0913 21:12:20.136898 18047 net.cpp:148] Top shape: 10 384 13 13 (648960)
I0913 21:12:20.136903 18047 net.cpp:156] Memory required for data: 56001080
I0913 21:12:20.136929 18047 layer_factory.hpp:77] Creating layer relu3
I0913 21:12:20.136940 18047 net.cpp:91] Creating Layer relu3
I0913 21:12:20.136945 18047 net.cpp:425] relu3 <- conv3
I0913 21:12:20.136953 18047 net.cpp:386] relu3 -> conv3 (in-place)
I0913 21:12:20.137174 18047 net.cpp:141] Setting up relu3
I0913 21:12:20.137186 18047 net.cpp:148] Top shape: 10 384 13 13 (648960)
I0913 21:12:20.137190 18047 net.cpp:156] Memory required for data: 58596920
I0913 21:12:20.137195 18047 layer_factory.hpp:77] Creating layer conv4
I0913 21:12:20.137222 18047 net.cpp:91] Creating Layer conv4
I0913 21:12:20.137228 18047 net.cpp:425] conv4 <- conv3
I0913 21:12:20.137238 18047 net.cpp:399] conv4 -> conv4
I0913 21:12:20.141132 18047 net.cpp:141] Setting up conv4
I0913 21:12:20.141151 18047 net.cpp:148] Top shape: 10 384 13 13 (648960)
I0913 21:12:20.141156 18047 net.cpp:156] Memory required for data: 61192760
I0913 21:12:20.141165 18047 layer_factory.hpp:77] Creating layer relu4
I0913 21:12:20.141178 18047 net.cpp:91] Creating Layer relu4
I0913 21:12:20.141185 18047 net.cpp:425] relu4 <- conv4
I0913 21:12:20.141193 18047 net.cpp:386] relu4 -> conv4 (in-place)
I0913 21:12:20.141572 18047 net.cpp:141] Setting up relu4
I0913 21:12:20.141585 18047 net.cpp:148] Top shape: 10 384 13 13 (648960)
I0913 21:12:20.141589 18047 net.cpp:156] Memory required for data: 63788600
I0913 21:12:20.141594 18047 layer_factory.hpp:77] Creating layer conv5
I0913 21:12:20.141607 18047 net.cpp:91] Creating Layer conv5
I0913 21:12:20.141613 18047 net.cpp:425] conv5 <- conv4
I0913 21:12:20.141619 18047 net.cpp:399] conv5 -> conv5
I0913 21:12:20.145191 18047 net.cpp:141] Setting up conv5
I0913 21:12:20.145210 18047 net.cpp:148] Top shape: 10 256 13 13 (432640)
I0913 21:12:20.145215 18047 net.cpp:156] Memory required for data: 65519160
I0913 21:12:20.145241 18047 layer_factory.hpp:77] Creating layer relu5
I0913 21:12:20.145254 18047 net.cpp:91] Creating Layer relu5
I0913 21:12:20.145261 18047 net.cpp:425] relu5 <- conv5
I0913 21:12:20.145267 18047 net.cpp:386] relu5 -> conv5 (in-place)
I0913 21:12:20.145643 18047 net.cpp:141] Setting up relu5
I0913 21:12:20.145656 18047 net.cpp:148] Top shape: 10 256 13 13 (432640)
I0913 21:12:20.145661 18047 net.cpp:156] Memory required for data: 67249720
I0913 21:12:20.145666 18047 layer_factory.hpp:77] Creating layer pool5
I0913 21:12:20.145692 18047 net.cpp:91] Creating Layer pool5
I0913 21:12:20.145699 18047 net.cpp:425] pool5 <- conv5
I0913 21:12:20.145707 18047 net.cpp:399] pool5 -> pool5
I0913 21:12:20.145764 18047 net.cpp:141] Setting up pool5
I0913 21:12:20.145774 18047 net.cpp:148] Top shape: 10 256 6 6 (92160)
I0913 21:12:20.145778 18047 net.cpp:156] Memory required for data: 67618360
I0913 21:12:20.145783 18047 layer_factory.hpp:77] Creating layer fc6
I0913 21:12:20.145797 18047 net.cpp:91] Creating Layer fc6
I0913 21:12:20.145802 18047 net.cpp:425] fc6 <- pool5
I0913 21:12:20.145808 18047 net.cpp:399] fc6 -> fc6
I0913 21:12:20.247007 18047 net.cpp:141] Setting up fc6
I0913 21:12:20.247067 18047 net.cpp:148] Top shape: 10 4096 (40960)
I0913 21:12:20.247073 18047 net.cpp:156] Memory required for data: 67782200
I0913 21:12:20.247089 18047 layer_factory.hpp:77] Creating layer relu6
I0913 21:12:20.247105 18047 net.cpp:91] Creating Layer relu6
I0913 21:12:20.247112 18047 net.cpp:425] relu6 <- fc6
I0913 21:12:20.247123 18047 net.cpp:386] relu6 -> fc6 (in-place)
I0913 21:12:20.247444 18047 net.cpp:141] Setting up relu6
I0913 21:12:20.247455 18047 net.cpp:148] Top shape: 10 4096 (40960)
I0913 21:12:20.247459 18047 net.cpp:156] Memory required for data: 67946040
I0913 21:12:20.247465 18047 layer_factory.hpp:77] Creating layer drop6
I0913 21:12:20.247478 18047 net.cpp:91] Creating Layer drop6
I0913 21:12:20.247484 18047 net.cpp:425] drop6 <- fc6
I0913 21:12:20.247490 18047 net.cpp:386] drop6 -> fc6 (in-place)
I0913 21:12:20.247540 18047 net.cpp:141] Setting up drop6
I0913 21:12:20.247548 18047 net.cpp:148] Top shape: 10 4096 (40960)
I0913 21:12:20.247553 18047 net.cpp:156] Memory required for data: 68109880
I0913 21:12:20.247584 18047 layer_factory.hpp:77] Creating layer fc7
I0913 21:12:20.247594 18047 net.cpp:91] Creating Layer fc7
I0913 21:12:20.247599 18047 net.cpp:425] fc7 <- fc6
I0913 21:12:20.247611 18047 net.cpp:399] fc7 -> fc7
I0913 21:12:20.280848 18037 net.cpp:141] Setting up embedding
I0913 21:12:20.280905 18037 net.cpp:148] Top shape: 1 1 500 (500)
I0913 21:12:20.280911 18037 net.cpp:156] Memory required for data: 22408
I0913 21:12:20.280930 18037 layer_factory.hpp:77] Creating layer lstm1
I0913 21:12:20.280953 18037 net.cpp:91] Creating Layer lstm1
I0913 21:12:20.280961 18037 net.cpp:425] lstm1 <- embedded_input_frames
I0913 21:12:20.280969 18037 net.cpp:425] lstm1 <- cont_sentence_input_1_split_0
I0913 21:12:20.280982 18037 net.cpp:399] lstm1 -> lstm1
I0913 21:12:20.281023 18037 recurrent_layer.cpp:20] Initializing recurrent layer: assuming input batch contains 1 timesteps of 1 independent streams.
I0913 21:12:20.281399 18037 net.cpp:49] Initializing net from parameters: 
layer {
  name: "lstm1_"
  type: "Input"
  top: "x"
  top: "cont"
  input_param {
    shape {
      dim: 1
      dim: 1
      dim: 500
    }
    shape {
      dim: 1
      dim: 1
    }
  }
}
layer {
  name: "lstm1_"
  type: "Input"
  top: "c_0"
  top: "h_0"
  input_param {
    shape {
      dim: 1
      dim: 1
      dim: 1000
    }
    shape {
      dim: 1
      dim: 1
      dim: 1000
    }
  }
}
layer {
  name: "lstm1_cont_slice"
  type: "Slice"
  bottom: "cont"
  top: "cont_1"
  slice_param {
    axis: 0
  }
}
layer {
  name: "lstm1_x_transform"
  type: "InnerProduct"
  bottom: "x"
  top: "W_xc_x"
  param {
    name: "W_xc"
  }
  param {
    name: "b_c"
  }
  propagate_down: true
  inner_product_param {
    num_output: 4000
    bias_term: true
    weight_filler {
      type: "uniform"
      min: -0.08
      max: 0.08
    }
    bias_filler {
      type: "constant"
      value: 0
    }
    axis: 2
  }
}
layer {
  name: "lstm1_W_xc_x_slice"
  type: "Slice"
  bottom: "W_xc_x"
  top: "W_xc_x_1"
  slice_param {
    axis: 0
  }
}
layer {
  name: "lstm1_h_conted_0"
  type: "Scale"
  bottom: "h_0"
  bottom: "cont_1"
  top: "h_conted_0"
  scale_param {
    axis: 0
  }
}
layer {
  name: "lstm1_transform_1"
  type: "InnerProduct"
  bottom: "h_conted_0"
  top: "W_hc_h_0"
  param {
    name: "W_hc"
  }
  inner_product_param {
    num_output: 4000
    bias_term: false
    weight_filler {
      type: "uniform"
      min: -0.08
      max: 0.08
    }
    axis: 2
  }
}
layer {
  name: "lstm1_gate_input_1"
  type: "Eltwise"
  bottom: "W_hc_h_0"
  bottom: "W_xc_x_1"
  top: "gate_input_1"
  eltwise_param {
    operation: SUM
  }
}
layer {
  name: "lstm1_unit_1"
  type: "LSTMUnit"
  bottom: "c_0"
  bottom: "gate_input_1"
  bottom: "cont_1"
  top: "c_1"
  top: "h_1"
}
layer {
  name: "lstm1_"
  type: "Split"
  bottom: "c_1"
  top: "c_T"
}
layer {
  name: "lstm1_h_concat"
  type: "Concat"
  bottom: "h_1"
  top: "h"
  concat_param {
    axis: 0
  }
}
layer {
  name: "h_pseudoloss"
  type: "Reduction"
  bottom: "h"
  top: "h_pseudoloss"
  loss_weight: 1
}
I0913 21:12:20.281492 18037 layer_factory.hpp:77] Creating layer lstm1_
I0913 21:12:20.281505 18037 net.cpp:91] Creating Layer lstm1_
I0913 21:12:20.281512 18037 net.cpp:399] lstm1_ -> x
I0913 21:12:20.281523 18037 net.cpp:399] lstm1_ -> cont
I0913 21:12:20.281584 18037 net.cpp:141] Setting up lstm1_
I0913 21:12:20.281594 18037 net.cpp:148] Top shape: 1 1 500 (500)
I0913 21:12:20.281600 18037 net.cpp:148] Top shape: 1 1 (1)
I0913 21:12:20.281605 18037 net.cpp:156] Memory required for data: 2004
I0913 21:12:20.281610 18037 layer_factory.hpp:77] Creating layer lstm1_
I0913 21:12:20.281617 18037 net.cpp:91] Creating Layer lstm1_
I0913 21:12:20.281626 18037 net.cpp:399] lstm1_ -> c_0
I0913 21:12:20.281636 18037 net.cpp:399] lstm1_ -> h_0
I0913 21:12:20.281687 18037 net.cpp:141] Setting up lstm1_
I0913 21:12:20.281695 18037 net.cpp:148] Top shape: 1 1 1000 (1000)
I0913 21:12:20.281702 18037 net.cpp:148] Top shape: 1 1 1000 (1000)
I0913 21:12:20.281705 18037 net.cpp:156] Memory required for data: 10004
I0913 21:12:20.281709 18037 layer_factory.hpp:77] Creating layer lstm1_cont_slice
I0913 21:12:20.281718 18037 net.cpp:91] Creating Layer lstm1_cont_slice
I0913 21:12:20.281723 18037 net.cpp:425] lstm1_cont_slice <- cont
I0913 21:12:20.281733 18037 net.cpp:399] lstm1_cont_slice -> cont_1
I0913 21:12:20.281766 18037 net.cpp:141] Setting up lstm1_cont_slice
I0913 21:12:20.281774 18037 net.cpp:148] Top shape: 1 1 (1)
I0913 21:12:20.281780 18037 net.cpp:156] Memory required for data: 10008
I0913 21:12:20.281785 18037 layer_factory.hpp:77] Creating layer cont_1_lstm1_cont_slice_0_split
I0913 21:12:20.281795 18037 net.cpp:91] Creating Layer cont_1_lstm1_cont_slice_0_split
I0913 21:12:20.281800 18037 net.cpp:425] cont_1_lstm1_cont_slice_0_split <- cont_1
I0913 21:12:20.281806 18037 net.cpp:399] cont_1_lstm1_cont_slice_0_split -> cont_1_lstm1_cont_slice_0_split_0
I0913 21:12:20.281816 18037 net.cpp:399] cont_1_lstm1_cont_slice_0_split -> cont_1_lstm1_cont_slice_0_split_1
I0913 21:12:20.281865 18037 net.cpp:141] Setting up cont_1_lstm1_cont_slice_0_split
I0913 21:12:20.281874 18037 net.cpp:148] Top shape: 1 1 (1)
I0913 21:12:20.281879 18037 net.cpp:148] Top shape: 1 1 (1)
I0913 21:12:20.281884 18037 net.cpp:156] Memory required for data: 10016
I0913 21:12:20.281888 18037 layer_factory.hpp:77] Creating layer lstm1_x_transform
I0913 21:12:20.281898 18037 net.cpp:91] Creating Layer lstm1_x_transform
I0913 21:12:20.281903 18037 net.cpp:425] lstm1_x_transform <- x
I0913 21:12:20.281910 18037 net.cpp:399] lstm1_x_transform -> W_xc_x
I0913 21:12:20.292342 18047 net.cpp:141] Setting up fc7
I0913 21:12:20.292379 18047 net.cpp:148] Top shape: 10 4096 (40960)
I0913 21:12:20.292384 18047 net.cpp:156] Memory required for data: 68273720
I0913 21:12:20.292397 18047 layer_factory.hpp:77] Creating layer relu7
I0913 21:12:20.292434 18047 net.cpp:91] Creating Layer relu7
I0913 21:12:20.292443 18047 net.cpp:425] relu7 <- fc7
I0913 21:12:20.292453 18047 net.cpp:386] relu7 -> fc7 (in-place)
I0913 21:12:20.293128 18047 net.cpp:141] Setting up relu7
I0913 21:12:20.293141 18047 net.cpp:148] Top shape: 10 4096 (40960)
I0913 21:12:20.293145 18047 net.cpp:156] Memory required for data: 68437560
I0913 21:12:20.293151 18047 layer_factory.hpp:77] Creating layer drop7
I0913 21:12:20.293164 18047 net.cpp:91] Creating Layer drop7
I0913 21:12:20.293169 18047 net.cpp:425] drop7 <- fc7
I0913 21:12:20.293175 18047 net.cpp:386] drop7 -> fc7 (in-place)
I0913 21:12:20.293216 18047 net.cpp:141] Setting up drop7
I0913 21:12:20.293225 18047 net.cpp:148] Top shape: 10 4096 (40960)
I0913 21:12:20.293229 18047 net.cpp:156] Memory required for data: 68601400
I0913 21:12:20.293234 18047 layer_factory.hpp:77] Creating layer fc8
I0913 21:12:20.293243 18047 net.cpp:91] Creating Layer fc8
I0913 21:12:20.293248 18047 net.cpp:425] fc8 <- fc7
I0913 21:12:20.293257 18047 net.cpp:399] fc8 -> fc8
I0913 21:12:20.301224 18037 net.cpp:141] Setting up lstm1_x_transform
I0913 21:12:20.301276 18037 net.cpp:148] Top shape: 1 1 4000 (4000)
I0913 21:12:20.301282 18037 net.cpp:156] Memory required for data: 26016
I0913 21:12:20.301306 18037 layer_factory.hpp:77] Creating layer lstm1_W_xc_x_slice
I0913 21:12:20.301328 18037 net.cpp:91] Creating Layer lstm1_W_xc_x_slice
I0913 21:12:20.301337 18037 net.cpp:425] lstm1_W_xc_x_slice <- W_xc_x
I0913 21:12:20.301347 18037 net.cpp:399] lstm1_W_xc_x_slice -> W_xc_x_1
I0913 21:12:20.301393 18037 net.cpp:141] Setting up lstm1_W_xc_x_slice
I0913 21:12:20.301403 18037 net.cpp:148] Top shape: 1 1 4000 (4000)
I0913 21:12:20.301406 18037 net.cpp:156] Memory required for data: 42016
I0913 21:12:20.301411 18037 layer_factory.hpp:77] Creating layer lstm1_h_conted_0
I0913 21:12:20.301424 18037 net.cpp:91] Creating Layer lstm1_h_conted_0
I0913 21:12:20.301429 18037 net.cpp:425] lstm1_h_conted_0 <- h_0
I0913 21:12:20.301435 18037 net.cpp:425] lstm1_h_conted_0 <- cont_1_lstm1_cont_slice_0_split_0
I0913 21:12:20.301442 18037 net.cpp:399] lstm1_h_conted_0 -> h_conted_0
I0913 21:12:20.301529 18037 net.cpp:141] Setting up lstm1_h_conted_0
I0913 21:12:20.301538 18037 net.cpp:148] Top shape: 1 1 1000 (1000)
I0913 21:12:20.301543 18037 net.cpp:156] Memory required for data: 46016
I0913 21:12:20.301548 18037 layer_factory.hpp:77] Creating layer lstm1_transform_1
I0913 21:12:20.301565 18037 net.cpp:91] Creating Layer lstm1_transform_1
I0913 21:12:20.301570 18037 net.cpp:425] lstm1_transform_1 <- h_conted_0
I0913 21:12:20.301578 18037 net.cpp:399] lstm1_transform_1 -> W_hc_h_0
I0913 21:12:20.309164 18047 net.cpp:141] Setting up fc8
I0913 21:12:20.309206 18047 net.cpp:148] Top shape: 10 1000 (10000)
I0913 21:12:20.309213 18047 net.cpp:156] Memory required for data: 68641400
I0913 21:12:20.309227 18047 layer_factory.hpp:77] Creating layer prob
I0913 21:12:20.309273 18047 net.cpp:91] Creating Layer prob
I0913 21:12:20.309283 18047 net.cpp:425] prob <- fc8
I0913 21:12:20.309291 18047 net.cpp:399] prob -> prob
I0913 21:12:20.309690 18047 net.cpp:141] Setting up prob
I0913 21:12:20.309705 18047 net.cpp:148] Top shape: 10 1000 (10000)
I0913 21:12:20.309710 18047 net.cpp:156] Memory required for data: 68681400
I0913 21:12:20.309715 18047 net.cpp:219] prob does not need backward computation.
I0913 21:12:20.309720 18047 net.cpp:219] fc8 does not need backward computation.
I0913 21:12:20.309725 18047 net.cpp:219] drop7 does not need backward computation.
I0913 21:12:20.309731 18047 net.cpp:219] relu7 does not need backward computation.
…
I0913 21:12:20.309804 18047 net.cpp:219] norm1 does not need backward computation.
I0913 21:12:20.309809 18047 net.cpp:219] pool1 does not need backward computation.
I0913 21:12:20.309814 18047 net.cpp:219] relu1 does not need backward computation.
I0913 21:12:20.309818 18047 net.cpp:219] conv1 does not need backward computation.
I0913 21:12:20.309823 18047 net.cpp:219] data does not need backward computation.
I0913 21:12:20.309828 18047 net.cpp:261] This network produces output prob
I0913 21:12:20.309847 18047 net.cpp:274] Network initialization done.
I0913 21:12:20.339375 18037 net.cpp:141] Setting up lstm1_transform_1
I0913 21:12:20.339426 18037 net.cpp:148] Top shape: 1 1 4000 (4000)
I0913 21:12:20.339433 18037 net.cpp:156] Memory required for data: 62016
I0913 21:12:20.339454 18037 layer_factory.hpp:77] Creating layer lstm1_gate_input_1
I0913 21:12:20.339480 18037 net.cpp:91] Creating Layer lstm1_gate_input_1
I0913 21:12:20.339488 18037 net.cpp:425] lstm1_gate_input_1 <- W_hc_h_0
I0913 21:12:20.339498 18037 net.cpp:425] lstm1_gate_input_1 <- W_xc_x_1
I0913 21:12:20.339505 18037 net.cpp:399] lstm1_gate_input_1 -> gate_input_1
I0913 21:12:20.339565 18037 net.cpp:141] Setting up lstm1_gate_input_1
I0913 21:12:20.339575 18037 net.cpp:148] Top shape: 1 1 4000 (4000)
I0913 21:12:20.339578 18037 net.cpp:156] Memory required for data: 78016
I0913 21:12:20.339583 18037 layer_factory.hpp:77] Creating layer lstm1_unit_1
I0913 21:12:20.339592 18037 net.cpp:91] Creating Layer lstm1_unit_1
I0913 21:12:20.339597 18037 net.cpp:425] lstm1_unit_1 <- c_0
I0913 21:12:20.339606 18037 net.cpp:425] lstm1_unit_1 <- gate_input_1
I0913 21:12:20.339612 18037 net.cpp:425] lstm1_unit_1 <- cont_1_lstm1_cont_slice_0_split_1
I0913 21:12:20.339618 18037 net.cpp:399] lstm1_unit_1 -> c_1
I0913 21:12:20.339627 18037 net.cpp:399] lstm1_unit_1 -> h_1
I0913 21:12:20.339689 18037 net.cpp:141] Setting up lstm1_unit_1
I0913 21:12:20.339697 18037 net.cpp:148] Top shape: 1 1 1000 (1000)
I0913 21:12:20.339704 18037 net.cpp:148] Top shape: 1 1 1000 (1000)
I0913 21:12:20.339707 18037 net.cpp:156] Memory required for data: 86016
I0913 21:12:20.339712 18037 layer_factory.hpp:77] Creating layer lstm1_
I0913 21:12:20.339720 18037 net.cpp:91] Creating Layer lstm1_
I0913 21:12:20.339725 18037 net.cpp:425] lstm1_ <- c_1
I0913 21:12:20.339731 18037 net.cpp:399] lstm1_ -> c_T
I0913 21:12:20.339766 18037 net.cpp:141] Setting up lstm1_
I0913 21:12:20.339774 18037 net.cpp:148] Top shape: 1 1 1000 (1000)
I0913 21:12:20.339778 18037 net.cpp:156] Memory required for data: 90016
I0913 21:12:20.339783 18037 layer_factory.hpp:77] Creating layer lstm1_h_concat
I0913 21:12:20.339793 18037 net.cpp:91] Creating Layer lstm1_h_concat
I0913 21:12:20.339798 18037 net.cpp:425] lstm1_h_concat <- h_1
I0913 21:12:20.339805 18037 net.cpp:399] lstm1_h_concat -> h
I0913 21:12:20.339856 18037 net.cpp:141] Setting up lstm1_h_concat
I0913 21:12:20.339864 18037 net.cpp:148] Top shape: 1 1 1000 (1000)
I0913 21:12:20.339869 18037 net.cpp:156] Memory required for data: 94016
I0913 21:12:20.339874 18037 layer_factory.hpp:77] Creating layer h_pseudoloss
I0913 21:12:20.339891 18037 net.cpp:91] Creating Layer h_pseudoloss
I0913 21:12:20.339896 18037 net.cpp:425] h_pseudoloss <- h
I0913 21:12:20.339902 18037 net.cpp:399] h_pseudoloss -> h_pseudoloss
I0913 21:12:20.340260 18037 net.cpp:141] Setting up h_pseudoloss
…
I0913 21:12:20.340384 18037 net.cpp:219] lstm1_ does not need backward computation.
I0913 21:12:20.340387 18037 net.cpp:261] This network produces output c_T
I0913 21:12:20.340392 18037 net.cpp:261] This network produces output h_pseudoloss
I0913 21:12:20.340406 18037 net.cpp:274] Network initialization done.
I0913 21:12:20.340459 18037 recurrent_layer.cpp:150] Adding parameter 0: W_xc
I0913 21:12:20.340466 18037 recurrent_layer.cpp:150] Adding parameter 1: b_c
I0913 21:12:20.340469 18037 recurrent_layer.cpp:150] Adding parameter 2: W_hc
I0913 21:12:20.340586 18037 net.cpp:141] Setting up lstm1
I0913 21:12:20.340600 18037 net.cpp:148] Top shape: 1 1 1000 (1000)
I0913 21:12:20.340603 18037 net.cpp:156] Memory required for data: 26408
I0913 21:12:20.340616 18037 layer_factory.hpp:77] Creating layer concat
I0913 21:12:20.340628 18037 net.cpp:91] Creating Layer concat
I0913 21:12:20.340636 18037 net.cpp:425] concat <- lstm1
I0913 21:12:20.340642 18037 net.cpp:425] concat <- embedded_input_sentence
I0913 21:12:20.340647 18037 net.cpp:425] concat <- reshaped_stage_indicator
I0913 21:12:20.340654 18037 net.cpp:399] concat -> lstm1_video_sequence
I0913 21:12:20.340687 18037 net.cpp:141] Setting up concat
I0913 21:12:20.340695 18037 net.cpp:148] Top shape: 1 1 1501 (1501)
I0913 21:12:20.340699 18037 net.cpp:156] Memory required for data: 32412
I0913 21:12:20.340704 18037 layer_factory.hpp:77] Creating layer lstm2
I0913 21:12:20.340716 18037 net.cpp:91] Creating Layer lstm2
I0913 21:12:20.340723 18037 net.cpp:425] lstm2 <- lstm1_video_sequence
I0913 21:12:20.340728 18037 net.cpp:425] lstm2 <- cont_sentence_input_1_split_1
I0913 21:12:20.340734 18037 net.cpp:399] lstm2 -> lstm2
I0913 21:12:20.340745 18037 recurrent_layer.cpp:20] Initializing recurrent layer: assuming input batch contains 1 timesteps of 1 independent streams.
I0913 21:12:20.341001 18037 net.cpp:49] Initializing net from parameters: 
layer {
  name: "lstm2_"
  type: "Input"
  top: "x"
  top: "cont"
  input_param {
    shape {
      dim: 1
      dim: 1
      dim: 1501
    }
    shape {
      dim: 1
      dim: 1
    }
  }
}
layer {
  name: "lstm2_"
  type: "Input"
  top: "c_0"
  top: "h_0"
  input_param {
    shape {
      dim: 1
      dim: 1
      dim: 1000
    }
    shape {
      dim: 1
      dim: 1
      dim: 1000
    }
  }
}
layer {
  name: "lstm2_cont_slice"
  type: "Slice"
  bottom: "cont"
  top: "cont_1"
  slice_param {
    axis: 0
  }
}
layer {
  name: "lstm2_x_transform"
  type: "InnerProduct"
  bottom: "x"
  top: "W_xc_x"
  param {
    name: "W_xc"
  }
  param {
    name: "b_c"
  }
  propagate_down: true
  inner_product_param {
    num_output: 4000
    bias_term: true
    weight_filler {
      type: "uniform"
      min: -0.08
      max: 0.08
    }
    bias_filler {
      type: "constant"
      value: 0
    }
    axis: 2
  }
}
layer {
  name: "lstm2_W_xc_x_slice"
  type: "Slice"
  bottom: "W_xc_x"
  top: "W_xc_x_1"
  slice_param {
    axis: 0
  }
}
layer {
  name: "lstm2_h_conted_0"
  type: "Scale"
  bottom: "h_0"
  bottom: "cont_1"
  top: "h_conted_0"
  scale_param {
    axis: 0
  }
}
layer {
  name: "lstm2_transform_1"
  type: "InnerProduct"
  bottom: "h_conted_0"
  top: "W_hc_h_0"
  param {
    name: "W_hc"
  }
  inner_product_param {
    num_output: 4000
    bias_term: false
    weight_filler {
      type: "uniform"
      min: -0.08
      max: 0.08
    }
    axis: 2
  }
}
layer {
  name: "lstm2_gate_input_1"
  type: "Eltwise"
  bottom: "W_hc_h_0"
  bottom: "W_xc_x_1"
  top: "gate_input_1"
  eltwise_param {
    operation: SUM
  }
}
layer {
  name: "lstm2_unit_1"
  type: "LSTMUnit"
  bottom: "c_0"
  bottom: "gate_input_1"
  bottom: "cont_1"
  top: "c_1"
  top: "h_1"
}
layer {
  name: "lstm2_"
  type: "Split"
  bottom: "c_1"
  top: "c_T"
}
layer {
  name: "lstm2_h_concat"
  type: "Concat"
  bottom: "h_1"
  top: "h"
  concat_param {
    axis: 0
  }
}
layer {
  name: "h_pseudoloss"
  type: "Reduction"
  bottom: "h"
  top: "h_pseudoloss"
  loss_weight: 1
}
I0913 21:12:20.341087 18037 layer_factory.hpp:77] Creating layer lstm2_
I0913 21:12:20.341099 18037 net.cpp:91] Creating Layer lstm2_
I0913 21:12:20.341105 18037 net.cpp:399] lstm2_ -> x
I0913 21:12:20.341116 18037 net.cpp:399] lstm2_ -> cont
I0913 21:12:20.341166 18037 net.cpp:141] Setting up lstm2_
I0913 21:12:20.341176 18037 net.cpp:148] Top shape: 1 1 1501 (1501)
I0913 21:12:20.341181 18037 net.cpp:148] Top shape: 1 1 (1)
I0913 21:12:20.341186 18037 net.cpp:156] Memory required for data: 6008
I0913 21:12:20.341190 18037 layer_factory.hpp:77] Creating layer lstm2_
I0913 21:12:20.341198 18037 net.cpp:91] Creating Layer lstm2_
I0913 21:12:20.341207 18037 net.cpp:399] lstm2_ -> c_0
I0913 21:12:20.341217 18037 net.cpp:399] lstm2_ -> h_0
I0913 21:12:20.341269 18037 net.cpp:141] Setting up lstm2_
I0913 21:12:20.341279 18037 net.cpp:148] Top shape: 1 1 1000 (1000)
I0913 21:12:20.341284 18037 net.cpp:148] Top shape: 1 1 1000 (1000)
I0913 21:12:20.341287 18037 net.cpp:156] Memory required for data: 14008
I0913 21:12:20.341292 18037 layer_factory.hpp:77] Creating layer lstm2_cont_slice
I0913 21:12:20.341300 18037 net.cpp:91] Creating Layer lstm2_cont_slice
I0913 21:12:20.341305 18037 net.cpp:425] lstm2_cont_slice <- cont
I0913 21:12:20.341312 18037 net.cpp:399] lstm2_cont_slice -> cont_1
I0913 21:12:20.341342 18037 net.cpp:141] Setting up lstm2_cont_slice
I0913 21:12:20.341351 18037 net.cpp:148] Top shape: 1 1 (1)
I0913 21:12:20.341356 18037 net.cpp:156] Memory required for data: 14012
I0913 21:12:20.341361 18037 layer_factory.hpp:77] Creating layer cont_1_lstm2_cont_slice_0_split
I0913 21:12:20.341370 18037 net.cpp:91] Creating Layer cont_1_lstm2_cont_slice_0_split
I0913 21:12:20.341375 18037 net.cpp:425] cont_1_lstm2_cont_slice_0_split <- cont_1
I0913 21:12:20.341382 18037 net.cpp:399] cont_1_lstm2_cont_slice_0_split -> cont_1_lstm2_cont_slice_0_split_0
I0913 21:12:20.341392 18037 net.cpp:399] cont_1_lstm2_cont_slice_0_split -> cont_1_lstm2_cont_slice_0_split_1
I0913 21:12:20.341436 18037 net.cpp:141] Setting up cont_1_lstm2_cont_slice_0_split
I0913 21:12:20.341444 18037 net.cpp:148] Top shape: 1 1 (1)
I0913 21:12:20.341450 18037 net.cpp:148] Top shape: 1 1 (1)
I0913 21:12:20.341454 18037 net.cpp:156] Memory required for data: 14020
I0913 21:12:20.341459 18037 layer_factory.hpp:77] Creating layer lstm2_x_transform
I0913 21:12:20.341470 18037 net.cpp:91] Creating Layer lstm2_x_transform
I0913 21:12:20.341475 18037 net.cpp:425] lstm2_x_transform <- x
I0913 21:12:20.341482 18037 net.cpp:399] lstm2_x_transform -> W_xc_x
I0913 21:12:20.398602 18037 net.cpp:141] Setting up lstm2_x_transform
I0913 21:12:20.398656 18037 net.cpp:148] Top shape: 1 1 4000 (4000)
I0913 21:12:20.398663 18037 net.cpp:156] Memory required for data: 30020
I0913 21:12:20.398689 18037 layer_factory.hpp:77] Creating layer lstm2_W_xc_x_slice
I0913 21:12:20.398708 18037 net.cpp:91] Creating Layer lstm2_W_xc_x_slice
I0913 21:12:20.398716 18037 net.cpp:425] lstm2_W_xc_x_slice <- W_xc_x
I0913 21:12:20.398726 18037 net.cpp:399] lstm2_W_xc_x_slice -> W_xc_x_1
I0913 21:12:20.398778 18037 net.cpp:141] Setting up lstm2_W_xc_x_slice
I0913 21:12:20.398787 18037 net.cpp:148] Top shape: 1 1 4000 (4000)
I0913 21:12:20.398792 18037 net.cpp:156] Memory required for data: 46020
I0913 21:12:20.398797 18037 layer_factory.hpp:77] Creating layer lstm2_h_conted_0
I0913 21:12:20.398808 18037 net.cpp:91] Creating Layer lstm2_h_conted_0
I0913 21:12:20.398813 18037 net.cpp:425] lstm2_h_conted_0 <- h_0
I0913 21:12:20.398818 18037 net.cpp:425] lstm2_h_conted_0 <- cont_1_lstm2_cont_slice_0_split_0
I0913 21:12:20.398825 18037 net.cpp:399] lstm2_h_conted_0 -> h_conted_0
I0913 21:12:20.398919 18037 net.cpp:141] Setting up lstm2_h_conted_0
I0913 21:12:20.398928 18037 net.cpp:148] Top shape: 1 1 1000 (1000)
I0913 21:12:20.398932 18037 net.cpp:156] Memory required for data: 50020
I0913 21:12:20.398937 18037 layer_factory.hpp:77] Creating layer lstm2_transform_1
I0913 21:12:20.398950 18037 net.cpp:91] Creating Layer lstm2_transform_1
I0913 21:12:20.398955 18037 net.cpp:425] lstm2_transform_1 <- h_conted_0
I0913 21:12:20.398963 18037 net.cpp:399] lstm2_transform_1 -> W_hc_h_0
I0913 21:12:20.436787 18037 net.cpp:141] Setting up lstm2_transform_1
I0913 21:12:20.436841 18037 net.cpp:148] Top shape: 1 1 4000 (4000)
I0913 21:12:20.436847 18037 net.cpp:156] Memory required for data: 66020
I0913 21:12:20.436868 18037 layer_factory.hpp:77] Creating layer lstm2_gate_input_1
I0913 21:12:20.436892 18037 net.cpp:91] Creating Layer lstm2_gate_input_1
I0913 21:12:20.436899 18037 net.cpp:425] lstm2_gate_input_1 <- W_hc_h_0
I0913 21:12:20.436908 18037 net.cpp:425] lstm2_gate_input_1 <- W_xc_x_1
I0913 21:12:20.436918 18037 net.cpp:399] lstm2_gate_input_1 -> gate_input_1
I0913 21:12:20.436965 18037 net.cpp:141] Setting up lstm2_gate_input_1
I0913 21:12:20.436978 18037 net.cpp:148] Top shape: 1 1 4000 (4000)
I0913 21:12:20.436982 18037 net.cpp:156] Memory required for data: 82020
I0913 21:12:20.436987 18037 layer_factory.hpp:77] Creating layer lstm2_unit_1
I0913 21:12:20.436996 18037 net.cpp:91] Creating Layer lstm2_unit_1
I0913 21:12:20.437001 18037 net.cpp:425] lstm2_unit_1 <- c_0
I0913 21:12:20.437006 18037 net.cpp:425] lstm2_unit_1 <- gate_input_1
I0913 21:12:20.437012 18037 net.cpp:425] lstm2_unit_1 <- cont_1_lstm2_cont_slice_0_split_1
I0913 21:12:20.437018 18037 net.cpp:399] lstm2_unit_1 -> c_1
I0913 21:12:20.437026 18037 net.cpp:399] lstm2_unit_1 -> h_1
I0913 21:12:20.437086 18037 net.cpp:141] Setting up lstm2_unit_1
I0913 21:12:20.437095 18037 net.cpp:148] Top shape: 1 1 1000 (1000)
I0913 21:12:20.437101 18037 net.cpp:148] Top shape: 1 1 1000 (1000)
I0913 21:12:20.437105 18037 net.cpp:156] Memory required for data: 90020
I0913 21:12:20.437109 18037 layer_factory.hpp:77] Creating layer lstm2_
I0913 21:12:20.437119 18037 net.cpp:91] Creating Layer lstm2_
I0913 21:12:20.437124 18037 net.cpp:425] lstm2_ <- c_1
I0913 21:12:20.437129 18037 net.cpp:399] lstm2_ -> c_T
I0913 21:12:20.437158 18037 net.cpp:141] Setting up lstm2_
I0913 21:12:20.437166 18037 net.cpp:148] Top shape: 1 1 1000 (1000)
I0913 21:12:20.437171 18037 net.cpp:156] Memory required for data: 94020
I0913 21:12:20.437175 18037 layer_factory.hpp:77] Creating layer lstm2_h_concat
I0913 21:12:20.437188 18037 net.cpp:91] Creating Layer lstm2_h_concat
I0913 21:12:20.437193 18037 net.cpp:425] lstm2_h_concat <- h_1
I0913 21:12:20.437201 18037 net.cpp:399] lstm2_h_concat -> h
I0913 21:12:20.437237 18037 net.cpp:141] Setting up lstm2_h_concat
I0913 21:12:20.437244 18037 net.cpp:148] Top shape: 1 1 1000 (1000)
I0913 21:12:20.437249 18037 net.cpp:156] Memory required for data: 98020
I0913 21:12:20.437253 18037 layer_factory.hpp:77] Creating layer h_pseudoloss
I0913 21:12:20.437263 18037 net.cpp:91] Creating Layer h_pseudoloss
I0913 21:12:20.437268 18037 net.cpp:425] h_pseudoloss <- h
I0913 21:12:20.437278 18037 net.cpp:399] h_pseudoloss -> h_pseudoloss
I0913 21:12:20.437366 18037 net.cpp:141] Setting up h_pseudoloss
…
Java HotSpot(TM) 64-Bit Server VM warning: You have loaded library /home/peifeng/work/run/storm102/data/workers/88571941-824c-4ddf-9427-847c913aa6a9/tmp/cvld5607761228221289628/libopencv_java310.xine1.so which might have disabled stack guard. The VM will try to fix the stack guard now.
It's highly recommended that you fix the library with 'execstack -c <libfile>', or link it with '-z noexecstack'.
WARNING: Logging before InitGoogleLogging() is written to STDERR
I0913 21:13:01.842521 18192 net.cpp:49] Initializing net from parameters: 
name: "CaffeNet"
state {
  phase: TEST
}
layer {
  name: "data"
  type: "Input"
  top: "data"
  input_param {
    shape {
      dim: 10
      dim: 3
      dim: 227
      dim: 227
    }
  }
}
layer {
  name: "conv1"
  type: "Convolution"
  bottom: "data"
  top: "conv1"
  convolution_param {
    num_output: 96
    kernel_size: 11
    stride: 4
  }
}
layer {
  name: "relu1"
  type: "ReLU"
  bottom: "conv1"
  top: "conv1"
}
layer {
  name: "pool1"
  type: "Pooling"
  bottom: "conv1"
  top: "pool1"
  pooling_param {
    pool: MAX
    kernel_size: 3
    stride: 2
  }
}
layer {
  name: "norm1"
  type: "LRN"
  bottom: "pool1"
  top: "norm1"
  lrn_param {
    local_size: 5
    alpha: 0.0001
    beta: 0.75
  }
}
layer {
  name: "conv2"
  type: "Convolution"
  bottom: "norm1"
  top: "conv2"
  convolution_param {
    num_output: 256
    pad: 2
    kernel_size: 5
    group: 2
  }
}
layer {
  name: "relu2"
  type: "ReLU"
  bottom: "conv2"
  top: "conv2"
}
layer {
  name: "pool2"
  type: "Pooling"
  bottom: "conv2"
  top: "pool2"
  pooling_param {
    pool: MAX
    kernel_size: 3
    stride: 2
  }
}
layer {
  name: "norm2"
  type: "LRN"
  bottom: "pool2"
  top: "norm2"
  lrn_param {
    local_size: 5
    alpha: 0.0001
    beta: 0.75
  }
}
layer {
  name: "conv3"
  type: "Convolution"
  bottom: "norm2"
  top: "conv3"
  convolution_param {
    num_output: 384
    pad: 1
    kernel_size: 3
  }
}
layer {
  name: "relu3"
  type: "ReLU"
  bottom: "conv3"
  top: "conv3"
}
layer {
  name: "conv4"
  type: "Convolution"
  bottom: "conv3"
  top: "conv4"
  convolution_param {
    num_output: 384
    pad: 1
    kernel_size: 3
    group: 2
  }
}
layer {
  name: "relu4"
  type: "ReLU"
  bottom: "conv4"
  top: "conv4"
}
layer {
  name: "conv5"
  type: "Convolution"
  bottom: "conv4"
  top: "conv5"
  convolution_param {
    num_output: 256
    pad: 1
    kernel_size: 3
    group: 2
  }
}
layer {
  name: "relu5"
  type: "ReLU"
  bottom: "conv5"
  top: "conv5"
}
layer {
  name: "pool5"
  type: "Pooling"
  bottom: "conv5"
  top: "pool5"
  pooling_param {
    pool: MAX
    kernel_size: 3
    stride: 2
  }
}
layer {
  name: "fc6"
  type: "InnerProduct"
  bottom: "pool5"
  top: "fc6"
  inner_product_param {
    num_output: 4096
  }
}
layer {
  name: "relu6"
  type: "ReLU"
  bottom: "fc6"
  top: "fc6"
}
layer {
  name: "drop6"
  type: "Dropout"
  bottom: "fc6"
  top: "fc6"
  dropout_param {
    dropout_ratio: 0.5
  }
}
layer {
  name: "fc7"
  type: "InnerProduct"
  bottom: "fc6"
  top: "fc7"
  inner_product_param {
    num_output: 4096
  }
}
layer {
  name: "relu7"
  type: "ReLU"
  bottom: "fc7"
  top: "fc7"
}
layer {
  name: "drop7"
  type: "Dropout"
  bottom: "fc7"
  top: "fc7"
  dropout_param {
    dropout_ratio: 0.5
  }
}
layer {
  name: "fc8"
  type: "InnerProduct"
  bottom: "fc7"
  top: "fc8"
  inner_product_param {
    num_output: 1000
  }
}
layer {
  name: "prob"
  type: "Softmax"
  bottom: "fc8"
  top: "prob"
}
I0913 21:13:01.842720 18192 layer_factory.hpp:77] Creating layer data
I0913 21:13:01.842746 18192 net.cpp:91] Creating Layer data
I0913 21:13:01.842756 18192 net.cpp:399] data -> data
I0913 21:13:02.365111 18192 net.cpp:141] Setting up data
I0913 21:13:02.365216 18192 net.cpp:148] Top shape: 10 3 227 227 (1545870)
I0913 21:13:02.365224 18192 net.cpp:156] Memory required for data: 6183480
I0913 21:13:02.365242 18192 layer_factory.hpp:77] Creating layer conv1
I0913 21:13:02.365272 18192 net.cpp:91] Creating Layer conv1
I0913 21:13:02.365279 18192 net.cpp:425] conv1 <- data
I0913 21:13:02.365291 18192 net.cpp:399] conv1 -> conv1
I0913 21:13:02.553849 18192 net.cpp:141] Setting up conv1
I0913 21:13:02.553901 18192 net.cpp:148] Top shape: 10 96 55 55 (2904000)
I0913 21:13:02.553908 18192 net.cpp:156] Memory required for data: 17799480
I0913 21:13:02.553939 18192 layer_factory.hpp:77] Creating layer relu1
I0913 21:13:02.553961 18192 net.cpp:91] Creating Layer relu1
I0913 21:13:02.553966 18192 net.cpp:425] relu1 <- conv1
I0913 21:13:02.553974 18192 net.cpp:386] relu1 -> conv1 (in-place)
I0913 21:13:02.554407 18192 net.cpp:141] Setting up relu1
I0913 21:13:02.554420 18192 net.cpp:148] Top shape: 10 96 55 55 (2904000)
I0913 21:13:02.554425 18192 net.cpp:156] Memory required for data: 29415480
I0913 21:13:02.554430 18192 layer_factory.hpp:77] Creating layer pool1
I0913 21:13:02.554443 18192 net.cpp:91] Creating Layer pool1
I0913 21:13:02.554448 18192 net.cpp:425] pool1 <- conv1
I0913 21:13:02.554455 18192 net.cpp:399] pool1 -> pool1
I0913 21:13:02.554533 18192 net.cpp:141] Setting up pool1
I0913 21:13:02.554543 18192 net.cpp:148] Top shape: 10 96 27 27 (699840)
I0913 21:13:02.554548 18192 net.cpp:156] Memory required for data: 32214840
I0913 21:13:02.554551 18192 layer_factory.hpp:77] Creating layer norm1
I0913 21:13:02.554571 18192 net.cpp:91] Creating Layer norm1
I0913 21:13:02.554576 18192 net.cpp:425] norm1 <- pool1
I0913 21:13:02.554585 18192 net.cpp:399] norm1 -> norm1
I0913 21:13:02.554865 18192 net.cpp:141] Setting up norm1
I0913 21:13:02.554877 18192 net.cpp:148] Top shape: 10 96 27 27 (699840)
I0913 21:13:02.554883 18192 net.cpp:156] Memory required for data: 35014200
I0913 21:13:02.554888 18192 layer_factory.hpp:77] Creating layer conv2
I0913 21:13:02.554905 18192 net.cpp:91] Creating Layer conv2
I0913 21:13:02.554910 18192 net.cpp:425] conv2 <- norm1
I0913 21:13:02.554920 18192 net.cpp:399] conv2 -> conv2
I0913 21:13:02.558962 18192 net.cpp:141] Setting up conv2
I0913 21:13:02.558997 18192 net.cpp:148] Top shape: 10 256 27 27 (1866240)
I0913 21:13:02.559006 18192 net.cpp:156] Memory required for data: 42479160
I0913 21:13:02.559026 18192 layer_factory.hpp:77] Creating layer relu2
I0913 21:13:02.559046 18192 net.cpp:91] Creating Layer relu2
I0913 21:13:02.559056 18192 net.cpp:425] relu2 <- conv2
I0913 21:13:02.559067 18192 net.cpp:386] relu2 -> conv2 (in-place)
I0913 21:13:02.559628 18192 net.cpp:141] Setting up relu2
I0913 21:13:02.559645 18192 net.cpp:148] Top shape: 10 256 27 27 (1866240)
I0913 21:13:02.559650 18192 net.cpp:156] Memory required for data: 49944120
I0913 21:13:02.559656 18192 layer_factory.hpp:77] Creating layer pool2
I0913 21:13:02.559666 18192 net.cpp:91] Creating Layer pool2
I0913 21:13:02.559671 18192 net.cpp:425] pool2 <- conv2
I0913 21:13:02.559681 18192 net.cpp:399] pool2 -> pool2
I0913 21:13:02.559742 18192 net.cpp:141] Setting up pool2
I0913 21:13:02.559754 18192 net.cpp:148] Top shape: 10 256 13 13 (432640)
I0913 21:13:02.559759 18192 net.cpp:156] Memory required for data: 51674680
I0913 21:13:02.559764 18192 layer_factory.hpp:77] Creating layer norm2
I0913 21:13:02.559777 18192 net.cpp:91] Creating Layer norm2
I0913 21:13:02.559782 18192 net.cpp:425] norm2 <- pool2
I0913 21:13:02.559794 18192 net.cpp:399] norm2 -> norm2
I0913 21:13:02.560048 18192 net.cpp:141] Setting up norm2
I0913 21:13:02.560060 18192 net.cpp:148] Top shape: 10 256 13 13 (432640)
I0913 21:13:02.560065 18192 net.cpp:156] Memory required for data: 53405240
I0913 21:13:02.560078 18192 layer_factory.hpp:77] Creating layer conv3
I0913 21:13:02.560098 18192 net.cpp:91] Creating Layer conv3
I0913 21:13:02.560107 18192 net.cpp:425] conv3 <- norm2
I0913 21:13:02.560124 18192 net.cpp:399] conv3 -> conv3
I0913 21:13:02.563835 18192 net.cpp:141] Setting up conv3
I0913 21:13:02.563860 18192 net.cpp:148] Top shape: 10 384 13 13 (648960)
I0913 21:13:02.563866 18192 net.cpp:156] Memory required for data: 56001080
I0913 21:13:02.563881 18192 layer_factory.hpp:77] Creating layer relu3
I0913 21:13:02.563895 18192 net.cpp:91] Creating Layer relu3
I0913 21:13:02.563900 18192 net.cpp:425] relu3 <- conv3
I0913 21:13:02.563907 18192 net.cpp:386] relu3 -> conv3 (in-place)
I0913 21:13:02.564144 18192 net.cpp:141] Setting up relu3
I0913 21:13:02.564157 18192 net.cpp:148] Top shape: 10 384 13 13 (648960)
I0913 21:13:02.564160 18192 net.cpp:156] Memory required for data: 58596920
I0913 21:13:02.564165 18192 layer_factory.hpp:77] Creating layer conv4
I0913 21:13:02.564179 18192 net.cpp:91] Creating Layer conv4
I0913 21:13:02.564184 18192 net.cpp:425] conv4 <- conv3
I0913 21:13:02.564193 18192 net.cpp:399] conv4 -> conv4
I0913 21:13:02.568234 18192 net.cpp:141] Setting up conv4
I0913 21:13:02.568258 18192 net.cpp:148] Top shape: 10 384 13 13 (648960)
I0913 21:13:02.568264 18192 net.cpp:156] Memory required for data: 61192760
I0913 21:13:02.568271 18192 layer_factory.hpp:77] Creating layer relu4
I0913 21:13:02.568281 18192 net.cpp:91] Creating Layer relu4
I0913 21:13:02.568286 18192 net.cpp:425] relu4 <- conv4
I0913 21:13:02.568297 18192 net.cpp:386] relu4 -> conv4 (in-place)
I0913 21:13:02.568686 18192 net.cpp:141] Setting up relu4
I0913 21:13:02.568698 18192 net.cpp:148] Top shape: 10 384 13 13 (648960)
I0913 21:13:02.568702 18192 net.cpp:156] Memory required for data: 63788600
I0913 21:13:02.568707 18192 layer_factory.hpp:77] Creating layer conv5
I0913 21:13:02.568722 18192 net.cpp:91] Creating Layer conv5
I0913 21:13:02.568727 18192 net.cpp:425] conv5 <- conv4
I0913 21:13:02.568737 18192 net.cpp:399] conv5 -> conv5
I0913 21:13:02.572398 18192 net.cpp:141] Setting up conv5
I0913 21:13:02.572422 18192 net.cpp:148] Top shape: 10 256 13 13 (432640)
I0913 21:13:02.572428 18192 net.cpp:156] Memory required for data: 65519160
I0913 21:13:02.572443 18192 layer_factory.hpp:77] Creating layer relu5
I0913 21:13:02.572453 18192 net.cpp:91] Creating Layer relu5
I0913 21:13:02.572458 18192 net.cpp:425] relu5 <- conv5
I0913 21:13:02.572468 18192 net.cpp:386] relu5 -> conv5 (in-place)
I0913 21:13:02.572873 18192 net.cpp:141] Setting up relu5
I0913 21:13:02.572886 18192 net.cpp:148] Top shape: 10 256 13 13 (432640)
I0913 21:13:02.572891 18192 net.cpp:156] Memory required for data: 67249720
I0913 21:13:02.572896 18192 layer_factory.hpp:77] Creating layer pool5
I0913 21:13:02.572909 18192 net.cpp:91] Creating Layer pool5
I0913 21:13:02.572916 18192 net.cpp:425] pool5 <- conv5
I0913 21:13:02.572922 18192 net.cpp:399] pool5 -> pool5
I0913 21:13:02.572986 18192 net.cpp:141] Setting up pool5
I0913 21:13:02.572995 18192 net.cpp:148] Top shape: 10 256 6 6 (92160)
I0913 21:13:02.573000 18192 net.cpp:156] Memory required for data: 67618360
I0913 21:13:02.573004 18192 layer_factory.hpp:77] Creating layer fc6
I0913 21:13:02.573029 18192 net.cpp:91] Creating Layer fc6
I0913 21:13:02.573035 18192 net.cpp:425] fc6 <- pool5
I0913 21:13:02.573042 18192 net.cpp:399] fc6 -> fc6
I0913 21:13:02.664337 18182 upgrade_proto.cpp:66] Attempting to upgrade input file specified using deprecated input fields: /home/peifeng/work/run/storm102/data/workers/88571941-824c-4ddf-9427-847c913aa6a9/tmp/cvld5607761228221289628/s2vt.words_to_preds.prototxt
I0913 21:13:02.664423 18182 upgrade_proto.cpp:69] Successfully upgraded file specified using deprecated input fields.
W0913 21:13:02.664449 18182 upgrade_proto.cpp:71] Note that future Caffe releases will only support input layers and not input fields.
I0913 21:13:02.664855 18182 net.cpp:49] Initializing net from parameters: 
name: "s2vt:features_to_lstm"
state {
  phase: TEST
}
layer {
  name: "input"
  type: "Input"
  top: "frames_fc7"
  top: "cont_sentence"
  top: "input_sentence"
  top: "stage_indicator"
  input_param {
    shape {
      dim: 1
      dim: 4096
    }
    shape {
      dim: 1
      dim: 1
    }
    shape {
      dim: 1
      dim: 1
    }
    shape {
      dim: 1
      dim: 1
    }
  }
}
layer {
  name: "embed_encoder"
  type: "InnerProduct"
  bottom: "frames_fc7"
  top: "embedded_in_frames"
  param {
    lr_mult: 1
    decay_mult: 1
  }
  param {
    lr_mult: 2
    decay_mult: 0
  }
  inner_product_param {
    num_output: 500
    weight_filler {
      type: "xavier"
    }
    bias_filler {
      type: "constant"
      value: 0.2
    }
  }
}
layer {
  name: "reshape_frames"
  type: "Reshape"
  bottom: "embedded_in_frames"
  top: "embedded_input_frames"
  reshape_param {
    shape {
      dim: 1
      dim: 1
      dim: 500
    }
  }
}
layer {
  name: "reshape_stage_indicator"
  type: "Reshape"
  bottom: "stage_indicator"
  top: "reshaped_stage_indicator"
  reshape_param {
    shape {
      dim: 1
      dim: 1
      dim: 1
    }
  }
}
layer {
  name: "embedding"
  type: "Embed"
  bottom: "input_sentence"
  top: "embedded_input_sentence"
  param {
    lr_mult: 1
  }
  embed_param {
    num_output: 500
    input_dim: 46168
    bias_term: false
    weight_filler {
      type: "uniform"
      min: -0.08
      max: 0.08
    }
  }
}
layer {
  name: "lstm1"
  type: "LSTM"
  bottom: "embedded_input_frames"
  bottom: "cont_sentence"
  top: "lstm1"
  recurrent_param {
    num_output: 1000
    weight_filler {
      type: "uniform"
      min: -0.08
      max: 0.08
    }
    bias_filler {
      type: "constant"
      value: 0
    }
  }
}
layer {
  name: "concat"
  type: "Concat"
  bottom: "lstm1"
  bottom: "embedded_input_sentence"
  bottom: "reshaped_stage_indicator"
  top: "lstm1_video_sequence"
  concat_param {
    concat_dim: 2
  }
}
layer {
  name: "lstm2"
  type: "LSTM"
  bottom: "lstm1_video_sequence"
  bottom: "cont_sentence"
  top: "lstm2"
  recurrent_param {
    num_output: 1000
    weight_filler {
      type: "uniform"
      min: -0.08
      max: 0.08
    }
    bias_filler {
      type: "constant"
      value: 0
    }
  }
}
layer {
  name: "predict"
  type: "InnerProduct"
  bottom: "lstm2"
  top: "predict"
  param {
    lr_mult: 1
    decay_mult: 1
  }
  param {
    lr_mult: 2
    decay_mult: 0
  }
  inner_product_param {
    num_output: 46168
    weight_filler {
      type: "uniform"
      min: -0.08
      max: 0.08
    }
    bias_filler {
      type: "constant"
      value: 0
    }
    axis: 2
  }
}
layer {
  name: "probs"
  type: "Softmax"
  bottom: "predict"
  top: "probs"
  softmax_param {
    axis: 2
  }
}
I0913 21:13:02.664994 18182 layer_factory.hpp:77] Creating layer input
I0913 21:13:02.665021 18182 net.cpp:91] Creating Layer input
I0913 21:13:02.665035 18182 net.cpp:399] input -> frames_fc7
I0913 21:13:02.665066 18182 net.cpp:399] input -> cont_sentence
I0913 21:13:02.665091 18182 net.cpp:399] input -> input_sentence
I0913 21:13:02.665107 18182 net.cpp:399] input -> stage_indicator
I0913 21:13:02.665339 18182 net.cpp:141] Setting up input
I0913 21:13:02.665357 18182 net.cpp:148] Top shape: 1 4096 (4096)
I0913 21:13:02.665371 18182 net.cpp:148] Top shape: 1 1 (1)
I0913 21:13:02.665380 18182 net.cpp:148] Top shape: 1 1 (1)
I0913 21:13:02.665390 18182 net.cpp:148] Top shape: 1 1 (1)
I0913 21:13:02.665395 18182 net.cpp:156] Memory required for data: 16396
I0913 21:13:02.665405 18182 layer_factory.hpp:77] Creating layer cont_sentence_input_1_split
I0913 21:13:02.665442 18182 net.cpp:91] Creating Layer cont_sentence_input_1_split
I0913 21:13:02.665458 18182 net.cpp:425] cont_sentence_input_1_split <- cont_sentence
I0913 21:13:02.665491 18182 net.cpp:399] cont_sentence_input_1_split -> cont_sentence_input_1_split_0
I0913 21:13:02.665508 18182 net.cpp:399] cont_sentence_input_1_split -> cont_sentence_input_1_split_1
I0913 21:13:02.665586 18182 net.cpp:141] Setting up cont_sentence_input_1_split
I0913 21:13:02.665616 18182 net.cpp:148] Top shape: 1 1 (1)
I0913 21:13:02.665627 18182 net.cpp:148] Top shape: 1 1 (1)
I0913 21:13:02.665648 18182 net.cpp:156] Memory required for data: 16404
I0913 21:13:02.665657 18182 layer_factory.hpp:77] Creating layer embed_encoder
I0913 21:13:02.665673 18182 net.cpp:91] Creating Layer embed_encoder
I0913 21:13:02.665683 18182 net.cpp:425] embed_encoder <- frames_fc7
I0913 21:13:02.665696 18182 net.cpp:399] embed_encoder -> embedded_in_frames
I0913 21:13:02.684229 18192 net.cpp:141] Setting up fc6
I0913 21:13:02.684274 18192 net.cpp:148] Top shape: 10 4096 (40960)
I0913 21:13:02.684280 18192 net.cpp:156] Memory required for data: 67782200
I0913 21:13:02.684295 18192 layer_factory.hpp:77] Creating layer relu6
I0913 21:13:02.684331 18192 net.cpp:91] Creating Layer relu6
I0913 21:13:02.684339 18192 net.cpp:425] relu6 <- fc6
I0913 21:13:02.684348 18192 net.cpp:386] relu6 -> fc6 (in-place)
I0913 21:13:02.684710 18192 net.cpp:141] Setting up relu6
I0913 21:13:02.684721 18192 net.cpp:148] Top shape: 10 4096 (40960)
I0913 21:13:02.684726 18192 net.cpp:156] Memory required for data: 67946040
I0913 21:13:02.684732 18192 layer_factory.hpp:77] Creating layer drop6
I0913 21:13:02.684754 18192 net.cpp:91] Creating Layer drop6
I0913 21:13:02.684759 18192 net.cpp:425] drop6 <- fc6
I0913 21:13:02.684779 18192 net.cpp:386] drop6 -> fc6 (in-place)
I0913 21:13:02.684830 18192 net.cpp:141] Setting up drop6
I0913 21:13:02.684842 18192 net.cpp:148] Top shape: 10 4096 (40960)
I0913 21:13:02.684847 18192 net.cpp:156] Memory required for data: 68109880
I0913 21:13:02.684852 18192 layer_factory.hpp:77] Creating layer fc7
I0913 21:13:02.684864 18192 net.cpp:91] Creating Layer fc7
I0913 21:13:02.684869 18192 net.cpp:425] fc7 <- fc6
I0913 21:13:02.684875 18192 net.cpp:399] fc7 -> fc7
I0913 21:13:02.713853 18182 net.cpp:141] Setting up embed_encoder
I0913 21:13:02.713907 18182 net.cpp:148] Top shape: 1 500 (500)
I0913 21:13:02.713915 18182 net.cpp:156] Memory required for data: 18404
I0913 21:13:02.713943 18182 layer_factory.hpp:77] Creating layer reshape_frames
I0913 21:13:02.713969 18182 net.cpp:91] Creating Layer reshape_frames
I0913 21:13:02.713980 18182 net.cpp:425] reshape_frames <- embedded_in_frames
I0913 21:13:02.713995 18182 net.cpp:399] reshape_frames -> embedded_input_frames
I0913 21:13:02.714085 18182 net.cpp:141] Setting up reshape_frames
I0913 21:13:02.714100 18182 net.cpp:148] Top shape: 1 1 500 (500)
I0913 21:13:02.714107 18182 net.cpp:156] Memory required for data: 20404
I0913 21:13:02.714114 18182 layer_factory.hpp:77] Creating layer reshape_stage_indicator
I0913 21:13:02.714133 18182 net.cpp:91] Creating Layer reshape_stage_indicator
I0913 21:13:02.714141 18182 net.cpp:425] reshape_stage_indicator <- stage_indicator
I0913 21:13:02.714154 18182 net.cpp:399] reshape_stage_indicator -> reshaped_stage_indicator
I0913 21:13:02.714208 18182 net.cpp:141] Setting up reshape_stage_indicator
I0913 21:13:02.714221 18182 net.cpp:148] Top shape: 1 1 1 (1)
I0913 21:13:02.714228 18182 net.cpp:156] Memory required for data: 20408
I0913 21:13:02.714236 18182 layer_factory.hpp:77] Creating layer embedding
I0913 21:13:02.714257 18182 net.cpp:91] Creating Layer embedding
I0913 21:13:02.714265 18182 net.cpp:425] embedding <- input_sentence
I0913 21:13:02.714278 18182 net.cpp:399] embedding -> embedded_input_sentence
I0913 21:13:02.767148 18192 net.cpp:141] Setting up fc7
I0913 21:13:02.767199 18192 net.cpp:148] Top shape: 10 4096 (40960)
I0913 21:13:02.767205 18192 net.cpp:156] Memory required for data: 68273720
I0913 21:13:02.767221 18192 layer_factory.hpp:77] Creating layer relu7
I0913 21:13:02.767241 18192 net.cpp:91] Creating Layer relu7
I0913 21:13:02.767249 18192 net.cpp:425] relu7 <- fc7
I0913 21:13:02.767267 18192 net.cpp:386] relu7 -> fc7 (in-place)
I0913 21:13:02.767891 18192 net.cpp:141] Setting up relu7
I0913 21:13:02.767909 18192 net.cpp:148] Top shape: 10 4096 (40960)
I0913 21:13:02.767913 18192 net.cpp:156] Memory required for data: 68437560
I0913 21:13:02.767918 18192 layer_factory.hpp:77] Creating layer drop7
I0913 21:13:02.767930 18192 net.cpp:91] Creating Layer drop7
I0913 21:13:02.767935 18192 net.cpp:425] drop7 <- fc7
I0913 21:13:02.767945 18192 net.cpp:386] drop7 -> fc7 (in-place)
I0913 21:13:02.767989 18192 net.cpp:141] Setting up drop7
I0913 21:13:02.767998 18192 net.cpp:148] Top shape: 10 4096 (40960)
I0913 21:13:02.768002 18192 net.cpp:156] Memory required for data: 68601400
I0913 21:13:02.768007 18192 layer_factory.hpp:77] Creating layer fc8
I0913 21:13:02.768021 18192 net.cpp:91] Creating Layer fc8
I0913 21:13:02.768026 18192 net.cpp:425] fc8 <- fc7
I0913 21:13:02.768033 18192 net.cpp:399] fc8 -> fc8
I0913 21:13:02.782945 18192 net.cpp:141] Setting up fc8
I0913 21:13:02.783004 18192 net.cpp:148] Top shape: 10 1000 (10000)
I0913 21:13:02.783010 18192 net.cpp:156] Memory required for data: 68641400
I0913 21:13:02.783030 18192 layer_factory.hpp:77] Creating layer prob
I0913 21:13:02.783047 18192 net.cpp:91] Creating Layer prob
I0913 21:13:02.783054 18192 net.cpp:425] prob <- fc8
I0913 21:13:02.783071 18192 net.cpp:399] prob -> prob
I0913 21:13:02.783565 18192 net.cpp:141] Setting up prob
I0913 21:13:02.783578 18192 net.cpp:148] Top shape: 10 1000 (10000)
I0913 21:13:02.783583 18192 net.cpp:156] Memory required for data: 68681400
I0913 21:13:02.783588 18192 net.cpp:219] prob does not need backward computation.
I0913 21:13:02.783593 18192 net.cpp:219] fc8 does not need backward computation.
I0913 21:13:02.783598 18192 net.cpp:219] drop7 does not need backward computation.
I0913 21:13:02.783607 18192 net.cpp:219] relu7 does not need backward computation.
…
I0913 21:13:02.783716 18192 net.cpp:219] norm1 does not need backward computation.
I0913 21:13:02.783723 18192 net.cpp:219] pool1 does not need backward computation.
I0913 21:13:02.783727 18192 net.cpp:219] relu1 does not need backward computation.
I0913 21:13:02.783740 18192 net.cpp:219] conv1 does not need backward computation.
I0913 21:13:02.783745 18192 net.cpp:219] data does not need backward computation.
I0913 21:13:02.783749 18192 net.cpp:261] This network produces output prob
I0913 21:13:02.783776 18192 net.cpp:274] Network initialization done.
I0913 21:13:02.956142 18182 net.cpp:141] Setting up embedding
I0913 21:13:02.956197 18182 net.cpp:148] Top shape: 1 1 500 (500)
I0913 21:13:02.956207 18182 net.cpp:156] Memory required for data: 22408
I0913 21:13:02.956231 18182 layer_factory.hpp:77] Creating layer lstm1
I0913 21:13:02.956275 18182 net.cpp:91] Creating Layer lstm1
I0913 21:13:02.956288 18182 net.cpp:425] lstm1 <- embedded_input_frames
I0913 21:13:02.956300 18182 net.cpp:425] lstm1 <- cont_sentence_input_1_split_0
I0913 21:13:02.956313 18182 net.cpp:399] lstm1 -> lstm1
I0913 21:13:02.956349 18182 recurrent_layer.cpp:20] Initializing recurrent layer: assuming input batch contains 1 timesteps of 1 independent streams.
I0913 21:13:02.956885 18182 net.cpp:49] Initializing net from parameters: 
layer {
  name: "lstm1_"
  type: "Input"
  top: "x"
  top: "cont"
  input_param {
    shape {
      dim: 1
      dim: 1
      dim: 500
    }
    shape {
      dim: 1
      dim: 1
    }
  }
}
layer {
  name: "lstm1_"
  type: "Input"
  top: "c_0"
  top: "h_0"
  input_param {
    shape {
      dim: 1
      dim: 1
      dim: 1000
    }
    shape {
      dim: 1
      dim: 1
      dim: 1000
    }
  }
}
layer {
  name: "lstm1_cont_slice"
  type: "Slice"
  bottom: "cont"
  top: "cont_1"
  slice_param {
    axis: 0
  }
}
layer {
  name: "lstm1_x_transform"
  type: "InnerProduct"
  bottom: "x"
  top: "W_xc_x"
  param {
    name: "W_xc"
  }
  param {
    name: "b_c"
  }
  propagate_down: true
  inner_product_param {
    num_output: 4000
    bias_term: true
    weight_filler {
      type: "uniform"
      min: -0.08
      max: 0.08
    }
    bias_filler {
      type: "constant"
      value: 0
    }
    axis: 2
  }
}
layer {
  name: "lstm1_W_xc_x_slice"
  type: "Slice"
  bottom: "W_xc_x"
  top: "W_xc_x_1"
  slice_param {
    axis: 0
  }
}
layer {
  name: "lstm1_h_conted_0"
  type: "Scale"
  bottom: "h_0"
  bottom: "cont_1"
  top: "h_conted_0"
  scale_param {
    axis: 0
  }
}
layer {
  name: "lstm1_transform_1"
  type: "InnerProduct"
  bottom: "h_conted_0"
  top: "W_hc_h_0"
  param {
    name: "W_hc"
  }
  inner_product_param {
    num_output: 4000
    bias_term: false
    weight_filler {
      type: "uniform"
      min: -0.08
      max: 0.08
    }
    axis: 2
  }
}
layer {
  name: "lstm1_gate_input_1"
  type: "Eltwise"
  bottom: "W_hc_h_0"
  bottom: "W_xc_x_1"
  top: "gate_input_1"
  eltwise_param {
    operation: SUM
  }
}
layer {
  name: "lstm1_unit_1"
  type: "LSTMUnit"
  bottom: "c_0"
  bottom: "gate_input_1"
  bottom: "cont_1"
  top: "c_1"
  top: "h_1"
}
layer {
  name: "lstm1_"
  type: "Split"
  bottom: "c_1"
  top: "c_T"
}
layer {
  name: "lstm1_h_concat"
  type: "Concat"
  bottom: "h_1"
  top: "h"
  concat_param {
    axis: 0
  }
}
layer {
  name: "h_pseudoloss"
  type: "Reduction"
  bottom: "h"
  top: "h_pseudoloss"
  loss_weight: 1
}
I0913 21:13:02.957027 18182 layer_factory.hpp:77] Creating layer lstm1_
I0913 21:13:02.957046 18182 net.cpp:91] Creating Layer lstm1_
I0913 21:13:02.957056 18182 net.cpp:399] lstm1_ -> x
I0913 21:13:02.957073 18182 net.cpp:399] lstm1_ -> cont
I0913 21:13:02.957160 18182 net.cpp:141] Setting up lstm1_
I0913 21:13:02.957175 18182 net.cpp:148] Top shape: 1 1 500 (500)
I0913 21:13:02.957185 18182 net.cpp:148] Top shape: 1 1 (1)
I0913 21:13:02.957192 18182 net.cpp:156] Memory required for data: 2004
I0913 21:13:02.957200 18182 layer_factory.hpp:77] Creating layer lstm1_
I0913 21:13:02.957216 18182 net.cpp:91] Creating Layer lstm1_
I0913 21:13:02.957229 18182 net.cpp:399] lstm1_ -> c_0
I0913 21:13:02.957248 18182 net.cpp:399] lstm1_ -> h_0
I0913 21:13:02.957320 18182 net.cpp:141] Setting up lstm1_
I0913 21:13:02.957335 18182 net.cpp:148] Top shape: 1 1 1000 (1000)
I0913 21:13:02.957345 18182 net.cpp:148] Top shape: 1 1 1000 (1000)
I0913 21:13:02.957351 18182 net.cpp:156] Memory required for data: 10004
I0913 21:13:02.957358 18182 layer_factory.hpp:77] Creating layer lstm1_cont_slice
I0913 21:13:02.957375 18182 net.cpp:91] Creating Layer lstm1_cont_slice
I0913 21:13:02.957383 18182 net.cpp:425] lstm1_cont_slice <- cont
I0913 21:13:02.957393 18182 net.cpp:399] lstm1_cont_slice -> cont_1
I0913 21:13:02.957447 18182 net.cpp:141] Setting up lstm1_cont_slice
I0913 21:13:02.957460 18182 net.cpp:148] Top shape: 1 1 (1)
I0913 21:13:02.957468 18182 net.cpp:156] Memory required for data: 10008
I0913 21:13:02.957476 18182 layer_factory.hpp:77] Creating layer cont_1_lstm1_cont_slice_0_split
I0913 21:13:02.957487 18182 net.cpp:91] Creating Layer cont_1_lstm1_cont_slice_0_split
I0913 21:13:02.957494 18182 net.cpp:425] cont_1_lstm1_cont_slice_0_split <- cont_1
I0913 21:13:02.957507 18182 net.cpp:399] cont_1_lstm1_cont_slice_0_split -> cont_1_lstm1_cont_slice_0_split_0
I0913 21:13:02.957520 18182 net.cpp:399] cont_1_lstm1_cont_slice_0_split -> cont_1_lstm1_cont_slice_0_split_1
I0913 21:13:02.957592 18182 net.cpp:141] Setting up cont_1_lstm1_cont_slice_0_split
I0913 21:13:02.957609 18182 net.cpp:148] Top shape: 1 1 (1)
I0913 21:13:02.957618 18182 net.cpp:148] Top shape: 1 1 (1)
I0913 21:13:02.957625 18182 net.cpp:156] Memory required for data: 10016
I0913 21:13:02.957633 18182 layer_factory.hpp:77] Creating layer lstm1_x_transform
I0913 21:13:02.957648 18182 net.cpp:91] Creating Layer lstm1_x_transform
I0913 21:13:02.957654 18182 net.cpp:425] lstm1_x_transform <- x
I0913 21:13:02.957669 18182 net.cpp:399] lstm1_x_transform -> W_xc_x
I0913 21:13:02.985631 18182 net.cpp:141] Setting up lstm1_x_transform
I0913 21:13:02.985689 18182 net.cpp:148] Top shape: 1 1 4000 (4000)
I0913 21:13:02.985699 18182 net.cpp:156] Memory required for data: 26016
I0913 21:13:02.985728 18182 layer_factory.hpp:77] Creating layer lstm1_W_xc_x_slice
I0913 21:13:02.985752 18182 net.cpp:91] Creating Layer lstm1_W_xc_x_slice
I0913 21:13:02.985762 18182 net.cpp:425] lstm1_W_xc_x_slice <- W_xc_x
I0913 21:13:02.985777 18182 net.cpp:399] lstm1_W_xc_x_slice -> W_xc_x_1
I0913 21:13:02.985842 18182 net.cpp:141] Setting up lstm1_W_xc_x_slice
I0913 21:13:02.985857 18182 net.cpp:148] Top shape: 1 1 4000 (4000)
I0913 21:13:02.985864 18182 net.cpp:156] Memory required for data: 42016
I0913 21:13:02.985872 18182 layer_factory.hpp:77] Creating layer lstm1_h_conted_0
I0913 21:13:02.985890 18182 net.cpp:91] Creating Layer lstm1_h_conted_0
I0913 21:13:02.985899 18182 net.cpp:425] lstm1_h_conted_0 <- h_0
I0913 21:13:02.985909 18182 net.cpp:425] lstm1_h_conted_0 <- cont_1_lstm1_cont_slice_0_split_0
I0913 21:13:02.985920 18182 net.cpp:399] lstm1_h_conted_0 -> h_conted_0
I0913 21:13:02.986060 18182 net.cpp:141] Setting up lstm1_h_conted_0
I0913 21:13:02.986074 18182 net.cpp:148] Top shape: 1 1 1000 (1000)
I0913 21:13:02.986080 18182 net.cpp:156] Memory required for data: 46016
I0913 21:13:02.986088 18182 layer_factory.hpp:77] Creating layer lstm1_transform_1
I0913 21:13:02.986104 18182 net.cpp:91] Creating Layer lstm1_transform_1
I0913 21:13:02.986114 18182 net.cpp:425] lstm1_transform_1 <- h_conted_0
I0913 21:13:02.986125 18182 net.cpp:399] lstm1_transform_1 -> W_hc_h_0
I0913 21:13:03.023326 18192 upgrade_proto.cpp:43] Attempting to upgrade input file specified using deprecated transformation parameters: /home/peifeng/work/run/storm102/data/workers/88571941-824c-4ddf-9427-847c913aa6a9/tmp/cvld5607761228221289628/bvlc_reference_caffenet.caffemodel
I0913 21:13:03.023375 18192 upgrade_proto.cpp:46] Successfully upgraded file specified using deprecated data transformation parameters.
W0913 21:13:03.023381 18192 upgrade_proto.cpp:48] Note that future Caffe releases will only support transform_param messages for transformation fields.
I0913 21:13:03.023386 18192 upgrade_proto.cpp:52] Attempting to upgrade input file specified using deprecated V1LayerParameter: /home/peifeng/work/run/storm102/data/workers/88571941-824c-4ddf-9427-847c913aa6a9/tmp/cvld5607761228221289628/bvlc_reference_caffenet.caffemodel
I0913 21:13:03.030474 18182 net.cpp:141] Setting up lstm1_transform_1
I0913 21:13:03.030524 18182 net.cpp:148] Top shape: 1 1 4000 (4000)
I0913 21:13:03.030530 18182 net.cpp:156] Memory required for data: 62016
I0913 21:13:03.030552 18182 layer_factory.hpp:77] Creating layer lstm1_gate_input_1
I0913 21:13:03.030575 18182 net.cpp:91] Creating Layer lstm1_gate_input_1
I0913 21:13:03.030583 18182 net.cpp:425] lstm1_gate_input_1 <- W_hc_h_0
I0913 21:13:03.030592 18182 net.cpp:425] lstm1_gate_input_1 <- W_xc_x_1
I0913 21:13:03.030601 18182 net.cpp:399] lstm1_gate_input_1 -> gate_input_1
I0913 21:13:03.030659 18182 net.cpp:141] Setting up lstm1_gate_input_1
I0913 21:13:03.030669 18182 net.cpp:148] Top shape: 1 1 4000 (4000)
I0913 21:13:03.030673 18182 net.cpp:156] Memory required for data: 78016
I0913 21:13:03.030678 18182 layer_factory.hpp:77] Creating layer lstm1_unit_1
I0913 21:13:03.030689 18182 net.cpp:91] Creating Layer lstm1_unit_1
I0913 21:13:03.030694 18182 net.cpp:425] lstm1_unit_1 <- c_0
I0913 21:13:03.030699 18182 net.cpp:425] lstm1_unit_1 <- gate_input_1
I0913 21:13:03.030705 18182 net.cpp:425] lstm1_unit_1 <- cont_1_lstm1_cont_slice_0_split_1
I0913 21:13:03.030711 18182 net.cpp:399] lstm1_unit_1 -> c_1
I0913 21:13:03.030720 18182 net.cpp:399] lstm1_unit_1 -> h_1
I0913 21:13:03.030782 18182 net.cpp:141] Setting up lstm1_unit_1
I0913 21:13:03.030793 18182 net.cpp:148] Top shape: 1 1 1000 (1000)
I0913 21:13:03.030799 18182 net.cpp:148] Top shape: 1 1 1000 (1000)
I0913 21:13:03.030803 18182 net.cpp:156] Memory required for data: 86016
I0913 21:13:03.030808 18182 layer_factory.hpp:77] Creating layer lstm1_
I0913 21:13:03.030817 18182 net.cpp:91] Creating Layer lstm1_
I0913 21:13:03.030820 18182 net.cpp:425] lstm1_ <- c_1
I0913 21:13:03.030827 18182 net.cpp:399] lstm1_ -> c_T
I0913 21:13:03.030858 18182 net.cpp:141] Setting up lstm1_
I0913 21:13:03.030865 18182 net.cpp:148] Top shape: 1 1 1000 (1000)
I0913 21:13:03.030870 18182 net.cpp:156] Memory required for data: 90016
I0913 21:13:03.030874 18182 layer_factory.hpp:77] Creating layer lstm1_h_concat
I0913 21:13:03.030890 18182 net.cpp:91] Creating Layer lstm1_h_concat
I0913 21:13:03.030896 18182 net.cpp:425] lstm1_h_concat <- h_1
I0913 21:13:03.030902 18182 net.cpp:399] lstm1_h_concat -> h
I0913 21:13:03.030939 18182 net.cpp:141] Setting up lstm1_h_concat
I0913 21:13:03.030948 18182 net.cpp:148] Top shape: 1 1 1000 (1000)
I0913 21:13:03.030952 18182 net.cpp:156] Memory required for data: 94016
I0913 21:13:03.030957 18182 layer_factory.hpp:77] Creating layer h_pseudoloss
I0913 21:13:03.030977 18182 net.cpp:91] Creating Layer h_pseudoloss
I0913 21:13:03.030982 18182 net.cpp:425] h_pseudoloss <- h
I0913 21:13:03.030992 18182 net.cpp:399] h_pseudoloss -> h_pseudoloss
I0913 21:13:03.031077 18182 net.cpp:141] Setting up h_pseudoloss
…
