…
I0721 12:31:20.592010  5594 upgrade_proto.cpp:69] Successfully upgraded file specified using deprecated input fields.
W0721 12:31:20.592022  5598 upgrade_proto.cpp:71] Note that future Caffe releases will only support input layers and not input fields.
W0721 12:31:20.592025  5594 upgrade_proto.cpp:71] Note that future Caffe releases will only support input layers and not input fields.
I0721 12:31:20.592252  5612 net.cpp:49] Initializing net from parameters: 
name: "CaffeNet"
state {
  phase: TEST
}
layer {
  name: "data"
  type: "Input"
  top: "data"
  input_param {
    shape {
      dim: 10
      dim: 3
      dim: 227
      dim: 227
    }
  }
}
layer {
  name: "conv1"
  type: "Convolution"
  bottom: "data"
  top: "conv1"
  convolution_param {
    num_output: 96
    kernel_size: 11
    stride: 4
  }
}
layer {
  name: "relu1"
  type: "ReLU"
  bottom: "conv1"
  top: "conv1"
}
layer {
  name: "pool1"
  type: "Pooling"
  bottom: "conv1"
  top: "pool1"
  pooling_param {
    pool: MAX
    kernel_size: 3
    stride: 2
  }
}
layer {
  name: "norm1"
  type: "LRN"
  bottom: "pool1"
  top: "norm1"
  lrn_param {
    local_size: 5
    alpha: 0.0001
    beta: 0.75
  }
}
layer {
  name: "conv2"
  type: "Convolution"
  bottom: "norm1"
  top: "conv2"
  convolution_param {
    num_output: 256
    pad: 2
    kernel_size: 5
    group: 2
  }
}
layer {
  name: "relu2"
  type: "ReLU"
  bottom: "conv2"
  top: "conv2"
}
layer {
  name: "pool2"
  type: "Pooling"
  bottom: "conv2"
  top: "pool2"
  pooling_param {
    pool: MAX
    kernel_size: 3
    stride: 2
  }
}
layer {
  name: "norm2"
  type: "LRN"
  bottom: "pool2"
  top: "norm2"
  lrn_param {
    local_size: 5
    alpha: 0.0001
    beta: 0.75
  }
}
layer {
  name: "conv3"
  type: "Convolution"
  bottom: "norm2"
  top: "conv3"
  convolution_param {
    num_output: 384
    pad: 1
    kernel_size: 3
  }
}
layer {
  name: "relu3"
  type: "ReLU"
  bottom: "conv3"
  top: "conv3"
}
layer {
  name: "conv4"
  type: "Convolution"
  bottom: "conv3"
  top: "conv4"
  convolution_param {
    num_output: 384
    pad: 1
    kernel_size: 3
    group: 2
  }
}
layer {
  name: "relu4"
  type: "ReLU"
  bottom: "conv4"
  top: "conv4"
}
layer {
  name: "conv5"
  type: "Convolution"
  bottom: "conv4"
  top: "conv5"
  convolution_param {
    num_output: 256
    pad: 1
    kernel_size: 3
    group: 2
  }
}
layer {
  name: "relu5"
  type: "ReLU"
  bottom: "conv5"
  top: "conv5"
}
layer {
  name: "pool5"
  type: "Pooling"
  bottom: "conv5"
  top: "pool5"
  pooling_param {
    pool: MAX
    kernel_size: 3
    stride: 2
  }
}
layer {
  name: "fc6"
  type: "InnerProduct"
  bottom: "pool5"
  top: "fc6"
  inner_product_param {
    num_output: 4096
  }
}
layer {
  name: "relu6"
  type: "ReLU"
  bottom: "fc6"
  top: "fc6"
}
layer {
  name: "drop6"
  type: "Dropout"
  bottom: "fc6"
  top: "fc6"
  dropout_param {
    dropout_ratio: 0.5
  }
}
layer {
  name: "fc7"
  type: "InnerProduct"
  bottom: "fc6"
  top: "fc7"
  inner_product_param {
    num_output: 4096
  }
}
layer {
  name: "relu7"
  type: "ReLU"
  bottom: "fc7"
  top: "fc7"
}
layer {
  name: "drop7"
  type: "Dropout"
  bottom: "fc7"
  top: "fc7"
  dropout_param {
    dropout_ratio: 0.5
  }
}
layer {
  name: "fc8"
  type: "InnerProduct"
  bottom: "fc7"
  top: "fc8"
  inner_product_param {
    num_output: 1000
  }
}
layer {
  name: "prob"
  type: "Softmax"
  bottom: "fc8"
  top: "prob"
}
I0721 12:31:20.592257  5598 net.cpp:49] Initializing net from parameters: 
name: "s2vt:features_to_lstm"
state {
  phase: TEST
}
layer {
  name: "input"
  type: "Input"
  top: "frames_fc7"
  top: "cont_sentence"
  top: "input_sentence"
  top: "stage_indicator"
  input_param {
    shape {
      dim: 1
      dim: 4096
    }
    shape {
      dim: 1
      dim: 1
    }
    shape {
      dim: 1
      dim: 1
    }
    shape {
      dim: 1
      dim: 1
    }
  }
}
layer {
  name: "embed_encoder"
  type: "InnerProduct"
  bottom: "frames_fc7"
  top: "embedded_in_frames"
  param {
    lr_mult: 1
    decay_mult: 1
  }
  param {
    lr_mult: 2
    decay_mult: 0
  }
  inner_product_param {
    num_output: 500
    weight_filler {
      type: "xavier"
    }
    bias_filler {
      type: "constant"
      value: 0.2
    }
  }
}
layer {
  name: "reshape_frames"
  type: "Reshape"
  bottom: "embedded_in_frames"
  top: "embedded_input_frames"
  reshape_param {
    shape {
      dim: 1
      dim: 1
      dim: 500
    }
  }
}
layer {
  name: "reshape_stage_indicator"
  type: "Reshape"
  bottom: "stage_indicator"
  top: "reshaped_stage_indicator"
  reshape_param {
    shape {
      dim: 1
      dim: 1
      dim: 1
    }
  }
}
layer {
  name: "embedding"
  type: "Embed"
  bottom: "input_sentence"
  top: "embedded_input_sentence"
  param {
    lr_mult: 1
  }
  embed_param {
    num_output: 500
    input_dim: 46168
    bias_term: false
    weight_filler {
      type: "uniform"
      min: -0.08
      max: 0.08
    }
  }
}
layer {
  name: "lstm1"
  type: "LSTM"
  bottom: "embedded_input_frames"
  bottom: "cont_sentence"
  top: "lstm1"
  recurrent_param {
    num_output: 1000
    weight_filler {
      type: "uniform"
      min: -0.08
      max: 0.08
    }
    bias_filler {
      type: "constant"
      value: 0
    }
  }
}
layer {
  name: "concat"
  type: "Concat"
  bottom: "lstm1"
  bottom: "embedded_input_sentence"
  bottom: "reshaped_stage_indicator"
  top: "lstm1_video_sequence"
  concat_param {
    concat_dim: 2
  }
}
layer {
  name: "lstm2"
  type: "LSTM"
  bottom: "lstm1_video_sequence"
  bottom: "cont_sentence"
  top: "lstm2"
  recurrent_param {
    num_output: 1000
    weight_filler {
      type: "uniform"
      min: -0.08
      max: 0.08
    }
    bias_filler {
      type: "constant"
      value: 0
    }
  }
}
layer {
  name: "predict"
  type: "InnerProduct"
  bottom: "lstm2"
  top: "predict"
  param {
    lr_mult: 1
    decay_mult: 1
  }
  param {
    lr_mult: 2
    decay_mult: 0
  }
  inner_product_param {
    num_output: 46168
    weight_filler {
      type: "uniform"
      min: -0.08
      max: 0.08
    }
    bias_filler {
      type: "constant"
      value: 0
    }
    axis: 2
  }
}
layer {
  name: "probs"
  type: "Softmax"
  bottom: "predict"
  top: "probs"
  softmax_param {
    axis: 2
  }
}
I0721 12:31:20.592258  5594 net.cpp:49] Initializing net from parameters: 
name: "s2vt:features_to_lstm"
state {
  phase: TEST
}
layer {
  name: "input"
  type: "Input"
  top: "frames_fc7"
  top: "cont_sentence"
  top: "input_sentence"
  top: "stage_indicator"
  input_param {
    shape {
      dim: 1
      dim: 4096
    }
    shape {
      dim: 1
      dim: 1
    }
    shape {
      dim: 1
      dim: 1
    }
    shape {
      dim: 1
      dim: 1
    }
  }
}
layer {
  name: "embed_encoder"
  type: "InnerProduct"
  bottom: "frames_fc7"
  top: "embedded_in_frames"
  param {
    lr_mult: 1
    decay_mult: 1
  }
  param {
    lr_mult: 2
    decay_mult: 0
  }
  inner_product_param {
    num_output: 500
    weight_filler {
      type: "xavier"
    }
    bias_filler {
      type: "constant"
      value: 0.2
    }
  }
}
layer {
  name: "reshape_frames"
  type: "Reshape"
  bottom: "embedded_in_frames"
  top: "embedded_input_frames"
  reshape_param {
    shape {
      dim: 1
      dim: 1
      dim: 500
    }
  }
}
layer {
  name: "reshape_stage_indicator"
  type: "Reshape"
  bottom: "stage_indicator"
  top: "reshaped_stage_indicator"
  reshape_param {
    shape {
      dim: 1
      dim: 1
      dim: 1
    }
  }
}
layer {
  name: "embedding"
  type: "Embed"
  bottom: "input_sentence"
  top: "embedded_input_sentence"
  param {
    lr_mult: 1
  }
  embed_param {
    num_output: 500
    input_dim: 46168
    bias_term: false
    weight_filler {
      type: "uniform"
      min: -0.08
      max: 0.08
    }
  }
}
layer {
  name: "lstm1"
  type: "LSTM"
  bottom: "embedded_input_frames"
  bottom: "cont_sentence"
  top: "lstm1"
  recurrent_param {
    num_output: 1000
    weight_filler {
      type: "uniform"
      min: -0.08
      max: 0.08
    }
    bias_filler {
      type: "constant"
      value: 0
    }
  }
}
layer {
  name: "concat"
  type: "Concat"
  bottom: "lstm1"
  bottom: "embedded_input_sentence"
  bottom: "reshaped_stage_indicator"
  top: "lstm1_video_sequence"
  concat_param {
    concat_dim: 2
  }
}
layer {
  name: "lstm2"
  type: "LSTM"
  bottom: "lstm1_video_sequence"
  bottom: "cont_sentence"
  top: "lstm2"
  recurrent_param {
    num_output: 1000
    weight_filler {
      type: "uniform"
      min: -0.08
      max: 0.08
    }
    bias_filler {
      type: "constant"
      value: 0
    }
  }
}
layer {
  name: "predict"
  type: "InnerProduct"
  bottom: "lstm2"
  top: "predict"
  param {
    lr_mult: 1
    decay_mult: 1
  }
  param {
    lr_mult: 2
    decay_mult: 0
  }
  inner_product_param {
    num_output: 46168
    weight_filler {
      type: "uniform"
      min: -0.08
      max: 0.08
    }
    bias_filler {
      type: "constant"
      value: 0
    }
    axis: 2
  }
}
layer {
  name: "probs"
  type: "Softmax"
  bottom: "predict"
  top: "probs"
  softmax_param {
    axis: 2
  }
}
I0721 12:31:20.592366  5612 layer_factory.hpp:77] Creating layer data
I0721 12:31:20.592358  5606 net.cpp:49] Initializing net from parameters: 
name: "CaffeNet"
state {
  phase: TEST
}
layer {
  name: "data"
  type: "Input"
  top: "data"
  input_param {
    shape {
      dim: 10
      dim: 3
      dim: 227
      dim: 227
    }
  }
}
layer {
  name: "conv1"
  type: "Convolution"
  bottom: "data"
  top: "conv1"
  convolution_param {
    num_output: 96
    kernel_size: 11
    stride: 4
  }
}
layer {
  name: "relu1"
  type: "ReLU"
  bottom: "conv1"
  top: "conv1"
}
layer {
  name: "pool1"
  type: "Pooling"
  bottom: "conv1"
  top: "pool1"
  pooling_param {
    pool: MAX
    kernel_size: 3
    stride: 2
  }
}
layer {
  name: "norm1"
  type: "LRN"
  bottom: "pool1"
  top: "norm1"
  lrn_param {
    local_size: 5
    alpha: 0.0001
    beta: 0.75
  }
}
layer {
  name: "conv2"
  type: "Convolution"
  bottom: "norm1"
  top: "conv2"
  convolution_param {
    num_output: 256
    pad: 2
    kernel_size: 5
    group: 2
  }
}
layer {
  name: "relu2"
  type: "ReLU"
  bottom: "conv2"
  top: "conv2"
}
layer {
  name: "pool2"
  type: "Pooling"
  bottom: "conv2"
  top: "pool2"
  pooling_param {
    pool: MAX
    kernel_size: 3
    stride: 2
  }
}
layer {
  name: "norm2"
  type: "LRN"
  bottom: "pool2"
  top: "norm2"
  lrn_param {
    local_size: 5
    alpha: 0.0001
    beta: 0.75
  }
}
layer {
  name: "conv3"
  type: "Convolution"
  bottom: "norm2"
  top: "conv3"
  convolution_param {
    num_output: 384
    pad: 1
    kernel_size: 3
  }
}
layer {
  name: "relu3"
  type: "ReLU"
  bottom: "conv3"
  top: "conv3"
}
layer {
  name: "conv4"
  type: "Convolution"
  bottom: "conv3"
  top: "conv4"
  convolution_param {
    num_output: 384
    pad: 1
    kernel_size: 3
    group: 2
  }
}
layer {
  name: "relu4"
  type: "ReLU"
  bottom: "conv4"
  top: "conv4"
}
layer {
  name: "conv5"
  type: "Convolution"
  bottom: "conv4"
  top: "conv5"
  convolution_param {
    num_output: 256
    pad: 1
    kernel_size: 3
    group: 2
  }
}
layer {
  name: "relu5"
  type: "ReLU"
  bottom: "conv5"
  top: "conv5"
}
layer {
  name: "pool5"
  type: "Pooling"
  bottom: "conv5"
  top: "pool5"
  pooling_param {
    pool: MAX
    kernel_size: 3
    stride: 2
  }
}
layer {
  name: "fc6"
  type: "InnerProduct"
  bottom: "pool5"
  top: "fc6"
  inner_product_param {
    num_output: 4096
  }
}
layer {
  name: "relu6"
  type: "ReLU"
  bottom: "fc6"
  top: "fc6"
}
layer {
  name: "drop6"
  type: "Dropout"
  bottom: "fc6"
  top: "fc6"
  dropout_param {
    dropout_ratio: 0.5
  }
}
layer {
  name: "fc7"
  type: "InnerProduct"
  bottom: "fc6"
  top: "fc7"
  inner_product_param {
    num_output: 4096
  }
}
layer {
  name: "relu7"
  type: "ReLU"
  bottom: "fc7"
  top: "fc7"
}
layer {
  name: "drop7"
  type: "Dropout"
  bottom: "fc7"
  top: "fc7"
  dropout_param {
    dropout_ratio: 0.5
  }
}
layer {
  name: "fc8"
  type: "InnerProduct"
  bottom: "fc7"
  top: "fc8"
  inner_product_param {
    num_output: 1000
  }
}
layer {
  name: "prob"
  type: "Softmax"
  bottom: "fc8"
  top: "prob"
}
I0721 12:31:20.592389  5598 layer_factory.hpp:77] Creating layer input
I0721 12:31:20.592391  5594 layer_factory.hpp:77] Creating layer input
I0721 12:31:20.592492  5606 layer_factory.hpp:77] Creating layer data
I0721 12:31:20.604156  5606 net.cpp:91] Creating Layer data
I0721 12:31:20.604169  5594 net.cpp:91] Creating Layer input
I0721 12:31:20.604181  5606 net.cpp:399] data -> data
I0721 12:31:20.604163  5612 net.cpp:91] Creating Layer data
I0721 12:31:20.604202  5594 net.cpp:399] input -> frames_fc7
I0721 12:31:20.604163  5598 net.cpp:91] Creating Layer input
I0721 12:31:20.604215  5612 net.cpp:399] data -> data
I0721 12:31:20.604231  5598 net.cpp:399] input -> frames_fc7
I0721 12:31:20.604245  5594 net.cpp:399] input -> cont_sentence
I0721 12:31:20.604251  5598 net.cpp:399] input -> cont_sentence
I0721 12:31:20.604264  5598 net.cpp:399] input -> input_sentence
I0721 12:31:20.604269  5594 net.cpp:399] input -> input_sentence
I0721 12:31:20.604275  5598 net.cpp:399] input -> stage_indicator
I0721 12:31:20.604286  5594 net.cpp:399] input -> stage_indicator
I0721 12:31:25.107821  5606 net.cpp:141] Setting up data
I0721 12:31:25.107885  5606 net.cpp:148] Top shape: 10 3 227 227 (1545870)
I0721 12:31:25.107892  5606 net.cpp:156] Memory required for data: 6183480
I0721 12:31:25.107910  5606 layer_factory.hpp:77] Creating layer conv1
I0721 12:31:25.107938  5606 net.cpp:91] Creating Layer conv1
I0721 12:31:25.107945  5606 net.cpp:425] conv1 <- data
I0721 12:31:25.107957  5606 net.cpp:399] conv1 -> conv1
I0721 12:31:25.115141  5598 net.cpp:141] Setting up input
I0721 12:31:25.115167  5598 net.cpp:148] Top shape: 1 4096 (4096)
I0721 12:31:25.115175  5598 net.cpp:148] Top shape: 1 1 (1)
I0721 12:31:25.115180  5598 net.cpp:148] Top shape: 1 1 (1)
I0721 12:31:25.115186  5598 net.cpp:148] Top shape: 1 1 (1)
I0721 12:31:25.115190  5598 net.cpp:156] Memory required for data: 16396
I0721 12:31:25.115196  5598 layer_factory.hpp:77] Creating layer cont_sentence_input_1_split
I0721 12:31:25.119361  5612 net.cpp:141] Setting up data
I0721 12:31:25.119384  5612 net.cpp:148] Top shape: 10 3 227 227 (1545870)
I0721 12:31:25.119390  5612 net.cpp:156] Memory required for data: 6183480
I0721 12:31:25.119396  5612 layer_factory.hpp:77] Creating layer conv1
I0721 12:31:25.119412  5612 net.cpp:91] Creating Layer conv1
I0721 12:31:25.119418  5612 net.cpp:425] conv1 <- data
I0721 12:31:25.119427  5612 net.cpp:399] conv1 -> conv1
I0721 12:31:25.119487  5594 net.cpp:141] Setting up input
I0721 12:31:25.119504  5594 net.cpp:148] Top shape: 1 4096 (4096)
I0721 12:31:25.119511  5594 net.cpp:148] Top shape: 1 1 (1)
I0721 12:31:25.119516  5594 net.cpp:148] Top shape: 1 1 (1)
I0721 12:31:25.119523  5594 net.cpp:148] Top shape: 1 1 (1)
I0721 12:31:25.119525  5594 net.cpp:156] Memory required for data: 16396
I0721 12:31:25.119536  5594 layer_factory.hpp:77] Creating layer cont_sentence_input_1_split
I0721 12:31:25.127514  5598 net.cpp:91] Creating Layer cont_sentence_input_1_split
I0721 12:31:25.127518  5594 net.cpp:91] Creating Layer cont_sentence_input_1_split
I0721 12:31:25.127534  5598 net.cpp:425] cont_sentence_input_1_split <- cont_sentence
I0721 12:31:25.127545  5594 net.cpp:425] cont_sentence_input_1_split <- cont_sentence
I0721 12:31:25.127565  5594 net.cpp:399] cont_sentence_input_1_split -> cont_sentence_input_1_split_0
I0721 12:31:25.127565  5598 net.cpp:399] cont_sentence_input_1_split -> cont_sentence_input_1_split_0
I0721 12:31:25.127580  5594 net.cpp:399] cont_sentence_input_1_split -> cont_sentence_input_1_split_1
I0721 12:31:25.127588  5598 net.cpp:399] cont_sentence_input_1_split -> cont_sentence_input_1_split_1
I0721 12:31:25.127699  5594 net.cpp:141] Setting up cont_sentence_input_1_split
I0721 12:31:25.127712  5594 net.cpp:148] Top shape: 1 1 (1)
I0721 12:31:25.127718  5594 net.cpp:148] Top shape: 1 1 (1)
I0721 12:31:25.127722  5594 net.cpp:156] Memory required for data: 16404
I0721 12:31:25.127728  5594 layer_factory.hpp:77] Creating layer embed_encoder
I0721 12:31:25.127727  5598 net.cpp:141] Setting up cont_sentence_input_1_split
I0721 12:31:25.127746  5598 net.cpp:148] Top shape: 1 1 (1)
I0721 12:31:25.127753  5598 net.cpp:148] Top shape: 1 1 (1)
I0721 12:31:25.127758  5598 net.cpp:156] Memory required for data: 16404
I0721 12:31:25.127763  5598 layer_factory.hpp:77] Creating layer embed_encoder
I0721 12:31:25.129441  5598 net.cpp:91] Creating Layer embed_encoder
I0721 12:31:25.129446  5594 net.cpp:91] Creating Layer embed_encoder
I0721 12:31:25.129456  5598 net.cpp:425] embed_encoder <- frames_fc7
I0721 12:31:25.129462  5594 net.cpp:425] embed_encoder <- frames_fc7
I0721 12:31:25.129468  5598 net.cpp:399] embed_encoder -> embedded_in_frames
I0721 12:31:25.129472  5594 net.cpp:399] embed_encoder -> embedded_in_frames
I0721 12:31:25.164554  5594 net.cpp:141] Setting up embed_encoder
I0721 12:31:25.164597  5594 net.cpp:148] Top shape: 1 500 (500)
I0721 12:31:25.164603  5594 net.cpp:156] Memory required for data: 18404
I0721 12:31:25.164618  5598 net.cpp:141] Setting up embed_encoder
I0721 12:31:25.164628  5594 layer_factory.hpp:77] Creating layer reshape_frames
I0721 12:31:25.164636  5598 net.cpp:148] Top shape: 1 500 (500)
I0721 12:31:25.164662  5598 net.cpp:156] Memory required for data: 18404
I0721 12:31:25.164677  5598 layer_factory.hpp:77] Creating layer reshape_frames
I0721 12:31:25.165715  5598 net.cpp:91] Creating Layer reshape_frames
I0721 12:31:25.165724  5594 net.cpp:91] Creating Layer reshape_frames
I0721 12:31:25.165729  5598 net.cpp:425] reshape_frames <- embedded_in_frames
I0721 12:31:25.165740  5594 net.cpp:425] reshape_frames <- embedded_in_frames
I0721 12:31:25.165747  5598 net.cpp:399] reshape_frames -> embedded_input_frames
I0721 12:31:25.165752  5594 net.cpp:399] reshape_frames -> embedded_input_frames
I0721 12:31:25.165848  5598 net.cpp:141] Setting up reshape_frames
I0721 12:31:25.165859  5598 net.cpp:148] Top shape: 1 1 500 (500)
I0721 12:31:25.165864  5598 net.cpp:156] Memory required for data: 20404
I0721 12:31:25.165863  5594 net.cpp:141] Setting up reshape_frames
I0721 12:31:25.165874  5598 layer_factory.hpp:77] Creating layer reshape_stage_indicator
I0721 12:31:25.165880  5594 net.cpp:148] Top shape: 1 1 500 (500)
I0721 12:31:25.165885  5594 net.cpp:156] Memory required for data: 20404
I0721 12:31:25.165886  5598 net.cpp:91] Creating Layer reshape_stage_indicator
I0721 12:31:25.165890  5594 layer_factory.hpp:77] Creating layer reshape_stage_indicator
I0721 12:31:25.165894  5598 net.cpp:425] reshape_stage_indicator <- stage_indicator
I0721 12:31:25.165900  5594 net.cpp:91] Creating Layer reshape_stage_indicator
I0721 12:31:25.165902  5598 net.cpp:399] reshape_stage_indicator -> reshaped_stage_indicator
I0721 12:31:25.165906  5594 net.cpp:425] reshape_stage_indicator <- stage_indicator
I0721 12:31:25.165916  5594 net.cpp:399] reshape_stage_indicator -> reshaped_stage_indicator
I0721 12:31:25.165989  5598 net.cpp:141] Setting up reshape_stage_indicator
I0721 12:31:25.166002  5598 net.cpp:148] Top shape: 1 1 1 (1)
I0721 12:31:25.166007  5598 net.cpp:156] Memory required for data: 20408
I0721 12:31:25.166007  5594 net.cpp:141] Setting up reshape_stage_indicator
I0721 12:31:25.166012  5598 layer_factory.hpp:77] Creating layer embedding
I0721 12:31:25.166023  5594 net.cpp:148] Top shape: 1 1 1 (1)
I0721 12:31:25.166028  5594 net.cpp:156] Memory required for data: 20408
I0721 12:31:25.166029  5598 net.cpp:91] Creating Layer embedding
I0721 12:31:25.166033  5594 layer_factory.hpp:77] Creating layer embedding
I0721 12:31:25.166035  5598 net.cpp:425] embedding <- input_sentence
I0721 12:31:25.166044  5594 net.cpp:91] Creating Layer embedding
I0721 12:31:25.166046  5598 net.cpp:399] embedding -> embedded_input_sentence
I0721 12:31:25.166050  5594 net.cpp:425] embedding <- input_sentence
I0721 12:31:25.166059  5594 net.cpp:399] embedding -> embedded_input_sentence
I0721 12:31:25.398748  5598 net.cpp:141] Setting up embedding
I0721 12:31:25.398797  5598 net.cpp:148] Top shape: 1 1 500 (500)
I0721 12:31:25.398808  5598 net.cpp:156] Memory required for data: 22408
I0721 12:31:25.398831  5598 layer_factory.hpp:77] Creating layer lstm1
I0721 12:31:25.398859  5598 net.cpp:91] Creating Layer lstm1
I0721 12:31:25.398870  5598 net.cpp:425] lstm1 <- embedded_input_frames
I0721 12:31:25.398882  5598 net.cpp:425] lstm1 <- cont_sentence_input_1_split_0
I0721 12:31:25.398895  5598 net.cpp:399] lstm1 -> lstm1
I0721 12:31:25.399766  5598 recurrent_layer.cpp:20] Initializing recurrent layer: assuming input batch contains 1 timesteps of 1 independent streams.
I0721 12:31:25.400322  5598 net.cpp:49] Initializing net from parameters: 
layer {
  name: "lstm1_"
  type: "Input"
  top: "x"
  top: "cont"
  input_param {
    shape {
      dim: 1
      dim: 1
      dim: 500
    }
    shape {
      dim: 1
      dim: 1
    }
  }
}
layer {
  name: "lstm1_"
  type: "Input"
  top: "c_0"
  top: "h_0"
  input_param {
    shape {
      dim: 1
      dim: 1
      dim: 1000
    }
    shape {
      dim: 1
      dim: 1
      dim: 1000
    }
  }
}
layer {
  name: "lstm1_cont_slice"
  type: "Slice"
  bottom: "cont"
  top: "cont_1"
  slice_param {
    axis: 0
  }
}
layer {
  name: "lstm1_x_transform"
  type: "InnerProduct"
  bottom: "x"
  top: "W_xc_x"
  param {
    name: "W_xc"
  }
  param {
    name: "b_c"
  }
  propagate_down: true
  inner_product_param {
    num_output: 4000
    bias_term: true
    weight_filler {
      type: "uniform"
      min: -0.08
      max: 0.08
    }
    bias_filler {
      type: "constant"
      value: 0
    }
    axis: 2
  }
}
layer {
  name: "lstm1_W_xc_x_slice"
  type: "Slice"
  bottom: "W_xc_x"
  top: "W_xc_x_1"
  slice_param {
    axis: 0
  }
}
layer {
  name: "lstm1_h_conted_0"
  type: "Scale"
  bottom: "h_0"
  bottom: "cont_1"
  top: "h_conted_0"
  scale_param {
    axis: 0
  }
}
layer {
  name: "lstm1_transform_1"
  type: "InnerProduct"
  bottom: "h_conted_0"
  top: "W_hc_h_0"
  param {
    name: "W_hc"
  }
  inner_product_param {
    num_output: 4000
    bias_term: false
    weight_filler {
      type: "uniform"
      min: -0.08
      max: 0.08
    }
    axis: 2
  }
}
layer {
  name: "lstm1_gate_input_1"
  type: "Eltwise"
  bottom: "W_hc_h_0"
  bottom: "W_xc_x_1"
  top: "gate_input_1"
  eltwise_param {
    operation: SUM
  }
}
layer {
  name: "lstm1_unit_1"
  type: "LSTMUnit"
  bottom: "c_0"
  bottom: "gate_input_1"
  bottom: "cont_1"
  top: "c_1"
  top: "h_1"
}
layer {
  name: "lstm1_"
  type: "Split"
  bottom: "c_1"
  top: "c_T"
}
layer {
  name: "lstm1_h_concat"
  type: "Concat"
  bottom: "h_1"
  top: "h"
  concat_param {
    axis: 0
  }
}
layer {
  name: "h_pseudoloss"
  type: "Reduction"
  bottom: "h"
  top: "h_pseudoloss"
  loss_weight: 1
}
I0721 12:31:25.400465  5598 layer_factory.hpp:77] Creating layer lstm1_
I0721 12:31:25.400485  5598 net.cpp:91] Creating Layer lstm1_
I0721 12:31:25.400495  5598 net.cpp:399] lstm1_ -> x
I0721 12:31:25.400511  5598 net.cpp:399] lstm1_ -> cont
I0721 12:31:25.411281  5598 net.cpp:141] Setting up lstm1_
I0721 12:31:25.411326  5598 net.cpp:148] Top shape: 1 1 500 (500)
I0721 12:31:25.411342  5598 net.cpp:148] Top shape: 1 1 (1)
I0721 12:31:25.411352  5598 net.cpp:156] Memory required for data: 2004
I0721 12:31:25.411366  5598 layer_factory.hpp:77] Creating layer lstm1_
I0721 12:31:25.411396  5598 net.cpp:91] Creating Layer lstm1_
I0721 12:31:25.411417  5598 net.cpp:399] lstm1_ -> c_0
I0721 12:31:25.411444  5598 net.cpp:399] lstm1_ -> h_0
I0721 12:31:25.447084  5598 net.cpp:141] Setting up lstm1_
I0721 12:31:25.447127  5598 net.cpp:148] Top shape: 1 1 1000 (1000)
I0721 12:31:25.447139  5598 net.cpp:148] Top shape: 1 1 1000 (1000)
I0721 12:31:25.447146  5598 net.cpp:156] Memory required for data: 10004
I0721 12:31:25.447156  5598 layer_factory.hpp:77] Creating layer lstm1_cont_slice
I0721 12:31:25.447180  5598 net.cpp:91] Creating Layer lstm1_cont_slice
I0721 12:31:25.447190  5598 net.cpp:425] lstm1_cont_slice <- cont
I0721 12:31:25.447208  5598 net.cpp:399] lstm1_cont_slice -> cont_1
I0721 12:31:25.462749  5594 net.cpp:141] Setting up embedding
I0721 12:31:25.462770  5594 net.cpp:148] Top shape: 1 1 500 (500)
I0721 12:31:25.462776  5594 net.cpp:156] Memory required for data: 22408
I0721 12:31:25.462790  5594 layer_factory.hpp:77] Creating layer lstm1
I0721 12:31:25.462803  5594 net.cpp:91] Creating Layer lstm1
I0721 12:31:25.462810  5594 net.cpp:425] lstm1 <- embedded_input_frames
I0721 12:31:25.462816  5594 net.cpp:425] lstm1 <- cont_sentence_input_1_split_0
I0721 12:31:25.462831  5594 net.cpp:399] lstm1 -> lstm1
I0721 12:31:25.462843  5594 recurrent_layer.cpp:20] Initializing recurrent layer: assuming input batch contains 1 timesteps of 1 independent streams.
I0721 12:31:25.463121  5594 net.cpp:49] Initializing net from parameters: 
layer {
  name: "lstm1_"
  type: "Input"
  top: "x"
  top: "cont"
  input_param {
    shape {
      dim: 1
      dim: 1
      dim: 500
    }
    shape {
      dim: 1
      dim: 1
    }
  }
}
layer {
  name: "lstm1_"
  type: "Input"
  top: "c_0"
  top: "h_0"
  input_param {
    shape {
      dim: 1
      dim: 1
      dim: 1000
    }
    shape {
      dim: 1
      dim: 1
      dim: 1000
    }
  }
}
layer {
  name: "lstm1_cont_slice"
  type: "Slice"
  bottom: "cont"
  top: "cont_1"
  slice_param {
    axis: 0
  }
}
layer {
  name: "lstm1_x_transform"
  type: "InnerProduct"
  bottom: "x"
  top: "W_xc_x"
  param {
    name: "W_xc"
  }
  param {
    name: "b_c"
  }
  propagate_down: true
  inner_product_param {
    num_output: 4000
    bias_term: true
    weight_filler {
      type: "uniform"
      min: -0.08
      max: 0.08
    }
    bias_filler {
      type: "constant"
      value: 0
    }
    axis: 2
  }
}
layer {
  name: "lstm1_W_xc_x_slice"
  type: "Slice"
  bottom: "W_xc_x"
  top: "W_xc_x_1"
  slice_param {
    axis: 0
  }
}
layer {
  name: "lstm1_h_conted_0"
  type: "Scale"
  bottom: "h_0"
  bottom: "cont_1"
  top: "h_conted_0"
  scale_param {
    axis: 0
  }
}
layer {
  name: "lstm1_transform_1"
  type: "InnerProduct"
  bottom: "h_conted_0"
  top: "W_hc_h_0"
  param {
    name: "W_hc"
  }
  inner_product_param {
    num_output: 4000
    bias_term: false
    weight_filler {
      type: "uniform"
      min: -0.08
      max: 0.08
    }
    axis: 2
  }
}
layer {
  name: "lstm1_gate_input_1"
  type: "Eltwise"
  bottom: "W_hc_h_0"
  bottom: "W_xc_x_1"
  top: "gate_input_1"
  eltwise_param {
    operation: SUM
  }
}
layer {
  name: "lstm1_unit_1"
  type: "LSTMUnit"
  bottom: "c_0"
  bottom: "gate_input_1"
  bottom: "cont_1"
  top: "c_1"
  top: "h_1"
}
layer {
  name: "lstm1_"
  type: "Split"
  bottom: "c_1"
  top: "c_T"
}
layer {
  name: "lstm1_h_concat"
  type: "Concat"
  bottom: "h_1"
  top: "h"
  concat_param {
    axis: 0
  }
}
layer {
  name: "h_pseudoloss"
  type: "Reduction"
  bottom: "h"
  top: "h_pseudoloss"
  loss_weight: 1
}
I0721 12:31:25.463212  5594 layer_factory.hpp:77] Creating layer lstm1_
I0721 12:31:25.463224  5594 net.cpp:91] Creating Layer lstm1_
I0721 12:31:25.463232  5594 net.cpp:399] lstm1_ -> x
I0721 12:31:25.463243  5594 net.cpp:399] lstm1_ -> cont
I0721 12:31:25.466022  5598 net.cpp:141] Setting up lstm1_cont_slice
I0721 12:31:25.466049  5598 net.cpp:148] Top shape: 1 1 (1)
I0721 12:31:25.466061  5598 net.cpp:156] Memory required for data: 10008
I0721 12:31:25.466073  5598 layer_factory.hpp:77] Creating layer cont_1_lstm1_cont_slice_0_split
I0721 12:31:25.466089  5598 net.cpp:91] Creating Layer cont_1_lstm1_cont_slice_0_split
I0721 12:31:25.466100  5598 net.cpp:425] cont_1_lstm1_cont_slice_0_split <- cont_1
I0721 12:31:25.466120  5598 net.cpp:399] cont_1_lstm1_cont_slice_0_split -> cont_1_lstm1_cont_slice_0_split_0
I0721 12:31:25.466140  5598 net.cpp:399] cont_1_lstm1_cont_slice_0_split -> cont_1_lstm1_cont_slice_0_split_1
I0721 12:31:25.471506  5594 net.cpp:141] Setting up lstm1_
I0721 12:31:25.471529  5594 net.cpp:148] Top shape: 1 1 500 (500)
I0721 12:31:25.471536  5594 net.cpp:148] Top shape: 1 1 (1)
I0721 12:31:25.471540  5594 net.cpp:156] Memory required for data: 2004
I0721 12:31:25.471546  5594 layer_factory.hpp:77] Creating layer lstm1_
I0721 12:31:25.471565  5594 net.cpp:91] Creating Layer lstm1_
I0721 12:31:25.471565  5598 net.cpp:141] Setting up cont_1_lstm1_cont_slice_0_split
I0721 12:31:25.471575  5594 net.cpp:399] lstm1_ -> c_0
I0721 12:31:25.471593  5598 net.cpp:148] Top shape: 1 1 (1)
I0721 12:31:25.471596  5594 net.cpp:399] lstm1_ -> h_0
I0721 12:31:25.471613  5598 net.cpp:148] Top shape: 1 1 (1)
I0721 12:31:25.471624  5598 net.cpp:156] Memory required for data: 10016
I0721 12:31:25.471634  5598 layer_factory.hpp:77] Creating layer lstm1_x_transform
I0721 12:31:25.471660  5598 net.cpp:91] Creating Layer lstm1_x_transform
I0721 12:31:25.471673  5598 net.cpp:425] lstm1_x_transform <- x
I0721 12:31:25.471691  5598 net.cpp:399] lstm1_x_transform -> W_xc_x
I0721 12:31:25.471694  5594 net.cpp:141] Setting up lstm1_
I0721 12:31:25.471705  5594 net.cpp:148] Top shape: 1 1 1000 (1000)
I0721 12:31:25.471711  5594 net.cpp:148] Top shape: 1 1 1000 (1000)
I0721 12:31:25.471715  5594 net.cpp:156] Memory required for data: 10004
I0721 12:31:25.471720  5594 layer_factory.hpp:77] Creating layer lstm1_cont_slice
I0721 12:31:25.471732  5594 net.cpp:91] Creating Layer lstm1_cont_slice
I0721 12:31:25.471737  5594 net.cpp:425] lstm1_cont_slice <- cont
I0721 12:31:25.471745  5594 net.cpp:399] lstm1_cont_slice -> cont_1
I0721 12:31:25.478854  5594 net.cpp:141] Setting up lstm1_cont_slice
I0721 12:31:25.478883  5594 net.cpp:148] Top shape: 1 1 (1)
I0721 12:31:25.478888  5594 net.cpp:156] Memory required for data: 10008
I0721 12:31:25.478894  5594 layer_factory.hpp:77] Creating layer cont_1_lstm1_cont_slice_0_split
I0721 12:31:25.478904  5594 net.cpp:91] Creating Layer cont_1_lstm1_cont_slice_0_split
I0721 12:31:25.478910  5594 net.cpp:425] cont_1_lstm1_cont_slice_0_split <- cont_1
I0721 12:31:25.478919  5594 net.cpp:399] cont_1_lstm1_cont_slice_0_split -> cont_1_lstm1_cont_slice_0_split_0
I0721 12:31:25.478929  5594 net.cpp:399] cont_1_lstm1_cont_slice_0_split -> cont_1_lstm1_cont_slice_0_split_1
I0721 12:31:25.479943  5594 net.cpp:141] Setting up cont_1_lstm1_cont_slice_0_split
I0721 12:31:25.479962  5594 net.cpp:148] Top shape: 1 1 (1)
I0721 12:31:25.479969  5594 net.cpp:148] Top shape: 1 1 (1)
I0721 12:31:25.479974  5594 net.cpp:156] Memory required for data: 10016
I0721 12:31:25.479979  5594 layer_factory.hpp:77] Creating layer lstm1_x_transform
I0721 12:31:25.479993  5594 net.cpp:91] Creating Layer lstm1_x_transform
I0721 12:31:25.480000  5594 net.cpp:425] lstm1_x_transform <- x
I0721 12:31:25.480011  5594 net.cpp:399] lstm1_x_transform -> W_xc_x
I0721 12:31:25.602319  5594 net.cpp:141] Setting up lstm1_x_transform
I0721 12:31:25.602365  5594 net.cpp:148] Top shape: 1 1 4000 (4000)
I0721 12:31:25.602373  5594 net.cpp:156] Memory required for data: 26016
I0721 12:31:25.602401  5594 layer_factory.hpp:77] Creating layer lstm1_W_xc_x_slice
I0721 12:31:25.602421  5594 net.cpp:91] Creating Layer lstm1_W_xc_x_slice
I0721 12:31:25.602432  5594 net.cpp:425] lstm1_W_xc_x_slice <- W_xc_x
I0721 12:31:25.602453  5594 net.cpp:399] lstm1_W_xc_x_slice -> W_xc_x_1
I0721 12:31:25.610932  5598 net.cpp:141] Setting up lstm1_x_transform
I0721 12:31:25.610982  5598 net.cpp:148] Top shape: 1 1 4000 (4000)
I0721 12:31:25.610994  5598 net.cpp:156] Memory required for data: 26016
I0721 12:31:25.611026  5598 layer_factory.hpp:77] Creating layer lstm1_W_xc_x_slice
I0721 12:31:25.611053  5598 net.cpp:91] Creating Layer lstm1_W_xc_x_slice
I0721 12:31:25.611066  5598 net.cpp:425] lstm1_W_xc_x_slice <- W_xc_x
I0721 12:31:25.611083  5598 net.cpp:399] lstm1_W_xc_x_slice -> W_xc_x_1
I0721 12:31:25.614902  5594 net.cpp:141] Setting up lstm1_W_xc_x_slice
I0721 12:31:25.614933  5594 net.cpp:148] Top shape: 1 1 4000 (4000)
I0721 12:31:25.614943  5594 net.cpp:156] Memory required for data: 42016
I0721 12:31:25.614944  5598 net.cpp:141] Setting up lstm1_W_xc_x_slice
I0721 12:31:25.614953  5594 layer_factory.hpp:77] Creating layer lstm1_h_conted_0
I0721 12:31:25.614966  5598 net.cpp:148] Top shape: 1 1 4000 (4000)
I0721 12:31:25.614977  5598 net.cpp:156] Memory required for data: 42016
I0721 12:31:25.614987  5598 layer_factory.hpp:77] Creating layer lstm1_h_conted_0
I0721 12:31:25.614992  5594 net.cpp:91] Creating Layer lstm1_h_conted_0
I0721 12:31:25.615003  5598 net.cpp:91] Creating Layer lstm1_h_conted_0
I0721 12:31:25.615006  5594 net.cpp:425] lstm1_h_conted_0 <- h_0
I0721 12:31:25.615015  5598 net.cpp:425] lstm1_h_conted_0 <- h_0
I0721 12:31:25.615018  5594 net.cpp:425] lstm1_h_conted_0 <- cont_1_lstm1_cont_slice_0_split_0
I0721 12:31:25.615027  5598 net.cpp:425] lstm1_h_conted_0 <- cont_1_lstm1_cont_slice_0_split_0
I0721 12:31:25.615033  5594 net.cpp:399] lstm1_h_conted_0 -> h_conted_0
I0721 12:31:25.615046  5598 net.cpp:399] lstm1_h_conted_0 -> h_conted_0
I0721 12:31:25.647151  5594 net.cpp:141] Setting up lstm1_h_conted_0
I0721 12:31:25.647192  5594 net.cpp:148] Top shape: 1 1 1000 (1000)
I0721 12:31:25.647198  5594 net.cpp:156] Memory required for data: 46016
I0721 12:31:25.647207  5594 layer_factory.hpp:77] Creating layer lstm1_transform_1
I0721 12:31:25.647228  5594 net.cpp:91] Creating Layer lstm1_transform_1
I0721 12:31:25.647235  5594 net.cpp:425] lstm1_transform_1 <- h_conted_0
I0721 12:31:25.647248  5594 net.cpp:399] lstm1_transform_1 -> W_hc_h_0
I0721 12:31:25.655319  5598 net.cpp:141] Setting up lstm1_h_conted_0
I0721 12:31:25.655352  5598 net.cpp:148] Top shape: 1 1 1000 (1000)
I0721 12:31:25.655360  5598 net.cpp:156] Memory required for data: 46016
I0721 12:31:25.655369  5598 layer_factory.hpp:77] Creating layer lstm1_transform_1
I0721 12:31:25.655387  5598 net.cpp:91] Creating Layer lstm1_transform_1
I0721 12:31:25.655397  5598 net.cpp:425] lstm1_transform_1 <- h_conted_0
I0721 12:31:25.655416  5598 net.cpp:399] lstm1_transform_1 -> W_hc_h_0
I0721 12:31:25.739735  5598 net.cpp:141] Setting up lstm1_transform_1
I0721 12:31:25.739778  5598 net.cpp:148] Top shape: 1 1 4000 (4000)
I0721 12:31:25.739784  5598 net.cpp:156] Memory required for data: 62016
I0721 12:31:25.739801  5598 layer_factory.hpp:77] Creating layer lstm1_gate_input_1
I0721 12:31:25.739821  5598 net.cpp:91] Creating Layer lstm1_gate_input_1
I0721 12:31:25.739828  5598 net.cpp:425] lstm1_gate_input_1 <- W_hc_h_0
I0721 12:31:25.739837  5598 net.cpp:425] lstm1_gate_input_1 <- W_xc_x_1
I0721 12:31:25.739845  5598 net.cpp:399] lstm1_gate_input_1 -> gate_input_1
I0721 12:31:25.747921  5594 net.cpp:141] Setting up lstm1_transform_1
I0721 12:31:25.747951  5594 net.cpp:148] Top shape: 1 1 4000 (4000)
I0721 12:31:25.747961  5594 net.cpp:156] Memory required for data: 62016
I0721 12:31:25.747980  5594 layer_factory.hpp:77] Creating layer lstm1_gate_input_1
I0721 12:31:25.748000  5594 net.cpp:91] Creating Layer lstm1_gate_input_1
I0721 12:31:25.748011  5594 net.cpp:425] lstm1_gate_input_1 <- W_hc_h_0
I0721 12:31:25.748023  5594 net.cpp:425] lstm1_gate_input_1 <- W_xc_x_1
I0721 12:31:25.748045  5594 net.cpp:399] lstm1_gate_input_1 -> gate_input_1
I0721 12:31:25.748369  5598 net.cpp:141] Setting up lstm1_gate_input_1
I0721 12:31:25.748388  5598 net.cpp:148] Top shape: 1 1 4000 (4000)
I0721 12:31:25.748392  5598 net.cpp:156] Memory required for data: 78016
I0721 12:31:25.748399  5598 layer_factory.hpp:77] Creating layer lstm1_unit_1
I0721 12:31:25.748415  5598 net.cpp:91] Creating Layer lstm1_unit_1
I0721 12:31:25.748421  5598 net.cpp:425] lstm1_unit_1 <- c_0
I0721 12:31:25.748427  5598 net.cpp:425] lstm1_unit_1 <- gate_input_1
I0721 12:31:25.748433  5598 net.cpp:425] lstm1_unit_1 <- cont_1_lstm1_cont_slice_0_split_1
I0721 12:31:25.748443  5598 net.cpp:399] lstm1_unit_1 -> c_1
I0721 12:31:25.748453  5598 net.cpp:399] lstm1_unit_1 -> h_1
I0721 12:31:25.757160  5594 net.cpp:141] Setting up lstm1_gate_input_1
I0721 12:31:25.757187  5594 net.cpp:148] Top shape: 1 1 4000 (4000)
I0721 12:31:25.757197  5594 net.cpp:156] Memory required for data: 78016
I0721 12:31:25.757207  5594 layer_factory.hpp:77] Creating layer lstm1_unit_1
I0721 12:31:25.757233  5594 net.cpp:91] Creating Layer lstm1_unit_1
I0721 12:31:25.757246  5594 net.cpp:425] lstm1_unit_1 <- c_0
I0721 12:31:25.757258  5594 net.cpp:425] lstm1_unit_1 <- gate_input_1
I0721 12:31:25.757271  5594 net.cpp:425] lstm1_unit_1 <- cont_1_lstm1_cont_slice_0_split_1
I0721 12:31:25.757283  5594 net.cpp:399] lstm1_unit_1 -> c_1
I0721 12:31:25.757321  5594 net.cpp:399] lstm1_unit_1 -> h_1
I0721 12:31:25.784934  5598 net.cpp:141] Setting up lstm1_unit_1
I0721 12:31:25.784979  5598 net.cpp:148] Top shape: 1 1 1000 (1000)
I0721 12:31:25.784986  5598 net.cpp:148] Top shape: 1 1 1000 (1000)
I0721 12:31:25.784991  5598 net.cpp:156] Memory required for data: 86016
I0721 12:31:25.784999  5598 layer_factory.hpp:77] Creating layer lstm1_
I0721 12:31:25.785015  5598 net.cpp:91] Creating Layer lstm1_
I0721 12:31:25.785022  5598 net.cpp:425] lstm1_ <- c_1
I0721 12:31:25.785033  5598 net.cpp:399] lstm1_ -> c_T
I0721 12:31:25.791898  5594 net.cpp:141] Setting up lstm1_unit_1
I0721 12:31:25.791934  5594 net.cpp:148] Top shape: 1 1 1000 (1000)
I0721 12:31:25.791946  5594 net.cpp:148] Top shape: 1 1 1000 (1000)
I0721 12:31:25.791954  5594 net.cpp:156] Memory required for data: 86016
I0721 12:31:25.791966  5594 layer_factory.hpp:77] Creating layer lstm1_
I0721 12:31:25.791983  5594 net.cpp:91] Creating Layer lstm1_
I0721 12:31:25.791995  5594 net.cpp:425] lstm1_ <- c_1
I0721 12:31:25.792008  5594 net.cpp:399] lstm1_ -> c_T
I0721 12:31:25.814257  5598 net.cpp:141] Setting up lstm1_
I0721 12:31:25.814306  5598 net.cpp:148] Top shape: 1 1 1000 (1000)
I0721 12:31:25.814316  5598 net.cpp:156] Memory required for data: 90016
I0721 12:31:25.814327  5598 layer_factory.hpp:77] Creating layer lstm1_h_concat
I0721 12:31:25.814360  5598 net.cpp:91] Creating Layer lstm1_h_concat
I0721 12:31:25.814373  5598 net.cpp:425] lstm1_h_concat <- h_1
I0721 12:31:25.814389  5598 net.cpp:399] lstm1_h_concat -> h
I0721 12:31:25.825420  5594 net.cpp:141] Setting up lstm1_
I0721 12:31:25.825464  5594 net.cpp:148] Top shape: 1 1 1000 (1000)
I0721 12:31:25.825470  5594 net.cpp:156] Memory required for data: 90016
I0721 12:31:25.825479  5594 layer_factory.hpp:77] Creating layer lstm1_h_concat
I0721 12:31:25.825495  5594 net.cpp:91] Creating Layer lstm1_h_concat
I0721 12:31:25.825501  5594 net.cpp:425] lstm1_h_concat <- h_1
I0721 12:31:25.825516  5594 net.cpp:399] lstm1_h_concat -> h
I0721 12:31:25.826319  5598 net.cpp:141] Setting up lstm1_h_concat
I0721 12:31:25.826342  5598 net.cpp:148] Top shape: 1 1 1000 (1000)
I0721 12:31:25.826354  5598 net.cpp:156] Memory required for data: 94016
I0721 12:31:25.826364  5598 layer_factory.hpp:77] Creating layer h_pseudoloss
I0721 12:31:25.827491  5598 net.cpp:91] Creating Layer h_pseudoloss
I0721 12:31:25.827508  5598 net.cpp:425] h_pseudoloss <- h
I0721 12:31:25.827523  5598 net.cpp:399] h_pseudoloss -> h_pseudoloss
I0721 12:31:25.849949  5594 net.cpp:141] Setting up lstm1_h_concat
I0721 12:31:25.849987  5594 net.cpp:148] Top shape: 1 1 1000 (1000)
I0721 12:31:25.849992  5594 net.cpp:156] Memory required for data: 94016
I0721 12:31:25.849999  5594 layer_factory.hpp:77] Creating layer h_pseudoloss
I0721 12:31:25.850013  5594 net.cpp:91] Creating Layer h_pseudoloss
I0721 12:31:25.850019  5594 net.cpp:425] h_pseudoloss <- h
I0721 12:31:25.850034  5594 net.cpp:399] h_pseudoloss -> h_pseudoloss
I0721 12:31:25.897310  5598 net.cpp:141] Setting up h_pseudoloss
…
I0721 12:31:25.903532  5594 net.cpp:219] lstm1_ does not need backward computation.
I0721 12:31:25.903535  5594 net.cpp:261] This network produces output c_T
I0721 12:31:25.903540  5594 net.cpp:261] This network produces output h_pseudoloss
I0721 12:31:25.903566  5594 net.cpp:274] Network initialization done.
I0721 12:31:25.903609  5594 recurrent_layer.cpp:150] Adding parameter 0: W_xc
I0721 12:31:25.903616  5594 recurrent_layer.cpp:150] Adding parameter 1: b_c
I0721 12:31:25.903620  5594 recurrent_layer.cpp:150] Adding parameter 2: W_hc
I0721 12:31:25.941781  5598 net.cpp:141] Setting up lstm1
I0721 12:31:25.941828  5598 net.cpp:148] Top shape: 1 1 1000 (1000)
I0721 12:31:25.941838  5598 net.cpp:156] Memory required for data: 26408
I0721 12:31:25.941865  5598 layer_factory.hpp:77] Creating layer concat
I0721 12:31:25.941885  5598 net.cpp:91] Creating Layer concat
I0721 12:31:25.941896  5598 net.cpp:425] concat <- lstm1
I0721 12:31:25.941908  5598 net.cpp:425] concat <- embedded_input_sentence
I0721 12:31:25.941917  5598 net.cpp:425] concat <- reshaped_stage_indicator
I0721 12:31:25.941928  5598 net.cpp:399] concat -> lstm1_video_sequence
I0721 12:31:25.956284  5594 net.cpp:141] Setting up lstm1
I0721 12:31:25.956321  5594 net.cpp:148] Top shape: 1 1 1000 (1000)
I0721 12:31:25.956327  5594 net.cpp:156] Memory required for data: 26408
I0721 12:31:25.956346  5594 layer_factory.hpp:77] Creating layer concat
I0721 12:31:25.956359  5594 net.cpp:91] Creating Layer concat
I0721 12:31:25.956365  5594 net.cpp:425] concat <- lstm1
I0721 12:31:25.956374  5594 net.cpp:425] concat <- embedded_input_sentence
I0721 12:31:25.956379  5594 net.cpp:425] concat <- reshaped_stage_indicator
I0721 12:31:25.956387  5594 net.cpp:399] concat -> lstm1_video_sequence
I0721 12:31:25.956426  5598 net.cpp:141] Setting up concat
I0721 12:31:25.956450  5598 net.cpp:148] Top shape: 1 1 1501 (1501)
I0721 12:31:25.956459  5598 net.cpp:156] Memory required for data: 32412
I0721 12:31:25.956468  5598 layer_factory.hpp:77] Creating layer lstm2
I0721 12:31:25.956490  5598 net.cpp:91] Creating Layer lstm2
I0721 12:31:25.956499  5598 net.cpp:425] lstm2 <- lstm1_video_sequence
I0721 12:31:25.956511  5598 net.cpp:425] lstm2 <- cont_sentence_input_1_split_1
I0721 12:31:25.956526  5598 net.cpp:399] lstm2 -> lstm2
I0721 12:31:25.956547  5598 recurrent_layer.cpp:20] Initializing recurrent layer: assuming input batch contains 1 timesteps of 1 independent streams.
I0721 12:31:25.956992  5598 net.cpp:49] Initializing net from parameters: 
layer {
  name: "lstm2_"
  type: "Input"
  top: "x"
  top: "cont"
  input_param {
    shape {
      dim: 1
      dim: 1
      dim: 1501
    }
    shape {
      dim: 1
      dim: 1
    }
  }
}
layer {
  name: "lstm2_"
  type: "Input"
  top: "c_0"
  top: "h_0"
  input_param {
    shape {
      dim: 1
      dim: 1
      dim: 1000
    }
    shape {
      dim: 1
      dim: 1
      dim: 1000
    }
  }
}
layer {
  name: "lstm2_cont_slice"
  type: "Slice"
  bottom: "cont"
  top: "cont_1"
  slice_param {
    axis: 0
  }
}
layer {
  name: "lstm2_x_transform"
  type: "InnerProduct"
  bottom: "x"
  top: "W_xc_x"
  param {
    name: "W_xc"
  }
  param {
    name: "b_c"
  }
  propagate_down: true
  inner_product_param {
    num_output: 4000
    bias_term: true
    weight_filler {
      type: "uniform"
      min: -0.08
      max: 0.08
    }
    bias_filler {
      type: "constant"
      value: 0
    }
    axis: 2
  }
}
layer {
  name: "lstm2_W_xc_x_slice"
  type: "Slice"
  bottom: "W_xc_x"
  top: "W_xc_x_1"
  slice_param {
    axis: 0
  }
}
layer {
  name: "lstm2_h_conted_0"
  type: "Scale"
  bottom: "h_0"
  bottom: "cont_1"
  top: "h_conted_0"
  scale_param {
    axis: 0
  }
}
layer {
  name: "lstm2_transform_1"
  type: "InnerProduct"
  bottom: "h_conted_0"
  top: "W_hc_h_0"
  param {
    name: "W_hc"
  }
  inner_product_param {
    num_output: 4000
    bias_term: false
    weight_filler {
      type: "uniform"
      min: -0.08
      max: 0.08
    }
    axis: 2
  }
}
layer {
  name: "lstm2_gate_input_1"
  type: "Eltwise"
  bottom: "W_hc_h_0"
  bottom: "W_xc_x_1"
  top: "gate_input_1"
  eltwise_param {
    operation: SUM
  }
}
layer {
  name: "lstm2_unit_1"
  type: "LSTMUnit"
  bottom: "c_0"
  bottom: "gate_input_1"
  bottom: "cont_1"
  top: "c_1"
  top: "h_1"
}
layer {
  name: "lstm2_"
  type: "Split"
  bottom: "c_1"
  top: "c_T"
}
layer {
  name: "lstm2_h_concat"
  type: "Concat"
  bottom: "h_1"
  top: "h"
  concat_param {
    axis: 0
  }
}
layer {
  name: "h_pseudoloss"
  type: "Reduction"
  bottom: "h"
  top: "h_pseudoloss"
  loss_weight: 1
}
I0721 12:31:25.957139  5598 layer_factory.hpp:77] Creating layer lstm2_
I0721 12:31:25.957160  5598 net.cpp:91] Creating Layer lstm2_
I0721 12:31:25.957173  5598 net.cpp:399] lstm2_ -> x
I0721 12:31:25.957195  5598 net.cpp:399] lstm2_ -> cont
I0721 12:31:25.996044  5594 net.cpp:141] Setting up concat
I0721 12:31:25.996089  5594 net.cpp:148] Top shape: 1 1 1501 (1501)
I0721 12:31:25.996095  5594 net.cpp:156] Memory required for data: 32412
I0721 12:31:25.996104  5594 layer_factory.hpp:77] Creating layer lstm2
I0721 12:31:25.996126  5594 net.cpp:91] Creating Layer lstm2
I0721 12:31:25.996134  5594 net.cpp:425] lstm2 <- lstm1_video_sequence
I0721 12:31:25.996142  5594 net.cpp:425] lstm2 <- cont_sentence_input_1_split_1
I0721 12:31:25.996152  5594 net.cpp:399] lstm2 -> lstm2
I0721 12:31:25.996170  5594 recurrent_layer.cpp:20] Initializing recurrent layer: assuming input batch contains 1 timesteps of 1 independent streams.
I0721 12:31:25.996469  5594 net.cpp:49] Initializing net from parameters: 
layer {
  name: "lstm2_"
  type: "Input"
  top: "x"
  top: "cont"
  input_param {
    shape {
      dim: 1
      dim: 1
      dim: 1501
    }
    shape {
      dim: 1
      dim: 1
    }
  }
}
layer {
  name: "lstm2_"
  type: "Input"
  top: "c_0"
  top: "h_0"
  input_param {
    shape {
      dim: 1
      dim: 1
      dim: 1000
    }
    shape {
      dim: 1
      dim: 1
      dim: 1000
    }
  }
}
layer {
  name: "lstm2_cont_slice"
  type: "Slice"
  bottom: "cont"
  top: "cont_1"
  slice_param {
    axis: 0
  }
}
layer {
  name: "lstm2_x_transform"
  type: "InnerProduct"
  bottom: "x"
  top: "W_xc_x"
  param {
    name: "W_xc"
  }
  param {
    name: "b_c"
  }
  propagate_down: true
  inner_product_param {
    num_output: 4000
    bias_term: true
    weight_filler {
      type: "uniform"
      min: -0.08
      max: 0.08
    }
    bias_filler {
      type: "constant"
      value: 0
    }
    axis: 2
  }
}
layer {
  name: "lstm2_W_xc_x_slice"
  type: "Slice"
  bottom: "W_xc_x"
  top: "W_xc_x_1"
  slice_param {
    axis: 0
  }
}
layer {
  name: "lstm2_h_conted_0"
  type: "Scale"
  bottom: "h_0"
  bottom: "cont_1"
  top: "h_conted_0"
  scale_param {
    axis: 0
  }
}
layer {
  name: "lstm2_transform_1"
  type: "InnerProduct"
  bottom: "h_conted_0"
  top: "W_hc_h_0"
  param {
    name: "W_hc"
  }
  inner_product_param {
    num_output: 4000
    bias_term: false
    weight_filler {
      type: "uniform"
      min: -0.08
      max: 0.08
    }
    axis: 2
  }
}
layer {
  name: "lstm2_gate_input_1"
  type: "Eltwise"
  bottom: "W_hc_h_0"
  bottom: "W_xc_x_1"
  top: "gate_input_1"
  eltwise_param {
    operation: SUM
  }
}
layer {
  name: "lstm2_unit_1"
  type: "LSTMUnit"
  bottom: "c_0"
  bottom: "gate_input_1"
  bottom: "cont_1"
  top: "c_1"
  top: "h_1"
}
layer {
  name: "lstm2_"
  type: "Split"
  bottom: "c_1"
  top: "c_T"
}
layer {
  name: "lstm2_h_concat"
  type: "Concat"
  bottom: "h_1"
  top: "h"
  concat_param {
    axis: 0
  }
}
layer {
  name: "h_pseudoloss"
  type: "Reduction"
  bottom: "h"
  top: "h_pseudoloss"
  loss_weight: 1
}
I0721 12:31:25.996564  5594 layer_factory.hpp:77] Creating layer lstm2_
I0721 12:31:25.996577  5594 net.cpp:91] Creating Layer lstm2_
I0721 12:31:25.996583  5594 net.cpp:399] lstm2_ -> x
I0721 12:31:25.996595  5594 net.cpp:399] lstm2_ -> cont
I0721 12:31:26.023636  5598 net.cpp:141] Setting up lstm2_
I0721 12:31:26.023689  5598 net.cpp:148] Top shape: 1 1 1501 (1501)
I0721 12:31:26.023700  5598 net.cpp:148] Top shape: 1 1 (1)
I0721 12:31:26.023708  5598 net.cpp:156] Memory required for data: 6008
I0721 12:31:26.023720  5598 layer_factory.hpp:77] Creating layer lstm2_
I0721 12:31:26.023746  5598 net.cpp:91] Creating Layer lstm2_
I0721 12:31:26.023764  5598 net.cpp:399] lstm2_ -> c_0
I0721 12:31:26.023788  5598 net.cpp:399] lstm2_ -> h_0
I0721 12:31:26.048912  5594 net.cpp:141] Setting up lstm2_
I0721 12:31:26.048957  5594 net.cpp:148] Top shape: 1 1 1501 (1501)
I0721 12:31:26.048972  5594 net.cpp:148] Top shape: 1 1 (1)
I0721 12:31:26.048980  5594 net.cpp:156] Memory required for data: 6008
I0721 12:31:26.048990  5594 layer_factory.hpp:77] Creating layer lstm2_
I0721 12:31:26.049010  5594 net.cpp:91] Creating Layer lstm2_
I0721 12:31:26.049018  5594 net.cpp:399] lstm2_ -> c_0
I0721 12:31:26.049036  5594 net.cpp:399] lstm2_ -> h_0
I0721 12:31:26.055636  5598 net.cpp:141] Setting up lstm2_
I0721 12:31:26.055675  5598 net.cpp:148] Top shape: 1 1 1000 (1000)
I0721 12:31:26.055686  5598 net.cpp:148] Top shape: 1 1 1000 (1000)
I0721 12:31:26.055693  5598 net.cpp:156] Memory required for data: 14008
I0721 12:31:26.055704  5598 layer_factory.hpp:77] Creating layer lstm2_cont_slice
I0721 12:31:26.055722  5598 net.cpp:91] Creating Layer lstm2_cont_slice
I0721 12:31:26.055732  5598 net.cpp:425] lstm2_cont_slice <- cont
I0721 12:31:26.055747  5598 net.cpp:399] lstm2_cont_slice -> cont_1
I0721 12:31:26.071221  5594 net.cpp:141] Setting up lstm2_
I0721 12:31:26.071257  5594 net.cpp:148] Top shape: 1 1 1000 (1000)
I0721 12:31:26.071270  5594 net.cpp:148] Top shape: 1 1 1000 (1000)
I0721 12:31:26.071280  5594 net.cpp:156] Memory required for data: 14008
I0721 12:31:26.071291  5594 layer_factory.hpp:77] Creating layer lstm2_cont_slice
I0721 12:31:26.071316  5594 net.cpp:91] Creating Layer lstm2_cont_slice
I0721 12:31:26.071327  5594 net.cpp:425] lstm2_cont_slice <- cont
I0721 12:31:26.071342  5594 net.cpp:399] lstm2_cont_slice -> cont_1
I0721 12:31:26.073173  5598 net.cpp:141] Setting up lstm2_cont_slice
I0721 12:31:26.073200  5598 net.cpp:148] Top shape: 1 1 (1)
I0721 12:31:26.073210  5598 net.cpp:156] Memory required for data: 14012
I0721 12:31:26.073217  5598 layer_factory.hpp:77] Creating layer cont_1_lstm2_cont_slice_0_split
I0721 12:31:26.073230  5598 net.cpp:91] Creating Layer cont_1_lstm2_cont_slice_0_split
I0721 12:31:26.073240  5598 net.cpp:425] cont_1_lstm2_cont_slice_0_split <- cont_1
I0721 12:31:26.073257  5598 net.cpp:399] cont_1_lstm2_cont_slice_0_split -> cont_1_lstm2_cont_slice_0_split_0
I0721 12:31:26.073273  5598 net.cpp:399] cont_1_lstm2_cont_slice_0_split -> cont_1_lstm2_cont_slice_0_split_1
I0721 12:31:26.073388  5594 net.cpp:141] Setting up lstm2_cont_slice
I0721 12:31:26.073411  5594 net.cpp:148] Top shape: 1 1 (1)
I0721 12:31:26.073421  5594 net.cpp:156] Memory required for data: 14012
I0721 12:31:26.073431  5594 layer_factory.hpp:77] Creating layer cont_1_lstm2_cont_slice_0_split
I0721 12:31:26.073446  5594 net.cpp:91] Creating Layer cont_1_lstm2_cont_slice_0_split
I0721 12:31:26.073456  5594 net.cpp:425] cont_1_lstm2_cont_slice_0_split <- cont_1
I0721 12:31:26.073468  5594 net.cpp:399] cont_1_lstm2_cont_slice_0_split -> cont_1_lstm2_cont_slice_0_split_0
I0721 12:31:26.073485  5594 net.cpp:399] cont_1_lstm2_cont_slice_0_split -> cont_1_lstm2_cont_slice_0_split_1
I0721 12:31:26.086966  5598 net.cpp:141] Setting up cont_1_lstm2_cont_slice_0_split
I0721 12:31:26.086992  5598 net.cpp:148] Top shape: 1 1 (1)
I0721 12:31:26.087005  5598 net.cpp:148] Top shape: 1 1 (1)
I0721 12:31:26.087013  5598 net.cpp:156] Memory required for data: 14020
I0721 12:31:26.087023  5598 layer_factory.hpp:77] Creating layer lstm2_x_transform
I0721 12:31:26.087049  5598 net.cpp:91] Creating Layer lstm2_x_transform
I0721 12:31:26.087056  5598 net.cpp:425] lstm2_x_transform <- x
I0721 12:31:26.087070  5598 net.cpp:399] lstm2_x_transform -> W_xc_x
I0721 12:31:26.087100  5594 net.cpp:141] Setting up cont_1_lstm2_cont_slice_0_split
I0721 12:31:26.087127  5594 net.cpp:148] Top shape: 1 1 (1)
I0721 12:31:26.087141  5594 net.cpp:148] Top shape: 1 1 (1)
I0721 12:31:26.087151  5594 net.cpp:156] Memory required for data: 14020
I0721 12:31:26.087159  5594 layer_factory.hpp:77] Creating layer lstm2_x_transform
I0721 12:31:26.087178  5594 net.cpp:91] Creating Layer lstm2_x_transform
I0721 12:31:26.087189  5594 net.cpp:425] lstm2_x_transform <- x
I0721 12:31:26.087211  5594 net.cpp:399] lstm2_x_transform -> W_xc_x
I0721 12:31:26.293068  5598 net.cpp:141] Setting up lstm2_x_transform
I0721 12:31:26.293108  5598 net.cpp:148] Top shape: 1 1 4000 (4000)
I0721 12:31:26.293114  5598 net.cpp:156] Memory required for data: 30020
I0721 12:31:26.293133  5598 layer_factory.hpp:77] Creating layer lstm2_W_xc_x_slice
I0721 12:31:26.293148  5598 net.cpp:91] Creating Layer lstm2_W_xc_x_slice
I0721 12:31:26.293154  5598 net.cpp:425] lstm2_W_xc_x_slice <- W_xc_x
I0721 12:31:26.293164  5598 net.cpp:399] lstm2_W_xc_x_slice -> W_xc_x_1
I0721 12:31:26.296129  5594 net.cpp:141] Setting up lstm2_x_transform
I0721 12:31:26.296154  5594 net.cpp:148] Top shape: 1 1 4000 (4000)
I0721 12:31:26.296164  5594 net.cpp:156] Memory required for data: 30020
I0721 12:31:26.296185  5594 layer_factory.hpp:77] Creating layer lstm2_W_xc_x_slice
I0721 12:31:26.296205  5594 net.cpp:91] Creating Layer lstm2_W_xc_x_slice
I0721 12:31:26.296217  5594 net.cpp:425] lstm2_W_xc_x_slice <- W_xc_x
I0721 12:31:26.296231  5594 net.cpp:399] lstm2_W_xc_x_slice -> W_xc_x_1
I0721 12:31:26.296262  5598 net.cpp:141] Setting up lstm2_W_xc_x_slice
I0721 12:31:26.296275  5598 net.cpp:148] Top shape: 1 1 4000 (4000)
I0721 12:31:26.296281  5598 net.cpp:156] Memory required for data: 46020
I0721 12:31:26.296289  5598 layer_factory.hpp:77] Creating layer lstm2_h_conted_0
I0721 12:31:26.296304  5598 net.cpp:91] Creating Layer lstm2_h_conted_0
I0721 12:31:26.296311  5598 net.cpp:425] lstm2_h_conted_0 <- h_0
I0721 12:31:26.296319  5598 net.cpp:425] lstm2_h_conted_0 <- cont_1_lstm2_cont_slice_0_split_0
I0721 12:31:26.296325  5598 net.cpp:399] lstm2_h_conted_0 -> h_conted_0
I0721 12:31:26.311957  5594 net.cpp:141] Setting up lstm2_W_xc_x_slice
I0721 12:31:26.311981  5594 net.cpp:148] Top shape: 1 1 4000 (4000)
I0721 12:31:26.311991  5594 net.cpp:156] Memory required for data: 46020
I0721 12:31:26.312000  5594 layer_factory.hpp:77] Creating layer lstm2_h_conted_0
I0721 12:31:26.312016  5594 net.cpp:91] Creating Layer lstm2_h_conted_0
I0721 12:31:26.312026  5594 net.cpp:425] lstm2_h_conted_0 <- h_0
I0721 12:31:26.312038  5594 net.cpp:425] lstm2_h_conted_0 <- cont_1_lstm2_cont_slice_0_split_0
I0721 12:31:26.312052  5594 net.cpp:399] lstm2_h_conted_0 -> h_conted_0
I0721 12:31:26.353607  5598 net.cpp:141] Setting up lstm2_h_conted_0
I0721 12:31:26.353652  5598 net.cpp:148] Top shape: 1 1 1000 (1000)
I0721 12:31:26.353659  5598 net.cpp:156] Memory required for data: 50020
I0721 12:31:26.353667  5598 layer_factory.hpp:77] Creating layer lstm2_transform_1
I0721 12:31:26.353688  5598 net.cpp:91] Creating Layer lstm2_transform_1
I0721 12:31:26.353695  5598 net.cpp:425] lstm2_transform_1 <- h_conted_0
I0721 12:31:26.353708  5598 net.cpp:399] lstm2_transform_1 -> W_hc_h_0
I0721 12:31:26.353740  5594 net.cpp:141] Setting up lstm2_h_conted_0
I0721 12:31:26.353762  5594 net.cpp:148] Top shape: 1 1 1000 (1000)
I0721 12:31:26.353772  5594 net.cpp:156] Memory required for data: 50020
I0721 12:31:26.353782  5594 layer_factory.hpp:77] Creating layer lstm2_transform_1
I0721 12:31:26.353799  5594 net.cpp:91] Creating Layer lstm2_transform_1
I0721 12:31:26.353811  5594 net.cpp:425] lstm2_transform_1 <- h_conted_0
I0721 12:31:26.353829  5594 net.cpp:399] lstm2_transform_1 -> W_hc_h_0
I0721 12:31:26.427269  5598 net.cpp:141] Setting up lstm2_transform_1
I0721 12:31:26.427312  5598 net.cpp:148] Top shape: 1 1 4000 (4000)
I0721 12:31:26.427319  5598 net.cpp:156] Memory required for data: 66020
I0721 12:31:26.427336  5598 layer_factory.hpp:77] Creating layer lstm2_gate_input_1
I0721 12:31:26.427353  5598 net.cpp:91] Creating Layer lstm2_gate_input_1
I0721 12:31:26.427361  5598 net.cpp:425] lstm2_gate_input_1 <- W_hc_h_0
I0721 12:31:26.427368  5598 net.cpp:425] lstm2_gate_input_1 <- W_xc_x_1
I0721 12:31:26.427376  5598 net.cpp:399] lstm2_gate_input_1 -> gate_input_1
I0721 12:31:26.442270  5598 net.cpp:141] Setting up lstm2_gate_input_1
I0721 12:31:26.442312  5598 net.cpp:148] Top shape: 1 1 4000 (4000)
I0721 12:31:26.442318  5598 net.cpp:156] Memory required for data: 82020
I0721 12:31:26.442325  5598 layer_factory.hpp:77] Creating layer lstm2_unit_1
I0721 12:31:26.442339  5598 net.cpp:91] Creating Layer lstm2_unit_1
I0721 12:31:26.442347  5598 net.cpp:425] lstm2_unit_1 <- c_0
I0721 12:31:26.442355  5598 net.cpp:425] lstm2_unit_1 <- gate_input_1
I0721 12:31:26.442361  5598 net.cpp:425] lstm2_unit_1 <- cont_1_lstm2_cont_slice_0_split_1
I0721 12:31:26.442368  5598 net.cpp:399] lstm2_unit_1 -> c_1
I0721 12:31:26.442380  5598 net.cpp:399] lstm2_unit_1 -> h_1
I0721 12:31:26.456480  5594 net.cpp:141] Setting up lstm2_transform_1
I0721 12:31:26.456519  5594 net.cpp:148] Top shape: 1 1 4000 (4000)
I0721 12:31:26.456529  5594 net.cpp:156] Memory required for data: 66020
I0721 12:31:26.456552  5594 layer_factory.hpp:77] Creating layer lstm2_gate_input_1
I0721 12:31:26.456583  5594 net.cpp:91] Creating Layer lstm2_gate_input_1
I0721 12:31:26.456595  5594 net.cpp:425] lstm2_gate_input_1 <- W_hc_h_0
I0721 12:31:26.456609  5594 net.cpp:425] lstm2_gate_input_1 <- W_xc_x_1
I0721 12:31:26.456622  5594 net.cpp:399] lstm2_gate_input_1 -> gate_input_1
I0721 12:31:26.462322  5594 net.cpp:141] Setting up lstm2_gate_input_1
I0721 12:31:26.462349  5594 net.cpp:148] Top shape: 1 1 4000 (4000)
I0721 12:31:26.462359  5594 net.cpp:156] Memory required for data: 82020
I0721 12:31:26.462369  5594 layer_factory.hpp:77] Creating layer lstm2_unit_1
I0721 12:31:26.462385  5594 net.cpp:91] Creating Layer lstm2_unit_1
I0721 12:31:26.462400  5594 net.cpp:425] lstm2_unit_1 <- c_0
I0721 12:31:26.462414  5594 net.cpp:425] lstm2_unit_1 <- gate_input_1
I0721 12:31:26.462424  5594 net.cpp:425] lstm2_unit_1 <- cont_1_lstm2_cont_slice_0_split_1
I0721 12:31:26.462437  5594 net.cpp:399] lstm2_unit_1 -> c_1
I0721 12:31:26.462455  5594 net.cpp:399] lstm2_unit_1 -> h_1
I0721 12:31:26.497629  5598 net.cpp:141] Setting up lstm2_unit_1
I0721 12:31:26.497656  5598 net.cpp:148] Top shape: 1 1 1000 (1000)
I0721 12:31:26.497664  5598 net.cpp:148] Top shape: 1 1 1000 (1000)
I0721 12:31:26.497668  5598 net.cpp:156] Memory required for data: 90020
I0721 12:31:26.497675  5598 layer_factory.hpp:77] Creating layer lstm2_
I0721 12:31:26.497685  5598 net.cpp:91] Creating Layer lstm2_
I0721 12:31:26.497691  5598 net.cpp:425] lstm2_ <- c_1
I0721 12:31:26.497700  5598 net.cpp:399] lstm2_ -> c_T
I0721 12:31:26.500711  5598 net.cpp:141] Setting up lstm2_
I0721 12:31:26.500731  5598 net.cpp:148] Top shape: 1 1 1000 (1000)
I0721 12:31:26.500737  5598 net.cpp:156] Memory required for data: 94020
I0721 12:31:26.500742  5598 layer_factory.hpp:77] Creating layer lstm2_h_concat
I0721 12:31:26.500756  5598 net.cpp:91] Creating Layer lstm2_h_concat
I0721 12:31:26.500761  5598 net.cpp:425] lstm2_h_concat <- h_1
I0721 12:31:26.500769  5598 net.cpp:399] lstm2_h_concat -> h
I0721 12:31:26.527348  5594 net.cpp:141] Setting up lstm2_unit_1
I0721 12:31:26.527377  5594 net.cpp:148] Top shape: 1 1 1000 (1000)
I0721 12:31:26.527390  5594 net.cpp:148] Top shape: 1 1 1000 (1000)
I0721 12:31:26.527400  5594 net.cpp:156] Memory required for data: 90020
I0721 12:31:26.527410  5594 layer_factory.hpp:77] Creating layer lstm2_
I0721 12:31:26.527442  5594 net.cpp:91] Creating Layer lstm2_
I0721 12:31:26.527456  5594 net.cpp:425] lstm2_ <- c_1
I0721 12:31:26.527469  5594 net.cpp:399] lstm2_ -> c_T
I0721 12:31:26.529536  5598 net.cpp:141] Setting up lstm2_h_concat
I0721 12:31:26.529556  5598 net.cpp:148] Top shape: 1 1 1000 (1000)
I0721 12:31:26.529561  5598 net.cpp:156] Memory required for data: 98020
I0721 12:31:26.529567  5598 layer_factory.hpp:77] Creating layer h_pseudoloss
I0721 12:31:26.529579  5598 net.cpp:91] Creating Layer h_pseudoloss
I0721 12:31:26.529585  5598 net.cpp:425] h_pseudoloss <- h
I0721 12:31:26.529593  5598 net.cpp:399] h_pseudoloss -> h_pseudoloss
I0721 12:31:26.539661  5594 net.cpp:141] Setting up lstm2_
I0721 12:31:26.539685  5594 net.cpp:148] Top shape: 1 1 1000 (1000)
I0721 12:31:26.539696  5594 net.cpp:156] Memory required for data: 94020
I0721 12:31:26.539706  5594 layer_factory.hpp:77] Creating layer lstm2_h_concat
I0721 12:31:26.539731  5594 net.cpp:91] Creating Layer lstm2_h_concat
I0721 12:31:26.539742  5594 net.cpp:425] lstm2_h_concat <- h_1
I0721 12:31:26.539763  5594 net.cpp:399] lstm2_h_concat -> h
I0721 12:31:26.599756  5594 net.cpp:141] Setting up lstm2_h_concat
I0721 12:31:26.599782  5594 net.cpp:148] Top shape: 1 1 1000 (1000)
I0721 12:31:26.599792  5594 net.cpp:156] Memory required for data: 98020
I0721 12:31:26.599802  5594 layer_factory.hpp:77] Creating layer h_pseudoloss
I0721 12:31:26.599817  5594 net.cpp:91] Creating Layer h_pseudoloss
I0721 12:31:26.599828  5594 net.cpp:425] h_pseudoloss <- h
I0721 12:31:26.599841  5594 net.cpp:399] h_pseudoloss -> h_pseudoloss
I0721 12:31:26.618338  5598 net.cpp:141] Setting up h_pseudoloss
…
I0721 12:31:26.622982  5594 net.cpp:219] lstm2_ does not need backward computation.
I0721 12:31:26.622987  5594 net.cpp:261] This network produces output c_T
I0721 12:31:26.622997  5594 net.cpp:261] This network produces output h_pseudoloss
I0721 12:31:26.623028  5594 net.cpp:274] Network initialization done.
I0721 12:31:26.623100  5594 recurrent_layer.cpp:150] Adding parameter 0: W_xc
I0721 12:31:26.623113  5594 recurrent_layer.cpp:150] Adding parameter 1: b_c
I0721 12:31:26.623121  5594 recurrent_layer.cpp:150] Adding parameter 2: W_hc
I0721 12:31:26.624436  5598 net.cpp:141] Setting up lstm2
I0721 12:31:26.624464  5598 net.cpp:148] Top shape: 1 1 1000 (1000)
I0721 12:31:26.624472  5598 net.cpp:156] Memory required for data: 36412
I0721 12:31:26.624497  5598 layer_factory.hpp:77] Creating layer predict
I0721 12:31:26.624519  5598 net.cpp:91] Creating Layer predict
I0721 12:31:26.624531  5598 net.cpp:425] predict <- lstm2
I0721 12:31:26.624544  5598 net.cpp:399] predict -> predict
I0721 12:31:26.625586  5594 net.cpp:141] Setting up lstm2
I0721 12:31:26.625605  5594 net.cpp:148] Top shape: 1 1 1000 (1000)
I0721 12:31:26.625617  5594 net.cpp:156] Memory required for data: 36412
I0721 12:31:26.625643  5594 layer_factory.hpp:77] Creating layer predict
I0721 12:31:26.625661  5594 net.cpp:91] Creating Layer predict
I0721 12:31:26.625674  5594 net.cpp:425] predict <- lstm2
I0721 12:31:26.625689  5594 net.cpp:399] predict -> predict
I0721 12:31:26.804440  5612 net.cpp:141] Setting up conv1
I0721 12:31:26.804486  5612 net.cpp:148] Top shape: 10 96 55 55 (2904000)
I0721 12:31:26.804493  5612 net.cpp:156] Memory required for data: 17799480
I0721 12:31:26.804514  5612 layer_factory.hpp:77] Creating layer relu1
I0721 12:31:26.804532  5612 net.cpp:91] Creating Layer relu1
I0721 12:31:26.804538  5612 net.cpp:425] relu1 <- conv1
I0721 12:31:26.804548  5612 net.cpp:386] relu1 -> conv1 (in-place)
I0721 12:31:26.804616  5606 net.cpp:141] Setting up conv1
I0721 12:31:26.804636  5606 net.cpp:148] Top shape: 10 96 55 55 (2904000)
I0721 12:31:26.804642  5606 net.cpp:156] Memory required for data: 17799480
I0721 12:31:26.804656  5606 layer_factory.hpp:77] Creating layer relu1
I0721 12:31:26.804669  5606 net.cpp:91] Creating Layer relu1
I0721 12:31:26.804677  5606 net.cpp:425] relu1 <- conv1
I0721 12:31:26.804683  5606 net.cpp:386] relu1 -> conv1 (in-place)
I0721 12:31:26.806043  5612 net.cpp:141] Setting up relu1
I0721 12:31:26.806071  5612 net.cpp:148] Top shape: 10 96 55 55 (2904000)
I0721 12:31:26.806076  5612 net.cpp:156] Memory required for data: 29415480
I0721 12:31:26.806082  5612 layer_factory.hpp:77] Creating layer pool1
I0721 12:31:26.806097  5612 net.cpp:91] Creating Layer pool1
I0721 12:31:26.806103  5612 net.cpp:425] pool1 <- conv1
I0721 12:31:26.806115  5612 net.cpp:399] pool1 -> pool1
I0721 12:31:26.812773  5612 net.cpp:141] Setting up pool1
I0721 12:31:26.812822  5612 net.cpp:148] Top shape: 10 96 27 27 (699840)
I0721 12:31:26.812832  5612 net.cpp:156] Memory required for data: 32214840
I0721 12:31:26.812844  5612 layer_factory.hpp:77] Creating layer norm1
I0721 12:31:26.812882  5612 net.cpp:91] Creating Layer norm1
I0721 12:31:26.812896  5612 net.cpp:425] norm1 <- pool1
I0721 12:31:26.812911  5612 net.cpp:399] norm1 -> norm1
I0721 12:31:26.812950  5606 net.cpp:141] Setting up relu1
I0721 12:31:26.812969  5606 net.cpp:148] Top shape: 10 96 55 55 (2904000)
I0721 12:31:26.812976  5606 net.cpp:156] Memory required for data: 29415480
I0721 12:31:26.812985  5606 layer_factory.hpp:77] Creating layer pool1
I0721 12:31:26.813005  5606 net.cpp:91] Creating Layer pool1
I0721 12:31:26.813016  5606 net.cpp:425] pool1 <- conv1
I0721 12:31:26.813029  5606 net.cpp:399] pool1 -> pool1
I0721 12:31:26.814645  5606 net.cpp:141] Setting up pool1
I0721 12:31:26.814668  5606 net.cpp:148] Top shape: 10 96 27 27 (699840)
I0721 12:31:26.814677  5606 net.cpp:156] Memory required for data: 32214840
I0721 12:31:26.814697  5606 layer_factory.hpp:77] Creating layer norm1
I0721 12:31:26.814721  5606 net.cpp:91] Creating Layer norm1
I0721 12:31:26.814731  5606 net.cpp:425] norm1 <- pool1
I0721 12:31:26.814748  5606 net.cpp:399] norm1 -> norm1
I0721 12:31:26.815640  5612 net.cpp:141] Setting up norm1
I0721 12:31:26.815665  5612 net.cpp:148] Top shape: 10 96 27 27 (699840)
I0721 12:31:26.815673  5612 net.cpp:156] Memory required for data: 35014200
I0721 12:31:26.815682  5612 layer_factory.hpp:77] Creating layer conv2
I0721 12:31:26.815711  5612 net.cpp:91] Creating Layer conv2
I0721 12:31:26.815723  5612 net.cpp:425] conv2 <- norm1
I0721 12:31:26.815737  5612 net.cpp:399] conv2 -> conv2
I0721 12:31:26.817327  5606 net.cpp:141] Setting up norm1
I0721 12:31:26.817355  5606 net.cpp:148] Top shape: 10 96 27 27 (699840)
I0721 12:31:26.817365  5606 net.cpp:156] Memory required for data: 35014200
I0721 12:31:26.817375  5606 layer_factory.hpp:77] Creating layer conv2
I0721 12:31:26.817399  5606 net.cpp:91] Creating Layer conv2
I0721 12:31:26.817409  5606 net.cpp:425] conv2 <- norm1
I0721 12:31:26.817426  5606 net.cpp:399] conv2 -> conv2
I0721 12:31:26.827344  5606 net.cpp:141] Setting up conv2
I0721 12:31:26.827389  5606 net.cpp:148] Top shape: 10 256 27 27 (1866240)
I0721 12:31:26.827395  5606 net.cpp:156] Memory required for data: 42479160
I0721 12:31:26.827414  5606 layer_factory.hpp:77] Creating layer relu2
I0721 12:31:26.827428  5606 net.cpp:91] Creating Layer relu2
I0721 12:31:26.827435  5606 net.cpp:425] relu2 <- conv2
I0721 12:31:26.827443  5606 net.cpp:386] relu2 -> conv2 (in-place)
I0721 12:31:26.828450  5606 net.cpp:141] Setting up relu2
I0721 12:31:26.828466  5606 net.cpp:148] Top shape: 10 256 27 27 (1866240)
I0721 12:31:26.828472  5606 net.cpp:156] Memory required for data: 49944120
I0721 12:31:26.828477  5606 layer_factory.hpp:77] Creating layer pool2
I0721 12:31:26.828472  5612 net.cpp:141] Setting up conv2
I0721 12:31:26.828492  5606 net.cpp:91] Creating Layer pool2
I0721 12:31:26.828498  5606 net.cpp:425] pool2 <- conv2
I0721 12:31:26.828503  5612 net.cpp:148] Top shape: 10 256 27 27 (1866240)
I0721 12:31:26.828510  5606 net.cpp:399] pool2 -> pool2
I0721 12:31:26.828514  5612 net.cpp:156] Memory required for data: 42479160
I0721 12:31:26.828541  5612 layer_factory.hpp:77] Creating layer relu2
I0721 12:31:26.828557  5612 net.cpp:91] Creating Layer relu2
I0721 12:31:26.828570  5612 net.cpp:425] relu2 <- conv2
I0721 12:31:26.828583  5612 net.cpp:386] relu2 -> conv2 (in-place)
I0721 12:31:26.828629  5606 net.cpp:141] Setting up pool2
I0721 12:31:26.828646  5606 net.cpp:148] Top shape: 10 256 13 13 (432640)
I0721 12:31:26.828655  5606 net.cpp:156] Memory required for data: 51674680
I0721 12:31:26.828660  5606 layer_factory.hpp:77] Creating layer norm2
I0721 12:31:26.828675  5606 net.cpp:91] Creating Layer norm2
I0721 12:31:26.828681  5606 net.cpp:425] norm2 <- pool2
I0721 12:31:26.828688  5606 net.cpp:399] norm2 -> norm2
I0721 12:31:26.829780  5606 net.cpp:141] Setting up norm2
I0721 12:31:26.829794  5606 net.cpp:148] Top shape: 10 256 13 13 (432640)
I0721 12:31:26.829799  5606 net.cpp:156] Memory required for data: 53405240
I0721 12:31:26.829804  5606 layer_factory.hpp:77] Creating layer conv3
I0721 12:31:26.829820  5606 net.cpp:91] Creating Layer conv3
I0721 12:31:26.829825  5606 net.cpp:425] conv3 <- norm2
I0721 12:31:26.829833  5606 net.cpp:399] conv3 -> conv3
I0721 12:31:26.829988  5612 net.cpp:141] Setting up relu2
I0721 12:31:26.830008  5612 net.cpp:148] Top shape: 10 256 27 27 (1866240)
I0721 12:31:26.830016  5612 net.cpp:156] Memory required for data: 49944120
I0721 12:31:26.830025  5612 layer_factory.hpp:77] Creating layer pool2
I0721 12:31:26.830040  5612 net.cpp:91] Creating Layer pool2
I0721 12:31:26.830050  5612 net.cpp:425] pool2 <- conv2
I0721 12:31:26.830062  5612 net.cpp:399] pool2 -> pool2
I0721 12:31:26.830313  5612 net.cpp:141] Setting up pool2
I0721 12:31:26.830332  5612 net.cpp:148] Top shape: 10 256 13 13 (432640)
I0721 12:31:26.830339  5612 net.cpp:156] Memory required for data: 51674680
I0721 12:31:26.830348  5612 layer_factory.hpp:77] Creating layer norm2
I0721 12:31:26.830364  5612 net.cpp:91] Creating Layer norm2
I0721 12:31:26.830374  5612 net.cpp:425] norm2 <- pool2
I0721 12:31:26.832901  5612 net.cpp:399] norm2 -> norm2
I0721 12:31:26.834641  5612 net.cpp:141] Setting up norm2
I0721 12:31:26.834671  5612 net.cpp:148] Top shape: 10 256 13 13 (432640)
I0721 12:31:26.834681  5612 net.cpp:156] Memory required for data: 53405240
I0721 12:31:26.834707  5612 layer_factory.hpp:77] Creating layer conv3
I0721 12:31:26.834738  5612 net.cpp:91] Creating Layer conv3
I0721 12:31:26.834750  5612 net.cpp:425] conv3 <- norm2
I0721 12:31:26.834764  5612 net.cpp:399] conv3 -> conv3
I0721 12:31:26.841784  5606 net.cpp:141] Setting up conv3
I0721 12:31:26.841827  5606 net.cpp:148] Top shape: 10 384 13 13 (648960)
I0721 12:31:26.841837  5606 net.cpp:156] Memory required for data: 56001080
I0721 12:31:26.841863  5606 layer_factory.hpp:77] Creating layer relu3
I0721 12:31:26.841881  5606 net.cpp:91] Creating Layer relu3
I0721 12:31:26.841891  5606 net.cpp:425] relu3 <- conv3
I0721 12:31:26.841912  5606 net.cpp:386] relu3 -> conv3 (in-place)
I0721 12:31:26.843348  5606 net.cpp:141] Setting up relu3
I0721 12:31:26.843374  5606 net.cpp:148] Top shape: 10 384 13 13 (648960)
I0721 12:31:26.843384  5606 net.cpp:156] Memory required for data: 58596920
I0721 12:31:26.843392  5606 layer_factory.hpp:77] Creating layer conv4
I0721 12:31:26.843418  5606 net.cpp:91] Creating Layer conv4
I0721 12:31:26.843430  5606 net.cpp:425] conv4 <- conv3
I0721 12:31:26.843446  5606 net.cpp:399] conv4 -> conv4
I0721 12:31:26.844681  5612 net.cpp:141] Setting up conv3
I0721 12:31:26.844701  5612 net.cpp:148] Top shape: 10 384 13 13 (648960)
I0721 12:31:26.844707  5612 net.cpp:156] Memory required for data: 56001080
I0721 12:31:26.844719  5612 layer_factory.hpp:77] Creating layer relu3
I0721 12:31:26.844732  5612 net.cpp:91] Creating Layer relu3
I0721 12:31:26.844736  5612 net.cpp:425] relu3 <- conv3
I0721 12:31:26.844744  5612 net.cpp:386] relu3 -> conv3 (in-place)
I0721 12:31:26.846278  5612 net.cpp:141] Setting up relu3
I0721 12:31:26.847190  5612 net.cpp:148] Top shape: 10 384 13 13 (648960)
I0721 12:31:26.847209  5612 net.cpp:156] Memory required for data: 58596920
I0721 12:31:26.847216  5612 layer_factory.hpp:77] Creating layer conv4
I0721 12:31:26.847231  5612 net.cpp:91] Creating Layer conv4
I0721 12:31:26.847236  5612 net.cpp:425] conv4 <- conv3
I0721 12:31:26.847251  5612 net.cpp:399] conv4 -> conv4
I0721 12:31:26.857347  5606 net.cpp:141] Setting up conv4
I0721 12:31:26.857396  5606 net.cpp:148] Top shape: 10 384 13 13 (648960)
I0721 12:31:26.857409  5606 net.cpp:156] Memory required for data: 61192760
I0721 12:31:26.857431  5606 layer_factory.hpp:77] Creating layer relu4
I0721 12:31:26.857451  5606 net.cpp:91] Creating Layer relu4
I0721 12:31:26.857463  5606 net.cpp:425] relu4 <- conv4
I0721 12:31:26.857484  5606 net.cpp:386] relu4 -> conv4 (in-place)
I0721 12:31:26.857491  5612 net.cpp:141] Setting up conv4
I0721 12:31:26.857517  5612 net.cpp:148] Top shape: 10 384 13 13 (648960)
I0721 12:31:26.857527  5612 net.cpp:156] Memory required for data: 61192760
I0721 12:31:26.857538  5612 layer_factory.hpp:77] Creating layer relu4
I0721 12:31:26.857553  5612 net.cpp:91] Creating Layer relu4
I0721 12:31:26.857558  5612 net.cpp:425] relu4 <- conv4
I0721 12:31:26.857566  5612 net.cpp:386] relu4 -> conv4 (in-place)
I0721 12:31:26.858613  5606 net.cpp:141] Setting up relu4
I0721 12:31:26.858631  5606 net.cpp:148] Top shape: 10 384 13 13 (648960)
I0721 12:31:26.858636  5606 net.cpp:156] Memory required for data: 63788600
I0721 12:31:26.858642  5606 layer_factory.hpp:77] Creating layer conv5
I0721 12:31:26.858659  5606 net.cpp:91] Creating Layer conv5
I0721 12:31:26.858664  5606 net.cpp:425] conv5 <- conv4
I0721 12:31:26.858672  5606 net.cpp:399] conv5 -> conv5
I0721 12:31:26.859203  5612 net.cpp:141] Setting up relu4
I0721 12:31:26.859220  5612 net.cpp:148] Top shape: 10 384 13 13 (648960)
I0721 12:31:26.859226  5612 net.cpp:156] Memory required for data: 63788600
I0721 12:31:26.859231  5612 layer_factory.hpp:77] Creating layer conv5
I0721 12:31:26.859248  5612 net.cpp:91] Creating Layer conv5
I0721 12:31:26.859253  5612 net.cpp:425] conv5 <- conv4
I0721 12:31:26.859261  5612 net.cpp:399] conv5 -> conv5
I0721 12:31:26.872205  5606 net.cpp:141] Setting up conv5
I0721 12:31:26.872258  5606 net.cpp:148] Top shape: 10 256 13 13 (432640)
I0721 12:31:26.872272  5606 net.cpp:156] Memory required for data: 65519160
I0721 12:31:26.872301  5612 net.cpp:141] Setting up conv5
I0721 12:31:26.872306  5606 layer_factory.hpp:77] Creating layer relu5
I0721 12:31:26.872324  5612 net.cpp:148] Top shape: 10 256 13 13 (432640)
I0721 12:31:26.872330  5612 net.cpp:156] Memory required for data: 65519160
I0721 12:31:26.872341  5606 net.cpp:91] Creating Layer relu5
I0721 12:31:26.872345  5612 layer_factory.hpp:77] Creating layer relu5
I0721 12:31:26.872359  5606 net.cpp:425] relu5 <- conv5
I0721 12:31:26.872369  5612 net.cpp:91] Creating Layer relu5
I0721 12:31:26.872375  5612 net.cpp:425] relu5 <- conv5
I0721 12:31:26.872375  5606 net.cpp:386] relu5 -> conv5 (in-place)
I0721 12:31:26.872383  5612 net.cpp:386] relu5 -> conv5 (in-place)
I0721 12:31:26.873273  5612 net.cpp:141] Setting up relu5
I0721 12:31:26.873291  5612 net.cpp:148] Top shape: 10 256 13 13 (432640)
I0721 12:31:26.873296  5612 net.cpp:156] Memory required for data: 67249720
I0721 12:31:26.873301  5612 layer_factory.hpp:77] Creating layer pool5
I0721 12:31:26.873314  5612 net.cpp:91] Creating Layer pool5
I0721 12:31:26.873320  5612 net.cpp:425] pool5 <- conv5
I0721 12:31:26.873327  5612 net.cpp:399] pool5 -> pool5
I0721 12:31:26.873811  5612 net.cpp:141] Setting up pool5
I0721 12:31:26.873824  5612 net.cpp:148] Top shape: 10 256 6 6 (92160)
I0721 12:31:26.873829  5612 net.cpp:156] Memory required for data: 67618360
I0721 12:31:26.873834  5612 layer_factory.hpp:77] Creating layer fc6
I0721 12:31:26.873850  5612 net.cpp:91] Creating Layer fc6
I0721 12:31:26.873855  5612 net.cpp:425] fc6 <- pool5
I0721 12:31:26.873862  5612 net.cpp:399] fc6 -> fc6
I0721 12:31:26.873911  5606 net.cpp:141] Setting up relu5
I0721 12:31:26.873930  5606 net.cpp:148] Top shape: 10 256 13 13 (432640)
I0721 12:31:26.873939  5606 net.cpp:156] Memory required for data: 67249720
I0721 12:31:26.873947  5606 layer_factory.hpp:77] Creating layer pool5
I0721 12:31:26.873961  5606 net.cpp:91] Creating Layer pool5
I0721 12:31:26.873971  5606 net.cpp:425] pool5 <- conv5
I0721 12:31:26.873987  5606 net.cpp:399] pool5 -> pool5
I0721 12:31:26.944155  5606 net.cpp:141] Setting up pool5
I0721 12:31:26.944212  5606 net.cpp:148] Top shape: 10 256 6 6 (92160)
I0721 12:31:26.944223  5606 net.cpp:156] Memory required for data: 67618360
I0721 12:31:26.944236  5606 layer_factory.hpp:77] Creating layer fc6
I0721 12:31:26.944268  5606 net.cpp:91] Creating Layer fc6
I0721 12:31:26.944280  5606 net.cpp:425] fc6 <- pool5
I0721 12:31:26.944298  5606 net.cpp:399] fc6 -> fc6
I0721 12:31:27.021237  5612 net.cpp:141] Setting up fc6
I0721 12:31:27.021282  5612 net.cpp:148] Top shape: 10 4096 (40960)
I0721 12:31:27.021288  5612 net.cpp:156] Memory required for data: 67782200
I0721 12:31:27.021304  5612 layer_factory.hpp:77] Creating layer relu6
I0721 12:31:27.021320  5612 net.cpp:91] Creating Layer relu6
I0721 12:31:27.021327  5612 net.cpp:425] relu6 <- fc6
I0721 12:31:27.021335  5612 net.cpp:386] relu6 -> fc6 (in-place)
I0721 12:31:27.021682  5612 net.cpp:141] Setting up relu6
I0721 12:31:27.021694  5612 net.cpp:148] Top shape: 10 4096 (40960)
I0721 12:31:27.021699  5612 net.cpp:156] Memory required for data: 67946040
I0721 12:31:27.021703  5612 layer_factory.hpp:77] Creating layer drop6
I0721 12:31:27.021716  5612 net.cpp:91] Creating Layer drop6
I0721 12:31:27.021721  5612 net.cpp:425] drop6 <- fc6
I0721 12:31:27.021728  5612 net.cpp:386] drop6 -> fc6 (in-place)
I0721 12:31:27.021803  5612 net.cpp:141] Setting up drop6
I0721 12:31:27.021816  5612 net.cpp:148] Top shape: 10 4096 (40960)
I0721 12:31:27.021821  5612 net.cpp:156] Memory required for data: 68109880
I0721 12:31:27.021826  5612 layer_factory.hpp:77] Creating layer fc7
I0721 12:31:27.021837  5612 net.cpp:91] Creating Layer fc7
I0721 12:31:27.021842  5612 net.cpp:425] fc7 <- fc6
I0721 12:31:27.021852  5612 net.cpp:399] fc7 -> fc7
I0721 12:31:27.059917  5606 net.cpp:141] Setting up fc6
I0721 12:31:27.059967  5606 net.cpp:148] Top shape: 10 4096 (40960)
I0721 12:31:27.059973  5606 net.cpp:156] Memory required for data: 67782200
I0721 12:31:27.059989  5606 layer_factory.hpp:77] Creating layer relu6
I0721 12:31:27.060004  5606 net.cpp:91] Creating Layer relu6
I0721 12:31:27.060011  5606 net.cpp:425] relu6 <- fc6
I0721 12:31:27.060021  5606 net.cpp:386] relu6 -> fc6 (in-place)
I0721 12:31:27.060367  5606 net.cpp:141] Setting up relu6
I0721 12:31:27.060379  5606 net.cpp:148] Top shape: 10 4096 (40960)
I0721 12:31:27.060384  5606 net.cpp:156] Memory required for data: 67946040
I0721 12:31:27.060389  5606 layer_factory.hpp:77] Creating layer drop6
I0721 12:31:27.060401  5606 net.cpp:91] Creating Layer drop6
I0721 12:31:27.060407  5606 net.cpp:425] drop6 <- fc6
I0721 12:31:27.060413  5606 net.cpp:386] drop6 -> fc6 (in-place)
I0721 12:31:27.060477  5606 net.cpp:141] Setting up drop6
I0721 12:31:27.060487  5606 net.cpp:148] Top shape: 10 4096 (40960)
I0721 12:31:27.060490  5606 net.cpp:156] Memory required for data: 68109880
I0721 12:31:27.060495  5606 layer_factory.hpp:77] Creating layer fc7
I0721 12:31:27.060513  5606 net.cpp:91] Creating Layer fc7
I0721 12:31:27.060518  5606 net.cpp:425] fc7 <- fc6
I0721 12:31:27.060528  5606 net.cpp:399] fc7 -> fc7
I0721 12:31:27.092631  5612 net.cpp:141] Setting up fc7
I0721 12:31:27.092677  5612 net.cpp:148] Top shape: 10 4096 (40960)
I0721 12:31:27.092684  5612 net.cpp:156] Memory required for data: 68273720
I0721 12:31:27.092692  5598 net.cpp:141] Setting up predict
I0721 12:31:27.092700  5612 layer_factory.hpp:77] Creating layer relu7
I0721 12:31:27.092715  5598 net.cpp:148] Top shape: 1 1 46168 (46168)
I0721 12:31:27.092720  5598 net.cpp:156] Memory required for data: 221084
I0721 12:31:27.092725  5612 net.cpp:91] Creating Layer relu7
I0721 12:31:27.092732  5612 net.cpp:425] relu7 <- fc7
I0721 12:31:27.092732  5598 layer_factory.hpp:77] Creating layer probs
I0721 12:31:27.092744  5598 net.cpp:91] Creating Layer probs
I0721 12:31:27.092746  5612 net.cpp:386] relu7 -> fc7 (in-place)
I0721 12:31:27.092754  5598 net.cpp:425] probs <- predict
I0721 12:31:27.092766  5598 net.cpp:399] probs -> probs
I0721 12:31:27.094271  5612 net.cpp:141] Setting up relu7
I0721 12:31:27.094301  5612 net.cpp:148] Top shape: 10 4096 (40960)
I0721 12:31:27.094307  5612 net.cpp:156] Memory required for data: 68437560
I0721 12:31:27.094315  5612 layer_factory.hpp:77] Creating layer drop7
I0721 12:31:27.094332  5612 net.cpp:91] Creating Layer drop7
I0721 12:31:27.094338  5612 net.cpp:425] drop7 <- fc7
I0721 12:31:27.094347  5612 net.cpp:386] drop7 -> fc7 (in-place)
I0721 12:31:27.094844  5612 net.cpp:141] Setting up drop7
I0721 12:31:27.094861  5612 net.cpp:148] Top shape: 10 4096 (40960)
I0721 12:31:27.094866  5612 net.cpp:156] Memory required for data: 68601400
I0721 12:31:27.094871  5612 layer_factory.hpp:77] Creating layer fc8
I0721 12:31:27.094887  5612 net.cpp:91] Creating Layer fc8
I0721 12:31:27.094892  5612 net.cpp:425] fc8 <- fc7
I0721 12:31:27.094902  5612 net.cpp:399] fc8 -> fc8
I0721 12:31:27.105547  5598 net.cpp:141] Setting up probs
I0721 12:31:27.105603  5598 net.cpp:148] Top shape: 1 1 46168 (46168)
I0721 12:31:27.105609  5598 net.cpp:156] Memory required for data: 405756
I0721 12:31:27.105619  5598 net.cpp:219] probs does not need backward computation.
I0721 12:31:27.105628  5598 net.cpp:219] predict does not need backward computation.
I0721 12:31:27.105633  5598 net.cpp:219] lstm2 does not need backward computation.
I0721 12:31:27.105638  5598 net.cpp:219] concat does not need backward computation.
I0721 12:31:27.105644  5598 net.cpp:219] lstm1 does not need backward computation.
I0721 12:31:27.105650  5598 net.cpp:219] embedding does not need backward computation.
I0721 12:31:27.105654  5598 net.cpp:219] reshape_stage_indicator does not need backward computation.
I0721 12:31:27.105660  5598 net.cpp:219] reshape_frames does not need backward computation.
I0721 12:31:27.105664  5598 net.cpp:219] embed_encoder does not need backward computation.
I0721 12:31:27.105669  5598 net.cpp:219] cont_sentence_input_1_split does not need backward computation.
I0721 12:31:27.105674  5598 net.cpp:219] input does not need backward computation.
I0721 12:31:27.105679  5598 net.cpp:261] This network produces output probs
I0721 12:31:27.105698  5598 net.cpp:274] Network initialization done.
I0721 12:31:27.110240  5612 net.cpp:141] Setting up fc8
I0721 12:31:27.110281  5612 net.cpp:148] Top shape: 10 1000 (10000)
I0721 12:31:27.110287  5612 net.cpp:156] Memory required for data: 68641400
I0721 12:31:27.110301  5612 layer_factory.hpp:77] Creating layer prob
I0721 12:31:27.110306  5606 net.cpp:141] Setting up fc7
I0721 12:31:27.110316  5612 net.cpp:91] Creating Layer prob
I0721 12:31:27.110328  5612 net.cpp:425] prob <- fc8
I0721 12:31:27.110329  5606 net.cpp:148] Top shape: 10 4096 (40960)
I0721 12:31:27.110335  5606 net.cpp:156] Memory required for data: 68273720
I0721 12:31:27.110343  5612 net.cpp:399] prob -> prob
I0721 12:31:27.110347  5606 layer_factory.hpp:77] Creating layer relu7
I0721 12:31:27.110357  5606 net.cpp:91] Creating Layer relu7
I0721 12:31:27.110363  5606 net.cpp:425] relu7 <- fc7
I0721 12:31:27.110374  5606 net.cpp:386] relu7 -> fc7 (in-place)
I0721 12:31:27.110786  5606 net.cpp:141] Setting up relu7
I0721 12:31:27.110801  5606 net.cpp:148] Top shape: 10 4096 (40960)
I0721 12:31:27.110806  5606 net.cpp:156] Memory required for data: 68437560
I0721 12:31:27.110812  5606 layer_factory.hpp:77] Creating layer drop7
I0721 12:31:27.110822  5606 net.cpp:91] Creating Layer drop7
I0721 12:31:27.110827  5606 net.cpp:425] drop7 <- fc7
I0721 12:31:27.110833  5606 net.cpp:386] drop7 -> fc7 (in-place)
I0721 12:31:27.110967  5606 net.cpp:141] Setting up drop7
I0721 12:31:27.110978  5606 net.cpp:148] Top shape: 10 4096 (40960)
I0721 12:31:27.110983  5606 net.cpp:156] Memory required for data: 68601400
I0721 12:31:27.110988  5606 layer_factory.hpp:77] Creating layer fc8
I0721 12:31:27.110998  5606 net.cpp:91] Creating Layer fc8
I0721 12:31:27.111004  5606 net.cpp:425] fc8 <- fc7
I0721 12:31:27.111016  5606 net.cpp:399] fc8 -> fc8
I0721 12:31:27.111039  5612 net.cpp:141] Setting up prob
I0721 12:31:27.111053  5612 net.cpp:148] Top shape: 10 1000 (10000)
I0721 12:31:27.111058  5612 net.cpp:156] Memory required for data: 68681400
I0721 12:31:27.111063  5612 net.cpp:219] prob does not need backward computation.
I0721 12:31:27.111068  5612 net.cpp:219] fc8 does not need backward computation.
I0721 12:31:27.111073  5612 net.cpp:219] drop7 does not need backward computation.
I0721 12:31:27.111076  5612 net.cpp:219] relu7 does not need backward computation.
…
