…
Java HotSpot(TM) 64-Bit Server VM warning: You have loaded library /home/peifeng/work/run/storm102/data/workers/3da5d393-91e2-4223-a281-cbd36a828217/tmp/cvld4786918255695271041/libopencv_java310.xine1.so which might have disabled stack guard. The VM will try to fix the stack guard now.
It's highly recommended that you fix the library with 'execstack -c <libfile>', or link it with '-z noexecstack'.
WARNING: Logging before InitGoogleLogging() is written to STDERR
I0918 01:56:13.421622   959 net.cpp:49] Initializing net from parameters: 
name: "GoogleNet"
state {
  phase: TEST
}
layer {
  name: "data"
  type: "Input"
  top: "data"
  input_param {
    shape {
      dim: 10
      dim: 3
      dim: 224
      dim: 224
    }
  }
}
layer {
  name: "conv1/7x7_s2"
  type: "Convolution"
  bottom: "data"
  top: "conv1/7x7_s2"
  param {
    lr_mult: 1
    decay_mult: 1
  }
  param {
    lr_mult: 2
    decay_mult: 0
  }
  convolution_param {
    num_output: 64
    pad: 3
    kernel_size: 7
    stride: 2
    weight_filler {
      type: "xavier"
      std: 0.1
    }
    bias_filler {
      type: "constant"
      value: 0.2
    }
  }
}
layer {
  name: "conv1/relu_7x7"
  type: "ReLU"
  bottom: "conv1/7x7_s2"
  top: "conv1/7x7_s2"
}
layer {
  name: "pool1/3x3_s2"
  type: "Pooling"
  bottom: "conv1/7x7_s2"
  top: "pool1/3x3_s2"
  pooling_param {
    pool: MAX
    kernel_size: 3
    stride: 2
  }
}
layer {
  name: "pool1/norm1"
  type: "LRN"
  bottom: "pool1/3x3_s2"
  top: "pool1/norm1"
  lrn_param {
    local_size: 5
    alpha: 0.0001
    beta: 0.75
  }
}
layer {
  name: "conv2/3x3_reduce"
  type: "Convolution"
  bottom: "pool1/norm1"
  top: "conv2/3x3_reduce"
  param {
    lr_mult: 1
    decay_mult: 1
  }
  param {
    lr_mult: 2
    decay_mult: 0
  }
  convolution_param {
    num_output: 64
    kernel_size: 1
    weight_filler {
      type: "xavier"
      std: 0.1
    }
    bias_filler {
      type: "constant"
      value: 0.2
    }
  }
}
layer {
  name: "conv2/relu_3x3_reduce"
  type: "ReLU"
  bottom: "conv2/3x3_reduce"
  top: "conv2/3x3_reduce"
}
layer {
  name: "conv2/3x3"
  type: "Convolution"
  bottom: "conv2/3x3_reduce"
  top: "conv2/3x3"
  param {
    lr_mult: 1
    decay_mult: 1
  }
  param {
    lr_mult: 2
    decay_mult: 0
  }
  convolution_param {
    num_output: 192
    pad: 1
    kernel_size: 3
    weight_filler {
      type: "xavier"
      std: 0.03
    }
    bias_filler {
      type: "constant"
      value: 0.2
    }
  }
}
layer {
  name: "conv2/relu_3x3"
  type: "ReLU"
  bottom: "conv2/3x3"
  top: "conv2/3x3"
}
layer {
  name: "conv2/norm2"
  type: "LRN"
  bottom: "conv2/3x3"
  top: "conv2/norm2"
  lrn_param {
    local_size: 5
    alpha: 0.0001
    beta: 0.75
  }
}
layer {
  name: "pool2/3x3_s2"
  type: "Pooling"
  bottom: "conv2/norm2"
  top: "pool2/3x3_s2"
  pooling_param {
    pool: MAX
    kernel_size: 3
    stride: 2
  }
}
layer {
  name: "inception_3a/1x1"
  type: "Convolution"
  bottom: "pool2/3x3_s2"
  top: "inception_3a/1x1"
  param {
    lr_mult: 1
    decay_mult: 1
  }
  param {
    lr_mult: 2
    decay_mult: 0
  }
  convolution_param {
    num_output: 64
    kernel_size: 1
    weight_filler {
      type: "xavier"
      std: 0.03
    }
    bias_filler {
      type: "constant"
      value: 0.2
    }
  }
}
layer {
  name: "inception_3a/relu_1x1"
  type: "ReLU"
  bottom: "inception_3a/1x1"
  top: "inception_3a/1x1"
}
layer {
  name: "inception_3a/3x3_reduce"
  type: "Convolution"
  bottom: "pool2/3x3_s2"
  top: "inception_3a/3x3_reduce"
  param {
    lr_mult: 1
    decay_mult: 1
  }
  param {
    lr_mult: 2
    decay_mult: 0
  }
  convolution_param {
    num_output: 96
    kernel_size: 1
    weight_filler {
      type: "xavier"
      std: 0.09
    }
    bias_filler {
      type: "constant"
      value: 0.2
    }
  }
}
layer {
  name: "inception_3a/relu_3x3_reduce"
  type: "ReLU"
  bottom: "inception_3a/3x3_reduce"
  top: "inception_3a/3x3_reduce"
}
layer {
  name: "inception_3a/3x3"
  type: "Convolution"
  bottom: "inception_3a/3x3_reduce"
  top: "inception_3a/3x3"
  param {
    lr_mult: 1
    decay_mult: 1
  }
  param {
    lr_mult: 2
    decay_mult: 0
  }
  convolution_param {
    num_output: 128
    pad: 1
    kernel_size: 3
    weight_filler {
      type: "xavier"
      std: 0.03
    }
    bias_filler {
      type: "constant"
      value: 0.2
    }
  }
}
layer {
  name: "inception_3a/relu_3x3"
  type: "ReLU"
  bottom: "inception_3a/3x3"
  top: "inception_3a/3x3"
}
layer {
  name: "inception_3a/5x5_reduce"
  type: "Convolution"
  bottom: "pool2/3x3_s2"
  top: "inception_3a/5x5_reduce"
  param {
    lr_mult: 1
    decay_mult: 1
  }
  param {
    lr_mult: 2
    decay_mult: 0
  }
  convolution_param {
    num_output: 16
    kernel_size: 1
    weight_filler {
      type: "xavier"
      std: 0.2
    }
    bias_filler {
      type: "constant"
      value: 0.2
    }
  }
}
layer {
  name: "inception_3a/relu_5x5_reduce"
  type: "ReLU"
  bottom: "inception_3a/5x5_reduce"
  top: "inception_3a/5x5_reduce"
}
layer {
  name: "inception_3a/5x5"
  type: "Convolution"
  bottom: "inception_3a/5x5_reduce"
  top: "inception_3a/5x5"
  param {
    lr_mult: 1
    decay_mult: 1
  }
  param {
    lr_mult: 2
    decay_mult: 0
  }
  convolution_param {
    num_output: 32
    pad: 2
    kernel_size: 5
    weight_filler {
      type: "xavier"
      std: 0.03
    }
    bias_filler {
      type: "constant"
      value: 0.2
    }
  }
}
layer {
  name: "inception_3a/relu_5x5"
  type: "ReLU"
  bottom: "inception_3a/5x5"
  top: "inception_3a/5x5"
}
layer {
  name: "inception_3a/pool"
  type: "Pooling"
  bottom: "pool2/3x3_s2"
  top: "inception_3a/pool"
  pooling_param {
    pool: MAX
    kernel_size: 3
    stride: 1
    pad: 1
  }
}
layer {
  name: "inception_3a/pool_proj"
  type: "Convolution"
  bottom: "inception_3a/pool"
  top: "inception_3a/pool_proj"
  param {
    lr_mult: 1
    decay_mult: 1
  }
  param {
    lr_mult: 2
    decay_mult: 0
  }
  convolution_param {
    num_output: 32
    kernel_size: 1
    weight_filler {
      type: "xavier"
      std: 0.1
    }
    bias_filler {
      type: "constant"
      value: 0.2
    }
  }
}
layer {
  name: "inception_3a/relu_pool_proj"
  type: "ReLU"
  bottom: "inception_3a/pool_proj"
  top: "inception_3a/pool_proj"
}
layer {
  name: "inception_3a/output"
  type: "Concat"
  bottom: "inception_3a/1x1"
  bottom: "inception_3a/3x3"
  bottom: "inception_3a/5x5"
  bottom: "inception_3a/pool_proj"
  top: "inception_3a/output"
}
layer {
  name: "inception_3b/1x1"
  type: "Convolution"
  bottom: "inception_3a/output"
  top: "inception_3b/1x1"
  param {
    lr_mult: 1
    decay_mult: 1
  }
  param {
    lr_mult: 2
    decay_mult: 0
  }
  convolution_param {
    num_output: 128
    kernel_size: 1
    weight_filler {
      type: "xavier"
      std: 0.03
    }
    bias_filler {
      type: "constant"
      value: 0.2
    }
  }
}
layer {
  name: "inception_3b/relu_1x1"
  type: "ReLU"
  bottom: "inception_3b/1x1"
  top: "inception_3b/1x1"
}
layer {
  name: "inception_3b/3x3_reduce"
  type: "Convolution"
  bottom: "inception_3a/output"
  top: "inception_3b/3x3_reduce"
  param {
    lr_mult: 1
    decay_mult: 1
  }
  param {
    lr_mult: 2
    decay_mult: 0
  }
  convolution_param {
    num_output: 128
    kernel_size: 1
    weight_filler {
      type: "xavier"
      std: 0.09
    }
    bias_filler {
      type: "constant"
      value: 0.2
    }
  }
}
layer {
  name: "inception_3b/relu_3x3_reduce"
  type: "ReLU"
  bottom: "inception_3b/3x3_reduce"
  top: "inception_3b/3x3_reduce"
}
layer {
  name: "inception_3b/3x3"
  type: "Convolution"
  bottom: "inception_3b/3x3_reduce"
  top: "inception_3b/3x3"
  param {
    lr_mult: 1
    decay_mult: 1
  }
  param {
    lr_mult: 2
    decay_mult: 0
  }
  convolution_param {
    num_output: 192
    pad: 1
    kernel_size: 3
    weight_filler {
      type: "xavier"
      std: 0.03
    }
    bias_filler {
      type: "constant"
      value: 0.2
    }
  }
}
layer {
  name: "inception_3b/relu_3x3"
  type: "ReLU"
  bottom: "inception_3b/3x3"
  top: "inception_3b/3x3"
}
layer {
  name: "inception_3b/5x5_reduce"
  type: "Convolution"
  bottom: "inception_3a/output"
  top: "inception_3b/5x5_reduce"
  param {
    lr_mult: 1
    decay_mult: 1
  }
  param {
    lr_mult: 2
    decay_mult: 0
  }
  convolution_param {
    num_output: 32
    kernel_size: 1
    weight_filler {
      type: "xavier"
      std: 0.2
    }
    bias_filler {
      type: "constant"
      value: 0.2
    }
  }
}
layer {
  name: "inception_3b/relu_5x5_reduce"
  type: "ReLU"
  bottom: "inception_3b/5x5_reduce"
  top: "inception_3b/5x5_reduce"
}
layer {
  name: "inception_3b/5x5"
  type: "Convolution"
  bottom: "inception_3b/5x5_reduce"
  top: "inception_3b/5x5"
  param {
    lr_mult: 1
    decay_mult: 1
  }
  param {
    lr_mult: 2
    decay_mult: 0
  }
  convolution_param {
    num_output: 96
    pad: 2
    kernel_size: 5
    weight_filler {
      type: "xavier"
      std: 0.03
    }
    bias_filler {
      type: "constant"
      value: 0.2
    }
  }
}
layer {
  name: "inception_3b/relu_5x5"
  type: "ReLU"
  bottom: "inception_3b/5x5"
  top: "inception_3b/5x5"
}
layer {
  name: "inception_3b/pool"
  type: "Pooling"
  bottom: "inception_3a/output"
  top: "inception_3b/pool"
  pooling_param {
    pool: MAX
    kernel_size: 3
    stride: 1
    pad: 1
  }
}
layer {
  name: "inception_3b/pool_proj"
  type: "Convolution"
  bottom: "inception_3b/pool"
  top: "inception_3b/pool_proj"
  param {
    lr_mult: 1
    decay_mult: 1
  }
  param {
    lr_mult: 2
    decay_mult: 0
  }
  convolution_param {
    num_output: 64
    kernel_size: 1
    weight_filler {
      type: "xavier"
      std: 0.1
    }
    bias_filler {
      type: "constant"
      value: 0.2
    }
  }
}
layer {
  name: "inception_3b/relu_pool_proj"
  type: "ReLU"
  bottom: "inception_3b/pool_proj"
  top: "inception_3b/pool_proj"
}
layer {
  name: "inception_3b/output"
  type: "Concat"
  bottom: "inception_3b/1x1"
  bottom: "inception_3b/3x3"
  bottom: "inception_3b/5x5"
  bottom: "inception_3b/pool_proj"
  top: "inception_3b/output"
}
layer {
  name: "pool3/3x3_s2"
  type: "Pooling"
  bottom: "inception_3b/output"
  top: "pool3/3x3_s2"
  pooling_param {
    pool: MAX
    kernel_size: 3
    stride: 2
  }
}
layer {
  name: "inception_4a/1x1"
  type: "Convolution"
  bottom: "pool3/3x3_s2"
  top: "inception_4a/1x1"
  param {
    lr_mult: 1
    decay_mult: 1
  }
  param {
    lr_mult: 2
    decay_mult: 0
  }
  convolution_param {
    num_output: 192
    kernel_size: 1
    weight_filler {
      type: "xavier"
      std: 0.03
    }
    bias_filler {
      type: "constant"
      value: 0.2
    }
  }
}
layer {
  name: "inception_4a/relu_1x1"
  type: "ReLU"
  bottom: "inception_4a/1x1"
  top: "inception_4a/1x1"
}
layer {
  name: "inception_4a/3x3_reduce"
  type: "Convolution"
  bottom: "pool3/3x3_s2"
  top: "inception_4a/3x3_reduce"
  param {
    lr_mult: 1
    decay_mult: 1
  }
  param {
    lr_mult: 2
    decay_mult: 0
  }
  convolution_param {
    num_output: 96
    kernel_size: 1
    weight_filler {
      type: "xavier"
      std: 0.09
    }
    bias_filler {
      type: "constant"
      value: 0.2
    }
  }
}
layer {
  name: "inception_4a/relu_3x3_reduce"
  type: "ReLU"
  bottom: "inception_4a/3x3_reduce"
  top: "inception_4a/3x3_reduce"
}
layer {
  name: "inception_4a/3x3"
  type: "Convolution"
  bottom: "inception_4a/3x3_reduce"
  top: "inception_4a/3x3"
  param {
    lr_mult: 1
    decay_mult: 1
  }
  param {
    lr_mult: 2
    decay_mult: 0
  }
  convolution_param {
    num_output: 208
    pad: 1
    kernel_size: 3
    weight_filler {
      type: "xavier"
      std: 0.03
    }
    bias_filler {
      type: "constant"
      value: 0.2
    }
  }
}
layer {
  name: "inception_4a/relu_3x3"
  type: "ReLU"
  bottom: "inception_4a/3x3"
  top: "inception_4a/3x3"
}
layer {
  name: "inception_4a/5x5_reduce"
  type: "Convolution"
  bottom: "pool3/3x3_s2"
  top: "inception_4a/5x5_reduce"
  param {
    lr_mult: 1
    decay_mult: 1
  }
  param {
    lr_mult: 2
    decay_mult: 0
  }
  convolution_param {
    num_output: 16
    kernel_size: 1
    weight_filler {
      type: "xavier"
      std: 0.2
    }
    bias_filler {
      type: "constant"
      value: 0.2
    }
  }
}
layer {
  name: "inception_4a/relu_5x5_reduce"
  type: "ReLU"
  bottom: "inception_4a/5x5_reduce"
  top: "inception_4a/5x5_reduce"
}
layer {
  name: "inception_4a/5x5"
  type: "Convolution"
  bottom: "inception_4a/5x5_reduce"
  top: "inception_4a/5x5"
  param {
    lr_mult: 1
    decay_mult: 1
  }
  param {
    lr_mult: 2
    decay_mult: 0
  }
  convolution_param {
    num_output: 48
    pad: 2
    kernel_size: 5
    weight_filler {
      type: "xavier"
      std: 0.03
    }
    bias_filler {
      type: "constant"
      value: 0.2
    }
  }
}
layer {
  name: "inception_4a/relu_5x5"
  type: "ReLU"
  bottom: "inception_4a/5x5"
  top: "inception_4a/5x5"
}
layer {
  name: "inception_4a/pool"
  type: "Pooling"
  bottom: "pool3/3x3_s2"
  top: "inception_4a/pool"
  pooling_param {
    pool: MAX
    kernel_size: 3
    stride: 1
    pad: 1
  }
}
layer {
  name: "inception_4a/pool_proj"
  type: "Convolution"
  bottom: "inception_4a/pool"
  top: "inception_4a/pool_proj"
  param {
    lr_mult: 1
    decay_mult: 1
  }
  param {
    lr_mult: 2
    decay_mult: 0
  }
  convolution_param {
    num_output: 64
    kernel_size: 1
    weight_filler {
      type: "xavier"
      std: 0.1
    }
    bias_filler {
      type: "constant"
      value: 0.2
    }
  }
}
layer {
  name: "inception_4a/relu_pool_proj"
  type: "ReLU"
  bottom: "inception_4a/pool_proj"
  top: "inception_4a/pool_proj"
}
layer {
  name: "inception_4a/output"
  type: "Concat"
  bottom: "inception_4a/1x1"
  bottom: "inception_4a/3x3"
  bottom: "inception_4a/5x5"
  bottom: "inception_4a/pool_proj"
  top: "inception_4a/output"
}
layer {
  name: "inception_4b/1x1"
  type: "Convolution"
  bottom: "inception_4a/output"
  top: "inception_4b/1x1"
  param {
    lr_mult: 1
    decay_mult: 1
  }
  param {
    lr_mult: 2
    decay_mult: 0
  }
  convolution_param {
    num_output: 160
    kernel_size: 1
    weight_filler {
      type: "xavier"
      std: 0.03
    }
    bias_filler {
      type: "constant"
      value: 0.2
    }
  }
}
layer {
  name: "inception_4b/relu_1x1"
  type: "ReLU"
  bottom: "inception_4b/1x1"
  top: "inception_4b/1x1"
}
layer {
  name: "inception_4b/3x3_reduce"
  type: "Convolution"
  bottom: "inception_4a/output"
  top: "inception_4b/3x3_reduce"
  param {
    lr_mult: 1
    decay_mult: 1
  }
  param {
    lr_mult: 2
    decay_mult: 0
  }
  convolution_param {
    num_output: 112
    kernel_size: 1
    weight_filler {
      type: "xavier"
      std: 0.09
    }
    bias_filler {
      type: "constant"
      value: 0.2
    }
  }
}
layer {
  name: "inception_4b/relu_3x3_reduce"
  type: "ReLU"
  bottom: "inception_4b/3x3_reduce"
  top: "inception_4b/3x3_reduce"
}
layer {
  name: "inception_4b/3x3"
  type: "Convolution"
  bottom: "inception_4b/3x3_reduce"
  top: "inception_4b/3x3"
  param {
    lr_mult: 1
    decay_mult: 1
  }
  param {
    lr_mult: 2
    decay_mult: 0
  }
  convolution_param {
    num_output: 224
    pad: 1
    kernel_size: 3
    weight_filler {
      type: "xavier"
      std: 0.03
    }
    bias_filler {
      type: "constant"
      value: 0.2
    }
  }
}
layer {
  name: "inception_4b/relu_3x3"
  type: "ReLU"
  bottom: "inception_4b/3x3"
  top: "inception_4b/3x3"
}
layer {
  name: "inception_4b/5x5_reduce"
  type: "Convolution"
  bottom: "inception_4a/output"
  top: "inception_4b/5x5_reduce"
  param {
    lr_mult: 1
    decay_mult: 1
  }
  param {
    lr_mult: 2
    decay_mult: 0
  }
  convolution_param {
    num_output: 24
    kernel_size: 1
    weight_filler {
      type: "xavier"
      std: 0.2
    }
    bias_filler {
      type: "constant"
      value: 0.2
    }
  }
}
layer {
  name: "inception_4b/relu_5x5_reduce"
  type: "ReLU"
  bottom: "inception_4b/5x5_reduce"
  top: "inception_4b/5x5_reduce"
}
layer {
  name: "inception_4b/5x5"
  type: "Convolution"
  bottom: "inception_4b/5x5_reduce"
  top: "inception_4b/5x5"
  param {
    lr_mult: 1
    decay_mult: 1
  }
  param {
    lr_mult: 2
    decay_mult: 0
  }
  convolution_param {
    num_output: 64
    pad: 2
    kernel_size: 5
    weight_filler {
      type: "xavier"
      std: 0.03
    }
    bias_filler {
      type: "constant"
      value: 0.2
    }
  }
}
layer {
  name: "inception_4b/relu_5x5"
  type: "ReLU"
  bottom: "inception_4b/5x5"
  top: "inception_4b/5x5"
}
layer {
  name: "inception_4b/pool"
  type: "Pooling"
  bottom: "inception_4a/output"
  top: "inception_4b/pool"
  pooling_param {
    pool: MAX
    kernel_size: 3
    stride: 1
    pad: 1
  }
}
layer {
  name: "inception_4b/pool_proj"
  type: "Convolution"
  bottom: "inception_4b/pool"
  top: "inception_4b/pool_proj"
  param {
    lr_mult: 1
    decay_mult: 1
  }
  param {
    lr_mult: 2
    decay_mult: 0
  }
  convolution_param {
    num_output: 64
    kernel_size: 1
    weight_filler {
      type: "xavier"
      std: 0.1
    }
    bias_filler {
      type: "constant"
      value: 0.2
    }
  }
}
layer {
  name: "inception_4b/relu_pool_proj"
  type: "ReLU"
  bottom: "inception_4b/pool_proj"
  top: "inception_4b/pool_proj"
}
layer {
  name: "inception_4b/output"
  type: "Concat"
  bottom: "inception_4b/1x1"
  bottom: "inception_4b/3x3"
  bottom: "inception_4b/5x5"
  bottom: "inception_4b/pool_proj"
  top: "inception_4b/output"
}
layer {
  name: "inception_4c/1x1"
  type: "Convolution"
  bottom: "inception_4b/output"
  top: "inception_4c/1x1"
  param {
    lr_mult: 1
    decay_mult: 1
  }
  param {
    lr_mult: 2
    decay_mult: 0
  }
  convolution_param {
    num_output: 128
    kernel_size: 1
    weight_filler {
      type: "xavier"
      std: 0.03
    }
    bias_filler {
      type: "constant"
      value: 0.2
    }
  }
}
layer {
  name: "inception_4c/relu_1x1"
  type: "ReLU"
  bottom: "inception_4c/1x1"
  top: "inception_4c/1x1"
}
layer {
  name: "inception_4c/3x3_reduce"
  type: "Convolution"
  bottom: "inception_4b/output"
  top: "inception_4c/3x3_reduce"
  param {
    lr_mult: 1
    decay_mult: 1
  }
  param {
    lr_mult: 2
    decay_mult: 0
  }
  convolution_param {
    num_output: 128
    kernel_size: 1
    weight_filler {
      type: "xavier"
      std: 0.09
    }
    bias_filler {
      type: "constant"
      value: 0.2
    }
  }
}
layer {
  name: "inception_4c/relu_3x3_reduce"
  type: "ReLU"
  bottom: "inception_4c/3x3_reduce"
  top: "inception_4c/3x3_reduce"
}
layer {
  name: "inception_4c/3x3"
  type: "Convolution"
  bottom: "inception_4c/3x3_reduce"
  top: "inception_4c/3x3"
  param {
    lr_mult: 1
    decay_mult: 1
  }
  param {
    lr_mult: 2
    decay_mult: 0
  }
  convolution_param {
    num_output: 256
    pad: 1
    kernel_size: 3
    weight_filler {
      type: "xavier"
      std: 0.03
    }
    bias_filler {
      type: "constant"
      value: 0.2
    }
  }
}
layer {
  name: "inception_4c/relu_3x3"
  type: "ReLU"
  bottom: "inception_4c/3x3"
  top: "inception_4c/3x3"
}
layer {
  name: "inception_4c/5x5_reduce"
  type: "Convolution"
  bottom: "inception_4b/output"
  top: "inception_4c/5x5_reduce"
  param {
    lr_mult: 1
    decay_mult: 1
  }
  param {
    lr_mult: 2
    decay_mult: 0
  }
  convolution_param {
    num_output: 24
    kernel_size: 1
    weight_filler {
      type: "xavier"
      std: 0.2
    }
    bias_filler {
      type: "constant"
      value: 0.2
    }
  }
}
layer {
  name: "inception_4c/relu_5x5_reduce"
  type: "ReLU"
  bottom: "inception_4c/5x5_reduce"
  top: "inception_4c/5x5_reduce"
}
layer {
  name: "inception_4c/5x5"
  type: "Convolution"
  bottom: "inception_4c/5x5_reduce"
  top: "inception_4c/5x5"
  param {
    lr_mult: 1
    decay_mult: 1
  }
  param {
    lr_mult: 2
    decay_mult: 0
  }
  convolution_param {
    num_output: 64
    pad: 2
    kernel_size: 5
    weight_filler {
      type: "xavier"
      std: 0.03
    }
    bias_filler {
      type: "constant"
      value: 0.2
    }
  }
}
layer {
  name: "inception_4c/relu_5x5"
  type: "ReLU"
  bottom: "inception_4c/5x5"
  top: "inception_4c/5x5"
}
layer {
  name: "inception_4c/pool"
  type: "Pooling"
  bottom: "inception_4b/output"
  top: "inception_4c/pool"
  pooling_param {
    pool: MAX
    kernel_size: 3
    stride: 1
    pad: 1
  }
}
layer {
  name: "inception_4c/pool_proj"
  type: "Convolution"
  bottom: "inception_4c/pool"
  top: "inception_4c/pool_proj"
  param {
    lr_mult: 1
    decay_mult: 1
  }
  param {
    lr_mult: 2
    decay_mult: 0
  }
  convolution_param {
    num_output: 64
    kernel_size: 1
    weight_filler {
      type: "xavier"
      std: 0.1
    }
    bias_filler {
      type: "constant"
      value: 0.2
    }
  }
}
layer {
  name: "inception_4c/relu_pool_proj"
  type: "ReLU"
  bottom: "inception_4c/pool_proj"
  top: "inception_4c/pool_proj"
}
layer {
  name: "inception_4c/output"
  type: "Concat"
  bottom: "inception_4c/1x1"
  bottom: "inception_4c/3x3"
  bottom: "inception_4c/5x5"
  bottom: "inception_4c/pool_proj"
  top: "inception_4c/output"
}
layer {
  name: "inception_4d/1x1"
  type: "Convolution"
  bottom: "inception_4c/output"
  top: "inception_4d/1x1"
  param {
    lr_mult: 1
    decay_mult: 1
  }
  param {
    lr_mult: 2
    decay_mult: 0
  }
  convolution_param {
    num_output: 112
    kernel_size: 1
    weight_filler {
      type: "xavier"
      std: 0.03
    }
    bias_filler {
      type: "constant"
      value: 0.2
    }
  }
}
layer {
  name: "inception_4d/relu_1x1"
  type: "ReLU"
  bottom: "inception_4d/1x1"
  top: "inception_4d/1x1"
}
layer {
  name: "inception_4d/3x3_reduce"
  type: "Convolution"
  bottom: "inception_4c/output"
  top: "inception_4d/3x3_reduce"
  param {
    lr_mult: 1
    decay_mult: 1
  }
  param {
    lr_mult: 2
    decay_mult: 0
  }
  convolution_param {
    num_output: 144
    kernel_size: 1
    weight_filler {
      type: "xavier"
      std: 0.09
    }
    bias_filler {
      type: "constant"
      value: 0.2
    }
  }
}
layer {
  name: "inception_4d/relu_3x3_reduce"
  type: "ReLU"
  bottom: "inception_4d/3x3_reduce"
  top: "inception_4d/3x3_reduce"
}
layer {
  name: "inception_4d/3x3"
  type: "Convolution"
  bottom: "inception_4d/3x3_reduce"
  top: "inception_4d/3x3"
  param {
    lr_mult: 1
    decay_mult: 1
  }
  param {
    lr_mult: 2
    decay_mult: 0
  }
  convolution_param {
    num_output: 288
    pad: 1
    kernel_size: 3
    weight_filler {
      type: "xavier"
      std: 0.03
    }
    bias_filler {
      type: "constant"
      value: 0.2
    }
  }
}
layer {
  name: "inception_4d/relu_3x3"
  type: "ReLU"
  bottom: "inception_4d/3x3"
  top: "inception_4d/3x3"
}
layer {
  name: "inception_4d/5x5_reduce"
  type: "Convolution"
  bottom: "inception_4c/output"
  top: "inception_4d/5x5_reduce"
  param {
    lr_mult: 1
    decay_mult: 1
  }
  param {
    lr_mult: 2
    decay_mult: 0
  }
  convolution_param {
    num_output: 32
    kernel_size: 1
    weight_filler {
      type: "xavier"
      std: 0.2
    }
    bias_filler {
      type: "constant"
      value: 0.2
    }
  }
}
layer {
  name: "inception_4d/relu_5x5_reduce"
  type: "ReLU"
  bottom: "inception_4d/5x5_reduce"
  top: "inception_4d/5x5_reduce"
}
layer {
  name: "inception_4d/5x5"
  type: "Convolution"
  bottom: "inception_4d/5x5_reduce"
  top: "inception_4d/5x5"
  param {
    lr_mult: 1
    decay_mult: 1
  }
  param {
    lr_mult: 2
    decay_mult: 0
  }
  convolution_param {
    num_output: 64
    pad: 2
    kernel_size: 5
    weight_filler {
      type: "xavier"
      std: 0.03
    }
    bias_filler {
      type: "constant"
      value: 0.2
    }
  }
}
layer {
  name: "inception_4d/relu_5x5"
  type: "ReLU"
  bottom: "inception_4d/5x5"
  top: "inception_4d/5x5"
}
layer {
  name: "inception_4d/pool"
  type: "Pooling"
  bottom: "inception_4c/output"
  top: "inception_4d/pool"
  pooling_param {
    pool: MAX
    kernel_size: 3
    stride: 1
    pad: 1
  }
}
layer {
  name: "inception_4d/pool_proj"
  type: "Convolution"
  bottom: "inception_4d/pool"
  top: "inception_4d/pool_proj"
  param {
    lr_mult: 1
    decay_mult: 1
  }
  param {
    lr_mult: 2
    decay_mult: 0
  }
  convolution_param {
    num_output: 64
    kernel_size: 1
    weight_filler {
      type: "xavier"
      std: 0.1
    }
    bias_filler {
      type: "constant"
      value: 0.2
    }
  }
}
layer {
  name: "inception_4d/relu_pool_proj"
  type: "ReLU"
  bottom: "inception_4d/pool_proj"
  top: "inception_4d/pool_proj"
}
layer {
  name: "inception_4d/output"
  type: "Concat"
  bottom: "inception_4d/1x1"
  bottom: "inception_4d/3x3"
  bottom: "inception_4d/5x5"
  bottom: "inception_4d/pool_proj"
  top: "inception_4d/output"
}
layer {
  name: "inception_4e/1x1"
  type: "Convolution"
  bottom: "inception_4d/output"
  top: "inception_4e/1x1"
  param {
    lr_mult: 1
    decay_mult: 1
  }
  param {
    lr_mult: 2
    decay_mult: 0
  }
  convolution_param {
    num_output: 256
    kernel_size: 1
    weight_filler {
      type: "xavier"
      std: 0.03
    }
    bias_filler {
      type: "constant"
      value: 0.2
    }
  }
}
layer {
  name: "inception_4e/relu_1x1"
  type: "ReLU"
  bottom: "inception_4e/1x1"
  top: "inception_4e/1x1"
}
layer {
  name: "inception_4e/3x3_reduce"
  type: "Convolution"
  bottom: "inception_4d/output"
  top: "inception_4e/3x3_reduce"
  param {
    lr_mult: 1
    decay_mult: 1
  }
  param {
    lr_mult: 2
    decay_mult: 0
  }
  convolution_param {
    num_output: 160
    kernel_size: 1
    weight_filler {
      type: "xavier"
      std: 0.09
    }
    bias_filler {
      type: "constant"
      value: 0.2
    }
  }
}
layer {
  name: "inception_4e/relu_3x3_reduce"
  type: "ReLU"
  bottom: "inception_4e/3x3_reduce"
  top: "inception_4e/3x3_reduce"
}
layer {
  name: "inception_4e/3x3"
  type: "Convolution"
  bottom: "inception_4e/3x3_reduce"
  top: "inception_4e/3x3"
  param {
    lr_mult: 1
    decay_mult: 1
  }
  param {
    lr_mult: 2
    decay_mult: 0
  }
  convolution_param {
    num_output: 320
    pad: 1
    kernel_size: 3
    weight_filler {
      type: "xavier"
      std: 0.03
    }
    bias_filler {
      type: "constant"
      value: 0.2
    }
  }
}
layer {
  name: "inception_4e/relu_3x3"
  type: "ReLU"
  bottom: "inception_4e/3x3"
  top: "inception_4e/3x3"
}
layer {
  name: "inception_4e/5x5_reduce"
  type: "Convolution"
  bottom: "inception_4d/output"
  top: "inception_4e/5x5_reduce"
  param {
    lr_mult: 1
    decay_mult: 1
  }
  param {
    lr_mult: 2
    decay_mult: 0
  }
  convolution_param {
    num_output: 32
    kernel_size: 1
    weight_filler {
      type: "xavier"
      std: 0.2
    }
    bias_filler {
      type: "constant"
      value: 0.2
    }
  }
}
layer {
  name: "inception_4e/relu_5x5_reduce"
  type: "ReLU"
  bottom: "inception_4e/5x5_reduce"
  top: "inception_4e/5x5_reduce"
}
layer {
  name: "inception_4e/5x5"
  type: "Convolution"
  bottom: "inception_4e/5x5_reduce"
  top: "inception_4e/5x5"
  param {
    lr_mult: 1
    decay_mult: 1
  }
  param {
    lr_mult: 2
    decay_mult: 0
  }
  convolution_param {
    num_output: 128
    pad: 2
    kernel_size: 5
    weight_filler {
      type: "xavier"
      std: 0.03
    }
    bias_filler {
      type: "constant"
      value: 0.2
    }
  }
}
layer {
  name: "inception_4e/relu_5x5"
  type: "ReLU"
  bottom: "inception_4e/5x5"
  top: "inception_4e/5x5"
}
layer {
  name: "inception_4e/pool"
  type: "Pooling"
  bottom: "inception_4d/output"
  top: "inception_4e/pool"
  pooling_param {
    pool: MAX
    kernel_size: 3
    stride: 1
    pad: 1
  }
}
layer {
  name: "inception_4e/pool_proj"
  type: "Convolution"
  bottom: "inception_4e/pool"
  top: "inception_4e/pool_proj"
  param {
    lr_mult: 1
    decay_mult: 1
  }
  param {
    lr_mult: 2
    decay_mult: 0
  }
  convolution_param {
    num_output: 128
    kernel_size: 1
    weight_filler {
      type: "xavier"
      std: 0.1
    }
    bias_filler {
      type: "constant"
      value: 0.2
    }
  }
}
layer {
  name: "inception_4e/relu_pool_proj"
  type: "ReLU"
  bottom: "inception_4e/pool_proj"
  top: "inception_4e/pool_proj"
}
layer {
  name: "inception_4e/output"
  type: "Concat"
  bottom: "inception_4e/1x1"
  bottom: "inception_4e/3x3"
  bottom: "inception_4e/5x5"
  bottom: "inception_4e/pool_proj"
  top: "inception_4e/output"
}
layer {
  name: "pool4/3x3_s2"
  type: "Pooling"
  bottom: "inception_4e/output"
  top: "pool4/3x3_s2"
  pooling_param {
    pool: MAX
    kernel_size: 3
    stride: 2
  }
}
layer {
  name: "inception_5a/1x1"
  type: "Convolution"
  bottom: "pool4/3x3_s2"
  top: "inception_5a/1x1"
  param {
    lr_mult: 1
    decay_mult: 1
  }
  param {
    lr_mult: 2
    decay_mult: 0
  }
  convolution_param {
    num_output: 256
    kernel_size: 1
    weight_filler {
      type: "xavier"
      std: 0.03
    }
    bias_filler {
      type: "constant"
      value: 0.2
    }
  }
}
layer {
  name: "inception_5a/relu_1x1"
  type: "ReLU"
  bottom: "inception_5a/1x1"
  top: "inception_5a/1x1"
}
layer {
  name: "inception_5a/3x3_reduce"
  type: "Convolution"
  bottom: "pool4/3x3_s2"
  top: "inception_5a/3x3_reduce"
  param {
    lr_mult: 1
    decay_mult: 1
  }
  param {
    lr_mult: 2
    decay_mult: 0
  }
  convolution_param {
    num_output: 160
    kernel_size: 1
    weight_filler {
      type: "xavier"
      std: 0.09
    }
    bias_filler {
      type: "constant"
      value: 0.2
    }
  }
}
layer {
  name: "inception_5a/relu_3x3_reduce"
  type: "ReLU"
  bottom: "inception_5a/3x3_reduce"
  top: "inception_5a/3x3_reduce"
}
layer {
  name: "inception_5a/3x3"
  type: "Convolution"
  bottom: "inception_5a/3x3_reduce"
  top: "inception_5a/3x3"
  param {
    lr_mult: 1
    decay_mult: 1
  }
  param {
    lr_mult: 2
    decay_mult: 0
  }
  convolution_param {
    num_output: 320
    pad: 1
    kernel_size: 3
    weight_filler {
      type: "xavier"
      std: 0.03
    }
    bias_filler {
      type: "constant"
      value: 0.2
    }
  }
}
layer {
  name: "inception_5a/relu_3x3"
  type: "ReLU"
  bottom: "inception_5a/3x3"
  top: "inception_5a/3x3"
}
layer {
  name: "inception_5a/5x5_reduce"
  type: "Convolution"
  bottom: "pool4/3x3_s2"
  top: "inception_5a/5x5_reduce"
  param {
    lr_mult: 1
    decay_mult: 1
  }
  param {
    lr_mult: 2
    decay_mult: 0
  }
  convolution_param {
    num_output: 32
    kernel_size: 1
    weight_filler {
      type: "xavier"
      std: 0.2
    }
    bias_filler {
      type: "constant"
      value: 0.2
    }
I0918 01:56:13.421622   953 net.cpp:49] Initializing net from parameters: 
name: "GoogleNet"
state {
  phase: TEST
}
layer {
  name: "data"
  type: "Input"
  top: "data"
  input_param {
    shape {
      dim: 10
      dim: 3
      dim: 224
      dim: 224
    }
  }
}
layer {
  name: "conv1/7x7_s2"
  type: "Convolution"
  bottom: "data"
  top: "conv1/7x7_s2"
  param {
    lr_mult: 1
    decay_mult: 1
  }
  param {
    lr_mult: 2
    decay_mult: 0
  }
  convolution_param {
    num_output: 64
    pad: 3
    kernel_size: 7
    stride: 2
    weight_filler {
      type: "xavier"
      std: 0.1
    }
    bias_filler {
      type: "constant"
      value: 0.2
    }
  }
}
layer {
  name: "conv1/relu_7x7"
  type: "ReLU"
  bottom: "conv1/7x7_s2"
  top: "conv1/7x7_s2"
}
layer {
  name: "pool1/3x3_s2"
  type: "Pooling"
  bottom: "conv1/7x7_s2"
  top: "pool1/3x3_s2"
  pooling_param {
    pool: MAX
    kernel_size: 3
    stride: 2
  }
}
layer {
  name: "pool1/norm1"
  type: "LRN"
  bottom: "pool1/3x3_s2"
  top: "pool1/norm1"
  lrn_param {
    local_size: 5
    alpha: 0.0001
    beta: 0.75
  }
}
layer {
  name: "conv2/3x3_reduce"
  type: "Convolution"
  bottom: "pool1/norm1"
  top: "conv2/3x3_reduce"
  param {
    lr_mult: 1
    decay_mult: 1
  }
  param {
    lr_mult: 2
    decay_mult: 0
  }
  convolution_param {
    num_output: 64
    kernel_size: 1
    weight_filler {
      type: "xavier"
      std: 0.1
    }
    bias_filler {
      type: "constant"
      value: 0.2
    }
  }
}
layer {
  name: "conv2/relu_3x3_reduce"
  type: "ReLU"
  bottom: "conv2/3x3_reduce"
  top: "conv2/3x3_reduce"
}
layer {
  name: "conv2/3x3"
  type: "Convolution"
  bottom: "conv2/3x3_reduce"
  top: "conv2/3x3"
  param {
    lr_mult: 1
    decay_mult: 1
  }
  param {
    lr_mult: 2
    decay_mult: 0
  }
  convolution_param {
    num_output: 192
    pad: 1
    kernel_size: 3
    weight_filler {
      type: "xavier"
      std: 0.03
    }
    bias_filler {
      type: "constant"
      value: 0.2
    }
  }
}
layer {
  name: "conv2/relu_3x3"
  type: "ReLU"
  bottom: "conv2/3x3"
  top: "conv2/3x3"
}
layer {
  name: "conv2/norm2"
  type: "LRN"
  bottom: "conv2/3x3"
  top: "conv2/norm2"
  lrn_param {
    local_size: 5
    alpha: 0.0001
    beta: 0.75
  }
}
layer {
  name: "pool2/3x3_s2"
  type: "Pooling"
  bottom: "conv2/norm2"
  top: "pool2/3x3_s2"
  pooling_param {
    pool: MAX
    kernel_size: 3
    stride: 2
  }
}
layer {
  name: "inception_3a/1x1"
  type: "Convolution"
  bottom: "pool2/3x3_s2"
  top: "inception_3a/1x1"
  param {
    lr_mult: 1
    decay_mult: 1
  }
  param {
    lr_mult: 2
    decay_mult: 0
  }
  convolution_param {
    num_output: 64
    kernel_size: 1
    weight_filler {
      type: "xavier"
      std: 0.03
    }
    bias_filler {
      type: "constant"
      value: 0.2
    }
  }
}
layer {
  name: "inception_3a/relu_1x1"
  type: "ReLU"
  bottom: "inception_3a/1x1"
  top: "inception_3a/1x1"
}
layer {
  name: "inception_3a/3x3_reduce"
  type: "Convolution"
  bottom: "pool2/3x3_s2"
  top: "inception_3a/3x3_reduce"
  param {
    lr_mult: 1
    decay_mult: 1
  }
  param {
    lr_mult: 2
    decay_mult: 0
  }
  convolution_param {
    num_output: 96
    kernel_size: 1
    weight_filler {
      type: "xavier"
      std: 0.09
    }
    bias_filler {
      type: "constant"
      value: 0.2
    }
  }
}
layer {
  name: "inception_3a/relu_3x3_reduce"
  type: "ReLU"
  bottom: "inception_3a/3x3_reduce"
  top: "inception_3a/3x3_reduce"
}
layer {
  name: "inception_3a/3x3"
  type: "Convolution"
  bottom: "inception_3a/3x3_reduce"
  top: "inception_3a/3x3"
  param {
    lr_mult: 1
    decay_mult: 1
  }
  param {
    lr_mult: 2
    decay_mult: 0
  }
  convolution_param {
    num_output: 128
    pad: 1
    kernel_size: 3
    weight_filler {
      type: "xavier"
      std: 0.03
    }
    bias_filler {
      type: "constant"
      value: 0.2
    }
  }
}
layer {
  name: "inception_3a/relu_3x3"
  type: "ReLU"
  bottom: "inception_3a/3x3"
  top: "inception_3a/3x3"
}
layer {
  name: "inception_3a/5x5_reduce"
  type: "Convolution"
  bottom: "pool2/3x3_s2"
  top: "inception_3a/5x5_reduce"
  param {
    lr_mult: 1
    decay_mult: 1
  }
  param {
    lr_mult: 2
    decay_mult: 0
  }
  convolution_param {
    num_output: 16
    kernel_size: 1
    weight_filler {
      type: "xavier"
      std: 0.2
    }
    bias_filler {
      type: "constant"
      value: 0.2
    }
  }
}
layer {
  name: "inception_3a/relu_5x5_reduce"
  type: "ReLU"
  bottom: "inception_3a/5x5_reduce"
  top: "inception_3a/5x5_reduce"
}
layer {
  name: "inception_3a/5x5"
  type: "Convolution"
  bottom: "inception_3a/5x5_reduce"
  top: "inception_3a/5x5"
  param {
    lr_mult: 1
    decay_mult: 1
  }
  param {
    lr_mult: 2
    decay_mult: 0
  }
  convolution_param {
    num_output: 32
    pad: 2
    kernel_size: 5
    weight_filler {
      type: "xavier"
      std: 0.03
    }
    bias_filler {
      type: "constant"
      value: 0.2
    }
  }
}
layer {
  name: "inception_3a/relu_5x5"
  type: "ReLU"
  bottom: "inception_3a/5x5"
  top: "inception_3a/5x5"
}
layer {
  name: "inception_3a/pool"
  type: "Pooling"
  bottom: "pool2/3x3_s2"
  top: "inception_3a/pool"
  pooling_param {
    pool: MAX
    kernel_size: 3
    stride: 1
    pad: 1
  }
}
layer {
  name: "inception_3a/pool_proj"
  type: "Convolution"
  bottom: "inception_3a/pool"
  top: "inception_3a/pool_proj"
  param {
    lr_mult: 1
    decay_mult: 1
  }
  param {
    lr_mult: 2
    decay_mult: 0
  }
  convolution_param {
    num_output: 32
    kernel_size: 1
    weight_filler {
      type: "xavier"
      std: 0.1
    }
    bias_filler {
      type: "constant"
      value: 0.2
    }
  }
}
layer {
  name: "inception_3a/relu_pool_proj"
  type: "ReLU"
  bottom: "inception_3a/pool_proj"
  top: "inception_3a/pool_proj"
}
layer {
  name: "inception_3a/output"
  type: "Concat"
  bottom: "inception_3a/1x1"
  bottom: "inception_3a/3x3"
  bottom: "inception_3a/5x5"
  bottom: "inception_3a/pool_proj"
  top: "inception_3a/output"
}
layer {
  name: "inception_3b/1x1"
  type: "Convolution"
  bottom: "inception_3a/output"
  top: "inception_3b/1x1"
  param {
    lr_mult: 1
    decay_mult: 1
  }
  param {
    lr_mult: 2
    decay_mult: 0
  }
  convolution_param {
    num_output: 128
    kernel_size: 1
    weight_filler {
      type: "xavier"
      std: 0.03
    }
    bias_filler {
      type: "constant"
      value: 0.2
    }
  }
}
layer {
  name: "inception_3b/relu_1x1"
  type: "ReLU"
  bottom: "inception_3b/1x1"
  top: "inception_3b/1x1"
}
layer {
  name: "inception_3b/3x3_reduce"
  type: "Convolution"
  bottom: "inception_3a/output"
  top: "inception_3b/3x3_reduce"
  param {
    lr_mult: 1
    decay_mult: 1
  }
  param {
    lr_mult: 2
    decay_mult: 0
  }
  convolution_param {
    num_output: 128
    kernel_size: 1
    weight_filler {
      type: "xavier"
      std: 0.09
    }
    bias_filler {
      type: "constant"
      value: 0.2
    }
  }
}
layer {
  name: "inception_3b/relu_3x3_reduce"
  type: "ReLU"
  bottom: "inception_3b/3x3_reduce"
  top: "inception_3b/3x3_reduce"
}
layer {
  name: "inception_3b/3x3"
  type: "Convolution"
  bottom: "inception_3b/3x3_reduce"
  top: "inception_3b/3x3"
  param {
    lr_mult: 1
    decay_mult: 1
  }
  param {
    lr_mult: 2
    decay_mult: 0
  }
  convolution_param {
    num_output: 192
    pad: 1
    kernel_size: 3
    weight_filler {
      type: "xavier"
      std: 0.03
    }
    bias_filler {
      type: "constant"
      value: 0.2
    }
  }
}
layer {
  name: "inception_3b/relu_3x3"
  type: "ReLU"
  bottom: "inception_3b/3x3"
  top: "inception_3b/3x3"
}
layer {
  name: "inception_3b/5x5_reduce"
  type: "Convolution"
  bottom: "inception_3a/output"
  top: "inception_3b/5x5_reduce"
  param {
    lr_mult: 1
    decay_mult: 1
  }
  param {
    lr_mult: 2
    decay_mult: 0
  }
  convolution_param {
    num_output: 32
    kernel_size: 1
    weight_filler {
      type: "xavier"
      std: 0.2
    }
    bias_filler {
      type: "constant"
      value: 0.2
    }
  }
}
layer {
  name: "inception_3b/relu_5x5_reduce"
  type: "ReLU"
  bottom: "inception_3b/5x5_reduce"
  top: "inception_3b/5x5_reduce"
}
layer {
  name: "inception_3b/5x5"
  type: "Convolution"
  bottom: "inception_3b/5x5_reduce"
  top: "inception_3b/5x5"
  param {
    lr_mult: 1
    decay_mult: 1
  }
  param {
    lr_mult: 2
    decay_mult: 0
  }
  convolution_param {
    num_output: 96
    pad: 2
    kernel_size: 5
    weight_filler {
      type: "xavier"
      std: 0.03
    }
    bias_filler {
      type: "constant"
      value: 0.2
    }
  }
}
layer {
  name: "inception_3b/relu_5x5"
  type: "ReLU"
  bottom: "inception_3b/5x5"
  top: "inception_3b/5x5"
}
layer {
  name: "inception_3b/pool"
  type: "Pooling"
  bottom: "inception_3a/output"
  top: "inception_3b/pool"
  pooling_param {
    pool: MAX
    kernel_size: 3
    stride: 1
    pad: 1
  }
}
layer {
  name: "inception_3b/pool_proj"
  type: "Convolution"
  bottom: "inception_3b/pool"
  top: "inception_3b/pool_proj"
  param {
    lr_mult: 1
    decay_mult: 1
  }
  param {
    lr_mult: 2
    decay_mult: 0
  }
  convolution_param {
    num_output: 64
    kernel_size: 1
    weight_filler {
      type: "xavier"
      std: 0.1
    }
    bias_filler {
      type: "constant"
      value: 0.2
    }
  }
}
layer {
  name: "inception_3b/relu_pool_proj"
  type: "ReLU"
  bottom: "inception_3b/pool_proj"
  top: "inception_3b/pool_proj"
}
layer {
  name: "inception_3b/output"
  type: "Concat"
  bottom: "inception_3b/1x1"
  bottom: "inception_3b/3x3"
  bottom: "inception_3b/5x5"
  bottom: "inception_3b/pool_proj"
  top: "inception_3b/output"
}
layer {
  name: "pool3/3x3_s2"
  type: "Pooling"
  bottom: "inception_3b/output"
  top: "pool3/3x3_s2"
  pooling_param {
    pool: MAX
    kernel_size: 3
    stride: 2
  }
}
layer {
  name: "inception_4a/1x1"
  type: "Convolution"
  bottom: "pool3/3x3_s2"
  top: "inception_4a/1x1"
  param {
    lr_mult: 1
    decay_mult: 1
  }
  param {
    lr_mult: 2
    decay_mult: 0
  }
  convolution_param {
    num_output: 192
    kernel_size: 1
    weight_filler {
      type: "xavier"
      std: 0.03
    }
    bias_filler {
      type: "constant"
      value: 0.2
    }
  }
}
layer {
  name: "inception_4a/relu_1x1"
  type: "ReLU"
  bottom: "inception_4a/1x1"
  top: "inception_4a/1x1"
}
layer {
  name: "inception_4a/3x3_reduce"
  type: "Convolution"
  bottom: "pool3/3x3_s2"
  top: "inception_4a/3x3_reduce"
  param {
    lr_mult: 1
    decay_mult: 1
  }
  param {
    lr_mult: 2
    decay_mult: 0
  }
  convolution_param {
    num_output: 96
    kernel_size: 1
    weight_filler {
      type: "xavier"
      std: 0.09
    }
    bias_filler {
      type: "constant"
      value: 0.2
    }
  }
}
layer {
  name: "inception_4a/relu_3x3_reduce"
  type: "ReLU"
  bottom: "inception_4a/3x3_reduce"
  top: "inception_4a/3x3_reduce"
}
layer {
  name: "inception_4a/3x3"
  type: "Convolution"
  bottom: "inception_4a/3x3_reduce"
  top: "inception_4a/3x3"
  param {
    lr_mult: 1
    decay_mult: 1
  }
  param {
    lr_mult: 2
    decay_mult: 0
  }
  convolution_param {
    num_output: 208
    pad: 1
    kernel_size: 3
    weight_filler {
      type: "xavier"
      std: 0.03
    }
    bias_filler {
      type: "constant"
      value: 0.2
    }
  }
}
layer {
  name: "inception_4a/relu_3x3"
  type: "ReLU"
  bottom: "inception_4a/3x3"
  top: "inception_4a/3x3"
}
layer {
  name: "inception_4a/5x5_reduce"
  type: "Convolution"
  bottom: "pool3/3x3_s2"
  top: "inception_4a/5x5_reduce"
  param {
    lr_mult: 1
    decay_mult: 1
  }
  param {
    lr_mult: 2
    decay_mult: 0
  }
  convolution_param {
    num_output: 16
    kernel_size: 1
    weight_filler {
      type: "xavier"
      std: 0.2
    }
    bias_filler {
      type: "constant"
      value: 0.2
    }
  }
}
layer {
  name: "inception_4a/relu_5x5_reduce"
  type: "ReLU"
  bottom: "inception_4a/5x5_reduce"
  top: "inception_4a/5x5_reduce"
}
layer {
  name: "inception_4a/5x5"
  type: "Convolution"
  bottom: "inception_4a/5x5_reduce"
  top: "inception_4a/5x5"
  param {
    lr_mult: 1
    decay_mult: 1
  }
  param {
    lr_mult: 2
    decay_mult: 0
  }
  convolution_param {
    num_output: 48
    pad: 2
    kernel_size: 5
    weight_filler {
      type: "xavier"
      std: 0.03
    }
    bias_filler {
      type: "constant"
      value: 0.2
    }
  }
}
layer {
  name: "inception_4a/relu_5x5"
  type: "ReLU"
  bottom: "inception_4a/5x5"
  top: "inception_4a/5x5"
}
layer {
  name: "inception_4a/pool"
  type: "Pooling"
  bottom: "pool3/3x3_s2"
  top: "inception_4a/pool"
  pooling_param {
    pool: MAX
    kernel_size: 3
    stride: 1
    pad: 1
  }
}
layer {
  name: "inception_4a/pool_proj"
  type: "Convolution"
  bottom: "inception_4a/pool"
  top: "inception_4a/pool_proj"
  param {
    lr_mult: 1
    decay_mult: 1
  }
  param {
    lr_mult: 2
    decay_mult: 0
  }
  convolution_param {
    num_output: 64
    kernel_size: 1
    weight_filler {
      type: "xavier"
      std: 0.1
    }
    bias_filler {
      type: "constant"
      value: 0.2
    }
  }
}
layer {
  name: "inception_4a/relu_pool_proj"
  type: "ReLU"
  bottom: "inception_4a/pool_proj"
  top: "inception_4a/pool_proj"
}
layer {
  name: "inception_4a/output"
  type: "Concat"
  bottom: "inception_4a/1x1"
  bottom: "inception_4a/3x3"
  bottom: "inception_4a/5x5"
  bottom: "inception_4a/pool_proj"
  top: "inception_4a/output"
}
layer {
  name: "inception_4b/1x1"
  type: "Convolution"
  bottom: "inception_4a/output"
  top: "inception_4b/1x1"
  param {
    lr_mult: 1
    decay_mult: 1
  }
  param {
    lr_mult: 2
    decay_mult: 0
  }
  convolution_param {
    num_output: 160
    kernel_size: 1
    weight_filler {
      type: "xavier"
      std: 0.03
    }
    bias_filler {
      type: "constant"
      value: 0.2
    }
  }
}
layer {
  name: "inception_4b/relu_1x1"
  type: "ReLU"
  bottom: "inception_4b/1x1"
  top: "inception_4b/1x1"
}
layer {
  name: "inception_4b/3x3_reduce"
  type: "Convolution"
  bottom: "inception_4a/output"
  top: "inception_4b/3x3_reduce"
  param {
    lr_mult: 1
    decay_mult: 1
  }
  param {
    lr_mult: 2
    decay_mult: 0
  }
  convolution_param {
    num_output: 112
    kernel_size: 1
    weight_filler {
      type: "xavier"
      std: 0.09
    }
    bias_filler {
      type: "constant"
      value: 0.2
    }
  }
}
layer {
  name: "inception_4b/relu_3x3_reduce"
  type: "ReLU"
  bottom: "inception_4b/3x3_reduce"
  top: "inception_4b/3x3_reduce"
}
layer {
  name: "inception_4b/3x3"
  type: "Convolution"
  bottom: "inception_4b/3x3_reduce"
  top: "inception_4b/3x3"
  param {
    lr_mult: 1
    decay_mult: 1
  }
  param {
    lr_mult: 2
    decay_mult: 0
  }
  convolution_param {
    num_output: 224
    pad: 1
    kernel_size: 3
    weight_filler {
      type: "xavier"
      std: 0.03
    }
    bias_filler {
      type: "constant"
      value: 0.2
    }
  }
}
layer {
  name: "inception_4b/relu_3x3"
  type: "ReLU"
  bottom: "inception_4b/3x3"
  top: "inception_4b/3x3"
}
layer {
  name: "inception_4b/5x5_reduce"
  type: "Convolution"
  bottom: "inception_4a/output"
  top: "inception_4b/5x5_reduce"
  param {
    lr_mult: 1
    decay_mult: 1
  }
  param {
    lr_mult: 2
    decay_mult: 0
  }
  convolution_param {
    num_output: 24
    kernel_size: 1
    weight_filler {
      type: "xavier"
      std: 0.2
    }
    bias_filler {
      type: "constant"
      value: 0.2
    }
  }
}
layer {
  name: "inception_4b/relu_5x5_reduce"
  type: "ReLU"
  bottom: "inception_4b/5x5_reduce"
  top: "inception_4b/5x5_reduce"
}
layer {
  name: "inception_4b/5x5"
  type: "Convolution"
  bottom: "inception_4b/5x5_reduce"
  top: "inception_4b/5x5"
  param {
    lr_mult: 1
    decay_mult: 1
  }
  param {
    lr_mult: 2
    decay_mult: 0
  }
  convolution_param {
    num_output: 64
    pad: 2
    kernel_size: 5
    weight_filler {
      type: "xavier"
      std: 0.03
    }
    bias_filler {
      type: "constant"
      value: 0.2
    }
  }
}
layer {
  name: "inception_4b/relu_5x5"
  type: "ReLU"
  bottom: "inception_4b/5x5"
  top: "inception_4b/5x5"
}
layer {
  name: "inception_4b/pool"
  type: "Pooling"
  bottom: "inception_4a/output"
  top: "inception_4b/pool"
  pooling_param {
    pool: MAX
    kernel_size: 3
    stride: 1
    pad: 1
  }
}
layer {
  name: "inception_4b/pool_proj"
  type: "Convolution"
  bottom: "inception_4b/pool"
  top: "inception_4b/pool_proj"
  param {
    lr_mult: 1
    decay_mult: 1
  }
  param {
    lr_mult: 2
    decay_mult: 0
  }
  convolution_param {
    num_output: 64
    kernel_size: 1
    weight_filler {
      type: "xavier"
      std: 0.1
    }
    bias_filler {
      type: "constant"
      value: 0.2
    }
  }
}
layer {
  name: "inception_4b/relu_pool_proj"
  type: "ReLU"
  bottom: "inception_4b/pool_proj"
  top: "inception_4b/pool_proj"
}
layer {
  name: "inception_4b/output"
  type: "Concat"
  bottom: "inception_4b/1x1"
  bottom: "inception_4b/3x3"
  bottom: "inception_4b/5x5"
  bottom: "inception_4b/pool_proj"
  top: "inception_4b/output"
}
layer {
  name: "inception_4c/1x1"
  type: "Convolution"
  bottom: "inception_4b/output"
  top: "inception_4c/1x1"
  param {
    lr_mult: 1
    decay_mult: 1
  }
  param {
    lr_mult: 2
    decay_mult: 0
  }
  convolution_param {
    num_output: 128
    kernel_size: 1
    weight_filler {
      type: "xavier"
      std: 0.03
    }
    bias_filler {
      type: "constant"
      value: 0.2
    }
  }
}
layer {
  name: "inception_4c/relu_1x1"
  type: "ReLU"
  bottom: "inception_4c/1x1"
  top: "inception_4c/1x1"
}
layer {
  name: "inception_4c/3x3_reduce"
  type: "Convolution"
  bottom: "inception_4b/output"
  top: "inception_4c/3x3_reduce"
  param {
    lr_mult: 1
    decay_mult: 1
  }
  param {
    lr_mult: 2
    decay_mult: 0
  }
  convolution_param {
    num_output: 128
    kernel_size: 1
    weight_filler {
      type: "xavier"
      std: 0.09
    }
    bias_filler {
      type: "constant"
      value: 0.2
    }
  }
}
layer {
  name: "inception_4c/relu_3x3_reduce"
  type: "ReLU"
  bottom: "inception_4c/3x3_reduce"
  top: "inception_4c/3x3_reduce"
}
layer {
  name: "inception_4c/3x3"
  type: "Convolution"
  bottom: "inception_4c/3x3_reduce"
  top: "inception_4c/3x3"
  param {
    lr_mult: 1
    decay_mult: 1
  }
  param {
    lr_mult: 2
    decay_mult: 0
  }
  convolution_param {
    num_output: 256
    pad: 1
    kernel_size: 3
    weight_filler {
      type: "xavier"
      std: 0.03
    }
    bias_filler {
      type: "constant"
      value: 0.2
    }
  }
}
layer {
  name: "inception_4c/relu_3x3"
  type: "ReLU"
  bottom: "inception_4c/3x3"
  top: "inception_4c/3x3"
}
layer {
  name: "inception_4c/5x5_reduce"
  type: "Convolution"
  bottom: "inception_4b/output"
  top: "inception_4c/5x5_reduce"
  param {
    lr_mult: 1
    decay_mult: 1
  }
  param {
    lr_mult: 2
    decay_mult: 0
  }
  convolution_param {
    num_output: 24
    kernel_size: 1
    weight_filler {
      type: "xavier"
      std: 0.2
    }
    bias_filler {
      type: "constant"
      value: 0.2
    }
  }
}
layer {
  name: "inception_4c/relu_5x5_reduce"
  type: "ReLU"
  bottom: "inception_4c/5x5_reduce"
  top: "inception_4c/5x5_reduce"
}
layer {
  name: "inception_4c/5x5"
  type: "Convolution"
  bottom: "inception_4c/5x5_reduce"
  top: "inception_4c/5x5"
  param {
    lr_mult: 1
    decay_mult: 1
  }
  param {
    lr_mult: 2
    decay_mult: 0
  }
  convolution_param {
    num_output: 64
    pad: 2
    kernel_size: 5
    weight_filler {
      type: "xavier"
      std: 0.03
    }
    bias_filler {
      type: "constant"
      value: 0.2
    }
  }
}
layer {
  name: "inception_4c/relu_5x5"
  type: "ReLU"
  bottom: "inception_4c/5x5"
  top: "inception_4c/5x5"
}
layer {
  name: "inception_4c/pool"
  type: "Pooling"
  bottom: "inception_4b/output"
  top: "inception_4c/pool"
  pooling_param {
    pool: MAX
    kernel_size: 3
    stride: 1
    pad: 1
  }
}
layer {
  name: "inception_4c/pool_proj"
  type: "Convolution"
  bottom: "inception_4c/pool"
  top: "inception_4c/pool_proj"
  param {
    lr_mult: 1
    decay_mult: 1
  }
  param {
    lr_mult: 2
    decay_mult: 0
  }
  convolution_param {
    num_output: 64
    kernel_size: 1
    weight_filler {
      type: "xavier"
      std: 0.1
    }
    bias_filler {
      type: "constant"
      value: 0.2
    }
  }
}
layer {
  name: "inception_4c/relu_pool_proj"
  type: "ReLU"
  bottom: "inception_4c/pool_proj"
  top: "inception_4c/pool_proj"
}
layer {
  name: "inception_4c/output"
  type: "Concat"
  bottom: "inception_4c/1x1"
  bottom: "inception_4c/3x3"
  bottom: "inception_4c/5x5"
  bottom: "inception_4c/pool_proj"
  top: "inception_4c/output"
}
layer {
  name: "inception_4d/1x1"
  type: "Convolution"
  bottom: "inception_4c/output"
  top: "inception_4d/1x1"
  param {
    lr_mult: 1
    decay_mult: 1
  }
  param {
    lr_mult: 2
    decay_mult: 0
  }
  convolution_param {
    num_output: 112
    kernel_size: 1
    weight_filler {
      type: "xavier"
      std: 0.03
    }
    bias_filler {
      type: "constant"
      value: 0.2
    }
  }
}
layer {
  name: "inception_4d/relu_1x1"
  type: "ReLU"
  bottom: "inception_4d/1x1"
  top: "inception_4d/1x1"
}
layer {
  name: "inception_4d/3x3_reduce"
  type: "Convolution"
  bottom: "inception_4c/output"
  top: "inception_4d/3x3_reduce"
  param {
    lr_mult: 1
    decay_mult: 1
  }
  param {
    lr_mult: 2
    decay_mult: 0
  }
  convolution_param {
    num_output: 144
    kernel_size: 1
    weight_filler {
      type: "xavier"
      std: 0.09
    }
    bias_filler {
      type: "constant"
      value: 0.2
    }
  }
}
layer {
  name: "inception_4d/relu_3x3_reduce"
  type: "ReLU"
  bottom: "inception_4d/3x3_reduce"
  top: "inception_4d/3x3_reduce"
}
layer {
  name: "inception_4d/3x3"
  type: "Convolution"
  bottom: "inception_4d/3x3_reduce"
  top: "inception_4d/3x3"
  param {
    lr_mult: 1
    decay_mult: 1
  }
  param {
    lr_mult: 2
    decay_mult: 0
  }
  convolution_param {
    num_output: 288
    pad: 1
    kernel_size: 3
    weight_filler {
      type: "xavier"
      std: 0.03
    }
    bias_filler {
      type: "constant"
      value: 0.2
    }
  }
}
layer {
  name: "inception_4d/relu_3x3"
  type: "ReLU"
  bottom: "inception_4d/3x3"
  top: "inception_4d/3x3"
}
layer {
  name: "inception_4d/5x5_reduce"
  type: "Convolution"
  bottom: "inception_4c/output"
  top: "inception_4d/5x5_reduce"
  param {
    lr_mult: 1
    decay_mult: 1
  }
  param {
    lr_mult: 2
    decay_mult: 0
  }
  convolution_param {
    num_output: 32
    kernel_size: 1
    weight_filler {
      type: "xavier"
      std: 0.2
    }
    bias_filler {
      type: "constant"
      value: 0.2
    }
  }
}
layer {
  name: "inception_4d/relu_5x5_reduce"
  type: "ReLU"
  bottom: "inception_4d/5x5_reduce"
  top: "inception_4d/5x5_reduce"
}
layer {
  name: "inception_4d/5x5"
  type: "Convolution"
  bottom: "inception_4d/5x5_reduce"
  top: "inception_4d/5x5"
  param {
    lr_mult: 1
    decay_mult: 1
  }
  param {
    lr_mult: 2
    decay_mult: 0
  }
  convolution_param {
    num_output: 64
    pad: 2
    kernel_size: 5
    weight_filler {
      type: "xavier"
      std: 0.03
    }
    bias_filler {
      type: "constant"
      value: 0.2
    }
  }
}
layer {
  name: "inception_4d/relu_5x5"
  type: "ReLU"
  bottom: "inception_4d/5x5"
  top: "inception_4d/5x5"
}
layer {
  name: "inception_4d/pool"
  type: "Pooling"
  bottom: "inception_4c/output"
  top: "inception_4d/pool"
  pooling_param {
    pool: MAX
    kernel_size: 3
    stride: 1
    pad: 1
  }
}
layer {
  name: "inception_4d/pool_proj"
  type: "Convolution"
  bottom: "inception_4d/pool"
  top: "inception_4d/pool_proj"
  param {
    lr_mult: 1
    decay_mult: 1
  }
  param {
    lr_mult: 2
    decay_mult: 0
  }
  convolution_param {
    num_output: 64
    kernel_size: 1
    weight_filler {
      type: "xavier"
      std: 0.1
    }
    bias_filler {
      type: "constant"
      value: 0.2
    }
  }
}
layer {
  name: "inception_4d/relu_pool_proj"
  type: "ReLU"
  bottom: "inception_4d/pool_proj"
  top: "inception_4d/pool_proj"
}
layer {
  name: "inception_4d/output"
  type: "Concat"
  bottom: "inception_4d/1x1"
  bottom: "inception_4d/3x3"
  bottom: "inception_4d/5x5"
  bottom: "inception_4d/pool_proj"
  top: "inception_4d/output"
}
layer {
  name: "inception_4e/1x1"
  type: "Convolution"
  bottom: "inception_4d/output"
  top: "inception_4e/1x1"
  param {
    lr_mult: 1
    decay_mult: 1
  }
  param {
    lr_mult: 2
    decay_mult: 0
  }
  convolution_param {
    num_output: 256
    kernel_size: 1
    weight_filler {
      type: "xavier"
      std: 0.03
    }
    bias_filler {
      type: "constant"
      value: 0.2
    }
  }
}
layer {
  name: "inception_4e/relu_1x1"
  type: "ReLU"
  bottom: "inception_4e/1x1"
  top: "inception_4e/1x1"
}
layer {
  name: "inception_4e/3x3_reduce"
  type: "Convolution"
  bottom: "inception_4d/output"
  top: "inception_4e/3x3_reduce"
  param {
    lr_mult: 1
    decay_mult: 1
  }
  param {
    lr_mult: 2
    decay_mult: 0
  }
  convolution_param {
    num_output: 160
    kernel_size: 1
    weight_filler {
      type: "xavier"
      std: 0.09
    }
    bias_filler {
      type: "constant"
      value: 0.2
    }
  }
}
layer {
  name: "inception_4e/relu_3x3_reduce"
  type: "ReLU"
  bottom: "inception_4e/3x3_reduce"
  top: "inception_4e/3x3_reduce"
}
layer {
  name: "inception_4e/3x3"
  type: "Convolution"
  bottom: "inception_4e/3x3_reduce"
  top: "inception_4e/3x3"
  param {
    lr_mult: 1
    decay_mult: 1
  }
  param {
    lr_mult: 2
    decay_mult: 0
  }
  convolution_param {
    num_output: 320
    pad: 1
    kernel_size: 3
    weight_filler {
      type: "xavier"
      std: 0.03
    }
    bias_filler {
      type: "constant"
      value: 0.2
    }
  }
}
layer {
  name: "inception_4e/relu_3x3"
  type: "ReLU"
  bottom: "inception_4e/3x3"
  top: "inception_4e/3x3"
}
layer {
  name: "inception_4e/5x5_reduce"
  type: "Convolution"
  bottom: "inception_4d/output"
  top: "inception_4e/5x5_reduce"
  param {
    lr_mult: 1
    decay_mult: 1
  }
  param {
    lr_mult: 2
    decay_mult: 0
  }
  convolution_param {
    num_output: 32
    kernel_size: 1
    weight_filler {
      type: "xavier"
      std: 0.2
    }
    bias_filler {
      type: "constant"
      value: 0.2
    }
  }
}
layer {
  name: "inception_4e/relu_5x5_reduce"
  type: "ReLU"
  bottom: "inception_4e/5x5_reduce"
  top: "inception_4e/5x5_reduce"
}
layer {
  name: "inception_4e/5x5"
  type: "Convolution"
  bottom: "inception_4e/5x5_reduce"
  top: "inception_4e/5x5"
  param {
    lr_mult: 1
    decay_mult: 1
  }
  param {
    lr_mult: 2
    decay_mult: 0
  }
  convolution_param {
    num_output: 128
    pad: 2
    kernel_size: 5
    weight_filler {
      type: "xavier"
      std: 0.03
    }
    bias_filler {
      type: "constant"
      value: 0.2
    }
  }
}
layer {
  name: "inception_4e/relu_5x5"
  type: "ReLU"
  bottom: "inception_4e/5x5"
  top: "inception_4e/5x5"
}
layer {
  name: "inception_4e/pool"
  type: "Pooling"
  bottom: "inception_4d/output"
  top: "inception_4e/pool"
  pooling_param {
    pool: MAX
    kernel_size: 3
    stride: 1
    pad: 1
  }
}
layer {
  name: "inception_4e/pool_proj"
  type: "Convolution"
  bottom: "inception_4e/pool"
  top: "inception_4e/pool_proj"
  param {
    lr_mult: 1
    decay_mult: 1
  }
  param {
    lr_mult: 2
    decay_mult: 0
  }
  convolution_param {
    num_output: 128
    kernel_size: 1
    weight_filler {
      type: "xavier"
      std: 0.1
    }
    bias_filler {
      type: "constant"
      value: 0.2
    }
  }
}
layer {
  name: "inception_4e/relu_pool_proj"
  type: "ReLU"
  bottom: "inception_4e/pool_proj"
  top: "inception_4e/pool_proj"
}
layer {
  name: "inception_4e/output"
  type: "Concat"
  bottom: "inception_4e/1x1"
  bottom: "inception_4e/3x3"
  bottom: "inception_4e/5x5"
  bottom: "inception_4e/pool_proj"
  top: "inception_4e/output"
}
layer {
  name: "pool4/3x3_s2"
  type: "Pooling"
  bottom: "inception_4e/output"
  top: "pool4/3x3_s2"
  pooling_param {
    pool: MAX
    kernel_size: 3
    stride: 2
  }
}
layer {
  name: "inception_5a/1x1"
  type: "Convolution"
  bottom: "pool4/3x3_s2"
  top: "inception_5a/1x1"
  param {
    lr_mult: 1
    decay_mult: 1
  }
  param {
    lr_mult: 2
    decay_mult: 0
  }
  convolution_param {
    num_output: 256
    kernel_size: 1
    weight_filler {
      type: "xavier"
      std: 0.03
    }
    bias_filler {
      type: "constant"
      value: 0.2
    }
  }
}
layer {
  name: "inception_5a/relu_1x1"
  type: "ReLU"
  bottom: "inception_5a/1x1"
  top: "inception_5a/1x1"
}
layer {
  name: "inception_5a/3x3_reduce"
  type: "Convolution"
  bottom: "pool4/3x3_s2"
  top: "inception_5a/3x3_reduce"
  param {
    lr_mult: 1
    decay_mult: 1
  }
  param {
    lr_mult: 2
    decay_mult: 0
  }
  convolution_param {
    num_output: 160
    kernel_size: 1
    weight_filler {
      type: "xavier"
      std: 0.09
    }
    bias_filler {
      type: "constant"
      value: 0.2
    }
  }
}
layer {
  name: "inception_5a/relu_3x3_reduce"
  type: "ReLU"
  bottom: "inception_5a/3x3_reduce"
  top: "inception_5a/3x3_reduce"
}
layer {
  name: "inception_5a/3x3"
  type: "Convolution"
  bottom: "inception_5a/3x3_reduce"
  top: "inception_5a/3x3"
  param {
    lr_mult: 1
    decay_mult: 1
  }
  param {
    lr_mult: 2
    decay_mult: 0
  }
  convolution_param {
    num_output: 320
    pad: 1
    kernel_size: 3
    weight_filler {
      type: "xavier"
      std: 0.03
    }
    bias_filler {
      type: "constant"
      value: 0.2
    }
  }
}
layer {
  name: "inception_5a/relu_3x3"
  type: "ReLU"
  bottom: "inception_5a/3x3"
  top: "inception_5a/3x3"
}
layer {
  name: "inception_5a/5x5_reduce"
  type: "Convolution"
  bottom: "pool4/3x3_s2"
  top: "inception_5a/5x5_reduce"
  param {
    lr_mult: 1
    decay_mult: 1
  }
  param {
    lr_mult: 2
    decay_mult: 0
  }
  convolution_param {
    num_output: 32
    kernel_size: 1
    weight_filler {
      type: "xavier"
      std: 0.2
    }
    bias_filler {
      type: "constant"
      value: 0.2
    }
I0918 01:56:13.422550   959 layer_factory.hpp:77] Creating layer data
I0918 01:56:13.422551   953 layer_factory.hpp:77] Creating layer data
I0918 01:56:13.422580   953 net.cpp:91] Creating Layer data
I0918 01:56:13.422580   959 net.cpp:91] Creating Layer data
I0918 01:56:13.422595   953 net.cpp:399] data -> data
I0918 01:56:13.422596   959 net.cpp:399] data -> data
I0918 01:56:13.422642   953 net.cpp:141] Setting up data
I0918 01:56:13.422642   959 net.cpp:141] Setting up data
I0918 01:56:13.422662   953 net.cpp:148] Top shape: 10 3 224 224 (1505280)
I0918 01:56:13.422662   959 net.cpp:148] Top shape: 10 3 224 224 (1505280)
I0918 01:56:13.422670   953 net.cpp:156] Memory required for data: 6021120
I0918 01:56:13.422673   959 net.cpp:156] Memory required for data: 6021120
I0918 01:56:13.422683   959 layer_factory.hpp:77] Creating layer conv1/7x7_s2
I0918 01:56:13.422683   953 layer_factory.hpp:77] Creating layer conv1/7x7_s2
I0918 01:56:13.422708   959 net.cpp:91] Creating Layer conv1/7x7_s2
I0918 01:56:13.422708   953 net.cpp:91] Creating Layer conv1/7x7_s2
I0918 01:56:13.422718   959 net.cpp:425] conv1/7x7_s2 <- data
I0918 01:56:13.422719   953 net.cpp:425] conv1/7x7_s2 <- data
I0918 01:56:13.422732   959 net.cpp:399] conv1/7x7_s2 -> conv1/7x7_s2
I0918 01:56:13.422734   953 net.cpp:399] conv1/7x7_s2 -> conv1/7x7_s2
I0918 01:56:14.126464   953 net.cpp:141] Setting up conv1/7x7_s2
I0918 01:56:14.126513   953 net.cpp:148] Top shape: 10 64 112 112 (8028160)
I0918 01:56:14.126519   953 net.cpp:156] Memory required for data: 38133760
I0918 01:56:14.126464   959 net.cpp:141] Setting up conv1/7x7_s2
I0918 01:56:14.126546   953 layer_factory.hpp:77] Creating layer conv1/relu_7x7
I0918 01:56:14.126544   959 net.cpp:148] Top shape: 10 64 112 112 (8028160)
I0918 01:56:14.126560   959 net.cpp:156] Memory required for data: 38133760
I0918 01:56:14.126569   953 net.cpp:91] Creating Layer conv1/relu_7x7
I0918 01:56:14.126575   959 layer_factory.hpp:77] Creating layer conv1/relu_7x7
I0918 01:56:14.126577   953 net.cpp:425] conv1/relu_7x7 <- conv1/7x7_s2
I0918 01:56:14.126585   953 net.cpp:386] conv1/relu_7x7 -> conv1/7x7_s2 (in-place)
I0918 01:56:14.126592   959 net.cpp:91] Creating Layer conv1/relu_7x7
I0918 01:56:14.126598   959 net.cpp:425] conv1/relu_7x7 <- conv1/7x7_s2
I0918 01:56:14.126605   959 net.cpp:386] conv1/relu_7x7 -> conv1/7x7_s2 (in-place)
I0918 01:56:14.127249   953 net.cpp:141] Setting up conv1/relu_7x7
I0918 01:56:14.127254   959 net.cpp:141] Setting up conv1/relu_7x7
I0918 01:56:14.127262   953 net.cpp:148] Top shape: 10 64 112 112 (8028160)
I0918 01:56:14.127267   959 net.cpp:148] Top shape: 10 64 112 112 (8028160)
I0918 01:56:14.127269   953 net.cpp:156] Memory required for data: 70246400
I0918 01:56:14.127274   959 net.cpp:156] Memory required for data: 70246400
I0918 01:56:14.127274   953 layer_factory.hpp:77] Creating layer pool1/3x3_s2
I0918 01:56:14.127279   959 layer_factory.hpp:77] Creating layer pool1/3x3_s2
I0918 01:56:14.127288   953 net.cpp:91] Creating Layer pool1/3x3_s2
I0918 01:56:14.127288   959 net.cpp:91] Creating Layer pool1/3x3_s2
I0918 01:56:14.127297   953 net.cpp:425] pool1/3x3_s2 <- conv1/7x7_s2
I0918 01:56:14.127300   959 net.cpp:425] pool1/3x3_s2 <- conv1/7x7_s2
I0918 01:56:14.127305   953 net.cpp:399] pool1/3x3_s2 -> pool1/3x3_s2
I0918 01:56:14.127311   959 net.cpp:399] pool1/3x3_s2 -> pool1/3x3_s2
I0918 01:56:14.127338   959 net.cpp:141] Setting up pool1/3x3_s2
I0918 01:56:14.127338   953 net.cpp:141] Setting up pool1/3x3_s2
I0918 01:56:14.127351   959 net.cpp:148] Top shape: 10 64 56 56 (2007040)
I0918 01:56:14.127356   953 net.cpp:148] Top shape: 10 64 56 56 (2007040)
I0918 01:56:14.127356   959 net.cpp:156] Memory required for data: 78274560
I0918 01:56:14.127363   953 net.cpp:156] Memory required for data: 78274560
I0918 01:56:14.127367   959 layer_factory.hpp:77] Creating layer pool1/norm1
I0918 01:56:14.127368   953 layer_factory.hpp:77] Creating layer pool1/norm1
I0918 01:56:14.127383   953 net.cpp:91] Creating Layer pool1/norm1
I0918 01:56:14.127383   959 net.cpp:91] Creating Layer pool1/norm1
I0918 01:56:14.127391   953 net.cpp:425] pool1/norm1 <- pool1/3x3_s2
I0918 01:56:14.127395   959 net.cpp:425] pool1/norm1 <- pool1/3x3_s2
I0918 01:56:14.127399   953 net.cpp:399] pool1/norm1 -> pool1/norm1
I0918 01:56:14.127403   959 net.cpp:399] pool1/norm1 -> pool1/norm1
I0918 01:56:14.128051   953 net.cpp:141] Setting up pool1/norm1
I0918 01:56:14.128054   959 net.cpp:141] Setting up pool1/norm1
I0918 01:56:14.128067   953 net.cpp:148] Top shape: 10 64 56 56 (2007040)
I0918 01:56:14.128082   953 net.cpp:156] Memory required for data: 86302720
I0918 01:56:14.128085   959 net.cpp:148] Top shape: 10 64 56 56 (2007040)
I0918 01:56:14.128087   953 layer_factory.hpp:77] Creating layer conv2/3x3_reduce
I0918 01:56:14.128092   959 net.cpp:156] Memory required for data: 86302720
I0918 01:56:14.128096   959 layer_factory.hpp:77] Creating layer conv2/3x3_reduce
I0918 01:56:14.128106   953 net.cpp:91] Creating Layer conv2/3x3_reduce
I0918 01:56:14.128109   959 net.cpp:91] Creating Layer conv2/3x3_reduce
I0918 01:56:14.128111   953 net.cpp:425] conv2/3x3_reduce <- pool1/norm1
I0918 01:56:14.128115   959 net.cpp:425] conv2/3x3_reduce <- pool1/norm1
I0918 01:56:14.128120   953 net.cpp:399] conv2/3x3_reduce -> conv2/3x3_reduce
I0918 01:56:14.128128   959 net.cpp:399] conv2/3x3_reduce -> conv2/3x3_reduce
I0918 01:56:14.130388   953 net.cpp:141] Setting up conv2/3x3_reduce
I0918 01:56:14.130393   959 net.cpp:141] Setting up conv2/3x3_reduce
I0918 01:56:14.130406   953 net.cpp:148] Top shape: 10 64 56 56 (2007040)
I0918 01:56:14.130412   953 net.cpp:156] Memory required for data: 94330880
I0918 01:56:14.130414   959 net.cpp:148] Top shape: 10 64 56 56 (2007040)
I0918 01:56:14.130419   959 net.cpp:156] Memory required for data: 94330880
I0918 01:56:14.130424   953 layer_factory.hpp:77] Creating layer conv2/relu_3x3_reduce
I0918 01:56:14.130434   953 net.cpp:91] Creating Layer conv2/relu_3x3_reduce
I0918 01:56:14.130434   959 layer_factory.hpp:77] Creating layer conv2/relu_3x3_reduce
I0918 01:56:14.130439   953 net.cpp:425] conv2/relu_3x3_reduce <- conv2/3x3_reduce
I0918 01:56:14.130444   959 net.cpp:91] Creating Layer conv2/relu_3x3_reduce
I0918 01:56:14.130446   953 net.cpp:386] conv2/relu_3x3_reduce -> conv2/3x3_reduce (in-place)
I0918 01:56:14.130450   959 net.cpp:425] conv2/relu_3x3_reduce <- conv2/3x3_reduce
I0918 01:56:14.130456   959 net.cpp:386] conv2/relu_3x3_reduce -> conv2/3x3_reduce (in-place)
I0918 01:56:14.131088   953 net.cpp:141] Setting up conv2/relu_3x3_reduce
I0918 01:56:14.131095   959 net.cpp:141] Setting up conv2/relu_3x3_reduce
I0918 01:56:14.131099   953 net.cpp:148] Top shape: 10 64 56 56 (2007040)
I0918 01:56:14.131111   953 net.cpp:156] Memory required for data: 102359040
I0918 01:56:14.131114   959 net.cpp:148] Top shape: 10 64 56 56 (2007040)
I0918 01:56:14.131116   953 layer_factory.hpp:77] Creating layer conv2/3x3
I0918 01:56:14.131119   959 net.cpp:156] Memory required for data: 102359040
I0918 01:56:14.131124   959 layer_factory.hpp:77] Creating layer conv2/3x3
I0918 01:56:14.131130   953 net.cpp:91] Creating Layer conv2/3x3
I0918 01:56:14.131135   953 net.cpp:425] conv2/3x3 <- conv2/3x3_reduce
I0918 01:56:14.131140   959 net.cpp:91] Creating Layer conv2/3x3
I0918 01:56:14.131145   953 net.cpp:399] conv2/3x3 -> conv2/3x3
I0918 01:56:14.131146   959 net.cpp:425] conv2/3x3 <- conv2/3x3_reduce
I0918 01:56:14.131155   959 net.cpp:399] conv2/3x3 -> conv2/3x3
I0918 01:56:14.134659   953 net.cpp:141] Setting up conv2/3x3
I0918 01:56:14.134675   953 net.cpp:148] Top shape: 10 192 56 56 (6021120)
I0918 01:56:14.134681   953 net.cpp:156] Memory required for data: 126443520
I0918 01:56:14.134682   959 net.cpp:141] Setting up conv2/3x3
I0918 01:56:14.134693   953 layer_factory.hpp:77] Creating layer conv2/relu_3x3
I0918 01:56:14.134697   959 net.cpp:148] Top shape: 10 192 56 56 (6021120)
I0918 01:56:14.134702   959 net.cpp:156] Memory required for data: 126443520
I0918 01:56:14.134704   953 net.cpp:91] Creating Layer conv2/relu_3x3
I0918 01:56:14.134711   953 net.cpp:425] conv2/relu_3x3 <- conv2/3x3
I0918 01:56:14.134714   959 layer_factory.hpp:77] Creating layer conv2/relu_3x3
I0918 01:56:14.134717   953 net.cpp:386] conv2/relu_3x3 -> conv2/3x3 (in-place)
I0918 01:56:14.134727   959 net.cpp:91] Creating Layer conv2/relu_3x3
I0918 01:56:14.134733   959 net.cpp:425] conv2/relu_3x3 <- conv2/3x3
I0918 01:56:14.134739   959 net.cpp:386] conv2/relu_3x3 -> conv2/3x3 (in-place)
I0918 01:56:14.135390   953 net.cpp:141] Setting up conv2/relu_3x3
I0918 01:56:14.135396   959 net.cpp:141] Setting up conv2/relu_3x3
I0918 01:56:14.135406   953 net.cpp:148] Top shape: 10 192 56 56 (6021120)
I0918 01:56:14.135411   953 net.cpp:156] Memory required for data: 150528000
I0918 01:56:14.135411   959 net.cpp:148] Top shape: 10 192 56 56 (6021120)
I0918 01:56:14.135416   953 layer_factory.hpp:77] Creating layer conv2/norm2
I0918 01:56:14.135416   959 net.cpp:156] Memory required for data: 150528000
I0918 01:56:14.135428   959 layer_factory.hpp:77] Creating layer conv2/norm2
I0918 01:56:14.135428   953 net.cpp:91] Creating Layer conv2/norm2
I0918 01:56:14.135440   959 net.cpp:91] Creating Layer conv2/norm2
I0918 01:56:14.135442   953 net.cpp:425] conv2/norm2 <- conv2/3x3
I0918 01:56:14.135447   959 net.cpp:425] conv2/norm2 <- conv2/3x3
I0918 01:56:14.135462   959 net.cpp:399] conv2/norm2 -> conv2/norm2
I0918 01:56:14.135465   953 net.cpp:399] conv2/norm2 -> conv2/norm2
I0918 01:56:14.136097   959 net.cpp:141] Setting up conv2/norm2
I0918 01:56:14.136112   959 net.cpp:148] Top shape: 10 192 56 56 (6021120)
I0918 01:56:14.136117   959 net.cpp:156] Memory required for data: 174612480
I0918 01:56:14.136117   953 net.cpp:141] Setting up conv2/norm2
I0918 01:56:14.136122   959 layer_factory.hpp:77] Creating layer pool2/3x3_s2
I0918 01:56:14.136135   953 net.cpp:148] Top shape: 10 192 56 56 (6021120)
I0918 01:56:14.136137   959 net.cpp:91] Creating Layer pool2/3x3_s2
I0918 01:56:14.136142   953 net.cpp:156] Memory required for data: 174612480
I0918 01:56:14.136142   959 net.cpp:425] pool2/3x3_s2 <- conv2/norm2
I0918 01:56:14.136149   953 layer_factory.hpp:77] Creating layer pool2/3x3_s2
I0918 01:56:14.136157   959 net.cpp:399] pool2/3x3_s2 -> pool2/3x3_s2
I0918 01:56:14.136158   953 net.cpp:91] Creating Layer pool2/3x3_s2
I0918 01:56:14.136170   953 net.cpp:425] pool2/3x3_s2 <- conv2/norm2
I0918 01:56:14.136173   959 net.cpp:141] Setting up pool2/3x3_s2
I0918 01:56:14.136178   953 net.cpp:399] pool2/3x3_s2 -> pool2/3x3_s2
I0918 01:56:14.136181   959 net.cpp:148] Top shape: 10 192 28 28 (1505280)
I0918 01:56:14.136185   959 net.cpp:156] Memory required for data: 180633600
I0918 01:56:14.136189   953 net.cpp:141] Setting up pool2/3x3_s2
I0918 01:56:14.136190   959 layer_factory.hpp:77] Creating layer pool2/3x3_s2_pool2/3x3_s2_0_split
I0918 01:56:14.136199   953 net.cpp:148] Top shape: 10 192 28 28 (1505280)
I0918 01:56:14.136204   953 net.cpp:156] Memory required for data: 180633600
I0918 01:56:14.136209   953 layer_factory.hpp:77] Creating layer pool2/3x3_s2_pool2/3x3_s2_0_split
I0918 01:56:14.136212   959 net.cpp:91] Creating Layer pool2/3x3_s2_pool2/3x3_s2_0_split
I0918 01:56:14.136217   959 net.cpp:425] pool2/3x3_s2_pool2/3x3_s2_0_split <- pool2/3x3_s2
I0918 01:56:14.136220   953 net.cpp:91] Creating Layer pool2/3x3_s2_pool2/3x3_s2_0_split
…
I0918 01:56:14.136245   959 net.cpp:399] pool2/3x3_s2_pool2/3x3_s2_0_split -> pool2/3x3_s2_pool2/3x3_s2_0_split_2
I0918 01:56:14.136255   953 net.cpp:399] pool2/3x3_s2_pool2/3x3_s2_0_split -> pool2/3x3_s2_pool2/3x3_s2_0_split_2
I0918 01:56:14.136255   959 net.cpp:399] pool2/3x3_s2_pool2/3x3_s2_0_split -> pool2/3x3_s2_pool2/3x3_s2_0_split_3
I0918 01:56:14.136266   953 net.cpp:399] pool2/3x3_s2_pool2/3x3_s2_0_split -> pool2/3x3_s2_pool2/3x3_s2_0_split_3
I0918 01:56:14.136272   959 net.cpp:141] Setting up pool2/3x3_s2_pool2/3x3_s2_0_split
I0918 01:56:14.136276   953 net.cpp:141] Setting up pool2/3x3_s2_pool2/3x3_s2_0_split
I0918 01:56:14.136283   959 net.cpp:148] Top shape: 10 192 28 28 (1505280)
I0918 01:56:14.136283   953 net.cpp:148] Top shape: 10 192 28 28 (1505280)
I0918 01:56:14.136292   959 net.cpp:148] Top shape: 10 192 28 28 (1505280)
I0918 01:56:14.136296   953 net.cpp:148] Top shape: 10 192 28 28 (1505280)
I0918 01:56:14.136298   959 net.cpp:148] Top shape: 10 192 28 28 (1505280)
I0918 01:56:14.136301   953 net.cpp:148] Top shape: 10 192 28 28 (1505280)
I0918 01:56:14.136304   959 net.cpp:148] Top shape: 10 192 28 28 (1505280)
I0918 01:56:14.136307   953 net.cpp:148] Top shape: 10 192 28 28 (1505280)
I0918 01:56:14.136308   959 net.cpp:156] Memory required for data: 204718080
I0918 01:56:14.136312   953 net.cpp:156] Memory required for data: 204718080
I0918 01:56:14.136313   959 layer_factory.hpp:77] Creating layer inception_3a/1x1
I0918 01:56:14.136317   953 layer_factory.hpp:77] Creating layer inception_3a/1x1
I0918 01:56:14.136327   959 net.cpp:91] Creating Layer inception_3a/1x1
I0918 01:56:14.136333   959 net.cpp:425] inception_3a/1x1 <- pool2/3x3_s2_pool2/3x3_s2_0_split_0
I0918 01:56:14.136334   953 net.cpp:91] Creating Layer inception_3a/1x1
I0918 01:56:14.136340   953 net.cpp:425] inception_3a/1x1 <- pool2/3x3_s2_pool2/3x3_s2_0_split_0
I0918 01:56:14.136355   959 net.cpp:399] inception_3a/1x1 -> inception_3a/1x1
I0918 01:56:14.136358   953 net.cpp:399] inception_3a/1x1 -> inception_3a/1x1
I0918 01:56:14.138900   953 net.cpp:141] Setting up inception_3a/1x1
I0918 01:56:14.138916   953 net.cpp:148] Top shape: 10 64 28 28 (501760)
I0918 01:56:14.138914   959 net.cpp:141] Setting up inception_3a/1x1
I0918 01:56:14.138926   953 net.cpp:156] Memory required for data: 206725120
I0918 01:56:14.138936   959 net.cpp:148] Top shape: 10 64 28 28 (501760)
I0918 01:56:14.138942   953 layer_factory.hpp:77] Creating layer inception_3a/relu_1x1
I0918 01:56:14.138942   959 net.cpp:156] Memory required for data: 206725120
I0918 01:56:14.138952   953 net.cpp:91] Creating Layer inception_3a/relu_1x1
I0918 01:56:14.138958   953 net.cpp:425] inception_3a/relu_1x1 <- inception_3a/1x1
I0918 01:56:14.138958   959 layer_factory.hpp:77] Creating layer inception_3a/relu_1x1
I0918 01:56:14.138968   953 net.cpp:386] inception_3a/relu_1x1 -> inception_3a/1x1 (in-place)
I0918 01:56:14.138977   959 net.cpp:91] Creating Layer inception_3a/relu_1x1
I0918 01:56:14.138983   959 net.cpp:425] inception_3a/relu_1x1 <- inception_3a/1x1
I0918 01:56:14.138990   959 net.cpp:386] inception_3a/relu_1x1 -> inception_3a/1x1 (in-place)
I0918 01:56:14.139639   953 net.cpp:141] Setting up inception_3a/relu_1x1
I0918 01:56:14.139647   959 net.cpp:141] Setting up inception_3a/relu_1x1
I0918 01:56:14.139652   953 net.cpp:148] Top shape: 10 64 28 28 (501760)
I0918 01:56:14.139659   953 net.cpp:156] Memory required for data: 208732160
I0918 01:56:14.139662   959 net.cpp:148] Top shape: 10 64 28 28 (501760)
I0918 01:56:14.139664   953 layer_factory.hpp:77] Creating layer inception_3a/3x3_reduce
I0918 01:56:14.139667   959 net.cpp:156] Memory required for data: 208732160
I0918 01:56:14.139672   959 layer_factory.hpp:77] Creating layer inception_3a/3x3_reduce
I0918 01:56:14.139677   953 net.cpp:91] Creating Layer inception_3a/3x3_reduce
I0918 01:56:14.139683   953 net.cpp:425] inception_3a/3x3_reduce <- pool2/3x3_s2_pool2/3x3_s2_0_split_1
I0918 01:56:14.139686   959 net.cpp:91] Creating Layer inception_3a/3x3_reduce
I0918 01:56:14.139693   959 net.cpp:425] inception_3a/3x3_reduce <- pool2/3x3_s2_pool2/3x3_s2_0_split_1
I0918 01:56:14.139694   953 net.cpp:399] inception_3a/3x3_reduce -> inception_3a/3x3_reduce
I0918 01:56:14.139705   959 net.cpp:399] inception_3a/3x3_reduce -> inception_3a/3x3_reduce
I0918 01:56:14.142477   959 net.cpp:141] Setting up inception_3a/3x3_reduce
I0918 01:56:14.142498   959 net.cpp:148] Top shape: 10 96 28 28 (752640)
I0918 01:56:14.142503   959 net.cpp:156] Memory required for data: 211742720
I0918 01:56:14.142515   959 layer_factory.hpp:77] Creating layer inception_3a/relu_3x3_reduce
I0918 01:56:14.142524   959 net.cpp:91] Creating Layer inception_3a/relu_3x3_reduce
I0918 01:56:14.142529   959 net.cpp:425] inception_3a/relu_3x3_reduce <- inception_3a/3x3_reduce
I0918 01:56:14.142546   959 net.cpp:386] inception_3a/relu_3x3_reduce -> inception_3a/3x3_reduce (in-place)
I0918 01:56:14.142546   953 net.cpp:141] Setting up inception_3a/3x3_reduce
I0918 01:56:14.142562   953 net.cpp:148] Top shape: 10 96 28 28 (752640)
I0918 01:56:14.142568   953 net.cpp:156] Memory required for data: 211742720
I0918 01:56:14.142585   953 layer_factory.hpp:77] Creating layer inception_3a/relu_3x3_reduce
I0918 01:56:14.142594   953 net.cpp:91] Creating Layer inception_3a/relu_3x3_reduce
I0918 01:56:14.142601   953 net.cpp:425] inception_3a/relu_3x3_reduce <- inception_3a/3x3_reduce
I0918 01:56:14.142614   953 net.cpp:386] inception_3a/relu_3x3_reduce -> inception_3a/3x3_reduce (in-place)
I0918 01:56:14.143195   959 net.cpp:141] Setting up inception_3a/relu_3x3_reduce
I0918 01:56:14.143208   959 net.cpp:148] Top shape: 10 96 28 28 (752640)
I0918 01:56:14.143213   959 net.cpp:156] Memory required for data: 214753280
I0918 01:56:14.143218   959 layer_factory.hpp:77] Creating layer inception_3a/3x3
I0918 01:56:14.143216   953 net.cpp:141] Setting up inception_3a/relu_3x3_reduce
I0918 01:56:14.143229   953 net.cpp:148] Top shape: 10 96 28 28 (752640)
I0918 01:56:14.143234   953 net.cpp:156] Memory required for data: 214753280
I0918 01:56:14.143237   959 net.cpp:91] Creating Layer inception_3a/3x3
I0918 01:56:14.143239   953 layer_factory.hpp:77] Creating layer inception_3a/3x3
I0918 01:56:14.143244   959 net.cpp:425] inception_3a/3x3 <- inception_3a/3x3_reduce
I0918 01:56:14.143254   959 net.cpp:399] inception_3a/3x3 -> inception_3a/3x3
I0918 01:56:14.143260   953 net.cpp:91] Creating Layer inception_3a/3x3
I0918 01:56:14.143266   953 net.cpp:425] inception_3a/3x3 <- inception_3a/3x3_reduce
I0918 01:56:14.143275   953 net.cpp:399] inception_3a/3x3 -> inception_3a/3x3
I0918 01:56:14.146646   953 net.cpp:141] Setting up inception_3a/3x3
I0918 01:56:14.146663   953 net.cpp:148] Top shape: 10 128 28 28 (1003520)
I0918 01:56:14.146668   953 net.cpp:156] Memory required for data: 218767360
I0918 01:56:14.146668   959 net.cpp:141] Setting up inception_3a/3x3
I0918 01:56:14.146677   953 layer_factory.hpp:77] Creating layer inception_3a/relu_3x3
I0918 01:56:14.146683   959 net.cpp:148] Top shape: 10 128 28 28 (1003520)
I0918 01:56:14.146688   959 net.cpp:156] Memory required for data: 218767360
I0918 01:56:14.146689   953 net.cpp:91] Creating Layer inception_3a/relu_3x3
I0918 01:56:14.146695   953 net.cpp:425] inception_3a/relu_3x3 <- inception_3a/3x3
I0918 01:56:14.146697   959 layer_factory.hpp:77] Creating layer inception_3a/relu_3x3
I0918 01:56:14.146703   953 net.cpp:386] inception_3a/relu_3x3 -> inception_3a/3x3 (in-place)
I0918 01:56:14.146706   959 net.cpp:91] Creating Layer inception_3a/relu_3x3
I0918 01:56:14.146711   959 net.cpp:425] inception_3a/relu_3x3 <- inception_3a/3x3
I0918 01:56:14.146723   959 net.cpp:386] inception_3a/relu_3x3 -> inception_3a/3x3 (in-place)
I0918 01:56:14.147275   953 net.cpp:141] Setting up inception_3a/relu_3x3
I0918 01:56:14.147287   953 net.cpp:148] Top shape: 10 128 28 28 (1003520)
I0918 01:56:14.147292   953 net.cpp:156] Memory required for data: 222781440
I0918 01:56:14.147297   953 layer_factory.hpp:77] Creating layer inception_3a/5x5_reduce
I0918 01:56:14.147315   953 net.cpp:91] Creating Layer inception_3a/5x5_reduce
I0918 01:56:14.147322   953 net.cpp:425] inception_3a/5x5_reduce <- pool2/3x3_s2_pool2/3x3_s2_0_split_2
I0918 01:56:14.147331   953 net.cpp:399] inception_3a/5x5_reduce -> inception_3a/5x5_reduce
I0918 01:56:14.147346   959 net.cpp:141] Setting up inception_3a/relu_3x3
I0918 01:56:14.147359   959 net.cpp:148] Top shape: 10 128 28 28 (1003520)
I0918 01:56:14.147363   959 net.cpp:156] Memory required for data: 222781440
I0918 01:56:14.147368   959 layer_factory.hpp:77] Creating layer inception_3a/5x5_reduce
I0918 01:56:14.147387   959 net.cpp:91] Creating Layer inception_3a/5x5_reduce
I0918 01:56:14.147392   959 net.cpp:425] inception_3a/5x5_reduce <- pool2/3x3_s2_pool2/3x3_s2_0_split_2
I0918 01:56:14.147403   959 net.cpp:399] inception_3a/5x5_reduce -> inception_3a/5x5_reduce
I0918 01:56:14.149459   959 net.cpp:141] Setting up inception_3a/5x5_reduce
I0918 01:56:14.149476   959 net.cpp:148] Top shape: 10 16 28 28 (125440)
I0918 01:56:14.149480   959 net.cpp:156] Memory required for data: 223283200
I0918 01:56:14.149489   959 layer_factory.hpp:77] Creating layer inception_3a/relu_5x5_reduce
I0918 01:56:14.149500   959 net.cpp:91] Creating Layer inception_3a/relu_5x5_reduce
I0918 01:56:14.149507   959 net.cpp:425] inception_3a/relu_5x5_reduce <- inception_3a/5x5_reduce
I0918 01:56:14.149514   959 net.cpp:386] inception_3a/relu_5x5_reduce -> inception_3a/5x5_reduce (in-place)
I0918 01:56:14.149551   953 net.cpp:141] Setting up inception_3a/5x5_reduce
I0918 01:56:14.149565   953 net.cpp:148] Top shape: 10 16 28 28 (125440)
I0918 01:56:14.149570   953 net.cpp:156] Memory required for data: 223283200
I0918 01:56:14.149579   953 layer_factory.hpp:77] Creating layer inception_3a/relu_5x5_reduce
I0918 01:56:14.149596   953 net.cpp:91] Creating Layer inception_3a/relu_5x5_reduce
I0918 01:56:14.149602   953 net.cpp:425] inception_3a/relu_5x5_reduce <- inception_3a/5x5_reduce
I0918 01:56:14.149610   953 net.cpp:386] inception_3a/relu_5x5_reduce -> inception_3a/5x5_reduce (in-place)
I0918 01:56:14.150213   953 net.cpp:141] Setting up inception_3a/relu_5x5_reduce
I0918 01:56:14.150225   953 net.cpp:148] Top shape: 10 16 28 28 (125440)
I0918 01:56:14.150230   953 net.cpp:156] Memory required for data: 223784960
I0918 01:56:14.150235   953 layer_factory.hpp:77] Creating layer inception_3a/5x5
I0918 01:56:14.150233   959 net.cpp:141] Setting up inception_3a/relu_5x5_reduce
I0918 01:56:14.150249   959 net.cpp:148] Top shape: 10 16 28 28 (125440)
I0918 01:56:14.150254   953 net.cpp:91] Creating Layer inception_3a/5x5
I0918 01:56:14.150254   959 net.cpp:156] Memory required for data: 223784960
I0918 01:56:14.150262   953 net.cpp:425] inception_3a/5x5 <- inception_3a/5x5_reduce
I0918 01:56:14.150265   959 layer_factory.hpp:77] Creating layer inception_3a/5x5
I0918 01:56:14.150271   953 net.cpp:399] inception_3a/5x5 -> inception_3a/5x5
I0918 01:56:14.150281   959 net.cpp:91] Creating Layer inception_3a/5x5
I0918 01:56:14.150288   959 net.cpp:425] inception_3a/5x5 <- inception_3a/5x5_reduce
I0918 01:56:14.150297   959 net.cpp:399] inception_3a/5x5 -> inception_3a/5x5
I0918 01:56:14.153286   959 net.cpp:141] Setting up inception_3a/5x5
I0918 01:56:14.153303   959 net.cpp:148] Top shape: 10 32 28 28 (250880)
I0918 01:56:14.153308   959 net.cpp:156] Memory required for data: 224788480
I0918 01:56:14.153317   959 layer_factory.hpp:77] Creating layer inception_3a/relu_5x5
I0918 01:56:14.153328   959 net.cpp:91] Creating Layer inception_3a/relu_5x5
I0918 01:56:14.153334   959 net.cpp:425] inception_3a/relu_5x5 <- inception_3a/5x5
I0918 01:56:14.153342   959 net.cpp:386] inception_3a/relu_5x5 -> inception_3a/5x5 (in-place)
I0918 01:56:14.153556   953 net.cpp:141] Setting up inception_3a/5x5
I0918 01:56:14.153571   953 net.cpp:148] Top shape: 10 32 28 28 (250880)
I0918 01:56:14.153576   953 net.cpp:156] Memory required for data: 224788480
I0918 01:56:14.153585   953 layer_factory.hpp:77] Creating layer inception_3a/relu_5x5
I0918 01:56:14.153596   953 net.cpp:91] Creating Layer inception_3a/relu_5x5
I0918 01:56:14.153602   953 net.cpp:425] inception_3a/relu_5x5 <- inception_3a/5x5
I0918 01:56:14.153610   953 net.cpp:386] inception_3a/relu_5x5 -> inception_3a/5x5 (in-place)
I0918 01:56:14.154235   953 net.cpp:141] Setting up inception_3a/relu_5x5
I0918 01:56:14.154240   959 net.cpp:141] Setting up inception_3a/relu_5x5
I0918 01:56:14.154249   953 net.cpp:148] Top shape: 10 32 28 28 (250880)
I0918 01:56:14.154253   959 net.cpp:148] Top shape: 10 32 28 28 (250880)
I0918 01:56:14.154254   953 net.cpp:156] Memory required for data: 225792000
I0918 01:56:14.154263   959 net.cpp:156] Memory required for data: 225792000
I0918 01:56:14.154265   953 layer_factory.hpp:77] Creating layer inception_3a/pool
I0918 01:56:14.154268   959 layer_factory.hpp:77] Creating layer inception_3a/pool
I0918 01:56:14.154281   959 net.cpp:91] Creating Layer inception_3a/pool
I0918 01:56:14.154284   953 net.cpp:91] Creating Layer inception_3a/pool
I0918 01:56:14.154287   959 net.cpp:425] inception_3a/pool <- pool2/3x3_s2_pool2/3x3_s2_0_split_3
I0918 01:56:14.154291   953 net.cpp:425] inception_3a/pool <- pool2/3x3_s2_pool2/3x3_s2_0_split_3
I0918 01:56:14.154295   959 net.cpp:399] inception_3a/pool -> inception_3a/pool
I0918 01:56:14.154301   953 net.cpp:399] inception_3a/pool -> inception_3a/pool
I0918 01:56:14.154309   959 net.cpp:141] Setting up inception_3a/pool
I0918 01:56:14.154314   953 net.cpp:141] Setting up inception_3a/pool
I0918 01:56:14.154316   959 net.cpp:148] Top shape: 10 192 28 28 (1505280)
I0918 01:56:14.154321   959 net.cpp:156] Memory required for data: 231813120
I0918 01:56:14.154322   953 net.cpp:148] Top shape: 10 192 28 28 (1505280)
I0918 01:56:14.154325   959 layer_factory.hpp:77] Creating layer inception_3a/pool_proj
I0918 01:56:14.154327   953 net.cpp:156] Memory required for data: 231813120
I0918 01:56:14.154332   953 layer_factory.hpp:77] Creating layer inception_3a/pool_proj
I0918 01:56:14.154342   959 net.cpp:91] Creating Layer inception_3a/pool_proj
I0918 01:56:14.154347   953 net.cpp:91] Creating Layer inception_3a/pool_proj
I0918 01:56:14.154348   959 net.cpp:425] inception_3a/pool_proj <- inception_3a/pool
I0918 01:56:14.154357   953 net.cpp:425] inception_3a/pool_proj <- inception_3a/pool
I0918 01:56:14.154364   959 net.cpp:399] inception_3a/pool_proj -> inception_3a/pool_proj
I0918 01:56:14.154368   953 net.cpp:399] inception_3a/pool_proj -> inception_3a/pool_proj
I0918 01:56:14.156832   953 net.cpp:141] Setting up inception_3a/pool_proj
I0918 01:56:14.156849   953 net.cpp:148] Top shape: 10 32 28 28 (250880)
I0918 01:56:14.156855   953 net.cpp:156] Memory required for data: 232816640
I0918 01:56:14.156855   959 net.cpp:141] Setting up inception_3a/pool_proj
I0918 01:56:14.156872   959 net.cpp:148] Top shape: 10 32 28 28 (250880)
I0918 01:56:14.156873   953 layer_factory.hpp:77] Creating layer inception_3a/relu_pool_proj
I0918 01:56:14.156877   959 net.cpp:156] Memory required for data: 232816640
I0918 01:56:14.156884   953 net.cpp:91] Creating Layer inception_3a/relu_pool_proj
I0918 01:56:14.156890   959 layer_factory.hpp:77] Creating layer inception_3a/relu_pool_proj
I0918 01:56:14.156890   953 net.cpp:425] inception_3a/relu_pool_proj <- inception_3a/pool_proj
I0918 01:56:14.156904   959 net.cpp:91] Creating Layer inception_3a/relu_pool_proj
I0918 01:56:14.156910   959 net.cpp:425] inception_3a/relu_pool_proj <- inception_3a/pool_proj
I0918 01:56:14.156913   953 net.cpp:386] inception_3a/relu_pool_proj -> inception_3a/pool_proj (in-place)
I0918 01:56:14.156921   959 net.cpp:386] inception_3a/relu_pool_proj -> inception_3a/pool_proj (in-place)
I0918 01:56:14.157636   953 net.cpp:141] Setting up inception_3a/relu_pool_proj
I0918 01:56:14.157650   953 net.cpp:148] Top shape: 10 32 28 28 (250880)
I0918 01:56:14.157655   953 net.cpp:156] Memory required for data: 233820160
I0918 01:56:14.157660   953 layer_factory.hpp:77] Creating layer inception_3a/output
I0918 01:56:14.157691   953 net.cpp:91] Creating Layer inception_3a/output
I0918 01:56:14.157697   953 net.cpp:425] inception_3a/output <- inception_3a/1x1
I0918 01:56:14.157704   953 net.cpp:425] inception_3a/output <- inception_3a/3x3
I0918 01:56:14.157709   959 net.cpp:141] Setting up inception_3a/relu_pool_proj
I0918 01:56:14.157711   953 net.cpp:425] inception_3a/output <- inception_3a/5x5
I0918 01:56:14.157729   959 net.cpp:148] Top shape: 10 32 28 28 (250880)
I0918 01:56:14.157733   953 net.cpp:425] inception_3a/output <- inception_3a/pool_proj
I0918 01:56:14.157735   959 net.cpp:156] Memory required for data: 233820160
I0918 01:56:14.157740   959 layer_factory.hpp:77] Creating layer inception_3a/output
I0918 01:56:14.157742   953 net.cpp:399] inception_3a/output -> inception_3a/output
I0918 01:56:14.157752   959 net.cpp:91] Creating Layer inception_3a/output
I0918 01:56:14.157758   959 net.cpp:425] inception_3a/output <- inception_3a/1x1
I0918 01:56:14.157765   959 net.cpp:425] inception_3a/output <- inception_3a/3x3
I0918 01:56:14.157765   953 net.cpp:141] Setting up inception_3a/output
I0918 01:56:14.157770   959 net.cpp:425] inception_3a/output <- inception_3a/5x5
I0918 01:56:14.157773   953 net.cpp:148] Top shape: 10 256 28 28 (2007040)
I0918 01:56:14.157776   959 net.cpp:425] inception_3a/output <- inception_3a/pool_proj
I0918 01:56:14.157778   953 net.cpp:156] Memory required for data: 241848320
I0918 01:56:14.157783   953 layer_factory.hpp:77] Creating layer inception_3a/output_inception_3a/output_0_split
I0918 01:56:14.157788   959 net.cpp:399] inception_3a/output -> inception_3a/output
I0918 01:56:14.157793   953 net.cpp:91] Creating Layer inception_3a/output_inception_3a/output_0_split
I0918 01:56:14.157799   953 net.cpp:425] inception_3a/output_inception_3a/output_0_split <- inception_3a/output
I0918 01:56:14.157799   959 net.cpp:141] Setting up inception_3a/output
I0918 01:56:14.157810   953 net.cpp:399] inception_3a/output_inception_3a/output_0_split -> inception_3a/output_inception_3a/output_0_split_0
I0918 01:56:14.157814   959 net.cpp:148] Top shape: 10 256 28 28 (2007040)
I0918 01:56:14.157820   959 net.cpp:156] Memory required for data: 241848320
I0918 01:56:14.157820   953 net.cpp:399] inception_3a/output_inception_3a/output_0_split -> inception_3a/output_inception_3a/output_0_split_1
I0918 01:56:14.157829   959 layer_factory.hpp:77] Creating layer inception_3a/output_inception_3a/output_0_split
I0918 01:56:14.157836   953 net.cpp:399] inception_3a/output_inception_3a/output_0_split -> inception_3a/output_inception_3a/output_0_split_2
I0918 01:56:14.157837   959 net.cpp:91] Creating Layer inception_3a/output_inception_3a/output_0_split
I0918 01:56:14.157847   959 net.cpp:425] inception_3a/output_inception_3a/output_0_split <- inception_3a/output
I0918 01:56:14.157847   953 net.cpp:399] inception_3a/output_inception_3a/output_0_split -> inception_3a/output_inception_3a/output_0_split_3
I0918 01:56:14.157860   959 net.cpp:399] inception_3a/output_inception_3a/output_0_split -> inception_3a/output_inception_3a/output_0_split_0
I0918 01:56:14.157867   953 net.cpp:141] Setting up inception_3a/output_inception_3a/output_0_split
I0918 01:56:14.157869   959 net.cpp:399] inception_3a/output_inception_3a/output_0_split -> inception_3a/output_inception_3a/output_0_split_1
I0918 01:56:14.157874   953 net.cpp:148] Top shape: 10 256 28 28 (2007040)
I0918 01:56:14.157878   959 net.cpp:399] inception_3a/output_inception_3a/output_0_split -> inception_3a/output_inception_3a/output_0_split_2
I0918 01:56:14.157881   953 net.cpp:148] Top shape: 10 256 28 28 (2007040)
I0918 01:56:14.157886   953 net.cpp:148] Top shape: 10 256 28 28 (2007040)
I0918 01:56:14.157887   959 net.cpp:399] inception_3a/output_inception_3a/output_0_split -> inception_3a/output_inception_3a/output_0_split_3
I0918 01:56:14.157892   953 net.cpp:148] Top shape: 10 256 28 28 (2007040)
I0918 01:56:14.157896   953 net.cpp:156] Memory required for data: 273960960
I0918 01:56:14.157897   959 net.cpp:141] Setting up inception_3a/output_inception_3a/output_0_split
I0918 01:56:14.157901   953 layer_factory.hpp:77] Creating layer inception_3b/1x1
I0918 01:56:14.157904   959 net.cpp:148] Top shape: 10 256 28 28 (2007040)
I0918 01:56:14.157910   959 net.cpp:148] Top shape: 10 256 28 28 (2007040)
I0918 01:56:14.157915   953 net.cpp:91] Creating Layer inception_3b/1x1
I0918 01:56:14.157917   959 net.cpp:148] Top shape: 10 256 28 28 (2007040)
I0918 01:56:14.157924   953 net.cpp:425] inception_3b/1x1 <- inception_3a/output_inception_3a/output_0_split_0
I0918 01:56:14.157928   959 net.cpp:148] Top shape: 10 256 28 28 (2007040)
I0918 01:56:14.157932   959 net.cpp:156] Memory required for data: 273960960
I0918 01:56:14.157937   953 net.cpp:399] inception_3b/1x1 -> inception_3b/1x1
I0918 01:56:14.157938   959 layer_factory.hpp:77] Creating layer inception_3b/1x1
I0918 01:56:14.157963   959 net.cpp:91] Creating Layer inception_3b/1x1
I0918 01:56:14.157969   959 net.cpp:425] inception_3b/1x1 <- inception_3a/output_inception_3a/output_0_split_0
I0918 01:56:14.157979   959 net.cpp:399] inception_3b/1x1 -> inception_3b/1x1
I0918 01:56:14.160552   953 net.cpp:141] Setting up inception_3b/1x1
I0918 01:56:14.160567   959 net.cpp:141] Setting up inception_3b/1x1
I0918 01:56:14.160575   953 net.cpp:148] Top shape: 10 128 28 28 (1003520)
I0918 01:56:14.160580   959 net.cpp:148] Top shape: 10 128 28 28 (1003520)
I0918 01:56:14.160581   953 net.cpp:156] Memory required for data: 277975040
I0918 01:56:14.160589   959 net.cpp:156] Memory required for data: 277975040
I0918 01:56:14.160598   953 layer_factory.hpp:77] Creating layer inception_3b/relu_1x1
I0918 01:56:14.160599   959 layer_factory.hpp:77] Creating layer inception_3b/relu_1x1
I0918 01:56:14.160609   953 net.cpp:91] Creating Layer inception_3b/relu_1x1
I0918 01:56:14.160619   953 net.cpp:425] inception_3b/relu_1x1 <- inception_3b/1x1
I0918 01:56:14.160619   959 net.cpp:91] Creating Layer inception_3b/relu_1x1
I0918 01:56:14.160632   959 net.cpp:425] inception_3b/relu_1x1 <- inception_3b/1x1
I0918 01:56:14.160635   953 net.cpp:386] inception_3b/relu_1x1 -> inception_3b/1x1 (in-place)
I0918 01:56:14.160640   959 net.cpp:386] inception_3b/relu_1x1 -> inception_3b/1x1 (in-place)
I0918 01:56:14.161293   959 net.cpp:141] Setting up inception_3b/relu_1x1
I0918 01:56:14.161308   959 net.cpp:148] Top shape: 10 128 28 28 (1003520)
I0918 01:56:14.161312   959 net.cpp:156] Memory required for data: 281989120
I0918 01:56:14.161317   959 layer_factory.hpp:77] Creating layer inception_3b/3x3_reduce
I0918 01:56:14.161319   953 net.cpp:141] Setting up inception_3b/relu_1x1
I0918 01:56:14.161331   953 net.cpp:148] Top shape: 10 128 28 28 (1003520)
I0918 01:56:14.161335   959 net.cpp:91] Creating Layer inception_3b/3x3_reduce
I0918 01:56:14.161336   953 net.cpp:156] Memory required for data: 281989120
I0918 01:56:14.161345   959 net.cpp:425] inception_3b/3x3_reduce <- inception_3a/output_inception_3a/output_0_split_1
I0918 01:56:14.161348   953 layer_factory.hpp:77] Creating layer inception_3b/3x3_reduce
I0918 01:56:14.161355   959 net.cpp:399] inception_3b/3x3_reduce -> inception_3b/3x3_reduce
I0918 01:56:14.161365   953 net.cpp:91] Creating Layer inception_3b/3x3_reduce
I0918 01:56:14.161372   953 net.cpp:425] inception_3b/3x3_reduce <- inception_3a/output_inception_3a/output_0_split_1
I0918 01:56:14.161383   953 net.cpp:399] inception_3b/3x3_reduce -> inception_3b/3x3_reduce
I0918 01:56:14.163635   953 net.cpp:141] Setting up inception_3b/3x3_reduce
I0918 01:56:14.163650   953 net.cpp:148] Top shape: 10 128 28 28 (1003520)
I0918 01:56:14.163655   953 net.cpp:156] Memory required for data: 286003200
I0918 01:56:14.163664   953 layer_factory.hpp:77] Creating layer inception_3b/relu_3x3_reduce
I0918 01:56:14.163676   953 net.cpp:91] Creating Layer inception_3b/relu_3x3_reduce
I0918 01:56:14.163681   953 net.cpp:425] inception_3b/relu_3x3_reduce <- inception_3b/3x3_reduce
I0918 01:56:14.163688   953 net.cpp:386] inception_3b/relu_3x3_reduce -> inception_3b/3x3_reduce (in-place)
I0918 01:56:14.164474   953 net.cpp:141] Setting up inception_3b/relu_3x3_reduce
I0918 01:56:14.164489   953 net.cpp:148] Top shape: 10 128 28 28 (1003520)
I0918 01:56:14.164494   959 net.cpp:141] Setting up inception_3b/3x3_reduce
I0918 01:56:14.164494   953 net.cpp:156] Memory required for data: 290017280
I0918 01:56:14.164513   959 net.cpp:148] Top shape: 10 128 28 28 (1003520)
I0918 01:56:14.164515   953 layer_factory.hpp:77] Creating layer inception_3b/3x3
I0918 01:56:14.164518   959 net.cpp:156] Memory required for data: 286003200
I0918 01:56:14.164528   959 layer_factory.hpp:77] Creating layer inception_3b/relu_3x3_reduce
I0918 01:56:14.164532   953 net.cpp:91] Creating Layer inception_3b/3x3
I0918 01:56:14.164537   959 net.cpp:91] Creating Layer inception_3b/relu_3x3_reduce
I0918 01:56:14.164540   953 net.cpp:425] inception_3b/3x3 <- inception_3b/3x3_reduce
I0918 01:56:14.164543   959 net.cpp:425] inception_3b/relu_3x3_reduce <- inception_3b/3x3_reduce
I0918 01:56:14.164551   959 net.cpp:386] inception_3b/relu_3x3_reduce -> inception_3b/3x3_reduce (in-place)
I0918 01:56:14.164552   953 net.cpp:399] inception_3b/3x3 -> inception_3b/3x3
I0918 01:56:14.164791   959 net.cpp:141] Setting up inception_3b/relu_3x3_reduce
I0918 01:56:14.164803   959 net.cpp:148] Top shape: 10 128 28 28 (1003520)
I0918 01:56:14.164808   959 net.cpp:156] Memory required for data: 290017280
I0918 01:56:14.164813   959 layer_factory.hpp:77] Creating layer inception_3b/3x3
I0918 01:56:14.164827   959 net.cpp:91] Creating Layer inception_3b/3x3
I0918 01:56:14.164834   959 net.cpp:425] inception_3b/3x3 <- inception_3b/3x3_reduce
I0918 01:56:14.164854   959 net.cpp:399] inception_3b/3x3 -> inception_3b/3x3
I0918 01:56:14.169471   959 net.cpp:141] Setting up inception_3b/3x3
I0918 01:56:14.169500   959 net.cpp:148] Top shape: 10 192 28 28 (1505280)
I0918 01:56:14.169507   959 net.cpp:156] Memory required for data: 296038400
I0918 01:56:14.169518   959 layer_factory.hpp:77] Creating layer inception_3b/relu_3x3
I0918 01:56:14.169569   959 net.cpp:91] Creating Layer inception_3b/relu_3x3
I0918 01:56:14.169584   959 net.cpp:425] inception_3b/relu_3x3 <- inception_3b/3x3
I0918 01:56:14.169600   959 net.cpp:386] inception_3b/relu_3x3 -> inception_3b/3x3 (in-place)
I0918 01:56:14.169657   953 net.cpp:141] Setting up inception_3b/3x3
I0918 01:56:14.169683   953 net.cpp:148] Top shape: 10 192 28 28 (1505280)
I0918 01:56:14.169693   953 net.cpp:156] Memory required for data: 296038400
I0918 01:56:14.169711   953 layer_factory.hpp:77] Creating layer inception_3b/relu_3x3
I0918 01:56:14.169734   953 net.cpp:91] Creating Layer inception_3b/relu_3x3
I0918 01:56:14.169745   953 net.cpp:425] inception_3b/relu_3x3 <- inception_3b/3x3
I0918 01:56:14.169765   953 net.cpp:386] inception_3b/relu_3x3 -> inception_3b/3x3 (in-place)
I0918 01:56:14.170379   959 net.cpp:141] Setting up inception_3b/relu_3x3
I0918 01:56:14.170392   959 net.cpp:148] Top shape: 10 192 28 28 (1505280)
I0918 01:56:14.170397   959 net.cpp:156] Memory required for data: 302059520
I0918 01:56:14.170403   959 layer_factory.hpp:77] Creating layer inception_3b/5x5_reduce
I0918 01:56:14.170420   959 net.cpp:91] Creating Layer inception_3b/5x5_reduce
I0918 01:56:14.170428   959 net.cpp:425] inception_3b/5x5_reduce <- inception_3a/output_inception_3a/output_0_split_2
I0918 01:56:14.170439   959 net.cpp:399] inception_3b/5x5_reduce -> inception_3b/5x5_reduce
I0918 01:56:14.170846   953 net.cpp:141] Setting up inception_3b/relu_3x3
I0918 01:56:14.170869   953 net.cpp:148] Top shape: 10 192 28 28 (1505280)
I0918 01:56:14.170881   953 net.cpp:156] Memory required for data: 302059520
I0918 01:56:14.170891   953 layer_factory.hpp:77] Creating layer inception_3b/5x5_reduce
I0918 01:56:14.170914   953 net.cpp:91] Creating Layer inception_3b/5x5_reduce
I0918 01:56:14.170927   953 net.cpp:425] inception_3b/5x5_reduce <- inception_3a/output_inception_3a/output_0_split_2
I0918 01:56:14.170946   953 net.cpp:399] inception_3b/5x5_reduce -> inception_3b/5x5_reduce
I0918 01:56:14.172283   959 net.cpp:141] Setting up inception_3b/5x5_reduce
I0918 01:56:14.172299   959 net.cpp:148] Top shape: 10 32 28 28 (250880)
I0918 01:56:14.172305   959 net.cpp:156] Memory required for data: 303063040
I0918 01:56:14.172314   959 layer_factory.hpp:77] Creating layer inception_3b/relu_5x5_reduce
I0918 01:56:14.172327   959 net.cpp:91] Creating Layer inception_3b/relu_5x5_reduce
I0918 01:56:14.172333   959 net.cpp:425] inception_3b/relu_5x5_reduce <- inception_3b/5x5_reduce
I0918 01:56:14.172339   959 net.cpp:386] inception_3b/relu_5x5_reduce -> inception_3b/5x5_reduce (in-place)
I0918 01:56:14.173123   959 net.cpp:141] Setting up inception_3b/relu_5x5_reduce
I0918 01:56:14.173137   959 net.cpp:148] Top shape: 10 32 28 28 (250880)
I0918 01:56:14.173142   959 net.cpp:156] Memory required for data: 304066560
I0918 01:56:14.173147   959 layer_factory.hpp:77] Creating layer inception_3b/5x5
I0918 01:56:14.173163   959 net.cpp:91] Creating Layer inception_3b/5x5
I0918 01:56:14.173169   959 net.cpp:425] inception_3b/5x5 <- inception_3b/5x5_reduce
I0918 01:56:14.173182   959 net.cpp:399] inception_3b/5x5 -> inception_3b/5x5
I0918 01:56:14.173884   953 net.cpp:141] Setting up inception_3b/5x5_reduce
I0918 01:56:14.173908   953 net.cpp:148] Top shape: 10 32 28 28 (250880)
I0918 01:56:14.173919   953 net.cpp:156] Memory required for data: 303063040
I0918 01:56:14.173936   953 layer_factory.hpp:77] Creating layer inception_3b/relu_5x5_reduce
I0918 01:56:14.173950   953 net.cpp:91] Creating Layer inception_3b/relu_5x5_reduce
I0918 01:56:14.173964   953 net.cpp:425] inception_3b/relu_5x5_reduce <- inception_3b/5x5_reduce
I0918 01:56:14.173977   953 net.cpp:386] inception_3b/relu_5x5_reduce -> inception_3b/5x5_reduce (in-place)
I0918 01:56:14.175268   953 net.cpp:141] Setting up inception_3b/relu_5x5_reduce
I0918 01:56:14.175292   953 net.cpp:148] Top shape: 10 32 28 28 (250880)
I0918 01:56:14.175302   953 net.cpp:156] Memory required for data: 304066560
I0918 01:56:14.175312   953 layer_factory.hpp:77] Creating layer inception_3b/5x5
I0918 01:56:14.175338   953 net.cpp:91] Creating Layer inception_3b/5x5
I0918 01:56:14.175349   953 net.cpp:425] inception_3b/5x5 <- inception_3b/5x5_reduce
I0918 01:56:14.175372   953 net.cpp:399] inception_3b/5x5 -> inception_3b/5x5
I0918 01:56:14.175581   959 net.cpp:141] Setting up inception_3b/5x5
I0918 01:56:14.175595   959 net.cpp:148] Top shape: 10 96 28 28 (752640)
I0918 01:56:14.175601   959 net.cpp:156] Memory required for data: 307077120
I0918 01:56:14.175609   959 layer_factory.hpp:77] Creating layer inception_3b/relu_5x5
I0918 01:56:14.175624   959 net.cpp:91] Creating Layer inception_3b/relu_5x5
I0918 01:56:14.175631   959 net.cpp:425] inception_3b/relu_5x5 <- inception_3b/5x5
I0918 01:56:14.175638   959 net.cpp:386] inception_3b/relu_5x5 -> inception_3b/5x5 (in-place)
I0918 01:56:14.176028   959 net.cpp:141] Setting up inception_3b/relu_5x5
I0918 01:56:14.176049   959 net.cpp:148] Top shape: 10 96 28 28 (752640)
I0918 01:56:14.176059   959 net.cpp:156] Memory required for data: 310087680
I0918 01:56:14.176064   959 layer_factory.hpp:77] Creating layer inception_3b/pool
I0918 01:56:14.176085   959 net.cpp:91] Creating Layer inception_3b/pool
I0918 01:56:14.176092   959 net.cpp:425] inception_3b/pool <- inception_3a/output_inception_3a/output_0_split_3
I0918 01:56:14.176100   959 net.cpp:399] inception_3b/pool -> inception_3b/pool
I0918 01:56:14.176118   959 net.cpp:141] Setting up inception_3b/pool
I0918 01:56:14.176126   959 net.cpp:148] Top shape: 10 256 28 28 (2007040)
I0918 01:56:14.176129   959 net.cpp:156] Memory required for data: 318115840
I0918 01:56:14.176134   959 layer_factory.hpp:77] Creating layer inception_3b/pool_proj
I0918 01:56:14.176148   959 net.cpp:91] Creating Layer inception_3b/pool_proj
I0918 01:56:14.176154   959 net.cpp:425] inception_3b/pool_proj <- inception_3b/pool
I0918 01:56:14.176162   959 net.cpp:399] inception_3b/pool_proj -> inception_3b/pool_proj
I0918 01:56:14.178128   959 net.cpp:141] Setting up inception_3b/pool_proj
I0918 01:56:14.178143   959 net.cpp:148] Top shape: 10 64 28 28 (501760)
I0918 01:56:14.178148   959 net.cpp:156] Memory required for data: 320122880
I0918 01:56:14.178156   959 layer_factory.hpp:77] Creating layer inception_3b/relu_pool_proj
I0918 01:56:14.178166   959 net.cpp:91] Creating Layer inception_3b/relu_pool_proj
I0918 01:56:14.178172   959 net.cpp:425] inception_3b/relu_pool_proj <- inception_3b/pool_proj
I0918 01:56:14.178179   959 net.cpp:386] inception_3b/relu_pool_proj -> inception_3b/pool_proj (in-place)
I0918 01:56:14.178964   959 net.cpp:141] Setting up inception_3b/relu_pool_proj
I0918 01:56:14.178978   959 net.cpp:148] Top shape: 10 64 28 28 (501760)
I0918 01:56:14.178983   959 net.cpp:156] Memory required for data: 322129920
I0918 01:56:14.178987   959 layer_factory.hpp:77] Creating layer inception_3b/output
I0918 01:56:14.178997   959 net.cpp:91] Creating Layer inception_3b/output
I0918 01:56:14.179003   959 net.cpp:425] inception_3b/output <- inception_3b/1x1
I0918 01:56:14.179008   959 net.cpp:425] inception_3b/output <- inception_3b/3x3
I0918 01:56:14.179014   959 net.cpp:425] inception_3b/output <- inception_3b/5x5
I0918 01:56:14.179020   959 net.cpp:425] inception_3b/output <- inception_3b/pool_proj
I0918 01:56:14.179030   959 net.cpp:399] inception_3b/output -> inception_3b/output
I0918 01:56:14.179044   959 net.cpp:141] Setting up inception_3b/output
I0918 01:56:14.179049   959 net.cpp:148] Top shape: 10 480 28 28 (3763200)
I0918 01:56:14.179054   959 net.cpp:156] Memory required for data: 337182720
I0918 01:56:14.179059   959 layer_factory.hpp:77] Creating layer pool3/3x3_s2
I0918 01:56:14.179066   959 net.cpp:91] Creating Layer pool3/3x3_s2
I0918 01:56:14.179071   959 net.cpp:425] pool3/3x3_s2 <- inception_3b/output
I0918 01:56:14.179077   959 net.cpp:399] pool3/3x3_s2 -> pool3/3x3_s2
I0918 01:56:14.179096   959 net.cpp:141] Setting up pool3/3x3_s2
I0918 01:56:14.179105   959 net.cpp:148] Top shape: 10 480 14 14 (940800)
I0918 01:56:14.179108   959 net.cpp:156] Memory required for data: 340945920
I0918 01:56:14.179113   959 layer_factory.hpp:77] Creating layer pool3/3x3_s2_pool3/3x3_s2_0_split
I0918 01:56:14.179123   959 net.cpp:91] Creating Layer pool3/3x3_s2_pool3/3x3_s2_0_split
I0918 01:56:14.179128   959 net.cpp:425] pool3/3x3_s2_pool3/3x3_s2_0_split <- pool3/3x3_s2
I0918 01:56:14.179136   959 net.cpp:399] pool3/3x3_s2_pool3/3x3_s2_0_split -> pool3/3x3_s2_pool3/3x3_s2_0_split_0
I0918 01:56:14.179142   959 net.cpp:399] pool3/3x3_s2_pool3/3x3_s2_0_split -> pool3/3x3_s2_pool3/3x3_s2_0_split_1
I0918 01:56:14.179150   959 net.cpp:399] pool3/3x3_s2_pool3/3x3_s2_0_split -> pool3/3x3_s2_pool3/3x3_s2_0_split_2
I0918 01:56:14.179158   959 net.cpp:399] pool3/3x3_s2_pool3/3x3_s2_0_split -> pool3/3x3_s2_pool3/3x3_s2_0_split_3
I0918 01:56:14.179172   959 net.cpp:141] Setting up pool3/3x3_s2_pool3/3x3_s2_0_split
I0918 01:56:14.179178   959 net.cpp:148] Top shape: 10 480 14 14 (940800)
I0918 01:56:14.179184   959 net.cpp:148] Top shape: 10 480 14 14 (940800)
I0918 01:56:14.179190   959 net.cpp:148] Top shape: 10 480 14 14 (940800)
I0918 01:56:14.179195   959 net.cpp:148] Top shape: 10 480 14 14 (940800)
I0918 01:56:14.179199   959 net.cpp:156] Memory required for data: 355998720
I0918 01:56:14.179203   959 layer_factory.hpp:77] Creating layer inception_4a/1x1
I0918 01:56:14.179216   959 net.cpp:91] Creating Layer inception_4a/1x1
I0918 01:56:14.179222   959 net.cpp:425] inception_4a/1x1 <- pool3/3x3_s2_pool3/3x3_s2_0_split_0
I0918 01:56:14.179234   959 net.cpp:399] inception_4a/1x1 -> inception_4a/1x1
I0918 01:56:14.179741   953 net.cpp:141] Setting up inception_3b/5x5
I0918 01:56:14.179760   953 net.cpp:148] Top shape: 10 96 28 28 (752640)
I0918 01:56:14.179769   953 net.cpp:156] Memory required for data: 307077120
I0918 01:56:14.179785   953 layer_factory.hpp:77] Creating layer inception_3b/relu_5x5
I0918 01:56:14.179801   953 net.cpp:91] Creating Layer inception_3b/relu_5x5
I0918 01:56:14.179811   953 net.cpp:425] inception_3b/relu_5x5 <- inception_3b/5x5
I0918 01:56:14.179822   953 net.cpp:386] inception_3b/relu_5x5 -> inception_3b/5x5 (in-place)
I0918 01:56:14.181072   953 net.cpp:141] Setting up inception_3b/relu_5x5
I0918 01:56:14.181094   953 net.cpp:148] Top shape: 10 96 28 28 (752640)
I0918 01:56:14.181103   953 net.cpp:156] Memory required for data: 310087680
I0918 01:56:14.181113   953 layer_factory.hpp:77] Creating layer inception_3b/pool
I0918 01:56:14.181126   953 net.cpp:91] Creating Layer inception_3b/pool
I0918 01:56:14.181136   953 net.cpp:425] inception_3b/pool <- inception_3a/output_inception_3a/output_0_split_3
I0918 01:56:14.181154   953 net.cpp:399] inception_3b/pool -> inception_3b/pool
I0918 01:56:14.181174   953 net.cpp:141] Setting up inception_3b/pool
I0918 01:56:14.181187   953 net.cpp:148] Top shape: 10 256 28 28 (2007040)
I0918 01:56:14.181195   953 net.cpp:156] Memory required for data: 318115840
I0918 01:56:14.181202   953 layer_factory.hpp:77] Creating layer inception_3b/pool_proj
I0918 01:56:14.181226   953 net.cpp:91] Creating Layer inception_3b/pool_proj
I0918 01:56:14.181236   953 net.cpp:425] inception_3b/pool_proj <- inception_3b/pool
I0918 01:56:14.181254   953 net.cpp:399] inception_3b/pool_proj -> inception_3b/pool_proj
I0918 01:56:14.181391   959 net.cpp:141] Setting up inception_4a/1x1
I0918 01:56:14.181406   959 net.cpp:148] Top shape: 10 192 14 14 (376320)
I0918 01:56:14.181411   959 net.cpp:156] Memory required for data: 357504000
I0918 01:56:14.181419   959 layer_factory.hpp:77] Creating layer inception_4a/relu_1x1
I0918 01:56:14.181430   959 net.cpp:91] Creating Layer inception_4a/relu_1x1
I0918 01:56:14.181440   959 net.cpp:425] inception_4a/relu_1x1 <- inception_4a/1x1
I0918 01:56:14.181452   959 net.cpp:386] inception_4a/relu_1x1 -> inception_4a/1x1 (in-place)
I0918 01:56:14.182242   959 net.cpp:141] Setting up inception_4a/relu_1x1
I0918 01:56:14.182257   959 net.cpp:148] Top shape: 10 192 14 14 (376320)
I0918 01:56:14.182262   959 net.cpp:156] Memory required for data: 359009280
I0918 01:56:14.182267   959 layer_factory.hpp:77] Creating layer inception_4a/3x3_reduce
I0918 01:56:14.182282   959 net.cpp:91] Creating Layer inception_4a/3x3_reduce
I0918 01:56:14.182288   959 net.cpp:425] inception_4a/3x3_reduce <- pool3/3x3_s2_pool3/3x3_s2_0_split_1
I0918 01:56:14.182301   959 net.cpp:399] inception_4a/3x3_reduce -> inception_4a/3x3_reduce
I0918 01:56:14.184906   959 net.cpp:141] Setting up inception_4a/3x3_reduce
I0918 01:56:14.184922   959 net.cpp:148] Top shape: 10 96 14 14 (188160)
I0918 01:56:14.184927   959 net.cpp:156] Memory required for data: 359761920
I0918 01:56:14.184948   959 layer_factory.hpp:77] Creating layer inception_4a/relu_3x3_reduce
I0918 01:56:14.184957   959 net.cpp:91] Creating Layer inception_4a/relu_3x3_reduce
I0918 01:56:14.184963   959 net.cpp:425] inception_4a/relu_3x3_reduce <- inception_4a/3x3_reduce
I0918 01:56:14.184974   959 net.cpp:386] inception_4a/relu_3x3_reduce -> inception_4a/3x3_reduce (in-place)
I0918 01:56:14.185009   953 net.cpp:141] Setting up inception_3b/pool_proj
I0918 01:56:14.185034   953 net.cpp:148] Top shape: 10 64 28 28 (501760)
I0918 01:56:14.185044   953 net.cpp:156] Memory required for data: 320122880
I0918 01:56:14.185060   953 layer_factory.hpp:77] Creating layer inception_3b/relu_pool_proj
I0918 01:56:14.185073   953 net.cpp:91] Creating Layer inception_3b/relu_pool_proj
I0918 01:56:14.185082   953 net.cpp:425] inception_3b/relu_pool_proj <- inception_3b/pool_proj
I0918 01:56:14.185098   953 net.cpp:386] inception_3b/relu_pool_proj -> inception_3b/pool_proj (in-place)
I0918 01:56:14.185674   959 net.cpp:141] Setting up inception_4a/relu_3x3_reduce
I0918 01:56:14.185689   959 net.cpp:148] Top shape: 10 96 14 14 (188160)
I0918 01:56:14.185694   959 net.cpp:156] Memory required for data: 360514560
I0918 01:56:14.185700   959 layer_factory.hpp:77] Creating layer inception_4a/3x3
I0918 01:56:14.185717   959 net.cpp:91] Creating Layer inception_4a/3x3
I0918 01:56:14.185724   959 net.cpp:425] inception_4a/3x3 <- inception_4a/3x3_reduce
I0918 01:56:14.185734   959 net.cpp:399] inception_4a/3x3 -> inception_4a/3x3
I0918 01:56:14.185806   953 net.cpp:141] Setting up inception_3b/relu_pool_proj
I0918 01:56:14.185824   953 net.cpp:148] Top shape: 10 64 28 28 (501760)
I0918 01:56:14.185833   953 net.cpp:156] Memory required for data: 322129920
I0918 01:56:14.185842   953 layer_factory.hpp:77] Creating layer inception_3b/output
I0918 01:56:14.185863   953 net.cpp:91] Creating Layer inception_3b/output
I0918 01:56:14.185873   953 net.cpp:425] inception_3b/output <- inception_3b/1x1
I0918 01:56:14.185883   953 net.cpp:425] inception_3b/output <- inception_3b/3x3
I0918 01:56:14.185892   953 net.cpp:425] inception_3b/output <- inception_3b/5x5
I0918 01:56:14.185901   953 net.cpp:425] inception_3b/output <- inception_3b/pool_proj
I0918 01:56:14.185914   953 net.cpp:399] inception_3b/output -> inception_3b/output
I0918 01:56:14.185930   953 net.cpp:141] Setting up inception_3b/output
I0918 01:56:14.185942   953 net.cpp:148] Top shape: 10 480 28 28 (3763200)
I0918 01:56:14.185950   953 net.cpp:156] Memory required for data: 337182720
I0918 01:56:14.185958   953 layer_factory.hpp:77] Creating layer pool3/3x3_s2
I0918 01:56:14.185974   953 net.cpp:91] Creating Layer pool3/3x3_s2
I0918 01:56:14.185983   953 net.cpp:425] pool3/3x3_s2 <- inception_3b/output
I0918 01:56:14.185995   953 net.cpp:399] pool3/3x3_s2 -> pool3/3x3_s2
I0918 01:56:14.186017   953 net.cpp:141] Setting up pool3/3x3_s2
I0918 01:56:14.186029   953 net.cpp:148] Top shape: 10 480 14 14 (940800)
I0918 01:56:14.186038   953 net.cpp:156] Memory required for data: 340945920
I0918 01:56:14.186044   953 layer_factory.hpp:77] Creating layer pool3/3x3_s2_pool3/3x3_s2_0_split
I0918 01:56:14.186072   953 net.cpp:91] Creating Layer pool3/3x3_s2_pool3/3x3_s2_0_split
I0918 01:56:14.186082   953 net.cpp:425] pool3/3x3_s2_pool3/3x3_s2_0_split <- pool3/3x3_s2
I0918 01:56:14.186096   953 net.cpp:399] pool3/3x3_s2_pool3/3x3_s2_0_split -> pool3/3x3_s2_pool3/3x3_s2_0_split_0
I0918 01:56:14.186111   953 net.cpp:399] pool3/3x3_s2_pool3/3x3_s2_0_split -> pool3/3x3_s2_pool3/3x3_s2_0_split_1
I0918 01:56:14.186125   953 net.cpp:399] pool3/3x3_s2_pool3/3x3_s2_0_split -> pool3/3x3_s2_pool3/3x3_s2_0_split_2
I0918 01:56:14.186137   953 net.cpp:399] pool3/3x3_s2_pool3/3x3_s2_0_split -> pool3/3x3_s2_pool3/3x3_s2_0_split_3
I0918 01:56:14.186154   953 net.cpp:141] Setting up pool3/3x3_s2_pool3/3x3_s2_0_split
I0918 01:56:14.186166   953 net.cpp:148] Top shape: 10 480 14 14 (940800)
I0918 01:56:14.186175   953 net.cpp:148] Top shape: 10 480 14 14 (940800)
I0918 01:56:14.186187   953 net.cpp:148] Top shape: 10 480 14 14 (940800)
I0918 01:56:14.186197   953 net.cpp:148] Top shape: 10 480 14 14 (940800)
I0918 01:56:14.186204   953 net.cpp:156] Memory required for data: 355998720
I0918 01:56:14.186213   953 layer_factory.hpp:77] Creating layer inception_4a/1x1
I0918 01:56:14.186239   953 net.cpp:91] Creating Layer inception_4a/1x1
I0918 01:56:14.186249   953 net.cpp:425] inception_4a/1x1 <- pool3/3x3_s2_pool3/3x3_s2_0_split_0
I0918 01:56:14.186264   953 net.cpp:399] inception_4a/1x1 -> inception_4a/1x1
I0918 01:56:14.189715   959 net.cpp:141] Setting up inception_4a/3x3
I0918 01:56:14.189733   959 net.cpp:148] Top shape: 10 208 14 14 (407680)
I0918 01:56:14.189738   959 net.cpp:156] Memory required for data: 362145280
I0918 01:56:14.189748   959 layer_factory.hpp:77] Creating layer inception_4a/relu_3x3
I0918 01:56:14.189759   959 net.cpp:91] Creating Layer inception_4a/relu_3x3
I0918 01:56:14.189765   959 net.cpp:425] inception_4a/relu_3x3 <- inception_4a/3x3
I0918 01:56:14.189774   959 net.cpp:386] inception_4a/relu_3x3 -> inception_4a/3x3 (in-place)
I0918 01:56:14.190827   959 net.cpp:141] Setting up inception_4a/relu_3x3
I0918 01:56:14.190845   959 net.cpp:148] Top shape: 10 208 14 14 (407680)
I0918 01:56:14.190852   959 net.cpp:156] Memory required for data: 363776000
I0918 01:56:14.190858   959 layer_factory.hpp:77] Creating layer inception_4a/5x5_reduce
I0918 01:56:14.190872   959 net.cpp:91] Creating Layer inception_4a/5x5_reduce
I0918 01:56:14.190879   959 net.cpp:425] inception_4a/5x5_reduce <- pool3/3x3_s2_pool3/3x3_s2_0_split_2
I0918 01:56:14.190892   959 net.cpp:399] inception_4a/5x5_reduce -> inception_4a/5x5_reduce
I0918 01:56:14.190929   953 net.cpp:141] Setting up inception_4a/1x1
I0918 01:56:14.190953   953 net.cpp:148] Top shape: 10 192 14 14 (376320)
I0918 01:56:14.190963   953 net.cpp:156] Memory required for data: 357504000
I0918 01:56:14.190979   953 layer_factory.hpp:77] Creating layer inception_4a/relu_1x1
I0918 01:56:14.190999   953 net.cpp:91] Creating Layer inception_4a/relu_1x1
I0918 01:56:14.191010   953 net.cpp:425] inception_4a/relu_1x1 <- inception_4a/1x1
I0918 01:56:14.191026   953 net.cpp:386] inception_4a/relu_1x1 -> inception_4a/1x1 (in-place)
I0918 01:56:14.192208   953 net.cpp:141] Setting up inception_4a/relu_1x1
I0918 01:56:14.192230   953 net.cpp:148] Top shape: 10 192 14 14 (376320)
I0918 01:56:14.192240   953 net.cpp:156] Memory required for data: 359009280
I0918 01:56:14.192250   953 layer_factory.hpp:77] Creating layer inception_4a/3x3_reduce
I0918 01:56:14.192272   953 net.cpp:91] Creating Layer inception_4a/3x3_reduce
I0918 01:56:14.192283   953 net.cpp:425] inception_4a/3x3_reduce <- pool3/3x3_s2_pool3/3x3_s2_0_split_1
I0918 01:56:14.192301   953 net.cpp:399] inception_4a/3x3_reduce -> inception_4a/3x3_reduce
I0918 01:56:14.192662   959 net.cpp:141] Setting up inception_4a/5x5_reduce
I0918 01:56:14.192677   959 net.cpp:148] Top shape: 10 16 14 14 (31360)
I0918 01:56:14.192682   959 net.cpp:156] Memory required for data: 363901440
I0918 01:56:14.192692   959 layer_factory.hpp:77] Creating layer inception_4a/relu_5x5_reduce
I0918 01:56:14.192700   959 net.cpp:91] Creating Layer inception_4a/relu_5x5_reduce
I0918 01:56:14.192706   959 net.cpp:425] inception_4a/relu_5x5_reduce <- inception_4a/5x5_reduce
I0918 01:56:14.192714   959 net.cpp:386] inception_4a/relu_5x5_reduce -> inception_4a/5x5_reduce (in-place)
I0918 01:56:14.195569   959 net.cpp:141] Setting up inception_4a/relu_5x5_reduce
I0918 01:56:14.195585   959 net.cpp:148] Top shape: 10 16 14 14 (31360)
I0918 01:56:14.195590   959 net.cpp:156] Memory required for data: 364026880
I0918 01:56:14.195593   959 layer_factory.hpp:77] Creating layer inception_4a/5x5
I0918 01:56:14.195611   959 net.cpp:91] Creating Layer inception_4a/5x5
I0918 01:56:14.195616   959 net.cpp:425] inception_4a/5x5 <- inception_4a/5x5_reduce
I0918 01:56:14.195629   959 net.cpp:399] inception_4a/5x5 -> inception_4a/5x5
I0918 01:56:14.198544   953 net.cpp:141] Setting up inception_4a/3x3_reduce
I0918 01:56:14.198565   953 net.cpp:148] Top shape: 10 96 14 14 (188160)
I0918 01:56:14.198572   953 net.cpp:156] Memory required for data: 359761920
I0918 01:56:14.198599   953 layer_factory.hpp:77] Creating layer inception_4a/relu_3x3_reduce
I0918 01:56:14.198621   953 net.cpp:91] Creating Layer inception_4a/relu_3x3_reduce
I0918 01:56:14.198629   953 net.cpp:425] inception_4a/relu_3x3_reduce <- inception_4a/3x3_reduce
I0918 01:56:14.198640   953 net.cpp:386] inception_4a/relu_3x3_reduce -> inception_4a/3x3_reduce (in-place)
I0918 01:56:14.198647   959 net.cpp:141] Setting up inception_4a/5x5
I0918 01:56:14.198663   959 net.cpp:148] Top shape: 10 48 14 14 (94080)
I0918 01:56:14.198668   959 net.cpp:156] Memory required for data: 364403200
I0918 01:56:14.198676   959 layer_factory.hpp:77] Creating layer inception_4a/relu_5x5
I0918 01:56:14.198685   959 net.cpp:91] Creating Layer inception_4a/relu_5x5
I0918 01:56:14.198691   959 net.cpp:425] inception_4a/relu_5x5 <- inception_4a/5x5
I0918 01:56:14.198698   959 net.cpp:386] inception_4a/relu_5x5 -> inception_4a/5x5 (in-place)
I0918 01:56:14.199355   959 net.cpp:141] Setting up inception_4a/relu_5x5
I0918 01:56:14.199369   959 net.cpp:148] Top shape: 10 48 14 14 (94080)
I0918 01:56:14.199374   959 net.cpp:156] Memory required for data: 364779520
I0918 01:56:14.199379   959 layer_factory.hpp:77] Creating layer inception_4a/pool
I0918 01:56:14.199389   959 net.cpp:91] Creating Layer inception_4a/pool
I0918 01:56:14.199398   959 net.cpp:425] inception_4a/pool <- pool3/3x3_s2_pool3/3x3_s2_0_split_3
I0918 01:56:14.199406   959 net.cpp:399] inception_4a/pool -> inception_4a/pool
I0918 01:56:14.199420   959 net.cpp:141] Setting up inception_4a/pool
I0918 01:56:14.199427   959 net.cpp:148] Top shape: 10 480 14 14 (940800)
I0918 01:56:14.199424   953 net.cpp:141] Setting up inception_4a/relu_3x3_reduce
I0918 01:56:14.199431   959 net.cpp:156] Memory required for data: 368542720
I0918 01:56:14.199442   959 layer_factory.hpp:77] Creating layer inception_4a/pool_proj
I0918 01:56:14.199445   953 net.cpp:148] Top shape: 10 96 14 14 (188160)
I0918 01:56:14.199453   953 net.cpp:156] Memory required for data: 360514560
I0918 01:56:14.199458   959 net.cpp:91] Creating Layer inception_4a/pool_proj
I0918 01:56:14.199460   953 layer_factory.hpp:77] Creating layer inception_4a/3x3
I0918 01:56:14.199465   959 net.cpp:425] inception_4a/pool_proj <- inception_4a/pool
I0918 01:56:14.199476   959 net.cpp:399] inception_4a/pool_proj -> inception_4a/pool_proj
I0918 01:56:14.199484   953 net.cpp:91] Creating Layer inception_4a/3x3
I0918 01:56:14.199494   953 net.cpp:425] inception_4a/3x3 <- inception_4a/3x3_reduce
I0918 01:56:14.199506   953 net.cpp:399] inception_4a/3x3 -> inception_4a/3x3
I0918 01:56:14.200903   959 net.cpp:141] Setting up inception_4a/pool_proj
I0918 01:56:14.200920   959 net.cpp:148] Top shape: 10 64 14 14 (125440)
I0918 01:56:14.200925   959 net.cpp:156] Memory required for data: 369044480
I0918 01:56:14.200934   959 layer_factory.hpp:77] Creating layer inception_4a/relu_pool_proj
I0918 01:56:14.200944   959 net.cpp:91] Creating Layer inception_4a/relu_pool_proj
I0918 01:56:14.200950   959 net.cpp:425] inception_4a/relu_pool_proj <- inception_4a/pool_proj
I0918 01:56:14.200960   959 net.cpp:386] inception_4a/relu_pool_proj -> inception_4a/pool_proj (in-place)
I0918 01:56:14.201189   959 net.cpp:141] Setting up inception_4a/relu_pool_proj
I0918 01:56:14.201200   959 net.cpp:148] Top shape: 10 64 14 14 (125440)
I0918 01:56:14.201205   959 net.cpp:156] Memory required for data: 369546240
I0918 01:56:14.201210   959 layer_factory.hpp:77] Creating layer inception_4a/output
I0918 01:56:14.201218   959 net.cpp:91] Creating Layer inception_4a/output
I0918 01:56:14.201225   959 net.cpp:425] inception_4a/output <- inception_4a/1x1
I0918 01:56:14.201231   959 net.cpp:425] inception_4a/output <- inception_4a/3x3
I0918 01:56:14.201236   959 net.cpp:425] inception_4a/output <- inception_4a/5x5
I0918 01:56:14.201241   959 net.cpp:425] inception_4a/output <- inception_4a/pool_proj
I0918 01:56:14.201248   959 net.cpp:399] inception_4a/output -> inception_4a/output
I0918 01:56:14.201261   959 net.cpp:141] Setting up inception_4a/output
I0918 01:56:14.201267   959 net.cpp:148] Top shape: 10 512 14 14 (1003520)
I0918 01:56:14.201272   959 net.cpp:156] Memory required for data: 373560320
I0918 01:56:14.201275   959 layer_factory.hpp:77] Creating layer inception_4a/output_inception_4a/output_0_split
I0918 01:56:14.201287   959 net.cpp:91] Creating Layer inception_4a/output_inception_4a/output_0_split
I0918 01:56:14.201292   959 net.cpp:425] inception_4a/output_inception_4a/output_0_split <- inception_4a/output
I0918 01:56:14.201299   959 net.cpp:399] inception_4a/output_inception_4a/output_0_split -> inception_4a/output_inception_4a/output_0_split_0
I0918 01:56:14.201310   959 net.cpp:399] inception_4a/output_inception_4a/output_0_split -> inception_4a/output_inception_4a/output_0_split_1
I0918 01:56:14.201319   959 net.cpp:399] inception_4a/output_inception_4a/output_0_split -> inception_4a/output_inception_4a/output_0_split_2
I0918 01:56:14.201328   959 net.cpp:399] inception_4a/output_inception_4a/output_0_split -> inception_4a/output_inception_4a/output_0_split_3
I0918 01:56:14.201339   959 net.cpp:141] Setting up inception_4a/output_inception_4a/output_0_split
I0918 01:56:14.201344   959 net.cpp:148] Top shape: 10 512 14 14 (1003520)
I0918 01:56:14.201350   959 net.cpp:148] Top shape: 10 512 14 14 (1003520)
I0918 01:56:14.201355   959 net.cpp:148] Top shape: 10 512 14 14 (1003520)
I0918 01:56:14.201361   959 net.cpp:148] Top shape: 10 512 14 14 (1003520)
I0918 01:56:14.201365   959 net.cpp:156] Memory required for data: 389616640
I0918 01:56:14.201370   959 layer_factory.hpp:77] Creating layer inception_4b/1x1
I0918 01:56:14.201383   959 net.cpp:91] Creating Layer inception_4b/1x1
I0918 01:56:14.201390   959 net.cpp:425] inception_4b/1x1 <- inception_4a/output_inception_4a/output_0_split_0
I0918 01:56:14.201400   959 net.cpp:399] inception_4b/1x1 -> inception_4b/1x1
I0918 01:56:14.204658   959 net.cpp:141] Setting up inception_4b/1x1
I0918 01:56:14.204674   959 net.cpp:148] Top shape: 10 160 14 14 (313600)
I0918 01:56:14.204679   959 net.cpp:156] Memory required for data: 390871040
I0918 01:56:14.204689   959 layer_factory.hpp:77] Creating layer inception_4b/relu_1x1
I0918 01:56:14.204699   959 net.cpp:91] Creating Layer inception_4b/relu_1x1
I0918 01:56:14.204706   959 net.cpp:425] inception_4b/relu_1x1 <- inception_4b/1x1
I0918 01:56:14.204713   959 net.cpp:386] inception_4b/relu_1x1 -> inception_4b/1x1 (in-place)
I0918 01:56:14.204741   953 net.cpp:141] Setting up inception_4a/3x3
I0918 01:56:14.204758   953 net.cpp:148] Top shape: 10 208 14 14 (407680)
I0918 01:56:14.204766   953 net.cpp:156] Memory required for data: 362145280
I0918 01:56:14.204782   953 layer_factory.hpp:77] Creating layer inception_4a/relu_3x3
I0918 01:56:14.204794   953 net.cpp:91] Creating Layer inception_4a/relu_3x3
I0918 01:56:14.204805   953 net.cpp:425] inception_4a/relu_3x3 <- inception_4a/3x3
I0918 01:56:14.204816   953 net.cpp:386] inception_4a/relu_3x3 -> inception_4a/3x3 (in-place)
I0918 01:56:14.205379   959 net.cpp:141] Setting up inception_4b/relu_1x1
I0918 01:56:14.205391   959 net.cpp:148] Top shape: 10 160 14 14 (313600)
I0918 01:56:14.205396   959 net.cpp:156] Memory required for data: 392125440
I0918 01:56:14.205401   959 layer_factory.hpp:77] Creating layer inception_4b/3x3_reduce
I0918 01:56:14.205416   959 net.cpp:91] Creating Layer inception_4b/3x3_reduce
I0918 01:56:14.205422   959 net.cpp:425] inception_4b/3x3_reduce <- inception_4a/output_inception_4a/output_0_split_1
I0918 01:56:14.205435   959 net.cpp:399] inception_4b/3x3_reduce -> inception_4b/3x3_reduce
I0918 01:56:14.205497   953 net.cpp:141] Setting up inception_4a/relu_3x3
I0918 01:56:14.205514   953 net.cpp:148] Top shape: 10 208 14 14 (407680)
I0918 01:56:14.205521   953 net.cpp:156] Memory required for data: 363776000
I0918 01:56:14.205529   953 layer_factory.hpp:77] Creating layer inception_4a/5x5_reduce
I0918 01:56:14.205559   953 net.cpp:91] Creating Layer inception_4a/5x5_reduce
I0918 01:56:14.205569   953 net.cpp:425] inception_4a/5x5_reduce <- pool3/3x3_s2_pool3/3x3_s2_0_split_2
I0918 01:56:14.205584   953 net.cpp:399] inception_4a/5x5_reduce -> inception_4a/5x5_reduce
I0918 01:56:14.207782   959 net.cpp:141] Setting up inception_4b/3x3_reduce
I0918 01:56:14.207795   959 net.cpp:148] Top shape: 10 112 14 14 (219520)
I0918 01:56:14.207800   959 net.cpp:156] Memory required for data: 393003520
I0918 01:56:14.207809   959 layer_factory.hpp:77] Creating layer inception_4b/relu_3x3_reduce
I0918 01:56:14.207821   959 net.cpp:91] Creating Layer inception_4b/relu_3x3_reduce
I0918 01:56:14.207828   959 net.cpp:425] inception_4b/relu_3x3_reduce <- inception_4b/3x3_reduce
I0918 01:56:14.207835   959 net.cpp:386] inception_4b/relu_3x3_reduce -> inception_4b/3x3_reduce (in-place)
I0918 01:56:14.208575   959 net.cpp:141] Setting up inception_4b/relu_3x3_reduce
I0918 01:56:14.208588   959 net.cpp:148] Top shape: 10 112 14 14 (219520)
I0918 01:56:14.208593   959 net.cpp:156] Memory required for data: 393881600
I0918 01:56:14.208597   959 layer_factory.hpp:77] Creating layer inception_4b/3x3
I0918 01:56:14.208619   959 net.cpp:91] Creating Layer inception_4b/3x3
I0918 01:56:14.208626   959 net.cpp:425] inception_4b/3x3 <- inception_4b/3x3_reduce
I0918 01:56:14.208634   959 net.cpp:399] inception_4b/3x3 -> inception_4b/3x3
I0918 01:56:14.208693   953 net.cpp:141] Setting up inception_4a/5x5_reduce
I0918 01:56:14.208712   953 net.cpp:148] Top shape: 10 16 14 14 (31360)
I0918 01:56:14.208719   953 net.cpp:156] Memory required for data: 363901440
I0918 01:56:14.208732   953 layer_factory.hpp:77] Creating layer inception_4a/relu_5x5_reduce
I0918 01:56:14.208748   953 net.cpp:91] Creating Layer inception_4a/relu_5x5_reduce
I0918 01:56:14.208757   953 net.cpp:425] inception_4a/relu_5x5_reduce <- inception_4a/5x5_reduce
I0918 01:56:14.208767   953 net.cpp:386] inception_4a/relu_5x5_reduce -> inception_4a/5x5_reduce (in-place)
I0918 01:56:14.209278   953 net.cpp:141] Setting up inception_4a/relu_5x5_reduce
I0918 01:56:14.209295   953 net.cpp:148] Top shape: 10 16 14 14 (31360)
I0918 01:56:14.209301   953 net.cpp:156] Memory required for data: 364026880
I0918 01:56:14.209309   953 layer_factory.hpp:77] Creating layer inception_4a/5x5
I0918 01:56:14.209328   953 net.cpp:91] Creating Layer inception_4a/5x5
I0918 01:56:14.209337   953 net.cpp:425] inception_4a/5x5 <- inception_4a/5x5_reduce
I0918 01:56:14.209354   953 net.cpp:399] inception_4a/5x5 -> inception_4a/5x5
I0918 01:56:14.211211   953 net.cpp:141] Setting up inception_4a/5x5
I0918 01:56:14.211225   953 net.cpp:148] Top shape: 10 48 14 14 (94080)
I0918 01:56:14.211230   953 net.cpp:156] Memory required for data: 364403200
I0918 01:56:14.211239   953 layer_factory.hpp:77] Creating layer inception_4a/relu_5x5
I0918 01:56:14.211249   953 net.cpp:91] Creating Layer inception_4a/relu_5x5
I0918 01:56:14.211256   953 net.cpp:425] inception_4a/relu_5x5 <- inception_4a/5x5
I0918 01:56:14.211267   953 net.cpp:386] inception_4a/relu_5x5 -> inception_4a/5x5 (in-place)
I0918 01:56:14.211911   953 net.cpp:141] Setting up inception_4a/relu_5x5
I0918 01:56:14.211923   953 net.cpp:148] Top shape: 10 48 14 14 (94080)
I0918 01:56:14.211928   953 net.cpp:156] Memory required for data: 364779520
I0918 01:56:14.211936   953 layer_factory.hpp:77] Creating layer inception_4a/pool
I0918 01:56:14.211951   953 net.cpp:91] Creating Layer inception_4a/pool
I0918 01:56:14.211959   953 net.cpp:425] inception_4a/pool <- pool3/3x3_s2_pool3/3x3_s2_0_split_3
I0918 01:56:14.211967   953 net.cpp:399] inception_4a/pool -> inception_4a/pool
I0918 01:56:14.211984   953 net.cpp:141] Setting up inception_4a/pool
I0918 01:56:14.211994   953 net.cpp:148] Top shape: 10 480 14 14 (940800)
I0918 01:56:14.211998   953 net.cpp:156] Memory required for data: 368542720
I0918 01:56:14.212003   953 layer_factory.hpp:77] Creating layer inception_4a/pool_proj
I0918 01:56:14.212018   953 net.cpp:91] Creating Layer inception_4a/pool_proj
I0918 01:56:14.212028   953 net.cpp:425] inception_4a/pool_proj <- inception_4a/pool
I0918 01:56:14.212043   953 net.cpp:399] inception_4a/pool_proj -> inception_4a/pool_proj
I0918 01:56:14.212440   959 net.cpp:141] Setting up inception_4b/3x3
I0918 01:56:14.212455   959 net.cpp:148] Top shape: 10 224 14 14 (439040)
I0918 01:56:14.212460   959 net.cpp:156] Memory required for data: 395637760
I0918 01:56:14.212468   959 layer_factory.hpp:77] Creating layer inception_4b/relu_3x3
I0918 01:56:14.212478   959 net.cpp:91] Creating Layer inception_4b/relu_3x3
I0918 01:56:14.212484   959 net.cpp:425] inception_4b/relu_3x3 <- inception_4b/3x3
I0918 01:56:14.212491   959 net.cpp:386] inception_4b/relu_3x3 -> inception_4b/3x3 (in-place)
I0918 01:56:14.213491   959 net.cpp:141] Setting up inception_4b/relu_3x3
I0918 01:56:14.213512   959 net.cpp:148] Top shape: 10 224 14 14 (439040)
I0918 01:56:14.213522   959 net.cpp:156] Memory required for data: 397393920
I0918 01:56:14.213528   959 layer_factory.hpp:77] Creating layer inception_4b/5x5_reduce
I0918 01:56:14.213559   959 net.cpp:91] Creating Layer inception_4b/5x5_reduce
I0918 01:56:14.213567   959 net.cpp:425] inception_4b/5x5_reduce <- inception_4a/output_inception_4a/output_0_split_2
I0918 01:56:14.213578   959 net.cpp:399] inception_4b/5x5_reduce -> inception_4b/5x5_reduce
I0918 01:56:14.215456   953 net.cpp:141] Setting up inception_4a/pool_proj
I0918 01:56:14.215481   953 net.cpp:148] Top shape: 10 64 14 14 (125440)
I0918 01:56:14.215487   953 net.cpp:156] Memory required for data: 369044480
I0918 01:56:14.215497   953 layer_factory.hpp:77] Creating layer inception_4a/relu_pool_proj
I0918 01:56:14.215507   953 net.cpp:91] Creating Layer inception_4a/relu_pool_proj
I0918 01:56:14.215512   953 net.cpp:425] inception_4a/relu_pool_proj <- inception_4a/pool_proj
I0918 01:56:14.215519   953 net.cpp:386] inception_4a/relu_pool_proj -> inception_4a/pool_proj (in-place)
I0918 01:56:14.215894   959 net.cpp:141] Setting up inception_4b/5x5_reduce
I0918 01:56:14.215911   959 net.cpp:148] Top shape: 10 24 14 14 (47040)
I0918 01:56:14.215916   959 net.cpp:156] Memory required for data: 397582080
I0918 01:56:14.215925   959 layer_factory.hpp:77] Creating layer inception_4b/relu_5x5_reduce
I0918 01:56:14.215936   959 net.cpp:91] Creating Layer inception_4b/relu_5x5_reduce
I0918 01:56:14.215942   959 net.cpp:425] inception_4b/relu_5x5_reduce <- inception_4b/5x5_reduce
I0918 01:56:14.215950   959 net.cpp:386] inception_4b/relu_5x5_reduce -> inception_4b/5x5_reduce (in-place)
I0918 01:56:14.216161   953 net.cpp:141] Setting up inception_4a/relu_pool_proj
I0918 01:56:14.216173   953 net.cpp:148] Top shape: 10 64 14 14 (125440)
I0918 01:56:14.216178   953 net.cpp:156] Memory required for data: 369546240
I0918 01:56:14.216183   953 layer_factory.hpp:77] Creating layer inception_4a/output
I0918 01:56:14.216192   953 net.cpp:91] Creating Layer inception_4a/output
I0918 01:56:14.216198   953 net.cpp:425] inception_4a/output <- inception_4a/1x1
I0918 01:56:14.216204   953 net.cpp:425] inception_4a/output <- inception_4a/3x3
I0918 01:56:14.216210   953 net.cpp:425] inception_4a/output <- inception_4a/5x5
I0918 01:56:14.216217   953 net.cpp:425] inception_4a/output <- inception_4a/pool_proj
I0918 01:56:14.216223   953 net.cpp:399] inception_4a/output -> inception_4a/output
I0918 01:56:14.216234   953 net.cpp:141] Setting up inception_4a/output
I0918 01:56:14.216241   953 net.cpp:148] Top shape: 10 512 14 14 (1003520)
I0918 01:56:14.216239   959 net.cpp:141] Setting up inception_4b/relu_5x5_reduce
I0918 01:56:14.216246   953 net.cpp:156] Memory required for data: 373560320
I0918 01:56:14.216251   953 layer_factory.hpp:77] Creating layer inception_4a/output_inception_4a/output_0_split
I0918 01:56:14.216253   959 net.cpp:148] Top shape: 10 24 14 14 (47040)
I0918 01:56:14.216258   959 net.cpp:156] Memory required for data: 397770240
I0918 01:56:14.216262   959 layer_factory.hpp:77] Creating layer inception_4b/5x5
I0918 01:56:14.216264   953 net.cpp:91] Creating Layer inception_4a/output_inception_4a/output_0_split
I0918 01:56:14.216269   953 net.cpp:425] inception_4a/output_inception_4a/output_0_split <- inception_4a/output
I0918 01:56:14.216277   953 net.cpp:399] inception_4a/output_inception_4a/output_0_split -> inception_4a/output_inception_4a/output_0_split_0
I0918 01:56:14.216281   959 net.cpp:91] Creating Layer inception_4b/5x5
I0918 01:56:14.216287   959 net.cpp:425] inception_4b/5x5 <- inception_4b/5x5_reduce
I0918 01:56:14.216289   953 net.cpp:399] inception_4a/output_inception_4a/output_0_split -> inception_4a/output_inception_4a/output_0_split_1
I0918 01:56:14.216296   959 net.cpp:399] inception_4b/5x5 -> inception_4b/5x5
I0918 01:56:14.216300   953 net.cpp:399] inception_4a/output_inception_4a/output_0_split -> inception_4a/output_inception_4a/output_0_split_2
I0918 01:56:14.216307   953 net.cpp:399] inception_4a/output_inception_4a/output_0_split -> inception_4a/output_inception_4a/output_0_split_3
I0918 01:56:14.216318   953 net.cpp:141] Setting up inception_4a/output_inception_4a/output_0_split
I0918 01:56:14.216325   953 net.cpp:148] Top shape: 10 512 14 14 (1003520)
I0918 01:56:14.216331   953 net.cpp:148] Top shape: 10 512 14 14 (1003520)
I0918 01:56:14.216336   953 net.cpp:148] Top shape: 10 512 14 14 (1003520)
I0918 01:56:14.216341   953 net.cpp:148] Top shape: 10 512 14 14 (1003520)
I0918 01:56:14.216344   953 net.cpp:156] Memory required for data: 389616640
I0918 01:56:14.216349   953 layer_factory.hpp:77] Creating layer inception_4b/1x1
I0918 01:56:14.216367   953 net.cpp:91] Creating Layer inception_4b/1x1
I0918 01:56:14.216374   953 net.cpp:425] inception_4b/1x1 <- inception_4a/output_inception_4a/output_0_split_0
I0918 01:56:14.216385   953 net.cpp:399] inception_4b/1x1 -> inception_4b/1x1
I0918 01:56:14.218430   959 net.cpp:141] Setting up inception_4b/5x5
I0918 01:56:14.218446   959 net.cpp:148] Top shape: 10 64 14 14 (125440)
I0918 01:56:14.218451   959 net.cpp:156] Memory required for data: 398272000
I0918 01:56:14.218461   959 layer_factory.hpp:77] Creating layer inception_4b/relu_5x5
I0918 01:56:14.218469   959 net.cpp:91] Creating Layer inception_4b/relu_5x5
I0918 01:56:14.218475   959 net.cpp:425] inception_4b/relu_5x5 <- inception_4b/5x5
I0918 01:56:14.218485   959 net.cpp:386] inception_4b/relu_5x5 -> inception_4b/5x5 (in-place)
I0918 01:56:14.219256   959 net.cpp:141] Setting up inception_4b/relu_5x5
I0918 01:56:14.219270   959 net.cpp:148] Top shape: 10 64 14 14 (125440)
I0918 01:56:14.219275   959 net.cpp:156] Memory required for data: 398773760
I0918 01:56:14.219280   959 layer_factory.hpp:77] Creating layer inception_4b/pool
I0918 01:56:14.219292   959 net.cpp:91] Creating Layer inception_4b/pool
I0918 01:56:14.219298   959 net.cpp:425] inception_4b/pool <- inception_4a/output_inception_4a/output_0_split_3
I0918 01:56:14.219306   959 net.cpp:399] inception_4b/pool -> inception_4b/pool
I0918 01:56:14.219318   959 net.cpp:141] Setting up inception_4b/pool
I0918 01:56:14.219326   959 net.cpp:148] Top shape: 10 512 14 14 (1003520)
I0918 01:56:14.219329   959 net.cpp:156] Memory required for data: 402787840
I0918 01:56:14.219334   959 layer_factory.hpp:77] Creating layer inception_4b/pool_proj
I0918 01:56:14.219352   959 net.cpp:91] Creating Layer inception_4b/pool_proj
I0918 01:56:14.219357   959 net.cpp:425] inception_4b/pool_proj <- inception_4b/pool
I0918 01:56:14.219365   959 net.cpp:399] inception_4b/pool_proj -> inception_4b/pool_proj
I0918 01:56:14.219593   953 net.cpp:141] Setting up inception_4b/1x1
I0918 01:56:14.219606   953 net.cpp:148] Top shape: 10 160 14 14 (313600)
I0918 01:56:14.219611   953 net.cpp:156] Memory required for data: 390871040
I0918 01:56:14.219620   953 layer_factory.hpp:77] Creating layer inception_4b/relu_1x1
I0918 01:56:14.219629   953 net.cpp:91] Creating Layer inception_4b/relu_1x1
I0918 01:56:14.219635   953 net.cpp:425] inception_4b/relu_1x1 <- inception_4b/1x1
I0918 01:56:14.219645   953 net.cpp:386] inception_4b/relu_1x1 -> inception_4b/1x1 (in-place)
I0918 01:56:14.220383   953 net.cpp:141] Setting up inception_4b/relu_1x1
I0918 01:56:14.220398   953 net.cpp:148] Top shape: 10 160 14 14 (313600)
I0918 01:56:14.220403   953 net.cpp:156] Memory required for data: 392125440
I0918 01:56:14.220409   953 layer_factory.hpp:77] Creating layer inception_4b/3x3_reduce
I0918 01:56:14.220425   953 net.cpp:91] Creating Layer inception_4b/3x3_reduce
I0918 01:56:14.220432   953 net.cpp:425] inception_4b/3x3_reduce <- inception_4a/output_inception_4a/output_0_split_1
I0918 01:56:14.220443   953 net.cpp:399] inception_4b/3x3_reduce -> inception_4b/3x3_reduce
I0918 01:56:14.221880   959 net.cpp:141] Setting up inception_4b/pool_proj
I0918 01:56:14.221896   959 net.cpp:148] Top shape: 10 64 14 14 (125440)
I0918 01:56:14.221901   959 net.cpp:156] Memory required for data: 403289600
I0918 01:56:14.221910   959 layer_factory.hpp:77] Creating layer inception_4b/relu_pool_proj
I0918 01:56:14.221920   959 net.cpp:91] Creating Layer inception_4b/relu_pool_proj
I0918 01:56:14.221925   959 net.cpp:425] inception_4b/relu_pool_proj <- inception_4b/pool_proj
I0918 01:56:14.221936   959 net.cpp:386] inception_4b/relu_pool_proj -> inception_4b/pool_proj (in-place)
I0918 01:56:14.222712   959 net.cpp:141] Setting up inception_4b/relu_pool_proj
I0918 01:56:14.222725   959 net.cpp:148] Top shape: 10 64 14 14 (125440)
I0918 01:56:14.222730   959 net.cpp:156] Memory required for data: 403791360
I0918 01:56:14.222735   959 layer_factory.hpp:77] Creating layer inception_4b/output
I0918 01:56:14.222746   959 net.cpp:91] Creating Layer inception_4b/output
I0918 01:56:14.222753   959 net.cpp:425] inception_4b/output <- inception_4b/1x1
I0918 01:56:14.222759   959 net.cpp:425] inception_4b/output <- inception_4b/3x3
I0918 01:56:14.222764   959 net.cpp:425] inception_4b/output <- inception_4b/5x5
I0918 01:56:14.222770   959 net.cpp:425] inception_4b/output <- inception_4b/pool_proj
I0918 01:56:14.222777   959 net.cpp:399] inception_4b/output -> inception_4b/output
I0918 01:56:14.222789   959 net.cpp:141] Setting up inception_4b/output
I0918 01:56:14.222795   959 net.cpp:148] Top shape: 10 512 14 14 (1003520)
I0918 01:56:14.222800   959 net.cpp:156] Memory required for data: 407805440
I0918 01:56:14.222798   953 net.cpp:141] Setting up inception_4b/3x3_reduce
I0918 01:56:14.222805   959 layer_factory.hpp:77] Creating layer inception_4b/output_inception_4b/output_0_split
I0918 01:56:14.222812   953 net.cpp:148] Top shape: 10 112 14 14 (219520)
I0918 01:56:14.222812   959 net.cpp:91] Creating Layer inception_4b/output_inception_4b/output_0_split
I0918 01:56:14.222821   953 net.cpp:156] Memory required for data: 393003520
I0918 01:56:14.222826   959 net.cpp:425] inception_4b/output_inception_4b/output_0_split <- inception_4b/output
I0918 01:56:14.222831   953 layer_factory.hpp:77] Creating layer inception_4b/relu_3x3_reduce
I0918 01:56:14.222836   959 net.cpp:399] inception_4b/output_inception_4b/output_0_split -> inception_4b/output_inception_4b/output_0_split_0
I0918 01:56:14.222841   953 net.cpp:91] Creating Layer inception_4b/relu_3x3_reduce
I0918 01:56:14.222846   959 net.cpp:399] inception_4b/output_inception_4b/output_0_split -> inception_4b/output_inception_4b/output_0_split_1
I0918 01:56:14.222846   953 net.cpp:425] inception_4b/relu_3x3_reduce <- inception_4b/3x3_reduce
I0918 01:56:14.222859   959 net.cpp:399] inception_4b/output_inception_4b/output_0_split -> inception_4b/output_inception_4b/output_0_split_2
I0918 01:56:14.222865   953 net.cpp:386] inception_4b/relu_3x3_reduce -> inception_4b/3x3_reduce (in-place)
I0918 01:56:14.222870   959 net.cpp:399] inception_4b/output_inception_4b/output_0_split -> inception_4b/output_inception_4b/output_0_split_3
I0918 01:56:14.222882   959 net.cpp:141] Setting up inception_4b/output_inception_4b/output_0_split
I0918 01:56:14.222888   959 net.cpp:148] Top shape: 10 512 14 14 (1003520)
I0918 01:56:14.222893   959 net.cpp:148] Top shape: 10 512 14 14 (1003520)
I0918 01:56:14.222899   959 net.cpp:148] Top shape: 10 512 14 14 (1003520)
I0918 01:56:14.222904   959 net.cpp:148] Top shape: 10 512 14 14 (1003520)
I0918 01:56:14.222908   959 net.cpp:156] Memory required for data: 423861760
I0918 01:56:14.222913   959 layer_factory.hpp:77] Creating layer inception_4c/1x1
I0918 01:56:14.222934   959 net.cpp:91] Creating Layer inception_4c/1x1
I0918 01:56:14.222939   959 net.cpp:425] inception_4c/1x1 <- inception_4b/output_inception_4b/output_0_split_0
I0918 01:56:14.222950   959 net.cpp:399] inception_4c/1x1 -> inception_4c/1x1
I0918 01:56:14.223104   953 net.cpp:141] Setting up inception_4b/relu_3x3_reduce
I0918 01:56:14.223117   953 net.cpp:148] Top shape: 10 112 14 14 (219520)
I0918 01:56:14.223122   953 net.cpp:156] Memory required for data: 393881600
I0918 01:56:14.223127   953 layer_factory.hpp:77] Creating layer inception_4b/3x3
I0918 01:56:14.223142   953 net.cpp:91] Creating Layer inception_4b/3x3
I0918 01:56:14.223148   953 net.cpp:425] inception_4b/3x3 <- inception_4b/3x3_reduce
I0918 01:56:14.223157   953 net.cpp:399] inception_4b/3x3 -> inception_4b/3x3
I0918 01:56:14.224684   959 net.cpp:141] Setting up inception_4c/1x1
I0918 01:56:14.224700   959 net.cpp:148] Top shape: 10 128 14 14 (250880)
I0918 01:56:14.224705   959 net.cpp:156] Memory required for data: 424865280
I0918 01:56:14.224714   959 layer_factory.hpp:77] Creating layer inception_4c/relu_1x1
I0918 01:56:14.224723   959 net.cpp:91] Creating Layer inception_4c/relu_1x1
I0918 01:56:14.224730   959 net.cpp:425] inception_4c/relu_1x1 <- inception_4c/1x1
I0918 01:56:14.224740   959 net.cpp:386] inception_4c/relu_1x1 -> inception_4c/1x1 (in-place)
I0918 01:56:14.225152   959 net.cpp:141] Setting up inception_4c/relu_1x1
I0918 01:56:14.225167   959 net.cpp:148] Top shape: 10 128 14 14 (250880)
I0918 01:56:14.225172   959 net.cpp:156] Memory required for data: 425868800
I0918 01:56:14.225178   959 layer_factory.hpp:77] Creating layer inception_4c/3x3_reduce
I0918 01:56:14.225200   959 net.cpp:91] Creating Layer inception_4c/3x3_reduce
I0918 01:56:14.225209   959 net.cpp:425] inception_4c/3x3_reduce <- inception_4b/output_inception_4b/output_0_split_1
I0918 01:56:14.225222   959 net.cpp:399] inception_4c/3x3_reduce -> inception_4c/3x3_reduce
I0918 01:56:14.226696   953 net.cpp:141] Setting up inception_4b/3x3
I0918 01:56:14.226712   953 net.cpp:148] Top shape: 10 224 14 14 (439040)
I0918 01:56:14.226717   953 net.cpp:156] Memory required for data: 395637760
I0918 01:56:14.226727   953 layer_factory.hpp:77] Creating layer inception_4b/relu_3x3
I0918 01:56:14.226744   953 net.cpp:91] Creating Layer inception_4b/relu_3x3
I0918 01:56:14.226752   953 net.cpp:425] inception_4b/relu_3x3 <- inception_4b/3x3
I0918 01:56:14.226758   953 net.cpp:386] inception_4b/relu_3x3 -> inception_4b/3x3 (in-place)
I0918 01:56:14.227406   953 net.cpp:141] Setting up inception_4b/relu_3x3
I0918 01:56:14.227421   953 net.cpp:148] Top shape: 10 224 14 14 (439040)
I0918 01:56:14.227426   953 net.cpp:156] Memory required for data: 397393920
I0918 01:56:14.227430   953 layer_factory.hpp:77] Creating layer inception_4b/5x5_reduce
I0918 01:56:14.227458   953 net.cpp:91] Creating Layer inception_4b/5x5_reduce
I0918 01:56:14.227464   953 net.cpp:425] inception_4b/5x5_reduce <- inception_4a/output_inception_4a/output_0_split_2
I0918 01:56:14.227474   953 net.cpp:399] inception_4b/5x5_reduce -> inception_4b/5x5_reduce
I0918 01:56:14.228401   959 net.cpp:141] Setting up inception_4c/3x3_reduce
I0918 01:56:14.228421   959 net.cpp:148] Top shape: 10 128 14 14 (250880)
I0918 01:56:14.228431   959 net.cpp:156] Memory required for data: 426872320
I0918 01:56:14.228442   959 layer_factory.hpp:77] Creating layer inception_4c/relu_3x3_reduce
I0918 01:56:14.228456   959 net.cpp:91] Creating Layer inception_4c/relu_3x3_reduce
I0918 01:56:14.228462   959 net.cpp:425] inception_4c/relu_3x3_reduce <- inception_4c/3x3_reduce
I0918 01:56:14.228469   959 net.cpp:386] inception_4c/relu_3x3_reduce -> inception_4c/3x3_reduce (in-place)
I0918 01:56:14.229300   959 net.cpp:141] Setting up inception_4c/relu_3x3_reduce
I0918 01:56:14.229315   959 net.cpp:148] Top shape: 10 128 14 14 (250880)
I0918 01:56:14.229321   959 net.cpp:156] Memory required for data: 427875840
I0918 01:56:14.229326   959 layer_factory.hpp:77] Creating layer inception_4c/3x3
I0918 01:56:14.229343   959 net.cpp:91] Creating Layer inception_4c/3x3
I0918 01:56:14.229349   959 net.cpp:425] inception_4c/3x3 <- inception_4c/3x3_reduce
I0918 01:56:14.229359   959 net.cpp:399] inception_4c/3x3 -> inception_4c/3x3
I0918 01:56:14.229440   953 net.cpp:141] Setting up inception_4b/5x5_reduce
I0918 01:56:14.229456   953 net.cpp:148] Top shape: 10 24 14 14 (47040)
I0918 01:56:14.229461   953 net.cpp:156] Memory required for data: 397582080
I0918 01:56:14.229471   953 layer_factory.hpp:77] Creating layer inception_4b/relu_5x5_reduce
I0918 01:56:14.229480   953 net.cpp:91] Creating Layer inception_4b/relu_5x5_reduce
I0918 01:56:14.229485   953 net.cpp:425] inception_4b/relu_5x5_reduce <- inception_4b/5x5_reduce
I0918 01:56:14.229492   953 net.cpp:386] inception_4b/relu_5x5_reduce -> inception_4b/5x5_reduce (in-place)
I0918 01:56:14.229967   953 net.cpp:141] Setting up inception_4b/relu_5x5_reduce
I0918 01:56:14.229980   953 net.cpp:148] Top shape: 10 24 14 14 (47040)
I0918 01:56:14.229985   953 net.cpp:156] Memory required for data: 397770240
I0918 01:56:14.229990   953 layer_factory.hpp:77] Creating layer inception_4b/5x5
I0918 01:56:14.230006   953 net.cpp:91] Creating Layer inception_4b/5x5
I0918 01:56:14.230013   953 net.cpp:425] inception_4b/5x5 <- inception_4b/5x5_reduce
I0918 01:56:14.230026   953 net.cpp:399] inception_4b/5x5 -> inception_4b/5x5
I0918 01:56:14.231762   953 net.cpp:141] Setting up inception_4b/5x5
I0918 01:56:14.231780   953 net.cpp:148] Top shape: 10 64 14 14 (125440)
I0918 01:56:14.231784   953 net.cpp:156] Memory required for data: 398272000
I0918 01:56:14.231793   953 layer_factory.hpp:77] Creating layer inception_4b/relu_5x5
I0918 01:56:14.231806   953 net.cpp:91] Creating Layer inception_4b/relu_5x5
I0918 01:56:14.231812   953 net.cpp:425] inception_4b/relu_5x5 <- inception_4b/5x5
I0918 01:56:14.231819   953 net.cpp:386] inception_4b/relu_5x5 -> inception_4b/5x5 (in-place)
I0918 01:56:14.232062   953 net.cpp:141] Setting up inception_4b/relu_5x5
I0918 01:56:14.232082   953 net.cpp:148] Top shape: 10 64 14 14 (125440)
I0918 01:56:14.232087   953 net.cpp:156] Memory required for data: 398773760
…
I0918 01:56:14.294081   959 net.cpp:399] inception_4e/pool -> inception_4e/pool
I0918 01:56:14.294096   959 net.cpp:141] Setting up inception_4e/pool
I0918 01:56:14.294103   959 net.cpp:148] Top shape: 10 528 14 14 (1034880)
I0918 01:56:14.294107   959 net.cpp:156] Memory required for data: 512296960
I0918 01:56:14.294112   959 layer_factory.hpp:77] Creating layer inception_4e/pool_proj
I0918 01:56:14.294131   959 net.cpp:91] Creating Layer inception_4e/pool_proj
I0918 01:56:14.294137   959 net.cpp:425] inception_4e/pool_proj <- inception_4e/pool
I0918 01:56:14.294145   959 net.cpp:399] inception_4e/pool_proj -> inception_4e/pool_proj
I0918 01:56:14.294343   953 net.cpp:141] Setting up inception_4e/relu_3x3
I0918 01:56:14.294355   953 net.cpp:148] Top shape: 10 320 14 14 (627200)
I0918 01:56:14.294363   953 net.cpp:156] Memory required for data: 505648640
I0918 01:56:14.294368   953 layer_factory.hpp:77] Creating layer inception_4e/5x5_reduce
I0918 01:56:14.294380   953 net.cpp:91] Creating Layer inception_4e/5x5_reduce
I0918 01:56:14.294386   953 net.cpp:425] inception_4e/5x5_reduce <- inception_4d/output_inception_4d/output_0_split_2
I0918 01:56:14.294399   953 net.cpp:399] inception_4e/5x5_reduce -> inception_4e/5x5_reduce
I0918 01:56:14.297199   953 net.cpp:141] Setting up inception_4e/5x5_reduce
I0918 01:56:14.297217   953 net.cpp:148] Top shape: 10 32 14 14 (62720)
I0918 01:56:14.297224   953 net.cpp:156] Memory required for data: 505899520
I0918 01:56:14.297232   953 layer_factory.hpp:77] Creating layer inception_4e/relu_5x5_reduce
I0918 01:56:14.297241   953 net.cpp:91] Creating Layer inception_4e/relu_5x5_reduce
I0918 01:56:14.297247   953 net.cpp:425] inception_4e/relu_5x5_reduce <- inception_4e/5x5_reduce
I0918 01:56:14.297258   953 net.cpp:386] inception_4e/relu_5x5_reduce -> inception_4e/5x5_reduce (in-place)
I0918 01:56:14.298271   959 net.cpp:141] Setting up inception_4e/pool_proj
I0918 01:56:14.298297   959 net.cpp:148] Top shape: 10 128 14 14 (250880)
I0918 01:56:14.298300   953 net.cpp:141] Setting up inception_4e/relu_5x5_reduce
I0918 01:56:14.298303   959 net.cpp:156] Memory required for data: 513300480
I0918 01:56:14.298316   953 net.cpp:148] Top shape: 10 32 14 14 (62720)
I0918 01:56:14.298322   953 net.cpp:156] Memory required for data: 506150400
I0918 01:56:14.298328   953 layer_factory.hpp:77] Creating layer inception_4e/5x5
I0918 01:56:14.298327   959 layer_factory.hpp:77] Creating layer inception_4e/relu_pool_proj
I0918 01:56:14.298348   959 net.cpp:91] Creating Layer inception_4e/relu_pool_proj
I0918 01:56:14.298349   953 net.cpp:91] Creating Layer inception_4e/5x5
I0918 01:56:14.298358   953 net.cpp:425] inception_4e/5x5 <- inception_4e/5x5_reduce
I0918 01:56:14.298358   959 net.cpp:425] inception_4e/relu_pool_proj <- inception_4e/pool_proj
I0918 01:56:14.298369   959 net.cpp:386] inception_4e/relu_pool_proj -> inception_4e/pool_proj (in-place)
I0918 01:56:14.298372   953 net.cpp:399] inception_4e/5x5 -> inception_4e/5x5
I0918 01:56:14.298655   959 net.cpp:141] Setting up inception_4e/relu_pool_proj
I0918 01:56:14.298666   959 net.cpp:148] Top shape: 10 128 14 14 (250880)
I0918 01:56:14.298671   959 net.cpp:156] Memory required for data: 514304000
I0918 01:56:14.298676   959 layer_factory.hpp:77] Creating layer inception_4e/output
I0918 01:56:14.298687   959 net.cpp:91] Creating Layer inception_4e/output
I0918 01:56:14.298693   959 net.cpp:425] inception_4e/output <- inception_4e/1x1
I0918 01:56:14.298702   959 net.cpp:425] inception_4e/output <- inception_4e/3x3
I0918 01:56:14.298707   959 net.cpp:425] inception_4e/output <- inception_4e/5x5
I0918 01:56:14.298712   959 net.cpp:425] inception_4e/output <- inception_4e/pool_proj
I0918 01:56:14.298719   959 net.cpp:399] inception_4e/output -> inception_4e/output
I0918 01:56:14.298732   959 net.cpp:141] Setting up inception_4e/output
I0918 01:56:14.298739   959 net.cpp:148] Top shape: 10 832 14 14 (1630720)
I0918 01:56:14.298743   959 net.cpp:156] Memory required for data: 520826880
I0918 01:56:14.298748   959 layer_factory.hpp:77] Creating layer pool4/3x3_s2
I0918 01:56:14.298758   959 net.cpp:91] Creating Layer pool4/3x3_s2
I0918 01:56:14.298763   959 net.cpp:425] pool4/3x3_s2 <- inception_4e/output
I0918 01:56:14.298774   959 net.cpp:399] pool4/3x3_s2 -> pool4/3x3_s2
I0918 01:56:14.298786   959 net.cpp:141] Setting up pool4/3x3_s2
I0918 01:56:14.298794   959 net.cpp:148] Top shape: 10 832 7 7 (407680)
I0918 01:56:14.298799   959 net.cpp:156] Memory required for data: 522457600
I0918 01:56:14.298802   959 layer_factory.hpp:77] Creating layer pool4/3x3_s2_pool4/3x3_s2_0_split
I0918 01:56:14.298813   959 net.cpp:91] Creating Layer pool4/3x3_s2_pool4/3x3_s2_0_split
I0918 01:56:14.298818   959 net.cpp:425] pool4/3x3_s2_pool4/3x3_s2_0_split <- pool4/3x3_s2
I0918 01:56:14.298825   959 net.cpp:399] pool4/3x3_s2_pool4/3x3_s2_0_split -> pool4/3x3_s2_pool4/3x3_s2_0_split_0
I0918 01:56:14.298833   959 net.cpp:399] pool4/3x3_s2_pool4/3x3_s2_0_split -> pool4/3x3_s2_pool4/3x3_s2_0_split_1
I0918 01:56:14.298841   959 net.cpp:399] pool4/3x3_s2_pool4/3x3_s2_0_split -> pool4/3x3_s2_pool4/3x3_s2_0_split_2
I0918 01:56:14.298849   959 net.cpp:399] pool4/3x3_s2_pool4/3x3_s2_0_split -> pool4/3x3_s2_pool4/3x3_s2_0_split_3
I0918 01:56:14.298862   959 net.cpp:141] Setting up pool4/3x3_s2_pool4/3x3_s2_0_split
I0918 01:56:14.298869   959 net.cpp:148] Top shape: 10 832 7 7 (407680)
I0918 01:56:14.298876   959 net.cpp:148] Top shape: 10 832 7 7 (407680)
I0918 01:56:14.298880   959 net.cpp:148] Top shape: 10 832 7 7 (407680)
I0918 01:56:14.298885   959 net.cpp:148] Top shape: 10 832 7 7 (407680)
I0918 01:56:14.298889   959 net.cpp:156] Memory required for data: 528980480
I0918 01:56:14.298894   959 layer_factory.hpp:77] Creating layer inception_5a/1x1
I0918 01:56:14.298909   959 net.cpp:91] Creating Layer inception_5a/1x1
I0918 01:56:14.298914   959 net.cpp:425] inception_5a/1x1 <- pool4/3x3_s2_pool4/3x3_s2_0_split_0
I0918 01:56:14.298923   959 net.cpp:399] inception_5a/1x1 -> inception_5a/1x1
I0918 01:56:14.300498   953 net.cpp:141] Setting up inception_4e/5x5
I0918 01:56:14.300516   953 net.cpp:148] Top shape: 10 128 14 14 (250880)
I0918 01:56:14.300523   953 net.cpp:156] Memory required for data: 507153920
I0918 01:56:14.300531   953 layer_factory.hpp:77] Creating layer inception_4e/relu_5x5
I0918 01:56:14.300544   953 net.cpp:91] Creating Layer inception_4e/relu_5x5
I0918 01:56:14.300549   953 net.cpp:425] inception_4e/relu_5x5 <- inception_4e/5x5
I0918 01:56:14.300556   953 net.cpp:386] inception_4e/relu_5x5 -> inception_4e/5x5 (in-place)
I0918 01:56:14.300808   953 net.cpp:141] Setting up inception_4e/relu_5x5
I0918 01:56:14.300822   953 net.cpp:148] Top shape: 10 128 14 14 (250880)
I0918 01:56:14.300827   953 net.cpp:156] Memory required for data: 508157440
I0918 01:56:14.300832   953 layer_factory.hpp:77] Creating layer inception_4e/pool
I0918 01:56:14.300842   953 net.cpp:91] Creating Layer inception_4e/pool
I0918 01:56:14.300848   953 net.cpp:425] inception_4e/pool <- inception_4d/output_inception_4d/output_0_split_3
I0918 01:56:14.300858   953 net.cpp:399] inception_4e/pool -> inception_4e/pool
I0918 01:56:14.300873   953 net.cpp:141] Setting up inception_4e/pool
I0918 01:56:14.300879   953 net.cpp:148] Top shape: 10 528 14 14 (1034880)
I0918 01:56:14.300884   953 net.cpp:156] Memory required for data: 512296960
I0918 01:56:14.300889   953 layer_factory.hpp:77] Creating layer inception_4e/pool_proj
I0918 01:56:14.300902   953 net.cpp:91] Creating Layer inception_4e/pool_proj
I0918 01:56:14.300909   953 net.cpp:425] inception_4e/pool_proj <- inception_4e/pool
I0918 01:56:14.300920   953 net.cpp:399] inception_4e/pool_proj -> inception_4e/pool_proj
I0918 01:56:14.303128   959 net.cpp:141] Setting up inception_5a/1x1
I0918 01:56:14.303150   959 net.cpp:148] Top shape: 10 256 7 7 (125440)
I0918 01:56:14.303155   959 net.cpp:156] Memory required for data: 529482240
I0918 01:56:14.303166   959 layer_factory.hpp:77] Creating layer inception_5a/relu_1x1
I0918 01:56:14.303176   959 net.cpp:91] Creating Layer inception_5a/relu_1x1
I0918 01:56:14.303182   959 net.cpp:425] inception_5a/relu_1x1 <- inception_5a/1x1
I0918 01:56:14.303190   959 net.cpp:386] inception_5a/relu_1x1 -> inception_5a/1x1 (in-place)
I0918 01:56:14.304136   959 net.cpp:141] Setting up inception_5a/relu_1x1
I0918 01:56:14.304152   959 net.cpp:148] Top shape: 10 256 7 7 (125440)
I0918 01:56:14.304157   959 net.cpp:156] Memory required for data: 529984000
I0918 01:56:14.304162   959 layer_factory.hpp:77] Creating layer inception_5a/3x3_reduce
I0918 01:56:14.304180   959 net.cpp:91] Creating Layer inception_5a/3x3_reduce
I0918 01:56:14.304188   959 net.cpp:425] inception_5a/3x3_reduce <- pool4/3x3_s2_pool4/3x3_s2_0_split_1
I0918 01:56:14.304199   959 net.cpp:399] inception_5a/3x3_reduce -> inception_5a/3x3_reduce
I0918 01:56:14.304333   953 net.cpp:141] Setting up inception_4e/pool_proj
I0918 01:56:14.304358   953 net.cpp:148] Top shape: 10 128 14 14 (250880)
I0918 01:56:14.304368   953 net.cpp:156] Memory required for data: 513300480
I0918 01:56:14.304386   953 layer_factory.hpp:77] Creating layer inception_4e/relu_pool_proj
I0918 01:56:14.304405   953 net.cpp:91] Creating Layer inception_4e/relu_pool_proj
I0918 01:56:14.304419   953 net.cpp:425] inception_4e/relu_pool_proj <- inception_4e/pool_proj
I0918 01:56:14.304432   953 net.cpp:386] inception_4e/relu_pool_proj -> inception_4e/pool_proj (in-place)
I0918 01:56:14.304867   953 net.cpp:141] Setting up inception_4e/relu_pool_proj
I0918 01:56:14.304885   953 net.cpp:148] Top shape: 10 128 14 14 (250880)
I0918 01:56:14.304895   953 net.cpp:156] Memory required for data: 514304000
I0918 01:56:14.304905   953 layer_factory.hpp:77] Creating layer inception_4e/output
I0918 01:56:14.304926   953 net.cpp:91] Creating Layer inception_4e/output
I0918 01:56:14.304937   953 net.cpp:425] inception_4e/output <- inception_4e/1x1
I0918 01:56:14.304949   953 net.cpp:425] inception_4e/output <- inception_4e/3x3
I0918 01:56:14.304960   953 net.cpp:425] inception_4e/output <- inception_4e/5x5
I0918 01:56:14.304971   953 net.cpp:425] inception_4e/output <- inception_4e/pool_proj
I0918 01:56:14.304989   953 net.cpp:399] inception_4e/output -> inception_4e/output
I0918 01:56:14.305012   953 net.cpp:141] Setting up inception_4e/output
I0918 01:56:14.305027   953 net.cpp:148] Top shape: 10 832 14 14 (1630720)
I0918 01:56:14.305035   953 net.cpp:156] Memory required for data: 520826880
I0918 01:56:14.305043   953 layer_factory.hpp:77] Creating layer pool4/3x3_s2
I0918 01:56:14.305058   953 net.cpp:91] Creating Layer pool4/3x3_s2
I0918 01:56:14.305068   953 net.cpp:425] pool4/3x3_s2 <- inception_4e/output
I0918 01:56:14.305081   953 net.cpp:399] pool4/3x3_s2 -> pool4/3x3_s2
I0918 01:56:14.305109   953 net.cpp:141] Setting up pool4/3x3_s2
I0918 01:56:14.305124   953 net.cpp:148] Top shape: 10 832 7 7 (407680)
I0918 01:56:14.305133   953 net.cpp:156] Memory required for data: 522457600
I0918 01:56:14.305143   953 layer_factory.hpp:77] Creating layer pool4/3x3_s2_pool4/3x3_s2_0_split
I0918 01:56:14.305158   953 net.cpp:91] Creating Layer pool4/3x3_s2_pool4/3x3_s2_0_split
I0918 01:56:14.305168   953 net.cpp:425] pool4/3x3_s2_pool4/3x3_s2_0_split <- pool4/3x3_s2
I0918 01:56:14.305186   953 net.cpp:399] pool4/3x3_s2_pool4/3x3_s2_0_split -> pool4/3x3_s2_pool4/3x3_s2_0_split_0
I0918 01:56:14.305203   953 net.cpp:399] pool4/3x3_s2_pool4/3x3_s2_0_split -> pool4/3x3_s2_pool4/3x3_s2_0_split_1
I0918 01:56:14.305219   953 net.cpp:399] pool4/3x3_s2_pool4/3x3_s2_0_split -> pool4/3x3_s2_pool4/3x3_s2_0_split_2
I0918 01:56:14.305234   953 net.cpp:399] pool4/3x3_s2_pool4/3x3_s2_0_split -> pool4/3x3_s2_pool4/3x3_s2_0_split_3
I0918 01:56:14.305253   953 net.cpp:141] Setting up pool4/3x3_s2_pool4/3x3_s2_0_split
I0918 01:56:14.305268   953 net.cpp:148] Top shape: 10 832 7 7 (407680)
I0918 01:56:14.305279   953 net.cpp:148] Top shape: 10 832 7 7 (407680)
I0918 01:56:14.305289   953 net.cpp:148] Top shape: 10 832 7 7 (407680)
I0918 01:56:14.305300   953 net.cpp:148] Top shape: 10 832 7 7 (407680)
I0918 01:56:14.305308   953 net.cpp:156] Memory required for data: 528980480
I0918 01:56:14.305317   953 layer_factory.hpp:77] Creating layer inception_5a/1x1
I0918 01:56:14.305347   953 net.cpp:91] Creating Layer inception_5a/1x1
I0918 01:56:14.305359   953 net.cpp:425] inception_5a/1x1 <- pool4/3x3_s2_pool4/3x3_s2_0_split_0
I0918 01:56:14.305377   953 net.cpp:399] inception_5a/1x1 -> inception_5a/1x1
I0918 01:56:14.306782   959 net.cpp:141] Setting up inception_5a/3x3_reduce
I0918 01:56:14.306804   959 net.cpp:148] Top shape: 10 160 7 7 (78400)
I0918 01:56:14.306809   959 net.cpp:156] Memory required for data: 530297600
I0918 01:56:14.306819   959 layer_factory.hpp:77] Creating layer inception_5a/relu_3x3_reduce
I0918 01:56:14.306829   959 net.cpp:91] Creating Layer inception_5a/relu_3x3_reduce
I0918 01:56:14.306835   959 net.cpp:425] inception_5a/relu_3x3_reduce <- inception_5a/3x3_reduce
I0918 01:56:14.306843   959 net.cpp:386] inception_5a/relu_3x3_reduce -> inception_5a/3x3_reduce (in-place)
I0918 01:56:14.307096   959 net.cpp:141] Setting up inception_5a/relu_3x3_reduce
I0918 01:56:14.307108   959 net.cpp:148] Top shape: 10 160 7 7 (78400)
I0918 01:56:14.307112   959 net.cpp:156] Memory required for data: 530611200
I0918 01:56:14.307117   959 layer_factory.hpp:77] Creating layer inception_5a/3x3
I0918 01:56:14.307133   959 net.cpp:91] Creating Layer inception_5a/3x3
I0918 01:56:14.307140   959 net.cpp:425] inception_5a/3x3 <- inception_5a/3x3_reduce
I0918 01:56:14.307152   959 net.cpp:399] inception_5a/3x3 -> inception_5a/3x3
I0918 01:56:14.310282   953 net.cpp:141] Setting up inception_5a/1x1
I0918 01:56:14.310328   953 net.cpp:148] Top shape: 10 256 7 7 (125440)
I0918 01:56:14.310339   953 net.cpp:156] Memory required for data: 529482240
I0918 01:56:14.310360   953 layer_factory.hpp:77] Creating layer inception_5a/relu_1x1
I0918 01:56:14.310386   953 net.cpp:91] Creating Layer inception_5a/relu_1x1
I0918 01:56:14.310401   953 net.cpp:425] inception_5a/relu_1x1 <- inception_5a/1x1
I0918 01:56:14.310417   953 net.cpp:386] inception_5a/relu_1x1 -> inception_5a/1x1 (in-place)
I0918 01:56:14.311058   953 net.cpp:141] Setting up inception_5a/relu_1x1
I0918 01:56:14.311077   953 net.cpp:148] Top shape: 10 256 7 7 (125440)
I0918 01:56:14.311086   953 net.cpp:156] Memory required for data: 529984000
I0918 01:56:14.311094   953 layer_factory.hpp:77] Creating layer inception_5a/3x3_reduce
I0918 01:56:14.311125   953 net.cpp:91] Creating Layer inception_5a/3x3_reduce
I0918 01:56:14.311137   953 net.cpp:425] inception_5a/3x3_reduce <- pool4/3x3_s2_pool4/3x3_s2_0_split_1
I0918 01:56:14.311154   953 net.cpp:399] inception_5a/3x3_reduce -> inception_5a/3x3_reduce
I0918 01:56:14.313009   959 net.cpp:141] Setting up inception_5a/3x3
I0918 01:56:14.313038   959 net.cpp:148] Top shape: 10 320 7 7 (156800)
I0918 01:56:14.313045   959 net.cpp:156] Memory required for data: 531238400
I0918 01:56:14.313056   959 layer_factory.hpp:77] Creating layer inception_5a/relu_3x3
I0918 01:56:14.313067   959 net.cpp:91] Creating Layer inception_5a/relu_3x3
I0918 01:56:14.313074   959 net.cpp:425] inception_5a/relu_3x3 <- inception_5a/3x3
I0918 01:56:14.313086   959 net.cpp:386] inception_5a/relu_3x3 -> inception_5a/3x3 (in-place)
I0918 01:56:14.313856   959 net.cpp:141] Setting up inception_5a/relu_3x3
I0918 01:56:14.313872   959 net.cpp:148] Top shape: 10 320 7 7 (156800)
I0918 01:56:14.313877   959 net.cpp:156] Memory required for data: 531865600
I0918 01:56:14.313884   959 layer_factory.hpp:77] Creating layer inception_5a/5x5_reduce
I0918 01:56:14.313902   959 net.cpp:91] Creating Layer inception_5a/5x5_reduce
I0918 01:56:14.313910   959 net.cpp:425] inception_5a/5x5_reduce <- pool4/3x3_s2_pool4/3x3_s2_0_split_2
I0918 01:56:14.313922   959 net.cpp:399] inception_5a/5x5_reduce -> inception_5a/5x5_reduce
I0918 01:56:14.316483   959 net.cpp:141] Setting up inception_5a/5x5_reduce
I0918 01:56:14.316500   959 net.cpp:148] Top shape: 10 32 7 7 (15680)
I0918 01:56:14.316505   959 net.cpp:156] Memory required for data: 531928320
I0918 01:56:14.316515   959 layer_factory.hpp:77] Creating layer inception_5a/relu_5x5_reduce
I0918 01:56:14.316524   959 net.cpp:91] Creating Layer inception_5a/relu_5x5_reduce
I0918 01:56:14.316530   959 net.cpp:425] inception_5a/relu_5x5_reduce <- inception_5a/5x5_reduce
I0918 01:56:14.316540   959 net.cpp:386] inception_5a/relu_5x5_reduce -> inception_5a/5x5_reduce (in-place)
I0918 01:56:14.317267   959 net.cpp:141] Setting up inception_5a/relu_5x5_reduce
I0918 01:56:14.317282   959 net.cpp:148] Top shape: 10 32 7 7 (15680)
I0918 01:56:14.317286   959 net.cpp:156] Memory required for data: 531991040
I0918 01:56:14.317291   959 layer_factory.hpp:77] Creating layer inception_5a/5x5
I0918 01:56:14.317312   959 net.cpp:91] Creating Layer inception_5a/5x5
I0918 01:56:14.317319   959 net.cpp:425] inception_5a/5x5 <- inception_5a/5x5_reduce
I0918 01:56:14.317328   959 net.cpp:399] inception_5a/5x5 -> inception_5a/5x5
I0918 01:56:14.317571   953 net.cpp:141] Setting up inception_5a/3x3_reduce
I0918 01:56:14.317598   953 net.cpp:148] Top shape: 10 160 7 7 (78400)
I0918 01:56:14.317610   953 net.cpp:156] Memory required for data: 530297600
I0918 01:56:14.317626   953 layer_factory.hpp:77] Creating layer inception_5a/relu_3x3_reduce
I0918 01:56:14.317646   953 net.cpp:91] Creating Layer inception_5a/relu_3x3_reduce
I0918 01:56:14.317657   953 net.cpp:425] inception_5a/relu_3x3_reduce <- inception_5a/3x3_reduce
I0918 01:56:14.317672   953 net.cpp:386] inception_5a/relu_3x3_reduce -> inception_5a/3x3_reduce (in-place)
I0918 01:56:14.318677   953 net.cpp:141] Setting up inception_5a/relu_3x3_reduce
I0918 01:56:14.318703   953 net.cpp:148] Top shape: 10 160 7 7 (78400)
I0918 01:56:14.318713   953 net.cpp:156] Memory required for data: 530611200
I0918 01:56:14.318724   953 layer_factory.hpp:77] Creating layer inception_5a/3x3
I0918 01:56:14.318750   953 net.cpp:91] Creating Layer inception_5a/3x3
I0918 01:56:14.318763   953 net.cpp:425] inception_5a/3x3 <- inception_5a/3x3_reduce
I0918 01:56:14.318786   953 net.cpp:399] inception_5a/3x3 -> inception_5a/3x3
I0918 01:56:14.319762   959 net.cpp:141] Setting up inception_5a/5x5
I0918 01:56:14.319782   959 net.cpp:148] Top shape: 10 128 7 7 (62720)
I0918 01:56:14.319788   959 net.cpp:156] Memory required for data: 532241920
I0918 01:56:14.319797   959 layer_factory.hpp:77] Creating layer inception_5a/relu_5x5
I0918 01:56:14.319847   959 net.cpp:91] Creating Layer inception_5a/relu_5x5
I0918 01:56:14.319855   959 net.cpp:425] inception_5a/relu_5x5 <- inception_5a/5x5
I0918 01:56:14.319864   959 net.cpp:386] inception_5a/relu_5x5 -> inception_5a/5x5 (in-place)
I0918 01:56:14.320132   959 net.cpp:141] Setting up inception_5a/relu_5x5
I0918 01:56:14.320145   959 net.cpp:148] Top shape: 10 128 7 7 (62720)
I0918 01:56:14.320149   959 net.cpp:156] Memory required for data: 532492800
I0918 01:56:14.320155   959 layer_factory.hpp:77] Creating layer inception_5a/pool
I0918 01:56:14.320171   959 net.cpp:91] Creating Layer inception_5a/pool
I0918 01:56:14.320178   959 net.cpp:425] inception_5a/pool <- pool4/3x3_s2_pool4/3x3_s2_0_split_3
I0918 01:56:14.320186   959 net.cpp:399] inception_5a/pool -> inception_5a/pool
I0918 01:56:14.320201   959 net.cpp:141] Setting up inception_5a/pool
I0918 01:56:14.320210   959 net.cpp:148] Top shape: 10 832 7 7 (407680)
I0918 01:56:14.320215   959 net.cpp:156] Memory required for data: 534123520
I0918 01:56:14.320220   959 layer_factory.hpp:77] Creating layer inception_5a/pool_proj
I0918 01:56:14.320232   959 net.cpp:91] Creating Layer inception_5a/pool_proj
I0918 01:56:14.320238   959 net.cpp:425] inception_5a/pool_proj <- inception_5a/pool
I0918 01:56:14.320250   959 net.cpp:399] inception_5a/pool_proj -> inception_5a/pool_proj
I0918 01:56:14.322509   959 net.cpp:141] Setting up inception_5a/pool_proj
I0918 01:56:14.322531   959 net.cpp:148] Top shape: 10 128 7 7 (62720)
I0918 01:56:14.322537   959 net.cpp:156] Memory required for data: 534374400
I0918 01:56:14.322547   959 layer_factory.hpp:77] Creating layer inception_5a/relu_pool_proj
I0918 01:56:14.322561   959 net.cpp:91] Creating Layer inception_5a/relu_pool_proj
I0918 01:56:14.322568   959 net.cpp:425] inception_5a/relu_pool_proj <- inception_5a/pool_proj
I0918 01:56:14.322576   959 net.cpp:386] inception_5a/relu_pool_proj -> inception_5a/pool_proj (in-place)
I0918 01:56:14.322839   959 net.cpp:141] Setting up inception_5a/relu_pool_proj
I0918 01:56:14.322850   959 net.cpp:148] Top shape: 10 128 7 7 (62720)
I0918 01:56:14.322854   959 net.cpp:156] Memory required for data: 534625280
I0918 01:56:14.322860   959 layer_factory.hpp:77] Creating layer inception_5a/output
I0918 01:56:14.322870   959 net.cpp:91] Creating Layer inception_5a/output
I0918 01:56:14.322875   959 net.cpp:425] inception_5a/output <- inception_5a/1x1
I0918 01:56:14.322882   959 net.cpp:425] inception_5a/output <- inception_5a/3x3
I0918 01:56:14.322888   959 net.cpp:425] inception_5a/output <- inception_5a/5x5
I0918 01:56:14.322893   959 net.cpp:425] inception_5a/output <- inception_5a/pool_proj
I0918 01:56:14.322903   959 net.cpp:399] inception_5a/output -> inception_5a/output
I0918 01:56:14.322916   959 net.cpp:141] Setting up inception_5a/output
I0918 01:56:14.322923   959 net.cpp:148] Top shape: 10 832 7 7 (407680)
I0918 01:56:14.322927   959 net.cpp:156] Memory required for data: 536256000
I0918 01:56:14.322932   959 layer_factory.hpp:77] Creating layer inception_5a/output_inception_5a/output_0_split
I0918 01:56:14.322942   959 net.cpp:91] Creating Layer inception_5a/output_inception_5a/output_0_split
I0918 01:56:14.322947   959 net.cpp:425] inception_5a/output_inception_5a/output_0_split <- inception_5a/output
I0918 01:56:14.322953   959 net.cpp:399] inception_5a/output_inception_5a/output_0_split -> inception_5a/output_inception_5a/output_0_split_0
I0918 01:56:14.322965   959 net.cpp:399] inception_5a/output_inception_5a/output_0_split -> inception_5a/output_inception_5a/output_0_split_1
I0918 01:56:14.322975   959 net.cpp:399] inception_5a/output_inception_5a/output_0_split -> inception_5a/output_inception_5a/output_0_split_2
I0918 01:56:14.322984   959 net.cpp:399] inception_5a/output_inception_5a/output_0_split -> inception_5a/output_inception_5a/output_0_split_3
I0918 01:56:14.322995   959 net.cpp:141] Setting up inception_5a/output_inception_5a/output_0_split
I0918 01:56:14.323002   959 net.cpp:148] Top shape: 10 832 7 7 (407680)
I0918 01:56:14.323009   959 net.cpp:148] Top shape: 10 832 7 7 (407680)
I0918 01:56:14.323014   959 net.cpp:148] Top shape: 10 832 7 7 (407680)
I0918 01:56:14.323019   959 net.cpp:148] Top shape: 10 832 7 7 (407680)
I0918 01:56:14.323024   959 net.cpp:156] Memory required for data: 542778880
I0918 01:56:14.323029   959 layer_factory.hpp:77] Creating layer inception_5b/1x1
I0918 01:56:14.323042   959 net.cpp:91] Creating Layer inception_5b/1x1
I0918 01:56:14.323048   959 net.cpp:425] inception_5b/1x1 <- inception_5a/output_inception_5a/output_0_split_0
I0918 01:56:14.323060   959 net.cpp:399] inception_5b/1x1 -> inception_5b/1x1
I0918 01:56:14.325601   953 net.cpp:141] Setting up inception_5a/3x3
I0918 01:56:14.325634   953 net.cpp:148] Top shape: 10 320 7 7 (156800)
I0918 01:56:14.325640   953 net.cpp:156] Memory required for data: 531238400
I0918 01:56:14.325651   953 layer_factory.hpp:77] Creating layer inception_5a/relu_3x3
I0918 01:56:14.325664   953 net.cpp:91] Creating Layer inception_5a/relu_3x3
I0918 01:56:14.325672   953 net.cpp:425] inception_5a/relu_3x3 <- inception_5a/3x3
I0918 01:56:14.325685   953 net.cpp:386] inception_5a/relu_3x3 -> inception_5a/3x3 (in-place)
I0918 01:56:14.326547   953 net.cpp:141] Setting up inception_5a/relu_3x3
I0918 01:56:14.326562   953 net.cpp:148] Top shape: 10 320 7 7 (156800)
I0918 01:56:14.326567   953 net.cpp:156] Memory required for data: 531865600
I0918 01:56:14.326572   953 layer_factory.hpp:77] Creating layer inception_5a/5x5_reduce
I0918 01:56:14.326593   953 net.cpp:91] Creating Layer inception_5a/5x5_reduce
I0918 01:56:14.326601   953 net.cpp:425] inception_5a/5x5_reduce <- pool4/3x3_s2_pool4/3x3_s2_0_split_2
I0918 01:56:14.326611   953 net.cpp:399] inception_5a/5x5_reduce -> inception_5a/5x5_reduce
I0918 01:56:14.329114   953 net.cpp:141] Setting up inception_5a/5x5_reduce
I0918 01:56:14.329131   953 net.cpp:148] Top shape: 10 32 7 7 (15680)
I0918 01:56:14.329138   953 net.cpp:156] Memory required for data: 531928320
I0918 01:56:14.329146   953 layer_factory.hpp:77] Creating layer inception_5a/relu_5x5_reduce
I0918 01:56:14.329155   953 net.cpp:91] Creating Layer inception_5a/relu_5x5_reduce
I0918 01:56:14.329161   953 net.cpp:425] inception_5a/relu_5x5_reduce <- inception_5a/5x5_reduce
I0918 01:56:14.329172   953 net.cpp:386] inception_5a/relu_5x5_reduce -> inception_5a/5x5_reduce (in-place)
I0918 01:56:14.329749   953 net.cpp:141] Setting up inception_5a/relu_5x5_reduce
I0918 01:56:14.329766   953 net.cpp:148] Top shape: 10 32 7 7 (15680)
I0918 01:56:14.329771   953 net.cpp:156] Memory required for data: 531991040
I0918 01:56:14.329777   953 layer_factory.hpp:77] Creating layer inception_5a/5x5
I0918 01:56:14.329792   953 net.cpp:91] Creating Layer inception_5a/5x5
I0918 01:56:14.329800   953 net.cpp:425] inception_5a/5x5 <- inception_5a/5x5_reduce
I0918 01:56:14.329809   953 net.cpp:399] inception_5a/5x5 -> inception_5a/5x5
I0918 01:56:14.329818   959 net.cpp:141] Setting up inception_5b/1x1
I0918 01:56:14.329849   959 net.cpp:148] Top shape: 10 384 7 7 (188160)
I0918 01:56:14.329854   959 net.cpp:156] Memory required for data: 543531520
I0918 01:56:14.329866   959 layer_factory.hpp:77] Creating layer inception_5b/relu_1x1
I0918 01:56:14.329893   959 net.cpp:91] Creating Layer inception_5b/relu_1x1
I0918 01:56:14.329905   959 net.cpp:425] inception_5b/relu_1x1 <- inception_5b/1x1
I0918 01:56:14.329916   959 net.cpp:386] inception_5b/relu_1x1 -> inception_5b/1x1 (in-place)
I0918 01:56:14.330196   959 net.cpp:141] Setting up inception_5b/relu_1x1
I0918 01:56:14.330209   959 net.cpp:148] Top shape: 10 384 7 7 (188160)
I0918 01:56:14.330214   959 net.cpp:156] Memory required for data: 544284160
I0918 01:56:14.330219   959 layer_factory.hpp:77] Creating layer inception_5b/3x3_reduce
I0918 01:56:14.330237   959 net.cpp:91] Creating Layer inception_5b/3x3_reduce
I0918 01:56:14.330243   959 net.cpp:425] inception_5b/3x3_reduce <- inception_5a/output_inception_5a/output_0_split_1
I0918 01:56:14.330255   959 net.cpp:399] inception_5b/3x3_reduce -> inception_5b/3x3_reduce
I0918 01:56:14.333004   953 net.cpp:141] Setting up inception_5a/5x5
I0918 01:56:14.333024   953 net.cpp:148] Top shape: 10 128 7 7 (62720)
I0918 01:56:14.333030   953 net.cpp:156] Memory required for data: 532241920
I0918 01:56:14.333039   953 layer_factory.hpp:77] Creating layer inception_5a/relu_5x5
I0918 01:56:14.333075   953 net.cpp:91] Creating Layer inception_5a/relu_5x5
I0918 01:56:14.333081   953 net.cpp:425] inception_5a/relu_5x5 <- inception_5a/5x5
I0918 01:56:14.333089   953 net.cpp:386] inception_5a/relu_5x5 -> inception_5a/5x5 (in-place)
I0918 01:56:14.334421   953 net.cpp:141] Setting up inception_5a/relu_5x5
I0918 01:56:14.334436   953 net.cpp:148] Top shape: 10 128 7 7 (62720)
I0918 01:56:14.334442   953 net.cpp:156] Memory required for data: 532492800
I0918 01:56:14.334448   953 layer_factory.hpp:77] Creating layer inception_5a/pool
I0918 01:56:14.334462   953 net.cpp:91] Creating Layer inception_5a/pool
I0918 01:56:14.334468   953 net.cpp:425] inception_5a/pool <- pool4/3x3_s2_pool4/3x3_s2_0_split_3
I0918 01:56:14.334476   953 net.cpp:399] inception_5a/pool -> inception_5a/pool
I0918 01:56:14.334496   953 net.cpp:141] Setting up inception_5a/pool
I0918 01:56:14.334503   953 net.cpp:148] Top shape: 10 832 7 7 (407680)
I0918 01:56:14.334507   953 net.cpp:156] Memory required for data: 534123520
I0918 01:56:14.334512   953 layer_factory.hpp:77] Creating layer inception_5a/pool_proj
I0918 01:56:14.334511   959 net.cpp:141] Setting up inception_5b/3x3_reduce
I0918 01:56:14.334529   953 net.cpp:91] Creating Layer inception_5a/pool_proj
I0918 01:56:14.334529   959 net.cpp:148] Top shape: 10 192 7 7 (94080)
I0918 01:56:14.334539   953 net.cpp:425] inception_5a/pool_proj <- inception_5a/pool
I0918 01:56:14.334547   959 net.cpp:156] Memory required for data: 544660480
I0918 01:56:14.334560   953 net.cpp:399] inception_5a/pool_proj -> inception_5a/pool_proj
I0918 01:56:14.334568   959 layer_factory.hpp:77] Creating layer inception_5b/relu_3x3_reduce
I0918 01:56:14.334580   959 net.cpp:91] Creating Layer inception_5b/relu_3x3_reduce
I0918 01:56:14.334588   959 net.cpp:425] inception_5b/relu_3x3_reduce <- inception_5b/3x3_reduce
I0918 01:56:14.334594   959 net.cpp:386] inception_5b/relu_3x3_reduce -> inception_5b/3x3_reduce (in-place)
I0918 01:56:14.334866   959 net.cpp:141] Setting up inception_5b/relu_3x3_reduce
I0918 01:56:14.334877   959 net.cpp:148] Top shape: 10 192 7 7 (94080)
I0918 01:56:14.334882   959 net.cpp:156] Memory required for data: 545036800
I0918 01:56:14.334887   959 layer_factory.hpp:77] Creating layer inception_5b/3x3
I0918 01:56:14.334906   959 net.cpp:91] Creating Layer inception_5b/3x3
I0918 01:56:14.334913   959 net.cpp:425] inception_5b/3x3 <- inception_5b/3x3_reduce
I0918 01:56:14.334923   959 net.cpp:399] inception_5b/3x3 -> inception_5b/3x3
I0918 01:56:14.336906   953 net.cpp:141] Setting up inception_5a/pool_proj
I0918 01:56:14.336926   953 net.cpp:148] Top shape: 10 128 7 7 (62720)
I0918 01:56:14.336932   953 net.cpp:156] Memory required for data: 534374400
I0918 01:56:14.336941   953 layer_factory.hpp:77] Creating layer inception_5a/relu_pool_proj
I0918 01:56:14.336949   953 net.cpp:91] Creating Layer inception_5a/relu_pool_proj
I0918 01:56:14.336956   953 net.cpp:425] inception_5a/relu_pool_proj <- inception_5a/pool_proj
I0918 01:56:14.336962   953 net.cpp:386] inception_5a/relu_pool_proj -> inception_5a/pool_proj (in-place)
I0918 01:56:14.337219   953 net.cpp:141] Setting up inception_5a/relu_pool_proj
I0918 01:56:14.337230   953 net.cpp:148] Top shape: 10 128 7 7 (62720)
I0918 01:56:14.337235   953 net.cpp:156] Memory required for data: 534625280
I0918 01:56:14.337240   953 layer_factory.hpp:77] Creating layer inception_5a/output
I0918 01:56:14.337249   953 net.cpp:91] Creating Layer inception_5a/output
I0918 01:56:14.337255   953 net.cpp:425] inception_5a/output <- inception_5a/1x1
I0918 01:56:14.337262   953 net.cpp:425] inception_5a/output <- inception_5a/3x3
I0918 01:56:14.337270   953 net.cpp:425] inception_5a/output <- inception_5a/5x5
I0918 01:56:14.337275   953 net.cpp:425] inception_5a/output <- inception_5a/pool_proj
I0918 01:56:14.337283   953 net.cpp:399] inception_5a/output -> inception_5a/output
I0918 01:56:14.337296   953 net.cpp:141] Setting up inception_5a/output
I0918 01:56:14.337302   953 net.cpp:148] Top shape: 10 832 7 7 (407680)
I0918 01:56:14.337306   953 net.cpp:156] Memory required for data: 536256000
I0918 01:56:14.337311   953 layer_factory.hpp:77] Creating layer inception_5a/output_inception_5a/output_0_split
I0918 01:56:14.337319   953 net.cpp:91] Creating Layer inception_5a/output_inception_5a/output_0_split
I0918 01:56:14.337324   953 net.cpp:425] inception_5a/output_inception_5a/output_0_split <- inception_5a/output
I0918 01:56:14.337335   953 net.cpp:399] inception_5a/output_inception_5a/output_0_split -> inception_5a/output_inception_5a/output_0_split_0
I0918 01:56:14.337344   953 net.cpp:399] inception_5a/output_inception_5a/output_0_split -> inception_5a/output_inception_5a/output_0_split_1
I0918 01:56:14.337354   953 net.cpp:399] inception_5a/output_inception_5a/output_0_split -> inception_5a/output_inception_5a/output_0_split_2
I0918 01:56:14.337363   953 net.cpp:399] inception_5a/output_inception_5a/output_0_split -> inception_5a/output_inception_5a/output_0_split_3
I0918 01:56:14.337373   953 net.cpp:141] Setting up inception_5a/output_inception_5a/output_0_split
I0918 01:56:14.337383   953 net.cpp:148] Top shape: 10 832 7 7 (407680)
I0918 01:56:14.337388   953 net.cpp:148] Top shape: 10 832 7 7 (407680)
I0918 01:56:14.337393   953 net.cpp:148] Top shape: 10 832 7 7 (407680)
I0918 01:56:14.337399   953 net.cpp:148] Top shape: 10 832 7 7 (407680)
I0918 01:56:14.337402   953 net.cpp:156] Memory required for data: 542778880
I0918 01:56:14.337407   953 layer_factory.hpp:77] Creating layer inception_5b/1x1
I0918 01:56:14.337421   953 net.cpp:91] Creating Layer inception_5b/1x1
I0918 01:56:14.337426   953 net.cpp:425] inception_5b/1x1 <- inception_5a/output_inception_5a/output_0_split_0
I0918 01:56:14.337435   953 net.cpp:399] inception_5b/1x1 -> inception_5b/1x1
I0918 01:56:14.342245   953 net.cpp:141] Setting up inception_5b/1x1
I0918 01:56:14.342263   953 net.cpp:148] Top shape: 10 384 7 7 (188160)
I0918 01:56:14.342269   953 net.cpp:156] Memory required for data: 543531520
I0918 01:56:14.342278   953 layer_factory.hpp:77] Creating layer inception_5b/relu_1x1
I0918 01:56:14.342288   953 net.cpp:91] Creating Layer inception_5b/relu_1x1
I0918 01:56:14.342293   953 net.cpp:425] inception_5b/relu_1x1 <- inception_5b/1x1
I0918 01:56:14.342327   953 net.cpp:386] inception_5b/relu_1x1 -> inception_5b/1x1 (in-place)
I0918 01:56:14.343186   953 net.cpp:141] Setting up inception_5b/relu_1x1
I0918 01:56:14.343204   953 net.cpp:148] Top shape: 10 384 7 7 (188160)
I0918 01:56:14.343209   953 net.cpp:156] Memory required for data: 544284160
I0918 01:56:14.343214   953 layer_factory.hpp:77] Creating layer inception_5b/3x3_reduce
I0918 01:56:14.343227   953 net.cpp:91] Creating Layer inception_5b/3x3_reduce
I0918 01:56:14.343235   953 net.cpp:425] inception_5b/3x3_reduce <- inception_5a/output_inception_5a/output_0_split_1
I0918 01:56:14.343243   953 net.cpp:399] inception_5b/3x3_reduce -> inception_5b/3x3_reduce
I0918 01:56:14.343793   959 net.cpp:141] Setting up inception_5b/3x3
I0918 01:56:14.343830   959 net.cpp:148] Top shape: 10 384 7 7 (188160)
I0918 01:56:14.343837   959 net.cpp:156] Memory required for data: 545789440
I0918 01:56:14.343849   959 layer_factory.hpp:77] Creating layer inception_5b/relu_3x3
I0918 01:56:14.343865   959 net.cpp:91] Creating Layer inception_5b/relu_3x3
I0918 01:56:14.343874   959 net.cpp:425] inception_5b/relu_3x3 <- inception_5b/3x3
I0918 01:56:14.343883   959 net.cpp:386] inception_5b/relu_3x3 -> inception_5b/3x3 (in-place)
I0918 01:56:14.344162   959 net.cpp:141] Setting up inception_5b/relu_3x3
I0918 01:56:14.344174   959 net.cpp:148] Top shape: 10 384 7 7 (188160)
I0918 01:56:14.344179   959 net.cpp:156] Memory required for data: 546542080
I0918 01:56:14.344184   959 layer_factory.hpp:77] Creating layer inception_5b/5x5_reduce
I0918 01:56:14.344205   959 net.cpp:91] Creating Layer inception_5b/5x5_reduce
I0918 01:56:14.344213   959 net.cpp:425] inception_5b/5x5_reduce <- inception_5a/output_inception_5a/output_0_split_2
I0918 01:56:14.344223   959 net.cpp:399] inception_5b/5x5_reduce -> inception_5b/5x5_reduce
I0918 01:56:14.347553   953 net.cpp:141] Setting up inception_5b/3x3_reduce
I0918 01:56:14.347571   953 net.cpp:148] Top shape: 10 192 7 7 (94080)
I0918 01:56:14.347576   953 net.cpp:156] Memory required for data: 544660480
I0918 01:56:14.347586   953 layer_factory.hpp:77] Creating layer inception_5b/relu_3x3_reduce
I0918 01:56:14.347594   953 net.cpp:91] Creating Layer inception_5b/relu_3x3_reduce
I0918 01:56:14.347600   953 net.cpp:425] inception_5b/relu_3x3_reduce <- inception_5b/3x3_reduce
I0918 01:56:14.347610   953 net.cpp:386] inception_5b/relu_3x3_reduce -> inception_5b/3x3_reduce (in-place)
I0918 01:56:14.347620   959 net.cpp:141] Setting up inception_5b/5x5_reduce
I0918 01:56:14.347642   959 net.cpp:148] Top shape: 10 48 7 7 (23520)
I0918 01:56:14.347651   959 net.cpp:156] Memory required for data: 546636160
I0918 01:56:14.347669   959 layer_factory.hpp:77] Creating layer inception_5b/relu_5x5_reduce
I0918 01:56:14.347692   959 net.cpp:91] Creating Layer inception_5b/relu_5x5_reduce
I0918 01:56:14.347704   959 net.cpp:425] inception_5b/relu_5x5_reduce <- inception_5b/5x5_reduce
I0918 01:56:14.347721   959 net.cpp:386] inception_5b/relu_5x5_reduce -> inception_5b/5x5_reduce (in-place)
I0918 01:56:14.348453   953 net.cpp:141] Setting up inception_5b/relu_3x3_reduce
I0918 01:56:14.348469   953 net.cpp:148] Top shape: 10 192 7 7 (94080)
I0918 01:56:14.348474   953 net.cpp:156] Memory required for data: 545036800
I0918 01:56:14.348479   953 layer_factory.hpp:77] Creating layer inception_5b/3x3
I0918 01:56:14.348496   953 net.cpp:91] Creating Layer inception_5b/3x3
I0918 01:56:14.348502   953 net.cpp:425] inception_5b/3x3 <- inception_5b/3x3_reduce
I0918 01:56:14.348511   953 net.cpp:399] inception_5b/3x3 -> inception_5b/3x3
I0918 01:56:14.348669   959 net.cpp:141] Setting up inception_5b/relu_5x5_reduce
I0918 01:56:14.348688   959 net.cpp:148] Top shape: 10 48 7 7 (23520)
I0918 01:56:14.348697   959 net.cpp:156] Memory required for data: 546730240
I0918 01:56:14.348706   959 layer_factory.hpp:77] Creating layer inception_5b/5x5
I0918 01:56:14.348731   959 net.cpp:91] Creating Layer inception_5b/5x5
I0918 01:56:14.348742   959 net.cpp:425] inception_5b/5x5 <- inception_5b/5x5_reduce
I0918 01:56:14.348774   959 net.cpp:399] inception_5b/5x5 -> inception_5b/5x5
I0918 01:56:14.351636   959 net.cpp:141] Setting up inception_5b/5x5
I0918 01:56:14.351657   959 net.cpp:148] Top shape: 10 128 7 7 (62720)
I0918 01:56:14.351663   959 net.cpp:156] Memory required for data: 546981120
I0918 01:56:14.351672   959 layer_factory.hpp:77] Creating layer inception_5b/relu_5x5
I0918 01:56:14.351683   959 net.cpp:91] Creating Layer inception_5b/relu_5x5
I0918 01:56:14.351689   959 net.cpp:425] inception_5b/relu_5x5 <- inception_5b/5x5
I0918 01:56:14.351701   959 net.cpp:386] inception_5b/relu_5x5 -> inception_5b/5x5 (in-place)
I0918 01:56:14.351961   959 net.cpp:141] Setting up inception_5b/relu_5x5
I0918 01:56:14.351974   959 net.cpp:148] Top shape: 10 128 7 7 (62720)
I0918 01:56:14.351977   959 net.cpp:156] Memory required for data: 547232000
I0918 01:56:14.351984   959 layer_factory.hpp:77] Creating layer inception_5b/pool
I0918 01:56:14.351994   959 net.cpp:91] Creating Layer inception_5b/pool
I0918 01:56:14.352000   959 net.cpp:425] inception_5b/pool <- inception_5a/output_inception_5a/output_0_split_3
I0918 01:56:14.352008   959 net.cpp:399] inception_5b/pool -> inception_5b/pool
I0918 01:56:14.352027   959 net.cpp:141] Setting up inception_5b/pool
I0918 01:56:14.352035   959 net.cpp:148] Top shape: 10 832 7 7 (407680)
I0918 01:56:14.352040   959 net.cpp:156] Memory required for data: 548862720
I0918 01:56:14.352043   959 layer_factory.hpp:77] Creating layer inception_5b/pool_proj
I0918 01:56:14.352057   959 net.cpp:91] Creating Layer inception_5b/pool_proj
I0918 01:56:14.352063   959 net.cpp:425] inception_5b/pool_proj <- inception_5b/pool
I0918 01:56:14.352080   959 net.cpp:399] inception_5b/pool_proj -> inception_5b/pool_proj
I0918 01:56:14.354316   959 net.cpp:141] Setting up inception_5b/pool_proj
I0918 01:56:14.354333   959 net.cpp:148] Top shape: 10 128 7 7 (62720)
I0918 01:56:14.354338   959 net.cpp:156] Memory required for data: 549113600
I0918 01:56:14.354348   959 layer_factory.hpp:77] Creating layer inception_5b/relu_pool_proj
I0918 01:56:14.354360   959 net.cpp:91] Creating Layer inception_5b/relu_pool_proj
I0918 01:56:14.354367   959 net.cpp:425] inception_5b/relu_pool_proj <- inception_5b/pool_proj
I0918 01:56:14.354377   959 net.cpp:386] inception_5b/relu_pool_proj -> inception_5b/pool_proj (in-place)
I0918 01:56:14.355142   959 net.cpp:141] Setting up inception_5b/relu_pool_proj
I0918 01:56:14.355157   959 net.cpp:148] Top shape: 10 128 7 7 (62720)
I0918 01:56:14.355162   959 net.cpp:156] Memory required for data: 549364480
I0918 01:56:14.355167   959 layer_factory.hpp:77] Creating layer inception_5b/output
I0918 01:56:14.355176   959 net.cpp:91] Creating Layer inception_5b/output
I0918 01:56:14.355182   959 net.cpp:425] inception_5b/output <- inception_5b/1x1
I0918 01:56:14.355188   959 net.cpp:425] inception_5b/output <- inception_5b/3x3
I0918 01:56:14.355195   959 net.cpp:425] inception_5b/output <- inception_5b/5x5
I0918 01:56:14.355201   959 net.cpp:425] inception_5b/output <- inception_5b/pool_proj
I0918 01:56:14.355211   959 net.cpp:399] inception_5b/output -> inception_5b/output
I0918 01:56:14.355224   959 net.cpp:141] Setting up inception_5b/output
I0918 01:56:14.355232   959 net.cpp:148] Top shape: 10 1024 7 7 (501760)
I0918 01:56:14.355237   959 net.cpp:156] Memory required for data: 551371520
I0918 01:56:14.355240   959 layer_factory.hpp:77] Creating layer pool5/7x7_s1
I0918 01:56:14.355249   959 net.cpp:91] Creating Layer pool5/7x7_s1
I0918 01:56:14.355254   959 net.cpp:425] pool5/7x7_s1 <- inception_5b/output
I0918 01:56:14.355265   959 net.cpp:399] pool5/7x7_s1 -> pool5/7x7_s1
I0918 01:56:14.356936   959 net.cpp:141] Setting up pool5/7x7_s1
I0918 01:56:14.356952   959 net.cpp:148] Top shape: 10 1024 1 1 (10240)
I0918 01:56:14.356957   959 net.cpp:156] Memory required for data: 551412480
I0918 01:56:14.356963   959 layer_factory.hpp:77] Creating layer pool5/drop_7x7_s1
I0918 01:56:14.356983   959 net.cpp:91] Creating Layer pool5/drop_7x7_s1
I0918 01:56:14.356990   959 net.cpp:425] pool5/drop_7x7_s1 <- pool5/7x7_s1
I0918 01:56:14.356997   959 net.cpp:386] pool5/drop_7x7_s1 -> pool5/7x7_s1 (in-place)
I0918 01:56:14.357014   959 net.cpp:141] Setting up pool5/drop_7x7_s1
I0918 01:56:14.357014   953 net.cpp:141] Setting up inception_5b/3x3
I0918 01:56:14.357023   959 net.cpp:148] Top shape: 10 1024 1 1 (10240)
I0918 01:56:14.357035   953 net.cpp:148] Top shape: 10 384 7 7 (188160)
I0918 01:56:14.357038   959 net.cpp:156] Memory required for data: 551453440
I0918 01:56:14.357041   953 net.cpp:156] Memory required for data: 545789440
I0918 01:56:14.357043   959 layer_factory.hpp:77] Creating layer loss3/classifier
I0918 01:56:14.357053   953 layer_factory.hpp:77] Creating layer inception_5b/relu_3x3
I0918 01:56:14.357064   953 net.cpp:91] Creating Layer inception_5b/relu_3x3
I0918 01:56:14.357067   959 net.cpp:91] Creating Layer loss3/classifier
I0918 01:56:14.357070   953 net.cpp:425] inception_5b/relu_3x3 <- inception_5b/3x3
I0918 01:56:14.357074   959 net.cpp:425] loss3/classifier <- pool5/7x7_s1
I0918 01:56:14.357079   953 net.cpp:386] inception_5b/relu_3x3 -> inception_5b/3x3 (in-place)
I0918 01:56:14.357082   959 net.cpp:399] loss3/classifier -> loss3/classifier
I0918 01:56:14.357350   953 net.cpp:141] Setting up inception_5b/relu_3x3
I0918 01:56:14.357362   953 net.cpp:148] Top shape: 10 384 7 7 (188160)
I0918 01:56:14.357367   953 net.cpp:156] Memory required for data: 546542080
I0918 01:56:14.357372   953 layer_factory.hpp:77] Creating layer inception_5b/5x5_reduce
I0918 01:56:14.357393   953 net.cpp:91] Creating Layer inception_5b/5x5_reduce
I0918 01:56:14.357399   953 net.cpp:425] inception_5b/5x5_reduce <- inception_5a/output_inception_5a/output_0_split_2
I0918 01:56:14.357409   953 net.cpp:399] inception_5b/5x5_reduce -> inception_5b/5x5_reduce
I0918 01:56:14.359360   953 net.cpp:141] Setting up inception_5b/5x5_reduce
I0918 01:56:14.359380   953 net.cpp:148] Top shape: 10 48 7 7 (23520)
I0918 01:56:14.359385   953 net.cpp:156] Memory required for data: 546636160
I0918 01:56:14.359395   953 layer_factory.hpp:77] Creating layer inception_5b/relu_5x5_reduce
I0918 01:56:14.359406   953 net.cpp:91] Creating Layer inception_5b/relu_5x5_reduce
I0918 01:56:14.359413   953 net.cpp:425] inception_5b/relu_5x5_reduce <- inception_5b/5x5_reduce
I0918 01:56:14.359421   953 net.cpp:386] inception_5b/relu_5x5_reduce -> inception_5b/5x5_reduce (in-place)
I0918 01:56:14.361088   953 net.cpp:141] Setting up inception_5b/relu_5x5_reduce
I0918 01:56:14.361116   953 net.cpp:148] Top shape: 10 48 7 7 (23520)
I0918 01:56:14.361125   953 net.cpp:156] Memory required for data: 546730240
I0918 01:56:14.361135   953 layer_factory.hpp:77] Creating layer inception_5b/5x5
I0918 01:56:14.362154   953 net.cpp:91] Creating Layer inception_5b/5x5
I0918 01:56:14.362181   953 net.cpp:425] inception_5b/5x5 <- inception_5b/5x5_reduce
I0918 01:56:14.362208   953 net.cpp:399] inception_5b/5x5 -> inception_5b/5x5
I0918 01:56:14.368794   959 net.cpp:141] Setting up loss3/classifier
I0918 01:56:14.368851   959 net.cpp:148] Top shape: 10 1000 (10000)
I0918 01:56:14.368861   959 net.cpp:156] Memory required for data: 551493440
I0918 01:56:14.368880   959 layer_factory.hpp:77] Creating layer prob
I0918 01:56:14.368901   959 net.cpp:91] Creating Layer prob
I0918 01:56:14.368913   959 net.cpp:425] prob <- loss3/classifier
I0918 01:56:14.368933   959 net.cpp:399] prob -> prob
I0918 01:56:14.371292   959 net.cpp:141] Setting up prob
I0918 01:56:14.371322   959 net.cpp:148] Top shape: 10 1000 (10000)
I0918 01:56:14.371327   959 net.cpp:156] Memory required for data: 551533440
I0918 01:56:14.371333   959 net.cpp:219] prob does not need backward computation.
I0918 01:56:14.371340   959 net.cpp:219] loss3/classifier does not need backward computation.
I0918 01:56:14.371343   959 net.cpp:219] pool5/drop_7x7_s1 does not need backward computation.
I0918 01:56:14.371348   959 net.cpp:219] pool5/7x7_s1 does not need backward computation.
…
I0918 01:56:14.372287   959 net.cpp:219] pool1/3x3_s2 does not need backward computation.
I0918 01:56:14.372304   959 net.cpp:219] conv1/relu_7x7 does not need backward computation.
I0918 01:56:14.372311   959 net.cpp:219] conv1/7x7_s2 does not need backward computation.
I0918 01:56:14.372325   959 net.cpp:219] data does not need backward computation.
I0918 01:56:14.372329   959 net.cpp:261] This network produces output prob
I0918 01:56:14.372483   959 net.cpp:274] Network initialization done.
I0918 01:56:14.375210   953 net.cpp:141] Setting up inception_5b/pool_proj
I0918 01:56:14.375229   953 net.cpp:148] Top shape: 10 128 7 7 (62720)
I0918 01:56:14.375238   953 net.cpp:156] Memory required for data: 549113600
I0918 01:56:14.375253   953 layer_factory.hpp:77] Creating layer inception_5b/relu_pool_proj
I0918 01:56:14.375267   953 net.cpp:91] Creating Layer inception_5b/relu_pool_proj
I0918 01:56:14.375275   953 net.cpp:425] inception_5b/relu_pool_proj <- inception_5b/pool_proj
I0918 01:56:14.375303   953 net.cpp:386] inception_5b/relu_pool_proj -> inception_5b/pool_proj (in-place)
I0918 01:56:14.375926   953 net.cpp:141] Setting up inception_5b/relu_pool_proj
I0918 01:56:14.375943   953 net.cpp:148] Top shape: 10 128 7 7 (62720)
I0918 01:56:14.375951   953 net.cpp:156] Memory required for data: 549364480
I0918 01:56:14.375958   953 layer_factory.hpp:77] Creating layer inception_5b/output
I0918 01:56:14.375972   953 net.cpp:91] Creating Layer inception_5b/output
I0918 01:56:14.375980   953 net.cpp:425] inception_5b/output <- inception_5b/1x1
I0918 01:56:14.375996   953 net.cpp:425] inception_5b/output <- inception_5b/3x3
I0918 01:56:14.376005   953 net.cpp:425] inception_5b/output <- inception_5b/5x5
I0918 01:56:14.376014   953 net.cpp:425] inception_5b/output <- inception_5b/pool_proj
I0918 01:56:14.376026   953 net.cpp:399] inception_5b/output -> inception_5b/output
I0918 01:56:14.376045   953 net.cpp:141] Setting up inception_5b/output
I0918 01:56:14.376057   953 net.cpp:148] Top shape: 10 1024 7 7 (501760)
I0918 01:56:14.376063   953 net.cpp:156] Memory required for data: 551371520
I0918 01:56:14.376085   953 layer_factory.hpp:77] Creating layer pool5/7x7_s1
I0918 01:56:14.376103   953 net.cpp:91] Creating Layer pool5/7x7_s1
I0918 01:56:14.376112   953 net.cpp:425] pool5/7x7_s1 <- inception_5b/output
I0918 01:56:14.376124   953 net.cpp:399] pool5/7x7_s1 -> pool5/7x7_s1
I0918 01:56:14.376507   953 net.cpp:141] Setting up pool5/7x7_s1
I0918 01:56:14.376524   953 net.cpp:148] Top shape: 10 1024 1 1 (10240)
I0918 01:56:14.376533   953 net.cpp:156] Memory required for data: 551412480
I0918 01:56:14.376540   953 layer_factory.hpp:77] Creating layer pool5/drop_7x7_s1
I0918 01:56:14.376554   953 net.cpp:91] Creating Layer pool5/drop_7x7_s1
I0918 01:56:14.376561   953 net.cpp:425] pool5/drop_7x7_s1 <- pool5/7x7_s1
I0918 01:56:14.376575   953 net.cpp:386] pool5/drop_7x7_s1 -> pool5/7x7_s1 (in-place)
I0918 01:56:14.376591   953 net.cpp:141] Setting up pool5/drop_7x7_s1
I0918 01:56:14.376602   953 net.cpp:148] Top shape: 10 1024 1 1 (10240)
I0918 01:56:14.376610   953 net.cpp:156] Memory required for data: 551453440
I0918 01:56:14.376616   953 layer_factory.hpp:77] Creating layer loss3/classifier
I0918 01:56:14.376631   953 net.cpp:91] Creating Layer loss3/classifier
I0918 01:56:14.376639   953 net.cpp:425] loss3/classifier <- pool5/7x7_s1
I0918 01:56:14.376672   953 net.cpp:399] loss3/classifier -> loss3/classifier
I0918 01:56:14.389407   953 net.cpp:141] Setting up loss3/classifier
I0918 01:56:14.389457   953 net.cpp:148] Top shape: 10 1000 (10000)
I0918 01:56:14.389467   953 net.cpp:156] Memory required for data: 551493440
I0918 01:56:14.389487   953 layer_factory.hpp:77] Creating layer prob
I0918 01:56:14.389506   953 net.cpp:91] Creating Layer prob
I0918 01:56:14.389518   953 net.cpp:425] prob <- loss3/classifier
I0918 01:56:14.389531   953 net.cpp:399] prob -> prob
I0918 01:56:14.390563   953 net.cpp:141] Setting up prob
I0918 01:56:14.390583   953 net.cpp:148] Top shape: 10 1000 (10000)
I0918 01:56:14.390590   953 net.cpp:156] Memory required for data: 551533440
I0918 01:56:14.390599   953 net.cpp:219] prob does not need backward computation.
I0918 01:56:14.390606   953 net.cpp:219] loss3/classifier does not need backward computation.
I0918 01:56:14.390615   953 net.cpp:219] pool5/drop_7x7_s1 does not need backward computation.
I0918 01:56:14.390622   953 net.cpp:219] pool5/7x7_s1 does not need backward computation.
…
