…
2016-09-13 21:01:36.074 n.t.s.b.CVParticleBolt [INFO] [Timing] RequestID: 0 StreamID: home_peifeng_work_data_frame_1080x1920_png SequenceNr: 114 Leaving scale: 1473814896074 Size: 60165
2016-09-13 21:01:36.075 n.t.s.b.CVParticleBolt [INFO] [Timing] RequestID: 0 StreamID: home_peifeng_work_data_frame_1080x1920_png SequenceNr: 115 Entering scale: 1473814896075
2016-09-13 21:01:36.085 n.t.s.s.CVParticleSpout [INFO] [Timing] RequestID: 0 StreamID: home_peifeng_work_data_frame_1080x1920_png SequenceNr: 116 Leaving fetcher: 1473814896085 Size: 160423
2016-09-13 21:01:36.104 STDERR [INFO] I0913 21:01:36.104758 11876 net.cpp:141] Setting up conv1
2016-09-13 21:01:36.105 STDERR [INFO] I0913 21:01:36.104802 11876 net.cpp:148] Top shape: 10 96 55 55 (2904000)
2016-09-13 21:01:36.105 STDERR [INFO] I0913 21:01:36.104809 11876 net.cpp:156] Memory required for data: 17799480
2016-09-13 21:01:36.105 STDERR [INFO] I0913 21:01:36.104858 11876 layer_factory.hpp:77] Creating layer relu1
2016-09-13 21:01:36.105 STDERR [INFO] I0913 21:01:36.104890 11876 net.cpp:91] Creating Layer relu1
2016-09-13 21:01:36.105 STDERR [INFO] I0913 21:01:36.104897 11876 net.cpp:425] relu1 <- conv1
2016-09-13 21:01:36.105 STDERR [INFO] I0913 21:01:36.104907 11876 net.cpp:386] relu1 -> conv1 (in-place)
2016-09-13 21:01:36.106 STDERR [INFO] I0913 21:01:36.105307 11876 net.cpp:141] Setting up relu1
2016-09-13 21:01:36.106 STDERR [INFO] I0913 21:01:36.105321 11876 net.cpp:148] Top shape: 10 96 55 55 (2904000)
2016-09-13 21:01:36.106 STDERR [INFO] I0913 21:01:36.105326 11876 net.cpp:156] Memory required for data: 29415480
2016-09-13 21:01:36.106 STDERR [INFO] I0913 21:01:36.105331 11876 layer_factory.hpp:77] Creating layer pool1
2016-09-13 21:01:36.106 STDERR [INFO] I0913 21:01:36.105347 11876 net.cpp:91] Creating Layer pool1
2016-09-13 21:01:36.106 STDERR [INFO] I0913 21:01:36.105352 11876 net.cpp:425] pool1 <- conv1
2016-09-13 21:01:36.106 STDERR [INFO] I0913 21:01:36.105361 11876 net.cpp:399] pool1 -> pool1
2016-09-13 21:01:36.108 n.t.s.b.CVParticleBolt [INFO] [Timing] RequestID: 0 StreamID: home_peifeng_work_data_frame_1080x1920_png SequenceNr: 113 Leaving scale: 1473814896107 Size: 60165
2016-09-13 21:01:36.108 n.t.s.b.CVParticleBolt [INFO] [Timing] RequestID: 0 StreamID: home_peifeng_work_data_frame_1080x1920_png SequenceNr: 116 Entering scale: 1473814896108
2016-09-13 21:01:36.109 STDERR [INFO] I0913 21:01:36.105437 11876 net.cpp:141] Setting up pool1
2016-09-13 21:01:36.109 STDERR [INFO] I0913 21:01:36.105448 11876 net.cpp:148] Top shape: 10 96 27 27 (699840)
2016-09-13 21:01:36.109 STDERR [INFO] I0913 21:01:36.105453 11876 net.cpp:156] Memory required for data: 32214840
2016-09-13 21:01:36.110 STDERR [INFO] I0913 21:01:36.105456 11876 layer_factory.hpp:77] Creating layer norm1
2016-09-13 21:01:36.110 STDERR [INFO] I0913 21:01:36.105473 11876 net.cpp:91] Creating Layer norm1
2016-09-13 21:01:36.110 STDERR [INFO] I0913 21:01:36.105478 11876 net.cpp:425] norm1 <- pool1
2016-09-13 21:01:36.110 STDERR [INFO] I0913 21:01:36.105484 11876 net.cpp:399] norm1 -> norm1
2016-09-13 21:01:36.110 STDERR [INFO] I0913 21:01:36.105748 11876 net.cpp:141] Setting up norm1
2016-09-13 21:01:36.110 STDERR [INFO] I0913 21:01:36.105761 11876 net.cpp:148] Top shape: 10 96 27 27 (699840)
2016-09-13 21:01:36.110 STDERR [INFO] I0913 21:01:36.105765 11876 net.cpp:156] Memory required for data: 35014200
2016-09-13 21:01:36.110 STDERR [INFO] I0913 21:01:36.105770 11876 layer_factory.hpp:77] Creating layer conv2
2016-09-13 21:01:36.110 STDERR [INFO] I0913 21:01:36.105787 11876 net.cpp:91] Creating Layer conv2
2016-09-13 21:01:36.111 STDERR [INFO] I0913 21:01:36.105792 11876 net.cpp:425] conv2 <- norm1
2016-09-13 21:01:36.111 STDERR [INFO] I0913 21:01:36.105800 11876 net.cpp:399] conv2 -> conv2
2016-09-13 21:01:36.111 STDERR [INFO] I0913 21:01:36.109535 11876 net.cpp:141] Setting up conv2
2016-09-13 21:01:36.111 STDERR [INFO] I0913 21:01:36.109556 11876 net.cpp:148] Top shape: 10 256 27 27 (1866240)
2016-09-13 21:01:36.111 STDERR [INFO] I0913 21:01:36.109561 11876 net.cpp:156] Memory required for data: 42479160
2016-09-13 21:01:36.111 STDERR [INFO] I0913 21:01:36.109575 11876 layer_factory.hpp:77] Creating layer relu2
2016-09-13 21:01:36.111 STDERR [INFO] I0913 21:01:36.109606 11876 net.cpp:91] Creating Layer relu2
2016-09-13 21:01:36.112 STDERR [INFO] I0913 21:01:36.109611 11876 net.cpp:425] relu2 <- conv2
2016-09-13 21:01:36.112 STDERR [INFO] I0913 21:01:36.109618 11876 net.cpp:386] relu2 -> conv2 (in-place)
2016-09-13 21:01:36.112 STDERR [INFO] I0913 21:01:36.110005 11876 net.cpp:141] Setting up relu2
2016-09-13 21:01:36.112 STDERR [INFO] I0913 21:01:36.110018 11876 net.cpp:148] Top shape: 10 256 27 27 (1866240)
2016-09-13 21:01:36.112 STDERR [INFO] I0913 21:01:36.110023 11876 net.cpp:156] Memory required for data: 49944120
2016-09-13 21:01:36.112 STDERR [INFO] I0913 21:01:36.110029 11876 layer_factory.hpp:77] Creating layer pool2
2016-09-13 21:01:36.112 STDERR [INFO] I0913 21:01:36.110051 11876 net.cpp:91] Creating Layer pool2
2016-09-13 21:01:36.113 STDERR [INFO] I0913 21:01:36.110057 11876 net.cpp:425] pool2 <- conv2
2016-09-13 21:01:36.113 STDERR [INFO] I0913 21:01:36.110065 11876 net.cpp:399] pool2 -> pool2
2016-09-13 21:01:36.113 STDERR [INFO] I0913 21:01:36.110117 11876 net.cpp:141] Setting up pool2
2016-09-13 21:01:36.113 STDERR [INFO] I0913 21:01:36.110126 11876 net.cpp:148] Top shape: 10 256 13 13 (432640)
2016-09-13 21:01:36.113 STDERR [INFO] I0913 21:01:36.110131 11876 net.cpp:156] Memory required for data: 51674680
2016-09-13 21:01:36.113 STDERR [INFO] I0913 21:01:36.110136 11876 layer_factory.hpp:77] Creating layer norm2
2016-09-13 21:01:36.114 STDERR [INFO] I0913 21:01:36.110146 11876 net.cpp:91] Creating Layer norm2
2016-09-13 21:01:36.114 STDERR [INFO] I0913 21:01:36.110152 11876 net.cpp:425] norm2 <- pool2
2016-09-13 21:01:36.114 STDERR [INFO] I0913 21:01:36.110159 11876 net.cpp:399] norm2 -> norm2
2016-09-13 21:01:36.114 STDERR [INFO] I0913 21:01:36.110411 11876 net.cpp:141] Setting up norm2
2016-09-13 21:01:36.114 STDERR [INFO] I0913 21:01:36.110435 11876 net.cpp:148] Top shape: 10 256 13 13 (432640)
2016-09-13 21:01:36.114 STDERR [INFO] I0913 21:01:36.110441 11876 net.cpp:156] Memory required for data: 53405240
2016-09-13 21:01:36.114 STDERR [INFO] I0913 21:01:36.110445 11876 layer_factory.hpp:77] Creating layer conv3
2016-09-13 21:01:36.115 STDERR [INFO] I0913 21:01:36.110456 11876 net.cpp:91] Creating Layer conv3
2016-09-13 21:01:36.115 STDERR [INFO] I0913 21:01:36.110461 11876 net.cpp:425] conv3 <- norm2
2016-09-13 21:01:36.115 STDERR [INFO] I0913 21:01:36.110469 11876 net.cpp:399] conv3 -> conv3
2016-09-13 21:01:36.115 STDERR [INFO] I0913 21:01:36.113884 11876 net.cpp:141] Setting up conv3
2016-09-13 21:01:36.115 STDERR [INFO] I0913 21:01:36.113898 11876 net.cpp:148] Top shape: 10 384 13 13 (648960)
2016-09-13 21:01:36.115 STDERR [INFO] I0913 21:01:36.113903 11876 net.cpp:156] Memory required for data: 56001080
2016-09-13 21:01:36.116 STDERR [INFO] I0913 21:01:36.113915 11876 layer_factory.hpp:77] Creating layer relu3
2016-09-13 21:01:36.116 STDERR [INFO] I0913 21:01:36.113924 11876 net.cpp:91] Creating Layer relu3
2016-09-13 21:01:36.116 STDERR [INFO] I0913 21:01:36.113929 11876 net.cpp:425] relu3 <- conv3
2016-09-13 21:01:36.116 STDERR [INFO] I0913 21:01:36.113935 11876 net.cpp:386] relu3 -> conv3 (in-place)
2016-09-13 21:01:36.116 STDERR [INFO] I0913 21:01:36.114156 11876 net.cpp:141] Setting up relu3
2016-09-13 21:01:36.116 STDERR [INFO] I0913 21:01:36.114167 11876 net.cpp:148] Top shape: 10 384 13 13 (648960)
2016-09-13 21:01:36.116 STDERR [INFO] I0913 21:01:36.114174 11876 net.cpp:156] Memory required for data: 58596920
2016-09-13 21:01:36.117 STDERR [INFO] I0913 21:01:36.114190 11876 layer_factory.hpp:77] Creating layer conv4
2016-09-13 21:01:36.117 STDERR [INFO] I0913 21:01:36.114202 11876 net.cpp:91] Creating Layer conv4
2016-09-13 21:01:36.117 STDERR [INFO] I0913 21:01:36.114207 11876 net.cpp:425] conv4 <- conv3
2016-09-13 21:01:36.117 STDERR [INFO] I0913 21:01:36.114215 11876 net.cpp:399] conv4 -> conv4
2016-09-13 21:01:36.119 STDERR [INFO] I0913 21:01:36.119421 11876 net.cpp:141] Setting up conv4
2016-09-13 21:01:36.119 STDERR [INFO] I0913 21:01:36.119482 11876 net.cpp:148] Top shape: 10 384 13 13 (648960)
2016-09-13 21:01:36.119 STDERR [INFO] I0913 21:01:36.119493 11876 net.cpp:156] Memory required for data: 61192760
2016-09-13 21:01:36.120 STDERR [INFO] I0913 21:01:36.119515 11876 layer_factory.hpp:77] Creating layer relu4
2016-09-13 21:01:36.120 STDERR [INFO] I0913 21:01:36.119537 11876 net.cpp:91] Creating Layer relu4
2016-09-13 21:01:36.120 STDERR [INFO] I0913 21:01:36.119549 11876 net.cpp:425] relu4 <- conv4
2016-09-13 21:01:36.120 STDERR [INFO] I0913 21:01:36.119562 11876 net.cpp:386] relu4 -> conv4 (in-place)
2016-09-13 21:01:36.120 STDERR [INFO] I0913 21:01:36.120230 11876 net.cpp:141] Setting up relu4
2016-09-13 21:01:36.120 STDERR [INFO] I0913 21:01:36.120252 11876 net.cpp:148] Top shape: 10 384 13 13 (648960)
2016-09-13 21:01:36.120 STDERR [INFO] I0913 21:01:36.120260 11876 net.cpp:156] Memory required for data: 63788600
2016-09-13 21:01:36.120 STDERR [INFO] I0913 21:01:36.120270 11876 layer_factory.hpp:77] Creating layer conv5
2016-09-13 21:01:36.120 STDERR [INFO] I0913 21:01:36.120296 11876 net.cpp:91] Creating Layer conv5
2016-09-13 21:01:36.120 STDERR [INFO] I0913 21:01:36.120307 11876 net.cpp:425] conv5 <- conv4
2016-09-13 21:01:36.121 STDERR [INFO] I0913 21:01:36.120321 11876 net.cpp:399] conv5 -> conv5
2016-09-13 21:01:36.125 STDERR [INFO] I0913 21:01:36.124956 11876 net.cpp:141] Setting up conv5
2016-09-13 21:01:36.125 STDERR [INFO] I0913 21:01:36.124981 11876 net.cpp:148] Top shape: 10 256 13 13 (432640)
2016-09-13 21:01:36.125 STDERR [INFO] I0913 21:01:36.124989 11876 net.cpp:156] Memory required for data: 65519160
2016-09-13 21:01:36.125 STDERR [INFO] I0913 21:01:36.125011 11876 layer_factory.hpp:77] Creating layer relu5
2016-09-13 21:01:36.125 STDERR [INFO] I0913 21:01:36.125022 11876 net.cpp:91] Creating Layer relu5
2016-09-13 21:01:36.126 STDERR [INFO] I0913 21:01:36.125030 11876 net.cpp:425] relu5 <- conv5
2016-09-13 21:01:36.126 STDERR [INFO] I0913 21:01:36.125039 11876 net.cpp:386] relu5 -> conv5 (in-place)
2016-09-13 21:01:36.126 STDERR [INFO] I0913 21:01:36.125494 11876 net.cpp:141] Setting up relu5
2016-09-13 21:01:36.126 STDERR [INFO] I0913 21:01:36.125507 11876 net.cpp:148] Top shape: 10 256 13 13 (432640)
2016-09-13 21:01:36.126 STDERR [INFO] I0913 21:01:36.125512 11876 net.cpp:156] Memory required for data: 67249720
2016-09-13 21:01:36.126 STDERR [INFO] I0913 21:01:36.125516 11876 layer_factory.hpp:77] Creating layer pool5
2016-09-13 21:01:36.126 STDERR [INFO] I0913 21:01:36.125526 11876 net.cpp:91] Creating Layer pool5
2016-09-13 21:01:36.126 STDERR [INFO] I0913 21:01:36.125531 11876 net.cpp:425] pool5 <- conv5
2016-09-13 21:01:36.126 STDERR [INFO] I0913 21:01:36.125541 11876 net.cpp:399] pool5 -> pool5
2016-09-13 21:01:36.126 STDERR [INFO] I0913 21:01:36.125599 11876 net.cpp:141] Setting up pool5
2016-09-13 21:01:36.126 STDERR [INFO] I0913 21:01:36.125608 11876 net.cpp:148] Top shape: 10 256 6 6 (92160)
2016-09-13 21:01:36.127 STDERR [INFO] I0913 21:01:36.125612 11876 net.cpp:156] Memory required for data: 67618360
2016-09-13 21:01:36.127 STDERR [INFO] I0913 21:01:36.125617 11876 layer_factory.hpp:77] Creating layer fc6
2016-09-13 21:01:36.127 STDERR [INFO] I0913 21:01:36.125641 11876 net.cpp:91] Creating Layer fc6
2016-09-13 21:01:36.127 STDERR [INFO] I0913 21:01:36.125646 11876 net.cpp:425] fc6 <- pool5
…
2016-09-13 21:01:36.283 STDERR [INFO] I0913 21:01:36.268086 11866 net.cpp:91] Creating Layer input
2016-09-13 21:01:36.283 STDERR [INFO] I0913 21:01:36.268095 11866 net.cpp:399] input -> frames_fc7
2016-09-13 21:01:36.283 STDERR [INFO] I0913 21:01:36.268115 11866 net.cpp:399] input -> cont_sentence
2016-09-13 21:01:36.283 STDERR [INFO] I0913 21:01:36.268126 11866 net.cpp:399] input -> input_sentence
2016-09-13 21:01:36.283 STDERR [INFO] I0913 21:01:36.268134 11866 net.cpp:399] input -> stage_indicator
2016-09-13 21:01:36.283 STDERR [INFO] I0913 21:01:36.268282 11866 net.cpp:141] Setting up input
2016-09-13 21:01:36.284 STDERR [INFO] I0913 21:01:36.268295 11866 net.cpp:148] Top shape: 1 4096 (4096)
2016-09-13 21:01:36.284 STDERR [INFO] I0913 21:01:36.268301 11866 net.cpp:148] Top shape: 1 1 (1)
2016-09-13 21:01:36.284 STDERR [INFO] I0913 21:01:36.268306 11866 net.cpp:148] Top shape: 1 1 (1)
2016-09-13 21:01:36.284 STDERR [INFO] I0913 21:01:36.268311 11866 net.cpp:148] Top shape: 1 1 (1)
2016-09-13 21:01:36.284 STDERR [INFO] I0913 21:01:36.268314 11866 net.cpp:156] Memory required for data: 16396
2016-09-13 21:01:36.284 STDERR [INFO] I0913 21:01:36.268321 11866 layer_factory.hpp:77] Creating layer cont_sentence_input_1_split
2016-09-13 21:01:36.284 STDERR [INFO] I0913 21:01:36.268340 11866 net.cpp:91] Creating Layer cont_sentence_input_1_split
2016-09-13 21:01:36.284 STDERR [INFO] I0913 21:01:36.268345 11866 net.cpp:425] cont_sentence_input_1_split <- cont_sentence
2016-09-13 21:01:36.284 STDERR [INFO] I0913 21:01:36.268376 11866 net.cpp:399] cont_sentence_input_1_split -> cont_sentence_input_1_split_0
2016-09-13 21:01:36.284 STDERR [INFO] I0913 21:01:36.268386 11866 net.cpp:399] cont_sentence_input_1_split -> cont_sentence_input_1_split_1
2016-09-13 21:01:36.284 STDERR [INFO] I0913 21:01:36.268434 11866 net.cpp:141] Setting up cont_sentence_input_1_split
2016-09-13 21:01:36.284 STDERR [INFO] I0913 21:01:36.268442 11866 net.cpp:148] Top shape: 1 1 (1)
2016-09-13 21:01:36.285 STDERR [INFO] I0913 21:01:36.268448 11866 net.cpp:148] Top shape: 1 1 (1)
2016-09-13 21:01:36.285 STDERR [INFO] I0913 21:01:36.268452 11866 net.cpp:156] Memory required for data: 16404
2016-09-13 21:01:36.285 STDERR [INFO] I0913 21:01:36.268457 11866 layer_factory.hpp:77] Creating layer embed_encoder
2016-09-13 21:01:36.285 STDERR [INFO] I0913 21:01:36.268468 11866 net.cpp:91] Creating Layer embed_encoder
2016-09-13 21:01:36.285 STDERR [INFO] I0913 21:01:36.268473 11866 net.cpp:425] embed_encoder <- frames_fc7
2016-09-13 21:01:36.285 STDERR [INFO] I0913 21:01:36.268481 11866 net.cpp:399] embed_encoder -> embedded_in_frames
2016-09-13 21:01:36.285 STDERR [INFO] I0913 21:01:36.275076 11876 net.cpp:141] Setting up fc7
2016-09-13 21:01:36.285 STDERR [INFO] I0913 21:01:36.275112 11876 net.cpp:148] Top shape: 10 4096 (40960)
2016-09-13 21:01:36.285 STDERR [INFO] I0913 21:01:36.275118 11876 net.cpp:156] Memory required for data: 68273720
2016-09-13 21:01:36.285 STDERR [INFO] I0913 21:01:36.275131 11876 layer_factory.hpp:77] Creating layer relu7
2016-09-13 21:01:36.285 STDERR [INFO] I0913 21:01:36.275163 11876 net.cpp:91] Creating Layer relu7
2016-09-13 21:01:36.286 STDERR [INFO] I0913 21:01:36.275171 11876 net.cpp:425] relu7 <- fc7
2016-09-13 21:01:36.286 STDERR [INFO] I0913 21:01:36.275183 11876 net.cpp:386] relu7 -> fc7 (in-place)
2016-09-13 21:01:36.286 STDERR [INFO] I0913 21:01:36.275775 11876 net.cpp:141] Setting up relu7
2016-09-13 21:01:36.286 STDERR [INFO] I0913 21:01:36.275787 11876 net.cpp:148] Top shape: 10 4096 (40960)
2016-09-13 21:01:36.286 STDERR [INFO] I0913 21:01:36.275792 11876 net.cpp:156] Memory required for data: 68437560
2016-09-13 21:01:36.286 STDERR [INFO] I0913 21:01:36.275797 11876 layer_factory.hpp:77] Creating layer drop7
2016-09-13 21:01:36.286 STDERR [INFO] I0913 21:01:36.275807 11876 net.cpp:91] Creating Layer drop7
2016-09-13 21:01:36.286 STDERR [INFO] I0913 21:01:36.275812 11876 net.cpp:425] drop7 <- fc7
2016-09-13 21:01:36.286 STDERR [INFO] I0913 21:01:36.275822 11876 net.cpp:386] drop7 -> fc7 (in-place)
2016-09-13 21:01:36.286 STDERR [INFO] I0913 21:01:36.275861 11876 net.cpp:141] Setting up drop7
2016-09-13 21:01:36.286 STDERR [INFO] I0913 21:01:36.275869 11876 net.cpp:148] Top shape: 10 4096 (40960)
2016-09-13 21:01:36.286 STDERR [INFO] I0913 21:01:36.275873 11876 net.cpp:156] Memory required for data: 68601400
2016-09-13 21:01:36.286 STDERR [INFO] I0913 21:01:36.275878 11876 layer_factory.hpp:77] Creating layer fc8
2016-09-13 21:01:36.287 STDERR [INFO] I0913 21:01:36.275887 11876 net.cpp:91] Creating Layer fc8
2016-09-13 21:01:36.287 STDERR [INFO] I0913 21:01:36.275892 11876 net.cpp:425] fc8 <- fc7
2016-09-13 21:01:36.287 STDERR [INFO] I0913 21:01:36.275902 11876 net.cpp:399] fc8 -> fc8
2016-09-13 21:01:36.287 STDERR [INFO] I0913 21:01:36.287402 11876 net.cpp:141] Setting up fc8
2016-09-13 21:01:36.287 STDERR [INFO] I0913 21:01:36.287441 11876 net.cpp:148] Top shape: 10 1000 (10000)
2016-09-13 21:01:36.287 STDERR [INFO] I0913 21:01:36.287446 11876 net.cpp:156] Memory required for data: 68641400
2016-09-13 21:01:36.287 STDERR [INFO] I0913 21:01:36.287459 11876 layer_factory.hpp:77] Creating layer prob
2016-09-13 21:01:36.287 STDERR [INFO] I0913 21:01:36.287473 11876 net.cpp:91] Creating Layer prob
2016-09-13 21:01:36.287 STDERR [INFO] I0913 21:01:36.287482 11876 net.cpp:425] prob <- fc8
2016-09-13 21:01:36.287 STDERR [INFO] I0913 21:01:36.287490 11876 net.cpp:399] prob -> prob
2016-09-13 21:01:36.288 STDERR [INFO] I0913 21:01:36.287902 11876 net.cpp:141] Setting up prob
2016-09-13 21:01:36.288 STDERR [INFO] I0913 21:01:36.287914 11876 net.cpp:148] Top shape: 10 1000 (10000)
2016-09-13 21:01:36.288 STDERR [INFO] I0913 21:01:36.287919 11876 net.cpp:156] Memory required for data: 68681400
2016-09-13 21:01:36.288 STDERR [INFO] I0913 21:01:36.287924 11876 net.cpp:219] prob does not need backward computation.
2016-09-13 21:01:36.288 STDERR [INFO] I0913 21:01:36.287928 11876 net.cpp:219] fc8 does not need backward computation.
2016-09-13 21:01:36.288 STDERR [INFO] I0913 21:01:36.287933 11876 net.cpp:219] drop7 does not need backward computation.
…
2016-09-13 21:01:36.518 STDERR [INFO] }
2016-09-13 21:01:36.518 STDERR [INFO] I0913 21:01:36.506901 11866 layer_factory.hpp:77] Creating layer lstm1_
2016-09-13 21:01:36.519 STDERR [INFO] I0913 21:01:36.506912 11866 net.cpp:91] Creating Layer lstm1_
2016-09-13 21:01:36.519 STDERR [INFO] I0913 21:01:36.506918 11866 net.cpp:399] lstm1_ -> x
2016-09-13 21:01:36.519 STDERR [INFO] I0913 21:01:36.506929 11866 net.cpp:399] lstm1_ -> cont
2016-09-13 21:01:36.519 STDERR [INFO] I0913 21:01:36.506991 11866 net.cpp:141] Setting up lstm1_
2016-09-13 21:01:36.519 STDERR [INFO] I0913 21:01:36.507004 11866 net.cpp:148] Top shape: 1 1 500 (500)
2016-09-13 21:01:36.519 STDERR [INFO] I0913 21:01:36.507009 11866 net.cpp:148] Top shape: 1 1 (1)
2016-09-13 21:01:36.519 STDERR [INFO] I0913 21:01:36.507014 11866 net.cpp:156] Memory required for data: 2004
2016-09-13 21:01:36.519 STDERR [INFO] I0913 21:01:36.507019 11866 layer_factory.hpp:77] Creating layer lstm1_
2016-09-13 21:01:36.519 STDERR [INFO] I0913 21:01:36.507026 11866 net.cpp:91] Creating Layer lstm1_
2016-09-13 21:01:36.519 STDERR [INFO] I0913 21:01:36.507032 11866 net.cpp:399] lstm1_ -> c_0
2016-09-13 21:01:36.519 STDERR [INFO] I0913 21:01:36.507043 11866 net.cpp:399] lstm1_ -> h_0
2016-09-13 21:01:36.519 STDERR [INFO] I0913 21:01:36.507091 11866 net.cpp:141] Setting up lstm1_
2016-09-13 21:01:36.520 STDERR [INFO] I0913 21:01:36.507100 11866 net.cpp:148] Top shape: 1 1 1000 (1000)
2016-09-13 21:01:36.520 STDERR [INFO] I0913 21:01:36.507107 11866 net.cpp:148] Top shape: 1 1 1000 (1000)
2016-09-13 21:01:36.520 STDERR [INFO] I0913 21:01:36.507110 11866 net.cpp:156] Memory required for data: 10004
2016-09-13 21:01:36.520 STDERR [INFO] I0913 21:01:36.507114 11866 layer_factory.hpp:77] Creating layer lstm1_cont_slice
2016-09-13 21:01:36.520 STDERR [INFO] I0913 21:01:36.507125 11866 net.cpp:91] Creating Layer lstm1_cont_slice
2016-09-13 21:01:36.520 STDERR [INFO] I0913 21:01:36.507129 11866 net.cpp:425] lstm1_cont_slice <- cont
2016-09-13 21:01:36.520 STDERR [INFO] I0913 21:01:36.507136 11866 net.cpp:399] lstm1_cont_slice -> cont_1
2016-09-13 21:01:36.520 STDERR [INFO] I0913 21:01:36.507172 11866 net.cpp:141] Setting up lstm1_cont_slice
2016-09-13 21:01:36.520 STDERR [INFO] I0913 21:01:36.507180 11866 net.cpp:148] Top shape: 1 1 (1)
2016-09-13 21:01:36.520 STDERR [INFO] I0913 21:01:36.507185 11866 net.cpp:156] Memory required for data: 10008
2016-09-13 21:01:36.520 STDERR [INFO] I0913 21:01:36.507189 11866 layer_factory.hpp:77] Creating layer cont_1_lstm1_cont_slice_0_split
2016-09-13 21:01:36.521 STDERR [INFO] I0913 21:01:36.507196 11866 net.cpp:91] Creating Layer cont_1_lstm1_cont_slice_0_split
2016-09-13 21:01:36.521 STDERR [INFO] I0913 21:01:36.507201 11866 net.cpp:425] cont_1_lstm1_cont_slice_0_split <- cont_1
2016-09-13 21:01:36.521 STDERR [INFO] I0913 21:01:36.507210 11866 net.cpp:399] cont_1_lstm1_cont_slice_0_split -> cont_1_lstm1_cont_slice_0_split_0
2016-09-13 21:01:36.521 STDERR [INFO] I0913 21:01:36.507217 11866 net.cpp:399] cont_1_lstm1_cont_slice_0_split -> cont_1_lstm1_cont_slice_0_split_1
2016-09-13 21:01:36.521 STDERR [INFO] I0913 21:01:36.507263 11866 net.cpp:141] Setting up cont_1_lstm1_cont_slice_0_split
2016-09-13 21:01:36.521 STDERR [INFO] I0913 21:01:36.507272 11866 net.cpp:148] Top shape: 1 1 (1)
2016-09-13 21:01:36.521 STDERR [INFO] I0913 21:01:36.507277 11866 net.cpp:148] Top shape: 1 1 (1)
2016-09-13 21:01:36.521 STDERR [INFO] I0913 21:01:36.507280 11866 net.cpp:156] Memory required for data: 10016
2016-09-13 21:01:36.521 STDERR [INFO] I0913 21:01:36.507285 11866 layer_factory.hpp:77] Creating layer lstm1_x_transform
2016-09-13 21:01:36.521 STDERR [INFO] I0913 21:01:36.507297 11866 net.cpp:91] Creating Layer lstm1_x_transform
2016-09-13 21:01:36.521 STDERR [INFO] I0913 21:01:36.507302 11866 net.cpp:425] lstm1_x_transform <- x
2016-09-13 21:01:36.521 STDERR [INFO] I0913 21:01:36.507309 11866 net.cpp:399] lstm1_x_transform -> W_xc_x
2016-09-13 21:01:36.528 STDERR [INFO] I0913 21:01:36.527866 11866 net.cpp:141] Setting up lstm1_x_transform
2016-09-13 21:01:36.528 STDERR [INFO] I0913 21:01:36.527907 11866 net.cpp:148] Top shape: 1 1 4000 (4000)
2016-09-13 21:01:36.528 STDERR [INFO] I0913 21:01:36.527914 11866 net.cpp:156] Memory required for data: 26016
2016-09-13 21:01:36.528 STDERR [INFO] I0913 21:01:36.527931 11866 layer_factory.hpp:77] Creating layer lstm1_W_xc_x_slice
2016-09-13 21:01:36.528 STDERR [INFO] I0913 21:01:36.527948 11866 net.cpp:91] Creating Layer lstm1_W_xc_x_slice
2016-09-13 21:01:36.528 STDERR [INFO] I0913 21:01:36.527954 11866 net.cpp:425] lstm1_W_xc_x_slice <- W_xc_x
2016-09-13 21:01:36.528 STDERR [INFO] I0913 21:01:36.527963 11866 net.cpp:399] lstm1_W_xc_x_slice -> W_xc_x_1
2016-09-13 21:01:36.528 STDERR [INFO] I0913 21:01:36.528004 11866 net.cpp:141] Setting up lstm1_W_xc_x_slice
2016-09-13 21:01:36.528 STDERR [INFO] I0913 21:01:36.528014 11866 net.cpp:148] Top shape: 1 1 4000 (4000)
2016-09-13 21:01:36.528 STDERR [INFO] I0913 21:01:36.528018 11866 net.cpp:156] Memory required for data: 42016
2016-09-13 21:01:36.528 STDERR [INFO] I0913 21:01:36.528023 11866 layer_factory.hpp:77] Creating layer lstm1_h_conted_0
2016-09-13 21:01:36.528 STDERR [INFO] I0913 21:01:36.528033 11866 net.cpp:91] Creating Layer lstm1_h_conted_0
2016-09-13 21:01:36.529 STDERR [INFO] I0913 21:01:36.528038 11866 net.cpp:425] lstm1_h_conted_0 <- h_0
2016-09-13 21:01:36.529 STDERR [INFO] I0913 21:01:36.528043 11866 net.cpp:425] lstm1_h_conted_0 <- cont_1_lstm1_cont_slice_0_split_0
2016-09-13 21:01:36.529 STDERR [INFO] I0913 21:01:36.528053 11866 net.cpp:399] lstm1_h_conted_0 -> h_conted_0
2016-09-13 21:01:36.529 STDERR [INFO] I0913 21:01:36.528158 11866 net.cpp:141] Setting up lstm1_h_conted_0
2016-09-13 21:01:36.529 STDERR [INFO] I0913 21:01:36.528168 11866 net.cpp:148] Top shape: 1 1 1000 (1000)
2016-09-13 21:01:36.529 STDERR [INFO] I0913 21:01:36.528172 11866 net.cpp:156] Memory required for data: 46016
2016-09-13 21:01:36.529 STDERR [INFO] I0913 21:01:36.528177 11866 layer_factory.hpp:77] Creating layer lstm1_transform_1
2016-09-13 21:01:36.529 STDERR [INFO] I0913 21:01:36.528192 11866 net.cpp:91] Creating Layer lstm1_transform_1
2016-09-13 21:01:36.529 STDERR [INFO] I0913 21:01:36.528198 11866 net.cpp:425] lstm1_transform_1 <- h_conted_0
…
2016-09-13 21:01:36.550 STDERR [INFO] I0913 21:01:36.550084 11876 upgrade_proto.cpp:52] Attempting to upgrade input file specified using deprecated V1LayerParameter: /home/peifeng/work/run/storm102/data/workers/a927c850-2619-4aed-baaf-4e60244d38a4/tmp/cvld3058852401212334555/bvlc_reference_caffenet.caffemodel
2016-09-13 21:01:36.558 n.t.s.s.CVParticleSpout [INFO] [Timing] RequestID: 0 StreamID: home_peifeng_work_data_frame_1080x1920_png SequenceNr: 124 Leaving fetcher: 1473814896558 Size: 160423
2016-09-13 21:01:36.560 n.t.s.b.CVParticleBolt [INFO] [Timing] RequestID: 0 StreamID: home_peifeng_work_data_frame_1080x1920_png SequenceNr: 124 Entering scale: 1473814896560
2016-09-13 21:01:36.566 STDERR [INFO] I0913 21:01:36.566052 11866 net.cpp:141] Setting up lstm1_transform_1
2016-09-13 21:01:36.566 STDERR [INFO] I0913 21:01:36.566097 11866 net.cpp:148] Top shape: 1 1 4000 (4000)
2016-09-13 21:01:36.566 STDERR [INFO] I0913 21:01:36.566102 11866 net.cpp:156] Memory required for data: 62016
2016-09-13 21:01:36.566 STDERR [INFO] I0913 21:01:36.566120 11866 layer_factory.hpp:77] Creating layer lstm1_gate_input_1
2016-09-13 21:01:36.566 STDERR [INFO] I0913 21:01:36.566140 11866 net.cpp:91] Creating Layer lstm1_gate_input_1
2016-09-13 21:01:36.566 STDERR [INFO] I0913 21:01:36.566148 11866 net.cpp:425] lstm1_gate_input_1 <- W_hc_h_0
2016-09-13 21:01:36.566 STDERR [INFO] I0913 21:01:36.566155 11866 net.cpp:425] lstm1_gate_input_1 <- W_xc_x_1
2016-09-13 21:01:36.566 STDERR [INFO] I0913 21:01:36.566164 11866 net.cpp:399] lstm1_gate_input_1 -> gate_input_1
2016-09-13 21:01:36.567 STDERR [INFO] I0913 21:01:36.566215 11866 net.cpp:141] Setting up lstm1_gate_input_1
2016-09-13 21:01:36.567 STDERR [INFO] I0913 21:01:36.566223 11866 net.cpp:148] Top shape: 1 1 4000 (4000)
2016-09-13 21:01:36.567 STDERR [INFO] I0913 21:01:36.566228 11866 net.cpp:156] Memory required for data: 78016
2016-09-13 21:01:36.567 STDERR [INFO] I0913 21:01:36.566232 11866 layer_factory.hpp:77] Creating layer lstm1_unit_1
2016-09-13 21:01:36.567 STDERR [INFO] I0913 21:01:36.566243 11866 net.cpp:91] Creating Layer lstm1_unit_1
2016-09-13 21:01:36.567 STDERR [INFO] I0913 21:01:36.566248 11866 net.cpp:425] lstm1_unit_1 <- c_0
2016-09-13 21:01:36.567 STDERR [INFO] I0913 21:01:36.566254 11866 net.cpp:425] lstm1_unit_1 <- gate_input_1
2016-09-13 21:01:36.567 STDERR [INFO] I0913 21:01:36.566259 11866 net.cpp:425] lstm1_unit_1 <- cont_1_lstm1_cont_slice_0_split_1
2016-09-13 21:01:36.567 STDERR [INFO] I0913 21:01:36.566265 11866 net.cpp:399] lstm1_unit_1 -> c_1
2016-09-13 21:01:36.567 STDERR [INFO] I0913 21:01:36.566274 11866 net.cpp:399] lstm1_unit_1 -> h_1
2016-09-13 21:01:36.568 STDERR [INFO] I0913 21:01:36.566334 11866 net.cpp:141] Setting up lstm1_unit_1
2016-09-13 21:01:36.568 STDERR [INFO] I0913 21:01:36.566344 11866 net.cpp:148] Top shape: 1 1 1000 (1000)
2016-09-13 21:01:36.568 STDERR [INFO] I0913 21:01:36.566349 11866 net.cpp:148] Top shape: 1 1 1000 (1000)
2016-09-13 21:01:36.568 STDERR [INFO] I0913 21:01:36.566354 11866 net.cpp:156] Memory required for data: 86016
2016-09-13 21:01:36.568 STDERR [INFO] I0913 21:01:36.566357 11866 layer_factory.hpp:77] Creating layer lstm1_
2016-09-13 21:01:36.568 STDERR [INFO] I0913 21:01:36.566365 11866 net.cpp:91] Creating Layer lstm1_
2016-09-13 21:01:36.568 STDERR [INFO] I0913 21:01:36.566370 11866 net.cpp:425] lstm1_ <- c_1
2016-09-13 21:01:36.568 STDERR [INFO] I0913 21:01:36.566378 11866 net.cpp:399] lstm1_ -> c_T
2016-09-13 21:01:36.568 STDERR [INFO] I0913 21:01:36.566406 11866 net.cpp:141] Setting up lstm1_
2016-09-13 21:01:36.568 STDERR [INFO] I0913 21:01:36.566414 11866 net.cpp:148] Top shape: 1 1 1000 (1000)
2016-09-13 21:01:36.568 STDERR [INFO] I0913 21:01:36.566418 11866 net.cpp:156] Memory required for data: 90016
2016-09-13 21:01:36.568 STDERR [INFO] I0913 21:01:36.566422 11866 layer_factory.hpp:77] Creating layer lstm1_h_concat
2016-09-13 21:01:36.568 STDERR [INFO] I0913 21:01:36.566442 11866 net.cpp:91] Creating Layer lstm1_h_concat
2016-09-13 21:01:36.569 STDERR [INFO] I0913 21:01:36.566447 11866 net.cpp:425] lstm1_h_concat <- h_1
2016-09-13 21:01:36.569 STDERR [INFO] I0913 21:01:36.566452 11866 net.cpp:399] lstm1_h_concat -> h
2016-09-13 21:01:36.569 STDERR [INFO] I0913 21:01:36.566486 11866 net.cpp:141] Setting up lstm1_h_concat
2016-09-13 21:01:36.569 STDERR [INFO] I0913 21:01:36.566495 11866 net.cpp:148] Top shape: 1 1 1000 (1000)
2016-09-13 21:01:36.569 STDERR [INFO] I0913 21:01:36.566499 11866 net.cpp:156] Memory required for data: 94016
2016-09-13 21:01:36.569 STDERR [INFO] I0913 21:01:36.566504 11866 layer_factory.hpp:77] Creating layer h_pseudoloss
2016-09-13 21:01:36.569 STDERR [INFO] I0913 21:01:36.566517 11866 net.cpp:91] Creating Layer h_pseudoloss
2016-09-13 21:01:36.569 STDERR [INFO] I0913 21:01:36.566522 11866 net.cpp:425] h_pseudoloss <- h
…
2016-09-13 21:01:36.584 STDERR [INFO] }
2016-09-13 21:01:36.584 STDERR [INFO] I0913 21:01:36.567370 11866 layer_factory.hpp:77] Creating layer lstm2_
2016-09-13 21:01:36.584 STDERR [INFO] I0913 21:01:36.567381 11866 net.cpp:91] Creating Layer lstm2_
2016-09-13 21:01:36.585 STDERR [INFO] I0913 21:01:36.567387 11866 net.cpp:399] lstm2_ -> x
2016-09-13 21:01:36.585 STDERR [INFO] I0913 21:01:36.567397 11866 net.cpp:399] lstm2_ -> cont
2016-09-13 21:01:36.585 STDERR [INFO] I0913 21:01:36.567450 11866 net.cpp:141] Setting up lstm2_
2016-09-13 21:01:36.585 STDERR [INFO] I0913 21:01:36.567458 11866 net.cpp:148] Top shape: 1 1 1501 (1501)
2016-09-13 21:01:36.585 STDERR [INFO] I0913 21:01:36.567464 11866 net.cpp:148] Top shape: 1 1 (1)
2016-09-13 21:01:36.585 STDERR [INFO] I0913 21:01:36.567468 11866 net.cpp:156] Memory required for data: 6008
2016-09-13 21:01:36.585 STDERR [INFO] I0913 21:01:36.567472 11866 layer_factory.hpp:77] Creating layer lstm2_
2016-09-13 21:01:36.585 STDERR [INFO] I0913 21:01:36.567483 11866 net.cpp:91] Creating Layer lstm2_
2016-09-13 21:01:36.585 STDERR [INFO] I0913 21:01:36.567489 11866 net.cpp:399] lstm2_ -> c_0
2016-09-13 21:01:36.585 STDERR [INFO] I0913 21:01:36.567498 11866 net.cpp:399] lstm2_ -> h_0
2016-09-13 21:01:36.585 STDERR [INFO] I0913 21:01:36.567545 11866 net.cpp:141] Setting up lstm2_
2016-09-13 21:01:36.585 STDERR [INFO] I0913 21:01:36.567553 11866 net.cpp:148] Top shape: 1 1 1000 (1000)
2016-09-13 21:01:36.585 STDERR [INFO] I0913 21:01:36.567559 11866 net.cpp:148] Top shape: 1 1 1000 (1000)
2016-09-13 21:01:36.585 STDERR [INFO] I0913 21:01:36.567564 11866 net.cpp:156] Memory required for data: 14008
2016-09-13 21:01:36.586 STDERR [INFO] I0913 21:01:36.567567 11866 layer_factory.hpp:77] Creating layer lstm2_cont_slice
2016-09-13 21:01:36.586 STDERR [INFO] I0913 21:01:36.567575 11866 net.cpp:91] Creating Layer lstm2_cont_slice
2016-09-13 21:01:36.586 STDERR [INFO] I0913 21:01:36.567580 11866 net.cpp:425] lstm2_cont_slice <- cont
2016-09-13 21:01:36.586 STDERR [INFO] I0913 21:01:36.567586 11866 net.cpp:399] lstm2_cont_slice -> cont_1
2016-09-13 21:01:36.586 STDERR [INFO] I0913 21:01:36.567620 11866 net.cpp:141] Setting up lstm2_cont_slice
2016-09-13 21:01:36.586 STDERR [INFO] I0913 21:01:36.567628 11866 net.cpp:148] Top shape: 1 1 (1)
2016-09-13 21:01:36.586 STDERR [INFO] I0913 21:01:36.567632 11866 net.cpp:156] Memory required for data: 14012
2016-09-13 21:01:36.586 STDERR [INFO] I0913 21:01:36.567637 11866 layer_factory.hpp:77] Creating layer cont_1_lstm2_cont_slice_0_split
2016-09-13 21:01:36.586 STDERR [INFO] I0913 21:01:36.567643 11866 net.cpp:91] Creating Layer cont_1_lstm2_cont_slice_0_split
2016-09-13 21:01:36.586 STDERR [INFO] I0913 21:01:36.567647 11866 net.cpp:425] cont_1_lstm2_cont_slice_0_split <- cont_1
2016-09-13 21:01:36.586 STDERR [INFO] I0913 21:01:36.567656 11866 net.cpp:399] cont_1_lstm2_cont_slice_0_split -> cont_1_lstm2_cont_slice_0_split_0
2016-09-13 21:01:36.586 STDERR [INFO] I0913 21:01:36.567663 11866 net.cpp:399] cont_1_lstm2_cont_slice_0_split -> cont_1_lstm2_cont_slice_0_split_1
2016-09-13 21:01:36.586 STDERR [INFO] I0913 21:01:36.567708 11866 net.cpp:141] Setting up cont_1_lstm2_cont_slice_0_split
2016-09-13 21:01:36.586 STDERR [INFO] I0913 21:01:36.567718 11866 net.cpp:148] Top shape: 1 1 (1)
2016-09-13 21:01:36.586 STDERR [INFO] I0913 21:01:36.567723 11866 net.cpp:148] Top shape: 1 1 (1)
2016-09-13 21:01:36.587 STDERR [INFO] I0913 21:01:36.567728 11866 net.cpp:156] Memory required for data: 14020
2016-09-13 21:01:36.587 STDERR [INFO] I0913 21:01:36.567731 11866 layer_factory.hpp:77] Creating layer lstm2_x_transform
2016-09-13 21:01:36.587 STDERR [INFO] I0913 21:01:36.567740 11866 net.cpp:91] Creating Layer lstm2_x_transform
2016-09-13 21:01:36.587 STDERR [INFO] I0913 21:01:36.567744 11866 net.cpp:425] lstm2_x_transform <- x
…
2016-09-13 21:01:36.600 n.t.s.f.RefreshingImageFetcher$ImageReader [INFO] [Timing] RequestID: 0 StreamID: home_peifeng_work_data_frame_1080x1920_png SequenceNr: 135 Entering queue: 1473814896600
2016-09-13 21:01:36.601 n.t.s.s.CVParticleSpout [INFO] [Timing] RequestID: 0 StreamID: home_peifeng_work_data_frame_1080x1920_png SequenceNr: 125 Leaving fetcher: 1473814896601 Size: 160423
2016-09-13 21:01:36.603 n.t.s.b.CVParticleBolt [INFO] [Timing] RequestID: 0 StreamID: home_peifeng_work_data_frame_1080x1920_png SequenceNr: 125 Entering scale: 1473814896603
2016-09-13 21:01:36.624 STDERR [INFO] I0913 21:01:36.624256 11866 net.cpp:141] Setting up lstm2_x_transform
2016-09-13 21:01:36.624 STDERR [INFO] I0913 21:01:36.624302 11866 net.cpp:148] Top shape: 1 1 4000 (4000)
2016-09-13 21:01:36.624 STDERR [INFO] I0913 21:01:36.624308 11866 net.cpp:156] Memory required for data: 30020
2016-09-13 21:01:36.625 STDERR [INFO] I0913 21:01:36.624327 11866 layer_factory.hpp:77] Creating layer lstm2_W_xc_x_slice
2016-09-13 21:01:36.625 STDERR [INFO] I0913 21:01:36.624342 11866 net.cpp:91] Creating Layer lstm2_W_xc_x_slice
2016-09-13 21:01:36.625 STDERR [INFO] I0913 21:01:36.624348 11866 net.cpp:425] lstm2_W_xc_x_slice <- W_xc_x
2016-09-13 21:01:36.625 STDERR [INFO] I0913 21:01:36.624357 11866 net.cpp:399] lstm2_W_xc_x_slice -> W_xc_x_1
2016-09-13 21:01:36.625 STDERR [INFO] I0913 21:01:36.624404 11866 net.cpp:141] Setting up lstm2_W_xc_x_slice
2016-09-13 21:01:36.625 STDERR [INFO] I0913 21:01:36.624414 11866 net.cpp:148] Top shape: 1 1 4000 (4000)
2016-09-13 21:01:36.625 STDERR [INFO] I0913 21:01:36.624418 11866 net.cpp:156] Memory required for data: 46020
2016-09-13 21:01:36.625 STDERR [INFO] I0913 21:01:36.624423 11866 layer_factory.hpp:77] Creating layer lstm2_h_conted_0
2016-09-13 21:01:36.625 STDERR [INFO] I0913 21:01:36.624433 11866 net.cpp:91] Creating Layer lstm2_h_conted_0
2016-09-13 21:01:36.625 STDERR [INFO] I0913 21:01:36.624438 11866 net.cpp:425] lstm2_h_conted_0 <- h_0
2016-09-13 21:01:36.625 STDERR [INFO] I0913 21:01:36.624442 11866 net.cpp:425] lstm2_h_conted_0 <- cont_1_lstm2_cont_slice_0_split_0
2016-09-13 21:01:36.625 STDERR [INFO] I0913 21:01:36.624449 11866 net.cpp:399] lstm2_h_conted_0 -> h_conted_0
2016-09-13 21:01:36.625 STDERR [INFO] I0913 21:01:36.624538 11866 net.cpp:141] Setting up lstm2_h_conted_0
2016-09-13 21:01:36.626 STDERR [INFO] I0913 21:01:36.624547 11866 net.cpp:148] Top shape: 1 1 1000 (1000)
2016-09-13 21:01:36.626 STDERR [INFO] I0913 21:01:36.624552 11866 net.cpp:156] Memory required for data: 50020
2016-09-13 21:01:36.626 STDERR [INFO] I0913 21:01:36.624555 11866 layer_factory.hpp:77] Creating layer lstm2_transform_1
2016-09-13 21:01:36.626 STDERR [INFO] I0913 21:01:36.624567 11866 net.cpp:91] Creating Layer lstm2_transform_1
2016-09-13 21:01:36.626 STDERR [INFO] I0913 21:01:36.624572 11866 net.cpp:425] lstm2_transform_1 <- h_conted_0
2016-09-13 21:01:36.626 STDERR [INFO] I0913 21:01:36.624584 11866 net.cpp:399] lstm2_transform_1 -> W_hc_h_0
2016-09-13 21:01:36.636 n.t.s.b.CVParticleBolt [INFO] [Timing] RequestID: 0 StreamID: home_peifeng_work_data_frame_1080x1920_png SequenceNr: 124 Leaving scale: 1473814896636 Size: 60165
2016-09-13 21:01:36.644 n.t.s.s.CVParticleSpout [INFO] [Timing] RequestID: 0 StreamID: home_peifeng_work_data_frame_1080x1920_png SequenceNr: 126 Leaving fetcher: 1473814896644 Size: 160423
2016-09-13 21:01:36.645 n.t.s.b.CVParticleBolt [INFO] [Timing] RequestID: 0 StreamID: home_peifeng_work_data_frame_1080x1920_png SequenceNr: 126 Entering scale: 1473814896645
2016-09-13 21:01:36.664 STDERR [INFO] I0913 21:01:36.663092 11866 net.cpp:141] Setting up lstm2_transform_1
2016-09-13 21:01:36.664 STDERR [INFO] I0913 21:01:36.663156 11866 net.cpp:148] Top shape: 1 1 4000 (4000)
2016-09-13 21:01:36.664 STDERR [INFO] I0913 21:01:36.663166 11866 net.cpp:156] Memory required for data: 66020
2016-09-13 21:01:36.664 STDERR [INFO] I0913 21:01:36.663192 11866 layer_factory.hpp:77] Creating layer lstm2_gate_input_1
2016-09-13 21:01:36.664 STDERR [INFO] I0913 21:01:36.663218 11866 net.cpp:91] Creating Layer lstm2_gate_input_1
2016-09-13 21:01:36.665 STDERR [INFO] I0913 21:01:36.663229 11866 net.cpp:425] lstm2_gate_input_1 <- W_hc_h_0
2016-09-13 21:01:36.665 STDERR [INFO] I0913 21:01:36.663242 11866 net.cpp:425] lstm2_gate_input_1 <- W_xc_x_1
2016-09-13 21:01:36.665 STDERR [INFO] I0913 21:01:36.663260 11866 net.cpp:399] lstm2_gate_input_1 -> gate_input_1
2016-09-13 21:01:36.665 STDERR [INFO] I0913 21:01:36.663334 11866 net.cpp:141] Setting up lstm2_gate_input_1
2016-09-13 21:01:36.665 STDERR [INFO] I0913 21:01:36.663350 11866 net.cpp:148] Top shape: 1 1 4000 (4000)
2016-09-13 21:01:36.665 STDERR [INFO] I0913 21:01:36.663358 11866 net.cpp:156] Memory required for data: 82020
2016-09-13 21:01:36.665 STDERR [INFO] I0913 21:01:36.663367 11866 layer_factory.hpp:77] Creating layer lstm2_unit_1
2016-09-13 21:01:36.665 STDERR [INFO] I0913 21:01:36.663381 11866 net.cpp:91] Creating Layer lstm2_unit_1
2016-09-13 21:01:36.665 STDERR [INFO] I0913 21:01:36.663390 11866 net.cpp:425] lstm2_unit_1 <- c_0
2016-09-13 21:01:36.665 STDERR [INFO] I0913 21:01:36.663401 11866 net.cpp:425] lstm2_unit_1 <- gate_input_1
2016-09-13 21:01:36.665 STDERR [INFO] I0913 21:01:36.663411 11866 net.cpp:425] lstm2_unit_1 <- cont_1_lstm2_cont_slice_0_split_1
2016-09-13 21:01:36.665 STDERR [INFO] I0913 21:01:36.663426 11866 net.cpp:399] lstm2_unit_1 -> c_1
2016-09-13 21:01:36.665 STDERR [INFO] I0913 21:01:36.663442 11866 net.cpp:399] lstm2_unit_1 -> h_1
2016-09-13 21:01:36.665 STDERR [INFO] I0913 21:01:36.663555 11866 net.cpp:141] Setting up lstm2_unit_1
2016-09-13 21:01:36.665 STDERR [INFO] I0913 21:01:36.663571 11866 net.cpp:148] Top shape: 1 1 1000 (1000)
2016-09-13 21:01:36.666 STDERR [INFO] I0913 21:01:36.663583 11866 net.cpp:148] Top shape: 1 1 1000 (1000)
2016-09-13 21:01:36.666 STDERR [INFO] I0913 21:01:36.663590 11866 net.cpp:156] Memory required for data: 90020
2016-09-13 21:01:36.666 STDERR [INFO] I0913 21:01:36.663599 11866 layer_factory.hpp:77] Creating layer lstm2_
2016-09-13 21:01:36.666 STDERR [INFO] I0913 21:01:36.663614 11866 net.cpp:91] Creating Layer lstm2_
2016-09-13 21:01:36.666 STDERR [INFO] I0913 21:01:36.663622 11866 net.cpp:425] lstm2_ <- c_1
2016-09-13 21:01:36.666 STDERR [INFO] I0913 21:01:36.663633 11866 net.cpp:399] lstm2_ -> c_T
2016-09-13 21:01:36.666 STDERR [INFO] I0913 21:01:36.663693 11866 net.cpp:141] Setting up lstm2_
2016-09-13 21:01:36.666 STDERR [INFO] I0913 21:01:36.663709 11866 net.cpp:148] Top shape: 1 1 1000 (1000)
2016-09-13 21:01:36.666 STDERR [INFO] I0913 21:01:36.663717 11866 net.cpp:156] Memory required for data: 94020
2016-09-13 21:01:36.666 STDERR [INFO] I0913 21:01:36.663727 11866 layer_factory.hpp:77] Creating layer lstm2_h_concat
2016-09-13 21:01:36.666 STDERR [INFO] I0913 21:01:36.663743 11866 net.cpp:91] Creating Layer lstm2_h_concat
2016-09-13 21:01:36.666 STDERR [INFO] I0913 21:01:36.663751 11866 net.cpp:425] lstm2_h_concat <- h_1
2016-09-13 21:01:36.666 STDERR [INFO] I0913 21:01:36.663767 11866 net.cpp:399] lstm2_h_concat -> h
2016-09-13 21:01:36.666 STDERR [INFO] I0913 21:01:36.663825 11866 net.cpp:141] Setting up lstm2_h_concat
2016-09-13 21:01:36.666 STDERR [INFO] I0913 21:01:36.663841 11866 net.cpp:148] Top shape: 1 1 1000 (1000)
2016-09-13 21:01:36.667 STDERR [INFO] I0913 21:01:36.663847 11866 net.cpp:156] Memory required for data: 98020
2016-09-13 21:01:36.667 STDERR [INFO] I0913 21:01:36.663856 11866 layer_factory.hpp:77] Creating layer h_pseudoloss
2016-09-13 21:01:36.667 STDERR [INFO] I0913 21:01:36.663875 11866 net.cpp:91] Creating Layer h_pseudoloss
2016-09-13 21:01:36.667 STDERR [INFO] I0913 21:01:36.663885 11866 net.cpp:425] h_pseudoloss <- h
…
2016-09-13 21:03:21.050 n.t.s.f.RefreshingImageFetcher$ImageReader [INFO] [Timing] RequestID: 0 StreamID: home_peifeng_work_data_frame_1080x1920_png SequenceNr: 139 Entering queue: 1473815001050
2016-09-13 21:03:21.064 n.t.s.b.CVParticleBolt [INFO] [Timing] RequestID: 0 StreamID: home_peifeng_work_data_frame_1080x1920_png SequenceNr: 113 Leaving scale: 1473815001064 Size: 60165
2016-09-13 21:03:21.065 n.t.s.s.CVParticleSpout [INFO] [Timing] RequestID: 0 StreamID: home_peifeng_work_data_frame_1080x1920_png SequenceNr: 115 Leaving fetcher: 1473815001065 Size: 160423
2016-09-13 21:03:21.092 STDERR [INFO] I0913 21:03:21.092267 12026 net.cpp:141] Setting up fc6
2016-09-13 21:03:21.092 STDERR [INFO] I0913 21:03:21.092303 12026 net.cpp:148] Top shape: 10 4096 (40960)
2016-09-13 21:03:21.093 STDERR [INFO] I0913 21:03:21.092309 12026 net.cpp:156] Memory required for data: 67782200
2016-09-13 21:03:21.093 STDERR [INFO] I0913 21:03:21.092322 12026 layer_factory.hpp:77] Creating layer relu6
2016-09-13 21:03:21.093 STDERR [INFO] I0913 21:03:21.092339 12026 net.cpp:91] Creating Layer relu6
2016-09-13 21:03:21.093 STDERR [INFO] I0913 21:03:21.092344 12026 net.cpp:425] relu6 <- fc6
2016-09-13 21:03:21.093 STDERR [INFO] I0913 21:03:21.092353 12026 net.cpp:386] relu6 -> fc6 (in-place)
2016-09-13 21:03:21.093 STDERR [INFO] I0913 21:03:21.092664 12026 net.cpp:141] Setting up relu6
2016-09-13 21:03:21.093 STDERR [INFO] I0913 21:03:21.092675 12026 net.cpp:148] Top shape: 10 4096 (40960)
2016-09-13 21:03:21.094 STDERR [INFO] I0913 21:03:21.092680 12026 net.cpp:156] Memory required for data: 67946040
2016-09-13 21:03:21.094 STDERR [INFO] I0913 21:03:21.092685 12026 layer_factory.hpp:77] Creating layer drop6
2016-09-13 21:03:21.094 STDERR [INFO] I0913 21:03:21.092697 12026 net.cpp:91] Creating Layer drop6
2016-09-13 21:03:21.094 STDERR [INFO] I0913 21:03:21.092702 12026 net.cpp:425] drop6 <- fc6
2016-09-13 21:03:21.094 STDERR [INFO] I0913 21:03:21.092710 12026 net.cpp:386] drop6 -> fc6 (in-place)
2016-09-13 21:03:21.094 STDERR [INFO] I0913 21:03:21.092752 12026 net.cpp:141] Setting up drop6
2016-09-13 21:03:21.094 STDERR [INFO] I0913 21:03:21.092761 12026 net.cpp:148] Top shape: 10 4096 (40960)
2016-09-13 21:03:21.094 STDERR [INFO] I0913 21:03:21.092767 12026 net.cpp:156] Memory required for data: 68109880
2016-09-13 21:03:21.094 STDERR [INFO] I0913 21:03:21.092770 12026 layer_factory.hpp:77] Creating layer fc7
2016-09-13 21:03:21.095 STDERR [INFO] I0913 21:03:21.092784 12026 net.cpp:91] Creating Layer fc7
2016-09-13 21:03:21.095 STDERR [INFO] I0913 21:03:21.092789 12026 net.cpp:425] fc7 <- fc6
2016-09-13 21:03:21.095 STDERR [INFO] I0913 21:03:21.092798 12026 net.cpp:399] fc7 -> fc7
2016-09-13 21:03:21.108 n.t.s.s.CVParticleSpout [INFO] [Timing] RequestID: 0 StreamID: home_peifeng_work_data_frame_1080x1920_png SequenceNr: 116 Leaving fetcher: 1473815001108 Size: 160423
2016-09-13 21:03:21.111 n.t.s.b.CVParticleBolt [INFO] [Timing] RequestID: 0 StreamID: home_peifeng_work_data_frame_1080x1920_png SequenceNr: 114 Leaving scale: 1473815001111 Size: 60165
2016-09-13 21:03:21.111 n.t.s.b.CVParticleBolt [INFO] [Timing] RequestID: 0 StreamID: home_peifeng_work_data_frame_1080x1920_png SequenceNr: 115 Entering scale: 1473815001111
2016-09-13 21:03:21.138 STDERR [INFO] I0913 21:03:21.138079 12026 net.cpp:141] Setting up fc7
2016-09-13 21:03:21.138 STDERR [INFO] I0913 21:03:21.138129 12026 net.cpp:148] Top shape: 10 4096 (40960)
2016-09-13 21:03:21.138 STDERR [INFO] I0913 21:03:21.138135 12026 net.cpp:156] Memory required for data: 68273720
2016-09-13 21:03:21.138 STDERR [INFO] I0913 21:03:21.138149 12026 layer_factory.hpp:77] Creating layer relu7
2016-09-13 21:03:21.138 STDERR [INFO] I0913 21:03:21.138164 12026 net.cpp:91] Creating Layer relu7
2016-09-13 21:03:21.139 STDERR [INFO] I0913 21:03:21.138170 12026 net.cpp:425] relu7 <- fc7
2016-09-13 21:03:21.139 STDERR [INFO] I0913 21:03:21.138178 12026 net.cpp:386] relu7 -> fc7 (in-place)
2016-09-13 21:03:21.139 STDERR [INFO] I0913 21:03:21.138758 12026 net.cpp:141] Setting up relu7
2016-09-13 21:03:21.139 STDERR [INFO] I0913 21:03:21.138772 12026 net.cpp:148] Top shape: 10 4096 (40960)
2016-09-13 21:03:21.139 STDERR [INFO] I0913 21:03:21.138777 12026 net.cpp:156] Memory required for data: 68437560
2016-09-13 21:03:21.139 STDERR [INFO] I0913 21:03:21.138782 12026 layer_factory.hpp:77] Creating layer drop7
2016-09-13 21:03:21.139 STDERR [INFO] I0913 21:03:21.138792 12026 net.cpp:91] Creating Layer drop7
2016-09-13 21:03:21.139 STDERR [INFO] I0913 21:03:21.138797 12026 net.cpp:425] drop7 <- fc7
2016-09-13 21:03:21.139 STDERR [INFO] I0913 21:03:21.138806 12026 net.cpp:386] drop7 -> fc7 (in-place)
2016-09-13 21:03:21.139 STDERR [INFO] I0913 21:03:21.138842 12026 net.cpp:141] Setting up drop7
2016-09-13 21:03:21.139 STDERR [INFO] I0913 21:03:21.138854 12026 net.cpp:148] Top shape: 10 4096 (40960)
2016-09-13 21:03:21.140 STDERR [INFO] I0913 21:03:21.138859 12026 net.cpp:156] Memory required for data: 68601400
2016-09-13 21:03:21.140 STDERR [INFO] I0913 21:03:21.138864 12026 layer_factory.hpp:77] Creating layer fc8
2016-09-13 21:03:21.140 STDERR [INFO] I0913 21:03:21.138872 12026 net.cpp:91] Creating Layer fc8
2016-09-13 21:03:21.140 STDERR [INFO] I0913 21:03:21.138877 12026 net.cpp:425] fc8 <- fc7
2016-09-13 21:03:21.140 STDERR [INFO] I0913 21:03:21.138883 12026 net.cpp:399] fc8 -> fc8
2016-09-13 21:03:21.150 STDERR [INFO] I0913 21:03:21.150104 12026 net.cpp:141] Setting up fc8
2016-09-13 21:03:21.150 STDERR [INFO] I0913 21:03:21.150142 12026 net.cpp:148] Top shape: 10 1000 (10000)
2016-09-13 21:03:21.150 STDERR [INFO] I0913 21:03:21.150147 12026 net.cpp:156] Memory required for data: 68641400
2016-09-13 21:03:21.150 STDERR [INFO] I0913 21:03:21.150161 12026 layer_factory.hpp:77] Creating layer prob
2016-09-13 21:03:21.150 STDERR [INFO] I0913 21:03:21.150180 12026 net.cpp:91] Creating Layer prob
2016-09-13 21:03:21.151 STDERR [INFO] I0913 21:03:21.150187 12026 net.cpp:425] prob <- fc8
2016-09-13 21:03:21.151 STDERR [INFO] I0913 21:03:21.150197 12026 net.cpp:399] prob -> prob
2016-09-13 21:03:21.151 STDERR [INFO] I0913 21:03:21.150598 12026 net.cpp:141] Setting up prob
2016-09-13 21:03:21.151 STDERR [INFO] I0913 21:03:21.150611 12026 net.cpp:148] Top shape: 10 1000 (10000)
2016-09-13 21:03:21.151 STDERR [INFO] I0913 21:03:21.150616 12026 net.cpp:156] Memory required for data: 68681400
2016-09-13 21:03:21.151 STDERR [INFO] I0913 21:03:21.150622 12026 net.cpp:219] prob does not need backward computation.
2016-09-13 21:03:21.151 STDERR [INFO] I0913 21:03:21.150627 12026 net.cpp:219] fc8 does not need backward computation.
2016-09-13 21:03:21.151 n.t.s.s.CVParticleSpout [INFO] [Timing] RequestID: 0 StreamID: home_peifeng_work_data_frame_1080x1920_png SequenceNr: 117 Leaving fetcher: 1473815001151 Size: 160423
…
2016-09-13 21:03:21.201 STDERR [INFO] I0913 21:03:21.185098 12016 net.cpp:91] Creating Layer input
2016-09-13 21:03:21.201 STDERR [INFO] I0913 21:03:21.185106 12016 net.cpp:399] input -> frames_fc7
2016-09-13 21:03:21.201 STDERR [INFO] I0913 21:03:21.185122 12016 net.cpp:399] input -> cont_sentence
2016-09-13 21:03:21.201 STDERR [INFO] I0913 21:03:21.185132 12016 net.cpp:399] input -> input_sentence
2016-09-13 21:03:21.201 STDERR [INFO] I0913 21:03:21.185142 12016 net.cpp:399] input -> stage_indicator
2016-09-13 21:03:21.201 STDERR [INFO] I0913 21:03:21.185250 12016 net.cpp:141] Setting up input
2016-09-13 21:03:21.201 STDERR [INFO] I0913 21:03:21.185262 12016 net.cpp:148] Top shape: 1 4096 (4096)
2016-09-13 21:03:21.201 STDERR [INFO] I0913 21:03:21.185269 12016 net.cpp:148] Top shape: 1 1 (1)
2016-09-13 21:03:21.201 STDERR [INFO] I0913 21:03:21.185276 12016 net.cpp:148] Top shape: 1 1 (1)
2016-09-13 21:03:21.201 STDERR [INFO] I0913 21:03:21.185281 12016 net.cpp:148] Top shape: 1 1 (1)
2016-09-13 21:03:21.201 STDERR [INFO] I0913 21:03:21.185286 12016 net.cpp:156] Memory required for data: 16396
2016-09-13 21:03:21.202 STDERR [INFO] I0913 21:03:21.185291 12016 layer_factory.hpp:77] Creating layer cont_sentence_input_1_split
2016-09-13 21:03:21.202 STDERR [INFO] I0913 21:03:21.185308 12016 net.cpp:91] Creating Layer cont_sentence_input_1_split
2016-09-13 21:03:21.202 STDERR [INFO] I0913 21:03:21.185313 12016 net.cpp:425] cont_sentence_input_1_split <- cont_sentence
2016-09-13 21:03:21.202 STDERR [INFO] I0913 21:03:21.185328 12016 net.cpp:399] cont_sentence_input_1_split -> cont_sentence_input_1_split_0
2016-09-13 21:03:21.202 STDERR [INFO] I0913 21:03:21.185338 12016 net.cpp:399] cont_sentence_input_1_split -> cont_sentence_input_1_split_1
2016-09-13 21:03:21.202 STDERR [INFO] I0913 21:03:21.185385 12016 net.cpp:141] Setting up cont_sentence_input_1_split
2016-09-13 21:03:21.202 STDERR [INFO] I0913 21:03:21.185395 12016 net.cpp:148] Top shape: 1 1 (1)
2016-09-13 21:03:21.202 STDERR [INFO] I0913 21:03:21.185401 12016 net.cpp:148] Top shape: 1 1 (1)
2016-09-13 21:03:21.202 STDERR [INFO] I0913 21:03:21.185406 12016 net.cpp:156] Memory required for data: 16404
2016-09-13 21:03:21.202 STDERR [INFO] I0913 21:03:21.185410 12016 layer_factory.hpp:77] Creating layer embed_encoder
2016-09-13 21:03:21.202 STDERR [INFO] I0913 21:03:21.185422 12016 net.cpp:91] Creating Layer embed_encoder
2016-09-13 21:03:21.203 STDERR [INFO] I0913 21:03:21.185427 12016 net.cpp:425] embed_encoder <- frames_fc7
2016-09-13 21:03:21.203 STDERR [INFO] I0913 21:03:21.185436 12016 net.cpp:399] embed_encoder -> embedded_in_frames
2016-09-13 21:03:21.206 STDERR [INFO] I0913 21:03:21.206128 12016 net.cpp:141] Setting up embed_encoder
2016-09-13 21:03:21.206 STDERR [INFO] I0913 21:03:21.206171 12016 net.cpp:148] Top shape: 1 500 (500)
2016-09-13 21:03:21.206 STDERR [INFO] I0913 21:03:21.206176 12016 net.cpp:156] Memory required for data: 18404
2016-09-13 21:03:21.206 STDERR [INFO] I0913 21:03:21.206194 12016 layer_factory.hpp:77] Creating layer reshape_frames
2016-09-13 21:03:21.206 STDERR [INFO] I0913 21:03:21.206223 12016 net.cpp:91] Creating Layer reshape_frames
2016-09-13 21:03:21.206 STDERR [INFO] I0913 21:03:21.206231 12016 net.cpp:425] reshape_frames <- embedded_in_frames
2016-09-13 21:03:21.206 STDERR [INFO] I0913 21:03:21.206241 12016 net.cpp:399] reshape_frames -> embedded_input_frames
2016-09-13 21:03:21.207 STDERR [INFO] I0913 21:03:21.206297 12016 net.cpp:141] Setting up reshape_frames
2016-09-13 21:03:21.207 STDERR [INFO] I0913 21:03:21.206306 12016 net.cpp:148] Top shape: 1 1 500 (500)
2016-09-13 21:03:21.207 STDERR [INFO] I0913 21:03:21.206311 12016 net.cpp:156] Memory required for data: 20404
2016-09-13 21:03:21.207 STDERR [INFO] I0913 21:03:21.206316 12016 layer_factory.hpp:77] Creating layer reshape_stage_indicator
2016-09-13 21:03:21.207 STDERR [INFO] I0913 21:03:21.206326 12016 net.cpp:91] Creating Layer reshape_stage_indicator
2016-09-13 21:03:21.207 STDERR [INFO] I0913 21:03:21.206331 12016 net.cpp:425] reshape_stage_indicator <- stage_indicator
2016-09-13 21:03:21.207 STDERR [INFO] I0913 21:03:21.206339 12016 net.cpp:399] reshape_stage_indicator -> reshaped_stage_indicator
2016-09-13 21:03:21.207 STDERR [INFO] I0913 21:03:21.206374 12016 net.cpp:141] Setting up reshape_stage_indicator
2016-09-13 21:03:21.207 STDERR [INFO] I0913 21:03:21.206383 12016 net.cpp:148] Top shape: 1 1 1 (1)
2016-09-13 21:03:21.207 STDERR [INFO] I0913 21:03:21.206388 12016 net.cpp:156] Memory required for data: 20408
2016-09-13 21:03:21.207 STDERR [INFO] I0913 21:03:21.206393 12016 layer_factory.hpp:77] Creating layer embedding
2016-09-13 21:03:21.207 STDERR [INFO] I0913 21:03:21.206406 12016 net.cpp:91] Creating Layer embedding
2016-09-13 21:03:21.207 STDERR [INFO] I0913 21:03:21.206411 12016 net.cpp:425] embedding <- input_sentence
…
2016-09-13 21:03:21.441 STDERR [INFO] }
2016-09-13 21:03:21.441 STDERR [INFO] I0913 21:03:21.429638 12016 layer_factory.hpp:77] Creating layer lstm1_
2016-09-13 21:03:21.441 STDERR [INFO] I0913 21:03:21.429651 12016 net.cpp:91] Creating Layer lstm1_
2016-09-13 21:03:21.441 STDERR [INFO] I0913 21:03:21.429657 12016 net.cpp:399] lstm1_ -> x
2016-09-13 21:03:21.441 STDERR [INFO] I0913 21:03:21.429668 12016 net.cpp:399] lstm1_ -> cont
2016-09-13 21:03:21.441 STDERR [INFO] I0913 21:03:21.429731 12016 net.cpp:141] Setting up lstm1_
2016-09-13 21:03:21.441 STDERR [INFO] I0913 21:03:21.429741 12016 net.cpp:148] Top shape: 1 1 500 (500)
2016-09-13 21:03:21.441 STDERR [INFO] I0913 21:03:21.429747 12016 net.cpp:148] Top shape: 1 1 (1)
2016-09-13 21:03:21.441 STDERR [INFO] I0913 21:03:21.429751 12016 net.cpp:156] Memory required for data: 2004
2016-09-13 21:03:21.441 STDERR [INFO] I0913 21:03:21.429765 12016 layer_factory.hpp:77] Creating layer lstm1_
2016-09-13 21:03:21.442 STDERR [INFO] I0913 21:03:21.429774 12016 net.cpp:91] Creating Layer lstm1_
2016-09-13 21:03:21.442 STDERR [INFO] I0913 21:03:21.429782 12016 net.cpp:399] lstm1_ -> c_0
2016-09-13 21:03:21.442 STDERR [INFO] I0913 21:03:21.429792 12016 net.cpp:399] lstm1_ -> h_0
2016-09-13 21:03:21.442 STDERR [INFO] I0913 21:03:21.429847 12016 net.cpp:141] Setting up lstm1_
2016-09-13 21:03:21.442 STDERR [INFO] I0913 21:03:21.429857 12016 net.cpp:148] Top shape: 1 1 1000 (1000)
2016-09-13 21:03:21.442 STDERR [INFO] I0913 21:03:21.429862 12016 net.cpp:148] Top shape: 1 1 1000 (1000)
2016-09-13 21:03:21.442 STDERR [INFO] I0913 21:03:21.429867 12016 net.cpp:156] Memory required for data: 10004
2016-09-13 21:03:21.442 STDERR [INFO] I0913 21:03:21.429872 12016 layer_factory.hpp:77] Creating layer lstm1_cont_slice
2016-09-13 21:03:21.442 STDERR [INFO] I0913 21:03:21.429879 12016 net.cpp:91] Creating Layer lstm1_cont_slice
2016-09-13 21:03:21.442 STDERR [INFO] I0913 21:03:21.429884 12016 net.cpp:425] lstm1_cont_slice <- cont
2016-09-13 21:03:21.442 STDERR [INFO] I0913 21:03:21.429891 12016 net.cpp:399] lstm1_cont_slice -> cont_1
2016-09-13 21:03:21.442 STDERR [INFO] I0913 21:03:21.429927 12016 net.cpp:141] Setting up lstm1_cont_slice
2016-09-13 21:03:21.442 STDERR [INFO] I0913 21:03:21.429936 12016 net.cpp:148] Top shape: 1 1 (1)
2016-09-13 21:03:21.442 STDERR [INFO] I0913 21:03:21.429941 12016 net.cpp:156] Memory required for data: 10008
2016-09-13 21:03:21.443 STDERR [INFO] I0913 21:03:21.429946 12016 layer_factory.hpp:77] Creating layer cont_1_lstm1_cont_slice_0_split
2016-09-13 21:03:21.443 STDERR [INFO] I0913 21:03:21.429955 12016 net.cpp:91] Creating Layer cont_1_lstm1_cont_slice_0_split
2016-09-13 21:03:21.443 STDERR [INFO] I0913 21:03:21.429960 12016 net.cpp:425] cont_1_lstm1_cont_slice_0_split <- cont_1
2016-09-13 21:03:21.443 STDERR [INFO] I0913 21:03:21.429966 12016 net.cpp:399] cont_1_lstm1_cont_slice_0_split -> cont_1_lstm1_cont_slice_0_split_0
2016-09-13 21:03:21.443 STDERR [INFO] I0913 21:03:21.429975 12016 net.cpp:399] cont_1_lstm1_cont_slice_0_split -> cont_1_lstm1_cont_slice_0_split_1
2016-09-13 21:03:21.443 STDERR [INFO] I0913 21:03:21.430022 12016 net.cpp:141] Setting up cont_1_lstm1_cont_slice_0_split
2016-09-13 21:03:21.443 STDERR [INFO] I0913 21:03:21.430029 12016 net.cpp:148] Top shape: 1 1 (1)
2016-09-13 21:03:21.443 STDERR [INFO] I0913 21:03:21.430035 12016 net.cpp:148] Top shape: 1 1 (1)
2016-09-13 21:03:21.443 STDERR [INFO] I0913 21:03:21.430040 12016 net.cpp:156] Memory required for data: 10016
2016-09-13 21:03:21.444 STDERR [INFO] I0913 21:03:21.430044 12016 layer_factory.hpp:77] Creating layer lstm1_x_transform
2016-09-13 21:03:21.444 STDERR [INFO] I0913 21:03:21.430057 12016 net.cpp:91] Creating Layer lstm1_x_transform
2016-09-13 21:03:21.444 STDERR [INFO] I0913 21:03:21.430061 12016 net.cpp:425] lstm1_x_transform <- x
2016-09-13 21:03:21.444 STDERR [INFO] I0913 21:03:21.430069 12016 net.cpp:399] lstm1_x_transform -> W_xc_x
2016-09-13 21:03:21.451 STDERR [INFO] I0913 21:03:21.450821 12016 net.cpp:141] Setting up lstm1_x_transform
2016-09-13 21:03:21.451 STDERR [INFO] I0913 21:03:21.450863 12016 net.cpp:148] Top shape: 1 1 4000 (4000)
2016-09-13 21:03:21.451 STDERR [INFO] I0913 21:03:21.450870 12016 net.cpp:156] Memory required for data: 26016
2016-09-13 21:03:21.451 STDERR [INFO] I0913 21:03:21.450889 12016 layer_factory.hpp:77] Creating layer lstm1_W_xc_x_slice
2016-09-13 21:03:21.451 STDERR [INFO] I0913 21:03:21.450903 12016 net.cpp:91] Creating Layer lstm1_W_xc_x_slice
2016-09-13 21:03:21.452 STDERR [INFO] I0913 21:03:21.450911 12016 net.cpp:425] lstm1_W_xc_x_slice <- W_xc_x
2016-09-13 21:03:21.452 STDERR [INFO] I0913 21:03:21.450918 12016 net.cpp:399] lstm1_W_xc_x_slice -> W_xc_x_1
2016-09-13 21:03:21.452 STDERR [INFO] I0913 21:03:21.450963 12016 net.cpp:141] Setting up lstm1_W_xc_x_slice
2016-09-13 21:03:21.452 STDERR [INFO] I0913 21:03:21.450973 12016 net.cpp:148] Top shape: 1 1 4000 (4000)
2016-09-13 21:03:21.452 STDERR [INFO] I0913 21:03:21.450978 12016 net.cpp:156] Memory required for data: 42016
2016-09-13 21:03:21.452 STDERR [INFO] I0913 21:03:21.450981 12016 layer_factory.hpp:77] Creating layer lstm1_h_conted_0
2016-09-13 21:03:21.452 STDERR [INFO] I0913 21:03:21.450991 12016 net.cpp:91] Creating Layer lstm1_h_conted_0
2016-09-13 21:03:21.452 STDERR [INFO] I0913 21:03:21.450996 12016 net.cpp:425] lstm1_h_conted_0 <- h_0
2016-09-13 21:03:21.453 STDERR [INFO] I0913 21:03:21.451002 12016 net.cpp:425] lstm1_h_conted_0 <- cont_1_lstm1_cont_slice_0_split_0
2016-09-13 21:03:21.453 STDERR [INFO] I0913 21:03:21.451009 12016 net.cpp:399] lstm1_h_conted_0 -> h_conted_0
2016-09-13 21:03:21.453 STDERR [INFO] I0913 21:03:21.451102 12016 net.cpp:141] Setting up lstm1_h_conted_0
2016-09-13 21:03:21.453 STDERR [INFO] I0913 21:03:21.451112 12016 net.cpp:148] Top shape: 1 1 1000 (1000)
2016-09-13 21:03:21.453 STDERR [INFO] I0913 21:03:21.451117 12016 net.cpp:156] Memory required for data: 46016
2016-09-13 21:03:21.453 STDERR [INFO] I0913 21:03:21.451120 12016 layer_factory.hpp:77] Creating layer lstm1_transform_1
2016-09-13 21:03:21.453 STDERR [INFO] I0913 21:03:21.451133 12016 net.cpp:91] Creating Layer lstm1_transform_1
2016-09-13 21:03:21.453 STDERR [INFO] I0913 21:03:21.451145 12016 net.cpp:425] lstm1_transform_1 <- h_conted_0
2016-09-13 21:03:21.454 STDERR [INFO] I0913 21:03:21.451155 12016 net.cpp:399] lstm1_transform_1 -> W_hc_h_0
2016-09-13 21:03:21.470 n.t.s.s.CVParticleSpout [INFO] [Timing] RequestID: 0 StreamID: home_peifeng_work_data_frame_1080x1920_png SequenceNr: 121 Leaving fetcher: 1473815001470 Size: 160423
2016-09-13 21:03:21.490 STDERR [INFO] I0913 21:03:21.489938 12016 net.cpp:141] Setting up lstm1_transform_1
2016-09-13 21:03:21.490 STDERR [INFO] I0913 21:03:21.489989 12016 net.cpp:148] Top shape: 1 1 4000 (4000)
2016-09-13 21:03:21.490 STDERR [INFO] I0913 21:03:21.489995 12016 net.cpp:156] Memory required for data: 62016
2016-09-13 21:03:21.490 STDERR [INFO] I0913 21:03:21.490013 12016 layer_factory.hpp:77] Creating layer lstm1_gate_input_1
2016-09-13 21:03:21.490 STDERR [INFO] I0913 21:03:21.490033 12016 net.cpp:91] Creating Layer lstm1_gate_input_1
2016-09-13 21:03:21.490 STDERR [INFO] I0913 21:03:21.490041 12016 net.cpp:425] lstm1_gate_input_1 <- W_hc_h_0
2016-09-13 21:03:21.491 STDERR [INFO] I0913 21:03:21.490048 12016 net.cpp:425] lstm1_gate_input_1 <- W_xc_x_1
2016-09-13 21:03:21.491 STDERR [INFO] I0913 21:03:21.490056 12016 net.cpp:399] lstm1_gate_input_1 -> gate_input_1
2016-09-13 21:03:21.491 STDERR [INFO] I0913 21:03:21.490110 12016 net.cpp:141] Setting up lstm1_gate_input_1
2016-09-13 21:03:21.491 STDERR [INFO] I0913 21:03:21.490120 12016 net.cpp:148] Top shape: 1 1 4000 (4000)
2016-09-13 21:03:21.491 STDERR [INFO] I0913 21:03:21.490124 12016 net.cpp:156] Memory required for data: 78016
2016-09-13 21:03:21.491 STDERR [INFO] I0913 21:03:21.490129 12016 layer_factory.hpp:77] Creating layer lstm1_unit_1
2016-09-13 21:03:21.491 STDERR [INFO] I0913 21:03:21.490139 12016 net.cpp:91] Creating Layer lstm1_unit_1
2016-09-13 21:03:21.491 STDERR [INFO] I0913 21:03:21.490144 12016 net.cpp:425] lstm1_unit_1 <- c_0
2016-09-13 21:03:21.491 STDERR [INFO] I0913 21:03:21.490149 12016 net.cpp:425] lstm1_unit_1 <- gate_input_1
2016-09-13 21:03:21.491 STDERR [INFO] I0913 21:03:21.490154 12016 net.cpp:425] lstm1_unit_1 <- cont_1_lstm1_cont_slice_0_split_1
2016-09-13 21:03:21.492 STDERR [INFO] I0913 21:03:21.490164 12016 net.cpp:399] lstm1_unit_1 -> c_1
2016-09-13 21:03:21.492 STDERR [INFO] I0913 21:03:21.490172 12016 net.cpp:399] lstm1_unit_1 -> h_1
2016-09-13 21:03:21.492 STDERR [INFO] I0913 21:03:21.490231 12016 net.cpp:141] Setting up lstm1_unit_1
2016-09-13 21:03:21.492 STDERR [INFO] I0913 21:03:21.490239 12016 net.cpp:148] Top shape: 1 1 1000 (1000)
2016-09-13 21:03:21.492 STDERR [INFO] I0913 21:03:21.490245 12016 net.cpp:148] Top shape: 1 1 1000 (1000)
2016-09-13 21:03:21.492 STDERR [INFO] I0913 21:03:21.490250 12016 net.cpp:156] Memory required for data: 86016
2016-09-13 21:03:21.493 STDERR [INFO] I0913 21:03:21.490254 12016 layer_factory.hpp:77] Creating layer lstm1_
2016-09-13 21:03:21.493 STDERR [INFO] I0913 21:03:21.490262 12016 net.cpp:91] Creating Layer lstm1_
2016-09-13 21:03:21.493 STDERR [INFO] I0913 21:03:21.490267 12016 net.cpp:425] lstm1_ <- c_1
2016-09-13 21:03:21.493 STDERR [INFO] I0913 21:03:21.490273 12016 net.cpp:399] lstm1_ -> c_T
2016-09-13 21:03:21.493 STDERR [INFO] I0913 21:03:21.490305 12016 net.cpp:141] Setting up lstm1_
2016-09-13 21:03:21.493 STDERR [INFO] I0913 21:03:21.490314 12016 net.cpp:148] Top shape: 1 1 1000 (1000)
2016-09-13 21:03:21.493 STDERR [INFO] I0913 21:03:21.490319 12016 net.cpp:156] Memory required for data: 90016
2016-09-13 21:03:21.493 STDERR [INFO] I0913 21:03:21.490324 12016 layer_factory.hpp:77] Creating layer lstm1_h_concat
2016-09-13 21:03:21.493 STDERR [INFO] I0913 21:03:21.490344 12016 net.cpp:91] Creating Layer lstm1_h_concat
2016-09-13 21:03:21.493 STDERR [INFO] I0913 21:03:21.490350 12016 net.cpp:425] lstm1_h_concat <- h_1
2016-09-13 21:03:21.493 STDERR [INFO] I0913 21:03:21.490357 12016 net.cpp:399] lstm1_h_concat -> h
2016-09-13 21:03:21.493 STDERR [INFO] I0913 21:03:21.490389 12016 net.cpp:141] Setting up lstm1_h_concat
2016-09-13 21:03:21.493 STDERR [INFO] I0913 21:03:21.490397 12016 net.cpp:148] Top shape: 1 1 1000 (1000)
2016-09-13 21:03:21.493 STDERR [INFO] I0913 21:03:21.490402 12016 net.cpp:156] Memory required for data: 94016
2016-09-13 21:03:21.494 STDERR [INFO] I0913 21:03:21.490406 12016 layer_factory.hpp:77] Creating layer h_pseudoloss
2016-09-13 21:03:21.494 STDERR [INFO] I0913 21:03:21.490427 12016 net.cpp:91] Creating Layer h_pseudoloss
2016-09-13 21:03:21.494 STDERR [INFO] I0913 21:03:21.490432 12016 net.cpp:425] h_pseudoloss <- h
…
2016-09-13 21:03:21.507 STDERR [INFO] }
2016-09-13 21:03:21.507 STDERR [INFO] I0913 21:03:21.491294 12016 layer_factory.hpp:77] Creating layer lstm2_
2016-09-13 21:03:21.507 STDERR [INFO] I0913 21:03:21.491307 12016 net.cpp:91] Creating Layer lstm2_
2016-09-13 21:03:21.507 STDERR [INFO] I0913 21:03:21.491313 12016 net.cpp:399] lstm2_ -> x
2016-09-13 21:03:21.507 STDERR [INFO] I0913 21:03:21.491323 12016 net.cpp:399] lstm2_ -> cont
2016-09-13 21:03:21.507 STDERR [INFO] I0913 21:03:21.491375 12016 net.cpp:141] Setting up lstm2_
2016-09-13 21:03:21.507 STDERR [INFO] I0913 21:03:21.491384 12016 net.cpp:148] Top shape: 1 1 1501 (1501)
2016-09-13 21:03:21.507 n.t.s.b.CVParticleBolt [INFO] [Timing] RequestID: 0 StreamID: home_peifeng_work_data_frame_1080x1920_png SequenceNr: 121 Entering scale: 1473815001507
2016-09-13 21:03:21.508 STDERR [INFO] I0913 21:03:21.491391 12016 net.cpp:148] Top shape: 1 1 (1)
2016-09-13 21:03:21.508 STDERR [INFO] I0913 21:03:21.491395 12016 net.cpp:156] Memory required for data: 6008
2016-09-13 21:03:21.508 STDERR [INFO] I0913 21:03:21.491400 12016 layer_factory.hpp:77] Creating layer lstm2_
2016-09-13 21:03:21.508 STDERR [INFO] I0913 21:03:21.491408 12016 net.cpp:91] Creating Layer lstm2_
2016-09-13 21:03:21.508 STDERR [INFO] I0913 21:03:21.491420 12016 net.cpp:399] lstm2_ -> c_0
2016-09-13 21:03:21.508 STDERR [INFO] I0913 21:03:21.491430 12016 net.cpp:399] lstm2_ -> h_0
2016-09-13 21:03:21.508 STDERR [INFO] I0913 21:03:21.491475 12016 net.cpp:141] Setting up lstm2_
2016-09-13 21:03:21.508 STDERR [INFO] I0913 21:03:21.491483 12016 net.cpp:148] Top shape: 1 1 1000 (1000)
2016-09-13 21:03:21.508 STDERR [INFO] I0913 21:03:21.491489 12016 net.cpp:148] Top shape: 1 1 1000 (1000)
2016-09-13 21:03:21.508 STDERR [INFO] I0913 21:03:21.491493 12016 net.cpp:156] Memory required for data: 14008
2016-09-13 21:03:21.508 STDERR [INFO] I0913 21:03:21.491498 12016 layer_factory.hpp:77] Creating layer lstm2_cont_slice
2016-09-13 21:03:21.508 STDERR [INFO] I0913 21:03:21.491509 12016 net.cpp:91] Creating Layer lstm2_cont_slice
2016-09-13 21:03:21.508 STDERR [INFO] I0913 21:03:21.491514 12016 net.cpp:425] lstm2_cont_slice <- cont
2016-09-13 21:03:21.508 STDERR [INFO] I0913 21:03:21.491521 12016 net.cpp:399] lstm2_cont_slice -> cont_1
2016-09-13 21:03:21.509 STDERR [INFO] I0913 21:03:21.491551 12016 net.cpp:141] Setting up lstm2_cont_slice
2016-09-13 21:03:21.509 STDERR [INFO] I0913 21:03:21.491560 12016 net.cpp:148] Top shape: 1 1 (1)
2016-09-13 21:03:21.509 STDERR [INFO] I0913 21:03:21.491565 12016 net.cpp:156] Memory required for data: 14012
2016-09-13 21:03:21.509 STDERR [INFO] I0913 21:03:21.491570 12016 layer_factory.hpp:77] Creating layer cont_1_lstm2_cont_slice_0_split
2016-09-13 21:03:21.509 STDERR [INFO] I0913 21:03:21.491580 12016 net.cpp:91] Creating Layer cont_1_lstm2_cont_slice_0_split
2016-09-13 21:03:21.509 STDERR [INFO] I0913 21:03:21.491585 12016 net.cpp:425] cont_1_lstm2_cont_slice_0_split <- cont_1
2016-09-13 21:03:21.509 STDERR [INFO] I0913 21:03:21.491591 12016 net.cpp:399] cont_1_lstm2_cont_slice_0_split -> cont_1_lstm2_cont_slice_0_split_0
2016-09-13 21:03:21.509 STDERR [INFO] I0913 21:03:21.491600 12016 net.cpp:399] cont_1_lstm2_cont_slice_0_split -> cont_1_lstm2_cont_slice_0_split_1
2016-09-13 21:03:21.509 STDERR [INFO] I0913 21:03:21.491644 12016 net.cpp:141] Setting up cont_1_lstm2_cont_slice_0_split
2016-09-13 21:03:21.510 STDERR [INFO] I0913 21:03:21.491652 12016 net.cpp:148] Top shape: 1 1 (1)
2016-09-13 21:03:21.510 STDERR [INFO] I0913 21:03:21.491658 12016 net.cpp:148] Top shape: 1 1 (1)
2016-09-13 21:03:21.510 STDERR [INFO] I0913 21:03:21.491662 12016 net.cpp:156] Memory required for data: 14020
2016-09-13 21:03:21.510 STDERR [INFO] I0913 21:03:21.491667 12016 layer_factory.hpp:77] Creating layer lstm2_x_transform
2016-09-13 21:03:21.510 STDERR [INFO] I0913 21:03:21.491679 12016 net.cpp:91] Creating Layer lstm2_x_transform
2016-09-13 21:03:21.510 STDERR [INFO] I0913 21:03:21.491684 12016 net.cpp:425] lstm2_x_transform <- x
2016-09-13 21:03:21.510 STDERR [INFO] I0913 21:03:21.491691 12016 net.cpp:399] lstm2_x_transform -> W_xc_x
2016-09-13 21:03:21.517 n.t.s.b.CVParticleBolt [INFO] [Timing] RequestID: 0 StreamID: home_peifeng_work_data_frame_1080x1920_png SequenceNr: 120 Leaving scale: 1473815001517 Size: 60165
2016-09-13 21:03:21.550 STDERR [INFO] I0913 21:03:21.550202 12016 net.cpp:141] Setting up lstm2_x_transform
2016-09-13 21:03:21.550 STDERR [INFO] I0913 21:03:21.550246 12016 net.cpp:148] Top shape: 1 1 4000 (4000)
2016-09-13 21:03:21.550 STDERR [INFO] I0913 21:03:21.550251 12016 net.cpp:156] Memory required for data: 30020
2016-09-13 21:03:21.551 STDERR [INFO] I0913 21:03:21.550269 12016 layer_factory.hpp:77] Creating layer lstm2_W_xc_x_slice
2016-09-13 21:03:21.551 STDERR [INFO] I0913 21:03:21.550282 12016 net.cpp:91] Creating Layer lstm2_W_xc_x_slice
2016-09-13 21:03:21.551 STDERR [INFO] I0913 21:03:21.550288 12016 net.cpp:425] lstm2_W_xc_x_slice <- W_xc_x
2016-09-13 21:03:21.551 STDERR [INFO] I0913 21:03:21.550297 12016 net.cpp:399] lstm2_W_xc_x_slice -> W_xc_x_1
2016-09-13 21:03:21.551 STDERR [INFO] I0913 21:03:21.550341 12016 net.cpp:141] Setting up lstm2_W_xc_x_slice
2016-09-13 21:03:21.551 STDERR [INFO] I0913 21:03:21.550351 12016 net.cpp:148] Top shape: 1 1 4000 (4000)
2016-09-13 21:03:21.551 STDERR [INFO] I0913 21:03:21.550356 12016 net.cpp:156] Memory required for data: 46020
2016-09-13 21:03:21.551 STDERR [INFO] I0913 21:03:21.550360 12016 layer_factory.hpp:77] Creating layer lstm2_h_conted_0
2016-09-13 21:03:21.551 STDERR [INFO] I0913 21:03:21.550370 12016 net.cpp:91] Creating Layer lstm2_h_conted_0
2016-09-13 21:03:21.551 STDERR [INFO] I0913 21:03:21.550375 12016 net.cpp:425] lstm2_h_conted_0 <- h_0
2016-09-13 21:03:21.551 STDERR [INFO] I0913 21:03:21.550381 12016 net.cpp:425] lstm2_h_conted_0 <- cont_1_lstm2_cont_slice_0_split_0
2016-09-13 21:03:21.551 STDERR [INFO] I0913 21:03:21.550389 12016 net.cpp:399] lstm2_h_conted_0 -> h_conted_0
2016-09-13 21:03:21.552 STDERR [INFO] I0913 21:03:21.550475 12016 net.cpp:141] Setting up lstm2_h_conted_0
2016-09-13 21:03:21.552 STDERR [INFO] I0913 21:03:21.550485 12016 net.cpp:148] Top shape: 1 1 1000 (1000)
2016-09-13 21:03:21.552 STDERR [INFO] I0913 21:03:21.550489 12016 net.cpp:156] Memory required for data: 50020
2016-09-13 21:03:21.552 STDERR [INFO] I0913 21:03:21.550494 12016 layer_factory.hpp:77] Creating layer lstm2_transform_1
2016-09-13 21:03:21.552 STDERR [INFO] I0913 21:03:21.550504 12016 net.cpp:91] Creating Layer lstm2_transform_1
2016-09-13 21:03:21.552 STDERR [INFO] I0913 21:03:21.550509 12016 net.cpp:425] lstm2_transform_1 <- h_conted_0
2016-09-13 21:03:21.552 STDERR [INFO] I0913 21:03:21.550518 12016 net.cpp:399] lstm2_transform_1 -> W_hc_h_0
2016-09-13 21:03:21.571 n.t.s.s.CVParticleSpout [INFO] [Timing] RequestID: 0 StreamID: home_peifeng_work_data_frame_1080x1920_png SequenceNr: 122 Leaving fetcher: 1473815001571 Size: 160423
2016-09-13 21:03:21.589 STDERR [INFO] I0913 21:03:21.589614 12016 net.cpp:141] Setting up lstm2_transform_1
2016-09-13 21:03:21.590 STDERR [INFO] I0913 21:03:21.589663 12016 net.cpp:148] Top shape: 1 1 4000 (4000)
2016-09-13 21:03:21.590 STDERR [INFO] I0913 21:03:21.589669 12016 net.cpp:156] Memory required for data: 66020
2016-09-13 21:03:21.590 STDERR [INFO] I0913 21:03:21.589689 12016 layer_factory.hpp:77] Creating layer lstm2_gate_input_1
2016-09-13 21:03:21.590 STDERR [INFO] I0913 21:03:21.589706 12016 net.cpp:91] Creating Layer lstm2_gate_input_1
2016-09-13 21:03:21.590 STDERR [INFO] I0913 21:03:21.589714 12016 net.cpp:425] lstm2_gate_input_1 <- W_hc_h_0
2016-09-13 21:03:21.590 STDERR [INFO] I0913 21:03:21.589721 12016 net.cpp:425] lstm2_gate_input_1 <- W_xc_x_1
2016-09-13 21:03:21.590 STDERR [INFO] I0913 21:03:21.589728 12016 net.cpp:399] lstm2_gate_input_1 -> gate_input_1
2016-09-13 21:03:21.590 STDERR [INFO] I0913 21:03:21.589776 12016 net.cpp:141] Setting up lstm2_gate_input_1
2016-09-13 21:03:21.590 STDERR [INFO] I0913 21:03:21.589787 12016 net.cpp:148] Top shape: 1 1 4000 (4000)
2016-09-13 21:03:21.591 STDERR [INFO] I0913 21:03:21.589790 12016 net.cpp:156] Memory required for data: 82020
2016-09-13 21:03:21.591 STDERR [INFO] I0913 21:03:21.589795 12016 layer_factory.hpp:77] Creating layer lstm2_unit_1
2016-09-13 21:03:21.591 STDERR [INFO] I0913 21:03:21.589807 12016 net.cpp:91] Creating Layer lstm2_unit_1
2016-09-13 21:03:21.591 STDERR [INFO] I0913 21:03:21.589812 12016 net.cpp:425] lstm2_unit_1 <- c_0
2016-09-13 21:03:21.591 STDERR [INFO] I0913 21:03:21.589818 12016 net.cpp:425] lstm2_unit_1 <- gate_input_1
2016-09-13 21:03:21.591 STDERR [INFO] I0913 21:03:21.589823 12016 net.cpp:425] lstm2_unit_1 <- cont_1_lstm2_cont_slice_0_split_1
2016-09-13 21:03:21.591 STDERR [INFO] I0913 21:03:21.589828 12016 net.cpp:399] lstm2_unit_1 -> c_1
2016-09-13 21:03:21.591 STDERR [INFO] I0913 21:03:21.589838 12016 net.cpp:399] lstm2_unit_1 -> h_1
2016-09-13 21:03:21.591 STDERR [INFO] I0913 21:03:21.589897 12016 net.cpp:141] Setting up lstm2_unit_1
2016-09-13 21:03:21.591 STDERR [INFO] I0913 21:03:21.589915 12016 net.cpp:148] Top shape: 1 1 1000 (1000)
2016-09-13 21:03:21.591 STDERR [INFO] I0913 21:03:21.589921 12016 net.cpp:148] Top shape: 1 1 1000 (1000)
2016-09-13 21:03:21.592 STDERR [INFO] I0913 21:03:21.589926 12016 net.cpp:156] Memory required for data: 90020
2016-09-13 21:03:21.592 STDERR [INFO] I0913 21:03:21.589931 12016 layer_factory.hpp:77] Creating layer lstm2_
2016-09-13 21:03:21.592 STDERR [INFO] I0913 21:03:21.589938 12016 net.cpp:91] Creating Layer lstm2_
2016-09-13 21:03:21.592 STDERR [INFO] I0913 21:03:21.589943 12016 net.cpp:425] lstm2_ <- c_1
2016-09-13 21:03:21.592 STDERR [INFO] I0913 21:03:21.589949 12016 net.cpp:399] lstm2_ -> c_T
2016-09-13 21:03:21.592 STDERR [INFO] I0913 21:03:21.589979 12016 net.cpp:141] Setting up lstm2_
2016-09-13 21:03:21.592 STDERR [INFO] I0913 21:03:21.589987 12016 net.cpp:148] Top shape: 1 1 1000 (1000)
2016-09-13 21:03:21.592 STDERR [INFO] I0913 21:03:21.589993 12016 net.cpp:156] Memory required for data: 94020
2016-09-13 21:03:21.592 STDERR [INFO] I0913 21:03:21.589998 12016 layer_factory.hpp:77] Creating layer lstm2_h_concat
2016-09-13 21:03:21.592 STDERR [INFO] I0913 21:03:21.590009 12016 net.cpp:91] Creating Layer lstm2_h_concat
2016-09-13 21:03:21.592 STDERR [INFO] I0913 21:03:21.590014 12016 net.cpp:425] lstm2_h_concat <- h_1
2016-09-13 21:03:21.592 STDERR [INFO] I0913 21:03:21.590021 12016 net.cpp:399] lstm2_h_concat -> h
2016-09-13 21:03:21.592 STDERR [INFO] I0913 21:03:21.590056 12016 net.cpp:141] Setting up lstm2_h_concat
2016-09-13 21:03:21.593 STDERR [INFO] I0913 21:03:21.590065 12016 net.cpp:148] Top shape: 1 1 1000 (1000)
2016-09-13 21:03:21.593 STDERR [INFO] I0913 21:03:21.590070 12016 net.cpp:156] Memory required for data: 98020
2016-09-13 21:03:21.593 STDERR [INFO] I0913 21:03:21.590073 12016 layer_factory.hpp:77] Creating layer h_pseudoloss
2016-09-13 21:03:21.593 STDERR [INFO] I0913 21:03:21.590082 12016 net.cpp:91] Creating Layer h_pseudoloss
2016-09-13 21:03:21.593 STDERR [INFO] I0913 21:03:21.590087 12016 net.cpp:425] h_pseudoloss <- h
…
