…
Java HotSpot(TM) 64-Bit Server VM warning: You have loaded library /home/peifeng/work/run/storm102/data/workers/1d8dd382-a6bd-47c9-8d08-8eb9ae03bc25/tmp/cvld7872148048422566788/libopencv_java310.xine1.so which might have disabled stack guard. The VM will try to fix the stack guard now.
It's highly recommended that you fix the library with 'execstack -c <libfile>', or link it with '-z noexecstack'.
WARNING: Logging before InitGoogleLogging() is written to STDERR
I0913 17:39:34.943802 13267 net.cpp:49] Initializing net from parameters: 
name: "GoogleNet"
state {
  phase: TEST
}
layer {
  name: "data"
  type: "Input"
  top: "data"
  input_param {
    shape {
      dim: 10
      dim: 3
      dim: 224
      dim: 224
    }
  }
}
layer {
  name: "conv1/7x7_s2"
  type: "Convolution"
  bottom: "data"
  top: "conv1/7x7_s2"
  param {
    lr_mult: 1
    decay_mult: 1
  }
  param {
    lr_mult: 2
    decay_mult: 0
  }
  convolution_param {
    num_output: 64
    pad: 3
    kernel_size: 7
    stride: 2
    weight_filler {
      type: "xavier"
      std: 0.1
    }
    bias_filler {
      type: "constant"
      value: 0.2
    }
  }
}
layer {
  name: "conv1/relu_7x7"
  type: "ReLU"
  bottom: "conv1/7x7_s2"
  top: "conv1/7x7_s2"
}
layer {
  name: "pool1/3x3_s2"
  type: "Pooling"
  bottom: "conv1/7x7_s2"
  top: "pool1/3x3_s2"
  pooling_param {
    pool: MAX
    kernel_size: 3
    stride: 2
  }
}
layer {
  name: "pool1/norm1"
  type: "LRN"
  bottom: "pool1/3x3_s2"
  top: "pool1/norm1"
  lrn_param {
    local_size: 5
    alpha: 0.0001
    beta: 0.75
  }
}
layer {
  name: "conv2/3x3_reduce"
  type: "Convolution"
  bottom: "pool1/norm1"
  top: "conv2/3x3_reduce"
  param {
    lr_mult: 1
    decay_mult: 1
  }
  param {
    lr_mult: 2
    decay_mult: 0
  }
  convolution_param {
    num_output: 64
    kernel_size: 1
    weight_filler {
      type: "xavier"
      std: 0.1
    }
    bias_filler {
      type: "constant"
      value: 0.2
    }
  }
}
layer {
  name: "conv2/relu_3x3_reduce"
  type: "ReLU"
  bottom: "conv2/3x3_reduce"
  top: "conv2/3x3_reduce"
}
layer {
  name: "conv2/3x3"
  type: "Convolution"
  bottom: "conv2/3x3_reduce"
  top: "conv2/3x3"
  param {
    lr_mult: 1
    decay_mult: 1
  }
  param {
    lr_mult: 2
    decay_mult: 0
  }
  convolution_param {
    num_output: 192
    pad: 1
    kernel_size: 3
    weight_filler {
      type: "xavier"
      std: 0.03
    }
    bias_filler {
      type: "constant"
      value: 0.2
    }
  }
}
layer {
  name: "conv2/relu_3x3"
  type: "ReLU"
  bottom: "conv2/3x3"
  top: "conv2/3x3"
}
layer {
  name: "conv2/norm2"
  type: "LRN"
  bottom: "conv2/3x3"
  top: "conv2/norm2"
  lrn_param {
    local_size: 5
    alpha: 0.0001
    beta: 0.75
  }
}
layer {
  name: "pool2/3x3_s2"
  type: "Pooling"
  bottom: "conv2/norm2"
  top: "pool2/3x3_s2"
  pooling_param {
    pool: MAX
    kernel_size: 3
    stride: 2
  }
}
layer {
  name: "inception_3a/1x1"
  type: "Convolution"
  bottom: "pool2/3x3_s2"
  top: "inception_3a/1x1"
  param {
    lr_mult: 1
    decay_mult: 1
  }
  param {
    lr_mult: 2
    decay_mult: 0
  }
  convolution_param {
    num_output: 64
    kernel_size: 1
    weight_filler {
      type: "xavier"
      std: 0.03
    }
    bias_filler {
      type: "constant"
      value: 0.2
    }
  }
}
layer {
  name: "inception_3a/relu_1x1"
  type: "ReLU"
  bottom: "inception_3a/1x1"
  top: "inception_3a/1x1"
}
layer {
  name: "inception_3a/3x3_reduce"
  type: "Convolution"
  bottom: "pool2/3x3_s2"
  top: "inception_3a/3x3_reduce"
  param {
    lr_mult: 1
    decay_mult: 1
  }
  param {
    lr_mult: 2
    decay_mult: 0
  }
  convolution_param {
    num_output: 96
    kernel_size: 1
    weight_filler {
      type: "xavier"
      std: 0.09
    }
    bias_filler {
      type: "constant"
      value: 0.2
    }
  }
}
layer {
  name: "inception_3a/relu_3x3_reduce"
  type: "ReLU"
  bottom: "inception_3a/3x3_reduce"
  top: "inception_3a/3x3_reduce"
}
layer {
  name: "inception_3a/3x3"
  type: "Convolution"
  bottom: "inception_3a/3x3_reduce"
  top: "inception_3a/3x3"
  param {
    lr_mult: 1
    decay_mult: 1
  }
  param {
    lr_mult: 2
    decay_mult: 0
  }
  convolution_param {
    num_output: 128
    pad: 1
    kernel_size: 3
    weight_filler {
      type: "xavier"
      std: 0.03
    }
    bias_filler {
      type: "constant"
      value: 0.2
    }
  }
}
layer {
  name: "inception_3a/relu_3x3"
  type: "ReLU"
  bottom: "inception_3a/3x3"
  top: "inception_3a/3x3"
}
layer {
  name: "inception_3a/5x5_reduce"
  type: "Convolution"
  bottom: "pool2/3x3_s2"
  top: "inception_3a/5x5_reduce"
  param {
    lr_mult: 1
    decay_mult: 1
  }
  param {
    lr_mult: 2
    decay_mult: 0
  }
  convolution_param {
    num_output: 16
    kernel_size: 1
    weight_filler {
      type: "xavier"
      std: 0.2
    }
    bias_filler {
      type: "constant"
      value: 0.2
    }
  }
}
layer {
  name: "inception_3a/relu_5x5_reduce"
  type: "ReLU"
  bottom: "inception_3a/5x5_reduce"
  top: "inception_3a/5x5_reduce"
}
layer {
  name: "inception_3a/5x5"
  type: "Convolution"
  bottom: "inception_3a/5x5_reduce"
  top: "inception_3a/5x5"
  param {
    lr_mult: 1
    decay_mult: 1
  }
  param {
    lr_mult: 2
    decay_mult: 0
  }
  convolution_param {
    num_output: 32
    pad: 2
    kernel_size: 5
    weight_filler {
      type: "xavier"
      std: 0.03
    }
    bias_filler {
      type: "constant"
      value: 0.2
    }
  }
}
layer {
  name: "inception_3a/relu_5x5"
  type: "ReLU"
  bottom: "inception_3a/5x5"
  top: "inception_3a/5x5"
}
layer {
  name: "inception_3a/pool"
  type: "Pooling"
  bottom: "pool2/3x3_s2"
  top: "inception_3a/pool"
  pooling_param {
    pool: MAX
    kernel_size: 3
    stride: 1
    pad: 1
  }
}
layer {
  name: "inception_3a/pool_proj"
  type: "Convolution"
  bottom: "inception_3a/pool"
  top: "inception_3a/pool_proj"
  param {
    lr_mult: 1
    decay_mult: 1
  }
  param {
    lr_mult: 2
    decay_mult: 0
  }
  convolution_param {
    num_output: 32
    kernel_size: 1
    weight_filler {
      type: "xavier"
      std: 0.1
    }
    bias_filler {
      type: "constant"
      value: 0.2
    }
  }
}
layer {
  name: "inception_3a/relu_pool_proj"
  type: "ReLU"
  bottom: "inception_3a/pool_proj"
  top: "inception_3a/pool_proj"
}
layer {
  name: "inception_3a/output"
  type: "Concat"
  bottom: "inception_3a/1x1"
  bottom: "inception_3a/3x3"
  bottom: "inception_3a/5x5"
  bottom: "inception_3a/pool_proj"
  top: "inception_3a/output"
}
layer {
  name: "inception_3b/1x1"
  type: "Convolution"
  bottom: "inception_3a/output"
  top: "inception_3b/1x1"
  param {
    lr_mult: 1
    decay_mult: 1
  }
  param {
    lr_mult: 2
    decay_mult: 0
  }
  convolution_param {
    num_output: 128
    kernel_size: 1
    weight_filler {
      type: "xavier"
      std: 0.03
    }
    bias_filler {
      type: "constant"
      value: 0.2
    }
  }
}
layer {
  name: "inception_3b/relu_1x1"
  type: "ReLU"
  bottom: "inception_3b/1x1"
  top: "inception_3b/1x1"
}
layer {
  name: "inception_3b/3x3_reduce"
  type: "Convolution"
  bottom: "inception_3a/output"
  top: "inception_3b/3x3_reduce"
  param {
    lr_mult: 1
    decay_mult: 1
  }
  param {
    lr_mult: 2
    decay_mult: 0
  }
  convolution_param {
    num_output: 128
    kernel_size: 1
    weight_filler {
      type: "xavier"
      std: 0.09
    }
    bias_filler {
      type: "constant"
      value: 0.2
    }
  }
}
layer {
  name: "inception_3b/relu_3x3_reduce"
  type: "ReLU"
  bottom: "inception_3b/3x3_reduce"
  top: "inception_3b/3x3_reduce"
}
layer {
  name: "inception_3b/3x3"
  type: "Convolution"
  bottom: "inception_3b/3x3_reduce"
  top: "inception_3b/3x3"
  param {
    lr_mult: 1
    decay_mult: 1
  }
  param {
    lr_mult: 2
    decay_mult: 0
  }
  convolution_param {
    num_output: 192
    pad: 1
    kernel_size: 3
    weight_filler {
      type: "xavier"
      std: 0.03
    }
    bias_filler {
      type: "constant"
      value: 0.2
    }
  }
}
layer {
  name: "inception_3b/relu_3x3"
  type: "ReLU"
  bottom: "inception_3b/3x3"
  top: "inception_3b/3x3"
}
layer {
  name: "inception_3b/5x5_reduce"
  type: "Convolution"
  bottom: "inception_3a/output"
  top: "inception_3b/5x5_reduce"
  param {
    lr_mult: 1
    decay_mult: 1
  }
  param {
    lr_mult: 2
    decay_mult: 0
  }
  convolution_param {
    num_output: 32
    kernel_size: 1
    weight_filler {
      type: "xavier"
      std: 0.2
    }
    bias_filler {
      type: "constant"
      value: 0.2
    }
  }
}
layer {
  name: "inception_3b/relu_5x5_reduce"
  type: "ReLU"
  bottom: "inception_3b/5x5_reduce"
  top: "inception_3b/5x5_reduce"
}
layer {
  name: "inception_3b/5x5"
  type: "Convolution"
  bottom: "inception_3b/5x5_reduce"
  top: "inception_3b/5x5"
  param {
    lr_mult: 1
    decay_mult: 1
  }
  param {
    lr_mult: 2
    decay_mult: 0
  }
  convolution_param {
    num_output: 96
    pad: 2
    kernel_size: 5
    weight_filler {
      type: "xavier"
      std: 0.03
    }
    bias_filler {
      type: "constant"
      value: 0.2
    }
  }
}
layer {
  name: "inception_3b/relu_5x5"
  type: "ReLU"
  bottom: "inception_3b/5x5"
  top: "inception_3b/5x5"
}
layer {
  name: "inception_3b/pool"
  type: "Pooling"
  bottom: "inception_3a/output"
  top: "inception_3b/pool"
  pooling_param {
    pool: MAX
    kernel_size: 3
    stride: 1
    pad: 1
  }
}
layer {
  name: "inception_3b/pool_proj"
  type: "Convolution"
  bottom: "inception_3b/pool"
  top: "inception_3b/pool_proj"
  param {
    lr_mult: 1
    decay_mult: 1
  }
  param {
    lr_mult: 2
    decay_mult: 0
  }
  convolution_param {
    num_output: 64
    kernel_size: 1
    weight_filler {
      type: "xavier"
      std: 0.1
    }
    bias_filler {
      type: "constant"
      value: 0.2
    }
  }
}
layer {
  name: "inception_3b/relu_pool_proj"
  type: "ReLU"
  bottom: "inception_3b/pool_proj"
  top: "inception_3b/pool_proj"
}
layer {
  name: "inception_3b/output"
  type: "Concat"
  bottom: "inception_3b/1x1"
  bottom: "inception_3b/3x3"
  bottom: "inception_3b/5x5"
  bottom: "inception_3b/pool_proj"
  top: "inception_3b/output"
}
layer {
  name: "pool3/3x3_s2"
  type: "Pooling"
  bottom: "inception_3b/output"
  top: "pool3/3x3_s2"
  pooling_param {
    pool: MAX
    kernel_size: 3
    stride: 2
  }
}
layer {
  name: "inception_4a/1x1"
  type: "Convolution"
  bottom: "pool3/3x3_s2"
  top: "inception_4a/1x1"
  param {
    lr_mult: 1
    decay_mult: 1
  }
  param {
    lr_mult: 2
    decay_mult: 0
  }
  convolution_param {
    num_output: 192
    kernel_size: 1
    weight_filler {
      type: "xavier"
      std: 0.03
    }
    bias_filler {
      type: "constant"
      value: 0.2
    }
  }
}
layer {
  name: "inception_4a/relu_1x1"
  type: "ReLU"
  bottom: "inception_4a/1x1"
  top: "inception_4a/1x1"
}
layer {
  name: "inception_4a/3x3_reduce"
  type: "Convolution"
  bottom: "pool3/3x3_s2"
  top: "inception_4a/3x3_reduce"
  param {
    lr_mult: 1
    decay_mult: 1
  }
  param {
    lr_mult: 2
    decay_mult: 0
  }
  convolution_param {
    num_output: 96
    kernel_size: 1
    weight_filler {
      type: "xavier"
      std: 0.09
    }
    bias_filler {
      type: "constant"
      value: 0.2
    }
  }
}
layer {
  name: "inception_4a/relu_3x3_reduce"
  type: "ReLU"
  bottom: "inception_4a/3x3_reduce"
  top: "inception_4a/3x3_reduce"
}
layer {
  name: "inception_4a/3x3"
  type: "Convolution"
  bottom: "inception_4a/3x3_reduce"
  top: "inception_4a/3x3"
  param {
    lr_mult: 1
    decay_mult: 1
  }
  param {
    lr_mult: 2
    decay_mult: 0
  }
  convolution_param {
    num_output: 208
    pad: 1
    kernel_size: 3
    weight_filler {
      type: "xavier"
      std: 0.03
    }
    bias_filler {
      type: "constant"
      value: 0.2
    }
  }
}
layer {
  name: "inception_4a/relu_3x3"
  type: "ReLU"
  bottom: "inception_4a/3x3"
  top: "inception_4a/3x3"
}
layer {
  name: "inception_4a/5x5_reduce"
  type: "Convolution"
  bottom: "pool3/3x3_s2"
  top: "inception_4a/5x5_reduce"
  param {
    lr_mult: 1
    decay_mult: 1
  }
  param {
    lr_mult: 2
    decay_mult: 0
  }
  convolution_param {
    num_output: 16
    kernel_size: 1
    weight_filler {
      type: "xavier"
      std: 0.2
    }
    bias_filler {
      type: "constant"
      value: 0.2
    }
  }
}
layer {
  name: "inception_4a/relu_5x5_reduce"
  type: "ReLU"
  bottom: "inception_4a/5x5_reduce"
  top: "inception_4a/5x5_reduce"
}
layer {
  name: "inception_4a/5x5"
  type: "Convolution"
  bottom: "inception_4a/5x5_reduce"
  top: "inception_4a/5x5"
  param {
    lr_mult: 1
    decay_mult: 1
  }
  param {
    lr_mult: 2
    decay_mult: 0
  }
  convolution_param {
    num_output: 48
    pad: 2
    kernel_size: 5
    weight_filler {
      type: "xavier"
      std: 0.03
    }
    bias_filler {
      type: "constant"
      value: 0.2
    }
  }
}
layer {
  name: "inception_4a/relu_5x5"
  type: "ReLU"
  bottom: "inception_4a/5x5"
  top: "inception_4a/5x5"
}
layer {
  name: "inception_4a/pool"
  type: "Pooling"
  bottom: "pool3/3x3_s2"
  top: "inception_4a/pool"
  pooling_param {
    pool: MAX
    kernel_size: 3
    stride: 1
    pad: 1
  }
}
layer {
  name: "inception_4a/pool_proj"
  type: "Convolution"
  bottom: "inception_4a/pool"
  top: "inception_4a/pool_proj"
  param {
    lr_mult: 1
    decay_mult: 1
  }
  param {
    lr_mult: 2
    decay_mult: 0
  }
  convolution_param {
    num_output: 64
    kernel_size: 1
    weight_filler {
      type: "xavier"
      std: 0.1
    }
    bias_filler {
      type: "constant"
      value: 0.2
    }
  }
}
layer {
  name: "inception_4a/relu_pool_proj"
  type: "ReLU"
  bottom: "inception_4a/pool_proj"
  top: "inception_4a/pool_proj"
}
layer {
  name: "inception_4a/output"
  type: "Concat"
  bottom: "inception_4a/1x1"
  bottom: "inception_4a/3x3"
  bottom: "inception_4a/5x5"
  bottom: "inception_4a/pool_proj"
  top: "inception_4a/output"
}
layer {
  name: "inception_4b/1x1"
  type: "Convolution"
  bottom: "inception_4a/output"
  top: "inception_4b/1x1"
  param {
    lr_mult: 1
    decay_mult: 1
  }
  param {
    lr_mult: 2
    decay_mult: 0
  }
  convolution_param {
    num_output: 160
    kernel_size: 1
    weight_filler {
      type: "xavier"
      std: 0.03
    }
    bias_filler {
      type: "constant"
      value: 0.2
    }
  }
}
layer {
  name: "inception_4b/relu_1x1"
  type: "ReLU"
  bottom: "inception_4b/1x1"
  top: "inception_4b/1x1"
}
layer {
  name: "inception_4b/3x3_reduce"
  type: "Convolution"
  bottom: "inception_4a/output"
  top: "inception_4b/3x3_reduce"
  param {
    lr_mult: 1
    decay_mult: 1
  }
  param {
    lr_mult: 2
    decay_mult: 0
  }
  convolution_param {
    num_output: 112
    kernel_size: 1
    weight_filler {
      type: "xavier"
      std: 0.09
    }
    bias_filler {
      type: "constant"
      value: 0.2
    }
  }
}
layer {
  name: "inception_4b/relu_3x3_reduce"
  type: "ReLU"
  bottom: "inception_4b/3x3_reduce"
  top: "inception_4b/3x3_reduce"
}
layer {
  name: "inception_4b/3x3"
  type: "Convolution"
  bottom: "inception_4b/3x3_reduce"
  top: "inception_4b/3x3"
  param {
    lr_mult: 1
    decay_mult: 1
  }
  param {
    lr_mult: 2
    decay_mult: 0
  }
  convolution_param {
    num_output: 224
    pad: 1
    kernel_size: 3
    weight_filler {
      type: "xavier"
      std: 0.03
    }
    bias_filler {
      type: "constant"
      value: 0.2
    }
  }
}
layer {
  name: "inception_4b/relu_3x3"
  type: "ReLU"
  bottom: "inception_4b/3x3"
  top: "inception_4b/3x3"
}
layer {
  name: "inception_4b/5x5_reduce"
  type: "Convolution"
  bottom: "inception_4a/output"
  top: "inception_4b/5x5_reduce"
  param {
    lr_mult: 1
    decay_mult: 1
  }
  param {
    lr_mult: 2
    decay_mult: 0
  }
  convolution_param {
    num_output: 24
    kernel_size: 1
    weight_filler {
      type: "xavier"
      std: 0.2
    }
    bias_filler {
      type: "constant"
      value: 0.2
    }
  }
}
layer {
  name: "inception_4b/relu_5x5_reduce"
  type: "ReLU"
  bottom: "inception_4b/5x5_reduce"
  top: "inception_4b/5x5_reduce"
}
layer {
  name: "inception_4b/5x5"
  type: "Convolution"
  bottom: "inception_4b/5x5_reduce"
  top: "inception_4b/5x5"
  param {
    lr_mult: 1
    decay_mult: 1
  }
  param {
    lr_mult: 2
    decay_mult: 0
  }
  convolution_param {
    num_output: 64
    pad: 2
    kernel_size: 5
    weight_filler {
      type: "xavier"
      std: 0.03
    }
    bias_filler {
      type: "constant"
      value: 0.2
    }
  }
}
layer {
  name: "inception_4b/relu_5x5"
  type: "ReLU"
  bottom: "inception_4b/5x5"
  top: "inception_4b/5x5"
}
layer {
  name: "inception_4b/pool"
  type: "Pooling"
  bottom: "inception_4a/output"
  top: "inception_4b/pool"
  pooling_param {
    pool: MAX
    kernel_size: 3
    stride: 1
    pad: 1
  }
}
layer {
  name: "inception_4b/pool_proj"
  type: "Convolution"
  bottom: "inception_4b/pool"
  top: "inception_4b/pool_proj"
  param {
    lr_mult: 1
    decay_mult: 1
  }
  param {
    lr_mult: 2
    decay_mult: 0
  }
  convolution_param {
    num_output: 64
    kernel_size: 1
    weight_filler {
      type: "xavier"
      std: 0.1
    }
    bias_filler {
      type: "constant"
      value: 0.2
    }
  }
}
layer {
  name: "inception_4b/relu_pool_proj"
  type: "ReLU"
  bottom: "inception_4b/pool_proj"
  top: "inception_4b/pool_proj"
}
layer {
  name: "inception_4b/output"
  type: "Concat"
  bottom: "inception_4b/1x1"
  bottom: "inception_4b/3x3"
  bottom: "inception_4b/5x5"
  bottom: "inception_4b/pool_proj"
  top: "inception_4b/output"
}
layer {
  name: "inception_4c/1x1"
  type: "Convolution"
  bottom: "inception_4b/output"
  top: "inception_4c/1x1"
  param {
    lr_mult: 1
    decay_mult: 1
  }
  param {
    lr_mult: 2
    decay_mult: 0
  }
  convolution_param {
    num_output: 128
    kernel_size: 1
    weight_filler {
      type: "xavier"
      std: 0.03
    }
    bias_filler {
      type: "constant"
      value: 0.2
    }
  }
}
layer {
  name: "inception_4c/relu_1x1"
  type: "ReLU"
  bottom: "inception_4c/1x1"
  top: "inception_4c/1x1"
}
layer {
  name: "inception_4c/3x3_reduce"
  type: "Convolution"
  bottom: "inception_4b/output"
  top: "inception_4c/3x3_reduce"
  param {
    lr_mult: 1
    decay_mult: 1
  }
  param {
    lr_mult: 2
    decay_mult: 0
  }
  convolution_param {
    num_output: 128
    kernel_size: 1
    weight_filler {
      type: "xavier"
      std: 0.09
    }
    bias_filler {
      type: "constant"
      value: 0.2
    }
  }
}
layer {
  name: "inception_4c/relu_3x3_reduce"
  type: "ReLU"
  bottom: "inception_4c/3x3_reduce"
  top: "inception_4c/3x3_reduce"
}
layer {
  name: "inception_4c/3x3"
  type: "Convolution"
  bottom: "inception_4c/3x3_reduce"
  top: "inception_4c/3x3"
  param {
    lr_mult: 1
    decay_mult: 1
  }
  param {
    lr_mult: 2
    decay_mult: 0
  }
  convolution_param {
    num_output: 256
    pad: 1
    kernel_size: 3
    weight_filler {
      type: "xavier"
      std: 0.03
    }
    bias_filler {
      type: "constant"
      value: 0.2
    }
  }
}
layer {
  name: "inception_4c/relu_3x3"
  type: "ReLU"
  bottom: "inception_4c/3x3"
  top: "inception_4c/3x3"
}
layer {
  name: "inception_4c/5x5_reduce"
  type: "Convolution"
  bottom: "inception_4b/output"
  top: "inception_4c/5x5_reduce"
  param {
    lr_mult: 1
    decay_mult: 1
  }
  param {
    lr_mult: 2
    decay_mult: 0
  }
  convolution_param {
    num_output: 24
    kernel_size: 1
    weight_filler {
      type: "xavier"
      std: 0.2
    }
    bias_filler {
      type: "constant"
      value: 0.2
    }
  }
}
layer {
  name: "inception_4c/relu_5x5_reduce"
  type: "ReLU"
  bottom: "inception_4c/5x5_reduce"
  top: "inception_4c/5x5_reduce"
}
layer {
  name: "inception_4c/5x5"
  type: "Convolution"
  bottom: "inception_4c/5x5_reduce"
  top: "inception_4c/5x5"
  param {
    lr_mult: 1
    decay_mult: 1
  }
  param {
    lr_mult: 2
    decay_mult: 0
  }
  convolution_param {
    num_output: 64
    pad: 2
    kernel_size: 5
    weight_filler {
      type: "xavier"
      std: 0.03
    }
    bias_filler {
      type: "constant"
      value: 0.2
    }
  }
}
layer {
  name: "inception_4c/relu_5x5"
  type: "ReLU"
  bottom: "inception_4c/5x5"
  top: "inception_4c/5x5"
}
layer {
  name: "inception_4c/pool"
  type: "Pooling"
  bottom: "inception_4b/output"
  top: "inception_4c/pool"
  pooling_param {
    pool: MAX
    kernel_size: 3
    stride: 1
    pad: 1
  }
}
layer {
  name: "inception_4c/pool_proj"
  type: "Convolution"
  bottom: "inception_4c/pool"
  top: "inception_4c/pool_proj"
  param {
    lr_mult: 1
    decay_mult: 1
  }
  param {
    lr_mult: 2
    decay_mult: 0
  }
  convolution_param {
    num_output: 64
    kernel_size: 1
    weight_filler {
      type: "xavier"
      std: 0.1
    }
    bias_filler {
      type: "constant"
      value: 0.2
    }
  }
}
layer {
  name: "inception_4c/relu_pool_proj"
  type: "ReLU"
  bottom: "inception_4c/pool_proj"
  top: "inception_4c/pool_proj"
}
layer {
  name: "inception_4c/output"
  type: "Concat"
  bottom: "inception_4c/1x1"
  bottom: "inception_4c/3x3"
  bottom: "inception_4c/5x5"
  bottom: "inception_4c/pool_proj"
  top: "inception_4c/output"
}
layer {
  name: "inception_4d/1x1"
  type: "Convolution"
  bottom: "inception_4c/output"
  top: "inception_4d/1x1"
  param {
    lr_mult: 1
    decay_mult: 1
  }
  param {
    lr_mult: 2
    decay_mult: 0
  }
  convolution_param {
    num_output: 112
    kernel_size: 1
    weight_filler {
      type: "xavier"
      std: 0.03
    }
    bias_filler {
      type: "constant"
      value: 0.2
    }
  }
}
layer {
  name: "inception_4d/relu_1x1"
  type: "ReLU"
  bottom: "inception_4d/1x1"
  top: "inception_4d/1x1"
}
layer {
  name: "inception_4d/3x3_reduce"
  type: "Convolution"
  bottom: "inception_4c/output"
  top: "inception_4d/3x3_reduce"
  param {
    lr_mult: 1
    decay_mult: 1
  }
  param {
    lr_mult: 2
    decay_mult: 0
  }
  convolution_param {
    num_output: 144
    kernel_size: 1
    weight_filler {
      type: "xavier"
      std: 0.09
    }
    bias_filler {
      type: "constant"
      value: 0.2
    }
  }
}
layer {
  name: "inception_4d/relu_3x3_reduce"
  type: "ReLU"
  bottom: "inception_4d/3x3_reduce"
  top: "inception_4d/3x3_reduce"
}
layer {
  name: "inception_4d/3x3"
  type: "Convolution"
  bottom: "inception_4d/3x3_reduce"
  top: "inception_4d/3x3"
  param {
    lr_mult: 1
    decay_mult: 1
  }
  param {
    lr_mult: 2
    decay_mult: 0
  }
  convolution_param {
    num_output: 288
    pad: 1
    kernel_size: 3
    weight_filler {
      type: "xavier"
      std: 0.03
    }
    bias_filler {
      type: "constant"
      value: 0.2
    }
  }
}
layer {
  name: "inception_4d/relu_3x3"
  type: "ReLU"
  bottom: "inception_4d/3x3"
  top: "inception_4d/3x3"
}
layer {
  name: "inception_4d/5x5_reduce"
  type: "Convolution"
  bottom: "inception_4c/output"
  top: "inception_4d/5x5_reduce"
  param {
    lr_mult: 1
    decay_mult: 1
  }
  param {
    lr_mult: 2
    decay_mult: 0
  }
  convolution_param {
    num_output: 32
    kernel_size: 1
    weight_filler {
      type: "xavier"
      std: 0.2
    }
    bias_filler {
      type: "constant"
      value: 0.2
    }
  }
}
layer {
  name: "inception_4d/relu_5x5_reduce"
  type: "ReLU"
  bottom: "inception_4d/5x5_reduce"
  top: "inception_4d/5x5_reduce"
}
layer {
  name: "inception_4d/5x5"
  type: "Convolution"
  bottom: "inception_4d/5x5_reduce"
  top: "inception_4d/5x5"
  param {
    lr_mult: 1
    decay_mult: 1
  }
  param {
    lr_mult: 2
    decay_mult: 0
  }
  convolution_param {
    num_output: 64
    pad: 2
    kernel_size: 5
    weight_filler {
      type: "xavier"
      std: 0.03
    }
    bias_filler {
      type: "constant"
      value: 0.2
    }
  }
}
layer {
  name: "inception_4d/relu_5x5"
  type: "ReLU"
  bottom: "inception_4d/5x5"
  top: "inception_4d/5x5"
}
layer {
  name: "inception_4d/pool"
  type: "Pooling"
  bottom: "inception_4c/output"
  top: "inception_4d/pool"
  pooling_param {
    pool: MAX
    kernel_size: 3
    stride: 1
    pad: 1
  }
}
layer {
  name: "inception_4d/pool_proj"
  type: "Convolution"
  bottom: "inception_4d/pool"
  top: "inception_4d/pool_proj"
  param {
    lr_mult: 1
    decay_mult: 1
  }
  param {
    lr_mult: 2
    decay_mult: 0
  }
  convolution_param {
    num_output: 64
    kernel_size: 1
    weight_filler {
      type: "xavier"
      std: 0.1
    }
    bias_filler {
      type: "constant"
      value: 0.2
    }
  }
}
layer {
  name: "inception_4d/relu_pool_proj"
  type: "ReLU"
  bottom: "inception_4d/pool_proj"
  top: "inception_4d/pool_proj"
}
layer {
  name: "inception_4d/output"
  type: "Concat"
  bottom: "inception_4d/1x1"
  bottom: "inception_4d/3x3"
  bottom: "inception_4d/5x5"
  bottom: "inception_4d/pool_proj"
  top: "inception_4d/output"
}
layer {
  name: "inception_4e/1x1"
  type: "Convolution"
  bottom: "inception_4d/output"
  top: "inception_4e/1x1"
  param {
    lr_mult: 1
    decay_mult: 1
  }
  param {
    lr_mult: 2
    decay_mult: 0
  }
  convolution_param {
    num_output: 256
    kernel_size: 1
    weight_filler {
      type: "xavier"
      std: 0.03
    }
    bias_filler {
      type: "constant"
      value: 0.2
    }
  }
}
layer {
  name: "inception_4e/relu_1x1"
  type: "ReLU"
  bottom: "inception_4e/1x1"
  top: "inception_4e/1x1"
}
layer {
  name: "inception_4e/3x3_reduce"
  type: "Convolution"
  bottom: "inception_4d/output"
  top: "inception_4e/3x3_reduce"
  param {
    lr_mult: 1
    decay_mult: 1
  }
  param {
    lr_mult: 2
    decay_mult: 0
  }
  convolution_param {
    num_output: 160
    kernel_size: 1
    weight_filler {
      type: "xavier"
      std: 0.09
    }
    bias_filler {
      type: "constant"
      value: 0.2
    }
  }
}
layer {
  name: "inception_4e/relu_3x3_reduce"
  type: "ReLU"
  bottom: "inception_4e/3x3_reduce"
  top: "inception_4e/3x3_reduce"
}
layer {
  name: "inception_4e/3x3"
  type: "Convolution"
  bottom: "inception_4e/3x3_reduce"
  top: "inception_4e/3x3"
  param {
    lr_mult: 1
    decay_mult: 1
  }
  param {
    lr_mult: 2
    decay_mult: 0
  }
  convolution_param {
    num_output: 320
    pad: 1
    kernel_size: 3
    weight_filler {
      type: "xavier"
      std: 0.03
    }
    bias_filler {
      type: "constant"
      value: 0.2
    }
  }
}
layer {
  name: "inception_4e/relu_3x3"
  type: "ReLU"
  bottom: "inception_4e/3x3"
  top: "inception_4e/3x3"
}
layer {
  name: "inception_4e/5x5_reduce"
  type: "Convolution"
  bottom: "inception_4d/output"
  top: "inception_4e/5x5_reduce"
  param {
    lr_mult: 1
    decay_mult: 1
  }
  param {
    lr_mult: 2
    decay_mult: 0
  }
  convolution_param {
    num_output: 32
    kernel_size: 1
    weight_filler {
      type: "xavier"
      std: 0.2
    }
    bias_filler {
      type: "constant"
      value: 0.2
    }
  }
}
layer {
  name: "inception_4e/relu_5x5_reduce"
  type: "ReLU"
  bottom: "inception_4e/5x5_reduce"
  top: "inception_4e/5x5_reduce"
}
layer {
  name: "inception_4e/5x5"
  type: "Convolution"
  bottom: "inception_4e/5x5_reduce"
  top: "inception_4e/5x5"
  param {
    lr_mult: 1
    decay_mult: 1
  }
  param {
    lr_mult: 2
    decay_mult: 0
  }
  convolution_param {
    num_output: 128
    pad: 2
    kernel_size: 5
    weight_filler {
      type: "xavier"
      std: 0.03
    }
    bias_filler {
      type: "constant"
      value: 0.2
    }
  }
}
layer {
  name: "inception_4e/relu_5x5"
  type: "ReLU"
  bottom: "inception_4e/5x5"
  top: "inception_4e/5x5"
}
layer {
  name: "inception_4e/pool"
  type: "Pooling"
  bottom: "inception_4d/output"
  top: "inception_4e/pool"
  pooling_param {
    pool: MAX
    kernel_size: 3
    stride: 1
    pad: 1
  }
}
layer {
  name: "inception_4e/pool_proj"
  type: "Convolution"
  bottom: "inception_4e/pool"
  top: "inception_4e/pool_proj"
  param {
    lr_mult: 1
    decay_mult: 1
  }
  param {
    lr_mult: 2
    decay_mult: 0
  }
  convolution_param {
    num_output: 128
    kernel_size: 1
    weight_filler {
      type: "xavier"
      std: 0.1
    }
    bias_filler {
      type: "constant"
      value: 0.2
    }
  }
}
layer {
  name: "inception_4e/relu_pool_proj"
  type: "ReLU"
  bottom: "inception_4e/pool_proj"
  top: "inception_4e/pool_proj"
}
layer {
  name: "inception_4e/output"
  type: "Concat"
  bottom: "inception_4e/1x1"
  bottom: "inception_4e/3x3"
  bottom: "inception_4e/5x5"
  bottom: "inception_4e/pool_proj"
  top: "inception_4e/output"
}
layer {
  name: "pool4/3x3_s2"
  type: "Pooling"
  bottom: "inception_4e/output"
  top: "pool4/3x3_s2"
  pooling_param {
    pool: MAX
    kernel_size: 3
    stride: 2
  }
}
layer {
  name: "inception_5a/1x1"
  type: "Convolution"
  bottom: "pool4/3x3_s2"
  top: "inception_5a/1x1"
  param {
    lr_mult: 1
    decay_mult: 1
  }
  param {
    lr_mult: 2
    decay_mult: 0
  }
  convolution_param {
    num_output: 256
    kernel_size: 1
    weight_filler {
      type: "xavier"
      std: 0.03
    }
    bias_filler {
      type: "constant"
      value: 0.2
    }
  }
}
layer {
  name: "inception_5a/relu_1x1"
  type: "ReLU"
  bottom: "inception_5a/1x1"
  top: "inception_5a/1x1"
}
layer {
  name: "inception_5a/3x3_reduce"
  type: "Convolution"
  bottom: "pool4/3x3_s2"
  top: "inception_5a/3x3_reduce"
  param {
    lr_mult: 1
    decay_mult: 1
  }
  param {
    lr_mult: 2
    decay_mult: 0
  }
  convolution_param {
    num_output: 160
    kernel_size: 1
    weight_filler {
      type: "xavier"
      std: 0.09
    }
    bias_filler {
      type: "constant"
      value: 0.2
    }
  }
}
layer {
  name: "inception_5a/relu_3x3_reduce"
  type: "ReLU"
  bottom: "inception_5a/3x3_reduce"
  top: "inception_5a/3x3_reduce"
}
layer {
  name: "inception_5a/3x3"
  type: "Convolution"
  bottom: "inception_5a/3x3_reduce"
  top: "inception_5a/3x3"
  param {
    lr_mult: 1
    decay_mult: 1
  }
  param {
    lr_mult: 2
    decay_mult: 0
  }
  convolution_param {
    num_output: 320
    pad: 1
    kernel_size: 3
    weight_filler {
      type: "xavier"
      std: 0.03
    }
    bias_filler {
      type: "constant"
      value: 0.2
    }
  }
}
layer {
  name: "inception_5a/relu_3x3"
  type: "ReLU"
  bottom: "inception_5a/3x3"
  top: "inception_5a/3x3"
}
layer {
  name: "inception_5a/5x5_reduce"
  type: "Convolution"
  bottom: "pool4/3x3_s2"
  top: "inception_5a/5x5_reduce"
  param {
    lr_mult: 1
    decay_mult: 1
  }
  param {
    lr_mult: 2
    decay_mult: 0
  }
  convolution_param {
    num_output: 32
    kernel_size: 1
    weight_filler {
      type: "xavier"
      std: 0.2
    }
    bias_filler {
      type: "constant"
      value: 0.2
    }
I0913 17:39:34.945070 13267 layer_factory.hpp:77] Creating layer data
I0913 17:39:34.945107 13267 net.cpp:91] Creating Layer data
I0913 17:39:34.945127 13267 net.cpp:399] data -> data
I0913 17:39:35.446394 13267 net.cpp:141] Setting up data
I0913 17:39:35.446476 13267 net.cpp:148] Top shape: 10 3 224 224 (1505280)
I0913 17:39:35.446483 13267 net.cpp:156] Memory required for data: 6021120
I0913 17:39:35.446507 13267 layer_factory.hpp:77] Creating layer conv1/7x7_s2
I0913 17:39:35.446553 13267 net.cpp:91] Creating Layer conv1/7x7_s2
I0913 17:39:35.446563 13267 net.cpp:425] conv1/7x7_s2 <- data
I0913 17:39:35.446579 13267 net.cpp:399] conv1/7x7_s2 -> conv1/7x7_s2
I0913 17:39:35.627320 13267 net.cpp:141] Setting up conv1/7x7_s2
I0913 17:39:35.627380 13267 net.cpp:148] Top shape: 10 64 112 112 (8028160)
I0913 17:39:35.627391 13267 net.cpp:156] Memory required for data: 38133760
I0913 17:39:35.627431 13267 layer_factory.hpp:77] Creating layer conv1/relu_7x7
I0913 17:39:35.627461 13267 net.cpp:91] Creating Layer conv1/relu_7x7
I0913 17:39:35.627473 13267 net.cpp:425] conv1/relu_7x7 <- conv1/7x7_s2
I0913 17:39:35.627486 13267 net.cpp:386] conv1/relu_7x7 -> conv1/7x7_s2 (in-place)
I0913 17:39:35.628002 13267 net.cpp:141] Setting up conv1/relu_7x7
I0913 17:39:35.628022 13267 net.cpp:148] Top shape: 10 64 112 112 (8028160)
I0913 17:39:35.628031 13267 net.cpp:156] Memory required for data: 70246400
I0913 17:39:35.628041 13267 layer_factory.hpp:77] Creating layer pool1/3x3_s2
I0913 17:39:35.628077 13267 net.cpp:91] Creating Layer pool1/3x3_s2
I0913 17:39:35.628088 13267 net.cpp:425] pool1/3x3_s2 <- conv1/7x7_s2
I0913 17:39:35.628101 13267 net.cpp:399] pool1/3x3_s2 -> pool1/3x3_s2
I0913 17:39:35.628203 13267 net.cpp:141] Setting up pool1/3x3_s2
I0913 17:39:35.628222 13267 net.cpp:148] Top shape: 10 64 56 56 (2007040)
I0913 17:39:35.628231 13267 net.cpp:156] Memory required for data: 78274560
I0913 17:39:35.628239 13267 layer_factory.hpp:77] Creating layer pool1/norm1
I0913 17:39:35.628265 13267 net.cpp:91] Creating Layer pool1/norm1
I0913 17:39:35.628275 13267 net.cpp:425] pool1/norm1 <- pool1/3x3_s2
I0913 17:39:35.628288 13267 net.cpp:399] pool1/norm1 -> pool1/norm1
I0913 17:39:35.628715 13267 net.cpp:141] Setting up pool1/norm1
I0913 17:39:35.628733 13267 net.cpp:148] Top shape: 10 64 56 56 (2007040)
I0913 17:39:35.628741 13267 net.cpp:156] Memory required for data: 86302720
I0913 17:39:35.628751 13267 layer_factory.hpp:77] Creating layer conv2/3x3_reduce
I0913 17:39:35.628777 13267 net.cpp:91] Creating Layer conv2/3x3_reduce
I0913 17:39:35.628787 13267 net.cpp:425] conv2/3x3_reduce <- pool1/norm1
I0913 17:39:35.628801 13267 net.cpp:399] conv2/3x3_reduce -> conv2/3x3_reduce
I0913 17:39:35.631484 13267 net.cpp:141] Setting up conv2/3x3_reduce
I0913 17:39:35.631511 13267 net.cpp:148] Top shape: 10 64 56 56 (2007040)
I0913 17:39:35.631523 13267 net.cpp:156] Memory required for data: 94330880
I0913 17:39:35.631544 13267 layer_factory.hpp:77] Creating layer conv2/relu_3x3_reduce
I0913 17:39:35.631559 13267 net.cpp:91] Creating Layer conv2/relu_3x3_reduce
I0913 17:39:35.631570 13267 net.cpp:425] conv2/relu_3x3_reduce <- conv2/3x3_reduce
I0913 17:39:35.631588 13267 net.cpp:386] conv2/relu_3x3_reduce -> conv2/3x3_reduce (in-place)
I0913 17:39:35.632221 13267 net.cpp:141] Setting up conv2/relu_3x3_reduce
I0913 17:39:35.632241 13267 net.cpp:148] Top shape: 10 64 56 56 (2007040)
I0913 17:39:35.632251 13267 net.cpp:156] Memory required for data: 102359040
I0913 17:39:35.632261 13267 layer_factory.hpp:77] Creating layer conv2/3x3
I0913 17:39:35.632287 13267 net.cpp:91] Creating Layer conv2/3x3
I0913 17:39:35.632299 13267 net.cpp:425] conv2/3x3 <- conv2/3x3_reduce
I0913 17:39:35.632323 13267 net.cpp:399] conv2/3x3 -> conv2/3x3
I0913 17:39:35.635628 13267 net.cpp:141] Setting up conv2/3x3
I0913 17:39:35.635653 13267 net.cpp:148] Top shape: 10 192 56 56 (6021120)
I0913 17:39:35.635663 13267 net.cpp:156] Memory required for data: 126443520
I0913 17:39:35.635684 13267 layer_factory.hpp:77] Creating layer conv2/relu_3x3
I0913 17:39:35.635701 13267 net.cpp:91] Creating Layer conv2/relu_3x3
I0913 17:39:35.635712 13267 net.cpp:425] conv2/relu_3x3 <- conv2/3x3
I0913 17:39:35.635726 13267 net.cpp:386] conv2/relu_3x3 -> conv2/3x3 (in-place)
I0913 17:39:35.636142 13267 net.cpp:141] Setting up conv2/relu_3x3
I0913 17:39:35.636162 13267 net.cpp:148] Top shape: 10 192 56 56 (6021120)
I0913 17:39:35.636173 13267 net.cpp:156] Memory required for data: 150528000
I0913 17:39:35.636183 13267 layer_factory.hpp:77] Creating layer conv2/norm2
I0913 17:39:35.636203 13267 net.cpp:91] Creating Layer conv2/norm2
I0913 17:39:35.636214 13267 net.cpp:425] conv2/norm2 <- conv2/3x3
I0913 17:39:35.636226 13267 net.cpp:399] conv2/norm2 -> conv2/norm2
I0913 17:39:35.636920 13267 net.cpp:141] Setting up conv2/norm2
I0913 17:39:35.636940 13267 net.cpp:148] Top shape: 10 192 56 56 (6021120)
I0913 17:39:35.636950 13267 net.cpp:156] Memory required for data: 174612480
I0913 17:39:35.636960 13267 layer_factory.hpp:77] Creating layer pool2/3x3_s2
I0913 17:39:35.636975 13267 net.cpp:91] Creating Layer pool2/3x3_s2
I0913 17:39:35.636984 13267 net.cpp:425] pool2/3x3_s2 <- conv2/norm2
I0913 17:39:35.637001 13267 net.cpp:399] pool2/3x3_s2 -> pool2/3x3_s2
I0913 17:39:35.637085 13267 net.cpp:141] Setting up pool2/3x3_s2
I0913 17:39:35.637104 13267 net.cpp:148] Top shape: 10 192 28 28 (1505280)
I0913 17:39:35.637112 13267 net.cpp:156] Memory required for data: 180633600
I0913 17:39:35.637122 13267 layer_factory.hpp:77] Creating layer pool2/3x3_s2_pool2/3x3_s2_0_split
I0913 17:39:35.637156 13267 net.cpp:91] Creating Layer pool2/3x3_s2_pool2/3x3_s2_0_split
I0913 17:39:35.637169 13267 net.cpp:425] pool2/3x3_s2_pool2/3x3_s2_0_split <- pool2/3x3_s2
I0913 17:39:35.637183 13267 net.cpp:399] pool2/3x3_s2_pool2/3x3_s2_0_split -> pool2/3x3_s2_pool2/3x3_s2_0_split_0
I0913 17:39:35.637202 13267 net.cpp:399] pool2/3x3_s2_pool2/3x3_s2_0_split -> pool2/3x3_s2_pool2/3x3_s2_0_split_1
I0913 17:39:35.637224 13267 net.cpp:399] pool2/3x3_s2_pool2/3x3_s2_0_split -> pool2/3x3_s2_pool2/3x3_s2_0_split_2
I0913 17:39:35.637240 13267 net.cpp:399] pool2/3x3_s2_pool2/3x3_s2_0_split -> pool2/3x3_s2_pool2/3x3_s2_0_split_3
I0913 17:39:35.637382 13267 net.cpp:141] Setting up pool2/3x3_s2_pool2/3x3_s2_0_split
I0913 17:39:35.637401 13267 net.cpp:148] Top shape: 10 192 28 28 (1505280)
I0913 17:39:35.637413 13267 net.cpp:148] Top shape: 10 192 28 28 (1505280)
I0913 17:39:35.637425 13267 net.cpp:148] Top shape: 10 192 28 28 (1505280)
I0913 17:39:35.637437 13267 net.cpp:148] Top shape: 10 192 28 28 (1505280)
I0913 17:39:35.637446 13267 net.cpp:156] Memory required for data: 204718080
I0913 17:39:35.637456 13267 layer_factory.hpp:77] Creating layer inception_3a/1x1
I0913 17:39:35.637481 13267 net.cpp:91] Creating Layer inception_3a/1x1
I0913 17:39:35.637493 13267 net.cpp:425] inception_3a/1x1 <- pool2/3x3_s2_pool2/3x3_s2_0_split_0
I0913 17:39:35.637536 13267 net.cpp:399] inception_3a/1x1 -> inception_3a/1x1
I0913 17:39:35.640275 13267 net.cpp:141] Setting up inception_3a/1x1
I0913 17:39:35.640297 13267 net.cpp:148] Top shape: 10 64 28 28 (501760)
I0913 17:39:35.640307 13267 net.cpp:156] Memory required for data: 206725120
I0913 17:39:35.640324 13267 layer_factory.hpp:77] Creating layer inception_3a/relu_1x1
I0913 17:39:35.640344 13267 net.cpp:91] Creating Layer inception_3a/relu_1x1
I0913 17:39:35.640354 13267 net.cpp:425] inception_3a/relu_1x1 <- inception_3a/1x1
I0913 17:39:35.640368 13267 net.cpp:386] inception_3a/relu_1x1 -> inception_3a/1x1 (in-place)
I0913 17:39:35.640975 13267 net.cpp:141] Setting up inception_3a/relu_1x1
I0913 17:39:35.640995 13267 net.cpp:148] Top shape: 10 64 28 28 (501760)
I0913 17:39:35.641005 13267 net.cpp:156] Memory required for data: 208732160
I0913 17:39:35.641016 13267 layer_factory.hpp:77] Creating layer inception_3a/3x3_reduce
I0913 17:39:35.641042 13267 net.cpp:91] Creating Layer inception_3a/3x3_reduce
I0913 17:39:35.641055 13267 net.cpp:425] inception_3a/3x3_reduce <- pool2/3x3_s2_pool2/3x3_s2_0_split_1
I0913 17:39:35.641078 13267 net.cpp:399] inception_3a/3x3_reduce -> inception_3a/3x3_reduce
I0913 17:39:35.643733 13267 net.cpp:141] Setting up inception_3a/3x3_reduce
I0913 17:39:35.643754 13267 net.cpp:148] Top shape: 10 96 28 28 (752640)
I0913 17:39:35.643764 13267 net.cpp:156] Memory required for data: 211742720
I0913 17:39:35.643785 13267 layer_factory.hpp:77] Creating layer inception_3a/relu_3x3_reduce
I0913 17:39:35.643800 13267 net.cpp:91] Creating Layer inception_3a/relu_3x3_reduce
I0913 17:39:35.643811 13267 net.cpp:425] inception_3a/relu_3x3_reduce <- inception_3a/3x3_reduce
I0913 17:39:35.643831 13267 net.cpp:386] inception_3a/relu_3x3_reduce -> inception_3a/3x3_reduce (in-place)
I0913 17:39:35.644248 13267 net.cpp:141] Setting up inception_3a/relu_3x3_reduce
I0913 17:39:35.644271 13267 net.cpp:148] Top shape: 10 96 28 28 (752640)
I0913 17:39:35.644282 13267 net.cpp:156] Memory required for data: 214753280
I0913 17:39:35.644294 13267 layer_factory.hpp:77] Creating layer inception_3a/3x3
I0913 17:39:35.644322 13267 net.cpp:91] Creating Layer inception_3a/3x3
I0913 17:39:35.644335 13267 net.cpp:425] inception_3a/3x3 <- inception_3a/3x3_reduce
I0913 17:39:35.644356 13267 net.cpp:399] inception_3a/3x3 -> inception_3a/3x3
I0913 17:39:35.647128 13267 net.cpp:141] Setting up inception_3a/3x3
I0913 17:39:35.647167 13267 net.cpp:148] Top shape: 10 128 28 28 (1003520)
I0913 17:39:35.647173 13267 net.cpp:156] Memory required for data: 218767360
I0913 17:39:35.647186 13267 layer_factory.hpp:77] Creating layer inception_3a/relu_3x3
I0913 17:39:35.647204 13267 net.cpp:91] Creating Layer inception_3a/relu_3x3
I0913 17:39:35.647212 13267 net.cpp:425] inception_3a/relu_3x3 <- inception_3a/3x3
I0913 17:39:35.647222 13267 net.cpp:386] inception_3a/relu_3x3 -> inception_3a/3x3 (in-place)
I0913 17:39:35.647614 13267 net.cpp:141] Setting up inception_3a/relu_3x3
I0913 17:39:35.647627 13267 net.cpp:148] Top shape: 10 128 28 28 (1003520)
I0913 17:39:35.647632 13267 net.cpp:156] Memory required for data: 222781440
I0913 17:39:35.647637 13267 layer_factory.hpp:77] Creating layer inception_3a/5x5_reduce
I0913 17:39:35.647658 13267 net.cpp:91] Creating Layer inception_3a/5x5_reduce
I0913 17:39:35.647665 13267 net.cpp:425] inception_3a/5x5_reduce <- pool2/3x3_s2_pool2/3x3_s2_0_split_2
I0913 17:39:35.647675 13267 net.cpp:399] inception_3a/5x5_reduce -> inception_3a/5x5_reduce
I0913 17:39:35.648913 13267 net.cpp:141] Setting up inception_3a/5x5_reduce
I0913 17:39:35.648931 13267 net.cpp:148] Top shape: 10 16 28 28 (125440)
I0913 17:39:35.648937 13267 net.cpp:156] Memory required for data: 223283200
I0913 17:39:35.648947 13267 layer_factory.hpp:77] Creating layer inception_3a/relu_5x5_reduce
I0913 17:39:35.648958 13267 net.cpp:91] Creating Layer inception_3a/relu_5x5_reduce
I0913 17:39:35.648964 13267 net.cpp:425] inception_3a/relu_5x5_reduce <- inception_3a/5x5_reduce
I0913 17:39:35.648972 13267 net.cpp:386] inception_3a/relu_5x5_reduce -> inception_3a/5x5_reduce (in-place)
I0913 17:39:35.649353 13267 net.cpp:141] Setting up inception_3a/relu_5x5_reduce
I0913 17:39:35.649368 13267 net.cpp:148] Top shape: 10 16 28 28 (125440)
I0913 17:39:35.649372 13267 net.cpp:156] Memory required for data: 223784960
I0913 17:39:35.649377 13267 layer_factory.hpp:77] Creating layer inception_3a/5x5
I0913 17:39:35.649394 13267 net.cpp:91] Creating Layer inception_3a/5x5
I0913 17:39:35.649399 13267 net.cpp:425] inception_3a/5x5 <- inception_3a/5x5_reduce
I0913 17:39:35.649408 13267 net.cpp:399] inception_3a/5x5 -> inception_3a/5x5
I0913 17:39:35.651520 13267 net.cpp:141] Setting up inception_3a/5x5
I0913 17:39:35.651540 13267 net.cpp:148] Top shape: 10 32 28 28 (250880)
I0913 17:39:35.651546 13267 net.cpp:156] Memory required for data: 224788480
I0913 17:39:35.651554 13267 layer_factory.hpp:77] Creating layer inception_3a/relu_5x5
I0913 17:39:35.651566 13267 net.cpp:91] Creating Layer inception_3a/relu_5x5
I0913 17:39:35.651572 13267 net.cpp:425] inception_3a/relu_5x5 <- inception_3a/5x5
I0913 17:39:35.651579 13267 net.cpp:386] inception_3a/relu_5x5 -> inception_3a/5x5 (in-place)
I0913 17:39:35.651808 13267 net.cpp:141] Setting up inception_3a/relu_5x5
I0913 17:39:35.651820 13267 net.cpp:148] Top shape: 10 32 28 28 (250880)
I0913 17:39:35.651824 13267 net.cpp:156] Memory required for data: 225792000
I0913 17:39:35.651830 13267 layer_factory.hpp:77] Creating layer inception_3a/pool
I0913 17:39:35.651842 13267 net.cpp:91] Creating Layer inception_3a/pool
I0913 17:39:35.651849 13267 net.cpp:425] inception_3a/pool <- pool2/3x3_s2_pool2/3x3_s2_0_split_3
I0913 17:39:35.651859 13267 net.cpp:399] inception_3a/pool -> inception_3a/pool
I0913 17:39:35.651916 13267 net.cpp:141] Setting up inception_3a/pool
I0913 17:39:35.651924 13267 net.cpp:148] Top shape: 10 192 28 28 (1505280)
I0913 17:39:35.651929 13267 net.cpp:156] Memory required for data: 231813120
I0913 17:39:35.651933 13267 layer_factory.hpp:77] Creating layer inception_3a/pool_proj
I0913 17:39:35.651947 13267 net.cpp:91] Creating Layer inception_3a/pool_proj
I0913 17:39:35.651952 13267 net.cpp:425] inception_3a/pool_proj <- inception_3a/pool
I0913 17:39:35.651964 13267 net.cpp:399] inception_3a/pool_proj -> inception_3a/pool_proj
I0913 17:39:35.653753 13267 net.cpp:141] Setting up inception_3a/pool_proj
I0913 17:39:35.653784 13267 net.cpp:148] Top shape: 10 32 28 28 (250880)
I0913 17:39:35.653789 13267 net.cpp:156] Memory required for data: 232816640
I0913 17:39:35.653802 13267 layer_factory.hpp:77] Creating layer inception_3a/relu_pool_proj
I0913 17:39:35.653811 13267 net.cpp:91] Creating Layer inception_3a/relu_pool_proj
I0913 17:39:35.653816 13267 net.cpp:425] inception_3a/relu_pool_proj <- inception_3a/pool_proj
I0913 17:39:35.653827 13267 net.cpp:386] inception_3a/relu_pool_proj -> inception_3a/pool_proj (in-place)
I0913 17:39:35.654213 13267 net.cpp:141] Setting up inception_3a/relu_pool_proj
I0913 17:39:35.654227 13267 net.cpp:148] Top shape: 10 32 28 28 (250880)
I0913 17:39:35.654230 13267 net.cpp:156] Memory required for data: 233820160
I0913 17:39:35.654235 13267 layer_factory.hpp:77] Creating layer inception_3a/output
I0913 17:39:35.654259 13267 net.cpp:91] Creating Layer inception_3a/output
I0913 17:39:35.654265 13267 net.cpp:425] inception_3a/output <- inception_3a/1x1
I0913 17:39:35.654271 13267 net.cpp:425] inception_3a/output <- inception_3a/3x3
I0913 17:39:35.654276 13267 net.cpp:425] inception_3a/output <- inception_3a/5x5
I0913 17:39:35.654281 13267 net.cpp:425] inception_3a/output <- inception_3a/pool_proj
I0913 17:39:35.654289 13267 net.cpp:399] inception_3a/output -> inception_3a/output
I0913 17:39:35.654328 13267 net.cpp:141] Setting up inception_3a/output
I0913 17:39:35.654337 13267 net.cpp:148] Top shape: 10 256 28 28 (2007040)
I0913 17:39:35.654342 13267 net.cpp:156] Memory required for data: 241848320
I0913 17:39:35.654347 13267 layer_factory.hpp:77] Creating layer inception_3a/output_inception_3a/output_0_split
I0913 17:39:35.654356 13267 net.cpp:91] Creating Layer inception_3a/output_inception_3a/output_0_split
I0913 17:39:35.654359 13267 net.cpp:425] inception_3a/output_inception_3a/output_0_split <- inception_3a/output
I0913 17:39:35.654371 13267 net.cpp:399] inception_3a/output_inception_3a/output_0_split -> inception_3a/output_inception_3a/output_0_split_0
I0913 17:39:35.654379 13267 net.cpp:399] inception_3a/output_inception_3a/output_0_split -> inception_3a/output_inception_3a/output_0_split_1
I0913 17:39:35.654387 13267 net.cpp:399] inception_3a/output_inception_3a/output_0_split -> inception_3a/output_inception_3a/output_0_split_2
I0913 17:39:35.654395 13267 net.cpp:399] inception_3a/output_inception_3a/output_0_split -> inception_3a/output_inception_3a/output_0_split_3
I0913 17:39:35.654474 13267 net.cpp:141] Setting up inception_3a/output_inception_3a/output_0_split
I0913 17:39:35.654482 13267 net.cpp:148] Top shape: 10 256 28 28 (2007040)
I0913 17:39:35.654489 13267 net.cpp:148] Top shape: 10 256 28 28 (2007040)
I0913 17:39:35.654495 13267 net.cpp:148] Top shape: 10 256 28 28 (2007040)
I0913 17:39:35.654500 13267 net.cpp:148] Top shape: 10 256 28 28 (2007040)
I0913 17:39:35.654503 13267 net.cpp:156] Memory required for data: 273960960
I0913 17:39:35.654508 13267 layer_factory.hpp:77] Creating layer inception_3b/1x1
I0913 17:39:35.654525 13267 net.cpp:91] Creating Layer inception_3b/1x1
I0913 17:39:35.654530 13267 net.cpp:425] inception_3b/1x1 <- inception_3a/output_inception_3a/output_0_split_0
I0913 17:39:35.654537 13267 net.cpp:399] inception_3b/1x1 -> inception_3b/1x1
I0913 17:39:35.655937 13267 net.cpp:141] Setting up inception_3b/1x1
I0913 17:39:35.655951 13267 net.cpp:148] Top shape: 10 128 28 28 (1003520)
I0913 17:39:35.655956 13267 net.cpp:156] Memory required for data: 277975040
I0913 17:39:35.655966 13267 layer_factory.hpp:77] Creating layer inception_3b/relu_1x1
I0913 17:39:35.655977 13267 net.cpp:91] Creating Layer inception_3b/relu_1x1
I0913 17:39:35.655983 13267 net.cpp:425] inception_3b/relu_1x1 <- inception_3b/1x1
I0913 17:39:35.655992 13267 net.cpp:386] inception_3b/relu_1x1 -> inception_3b/1x1 (in-place)
I0913 17:39:35.656394 13267 net.cpp:141] Setting up inception_3b/relu_1x1
I0913 17:39:35.656407 13267 net.cpp:148] Top shape: 10 128 28 28 (1003520)
I0913 17:39:35.656412 13267 net.cpp:156] Memory required for data: 281989120
I0913 17:39:35.656417 13267 layer_factory.hpp:77] Creating layer inception_3b/3x3_reduce
I0913 17:39:35.656431 13267 net.cpp:91] Creating Layer inception_3b/3x3_reduce
I0913 17:39:35.656437 13267 net.cpp:425] inception_3b/3x3_reduce <- inception_3a/output_inception_3a/output_0_split_1
I0913 17:39:35.656446 13267 net.cpp:399] inception_3b/3x3_reduce -> inception_3b/3x3_reduce
I0913 17:39:35.658031 13267 net.cpp:141] Setting up inception_3b/3x3_reduce
I0913 17:39:35.658048 13267 net.cpp:148] Top shape: 10 128 28 28 (1003520)
I0913 17:39:35.658053 13267 net.cpp:156] Memory required for data: 286003200
I0913 17:39:35.658062 13267 layer_factory.hpp:77] Creating layer inception_3b/relu_3x3_reduce
I0913 17:39:35.658074 13267 net.cpp:91] Creating Layer inception_3b/relu_3x3_reduce
I0913 17:39:35.658080 13267 net.cpp:425] inception_3b/relu_3x3_reduce <- inception_3b/3x3_reduce
I0913 17:39:35.658087 13267 net.cpp:386] inception_3b/relu_3x3_reduce -> inception_3b/3x3_reduce (in-place)
I0913 17:39:35.658308 13267 net.cpp:141] Setting up inception_3b/relu_3x3_reduce
I0913 17:39:35.658320 13267 net.cpp:148] Top shape: 10 128 28 28 (1003520)
I0913 17:39:35.658325 13267 net.cpp:156] Memory required for data: 290017280
I0913 17:39:35.658330 13267 layer_factory.hpp:77] Creating layer inception_3b/3x3
I0913 17:39:35.658347 13267 net.cpp:91] Creating Layer inception_3b/3x3
I0913 17:39:35.658354 13267 net.cpp:425] inception_3b/3x3 <- inception_3b/3x3_reduce
I0913 17:39:35.658361 13267 net.cpp:399] inception_3b/3x3 -> inception_3b/3x3
I0913 17:39:35.662044 13267 net.cpp:141] Setting up inception_3b/3x3
I0913 17:39:35.662081 13267 net.cpp:148] Top shape: 10 192 28 28 (1505280)
I0913 17:39:35.662086 13267 net.cpp:156] Memory required for data: 296038400
I0913 17:39:35.662096 13267 layer_factory.hpp:77] Creating layer inception_3b/relu_3x3
I0913 17:39:35.662114 13267 net.cpp:91] Creating Layer inception_3b/relu_3x3
I0913 17:39:35.662122 13267 net.cpp:425] inception_3b/relu_3x3 <- inception_3b/3x3
I0913 17:39:35.662129 13267 net.cpp:386] inception_3b/relu_3x3 -> inception_3b/3x3 (in-place)
I0913 17:39:35.662515 13267 net.cpp:141] Setting up inception_3b/relu_3x3
I0913 17:39:35.662528 13267 net.cpp:148] Top shape: 10 192 28 28 (1505280)
I0913 17:39:35.662533 13267 net.cpp:156] Memory required for data: 302059520
I0913 17:39:35.662539 13267 layer_factory.hpp:77] Creating layer inception_3b/5x5_reduce
I0913 17:39:35.662555 13267 net.cpp:91] Creating Layer inception_3b/5x5_reduce
I0913 17:39:35.662561 13267 net.cpp:425] inception_3b/5x5_reduce <- inception_3a/output_inception_3a/output_0_split_2
I0913 17:39:35.662570 13267 net.cpp:399] inception_3b/5x5_reduce -> inception_3b/5x5_reduce
I0913 17:39:35.663799 13267 net.cpp:141] Setting up inception_3b/5x5_reduce
I0913 17:39:35.663830 13267 net.cpp:148] Top shape: 10 32 28 28 (250880)
I0913 17:39:35.663836 13267 net.cpp:156] Memory required for data: 303063040
I0913 17:39:35.663844 13267 layer_factory.hpp:77] Creating layer inception_3b/relu_5x5_reduce
I0913 17:39:35.663852 13267 net.cpp:91] Creating Layer inception_3b/relu_5x5_reduce
I0913 17:39:35.663858 13267 net.cpp:425] inception_3b/relu_5x5_reduce <- inception_3b/5x5_reduce
I0913 17:39:35.663871 13267 net.cpp:386] inception_3b/relu_5x5_reduce -> inception_3b/5x5_reduce (in-place)
I0913 17:39:35.664259 13267 net.cpp:141] Setting up inception_3b/relu_5x5_reduce
I0913 17:39:35.664273 13267 net.cpp:148] Top shape: 10 32 28 28 (250880)
I0913 17:39:35.664278 13267 net.cpp:156] Memory required for data: 304066560
I0913 17:39:35.664283 13267 layer_factory.hpp:77] Creating layer inception_3b/5x5
I0913 17:39:35.664296 13267 net.cpp:91] Creating Layer inception_3b/5x5
I0913 17:39:35.664302 13267 net.cpp:425] inception_3b/5x5 <- inception_3b/5x5_reduce
I0913 17:39:35.664314 13267 net.cpp:399] inception_3b/5x5 -> inception_3b/5x5
I0913 17:39:35.666918 13267 net.cpp:141] Setting up inception_3b/5x5
I0913 17:39:35.666934 13267 net.cpp:148] Top shape: 10 96 28 28 (752640)
I0913 17:39:35.666940 13267 net.cpp:156] Memory required for data: 307077120
I0913 17:39:35.666949 13267 layer_factory.hpp:77] Creating layer inception_3b/relu_5x5
I0913 17:39:35.666960 13267 net.cpp:91] Creating Layer inception_3b/relu_5x5
I0913 17:39:35.666966 13267 net.cpp:425] inception_3b/relu_5x5 <- inception_3b/5x5
I0913 17:39:35.666975 13267 net.cpp:386] inception_3b/relu_5x5 -> inception_3b/5x5 (in-place)
I0913 17:39:35.667196 13267 net.cpp:141] Setting up inception_3b/relu_5x5
I0913 17:39:35.667207 13267 net.cpp:148] Top shape: 10 96 28 28 (752640)
I0913 17:39:35.667212 13267 net.cpp:156] Memory required for data: 310087680
I0913 17:39:35.667217 13267 layer_factory.hpp:77] Creating layer inception_3b/pool
I0913 17:39:35.667227 13267 net.cpp:91] Creating Layer inception_3b/pool
I0913 17:39:35.667232 13267 net.cpp:425] inception_3b/pool <- inception_3a/output_inception_3a/output_0_split_3
I0913 17:39:35.667245 13267 net.cpp:399] inception_3b/pool -> inception_3b/pool
I0913 17:39:35.667306 13267 net.cpp:141] Setting up inception_3b/pool
I0913 17:39:35.667315 13267 net.cpp:148] Top shape: 10 256 28 28 (2007040)
I0913 17:39:35.667320 13267 net.cpp:156] Memory required for data: 318115840
I0913 17:39:35.667325 13267 layer_factory.hpp:77] Creating layer inception_3b/pool_proj
I0913 17:39:35.667338 13267 net.cpp:91] Creating Layer inception_3b/pool_proj
I0913 17:39:35.667343 13267 net.cpp:425] inception_3b/pool_proj <- inception_3b/pool
I0913 17:39:35.667351 13267 net.cpp:399] inception_3b/pool_proj -> inception_3b/pool_proj
I0913 17:39:35.668817 13267 net.cpp:141] Setting up inception_3b/pool_proj
I0913 17:39:35.668848 13267 net.cpp:148] Top shape: 10 64 28 28 (501760)
I0913 17:39:35.668853 13267 net.cpp:156] Memory required for data: 320122880
I0913 17:39:35.668861 13267 layer_factory.hpp:77] Creating layer inception_3b/relu_pool_proj
I0913 17:39:35.668874 13267 net.cpp:91] Creating Layer inception_3b/relu_pool_proj
I0913 17:39:35.668879 13267 net.cpp:425] inception_3b/relu_pool_proj <- inception_3b/pool_proj
I0913 17:39:35.668886 13267 net.cpp:386] inception_3b/relu_pool_proj -> inception_3b/pool_proj (in-place)
I0913 17:39:35.669361 13267 net.cpp:141] Setting up inception_3b/relu_pool_proj
I0913 17:39:35.669384 13267 net.cpp:148] Top shape: 10 64 28 28 (501760)
I0913 17:39:35.669394 13267 net.cpp:156] Memory required for data: 322129920
I0913 17:39:35.669402 13267 layer_factory.hpp:77] Creating layer inception_3b/output
I0913 17:39:35.669420 13267 net.cpp:91] Creating Layer inception_3b/output
I0913 17:39:35.669430 13267 net.cpp:425] inception_3b/output <- inception_3b/1x1
I0913 17:39:35.669440 13267 net.cpp:425] inception_3b/output <- inception_3b/3x3
I0913 17:39:35.669450 13267 net.cpp:425] inception_3b/output <- inception_3b/5x5
I0913 17:39:35.669461 13267 net.cpp:425] inception_3b/output <- inception_3b/pool_proj
I0913 17:39:35.669472 13267 net.cpp:399] inception_3b/output -> inception_3b/output
I0913 17:39:35.669522 13267 net.cpp:141] Setting up inception_3b/output
I0913 17:39:35.669531 13267 net.cpp:148] Top shape: 10 480 28 28 (3763200)
I0913 17:39:35.669535 13267 net.cpp:156] Memory required for data: 337182720
I0913 17:39:35.669540 13267 layer_factory.hpp:77] Creating layer pool3/3x3_s2
I0913 17:39:35.669548 13267 net.cpp:91] Creating Layer pool3/3x3_s2
I0913 17:39:35.669553 13267 net.cpp:425] pool3/3x3_s2 <- inception_3b/output
I0913 17:39:35.669562 13267 net.cpp:399] pool3/3x3_s2 -> pool3/3x3_s2
I0913 17:39:35.669621 13267 net.cpp:141] Setting up pool3/3x3_s2
I0913 17:39:35.669632 13267 net.cpp:148] Top shape: 10 480 14 14 (940800)
I0913 17:39:35.669636 13267 net.cpp:156] Memory required for data: 340945920
I0913 17:39:35.669641 13267 layer_factory.hpp:77] Creating layer pool3/3x3_s2_pool3/3x3_s2_0_split
I0913 17:39:35.669649 13267 net.cpp:91] Creating Layer pool3/3x3_s2_pool3/3x3_s2_0_split
I0913 17:39:35.669654 13267 net.cpp:425] pool3/3x3_s2_pool3/3x3_s2_0_split <- pool3/3x3_s2
I0913 17:39:35.669663 13267 net.cpp:399] pool3/3x3_s2_pool3/3x3_s2_0_split -> pool3/3x3_s2_pool3/3x3_s2_0_split_0
I0913 17:39:35.669672 13267 net.cpp:399] pool3/3x3_s2_pool3/3x3_s2_0_split -> pool3/3x3_s2_pool3/3x3_s2_0_split_1
I0913 17:39:35.669680 13267 net.cpp:399] pool3/3x3_s2_pool3/3x3_s2_0_split -> pool3/3x3_s2_pool3/3x3_s2_0_split_2
I0913 17:39:35.669688 13267 net.cpp:399] pool3/3x3_s2_pool3/3x3_s2_0_split -> pool3/3x3_s2_pool3/3x3_s2_0_split_3
I0913 17:39:35.669766 13267 net.cpp:141] Setting up pool3/3x3_s2_pool3/3x3_s2_0_split
I0913 17:39:35.669775 13267 net.cpp:148] Top shape: 10 480 14 14 (940800)
I0913 17:39:35.669781 13267 net.cpp:148] Top shape: 10 480 14 14 (940800)
I0913 17:39:35.669787 13267 net.cpp:148] Top shape: 10 480 14 14 (940800)
I0913 17:39:35.669792 13267 net.cpp:148] Top shape: 10 480 14 14 (940800)
I0913 17:39:35.669796 13267 net.cpp:156] Memory required for data: 355998720
I0913 17:39:35.669801 13267 layer_factory.hpp:77] Creating layer inception_4a/1x1
I0913 17:39:35.669817 13267 net.cpp:91] Creating Layer inception_4a/1x1
I0913 17:39:35.669823 13267 net.cpp:425] inception_4a/1x1 <- pool3/3x3_s2_pool3/3x3_s2_0_split_0
I0913 17:39:35.669831 13267 net.cpp:399] inception_4a/1x1 -> inception_4a/1x1
I0913 17:39:35.671944 13267 net.cpp:141] Setting up inception_4a/1x1
I0913 17:39:35.671964 13267 net.cpp:148] Top shape: 10 192 14 14 (376320)
I0913 17:39:35.671969 13267 net.cpp:156] Memory required for data: 357504000
I0913 17:39:35.671978 13267 layer_factory.hpp:77] Creating layer inception_4a/relu_1x1
I0913 17:39:35.671988 13267 net.cpp:91] Creating Layer inception_4a/relu_1x1
I0913 17:39:35.671993 13267 net.cpp:425] inception_4a/relu_1x1 <- inception_4a/1x1
I0913 17:39:35.671999 13267 net.cpp:386] inception_4a/relu_1x1 -> inception_4a/1x1 (in-place)
I0913 17:39:35.672392 13267 net.cpp:141] Setting up inception_4a/relu_1x1
I0913 17:39:35.672407 13267 net.cpp:148] Top shape: 10 192 14 14 (376320)
I0913 17:39:35.672412 13267 net.cpp:156] Memory required for data: 359009280
I0913 17:39:35.672417 13267 layer_factory.hpp:77] Creating layer inception_4a/3x3_reduce
I0913 17:39:35.672433 13267 net.cpp:91] Creating Layer inception_4a/3x3_reduce
I0913 17:39:35.672441 13267 net.cpp:425] inception_4a/3x3_reduce <- pool3/3x3_s2_pool3/3x3_s2_0_split_1
I0913 17:39:35.672449 13267 net.cpp:399] inception_4a/3x3_reduce -> inception_4a/3x3_reduce
I0913 17:39:35.674165 13267 net.cpp:141] Setting up inception_4a/3x3_reduce
I0913 17:39:35.674180 13267 net.cpp:148] Top shape: 10 96 14 14 (188160)
I0913 17:39:35.674185 13267 net.cpp:156] Memory required for data: 359761920
I0913 17:39:35.674206 13267 layer_factory.hpp:77] Creating layer inception_4a/relu_3x3_reduce
I0913 17:39:35.674214 13267 net.cpp:91] Creating Layer inception_4a/relu_3x3_reduce
I0913 17:39:35.674221 13267 net.cpp:425] inception_4a/relu_3x3_reduce <- inception_4a/3x3_reduce
I0913 17:39:35.674229 13267 net.cpp:386] inception_4a/relu_3x3_reduce -> inception_4a/3x3_reduce (in-place)
I0913 17:39:35.674450 13267 net.cpp:141] Setting up inception_4a/relu_3x3_reduce
I0913 17:39:35.674463 13267 net.cpp:148] Top shape: 10 96 14 14 (188160)
I0913 17:39:35.674466 13267 net.cpp:156] Memory required for data: 360514560
I0913 17:39:35.674473 13267 layer_factory.hpp:77] Creating layer inception_4a/3x3
I0913 17:39:35.674489 13267 net.cpp:91] Creating Layer inception_4a/3x3
I0913 17:39:35.674495 13267 net.cpp:425] inception_4a/3x3 <- inception_4a/3x3_reduce
I0913 17:39:35.674504 13267 net.cpp:399] inception_4a/3x3 -> inception_4a/3x3
I0913 17:39:35.677948 13267 net.cpp:141] Setting up inception_4a/3x3
I0913 17:39:35.677963 13267 net.cpp:148] Top shape: 10 208 14 14 (407680)
I0913 17:39:35.677968 13267 net.cpp:156] Memory required for data: 362145280
I0913 17:39:35.677978 13267 layer_factory.hpp:77] Creating layer inception_4a/relu_3x3
I0913 17:39:35.677989 13267 net.cpp:91] Creating Layer inception_4a/relu_3x3
I0913 17:39:35.677995 13267 net.cpp:425] inception_4a/relu_3x3 <- inception_4a/3x3
I0913 17:39:35.678002 13267 net.cpp:386] inception_4a/relu_3x3 -> inception_4a/3x3 (in-place)
I0913 17:39:35.678391 13267 net.cpp:141] Setting up inception_4a/relu_3x3
I0913 17:39:35.678405 13267 net.cpp:148] Top shape: 10 208 14 14 (407680)
I0913 17:39:35.678409 13267 net.cpp:156] Memory required for data: 363776000
I0913 17:39:35.678414 13267 layer_factory.hpp:77] Creating layer inception_4a/5x5_reduce
I0913 17:39:35.678431 13267 net.cpp:91] Creating Layer inception_4a/5x5_reduce
I0913 17:39:35.678438 13267 net.cpp:425] inception_4a/5x5_reduce <- pool3/3x3_s2_pool3/3x3_s2_0_split_2
I0913 17:39:35.678447 13267 net.cpp:399] inception_4a/5x5_reduce -> inception_4a/5x5_reduce
I0913 17:39:35.679721 13267 net.cpp:141] Setting up inception_4a/5x5_reduce
I0913 17:39:35.679738 13267 net.cpp:148] Top shape: 10 16 14 14 (31360)
I0913 17:39:35.679744 13267 net.cpp:156] Memory required for data: 363901440
I0913 17:39:35.679751 13267 layer_factory.hpp:77] Creating layer inception_4a/relu_5x5_reduce
I0913 17:39:35.679759 13267 net.cpp:91] Creating Layer inception_4a/relu_5x5_reduce
I0913 17:39:35.679765 13267 net.cpp:425] inception_4a/relu_5x5_reduce <- inception_4a/5x5_reduce
I0913 17:39:35.679787 13267 net.cpp:386] inception_4a/relu_5x5_reduce -> inception_4a/5x5_reduce (in-place)
I0913 17:39:35.680177 13267 net.cpp:141] Setting up inception_4a/relu_5x5_reduce
I0913 17:39:35.680191 13267 net.cpp:148] Top shape: 10 16 14 14 (31360)
I0913 17:39:35.680196 13267 net.cpp:156] Memory required for data: 364026880
I0913 17:39:35.680200 13267 layer_factory.hpp:77] Creating layer inception_4a/5x5
I0913 17:39:35.680214 13267 net.cpp:91] Creating Layer inception_4a/5x5
I0913 17:39:35.680220 13267 net.cpp:425] inception_4a/5x5 <- inception_4a/5x5_reduce
I0913 17:39:35.680235 13267 net.cpp:399] inception_4a/5x5 -> inception_4a/5x5
I0913 17:39:35.681728 13267 net.cpp:141] Setting up inception_4a/5x5
I0913 17:39:35.681746 13267 net.cpp:148] Top shape: 10 48 14 14 (94080)
I0913 17:39:35.681751 13267 net.cpp:156] Memory required for data: 364403200
I0913 17:39:35.681759 13267 layer_factory.hpp:77] Creating layer inception_4a/relu_5x5
I0913 17:39:35.681767 13267 net.cpp:91] Creating Layer inception_4a/relu_5x5
I0913 17:39:35.681773 13267 net.cpp:425] inception_4a/relu_5x5 <- inception_4a/5x5
I0913 17:39:35.681782 13267 net.cpp:386] inception_4a/relu_5x5 -> inception_4a/5x5 (in-place)
I0913 17:39:35.682005 13267 net.cpp:141] Setting up inception_4a/relu_5x5
I0913 17:39:35.682016 13267 net.cpp:148] Top shape: 10 48 14 14 (94080)
I0913 17:39:35.682021 13267 net.cpp:156] Memory required for data: 364779520
I0913 17:39:35.682026 13267 layer_factory.hpp:77] Creating layer inception_4a/pool
I0913 17:39:35.682039 13267 net.cpp:91] Creating Layer inception_4a/pool
I0913 17:39:35.682044 13267 net.cpp:425] inception_4a/pool <- pool3/3x3_s2_pool3/3x3_s2_0_split_3
I0913 17:39:35.682052 13267 net.cpp:399] inception_4a/pool -> inception_4a/pool
I0913 17:39:35.682114 13267 net.cpp:141] Setting up inception_4a/pool
I0913 17:39:35.682123 13267 net.cpp:148] Top shape: 10 480 14 14 (940800)
I0913 17:39:35.682127 13267 net.cpp:156] Memory required for data: 368542720
I0913 17:39:35.682132 13267 layer_factory.hpp:77] Creating layer inception_4a/pool_proj
I0913 17:39:35.682145 13267 net.cpp:91] Creating Layer inception_4a/pool_proj
I0913 17:39:35.682152 13267 net.cpp:425] inception_4a/pool_proj <- inception_4a/pool
I0913 17:39:35.682163 13267 net.cpp:399] inception_4a/pool_proj -> inception_4a/pool_proj
I0913 17:39:35.683739 13267 net.cpp:141] Setting up inception_4a/pool_proj
I0913 17:39:35.683769 13267 net.cpp:148] Top shape: 10 64 14 14 (125440)
I0913 17:39:35.683774 13267 net.cpp:156] Memory required for data: 369044480
I0913 17:39:35.683784 13267 layer_factory.hpp:77] Creating layer inception_4a/relu_pool_proj
I0913 17:39:35.683791 13267 net.cpp:91] Creating Layer inception_4a/relu_pool_proj
I0913 17:39:35.683797 13267 net.cpp:425] inception_4a/relu_pool_proj <- inception_4a/pool_proj
I0913 17:39:35.683809 13267 net.cpp:386] inception_4a/relu_pool_proj -> inception_4a/pool_proj (in-place)
I0913 17:39:35.684204 13267 net.cpp:141] Setting up inception_4a/relu_pool_proj
I0913 17:39:35.684217 13267 net.cpp:148] Top shape: 10 64 14 14 (125440)
I0913 17:39:35.684222 13267 net.cpp:156] Memory required for data: 369546240
I0913 17:39:35.684227 13267 layer_factory.hpp:77] Creating layer inception_4a/output
I0913 17:39:35.684237 13267 net.cpp:91] Creating Layer inception_4a/output
I0913 17:39:35.684242 13267 net.cpp:425] inception_4a/output <- inception_4a/1x1
I0913 17:39:35.684247 13267 net.cpp:425] inception_4a/output <- inception_4a/3x3
I0913 17:39:35.684252 13267 net.cpp:425] inception_4a/output <- inception_4a/5x5
I0913 17:39:35.684258 13267 net.cpp:425] inception_4a/output <- inception_4a/pool_proj
I0913 17:39:35.684269 13267 net.cpp:399] inception_4a/output -> inception_4a/output
I0913 17:39:35.684315 13267 net.cpp:141] Setting up inception_4a/output
I0913 17:39:35.684324 13267 net.cpp:148] Top shape: 10 512 14 14 (1003520)
I0913 17:39:35.684329 13267 net.cpp:156] Memory required for data: 373560320
I0913 17:39:35.684334 13267 layer_factory.hpp:77] Creating layer inception_4a/output_inception_4a/output_0_split
I0913 17:39:35.684341 13267 net.cpp:91] Creating Layer inception_4a/output_inception_4a/output_0_split
I0913 17:39:35.684346 13267 net.cpp:425] inception_4a/output_inception_4a/output_0_split <- inception_4a/output
I0913 17:39:35.684353 13267 net.cpp:399] inception_4a/output_inception_4a/output_0_split -> inception_4a/output_inception_4a/output_0_split_0
I0913 17:39:35.684365 13267 net.cpp:399] inception_4a/output_inception_4a/output_0_split -> inception_4a/output_inception_4a/output_0_split_1
I0913 17:39:35.684375 13267 net.cpp:399] inception_4a/output_inception_4a/output_0_split -> inception_4a/output_inception_4a/output_0_split_2
I0913 17:39:35.684383 13267 net.cpp:399] inception_4a/output_inception_4a/output_0_split -> inception_4a/output_inception_4a/output_0_split_3
I0913 17:39:35.684468 13267 net.cpp:141] Setting up inception_4a/output_inception_4a/output_0_split
I0913 17:39:35.684478 13267 net.cpp:148] Top shape: 10 512 14 14 (1003520)
I0913 17:39:35.684484 13267 net.cpp:148] Top shape: 10 512 14 14 (1003520)
I0913 17:39:35.684489 13267 net.cpp:148] Top shape: 10 512 14 14 (1003520)
I0913 17:39:35.684495 13267 net.cpp:148] Top shape: 10 512 14 14 (1003520)
I0913 17:39:35.684499 13267 net.cpp:156] Memory required for data: 389616640
I0913 17:39:35.684504 13267 layer_factory.hpp:77] Creating layer inception_4b/1x1
I0913 17:39:35.684520 13267 net.cpp:91] Creating Layer inception_4b/1x1
I0913 17:39:35.684525 13267 net.cpp:425] inception_4b/1x1 <- inception_4a/output_inception_4a/output_0_split_0
I0913 17:39:35.684533 13267 net.cpp:399] inception_4b/1x1 -> inception_4b/1x1
I0913 17:39:35.686381 13267 net.cpp:141] Setting up inception_4b/1x1
I0913 17:39:35.686395 13267 net.cpp:148] Top shape: 10 160 14 14 (313600)
I0913 17:39:35.686400 13267 net.cpp:156] Memory required for data: 390871040
I0913 17:39:35.686409 13267 layer_factory.hpp:77] Creating layer inception_4b/relu_1x1
I0913 17:39:35.686421 13267 net.cpp:91] Creating Layer inception_4b/relu_1x1
I0913 17:39:35.686427 13267 net.cpp:425] inception_4b/relu_1x1 <- inception_4b/1x1
I0913 17:39:35.686436 13267 net.cpp:386] inception_4b/relu_1x1 -> inception_4b/1x1 (in-place)
I0913 17:39:35.686826 13267 net.cpp:141] Setting up inception_4b/relu_1x1
I0913 17:39:35.686839 13267 net.cpp:148] Top shape: 10 160 14 14 (313600)
I0913 17:39:35.686843 13267 net.cpp:156] Memory required for data: 392125440
I0913 17:39:35.686849 13267 layer_factory.hpp:77] Creating layer inception_4b/3x3_reduce
I0913 17:39:35.686862 13267 net.cpp:91] Creating Layer inception_4b/3x3_reduce
I0913 17:39:35.686868 13267 net.cpp:425] inception_4b/3x3_reduce <- inception_4a/output_inception_4a/output_0_split_1
I0913 17:39:35.686877 13267 net.cpp:399] inception_4b/3x3_reduce -> inception_4b/3x3_reduce
I0913 17:39:35.689251 13267 net.cpp:141] Setting up inception_4b/3x3_reduce
I0913 17:39:35.689294 13267 net.cpp:148] Top shape: 10 112 14 14 (219520)
I0913 17:39:35.689301 13267 net.cpp:156] Memory required for data: 393003520
I0913 17:39:35.689314 13267 layer_factory.hpp:77] Creating layer inception_4b/relu_3x3_reduce
I0913 17:39:35.689333 13267 net.cpp:91] Creating Layer inception_4b/relu_3x3_reduce
I0913 17:39:35.689342 13267 net.cpp:425] inception_4b/relu_3x3_reduce <- inception_4b/3x3_reduce
I0913 17:39:35.689352 13267 net.cpp:386] inception_4b/relu_3x3_reduce -> inception_4b/3x3_reduce (in-place)
I0913 17:39:35.689596 13267 net.cpp:141] Setting up inception_4b/relu_3x3_reduce
I0913 17:39:35.689607 13267 net.cpp:148] Top shape: 10 112 14 14 (219520)
I0913 17:39:35.689612 13267 net.cpp:156] Memory required for data: 393881600
I0913 17:39:35.689617 13267 layer_factory.hpp:77] Creating layer inception_4b/3x3
I0913 17:39:35.689640 13267 net.cpp:91] Creating Layer inception_4b/3x3
I0913 17:39:35.689646 13267 net.cpp:425] inception_4b/3x3 <- inception_4b/3x3_reduce
I0913 17:39:35.689656 13267 net.cpp:399] inception_4b/3x3 -> inception_4b/3x3
I0913 17:39:35.693938 13267 net.cpp:141] Setting up inception_4b/3x3
I0913 17:39:35.693960 13267 net.cpp:148] Top shape: 10 224 14 14 (439040)
I0913 17:39:35.693966 13267 net.cpp:156] Memory required for data: 395637760
I0913 17:39:35.693976 13267 layer_factory.hpp:77] Creating layer inception_4b/relu_3x3
I0913 17:39:35.693986 13267 net.cpp:91] Creating Layer inception_4b/relu_3x3
I0913 17:39:35.693994 13267 net.cpp:425] inception_4b/relu_3x3 <- inception_4b/3x3
I0913 17:39:35.694003 13267 net.cpp:386] inception_4b/relu_3x3 -> inception_4b/3x3 (in-place)
I0913 17:39:35.694429 13267 net.cpp:141] Setting up inception_4b/relu_3x3
I0913 17:39:35.694442 13267 net.cpp:148] Top shape: 10 224 14 14 (439040)
I0913 17:39:35.694447 13267 net.cpp:156] Memory required for data: 397393920
I0913 17:39:35.694453 13267 layer_factory.hpp:77] Creating layer inception_4b/5x5_reduce
I0913 17:39:35.694483 13267 net.cpp:91] Creating Layer inception_4b/5x5_reduce
I0913 17:39:35.694489 13267 net.cpp:425] inception_4b/5x5_reduce <- inception_4a/output_inception_4a/output_0_split_2
I0913 17:39:35.694501 13267 net.cpp:399] inception_4b/5x5_reduce -> inception_4b/5x5_reduce
I0913 17:39:35.695865 13267 net.cpp:141] Setting up inception_4b/5x5_reduce
I0913 17:39:35.695885 13267 net.cpp:148] Top shape: 10 24 14 14 (47040)
I0913 17:39:35.695891 13267 net.cpp:156] Memory required for data: 397582080
I0913 17:39:35.695900 13267 layer_factory.hpp:77] Creating layer inception_4b/relu_5x5_reduce
I0913 17:39:35.695909 13267 net.cpp:91] Creating Layer inception_4b/relu_5x5_reduce
I0913 17:39:35.695915 13267 net.cpp:425] inception_4b/relu_5x5_reduce <- inception_4b/5x5_reduce
I0913 17:39:35.695922 13267 net.cpp:386] inception_4b/relu_5x5_reduce -> inception_4b/5x5_reduce (in-place)
I0913 17:39:35.696339 13267 net.cpp:141] Setting up inception_4b/relu_5x5_reduce
I0913 17:39:35.696352 13267 net.cpp:148] Top shape: 10 24 14 14 (47040)
I0913 17:39:35.696357 13267 net.cpp:156] Memory required for data: 397770240
I0913 17:39:35.696363 13267 layer_factory.hpp:77] Creating layer inception_4b/5x5
I0913 17:39:35.696380 13267 net.cpp:91] Creating Layer inception_4b/5x5
I0913 17:39:35.696386 13267 net.cpp:425] inception_4b/5x5 <- inception_4b/5x5_reduce
I0913 17:39:35.696398 13267 net.cpp:399] inception_4b/5x5 -> inception_4b/5x5
I0913 17:39:35.698834 13267 net.cpp:141] Setting up inception_4b/5x5
I0913 17:39:35.698853 13267 net.cpp:148] Top shape: 10 64 14 14 (125440)
I0913 17:39:35.698858 13267 net.cpp:156] Memory required for data: 398272000
I0913 17:39:35.698868 13267 layer_factory.hpp:77] Creating layer inception_4b/relu_5x5
I0913 17:39:35.698879 13267 net.cpp:91] Creating Layer inception_4b/relu_5x5
I0913 17:39:35.698884 13267 net.cpp:425] inception_4b/relu_5x5 <- inception_4b/5x5
I0913 17:39:35.698892 13267 net.cpp:386] inception_4b/relu_5x5 -> inception_4b/5x5 (in-place)
I0913 17:39:35.699120 13267 net.cpp:141] Setting up inception_4b/relu_5x5
I0913 17:39:35.699132 13267 net.cpp:148] Top shape: 10 64 14 14 (125440)
I0913 17:39:35.699136 13267 net.cpp:156] Memory required for data: 398773760
I0913 17:39:35.699143 13267 layer_factory.hpp:77] Creating layer inception_4b/pool
I0913 17:39:35.699157 13267 net.cpp:91] Creating Layer inception_4b/pool
I0913 17:39:35.699163 13267 net.cpp:425] inception_4b/pool <- inception_4a/output_inception_4a/output_0_split_3
I0913 17:39:35.699172 13267 net.cpp:399] inception_4b/pool -> inception_4b/pool
I0913 17:39:35.699237 13267 net.cpp:141] Setting up inception_4b/pool
I0913 17:39:35.699247 13267 net.cpp:148] Top shape: 10 512 14 14 (1003520)
I0913 17:39:35.699252 13267 net.cpp:156] Memory required for data: 402787840
I0913 17:39:35.699257 13267 layer_factory.hpp:77] Creating layer inception_4b/pool_proj
I0913 17:39:35.699271 13267 net.cpp:91] Creating Layer inception_4b/pool_proj
I0913 17:39:35.699277 13267 net.cpp:425] inception_4b/pool_proj <- inception_4b/pool
I0913 17:39:35.699288 13267 net.cpp:399] inception_4b/pool_proj -> inception_4b/pool_proj
I0913 17:39:35.700971 13267 net.cpp:141] Setting up inception_4b/pool_proj
I0913 17:39:35.700989 13267 net.cpp:148] Top shape: 10 64 14 14 (125440)
I0913 17:39:35.700995 13267 net.cpp:156] Memory required for data: 403289600
I0913 17:39:35.701004 13267 layer_factory.hpp:77] Creating layer inception_4b/relu_pool_proj
I0913 17:39:35.701014 13267 net.cpp:91] Creating Layer inception_4b/relu_pool_proj
I0913 17:39:35.701020 13267 net.cpp:425] inception_4b/relu_pool_proj <- inception_4b/pool_proj
I0913 17:39:35.701030 13267 net.cpp:386] inception_4b/relu_pool_proj -> inception_4b/pool_proj (in-place)
I0913 17:39:35.701441 13267 net.cpp:141] Setting up inception_4b/relu_pool_proj
I0913 17:39:35.701453 13267 net.cpp:148] Top shape: 10 64 14 14 (125440)
I0913 17:39:35.701457 13267 net.cpp:156] Memory required for data: 403791360
I0913 17:39:35.701463 13267 layer_factory.hpp:77] Creating layer inception_4b/output
I0913 17:39:35.701472 13267 net.cpp:91] Creating Layer inception_4b/output
I0913 17:39:35.701478 13267 net.cpp:425] inception_4b/output <- inception_4b/1x1
I0913 17:39:35.701483 13267 net.cpp:425] inception_4b/output <- inception_4b/3x3
I0913 17:39:35.701489 13267 net.cpp:425] inception_4b/output <- inception_4b/5x5
I0913 17:39:35.701494 13267 net.cpp:425] inception_4b/output <- inception_4b/pool_proj
I0913 17:39:35.701504 13267 net.cpp:399] inception_4b/output -> inception_4b/output
I0913 17:39:35.701555 13267 net.cpp:141] Setting up inception_4b/output
I0913 17:39:35.701565 13267 net.cpp:148] Top shape: 10 512 14 14 (1003520)
I0913 17:39:35.701570 13267 net.cpp:156] Memory required for data: 407805440
I0913 17:39:35.701575 13267 layer_factory.hpp:77] Creating layer inception_4b/output_inception_4b/output_0_split
I0913 17:39:35.701583 13267 net.cpp:91] Creating Layer inception_4b/output_inception_4b/output_0_split
I0913 17:39:35.701588 13267 net.cpp:425] inception_4b/output_inception_4b/output_0_split <- inception_4b/output
I0913 17:39:35.701596 13267 net.cpp:399] inception_4b/output_inception_4b/output_0_split -> inception_4b/output_inception_4b/output_0_split_0
I0913 17:39:35.701607 13267 net.cpp:399] inception_4b/output_inception_4b/output_0_split -> inception_4b/output_inception_4b/output_0_split_1
I0913 17:39:35.701617 13267 net.cpp:399] inception_4b/output_inception_4b/output_0_split -> inception_4b/output_inception_4b/output_0_split_2
I0913 17:39:35.701625 13267 net.cpp:399] inception_4b/output_inception_4b/output_0_split -> inception_4b/output_inception_4b/output_0_split_3
I0913 17:39:35.701714 13267 net.cpp:141] Setting up inception_4b/output_inception_4b/output_0_split
I0913 17:39:35.701724 13267 net.cpp:148] Top shape: 10 512 14 14 (1003520)
I0913 17:39:35.701730 13267 net.cpp:148] Top shape: 10 512 14 14 (1003520)
I0913 17:39:35.701735 13267 net.cpp:148] Top shape: 10 512 14 14 (1003520)
I0913 17:39:35.701741 13267 net.cpp:148] Top shape: 10 512 14 14 (1003520)
I0913 17:39:35.701745 13267 net.cpp:156] Memory required for data: 423861760
I0913 17:39:35.701750 13267 layer_factory.hpp:77] Creating layer inception_4c/1x1
I0913 17:39:35.701768 13267 net.cpp:91] Creating Layer inception_4c/1x1
I0913 17:39:35.701773 13267 net.cpp:425] inception_4c/1x1 <- inception_4b/output_inception_4b/output_0_split_0
I0913 17:39:35.701782 13267 net.cpp:399] inception_4c/1x1 -> inception_4c/1x1
I0913 17:39:35.703517 13267 net.cpp:141] Setting up inception_4c/1x1
I0913 17:39:35.703534 13267 net.cpp:148] Top shape: 10 128 14 14 (250880)
I0913 17:39:35.703539 13267 net.cpp:156] Memory required for data: 424865280
I0913 17:39:35.703548 13267 layer_factory.hpp:77] Creating layer inception_4c/relu_1x1
I0913 17:39:35.703557 13267 net.cpp:91] Creating Layer inception_4c/relu_1x1
I0913 17:39:35.703563 13267 net.cpp:425] inception_4c/relu_1x1 <- inception_4c/1x1
I0913 17:39:35.703570 13267 net.cpp:386] inception_4c/relu_1x1 -> inception_4c/1x1 (in-place)
I0913 17:39:35.703974 13267 net.cpp:141] Setting up inception_4c/relu_1x1
I0913 17:39:35.703987 13267 net.cpp:148] Top shape: 10 128 14 14 (250880)
I0913 17:39:35.703992 13267 net.cpp:156] Memory required for data: 425868800
I0913 17:39:35.703997 13267 layer_factory.hpp:77] Creating layer inception_4c/3x3_reduce
I0913 17:39:35.704015 13267 net.cpp:91] Creating Layer inception_4c/3x3_reduce
I0913 17:39:35.704025 13267 net.cpp:425] inception_4c/3x3_reduce <- inception_4b/output_inception_4b/output_0_split_1
I0913 17:39:35.704042 13267 net.cpp:399] inception_4c/3x3_reduce -> inception_4c/3x3_reduce
I0913 17:39:35.705991 13267 net.cpp:141] Setting up inception_4c/3x3_reduce
I0913 17:39:35.706009 13267 net.cpp:148] Top shape: 10 128 14 14 (250880)
I0913 17:39:35.706014 13267 net.cpp:156] Memory required for data: 426872320
I0913 17:39:35.706023 13267 layer_factory.hpp:77] Creating layer inception_4c/relu_3x3_reduce
I0913 17:39:35.706037 13267 net.cpp:91] Creating Layer inception_4c/relu_3x3_reduce
I0913 17:39:35.706043 13267 net.cpp:425] inception_4c/relu_3x3_reduce <- inception_4c/3x3_reduce
I0913 17:39:35.706049 13267 net.cpp:386] inception_4c/relu_3x3_reduce -> inception_4c/3x3_reduce (in-place)
I0913 17:39:35.706295 13267 net.cpp:141] Setting up inception_4c/relu_3x3_reduce
I0913 17:39:35.706306 13267 net.cpp:148] Top shape: 10 128 14 14 (250880)
I0913 17:39:35.706311 13267 net.cpp:156] Memory required for data: 427875840
I0913 17:39:35.706316 13267 layer_factory.hpp:77] Creating layer inception_4c/3x3
I0913 17:39:35.706332 13267 net.cpp:91] Creating Layer inception_4c/3x3
I0913 17:39:35.706338 13267 net.cpp:425] inception_4c/3x3 <- inception_4c/3x3_reduce
I0913 17:39:35.706349 13267 net.cpp:399] inception_4c/3x3 -> inception_4c/3x3
I0913 17:39:35.710718 13267 net.cpp:141] Setting up inception_4c/3x3
I0913 17:39:35.710737 13267 net.cpp:148] Top shape: 10 256 14 14 (501760)
I0913 17:39:35.710743 13267 net.cpp:156] Memory required for data: 429882880
I0913 17:39:35.710752 13267 layer_factory.hpp:77] Creating layer inception_4c/relu_3x3
I0913 17:39:35.710763 13267 net.cpp:91] Creating Layer inception_4c/relu_3x3
I0913 17:39:35.710770 13267 net.cpp:425] inception_4c/relu_3x3 <- inception_4c/3x3
I0913 17:39:35.710777 13267 net.cpp:386] inception_4c/relu_3x3 -> inception_4c/3x3 (in-place)
I0913 17:39:35.711187 13267 net.cpp:141] Setting up inception_4c/relu_3x3
I0913 17:39:35.711200 13267 net.cpp:148] Top shape: 10 256 14 14 (501760)
I0913 17:39:35.711205 13267 net.cpp:156] Memory required for data: 431889920
I0913 17:39:35.711210 13267 layer_factory.hpp:77] Creating layer inception_4c/5x5_reduce
I0913 17:39:35.711225 13267 net.cpp:91] Creating Layer inception_4c/5x5_reduce
I0913 17:39:35.711231 13267 net.cpp:425] inception_4c/5x5_reduce <- inception_4b/output_inception_4b/output_0_split_2
I0913 17:39:35.711243 13267 net.cpp:399] inception_4c/5x5_reduce -> inception_4c/5x5_reduce
I0913 17:39:35.712640 13267 net.cpp:141] Setting up inception_4c/5x5_reduce
I0913 17:39:35.712656 13267 net.cpp:148] Top shape: 10 24 14 14 (47040)
I0913 17:39:35.712662 13267 net.cpp:156] Memory required for data: 432078080
I0913 17:39:35.712671 13267 layer_factory.hpp:77] Creating layer inception_4c/relu_5x5_reduce
I0913 17:39:35.712679 13267 net.cpp:91] Creating Layer inception_4c/relu_5x5_reduce
I0913 17:39:35.712688 13267 net.cpp:425] inception_4c/relu_5x5_reduce <- inception_4c/5x5_reduce
I0913 17:39:35.712700 13267 net.cpp:386] inception_4c/relu_5x5_reduce -> inception_4c/5x5_reduce (in-place)
I0913 17:39:35.713110 13267 net.cpp:141] Setting up inception_4c/relu_5x5_reduce
I0913 17:39:35.713124 13267 net.cpp:148] Top shape: 10 24 14 14 (47040)
I0913 17:39:35.713129 13267 net.cpp:156] Memory required for data: 432266240
I0913 17:39:35.713135 13267 layer_factory.hpp:77] Creating layer inception_4c/5x5
I0913 17:39:35.713150 13267 net.cpp:91] Creating Layer inception_4c/5x5
I0913 17:39:35.713156 13267 net.cpp:425] inception_4c/5x5 <- inception_4c/5x5_reduce
I0913 17:39:35.713167 13267 net.cpp:399] inception_4c/5x5 -> inception_4c/5x5
I0913 17:39:35.715172 13267 net.cpp:141] Setting up inception_4c/5x5
I0913 17:39:35.715188 13267 net.cpp:148] Top shape: 10 64 14 14 (125440)
I0913 17:39:35.715193 13267 net.cpp:156] Memory required for data: 432768000
I0913 17:39:35.715203 13267 layer_factory.hpp:77] Creating layer inception_4c/relu_5x5
I0913 17:39:35.715211 13267 net.cpp:91] Creating Layer inception_4c/relu_5x5
I0913 17:39:35.715217 13267 net.cpp:425] inception_4c/relu_5x5 <- inception_4c/5x5
I0913 17:39:35.715226 13267 net.cpp:386] inception_4c/relu_5x5 -> inception_4c/5x5 (in-place)
I0913 17:39:35.715461 13267 net.cpp:141] Setting up inception_4c/relu_5x5
I0913 17:39:35.715471 13267 net.cpp:148] Top shape: 10 64 14 14 (125440)
I0913 17:39:35.715476 13267 net.cpp:156] Memory required for data: 433269760
I0913 17:39:35.715481 13267 layer_factory.hpp:77] Creating layer inception_4c/pool
I0913 17:39:35.715495 13267 net.cpp:91] Creating Layer inception_4c/pool
I0913 17:39:35.715502 13267 net.cpp:425] inception_4c/pool <- inception_4b/output_inception_4b/output_0_split_3
I0913 17:39:35.715510 13267 net.cpp:399] inception_4c/pool -> inception_4c/pool
I0913 17:39:35.715579 13267 net.cpp:141] Setting up inception_4c/pool
I0913 17:39:35.715590 13267 net.cpp:148] Top shape: 10 512 14 14 (1003520)
I0913 17:39:35.715595 13267 net.cpp:156] Memory required for data: 437283840
I0913 17:39:35.715600 13267 layer_factory.hpp:77] Creating layer inception_4c/pool_proj
I0913 17:39:35.715613 13267 net.cpp:91] Creating Layer inception_4c/pool_proj
I0913 17:39:35.715620 13267 net.cpp:425] inception_4c/pool_proj <- inception_4c/pool
I0913 17:39:35.715631 13267 net.cpp:399] inception_4c/pool_proj -> inception_4c/pool_proj
I0913 17:39:35.718044 13267 net.cpp:141] Setting up inception_4c/pool_proj
I0913 17:39:35.718062 13267 net.cpp:148] Top shape: 10 64 14 14 (125440)
I0913 17:39:35.718067 13267 net.cpp:156] Memory required for data: 437785600
I0913 17:39:35.718101 13267 layer_factory.hpp:77] Creating layer inception_4c/relu_pool_proj
I0913 17:39:35.718124 13267 net.cpp:91] Creating Layer inception_4c/relu_pool_proj
I0913 17:39:35.718132 13267 net.cpp:425] inception_4c/relu_pool_proj <- inception_4c/pool_proj
I0913 17:39:35.718138 13267 net.cpp:386] inception_4c/relu_pool_proj -> inception_4c/pool_proj (in-place)
I0913 17:39:35.718554 13267 net.cpp:141] Setting up inception_4c/relu_pool_proj
I0913 17:39:35.718566 13267 net.cpp:148] Top shape: 10 64 14 14 (125440)
I0913 17:39:35.718571 13267 net.cpp:156] Memory required for data: 438287360
I0913 17:39:35.718576 13267 layer_factory.hpp:77] Creating layer inception_4c/output
I0913 17:39:35.718585 13267 net.cpp:91] Creating Layer inception_4c/output
I0913 17:39:35.718590 13267 net.cpp:425] inception_4c/output <- inception_4c/1x1
I0913 17:39:35.718597 13267 net.cpp:425] inception_4c/output <- inception_4c/3x3
I0913 17:39:35.718602 13267 net.cpp:425] inception_4c/output <- inception_4c/5x5
I0913 17:39:35.718608 13267 net.cpp:425] inception_4c/output <- inception_4c/pool_proj
I0913 17:39:35.718621 13267 net.cpp:399] inception_4c/output -> inception_4c/output
I0913 17:39:35.718667 13267 net.cpp:141] Setting up inception_4c/output
I0913 17:39:35.718679 13267 net.cpp:148] Top shape: 10 512 14 14 (1003520)
I0913 17:39:35.718683 13267 net.cpp:156] Memory required for data: 442301440
I0913 17:39:35.718688 13267 layer_factory.hpp:77] Creating layer inception_4c/output_inception_4c/output_0_split
I0913 17:39:35.718698 13267 net.cpp:91] Creating Layer inception_4c/output_inception_4c/output_0_split
I0913 17:39:35.718703 13267 net.cpp:425] inception_4c/output_inception_4c/output_0_split <- inception_4c/output
I0913 17:39:35.718708 13267 net.cpp:399] inception_4c/output_inception_4c/output_0_split -> inception_4c/output_inception_4c/output_0_split_0
I0913 17:39:35.718718 13267 net.cpp:399] inception_4c/output_inception_4c/output_0_split -> inception_4c/output_inception_4c/output_0_split_1
I0913 17:39:35.718725 13267 net.cpp:399] inception_4c/output_inception_4c/output_0_split -> inception_4c/output_inception_4c/output_0_split_2
I0913 17:39:35.718737 13267 net.cpp:399] inception_4c/output_inception_4c/output_0_split -> inception_4c/output_inception_4c/output_0_split_3
I0913 17:39:35.718832 13267 net.cpp:141] Setting up inception_4c/output_inception_4c/output_0_split
I0913 17:39:35.718842 13267 net.cpp:148] Top shape: 10 512 14 14 (1003520)
I0913 17:39:35.718847 13267 net.cpp:148] Top shape: 10 512 14 14 (1003520)
I0913 17:39:35.718852 13267 net.cpp:148] Top shape: 10 512 14 14 (1003520)
I0913 17:39:35.718858 13267 net.cpp:148] Top shape: 10 512 14 14 (1003520)
I0913 17:39:35.718863 13267 net.cpp:156] Memory required for data: 458357760
I0913 17:39:35.718866 13267 layer_factory.hpp:77] Creating layer inception_4d/1x1
I0913 17:39:35.718881 13267 net.cpp:91] Creating Layer inception_4d/1x1
I0913 17:39:35.718888 13267 net.cpp:425] inception_4d/1x1 <- inception_4c/output_inception_4c/output_0_split_0
I0913 17:39:35.718899 13267 net.cpp:399] inception_4d/1x1 -> inception_4d/1x1
I0913 17:39:35.720640 13267 net.cpp:141] Setting up inception_4d/1x1
I0913 17:39:35.720659 13267 net.cpp:148] Top shape: 10 112 14 14 (219520)
I0913 17:39:35.720664 13267 net.cpp:156] Memory required for data: 459235840
I0913 17:39:35.720672 13267 layer_factory.hpp:77] Creating layer inception_4d/relu_1x1
I0913 17:39:35.720685 13267 net.cpp:91] Creating Layer inception_4d/relu_1x1
I0913 17:39:35.720691 13267 net.cpp:425] inception_4d/relu_1x1 <- inception_4d/1x1
I0913 17:39:35.720698 13267 net.cpp:386] inception_4d/relu_1x1 -> inception_4d/1x1 (in-place)
I0913 17:39:35.721114 13267 net.cpp:141] Setting up inception_4d/relu_1x1
I0913 17:39:35.721127 13267 net.cpp:148] Top shape: 10 112 14 14 (219520)
I0913 17:39:35.721132 13267 net.cpp:156] Memory required for data: 460113920
I0913 17:39:35.721138 13267 layer_factory.hpp:77] Creating layer inception_4d/3x3_reduce
I0913 17:39:35.721155 13267 net.cpp:91] Creating Layer inception_4d/3x3_reduce
I0913 17:39:35.721161 13267 net.cpp:425] inception_4d/3x3_reduce <- inception_4c/output_inception_4c/output_0_split_1
I0913 17:39:35.721170 13267 net.cpp:399] inception_4d/3x3_reduce -> inception_4d/3x3_reduce
I0913 17:39:35.723258 13267 net.cpp:141] Setting up inception_4d/3x3_reduce
I0913 17:39:35.723275 13267 net.cpp:148] Top shape: 10 144 14 14 (282240)
I0913 17:39:35.723280 13267 net.cpp:156] Memory required for data: 461242880
I0913 17:39:35.723289 13267 layer_factory.hpp:77] Creating layer inception_4d/relu_3x3_reduce
I0913 17:39:35.723300 13267 net.cpp:91] Creating Layer inception_4d/relu_3x3_reduce
I0913 17:39:35.723306 13267 net.cpp:425] inception_4d/relu_3x3_reduce <- inception_4d/3x3_reduce
I0913 17:39:35.723314 13267 net.cpp:386] inception_4d/relu_3x3_reduce -> inception_4d/3x3_reduce (in-place)
I0913 17:39:35.723563 13267 net.cpp:141] Setting up inception_4d/relu_3x3_reduce
I0913 17:39:35.723575 13267 net.cpp:148] Top shape: 10 144 14 14 (282240)
I0913 17:39:35.723580 13267 net.cpp:156] Memory required for data: 462371840
I0913 17:39:35.723585 13267 layer_factory.hpp:77] Creating layer inception_4d/3x3
I0913 17:39:35.723606 13267 net.cpp:91] Creating Layer inception_4d/3x3
I0913 17:39:35.723613 13267 net.cpp:425] inception_4d/3x3 <- inception_4d/3x3_reduce
I0913 17:39:35.723621 13267 net.cpp:399] inception_4d/3x3 -> inception_4d/3x3
I0913 17:39:35.728752 13267 net.cpp:141] Setting up inception_4d/3x3
I0913 17:39:35.728771 13267 net.cpp:148] Top shape: 10 288 14 14 (564480)
I0913 17:39:35.728776 13267 net.cpp:156] Memory required for data: 464629760
I0913 17:39:35.728785 13267 layer_factory.hpp:77] Creating layer inception_4d/relu_3x3
I0913 17:39:35.728795 13267 net.cpp:91] Creating Layer inception_4d/relu_3x3
I0913 17:39:35.728801 13267 net.cpp:425] inception_4d/relu_3x3 <- inception_4d/3x3
I0913 17:39:35.728814 13267 net.cpp:386] inception_4d/relu_3x3 -> inception_4d/3x3 (in-place)
I0913 17:39:35.729241 13267 net.cpp:141] Setting up inception_4d/relu_3x3
I0913 17:39:35.729254 13267 net.cpp:148] Top shape: 10 288 14 14 (564480)
I0913 17:39:35.729259 13267 net.cpp:156] Memory required for data: 466887680
I0913 17:39:35.729264 13267 layer_factory.hpp:77] Creating layer inception_4d/5x5_reduce
I0913 17:39:35.729281 13267 net.cpp:91] Creating Layer inception_4d/5x5_reduce
I0913 17:39:35.729287 13267 net.cpp:425] inception_4d/5x5_reduce <- inception_4c/output_inception_4c/output_0_split_2
I0913 17:39:35.729298 13267 net.cpp:399] inception_4d/5x5_reduce -> inception_4d/5x5_reduce
I0913 17:39:35.730738 13267 net.cpp:141] Setting up inception_4d/5x5_reduce
I0913 17:39:35.730754 13267 net.cpp:148] Top shape: 10 32 14 14 (62720)
I0913 17:39:35.730761 13267 net.cpp:156] Memory required for data: 467138560
I0913 17:39:35.730768 13267 layer_factory.hpp:77] Creating layer inception_4d/relu_5x5_reduce
I0913 17:39:35.730782 13267 net.cpp:91] Creating Layer inception_4d/relu_5x5_reduce
I0913 17:39:35.730787 13267 net.cpp:425] inception_4d/relu_5x5_reduce <- inception_4d/5x5_reduce
I0913 17:39:35.730794 13267 net.cpp:386] inception_4d/relu_5x5_reduce -> inception_4d/5x5_reduce (in-place)
I0913 17:39:35.731218 13267 net.cpp:141] Setting up inception_4d/relu_5x5_reduce
I0913 17:39:35.731230 13267 net.cpp:148] Top shape: 10 32 14 14 (62720)
I0913 17:39:35.731235 13267 net.cpp:156] Memory required for data: 467389440
I0913 17:39:35.731240 13267 layer_factory.hpp:77] Creating layer inception_4d/5x5
I0913 17:39:35.731258 13267 net.cpp:91] Creating Layer inception_4d/5x5
I0913 17:39:35.731266 13267 net.cpp:425] inception_4d/5x5 <- inception_4d/5x5_reduce
I0913 17:39:35.731273 13267 net.cpp:399] inception_4d/5x5 -> inception_4d/5x5
I0913 17:39:35.733142 13267 net.cpp:141] Setting up inception_4d/5x5
I0913 17:39:35.733172 13267 net.cpp:148] Top shape: 10 64 14 14 (125440)
I0913 17:39:35.733178 13267 net.cpp:156] Memory required for data: 467891200
I0913 17:39:35.733188 13267 layer_factory.hpp:77] Creating layer inception_4d/relu_5x5
I0913 17:39:35.733201 13267 net.cpp:91] Creating Layer inception_4d/relu_5x5
I0913 17:39:35.733207 13267 net.cpp:425] inception_4d/relu_5x5 <- inception_4d/5x5
I0913 17:39:35.733222 13267 net.cpp:386] inception_4d/relu_5x5 -> inception_4d/5x5 (in-place)
I0913 17:39:35.733479 13267 net.cpp:141] Setting up inception_4d/relu_5x5
I0913 17:39:35.733491 13267 net.cpp:148] Top shape: 10 64 14 14 (125440)
I0913 17:39:35.733496 13267 net.cpp:156] Memory required for data: 468392960
I0913 17:39:35.733501 13267 layer_factory.hpp:77] Creating layer inception_4d/pool
I0913 17:39:35.733513 13267 net.cpp:91] Creating Layer inception_4d/pool
I0913 17:39:35.733520 13267 net.cpp:425] inception_4d/pool <- inception_4c/output_inception_4c/output_0_split_3
I0913 17:39:35.733527 13267 net.cpp:399] inception_4d/pool -> inception_4d/pool
I0913 17:39:35.733598 13267 net.cpp:141] Setting up inception_4d/pool
I0913 17:39:35.733608 13267 net.cpp:148] Top shape: 10 512 14 14 (1003520)
I0913 17:39:35.733613 13267 net.cpp:156] Memory required for data: 472407040
I0913 17:39:35.733618 13267 layer_factory.hpp:77] Creating layer inception_4d/pool_proj
I0913 17:39:35.733631 13267 net.cpp:91] Creating Layer inception_4d/pool_proj
I0913 17:39:35.733638 13267 net.cpp:425] inception_4d/pool_proj <- inception_4d/pool
I0913 17:39:35.733649 13267 net.cpp:399] inception_4d/pool_proj -> inception_4d/pool_proj
I0913 17:39:35.735440 13267 net.cpp:141] Setting up inception_4d/pool_proj
I0913 17:39:35.735457 13267 net.cpp:148] Top shape: 10 64 14 14 (125440)
I0913 17:39:35.735463 13267 net.cpp:156] Memory required for data: 472908800
I0913 17:39:35.735472 13267 layer_factory.hpp:77] Creating layer inception_4d/relu_pool_proj
I0913 17:39:35.735483 13267 net.cpp:91] Creating Layer inception_4d/relu_pool_proj
I0913 17:39:35.735489 13267 net.cpp:425] inception_4d/relu_pool_proj <- inception_4d/pool_proj
I0913 17:39:35.735496 13267 net.cpp:386] inception_4d/relu_pool_proj -> inception_4d/pool_proj (in-place)
I0913 17:39:35.735915 13267 net.cpp:141] Setting up inception_4d/relu_pool_proj
I0913 17:39:35.735929 13267 net.cpp:148] Top shape: 10 64 14 14 (125440)
I0913 17:39:35.735934 13267 net.cpp:156] Memory required for data: 473410560
I0913 17:39:35.735939 13267 layer_factory.hpp:77] Creating layer inception_4d/output
I0913 17:39:35.735949 13267 net.cpp:91] Creating Layer inception_4d/output
I0913 17:39:35.735955 13267 net.cpp:425] inception_4d/output <- inception_4d/1x1
I0913 17:39:35.735962 13267 net.cpp:425] inception_4d/output <- inception_4d/3x3
I0913 17:39:35.735968 13267 net.cpp:425] inception_4d/output <- inception_4d/5x5
I0913 17:39:35.735973 13267 net.cpp:425] inception_4d/output <- inception_4d/pool_proj
I0913 17:39:35.735980 13267 net.cpp:399] inception_4d/output -> inception_4d/output
I0913 17:39:35.736028 13267 net.cpp:141] Setting up inception_4d/output
I0913 17:39:35.736038 13267 net.cpp:148] Top shape: 10 528 14 14 (1034880)
I0913 17:39:35.736042 13267 net.cpp:156] Memory required for data: 477550080
I0913 17:39:35.736047 13267 layer_factory.hpp:77] Creating layer inception_4d/output_inception_4d/output_0_split
I0913 17:39:35.736055 13267 net.cpp:91] Creating Layer inception_4d/output_inception_4d/output_0_split
I0913 17:39:35.736060 13267 net.cpp:425] inception_4d/output_inception_4d/output_0_split <- inception_4d/output
I0913 17:39:35.736078 13267 net.cpp:399] inception_4d/output_inception_4d/output_0_split -> inception_4d/output_inception_4d/output_0_split_0
I0913 17:39:35.736088 13267 net.cpp:399] inception_4d/output_inception_4d/output_0_split -> inception_4d/output_inception_4d/output_0_split_1
I0913 17:39:35.736096 13267 net.cpp:399] inception_4d/output_inception_4d/output_0_split -> inception_4d/output_inception_4d/output_0_split_2
I0913 17:39:35.736104 13267 net.cpp:399] inception_4d/output_inception_4d/output_0_split -> inception_4d/output_inception_4d/output_0_split_3
I0913 17:39:35.736203 13267 net.cpp:141] Setting up inception_4d/output_inception_4d/output_0_split
I0913 17:39:35.736214 13267 net.cpp:148] Top shape: 10 528 14 14 (1034880)
I0913 17:39:35.736222 13267 net.cpp:148] Top shape: 10 528 14 14 (1034880)
I0913 17:39:35.736227 13267 net.cpp:148] Top shape: 10 528 14 14 (1034880)
I0913 17:39:35.736232 13267 net.cpp:148] Top shape: 10 528 14 14 (1034880)
I0913 17:39:35.736237 13267 net.cpp:156] Memory required for data: 494108160
I0913 17:39:35.736241 13267 layer_factory.hpp:77] Creating layer inception_4e/1x1
I0913 17:39:35.736256 13267 net.cpp:91] Creating Layer inception_4e/1x1
I0913 17:39:35.736263 13267 net.cpp:425] inception_4e/1x1 <- inception_4d/output_inception_4d/output_0_split_0
I0913 17:39:35.736270 13267 net.cpp:399] inception_4e/1x1 -> inception_4e/1x1
I0913 17:39:35.739692 13267 net.cpp:141] Setting up inception_4e/1x1
I0913 17:39:35.739717 13267 net.cpp:148] Top shape: 10 256 14 14 (501760)
I0913 17:39:35.739724 13267 net.cpp:156] Memory required for data: 496115200
I0913 17:39:35.739733 13267 layer_factory.hpp:77] Creating layer inception_4e/relu_1x1
I0913 17:39:35.739742 13267 net.cpp:91] Creating Layer inception_4e/relu_1x1
I0913 17:39:35.739748 13267 net.cpp:425] inception_4e/relu_1x1 <- inception_4e/1x1
I0913 17:39:35.739758 13267 net.cpp:386] inception_4e/relu_1x1 -> inception_4e/1x1 (in-place)
I0913 17:39:35.740181 13267 net.cpp:141] Setting up inception_4e/relu_1x1
I0913 17:39:35.740195 13267 net.cpp:148] Top shape: 10 256 14 14 (501760)
I0913 17:39:35.740200 13267 net.cpp:156] Memory required for data: 498122240
I0913 17:39:35.740205 13267 layer_factory.hpp:77] Creating layer inception_4e/3x3_reduce
I0913 17:39:35.740221 13267 net.cpp:91] Creating Layer inception_4e/3x3_reduce
I0913 17:39:35.740226 13267 net.cpp:425] inception_4e/3x3_reduce <- inception_4d/output_inception_4d/output_0_split_1
I0913 17:39:35.740238 13267 net.cpp:399] inception_4e/3x3_reduce -> inception_4e/3x3_reduce
I0913 17:39:35.742414 13267 net.cpp:141] Setting up inception_4e/3x3_reduce
I0913 17:39:35.742446 13267 net.cpp:148] Top shape: 10 160 14 14 (313600)
I0913 17:39:35.742452 13267 net.cpp:156] Memory required for data: 499376640
I0913 17:39:35.742461 13267 layer_factory.hpp:77] Creating layer inception_4e/relu_3x3_reduce
I0913 17:39:35.742471 13267 net.cpp:91] Creating Layer inception_4e/relu_3x3_reduce
I0913 17:39:35.742476 13267 net.cpp:425] inception_4e/relu_3x3_reduce <- inception_4e/3x3_reduce
I0913 17:39:35.742485 13267 net.cpp:386] inception_4e/relu_3x3_reduce -> inception_4e/3x3_reduce (in-place)
I0913 17:39:35.742727 13267 net.cpp:141] Setting up inception_4e/relu_3x3_reduce
I0913 17:39:35.742738 13267 net.cpp:148] Top shape: 10 160 14 14 (313600)
I0913 17:39:35.742743 13267 net.cpp:156] Memory required for data: 500631040
I0913 17:39:35.742748 13267 layer_factory.hpp:77] Creating layer inception_4e/3x3
I0913 17:39:35.742763 13267 net.cpp:91] Creating Layer inception_4e/3x3
I0913 17:39:35.742769 13267 net.cpp:425] inception_4e/3x3 <- inception_4e/3x3_reduce
I0913 17:39:35.742780 13267 net.cpp:399] inception_4e/3x3 -> inception_4e/3x3
I0913 17:39:35.748937 13267 net.cpp:141] Setting up inception_4e/3x3
I0913 17:39:35.748956 13267 net.cpp:148] Top shape: 10 320 14 14 (627200)
I0913 17:39:35.748961 13267 net.cpp:156] Memory required for data: 503139840
I0913 17:39:35.748971 13267 layer_factory.hpp:77] Creating layer inception_4e/relu_3x3
I0913 17:39:35.748983 13267 net.cpp:91] Creating Layer inception_4e/relu_3x3
I0913 17:39:35.748991 13267 net.cpp:425] inception_4e/relu_3x3 <- inception_4e/3x3
I0913 17:39:35.748999 13267 net.cpp:386] inception_4e/relu_3x3 -> inception_4e/3x3 (in-place)
I0913 17:39:35.749438 13267 net.cpp:141] Setting up inception_4e/relu_3x3
I0913 17:39:35.749451 13267 net.cpp:148] Top shape: 10 320 14 14 (627200)
I0913 17:39:35.749456 13267 net.cpp:156] Memory required for data: 505648640
I0913 17:39:35.749461 13267 layer_factory.hpp:77] Creating layer inception_4e/5x5_reduce
I0913 17:39:35.749477 13267 net.cpp:91] Creating Layer inception_4e/5x5_reduce
I0913 17:39:35.749483 13267 net.cpp:425] inception_4e/5x5_reduce <- inception_4d/output_inception_4d/output_0_split_2
I0913 17:39:35.749496 13267 net.cpp:399] inception_4e/5x5_reduce -> inception_4e/5x5_reduce
I0913 17:39:35.750996 13267 net.cpp:141] Setting up inception_4e/5x5_reduce
I0913 17:39:35.751025 13267 net.cpp:148] Top shape: 10 32 14 14 (62720)
I0913 17:39:35.751031 13267 net.cpp:156] Memory required for data: 505899520
I0913 17:39:35.751040 13267 layer_factory.hpp:77] Creating layer inception_4e/relu_5x5_reduce
I0913 17:39:35.751051 13267 net.cpp:91] Creating Layer inception_4e/relu_5x5_reduce
I0913 17:39:35.751057 13267 net.cpp:425] inception_4e/relu_5x5_reduce <- inception_4e/5x5_reduce
I0913 17:39:35.751065 13267 net.cpp:386] inception_4e/relu_5x5_reduce -> inception_4e/5x5_reduce (in-place)
I0913 17:39:35.751484 13267 net.cpp:141] Setting up inception_4e/relu_5x5_reduce
I0913 17:39:35.751499 13267 net.cpp:148] Top shape: 10 32 14 14 (62720)
I0913 17:39:35.751504 13267 net.cpp:156] Memory required for data: 506150400
I0913 17:39:35.751509 13267 layer_factory.hpp:77] Creating layer inception_4e/5x5
I0913 17:39:35.751525 13267 net.cpp:91] Creating Layer inception_4e/5x5
I0913 17:39:35.751533 13267 net.cpp:425] inception_4e/5x5 <- inception_4e/5x5_reduce
I0913 17:39:35.751541 13267 net.cpp:399] inception_4e/5x5 -> inception_4e/5x5
I0913 17:39:35.754628 13267 net.cpp:141] Setting up inception_4e/5x5
I0913 17:39:35.754647 13267 net.cpp:148] Top shape: 10 128 14 14 (250880)
I0913 17:39:35.754652 13267 net.cpp:156] Memory required for data: 507153920
I0913 17:39:35.754660 13267 layer_factory.hpp:77] Creating layer inception_4e/relu_5x5
I0913 17:39:35.754680 13267 net.cpp:91] Creating Layer inception_4e/relu_5x5
I0913 17:39:35.754688 13267 net.cpp:425] inception_4e/relu_5x5 <- inception_4e/5x5
I0913 17:39:35.754699 13267 net.cpp:386] inception_4e/relu_5x5 -> inception_4e/5x5 (in-place)
I0913 17:39:35.754956 13267 net.cpp:141] Setting up inception_4e/relu_5x5
I0913 17:39:35.754971 13267 net.cpp:148] Top shape: 10 128 14 14 (250880)
I0913 17:39:35.754976 13267 net.cpp:156] Memory required for data: 508157440
I0913 17:39:35.754981 13267 layer_factory.hpp:77] Creating layer inception_4e/pool
I0913 17:39:35.754989 13267 net.cpp:91] Creating Layer inception_4e/pool
I0913 17:39:35.754995 13267 net.cpp:425] inception_4e/pool <- inception_4d/output_inception_4d/output_0_split_3
I0913 17:39:35.755003 13267 net.cpp:399] inception_4e/pool -> inception_4e/pool
I0913 17:39:35.755075 13267 net.cpp:141] Setting up inception_4e/pool
I0913 17:39:35.755085 13267 net.cpp:148] Top shape: 10 528 14 14 (1034880)
I0913 17:39:35.755090 13267 net.cpp:156] Memory required for data: 512296960
I0913 17:39:35.755095 13267 layer_factory.hpp:77] Creating layer inception_4e/pool_proj
I0913 17:39:35.755110 13267 net.cpp:91] Creating Layer inception_4e/pool_proj
I0913 17:39:35.755116 13267 net.cpp:425] inception_4e/pool_proj <- inception_4e/pool
I0913 17:39:35.755127 13267 net.cpp:399] inception_4e/pool_proj -> inception_4e/pool_proj
I0913 17:39:35.757192 13267 net.cpp:141] Setting up inception_4e/pool_proj
I0913 17:39:35.757211 13267 net.cpp:148] Top shape: 10 128 14 14 (250880)
I0913 17:39:35.757216 13267 net.cpp:156] Memory required for data: 513300480
I0913 17:39:35.757225 13267 layer_factory.hpp:77] Creating layer inception_4e/relu_pool_proj
I0913 17:39:35.757235 13267 net.cpp:91] Creating Layer inception_4e/relu_pool_proj
I0913 17:39:35.757241 13267 net.cpp:425] inception_4e/relu_pool_proj <- inception_4e/pool_proj
I0913 17:39:35.757249 13267 net.cpp:386] inception_4e/relu_pool_proj -> inception_4e/pool_proj (in-place)
I0913 17:39:35.757665 13267 net.cpp:141] Setting up inception_4e/relu_pool_proj
I0913 17:39:35.757678 13267 net.cpp:148] Top shape: 10 128 14 14 (250880)
I0913 17:39:35.757683 13267 net.cpp:156] Memory required for data: 514304000
I0913 17:39:35.757688 13267 layer_factory.hpp:77] Creating layer inception_4e/output
I0913 17:39:35.757697 13267 net.cpp:91] Creating Layer inception_4e/output
I0913 17:39:35.757704 13267 net.cpp:425] inception_4e/output <- inception_4e/1x1
I0913 17:39:35.757709 13267 net.cpp:425] inception_4e/output <- inception_4e/3x3
I0913 17:39:35.757725 13267 net.cpp:425] inception_4e/output <- inception_4e/5x5
I0913 17:39:35.757731 13267 net.cpp:425] inception_4e/output <- inception_4e/pool_proj
I0913 17:39:35.757738 13267 net.cpp:399] inception_4e/output -> inception_4e/output
I0913 17:39:35.757783 13267 net.cpp:141] Setting up inception_4e/output
I0913 17:39:35.757793 13267 net.cpp:148] Top shape: 10 832 14 14 (1630720)
I0913 17:39:35.757798 13267 net.cpp:156] Memory required for data: 520826880
I0913 17:39:35.757803 13267 layer_factory.hpp:77] Creating layer pool4/3x3_s2
I0913 17:39:35.757815 13267 net.cpp:91] Creating Layer pool4/3x3_s2
I0913 17:39:35.757822 13267 net.cpp:425] pool4/3x3_s2 <- inception_4e/output
I0913 17:39:35.757830 13267 net.cpp:399] pool4/3x3_s2 -> pool4/3x3_s2
I0913 17:39:35.757895 13267 net.cpp:141] Setting up pool4/3x3_s2
I0913 17:39:35.757905 13267 net.cpp:148] Top shape: 10 832 7 7 (407680)
I0913 17:39:35.757910 13267 net.cpp:156] Memory required for data: 522457600
I0913 17:39:35.757915 13267 layer_factory.hpp:77] Creating layer pool4/3x3_s2_pool4/3x3_s2_0_split
I0913 17:39:35.757925 13267 net.cpp:91] Creating Layer pool4/3x3_s2_pool4/3x3_s2_0_split
I0913 17:39:35.757930 13267 net.cpp:425] pool4/3x3_s2_pool4/3x3_s2_0_split <- pool4/3x3_s2
I0913 17:39:35.757936 13267 net.cpp:399] pool4/3x3_s2_pool4/3x3_s2_0_split -> pool4/3x3_s2_pool4/3x3_s2_0_split_0
I0913 17:39:35.757946 13267 net.cpp:399] pool4/3x3_s2_pool4/3x3_s2_0_split -> pool4/3x3_s2_pool4/3x3_s2_0_split_1
I0913 17:39:35.757953 13267 net.cpp:399] pool4/3x3_s2_pool4/3x3_s2_0_split -> pool4/3x3_s2_pool4/3x3_s2_0_split_2
I0913 17:39:35.757961 13267 net.cpp:399] pool4/3x3_s2_pool4/3x3_s2_0_split -> pool4/3x3_s2_pool4/3x3_s2_0_split_3
I0913 17:39:35.758070 13267 net.cpp:141] Setting up pool4/3x3_s2_pool4/3x3_s2_0_split
I0913 17:39:35.758085 13267 net.cpp:148] Top shape: 10 832 7 7 (407680)
I0913 17:39:35.758091 13267 net.cpp:148] Top shape: 10 832 7 7 (407680)
I0913 17:39:35.758097 13267 net.cpp:148] Top shape: 10 832 7 7 (407680)
I0913 17:39:35.758102 13267 net.cpp:148] Top shape: 10 832 7 7 (407680)
I0913 17:39:35.758106 13267 net.cpp:156] Memory required for data: 528980480
I0913 17:39:35.758111 13267 layer_factory.hpp:77] Creating layer inception_5a/1x1
I0913 17:39:35.758131 13267 net.cpp:91] Creating Layer inception_5a/1x1
I0913 17:39:35.758136 13267 net.cpp:425] inception_5a/1x1 <- pool4/3x3_s2_pool4/3x3_s2_0_split_0
I0913 17:39:35.758147 13267 net.cpp:399] inception_5a/1x1 -> inception_5a/1x1
I0913 17:39:35.761828 13267 net.cpp:141] Setting up inception_5a/1x1
I0913 17:39:35.761859 13267 net.cpp:148] Top shape: 10 256 7 7 (125440)
I0913 17:39:35.761865 13267 net.cpp:156] Memory required for data: 529482240
I0913 17:39:35.761874 13267 layer_factory.hpp:77] Creating layer inception_5a/relu_1x1
I0913 17:39:35.761883 13267 net.cpp:91] Creating Layer inception_5a/relu_1x1
I0913 17:39:35.761888 13267 net.cpp:425] inception_5a/relu_1x1 <- inception_5a/1x1
I0913 17:39:35.761898 13267 net.cpp:386] inception_5a/relu_1x1 -> inception_5a/1x1 (in-place)
I0913 17:39:35.762320 13267 net.cpp:141] Setting up inception_5a/relu_1x1
I0913 17:39:35.762332 13267 net.cpp:148] Top shape: 10 256 7 7 (125440)
I0913 17:39:35.762337 13267 net.cpp:156] Memory required for data: 529984000
I0913 17:39:35.762342 13267 layer_factory.hpp:77] Creating layer inception_5a/3x3_reduce
I0913 17:39:35.762357 13267 net.cpp:91] Creating Layer inception_5a/3x3_reduce
I0913 17:39:35.762364 13267 net.cpp:425] inception_5a/3x3_reduce <- pool4/3x3_s2_pool4/3x3_s2_0_split_1
I0913 17:39:35.762380 13267 net.cpp:399] inception_5a/3x3_reduce -> inception_5a/3x3_reduce
I0913 17:39:35.765738 13267 net.cpp:141] Setting up inception_5a/3x3_reduce
I0913 17:39:35.765758 13267 net.cpp:148] Top shape: 10 160 7 7 (78400)
I0913 17:39:35.765763 13267 net.cpp:156] Memory required for data: 530297600
I0913 17:39:35.765772 13267 layer_factory.hpp:77] Creating layer inception_5a/relu_3x3_reduce
I0913 17:39:35.765784 13267 net.cpp:91] Creating Layer inception_5a/relu_3x3_reduce
I0913 17:39:35.765791 13267 net.cpp:425] inception_5a/relu_3x3_reduce <- inception_5a/3x3_reduce
I0913 17:39:35.765799 13267 net.cpp:386] inception_5a/relu_3x3_reduce -> inception_5a/3x3_reduce (in-place)
I0913 17:39:35.766041 13267 net.cpp:141] Setting up inception_5a/relu_3x3_reduce
I0913 17:39:35.766053 13267 net.cpp:148] Top shape: 10 160 7 7 (78400)
I0913 17:39:35.766057 13267 net.cpp:156] Memory required for data: 530611200
I0913 17:39:35.766063 13267 layer_factory.hpp:77] Creating layer inception_5a/3x3
I0913 17:39:35.766078 13267 net.cpp:91] Creating Layer inception_5a/3x3
I0913 17:39:35.766085 13267 net.cpp:425] inception_5a/3x3 <- inception_5a/3x3_reduce
I0913 17:39:35.766095 13267 net.cpp:399] inception_5a/3x3 -> inception_5a/3x3
I0913 17:39:35.772796 13267 net.cpp:141] Setting up inception_5a/3x3
I0913 17:39:35.772816 13267 net.cpp:148] Top shape: 10 320 7 7 (156800)
I0913 17:39:35.772821 13267 net.cpp:156] Memory required for data: 531238400
I0913 17:39:35.772835 13267 layer_factory.hpp:77] Creating layer inception_5a/relu_3x3
I0913 17:39:35.772843 13267 net.cpp:91] Creating Layer inception_5a/relu_3x3
I0913 17:39:35.772850 13267 net.cpp:425] inception_5a/relu_3x3 <- inception_5a/3x3
I0913 17:39:35.772856 13267 net.cpp:386] inception_5a/relu_3x3 -> inception_5a/3x3 (in-place)
I0913 17:39:35.773303 13267 net.cpp:141] Setting up inception_5a/relu_3x3
I0913 17:39:35.773316 13267 net.cpp:148] Top shape: 10 320 7 7 (156800)
I0913 17:39:35.773324 13267 net.cpp:156] Memory required for data: 531865600
I0913 17:39:35.773329 13267 layer_factory.hpp:77] Creating layer inception_5a/5x5_reduce
I0913 17:39:35.773342 13267 net.cpp:91] Creating Layer inception_5a/5x5_reduce
I0913 17:39:35.773349 13267 net.cpp:425] inception_5a/5x5_reduce <- pool4/3x3_s2_pool4/3x3_s2_0_split_2
I0913 17:39:35.773361 13267 net.cpp:399] inception_5a/5x5_reduce -> inception_5a/5x5_reduce
I0913 17:39:35.774983 13267 net.cpp:141] Setting up inception_5a/5x5_reduce
I0913 17:39:35.775001 13267 net.cpp:148] Top shape: 10 32 7 7 (15680)
I0913 17:39:35.775005 13267 net.cpp:156] Memory required for data: 531928320
I0913 17:39:35.775014 13267 layer_factory.hpp:77] Creating layer inception_5a/relu_5x5_reduce
I0913 17:39:35.775025 13267 net.cpp:91] Creating Layer inception_5a/relu_5x5_reduce
I0913 17:39:35.775032 13267 net.cpp:425] inception_5a/relu_5x5_reduce <- inception_5a/5x5_reduce
I0913 17:39:35.775039 13267 net.cpp:386] inception_5a/relu_5x5_reduce -> inception_5a/5x5_reduce (in-place)
I0913 17:39:35.775472 13267 net.cpp:141] Setting up inception_5a/relu_5x5_reduce
I0913 17:39:35.775485 13267 net.cpp:148] Top shape: 10 32 7 7 (15680)
I0913 17:39:35.775492 13267 net.cpp:156] Memory required for data: 531991040
I0913 17:39:35.775497 13267 layer_factory.hpp:77] Creating layer inception_5a/5x5
I0913 17:39:35.775511 13267 net.cpp:91] Creating Layer inception_5a/5x5
I0913 17:39:35.775516 13267 net.cpp:425] inception_5a/5x5 <- inception_5a/5x5_reduce
I0913 17:39:35.775529 13267 net.cpp:399] inception_5a/5x5 -> inception_5a/5x5
I0913 17:39:35.777900 13267 net.cpp:141] Setting up inception_5a/5x5
I0913 17:39:35.777932 13267 net.cpp:148] Top shape: 10 128 7 7 (62720)
I0913 17:39:35.777938 13267 net.cpp:156] Memory required for data: 532241920
I0913 17:39:35.777947 13267 layer_factory.hpp:77] Creating layer inception_5a/relu_5x5
I0913 17:39:35.777982 13267 net.cpp:91] Creating Layer inception_5a/relu_5x5
I0913 17:39:35.777989 13267 net.cpp:425] inception_5a/relu_5x5 <- inception_5a/5x5
I0913 17:39:35.777997 13267 net.cpp:386] inception_5a/relu_5x5 -> inception_5a/5x5 (in-place)
I0913 17:39:35.778236 13267 net.cpp:141] Setting up inception_5a/relu_5x5
I0913 17:39:35.778249 13267 net.cpp:148] Top shape: 10 128 7 7 (62720)
I0913 17:39:35.778252 13267 net.cpp:156] Memory required for data: 532492800
I0913 17:39:35.778259 13267 layer_factory.hpp:77] Creating layer inception_5a/pool
I0913 17:39:35.778270 13267 net.cpp:91] Creating Layer inception_5a/pool
I0913 17:39:35.778276 13267 net.cpp:425] inception_5a/pool <- pool4/3x3_s2_pool4/3x3_s2_0_split_3
I0913 17:39:35.778285 13267 net.cpp:399] inception_5a/pool -> inception_5a/pool
I0913 17:39:35.778358 13267 net.cpp:141] Setting up inception_5a/pool
I0913 17:39:35.778368 13267 net.cpp:148] Top shape: 10 832 7 7 (407680)
I0913 17:39:35.778373 13267 net.cpp:156] Memory required for data: 534123520
I0913 17:39:35.778378 13267 layer_factory.hpp:77] Creating layer inception_5a/pool_proj
I0913 17:39:35.778393 13267 net.cpp:91] Creating Layer inception_5a/pool_proj
I0913 17:39:35.778398 13267 net.cpp:425] inception_5a/pool_proj <- inception_5a/pool
I0913 17:39:35.778409 13267 net.cpp:399] inception_5a/pool_proj -> inception_5a/pool_proj
I0913 17:39:35.781544 13267 net.cpp:141] Setting up inception_5a/pool_proj
I0913 17:39:35.781563 13267 net.cpp:148] Top shape: 10 128 7 7 (62720)
I0913 17:39:35.781569 13267 net.cpp:156] Memory required for data: 534374400
I0913 17:39:35.781577 13267 layer_factory.hpp:77] Creating layer inception_5a/relu_pool_proj
I0913 17:39:35.781590 13267 net.cpp:91] Creating Layer inception_5a/relu_pool_proj
I0913 17:39:35.781597 13267 net.cpp:425] inception_5a/relu_pool_proj <- inception_5a/pool_proj
I0913 17:39:35.781606 13267 net.cpp:386] inception_5a/relu_pool_proj -> inception_5a/pool_proj (in-place)
I0913 17:39:35.782050 13267 net.cpp:141] Setting up inception_5a/relu_pool_proj
I0913 17:39:35.782064 13267 net.cpp:148] Top shape: 10 128 7 7 (62720)
I0913 17:39:35.782068 13267 net.cpp:156] Memory required for data: 534625280
I0913 17:39:35.782073 13267 layer_factory.hpp:77] Creating layer inception_5a/output
I0913 17:39:35.782083 13267 net.cpp:91] Creating Layer inception_5a/output
I0913 17:39:35.782088 13267 net.cpp:425] inception_5a/output <- inception_5a/1x1
I0913 17:39:35.782094 13267 net.cpp:425] inception_5a/output <- inception_5a/3x3
I0913 17:39:35.782099 13267 net.cpp:425] inception_5a/output <- inception_5a/5x5
I0913 17:39:35.782104 13267 net.cpp:425] inception_5a/output <- inception_5a/pool_proj
I0913 17:39:35.782114 13267 net.cpp:399] inception_5a/output -> inception_5a/output
I0913 17:39:35.782161 13267 net.cpp:141] Setting up inception_5a/output
I0913 17:39:35.782171 13267 net.cpp:148] Top shape: 10 832 7 7 (407680)
I0913 17:39:35.782176 13267 net.cpp:156] Memory required for data: 536256000
I0913 17:39:35.782181 13267 layer_factory.hpp:77] Creating layer inception_5a/output_inception_5a/output_0_split
I0913 17:39:35.782193 13267 net.cpp:91] Creating Layer inception_5a/output_inception_5a/output_0_split
I0913 17:39:35.782198 13267 net.cpp:425] inception_5a/output_inception_5a/output_0_split <- inception_5a/output
I0913 17:39:35.782205 13267 net.cpp:399] inception_5a/output_inception_5a/output_0_split -> inception_5a/output_inception_5a/output_0_split_0
I0913 17:39:35.782214 13267 net.cpp:399] inception_5a/output_inception_5a/output_0_split -> inception_5a/output_inception_5a/output_0_split_1
I0913 17:39:35.782225 13267 net.cpp:399] inception_5a/output_inception_5a/output_0_split -> inception_5a/output_inception_5a/output_0_split_2
I0913 17:39:35.782234 13267 net.cpp:399] inception_5a/output_inception_5a/output_0_split -> inception_5a/output_inception_5a/output_0_split_3
I0913 17:39:35.782338 13267 net.cpp:141] Setting up inception_5a/output_inception_5a/output_0_split
I0913 17:39:35.782348 13267 net.cpp:148] Top shape: 10 832 7 7 (407680)
I0913 17:39:35.782354 13267 net.cpp:148] Top shape: 10 832 7 7 (407680)
I0913 17:39:35.782361 13267 net.cpp:148] Top shape: 10 832 7 7 (407680)
I0913 17:39:35.782366 13267 net.cpp:148] Top shape: 10 832 7 7 (407680)
I0913 17:39:35.782369 13267 net.cpp:156] Memory required for data: 542778880
I0913 17:39:35.782374 13267 layer_factory.hpp:77] Creating layer inception_5b/1x1
I0913 17:39:35.782388 13267 net.cpp:91] Creating Layer inception_5b/1x1
I0913 17:39:35.782394 13267 net.cpp:425] inception_5b/1x1 <- inception_5a/output_inception_5a/output_0_split_0
I0913 17:39:35.782405 13267 net.cpp:399] inception_5b/1x1 -> inception_5b/1x1
I0913 17:39:35.787075 13267 net.cpp:141] Setting up inception_5b/1x1
I0913 17:39:35.787106 13267 net.cpp:148] Top shape: 10 384 7 7 (188160)
I0913 17:39:35.787112 13267 net.cpp:156] Memory required for data: 543531520
I0913 17:39:35.787122 13267 layer_factory.hpp:77] Creating layer inception_5b/relu_1x1
I0913 17:39:35.787130 13267 net.cpp:91] Creating Layer inception_5b/relu_1x1
I0913 17:39:35.787137 13267 net.cpp:425] inception_5b/relu_1x1 <- inception_5b/1x1
I0913 17:39:35.787147 13267 net.cpp:386] inception_5b/relu_1x1 -> inception_5b/1x1 (in-place)
I0913 17:39:35.787577 13267 net.cpp:141] Setting up inception_5b/relu_1x1
I0913 17:39:35.787590 13267 net.cpp:148] Top shape: 10 384 7 7 (188160)
I0913 17:39:35.787595 13267 net.cpp:156] Memory required for data: 544284160
I0913 17:39:35.787600 13267 layer_factory.hpp:77] Creating layer inception_5b/3x3_reduce
I0913 17:39:35.787616 13267 net.cpp:91] Creating Layer inception_5b/3x3_reduce
I0913 17:39:35.787622 13267 net.cpp:425] inception_5b/3x3_reduce <- inception_5a/output_inception_5a/output_0_split_1
I0913 17:39:35.787634 13267 net.cpp:399] inception_5b/3x3_reduce -> inception_5b/3x3_reduce
I0913 17:39:35.791232 13267 net.cpp:141] Setting up inception_5b/3x3_reduce
I0913 17:39:35.791251 13267 net.cpp:148] Top shape: 10 192 7 7 (94080)
I0913 17:39:35.791256 13267 net.cpp:156] Memory required for data: 544660480
I0913 17:39:35.791265 13267 layer_factory.hpp:77] Creating layer inception_5b/relu_3x3_reduce
I0913 17:39:35.791275 13267 net.cpp:91] Creating Layer inception_5b/relu_3x3_reduce
I0913 17:39:35.791281 13267 net.cpp:425] inception_5b/relu_3x3_reduce <- inception_5b/3x3_reduce
I0913 17:39:35.791292 13267 net.cpp:386] inception_5b/relu_3x3_reduce -> inception_5b/3x3_reduce (in-place)
I0913 17:39:35.791537 13267 net.cpp:141] Setting up inception_5b/relu_3x3_reduce
I0913 17:39:35.791549 13267 net.cpp:148] Top shape: 10 192 7 7 (94080)
I0913 17:39:35.791558 13267 net.cpp:156] Memory required for data: 545036800
I0913 17:39:35.791565 13267 layer_factory.hpp:77] Creating layer inception_5b/3x3
I0913 17:39:35.791585 13267 net.cpp:91] Creating Layer inception_5b/3x3
I0913 17:39:35.791592 13267 net.cpp:425] inception_5b/3x3 <- inception_5b/3x3_reduce
I0913 17:39:35.791605 13267 net.cpp:399] inception_5b/3x3 -> inception_5b/3x3
I0913 17:39:35.799697 13267 net.cpp:141] Setting up inception_5b/3x3
I0913 17:39:35.799716 13267 net.cpp:148] Top shape: 10 384 7 7 (188160)
I0913 17:39:35.799722 13267 net.cpp:156] Memory required for data: 545789440
I0913 17:39:35.799731 13267 layer_factory.hpp:77] Creating layer inception_5b/relu_3x3
I0913 17:39:35.799741 13267 net.cpp:91] Creating Layer inception_5b/relu_3x3
I0913 17:39:35.799746 13267 net.cpp:425] inception_5b/relu_3x3 <- inception_5b/3x3
I0913 17:39:35.799756 13267 net.cpp:386] inception_5b/relu_3x3 -> inception_5b/3x3 (in-place)
I0913 17:39:35.800201 13267 net.cpp:141] Setting up inception_5b/relu_3x3
I0913 17:39:35.800220 13267 net.cpp:148] Top shape: 10 384 7 7 (188160)
I0913 17:39:35.800225 13267 net.cpp:156] Memory required for data: 546542080
I0913 17:39:35.800230 13267 layer_factory.hpp:77] Creating layer inception_5b/5x5_reduce
I0913 17:39:35.800246 13267 net.cpp:91] Creating Layer inception_5b/5x5_reduce
I0913 17:39:35.800252 13267 net.cpp:425] inception_5b/5x5_reduce <- inception_5a/output_inception_5a/output_0_split_2
I0913 17:39:35.800264 13267 net.cpp:399] inception_5b/5x5_reduce -> inception_5b/5x5_reduce
I0913 17:39:35.802007 13267 net.cpp:141] Setting up inception_5b/5x5_reduce
I0913 17:39:35.802031 13267 net.cpp:148] Top shape: 10 48 7 7 (23520)
I0913 17:39:35.802036 13267 net.cpp:156] Memory required for data: 546636160
I0913 17:39:35.802045 13267 layer_factory.hpp:77] Creating layer inception_5b/relu_5x5_reduce
I0913 17:39:35.802055 13267 net.cpp:91] Creating Layer inception_5b/relu_5x5_reduce
I0913 17:39:35.802062 13267 net.cpp:425] inception_5b/relu_5x5_reduce <- inception_5b/5x5_reduce
I0913 17:39:35.802072 13267 net.cpp:386] inception_5b/relu_5x5_reduce -> inception_5b/5x5_reduce (in-place)
I0913 17:39:35.802512 13267 net.cpp:141] Setting up inception_5b/relu_5x5_reduce
I0913 17:39:35.802531 13267 net.cpp:148] Top shape: 10 48 7 7 (23520)
I0913 17:39:35.802537 13267 net.cpp:156] Memory required for data: 546730240
I0913 17:39:35.802542 13267 layer_factory.hpp:77] Creating layer inception_5b/5x5
I0913 17:39:35.802557 13267 net.cpp:91] Creating Layer inception_5b/5x5
I0913 17:39:35.802564 13267 net.cpp:425] inception_5b/5x5 <- inception_5b/5x5_reduce
I0913 17:39:35.802572 13267 net.cpp:399] inception_5b/5x5 -> inception_5b/5x5
I0913 17:39:35.805629 13267 net.cpp:141] Setting up inception_5b/5x5
I0913 17:39:35.805647 13267 net.cpp:148] Top shape: 10 128 7 7 (62720)
I0913 17:39:35.805652 13267 net.cpp:156] Memory required for data: 546981120
I0913 17:39:35.805661 13267 layer_factory.hpp:77] Creating layer inception_5b/relu_5x5
I0913 17:39:35.805671 13267 net.cpp:91] Creating Layer inception_5b/relu_5x5
I0913 17:39:35.805676 13267 net.cpp:425] inception_5b/relu_5x5 <- inception_5b/5x5
I0913 17:39:35.805683 13267 net.cpp:386] inception_5b/relu_5x5 -> inception_5b/5x5 (in-place)
I0913 17:39:35.805935 13267 net.cpp:141] Setting up inception_5b/relu_5x5
I0913 17:39:35.805946 13267 net.cpp:148] Top shape: 10 128 7 7 (62720)
I0913 17:39:35.805951 13267 net.cpp:156] Memory required for data: 547232000
I0913 17:39:35.805956 13267 layer_factory.hpp:77] Creating layer inception_5b/pool
I0913 17:39:35.805969 13267 net.cpp:91] Creating Layer inception_5b/pool
I0913 17:39:35.805976 13267 net.cpp:425] inception_5b/pool <- inception_5a/output_inception_5a/output_0_split_3
I0913 17:39:35.805984 13267 net.cpp:399] inception_5b/pool -> inception_5b/pool
I0913 17:39:35.806063 13267 net.cpp:141] Setting up inception_5b/pool
I0913 17:39:35.806074 13267 net.cpp:148] Top shape: 10 832 7 7 (407680)
I0913 17:39:35.806078 13267 net.cpp:156] Memory required for data: 548862720
I0913 17:39:35.806083 13267 layer_factory.hpp:77] Creating layer inception_5b/pool_proj
I0913 17:39:35.806098 13267 net.cpp:91] Creating Layer inception_5b/pool_proj
I0913 17:39:35.806104 13267 net.cpp:425] inception_5b/pool_proj <- inception_5b/pool
I0913 17:39:35.806115 13267 net.cpp:399] inception_5b/pool_proj -> inception_5b/pool_proj
I0913 17:39:35.809236 13267 net.cpp:141] Setting up inception_5b/pool_proj
I0913 17:39:35.809254 13267 net.cpp:148] Top shape: 10 128 7 7 (62720)
I0913 17:39:35.809259 13267 net.cpp:156] Memory required for data: 549113600
I0913 17:39:35.809268 13267 layer_factory.hpp:77] Creating layer inception_5b/relu_pool_proj
I0913 17:39:35.809278 13267 net.cpp:91] Creating Layer inception_5b/relu_pool_proj
I0913 17:39:35.809286 13267 net.cpp:425] inception_5b/relu_pool_proj <- inception_5b/pool_proj
I0913 17:39:35.809293 13267 net.cpp:386] inception_5b/relu_pool_proj -> inception_5b/pool_proj (in-place)
I0913 17:39:35.809728 13267 net.cpp:141] Setting up inception_5b/relu_pool_proj
I0913 17:39:35.809744 13267 net.cpp:148] Top shape: 10 128 7 7 (62720)
I0913 17:39:35.809749 13267 net.cpp:156] Memory required for data: 549364480
I0913 17:39:35.809754 13267 layer_factory.hpp:77] Creating layer inception_5b/output
I0913 17:39:35.809767 13267 net.cpp:91] Creating Layer inception_5b/output
I0913 17:39:35.809772 13267 net.cpp:425] inception_5b/output <- inception_5b/1x1
I0913 17:39:35.809778 13267 net.cpp:425] inception_5b/output <- inception_5b/3x3
I0913 17:39:35.809784 13267 net.cpp:425] inception_5b/output <- inception_5b/5x5
I0913 17:39:35.809789 13267 net.cpp:425] inception_5b/output <- inception_5b/pool_proj
I0913 17:39:35.809797 13267 net.cpp:399] inception_5b/output -> inception_5b/output
I0913 17:39:35.809846 13267 net.cpp:141] Setting up inception_5b/output
I0913 17:39:35.809861 13267 net.cpp:148] Top shape: 10 1024 7 7 (501760)
I0913 17:39:35.809866 13267 net.cpp:156] Memory required for data: 551371520
I0913 17:39:35.809871 13267 layer_factory.hpp:77] Creating layer pool5/7x7_s1
I0913 17:39:35.809880 13267 net.cpp:91] Creating Layer pool5/7x7_s1
I0913 17:39:35.809885 13267 net.cpp:425] pool5/7x7_s1 <- inception_5b/output
I0913 17:39:35.809895 13267 net.cpp:399] pool5/7x7_s1 -> pool5/7x7_s1
I0913 17:39:35.810215 13267 net.cpp:141] Setting up pool5/7x7_s1
I0913 17:39:35.810230 13267 net.cpp:148] Top shape: 10 1024 1 1 (10240)
I0913 17:39:35.810235 13267 net.cpp:156] Memory required for data: 551412480
I0913 17:39:35.810240 13267 layer_factory.hpp:77] Creating layer pool5/drop_7x7_s1
I0913 17:39:35.810258 13267 net.cpp:91] Creating Layer pool5/drop_7x7_s1
I0913 17:39:35.810263 13267 net.cpp:425] pool5/drop_7x7_s1 <- pool5/7x7_s1
I0913 17:39:35.810269 13267 net.cpp:386] pool5/drop_7x7_s1 -> pool5/7x7_s1 (in-place)
I0913 17:39:35.810328 13267 net.cpp:141] Setting up pool5/drop_7x7_s1
I0913 17:39:35.810338 13267 net.cpp:148] Top shape: 10 1024 1 1 (10240)
I0913 17:39:35.810341 13267 net.cpp:156] Memory required for data: 551453440
I0913 17:39:35.810346 13267 layer_factory.hpp:77] Creating layer loss3/classifier
I0913 17:39:35.810367 13267 net.cpp:91] Creating Layer loss3/classifier
I0913 17:39:35.810374 13267 net.cpp:425] loss3/classifier <- pool5/7x7_s1
I0913 17:39:35.810380 13267 net.cpp:399] loss3/classifier -> loss3/classifier
I0913 17:39:35.820194 13267 net.cpp:141] Setting up loss3/classifier
I0913 17:39:35.820221 13267 net.cpp:148] Top shape: 10 1000 (10000)
I0913 17:39:35.820227 13267 net.cpp:156] Memory required for data: 551493440
I0913 17:39:35.820236 13267 layer_factory.hpp:77] Creating layer prob
I0913 17:39:35.820253 13267 net.cpp:91] Creating Layer prob
I0913 17:39:35.820260 13267 net.cpp:425] prob <- loss3/classifier
I0913 17:39:35.820266 13267 net.cpp:399] prob -> prob
I0913 17:39:35.820888 13267 net.cpp:141] Setting up prob
I0913 17:39:35.820904 13267 net.cpp:148] Top shape: 10 1000 (10000)
I0913 17:39:35.820910 13267 net.cpp:156] Memory required for data: 551533440
I0913 17:39:35.820915 13267 net.cpp:219] prob does not need backward computation.
I0913 17:39:35.820920 13267 net.cpp:219] loss3/classifier does not need backward computation.
I0913 17:39:35.820925 13267 net.cpp:219] pool5/drop_7x7_s1 does not need backward computation.
I0913 17:39:35.820930 13267 net.cpp:219] pool5/7x7_s1 does not need backward computation.
…
