…
Java HotSpot(TM) 64-Bit Server VM warning: You have loaded library /home/peifeng/work/run/storm102/data/workers/f8286739-a1b1-4fb1-b332-9c02ad6f008a/tmp/cvld3492064512304396977/libopencv_java310.xine1.so which might have disabled stack guard. The VM will try to fix the stack guard now.
It's highly recommended that you fix the library with 'execstack -c <libfile>', or link it with '-z noexecstack'.
WARNING: Logging before InitGoogleLogging() is written to STDERR
I0915 11:40:25.137123 24360 net.cpp:49] Initializing net from parameters: 
name: "GoogleNet"
state {
  phase: TEST
}
layer {
  name: "data"
  type: "Input"
  top: "data"
  input_param {
    shape {
      dim: 10
      dim: 3
      dim: 224
      dim: 224
    }
  }
}
layer {
  name: "conv1/7x7_s2"
  type: "Convolution"
  bottom: "data"
  top: "conv1/7x7_s2"
  param {
    lr_mult: 1
    decay_mult: 1
  }
  param {
    lr_mult: 2
    decay_mult: 0
  }
  convolution_param {
    num_output: 64
    pad: 3
    kernel_size: 7
    stride: 2
    weight_filler {
      type: "xavier"
      std: 0.1
    }
    bias_filler {
      type: "constant"
      value: 0.2
    }
  }
}
layer {
  name: "conv1/relu_7x7"
  type: "ReLU"
  bottom: "conv1/7x7_s2"
  top: "conv1/7x7_s2"
}
layer {
  name: "pool1/3x3_s2"
  type: "Pooling"
  bottom: "conv1/7x7_s2"
  top: "pool1/3x3_s2"
  pooling_param {
    pool: MAX
    kernel_size: 3
    stride: 2
  }
}
layer {
  name: "pool1/norm1"
  type: "LRN"
  bottom: "pool1/3x3_s2"
  top: "pool1/norm1"
  lrn_param {
    local_size: 5
    alpha: 0.0001
    beta: 0.75
  }
}
layer {
  name: "conv2/3x3_reduce"
  type: "Convolution"
  bottom: "pool1/norm1"
  top: "conv2/3x3_reduce"
  param {
    lr_mult: 1
    decay_mult: 1
  }
  param {
    lr_mult: 2
    decay_mult: 0
  }
  convolution_param {
    num_output: 64
    kernel_size: 1
    weight_filler {
      type: "xavier"
      std: 0.1
    }
    bias_filler {
      type: "constant"
      value: 0.2
    }
  }
}
layer {
  name: "conv2/relu_3x3_reduce"
  type: "ReLU"
  bottom: "conv2/3x3_reduce"
  top: "conv2/3x3_reduce"
}
layer {
  name: "conv2/3x3"
  type: "Convolution"
  bottom: "conv2/3x3_reduce"
  top: "conv2/3x3"
  param {
    lr_mult: 1
    decay_mult: 1
  }
  param {
    lr_mult: 2
    decay_mult: 0
  }
  convolution_param {
    num_output: 192
    pad: 1
    kernel_size: 3
    weight_filler {
      type: "xavier"
      std: 0.03
    }
    bias_filler {
      type: "constant"
      value: 0.2
    }
  }
}
layer {
  name: "conv2/relu_3x3"
  type: "ReLU"
  bottom: "conv2/3x3"
  top: "conv2/3x3"
}
layer {
  name: "conv2/norm2"
  type: "LRN"
  bottom: "conv2/3x3"
  top: "conv2/norm2"
  lrn_param {
    local_size: 5
    alpha: 0.0001
    beta: 0.75
  }
}
layer {
  name: "pool2/3x3_s2"
  type: "Pooling"
  bottom: "conv2/norm2"
  top: "pool2/3x3_s2"
  pooling_param {
    pool: MAX
    kernel_size: 3
    stride: 2
  }
}
layer {
  name: "inception_3a/1x1"
  type: "Convolution"
  bottom: "pool2/3x3_s2"
  top: "inception_3a/1x1"
  param {
    lr_mult: 1
    decay_mult: 1
  }
  param {
    lr_mult: 2
    decay_mult: 0
  }
  convolution_param {
    num_output: 64
    kernel_size: 1
    weight_filler {
      type: "xavier"
      std: 0.03
    }
    bias_filler {
      type: "constant"
      value: 0.2
    }
  }
}
layer {
  name: "inception_3a/relu_1x1"
  type: "ReLU"
  bottom: "inception_3a/1x1"
  top: "inception_3a/1x1"
}
layer {
  name: "inception_3a/3x3_reduce"
  type: "Convolution"
  bottom: "pool2/3x3_s2"
  top: "inception_3a/3x3_reduce"
  param {
    lr_mult: 1
    decay_mult: 1
  }
  param {
    lr_mult: 2
    decay_mult: 0
  }
  convolution_param {
    num_output: 96
    kernel_size: 1
    weight_filler {
      type: "xavier"
      std: 0.09
    }
    bias_filler {
      type: "constant"
      value: 0.2
    }
  }
}
layer {
  name: "inception_3a/relu_3x3_reduce"
  type: "ReLU"
  bottom: "inception_3a/3x3_reduce"
  top: "inception_3a/3x3_reduce"
}
layer {
  name: "inception_3a/3x3"
  type: "Convolution"
  bottom: "inception_3a/3x3_reduce"
  top: "inception_3a/3x3"
  param {
    lr_mult: 1
    decay_mult: 1
  }
  param {
    lr_mult: 2
    decay_mult: 0
  }
  convolution_param {
    num_output: 128
    pad: 1
    kernel_size: 3
    weight_filler {
      type: "xavier"
      std: 0.03
    }
    bias_filler {
      type: "constant"
      value: 0.2
    }
  }
}
layer {
  name: "inception_3a/relu_3x3"
  type: "ReLU"
  bottom: "inception_3a/3x3"
  top: "inception_3a/3x3"
}
layer {
  name: "inception_3a/5x5_reduce"
  type: "Convolution"
  bottom: "pool2/3x3_s2"
  top: "inception_3a/5x5_reduce"
  param {
    lr_mult: 1
    decay_mult: 1
  }
  param {
    lr_mult: 2
    decay_mult: 0
  }
  convolution_param {
    num_output: 16
    kernel_size: 1
    weight_filler {
      type: "xavier"
      std: 0.2
    }
    bias_filler {
      type: "constant"
      value: 0.2
    }
  }
}
layer {
  name: "inception_3a/relu_5x5_reduce"
  type: "ReLU"
  bottom: "inception_3a/5x5_reduce"
  top: "inception_3a/5x5_reduce"
}
layer {
  name: "inception_3a/5x5"
  type: "Convolution"
  bottom: "inception_3a/5x5_reduce"
  top: "inception_3a/5x5"
  param {
    lr_mult: 1
    decay_mult: 1
  }
  param {
    lr_mult: 2
    decay_mult: 0
  }
  convolution_param {
    num_output: 32
    pad: 2
    kernel_size: 5
    weight_filler {
      type: "xavier"
      std: 0.03
    }
    bias_filler {
      type: "constant"
      value: 0.2
    }
  }
}
layer {
  name: "inception_3a/relu_5x5"
  type: "ReLU"
  bottom: "inception_3a/5x5"
  top: "inception_3a/5x5"
}
layer {
  name: "inception_3a/pool"
  type: "Pooling"
  bottom: "pool2/3x3_s2"
  top: "inception_3a/pool"
  pooling_param {
    pool: MAX
    kernel_size: 3
    stride: 1
    pad: 1
  }
}
layer {
  name: "inception_3a/pool_proj"
  type: "Convolution"
  bottom: "inception_3a/pool"
  top: "inception_3a/pool_proj"
  param {
    lr_mult: 1
    decay_mult: 1
  }
  param {
    lr_mult: 2
    decay_mult: 0
  }
  convolution_param {
    num_output: 32
    kernel_size: 1
    weight_filler {
      type: "xavier"
      std: 0.1
    }
    bias_filler {
      type: "constant"
      value: 0.2
    }
  }
}
layer {
  name: "inception_3a/relu_pool_proj"
  type: "ReLU"
  bottom: "inception_3a/pool_proj"
  top: "inception_3a/pool_proj"
}
layer {
  name: "inception_3a/output"
  type: "Concat"
  bottom: "inception_3a/1x1"
  bottom: "inception_3a/3x3"
  bottom: "inception_3a/5x5"
  bottom: "inception_3a/pool_proj"
  top: "inception_3a/output"
}
layer {
  name: "inception_3b/1x1"
  type: "Convolution"
  bottom: "inception_3a/output"
  top: "inception_3b/1x1"
  param {
    lr_mult: 1
    decay_mult: 1
  }
  param {
    lr_mult: 2
    decay_mult: 0
  }
  convolution_param {
    num_output: 128
    kernel_size: 1
    weight_filler {
      type: "xavier"
      std: 0.03
    }
    bias_filler {
      type: "constant"
      value: 0.2
    }
  }
}
layer {
  name: "inception_3b/relu_1x1"
  type: "ReLU"
  bottom: "inception_3b/1x1"
  top: "inception_3b/1x1"
}
layer {
  name: "inception_3b/3x3_reduce"
  type: "Convolution"
  bottom: "inception_3a/output"
  top: "inception_3b/3x3_reduce"
  param {
    lr_mult: 1
    decay_mult: 1
  }
  param {
    lr_mult: 2
    decay_mult: 0
  }
  convolution_param {
    num_output: 128
    kernel_size: 1
    weight_filler {
      type: "xavier"
      std: 0.09
    }
    bias_filler {
      type: "constant"
      value: 0.2
    }
  }
}
layer {
  name: "inception_3b/relu_3x3_reduce"
  type: "ReLU"
  bottom: "inception_3b/3x3_reduce"
  top: "inception_3b/3x3_reduce"
}
layer {
  name: "inception_3b/3x3"
  type: "Convolution"
  bottom: "inception_3b/3x3_reduce"
  top: "inception_3b/3x3"
  param {
    lr_mult: 1
    decay_mult: 1
  }
  param {
    lr_mult: 2
    decay_mult: 0
  }
  convolution_param {
    num_output: 192
    pad: 1
    kernel_size: 3
    weight_filler {
      type: "xavier"
      std: 0.03
    }
    bias_filler {
      type: "constant"
      value: 0.2
    }
  }
}
layer {
  name: "inception_3b/relu_3x3"
  type: "ReLU"
  bottom: "inception_3b/3x3"
  top: "inception_3b/3x3"
}
layer {
  name: "inception_3b/5x5_reduce"
  type: "Convolution"
  bottom: "inception_3a/output"
  top: "inception_3b/5x5_reduce"
  param {
    lr_mult: 1
    decay_mult: 1
  }
  param {
    lr_mult: 2
    decay_mult: 0
  }
  convolution_param {
    num_output: 32
    kernel_size: 1
    weight_filler {
      type: "xavier"
      std: 0.2
    }
    bias_filler {
      type: "constant"
      value: 0.2
    }
  }
}
layer {
  name: "inception_3b/relu_5x5_reduce"
  type: "ReLU"
  bottom: "inception_3b/5x5_reduce"
  top: "inception_3b/5x5_reduce"
}
layer {
  name: "inception_3b/5x5"
  type: "Convolution"
  bottom: "inception_3b/5x5_reduce"
  top: "inception_3b/5x5"
  param {
    lr_mult: 1
    decay_mult: 1
  }
  param {
    lr_mult: 2
    decay_mult: 0
  }
  convolution_param {
    num_output: 96
    pad: 2
    kernel_size: 5
    weight_filler {
      type: "xavier"
      std: 0.03
    }
    bias_filler {
      type: "constant"
      value: 0.2
    }
  }
}
layer {
  name: "inception_3b/relu_5x5"
  type: "ReLU"
  bottom: "inception_3b/5x5"
  top: "inception_3b/5x5"
}
layer {
  name: "inception_3b/pool"
  type: "Pooling"
  bottom: "inception_3a/output"
  top: "inception_3b/pool"
  pooling_param {
    pool: MAX
    kernel_size: 3
    stride: 1
    pad: 1
  }
}
layer {
  name: "inception_3b/pool_proj"
  type: "Convolution"
  bottom: "inception_3b/pool"
  top: "inception_3b/pool_proj"
  param {
    lr_mult: 1
    decay_mult: 1
  }
  param {
    lr_mult: 2
    decay_mult: 0
  }
  convolution_param {
    num_output: 64
    kernel_size: 1
    weight_filler {
      type: "xavier"
      std: 0.1
    }
    bias_filler {
      type: "constant"
      value: 0.2
    }
  }
}
layer {
  name: "inception_3b/relu_pool_proj"
  type: "ReLU"
  bottom: "inception_3b/pool_proj"
  top: "inception_3b/pool_proj"
}
layer {
  name: "inception_3b/output"
  type: "Concat"
  bottom: "inception_3b/1x1"
  bottom: "inception_3b/3x3"
  bottom: "inception_3b/5x5"
  bottom: "inception_3b/pool_proj"
  top: "inception_3b/output"
}
layer {
  name: "pool3/3x3_s2"
  type: "Pooling"
  bottom: "inception_3b/output"
  top: "pool3/3x3_s2"
  pooling_param {
    pool: MAX
    kernel_size: 3
    stride: 2
  }
}
layer {
  name: "inception_4a/1x1"
  type: "Convolution"
  bottom: "pool3/3x3_s2"
  top: "inception_4a/1x1"
  param {
    lr_mult: 1
    decay_mult: 1
  }
  param {
    lr_mult: 2
    decay_mult: 0
  }
  convolution_param {
    num_output: 192
    kernel_size: 1
    weight_filler {
      type: "xavier"
      std: 0.03
    }
    bias_filler {
      type: "constant"
      value: 0.2
    }
  }
}
layer {
  name: "inception_4a/relu_1x1"
  type: "ReLU"
  bottom: "inception_4a/1x1"
  top: "inception_4a/1x1"
}
layer {
  name: "inception_4a/3x3_reduce"
  type: "Convolution"
  bottom: "pool3/3x3_s2"
  top: "inception_4a/3x3_reduce"
  param {
    lr_mult: 1
    decay_mult: 1
  }
  param {
    lr_mult: 2
    decay_mult: 0
  }
  convolution_param {
    num_output: 96
    kernel_size: 1
    weight_filler {
      type: "xavier"
      std: 0.09
    }
    bias_filler {
      type: "constant"
      value: 0.2
    }
  }
}
layer {
  name: "inception_4a/relu_3x3_reduce"
  type: "ReLU"
  bottom: "inception_4a/3x3_reduce"
  top: "inception_4a/3x3_reduce"
}
layer {
  name: "inception_4a/3x3"
  type: "Convolution"
  bottom: "inception_4a/3x3_reduce"
  top: "inception_4a/3x3"
  param {
    lr_mult: 1
    decay_mult: 1
  }
  param {
    lr_mult: 2
    decay_mult: 0
  }
  convolution_param {
    num_output: 208
    pad: 1
    kernel_size: 3
    weight_filler {
      type: "xavier"
      std: 0.03
    }
    bias_filler {
      type: "constant"
      value: 0.2
    }
  }
}
layer {
  name: "inception_4a/relu_3x3"
  type: "ReLU"
  bottom: "inception_4a/3x3"
  top: "inception_4a/3x3"
}
layer {
  name: "inception_4a/5x5_reduce"
  type: "Convolution"
  bottom: "pool3/3x3_s2"
  top: "inception_4a/5x5_reduce"
  param {
    lr_mult: 1
    decay_mult: 1
  }
  param {
    lr_mult: 2
    decay_mult: 0
  }
  convolution_param {
    num_output: 16
    kernel_size: 1
    weight_filler {
      type: "xavier"
      std: 0.2
    }
    bias_filler {
      type: "constant"
      value: 0.2
    }
  }
}
layer {
  name: "inception_4a/relu_5x5_reduce"
  type: "ReLU"
  bottom: "inception_4a/5x5_reduce"
  top: "inception_4a/5x5_reduce"
}
layer {
  name: "inception_4a/5x5"
  type: "Convolution"
  bottom: "inception_4a/5x5_reduce"
  top: "inception_4a/5x5"
  param {
    lr_mult: 1
    decay_mult: 1
  }
  param {
    lr_mult: 2
    decay_mult: 0
  }
  convolution_param {
    num_output: 48
    pad: 2
    kernel_size: 5
    weight_filler {
      type: "xavier"
      std: 0.03
    }
    bias_filler {
      type: "constant"
      value: 0.2
    }
  }
}
layer {
  name: "inception_4a/relu_5x5"
  type: "ReLU"
  bottom: "inception_4a/5x5"
  top: "inception_4a/5x5"
}
layer {
  name: "inception_4a/pool"
  type: "Pooling"
  bottom: "pool3/3x3_s2"
  top: "inception_4a/pool"
  pooling_param {
    pool: MAX
    kernel_size: 3
    stride: 1
    pad: 1
  }
}
layer {
  name: "inception_4a/pool_proj"
  type: "Convolution"
  bottom: "inception_4a/pool"
  top: "inception_4a/pool_proj"
  param {
    lr_mult: 1
    decay_mult: 1
  }
  param {
    lr_mult: 2
    decay_mult: 0
  }
  convolution_param {
    num_output: 64
    kernel_size: 1
    weight_filler {
      type: "xavier"
      std: 0.1
    }
    bias_filler {
      type: "constant"
      value: 0.2
    }
  }
}
layer {
  name: "inception_4a/relu_pool_proj"
  type: "ReLU"
  bottom: "inception_4a/pool_proj"
  top: "inception_4a/pool_proj"
}
layer {
  name: "inception_4a/output"
  type: "Concat"
  bottom: "inception_4a/1x1"
  bottom: "inception_4a/3x3"
  bottom: "inception_4a/5x5"
  bottom: "inception_4a/pool_proj"
  top: "inception_4a/output"
}
layer {
  name: "inception_4b/1x1"
  type: "Convolution"
  bottom: "inception_4a/output"
  top: "inception_4b/1x1"
  param {
    lr_mult: 1
    decay_mult: 1
  }
  param {
    lr_mult: 2
    decay_mult: 0
  }
  convolution_param {
    num_output: 160
    kernel_size: 1
    weight_filler {
      type: "xavier"
      std: 0.03
    }
    bias_filler {
      type: "constant"
      value: 0.2
    }
  }
}
layer {
  name: "inception_4b/relu_1x1"
  type: "ReLU"
  bottom: "inception_4b/1x1"
  top: "inception_4b/1x1"
}
layer {
  name: "inception_4b/3x3_reduce"
  type: "Convolution"
  bottom: "inception_4a/output"
  top: "inception_4b/3x3_reduce"
  param {
    lr_mult: 1
    decay_mult: 1
  }
  param {
    lr_mult: 2
    decay_mult: 0
  }
  convolution_param {
    num_output: 112
    kernel_size: 1
    weight_filler {
      type: "xavier"
      std: 0.09
    }
    bias_filler {
      type: "constant"
      value: 0.2
    }
  }
}
layer {
  name: "inception_4b/relu_3x3_reduce"
  type: "ReLU"
  bottom: "inception_4b/3x3_reduce"
  top: "inception_4b/3x3_reduce"
}
layer {
  name: "inception_4b/3x3"
  type: "Convolution"
  bottom: "inception_4b/3x3_reduce"
  top: "inception_4b/3x3"
  param {
    lr_mult: 1
    decay_mult: 1
  }
  param {
    lr_mult: 2
    decay_mult: 0
  }
  convolution_param {
    num_output: 224
    pad: 1
    kernel_size: 3
    weight_filler {
      type: "xavier"
      std: 0.03
    }
    bias_filler {
      type: "constant"
      value: 0.2
    }
  }
}
layer {
  name: "inception_4b/relu_3x3"
  type: "ReLU"
  bottom: "inception_4b/3x3"
  top: "inception_4b/3x3"
}
layer {
  name: "inception_4b/5x5_reduce"
  type: "Convolution"
  bottom: "inception_4a/output"
  top: "inception_4b/5x5_reduce"
  param {
    lr_mult: 1
    decay_mult: 1
  }
  param {
    lr_mult: 2
    decay_mult: 0
  }
  convolution_param {
    num_output: 24
    kernel_size: 1
    weight_filler {
      type: "xavier"
      std: 0.2
    }
    bias_filler {
      type: "constant"
      value: 0.2
    }
  }
}
layer {
  name: "inception_4b/relu_5x5_reduce"
  type: "ReLU"
  bottom: "inception_4b/5x5_reduce"
  top: "inception_4b/5x5_reduce"
}
layer {
  name: "inception_4b/5x5"
  type: "Convolution"
  bottom: "inception_4b/5x5_reduce"
  top: "inception_4b/5x5"
  param {
    lr_mult: 1
    decay_mult: 1
  }
  param {
    lr_mult: 2
    decay_mult: 0
  }
  convolution_param {
    num_output: 64
    pad: 2
    kernel_size: 5
    weight_filler {
      type: "xavier"
      std: 0.03
    }
    bias_filler {
      type: "constant"
      value: 0.2
    }
  }
}
layer {
  name: "inception_4b/relu_5x5"
  type: "ReLU"
  bottom: "inception_4b/5x5"
  top: "inception_4b/5x5"
}
layer {
  name: "inception_4b/pool"
  type: "Pooling"
  bottom: "inception_4a/output"
  top: "inception_4b/pool"
  pooling_param {
    pool: MAX
    kernel_size: 3
    stride: 1
    pad: 1
  }
}
layer {
  name: "inception_4b/pool_proj"
  type: "Convolution"
  bottom: "inception_4b/pool"
  top: "inception_4b/pool_proj"
  param {
    lr_mult: 1
    decay_mult: 1
  }
  param {
    lr_mult: 2
    decay_mult: 0
  }
  convolution_param {
    num_output: 64
    kernel_size: 1
    weight_filler {
      type: "xavier"
      std: 0.1
    }
    bias_filler {
      type: "constant"
      value: 0.2
    }
  }
}
layer {
  name: "inception_4b/relu_pool_proj"
  type: "ReLU"
  bottom: "inception_4b/pool_proj"
  top: "inception_4b/pool_proj"
}
layer {
  name: "inception_4b/output"
  type: "Concat"
  bottom: "inception_4b/1x1"
  bottom: "inception_4b/3x3"
  bottom: "inception_4b/5x5"
  bottom: "inception_4b/pool_proj"
  top: "inception_4b/output"
}
layer {
  name: "inception_4c/1x1"
  type: "Convolution"
  bottom: "inception_4b/output"
  top: "inception_4c/1x1"
  param {
    lr_mult: 1
    decay_mult: 1
  }
  param {
    lr_mult: 2
    decay_mult: 0
  }
  convolution_param {
    num_output: 128
    kernel_size: 1
    weight_filler {
      type: "xavier"
      std: 0.03
    }
    bias_filler {
      type: "constant"
      value: 0.2
    }
  }
}
layer {
  name: "inception_4c/relu_1x1"
  type: "ReLU"
  bottom: "inception_4c/1x1"
  top: "inception_4c/1x1"
}
layer {
  name: "inception_4c/3x3_reduce"
  type: "Convolution"
  bottom: "inception_4b/output"
  top: "inception_4c/3x3_reduce"
  param {
    lr_mult: 1
    decay_mult: 1
  }
  param {
    lr_mult: 2
    decay_mult: 0
  }
  convolution_param {
    num_output: 128
    kernel_size: 1
    weight_filler {
      type: "xavier"
      std: 0.09
    }
    bias_filler {
      type: "constant"
      value: 0.2
    }
  }
}
layer {
  name: "inception_4c/relu_3x3_reduce"
  type: "ReLU"
  bottom: "inception_4c/3x3_reduce"
  top: "inception_4c/3x3_reduce"
}
layer {
  name: "inception_4c/3x3"
  type: "Convolution"
  bottom: "inception_4c/3x3_reduce"
  top: "inception_4c/3x3"
  param {
    lr_mult: 1
    decay_mult: 1
  }
  param {
    lr_mult: 2
    decay_mult: 0
  }
  convolution_param {
    num_output: 256
    pad: 1
    kernel_size: 3
    weight_filler {
      type: "xavier"
      std: 0.03
    }
    bias_filler {
      type: "constant"
      value: 0.2
    }
  }
}
layer {
  name: "inception_4c/relu_3x3"
  type: "ReLU"
  bottom: "inception_4c/3x3"
  top: "inception_4c/3x3"
}
layer {
  name: "inception_4c/5x5_reduce"
  type: "Convolution"
  bottom: "inception_4b/output"
  top: "inception_4c/5x5_reduce"
  param {
    lr_mult: 1
    decay_mult: 1
  }
  param {
    lr_mult: 2
    decay_mult: 0
  }
  convolution_param {
    num_output: 24
    kernel_size: 1
    weight_filler {
      type: "xavier"
      std: 0.2
    }
    bias_filler {
      type: "constant"
      value: 0.2
    }
  }
}
layer {
  name: "inception_4c/relu_5x5_reduce"
  type: "ReLU"
  bottom: "inception_4c/5x5_reduce"
  top: "inception_4c/5x5_reduce"
}
layer {
  name: "inception_4c/5x5"
  type: "Convolution"
  bottom: "inception_4c/5x5_reduce"
  top: "inception_4c/5x5"
  param {
    lr_mult: 1
    decay_mult: 1
  }
  param {
    lr_mult: 2
    decay_mult: 0
  }
  convolution_param {
    num_output: 64
    pad: 2
    kernel_size: 5
    weight_filler {
      type: "xavier"
      std: 0.03
    }
    bias_filler {
      type: "constant"
      value: 0.2
    }
  }
}
layer {
  name: "inception_4c/relu_5x5"
  type: "ReLU"
  bottom: "inception_4c/5x5"
  top: "inception_4c/5x5"
}
layer {
  name: "inception_4c/pool"
  type: "Pooling"
  bottom: "inception_4b/output"
  top: "inception_4c/pool"
  pooling_param {
    pool: MAX
    kernel_size: 3
    stride: 1
    pad: 1
  }
}
layer {
  name: "inception_4c/pool_proj"
  type: "Convolution"
  bottom: "inception_4c/pool"
  top: "inception_4c/pool_proj"
  param {
    lr_mult: 1
    decay_mult: 1
  }
  param {
    lr_mult: 2
    decay_mult: 0
  }
  convolution_param {
    num_output: 64
    kernel_size: 1
    weight_filler {
      type: "xavier"
      std: 0.1
    }
    bias_filler {
      type: "constant"
      value: 0.2
    }
  }
}
layer {
  name: "inception_4c/relu_pool_proj"
  type: "ReLU"
  bottom: "inception_4c/pool_proj"
  top: "inception_4c/pool_proj"
}
layer {
  name: "inception_4c/output"
  type: "Concat"
  bottom: "inception_4c/1x1"
  bottom: "inception_4c/3x3"
  bottom: "inception_4c/5x5"
  bottom: "inception_4c/pool_proj"
  top: "inception_4c/output"
}
layer {
  name: "inception_4d/1x1"
  type: "Convolution"
  bottom: "inception_4c/output"
  top: "inception_4d/1x1"
  param {
    lr_mult: 1
    decay_mult: 1
  }
  param {
    lr_mult: 2
    decay_mult: 0
  }
  convolution_param {
    num_output: 112
    kernel_size: 1
    weight_filler {
      type: "xavier"
      std: 0.03
    }
    bias_filler {
      type: "constant"
      value: 0.2
    }
  }
}
layer {
  name: "inception_4d/relu_1x1"
  type: "ReLU"
  bottom: "inception_4d/1x1"
  top: "inception_4d/1x1"
}
layer {
  name: "inception_4d/3x3_reduce"
  type: "Convolution"
  bottom: "inception_4c/output"
  top: "inception_4d/3x3_reduce"
  param {
    lr_mult: 1
    decay_mult: 1
  }
  param {
    lr_mult: 2
    decay_mult: 0
  }
  convolution_param {
    num_output: 144
    kernel_size: 1
    weight_filler {
      type: "xavier"
      std: 0.09
    }
    bias_filler {
      type: "constant"
      value: 0.2
    }
  }
}
layer {
  name: "inception_4d/relu_3x3_reduce"
  type: "ReLU"
  bottom: "inception_4d/3x3_reduce"
  top: "inception_4d/3x3_reduce"
}
layer {
  name: "inception_4d/3x3"
  type: "Convolution"
  bottom: "inception_4d/3x3_reduce"
  top: "inception_4d/3x3"
  param {
    lr_mult: 1
    decay_mult: 1
  }
  param {
    lr_mult: 2
    decay_mult: 0
  }
  convolution_param {
    num_output: 288
    pad: 1
    kernel_size: 3
    weight_filler {
      type: "xavier"
      std: 0.03
    }
    bias_filler {
      type: "constant"
      value: 0.2
    }
  }
}
layer {
  name: "inception_4d/relu_3x3"
  type: "ReLU"
  bottom: "inception_4d/3x3"
  top: "inception_4d/3x3"
}
layer {
  name: "inception_4d/5x5_reduce"
  type: "Convolution"
  bottom: "inception_4c/output"
  top: "inception_4d/5x5_reduce"
  param {
    lr_mult: 1
    decay_mult: 1
  }
  param {
    lr_mult: 2
    decay_mult: 0
  }
  convolution_param {
    num_output: 32
    kernel_size: 1
    weight_filler {
      type: "xavier"
      std: 0.2
    }
    bias_filler {
      type: "constant"
      value: 0.2
    }
  }
}
layer {
  name: "inception_4d/relu_5x5_reduce"
  type: "ReLU"
  bottom: "inception_4d/5x5_reduce"
  top: "inception_4d/5x5_reduce"
}
layer {
  name: "inception_4d/5x5"
  type: "Convolution"
  bottom: "inception_4d/5x5_reduce"
  top: "inception_4d/5x5"
  param {
    lr_mult: 1
    decay_mult: 1
  }
  param {
    lr_mult: 2
    decay_mult: 0
  }
  convolution_param {
    num_output: 64
    pad: 2
    kernel_size: 5
    weight_filler {
      type: "xavier"
      std: 0.03
    }
    bias_filler {
      type: "constant"
      value: 0.2
    }
  }
}
layer {
  name: "inception_4d/relu_5x5"
  type: "ReLU"
  bottom: "inception_4d/5x5"
  top: "inception_4d/5x5"
}
layer {
  name: "inception_4d/pool"
  type: "Pooling"
  bottom: "inception_4c/output"
  top: "inception_4d/pool"
  pooling_param {
    pool: MAX
    kernel_size: 3
    stride: 1
    pad: 1
  }
}
layer {
  name: "inception_4d/pool_proj"
  type: "Convolution"
  bottom: "inception_4d/pool"
  top: "inception_4d/pool_proj"
  param {
    lr_mult: 1
    decay_mult: 1
  }
  param {
    lr_mult: 2
    decay_mult: 0
  }
  convolution_param {
    num_output: 64
    kernel_size: 1
    weight_filler {
      type: "xavier"
      std: 0.1
    }
    bias_filler {
      type: "constant"
      value: 0.2
    }
  }
}
layer {
  name: "inception_4d/relu_pool_proj"
  type: "ReLU"
  bottom: "inception_4d/pool_proj"
  top: "inception_4d/pool_proj"
}
layer {
  name: "inception_4d/output"
  type: "Concat"
  bottom: "inception_4d/1x1"
  bottom: "inception_4d/3x3"
  bottom: "inception_4d/5x5"
  bottom: "inception_4d/pool_proj"
  top: "inception_4d/output"
}
layer {
  name: "inception_4e/1x1"
  type: "Convolution"
  bottom: "inception_4d/output"
  top: "inception_4e/1x1"
  param {
    lr_mult: 1
    decay_mult: 1
  }
  param {
    lr_mult: 2
    decay_mult: 0
  }
  convolution_param {
    num_output: 256
    kernel_size: 1
    weight_filler {
      type: "xavier"
      std: 0.03
    }
    bias_filler {
      type: "constant"
      value: 0.2
    }
  }
}
layer {
  name: "inception_4e/relu_1x1"
  type: "ReLU"
  bottom: "inception_4e/1x1"
  top: "inception_4e/1x1"
}
layer {
  name: "inception_4e/3x3_reduce"
  type: "Convolution"
  bottom: "inception_4d/output"
  top: "inception_4e/3x3_reduce"
  param {
    lr_mult: 1
    decay_mult: 1
  }
  param {
    lr_mult: 2
    decay_mult: 0
  }
  convolution_param {
    num_output: 160
    kernel_size: 1
    weight_filler {
      type: "xavier"
      std: 0.09
    }
    bias_filler {
      type: "constant"
      value: 0.2
    }
  }
}
layer {
  name: "inception_4e/relu_3x3_reduce"
  type: "ReLU"
  bottom: "inception_4e/3x3_reduce"
  top: "inception_4e/3x3_reduce"
}
layer {
  name: "inception_4e/3x3"
  type: "Convolution"
  bottom: "inception_4e/3x3_reduce"
  top: "inception_4e/3x3"
  param {
    lr_mult: 1
    decay_mult: 1
  }
  param {
    lr_mult: 2
    decay_mult: 0
  }
  convolution_param {
    num_output: 320
    pad: 1
    kernel_size: 3
    weight_filler {
      type: "xavier"
      std: 0.03
    }
    bias_filler {
      type: "constant"
      value: 0.2
    }
  }
}
layer {
  name: "inception_4e/relu_3x3"
  type: "ReLU"
  bottom: "inception_4e/3x3"
  top: "inception_4e/3x3"
}
layer {
  name: "inception_4e/5x5_reduce"
  type: "Convolution"
  bottom: "inception_4d/output"
  top: "inception_4e/5x5_reduce"
  param {
    lr_mult: 1
    decay_mult: 1
  }
  param {
    lr_mult: 2
    decay_mult: 0
  }
  convolution_param {
    num_output: 32
    kernel_size: 1
    weight_filler {
      type: "xavier"
      std: 0.2
    }
    bias_filler {
      type: "constant"
      value: 0.2
    }
  }
}
layer {
  name: "inception_4e/relu_5x5_reduce"
  type: "ReLU"
  bottom: "inception_4e/5x5_reduce"
  top: "inception_4e/5x5_reduce"
}
layer {
  name: "inception_4e/5x5"
  type: "Convolution"
  bottom: "inception_4e/5x5_reduce"
  top: "inception_4e/5x5"
  param {
    lr_mult: 1
    decay_mult: 1
  }
  param {
    lr_mult: 2
    decay_mult: 0
  }
  convolution_param {
    num_output: 128
    pad: 2
    kernel_size: 5
    weight_filler {
      type: "xavier"
      std: 0.03
    }
    bias_filler {
      type: "constant"
      value: 0.2
    }
  }
}
layer {
  name: "inception_4e/relu_5x5"
  type: "ReLU"
  bottom: "inception_4e/5x5"
  top: "inception_4e/5x5"
}
layer {
  name: "inception_4e/pool"
  type: "Pooling"
  bottom: "inception_4d/output"
  top: "inception_4e/pool"
  pooling_param {
    pool: MAX
    kernel_size: 3
    stride: 1
    pad: 1
  }
}
layer {
  name: "inception_4e/pool_proj"
  type: "Convolution"
  bottom: "inception_4e/pool"
  top: "inception_4e/pool_proj"
  param {
    lr_mult: 1
    decay_mult: 1
  }
  param {
    lr_mult: 2
    decay_mult: 0
  }
  convolution_param {
    num_output: 128
    kernel_size: 1
    weight_filler {
      type: "xavier"
      std: 0.1
    }
    bias_filler {
      type: "constant"
      value: 0.2
    }
  }
}
layer {
  name: "inception_4e/relu_pool_proj"
  type: "ReLU"
  bottom: "inception_4e/pool_proj"
  top: "inception_4e/pool_proj"
}
layer {
  name: "inception_4e/output"
  type: "Concat"
  bottom: "inception_4e/1x1"
  bottom: "inception_4e/3x3"
  bottom: "inception_4e/5x5"
  bottom: "inception_4e/pool_proj"
  top: "inception_4e/output"
}
layer {
  name: "pool4/3x3_s2"
  type: "Pooling"
  bottom: "inception_4e/output"
  top: "pool4/3x3_s2"
  pooling_param {
    pool: MAX
    kernel_size: 3
    stride: 2
  }
}
layer {
  name: "inception_5a/1x1"
  type: "Convolution"
  bottom: "pool4/3x3_s2"
  top: "inception_5a/1x1"
  param {
    lr_mult: 1
    decay_mult: 1
  }
  param {
    lr_mult: 2
    decay_mult: 0
  }
  convolution_param {
    num_output: 256
    kernel_size: 1
    weight_filler {
      type: "xavier"
      std: 0.03
    }
    bias_filler {
      type: "constant"
      value: 0.2
    }
  }
}
layer {
  name: "inception_5a/relu_1x1"
  type: "ReLU"
  bottom: "inception_5a/1x1"
  top: "inception_5a/1x1"
}
layer {
  name: "inception_5a/3x3_reduce"
  type: "Convolution"
  bottom: "pool4/3x3_s2"
  top: "inception_5a/3x3_reduce"
  param {
    lr_mult: 1
    decay_mult: 1
  }
  param {
    lr_mult: 2
    decay_mult: 0
  }
  convolution_param {
    num_output: 160
    kernel_size: 1
    weight_filler {
      type: "xavier"
      std: 0.09
    }
    bias_filler {
      type: "constant"
      value: 0.2
    }
  }
}
layer {
  name: "inception_5a/relu_3x3_reduce"
  type: "ReLU"
  bottom: "inception_5a/3x3_reduce"
  top: "inception_5a/3x3_reduce"
}
layer {
  name: "inception_5a/3x3"
  type: "Convolution"
  bottom: "inception_5a/3x3_reduce"
  top: "inception_5a/3x3"
  param {
    lr_mult: 1
    decay_mult: 1
  }
  param {
    lr_mult: 2
    decay_mult: 0
  }
  convolution_param {
    num_output: 320
    pad: 1
    kernel_size: 3
    weight_filler {
      type: "xavier"
      std: 0.03
    }
    bias_filler {
      type: "constant"
      value: 0.2
    }
  }
}
layer {
  name: "inception_5a/relu_3x3"
  type: "ReLU"
  bottom: "inception_5a/3x3"
  top: "inception_5a/3x3"
}
layer {
  name: "inception_5a/5x5_reduce"
  type: "Convolution"
  bottom: "pool4/3x3_s2"
  top: "inception_5a/5x5_reduce"
  param {
    lr_mult: 1
    decay_mult: 1
  }
  param {
    lr_mult: 2
    decay_mult: 0
  }
  convolution_param {
    num_output: 32
    kernel_size: 1
    weight_filler {
      type: "xavier"
      std: 0.2
    }
    bias_filler {
      type: "constant"
      value: 0.2
    }
I0915 11:40:25.137969 24360 layer_factory.hpp:77] Creating layer data
I0915 11:40:25.137997 24360 net.cpp:91] Creating Layer data
I0915 11:40:25.138008 24360 net.cpp:399] data -> data
I0915 11:40:25.625429 24360 net.cpp:141] Setting up data
I0915 11:40:25.625510 24360 net.cpp:148] Top shape: 10 3 224 224 (1505280)
I0915 11:40:25.625517 24360 net.cpp:156] Memory required for data: 6021120
I0915 11:40:25.625541 24360 layer_factory.hpp:77] Creating layer conv1/7x7_s2
I0915 11:40:25.625586 24360 net.cpp:91] Creating Layer conv1/7x7_s2
I0915 11:40:25.625594 24360 net.cpp:425] conv1/7x7_s2 <- data
I0915 11:40:25.625609 24360 net.cpp:399] conv1/7x7_s2 -> conv1/7x7_s2
I0915 11:40:25.800361 24360 net.cpp:141] Setting up conv1/7x7_s2
I0915 11:40:25.800436 24360 net.cpp:148] Top shape: 10 64 112 112 (8028160)
I0915 11:40:25.800443 24360 net.cpp:156] Memory required for data: 38133760
I0915 11:40:25.800473 24360 layer_factory.hpp:77] Creating layer conv1/relu_7x7
I0915 11:40:25.800495 24360 net.cpp:91] Creating Layer conv1/relu_7x7
I0915 11:40:25.800501 24360 net.cpp:425] conv1/relu_7x7 <- conv1/7x7_s2
I0915 11:40:25.800510 24360 net.cpp:386] conv1/relu_7x7 -> conv1/7x7_s2 (in-place)
I0915 11:40:25.800917 24360 net.cpp:141] Setting up conv1/relu_7x7
I0915 11:40:25.800930 24360 net.cpp:148] Top shape: 10 64 112 112 (8028160)
I0915 11:40:25.800935 24360 net.cpp:156] Memory required for data: 70246400
I0915 11:40:25.800940 24360 layer_factory.hpp:77] Creating layer pool1/3x3_s2
I0915 11:40:25.800956 24360 net.cpp:91] Creating Layer pool1/3x3_s2
I0915 11:40:25.800961 24360 net.cpp:425] pool1/3x3_s2 <- conv1/7x7_s2
I0915 11:40:25.800967 24360 net.cpp:399] pool1/3x3_s2 -> pool1/3x3_s2
I0915 11:40:25.801038 24360 net.cpp:141] Setting up pool1/3x3_s2
I0915 11:40:25.801048 24360 net.cpp:148] Top shape: 10 64 56 56 (2007040)
I0915 11:40:25.801053 24360 net.cpp:156] Memory required for data: 78274560
I0915 11:40:25.801057 24360 layer_factory.hpp:77] Creating layer pool1/norm1
I0915 11:40:25.801074 24360 net.cpp:91] Creating Layer pool1/norm1
I0915 11:40:25.801079 24360 net.cpp:425] pool1/norm1 <- pool1/3x3_s2
I0915 11:40:25.801087 24360 net.cpp:399] pool1/norm1 -> pool1/norm1
I0915 11:40:25.801354 24360 net.cpp:141] Setting up pool1/norm1
I0915 11:40:25.801368 24360 net.cpp:148] Top shape: 10 64 56 56 (2007040)
I0915 11:40:25.801373 24360 net.cpp:156] Memory required for data: 86302720
I0915 11:40:25.801378 24360 layer_factory.hpp:77] Creating layer conv2/3x3_reduce
I0915 11:40:25.801399 24360 net.cpp:91] Creating Layer conv2/3x3_reduce
I0915 11:40:25.801404 24360 net.cpp:425] conv2/3x3_reduce <- pool1/norm1
I0915 11:40:25.801412 24360 net.cpp:399] conv2/3x3_reduce -> conv2/3x3_reduce
I0915 11:40:25.803877 24360 net.cpp:141] Setting up conv2/3x3_reduce
I0915 11:40:25.803930 24360 net.cpp:148] Top shape: 10 64 56 56 (2007040)
I0915 11:40:25.803937 24360 net.cpp:156] Memory required for data: 94330880
I0915 11:40:25.803956 24360 layer_factory.hpp:77] Creating layer conv2/relu_3x3_reduce
I0915 11:40:25.803971 24360 net.cpp:91] Creating Layer conv2/relu_3x3_reduce
I0915 11:40:25.803977 24360 net.cpp:425] conv2/relu_3x3_reduce <- conv2/3x3_reduce
I0915 11:40:25.803987 24360 net.cpp:386] conv2/relu_3x3_reduce -> conv2/3x3_reduce (in-place)
I0915 11:40:25.804404 24360 net.cpp:141] Setting up conv2/relu_3x3_reduce
I0915 11:40:25.804431 24360 net.cpp:148] Top shape: 10 64 56 56 (2007040)
I0915 11:40:25.804435 24360 net.cpp:156] Memory required for data: 102359040
I0915 11:40:25.804440 24360 layer_factory.hpp:77] Creating layer conv2/3x3
I0915 11:40:25.804461 24360 net.cpp:91] Creating Layer conv2/3x3
I0915 11:40:25.804466 24360 net.cpp:425] conv2/3x3 <- conv2/3x3_reduce
I0915 11:40:25.804477 24360 net.cpp:399] conv2/3x3 -> conv2/3x3
I0915 11:40:25.807556 24360 net.cpp:141] Setting up conv2/3x3
I0915 11:40:25.807587 24360 net.cpp:148] Top shape: 10 192 56 56 (6021120)
I0915 11:40:25.807593 24360 net.cpp:156] Memory required for data: 126443520
I0915 11:40:25.807605 24360 layer_factory.hpp:77] Creating layer conv2/relu_3x3
I0915 11:40:25.807621 24360 net.cpp:91] Creating Layer conv2/relu_3x3
I0915 11:40:25.807626 24360 net.cpp:425] conv2/relu_3x3 <- conv2/3x3
I0915 11:40:25.807632 24360 net.cpp:386] conv2/relu_3x3 -> conv2/3x3 (in-place)
I0915 11:40:25.807870 24360 net.cpp:141] Setting up conv2/relu_3x3
I0915 11:40:25.807881 24360 net.cpp:148] Top shape: 10 192 56 56 (6021120)
I0915 11:40:25.807886 24360 net.cpp:156] Memory required for data: 150528000
I0915 11:40:25.807890 24360 layer_factory.hpp:77] Creating layer conv2/norm2
I0915 11:40:25.807904 24360 net.cpp:91] Creating Layer conv2/norm2
I0915 11:40:25.807909 24360 net.cpp:425] conv2/norm2 <- conv2/3x3
I0915 11:40:25.807915 24360 net.cpp:399] conv2/norm2 -> conv2/norm2
I0915 11:40:25.808352 24360 net.cpp:141] Setting up conv2/norm2
I0915 11:40:25.808365 24360 net.cpp:148] Top shape: 10 192 56 56 (6021120)
I0915 11:40:25.808370 24360 net.cpp:156] Memory required for data: 174612480
I0915 11:40:25.808375 24360 layer_factory.hpp:77] Creating layer pool2/3x3_s2
I0915 11:40:25.808388 24360 net.cpp:91] Creating Layer pool2/3x3_s2
I0915 11:40:25.808393 24360 net.cpp:425] pool2/3x3_s2 <- conv2/norm2
I0915 11:40:25.808400 24360 net.cpp:399] pool2/3x3_s2 -> pool2/3x3_s2
I0915 11:40:25.808462 24360 net.cpp:141] Setting up pool2/3x3_s2
I0915 11:40:25.808471 24360 net.cpp:148] Top shape: 10 192 28 28 (1505280)
I0915 11:40:25.808475 24360 net.cpp:156] Memory required for data: 180633600
I0915 11:40:25.808480 24360 layer_factory.hpp:77] Creating layer pool2/3x3_s2_pool2/3x3_s2_0_split
I0915 11:40:25.808500 24360 net.cpp:91] Creating Layer pool2/3x3_s2_pool2/3x3_s2_0_split
I0915 11:40:25.808504 24360 net.cpp:425] pool2/3x3_s2_pool2/3x3_s2_0_split <- pool2/3x3_s2
I0915 11:40:25.808511 24360 net.cpp:399] pool2/3x3_s2_pool2/3x3_s2_0_split -> pool2/3x3_s2_pool2/3x3_s2_0_split_0
I0915 11:40:25.808518 24360 net.cpp:399] pool2/3x3_s2_pool2/3x3_s2_0_split -> pool2/3x3_s2_pool2/3x3_s2_0_split_1
I0915 11:40:25.808526 24360 net.cpp:399] pool2/3x3_s2_pool2/3x3_s2_0_split -> pool2/3x3_s2_pool2/3x3_s2_0_split_2
I0915 11:40:25.808533 24360 net.cpp:399] pool2/3x3_s2_pool2/3x3_s2_0_split -> pool2/3x3_s2_pool2/3x3_s2_0_split_3
I0915 11:40:25.808604 24360 net.cpp:141] Setting up pool2/3x3_s2_pool2/3x3_s2_0_split
I0915 11:40:25.808614 24360 net.cpp:148] Top shape: 10 192 28 28 (1505280)
I0915 11:40:25.808619 24360 net.cpp:148] Top shape: 10 192 28 28 (1505280)
I0915 11:40:25.808624 24360 net.cpp:148] Top shape: 10 192 28 28 (1505280)
I0915 11:40:25.808629 24360 net.cpp:148] Top shape: 10 192 28 28 (1505280)
I0915 11:40:25.808632 24360 net.cpp:156] Memory required for data: 204718080
I0915 11:40:25.808637 24360 layer_factory.hpp:77] Creating layer inception_3a/1x1
I0915 11:40:25.808652 24360 net.cpp:91] Creating Layer inception_3a/1x1
I0915 11:40:25.808657 24360 net.cpp:425] inception_3a/1x1 <- pool2/3x3_s2_pool2/3x3_s2_0_split_0
I0915 11:40:25.808681 24360 net.cpp:399] inception_3a/1x1 -> inception_3a/1x1
I0915 11:40:25.810585 24360 net.cpp:141] Setting up inception_3a/1x1
I0915 11:40:25.810602 24360 net.cpp:148] Top shape: 10 64 28 28 (501760)
I0915 11:40:25.810607 24360 net.cpp:156] Memory required for data: 206725120
I0915 11:40:25.810616 24360 layer_factory.hpp:77] Creating layer inception_3a/relu_1x1
I0915 11:40:25.810624 24360 net.cpp:91] Creating Layer inception_3a/relu_1x1
I0915 11:40:25.810629 24360 net.cpp:425] inception_3a/relu_1x1 <- inception_3a/1x1
I0915 11:40:25.810641 24360 net.cpp:386] inception_3a/relu_1x1 -> inception_3a/1x1 (in-place)
I0915 11:40:25.811022 24360 net.cpp:141] Setting up inception_3a/relu_1x1
I0915 11:40:25.811034 24360 net.cpp:148] Top shape: 10 64 28 28 (501760)
I0915 11:40:25.811038 24360 net.cpp:156] Memory required for data: 208732160
I0915 11:40:25.811053 24360 layer_factory.hpp:77] Creating layer inception_3a/3x3_reduce
I0915 11:40:25.811069 24360 net.cpp:91] Creating Layer inception_3a/3x3_reduce
I0915 11:40:25.811074 24360 net.cpp:425] inception_3a/3x3_reduce <- pool2/3x3_s2_pool2/3x3_s2_0_split_1
I0915 11:40:25.811085 24360 net.cpp:399] inception_3a/3x3_reduce -> inception_3a/3x3_reduce
I0915 11:40:25.813427 24360 net.cpp:141] Setting up inception_3a/3x3_reduce
I0915 11:40:25.813457 24360 net.cpp:148] Top shape: 10 96 28 28 (752640)
I0915 11:40:25.813463 24360 net.cpp:156] Memory required for data: 211742720
I0915 11:40:25.813479 24360 layer_factory.hpp:77] Creating layer inception_3a/relu_3x3_reduce
I0915 11:40:25.813488 24360 net.cpp:91] Creating Layer inception_3a/relu_3x3_reduce
I0915 11:40:25.813493 24360 net.cpp:425] inception_3a/relu_3x3_reduce <- inception_3a/3x3_reduce
I0915 11:40:25.813503 24360 net.cpp:386] inception_3a/relu_3x3_reduce -> inception_3a/3x3_reduce (in-place)
I0915 11:40:25.813736 24360 net.cpp:141] Setting up inception_3a/relu_3x3_reduce
I0915 11:40:25.813747 24360 net.cpp:148] Top shape: 10 96 28 28 (752640)
I0915 11:40:25.813751 24360 net.cpp:156] Memory required for data: 214753280
I0915 11:40:25.813756 24360 layer_factory.hpp:77] Creating layer inception_3a/3x3
I0915 11:40:25.813776 24360 net.cpp:91] Creating Layer inception_3a/3x3
I0915 11:40:25.813781 24360 net.cpp:425] inception_3a/3x3 <- inception_3a/3x3_reduce
I0915 11:40:25.813791 24360 net.cpp:399] inception_3a/3x3 -> inception_3a/3x3
I0915 11:40:25.815893 24360 net.cpp:141] Setting up inception_3a/3x3
I0915 11:40:25.815922 24360 net.cpp:148] Top shape: 10 128 28 28 (1003520)
I0915 11:40:25.815927 24360 net.cpp:156] Memory required for data: 218767360
I0915 11:40:25.815937 24360 layer_factory.hpp:77] Creating layer inception_3a/relu_3x3
I0915 11:40:25.815946 24360 net.cpp:91] Creating Layer inception_3a/relu_3x3
I0915 11:40:25.815961 24360 net.cpp:425] inception_3a/relu_3x3 <- inception_3a/3x3
I0915 11:40:25.815968 24360 net.cpp:386] inception_3a/relu_3x3 -> inception_3a/3x3 (in-place)
I0915 11:40:25.816368 24360 net.cpp:141] Setting up inception_3a/relu_3x3
I0915 11:40:25.816381 24360 net.cpp:148] Top shape: 10 128 28 28 (1003520)
I0915 11:40:25.816386 24360 net.cpp:156] Memory required for data: 222781440
I0915 11:40:25.816390 24360 layer_factory.hpp:77] Creating layer inception_3a/5x5_reduce
I0915 11:40:25.816406 24360 net.cpp:91] Creating Layer inception_3a/5x5_reduce
I0915 11:40:25.816411 24360 net.cpp:425] inception_3a/5x5_reduce <- pool2/3x3_s2_pool2/3x3_s2_0_split_2
I0915 11:40:25.816422 24360 net.cpp:399] inception_3a/5x5_reduce -> inception_3a/5x5_reduce
I0915 11:40:25.817631 24360 net.cpp:141] Setting up inception_3a/5x5_reduce
I0915 11:40:25.817659 24360 net.cpp:148] Top shape: 10 16 28 28 (125440)
I0915 11:40:25.817668 24360 net.cpp:156] Memory required for data: 223283200
I0915 11:40:25.817677 24360 layer_factory.hpp:77] Creating layer inception_3a/relu_5x5_reduce
I0915 11:40:25.817685 24360 net.cpp:91] Creating Layer inception_3a/relu_5x5_reduce
I0915 11:40:25.817690 24360 net.cpp:425] inception_3a/relu_5x5_reduce <- inception_3a/5x5_reduce
I0915 11:40:25.817697 24360 net.cpp:386] inception_3a/relu_5x5_reduce -> inception_3a/5x5_reduce (in-place)
I0915 11:40:25.818073 24360 net.cpp:141] Setting up inception_3a/relu_5x5_reduce
I0915 11:40:25.818090 24360 net.cpp:148] Top shape: 10 16 28 28 (125440)
I0915 11:40:25.818094 24360 net.cpp:156] Memory required for data: 223784960
I0915 11:40:25.818099 24360 layer_factory.hpp:77] Creating layer inception_3a/5x5
I0915 11:40:25.818121 24360 net.cpp:91] Creating Layer inception_3a/5x5
I0915 11:40:25.818127 24360 net.cpp:425] inception_3a/5x5 <- inception_3a/5x5_reduce
I0915 11:40:25.818135 24360 net.cpp:399] inception_3a/5x5 -> inception_3a/5x5
I0915 11:40:25.820039 24360 net.cpp:141] Setting up inception_3a/5x5
I0915 11:40:25.820056 24360 net.cpp:148] Top shape: 10 32 28 28 (250880)
I0915 11:40:25.820061 24360 net.cpp:156] Memory required for data: 224788480
I0915 11:40:25.820075 24360 layer_factory.hpp:77] Creating layer inception_3a/relu_5x5
I0915 11:40:25.820086 24360 net.cpp:91] Creating Layer inception_3a/relu_5x5
I0915 11:40:25.820091 24360 net.cpp:425] inception_3a/relu_5x5 <- inception_3a/5x5
I0915 11:40:25.820101 24360 net.cpp:386] inception_3a/relu_5x5 -> inception_3a/5x5 (in-place)
I0915 11:40:25.820327 24360 net.cpp:141] Setting up inception_3a/relu_5x5
I0915 11:40:25.820339 24360 net.cpp:148] Top shape: 10 32 28 28 (250880)
I0915 11:40:25.820343 24360 net.cpp:156] Memory required for data: 225792000
I0915 11:40:25.820348 24360 layer_factory.hpp:77] Creating layer inception_3a/pool
I0915 11:40:25.820358 24360 net.cpp:91] Creating Layer inception_3a/pool
I0915 11:40:25.820363 24360 net.cpp:425] inception_3a/pool <- pool2/3x3_s2_pool2/3x3_s2_0_split_3
I0915 11:40:25.820369 24360 net.cpp:399] inception_3a/pool -> inception_3a/pool
I0915 11:40:25.820428 24360 net.cpp:141] Setting up inception_3a/pool
I0915 11:40:25.820437 24360 net.cpp:148] Top shape: 10 192 28 28 (1505280)
I0915 11:40:25.820441 24360 net.cpp:156] Memory required for data: 231813120
I0915 11:40:25.820446 24360 layer_factory.hpp:77] Creating layer inception_3a/pool_proj
I0915 11:40:25.820461 24360 net.cpp:91] Creating Layer inception_3a/pool_proj
I0915 11:40:25.820466 24360 net.cpp:425] inception_3a/pool_proj <- inception_3a/pool
I0915 11:40:25.820477 24360 net.cpp:399] inception_3a/pool_proj -> inception_3a/pool_proj
I0915 11:40:25.821851 24360 net.cpp:141] Setting up inception_3a/pool_proj
I0915 11:40:25.821866 24360 net.cpp:148] Top shape: 10 32 28 28 (250880)
I0915 11:40:25.821871 24360 net.cpp:156] Memory required for data: 232816640
I0915 11:40:25.821887 24360 layer_factory.hpp:77] Creating layer inception_3a/relu_pool_proj
I0915 11:40:25.821898 24360 net.cpp:91] Creating Layer inception_3a/relu_pool_proj
I0915 11:40:25.821904 24360 net.cpp:425] inception_3a/relu_pool_proj <- inception_3a/pool_proj
I0915 11:40:25.821910 24360 net.cpp:386] inception_3a/relu_pool_proj -> inception_3a/pool_proj (in-place)
I0915 11:40:25.822295 24360 net.cpp:141] Setting up inception_3a/relu_pool_proj
I0915 11:40:25.822307 24360 net.cpp:148] Top shape: 10 32 28 28 (250880)
I0915 11:40:25.822311 24360 net.cpp:156] Memory required for data: 233820160
I0915 11:40:25.822316 24360 layer_factory.hpp:77] Creating layer inception_3a/output
I0915 11:40:25.822335 24360 net.cpp:91] Creating Layer inception_3a/output
I0915 11:40:25.822340 24360 net.cpp:425] inception_3a/output <- inception_3a/1x1
I0915 11:40:25.822346 24360 net.cpp:425] inception_3a/output <- inception_3a/3x3
I0915 11:40:25.822351 24360 net.cpp:425] inception_3a/output <- inception_3a/5x5
I0915 11:40:25.822356 24360 net.cpp:425] inception_3a/output <- inception_3a/pool_proj
I0915 11:40:25.822362 24360 net.cpp:399] inception_3a/output -> inception_3a/output
I0915 11:40:25.822404 24360 net.cpp:141] Setting up inception_3a/output
I0915 11:40:25.822418 24360 net.cpp:148] Top shape: 10 256 28 28 (2007040)
I0915 11:40:25.822422 24360 net.cpp:156] Memory required for data: 241848320
I0915 11:40:25.822427 24360 layer_factory.hpp:77] Creating layer inception_3a/output_inception_3a/output_0_split
I0915 11:40:25.822443 24360 net.cpp:91] Creating Layer inception_3a/output_inception_3a/output_0_split
I0915 11:40:25.822448 24360 net.cpp:425] inception_3a/output_inception_3a/output_0_split <- inception_3a/output
I0915 11:40:25.822458 24360 net.cpp:399] inception_3a/output_inception_3a/output_0_split -> inception_3a/output_inception_3a/output_0_split_0
I0915 11:40:25.822465 24360 net.cpp:399] inception_3a/output_inception_3a/output_0_split -> inception_3a/output_inception_3a/output_0_split_1
I0915 11:40:25.822474 24360 net.cpp:399] inception_3a/output_inception_3a/output_0_split -> inception_3a/output_inception_3a/output_0_split_2
I0915 11:40:25.822480 24360 net.cpp:399] inception_3a/output_inception_3a/output_0_split -> inception_3a/output_inception_3a/output_0_split_3
I0915 11:40:25.822557 24360 net.cpp:141] Setting up inception_3a/output_inception_3a/output_0_split
I0915 11:40:25.822567 24360 net.cpp:148] Top shape: 10 256 28 28 (2007040)
I0915 11:40:25.822573 24360 net.cpp:148] Top shape: 10 256 28 28 (2007040)
I0915 11:40:25.822578 24360 net.cpp:148] Top shape: 10 256 28 28 (2007040)
I0915 11:40:25.822583 24360 net.cpp:148] Top shape: 10 256 28 28 (2007040)
I0915 11:40:25.822587 24360 net.cpp:156] Memory required for data: 273960960
I0915 11:40:25.822592 24360 layer_factory.hpp:77] Creating layer inception_3b/1x1
I0915 11:40:25.822607 24360 net.cpp:91] Creating Layer inception_3b/1x1
I0915 11:40:25.822612 24360 net.cpp:425] inception_3b/1x1 <- inception_3a/output_inception_3a/output_0_split_0
I0915 11:40:25.822620 24360 net.cpp:399] inception_3b/1x1 -> inception_3b/1x1
I0915 11:40:25.824019 24360 net.cpp:141] Setting up inception_3b/1x1
I0915 11:40:25.824035 24360 net.cpp:148] Top shape: 10 128 28 28 (1003520)
I0915 11:40:25.824039 24360 net.cpp:156] Memory required for data: 277975040
I0915 11:40:25.824048 24360 layer_factory.hpp:77] Creating layer inception_3b/relu_1x1
I0915 11:40:25.824056 24360 net.cpp:91] Creating Layer inception_3b/relu_1x1
I0915 11:40:25.824061 24360 net.cpp:425] inception_3b/relu_1x1 <- inception_3b/1x1
I0915 11:40:25.824069 24360 net.cpp:386] inception_3b/relu_1x1 -> inception_3b/1x1 (in-place)
I0915 11:40:25.824460 24360 net.cpp:141] Setting up inception_3b/relu_1x1
I0915 11:40:25.824475 24360 net.cpp:148] Top shape: 10 128 28 28 (1003520)
I0915 11:40:25.824478 24360 net.cpp:156] Memory required for data: 281989120
I0915 11:40:25.824483 24360 layer_factory.hpp:77] Creating layer inception_3b/3x3_reduce
I0915 11:40:25.824501 24360 net.cpp:91] Creating Layer inception_3b/3x3_reduce
I0915 11:40:25.824506 24360 net.cpp:425] inception_3b/3x3_reduce <- inception_3a/output_inception_3a/output_0_split_1
I0915 11:40:25.824514 24360 net.cpp:399] inception_3b/3x3_reduce -> inception_3b/3x3_reduce
I0915 11:40:25.826117 24360 net.cpp:141] Setting up inception_3b/3x3_reduce
I0915 11:40:25.826134 24360 net.cpp:148] Top shape: 10 128 28 28 (1003520)
I0915 11:40:25.826139 24360 net.cpp:156] Memory required for data: 286003200
I0915 11:40:25.826148 24360 layer_factory.hpp:77] Creating layer inception_3b/relu_3x3_reduce
I0915 11:40:25.826155 24360 net.cpp:91] Creating Layer inception_3b/relu_3x3_reduce
I0915 11:40:25.826161 24360 net.cpp:425] inception_3b/relu_3x3_reduce <- inception_3b/3x3_reduce
I0915 11:40:25.826171 24360 net.cpp:386] inception_3b/relu_3x3_reduce -> inception_3b/3x3_reduce (in-place)
I0915 11:40:25.826392 24360 net.cpp:141] Setting up inception_3b/relu_3x3_reduce
I0915 11:40:25.826406 24360 net.cpp:148] Top shape: 10 128 28 28 (1003520)
I0915 11:40:25.826411 24360 net.cpp:156] Memory required for data: 290017280
I0915 11:40:25.826416 24360 layer_factory.hpp:77] Creating layer inception_3b/3x3
I0915 11:40:25.826431 24360 net.cpp:91] Creating Layer inception_3b/3x3
I0915 11:40:25.826436 24360 net.cpp:425] inception_3b/3x3 <- inception_3b/3x3_reduce
I0915 11:40:25.826444 24360 net.cpp:399] inception_3b/3x3 -> inception_3b/3x3
I0915 11:40:25.830109 24360 net.cpp:141] Setting up inception_3b/3x3
I0915 11:40:25.830127 24360 net.cpp:148] Top shape: 10 192 28 28 (1505280)
I0915 11:40:25.830132 24360 net.cpp:156] Memory required for data: 296038400
I0915 11:40:25.830140 24360 layer_factory.hpp:77] Creating layer inception_3b/relu_3x3
I0915 11:40:25.830157 24360 net.cpp:91] Creating Layer inception_3b/relu_3x3
I0915 11:40:25.830163 24360 net.cpp:425] inception_3b/relu_3x3 <- inception_3b/3x3
I0915 11:40:25.830169 24360 net.cpp:386] inception_3b/relu_3x3 -> inception_3b/3x3 (in-place)
I0915 11:40:25.830562 24360 net.cpp:141] Setting up inception_3b/relu_3x3
I0915 11:40:25.830577 24360 net.cpp:148] Top shape: 10 192 28 28 (1505280)
I0915 11:40:25.830581 24360 net.cpp:156] Memory required for data: 302059520
I0915 11:40:25.830586 24360 layer_factory.hpp:77] Creating layer inception_3b/5x5_reduce
I0915 11:40:25.830602 24360 net.cpp:91] Creating Layer inception_3b/5x5_reduce
I0915 11:40:25.830608 24360 net.cpp:425] inception_3b/5x5_reduce <- inception_3a/output_inception_3a/output_0_split_2
I0915 11:40:25.830616 24360 net.cpp:399] inception_3b/5x5_reduce -> inception_3b/5x5_reduce
I0915 11:40:25.831851 24360 net.cpp:141] Setting up inception_3b/5x5_reduce
I0915 11:40:25.831868 24360 net.cpp:148] Top shape: 10 32 28 28 (250880)
I0915 11:40:25.831873 24360 net.cpp:156] Memory required for data: 303063040
I0915 11:40:25.831882 24360 layer_factory.hpp:77] Creating layer inception_3b/relu_5x5_reduce
I0915 11:40:25.831890 24360 net.cpp:91] Creating Layer inception_3b/relu_5x5_reduce
I0915 11:40:25.831895 24360 net.cpp:425] inception_3b/relu_5x5_reduce <- inception_3b/5x5_reduce
I0915 11:40:25.831902 24360 net.cpp:386] inception_3b/relu_5x5_reduce -> inception_3b/5x5_reduce (in-place)
I0915 11:40:25.832293 24360 net.cpp:141] Setting up inception_3b/relu_5x5_reduce
I0915 11:40:25.832305 24360 net.cpp:148] Top shape: 10 32 28 28 (250880)
I0915 11:40:25.832309 24360 net.cpp:156] Memory required for data: 304066560
I0915 11:40:25.832314 24360 layer_factory.hpp:77] Creating layer inception_3b/5x5
I0915 11:40:25.832330 24360 net.cpp:91] Creating Layer inception_3b/5x5
I0915 11:40:25.832336 24360 net.cpp:425] inception_3b/5x5 <- inception_3b/5x5_reduce
I0915 11:40:25.832347 24360 net.cpp:399] inception_3b/5x5 -> inception_3b/5x5
I0915 11:40:25.834895 24360 net.cpp:141] Setting up inception_3b/5x5
I0915 11:40:25.834928 24360 net.cpp:148] Top shape: 10 96 28 28 (752640)
I0915 11:40:25.834933 24360 net.cpp:156] Memory required for data: 307077120
I0915 11:40:25.834941 24360 layer_factory.hpp:77] Creating layer inception_3b/relu_5x5
I0915 11:40:25.834950 24360 net.cpp:91] Creating Layer inception_3b/relu_5x5
I0915 11:40:25.834955 24360 net.cpp:425] inception_3b/relu_5x5 <- inception_3b/5x5
I0915 11:40:25.834962 24360 net.cpp:386] inception_3b/relu_5x5 -> inception_3b/5x5 (in-place)
I0915 11:40:25.835191 24360 net.cpp:141] Setting up inception_3b/relu_5x5
I0915 11:40:25.835201 24360 net.cpp:148] Top shape: 10 96 28 28 (752640)
I0915 11:40:25.835206 24360 net.cpp:156] Memory required for data: 310087680
I0915 11:40:25.835211 24360 layer_factory.hpp:77] Creating layer inception_3b/pool
I0915 11:40:25.835219 24360 net.cpp:91] Creating Layer inception_3b/pool
I0915 11:40:25.835224 24360 net.cpp:425] inception_3b/pool <- inception_3a/output_inception_3a/output_0_split_3
I0915 11:40:25.835234 24360 net.cpp:399] inception_3b/pool -> inception_3b/pool
I0915 11:40:25.835294 24360 net.cpp:141] Setting up inception_3b/pool
I0915 11:40:25.835302 24360 net.cpp:148] Top shape: 10 256 28 28 (2007040)
I0915 11:40:25.835306 24360 net.cpp:156] Memory required for data: 318115840
I0915 11:40:25.835311 24360 layer_factory.hpp:77] Creating layer inception_3b/pool_proj
I0915 11:40:25.835326 24360 net.cpp:91] Creating Layer inception_3b/pool_proj
I0915 11:40:25.835332 24360 net.cpp:425] inception_3b/pool_proj <- inception_3b/pool
I0915 11:40:25.835340 24360 net.cpp:399] inception_3b/pool_proj -> inception_3b/pool_proj
I0915 11:40:25.836836 24360 net.cpp:141] Setting up inception_3b/pool_proj
I0915 11:40:25.836865 24360 net.cpp:148] Top shape: 10 64 28 28 (501760)
I0915 11:40:25.836870 24360 net.cpp:156] Memory required for data: 320122880
I0915 11:40:25.836879 24360 layer_factory.hpp:77] Creating layer inception_3b/relu_pool_proj
I0915 11:40:25.836887 24360 net.cpp:91] Creating Layer inception_3b/relu_pool_proj
I0915 11:40:25.836894 24360 net.cpp:425] inception_3b/relu_pool_proj <- inception_3b/pool_proj
I0915 11:40:25.836904 24360 net.cpp:386] inception_3b/relu_pool_proj -> inception_3b/pool_proj (in-place)
I0915 11:40:25.837292 24360 net.cpp:141] Setting up inception_3b/relu_pool_proj
I0915 11:40:25.837304 24360 net.cpp:148] Top shape: 10 64 28 28 (501760)
I0915 11:40:25.837308 24360 net.cpp:156] Memory required for data: 322129920
I0915 11:40:25.837313 24360 layer_factory.hpp:77] Creating layer inception_3b/output
I0915 11:40:25.837322 24360 net.cpp:91] Creating Layer inception_3b/output
I0915 11:40:25.837327 24360 net.cpp:425] inception_3b/output <- inception_3b/1x1
I0915 11:40:25.837333 24360 net.cpp:425] inception_3b/output <- inception_3b/3x3
I0915 11:40:25.837338 24360 net.cpp:425] inception_3b/output <- inception_3b/5x5
I0915 11:40:25.837343 24360 net.cpp:425] inception_3b/output <- inception_3b/pool_proj
I0915 11:40:25.837352 24360 net.cpp:399] inception_3b/output -> inception_3b/output
I0915 11:40:25.837394 24360 net.cpp:141] Setting up inception_3b/output
I0915 11:40:25.837404 24360 net.cpp:148] Top shape: 10 480 28 28 (3763200)
I0915 11:40:25.837407 24360 net.cpp:156] Memory required for data: 337182720
I0915 11:40:25.837411 24360 layer_factory.hpp:77] Creating layer pool3/3x3_s2
I0915 11:40:25.837419 24360 net.cpp:91] Creating Layer pool3/3x3_s2
I0915 11:40:25.837424 24360 net.cpp:425] pool3/3x3_s2 <- inception_3b/output
I0915 11:40:25.837430 24360 net.cpp:399] pool3/3x3_s2 -> pool3/3x3_s2
I0915 11:40:25.837491 24360 net.cpp:141] Setting up pool3/3x3_s2
I0915 11:40:25.837502 24360 net.cpp:148] Top shape: 10 480 14 14 (940800)
I0915 11:40:25.837507 24360 net.cpp:156] Memory required for data: 340945920
I0915 11:40:25.837512 24360 layer_factory.hpp:77] Creating layer pool3/3x3_s2_pool3/3x3_s2_0_split
I0915 11:40:25.837520 24360 net.cpp:91] Creating Layer pool3/3x3_s2_pool3/3x3_s2_0_split
I0915 11:40:25.837524 24360 net.cpp:425] pool3/3x3_s2_pool3/3x3_s2_0_split <- pool3/3x3_s2
I0915 11:40:25.837539 24360 net.cpp:399] pool3/3x3_s2_pool3/3x3_s2_0_split -> pool3/3x3_s2_pool3/3x3_s2_0_split_0
I0915 11:40:25.837548 24360 net.cpp:399] pool3/3x3_s2_pool3/3x3_s2_0_split -> pool3/3x3_s2_pool3/3x3_s2_0_split_1
I0915 11:40:25.837554 24360 net.cpp:399] pool3/3x3_s2_pool3/3x3_s2_0_split -> pool3/3x3_s2_pool3/3x3_s2_0_split_2
I0915 11:40:25.837563 24360 net.cpp:399] pool3/3x3_s2_pool3/3x3_s2_0_split -> pool3/3x3_s2_pool3/3x3_s2_0_split_3
I0915 11:40:25.837637 24360 net.cpp:141] Setting up pool3/3x3_s2_pool3/3x3_s2_0_split
I0915 11:40:25.837646 24360 net.cpp:148] Top shape: 10 480 14 14 (940800)
I0915 11:40:25.837654 24360 net.cpp:148] Top shape: 10 480 14 14 (940800)
I0915 11:40:25.837659 24360 net.cpp:148] Top shape: 10 480 14 14 (940800)
I0915 11:40:25.837664 24360 net.cpp:148] Top shape: 10 480 14 14 (940800)
I0915 11:40:25.837667 24360 net.cpp:156] Memory required for data: 355998720
I0915 11:40:25.837672 24360 layer_factory.hpp:77] Creating layer inception_4a/1x1
I0915 11:40:25.837683 24360 net.cpp:91] Creating Layer inception_4a/1x1
I0915 11:40:25.837688 24360 net.cpp:425] inception_4a/1x1 <- pool3/3x3_s2_pool3/3x3_s2_0_split_0
I0915 11:40:25.837700 24360 net.cpp:399] inception_4a/1x1 -> inception_4a/1x1
I0915 11:40:25.839818 24360 net.cpp:141] Setting up inception_4a/1x1
I0915 11:40:25.839833 24360 net.cpp:148] Top shape: 10 192 14 14 (376320)
I0915 11:40:25.839838 24360 net.cpp:156] Memory required for data: 357504000
I0915 11:40:25.839860 24360 layer_factory.hpp:77] Creating layer inception_4a/relu_1x1
I0915 11:40:25.839874 24360 net.cpp:91] Creating Layer inception_4a/relu_1x1
I0915 11:40:25.839880 24360 net.cpp:425] inception_4a/relu_1x1 <- inception_4a/1x1
I0915 11:40:25.839886 24360 net.cpp:386] inception_4a/relu_1x1 -> inception_4a/1x1 (in-place)
I0915 11:40:25.840281 24360 net.cpp:141] Setting up inception_4a/relu_1x1
I0915 11:40:25.840293 24360 net.cpp:148] Top shape: 10 192 14 14 (376320)
I0915 11:40:25.840297 24360 net.cpp:156] Memory required for data: 359009280
I0915 11:40:25.840302 24360 layer_factory.hpp:77] Creating layer inception_4a/3x3_reduce
I0915 11:40:25.840320 24360 net.cpp:91] Creating Layer inception_4a/3x3_reduce
I0915 11:40:25.840327 24360 net.cpp:425] inception_4a/3x3_reduce <- pool3/3x3_s2_pool3/3x3_s2_0_split_1
I0915 11:40:25.840334 24360 net.cpp:399] inception_4a/3x3_reduce -> inception_4a/3x3_reduce
I0915 11:40:25.842083 24360 net.cpp:141] Setting up inception_4a/3x3_reduce
I0915 11:40:25.842105 24360 net.cpp:148] Top shape: 10 96 14 14 (188160)
I0915 11:40:25.842110 24360 net.cpp:156] Memory required for data: 359761920
I0915 11:40:25.842130 24360 layer_factory.hpp:77] Creating layer inception_4a/relu_3x3_reduce
I0915 11:40:25.842141 24360 net.cpp:91] Creating Layer inception_4a/relu_3x3_reduce
I0915 11:40:25.842147 24360 net.cpp:425] inception_4a/relu_3x3_reduce <- inception_4a/3x3_reduce
I0915 11:40:25.842154 24360 net.cpp:386] inception_4a/relu_3x3_reduce -> inception_4a/3x3_reduce (in-place)
I0915 11:40:25.842376 24360 net.cpp:141] Setting up inception_4a/relu_3x3_reduce
I0915 11:40:25.842387 24360 net.cpp:148] Top shape: 10 96 14 14 (188160)
I0915 11:40:25.842391 24360 net.cpp:156] Memory required for data: 360514560
I0915 11:40:25.842396 24360 layer_factory.hpp:77] Creating layer inception_4a/3x3
I0915 11:40:25.842412 24360 net.cpp:91] Creating Layer inception_4a/3x3
I0915 11:40:25.842418 24360 net.cpp:425] inception_4a/3x3 <- inception_4a/3x3_reduce
I0915 11:40:25.842430 24360 net.cpp:399] inception_4a/3x3 -> inception_4a/3x3
I0915 11:40:25.846135 24360 net.cpp:141] Setting up inception_4a/3x3
I0915 11:40:25.846150 24360 net.cpp:148] Top shape: 10 208 14 14 (407680)
I0915 11:40:25.846155 24360 net.cpp:156] Memory required for data: 362145280
I0915 11:40:25.846164 24360 layer_factory.hpp:77] Creating layer inception_4a/relu_3x3
I0915 11:40:25.846176 24360 net.cpp:91] Creating Layer inception_4a/relu_3x3
I0915 11:40:25.846182 24360 net.cpp:425] inception_4a/relu_3x3 <- inception_4a/3x3
I0915 11:40:25.846189 24360 net.cpp:386] inception_4a/relu_3x3 -> inception_4a/3x3 (in-place)
I0915 11:40:25.846598 24360 net.cpp:141] Setting up inception_4a/relu_3x3
I0915 11:40:25.846611 24360 net.cpp:148] Top shape: 10 208 14 14 (407680)
I0915 11:40:25.846616 24360 net.cpp:156] Memory required for data: 363776000
I0915 11:40:25.846621 24360 layer_factory.hpp:77] Creating layer inception_4a/5x5_reduce
I0915 11:40:25.846635 24360 net.cpp:91] Creating Layer inception_4a/5x5_reduce
I0915 11:40:25.846642 24360 net.cpp:425] inception_4a/5x5_reduce <- pool3/3x3_s2_pool3/3x3_s2_0_split_2
I0915 11:40:25.846654 24360 net.cpp:399] inception_4a/5x5_reduce -> inception_4a/5x5_reduce
I0915 11:40:25.847959 24360 net.cpp:141] Setting up inception_4a/5x5_reduce
I0915 11:40:25.847977 24360 net.cpp:148] Top shape: 10 16 14 14 (31360)
I0915 11:40:25.847982 24360 net.cpp:156] Memory required for data: 363901440
I0915 11:40:25.847991 24360 layer_factory.hpp:77] Creating layer inception_4a/relu_5x5_reduce
I0915 11:40:25.848001 24360 net.cpp:91] Creating Layer inception_4a/relu_5x5_reduce
I0915 11:40:25.848006 24360 net.cpp:425] inception_4a/relu_5x5_reduce <- inception_4a/5x5_reduce
I0915 11:40:25.848012 24360 net.cpp:386] inception_4a/relu_5x5_reduce -> inception_4a/5x5_reduce (in-place)
I0915 11:40:25.848412 24360 net.cpp:141] Setting up inception_4a/relu_5x5_reduce
I0915 11:40:25.848424 24360 net.cpp:148] Top shape: 10 16 14 14 (31360)
I0915 11:40:25.848428 24360 net.cpp:156] Memory required for data: 364026880
I0915 11:40:25.848433 24360 layer_factory.hpp:77] Creating layer inception_4a/5x5
I0915 11:40:25.848453 24360 net.cpp:91] Creating Layer inception_4a/5x5
I0915 11:40:25.848459 24360 net.cpp:425] inception_4a/5x5 <- inception_4a/5x5_reduce
I0915 11:40:25.848469 24360 net.cpp:399] inception_4a/5x5 -> inception_4a/5x5
I0915 11:40:25.849966 24360 net.cpp:141] Setting up inception_4a/5x5
I0915 11:40:25.849995 24360 net.cpp:148] Top shape: 10 48 14 14 (94080)
I0915 11:40:25.850000 24360 net.cpp:156] Memory required for data: 364403200
I0915 11:40:25.850009 24360 layer_factory.hpp:77] Creating layer inception_4a/relu_5x5
I0915 11:40:25.850018 24360 net.cpp:91] Creating Layer inception_4a/relu_5x5
I0915 11:40:25.850023 24360 net.cpp:425] inception_4a/relu_5x5 <- inception_4a/5x5
I0915 11:40:25.850029 24360 net.cpp:386] inception_4a/relu_5x5 -> inception_4a/5x5 (in-place)
I0915 11:40:25.850257 24360 net.cpp:141] Setting up inception_4a/relu_5x5
I0915 11:40:25.850268 24360 net.cpp:148] Top shape: 10 48 14 14 (94080)
I0915 11:40:25.850272 24360 net.cpp:156] Memory required for data: 364779520
I0915 11:40:25.850277 24360 layer_factory.hpp:77] Creating layer inception_4a/pool
I0915 11:40:25.850289 24360 net.cpp:91] Creating Layer inception_4a/pool
I0915 11:40:25.850294 24360 net.cpp:425] inception_4a/pool <- pool3/3x3_s2_pool3/3x3_s2_0_split_3
I0915 11:40:25.850301 24360 net.cpp:399] inception_4a/pool -> inception_4a/pool
I0915 11:40:25.850364 24360 net.cpp:141] Setting up inception_4a/pool
I0915 11:40:25.850373 24360 net.cpp:148] Top shape: 10 480 14 14 (940800)
I0915 11:40:25.850378 24360 net.cpp:156] Memory required for data: 368542720
I0915 11:40:25.850381 24360 layer_factory.hpp:77] Creating layer inception_4a/pool_proj
I0915 11:40:25.850396 24360 net.cpp:91] Creating Layer inception_4a/pool_proj
I0915 11:40:25.850402 24360 net.cpp:425] inception_4a/pool_proj <- inception_4a/pool
I0915 11:40:25.850412 24360 net.cpp:399] inception_4a/pool_proj -> inception_4a/pool_proj
I0915 11:40:25.852000 24360 net.cpp:141] Setting up inception_4a/pool_proj
I0915 11:40:25.852028 24360 net.cpp:148] Top shape: 10 64 14 14 (125440)
I0915 11:40:25.852033 24360 net.cpp:156] Memory required for data: 369044480
I0915 11:40:25.852042 24360 layer_factory.hpp:77] Creating layer inception_4a/relu_pool_proj
I0915 11:40:25.852054 24360 net.cpp:91] Creating Layer inception_4a/relu_pool_proj
I0915 11:40:25.852061 24360 net.cpp:425] inception_4a/relu_pool_proj <- inception_4a/pool_proj
I0915 11:40:25.852069 24360 net.cpp:386] inception_4a/relu_pool_proj -> inception_4a/pool_proj (in-place)
I0915 11:40:25.852473 24360 net.cpp:141] Setting up inception_4a/relu_pool_proj
I0915 11:40:25.852486 24360 net.cpp:148] Top shape: 10 64 14 14 (125440)
I0915 11:40:25.852490 24360 net.cpp:156] Memory required for data: 369546240
I0915 11:40:25.852495 24360 layer_factory.hpp:77] Creating layer inception_4a/output
I0915 11:40:25.852504 24360 net.cpp:91] Creating Layer inception_4a/output
I0915 11:40:25.852509 24360 net.cpp:425] inception_4a/output <- inception_4a/1x1
I0915 11:40:25.852515 24360 net.cpp:425] inception_4a/output <- inception_4a/3x3
I0915 11:40:25.852520 24360 net.cpp:425] inception_4a/output <- inception_4a/5x5
I0915 11:40:25.852525 24360 net.cpp:425] inception_4a/output <- inception_4a/pool_proj
I0915 11:40:25.852535 24360 net.cpp:399] inception_4a/output -> inception_4a/output
I0915 11:40:25.852576 24360 net.cpp:141] Setting up inception_4a/output
I0915 11:40:25.852584 24360 net.cpp:148] Top shape: 10 512 14 14 (1003520)
I0915 11:40:25.852588 24360 net.cpp:156] Memory required for data: 373560320
I0915 11:40:25.852592 24360 layer_factory.hpp:77] Creating layer inception_4a/output_inception_4a/output_0_split
I0915 11:40:25.852605 24360 net.cpp:91] Creating Layer inception_4a/output_inception_4a/output_0_split
I0915 11:40:25.852610 24360 net.cpp:425] inception_4a/output_inception_4a/output_0_split <- inception_4a/output
I0915 11:40:25.852617 24360 net.cpp:399] inception_4a/output_inception_4a/output_0_split -> inception_4a/output_inception_4a/output_0_split_0
I0915 11:40:25.852627 24360 net.cpp:399] inception_4a/output_inception_4a/output_0_split -> inception_4a/output_inception_4a/output_0_split_1
I0915 11:40:25.852636 24360 net.cpp:399] inception_4a/output_inception_4a/output_0_split -> inception_4a/output_inception_4a/output_0_split_2
I0915 11:40:25.852644 24360 net.cpp:399] inception_4a/output_inception_4a/output_0_split -> inception_4a/output_inception_4a/output_0_split_3
I0915 11:40:25.852728 24360 net.cpp:141] Setting up inception_4a/output_inception_4a/output_0_split
I0915 11:40:25.852737 24360 net.cpp:148] Top shape: 10 512 14 14 (1003520)
I0915 11:40:25.852742 24360 net.cpp:148] Top shape: 10 512 14 14 (1003520)
I0915 11:40:25.852747 24360 net.cpp:148] Top shape: 10 512 14 14 (1003520)
I0915 11:40:25.852752 24360 net.cpp:148] Top shape: 10 512 14 14 (1003520)
I0915 11:40:25.852756 24360 net.cpp:156] Memory required for data: 389616640
I0915 11:40:25.852761 24360 layer_factory.hpp:77] Creating layer inception_4b/1x1
I0915 11:40:25.852774 24360 net.cpp:91] Creating Layer inception_4b/1x1
I0915 11:40:25.852779 24360 net.cpp:425] inception_4b/1x1 <- inception_4a/output_inception_4a/output_0_split_0
I0915 11:40:25.852792 24360 net.cpp:399] inception_4b/1x1 -> inception_4b/1x1
I0915 11:40:25.854619 24360 net.cpp:141] Setting up inception_4b/1x1
I0915 11:40:25.854650 24360 net.cpp:148] Top shape: 10 160 14 14 (313600)
I0915 11:40:25.854656 24360 net.cpp:156] Memory required for data: 390871040
I0915 11:40:25.854665 24360 layer_factory.hpp:77] Creating layer inception_4b/relu_1x1
I0915 11:40:25.854672 24360 net.cpp:91] Creating Layer inception_4b/relu_1x1
I0915 11:40:25.854678 24360 net.cpp:425] inception_4b/relu_1x1 <- inception_4b/1x1
I0915 11:40:25.854684 24360 net.cpp:386] inception_4b/relu_1x1 -> inception_4b/1x1 (in-place)
I0915 11:40:25.855084 24360 net.cpp:141] Setting up inception_4b/relu_1x1
I0915 11:40:25.855098 24360 net.cpp:148] Top shape: 10 160 14 14 (313600)
I0915 11:40:25.855103 24360 net.cpp:156] Memory required for data: 392125440
I0915 11:40:25.855108 24360 layer_factory.hpp:77] Creating layer inception_4b/3x3_reduce
I0915 11:40:25.855123 24360 net.cpp:91] Creating Layer inception_4b/3x3_reduce
I0915 11:40:25.855129 24360 net.cpp:425] inception_4b/3x3_reduce <- inception_4a/output_inception_4a/output_0_split_1
I0915 11:40:25.855137 24360 net.cpp:399] inception_4b/3x3_reduce -> inception_4b/3x3_reduce
I0915 11:40:25.856966 24360 net.cpp:141] Setting up inception_4b/3x3_reduce
I0915 11:40:25.856988 24360 net.cpp:148] Top shape: 10 112 14 14 (219520)
I0915 11:40:25.856993 24360 net.cpp:156] Memory required for data: 393003520
I0915 11:40:25.857002 24360 layer_factory.hpp:77] Creating layer inception_4b/relu_3x3_reduce
I0915 11:40:25.857010 24360 net.cpp:91] Creating Layer inception_4b/relu_3x3_reduce
I0915 11:40:25.857015 24360 net.cpp:425] inception_4b/relu_3x3_reduce <- inception_4b/3x3_reduce
I0915 11:40:25.857026 24360 net.cpp:386] inception_4b/relu_3x3_reduce -> inception_4b/3x3_reduce (in-place)
I0915 11:40:25.857250 24360 net.cpp:141] Setting up inception_4b/relu_3x3_reduce
I0915 11:40:25.857261 24360 net.cpp:148] Top shape: 10 112 14 14 (219520)
I0915 11:40:25.857270 24360 net.cpp:156] Memory required for data: 393881600
I0915 11:40:25.857275 24360 layer_factory.hpp:77] Creating layer inception_4b/3x3
I0915 11:40:25.857287 24360 net.cpp:91] Creating Layer inception_4b/3x3
I0915 11:40:25.857292 24360 net.cpp:425] inception_4b/3x3 <- inception_4b/3x3_reduce
I0915 11:40:25.857305 24360 net.cpp:399] inception_4b/3x3 -> inception_4b/3x3
I0915 11:40:25.861316 24360 net.cpp:141] Setting up inception_4b/3x3
I0915 11:40:25.861346 24360 net.cpp:148] Top shape: 10 224 14 14 (439040)
I0915 11:40:25.861352 24360 net.cpp:156] Memory required for data: 395637760
I0915 11:40:25.861361 24360 layer_factory.hpp:77] Creating layer inception_4b/relu_3x3
I0915 11:40:25.861369 24360 net.cpp:91] Creating Layer inception_4b/relu_3x3
I0915 11:40:25.861374 24360 net.cpp:425] inception_4b/relu_3x3 <- inception_4b/3x3
I0915 11:40:25.861382 24360 net.cpp:386] inception_4b/relu_3x3 -> inception_4b/3x3 (in-place)
I0915 11:40:25.861796 24360 net.cpp:141] Setting up inception_4b/relu_3x3
I0915 11:40:25.861809 24360 net.cpp:148] Top shape: 10 224 14 14 (439040)
I0915 11:40:25.861814 24360 net.cpp:156] Memory required for data: 397393920
I0915 11:40:25.861817 24360 layer_factory.hpp:77] Creating layer inception_4b/5x5_reduce
I0915 11:40:25.861845 24360 net.cpp:91] Creating Layer inception_4b/5x5_reduce
I0915 11:40:25.861850 24360 net.cpp:425] inception_4b/5x5_reduce <- inception_4a/output_inception_4a/output_0_split_2
I0915 11:40:25.861860 24360 net.cpp:399] inception_4b/5x5_reduce -> inception_4b/5x5_reduce
I0915 11:40:25.863184 24360 net.cpp:141] Setting up inception_4b/5x5_reduce
I0915 11:40:25.863214 24360 net.cpp:148] Top shape: 10 24 14 14 (47040)
I0915 11:40:25.863219 24360 net.cpp:156] Memory required for data: 397582080
I0915 11:40:25.863229 24360 layer_factory.hpp:77] Creating layer inception_4b/relu_5x5_reduce
I0915 11:40:25.863241 24360 net.cpp:91] Creating Layer inception_4b/relu_5x5_reduce
I0915 11:40:25.863247 24360 net.cpp:425] inception_4b/relu_5x5_reduce <- inception_4b/5x5_reduce
I0915 11:40:25.863253 24360 net.cpp:386] inception_4b/relu_5x5_reduce -> inception_4b/5x5_reduce (in-place)
I0915 11:40:25.863642 24360 net.cpp:141] Setting up inception_4b/relu_5x5_reduce
I0915 11:40:25.863656 24360 net.cpp:148] Top shape: 10 24 14 14 (47040)
I0915 11:40:25.863659 24360 net.cpp:156] Memory required for data: 397770240
I0915 11:40:25.863664 24360 layer_factory.hpp:77] Creating layer inception_4b/5x5
I0915 11:40:25.863682 24360 net.cpp:91] Creating Layer inception_4b/5x5
I0915 11:40:25.863688 24360 net.cpp:425] inception_4b/5x5 <- inception_4b/5x5_reduce
I0915 11:40:25.863697 24360 net.cpp:399] inception_4b/5x5 -> inception_4b/5x5
I0915 11:40:25.866004 24360 net.cpp:141] Setting up inception_4b/5x5
I0915 11:40:25.866034 24360 net.cpp:148] Top shape: 10 64 14 14 (125440)
I0915 11:40:25.866039 24360 net.cpp:156] Memory required for data: 398272000
I0915 11:40:25.866049 24360 layer_factory.hpp:77] Creating layer inception_4b/relu_5x5
I0915 11:40:25.866056 24360 net.cpp:91] Creating Layer inception_4b/relu_5x5
I0915 11:40:25.866061 24360 net.cpp:425] inception_4b/relu_5x5 <- inception_4b/5x5
I0915 11:40:25.866072 24360 net.cpp:386] inception_4b/relu_5x5 -> inception_4b/5x5 (in-place)
I0915 11:40:25.866299 24360 net.cpp:141] Setting up inception_4b/relu_5x5
I0915 11:40:25.866309 24360 net.cpp:148] Top shape: 10 64 14 14 (125440)
I0915 11:40:25.866313 24360 net.cpp:156] Memory required for data: 398773760
I0915 11:40:25.866318 24360 layer_factory.hpp:77] Creating layer inception_4b/pool
I0915 11:40:25.866329 24360 net.cpp:91] Creating Layer inception_4b/pool
I0915 11:40:25.866335 24360 net.cpp:425] inception_4b/pool <- inception_4a/output_inception_4a/output_0_split_3
I0915 11:40:25.866343 24360 net.cpp:399] inception_4b/pool -> inception_4b/pool
I0915 11:40:25.866408 24360 net.cpp:141] Setting up inception_4b/pool
I0915 11:40:25.866418 24360 net.cpp:148] Top shape: 10 512 14 14 (1003520)
I0915 11:40:25.866422 24360 net.cpp:156] Memory required for data: 402787840
I0915 11:40:25.866426 24360 layer_factory.hpp:77] Creating layer inception_4b/pool_proj
I0915 11:40:25.866442 24360 net.cpp:91] Creating Layer inception_4b/pool_proj
I0915 11:40:25.866447 24360 net.cpp:425] inception_4b/pool_proj <- inception_4b/pool
I0915 11:40:25.866457 24360 net.cpp:399] inception_4b/pool_proj -> inception_4b/pool_proj
I0915 11:40:25.868095 24360 net.cpp:141] Setting up inception_4b/pool_proj
I0915 11:40:25.868111 24360 net.cpp:148] Top shape: 10 64 14 14 (125440)
I0915 11:40:25.868116 24360 net.cpp:156] Memory required for data: 403289600
I0915 11:40:25.868124 24360 layer_factory.hpp:77] Creating layer inception_4b/relu_pool_proj
I0915 11:40:25.868136 24360 net.cpp:91] Creating Layer inception_4b/relu_pool_proj
I0915 11:40:25.868144 24360 net.cpp:425] inception_4b/relu_pool_proj <- inception_4b/pool_proj
I0915 11:40:25.868151 24360 net.cpp:386] inception_4b/relu_pool_proj -> inception_4b/pool_proj (in-place)
I0915 11:40:25.868551 24360 net.cpp:141] Setting up inception_4b/relu_pool_proj
I0915 11:40:25.868563 24360 net.cpp:148] Top shape: 10 64 14 14 (125440)
I0915 11:40:25.868567 24360 net.cpp:156] Memory required for data: 403791360
I0915 11:40:25.868572 24360 layer_factory.hpp:77] Creating layer inception_4b/output
I0915 11:40:25.868580 24360 net.cpp:91] Creating Layer inception_4b/output
I0915 11:40:25.868585 24360 net.cpp:425] inception_4b/output <- inception_4b/1x1
I0915 11:40:25.868592 24360 net.cpp:425] inception_4b/output <- inception_4b/3x3
I0915 11:40:25.868597 24360 net.cpp:425] inception_4b/output <- inception_4b/5x5
I0915 11:40:25.868602 24360 net.cpp:425] inception_4b/output <- inception_4b/pool_proj
I0915 11:40:25.868610 24360 net.cpp:399] inception_4b/output -> inception_4b/output
I0915 11:40:25.868651 24360 net.cpp:141] Setting up inception_4b/output
I0915 11:40:25.868659 24360 net.cpp:148] Top shape: 10 512 14 14 (1003520)
I0915 11:40:25.868664 24360 net.cpp:156] Memory required for data: 407805440
I0915 11:40:25.868669 24360 layer_factory.hpp:77] Creating layer inception_4b/output_inception_4b/output_0_split
I0915 11:40:25.868681 24360 net.cpp:91] Creating Layer inception_4b/output_inception_4b/output_0_split
I0915 11:40:25.868686 24360 net.cpp:425] inception_4b/output_inception_4b/output_0_split <- inception_4b/output
I0915 11:40:25.868693 24360 net.cpp:399] inception_4b/output_inception_4b/output_0_split -> inception_4b/output_inception_4b/output_0_split_0
I0915 11:40:25.868701 24360 net.cpp:399] inception_4b/output_inception_4b/output_0_split -> inception_4b/output_inception_4b/output_0_split_1
I0915 11:40:25.868712 24360 net.cpp:399] inception_4b/output_inception_4b/output_0_split -> inception_4b/output_inception_4b/output_0_split_2
I0915 11:40:25.868721 24360 net.cpp:399] inception_4b/output_inception_4b/output_0_split -> inception_4b/output_inception_4b/output_0_split_3
I0915 11:40:25.868805 24360 net.cpp:141] Setting up inception_4b/output_inception_4b/output_0_split
I0915 11:40:25.868814 24360 net.cpp:148] Top shape: 10 512 14 14 (1003520)
I0915 11:40:25.868819 24360 net.cpp:148] Top shape: 10 512 14 14 (1003520)
I0915 11:40:25.868824 24360 net.cpp:148] Top shape: 10 512 14 14 (1003520)
I0915 11:40:25.868829 24360 net.cpp:148] Top shape: 10 512 14 14 (1003520)
I0915 11:40:25.868832 24360 net.cpp:156] Memory required for data: 423861760
I0915 11:40:25.868840 24360 layer_factory.hpp:77] Creating layer inception_4c/1x1
I0915 11:40:25.868854 24360 net.cpp:91] Creating Layer inception_4c/1x1
I0915 11:40:25.868860 24360 net.cpp:425] inception_4c/1x1 <- inception_4b/output_inception_4b/output_0_split_0
I0915 11:40:25.868871 24360 net.cpp:399] inception_4c/1x1 -> inception_4c/1x1
I0915 11:40:25.870574 24360 net.cpp:141] Setting up inception_4c/1x1
I0915 11:40:25.870590 24360 net.cpp:148] Top shape: 10 128 14 14 (250880)
I0915 11:40:25.870595 24360 net.cpp:156] Memory required for data: 424865280
I0915 11:40:25.870604 24360 layer_factory.hpp:77] Creating layer inception_4c/relu_1x1
I0915 11:40:25.870615 24360 net.cpp:91] Creating Layer inception_4c/relu_1x1
I0915 11:40:25.870620 24360 net.cpp:425] inception_4c/relu_1x1 <- inception_4c/1x1
I0915 11:40:25.870640 24360 net.cpp:386] inception_4c/relu_1x1 -> inception_4c/1x1 (in-place)
I0915 11:40:25.871027 24360 net.cpp:141] Setting up inception_4c/relu_1x1
I0915 11:40:25.871040 24360 net.cpp:148] Top shape: 10 128 14 14 (250880)
I0915 11:40:25.871044 24360 net.cpp:156] Memory required for data: 425868800
I0915 11:40:25.871049 24360 layer_factory.hpp:77] Creating layer inception_4c/3x3_reduce
I0915 11:40:25.871068 24360 net.cpp:91] Creating Layer inception_4c/3x3_reduce
I0915 11:40:25.871073 24360 net.cpp:425] inception_4c/3x3_reduce <- inception_4b/output_inception_4b/output_0_split_1
I0915 11:40:25.871081 24360 net.cpp:399] inception_4c/3x3_reduce -> inception_4c/3x3_reduce
I0915 11:40:25.872987 24360 net.cpp:141] Setting up inception_4c/3x3_reduce
I0915 11:40:25.873015 24360 net.cpp:148] Top shape: 10 128 14 14 (250880)
I0915 11:40:25.873021 24360 net.cpp:156] Memory required for data: 426872320
I0915 11:40:25.873029 24360 layer_factory.hpp:77] Creating layer inception_4c/relu_3x3_reduce
I0915 11:40:25.873039 24360 net.cpp:91] Creating Layer inception_4c/relu_3x3_reduce
I0915 11:40:25.873046 24360 net.cpp:425] inception_4c/relu_3x3_reduce <- inception_4c/3x3_reduce
I0915 11:40:25.873054 24360 net.cpp:386] inception_4c/relu_3x3_reduce -> inception_4c/3x3_reduce (in-place)
I0915 11:40:25.873278 24360 net.cpp:141] Setting up inception_4c/relu_3x3_reduce
I0915 11:40:25.873289 24360 net.cpp:148] Top shape: 10 128 14 14 (250880)
I0915 11:40:25.873293 24360 net.cpp:156] Memory required for data: 427875840
I0915 11:40:25.873298 24360 layer_factory.hpp:77] Creating layer inception_4c/3x3
I0915 11:40:25.873316 24360 net.cpp:91] Creating Layer inception_4c/3x3
I0915 11:40:25.873322 24360 net.cpp:425] inception_4c/3x3 <- inception_4c/3x3_reduce
I0915 11:40:25.873329 24360 net.cpp:399] inception_4c/3x3 -> inception_4c/3x3
I0915 11:40:25.877569 24360 net.cpp:141] Setting up inception_4c/3x3
I0915 11:40:25.877599 24360 net.cpp:148] Top shape: 10 256 14 14 (501760)
I0915 11:40:25.877604 24360 net.cpp:156] Memory required for data: 429882880
I0915 11:40:25.877614 24360 layer_factory.hpp:77] Creating layer inception_4c/relu_3x3
I0915 11:40:25.877622 24360 net.cpp:91] Creating Layer inception_4c/relu_3x3
I0915 11:40:25.877627 24360 net.cpp:425] inception_4c/relu_3x3 <- inception_4c/3x3
I0915 11:40:25.877638 24360 net.cpp:386] inception_4c/relu_3x3 -> inception_4c/3x3 (in-place)
I0915 11:40:25.878041 24360 net.cpp:141] Setting up inception_4c/relu_3x3
I0915 11:40:25.878053 24360 net.cpp:148] Top shape: 10 256 14 14 (501760)
I0915 11:40:25.878057 24360 net.cpp:156] Memory required for data: 431889920
I0915 11:40:25.878062 24360 layer_factory.hpp:77] Creating layer inception_4c/5x5_reduce
I0915 11:40:25.878078 24360 net.cpp:91] Creating Layer inception_4c/5x5_reduce
I0915 11:40:25.878084 24360 net.cpp:425] inception_4c/5x5_reduce <- inception_4b/output_inception_4b/output_0_split_2
I0915 11:40:25.878095 24360 net.cpp:399] inception_4c/5x5_reduce -> inception_4c/5x5_reduce
I0915 11:40:25.879436 24360 net.cpp:141] Setting up inception_4c/5x5_reduce
I0915 11:40:25.879467 24360 net.cpp:148] Top shape: 10 24 14 14 (47040)
I0915 11:40:25.879472 24360 net.cpp:156] Memory required for data: 432078080
I0915 11:40:25.879480 24360 layer_factory.hpp:77] Creating layer inception_4c/relu_5x5_reduce
I0915 11:40:25.879492 24360 net.cpp:91] Creating Layer inception_4c/relu_5x5_reduce
I0915 11:40:25.879498 24360 net.cpp:425] inception_4c/relu_5x5_reduce <- inception_4c/5x5_reduce
I0915 11:40:25.879505 24360 net.cpp:386] inception_4c/relu_5x5_reduce -> inception_4c/5x5_reduce (in-place)
I0915 11:40:25.879904 24360 net.cpp:141] Setting up inception_4c/relu_5x5_reduce
I0915 11:40:25.879920 24360 net.cpp:148] Top shape: 10 24 14 14 (47040)
I0915 11:40:25.879925 24360 net.cpp:156] Memory required for data: 432266240
I0915 11:40:25.879930 24360 layer_factory.hpp:77] Creating layer inception_4c/5x5
I0915 11:40:25.879945 24360 net.cpp:91] Creating Layer inception_4c/5x5
I0915 11:40:25.879951 24360 net.cpp:425] inception_4c/5x5 <- inception_4c/5x5_reduce
I0915 11:40:25.879958 24360 net.cpp:399] inception_4c/5x5 -> inception_4c/5x5
I0915 11:40:25.881919 24360 net.cpp:141] Setting up inception_4c/5x5
I0915 11:40:25.881937 24360 net.cpp:148] Top shape: 10 64 14 14 (125440)
I0915 11:40:25.881942 24360 net.cpp:156] Memory required for data: 432768000
I0915 11:40:25.881949 24360 layer_factory.hpp:77] Creating layer inception_4c/relu_5x5
I0915 11:40:25.881958 24360 net.cpp:91] Creating Layer inception_4c/relu_5x5
I0915 11:40:25.881963 24360 net.cpp:425] inception_4c/relu_5x5 <- inception_4c/5x5
I0915 11:40:25.881970 24360 net.cpp:386] inception_4c/relu_5x5 -> inception_4c/5x5 (in-place)
I0915 11:40:25.882207 24360 net.cpp:141] Setting up inception_4c/relu_5x5
I0915 11:40:25.882218 24360 net.cpp:148] Top shape: 10 64 14 14 (125440)
I0915 11:40:25.882222 24360 net.cpp:156] Memory required for data: 433269760
I0915 11:40:25.882227 24360 layer_factory.hpp:77] Creating layer inception_4c/pool
I0915 11:40:25.882239 24360 net.cpp:91] Creating Layer inception_4c/pool
I0915 11:40:25.882244 24360 net.cpp:425] inception_4c/pool <- inception_4b/output_inception_4b/output_0_split_3
I0915 11:40:25.882251 24360 net.cpp:399] inception_4c/pool -> inception_4c/pool
I0915 11:40:25.882318 24360 net.cpp:141] Setting up inception_4c/pool
I0915 11:40:25.882328 24360 net.cpp:148] Top shape: 10 512 14 14 (1003520)
I0915 11:40:25.882331 24360 net.cpp:156] Memory required for data: 437283840
I0915 11:40:25.882335 24360 layer_factory.hpp:77] Creating layer inception_4c/pool_proj
I0915 11:40:25.882351 24360 net.cpp:91] Creating Layer inception_4c/pool_proj
I0915 11:40:25.882356 24360 net.cpp:425] inception_4c/pool_proj <- inception_4c/pool
I0915 11:40:25.882366 24360 net.cpp:399] inception_4c/pool_proj -> inception_4c/pool_proj
I0915 11:40:25.884719 24360 net.cpp:141] Setting up inception_4c/pool_proj
I0915 11:40:25.884742 24360 net.cpp:148] Top shape: 10 64 14 14 (125440)
I0915 11:40:25.884747 24360 net.cpp:156] Memory required for data: 437785600
I0915 11:40:25.884773 24360 layer_factory.hpp:77] Creating layer inception_4c/relu_pool_proj
I0915 11:40:25.884783 24360 net.cpp:91] Creating Layer inception_4c/relu_pool_proj
I0915 11:40:25.884788 24360 net.cpp:425] inception_4c/relu_pool_proj <- inception_4c/pool_proj
I0915 11:40:25.884798 24360 net.cpp:386] inception_4c/relu_pool_proj -> inception_4c/pool_proj (in-place)
I0915 11:40:25.885195 24360 net.cpp:141] Setting up inception_4c/relu_pool_proj
I0915 11:40:25.885207 24360 net.cpp:148] Top shape: 10 64 14 14 (125440)
I0915 11:40:25.885212 24360 net.cpp:156] Memory required for data: 438287360
I0915 11:40:25.885217 24360 layer_factory.hpp:77] Creating layer inception_4c/output
I0915 11:40:25.885228 24360 net.cpp:91] Creating Layer inception_4c/output
I0915 11:40:25.885234 24360 net.cpp:425] inception_4c/output <- inception_4c/1x1
I0915 11:40:25.885241 24360 net.cpp:425] inception_4c/output <- inception_4c/3x3
I0915 11:40:25.885246 24360 net.cpp:425] inception_4c/output <- inception_4c/5x5
I0915 11:40:25.885251 24360 net.cpp:425] inception_4c/output <- inception_4c/pool_proj
I0915 11:40:25.885259 24360 net.cpp:399] inception_4c/output -> inception_4c/output
I0915 11:40:25.885303 24360 net.cpp:141] Setting up inception_4c/output
I0915 11:40:25.885310 24360 net.cpp:148] Top shape: 10 512 14 14 (1003520)
I0915 11:40:25.885315 24360 net.cpp:156] Memory required for data: 442301440
I0915 11:40:25.885319 24360 layer_factory.hpp:77] Creating layer inception_4c/output_inception_4c/output_0_split
I0915 11:40:25.885331 24360 net.cpp:91] Creating Layer inception_4c/output_inception_4c/output_0_split
I0915 11:40:25.885337 24360 net.cpp:425] inception_4c/output_inception_4c/output_0_split <- inception_4c/output
I0915 11:40:25.885344 24360 net.cpp:399] inception_4c/output_inception_4c/output_0_split -> inception_4c/output_inception_4c/output_0_split_0
I0915 11:40:25.885352 24360 net.cpp:399] inception_4c/output_inception_4c/output_0_split -> inception_4c/output_inception_4c/output_0_split_1
I0915 11:40:25.885360 24360 net.cpp:399] inception_4c/output_inception_4c/output_0_split -> inception_4c/output_inception_4c/output_0_split_2
I0915 11:40:25.885370 24360 net.cpp:399] inception_4c/output_inception_4c/output_0_split -> inception_4c/output_inception_4c/output_0_split_3
I0915 11:40:25.885462 24360 net.cpp:141] Setting up inception_4c/output_inception_4c/output_0_split
I0915 11:40:25.885471 24360 net.cpp:148] Top shape: 10 512 14 14 (1003520)
I0915 11:40:25.885476 24360 net.cpp:148] Top shape: 10 512 14 14 (1003520)
I0915 11:40:25.885481 24360 net.cpp:148] Top shape: 10 512 14 14 (1003520)
I0915 11:40:25.885486 24360 net.cpp:148] Top shape: 10 512 14 14 (1003520)
I0915 11:40:25.885489 24360 net.cpp:156] Memory required for data: 458357760
I0915 11:40:25.885494 24360 layer_factory.hpp:77] Creating layer inception_4d/1x1
I0915 11:40:25.885507 24360 net.cpp:91] Creating Layer inception_4d/1x1
I0915 11:40:25.885514 24360 net.cpp:425] inception_4d/1x1 <- inception_4c/output_inception_4c/output_0_split_0
I0915 11:40:25.885524 24360 net.cpp:399] inception_4d/1x1 -> inception_4d/1x1
I0915 11:40:25.887207 24360 net.cpp:141] Setting up inception_4d/1x1
I0915 11:40:25.887223 24360 net.cpp:148] Top shape: 10 112 14 14 (219520)
I0915 11:40:25.887228 24360 net.cpp:156] Memory required for data: 459235840
I0915 11:40:25.887235 24360 layer_factory.hpp:77] Creating layer inception_4d/relu_1x1
I0915 11:40:25.887248 24360 net.cpp:91] Creating Layer inception_4d/relu_1x1
I0915 11:40:25.887253 24360 net.cpp:425] inception_4d/relu_1x1 <- inception_4d/1x1
I0915 11:40:25.887260 24360 net.cpp:386] inception_4d/relu_1x1 -> inception_4d/1x1 (in-place)
I0915 11:40:25.887651 24360 net.cpp:141] Setting up inception_4d/relu_1x1
I0915 11:40:25.887663 24360 net.cpp:148] Top shape: 10 112 14 14 (219520)
I0915 11:40:25.887668 24360 net.cpp:156] Memory required for data: 460113920
I0915 11:40:25.887673 24360 layer_factory.hpp:77] Creating layer inception_4d/3x3_reduce
I0915 11:40:25.887687 24360 net.cpp:91] Creating Layer inception_4d/3x3_reduce
I0915 11:40:25.887693 24360 net.cpp:425] inception_4d/3x3_reduce <- inception_4c/output_inception_4c/output_0_split_1
I0915 11:40:25.887704 24360 net.cpp:399] inception_4d/3x3_reduce -> inception_4d/3x3_reduce
I0915 11:40:25.889698 24360 net.cpp:141] Setting up inception_4d/3x3_reduce
I0915 11:40:25.889715 24360 net.cpp:148] Top shape: 10 144 14 14 (282240)
I0915 11:40:25.889720 24360 net.cpp:156] Memory required for data: 461242880
I0915 11:40:25.889729 24360 layer_factory.hpp:77] Creating layer inception_4d/relu_3x3_reduce
I0915 11:40:25.889737 24360 net.cpp:91] Creating Layer inception_4d/relu_3x3_reduce
I0915 11:40:25.889742 24360 net.cpp:425] inception_4d/relu_3x3_reduce <- inception_4d/3x3_reduce
I0915 11:40:25.889753 24360 net.cpp:386] inception_4d/relu_3x3_reduce -> inception_4d/3x3_reduce (in-place)
I0915 11:40:25.889981 24360 net.cpp:141] Setting up inception_4d/relu_3x3_reduce
I0915 11:40:25.889994 24360 net.cpp:148] Top shape: 10 144 14 14 (282240)
I0915 11:40:25.889998 24360 net.cpp:156] Memory required for data: 462371840
I0915 11:40:25.890003 24360 layer_factory.hpp:77] Creating layer inception_4d/3x3
I0915 11:40:25.890017 24360 net.cpp:91] Creating Layer inception_4d/3x3
I0915 11:40:25.890022 24360 net.cpp:425] inception_4d/3x3 <- inception_4d/3x3_reduce
I0915 11:40:25.890031 24360 net.cpp:399] inception_4d/3x3 -> inception_4d/3x3
I0915 11:40:25.895213 24360 net.cpp:141] Setting up inception_4d/3x3
I0915 11:40:25.895238 24360 net.cpp:148] Top shape: 10 288 14 14 (564480)
I0915 11:40:25.895244 24360 net.cpp:156] Memory required for data: 464629760
I0915 11:40:25.895254 24360 layer_factory.hpp:77] Creating layer inception_4d/relu_3x3
I0915 11:40:25.895268 24360 net.cpp:91] Creating Layer inception_4d/relu_3x3
I0915 11:40:25.895275 24360 net.cpp:425] inception_4d/relu_3x3 <- inception_4d/3x3
I0915 11:40:25.895285 24360 net.cpp:386] inception_4d/relu_3x3 -> inception_4d/3x3 (in-place)
I0915 11:40:25.895686 24360 net.cpp:141] Setting up inception_4d/relu_3x3
I0915 11:40:25.895699 24360 net.cpp:148] Top shape: 10 288 14 14 (564480)
I0915 11:40:25.895704 24360 net.cpp:156] Memory required for data: 466887680
I0915 11:40:25.895709 24360 layer_factory.hpp:77] Creating layer inception_4d/5x5_reduce
I0915 11:40:25.895725 24360 net.cpp:91] Creating Layer inception_4d/5x5_reduce
I0915 11:40:25.895730 24360 net.cpp:425] inception_4d/5x5_reduce <- inception_4c/output_inception_4c/output_0_split_2
I0915 11:40:25.895740 24360 net.cpp:399] inception_4d/5x5_reduce -> inception_4d/5x5_reduce
I0915 11:40:25.897167 24360 net.cpp:141] Setting up inception_4d/5x5_reduce
I0915 11:40:25.897184 24360 net.cpp:148] Top shape: 10 32 14 14 (62720)
I0915 11:40:25.897189 24360 net.cpp:156] Memory required for data: 467138560
I0915 11:40:25.897197 24360 layer_factory.hpp:77] Creating layer inception_4d/relu_5x5_reduce
I0915 11:40:25.897209 24360 net.cpp:91] Creating Layer inception_4d/relu_5x5_reduce
I0915 11:40:25.897217 24360 net.cpp:425] inception_4d/relu_5x5_reduce <- inception_4d/5x5_reduce
I0915 11:40:25.897222 24360 net.cpp:386] inception_4d/relu_5x5_reduce -> inception_4d/5x5_reduce (in-place)
I0915 11:40:25.897620 24360 net.cpp:141] Setting up inception_4d/relu_5x5_reduce
I0915 11:40:25.897634 24360 net.cpp:148] Top shape: 10 32 14 14 (62720)
I0915 11:40:25.897637 24360 net.cpp:156] Memory required for data: 467389440
I0915 11:40:25.897641 24360 layer_factory.hpp:77] Creating layer inception_4d/5x5
I0915 11:40:25.897656 24360 net.cpp:91] Creating Layer inception_4d/5x5
I0915 11:40:25.897662 24360 net.cpp:425] inception_4d/5x5 <- inception_4d/5x5_reduce
I0915 11:40:25.897673 24360 net.cpp:399] inception_4d/5x5 -> inception_4d/5x5
I0915 11:40:25.899499 24360 net.cpp:141] Setting up inception_4d/5x5
I0915 11:40:25.899518 24360 net.cpp:148] Top shape: 10 64 14 14 (125440)
I0915 11:40:25.899523 24360 net.cpp:156] Memory required for data: 467891200
I0915 11:40:25.899531 24360 layer_factory.hpp:77] Creating layer inception_4d/relu_5x5
I0915 11:40:25.899540 24360 net.cpp:91] Creating Layer inception_4d/relu_5x5
I0915 11:40:25.899545 24360 net.cpp:425] inception_4d/relu_5x5 <- inception_4d/5x5
I0915 11:40:25.899552 24360 net.cpp:386] inception_4d/relu_5x5 -> inception_4d/5x5 (in-place)
I0915 11:40:25.899785 24360 net.cpp:141] Setting up inception_4d/relu_5x5
I0915 11:40:25.899796 24360 net.cpp:148] Top shape: 10 64 14 14 (125440)
I0915 11:40:25.899799 24360 net.cpp:156] Memory required for data: 468392960
I0915 11:40:25.899804 24360 layer_factory.hpp:77] Creating layer inception_4d/pool
I0915 11:40:25.899816 24360 net.cpp:91] Creating Layer inception_4d/pool
I0915 11:40:25.899821 24360 net.cpp:425] inception_4d/pool <- inception_4c/output_inception_4c/output_0_split_3
I0915 11:40:25.899828 24360 net.cpp:399] inception_4d/pool -> inception_4d/pool
I0915 11:40:25.899898 24360 net.cpp:141] Setting up inception_4d/pool
I0915 11:40:25.899906 24360 net.cpp:148] Top shape: 10 512 14 14 (1003520)
I0915 11:40:25.899910 24360 net.cpp:156] Memory required for data: 472407040
I0915 11:40:25.899914 24360 layer_factory.hpp:77] Creating layer inception_4d/pool_proj
I0915 11:40:25.899930 24360 net.cpp:91] Creating Layer inception_4d/pool_proj
I0915 11:40:25.899935 24360 net.cpp:425] inception_4d/pool_proj <- inception_4d/pool
I0915 11:40:25.899945 24360 net.cpp:399] inception_4d/pool_proj -> inception_4d/pool_proj
I0915 11:40:25.901650 24360 net.cpp:141] Setting up inception_4d/pool_proj
I0915 11:40:25.901667 24360 net.cpp:148] Top shape: 10 64 14 14 (125440)
I0915 11:40:25.901671 24360 net.cpp:156] Memory required for data: 472908800
I0915 11:40:25.901680 24360 layer_factory.hpp:77] Creating layer inception_4d/relu_pool_proj
I0915 11:40:25.901688 24360 net.cpp:91] Creating Layer inception_4d/relu_pool_proj
I0915 11:40:25.901693 24360 net.cpp:425] inception_4d/relu_pool_proj <- inception_4d/pool_proj
I0915 11:40:25.901705 24360 net.cpp:386] inception_4d/relu_pool_proj -> inception_4d/pool_proj (in-place)
I0915 11:40:25.902110 24360 net.cpp:141] Setting up inception_4d/relu_pool_proj
I0915 11:40:25.902123 24360 net.cpp:148] Top shape: 10 64 14 14 (125440)
I0915 11:40:25.902127 24360 net.cpp:156] Memory required for data: 473410560
I0915 11:40:25.902132 24360 layer_factory.hpp:77] Creating layer inception_4d/output
I0915 11:40:25.902140 24360 net.cpp:91] Creating Layer inception_4d/output
I0915 11:40:25.902146 24360 net.cpp:425] inception_4d/output <- inception_4d/1x1
I0915 11:40:25.902153 24360 net.cpp:425] inception_4d/output <- inception_4d/3x3
I0915 11:40:25.902158 24360 net.cpp:425] inception_4d/output <- inception_4d/5x5
I0915 11:40:25.902163 24360 net.cpp:425] inception_4d/output <- inception_4d/pool_proj
I0915 11:40:25.902173 24360 net.cpp:399] inception_4d/output -> inception_4d/output
I0915 11:40:25.902220 24360 net.cpp:141] Setting up inception_4d/output
I0915 11:40:25.902230 24360 net.cpp:148] Top shape: 10 528 14 14 (1034880)
I0915 11:40:25.902233 24360 net.cpp:156] Memory required for data: 477550080
I0915 11:40:25.902238 24360 layer_factory.hpp:77] Creating layer inception_4d/output_inception_4d/output_0_split
I0915 11:40:25.902246 24360 net.cpp:91] Creating Layer inception_4d/output_inception_4d/output_0_split
I0915 11:40:25.902251 24360 net.cpp:425] inception_4d/output_inception_4d/output_0_split <- inception_4d/output
I0915 11:40:25.902257 24360 net.cpp:399] inception_4d/output_inception_4d/output_0_split -> inception_4d/output_inception_4d/output_0_split_0
I0915 11:40:25.902271 24360 net.cpp:399] inception_4d/output_inception_4d/output_0_split -> inception_4d/output_inception_4d/output_0_split_1
I0915 11:40:25.902279 24360 net.cpp:399] inception_4d/output_inception_4d/output_0_split -> inception_4d/output_inception_4d/output_0_split_2
I0915 11:40:25.902287 24360 net.cpp:399] inception_4d/output_inception_4d/output_0_split -> inception_4d/output_inception_4d/output_0_split_3
I0915 11:40:25.902384 24360 net.cpp:141] Setting up inception_4d/output_inception_4d/output_0_split
I0915 11:40:25.902393 24360 net.cpp:148] Top shape: 10 528 14 14 (1034880)
I0915 11:40:25.902400 24360 net.cpp:148] Top shape: 10 528 14 14 (1034880)
I0915 11:40:25.902403 24360 net.cpp:148] Top shape: 10 528 14 14 (1034880)
I0915 11:40:25.902408 24360 net.cpp:148] Top shape: 10 528 14 14 (1034880)
I0915 11:40:25.902412 24360 net.cpp:156] Memory required for data: 494108160
I0915 11:40:25.902416 24360 layer_factory.hpp:77] Creating layer inception_4e/1x1
I0915 11:40:25.902433 24360 net.cpp:91] Creating Layer inception_4e/1x1
I0915 11:40:25.902438 24360 net.cpp:425] inception_4e/1x1 <- inception_4d/output_inception_4d/output_0_split_0
I0915 11:40:25.902446 24360 net.cpp:399] inception_4e/1x1 -> inception_4e/1x1
I0915 11:40:25.905695 24360 net.cpp:141] Setting up inception_4e/1x1
I0915 11:40:25.905714 24360 net.cpp:148] Top shape: 10 256 14 14 (501760)
I0915 11:40:25.905719 24360 net.cpp:156] Memory required for data: 496115200
I0915 11:40:25.905727 24360 layer_factory.hpp:77] Creating layer inception_4e/relu_1x1
I0915 11:40:25.905741 24360 net.cpp:91] Creating Layer inception_4e/relu_1x1
I0915 11:40:25.905746 24360 net.cpp:425] inception_4e/relu_1x1 <- inception_4e/1x1
I0915 11:40:25.905753 24360 net.cpp:386] inception_4e/relu_1x1 -> inception_4e/1x1 (in-place)
I0915 11:40:25.906157 24360 net.cpp:141] Setting up inception_4e/relu_1x1
I0915 11:40:25.906170 24360 net.cpp:148] Top shape: 10 256 14 14 (501760)
I0915 11:40:25.906174 24360 net.cpp:156] Memory required for data: 498122240
I0915 11:40:25.906179 24360 layer_factory.hpp:77] Creating layer inception_4e/3x3_reduce
I0915 11:40:25.906195 24360 net.cpp:91] Creating Layer inception_4e/3x3_reduce
I0915 11:40:25.906201 24360 net.cpp:425] inception_4e/3x3_reduce <- inception_4d/output_inception_4d/output_0_split_1
I0915 11:40:25.906211 24360 net.cpp:399] inception_4e/3x3_reduce -> inception_4e/3x3_reduce
I0915 11:40:25.908327 24360 net.cpp:141] Setting up inception_4e/3x3_reduce
I0915 11:40:25.908344 24360 net.cpp:148] Top shape: 10 160 14 14 (313600)
I0915 11:40:25.908349 24360 net.cpp:156] Memory required for data: 499376640
I0915 11:40:25.908357 24360 layer_factory.hpp:77] Creating layer inception_4e/relu_3x3_reduce
I0915 11:40:25.908370 24360 net.cpp:91] Creating Layer inception_4e/relu_3x3_reduce
I0915 11:40:25.908376 24360 net.cpp:425] inception_4e/relu_3x3_reduce <- inception_4e/3x3_reduce
I0915 11:40:25.908382 24360 net.cpp:386] inception_4e/relu_3x3_reduce -> inception_4e/3x3_reduce (in-place)
I0915 11:40:25.908618 24360 net.cpp:141] Setting up inception_4e/relu_3x3_reduce
I0915 11:40:25.908629 24360 net.cpp:148] Top shape: 10 160 14 14 (313600)
I0915 11:40:25.908633 24360 net.cpp:156] Memory required for data: 500631040
I0915 11:40:25.908638 24360 layer_factory.hpp:77] Creating layer inception_4e/3x3
I0915 11:40:25.908654 24360 net.cpp:91] Creating Layer inception_4e/3x3
I0915 11:40:25.908660 24360 net.cpp:425] inception_4e/3x3 <- inception_4e/3x3_reduce
I0915 11:40:25.908670 24360 net.cpp:399] inception_4e/3x3 -> inception_4e/3x3
I0915 11:40:25.914438 24360 net.cpp:141] Setting up inception_4e/3x3
I0915 11:40:25.914470 24360 net.cpp:148] Top shape: 10 320 14 14 (627200)
I0915 11:40:25.914475 24360 net.cpp:156] Memory required for data: 503139840
I0915 11:40:25.914484 24360 layer_factory.hpp:77] Creating layer inception_4e/relu_3x3
I0915 11:40:25.914494 24360 net.cpp:91] Creating Layer inception_4e/relu_3x3
I0915 11:40:25.914499 24360 net.cpp:425] inception_4e/relu_3x3 <- inception_4e/3x3
I0915 11:40:25.914505 24360 net.cpp:386] inception_4e/relu_3x3 -> inception_4e/3x3 (in-place)
I0915 11:40:25.914928 24360 net.cpp:141] Setting up inception_4e/relu_3x3
I0915 11:40:25.914940 24360 net.cpp:148] Top shape: 10 320 14 14 (627200)
I0915 11:40:25.914945 24360 net.cpp:156] Memory required for data: 505648640
I0915 11:40:25.914950 24360 layer_factory.hpp:77] Creating layer inception_4e/5x5_reduce
I0915 11:40:25.914966 24360 net.cpp:91] Creating Layer inception_4e/5x5_reduce
I0915 11:40:25.914973 24360 net.cpp:425] inception_4e/5x5_reduce <- inception_4d/output_inception_4d/output_0_split_2
I0915 11:40:25.914984 24360 net.cpp:399] inception_4e/5x5_reduce -> inception_4e/5x5_reduce
I0915 11:40:25.916440 24360 net.cpp:141] Setting up inception_4e/5x5_reduce
I0915 11:40:25.916457 24360 net.cpp:148] Top shape: 10 32 14 14 (62720)
I0915 11:40:25.916461 24360 net.cpp:156] Memory required for data: 505899520
I0915 11:40:25.916471 24360 layer_factory.hpp:77] Creating layer inception_4e/relu_5x5_reduce
I0915 11:40:25.916478 24360 net.cpp:91] Creating Layer inception_4e/relu_5x5_reduce
I0915 11:40:25.916484 24360 net.cpp:425] inception_4e/relu_5x5_reduce <- inception_4e/5x5_reduce
I0915 11:40:25.916494 24360 net.cpp:386] inception_4e/relu_5x5_reduce -> inception_4e/5x5_reduce (in-place)
I0915 11:40:25.916899 24360 net.cpp:141] Setting up inception_4e/relu_5x5_reduce
I0915 11:40:25.916913 24360 net.cpp:148] Top shape: 10 32 14 14 (62720)
I0915 11:40:25.916916 24360 net.cpp:156] Memory required for data: 506150400
I0915 11:40:25.916921 24360 layer_factory.hpp:77] Creating layer inception_4e/5x5
I0915 11:40:25.916939 24360 net.cpp:91] Creating Layer inception_4e/5x5
I0915 11:40:25.916945 24360 net.cpp:425] inception_4e/5x5 <- inception_4e/5x5_reduce
I0915 11:40:25.916954 24360 net.cpp:399] inception_4e/5x5 -> inception_4e/5x5
I0915 11:40:25.919848 24360 net.cpp:141] Setting up inception_4e/5x5
I0915 11:40:25.919865 24360 net.cpp:148] Top shape: 10 128 14 14 (250880)
I0915 11:40:25.919870 24360 net.cpp:156] Memory required for data: 507153920
I0915 11:40:25.919879 24360 layer_factory.hpp:77] Creating layer inception_4e/relu_5x5
I0915 11:40:25.919888 24360 net.cpp:91] Creating Layer inception_4e/relu_5x5
I0915 11:40:25.919893 24360 net.cpp:425] inception_4e/relu_5x5 <- inception_4e/5x5
I0915 11:40:25.919903 24360 net.cpp:386] inception_4e/relu_5x5 -> inception_4e/5x5 (in-place)
I0915 11:40:25.920148 24360 net.cpp:141] Setting up inception_4e/relu_5x5
I0915 11:40:25.920161 24360 net.cpp:148] Top shape: 10 128 14 14 (250880)
I0915 11:40:25.920164 24360 net.cpp:156] Memory required for data: 508157440
I0915 11:40:25.920169 24360 layer_factory.hpp:77] Creating layer inception_4e/pool
I0915 11:40:25.920182 24360 net.cpp:91] Creating Layer inception_4e/pool
I0915 11:40:25.920188 24360 net.cpp:425] inception_4e/pool <- inception_4d/output_inception_4d/output_0_split_3
I0915 11:40:25.920197 24360 net.cpp:399] inception_4e/pool -> inception_4e/pool
I0915 11:40:25.920269 24360 net.cpp:141] Setting up inception_4e/pool
I0915 11:40:25.920279 24360 net.cpp:148] Top shape: 10 528 14 14 (1034880)
I0915 11:40:25.920282 24360 net.cpp:156] Memory required for data: 512296960
I0915 11:40:25.920287 24360 layer_factory.hpp:77] Creating layer inception_4e/pool_proj
I0915 11:40:25.920301 24360 net.cpp:91] Creating Layer inception_4e/pool_proj
I0915 11:40:25.920307 24360 net.cpp:425] inception_4e/pool_proj <- inception_4e/pool
I0915 11:40:25.920318 24360 net.cpp:399] inception_4e/pool_proj -> inception_4e/pool_proj
I0915 11:40:25.922272 24360 net.cpp:141] Setting up inception_4e/pool_proj
I0915 11:40:25.922289 24360 net.cpp:148] Top shape: 10 128 14 14 (250880)
I0915 11:40:25.922293 24360 net.cpp:156] Memory required for data: 513300480
I0915 11:40:25.922302 24360 layer_factory.hpp:77] Creating layer inception_4e/relu_pool_proj
I0915 11:40:25.922310 24360 net.cpp:91] Creating Layer inception_4e/relu_pool_proj
I0915 11:40:25.922317 24360 net.cpp:425] inception_4e/relu_pool_proj <- inception_4e/pool_proj
I0915 11:40:25.922322 24360 net.cpp:386] inception_4e/relu_pool_proj -> inception_4e/pool_proj (in-place)
I0915 11:40:25.922737 24360 net.cpp:141] Setting up inception_4e/relu_pool_proj
I0915 11:40:25.922749 24360 net.cpp:148] Top shape: 10 128 14 14 (250880)
I0915 11:40:25.922755 24360 net.cpp:156] Memory required for data: 514304000
I0915 11:40:25.922760 24360 layer_factory.hpp:77] Creating layer inception_4e/output
I0915 11:40:25.922768 24360 net.cpp:91] Creating Layer inception_4e/output
I0915 11:40:25.922773 24360 net.cpp:425] inception_4e/output <- inception_4e/1x1
I0915 11:40:25.922780 24360 net.cpp:425] inception_4e/output <- inception_4e/3x3
I0915 11:40:25.922785 24360 net.cpp:425] inception_4e/output <- inception_4e/5x5
I0915 11:40:25.922790 24360 net.cpp:425] inception_4e/output <- inception_4e/pool_proj
I0915 11:40:25.922799 24360 net.cpp:399] inception_4e/output -> inception_4e/output
I0915 11:40:25.922844 24360 net.cpp:141] Setting up inception_4e/output
I0915 11:40:25.922857 24360 net.cpp:148] Top shape: 10 832 14 14 (1630720)
I0915 11:40:25.922861 24360 net.cpp:156] Memory required for data: 520826880
I0915 11:40:25.922866 24360 layer_factory.hpp:77] Creating layer pool4/3x3_s2
I0915 11:40:25.922874 24360 net.cpp:91] Creating Layer pool4/3x3_s2
I0915 11:40:25.922879 24360 net.cpp:425] pool4/3x3_s2 <- inception_4e/output
I0915 11:40:25.922885 24360 net.cpp:399] pool4/3x3_s2 -> pool4/3x3_s2
I0915 11:40:25.922950 24360 net.cpp:141] Setting up pool4/3x3_s2
I0915 11:40:25.922960 24360 net.cpp:148] Top shape: 10 832 7 7 (407680)
I0915 11:40:25.922963 24360 net.cpp:156] Memory required for data: 522457600
I0915 11:40:25.922967 24360 layer_factory.hpp:77] Creating layer pool4/3x3_s2_pool4/3x3_s2_0_split
I0915 11:40:25.922976 24360 net.cpp:91] Creating Layer pool4/3x3_s2_pool4/3x3_s2_0_split
I0915 11:40:25.922981 24360 net.cpp:425] pool4/3x3_s2_pool4/3x3_s2_0_split <- pool4/3x3_s2
I0915 11:40:25.922989 24360 net.cpp:399] pool4/3x3_s2_pool4/3x3_s2_0_split -> pool4/3x3_s2_pool4/3x3_s2_0_split_0
I0915 11:40:25.922998 24360 net.cpp:399] pool4/3x3_s2_pool4/3x3_s2_0_split -> pool4/3x3_s2_pool4/3x3_s2_0_split_1
I0915 11:40:25.923007 24360 net.cpp:399] pool4/3x3_s2_pool4/3x3_s2_0_split -> pool4/3x3_s2_pool4/3x3_s2_0_split_2
I0915 11:40:25.923013 24360 net.cpp:399] pool4/3x3_s2_pool4/3x3_s2_0_split -> pool4/3x3_s2_pool4/3x3_s2_0_split_3
I0915 11:40:25.923111 24360 net.cpp:141] Setting up pool4/3x3_s2_pool4/3x3_s2_0_split
I0915 11:40:25.923123 24360 net.cpp:148] Top shape: 10 832 7 7 (407680)
I0915 11:40:25.923130 24360 net.cpp:148] Top shape: 10 832 7 7 (407680)
I0915 11:40:25.923135 24360 net.cpp:148] Top shape: 10 832 7 7 (407680)
I0915 11:40:25.923140 24360 net.cpp:148] Top shape: 10 832 7 7 (407680)
I0915 11:40:25.923142 24360 net.cpp:156] Memory required for data: 528980480
I0915 11:40:25.923147 24360 layer_factory.hpp:77] Creating layer inception_5a/1x1
I0915 11:40:25.923161 24360 net.cpp:91] Creating Layer inception_5a/1x1
I0915 11:40:25.923166 24360 net.cpp:425] inception_5a/1x1 <- pool4/3x3_s2_pool4/3x3_s2_0_split_0
I0915 11:40:25.923174 24360 net.cpp:399] inception_5a/1x1 -> inception_5a/1x1
I0915 11:40:25.926765 24360 net.cpp:141] Setting up inception_5a/1x1
I0915 11:40:25.926784 24360 net.cpp:148] Top shape: 10 256 7 7 (125440)
I0915 11:40:25.926789 24360 net.cpp:156] Memory required for data: 529482240
I0915 11:40:25.926797 24360 layer_factory.hpp:77] Creating layer inception_5a/relu_1x1
I0915 11:40:25.926806 24360 net.cpp:91] Creating Layer inception_5a/relu_1x1
I0915 11:40:25.926811 24360 net.cpp:425] inception_5a/relu_1x1 <- inception_5a/1x1
I0915 11:40:25.926818 24360 net.cpp:386] inception_5a/relu_1x1 -> inception_5a/1x1 (in-place)
I0915 11:40:25.927230 24360 net.cpp:141] Setting up inception_5a/relu_1x1
I0915 11:40:25.927243 24360 net.cpp:148] Top shape: 10 256 7 7 (125440)
I0915 11:40:25.927248 24360 net.cpp:156] Memory required for data: 529984000
I0915 11:40:25.927253 24360 layer_factory.hpp:77] Creating layer inception_5a/3x3_reduce
I0915 11:40:25.927268 24360 net.cpp:91] Creating Layer inception_5a/3x3_reduce
I0915 11:40:25.927274 24360 net.cpp:425] inception_5a/3x3_reduce <- pool4/3x3_s2_pool4/3x3_s2_0_split_1
I0915 11:40:25.927287 24360 net.cpp:399] inception_5a/3x3_reduce -> inception_5a/3x3_reduce
I0915 11:40:25.930472 24360 net.cpp:141] Setting up inception_5a/3x3_reduce
I0915 11:40:25.930490 24360 net.cpp:148] Top shape: 10 160 7 7 (78400)
I0915 11:40:25.930495 24360 net.cpp:156] Memory required for data: 530297600
I0915 11:40:25.930503 24360 layer_factory.hpp:77] Creating layer inception_5a/relu_3x3_reduce
I0915 11:40:25.930516 24360 net.cpp:91] Creating Layer inception_5a/relu_3x3_reduce
I0915 11:40:25.930521 24360 net.cpp:425] inception_5a/relu_3x3_reduce <- inception_5a/3x3_reduce
I0915 11:40:25.930528 24360 net.cpp:386] inception_5a/relu_3x3_reduce -> inception_5a/3x3_reduce (in-place)
I0915 11:40:25.930773 24360 net.cpp:141] Setting up inception_5a/relu_3x3_reduce
I0915 11:40:25.930784 24360 net.cpp:148] Top shape: 10 160 7 7 (78400)
I0915 11:40:25.930788 24360 net.cpp:156] Memory required for data: 530611200
I0915 11:40:25.930794 24360 layer_factory.hpp:77] Creating layer inception_5a/3x3
I0915 11:40:25.930809 24360 net.cpp:91] Creating Layer inception_5a/3x3
I0915 11:40:25.930814 24360 net.cpp:425] inception_5a/3x3 <- inception_5a/3x3_reduce
I0915 11:40:25.930822 24360 net.cpp:399] inception_5a/3x3 -> inception_5a/3x3
I0915 11:40:25.937250 24360 net.cpp:141] Setting up inception_5a/3x3
I0915 11:40:25.937284 24360 net.cpp:148] Top shape: 10 320 7 7 (156800)
I0915 11:40:25.937290 24360 net.cpp:156] Memory required for data: 531238400
I0915 11:40:25.937300 24360 layer_factory.hpp:77] Creating layer inception_5a/relu_3x3
I0915 11:40:25.937310 24360 net.cpp:91] Creating Layer inception_5a/relu_3x3
I0915 11:40:25.937316 24360 net.cpp:425] inception_5a/relu_3x3 <- inception_5a/3x3
I0915 11:40:25.937327 24360 net.cpp:386] inception_5a/relu_3x3 -> inception_5a/3x3 (in-place)
I0915 11:40:25.937764 24360 net.cpp:141] Setting up inception_5a/relu_3x3
I0915 11:40:25.937777 24360 net.cpp:148] Top shape: 10 320 7 7 (156800)
I0915 11:40:25.937780 24360 net.cpp:156] Memory required for data: 531865600
I0915 11:40:25.937785 24360 layer_factory.hpp:77] Creating layer inception_5a/5x5_reduce
I0915 11:40:25.937801 24360 net.cpp:91] Creating Layer inception_5a/5x5_reduce
I0915 11:40:25.937808 24360 net.cpp:425] inception_5a/5x5_reduce <- pool4/3x3_s2_pool4/3x3_s2_0_split_2
I0915 11:40:25.937818 24360 net.cpp:399] inception_5a/5x5_reduce -> inception_5a/5x5_reduce
I0915 11:40:25.939383 24360 net.cpp:141] Setting up inception_5a/5x5_reduce
I0915 11:40:25.939399 24360 net.cpp:148] Top shape: 10 32 7 7 (15680)
I0915 11:40:25.939404 24360 net.cpp:156] Memory required for data: 531928320
I0915 11:40:25.939411 24360 layer_factory.hpp:77] Creating layer inception_5a/relu_5x5_reduce
I0915 11:40:25.939420 24360 net.cpp:91] Creating Layer inception_5a/relu_5x5_reduce
I0915 11:40:25.939426 24360 net.cpp:425] inception_5a/relu_5x5_reduce <- inception_5a/5x5_reduce
I0915 11:40:25.939436 24360 net.cpp:386] inception_5a/relu_5x5_reduce -> inception_5a/5x5_reduce (in-place)
I0915 11:40:25.939846 24360 net.cpp:141] Setting up inception_5a/relu_5x5_reduce
I0915 11:40:25.939858 24360 net.cpp:148] Top shape: 10 32 7 7 (15680)
I0915 11:40:25.939863 24360 net.cpp:156] Memory required for data: 531991040
I0915 11:40:25.939867 24360 layer_factory.hpp:77] Creating layer inception_5a/5x5
I0915 11:40:25.939884 24360 net.cpp:91] Creating Layer inception_5a/5x5
I0915 11:40:25.939893 24360 net.cpp:425] inception_5a/5x5 <- inception_5a/5x5_reduce
I0915 11:40:25.939900 24360 net.cpp:399] inception_5a/5x5 -> inception_5a/5x5
I0915 11:40:25.942152 24360 net.cpp:141] Setting up inception_5a/5x5
I0915 11:40:25.942169 24360 net.cpp:148] Top shape: 10 128 7 7 (62720)
I0915 11:40:25.942174 24360 net.cpp:156] Memory required for data: 532241920
I0915 11:40:25.942183 24360 layer_factory.hpp:77] Creating layer inception_5a/relu_5x5
I0915 11:40:25.942217 24360 net.cpp:91] Creating Layer inception_5a/relu_5x5
I0915 11:40:25.942224 24360 net.cpp:425] inception_5a/relu_5x5 <- inception_5a/5x5
I0915 11:40:25.942235 24360 net.cpp:386] inception_5a/relu_5x5 -> inception_5a/5x5 (in-place)
I0915 11:40:25.942469 24360 net.cpp:141] Setting up inception_5a/relu_5x5
I0915 11:40:25.942481 24360 net.cpp:148] Top shape: 10 128 7 7 (62720)
I0915 11:40:25.942484 24360 net.cpp:156] Memory required for data: 532492800
I0915 11:40:25.942490 24360 layer_factory.hpp:77] Creating layer inception_5a/pool
I0915 11:40:25.942502 24360 net.cpp:91] Creating Layer inception_5a/pool
I0915 11:40:25.942507 24360 net.cpp:425] inception_5a/pool <- pool4/3x3_s2_pool4/3x3_s2_0_split_3
I0915 11:40:25.942515 24360 net.cpp:399] inception_5a/pool -> inception_5a/pool
I0915 11:40:25.942590 24360 net.cpp:141] Setting up inception_5a/pool
I0915 11:40:25.942600 24360 net.cpp:148] Top shape: 10 832 7 7 (407680)
I0915 11:40:25.942603 24360 net.cpp:156] Memory required for data: 534123520
I0915 11:40:25.942608 24360 layer_factory.hpp:77] Creating layer inception_5a/pool_proj
I0915 11:40:25.942623 24360 net.cpp:91] Creating Layer inception_5a/pool_proj
I0915 11:40:25.942628 24360 net.cpp:425] inception_5a/pool_proj <- inception_5a/pool
I0915 11:40:25.942638 24360 net.cpp:399] inception_5a/pool_proj -> inception_5a/pool_proj
I0915 11:40:25.945646 24360 net.cpp:141] Setting up inception_5a/pool_proj
I0915 11:40:25.945665 24360 net.cpp:148] Top shape: 10 128 7 7 (62720)
I0915 11:40:25.945670 24360 net.cpp:156] Memory required for data: 534374400
I0915 11:40:25.945679 24360 layer_factory.hpp:77] Creating layer inception_5a/relu_pool_proj
I0915 11:40:25.945688 24360 net.cpp:91] Creating Layer inception_5a/relu_pool_proj
I0915 11:40:25.945693 24360 net.cpp:425] inception_5a/relu_pool_proj <- inception_5a/pool_proj
I0915 11:40:25.945700 24360 net.cpp:386] inception_5a/relu_pool_proj -> inception_5a/pool_proj (in-place)
I0915 11:40:25.946120 24360 net.cpp:141] Setting up inception_5a/relu_pool_proj
I0915 11:40:25.946133 24360 net.cpp:148] Top shape: 10 128 7 7 (62720)
I0915 11:40:25.946137 24360 net.cpp:156] Memory required for data: 534625280
I0915 11:40:25.946142 24360 layer_factory.hpp:77] Creating layer inception_5a/output
I0915 11:40:25.946151 24360 net.cpp:91] Creating Layer inception_5a/output
I0915 11:40:25.946156 24360 net.cpp:425] inception_5a/output <- inception_5a/1x1
I0915 11:40:25.946162 24360 net.cpp:425] inception_5a/output <- inception_5a/3x3
I0915 11:40:25.946167 24360 net.cpp:425] inception_5a/output <- inception_5a/5x5
I0915 11:40:25.946172 24360 net.cpp:425] inception_5a/output <- inception_5a/pool_proj
I0915 11:40:25.946178 24360 net.cpp:399] inception_5a/output -> inception_5a/output
I0915 11:40:25.946230 24360 net.cpp:141] Setting up inception_5a/output
I0915 11:40:25.946239 24360 net.cpp:148] Top shape: 10 832 7 7 (407680)
I0915 11:40:25.946244 24360 net.cpp:156] Memory required for data: 536256000
I0915 11:40:25.946249 24360 layer_factory.hpp:77] Creating layer inception_5a/output_inception_5a/output_0_split
I0915 11:40:25.946259 24360 net.cpp:91] Creating Layer inception_5a/output_inception_5a/output_0_split
I0915 11:40:25.946264 24360 net.cpp:425] inception_5a/output_inception_5a/output_0_split <- inception_5a/output
I0915 11:40:25.946270 24360 net.cpp:399] inception_5a/output_inception_5a/output_0_split -> inception_5a/output_inception_5a/output_0_split_0
I0915 11:40:25.946280 24360 net.cpp:399] inception_5a/output_inception_5a/output_0_split -> inception_5a/output_inception_5a/output_0_split_1
I0915 11:40:25.946287 24360 net.cpp:399] inception_5a/output_inception_5a/output_0_split -> inception_5a/output_inception_5a/output_0_split_2
I0915 11:40:25.946295 24360 net.cpp:399] inception_5a/output_inception_5a/output_0_split -> inception_5a/output_inception_5a/output_0_split_3
I0915 11:40:25.946403 24360 net.cpp:141] Setting up inception_5a/output_inception_5a/output_0_split
I0915 11:40:25.946411 24360 net.cpp:148] Top shape: 10 832 7 7 (407680)
I0915 11:40:25.946416 24360 net.cpp:148] Top shape: 10 832 7 7 (407680)
I0915 11:40:25.946421 24360 net.cpp:148] Top shape: 10 832 7 7 (407680)
I0915 11:40:25.946426 24360 net.cpp:148] Top shape: 10 832 7 7 (407680)
I0915 11:40:25.946430 24360 net.cpp:156] Memory required for data: 542778880
I0915 11:40:25.946434 24360 layer_factory.hpp:77] Creating layer inception_5b/1x1
I0915 11:40:25.946450 24360 net.cpp:91] Creating Layer inception_5b/1x1
I0915 11:40:25.946455 24360 net.cpp:425] inception_5b/1x1 <- inception_5a/output_inception_5a/output_0_split_0
I0915 11:40:25.946465 24360 net.cpp:399] inception_5b/1x1 -> inception_5b/1x1
I0915 11:40:25.950955 24360 net.cpp:141] Setting up inception_5b/1x1
I0915 11:40:25.950985 24360 net.cpp:148] Top shape: 10 384 7 7 (188160)
I0915 11:40:25.950990 24360 net.cpp:156] Memory required for data: 543531520
I0915 11:40:25.950999 24360 layer_factory.hpp:77] Creating layer inception_5b/relu_1x1
I0915 11:40:25.951011 24360 net.cpp:91] Creating Layer inception_5b/relu_1x1
I0915 11:40:25.951017 24360 net.cpp:425] inception_5b/relu_1x1 <- inception_5b/1x1
I0915 11:40:25.951026 24360 net.cpp:386] inception_5b/relu_1x1 -> inception_5b/1x1 (in-place)
I0915 11:40:25.951438 24360 net.cpp:141] Setting up inception_5b/relu_1x1
I0915 11:40:25.951452 24360 net.cpp:148] Top shape: 10 384 7 7 (188160)
I0915 11:40:25.951455 24360 net.cpp:156] Memory required for data: 544284160
I0915 11:40:25.951460 24360 layer_factory.hpp:77] Creating layer inception_5b/3x3_reduce
I0915 11:40:25.951475 24360 net.cpp:91] Creating Layer inception_5b/3x3_reduce
I0915 11:40:25.951481 24360 net.cpp:425] inception_5b/3x3_reduce <- inception_5a/output_inception_5a/output_0_split_1
I0915 11:40:25.951490 24360 net.cpp:399] inception_5b/3x3_reduce -> inception_5b/3x3_reduce
I0915 11:40:25.954918 24360 net.cpp:141] Setting up inception_5b/3x3_reduce
I0915 11:40:25.954936 24360 net.cpp:148] Top shape: 10 192 7 7 (94080)
I0915 11:40:25.954941 24360 net.cpp:156] Memory required for data: 544660480
I0915 11:40:25.954951 24360 layer_factory.hpp:77] Creating layer inception_5b/relu_3x3_reduce
I0915 11:40:25.954962 24360 net.cpp:91] Creating Layer inception_5b/relu_3x3_reduce
I0915 11:40:25.954969 24360 net.cpp:425] inception_5b/relu_3x3_reduce <- inception_5b/3x3_reduce
I0915 11:40:25.954978 24360 net.cpp:386] inception_5b/relu_3x3_reduce -> inception_5b/3x3_reduce (in-place)
I0915 11:40:25.955219 24360 net.cpp:141] Setting up inception_5b/relu_3x3_reduce
I0915 11:40:25.955230 24360 net.cpp:148] Top shape: 10 192 7 7 (94080)
I0915 11:40:25.955235 24360 net.cpp:156] Memory required for data: 545036800
I0915 11:40:25.955240 24360 layer_factory.hpp:77] Creating layer inception_5b/3x3
I0915 11:40:25.955255 24360 net.cpp:91] Creating Layer inception_5b/3x3
I0915 11:40:25.955260 24360 net.cpp:425] inception_5b/3x3 <- inception_5b/3x3_reduce
I0915 11:40:25.955271 24360 net.cpp:399] inception_5b/3x3 -> inception_5b/3x3
I0915 11:40:25.963032 24360 net.cpp:141] Setting up inception_5b/3x3
I0915 11:40:25.963063 24360 net.cpp:148] Top shape: 10 384 7 7 (188160)
I0915 11:40:25.963069 24360 net.cpp:156] Memory required for data: 545789440
I0915 11:40:25.963078 24360 layer_factory.hpp:77] Creating layer inception_5b/relu_3x3
I0915 11:40:25.963088 24360 net.cpp:91] Creating Layer inception_5b/relu_3x3
I0915 11:40:25.963093 24360 net.cpp:425] inception_5b/relu_3x3 <- inception_5b/3x3
I0915 11:40:25.963099 24360 net.cpp:386] inception_5b/relu_3x3 -> inception_5b/3x3 (in-place)
I0915 11:40:25.963528 24360 net.cpp:141] Setting up inception_5b/relu_3x3
I0915 11:40:25.963543 24360 net.cpp:148] Top shape: 10 384 7 7 (188160)
I0915 11:40:25.963548 24360 net.cpp:156] Memory required for data: 546542080
I0915 11:40:25.963553 24360 layer_factory.hpp:77] Creating layer inception_5b/5x5_reduce
I0915 11:40:25.963569 24360 net.cpp:91] Creating Layer inception_5b/5x5_reduce
I0915 11:40:25.963575 24360 net.cpp:425] inception_5b/5x5_reduce <- inception_5a/output_inception_5a/output_0_split_2
I0915 11:40:25.963587 24360 net.cpp:399] inception_5b/5x5_reduce -> inception_5b/5x5_reduce
I0915 11:40:25.965286 24360 net.cpp:141] Setting up inception_5b/5x5_reduce
I0915 11:40:25.965317 24360 net.cpp:148] Top shape: 10 48 7 7 (23520)
I0915 11:40:25.965322 24360 net.cpp:156] Memory required for data: 546636160
I0915 11:40:25.965330 24360 layer_factory.hpp:77] Creating layer inception_5b/relu_5x5_reduce
I0915 11:40:25.965339 24360 net.cpp:91] Creating Layer inception_5b/relu_5x5_reduce
I0915 11:40:25.965345 24360 net.cpp:425] inception_5b/relu_5x5_reduce <- inception_5b/5x5_reduce
I0915 11:40:25.965353 24360 net.cpp:386] inception_5b/relu_5x5_reduce -> inception_5b/5x5_reduce (in-place)
I0915 11:40:25.965764 24360 net.cpp:141] Setting up inception_5b/relu_5x5_reduce
I0915 11:40:25.965780 24360 net.cpp:148] Top shape: 10 48 7 7 (23520)
I0915 11:40:25.965785 24360 net.cpp:156] Memory required for data: 546730240
I0915 11:40:25.965790 24360 layer_factory.hpp:77] Creating layer inception_5b/5x5
I0915 11:40:25.965806 24360 net.cpp:91] Creating Layer inception_5b/5x5
I0915 11:40:25.965811 24360 net.cpp:425] inception_5b/5x5 <- inception_5b/5x5_reduce
I0915 11:40:25.965821 24360 net.cpp:399] inception_5b/5x5 -> inception_5b/5x5
I0915 11:40:25.968864 24360 net.cpp:141] Setting up inception_5b/5x5
I0915 11:40:25.968881 24360 net.cpp:148] Top shape: 10 128 7 7 (62720)
I0915 11:40:25.968886 24360 net.cpp:156] Memory required for data: 546981120
I0915 11:40:25.968894 24360 layer_factory.hpp:77] Creating layer inception_5b/relu_5x5
I0915 11:40:25.968907 24360 net.cpp:91] Creating Layer inception_5b/relu_5x5
I0915 11:40:25.968914 24360 net.cpp:425] inception_5b/relu_5x5 <- inception_5b/5x5
I0915 11:40:25.968921 24360 net.cpp:386] inception_5b/relu_5x5 -> inception_5b/5x5 (in-place)
I0915 11:40:25.969169 24360 net.cpp:141] Setting up inception_5b/relu_5x5
I0915 11:40:25.969180 24360 net.cpp:148] Top shape: 10 128 7 7 (62720)
I0915 11:40:25.969184 24360 net.cpp:156] Memory required for data: 547232000
I0915 11:40:25.969189 24360 layer_factory.hpp:77] Creating layer inception_5b/pool
I0915 11:40:25.969198 24360 net.cpp:91] Creating Layer inception_5b/pool
I0915 11:40:25.969204 24360 net.cpp:425] inception_5b/pool <- inception_5a/output_inception_5a/output_0_split_3
I0915 11:40:25.969215 24360 net.cpp:399] inception_5b/pool -> inception_5b/pool
I0915 11:40:25.969291 24360 net.cpp:141] Setting up inception_5b/pool
I0915 11:40:25.969301 24360 net.cpp:148] Top shape: 10 832 7 7 (407680)
I0915 11:40:25.969305 24360 net.cpp:156] Memory required for data: 548862720
I0915 11:40:25.969310 24360 layer_factory.hpp:77] Creating layer inception_5b/pool_proj
I0915 11:40:25.969327 24360 net.cpp:91] Creating Layer inception_5b/pool_proj
I0915 11:40:25.969333 24360 net.cpp:425] inception_5b/pool_proj <- inception_5b/pool
I0915 11:40:25.969341 24360 net.cpp:399] inception_5b/pool_proj -> inception_5b/pool_proj
I0915 11:40:25.972394 24360 net.cpp:141] Setting up inception_5b/pool_proj
I0915 11:40:25.972412 24360 net.cpp:148] Top shape: 10 128 7 7 (62720)
I0915 11:40:25.972417 24360 net.cpp:156] Memory required for data: 549113600
I0915 11:40:25.972425 24360 layer_factory.hpp:77] Creating layer inception_5b/relu_pool_proj
I0915 11:40:25.972434 24360 net.cpp:91] Creating Layer inception_5b/relu_pool_proj
I0915 11:40:25.972440 24360 net.cpp:425] inception_5b/relu_pool_proj <- inception_5b/pool_proj
I0915 11:40:25.972450 24360 net.cpp:386] inception_5b/relu_pool_proj -> inception_5b/pool_proj (in-place)
I0915 11:40:25.972875 24360 net.cpp:141] Setting up inception_5b/relu_pool_proj
I0915 11:40:25.972890 24360 net.cpp:148] Top shape: 10 128 7 7 (62720)
I0915 11:40:25.972895 24360 net.cpp:156] Memory required for data: 549364480
I0915 11:40:25.972900 24360 layer_factory.hpp:77] Creating layer inception_5b/output
I0915 11:40:25.972908 24360 net.cpp:91] Creating Layer inception_5b/output
I0915 11:40:25.972913 24360 net.cpp:425] inception_5b/output <- inception_5b/1x1
I0915 11:40:25.972919 24360 net.cpp:425] inception_5b/output <- inception_5b/3x3
I0915 11:40:25.972925 24360 net.cpp:425] inception_5b/output <- inception_5b/5x5
I0915 11:40:25.972930 24360 net.cpp:425] inception_5b/output <- inception_5b/pool_proj
I0915 11:40:25.972941 24360 net.cpp:399] inception_5b/output -> inception_5b/output
I0915 11:40:25.972991 24360 net.cpp:141] Setting up inception_5b/output
I0915 11:40:25.973003 24360 net.cpp:148] Top shape: 10 1024 7 7 (501760)
I0915 11:40:25.973008 24360 net.cpp:156] Memory required for data: 551371520
I0915 11:40:25.973012 24360 layer_factory.hpp:77] Creating layer pool5/7x7_s1
I0915 11:40:25.973021 24360 net.cpp:91] Creating Layer pool5/7x7_s1
I0915 11:40:25.973026 24360 net.cpp:425] pool5/7x7_s1 <- inception_5b/output
I0915 11:40:25.973031 24360 net.cpp:399] pool5/7x7_s1 -> pool5/7x7_s1
I0915 11:40:25.973340 24360 net.cpp:141] Setting up pool5/7x7_s1
I0915 11:40:25.973352 24360 net.cpp:148] Top shape: 10 1024 1 1 (10240)
I0915 11:40:25.973356 24360 net.cpp:156] Memory required for data: 551412480
I0915 11:40:25.973361 24360 layer_factory.hpp:77] Creating layer pool5/drop_7x7_s1
I0915 11:40:25.973372 24360 net.cpp:91] Creating Layer pool5/drop_7x7_s1
I0915 11:40:25.973378 24360 net.cpp:425] pool5/drop_7x7_s1 <- pool5/7x7_s1
I0915 11:40:25.973384 24360 net.cpp:386] pool5/drop_7x7_s1 -> pool5/7x7_s1 (in-place)
I0915 11:40:25.973435 24360 net.cpp:141] Setting up pool5/drop_7x7_s1
I0915 11:40:25.973444 24360 net.cpp:148] Top shape: 10 1024 1 1 (10240)
I0915 11:40:25.973448 24360 net.cpp:156] Memory required for data: 551453440
I0915 11:40:25.973453 24360 layer_factory.hpp:77] Creating layer loss3/classifier
I0915 11:40:25.973469 24360 net.cpp:91] Creating Layer loss3/classifier
I0915 11:40:25.973474 24360 net.cpp:425] loss3/classifier <- pool5/7x7_s1
I0915 11:40:25.973485 24360 net.cpp:399] loss3/classifier -> loss3/classifier
I0915 11:40:25.983255 24360 net.cpp:141] Setting up loss3/classifier
I0915 11:40:25.983297 24360 net.cpp:148] Top shape: 10 1000 (10000)
I0915 11:40:25.983302 24360 net.cpp:156] Memory required for data: 551493440
I0915 11:40:25.983314 24360 layer_factory.hpp:77] Creating layer prob
I0915 11:40:25.983328 24360 net.cpp:91] Creating Layer prob
I0915 11:40:25.983335 24360 net.cpp:425] prob <- loss3/classifier
I0915 11:40:25.983342 24360 net.cpp:399] prob -> prob
I0915 11:40:25.983983 24360 net.cpp:141] Setting up prob
I0915 11:40:25.983997 24360 net.cpp:148] Top shape: 10 1000 (10000)
I0915 11:40:25.984002 24360 net.cpp:156] Memory required for data: 551533440
I0915 11:40:25.984007 24360 net.cpp:219] prob does not need backward computation.
I0915 11:40:25.984012 24360 net.cpp:219] loss3/classifier does not need backward computation.
I0915 11:40:25.984017 24360 net.cpp:219] pool5/drop_7x7_s1 does not need backward computation.
I0915 11:40:25.984021 24360 net.cpp:219] pool5/7x7_s1 does not need backward computation.
…
