…
W0924 03:31:33.268741 29639 upgrade_proto.cpp:71] Note that future Caffe releases will only support input layers and not input fields.
I0924 03:31:33.269137 29645 net.cpp:49] Initializing net from parameters: 
name: "s2vt:features_to_lstm"
state {
  phase: TEST
}
layer {
  name: "input"
  type: "Input"
  top: "frames_fc7"
  top: "cont_sentence"
  top: "input_sentence"
  top: "stage_indicator"
  input_param {
    shape {
      dim: 1
      dim: 4096
    }
    shape {
      dim: 1
      dim: 1
    }
    shape {
      dim: 1
      dim: 1
    }
    shape {
      dim: 1
      dim: 1
    }
  }
}
layer {
  name: "embed_encoder"
  type: "InnerProduct"
  bottom: "frames_fc7"
  top: "embedded_in_frames"
  param {
    lr_mult: 1
    decay_mult: 1
  }
  param {
    lr_mult: 2
    decay_mult: 0
  }
  inner_product_param {
    num_output: 500
    weight_filler {
      type: "xavier"
    }
    bias_filler {
      type: "constant"
      value: 0.2
    }
  }
}
layer {
  name: "reshape_frames"
  type: "Reshape"
  bottom: "embedded_in_frames"
  top: "embedded_input_frames"
  reshape_param {
    shape {
      dim: 1
      dim: 1
      dim: 500
    }
  }
}
layer {
  name: "reshape_stage_indicator"
  type: "Reshape"
  bottom: "stage_indicator"
  top: "reshaped_stage_indicator"
  reshape_param {
    shape {
      dim: 1
      dim: 1
      dim: 1
    }
  }
}
layer {
  name: "embedding"
  type: "Embed"
  bottom: "input_sentence"
  top: "embedded_input_sentence"
  param {
    lr_mult: 1
  }
  embed_param {
    num_output: 500
    input_dim: 46168
    bias_term: false
    weight_filler {
      type: "uniform"
      min: -0.08
      max: 0.08
    }
  }
}
layer {
  name: "lstm1"
  type: "LSTM"
  bottom: "embedded_input_frames"
  bottom: "cont_sentence"
  top: "lstm1"
  recurrent_param {
    num_output: 1000
    weight_filler {
      type: "uniform"
      min: -0.08
      max: 0.08
    }
    bias_filler {
      type: "constant"
      value: 0
    }
  }
}
layer {
  name: "concat"
  type: "Concat"
  bottom: "lstm1"
  bottom: "embedded_input_sentence"
  bottom: "reshaped_stage_indicator"
  top: "lstm1_video_sequence"
  concat_param {
    concat_dim: 2
  }
}
layer {
  name: "lstm2"
  type: "LSTM"
  bottom: "lstm1_video_sequence"
  bottom: "cont_sentence"
  top: "lstm2"
  recurrent_param {
    num_output: 1000
    weight_filler {
      type: "uniform"
      min: -0.08
      max: 0.08
    }
    bias_filler {
      type: "constant"
      value: 0
    }
  }
}
layer {
  name: "predict"
  type: "InnerProduct"
  bottom: "lstm2"
  top: "predict"
  param {
    lr_mult: 1
    decay_mult: 1
  }
  param {
    lr_mult: 2
    decay_mult: 0
  }
  inner_product_param {
    num_output: 46168
    weight_filler {
      type: "uniform"
      min: -0.08
      max: 0.08
    }
    bias_filler {
      type: "constant"
      value: 0
    }
    axis: 2
  }
}
layer {
  name: "probs"
  type: "Softmax"
  bottom: "predict"
  top: "probs"
  softmax_param {
    axis: 2
  }
}
I0924 03:31:33.269140 29635 net.cpp:49] Initializing net from parameters: 
name: "s2vt:features_to_lstm"
state {
  phase: TEST
}
layer {
  name: "input"
  type: "Input"
  top: "frames_fc7"
  top: "cont_sentence"
  top: "input_sentence"
  top: "stage_indicator"
  input_param {
    shape {
      dim: 1
      dim: 4096
    }
    shape {
      dim: 1
      dim: 1
    }
    shape {
      dim: 1
      dim: 1
    }
    shape {
      dim: 1
      dim: 1
    }
  }
}
layer {
  name: "embed_encoder"
  type: "InnerProduct"
  bottom: "frames_fc7"
  top: "embedded_in_frames"
  param {
    lr_mult: 1
    decay_mult: 1
  }
  param {
    lr_mult: 2
    decay_mult: 0
  }
  inner_product_param {
    num_output: 500
    weight_filler {
      type: "xavier"
    }
    bias_filler {
      type: "constant"
      value: 0.2
    }
  }
}
layer {
  name: "reshape_frames"
  type: "Reshape"
  bottom: "embedded_in_frames"
  top: "embedded_input_frames"
  reshape_param {
    shape {
      dim: 1
      dim: 1
      dim: 500
    }
  }
}
layer {
  name: "reshape_stage_indicator"
  type: "Reshape"
  bottom: "stage_indicator"
  top: "reshaped_stage_indicator"
  reshape_param {
    shape {
      dim: 1
      dim: 1
      dim: 1
    }
  }
}
layer {
  name: "embedding"
  type: "Embed"
  bottom: "input_sentence"
  top: "embedded_input_sentence"
  param {
    lr_mult: 1
  }
  embed_param {
    num_output: 500
    input_dim: 46168
    bias_term: false
    weight_filler {
      type: "uniform"
      min: -0.08
      max: 0.08
    }
  }
}
layer {
  name: "lstm1"
  type: "LSTM"
  bottom: "embedded_input_frames"
  bottom: "cont_sentence"
  top: "lstm1"
  recurrent_param {
    num_output: 1000
    weight_filler {
      type: "uniform"
      min: -0.08
      max: 0.08
    }
    bias_filler {
      type: "constant"
      value: 0
    }
  }
}
layer {
  name: "concat"
  type: "Concat"
  bottom: "lstm1"
  bottom: "embedded_input_sentence"
  bottom: "reshaped_stage_indicator"
  top: "lstm1_video_sequence"
  concat_param {
    concat_dim: 2
  }
}
layer {
  name: "lstm2"
  type: "LSTM"
  bottom: "lstm1_video_sequence"
  bottom: "cont_sentence"
  top: "lstm2"
  recurrent_param {
    num_output: 1000
    weight_filler {
      type: "uniform"
      min: -0.08
      max: 0.08
    }
    bias_filler {
      type: "constant"
      value: 0
    }
  }
}
layer {
  name: "predict"
  type: "InnerProduct"
  bottom: "lstm2"
  top: "predict"
  param {
    lr_mult: 1
    decay_mult: 1
  }
  param {
    lr_mult: 2
    decay_mult: 0
  }
  inner_product_param {
    num_output: 46168
    weight_filler {
      type: "uniform"
      min: -0.08
      max: 0.08
    }
    bias_filler {
      type: "constant"
      value: 0
    }
    axis: 2
  }
}
layer {
  name: "probs"
  type: "Softmax"
  bottom: "predict"
  top: "probs"
  softmax_param {
    axis: 2
  }
}
I0924 03:31:33.269146 29653 net.cpp:49] Initializing net from parameters: 
name: "s2vt:features_to_lstm"
state {
  phase: TEST
}
layer {
  name: "input"
  type: "Input"
  top: "frames_fc7"
  top: "cont_sentence"
  top: "input_sentence"
  top: "stage_indicator"
  input_param {
    shape {
      dim: 1
      dim: 4096
    }
    shape {
      dim: 1
      dim: 1
    }
    shape {
      dim: 1
      dim: 1
    }
    shape {
      dim: 1
      dim: 1
    }
  }
}
layer {
  name: "embed_encoder"
  type: "InnerProduct"
  bottom: "frames_fc7"
  top: "embedded_in_frames"
  param {
    lr_mult: 1
    decay_mult: 1
  }
  param {
    lr_mult: 2
    decay_mult: 0
  }
  inner_product_param {
    num_output: 500
    weight_filler {
      type: "xavier"
    }
    bias_filler {
      type: "constant"
      value: 0.2
    }
  }
}
layer {
  name: "reshape_frames"
  type: "Reshape"
  bottom: "embedded_in_frames"
  top: "embedded_input_frames"
  reshape_param {
    shape {
      dim: 1
      dim: 1
      dim: 500
    }
  }
}
layer {
  name: "reshape_stage_indicator"
  type: "Reshape"
  bottom: "stage_indicator"
  top: "reshaped_stage_indicator"
  reshape_param {
    shape {
      dim: 1
      dim: 1
      dim: 1
    }
  }
}
layer {
  name: "embedding"
  type: "Embed"
  bottom: "input_sentence"
  top: "embedded_input_sentence"
  param {
    lr_mult: 1
  }
  embed_param {
    num_output: 500
    input_dim: 46168
    bias_term: false
    weight_filler {
      type: "uniform"
      min: -0.08
      max: 0.08
    }
  }
}
layer {
  name: "lstm1"
  type: "LSTM"
  bottom: "embedded_input_frames"
  bottom: "cont_sentence"
  top: "lstm1"
  recurrent_param {
    num_output: 1000
    weight_filler {
      type: "uniform"
      min: -0.08
      max: 0.08
    }
    bias_filler {
      type: "constant"
      value: 0
    }
  }
}
layer {
  name: "concat"
  type: "Concat"
  bottom: "lstm1"
  bottom: "embedded_input_sentence"
  bottom: "reshaped_stage_indicator"
  top: "lstm1_video_sequence"
  concat_param {
    concat_dim: 2
  }
}
layer {
  name: "lstm2"
  type: "LSTM"
  bottom: "lstm1_video_sequence"
  bottom: "cont_sentence"
  top: "lstm2"
  recurrent_param {
    num_output: 1000
    weight_filler {
      type: "uniform"
      min: -0.08
      max: 0.08
    }
    bias_filler {
      type: "constant"
      value: 0
    }
  }
}
layer {
  name: "predict"
  type: "InnerProduct"
  bottom: "lstm2"
  top: "predict"
  param {
    lr_mult: 1
    decay_mult: 1
  }
  param {
    lr_mult: 2
    decay_mult: 0
  }
  inner_product_param {
    num_output: 46168
    weight_filler {
      type: "uniform"
      min: -0.08
      max: 0.08
    }
    bias_filler {
      type: "constant"
      value: 0
    }
    axis: 2
  }
}
layer {
  name: "probs"
  type: "Softmax"
  bottom: "predict"
  top: "probs"
  softmax_param {
    axis: 2
  }
}
I0924 03:31:33.269140 29679 net.cpp:49] Initializing net from parameters: 
name: "s2vt:features_to_lstm"
state {
  phase: TEST
}
layer {
  name: "input"
  type: "Input"
  top: "frames_fc7"
  top: "cont_sentence"
  top: "input_sentence"
  top: "stage_indicator"
  input_param {
    shape {
      dim: 1
      dim: 4096
    }
    shape {
      dim: 1
      dim: 1
    }
    shape {
      dim: 1
      dim: 1
    }
    shape {
      dim: 1
      dim: 1
    }
  }
}
layer {
  name: "embed_encoder"
  type: "InnerProduct"
  bottom: "frames_fc7"
  top: "embedded_in_frames"
  param {
    lr_mult: 1
    decay_mult: 1
  }
  param {
    lr_mult: 2
    decay_mult: 0
  }
  inner_product_param {
    num_output: 500
    weight_filler {
      type: "xavier"
    }
    bias_filler {
      type: "constant"
      value: 0.2
    }
  }
}
layer {
  name: "reshape_frames"
  type: "Reshape"
  bottom: "embedded_in_frames"
  top: "embedded_input_frames"
  reshape_param {
    shape {
      dim: 1
      dim: 1
      dim: 500
    }
  }
}
layer {
  name: "reshape_stage_indicator"
  type: "Reshape"
  bottom: "stage_indicator"
  top: "reshaped_stage_indicator"
  reshape_param {
    shape {
      dim: 1
      dim: 1
      dim: 1
    }
  }
}
layer {
  name: "embedding"
  type: "Embed"
  bottom: "input_sentence"
  top: "embedded_input_sentence"
  param {
    lr_mult: 1
  }
  embed_param {
    num_output: 500
    input_dim: 46168
    bias_term: false
    weight_filler {
      type: "uniform"
      min: -0.08
      max: 0.08
    }
  }
}
layer {
  name: "lstm1"
  type: "LSTM"
  bottom: "embedded_input_frames"
  bottom: "cont_sentence"
  top: "lstm1"
  recurrent_param {
    num_output: 1000
    weight_filler {
      type: "uniform"
      min: -0.08
      max: 0.08
    }
    bias_filler {
      type: "constant"
      value: 0
    }
  }
}
layer {
  name: "concat"
  type: "Concat"
  bottom: "lstm1"
  bottom: "embedded_input_sentence"
  bottom: "reshaped_stage_indicator"
  top: "lstm1_video_sequence"
  concat_param {
    concat_dim: 2
  }
}
layer {
  name: "lstm2"
  type: "LSTM"
  bottom: "lstm1_video_sequence"
  bottom: "cont_sentence"
  top: "lstm2"
  recurrent_param {
    num_output: 1000
    weight_filler {
      type: "uniform"
      min: -0.08
      max: 0.08
    }
    bias_filler {
      type: "constant"
      value: 0
    }
  }
}
layer {
  name: "predict"
  type: "InnerProduct"
  bottom: "lstm2"
  top: "predict"
  param {
    lr_mult: 1
    decay_mult: 1
  }
  param {
    lr_mult: 2
    decay_mult: 0
  }
  inner_product_param {
    num_output: 46168
    weight_filler {
      type: "uniform"
      min: -0.08
      max: 0.08
    }
    bias_filler {
      type: "constant"
      value: 0
    }
    axis: 2
  }
}
layer {
  name: "probs"
  type: "Softmax"
  bottom: "predict"
  top: "probs"
  softmax_param {
    axis: 2
  }
}
I0924 03:31:33.269140 29673 net.cpp:49] Initializing net from parameters: 
name: "s2vt:features_to_lstm"
state {
  phase: TEST
}
layer {
  name: "input"
  type: "Input"
  top: "frames_fc7"
  top: "cont_sentence"
  top: "input_sentence"
  top: "stage_indicator"
  input_param {
    shape {
      dim: 1
      dim: 4096
    }
    shape {
      dim: 1
      dim: 1
    }
    shape {
      dim: 1
      dim: 1
    }
    shape {
      dim: 1
      dim: 1
    }
  }
}
layer {
  name: "embed_encoder"
  type: "InnerProduct"
  bottom: "frames_fc7"
  top: "embedded_in_frames"
  param {
    lr_mult: 1
    decay_mult: 1
  }
  param {
    lr_mult: 2
    decay_mult: 0
  }
  inner_product_param {
    num_output: 500
    weight_filler {
      type: "xavier"
    }
    bias_filler {
      type: "constant"
      value: 0.2
    }
  }
}
layer {
  name: "reshape_frames"
  type: "Reshape"
  bottom: "embedded_in_frames"
  top: "embedded_input_frames"
  reshape_param {
    shape {
      dim: 1
      dim: 1
      dim: 500
    }
  }
}
layer {
  name: "reshape_stage_indicator"
  type: "Reshape"
  bottom: "stage_indicator"
  top: "reshaped_stage_indicator"
  reshape_param {
    shape {
      dim: 1
      dim: 1
      dim: 1
    }
  }
}
layer {
  name: "embedding"
  type: "Embed"
  bottom: "input_sentence"
  top: "embedded_input_sentence"
  param {
    lr_mult: 1
  }
  embed_param {
    num_output: 500
    input_dim: 46168
    bias_term: false
    weight_filler {
      type: "uniform"
      min: -0.08
      max: 0.08
    }
  }
}
layer {
  name: "lstm1"
  type: "LSTM"
  bottom: "embedded_input_frames"
  bottom: "cont_sentence"
  top: "lstm1"
  recurrent_param {
    num_output: 1000
    weight_filler {
      type: "uniform"
      min: -0.08
      max: 0.08
    }
    bias_filler {
      type: "constant"
      value: 0
    }
  }
}
layer {
  name: "concat"
  type: "Concat"
  bottom: "lstm1"
  bottom: "embedded_input_sentence"
  bottom: "reshaped_stage_indicator"
  top: "lstm1_video_sequence"
  concat_param {
    concat_dim: 2
  }
}
layer {
  name: "lstm2"
  type: "LSTM"
  bottom: "lstm1_video_sequence"
  bottom: "cont_sentence"
  top: "lstm2"
  recurrent_param {
    num_output: 1000
    weight_filler {
      type: "uniform"
      min: -0.08
      max: 0.08
    }
    bias_filler {
      type: "constant"
      value: 0
    }
  }
}
layer {
  name: "predict"
  type: "InnerProduct"
  bottom: "lstm2"
  top: "predict"
  param {
    lr_mult: 1
    decay_mult: 1
  }
  param {
    lr_mult: 2
    decay_mult: 0
  }
  inner_product_param {
    num_output: 46168
    weight_filler {
      type: "uniform"
      min: -0.08
      max: 0.08
    }
    bias_filler {
      type: "constant"
      value: 0
    }
    axis: 2
  }
}
layer {
  name: "probs"
  type: "Softmax"
  bottom: "predict"
  top: "probs"
  softmax_param {
    axis: 2
  }
}
I0924 03:31:33.269139 29639 net.cpp:49] Initializing net from parameters: 
name: "s2vt:features_to_lstm"
state {
  phase: TEST
}
layer {
  name: "input"
  type: "Input"
  top: "frames_fc7"
  top: "cont_sentence"
  top: "input_sentence"
  top: "stage_indicator"
  input_param {
    shape {
      dim: 1
      dim: 4096
    }
    shape {
      dim: 1
      dim: 1
    }
    shape {
      dim: 1
      dim: 1
    }
    shape {
      dim: 1
      dim: 1
    }
  }
}
layer {
  name: "embed_encoder"
  type: "InnerProduct"
  bottom: "frames_fc7"
  top: "embedded_in_frames"
  param {
    lr_mult: 1
    decay_mult: 1
  }
  param {
    lr_mult: 2
    decay_mult: 0
  }
  inner_product_param {
    num_output: 500
    weight_filler {
      type: "xavier"
    }
    bias_filler {
      type: "constant"
      value: 0.2
    }
  }
}
layer {
  name: "reshape_frames"
  type: "Reshape"
  bottom: "embedded_in_frames"
  top: "embedded_input_frames"
  reshape_param {
    shape {
      dim: 1
      dim: 1
      dim: 500
    }
  }
}
layer {
  name: "reshape_stage_indicator"
  type: "Reshape"
  bottom: "stage_indicator"
  top: "reshaped_stage_indicator"
  reshape_param {
    shape {
      dim: 1
      dim: 1
      dim: 1
    }
  }
}
layer {
  name: "embedding"
  type: "Embed"
  bottom: "input_sentence"
  top: "embedded_input_sentence"
  param {
    lr_mult: 1
  }
  embed_param {
    num_output: 500
    input_dim: 46168
    bias_term: false
    weight_filler {
      type: "uniform"
      min: -0.08
      max: 0.08
    }
  }
}
layer {
  name: "lstm1"
  type: "LSTM"
  bottom: "embedded_input_frames"
  bottom: "cont_sentence"
  top: "lstm1"
  recurrent_param {
    num_output: 1000
    weight_filler {
      type: "uniform"
      min: -0.08
      max: 0.08
    }
    bias_filler {
      type: "constant"
      value: 0
    }
  }
}
layer {
  name: "concat"
  type: "Concat"
  bottom: "lstm1"
  bottom: "embedded_input_sentence"
  bottom: "reshaped_stage_indicator"
  top: "lstm1_video_sequence"
  concat_param {
    concat_dim: 2
  }
}
layer {
  name: "lstm2"
  type: "LSTM"
  bottom: "lstm1_video_sequence"
  bottom: "cont_sentence"
  top: "lstm2"
  recurrent_param {
    num_output: 1000
    weight_filler {
      type: "uniform"
      min: -0.08
      max: 0.08
    }
    bias_filler {
      type: "constant"
      value: 0
    }
  }
}
layer {
  name: "predict"
  type: "InnerProduct"
  bottom: "lstm2"
  top: "predict"
  param {
    lr_mult: 1
    decay_mult: 1
  }
  param {
    lr_mult: 2
    decay_mult: 0
  }
  inner_product_param {
    num_output: 46168
    weight_filler {
      type: "uniform"
      min: -0.08
      max: 0.08
    }
    bias_filler {
      type: "constant"
      value: 0
    }
    axis: 2
  }
}
layer {
  name: "probs"
  type: "Softmax"
  bottom: "predict"
  top: "probs"
  softmax_param {
    axis: 2
  }
}
I0924 03:31:33.269279 29647 net.cpp:49] Initializing net from parameters: 
name: "CaffeNet"
state {
  phase: TEST
}
layer {
  name: "data"
  type: "Input"
  top: "data"
  input_param {
    shape {
      dim: 10
      dim: 3
      dim: 227
      dim: 227
    }
  }
}
layer {
  name: "conv1"
  type: "Convolution"
  bottom: "data"
  top: "conv1"
  convolution_param {
    num_output: 96
    kernel_size: 11
    stride: 4
  }
}
layer {
  name: "relu1"
  type: "ReLU"
  bottom: "conv1"
  top: "conv1"
}
layer {
  name: "pool1"
  type: "Pooling"
  bottom: "conv1"
  top: "pool1"
  pooling_param {
    pool: MAX
    kernel_size: 3
    stride: 2
  }
}
layer {
  name: "norm1"
  type: "LRN"
  bottom: "pool1"
  top: "norm1"
  lrn_param {
    local_size: 5
    alpha: 0.0001
    beta: 0.75
  }
}
layer {
  name: "conv2"
  type: "Convolution"
  bottom: "norm1"
  top: "conv2"
  convolution_param {
    num_output: 256
    pad: 2
    kernel_size: 5
    group: 2
  }
}
layer {
  name: "relu2"
  type: "ReLU"
  bottom: "conv2"
  top: "conv2"
}
layer {
  name: "pool2"
  type: "Pooling"
  bottom: "conv2"
  top: "pool2"
  pooling_param {
    pool: MAX
    kernel_size: 3
    stride: 2
  }
}
layer {
  name: "norm2"
  type: "LRN"
  bottom: "pool2"
  top: "norm2"
  lrn_param {
    local_size: 5
    alpha: 0.0001
    beta: 0.75
  }
}
layer {
  name: "conv3"
  type: "Convolution"
  bottom: "norm2"
  top: "conv3"
  convolution_param {
    num_output: 384
    pad: 1
    kernel_size: 3
  }
}
layer {
  name: "relu3"
  type: "ReLU"
  bottom: "conv3"
  top: "conv3"
}
layer {
  name: "conv4"
  type: "Convolution"
  bottom: "conv3"
  top: "conv4"
  convolution_param {
    num_output: 384
    pad: 1
    kernel_size: 3
    group: 2
  }
}
layer {
  name: "relu4"
  type: "ReLU"
  bottom: "conv4"
  top: "conv4"
}
layer {
  name: "conv5"
  type: "Convolution"
  bottom: "conv4"
  top: "conv5"
  convolution_param {
    num_output: 256
    pad: 1
    kernel_size: 3
    group: 2
  }
}
layer {
  name: "relu5"
  type: "ReLU"
  bottom: "conv5"
  top: "conv5"
}
layer {
  name: "pool5"
  type: "Pooling"
  bottom: "conv5"
  top: "pool5"
  pooling_param {
    pool: MAX
    kernel_size: 3
    stride: 2
  }
}
layer {
  name: "fc6"
  type: "InnerProduct"
  bottom: "pool5"
  top: "fc6"
  inner_product_param {
    num_output: 4096
  }
}
layer {
  name: "relu6"
  type: "ReLU"
  bottom: "fc6"
  top: "fc6"
}
layer {
  name: "drop6"
  type: "Dropout"
  bottom: "fc6"
  top: "fc6"
  dropout_param {
    dropout_ratio: 0.5
  }
}
layer {
  name: "fc7"
  type: "InnerProduct"
  bottom: "fc6"
  top: "fc7"
  inner_product_param {
    num_output: 4096
  }
}
layer {
  name: "relu7"
  type: "ReLU"
  bottom: "fc7"
  top: "fc7"
}
layer {
  name: "drop7"
  type: "Dropout"
  bottom: "fc7"
  top: "fc7"
  dropout_param {
    dropout_ratio: 0.5
  }
}
layer {
  name: "fc8"
  type: "InnerProduct"
  bottom: "fc7"
  top: "fc8"
  inner_product_param {
    num_output: 1000
  }
}
layer {
  name: "prob"
  type: "Softmax"
  bottom: "fc8"
  top: "prob"
}
I0924 03:31:33.269340 29645 layer_factory.hpp:77] Creating layer input
I0924 03:31:33.269345 29653 layer_factory.hpp:77] Creating layer input
I0924 03:31:33.269351 29673 layer_factory.hpp:77] Creating layer input
I0924 03:31:33.269341 29635 layer_factory.hpp:77] Creating layer input
I0924 03:31:33.269361 29639 layer_factory.hpp:77] Creating layer input
I0924 03:31:33.269342 29679 layer_factory.hpp:77] Creating layer input
…
W0924 03:31:33.271426 29641 upgrade_proto.cpp:71] Note that future Caffe releases will only support input layers and not input fields.
I0924 03:31:33.271903 29641 net.cpp:49] Initializing net from parameters: 
name: "s2vt:features_to_lstm"
state {
  phase: TEST
}
layer {
  name: "input"
  type: "Input"
  top: "frames_fc7"
  top: "cont_sentence"
  top: "input_sentence"
  top: "stage_indicator"
  input_param {
    shape {
      dim: 1
      dim: 4096
    }
    shape {
      dim: 1
      dim: 1
    }
    shape {
      dim: 1
      dim: 1
    }
    shape {
      dim: 1
      dim: 1
    }
  }
}
layer {
  name: "embed_encoder"
  type: "InnerProduct"
  bottom: "frames_fc7"
  top: "embedded_in_frames"
  param {
    lr_mult: 1
    decay_mult: 1
  }
  param {
    lr_mult: 2
    decay_mult: 0
  }
  inner_product_param {
    num_output: 500
    weight_filler {
      type: "xavier"
    }
    bias_filler {
      type: "constant"
      value: 0.2
    }
  }
}
layer {
  name: "reshape_frames"
  type: "Reshape"
  bottom: "embedded_in_frames"
  top: "embedded_input_frames"
  reshape_param {
    shape {
      dim: 1
      dim: 1
      dim: 500
    }
  }
}
layer {
  name: "reshape_stage_indicator"
  type: "Reshape"
  bottom: "stage_indicator"
  top: "reshaped_stage_indicator"
  reshape_param {
    shape {
      dim: 1
      dim: 1
      dim: 1
    }
  }
}
layer {
  name: "embedding"
  type: "Embed"
  bottom: "input_sentence"
  top: "embedded_input_sentence"
  param {
    lr_mult: 1
  }
  embed_param {
    num_output: 500
    input_dim: 46168
    bias_term: false
    weight_filler {
      type: "uniform"
      min: -0.08
      max: 0.08
    }
  }
}
layer {
  name: "lstm1"
  type: "LSTM"
  bottom: "embedded_input_frames"
  bottom: "cont_sentence"
  top: "lstm1"
  recurrent_param {
    num_output: 1000
    weight_filler {
      type: "uniform"
      min: -0.08
      max: 0.08
    }
    bias_filler {
      type: "constant"
      value: 0
    }
  }
}
layer {
  name: "concat"
  type: "Concat"
  bottom: "lstm1"
  bottom: "embedded_input_sentence"
  bottom: "reshaped_stage_indicator"
  top: "lstm1_video_sequence"
  concat_param {
    concat_dim: 2
  }
}
layer {
  name: "lstm2"
  type: "LSTM"
  bottom: "lstm1_video_sequence"
  bottom: "cont_sentence"
  top: "lstm2"
  recurrent_param {
    num_output: 1000
    weight_filler {
      type: "uniform"
      min: -0.08
      max: 0.08
    }
    bias_filler {
      type: "constant"
      value: 0
    }
  }
}
layer {
  name: "predict"
  type: "InnerProduct"
  bottom: "lstm2"
  top: "predict"
  param {
    lr_mult: 1
    decay_mult: 1
  }
  param {
    lr_mult: 2
    decay_mult: 0
  }
  inner_product_param {
    num_output: 46168
    weight_filler {
      type: "uniform"
      min: -0.08
      max: 0.08
    }
    bias_filler {
      type: "constant"
      value: 0
    }
    axis: 2
  }
}
layer {
  name: "probs"
  type: "Softmax"
  bottom: "predict"
  top: "probs"
  softmax_param {
    axis: 2
  }
}
I0924 03:31:33.272074 29641 layer_factory.hpp:77] Creating layer input
I0924 03:31:33.272099 29641 net.cpp:91] Creating Layer input
I0924 03:31:33.272114 29641 net.cpp:399] input -> frames_fc7
I0924 03:31:33.272136 29641 net.cpp:399] input -> cont_sentence
I0924 03:31:33.272156 29641 net.cpp:399] input -> input_sentence
I0924 03:31:33.272173 29641 net.cpp:399] input -> stage_indicator
I0924 03:31:34.045552 29647 net.cpp:141] Setting up data
I0924 03:31:34.045620 29647 net.cpp:148] Top shape: 10 3 227 227 (1545870)
I0924 03:31:34.045627 29647 net.cpp:156] Memory required for data: 6183480
I0924 03:31:34.045647 29647 layer_factory.hpp:77] Creating layer conv1
I0924 03:31:34.045680 29647 net.cpp:91] Creating Layer conv1
I0924 03:31:34.045691 29647 net.cpp:425] conv1 <- data
I0924 03:31:34.045704 29647 net.cpp:399] conv1 -> conv1
I0924 03:31:34.045961 29679 net.cpp:141] Setting up input
I0924 03:31:34.045995 29679 net.cpp:148] Top shape: 1 4096 (4096)
I0924 03:31:34.046003 29679 net.cpp:148] Top shape: 1 1 (1)
I0924 03:31:34.046010 29679 net.cpp:148] Top shape: 1 1 (1)
I0924 03:31:34.046015 29679 net.cpp:148] Top shape: 1 1 (1)
I0924 03:31:34.046020 29679 net.cpp:156] Memory required for data: 16396
I0924 03:31:34.046027 29679 layer_factory.hpp:77] Creating layer cont_sentence_input_1_split
I0924 03:31:34.046057 29679 net.cpp:91] Creating Layer cont_sentence_input_1_split
I0924 03:31:34.046068 29679 net.cpp:425] cont_sentence_input_1_split <- cont_sentence
I0924 03:31:34.046114 29679 net.cpp:399] cont_sentence_input_1_split -> cont_sentence_input_1_split_0
I0924 03:31:34.046131 29679 net.cpp:399] cont_sentence_input_1_split -> cont_sentence_input_1_split_1
I0924 03:31:34.046226 29653 net.cpp:141] Setting up input
I0924 03:31:34.046246 29653 net.cpp:148] Top shape: 1 4096 (4096)
I0924 03:31:34.046252 29653 net.cpp:148] Top shape: 1 1 (1)
I0924 03:31:34.046258 29653 net.cpp:148] Top shape: 1 1 (1)
I0924 03:31:34.046263 29653 net.cpp:148] Top shape: 1 1 (1)
I0924 03:31:34.046267 29653 net.cpp:156] Memory required for data: 16396
I0924 03:31:34.046273 29653 layer_factory.hpp:77] Creating layer cont_sentence_input_1_split
I0924 03:31:34.046284 29653 net.cpp:91] Creating Layer cont_sentence_input_1_split
I0924 03:31:34.046291 29653 net.cpp:425] cont_sentence_input_1_split <- cont_sentence
I0924 03:31:34.046305 29653 net.cpp:399] cont_sentence_input_1_split -> cont_sentence_input_1_split_0
I0924 03:31:34.046324 29653 net.cpp:399] cont_sentence_input_1_split -> cont_sentence_input_1_split_1
I0924 03:31:34.046447 29673 net.cpp:141] Setting up input
I0924 03:31:34.046464 29673 net.cpp:148] Top shape: 1 4096 (4096)
I0924 03:31:34.046473 29673 net.cpp:148] Top shape: 1 1 (1)
I0924 03:31:34.046478 29673 net.cpp:148] Top shape: 1 1 (1)
I0924 03:31:34.046483 29673 net.cpp:148] Top shape: 1 1 (1)
I0924 03:31:34.046489 29673 net.cpp:156] Memory required for data: 16396
I0924 03:31:34.046494 29673 layer_factory.hpp:77] Creating layer cont_sentence_input_1_split
I0924 03:31:34.046504 29673 net.cpp:91] Creating Layer cont_sentence_input_1_split
I0924 03:31:34.046509 29673 net.cpp:425] cont_sentence_input_1_split <- cont_sentence
I0924 03:31:34.046519 29673 net.cpp:399] cont_sentence_input_1_split -> cont_sentence_input_1_split_0
I0924 03:31:34.046530 29673 net.cpp:399] cont_sentence_input_1_split -> cont_sentence_input_1_split_1
I0924 03:31:34.046545 29645 net.cpp:141] Setting up input
I0924 03:31:34.046561 29645 net.cpp:148] Top shape: 1 4096 (4096)
I0924 03:31:34.046569 29645 net.cpp:148] Top shape: 1 1 (1)
I0924 03:31:34.046581 29645 net.cpp:148] Top shape: 1 1 (1)
I0924 03:31:34.046583 29673 net.cpp:141] Setting up cont_sentence_input_1_split
I0924 03:31:34.046587 29645 net.cpp:148] Top shape: 1 1 (1)
I0924 03:31:34.046592 29645 net.cpp:156] Memory required for data: 16396
I0924 03:31:34.046593 29673 net.cpp:148] Top shape: 1 1 (1)
I0924 03:31:34.046612 29645 layer_factory.hpp:77] Creating layer cont_sentence_input_1_split
I0924 03:31:34.046614 29673 net.cpp:148] Top shape: 1 1 (1)
I0924 03:31:34.046619 29673 net.cpp:156] Memory required for data: 16404
I0924 03:31:34.046623 29645 net.cpp:91] Creating Layer cont_sentence_input_1_split
I0924 03:31:34.046624 29673 layer_factory.hpp:77] Creating layer embed_encoder
I0924 03:31:34.046628 29645 net.cpp:425] cont_sentence_input_1_split <- cont_sentence
I0924 03:31:34.046638 29645 net.cpp:399] cont_sentence_input_1_split -> cont_sentence_input_1_split_0
I0924 03:31:34.046645 29673 net.cpp:91] Creating Layer embed_encoder
I0924 03:31:34.046648 29645 net.cpp:399] cont_sentence_input_1_split -> cont_sentence_input_1_split_1
I0924 03:31:34.046651 29673 net.cpp:425] embed_encoder <- frames_fc7
I0924 03:31:34.046660 29673 net.cpp:399] embed_encoder -> embedded_in_frames
I0924 03:31:34.046685 29641 net.cpp:141] Setting up input
I0924 03:31:34.046701 29641 net.cpp:148] Top shape: 1 4096 (4096)
I0924 03:31:34.046708 29641 net.cpp:148] Top shape: 1 1 (1)
I0924 03:31:34.046713 29641 net.cpp:148] Top shape: 1 1 (1)
I0924 03:31:34.046720 29641 net.cpp:148] Top shape: 1 1 (1)
I0924 03:31:34.046723 29641 net.cpp:156] Memory required for data: 16396
I0924 03:31:34.046731 29641 layer_factory.hpp:77] Creating layer cont_sentence_input_1_split
I0924 03:31:34.046761 29641 net.cpp:91] Creating Layer cont_sentence_input_1_split
I0924 03:31:34.046769 29641 net.cpp:425] cont_sentence_input_1_split <- cont_sentence
I0924 03:31:34.046778 29641 net.cpp:399] cont_sentence_input_1_split -> cont_sentence_input_1_split_0
I0924 03:31:34.046792 29641 net.cpp:399] cont_sentence_input_1_split -> cont_sentence_input_1_split_1
I0924 03:31:34.050801 29635 net.cpp:141] Setting up input
I0924 03:31:34.050853 29635 net.cpp:148] Top shape: 1 4096 (4096)
I0924 03:31:34.050873 29635 net.cpp:148] Top shape: 1 1 (1)
I0924 03:31:34.050879 29653 net.cpp:141] Setting up cont_sentence_input_1_split
I0924 03:31:34.050920 29653 net.cpp:148] Top shape: 1 1 (1)
I0924 03:31:34.050894 29635 net.cpp:148] Top shape: 1 1 (1)
I0924 03:31:34.050927 29653 net.cpp:148] Top shape: 1 1 (1)
I0924 03:31:34.050933 29653 net.cpp:156] Memory required for data: 16404
I0924 03:31:34.050941 29653 layer_factory.hpp:77] Creating layer embed_encoder
I0924 03:31:34.050940 29635 net.cpp:148] Top shape: 1 1 (1)
I0924 03:31:34.050953 29635 net.cpp:156] Memory required for data: 16396
I0924 03:31:34.050959 29645 net.cpp:141] Setting up cont_sentence_input_1_split
I0924 03:31:34.050968 29635 layer_factory.hpp:77] Creating layer cont_sentence_input_1_split
I0924 03:31:34.050966 29653 net.cpp:91] Creating Layer embed_encoder
I0924 03:31:34.050992 29653 net.cpp:425] embed_encoder <- frames_fc7
I0924 03:31:34.050992 29645 net.cpp:148] Top shape: 1 1 (1)
I0924 03:31:34.050998 29635 net.cpp:91] Creating Layer cont_sentence_input_1_split
I0924 03:31:34.051007 29645 net.cpp:148] Top shape: 1 1 (1)
I0924 03:31:34.051017 29645 net.cpp:156] Memory required for data: 16404
I0924 03:31:34.051005 29653 net.cpp:399] embed_encoder -> embedded_in_frames
I0924 03:31:34.051025 29635 net.cpp:425] cont_sentence_input_1_split <- cont_sentence
I0924 03:31:34.051056 29635 net.cpp:399] cont_sentence_input_1_split -> cont_sentence_input_1_split_0
I0924 03:31:34.051082 29635 net.cpp:399] cont_sentence_input_1_split -> cont_sentence_input_1_split_1
I0924 03:31:34.051136 29679 net.cpp:141] Setting up cont_sentence_input_1_split
I0924 03:31:34.051157 29679 net.cpp:148] Top shape: 1 1 (1)
I0924 03:31:34.051169 29679 net.cpp:148] Top shape: 1 1 (1)
I0924 03:31:34.051178 29679 net.cpp:156] Memory required for data: 16404
I0924 03:31:34.051188 29679 layer_factory.hpp:77] Creating layer embed_encoder
I0924 03:31:34.051208 29679 net.cpp:91] Creating Layer embed_encoder
I0924 03:31:34.051219 29679 net.cpp:425] embed_encoder <- frames_fc7
I0924 03:31:34.051254 29679 net.cpp:399] embed_encoder -> embedded_in_frames
I0924 03:31:34.051265 29639 net.cpp:141] Setting up input
I0924 03:31:34.051296 29639 net.cpp:148] Top shape: 1 4096 (4096)
I0924 03:31:34.051308 29639 net.cpp:148] Top shape: 1 1 (1)
I0924 03:31:34.051322 29639 net.cpp:148] Top shape: 1 1 (1)
I0924 03:31:34.051333 29639 net.cpp:148] Top shape: 1 1 (1)
I0924 03:31:34.051342 29639 net.cpp:156] Memory required for data: 16396
I0924 03:31:34.051352 29639 layer_factory.hpp:77] Creating layer cont_sentence_input_1_split
I0924 03:31:34.051368 29639 net.cpp:91] Creating Layer cont_sentence_input_1_split
I0924 03:31:34.051379 29639 net.cpp:425] cont_sentence_input_1_split <- cont_sentence
I0924 03:31:34.051442 29639 net.cpp:399] cont_sentence_input_1_split -> cont_sentence_input_1_split_0
I0924 03:31:34.051468 29639 net.cpp:399] cont_sentence_input_1_split -> cont_sentence_input_1_split_1
I0924 03:31:34.051028 29645 layer_factory.hpp:77] Creating layer embed_encoder
I0924 03:31:34.054702 29645 net.cpp:91] Creating Layer embed_encoder
I0924 03:31:34.054724 29645 net.cpp:425] embed_encoder <- frames_fc7
I0924 03:31:34.054744 29645 net.cpp:399] embed_encoder -> embedded_in_frames
I0924 03:31:34.056287 29641 net.cpp:141] Setting up cont_sentence_input_1_split
I0924 03:31:34.056316 29641 net.cpp:148] Top shape: 1 1 (1)
I0924 03:31:34.056329 29641 net.cpp:148] Top shape: 1 1 (1)
I0924 03:31:34.056337 29641 net.cpp:156] Memory required for data: 16404
I0924 03:31:34.056349 29641 layer_factory.hpp:77] Creating layer embed_encoder
I0924 03:31:34.056372 29641 net.cpp:91] Creating Layer embed_encoder
I0924 03:31:34.056385 29641 net.cpp:425] embed_encoder <- frames_fc7
I0924 03:31:34.056401 29641 net.cpp:399] embed_encoder -> embedded_in_frames
I0924 03:31:34.061359 29639 net.cpp:141] Setting up cont_sentence_input_1_split
I0924 03:31:34.061408 29639 net.cpp:148] Top shape: 1 1 (1)
I0924 03:31:34.061405 29635 net.cpp:141] Setting up cont_sentence_input_1_split
I0924 03:31:34.061416 29639 net.cpp:148] Top shape: 1 1 (1)
I0924 03:31:34.061421 29639 net.cpp:156] Memory required for data: 16404
I0924 03:31:34.061427 29635 net.cpp:148] Top shape: 1 1 (1)
I0924 03:31:34.061446 29635 net.cpp:148] Top shape: 1 1 (1)
I0924 03:31:34.061455 29635 net.cpp:156] Memory required for data: 16404
I0924 03:31:34.061463 29635 layer_factory.hpp:77] Creating layer embed_encoder
I0924 03:31:34.061496 29635 net.cpp:91] Creating Layer embed_encoder
I0924 03:31:34.061506 29635 net.cpp:425] embed_encoder <- frames_fc7
I0924 03:31:34.061523 29635 net.cpp:399] embed_encoder -> embedded_in_frames
I0924 03:31:34.061430 29639 layer_factory.hpp:77] Creating layer embed_encoder
I0924 03:31:34.066437 29639 net.cpp:91] Creating Layer embed_encoder
I0924 03:31:34.066493 29639 net.cpp:425] embed_encoder <- frames_fc7
I0924 03:31:34.066537 29639 net.cpp:399] embed_encoder -> embedded_in_frames
I0924 03:31:34.081019 29673 net.cpp:141] Setting up embed_encoder
I0924 03:31:34.081070 29673 net.cpp:148] Top shape: 1 500 (500)
I0924 03:31:34.081077 29673 net.cpp:156] Memory required for data: 18404
I0924 03:31:34.081104 29673 layer_factory.hpp:77] Creating layer reshape_frames
I0924 03:31:34.081136 29673 net.cpp:91] Creating Layer reshape_frames
I0924 03:31:34.081146 29673 net.cpp:425] reshape_frames <- embedded_in_frames
I0924 03:31:34.081156 29673 net.cpp:399] reshape_frames -> embedded_input_frames
I0924 03:31:34.090231 29673 net.cpp:141] Setting up reshape_frames
I0924 03:31:34.090286 29673 net.cpp:148] Top shape: 1 1 500 (500)
I0924 03:31:34.090296 29673 net.cpp:156] Memory required for data: 20404
I0924 03:31:34.090306 29673 layer_factory.hpp:77] Creating layer reshape_stage_indicator
I0924 03:31:34.090332 29673 net.cpp:91] Creating Layer reshape_stage_indicator
I0924 03:31:34.090344 29673 net.cpp:425] reshape_stage_indicator <- stage_indicator
I0924 03:31:34.090361 29673 net.cpp:399] reshape_stage_indicator -> reshaped_stage_indicator
I0924 03:31:34.090421 29673 net.cpp:141] Setting up reshape_stage_indicator
I0924 03:31:34.090437 29673 net.cpp:148] Top shape: 1 1 1 (1)
I0924 03:31:34.090445 29673 net.cpp:156] Memory required for data: 20408
I0924 03:31:34.090452 29673 layer_factory.hpp:77] Creating layer embedding
I0924 03:31:34.090468 29673 net.cpp:91] Creating Layer embedding
I0924 03:31:34.090476 29673 net.cpp:425] embedding <- input_sentence
I0924 03:31:34.090489 29673 net.cpp:399] embedding -> embedded_input_sentence
I0924 03:31:34.138063 29635 net.cpp:141] Setting up embed_encoder
I0924 03:31:34.138118 29635 net.cpp:148] Top shape: 1 500 (500)
I0924 03:31:34.138123 29635 net.cpp:156] Memory required for data: 18404
I0924 03:31:34.138145 29635 layer_factory.hpp:77] Creating layer reshape_frames
I0924 03:31:34.138169 29635 net.cpp:91] Creating Layer reshape_frames
I0924 03:31:34.138175 29635 net.cpp:425] reshape_frames <- embedded_in_frames
I0924 03:31:34.138186 29635 net.cpp:399] reshape_frames -> embedded_input_frames
I0924 03:31:34.139700 29639 net.cpp:141] Setting up embed_encoder
I0924 03:31:34.139721 29639 net.cpp:148] Top shape: 1 500 (500)
I0924 03:31:34.139726 29639 net.cpp:156] Memory required for data: 18404
I0924 03:31:34.139740 29639 layer_factory.hpp:77] Creating layer reshape_frames
I0924 03:31:34.139751 29639 net.cpp:91] Creating Layer reshape_frames
I0924 03:31:34.139757 29639 net.cpp:425] reshape_frames <- embedded_in_frames
I0924 03:31:34.139767 29639 net.cpp:399] reshape_frames -> embedded_input_frames
I0924 03:31:34.139802 29679 net.cpp:141] Setting up embed_encoder
I0924 03:31:34.139820 29679 net.cpp:148] Top shape: 1 500 (500)
I0924 03:31:34.139825 29679 net.cpp:156] Memory required for data: 18404
I0924 03:31:34.139842 29679 layer_factory.hpp:77] Creating layer reshape_frames
I0924 03:31:34.139853 29679 net.cpp:91] Creating Layer reshape_frames
I0924 03:31:34.139859 29679 net.cpp:425] reshape_frames <- embedded_in_frames
I0924 03:31:34.139869 29679 net.cpp:399] reshape_frames -> embedded_input_frames
I0924 03:31:34.139914 29635 net.cpp:141] Setting up reshape_frames
I0924 03:31:34.139924 29635 net.cpp:148] Top shape: 1 1 500 (500)
I0924 03:31:34.139930 29635 net.cpp:156] Memory required for data: 20404
I0924 03:31:34.139937 29635 layer_factory.hpp:77] Creating layer reshape_stage_indicator
I0924 03:31:34.139953 29635 net.cpp:91] Creating Layer reshape_stage_indicator
I0924 03:31:34.139961 29635 net.cpp:425] reshape_stage_indicator <- stage_indicator
I0924 03:31:34.139960 29639 net.cpp:141] Setting up reshape_frames
I0924 03:31:34.139971 29639 net.cpp:148] Top shape: 1 1 500 (500)
I0924 03:31:34.139972 29635 net.cpp:399] reshape_stage_indicator -> reshaped_stage_indicator
I0924 03:31:34.139976 29639 net.cpp:156] Memory required for data: 20404
I0924 03:31:34.139981 29639 layer_factory.hpp:77] Creating layer reshape_stage_indicator
I0924 03:31:34.139991 29639 net.cpp:91] Creating Layer reshape_stage_indicator
I0924 03:31:34.139997 29639 net.cpp:425] reshape_stage_indicator <- stage_indicator
I0924 03:31:34.140004 29639 net.cpp:399] reshape_stage_indicator -> reshaped_stage_indicator
I0924 03:31:34.140054 29639 net.cpp:141] Setting up reshape_stage_indicator
I0924 03:31:34.140064 29639 net.cpp:148] Top shape: 1 1 1 (1)
I0924 03:31:34.140069 29639 net.cpp:156] Memory required for data: 20408
I0924 03:31:34.140074 29639 layer_factory.hpp:77] Creating layer embedding
I0924 03:31:34.140085 29639 net.cpp:91] Creating Layer embedding
I0924 03:31:34.140090 29639 net.cpp:425] embedding <- input_sentence
I0924 03:31:34.140099 29639 net.cpp:399] embedding -> embedded_input_sentence
I0924 03:31:34.140192 29635 net.cpp:141] Setting up reshape_stage_indicator
I0924 03:31:34.140203 29635 net.cpp:148] Top shape: 1 1 1 (1)
I0924 03:31:34.140208 29635 net.cpp:156] Memory required for data: 20408
I0924 03:31:34.140213 29635 layer_factory.hpp:77] Creating layer embedding
I0924 03:31:34.140223 29635 net.cpp:91] Creating Layer embedding
I0924 03:31:34.140228 29635 net.cpp:425] embedding <- input_sentence
I0924 03:31:34.140230 29679 net.cpp:141] Setting up reshape_frames
I0924 03:31:34.140239 29635 net.cpp:399] embedding -> embedded_input_sentence
I0924 03:31:34.140242 29679 net.cpp:148] Top shape: 1 1 500 (500)
I0924 03:31:34.140247 29679 net.cpp:156] Memory required for data: 20404
I0924 03:31:34.140252 29679 layer_factory.hpp:77] Creating layer reshape_stage_indicator
I0924 03:31:34.140264 29679 net.cpp:91] Creating Layer reshape_stage_indicator
I0924 03:31:34.140270 29679 net.cpp:425] reshape_stage_indicator <- stage_indicator
I0924 03:31:34.140277 29679 net.cpp:399] reshape_stage_indicator -> reshaped_stage_indicator
I0924 03:31:34.140363 29653 net.cpp:141] Setting up embed_encoder
I0924 03:31:34.140413 29653 net.cpp:148] Top shape: 1 500 (500)
I0924 03:31:34.140422 29653 net.cpp:156] Memory required for data: 18404
I0924 03:31:34.140450 29653 layer_factory.hpp:77] Creating layer reshape_frames
I0924 03:31:34.140475 29653 net.cpp:91] Creating Layer reshape_frames
I0924 03:31:34.140480 29641 net.cpp:141] Setting up embed_encoder
I0924 03:31:34.140486 29653 net.cpp:425] reshape_frames <- embedded_in_frames
I0924 03:31:34.140492 29641 net.cpp:148] Top shape: 1 500 (500)
I0924 03:31:34.140497 29641 net.cpp:156] Memory required for data: 18404
I0924 03:31:34.140503 29653 net.cpp:399] reshape_frames -> embedded_input_frames
I0924 03:31:34.140511 29641 layer_factory.hpp:77] Creating layer reshape_frames
I0924 03:31:34.140550 29641 net.cpp:91] Creating Layer reshape_frames
I0924 03:31:34.140558 29641 net.cpp:425] reshape_frames <- embedded_in_frames
I0924 03:31:34.140568 29641 net.cpp:399] reshape_frames -> embedded_input_frames
I0924 03:31:34.233350 29653 net.cpp:141] Setting up reshape_frames
I0924 03:31:34.233398 29653 net.cpp:148] Top shape: 1 1 500 (500)
I0924 03:31:34.233404 29653 net.cpp:156] Memory required for data: 20404
I0924 03:31:34.233414 29653 layer_factory.hpp:77] Creating layer reshape_stage_indicator
I0924 03:31:34.233436 29653 net.cpp:91] Creating Layer reshape_stage_indicator
I0924 03:31:34.233429 29641 net.cpp:141] Setting up reshape_frames
I0924 03:31:34.233444 29653 net.cpp:425] reshape_stage_indicator <- stage_indicator
I0924 03:31:34.233469 29641 net.cpp:148] Top shape: 1 1 500 (500)
I0924 03:31:34.233476 29641 net.cpp:156] Memory required for data: 20404
I0924 03:31:34.233479 29653 net.cpp:399] reshape_stage_indicator -> reshaped_stage_indicator
I0924 03:31:34.233484 29641 layer_factory.hpp:77] Creating layer reshape_stage_indicator
I0924 03:31:34.233507 29641 net.cpp:91] Creating Layer reshape_stage_indicator
I0924 03:31:34.233515 29641 net.cpp:425] reshape_stage_indicator <- stage_indicator
I0924 03:31:34.233535 29641 net.cpp:399] reshape_stage_indicator -> reshaped_stage_indicator
I0924 03:31:34.233618 29645 net.cpp:141] Setting up embed_encoder
I0924 03:31:34.233638 29645 net.cpp:148] Top shape: 1 500 (500)
I0924 03:31:34.233644 29645 net.cpp:156] Memory required for data: 18404
I0924 03:31:34.233660 29645 layer_factory.hpp:77] Creating layer reshape_frames
I0924 03:31:34.233665 29641 net.cpp:141] Setting up reshape_stage_indicator
I0924 03:31:34.233671 29645 net.cpp:91] Creating Layer reshape_frames
I0924 03:31:34.233680 29645 net.cpp:425] reshape_frames <- embedded_in_frames
I0924 03:31:34.233680 29641 net.cpp:148] Top shape: 1 1 1 (1)
I0924 03:31:34.233692 29645 net.cpp:399] reshape_frames -> embedded_input_frames
I0924 03:31:34.233695 29641 net.cpp:156] Memory required for data: 20408
I0924 03:31:34.233701 29641 layer_factory.hpp:77] Creating layer embedding
I0924 03:31:34.233712 29653 net.cpp:141] Setting up reshape_stage_indicator
I0924 03:31:34.233716 29641 net.cpp:91] Creating Layer embedding
I0924 03:31:34.233728 29653 net.cpp:148] Top shape: 1 1 1 (1)
I0924 03:31:34.233734 29653 net.cpp:156] Memory required for data: 20408
I0924 03:31:34.233736 29645 net.cpp:141] Setting up reshape_frames
I0924 03:31:34.233733 29641 net.cpp:425] embedding <- input_sentence
I0924 03:31:34.233747 29645 net.cpp:148] Top shape: 1 1 500 (500)
I0924 03:31:34.233743 29653 layer_factory.hpp:77] Creating layer embedding
I0924 03:31:34.233753 29645 net.cpp:156] Memory required for data: 20404
I0924 03:31:34.233760 29641 net.cpp:399] embedding -> embedded_input_sentence
I0924 03:31:34.233770 29645 layer_factory.hpp:77] Creating layer reshape_stage_indicator
I0924 03:31:34.233770 29653 net.cpp:91] Creating Layer embedding
I0924 03:31:34.233783 29653 net.cpp:425] embedding <- input_sentence
I0924 03:31:34.233785 29645 net.cpp:91] Creating Layer reshape_stage_indicator
I0924 03:31:34.233791 29645 net.cpp:425] reshape_stage_indicator <- stage_indicator
I0924 03:31:34.233791 29653 net.cpp:399] embedding -> embedded_input_sentence
I0924 03:31:34.233801 29679 net.cpp:141] Setting up reshape_stage_indicator
I0924 03:31:34.233803 29645 net.cpp:399] reshape_stage_indicator -> reshaped_stage_indicator
I0924 03:31:34.233827 29679 net.cpp:148] Top shape: 1 1 1 (1)
I0924 03:31:34.233834 29679 net.cpp:156] Memory required for data: 20408
I0924 03:31:34.233839 29679 layer_factory.hpp:77] Creating layer embedding
I0924 03:31:34.233856 29679 net.cpp:91] Creating Layer embedding
I0924 03:31:34.233862 29679 net.cpp:425] embedding <- input_sentence
I0924 03:31:34.233871 29679 net.cpp:399] embedding -> embedded_input_sentence
I0924 03:31:34.313354 29645 net.cpp:141] Setting up reshape_stage_indicator
I0924 03:31:34.313406 29645 net.cpp:148] Top shape: 1 1 1 (1)
I0924 03:31:34.313413 29645 net.cpp:156] Memory required for data: 20408
I0924 03:31:34.313421 29645 layer_factory.hpp:77] Creating layer embedding
I0924 03:31:34.313442 29645 net.cpp:91] Creating Layer embedding
I0924 03:31:34.313451 29645 net.cpp:425] embedding <- input_sentence
I0924 03:31:34.313462 29645 net.cpp:399] embedding -> embedded_input_sentence
I0924 03:31:34.400176 29639 net.cpp:141] Setting up embedding
I0924 03:31:34.400213 29673 net.cpp:141] Setting up embedding
I0924 03:31:34.400228 29639 net.cpp:148] Top shape: 1 1 500 (500)
I0924 03:31:34.400233 29673 net.cpp:148] Top shape: 1 1 500 (500)
I0924 03:31:34.400234 29639 net.cpp:156] Memory required for data: 22408
I0924 03:31:34.400238 29673 net.cpp:156] Memory required for data: 22408
I0924 03:31:34.400255 29639 layer_factory.hpp:77] Creating layer lstm1
I0924 03:31:34.400256 29673 layer_factory.hpp:77] Creating layer lstm1
I0924 03:31:34.400298 29639 net.cpp:91] Creating Layer lstm1
I0924 03:31:34.400300 29673 net.cpp:91] Creating Layer lstm1
…
I0924 03:31:34.400436 29673 recurrent_layer.cpp:20] Initializing recurrent layer: assuming input batch contains 1 timesteps of 1 independent streams.
I0924 03:31:34.400768 29673 net.cpp:49] Initializing net from parameters: 
layer {
  name: "lstm1_"
  type: "Input"
  top: "x"
  top: "cont"
  input_param {
    shape {
      dim: 1
      dim: 1
      dim: 500
    }
    shape {
      dim: 1
      dim: 1
    }
  }
}
layer {
  name: "lstm1_"
  type: "Input"
  top: "c_0"
  top: "h_0"
  input_param {
    shape {
      dim: 1
      dim: 1
      dim: 1000
    }
    shape {
      dim: 1
      dim: 1
      dim: 1000
    }
  }
}
layer {
  name: "lstm1_cont_slice"
  type: "Slice"
  bottom: "cont"
  top: "cont_1"
  slice_param {
    axis: 0
  }
}
layer {
  name: "lstm1_x_transform"
  type: "InnerProduct"
  bottom: "x"
  top: "W_xc_x"
  param {
    name: "W_xc"
  }
  param {
    name: "b_c"
  }
  propagate_down: true
  inner_product_param {
    num_output: 4000
    bias_term: true
    weight_filler {
      type: "uniform"
      min: -0.08
      max: 0.08
    }
    bias_filler {
      type: "constant"
      value: 0
    }
    axis: 2
  }
}
layer {
  name: "lstm1_W_xc_x_slice"
  type: "Slice"
  bottom: "W_xc_x"
  top: "W_xc_x_1"
  slice_param {
    axis: 0
  }
}
layer {
  name: "lstm1_h_conted_0"
  type: "Scale"
  bottom: "h_0"
  bottom: "cont_1"
  top: "h_conted_0"
  scale_param {
    axis: 0
  }
}
layer {
  name: "lstm1_transform_1"
  type: "InnerProduct"
  bottom: "h_conted_0"
  top: "W_hc_h_0"
  param {
    name: "W_hc"
  }
  inner_product_param {
    num_output: 4000
    bias_term: false
    weight_filler {
      type: "uniform"
      min: -0.08
      max: 0.08
    }
    axis: 2
  }
}
layer {
  name: "lstm1_gate_input_1"
  type: "Eltwise"
  bottom: "W_hc_h_0"
  bottom: "W_xc_x_1"
  top: "gate_input_1"
  eltwise_param {
    operation: SUM
  }
}
layer {
  name: "lstm1_unit_1"
  type: "LSTMUnit"
  bottom: "c_0"
  bottom: "gate_input_1"
  bottom: "cont_1"
  top: "c_1"
  top: "h_1"
}
layer {
  name: "lstm1_"
  type: "Split"
  bottom: "c_1"
  top: "c_T"
}
layer {
  name: "lstm1_h_concat"
  type: "Concat"
  bottom: "h_1"
  top: "h"
  concat_param {
    axis: 0
  }
}
layer {
  name: "h_pseudoloss"
  type: "Reduction"
  bottom: "h"
  top: "h_pseudoloss"
  loss_weight: 1
}
I0924 03:31:34.400780 29639 net.cpp:49] Initializing net from parameters: 
layer {
  name: "lstm1_"
  type: "Input"
  top: "x"
  top: "cont"
  input_param {
    shape {
      dim: 1
      dim: 1
      dim: 500
    }
    shape {
      dim: 1
      dim: 1
    }
  }
}
layer {
  name: "lstm1_"
  type: "Input"
  top: "c_0"
  top: "h_0"
  input_param {
    shape {
      dim: 1
      dim: 1
      dim: 1000
    }
    shape {
      dim: 1
      dim: 1
      dim: 1000
    }
  }
}
layer {
  name: "lstm1_cont_slice"
  type: "Slice"
  bottom: "cont"
  top: "cont_1"
  slice_param {
    axis: 0
  }
}
layer {
  name: "lstm1_x_transform"
  type: "InnerProduct"
  bottom: "x"
  top: "W_xc_x"
  param {
    name: "W_xc"
  }
  param {
    name: "b_c"
  }
  propagate_down: true
  inner_product_param {
    num_output: 4000
    bias_term: true
    weight_filler {
      type: "uniform"
      min: -0.08
      max: 0.08
    }
    bias_filler {
      type: "constant"
      value: 0
    }
    axis: 2
  }
}
layer {
  name: "lstm1_W_xc_x_slice"
  type: "Slice"
  bottom: "W_xc_x"
  top: "W_xc_x_1"
  slice_param {
    axis: 0
  }
}
layer {
  name: "lstm1_h_conted_0"
  type: "Scale"
  bottom: "h_0"
  bottom: "cont_1"
  top: "h_conted_0"
  scale_param {
    axis: 0
  }
}
layer {
  name: "lstm1_transform_1"
  type: "InnerProduct"
  bottom: "h_conted_0"
  top: "W_hc_h_0"
  param {
    name: "W_hc"
  }
  inner_product_param {
    num_output: 4000
    bias_term: false
    weight_filler {
      type: "uniform"
      min: -0.08
      max: 0.08
    }
    axis: 2
  }
}
layer {
  name: "lstm1_gate_input_1"
  type: "Eltwise"
  bottom: "W_hc_h_0"
  bottom: "W_xc_x_1"
  top: "gate_input_1"
  eltwise_param {
    operation: SUM
  }
}
layer {
  name: "lstm1_unit_1"
  type: "LSTMUnit"
  bottom: "c_0"
  bottom: "gate_input_1"
  bottom: "cont_1"
  top: "c_1"
  top: "h_1"
}
layer {
  name: "lstm1_"
  type: "Split"
  bottom: "c_1"
  top: "c_T"
}
layer {
  name: "lstm1_h_concat"
  type: "Concat"
  bottom: "h_1"
  top: "h"
  concat_param {
    axis: 0
  }
}
layer {
  name: "h_pseudoloss"
  type: "Reduction"
  bottom: "h"
  top: "h_pseudoloss"
  loss_weight: 1
}
I0924 03:31:34.400854 29673 layer_factory.hpp:77] Creating layer lstm1_
I0924 03:31:34.400868 29673 net.cpp:91] Creating Layer lstm1_
I0924 03:31:34.400876 29673 net.cpp:399] lstm1_ -> x
I0924 03:31:34.400874 29639 layer_factory.hpp:77] Creating layer lstm1_
I0924 03:31:34.400897 29673 net.cpp:399] lstm1_ -> cont
I0924 03:31:34.400900 29639 net.cpp:91] Creating Layer lstm1_
I0924 03:31:34.400907 29639 net.cpp:399] lstm1_ -> x
I0924 03:31:34.400920 29639 net.cpp:399] lstm1_ -> cont
I0924 03:31:34.403333 29673 net.cpp:141] Setting up lstm1_
I0924 03:31:34.403355 29673 net.cpp:148] Top shape: 1 1 500 (500)
I0924 03:31:34.403362 29673 net.cpp:148] Top shape: 1 1 (1)
I0924 03:31:34.403367 29673 net.cpp:156] Memory required for data: 2004
I0924 03:31:34.403373 29673 layer_factory.hpp:77] Creating layer lstm1_
I0924 03:31:34.403383 29673 net.cpp:91] Creating Layer lstm1_
I0924 03:31:34.403393 29673 net.cpp:399] lstm1_ -> c_0
I0924 03:31:34.403404 29673 net.cpp:399] lstm1_ -> h_0
I0924 03:31:34.403519 29639 net.cpp:141] Setting up lstm1_
I0924 03:31:34.403558 29673 net.cpp:141] Setting up lstm1_
I0924 03:31:34.403569 29673 net.cpp:148] Top shape: 1 1 1000 (1000)
I0924 03:31:34.403575 29673 net.cpp:148] Top shape: 1 1 1000 (1000)
I0924 03:31:34.403578 29639 net.cpp:148] Top shape: 1 1 500 (500)
I0924 03:31:34.403580 29673 net.cpp:156] Memory required for data: 10004
I0924 03:31:34.403586 29673 layer_factory.hpp:77] Creating layer lstm1_cont_slice
I0924 03:31:34.403589 29639 net.cpp:148] Top shape: 1 1 (1)
I0924 03:31:34.403594 29639 net.cpp:156] Memory required for data: 2004
I0924 03:31:34.403596 29673 net.cpp:91] Creating Layer lstm1_cont_slice
I0924 03:31:34.403602 29673 net.cpp:425] lstm1_cont_slice <- cont
I0924 03:31:34.403604 29639 layer_factory.hpp:77] Creating layer lstm1_
I0924 03:31:34.403610 29673 net.cpp:399] lstm1_cont_slice -> cont_1
I0924 03:31:34.403625 29639 net.cpp:91] Creating Layer lstm1_
I0924 03:31:34.403635 29639 net.cpp:399] lstm1_ -> c_0
I0924 03:31:34.403655 29639 net.cpp:399] lstm1_ -> h_0
I0924 03:31:34.408577 29673 net.cpp:141] Setting up lstm1_cont_slice
I0924 03:31:34.408603 29673 net.cpp:148] Top shape: 1 1 (1)
I0924 03:31:34.408609 29673 net.cpp:156] Memory required for data: 10008
I0924 03:31:34.408615 29673 layer_factory.hpp:77] Creating layer cont_1_lstm1_cont_slice_0_split
I0924 03:31:34.408628 29673 net.cpp:91] Creating Layer cont_1_lstm1_cont_slice_0_split
I0924 03:31:34.408633 29673 net.cpp:425] cont_1_lstm1_cont_slice_0_split <- cont_1
I0924 03:31:34.408641 29673 net.cpp:399] cont_1_lstm1_cont_slice_0_split -> cont_1_lstm1_cont_slice_0_split_0
I0924 03:31:34.408651 29673 net.cpp:399] cont_1_lstm1_cont_slice_0_split -> cont_1_lstm1_cont_slice_0_split_1
I0924 03:31:34.408735 29673 net.cpp:141] Setting up cont_1_lstm1_cont_slice_0_split
I0924 03:31:34.408745 29673 net.cpp:148] Top shape: 1 1 (1)
I0924 03:31:34.408751 29673 net.cpp:148] Top shape: 1 1 (1)
I0924 03:31:34.408754 29673 net.cpp:156] Memory required for data: 10016
I0924 03:31:34.408759 29673 layer_factory.hpp:77] Creating layer lstm1_x_transform
I0924 03:31:34.408776 29673 net.cpp:91] Creating Layer lstm1_x_transform
I0924 03:31:34.408782 29673 net.cpp:425] lstm1_x_transform <- x
I0924 03:31:34.408789 29673 net.cpp:399] lstm1_x_transform -> W_xc_x
I0924 03:31:34.412051 29639 net.cpp:141] Setting up lstm1_
I0924 03:31:34.412093 29639 net.cpp:148] Top shape: 1 1 1000 (1000)
I0924 03:31:34.412101 29639 net.cpp:148] Top shape: 1 1 1000 (1000)
I0924 03:31:34.412104 29639 net.cpp:156] Memory required for data: 10004
I0924 03:31:34.412111 29639 layer_factory.hpp:77] Creating layer lstm1_cont_slice
I0924 03:31:34.412127 29639 net.cpp:91] Creating Layer lstm1_cont_slice
I0924 03:31:34.412134 29639 net.cpp:425] lstm1_cont_slice <- cont
I0924 03:31:34.412153 29639 net.cpp:399] lstm1_cont_slice -> cont_1
I0924 03:31:34.416018 29635 net.cpp:141] Setting up embedding
I0924 03:31:34.416038 29635 net.cpp:148] Top shape: 1 1 500 (500)
I0924 03:31:34.416043 29635 net.cpp:156] Memory required for data: 22408
I0924 03:31:34.416056 29635 layer_factory.hpp:77] Creating layer lstm1
I0924 03:31:34.416070 29635 net.cpp:91] Creating Layer lstm1
I0924 03:31:34.416076 29635 net.cpp:425] lstm1 <- embedded_input_frames
I0924 03:31:34.416085 29635 net.cpp:425] lstm1 <- cont_sentence_input_1_split_0
I0924 03:31:34.416087 29639 net.cpp:141] Setting up lstm1_cont_slice
I0924 03:31:34.416093 29635 net.cpp:399] lstm1 -> lstm1
I0924 03:31:34.416110 29639 net.cpp:148] Top shape: 1 1 (1)
I0924 03:31:34.416115 29639 net.cpp:156] Memory required for data: 10008
I0924 03:31:34.416120 29635 recurrent_layer.cpp:20] Initializing recurrent layer: assuming input batch contains 1 timesteps of 1 independent streams.
I0924 03:31:34.416121 29639 layer_factory.hpp:77] Creating layer cont_1_lstm1_cont_slice_0_split
I0924 03:31:34.416139 29639 net.cpp:91] Creating Layer cont_1_lstm1_cont_slice_0_split
I0924 03:31:34.416146 29639 net.cpp:425] cont_1_lstm1_cont_slice_0_split <- cont_1
I0924 03:31:34.416152 29639 net.cpp:399] cont_1_lstm1_cont_slice_0_split -> cont_1_lstm1_cont_slice_0_split_0
I0924 03:31:34.416165 29639 net.cpp:399] cont_1_lstm1_cont_slice_0_split -> cont_1_lstm1_cont_slice_0_split_1
I0924 03:31:34.416419 29635 net.cpp:49] Initializing net from parameters: 
layer {
  name: "lstm1_"
  type: "Input"
  top: "x"
  top: "cont"
  input_param {
    shape {
      dim: 1
      dim: 1
      dim: 500
    }
    shape {
      dim: 1
      dim: 1
    }
  }
}
layer {
  name: "lstm1_"
  type: "Input"
  top: "c_0"
  top: "h_0"
  input_param {
    shape {
      dim: 1
      dim: 1
      dim: 1000
    }
    shape {
      dim: 1
      dim: 1
      dim: 1000
    }
  }
}
layer {
  name: "lstm1_cont_slice"
  type: "Slice"
  bottom: "cont"
  top: "cont_1"
  slice_param {
    axis: 0
  }
}
layer {
  name: "lstm1_x_transform"
  type: "InnerProduct"
  bottom: "x"
  top: "W_xc_x"
  param {
    name: "W_xc"
  }
  param {
    name: "b_c"
  }
  propagate_down: true
  inner_product_param {
    num_output: 4000
    bias_term: true
    weight_filler {
      type: "uniform"
      min: -0.08
      max: 0.08
    }
    bias_filler {
      type: "constant"
      value: 0
    }
    axis: 2
  }
}
layer {
  name: "lstm1_W_xc_x_slice"
  type: "Slice"
  bottom: "W_xc_x"
  top: "W_xc_x_1"
  slice_param {
    axis: 0
  }
}
layer {
  name: "lstm1_h_conted_0"
  type: "Scale"
  bottom: "h_0"
  bottom: "cont_1"
  top: "h_conted_0"
  scale_param {
    axis: 0
  }
}
layer {
  name: "lstm1_transform_1"
  type: "InnerProduct"
  bottom: "h_conted_0"
  top: "W_hc_h_0"
  param {
    name: "W_hc"
  }
  inner_product_param {
    num_output: 4000
    bias_term: false
    weight_filler {
      type: "uniform"
      min: -0.08
      max: 0.08
    }
    axis: 2
  }
}
layer {
  name: "lstm1_gate_input_1"
  type: "Eltwise"
  bottom: "W_hc_h_0"
  bottom: "W_xc_x_1"
  top: "gate_input_1"
  eltwise_param {
    operation: SUM
  }
}
layer {
  name: "lstm1_unit_1"
  type: "LSTMUnit"
  bottom: "c_0"
  bottom: "gate_input_1"
  bottom: "cont_1"
  top: "c_1"
  top: "h_1"
}
layer {
  name: "lstm1_"
  type: "Split"
  bottom: "c_1"
  top: "c_T"
}
layer {
  name: "lstm1_h_concat"
  type: "Concat"
  bottom: "h_1"
  top: "h"
  concat_param {
    axis: 0
  }
}
layer {
  name: "h_pseudoloss"
  type: "Reduction"
  bottom: "h"
  top: "h_pseudoloss"
  loss_weight: 1
}
I0924 03:31:34.416458 29639 net.cpp:141] Setting up cont_1_lstm1_cont_slice_0_split
I0924 03:31:34.416470 29639 net.cpp:148] Top shape: 1 1 (1)
I0924 03:31:34.416476 29639 net.cpp:148] Top shape: 1 1 (1)
I0924 03:31:34.416481 29639 net.cpp:156] Memory required for data: 10016
I0924 03:31:34.416486 29639 layer_factory.hpp:77] Creating layer lstm1_x_transform
I0924 03:31:34.416501 29639 net.cpp:91] Creating Layer lstm1_x_transform
I0924 03:31:34.416507 29639 net.cpp:425] lstm1_x_transform <- x
I0924 03:31:34.416512 29635 layer_factory.hpp:77] Creating layer lstm1_
I0924 03:31:34.416514 29639 net.cpp:399] lstm1_x_transform -> W_xc_x
I0924 03:31:34.416529 29635 net.cpp:91] Creating Layer lstm1_
I0924 03:31:34.416535 29635 net.cpp:399] lstm1_ -> x
I0924 03:31:34.416548 29635 net.cpp:399] lstm1_ -> cont
I0924 03:31:34.416829 29635 net.cpp:141] Setting up lstm1_
I0924 03:31:34.416841 29635 net.cpp:148] Top shape: 1 1 500 (500)
I0924 03:31:34.416846 29635 net.cpp:148] Top shape: 1 1 (1)
I0924 03:31:34.416851 29635 net.cpp:156] Memory required for data: 2004
I0924 03:31:34.416857 29635 layer_factory.hpp:77] Creating layer lstm1_
I0924 03:31:34.416865 29635 net.cpp:91] Creating Layer lstm1_
I0924 03:31:34.416874 29635 net.cpp:399] lstm1_ -> c_0
I0924 03:31:34.416885 29635 net.cpp:399] lstm1_ -> h_0
I0924 03:31:34.423213 29635 net.cpp:141] Setting up lstm1_
I0924 03:31:34.423255 29635 net.cpp:148] Top shape: 1 1 1000 (1000)
I0924 03:31:34.423262 29635 net.cpp:148] Top shape: 1 1 1000 (1000)
I0924 03:31:34.423267 29635 net.cpp:156] Memory required for data: 10004
I0924 03:31:34.423274 29635 layer_factory.hpp:77] Creating layer lstm1_cont_slice
I0924 03:31:34.423290 29635 net.cpp:91] Creating Layer lstm1_cont_slice
I0924 03:31:34.423297 29635 net.cpp:425] lstm1_cont_slice <- cont
I0924 03:31:34.423310 29635 net.cpp:399] lstm1_cont_slice -> cont_1
I0924 03:31:34.426569 29635 net.cpp:141] Setting up lstm1_cont_slice
I0924 03:31:34.426587 29635 net.cpp:148] Top shape: 1 1 (1)
I0924 03:31:34.426607 29635 net.cpp:156] Memory required for data: 10008
I0924 03:31:34.426614 29635 layer_factory.hpp:77] Creating layer cont_1_lstm1_cont_slice_0_split
I0924 03:31:34.426632 29635 net.cpp:91] Creating Layer cont_1_lstm1_cont_slice_0_split
I0924 03:31:34.426637 29635 net.cpp:425] cont_1_lstm1_cont_slice_0_split <- cont_1
I0924 03:31:34.426645 29635 net.cpp:399] cont_1_lstm1_cont_slice_0_split -> cont_1_lstm1_cont_slice_0_split_0
I0924 03:31:34.426656 29635 net.cpp:399] cont_1_lstm1_cont_slice_0_split -> cont_1_lstm1_cont_slice_0_split_1
I0924 03:31:34.427156 29635 net.cpp:141] Setting up cont_1_lstm1_cont_slice_0_split
I0924 03:31:34.427175 29635 net.cpp:148] Top shape: 1 1 (1)
I0924 03:31:34.427181 29635 net.cpp:148] Top shape: 1 1 (1)
I0924 03:31:34.427186 29635 net.cpp:156] Memory required for data: 10016
I0924 03:31:34.427191 29635 layer_factory.hpp:77] Creating layer lstm1_x_transform
I0924 03:31:34.427206 29635 net.cpp:91] Creating Layer lstm1_x_transform
I0924 03:31:34.427212 29635 net.cpp:425] lstm1_x_transform <- x
I0924 03:31:34.427222 29635 net.cpp:399] lstm1_x_transform -> W_xc_x
I0924 03:31:34.440390 29639 net.cpp:141] Setting up lstm1_x_transform
I0924 03:31:34.440439 29639 net.cpp:148] Top shape: 1 1 4000 (4000)
I0924 03:31:34.440445 29639 net.cpp:156] Memory required for data: 26016
I0924 03:31:34.440469 29639 layer_factory.hpp:77] Creating layer lstm1_W_xc_x_slice
I0924 03:31:34.440488 29639 net.cpp:91] Creating Layer lstm1_W_xc_x_slice
I0924 03:31:34.440495 29639 net.cpp:425] lstm1_W_xc_x_slice <- W_xc_x
I0924 03:31:34.440505 29639 net.cpp:399] lstm1_W_xc_x_slice -> W_xc_x_1
I0924 03:31:34.440496 29673 net.cpp:141] Setting up lstm1_x_transform
I0924 03:31:34.440536 29673 net.cpp:148] Top shape: 1 1 4000 (4000)
I0924 03:31:34.440541 29673 net.cpp:156] Memory required for data: 26016
I0924 03:31:34.440562 29673 layer_factory.hpp:77] Creating layer lstm1_W_xc_x_slice
I0924 03:31:34.440582 29673 net.cpp:91] Creating Layer lstm1_W_xc_x_slice
I0924 03:31:34.440588 29673 net.cpp:425] lstm1_W_xc_x_slice <- W_xc_x
I0924 03:31:34.440598 29673 net.cpp:399] lstm1_W_xc_x_slice -> W_xc_x_1
I0924 03:31:34.441277 29639 net.cpp:141] Setting up lstm1_W_xc_x_slice
I0924 03:31:34.441295 29639 net.cpp:148] Top shape: 1 1 4000 (4000)
I0924 03:31:34.441300 29639 net.cpp:156] Memory required for data: 42016
I0924 03:31:34.441305 29639 layer_factory.hpp:77] Creating layer lstm1_h_conted_0
I0924 03:31:34.441334 29639 net.cpp:91] Creating Layer lstm1_h_conted_0
I0924 03:31:34.441340 29639 net.cpp:425] lstm1_h_conted_0 <- h_0
I0924 03:31:34.441347 29639 net.cpp:425] lstm1_h_conted_0 <- cont_1_lstm1_cont_slice_0_split_0
I0924 03:31:34.441347 29673 net.cpp:141] Setting up lstm1_W_xc_x_slice
I0924 03:31:34.441355 29639 net.cpp:399] lstm1_h_conted_0 -> h_conted_0
I0924 03:31:34.441370 29673 net.cpp:148] Top shape: 1 1 4000 (4000)
I0924 03:31:34.441376 29673 net.cpp:156] Memory required for data: 42016
I0924 03:31:34.441382 29673 layer_factory.hpp:77] Creating layer lstm1_h_conted_0
I0924 03:31:34.441404 29673 net.cpp:91] Creating Layer lstm1_h_conted_0
I0924 03:31:34.441411 29673 net.cpp:425] lstm1_h_conted_0 <- h_0
I0924 03:31:34.441418 29673 net.cpp:425] lstm1_h_conted_0 <- cont_1_lstm1_cont_slice_0_split_0
I0924 03:31:34.441426 29673 net.cpp:399] lstm1_h_conted_0 -> h_conted_0
I0924 03:31:34.445279 29639 net.cpp:141] Setting up lstm1_h_conted_0
I0924 03:31:34.445298 29639 net.cpp:148] Top shape: 1 1 1000 (1000)
I0924 03:31:34.445303 29639 net.cpp:156] Memory required for data: 46016
I0924 03:31:34.445309 29639 layer_factory.hpp:77] Creating layer lstm1_transform_1
I0924 03:31:34.445329 29639 net.cpp:91] Creating Layer lstm1_transform_1
I0924 03:31:34.445335 29639 net.cpp:425] lstm1_transform_1 <- h_conted_0
I0924 03:31:34.445344 29639 net.cpp:399] lstm1_transform_1 -> W_hc_h_0
I0924 03:31:34.452831 29673 net.cpp:141] Setting up lstm1_h_conted_0
I0924 03:31:34.452874 29673 net.cpp:148] Top shape: 1 1 1000 (1000)
I0924 03:31:34.452879 29673 net.cpp:156] Memory required for data: 46016
I0924 03:31:34.452888 29673 layer_factory.hpp:77] Creating layer lstm1_transform_1
I0924 03:31:34.452911 29673 net.cpp:91] Creating Layer lstm1_transform_1
I0924 03:31:34.452919 29673 net.cpp:425] lstm1_transform_1 <- h_conted_0
I0924 03:31:34.452929 29673 net.cpp:399] lstm1_transform_1 -> W_hc_h_0
I0924 03:31:34.452985 29641 net.cpp:141] Setting up embedding
I0924 03:31:34.453025 29641 net.cpp:148] Top shape: 1 1 500 (500)
I0924 03:31:34.453032 29641 net.cpp:156] Memory required for data: 22408
I0924 03:31:34.453047 29641 layer_factory.hpp:77] Creating layer lstm1
I0924 03:31:34.453044 29635 net.cpp:141] Setting up lstm1_x_transform
I0924 03:31:34.453063 29635 net.cpp:148] Top shape: 1 1 4000 (4000)
I0924 03:31:34.453065 29641 net.cpp:91] Creating Layer lstm1
I0924 03:31:34.453068 29635 net.cpp:156] Memory required for data: 26016
I0924 03:31:34.453073 29641 net.cpp:425] lstm1 <- embedded_input_frames
I0924 03:31:34.453081 29641 net.cpp:425] lstm1 <- cont_sentence_input_1_split_0
I0924 03:31:34.453083 29635 layer_factory.hpp:77] Creating layer lstm1_W_xc_x_slice
I0924 03:31:34.453091 29641 net.cpp:399] lstm1 -> lstm1
I0924 03:31:34.453095 29635 net.cpp:91] Creating Layer lstm1_W_xc_x_slice
I0924 03:31:34.453102 29635 net.cpp:425] lstm1_W_xc_x_slice <- W_xc_x
I0924 03:31:34.453107 29641 recurrent_layer.cpp:20] Initializing recurrent layer: assuming input batch contains 1 timesteps of 1 independent streams.
I0924 03:31:34.453109 29635 net.cpp:399] lstm1_W_xc_x_slice -> W_xc_x_1
I0924 03:31:34.453441 29641 net.cpp:49] Initializing net from parameters: 
layer {
  name: "lstm1_"
  type: "Input"
  top: "x"
  top: "cont"
  input_param {
    shape {
      dim: 1
      dim: 1
      dim: 500
    }
    shape {
      dim: 1
      dim: 1
    }
  }
}
layer {
  name: "lstm1_"
  type: "Input"
  top: "c_0"
  top: "h_0"
  input_param {
    shape {
      dim: 1
      dim: 1
      dim: 1000
    }
    shape {
      dim: 1
      dim: 1
      dim: 1000
    }
  }
}
layer {
  name: "lstm1_cont_slice"
  type: "Slice"
  bottom: "cont"
  top: "cont_1"
  slice_param {
    axis: 0
  }
}
layer {
  name: "lstm1_x_transform"
  type: "InnerProduct"
  bottom: "x"
  top: "W_xc_x"
  param {
    name: "W_xc"
  }
  param {
    name: "b_c"
  }
  propagate_down: true
  inner_product_param {
    num_output: 4000
    bias_term: true
    weight_filler {
      type: "uniform"
      min: -0.08
      max: 0.08
    }
    bias_filler {
      type: "constant"
      value: 0
    }
    axis: 2
  }
}
layer {
  name: "lstm1_W_xc_x_slice"
  type: "Slice"
  bottom: "W_xc_x"
  top: "W_xc_x_1"
  slice_param {
    axis: 0
  }
}
layer {
  name: "lstm1_h_conted_0"
  type: "Scale"
  bottom: "h_0"
  bottom: "cont_1"
  top: "h_conted_0"
  scale_param {
    axis: 0
  }
}
layer {
  name: "lstm1_transform_1"
  type: "InnerProduct"
  bottom: "h_conted_0"
  top: "W_hc_h_0"
  param {
    name: "W_hc"
  }
  inner_product_param {
    num_output: 4000
    bias_term: false
    weight_filler {
      type: "uniform"
      min: -0.08
      max: 0.08
    }
    axis: 2
  }
}
layer {
  name: "lstm1_gate_input_1"
  type: "Eltwise"
  bottom: "W_hc_h_0"
  bottom: "W_xc_x_1"
  top: "gate_input_1"
  eltwise_param {
    operation: SUM
  }
}
layer {
  name: "lstm1_unit_1"
  type: "LSTMUnit"
  bottom: "c_0"
  bottom: "gate_input_1"
  bottom: "cont_1"
  top: "c_1"
  top: "h_1"
}
layer {
  name: "lstm1_"
  type: "Split"
  bottom: "c_1"
  top: "c_T"
}
layer {
  name: "lstm1_h_concat"
  type: "Concat"
  bottom: "h_1"
  top: "h"
  concat_param {
    axis: 0
  }
}
layer {
  name: "h_pseudoloss"
  type: "Reduction"
  bottom: "h"
  top: "h_pseudoloss"
  loss_weight: 1
}
I0924 03:31:34.453537 29641 layer_factory.hpp:77] Creating layer lstm1_
I0924 03:31:34.453550 29641 net.cpp:91] Creating Layer lstm1_
I0924 03:31:34.453557 29641 net.cpp:399] lstm1_ -> x
I0924 03:31:34.453568 29641 net.cpp:399] lstm1_ -> cont
I0924 03:31:34.460400 29635 net.cpp:141] Setting up lstm1_W_xc_x_slice
I0924 03:31:34.460441 29635 net.cpp:148] Top shape: 1 1 4000 (4000)
I0924 03:31:34.460448 29635 net.cpp:156] Memory required for data: 42016
I0924 03:31:34.460456 29635 layer_factory.hpp:77] Creating layer lstm1_h_conted_0
I0924 03:31:34.460474 29635 net.cpp:91] Creating Layer lstm1_h_conted_0
I0924 03:31:34.460480 29635 net.cpp:425] lstm1_h_conted_0 <- h_0
I0924 03:31:34.460489 29635 net.cpp:425] lstm1_h_conted_0 <- cont_1_lstm1_cont_slice_0_split_0
I0924 03:31:34.460499 29635 net.cpp:399] lstm1_h_conted_0 -> h_conted_0
I0924 03:31:34.464756 29641 net.cpp:141] Setting up lstm1_
I0924 03:31:34.464773 29641 net.cpp:148] Top shape: 1 1 500 (500)
I0924 03:31:34.464782 29641 net.cpp:148] Top shape: 1 1 (1)
I0924 03:31:34.464787 29641 net.cpp:156] Memory required for data: 2004
I0924 03:31:34.464792 29641 layer_factory.hpp:77] Creating layer lstm1_
I0924 03:31:34.464810 29641 net.cpp:91] Creating Layer lstm1_
I0924 03:31:34.464823 29641 net.cpp:399] lstm1_ -> c_0
I0924 03:31:34.464835 29641 net.cpp:399] lstm1_ -> h_0
I0924 03:31:34.464905 29641 net.cpp:141] Setting up lstm1_
I0924 03:31:34.464915 29641 net.cpp:148] Top shape: 1 1 1000 (1000)
I0924 03:31:34.464921 29641 net.cpp:148] Top shape: 1 1 1000 (1000)
I0924 03:31:34.464926 29641 net.cpp:156] Memory required for data: 10004
I0924 03:31:34.464931 29641 layer_factory.hpp:77] Creating layer lstm1_cont_slice
I0924 03:31:34.464943 29641 net.cpp:91] Creating Layer lstm1_cont_slice
I0924 03:31:34.464948 29641 net.cpp:425] lstm1_cont_slice <- cont
I0924 03:31:34.464957 29641 net.cpp:399] lstm1_cont_slice -> cont_1
I0924 03:31:34.465090 29635 net.cpp:141] Setting up lstm1_h_conted_0
I0924 03:31:34.465107 29635 net.cpp:148] Top shape: 1 1 1000 (1000)
I0924 03:31:34.465112 29635 net.cpp:156] Memory required for data: 46016
I0924 03:31:34.465116 29641 net.cpp:141] Setting up lstm1_cont_slice
I0924 03:31:34.465118 29635 layer_factory.hpp:77] Creating layer lstm1_transform_1
I0924 03:31:34.465131 29641 net.cpp:148] Top shape: 1 1 (1)
I0924 03:31:34.465136 29641 net.cpp:156] Memory required for data: 10008
I0924 03:31:34.465140 29641 layer_factory.hpp:77] Creating layer cont_1_lstm1_cont_slice_0_split
I0924 03:31:34.465140 29635 net.cpp:91] Creating Layer lstm1_transform_1
I0924 03:31:34.465153 29635 net.cpp:425] lstm1_transform_1 <- h_conted_0
I0924 03:31:34.465155 29641 net.cpp:91] Creating Layer cont_1_lstm1_cont_slice_0_split
I0924 03:31:34.465162 29641 net.cpp:425] cont_1_lstm1_cont_slice_0_split <- cont_1
I0924 03:31:34.465162 29635 net.cpp:399] lstm1_transform_1 -> W_hc_h_0
I0924 03:31:34.465168 29641 net.cpp:399] cont_1_lstm1_cont_slice_0_split -> cont_1_lstm1_cont_slice_0_split_0
I0924 03:31:34.465176 29641 net.cpp:399] cont_1_lstm1_cont_slice_0_split -> cont_1_lstm1_cont_slice_0_split_1
I0924 03:31:34.480180 29641 net.cpp:141] Setting up cont_1_lstm1_cont_slice_0_split
I0924 03:31:34.480232 29641 net.cpp:148] Top shape: 1 1 (1)
I0924 03:31:34.480238 29641 net.cpp:148] Top shape: 1 1 (1)
I0924 03:31:34.480243 29641 net.cpp:156] Memory required for data: 10016
I0924 03:31:34.480252 29641 layer_factory.hpp:77] Creating layer lstm1_x_transform
I0924 03:31:34.480280 29641 net.cpp:91] Creating Layer lstm1_x_transform
I0924 03:31:34.480288 29641 net.cpp:425] lstm1_x_transform <- x
I0924 03:31:34.480301 29641 net.cpp:399] lstm1_x_transform -> W_xc_x
I0924 03:31:34.486923 29639 net.cpp:141] Setting up lstm1_transform_1
I0924 03:31:34.486973 29639 net.cpp:148] Top shape: 1 1 4000 (4000)
I0924 03:31:34.486979 29639 net.cpp:156] Memory required for data: 62016
I0924 03:31:34.487000 29639 layer_factory.hpp:77] Creating layer lstm1_gate_input_1
I0924 03:31:34.487022 29639 net.cpp:91] Creating Layer lstm1_gate_input_1
I0924 03:31:34.487030 29639 net.cpp:425] lstm1_gate_input_1 <- W_hc_h_0
I0924 03:31:34.487023 29653 net.cpp:141] Setting up embedding
I0924 03:31:34.487038 29639 net.cpp:425] lstm1_gate_input_1 <- W_xc_x_1
I0924 03:31:34.487068 29653 net.cpp:148] Top shape: 1 1 500 (500)
I0924 03:31:34.487074 29653 net.cpp:156] Memory required for data: 22408
I0924 03:31:34.487078 29639 net.cpp:399] lstm1_gate_input_1 -> gate_input_1
I0924 03:31:34.487090 29653 layer_factory.hpp:77] Creating layer lstm1
I0924 03:31:34.487112 29653 net.cpp:91] Creating Layer lstm1
I0924 03:31:34.487118 29653 net.cpp:425] lstm1 <- embedded_input_frames
I0924 03:31:34.487128 29653 net.cpp:425] lstm1 <- cont_sentence_input_1_split_0
I0924 03:31:34.487136 29653 net.cpp:399] lstm1 -> lstm1
I0924 03:31:34.487154 29653 recurrent_layer.cpp:20] Initializing recurrent layer: assuming input batch contains 1 timesteps of 1 independent streams.
I0924 03:31:34.487462 29653 net.cpp:49] Initializing net from parameters: 
layer {
  name: "lstm1_"
  type: "Input"
  top: "x"
  top: "cont"
  input_param {
    shape {
      dim: 1
      dim: 1
      dim: 500
    }
    shape {
      dim: 1
      dim: 1
    }
  }
}
layer {
  name: "lstm1_"
  type: "Input"
  top: "c_0"
  top: "h_0"
  input_param {
    shape {
      dim: 1
      dim: 1
      dim: 1000
    }
    shape {
      dim: 1
      dim: 1
      dim: 1000
    }
  }
}
layer {
  name: "lstm1_cont_slice"
  type: "Slice"
  bottom: "cont"
  top: "cont_1"
  slice_param {
    axis: 0
  }
}
layer {
  name: "lstm1_x_transform"
  type: "InnerProduct"
  bottom: "x"
  top: "W_xc_x"
  param {
    name: "W_xc"
  }
  param {
    name: "b_c"
  }
  propagate_down: true
  inner_product_param {
    num_output: 4000
    bias_term: true
    weight_filler {
      type: "uniform"
      min: -0.08
      max: 0.08
    }
    bias_filler {
      type: "constant"
      value: 0
    }
    axis: 2
  }
}
layer {
  name: "lstm1_W_xc_x_slice"
  type: "Slice"
  bottom: "W_xc_x"
  top: "W_xc_x_1"
  slice_param {
    axis: 0
  }
}
layer {
  name: "lstm1_h_conted_0"
  type: "Scale"
  bottom: "h_0"
  bottom: "cont_1"
  top: "h_conted_0"
  scale_param {
    axis: 0
  }
}
layer {
  name: "lstm1_transform_1"
  type: "InnerProduct"
  bottom: "h_conted_0"
  top: "W_hc_h_0"
  param {
    name: "W_hc"
  }
  inner_product_param {
    num_output: 4000
    bias_term: false
    weight_filler {
      type: "uniform"
      min: -0.08
      max: 0.08
    }
    axis: 2
  }
}
layer {
  name: "lstm1_gate_input_1"
  type: "Eltwise"
  bottom: "W_hc_h_0"
  bottom: "W_xc_x_1"
  top: "gate_input_1"
  eltwise_param {
    operation: SUM
  }
}
layer {
  name: "lstm1_unit_1"
  type: "LSTMUnit"
  bottom: "c_0"
  bottom: "gate_input_1"
  bottom: "cont_1"
  top: "c_1"
  top: "h_1"
}
layer {
  name: "lstm1_"
  type: "Split"
  bottom: "c_1"
  top: "c_T"
}
layer {
  name: "lstm1_h_concat"
  type: "Concat"
  bottom: "h_1"
  top: "h"
  concat_param {
    axis: 0
  }
}
layer {
  name: "h_pseudoloss"
  type: "Reduction"
  bottom: "h"
  top: "h_pseudoloss"
  loss_weight: 1
}
I0924 03:31:34.487557 29653 layer_factory.hpp:77] Creating layer lstm1_
I0924 03:31:34.487570 29653 net.cpp:91] Creating Layer lstm1_
I0924 03:31:34.487576 29653 net.cpp:399] lstm1_ -> x
I0924 03:31:34.487587 29653 net.cpp:399] lstm1_ -> cont
I0924 03:31:34.491541 29639 net.cpp:141] Setting up lstm1_gate_input_1
I0924 03:31:34.491567 29639 net.cpp:148] Top shape: 1 1 4000 (4000)
I0924 03:31:34.491572 29639 net.cpp:156] Memory required for data: 78016
I0924 03:31:34.491578 29639 layer_factory.hpp:77] Creating layer lstm1_unit_1
I0924 03:31:34.491596 29639 net.cpp:91] Creating Layer lstm1_unit_1
I0924 03:31:34.491602 29639 net.cpp:425] lstm1_unit_1 <- c_0
I0924 03:31:34.491611 29639 net.cpp:425] lstm1_unit_1 <- gate_input_1
I0924 03:31:34.491616 29639 net.cpp:425] lstm1_unit_1 <- cont_1_lstm1_cont_slice_0_split_1
I0924 03:31:34.491623 29639 net.cpp:399] lstm1_unit_1 -> c_1
I0924 03:31:34.491633 29639 net.cpp:399] lstm1_unit_1 -> h_1
I0924 03:31:34.491647 29653 net.cpp:141] Setting up lstm1_
I0924 03:31:34.491667 29653 net.cpp:148] Top shape: 1 1 500 (500)
I0924 03:31:34.491673 29653 net.cpp:148] Top shape: 1 1 (1)
I0924 03:31:34.491677 29653 net.cpp:156] Memory required for data: 2004
I0924 03:31:34.491683 29653 layer_factory.hpp:77] Creating layer lstm1_
I0924 03:31:34.491699 29653 net.cpp:91] Creating Layer lstm1_
I0924 03:31:34.491706 29653 net.cpp:399] lstm1_ -> c_0
I0924 03:31:34.491719 29653 net.cpp:399] lstm1_ -> h_0
I0924 03:31:34.491777 29673 net.cpp:141] Setting up lstm1_transform_1
I0924 03:31:34.491793 29673 net.cpp:148] Top shape: 1 1 4000 (4000)
I0924 03:31:34.491798 29673 net.cpp:156] Memory required for data: 62016
I0924 03:31:34.491811 29673 layer_factory.hpp:77] Creating layer lstm1_gate_input_1
I0924 03:31:34.491809 29639 net.cpp:141] Setting up lstm1_unit_1
I0924 03:31:34.491822 29639 net.cpp:148] Top shape: 1 1 1000 (1000)
I0924 03:31:34.491825 29673 net.cpp:91] Creating Layer lstm1_gate_input_1
I0924 03:31:34.491828 29639 net.cpp:148] Top shape: 1 1 1000 (1000)
I0924 03:31:34.491832 29673 net.cpp:425] lstm1_gate_input_1 <- W_hc_h_0
I0924 03:31:34.491833 29639 net.cpp:156] Memory required for data: 86016
I0924 03:31:34.491858 29639 layer_factory.hpp:77] Creating layer lstm1_
I0924 03:31:34.491845 29673 net.cpp:425] lstm1_gate_input_1 <- W_xc_x_1
I0924 03:31:34.491870 29639 net.cpp:91] Creating Layer lstm1_
I0924 03:31:34.491876 29639 net.cpp:425] lstm1_ <- c_1
I0924 03:31:34.491878 29673 net.cpp:399] lstm1_gate_input_1 -> gate_input_1
I0924 03:31:34.491886 29639 net.cpp:399] lstm1_ -> c_T
I0924 03:31:34.494933 29673 net.cpp:141] Setting up lstm1_gate_input_1
I0924 03:31:34.494952 29673 net.cpp:148] Top shape: 1 1 4000 (4000)
I0924 03:31:34.494958 29673 net.cpp:156] Memory required for data: 78016
I0924 03:31:34.494963 29673 layer_factory.hpp:77] Creating layer lstm1_unit_1
I0924 03:31:34.494981 29673 net.cpp:91] Creating Layer lstm1_unit_1
I0924 03:31:34.494987 29673 net.cpp:425] lstm1_unit_1 <- c_0
I0924 03:31:34.494992 29673 net.cpp:425] lstm1_unit_1 <- gate_input_1
I0924 03:31:34.494998 29673 net.cpp:425] lstm1_unit_1 <- cont_1_lstm1_cont_slice_0_split_1
I0924 03:31:34.495005 29673 net.cpp:399] lstm1_unit_1 -> c_1
I0924 03:31:34.495014 29673 net.cpp:399] lstm1_unit_1 -> h_1
I0924 03:31:34.495015 29639 net.cpp:141] Setting up lstm1_
I0924 03:31:34.495034 29639 net.cpp:148] Top shape: 1 1 1000 (1000)
I0924 03:31:34.495040 29639 net.cpp:156] Memory required for data: 90016
I0924 03:31:34.495045 29639 layer_factory.hpp:77] Creating layer lstm1_h_concat
I0924 03:31:34.495056 29639 net.cpp:91] Creating Layer lstm1_h_concat
I0924 03:31:34.495062 29639 net.cpp:425] lstm1_h_concat <- h_1
I0924 03:31:34.495070 29639 net.cpp:399] lstm1_h_concat -> h
I0924 03:31:34.495137 29639 net.cpp:141] Setting up lstm1_h_concat
I0924 03:31:34.495147 29639 net.cpp:148] Top shape: 1 1 1000 (1000)
I0924 03:31:34.495151 29639 net.cpp:156] Memory required for data: 94016
I0924 03:31:34.495157 29639 layer_factory.hpp:77] Creating layer h_pseudoloss
I0924 03:31:34.495172 29639 net.cpp:91] Creating Layer h_pseudoloss
I0924 03:31:34.495177 29639 net.cpp:425] h_pseudoloss <- h
I0924 03:31:34.495184 29639 net.cpp:399] h_pseudoloss -> h_pseudoloss
I0924 03:31:34.495182 29673 net.cpp:141] Setting up lstm1_unit_1
I0924 03:31:34.495204 29673 net.cpp:148] Top shape: 1 1 1000 (1000)
I0924 03:31:34.495210 29673 net.cpp:148] Top shape: 1 1 1000 (1000)
I0924 03:31:34.495215 29673 net.cpp:156] Memory required for data: 86016
I0924 03:31:34.495220 29673 layer_factory.hpp:77] Creating layer lstm1_
I0924 03:31:34.495229 29673 net.cpp:91] Creating Layer lstm1_
I0924 03:31:34.495234 29673 net.cpp:425] lstm1_ <- c_1
I0924 03:31:34.495244 29673 net.cpp:399] lstm1_ -> c_T
I0924 03:31:34.495247 29653 net.cpp:141] Setting up lstm1_
I0924 03:31:34.495265 29653 net.cpp:148] Top shape: 1 1 1000 (1000)
I0924 03:31:34.495271 29653 net.cpp:148] Top shape: 1 1 1000 (1000)
I0924 03:31:34.495275 29653 net.cpp:156] Memory required for data: 10004
I0924 03:31:34.495281 29653 layer_factory.hpp:77] Creating layer lstm1_cont_slice
I0924 03:31:34.495291 29653 net.cpp:91] Creating Layer lstm1_cont_slice
I0924 03:31:34.495296 29653 net.cpp:425] lstm1_cont_slice <- cont
I0924 03:31:34.495311 29653 net.cpp:399] lstm1_cont_slice -> cont_1
I0924 03:31:34.495384 29673 net.cpp:141] Setting up lstm1_
I0924 03:31:34.495394 29673 net.cpp:148] Top shape: 1 1 1000 (1000)
I0924 03:31:34.495399 29673 net.cpp:156] Memory required for data: 90016
I0924 03:31:34.495405 29673 layer_factory.hpp:77] Creating layer lstm1_h_concat
I0924 03:31:34.495414 29673 net.cpp:91] Creating Layer lstm1_h_concat
I0924 03:31:34.495419 29673 net.cpp:425] lstm1_h_concat <- h_1
I0924 03:31:34.495429 29653 net.cpp:141] Setting up lstm1_cont_slice
I0924 03:31:34.495432 29673 net.cpp:399] lstm1_h_concat -> h
I0924 03:31:34.495440 29653 net.cpp:148] Top shape: 1 1 (1)
I0924 03:31:34.495445 29653 net.cpp:156] Memory required for data: 10008
I0924 03:31:34.495450 29653 layer_factory.hpp:77] Creating layer cont_1_lstm1_cont_slice_0_split
I0924 03:31:34.495456 29653 net.cpp:91] Creating Layer cont_1_lstm1_cont_slice_0_split
I0924 03:31:34.495461 29653 net.cpp:425] cont_1_lstm1_cont_slice_0_split <- cont_1
I0924 03:31:34.495468 29653 net.cpp:399] cont_1_lstm1_cont_slice_0_split -> cont_1_lstm1_cont_slice_0_split_0
I0924 03:31:34.495479 29653 net.cpp:399] cont_1_lstm1_cont_slice_0_split -> cont_1_lstm1_cont_slice_0_split_1
I0924 03:31:34.495478 29639 net.cpp:141] Setting up h_pseudoloss
I0924 03:31:34.495506 29639 net.cpp:148] Top shape: (1)
I0924 03:31:34.495522 29673 net.cpp:141] Setting up lstm1_h_concat
I0924 03:31:34.495532 29673 net.cpp:148] Top shape: 1 1 1000 (1000)
I0924 03:31:34.495537 29673 net.cpp:156] Memory required for data: 94016
I0924 03:31:34.495542 29673 layer_factory.hpp:77] Creating layer h_pseudoloss
I0924 03:31:34.495550 29673 net.cpp:91] Creating Layer h_pseudoloss
I0924 03:31:34.495512 29639 net.cpp:151]     with loss weight 1
I0924 03:31:34.495555 29673 net.cpp:425] h_pseudoloss <- h
I0924 03:31:34.495559 29639 net.cpp:156] Memory required for data: 94020
I0924 03:31:34.495563 29673 net.cpp:399] h_pseudoloss -> h_pseudoloss
I0924 03:31:34.495566 29639 net.cpp:217] h_pseudoloss needs backward computation.
I0924 03:31:34.495573 29639 net.cpp:217] lstm1_h_concat needs backward computation.
I0924 03:31:34.495578 29639 net.cpp:219] lstm1_ does not need backward computation.
I0924 03:31:34.495582 29639 net.cpp:217] lstm1_unit_1 needs backward computation.
I0924 03:31:34.495581 29653 net.cpp:141] Setting up cont_1_lstm1_cont_slice_0_split
I0924 03:31:34.495594 29639 net.cpp:217] lstm1_gate_input_1 needs backward computation.
I0924 03:31:34.495606 29653 net.cpp:148] Top shape: 1 1 (1)
I0924 03:31:34.495615 29639 net.cpp:217] lstm1_transform_1 needs backward computation.
I0924 03:31:34.495622 29653 net.cpp:148] Top shape: 1 1 (1)
I0924 03:31:34.495630 29653 net.cpp:156] Memory required for data: 10016
I0924 03:31:34.495622 29639 net.cpp:219] lstm1_h_conted_0 does not need backward computation.
I0924 03:31:34.495636 29653 layer_factory.hpp:77] Creating layer lstm1_x_transform
I0924 03:31:34.495640 29639 net.cpp:217] lstm1_W_xc_x_slice needs backward computation.
I0924 03:31:34.495646 29639 net.cpp:217] lstm1_x_transform needs backward computation.
…
I0924 03:31:34.495782 29673 net.cpp:261] This network produces output h_pseudoloss
I0924 03:31:34.495792 29639 recurrent_layer.cpp:150] Adding parameter 1: b_c
I0924 03:31:34.495810 29639 recurrent_layer.cpp:150] Adding parameter 2: W_hc
I0924 03:31:34.495811 29673 net.cpp:274] Network initialization done.
I0924 03:31:34.495853 29673 recurrent_layer.cpp:150] Adding parameter 0: W_xc
I0924 03:31:34.495859 29673 recurrent_layer.cpp:150] Adding parameter 1: b_c
I0924 03:31:34.495863 29673 recurrent_layer.cpp:150] Adding parameter 2: W_hc
I0924 03:31:34.500064 29639 net.cpp:141] Setting up lstm1
I0924 03:31:34.500087 29639 net.cpp:148] Top shape: 1 1 1000 (1000)
I0924 03:31:34.500092 29639 net.cpp:156] Memory required for data: 26408
I0924 03:31:34.500108 29639 layer_factory.hpp:77] Creating layer concat
I0924 03:31:34.500118 29639 net.cpp:91] Creating Layer concat
I0924 03:31:34.500124 29639 net.cpp:425] concat <- lstm1
I0924 03:31:34.500118 29673 net.cpp:141] Setting up lstm1
I0924 03:31:34.500133 29639 net.cpp:425] concat <- embedded_input_sentence
I0924 03:31:34.500149 29673 net.cpp:148] Top shape: 1 1 1000 (1000)
I0924 03:31:34.500155 29639 net.cpp:425] concat <- reshaped_stage_indicator
I0924 03:31:34.500155 29673 net.cpp:156] Memory required for data: 26408
I0924 03:31:34.500167 29639 net.cpp:399] concat -> lstm1_video_sequence
I0924 03:31:34.500182 29673 layer_factory.hpp:77] Creating layer concat
I0924 03:31:34.500195 29673 net.cpp:91] Creating Layer concat
I0924 03:31:34.500201 29673 net.cpp:425] concat <- lstm1
I0924 03:31:34.500208 29673 net.cpp:425] concat <- embedded_input_sentence
I0924 03:31:34.500214 29673 net.cpp:425] concat <- reshaped_stage_indicator
I0924 03:31:34.500221 29673 net.cpp:399] concat -> lstm1_video_sequence
I0924 03:31:34.514387 29673 net.cpp:141] Setting up concat
I0924 03:31:34.514433 29673 net.cpp:148] Top shape: 1 1 1501 (1501)
I0924 03:31:34.514439 29673 net.cpp:156] Memory required for data: 32412
I0924 03:31:34.514448 29673 layer_factory.hpp:77] Creating layer lstm2
I0924 03:31:34.514468 29673 net.cpp:91] Creating Layer lstm2
I0924 03:31:34.514477 29673 net.cpp:425] lstm2 <- lstm1_video_sequence
I0924 03:31:34.514487 29673 net.cpp:425] lstm2 <- cont_sentence_input_1_split_1
I0924 03:31:34.514483 29635 net.cpp:141] Setting up lstm1_transform_1
I0924 03:31:34.514497 29673 net.cpp:399] lstm2 -> lstm2
I0924 03:31:34.514519 29635 net.cpp:148] Top shape: 1 1 4000 (4000)
I0924 03:31:34.514525 29635 net.cpp:156] Memory required for data: 62016
I0924 03:31:34.514536 29673 recurrent_layer.cpp:20] Initializing recurrent layer: assuming input batch contains 1 timesteps of 1 independent streams.
I0924 03:31:34.514539 29635 layer_factory.hpp:77] Creating layer lstm1_gate_input_1
I0924 03:31:34.514562 29635 net.cpp:91] Creating Layer lstm1_gate_input_1
I0924 03:31:34.514569 29635 net.cpp:425] lstm1_gate_input_1 <- W_hc_h_0
I0924 03:31:34.514578 29635 net.cpp:425] lstm1_gate_input_1 <- W_xc_x_1
I0924 03:31:34.514587 29635 net.cpp:399] lstm1_gate_input_1 -> gate_input_1
I0924 03:31:34.514737 29639 net.cpp:141] Setting up concat
I0924 03:31:34.514756 29639 net.cpp:148] Top shape: 1 1 1501 (1501)
I0924 03:31:34.514761 29639 net.cpp:156] Memory required for data: 32412
I0924 03:31:34.514767 29639 layer_factory.hpp:77] Creating layer lstm2
I0924 03:31:34.514770 29635 net.cpp:141] Setting up lstm1_gate_input_1
I0924 03:31:34.514780 29635 net.cpp:148] Top shape: 1 1 4000 (4000)
I0924 03:31:34.514782 29639 net.cpp:91] Creating Layer lstm2
I0924 03:31:34.514786 29635 net.cpp:156] Memory required for data: 78016
I0924 03:31:34.514789 29639 net.cpp:425] lstm2 <- lstm1_video_sequence
I0924 03:31:34.514791 29635 layer_factory.hpp:77] Creating layer lstm1_unit_1
I0924 03:31:34.514796 29639 net.cpp:425] lstm2 <- cont_sentence_input_1_split_1
I0924 03:31:34.514799 29635 net.cpp:91] Creating Layer lstm1_unit_1
…
I0924 03:31:34.514823 29635 net.cpp:399] lstm1_unit_1 -> c_1
I0924 03:31:34.514832 29635 net.cpp:399] lstm1_unit_1 -> h_1
I0924 03:31:34.514840 29673 net.cpp:49] Initializing net from parameters: 
layer {
  name: "lstm2_"
  type: "Input"
  top: "x"
  top: "cont"
  input_param {
    shape {
      dim: 1
      dim: 1
      dim: 1501
    }
    shape {
      dim: 1
      dim: 1
    }
  }
}
layer {
  name: "lstm2_"
  type: "Input"
  top: "c_0"
  top: "h_0"
  input_param {
    shape {
      dim: 1
      dim: 1
      dim: 1000
    }
    shape {
      dim: 1
      dim: 1
      dim: 1000
    }
  }
}
layer {
  name: "lstm2_cont_slice"
  type: "Slice"
  bottom: "cont"
  top: "cont_1"
  slice_param {
    axis: 0
  }
}
layer {
  name: "lstm2_x_transform"
  type: "InnerProduct"
  bottom: "x"
  top: "W_xc_x"
  param {
    name: "W_xc"
  }
  param {
    name: "b_c"
  }
  propagate_down: true
  inner_product_param {
    num_output: 4000
    bias_term: true
    weight_filler {
      type: "uniform"
      min: -0.08
      max: 0.08
    }
    bias_filler {
      type: "constant"
      value: 0
    }
    axis: 2
  }
}
layer {
  name: "lstm2_W_xc_x_slice"
  type: "Slice"
  bottom: "W_xc_x"
  top: "W_xc_x_1"
  slice_param {
    axis: 0
  }
}
layer {
  name: "lstm2_h_conted_0"
  type: "Scale"
  bottom: "h_0"
  bottom: "cont_1"
  top: "h_conted_0"
  scale_param {
    axis: 0
  }
}
layer {
  name: "lstm2_transform_1"
  type: "InnerProduct"
  bottom: "h_conted_0"
  top: "W_hc_h_0"
  param {
    name: "W_hc"
  }
  inner_product_param {
    num_output: 4000
    bias_term: false
    weight_filler {
      type: "uniform"
      min: -0.08
      max: 0.08
    }
    axis: 2
  }
}
layer {
  name: "lstm2_gate_input_1"
  type: "Eltwise"
  bottom: "W_hc_h_0"
  bottom: "W_xc_x_1"
  top: "gate_input_1"
  eltwise_param {
    operation: SUM
  }
}
layer {
  name: "lstm2_unit_1"
  type: "LSTMUnit"
  bottom: "c_0"
  bottom: "gate_input_1"
  bottom: "cont_1"
  top: "c_1"
  top: "h_1"
}
layer {
  name: "lstm2_"
  type: "Split"
  bottom: "c_1"
  top: "c_T"
}
layer {
  name: "lstm2_h_concat"
  type: "Concat"
  bottom: "h_1"
  top: "h"
  concat_param {
    axis: 0
  }
}
layer {
  name: "h_pseudoloss"
  type: "Reduction"
  bottom: "h"
  top: "h_pseudoloss"
  loss_weight: 1
}
I0924 03:31:34.514847 29641 net.cpp:141] Setting up lstm1_x_transform
I0924 03:31:34.514866 29641 net.cpp:148] Top shape: 1 1 4000 (4000)
I0924 03:31:34.514873 29641 net.cpp:156] Memory required for data: 26016
I0924 03:31:34.514885 29641 layer_factory.hpp:77] Creating layer lstm1_W_xc_x_slice
I0924 03:31:34.514895 29641 net.cpp:91] Creating Layer lstm1_W_xc_x_slice
I0924 03:31:34.514904 29641 net.cpp:425] lstm1_W_xc_x_slice <- W_xc_x
I0924 03:31:34.514911 29641 net.cpp:399] lstm1_W_xc_x_slice -> W_xc_x_1
I0924 03:31:34.514932 29673 layer_factory.hpp:77] Creating layer lstm2_
I0924 03:31:34.514945 29673 net.cpp:91] Creating Layer lstm2_
I0924 03:31:34.514952 29673 net.cpp:399] lstm2_ -> x
I0924 03:31:34.514963 29673 net.cpp:399] lstm2_ -> cont
I0924 03:31:34.514971 29641 net.cpp:141] Setting up lstm1_W_xc_x_slice
I0924 03:31:34.514982 29641 net.cpp:148] Top shape: 1 1 4000 (4000)
I0924 03:31:34.514986 29641 net.cpp:156] Memory required for data: 42016
I0924 03:31:34.514991 29641 layer_factory.hpp:77] Creating layer lstm1_h_conted_0
I0924 03:31:34.515004 29641 net.cpp:91] Creating Layer lstm1_h_conted_0
I0924 03:31:34.515010 29641 net.cpp:425] lstm1_h_conted_0 <- h_0
I0924 03:31:34.515017 29641 net.cpp:425] lstm1_h_conted_0 <- cont_1_lstm1_cont_slice_0_split_0
I0924 03:31:34.515023 29641 net.cpp:399] lstm1_h_conted_0 -> h_conted_0
I0924 03:31:34.515043 29635 net.cpp:141] Setting up lstm1_unit_1
I0924 03:31:34.515053 29635 net.cpp:148] Top shape: 1 1 1000 (1000)
I0924 03:31:34.515059 29635 net.cpp:148] Top shape: 1 1 1000 (1000)
I0924 03:31:34.515064 29635 net.cpp:156] Memory required for data: 86016
I0924 03:31:34.515069 29635 layer_factory.hpp:77] Creating layer lstm1_
I0924 03:31:34.515079 29635 net.cpp:91] Creating Layer lstm1_
I0924 03:31:34.515076 29639 net.cpp:49] Initializing net from parameters: 
layer {
  name: "lstm2_"
  type: "Input"
  top: "x"
  top: "cont"
  input_param {
    shape {
      dim: 1
      dim: 1
      dim: 1501
    }
    shape {
      dim: 1
      dim: 1
    }
  }
}
layer {
  name: "lstm2_"
  type: "Input"
  top: "c_0"
  top: "h_0"
  input_param {
    shape {
      dim: 1
      dim: 1
      dim: 1000
    }
    shape {
      dim: 1
      dim: 1
      dim: 1000
    }
  }
}
layer {
  name: "lstm2_cont_slice"
  type: "Slice"
  bottom: "cont"
  top: "cont_1"
  slice_param {
    axis: 0
  }
}
layer {
  name: "lstm2_x_transform"
  type: "InnerProduct"
  bottom: "x"
  top: "W_xc_x"
  param {
    name: "W_xc"
  }
  param {
    name: "b_c"
  }
  propagate_down: true
  inner_product_param {
    num_output: 4000
    bias_term: true
    weight_filler {
      type: "uniform"
      min: -0.08
      max: 0.08
    }
    bias_filler {
      type: "constant"
      value: 0
    }
    axis: 2
  }
}
layer {
  name: "lstm2_W_xc_x_slice"
  type: "Slice"
  bottom: "W_xc_x"
  top: "W_xc_x_1"
  slice_param {
    axis: 0
  }
}
layer {
  name: "lstm2_h_conted_0"
  type: "Scale"
  bottom: "h_0"
  bottom: "cont_1"
  top: "h_conted_0"
  scale_param {
    axis: 0
  }
}
layer {
  name: "lstm2_transform_1"
  type: "InnerProduct"
  bottom: "h_conted_0"
  top: "W_hc_h_0"
  param {
    name: "W_hc"
  }
  inner_product_param {
    num_output: 4000
    bias_term: false
    weight_filler {
      type: "uniform"
      min: -0.08
      max: 0.08
    }
    axis: 2
  }
}
layer {
  name: "lstm2_gate_input_1"
  type: "Eltwise"
  bottom: "W_hc_h_0"
  bottom: "W_xc_x_1"
  top: "gate_input_1"
  eltwise_param {
    operation: SUM
  }
}
layer {
  name: "lstm2_unit_1"
  type: "LSTMUnit"
  bottom: "c_0"
  bottom: "gate_input_1"
  bottom: "cont_1"
  top: "c_1"
  top: "h_1"
}
layer {
  name: "lstm2_"
  type: "Split"
  bottom: "c_1"
  top: "c_T"
}
layer {
  name: "lstm2_h_concat"
  type: "Concat"
  bottom: "h_1"
  top: "h"
  concat_param {
    axis: 0
  }
}
layer {
  name: "h_pseudoloss"
  type: "Reduction"
  bottom: "h"
  top: "h_pseudoloss"
  loss_weight: 1
}
I0924 03:31:34.515084 29635 net.cpp:425] lstm1_ <- c_1
I0924 03:31:34.515091 29635 net.cpp:399] lstm1_ -> c_T
I0924 03:31:34.515136 29641 net.cpp:141] Setting up lstm1_h_conted_0
I0924 03:31:34.515146 29641 net.cpp:148] Top shape: 1 1 1000 (1000)
I0924 03:31:34.515151 29641 net.cpp:156] Memory required for data: 46016
I0924 03:31:34.515156 29641 layer_factory.hpp:77] Creating layer lstm1_transform_1
I0924 03:31:34.515166 29641 net.cpp:91] Creating Layer lstm1_transform_1
I0924 03:31:34.515167 29639 layer_factory.hpp:77] Creating layer lstm2_
I0924 03:31:34.515171 29641 net.cpp:425] lstm1_transform_1 <- h_conted_0
I0924 03:31:34.515185 29639 net.cpp:91] Creating Layer lstm2_
I0924 03:31:34.515189 29641 net.cpp:399] lstm1_transform_1 -> W_hc_h_0
I0924 03:31:34.515192 29639 net.cpp:399] lstm2_ -> x
I0924 03:31:34.515204 29639 net.cpp:399] lstm2_ -> cont
I0924 03:31:34.515228 29653 net.cpp:141] Setting up lstm1_x_transform
I0924 03:31:34.515246 29653 net.cpp:148] Top shape: 1 1 4000 (4000)
I0924 03:31:34.515251 29653 net.cpp:156] Memory required for data: 26016
I0924 03:31:34.515265 29653 layer_factory.hpp:77] Creating layer lstm1_W_xc_x_slice
I0924 03:31:34.515278 29653 net.cpp:91] Creating Layer lstm1_W_xc_x_slice
I0924 03:31:34.515285 29653 net.cpp:425] lstm1_W_xc_x_slice <- W_xc_x
I0924 03:31:34.515292 29653 net.cpp:399] lstm1_W_xc_x_slice -> W_xc_x_1
I0924 03:31:34.515298 29635 net.cpp:141] Setting up lstm1_
I0924 03:31:34.515308 29635 net.cpp:148] Top shape: 1 1 1000 (1000)
I0924 03:31:34.515313 29635 net.cpp:156] Memory required for data: 90016
I0924 03:31:34.515318 29635 layer_factory.hpp:77] Creating layer lstm1_h_concat
I0924 03:31:34.515327 29635 net.cpp:91] Creating Layer lstm1_h_concat
I0924 03:31:34.515332 29635 net.cpp:425] lstm1_h_concat <- h_1
I0924 03:31:34.515342 29635 net.cpp:399] lstm1_h_concat -> h
I0924 03:31:34.515373 29639 net.cpp:141] Setting up lstm2_
I0924 03:31:34.515384 29639 net.cpp:148] Top shape: 1 1 1501 (1501)
I0924 03:31:34.515391 29639 net.cpp:148] Top shape: 1 1 (1)
I0924 03:31:34.515395 29639 net.cpp:156] Memory required for data: 6008
I0924 03:31:34.515400 29639 layer_factory.hpp:77] Creating layer lstm2_
I0924 03:31:34.515413 29639 net.cpp:91] Creating Layer lstm2_
I0924 03:31:34.515420 29639 net.cpp:399] lstm2_ -> c_0
I0924 03:31:34.515419 29653 net.cpp:141] Setting up lstm1_W_xc_x_slice
I0924 03:31:34.515435 29639 net.cpp:399] lstm2_ -> h_0
I0924 03:31:34.515441 29653 net.cpp:148] Top shape: 1 1 4000 (4000)
I0924 03:31:34.515446 29653 net.cpp:156] Memory required for data: 42016
I0924 03:31:34.515451 29653 layer_factory.hpp:77] Creating layer lstm1_h_conted_0
I0924 03:31:34.515461 29653 net.cpp:91] Creating Layer lstm1_h_conted_0
I0924 03:31:34.515466 29653 net.cpp:425] lstm1_h_conted_0 <- h_0
I0924 03:31:34.515472 29653 net.cpp:425] lstm1_h_conted_0 <- cont_1_lstm1_cont_slice_0_split_0
I0924 03:31:34.515482 29653 net.cpp:399] lstm1_h_conted_0 -> h_conted_0
I0924 03:31:34.515481 29673 net.cpp:141] Setting up lstm2_
I0924 03:31:34.515499 29673 net.cpp:148] Top shape: 1 1 1501 (1501)
I0924 03:31:34.515506 29673 net.cpp:148] Top shape: 1 1 (1)
I0924 03:31:34.515511 29673 net.cpp:156] Memory required for data: 6008
I0924 03:31:34.515516 29673 layer_factory.hpp:77] Creating layer lstm2_
I0924 03:31:34.515529 29635 net.cpp:141] Setting up lstm1_h_concat
I0924 03:31:34.515530 29673 net.cpp:91] Creating Layer lstm2_
I0924 03:31:34.515545 29635 net.cpp:148] Top shape: 1 1 1000 (1000)
I0924 03:31:34.515548 29673 net.cpp:399] lstm2_ -> c_0
I0924 03:31:34.515550 29635 net.cpp:156] Memory required for data: 94016
I0924 03:31:34.515558 29635 layer_factory.hpp:77] Creating layer h_pseudoloss
I0924 03:31:34.515561 29673 net.cpp:399] lstm2_ -> h_0
I0924 03:31:34.515565 29635 net.cpp:91] Creating Layer h_pseudoloss
I0924 03:31:34.515570 29635 net.cpp:425] h_pseudoloss <- h
I0924 03:31:34.515578 29635 net.cpp:399] h_pseudoloss -> h_pseudoloss
I0924 03:31:34.523352 29673 net.cpp:141] Setting up lstm2_
I0924 03:31:34.523365 29673 net.cpp:148] Top shape: 1 1 1000 (1000)
I0924 03:31:34.523370 29673 net.cpp:148] Top shape: 1 1 1000 (1000)
I0924 03:31:34.523375 29673 net.cpp:156] Memory required for data: 14008
I0924 03:31:34.523380 29673 layer_factory.hpp:77] Creating layer lstm2_cont_slice
I0924 03:31:34.523388 29673 net.cpp:91] Creating Layer lstm2_cont_slice
I0924 03:31:34.523393 29673 net.cpp:425] lstm2_cont_slice <- cont
I0924 03:31:34.523401 29673 net.cpp:399] lstm2_cont_slice -> cont_1
I0924 03:31:34.523455 29639 net.cpp:141] Setting up lstm2_
I0924 03:31:34.523497 29639 net.cpp:148] Top shape: 1 1 1000 (1000)
I0924 03:31:34.523505 29639 net.cpp:148] Top shape: 1 1 1000 (1000)
I0924 03:31:34.523509 29639 net.cpp:156] Memory required for data: 14008
I0924 03:31:34.523517 29639 layer_factory.hpp:77] Creating layer lstm2_cont_slice
I0924 03:31:34.523535 29639 net.cpp:91] Creating Layer lstm2_cont_slice
I0924 03:31:34.523541 29639 net.cpp:425] lstm2_cont_slice <- cont
I0924 03:31:34.523551 29639 net.cpp:399] lstm2_cont_slice -> cont_1
I0924 03:31:34.523562 29653 net.cpp:141] Setting up lstm1_h_conted_0
I0924 03:31:34.523573 29653 net.cpp:148] Top shape: 1 1 1000 (1000)
I0924 03:31:34.523578 29653 net.cpp:156] Memory required for data: 46016
I0924 03:31:34.523583 29653 layer_factory.hpp:77] Creating layer lstm1_transform_1
I0924 03:31:34.523604 29653 net.cpp:91] Creating Layer lstm1_transform_1
I0924 03:31:34.523603 29673 net.cpp:141] Setting up lstm2_cont_slice
I0924 03:31:34.523614 29653 net.cpp:425] lstm1_transform_1 <- h_conted_0
I0924 03:31:34.523622 29673 net.cpp:148] Top shape: 1 1 (1)
I0924 03:31:34.523623 29653 net.cpp:399] lstm1_transform_1 -> W_hc_h_0
I0924 03:31:34.523627 29673 net.cpp:156] Memory required for data: 14012
I0924 03:31:34.523632 29673 layer_factory.hpp:77] Creating layer cont_1_lstm2_cont_slice_0_split
I0924 03:31:34.523639 29673 net.cpp:91] Creating Layer cont_1_lstm2_cont_slice_0_split
I0924 03:31:34.523644 29673 net.cpp:425] cont_1_lstm2_cont_slice_0_split <- cont_1
…
I0924 03:31:34.523830 29635 net.cpp:219] lstm1_ does not need backward computation.
I0924 03:31:34.523834 29635 net.cpp:261] This network produces output c_T
I0924 03:31:34.523839 29635 net.cpp:261] This network produces output h_pseudoloss
I0924 03:31:34.523854 29635 net.cpp:274] Network initialization done.
I0924 03:31:34.523905 29635 recurrent_layer.cpp:150] Adding parameter 0: W_xc
I0924 03:31:34.523911 29635 recurrent_layer.cpp:150] Adding parameter 1: b_c
I0924 03:31:34.523916 29635 recurrent_layer.cpp:150] Adding parameter 2: W_hc
I0924 03:31:34.530728 29673 net.cpp:141] Setting up cont_1_lstm2_cont_slice_0_split
I0924 03:31:34.530771 29673 net.cpp:148] Top shape: 1 1 (1)
I0924 03:31:34.530778 29673 net.cpp:148] Top shape: 1 1 (1)
I0924 03:31:34.530783 29673 net.cpp:156] Memory required for data: 14020
I0924 03:31:34.530791 29673 layer_factory.hpp:77] Creating layer lstm2_x_transform
I0924 03:31:34.530812 29673 net.cpp:91] Creating Layer lstm2_x_transform
I0924 03:31:34.530817 29673 net.cpp:425] lstm2_x_transform <- x
I0924 03:31:34.530833 29673 net.cpp:399] lstm2_x_transform -> W_xc_x
I0924 03:31:34.530832 29639 net.cpp:141] Setting up lstm2_cont_slice
I0924 03:31:36.581912 29639 net.cpp:148] Top shape: 1 1 (1)
I0924 03:31:36.581938 29639 net.cpp:156] Memory required for data: 14012
I0924 03:31:36.581953 29639 layer_factory.hpp:77] Creating layer cont_1_lstm2_cont_slice_0_split
I0924 03:31:34.562547 29653 net.cpp:141] Setting up lstm1_transform_1
I0924 03:31:34.530951 29645 net.cpp:141] Setting up embedding
I0924 03:31:36.582006 29653 net.cpp:148] Top shape: 1 1 4000 (4000)
I0924 03:31:36.582020 29653 net.cpp:156] Memory required for data: 62016
I0924 03:31:36.582021 29645 net.cpp:148] Top shape: 1 1 500 (500)
I0924 03:31:36.582032 29645 net.cpp:156] Memory required for data: 22408
I0924 03:31:36.582043 29653 layer_factory.hpp:77] Creating layer lstm1_gate_input_1
I0924 03:31:36.582046 29639 net.cpp:91] Creating Layer cont_1_lstm2_cont_slice_0_split
I0924 03:31:34.531003 29635 net.cpp:141] Setting up lstm1
I0924 03:31:36.582074 29653 net.cpp:91] Creating Layer lstm1_gate_input_1
I0924 03:31:36.582080 29639 net.cpp:425] cont_1_lstm2_cont_slice_0_split <- cont_1
I0924 03:31:36.582087 29635 net.cpp:148] Top shape: 1 1 1000 (1000)
I0924 03:31:34.570179 29679 net.cpp:141] Setting up embedding
I0924 03:31:36.582057 29645 layer_factory.hpp:77] Creating layer lstm1
I0924 03:31:34.557207 29641 net.cpp:141] Setting up lstm1_transform_1
I0924 03:31:36.582113 29679 net.cpp:148] Top shape: 1 1 500 (500)
I0924 03:31:36.582128 29641 net.cpp:148] Top shape: 1 1 4000 (4000)
I0924 03:31:36.582134 29641 net.cpp:156] Memory required for data: 62016
I0924 03:31:36.582139 29679 net.cpp:156] Memory required for data: 22408
I0924 03:31:36.582104 29635 net.cpp:156] Memory required for data: 26408
I0924 03:31:36.582154 29641 layer_factory.hpp:77] Creating layer lstm1_gate_input_1
I0924 03:31:36.582156 29679 layer_factory.hpp:77] Creating layer lstm1
I0924 03:31:36.582192 29641 net.cpp:91] Creating Layer lstm1_gate_input_1
I0924 03:31:36.582202 29635 layer_factory.hpp:77] Creating layer concat
I0924 03:31:34.623991 29647 net.cpp:141] Setting up conv1
I0924 03:31:36.582109 29639 net.cpp:399] cont_1_lstm2_cont_slice_0_split -> cont_1_lstm2_cont_slice_0_split_0
I0924 03:31:36.582233 29635 net.cpp:91] Creating Layer concat
I0924 03:31:36.582237 29647 net.cpp:148] Top shape: 10 96 55 55 (2904000)
I0924 03:31:36.582208 29641 net.cpp:425] lstm1_gate_input_1 <- W_hc_h_0
I0924 03:31:36.582240 29679 net.cpp:91] Creating Layer lstm1
I0924 03:31:36.582255 29639 net.cpp:399] cont_1_lstm2_cont_slice_0_split -> cont_1_lstm2_cont_slice_0_split_1
I0924 03:31:36.582242 29635 net.cpp:425] concat <- lstm1
I0924 03:31:36.582270 29679 net.cpp:425] lstm1 <- embedded_input_frames
I0924 03:31:36.582283 29635 net.cpp:425] concat <- embedded_input_sentence
…
I0924 03:31:36.582291 29635 net.cpp:425] concat <- reshaped_stage_indicator
I0924 03:31:36.582923 29635 net.cpp:399] concat -> lstm1_video_sequence
I0924 03:31:36.583204 29645 net.cpp:49] Initializing net from parameters: 
layer {
  name: "lstm1_"
  type: "Input"
  top: "x"
  top: "cont"
  input_param {
    shape {
      dim: 1
      dim: 1
      dim: 500
    }
    shape {
      dim: 1
      dim: 1
    }
  }
}
layer {
  name: "lstm1_"
  type: "Input"
  top: "c_0"
  top: "h_0"
  input_param {
    shape {
      dim: 1
      dim: 1
      dim: 1000
    }
    shape {
      dim: 1
      dim: 1
      dim: 1000
    }
  }
}
layer {
  name: "lstm1_cont_slice"
  type: "Slice"
  bottom: "cont"
  top: "cont_1"
  slice_param {
    axis: 0
  }
}
layer {
  name: "lstm1_x_transform"
  type: "InnerProduct"
  bottom: "x"
  top: "W_xc_x"
  param {
    name: "W_xc"
  }
  param {
    name: "b_c"
  }
  propagate_down: true
  inner_product_param {
    num_output: 4000
    bias_term: true
    weight_filler {
      type: "uniform"
      min: -0.08
      max: 0.08
    }
    bias_filler {
      type: "constant"
      value: 0
    }
    axis: 2
  }
}
layer {
  name: "lstm1_W_xc_x_slice"
  type: "Slice"
  bottom: "W_xc_x"
  top: "W_xc_x_1"
  slice_param {
    axis: 0
  }
}
layer {
  name: "lstm1_h_conted_0"
  type: "Scale"
  bottom: "h_0"
  bottom: "cont_1"
  top: "h_conted_0"
  scale_param {
    axis: 0
  }
}
layer {
  name: "lstm1_transform_1"
  type: "InnerProduct"
  bottom: "h_conted_0"
  top: "W_hc_h_0"
  param {
    name: "W_hc"
  }
  inner_product_param {
    num_output: 4000
    bias_term: false
    weight_filler {
      type: "uniform"
      min: -0.08
      max: 0.08
    }
    axis: 2
  }
}
layer {
  name: "lstm1_gate_input_1"
  type: "Eltwise"
  bottom: "W_hc_h_0"
  bottom: "W_xc_x_1"
  top: "gate_input_1"
  eltwise_param {
    operation: SUM
  }
}
layer {
  name: "lstm1_unit_1"
  type: "LSTMUnit"
  bottom: "c_0"
  bottom: "gate_input_1"
  bottom: "cont_1"
  top: "c_1"
  top: "h_1"
}
layer {
  name: "lstm1_"
  type: "Split"
  bottom: "c_1"
  top: "c_T"
}
layer {
  name: "lstm1_h_concat"
  type: "Concat"
  bottom: "h_1"
  top: "h"
  concat_param {
    axis: 0
  }
}
layer {
  name: "h_pseudoloss"
  type: "Reduction"
  bottom: "h"
  top: "h_pseudoloss"
  loss_weight: 1
}
I0924 03:31:36.583380 29645 layer_factory.hpp:77] Creating layer lstm1_
I0924 03:31:36.583405 29645 net.cpp:91] Creating Layer lstm1_
I0924 03:31:36.583418 29645 net.cpp:399] lstm1_ -> x
I0924 03:31:36.583441 29645 net.cpp:399] lstm1_ -> cont
I0924 03:31:36.584610 29679 net.cpp:49] Initializing net from parameters: 
layer {
  name: "lstm1_"
  type: "Input"
  top: "x"
  top: "cont"
  input_param {
    shape {
      dim: 1
      dim: 1
      dim: 500
    }
    shape {
      dim: 1
      dim: 1
    }
  }
}
layer {
  name: "lstm1_"
  type: "Input"
  top: "c_0"
  top: "h_0"
  input_param {
    shape {
      dim: 1
      dim: 1
      dim: 1000
    }
    shape {
      dim: 1
      dim: 1
      dim: 1000
    }
  }
}
layer {
  name: "lstm1_cont_slice"
  type: "Slice"
  bottom: "cont"
  top: "cont_1"
  slice_param {
    axis: 0
  }
}
layer {
  name: "lstm1_x_transform"
  type: "InnerProduct"
  bottom: "x"
  top: "W_xc_x"
  param {
    name: "W_xc"
  }
  param {
    name: "b_c"
  }
  propagate_down: true
  inner_product_param {
    num_output: 4000
    bias_term: true
    weight_filler {
      type: "uniform"
      min: -0.08
      max: 0.08
    }
    bias_filler {
      type: "constant"
      value: 0
    }
    axis: 2
  }
}
layer {
  name: "lstm1_W_xc_x_slice"
  type: "Slice"
  bottom: "W_xc_x"
  top: "W_xc_x_1"
  slice_param {
    axis: 0
  }
}
layer {
  name: "lstm1_h_conted_0"
  type: "Scale"
  bottom: "h_0"
  bottom: "cont_1"
  top: "h_conted_0"
  scale_param {
    axis: 0
  }
}
layer {
  name: "lstm1_transform_1"
  type: "InnerProduct"
  bottom: "h_conted_0"
  top: "W_hc_h_0"
  param {
    name: "W_hc"
  }
  inner_product_param {
    num_output: 4000
    bias_term: false
    weight_filler {
      type: "uniform"
      min: -0.08
      max: 0.08
    }
    axis: 2
  }
}
layer {
  name: "lstm1_gate_input_1"
  type: "Eltwise"
  bottom: "W_hc_h_0"
  bottom: "W_xc_x_1"
  top: "gate_input_1"
  eltwise_param {
    operation: SUM
  }
}
layer {
  name: "lstm1_unit_1"
  type: "LSTMUnit"
  bottom: "c_0"
  bottom: "gate_input_1"
  bottom: "cont_1"
  top: "c_1"
  top: "h_1"
}
layer {
  name: "lstm1_"
  type: "Split"
  bottom: "c_1"
  top: "c_T"
}
layer {
  name: "lstm1_h_concat"
  type: "Concat"
  bottom: "h_1"
  top: "h"
  concat_param {
    axis: 0
  }
}
layer {
  name: "h_pseudoloss"
  type: "Reduction"
  bottom: "h"
  top: "h_pseudoloss"
  loss_weight: 1
}
I0924 03:31:36.600911 29641 net.cpp:141] Setting up lstm1_gate_input_1
I0924 03:31:36.600947 29653 net.cpp:141] Setting up lstm1_gate_input_1
I0924 03:31:36.605625 29635 net.cpp:141] Setting up concat
I0924 03:31:36.624459 29641 net.cpp:148] Top shape: 1 1 4000 (4000)
I0924 03:31:36.624472 29653 net.cpp:148] Top shape: 1 1 4000 (4000)
I0924 03:31:36.624492 29653 net.cpp:156] Memory required for data: 78016
I0924 03:31:36.606878 29647 net.cpp:141] Setting up relu1
I0924 03:31:36.624491 29641 net.cpp:156] Memory required for data: 78016
I0924 03:31:36.624524 29653 layer_factory.hpp:77] Creating layer lstm1_unit_1
I0924 03:31:36.624526 29641 layer_factory.hpp:77] Creating layer lstm1_unit_1
I0924 03:31:36.624519 29635 net.cpp:148] Top shape: 1 1 1501 (1501)
I0924 03:31:36.624529 29647 net.cpp:148] Top shape: 10 96 55 55 (2904000)
I0924 03:31:36.624541 29635 net.cpp:156] Memory required for data: 32412
I0924 03:31:36.624547 29647 net.cpp:156] Memory required for data: 29415480
I0924 03:31:36.624554 29653 net.cpp:91] Creating Layer lstm1_unit_1
I0924 03:31:36.624555 29635 layer_factory.hpp:77] Creating layer lstm2
I0924 03:31:36.624565 29653 net.cpp:425] lstm1_unit_1 <- c_0
I0924 03:31:36.624548 29641 net.cpp:91] Creating Layer lstm1_unit_1
…
I0924 03:31:36.624622 29647 net.cpp:91] Creating Layer pool1
I0924 03:31:36.605829 29639 net.cpp:141] Setting up cont_1_lstm2_cont_slice_0_split
I0924 03:31:36.624630 29641 net.cpp:399] lstm1_unit_1 -> c_1
I0924 03:31:36.624631 29679 net.cpp:91] Creating Layer lstm1_
I0924 03:31:36.624619 29635 net.cpp:425] lstm2 <- cont_sentence_input_1_split_1
I0924 03:31:36.624636 29647 net.cpp:425] pool1 <- conv1
I0924 03:31:36.624639 29653 net.cpp:425] lstm1_unit_1 <- cont_1_lstm1_cont_slice_0_split_1
I0924 03:31:36.624692 29679 net.cpp:399] lstm1_ -> x
I0924 03:31:36.624680 29641 net.cpp:399] lstm1_unit_1 -> h_1
I0924 03:31:36.624668 29639 net.cpp:148] Top shape: 1 1 (1)
I0924 03:31:36.624711 29647 net.cpp:399] pool1 -> pool1
I0924 03:31:36.624718 29679 net.cpp:399] lstm1_ -> cont
I0924 03:31:36.624727 29639 net.cpp:148] Top shape: 1 1 (1)
I0924 03:31:36.624706 29653 net.cpp:399] lstm1_unit_1 -> c_1
I0924 03:31:36.624737 29639 net.cpp:156] Memory required for data: 14020
I0924 03:31:36.624748 29639 layer_factory.hpp:77] Creating layer lstm2_x_transform
I0924 03:31:36.624750 29653 net.cpp:399] lstm1_unit_1 -> h_1
I0924 03:31:36.624775 29639 net.cpp:91] Creating Layer lstm2_x_transform
I0924 03:31:36.624788 29639 net.cpp:425] lstm2_x_transform <- x
I0924 03:31:36.624809 29639 net.cpp:399] lstm2_x_transform -> W_xc_x
I0924 03:31:36.624697 29635 net.cpp:399] lstm2 -> lstm2
I0924 03:31:36.624860 29635 recurrent_layer.cpp:20] Initializing recurrent layer: assuming input batch contains 1 timesteps of 1 independent streams.
I0924 03:31:36.625074 29653 net.cpp:141] Setting up lstm1_unit_1
I0924 03:31:36.625097 29653 net.cpp:148] Top shape: 1 1 1000 (1000)
I0924 03:31:36.625104 29653 net.cpp:148] Top shape: 1 1 1000 (1000)
I0924 03:31:36.625110 29653 net.cpp:156] Memory required for data: 86016
I0924 03:31:36.625116 29653 layer_factory.hpp:77] Creating layer lstm1_
I0924 03:31:36.625128 29653 net.cpp:91] Creating Layer lstm1_
I0924 03:31:36.625135 29653 net.cpp:425] lstm1_ <- c_1
I0924 03:31:36.625147 29653 net.cpp:399] lstm1_ -> c_T
I0924 03:31:36.625187 29653 net.cpp:141] Setting up lstm1_
I0924 03:31:36.625198 29653 net.cpp:148] Top shape: 1 1 1000 (1000)
I0924 03:31:36.625203 29653 net.cpp:156] Memory required for data: 90016
I0924 03:31:36.625210 29653 layer_factory.hpp:77] Creating layer lstm1_h_concat
I0924 03:31:36.625222 29653 net.cpp:91] Creating Layer lstm1_h_concat
I0924 03:31:36.625227 29653 net.cpp:425] lstm1_h_concat <- h_1
I0924 03:31:36.625236 29653 net.cpp:399] lstm1_h_concat -> h
I0924 03:31:36.625280 29653 net.cpp:141] Setting up lstm1_h_concat
I0924 03:31:36.625290 29653 net.cpp:148] Top shape: 1 1 1000 (1000)
I0924 03:31:36.625295 29653 net.cpp:156] Memory required for data: 94016
I0924 03:31:36.625301 29653 layer_factory.hpp:77] Creating layer h_pseudoloss
I0924 03:31:36.625313 29653 net.cpp:91] Creating Layer h_pseudoloss
I0924 03:31:36.625309 29635 net.cpp:49] Initializing net from parameters: 
layer {
  name: "lstm2_"
  type: "Input"
  top: "x"
  top: "cont"
  input_param {
    shape {
      dim: 1
      dim: 1
      dim: 1501
    }
    shape {
      dim: 1
      dim: 1
    }
  }
}
layer {
  name: "lstm2_"
  type: "Input"
  top: "c_0"
  top: "h_0"
  input_param {
    shape {
      dim: 1
      dim: 1
      dim: 1000
    }
    shape {
      dim: 1
      dim: 1
      dim: 1000
    }
  }
}
layer {
  name: "lstm2_cont_slice"
  type: "Slice"
  bottom: "cont"
  top: "cont_1"
  slice_param {
    axis: 0
  }
}
layer {
  name: "lstm2_x_transform"
  type: "InnerProduct"
  bottom: "x"
  top: "W_xc_x"
  param {
    name: "W_xc"
  }
  param {
    name: "b_c"
  }
  propagate_down: true
  inner_product_param {
    num_output: 4000
    bias_term: true
    weight_filler {
      type: "uniform"
      min: -0.08
      max: 0.08
    }
    bias_filler {
      type: "constant"
      value: 0
    }
    axis: 2
  }
}
layer {
  name: "lstm2_W_xc_x_slice"
  type: "Slice"
  bottom: "W_xc_x"
  top: "W_xc_x_1"
  slice_param {
    axis: 0
  }
}
layer {
  name: "lstm2_h_conted_0"
  type: "Scale"
  bottom: "h_0"
  bottom: "cont_1"
  top: "h_conted_0"
  scale_param {
    axis: 0
  }
}
layer {
  name: "lstm2_transform_1"
  type: "InnerProduct"
  bottom: "h_conted_0"
  top: "W_hc_h_0"
  param {
    name: "W_hc"
  }
  inner_product_param {
    num_output: 4000
    bias_term: false
    weight_filler {
      type: "uniform"
      min: -0.08
      max: 0.08
    }
    axis: 2
  }
}
layer {
  name: "lstm2_gate_input_1"
  type: "Eltwise"
  bottom: "W_hc_h_0"
  bottom: "W_xc_x_1"
  top: "gate_input_1"
  eltwise_param {
    operation: SUM
  }
}
layer {
  name: "lstm2_unit_1"
  type: "LSTMUnit"
  bottom: "c_0"
  bottom: "gate_input_1"
  bottom: "cont_1"
  top: "c_1"
  top: "h_1"
}
layer {
  name: "lstm2_"
  type: "Split"
  bottom: "c_1"
  top: "c_T"
}
layer {
  name: "lstm2_h_concat"
  type: "Concat"
  bottom: "h_1"
  top: "h"
  concat_param {
    axis: 0
  }
}
layer {
  name: "h_pseudoloss"
  type: "Reduction"
  bottom: "h"
  top: "h_pseudoloss"
  loss_weight: 1
}
I0924 03:31:36.625319 29653 net.cpp:425] h_pseudoloss <- h
I0924 03:31:36.605752 29645 net.cpp:141] Setting up lstm1_
I0924 03:31:36.625550 29641 net.cpp:141] Setting up lstm1_unit_1
I0924 03:31:36.625617 29647 net.cpp:141] Setting up pool1
I0924 03:31:36.660003 29641 net.cpp:148] Top shape: 1 1 1000 (1000)
I0924 03:31:36.659999 29645 net.cpp:148] Top shape: 1 1 500 (500)
I0924 03:31:36.659967 29653 net.cpp:399] h_pseudoloss -> h_pseudoloss
I0924 03:31:36.660022 29641 net.cpp:148] Top shape: 1 1 1000 (1000)
I0924 03:31:36.660027 29645 net.cpp:148] Top shape: 1 1 (1)
I0924 03:31:36.660025 29647 net.cpp:148] Top shape: 10 96 27 27 (699840)
I0924 03:31:36.660043 29647 net.cpp:156] Memory required for data: 32214840
I0924 03:31:36.660053 29645 net.cpp:156] Memory required for data: 2004
I0924 03:31:36.660058 29647 layer_factory.hpp:77] Creating layer norm1
I0924 03:31:36.660063 29645 layer_factory.hpp:77] Creating layer lstm1_
I0924 03:31:36.660029 29641 net.cpp:156] Memory required for data: 86016
I0924 03:31:36.660081 29645 net.cpp:91] Creating Layer lstm1_
I0924 03:31:36.660081 29635 layer_factory.hpp:77] Creating layer lstm2_
I0924 03:31:36.660090 29641 layer_factory.hpp:77] Creating layer lstm1_
I0924 03:31:36.660099 29645 net.cpp:399] lstm1_ -> c_0
I0924 03:31:36.660106 29635 net.cpp:91] Creating Layer lstm2_
I0924 03:31:36.660112 29647 net.cpp:91] Creating Layer norm1
I0924 03:31:36.660121 29645 net.cpp:399] lstm1_ -> h_0
I0924 03:31:36.660121 29641 net.cpp:91] Creating Layer lstm1_
I0924 03:31:36.625684 29679 net.cpp:141] Setting up lstm1_
I0924 03:31:36.660125 29647 net.cpp:425] norm1 <- pool1
I0924 03:31:36.660142 29641 net.cpp:425] lstm1_ <- c_1
I0924 03:31:36.660148 29647 net.cpp:399] norm1 -> norm1
I0924 03:31:36.660150 29679 net.cpp:148] Top shape: 1 1 500 (500)
I0924 03:31:36.660154 29641 net.cpp:399] lstm1_ -> c_T
I0924 03:31:36.660166 29679 net.cpp:148] Top shape: 1 1 (1)
I0924 03:31:36.660176 29679 net.cpp:156] Memory required for data: 2004
I0924 03:31:36.660189 29679 layer_factory.hpp:77] Creating layer lstm1_
I0924 03:31:36.660215 29679 net.cpp:91] Creating Layer lstm1_
I0924 03:31:36.660235 29679 net.cpp:399] lstm1_ -> c_0
I0924 03:31:36.660257 29679 net.cpp:399] lstm1_ -> h_0
I0924 03:31:36.660120 29635 net.cpp:399] lstm2_ -> x
I0924 03:31:36.660300 29635 net.cpp:399] lstm2_ -> cont
I0924 03:31:36.660307 29641 net.cpp:141] Setting up lstm1_
I0924 03:31:36.660321 29641 net.cpp:148] Top shape: 1 1 1000 (1000)
I0924 03:31:36.660326 29641 net.cpp:156] Memory required for data: 90016
I0924 03:31:36.660332 29641 layer_factory.hpp:77] Creating layer lstm1_h_concat
I0924 03:31:36.660344 29641 net.cpp:91] Creating Layer lstm1_h_concat
I0924 03:31:36.660351 29641 net.cpp:425] lstm1_h_concat <- h_1
I0924 03:31:36.660363 29641 net.cpp:399] lstm1_h_concat -> h
I0924 03:31:36.660784 29641 net.cpp:141] Setting up lstm1_h_concat
I0924 03:31:36.660800 29641 net.cpp:148] Top shape: 1 1 1000 (1000)
I0924 03:31:36.660809 29641 net.cpp:156] Memory required for data: 94016
I0924 03:31:36.660817 29641 layer_factory.hpp:77] Creating layer h_pseudoloss
I0924 03:31:36.660831 29641 net.cpp:91] Creating Layer h_pseudoloss
I0924 03:31:36.660840 29641 net.cpp:425] h_pseudoloss <- h
I0924 03:31:36.660852 29641 net.cpp:399] h_pseudoloss -> h_pseudoloss
I0924 03:31:36.660887 29645 net.cpp:141] Setting up lstm1_
I0924 03:31:36.660907 29645 net.cpp:148] Top shape: 1 1 1000 (1000)
I0924 03:31:36.660920 29645 net.cpp:148] Top shape: 1 1 1000 (1000)
I0924 03:31:36.660928 29645 net.cpp:156] Memory required for data: 10004
I0924 03:31:36.660939 29645 layer_factory.hpp:77] Creating layer lstm1_cont_slice
I0924 03:31:36.660959 29645 net.cpp:91] Creating Layer lstm1_cont_slice
I0924 03:31:36.660971 29645 net.cpp:425] lstm1_cont_slice <- cont
I0924 03:31:36.660984 29645 net.cpp:399] lstm1_cont_slice -> cont_1
I0924 03:31:36.661005 29679 net.cpp:141] Setting up lstm1_
I0924 03:31:36.661023 29679 net.cpp:148] Top shape: 1 1 1000 (1000)
I0924 03:31:36.661036 29679 net.cpp:148] Top shape: 1 1 1000 (1000)
I0924 03:31:36.661043 29679 net.cpp:156] Memory required for data: 10004
I0924 03:31:36.661053 29679 layer_factory.hpp:77] Creating layer lstm1_cont_slice
I0924 03:31:36.661053 29653 net.cpp:141] Setting up h_pseudoloss
I0924 03:31:36.661072 29653 net.cpp:148] Top shape: (1)
I0924 03:31:36.661072 29679 net.cpp:91] Creating Layer lstm1_cont_slice
I0924 03:31:36.661082 29679 net.cpp:425] lstm1_cont_slice <- cont
…
I0924 03:31:36.661175 29653 net.cpp:219] lstm1_cont_slice does not need backward computation.
I0924 03:31:36.661187 29653 net.cpp:219] lstm1_ does not need backward computation.
I0924 03:31:36.661196 29653 net.cpp:219] lstm1_ does not need backward computation.
I0924 03:31:36.661204 29653 net.cpp:261] This network produces output c_T
I0924 03:31:36.661214 29653 net.cpp:261] This network produces output h_pseudoloss
I0924 03:31:36.661242 29653 net.cpp:274] Network initialization done.
I0924 03:31:36.661253 29635 net.cpp:141] Setting up lstm2_
I0924 03:31:36.661310 29645 net.cpp:141] Setting up lstm1_cont_slice
I0924 03:31:36.671864 29635 net.cpp:148] Top shape: 1 1 1501 (1501)
I0924 03:31:36.661414 29641 net.cpp:141] Setting up h_pseudoloss
I0924 03:31:36.661713 29647 net.cpp:141] Setting up norm1
I0924 03:31:36.671890 29645 net.cpp:148] Top shape: 1 1 (1)
I0924 03:31:36.661568 29679 net.cpp:141] Setting up lstm1_cont_slice
I0924 03:31:36.671890 29635 net.cpp:148] Top shape: 1 1 (1)
I0924 03:31:36.671914 29645 net.cpp:156] Memory required for data: 10008
I0924 03:31:36.671914 29641 net.cpp:148] Top shape: (1)
I0924 03:31:36.671916 29653 recurrent_layer.cpp:150] Adding parameter 0: W_xc
I0924 03:31:36.671936 29679 net.cpp:148] Top shape: 1 1 (1)
I0924 03:31:36.671941 29645 layer_factory.hpp:77] Creating layer cont_1_lstm1_cont_slice_0_split
I0924 03:31:36.671936 29635 net.cpp:156] Memory required for data: 6008
I0924 03:31:36.671941 29641 net.cpp:151]     with loss weight 1
I0924 03:31:36.671952 29653 recurrent_layer.cpp:150] Adding parameter 1: b_c
I0924 03:31:36.671924 29647 net.cpp:148] Top shape: 10 96 27 27 (699840)
I0924 03:31:36.671957 29645 net.cpp:91] Creating Layer cont_1_lstm1_cont_slice_0_split
I0924 03:31:36.671950 29679 net.cpp:156] Memory required for data: 10008
I0924 03:31:36.671968 29647 net.cpp:156] Memory required for data: 35014200
I0924 03:31:36.671957 29635 layer_factory.hpp:77] Creating layer lstm2_
I0924 03:31:36.671967 29653 recurrent_layer.cpp:150] Adding parameter 2: W_hc
…
I0924 03:31:36.672124 29641 net.cpp:219] lstm1_cont_slice does not need backward computation.
I0924 03:31:36.672132 29641 net.cpp:219] lstm1_ does not need backward computation.
I0924 03:31:36.672137 29641 net.cpp:219] lstm1_ does not need backward computation.
I0924 03:31:36.672140 29641 net.cpp:261] This network produces output c_T
I0924 03:31:36.672147 29641 net.cpp:261] This network produces output h_pseudoloss
I0924 03:31:36.672165 29645 net.cpp:141] Setting up cont_1_lstm1_cont_slice_0_split
I0924 03:31:36.672165 29641 net.cpp:274] Network initialization done.
I0924 03:31:36.672184 29645 net.cpp:148] Top shape: 1 1 (1)
I0924 03:31:36.672191 29645 net.cpp:148] Top shape: 1 1 (1)
I0924 03:31:36.672197 29645 net.cpp:156] Memory required for data: 10016
I0924 03:31:36.672202 29645 layer_factory.hpp:77] Creating layer lstm1_x_transform
I0924 03:31:36.672220 29645 net.cpp:91] Creating Layer lstm1_x_transform
I0924 03:31:36.672227 29645 net.cpp:425] lstm1_x_transform <- x
I0924 03:31:36.672235 29641 recurrent_layer.cpp:150] Adding parameter 0: W_xc
I0924 03:31:36.672248 29641 recurrent_layer.cpp:150] Adding parameter 1: b_c
I0924 03:31:36.672237 29645 net.cpp:399] lstm1_x_transform -> W_xc_x
I0924 03:31:36.672255 29641 recurrent_layer.cpp:150] Adding parameter 2: W_hc
I0924 03:31:36.674965 29635 net.cpp:141] Setting up lstm2_
I0924 03:31:36.674988 29635 net.cpp:148] Top shape: 1 1 1000 (1000)
I0924 03:31:36.675000 29635 net.cpp:148] Top shape: 1 1 1000 (1000)
I0924 03:31:36.675009 29635 net.cpp:156] Memory required for data: 14008
I0924 03:31:36.675019 29635 layer_factory.hpp:77] Creating layer lstm2_cont_slice
I0924 03:31:36.675021 29679 net.cpp:141] Setting up cont_1_lstm1_cont_slice_0_split
I0924 03:31:36.675036 29635 net.cpp:91] Creating Layer lstm2_cont_slice
I0924 03:31:36.675046 29635 net.cpp:425] lstm2_cont_slice <- cont
I0924 03:31:36.675050 29679 net.cpp:148] Top shape: 1 1 (1)
I0924 03:31:36.675060 29635 net.cpp:399] lstm2_cont_slice -> cont_1
I0924 03:31:36.675062 29679 net.cpp:148] Top shape: 1 1 (1)
I0924 03:31:36.675072 29679 net.cpp:156] Memory required for data: 10016
I0924 03:31:36.675077 29653 net.cpp:141] Setting up lstm1
I0924 03:31:36.675082 29679 layer_factory.hpp:77] Creating layer lstm1_x_transform
I0924 03:31:36.675106 29653 net.cpp:148] Top shape: 1 1 1000 (1000)
I0924 03:31:36.675117 29653 net.cpp:156] Memory required for data: 26408
I0924 03:31:36.675117 29679 net.cpp:91] Creating Layer lstm1_x_transform
I0924 03:31:36.675128 29679 net.cpp:425] lstm1_x_transform <- x
I0924 03:31:36.675143 29653 layer_factory.hpp:77] Creating layer concat
I0924 03:31:36.675149 29679 net.cpp:399] lstm1_x_transform -> W_xc_x
I0924 03:31:36.675163 29653 net.cpp:91] Creating Layer concat
I0924 03:31:36.675173 29653 net.cpp:425] concat <- lstm1
I0924 03:31:36.675185 29653 net.cpp:425] concat <- embedded_input_sentence
I0924 03:31:36.675195 29653 net.cpp:425] concat <- reshaped_stage_indicator
I0924 03:31:36.675209 29653 net.cpp:399] concat -> lstm1_video_sequence
I0924 03:31:36.682987 29635 net.cpp:141] Setting up lstm2_cont_slice
I0924 03:31:36.683043 29635 net.cpp:148] Top shape: 1 1 (1)
I0924 03:31:36.683053 29635 net.cpp:156] Memory required for data: 14012
I0924 03:31:36.683070 29635 layer_factory.hpp:77] Creating layer cont_1_lstm2_cont_slice_0_split
I0924 03:31:36.683101 29635 net.cpp:91] Creating Layer cont_1_lstm2_cont_slice_0_split
I0924 03:31:36.683117 29635 net.cpp:425] cont_1_lstm2_cont_slice_0_split <- cont_1
I0924 03:31:36.683140 29635 net.cpp:399] cont_1_lstm2_cont_slice_0_split -> cont_1_lstm2_cont_slice_0_split_0
I0924 03:31:36.683166 29635 net.cpp:399] cont_1_lstm2_cont_slice_0_split -> cont_1_lstm2_cont_slice_0_split_1
I0924 03:31:36.683308 29635 net.cpp:141] Setting up cont_1_lstm2_cont_slice_0_split
I0924 03:31:36.683326 29635 net.cpp:148] Top shape: 1 1 (1)
I0924 03:31:36.683336 29635 net.cpp:148] Top shape: 1 1 (1)
I0924 03:31:36.683344 29635 net.cpp:156] Memory required for data: 14020
I0924 03:31:36.683357 29635 layer_factory.hpp:77] Creating layer lstm2_x_transform
I0924 03:31:36.683388 29635 net.cpp:91] Creating Layer lstm2_x_transform
I0924 03:31:36.683398 29635 net.cpp:425] lstm2_x_transform <- x
I0924 03:31:36.683414 29635 net.cpp:399] lstm2_x_transform -> W_xc_x
I0924 03:31:36.683493 29653 net.cpp:141] Setting up concat
I0924 03:31:36.683516 29653 net.cpp:148] Top shape: 1 1 1501 (1501)
I0924 03:31:36.693526 29653 net.cpp:156] Memory required for data: 32412
I0924 03:31:36.693562 29653 layer_factory.hpp:77] Creating layer lstm2
I0924 03:31:36.693603 29653 net.cpp:91] Creating Layer lstm2
I0924 03:31:36.693616 29653 net.cpp:425] lstm2 <- lstm1_video_sequence
I0924 03:31:36.693634 29653 net.cpp:425] lstm2 <- cont_sentence_input_1_split_1
I0924 03:31:36.693650 29653 net.cpp:399] lstm2 -> lstm2
I0924 03:31:36.693681 29653 recurrent_layer.cpp:20] Initializing recurrent layer: assuming input batch contains 1 timesteps of 1 independent streams.
I0924 03:31:36.694178 29653 net.cpp:49] Initializing net from parameters: 
layer {
  name: "lstm2_"
  type: "Input"
  top: "x"
  top: "cont"
  input_param {
    shape {
      dim: 1
      dim: 1
      dim: 1501
    }
    shape {
      dim: 1
      dim: 1
    }
  }
}
layer {
  name: "lstm2_"
  type: "Input"
  top: "c_0"
  top: "h_0"
  input_param {
    shape {
      dim: 1
      dim: 1
      dim: 1000
    }
    shape {
      dim: 1
      dim: 1
      dim: 1000
    }
  }
}
layer {
  name: "lstm2_cont_slice"
  type: "Slice"
  bottom: "cont"
  top: "cont_1"
  slice_param {
    axis: 0
  }
}
layer {
  name: "lstm2_x_transform"
  type: "InnerProduct"
  bottom: "x"
  top: "W_xc_x"
  param {
    name: "W_xc"
  }
  param {
    name: "b_c"
  }
  propagate_down: true
  inner_product_param {
    num_output: 4000
    bias_term: true
    weight_filler {
      type: "uniform"
      min: -0.08
      max: 0.08
    }
    bias_filler {
      type: "constant"
      value: 0
    }
    axis: 2
  }
}
layer {
  name: "lstm2_W_xc_x_slice"
  type: "Slice"
  bottom: "W_xc_x"
  top: "W_xc_x_1"
  slice_param {
    axis: 0
  }
}
layer {
  name: "lstm2_h_conted_0"
  type: "Scale"
  bottom: "h_0"
  bottom: "cont_1"
  top: "h_conted_0"
  scale_param {
    axis: 0
  }
}
layer {
  name: "lstm2_transform_1"
  type: "InnerProduct"
  bottom: "h_conted_0"
  top: "W_hc_h_0"
  param {
    name: "W_hc"
  }
  inner_product_param {
    num_output: 4000
    bias_term: false
    weight_filler {
      type: "uniform"
      min: -0.08
      max: 0.08
    }
    axis: 2
  }
}
layer {
  name: "lstm2_gate_input_1"
  type: "Eltwise"
  bottom: "W_hc_h_0"
  bottom: "W_xc_x_1"
  top: "gate_input_1"
  eltwise_param {
    operation: SUM
  }
}
layer {
  name: "lstm2_unit_1"
  type: "LSTMUnit"
  bottom: "c_0"
  bottom: "gate_input_1"
  bottom: "cont_1"
  top: "c_1"
  top: "h_1"
}
layer {
  name: "lstm2_"
  type: "Split"
  bottom: "c_1"
  top: "c_T"
}
layer {
  name: "lstm2_h_concat"
  type: "Concat"
  bottom: "h_1"
  top: "h"
  concat_param {
    axis: 0
  }
}
layer {
  name: "h_pseudoloss"
  type: "Reduction"
  bottom: "h"
  top: "h_pseudoloss"
  loss_weight: 1
}
I0924 03:31:36.694339 29653 layer_factory.hpp:77] Creating layer lstm2_
I0924 03:31:36.694360 29653 net.cpp:91] Creating Layer lstm2_
I0924 03:31:36.694371 29653 net.cpp:399] lstm2_ -> x
I0924 03:31:36.694391 29653 net.cpp:399] lstm2_ -> cont
I0924 03:31:36.707058 29673 net.cpp:141] Setting up lstm2_x_transform
I0924 03:31:36.707113 29673 net.cpp:148] Top shape: 1 1 4000 (4000)
I0924 03:31:36.707125 29673 net.cpp:156] Memory required for data: 30020
I0924 03:31:36.707155 29673 layer_factory.hpp:77] Creating layer lstm2_W_xc_x_slice
I0924 03:31:36.707177 29673 net.cpp:91] Creating Layer lstm2_W_xc_x_slice
I0924 03:31:36.707190 29673 net.cpp:425] lstm2_W_xc_x_slice <- W_xc_x
I0924 03:31:36.707202 29673 net.cpp:399] lstm2_W_xc_x_slice -> W_xc_x_1
I0924 03:31:36.707636 29639 net.cpp:141] Setting up lstm2_x_transform
I0924 03:31:36.707725 29639 net.cpp:148] Top shape: 1 1 4000 (4000)
I0924 03:31:36.707748 29639 net.cpp:156] Memory required for data: 30020
I0924 03:31:36.707799 29639 layer_factory.hpp:77] Creating layer lstm2_W_xc_x_slice
I0924 03:31:36.707842 29639 net.cpp:91] Creating Layer lstm2_W_xc_x_slice
I0924 03:31:36.707868 29639 net.cpp:425] lstm2_W_xc_x_slice <- W_xc_x
I0924 03:31:36.707903 29639 net.cpp:399] lstm2_W_xc_x_slice -> W_xc_x_1
I0924 03:31:36.708060 29639 net.cpp:141] Setting up lstm2_W_xc_x_slice
I0924 03:31:36.708096 29639 net.cpp:148] Top shape: 1 1 4000 (4000)
I0924 03:31:36.708117 29639 net.cpp:156] Memory required for data: 46020
I0924 03:31:36.708137 29639 layer_factory.hpp:77] Creating layer lstm2_h_conted_0
I0924 03:31:36.708173 29639 net.cpp:91] Creating Layer lstm2_h_conted_0
I0924 03:31:36.708195 29639 net.cpp:425] lstm2_h_conted_0 <- h_0
I0924 03:31:36.708221 29639 net.cpp:425] lstm2_h_conted_0 <- cont_1_lstm2_cont_slice_0_split_0
I0924 03:31:36.708250 29639 net.cpp:399] lstm2_h_conted_0 -> h_conted_0
I0924 03:31:36.708673 29673 net.cpp:141] Setting up lstm2_W_xc_x_slice
I0924 03:31:36.708695 29673 net.cpp:148] Top shape: 1 1 4000 (4000)
I0924 03:31:36.708701 29673 net.cpp:156] Memory required for data: 46020
I0924 03:31:36.708709 29673 layer_factory.hpp:77] Creating layer lstm2_h_conted_0
I0924 03:31:36.708724 29673 net.cpp:91] Creating Layer lstm2_h_conted_0
I0924 03:31:36.708736 29673 net.cpp:425] lstm2_h_conted_0 <- h_0
I0924 03:31:36.708756 29673 net.cpp:425] lstm2_h_conted_0 <- cont_1_lstm2_cont_slice_0_split_0
I0924 03:31:36.708775 29673 net.cpp:399] lstm2_h_conted_0 -> h_conted_0
I0924 03:31:36.708931 29639 net.cpp:141] Setting up lstm2_h_conted_0
I0924 03:31:36.708968 29639 net.cpp:148] Top shape: 1 1 1000 (1000)
I0924 03:31:36.708989 29639 net.cpp:156] Memory required for data: 50020
I0924 03:31:36.709009 29639 layer_factory.hpp:77] Creating layer lstm2_transform_1
I0924 03:31:36.709051 29639 net.cpp:91] Creating Layer lstm2_transform_1
I0924 03:31:36.709074 29639 net.cpp:425] lstm2_transform_1 <- h_conted_0
I0924 03:31:36.709110 29639 net.cpp:399] lstm2_transform_1 -> W_hc_h_0
I0924 03:31:36.722002 29653 net.cpp:141] Setting up lstm2_
I0924 03:31:36.722060 29653 net.cpp:148] Top shape: 1 1 1501 (1501)
I0924 03:31:36.722074 29653 net.cpp:148] Top shape: 1 1 (1)
I0924 03:31:36.722084 29653 net.cpp:156] Memory required for data: 6008
I0924 03:31:36.722100 29653 layer_factory.hpp:77] Creating layer lstm2_
I0924 03:31:36.722148 29653 net.cpp:91] Creating Layer lstm2_
I0924 03:31:36.722167 29653 net.cpp:399] lstm2_ -> c_0
I0924 03:31:36.722196 29653 net.cpp:399] lstm2_ -> h_0
I0924 03:31:36.722376 29641 net.cpp:141] Setting up lstm1
I0924 03:31:36.722399 29641 net.cpp:148] Top shape: 1 1 1000 (1000)
I0924 03:31:36.722409 29641 net.cpp:156] Memory required for data: 26408
I0924 03:31:36.722435 29641 layer_factory.hpp:77] Creating layer concat
I0924 03:31:36.722455 29641 net.cpp:91] Creating Layer concat
I0924 03:31:36.722465 29641 net.cpp:425] concat <- lstm1
I0924 03:31:36.722476 29641 net.cpp:425] concat <- embedded_input_sentence
I0924 03:31:36.722486 29641 net.cpp:425] concat <- reshaped_stage_indicator
I0924 03:31:36.722499 29641 net.cpp:399] concat -> lstm1_video_sequence
I0924 03:31:36.722653 29653 net.cpp:141] Setting up lstm2_
I0924 03:31:36.722676 29653 net.cpp:148] Top shape: 1 1 1000 (1000)
I0924 03:31:36.722687 29653 net.cpp:148] Top shape: 1 1 1000 (1000)
I0924 03:31:36.722695 29653 net.cpp:156] Memory required for data: 14008
I0924 03:31:36.722705 29653 layer_factory.hpp:77] Creating layer lstm2_cont_slice
I0924 03:31:36.722725 29653 net.cpp:91] Creating Layer lstm2_cont_slice
I0924 03:31:36.722735 29653 net.cpp:425] lstm2_cont_slice <- cont
I0924 03:31:36.722749 29653 net.cpp:399] lstm2_cont_slice -> cont_1
I0924 03:31:36.722826 29641 net.cpp:141] Setting up concat
I0924 03:31:36.722842 29641 net.cpp:148] Top shape: 1 1 1501 (1501)
I0924 03:31:36.722851 29641 net.cpp:156] Memory required for data: 32412
I0924 03:31:36.722859 29641 layer_factory.hpp:77] Creating layer lstm2
I0924 03:31:36.722880 29641 net.cpp:91] Creating Layer lstm2
I0924 03:31:36.722889 29641 net.cpp:425] lstm2 <- lstm1_video_sequence
I0924 03:31:36.722900 29641 net.cpp:425] lstm2 <- cont_sentence_input_1_split_1
I0924 03:31:36.722914 29641 net.cpp:399] lstm2 -> lstm2
I0924 03:31:36.722934 29641 recurrent_layer.cpp:20] Initializing recurrent layer: assuming input batch contains 1 timesteps of 1 independent streams.
I0924 03:31:36.723032 29679 net.cpp:141] Setting up lstm1_x_transform
I0924 03:31:36.723083 29679 net.cpp:148] Top shape: 1 1 4000 (4000)
I0924 03:31:36.723093 29679 net.cpp:156] Memory required for data: 26016
I0924 03:31:36.723122 29679 layer_factory.hpp:77] Creating layer lstm1_W_xc_x_slice
I0924 03:31:36.723147 29679 net.cpp:91] Creating Layer lstm1_W_xc_x_slice
I0924 03:31:36.723160 29679 net.cpp:425] lstm1_W_xc_x_slice <- W_xc_x
I0924 03:31:36.723176 29679 net.cpp:399] lstm1_W_xc_x_slice -> W_xc_x_1
I0924 03:31:36.723261 29679 net.cpp:141] Setting up lstm1_W_xc_x_slice
I0924 03:31:36.723280 29679 net.cpp:148] Top shape: 1 1 4000 (4000)
I0924 03:31:36.723289 29679 net.cpp:156] Memory required for data: 42016
I0924 03:31:36.723299 29679 layer_factory.hpp:77] Creating layer lstm1_h_conted_0
I0924 03:31:36.723318 29679 net.cpp:91] Creating Layer lstm1_h_conted_0
I0924 03:31:36.723328 29679 net.cpp:425] lstm1_h_conted_0 <- h_0
I0924 03:31:36.723340 29679 net.cpp:425] lstm1_h_conted_0 <- cont_1_lstm1_cont_slice_0_split_0
I0924 03:31:36.723354 29679 net.cpp:399] lstm1_h_conted_0 -> h_conted_0
I0924 03:31:36.723384 29641 net.cpp:49] Initializing net from parameters: 
layer {
  name: "lstm2_"
  type: "Input"
  top: "x"
  top: "cont"
  input_param {
    shape {
      dim: 1
      dim: 1
      dim: 1501
    }
    shape {
      dim: 1
      dim: 1
    }
  }
}
layer {
  name: "lstm2_"
  type: "Input"
  top: "c_0"
  top: "h_0"
  input_param {
    shape {
      dim: 1
      dim: 1
      dim: 1000
    }
    shape {
      dim: 1
      dim: 1
      dim: 1000
    }
  }
}
layer {
  name: "lstm2_cont_slice"
  type: "Slice"
  bottom: "cont"
  top: "cont_1"
  slice_param {
    axis: 0
  }
}
layer {
  name: "lstm2_x_transform"
  type: "InnerProduct"
  bottom: "x"
  top: "W_xc_x"
  param {
    name: "W_xc"
  }
  param {
    name: "b_c"
  }
  propagate_down: true
  inner_product_param {
    num_output: 4000
    bias_term: true
    weight_filler {
      type: "uniform"
      min: -0.08
      max: 0.08
    }
    bias_filler {
      type: "constant"
      value: 0
    }
    axis: 2
  }
}
layer {
  name: "lstm2_W_xc_x_slice"
  type: "Slice"
  bottom: "W_xc_x"
  top: "W_xc_x_1"
  slice_param {
    axis: 0
  }
}
layer {
  name: "lstm2_h_conted_0"
  type: "Scale"
  bottom: "h_0"
  bottom: "cont_1"
  top: "h_conted_0"
  scale_param {
    axis: 0
  }
}
layer {
  name: "lstm2_transform_1"
  type: "InnerProduct"
  bottom: "h_conted_0"
  top: "W_hc_h_0"
  param {
    name: "W_hc"
  }
  inner_product_param {
    num_output: 4000
    bias_term: false
    weight_filler {
      type: "uniform"
      min: -0.08
      max: 0.08
    }
    axis: 2
  }
}
layer {
  name: "lstm2_gate_input_1"
  type: "Eltwise"
  bottom: "W_hc_h_0"
  bottom: "W_xc_x_1"
  top: "gate_input_1"
  eltwise_param {
    operation: SUM
  }
}
layer {
  name: "lstm2_unit_1"
  type: "LSTMUnit"
  bottom: "c_0"
  bottom: "gate_input_1"
  bottom: "cont_1"
  top: "c_1"
  top: "h_1"
}
layer {
  name: "lstm2_"
  type: "Split"
  bottom: "c_1"
  top: "c_T"
}
layer {
  name: "lstm2_h_concat"
  type: "Concat"
  bottom: "h_1"
  top: "h"
  concat_param {
    axis: 0
  }
}
layer {
  name: "h_pseudoloss"
  type: "Reduction"
  bottom: "h"
  top: "h_pseudoloss"
  loss_weight: 1
}
I0924 03:31:36.723527 29641 layer_factory.hpp:77] Creating layer lstm2_
I0924 03:31:36.723544 29641 net.cpp:91] Creating Layer lstm2_
I0924 03:31:36.723556 29641 net.cpp:399] lstm2_ -> x
I0924 03:31:36.723557 29679 net.cpp:141] Setting up lstm1_h_conted_0
I0924 03:31:36.723574 29641 net.cpp:399] lstm2_ -> cont
I0924 03:31:36.723577 29679 net.cpp:148] Top shape: 1 1 1000 (1000)
I0924 03:31:36.723618 29679 net.cpp:156] Memory required for data: 46016
I0924 03:31:36.723629 29679 layer_factory.hpp:77] Creating layer lstm1_transform_1
I0924 03:31:36.723649 29679 net.cpp:91] Creating Layer lstm1_transform_1
I0924 03:31:36.723660 29679 net.cpp:425] lstm1_transform_1 <- h_conted_0
I0924 03:31:36.723680 29679 net.cpp:399] lstm1_transform_1 -> W_hc_h_0
I0924 03:31:36.723712 29641 net.cpp:141] Setting up lstm2_
I0924 03:31:36.723729 29641 net.cpp:148] Top shape: 1 1 1501 (1501)
I0924 03:31:36.723742 29641 net.cpp:148] Top shape: 1 1 (1)
I0924 03:31:36.723749 29641 net.cpp:156] Memory required for data: 6008
I0924 03:31:36.723758 29641 layer_factory.hpp:77] Creating layer lstm2_
I0924 03:31:36.723773 29641 net.cpp:91] Creating Layer lstm2_
I0924 03:31:36.723788 29641 net.cpp:399] lstm2_ -> c_0
I0924 03:31:36.723803 29641 net.cpp:399] lstm2_ -> h_0
I0924 03:31:36.732520 29645 net.cpp:141] Setting up lstm1_x_transform
I0924 03:31:36.732584 29645 net.cpp:148] Top shape: 1 1 4000 (4000)
I0924 03:31:36.732595 29645 net.cpp:156] Memory required for data: 26016
I0924 03:31:36.732635 29645 layer_factory.hpp:77] Creating layer lstm1_W_xc_x_slice
I0924 03:31:36.732635 29653 net.cpp:141] Setting up lstm2_cont_slice
I0924 03:31:36.732664 29645 net.cpp:91] Creating Layer lstm1_W_xc_x_slice
I0924 03:31:36.732681 29645 net.cpp:425] lstm1_W_xc_x_slice <- W_xc_x
I0924 03:31:36.732691 29653 net.cpp:148] Top shape: 1 1 (1)
I0924 03:31:36.732700 29645 net.cpp:399] lstm1_W_xc_x_slice -> W_xc_x_1
I0924 03:31:36.732705 29653 net.cpp:156] Memory required for data: 14012
I0924 03:31:36.732723 29653 layer_factory.hpp:77] Creating layer cont_1_lstm2_cont_slice_0_split
I0924 03:31:36.732743 29641 net.cpp:141] Setting up lstm2_
I0924 03:31:36.732749 29653 net.cpp:91] Creating Layer cont_1_lstm2_cont_slice_0_split
I0924 03:31:36.732787 29641 net.cpp:148] Top shape: 1 1 1000 (1000)
I0924 03:31:36.732795 29653 net.cpp:425] cont_1_lstm2_cont_slice_0_split <- cont_1
I0924 03:31:36.732800 29641 net.cpp:148] Top shape: 1 1 1000 (1000)
I0924 03:31:36.732828 29641 net.cpp:156] Memory required for data: 14008
I0924 03:31:36.732836 29645 net.cpp:141] Setting up lstm1_W_xc_x_slice
I0924 03:31:36.732838 29641 layer_factory.hpp:77] Creating layer lstm2_cont_slice
I0924 03:31:36.732867 29645 net.cpp:148] Top shape: 1 1 4000 (4000)
I0924 03:31:36.732841 29653 net.cpp:399] cont_1_lstm2_cont_slice_0_split -> cont_1_lstm2_cont_slice_0_split_0
I0924 03:31:36.732878 29645 net.cpp:156] Memory required for data: 42016
I0924 03:31:36.732883 29641 net.cpp:91] Creating Layer lstm2_cont_slice
I0924 03:31:36.732889 29645 layer_factory.hpp:77] Creating layer lstm1_h_conted_0
I0924 03:31:36.732895 29641 net.cpp:425] lstm2_cont_slice <- cont
I0924 03:31:36.732900 29653 net.cpp:399] cont_1_lstm2_cont_slice_0_split -> cont_1_lstm2_cont_slice_0_split_1
I0924 03:31:36.732910 29645 net.cpp:91] Creating Layer lstm1_h_conted_0
I0924 03:31:36.732911 29641 net.cpp:399] lstm2_cont_slice -> cont_1
I0924 03:31:36.732933 29645 net.cpp:425] lstm1_h_conted_0 <- h_0
I0924 03:31:36.732983 29645 net.cpp:425] lstm1_h_conted_0 <- cont_1_lstm1_cont_slice_0_split_0
I0924 03:31:36.733000 29645 net.cpp:399] lstm1_h_conted_0 -> h_conted_0
I0924 03:31:36.733055 29653 net.cpp:141] Setting up cont_1_lstm2_cont_slice_0_split
I0924 03:31:36.733078 29653 net.cpp:148] Top shape: 1 1 (1)
I0924 03:31:36.733093 29653 net.cpp:148] Top shape: 1 1 (1)
I0924 03:31:36.733103 29653 net.cpp:156] Memory required for data: 14020
I0924 03:31:36.733104 29641 net.cpp:141] Setting up lstm2_cont_slice
I0924 03:31:36.733114 29653 layer_factory.hpp:77] Creating layer lstm2_x_transform
I0924 03:31:36.733121 29641 net.cpp:148] Top shape: 1 1 (1)
I0924 03:31:36.733130 29641 net.cpp:156] Memory required for data: 14012
I0924 03:31:36.733139 29641 layer_factory.hpp:77] Creating layer cont_1_lstm2_cont_slice_0_split
I0924 03:31:36.733149 29653 net.cpp:91] Creating Layer lstm2_x_transform
I0924 03:31:36.733155 29641 net.cpp:91] Creating Layer cont_1_lstm2_cont_slice_0_split
I0924 03:31:36.733163 29653 net.cpp:425] lstm2_x_transform <- x
I0924 03:31:36.733165 29641 net.cpp:425] cont_1_lstm2_cont_slice_0_split <- cont_1
I0924 03:31:36.733193 29641 net.cpp:399] cont_1_lstm2_cont_slice_0_split -> cont_1_lstm2_cont_slice_0_split_0
I0924 03:31:36.733201 29653 net.cpp:399] lstm2_x_transform -> W_xc_x
I0924 03:31:36.733208 29641 net.cpp:399] cont_1_lstm2_cont_slice_0_split -> cont_1_lstm2_cont_slice_0_split_1
I0924 03:31:36.733438 29641 net.cpp:141] Setting up cont_1_lstm2_cont_slice_0_split
I0924 03:31:36.733458 29641 net.cpp:148] Top shape: 1 1 (1)
I0924 03:31:36.733469 29641 net.cpp:148] Top shape: 1 1 (1)
I0924 03:31:36.733479 29641 net.cpp:156] Memory required for data: 14020
I0924 03:31:36.733487 29641 layer_factory.hpp:77] Creating layer lstm2_x_transform
I0924 03:31:36.733510 29641 net.cpp:91] Creating Layer lstm2_x_transform
I0924 03:31:36.733518 29641 net.cpp:425] lstm2_x_transform <- x
I0924 03:31:36.733532 29641 net.cpp:399] lstm2_x_transform -> W_xc_x
I0924 03:31:36.734475 29645 net.cpp:141] Setting up lstm1_h_conted_0
I0924 03:31:36.734491 29645 net.cpp:148] Top shape: 1 1 1000 (1000)
I0924 03:31:36.734498 29645 net.cpp:156] Memory required for data: 46016
I0924 03:31:36.734503 29645 layer_factory.hpp:77] Creating layer lstm1_transform_1
I0924 03:31:36.734519 29645 net.cpp:91] Creating Layer lstm1_transform_1
I0924 03:31:36.734526 29645 net.cpp:425] lstm1_transform_1 <- h_conted_0
I0924 03:31:36.734536 29645 net.cpp:399] lstm1_transform_1 -> W_hc_h_0
I0924 03:31:36.735352 29673 net.cpp:141] Setting up lstm2_h_conted_0
I0924 03:31:36.735383 29673 net.cpp:148] Top shape: 1 1 1000 (1000)
I0924 03:31:36.735393 29673 net.cpp:156] Memory required for data: 50020
I0924 03:31:36.735402 29673 layer_factory.hpp:77] Creating layer lstm2_transform_1
I0924 03:31:36.735424 29673 net.cpp:91] Creating Layer lstm2_transform_1
I0924 03:31:36.735436 29673 net.cpp:425] lstm2_transform_1 <- h_conted_0
I0924 03:31:36.735460 29673 net.cpp:399] lstm2_transform_1 -> W_hc_h_0
I0924 03:31:36.775588 29639 net.cpp:141] Setting up lstm2_transform_1
I0924 03:31:36.775645 29639 net.cpp:148] Top shape: 1 1 4000 (4000)
I0924 03:31:36.775655 29639 net.cpp:156] Memory required for data: 66020
I0924 03:31:36.775684 29639 layer_factory.hpp:77] Creating layer lstm2_gate_input_1
I0924 03:31:36.775712 29639 net.cpp:91] Creating Layer lstm2_gate_input_1
I0924 03:31:36.775724 29639 net.cpp:425] lstm2_gate_input_1 <- W_hc_h_0
I0924 03:31:36.775738 29639 net.cpp:425] lstm2_gate_input_1 <- W_xc_x_1
I0924 03:31:36.775756 29639 net.cpp:399] lstm2_gate_input_1 -> gate_input_1
I0924 03:31:36.795140 29639 net.cpp:141] Setting up lstm2_gate_input_1
I0924 03:31:36.795218 29639 net.cpp:148] Top shape: 1 1 4000 (4000)
I0924 03:31:36.795233 29639 net.cpp:156] Memory required for data: 82020
I0924 03:31:36.795248 29639 layer_factory.hpp:77] Creating layer lstm2_unit_1
I0924 03:31:36.795271 29639 net.cpp:91] Creating Layer lstm2_unit_1
I0924 03:31:36.795284 29639 net.cpp:425] lstm2_unit_1 <- c_0
I0924 03:31:36.795300 29639 net.cpp:425] lstm2_unit_1 <- gate_input_1
I0924 03:31:36.795289 29679 net.cpp:141] Setting up lstm1_transform_1
I0924 03:31:36.795327 29639 net.cpp:425] lstm2_unit_1 <- cont_1_lstm2_cont_slice_0_split_1
I0924 03:31:36.795364 29679 net.cpp:148] Top shape: 1 1 4000 (4000)
I0924 03:31:36.795373 29679 net.cpp:156] Memory required for data: 62016
I0924 03:31:36.795377 29639 net.cpp:399] lstm2_unit_1 -> c_1
I0924 03:31:36.795375 29673 net.cpp:141] Setting up lstm2_transform_1
I0924 03:31:36.795420 29639 net.cpp:399] lstm2_unit_1 -> h_1
I0924 03:31:36.795433 29673 net.cpp:148] Top shape: 1 1 4000 (4000)
I0924 03:31:36.795402 29679 layer_factory.hpp:77] Creating layer lstm1_gate_input_1
I0924 03:31:36.795444 29673 net.cpp:156] Memory required for data: 66020
I0924 03:31:36.795469 29673 layer_factory.hpp:77] Creating layer lstm2_gate_input_1
I0924 03:31:36.795475 29679 net.cpp:91] Creating Layer lstm1_gate_input_1
I0924 03:31:36.795491 29679 net.cpp:425] lstm1_gate_input_1 <- W_hc_h_0
I0924 03:31:36.795493 29673 net.cpp:91] Creating Layer lstm2_gate_input_1
I0924 03:31:36.795502 29679 net.cpp:425] lstm1_gate_input_1 <- W_xc_x_1
I0924 03:31:36.795506 29673 net.cpp:425] lstm2_gate_input_1 <- W_hc_h_0
I0924 03:31:36.795518 29679 net.cpp:399] lstm1_gate_input_1 -> gate_input_1
I0924 03:31:36.795519 29673 net.cpp:425] lstm2_gate_input_1 <- W_xc_x_1
I0924 03:31:36.795542 29673 net.cpp:399] lstm2_gate_input_1 -> gate_input_1
I0924 03:31:36.795634 29639 net.cpp:141] Setting up lstm2_unit_1
I0924 03:31:36.795655 29639 net.cpp:148] Top shape: 1 1 1000 (1000)
I0924 03:31:36.795672 29639 net.cpp:148] Top shape: 1 1 1000 (1000)
I0924 03:31:36.795686 29639 net.cpp:156] Memory required for data: 90020
I0924 03:31:36.795698 29639 layer_factory.hpp:77] Creating layer lstm2_
I0924 03:31:36.795699 29679 net.cpp:141] Setting up lstm1_gate_input_1
I0924 03:31:36.795727 29639 net.cpp:91] Creating Layer lstm2_
I0924 03:31:36.795730 29679 net.cpp:148] Top shape: 1 1 4000 (4000)
I0924 03:31:36.795744 29639 net.cpp:425] lstm2_ <- c_1
I0924 03:31:36.795750 29679 net.cpp:156] Memory required for data: 78016
I0924 03:31:36.795758 29679 layer_factory.hpp:77] Creating layer lstm1_unit_1
I0924 03:31:36.795760 29639 net.cpp:399] lstm2_ -> c_T
I0924 03:31:36.795768 29679 net.cpp:91] Creating Layer lstm1_unit_1
I0924 03:31:36.795778 29679 net.cpp:425] lstm1_unit_1 <- c_0
I0924 03:31:36.795789 29679 net.cpp:425] lstm1_unit_1 <- gate_input_1
I0924 03:31:36.795801 29679 net.cpp:425] lstm1_unit_1 <- cont_1_lstm1_cont_slice_0_split_1
I0924 03:31:36.795814 29679 net.cpp:399] lstm1_unit_1 -> c_1
I0924 03:31:36.795831 29679 net.cpp:399] lstm1_unit_1 -> h_1
I0924 03:31:36.795832 29673 net.cpp:141] Setting up lstm2_gate_input_1
I0924 03:31:36.795851 29673 net.cpp:148] Top shape: 1 1 4000 (4000)
I0924 03:31:36.795861 29673 net.cpp:156] Memory required for data: 82020
I0924 03:31:36.795874 29673 layer_factory.hpp:77] Creating layer lstm2_unit_1
I0924 03:31:36.795895 29673 net.cpp:91] Creating Layer lstm2_unit_1
I0924 03:31:36.795912 29673 net.cpp:425] lstm2_unit_1 <- c_0
I0924 03:31:36.795933 29673 net.cpp:425] lstm2_unit_1 <- gate_input_1
I0924 03:31:36.795945 29673 net.cpp:425] lstm2_unit_1 <- cont_1_lstm2_cont_slice_0_split_1
I0924 03:31:36.795954 29635 net.cpp:141] Setting up lstm2_x_transform
I0924 03:31:36.795979 29635 net.cpp:148] Top shape: 1 1 4000 (4000)
I0924 03:31:36.795984 29635 net.cpp:156] Memory required for data: 30020
I0924 03:31:36.796000 29635 layer_factory.hpp:77] Creating layer lstm2_W_xc_x_slice
I0924 03:31:36.796015 29635 net.cpp:91] Creating Layer lstm2_W_xc_x_slice
I0924 03:31:36.796027 29635 net.cpp:425] lstm2_W_xc_x_slice <- W_xc_x
I0924 03:31:36.796046 29639 net.cpp:141] Setting up lstm2_
I0924 03:31:36.796048 29635 net.cpp:399] lstm2_W_xc_x_slice -> W_xc_x_1
I0924 03:31:36.796072 29639 net.cpp:148] Top shape: 1 1 1000 (1000)
I0924 03:31:36.796085 29639 net.cpp:156] Memory required for data: 94020
I0924 03:31:36.796102 29639 layer_factory.hpp:77] Creating layer lstm2_h_concat
I0924 03:31:36.796133 29639 net.cpp:91] Creating Layer lstm2_h_concat
I0924 03:31:36.796145 29639 net.cpp:425] lstm2_h_concat <- h_1
I0924 03:31:36.796165 29639 net.cpp:399] lstm2_h_concat -> h
I0924 03:31:36.796172 29635 net.cpp:141] Setting up lstm2_W_xc_x_slice
I0924 03:31:36.795958 29673 net.cpp:399] lstm2_unit_1 -> c_1
I0924 03:31:36.796195 29635 net.cpp:148] Top shape: 1 1 4000 (4000)
I0924 03:31:36.796222 29635 net.cpp:156] Memory required for data: 46020
I0924 03:31:36.796229 29635 layer_factory.hpp:77] Creating layer lstm2_h_conted_0
I0924 03:31:36.796234 29673 net.cpp:399] lstm2_unit_1 -> h_1
I0924 03:31:36.796243 29635 net.cpp:91] Creating Layer lstm2_h_conted_0
I0924 03:31:36.796250 29635 net.cpp:425] lstm2_h_conted_0 <- h_0
I0924 03:31:36.796257 29635 net.cpp:425] lstm2_h_conted_0 <- cont_1_lstm2_cont_slice_0_split_0
I0924 03:31:36.796270 29635 net.cpp:399] lstm2_h_conted_0 -> h_conted_0
I0924 03:31:36.796396 29639 net.cpp:141] Setting up lstm2_h_concat
I0924 03:31:36.796416 29639 net.cpp:148] Top shape: 1 1 1000 (1000)
I0924 03:31:36.796425 29639 net.cpp:156] Memory required for data: 98020
I0924 03:31:36.796437 29639 layer_factory.hpp:77] Creating layer h_pseudoloss
I0924 03:31:36.796452 29679 net.cpp:141] Setting up lstm1_unit_1
I0924 03:31:36.796468 29679 net.cpp:148] Top shape: 1 1 1000 (1000)
I0924 03:31:36.796468 29639 net.cpp:91] Creating Layer h_pseudoloss
I0924 03:31:36.796480 29679 net.cpp:148] Top shape: 1 1 1000 (1000)
I0924 03:31:36.796488 29679 net.cpp:156] Memory required for data: 86016
I0924 03:31:36.796502 29679 layer_factory.hpp:77] Creating layer lstm1_
I0924 03:31:36.796514 29679 net.cpp:91] Creating Layer lstm1_
I0924 03:31:36.796519 29679 net.cpp:425] lstm1_ <- c_1
I0924 03:31:36.796530 29679 net.cpp:399] lstm1_ -> c_T
I0924 03:31:36.796672 29673 net.cpp:141] Setting up lstm2_unit_1
I0924 03:31:36.796694 29673 net.cpp:148] Top shape: 1 1 1000 (1000)
I0924 03:31:36.796705 29673 net.cpp:148] Top shape: 1 1 1000 (1000)
I0924 03:31:36.796715 29673 net.cpp:156] Memory required for data: 90020
I0924 03:31:36.796721 29679 net.cpp:141] Setting up lstm1_
I0924 03:31:36.796727 29673 layer_factory.hpp:77] Creating layer lstm2_
I0924 03:31:36.796742 29679 net.cpp:148] Top shape: 1 1 1000 (1000)
I0924 03:31:36.796749 29673 net.cpp:91] Creating Layer lstm2_
I0924 03:31:36.796753 29679 net.cpp:156] Memory required for data: 90016
I0924 03:31:36.796772 29673 net.cpp:425] lstm2_ <- c_1
I0924 03:31:36.796778 29679 layer_factory.hpp:77] Creating layer lstm1_h_concat
I0924 03:31:36.796792 29679 net.cpp:91] Creating Layer lstm1_h_concat
…
I0924 03:32:22.603699 29954 recurrent_layer.cpp:150] Adding parameter 0: W_xc
I0924 03:32:22.603695 29944 net.cpp:399] lstm2_h_conted_0 -> h_conted_0
I0924 03:32:22.603713 29954 recurrent_layer.cpp:150] Adding parameter 1: b_c
I0924 03:32:22.603716 29962 net.cpp:399] lstm2_ -> h_0
I0924 03:32:22.603746 29954 recurrent_layer.cpp:150] Adding parameter 2: W_hc
I0924 03:32:22.603837 29983 net.cpp:141] Setting up lstm1_transform_1
I0924 03:32:22.603855 29983 net.cpp:148] Top shape: 1 1 4000 (4000)
I0924 03:32:22.603860 29983 net.cpp:156] Memory required for data: 62016
I0924 03:32:22.603873 29983 layer_factory.hpp:77] Creating layer lstm1_gate_input_1
I0924 03:32:22.603890 29983 net.cpp:91] Creating Layer lstm1_gate_input_1
I0924 03:32:22.603898 29983 net.cpp:425] lstm1_gate_input_1 <- W_hc_h_0
I0924 03:32:22.603904 29983 net.cpp:425] lstm1_gate_input_1 <- W_xc_x_1
I0924 03:32:22.603911 29983 net.cpp:399] lstm1_gate_input_1 -> gate_input_1
I0924 03:32:22.603937 29962 net.cpp:141] Setting up lstm2_
I0924 03:32:22.603950 29962 net.cpp:148] Top shape: 1 1 1000 (1000)
I0924 03:32:22.603955 29962 net.cpp:148] Top shape: 1 1 1000 (1000)
I0924 03:32:22.603960 29962 net.cpp:156] Memory required for data: 14008
I0924 03:32:22.603965 29962 layer_factory.hpp:77] Creating layer lstm2_cont_slice
I0924 03:32:22.603974 29962 net.cpp:91] Creating Layer lstm2_cont_slice
I0924 03:32:22.603977 29983 net.cpp:141] Setting up lstm1_gate_input_1
I0924 03:32:22.603979 29962 net.cpp:425] lstm2_cont_slice <- cont
I0924 03:32:22.603994 29983 net.cpp:148] Top shape: 1 1 4000 (4000)
I0924 03:32:22.604001 29962 net.cpp:399] lstm2_cont_slice -> cont_1
I0924 03:32:22.604003 29983 net.cpp:156] Memory required for data: 78016
I0924 03:32:22.604012 29983 layer_factory.hpp:77] Creating layer lstm1_unit_1
I0924 03:32:22.604085 29962 net.cpp:141] Setting up lstm2_cont_slice
I0924 03:32:22.604099 29962 net.cpp:148] Top shape: 1 1 (1)
I0924 03:32:22.604089 29983 net.cpp:91] Creating Layer lstm1_unit_1
I0924 03:32:22.604102 29962 net.cpp:156] Memory required for data: 14012
I0924 03:32:22.604125 29962 layer_factory.hpp:77] Creating layer cont_1_lstm2_cont_slice_0_split
I0924 03:32:22.604130 29983 net.cpp:425] lstm1_unit_1 <- c_0
I0924 03:32:22.604137 29962 net.cpp:91] Creating Layer cont_1_lstm2_cont_slice_0_split
I0924 03:32:22.604156 29962 net.cpp:425] cont_1_lstm2_cont_slice_0_split <- cont_1
I0924 03:32:22.604163 29983 net.cpp:425] lstm1_unit_1 <- gate_input_1
I0924 03:32:22.604164 29962 net.cpp:399] cont_1_lstm2_cont_slice_0_split -> cont_1_lstm2_cont_slice_0_split_0
I0924 03:32:22.604198 29962 net.cpp:399] cont_1_lstm2_cont_slice_0_split -> cont_1_lstm2_cont_slice_0_split_1
I0924 03:32:22.604199 29983 net.cpp:425] lstm1_unit_1 <- cont_1_lstm1_cont_slice_0_split_1
I0924 03:32:22.604226 29983 net.cpp:399] lstm1_unit_1 -> c_1
I0924 03:32:22.604255 29983 net.cpp:399] lstm1_unit_1 -> h_1
I0924 03:32:22.604264 29950 net.cpp:141] Setting up lstm2_unit_1
I0924 03:32:22.604288 29950 net.cpp:148] Top shape: 1 1 1000 (1000)
I0924 03:32:22.604302 29950 net.cpp:148] Top shape: 1 1 1000 (1000)
I0924 03:32:22.604300 29954 net.cpp:141] Setting up lstm2
I0924 03:32:22.604316 29950 net.cpp:156] Memory required for data: 90020
I0924 03:32:22.604334 29954 net.cpp:148] Top shape: 1 1 1000 (1000)
I0924 03:32:22.604349 29954 net.cpp:156] Memory required for data: 36412
I0924 03:32:22.604348 29950 layer_factory.hpp:77] Creating layer lstm2_
I0924 03:32:22.604367 29950 net.cpp:91] Creating Layer lstm2_
I0924 03:32:22.604367 29954 layer_factory.hpp:77] Creating layer predict
I0924 03:32:22.604384 29950 net.cpp:425] lstm2_ <- c_1
I0924 03:32:22.604393 29954 net.cpp:91] Creating Layer predict
I0924 03:32:22.604400 29950 net.cpp:399] lstm2_ -> c_T
I0924 03:32:22.604400 29954 net.cpp:425] predict <- lstm2
I0924 03:32:22.604429 29954 net.cpp:399] predict -> predict
I0924 03:32:22.604449 29962 net.cpp:141] Setting up cont_1_lstm2_cont_slice_0_split
I0924 03:32:22.604460 29962 net.cpp:148] Top shape: 1 1 (1)
I0924 03:32:22.604465 29962 net.cpp:148] Top shape: 1 1 (1)
I0924 03:32:22.604470 29962 net.cpp:156] Memory required for data: 14020
I0924 03:32:22.604475 29962 layer_factory.hpp:77] Creating layer lstm2_x_transform
I0924 03:32:22.604485 29962 net.cpp:91] Creating Layer lstm2_x_transform
I0924 03:32:22.604490 29962 net.cpp:425] lstm2_x_transform <- x
I0924 03:32:22.604502 29962 net.cpp:399] lstm2_x_transform -> W_xc_x
I0924 03:32:22.694912 29944 net.cpp:141] Setting up lstm2_h_conted_0
I0924 03:32:22.694988 29944 net.cpp:148] Top shape: 1 1 1000 (1000)
I0924 03:32:22.695001 29944 net.cpp:156] Memory required for data: 50020
I0924 03:32:22.695016 29944 layer_factory.hpp:77] Creating layer lstm2_transform_1
I0924 03:32:22.695051 29944 net.cpp:91] Creating Layer lstm2_transform_1
I0924 03:32:22.695065 29944 net.cpp:425] lstm2_transform_1 <- h_conted_0
I0924 03:32:22.695094 29944 net.cpp:399] lstm2_transform_1 -> W_hc_h_0
I0924 03:32:22.715936 29983 net.cpp:141] Setting up lstm1_unit_1
I0924 03:32:22.715991 29983 net.cpp:148] Top shape: 1 1 1000 (1000)
I0924 03:32:22.716004 29983 net.cpp:148] Top shape: 1 1 1000 (1000)
I0924 03:32:22.716013 29983 net.cpp:156] Memory required for data: 86016
I0924 03:32:22.716025 29983 layer_factory.hpp:77] Creating layer lstm1_
I0924 03:32:22.716056 29983 net.cpp:91] Creating Layer lstm1_
I0924 03:32:22.716068 29983 net.cpp:425] lstm1_ <- c_1
I0924 03:32:22.716084 29983 net.cpp:399] lstm1_ -> c_T
I0924 03:32:22.716076 29950 net.cpp:141] Setting up lstm2_
I0924 03:32:22.716122 29950 net.cpp:148] Top shape: 1 1 1000 (1000)
I0924 03:32:22.716130 29950 net.cpp:156] Memory required for data: 94020
I0924 03:32:22.716138 29950 layer_factory.hpp:77] Creating layer lstm2_h_concat
I0924 03:32:22.716156 29950 net.cpp:91] Creating Layer lstm2_h_concat
I0924 03:32:22.716163 29950 net.cpp:425] lstm2_h_concat <- h_1
I0924 03:32:22.716176 29950 net.cpp:399] lstm2_h_concat -> h
I0924 03:32:22.716208 29962 net.cpp:141] Setting up lstm2_x_transform
I0924 03:32:22.716233 29962 net.cpp:148] Top shape: 1 1 4000 (4000)
I0924 03:32:22.716238 29983 net.cpp:141] Setting up lstm1_
I0924 03:32:22.716243 29962 net.cpp:156] Memory required for data: 30020
I0924 03:32:22.716261 29983 net.cpp:148] Top shape: 1 1 1000 (1000)
I0924 03:32:22.716270 29983 net.cpp:156] Memory required for data: 90016
I0924 03:32:22.716279 29983 layer_factory.hpp:77] Creating layer lstm1_h_concat
I0924 03:32:22.716284 29962 layer_factory.hpp:77] Creating layer lstm2_W_xc_x_slice
I0924 03:32:22.716292 29983 net.cpp:91] Creating Layer lstm1_h_concat
I0924 03:32:22.716300 29983 net.cpp:425] lstm1_h_concat <- h_1
I0924 03:32:22.716305 29962 net.cpp:91] Creating Layer lstm2_W_xc_x_slice
I0924 03:32:22.716315 29962 net.cpp:425] lstm2_W_xc_x_slice <- W_xc_x
I0924 03:32:22.716342 29983 net.cpp:399] lstm1_h_concat -> h
I0924 03:32:22.716356 29962 net.cpp:399] lstm2_W_xc_x_slice -> W_xc_x_1
I0924 03:32:22.716361 29950 net.cpp:141] Setting up lstm2_h_concat
I0924 03:32:22.716374 29950 net.cpp:148] Top shape: 1 1 1000 (1000)
I0924 03:32:22.716380 29950 net.cpp:156] Memory required for data: 98020
I0924 03:32:22.716385 29950 layer_factory.hpp:77] Creating layer h_pseudoloss
I0924 03:32:22.716397 29950 net.cpp:91] Creating Layer h_pseudoloss
I0924 03:32:22.716401 29950 net.cpp:425] h_pseudoloss <- h
I0924 03:32:22.716409 29950 net.cpp:399] h_pseudoloss -> h_pseudoloss
I0924 03:32:22.716431 29983 net.cpp:141] Setting up lstm1_h_concat
I0924 03:32:22.716446 29983 net.cpp:148] Top shape: 1 1 1000 (1000)
I0924 03:32:22.716454 29983 net.cpp:156] Memory required for data: 94016
I0924 03:32:22.716462 29983 layer_factory.hpp:77] Creating layer h_pseudoloss
I0924 03:32:22.716493 29983 net.cpp:91] Creating Layer h_pseudoloss
I0924 03:32:22.716501 29983 net.cpp:425] h_pseudoloss <- h
I0924 03:32:22.716512 29983 net.cpp:399] h_pseudoloss -> h_pseudoloss
I0924 03:32:22.716579 29950 net.cpp:141] Setting up h_pseudoloss
I0924 03:32:22.716598 29950 net.cpp:148] Top shape: (1)
I0924 03:32:22.716605 29950 net.cpp:151]     with loss weight 1
I0924 03:32:22.716624 29962 net.cpp:141] Setting up lstm2_W_xc_x_slice
I0924 03:32:22.716650 29962 net.cpp:148] Top shape: 1 1 4000 (4000)
I0924 03:32:22.716626 29950 net.cpp:156] Memory required for data: 98024
I0924 03:32:22.716658 29962 net.cpp:156] Memory required for data: 46020
I0924 03:32:22.716668 29950 net.cpp:217] h_pseudoloss needs backward computation.
I0924 03:32:22.716670 29962 layer_factory.hpp:77] Creating layer lstm2_h_conted_0
I0924 03:32:22.716675 29950 net.cpp:217] lstm2_h_concat needs backward computation.
…
I0924 03:32:22.718369 29983 net.cpp:219] lstm1_ does not need backward computation.
I0924 03:32:22.718375 29983 net.cpp:261] This network produces output c_T
I0924 03:32:22.718384 29983 net.cpp:261] This network produces output h_pseudoloss
I0924 03:32:22.718405 29983 net.cpp:274] Network initialization done.
I0924 03:32:22.718523 29983 recurrent_layer.cpp:150] Adding parameter 0: W_xc
I0924 03:32:22.718534 29983 recurrent_layer.cpp:150] Adding parameter 1: b_c
I0924 03:32:22.718541 29983 recurrent_layer.cpp:150] Adding parameter 2: W_hc
I0924 03:32:22.735046 29983 net.cpp:141] Setting up lstm1
I0924 03:32:22.735097 29983 net.cpp:148] Top shape: 1 1 1000 (1000)
I0924 03:32:22.735105 29983 net.cpp:156] Memory required for data: 26408
I0924 03:32:22.735159 29983 layer_factory.hpp:77] Creating layer concat
I0924 03:32:22.735182 29983 net.cpp:91] Creating Layer concat
I0924 03:32:22.735191 29983 net.cpp:425] concat <- lstm1
I0924 03:32:22.735203 29983 net.cpp:425] concat <- embedded_input_sentence
I0924 03:32:22.735211 29983 net.cpp:425] concat <- reshaped_stage_indicator
I0924 03:32:22.735224 29983 net.cpp:399] concat -> lstm1_video_sequence
I0924 03:32:22.735288 29983 net.cpp:141] Setting up concat
I0924 03:32:22.735301 29983 net.cpp:148] Top shape: 1 1 1501 (1501)
I0924 03:32:22.735308 29983 net.cpp:156] Memory required for data: 32412
I0924 03:32:22.735316 29983 layer_factory.hpp:77] Creating layer lstm2
I0924 03:32:22.735333 29983 net.cpp:91] Creating Layer lstm2
I0924 03:32:22.735342 29983 net.cpp:425] lstm2 <- lstm1_video_sequence
I0924 03:32:22.735350 29983 net.cpp:425] lstm2 <- cont_sentence_input_1_split_1
I0924 03:32:22.735361 29983 net.cpp:399] lstm2 -> lstm2
I0924 03:32:22.735376 29983 recurrent_layer.cpp:20] Initializing recurrent layer: assuming input batch contains 1 timesteps of 1 independent streams.
I0924 03:32:22.735782 29983 net.cpp:49] Initializing net from parameters: 
layer {
  name: "lstm2_"
  type: "Input"
  top: "x"
  top: "cont"
  input_param {
    shape {
      dim: 1
      dim: 1
      dim: 1501
    }
    shape {
      dim: 1
      dim: 1
    }
  }
}
layer {
  name: "lstm2_"
  type: "Input"
  top: "c_0"
  top: "h_0"
  input_param {
    shape {
      dim: 1
      dim: 1
      dim: 1000
    }
    shape {
      dim: 1
      dim: 1
      dim: 1000
    }
  }
}
layer {
  name: "lstm2_cont_slice"
  type: "Slice"
  bottom: "cont"
  top: "cont_1"
  slice_param {
    axis: 0
  }
}
layer {
  name: "lstm2_x_transform"
  type: "InnerProduct"
  bottom: "x"
  top: "W_xc_x"
  param {
    name: "W_xc"
  }
  param {
    name: "b_c"
  }
  propagate_down: true
  inner_product_param {
    num_output: 4000
    bias_term: true
    weight_filler {
      type: "uniform"
      min: -0.08
      max: 0.08
    }
    bias_filler {
      type: "constant"
      value: 0
    }
    axis: 2
  }
}
layer {
  name: "lstm2_W_xc_x_slice"
  type: "Slice"
  bottom: "W_xc_x"
  top: "W_xc_x_1"
  slice_param {
    axis: 0
  }
}
layer {
  name: "lstm2_h_conted_0"
  type: "Scale"
  bottom: "h_0"
  bottom: "cont_1"
  top: "h_conted_0"
  scale_param {
    axis: 0
  }
}
layer {
  name: "lstm2_transform_1"
  type: "InnerProduct"
  bottom: "h_conted_0"
  top: "W_hc_h_0"
  param {
    name: "W_hc"
  }
  inner_product_param {
    num_output: 4000
    bias_term: false
    weight_filler {
      type: "uniform"
      min: -0.08
      max: 0.08
    }
    axis: 2
  }
}
layer {
  name: "lstm2_gate_input_1"
  type: "Eltwise"
  bottom: "W_hc_h_0"
  bottom: "W_xc_x_1"
  top: "gate_input_1"
  eltwise_param {
    operation: SUM
  }
}
layer {
  name: "lstm2_unit_1"
  type: "LSTMUnit"
  bottom: "c_0"
  bottom: "gate_input_1"
  bottom: "cont_1"
  top: "c_1"
  top: "h_1"
}
layer {
  name: "lstm2_"
  type: "Split"
  bottom: "c_1"
  top: "c_T"
}
layer {
  name: "lstm2_h_concat"
  type: "Concat"
  bottom: "h_1"
  top: "h"
  concat_param {
    axis: 0
  }
}
layer {
  name: "h_pseudoloss"
  type: "Reduction"
  bottom: "h"
  top: "h_pseudoloss"
  loss_weight: 1
}
I0924 03:32:22.735913 29983 layer_factory.hpp:77] Creating layer lstm2_
I0924 03:32:22.735939 29983 net.cpp:91] Creating Layer lstm2_
I0924 03:32:22.735949 29983 net.cpp:399] lstm2_ -> x
I0924 03:32:22.735965 29983 net.cpp:399] lstm2_ -> cont
I0924 03:32:22.736042 29983 net.cpp:141] Setting up lstm2_
I0924 03:32:22.736055 29983 net.cpp:148] Top shape: 1 1 1501 (1501)
I0924 03:32:22.736065 29983 net.cpp:148] Top shape: 1 1 (1)
I0924 03:32:22.736073 29983 net.cpp:156] Memory required for data: 6008
I0924 03:32:22.736079 29983 layer_factory.hpp:77] Creating layer lstm2_
I0924 03:32:22.736093 29983 net.cpp:91] Creating Layer lstm2_
I0924 03:32:22.736105 29983 net.cpp:399] lstm2_ -> c_0
I0924 03:32:22.736120 29983 net.cpp:399] lstm2_ -> h_0
I0924 03:32:22.736196 29983 net.cpp:141] Setting up lstm2_
I0924 03:32:22.736208 29983 net.cpp:148] Top shape: 1 1 1000 (1000)
I0924 03:32:22.736217 29983 net.cpp:148] Top shape: 1 1 1000 (1000)
I0924 03:32:22.736224 29983 net.cpp:156] Memory required for data: 14008
I0924 03:32:22.736232 29983 layer_factory.hpp:77] Creating layer lstm2_cont_slice
I0924 03:32:22.736243 29983 net.cpp:91] Creating Layer lstm2_cont_slice
I0924 03:32:22.736251 29983 net.cpp:425] lstm2_cont_slice <- cont
I0924 03:32:22.736263 29983 net.cpp:399] lstm2_cont_slice -> cont_1
I0924 03:32:22.736316 29983 net.cpp:141] Setting up lstm2_cont_slice
I0924 03:32:22.736332 29983 net.cpp:148] Top shape: 1 1 (1)
I0924 03:32:22.736340 29983 net.cpp:156] Memory required for data: 14012
I0924 03:32:22.736346 29983 layer_factory.hpp:77] Creating layer cont_1_lstm2_cont_slice_0_split
I0924 03:32:22.736357 29983 net.cpp:91] Creating Layer cont_1_lstm2_cont_slice_0_split
I0924 03:32:22.736364 29983 net.cpp:425] cont_1_lstm2_cont_slice_0_split <- cont_1
I0924 03:32:22.736376 29983 net.cpp:399] cont_1_lstm2_cont_slice_0_split -> cont_1_lstm2_cont_slice_0_split_0
I0924 03:32:22.736387 29983 net.cpp:399] cont_1_lstm2_cont_slice_0_split -> cont_1_lstm2_cont_slice_0_split_1
I0924 03:32:22.736459 29983 net.cpp:141] Setting up cont_1_lstm2_cont_slice_0_split
I0924 03:32:22.736472 29983 net.cpp:148] Top shape: 1 1 (1)
I0924 03:32:22.736481 29983 net.cpp:148] Top shape: 1 1 (1)
I0924 03:32:22.736488 29983 net.cpp:156] Memory required for data: 14020
I0924 03:32:22.736496 29983 layer_factory.hpp:77] Creating layer lstm2_x_transform
I0924 03:32:22.736515 29983 net.cpp:91] Creating Layer lstm2_x_transform
I0924 03:32:22.736522 29983 net.cpp:425] lstm2_x_transform <- x
I0924 03:32:22.736534 29983 net.cpp:399] lstm2_x_transform -> W_xc_x
I0924 03:32:22.756207 29944 net.cpp:141] Setting up lstm2_transform_1
I0924 03:32:22.756198 29950 net.cpp:141] Setting up lstm2
I0924 03:32:22.756253 29944 net.cpp:148] Top shape: 1 1 4000 (4000)
I0924 03:32:22.756253 29950 net.cpp:148] Top shape: 1 1 1000 (1000)
I0924 03:32:22.756271 29944 net.cpp:156] Memory required for data: 66020
I0924 03:32:22.756273 29950 net.cpp:156] Memory required for data: 36412
I0924 03:32:22.756299 29944 layer_factory.hpp:77] Creating layer lstm2_gate_input_1
I0924 03:32:22.756302 29950 layer_factory.hpp:77] Creating layer predict
I0924 03:32:22.756325 29950 net.cpp:91] Creating Layer predict
I0924 03:32:22.756326 29944 net.cpp:91] Creating Layer lstm2_gate_input_1
I0924 03:32:22.756343 29950 net.cpp:425] predict <- lstm2
I0924 03:32:22.756350 29944 net.cpp:425] lstm2_gate_input_1 <- W_hc_h_0
I0924 03:32:22.756361 29944 net.cpp:425] lstm2_gate_input_1 <- W_xc_x_1
I0924 03:32:22.756361 29950 net.cpp:399] predict -> predict
I0924 03:32:22.756379 29944 net.cpp:399] lstm2_gate_input_1 -> gate_input_1
I0924 03:32:22.757740 29944 net.cpp:141] Setting up lstm2_gate_input_1
I0924 03:32:22.757757 29944 net.cpp:148] Top shape: 1 1 4000 (4000)
I0924 03:32:22.757764 29944 net.cpp:156] Memory required for data: 82020
I0924 03:32:22.757773 29944 layer_factory.hpp:77] Creating layer lstm2_unit_1
I0924 03:32:22.757786 29944 net.cpp:91] Creating Layer lstm2_unit_1
I0924 03:32:22.757794 29944 net.cpp:425] lstm2_unit_1 <- c_0
I0924 03:32:22.757804 29944 net.cpp:425] lstm2_unit_1 <- gate_input_1
I0924 03:32:22.757813 29944 net.cpp:425] lstm2_unit_1 <- cont_1_lstm2_cont_slice_0_split_1
I0924 03:32:22.757833 29944 net.cpp:399] lstm2_unit_1 -> c_1
I0924 03:32:22.757851 29944 net.cpp:399] lstm2_unit_1 -> h_1
I0924 03:32:22.846702 29962 net.cpp:141] Setting up lstm2_transform_1
I0924 03:32:22.846765 29962 net.cpp:148] Top shape: 1 1 4000 (4000)
I0924 03:32:22.846771 29962 net.cpp:156] Memory required for data: 66020
I0924 03:32:22.846796 29962 layer_factory.hpp:77] Creating layer lstm2_gate_input_1
I0924 03:32:22.846869 29962 net.cpp:91] Creating Layer lstm2_gate_input_1
I0924 03:32:22.846886 29962 net.cpp:425] lstm2_gate_input_1 <- W_hc_h_0
I0924 03:32:22.846901 29962 net.cpp:425] lstm2_gate_input_1 <- W_xc_x_1
I0924 03:32:22.846916 29962 net.cpp:399] lstm2_gate_input_1 -> gate_input_1
I0924 03:32:22.846936 29944 net.cpp:141] Setting up lstm2_unit_1
I0924 03:32:22.846988 29944 net.cpp:148] Top shape: 1 1 1000 (1000)
I0924 03:32:22.847000 29944 net.cpp:148] Top shape: 1 1 1000 (1000)
I0924 03:32:22.847008 29944 net.cpp:156] Memory required for data: 90020
I0924 03:32:22.847020 29944 layer_factory.hpp:77] Creating layer lstm2_
I0924 03:32:22.847043 29944 net.cpp:91] Creating Layer lstm2_
I0924 03:32:22.847050 29944 net.cpp:425] lstm2_ <- c_1
I0924 03:32:22.847066 29944 net.cpp:399] lstm2_ -> c_T
I0924 03:32:22.847136 29944 net.cpp:141] Setting up lstm2_
I0924 03:32:22.847148 29944 net.cpp:148] Top shape: 1 1 1000 (1000)
I0924 03:32:22.847156 29944 net.cpp:156] Memory required for data: 94020
I0924 03:32:22.847162 29944 layer_factory.hpp:77] Creating layer lstm2_h_concat
I0924 03:32:22.847177 29944 net.cpp:91] Creating Layer lstm2_h_concat
I0924 03:32:22.847183 29944 net.cpp:425] lstm2_h_concat <- h_1
I0924 03:32:22.847194 29944 net.cpp:399] lstm2_h_concat -> h
I0924 03:32:22.847218 29962 net.cpp:141] Setting up lstm2_gate_input_1
I0924 03:32:22.847234 29962 net.cpp:148] Top shape: 1 1 4000 (4000)
I0924 03:32:22.847239 29962 net.cpp:156] Memory required for data: 82020
I0924 03:32:22.847244 29962 layer_factory.hpp:77] Creating layer lstm2_unit_1
I0924 03:32:22.847254 29962 net.cpp:91] Creating Layer lstm2_unit_1
I0924 03:32:22.847259 29962 net.cpp:425] lstm2_unit_1 <- c_0
I0924 03:32:22.847267 29962 net.cpp:425] lstm2_unit_1 <- gate_input_1
I0924 03:32:22.847270 29944 net.cpp:141] Setting up lstm2_h_concat
I0924 03:32:22.847277 29962 net.cpp:425] lstm2_unit_1 <- cont_1_lstm2_cont_slice_0_split_1
I0924 03:32:22.847285 29944 net.cpp:148] Top shape: 1 1 1000 (1000)
I0924 03:32:22.847292 29944 net.cpp:156] Memory required for data: 98020
I0924 03:32:22.847296 29962 net.cpp:399] lstm2_unit_1 -> c_1
I0924 03:32:22.847299 29944 layer_factory.hpp:77] Creating layer h_pseudoloss
I0924 03:32:22.847313 29962 net.cpp:399] lstm2_unit_1 -> h_1
I0924 03:32:22.847314 29944 net.cpp:91] Creating Layer h_pseudoloss
I0924 03:32:22.847337 29944 net.cpp:425] h_pseudoloss <- h
I0924 03:32:22.847350 29944 net.cpp:399] h_pseudoloss -> h_pseudoloss
I0924 03:32:22.858281 29983 net.cpp:141] Setting up lstm2_x_transform
I0924 03:32:22.858342 29983 net.cpp:148] Top shape: 1 1 4000 (4000)
I0924 03:32:22.858352 29983 net.cpp:156] Memory required for data: 30020
I0924 03:32:22.858384 29983 layer_factory.hpp:77] Creating layer lstm2_W_xc_x_slice
I0924 03:32:22.858409 29983 net.cpp:91] Creating Layer lstm2_W_xc_x_slice
I0924 03:32:22.858420 29983 net.cpp:425] lstm2_W_xc_x_slice <- W_xc_x
I0924 03:32:22.858489 29944 net.cpp:141] Setting up h_pseudoloss
I0924 03:32:22.858492 29962 net.cpp:141] Setting up lstm2_unit_1
I0924 03:32:22.858515 29944 net.cpp:148] Top shape: (1)
I0924 03:32:22.858544 29962 net.cpp:148] Top shape: 1 1 1000 (1000)
I0924 03:32:22.858558 29962 net.cpp:148] Top shape: 1 1 1000 (1000)
I0924 03:32:22.858541 29944 net.cpp:151]     with loss weight 1
I0924 03:32:22.858572 29962 net.cpp:156] Memory required for data: 90020
I0924 03:32:22.858582 29944 net.cpp:156] Memory required for data: 98024
I0924 03:32:22.858587 29962 layer_factory.hpp:77] Creating layer lstm2_
I0924 03:32:22.858592 29944 net.cpp:217] h_pseudoloss needs backward computation.
I0924 03:32:22.858616 29944 net.cpp:217] lstm2_h_concat needs backward computation.
…
I0924 03:32:22.858753 29944 net.cpp:261] This network produces output c_T
I0924 03:32:22.858762 29944 net.cpp:261] This network produces output h_pseudoloss
I0924 03:32:22.858789 29944 net.cpp:274] Network initialization done.
I0924 03:32:22.858871 29944 recurrent_layer.cpp:150] Adding parameter 0: W_xc
I0924 03:32:22.858883 29944 recurrent_layer.cpp:150] Adding parameter 1: b_c
I0924 03:32:22.858891 29944 recurrent_layer.cpp:150] Adding parameter 2: W_hc
I0924 03:32:22.860496 29983 net.cpp:399] lstm2_W_xc_x_slice -> W_xc_x_1
I0924 03:32:22.864552 29962 net.cpp:141] Setting up lstm2_
I0924 03:32:22.864612 29962 net.cpp:148] Top shape: 1 1 1000 (1000)
I0924 03:32:22.864624 29962 net.cpp:156] Memory required for data: 94020
I0924 03:32:22.864639 29962 layer_factory.hpp:77] Creating layer lstm2_h_concat
I0924 03:32:22.864670 29962 net.cpp:91] Creating Layer lstm2_h_concat
I0924 03:32:22.864681 29962 net.cpp:425] lstm2_h_concat <- h_1
I0924 03:32:22.864681 29983 net.cpp:141] Setting up lstm2_W_xc_x_slice
I0924 03:32:22.864701 29962 net.cpp:399] lstm2_h_concat -> h
I0924 03:32:22.864704 29983 net.cpp:148] Top shape: 1 1 4000 (4000)
I0924 03:32:22.864711 29983 net.cpp:156] Memory required for data: 46020
I0924 03:32:22.864722 29983 layer_factory.hpp:77] Creating layer lstm2_h_conted_0
I0924 03:32:22.864739 29983 net.cpp:91] Creating Layer lstm2_h_conted_0
I0924 03:32:22.864749 29983 net.cpp:425] lstm2_h_conted_0 <- h_0
I0924 03:32:22.864761 29983 net.cpp:425] lstm2_h_conted_0 <- cont_1_lstm2_cont_slice_0_split_0
I0924 03:32:22.864789 29983 net.cpp:399] lstm2_h_conted_0 -> h_conted_0
I0924 03:32:22.864796 29962 net.cpp:141] Setting up lstm2_h_concat
I0924 03:32:22.864809 29962 net.cpp:148] Top shape: 1 1 1000 (1000)
I0924 03:32:22.864817 29962 net.cpp:156] Memory required for data: 98020
I0924 03:32:22.864825 29962 layer_factory.hpp:77] Creating layer h_pseudoloss
I0924 03:32:22.864874 29962 net.cpp:91] Creating Layer h_pseudoloss
I0924 03:32:22.864869 29944 net.cpp:141] Setting up lstm2
I0924 03:32:22.864886 29962 net.cpp:425] h_pseudoloss <- h
I0924 03:32:22.864912 29944 net.cpp:148] Top shape: 1 1 1000 (1000)
I0924 03:32:22.864919 29944 net.cpp:156] Memory required for data: 36412
I0924 03:32:22.864919 29962 net.cpp:399] h_pseudoloss -> h_pseudoloss
I0924 03:32:22.864940 29944 layer_factory.hpp:77] Creating layer predict
I0924 03:32:22.864964 29944 net.cpp:91] Creating Layer predict
I0924 03:32:22.864976 29944 net.cpp:425] predict <- lstm2
I0924 03:32:22.864994 29944 net.cpp:399] predict -> predict
I0924 03:32:22.946424 29962 net.cpp:141] Setting up h_pseudoloss
I0924 03:32:22.946442 29983 net.cpp:141] Setting up lstm2_h_conted_0
I0924 03:32:22.946485 29983 net.cpp:148] Top shape: 1 1 1000 (1000)
I0924 03:32:22.946487 29962 net.cpp:148] Top shape: (1)
I0924 03:32:22.946492 29983 net.cpp:156] Memory required for data: 50020
I0924 03:32:22.946502 29983 layer_factory.hpp:77] Creating layer lstm2_transform_1
I0924 03:32:22.946496 29962 net.cpp:151]     with loss weight 1
I0924 03:32:22.946517 29962 net.cpp:156] Memory required for data: 98024
I0924 03:32:22.946527 29962 net.cpp:217] h_pseudoloss needs backward computation.
…
I0924 03:32:22.946661 29962 net.cpp:219] lstm2_ does not need backward computation.
I0924 03:32:22.946669 29962 net.cpp:219] lstm2_ does not need backward computation.
I0924 03:32:22.946677 29962 net.cpp:261] This network produces output c_T
I0924 03:32:22.946687 29962 net.cpp:261] This network produces output h_pseudoloss
I0924 03:32:22.946732 29962 net.cpp:274] Network initialization done.
I0924 03:32:22.946818 29962 recurrent_layer.cpp:150] Adding parameter 0: W_xc
I0924 03:32:22.946813 29989 net.cpp:141] Setting up predict
I0924 03:32:22.946833 29962 recurrent_layer.cpp:150] Adding parameter 1: b_c
I0924 03:32:22.946867 29989 net.cpp:148] Top shape: 1 1 46168 (46168)
I0924 03:32:22.946871 29962 recurrent_layer.cpp:150] Adding parameter 2: W_hc
I0924 03:32:22.946874 29989 net.cpp:156] Memory required for data: 221084
I0924 03:32:22.946889 29989 layer_factory.hpp:77] Creating layer probs
I0924 03:32:22.946905 29989 net.cpp:91] Creating Layer probs
I0924 03:32:22.946913 29989 net.cpp:425] probs <- predict
I0924 03:32:22.946923 29989 net.cpp:399] probs -> probs
I0924 03:32:22.957255 29962 net.cpp:141] Setting up lstm2
I0924 03:32:22.957311 29962 net.cpp:148] Top shape: 1 1 1000 (1000)
I0924 03:32:22.957319 29962 net.cpp:156] Memory required for data: 36412
I0924 03:32:22.957341 29962 layer_factory.hpp:77] Creating layer predict
I0924 03:32:22.957362 29962 net.cpp:91] Creating Layer predict
I0924 03:32:22.957371 29962 net.cpp:425] predict <- lstm2
I0924 03:32:22.957381 29962 net.cpp:399] predict -> predict
I0924 03:32:23.074621 29983 net.cpp:141] Setting up lstm2_transform_1
I0924 03:32:23.075181 29954 net.cpp:141] Setting up predict
I0924 03:32:23.075376 29948 net.cpp:141] Setting up predict
I0924 03:32:23.080440 29983 net.cpp:148] Top shape: 1 1 4000 (4000)
I0924 03:32:23.080467 29948 net.cpp:148] Top shape: 1 1 46168 (46168)
I0924 03:32:23.080481 29948 net.cpp:156] Memory required for data: 221084
I0924 03:32:23.080463 29954 net.cpp:148] Top shape: 1 1 46168 (46168)
I0924 03:32:23.080464 29983 net.cpp:156] Memory required for data: 66020
I0924 03:32:23.080495 29954 net.cpp:156] Memory required for data: 221084
I0924 03:32:23.080507 29948 layer_factory.hpp:77] Creating layer probs
I0924 03:32:23.080516 29983 layer_factory.hpp:77] Creating layer lstm2_gate_input_1
I0924 03:32:23.080520 29954 layer_factory.hpp:77] Creating layer probs
I0924 03:32:23.080533 29948 net.cpp:91] Creating Layer probs
I0924 03:32:23.080543 29954 net.cpp:91] Creating Layer probs
I0924 03:32:23.080544 29948 net.cpp:425] probs <- predict
I0924 03:32:23.080554 29954 net.cpp:425] probs <- predict
I0924 03:32:23.080561 29948 net.cpp:399] probs -> probs
I0924 03:32:23.080569 29954 net.cpp:399] probs -> probs
I0924 03:32:23.083703 29983 net.cpp:91] Creating Layer lstm2_gate_input_1
I0924 03:32:23.084110 29983 net.cpp:425] lstm2_gate_input_1 <- W_hc_h_0
I0924 03:32:23.084133 29983 net.cpp:425] lstm2_gate_input_1 <- W_xc_x_1
I0924 03:32:23.084157 29983 net.cpp:399] lstm2_gate_input_1 -> gate_input_1
I0924 03:32:23.091596 29983 net.cpp:141] Setting up lstm2_gate_input_1
I0924 03:32:23.091650 29983 net.cpp:148] Top shape: 1 1 4000 (4000)
I0924 03:32:23.091660 29983 net.cpp:156] Memory required for data: 82020
I0924 03:32:23.091673 29983 layer_factory.hpp:77] Creating layer lstm2_unit_1
I0924 03:32:23.091696 29983 net.cpp:91] Creating Layer lstm2_unit_1
I0924 03:32:23.091707 29983 net.cpp:425] lstm2_unit_1 <- c_0
I0924 03:32:23.091722 29983 net.cpp:425] lstm2_unit_1 <- gate_input_1
I0924 03:32:23.091732 29983 net.cpp:425] lstm2_unit_1 <- cont_1_lstm2_cont_slice_0_split_1
I0924 03:32:23.092685 29983 net.cpp:399] lstm2_unit_1 -> c_1
I0924 03:32:23.092716 29983 net.cpp:399] lstm2_unit_1 -> h_1
I0924 03:32:23.093825 29983 net.cpp:141] Setting up lstm2_unit_1
I0924 03:32:23.093847 29983 net.cpp:148] Top shape: 1 1 1000 (1000)
I0924 03:32:23.093858 29983 net.cpp:148] Top shape: 1 1 1000 (1000)
I0924 03:32:23.093864 29983 net.cpp:156] Memory required for data: 90020
I0924 03:32:23.093873 29983 layer_factory.hpp:77] Creating layer lstm2_
I0924 03:32:23.093888 29983 net.cpp:91] Creating Layer lstm2_
I0924 03:32:23.093894 29983 net.cpp:425] lstm2_ <- c_1
I0924 03:32:23.093906 29983 net.cpp:399] lstm2_ -> c_T
I0924 03:32:23.096534 29983 net.cpp:141] Setting up lstm2_
I0924 03:32:23.096565 29983 net.cpp:148] Top shape: 1 1 1000 (1000)
I0924 03:32:23.096575 29983 net.cpp:156] Memory required for data: 94020
I0924 03:32:23.096585 29983 layer_factory.hpp:77] Creating layer lstm2_h_concat
I0924 03:32:23.096603 29983 net.cpp:91] Creating Layer lstm2_h_concat
I0924 03:32:23.096611 29983 net.cpp:425] lstm2_h_concat <- h_1
I0924 03:32:23.096626 29983 net.cpp:399] lstm2_h_concat -> h
I0924 03:32:23.099432 29983 net.cpp:141] Setting up lstm2_h_concat
I0924 03:32:23.099468 29983 net.cpp:148] Top shape: 1 1 1000 (1000)
I0924 03:32:23.099478 29983 net.cpp:156] Memory required for data: 98020
I0924 03:32:23.099488 29983 layer_factory.hpp:77] Creating layer h_pseudoloss
I0924 03:32:23.099508 29983 net.cpp:91] Creating Layer h_pseudoloss
I0924 03:32:23.099517 29983 net.cpp:425] h_pseudoloss <- h
I0924 03:32:23.099531 29983 net.cpp:399] h_pseudoloss -> h_pseudoloss
I0924 03:32:23.103420 29983 net.cpp:141] Setting up h_pseudoloss
…
I0924 03:32:23.103610 29983 net.cpp:219] lstm2_ does not need backward computation.
I0924 03:32:23.103616 29983 net.cpp:261] This network produces output c_T
I0924 03:32:23.103624 29983 net.cpp:261] This network produces output h_pseudoloss
I0924 03:32:23.103649 29983 net.cpp:274] Network initialization done.
I0924 03:32:23.103724 29983 recurrent_layer.cpp:150] Adding parameter 0: W_xc
I0924 03:32:23.103734 29983 recurrent_layer.cpp:150] Adding parameter 1: b_c
I0924 03:32:23.103741 29983 recurrent_layer.cpp:150] Adding parameter 2: W_hc
I0924 03:32:23.109259 29983 net.cpp:141] Setting up lstm2
I0924 03:32:23.109297 29983 net.cpp:148] Top shape: 1 1 1000 (1000)
I0924 03:32:23.109307 29983 net.cpp:156] Memory required for data: 36412
I0924 03:32:23.109333 29983 layer_factory.hpp:77] Creating layer predict
I0924 03:32:23.109359 29983 net.cpp:91] Creating Layer predict
I0924 03:32:23.109369 29983 net.cpp:425] predict <- lstm2
I0924 03:32:23.109383 29983 net.cpp:399] predict -> predict
I0924 03:32:23.238850 29950 net.cpp:141] Setting up predict
I0924 03:32:23.238914 29950 net.cpp:148] Top shape: 1 1 46168 (46168)
I0924 03:32:23.238925 29950 net.cpp:156] Memory required for data: 221084
I0924 03:32:23.238951 29950 layer_factory.hpp:77] Creating layer probs
I0924 03:32:23.238976 29950 net.cpp:91] Creating Layer probs
I0924 03:32:23.238988 29950 net.cpp:425] probs <- predict
I0924 03:32:23.239004 29950 net.cpp:399] probs -> probs
I0924 03:32:23.287549 29950 net.cpp:141] Setting up probs
I0924 03:32:23.287606 29950 net.cpp:148] Top shape: 1 1 46168 (46168)
I0924 03:32:23.287617 29950 net.cpp:156] Memory required for data: 405756
I0924 03:32:23.287631 29950 net.cpp:219] probs does not need backward computation.
I0924 03:32:23.287643 29950 net.cpp:219] predict does not need backward computation.
I0924 03:32:23.287654 29950 net.cpp:219] lstm2 does not need backward computation.
I0924 03:32:23.287665 29950 net.cpp:219] concat does not need backward computation.
I0924 03:32:23.287675 29950 net.cpp:219] lstm1 does not need backward computation.
I0924 03:32:23.287688 29950 net.cpp:219] embedding does not need backward computation.
I0924 03:32:23.287698 29950 net.cpp:219] reshape_stage_indicator does not need backward computation.
I0924 03:32:23.287708 29950 net.cpp:219] reshape_frames does not need backward computation.
I0924 03:32:23.287716 29950 net.cpp:219] embed_encoder does not need backward computation.
I0924 03:32:23.287725 29950 net.cpp:219] cont_sentence_input_1_split does not need backward computation.
I0924 03:32:23.287736 29950 net.cpp:219] input does not need backward computation.
I0924 03:32:23.287744 29950 net.cpp:261] This network produces output probs
I0924 03:32:23.287784 29950 net.cpp:274] Network initialization done.
I0924 03:32:23.288128 29954 net.cpp:141] Setting up probs
I0924 03:32:23.288164 29954 net.cpp:148] Top shape: 1 1 46168 (46168)
I0924 03:32:23.288170 29954 net.cpp:156] Memory required for data: 405756
I0924 03:32:23.288178 29954 net.cpp:219] probs does not need backward computation.
I0924 03:32:23.288187 29954 net.cpp:219] predict does not need backward computation.
I0924 03:32:23.288192 29954 net.cpp:219] lstm2 does not need backward computation.
I0924 03:32:23.288197 29954 net.cpp:219] concat does not need backward computation.
I0924 03:32:23.288204 29954 net.cpp:219] lstm1 does not need backward computation.
I0924 03:32:23.288210 29954 net.cpp:219] embedding does not need backward computation.
I0924 03:32:23.288216 29954 net.cpp:219] reshape_stage_indicator does not need backward computation.
I0924 03:32:23.288221 29954 net.cpp:219] reshape_frames does not need backward computation.
I0924 03:32:23.288226 29954 net.cpp:219] embed_encoder does not need backward computation.
I0924 03:32:23.288231 29954 net.cpp:219] cont_sentence_input_1_split does not need backward computation.
I0924 03:32:23.288238 29954 net.cpp:219] input does not need backward computation.
I0924 03:32:23.288241 29954 net.cpp:261] This network produces output probs
I0924 03:32:23.288259 29954 net.cpp:274] Network initialization done.
I0924 03:32:23.288300 29948 net.cpp:141] Setting up probs
I0924 03:32:23.288316 29948 net.cpp:148] Top shape: 1 1 46168 (46168)
I0924 03:32:23.288321 29948 net.cpp:156] Memory required for data: 405756
I0924 03:32:23.288327 29948 net.cpp:219] probs does not need backward computation.
I0924 03:32:23.288332 29948 net.cpp:219] predict does not need backward computation.
I0924 03:32:23.288338 29948 net.cpp:219] lstm2 does not need backward computation.
I0924 03:32:23.288343 29948 net.cpp:219] concat does not need backward computation.
I0924 03:32:23.288352 29948 net.cpp:219] lstm1 does not need backward computation.
I0924 03:32:23.288359 29948 net.cpp:219] embedding does not need backward computation.
I0924 03:32:23.288363 29948 net.cpp:219] reshape_stage_indicator does not need backward computation.
I0924 03:32:23.288369 29948 net.cpp:219] reshape_frames does not need backward computation.
I0924 03:32:23.288373 29948 net.cpp:219] embed_encoder does not need backward computation.
I0924 03:32:23.288378 29948 net.cpp:219] cont_sentence_input_1_split does not need backward computation.
I0924 03:32:23.288384 29948 net.cpp:219] input does not need backward computation.
I0924 03:32:23.288388 29948 net.cpp:261] This network produces output probs
I0924 03:32:23.288403 29948 net.cpp:274] Network initialization done.
I0924 03:32:23.288919 29989 net.cpp:141] Setting up probs
I0924 03:32:23.288938 29989 net.cpp:148] Top shape: 1 1 46168 (46168)
I0924 03:32:23.288944 29989 net.cpp:156] Memory required for data: 405756
I0924 03:32:23.288949 29989 net.cpp:219] probs does not need backward computation.
I0924 03:32:23.288955 29989 net.cpp:219] predict does not need backward computation.
I0924 03:32:23.288960 29989 net.cpp:219] lstm2 does not need backward computation.
I0924 03:32:23.288967 29989 net.cpp:219] concat does not need backward computation.
I0924 03:32:23.288974 29989 net.cpp:219] lstm1 does not need backward computation.
I0924 03:32:23.288980 29989 net.cpp:219] embedding does not need backward computation.
I0924 03:32:23.288985 29989 net.cpp:219] reshape_stage_indicator does not need backward computation.
I0924 03:32:23.288990 29989 net.cpp:219] reshape_frames does not need backward computation.
I0924 03:32:23.288995 29989 net.cpp:219] embed_encoder does not need backward computation.
I0924 03:32:23.289000 29989 net.cpp:219] cont_sentence_input_1_split does not need backward computation.
I0924 03:32:23.289006 29989 net.cpp:219] input does not need backward computation.
I0924 03:32:23.289011 29989 net.cpp:261] This network produces output probs
I0924 03:32:23.289050 29989 net.cpp:274] Network initialization done.
I0924 03:32:23.289618 29956 net.cpp:141] Setting up conv1
I0924 03:32:23.289638 29956 net.cpp:148] Top shape: 10 96 55 55 (2904000)
I0924 03:32:23.289644 29956 net.cpp:156] Memory required for data: 17799480
I0924 03:32:23.289661 29956 layer_factory.hpp:77] Creating layer relu1
I0924 03:32:23.289680 29956 net.cpp:91] Creating Layer relu1
I0924 03:32:23.289685 29956 net.cpp:425] relu1 <- conv1
I0924 03:32:23.289693 29956 net.cpp:386] relu1 -> conv1 (in-place)
I0924 03:32:23.289942 29956 net.cpp:141] Setting up relu1
I0924 03:32:23.289954 29956 net.cpp:148] Top shape: 10 96 55 55 (2904000)
I0924 03:32:23.289959 29956 net.cpp:156] Memory required for data: 29415480
I0924 03:32:23.289965 29956 layer_factory.hpp:77] Creating layer pool1
I0924 03:32:23.289979 29956 net.cpp:91] Creating Layer pool1
I0924 03:32:23.289984 29956 net.cpp:425] pool1 <- conv1
I0924 03:32:23.289993 29956 net.cpp:399] pool1 -> pool1
I0924 03:32:23.290076 29956 net.cpp:141] Setting up pool1
I0924 03:32:23.290086 29956 net.cpp:148] Top shape: 10 96 27 27 (699840)
I0924 03:32:23.290091 29956 net.cpp:156] Memory required for data: 32214840
I0924 03:32:23.290096 29956 layer_factory.hpp:77] Creating layer norm1
I0924 03:32:23.290114 29956 net.cpp:91] Creating Layer norm1
I0924 03:32:23.290119 29956 net.cpp:425] norm1 <- pool1
I0924 03:32:23.290127 29956 net.cpp:399] norm1 -> norm1
I0924 03:32:23.290577 29956 net.cpp:141] Setting up norm1
I0924 03:32:23.290591 29956 net.cpp:148] Top shape: 10 96 27 27 (699840)
I0924 03:32:23.290611 29956 net.cpp:156] Memory required for data: 35014200
I0924 03:32:23.290616 29956 layer_factory.hpp:77] Creating layer conv2
I0924 03:32:23.290632 29956 net.cpp:91] Creating Layer conv2
I0924 03:32:23.290637 29956 net.cpp:425] conv2 <- norm1
I0924 03:32:23.290645 29956 net.cpp:399] conv2 -> conv2
I0924 03:32:23.294845 29956 net.cpp:141] Setting up conv2
I0924 03:32:23.294912 29956 net.cpp:148] Top shape: 10 256 27 27 (1866240)
I0924 03:32:23.294920 29956 net.cpp:156] Memory required for data: 42479160
I0924 03:32:23.294945 29956 layer_factory.hpp:77] Creating layer relu2
I0924 03:32:23.295442 29956 net.cpp:91] Creating Layer relu2
I0924 03:32:23.295459 29956 net.cpp:425] relu2 <- conv2
I0924 03:32:23.295474 29956 net.cpp:386] relu2 -> conv2 (in-place)
I0924 03:32:23.296222 29956 net.cpp:141] Setting up relu2
I0924 03:32:23.296252 29956 net.cpp:148] Top shape: 10 256 27 27 (1866240)
I0924 03:32:23.296260 29956 net.cpp:156] Memory required for data: 49944120
I0924 03:32:23.296269 29956 layer_factory.hpp:77] Creating layer pool2
I0924 03:32:23.296290 29956 net.cpp:91] Creating Layer pool2
I0924 03:32:23.296298 29956 net.cpp:425] pool2 <- conv2
I0924 03:32:23.296309 29956 net.cpp:399] pool2 -> pool2
I0924 03:32:23.296442 29956 net.cpp:141] Setting up pool2
I0924 03:32:23.296455 29956 net.cpp:148] Top shape: 10 256 13 13 (432640)
I0924 03:32:23.296463 29956 net.cpp:156] Memory required for data: 51674680
I0924 03:32:23.296470 29956 layer_factory.hpp:77] Creating layer norm2
I0924 03:32:23.296494 29956 net.cpp:91] Creating Layer norm2
I0924 03:32:23.296500 29956 net.cpp:425] norm2 <- pool2
I0924 03:32:23.296511 29956 net.cpp:399] norm2 -> norm2
I0924 03:32:23.296882 29956 net.cpp:141] Setting up norm2
I0924 03:32:23.296898 29956 net.cpp:148] Top shape: 10 256 13 13 (432640)
I0924 03:32:23.296905 29956 net.cpp:156] Memory required for data: 53405240
I0924 03:32:23.296912 29956 layer_factory.hpp:77] Creating layer conv3
I0924 03:32:23.296933 29956 net.cpp:91] Creating Layer conv3
I0924 03:32:23.296941 29956 net.cpp:425] conv3 <- norm2
I0924 03:32:23.296952 29956 net.cpp:399] conv3 -> conv3
I0924 03:32:23.309115 29944 net.cpp:141] Setting up predict
I0924 03:32:23.309172 29944 net.cpp:148] Top shape: 1 1 46168 (46168)
I0924 03:32:23.309180 29944 net.cpp:156] Memory required for data: 221084
I0924 03:32:23.309193 29944 layer_factory.hpp:77] Creating layer probs
I0924 03:32:23.309211 29944 net.cpp:91] Creating Layer probs
I0924 03:32:23.309217 29944 net.cpp:425] probs <- predict
I0924 03:32:23.309226 29944 net.cpp:399] probs -> probs
I0924 03:32:23.310497 29944 net.cpp:141] Setting up probs
I0924 03:32:23.310519 29944 net.cpp:148] Top shape: 1 1 46168 (46168)
I0924 03:32:23.310525 29944 net.cpp:156] Memory required for data: 405756
I0924 03:32:23.310530 29944 net.cpp:219] probs does not need backward computation.
I0924 03:32:23.310535 29944 net.cpp:219] predict does not need backward computation.
I0924 03:32:23.310540 29944 net.cpp:219] lstm2 does not need backward computation.
I0924 03:32:23.310546 29944 net.cpp:219] concat does not need backward computation.
I0924 03:32:23.310552 29944 net.cpp:219] lstm1 does not need backward computation.
I0924 03:32:23.310559 29944 net.cpp:219] embedding does not need backward computation.
I0924 03:32:23.310564 29944 net.cpp:219] reshape_stage_indicator does not need backward computation.
I0924 03:32:23.310569 29944 net.cpp:219] reshape_frames does not need backward computation.
I0924 03:32:23.310572 29944 net.cpp:219] embed_encoder does not need backward computation.
I0924 03:32:23.310577 29944 net.cpp:219] cont_sentence_input_1_split does not need backward computation.
I0924 03:32:23.310583 29944 net.cpp:219] input does not need backward computation.
I0924 03:32:23.310587 29944 net.cpp:261] This network produces output probs
I0924 03:32:23.310617 29944 net.cpp:274] Network initialization done.
I0924 03:32:23.340378 29956 net.cpp:141] Setting up conv3
I0924 03:32:23.340440 29956 net.cpp:148] Top shape: 10 384 13 13 (648960)
I0924 03:32:23.340448 29956 net.cpp:156] Memory required for data: 56001080
I0924 03:32:23.340481 29956 layer_factory.hpp:77] Creating layer relu3
I0924 03:32:23.340513 29956 net.cpp:91] Creating Layer relu3
I0924 03:32:23.340522 29956 net.cpp:425] relu3 <- conv3
I0924 03:32:23.340582 29956 net.cpp:386] relu3 -> conv3 (in-place)
I0924 03:32:23.341439 29956 net.cpp:141] Setting up relu3
I0924 03:32:23.341459 29956 net.cpp:148] Top shape: 10 384 13 13 (648960)
I0924 03:32:23.341469 29956 net.cpp:156] Memory required for data: 58596920
I0924 03:32:23.341475 29956 layer_factory.hpp:77] Creating layer conv4
I0924 03:32:23.341501 29956 net.cpp:91] Creating Layer conv4
I0924 03:32:23.341508 29956 net.cpp:425] conv4 <- conv3
I0924 03:32:23.341549 29956 net.cpp:399] conv4 -> conv4
I0924 03:32:23.381729 29956 net.cpp:141] Setting up conv4
I0924 03:32:23.381805 29956 net.cpp:148] Top shape: 10 384 13 13 (648960)
I0924 03:32:23.381816 29956 net.cpp:156] Memory required for data: 61192760
I0924 03:32:23.381850 29956 layer_factory.hpp:77] Creating layer relu4
I0924 03:32:23.381882 29956 net.cpp:91] Creating Layer relu4
I0924 03:32:23.381894 29956 net.cpp:425] relu4 <- conv4
I0924 03:32:23.381913 29956 net.cpp:386] relu4 -> conv4 (in-place)
I0924 03:32:23.382606 29956 net.cpp:141] Setting up relu4
I0924 03:32:23.382624 29956 net.cpp:148] Top shape: 10 384 13 13 (648960)
I0924 03:32:23.382632 29956 net.cpp:156] Memory required for data: 63788600
I0924 03:32:23.382640 29956 layer_factory.hpp:77] Creating layer conv5
I0924 03:32:23.382666 29956 net.cpp:91] Creating Layer conv5
I0924 03:32:23.382674 29956 net.cpp:425] conv5 <- conv4
I0924 03:32:23.382686 29956 net.cpp:399] conv5 -> conv5
I0924 03:32:23.390413 29956 net.cpp:141] Setting up conv5
I0924 03:32:23.390480 29956 net.cpp:148] Top shape: 10 256 13 13 (432640)
I0924 03:32:23.390489 29956 net.cpp:156] Memory required for data: 65519160
I0924 03:32:23.390532 29956 layer_factory.hpp:77] Creating layer relu5
I0924 03:32:23.390558 29956 net.cpp:91] Creating Layer relu5
I0924 03:32:23.390568 29956 net.cpp:425] relu5 <- conv5
I0924 03:32:23.390583 29956 net.cpp:386] relu5 -> conv5 (in-place)
I0924 03:32:23.391110 29956 net.cpp:141] Setting up relu5
I0924 03:32:23.391127 29956 net.cpp:148] Top shape: 10 256 13 13 (432640)
I0924 03:32:23.391135 29956 net.cpp:156] Memory required for data: 67249720
I0924 03:32:23.391144 29956 layer_factory.hpp:77] Creating layer pool5
I0924 03:32:23.391165 29956 net.cpp:91] Creating Layer pool5
I0924 03:32:23.391173 29956 net.cpp:425] pool5 <- conv5
I0924 03:32:23.391190 29956 net.cpp:399] pool5 -> pool5
I0924 03:32:23.391302 29956 net.cpp:141] Setting up pool5
I0924 03:32:23.391327 29956 net.cpp:148] Top shape: 10 256 6 6 (92160)
I0924 03:32:23.391335 29956 net.cpp:156] Memory required for data: 67618360
I0924 03:32:23.391345 29956 layer_factory.hpp:77] Creating layer fc6
I0924 03:32:23.391367 29956 net.cpp:91] Creating Layer fc6
I0924 03:32:23.391376 29956 net.cpp:425] fc6 <- pool5
I0924 03:32:23.391386 29956 net.cpp:399] fc6 -> fc6
I0924 03:32:23.458004 29962 net.cpp:141] Setting up predict
I0924 03:32:23.458083 29962 net.cpp:148] Top shape: 1 1 46168 (46168)
I0924 03:32:23.458093 29962 net.cpp:156] Memory required for data: 221084
I0924 03:32:23.458119 29962 layer_factory.hpp:77] Creating layer probs
I0924 03:32:23.458148 29962 net.cpp:91] Creating Layer probs
I0924 03:32:23.458164 29962 net.cpp:425] probs <- predict
I0924 03:32:23.458183 29962 net.cpp:399] probs -> probs
I0924 03:32:23.459542 29962 net.cpp:141] Setting up probs
I0924 03:32:23.459614 29962 net.cpp:148] Top shape: 1 1 46168 (46168)
I0924 03:32:23.459626 29962 net.cpp:156] Memory required for data: 405756
I0924 03:32:23.459645 29962 net.cpp:219] probs does not need backward computation.
I0924 03:32:23.459658 29962 net.cpp:219] predict does not need backward computation.
I0924 03:32:23.459687 29962 net.cpp:219] lstm2 does not need backward computation.
I0924 03:32:23.459698 29962 net.cpp:219] concat does not need backward computation.
I0924 03:32:23.459709 29962 net.cpp:219] lstm1 does not need backward computation.
I0924 03:32:23.459720 29962 net.cpp:219] embedding does not need backward computation.
I0924 03:32:23.459730 29962 net.cpp:219] reshape_stage_indicator does not need backward computation.
I0924 03:32:23.459740 29962 net.cpp:219] reshape_frames does not need backward computation.
I0924 03:32:23.459749 29962 net.cpp:219] embed_encoder does not need backward computation.
I0924 03:32:23.459759 29962 net.cpp:219] cont_sentence_input_1_split does not need backward computation.
I0924 03:32:23.459771 29962 net.cpp:219] input does not need backward computation.
I0924 03:32:23.459779 29962 net.cpp:261] This network produces output probs
I0924 03:32:23.459810 29962 net.cpp:274] Network initialization done.
I0924 03:32:23.511612 29956 net.cpp:141] Setting up fc6
I0924 03:32:23.511677 29956 net.cpp:148] Top shape: 10 4096 (40960)
I0924 03:32:23.511689 29956 net.cpp:156] Memory required for data: 67782200
I0924 03:32:23.511714 29956 layer_factory.hpp:77] Creating layer relu6
I0924 03:32:23.511747 29956 net.cpp:91] Creating Layer relu6
I0924 03:32:23.511766 29956 net.cpp:425] relu6 <- fc6
I0924 03:32:23.511782 29956 net.cpp:386] relu6 -> fc6 (in-place)
I0924 03:32:23.516721 29956 net.cpp:141] Setting up relu6
I0924 03:32:23.516777 29956 net.cpp:148] Top shape: 10 4096 (40960)
I0924 03:32:23.516785 29956 net.cpp:156] Memory required for data: 67946040
I0924 03:32:23.516799 29956 layer_factory.hpp:77] Creating layer drop6
I0924 03:32:23.516829 29956 net.cpp:91] Creating Layer drop6
I0924 03:32:23.516839 29956 net.cpp:425] drop6 <- fc6
I0924 03:32:23.516854 29956 net.cpp:386] drop6 -> fc6 (in-place)
I0924 03:32:23.517031 29956 net.cpp:141] Setting up drop6
I0924 03:32:23.517046 29956 net.cpp:148] Top shape: 10 4096 (40960)
I0924 03:32:23.517053 29956 net.cpp:156] Memory required for data: 68109880
I0924 03:32:23.517061 29956 layer_factory.hpp:77] Creating layer fc7
I0924 03:32:23.517076 29956 net.cpp:91] Creating Layer fc7
I0924 03:32:23.517084 29956 net.cpp:425] fc7 <- fc6
I0924 03:32:23.517102 29956 net.cpp:399] fc7 -> fc7
I0924 03:32:23.570338 29956 net.cpp:141] Setting up fc7
I0924 03:32:23.570403 29956 net.cpp:148] Top shape: 10 4096 (40960)
I0924 03:32:23.570410 29956 net.cpp:156] Memory required for data: 68273720
I0924 03:32:23.570430 29956 layer_factory.hpp:77] Creating layer relu7
I0924 03:32:23.570451 29956 net.cpp:91] Creating Layer relu7
I0924 03:32:23.570458 29956 net.cpp:425] relu7 <- fc7
I0924 03:32:23.570472 29956 net.cpp:386] relu7 -> fc7 (in-place)
I0924 03:32:23.571277 29956 net.cpp:141] Setting up relu7
I0924 03:32:23.571300 29956 net.cpp:148] Top shape: 10 4096 (40960)
I0924 03:32:23.571305 29956 net.cpp:156] Memory required for data: 68437560
I0924 03:32:23.571311 29956 layer_factory.hpp:77] Creating layer drop7
I0924 03:32:23.571326 29956 net.cpp:91] Creating Layer drop7
I0924 03:32:23.571331 29956 net.cpp:425] drop7 <- fc7
I0924 03:32:23.571343 29956 net.cpp:386] drop7 -> fc7 (in-place)
I0924 03:32:23.571408 29956 net.cpp:141] Setting up drop7
I0924 03:32:23.571418 29956 net.cpp:148] Top shape: 10 4096 (40960)
I0924 03:32:23.571422 29956 net.cpp:156] Memory required for data: 68601400
I0924 03:32:23.571426 29956 layer_factory.hpp:77] Creating layer fc8
I0924 03:32:23.571460 29956 net.cpp:91] Creating Layer fc8
I0924 03:32:23.571466 29956 net.cpp:425] fc8 <- fc7
I0924 03:32:23.571475 29956 net.cpp:399] fc8 -> fc8
I0924 03:32:23.585753 29956 net.cpp:141] Setting up fc8
I0924 03:32:23.585813 29956 net.cpp:148] Top shape: 10 1000 (10000)
I0924 03:32:23.585822 29956 net.cpp:156] Memory required for data: 68641400
I0924 03:32:23.585844 29956 layer_factory.hpp:77] Creating layer prob
I0924 03:32:23.585866 29956 net.cpp:91] Creating Layer prob
I0924 03:32:23.585877 29956 net.cpp:425] prob <- fc8
I0924 03:32:23.585891 29956 net.cpp:399] prob -> prob
I0924 03:32:23.588840 29956 net.cpp:141] Setting up prob
I0924 03:32:23.588898 29956 net.cpp:148] Top shape: 10 1000 (10000)
I0924 03:32:23.588908 29956 net.cpp:156] Memory required for data: 68681400
I0924 03:32:23.588922 29956 net.cpp:219] prob does not need backward computation.
I0924 03:32:23.588933 29956 net.cpp:219] fc8 does not need backward computation.
I0924 03:32:23.588949 29956 net.cpp:219] drop7 does not need backward computation.
I0924 03:32:23.588958 29956 net.cpp:219] relu7 does not need backward computation.
…
