…
Java HotSpot(TM) 64-Bit Server VM warning: You have loaded library /tmp/cvld2889816528010785242/libopencv_java310.xine1.so which might have disabled stack guard. The VM will try to fix the stack guard now.
It's highly recommended that you fix the library with 'execstack -c <libfile>', or link it with '-z noexecstack'.
WARNING: Logging before InitGoogleLogging() is written to STDERR
I0714 21:31:34.245297 31372 net.cpp:49] Initializing net from parameters: 
name: "GoogleNet"
state {
  phase: TEST
}
layer {
  name: "data"
  type: "Input"
  top: "data"
  input_param {
    shape {
      dim: 10
      dim: 3
      dim: 224
      dim: 224
    }
  }
}
layer {
  name: "conv1/7x7_s2"
  type: "Convolution"
  bottom: "data"
  top: "conv1/7x7_s2"
  param {
    lr_mult: 1
    decay_mult: 1
  }
  param {
    lr_mult: 2
    decay_mult: 0
  }
  convolution_param {
    num_output: 64
    pad: 3
    kernel_size: 7
    stride: 2
    weight_filler {
      type: "xavier"
      std: 0.1
    }
    bias_filler {
      type: "constant"
      value: 0.2
    }
  }
}
layer {
  name: "conv1/relu_7x7"
  type: "ReLU"
  bottom: "conv1/7x7_s2"
  top: "conv1/7x7_s2"
}
layer {
  name: "pool1/3x3_s2"
  type: "Pooling"
  bottom: "conv1/7x7_s2"
  top: "pool1/3x3_s2"
  pooling_param {
    pool: MAX
    kernel_size: 3
    stride: 2
  }
}
layer {
  name: "pool1/norm1"
  type: "LRN"
  bottom: "pool1/3x3_s2"
  top: "pool1/norm1"
  lrn_param {
    local_size: 5
    alpha: 0.0001
    beta: 0.75
  }
}
layer {
  name: "conv2/3x3_reduce"
  type: "Convolution"
  bottom: "pool1/norm1"
  top: "conv2/3x3_reduce"
  param {
    lr_mult: 1
    decay_mult: 1
  }
  param {
    lr_mult: 2
    decay_mult: 0
  }
  convolution_param {
    num_output: 64
    kernel_size: 1
    weight_filler {
      type: "xavier"
      std: 0.1
    }
    bias_filler {
      type: "constant"
      value: 0.2
    }
  }
}
layer {
  name: "conv2/relu_3x3_reduce"
  type: "ReLU"
  bottom: "conv2/3x3_reduce"
  top: "conv2/3x3_reduce"
}
layer {
  name: "conv2/3x3"
  type: "Convolution"
  bottom: "conv2/3x3_reduce"
  top: "conv2/3x3"
  param {
    lr_mult: 1
    decay_mult: 1
  }
  param {
    lr_mult: 2
    decay_mult: 0
  }
  convolution_param {
    num_output: 192
    pad: 1
    kernel_size: 3
    weight_filler {
      type: "xavier"
      std: 0.03
    }
    bias_filler {
      type: "constant"
      value: 0.2
    }
  }
}
layer {
  name: "conv2/relu_3x3"
  type: "ReLU"
  bottom: "conv2/3x3"
  top: "conv2/3x3"
}
layer {
  name: "conv2/norm2"
  type: "LRN"
  bottom: "conv2/3x3"
  top: "conv2/norm2"
  lrn_param {
    local_size: 5
    alpha: 0.0001
    beta: 0.75
  }
}
layer {
  name: "pool2/3x3_s2"
  type: "Pooling"
  bottom: "conv2/norm2"
  top: "pool2/3x3_s2"
  pooling_param {
    pool: MAX
    kernel_size: 3
    stride: 2
  }
}
layer {
  name: "inception_3a/1x1"
  type: "Convolution"
  bottom: "pool2/3x3_s2"
  top: "inception_3a/1x1"
  param {
    lr_mult: 1
    decay_mult: 1
  }
  param {
    lr_mult: 2
    decay_mult: 0
  }
  convolution_param {
    num_output: 64
    kernel_size: 1
    weight_filler {
      type: "xavier"
      std: 0.03
    }
    bias_filler {
      type: "constant"
      value: 0.2
    }
  }
}
layer {
  name: "inception_3a/relu_1x1"
  type: "ReLU"
  bottom: "inception_3a/1x1"
  top: "inception_3a/1x1"
}
layer {
  name: "inception_3a/3x3_reduce"
  type: "Convolution"
  bottom: "pool2/3x3_s2"
  top: "inception_3a/3x3_reduce"
  param {
    lr_mult: 1
    decay_mult: 1
  }
  param {
    lr_mult: 2
    decay_mult: 0
  }
  convolution_param {
    num_output: 96
    kernel_size: 1
    weight_filler {
      type: "xavier"
      std: 0.09
    }
    bias_filler {
      type: "constant"
      value: 0.2
    }
  }
}
layer {
  name: "inception_3a/relu_3x3_reduce"
  type: "ReLU"
  bottom: "inception_3a/3x3_reduce"
  top: "inception_3a/3x3_reduce"
}
layer {
  name: "inception_3a/3x3"
  type: "Convolution"
  bottom: "inception_3a/3x3_reduce"
  top: "inception_3a/3x3"
  param {
    lr_mult: 1
    decay_mult: 1
  }
  param {
    lr_mult: 2
    decay_mult: 0
  }
  convolution_param {
    num_output: 128
    pad: 1
    kernel_size: 3
    weight_filler {
      type: "xavier"
      std: 0.03
    }
    bias_filler {
      type: "constant"
      value: 0.2
    }
  }
}
layer {
  name: "inception_3a/relu_3x3"
  type: "ReLU"
  bottom: "inception_3a/3x3"
  top: "inception_3a/3x3"
}
layer {
  name: "inception_3a/5x5_reduce"
  type: "Convolution"
  bottom: "pool2/3x3_s2"
  top: "inception_3a/5x5_reduce"
  param {
    lr_mult: 1
    decay_mult: 1
  }
  param {
    lr_mult: 2
    decay_mult: 0
  }
  convolution_param {
    num_output: 16
    kernel_size: 1
    weight_filler {
      type: "xavier"
      std: 0.2
    }
    bias_filler {
      type: "constant"
      value: 0.2
    }
  }
}
layer {
  name: "inception_3a/relu_5x5_reduce"
  type: "ReLU"
  bottom: "inception_3a/5x5_reduce"
  top: "inception_3a/5x5_reduce"
}
layer {
  name: "inception_3a/5x5"
  type: "Convolution"
  bottom: "inception_3a/5x5_reduce"
  top: "inception_3a/5x5"
  param {
    lr_mult: 1
    decay_mult: 1
  }
  param {
    lr_mult: 2
    decay_mult: 0
  }
  convolution_param {
    num_output: 32
    pad: 2
    kernel_size: 5
    weight_filler {
      type: "xavier"
      std: 0.03
    }
    bias_filler {
      type: "constant"
      value: 0.2
    }
  }
}
layer {
  name: "inception_3a/relu_5x5"
  type: "ReLU"
  bottom: "inception_3a/5x5"
  top: "inception_3a/5x5"
}
layer {
  name: "inception_3a/pool"
  type: "Pooling"
  bottom: "pool2/3x3_s2"
  top: "inception_3a/pool"
  pooling_param {
    pool: MAX
    kernel_size: 3
    stride: 1
    pad: 1
  }
}
layer {
  name: "inception_3a/pool_proj"
  type: "Convolution"
  bottom: "inception_3a/pool"
  top: "inception_3a/pool_proj"
  param {
    lr_mult: 1
    decay_mult: 1
  }
  param {
    lr_mult: 2
    decay_mult: 0
  }
  convolution_param {
    num_output: 32
    kernel_size: 1
    weight_filler {
      type: "xavier"
      std: 0.1
    }
    bias_filler {
      type: "constant"
      value: 0.2
    }
  }
}
layer {
  name: "inception_3a/relu_pool_proj"
  type: "ReLU"
  bottom: "inception_3a/pool_proj"
  top: "inception_3a/pool_proj"
}
layer {
  name: "inception_3a/output"
  type: "Concat"
  bottom: "inception_3a/1x1"
  bottom: "inception_3a/3x3"
  bottom: "inception_3a/5x5"
  bottom: "inception_3a/pool_proj"
  top: "inception_3a/output"
}
layer {
  name: "inception_3b/1x1"
  type: "Convolution"
  bottom: "inception_3a/output"
  top: "inception_3b/1x1"
  param {
    lr_mult: 1
    decay_mult: 1
  }
  param {
    lr_mult: 2
    decay_mult: 0
  }
  convolution_param {
    num_output: 128
    kernel_size: 1
    weight_filler {
      type: "xavier"
      std: 0.03
    }
    bias_filler {
      type: "constant"
      value: 0.2
    }
  }
}
layer {
  name: "inception_3b/relu_1x1"
  type: "ReLU"
  bottom: "inception_3b/1x1"
  top: "inception_3b/1x1"
}
layer {
  name: "inception_3b/3x3_reduce"
  type: "Convolution"
  bottom: "inception_3a/output"
  top: "inception_3b/3x3_reduce"
  param {
    lr_mult: 1
    decay_mult: 1
  }
  param {
    lr_mult: 2
    decay_mult: 0
  }
  convolution_param {
    num_output: 128
    kernel_size: 1
    weight_filler {
      type: "xavier"
      std: 0.09
    }
    bias_filler {
      type: "constant"
      value: 0.2
    }
  }
}
layer {
  name: "inception_3b/relu_3x3_reduce"
  type: "ReLU"
  bottom: "inception_3b/3x3_reduce"
  top: "inception_3b/3x3_reduce"
}
layer {
  name: "inception_3b/3x3"
  type: "Convolution"
  bottom: "inception_3b/3x3_reduce"
  top: "inception_3b/3x3"
  param {
    lr_mult: 1
    decay_mult: 1
  }
  param {
    lr_mult: 2
    decay_mult: 0
  }
  convolution_param {
    num_output: 192
    pad: 1
    kernel_size: 3
    weight_filler {
      type: "xavier"
      std: 0.03
    }
    bias_filler {
      type: "constant"
      value: 0.2
    }
  }
}
layer {
  name: "inception_3b/relu_3x3"
  type: "ReLU"
  bottom: "inception_3b/3x3"
  top: "inception_3b/3x3"
}
layer {
  name: "inception_3b/5x5_reduce"
  type: "Convolution"
  bottom: "inception_3a/output"
  top: "inception_3b/5x5_reduce"
  param {
    lr_mult: 1
    decay_mult: 1
  }
  param {
    lr_mult: 2
    decay_mult: 0
  }
  convolution_param {
    num_output: 32
    kernel_size: 1
    weight_filler {
      type: "xavier"
      std: 0.2
    }
    bias_filler {
      type: "constant"
      value: 0.2
    }
  }
}
layer {
  name: "inception_3b/relu_5x5_reduce"
  type: "ReLU"
  bottom: "inception_3b/5x5_reduce"
  top: "inception_3b/5x5_reduce"
}
layer {
  name: "inception_3b/5x5"
  type: "Convolution"
  bottom: "inception_3b/5x5_reduce"
  top: "inception_3b/5x5"
  param {
    lr_mult: 1
    decay_mult: 1
  }
  param {
    lr_mult: 2
    decay_mult: 0
  }
  convolution_param {
    num_output: 96
    pad: 2
    kernel_size: 5
    weight_filler {
      type: "xavier"
      std: 0.03
    }
    bias_filler {
      type: "constant"
      value: 0.2
    }
  }
}
layer {
  name: "inception_3b/relu_5x5"
  type: "ReLU"
  bottom: "inception_3b/5x5"
  top: "inception_3b/5x5"
}
layer {
  name: "inception_3b/pool"
  type: "Pooling"
  bottom: "inception_3a/output"
  top: "inception_3b/pool"
  pooling_param {
    pool: MAX
    kernel_size: 3
    stride: 1
    pad: 1
  }
}
layer {
  name: "inception_3b/pool_proj"
  type: "Convolution"
  bottom: "inception_3b/pool"
  top: "inception_3b/pool_proj"
  param {
    lr_mult: 1
    decay_mult: 1
  }
  param {
    lr_mult: 2
    decay_mult: 0
  }
  convolution_param {
    num_output: 64
    kernel_size: 1
    weight_filler {
      type: "xavier"
      std: 0.1
    }
    bias_filler {
      type: "constant"
      value: 0.2
    }
  }
}
layer {
  name: "inception_3b/relu_pool_proj"
  type: "ReLU"
  bottom: "inception_3b/pool_proj"
  top: "inception_3b/pool_proj"
}
layer {
  name: "inception_3b/output"
  type: "Concat"
  bottom: "inception_3b/1x1"
  bottom: "inception_3b/3x3"
  bottom: "inception_3b/5x5"
  bottom: "inception_3b/pool_proj"
  top: "inception_3b/output"
}
layer {
  name: "pool3/3x3_s2"
  type: "Pooling"
  bottom: "inception_3b/output"
  top: "pool3/3x3_s2"
  pooling_param {
    pool: MAX
    kernel_size: 3
    stride: 2
  }
}
layer {
  name: "inception_4a/1x1"
  type: "Convolution"
  bottom: "pool3/3x3_s2"
  top: "inception_4a/1x1"
  param {
    lr_mult: 1
    decay_mult: 1
  }
  param {
    lr_mult: 2
    decay_mult: 0
  }
  convolution_param {
    num_output: 192
    kernel_size: 1
    weight_filler {
      type: "xavier"
      std: 0.03
    }
    bias_filler {
      type: "constant"
      value: 0.2
    }
  }
}
layer {
  name: "inception_4a/relu_1x1"
  type: "ReLU"
  bottom: "inception_4a/1x1"
  top: "inception_4a/1x1"
}
layer {
  name: "inception_4a/3x3_reduce"
  type: "Convolution"
  bottom: "pool3/3x3_s2"
  top: "inception_4a/3x3_reduce"
  param {
    lr_mult: 1
    decay_mult: 1
  }
  param {
    lr_mult: 2
    decay_mult: 0
  }
  convolution_param {
    num_output: 96
    kernel_size: 1
    weight_filler {
      type: "xavier"
      std: 0.09
    }
    bias_filler {
      type: "constant"
      value: 0.2
    }
  }
}
layer {
  name: "inception_4a/relu_3x3_reduce"
  type: "ReLU"
  bottom: "inception_4a/3x3_reduce"
  top: "inception_4a/3x3_reduce"
}
layer {
  name: "inception_4a/3x3"
  type: "Convolution"
  bottom: "inception_4a/3x3_reduce"
  top: "inception_4a/3x3"
  param {
    lr_mult: 1
    decay_mult: 1
  }
  param {
    lr_mult: 2
    decay_mult: 0
  }
  convolution_param {
    num_output: 208
    pad: 1
    kernel_size: 3
    weight_filler {
      type: "xavier"
      std: 0.03
    }
    bias_filler {
      type: "constant"
      value: 0.2
    }
  }
}
layer {
  name: "inception_4a/relu_3x3"
  type: "ReLU"
  bottom: "inception_4a/3x3"
  top: "inception_4a/3x3"
}
layer {
  name: "inception_4a/5x5_reduce"
  type: "Convolution"
  bottom: "pool3/3x3_s2"
  top: "inception_4a/5x5_reduce"
  param {
    lr_mult: 1
    decay_mult: 1
  }
  param {
    lr_mult: 2
    decay_mult: 0
  }
  convolution_param {
    num_output: 16
    kernel_size: 1
    weight_filler {
      type: "xavier"
      std: 0.2
    }
    bias_filler {
      type: "constant"
      value: 0.2
    }
  }
}
layer {
  name: "inception_4a/relu_5x5_reduce"
  type: "ReLU"
  bottom: "inception_4a/5x5_reduce"
  top: "inception_4a/5x5_reduce"
}
layer {
  name: "inception_4a/5x5"
  type: "Convolution"
  bottom: "inception_4a/5x5_reduce"
  top: "inception_4a/5x5"
  param {
    lr_mult: 1
    decay_mult: 1
  }
  param {
    lr_mult: 2
    decay_mult: 0
  }
  convolution_param {
    num_output: 48
    pad: 2
    kernel_size: 5
    weight_filler {
      type: "xavier"
      std: 0.03
    }
    bias_filler {
      type: "constant"
      value: 0.2
    }
  }
}
layer {
  name: "inception_4a/relu_5x5"
  type: "ReLU"
  bottom: "inception_4a/5x5"
  top: "inception_4a/5x5"
}
layer {
  name: "inception_4a/pool"
  type: "Pooling"
  bottom: "pool3/3x3_s2"
  top: "inception_4a/pool"
  pooling_param {
    pool: MAX
    kernel_size: 3
    stride: 1
    pad: 1
  }
}
layer {
  name: "inception_4a/pool_proj"
  type: "Convolution"
  bottom: "inception_4a/pool"
  top: "inception_4a/pool_proj"
  param {
    lr_mult: 1
    decay_mult: 1
  }
  param {
    lr_mult: 2
    decay_mult: 0
  }
  convolution_param {
    num_output: 64
    kernel_size: 1
    weight_filler {
      type: "xavier"
      std: 0.1
    }
    bias_filler {
      type: "constant"
      value: 0.2
    }
  }
}
layer {
  name: "inception_4a/relu_pool_proj"
  type: "ReLU"
  bottom: "inception_4a/pool_proj"
  top: "inception_4a/pool_proj"
}
layer {
  name: "inception_4a/output"
  type: "Concat"
  bottom: "inception_4a/1x1"
  bottom: "inception_4a/3x3"
  bottom: "inception_4a/5x5"
  bottom: "inception_4a/pool_proj"
  top: "inception_4a/output"
}
layer {
  name: "inception_4b/1x1"
  type: "Convolution"
  bottom: "inception_4a/output"
  top: "inception_4b/1x1"
  param {
    lr_mult: 1
    decay_mult: 1
  }
  param {
    lr_mult: 2
    decay_mult: 0
  }
  convolution_param {
    num_output: 160
    kernel_size: 1
    weight_filler {
      type: "xavier"
      std: 0.03
    }
    bias_filler {
      type: "constant"
      value: 0.2
    }
  }
}
layer {
  name: "inception_4b/relu_1x1"
  type: "ReLU"
  bottom: "inception_4b/1x1"
  top: "inception_4b/1x1"
}
layer {
  name: "inception_4b/3x3_reduce"
  type: "Convolution"
  bottom: "inception_4a/output"
  top: "inception_4b/3x3_reduce"
  param {
    lr_mult: 1
    decay_mult: 1
  }
  param {
    lr_mult: 2
    decay_mult: 0
  }
  convolution_param {
    num_output: 112
    kernel_size: 1
    weight_filler {
      type: "xavier"
      std: 0.09
    }
    bias_filler {
      type: "constant"
      value: 0.2
    }
  }
}
layer {
  name: "inception_4b/relu_3x3_reduce"
  type: "ReLU"
  bottom: "inception_4b/3x3_reduce"
  top: "inception_4b/3x3_reduce"
}
layer {
  name: "inception_4b/3x3"
  type: "Convolution"
  bottom: "inception_4b/3x3_reduce"
  top: "inception_4b/3x3"
  param {
    lr_mult: 1
    decay_mult: 1
  }
  param {
    lr_mult: 2
    decay_mult: 0
  }
  convolution_param {
    num_output: 224
    pad: 1
    kernel_size: 3
    weight_filler {
      type: "xavier"
      std: 0.03
    }
    bias_filler {
      type: "constant"
      value: 0.2
    }
  }
}
layer {
  name: "inception_4b/relu_3x3"
  type: "ReLU"
  bottom: "inception_4b/3x3"
  top: "inception_4b/3x3"
}
layer {
  name: "inception_4b/5x5_reduce"
  type: "Convolution"
  bottom: "inception_4a/output"
  top: "inception_4b/5x5_reduce"
  param {
    lr_mult: 1
    decay_mult: 1
  }
  param {
    lr_mult: 2
    decay_mult: 0
  }
  convolution_param {
    num_output: 24
    kernel_size: 1
    weight_filler {
      type: "xavier"
      std: 0.2
    }
    bias_filler {
      type: "constant"
      value: 0.2
    }
  }
}
layer {
  name: "inception_4b/relu_5x5_reduce"
  type: "ReLU"
  bottom: "inception_4b/5x5_reduce"
  top: "inception_4b/5x5_reduce"
}
layer {
  name: "inception_4b/5x5"
  type: "Convolution"
  bottom: "inception_4b/5x5_reduce"
  top: "inception_4b/5x5"
  param {
    lr_mult: 1
    decay_mult: 1
  }
  param {
    lr_mult: 2
    decay_mult: 0
  }
  convolution_param {
    num_output: 64
    pad: 2
    kernel_size: 5
    weight_filler {
      type: "xavier"
      std: 0.03
    }
    bias_filler {
      type: "constant"
      value: 0.2
    }
  }
}
layer {
  name: "inception_4b/relu_5x5"
  type: "ReLU"
  bottom: "inception_4b/5x5"
  top: "inception_4b/5x5"
}
layer {
  name: "inception_4b/pool"
  type: "Pooling"
  bottom: "inception_4a/output"
  top: "inception_4b/pool"
  pooling_param {
    pool: MAX
    kernel_size: 3
    stride: 1
    pad: 1
  }
}
layer {
  name: "inception_4b/pool_proj"
  type: "Convolution"
  bottom: "inception_4b/pool"
  top: "inception_4b/pool_proj"
  param {
    lr_mult: 1
    decay_mult: 1
  }
  param {
    lr_mult: 2
    decay_mult: 0
  }
  convolution_param {
    num_output: 64
    kernel_size: 1
    weight_filler {
      type: "xavier"
      std: 0.1
    }
    bias_filler {
      type: "constant"
      value: 0.2
    }
  }
}
layer {
  name: "inception_4b/relu_pool_proj"
  type: "ReLU"
  bottom: "inception_4b/pool_proj"
  top: "inception_4b/pool_proj"
}
layer {
  name: "inception_4b/output"
  type: "Concat"
  bottom: "inception_4b/1x1"
  bottom: "inception_4b/3x3"
  bottom: "inception_4b/5x5"
  bottom: "inception_4b/pool_proj"
  top: "inception_4b/output"
}
layer {
  name: "inception_4c/1x1"
  type: "Convolution"
  bottom: "inception_4b/output"
  top: "inception_4c/1x1"
  param {
    lr_mult: 1
    decay_mult: 1
  }
  param {
    lr_mult: 2
    decay_mult: 0
  }
  convolution_param {
    num_output: 128
    kernel_size: 1
    weight_filler {
      type: "xavier"
      std: 0.03
    }
    bias_filler {
      type: "constant"
      value: 0.2
    }
  }
}
layer {
  name: "inception_4c/relu_1x1"
  type: "ReLU"
  bottom: "inception_4c/1x1"
  top: "inception_4c/1x1"
}
layer {
  name: "inception_4c/3x3_reduce"
  type: "Convolution"
  bottom: "inception_4b/output"
  top: "inception_4c/3x3_reduce"
  param {
    lr_mult: 1
    decay_mult: 1
  }
  param {
    lr_mult: 2
    decay_mult: 0
  }
  convolution_param {
    num_output: 128
    kernel_size: 1
    weight_filler {
      type: "xavier"
      std: 0.09
    }
    bias_filler {
      type: "constant"
      value: 0.2
    }
  }
}
layer {
  name: "inception_4c/relu_3x3_reduce"
  type: "ReLU"
  bottom: "inception_4c/3x3_reduce"
  top: "inception_4c/3x3_reduce"
}
layer {
  name: "inception_4c/3x3"
  type: "Convolution"
  bottom: "inception_4c/3x3_reduce"
  top: "inception_4c/3x3"
  param {
    lr_mult: 1
    decay_mult: 1
  }
  param {
    lr_mult: 2
    decay_mult: 0
  }
  convolution_param {
    num_output: 256
    pad: 1
    kernel_size: 3
    weight_filler {
      type: "xavier"
      std: 0.03
    }
    bias_filler {
      type: "constant"
      value: 0.2
    }
  }
}
layer {
  name: "inception_4c/relu_3x3"
  type: "ReLU"
  bottom: "inception_4c/3x3"
  top: "inception_4c/3x3"
}
layer {
  name: "inception_4c/5x5_reduce"
  type: "Convolution"
  bottom: "inception_4b/output"
  top: "inception_4c/5x5_reduce"
  param {
    lr_mult: 1
    decay_mult: 1
  }
  param {
    lr_mult: 2
    decay_mult: 0
  }
  convolution_param {
    num_output: 24
    kernel_size: 1
    weight_filler {
      type: "xavier"
      std: 0.2
    }
    bias_filler {
      type: "constant"
      value: 0.2
    }
  }
}
layer {
  name: "inception_4c/relu_5x5_reduce"
  type: "ReLU"
  bottom: "inception_4c/5x5_reduce"
  top: "inception_4c/5x5_reduce"
}
layer {
  name: "inception_4c/5x5"
  type: "Convolution"
  bottom: "inception_4c/5x5_reduce"
  top: "inception_4c/5x5"
  param {
    lr_mult: 1
    decay_mult: 1
  }
  param {
    lr_mult: 2
    decay_mult: 0
  }
  convolution_param {
    num_output: 64
    pad: 2
    kernel_size: 5
    weight_filler {
      type: "xavier"
      std: 0.03
    }
    bias_filler {
      type: "constant"
      value: 0.2
    }
  }
}
layer {
  name: "inception_4c/relu_5x5"
  type: "ReLU"
  bottom: "inception_4c/5x5"
  top: "inception_4c/5x5"
}
layer {
  name: "inception_4c/pool"
  type: "Pooling"
  bottom: "inception_4b/output"
  top: "inception_4c/pool"
  pooling_param {
    pool: MAX
    kernel_size: 3
    stride: 1
    pad: 1
  }
}
layer {
  name: "inception_4c/pool_proj"
  type: "Convolution"
  bottom: "inception_4c/pool"
  top: "inception_4c/pool_proj"
  param {
    lr_mult: 1
    decay_mult: 1
  }
  param {
    lr_mult: 2
    decay_mult: 0
  }
  convolution_param {
    num_output: 64
    kernel_size: 1
    weight_filler {
      type: "xavier"
      std: 0.1
    }
    bias_filler {
      type: "constant"
      value: 0.2
    }
  }
}
layer {
  name: "inception_4c/relu_pool_proj"
  type: "ReLU"
  bottom: "inception_4c/pool_proj"
  top: "inception_4c/pool_proj"
}
layer {
  name: "inception_4c/output"
  type: "Concat"
  bottom: "inception_4c/1x1"
  bottom: "inception_4c/3x3"
  bottom: "inception_4c/5x5"
  bottom: "inception_4c/pool_proj"
  top: "inception_4c/output"
}
layer {
  name: "inception_4d/1x1"
  type: "Convolution"
  bottom: "inception_4c/output"
  top: "inception_4d/1x1"
  param {
    lr_mult: 1
    decay_mult: 1
  }
  param {
    lr_mult: 2
    decay_mult: 0
  }
  convolution_param {
    num_output: 112
    kernel_size: 1
    weight_filler {
      type: "xavier"
      std: 0.03
    }
    bias_filler {
      type: "constant"
      value: 0.2
    }
  }
}
layer {
  name: "inception_4d/relu_1x1"
  type: "ReLU"
  bottom: "inception_4d/1x1"
  top: "inception_4d/1x1"
}
layer {
  name: "inception_4d/3x3_reduce"
  type: "Convolution"
  bottom: "inception_4c/output"
  top: "inception_4d/3x3_reduce"
  param {
    lr_mult: 1
    decay_mult: 1
  }
  param {
    lr_mult: 2
    decay_mult: 0
  }
  convolution_param {
    num_output: 144
    kernel_size: 1
    weight_filler {
      type: "xavier"
      std: 0.09
    }
    bias_filler {
      type: "constant"
      value: 0.2
    }
  }
}
layer {
  name: "inception_4d/relu_3x3_reduce"
  type: "ReLU"
  bottom: "inception_4d/3x3_reduce"
  top: "inception_4d/3x3_reduce"
}
layer {
  name: "inception_4d/3x3"
  type: "Convolution"
  bottom: "inception_4d/3x3_reduce"
  top: "inception_4d/3x3"
  param {
    lr_mult: 1
    decay_mult: 1
  }
  param {
    lr_mult: 2
    decay_mult: 0
  }
  convolution_param {
    num_output: 288
    pad: 1
    kernel_size: 3
    weight_filler {
      type: "xavier"
      std: 0.03
    }
    bias_filler {
      type: "constant"
      value: 0.2
    }
  }
}
layer {
  name: "inception_4d/relu_3x3"
  type: "ReLU"
  bottom: "inception_4d/3x3"
  top: "inception_4d/3x3"
}
layer {
  name: "inception_4d/5x5_reduce"
  type: "Convolution"
  bottom: "inception_4c/output"
  top: "inception_4d/5x5_reduce"
  param {
    lr_mult: 1
    decay_mult: 1
  }
  param {
    lr_mult: 2
    decay_mult: 0
  }
  convolution_param {
    num_output: 32
    kernel_size: 1
    weight_filler {
      type: "xavier"
      std: 0.2
    }
    bias_filler {
      type: "constant"
      value: 0.2
    }
  }
}
layer {
  name: "inception_4d/relu_5x5_reduce"
  type: "ReLU"
  bottom: "inception_4d/5x5_reduce"
  top: "inception_4d/5x5_reduce"
}
layer {
  name: "inception_4d/5x5"
  type: "Convolution"
  bottom: "inception_4d/5x5_reduce"
  top: "inception_4d/5x5"
  param {
    lr_mult: 1
    decay_mult: 1
  }
  param {
    lr_mult: 2
    decay_mult: 0
  }
  convolution_param {
    num_output: 64
    pad: 2
    kernel_size: 5
    weight_filler {
      type: "xavier"
      std: 0.03
    }
    bias_filler {
      type: "constant"
      value: 0.2
    }
  }
}
layer {
  name: "inception_4d/relu_5x5"
  type: "ReLU"
  bottom: "inception_4d/5x5"
  top: "inception_4d/5x5"
}
layer {
  name: "inception_4d/pool"
  type: "Pooling"
  bottom: "inception_4c/output"
  top: "inception_4d/pool"
  pooling_param {
    pool: MAX
    kernel_size: 3
    stride: 1
    pad: 1
  }
}
layer {
  name: "inception_4d/pool_proj"
  type: "Convolution"
  bottom: "inception_4d/pool"
  top: "inception_4d/pool_proj"
  param {
    lr_mult: 1
    decay_mult: 1
  }
  param {
    lr_mult: 2
    decay_mult: 0
  }
  convolution_param {
    num_output: 64
    kernel_size: 1
    weight_filler {
      type: "xavier"
      std: 0.1
    }
    bias_filler {
      type: "constant"
      value: 0.2
    }
  }
}
layer {
  name: "inception_4d/relu_pool_proj"
  type: "ReLU"
  bottom: "inception_4d/pool_proj"
  top: "inception_4d/pool_proj"
}
layer {
  name: "inception_4d/output"
  type: "Concat"
  bottom: "inception_4d/1x1"
  bottom: "inception_4d/3x3"
  bottom: "inception_4d/5x5"
  bottom: "inception_4d/pool_proj"
  top: "inception_4d/output"
}
layer {
  name: "inception_4e/1x1"
  type: "Convolution"
  bottom: "inception_4d/output"
  top: "inception_4e/1x1"
  param {
    lr_mult: 1
    decay_mult: 1
  }
  param {
    lr_mult: 2
    decay_mult: 0
  }
  convolution_param {
    num_output: 256
    kernel_size: 1
    weight_filler {
      type: "xavier"
      std: 0.03
    }
    bias_filler {
      type: "constant"
      value: 0.2
    }
  }
}
layer {
  name: "inception_4e/relu_1x1"
  type: "ReLU"
  bottom: "inception_4e/1x1"
  top: "inception_4e/1x1"
}
layer {
  name: "inception_4e/3x3_reduce"
  type: "Convolution"
  bottom: "inception_4d/output"
  top: "inception_4e/3x3_reduce"
  param {
    lr_mult: 1
    decay_mult: 1
  }
  param {
    lr_mult: 2
    decay_mult: 0
  }
  convolution_param {
    num_output: 160
    kernel_size: 1
    weight_filler {
      type: "xavier"
      std: 0.09
    }
    bias_filler {
      type: "constant"
      value: 0.2
    }
  }
}
layer {
  name: "inception_4e/relu_3x3_reduce"
  type: "ReLU"
  bottom: "inception_4e/3x3_reduce"
  top: "inception_4e/3x3_reduce"
}
layer {
  name: "inception_4e/3x3"
  type: "Convolution"
  bottom: "inception_4e/3x3_reduce"
  top: "inception_4e/3x3"
  param {
    lr_mult: 1
    decay_mult: 1
  }
  param {
    lr_mult: 2
    decay_mult: 0
  }
  convolution_param {
    num_output: 320
    pad: 1
    kernel_size: 3
    weight_filler {
      type: "xavier"
      std: 0.03
    }
    bias_filler {
      type: "constant"
      value: 0.2
    }
  }
}
layer {
  name: "inception_4e/relu_3x3"
  type: "ReLU"
  bottom: "inception_4e/3x3"
  top: "inception_4e/3x3"
}
layer {
  name: "inception_4e/5x5_reduce"
  type: "Convolution"
  bottom: "inception_4d/output"
  top: "inception_4e/5x5_reduce"
  param {
    lr_mult: 1
    decay_mult: 1
  }
  param {
    lr_mult: 2
    decay_mult: 0
  }
  convolution_param {
    num_output: 32
    kernel_size: 1
    weight_filler {
      type: "xavier"
      std: 0.2
    }
    bias_filler {
      type: "constant"
      value: 0.2
    }
  }
}
layer {
  name: "inception_4e/relu_5x5_reduce"
  type: "ReLU"
  bottom: "inception_4e/5x5_reduce"
  top: "inception_4e/5x5_reduce"
}
layer {
  name: "inception_4e/5x5"
  type: "Convolution"
  bottom: "inception_4e/5x5_reduce"
  top: "inception_4e/5x5"
  param {
    lr_mult: 1
    decay_mult: 1
  }
  param {
    lr_mult: 2
    decay_mult: 0
  }
  convolution_param {
    num_output: 128
    pad: 2
    kernel_size: 5
    weight_filler {
      type: "xavier"
      std: 0.03
    }
    bias_filler {
      type: "constant"
      value: 0.2
    }
  }
}
layer {
  name: "inception_4e/relu_5x5"
  type: "ReLU"
  bottom: "inception_4e/5x5"
  top: "inception_4e/5x5"
}
layer {
  name: "inception_4e/pool"
  type: "Pooling"
  bottom: "inception_4d/output"
  top: "inception_4e/pool"
  pooling_param {
    pool: MAX
    kernel_size: 3
    stride: 1
    pad: 1
  }
}
layer {
  name: "inception_4e/pool_proj"
  type: "Convolution"
  bottom: "inception_4e/pool"
  top: "inception_4e/pool_proj"
  param {
    lr_mult: 1
    decay_mult: 1
  }
  param {
    lr_mult: 2
    decay_mult: 0
  }
  convolution_param {
    num_output: 128
    kernel_size: 1
    weight_filler {
      type: "xavier"
      std: 0.1
    }
    bias_filler {
      type: "constant"
      value: 0.2
    }
  }
}
layer {
  name: "inception_4e/relu_pool_proj"
  type: "ReLU"
  bottom: "inception_4e/pool_proj"
  top: "inception_4e/pool_proj"
}
layer {
  name: "inception_4e/output"
  type: "Concat"
  bottom: "inception_4e/1x1"
  bottom: "inception_4e/3x3"
  bottom: "inception_4e/5x5"
  bottom: "inception_4e/pool_proj"
  top: "inception_4e/output"
}
layer {
  name: "pool4/3x3_s2"
  type: "Pooling"
  bottom: "inception_4e/output"
  top: "pool4/3x3_s2"
  pooling_param {
    pool: MAX
    kernel_size: 3
    stride: 2
  }
}
layer {
  name: "inception_5a/1x1"
  type: "Convolution"
  bottom: "pool4/3x3_s2"
  top: "inception_5a/1x1"
  param {
    lr_mult: 1
    decay_mult: 1
  }
  param {
    lr_mult: 2
    decay_mult: 0
  }
  convolution_param {
    num_output: 256
    kernel_size: 1
    weight_filler {
      type: "xavier"
      std: 0.03
    }
    bias_filler {
      type: "constant"
      value: 0.2
    }
  }
}
layer {
  name: "inception_5a/relu_1x1"
  type: "ReLU"
  bottom: "inception_5a/1x1"
  top: "inception_5a/1x1"
}
layer {
  name: "inception_5a/3x3_reduce"
  type: "Convolution"
  bottom: "pool4/3x3_s2"
  top: "inception_5a/3x3_reduce"
  param {
    lr_mult: 1
    decay_mult: 1
  }
  param {
    lr_mult: 2
    decay_mult: 0
  }
  convolution_param {
    num_output: 160
    kernel_size: 1
    weight_filler {
      type: "xavier"
      std: 0.09
    }
    bias_filler {
      type: "constant"
      value: 0.2
    }
  }
}
layer {
  name: "inception_5a/relu_3x3_reduce"
  type: "ReLU"
  bottom: "inception_5a/3x3_reduce"
  top: "inception_5a/3x3_reduce"
}
layer {
  name: "inception_5a/3x3"
  type: "Convolution"
  bottom: "inception_5a/3x3_reduce"
  top: "inception_5a/3x3"
  param {
    lr_mult: 1
    decay_mult: 1
  }
  param {
    lr_mult: 2
    decay_mult: 0
  }
  convolution_param {
    num_output: 320
    pad: 1
    kernel_size: 3
    weight_filler {
      type: "xavier"
      std: 0.03
    }
    bias_filler {
      type: "constant"
      value: 0.2
    }
  }
}
layer {
  name: "inception_5a/relu_3x3"
  type: "ReLU"
  bottom: "inception_5a/3x3"
  top: "inception_5a/3x3"
}
layer {
  name: "inception_5a/5x5_reduce"
  type: "Convolution"
  bottom: "pool4/3x3_s2"
  top: "inception_5a/5x5_reduce"
  param {
    lr_mult: 1
    decay_mult: 1
  }
  param {
    lr_mult: 2
    decay_mult: 0
  }
  convolution_param {
    num_output: 32
    kernel_size: 1
    weight_filler {
      type: "xavier"
      std: 0.2
    }
    bias_filler {
      type: "constant"
      value: 0.2
    }
I0714 21:31:34.246317 31372 layer_factory.hpp:77] Creating layer data
I0714 21:31:34.246345 31372 net.cpp:91] Creating Layer data
I0714 21:31:34.246356 31372 net.cpp:399] data -> data
I0714 21:31:34.256393 31376 net.cpp:49] Initializing net from parameters: 
name: "GoogleNet"
state {
  phase: TEST
}
layer {
  name: "data"
  type: "Input"
  top: "data"
  input_param {
    shape {
      dim: 10
      dim: 3
      dim: 224
      dim: 224
    }
  }
}
layer {
  name: "conv1/7x7_s2"
  type: "Convolution"
  bottom: "data"
  top: "conv1/7x7_s2"
  param {
    lr_mult: 1
    decay_mult: 1
  }
  param {
    lr_mult: 2
    decay_mult: 0
  }
  convolution_param {
    num_output: 64
    pad: 3
    kernel_size: 7
    stride: 2
    weight_filler {
      type: "xavier"
      std: 0.1
    }
    bias_filler {
      type: "constant"
      value: 0.2
    }
  }
}
layer {
  name: "conv1/relu_7x7"
  type: "ReLU"
  bottom: "conv1/7x7_s2"
  top: "conv1/7x7_s2"
}
layer {
  name: "pool1/3x3_s2"
  type: "Pooling"
  bottom: "conv1/7x7_s2"
  top: "pool1/3x3_s2"
  pooling_param {
    pool: MAX
    kernel_size: 3
    stride: 2
  }
}
layer {
  name: "pool1/norm1"
  type: "LRN"
  bottom: "pool1/3x3_s2"
  top: "pool1/norm1"
  lrn_param {
    local_size: 5
    alpha: 0.0001
    beta: 0.75
  }
}
layer {
  name: "conv2/3x3_reduce"
  type: "Convolution"
  bottom: "pool1/norm1"
  top: "conv2/3x3_reduce"
  param {
    lr_mult: 1
    decay_mult: 1
  }
  param {
    lr_mult: 2
    decay_mult: 0
  }
  convolution_param {
    num_output: 64
    kernel_size: 1
    weight_filler {
      type: "xavier"
      std: 0.1
    }
    bias_filler {
      type: "constant"
      value: 0.2
    }
  }
}
layer {
  name: "conv2/relu_3x3_reduce"
  type: "ReLU"
  bottom: "conv2/3x3_reduce"
  top: "conv2/3x3_reduce"
}
layer {
  name: "conv2/3x3"
  type: "Convolution"
  bottom: "conv2/3x3_reduce"
  top: "conv2/3x3"
  param {
    lr_mult: 1
    decay_mult: 1
  }
  param {
    lr_mult: 2
    decay_mult: 0
  }
  convolution_param {
    num_output: 192
    pad: 1
    kernel_size: 3
    weight_filler {
      type: "xavier"
      std: 0.03
    }
    bias_filler {
      type: "constant"
      value: 0.2
    }
  }
}
layer {
  name: "conv2/relu_3x3"
  type: "ReLU"
  bottom: "conv2/3x3"
  top: "conv2/3x3"
}
layer {
  name: "conv2/norm2"
  type: "LRN"
  bottom: "conv2/3x3"
  top: "conv2/norm2"
  lrn_param {
    local_size: 5
    alpha: 0.0001
    beta: 0.75
  }
}
layer {
  name: "pool2/3x3_s2"
  type: "Pooling"
  bottom: "conv2/norm2"
  top: "pool2/3x3_s2"
  pooling_param {
    pool: MAX
    kernel_size: 3
    stride: 2
  }
}
layer {
  name: "inception_3a/1x1"
  type: "Convolution"
  bottom: "pool2/3x3_s2"
  top: "inception_3a/1x1"
  param {
    lr_mult: 1
    decay_mult: 1
  }
  param {
    lr_mult: 2
    decay_mult: 0
  }
  convolution_param {
    num_output: 64
    kernel_size: 1
    weight_filler {
      type: "xavier"
      std: 0.03
    }
    bias_filler {
      type: "constant"
      value: 0.2
    }
  }
}
layer {
  name: "inception_3a/relu_1x1"
  type: "ReLU"
  bottom: "inception_3a/1x1"
  top: "inception_3a/1x1"
}
layer {
  name: "inception_3a/3x3_reduce"
  type: "Convolution"
  bottom: "pool2/3x3_s2"
  top: "inception_3a/3x3_reduce"
  param {
    lr_mult: 1
    decay_mult: 1
  }
  param {
    lr_mult: 2
    decay_mult: 0
  }
  convolution_param {
    num_output: 96
    kernel_size: 1
    weight_filler {
      type: "xavier"
      std: 0.09
    }
    bias_filler {
      type: "constant"
      value: 0.2
    }
  }
}
layer {
  name: "inception_3a/relu_3x3_reduce"
  type: "ReLU"
  bottom: "inception_3a/3x3_reduce"
  top: "inception_3a/3x3_reduce"
}
layer {
  name: "inception_3a/3x3"
  type: "Convolution"
  bottom: "inception_3a/3x3_reduce"
  top: "inception_3a/3x3"
  param {
    lr_mult: 1
    decay_mult: 1
  }
  param {
    lr_mult: 2
    decay_mult: 0
  }
  convolution_param {
    num_output: 128
    pad: 1
    kernel_size: 3
    weight_filler {
      type: "xavier"
      std: 0.03
    }
    bias_filler {
      type: "constant"
      value: 0.2
    }
  }
}
layer {
  name: "inception_3a/relu_3x3"
  type: "ReLU"
  bottom: "inception_3a/3x3"
  top: "inception_3a/3x3"
}
layer {
  name: "inception_3a/5x5_reduce"
  type: "Convolution"
  bottom: "pool2/3x3_s2"
  top: "inception_3a/5x5_reduce"
  param {
    lr_mult: 1
    decay_mult: 1
  }
  param {
    lr_mult: 2
    decay_mult: 0
  }
  convolution_param {
    num_output: 16
    kernel_size: 1
    weight_filler {
      type: "xavier"
      std: 0.2
    }
    bias_filler {
      type: "constant"
      value: 0.2
    }
  }
}
layer {
  name: "inception_3a/relu_5x5_reduce"
  type: "ReLU"
  bottom: "inception_3a/5x5_reduce"
  top: "inception_3a/5x5_reduce"
}
layer {
  name: "inception_3a/5x5"
  type: "Convolution"
  bottom: "inception_3a/5x5_reduce"
  top: "inception_3a/5x5"
  param {
    lr_mult: 1
    decay_mult: 1
  }
  param {
    lr_mult: 2
    decay_mult: 0
  }
  convolution_param {
    num_output: 32
    pad: 2
    kernel_size: 5
    weight_filler {
      type: "xavier"
      std: 0.03
    }
    bias_filler {
      type: "constant"
      value: 0.2
    }
  }
}
layer {
  name: "inception_3a/relu_5x5"
  type: "ReLU"
  bottom: "inception_3a/5x5"
  top: "inception_3a/5x5"
}
layer {
  name: "inception_3a/pool"
  type: "Pooling"
  bottom: "pool2/3x3_s2"
  top: "inception_3a/pool"
  pooling_param {
    pool: MAX
    kernel_size: 3
    stride: 1
    pad: 1
  }
}
layer {
  name: "inception_3a/pool_proj"
  type: "Convolution"
  bottom: "inception_3a/pool"
  top: "inception_3a/pool_proj"
  param {
    lr_mult: 1
    decay_mult: 1
  }
  param {
    lr_mult: 2
    decay_mult: 0
  }
  convolution_param {
    num_output: 32
    kernel_size: 1
    weight_filler {
      type: "xavier"
      std: 0.1
    }
    bias_filler {
      type: "constant"
      value: 0.2
    }
  }
}
layer {
  name: "inception_3a/relu_pool_proj"
  type: "ReLU"
  bottom: "inception_3a/pool_proj"
  top: "inception_3a/pool_proj"
}
layer {
  name: "inception_3a/output"
  type: "Concat"
  bottom: "inception_3a/1x1"
  bottom: "inception_3a/3x3"
  bottom: "inception_3a/5x5"
  bottom: "inception_3a/pool_proj"
  top: "inception_3a/output"
}
layer {
  name: "inception_3b/1x1"
  type: "Convolution"
  bottom: "inception_3a/output"
  top: "inception_3b/1x1"
  param {
    lr_mult: 1
    decay_mult: 1
  }
  param {
    lr_mult: 2
    decay_mult: 0
  }
  convolution_param {
    num_output: 128
    kernel_size: 1
    weight_filler {
      type: "xavier"
      std: 0.03
    }
    bias_filler {
      type: "constant"
      value: 0.2
    }
  }
}
layer {
  name: "inception_3b/relu_1x1"
  type: "ReLU"
  bottom: "inception_3b/1x1"
  top: "inception_3b/1x1"
}
layer {
  name: "inception_3b/3x3_reduce"
  type: "Convolution"
  bottom: "inception_3a/output"
  top: "inception_3b/3x3_reduce"
  param {
    lr_mult: 1
    decay_mult: 1
  }
  param {
    lr_mult: 2
    decay_mult: 0
  }
  convolution_param {
    num_output: 128
    kernel_size: 1
    weight_filler {
      type: "xavier"
      std: 0.09
    }
    bias_filler {
      type: "constant"
      value: 0.2
    }
  }
}
layer {
  name: "inception_3b/relu_3x3_reduce"
  type: "ReLU"
  bottom: "inception_3b/3x3_reduce"
  top: "inception_3b/3x3_reduce"
}
layer {
  name: "inception_3b/3x3"
  type: "Convolution"
  bottom: "inception_3b/3x3_reduce"
  top: "inception_3b/3x3"
  param {
    lr_mult: 1
    decay_mult: 1
  }
  param {
    lr_mult: 2
    decay_mult: 0
  }
  convolution_param {
    num_output: 192
    pad: 1
    kernel_size: 3
    weight_filler {
      type: "xavier"
      std: 0.03
    }
    bias_filler {
      type: "constant"
      value: 0.2
    }
  }
}
layer {
  name: "inception_3b/relu_3x3"
  type: "ReLU"
  bottom: "inception_3b/3x3"
  top: "inception_3b/3x3"
}
layer {
  name: "inception_3b/5x5_reduce"
  type: "Convolution"
  bottom: "inception_3a/output"
  top: "inception_3b/5x5_reduce"
  param {
    lr_mult: 1
    decay_mult: 1
  }
  param {
    lr_mult: 2
    decay_mult: 0
  }
  convolution_param {
    num_output: 32
    kernel_size: 1
    weight_filler {
      type: "xavier"
      std: 0.2
    }
    bias_filler {
      type: "constant"
      value: 0.2
    }
  }
}
layer {
  name: "inception_3b/relu_5x5_reduce"
  type: "ReLU"
  bottom: "inception_3b/5x5_reduce"
  top: "inception_3b/5x5_reduce"
}
layer {
  name: "inception_3b/5x5"
  type: "Convolution"
  bottom: "inception_3b/5x5_reduce"
  top: "inception_3b/5x5"
  param {
    lr_mult: 1
    decay_mult: 1
  }
  param {
    lr_mult: 2
    decay_mult: 0
  }
  convolution_param {
    num_output: 96
    pad: 2
    kernel_size: 5
    weight_filler {
      type: "xavier"
      std: 0.03
    }
    bias_filler {
      type: "constant"
      value: 0.2
    }
  }
}
layer {
  name: "inception_3b/relu_5x5"
  type: "ReLU"
  bottom: "inception_3b/5x5"
  top: "inception_3b/5x5"
}
layer {
  name: "inception_3b/pool"
  type: "Pooling"
  bottom: "inception_3a/output"
  top: "inception_3b/pool"
  pooling_param {
    pool: MAX
    kernel_size: 3
    stride: 1
    pad: 1
  }
}
layer {
  name: "inception_3b/pool_proj"
  type: "Convolution"
  bottom: "inception_3b/pool"
  top: "inception_3b/pool_proj"
  param {
    lr_mult: 1
    decay_mult: 1
  }
  param {
    lr_mult: 2
    decay_mult: 0
  }
  convolution_param {
    num_output: 64
    kernel_size: 1
    weight_filler {
      type: "xavier"
      std: 0.1
    }
    bias_filler {
      type: "constant"
      value: 0.2
    }
  }
}
layer {
  name: "inception_3b/relu_pool_proj"
  type: "ReLU"
  bottom: "inception_3b/pool_proj"
  top: "inception_3b/pool_proj"
}
layer {
  name: "inception_3b/output"
  type: "Concat"
  bottom: "inception_3b/1x1"
  bottom: "inception_3b/3x3"
  bottom: "inception_3b/5x5"
  bottom: "inception_3b/pool_proj"
  top: "inception_3b/output"
}
layer {
  name: "pool3/3x3_s2"
  type: "Pooling"
  bottom: "inception_3b/output"
  top: "pool3/3x3_s2"
  pooling_param {
    pool: MAX
    kernel_size: 3
    stride: 2
  }
}
layer {
  name: "inception_4a/1x1"
  type: "Convolution"
  bottom: "pool3/3x3_s2"
  top: "inception_4a/1x1"
  param {
    lr_mult: 1
    decay_mult: 1
  }
  param {
    lr_mult: 2
    decay_mult: 0
  }
  convolution_param {
    num_output: 192
    kernel_size: 1
    weight_filler {
      type: "xavier"
      std: 0.03
    }
    bias_filler {
      type: "constant"
      value: 0.2
    }
  }
}
layer {
  name: "inception_4a/relu_1x1"
  type: "ReLU"
  bottom: "inception_4a/1x1"
  top: "inception_4a/1x1"
}
layer {
  name: "inception_4a/3x3_reduce"
  type: "Convolution"
  bottom: "pool3/3x3_s2"
  top: "inception_4a/3x3_reduce"
  param {
    lr_mult: 1
    decay_mult: 1
  }
  param {
    lr_mult: 2
    decay_mult: 0
  }
  convolution_param {
    num_output: 96
    kernel_size: 1
    weight_filler {
      type: "xavier"
      std: 0.09
    }
    bias_filler {
      type: "constant"
      value: 0.2
    }
  }
}
layer {
  name: "inception_4a/relu_3x3_reduce"
  type: "ReLU"
  bottom: "inception_4a/3x3_reduce"
  top: "inception_4a/3x3_reduce"
}
layer {
  name: "inception_4a/3x3"
  type: "Convolution"
  bottom: "inception_4a/3x3_reduce"
  top: "inception_4a/3x3"
  param {
    lr_mult: 1
    decay_mult: 1
  }
  param {
    lr_mult: 2
    decay_mult: 0
  }
  convolution_param {
    num_output: 208
    pad: 1
    kernel_size: 3
    weight_filler {
      type: "xavier"
      std: 0.03
    }
    bias_filler {
      type: "constant"
      value: 0.2
    }
  }
}
layer {
  name: "inception_4a/relu_3x3"
  type: "ReLU"
  bottom: "inception_4a/3x3"
  top: "inception_4a/3x3"
}
layer {
  name: "inception_4a/5x5_reduce"
  type: "Convolution"
  bottom: "pool3/3x3_s2"
  top: "inception_4a/5x5_reduce"
  param {
    lr_mult: 1
    decay_mult: 1
  }
  param {
    lr_mult: 2
    decay_mult: 0
  }
  convolution_param {
    num_output: 16
    kernel_size: 1
    weight_filler {
      type: "xavier"
      std: 0.2
    }
    bias_filler {
      type: "constant"
      value: 0.2
    }
  }
}
layer {
  name: "inception_4a/relu_5x5_reduce"
  type: "ReLU"
  bottom: "inception_4a/5x5_reduce"
  top: "inception_4a/5x5_reduce"
}
layer {
  name: "inception_4a/5x5"
  type: "Convolution"
  bottom: "inception_4a/5x5_reduce"
  top: "inception_4a/5x5"
  param {
    lr_mult: 1
    decay_mult: 1
  }
  param {
    lr_mult: 2
    decay_mult: 0
  }
  convolution_param {
    num_output: 48
    pad: 2
    kernel_size: 5
    weight_filler {
      type: "xavier"
      std: 0.03
    }
    bias_filler {
      type: "constant"
      value: 0.2
    }
  }
}
layer {
  name: "inception_4a/relu_5x5"
  type: "ReLU"
  bottom: "inception_4a/5x5"
  top: "inception_4a/5x5"
}
layer {
  name: "inception_4a/pool"
  type: "Pooling"
  bottom: "pool3/3x3_s2"
  top: "inception_4a/pool"
  pooling_param {
    pool: MAX
    kernel_size: 3
    stride: 1
    pad: 1
  }
}
layer {
  name: "inception_4a/pool_proj"
  type: "Convolution"
  bottom: "inception_4a/pool"
  top: "inception_4a/pool_proj"
  param {
    lr_mult: 1
    decay_mult: 1
  }
  param {
    lr_mult: 2
    decay_mult: 0
  }
  convolution_param {
    num_output: 64
    kernel_size: 1
    weight_filler {
      type: "xavier"
      std: 0.1
    }
    bias_filler {
      type: "constant"
      value: 0.2
    }
  }
}
layer {
  name: "inception_4a/relu_pool_proj"
  type: "ReLU"
  bottom: "inception_4a/pool_proj"
  top: "inception_4a/pool_proj"
}
layer {
  name: "inception_4a/output"
  type: "Concat"
  bottom: "inception_4a/1x1"
  bottom: "inception_4a/3x3"
  bottom: "inception_4a/5x5"
  bottom: "inception_4a/pool_proj"
  top: "inception_4a/output"
}
layer {
  name: "inception_4b/1x1"
  type: "Convolution"
  bottom: "inception_4a/output"
  top: "inception_4b/1x1"
  param {
    lr_mult: 1
    decay_mult: 1
  }
  param {
    lr_mult: 2
    decay_mult: 0
  }
  convolution_param {
    num_output: 160
    kernel_size: 1
    weight_filler {
      type: "xavier"
      std: 0.03
    }
    bias_filler {
      type: "constant"
      value: 0.2
    }
  }
}
layer {
  name: "inception_4b/relu_1x1"
  type: "ReLU"
  bottom: "inception_4b/1x1"
  top: "inception_4b/1x1"
}
layer {
  name: "inception_4b/3x3_reduce"
  type: "Convolution"
  bottom: "inception_4a/output"
  top: "inception_4b/3x3_reduce"
  param {
    lr_mult: 1
    decay_mult: 1
  }
  param {
    lr_mult: 2
    decay_mult: 0
  }
  convolution_param {
    num_output: 112
    kernel_size: 1
    weight_filler {
      type: "xavier"
      std: 0.09
    }
    bias_filler {
      type: "constant"
      value: 0.2
    }
  }
}
layer {
  name: "inception_4b/relu_3x3_reduce"
  type: "ReLU"
  bottom: "inception_4b/3x3_reduce"
  top: "inception_4b/3x3_reduce"
}
layer {
  name: "inception_4b/3x3"
  type: "Convolution"
  bottom: "inception_4b/3x3_reduce"
  top: "inception_4b/3x3"
  param {
    lr_mult: 1
    decay_mult: 1
  }
  param {
    lr_mult: 2
    decay_mult: 0
  }
  convolution_param {
    num_output: 224
    pad: 1
    kernel_size: 3
    weight_filler {
      type: "xavier"
      std: 0.03
    }
    bias_filler {
      type: "constant"
      value: 0.2
    }
  }
}
layer {
  name: "inception_4b/relu_3x3"
  type: "ReLU"
  bottom: "inception_4b/3x3"
  top: "inception_4b/3x3"
}
layer {
  name: "inception_4b/5x5_reduce"
  type: "Convolution"
  bottom: "inception_4a/output"
  top: "inception_4b/5x5_reduce"
  param {
    lr_mult: 1
    decay_mult: 1
  }
  param {
    lr_mult: 2
    decay_mult: 0
  }
  convolution_param {
    num_output: 24
    kernel_size: 1
    weight_filler {
      type: "xavier"
      std: 0.2
    }
    bias_filler {
      type: "constant"
      value: 0.2
    }
  }
}
layer {
  name: "inception_4b/relu_5x5_reduce"
  type: "ReLU"
  bottom: "inception_4b/5x5_reduce"
  top: "inception_4b/5x5_reduce"
}
layer {
  name: "inception_4b/5x5"
  type: "Convolution"
  bottom: "inception_4b/5x5_reduce"
  top: "inception_4b/5x5"
  param {
    lr_mult: 1
    decay_mult: 1
  }
  param {
    lr_mult: 2
    decay_mult: 0
  }
  convolution_param {
    num_output: 64
    pad: 2
    kernel_size: 5
    weight_filler {
      type: "xavier"
      std: 0.03
    }
    bias_filler {
      type: "constant"
      value: 0.2
    }
  }
}
layer {
  name: "inception_4b/relu_5x5"
  type: "ReLU"
  bottom: "inception_4b/5x5"
  top: "inception_4b/5x5"
}
layer {
  name: "inception_4b/pool"
  type: "Pooling"
  bottom: "inception_4a/output"
  top: "inception_4b/pool"
  pooling_param {
    pool: MAX
    kernel_size: 3
    stride: 1
    pad: 1
  }
}
layer {
  name: "inception_4b/pool_proj"
  type: "Convolution"
  bottom: "inception_4b/pool"
  top: "inception_4b/pool_proj"
  param {
    lr_mult: 1
    decay_mult: 1
  }
  param {
    lr_mult: 2
    decay_mult: 0
  }
  convolution_param {
    num_output: 64
    kernel_size: 1
    weight_filler {
      type: "xavier"
      std: 0.1
    }
    bias_filler {
      type: "constant"
      value: 0.2
    }
  }
}
layer {
  name: "inception_4b/relu_pool_proj"
  type: "ReLU"
  bottom: "inception_4b/pool_proj"
  top: "inception_4b/pool_proj"
}
layer {
  name: "inception_4b/output"
  type: "Concat"
  bottom: "inception_4b/1x1"
  bottom: "inception_4b/3x3"
  bottom: "inception_4b/5x5"
  bottom: "inception_4b/pool_proj"
  top: "inception_4b/output"
}
layer {
  name: "inception_4c/1x1"
  type: "Convolution"
  bottom: "inception_4b/output"
  top: "inception_4c/1x1"
  param {
    lr_mult: 1
    decay_mult: 1
  }
  param {
    lr_mult: 2
    decay_mult: 0
  }
  convolution_param {
    num_output: 128
    kernel_size: 1
    weight_filler {
      type: "xavier"
      std: 0.03
    }
    bias_filler {
      type: "constant"
      value: 0.2
    }
  }
}
layer {
  name: "inception_4c/relu_1x1"
  type: "ReLU"
  bottom: "inception_4c/1x1"
  top: "inception_4c/1x1"
}
layer {
  name: "inception_4c/3x3_reduce"
  type: "Convolution"
  bottom: "inception_4b/output"
  top: "inception_4c/3x3_reduce"
  param {
    lr_mult: 1
    decay_mult: 1
  }
  param {
    lr_mult: 2
    decay_mult: 0
  }
  convolution_param {
    num_output: 128
    kernel_size: 1
    weight_filler {
      type: "xavier"
      std: 0.09
    }
    bias_filler {
      type: "constant"
      value: 0.2
    }
  }
}
layer {
  name: "inception_4c/relu_3x3_reduce"
  type: "ReLU"
  bottom: "inception_4c/3x3_reduce"
  top: "inception_4c/3x3_reduce"
}
layer {
  name: "inception_4c/3x3"
  type: "Convolution"
  bottom: "inception_4c/3x3_reduce"
  top: "inception_4c/3x3"
  param {
    lr_mult: 1
    decay_mult: 1
  }
  param {
    lr_mult: 2
    decay_mult: 0
  }
  convolution_param {
    num_output: 256
    pad: 1
    kernel_size: 3
    weight_filler {
      type: "xavier"
      std: 0.03
    }
    bias_filler {
      type: "constant"
      value: 0.2
    }
  }
}
layer {
  name: "inception_4c/relu_3x3"
  type: "ReLU"
  bottom: "inception_4c/3x3"
  top: "inception_4c/3x3"
}
layer {
  name: "inception_4c/5x5_reduce"
  type: "Convolution"
  bottom: "inception_4b/output"
  top: "inception_4c/5x5_reduce"
  param {
    lr_mult: 1
    decay_mult: 1
  }
  param {
    lr_mult: 2
    decay_mult: 0
  }
  convolution_param {
    num_output: 24
    kernel_size: 1
    weight_filler {
      type: "xavier"
      std: 0.2
    }
    bias_filler {
      type: "constant"
      value: 0.2
    }
  }
}
layer {
  name: "inception_4c/relu_5x5_reduce"
  type: "ReLU"
  bottom: "inception_4c/5x5_reduce"
  top: "inception_4c/5x5_reduce"
}
layer {
  name: "inception_4c/5x5"
  type: "Convolution"
  bottom: "inception_4c/5x5_reduce"
  top: "inception_4c/5x5"
  param {
    lr_mult: 1
    decay_mult: 1
  }
  param {
    lr_mult: 2
    decay_mult: 0
  }
  convolution_param {
    num_output: 64
    pad: 2
    kernel_size: 5
    weight_filler {
      type: "xavier"
      std: 0.03
    }
    bias_filler {
      type: "constant"
      value: 0.2
    }
  }
}
layer {
  name: "inception_4c/relu_5x5"
  type: "ReLU"
  bottom: "inception_4c/5x5"
  top: "inception_4c/5x5"
}
layer {
  name: "inception_4c/pool"
  type: "Pooling"
  bottom: "inception_4b/output"
  top: "inception_4c/pool"
  pooling_param {
    pool: MAX
    kernel_size: 3
    stride: 1
    pad: 1
  }
}
layer {
  name: "inception_4c/pool_proj"
  type: "Convolution"
  bottom: "inception_4c/pool"
  top: "inception_4c/pool_proj"
  param {
    lr_mult: 1
    decay_mult: 1
  }
  param {
    lr_mult: 2
    decay_mult: 0
  }
  convolution_param {
    num_output: 64
    kernel_size: 1
    weight_filler {
      type: "xavier"
      std: 0.1
    }
    bias_filler {
      type: "constant"
      value: 0.2
    }
  }
}
layer {
  name: "inception_4c/relu_pool_proj"
  type: "ReLU"
  bottom: "inception_4c/pool_proj"
  top: "inception_4c/pool_proj"
}
layer {
  name: "inception_4c/output"
  type: "Concat"
  bottom: "inception_4c/1x1"
  bottom: "inception_4c/3x3"
  bottom: "inception_4c/5x5"
  bottom: "inception_4c/pool_proj"
  top: "inception_4c/output"
}
layer {
  name: "inception_4d/1x1"
  type: "Convolution"
  bottom: "inception_4c/output"
  top: "inception_4d/1x1"
  param {
    lr_mult: 1
    decay_mult: 1
  }
  param {
    lr_mult: 2
    decay_mult: 0
  }
  convolution_param {
    num_output: 112
    kernel_size: 1
    weight_filler {
      type: "xavier"
      std: 0.03
    }
    bias_filler {
      type: "constant"
      value: 0.2
    }
  }
}
layer {
  name: "inception_4d/relu_1x1"
  type: "ReLU"
  bottom: "inception_4d/1x1"
  top: "inception_4d/1x1"
}
layer {
  name: "inception_4d/3x3_reduce"
  type: "Convolution"
  bottom: "inception_4c/output"
  top: "inception_4d/3x3_reduce"
  param {
    lr_mult: 1
    decay_mult: 1
  }
  param {
    lr_mult: 2
    decay_mult: 0
  }
  convolution_param {
    num_output: 144
    kernel_size: 1
    weight_filler {
      type: "xavier"
      std: 0.09
    }
    bias_filler {
      type: "constant"
      value: 0.2
    }
  }
}
layer {
  name: "inception_4d/relu_3x3_reduce"
  type: "ReLU"
  bottom: "inception_4d/3x3_reduce"
  top: "inception_4d/3x3_reduce"
}
layer {
  name: "inception_4d/3x3"
  type: "Convolution"
  bottom: "inception_4d/3x3_reduce"
  top: "inception_4d/3x3"
  param {
    lr_mult: 1
    decay_mult: 1
  }
  param {
    lr_mult: 2
    decay_mult: 0
  }
  convolution_param {
    num_output: 288
    pad: 1
    kernel_size: 3
    weight_filler {
      type: "xavier"
      std: 0.03
    }
    bias_filler {
      type: "constant"
      value: 0.2
    }
  }
}
layer {
  name: "inception_4d/relu_3x3"
  type: "ReLU"
  bottom: "inception_4d/3x3"
  top: "inception_4d/3x3"
}
layer {
  name: "inception_4d/5x5_reduce"
  type: "Convolution"
  bottom: "inception_4c/output"
  top: "inception_4d/5x5_reduce"
  param {
    lr_mult: 1
    decay_mult: 1
  }
  param {
    lr_mult: 2
    decay_mult: 0
  }
  convolution_param {
    num_output: 32
    kernel_size: 1
    weight_filler {
      type: "xavier"
      std: 0.2
    }
    bias_filler {
      type: "constant"
      value: 0.2
    }
  }
}
layer {
  name: "inception_4d/relu_5x5_reduce"
  type: "ReLU"
  bottom: "inception_4d/5x5_reduce"
  top: "inception_4d/5x5_reduce"
}
layer {
  name: "inception_4d/5x5"
  type: "Convolution"
  bottom: "inception_4d/5x5_reduce"
  top: "inception_4d/5x5"
  param {
    lr_mult: 1
    decay_mult: 1
  }
  param {
    lr_mult: 2
    decay_mult: 0
  }
  convolution_param {
    num_output: 64
    pad: 2
    kernel_size: 5
    weight_filler {
      type: "xavier"
      std: 0.03
    }
    bias_filler {
      type: "constant"
      value: 0.2
    }
  }
}
layer {
  name: "inception_4d/relu_5x5"
  type: "ReLU"
  bottom: "inception_4d/5x5"
  top: "inception_4d/5x5"
}
layer {
  name: "inception_4d/pool"
  type: "Pooling"
  bottom: "inception_4c/output"
  top: "inception_4d/pool"
  pooling_param {
    pool: MAX
    kernel_size: 3
    stride: 1
    pad: 1
  }
}
layer {
  name: "inception_4d/pool_proj"
  type: "Convolution"
  bottom: "inception_4d/pool"
  top: "inception_4d/pool_proj"
  param {
    lr_mult: 1
    decay_mult: 1
  }
  param {
    lr_mult: 2
    decay_mult: 0
  }
  convolution_param {
    num_output: 64
    kernel_size: 1
    weight_filler {
      type: "xavier"
      std: 0.1
    }
    bias_filler {
      type: "constant"
      value: 0.2
    }
  }
}
layer {
  name: "inception_4d/relu_pool_proj"
  type: "ReLU"
  bottom: "inception_4d/pool_proj"
  top: "inception_4d/pool_proj"
}
layer {
  name: "inception_4d/output"
  type: "Concat"
  bottom: "inception_4d/1x1"
  bottom: "inception_4d/3x3"
  bottom: "inception_4d/5x5"
  bottom: "inception_4d/pool_proj"
  top: "inception_4d/output"
}
layer {
  name: "inception_4e/1x1"
  type: "Convolution"
  bottom: "inception_4d/output"
  top: "inception_4e/1x1"
  param {
    lr_mult: 1
    decay_mult: 1
  }
  param {
    lr_mult: 2
    decay_mult: 0
  }
  convolution_param {
    num_output: 256
    kernel_size: 1
    weight_filler {
      type: "xavier"
      std: 0.03
    }
    bias_filler {
      type: "constant"
      value: 0.2
    }
  }
}
layer {
  name: "inception_4e/relu_1x1"
  type: "ReLU"
  bottom: "inception_4e/1x1"
  top: "inception_4e/1x1"
}
layer {
  name: "inception_4e/3x3_reduce"
  type: "Convolution"
  bottom: "inception_4d/output"
  top: "inception_4e/3x3_reduce"
  param {
    lr_mult: 1
    decay_mult: 1
  }
  param {
    lr_mult: 2
    decay_mult: 0
  }
  convolution_param {
    num_output: 160
    kernel_size: 1
    weight_filler {
      type: "xavier"
      std: 0.09
    }
    bias_filler {
      type: "constant"
      value: 0.2
    }
  }
}
layer {
  name: "inception_4e/relu_3x3_reduce"
  type: "ReLU"
  bottom: "inception_4e/3x3_reduce"
  top: "inception_4e/3x3_reduce"
}
layer {
  name: "inception_4e/3x3"
  type: "Convolution"
  bottom: "inception_4e/3x3_reduce"
  top: "inception_4e/3x3"
  param {
    lr_mult: 1
    decay_mult: 1
  }
  param {
    lr_mult: 2
    decay_mult: 0
  }
  convolution_param {
    num_output: 320
    pad: 1
    kernel_size: 3
    weight_filler {
      type: "xavier"
      std: 0.03
    }
    bias_filler {
      type: "constant"
      value: 0.2
    }
  }
}
layer {
  name: "inception_4e/relu_3x3"
  type: "ReLU"
  bottom: "inception_4e/3x3"
  top: "inception_4e/3x3"
}
layer {
  name: "inception_4e/5x5_reduce"
  type: "Convolution"
  bottom: "inception_4d/output"
  top: "inception_4e/5x5_reduce"
  param {
    lr_mult: 1
    decay_mult: 1
  }
  param {
    lr_mult: 2
    decay_mult: 0
  }
  convolution_param {
    num_output: 32
    kernel_size: 1
    weight_filler {
      type: "xavier"
      std: 0.2
    }
    bias_filler {
      type: "constant"
      value: 0.2
    }
  }
}
layer {
  name: "inception_4e/relu_5x5_reduce"
  type: "ReLU"
  bottom: "inception_4e/5x5_reduce"
  top: "inception_4e/5x5_reduce"
}
layer {
  name: "inception_4e/5x5"
  type: "Convolution"
  bottom: "inception_4e/5x5_reduce"
  top: "inception_4e/5x5"
  param {
    lr_mult: 1
    decay_mult: 1
  }
  param {
    lr_mult: 2
    decay_mult: 0
  }
  convolution_param {
    num_output: 128
    pad: 2
    kernel_size: 5
    weight_filler {
      type: "xavier"
      std: 0.03
    }
    bias_filler {
      type: "constant"
      value: 0.2
    }
  }
}
layer {
  name: "inception_4e/relu_5x5"
  type: "ReLU"
  bottom: "inception_4e/5x5"
  top: "inception_4e/5x5"
}
layer {
  name: "inception_4e/pool"
  type: "Pooling"
  bottom: "inception_4d/output"
  top: "inception_4e/pool"
  pooling_param {
    pool: MAX
    kernel_size: 3
    stride: 1
    pad: 1
  }
}
layer {
  name: "inception_4e/pool_proj"
  type: "Convolution"
  bottom: "inception_4e/pool"
  top: "inception_4e/pool_proj"
  param {
    lr_mult: 1
    decay_mult: 1
  }
  param {
    lr_mult: 2
    decay_mult: 0
  }
  convolution_param {
    num_output: 128
    kernel_size: 1
    weight_filler {
      type: "xavier"
      std: 0.1
    }
    bias_filler {
      type: "constant"
      value: 0.2
    }
  }
}
layer {
  name: "inception_4e/relu_pool_proj"
  type: "ReLU"
  bottom: "inception_4e/pool_proj"
  top: "inception_4e/pool_proj"
}
layer {
  name: "inception_4e/output"
  type: "Concat"
  bottom: "inception_4e/1x1"
  bottom: "inception_4e/3x3"
  bottom: "inception_4e/5x5"
  bottom: "inception_4e/pool_proj"
  top: "inception_4e/output"
}
layer {
  name: "pool4/3x3_s2"
  type: "Pooling"
  bottom: "inception_4e/output"
  top: "pool4/3x3_s2"
  pooling_param {
    pool: MAX
    kernel_size: 3
    stride: 2
  }
}
layer {
  name: "inception_5a/1x1"
  type: "Convolution"
  bottom: "pool4/3x3_s2"
  top: "inception_5a/1x1"
  param {
    lr_mult: 1
    decay_mult: 1
  }
  param {
    lr_mult: 2
    decay_mult: 0
  }
  convolution_param {
    num_output: 256
    kernel_size: 1
    weight_filler {
      type: "xavier"
      std: 0.03
    }
    bias_filler {
      type: "constant"
      value: 0.2
    }
  }
}
layer {
  name: "inception_5a/relu_1x1"
  type: "ReLU"
  bottom: "inception_5a/1x1"
  top: "inception_5a/1x1"
}
layer {
  name: "inception_5a/3x3_reduce"
  type: "Convolution"
  bottom: "pool4/3x3_s2"
  top: "inception_5a/3x3_reduce"
  param {
    lr_mult: 1
    decay_mult: 1
  }
  param {
    lr_mult: 2
    decay_mult: 0
  }
  convolution_param {
    num_output: 160
    kernel_size: 1
    weight_filler {
      type: "xavier"
      std: 0.09
    }
    bias_filler {
      type: "constant"
      value: 0.2
    }
  }
}
layer {
  name: "inception_5a/relu_3x3_reduce"
  type: "ReLU"
  bottom: "inception_5a/3x3_reduce"
  top: "inception_5a/3x3_reduce"
}
layer {
  name: "inception_5a/3x3"
  type: "Convolution"
  bottom: "inception_5a/3x3_reduce"
  top: "inception_5a/3x3"
  param {
    lr_mult: 1
    decay_mult: 1
  }
  param {
    lr_mult: 2
    decay_mult: 0
  }
  convolution_param {
    num_output: 320
    pad: 1
    kernel_size: 3
    weight_filler {
      type: "xavier"
      std: 0.03
    }
    bias_filler {
      type: "constant"
      value: 0.2
    }
  }
}
layer {
  name: "inception_5a/relu_3x3"
  type: "ReLU"
  bottom: "inception_5a/3x3"
  top: "inception_5a/3x3"
}
layer {
  name: "inception_5a/5x5_reduce"
  type: "Convolution"
  bottom: "pool4/3x3_s2"
  top: "inception_5a/5x5_reduce"
  param {
    lr_mult: 1
    decay_mult: 1
  }
  param {
    lr_mult: 2
    decay_mult: 0
  }
  convolution_param {
    num_output: 32
    kernel_size: 1
    weight_filler {
      type: "xavier"
      std: 0.2
    }
    bias_filler {
      type: "constant"
      value: 0.2
    }
I0714 21:31:34.257359 31376 layer_factory.hpp:77] Creating layer data
I0714 21:31:34.257380 31376 net.cpp:91] Creating Layer data
I0714 21:31:34.257390 31376 net.cpp:399] data -> data
I0714 21:31:35.321753 31372 net.cpp:141] Setting up data
I0714 21:31:35.321861 31372 net.cpp:148] Top shape: 10 3 224 224 (1505280)
I0714 21:31:35.321871 31372 net.cpp:156] Memory required for data: 6021120
I0714 21:31:35.321895 31372 layer_factory.hpp:77] Creating layer conv1/7x7_s2
I0714 21:31:35.321938 31372 net.cpp:91] Creating Layer conv1/7x7_s2
I0714 21:31:35.321949 31372 net.cpp:425] conv1/7x7_s2 <- data
I0714 21:31:35.321967 31372 net.cpp:399] conv1/7x7_s2 -> conv1/7x7_s2
I0714 21:31:35.324223 31376 net.cpp:141] Setting up data
I0714 21:31:35.324295 31376 net.cpp:148] Top shape: 10 3 224 224 (1505280)
I0714 21:31:35.324302 31376 net.cpp:156] Memory required for data: 6021120
I0714 21:31:35.324333 31376 layer_factory.hpp:77] Creating layer conv1/7x7_s2
I0714 21:31:35.324354 31376 net.cpp:91] Creating Layer conv1/7x7_s2
I0714 21:31:35.324362 31376 net.cpp:425] conv1/7x7_s2 <- data
I0714 21:31:35.324385 31376 net.cpp:399] conv1/7x7_s2 -> conv1/7x7_s2
I0714 21:31:35.786628 31372 net.cpp:141] Setting up conv1/7x7_s2
I0714 21:31:35.786706 31372 net.cpp:148] Top shape: 10 64 112 112 (8028160)
I0714 21:31:35.786715 31372 net.cpp:156] Memory required for data: 38133760
I0714 21:31:35.786758 31372 layer_factory.hpp:77] Creating layer conv1/relu_7x7
I0714 21:31:35.786787 31372 net.cpp:91] Creating Layer conv1/relu_7x7
I0714 21:31:35.786797 31372 net.cpp:425] conv1/relu_7x7 <- conv1/7x7_s2
I0714 21:31:35.786808 31372 net.cpp:386] conv1/relu_7x7 -> conv1/7x7_s2 (in-place)
I0714 21:31:35.787844 31372 net.cpp:141] Setting up conv1/relu_7x7
I0714 21:31:35.787863 31372 net.cpp:148] Top shape: 10 64 112 112 (8028160)
I0714 21:31:35.787868 31372 net.cpp:156] Memory required for data: 70246400
I0714 21:31:35.787875 31372 layer_factory.hpp:77] Creating layer pool1/3x3_s2
I0714 21:31:35.787894 31372 net.cpp:91] Creating Layer pool1/3x3_s2
I0714 21:31:35.787901 31372 net.cpp:425] pool1/3x3_s2 <- conv1/7x7_s2
I0714 21:31:35.787910 31372 net.cpp:399] pool1/3x3_s2 -> pool1/3x3_s2
I0714 21:31:35.793254 31372 net.cpp:141] Setting up pool1/3x3_s2
I0714 21:31:35.793272 31372 net.cpp:148] Top shape: 10 64 56 56 (2007040)
I0714 21:31:35.793278 31372 net.cpp:156] Memory required for data: 78274560
I0714 21:31:35.793287 31372 layer_factory.hpp:77] Creating layer pool1/norm1
I0714 21:31:35.793310 31372 net.cpp:91] Creating Layer pool1/norm1
I0714 21:31:35.793318 31372 net.cpp:425] pool1/norm1 <- pool1/3x3_s2
I0714 21:31:35.793328 31372 net.cpp:399] pool1/norm1 -> pool1/norm1
I0714 21:31:35.794477 31372 net.cpp:141] Setting up pool1/norm1
I0714 21:31:35.794495 31372 net.cpp:148] Top shape: 10 64 56 56 (2007040)
I0714 21:31:35.794500 31372 net.cpp:156] Memory required for data: 86302720
I0714 21:31:35.794507 31372 layer_factory.hpp:77] Creating layer conv2/3x3_reduce
I0714 21:31:35.794538 31372 net.cpp:91] Creating Layer conv2/3x3_reduce
I0714 21:31:35.794544 31372 net.cpp:425] conv2/3x3_reduce <- pool1/norm1
I0714 21:31:35.794555 31372 net.cpp:399] conv2/3x3_reduce -> conv2/3x3_reduce
I0714 21:31:35.798271 31376 net.cpp:141] Setting up conv1/7x7_s2
I0714 21:31:35.798295 31376 net.cpp:148] Top shape: 10 64 112 112 (8028160)
I0714 21:31:35.798301 31376 net.cpp:156] Memory required for data: 38133760
I0714 21:31:35.798324 31376 layer_factory.hpp:77] Creating layer conv1/relu_7x7
I0714 21:31:35.798338 31376 net.cpp:91] Creating Layer conv1/relu_7x7
I0714 21:31:35.798346 31376 net.cpp:425] conv1/relu_7x7 <- conv1/7x7_s2
I0714 21:31:35.798355 31376 net.cpp:386] conv1/relu_7x7 -> conv1/7x7_s2 (in-place)
I0714 21:31:35.799250 31376 net.cpp:141] Setting up conv1/relu_7x7
I0714 21:31:35.799269 31376 net.cpp:148] Top shape: 10 64 112 112 (8028160)
I0714 21:31:35.799275 31376 net.cpp:156] Memory required for data: 70246400
I0714 21:31:35.799281 31376 layer_factory.hpp:77] Creating layer pool1/3x3_s2
I0714 21:31:35.799293 31376 net.cpp:91] Creating Layer pool1/3x3_s2
I0714 21:31:35.799299 31376 net.cpp:425] pool1/3x3_s2 <- conv1/7x7_s2
I0714 21:31:35.799306 31376 net.cpp:399] pool1/3x3_s2 -> pool1/3x3_s2
I0714 21:31:35.799631 31376 net.cpp:141] Setting up pool1/3x3_s2
I0714 21:31:35.799646 31376 net.cpp:148] Top shape: 10 64 56 56 (2007040)
I0714 21:31:35.799651 31376 net.cpp:156] Memory required for data: 78274560
I0714 21:31:35.799659 31376 layer_factory.hpp:77] Creating layer pool1/norm1
I0714 21:31:35.799671 31376 net.cpp:91] Creating Layer pool1/norm1
I0714 21:31:35.799677 31376 net.cpp:425] pool1/norm1 <- pool1/3x3_s2
I0714 21:31:35.799687 31376 net.cpp:399] pool1/norm1 -> pool1/norm1
I0714 21:31:35.800846 31372 net.cpp:141] Setting up conv2/3x3_reduce
I0714 21:31:35.800853 31376 net.cpp:141] Setting up pool1/norm1
I0714 21:31:35.800869 31372 net.cpp:148] Top shape: 10 64 56 56 (2007040)
I0714 21:31:35.800874 31376 net.cpp:148] Top shape: 10 64 56 56 (2007040)
I0714 21:31:35.800876 31372 net.cpp:156] Memory required for data: 94330880
I0714 21:31:35.800880 31376 net.cpp:156] Memory required for data: 86302720
I0714 21:31:35.800887 31376 layer_factory.hpp:77] Creating layer conv2/3x3_reduce
I0714 21:31:35.800891 31372 layer_factory.hpp:77] Creating layer conv2/relu_3x3_reduce
I0714 21:31:35.800904 31372 net.cpp:91] Creating Layer conv2/relu_3x3_reduce
I0714 21:31:35.800905 31376 net.cpp:91] Creating Layer conv2/3x3_reduce
I0714 21:31:35.800911 31372 net.cpp:425] conv2/relu_3x3_reduce <- conv2/3x3_reduce
I0714 21:31:35.800912 31376 net.cpp:425] conv2/3x3_reduce <- pool1/norm1
I0714 21:31:35.800925 31372 net.cpp:386] conv2/relu_3x3_reduce -> conv2/3x3_reduce (in-place)
I0714 21:31:35.800930 31376 net.cpp:399] conv2/3x3_reduce -> conv2/3x3_reduce
I0714 21:31:35.801906 31372 net.cpp:141] Setting up conv2/relu_3x3_reduce
I0714 21:31:35.801924 31372 net.cpp:148] Top shape: 10 64 56 56 (2007040)
I0714 21:31:35.801929 31372 net.cpp:156] Memory required for data: 102359040
I0714 21:31:35.801935 31372 layer_factory.hpp:77] Creating layer conv2/3x3
I0714 21:31:35.801956 31372 net.cpp:91] Creating Layer conv2/3x3
I0714 21:31:35.801962 31372 net.cpp:425] conv2/3x3 <- conv2/3x3_reduce
I0714 21:31:35.801973 31372 net.cpp:399] conv2/3x3 -> conv2/3x3
I0714 21:31:35.811966 31376 net.cpp:141] Setting up conv2/3x3_reduce
I0714 21:31:35.812044 31376 net.cpp:148] Top shape: 10 64 56 56 (2007040)
I0714 21:31:35.812057 31376 net.cpp:156] Memory required for data: 94330880
I0714 21:31:35.812114 31376 layer_factory.hpp:77] Creating layer conv2/relu_3x3_reduce
I0714 21:31:35.812130 31376 net.cpp:91] Creating Layer conv2/relu_3x3_reduce
I0714 21:31:35.812139 31376 net.cpp:425] conv2/relu_3x3_reduce <- conv2/3x3_reduce
I0714 21:31:35.812150 31376 net.cpp:386] conv2/relu_3x3_reduce -> conv2/3x3_reduce (in-place)
I0714 21:31:35.813215 31376 net.cpp:141] Setting up conv2/relu_3x3_reduce
I0714 21:31:35.813233 31376 net.cpp:148] Top shape: 10 64 56 56 (2007040)
I0714 21:31:35.813240 31376 net.cpp:156] Memory required for data: 102359040
I0714 21:31:35.813261 31376 layer_factory.hpp:77] Creating layer conv2/3x3
I0714 21:31:35.813300 31376 net.cpp:91] Creating Layer conv2/3x3
I0714 21:31:35.813308 31376 net.cpp:425] conv2/3x3 <- conv2/3x3_reduce
I0714 21:31:35.813319 31376 net.cpp:399] conv2/3x3 -> conv2/3x3
I0714 21:31:35.819025 31372 net.cpp:141] Setting up conv2/3x3
I0714 21:31:35.819049 31372 net.cpp:148] Top shape: 10 192 56 56 (6021120)
I0714 21:31:35.819056 31372 net.cpp:156] Memory required for data: 126443520
I0714 21:31:35.819074 31372 layer_factory.hpp:77] Creating layer conv2/relu_3x3
I0714 21:31:35.819092 31372 net.cpp:91] Creating Layer conv2/relu_3x3
I0714 21:31:35.819099 31372 net.cpp:425] conv2/relu_3x3 <- conv2/3x3
I0714 21:31:35.819108 31372 net.cpp:386] conv2/relu_3x3 -> conv2/3x3 (in-place)
I0714 21:31:35.819481 31372 net.cpp:141] Setting up conv2/relu_3x3
I0714 21:31:35.819495 31372 net.cpp:148] Top shape: 10 192 56 56 (6021120)
I0714 21:31:35.819500 31372 net.cpp:156] Memory required for data: 150528000
I0714 21:31:35.819506 31372 layer_factory.hpp:77] Creating layer conv2/norm2
I0714 21:31:35.819520 31372 net.cpp:91] Creating Layer conv2/norm2
I0714 21:31:35.819526 31372 net.cpp:425] conv2/norm2 <- conv2/3x3
I0714 21:31:35.819535 31372 net.cpp:399] conv2/norm2 -> conv2/norm2
I0714 21:31:35.821209 31372 net.cpp:141] Setting up conv2/norm2
I0714 21:31:35.821231 31372 net.cpp:148] Top shape: 10 192 56 56 (6021120)
I0714 21:31:35.821238 31372 net.cpp:156] Memory required for data: 174612480
I0714 21:31:35.821244 31372 layer_factory.hpp:77] Creating layer pool2/3x3_s2
I0714 21:31:35.821256 31372 net.cpp:91] Creating Layer pool2/3x3_s2
I0714 21:31:35.821262 31372 net.cpp:425] pool2/3x3_s2 <- conv2/norm2
I0714 21:31:35.821274 31372 net.cpp:399] pool2/3x3_s2 -> pool2/3x3_s2
I0714 21:31:35.821516 31372 net.cpp:141] Setting up pool2/3x3_s2
I0714 21:31:35.821535 31372 net.cpp:148] Top shape: 10 192 28 28 (1505280)
I0714 21:31:35.821543 31372 net.cpp:156] Memory required for data: 180633600
I0714 21:31:35.821552 31372 layer_factory.hpp:77] Creating layer pool2/3x3_s2_pool2/3x3_s2_0_split
I0714 21:31:35.821579 31372 net.cpp:91] Creating Layer pool2/3x3_s2_pool2/3x3_s2_0_split
I0714 21:31:35.821589 31372 net.cpp:425] pool2/3x3_s2_pool2/3x3_s2_0_split <- pool2/3x3_s2
I0714 21:31:35.821602 31372 net.cpp:399] pool2/3x3_s2_pool2/3x3_s2_0_split -> pool2/3x3_s2_pool2/3x3_s2_0_split_0
I0714 21:31:35.821629 31372 net.cpp:399] pool2/3x3_s2_pool2/3x3_s2_0_split -> pool2/3x3_s2_pool2/3x3_s2_0_split_1
I0714 21:31:35.821647 31372 net.cpp:399] pool2/3x3_s2_pool2/3x3_s2_0_split -> pool2/3x3_s2_pool2/3x3_s2_0_split_2
I0714 21:31:35.821662 31372 net.cpp:399] pool2/3x3_s2_pool2/3x3_s2_0_split -> pool2/3x3_s2_pool2/3x3_s2_0_split_3
I0714 21:31:35.822302 31376 net.cpp:141] Setting up conv2/3x3
I0714 21:31:35.822324 31376 net.cpp:148] Top shape: 10 192 56 56 (6021120)
I0714 21:31:35.822329 31376 net.cpp:156] Memory required for data: 126443520
I0714 21:31:35.822345 31376 layer_factory.hpp:77] Creating layer conv2/relu_3x3
I0714 21:31:35.822358 31376 net.cpp:91] Creating Layer conv2/relu_3x3
I0714 21:31:35.822365 31376 net.cpp:425] conv2/relu_3x3 <- conv2/3x3
I0714 21:31:35.822389 31376 net.cpp:386] conv2/relu_3x3 -> conv2/3x3 (in-place)
I0714 21:31:35.822648 31372 net.cpp:141] Setting up pool2/3x3_s2_pool2/3x3_s2_0_split
I0714 21:31:35.822669 31372 net.cpp:148] Top shape: 10 192 28 28 (1505280)
I0714 21:31:35.822681 31372 net.cpp:148] Top shape: 10 192 28 28 (1505280)
I0714 21:31:35.822706 31372 net.cpp:148] Top shape: 10 192 28 28 (1505280)
I0714 21:31:35.822718 31372 net.cpp:148] Top shape: 10 192 28 28 (1505280)
I0714 21:31:35.822726 31372 net.cpp:156] Memory required for data: 204718080
I0714 21:31:35.822739 31372 layer_factory.hpp:77] Creating layer inception_3a/1x1
I0714 21:31:35.822746 31376 net.cpp:141] Setting up conv2/relu_3x3
I0714 21:31:35.822762 31376 net.cpp:148] Top shape: 10 192 56 56 (6021120)
I0714 21:31:35.822767 31376 net.cpp:156] Memory required for data: 150528000
I0714 21:31:35.822765 31372 net.cpp:91] Creating Layer inception_3a/1x1
I0714 21:31:35.822773 31376 layer_factory.hpp:77] Creating layer conv2/norm2
I0714 21:31:35.822778 31372 net.cpp:425] inception_3a/1x1 <- pool2/3x3_s2_pool2/3x3_s2_0_split_0
I0714 21:31:35.822785 31376 net.cpp:91] Creating Layer conv2/norm2
I0714 21:31:35.822791 31376 net.cpp:425] conv2/norm2 <- conv2/3x3
I0714 21:31:35.822801 31376 net.cpp:399] conv2/norm2 -> conv2/norm2
I0714 21:31:35.822839 31372 net.cpp:399] inception_3a/1x1 -> inception_3a/1x1
I0714 21:31:35.823985 31376 net.cpp:141] Setting up conv2/norm2
I0714 21:31:35.824003 31376 net.cpp:148] Top shape: 10 192 56 56 (6021120)
I0714 21:31:35.824008 31376 net.cpp:156] Memory required for data: 174612480
I0714 21:31:35.824014 31376 layer_factory.hpp:77] Creating layer pool2/3x3_s2
I0714 21:31:35.824025 31376 net.cpp:91] Creating Layer pool2/3x3_s2
I0714 21:31:35.824031 31376 net.cpp:425] pool2/3x3_s2 <- conv2/norm2
I0714 21:31:35.824040 31376 net.cpp:399] pool2/3x3_s2 -> pool2/3x3_s2
I0714 21:31:35.824239 31376 net.cpp:141] Setting up pool2/3x3_s2
I0714 21:31:35.824254 31376 net.cpp:148] Top shape: 10 192 28 28 (1505280)
I0714 21:31:35.824260 31376 net.cpp:156] Memory required for data: 180633600
I0714 21:31:35.824265 31376 layer_factory.hpp:77] Creating layer pool2/3x3_s2_pool2/3x3_s2_0_split
I0714 21:31:35.824290 31376 net.cpp:91] Creating Layer pool2/3x3_s2_pool2/3x3_s2_0_split
I0714 21:31:35.824296 31376 net.cpp:425] pool2/3x3_s2_pool2/3x3_s2_0_split <- pool2/3x3_s2
I0714 21:31:35.824306 31376 net.cpp:399] pool2/3x3_s2_pool2/3x3_s2_0_split -> pool2/3x3_s2_pool2/3x3_s2_0_split_0
I0714 21:31:35.824317 31376 net.cpp:399] pool2/3x3_s2_pool2/3x3_s2_0_split -> pool2/3x3_s2_pool2/3x3_s2_0_split_1
I0714 21:31:35.824326 31376 net.cpp:399] pool2/3x3_s2_pool2/3x3_s2_0_split -> pool2/3x3_s2_pool2/3x3_s2_0_split_2
I0714 21:31:35.824336 31376 net.cpp:399] pool2/3x3_s2_pool2/3x3_s2_0_split -> pool2/3x3_s2_pool2/3x3_s2_0_split_3
I0714 21:31:35.824605 31376 net.cpp:141] Setting up pool2/3x3_s2_pool2/3x3_s2_0_split
I0714 21:31:35.824620 31376 net.cpp:148] Top shape: 10 192 28 28 (1505280)
I0714 21:31:35.824626 31376 net.cpp:148] Top shape: 10 192 28 28 (1505280)
I0714 21:31:35.824632 31376 net.cpp:148] Top shape: 10 192 28 28 (1505280)
I0714 21:31:35.824638 31376 net.cpp:148] Top shape: 10 192 28 28 (1505280)
I0714 21:31:35.824643 31376 net.cpp:156] Memory required for data: 204718080
I0714 21:31:35.824666 31376 layer_factory.hpp:77] Creating layer inception_3a/1x1
I0714 21:31:35.824703 31376 net.cpp:91] Creating Layer inception_3a/1x1
I0714 21:31:35.824712 31376 net.cpp:425] inception_3a/1x1 <- pool2/3x3_s2_pool2/3x3_s2_0_split_0
I0714 21:31:35.824734 31376 net.cpp:399] inception_3a/1x1 -> inception_3a/1x1
I0714 21:31:35.831908 31372 net.cpp:141] Setting up inception_3a/1x1
I0714 21:31:35.831929 31372 net.cpp:148] Top shape: 10 64 28 28 (501760)
I0714 21:31:35.831936 31372 net.cpp:156] Memory required for data: 206725120
I0714 21:31:35.831948 31372 layer_factory.hpp:77] Creating layer inception_3a/relu_1x1
I0714 21:31:35.831972 31372 net.cpp:91] Creating Layer inception_3a/relu_1x1
I0714 21:31:35.831979 31372 net.cpp:425] inception_3a/relu_1x1 <- inception_3a/1x1
I0714 21:31:35.831989 31372 net.cpp:386] inception_3a/relu_1x1 -> inception_3a/1x1 (in-place)
I0714 21:31:35.832772 31372 net.cpp:141] Setting up inception_3a/relu_1x1
I0714 21:31:35.832787 31372 net.cpp:148] Top shape: 10 64 28 28 (501760)
I0714 21:31:35.832792 31372 net.cpp:156] Memory required for data: 208732160
I0714 21:31:35.832798 31372 layer_factory.hpp:77] Creating layer inception_3a/3x3_reduce
I0714 21:31:35.832818 31372 net.cpp:91] Creating Layer inception_3a/3x3_reduce
I0714 21:31:35.832824 31372 net.cpp:425] inception_3a/3x3_reduce <- pool2/3x3_s2_pool2/3x3_s2_0_split_1
I0714 21:31:35.832836 31372 net.cpp:399] inception_3a/3x3_reduce -> inception_3a/3x3_reduce
I0714 21:31:35.834740 31376 net.cpp:141] Setting up inception_3a/1x1
I0714 21:31:35.834764 31376 net.cpp:148] Top shape: 10 64 28 28 (501760)
I0714 21:31:35.834769 31376 net.cpp:156] Memory required for data: 206725120
I0714 21:31:35.834784 31376 layer_factory.hpp:77] Creating layer inception_3a/relu_1x1
I0714 21:31:35.834794 31376 net.cpp:91] Creating Layer inception_3a/relu_1x1
I0714 21:31:35.834800 31376 net.cpp:425] inception_3a/relu_1x1 <- inception_3a/1x1
I0714 21:31:35.834810 31376 net.cpp:386] inception_3a/relu_1x1 -> inception_3a/1x1 (in-place)
I0714 21:31:35.835722 31376 net.cpp:141] Setting up inception_3a/relu_1x1
I0714 21:31:35.835737 31376 net.cpp:148] Top shape: 10 64 28 28 (501760)
I0714 21:31:35.835742 31376 net.cpp:156] Memory required for data: 208732160
I0714 21:31:35.835748 31376 layer_factory.hpp:77] Creating layer inception_3a/3x3_reduce
I0714 21:31:35.835765 31376 net.cpp:91] Creating Layer inception_3a/3x3_reduce
I0714 21:31:35.835772 31376 net.cpp:425] inception_3a/3x3_reduce <- pool2/3x3_s2_pool2/3x3_s2_0_split_1
I0714 21:31:35.835783 31376 net.cpp:399] inception_3a/3x3_reduce -> inception_3a/3x3_reduce
I0714 21:31:35.841862 31372 net.cpp:141] Setting up inception_3a/3x3_reduce
I0714 21:31:35.841883 31372 net.cpp:148] Top shape: 10 96 28 28 (752640)
I0714 21:31:35.841889 31372 net.cpp:156] Memory required for data: 211742720
I0714 21:31:35.841907 31372 layer_factory.hpp:77] Creating layer inception_3a/relu_3x3_reduce
I0714 21:31:35.841919 31372 net.cpp:91] Creating Layer inception_3a/relu_3x3_reduce
I0714 21:31:35.841925 31372 net.cpp:425] inception_3a/relu_3x3_reduce <- inception_3a/3x3_reduce
I0714 21:31:35.841945 31372 net.cpp:386] inception_3a/relu_3x3_reduce -> inception_3a/3x3_reduce (in-place)
I0714 21:31:35.842233 31372 net.cpp:141] Setting up inception_3a/relu_3x3_reduce
I0714 21:31:35.842247 31372 net.cpp:148] Top shape: 10 96 28 28 (752640)
I0714 21:31:35.842252 31372 net.cpp:156] Memory required for data: 214753280
I0714 21:31:35.842257 31372 layer_factory.hpp:77] Creating layer inception_3a/3x3
I0714 21:31:35.842280 31372 net.cpp:91] Creating Layer inception_3a/3x3
I0714 21:31:35.842288 31372 net.cpp:425] inception_3a/3x3 <- inception_3a/3x3_reduce
I0714 21:31:35.842304 31372 net.cpp:399] inception_3a/3x3 -> inception_3a/3x3
I0714 21:31:35.843421 31376 net.cpp:141] Setting up inception_3a/3x3_reduce
I0714 21:31:35.843442 31376 net.cpp:148] Top shape: 10 96 28 28 (752640)
I0714 21:31:35.843448 31376 net.cpp:156] Memory required for data: 211742720
I0714 21:31:35.843468 31376 layer_factory.hpp:77] Creating layer inception_3a/relu_3x3_reduce
I0714 21:31:35.843502 31376 net.cpp:91] Creating Layer inception_3a/relu_3x3_reduce
I0714 21:31:35.843509 31376 net.cpp:425] inception_3a/relu_3x3_reduce <- inception_3a/3x3_reduce
I0714 21:31:35.843519 31376 net.cpp:386] inception_3a/relu_3x3_reduce -> inception_3a/3x3_reduce (in-place)
I0714 21:31:35.843791 31376 net.cpp:141] Setting up inception_3a/relu_3x3_reduce
I0714 21:31:35.843802 31376 net.cpp:148] Top shape: 10 96 28 28 (752640)
I0714 21:31:35.843807 31376 net.cpp:156] Memory required for data: 214753280
I0714 21:31:35.843813 31376 layer_factory.hpp:77] Creating layer inception_3a/3x3
I0714 21:31:35.843838 31376 net.cpp:91] Creating Layer inception_3a/3x3
I0714 21:31:35.843844 31376 net.cpp:425] inception_3a/3x3 <- inception_3a/3x3_reduce
I0714 21:31:35.843854 31376 net.cpp:399] inception_3a/3x3 -> inception_3a/3x3
I0714 21:31:35.847420 31372 net.cpp:141] Setting up inception_3a/3x3
I0714 21:31:35.847443 31372 net.cpp:148] Top shape: 10 128 28 28 (1003520)
I0714 21:31:35.847450 31372 net.cpp:156] Memory required for data: 218767360
I0714 21:31:35.847460 31372 layer_factory.hpp:77] Creating layer inception_3a/relu_3x3
I0714 21:31:35.847470 31372 net.cpp:91] Creating Layer inception_3a/relu_3x3
I0714 21:31:35.847476 31372 net.cpp:425] inception_3a/relu_3x3 <- inception_3a/3x3
I0714 21:31:35.847484 31372 net.cpp:386] inception_3a/relu_3x3 -> inception_3a/3x3 (in-place)
I0714 21:31:35.848500 31372 net.cpp:141] Setting up inception_3a/relu_3x3
I0714 21:31:35.848518 31372 net.cpp:148] Top shape: 10 128 28 28 (1003520)
I0714 21:31:35.848523 31372 net.cpp:156] Memory required for data: 222781440
I0714 21:31:35.848529 31372 layer_factory.hpp:77] Creating layer inception_3a/5x5_reduce
I0714 21:31:35.848534 31376 net.cpp:141] Setting up inception_3a/3x3
I0714 21:31:35.848546 31372 net.cpp:91] Creating Layer inception_3a/5x5_reduce
I0714 21:31:35.848551 31376 net.cpp:148] Top shape: 10 128 28 28 (1003520)
I0714 21:31:35.848554 31372 net.cpp:425] inception_3a/5x5_reduce <- pool2/3x3_s2_pool2/3x3_s2_0_split_2
I0714 21:31:35.848556 31376 net.cpp:156] Memory required for data: 218767360
I0714 21:31:35.848565 31372 net.cpp:399] inception_3a/5x5_reduce -> inception_3a/5x5_reduce
I0714 21:31:35.848567 31376 layer_factory.hpp:77] Creating layer inception_3a/relu_3x3
I0714 21:31:35.848593 31376 net.cpp:91] Creating Layer inception_3a/relu_3x3
I0714 21:31:35.848601 31376 net.cpp:425] inception_3a/relu_3x3 <- inception_3a/3x3
I0714 21:31:35.848609 31376 net.cpp:386] inception_3a/relu_3x3 -> inception_3a/3x3 (in-place)
I0714 21:31:35.849627 31376 net.cpp:141] Setting up inception_3a/relu_3x3
I0714 21:31:35.849644 31376 net.cpp:148] Top shape: 10 128 28 28 (1003520)
I0714 21:31:35.849649 31376 net.cpp:156] Memory required for data: 222781440
I0714 21:31:35.849655 31376 layer_factory.hpp:77] Creating layer inception_3a/5x5_reduce
I0714 21:31:35.849678 31376 net.cpp:91] Creating Layer inception_3a/5x5_reduce
I0714 21:31:35.849684 31376 net.cpp:425] inception_3a/5x5_reduce <- pool2/3x3_s2_pool2/3x3_s2_0_split_2
I0714 21:31:35.849707 31376 net.cpp:399] inception_3a/5x5_reduce -> inception_3a/5x5_reduce
I0714 21:31:35.853956 31372 net.cpp:141] Setting up inception_3a/5x5_reduce
I0714 21:31:35.853976 31372 net.cpp:148] Top shape: 10 16 28 28 (125440)
I0714 21:31:35.853982 31372 net.cpp:156] Memory required for data: 223283200
I0714 21:31:35.853996 31372 layer_factory.hpp:77] Creating layer inception_3a/relu_5x5_reduce
I0714 21:31:35.854006 31372 net.cpp:91] Creating Layer inception_3a/relu_5x5_reduce
I0714 21:31:35.854012 31372 net.cpp:425] inception_3a/relu_5x5_reduce <- inception_3a/5x5_reduce
I0714 21:31:35.854020 31372 net.cpp:386] inception_3a/relu_5x5_reduce -> inception_3a/5x5_reduce (in-place)
I0714 21:31:35.854460 31372 net.cpp:141] Setting up inception_3a/relu_5x5_reduce
I0714 21:31:35.854475 31372 net.cpp:148] Top shape: 10 16 28 28 (125440)
I0714 21:31:35.854480 31372 net.cpp:156] Memory required for data: 223784960
I0714 21:31:35.854486 31372 layer_factory.hpp:77] Creating layer inception_3a/5x5
I0714 21:31:35.854503 31372 net.cpp:91] Creating Layer inception_3a/5x5
I0714 21:31:35.854511 31372 net.cpp:425] inception_3a/5x5 <- inception_3a/5x5_reduce
I0714 21:31:35.854523 31372 net.cpp:399] inception_3a/5x5 -> inception_3a/5x5
I0714 21:31:35.854555 31376 net.cpp:141] Setting up inception_3a/5x5_reduce
I0714 21:31:35.854573 31376 net.cpp:148] Top shape: 10 16 28 28 (125440)
I0714 21:31:35.854578 31376 net.cpp:156] Memory required for data: 223283200
I0714 21:31:35.854603 31376 layer_factory.hpp:77] Creating layer inception_3a/relu_5x5_reduce
I0714 21:31:35.854615 31376 net.cpp:91] Creating Layer inception_3a/relu_5x5_reduce
I0714 21:31:35.854622 31376 net.cpp:425] inception_3a/relu_5x5_reduce <- inception_3a/5x5_reduce
I0714 21:31:35.854630 31376 net.cpp:386] inception_3a/relu_5x5_reduce -> inception_3a/5x5_reduce (in-place)
I0714 21:31:35.855051 31376 net.cpp:141] Setting up inception_3a/relu_5x5_reduce
I0714 21:31:35.855065 31376 net.cpp:148] Top shape: 10 16 28 28 (125440)
I0714 21:31:35.855070 31376 net.cpp:156] Memory required for data: 223784960
I0714 21:31:35.855075 31376 layer_factory.hpp:77] Creating layer inception_3a/5x5
I0714 21:31:35.855108 31376 net.cpp:91] Creating Layer inception_3a/5x5
I0714 21:31:35.855115 31376 net.cpp:425] inception_3a/5x5 <- inception_3a/5x5_reduce
I0714 21:31:35.855129 31376 net.cpp:399] inception_3a/5x5 -> inception_3a/5x5
I0714 21:31:35.860781 31372 net.cpp:141] Setting up inception_3a/5x5
I0714 21:31:35.860810 31372 net.cpp:148] Top shape: 10 32 28 28 (250880)
I0714 21:31:35.860816 31372 net.cpp:156] Memory required for data: 224788480
I0714 21:31:35.860826 31372 layer_factory.hpp:77] Creating layer inception_3a/relu_5x5
I0714 21:31:35.860836 31372 net.cpp:91] Creating Layer inception_3a/relu_5x5
I0714 21:31:35.860841 31372 net.cpp:425] inception_3a/relu_5x5 <- inception_3a/5x5
I0714 21:31:35.860852 31372 net.cpp:386] inception_3a/relu_5x5 -> inception_3a/5x5 (in-place)
I0714 21:31:35.861245 31372 net.cpp:141] Setting up inception_3a/relu_5x5
I0714 21:31:35.861258 31372 net.cpp:148] Top shape: 10 32 28 28 (250880)
I0714 21:31:35.861263 31372 net.cpp:156] Memory required for data: 225792000
I0714 21:31:35.861269 31372 layer_factory.hpp:77] Creating layer inception_3a/pool
I0714 21:31:35.861284 31372 net.cpp:91] Creating Layer inception_3a/pool
I0714 21:31:35.861291 31372 net.cpp:425] inception_3a/pool <- pool2/3x3_s2_pool2/3x3_s2_0_split_3
I0714 21:31:35.861299 31372 net.cpp:399] inception_3a/pool -> inception_3a/pool
I0714 21:31:35.861860 31376 net.cpp:141] Setting up inception_3a/5x5
I0714 21:31:35.861881 31376 net.cpp:148] Top shape: 10 32 28 28 (250880)
I0714 21:31:35.861888 31376 net.cpp:156] Memory required for data: 224788480
I0714 21:31:35.861898 31376 layer_factory.hpp:77] Creating layer inception_3a/relu_5x5
I0714 21:31:35.861899 31372 net.cpp:141] Setting up inception_3a/pool
I0714 21:31:35.861907 31376 net.cpp:91] Creating Layer inception_3a/relu_5x5
I0714 21:31:35.861912 31372 net.cpp:148] Top shape: 10 192 28 28 (1505280)
I0714 21:31:35.861914 31376 net.cpp:425] inception_3a/relu_5x5 <- inception_3a/5x5
I0714 21:31:35.861918 31372 net.cpp:156] Memory required for data: 231813120
I0714 21:31:35.861923 31376 net.cpp:386] inception_3a/relu_5x5 -> inception_3a/5x5 (in-place)
I0714 21:31:35.861927 31372 layer_factory.hpp:77] Creating layer inception_3a/pool_proj
I0714 21:31:35.861945 31372 net.cpp:91] Creating Layer inception_3a/pool_proj
I0714 21:31:35.861951 31372 net.cpp:425] inception_3a/pool_proj <- inception_3a/pool
I0714 21:31:35.861963 31372 net.cpp:399] inception_3a/pool_proj -> inception_3a/pool_proj
I0714 21:31:35.862371 31376 net.cpp:141] Setting up inception_3a/relu_5x5
I0714 21:31:35.862385 31376 net.cpp:148] Top shape: 10 32 28 28 (250880)
I0714 21:31:35.862390 31376 net.cpp:156] Memory required for data: 225792000
I0714 21:31:35.862396 31376 layer_factory.hpp:77] Creating layer inception_3a/pool
I0714 21:31:35.862408 31376 net.cpp:91] Creating Layer inception_3a/pool
I0714 21:31:35.862414 31376 net.cpp:425] inception_3a/pool <- pool2/3x3_s2_pool2/3x3_s2_0_split_3
I0714 21:31:35.862423 31376 net.cpp:399] inception_3a/pool -> inception_3a/pool
I0714 21:31:35.862604 31376 net.cpp:141] Setting up inception_3a/pool
I0714 21:31:35.862617 31376 net.cpp:148] Top shape: 10 192 28 28 (1505280)
I0714 21:31:35.862622 31376 net.cpp:156] Memory required for data: 231813120
I0714 21:31:35.862638 31376 layer_factory.hpp:77] Creating layer inception_3a/pool_proj
I0714 21:31:35.862663 31376 net.cpp:91] Creating Layer inception_3a/pool_proj
I0714 21:31:35.862670 31376 net.cpp:425] inception_3a/pool_proj <- inception_3a/pool
I0714 21:31:35.862684 31376 net.cpp:399] inception_3a/pool_proj -> inception_3a/pool_proj
I0714 21:31:35.866621 31372 net.cpp:141] Setting up inception_3a/pool_proj
I0714 21:31:35.866639 31372 net.cpp:148] Top shape: 10 32 28 28 (250880)
I0714 21:31:35.866646 31372 net.cpp:156] Memory required for data: 232816640
I0714 21:31:35.866662 31372 layer_factory.hpp:77] Creating layer inception_3a/relu_pool_proj
I0714 21:31:35.866675 31372 net.cpp:91] Creating Layer inception_3a/relu_pool_proj
I0714 21:31:35.866683 31372 net.cpp:425] inception_3a/relu_pool_proj <- inception_3a/pool_proj
I0714 21:31:35.866701 31372 net.cpp:386] inception_3a/relu_pool_proj -> inception_3a/pool_proj (in-place)
I0714 21:31:35.867657 31372 net.cpp:141] Setting up inception_3a/relu_pool_proj
I0714 21:31:35.867674 31372 net.cpp:148] Top shape: 10 32 28 28 (250880)
I0714 21:31:35.867681 31372 net.cpp:156] Memory required for data: 233820160
I0714 21:31:35.867686 31372 layer_factory.hpp:77] Creating layer inception_3a/output
I0714 21:31:35.867713 31372 net.cpp:91] Creating Layer inception_3a/output
I0714 21:31:35.867719 31372 net.cpp:425] inception_3a/output <- inception_3a/1x1
I0714 21:31:35.867727 31372 net.cpp:425] inception_3a/output <- inception_3a/3x3
I0714 21:31:35.867733 31372 net.cpp:425] inception_3a/output <- inception_3a/5x5
I0714 21:31:35.867739 31372 net.cpp:425] inception_3a/output <- inception_3a/pool_proj
I0714 21:31:35.867746 31372 net.cpp:399] inception_3a/output -> inception_3a/output
I0714 21:31:35.867769 31376 net.cpp:141] Setting up inception_3a/pool_proj
I0714 21:31:35.867785 31376 net.cpp:148] Top shape: 10 32 28 28 (250880)
I0714 21:31:35.867790 31376 net.cpp:156] Memory required for data: 232816640
I0714 21:31:35.867810 31376 layer_factory.hpp:77] Creating layer inception_3a/relu_pool_proj
I0714 21:31:35.867817 31372 net.cpp:141] Setting up inception_3a/output
I0714 21:31:35.867820 31376 net.cpp:91] Creating Layer inception_3a/relu_pool_proj
I0714 21:31:35.867835 31372 net.cpp:148] Top shape: 10 256 28 28 (2007040)
I0714 21:31:35.867836 31376 net.cpp:425] inception_3a/relu_pool_proj <- inception_3a/pool_proj
I0714 21:31:35.867840 31372 net.cpp:156] Memory required for data: 241848320
I0714 21:31:35.867846 31376 net.cpp:386] inception_3a/relu_pool_proj -> inception_3a/pool_proj (in-place)
I0714 21:31:35.867847 31372 layer_factory.hpp:77] Creating layer inception_3a/output_inception_3a/output_0_split
I0714 21:31:35.867869 31372 net.cpp:91] Creating Layer inception_3a/output_inception_3a/output_0_split
I0714 21:31:35.867877 31372 net.cpp:425] inception_3a/output_inception_3a/output_0_split <- inception_3a/output
I0714 21:31:35.867887 31372 net.cpp:399] inception_3a/output_inception_3a/output_0_split -> inception_3a/output_inception_3a/output_0_split_0
I0714 21:31:35.867898 31372 net.cpp:399] inception_3a/output_inception_3a/output_0_split -> inception_3a/output_inception_3a/output_0_split_1
I0714 21:31:35.867908 31372 net.cpp:399] inception_3a/output_inception_3a/output_0_split -> inception_3a/output_inception_3a/output_0_split_2
I0714 21:31:35.867918 31372 net.cpp:399] inception_3a/output_inception_3a/output_0_split -> inception_3a/output_inception_3a/output_0_split_3
I0714 21:31:35.868809 31372 net.cpp:141] Setting up inception_3a/output_inception_3a/output_0_split
I0714 21:31:35.868823 31372 net.cpp:148] Top shape: 10 256 28 28 (2007040)
I0714 21:31:35.868823 31376 net.cpp:141] Setting up inception_3a/relu_pool_proj
I0714 21:31:35.868829 31372 net.cpp:148] Top shape: 10 256 28 28 (2007040)
I0714 21:31:35.868841 31376 net.cpp:148] Top shape: 10 32 28 28 (250880)
I0714 21:31:35.868842 31372 net.cpp:148] Top shape: 10 256 28 28 (2007040)
I0714 21:31:35.868846 31376 net.cpp:156] Memory required for data: 233820160
I0714 21:31:35.868849 31372 net.cpp:148] Top shape: 10 256 28 28 (2007040)
I0714 21:31:35.868852 31376 layer_factory.hpp:77] Creating layer inception_3a/output
I0714 21:31:35.868854 31372 net.cpp:156] Memory required for data: 273960960
I0714 21:31:35.868860 31372 layer_factory.hpp:77] Creating layer inception_3b/1x1
I0714 21:31:35.868865 31376 net.cpp:91] Creating Layer inception_3a/output
I0714 21:31:35.868870 31376 net.cpp:425] inception_3a/output <- inception_3a/1x1
I0714 21:31:35.868877 31376 net.cpp:425] inception_3a/output <- inception_3a/3x3
I0714 21:31:35.868878 31372 net.cpp:91] Creating Layer inception_3b/1x1
I0714 21:31:35.868883 31376 net.cpp:425] inception_3a/output <- inception_3a/5x5
I0714 21:31:35.868885 31372 net.cpp:425] inception_3b/1x1 <- inception_3a/output_inception_3a/output_0_split_0
I0714 21:31:35.868890 31376 net.cpp:425] inception_3a/output <- inception_3a/pool_proj
I0714 21:31:35.868897 31376 net.cpp:399] inception_3a/output -> inception_3a/output
I0714 21:31:35.868897 31372 net.cpp:399] inception_3b/1x1 -> inception_3b/1x1
I0714 21:31:35.869040 31376 net.cpp:141] Setting up inception_3a/output
I0714 21:31:35.869055 31376 net.cpp:148] Top shape: 10 256 28 28 (2007040)
I0714 21:31:35.869060 31376 net.cpp:156] Memory required for data: 241848320
I0714 21:31:35.869066 31376 layer_factory.hpp:77] Creating layer inception_3a/output_inception_3a/output_0_split
I0714 21:31:35.869076 31376 net.cpp:91] Creating Layer inception_3a/output_inception_3a/output_0_split
I0714 21:31:35.869081 31376 net.cpp:425] inception_3a/output_inception_3a/output_0_split <- inception_3a/output
I0714 21:31:35.869091 31376 net.cpp:399] inception_3a/output_inception_3a/output_0_split -> inception_3a/output_inception_3a/output_0_split_0
I0714 21:31:35.869101 31376 net.cpp:399] inception_3a/output_inception_3a/output_0_split -> inception_3a/output_inception_3a/output_0_split_1
I0714 21:31:35.869109 31376 net.cpp:399] inception_3a/output_inception_3a/output_0_split -> inception_3a/output_inception_3a/output_0_split_2
I0714 21:31:35.869122 31376 net.cpp:399] inception_3a/output_inception_3a/output_0_split -> inception_3a/output_inception_3a/output_0_split_3
I0714 21:31:35.869493 31376 net.cpp:141] Setting up inception_3a/output_inception_3a/output_0_split
I0714 21:31:35.869504 31376 net.cpp:148] Top shape: 10 256 28 28 (2007040)
I0714 21:31:35.869511 31376 net.cpp:148] Top shape: 10 256 28 28 (2007040)
I0714 21:31:35.869516 31376 net.cpp:148] Top shape: 10 256 28 28 (2007040)
I0714 21:31:35.869523 31376 net.cpp:148] Top shape: 10 256 28 28 (2007040)
I0714 21:31:35.869527 31376 net.cpp:156] Memory required for data: 273960960
I0714 21:31:35.869544 31376 layer_factory.hpp:77] Creating layer inception_3b/1x1
I0714 21:31:35.869573 31376 net.cpp:91] Creating Layer inception_3b/1x1
I0714 21:31:35.869580 31376 net.cpp:425] inception_3b/1x1 <- inception_3a/output_inception_3a/output_0_split_0
I0714 21:31:35.869590 31376 net.cpp:399] inception_3b/1x1 -> inception_3b/1x1
I0714 21:31:35.873796 31372 net.cpp:141] Setting up inception_3b/1x1
I0714 21:31:35.873818 31372 net.cpp:148] Top shape: 10 128 28 28 (1003520)
I0714 21:31:35.873824 31372 net.cpp:156] Memory required for data: 277975040
I0714 21:31:35.873834 31372 layer_factory.hpp:77] Creating layer inception_3b/relu_1x1
I0714 21:31:35.873843 31372 net.cpp:91] Creating Layer inception_3b/relu_1x1
I0714 21:31:35.873850 31372 net.cpp:425] inception_3b/relu_1x1 <- inception_3b/1x1
I0714 21:31:35.873858 31372 net.cpp:386] inception_3b/relu_1x1 -> inception_3b/1x1 (in-place)
I0714 21:31:35.874275 31372 net.cpp:141] Setting up inception_3b/relu_1x1
I0714 21:31:35.874289 31372 net.cpp:148] Top shape: 10 128 28 28 (1003520)
I0714 21:31:35.874294 31372 net.cpp:156] Memory required for data: 281989120
I0714 21:31:35.874300 31372 layer_factory.hpp:77] Creating layer inception_3b/3x3_reduce
I0714 21:31:35.874320 31372 net.cpp:91] Creating Layer inception_3b/3x3_reduce
I0714 21:31:35.874325 31372 net.cpp:425] inception_3b/3x3_reduce <- inception_3a/output_inception_3a/output_0_split_1
I0714 21:31:35.874339 31372 net.cpp:399] inception_3b/3x3_reduce -> inception_3b/3x3_reduce
I0714 21:31:35.874379 31376 net.cpp:141] Setting up inception_3b/1x1
I0714 21:31:35.874395 31376 net.cpp:148] Top shape: 10 128 28 28 (1003520)
I0714 21:31:35.874402 31376 net.cpp:156] Memory required for data: 277975040
I0714 21:31:35.874411 31376 layer_factory.hpp:77] Creating layer inception_3b/relu_1x1
I0714 21:31:35.874423 31376 net.cpp:91] Creating Layer inception_3b/relu_1x1
I0714 21:31:35.874430 31376 net.cpp:425] inception_3b/relu_1x1 <- inception_3b/1x1
I0714 21:31:35.874439 31376 net.cpp:386] inception_3b/relu_1x1 -> inception_3b/1x1 (in-place)
I0714 21:31:35.874845 31376 net.cpp:141] Setting up inception_3b/relu_1x1
I0714 21:31:35.874858 31376 net.cpp:148] Top shape: 10 128 28 28 (1003520)
I0714 21:31:35.874863 31376 net.cpp:156] Memory required for data: 281989120
I0714 21:31:35.874869 31376 layer_factory.hpp:77] Creating layer inception_3b/3x3_reduce
I0714 21:31:35.874886 31376 net.cpp:91] Creating Layer inception_3b/3x3_reduce
I0714 21:31:35.874892 31376 net.cpp:425] inception_3b/3x3_reduce <- inception_3a/output_inception_3a/output_0_split_1
I0714 21:31:35.874905 31376 net.cpp:399] inception_3b/3x3_reduce -> inception_3b/3x3_reduce
I0714 21:31:35.878643 31372 net.cpp:141] Setting up inception_3b/3x3_reduce
I0714 21:31:35.878662 31372 net.cpp:148] Top shape: 10 128 28 28 (1003520)
I0714 21:31:35.878669 31372 net.cpp:156] Memory required for data: 286003200
I0714 21:31:35.878677 31372 layer_factory.hpp:77] Creating layer inception_3b/relu_3x3_reduce
I0714 21:31:35.878702 31372 net.cpp:91] Creating Layer inception_3b/relu_3x3_reduce
I0714 21:31:35.878710 31372 net.cpp:425] inception_3b/relu_3x3_reduce <- inception_3b/3x3_reduce
I0714 21:31:35.878720 31372 net.cpp:386] inception_3b/relu_3x3_reduce -> inception_3b/3x3_reduce (in-place)
I0714 21:31:35.879014 31376 net.cpp:141] Setting up inception_3b/3x3_reduce
I0714 21:31:35.879030 31376 net.cpp:148] Top shape: 10 128 28 28 (1003520)
I0714 21:31:35.879035 31376 net.cpp:156] Memory required for data: 286003200
I0714 21:31:35.879060 31376 layer_factory.hpp:77] Creating layer inception_3b/relu_3x3_reduce
I0714 21:31:35.879079 31376 net.cpp:91] Creating Layer inception_3b/relu_3x3_reduce
I0714 21:31:35.879086 31376 net.cpp:425] inception_3b/relu_3x3_reduce <- inception_3b/3x3_reduce
I0714 21:31:35.879086 31372 net.cpp:141] Setting up inception_3b/relu_3x3_reduce
I0714 21:31:35.879096 31376 net.cpp:386] inception_3b/relu_3x3_reduce -> inception_3b/3x3_reduce (in-place)
I0714 21:31:35.879101 31372 net.cpp:148] Top shape: 10 128 28 28 (1003520)
I0714 21:31:35.879106 31372 net.cpp:156] Memory required for data: 290017280
I0714 21:31:35.879112 31372 layer_factory.hpp:77] Creating layer inception_3b/3x3
I0714 21:31:35.879130 31372 net.cpp:91] Creating Layer inception_3b/3x3
I0714 21:31:35.879137 31372 net.cpp:425] inception_3b/3x3 <- inception_3b/3x3_reduce
I0714 21:31:35.879149 31372 net.cpp:399] inception_3b/3x3 -> inception_3b/3x3
I0714 21:31:35.879529 31376 net.cpp:141] Setting up inception_3b/relu_3x3_reduce
I0714 21:31:35.879542 31376 net.cpp:148] Top shape: 10 128 28 28 (1003520)
I0714 21:31:35.879547 31376 net.cpp:156] Memory required for data: 290017280
I0714 21:31:35.879554 31376 layer_factory.hpp:77] Creating layer inception_3b/3x3
I0714 21:31:35.879577 31376 net.cpp:91] Creating Layer inception_3b/3x3
I0714 21:31:35.879585 31376 net.cpp:425] inception_3b/3x3 <- inception_3b/3x3_reduce
I0714 21:31:35.879595 31376 net.cpp:399] inception_3b/3x3 -> inception_3b/3x3
I0714 21:31:35.887476 31372 net.cpp:141] Setting up inception_3b/3x3
I0714 21:31:35.887497 31372 net.cpp:148] Top shape: 10 192 28 28 (1505280)
I0714 21:31:35.887503 31372 net.cpp:156] Memory required for data: 296038400
I0714 21:31:35.887513 31372 layer_factory.hpp:77] Creating layer inception_3b/relu_3x3
I0714 21:31:35.887537 31372 net.cpp:91] Creating Layer inception_3b/relu_3x3
I0714 21:31:35.887542 31372 net.cpp:425] inception_3b/relu_3x3 <- inception_3b/3x3
I0714 21:31:35.887552 31372 net.cpp:386] inception_3b/relu_3x3 -> inception_3b/3x3 (in-place)
I0714 21:31:35.888553 31372 net.cpp:141] Setting up inception_3b/relu_3x3
I0714 21:31:35.888571 31372 net.cpp:148] Top shape: 10 192 28 28 (1505280)
I0714 21:31:35.888576 31372 net.cpp:156] Memory required for data: 302059520
I0714 21:31:35.888581 31372 layer_factory.hpp:77] Creating layer inception_3b/5x5_reduce
I0714 21:31:35.888602 31372 net.cpp:91] Creating Layer inception_3b/5x5_reduce
I0714 21:31:35.888609 31372 net.cpp:425] inception_3b/5x5_reduce <- inception_3a/output_inception_3a/output_0_split_2
I0714 21:31:35.888622 31372 net.cpp:399] inception_3b/5x5_reduce -> inception_3b/5x5_reduce
I0714 21:31:35.888656 31376 net.cpp:141] Setting up inception_3b/3x3
I0714 21:31:35.888672 31376 net.cpp:148] Top shape: 10 192 28 28 (1505280)
I0714 21:31:35.888679 31376 net.cpp:156] Memory required for data: 296038400
I0714 21:31:35.888689 31376 layer_factory.hpp:77] Creating layer inception_3b/relu_3x3
I0714 21:31:35.888706 31376 net.cpp:91] Creating Layer inception_3b/relu_3x3
I0714 21:31:35.888713 31376 net.cpp:425] inception_3b/relu_3x3 <- inception_3b/3x3
I0714 21:31:35.888721 31376 net.cpp:386] inception_3b/relu_3x3 -> inception_3b/3x3 (in-place)
I0714 21:31:35.889736 31376 net.cpp:141] Setting up inception_3b/relu_3x3
I0714 21:31:35.889753 31376 net.cpp:148] Top shape: 10 192 28 28 (1505280)
I0714 21:31:35.889758 31376 net.cpp:156] Memory required for data: 302059520
I0714 21:31:35.889765 31376 layer_factory.hpp:77] Creating layer inception_3b/5x5_reduce
I0714 21:31:35.889788 31376 net.cpp:91] Creating Layer inception_3b/5x5_reduce
I0714 21:31:35.889794 31376 net.cpp:425] inception_3b/5x5_reduce <- inception_3a/output_inception_3a/output_0_split_2
I0714 21:31:35.889806 31376 net.cpp:399] inception_3b/5x5_reduce -> inception_3b/5x5_reduce
I0714 21:31:35.894057 31372 net.cpp:141] Setting up inception_3b/5x5_reduce
I0714 21:31:35.894075 31372 net.cpp:148] Top shape: 10 32 28 28 (250880)
I0714 21:31:35.894081 31372 net.cpp:156] Memory required for data: 303063040
I0714 21:31:35.894091 31372 layer_factory.hpp:77] Creating layer inception_3b/relu_5x5_reduce
I0714 21:31:35.894103 31372 net.cpp:91] Creating Layer inception_3b/relu_5x5_reduce
I0714 21:31:35.894109 31372 net.cpp:425] inception_3b/relu_5x5_reduce <- inception_3b/5x5_reduce
I0714 21:31:35.894119 31372 net.cpp:386] inception_3b/relu_5x5_reduce -> inception_3b/5x5_reduce (in-place)
I0714 21:31:35.894542 31372 net.cpp:141] Setting up inception_3b/relu_5x5_reduce
I0714 21:31:35.894558 31372 net.cpp:148] Top shape: 10 32 28 28 (250880)
I0714 21:31:35.894563 31372 net.cpp:156] Memory required for data: 304066560
I0714 21:31:35.894569 31372 layer_factory.hpp:77] Creating layer inception_3b/5x5
I0714 21:31:35.894588 31372 net.cpp:91] Creating Layer inception_3b/5x5
I0714 21:31:35.894594 31372 net.cpp:425] inception_3b/5x5 <- inception_3b/5x5_reduce
I0714 21:31:35.894608 31372 net.cpp:399] inception_3b/5x5 -> inception_3b/5x5
I0714 21:31:35.894673 31376 net.cpp:141] Setting up inception_3b/5x5_reduce
I0714 21:31:35.894697 31376 net.cpp:148] Top shape: 10 32 28 28 (250880)
I0714 21:31:35.894704 31376 net.cpp:156] Memory required for data: 303063040
I0714 21:31:35.894729 31376 layer_factory.hpp:77] Creating layer inception_3b/relu_5x5_reduce
I0714 21:31:35.894743 31376 net.cpp:91] Creating Layer inception_3b/relu_5x5_reduce
I0714 21:31:35.894750 31376 net.cpp:425] inception_3b/relu_5x5_reduce <- inception_3b/5x5_reduce
I0714 21:31:35.894768 31376 net.cpp:386] inception_3b/relu_5x5_reduce -> inception_3b/5x5_reduce (in-place)
I0714 21:31:35.895171 31376 net.cpp:141] Setting up inception_3b/relu_5x5_reduce
I0714 21:31:35.895184 31376 net.cpp:148] Top shape: 10 32 28 28 (250880)
I0714 21:31:35.895190 31376 net.cpp:156] Memory required for data: 304066560
I0714 21:31:35.895195 31376 layer_factory.hpp:77] Creating layer inception_3b/5x5
I0714 21:31:35.895215 31376 net.cpp:91] Creating Layer inception_3b/5x5
I0714 21:31:35.895221 31376 net.cpp:425] inception_3b/5x5 <- inception_3b/5x5_reduce
I0714 21:31:35.895233 31376 net.cpp:399] inception_3b/5x5 -> inception_3b/5x5
I0714 21:31:35.902350 31372 net.cpp:141] Setting up inception_3b/5x5
I0714 21:31:35.902370 31372 net.cpp:148] Top shape: 10 96 28 28 (752640)
I0714 21:31:35.902376 31372 net.cpp:156] Memory required for data: 307077120
I0714 21:31:35.902386 31372 layer_factory.hpp:77] Creating layer inception_3b/relu_5x5
I0714 21:31:35.902396 31372 net.cpp:91] Creating Layer inception_3b/relu_5x5
I0714 21:31:35.902403 31372 net.cpp:425] inception_3b/relu_5x5 <- inception_3b/5x5
I0714 21:31:35.902415 31372 net.cpp:386] inception_3b/relu_5x5 -> inception_3b/5x5 (in-place)
I0714 21:31:35.902695 31376 net.cpp:141] Setting up inception_3b/5x5
I0714 21:31:35.902714 31376 net.cpp:148] Top shape: 10 96 28 28 (752640)
I0714 21:31:35.902719 31376 net.cpp:156] Memory required for data: 307077120
I0714 21:31:35.902729 31376 layer_factory.hpp:77] Creating layer inception_3b/relu_5x5
I0714 21:31:35.902751 31376 net.cpp:91] Creating Layer inception_3b/relu_5x5
I0714 21:31:35.902758 31376 net.cpp:425] inception_3b/relu_5x5 <- inception_3b/5x5
I0714 21:31:35.902760 31372 net.cpp:141] Setting up inception_3b/relu_5x5
I0714 21:31:35.902766 31376 net.cpp:386] inception_3b/relu_5x5 -> inception_3b/5x5 (in-place)
I0714 21:31:35.902776 31372 net.cpp:148] Top shape: 10 96 28 28 (752640)
I0714 21:31:35.902781 31372 net.cpp:156] Memory required for data: 310087680
I0714 21:31:35.902788 31372 layer_factory.hpp:77] Creating layer inception_3b/pool
I0714 21:31:35.902803 31372 net.cpp:91] Creating Layer inception_3b/pool
I0714 21:31:35.902811 31372 net.cpp:425] inception_3b/pool <- inception_3a/output_inception_3a/output_0_split_3
I0714 21:31:35.902819 31372 net.cpp:399] inception_3b/pool -> inception_3b/pool
I0714 21:31:35.903074 31372 net.cpp:141] Setting up inception_3b/pool
I0714 21:31:35.903087 31372 net.cpp:148] Top shape: 10 256 28 28 (2007040)
I0714 21:31:35.903091 31372 net.cpp:156] Memory required for data: 318115840
I0714 21:31:35.903097 31372 layer_factory.hpp:77] Creating layer inception_3b/pool_proj
I0714 21:31:35.903117 31372 net.cpp:91] Creating Layer inception_3b/pool_proj
I0714 21:31:35.903125 31372 net.cpp:425] inception_3b/pool_proj <- inception_3b/pool
I0714 21:31:35.903133 31372 net.cpp:399] inception_3b/pool_proj -> inception_3b/pool_proj
I0714 21:31:35.903144 31376 net.cpp:141] Setting up inception_3b/relu_5x5
I0714 21:31:35.903157 31376 net.cpp:148] Top shape: 10 96 28 28 (752640)
I0714 21:31:35.903162 31376 net.cpp:156] Memory required for data: 310087680
I0714 21:31:35.903168 31376 layer_factory.hpp:77] Creating layer inception_3b/pool
I0714 21:31:35.903180 31376 net.cpp:91] Creating Layer inception_3b/pool
I0714 21:31:35.903187 31376 net.cpp:425] inception_3b/pool <- inception_3a/output_inception_3a/output_0_split_3
I0714 21:31:35.903195 31376 net.cpp:399] inception_3b/pool -> inception_3b/pool
I0714 21:31:35.903440 31376 net.cpp:141] Setting up inception_3b/pool
I0714 21:31:35.903452 31376 net.cpp:148] Top shape: 10 256 28 28 (2007040)
I0714 21:31:35.903457 31376 net.cpp:156] Memory required for data: 318115840
I0714 21:31:35.903476 31376 layer_factory.hpp:77] Creating layer inception_3b/pool_proj
I0714 21:31:35.903492 31376 net.cpp:91] Creating Layer inception_3b/pool_proj
I0714 21:31:35.903499 31376 net.cpp:425] inception_3b/pool_proj <- inception_3b/pool
I0714 21:31:35.903514 31376 net.cpp:399] inception_3b/pool_proj -> inception_3b/pool_proj
I0714 21:31:35.907201 31372 net.cpp:141] Setting up inception_3b/pool_proj
I0714 21:31:35.907219 31372 net.cpp:148] Top shape: 10 64 28 28 (501760)
I0714 21:31:35.907224 31372 net.cpp:156] Memory required for data: 320122880
I0714 21:31:35.907234 31372 layer_factory.hpp:77] Creating layer inception_3b/relu_pool_proj
I0714 21:31:35.907244 31372 net.cpp:91] Creating Layer inception_3b/relu_pool_proj
I0714 21:31:35.907250 31372 net.cpp:425] inception_3b/relu_pool_proj <- inception_3b/pool_proj
I0714 21:31:35.907264 31372 net.cpp:386] inception_3b/relu_pool_proj -> inception_3b/pool_proj (in-place)
I0714 21:31:35.908241 31372 net.cpp:141] Setting up inception_3b/relu_pool_proj
I0714 21:31:35.908257 31372 net.cpp:148] Top shape: 10 64 28 28 (501760)
I0714 21:31:35.908262 31372 net.cpp:156] Memory required for data: 322129920
I0714 21:31:35.908269 31372 layer_factory.hpp:77] Creating layer inception_3b/output
I0714 21:31:35.908280 31372 net.cpp:91] Creating Layer inception_3b/output
I0714 21:31:35.908288 31372 net.cpp:425] inception_3b/output <- inception_3b/1x1
I0714 21:31:35.908294 31372 net.cpp:425] inception_3b/output <- inception_3b/3x3
I0714 21:31:35.908300 31372 net.cpp:425] inception_3b/output <- inception_3b/5x5
I0714 21:31:35.908306 31372 net.cpp:425] inception_3b/output <- inception_3b/pool_proj
I0714 21:31:35.908318 31372 net.cpp:399] inception_3b/output -> inception_3b/output
I0714 21:31:35.908329 31376 net.cpp:141] Setting up inception_3b/pool_proj
I0714 21:31:35.908344 31376 net.cpp:148] Top shape: 10 64 28 28 (501760)
I0714 21:31:35.908349 31376 net.cpp:156] Memory required for data: 320122880
I0714 21:31:35.908360 31376 layer_factory.hpp:77] Creating layer inception_3b/relu_pool_proj
I0714 21:31:35.908385 31376 net.cpp:91] Creating Layer inception_3b/relu_pool_proj
I0714 21:31:35.908392 31376 net.cpp:425] inception_3b/relu_pool_proj <- inception_3b/pool_proj
I0714 21:31:35.908393 31372 net.cpp:141] Setting up inception_3b/output
I0714 21:31:35.908401 31376 net.cpp:386] inception_3b/relu_pool_proj -> inception_3b/pool_proj (in-place)
I0714 21:31:35.908404 31372 net.cpp:148] Top shape: 10 480 28 28 (3763200)
I0714 21:31:35.908409 31372 net.cpp:156] Memory required for data: 337182720
I0714 21:31:35.908417 31372 layer_factory.hpp:77] Creating layer pool3/3x3_s2
I0714 21:31:35.908430 31372 net.cpp:91] Creating Layer pool3/3x3_s2
I0714 21:31:35.908437 31372 net.cpp:425] pool3/3x3_s2 <- inception_3b/output
I0714 21:31:35.908444 31372 net.cpp:399] pool3/3x3_s2 -> pool3/3x3_s2
I0714 21:31:35.909231 31372 net.cpp:141] Setting up pool3/3x3_s2
I0714 21:31:35.909245 31372 net.cpp:148] Top shape: 10 480 14 14 (940800)
I0714 21:31:35.909250 31372 net.cpp:156] Memory required for data: 340945920
I0714 21:31:35.909255 31372 layer_factory.hpp:77] Creating layer pool3/3x3_s2_pool3/3x3_s2_0_split
I0714 21:31:35.909270 31372 net.cpp:91] Creating Layer pool3/3x3_s2_pool3/3x3_s2_0_split
I0714 21:31:35.909276 31372 net.cpp:425] pool3/3x3_s2_pool3/3x3_s2_0_split <- pool3/3x3_s2
I0714 21:31:35.909283 31372 net.cpp:399] pool3/3x3_s2_pool3/3x3_s2_0_split -> pool3/3x3_s2_pool3/3x3_s2_0_split_0
I0714 21:31:35.909296 31372 net.cpp:399] pool3/3x3_s2_pool3/3x3_s2_0_split -> pool3/3x3_s2_pool3/3x3_s2_0_split_1
I0714 21:31:35.909304 31372 net.cpp:399] pool3/3x3_s2_pool3/3x3_s2_0_split -> pool3/3x3_s2_pool3/3x3_s2_0_split_2
I0714 21:31:35.909313 31372 net.cpp:399] pool3/3x3_s2_pool3/3x3_s2_0_split -> pool3/3x3_s2_pool3/3x3_s2_0_split_3
I0714 21:31:35.909329 31376 net.cpp:141] Setting up inception_3b/relu_pool_proj
I0714 21:31:35.909343 31376 net.cpp:148] Top shape: 10 64 28 28 (501760)
I0714 21:31:35.909348 31376 net.cpp:156] Memory required for data: 322129920
I0714 21:31:35.909354 31376 layer_factory.hpp:77] Creating layer inception_3b/output
I0714 21:31:35.909366 31376 net.cpp:91] Creating Layer inception_3b/output
I0714 21:31:35.909373 31376 net.cpp:425] inception_3b/output <- inception_3b/1x1
I0714 21:31:35.909380 31376 net.cpp:425] inception_3b/output <- inception_3b/3x3
I0714 21:31:35.909386 31376 net.cpp:425] inception_3b/output <- inception_3b/5x5
I0714 21:31:35.909392 31376 net.cpp:425] inception_3b/output <- inception_3b/pool_proj
I0714 21:31:35.909401 31376 net.cpp:399] inception_3b/output -> inception_3b/output
I0714 21:31:35.909541 31376 net.cpp:141] Setting up inception_3b/output
I0714 21:31:35.909554 31376 net.cpp:148] Top shape: 10 480 28 28 (3763200)
I0714 21:31:35.909559 31376 net.cpp:156] Memory required for data: 337182720
I0714 21:31:35.909560 31372 net.cpp:141] Setting up pool3/3x3_s2_pool3/3x3_s2_0_split
I0714 21:31:35.909564 31376 layer_factory.hpp:77] Creating layer pool3/3x3_s2
I0714 21:31:35.909576 31372 net.cpp:148] Top shape: 10 480 14 14 (940800)
I0714 21:31:35.909580 31376 net.cpp:91] Creating Layer pool3/3x3_s2
I0714 21:31:35.909584 31372 net.cpp:148] Top shape: 10 480 14 14 (940800)
I0714 21:31:35.909586 31376 net.cpp:425] pool3/3x3_s2 <- inception_3b/output
I0714 21:31:35.909590 31372 net.cpp:148] Top shape: 10 480 14 14 (940800)
I0714 21:31:35.909596 31372 net.cpp:148] Top shape: 10 480 14 14 (940800)
I0714 21:31:35.909597 31376 net.cpp:399] pool3/3x3_s2 -> pool3/3x3_s2
I0714 21:31:35.909601 31372 net.cpp:156] Memory required for data: 355998720
I0714 21:31:35.909607 31372 layer_factory.hpp:77] Creating layer inception_4a/1x1
I0714 21:31:35.909624 31372 net.cpp:91] Creating Layer inception_4a/1x1
I0714 21:31:35.909631 31372 net.cpp:425] inception_4a/1x1 <- pool3/3x3_s2_pool3/3x3_s2_0_split_0
I0714 21:31:35.909641 31372 net.cpp:399] inception_4a/1x1 -> inception_4a/1x1
I0714 21:31:35.909734 31376 net.cpp:141] Setting up pool3/3x3_s2
I0714 21:31:35.909747 31376 net.cpp:148] Top shape: 10 480 14 14 (940800)
I0714 21:31:35.909752 31376 net.cpp:156] Memory required for data: 340945920
I0714 21:31:35.909767 31376 layer_factory.hpp:77] Creating layer pool3/3x3_s2_pool3/3x3_s2_0_split
I0714 21:31:35.909780 31376 net.cpp:91] Creating Layer pool3/3x3_s2_pool3/3x3_s2_0_split
I0714 21:31:35.909786 31376 net.cpp:425] pool3/3x3_s2_pool3/3x3_s2_0_split <- pool3/3x3_s2
I0714 21:31:35.909793 31376 net.cpp:399] pool3/3x3_s2_pool3/3x3_s2_0_split -> pool3/3x3_s2_pool3/3x3_s2_0_split_0
I0714 21:31:35.909803 31376 net.cpp:399] pool3/3x3_s2_pool3/3x3_s2_0_split -> pool3/3x3_s2_pool3/3x3_s2_0_split_1
I0714 21:31:35.909812 31376 net.cpp:399] pool3/3x3_s2_pool3/3x3_s2_0_split -> pool3/3x3_s2_pool3/3x3_s2_0_split_2
I0714 21:31:35.909821 31376 net.cpp:399] pool3/3x3_s2_pool3/3x3_s2_0_split -> pool3/3x3_s2_pool3/3x3_s2_0_split_3
I0714 21:31:35.910189 31376 net.cpp:141] Setting up pool3/3x3_s2_pool3/3x3_s2_0_split
I0714 21:31:35.910202 31376 net.cpp:148] Top shape: 10 480 14 14 (940800)
I0714 21:31:35.910208 31376 net.cpp:148] Top shape: 10 480 14 14 (940800)
I0714 21:31:35.910214 31376 net.cpp:148] Top shape: 10 480 14 14 (940800)
I0714 21:31:35.910220 31376 net.cpp:148] Top shape: 10 480 14 14 (940800)
I0714 21:31:35.910224 31376 net.cpp:156] Memory required for data: 355998720
I0714 21:31:35.910230 31376 layer_factory.hpp:77] Creating layer inception_4a/1x1
I0714 21:31:35.910259 31376 net.cpp:91] Creating Layer inception_4a/1x1
I0714 21:31:35.910267 31376 net.cpp:425] inception_4a/1x1 <- pool3/3x3_s2_pool3/3x3_s2_0_split_0
I0714 21:31:35.910277 31376 net.cpp:399] inception_4a/1x1 -> inception_4a/1x1
I0714 21:31:35.915391 31372 net.cpp:141] Setting up inception_4a/1x1
I0714 21:31:35.915421 31372 net.cpp:148] Top shape: 10 192 14 14 (376320)
I0714 21:31:35.915426 31372 net.cpp:156] Memory required for data: 357504000
I0714 21:31:35.915436 31372 layer_factory.hpp:77] Creating layer inception_4a/relu_1x1
I0714 21:31:35.915449 31372 net.cpp:91] Creating Layer inception_4a/relu_1x1
I0714 21:31:35.915457 31372 net.cpp:425] inception_4a/relu_1x1 <- inception_4a/1x1
I0714 21:31:35.915465 31372 net.cpp:386] inception_4a/relu_1x1 -> inception_4a/1x1 (in-place)
I0714 21:31:35.915762 31376 net.cpp:141] Setting up inception_4a/1x1
I0714 21:31:35.915778 31376 net.cpp:148] Top shape: 10 192 14 14 (376320)
I0714 21:31:35.915783 31376 net.cpp:156] Memory required for data: 357504000
I0714 21:31:35.915793 31376 layer_factory.hpp:77] Creating layer inception_4a/relu_1x1
I0714 21:31:35.915805 31376 net.cpp:91] Creating Layer inception_4a/relu_1x1
I0714 21:31:35.915812 31376 net.cpp:425] inception_4a/relu_1x1 <- inception_4a/1x1
I0714 21:31:35.915819 31376 net.cpp:386] inception_4a/relu_1x1 -> inception_4a/1x1 (in-place)
I0714 21:31:35.915828 31372 net.cpp:141] Setting up inception_4a/relu_1x1
I0714 21:31:35.915843 31372 net.cpp:148] Top shape: 10 192 14 14 (376320)
I0714 21:31:35.915848 31372 net.cpp:156] Memory required for data: 359009280
I0714 21:31:35.915855 31372 layer_factory.hpp:77] Creating layer inception_4a/3x3_reduce
I0714 21:31:35.915879 31372 net.cpp:91] Creating Layer inception_4a/3x3_reduce
I0714 21:31:35.915886 31372 net.cpp:425] inception_4a/3x3_reduce <- pool3/3x3_s2_pool3/3x3_s2_0_split_1
I0714 21:31:35.915899 31372 net.cpp:399] inception_4a/3x3_reduce -> inception_4a/3x3_reduce
I0714 21:31:35.916273 31376 net.cpp:141] Setting up inception_4a/relu_1x1
I0714 21:31:35.916286 31376 net.cpp:148] Top shape: 10 192 14 14 (376320)
I0714 21:31:35.916291 31376 net.cpp:156] Memory required for data: 359009280
I0714 21:31:35.916308 31376 layer_factory.hpp:77] Creating layer inception_4a/3x3_reduce
I0714 21:31:35.916328 31376 net.cpp:91] Creating Layer inception_4a/3x3_reduce
I0714 21:31:35.916335 31376 net.cpp:425] inception_4a/3x3_reduce <- pool3/3x3_s2_pool3/3x3_s2_0_split_1
I0714 21:31:35.916347 31376 net.cpp:399] inception_4a/3x3_reduce -> inception_4a/3x3_reduce
I0714 21:31:35.920439 31372 net.cpp:141] Setting up inception_4a/3x3_reduce
I0714 21:31:35.920459 31372 net.cpp:148] Top shape: 10 96 14 14 (188160)
I0714 21:31:35.920465 31372 net.cpp:156] Memory required for data: 359761920
I0714 21:31:35.920490 31372 layer_factory.hpp:77] Creating layer inception_4a/relu_3x3_reduce
I0714 21:31:35.920501 31372 net.cpp:91] Creating Layer inception_4a/relu_3x3_reduce
I0714 21:31:35.920507 31372 net.cpp:425] inception_4a/relu_3x3_reduce <- inception_4a/3x3_reduce
I0714 21:31:35.920518 31372 net.cpp:386] inception_4a/relu_3x3_reduce -> inception_4a/3x3_reduce (in-place)
I0714 21:31:35.920812 31376 net.cpp:141] Setting up inception_4a/3x3_reduce
I0714 21:31:35.920830 31376 net.cpp:148] Top shape: 10 96 14 14 (188160)
I0714 21:31:35.920835 31376 net.cpp:156] Memory required for data: 359761920
I0714 21:31:35.920862 31376 layer_factory.hpp:77] Creating layer inception_4a/relu_3x3_reduce
I0714 21:31:35.920894 31372 net.cpp:141] Setting up inception_4a/relu_3x3_reduce
I0714 21:31:35.920897 31376 net.cpp:91] Creating Layer inception_4a/relu_3x3_reduce
I0714 21:31:35.920910 31372 net.cpp:148] Top shape: 10 96 14 14 (188160)
I0714 21:31:35.920913 31376 net.cpp:425] inception_4a/relu_3x3_reduce <- inception_4a/3x3_reduce
I0714 21:31:35.920917 31372 net.cpp:156] Memory required for data: 360514560
I0714 21:31:35.920922 31376 net.cpp:386] inception_4a/relu_3x3_reduce -> inception_4a/3x3_reduce (in-place)
I0714 21:31:35.920923 31372 layer_factory.hpp:77] Creating layer inception_4a/3x3
I0714 21:31:35.920944 31372 net.cpp:91] Creating Layer inception_4a/3x3
I0714 21:31:35.920951 31372 net.cpp:425] inception_4a/3x3 <- inception_4a/3x3_reduce
I0714 21:31:35.920964 31372 net.cpp:399] inception_4a/3x3 -> inception_4a/3x3
I0714 21:31:35.921360 31376 net.cpp:141] Setting up inception_4a/relu_3x3_reduce
I0714 21:31:35.921375 31376 net.cpp:148] Top shape: 10 96 14 14 (188160)
I0714 21:31:35.921380 31376 net.cpp:156] Memory required for data: 360514560
I0714 21:31:35.921386 31376 layer_factory.hpp:77] Creating layer inception_4a/3x3
I0714 21:31:35.921404 31376 net.cpp:91] Creating Layer inception_4a/3x3
I0714 21:31:35.921411 31376 net.cpp:425] inception_4a/3x3 <- inception_4a/3x3_reduce
I0714 21:31:35.921422 31376 net.cpp:399] inception_4a/3x3 -> inception_4a/3x3
I0714 21:31:35.929185 31372 net.cpp:141] Setting up inception_4a/3x3
I0714 21:31:35.929208 31372 net.cpp:148] Top shape: 10 208 14 14 (407680)
I0714 21:31:35.929214 31372 net.cpp:156] Memory required for data: 362145280
I0714 21:31:35.929224 31372 layer_factory.hpp:77] Creating layer inception_4a/relu_3x3
I0714 21:31:35.929234 31372 net.cpp:91] Creating Layer inception_4a/relu_3x3
I0714 21:31:35.929240 31372 net.cpp:425] inception_4a/relu_3x3 <- inception_4a/3x3
I0714 21:31:35.929260 31372 net.cpp:386] inception_4a/relu_3x3 -> inception_4a/3x3 (in-place)
I0714 21:31:35.930308 31372 net.cpp:141] Setting up inception_4a/relu_3x3
I0714 21:31:35.930325 31372 net.cpp:148] Top shape: 10 208 14 14 (407680)
I0714 21:31:35.930330 31372 net.cpp:156] Memory required for data: 363776000
I0714 21:31:35.930340 31372 layer_factory.hpp:77] Creating layer inception_4a/5x5_reduce
I0714 21:31:35.930358 31372 net.cpp:91] Creating Layer inception_4a/5x5_reduce
I0714 21:31:35.930366 31372 net.cpp:425] inception_4a/5x5_reduce <- pool3/3x3_s2_pool3/3x3_s2_0_split_2
I0714 21:31:35.930379 31372 net.cpp:399] inception_4a/5x5_reduce -> inception_4a/5x5_reduce
I0714 21:31:35.930402 31376 net.cpp:141] Setting up inception_4a/3x3
I0714 21:31:35.930419 31376 net.cpp:148] Top shape: 10 208 14 14 (407680)
I0714 21:31:35.930424 31376 net.cpp:156] Memory required for data: 362145280
I0714 21:31:35.930434 31376 layer_factory.hpp:77] Creating layer inception_4a/relu_3x3
I0714 21:31:35.930447 31376 net.cpp:91] Creating Layer inception_4a/relu_3x3
I0714 21:31:35.930454 31376 net.cpp:425] inception_4a/relu_3x3 <- inception_4a/3x3
I0714 21:31:35.930462 31376 net.cpp:386] inception_4a/relu_3x3 -> inception_4a/3x3 (in-place)
I0714 21:31:35.931506 31376 net.cpp:141] Setting up inception_4a/relu_3x3
I0714 21:31:35.931524 31376 net.cpp:148] Top shape: 10 208 14 14 (407680)
I0714 21:31:35.931529 31376 net.cpp:156] Memory required for data: 363776000
I0714 21:31:35.931547 31376 layer_factory.hpp:77] Creating layer inception_4a/5x5_reduce
I0714 21:31:35.931576 31376 net.cpp:91] Creating Layer inception_4a/5x5_reduce
I0714 21:31:35.931583 31376 net.cpp:425] inception_4a/5x5_reduce <- pool3/3x3_s2_pool3/3x3_s2_0_split_2
I0714 21:31:35.931593 31376 net.cpp:399] inception_4a/5x5_reduce -> inception_4a/5x5_reduce
I0714 21:31:35.935295 31372 net.cpp:141] Setting up inception_4a/5x5_reduce
I0714 21:31:35.935315 31372 net.cpp:148] Top shape: 10 16 14 14 (31360)
I0714 21:31:35.935320 31372 net.cpp:156] Memory required for data: 363901440
I0714 21:31:35.935331 31372 layer_factory.hpp:77] Creating layer inception_4a/relu_5x5_reduce
I0714 21:31:35.935355 31372 net.cpp:91] Creating Layer inception_4a/relu_5x5_reduce
I0714 21:31:35.935362 31372 net.cpp:425] inception_4a/relu_5x5_reduce <- inception_4a/5x5_reduce
I0714 21:31:35.935370 31372 net.cpp:386] inception_4a/relu_5x5_reduce -> inception_4a/5x5_reduce (in-place)
I0714 21:31:35.935662 31372 net.cpp:141] Setting up inception_4a/relu_5x5_reduce
I0714 21:31:35.935675 31372 net.cpp:148] Top shape: 10 16 14 14 (31360)
I0714 21:31:35.935679 31372 net.cpp:156] Memory required for data: 364026880
I0714 21:31:35.935685 31372 layer_factory.hpp:77] Creating layer inception_4a/5x5
I0714 21:31:35.935703 31372 net.cpp:91] Creating Layer inception_4a/5x5
I0714 21:31:35.935710 31372 net.cpp:425] inception_4a/5x5 <- inception_4a/5x5_reduce
I0714 21:31:35.935729 31372 net.cpp:399] inception_4a/5x5 -> inception_4a/5x5
I0714 21:31:35.936805 31376 net.cpp:141] Setting up inception_4a/5x5_reduce
I0714 21:31:35.936823 31376 net.cpp:148] Top shape: 10 16 14 14 (31360)
I0714 21:31:35.936830 31376 net.cpp:156] Memory required for data: 363901440
I0714 21:31:35.936839 31376 layer_factory.hpp:77] Creating layer inception_4a/relu_5x5_reduce
I0714 21:31:35.936848 31376 net.cpp:91] Creating Layer inception_4a/relu_5x5_reduce
I0714 21:31:35.936854 31376 net.cpp:425] inception_4a/relu_5x5_reduce <- inception_4a/5x5_reduce
I0714 21:31:35.936866 31376 net.cpp:386] inception_4a/relu_5x5_reduce -> inception_4a/5x5_reduce (in-place)
I0714 21:31:35.937254 31376 net.cpp:141] Setting up inception_4a/relu_5x5_reduce
I0714 21:31:35.937268 31376 net.cpp:148] Top shape: 10 16 14 14 (31360)
I0714 21:31:35.937273 31376 net.cpp:156] Memory required for data: 364026880
I0714 21:31:35.937279 31376 layer_factory.hpp:77] Creating layer inception_4a/5x5
I0714 21:31:35.937297 31376 net.cpp:91] Creating Layer inception_4a/5x5
I0714 21:31:35.937304 31376 net.cpp:425] inception_4a/5x5 <- inception_4a/5x5_reduce
I0714 21:31:35.937314 31376 net.cpp:399] inception_4a/5x5 -> inception_4a/5x5
I0714 21:31:35.940644 31372 net.cpp:141] Setting up inception_4a/5x5
I0714 21:31:35.940662 31372 net.cpp:148] Top shape: 10 48 14 14 (94080)
I0714 21:31:35.940668 31372 net.cpp:156] Memory required for data: 364403200
I0714 21:31:35.940680 31372 layer_factory.hpp:77] Creating layer inception_4a/relu_5x5
I0714 21:31:35.940690 31372 net.cpp:91] Creating Layer inception_4a/relu_5x5
I0714 21:31:35.940696 31372 net.cpp:425] inception_4a/relu_5x5 <- inception_4a/5x5
I0714 21:31:35.940707 31372 net.cpp:386] inception_4a/relu_5x5 -> inception_4a/5x5 (in-place)
I0714 21:31:35.941076 31372 net.cpp:141] Setting up inception_4a/relu_5x5
I0714 21:31:35.941089 31372 net.cpp:148] Top shape: 10 48 14 14 (94080)
I0714 21:31:35.941094 31372 net.cpp:156] Memory required for data: 364779520
I0714 21:31:35.941100 31372 layer_factory.hpp:77] Creating layer inception_4a/pool
I0714 21:31:35.941115 31372 net.cpp:91] Creating Layer inception_4a/pool
I0714 21:31:35.941123 31372 net.cpp:425] inception_4a/pool <- pool3/3x3_s2_pool3/3x3_s2_0_split_3
I0714 21:31:35.941130 31372 net.cpp:399] inception_4a/pool -> inception_4a/pool
I0714 21:31:35.941804 31372 net.cpp:141] Setting up inception_4a/pool
I0714 21:31:35.941823 31372 net.cpp:148] Top shape: 10 480 14 14 (940800)
I0714 21:31:35.941829 31372 net.cpp:156] Memory required for data: 368542720
I0714 21:31:35.941834 31372 layer_factory.hpp:77] Creating layer inception_4a/pool_proj
I0714 21:31:35.941859 31372 net.cpp:91] Creating Layer inception_4a/pool_proj
I0714 21:31:35.941866 31372 net.cpp:425] inception_4a/pool_proj <- inception_4a/pool
I0714 21:31:35.941879 31372 net.cpp:399] inception_4a/pool_proj -> inception_4a/pool_proj
I0714 21:31:35.942586 31376 net.cpp:141] Setting up inception_4a/5x5
I0714 21:31:35.942605 31376 net.cpp:148] Top shape: 10 48 14 14 (94080)
I0714 21:31:35.942612 31376 net.cpp:156] Memory required for data: 364403200
I0714 21:31:35.942622 31376 layer_factory.hpp:77] Creating layer inception_4a/relu_5x5
I0714 21:31:35.942644 31376 net.cpp:91] Creating Layer inception_4a/relu_5x5
I0714 21:31:35.942651 31376 net.cpp:425] inception_4a/relu_5x5 <- inception_4a/5x5
I0714 21:31:35.942659 31376 net.cpp:386] inception_4a/relu_5x5 -> inception_4a/5x5 (in-place)
I0714 21:31:35.943009 31376 net.cpp:141] Setting up inception_4a/relu_5x5
I0714 21:31:35.943023 31376 net.cpp:148] Top shape: 10 48 14 14 (94080)
I0714 21:31:35.943028 31376 net.cpp:156] Memory required for data: 364779520
I0714 21:31:35.943044 31376 layer_factory.hpp:77] Creating layer inception_4a/pool
I0714 21:31:35.943055 31376 net.cpp:91] Creating Layer inception_4a/pool
I0714 21:31:35.943061 31376 net.cpp:425] inception_4a/pool <- pool3/3x3_s2_pool3/3x3_s2_0_split_3
I0714 21:31:35.943073 31376 net.cpp:399] inception_4a/pool -> inception_4a/pool
I0714 21:31:35.943899 31376 net.cpp:141] Setting up inception_4a/pool
I0714 21:31:35.943913 31376 net.cpp:148] Top shape: 10 480 14 14 (940800)
I0714 21:31:35.943918 31376 net.cpp:156] Memory required for data: 368542720
I0714 21:31:35.943924 31376 layer_factory.hpp:77] Creating layer inception_4a/pool_proj
I0714 21:31:35.943939 31376 net.cpp:91] Creating Layer inception_4a/pool_proj
I0714 21:31:35.943945 31376 net.cpp:425] inception_4a/pool_proj <- inception_4a/pool
I0714 21:31:35.943955 31376 net.cpp:399] inception_4a/pool_proj -> inception_4a/pool_proj
I0714 21:31:35.945808 31372 net.cpp:141] Setting up inception_4a/pool_proj
I0714 21:31:35.945827 31372 net.cpp:148] Top shape: 10 64 14 14 (125440)
I0714 21:31:35.945832 31372 net.cpp:156] Memory required for data: 369044480
I0714 21:31:35.945842 31372 layer_factory.hpp:77] Creating layer inception_4a/relu_pool_proj
I0714 21:31:35.945857 31372 net.cpp:91] Creating Layer inception_4a/relu_pool_proj
I0714 21:31:35.945863 31372 net.cpp:425] inception_4a/relu_pool_proj <- inception_4a/pool_proj
I0714 21:31:35.945873 31372 net.cpp:386] inception_4a/relu_pool_proj -> inception_4a/pool_proj (in-place)
I0714 21:31:35.947172 31372 net.cpp:141] Setting up inception_4a/relu_pool_proj
I0714 21:31:35.947190 31372 net.cpp:148] Top shape: 10 64 14 14 (125440)
I0714 21:31:35.947196 31372 net.cpp:156] Memory required for data: 369546240
I0714 21:31:35.947202 31372 layer_factory.hpp:77] Creating layer inception_4a/output
I0714 21:31:35.947217 31372 net.cpp:91] Creating Layer inception_4a/output
I0714 21:31:35.947224 31372 net.cpp:425] inception_4a/output <- inception_4a/1x1
I0714 21:31:35.947232 31372 net.cpp:425] inception_4a/output <- inception_4a/3x3
I0714 21:31:35.947238 31372 net.cpp:425] inception_4a/output <- inception_4a/5x5
I0714 21:31:35.947245 31372 net.cpp:425] inception_4a/output <- inception_4a/pool_proj
I0714 21:31:35.947252 31372 net.cpp:399] inception_4a/output -> inception_4a/output
I0714 21:31:35.947628 31372 net.cpp:141] Setting up inception_4a/output
I0714 21:31:35.947640 31372 net.cpp:148] Top shape: 10 512 14 14 (1003520)
I0714 21:31:35.947645 31372 net.cpp:156] Memory required for data: 373560320
I0714 21:31:35.947650 31372 layer_factory.hpp:77] Creating layer inception_4a/output_inception_4a/output_0_split
I0714 21:31:35.947664 31372 net.cpp:91] Creating Layer inception_4a/output_inception_4a/output_0_split
I0714 21:31:35.947671 31372 net.cpp:425] inception_4a/output_inception_4a/output_0_split <- inception_4a/output
I0714 21:31:35.947681 31372 net.cpp:399] inception_4a/output_inception_4a/output_0_split -> inception_4a/output_inception_4a/output_0_split_0
I0714 21:31:35.947692 31372 net.cpp:399] inception_4a/output_inception_4a/output_0_split -> inception_4a/output_inception_4a/output_0_split_1
I0714 21:31:35.947701 31372 net.cpp:399] inception_4a/output_inception_4a/output_0_split -> inception_4a/output_inception_4a/output_0_split_2
I0714 21:31:35.947710 31372 net.cpp:399] inception_4a/output_inception_4a/output_0_split -> inception_4a/output_inception_4a/output_0_split_3
I0714 21:31:35.948143 31372 net.cpp:141] Setting up inception_4a/output_inception_4a/output_0_split
I0714 21:31:35.948155 31372 net.cpp:148] Top shape: 10 512 14 14 (1003520)
I0714 21:31:35.948163 31372 net.cpp:148] Top shape: 10 512 14 14 (1003520)
I0714 21:31:35.948168 31372 net.cpp:148] Top shape: 10 512 14 14 (1003520)
I0714 21:31:35.948174 31372 net.cpp:148] Top shape: 10 512 14 14 (1003520)
I0714 21:31:35.948179 31372 net.cpp:156] Memory required for data: 389616640
I0714 21:31:35.948184 31372 layer_factory.hpp:77] Creating layer inception_4b/1x1
I0714 21:31:35.948201 31372 net.cpp:91] Creating Layer inception_4b/1x1
I0714 21:31:35.948207 31372 net.cpp:425] inception_4b/1x1 <- inception_4a/output_inception_4a/output_0_split_0
I0714 21:31:35.948220 31372 net.cpp:399] inception_4b/1x1 -> inception_4b/1x1
I0714 21:31:35.948868 31376 net.cpp:141] Setting up inception_4a/pool_proj
I0714 21:31:35.948889 31376 net.cpp:148] Top shape: 10 64 14 14 (125440)
I0714 21:31:35.948894 31376 net.cpp:156] Memory required for data: 369044480
I0714 21:31:35.948905 31376 layer_factory.hpp:77] Creating layer inception_4a/relu_pool_proj
I0714 21:31:35.948930 31376 net.cpp:91] Creating Layer inception_4a/relu_pool_proj
I0714 21:31:35.948937 31376 net.cpp:425] inception_4a/relu_pool_proj <- inception_4a/pool_proj
I0714 21:31:35.948948 31376 net.cpp:386] inception_4a/relu_pool_proj -> inception_4a/pool_proj (in-place)
I0714 21:31:35.949880 31376 net.cpp:141] Setting up inception_4a/relu_pool_proj
I0714 21:31:35.949898 31376 net.cpp:148] Top shape: 10 64 14 14 (125440)
I0714 21:31:35.949904 31376 net.cpp:156] Memory required for data: 369546240
I0714 21:31:35.949910 31376 layer_factory.hpp:77] Creating layer inception_4a/output
I0714 21:31:35.949919 31376 net.cpp:91] Creating Layer inception_4a/output
I0714 21:31:35.949928 31376 net.cpp:425] inception_4a/output <- inception_4a/1x1
I0714 21:31:35.949936 31376 net.cpp:425] inception_4a/output <- inception_4a/3x3
I0714 21:31:35.949942 31376 net.cpp:425] inception_4a/output <- inception_4a/5x5
I0714 21:31:35.949949 31376 net.cpp:425] inception_4a/output <- inception_4a/pool_proj
I0714 21:31:35.949956 31376 net.cpp:399] inception_4a/output -> inception_4a/output
I0714 21:31:35.950073 31376 net.cpp:141] Setting up inception_4a/output
I0714 21:31:35.950085 31376 net.cpp:148] Top shape: 10 512 14 14 (1003520)
I0714 21:31:35.950090 31376 net.cpp:156] Memory required for data: 373560320
I0714 21:31:35.950109 31376 layer_factory.hpp:77] Creating layer inception_4a/output_inception_4a/output_0_split
I0714 21:31:35.950121 31376 net.cpp:91] Creating Layer inception_4a/output_inception_4a/output_0_split
I0714 21:31:35.950127 31376 net.cpp:425] inception_4a/output_inception_4a/output_0_split <- inception_4a/output
I0714 21:31:35.950135 31376 net.cpp:399] inception_4a/output_inception_4a/output_0_split -> inception_4a/output_inception_4a/output_0_split_0
I0714 21:31:35.950146 31376 net.cpp:399] inception_4a/output_inception_4a/output_0_split -> inception_4a/output_inception_4a/output_0_split_1
I0714 21:31:35.950155 31376 net.cpp:399] inception_4a/output_inception_4a/output_0_split -> inception_4a/output_inception_4a/output_0_split_2
I0714 21:31:35.950165 31376 net.cpp:399] inception_4a/output_inception_4a/output_0_split -> inception_4a/output_inception_4a/output_0_split_3
I0714 21:31:35.951203 31376 net.cpp:141] Setting up inception_4a/output_inception_4a/output_0_split
I0714 21:31:35.951220 31376 net.cpp:148] Top shape: 10 512 14 14 (1003520)
I0714 21:31:35.951226 31376 net.cpp:148] Top shape: 10 512 14 14 (1003520)
I0714 21:31:35.951232 31376 net.cpp:148] Top shape: 10 512 14 14 (1003520)
I0714 21:31:35.951238 31376 net.cpp:148] Top shape: 10 512 14 14 (1003520)
I0714 21:31:35.951242 31376 net.cpp:156] Memory required for data: 389616640
I0714 21:31:35.951248 31376 layer_factory.hpp:77] Creating layer inception_4b/1x1
I0714 21:31:35.951267 31376 net.cpp:91] Creating Layer inception_4b/1x1
I0714 21:31:35.951274 31376 net.cpp:425] inception_4b/1x1 <- inception_4a/output_inception_4a/output_0_split_0
I0714 21:31:35.951284 31376 net.cpp:399] inception_4b/1x1 -> inception_4b/1x1
I0714 21:31:35.952736 31372 net.cpp:141] Setting up inception_4b/1x1
I0714 21:31:35.952756 31372 net.cpp:148] Top shape: 10 160 14 14 (313600)
I0714 21:31:35.952761 31372 net.cpp:156] Memory required for data: 390871040
I0714 21:31:35.952771 31372 layer_factory.hpp:77] Creating layer inception_4b/relu_1x1
I0714 21:31:35.952782 31372 net.cpp:91] Creating Layer inception_4b/relu_1x1
I0714 21:31:35.952788 31372 net.cpp:425] inception_4b/relu_1x1 <- inception_4b/1x1
I0714 21:31:35.952800 31372 net.cpp:386] inception_4b/relu_1x1 -> inception_4b/1x1 (in-place)
I0714 21:31:35.953078 31372 net.cpp:141] Setting up inception_4b/relu_1x1
I0714 21:31:35.953094 31372 net.cpp:148] Top shape: 10 160 14 14 (313600)
I0714 21:31:35.953099 31372 net.cpp:156] Memory required for data: 392125440
I0714 21:31:35.953106 31372 layer_factory.hpp:77] Creating layer inception_4b/3x3_reduce
I0714 21:31:35.953125 31372 net.cpp:91] Creating Layer inception_4b/3x3_reduce
I0714 21:31:35.953132 31372 net.cpp:425] inception_4b/3x3_reduce <- inception_4a/output_inception_4a/output_0_split_1
I0714 21:31:35.953142 31372 net.cpp:399] inception_4b/3x3_reduce -> inception_4b/3x3_reduce
I0714 21:31:35.957465 31376 net.cpp:141] Setting up inception_4b/1x1
I0714 21:31:35.957489 31376 net.cpp:148] Top shape: 10 160 14 14 (313600)
I0714 21:31:35.957494 31376 net.cpp:156] Memory required for data: 390871040
I0714 21:31:35.957505 31376 layer_factory.hpp:77] Creating layer inception_4b/relu_1x1
I0714 21:31:35.957535 31376 net.cpp:91] Creating Layer inception_4b/relu_1x1
I0714 21:31:35.957542 31376 net.cpp:425] inception_4b/relu_1x1 <- inception_4b/1x1
I0714 21:31:35.957553 31376 net.cpp:386] inception_4b/relu_1x1 -> inception_4b/1x1 (in-place)
I0714 21:31:35.957612 31372 net.cpp:141] Setting up inception_4b/3x3_reduce
I0714 21:31:35.957630 31372 net.cpp:148] Top shape: 10 112 14 14 (219520)
I0714 21:31:35.957636 31372 net.cpp:156] Memory required for data: 393003520
I0714 21:31:35.957646 31372 layer_factory.hpp:77] Creating layer inception_4b/relu_3x3_reduce
I0714 21:31:35.957662 31372 net.cpp:91] Creating Layer inception_4b/relu_3x3_reduce
I0714 21:31:35.957669 31372 net.cpp:425] inception_4b/relu_3x3_reduce <- inception_4b/3x3_reduce
I0714 21:31:35.957679 31372 net.cpp:386] inception_4b/relu_3x3_reduce -> inception_4b/3x3_reduce (in-place)
I0714 21:31:35.957929 31376 net.cpp:141] Setting up inception_4b/relu_1x1
I0714 21:31:35.957943 31376 net.cpp:148] Top shape: 10 160 14 14 (313600)
I0714 21:31:35.957948 31376 net.cpp:156] Memory required for data: 392125440
I0714 21:31:35.957953 31376 layer_factory.hpp:77] Creating layer inception_4b/3x3_reduce
I0714 21:31:35.957988 31376 net.cpp:91] Creating Layer inception_4b/3x3_reduce
I0714 21:31:35.957995 31376 net.cpp:425] inception_4b/3x3_reduce <- inception_4a/output_inception_4a/output_0_split_1
I0714 21:31:35.958009 31376 net.cpp:399] inception_4b/3x3_reduce -> inception_4b/3x3_reduce
I0714 21:31:35.958040 31372 net.cpp:141] Setting up inception_4b/relu_3x3_reduce
I0714 21:31:35.958055 31372 net.cpp:148] Top shape: 10 112 14 14 (219520)
I0714 21:31:35.958058 31372 net.cpp:156] Memory required for data: 393881600
I0714 21:31:35.958065 31372 layer_factory.hpp:77] Creating layer inception_4b/3x3
I0714 21:31:35.958084 31372 net.cpp:91] Creating Layer inception_4b/3x3
I0714 21:31:35.958091 31372 net.cpp:425] inception_4b/3x3 <- inception_4b/3x3_reduce
I0714 21:31:35.958101 31372 net.cpp:399] inception_4b/3x3 -> inception_4b/3x3
I0714 21:31:35.963302 31376 net.cpp:141] Setting up inception_4b/3x3_reduce
I0714 21:31:35.963328 31376 net.cpp:148] Top shape: 10 112 14 14 (219520)
I0714 21:31:35.963335 31376 net.cpp:156] Memory required for data: 393003520
I0714 21:31:35.963345 31376 layer_factory.hpp:77] Creating layer inception_4b/relu_3x3_reduce
I0714 21:31:35.963354 31376 net.cpp:91] Creating Layer inception_4b/relu_3x3_reduce
I0714 21:31:35.963361 31376 net.cpp:425] inception_4b/relu_3x3_reduce <- inception_4b/3x3_reduce
I0714 21:31:35.963382 31376 net.cpp:386] inception_4b/relu_3x3_reduce -> inception_4b/3x3_reduce (in-place)
I0714 21:31:35.963668 31376 net.cpp:141] Setting up inception_4b/relu_3x3_reduce
I0714 21:31:35.963681 31376 net.cpp:148] Top shape: 10 112 14 14 (219520)
I0714 21:31:35.963686 31376 net.cpp:156] Memory required for data: 393881600
I0714 21:31:35.963691 31376 layer_factory.hpp:77] Creating layer inception_4b/3x3
I0714 21:31:35.963708 31376 net.cpp:91] Creating Layer inception_4b/3x3
I0714 21:31:35.963714 31376 net.cpp:425] inception_4b/3x3 <- inception_4b/3x3_reduce
I0714 21:31:35.963728 31376 net.cpp:399] inception_4b/3x3 -> inception_4b/3x3
I0714 21:31:35.968991 31372 net.cpp:141] Setting up inception_4b/3x3
I0714 21:31:35.969035 31372 net.cpp:148] Top shape: 10 224 14 14 (439040)
I0714 21:31:35.969043 31372 net.cpp:156] Memory required for data: 395637760
I0714 21:31:35.969070 31372 layer_factory.hpp:77] Creating layer inception_4b/relu_3x3
I0714 21:31:35.969090 31372 net.cpp:91] Creating Layer inception_4b/relu_3x3
I0714 21:31:35.969099 31372 net.cpp:425] inception_4b/relu_3x3 <- inception_4b/3x3
I0714 21:31:35.969115 31372 net.cpp:386] inception_4b/relu_3x3 -> inception_4b/3x3 (in-place)
I0714 21:31:35.969996 31372 net.cpp:141] Setting up inception_4b/relu_3x3
I0714 21:31:35.970013 31372 net.cpp:148] Top shape: 10 224 14 14 (439040)
I0714 21:31:35.970019 31372 net.cpp:156] Memory required for data: 397393920
I0714 21:31:35.970026 31372 layer_factory.hpp:77] Creating layer inception_4b/5x5_reduce
I0714 21:31:35.970065 31372 net.cpp:91] Creating Layer inception_4b/5x5_reduce
I0714 21:31:35.970072 31372 net.cpp:425] inception_4b/5x5_reduce <- inception_4a/output_inception_4a/output_0_split_2
I0714 21:31:35.970087 31372 net.cpp:399] inception_4b/5x5_reduce -> inception_4b/5x5_reduce
I0714 21:31:35.974843 31376 net.cpp:141] Setting up inception_4b/3x3
I0714 21:31:35.974867 31376 net.cpp:148] Top shape: 10 224 14 14 (439040)
I0714 21:31:35.974874 31376 net.cpp:156] Memory required for data: 395637760
I0714 21:31:35.974884 31376 layer_factory.hpp:77] Creating layer inception_4b/relu_3x3
I0714 21:31:35.974895 31376 net.cpp:91] Creating Layer inception_4b/relu_3x3
I0714 21:31:35.974900 31376 net.cpp:425] inception_4b/relu_3x3 <- inception_4b/3x3
I0714 21:31:35.974910 31376 net.cpp:386] inception_4b/relu_3x3 -> inception_4b/3x3 (in-place)
I0714 21:31:35.975844 31372 net.cpp:141] Setting up inception_4b/5x5_reduce
I0714 21:31:35.975867 31372 net.cpp:148] Top shape: 10 24 14 14 (47040)
I0714 21:31:35.975874 31372 net.cpp:156] Memory required for data: 397582080
I0714 21:31:35.975881 31376 net.cpp:141] Setting up inception_4b/relu_3x3
I0714 21:31:35.975886 31372 layer_factory.hpp:77] Creating layer inception_4b/relu_5x5_reduce
I0714 21:31:35.975900 31376 net.cpp:148] Top shape: 10 224 14 14 (439040)
I0714 21:31:35.975906 31376 net.cpp:156] Memory required for data: 397393920
I0714 21:31:35.975908 31372 net.cpp:91] Creating Layer inception_4b/relu_5x5_reduce
I0714 21:31:35.975915 31372 net.cpp:425] inception_4b/relu_5x5_reduce <- inception_4b/5x5_reduce
I0714 21:31:35.975925 31376 layer_factory.hpp:77] Creating layer inception_4b/5x5_reduce
I0714 21:31:35.975926 31372 net.cpp:386] inception_4b/relu_5x5_reduce -> inception_4b/5x5_reduce (in-place)
I0714 21:31:35.975970 31376 net.cpp:91] Creating Layer inception_4b/5x5_reduce
I0714 21:31:35.975977 31376 net.cpp:425] inception_4b/5x5_reduce <- inception_4a/output_inception_4a/output_0_split_2
I0714 21:31:35.975988 31376 net.cpp:399] inception_4b/5x5_reduce -> inception_4b/5x5_reduce
I0714 21:31:35.976469 31372 net.cpp:141] Setting up inception_4b/relu_5x5_reduce
I0714 21:31:35.976483 31372 net.cpp:148] Top shape: 10 24 14 14 (47040)
I0714 21:31:35.976488 31372 net.cpp:156] Memory required for data: 397770240
I0714 21:31:35.976495 31372 layer_factory.hpp:77] Creating layer inception_4b/5x5
I0714 21:31:35.976514 31372 net.cpp:91] Creating Layer inception_4b/5x5
I0714 21:31:35.976521 31372 net.cpp:425] inception_4b/5x5 <- inception_4b/5x5_reduce
I0714 21:31:35.976534 31372 net.cpp:399] inception_4b/5x5 -> inception_4b/5x5
I0714 21:31:35.982781 31376 net.cpp:141] Setting up inception_4b/5x5_reduce
I0714 21:31:35.982803 31376 net.cpp:148] Top shape: 10 24 14 14 (47040)
I0714 21:31:35.982810 31376 net.cpp:156] Memory required for data: 397582080
I0714 21:31:35.982820 31376 layer_factory.hpp:77] Creating layer inception_4b/relu_5x5_reduce
I0714 21:31:35.982830 31376 net.cpp:91] Creating Layer inception_4b/relu_5x5_reduce
I0714 21:31:35.982836 31376 net.cpp:425] inception_4b/relu_5x5_reduce <- inception_4b/5x5_reduce
I0714 21:31:35.982848 31376 net.cpp:386] inception_4b/relu_5x5_reduce -> inception_4b/5x5_reduce (in-place)
I0714 21:31:35.983145 31376 net.cpp:141] Setting up inception_4b/relu_5x5_reduce
I0714 21:31:35.983160 31376 net.cpp:148] Top shape: 10 24 14 14 (47040)
I0714 21:31:35.983165 31376 net.cpp:156] Memory required for data: 397770240
I0714 21:31:35.983171 31376 layer_factory.hpp:77] Creating layer inception_4b/5x5
I0714 21:31:35.983188 31376 net.cpp:91] Creating Layer inception_4b/5x5
I0714 21:31:35.983194 31376 net.cpp:425] inception_4b/5x5 <- inception_4b/5x5_reduce
I0714 21:31:35.983204 31376 net.cpp:399] inception_4b/5x5 -> inception_4b/5x5
I0714 21:31:35.986220 31372 net.cpp:141] Setting up inception_4b/5x5
I0714 21:31:35.986243 31372 net.cpp:148] Top shape: 10 64 14 14 (125440)
I0714 21:31:35.986248 31372 net.cpp:156] Memory required for data: 398272000
I0714 21:31:35.986268 31372 layer_factory.hpp:77] Creating layer inception_4b/relu_5x5
I0714 21:31:35.986281 31372 net.cpp:91] Creating Layer inception_4b/relu_5x5
I0714 21:31:35.986289 31372 net.cpp:425] inception_4b/relu_5x5 <- inception_4b/5x5
I0714 21:31:35.986297 31372 net.cpp:386] inception_4b/relu_5x5 -> inception_4b/5x5 (in-place)
I0714 21:31:35.986660 31372 net.cpp:141] Setting up inception_4b/relu_5x5
I0714 21:31:35.986675 31372 net.cpp:148] Top shape: 10 64 14 14 (125440)
I0714 21:31:35.986680 31372 net.cpp:156] Memory required for data: 398773760
I0714 21:31:35.986695 31372 layer_factory.hpp:77] Creating layer inception_4b/pool
I0714 21:31:35.986708 31372 net.cpp:91] Creating Layer inception_4b/pool
I0714 21:31:35.986714 31372 net.cpp:425] inception_4b/pool <- inception_4a/output_inception_4a/output_0_split_3
I0714 21:31:35.986728 31372 net.cpp:399] inception_4b/pool -> inception_4b/pool
I0714 21:31:35.987627 31372 net.cpp:141] Setting up inception_4b/pool
I0714 21:31:35.987643 31372 net.cpp:148] Top shape: 10 512 14 14 (1003520)
I0714 21:31:35.987648 31372 net.cpp:156] Memory required for data: 402787840
I0714 21:31:35.987653 31372 layer_factory.hpp:77] Creating layer inception_4b/pool_proj
I0714 21:31:35.987684 31372 net.cpp:91] Creating Layer inception_4b/pool_proj
I0714 21:31:35.987691 31372 net.cpp:425] inception_4b/pool_proj <- inception_4b/pool
I0714 21:31:35.987701 31372 net.cpp:399] inception_4b/pool_proj -> inception_4b/pool_proj
I0714 21:31:35.989691 31376 net.cpp:141] Setting up inception_4b/5x5
I0714 21:31:35.989717 31376 net.cpp:148] Top shape: 10 64 14 14 (125440)
I0714 21:31:35.989723 31376 net.cpp:156] Memory required for data: 398272000
I0714 21:31:35.989733 31376 layer_factory.hpp:77] Creating layer inception_4b/relu_5x5
I0714 21:31:35.989756 31376 net.cpp:91] Creating Layer inception_4b/relu_5x5
I0714 21:31:35.989763 31376 net.cpp:425] inception_4b/relu_5x5 <- inception_4b/5x5
I0714 21:31:35.989776 31376 net.cpp:386] inception_4b/relu_5x5 -> inception_4b/5x5 (in-place)
I0714 21:31:35.990167 31376 net.cpp:141] Setting up inception_4b/relu_5x5
I0714 21:31:35.990181 31376 net.cpp:148] Top shape: 10 64 14 14 (125440)
I0714 21:31:35.990186 31376 net.cpp:156] Memory required for data: 398773760
I0714 21:31:35.990207 31376 layer_factory.hpp:77] Creating layer inception_4b/pool
I0714 21:31:35.990222 31376 net.cpp:91] Creating Layer inception_4b/pool
I0714 21:31:35.990228 31376 net.cpp:425] inception_4b/pool <- inception_4a/output_inception_4a/output_0_split_3
I0714 21:31:35.990237 31376 net.cpp:399] inception_4b/pool -> inception_4b/pool
I0714 21:31:35.991008 31376 net.cpp:141] Setting up inception_4b/pool
I0714 21:31:35.991022 31376 net.cpp:148] Top shape: 10 512 14 14 (1003520)
I0714 21:31:35.991027 31376 net.cpp:156] Memory required for data: 402787840
I0714 21:31:35.991034 31376 layer_factory.hpp:77] Creating layer inception_4b/pool_proj
I0714 21:31:35.991060 31376 net.cpp:91] Creating Layer inception_4b/pool_proj
I0714 21:31:35.991068 31376 net.cpp:425] inception_4b/pool_proj <- inception_4b/pool
I0714 21:31:35.991080 31376 net.cpp:399] inception_4b/pool_proj -> inception_4b/pool_proj
I0714 21:31:35.993084 31372 net.cpp:141] Setting up inception_4b/pool_proj
I0714 21:31:35.993108 31372 net.cpp:148] Top shape: 10 64 14 14 (125440)
I0714 21:31:35.993114 31372 net.cpp:156] Memory required for data: 403289600
I0714 21:31:35.993124 31372 layer_factory.hpp:77] Creating layer inception_4b/relu_pool_proj
I0714 21:31:35.993134 31372 net.cpp:91] Creating Layer inception_4b/relu_pool_proj
I0714 21:31:35.993140 31372 net.cpp:425] inception_4b/relu_pool_proj <- inception_4b/pool_proj
I0714 21:31:35.993149 31372 net.cpp:386] inception_4b/relu_pool_proj -> inception_4b/pool_proj (in-place)
I0714 21:31:35.994117 31372 net.cpp:141] Setting up inception_4b/relu_pool_proj
I0714 21:31:35.994134 31372 net.cpp:148] Top shape: 10 64 14 14 (125440)
I0714 21:31:35.994139 31372 net.cpp:156] Memory required for data: 403791360
I0714 21:31:35.994148 31372 layer_factory.hpp:77] Creating layer inception_4b/output
I0714 21:31:35.994159 31372 net.cpp:91] Creating Layer inception_4b/output
I0714 21:31:35.994165 31372 net.cpp:425] inception_4b/output <- inception_4b/1x1
I0714 21:31:35.994174 31372 net.cpp:425] inception_4b/output <- inception_4b/3x3
I0714 21:31:35.994179 31372 net.cpp:425] inception_4b/output <- inception_4b/5x5
I0714 21:31:35.994185 31372 net.cpp:425] inception_4b/output <- inception_4b/pool_proj
I0714 21:31:35.994192 31372 net.cpp:399] inception_4b/output -> inception_4b/output
I0714 21:31:35.994832 31372 net.cpp:141] Setting up inception_4b/output
I0714 21:31:35.994848 31372 net.cpp:148] Top shape: 10 512 14 14 (1003520)
I0714 21:31:35.994853 31372 net.cpp:156] Memory required for data: 407805440
I0714 21:31:35.994859 31372 layer_factory.hpp:77] Creating layer inception_4b/output_inception_4b/output_0_split
I0714 21:31:35.994869 31372 net.cpp:91] Creating Layer inception_4b/output_inception_4b/output_0_split
I0714 21:31:35.994874 31372 net.cpp:425] inception_4b/output_inception_4b/output_0_split <- inception_4b/output
I0714 21:31:35.994886 31372 net.cpp:399] inception_4b/output_inception_4b/output_0_split -> inception_4b/output_inception_4b/output_0_split_0
I0714 21:31:35.994899 31372 net.cpp:399] inception_4b/output_inception_4b/output_0_split -> inception_4b/output_inception_4b/output_0_split_1
I0714 21:31:35.994909 31372 net.cpp:399] inception_4b/output_inception_4b/output_0_split -> inception_4b/output_inception_4b/output_0_split_2
I0714 21:31:35.994917 31372 net.cpp:399] inception_4b/output_inception_4b/output_0_split -> inception_4b/output_inception_4b/output_0_split_3
I0714 21:31:35.996003 31372 net.cpp:141] Setting up inception_4b/output_inception_4b/output_0_split
I0714 21:31:35.996018 31372 net.cpp:148] Top shape: 10 512 14 14 (1003520)
I0714 21:31:35.996024 31372 net.cpp:148] Top shape: 10 512 14 14 (1003520)
I0714 21:31:35.996031 31372 net.cpp:148] Top shape: 10 512 14 14 (1003520)
I0714 21:31:35.996037 31372 net.cpp:148] Top shape: 10 512 14 14 (1003520)
I0714 21:31:35.996042 31372 net.cpp:156] Memory required for data: 423861760
I0714 21:31:35.996047 31372 layer_factory.hpp:77] Creating layer inception_4c/1x1
I0714 21:31:35.996064 31372 net.cpp:91] Creating Layer inception_4c/1x1
I0714 21:31:35.996071 31372 net.cpp:425] inception_4c/1x1 <- inception_4b/output_inception_4b/output_0_split_0
I0714 21:31:35.996086 31372 net.cpp:399] inception_4c/1x1 -> inception_4c/1x1
I0714 21:31:35.997370 31376 net.cpp:141] Setting up inception_4b/pool_proj
I0714 21:31:35.997391 31376 net.cpp:148] Top shape: 10 64 14 14 (125440)
I0714 21:31:35.997397 31376 net.cpp:156] Memory required for data: 403289600
I0714 21:31:35.997407 31376 layer_factory.hpp:77] Creating layer inception_4b/relu_pool_proj
I0714 21:31:35.997428 31376 net.cpp:91] Creating Layer inception_4b/relu_pool_proj
I0714 21:31:35.997437 31376 net.cpp:425] inception_4b/relu_pool_proj <- inception_4b/pool_proj
I0714 21:31:35.997452 31376 net.cpp:386] inception_4b/relu_pool_proj -> inception_4b/pool_proj (in-place)
I0714 21:31:35.998410 31376 net.cpp:141] Setting up inception_4b/relu_pool_proj
I0714 21:31:35.998428 31376 net.cpp:148] Top shape: 10 64 14 14 (125440)
I0714 21:31:35.998433 31376 net.cpp:156] Memory required for data: 403791360
I0714 21:31:35.998450 31376 layer_factory.hpp:77] Creating layer inception_4b/output
…
I0714 21:31:36.129196 31372 net.cpp:141] Setting up inception_4e/5x5
I0714 21:31:36.129214 31372 net.cpp:148] Top shape: 10 128 14 14 (250880)
I0714 21:31:36.129218 31372 net.cpp:156] Memory required for data: 507153920
I0714 21:31:36.129231 31372 layer_factory.hpp:77] Creating layer inception_4e/relu_5x5
I0714 21:31:36.129241 31372 net.cpp:91] Creating Layer inception_4e/relu_5x5
I0714 21:31:36.129248 31372 net.cpp:425] inception_4e/relu_5x5 <- inception_4e/5x5
I0714 21:31:36.129251 31376 net.cpp:141] Setting up inception_4e/relu_5x5_reduce
I0714 21:31:36.129259 31372 net.cpp:386] inception_4e/relu_5x5 -> inception_4e/5x5 (in-place)
I0714 21:31:36.129267 31376 net.cpp:148] Top shape: 10 32 14 14 (62720)
I0714 21:31:36.129273 31376 net.cpp:156] Memory required for data: 506150400
I0714 21:31:36.129279 31376 layer_factory.hpp:77] Creating layer inception_4e/5x5
I0714 21:31:36.129312 31376 net.cpp:91] Creating Layer inception_4e/5x5
I0714 21:31:36.129320 31376 net.cpp:425] inception_4e/5x5 <- inception_4e/5x5_reduce
I0714 21:31:36.129331 31376 net.cpp:399] inception_4e/5x5 -> inception_4e/5x5
I0714 21:31:36.129700 31372 net.cpp:141] Setting up inception_4e/relu_5x5
I0714 21:31:36.129714 31372 net.cpp:148] Top shape: 10 128 14 14 (250880)
I0714 21:31:36.129719 31372 net.cpp:156] Memory required for data: 508157440
I0714 21:31:36.129724 31372 layer_factory.hpp:77] Creating layer inception_4e/pool
I0714 21:31:36.129740 31372 net.cpp:91] Creating Layer inception_4e/pool
I0714 21:31:36.129747 31372 net.cpp:425] inception_4e/pool <- inception_4d/output_inception_4d/output_0_split_3
I0714 21:31:36.129756 31372 net.cpp:399] inception_4e/pool -> inception_4e/pool
I0714 21:31:36.130005 31372 net.cpp:141] Setting up inception_4e/pool
I0714 21:31:36.130017 31372 net.cpp:148] Top shape: 10 528 14 14 (1034880)
I0714 21:31:36.130023 31372 net.cpp:156] Memory required for data: 512296960
I0714 21:31:36.130028 31372 layer_factory.hpp:77] Creating layer inception_4e/pool_proj
I0714 21:31:36.130048 31372 net.cpp:91] Creating Layer inception_4e/pool_proj
I0714 21:31:36.130056 31372 net.cpp:425] inception_4e/pool_proj <- inception_4e/pool
I0714 21:31:36.130066 31372 net.cpp:399] inception_4e/pool_proj -> inception_4e/pool_proj
I0714 21:31:36.136420 31376 net.cpp:141] Setting up inception_4e/5x5
I0714 21:31:36.136441 31376 net.cpp:148] Top shape: 10 128 14 14 (250880)
I0714 21:31:36.136446 31376 net.cpp:156] Memory required for data: 507153920
I0714 21:31:36.136457 31376 layer_factory.hpp:77] Creating layer inception_4e/relu_5x5
I0714 21:31:36.136482 31376 net.cpp:91] Creating Layer inception_4e/relu_5x5
I0714 21:31:36.136489 31376 net.cpp:425] inception_4e/relu_5x5 <- inception_4e/5x5
I0714 21:31:36.136504 31376 net.cpp:386] inception_4e/relu_5x5 -> inception_4e/5x5 (in-place)
I0714 21:31:36.137003 31376 net.cpp:141] Setting up inception_4e/relu_5x5
I0714 21:31:36.137019 31376 net.cpp:148] Top shape: 10 128 14 14 (250880)
I0714 21:31:36.137024 31376 net.cpp:156] Memory required for data: 508157440
I0714 21:31:36.137032 31376 layer_factory.hpp:77] Creating layer inception_4e/pool
I0714 21:31:36.137043 31376 net.cpp:91] Creating Layer inception_4e/pool
I0714 21:31:36.137050 31376 net.cpp:425] inception_4e/pool <- inception_4d/output_inception_4d/output_0_split_3
I0714 21:31:36.137059 31376 net.cpp:399] inception_4e/pool -> inception_4e/pool
I0714 21:31:36.137181 31372 net.cpp:141] Setting up inception_4e/pool_proj
I0714 21:31:36.137200 31372 net.cpp:148] Top shape: 10 128 14 14 (250880)
I0714 21:31:36.137207 31372 net.cpp:156] Memory required for data: 513300480
I0714 21:31:36.137217 31372 layer_factory.hpp:77] Creating layer inception_4e/relu_pool_proj
I0714 21:31:36.137228 31372 net.cpp:91] Creating Layer inception_4e/relu_pool_proj
I0714 21:31:36.137234 31372 net.cpp:425] inception_4e/relu_pool_proj <- inception_4e/pool_proj
I0714 21:31:36.137238 31376 net.cpp:141] Setting up inception_4e/pool
I0714 21:31:36.137246 31372 net.cpp:386] inception_4e/relu_pool_proj -> inception_4e/pool_proj (in-place)
I0714 21:31:36.137251 31376 net.cpp:148] Top shape: 10 528 14 14 (1034880)
I0714 21:31:36.137256 31376 net.cpp:156] Memory required for data: 512296960
I0714 21:31:36.137262 31376 layer_factory.hpp:77] Creating layer inception_4e/pool_proj
I0714 21:31:36.137293 31376 net.cpp:91] Creating Layer inception_4e/pool_proj
I0714 21:31:36.137300 31376 net.cpp:425] inception_4e/pool_proj <- inception_4e/pool
I0714 21:31:36.137316 31376 net.cpp:399] inception_4e/pool_proj -> inception_4e/pool_proj
I0714 21:31:36.138272 31372 net.cpp:141] Setting up inception_4e/relu_pool_proj
I0714 21:31:36.138288 31372 net.cpp:148] Top shape: 10 128 14 14 (250880)
I0714 21:31:36.138293 31372 net.cpp:156] Memory required for data: 514304000
I0714 21:31:36.138303 31372 layer_factory.hpp:77] Creating layer inception_4e/output
I0714 21:31:36.138312 31372 net.cpp:91] Creating Layer inception_4e/output
I0714 21:31:36.138319 31372 net.cpp:425] inception_4e/output <- inception_4e/1x1
I0714 21:31:36.138327 31372 net.cpp:425] inception_4e/output <- inception_4e/3x3
I0714 21:31:36.138334 31372 net.cpp:425] inception_4e/output <- inception_4e/5x5
I0714 21:31:36.138339 31372 net.cpp:425] inception_4e/output <- inception_4e/pool_proj
I0714 21:31:36.138350 31372 net.cpp:399] inception_4e/output -> inception_4e/output
I0714 21:31:36.138501 31372 net.cpp:141] Setting up inception_4e/output
I0714 21:31:36.138514 31372 net.cpp:148] Top shape: 10 832 14 14 (1630720)
I0714 21:31:36.138520 31372 net.cpp:156] Memory required for data: 520826880
I0714 21:31:36.138525 31372 layer_factory.hpp:77] Creating layer pool4/3x3_s2
I0714 21:31:36.138540 31372 net.cpp:91] Creating Layer pool4/3x3_s2
I0714 21:31:36.138547 31372 net.cpp:425] pool4/3x3_s2 <- inception_4e/output
I0714 21:31:36.138556 31372 net.cpp:399] pool4/3x3_s2 -> pool4/3x3_s2
I0714 21:31:36.138787 31372 net.cpp:141] Setting up pool4/3x3_s2
I0714 21:31:36.138800 31372 net.cpp:148] Top shape: 10 832 7 7 (407680)
I0714 21:31:36.138805 31372 net.cpp:156] Memory required for data: 522457600
I0714 21:31:36.138811 31372 layer_factory.hpp:77] Creating layer pool4/3x3_s2_pool4/3x3_s2_0_split
I0714 21:31:36.138820 31372 net.cpp:91] Creating Layer pool4/3x3_s2_pool4/3x3_s2_0_split
I0714 21:31:36.138826 31372 net.cpp:425] pool4/3x3_s2_pool4/3x3_s2_0_split <- pool4/3x3_s2
I0714 21:31:36.138839 31372 net.cpp:399] pool4/3x3_s2_pool4/3x3_s2_0_split -> pool4/3x3_s2_pool4/3x3_s2_0_split_0
I0714 21:31:36.138852 31372 net.cpp:399] pool4/3x3_s2_pool4/3x3_s2_0_split -> pool4/3x3_s2_pool4/3x3_s2_0_split_1
I0714 21:31:36.138861 31372 net.cpp:399] pool4/3x3_s2_pool4/3x3_s2_0_split -> pool4/3x3_s2_pool4/3x3_s2_0_split_2
I0714 21:31:36.138870 31372 net.cpp:399] pool4/3x3_s2_pool4/3x3_s2_0_split -> pool4/3x3_s2_pool4/3x3_s2_0_split_3
I0714 21:31:36.139104 31372 net.cpp:141] Setting up pool4/3x3_s2_pool4/3x3_s2_0_split
I0714 21:31:36.139116 31372 net.cpp:148] Top shape: 10 832 7 7 (407680)
I0714 21:31:36.139122 31372 net.cpp:148] Top shape: 10 832 7 7 (407680)
I0714 21:31:36.139128 31372 net.cpp:148] Top shape: 10 832 7 7 (407680)
I0714 21:31:36.139134 31372 net.cpp:148] Top shape: 10 832 7 7 (407680)
I0714 21:31:36.139138 31372 net.cpp:156] Memory required for data: 528980480
I0714 21:31:36.139143 31372 layer_factory.hpp:77] Creating layer inception_5a/1x1
I0714 21:31:36.139160 31372 net.cpp:91] Creating Layer inception_5a/1x1
I0714 21:31:36.139166 31372 net.cpp:425] inception_5a/1x1 <- pool4/3x3_s2_pool4/3x3_s2_0_split_0
I0714 21:31:36.139180 31372 net.cpp:399] inception_5a/1x1 -> inception_5a/1x1
I0714 21:31:36.144075 31376 net.cpp:141] Setting up inception_4e/pool_proj
I0714 21:31:36.144096 31376 net.cpp:148] Top shape: 10 128 14 14 (250880)
I0714 21:31:36.144103 31376 net.cpp:156] Memory required for data: 513300480
I0714 21:31:36.144114 31376 layer_factory.hpp:77] Creating layer inception_4e/relu_pool_proj
I0714 21:31:36.144122 31376 net.cpp:91] Creating Layer inception_4e/relu_pool_proj
I0714 21:31:36.144129 31376 net.cpp:425] inception_4e/relu_pool_proj <- inception_4e/pool_proj
I0714 21:31:36.144141 31376 net.cpp:386] inception_4e/relu_pool_proj -> inception_4e/pool_proj (in-place)
I0714 21:31:36.145042 31376 net.cpp:141] Setting up inception_4e/relu_pool_proj
I0714 21:31:36.145061 31376 net.cpp:148] Top shape: 10 128 14 14 (250880)
I0714 21:31:36.145066 31376 net.cpp:156] Memory required for data: 514304000
I0714 21:31:36.145086 31376 layer_factory.hpp:77] Creating layer inception_4e/output
I0714 21:31:36.145095 31376 net.cpp:91] Creating Layer inception_4e/output
I0714 21:31:36.145102 31376 net.cpp:425] inception_4e/output <- inception_4e/1x1
I0714 21:31:36.145109 31376 net.cpp:425] inception_4e/output <- inception_4e/3x3
I0714 21:31:36.145123 31376 net.cpp:425] inception_4e/output <- inception_4e/5x5
I0714 21:31:36.145130 31376 net.cpp:425] inception_4e/output <- inception_4e/pool_proj
I0714 21:31:36.145138 31376 net.cpp:399] inception_4e/output -> inception_4e/output
I0714 21:31:36.145469 31376 net.cpp:141] Setting up inception_4e/output
I0714 21:31:36.145483 31376 net.cpp:148] Top shape: 10 832 14 14 (1630720)
I0714 21:31:36.145488 31376 net.cpp:156] Memory required for data: 520826880
I0714 21:31:36.145493 31376 layer_factory.hpp:77] Creating layer pool4/3x3_s2
I0714 21:31:36.145519 31376 net.cpp:91] Creating Layer pool4/3x3_s2
I0714 21:31:36.145525 31376 net.cpp:425] pool4/3x3_s2 <- inception_4e/output
I0714 21:31:36.145534 31376 net.cpp:399] pool4/3x3_s2 -> pool4/3x3_s2
I0714 21:31:36.146317 31376 net.cpp:141] Setting up pool4/3x3_s2
I0714 21:31:36.146332 31376 net.cpp:148] Top shape: 10 832 7 7 (407680)
I0714 21:31:36.146337 31376 net.cpp:156] Memory required for data: 522457600
I0714 21:31:36.146342 31376 layer_factory.hpp:77] Creating layer pool4/3x3_s2_pool4/3x3_s2_0_split
I0714 21:31:36.146354 31376 net.cpp:91] Creating Layer pool4/3x3_s2_pool4/3x3_s2_0_split
I0714 21:31:36.146359 31376 net.cpp:425] pool4/3x3_s2_pool4/3x3_s2_0_split <- pool4/3x3_s2
I0714 21:31:36.146368 31376 net.cpp:399] pool4/3x3_s2_pool4/3x3_s2_0_split -> pool4/3x3_s2_pool4/3x3_s2_0_split_0
I0714 21:31:36.146378 31376 net.cpp:399] pool4/3x3_s2_pool4/3x3_s2_0_split -> pool4/3x3_s2_pool4/3x3_s2_0_split_1
I0714 21:31:36.146386 31376 net.cpp:399] pool4/3x3_s2_pool4/3x3_s2_0_split -> pool4/3x3_s2_pool4/3x3_s2_0_split_2
I0714 21:31:36.146395 31376 net.cpp:399] pool4/3x3_s2_pool4/3x3_s2_0_split -> pool4/3x3_s2_pool4/3x3_s2_0_split_3
I0714 21:31:36.146713 31376 net.cpp:141] Setting up pool4/3x3_s2_pool4/3x3_s2_0_split
I0714 21:31:36.146726 31376 net.cpp:148] Top shape: 10 832 7 7 (407680)
I0714 21:31:36.146733 31376 net.cpp:148] Top shape: 10 832 7 7 (407680)
I0714 21:31:36.146739 31376 net.cpp:148] Top shape: 10 832 7 7 (407680)
I0714 21:31:36.146745 31376 net.cpp:148] Top shape: 10 832 7 7 (407680)
I0714 21:31:36.146749 31376 net.cpp:156] Memory required for data: 528980480
I0714 21:31:36.146755 31376 layer_factory.hpp:77] Creating layer inception_5a/1x1
I0714 21:31:36.146786 31376 net.cpp:91] Creating Layer inception_5a/1x1
I0714 21:31:36.146795 31376 net.cpp:425] inception_5a/1x1 <- pool4/3x3_s2_pool4/3x3_s2_0_split_0
I0714 21:31:36.146806 31376 net.cpp:399] inception_5a/1x1 -> inception_5a/1x1
I0714 21:31:36.150156 31372 net.cpp:141] Setting up inception_5a/1x1
I0714 21:31:36.150179 31372 net.cpp:148] Top shape: 10 256 7 7 (125440)
I0714 21:31:36.150187 31372 net.cpp:156] Memory required for data: 529482240
I0714 21:31:36.150197 31372 layer_factory.hpp:77] Creating layer inception_5a/relu_1x1
I0714 21:31:36.150207 31372 net.cpp:91] Creating Layer inception_5a/relu_1x1
I0714 21:31:36.150213 31372 net.cpp:425] inception_5a/relu_1x1 <- inception_5a/1x1
I0714 21:31:36.150225 31372 net.cpp:386] inception_5a/relu_1x1 -> inception_5a/1x1 (in-place)
I0714 21:31:36.150537 31372 net.cpp:141] Setting up inception_5a/relu_1x1
I0714 21:31:36.150549 31372 net.cpp:148] Top shape: 10 256 7 7 (125440)
I0714 21:31:36.150554 31372 net.cpp:156] Memory required for data: 529984000
I0714 21:31:36.150559 31372 layer_factory.hpp:77] Creating layer inception_5a/3x3_reduce
I0714 21:31:36.150581 31372 net.cpp:91] Creating Layer inception_5a/3x3_reduce
I0714 21:31:36.150590 31372 net.cpp:425] inception_5a/3x3_reduce <- pool4/3x3_s2_pool4/3x3_s2_0_split_1
I0714 21:31:36.150601 31372 net.cpp:399] inception_5a/3x3_reduce -> inception_5a/3x3_reduce
I0714 21:31:36.157109 31376 net.cpp:141] Setting up inception_5a/1x1
I0714 21:31:36.157132 31376 net.cpp:148] Top shape: 10 256 7 7 (125440)
I0714 21:31:36.157138 31376 net.cpp:156] Memory required for data: 529482240
I0714 21:31:36.157150 31376 layer_factory.hpp:77] Creating layer inception_5a/relu_1x1
I0714 21:31:36.157160 31376 net.cpp:91] Creating Layer inception_5a/relu_1x1
I0714 21:31:36.157166 31376 net.cpp:425] inception_5a/relu_1x1 <- inception_5a/1x1
I0714 21:31:36.157176 31376 net.cpp:386] inception_5a/relu_1x1 -> inception_5a/1x1 (in-place)
I0714 21:31:36.157584 31372 net.cpp:141] Setting up inception_5a/3x3_reduce
I0714 21:31:36.157601 31372 net.cpp:148] Top shape: 10 160 7 7 (78400)
I0714 21:31:36.157606 31372 net.cpp:156] Memory required for data: 530297600
I0714 21:31:36.157618 31372 layer_factory.hpp:77] Creating layer inception_5a/relu_3x3_reduce
I0714 21:31:36.157619 31376 net.cpp:141] Setting up inception_5a/relu_1x1
I0714 21:31:36.157627 31372 net.cpp:91] Creating Layer inception_5a/relu_3x3_reduce
I0714 21:31:36.157634 31376 net.cpp:148] Top shape: 10 256 7 7 (125440)
I0714 21:31:36.157634 31372 net.cpp:425] inception_5a/relu_3x3_reduce <- inception_5a/3x3_reduce
I0714 21:31:36.157639 31376 net.cpp:156] Memory required for data: 529984000
I0714 21:31:36.157644 31372 net.cpp:386] inception_5a/relu_3x3_reduce -> inception_5a/3x3_reduce (in-place)
I0714 21:31:36.157645 31376 layer_factory.hpp:77] Creating layer inception_5a/3x3_reduce
I0714 21:31:36.157677 31376 net.cpp:91] Creating Layer inception_5a/3x3_reduce
I0714 21:31:36.157685 31376 net.cpp:425] inception_5a/3x3_reduce <- pool4/3x3_s2_pool4/3x3_s2_0_split_1
I0714 21:31:36.157699 31376 net.cpp:399] inception_5a/3x3_reduce -> inception_5a/3x3_reduce
I0714 21:31:36.158120 31372 net.cpp:141] Setting up inception_5a/relu_3x3_reduce
I0714 21:31:36.158134 31372 net.cpp:148] Top shape: 10 160 7 7 (78400)
I0714 21:31:36.158139 31372 net.cpp:156] Memory required for data: 530611200
I0714 21:31:36.158148 31372 layer_factory.hpp:77] Creating layer inception_5a/3x3
I0714 21:31:36.158165 31372 net.cpp:91] Creating Layer inception_5a/3x3
I0714 21:31:36.158172 31372 net.cpp:425] inception_5a/3x3 <- inception_5a/3x3_reduce
I0714 21:31:36.158185 31372 net.cpp:399] inception_5a/3x3 -> inception_5a/3x3
I0714 21:31:36.166421 31376 net.cpp:141] Setting up inception_5a/3x3_reduce
I0714 21:31:36.166450 31376 net.cpp:148] Top shape: 10 160 7 7 (78400)
I0714 21:31:36.166455 31376 net.cpp:156] Memory required for data: 530297600
I0714 21:31:36.166467 31376 layer_factory.hpp:77] Creating layer inception_5a/relu_3x3_reduce
I0714 21:31:36.166481 31376 net.cpp:91] Creating Layer inception_5a/relu_3x3_reduce
I0714 21:31:36.166489 31376 net.cpp:425] inception_5a/relu_3x3_reduce <- inception_5a/3x3_reduce
I0714 21:31:36.166498 31376 net.cpp:386] inception_5a/relu_3x3_reduce -> inception_5a/3x3_reduce (in-place)
I0714 21:31:36.166821 31376 net.cpp:141] Setting up inception_5a/relu_3x3_reduce
I0714 21:31:36.166833 31376 net.cpp:148] Top shape: 10 160 7 7 (78400)
I0714 21:31:36.166838 31376 net.cpp:156] Memory required for data: 530611200
I0714 21:31:36.166844 31376 layer_factory.hpp:77] Creating layer inception_5a/3x3
I0714 21:31:36.166888 31376 net.cpp:91] Creating Layer inception_5a/3x3
I0714 21:31:36.166896 31376 net.cpp:425] inception_5a/3x3 <- inception_5a/3x3_reduce
I0714 21:31:36.166913 31376 net.cpp:399] inception_5a/3x3 -> inception_5a/3x3
I0714 21:31:36.173984 31372 net.cpp:141] Setting up inception_5a/3x3
I0714 21:31:36.174018 31372 net.cpp:148] Top shape: 10 320 7 7 (156800)
I0714 21:31:36.174024 31372 net.cpp:156] Memory required for data: 531238400
I0714 21:31:36.174038 31372 layer_factory.hpp:77] Creating layer inception_5a/relu_3x3
I0714 21:31:36.174077 31372 net.cpp:91] Creating Layer inception_5a/relu_3x3
I0714 21:31:36.174088 31372 net.cpp:425] inception_5a/relu_3x3 <- inception_5a/3x3
I0714 21:31:36.174098 31372 net.cpp:386] inception_5a/relu_3x3 -> inception_5a/3x3 (in-place)
I0714 21:31:36.175451 31372 net.cpp:141] Setting up inception_5a/relu_3x3
I0714 21:31:36.175474 31372 net.cpp:148] Top shape: 10 320 7 7 (156800)
I0714 21:31:36.175480 31372 net.cpp:156] Memory required for data: 531865600
I0714 21:31:36.175487 31372 layer_factory.hpp:77] Creating layer inception_5a/5x5_reduce
I0714 21:31:36.175508 31372 net.cpp:91] Creating Layer inception_5a/5x5_reduce
I0714 21:31:36.175516 31372 net.cpp:425] inception_5a/5x5_reduce <- pool4/3x3_s2_pool4/3x3_s2_0_split_2
I0714 21:31:36.175529 31372 net.cpp:399] inception_5a/5x5_reduce -> inception_5a/5x5_reduce
I0714 21:31:36.178755 31376 net.cpp:141] Setting up inception_5a/3x3
I0714 21:31:36.178776 31376 net.cpp:148] Top shape: 10 320 7 7 (156800)
I0714 21:31:36.178781 31376 net.cpp:156] Memory required for data: 531238400
I0714 21:31:36.178797 31376 layer_factory.hpp:77] Creating layer inception_5a/relu_3x3
I0714 21:31:36.178825 31376 net.cpp:91] Creating Layer inception_5a/relu_3x3
I0714 21:31:36.178833 31376 net.cpp:425] inception_5a/relu_3x3 <- inception_5a/3x3
I0714 21:31:36.178845 31376 net.cpp:386] inception_5a/relu_3x3 -> inception_5a/3x3 (in-place)
I0714 21:31:36.179796 31376 net.cpp:141] Setting up inception_5a/relu_3x3
I0714 21:31:36.179817 31376 net.cpp:148] Top shape: 10 320 7 7 (156800)
I0714 21:31:36.179822 31376 net.cpp:156] Memory required for data: 531865600
I0714 21:31:36.179828 31376 layer_factory.hpp:77] Creating layer inception_5a/5x5_reduce
I0714 21:31:36.179847 31376 net.cpp:91] Creating Layer inception_5a/5x5_reduce
I0714 21:31:36.179854 31376 net.cpp:425] inception_5a/5x5_reduce <- pool4/3x3_s2_pool4/3x3_s2_0_split_2
I0714 21:31:36.179865 31376 net.cpp:399] inception_5a/5x5_reduce -> inception_5a/5x5_reduce
I0714 21:31:36.182193 31372 net.cpp:141] Setting up inception_5a/5x5_reduce
I0714 21:31:36.182216 31372 net.cpp:148] Top shape: 10 32 7 7 (15680)
I0714 21:31:36.182222 31372 net.cpp:156] Memory required for data: 531928320
I0714 21:31:36.182234 31372 layer_factory.hpp:77] Creating layer inception_5a/relu_5x5_reduce
I0714 21:31:36.182250 31372 net.cpp:91] Creating Layer inception_5a/relu_5x5_reduce
I0714 21:31:36.182257 31372 net.cpp:425] inception_5a/relu_5x5_reduce <- inception_5a/5x5_reduce
I0714 21:31:36.182265 31372 net.cpp:386] inception_5a/relu_5x5_reduce -> inception_5a/5x5_reduce (in-place)
I0714 21:31:36.182679 31372 net.cpp:141] Setting up inception_5a/relu_5x5_reduce
I0714 21:31:36.182704 31372 net.cpp:148] Top shape: 10 32 7 7 (15680)
I0714 21:31:36.182710 31372 net.cpp:156] Memory required for data: 531991040
I0714 21:31:36.182718 31372 layer_factory.hpp:77] Creating layer inception_5a/5x5
I0714 21:31:36.182740 31372 net.cpp:91] Creating Layer inception_5a/5x5
I0714 21:31:36.182749 31372 net.cpp:425] inception_5a/5x5 <- inception_5a/5x5_reduce
I0714 21:31:36.182761 31372 net.cpp:399] inception_5a/5x5 -> inception_5a/5x5
I0714 21:31:36.185389 31376 net.cpp:141] Setting up inception_5a/5x5_reduce
I0714 21:31:36.185410 31376 net.cpp:148] Top shape: 10 32 7 7 (15680)
I0714 21:31:36.185416 31376 net.cpp:156] Memory required for data: 531928320
I0714 21:31:36.185426 31376 layer_factory.hpp:77] Creating layer inception_5a/relu_5x5_reduce
I0714 21:31:36.185438 31376 net.cpp:91] Creating Layer inception_5a/relu_5x5_reduce
I0714 21:31:36.185446 31376 net.cpp:425] inception_5a/relu_5x5_reduce <- inception_5a/5x5_reduce
I0714 21:31:36.185454 31376 net.cpp:386] inception_5a/relu_5x5_reduce -> inception_5a/5x5_reduce (in-place)
I0714 21:31:36.185760 31376 net.cpp:141] Setting up inception_5a/relu_5x5_reduce
I0714 21:31:36.185772 31376 net.cpp:148] Top shape: 10 32 7 7 (15680)
I0714 21:31:36.185777 31376 net.cpp:156] Memory required for data: 531991040
I0714 21:31:36.185782 31376 layer_factory.hpp:77] Creating layer inception_5a/5x5
I0714 21:31:36.185824 31376 net.cpp:91] Creating Layer inception_5a/5x5
I0714 21:31:36.185832 31376 net.cpp:425] inception_5a/5x5 <- inception_5a/5x5_reduce
I0714 21:31:36.185842 31376 net.cpp:399] inception_5a/5x5 -> inception_5a/5x5
I0714 21:31:36.190171 31372 net.cpp:141] Setting up inception_5a/5x5
I0714 21:31:36.190192 31372 net.cpp:148] Top shape: 10 128 7 7 (62720)
I0714 21:31:36.190197 31372 net.cpp:156] Memory required for data: 532241920
I0714 21:31:36.190208 31372 layer_factory.hpp:77] Creating layer inception_5a/relu_5x5
I0714 21:31:36.190245 31372 net.cpp:91] Creating Layer inception_5a/relu_5x5
I0714 21:31:36.190253 31372 net.cpp:425] inception_5a/relu_5x5 <- inception_5a/5x5
I0714 21:31:36.190263 31372 net.cpp:386] inception_5a/relu_5x5 -> inception_5a/5x5 (in-place)
I0714 21:31:36.190606 31372 net.cpp:141] Setting up inception_5a/relu_5x5
I0714 21:31:36.190620 31372 net.cpp:148] Top shape: 10 128 7 7 (62720)
I0714 21:31:36.190624 31372 net.cpp:156] Memory required for data: 532492800
I0714 21:31:36.190631 31372 layer_factory.hpp:77] Creating layer inception_5a/pool
I0714 21:31:36.190640 31372 net.cpp:91] Creating Layer inception_5a/pool
I0714 21:31:36.190647 31372 net.cpp:425] inception_5a/pool <- pool4/3x3_s2_pool4/3x3_s2_0_split_3
I0714 21:31:36.190657 31372 net.cpp:399] inception_5a/pool -> inception_5a/pool
I0714 21:31:36.191229 31372 net.cpp:141] Setting up inception_5a/pool
I0714 21:31:36.191246 31372 net.cpp:148] Top shape: 10 832 7 7 (407680)
I0714 21:31:36.191251 31372 net.cpp:156] Memory required for data: 534123520
I0714 21:31:36.191256 31372 layer_factory.hpp:77] Creating layer inception_5a/pool_proj
I0714 21:31:36.191277 31372 net.cpp:91] Creating Layer inception_5a/pool_proj
I0714 21:31:36.191284 31372 net.cpp:425] inception_5a/pool_proj <- inception_5a/pool
I0714 21:31:36.191294 31372 net.cpp:399] inception_5a/pool_proj -> inception_5a/pool_proj
I0714 21:31:36.192003 31376 net.cpp:141] Setting up inception_5a/5x5
I0714 21:31:36.192023 31376 net.cpp:148] Top shape: 10 128 7 7 (62720)
I0714 21:31:36.192028 31376 net.cpp:156] Memory required for data: 532241920
I0714 21:31:36.192039 31376 layer_factory.hpp:77] Creating layer inception_5a/relu_5x5
I0714 21:31:36.192076 31376 net.cpp:91] Creating Layer inception_5a/relu_5x5
I0714 21:31:36.192085 31376 net.cpp:425] inception_5a/relu_5x5 <- inception_5a/5x5
I0714 21:31:36.192092 31376 net.cpp:386] inception_5a/relu_5x5 -> inception_5a/5x5 (in-place)
I0714 21:31:36.192912 31376 net.cpp:141] Setting up inception_5a/relu_5x5
I0714 21:31:36.192929 31376 net.cpp:148] Top shape: 10 128 7 7 (62720)
I0714 21:31:36.192934 31376 net.cpp:156] Memory required for data: 532492800
I0714 21:31:36.192940 31376 layer_factory.hpp:77] Creating layer inception_5a/pool
I0714 21:31:36.192953 31376 net.cpp:91] Creating Layer inception_5a/pool
I0714 21:31:36.192961 31376 net.cpp:425] inception_5a/pool <- pool4/3x3_s2_pool4/3x3_s2_0_split_3
I0714 21:31:36.192972 31376 net.cpp:399] inception_5a/pool -> inception_5a/pool
I0714 21:31:36.194399 31376 net.cpp:141] Setting up inception_5a/pool
I0714 21:31:36.194417 31376 net.cpp:148] Top shape: 10 832 7 7 (407680)
I0714 21:31:36.194422 31376 net.cpp:156] Memory required for data: 534123520
I0714 21:31:36.194427 31376 layer_factory.hpp:77] Creating layer inception_5a/pool_proj
I0714 21:31:36.194463 31376 net.cpp:91] Creating Layer inception_5a/pool_proj
I0714 21:31:36.194471 31376 net.cpp:425] inception_5a/pool_proj <- inception_5a/pool
I0714 21:31:36.194481 31376 net.cpp:399] inception_5a/pool_proj -> inception_5a/pool_proj
I0714 21:31:36.200398 31372 net.cpp:141] Setting up inception_5a/pool_proj
I0714 21:31:36.200423 31372 net.cpp:148] Top shape: 10 128 7 7 (62720)
I0714 21:31:36.200428 31372 net.cpp:156] Memory required for data: 534374400
I0714 21:31:36.200439 31372 layer_factory.hpp:77] Creating layer inception_5a/relu_pool_proj
I0714 21:31:36.200449 31372 net.cpp:91] Creating Layer inception_5a/relu_pool_proj
I0714 21:31:36.200456 31372 net.cpp:425] inception_5a/relu_pool_proj <- inception_5a/pool_proj
I0714 21:31:36.200467 31372 net.cpp:386] inception_5a/relu_pool_proj -> inception_5a/pool_proj (in-place)
I0714 21:31:36.201531 31372 net.cpp:141] Setting up inception_5a/relu_pool_proj
I0714 21:31:36.201550 31372 net.cpp:148] Top shape: 10 128 7 7 (62720)
I0714 21:31:36.201555 31372 net.cpp:156] Memory required for data: 534625280
I0714 21:31:36.201560 31372 layer_factory.hpp:77] Creating layer inception_5a/output
I0714 21:31:36.201575 31372 net.cpp:91] Creating Layer inception_5a/output
I0714 21:31:36.201582 31372 net.cpp:425] inception_5a/output <- inception_5a/1x1
I0714 21:31:36.201591 31372 net.cpp:425] inception_5a/output <- inception_5a/3x3
I0714 21:31:36.201596 31372 net.cpp:425] inception_5a/output <- inception_5a/5x5
I0714 21:31:36.201602 31372 net.cpp:425] inception_5a/output <- inception_5a/pool_proj
I0714 21:31:36.201611 31372 net.cpp:399] inception_5a/output -> inception_5a/output
I0714 21:31:36.201613 31376 net.cpp:141] Setting up inception_5a/pool_proj
I0714 21:31:36.201630 31376 net.cpp:148] Top shape: 10 128 7 7 (62720)
I0714 21:31:36.201637 31376 net.cpp:156] Memory required for data: 534374400
I0714 21:31:36.201661 31376 layer_factory.hpp:77] Creating layer inception_5a/relu_pool_proj
I0714 21:31:36.201673 31376 net.cpp:91] Creating Layer inception_5a/relu_pool_proj
I0714 21:31:36.201679 31376 net.cpp:425] inception_5a/relu_pool_proj <- inception_5a/pool_proj
I0714 21:31:36.201695 31376 net.cpp:386] inception_5a/relu_pool_proj -> inception_5a/pool_proj (in-place)
I0714 21:31:36.201714 31372 net.cpp:141] Setting up inception_5a/output
I0714 21:31:36.201726 31372 net.cpp:148] Top shape: 10 832 7 7 (407680)
I0714 21:31:36.201731 31372 net.cpp:156] Memory required for data: 536256000
I0714 21:31:36.201736 31372 layer_factory.hpp:77] Creating layer inception_5a/output_inception_5a/output_0_split
I0714 21:31:36.201748 31372 net.cpp:91] Creating Layer inception_5a/output_inception_5a/output_0_split
I0714 21:31:36.201756 31372 net.cpp:425] inception_5a/output_inception_5a/output_0_split <- inception_5a/output
I0714 21:31:36.201763 31372 net.cpp:399] inception_5a/output_inception_5a/output_0_split -> inception_5a/output_inception_5a/output_0_split_0
I0714 21:31:36.201773 31372 net.cpp:399] inception_5a/output_inception_5a/output_0_split -> inception_5a/output_inception_5a/output_0_split_1
I0714 21:31:36.201782 31372 net.cpp:399] inception_5a/output_inception_5a/output_0_split -> inception_5a/output_inception_5a/output_0_split_2
I0714 21:31:36.201792 31372 net.cpp:399] inception_5a/output_inception_5a/output_0_split -> inception_5a/output_inception_5a/output_0_split_3
I0714 21:31:36.202723 31376 net.cpp:141] Setting up inception_5a/relu_pool_proj
I0714 21:31:36.202739 31376 net.cpp:148] Top shape: 10 128 7 7 (62720)
I0714 21:31:36.202744 31376 net.cpp:156] Memory required for data: 534625280
I0714 21:31:36.202750 31376 layer_factory.hpp:77] Creating layer inception_5a/output
I0714 21:31:36.202755 31372 net.cpp:141] Setting up inception_5a/output_inception_5a/output_0_split
I0714 21:31:36.202759 31376 net.cpp:91] Creating Layer inception_5a/output
I0714 21:31:36.202772 31372 net.cpp:148] Top shape: 10 832 7 7 (407680)
I0714 21:31:36.202775 31376 net.cpp:425] inception_5a/output <- inception_5a/1x1
I0714 21:31:36.202780 31372 net.cpp:148] Top shape: 10 832 7 7 (407680)
I0714 21:31:36.202782 31376 net.cpp:425] inception_5a/output <- inception_5a/3x3
I0714 21:31:36.202785 31372 net.cpp:148] Top shape: 10 832 7 7 (407680)
I0714 21:31:36.202790 31376 net.cpp:425] inception_5a/output <- inception_5a/5x5
I0714 21:31:36.202792 31372 net.cpp:148] Top shape: 10 832 7 7 (407680)
I0714 21:31:36.202795 31376 net.cpp:425] inception_5a/output <- inception_5a/pool_proj
I0714 21:31:36.202797 31372 net.cpp:156] Memory required for data: 542778880
I0714 21:31:36.202812 31376 net.cpp:399] inception_5a/output -> inception_5a/output
I0714 21:31:36.202813 31372 layer_factory.hpp:77] Creating layer inception_5b/1x1
I0714 21:31:36.202837 31372 net.cpp:91] Creating Layer inception_5b/1x1
I0714 21:31:36.202844 31372 net.cpp:425] inception_5b/1x1 <- inception_5a/output_inception_5a/output_0_split_0
I0714 21:31:36.202854 31372 net.cpp:399] inception_5b/1x1 -> inception_5b/1x1
I0714 21:31:36.202956 31376 net.cpp:141] Setting up inception_5a/output
I0714 21:31:36.202970 31376 net.cpp:148] Top shape: 10 832 7 7 (407680)
I0714 21:31:36.202975 31376 net.cpp:156] Memory required for data: 536256000
I0714 21:31:36.202980 31376 layer_factory.hpp:77] Creating layer inception_5a/output_inception_5a/output_0_split
I0714 21:31:36.202993 31376 net.cpp:91] Creating Layer inception_5a/output_inception_5a/output_0_split
I0714 21:31:36.202999 31376 net.cpp:425] inception_5a/output_inception_5a/output_0_split <- inception_5a/output
I0714 21:31:36.203007 31376 net.cpp:399] inception_5a/output_inception_5a/output_0_split -> inception_5a/output_inception_5a/output_0_split_0
I0714 21:31:36.203018 31376 net.cpp:399] inception_5a/output_inception_5a/output_0_split -> inception_5a/output_inception_5a/output_0_split_1
I0714 21:31:36.203027 31376 net.cpp:399] inception_5a/output_inception_5a/output_0_split -> inception_5a/output_inception_5a/output_0_split_2
I0714 21:31:36.203039 31376 net.cpp:399] inception_5a/output_inception_5a/output_0_split -> inception_5a/output_inception_5a/output_0_split_3
I0714 21:31:36.203548 31376 net.cpp:141] Setting up inception_5a/output_inception_5a/output_0_split
I0714 21:31:36.203564 31376 net.cpp:148] Top shape: 10 832 7 7 (407680)
I0714 21:31:36.203572 31376 net.cpp:148] Top shape: 10 832 7 7 (407680)
I0714 21:31:36.203577 31376 net.cpp:148] Top shape: 10 832 7 7 (407680)
I0714 21:31:36.203583 31376 net.cpp:148] Top shape: 10 832 7 7 (407680)
I0714 21:31:36.203588 31376 net.cpp:156] Memory required for data: 542778880
I0714 21:31:36.203593 31376 layer_factory.hpp:77] Creating layer inception_5b/1x1
I0714 21:31:36.203631 31376 net.cpp:91] Creating Layer inception_5b/1x1
I0714 21:31:36.203639 31376 net.cpp:425] inception_5b/1x1 <- inception_5a/output_inception_5a/output_0_split_0
I0714 21:31:36.203649 31376 net.cpp:399] inception_5b/1x1 -> inception_5b/1x1
I0714 21:31:36.211561 31372 net.cpp:141] Setting up inception_5b/1x1
I0714 21:31:36.211591 31372 net.cpp:148] Top shape: 10 384 7 7 (188160)
I0714 21:31:36.211596 31372 net.cpp:156] Memory required for data: 543531520
I0714 21:31:36.211607 31372 layer_factory.hpp:77] Creating layer inception_5b/relu_1x1
I0714 21:31:36.211618 31372 net.cpp:91] Creating Layer inception_5b/relu_1x1
I0714 21:31:36.211625 31372 net.cpp:425] inception_5b/relu_1x1 <- inception_5b/1x1
I0714 21:31:36.211638 31372 net.cpp:386] inception_5b/relu_1x1 -> inception_5b/1x1 (in-place)
I0714 21:31:36.211946 31372 net.cpp:141] Setting up inception_5b/relu_1x1
I0714 21:31:36.211958 31372 net.cpp:148] Top shape: 10 384 7 7 (188160)
I0714 21:31:36.211963 31372 net.cpp:156] Memory required for data: 544284160
I0714 21:31:36.211969 31372 layer_factory.hpp:77] Creating layer inception_5b/3x3_reduce
I0714 21:31:36.211990 31372 net.cpp:91] Creating Layer inception_5b/3x3_reduce
I0714 21:31:36.211997 31372 net.cpp:425] inception_5b/3x3_reduce <- inception_5a/output_inception_5a/output_0_split_1
I0714 21:31:36.212012 31372 net.cpp:399] inception_5b/3x3_reduce -> inception_5b/3x3_reduce
I0714 21:31:36.216069 31376 net.cpp:141] Setting up inception_5b/1x1
I0714 21:31:36.216096 31376 net.cpp:148] Top shape: 10 384 7 7 (188160)
I0714 21:31:36.216102 31376 net.cpp:156] Memory required for data: 543531520
I0714 21:31:36.216114 31376 layer_factory.hpp:77] Creating layer inception_5b/relu_1x1
I0714 21:31:36.216125 31376 net.cpp:91] Creating Layer inception_5b/relu_1x1
I0714 21:31:36.216132 31376 net.cpp:425] inception_5b/relu_1x1 <- inception_5b/1x1
I0714 21:31:36.216143 31376 net.cpp:386] inception_5b/relu_1x1 -> inception_5b/1x1 (in-place)
I0714 21:31:36.216455 31376 net.cpp:141] Setting up inception_5b/relu_1x1
I0714 21:31:36.216469 31376 net.cpp:148] Top shape: 10 384 7 7 (188160)
I0714 21:31:36.216473 31376 net.cpp:156] Memory required for data: 544284160
I0714 21:31:36.216478 31376 layer_factory.hpp:77] Creating layer inception_5b/3x3_reduce
I0714 21:31:36.216497 31376 net.cpp:91] Creating Layer inception_5b/3x3_reduce
I0714 21:31:36.216507 31376 net.cpp:425] inception_5b/3x3_reduce <- inception_5a/output_inception_5a/output_0_split_1
I0714 21:31:36.216517 31376 net.cpp:399] inception_5b/3x3_reduce -> inception_5b/3x3_reduce
I0714 21:31:36.223004 31372 net.cpp:141] Setting up inception_5b/3x3_reduce
I0714 21:31:36.223042 31372 net.cpp:148] Top shape: 10 192 7 7 (94080)
I0714 21:31:36.223052 31372 net.cpp:156] Memory required for data: 544660480
I0714 21:31:36.223072 31372 layer_factory.hpp:77] Creating layer inception_5b/relu_3x3_reduce
I0714 21:31:36.223093 31372 net.cpp:91] Creating Layer inception_5b/relu_3x3_reduce
I0714 21:31:36.223109 31372 net.cpp:425] inception_5b/relu_3x3_reduce <- inception_5b/3x3_reduce
I0714 21:31:36.223125 31372 net.cpp:386] inception_5b/relu_3x3_reduce -> inception_5b/3x3_reduce (in-place)
I0714 21:31:36.223691 31372 net.cpp:141] Setting up inception_5b/relu_3x3_reduce
I0714 21:31:36.223714 31372 net.cpp:148] Top shape: 10 192 7 7 (94080)
I0714 21:31:36.223726 31372 net.cpp:156] Memory required for data: 545036800
I0714 21:31:36.223743 31372 layer_factory.hpp:77] Creating layer inception_5b/3x3
I0714 21:31:36.223785 31372 net.cpp:91] Creating Layer inception_5b/3x3
I0714 21:31:36.223800 31372 net.cpp:425] inception_5b/3x3 <- inception_5b/3x3_reduce
I0714 21:31:36.223822 31372 net.cpp:399] inception_5b/3x3 -> inception_5b/3x3
I0714 21:31:36.225337 31376 net.cpp:141] Setting up inception_5b/3x3_reduce
I0714 21:31:36.225361 31376 net.cpp:148] Top shape: 10 192 7 7 (94080)
I0714 21:31:36.225373 31376 net.cpp:156] Memory required for data: 544660480
I0714 21:31:36.225391 31376 layer_factory.hpp:77] Creating layer inception_5b/relu_3x3_reduce
I0714 21:31:36.225409 31376 net.cpp:91] Creating Layer inception_5b/relu_3x3_reduce
I0714 21:31:36.225422 31376 net.cpp:425] inception_5b/relu_3x3_reduce <- inception_5b/3x3_reduce
I0714 21:31:36.226563 31376 net.cpp:386] inception_5b/relu_3x3_reduce -> inception_5b/3x3_reduce (in-place)
I0714 21:31:36.227042 31376 net.cpp:141] Setting up inception_5b/relu_3x3_reduce
I0714 21:31:36.227069 31376 net.cpp:148] Top shape: 10 192 7 7 (94080)
I0714 21:31:36.227080 31376 net.cpp:156] Memory required for data: 545036800
I0714 21:31:36.227092 31376 layer_factory.hpp:77] Creating layer inception_5b/3x3
I0714 21:31:36.227167 31376 net.cpp:91] Creating Layer inception_5b/3x3
I0714 21:31:36.227185 31376 net.cpp:425] inception_5b/3x3 <- inception_5b/3x3_reduce
I0714 21:31:36.227205 31376 net.cpp:399] inception_5b/3x3 -> inception_5b/3x3
I0714 21:31:36.237282 31372 net.cpp:141] Setting up inception_5b/3x3
I0714 21:31:36.237316 31372 net.cpp:148] Top shape: 10 384 7 7 (188160)
I0714 21:31:36.237323 31372 net.cpp:156] Memory required for data: 545789440
I0714 21:31:36.237334 31372 layer_factory.hpp:77] Creating layer inception_5b/relu_3x3
I0714 21:31:36.237346 31372 net.cpp:91] Creating Layer inception_5b/relu_3x3
I0714 21:31:36.237354 31372 net.cpp:425] inception_5b/relu_3x3 <- inception_5b/3x3
I0714 21:31:36.237371 31372 net.cpp:386] inception_5b/relu_3x3 -> inception_5b/3x3 (in-place)
I0714 21:31:36.238426 31372 net.cpp:141] Setting up inception_5b/relu_3x3
I0714 21:31:36.238445 31372 net.cpp:148] Top shape: 10 384 7 7 (188160)
I0714 21:31:36.238451 31372 net.cpp:156] Memory required for data: 546542080
I0714 21:31:36.238456 31372 layer_factory.hpp:77] Creating layer inception_5b/5x5_reduce
I0714 21:31:36.238476 31372 net.cpp:91] Creating Layer inception_5b/5x5_reduce
I0714 21:31:36.238484 31372 net.cpp:425] inception_5b/5x5_reduce <- inception_5a/output_inception_5a/output_0_split_2
I0714 21:31:36.238498 31372 net.cpp:399] inception_5b/5x5_reduce -> inception_5b/5x5_reduce
I0714 21:31:36.241775 31376 net.cpp:141] Setting up inception_5b/3x3
I0714 21:31:36.241802 31376 net.cpp:148] Top shape: 10 384 7 7 (188160)
I0714 21:31:36.241814 31376 net.cpp:156] Memory required for data: 545789440
I0714 21:31:36.241834 31376 layer_factory.hpp:77] Creating layer inception_5b/relu_3x3
I0714 21:31:36.241881 31376 net.cpp:91] Creating Layer inception_5b/relu_3x3
I0714 21:31:36.241897 31376 net.cpp:425] inception_5b/relu_3x3 <- inception_5b/3x3
I0714 21:31:36.241921 31376 net.cpp:386] inception_5b/relu_3x3 -> inception_5b/3x3 (in-place)
I0714 21:31:36.243455 31376 net.cpp:141] Setting up inception_5b/relu_3x3
I0714 21:31:36.243479 31376 net.cpp:148] Top shape: 10 384 7 7 (188160)
I0714 21:31:36.243489 31376 net.cpp:156] Memory required for data: 546542080
I0714 21:31:36.243499 31376 layer_factory.hpp:77] Creating layer inception_5b/5x5_reduce
I0714 21:31:36.243527 31376 net.cpp:91] Creating Layer inception_5b/5x5_reduce
I0714 21:31:36.243543 31376 net.cpp:425] inception_5b/5x5_reduce <- inception_5a/output_inception_5a/output_0_split_2
I0714 21:31:36.243571 31376 net.cpp:399] inception_5b/5x5_reduce -> inception_5b/5x5_reduce
I0714 21:31:36.244918 31372 net.cpp:141] Setting up inception_5b/5x5_reduce
I0714 21:31:36.244938 31372 net.cpp:148] Top shape: 10 48 7 7 (23520)
I0714 21:31:36.244945 31372 net.cpp:156] Memory required for data: 546636160
I0714 21:31:36.244956 31372 layer_factory.hpp:77] Creating layer inception_5b/relu_5x5_reduce
I0714 21:31:36.244968 31372 net.cpp:91] Creating Layer inception_5b/relu_5x5_reduce
I0714 21:31:36.244976 31372 net.cpp:425] inception_5b/relu_5x5_reduce <- inception_5b/5x5_reduce
I0714 21:31:36.244983 31372 net.cpp:386] inception_5b/relu_5x5_reduce -> inception_5b/5x5_reduce (in-place)
I0714 21:31:36.245285 31372 net.cpp:141] Setting up inception_5b/relu_5x5_reduce
I0714 21:31:36.245298 31372 net.cpp:148] Top shape: 10 48 7 7 (23520)
I0714 21:31:36.245303 31372 net.cpp:156] Memory required for data: 546730240
I0714 21:31:36.245309 31372 layer_factory.hpp:77] Creating layer inception_5b/5x5
I0714 21:31:36.245326 31372 net.cpp:91] Creating Layer inception_5b/5x5
I0714 21:31:36.245332 31372 net.cpp:425] inception_5b/5x5 <- inception_5b/5x5_reduce
I0714 21:31:36.245347 31372 net.cpp:399] inception_5b/5x5 -> inception_5b/5x5
I0714 21:31:36.248807 31376 net.cpp:141] Setting up inception_5b/5x5_reduce
I0714 21:31:36.248832 31376 net.cpp:148] Top shape: 10 48 7 7 (23520)
I0714 21:31:36.248843 31376 net.cpp:156] Memory required for data: 546636160
I0714 21:31:36.248862 31376 layer_factory.hpp:77] Creating layer inception_5b/relu_5x5_reduce
I0714 21:31:36.248917 31376 net.cpp:91] Creating Layer inception_5b/relu_5x5_reduce
I0714 21:31:36.248935 31376 net.cpp:425] inception_5b/relu_5x5_reduce <- inception_5b/5x5_reduce
I0714 21:31:36.248960 31376 net.cpp:386] inception_5b/relu_5x5_reduce -> inception_5b/5x5_reduce (in-place)
I0714 21:31:36.249490 31376 net.cpp:141] Setting up inception_5b/relu_5x5_reduce
I0714 21:31:36.249512 31376 net.cpp:148] Top shape: 10 48 7 7 (23520)
I0714 21:31:36.249522 31376 net.cpp:156] Memory required for data: 546730240
I0714 21:31:36.249533 31376 layer_factory.hpp:77] Creating layer inception_5b/5x5
I0714 21:31:36.249563 31376 net.cpp:91] Creating Layer inception_5b/5x5
I0714 21:31:36.249579 31376 net.cpp:425] inception_5b/5x5 <- inception_5b/5x5_reduce
I0714 21:31:36.249604 31376 net.cpp:399] inception_5b/5x5 -> inception_5b/5x5
I0714 21:31:36.252599 31372 net.cpp:141] Setting up inception_5b/5x5
I0714 21:31:36.252621 31372 net.cpp:148] Top shape: 10 128 7 7 (62720)
I0714 21:31:36.252627 31372 net.cpp:156] Memory required for data: 546981120
I0714 21:31:36.252638 31372 layer_factory.hpp:77] Creating layer inception_5b/relu_5x5
I0714 21:31:36.252647 31372 net.cpp:91] Creating Layer inception_5b/relu_5x5
I0714 21:31:36.252655 31372 net.cpp:425] inception_5b/relu_5x5 <- inception_5b/5x5
I0714 21:31:36.252665 31372 net.cpp:386] inception_5b/relu_5x5 -> inception_5b/5x5 (in-place)
I0714 21:31:36.252972 31372 net.cpp:141] Setting up inception_5b/relu_5x5
I0714 21:31:36.252985 31372 net.cpp:148] Top shape: 10 128 7 7 (62720)
I0714 21:31:36.252990 31372 net.cpp:156] Memory required for data: 547232000
I0714 21:31:36.252995 31372 layer_factory.hpp:77] Creating layer inception_5b/pool
I0714 21:31:36.253010 31372 net.cpp:91] Creating Layer inception_5b/pool
I0714 21:31:36.253018 31372 net.cpp:425] inception_5b/pool <- inception_5a/output_inception_5a/output_0_split_3
I0714 21:31:36.253027 31372 net.cpp:399] inception_5b/pool -> inception_5b/pool
I0714 21:31:36.253190 31372 net.cpp:141] Setting up inception_5b/pool
I0714 21:31:36.253202 31372 net.cpp:148] Top shape: 10 832 7 7 (407680)
I0714 21:31:36.253207 31372 net.cpp:156] Memory required for data: 548862720
I0714 21:31:36.253213 31372 layer_factory.hpp:77] Creating layer inception_5b/pool_proj
I0714 21:31:36.253231 31372 net.cpp:91] Creating Layer inception_5b/pool_proj
I0714 21:31:36.253237 31372 net.cpp:425] inception_5b/pool_proj <- inception_5b/pool
I0714 21:31:36.253249 31372 net.cpp:399] inception_5b/pool_proj -> inception_5b/pool_proj
I0714 21:31:36.260254 31372 net.cpp:141] Setting up inception_5b/pool_proj
I0714 21:31:36.260277 31372 net.cpp:148] Top shape: 10 128 7 7 (62720)
I0714 21:31:36.260282 31372 net.cpp:156] Memory required for data: 549113600
I0714 21:31:36.260293 31372 layer_factory.hpp:77] Creating layer inception_5b/relu_pool_proj
I0714 21:31:36.260305 31372 net.cpp:91] Creating Layer inception_5b/relu_pool_proj
I0714 21:31:36.260313 31372 net.cpp:425] inception_5b/relu_pool_proj <- inception_5b/pool_proj
I0714 21:31:36.260320 31372 net.cpp:386] inception_5b/relu_pool_proj -> inception_5b/pool_proj (in-place)
I0714 21:31:36.261363 31376 net.cpp:141] Setting up inception_5b/5x5
I0714 21:31:36.261379 31372 net.cpp:141] Setting up inception_5b/relu_pool_proj
I0714 21:31:36.261389 31376 net.cpp:148] Top shape: 10 128 7 7 (62720)
I0714 21:31:36.261394 31372 net.cpp:148] Top shape: 10 128 7 7 (62720)
I0714 21:31:36.261401 31372 net.cpp:156] Memory required for data: 549364480
I0714 21:31:36.261400 31376 net.cpp:156] Memory required for data: 546981120
I0714 21:31:36.261411 31372 layer_factory.hpp:77] Creating layer inception_5b/output
I0714 21:31:36.261422 31376 layer_factory.hpp:77] Creating layer inception_5b/relu_5x5
I0714 21:31:36.261425 31372 net.cpp:91] Creating Layer inception_5b/output
I0714 21:31:36.261441 31372 net.cpp:425] inception_5b/output <- inception_5b/1x1
I0714 21:31:36.261445 31376 net.cpp:91] Creating Layer inception_5b/relu_5x5
I0714 21:31:36.261450 31372 net.cpp:425] inception_5b/output <- inception_5b/3x3
I0714 21:31:36.261457 31372 net.cpp:425] inception_5b/output <- inception_5b/5x5
I0714 21:31:36.261459 31376 net.cpp:425] inception_5b/relu_5x5 <- inception_5b/5x5
I0714 21:31:36.261463 31372 net.cpp:425] inception_5b/output <- inception_5b/pool_proj
I0714 21:31:36.261479 31372 net.cpp:399] inception_5b/output -> inception_5b/output
I0714 21:31:36.261481 31376 net.cpp:386] inception_5b/relu_5x5 -> inception_5b/5x5 (in-place)
I0714 21:31:36.261620 31372 net.cpp:141] Setting up inception_5b/output
I0714 21:31:36.261636 31372 net.cpp:148] Top shape: 10 1024 7 7 (501760)
I0714 21:31:36.261641 31372 net.cpp:156] Memory required for data: 551371520
I0714 21:31:36.261647 31372 layer_factory.hpp:77] Creating layer pool5/7x7_s1
I0714 21:31:36.261656 31372 net.cpp:91] Creating Layer pool5/7x7_s1
I0714 21:31:36.261662 31372 net.cpp:425] pool5/7x7_s1 <- inception_5b/output
I0714 21:31:36.261670 31372 net.cpp:399] pool5/7x7_s1 -> pool5/7x7_s1
I0714 21:31:36.262177 31376 net.cpp:141] Setting up inception_5b/relu_5x5
I0714 21:31:36.262199 31376 net.cpp:148] Top shape: 10 128 7 7 (62720)
I0714 21:31:36.262210 31376 net.cpp:156] Memory required for data: 547232000
I0714 21:31:36.262223 31376 layer_factory.hpp:77] Creating layer inception_5b/pool
I0714 21:31:36.262245 31376 net.cpp:91] Creating Layer inception_5b/pool
I0714 21:31:36.262249 31372 net.cpp:141] Setting up pool5/7x7_s1
I0714 21:31:36.262260 31376 net.cpp:425] inception_5b/pool <- inception_5a/output_inception_5a/output_0_split_3
I0714 21:31:36.262264 31372 net.cpp:148] Top shape: 10 1024 1 1 (10240)
I0714 21:31:36.262270 31372 net.cpp:156] Memory required for data: 551412480
I0714 21:31:36.262276 31372 layer_factory.hpp:77] Creating layer pool5/drop_7x7_s1
I0714 21:31:36.262279 31376 net.cpp:399] inception_5b/pool -> inception_5b/pool
I0714 21:31:36.262293 31372 net.cpp:91] Creating Layer pool5/drop_7x7_s1
I0714 21:31:36.262300 31372 net.cpp:425] pool5/drop_7x7_s1 <- pool5/7x7_s1
I0714 21:31:36.262310 31372 net.cpp:386] pool5/drop_7x7_s1 -> pool5/7x7_s1 (in-place)
I0714 21:31:36.262480 31372 net.cpp:141] Setting up pool5/drop_7x7_s1
I0714 21:31:36.262493 31372 net.cpp:148] Top shape: 10 1024 1 1 (10240)
I0714 21:31:36.262498 31372 net.cpp:156] Memory required for data: 551453440
I0714 21:31:36.262503 31372 layer_factory.hpp:77] Creating layer loss3/classifier
I0714 21:31:36.262523 31372 net.cpp:91] Creating Layer loss3/classifier
I0714 21:31:36.262529 31372 net.cpp:425] loss3/classifier <- pool5/7x7_s1
I0714 21:31:36.262538 31372 net.cpp:399] loss3/classifier -> loss3/classifier
I0714 21:31:36.262588 31376 net.cpp:141] Setting up inception_5b/pool
I0714 21:31:36.262609 31376 net.cpp:148] Top shape: 10 832 7 7 (407680)
I0714 21:31:36.262619 31376 net.cpp:156] Memory required for data: 548862720
I0714 21:31:36.262630 31376 layer_factory.hpp:77] Creating layer inception_5b/pool_proj
I0714 21:31:36.262681 31376 net.cpp:91] Creating Layer inception_5b/pool_proj
I0714 21:31:36.262712 31376 net.cpp:425] inception_5b/pool_proj <- inception_5b/pool
I0714 21:31:36.264526 31376 net.cpp:399] inception_5b/pool_proj -> inception_5b/pool_proj
I0714 21:31:36.272343 31376 net.cpp:141] Setting up inception_5b/pool_proj
I0714 21:31:36.272377 31376 net.cpp:148] Top shape: 10 128 7 7 (62720)
I0714 21:31:36.272387 31376 net.cpp:156] Memory required for data: 549113600
I0714 21:31:36.272406 31376 layer_factory.hpp:77] Creating layer inception_5b/relu_pool_proj
I0714 21:31:36.272423 31376 net.cpp:91] Creating Layer inception_5b/relu_pool_proj
I0714 21:31:36.272435 31376 net.cpp:425] inception_5b/relu_pool_proj <- inception_5b/pool_proj
I0714 21:31:36.272457 31376 net.cpp:386] inception_5b/relu_pool_proj -> inception_5b/pool_proj (in-place)
I0714 21:31:36.273573 31376 net.cpp:141] Setting up inception_5b/relu_pool_proj
I0714 21:31:36.273597 31376 net.cpp:148] Top shape: 10 128 7 7 (62720)
I0714 21:31:36.273607 31376 net.cpp:156] Memory required for data: 549364480
I0714 21:31:36.273617 31376 layer_factory.hpp:77] Creating layer inception_5b/output
I0714 21:31:36.273670 31376 net.cpp:91] Creating Layer inception_5b/output
I0714 21:31:36.273686 31376 net.cpp:425] inception_5b/output <- inception_5b/1x1
I0714 21:31:36.273708 31376 net.cpp:425] inception_5b/output <- inception_5b/3x3
I0714 21:31:36.273725 31376 net.cpp:425] inception_5b/output <- inception_5b/5x5
I0714 21:31:36.273737 31376 net.cpp:425] inception_5b/output <- inception_5b/pool_proj
I0714 21:31:36.273753 31376 net.cpp:399] inception_5b/output -> inception_5b/output
I0714 21:31:36.273898 31376 net.cpp:141] Setting up inception_5b/output
I0714 21:31:36.273919 31376 net.cpp:148] Top shape: 10 1024 7 7 (501760)
I0714 21:31:36.273929 31376 net.cpp:156] Memory required for data: 551371520
I0714 21:31:36.273941 31376 layer_factory.hpp:77] Creating layer pool5/7x7_s1
I0714 21:31:36.273964 31376 net.cpp:91] Creating Layer pool5/7x7_s1
I0714 21:31:36.273978 31376 net.cpp:425] pool5/7x7_s1 <- inception_5b/output
I0714 21:31:36.273995 31376 net.cpp:399] pool5/7x7_s1 -> pool5/7x7_s1
I0714 21:31:36.274639 31376 net.cpp:141] Setting up pool5/7x7_s1
I0714 21:31:36.274662 31376 net.cpp:148] Top shape: 10 1024 1 1 (10240)
I0714 21:31:36.274672 31376 net.cpp:156] Memory required for data: 551412480
I0714 21:31:36.274683 31376 layer_factory.hpp:77] Creating layer pool5/drop_7x7_s1
I0714 21:31:36.274713 31376 net.cpp:91] Creating Layer pool5/drop_7x7_s1
I0714 21:31:36.274725 31376 net.cpp:425] pool5/drop_7x7_s1 <- pool5/7x7_s1
I0714 21:31:36.274739 31376 net.cpp:386] pool5/drop_7x7_s1 -> pool5/7x7_s1 (in-place)
I0714 21:31:36.274869 31376 net.cpp:141] Setting up pool5/drop_7x7_s1
I0714 21:31:36.274888 31376 net.cpp:148] Top shape: 10 1024 1 1 (10240)
I0714 21:31:36.274899 31376 net.cpp:156] Memory required for data: 551453440
I0714 21:31:36.274909 31376 layer_factory.hpp:77] Creating layer loss3/classifier
I0714 21:31:36.274929 31376 net.cpp:91] Creating Layer loss3/classifier
I0714 21:31:36.274940 31376 net.cpp:425] loss3/classifier <- pool5/7x7_s1
I0714 21:31:36.274966 31376 net.cpp:399] loss3/classifier -> loss3/classifier
I0714 21:31:36.279187 31372 net.cpp:141] Setting up loss3/classifier
I0714 21:31:36.279217 31372 net.cpp:148] Top shape: 10 1000 (10000)
I0714 21:31:36.279222 31372 net.cpp:156] Memory required for data: 551493440
I0714 21:31:36.279233 31372 layer_factory.hpp:77] Creating layer prob
I0714 21:31:36.279248 31372 net.cpp:91] Creating Layer prob
I0714 21:31:36.279255 31372 net.cpp:425] prob <- loss3/classifier
I0714 21:31:36.279265 31372 net.cpp:399] prob -> prob
I0714 21:31:36.280817 31372 net.cpp:141] Setting up prob
I0714 21:31:36.280843 31372 net.cpp:148] Top shape: 10 1000 (10000)
I0714 21:31:36.280849 31372 net.cpp:156] Memory required for data: 551533440
I0714 21:31:36.280855 31372 net.cpp:219] prob does not need backward computation.
I0714 21:31:36.280861 31372 net.cpp:219] loss3/classifier does not need backward computation.
I0714 21:31:36.280866 31372 net.cpp:219] pool5/drop_7x7_s1 does not need backward computation.
I0714 21:31:36.280871 31372 net.cpp:219] pool5/7x7_s1 does not need backward computation.
…
