…
2016-07-30 11:31:07.623 STDERR [INFO]   bottom: "fc8"
2016-07-30 11:31:07.623 STDERR [INFO]   top: "prob"
2016-07-30 11:31:07.623 STDERR [INFO] }
2016-07-30 11:31:07.623 STDERR [INFO] I0730 11:31:07.565453 13823 layer_factory.hpp:77] Creating layer data
2016-07-30 11:31:07.623 STDERR [INFO] I0730 11:31:07.565477 13823 net.cpp:91] Creating Layer data
2016-07-30 11:31:07.623 STDERR [INFO] I0730 11:31:07.565485 13823 net.cpp:399] data -> data
2016-07-30 11:31:08.109 STDERR [INFO] I0730 11:31:08.109701 13823 net.cpp:141] Setting up data
2016-07-30 11:31:08.110 STDERR [INFO] I0730 11:31:08.109793 13823 net.cpp:148] Top shape: 10 3 227 227 (1545870)
2016-07-30 11:31:08.110 STDERR [INFO] I0730 11:31:08.109800 13823 net.cpp:156] Memory required for data: 6183480
2016-07-30 11:31:08.111 STDERR [INFO] I0730 11:31:08.109817 13823 layer_factory.hpp:77] Creating layer conv1
2016-07-30 11:31:08.111 STDERR [INFO] I0730 11:31:08.109843 13823 net.cpp:91] Creating Layer conv1
2016-07-30 11:31:08.111 STDERR [INFO] I0730 11:31:08.109849 13823 net.cpp:425] conv1 <- data
2016-07-30 11:31:08.111 STDERR [INFO] I0730 11:31:08.109861 13823 net.cpp:399] conv1 -> conv1
2016-07-30 11:31:08.332 STDERR [INFO] I0730 11:31:08.332715 13823 net.cpp:141] Setting up conv1
2016-07-30 11:31:08.333 STDERR [INFO] I0730 11:31:08.332758 13823 net.cpp:148] Top shape: 10 96 55 55 (2904000)
2016-07-30 11:31:08.333 STDERR [INFO] I0730 11:31:08.332764 13823 net.cpp:156] Memory required for data: 17799480
2016-07-30 11:31:08.334 STDERR [INFO] I0730 11:31:08.332788 13823 layer_factory.hpp:77] Creating layer relu1
2016-07-30 11:31:08.334 STDERR [INFO] I0730 11:31:08.332804 13823 net.cpp:91] Creating Layer relu1
2016-07-30 11:31:08.334 STDERR [INFO] I0730 11:31:08.332809 13823 net.cpp:425] relu1 <- conv1
2016-07-30 11:31:08.334 STDERR [INFO] I0730 11:31:08.332816 13823 net.cpp:386] relu1 -> conv1 (in-place)
2016-07-30 11:31:08.334 STDERR [INFO] I0730 11:31:08.333482 13823 net.cpp:141] Setting up relu1
2016-07-30 11:31:08.334 STDERR [INFO] I0730 11:31:08.333494 13823 net.cpp:148] Top shape: 10 96 55 55 (2904000)
2016-07-30 11:31:08.334 STDERR [INFO] I0730 11:31:08.333498 13823 net.cpp:156] Memory required for data: 29415480
2016-07-30 11:31:08.335 STDERR [INFO] I0730 11:31:08.333503 13823 layer_factory.hpp:77] Creating layer pool1
2016-07-30 11:31:08.335 STDERR [INFO] I0730 11:31:08.333513 13823 net.cpp:91] Creating Layer pool1
2016-07-30 11:31:08.335 STDERR [INFO] I0730 11:31:08.333518 13823 net.cpp:425] pool1 <- conv1
2016-07-30 11:31:08.335 STDERR [INFO] I0730 11:31:08.333528 13823 net.cpp:399] pool1 -> pool1
2016-07-30 11:31:08.336 STDERR [INFO] I0730 11:31:08.333600 13823 net.cpp:141] Setting up pool1
2016-07-30 11:31:08.336 STDERR [INFO] I0730 11:31:08.333608 13823 net.cpp:148] Top shape: 10 96 27 27 (699840)
2016-07-30 11:31:08.336 STDERR [INFO] I0730 11:31:08.333612 13823 net.cpp:156] Memory required for data: 32214840
2016-07-30 11:31:08.336 STDERR [INFO] I0730 11:31:08.333617 13823 layer_factory.hpp:77] Creating layer norm1
2016-07-30 11:31:08.336 STDERR [INFO] I0730 11:31:08.333634 13823 net.cpp:91] Creating Layer norm1
2016-07-30 11:31:08.336 STDERR [INFO] I0730 11:31:08.333639 13823 net.cpp:425] norm1 <- pool1
2016-07-30 11:31:08.337 STDERR [INFO] I0730 11:31:08.333647 13823 net.cpp:399] norm1 -> norm1
2016-07-30 11:31:08.337 STDERR [INFO] I0730 11:31:08.334336 13823 net.cpp:141] Setting up norm1
2016-07-30 11:31:08.337 STDERR [INFO] I0730 11:31:08.334347 13823 net.cpp:148] Top shape: 10 96 27 27 (699840)
2016-07-30 11:31:08.337 STDERR [INFO] I0730 11:31:08.334352 13823 net.cpp:156] Memory required for data: 35014200
2016-07-30 11:31:08.337 STDERR [INFO] I0730 11:31:08.334357 13823 layer_factory.hpp:77] Creating layer conv2
2016-07-30 11:31:08.338 STDERR [INFO] I0730 11:31:08.334369 13823 net.cpp:91] Creating Layer conv2
2016-07-30 11:31:08.338 STDERR [INFO] I0730 11:31:08.334374 13823 net.cpp:425] conv2 <- norm1
2016-07-30 11:31:08.338 STDERR [INFO] I0730 11:31:08.334381 13823 net.cpp:399] conv2 -> conv2
2016-07-30 11:31:08.339 STDERR [INFO] I0730 11:31:08.339416 13823 net.cpp:141] Setting up conv2
2016-07-30 11:31:08.339 STDERR [INFO] I0730 11:31:08.339434 13823 net.cpp:148] Top shape: 10 256 27 27 (1866240)
2016-07-30 11:31:08.339 STDERR [INFO] I0730 11:31:08.339439 13823 net.cpp:156] Memory required for data: 42479160
2016-07-30 11:31:08.339 STDERR [INFO] I0730 11:31:08.339450 13823 layer_factory.hpp:77] Creating layer relu2
2016-07-30 11:31:08.340 STDERR [INFO] I0730 11:31:08.339462 13823 net.cpp:91] Creating Layer relu2
2016-07-30 11:31:08.340 STDERR [INFO] I0730 11:31:08.339468 13823 net.cpp:425] relu2 <- conv2
2016-07-30 11:31:08.340 STDERR [INFO] I0730 11:31:08.339474 13823 net.cpp:386] relu2 -> conv2 (in-place)
2016-07-30 11:31:08.340 STDERR [INFO] I0730 11:31:08.340131 13823 net.cpp:141] Setting up relu2
2016-07-30 11:31:08.340 STDERR [INFO] I0730 11:31:08.340142 13823 net.cpp:148] Top shape: 10 256 27 27 (1866240)
2016-07-30 11:31:08.340 STDERR [INFO] I0730 11:31:08.340147 13823 net.cpp:156] Memory required for data: 49944120
2016-07-30 11:31:08.340 STDERR [INFO] I0730 11:31:08.340152 13823 layer_factory.hpp:77] Creating layer pool2
2016-07-30 11:31:08.341 STDERR [INFO] I0730 11:31:08.340159 13823 net.cpp:91] Creating Layer pool2
2016-07-30 11:31:08.341 STDERR [INFO] I0730 11:31:08.340163 13823 net.cpp:425] pool2 <- conv2
2016-07-30 11:31:08.341 STDERR [INFO] I0730 11:31:08.340172 13823 net.cpp:399] pool2 -> pool2
2016-07-30 11:31:08.341 STDERR [INFO] I0730 11:31:08.340222 13823 net.cpp:141] Setting up pool2
2016-07-30 11:31:08.341 STDERR [INFO] I0730 11:31:08.340234 13823 net.cpp:148] Top shape: 10 256 13 13 (432640)
2016-07-30 11:31:08.341 STDERR [INFO] I0730 11:31:08.340237 13823 net.cpp:156] Memory required for data: 51674680
2016-07-30 11:31:08.341 STDERR [INFO] I0730 11:31:08.340241 13823 layer_factory.hpp:77] Creating layer norm2
2016-07-30 11:31:08.341 STDERR [INFO] I0730 11:31:08.340250 13823 net.cpp:91] Creating Layer norm2
2016-07-30 11:31:08.341 STDERR [INFO] I0730 11:31:08.340253 13823 net.cpp:425] norm2 <- pool2
2016-07-30 11:31:08.341 STDERR [INFO] I0730 11:31:08.340262 13823 net.cpp:399] norm2 -> norm2
2016-07-30 11:31:08.342 STDERR [INFO] I0730 11:31:08.340497 13823 net.cpp:141] Setting up norm2
2016-07-30 11:31:08.342 STDERR [INFO] I0730 11:31:08.340507 13823 net.cpp:148] Top shape: 10 256 13 13 (432640)
2016-07-30 11:31:08.342 STDERR [INFO] I0730 11:31:08.340517 13823 net.cpp:156] Memory required for data: 53405240
2016-07-30 11:31:08.342 STDERR [INFO] I0730 11:31:08.340520 13823 layer_factory.hpp:77] Creating layer conv3
2016-07-30 11:31:08.342 STDERR [INFO] I0730 11:31:08.340529 13823 net.cpp:91] Creating Layer conv3
2016-07-30 11:31:08.342 STDERR [INFO] I0730 11:31:08.340534 13823 net.cpp:425] conv3 <- norm2
2016-07-30 11:31:08.342 STDERR [INFO] I0730 11:31:08.340543 13823 net.cpp:399] conv3 -> conv3
2016-07-30 11:31:08.344 STDERR [INFO] I0730 11:31:08.344853 13823 net.cpp:141] Setting up conv3
2016-07-30 11:31:08.345 STDERR [INFO] I0730 11:31:08.344872 13823 net.cpp:148] Top shape: 10 384 13 13 (648960)
2016-07-30 11:31:08.345 STDERR [INFO] I0730 11:31:08.344877 13823 net.cpp:156] Memory required for data: 56001080
2016-07-30 11:31:08.345 STDERR [INFO] I0730 11:31:08.344888 13823 layer_factory.hpp:77] Creating layer relu3
2016-07-30 11:31:08.345 STDERR [INFO] I0730 11:31:08.344900 13823 net.cpp:91] Creating Layer relu3
2016-07-30 11:31:08.345 STDERR [INFO] I0730 11:31:08.344905 13823 net.cpp:425] relu3 <- conv3
2016-07-30 11:31:08.345 STDERR [INFO] I0730 11:31:08.344913 13823 net.cpp:386] relu3 -> conv3 (in-place)
2016-07-30 11:31:08.346 STDERR [INFO] I0730 11:31:08.345559 13823 net.cpp:141] Setting up relu3
2016-07-30 11:31:08.346 STDERR [INFO] I0730 11:31:08.345571 13823 net.cpp:148] Top shape: 10 384 13 13 (648960)
2016-07-30 11:31:08.346 STDERR [INFO] I0730 11:31:08.345574 13823 net.cpp:156] Memory required for data: 58596920
2016-07-30 11:31:08.346 STDERR [INFO] I0730 11:31:08.345579 13823 layer_factory.hpp:77] Creating layer conv4
2016-07-30 11:31:08.346 STDERR [INFO] I0730 11:31:08.345593 13823 net.cpp:91] Creating Layer conv4
2016-07-30 11:31:08.346 STDERR [INFO] I0730 11:31:08.345597 13823 net.cpp:425] conv4 <- conv3
2016-07-30 11:31:08.346 STDERR [INFO] I0730 11:31:08.345604 13823 net.cpp:399] conv4 -> conv4
2016-07-30 11:31:08.350 STDERR [INFO] I0730 11:31:08.350478 13823 net.cpp:141] Setting up conv4
2016-07-30 11:31:08.350 STDERR [INFO] I0730 11:31:08.350497 13823 net.cpp:148] Top shape: 10 384 13 13 (648960)
2016-07-30 11:31:08.350 STDERR [INFO] I0730 11:31:08.350502 13823 net.cpp:156] Memory required for data: 61192760
2016-07-30 11:31:08.351 STDERR [INFO] I0730 11:31:08.350509 13823 layer_factory.hpp:77] Creating layer relu4
2016-07-30 11:31:08.351 STDERR [INFO] I0730 11:31:08.350517 13823 net.cpp:91] Creating Layer relu4
2016-07-30 11:31:08.351 STDERR [INFO] I0730 11:31:08.350522 13823 net.cpp:425] relu4 <- conv4
2016-07-30 11:31:08.351 STDERR [INFO] I0730 11:31:08.350528 13823 net.cpp:386] relu4 -> conv4 (in-place)
2016-07-30 11:31:08.351 STDERR [INFO] I0730 11:31:08.351228 13823 net.cpp:141] Setting up relu4
2016-07-30 11:31:08.351 STDERR [INFO] I0730 11:31:08.351241 13823 net.cpp:148] Top shape: 10 384 13 13 (648960)
2016-07-30 11:31:08.351 STDERR [INFO] I0730 11:31:08.351245 13823 net.cpp:156] Memory required for data: 63788600
2016-07-30 11:31:08.351 STDERR [INFO] I0730 11:31:08.351250 13823 layer_factory.hpp:77] Creating layer conv5
2016-07-30 11:31:08.351 STDERR [INFO] I0730 11:31:08.351263 13823 net.cpp:91] Creating Layer conv5
2016-07-30 11:31:08.352 STDERR [INFO] I0730 11:31:08.351267 13823 net.cpp:425] conv5 <- conv4
2016-07-30 11:31:08.352 STDERR [INFO] I0730 11:31:08.351274 13823 net.cpp:399] conv5 -> conv5
2016-07-30 11:31:08.356 STDERR [INFO] I0730 11:31:08.356174 13823 net.cpp:141] Setting up conv5
2016-07-30 11:31:08.356 STDERR [INFO] I0730 11:31:08.356192 13823 net.cpp:148] Top shape: 10 256 13 13 (432640)
2016-07-30 11:31:08.356 STDERR [INFO] I0730 11:31:08.356197 13823 net.cpp:156] Memory required for data: 65519160
2016-07-30 11:31:08.356 STDERR [INFO] I0730 11:31:08.356209 13823 layer_factory.hpp:77] Creating layer relu5
2016-07-30 11:31:08.356 STDERR [INFO] I0730 11:31:08.356216 13823 net.cpp:91] Creating Layer relu5
2016-07-30 11:31:08.356 STDERR [INFO] I0730 11:31:08.356221 13823 net.cpp:425] relu5 <- conv5
2016-07-30 11:31:08.356 STDERR [INFO] I0730 11:31:08.356227 13823 net.cpp:386] relu5 -> conv5 (in-place)
2016-07-30 11:31:08.357 STDERR [INFO] I0730 11:31:08.356885 13823 net.cpp:141] Setting up relu5
2016-07-30 11:31:08.357 STDERR [INFO] I0730 11:31:08.356897 13823 net.cpp:148] Top shape: 10 256 13 13 (432640)
2016-07-30 11:31:08.357 STDERR [INFO] I0730 11:31:08.356901 13823 net.cpp:156] Memory required for data: 67249720
2016-07-30 11:31:08.357 STDERR [INFO] I0730 11:31:08.356906 13823 layer_factory.hpp:77] Creating layer pool5
2016-07-30 11:31:08.357 STDERR [INFO] I0730 11:31:08.356915 13823 net.cpp:91] Creating Layer pool5
2016-07-30 11:31:08.357 STDERR [INFO] I0730 11:31:08.356920 13823 net.cpp:425] pool5 <- conv5
2016-07-30 11:31:08.357 STDERR [INFO] I0730 11:31:08.356928 13823 net.cpp:399] pool5 -> pool5
2016-07-30 11:31:08.357 STDERR [INFO] I0730 11:31:08.356983 13823 net.cpp:141] Setting up pool5
2016-07-30 11:31:08.357 STDERR [INFO] I0730 11:31:08.356992 13823 net.cpp:148] Top shape: 10 256 6 6 (92160)
2016-07-30 11:31:08.358 STDERR [INFO] I0730 11:31:08.356995 13823 net.cpp:156] Memory required for data: 67618360
2016-07-30 11:31:08.358 STDERR [INFO] I0730 11:31:08.356999 13823 layer_factory.hpp:77] Creating layer fc6
2016-07-30 11:31:08.358 STDERR [INFO] I0730 11:31:08.357014 13823 net.cpp:91] Creating Layer fc6
2016-07-30 11:31:08.358 STDERR [INFO] I0730 11:31:08.357019 13823 net.cpp:425] fc6 <- pool5
…
2016-07-30 11:31:08.442 STDERR [INFO] I0730 11:31:08.425588 13812 net.cpp:91] Creating Layer input
2016-07-30 11:31:08.442 STDERR [INFO] I0730 11:31:08.425596 13812 net.cpp:399] input -> frames_fc7
2016-07-30 11:31:08.442 STDERR [INFO] I0730 11:31:08.425613 13812 net.cpp:399] input -> cont_sentence
2016-07-30 11:31:08.442 STDERR [INFO] I0730 11:31:08.425623 13812 net.cpp:399] input -> input_sentence
2016-07-30 11:31:08.442 STDERR [INFO] I0730 11:31:08.425633 13812 net.cpp:399] input -> stage_indicator
2016-07-30 11:31:08.442 STDERR [INFO] I0730 11:31:08.425775 13812 net.cpp:141] Setting up input
2016-07-30 11:31:08.442 STDERR [INFO] I0730 11:31:08.425786 13812 net.cpp:148] Top shape: 1 4096 (4096)
2016-07-30 11:31:08.443 STDERR [INFO] I0730 11:31:08.425791 13812 net.cpp:148] Top shape: 1 1 (1)
2016-07-30 11:31:08.443 STDERR [INFO] I0730 11:31:08.425796 13812 net.cpp:148] Top shape: 1 1 (1)
2016-07-30 11:31:08.443 STDERR [INFO] I0730 11:31:08.425802 13812 net.cpp:148] Top shape: 1 1 (1)
2016-07-30 11:31:08.443 STDERR [INFO] I0730 11:31:08.425806 13812 net.cpp:156] Memory required for data: 16396
2016-07-30 11:31:08.443 STDERR [INFO] I0730 11:31:08.425811 13812 layer_factory.hpp:77] Creating layer cont_sentence_input_1_split
2016-07-30 11:31:08.443 STDERR [INFO] I0730 11:31:08.425819 13812 net.cpp:91] Creating Layer cont_sentence_input_1_split
2016-07-30 11:31:08.443 STDERR [INFO] I0730 11:31:08.425824 13812 net.cpp:425] cont_sentence_input_1_split <- cont_sentence
2016-07-30 11:31:08.443 STDERR [INFO] I0730 11:31:08.425846 13812 net.cpp:399] cont_sentence_input_1_split -> cont_sentence_input_1_split_0
2016-07-30 11:31:08.443 STDERR [INFO] I0730 11:31:08.425855 13812 net.cpp:399] cont_sentence_input_1_split -> cont_sentence_input_1_split_1
2016-07-30 11:31:08.443 STDERR [INFO] I0730 11:31:08.425900 13812 net.cpp:141] Setting up cont_sentence_input_1_split
2016-07-30 11:31:08.443 STDERR [INFO] I0730 11:31:08.425910 13812 net.cpp:148] Top shape: 1 1 (1)
2016-07-30 11:31:08.443 STDERR [INFO] I0730 11:31:08.425915 13812 net.cpp:148] Top shape: 1 1 (1)
2016-07-30 11:31:08.443 STDERR [INFO] I0730 11:31:08.425920 13812 net.cpp:156] Memory required for data: 16404
2016-07-30 11:31:08.444 STDERR [INFO] I0730 11:31:08.425923 13812 layer_factory.hpp:77] Creating layer embed_encoder
2016-07-30 11:31:08.444 STDERR [INFO] I0730 11:31:08.425935 13812 net.cpp:91] Creating Layer embed_encoder
2016-07-30 11:31:08.444 STDERR [INFO] I0730 11:31:08.425938 13812 net.cpp:425] embed_encoder <- frames_fc7
2016-07-30 11:31:08.444 STDERR [INFO] I0730 11:31:08.425946 13812 net.cpp:399] embed_encoder -> embedded_in_frames
2016-07-30 11:31:08.448 STDERR [INFO] I0730 11:31:08.448166 13812 net.cpp:141] Setting up embed_encoder
2016-07-30 11:31:08.448 STDERR [INFO] I0730 11:31:08.448216 13812 net.cpp:148] Top shape: 1 500 (500)
2016-07-30 11:31:08.448 STDERR [INFO] I0730 11:31:08.448222 13812 net.cpp:156] Memory required for data: 18404
2016-07-30 11:31:08.449 STDERR [INFO] I0730 11:31:08.448240 13812 layer_factory.hpp:77] Creating layer reshape_frames
2016-07-30 11:31:08.449 STDERR [INFO] I0730 11:31:08.448272 13812 net.cpp:91] Creating Layer reshape_frames
2016-07-30 11:31:08.449 STDERR [INFO] I0730 11:31:08.448281 13812 net.cpp:425] reshape_frames <- embedded_in_frames
2016-07-30 11:31:08.449 STDERR [INFO] I0730 11:31:08.448289 13812 net.cpp:399] reshape_frames -> embedded_input_frames
2016-07-30 11:31:08.449 STDERR [INFO] I0730 11:31:08.448345 13812 net.cpp:141] Setting up reshape_frames
2016-07-30 11:31:08.449 STDERR [INFO] I0730 11:31:08.448354 13812 net.cpp:148] Top shape: 1 1 500 (500)
2016-07-30 11:31:08.449 STDERR [INFO] I0730 11:31:08.448359 13812 net.cpp:156] Memory required for data: 20404
2016-07-30 11:31:08.449 STDERR [INFO] I0730 11:31:08.448362 13812 layer_factory.hpp:77] Creating layer reshape_stage_indicator
2016-07-30 11:31:08.449 STDERR [INFO] I0730 11:31:08.448371 13812 net.cpp:91] Creating Layer reshape_stage_indicator
2016-07-30 11:31:08.449 STDERR [INFO] I0730 11:31:08.448376 13812 net.cpp:425] reshape_stage_indicator <- stage_indicator
2016-07-30 11:31:08.449 STDERR [INFO] I0730 11:31:08.448385 13812 net.cpp:399] reshape_stage_indicator -> reshaped_stage_indicator
2016-07-30 11:31:08.449 STDERR [INFO] I0730 11:31:08.448418 13812 net.cpp:141] Setting up reshape_stage_indicator
2016-07-30 11:31:08.450 STDERR [INFO] I0730 11:31:08.448427 13812 net.cpp:148] Top shape: 1 1 1 (1)
2016-07-30 11:31:08.450 STDERR [INFO] I0730 11:31:08.448431 13812 net.cpp:156] Memory required for data: 20408
2016-07-30 11:31:08.450 STDERR [INFO] I0730 11:31:08.448436 13812 layer_factory.hpp:77] Creating layer embedding
2016-07-30 11:31:08.450 STDERR [INFO] I0730 11:31:08.448446 13812 net.cpp:91] Creating Layer embedding
2016-07-30 11:31:08.450 STDERR [INFO] I0730 11:31:08.448451 13812 net.cpp:425] embedding <- input_sentence
2016-07-30 11:31:08.450 STDERR [INFO] I0730 11:31:08.448467 13812 net.cpp:399] embedding -> embedded_input_sentence
2016-07-30 11:31:08.491 STDERR [INFO] I0730 11:31:08.490855 13823 net.cpp:141] Setting up fc6
2016-07-30 11:31:08.491 STDERR [INFO] I0730 11:31:08.490902 13823 net.cpp:148] Top shape: 10 4096 (40960)
2016-07-30 11:31:08.491 STDERR [INFO] I0730 11:31:08.490907 13823 net.cpp:156] Memory required for data: 67782200
2016-07-30 11:31:08.491 STDERR [INFO] I0730 11:31:08.490922 13823 layer_factory.hpp:77] Creating layer relu6
2016-07-30 11:31:08.491 STDERR [INFO] I0730 11:31:08.490941 13823 net.cpp:91] Creating Layer relu6
2016-07-30 11:31:08.491 STDERR [INFO] I0730 11:31:08.490947 13823 net.cpp:425] relu6 <- fc6
2016-07-30 11:31:08.491 STDERR [INFO] I0730 11:31:08.490957 13823 net.cpp:386] relu6 -> fc6 (in-place)
2016-07-30 11:31:08.492 STDERR [INFO] I0730 11:31:08.491291 13823 net.cpp:141] Setting up relu6
2016-07-30 11:31:08.492 STDERR [INFO] I0730 11:31:08.491302 13823 net.cpp:148] Top shape: 10 4096 (40960)
2016-07-30 11:31:08.492 STDERR [INFO] I0730 11:31:08.491307 13823 net.cpp:156] Memory required for data: 67946040
2016-07-30 11:31:08.492 STDERR [INFO] I0730 11:31:08.491312 13823 layer_factory.hpp:77] Creating layer drop6
2016-07-30 11:31:08.492 STDERR [INFO] I0730 11:31:08.491320 13823 net.cpp:91] Creating Layer drop6
2016-07-30 11:31:08.492 STDERR [INFO] I0730 11:31:08.491325 13823 net.cpp:425] drop6 <- fc6
2016-07-30 11:31:08.492 STDERR [INFO] I0730 11:31:08.491333 13823 net.cpp:386] drop6 -> fc6 (in-place)
2016-07-30 11:31:08.492 STDERR [INFO] I0730 11:31:08.491392 13823 net.cpp:141] Setting up drop6
2016-07-30 11:31:08.492 STDERR [INFO] I0730 11:31:08.491401 13823 net.cpp:148] Top shape: 10 4096 (40960)
2016-07-30 11:31:08.492 STDERR [INFO] I0730 11:31:08.491405 13823 net.cpp:156] Memory required for data: 68109880
2016-07-30 11:31:08.492 STDERR [INFO] I0730 11:31:08.491410 13823 layer_factory.hpp:77] Creating layer fc7
2016-07-30 11:31:08.492 STDERR [INFO] I0730 11:31:08.491421 13823 net.cpp:91] Creating Layer fc7
2016-07-30 11:31:08.492 STDERR [INFO] I0730 11:31:08.491426 13823 net.cpp:425] fc7 <- fc6
2016-07-30 11:31:08.492 STDERR [INFO] I0730 11:31:08.491432 13823 net.cpp:399] fc7 -> fc7
2016-07-30 11:31:08.539 STDERR [INFO] I0730 11:31:08.539741 13823 net.cpp:141] Setting up fc7
2016-07-30 11:31:08.540 STDERR [INFO] I0730 11:31:08.539798 13823 net.cpp:148] Top shape: 10 4096 (40960)
2016-07-30 11:31:08.540 STDERR [INFO] I0730 11:31:08.539804 13823 net.cpp:156] Memory required for data: 68273720
2016-07-30 11:31:08.540 STDERR [INFO] I0730 11:31:08.539818 13823 layer_factory.hpp:77] Creating layer relu7
2016-07-30 11:31:08.540 STDERR [INFO] I0730 11:31:08.539835 13823 net.cpp:91] Creating Layer relu7
2016-07-30 11:31:08.540 STDERR [INFO] I0730 11:31:08.539841 13823 net.cpp:425] relu7 <- fc7
2016-07-30 11:31:08.540 STDERR [INFO] I0730 11:31:08.539850 13823 net.cpp:386] relu7 -> fc7 (in-place)
2016-07-30 11:31:08.541 STDERR [INFO] I0730 11:31:08.541347 13823 net.cpp:141] Setting up relu7
2016-07-30 11:31:08.541 STDERR [INFO] I0730 11:31:08.541363 13823 net.cpp:148] Top shape: 10 4096 (40960)
2016-07-30 11:31:08.541 STDERR [INFO] I0730 11:31:08.541368 13823 net.cpp:156] Memory required for data: 68437560
2016-07-30 11:31:08.541 STDERR [INFO] I0730 11:31:08.541373 13823 layer_factory.hpp:77] Creating layer drop7
2016-07-30 11:31:08.541 STDERR [INFO] I0730 11:31:08.541386 13823 net.cpp:91] Creating Layer drop7
2016-07-30 11:31:08.541 STDERR [INFO] I0730 11:31:08.541391 13823 net.cpp:425] drop7 <- fc7
2016-07-30 11:31:08.541 STDERR [INFO] I0730 11:31:08.541399 13823 net.cpp:386] drop7 -> fc7 (in-place)
2016-07-30 11:31:08.542 STDERR [INFO] I0730 11:31:08.541436 13823 net.cpp:141] Setting up drop7
2016-07-30 11:31:08.542 STDERR [INFO] I0730 11:31:08.541445 13823 net.cpp:148] Top shape: 10 4096 (40960)
2016-07-30 11:31:08.542 STDERR [INFO] I0730 11:31:08.541448 13823 net.cpp:156] Memory required for data: 68601400
2016-07-30 11:31:08.542 STDERR [INFO] I0730 11:31:08.541453 13823 layer_factory.hpp:77] Creating layer fc8
2016-07-30 11:31:08.542 STDERR [INFO] I0730 11:31:08.541466 13823 net.cpp:91] Creating Layer fc8
2016-07-30 11:31:08.542 STDERR [INFO] I0730 11:31:08.541471 13823 net.cpp:425] fc8 <- fc7
2016-07-30 11:31:08.542 STDERR [INFO] I0730 11:31:08.541477 13823 net.cpp:399] fc8 -> fc8
2016-07-30 11:31:08.553 STDERR [INFO] I0730 11:31:08.553761 13823 net.cpp:141] Setting up fc8
2016-07-30 11:31:08.554 STDERR [INFO] I0730 11:31:08.553815 13823 net.cpp:148] Top shape: 10 1000 (10000)
2016-07-30 11:31:08.554 STDERR [INFO] I0730 11:31:08.553820 13823 net.cpp:156] Memory required for data: 68641400
2016-07-30 11:31:08.554 STDERR [INFO] I0730 11:31:08.553833 13823 layer_factory.hpp:77] Creating layer prob
2016-07-30 11:31:08.554 STDERR [INFO] I0730 11:31:08.553846 13823 net.cpp:91] Creating Layer prob
2016-07-30 11:31:08.554 STDERR [INFO] I0730 11:31:08.553853 13823 net.cpp:425] prob <- fc8
2016-07-30 11:31:08.554 STDERR [INFO] I0730 11:31:08.553861 13823 net.cpp:399] prob -> prob
2016-07-30 11:31:08.555 STDERR [INFO] I0730 11:31:08.554260 13823 net.cpp:141] Setting up prob
2016-07-30 11:31:08.555 STDERR [INFO] I0730 11:31:08.554270 13823 net.cpp:148] Top shape: 10 1000 (10000)
2016-07-30 11:31:08.555 STDERR [INFO] I0730 11:31:08.554275 13823 net.cpp:156] Memory required for data: 68681400
2016-07-30 11:31:08.555 STDERR [INFO] I0730 11:31:08.554280 13823 net.cpp:219] prob does not need backward computation.
2016-07-30 11:31:08.555 STDERR [INFO] I0730 11:31:08.554285 13823 net.cpp:219] fc8 does not need backward computation.
2016-07-30 11:31:08.555 STDERR [INFO] I0730 11:31:08.554291 13823 net.cpp:219] drop7 does not need backward computation.
…
2016-07-30 11:31:08.678 STDERR [INFO] }
2016-07-30 11:31:08.678 STDERR [INFO] I0730 11:31:08.665982 13812 layer_factory.hpp:77] Creating layer lstm1_
2016-07-30 11:31:08.679 STDERR [INFO] I0730 11:31:08.666002 13812 net.cpp:91] Creating Layer lstm1_
2016-07-30 11:31:08.679 STDERR [INFO] I0730 11:31:08.666007 13812 net.cpp:399] lstm1_ -> x
2016-07-30 11:31:08.679 STDERR [INFO] I0730 11:31:08.666018 13812 net.cpp:399] lstm1_ -> cont
2016-07-30 11:31:08.679 STDERR [INFO] I0730 11:31:08.666077 13812 net.cpp:141] Setting up lstm1_
2016-07-30 11:31:08.679 STDERR [INFO] I0730 11:31:08.666087 13812 net.cpp:148] Top shape: 1 1 500 (500)
2016-07-30 11:31:08.679 STDERR [INFO] I0730 11:31:08.666092 13812 net.cpp:148] Top shape: 1 1 (1)
2016-07-30 11:31:08.679 STDERR [INFO] I0730 11:31:08.666096 13812 net.cpp:156] Memory required for data: 2004
2016-07-30 11:31:08.679 STDERR [INFO] I0730 11:31:08.666101 13812 layer_factory.hpp:77] Creating layer lstm1_
2016-07-30 11:31:08.679 STDERR [INFO] I0730 11:31:08.666112 13812 net.cpp:91] Creating Layer lstm1_
2016-07-30 11:31:08.679 STDERR [INFO] I0730 11:31:08.666117 13812 net.cpp:399] lstm1_ -> c_0
2016-07-30 11:31:08.679 STDERR [INFO] I0730 11:31:08.666126 13812 net.cpp:399] lstm1_ -> h_0
2016-07-30 11:31:08.679 STDERR [INFO] I0730 11:31:08.666177 13812 net.cpp:141] Setting up lstm1_
2016-07-30 11:31:08.680 STDERR [INFO] I0730 11:31:08.666187 13812 net.cpp:148] Top shape: 1 1 1000 (1000)
2016-07-30 11:31:08.680 STDERR [INFO] I0730 11:31:08.666191 13812 net.cpp:148] Top shape: 1 1 1000 (1000)
2016-07-30 11:31:08.680 STDERR [INFO] I0730 11:31:08.666195 13812 net.cpp:156] Memory required for data: 10004
2016-07-30 11:31:08.680 STDERR [INFO] I0730 11:31:08.666199 13812 layer_factory.hpp:77] Creating layer lstm1_cont_slice
2016-07-30 11:31:08.680 STDERR [INFO] I0730 11:31:08.666208 13812 net.cpp:91] Creating Layer lstm1_cont_slice
2016-07-30 11:31:08.680 STDERR [INFO] I0730 11:31:08.666211 13812 net.cpp:425] lstm1_cont_slice <- cont
2016-07-30 11:31:08.680 STDERR [INFO] I0730 11:31:08.666220 13812 net.cpp:399] lstm1_cont_slice -> cont_1
2016-07-30 11:31:08.680 STDERR [INFO] I0730 11:31:08.666254 13812 net.cpp:141] Setting up lstm1_cont_slice
2016-07-30 11:31:08.680 STDERR [INFO] I0730 11:31:08.666262 13812 net.cpp:148] Top shape: 1 1 (1)
2016-07-30 11:31:08.680 STDERR [INFO] I0730 11:31:08.666266 13812 net.cpp:156] Memory required for data: 10008
2016-07-30 11:31:08.680 STDERR [INFO] I0730 11:31:08.666270 13812 layer_factory.hpp:77] Creating layer cont_1_lstm1_cont_slice_0_split
2016-07-30 11:31:08.680 STDERR [INFO] I0730 11:31:08.666280 13812 net.cpp:91] Creating Layer cont_1_lstm1_cont_slice_0_split
2016-07-30 11:31:08.680 STDERR [INFO] I0730 11:31:08.666285 13812 net.cpp:425] cont_1_lstm1_cont_slice_0_split <- cont_1
2016-07-30 11:31:08.680 STDERR [INFO] I0730 11:31:08.666291 13812 net.cpp:399] cont_1_lstm1_cont_slice_0_split -> cont_1_lstm1_cont_slice_0_split_0
2016-07-30 11:31:08.681 STDERR [INFO] I0730 11:31:08.666301 13812 net.cpp:399] cont_1_lstm1_cont_slice_0_split -> cont_1_lstm1_cont_slice_0_split_1
2016-07-30 11:31:08.681 STDERR [INFO] I0730 11:31:08.666347 13812 net.cpp:141] Setting up cont_1_lstm1_cont_slice_0_split
2016-07-30 11:31:08.681 STDERR [INFO] I0730 11:31:08.666354 13812 net.cpp:148] Top shape: 1 1 (1)
2016-07-30 11:31:08.681 STDERR [INFO] I0730 11:31:08.666359 13812 net.cpp:148] Top shape: 1 1 (1)
2016-07-30 11:31:08.681 STDERR [INFO] I0730 11:31:08.666363 13812 net.cpp:156] Memory required for data: 10016
2016-07-30 11:31:08.681 STDERR [INFO] I0730 11:31:08.666368 13812 layer_factory.hpp:77] Creating layer lstm1_x_transform
2016-07-30 11:31:08.681 STDERR [INFO] I0730 11:31:08.666376 13812 net.cpp:91] Creating Layer lstm1_x_transform
2016-07-30 11:31:08.681 STDERR [INFO] I0730 11:31:08.666381 13812 net.cpp:425] lstm1_x_transform <- x
2016-07-30 11:31:08.681 STDERR [INFO] I0730 11:31:08.666390 13812 net.cpp:399] lstm1_x_transform -> W_xc_x
2016-07-30 11:31:08.686 STDERR [INFO] I0730 11:31:08.686514 13812 net.cpp:141] Setting up lstm1_x_transform
2016-07-30 11:31:08.687 STDERR [INFO] I0730 11:31:08.686574 13812 net.cpp:148] Top shape: 1 1 4000 (4000)
2016-07-30 11:31:08.687 STDERR [INFO] I0730 11:31:08.686581 13812 net.cpp:156] Memory required for data: 26016
2016-07-30 11:31:08.687 STDERR [INFO] I0730 11:31:08.686602 13812 layer_factory.hpp:77] Creating layer lstm1_W_xc_x_slice
2016-07-30 11:31:08.687 STDERR [INFO] I0730 11:31:08.686616 13812 net.cpp:91] Creating Layer lstm1_W_xc_x_slice
2016-07-30 11:31:08.687 STDERR [INFO] I0730 11:31:08.686622 13812 net.cpp:425] lstm1_W_xc_x_slice <- W_xc_x
2016-07-30 11:31:08.687 STDERR [INFO] I0730 11:31:08.686630 13812 net.cpp:399] lstm1_W_xc_x_slice -> W_xc_x_1
2016-07-30 11:31:08.687 STDERR [INFO] I0730 11:31:08.686673 13812 net.cpp:141] Setting up lstm1_W_xc_x_slice
2016-07-30 11:31:08.687 STDERR [INFO] I0730 11:31:08.686682 13812 net.cpp:148] Top shape: 1 1 4000 (4000)
2016-07-30 11:31:08.687 STDERR [INFO] I0730 11:31:08.686696 13812 net.cpp:156] Memory required for data: 42016
2016-07-30 11:31:08.687 STDERR [INFO] I0730 11:31:08.686700 13812 layer_factory.hpp:77] Creating layer lstm1_h_conted_0
2016-07-30 11:31:08.687 STDERR [INFO] I0730 11:31:08.686714 13812 net.cpp:91] Creating Layer lstm1_h_conted_0
2016-07-30 11:31:08.687 STDERR [INFO] I0730 11:31:08.686719 13812 net.cpp:425] lstm1_h_conted_0 <- h_0
2016-07-30 11:31:08.688 STDERR [INFO] I0730 11:31:08.686725 13812 net.cpp:425] lstm1_h_conted_0 <- cont_1_lstm1_cont_slice_0_split_0
2016-07-30 11:31:08.688 STDERR [INFO] I0730 11:31:08.686731 13812 net.cpp:399] lstm1_h_conted_0 -> h_conted_0
2016-07-30 11:31:08.688 STDERR [INFO] I0730 11:31:08.686828 13812 net.cpp:141] Setting up lstm1_h_conted_0
2016-07-30 11:31:08.688 STDERR [INFO] I0730 11:31:08.686837 13812 net.cpp:148] Top shape: 1 1 1000 (1000)
2016-07-30 11:31:08.688 STDERR [INFO] I0730 11:31:08.686841 13812 net.cpp:156] Memory required for data: 46016
2016-07-30 11:31:08.688 STDERR [INFO] I0730 11:31:08.686846 13812 layer_factory.hpp:77] Creating layer lstm1_transform_1
2016-07-30 11:31:08.688 STDERR [INFO] I0730 11:31:08.686857 13812 net.cpp:91] Creating Layer lstm1_transform_1
2016-07-30 11:31:08.688 STDERR [INFO] I0730 11:31:08.686862 13812 net.cpp:425] lstm1_transform_1 <- h_conted_0
2016-07-30 11:31:08.688 STDERR [INFO] I0730 11:31:08.686869 13812 net.cpp:399] lstm1_transform_1 -> W_hc_h_0
2016-07-30 11:31:08.725 STDERR [INFO] I0730 11:31:08.725473 13812 net.cpp:141] Setting up lstm1_transform_1
2016-07-30 11:31:08.726 STDERR [INFO] I0730 11:31:08.725533 13812 net.cpp:148] Top shape: 1 1 4000 (4000)
2016-07-30 11:31:08.726 STDERR [INFO] I0730 11:31:08.725539 13812 net.cpp:156] Memory required for data: 62016
2016-07-30 11:31:08.726 STDERR [INFO] I0730 11:31:08.725556 13812 layer_factory.hpp:77] Creating layer lstm1_gate_input_1
2016-07-30 11:31:08.726 STDERR [INFO] I0730 11:31:08.725575 13812 net.cpp:91] Creating Layer lstm1_gate_input_1
2016-07-30 11:31:08.726 STDERR [INFO] I0730 11:31:08.725582 13812 net.cpp:425] lstm1_gate_input_1 <- W_hc_h_0
2016-07-30 11:31:08.726 STDERR [INFO] I0730 11:31:08.725590 13812 net.cpp:425] lstm1_gate_input_1 <- W_xc_x_1
2016-07-30 11:31:08.726 STDERR [INFO] I0730 11:31:08.725597 13812 net.cpp:399] lstm1_gate_input_1 -> gate_input_1
2016-07-30 11:31:08.726 STDERR [INFO] I0730 11:31:08.725651 13812 net.cpp:141] Setting up lstm1_gate_input_1
2016-07-30 11:31:08.727 STDERR [INFO] I0730 11:31:08.725661 13812 net.cpp:148] Top shape: 1 1 4000 (4000)
2016-07-30 11:31:08.727 STDERR [INFO] I0730 11:31:08.725663 13812 net.cpp:156] Memory required for data: 78016
2016-07-30 11:31:08.727 STDERR [INFO] I0730 11:31:08.725668 13812 layer_factory.hpp:77] Creating layer lstm1_unit_1
2016-07-30 11:31:08.727 STDERR [INFO] I0730 11:31:08.725675 13812 net.cpp:91] Creating Layer lstm1_unit_1
2016-07-30 11:31:08.727 STDERR [INFO] I0730 11:31:08.725679 13812 net.cpp:425] lstm1_unit_1 <- c_0
2016-07-30 11:31:08.727 STDERR [INFO] I0730 11:31:08.725685 13812 net.cpp:425] lstm1_unit_1 <- gate_input_1
2016-07-30 11:31:08.727 STDERR [INFO] I0730 11:31:08.725689 13812 net.cpp:425] lstm1_unit_1 <- cont_1_lstm1_cont_slice_0_split_1
2016-07-30 11:31:08.727 STDERR [INFO] I0730 11:31:08.725697 13812 net.cpp:399] lstm1_unit_1 -> c_1
2016-07-30 11:31:08.727 STDERR [INFO] I0730 11:31:08.725704 13812 net.cpp:399] lstm1_unit_1 -> h_1
2016-07-30 11:31:08.727 STDERR [INFO] I0730 11:31:08.725764 13812 net.cpp:141] Setting up lstm1_unit_1
2016-07-30 11:31:08.727 STDERR [INFO] I0730 11:31:08.725772 13812 net.cpp:148] Top shape: 1 1 1000 (1000)
2016-07-30 11:31:08.727 STDERR [INFO] I0730 11:31:08.725778 13812 net.cpp:148] Top shape: 1 1 1000 (1000)
2016-07-30 11:31:08.728 STDERR [INFO] I0730 11:31:08.725781 13812 net.cpp:156] Memory required for data: 86016
2016-07-30 11:31:08.728 STDERR [INFO] I0730 11:31:08.725786 13812 layer_factory.hpp:77] Creating layer lstm1_
2016-07-30 11:31:08.728 STDERR [INFO] I0730 11:31:08.725796 13812 net.cpp:91] Creating Layer lstm1_
2016-07-30 11:31:08.728 STDERR [INFO] I0730 11:31:08.725800 13812 net.cpp:425] lstm1_ <- c_1
2016-07-30 11:31:08.728 STDERR [INFO] I0730 11:31:08.725807 13812 net.cpp:399] lstm1_ -> c_T
2016-07-30 11:31:08.728 STDERR [INFO] I0730 11:31:08.725836 13812 net.cpp:141] Setting up lstm1_
2016-07-30 11:31:08.728 STDERR [INFO] I0730 11:31:08.725843 13812 net.cpp:148] Top shape: 1 1 1000 (1000)
2016-07-30 11:31:08.728 STDERR [INFO] I0730 11:31:08.725847 13812 net.cpp:156] Memory required for data: 90016
2016-07-30 11:31:08.728 STDERR [INFO] I0730 11:31:08.725852 13812 layer_factory.hpp:77] Creating layer lstm1_h_concat
2016-07-30 11:31:08.728 STDERR [INFO] I0730 11:31:08.725872 13812 net.cpp:91] Creating Layer lstm1_h_concat
2016-07-30 11:31:08.728 STDERR [INFO] I0730 11:31:08.725875 13812 net.cpp:425] lstm1_h_concat <- h_1
2016-07-30 11:31:08.728 STDERR [INFO] I0730 11:31:08.725884 13812 net.cpp:399] lstm1_h_concat -> h
2016-07-30 11:31:08.728 STDERR [INFO] I0730 11:31:08.725919 13812 net.cpp:141] Setting up lstm1_h_concat
2016-07-30 11:31:08.728 STDERR [INFO] I0730 11:31:08.725926 13812 net.cpp:148] Top shape: 1 1 1000 (1000)
2016-07-30 11:31:08.728 STDERR [INFO] I0730 11:31:08.725930 13812 net.cpp:156] Memory required for data: 94016
2016-07-30 11:31:08.729 STDERR [INFO] I0730 11:31:08.725934 13812 layer_factory.hpp:77] Creating layer h_pseudoloss
2016-07-30 11:31:08.729 STDERR [INFO] I0730 11:31:08.725942 13812 net.cpp:91] Creating Layer h_pseudoloss
2016-07-30 11:31:08.729 STDERR [INFO] I0730 11:31:08.725946 13812 net.cpp:425] h_pseudoloss <- h
…
2016-07-30 11:31:08.743 STDERR [INFO] }
2016-07-30 11:31:08.743 STDERR [INFO] I0730 11:31:08.726784 13812 layer_factory.hpp:77] Creating layer lstm2_
2016-07-30 11:31:08.743 STDERR [INFO] I0730 11:31:08.726795 13812 net.cpp:91] Creating Layer lstm2_
2016-07-30 11:31:08.743 STDERR [INFO] I0730 11:31:08.726800 13812 net.cpp:399] lstm2_ -> x
2016-07-30 11:31:08.743 STDERR [INFO] I0730 11:31:08.726810 13812 net.cpp:399] lstm2_ -> cont
2016-07-30 11:31:08.743 STDERR [INFO] I0730 11:31:08.726864 13812 net.cpp:141] Setting up lstm2_
2016-07-30 11:31:08.743 STDERR [INFO] I0730 11:31:08.726874 13812 net.cpp:148] Top shape: 1 1 1501 (1501)
2016-07-30 11:31:08.743 STDERR [INFO] I0730 11:31:08.726879 13812 net.cpp:148] Top shape: 1 1 (1)
2016-07-30 11:31:08.743 STDERR [INFO] I0730 11:31:08.726883 13812 net.cpp:156] Memory required for data: 6008
2016-07-30 11:31:08.743 STDERR [INFO] I0730 11:31:08.726887 13812 layer_factory.hpp:77] Creating layer lstm2_
2016-07-30 11:31:08.744 STDERR [INFO] I0730 11:31:08.726896 13812 net.cpp:91] Creating Layer lstm2_
2016-07-30 11:31:08.744 STDERR [INFO] I0730 11:31:08.726903 13812 net.cpp:399] lstm2_ -> c_0
2016-07-30 11:31:08.744 STDERR [INFO] I0730 11:31:08.726912 13812 net.cpp:399] lstm2_ -> h_0
2016-07-30 11:31:08.744 STDERR [INFO] I0730 11:31:08.726958 13812 net.cpp:141] Setting up lstm2_
2016-07-30 11:31:08.744 STDERR [INFO] I0730 11:31:08.726966 13812 net.cpp:148] Top shape: 1 1 1000 (1000)
2016-07-30 11:31:08.744 STDERR [INFO] I0730 11:31:08.726971 13812 net.cpp:148] Top shape: 1 1 1000 (1000)
2016-07-30 11:31:08.744 STDERR [INFO] I0730 11:31:08.726975 13812 net.cpp:156] Memory required for data: 14008
2016-07-30 11:31:08.744 STDERR [INFO] I0730 11:31:08.726979 13812 layer_factory.hpp:77] Creating layer lstm2_cont_slice
2016-07-30 11:31:08.744 STDERR [INFO] I0730 11:31:08.726987 13812 net.cpp:91] Creating Layer lstm2_cont_slice
2016-07-30 11:31:08.744 STDERR [INFO] I0730 11:31:08.726991 13812 net.cpp:425] lstm2_cont_slice <- cont
2016-07-30 11:31:08.745 STDERR [INFO] I0730 11:31:08.726997 13812 net.cpp:399] lstm2_cont_slice -> cont_1
2016-07-30 11:31:08.745 STDERR [INFO] I0730 11:31:08.727033 13812 net.cpp:141] Setting up lstm2_cont_slice
2016-07-30 11:31:08.745 STDERR [INFO] I0730 11:31:08.727042 13812 net.cpp:148] Top shape: 1 1 (1)
2016-07-30 11:31:08.745 STDERR [INFO] I0730 11:31:08.727048 13812 net.cpp:156] Memory required for data: 14012
2016-07-30 11:31:08.745 STDERR [INFO] I0730 11:31:08.727052 13812 layer_factory.hpp:77] Creating layer cont_1_lstm2_cont_slice_0_split
2016-07-30 11:31:08.745 STDERR [INFO] I0730 11:31:08.727058 13812 net.cpp:91] Creating Layer cont_1_lstm2_cont_slice_0_split
2016-07-30 11:31:08.745 STDERR [INFO] I0730 11:31:08.727062 13812 net.cpp:425] cont_1_lstm2_cont_slice_0_split <- cont_1
2016-07-30 11:31:08.745 STDERR [INFO] I0730 11:31:08.727068 13812 net.cpp:399] cont_1_lstm2_cont_slice_0_split -> cont_1_lstm2_cont_slice_0_split_0
2016-07-30 11:31:08.745 STDERR [INFO] I0730 11:31:08.727075 13812 net.cpp:399] cont_1_lstm2_cont_slice_0_split -> cont_1_lstm2_cont_slice_0_split_1
2016-07-30 11:31:08.745 STDERR [INFO] I0730 11:31:08.727121 13812 net.cpp:141] Setting up cont_1_lstm2_cont_slice_0_split
2016-07-30 11:31:08.745 STDERR [INFO] I0730 11:31:08.727129 13812 net.cpp:148] Top shape: 1 1 (1)
2016-07-30 11:31:08.745 STDERR [INFO] I0730 11:31:08.727134 13812 net.cpp:148] Top shape: 1 1 (1)
2016-07-30 11:31:08.745 STDERR [INFO] I0730 11:31:08.727138 13812 net.cpp:156] Memory required for data: 14020
2016-07-30 11:31:08.746 STDERR [INFO] I0730 11:31:08.727143 13812 layer_factory.hpp:77] Creating layer lstm2_x_transform
2016-07-30 11:31:08.746 STDERR [INFO] I0730 11:31:08.727154 13812 net.cpp:91] Creating Layer lstm2_x_transform
2016-07-30 11:31:08.746 STDERR [INFO] I0730 11:31:08.727159 13812 net.cpp:425] lstm2_x_transform <- x
…
2016-07-30 11:31:08.784 STDERR [INFO] W0730 11:31:08.783860 13823 upgrade_proto.cpp:48] Note that future Caffe releases will only support transform_param messages for transformation fields.
2016-07-30 11:31:08.784 STDERR [INFO] I0730 11:31:08.783864 13823 upgrade_proto.cpp:52] Attempting to upgrade input file specified using deprecated V1LayerParameter: /tmp/cvld661814163931621830/bvlc_reference_caffenet.caffemodel
2016-07-30 11:31:08.793 STDERR [INFO] I0730 11:31:08.793526 13812 net.cpp:141] Setting up lstm2_x_transform
2016-07-30 11:31:08.794 STDERR [INFO] I0730 11:31:08.793587 13812 net.cpp:148] Top shape: 1 1 4000 (4000)
2016-07-30 11:31:08.794 STDERR [INFO] I0730 11:31:08.793594 13812 net.cpp:156] Memory required for data: 30020
2016-07-30 11:31:08.794 STDERR [INFO] I0730 11:31:08.793623 13812 layer_factory.hpp:77] Creating layer lstm2_W_xc_x_slice
2016-07-30 11:31:08.794 STDERR [INFO] I0730 11:31:08.793640 13812 net.cpp:91] Creating Layer lstm2_W_xc_x_slice
2016-07-30 11:31:08.794 STDERR [INFO] I0730 11:31:08.793648 13812 net.cpp:425] lstm2_W_xc_x_slice <- W_xc_x
2016-07-30 11:31:08.794 STDERR [INFO] I0730 11:31:08.793663 13812 net.cpp:399] lstm2_W_xc_x_slice -> W_xc_x_1
2016-07-30 11:31:08.794 STDERR [INFO] I0730 11:31:08.793712 13812 net.cpp:141] Setting up lstm2_W_xc_x_slice
2016-07-30 11:31:08.794 STDERR [INFO] I0730 11:31:08.793725 13812 net.cpp:148] Top shape: 1 1 4000 (4000)
2016-07-30 11:31:08.795 STDERR [INFO] I0730 11:31:08.793728 13812 net.cpp:156] Memory required for data: 46020
2016-07-30 11:31:08.795 STDERR [INFO] I0730 11:31:08.793733 13812 layer_factory.hpp:77] Creating layer lstm2_h_conted_0
2016-07-30 11:31:08.795 STDERR [INFO] I0730 11:31:08.793745 13812 net.cpp:91] Creating Layer lstm2_h_conted_0
2016-07-30 11:31:08.795 STDERR [INFO] I0730 11:31:08.793751 13812 net.cpp:425] lstm2_h_conted_0 <- h_0
2016-07-30 11:31:08.795 STDERR [INFO] I0730 11:31:08.793757 13812 net.cpp:425] lstm2_h_conted_0 <- cont_1_lstm2_cont_slice_0_split_0
2016-07-30 11:31:08.795 STDERR [INFO] I0730 11:31:08.793767 13812 net.cpp:399] lstm2_h_conted_0 -> h_conted_0
2016-07-30 11:31:08.795 STDERR [INFO] I0730 11:31:08.793872 13812 net.cpp:141] Setting up lstm2_h_conted_0
2016-07-30 11:31:08.795 STDERR [INFO] I0730 11:31:08.793882 13812 net.cpp:148] Top shape: 1 1 1000 (1000)
2016-07-30 11:31:08.795 STDERR [INFO] I0730 11:31:08.793887 13812 net.cpp:156] Memory required for data: 50020
2016-07-30 11:31:08.795 STDERR [INFO] I0730 11:31:08.793892 13812 layer_factory.hpp:77] Creating layer lstm2_transform_1
2016-07-30 11:31:08.795 STDERR [INFO] I0730 11:31:08.793911 13812 net.cpp:91] Creating Layer lstm2_transform_1
2016-07-30 11:31:08.796 STDERR [INFO] I0730 11:31:08.793917 13812 net.cpp:425] lstm2_transform_1 <- h_conted_0
2016-07-30 11:31:08.796 STDERR [INFO] I0730 11:31:08.793926 13812 net.cpp:399] lstm2_transform_1 -> W_hc_h_0
2016-07-30 11:31:08.838 STDERR [INFO] I0730 11:31:08.837998 13812 net.cpp:141] Setting up lstm2_transform_1
2016-07-30 11:31:08.838 STDERR [INFO] I0730 11:31:08.838062 13812 net.cpp:148] Top shape: 1 1 4000 (4000)
2016-07-30 11:31:08.838 STDERR [INFO] I0730 11:31:08.838068 13812 net.cpp:156] Memory required for data: 66020
2016-07-30 11:31:08.838 STDERR [INFO] I0730 11:31:08.838094 13812 layer_factory.hpp:77] Creating layer lstm2_gate_input_1
2016-07-30 11:31:08.838 STDERR [INFO] I0730 11:31:08.838120 13812 net.cpp:91] Creating Layer lstm2_gate_input_1
2016-07-30 11:31:08.839 STDERR [INFO] I0730 11:31:08.838129 13812 net.cpp:425] lstm2_gate_input_1 <- W_hc_h_0
2016-07-30 11:31:08.839 STDERR [INFO] I0730 11:31:08.838138 13812 net.cpp:425] lstm2_gate_input_1 <- W_xc_x_1
2016-07-30 11:31:08.839 STDERR [INFO] I0730 11:31:08.838147 13812 net.cpp:399] lstm2_gate_input_1 -> gate_input_1
2016-07-30 11:31:08.839 STDERR [INFO] I0730 11:31:08.838208 13812 net.cpp:141] Setting up lstm2_gate_input_1
2016-07-30 11:31:08.839 STDERR [INFO] I0730 11:31:08.838218 13812 net.cpp:148] Top shape: 1 1 4000 (4000)
2016-07-30 11:31:08.839 STDERR [INFO] I0730 11:31:08.838223 13812 net.cpp:156] Memory required for data: 82020
2016-07-30 11:31:08.839 STDERR [INFO] I0730 11:31:08.838228 13812 layer_factory.hpp:77] Creating layer lstm2_unit_1
2016-07-30 11:31:08.839 STDERR [INFO] I0730 11:31:08.838241 13812 net.cpp:91] Creating Layer lstm2_unit_1
2016-07-30 11:31:08.839 STDERR [INFO] I0730 11:31:08.838248 13812 net.cpp:425] lstm2_unit_1 <- c_0
2016-07-30 11:31:08.839 STDERR [INFO] I0730 11:31:08.838253 13812 net.cpp:425] lstm2_unit_1 <- gate_input_1
2016-07-30 11:31:08.839 STDERR [INFO] I0730 11:31:08.838259 13812 net.cpp:425] lstm2_unit_1 <- cont_1_lstm2_cont_slice_0_split_1
2016-07-30 11:31:08.839 STDERR [INFO] I0730 11:31:08.838266 13812 net.cpp:399] lstm2_unit_1 -> c_1
2016-07-30 11:31:08.840 STDERR [INFO] I0730 11:31:08.838276 13812 net.cpp:399] lstm2_unit_1 -> h_1
2016-07-30 11:31:08.840 STDERR [INFO] I0730 11:31:08.838346 13812 net.cpp:141] Setting up lstm2_unit_1
2016-07-30 11:31:08.840 STDERR [INFO] I0730 11:31:08.838356 13812 net.cpp:148] Top shape: 1 1 1000 (1000)
2016-07-30 11:31:08.840 STDERR [INFO] I0730 11:31:08.838361 13812 net.cpp:148] Top shape: 1 1 1000 (1000)
2016-07-30 11:31:08.840 STDERR [INFO] I0730 11:31:08.838366 13812 net.cpp:156] Memory required for data: 90020
2016-07-30 11:31:08.840 STDERR [INFO] I0730 11:31:08.838371 13812 layer_factory.hpp:77] Creating layer lstm2_
2016-07-30 11:31:08.840 STDERR [INFO] I0730 11:31:08.838379 13812 net.cpp:91] Creating Layer lstm2_
2016-07-30 11:31:08.840 STDERR [INFO] I0730 11:31:08.838384 13812 net.cpp:425] lstm2_ <- c_1
2016-07-30 11:31:08.840 STDERR [INFO] I0730 11:31:08.838392 13812 net.cpp:399] lstm2_ -> c_T
2016-07-30 11:31:08.840 STDERR [INFO] I0730 11:31:08.838426 13812 net.cpp:141] Setting up lstm2_
2016-07-30 11:31:08.840 STDERR [INFO] I0730 11:31:08.838435 13812 net.cpp:148] Top shape: 1 1 1000 (1000)
2016-07-30 11:31:08.841 STDERR [INFO] I0730 11:31:08.838440 13812 net.cpp:156] Memory required for data: 94020
2016-07-30 11:31:08.841 STDERR [INFO] I0730 11:31:08.838445 13812 layer_factory.hpp:77] Creating layer lstm2_h_concat
2016-07-30 11:31:08.841 STDERR [INFO] I0730 11:31:08.838455 13812 net.cpp:91] Creating Layer lstm2_h_concat
2016-07-30 11:31:08.841 STDERR [INFO] I0730 11:31:08.838460 13812 net.cpp:425] lstm2_h_concat <- h_1
2016-07-30 11:31:08.841 STDERR [INFO] I0730 11:31:08.838467 13812 net.cpp:399] lstm2_h_concat -> h
2016-07-30 11:31:08.841 STDERR [INFO] I0730 11:31:08.838507 13812 net.cpp:141] Setting up lstm2_h_concat
2016-07-30 11:31:08.841 STDERR [INFO] I0730 11:31:08.838516 13812 net.cpp:148] Top shape: 1 1 1000 (1000)
2016-07-30 11:31:08.841 STDERR [INFO] I0730 11:31:08.838521 13812 net.cpp:156] Memory required for data: 98020
2016-07-30 11:31:08.841 STDERR [INFO] I0730 11:31:08.838526 13812 layer_factory.hpp:77] Creating layer h_pseudoloss
2016-07-30 11:31:08.841 STDERR [INFO] I0730 11:31:08.838537 13812 net.cpp:91] Creating Layer h_pseudoloss
2016-07-30 11:31:08.841 STDERR [INFO] I0730 11:31:08.838541 13812 net.cpp:425] h_pseudoloss <- h
…
