…
Java HotSpot(TM) 64-Bit Server VM warning: You have loaded library /tmp/cvld6414502785032989510/libopencv_java310.xine1.so which might have disabled stack guard. The VM will try to fix the stack guard now.
It's highly recommended that you fix the library with 'execstack -c <libfile>', or link it with '-z noexecstack'.
WARNING: Logging before InitGoogleLogging() is written to STDERR
I0802 07:21:16.825614  8062 net.cpp:49] Initializing net from parameters: 
name: "CaffeNet"
state {
  phase: TEST
}
layer {
  name: "data"
  type: "Input"
  top: "data"
  input_param {
    shape {
      dim: 10
      dim: 3
      dim: 227
      dim: 227
    }
  }
}
layer {
  name: "conv1"
  type: "Convolution"
  bottom: "data"
  top: "conv1"
  convolution_param {
    num_output: 96
    kernel_size: 11
    stride: 4
  }
}
layer {
  name: "relu1"
  type: "ReLU"
  bottom: "conv1"
  top: "conv1"
}
layer {
  name: "pool1"
  type: "Pooling"
  bottom: "conv1"
  top: "pool1"
  pooling_param {
    pool: MAX
    kernel_size: 3
    stride: 2
  }
}
layer {
  name: "norm1"
  type: "LRN"
  bottom: "pool1"
  top: "norm1"
  lrn_param {
    local_size: 5
    alpha: 0.0001
    beta: 0.75
  }
}
layer {
  name: "conv2"
  type: "Convolution"
  bottom: "norm1"
  top: "conv2"
  convolution_param {
    num_output: 256
    pad: 2
    kernel_size: 5
    group: 2
  }
}
layer {
  name: "relu2"
  type: "ReLU"
  bottom: "conv2"
  top: "conv2"
}
layer {
  name: "pool2"
  type: "Pooling"
  bottom: "conv2"
  top: "pool2"
  pooling_param {
    pool: MAX
    kernel_size: 3
    stride: 2
  }
}
layer {
  name: "norm2"
  type: "LRN"
  bottom: "pool2"
  top: "norm2"
  lrn_param {
    local_size: 5
    alpha: 0.0001
    beta: 0.75
  }
}
layer {
  name: "conv3"
  type: "Convolution"
  bottom: "norm2"
  top: "conv3"
  convolution_param {
    num_output: 384
    pad: 1
    kernel_size: 3
  }
}
layer {
  name: "relu3"
  type: "ReLU"
  bottom: "conv3"
  top: "conv3"
}
layer {
  name: "conv4"
  type: "Convolution"
  bottom: "conv3"
  top: "conv4"
  convolution_param {
    num_output: 384
    pad: 1
    kernel_size: 3
    group: 2
  }
}
layer {
  name: "relu4"
  type: "ReLU"
  bottom: "conv4"
  top: "conv4"
}
layer {
  name: "conv5"
  type: "Convolution"
  bottom: "conv4"
  top: "conv5"
  convolution_param {
    num_output: 256
    pad: 1
    kernel_size: 3
    group: 2
  }
}
layer {
  name: "relu5"
  type: "ReLU"
  bottom: "conv5"
  top: "conv5"
}
layer {
  name: "pool5"
  type: "Pooling"
  bottom: "conv5"
  top: "pool5"
  pooling_param {
    pool: MAX
    kernel_size: 3
    stride: 2
  }
}
layer {
  name: "fc6"
  type: "InnerProduct"
  bottom: "pool5"
  top: "fc6"
  inner_product_param {
    num_output: 4096
  }
}
layer {
  name: "relu6"
  type: "ReLU"
  bottom: "fc6"
  top: "fc6"
}
layer {
  name: "drop6"
  type: "Dropout"
  bottom: "fc6"
  top: "fc6"
  dropout_param {
    dropout_ratio: 0.5
  }
}
layer {
  name: "fc7"
  type: "InnerProduct"
  bottom: "fc6"
  top: "fc7"
  inner_product_param {
    num_output: 4096
  }
}
layer {
  name: "relu7"
  type: "ReLU"
  bottom: "fc7"
  top: "fc7"
}
layer {
  name: "drop7"
  type: "Dropout"
  bottom: "fc7"
  top: "fc7"
  dropout_param {
    dropout_ratio: 0.5
  }
}
layer {
  name: "fc8"
  type: "InnerProduct"
  bottom: "fc7"
  top: "fc8"
  inner_product_param {
    num_output: 1000
  }
}
layer {
  name: "prob"
  type: "Softmax"
  bottom: "fc8"
  top: "prob"
}
I0802 07:21:16.825822  8062 layer_factory.hpp:77] Creating layer data
I0802 07:21:16.825848  8062 net.cpp:91] Creating Layer data
I0802 07:21:16.825860  8062 net.cpp:399] data -> data
I0802 07:21:17.291494  8062 net.cpp:141] Setting up data
I0802 07:21:17.291611  8062 net.cpp:148] Top shape: 10 3 227 227 (1545870)
I0802 07:21:17.291620  8062 net.cpp:156] Memory required for data: 6183480
I0802 07:21:17.291637  8062 layer_factory.hpp:77] Creating layer conv1
I0802 07:21:17.291668  8062 net.cpp:91] Creating Layer conv1
I0802 07:21:17.291677  8062 net.cpp:425] conv1 <- data
I0802 07:21:17.291690  8062 net.cpp:399] conv1 -> conv1
I0802 07:21:17.424728  8052 upgrade_proto.cpp:66] Attempting to upgrade input file specified using deprecated input fields: /tmp/cvld6414502785032989510/s2vt.words_to_preds.prototxt
I0802 07:21:17.424796  8052 upgrade_proto.cpp:69] Successfully upgraded file specified using deprecated input fields.
W0802 07:21:17.424805  8052 upgrade_proto.cpp:71] Note that future Caffe releases will only support input layers and not input fields.
I0802 07:21:17.425074  8052 net.cpp:49] Initializing net from parameters: 
name: "s2vt:features_to_lstm"
state {
  phase: TEST
}
layer {
  name: "input"
  type: "Input"
  top: "frames_fc7"
  top: "cont_sentence"
  top: "input_sentence"
  top: "stage_indicator"
  input_param {
    shape {
      dim: 1
      dim: 4096
    }
    shape {
      dim: 1
      dim: 1
    }
    shape {
      dim: 1
      dim: 1
    }
    shape {
      dim: 1
      dim: 1
    }
  }
}
layer {
  name: "embed_encoder"
  type: "InnerProduct"
  bottom: "frames_fc7"
  top: "embedded_in_frames"
  param {
    lr_mult: 1
    decay_mult: 1
  }
  param {
    lr_mult: 2
    decay_mult: 0
  }
  inner_product_param {
    num_output: 500
    weight_filler {
      type: "xavier"
    }
    bias_filler {
      type: "constant"
      value: 0.2
    }
  }
}
layer {
  name: "reshape_frames"
  type: "Reshape"
  bottom: "embedded_in_frames"
  top: "embedded_input_frames"
  reshape_param {
    shape {
      dim: 1
      dim: 1
      dim: 500
    }
  }
}
layer {
  name: "reshape_stage_indicator"
  type: "Reshape"
  bottom: "stage_indicator"
  top: "reshaped_stage_indicator"
  reshape_param {
    shape {
      dim: 1
      dim: 1
      dim: 1
    }
  }
}
layer {
  name: "embedding"
  type: "Embed"
  bottom: "input_sentence"
  top: "embedded_input_sentence"
  param {
    lr_mult: 1
  }
  embed_param {
    num_output: 500
    input_dim: 46168
    bias_term: false
    weight_filler {
      type: "uniform"
      min: -0.08
      max: 0.08
    }
  }
}
layer {
  name: "lstm1"
  type: "LSTM"
  bottom: "embedded_input_frames"
  bottom: "cont_sentence"
  top: "lstm1"
  recurrent_param {
    num_output: 1000
    weight_filler {
      type: "uniform"
      min: -0.08
      max: 0.08
    }
    bias_filler {
      type: "constant"
      value: 0
    }
  }
}
layer {
  name: "concat"
  type: "Concat"
  bottom: "lstm1"
  bottom: "embedded_input_sentence"
  bottom: "reshaped_stage_indicator"
  top: "lstm1_video_sequence"
  concat_param {
    concat_dim: 2
  }
}
layer {
  name: "lstm2"
  type: "LSTM"
  bottom: "lstm1_video_sequence"
  bottom: "cont_sentence"
  top: "lstm2"
  recurrent_param {
    num_output: 1000
    weight_filler {
      type: "uniform"
      min: -0.08
      max: 0.08
    }
    bias_filler {
      type: "constant"
      value: 0
    }
  }
}
layer {
  name: "predict"
  type: "InnerProduct"
  bottom: "lstm2"
  top: "predict"
  param {
    lr_mult: 1
    decay_mult: 1
  }
  param {
    lr_mult: 2
    decay_mult: 0
  }
  inner_product_param {
    num_output: 46168
    weight_filler {
      type: "uniform"
      min: -0.08
      max: 0.08
    }
    bias_filler {
      type: "constant"
      value: 0
    }
    axis: 2
  }
}
layer {
  name: "probs"
  type: "Softmax"
  bottom: "predict"
  top: "probs"
  softmax_param {
    axis: 2
  }
}
I0802 07:21:17.425175  8052 layer_factory.hpp:77] Creating layer input
I0802 07:21:17.425192  8052 net.cpp:91] Creating Layer input
I0802 07:21:17.425201  8052 net.cpp:399] input -> frames_fc7
I0802 07:21:17.425220  8052 net.cpp:399] input -> cont_sentence
I0802 07:21:17.425230  8052 net.cpp:399] input -> input_sentence
I0802 07:21:17.425241  8052 net.cpp:399] input -> stage_indicator
I0802 07:21:17.431021  8052 net.cpp:141] Setting up input
I0802 07:21:17.431041  8052 net.cpp:148] Top shape: 1 4096 (4096)
I0802 07:21:17.431047  8052 net.cpp:148] Top shape: 1 1 (1)
I0802 07:21:17.431053  8052 net.cpp:148] Top shape: 1 1 (1)
I0802 07:21:17.431059  8052 net.cpp:148] Top shape: 1 1 (1)
I0802 07:21:17.431063  8052 net.cpp:156] Memory required for data: 16396
I0802 07:21:17.431068  8052 layer_factory.hpp:77] Creating layer cont_sentence_input_1_split
I0802 07:21:17.431088  8052 net.cpp:91] Creating Layer cont_sentence_input_1_split
I0802 07:21:17.431094  8052 net.cpp:425] cont_sentence_input_1_split <- cont_sentence
I0802 07:21:17.431116  8052 net.cpp:399] cont_sentence_input_1_split -> cont_sentence_input_1_split_0
I0802 07:21:17.431128  8052 net.cpp:399] cont_sentence_input_1_split -> cont_sentence_input_1_split_1
I0802 07:21:17.434840  8052 net.cpp:141] Setting up cont_sentence_input_1_split
I0802 07:21:17.434859  8052 net.cpp:148] Top shape: 1 1 (1)
I0802 07:21:17.434865  8052 net.cpp:148] Top shape: 1 1 (1)
I0802 07:21:17.434870  8052 net.cpp:156] Memory required for data: 16404
I0802 07:21:17.434875  8052 layer_factory.hpp:77] Creating layer embed_encoder
I0802 07:21:17.434892  8052 net.cpp:91] Creating Layer embed_encoder
I0802 07:21:17.434898  8052 net.cpp:425] embed_encoder <- frames_fc7
I0802 07:21:17.434921  8052 net.cpp:399] embed_encoder -> embedded_in_frames
I0802 07:21:17.463014  8052 net.cpp:141] Setting up embed_encoder
I0802 07:21:17.463071  8052 net.cpp:148] Top shape: 1 500 (500)
I0802 07:21:17.463078  8052 net.cpp:156] Memory required for data: 18404
I0802 07:21:17.463107  8052 layer_factory.hpp:77] Creating layer reshape_frames
I0802 07:21:17.463137  8052 net.cpp:91] Creating Layer reshape_frames
I0802 07:21:17.463145  8052 net.cpp:425] reshape_frames <- embedded_in_frames
I0802 07:21:17.463156  8052 net.cpp:399] reshape_frames -> embedded_input_frames
I0802 07:21:17.466114  8052 net.cpp:141] Setting up reshape_frames
I0802 07:21:17.466133  8052 net.cpp:148] Top shape: 1 1 500 (500)
I0802 07:21:17.466138  8052 net.cpp:156] Memory required for data: 20404
I0802 07:21:17.466143  8052 layer_factory.hpp:77] Creating layer reshape_stage_indicator
I0802 07:21:17.466167  8052 net.cpp:91] Creating Layer reshape_stage_indicator
I0802 07:21:17.466173  8052 net.cpp:425] reshape_stage_indicator <- stage_indicator
I0802 07:21:17.466182  8052 net.cpp:399] reshape_stage_indicator -> reshaped_stage_indicator
I0802 07:21:17.466418  8052 net.cpp:141] Setting up reshape_stage_indicator
I0802 07:21:17.466430  8052 net.cpp:148] Top shape: 1 1 1 (1)
I0802 07:21:17.466434  8052 net.cpp:156] Memory required for data: 20408
I0802 07:21:17.466439  8052 layer_factory.hpp:77] Creating layer embedding
I0802 07:21:17.466456  8052 net.cpp:91] Creating Layer embedding
I0802 07:21:17.466461  8052 net.cpp:425] embedding <- input_sentence
I0802 07:21:17.466470  8052 net.cpp:399] embedding -> embedded_input_sentence
I0802 07:21:17.532824  8062 net.cpp:141] Setting up conv1
I0802 07:21:17.532884  8062 net.cpp:148] Top shape: 10 96 55 55 (2904000)
I0802 07:21:17.532903  8062 net.cpp:156] Memory required for data: 17799480
I0802 07:21:17.532928  8062 layer_factory.hpp:77] Creating layer relu1
I0802 07:21:17.532946  8062 net.cpp:91] Creating Layer relu1
I0802 07:21:17.532953  8062 net.cpp:425] relu1 <- conv1
I0802 07:21:17.532961  8062 net.cpp:386] relu1 -> conv1 (in-place)
I0802 07:21:17.533396  8062 net.cpp:141] Setting up relu1
I0802 07:21:17.533408  8062 net.cpp:148] Top shape: 10 96 55 55 (2904000)
I0802 07:21:17.533414  8062 net.cpp:156] Memory required for data: 29415480
I0802 07:21:17.533419  8062 layer_factory.hpp:77] Creating layer pool1
I0802 07:21:17.533432  8062 net.cpp:91] Creating Layer pool1
I0802 07:21:17.533437  8062 net.cpp:425] pool1 <- conv1
I0802 07:21:17.533444  8062 net.cpp:399] pool1 -> pool1
I0802 07:21:17.533510  8062 net.cpp:141] Setting up pool1
I0802 07:21:17.533520  8062 net.cpp:148] Top shape: 10 96 27 27 (699840)
I0802 07:21:17.533525  8062 net.cpp:156] Memory required for data: 32214840
I0802 07:21:17.533529  8062 layer_factory.hpp:77] Creating layer norm1
I0802 07:21:17.533546  8062 net.cpp:91] Creating Layer norm1
I0802 07:21:17.533551  8062 net.cpp:425] norm1 <- pool1
I0802 07:21:17.533557  8062 net.cpp:399] norm1 -> norm1
I0802 07:21:17.534054  8062 net.cpp:141] Setting up norm1
I0802 07:21:17.534068  8062 net.cpp:148] Top shape: 10 96 27 27 (699840)
I0802 07:21:17.534073  8062 net.cpp:156] Memory required for data: 35014200
I0802 07:21:17.534078  8062 layer_factory.hpp:77] Creating layer conv2
I0802 07:21:17.534097  8062 net.cpp:91] Creating Layer conv2
I0802 07:21:17.534103  8062 net.cpp:425] conv2 <- norm1
I0802 07:21:17.534111  8062 net.cpp:399] conv2 -> conv2
I0802 07:21:17.537410  8062 net.cpp:141] Setting up conv2
I0802 07:21:17.537441  8062 net.cpp:148] Top shape: 10 256 27 27 (1866240)
I0802 07:21:17.537447  8062 net.cpp:156] Memory required for data: 42479160
I0802 07:21:17.537464  8062 layer_factory.hpp:77] Creating layer relu2
I0802 07:21:17.537473  8062 net.cpp:91] Creating Layer relu2
I0802 07:21:17.537478  8062 net.cpp:425] relu2 <- conv2
I0802 07:21:17.537487  8062 net.cpp:386] relu2 -> conv2 (in-place)
I0802 07:21:17.537933  8062 net.cpp:141] Setting up relu2
I0802 07:21:17.537946  8062 net.cpp:148] Top shape: 10 256 27 27 (1866240)
I0802 07:21:17.537951  8062 net.cpp:156] Memory required for data: 49944120
I0802 07:21:17.537956  8062 layer_factory.hpp:77] Creating layer pool2
I0802 07:21:17.537967  8062 net.cpp:91] Creating Layer pool2
I0802 07:21:17.537972  8062 net.cpp:425] pool2 <- conv2
I0802 07:21:17.537979  8062 net.cpp:399] pool2 -> pool2
I0802 07:21:17.538034  8062 net.cpp:141] Setting up pool2
I0802 07:21:17.538044  8062 net.cpp:148] Top shape: 10 256 13 13 (432640)
I0802 07:21:17.538048  8062 net.cpp:156] Memory required for data: 51674680
I0802 07:21:17.538053  8062 layer_factory.hpp:77] Creating layer norm2
I0802 07:21:17.538061  8062 net.cpp:91] Creating Layer norm2
I0802 07:21:17.538066  8062 net.cpp:425] norm2 <- pool2
I0802 07:21:17.538076  8062 net.cpp:399] norm2 -> norm2
I0802 07:21:17.538323  8062 net.cpp:141] Setting up norm2
I0802 07:21:17.538337  8062 net.cpp:148] Top shape: 10 256 13 13 (432640)
I0802 07:21:17.538342  8062 net.cpp:156] Memory required for data: 53405240
I0802 07:21:17.538347  8062 layer_factory.hpp:77] Creating layer conv3
I0802 07:21:17.538357  8062 net.cpp:91] Creating Layer conv3
I0802 07:21:17.538362  8062 net.cpp:425] conv3 <- norm2
I0802 07:21:17.538372  8062 net.cpp:399] conv3 -> conv3
I0802 07:21:17.542027  8062 net.cpp:141] Setting up conv3
I0802 07:21:17.542059  8062 net.cpp:148] Top shape: 10 384 13 13 (648960)
I0802 07:21:17.542065  8062 net.cpp:156] Memory required for data: 56001080
I0802 07:21:17.542078  8062 layer_factory.hpp:77] Creating layer relu3
I0802 07:21:17.542089  8062 net.cpp:91] Creating Layer relu3
I0802 07:21:17.542095  8062 net.cpp:425] relu3 <- conv3
I0802 07:21:17.542103  8062 net.cpp:386] relu3 -> conv3 (in-place)
I0802 07:21:17.542541  8062 net.cpp:141] Setting up relu3
I0802 07:21:17.542554  8062 net.cpp:148] Top shape: 10 384 13 13 (648960)
I0802 07:21:17.542560  8062 net.cpp:156] Memory required for data: 58596920
I0802 07:21:17.542565  8062 layer_factory.hpp:77] Creating layer conv4
I0802 07:21:17.542577  8062 net.cpp:91] Creating Layer conv4
I0802 07:21:17.542582  8062 net.cpp:425] conv4 <- conv3
I0802 07:21:17.542590  8062 net.cpp:399] conv4 -> conv4
I0802 07:21:17.546648  8062 net.cpp:141] Setting up conv4
I0802 07:21:17.546666  8062 net.cpp:148] Top shape: 10 384 13 13 (648960)
I0802 07:21:17.546672  8062 net.cpp:156] Memory required for data: 61192760
I0802 07:21:17.546681  8062 layer_factory.hpp:77] Creating layer relu4
I0802 07:21:17.546689  8062 net.cpp:91] Creating Layer relu4
I0802 07:21:17.546694  8062 net.cpp:425] relu4 <- conv4
I0802 07:21:17.546705  8062 net.cpp:386] relu4 -> conv4 (in-place)
I0802 07:21:17.547150  8062 net.cpp:141] Setting up relu4
I0802 07:21:17.547163  8062 net.cpp:148] Top shape: 10 384 13 13 (648960)
I0802 07:21:17.547168  8062 net.cpp:156] Memory required for data: 63788600
I0802 07:21:17.547173  8062 layer_factory.hpp:77] Creating layer conv5
I0802 07:21:17.547186  8062 net.cpp:91] Creating Layer conv5
I0802 07:21:17.547191  8062 net.cpp:425] conv5 <- conv4
I0802 07:21:17.547201  8062 net.cpp:399] conv5 -> conv5
I0802 07:21:17.551144  8062 net.cpp:141] Setting up conv5
I0802 07:21:17.551162  8062 net.cpp:148] Top shape: 10 256 13 13 (432640)
I0802 07:21:17.551167  8062 net.cpp:156] Memory required for data: 65519160
I0802 07:21:17.551179  8062 layer_factory.hpp:77] Creating layer relu5
I0802 07:21:17.551201  8062 net.cpp:91] Creating Layer relu5
I0802 07:21:17.551206  8062 net.cpp:425] relu5 <- conv5
I0802 07:21:17.551216  8062 net.cpp:386] relu5 -> conv5 (in-place)
I0802 07:21:17.551671  8062 net.cpp:141] Setting up relu5
I0802 07:21:17.551683  8062 net.cpp:148] Top shape: 10 256 13 13 (432640)
I0802 07:21:17.551687  8062 net.cpp:156] Memory required for data: 67249720
I0802 07:21:17.551692  8062 layer_factory.hpp:77] Creating layer pool5
I0802 07:21:17.551705  8062 net.cpp:91] Creating Layer pool5
I0802 07:21:17.551712  8062 net.cpp:425] pool5 <- conv5
I0802 07:21:17.551718  8062 net.cpp:399] pool5 -> pool5
I0802 07:21:17.551780  8062 net.cpp:141] Setting up pool5
I0802 07:21:17.551790  8062 net.cpp:148] Top shape: 10 256 6 6 (92160)
I0802 07:21:17.551795  8062 net.cpp:156] Memory required for data: 67618360
I0802 07:21:17.551800  8062 layer_factory.hpp:77] Creating layer fc6
I0802 07:21:17.551813  8062 net.cpp:91] Creating Layer fc6
I0802 07:21:17.551818  8062 net.cpp:425] fc6 <- pool5
I0802 07:21:17.551826  8062 net.cpp:399] fc6 -> fc6
I0802 07:21:17.665314  8062 net.cpp:141] Setting up fc6
I0802 07:21:17.665381  8062 net.cpp:148] Top shape: 10 4096 (40960)
I0802 07:21:17.665387  8062 net.cpp:156] Memory required for data: 67782200
I0802 07:21:17.665402  8062 layer_factory.hpp:77] Creating layer relu6
I0802 07:21:17.665422  8062 net.cpp:91] Creating Layer relu6
I0802 07:21:17.665431  8062 net.cpp:425] relu6 <- fc6
I0802 07:21:17.665438  8062 net.cpp:386] relu6 -> fc6 (in-place)
I0802 07:21:17.665773  8062 net.cpp:141] Setting up relu6
I0802 07:21:17.665786  8062 net.cpp:148] Top shape: 10 4096 (40960)
I0802 07:21:17.665789  8062 net.cpp:156] Memory required for data: 67946040
I0802 07:21:17.665794  8062 layer_factory.hpp:77] Creating layer drop6
I0802 07:21:17.665815  8062 net.cpp:91] Creating Layer drop6
I0802 07:21:17.665820  8062 net.cpp:425] drop6 <- fc6
I0802 07:21:17.665839  8062 net.cpp:386] drop6 -> fc6 (in-place)
I0802 07:21:17.665886  8062 net.cpp:141] Setting up drop6
I0802 07:21:17.665899  8062 net.cpp:148] Top shape: 10 4096 (40960)
I0802 07:21:17.665904  8062 net.cpp:156] Memory required for data: 68109880
I0802 07:21:17.665907  8062 layer_factory.hpp:77] Creating layer fc7
I0802 07:21:17.665917  8062 net.cpp:91] Creating Layer fc7
I0802 07:21:17.665922  8062 net.cpp:425] fc7 <- fc6
I0802 07:21:17.665930  8062 net.cpp:399] fc7 -> fc7
I0802 07:21:17.694105  8052 net.cpp:141] Setting up embedding
I0802 07:21:17.694176  8052 net.cpp:148] Top shape: 1 1 500 (500)
I0802 07:21:17.694183  8052 net.cpp:156] Memory required for data: 22408
I0802 07:21:17.694203  8052 layer_factory.hpp:77] Creating layer lstm1
I0802 07:21:17.694227  8052 net.cpp:91] Creating Layer lstm1
I0802 07:21:17.694236  8052 net.cpp:425] lstm1 <- embedded_input_frames
I0802 07:21:17.694244  8052 net.cpp:425] lstm1 <- cont_sentence_input_1_split_0
I0802 07:21:17.694258  8052 net.cpp:399] lstm1 -> lstm1
I0802 07:21:17.694298  8052 recurrent_layer.cpp:20] Initializing recurrent layer: assuming input batch contains 1 timesteps of 1 independent streams.
I0802 07:21:17.694675  8052 net.cpp:49] Initializing net from parameters: 
layer {
  name: "lstm1_"
  type: "Input"
  top: "x"
  top: "cont"
  input_param {
    shape {
      dim: 1
      dim: 1
      dim: 500
    }
    shape {
      dim: 1
      dim: 1
    }
  }
}
layer {
  name: "lstm1_"
  type: "Input"
  top: "c_0"
  top: "h_0"
  input_param {
    shape {
      dim: 1
      dim: 1
      dim: 1000
    }
    shape {
      dim: 1
      dim: 1
      dim: 1000
    }
  }
}
layer {
  name: "lstm1_cont_slice"
  type: "Slice"
  bottom: "cont"
  top: "cont_1"
  slice_param {
    axis: 0
  }
}
layer {
  name: "lstm1_x_transform"
  type: "InnerProduct"
  bottom: "x"
  top: "W_xc_x"
  param {
    name: "W_xc"
  }
  param {
    name: "b_c"
  }
  propagate_down: true
  inner_product_param {
    num_output: 4000
    bias_term: true
    weight_filler {
      type: "uniform"
      min: -0.08
      max: 0.08
    }
    bias_filler {
      type: "constant"
      value: 0
    }
    axis: 2
  }
}
layer {
  name: "lstm1_W_xc_x_slice"
  type: "Slice"
  bottom: "W_xc_x"
  top: "W_xc_x_1"
  slice_param {
    axis: 0
  }
}
layer {
  name: "lstm1_h_conted_0"
  type: "Scale"
  bottom: "h_0"
  bottom: "cont_1"
  top: "h_conted_0"
  scale_param {
    axis: 0
  }
}
layer {
  name: "lstm1_transform_1"
  type: "InnerProduct"
  bottom: "h_conted_0"
  top: "W_hc_h_0"
  param {
    name: "W_hc"
  }
  inner_product_param {
    num_output: 4000
    bias_term: false
    weight_filler {
      type: "uniform"
      min: -0.08
      max: 0.08
    }
    axis: 2
  }
}
layer {
  name: "lstm1_gate_input_1"
  type: "Eltwise"
  bottom: "W_hc_h_0"
  bottom: "W_xc_x_1"
  top: "gate_input_1"
  eltwise_param {
    operation: SUM
  }
}
layer {
  name: "lstm1_unit_1"
  type: "LSTMUnit"
  bottom: "c_0"
  bottom: "gate_input_1"
  bottom: "cont_1"
  top: "c_1"
  top: "h_1"
}
layer {
  name: "lstm1_"
  type: "Split"
  bottom: "c_1"
  top: "c_T"
}
layer {
  name: "lstm1_h_concat"
  type: "Concat"
  bottom: "h_1"
  top: "h"
  concat_param {
    axis: 0
  }
}
layer {
  name: "h_pseudoloss"
  type: "Reduction"
  bottom: "h"
  top: "h_pseudoloss"
  loss_weight: 1
}
I0802 07:21:17.694767  8052 layer_factory.hpp:77] Creating layer lstm1_
I0802 07:21:17.694780  8052 net.cpp:91] Creating Layer lstm1_
I0802 07:21:17.694787  8052 net.cpp:399] lstm1_ -> x
I0802 07:21:17.694798  8052 net.cpp:399] lstm1_ -> cont
I0802 07:21:17.694861  8052 net.cpp:141] Setting up lstm1_
I0802 07:21:17.694872  8052 net.cpp:148] Top shape: 1 1 500 (500)
I0802 07:21:17.694878  8052 net.cpp:148] Top shape: 1 1 (1)
I0802 07:21:17.694882  8052 net.cpp:156] Memory required for data: 2004
I0802 07:21:17.694887  8052 layer_factory.hpp:77] Creating layer lstm1_
I0802 07:21:17.694895  8052 net.cpp:91] Creating Layer lstm1_
I0802 07:21:17.694903  8052 net.cpp:399] lstm1_ -> c_0
I0802 07:21:17.694913  8052 net.cpp:399] lstm1_ -> h_0
I0802 07:21:17.694965  8052 net.cpp:141] Setting up lstm1_
I0802 07:21:17.694974  8052 net.cpp:148] Top shape: 1 1 1000 (1000)
I0802 07:21:17.694980  8052 net.cpp:148] Top shape: 1 1 1000 (1000)
I0802 07:21:17.694984  8052 net.cpp:156] Memory required for data: 10004
I0802 07:21:17.694989  8052 layer_factory.hpp:77] Creating layer lstm1_cont_slice
I0802 07:21:17.694998  8052 net.cpp:91] Creating Layer lstm1_cont_slice
I0802 07:21:17.695001  8052 net.cpp:425] lstm1_cont_slice <- cont
I0802 07:21:17.695008  8052 net.cpp:399] lstm1_cont_slice -> cont_1
I0802 07:21:17.695045  8052 net.cpp:141] Setting up lstm1_cont_slice
I0802 07:21:17.695055  8052 net.cpp:148] Top shape: 1 1 (1)
I0802 07:21:17.695058  8052 net.cpp:156] Memory required for data: 10008
I0802 07:21:17.695062  8052 layer_factory.hpp:77] Creating layer cont_1_lstm1_cont_slice_0_split
I0802 07:21:17.695072  8052 net.cpp:91] Creating Layer cont_1_lstm1_cont_slice_0_split
I0802 07:21:17.695076  8052 net.cpp:425] cont_1_lstm1_cont_slice_0_split <- cont_1
I0802 07:21:17.695083  8052 net.cpp:399] cont_1_lstm1_cont_slice_0_split -> cont_1_lstm1_cont_slice_0_split_0
I0802 07:21:17.695092  8052 net.cpp:399] cont_1_lstm1_cont_slice_0_split -> cont_1_lstm1_cont_slice_0_split_1
I0802 07:21:17.695152  8052 net.cpp:141] Setting up cont_1_lstm1_cont_slice_0_split
I0802 07:21:17.695160  8052 net.cpp:148] Top shape: 1 1 (1)
I0802 07:21:17.695166  8052 net.cpp:148] Top shape: 1 1 (1)
I0802 07:21:17.695171  8052 net.cpp:156] Memory required for data: 10016
I0802 07:21:17.695175  8052 layer_factory.hpp:77] Creating layer lstm1_x_transform
I0802 07:21:17.695185  8052 net.cpp:91] Creating Layer lstm1_x_transform
I0802 07:21:17.695189  8052 net.cpp:425] lstm1_x_transform <- x
I0802 07:21:17.695199  8052 net.cpp:399] lstm1_x_transform -> W_xc_x
I0802 07:21:17.710418  8062 net.cpp:141] Setting up fc7
I0802 07:21:17.710479  8062 net.cpp:148] Top shape: 10 4096 (40960)
I0802 07:21:17.710485  8062 net.cpp:156] Memory required for data: 68273720
I0802 07:21:17.710500  8062 layer_factory.hpp:77] Creating layer relu7
I0802 07:21:17.710520  8062 net.cpp:91] Creating Layer relu7
I0802 07:21:17.710531  8062 net.cpp:425] relu7 <- fc7
I0802 07:21:17.710541  8062 net.cpp:386] relu7 -> fc7 (in-place)
I0802 07:21:17.711302  8062 net.cpp:141] Setting up relu7
I0802 07:21:17.711315  8062 net.cpp:148] Top shape: 10 4096 (40960)
I0802 07:21:17.711320  8062 net.cpp:156] Memory required for data: 68437560
I0802 07:21:17.711325  8062 layer_factory.hpp:77] Creating layer drop7
I0802 07:21:17.711343  8062 net.cpp:91] Creating Layer drop7
I0802 07:21:17.711347  8062 net.cpp:425] drop7 <- fc7
I0802 07:21:17.711356  8062 net.cpp:386] drop7 -> fc7 (in-place)
I0802 07:21:17.711395  8062 net.cpp:141] Setting up drop7
I0802 07:21:17.711402  8062 net.cpp:148] Top shape: 10 4096 (40960)
I0802 07:21:17.711407  8062 net.cpp:156] Memory required for data: 68601400
I0802 07:21:17.711411  8062 layer_factory.hpp:77] Creating layer fc8
I0802 07:21:17.711426  8062 net.cpp:91] Creating Layer fc8
I0802 07:21:17.711431  8062 net.cpp:425] fc8 <- fc7
I0802 07:21:17.711438  8062 net.cpp:399] fc8 -> fc8
I0802 07:21:17.719204  8052 net.cpp:141] Setting up lstm1_x_transform
I0802 07:21:17.719254  8052 net.cpp:148] Top shape: 1 1 4000 (4000)
I0802 07:21:17.719259  8052 net.cpp:156] Memory required for data: 26016
I0802 07:21:17.719275  8052 layer_factory.hpp:77] Creating layer lstm1_W_xc_x_slice
I0802 07:21:17.719288  8052 net.cpp:91] Creating Layer lstm1_W_xc_x_slice
I0802 07:21:17.719305  8052 net.cpp:425] lstm1_W_xc_x_slice <- W_xc_x
I0802 07:21:17.719315  8052 net.cpp:399] lstm1_W_xc_x_slice -> W_xc_x_1
I0802 07:21:17.719355  8052 net.cpp:141] Setting up lstm1_W_xc_x_slice
I0802 07:21:17.719364  8052 net.cpp:148] Top shape: 1 1 4000 (4000)
I0802 07:21:17.719369  8052 net.cpp:156] Memory required for data: 42016
I0802 07:21:17.719373  8052 layer_factory.hpp:77] Creating layer lstm1_h_conted_0
I0802 07:21:17.719383  8052 net.cpp:91] Creating Layer lstm1_h_conted_0
I0802 07:21:17.719386  8052 net.cpp:425] lstm1_h_conted_0 <- h_0
I0802 07:21:17.719393  8052 net.cpp:425] lstm1_h_conted_0 <- cont_1_lstm1_cont_slice_0_split_0
I0802 07:21:17.719399  8052 net.cpp:399] lstm1_h_conted_0 -> h_conted_0
I0802 07:21:17.719483  8052 net.cpp:141] Setting up lstm1_h_conted_0
I0802 07:21:17.719493  8052 net.cpp:148] Top shape: 1 1 1000 (1000)
I0802 07:21:17.719497  8052 net.cpp:156] Memory required for data: 46016
I0802 07:21:17.719501  8052 layer_factory.hpp:77] Creating layer lstm1_transform_1
I0802 07:21:17.719511  8052 net.cpp:91] Creating Layer lstm1_transform_1
I0802 07:21:17.719516  8052 net.cpp:425] lstm1_transform_1 <- h_conted_0
I0802 07:21:17.719523  8052 net.cpp:399] lstm1_transform_1 -> W_hc_h_0
I0802 07:21:17.726845  8062 net.cpp:141] Setting up fc8
I0802 07:21:17.726910  8062 net.cpp:148] Top shape: 10 1000 (10000)
I0802 07:21:17.726917  8062 net.cpp:156] Memory required for data: 68641400
I0802 07:21:17.726932  8062 layer_factory.hpp:77] Creating layer prob
I0802 07:21:17.726948  8062 net.cpp:91] Creating Layer prob
I0802 07:21:17.726954  8062 net.cpp:425] prob <- fc8
I0802 07:21:17.726969  8062 net.cpp:399] prob -> prob
I0802 07:21:17.727388  8062 net.cpp:141] Setting up prob
I0802 07:21:17.727401  8062 net.cpp:148] Top shape: 10 1000 (10000)
I0802 07:21:17.727406  8062 net.cpp:156] Memory required for data: 68681400
I0802 07:21:17.727411  8062 net.cpp:219] prob does not need backward computation.
I0802 07:21:17.727416  8062 net.cpp:219] fc8 does not need backward computation.
I0802 07:21:17.727419  8062 net.cpp:219] drop7 does not need backward computation.
I0802 07:21:17.727423  8062 net.cpp:219] relu7 does not need backward computation.
…
I0802 07:21:17.727494  8062 net.cpp:219] norm1 does not need backward computation.
I0802 07:21:17.727499  8062 net.cpp:219] pool1 does not need backward computation.
I0802 07:21:17.727502  8062 net.cpp:219] relu1 does not need backward computation.
I0802 07:21:17.727506  8062 net.cpp:219] conv1 does not need backward computation.
I0802 07:21:17.727511  8062 net.cpp:219] data does not need backward computation.
I0802 07:21:17.727514  8062 net.cpp:261] This network produces output prob
I0802 07:21:17.727535  8062 net.cpp:274] Network initialization done.
I0802 07:21:17.756187  8052 net.cpp:141] Setting up lstm1_transform_1
I0802 07:21:17.756249  8052 net.cpp:148] Top shape: 1 1 4000 (4000)
I0802 07:21:17.756256  8052 net.cpp:156] Memory required for data: 62016
I0802 07:21:17.756278  8052 layer_factory.hpp:77] Creating layer lstm1_gate_input_1
I0802 07:21:17.756300  8052 net.cpp:91] Creating Layer lstm1_gate_input_1
I0802 07:21:17.756306  8052 net.cpp:425] lstm1_gate_input_1 <- W_hc_h_0
I0802 07:21:17.756315  8052 net.cpp:425] lstm1_gate_input_1 <- W_xc_x_1
I0802 07:21:17.756322  8052 net.cpp:399] lstm1_gate_input_1 -> gate_input_1
I0802 07:21:17.756392  8052 net.cpp:141] Setting up lstm1_gate_input_1
I0802 07:21:17.756402  8052 net.cpp:148] Top shape: 1 1 4000 (4000)
I0802 07:21:17.756405  8052 net.cpp:156] Memory required for data: 78016
I0802 07:21:17.756409  8052 layer_factory.hpp:77] Creating layer lstm1_unit_1
I0802 07:21:17.756418  8052 net.cpp:91] Creating Layer lstm1_unit_1
I0802 07:21:17.756425  8052 net.cpp:425] lstm1_unit_1 <- c_0
I0802 07:21:17.756431  8052 net.cpp:425] lstm1_unit_1 <- gate_input_1
I0802 07:21:17.756436  8052 net.cpp:425] lstm1_unit_1 <- cont_1_lstm1_cont_slice_0_split_1
I0802 07:21:17.756443  8052 net.cpp:399] lstm1_unit_1 -> c_1
I0802 07:21:17.756451  8052 net.cpp:399] lstm1_unit_1 -> h_1
I0802 07:21:17.756510  8052 net.cpp:141] Setting up lstm1_unit_1
I0802 07:21:17.756518  8052 net.cpp:148] Top shape: 1 1 1000 (1000)
I0802 07:21:17.756525  8052 net.cpp:148] Top shape: 1 1 1000 (1000)
I0802 07:21:17.756528  8052 net.cpp:156] Memory required for data: 86016
I0802 07:21:17.756533  8052 layer_factory.hpp:77] Creating layer lstm1_
I0802 07:21:17.756542  8052 net.cpp:91] Creating Layer lstm1_
I0802 07:21:17.756546  8052 net.cpp:425] lstm1_ <- c_1
I0802 07:21:17.756553  8052 net.cpp:399] lstm1_ -> c_T
I0802 07:21:17.756597  8052 net.cpp:141] Setting up lstm1_
I0802 07:21:17.756606  8052 net.cpp:148] Top shape: 1 1 1000 (1000)
I0802 07:21:17.756610  8052 net.cpp:156] Memory required for data: 90016
I0802 07:21:17.756615  8052 layer_factory.hpp:77] Creating layer lstm1_h_concat
I0802 07:21:17.756633  8052 net.cpp:91] Creating Layer lstm1_h_concat
I0802 07:21:17.756639  8052 net.cpp:425] lstm1_h_concat <- h_1
I0802 07:21:17.756647  8052 net.cpp:399] lstm1_h_concat -> h
I0802 07:21:17.756695  8052 net.cpp:141] Setting up lstm1_h_concat
I0802 07:21:17.756703  8052 net.cpp:148] Top shape: 1 1 1000 (1000)
I0802 07:21:17.756708  8052 net.cpp:156] Memory required for data: 94016
I0802 07:21:17.756712  8052 layer_factory.hpp:77] Creating layer h_pseudoloss
I0802 07:21:17.756727  8052 net.cpp:91] Creating Layer h_pseudoloss
I0802 07:21:17.756731  8052 net.cpp:425] h_pseudoloss <- h
I0802 07:21:17.756738  8052 net.cpp:399] h_pseudoloss -> h_pseudoloss
I0802 07:21:17.756827  8052 net.cpp:141] Setting up h_pseudoloss
…
I0802 07:21:17.756949  8052 net.cpp:219] lstm1_ does not need backward computation.
I0802 07:21:17.756953  8052 net.cpp:261] This network produces output c_T
I0802 07:21:17.756958  8052 net.cpp:261] This network produces output h_pseudoloss
I0802 07:21:17.756971  8052 net.cpp:274] Network initialization done.
I0802 07:21:17.757025  8052 recurrent_layer.cpp:150] Adding parameter 0: W_xc
I0802 07:21:17.757030  8052 recurrent_layer.cpp:150] Adding parameter 1: b_c
I0802 07:21:17.757035  8052 recurrent_layer.cpp:150] Adding parameter 2: W_hc
I0802 07:21:17.757146  8052 net.cpp:141] Setting up lstm1
I0802 07:21:17.757159  8052 net.cpp:148] Top shape: 1 1 1000 (1000)
I0802 07:21:17.757164  8052 net.cpp:156] Memory required for data: 26408
I0802 07:21:17.757176  8052 layer_factory.hpp:77] Creating layer concat
I0802 07:21:17.757185  8052 net.cpp:91] Creating Layer concat
I0802 07:21:17.757191  8052 net.cpp:425] concat <- lstm1
I0802 07:21:17.757199  8052 net.cpp:425] concat <- embedded_input_sentence
I0802 07:21:17.757203  8052 net.cpp:425] concat <- reshaped_stage_indicator
I0802 07:21:17.757210  8052 net.cpp:399] concat -> lstm1_video_sequence
I0802 07:21:17.757243  8052 net.cpp:141] Setting up concat
I0802 07:21:17.757252  8052 net.cpp:148] Top shape: 1 1 1501 (1501)
I0802 07:21:17.757256  8052 net.cpp:156] Memory required for data: 32412
I0802 07:21:17.757261  8052 layer_factory.hpp:77] Creating layer lstm2
I0802 07:21:17.757273  8052 net.cpp:91] Creating Layer lstm2
I0802 07:21:17.757278  8052 net.cpp:425] lstm2 <- lstm1_video_sequence
I0802 07:21:17.757284  8052 net.cpp:425] lstm2 <- cont_sentence_input_1_split_1
I0802 07:21:17.757292  8052 net.cpp:399] lstm2 -> lstm2
I0802 07:21:17.757302  8052 recurrent_layer.cpp:20] Initializing recurrent layer: assuming input batch contains 1 timesteps of 1 independent streams.
I0802 07:21:17.757552  8052 net.cpp:49] Initializing net from parameters: 
layer {
  name: "lstm2_"
  type: "Input"
  top: "x"
  top: "cont"
  input_param {
    shape {
      dim: 1
      dim: 1
      dim: 1501
    }
    shape {
      dim: 1
      dim: 1
    }
  }
}
layer {
  name: "lstm2_"
  type: "Input"
  top: "c_0"
  top: "h_0"
  input_param {
    shape {
      dim: 1
      dim: 1
      dim: 1000
    }
    shape {
      dim: 1
      dim: 1
      dim: 1000
    }
  }
}
layer {
  name: "lstm2_cont_slice"
  type: "Slice"
  bottom: "cont"
  top: "cont_1"
  slice_param {
    axis: 0
  }
}
layer {
  name: "lstm2_x_transform"
  type: "InnerProduct"
  bottom: "x"
  top: "W_xc_x"
  param {
    name: "W_xc"
  }
  param {
    name: "b_c"
  }
  propagate_down: true
  inner_product_param {
    num_output: 4000
    bias_term: true
    weight_filler {
      type: "uniform"
      min: -0.08
      max: 0.08
    }
    bias_filler {
      type: "constant"
      value: 0
    }
    axis: 2
  }
}
layer {
  name: "lstm2_W_xc_x_slice"
  type: "Slice"
  bottom: "W_xc_x"
  top: "W_xc_x_1"
  slice_param {
    axis: 0
  }
}
layer {
  name: "lstm2_h_conted_0"
  type: "Scale"
  bottom: "h_0"
  bottom: "cont_1"
  top: "h_conted_0"
  scale_param {
    axis: 0
  }
}
layer {
  name: "lstm2_transform_1"
  type: "InnerProduct"
  bottom: "h_conted_0"
  top: "W_hc_h_0"
  param {
    name: "W_hc"
  }
  inner_product_param {
    num_output: 4000
    bias_term: false
    weight_filler {
      type: "uniform"
      min: -0.08
      max: 0.08
    }
    axis: 2
  }
}
layer {
  name: "lstm2_gate_input_1"
  type: "Eltwise"
  bottom: "W_hc_h_0"
  bottom: "W_xc_x_1"
  top: "gate_input_1"
  eltwise_param {
    operation: SUM
  }
}
layer {
  name: "lstm2_unit_1"
  type: "LSTMUnit"
  bottom: "c_0"
  bottom: "gate_input_1"
  bottom: "cont_1"
  top: "c_1"
  top: "h_1"
}
layer {
  name: "lstm2_"
  type: "Split"
  bottom: "c_1"
  top: "c_T"
}
layer {
  name: "lstm2_h_concat"
  type: "Concat"
  bottom: "h_1"
  top: "h"
  concat_param {
    axis: 0
  }
}
layer {
  name: "h_pseudoloss"
  type: "Reduction"
  bottom: "h"
  top: "h_pseudoloss"
  loss_weight: 1
}
I0802 07:21:17.757639  8052 layer_factory.hpp:77] Creating layer lstm2_
I0802 07:21:17.757653  8052 net.cpp:91] Creating Layer lstm2_
I0802 07:21:17.757660  8052 net.cpp:399] lstm2_ -> x
I0802 07:21:17.757670  8052 net.cpp:399] lstm2_ -> cont
I0802 07:21:17.757724  8052 net.cpp:141] Setting up lstm2_
I0802 07:21:17.757733  8052 net.cpp:148] Top shape: 1 1 1501 (1501)
I0802 07:21:17.757740  8052 net.cpp:148] Top shape: 1 1 (1)
I0802 07:21:17.757743  8052 net.cpp:156] Memory required for data: 6008
I0802 07:21:17.757748  8052 layer_factory.hpp:77] Creating layer lstm2_
I0802 07:21:17.757761  8052 net.cpp:91] Creating Layer lstm2_
I0802 07:21:17.757767  8052 net.cpp:399] lstm2_ -> c_0
I0802 07:21:17.757777  8052 net.cpp:399] lstm2_ -> h_0
I0802 07:21:17.757825  8052 net.cpp:141] Setting up lstm2_
I0802 07:21:17.757834  8052 net.cpp:148] Top shape: 1 1 1000 (1000)
I0802 07:21:17.757840  8052 net.cpp:148] Top shape: 1 1 1000 (1000)
I0802 07:21:17.757844  8052 net.cpp:156] Memory required for data: 14008
I0802 07:21:17.757848  8052 layer_factory.hpp:77] Creating layer lstm2_cont_slice
I0802 07:21:17.757856  8052 net.cpp:91] Creating Layer lstm2_cont_slice
I0802 07:21:17.757860  8052 net.cpp:425] lstm2_cont_slice <- cont
I0802 07:21:17.757869  8052 net.cpp:399] lstm2_cont_slice -> cont_1
I0802 07:21:17.757902  8052 net.cpp:141] Setting up lstm2_cont_slice
I0802 07:21:17.757915  8052 net.cpp:148] Top shape: 1 1 (1)
I0802 07:21:17.757918  8052 net.cpp:156] Memory required for data: 14012
I0802 07:21:17.757923  8052 layer_factory.hpp:77] Creating layer cont_1_lstm2_cont_slice_0_split
I0802 07:21:17.757930  8052 net.cpp:91] Creating Layer cont_1_lstm2_cont_slice_0_split
I0802 07:21:17.757935  8052 net.cpp:425] cont_1_lstm2_cont_slice_0_split <- cont_1
I0802 07:21:17.757941  8052 net.cpp:399] cont_1_lstm2_cont_slice_0_split -> cont_1_lstm2_cont_slice_0_split_0
I0802 07:21:17.757948  8052 net.cpp:399] cont_1_lstm2_cont_slice_0_split -> cont_1_lstm2_cont_slice_0_split_1
I0802 07:21:17.757994  8052 net.cpp:141] Setting up cont_1_lstm2_cont_slice_0_split
I0802 07:21:17.758003  8052 net.cpp:148] Top shape: 1 1 (1)
I0802 07:21:17.758008  8052 net.cpp:148] Top shape: 1 1 (1)
I0802 07:21:17.758013  8052 net.cpp:156] Memory required for data: 14020
I0802 07:21:17.758018  8052 layer_factory.hpp:77] Creating layer lstm2_x_transform
I0802 07:21:17.758031  8052 net.cpp:91] Creating Layer lstm2_x_transform
I0802 07:21:17.758036  8052 net.cpp:425] lstm2_x_transform <- x
I0802 07:21:17.758044  8052 net.cpp:399] lstm2_x_transform -> W_xc_x
I0802 07:21:17.815536  8052 net.cpp:141] Setting up lstm2_x_transform
I0802 07:21:17.815582  8052 net.cpp:148] Top shape: 1 1 4000 (4000)
I0802 07:21:17.815589  8052 net.cpp:156] Memory required for data: 30020
I0802 07:21:17.815623  8052 layer_factory.hpp:77] Creating layer lstm2_W_xc_x_slice
I0802 07:21:17.815639  8052 net.cpp:91] Creating Layer lstm2_W_xc_x_slice
I0802 07:21:17.815645  8052 net.cpp:425] lstm2_W_xc_x_slice <- W_xc_x
I0802 07:21:17.815660  8052 net.cpp:399] lstm2_W_xc_x_slice -> W_xc_x_1
I0802 07:21:17.815706  8052 net.cpp:141] Setting up lstm2_W_xc_x_slice
I0802 07:21:17.815717  8052 net.cpp:148] Top shape: 1 1 4000 (4000)
I0802 07:21:17.815721  8052 net.cpp:156] Memory required for data: 46020
I0802 07:21:17.815726  8052 layer_factory.hpp:77] Creating layer lstm2_h_conted_0
I0802 07:21:17.815738  8052 net.cpp:91] Creating Layer lstm2_h_conted_0
I0802 07:21:17.815747  8052 net.cpp:425] lstm2_h_conted_0 <- h_0
I0802 07:21:17.815758  8052 net.cpp:425] lstm2_h_conted_0 <- cont_1_lstm2_cont_slice_0_split_0
I0802 07:21:17.815776  8052 net.cpp:399] lstm2_h_conted_0 -> h_conted_0
I0802 07:21:17.815954  8052 net.cpp:141] Setting up lstm2_h_conted_0
I0802 07:21:17.815973  8052 net.cpp:148] Top shape: 1 1 1000 (1000)
I0802 07:21:17.815982  8052 net.cpp:156] Memory required for data: 50020
I0802 07:21:17.815990  8052 layer_factory.hpp:77] Creating layer lstm2_transform_1
I0802 07:21:17.816020  8052 net.cpp:91] Creating Layer lstm2_transform_1
I0802 07:21:17.816032  8052 net.cpp:425] lstm2_transform_1 <- h_conted_0
I0802 07:21:17.816047  8052 net.cpp:399] lstm2_transform_1 -> W_hc_h_0
I0802 07:21:17.854462  8052 net.cpp:141] Setting up lstm2_transform_1
I0802 07:21:17.854514  8052 net.cpp:148] Top shape: 1 1 4000 (4000)
I0802 07:21:17.854521  8052 net.cpp:156] Memory required for data: 66020
I0802 07:21:17.854543  8052 layer_factory.hpp:77] Creating layer lstm2_gate_input_1
I0802 07:21:17.854567  8052 net.cpp:91] Creating Layer lstm2_gate_input_1
I0802 07:21:17.854573  8052 net.cpp:425] lstm2_gate_input_1 <- W_hc_h_0
I0802 07:21:17.854583  8052 net.cpp:425] lstm2_gate_input_1 <- W_xc_x_1
I0802 07:21:17.854593  8052 net.cpp:399] lstm2_gate_input_1 -> gate_input_1
I0802 07:21:17.854645  8052 net.cpp:141] Setting up lstm2_gate_input_1
I0802 07:21:17.854653  8052 net.cpp:148] Top shape: 1 1 4000 (4000)
I0802 07:21:17.854657  8052 net.cpp:156] Memory required for data: 82020
I0802 07:21:17.854662  8052 layer_factory.hpp:77] Creating layer lstm2_unit_1
I0802 07:21:17.854673  8052 net.cpp:91] Creating Layer lstm2_unit_1
I0802 07:21:17.854678  8052 net.cpp:425] lstm2_unit_1 <- c_0
I0802 07:21:17.854684  8052 net.cpp:425] lstm2_unit_1 <- gate_input_1
I0802 07:21:17.854689  8052 net.cpp:425] lstm2_unit_1 <- cont_1_lstm2_cont_slice_0_split_1
I0802 07:21:17.854696  8052 net.cpp:399] lstm2_unit_1 -> c_1
I0802 07:21:17.854704  8052 net.cpp:399] lstm2_unit_1 -> h_1
I0802 07:21:17.854768  8052 net.cpp:141] Setting up lstm2_unit_1
I0802 07:21:17.854776  8052 net.cpp:148] Top shape: 1 1 1000 (1000)
I0802 07:21:17.854782  8052 net.cpp:148] Top shape: 1 1 1000 (1000)
I0802 07:21:17.854787  8052 net.cpp:156] Memory required for data: 90020
I0802 07:21:17.854791  8052 layer_factory.hpp:77] Creating layer lstm2_
I0802 07:21:17.854800  8052 net.cpp:91] Creating Layer lstm2_
I0802 07:21:17.854804  8052 net.cpp:425] lstm2_ <- c_1
I0802 07:21:17.854814  8052 net.cpp:399] lstm2_ -> c_T
I0802 07:21:17.854845  8052 net.cpp:141] Setting up lstm2_
I0802 07:21:17.854852  8052 net.cpp:148] Top shape: 1 1 1000 (1000)
I0802 07:21:17.854857  8052 net.cpp:156] Memory required for data: 94020
I0802 07:21:17.854861  8052 layer_factory.hpp:77] Creating layer lstm2_h_concat
I0802 07:21:17.854871  8052 net.cpp:91] Creating Layer lstm2_h_concat
I0802 07:21:17.854876  8052 net.cpp:425] lstm2_h_concat <- h_1
I0802 07:21:17.854882  8052 net.cpp:399] lstm2_h_concat -> h
I0802 07:21:17.854919  8052 net.cpp:141] Setting up lstm2_h_concat
I0802 07:21:17.854928  8052 net.cpp:148] Top shape: 1 1 1000 (1000)
I0802 07:21:17.854933  8052 net.cpp:156] Memory required for data: 98020
I0802 07:21:17.854936  8052 layer_factory.hpp:77] Creating layer h_pseudoloss
I0802 07:21:17.854945  8052 net.cpp:91] Creating Layer h_pseudoloss
I0802 07:21:17.854950  8052 net.cpp:425] h_pseudoloss <- h
I0802 07:21:17.854956  8052 net.cpp:399] h_pseudoloss -> h_pseudoloss
I0802 07:21:17.855043  8052 net.cpp:141] Setting up h_pseudoloss
…
