…
Java HotSpot(TM) 64-Bit Server VM warning: You have loaded library /home/peifeng/work/run/storm102/data/workers/53871523-0c88-4c22-bb24-f01b0b26963c/tmp/cvld8319424169451863920/libopencv_java310.xine1.so which might have disabled stack guard. The VM will try to fix the stack guard now.
It's highly recommended that you fix the library with 'execstack -c <libfile>', or link it with '-z noexecstack'.
WARNING: Logging before InitGoogleLogging() is written to STDERR
I0903 16:45:35.087448 31317 net.cpp:49] Initializing net from parameters: 
name: "GoogleNet"
state {
  phase: TEST
}
layer {
  name: "data"
  type: "Input"
  top: "data"
  input_param {
    shape {
      dim: 10
      dim: 3
      dim: 224
      dim: 224
    }
  }
}
layer {
  name: "conv1/7x7_s2"
  type: "Convolution"
  bottom: "data"
  top: "conv1/7x7_s2"
  param {
    lr_mult: 1
    decay_mult: 1
  }
  param {
    lr_mult: 2
    decay_mult: 0
  }
  convolution_param {
    num_output: 64
    pad: 3
    kernel_size: 7
    stride: 2
    weight_filler {
      type: "xavier"
      std: 0.1
    }
    bias_filler {
      type: "constant"
      value: 0.2
    }
  }
}
layer {
  name: "conv1/relu_7x7"
  type: "ReLU"
  bottom: "conv1/7x7_s2"
  top: "conv1/7x7_s2"
}
layer {
  name: "pool1/3x3_s2"
  type: "Pooling"
  bottom: "conv1/7x7_s2"
  top: "pool1/3x3_s2"
  pooling_param {
    pool: MAX
    kernel_size: 3
    stride: 2
  }
}
layer {
  name: "pool1/norm1"
  type: "LRN"
  bottom: "pool1/3x3_s2"
  top: "pool1/norm1"
  lrn_param {
    local_size: 5
    alpha: 0.0001
    beta: 0.75
  }
}
layer {
  name: "conv2/3x3_reduce"
  type: "Convolution"
  bottom: "pool1/norm1"
  top: "conv2/3x3_reduce"
  param {
    lr_mult: 1
    decay_mult: 1
  }
  param {
    lr_mult: 2
    decay_mult: 0
  }
  convolution_param {
    num_output: 64
    kernel_size: 1
    weight_filler {
      type: "xavier"
      std: 0.1
    }
    bias_filler {
      type: "constant"
      value: 0.2
    }
  }
}
layer {
  name: "conv2/relu_3x3_reduce"
  type: "ReLU"
  bottom: "conv2/3x3_reduce"
  top: "conv2/3x3_reduce"
}
layer {
  name: "conv2/3x3"
  type: "Convolution"
  bottom: "conv2/3x3_reduce"
  top: "conv2/3x3"
  param {
    lr_mult: 1
    decay_mult: 1
  }
  param {
    lr_mult: 2
    decay_mult: 0
  }
  convolution_param {
    num_output: 192
    pad: 1
    kernel_size: 3
    weight_filler {
      type: "xavier"
      std: 0.03
    }
    bias_filler {
      type: "constant"
      value: 0.2
    }
  }
}
layer {
  name: "conv2/relu_3x3"
  type: "ReLU"
  bottom: "conv2/3x3"
  top: "conv2/3x3"
}
layer {
  name: "conv2/norm2"
  type: "LRN"
  bottom: "conv2/3x3"
  top: "conv2/norm2"
  lrn_param {
    local_size: 5
    alpha: 0.0001
    beta: 0.75
  }
}
layer {
  name: "pool2/3x3_s2"
  type: "Pooling"
  bottom: "conv2/norm2"
  top: "pool2/3x3_s2"
  pooling_param {
    pool: MAX
    kernel_size: 3
    stride: 2
  }
}
layer {
  name: "inception_3a/1x1"
  type: "Convolution"
  bottom: "pool2/3x3_s2"
  top: "inception_3a/1x1"
  param {
    lr_mult: 1
    decay_mult: 1
  }
  param {
    lr_mult: 2
    decay_mult: 0
  }
  convolution_param {
    num_output: 64
    kernel_size: 1
    weight_filler {
      type: "xavier"
      std: 0.03
    }
    bias_filler {
      type: "constant"
      value: 0.2
    }
  }
}
layer {
  name: "inception_3a/relu_1x1"
  type: "ReLU"
  bottom: "inception_3a/1x1"
  top: "inception_3a/1x1"
}
layer {
  name: "inception_3a/3x3_reduce"
  type: "Convolution"
  bottom: "pool2/3x3_s2"
  top: "inception_3a/3x3_reduce"
  param {
    lr_mult: 1
    decay_mult: 1
  }
  param {
    lr_mult: 2
    decay_mult: 0
  }
  convolution_param {
    num_output: 96
    kernel_size: 1
    weight_filler {
      type: "xavier"
      std: 0.09
    }
    bias_filler {
      type: "constant"
      value: 0.2
    }
  }
}
layer {
  name: "inception_3a/relu_3x3_reduce"
  type: "ReLU"
  bottom: "inception_3a/3x3_reduce"
  top: "inception_3a/3x3_reduce"
}
layer {
  name: "inception_3a/3x3"
  type: "Convolution"
  bottom: "inception_3a/3x3_reduce"
  top: "inception_3a/3x3"
  param {
    lr_mult: 1
    decay_mult: 1
  }
  param {
    lr_mult: 2
    decay_mult: 0
  }
  convolution_param {
    num_output: 128
    pad: 1
    kernel_size: 3
    weight_filler {
      type: "xavier"
      std: 0.03
    }
    bias_filler {
      type: "constant"
      value: 0.2
    }
  }
}
layer {
  name: "inception_3a/relu_3x3"
  type: "ReLU"
  bottom: "inception_3a/3x3"
  top: "inception_3a/3x3"
}
layer {
  name: "inception_3a/5x5_reduce"
  type: "Convolution"
  bottom: "pool2/3x3_s2"
  top: "inception_3a/5x5_reduce"
  param {
    lr_mult: 1
    decay_mult: 1
  }
  param {
    lr_mult: 2
    decay_mult: 0
  }
  convolution_param {
    num_output: 16
    kernel_size: 1
    weight_filler {
      type: "xavier"
      std: 0.2
    }
    bias_filler {
      type: "constant"
      value: 0.2
    }
  }
}
layer {
  name: "inception_3a/relu_5x5_reduce"
  type: "ReLU"
  bottom: "inception_3a/5x5_reduce"
  top: "inception_3a/5x5_reduce"
}
layer {
  name: "inception_3a/5x5"
  type: "Convolution"
  bottom: "inception_3a/5x5_reduce"
  top: "inception_3a/5x5"
  param {
    lr_mult: 1
    decay_mult: 1
  }
  param {
    lr_mult: 2
    decay_mult: 0
  }
  convolution_param {
    num_output: 32
    pad: 2
    kernel_size: 5
    weight_filler {
      type: "xavier"
      std: 0.03
    }
    bias_filler {
      type: "constant"
      value: 0.2
    }
  }
}
layer {
  name: "inception_3a/relu_5x5"
  type: "ReLU"
  bottom: "inception_3a/5x5"
  top: "inception_3a/5x5"
}
layer {
  name: "inception_3a/pool"
  type: "Pooling"
  bottom: "pool2/3x3_s2"
  top: "inception_3a/pool"
  pooling_param {
    pool: MAX
    kernel_size: 3
    stride: 1
    pad: 1
  }
}
layer {
  name: "inception_3a/pool_proj"
  type: "Convolution"
  bottom: "inception_3a/pool"
  top: "inception_3a/pool_proj"
  param {
    lr_mult: 1
    decay_mult: 1
  }
  param {
    lr_mult: 2
    decay_mult: 0
  }
  convolution_param {
    num_output: 32
    kernel_size: 1
    weight_filler {
      type: "xavier"
      std: 0.1
    }
    bias_filler {
      type: "constant"
      value: 0.2
    }
  }
}
layer {
  name: "inception_3a/relu_pool_proj"
  type: "ReLU"
  bottom: "inception_3a/pool_proj"
  top: "inception_3a/pool_proj"
}
layer {
  name: "inception_3a/output"
  type: "Concat"
  bottom: "inception_3a/1x1"
  bottom: "inception_3a/3x3"
  bottom: "inception_3a/5x5"
  bottom: "inception_3a/pool_proj"
  top: "inception_3a/output"
}
layer {
  name: "inception_3b/1x1"
  type: "Convolution"
  bottom: "inception_3a/output"
  top: "inception_3b/1x1"
  param {
    lr_mult: 1
    decay_mult: 1
  }
  param {
    lr_mult: 2
    decay_mult: 0
  }
  convolution_param {
    num_output: 128
    kernel_size: 1
    weight_filler {
      type: "xavier"
      std: 0.03
    }
    bias_filler {
      type: "constant"
      value: 0.2
    }
  }
}
layer {
  name: "inception_3b/relu_1x1"
  type: "ReLU"
  bottom: "inception_3b/1x1"
  top: "inception_3b/1x1"
}
layer {
  name: "inception_3b/3x3_reduce"
  type: "Convolution"
  bottom: "inception_3a/output"
  top: "inception_3b/3x3_reduce"
  param {
    lr_mult: 1
    decay_mult: 1
  }
  param {
    lr_mult: 2
    decay_mult: 0
  }
  convolution_param {
    num_output: 128
    kernel_size: 1
    weight_filler {
      type: "xavier"
      std: 0.09
    }
    bias_filler {
      type: "constant"
      value: 0.2
    }
  }
}
layer {
  name: "inception_3b/relu_3x3_reduce"
  type: "ReLU"
  bottom: "inception_3b/3x3_reduce"
  top: "inception_3b/3x3_reduce"
}
layer {
  name: "inception_3b/3x3"
  type: "Convolution"
  bottom: "inception_3b/3x3_reduce"
  top: "inception_3b/3x3"
  param {
    lr_mult: 1
    decay_mult: 1
  }
  param {
    lr_mult: 2
    decay_mult: 0
  }
  convolution_param {
    num_output: 192
    pad: 1
    kernel_size: 3
    weight_filler {
      type: "xavier"
      std: 0.03
    }
    bias_filler {
      type: "constant"
      value: 0.2
    }
  }
}
layer {
  name: "inception_3b/relu_3x3"
  type: "ReLU"
  bottom: "inception_3b/3x3"
  top: "inception_3b/3x3"
}
layer {
  name: "inception_3b/5x5_reduce"
  type: "Convolution"
  bottom: "inception_3a/output"
  top: "inception_3b/5x5_reduce"
  param {
    lr_mult: 1
    decay_mult: 1
  }
  param {
    lr_mult: 2
    decay_mult: 0
  }
  convolution_param {
    num_output: 32
    kernel_size: 1
    weight_filler {
      type: "xavier"
      std: 0.2
    }
    bias_filler {
      type: "constant"
      value: 0.2
    }
  }
}
layer {
  name: "inception_3b/relu_5x5_reduce"
  type: "ReLU"
  bottom: "inception_3b/5x5_reduce"
  top: "inception_3b/5x5_reduce"
}
layer {
  name: "inception_3b/5x5"
  type: "Convolution"
  bottom: "inception_3b/5x5_reduce"
  top: "inception_3b/5x5"
  param {
    lr_mult: 1
    decay_mult: 1
  }
  param {
    lr_mult: 2
    decay_mult: 0
  }
  convolution_param {
    num_output: 96
    pad: 2
    kernel_size: 5
    weight_filler {
      type: "xavier"
      std: 0.03
    }
    bias_filler {
      type: "constant"
      value: 0.2
    }
  }
}
layer {
  name: "inception_3b/relu_5x5"
  type: "ReLU"
  bottom: "inception_3b/5x5"
  top: "inception_3b/5x5"
}
layer {
  name: "inception_3b/pool"
  type: "Pooling"
  bottom: "inception_3a/output"
  top: "inception_3b/pool"
  pooling_param {
    pool: MAX
    kernel_size: 3
    stride: 1
    pad: 1
  }
}
layer {
  name: "inception_3b/pool_proj"
  type: "Convolution"
  bottom: "inception_3b/pool"
  top: "inception_3b/pool_proj"
  param {
    lr_mult: 1
    decay_mult: 1
  }
  param {
    lr_mult: 2
    decay_mult: 0
  }
  convolution_param {
    num_output: 64
    kernel_size: 1
    weight_filler {
      type: "xavier"
      std: 0.1
    }
    bias_filler {
      type: "constant"
      value: 0.2
    }
  }
}
layer {
  name: "inception_3b/relu_pool_proj"
  type: "ReLU"
  bottom: "inception_3b/pool_proj"
  top: "inception_3b/pool_proj"
}
layer {
  name: "inception_3b/output"
  type: "Concat"
  bottom: "inception_3b/1x1"
  bottom: "inception_3b/3x3"
  bottom: "inception_3b/5x5"
  bottom: "inception_3b/pool_proj"
  top: "inception_3b/output"
}
layer {
  name: "pool3/3x3_s2"
  type: "Pooling"
  bottom: "inception_3b/output"
  top: "pool3/3x3_s2"
  pooling_param {
    pool: MAX
    kernel_size: 3
    stride: 2
  }
}
layer {
  name: "inception_4a/1x1"
  type: "Convolution"
  bottom: "pool3/3x3_s2"
  top: "inception_4a/1x1"
  param {
    lr_mult: 1
    decay_mult: 1
  }
  param {
    lr_mult: 2
    decay_mult: 0
  }
  convolution_param {
    num_output: 192
    kernel_size: 1
    weight_filler {
      type: "xavier"
      std: 0.03
    }
    bias_filler {
      type: "constant"
      value: 0.2
    }
  }
}
layer {
  name: "inception_4a/relu_1x1"
  type: "ReLU"
  bottom: "inception_4a/1x1"
  top: "inception_4a/1x1"
}
layer {
  name: "inception_4a/3x3_reduce"
  type: "Convolution"
  bottom: "pool3/3x3_s2"
  top: "inception_4a/3x3_reduce"
  param {
    lr_mult: 1
    decay_mult: 1
  }
  param {
    lr_mult: 2
    decay_mult: 0
  }
  convolution_param {
    num_output: 96
    kernel_size: 1
    weight_filler {
      type: "xavier"
      std: 0.09
    }
    bias_filler {
      type: "constant"
      value: 0.2
    }
  }
}
layer {
  name: "inception_4a/relu_3x3_reduce"
  type: "ReLU"
  bottom: "inception_4a/3x3_reduce"
  top: "inception_4a/3x3_reduce"
}
layer {
  name: "inception_4a/3x3"
  type: "Convolution"
  bottom: "inception_4a/3x3_reduce"
  top: "inception_4a/3x3"
  param {
    lr_mult: 1
    decay_mult: 1
  }
  param {
    lr_mult: 2
    decay_mult: 0
  }
  convolution_param {
    num_output: 208
    pad: 1
    kernel_size: 3
    weight_filler {
      type: "xavier"
      std: 0.03
    }
    bias_filler {
      type: "constant"
      value: 0.2
    }
  }
}
layer {
  name: "inception_4a/relu_3x3"
  type: "ReLU"
  bottom: "inception_4a/3x3"
  top: "inception_4a/3x3"
}
layer {
  name: "inception_4a/5x5_reduce"
  type: "Convolution"
  bottom: "pool3/3x3_s2"
  top: "inception_4a/5x5_reduce"
  param {
    lr_mult: 1
    decay_mult: 1
  }
  param {
    lr_mult: 2
    decay_mult: 0
  }
  convolution_param {
    num_output: 16
    kernel_size: 1
    weight_filler {
      type: "xavier"
      std: 0.2
    }
    bias_filler {
      type: "constant"
      value: 0.2
    }
  }
}
layer {
  name: "inception_4a/relu_5x5_reduce"
  type: "ReLU"
  bottom: "inception_4a/5x5_reduce"
  top: "inception_4a/5x5_reduce"
}
layer {
  name: "inception_4a/5x5"
  type: "Convolution"
  bottom: "inception_4a/5x5_reduce"
  top: "inception_4a/5x5"
  param {
    lr_mult: 1
    decay_mult: 1
  }
  param {
    lr_mult: 2
    decay_mult: 0
  }
  convolution_param {
    num_output: 48
    pad: 2
    kernel_size: 5
    weight_filler {
      type: "xavier"
      std: 0.03
    }
    bias_filler {
      type: "constant"
      value: 0.2
    }
  }
}
layer {
  name: "inception_4a/relu_5x5"
  type: "ReLU"
  bottom: "inception_4a/5x5"
  top: "inception_4a/5x5"
}
layer {
  name: "inception_4a/pool"
  type: "Pooling"
  bottom: "pool3/3x3_s2"
  top: "inception_4a/pool"
  pooling_param {
    pool: MAX
    kernel_size: 3
    stride: 1
    pad: 1
  }
}
layer {
  name: "inception_4a/pool_proj"
  type: "Convolution"
  bottom: "inception_4a/pool"
  top: "inception_4a/pool_proj"
  param {
    lr_mult: 1
    decay_mult: 1
  }
  param {
    lr_mult: 2
    decay_mult: 0
  }
  convolution_param {
    num_output: 64
    kernel_size: 1
    weight_filler {
      type: "xavier"
      std: 0.1
    }
    bias_filler {
      type: "constant"
      value: 0.2
    }
  }
}
layer {
  name: "inception_4a/relu_pool_proj"
  type: "ReLU"
  bottom: "inception_4a/pool_proj"
  top: "inception_4a/pool_proj"
}
layer {
  name: "inception_4a/output"
  type: "Concat"
  bottom: "inception_4a/1x1"
  bottom: "inception_4a/3x3"
  bottom: "inception_4a/5x5"
  bottom: "inception_4a/pool_proj"
  top: "inception_4a/output"
}
layer {
  name: "inception_4b/1x1"
  type: "Convolution"
  bottom: "inception_4a/output"
  top: "inception_4b/1x1"
  param {
    lr_mult: 1
    decay_mult: 1
  }
  param {
    lr_mult: 2
    decay_mult: 0
  }
  convolution_param {
    num_output: 160
    kernel_size: 1
    weight_filler {
      type: "xavier"
      std: 0.03
    }
    bias_filler {
      type: "constant"
      value: 0.2
    }
  }
}
layer {
  name: "inception_4b/relu_1x1"
  type: "ReLU"
  bottom: "inception_4b/1x1"
  top: "inception_4b/1x1"
}
layer {
  name: "inception_4b/3x3_reduce"
  type: "Convolution"
  bottom: "inception_4a/output"
  top: "inception_4b/3x3_reduce"
  param {
    lr_mult: 1
    decay_mult: 1
  }
  param {
    lr_mult: 2
    decay_mult: 0
  }
  convolution_param {
    num_output: 112
    kernel_size: 1
    weight_filler {
      type: "xavier"
      std: 0.09
    }
    bias_filler {
      type: "constant"
      value: 0.2
    }
  }
}
layer {
  name: "inception_4b/relu_3x3_reduce"
  type: "ReLU"
  bottom: "inception_4b/3x3_reduce"
  top: "inception_4b/3x3_reduce"
}
layer {
  name: "inception_4b/3x3"
  type: "Convolution"
  bottom: "inception_4b/3x3_reduce"
  top: "inception_4b/3x3"
  param {
    lr_mult: 1
    decay_mult: 1
  }
  param {
    lr_mult: 2
    decay_mult: 0
  }
  convolution_param {
    num_output: 224
    pad: 1
    kernel_size: 3
    weight_filler {
      type: "xavier"
      std: 0.03
    }
    bias_filler {
      type: "constant"
      value: 0.2
    }
  }
}
layer {
  name: "inception_4b/relu_3x3"
  type: "ReLU"
  bottom: "inception_4b/3x3"
  top: "inception_4b/3x3"
}
layer {
  name: "inception_4b/5x5_reduce"
  type: "Convolution"
  bottom: "inception_4a/output"
  top: "inception_4b/5x5_reduce"
  param {
    lr_mult: 1
    decay_mult: 1
  }
  param {
    lr_mult: 2
    decay_mult: 0
  }
  convolution_param {
    num_output: 24
    kernel_size: 1
    weight_filler {
      type: "xavier"
      std: 0.2
    }
    bias_filler {
      type: "constant"
      value: 0.2
    }
  }
}
layer {
  name: "inception_4b/relu_5x5_reduce"
  type: "ReLU"
  bottom: "inception_4b/5x5_reduce"
  top: "inception_4b/5x5_reduce"
}
layer {
  name: "inception_4b/5x5"
  type: "Convolution"
  bottom: "inception_4b/5x5_reduce"
  top: "inception_4b/5x5"
  param {
    lr_mult: 1
    decay_mult: 1
  }
  param {
    lr_mult: 2
    decay_mult: 0
  }
  convolution_param {
    num_output: 64
    pad: 2
    kernel_size: 5
    weight_filler {
      type: "xavier"
      std: 0.03
    }
    bias_filler {
      type: "constant"
      value: 0.2
    }
  }
}
layer {
  name: "inception_4b/relu_5x5"
  type: "ReLU"
  bottom: "inception_4b/5x5"
  top: "inception_4b/5x5"
}
layer {
  name: "inception_4b/pool"
  type: "Pooling"
  bottom: "inception_4a/output"
  top: "inception_4b/pool"
  pooling_param {
    pool: MAX
    kernel_size: 3
    stride: 1
    pad: 1
  }
}
layer {
  name: "inception_4b/pool_proj"
  type: "Convolution"
  bottom: "inception_4b/pool"
  top: "inception_4b/pool_proj"
  param {
    lr_mult: 1
    decay_mult: 1
  }
  param {
    lr_mult: 2
    decay_mult: 0
  }
  convolution_param {
    num_output: 64
    kernel_size: 1
    weight_filler {
      type: "xavier"
      std: 0.1
    }
    bias_filler {
      type: "constant"
      value: 0.2
    }
  }
}
layer {
  name: "inception_4b/relu_pool_proj"
  type: "ReLU"
  bottom: "inception_4b/pool_proj"
  top: "inception_4b/pool_proj"
}
layer {
  name: "inception_4b/output"
  type: "Concat"
  bottom: "inception_4b/1x1"
  bottom: "inception_4b/3x3"
  bottom: "inception_4b/5x5"
  bottom: "inception_4b/pool_proj"
  top: "inception_4b/output"
}
layer {
  name: "inception_4c/1x1"
  type: "Convolution"
  bottom: "inception_4b/output"
  top: "inception_4c/1x1"
  param {
    lr_mult: 1
    decay_mult: 1
  }
  param {
    lr_mult: 2
    decay_mult: 0
  }
  convolution_param {
    num_output: 128
    kernel_size: 1
    weight_filler {
      type: "xavier"
      std: 0.03
    }
    bias_filler {
      type: "constant"
      value: 0.2
    }
  }
}
layer {
  name: "inception_4c/relu_1x1"
  type: "ReLU"
  bottom: "inception_4c/1x1"
  top: "inception_4c/1x1"
}
layer {
  name: "inception_4c/3x3_reduce"
  type: "Convolution"
  bottom: "inception_4b/output"
  top: "inception_4c/3x3_reduce"
  param {
    lr_mult: 1
    decay_mult: 1
  }
  param {
    lr_mult: 2
    decay_mult: 0
  }
  convolution_param {
    num_output: 128
    kernel_size: 1
    weight_filler {
      type: "xavier"
      std: 0.09
    }
    bias_filler {
      type: "constant"
      value: 0.2
    }
  }
}
layer {
  name: "inception_4c/relu_3x3_reduce"
  type: "ReLU"
  bottom: "inception_4c/3x3_reduce"
  top: "inception_4c/3x3_reduce"
}
layer {
  name: "inception_4c/3x3"
  type: "Convolution"
  bottom: "inception_4c/3x3_reduce"
  top: "inception_4c/3x3"
  param {
    lr_mult: 1
    decay_mult: 1
  }
  param {
    lr_mult: 2
    decay_mult: 0
  }
  convolution_param {
    num_output: 256
    pad: 1
    kernel_size: 3
    weight_filler {
      type: "xavier"
      std: 0.03
    }
    bias_filler {
      type: "constant"
      value: 0.2
    }
  }
}
layer {
  name: "inception_4c/relu_3x3"
  type: "ReLU"
  bottom: "inception_4c/3x3"
  top: "inception_4c/3x3"
}
layer {
  name: "inception_4c/5x5_reduce"
  type: "Convolution"
  bottom: "inception_4b/output"
  top: "inception_4c/5x5_reduce"
  param {
    lr_mult: 1
    decay_mult: 1
  }
  param {
    lr_mult: 2
    decay_mult: 0
  }
  convolution_param {
    num_output: 24
    kernel_size: 1
    weight_filler {
      type: "xavier"
      std: 0.2
    }
    bias_filler {
      type: "constant"
      value: 0.2
    }
  }
}
layer {
  name: "inception_4c/relu_5x5_reduce"
  type: "ReLU"
  bottom: "inception_4c/5x5_reduce"
  top: "inception_4c/5x5_reduce"
}
layer {
  name: "inception_4c/5x5"
  type: "Convolution"
  bottom: "inception_4c/5x5_reduce"
  top: "inception_4c/5x5"
  param {
    lr_mult: 1
    decay_mult: 1
  }
  param {
    lr_mult: 2
    decay_mult: 0
  }
  convolution_param {
    num_output: 64
    pad: 2
    kernel_size: 5
    weight_filler {
      type: "xavier"
      std: 0.03
    }
    bias_filler {
      type: "constant"
      value: 0.2
    }
  }
}
layer {
  name: "inception_4c/relu_5x5"
  type: "ReLU"
  bottom: "inception_4c/5x5"
  top: "inception_4c/5x5"
}
layer {
  name: "inception_4c/pool"
  type: "Pooling"
  bottom: "inception_4b/output"
  top: "inception_4c/pool"
  pooling_param {
    pool: MAX
    kernel_size: 3
    stride: 1
    pad: 1
  }
}
layer {
  name: "inception_4c/pool_proj"
  type: "Convolution"
  bottom: "inception_4c/pool"
  top: "inception_4c/pool_proj"
  param {
    lr_mult: 1
    decay_mult: 1
  }
  param {
    lr_mult: 2
    decay_mult: 0
  }
  convolution_param {
    num_output: 64
    kernel_size: 1
    weight_filler {
      type: "xavier"
      std: 0.1
    }
    bias_filler {
      type: "constant"
      value: 0.2
    }
  }
}
layer {
  name: "inception_4c/relu_pool_proj"
  type: "ReLU"
  bottom: "inception_4c/pool_proj"
  top: "inception_4c/pool_proj"
}
layer {
  name: "inception_4c/output"
  type: "Concat"
  bottom: "inception_4c/1x1"
  bottom: "inception_4c/3x3"
  bottom: "inception_4c/5x5"
  bottom: "inception_4c/pool_proj"
  top: "inception_4c/output"
}
layer {
  name: "inception_4d/1x1"
  type: "Convolution"
  bottom: "inception_4c/output"
  top: "inception_4d/1x1"
  param {
    lr_mult: 1
    decay_mult: 1
  }
  param {
    lr_mult: 2
    decay_mult: 0
  }
  convolution_param {
    num_output: 112
    kernel_size: 1
    weight_filler {
      type: "xavier"
      std: 0.03
    }
    bias_filler {
      type: "constant"
      value: 0.2
    }
  }
}
layer {
  name: "inception_4d/relu_1x1"
  type: "ReLU"
  bottom: "inception_4d/1x1"
  top: "inception_4d/1x1"
}
layer {
  name: "inception_4d/3x3_reduce"
  type: "Convolution"
  bottom: "inception_4c/output"
  top: "inception_4d/3x3_reduce"
  param {
    lr_mult: 1
    decay_mult: 1
  }
  param {
    lr_mult: 2
    decay_mult: 0
  }
  convolution_param {
    num_output: 144
    kernel_size: 1
    weight_filler {
      type: "xavier"
      std: 0.09
    }
    bias_filler {
      type: "constant"
      value: 0.2
    }
  }
}
layer {
  name: "inception_4d/relu_3x3_reduce"
  type: "ReLU"
  bottom: "inception_4d/3x3_reduce"
  top: "inception_4d/3x3_reduce"
}
layer {
  name: "inception_4d/3x3"
  type: "Convolution"
  bottom: "inception_4d/3x3_reduce"
  top: "inception_4d/3x3"
  param {
    lr_mult: 1
    decay_mult: 1
  }
  param {
    lr_mult: 2
    decay_mult: 0
  }
  convolution_param {
    num_output: 288
    pad: 1
    kernel_size: 3
    weight_filler {
      type: "xavier"
      std: 0.03
    }
    bias_filler {
      type: "constant"
      value: 0.2
    }
  }
}
layer {
  name: "inception_4d/relu_3x3"
  type: "ReLU"
  bottom: "inception_4d/3x3"
  top: "inception_4d/3x3"
}
layer {
  name: "inception_4d/5x5_reduce"
  type: "Convolution"
  bottom: "inception_4c/output"
  top: "inception_4d/5x5_reduce"
  param {
    lr_mult: 1
    decay_mult: 1
  }
  param {
    lr_mult: 2
    decay_mult: 0
  }
  convolution_param {
    num_output: 32
    kernel_size: 1
    weight_filler {
      type: "xavier"
      std: 0.2
    }
    bias_filler {
      type: "constant"
      value: 0.2
    }
  }
}
layer {
  name: "inception_4d/relu_5x5_reduce"
  type: "ReLU"
  bottom: "inception_4d/5x5_reduce"
  top: "inception_4d/5x5_reduce"
}
layer {
  name: "inception_4d/5x5"
  type: "Convolution"
  bottom: "inception_4d/5x5_reduce"
  top: "inception_4d/5x5"
  param {
    lr_mult: 1
    decay_mult: 1
  }
  param {
    lr_mult: 2
    decay_mult: 0
  }
  convolution_param {
    num_output: 64
    pad: 2
    kernel_size: 5
    weight_filler {
      type: "xavier"
      std: 0.03
    }
    bias_filler {
      type: "constant"
      value: 0.2
    }
  }
}
layer {
  name: "inception_4d/relu_5x5"
  type: "ReLU"
  bottom: "inception_4d/5x5"
  top: "inception_4d/5x5"
}
layer {
  name: "inception_4d/pool"
  type: "Pooling"
  bottom: "inception_4c/output"
  top: "inception_4d/pool"
  pooling_param {
    pool: MAX
    kernel_size: 3
    stride: 1
    pad: 1
  }
}
layer {
  name: "inception_4d/pool_proj"
  type: "Convolution"
  bottom: "inception_4d/pool"
  top: "inception_4d/pool_proj"
  param {
    lr_mult: 1
    decay_mult: 1
  }
  param {
    lr_mult: 2
    decay_mult: 0
  }
  convolution_param {
    num_output: 64
    kernel_size: 1
    weight_filler {
      type: "xavier"
      std: 0.1
    }
    bias_filler {
      type: "constant"
      value: 0.2
    }
  }
}
layer {
  name: "inception_4d/relu_pool_proj"
  type: "ReLU"
  bottom: "inception_4d/pool_proj"
  top: "inception_4d/pool_proj"
}
layer {
  name: "inception_4d/output"
  type: "Concat"
  bottom: "inception_4d/1x1"
  bottom: "inception_4d/3x3"
  bottom: "inception_4d/5x5"
  bottom: "inception_4d/pool_proj"
  top: "inception_4d/output"
}
layer {
  name: "inception_4e/1x1"
  type: "Convolution"
  bottom: "inception_4d/output"
  top: "inception_4e/1x1"
  param {
    lr_mult: 1
    decay_mult: 1
  }
  param {
    lr_mult: 2
    decay_mult: 0
  }
  convolution_param {
    num_output: 256
    kernel_size: 1
    weight_filler {
      type: "xavier"
      std: 0.03
    }
    bias_filler {
      type: "constant"
      value: 0.2
    }
  }
}
layer {
  name: "inception_4e/relu_1x1"
  type: "ReLU"
  bottom: "inception_4e/1x1"
  top: "inception_4e/1x1"
}
layer {
  name: "inception_4e/3x3_reduce"
  type: "Convolution"
  bottom: "inception_4d/output"
  top: "inception_4e/3x3_reduce"
  param {
    lr_mult: 1
    decay_mult: 1
  }
  param {
    lr_mult: 2
    decay_mult: 0
  }
  convolution_param {
    num_output: 160
    kernel_size: 1
    weight_filler {
      type: "xavier"
      std: 0.09
    }
    bias_filler {
      type: "constant"
      value: 0.2
    }
  }
}
layer {
  name: "inception_4e/relu_3x3_reduce"
  type: "ReLU"
  bottom: "inception_4e/3x3_reduce"
  top: "inception_4e/3x3_reduce"
}
layer {
  name: "inception_4e/3x3"
  type: "Convolution"
  bottom: "inception_4e/3x3_reduce"
  top: "inception_4e/3x3"
  param {
    lr_mult: 1
    decay_mult: 1
  }
  param {
    lr_mult: 2
    decay_mult: 0
  }
  convolution_param {
    num_output: 320
    pad: 1
    kernel_size: 3
    weight_filler {
      type: "xavier"
      std: 0.03
    }
    bias_filler {
      type: "constant"
      value: 0.2
    }
  }
}
layer {
  name: "inception_4e/relu_3x3"
  type: "ReLU"
  bottom: "inception_4e/3x3"
  top: "inception_4e/3x3"
}
layer {
  name: "inception_4e/5x5_reduce"
  type: "Convolution"
  bottom: "inception_4d/output"
  top: "inception_4e/5x5_reduce"
  param {
    lr_mult: 1
    decay_mult: 1
  }
  param {
    lr_mult: 2
    decay_mult: 0
  }
  convolution_param {
    num_output: 32
    kernel_size: 1
    weight_filler {
      type: "xavier"
      std: 0.2
    }
    bias_filler {
      type: "constant"
      value: 0.2
    }
  }
}
layer {
  name: "inception_4e/relu_5x5_reduce"
  type: "ReLU"
  bottom: "inception_4e/5x5_reduce"
  top: "inception_4e/5x5_reduce"
}
layer {
  name: "inception_4e/5x5"
  type: "Convolution"
  bottom: "inception_4e/5x5_reduce"
  top: "inception_4e/5x5"
  param {
    lr_mult: 1
    decay_mult: 1
  }
  param {
    lr_mult: 2
    decay_mult: 0
  }
  convolution_param {
    num_output: 128
    pad: 2
    kernel_size: 5
    weight_filler {
      type: "xavier"
      std: 0.03
    }
    bias_filler {
      type: "constant"
      value: 0.2
    }
  }
}
layer {
  name: "inception_4e/relu_5x5"
  type: "ReLU"
  bottom: "inception_4e/5x5"
  top: "inception_4e/5x5"
}
layer {
  name: "inception_4e/pool"
  type: "Pooling"
  bottom: "inception_4d/output"
  top: "inception_4e/pool"
  pooling_param {
    pool: MAX
    kernel_size: 3
    stride: 1
    pad: 1
  }
}
layer {
  name: "inception_4e/pool_proj"
  type: "Convolution"
  bottom: "inception_4e/pool"
  top: "inception_4e/pool_proj"
  param {
    lr_mult: 1
    decay_mult: 1
  }
  param {
    lr_mult: 2
    decay_mult: 0
  }
  convolution_param {
    num_output: 128
    kernel_size: 1
    weight_filler {
      type: "xavier"
      std: 0.1
    }
    bias_filler {
      type: "constant"
      value: 0.2
    }
  }
}
layer {
  name: "inception_4e/relu_pool_proj"
  type: "ReLU"
  bottom: "inception_4e/pool_proj"
  top: "inception_4e/pool_proj"
}
layer {
  name: "inception_4e/output"
  type: "Concat"
  bottom: "inception_4e/1x1"
  bottom: "inception_4e/3x3"
  bottom: "inception_4e/5x5"
  bottom: "inception_4e/pool_proj"
  top: "inception_4e/output"
}
layer {
  name: "pool4/3x3_s2"
  type: "Pooling"
  bottom: "inception_4e/output"
  top: "pool4/3x3_s2"
  pooling_param {
    pool: MAX
    kernel_size: 3
    stride: 2
  }
}
layer {
  name: "inception_5a/1x1"
  type: "Convolution"
  bottom: "pool4/3x3_s2"
  top: "inception_5a/1x1"
  param {
    lr_mult: 1
    decay_mult: 1
  }
  param {
    lr_mult: 2
    decay_mult: 0
  }
  convolution_param {
    num_output: 256
    kernel_size: 1
    weight_filler {
      type: "xavier"
      std: 0.03
    }
    bias_filler {
      type: "constant"
      value: 0.2
    }
  }
}
layer {
  name: "inception_5a/relu_1x1"
  type: "ReLU"
  bottom: "inception_5a/1x1"
  top: "inception_5a/1x1"
}
layer {
  name: "inception_5a/3x3_reduce"
  type: "Convolution"
  bottom: "pool4/3x3_s2"
  top: "inception_5a/3x3_reduce"
  param {
    lr_mult: 1
    decay_mult: 1
  }
  param {
    lr_mult: 2
    decay_mult: 0
  }
  convolution_param {
    num_output: 160
    kernel_size: 1
    weight_filler {
      type: "xavier"
      std: 0.09
    }
    bias_filler {
      type: "constant"
      value: 0.2
    }
  }
}
layer {
  name: "inception_5a/relu_3x3_reduce"
  type: "ReLU"
  bottom: "inception_5a/3x3_reduce"
  top: "inception_5a/3x3_reduce"
}
layer {
  name: "inception_5a/3x3"
  type: "Convolution"
  bottom: "inception_5a/3x3_reduce"
  top: "inception_5a/3x3"
  param {
    lr_mult: 1
    decay_mult: 1
  }
  param {
    lr_mult: 2
    decay_mult: 0
  }
  convolution_param {
    num_output: 320
    pad: 1
    kernel_size: 3
    weight_filler {
      type: "xavier"
      std: 0.03
    }
    bias_filler {
      type: "constant"
      value: 0.2
    }
  }
}
layer {
  name: "inception_5a/relu_3x3"
  type: "ReLU"
  bottom: "inception_5a/3x3"
  top: "inception_5a/3x3"
}
layer {
  name: "inception_5a/5x5_reduce"
  type: "Convolution"
  bottom: "pool4/3x3_s2"
  top: "inception_5a/5x5_reduce"
  param {
    lr_mult: 1
    decay_mult: 1
  }
  param {
    lr_mult: 2
    decay_mult: 0
  }
  convolution_param {
    num_output: 32
    kernel_size: 1
    weight_filler {
      type: "xavier"
      std: 0.2
    }
    bias_filler {
      type: "constant"
      value: 0.2
    }
I0903 16:45:35.088282 31317 layer_factory.hpp:77] Creating layer data
I0903 16:45:35.088310 31317 net.cpp:91] Creating Layer data
I0903 16:45:35.088320 31317 net.cpp:399] data -> data
I0903 16:45:35.092726 31321 net.cpp:49] Initializing net from parameters: 
name: "GoogleNet"
state {
  phase: TEST
}
layer {
  name: "data"
  type: "Input"
  top: "data"
  input_param {
    shape {
      dim: 10
      dim: 3
      dim: 224
      dim: 224
    }
  }
}
layer {
  name: "conv1/7x7_s2"
  type: "Convolution"
  bottom: "data"
  top: "conv1/7x7_s2"
  param {
    lr_mult: 1
    decay_mult: 1
  }
  param {
    lr_mult: 2
    decay_mult: 0
  }
  convolution_param {
    num_output: 64
    pad: 3
    kernel_size: 7
    stride: 2
    weight_filler {
      type: "xavier"
      std: 0.1
    }
    bias_filler {
      type: "constant"
      value: 0.2
    }
  }
}
layer {
  name: "conv1/relu_7x7"
  type: "ReLU"
  bottom: "conv1/7x7_s2"
  top: "conv1/7x7_s2"
}
layer {
  name: "pool1/3x3_s2"
  type: "Pooling"
  bottom: "conv1/7x7_s2"
  top: "pool1/3x3_s2"
  pooling_param {
    pool: MAX
    kernel_size: 3
    stride: 2
  }
}
layer {
  name: "pool1/norm1"
  type: "LRN"
  bottom: "pool1/3x3_s2"
  top: "pool1/norm1"
  lrn_param {
    local_size: 5
    alpha: 0.0001
    beta: 0.75
  }
}
layer {
  name: "conv2/3x3_reduce"
  type: "Convolution"
  bottom: "pool1/norm1"
  top: "conv2/3x3_reduce"
  param {
    lr_mult: 1
    decay_mult: 1
  }
  param {
    lr_mult: 2
    decay_mult: 0
  }
  convolution_param {
    num_output: 64
    kernel_size: 1
    weight_filler {
      type: "xavier"
      std: 0.1
    }
    bias_filler {
      type: "constant"
      value: 0.2
    }
  }
}
layer {
  name: "conv2/relu_3x3_reduce"
  type: "ReLU"
  bottom: "conv2/3x3_reduce"
  top: "conv2/3x3_reduce"
}
layer {
  name: "conv2/3x3"
  type: "Convolution"
  bottom: "conv2/3x3_reduce"
  top: "conv2/3x3"
  param {
    lr_mult: 1
    decay_mult: 1
  }
  param {
    lr_mult: 2
    decay_mult: 0
  }
  convolution_param {
    num_output: 192
    pad: 1
    kernel_size: 3
    weight_filler {
      type: "xavier"
      std: 0.03
    }
    bias_filler {
      type: "constant"
      value: 0.2
    }
  }
}
layer {
  name: "conv2/relu_3x3"
  type: "ReLU"
  bottom: "conv2/3x3"
  top: "conv2/3x3"
}
layer {
  name: "conv2/norm2"
  type: "LRN"
  bottom: "conv2/3x3"
  top: "conv2/norm2"
  lrn_param {
    local_size: 5
    alpha: 0.0001
    beta: 0.75
  }
}
layer {
  name: "pool2/3x3_s2"
  type: "Pooling"
  bottom: "conv2/norm2"
  top: "pool2/3x3_s2"
  pooling_param {
    pool: MAX
    kernel_size: 3
    stride: 2
  }
}
layer {
  name: "inception_3a/1x1"
  type: "Convolution"
  bottom: "pool2/3x3_s2"
  top: "inception_3a/1x1"
  param {
    lr_mult: 1
    decay_mult: 1
  }
  param {
    lr_mult: 2
    decay_mult: 0
  }
  convolution_param {
    num_output: 64
    kernel_size: 1
    weight_filler {
      type: "xavier"
      std: 0.03
    }
    bias_filler {
      type: "constant"
      value: 0.2
    }
  }
}
layer {
  name: "inception_3a/relu_1x1"
  type: "ReLU"
  bottom: "inception_3a/1x1"
  top: "inception_3a/1x1"
}
layer {
  name: "inception_3a/3x3_reduce"
  type: "Convolution"
  bottom: "pool2/3x3_s2"
  top: "inception_3a/3x3_reduce"
  param {
    lr_mult: 1
    decay_mult: 1
  }
  param {
    lr_mult: 2
    decay_mult: 0
  }
  convolution_param {
    num_output: 96
    kernel_size: 1
    weight_filler {
      type: "xavier"
      std: 0.09
    }
    bias_filler {
      type: "constant"
      value: 0.2
    }
  }
}
layer {
  name: "inception_3a/relu_3x3_reduce"
  type: "ReLU"
  bottom: "inception_3a/3x3_reduce"
  top: "inception_3a/3x3_reduce"
}
layer {
  name: "inception_3a/3x3"
  type: "Convolution"
  bottom: "inception_3a/3x3_reduce"
  top: "inception_3a/3x3"
  param {
    lr_mult: 1
    decay_mult: 1
  }
  param {
    lr_mult: 2
    decay_mult: 0
  }
  convolution_param {
    num_output: 128
    pad: 1
    kernel_size: 3
    weight_filler {
      type: "xavier"
      std: 0.03
    }
    bias_filler {
      type: "constant"
      value: 0.2
    }
  }
}
layer {
  name: "inception_3a/relu_3x3"
  type: "ReLU"
  bottom: "inception_3a/3x3"
  top: "inception_3a/3x3"
}
layer {
  name: "inception_3a/5x5_reduce"
  type: "Convolution"
  bottom: "pool2/3x3_s2"
  top: "inception_3a/5x5_reduce"
  param {
    lr_mult: 1
    decay_mult: 1
  }
  param {
    lr_mult: 2
    decay_mult: 0
  }
  convolution_param {
    num_output: 16
    kernel_size: 1
    weight_filler {
      type: "xavier"
      std: 0.2
    }
    bias_filler {
      type: "constant"
      value: 0.2
    }
  }
}
layer {
  name: "inception_3a/relu_5x5_reduce"
  type: "ReLU"
  bottom: "inception_3a/5x5_reduce"
  top: "inception_3a/5x5_reduce"
}
layer {
  name: "inception_3a/5x5"
  type: "Convolution"
  bottom: "inception_3a/5x5_reduce"
  top: "inception_3a/5x5"
  param {
    lr_mult: 1
    decay_mult: 1
  }
  param {
    lr_mult: 2
    decay_mult: 0
  }
  convolution_param {
    num_output: 32
    pad: 2
    kernel_size: 5
    weight_filler {
      type: "xavier"
      std: 0.03
    }
    bias_filler {
      type: "constant"
      value: 0.2
    }
  }
}
layer {
  name: "inception_3a/relu_5x5"
  type: "ReLU"
  bottom: "inception_3a/5x5"
  top: "inception_3a/5x5"
}
layer {
  name: "inception_3a/pool"
  type: "Pooling"
  bottom: "pool2/3x3_s2"
  top: "inception_3a/pool"
  pooling_param {
    pool: MAX
    kernel_size: 3
    stride: 1
    pad: 1
  }
}
layer {
  name: "inception_3a/pool_proj"
  type: "Convolution"
  bottom: "inception_3a/pool"
  top: "inception_3a/pool_proj"
  param {
    lr_mult: 1
    decay_mult: 1
  }
  param {
    lr_mult: 2
    decay_mult: 0
  }
  convolution_param {
    num_output: 32
    kernel_size: 1
    weight_filler {
      type: "xavier"
      std: 0.1
    }
    bias_filler {
      type: "constant"
      value: 0.2
    }
  }
}
layer {
  name: "inception_3a/relu_pool_proj"
  type: "ReLU"
  bottom: "inception_3a/pool_proj"
  top: "inception_3a/pool_proj"
}
layer {
  name: "inception_3a/output"
  type: "Concat"
  bottom: "inception_3a/1x1"
  bottom: "inception_3a/3x3"
  bottom: "inception_3a/5x5"
  bottom: "inception_3a/pool_proj"
  top: "inception_3a/output"
}
layer {
  name: "inception_3b/1x1"
  type: "Convolution"
  bottom: "inception_3a/output"
  top: "inception_3b/1x1"
  param {
    lr_mult: 1
    decay_mult: 1
  }
  param {
    lr_mult: 2
    decay_mult: 0
  }
  convolution_param {
    num_output: 128
    kernel_size: 1
    weight_filler {
      type: "xavier"
      std: 0.03
    }
    bias_filler {
      type: "constant"
      value: 0.2
    }
  }
}
layer {
  name: "inception_3b/relu_1x1"
  type: "ReLU"
  bottom: "inception_3b/1x1"
  top: "inception_3b/1x1"
}
layer {
  name: "inception_3b/3x3_reduce"
  type: "Convolution"
  bottom: "inception_3a/output"
  top: "inception_3b/3x3_reduce"
  param {
    lr_mult: 1
    decay_mult: 1
  }
  param {
    lr_mult: 2
    decay_mult: 0
  }
  convolution_param {
    num_output: 128
    kernel_size: 1
    weight_filler {
      type: "xavier"
      std: 0.09
    }
    bias_filler {
      type: "constant"
      value: 0.2
    }
  }
}
layer {
  name: "inception_3b/relu_3x3_reduce"
  type: "ReLU"
  bottom: "inception_3b/3x3_reduce"
  top: "inception_3b/3x3_reduce"
}
layer {
  name: "inception_3b/3x3"
  type: "Convolution"
  bottom: "inception_3b/3x3_reduce"
  top: "inception_3b/3x3"
  param {
    lr_mult: 1
    decay_mult: 1
  }
  param {
    lr_mult: 2
    decay_mult: 0
  }
  convolution_param {
    num_output: 192
    pad: 1
    kernel_size: 3
    weight_filler {
      type: "xavier"
      std: 0.03
    }
    bias_filler {
      type: "constant"
      value: 0.2
    }
  }
}
layer {
  name: "inception_3b/relu_3x3"
  type: "ReLU"
  bottom: "inception_3b/3x3"
  top: "inception_3b/3x3"
}
layer {
  name: "inception_3b/5x5_reduce"
  type: "Convolution"
  bottom: "inception_3a/output"
  top: "inception_3b/5x5_reduce"
  param {
    lr_mult: 1
    decay_mult: 1
  }
  param {
    lr_mult: 2
    decay_mult: 0
  }
  convolution_param {
    num_output: 32
    kernel_size: 1
    weight_filler {
      type: "xavier"
      std: 0.2
    }
    bias_filler {
      type: "constant"
      value: 0.2
    }
  }
}
layer {
  name: "inception_3b/relu_5x5_reduce"
  type: "ReLU"
  bottom: "inception_3b/5x5_reduce"
  top: "inception_3b/5x5_reduce"
}
layer {
  name: "inception_3b/5x5"
  type: "Convolution"
  bottom: "inception_3b/5x5_reduce"
  top: "inception_3b/5x5"
  param {
    lr_mult: 1
    decay_mult: 1
  }
  param {
    lr_mult: 2
    decay_mult: 0
  }
  convolution_param {
    num_output: 96
    pad: 2
    kernel_size: 5
    weight_filler {
      type: "xavier"
      std: 0.03
    }
    bias_filler {
      type: "constant"
      value: 0.2
    }
  }
}
layer {
  name: "inception_3b/relu_5x5"
  type: "ReLU"
  bottom: "inception_3b/5x5"
  top: "inception_3b/5x5"
}
layer {
  name: "inception_3b/pool"
  type: "Pooling"
  bottom: "inception_3a/output"
  top: "inception_3b/pool"
  pooling_param {
    pool: MAX
    kernel_size: 3
    stride: 1
    pad: 1
  }
}
layer {
  name: "inception_3b/pool_proj"
  type: "Convolution"
  bottom: "inception_3b/pool"
  top: "inception_3b/pool_proj"
  param {
    lr_mult: 1
    decay_mult: 1
  }
  param {
    lr_mult: 2
    decay_mult: 0
  }
  convolution_param {
    num_output: 64
    kernel_size: 1
    weight_filler {
      type: "xavier"
      std: 0.1
    }
    bias_filler {
      type: "constant"
      value: 0.2
    }
  }
}
layer {
  name: "inception_3b/relu_pool_proj"
  type: "ReLU"
  bottom: "inception_3b/pool_proj"
  top: "inception_3b/pool_proj"
}
layer {
  name: "inception_3b/output"
  type: "Concat"
  bottom: "inception_3b/1x1"
  bottom: "inception_3b/3x3"
  bottom: "inception_3b/5x5"
  bottom: "inception_3b/pool_proj"
  top: "inception_3b/output"
}
layer {
  name: "pool3/3x3_s2"
  type: "Pooling"
  bottom: "inception_3b/output"
  top: "pool3/3x3_s2"
  pooling_param {
    pool: MAX
    kernel_size: 3
    stride: 2
  }
}
layer {
  name: "inception_4a/1x1"
  type: "Convolution"
  bottom: "pool3/3x3_s2"
  top: "inception_4a/1x1"
  param {
    lr_mult: 1
    decay_mult: 1
  }
  param {
    lr_mult: 2
    decay_mult: 0
  }
  convolution_param {
    num_output: 192
    kernel_size: 1
    weight_filler {
      type: "xavier"
      std: 0.03
    }
    bias_filler {
      type: "constant"
      value: 0.2
    }
  }
}
layer {
  name: "inception_4a/relu_1x1"
  type: "ReLU"
  bottom: "inception_4a/1x1"
  top: "inception_4a/1x1"
}
layer {
  name: "inception_4a/3x3_reduce"
  type: "Convolution"
  bottom: "pool3/3x3_s2"
  top: "inception_4a/3x3_reduce"
  param {
    lr_mult: 1
    decay_mult: 1
  }
  param {
    lr_mult: 2
    decay_mult: 0
  }
  convolution_param {
    num_output: 96
    kernel_size: 1
    weight_filler {
      type: "xavier"
      std: 0.09
    }
    bias_filler {
      type: "constant"
      value: 0.2
    }
  }
}
layer {
  name: "inception_4a/relu_3x3_reduce"
  type: "ReLU"
  bottom: "inception_4a/3x3_reduce"
  top: "inception_4a/3x3_reduce"
}
layer {
  name: "inception_4a/3x3"
  type: "Convolution"
  bottom: "inception_4a/3x3_reduce"
  top: "inception_4a/3x3"
  param {
    lr_mult: 1
    decay_mult: 1
  }
  param {
    lr_mult: 2
    decay_mult: 0
  }
  convolution_param {
    num_output: 208
    pad: 1
    kernel_size: 3
    weight_filler {
      type: "xavier"
      std: 0.03
    }
    bias_filler {
      type: "constant"
      value: 0.2
    }
  }
}
layer {
  name: "inception_4a/relu_3x3"
  type: "ReLU"
  bottom: "inception_4a/3x3"
  top: "inception_4a/3x3"
}
layer {
  name: "inception_4a/5x5_reduce"
  type: "Convolution"
  bottom: "pool3/3x3_s2"
  top: "inception_4a/5x5_reduce"
  param {
    lr_mult: 1
    decay_mult: 1
  }
  param {
    lr_mult: 2
    decay_mult: 0
  }
  convolution_param {
    num_output: 16
    kernel_size: 1
    weight_filler {
      type: "xavier"
      std: 0.2
    }
    bias_filler {
      type: "constant"
      value: 0.2
    }
  }
}
layer {
  name: "inception_4a/relu_5x5_reduce"
  type: "ReLU"
  bottom: "inception_4a/5x5_reduce"
  top: "inception_4a/5x5_reduce"
}
layer {
  name: "inception_4a/5x5"
  type: "Convolution"
  bottom: "inception_4a/5x5_reduce"
  top: "inception_4a/5x5"
  param {
    lr_mult: 1
    decay_mult: 1
  }
  param {
    lr_mult: 2
    decay_mult: 0
  }
  convolution_param {
    num_output: 48
    pad: 2
    kernel_size: 5
    weight_filler {
      type: "xavier"
      std: 0.03
    }
    bias_filler {
      type: "constant"
      value: 0.2
    }
  }
}
layer {
  name: "inception_4a/relu_5x5"
  type: "ReLU"
  bottom: "inception_4a/5x5"
  top: "inception_4a/5x5"
}
layer {
  name: "inception_4a/pool"
  type: "Pooling"
  bottom: "pool3/3x3_s2"
  top: "inception_4a/pool"
  pooling_param {
    pool: MAX
    kernel_size: 3
    stride: 1
    pad: 1
  }
}
layer {
  name: "inception_4a/pool_proj"
  type: "Convolution"
  bottom: "inception_4a/pool"
  top: "inception_4a/pool_proj"
  param {
    lr_mult: 1
    decay_mult: 1
  }
  param {
    lr_mult: 2
    decay_mult: 0
  }
  convolution_param {
    num_output: 64
    kernel_size: 1
    weight_filler {
      type: "xavier"
      std: 0.1
    }
    bias_filler {
      type: "constant"
      value: 0.2
    }
  }
}
layer {
  name: "inception_4a/relu_pool_proj"
  type: "ReLU"
  bottom: "inception_4a/pool_proj"
  top: "inception_4a/pool_proj"
}
layer {
  name: "inception_4a/output"
  type: "Concat"
  bottom: "inception_4a/1x1"
  bottom: "inception_4a/3x3"
  bottom: "inception_4a/5x5"
  bottom: "inception_4a/pool_proj"
  top: "inception_4a/output"
}
layer {
  name: "inception_4b/1x1"
  type: "Convolution"
  bottom: "inception_4a/output"
  top: "inception_4b/1x1"
  param {
    lr_mult: 1
    decay_mult: 1
  }
  param {
    lr_mult: 2
    decay_mult: 0
  }
  convolution_param {
    num_output: 160
    kernel_size: 1
    weight_filler {
      type: "xavier"
      std: 0.03
    }
    bias_filler {
      type: "constant"
      value: 0.2
    }
  }
}
layer {
  name: "inception_4b/relu_1x1"
  type: "ReLU"
  bottom: "inception_4b/1x1"
  top: "inception_4b/1x1"
}
layer {
  name: "inception_4b/3x3_reduce"
  type: "Convolution"
  bottom: "inception_4a/output"
  top: "inception_4b/3x3_reduce"
  param {
    lr_mult: 1
    decay_mult: 1
  }
  param {
    lr_mult: 2
    decay_mult: 0
  }
  convolution_param {
    num_output: 112
    kernel_size: 1
    weight_filler {
      type: "xavier"
      std: 0.09
    }
    bias_filler {
      type: "constant"
      value: 0.2
    }
  }
}
layer {
  name: "inception_4b/relu_3x3_reduce"
  type: "ReLU"
  bottom: "inception_4b/3x3_reduce"
  top: "inception_4b/3x3_reduce"
}
layer {
  name: "inception_4b/3x3"
  type: "Convolution"
  bottom: "inception_4b/3x3_reduce"
  top: "inception_4b/3x3"
  param {
    lr_mult: 1
    decay_mult: 1
  }
  param {
    lr_mult: 2
    decay_mult: 0
  }
  convolution_param {
    num_output: 224
    pad: 1
    kernel_size: 3
    weight_filler {
      type: "xavier"
      std: 0.03
    }
    bias_filler {
      type: "constant"
      value: 0.2
    }
  }
}
layer {
  name: "inception_4b/relu_3x3"
  type: "ReLU"
  bottom: "inception_4b/3x3"
  top: "inception_4b/3x3"
}
layer {
  name: "inception_4b/5x5_reduce"
  type: "Convolution"
  bottom: "inception_4a/output"
  top: "inception_4b/5x5_reduce"
  param {
    lr_mult: 1
    decay_mult: 1
  }
  param {
    lr_mult: 2
    decay_mult: 0
  }
  convolution_param {
    num_output: 24
    kernel_size: 1
    weight_filler {
      type: "xavier"
      std: 0.2
    }
    bias_filler {
      type: "constant"
      value: 0.2
    }
  }
}
layer {
  name: "inception_4b/relu_5x5_reduce"
  type: "ReLU"
  bottom: "inception_4b/5x5_reduce"
  top: "inception_4b/5x5_reduce"
}
layer {
  name: "inception_4b/5x5"
  type: "Convolution"
  bottom: "inception_4b/5x5_reduce"
  top: "inception_4b/5x5"
  param {
    lr_mult: 1
    decay_mult: 1
  }
  param {
    lr_mult: 2
    decay_mult: 0
  }
  convolution_param {
    num_output: 64
    pad: 2
    kernel_size: 5
    weight_filler {
      type: "xavier"
      std: 0.03
    }
    bias_filler {
      type: "constant"
      value: 0.2
    }
  }
}
layer {
  name: "inception_4b/relu_5x5"
  type: "ReLU"
  bottom: "inception_4b/5x5"
  top: "inception_4b/5x5"
}
layer {
  name: "inception_4b/pool"
  type: "Pooling"
  bottom: "inception_4a/output"
  top: "inception_4b/pool"
  pooling_param {
    pool: MAX
    kernel_size: 3
    stride: 1
    pad: 1
  }
}
layer {
  name: "inception_4b/pool_proj"
  type: "Convolution"
  bottom: "inception_4b/pool"
  top: "inception_4b/pool_proj"
  param {
    lr_mult: 1
    decay_mult: 1
  }
  param {
    lr_mult: 2
    decay_mult: 0
  }
  convolution_param {
    num_output: 64
    kernel_size: 1
    weight_filler {
      type: "xavier"
      std: 0.1
    }
    bias_filler {
      type: "constant"
      value: 0.2
    }
  }
}
layer {
  name: "inception_4b/relu_pool_proj"
  type: "ReLU"
  bottom: "inception_4b/pool_proj"
  top: "inception_4b/pool_proj"
}
layer {
  name: "inception_4b/output"
  type: "Concat"
  bottom: "inception_4b/1x1"
  bottom: "inception_4b/3x3"
  bottom: "inception_4b/5x5"
  bottom: "inception_4b/pool_proj"
  top: "inception_4b/output"
}
layer {
  name: "inception_4c/1x1"
  type: "Convolution"
  bottom: "inception_4b/output"
  top: "inception_4c/1x1"
  param {
    lr_mult: 1
    decay_mult: 1
  }
  param {
    lr_mult: 2
    decay_mult: 0
  }
  convolution_param {
    num_output: 128
    kernel_size: 1
    weight_filler {
      type: "xavier"
      std: 0.03
    }
    bias_filler {
      type: "constant"
      value: 0.2
    }
  }
}
layer {
  name: "inception_4c/relu_1x1"
  type: "ReLU"
  bottom: "inception_4c/1x1"
  top: "inception_4c/1x1"
}
layer {
  name: "inception_4c/3x3_reduce"
  type: "Convolution"
  bottom: "inception_4b/output"
  top: "inception_4c/3x3_reduce"
  param {
    lr_mult: 1
    decay_mult: 1
  }
  param {
    lr_mult: 2
    decay_mult: 0
  }
  convolution_param {
    num_output: 128
    kernel_size: 1
    weight_filler {
      type: "xavier"
      std: 0.09
    }
    bias_filler {
      type: "constant"
      value: 0.2
    }
  }
}
layer {
  name: "inception_4c/relu_3x3_reduce"
  type: "ReLU"
  bottom: "inception_4c/3x3_reduce"
  top: "inception_4c/3x3_reduce"
}
layer {
  name: "inception_4c/3x3"
  type: "Convolution"
  bottom: "inception_4c/3x3_reduce"
  top: "inception_4c/3x3"
  param {
    lr_mult: 1
    decay_mult: 1
  }
  param {
    lr_mult: 2
    decay_mult: 0
  }
  convolution_param {
    num_output: 256
    pad: 1
    kernel_size: 3
    weight_filler {
      type: "xavier"
      std: 0.03
    }
    bias_filler {
      type: "constant"
      value: 0.2
    }
  }
}
layer {
  name: "inception_4c/relu_3x3"
  type: "ReLU"
  bottom: "inception_4c/3x3"
  top: "inception_4c/3x3"
}
layer {
  name: "inception_4c/5x5_reduce"
  type: "Convolution"
  bottom: "inception_4b/output"
  top: "inception_4c/5x5_reduce"
  param {
    lr_mult: 1
    decay_mult: 1
  }
  param {
    lr_mult: 2
    decay_mult: 0
  }
  convolution_param {
    num_output: 24
    kernel_size: 1
    weight_filler {
      type: "xavier"
      std: 0.2
    }
    bias_filler {
      type: "constant"
      value: 0.2
    }
  }
}
layer {
  name: "inception_4c/relu_5x5_reduce"
  type: "ReLU"
  bottom: "inception_4c/5x5_reduce"
  top: "inception_4c/5x5_reduce"
}
layer {
  name: "inception_4c/5x5"
  type: "Convolution"
  bottom: "inception_4c/5x5_reduce"
  top: "inception_4c/5x5"
  param {
    lr_mult: 1
    decay_mult: 1
  }
  param {
    lr_mult: 2
    decay_mult: 0
  }
  convolution_param {
    num_output: 64
    pad: 2
    kernel_size: 5
    weight_filler {
      type: "xavier"
      std: 0.03
    }
    bias_filler {
      type: "constant"
      value: 0.2
    }
  }
}
layer {
  name: "inception_4c/relu_5x5"
  type: "ReLU"
  bottom: "inception_4c/5x5"
  top: "inception_4c/5x5"
}
layer {
  name: "inception_4c/pool"
  type: "Pooling"
  bottom: "inception_4b/output"
  top: "inception_4c/pool"
  pooling_param {
    pool: MAX
    kernel_size: 3
    stride: 1
    pad: 1
  }
}
layer {
  name: "inception_4c/pool_proj"
  type: "Convolution"
  bottom: "inception_4c/pool"
  top: "inception_4c/pool_proj"
  param {
    lr_mult: 1
    decay_mult: 1
  }
  param {
    lr_mult: 2
    decay_mult: 0
  }
  convolution_param {
    num_output: 64
    kernel_size: 1
    weight_filler {
      type: "xavier"
      std: 0.1
    }
    bias_filler {
      type: "constant"
      value: 0.2
    }
  }
}
layer {
  name: "inception_4c/relu_pool_proj"
  type: "ReLU"
  bottom: "inception_4c/pool_proj"
  top: "inception_4c/pool_proj"
}
layer {
  name: "inception_4c/output"
  type: "Concat"
  bottom: "inception_4c/1x1"
  bottom: "inception_4c/3x3"
  bottom: "inception_4c/5x5"
  bottom: "inception_4c/pool_proj"
  top: "inception_4c/output"
}
layer {
  name: "inception_4d/1x1"
  type: "Convolution"
  bottom: "inception_4c/output"
  top: "inception_4d/1x1"
  param {
    lr_mult: 1
    decay_mult: 1
  }
  param {
    lr_mult: 2
    decay_mult: 0
  }
  convolution_param {
    num_output: 112
    kernel_size: 1
    weight_filler {
      type: "xavier"
      std: 0.03
    }
    bias_filler {
      type: "constant"
      value: 0.2
    }
  }
}
layer {
  name: "inception_4d/relu_1x1"
  type: "ReLU"
  bottom: "inception_4d/1x1"
  top: "inception_4d/1x1"
}
layer {
  name: "inception_4d/3x3_reduce"
  type: "Convolution"
  bottom: "inception_4c/output"
  top: "inception_4d/3x3_reduce"
  param {
    lr_mult: 1
    decay_mult: 1
  }
  param {
    lr_mult: 2
    decay_mult: 0
  }
  convolution_param {
    num_output: 144
    kernel_size: 1
    weight_filler {
      type: "xavier"
      std: 0.09
    }
    bias_filler {
      type: "constant"
      value: 0.2
    }
  }
}
layer {
  name: "inception_4d/relu_3x3_reduce"
  type: "ReLU"
  bottom: "inception_4d/3x3_reduce"
  top: "inception_4d/3x3_reduce"
}
layer {
  name: "inception_4d/3x3"
  type: "Convolution"
  bottom: "inception_4d/3x3_reduce"
  top: "inception_4d/3x3"
  param {
    lr_mult: 1
    decay_mult: 1
  }
  param {
    lr_mult: 2
    decay_mult: 0
  }
  convolution_param {
    num_output: 288
    pad: 1
    kernel_size: 3
    weight_filler {
      type: "xavier"
      std: 0.03
    }
    bias_filler {
      type: "constant"
      value: 0.2
    }
  }
}
layer {
  name: "inception_4d/relu_3x3"
  type: "ReLU"
  bottom: "inception_4d/3x3"
  top: "inception_4d/3x3"
}
layer {
  name: "inception_4d/5x5_reduce"
  type: "Convolution"
  bottom: "inception_4c/output"
  top: "inception_4d/5x5_reduce"
  param {
    lr_mult: 1
    decay_mult: 1
  }
  param {
    lr_mult: 2
    decay_mult: 0
  }
  convolution_param {
    num_output: 32
    kernel_size: 1
    weight_filler {
      type: "xavier"
      std: 0.2
    }
    bias_filler {
      type: "constant"
      value: 0.2
    }
  }
}
layer {
  name: "inception_4d/relu_5x5_reduce"
  type: "ReLU"
  bottom: "inception_4d/5x5_reduce"
  top: "inception_4d/5x5_reduce"
}
layer {
  name: "inception_4d/5x5"
  type: "Convolution"
  bottom: "inception_4d/5x5_reduce"
  top: "inception_4d/5x5"
  param {
    lr_mult: 1
    decay_mult: 1
  }
  param {
    lr_mult: 2
    decay_mult: 0
  }
  convolution_param {
    num_output: 64
    pad: 2
    kernel_size: 5
    weight_filler {
      type: "xavier"
      std: 0.03
    }
    bias_filler {
      type: "constant"
      value: 0.2
    }
  }
}
layer {
  name: "inception_4d/relu_5x5"
  type: "ReLU"
  bottom: "inception_4d/5x5"
  top: "inception_4d/5x5"
}
layer {
  name: "inception_4d/pool"
  type: "Pooling"
  bottom: "inception_4c/output"
  top: "inception_4d/pool"
  pooling_param {
    pool: MAX
    kernel_size: 3
    stride: 1
    pad: 1
  }
}
layer {
  name: "inception_4d/pool_proj"
  type: "Convolution"
  bottom: "inception_4d/pool"
  top: "inception_4d/pool_proj"
  param {
    lr_mult: 1
    decay_mult: 1
  }
  param {
    lr_mult: 2
    decay_mult: 0
  }
  convolution_param {
    num_output: 64
    kernel_size: 1
    weight_filler {
      type: "xavier"
      std: 0.1
    }
    bias_filler {
      type: "constant"
      value: 0.2
    }
  }
}
layer {
  name: "inception_4d/relu_pool_proj"
  type: "ReLU"
  bottom: "inception_4d/pool_proj"
  top: "inception_4d/pool_proj"
}
layer {
  name: "inception_4d/output"
  type: "Concat"
  bottom: "inception_4d/1x1"
  bottom: "inception_4d/3x3"
  bottom: "inception_4d/5x5"
  bottom: "inception_4d/pool_proj"
  top: "inception_4d/output"
}
layer {
  name: "inception_4e/1x1"
  type: "Convolution"
  bottom: "inception_4d/output"
  top: "inception_4e/1x1"
  param {
    lr_mult: 1
    decay_mult: 1
  }
  param {
    lr_mult: 2
    decay_mult: 0
  }
  convolution_param {
    num_output: 256
    kernel_size: 1
    weight_filler {
      type: "xavier"
      std: 0.03
    }
    bias_filler {
      type: "constant"
      value: 0.2
    }
  }
}
layer {
  name: "inception_4e/relu_1x1"
  type: "ReLU"
  bottom: "inception_4e/1x1"
  top: "inception_4e/1x1"
}
layer {
  name: "inception_4e/3x3_reduce"
  type: "Convolution"
  bottom: "inception_4d/output"
  top: "inception_4e/3x3_reduce"
  param {
    lr_mult: 1
    decay_mult: 1
  }
  param {
    lr_mult: 2
    decay_mult: 0
  }
  convolution_param {
    num_output: 160
    kernel_size: 1
    weight_filler {
      type: "xavier"
      std: 0.09
    }
    bias_filler {
      type: "constant"
      value: 0.2
    }
  }
}
layer {
  name: "inception_4e/relu_3x3_reduce"
  type: "ReLU"
  bottom: "inception_4e/3x3_reduce"
  top: "inception_4e/3x3_reduce"
}
layer {
  name: "inception_4e/3x3"
  type: "Convolution"
  bottom: "inception_4e/3x3_reduce"
  top: "inception_4e/3x3"
  param {
    lr_mult: 1
    decay_mult: 1
  }
  param {
    lr_mult: 2
    decay_mult: 0
  }
  convolution_param {
    num_output: 320
    pad: 1
    kernel_size: 3
    weight_filler {
      type: "xavier"
      std: 0.03
    }
    bias_filler {
      type: "constant"
      value: 0.2
    }
  }
}
layer {
  name: "inception_4e/relu_3x3"
  type: "ReLU"
  bottom: "inception_4e/3x3"
  top: "inception_4e/3x3"
}
layer {
  name: "inception_4e/5x5_reduce"
  type: "Convolution"
  bottom: "inception_4d/output"
  top: "inception_4e/5x5_reduce"
  param {
    lr_mult: 1
    decay_mult: 1
  }
  param {
    lr_mult: 2
    decay_mult: 0
  }
  convolution_param {
    num_output: 32
    kernel_size: 1
    weight_filler {
      type: "xavier"
      std: 0.2
    }
    bias_filler {
      type: "constant"
      value: 0.2
    }
  }
}
layer {
  name: "inception_4e/relu_5x5_reduce"
  type: "ReLU"
  bottom: "inception_4e/5x5_reduce"
  top: "inception_4e/5x5_reduce"
}
layer {
  name: "inception_4e/5x5"
  type: "Convolution"
  bottom: "inception_4e/5x5_reduce"
  top: "inception_4e/5x5"
  param {
    lr_mult: 1
    decay_mult: 1
  }
  param {
    lr_mult: 2
    decay_mult: 0
  }
  convolution_param {
    num_output: 128
    pad: 2
    kernel_size: 5
    weight_filler {
      type: "xavier"
      std: 0.03
    }
    bias_filler {
      type: "constant"
      value: 0.2
    }
  }
}
layer {
  name: "inception_4e/relu_5x5"
  type: "ReLU"
  bottom: "inception_4e/5x5"
  top: "inception_4e/5x5"
}
layer {
  name: "inception_4e/pool"
  type: "Pooling"
  bottom: "inception_4d/output"
  top: "inception_4e/pool"
  pooling_param {
    pool: MAX
    kernel_size: 3
    stride: 1
    pad: 1
  }
}
layer {
  name: "inception_4e/pool_proj"
  type: "Convolution"
  bottom: "inception_4e/pool"
  top: "inception_4e/pool_proj"
  param {
    lr_mult: 1
    decay_mult: 1
  }
  param {
    lr_mult: 2
    decay_mult: 0
  }
  convolution_param {
    num_output: 128
    kernel_size: 1
    weight_filler {
      type: "xavier"
      std: 0.1
    }
    bias_filler {
      type: "constant"
      value: 0.2
    }
  }
}
layer {
  name: "inception_4e/relu_pool_proj"
  type: "ReLU"
  bottom: "inception_4e/pool_proj"
  top: "inception_4e/pool_proj"
}
layer {
  name: "inception_4e/output"
  type: "Concat"
  bottom: "inception_4e/1x1"
  bottom: "inception_4e/3x3"
  bottom: "inception_4e/5x5"
  bottom: "inception_4e/pool_proj"
  top: "inception_4e/output"
}
layer {
  name: "pool4/3x3_s2"
  type: "Pooling"
  bottom: "inception_4e/output"
  top: "pool4/3x3_s2"
  pooling_param {
    pool: MAX
    kernel_size: 3
    stride: 2
  }
}
layer {
  name: "inception_5a/1x1"
  type: "Convolution"
  bottom: "pool4/3x3_s2"
  top: "inception_5a/1x1"
  param {
    lr_mult: 1
    decay_mult: 1
  }
  param {
    lr_mult: 2
    decay_mult: 0
  }
  convolution_param {
    num_output: 256
    kernel_size: 1
    weight_filler {
      type: "xavier"
      std: 0.03
    }
    bias_filler {
      type: "constant"
      value: 0.2
    }
  }
}
layer {
  name: "inception_5a/relu_1x1"
  type: "ReLU"
  bottom: "inception_5a/1x1"
  top: "inception_5a/1x1"
}
layer {
  name: "inception_5a/3x3_reduce"
  type: "Convolution"
  bottom: "pool4/3x3_s2"
  top: "inception_5a/3x3_reduce"
  param {
    lr_mult: 1
    decay_mult: 1
  }
  param {
    lr_mult: 2
    decay_mult: 0
  }
  convolution_param {
    num_output: 160
    kernel_size: 1
    weight_filler {
      type: "xavier"
      std: 0.09
    }
    bias_filler {
      type: "constant"
      value: 0.2
    }
  }
}
layer {
  name: "inception_5a/relu_3x3_reduce"
  type: "ReLU"
  bottom: "inception_5a/3x3_reduce"
  top: "inception_5a/3x3_reduce"
}
layer {
  name: "inception_5a/3x3"
  type: "Convolution"
  bottom: "inception_5a/3x3_reduce"
  top: "inception_5a/3x3"
  param {
    lr_mult: 1
    decay_mult: 1
  }
  param {
    lr_mult: 2
    decay_mult: 0
  }
  convolution_param {
    num_output: 320
    pad: 1
    kernel_size: 3
    weight_filler {
      type: "xavier"
      std: 0.03
    }
    bias_filler {
      type: "constant"
      value: 0.2
    }
  }
}
layer {
  name: "inception_5a/relu_3x3"
  type: "ReLU"
  bottom: "inception_5a/3x3"
  top: "inception_5a/3x3"
}
layer {
  name: "inception_5a/5x5_reduce"
  type: "Convolution"
  bottom: "pool4/3x3_s2"
  top: "inception_5a/5x5_reduce"
  param {
    lr_mult: 1
    decay_mult: 1
  }
  param {
    lr_mult: 2
    decay_mult: 0
  }
  convolution_param {
    num_output: 32
    kernel_size: 1
    weight_filler {
      type: "xavier"
      std: 0.2
    }
    bias_filler {
      type: "constant"
      value: 0.2
    }
I0903 16:45:35.093513 31321 layer_factory.hpp:77] Creating layer data
I0903 16:45:35.093528 31321 net.cpp:91] Creating Layer data
I0903 16:45:35.093535 31321 net.cpp:399] data -> data
I0903 16:45:36.065732 31317 net.cpp:141] Setting up data
I0903 16:45:36.065815 31317 net.cpp:148] Top shape: 10 3 224 224 (1505280)
I0903 16:45:36.065822 31317 net.cpp:156] Memory required for data: 6021120
I0903 16:45:36.065856 31317 layer_factory.hpp:77] Creating layer conv1/7x7_s2
I0903 16:45:36.065907 31317 net.cpp:91] Creating Layer conv1/7x7_s2
I0903 16:45:36.065919 31317 net.cpp:425] conv1/7x7_s2 <- data
I0903 16:45:36.065935 31317 net.cpp:399] conv1/7x7_s2 -> conv1/7x7_s2
I0903 16:45:36.068591 31321 net.cpp:141] Setting up data
I0903 16:45:36.068647 31321 net.cpp:148] Top shape: 10 3 224 224 (1505280)
I0903 16:45:36.068655 31321 net.cpp:156] Memory required for data: 6021120
I0903 16:45:36.068665 31321 layer_factory.hpp:77] Creating layer conv1/7x7_s2
I0903 16:45:36.068698 31321 net.cpp:91] Creating Layer conv1/7x7_s2
I0903 16:45:36.068706 31321 net.cpp:425] conv1/7x7_s2 <- data
I0903 16:45:36.068717 31321 net.cpp:399] conv1/7x7_s2 -> conv1/7x7_s2
I0903 16:45:36.376652 31317 net.cpp:141] Setting up conv1/7x7_s2
I0903 16:45:36.376710 31317 net.cpp:148] Top shape: 10 64 112 112 (8028160)
I0903 16:45:36.376718 31317 net.cpp:156] Memory required for data: 38133760
I0903 16:45:36.376741 31317 layer_factory.hpp:77] Creating layer conv1/relu_7x7
I0903 16:45:36.376759 31317 net.cpp:91] Creating Layer conv1/relu_7x7
I0903 16:45:36.376765 31317 net.cpp:425] conv1/relu_7x7 <- conv1/7x7_s2
I0903 16:45:36.376771 31317 net.cpp:386] conv1/relu_7x7 -> conv1/7x7_s2 (in-place)
I0903 16:45:36.377158 31317 net.cpp:141] Setting up conv1/relu_7x7
I0903 16:45:36.377171 31317 net.cpp:148] Top shape: 10 64 112 112 (8028160)
I0903 16:45:36.377176 31317 net.cpp:156] Memory required for data: 70246400
I0903 16:45:36.377180 31317 layer_factory.hpp:77] Creating layer pool1/3x3_s2
I0903 16:45:36.377192 31317 net.cpp:91] Creating Layer pool1/3x3_s2
I0903 16:45:36.377197 31317 net.cpp:425] pool1/3x3_s2 <- conv1/7x7_s2
I0903 16:45:36.377203 31317 net.cpp:399] pool1/3x3_s2 -> pool1/3x3_s2
I0903 16:45:36.380620 31317 net.cpp:141] Setting up pool1/3x3_s2
I0903 16:45:36.380646 31317 net.cpp:148] Top shape: 10 64 56 56 (2007040)
I0903 16:45:36.380652 31317 net.cpp:156] Memory required for data: 78274560
I0903 16:45:36.380657 31317 layer_factory.hpp:77] Creating layer pool1/norm1
I0903 16:45:36.380672 31317 net.cpp:91] Creating Layer pool1/norm1
I0903 16:45:36.380677 31317 net.cpp:425] pool1/norm1 <- pool1/3x3_s2
I0903 16:45:36.380684 31317 net.cpp:399] pool1/norm1 -> pool1/norm1
I0903 16:45:36.387696 31317 net.cpp:141] Setting up pool1/norm1
I0903 16:45:36.387714 31317 net.cpp:148] Top shape: 10 64 56 56 (2007040)
I0903 16:45:36.387719 31317 net.cpp:156] Memory required for data: 86302720
I0903 16:45:36.387737 31317 layer_factory.hpp:77] Creating layer conv2/3x3_reduce
I0903 16:45:36.387754 31317 net.cpp:91] Creating Layer conv2/3x3_reduce
I0903 16:45:36.387759 31317 net.cpp:425] conv2/3x3_reduce <- pool1/norm1
I0903 16:45:36.387768 31317 net.cpp:399] conv2/3x3_reduce -> conv2/3x3_reduce
I0903 16:45:36.390414 31321 net.cpp:141] Setting up conv1/7x7_s2
I0903 16:45:36.390462 31321 net.cpp:148] Top shape: 10 64 112 112 (8028160)
I0903 16:45:36.390470 31321 net.cpp:156] Memory required for data: 38133760
I0903 16:45:36.390493 31321 layer_factory.hpp:77] Creating layer conv1/relu_7x7
I0903 16:45:36.390511 31321 net.cpp:91] Creating Layer conv1/relu_7x7
I0903 16:45:36.390518 31321 net.cpp:425] conv1/relu_7x7 <- conv1/7x7_s2
I0903 16:45:36.390529 31321 net.cpp:386] conv1/relu_7x7 -> conv1/7x7_s2 (in-place)
I0903 16:45:36.391039 31321 net.cpp:141] Setting up conv1/relu_7x7
I0903 16:45:36.391055 31321 net.cpp:148] Top shape: 10 64 112 112 (8028160)
I0903 16:45:36.391062 31321 net.cpp:156] Memory required for data: 70246400
I0903 16:45:36.391067 31321 layer_factory.hpp:77] Creating layer pool1/3x3_s2
I0903 16:45:36.391080 31321 net.cpp:91] Creating Layer pool1/3x3_s2
I0903 16:45:36.391085 31321 net.cpp:425] pool1/3x3_s2 <- conv1/7x7_s2
I0903 16:45:36.391093 31321 net.cpp:399] pool1/3x3_s2 -> pool1/3x3_s2
I0903 16:45:36.391319 31321 net.cpp:141] Setting up pool1/3x3_s2
I0903 16:45:36.391331 31321 net.cpp:148] Top shape: 10 64 56 56 (2007040)
I0903 16:45:36.391336 31321 net.cpp:156] Memory required for data: 78274560
I0903 16:45:36.391342 31321 layer_factory.hpp:77] Creating layer pool1/norm1
I0903 16:45:36.391355 31321 net.cpp:91] Creating Layer pool1/norm1
I0903 16:45:36.391360 31321 net.cpp:425] pool1/norm1 <- pool1/3x3_s2
I0903 16:45:36.391368 31321 net.cpp:399] pool1/norm1 -> pool1/norm1
I0903 16:45:36.391855 31317 net.cpp:141] Setting up conv2/3x3_reduce
I0903 16:45:36.391870 31317 net.cpp:148] Top shape: 10 64 56 56 (2007040)
I0903 16:45:36.391875 31317 net.cpp:156] Memory required for data: 94330880
I0903 16:45:36.391887 31317 layer_factory.hpp:77] Creating layer conv2/relu_3x3_reduce
I0903 16:45:36.391896 31317 net.cpp:91] Creating Layer conv2/relu_3x3_reduce
I0903 16:45:36.391901 31317 net.cpp:425] conv2/relu_3x3_reduce <- conv2/3x3_reduce
I0903 16:45:36.391906 31317 net.cpp:386] conv2/relu_3x3_reduce -> conv2/3x3_reduce (in-place)
I0903 16:45:36.391928 31321 net.cpp:141] Setting up pool1/norm1
I0903 16:45:36.391943 31321 net.cpp:148] Top shape: 10 64 56 56 (2007040)
I0903 16:45:36.391949 31321 net.cpp:156] Memory required for data: 86302720
I0903 16:45:36.391955 31321 layer_factory.hpp:77] Creating layer conv2/3x3_reduce
I0903 16:45:36.391974 31321 net.cpp:91] Creating Layer conv2/3x3_reduce
I0903 16:45:36.391980 31321 net.cpp:425] conv2/3x3_reduce <- pool1/norm1
I0903 16:45:36.391989 31321 net.cpp:399] conv2/3x3_reduce -> conv2/3x3_reduce
I0903 16:45:36.392510 31317 net.cpp:141] Setting up conv2/relu_3x3_reduce
I0903 16:45:36.392537 31317 net.cpp:148] Top shape: 10 64 56 56 (2007040)
I0903 16:45:36.392542 31317 net.cpp:156] Memory required for data: 102359040
I0903 16:45:36.392547 31317 layer_factory.hpp:77] Creating layer conv2/3x3
I0903 16:45:36.392565 31317 net.cpp:91] Creating Layer conv2/3x3
I0903 16:45:36.392570 31317 net.cpp:425] conv2/3x3 <- conv2/3x3_reduce
I0903 16:45:36.392577 31317 net.cpp:399] conv2/3x3 -> conv2/3x3
I0903 16:45:36.397735 31321 net.cpp:141] Setting up conv2/3x3_reduce
I0903 16:45:36.397758 31321 net.cpp:148] Top shape: 10 64 56 56 (2007040)
I0903 16:45:36.397764 31321 net.cpp:156] Memory required for data: 94330880
I0903 16:45:36.397778 31321 layer_factory.hpp:77] Creating layer conv2/relu_3x3_reduce
I0903 16:45:36.397789 31321 net.cpp:91] Creating Layer conv2/relu_3x3_reduce
I0903 16:45:36.397794 31321 net.cpp:425] conv2/relu_3x3_reduce <- conv2/3x3_reduce
I0903 16:45:36.397802 31321 net.cpp:386] conv2/relu_3x3_reduce -> conv2/3x3_reduce (in-place)
I0903 16:45:36.398447 31321 net.cpp:141] Setting up conv2/relu_3x3_reduce
I0903 16:45:36.398466 31321 net.cpp:148] Top shape: 10 64 56 56 (2007040)
I0903 16:45:36.398473 31321 net.cpp:156] Memory required for data: 102359040
I0903 16:45:36.398478 31321 layer_factory.hpp:77] Creating layer conv2/3x3
I0903 16:45:36.398497 31321 net.cpp:91] Creating Layer conv2/3x3
I0903 16:45:36.398504 31321 net.cpp:425] conv2/3x3 <- conv2/3x3_reduce
I0903 16:45:36.398514 31321 net.cpp:399] conv2/3x3 -> conv2/3x3
I0903 16:45:36.398780 31317 net.cpp:141] Setting up conv2/3x3
I0903 16:45:36.398795 31317 net.cpp:148] Top shape: 10 192 56 56 (6021120)
I0903 16:45:36.398800 31317 net.cpp:156] Memory required for data: 126443520
I0903 16:45:36.398811 31317 layer_factory.hpp:77] Creating layer conv2/relu_3x3
I0903 16:45:36.398823 31317 net.cpp:91] Creating Layer conv2/relu_3x3
I0903 16:45:36.398828 31317 net.cpp:425] conv2/relu_3x3 <- conv2/3x3
I0903 16:45:36.398834 31317 net.cpp:386] conv2/relu_3x3 -> conv2/3x3 (in-place)
I0903 16:45:36.399289 31317 net.cpp:141] Setting up conv2/relu_3x3
I0903 16:45:36.399317 31317 net.cpp:148] Top shape: 10 192 56 56 (6021120)
I0903 16:45:36.399323 31317 net.cpp:156] Memory required for data: 150528000
I0903 16:45:36.399327 31317 layer_factory.hpp:77] Creating layer conv2/norm2
I0903 16:45:36.399340 31317 net.cpp:91] Creating Layer conv2/norm2
I0903 16:45:36.399345 31317 net.cpp:425] conv2/norm2 <- conv2/3x3
I0903 16:45:36.399354 31317 net.cpp:399] conv2/norm2 -> conv2/norm2
I0903 16:45:36.401002 31317 net.cpp:141] Setting up conv2/norm2
I0903 16:45:36.401016 31317 net.cpp:148] Top shape: 10 192 56 56 (6021120)
I0903 16:45:36.401021 31317 net.cpp:156] Memory required for data: 174612480
I0903 16:45:36.401038 31317 layer_factory.hpp:77] Creating layer pool2/3x3_s2
I0903 16:45:36.401051 31317 net.cpp:91] Creating Layer pool2/3x3_s2
I0903 16:45:36.401056 31317 net.cpp:425] pool2/3x3_s2 <- conv2/norm2
I0903 16:45:36.401062 31317 net.cpp:399] pool2/3x3_s2 -> pool2/3x3_s2
I0903 16:45:36.401150 31317 net.cpp:141] Setting up pool2/3x3_s2
I0903 16:45:36.401160 31317 net.cpp:148] Top shape: 10 192 28 28 (1505280)
I0903 16:45:36.401163 31317 net.cpp:156] Memory required for data: 180633600
I0903 16:45:36.401167 31317 layer_factory.hpp:77] Creating layer pool2/3x3_s2_pool2/3x3_s2_0_split
I0903 16:45:36.401185 31317 net.cpp:91] Creating Layer pool2/3x3_s2_pool2/3x3_s2_0_split
I0903 16:45:36.401190 31317 net.cpp:425] pool2/3x3_s2_pool2/3x3_s2_0_split <- pool2/3x3_s2
I0903 16:45:36.401196 31317 net.cpp:399] pool2/3x3_s2_pool2/3x3_s2_0_split -> pool2/3x3_s2_pool2/3x3_s2_0_split_0
I0903 16:45:36.401206 31317 net.cpp:399] pool2/3x3_s2_pool2/3x3_s2_0_split -> pool2/3x3_s2_pool2/3x3_s2_0_split_1
I0903 16:45:36.401228 31317 net.cpp:399] pool2/3x3_s2_pool2/3x3_s2_0_split -> pool2/3x3_s2_pool2/3x3_s2_0_split_2
I0903 16:45:36.401237 31317 net.cpp:399] pool2/3x3_s2_pool2/3x3_s2_0_split -> pool2/3x3_s2_pool2/3x3_s2_0_split_3
I0903 16:45:36.401361 31317 net.cpp:141] Setting up pool2/3x3_s2_pool2/3x3_s2_0_split
I0903 16:45:36.401373 31317 net.cpp:148] Top shape: 10 192 28 28 (1505280)
I0903 16:45:36.401379 31317 net.cpp:148] Top shape: 10 192 28 28 (1505280)
I0903 16:45:36.401386 31317 net.cpp:148] Top shape: 10 192 28 28 (1505280)
I0903 16:45:36.401391 31317 net.cpp:148] Top shape: 10 192 28 28 (1505280)
I0903 16:45:36.401394 31317 net.cpp:156] Memory required for data: 204718080
I0903 16:45:36.401398 31317 layer_factory.hpp:77] Creating layer inception_3a/1x1
I0903 16:45:36.401414 31317 net.cpp:91] Creating Layer inception_3a/1x1
I0903 16:45:36.401419 31317 net.cpp:425] inception_3a/1x1 <- pool2/3x3_s2_pool2/3x3_s2_0_split_0
I0903 16:45:36.401438 31317 net.cpp:399] inception_3a/1x1 -> inception_3a/1x1
I0903 16:45:36.404996 31317 net.cpp:141] Setting up inception_3a/1x1
I0903 16:45:36.405026 31317 net.cpp:148] Top shape: 10 64 28 28 (501760)
I0903 16:45:36.405032 31317 net.cpp:156] Memory required for data: 206725120
I0903 16:45:36.405041 31317 layer_factory.hpp:77] Creating layer inception_3a/relu_1x1
I0903 16:45:36.405052 31317 net.cpp:91] Creating Layer inception_3a/relu_1x1
I0903 16:45:36.405058 31317 net.cpp:425] inception_3a/relu_1x1 <- inception_3a/1x1
I0903 16:45:36.405066 31317 net.cpp:386] inception_3a/relu_1x1 -> inception_3a/1x1 (in-place)
I0903 16:45:36.405604 31317 net.cpp:141] Setting up inception_3a/relu_1x1
I0903 16:45:36.405622 31317 net.cpp:148] Top shape: 10 64 28 28 (501760)
I0903 16:45:36.405627 31317 net.cpp:156] Memory required for data: 208732160
I0903 16:45:36.405632 31317 layer_factory.hpp:77] Creating layer inception_3a/3x3_reduce
I0903 16:45:36.405644 31317 net.cpp:91] Creating Layer inception_3a/3x3_reduce
I0903 16:45:36.405649 31317 net.cpp:425] inception_3a/3x3_reduce <- pool2/3x3_s2_pool2/3x3_s2_0_split_1
I0903 16:45:36.405663 31317 net.cpp:399] inception_3a/3x3_reduce -> inception_3a/3x3_reduce
I0903 16:45:36.405938 31321 net.cpp:141] Setting up conv2/3x3
I0903 16:45:36.405958 31321 net.cpp:148] Top shape: 10 192 56 56 (6021120)
I0903 16:45:36.405966 31321 net.cpp:156] Memory required for data: 126443520
I0903 16:45:36.405979 31321 layer_factory.hpp:77] Creating layer conv2/relu_3x3
I0903 16:45:36.405997 31321 net.cpp:91] Creating Layer conv2/relu_3x3
I0903 16:45:36.406002 31321 net.cpp:425] conv2/relu_3x3 <- conv2/3x3
I0903 16:45:36.406010 31321 net.cpp:386] conv2/relu_3x3 -> conv2/3x3 (in-place)
I0903 16:45:36.406463 31321 net.cpp:141] Setting up conv2/relu_3x3
I0903 16:45:36.406477 31321 net.cpp:148] Top shape: 10 192 56 56 (6021120)
I0903 16:45:36.406483 31321 net.cpp:156] Memory required for data: 150528000
I0903 16:45:36.406489 31321 layer_factory.hpp:77] Creating layer conv2/norm2
I0903 16:45:36.406499 31321 net.cpp:91] Creating Layer conv2/norm2
I0903 16:45:36.406504 31321 net.cpp:425] conv2/norm2 <- conv2/3x3
I0903 16:45:36.406940 31321 net.cpp:399] conv2/norm2 -> conv2/norm2
I0903 16:45:36.407888 31321 net.cpp:141] Setting up conv2/norm2
I0903 16:45:36.407919 31321 net.cpp:148] Top shape: 10 192 56 56 (6021120)
I0903 16:45:36.407929 31321 net.cpp:156] Memory required for data: 174612480
I0903 16:45:36.407938 31321 layer_factory.hpp:77] Creating layer pool2/3x3_s2
I0903 16:45:36.407955 31321 net.cpp:91] Creating Layer pool2/3x3_s2
I0903 16:45:36.407966 31321 net.cpp:425] pool2/3x3_s2 <- conv2/norm2
I0903 16:45:36.407979 31321 net.cpp:399] pool2/3x3_s2 -> pool2/3x3_s2
I0903 16:45:36.408466 31321 net.cpp:141] Setting up pool2/3x3_s2
I0903 16:45:36.408484 31321 net.cpp:148] Top shape: 10 192 28 28 (1505280)
I0903 16:45:36.408489 31321 net.cpp:156] Memory required for data: 180633600
I0903 16:45:36.408495 31321 layer_factory.hpp:77] Creating layer pool2/3x3_s2_pool2/3x3_s2_0_split
I0903 16:45:36.408506 31321 net.cpp:91] Creating Layer pool2/3x3_s2_pool2/3x3_s2_0_split
I0903 16:45:36.408511 31321 net.cpp:425] pool2/3x3_s2_pool2/3x3_s2_0_split <- pool2/3x3_s2
I0903 16:45:36.408519 31321 net.cpp:399] pool2/3x3_s2_pool2/3x3_s2_0_split -> pool2/3x3_s2_pool2/3x3_s2_0_split_0
I0903 16:45:36.408534 31321 net.cpp:399] pool2/3x3_s2_pool2/3x3_s2_0_split -> pool2/3x3_s2_pool2/3x3_s2_0_split_1
I0903 16:45:36.408543 31321 net.cpp:399] pool2/3x3_s2_pool2/3x3_s2_0_split -> pool2/3x3_s2_pool2/3x3_s2_0_split_2
I0903 16:45:36.408552 31321 net.cpp:399] pool2/3x3_s2_pool2/3x3_s2_0_split -> pool2/3x3_s2_pool2/3x3_s2_0_split_3
I0903 16:45:36.408953 31321 net.cpp:141] Setting up pool2/3x3_s2_pool2/3x3_s2_0_split
I0903 16:45:36.408967 31321 net.cpp:148] Top shape: 10 192 28 28 (1505280)
I0903 16:45:36.408974 31321 net.cpp:148] Top shape: 10 192 28 28 (1505280)
I0903 16:45:36.408979 31321 net.cpp:148] Top shape: 10 192 28 28 (1505280)
I0903 16:45:36.408985 31321 net.cpp:148] Top shape: 10 192 28 28 (1505280)
I0903 16:45:36.408990 31321 net.cpp:156] Memory required for data: 204718080
I0903 16:45:36.408995 31321 layer_factory.hpp:77] Creating layer inception_3a/1x1
I0903 16:45:36.409015 31321 net.cpp:91] Creating Layer inception_3a/1x1
I0903 16:45:36.409021 31321 net.cpp:425] inception_3a/1x1 <- pool2/3x3_s2_pool2/3x3_s2_0_split_0
I0903 16:45:36.409035 31321 net.cpp:399] inception_3a/1x1 -> inception_3a/1x1
I0903 16:45:36.410501 31317 net.cpp:141] Setting up inception_3a/3x3_reduce
I0903 16:45:36.410521 31317 net.cpp:148] Top shape: 10 96 28 28 (752640)
I0903 16:45:36.410526 31317 net.cpp:156] Memory required for data: 211742720
I0903 16:45:36.410539 31317 layer_factory.hpp:77] Creating layer inception_3a/relu_3x3_reduce
I0903 16:45:36.410549 31317 net.cpp:91] Creating Layer inception_3a/relu_3x3_reduce
I0903 16:45:36.410555 31317 net.cpp:425] inception_3a/relu_3x3_reduce <- inception_3a/3x3_reduce
I0903 16:45:36.410565 31317 net.cpp:386] inception_3a/relu_3x3_reduce -> inception_3a/3x3_reduce (in-place)
I0903 16:45:36.411095 31317 net.cpp:141] Setting up inception_3a/relu_3x3_reduce
I0903 16:45:36.411109 31317 net.cpp:148] Top shape: 10 96 28 28 (752640)
I0903 16:45:36.411114 31317 net.cpp:156] Memory required for data: 214753280
I0903 16:45:36.411119 31317 layer_factory.hpp:77] Creating layer inception_3a/3x3
I0903 16:45:36.411139 31317 net.cpp:91] Creating Layer inception_3a/3x3
I0903 16:45:36.411144 31317 net.cpp:425] inception_3a/3x3 <- inception_3a/3x3_reduce
I0903 16:45:36.411154 31317 net.cpp:399] inception_3a/3x3 -> inception_3a/3x3
I0903 16:45:36.413573 31321 net.cpp:141] Setting up inception_3a/1x1
I0903 16:45:36.413595 31321 net.cpp:148] Top shape: 10 64 28 28 (501760)
I0903 16:45:36.413601 31321 net.cpp:156] Memory required for data: 206725120
I0903 16:45:36.413612 31321 layer_factory.hpp:77] Creating layer inception_3a/relu_1x1
I0903 16:45:36.413628 31321 net.cpp:91] Creating Layer inception_3a/relu_1x1
I0903 16:45:36.413635 31321 net.cpp:425] inception_3a/relu_1x1 <- inception_3a/1x1
I0903 16:45:36.413643 31321 net.cpp:386] inception_3a/relu_1x1 -> inception_3a/1x1 (in-place)
I0903 16:45:36.414409 31321 net.cpp:141] Setting up inception_3a/relu_1x1
I0903 16:45:36.414432 31321 net.cpp:148] Top shape: 10 64 28 28 (501760)
I0903 16:45:36.414438 31321 net.cpp:156] Memory required for data: 208732160
I0903 16:45:36.414443 31321 layer_factory.hpp:77] Creating layer inception_3a/3x3_reduce
I0903 16:45:36.414465 31321 net.cpp:91] Creating Layer inception_3a/3x3_reduce
I0903 16:45:36.414472 31321 net.cpp:425] inception_3a/3x3_reduce <- pool2/3x3_s2_pool2/3x3_s2_0_split_1
I0903 16:45:36.414482 31321 net.cpp:399] inception_3a/3x3_reduce -> inception_3a/3x3_reduce
I0903 16:45:36.416738 31317 net.cpp:141] Setting up inception_3a/3x3
I0903 16:45:36.416761 31317 net.cpp:148] Top shape: 10 128 28 28 (1003520)
I0903 16:45:36.416766 31317 net.cpp:156] Memory required for data: 218767360
I0903 16:45:36.416776 31317 layer_factory.hpp:77] Creating layer inception_3a/relu_3x3
I0903 16:45:36.416785 31317 net.cpp:91] Creating Layer inception_3a/relu_3x3
I0903 16:45:36.416790 31317 net.cpp:425] inception_3a/relu_3x3 <- inception_3a/3x3
I0903 16:45:36.416797 31317 net.cpp:386] inception_3a/relu_3x3 -> inception_3a/3x3 (in-place)
I0903 16:45:36.417327 31317 net.cpp:141] Setting up inception_3a/relu_3x3
I0903 16:45:36.417342 31317 net.cpp:148] Top shape: 10 128 28 28 (1003520)
I0903 16:45:36.417347 31317 net.cpp:156] Memory required for data: 222781440
I0903 16:45:36.417352 31317 layer_factory.hpp:77] Creating layer inception_3a/5x5_reduce
I0903 16:45:36.417371 31317 net.cpp:91] Creating Layer inception_3a/5x5_reduce
I0903 16:45:36.417376 31317 net.cpp:425] inception_3a/5x5_reduce <- pool2/3x3_s2_pool2/3x3_s2_0_split_2
I0903 16:45:36.417388 31317 net.cpp:399] inception_3a/5x5_reduce -> inception_3a/5x5_reduce
I0903 16:45:36.420228 31321 net.cpp:141] Setting up inception_3a/3x3_reduce
I0903 16:45:36.420253 31321 net.cpp:148] Top shape: 10 96 28 28 (752640)
I0903 16:45:36.420258 31321 net.cpp:156] Memory required for data: 211742720
I0903 16:45:36.420277 31321 layer_factory.hpp:77] Creating layer inception_3a/relu_3x3_reduce
I0903 16:45:36.420289 31321 net.cpp:91] Creating Layer inception_3a/relu_3x3_reduce
I0903 16:45:36.420295 31321 net.cpp:425] inception_3a/relu_3x3_reduce <- inception_3a/3x3_reduce
I0903 16:45:36.420302 31321 net.cpp:386] inception_3a/relu_3x3_reduce -> inception_3a/3x3_reduce (in-place)
I0903 16:45:36.420737 31317 net.cpp:141] Setting up inception_3a/5x5_reduce
I0903 16:45:36.420753 31317 net.cpp:148] Top shape: 10 16 28 28 (125440)
I0903 16:45:36.420758 31317 net.cpp:156] Memory required for data: 223283200
I0903 16:45:36.420763 31321 net.cpp:141] Setting up inception_3a/relu_3x3_reduce
I0903 16:45:36.420768 31317 layer_factory.hpp:77] Creating layer inception_3a/relu_5x5_reduce
I0903 16:45:36.420779 31321 net.cpp:148] Top shape: 10 96 28 28 (752640)
I0903 16:45:36.420785 31321 net.cpp:156] Memory required for data: 214753280
I0903 16:45:36.420789 31317 net.cpp:91] Creating Layer inception_3a/relu_5x5_reduce
I0903 16:45:36.420791 31321 layer_factory.hpp:77] Creating layer inception_3a/3x3
I0903 16:45:36.420795 31317 net.cpp:425] inception_3a/relu_5x5_reduce <- inception_3a/5x5_reduce
I0903 16:45:36.420804 31317 net.cpp:386] inception_3a/relu_5x5_reduce -> inception_3a/5x5_reduce (in-place)
I0903 16:45:36.420812 31321 net.cpp:91] Creating Layer inception_3a/3x3
I0903 16:45:36.420819 31321 net.cpp:425] inception_3a/3x3 <- inception_3a/3x3_reduce
I0903 16:45:36.420833 31321 net.cpp:399] inception_3a/3x3 -> inception_3a/3x3
I0903 16:45:36.421388 31317 net.cpp:141] Setting up inception_3a/relu_5x5_reduce
I0903 16:45:36.421402 31317 net.cpp:148] Top shape: 10 16 28 28 (125440)
I0903 16:45:36.421409 31317 net.cpp:156] Memory required for data: 223784960
I0903 16:45:36.421414 31317 layer_factory.hpp:77] Creating layer inception_3a/5x5
I0903 16:45:36.421427 31317 net.cpp:91] Creating Layer inception_3a/5x5
I0903 16:45:36.421432 31317 net.cpp:425] inception_3a/5x5 <- inception_3a/5x5_reduce
I0903 16:45:36.421444 31317 net.cpp:399] inception_3a/5x5 -> inception_3a/5x5
I0903 16:45:36.424909 31317 net.cpp:141] Setting up inception_3a/5x5
I0903 16:45:36.424931 31317 net.cpp:148] Top shape: 10 32 28 28 (250880)
I0903 16:45:36.424937 31317 net.cpp:156] Memory required for data: 224788480
I0903 16:45:36.424945 31317 layer_factory.hpp:77] Creating layer inception_3a/relu_5x5
I0903 16:45:36.424957 31317 net.cpp:91] Creating Layer inception_3a/relu_5x5
I0903 16:45:36.424963 31317 net.cpp:425] inception_3a/relu_5x5 <- inception_3a/5x5
I0903 16:45:36.424970 31317 net.cpp:386] inception_3a/relu_5x5 -> inception_3a/5x5 (in-place)
I0903 16:45:36.425390 31317 net.cpp:141] Setting up inception_3a/relu_5x5
I0903 16:45:36.425402 31317 net.cpp:148] Top shape: 10 32 28 28 (250880)
I0903 16:45:36.425400 31321 net.cpp:141] Setting up inception_3a/3x3
I0903 16:45:36.425407 31317 net.cpp:156] Memory required for data: 225792000
I0903 16:45:36.425421 31317 layer_factory.hpp:77] Creating layer inception_3a/pool
I0903 16:45:36.425423 31321 net.cpp:148] Top shape: 10 128 28 28 (1003520)
I0903 16:45:36.425431 31321 net.cpp:156] Memory required for data: 218767360
I0903 16:45:36.425436 31317 net.cpp:91] Creating Layer inception_3a/pool
I0903 16:45:36.425443 31317 net.cpp:425] inception_3a/pool <- pool2/3x3_s2_pool2/3x3_s2_0_split_3
I0903 16:45:36.425443 31321 layer_factory.hpp:77] Creating layer inception_3a/relu_3x3
I0903 16:45:36.425452 31317 net.cpp:399] inception_3a/pool -> inception_3a/pool
I0903 16:45:36.425456 31321 net.cpp:91] Creating Layer inception_3a/relu_3x3
I0903 16:45:36.425462 31321 net.cpp:425] inception_3a/relu_3x3 <- inception_3a/3x3
I0903 16:45:36.425472 31321 net.cpp:386] inception_3a/relu_3x3 -> inception_3a/3x3 (in-place)
I0903 16:45:36.425966 31317 net.cpp:141] Setting up inception_3a/pool
I0903 16:45:36.425976 31317 net.cpp:148] Top shape: 10 192 28 28 (1505280)
I0903 16:45:36.425981 31317 net.cpp:156] Memory required for data: 231813120
I0903 16:45:36.425986 31317 layer_factory.hpp:77] Creating layer inception_3a/pool_proj
I0903 16:45:36.426003 31317 net.cpp:91] Creating Layer inception_3a/pool_proj
I0903 16:45:36.426009 31317 net.cpp:425] inception_3a/pool_proj <- inception_3a/pool
I0903 16:45:36.426017 31317 net.cpp:399] inception_3a/pool_proj -> inception_3a/pool_proj
I0903 16:45:36.426041 31321 net.cpp:141] Setting up inception_3a/relu_3x3
I0903 16:45:36.426056 31321 net.cpp:148] Top shape: 10 128 28 28 (1003520)
I0903 16:45:36.426062 31321 net.cpp:156] Memory required for data: 222781440
I0903 16:45:36.426067 31321 layer_factory.hpp:77] Creating layer inception_3a/5x5_reduce
I0903 16:45:36.426084 31321 net.cpp:91] Creating Layer inception_3a/5x5_reduce
I0903 16:45:36.426091 31321 net.cpp:425] inception_3a/5x5_reduce <- pool2/3x3_s2_pool2/3x3_s2_0_split_2
I0903 16:45:36.426105 31321 net.cpp:399] inception_3a/5x5_reduce -> inception_3a/5x5_reduce
I0903 16:45:36.429551 31321 net.cpp:141] Setting up inception_3a/5x5_reduce
I0903 16:45:36.429564 31317 net.cpp:141] Setting up inception_3a/pool_proj
I0903 16:45:36.429574 31321 net.cpp:148] Top shape: 10 16 28 28 (125440)
I0903 16:45:36.429580 31321 net.cpp:156] Memory required for data: 223283200
I0903 16:45:36.429581 31317 net.cpp:148] Top shape: 10 32 28 28 (250880)
I0903 16:45:36.429595 31321 layer_factory.hpp:77] Creating layer inception_3a/relu_5x5_reduce
I0903 16:45:36.429597 31317 net.cpp:156] Memory required for data: 232816640
I0903 16:45:36.429615 31321 net.cpp:91] Creating Layer inception_3a/relu_5x5_reduce
I0903 16:45:36.429622 31321 net.cpp:425] inception_3a/relu_5x5_reduce <- inception_3a/5x5_reduce
I0903 16:45:36.429626 31317 layer_factory.hpp:77] Creating layer inception_3a/relu_pool_proj
I0903 16:45:36.429630 31321 net.cpp:386] inception_3a/relu_5x5_reduce -> inception_3a/5x5_reduce (in-place)
I0903 16:45:36.429636 31317 net.cpp:91] Creating Layer inception_3a/relu_pool_proj
I0903 16:45:36.429643 31317 net.cpp:425] inception_3a/relu_pool_proj <- inception_3a/pool_proj
I0903 16:45:36.429653 31317 net.cpp:386] inception_3a/relu_pool_proj -> inception_3a/pool_proj (in-place)
I0903 16:45:36.430143 31321 net.cpp:141] Setting up inception_3a/relu_5x5_reduce
I0903 16:45:36.430158 31321 net.cpp:148] Top shape: 10 16 28 28 (125440)
I0903 16:45:36.430163 31321 net.cpp:156] Memory required for data: 223784960
I0903 16:45:36.430169 31321 layer_factory.hpp:77] Creating layer inception_3a/5x5
I0903 16:45:36.430176 31317 net.cpp:141] Setting up inception_3a/relu_pool_proj
I0903 16:45:36.430191 31317 net.cpp:148] Top shape: 10 32 28 28 (250880)
I0903 16:45:36.430191 31321 net.cpp:91] Creating Layer inception_3a/5x5
I0903 16:45:36.430197 31317 net.cpp:156] Memory required for data: 233820160
I0903 16:45:36.430199 31321 net.cpp:425] inception_3a/5x5 <- inception_3a/5x5_reduce
I0903 16:45:36.430202 31317 layer_factory.hpp:77] Creating layer inception_3a/output
I0903 16:45:36.430210 31321 net.cpp:399] inception_3a/5x5 -> inception_3a/5x5
I0903 16:45:36.430222 31317 net.cpp:91] Creating Layer inception_3a/output
I0903 16:45:36.430228 31317 net.cpp:425] inception_3a/output <- inception_3a/1x1
I0903 16:45:36.430234 31317 net.cpp:425] inception_3a/output <- inception_3a/3x3
I0903 16:45:36.430239 31317 net.cpp:425] inception_3a/output <- inception_3a/5x5
I0903 16:45:36.430244 31317 net.cpp:425] inception_3a/output <- inception_3a/pool_proj
I0903 16:45:36.430254 31317 net.cpp:399] inception_3a/output -> inception_3a/output
I0903 16:45:36.430428 31317 net.cpp:141] Setting up inception_3a/output
I0903 16:45:36.430439 31317 net.cpp:148] Top shape: 10 256 28 28 (2007040)
I0903 16:45:36.430444 31317 net.cpp:156] Memory required for data: 241848320
I0903 16:45:36.430449 31317 layer_factory.hpp:77] Creating layer inception_3a/output_inception_3a/output_0_split
I0903 16:45:36.430457 31317 net.cpp:91] Creating Layer inception_3a/output_inception_3a/output_0_split
I0903 16:45:36.430462 31317 net.cpp:425] inception_3a/output_inception_3a/output_0_split <- inception_3a/output
I0903 16:45:36.430471 31317 net.cpp:399] inception_3a/output_inception_3a/output_0_split -> inception_3a/output_inception_3a/output_0_split_0
I0903 16:45:36.430480 31317 net.cpp:399] inception_3a/output_inception_3a/output_0_split -> inception_3a/output_inception_3a/output_0_split_1
I0903 16:45:36.430490 31317 net.cpp:399] inception_3a/output_inception_3a/output_0_split -> inception_3a/output_inception_3a/output_0_split_2
I0903 16:45:36.430496 31317 net.cpp:399] inception_3a/output_inception_3a/output_0_split -> inception_3a/output_inception_3a/output_0_split_3
I0903 16:45:36.430882 31317 net.cpp:141] Setting up inception_3a/output_inception_3a/output_0_split
I0903 16:45:36.430893 31317 net.cpp:148] Top shape: 10 256 28 28 (2007040)
I0903 16:45:36.430899 31317 net.cpp:148] Top shape: 10 256 28 28 (2007040)
I0903 16:45:36.430904 31317 net.cpp:148] Top shape: 10 256 28 28 (2007040)
I0903 16:45:36.430909 31317 net.cpp:148] Top shape: 10 256 28 28 (2007040)
I0903 16:45:36.430912 31317 net.cpp:156] Memory required for data: 273960960
I0903 16:45:36.430917 31317 layer_factory.hpp:77] Creating layer inception_3b/1x1
I0903 16:45:36.430932 31317 net.cpp:91] Creating Layer inception_3b/1x1
I0903 16:45:36.430941 31317 net.cpp:425] inception_3b/1x1 <- inception_3a/output_inception_3a/output_0_split_0
I0903 16:45:36.430949 31317 net.cpp:399] inception_3b/1x1 -> inception_3b/1x1
I0903 16:45:36.434391 31321 net.cpp:141] Setting up inception_3a/5x5
I0903 16:45:36.434413 31321 net.cpp:148] Top shape: 10 32 28 28 (250880)
I0903 16:45:36.434419 31321 net.cpp:156] Memory required for data: 224788480
I0903 16:45:36.434430 31321 layer_factory.hpp:77] Creating layer inception_3a/relu_5x5
I0903 16:45:36.434453 31321 net.cpp:91] Creating Layer inception_3a/relu_5x5
I0903 16:45:36.434461 31321 net.cpp:425] inception_3a/relu_5x5 <- inception_3a/5x5
I0903 16:45:36.434469 31321 net.cpp:386] inception_3a/relu_5x5 -> inception_3a/5x5 (in-place)
I0903 16:45:36.434829 31317 net.cpp:141] Setting up inception_3b/1x1
I0903 16:45:36.434844 31317 net.cpp:148] Top shape: 10 128 28 28 (1003520)
I0903 16:45:36.434849 31317 net.cpp:156] Memory required for data: 277975040
I0903 16:45:36.434859 31317 layer_factory.hpp:77] Creating layer inception_3b/relu_1x1
I0903 16:45:36.434870 31317 net.cpp:91] Creating Layer inception_3b/relu_1x1
I0903 16:45:36.434875 31317 net.cpp:425] inception_3b/relu_1x1 <- inception_3b/1x1
I0903 16:45:36.434875 31321 net.cpp:141] Setting up inception_3a/relu_5x5
I0903 16:45:36.434883 31317 net.cpp:386] inception_3b/relu_1x1 -> inception_3b/1x1 (in-place)
I0903 16:45:36.434890 31321 net.cpp:148] Top shape: 10 32 28 28 (250880)
I0903 16:45:36.434896 31321 net.cpp:156] Memory required for data: 225792000
I0903 16:45:36.434902 31321 layer_factory.hpp:77] Creating layer inception_3a/pool
I0903 16:45:36.434911 31321 net.cpp:91] Creating Layer inception_3a/pool
I0903 16:45:36.434917 31321 net.cpp:425] inception_3a/pool <- pool2/3x3_s2_pool2/3x3_s2_0_split_3
I0903 16:45:36.434929 31321 net.cpp:399] inception_3a/pool -> inception_3a/pool
I0903 16:45:36.435350 31321 net.cpp:141] Setting up inception_3a/pool
I0903 16:45:36.435364 31321 net.cpp:148] Top shape: 10 192 28 28 (1505280)
I0903 16:45:36.435369 31321 net.cpp:156] Memory required for data: 231813120
I0903 16:45:36.435375 31321 layer_factory.hpp:77] Creating layer inception_3a/pool_proj
I0903 16:45:36.435396 31321 net.cpp:91] Creating Layer inception_3a/pool_proj
I0903 16:45:36.435403 31321 net.cpp:425] inception_3a/pool_proj <- inception_3a/pool
I0903 16:45:36.435415 31321 net.cpp:399] inception_3a/pool_proj -> inception_3a/pool_proj
I0903 16:45:36.435421 31317 net.cpp:141] Setting up inception_3b/relu_1x1
I0903 16:45:36.435434 31317 net.cpp:148] Top shape: 10 128 28 28 (1003520)
I0903 16:45:36.435441 31317 net.cpp:156] Memory required for data: 281989120
I0903 16:45:36.435447 31317 layer_factory.hpp:77] Creating layer inception_3b/3x3_reduce
I0903 16:45:36.435458 31317 net.cpp:91] Creating Layer inception_3b/3x3_reduce
I0903 16:45:36.435466 31317 net.cpp:425] inception_3b/3x3_reduce <- inception_3a/output_inception_3a/output_0_split_1
I0903 16:45:36.435478 31317 net.cpp:399] inception_3b/3x3_reduce -> inception_3b/3x3_reduce
I0903 16:45:36.439231 31321 net.cpp:141] Setting up inception_3a/pool_proj
I0903 16:45:36.439255 31321 net.cpp:148] Top shape: 10 32 28 28 (250880)
I0903 16:45:36.439265 31321 net.cpp:156] Memory required for data: 232816640
I0903 16:45:36.439288 31321 layer_factory.hpp:77] Creating layer inception_3a/relu_pool_proj
I0903 16:45:36.439301 31321 net.cpp:91] Creating Layer inception_3a/relu_pool_proj
I0903 16:45:36.439306 31321 net.cpp:425] inception_3a/relu_pool_proj <- inception_3a/pool_proj
I0903 16:45:36.439319 31321 net.cpp:386] inception_3a/relu_pool_proj -> inception_3a/pool_proj (in-place)
I0903 16:45:36.439837 31317 net.cpp:141] Setting up inception_3b/3x3_reduce
I0903 16:45:36.439859 31317 net.cpp:148] Top shape: 10 128 28 28 (1003520)
I0903 16:45:36.439864 31317 net.cpp:156] Memory required for data: 286003200
I0903 16:45:36.439874 31317 layer_factory.hpp:77] Creating layer inception_3b/relu_3x3_reduce
I0903 16:45:36.439883 31317 net.cpp:91] Creating Layer inception_3b/relu_3x3_reduce
I0903 16:45:36.439889 31317 net.cpp:425] inception_3b/relu_3x3_reduce <- inception_3b/3x3_reduce
I0903 16:45:36.439908 31317 net.cpp:386] inception_3b/relu_3x3_reduce -> inception_3b/3x3_reduce (in-place)
I0903 16:45:36.439914 31321 net.cpp:141] Setting up inception_3a/relu_pool_proj
I0903 16:45:36.439929 31321 net.cpp:148] Top shape: 10 32 28 28 (250880)
I0903 16:45:36.439935 31321 net.cpp:156] Memory required for data: 233820160
I0903 16:45:36.439940 31321 layer_factory.hpp:77] Creating layer inception_3a/output
I0903 16:45:36.439950 31321 net.cpp:91] Creating Layer inception_3a/output
I0903 16:45:36.439956 31321 net.cpp:425] inception_3a/output <- inception_3a/1x1
I0903 16:45:36.439963 31321 net.cpp:425] inception_3a/output <- inception_3a/3x3
I0903 16:45:36.439970 31321 net.cpp:425] inception_3a/output <- inception_3a/5x5
I0903 16:45:36.439975 31321 net.cpp:425] inception_3a/output <- inception_3a/pool_proj
I0903 16:45:36.439985 31321 net.cpp:399] inception_3a/output -> inception_3a/output
I0903 16:45:36.440147 31321 net.cpp:141] Setting up inception_3a/output
I0903 16:45:36.440160 31321 net.cpp:148] Top shape: 10 256 28 28 (2007040)
I0903 16:45:36.440165 31321 net.cpp:156] Memory required for data: 241848320
I0903 16:45:36.440171 31321 layer_factory.hpp:77] Creating layer inception_3a/output_inception_3a/output_0_split
I0903 16:45:36.440184 31321 net.cpp:91] Creating Layer inception_3a/output_inception_3a/output_0_split
I0903 16:45:36.440191 31321 net.cpp:425] inception_3a/output_inception_3a/output_0_split <- inception_3a/output
I0903 16:45:36.440198 31321 net.cpp:399] inception_3a/output_inception_3a/output_0_split -> inception_3a/output_inception_3a/output_0_split_0
I0903 16:45:36.440208 31321 net.cpp:399] inception_3a/output_inception_3a/output_0_split -> inception_3a/output_inception_3a/output_0_split_1
I0903 16:45:36.440217 31321 net.cpp:399] inception_3a/output_inception_3a/output_0_split -> inception_3a/output_inception_3a/output_0_split_2
I0903 16:45:36.440228 31321 net.cpp:399] inception_3a/output_inception_3a/output_0_split -> inception_3a/output_inception_3a/output_0_split_3
I0903 16:45:36.440248 31317 net.cpp:141] Setting up inception_3b/relu_3x3_reduce
I0903 16:45:36.440260 31317 net.cpp:148] Top shape: 10 128 28 28 (1003520)
I0903 16:45:36.440264 31317 net.cpp:156] Memory required for data: 290017280
I0903 16:45:36.440269 31317 layer_factory.hpp:77] Creating layer inception_3b/3x3
I0903 16:45:36.440287 31317 net.cpp:91] Creating Layer inception_3b/3x3
I0903 16:45:36.440294 31317 net.cpp:425] inception_3b/3x3 <- inception_3b/3x3_reduce
I0903 16:45:36.440302 31317 net.cpp:399] inception_3b/3x3 -> inception_3b/3x3
I0903 16:45:36.440546 31321 net.cpp:141] Setting up inception_3a/output_inception_3a/output_0_split
I0903 16:45:36.440563 31321 net.cpp:148] Top shape: 10 256 28 28 (2007040)
I0903 16:45:36.440570 31321 net.cpp:148] Top shape: 10 256 28 28 (2007040)
I0903 16:45:36.440577 31321 net.cpp:148] Top shape: 10 256 28 28 (2007040)
I0903 16:45:36.440582 31321 net.cpp:148] Top shape: 10 256 28 28 (2007040)
I0903 16:45:36.440587 31321 net.cpp:156] Memory required for data: 273960960
I0903 16:45:36.440592 31321 layer_factory.hpp:77] Creating layer inception_3b/1x1
I0903 16:45:36.440609 31321 net.cpp:91] Creating Layer inception_3b/1x1
I0903 16:45:36.440616 31321 net.cpp:425] inception_3b/1x1 <- inception_3a/output_inception_3a/output_0_split_0
I0903 16:45:36.440625 31321 net.cpp:399] inception_3b/1x1 -> inception_3b/1x1
I0903 16:45:36.444700 31321 net.cpp:141] Setting up inception_3b/1x1
I0903 16:45:36.444720 31321 net.cpp:148] Top shape: 10 128 28 28 (1003520)
I0903 16:45:36.444725 31321 net.cpp:156] Memory required for data: 277975040
I0903 16:45:36.444736 31321 layer_factory.hpp:77] Creating layer inception_3b/relu_1x1
I0903 16:45:36.444751 31321 net.cpp:91] Creating Layer inception_3b/relu_1x1
I0903 16:45:36.444758 31321 net.cpp:425] inception_3b/relu_1x1 <- inception_3b/1x1
I0903 16:45:36.444766 31321 net.cpp:386] inception_3b/relu_1x1 -> inception_3b/1x1 (in-place)
I0903 16:45:36.445245 31321 net.cpp:141] Setting up inception_3b/relu_1x1
I0903 16:45:36.445261 31321 net.cpp:148] Top shape: 10 128 28 28 (1003520)
I0903 16:45:36.445266 31321 net.cpp:156] Memory required for data: 281989120
I0903 16:45:36.445271 31321 layer_factory.hpp:77] Creating layer inception_3b/3x3_reduce
I0903 16:45:36.445291 31321 net.cpp:91] Creating Layer inception_3b/3x3_reduce
I0903 16:45:36.445298 31321 net.cpp:425] inception_3b/3x3_reduce <- inception_3a/output_inception_3a/output_0_split_1
I0903 16:45:36.445308 31321 net.cpp:399] inception_3b/3x3_reduce -> inception_3b/3x3_reduce
I0903 16:45:36.446398 31317 net.cpp:141] Setting up inception_3b/3x3
I0903 16:45:36.446419 31317 net.cpp:148] Top shape: 10 192 28 28 (1505280)
I0903 16:45:36.446424 31317 net.cpp:156] Memory required for data: 296038400
I0903 16:45:36.446434 31317 layer_factory.hpp:77] Creating layer inception_3b/relu_3x3
I0903 16:45:36.446446 31317 net.cpp:91] Creating Layer inception_3b/relu_3x3
I0903 16:45:36.446451 31317 net.cpp:425] inception_3b/relu_3x3 <- inception_3b/3x3
I0903 16:45:36.446463 31317 net.cpp:386] inception_3b/relu_3x3 -> inception_3b/3x3 (in-place)
I0903 16:45:36.446990 31317 net.cpp:141] Setting up inception_3b/relu_3x3
I0903 16:45:36.447006 31317 net.cpp:148] Top shape: 10 192 28 28 (1505280)
I0903 16:45:36.447011 31317 net.cpp:156] Memory required for data: 302059520
I0903 16:45:36.447016 31317 layer_factory.hpp:77] Creating layer inception_3b/5x5_reduce
I0903 16:45:36.447034 31317 net.cpp:91] Creating Layer inception_3b/5x5_reduce
I0903 16:45:36.447041 31317 net.cpp:425] inception_3b/5x5_reduce <- inception_3a/output_inception_3a/output_0_split_2
I0903 16:45:36.447049 31317 net.cpp:399] inception_3b/5x5_reduce -> inception_3b/5x5_reduce
I0903 16:45:36.449355 31321 net.cpp:141] Setting up inception_3b/3x3_reduce
I0903 16:45:36.449378 31321 net.cpp:148] Top shape: 10 128 28 28 (1003520)
I0903 16:45:36.449383 31321 net.cpp:156] Memory required for data: 286003200
I0903 16:45:36.449393 31321 layer_factory.hpp:77] Creating layer inception_3b/relu_3x3_reduce
I0903 16:45:36.449404 31321 net.cpp:91] Creating Layer inception_3b/relu_3x3_reduce
I0903 16:45:36.449410 31321 net.cpp:425] inception_3b/relu_3x3_reduce <- inception_3b/3x3_reduce
I0903 16:45:36.449425 31321 net.cpp:386] inception_3b/relu_3x3_reduce -> inception_3b/3x3_reduce (in-place)
I0903 16:45:36.449762 31321 net.cpp:141] Setting up inception_3b/relu_3x3_reduce
I0903 16:45:36.449779 31321 net.cpp:148] Top shape: 10 128 28 28 (1003520)
I0903 16:45:36.449784 31321 net.cpp:156] Memory required for data: 290017280
I0903 16:45:36.449790 31321 layer_factory.hpp:77] Creating layer inception_3b/3x3
I0903 16:45:36.449807 31321 net.cpp:91] Creating Layer inception_3b/3x3
I0903 16:45:36.449815 31321 net.cpp:425] inception_3b/3x3 <- inception_3b/3x3_reduce
I0903 16:45:36.449825 31321 net.cpp:399] inception_3b/3x3 -> inception_3b/3x3
I0903 16:45:36.451902 31317 net.cpp:141] Setting up inception_3b/5x5_reduce
I0903 16:45:36.451922 31317 net.cpp:148] Top shape: 10 32 28 28 (250880)
I0903 16:45:36.451928 31317 net.cpp:156] Memory required for data: 303063040
I0903 16:45:36.451937 31317 layer_factory.hpp:77] Creating layer inception_3b/relu_5x5_reduce
I0903 16:45:36.451946 31317 net.cpp:91] Creating Layer inception_3b/relu_5x5_reduce
I0903 16:45:36.451951 31317 net.cpp:425] inception_3b/relu_5x5_reduce <- inception_3b/5x5_reduce
I0903 16:45:36.451957 31317 net.cpp:386] inception_3b/relu_5x5_reduce -> inception_3b/5x5_reduce (in-place)
I0903 16:45:36.452395 31317 net.cpp:141] Setting up inception_3b/relu_5x5_reduce
I0903 16:45:36.452409 31317 net.cpp:148] Top shape: 10 32 28 28 (250880)
I0903 16:45:36.452412 31317 net.cpp:156] Memory required for data: 304066560
I0903 16:45:36.452417 31317 layer_factory.hpp:77] Creating layer inception_3b/5x5
I0903 16:45:36.452435 31317 net.cpp:91] Creating Layer inception_3b/5x5
I0903 16:45:36.452440 31317 net.cpp:425] inception_3b/5x5 <- inception_3b/5x5_reduce
I0903 16:45:36.452450 31317 net.cpp:399] inception_3b/5x5 -> inception_3b/5x5
I0903 16:45:36.456559 31321 net.cpp:141] Setting up inception_3b/3x3
I0903 16:45:36.456581 31321 net.cpp:148] Top shape: 10 192 28 28 (1505280)
I0903 16:45:36.456588 31321 net.cpp:156] Memory required for data: 296038400
I0903 16:45:36.456598 31321 layer_factory.hpp:77] Creating layer inception_3b/relu_3x3
I0903 16:45:36.456615 31321 net.cpp:91] Creating Layer inception_3b/relu_3x3
I0903 16:45:36.456622 31321 net.cpp:425] inception_3b/relu_3x3 <- inception_3b/3x3
I0903 16:45:36.456630 31321 net.cpp:386] inception_3b/relu_3x3 -> inception_3b/3x3 (in-place)
I0903 16:45:36.457135 31317 net.cpp:141] Setting up inception_3b/5x5
I0903 16:45:36.457155 31317 net.cpp:148] Top shape: 10 96 28 28 (752640)
I0903 16:45:36.457164 31317 net.cpp:156] Memory required for data: 307077120
I0903 16:45:36.457172 31317 layer_factory.hpp:77] Creating layer inception_3b/relu_5x5
I0903 16:45:36.457181 31317 net.cpp:91] Creating Layer inception_3b/relu_5x5
I0903 16:45:36.457186 31317 net.cpp:425] inception_3b/relu_5x5 <- inception_3b/5x5
I0903 16:45:36.457195 31317 net.cpp:386] inception_3b/relu_5x5 -> inception_3b/5x5 (in-place)
I0903 16:45:36.457211 31321 net.cpp:141] Setting up inception_3b/relu_3x3
I0903 16:45:36.457231 31321 net.cpp:148] Top shape: 10 192 28 28 (1505280)
I0903 16:45:36.457237 31321 net.cpp:156] Memory required for data: 302059520
I0903 16:45:36.457242 31321 layer_factory.hpp:77] Creating layer inception_3b/5x5_reduce
I0903 16:45:36.457260 31321 net.cpp:91] Creating Layer inception_3b/5x5_reduce
I0903 16:45:36.457267 31321 net.cpp:425] inception_3b/5x5_reduce <- inception_3a/output_inception_3a/output_0_split_2
I0903 16:45:36.457278 31321 net.cpp:399] inception_3b/5x5_reduce -> inception_3b/5x5_reduce
I0903 16:45:36.457612 31317 net.cpp:141] Setting up inception_3b/relu_5x5
I0903 16:45:36.457624 31317 net.cpp:148] Top shape: 10 96 28 28 (752640)
I0903 16:45:36.457628 31317 net.cpp:156] Memory required for data: 310087680
I0903 16:45:36.457633 31317 layer_factory.hpp:77] Creating layer inception_3b/pool
I0903 16:45:36.457643 31317 net.cpp:91] Creating Layer inception_3b/pool
I0903 16:45:36.457648 31317 net.cpp:425] inception_3b/pool <- inception_3a/output_inception_3a/output_0_split_3
I0903 16:45:36.457659 31317 net.cpp:399] inception_3b/pool -> inception_3b/pool
I0903 16:45:36.457912 31317 net.cpp:141] Setting up inception_3b/pool
I0903 16:45:36.457937 31317 net.cpp:148] Top shape: 10 256 28 28 (2007040)
I0903 16:45:36.457940 31317 net.cpp:156] Memory required for data: 318115840
I0903 16:45:36.457944 31317 layer_factory.hpp:77] Creating layer inception_3b/pool_proj
I0903 16:45:36.457958 31317 net.cpp:91] Creating Layer inception_3b/pool_proj
I0903 16:45:36.457963 31317 net.cpp:425] inception_3b/pool_proj <- inception_3b/pool
I0903 16:45:36.457972 31317 net.cpp:399] inception_3b/pool_proj -> inception_3b/pool_proj
I0903 16:45:36.460698 31321 net.cpp:141] Setting up inception_3b/5x5_reduce
I0903 16:45:36.460721 31321 net.cpp:148] Top shape: 10 32 28 28 (250880)
I0903 16:45:36.460726 31321 net.cpp:156] Memory required for data: 303063040
I0903 16:45:36.460736 31321 layer_factory.hpp:77] Creating layer inception_3b/relu_5x5_reduce
I0903 16:45:36.460747 31321 net.cpp:91] Creating Layer inception_3b/relu_5x5_reduce
I0903 16:45:36.460752 31321 net.cpp:425] inception_3b/relu_5x5_reduce <- inception_3b/5x5_reduce
I0903 16:45:36.460763 31321 net.cpp:386] inception_3b/relu_5x5_reduce -> inception_3b/5x5_reduce (in-place)
I0903 16:45:36.461421 31321 net.cpp:141] Setting up inception_3b/relu_5x5_reduce
I0903 16:45:36.461437 31321 net.cpp:148] Top shape: 10 32 28 28 (250880)
I0903 16:45:36.461442 31321 net.cpp:156] Memory required for data: 304066560
I0903 16:45:36.461448 31321 layer_factory.hpp:77] Creating layer inception_3b/5x5
I0903 16:45:36.461465 31321 net.cpp:91] Creating Layer inception_3b/5x5
I0903 16:45:36.461472 31321 net.cpp:425] inception_3b/5x5 <- inception_3b/5x5_reduce
I0903 16:45:36.461486 31321 net.cpp:399] inception_3b/5x5 -> inception_3b/5x5
I0903 16:45:36.461508 31317 net.cpp:141] Setting up inception_3b/pool_proj
I0903 16:45:36.461524 31317 net.cpp:148] Top shape: 10 64 28 28 (501760)
I0903 16:45:36.461527 31317 net.cpp:156] Memory required for data: 320122880
I0903 16:45:36.461536 31317 layer_factory.hpp:77] Creating layer inception_3b/relu_pool_proj
I0903 16:45:36.461547 31317 net.cpp:91] Creating Layer inception_3b/relu_pool_proj
I0903 16:45:36.461554 31317 net.cpp:425] inception_3b/relu_pool_proj <- inception_3b/pool_proj
I0903 16:45:36.461560 31317 net.cpp:386] inception_3b/relu_pool_proj -> inception_3b/pool_proj (in-place)
I0903 16:45:36.462174 31317 net.cpp:141] Setting up inception_3b/relu_pool_proj
I0903 16:45:36.462190 31317 net.cpp:148] Top shape: 10 64 28 28 (501760)
I0903 16:45:36.462208 31317 net.cpp:156] Memory required for data: 322129920
I0903 16:45:36.462213 31317 layer_factory.hpp:77] Creating layer inception_3b/output
I0903 16:45:36.462226 31317 net.cpp:91] Creating Layer inception_3b/output
I0903 16:45:36.462232 31317 net.cpp:425] inception_3b/output <- inception_3b/1x1
I0903 16:45:36.462239 31317 net.cpp:425] inception_3b/output <- inception_3b/3x3
I0903 16:45:36.462244 31317 net.cpp:425] inception_3b/output <- inception_3b/5x5
I0903 16:45:36.462249 31317 net.cpp:425] inception_3b/output <- inception_3b/pool_proj
I0903 16:45:36.462255 31317 net.cpp:399] inception_3b/output -> inception_3b/output
I0903 16:45:36.463167 31317 net.cpp:141] Setting up inception_3b/output
I0903 16:45:36.463179 31317 net.cpp:148] Top shape: 10 480 28 28 (3763200)
I0903 16:45:36.463183 31317 net.cpp:156] Memory required for data: 337182720
I0903 16:45:36.463188 31317 layer_factory.hpp:77] Creating layer pool3/3x3_s2
I0903 16:45:36.463201 31317 net.cpp:91] Creating Layer pool3/3x3_s2
I0903 16:45:36.463207 31317 net.cpp:425] pool3/3x3_s2 <- inception_3b/output
I0903 16:45:36.463214 31317 net.cpp:399] pool3/3x3_s2 -> pool3/3x3_s2
I0903 16:45:36.463510 31317 net.cpp:141] Setting up pool3/3x3_s2
I0903 16:45:36.463521 31317 net.cpp:148] Top shape: 10 480 14 14 (940800)
I0903 16:45:36.463526 31317 net.cpp:156] Memory required for data: 340945920
I0903 16:45:36.463531 31317 layer_factory.hpp:77] Creating layer pool3/3x3_s2_pool3/3x3_s2_0_split
I0903 16:45:36.463538 31317 net.cpp:91] Creating Layer pool3/3x3_s2_pool3/3x3_s2_0_split
I0903 16:45:36.463542 31317 net.cpp:425] pool3/3x3_s2_pool3/3x3_s2_0_split <- pool3/3x3_s2
I0903 16:45:36.463551 31317 net.cpp:399] pool3/3x3_s2_pool3/3x3_s2_0_split -> pool3/3x3_s2_pool3/3x3_s2_0_split_0
I0903 16:45:36.463559 31317 net.cpp:399] pool3/3x3_s2_pool3/3x3_s2_0_split -> pool3/3x3_s2_pool3/3x3_s2_0_split_1
I0903 16:45:36.463567 31317 net.cpp:399] pool3/3x3_s2_pool3/3x3_s2_0_split -> pool3/3x3_s2_pool3/3x3_s2_0_split_2
I0903 16:45:36.463573 31317 net.cpp:399] pool3/3x3_s2_pool3/3x3_s2_0_split -> pool3/3x3_s2_pool3/3x3_s2_0_split_3
I0903 16:45:36.463723 31317 net.cpp:141] Setting up pool3/3x3_s2_pool3/3x3_s2_0_split
I0903 16:45:36.463733 31317 net.cpp:148] Top shape: 10 480 14 14 (940800)
I0903 16:45:36.463739 31317 net.cpp:148] Top shape: 10 480 14 14 (940800)
I0903 16:45:36.463744 31317 net.cpp:148] Top shape: 10 480 14 14 (940800)
I0903 16:45:36.463749 31317 net.cpp:148] Top shape: 10 480 14 14 (940800)
I0903 16:45:36.463752 31317 net.cpp:156] Memory required for data: 355998720
I0903 16:45:36.463757 31317 layer_factory.hpp:77] Creating layer inception_4a/1x1
I0903 16:45:36.463773 31317 net.cpp:91] Creating Layer inception_4a/1x1
I0903 16:45:36.463778 31317 net.cpp:425] inception_4a/1x1 <- pool3/3x3_s2_pool3/3x3_s2_0_split_0
I0903 16:45:36.463786 31317 net.cpp:399] inception_4a/1x1 -> inception_4a/1x1
I0903 16:45:36.466794 31321 net.cpp:141] Setting up inception_3b/5x5
I0903 16:45:36.466823 31321 net.cpp:148] Top shape: 10 96 28 28 (752640)
I0903 16:45:36.466830 31321 net.cpp:156] Memory required for data: 307077120
I0903 16:45:36.466840 31321 layer_factory.hpp:77] Creating layer inception_3b/relu_5x5
I0903 16:45:36.466856 31321 net.cpp:91] Creating Layer inception_3b/relu_5x5
I0903 16:45:36.466864 31321 net.cpp:425] inception_3b/relu_5x5 <- inception_3b/5x5
I0903 16:45:36.466874 31321 net.cpp:386] inception_3b/relu_5x5 -> inception_3b/5x5 (in-place)
I0903 16:45:36.467357 31321 net.cpp:141] Setting up inception_3b/relu_5x5
I0903 16:45:36.467371 31321 net.cpp:148] Top shape: 10 96 28 28 (752640)
I0903 16:45:36.467376 31321 net.cpp:156] Memory required for data: 310087680
I0903 16:45:36.467381 31321 layer_factory.hpp:77] Creating layer inception_3b/pool
I0903 16:45:36.467391 31321 net.cpp:91] Creating Layer inception_3b/pool
I0903 16:45:36.467397 31321 net.cpp:425] inception_3b/pool <- inception_3a/output_inception_3a/output_0_split_3
I0903 16:45:36.467411 31321 net.cpp:399] inception_3b/pool -> inception_3b/pool
I0903 16:45:36.467422 31317 net.cpp:141] Setting up inception_4a/1x1
I0903 16:45:36.467437 31317 net.cpp:148] Top shape: 10 192 14 14 (376320)
I0903 16:45:36.467442 31317 net.cpp:156] Memory required for data: 357504000
I0903 16:45:36.467452 31317 layer_factory.hpp:77] Creating layer inception_4a/relu_1x1
I0903 16:45:36.467463 31317 net.cpp:91] Creating Layer inception_4a/relu_1x1
I0903 16:45:36.467468 31317 net.cpp:425] inception_4a/relu_1x1 <- inception_4a/1x1
I0903 16:45:36.467475 31317 net.cpp:386] inception_4a/relu_1x1 -> inception_4a/1x1 (in-place)
I0903 16:45:36.467891 31321 net.cpp:141] Setting up inception_3b/pool
I0903 16:45:36.467905 31321 net.cpp:148] Top shape: 10 256 28 28 (2007040)
I0903 16:45:36.467911 31321 net.cpp:156] Memory required for data: 318115840
I0903 16:45:36.467916 31321 layer_factory.hpp:77] Creating layer inception_3b/pool_proj
I0903 16:45:36.467932 31321 net.cpp:91] Creating Layer inception_3b/pool_proj
I0903 16:45:36.467939 31321 net.cpp:425] inception_3b/pool_proj <- inception_3b/pool
I0903 16:45:36.467952 31321 net.cpp:399] inception_3b/pool_proj -> inception_3b/pool_proj
I0903 16:45:36.467986 31317 net.cpp:141] Setting up inception_4a/relu_1x1
I0903 16:45:36.467999 31317 net.cpp:148] Top shape: 10 192 14 14 (376320)
I0903 16:45:36.468004 31317 net.cpp:156] Memory required for data: 359009280
I0903 16:45:36.468009 31317 layer_factory.hpp:77] Creating layer inception_4a/3x3_reduce
I0903 16:45:36.468027 31317 net.cpp:91] Creating Layer inception_4a/3x3_reduce
I0903 16:45:36.468034 31317 net.cpp:425] inception_4a/3x3_reduce <- pool3/3x3_s2_pool3/3x3_s2_0_split_1
I0903 16:45:36.468042 31317 net.cpp:399] inception_4a/3x3_reduce -> inception_4a/3x3_reduce
I0903 16:45:36.471777 31321 net.cpp:141] Setting up inception_3b/pool_proj
I0903 16:45:36.471801 31321 net.cpp:148] Top shape: 10 64 28 28 (501760)
I0903 16:45:36.471807 31321 net.cpp:156] Memory required for data: 320122880
I0903 16:45:36.471817 31321 layer_factory.hpp:77] Creating layer inception_3b/relu_pool_proj
I0903 16:45:36.471827 31321 net.cpp:91] Creating Layer inception_3b/relu_pool_proj
I0903 16:45:36.471833 31321 net.cpp:425] inception_3b/relu_pool_proj <- inception_3b/pool_proj
I0903 16:45:36.471842 31321 net.cpp:386] inception_3b/relu_pool_proj -> inception_3b/pool_proj (in-place)
I0903 16:45:36.472347 31317 net.cpp:141] Setting up inception_4a/3x3_reduce
I0903 16:45:36.472362 31317 net.cpp:148] Top shape: 10 96 14 14 (188160)
I0903 16:45:36.472368 31317 net.cpp:156] Memory required for data: 359761920
I0903 16:45:36.472388 31317 layer_factory.hpp:77] Creating layer inception_4a/relu_3x3_reduce
I0903 16:45:36.472399 31317 net.cpp:91] Creating Layer inception_4a/relu_3x3_reduce
I0903 16:45:36.472405 31317 net.cpp:425] inception_4a/relu_3x3_reduce <- inception_4a/3x3_reduce
I0903 16:45:36.472412 31317 net.cpp:386] inception_4a/relu_3x3_reduce -> inception_4a/3x3_reduce (in-place)
I0903 16:45:36.472432 31321 net.cpp:141] Setting up inception_3b/relu_pool_proj
I0903 16:45:36.472448 31321 net.cpp:148] Top shape: 10 64 28 28 (501760)
I0903 16:45:36.472453 31321 net.cpp:156] Memory required for data: 322129920
I0903 16:45:36.472460 31321 layer_factory.hpp:77] Creating layer inception_3b/output
I0903 16:45:36.472470 31321 net.cpp:91] Creating Layer inception_3b/output
I0903 16:45:36.472476 31321 net.cpp:425] inception_3b/output <- inception_3b/1x1
I0903 16:45:36.472482 31321 net.cpp:425] inception_3b/output <- inception_3b/3x3
I0903 16:45:36.472488 31321 net.cpp:425] inception_3b/output <- inception_3b/5x5
I0903 16:45:36.472494 31321 net.cpp:425] inception_3b/output <- inception_3b/pool_proj
I0903 16:45:36.472501 31321 net.cpp:399] inception_3b/output -> inception_3b/output
I0903 16:45:36.472661 31321 net.cpp:141] Setting up inception_3b/output
I0903 16:45:36.472674 31321 net.cpp:148] Top shape: 10 480 28 28 (3763200)
I0903 16:45:36.472679 31321 net.cpp:156] Memory required for data: 337182720
I0903 16:45:36.472684 31321 layer_factory.hpp:77] Creating layer pool3/3x3_s2
I0903 16:45:36.472693 31321 net.cpp:91] Creating Layer pool3/3x3_s2
I0903 16:45:36.472699 31321 net.cpp:425] pool3/3x3_s2 <- inception_3b/output
I0903 16:45:36.472712 31321 net.cpp:399] pool3/3x3_s2 -> pool3/3x3_s2
I0903 16:45:36.472745 31317 net.cpp:141] Setting up inception_4a/relu_3x3_reduce
I0903 16:45:36.472757 31317 net.cpp:148] Top shape: 10 96 14 14 (188160)
I0903 16:45:36.472761 31317 net.cpp:156] Memory required for data: 360514560
I0903 16:45:36.472766 31317 layer_factory.hpp:77] Creating layer inception_4a/3x3
I0903 16:45:36.472784 31317 net.cpp:91] Creating Layer inception_4a/3x3
I0903 16:45:36.472790 31317 net.cpp:425] inception_4a/3x3 <- inception_4a/3x3_reduce
I0903 16:45:36.472797 31317 net.cpp:399] inception_4a/3x3 -> inception_4a/3x3
I0903 16:45:36.472832 31321 net.cpp:141] Setting up pool3/3x3_s2
I0903 16:45:36.472846 31321 net.cpp:148] Top shape: 10 480 14 14 (940800)
I0903 16:45:36.472851 31321 net.cpp:156] Memory required for data: 340945920
I0903 16:45:36.472856 31321 layer_factory.hpp:77] Creating layer pool3/3x3_s2_pool3/3x3_s2_0_split
I0903 16:45:36.472864 31321 net.cpp:91] Creating Layer pool3/3x3_s2_pool3/3x3_s2_0_split
I0903 16:45:36.472870 31321 net.cpp:425] pool3/3x3_s2_pool3/3x3_s2_0_split <- pool3/3x3_s2
I0903 16:45:36.472882 31321 net.cpp:399] pool3/3x3_s2_pool3/3x3_s2_0_split -> pool3/3x3_s2_pool3/3x3_s2_0_split_0
I0903 16:45:36.472892 31321 net.cpp:399] pool3/3x3_s2_pool3/3x3_s2_0_split -> pool3/3x3_s2_pool3/3x3_s2_0_split_1
I0903 16:45:36.472901 31321 net.cpp:399] pool3/3x3_s2_pool3/3x3_s2_0_split -> pool3/3x3_s2_pool3/3x3_s2_0_split_2
I0903 16:45:36.472913 31321 net.cpp:399] pool3/3x3_s2_pool3/3x3_s2_0_split -> pool3/3x3_s2_pool3/3x3_s2_0_split_3
I0903 16:45:36.473477 31321 net.cpp:141] Setting up pool3/3x3_s2_pool3/3x3_s2_0_split
I0903 16:45:36.473490 31321 net.cpp:148] Top shape: 10 480 14 14 (940800)
I0903 16:45:36.473496 31321 net.cpp:148] Top shape: 10 480 14 14 (940800)
I0903 16:45:36.473502 31321 net.cpp:148] Top shape: 10 480 14 14 (940800)
I0903 16:45:36.473507 31321 net.cpp:148] Top shape: 10 480 14 14 (940800)
I0903 16:45:36.473512 31321 net.cpp:156] Memory required for data: 355998720
I0903 16:45:36.473518 31321 layer_factory.hpp:77] Creating layer inception_4a/1x1
I0903 16:45:36.473536 31321 net.cpp:91] Creating Layer inception_4a/1x1
I0903 16:45:36.473542 31321 net.cpp:425] inception_4a/1x1 <- pool3/3x3_s2_pool3/3x3_s2_0_split_0
I0903 16:45:36.473552 31321 net.cpp:399] inception_4a/1x1 -> inception_4a/1x1
I0903 16:45:36.478440 31321 net.cpp:141] Setting up inception_4a/1x1
I0903 16:45:36.478462 31321 net.cpp:148] Top shape: 10 192 14 14 (376320)
I0903 16:45:36.478468 31321 net.cpp:156] Memory required for data: 357504000
I0903 16:45:36.478478 31321 layer_factory.hpp:77] Creating layer inception_4a/relu_1x1
I0903 16:45:36.478489 31321 net.cpp:91] Creating Layer inception_4a/relu_1x1
I0903 16:45:36.478495 31321 net.cpp:425] inception_4a/relu_1x1 <- inception_4a/1x1
I0903 16:45:36.478503 31321 net.cpp:386] inception_4a/relu_1x1 -> inception_4a/1x1 (in-place)
I0903 16:45:36.478574 31317 net.cpp:141] Setting up inception_4a/3x3
I0903 16:45:36.478587 31317 net.cpp:148] Top shape: 10 208 14 14 (407680)
I0903 16:45:36.478592 31317 net.cpp:156] Memory required for data: 362145280
I0903 16:45:36.478601 31317 layer_factory.hpp:77] Creating layer inception_4a/relu_3x3
I0903 16:45:36.478612 31317 net.cpp:91] Creating Layer inception_4a/relu_3x3
I0903 16:45:36.478618 31317 net.cpp:425] inception_4a/relu_3x3 <- inception_4a/3x3
I0903 16:45:36.478626 31317 net.cpp:386] inception_4a/relu_3x3 -> inception_4a/3x3 (in-place)
I0903 16:45:36.479049 31321 net.cpp:141] Setting up inception_4a/relu_1x1
I0903 16:45:36.479065 31321 net.cpp:148] Top shape: 10 192 14 14 (376320)
I0903 16:45:36.479070 31321 net.cpp:156] Memory required for data: 359009280
I0903 16:45:36.479076 31321 layer_factory.hpp:77] Creating layer inception_4a/3x3_reduce
I0903 16:45:36.479095 31321 net.cpp:91] Creating Layer inception_4a/3x3_reduce
I0903 16:45:36.479102 31321 net.cpp:425] inception_4a/3x3_reduce <- pool3/3x3_s2_pool3/3x3_s2_0_split_1
I0903 16:45:36.479115 31321 net.cpp:399] inception_4a/3x3_reduce -> inception_4a/3x3_reduce
I0903 16:45:36.479138 31317 net.cpp:141] Setting up inception_4a/relu_3x3
I0903 16:45:36.479156 31317 net.cpp:148] Top shape: 10 208 14 14 (407680)
I0903 16:45:36.479161 31317 net.cpp:156] Memory required for data: 363776000
I0903 16:45:36.479166 31317 layer_factory.hpp:77] Creating layer inception_4a/5x5_reduce
I0903 16:45:36.479179 31317 net.cpp:91] Creating Layer inception_4a/5x5_reduce
I0903 16:45:36.479185 31317 net.cpp:425] inception_4a/5x5_reduce <- pool3/3x3_s2_pool3/3x3_s2_0_split_2
I0903 16:45:36.479194 31317 net.cpp:399] inception_4a/5x5_reduce -> inception_4a/5x5_reduce
I0903 16:45:36.482753 31317 net.cpp:141] Setting up inception_4a/5x5_reduce
I0903 16:45:36.482784 31317 net.cpp:148] Top shape: 10 16 14 14 (31360)
I0903 16:45:36.482789 31317 net.cpp:156] Memory required for data: 363901440
I0903 16:45:36.482797 31317 layer_factory.hpp:77] Creating layer inception_4a/relu_5x5_reduce
I0903 16:45:36.482810 31317 net.cpp:91] Creating Layer inception_4a/relu_5x5_reduce
I0903 16:45:36.482815 31317 net.cpp:425] inception_4a/relu_5x5_reduce <- inception_4a/5x5_reduce
I0903 16:45:36.482822 31317 net.cpp:386] inception_4a/relu_5x5_reduce -> inception_4a/5x5_reduce (in-place)
I0903 16:45:36.483399 31317 net.cpp:141] Setting up inception_4a/relu_5x5_reduce
I0903 16:45:36.483414 31317 net.cpp:148] Top shape: 10 16 14 14 (31360)
I0903 16:45:36.483419 31317 net.cpp:156] Memory required for data: 364026880
I0903 16:45:36.483424 31317 layer_factory.hpp:77] Creating layer inception_4a/5x5
I0903 16:45:36.483443 31317 net.cpp:91] Creating Layer inception_4a/5x5
I0903 16:45:36.483448 31317 net.cpp:425] inception_4a/5x5 <- inception_4a/5x5_reduce
I0903 16:45:36.483458 31317 net.cpp:399] inception_4a/5x5 -> inception_4a/5x5
I0903 16:45:36.483494 31321 net.cpp:141] Setting up inception_4a/3x3_reduce
I0903 16:45:36.483511 31321 net.cpp:148] Top shape: 10 96 14 14 (188160)
I0903 16:45:36.483520 31321 net.cpp:156] Memory required for data: 359761920
I0903 16:45:36.483537 31321 layer_factory.hpp:77] Creating layer inception_4a/relu_3x3_reduce
I0903 16:45:36.483551 31321 net.cpp:91] Creating Layer inception_4a/relu_3x3_reduce
I0903 16:45:36.483558 31321 net.cpp:425] inception_4a/relu_3x3_reduce <- inception_4a/3x3_reduce
I0903 16:45:36.483567 31321 net.cpp:386] inception_4a/relu_3x3_reduce -> inception_4a/3x3_reduce (in-place)
I0903 16:45:36.484033 31321 net.cpp:141] Setting up inception_4a/relu_3x3_reduce
I0903 16:45:36.484050 31321 net.cpp:148] Top shape: 10 96 14 14 (188160)
I0903 16:45:36.484056 31321 net.cpp:156] Memory required for data: 360514560
I0903 16:45:36.484062 31321 layer_factory.hpp:77] Creating layer inception_4a/3x3
I0903 16:45:36.484092 31321 net.cpp:91] Creating Layer inception_4a/3x3
I0903 16:45:36.484100 31321 net.cpp:425] inception_4a/3x3 <- inception_4a/3x3_reduce
I0903 16:45:36.484113 31321 net.cpp:399] inception_4a/3x3 -> inception_4a/3x3
I0903 16:45:36.486892 31317 net.cpp:141] Setting up inception_4a/5x5
I0903 16:45:36.486915 31317 net.cpp:148] Top shape: 10 48 14 14 (94080)
I0903 16:45:36.486920 31317 net.cpp:156] Memory required for data: 364403200
I0903 16:45:36.486929 31317 layer_factory.hpp:77] Creating layer inception_4a/relu_5x5
I0903 16:45:36.486937 31317 net.cpp:91] Creating Layer inception_4a/relu_5x5
I0903 16:45:36.486943 31317 net.cpp:425] inception_4a/relu_5x5 <- inception_4a/5x5
I0903 16:45:36.486949 31317 net.cpp:386] inception_4a/relu_5x5 -> inception_4a/5x5 (in-place)
I0903 16:45:36.487182 31317 net.cpp:141] Setting up inception_4a/relu_5x5
I0903 16:45:36.487193 31317 net.cpp:148] Top shape: 10 48 14 14 (94080)
I0903 16:45:36.487197 31317 net.cpp:156] Memory required for data: 364779520
I0903 16:45:36.487202 31317 layer_factory.hpp:77] Creating layer inception_4a/pool
I0903 16:45:36.487210 31317 net.cpp:91] Creating Layer inception_4a/pool
I0903 16:45:36.487217 31317 net.cpp:425] inception_4a/pool <- pool3/3x3_s2_pool3/3x3_s2_0_split_3
I0903 16:45:36.487224 31317 net.cpp:399] inception_4a/pool -> inception_4a/pool
I0903 16:45:36.487341 31317 net.cpp:141] Setting up inception_4a/pool
I0903 16:45:36.487351 31317 net.cpp:148] Top shape: 10 480 14 14 (940800)
I0903 16:45:36.487355 31317 net.cpp:156] Memory required for data: 368542720
I0903 16:45:36.487360 31317 layer_factory.hpp:77] Creating layer inception_4a/pool_proj
I0903 16:45:36.487373 31317 net.cpp:91] Creating Layer inception_4a/pool_proj
I0903 16:45:36.487380 31317 net.cpp:425] inception_4a/pool_proj <- inception_4a/pool
I0903 16:45:36.487390 31317 net.cpp:399] inception_4a/pool_proj -> inception_4a/pool_proj
I0903 16:45:36.490295 31317 net.cpp:141] Setting up inception_4a/pool_proj
I0903 16:45:36.490312 31317 net.cpp:148] Top shape: 10 64 14 14 (125440)
I0903 16:45:36.490317 31317 net.cpp:156] Memory required for data: 369044480
I0903 16:45:36.490325 31317 layer_factory.hpp:77] Creating layer inception_4a/relu_pool_proj
I0903 16:45:36.490334 31317 net.cpp:91] Creating Layer inception_4a/relu_pool_proj
I0903 16:45:36.490342 31317 net.cpp:425] inception_4a/relu_pool_proj <- inception_4a/pool_proj
I0903 16:45:36.490348 31317 net.cpp:386] inception_4a/relu_pool_proj -> inception_4a/pool_proj (in-place)
I0903 16:45:36.490967 31317 net.cpp:141] Setting up inception_4a/relu_pool_proj
I0903 16:45:36.490983 31317 net.cpp:148] Top shape: 10 64 14 14 (125440)
I0903 16:45:36.490988 31317 net.cpp:156] Memory required for data: 369546240
I0903 16:45:36.490991 31317 layer_factory.hpp:77] Creating layer inception_4a/output
I0903 16:45:36.491004 31317 net.cpp:91] Creating Layer inception_4a/output
I0903 16:45:36.491010 31317 net.cpp:425] inception_4a/output <- inception_4a/1x1
I0903 16:45:36.491016 31317 net.cpp:425] inception_4a/output <- inception_4a/3x3
I0903 16:45:36.491022 31317 net.cpp:425] inception_4a/output <- inception_4a/5x5
I0903 16:45:36.491027 31317 net.cpp:425] inception_4a/output <- inception_4a/pool_proj
I0903 16:45:36.491034 31317 net.cpp:399] inception_4a/output -> inception_4a/output
I0903 16:45:36.491156 31317 net.cpp:141] Setting up inception_4a/output
I0903 16:45:36.491168 31317 net.cpp:148] Top shape: 10 512 14 14 (1003520)
I0903 16:45:36.491173 31317 net.cpp:156] Memory required for data: 373560320
I0903 16:45:36.491178 31317 layer_factory.hpp:77] Creating layer inception_4a/output_inception_4a/output_0_split
I0903 16:45:36.491186 31317 net.cpp:91] Creating Layer inception_4a/output_inception_4a/output_0_split
I0903 16:45:36.491191 31317 net.cpp:425] inception_4a/output_inception_4a/output_0_split <- inception_4a/output
I0903 16:45:36.491199 31317 net.cpp:399] inception_4a/output_inception_4a/output_0_split -> inception_4a/output_inception_4a/output_0_split_0
I0903 16:45:36.491194 31321 net.cpp:141] Setting up inception_4a/3x3
I0903 16:45:36.491211 31317 net.cpp:399] inception_4a/output_inception_4a/output_0_split -> inception_4a/output_inception_4a/output_0_split_1
I0903 16:45:36.491225 31321 net.cpp:148] Top shape: 10 208 14 14 (407680)
I0903 16:45:36.491230 31317 net.cpp:399] inception_4a/output_inception_4a/output_0_split -> inception_4a/output_inception_4a/output_0_split_2
I0903 16:45:36.491232 31321 net.cpp:156] Memory required for data: 362145280
I0903 16:45:36.491243 31321 layer_factory.hpp:77] Creating layer inception_4a/relu_3x3
I0903 16:45:36.491243 31317 net.cpp:399] inception_4a/output_inception_4a/output_0_split -> inception_4a/output_inception_4a/output_0_split_3
I0903 16:45:36.491256 31321 net.cpp:91] Creating Layer inception_4a/relu_3x3
I0903 16:45:36.491263 31321 net.cpp:425] inception_4a/relu_3x3 <- inception_4a/3x3
I0903 16:45:36.491271 31321 net.cpp:386] inception_4a/relu_3x3 -> inception_4a/3x3 (in-place)
I0903 16:45:36.491911 31317 net.cpp:141] Setting up inception_4a/output_inception_4a/output_0_split
I0903 16:45:36.491922 31317 net.cpp:148] Top shape: 10 512 14 14 (1003520)
I0903 16:45:36.491930 31317 net.cpp:148] Top shape: 10 512 14 14 (1003520)
I0903 16:45:36.491927 31321 net.cpp:141] Setting up inception_4a/relu_3x3
I0903 16:45:36.491935 31317 net.cpp:148] Top shape: 10 512 14 14 (1003520)
I0903 16:45:36.491945 31321 net.cpp:148] Top shape: 10 208 14 14 (407680)
I0903 16:45:36.491950 31317 net.cpp:148] Top shape: 10 512 14 14 (1003520)
I0903 16:45:36.491952 31321 net.cpp:156] Memory required for data: 363776000
I0903 16:45:36.491955 31317 net.cpp:156] Memory required for data: 389616640
I0903 16:45:36.491960 31321 layer_factory.hpp:77] Creating layer inception_4a/5x5_reduce
I0903 16:45:36.491961 31317 layer_factory.hpp:77] Creating layer inception_4b/1x1
I0903 16:45:36.491982 31321 net.cpp:91] Creating Layer inception_4a/5x5_reduce
I0903 16:45:36.491988 31317 net.cpp:91] Creating Layer inception_4b/1x1
I0903 16:45:36.491991 31321 net.cpp:425] inception_4a/5x5_reduce <- pool3/3x3_s2_pool3/3x3_s2_0_split_2
I0903 16:45:36.491997 31317 net.cpp:425] inception_4b/1x1 <- inception_4a/output_inception_4a/output_0_split_0
I0903 16:45:36.492005 31321 net.cpp:399] inception_4a/5x5_reduce -> inception_4a/5x5_reduce
I0903 16:45:36.492007 31317 net.cpp:399] inception_4b/1x1 -> inception_4b/1x1
I0903 16:45:36.495811 31317 net.cpp:141] Setting up inception_4b/1x1
I0903 16:45:36.495831 31317 net.cpp:148] Top shape: 10 160 14 14 (313600)
I0903 16:45:36.495837 31317 net.cpp:156] Memory required for data: 390871040
I0903 16:45:36.495847 31317 layer_factory.hpp:77] Creating layer inception_4b/relu_1x1
I0903 16:45:36.495857 31317 net.cpp:91] Creating Layer inception_4b/relu_1x1
I0903 16:45:36.495862 31317 net.cpp:425] inception_4b/relu_1x1 <- inception_4b/1x1
I0903 16:45:36.495873 31317 net.cpp:386] inception_4b/relu_1x1 -> inception_4b/1x1 (in-place)
I0903 16:45:36.496348 31317 net.cpp:141] Setting up inception_4b/relu_1x1
I0903 16:45:36.496362 31317 net.cpp:148] Top shape: 10 160 14 14 (313600)
I0903 16:45:36.496366 31317 net.cpp:156] Memory required for data: 392125440
I0903 16:45:36.496371 31317 layer_factory.hpp:77] Creating layer inception_4b/3x3_reduce
I0903 16:45:36.496388 31317 net.cpp:91] Creating Layer inception_4b/3x3_reduce
I0903 16:45:36.496394 31317 net.cpp:425] inception_4b/3x3_reduce <- inception_4a/output_inception_4a/output_0_split_1
I0903 16:45:36.496405 31317 net.cpp:399] inception_4b/3x3_reduce -> inception_4b/3x3_reduce
I0903 16:45:36.498515 31321 net.cpp:141] Setting up inception_4a/5x5_reduce
I0903 16:45:36.498538 31321 net.cpp:148] Top shape: 10 16 14 14 (31360)
I0903 16:45:36.498549 31321 net.cpp:156] Memory required for data: 363901440
I0903 16:45:36.498569 31321 layer_factory.hpp:77] Creating layer inception_4a/relu_5x5_reduce
I0903 16:45:36.498589 31321 net.cpp:91] Creating Layer inception_4a/relu_5x5_reduce
I0903 16:45:36.498603 31321 net.cpp:425] inception_4a/relu_5x5_reduce <- inception_4a/5x5_reduce
I0903 16:45:36.498618 31321 net.cpp:386] inception_4a/relu_5x5_reduce -> inception_4a/5x5_reduce (in-place)
I0903 16:45:36.499254 31321 net.cpp:141] Setting up inception_4a/relu_5x5_reduce
I0903 16:45:36.499277 31321 net.cpp:148] Top shape: 10 16 14 14 (31360)
I0903 16:45:36.499286 31321 net.cpp:156] Memory required for data: 364026880
I0903 16:45:36.499296 31321 layer_factory.hpp:77] Creating layer inception_4a/5x5
I0903 16:45:36.499331 31321 net.cpp:91] Creating Layer inception_4a/5x5
I0903 16:45:36.499346 31321 net.cpp:425] inception_4a/5x5 <- inception_4a/5x5_reduce
I0903 16:45:36.499364 31321 net.cpp:399] inception_4a/5x5 -> inception_4a/5x5
I0903 16:45:36.499598 31317 net.cpp:141] Setting up inception_4b/3x3_reduce
I0903 16:45:36.499614 31317 net.cpp:148] Top shape: 10 112 14 14 (219520)
I0903 16:45:36.499619 31317 net.cpp:156] Memory required for data: 393003520
I0903 16:45:36.499629 31317 layer_factory.hpp:77] Creating layer inception_4b/relu_3x3_reduce
I0903 16:45:36.499637 31317 net.cpp:91] Creating Layer inception_4b/relu_3x3_reduce
I0903 16:45:36.499644 31317 net.cpp:425] inception_4b/relu_3x3_reduce <- inception_4b/3x3_reduce
I0903 16:45:36.499650 31317 net.cpp:386] inception_4b/relu_3x3_reduce -> inception_4b/3x3_reduce (in-place)
I0903 16:45:36.499996 31317 net.cpp:141] Setting up inception_4b/relu_3x3_reduce
I0903 16:45:36.500008 31317 net.cpp:148] Top shape: 10 112 14 14 (219520)
I0903 16:45:36.500013 31317 net.cpp:156] Memory required for data: 393881600
I0903 16:45:36.500018 31317 layer_factory.hpp:77] Creating layer inception_4b/3x3
I0903 16:45:36.500032 31317 net.cpp:91] Creating Layer inception_4b/3x3
I0903 16:45:36.500038 31317 net.cpp:425] inception_4b/3x3 <- inception_4b/3x3_reduce
I0903 16:45:36.500051 31317 net.cpp:399] inception_4b/3x3 -> inception_4b/3x3
I0903 16:45:36.503130 31321 net.cpp:141] Setting up inception_4a/5x5
I0903 16:45:36.503152 31321 net.cpp:148] Top shape: 10 48 14 14 (94080)
I0903 16:45:36.503162 31321 net.cpp:156] Memory required for data: 364403200
I0903 16:45:36.503180 31321 layer_factory.hpp:77] Creating layer inception_4a/relu_5x5
I0903 16:45:36.503201 31321 net.cpp:91] Creating Layer inception_4a/relu_5x5
I0903 16:45:36.503213 31321 net.cpp:425] inception_4a/relu_5x5 <- inception_4a/5x5
I0903 16:45:36.503227 31321 net.cpp:386] inception_4a/relu_5x5 -> inception_4a/5x5 (in-place)
I0903 16:45:36.503756 31321 net.cpp:141] Setting up inception_4a/relu_5x5
I0903 16:45:36.503774 31321 net.cpp:148] Top shape: 10 48 14 14 (94080)
I0903 16:45:36.503784 31321 net.cpp:156] Memory required for data: 364779520
I0903 16:45:36.503794 31321 layer_factory.hpp:77] Creating layer inception_4a/pool
I0903 16:45:36.503809 31321 net.cpp:91] Creating Layer inception_4a/pool
I0903 16:45:36.503820 31321 net.cpp:425] inception_4a/pool <- pool3/3x3_s2_pool3/3x3_s2_0_split_3
I0903 16:45:36.503841 31321 net.cpp:399] inception_4a/pool -> inception_4a/pool
I0903 16:45:36.504184 31321 net.cpp:141] Setting up inception_4a/pool
I0903 16:45:36.504204 31321 net.cpp:148] Top shape: 10 480 14 14 (940800)
I0903 16:45:36.504214 31321 net.cpp:156] Memory required for data: 368542720
I0903 16:45:36.504222 31321 layer_factory.hpp:77] Creating layer inception_4a/pool_proj
I0903 16:45:36.504253 31321 net.cpp:91] Creating Layer inception_4a/pool_proj
I0903 16:45:36.504266 31321 net.cpp:425] inception_4a/pool_proj <- inception_4a/pool
I0903 16:45:36.504288 31321 net.cpp:399] inception_4a/pool_proj -> inception_4a/pool_proj
I0903 16:45:36.505807 31317 net.cpp:141] Setting up inception_4b/3x3
I0903 16:45:36.505830 31317 net.cpp:148] Top shape: 10 224 14 14 (439040)
I0903 16:45:36.505836 31317 net.cpp:156] Memory required for data: 395637760
I0903 16:45:36.505844 31317 layer_factory.hpp:77] Creating layer inception_4b/relu_3x3
I0903 16:45:36.505853 31317 net.cpp:91] Creating Layer inception_4b/relu_3x3
I0903 16:45:36.505859 31317 net.cpp:425] inception_4b/relu_3x3 <- inception_4b/3x3
I0903 16:45:36.505867 31317 net.cpp:386] inception_4b/relu_3x3 -> inception_4b/3x3 (in-place)
I0903 16:45:36.506414 31317 net.cpp:141] Setting up inception_4b/relu_3x3
I0903 16:45:36.506429 31317 net.cpp:148] Top shape: 10 224 14 14 (439040)
I0903 16:45:36.506434 31317 net.cpp:156] Memory required for data: 397393920
I0903 16:45:36.506439 31317 layer_factory.hpp:77] Creating layer inception_4b/5x5_reduce
I0903 16:45:36.506469 31317 net.cpp:91] Creating Layer inception_4b/5x5_reduce
I0903 16:45:36.506476 31317 net.cpp:425] inception_4b/5x5_reduce <- inception_4a/output_inception_4a/output_0_split_2
I0903 16:45:36.506486 31317 net.cpp:399] inception_4b/5x5_reduce -> inception_4b/5x5_reduce
I0903 16:45:36.508909 31321 net.cpp:141] Setting up inception_4a/pool_proj
I0903 16:45:36.508929 31321 net.cpp:148] Top shape: 10 64 14 14 (125440)
I0903 16:45:36.508939 31321 net.cpp:156] Memory required for data: 369044480
I0903 16:45:36.508956 31321 layer_factory.hpp:77] Creating layer inception_4a/relu_pool_proj
I0903 16:45:36.508971 31321 net.cpp:91] Creating Layer inception_4a/relu_pool_proj
I0903 16:45:36.508981 31321 net.cpp:425] inception_4a/relu_pool_proj <- inception_4a/pool_proj
I0903 16:45:36.509002 31321 net.cpp:386] inception_4a/relu_pool_proj -> inception_4a/pool_proj (in-place)
I0903 16:45:36.509783 31321 net.cpp:141] Setting up inception_4a/relu_pool_proj
I0903 16:45:36.509800 31321 net.cpp:148] Top shape: 10 64 14 14 (125440)
I0903 16:45:36.509809 31321 net.cpp:156] Memory required for data: 369546240
I0903 16:45:36.509819 31321 layer_factory.hpp:77] Creating layer inception_4a/output
I0903 16:45:36.509834 31321 net.cpp:91] Creating Layer inception_4a/output
I0903 16:45:36.509843 31321 net.cpp:425] inception_4a/output <- inception_4a/1x1
I0903 16:45:36.509861 31321 net.cpp:425] inception_4a/output <- inception_4a/3x3
I0903 16:45:36.509874 31321 net.cpp:425] inception_4a/output <- inception_4a/5x5
I0903 16:45:36.509877 31317 net.cpp:141] Setting up inception_4b/5x5_reduce
I0903 16:45:36.509886 31321 net.cpp:425] inception_4a/output <- inception_4a/pool_proj
I0903 16:45:36.509894 31317 net.cpp:148] Top shape: 10 24 14 14 (47040)
I0903 16:45:36.509899 31317 net.cpp:156] Memory required for data: 397582080
I0903 16:45:36.509899 31321 net.cpp:399] inception_4a/output -> inception_4a/output
I0903 16:45:36.509909 31317 layer_factory.hpp:77] Creating layer inception_4b/relu_5x5_reduce
I0903 16:45:36.509917 31317 net.cpp:91] Creating Layer inception_4b/relu_5x5_reduce
I0903 16:45:36.509923 31317 net.cpp:425] inception_4b/relu_5x5_reduce <- inception_4b/5x5_reduce
I0903 16:45:36.509929 31317 net.cpp:386] inception_4b/relu_5x5_reduce -> inception_4b/5x5_reduce (in-place)
I0903 16:45:36.510310 31321 net.cpp:141] Setting up inception_4a/output
I0903 16:45:36.510329 31321 net.cpp:148] Top shape: 10 512 14 14 (1003520)
I0903 16:45:36.510339 31321 net.cpp:156] Memory required for data: 373560320
I0903 16:45:36.510347 31321 layer_factory.hpp:77] Creating layer inception_4a/output_inception_4a/output_0_split
I0903 16:45:36.510368 31321 net.cpp:91] Creating Layer inception_4a/output_inception_4a/output_0_split
I0903 16:45:36.510380 31321 net.cpp:425] inception_4a/output_inception_4a/output_0_split <- inception_4a/output
I0903 16:45:36.510395 31321 net.cpp:399] inception_4a/output_inception_4a/output_0_split -> inception_4a/output_inception_4a/output_0_split_0
I0903 16:45:36.510396 31317 net.cpp:141] Setting up inception_4b/relu_5x5_reduce
I0903 16:45:36.510411 31317 net.cpp:148] Top shape: 10 24 14 14 (47040)
I0903 16:45:36.510416 31317 net.cpp:156] Memory required for data: 397770240
I0903 16:45:36.510412 31321 net.cpp:399] inception_4a/output_inception_4a/output_0_split -> inception_4a/output_inception_4a/output_0_split_1
I0903 16:45:36.510421 31317 layer_factory.hpp:77] Creating layer inception_4b/5x5
I0903 16:45:36.510437 31317 net.cpp:91] Creating Layer inception_4b/5x5
I0903 16:45:36.510437 31321 net.cpp:399] inception_4a/output_inception_4a/output_0_split -> inception_4a/output_inception_4a/output_0_split_2
I0903 16:45:36.510449 31317 net.cpp:425] inception_4b/5x5 <- inception_4b/5x5_reduce
I0903 16:45:36.510465 31317 net.cpp:399] inception_4b/5x5 -> inception_4b/5x5
I0903 16:45:36.510469 31321 net.cpp:399] inception_4a/output_inception_4a/output_0_split -> inception_4a/output_inception_4a/output_0_split_3
I0903 16:45:36.511037 31321 net.cpp:141] Setting up inception_4a/output_inception_4a/output_0_split
I0903 16:45:36.511056 31321 net.cpp:148] Top shape: 10 512 14 14 (1003520)
I0903 16:45:36.511070 31321 net.cpp:148] Top shape: 10 512 14 14 (1003520)
I0903 16:45:36.511081 31321 net.cpp:148] Top shape: 10 512 14 14 (1003520)
I0903 16:45:36.511092 31321 net.cpp:148] Top shape: 10 512 14 14 (1003520)
I0903 16:45:36.511101 31321 net.cpp:156] Memory required for data: 389616640
I0903 16:45:36.511109 31321 layer_factory.hpp:77] Creating layer inception_4b/1x1
I0903 16:45:36.511138 31321 net.cpp:91] Creating Layer inception_4b/1x1
I0903 16:45:36.511152 31321 net.cpp:425] inception_4b/1x1 <- inception_4a/output_inception_4a/output_0_split_0
I0903 16:45:36.511169 31321 net.cpp:399] inception_4b/1x1 -> inception_4b/1x1
I0903 16:45:36.514442 31317 net.cpp:141] Setting up inception_4b/5x5
I0903 16:45:36.514459 31317 net.cpp:148] Top shape: 10 64 14 14 (125440)
I0903 16:45:36.514464 31317 net.cpp:156] Memory required for data: 398272000
I0903 16:45:36.514473 31317 layer_factory.hpp:77] Creating layer inception_4b/relu_5x5
I0903 16:45:36.514482 31317 net.cpp:91] Creating Layer inception_4b/relu_5x5
I0903 16:45:36.514487 31317 net.cpp:425] inception_4b/relu_5x5 <- inception_4b/5x5
I0903 16:45:36.514497 31317 net.cpp:386] inception_4b/relu_5x5 -> inception_4b/5x5 (in-place)
I0903 16:45:36.514861 31317 net.cpp:141] Setting up inception_4b/relu_5x5
I0903 16:45:36.514873 31317 net.cpp:148] Top shape: 10 64 14 14 (125440)
I0903 16:45:36.514878 31317 net.cpp:156] Memory required for data: 398773760
I0903 16:45:36.514883 31317 layer_factory.hpp:77] Creating layer inception_4b/pool
I0903 16:45:36.514894 31317 net.cpp:91] Creating Layer inception_4b/pool
I0903 16:45:36.514900 31317 net.cpp:425] inception_4b/pool <- inception_4a/output_inception_4a/output_0_split_3
I0903 16:45:36.514907 31317 net.cpp:399] inception_4b/pool -> inception_4b/pool
I0903 16:45:36.515096 31317 net.cpp:141] Setting up inception_4b/pool
I0903 16:45:36.515107 31317 net.cpp:148] Top shape: 10 512 14 14 (1003520)
I0903 16:45:36.515111 31317 net.cpp:156] Memory required for data: 402787840
I0903 16:45:36.515116 31317 layer_factory.hpp:77] Creating layer inception_4b/pool_proj
I0903 16:45:36.515131 31317 net.cpp:91] Creating Layer inception_4b/pool_proj
I0903 16:45:36.515139 31317 net.cpp:425] inception_4b/pool_proj <- inception_4b/pool
I0903 16:45:36.515147 31317 net.cpp:399] inception_4b/pool_proj -> inception_4b/pool_proj
I0903 16:45:36.515328 31321 net.cpp:141] Setting up inception_4b/1x1
I0903 16:45:36.515349 31321 net.cpp:148] Top shape: 10 160 14 14 (313600)
I0903 16:45:36.515359 31321 net.cpp:156] Memory required for data: 390871040
I0903 16:45:36.515377 31321 layer_factory.hpp:77] Creating layer inception_4b/relu_1x1
I0903 16:45:36.515395 31321 net.cpp:91] Creating Layer inception_4b/relu_1x1
I0903 16:45:36.515408 31321 net.cpp:425] inception_4b/relu_1x1 <- inception_4b/1x1
I0903 16:45:36.515420 31321 net.cpp:386] inception_4b/relu_1x1 -> inception_4b/1x1 (in-place)
I0903 16:45:36.516243 31321 net.cpp:141] Setting up inception_4b/relu_1x1
I0903 16:45:36.516263 31321 net.cpp:148] Top shape: 10 160 14 14 (313600)
I0903 16:45:36.516273 31321 net.cpp:156] Memory required for data: 392125440
I0903 16:45:36.516283 31321 layer_factory.hpp:77] Creating layer inception_4b/3x3_reduce
I0903 16:45:36.516307 31321 net.cpp:91] Creating Layer inception_4b/3x3_reduce
I0903 16:45:36.516319 31321 net.cpp:425] inception_4b/3x3_reduce <- inception_4a/output_inception_4a/output_0_split_1
I0903 16:45:36.516343 31321 net.cpp:399] inception_4b/3x3_reduce -> inception_4b/3x3_reduce
I0903 16:45:36.518064 31317 net.cpp:141] Setting up inception_4b/pool_proj
I0903 16:45:36.518080 31317 net.cpp:148] Top shape: 10 64 14 14 (125440)
I0903 16:45:36.518085 31317 net.cpp:156] Memory required for data: 403289600
I0903 16:45:36.518095 31317 layer_factory.hpp:77] Creating layer inception_4b/relu_pool_proj
I0903 16:45:36.518106 31317 net.cpp:91] Creating Layer inception_4b/relu_pool_proj
I0903 16:45:36.518113 31317 net.cpp:425] inception_4b/relu_pool_proj <- inception_4b/pool_proj
I0903 16:45:36.518121 31317 net.cpp:386] inception_4b/relu_pool_proj -> inception_4b/pool_proj (in-place)
I0903 16:45:36.518621 31317 net.cpp:141] Setting up inception_4b/relu_pool_proj
I0903 16:45:36.518637 31317 net.cpp:148] Top shape: 10 64 14 14 (125440)
I0903 16:45:36.518641 31317 net.cpp:156] Memory required for data: 403791360
I0903 16:45:36.518646 31317 layer_factory.hpp:77] Creating layer inception_4b/output
I0903 16:45:36.518658 31317 net.cpp:91] Creating Layer inception_4b/output
I0903 16:45:36.518664 31317 net.cpp:425] inception_4b/output <- inception_4b/1x1
I0903 16:45:36.518671 31317 net.cpp:425] inception_4b/output <- inception_4b/3x3
I0903 16:45:36.518676 31317 net.cpp:425] inception_4b/output <- inception_4b/5x5
I0903 16:45:36.518682 31317 net.cpp:425] inception_4b/output <- inception_4b/pool_proj
I0903 16:45:36.518687 31317 net.cpp:399] inception_4b/output -> inception_4b/output
I0903 16:45:36.519121 31317 net.cpp:141] Setting up inception_4b/output
I0903 16:45:36.519132 31317 net.cpp:148] Top shape: 10 512 14 14 (1003520)
I0903 16:45:36.519137 31317 net.cpp:156] Memory required for data: 407805440
I0903 16:45:36.519141 31317 layer_factory.hpp:77] Creating layer inception_4b/output_inception_4b/output_0_split
I0903 16:45:36.519153 31317 net.cpp:91] Creating Layer inception_4b/output_inception_4b/output_0_split
I0903 16:45:36.519160 31317 net.cpp:425] inception_4b/output_inception_4b/output_0_split <- inception_4b/output
I0903 16:45:36.519166 31317 net.cpp:399] inception_4b/output_inception_4b/output_0_split -> inception_4b/output_inception_4b/output_0_split_0
I0903 16:45:36.519177 31317 net.cpp:399] inception_4b/output_inception_4b/output_0_split -> inception_4b/output_inception_4b/output_0_split_1
I0903 16:45:36.519186 31317 net.cpp:399] inception_4b/output_inception_4b/output_0_split -> inception_4b/output_inception_4b/output_0_split_2
I0903 16:45:36.519193 31317 net.cpp:399] inception_4b/output_inception_4b/output_0_split -> inception_4b/output_inception_4b/output_0_split_3
I0903 16:45:36.519470 31317 net.cpp:141] Setting up inception_4b/output_inception_4b/output_0_split
I0903 16:45:36.519482 31317 net.cpp:148] Top shape: 10 512 14 14 (1003520)
I0903 16:45:36.519487 31317 net.cpp:148] Top shape: 10 512 14 14 (1003520)
I0903 16:45:36.519492 31317 net.cpp:148] Top shape: 10 512 14 14 (1003520)
I0903 16:45:36.519497 31317 net.cpp:148] Top shape: 10 512 14 14 (1003520)
I0903 16:45:36.519501 31317 net.cpp:156] Memory required for data: 423861760
I0903 16:45:36.519506 31317 layer_factory.hpp:77] Creating layer inception_4c/1x1
I0903 16:45:36.519531 31317 net.cpp:91] Creating Layer inception_4c/1x1
I0903 16:45:36.519541 31317 net.cpp:425] inception_4c/1x1 <- inception_4b/output_inception_4b/output_0_split_0
I0903 16:45:36.519553 31317 net.cpp:399] inception_4c/1x1 -> inception_4c/1x1
I0903 16:45:36.521193 31321 net.cpp:141] Setting up inception_4b/3x3_reduce
I0903 16:45:36.521214 31321 net.cpp:148] Top shape: 10 112 14 14 (219520)
I0903 16:45:36.521224 31321 net.cpp:156] Memory required for data: 393003520
I0903 16:45:36.521240 31321 layer_factory.hpp:77] Creating layer inception_4b/relu_3x3_reduce
I0903 16:45:36.521255 31321 net.cpp:91] Creating Layer inception_4b/relu_3x3_reduce
I0903 16:45:36.521266 31321 net.cpp:425] inception_4b/relu_3x3_reduce <- inception_4b/3x3_reduce
I0903 16:45:36.521284 31321 net.cpp:386] inception_4b/relu_3x3_reduce -> inception_4b/3x3_reduce (in-place)
I0903 16:45:36.521795 31321 net.cpp:141] Setting up inception_4b/relu_3x3_reduce
I0903 16:45:36.521816 31321 net.cpp:148] Top shape: 10 112 14 14 (219520)
I0903 16:45:36.521826 31321 net.cpp:156] Memory required for data: 393881600
I0903 16:45:36.521836 31321 layer_factory.hpp:77] Creating layer inception_4b/3x3
I0903 16:45:36.521865 31321 net.cpp:91] Creating Layer inception_4b/3x3
I0903 16:45:36.521878 31321 net.cpp:425] inception_4b/3x3 <- inception_4b/3x3_reduce
I0903 16:45:36.521896 31321 net.cpp:399] inception_4b/3x3 -> inception_4b/3x3
I0903 16:45:36.523869 31317 net.cpp:141] Setting up inception_4c/1x1
I0903 16:45:36.523886 31317 net.cpp:148] Top shape: 10 128 14 14 (250880)
I0903 16:45:36.523891 31317 net.cpp:156] Memory required for data: 424865280
I0903 16:45:36.523900 31317 layer_factory.hpp:77] Creating layer inception_4c/relu_1x1
I0903 16:45:36.523910 31317 net.cpp:91] Creating Layer inception_4c/relu_1x1
I0903 16:45:36.523915 31317 net.cpp:425] inception_4c/relu_1x1 <- inception_4c/1x1
I0903 16:45:36.523924 31317 net.cpp:386] inception_4c/relu_1x1 -> inception_4c/1x1 (in-place)
I0903 16:45:36.524365 31317 net.cpp:141] Setting up inception_4c/relu_1x1
I0903 16:45:36.524379 31317 net.cpp:148] Top shape: 10 128 14 14 (250880)
I0903 16:45:36.524384 31317 net.cpp:156] Memory required for data: 425868800
I0903 16:45:36.524389 31317 layer_factory.hpp:77] Creating layer inception_4c/3x3_reduce
I0903 16:45:36.524405 31317 net.cpp:91] Creating Layer inception_4c/3x3_reduce
I0903 16:45:36.524411 31317 net.cpp:425] inception_4c/3x3_reduce <- inception_4b/output_inception_4b/output_0_split_1
I0903 16:45:36.524420 31317 net.cpp:399] inception_4c/3x3_reduce -> inception_4c/3x3_reduce
I0903 16:45:36.527465 31317 net.cpp:141] Setting up inception_4c/3x3_reduce
I0903 16:45:36.527482 31317 net.cpp:148] Top shape: 10 128 14 14 (250880)
I0903 16:45:36.527487 31317 net.cpp:156] Memory required for data: 426872320
I0903 16:45:36.527495 31317 layer_factory.hpp:77] Creating layer inception_4c/relu_3x3_reduce
I0903 16:45:36.527504 31317 net.cpp:91] Creating Layer inception_4c/relu_3x3_reduce
I0903 16:45:36.527509 31317 net.cpp:425] inception_4c/relu_3x3_reduce <- inception_4c/3x3_reduce
I0903 16:45:36.527516 31317 net.cpp:386] inception_4c/relu_3x3_reduce -> inception_4c/3x3_reduce (in-place)
I0903 16:45:36.527966 31317 net.cpp:141] Setting up inception_4c/relu_3x3_reduce
I0903 16:45:36.527978 31317 net.cpp:148] Top shape: 10 128 14 14 (250880)
I0903 16:45:36.527982 31317 net.cpp:156] Memory required for data: 427875840
I0903 16:45:36.527987 31317 layer_factory.hpp:77] Creating layer inception_4c/3x3
I0903 16:45:36.528002 31317 net.cpp:91] Creating Layer inception_4c/3x3
I0903 16:45:36.528007 31317 net.cpp:425] inception_4c/3x3 <- inception_4c/3x3_reduce
I0903 16:45:36.528026 31317 net.cpp:399] inception_4c/3x3 -> inception_4c/3x3
I0903 16:45:36.528347 31321 net.cpp:141] Setting up inception_4b/3x3
I0903 16:45:36.528368 31321 net.cpp:148] Top shape: 10 224 14 14 (439040)
I0903 16:45:36.528379 31321 net.cpp:156] Memory required for data: 395637760
I0903 16:45:36.528396 31321 layer_factory.hpp:77] Creating layer inception_4b/relu_3x3
I0903 16:45:36.528419 31321 net.cpp:91] Creating Layer inception_4b/relu_3x3
I0903 16:45:36.528430 31321 net.cpp:425] inception_4b/relu_3x3 <- inception_4b/3x3
I0903 16:45:36.528447 31321 net.cpp:386] inception_4b/relu_3x3 -> inception_4b/3x3 (in-place)
I0903 16:45:36.529227 31321 net.cpp:141] Setting up inception_4b/relu_3x3
I0903 16:45:36.529258 31321 net.cpp:148] Top shape: 10 224 14 14 (439040)
I0903 16:45:36.529268 31321 net.cpp:156] Memory required for data: 397393920
I0903 16:45:36.529278 31321 layer_factory.hpp:77] Creating layer inception_4b/5x5_reduce
I0903 16:45:36.529325 31321 net.cpp:91] Creating Layer inception_4b/5x5_reduce
I0903 16:45:36.529338 31321 net.cpp:425] inception_4b/5x5_reduce <- inception_4a/output_inception_4a/output_0_split_2
I0903 16:45:36.529356 31321 net.cpp:399] inception_4b/5x5_reduce -> inception_4b/5x5_reduce
I0903 16:45:36.531451 31321 net.cpp:141] Setting up inception_4b/5x5_reduce
I0903 16:45:36.531472 31321 net.cpp:148] Top shape: 10 24 14 14 (47040)
I0903 16:45:36.531481 31321 net.cpp:156] Memory required for data: 397582080
I0903 16:45:36.531498 31321 layer_factory.hpp:77] Creating layer inception_4b/relu_5x5_reduce
I0903 16:45:36.531518 31321 net.cpp:91] Creating Layer inception_4b/relu_5x5_reduce
I0903 16:45:36.531528 31321 net.cpp:425] inception_4b/relu_5x5_reduce <- inception_4b/5x5_reduce
I0903 16:45:36.531545 31321 net.cpp:386] inception_4b/relu_5x5_reduce -> inception_4b/5x5_reduce (in-place)
I0903 16:45:36.532246 31321 net.cpp:141] Setting up inception_4b/relu_5x5_reduce
I0903 16:45:36.532266 31321 net.cpp:148] Top shape: 10 24 14 14 (47040)
I0903 16:45:36.532275 31321 net.cpp:156] Memory required for data: 397770240
I0903 16:45:36.532284 31321 layer_factory.hpp:77] Creating layer inception_4b/5x5
I0903 16:45:36.532310 31321 net.cpp:91] Creating Layer inception_4b/5x5
I0903 16:45:36.532321 31321 net.cpp:425] inception_4b/5x5 <- inception_4b/5x5_reduce
I0903 16:45:36.532342 31321 net.cpp:399] inception_4b/5x5 -> inception_4b/5x5
I0903 16:45:36.534799 31317 net.cpp:141] Setting up inception_4c/3x3
I0903 16:45:36.534819 31317 net.cpp:148] Top shape: 10 256 14 14 (501760)
I0903 16:45:36.534826 31317 net.cpp:156] Memory required for data: 429882880
…
I0903 16:45:36.620221 31321 net.cpp:148] Top shape: 10 528 14 14 (1034880)
I0903 16:45:36.620226 31321 net.cpp:148] Top shape: 10 528 14 14 (1034880)
I0903 16:45:36.620229 31321 net.cpp:156] Memory required for data: 494108160
I0903 16:45:36.620231 31317 net.cpp:91] Creating Layer inception_5a/3x3_reduce
I0903 16:45:36.620234 31321 layer_factory.hpp:77] Creating layer inception_4e/1x1
I0903 16:45:36.620239 31317 net.cpp:425] inception_5a/3x3_reduce <- pool4/3x3_s2_pool4/3x3_s2_0_split_1
I0903 16:45:36.620249 31317 net.cpp:399] inception_5a/3x3_reduce -> inception_5a/3x3_reduce
I0903 16:45:36.620249 31321 net.cpp:91] Creating Layer inception_4e/1x1
I0903 16:45:36.620255 31321 net.cpp:425] inception_4e/1x1 <- inception_4d/output_inception_4d/output_0_split_0
I0903 16:45:36.620270 31321 net.cpp:399] inception_4e/1x1 -> inception_4e/1x1
I0903 16:45:36.625622 31321 net.cpp:141] Setting up inception_4e/1x1
I0903 16:45:36.625648 31321 net.cpp:148] Top shape: 10 256 14 14 (501760)
I0903 16:45:36.625654 31321 net.cpp:156] Memory required for data: 496115200
I0903 16:45:36.625665 31321 layer_factory.hpp:77] Creating layer inception_4e/relu_1x1
I0903 16:45:36.625675 31321 net.cpp:91] Creating Layer inception_4e/relu_1x1
I0903 16:45:36.625681 31321 net.cpp:425] inception_4e/relu_1x1 <- inception_4e/1x1
I0903 16:45:36.625708 31321 net.cpp:386] inception_4e/relu_1x1 -> inception_4e/1x1 (in-place)
I0903 16:45:36.626338 31321 net.cpp:141] Setting up inception_4e/relu_1x1
I0903 16:45:36.626354 31321 net.cpp:148] Top shape: 10 256 14 14 (501760)
I0903 16:45:36.626359 31321 net.cpp:156] Memory required for data: 498122240
I0903 16:45:36.626364 31321 layer_factory.hpp:77] Creating layer inception_4e/3x3_reduce
I0903 16:45:36.626381 31321 net.cpp:91] Creating Layer inception_4e/3x3_reduce
I0903 16:45:36.626389 31321 net.cpp:425] inception_4e/3x3_reduce <- inception_4d/output_inception_4d/output_0_split_1
I0903 16:45:36.626399 31321 net.cpp:399] inception_4e/3x3_reduce -> inception_4e/3x3_reduce
I0903 16:45:36.627167 31317 net.cpp:141] Setting up inception_5a/3x3_reduce
I0903 16:45:36.627184 31317 net.cpp:148] Top shape: 10 160 7 7 (78400)
I0903 16:45:36.627189 31317 net.cpp:156] Memory required for data: 530297600
I0903 16:45:36.627198 31317 layer_factory.hpp:77] Creating layer inception_5a/relu_3x3_reduce
I0903 16:45:36.627210 31317 net.cpp:91] Creating Layer inception_5a/relu_3x3_reduce
I0903 16:45:36.627218 31317 net.cpp:425] inception_5a/relu_3x3_reduce <- inception_5a/3x3_reduce
I0903 16:45:36.627224 31317 net.cpp:386] inception_5a/relu_3x3_reduce -> inception_5a/3x3_reduce (in-place)
I0903 16:45:36.627501 31317 net.cpp:141] Setting up inception_5a/relu_3x3_reduce
I0903 16:45:36.627513 31317 net.cpp:148] Top shape: 10 160 7 7 (78400)
I0903 16:45:36.627517 31317 net.cpp:156] Memory required for data: 530611200
I0903 16:45:36.627522 31317 layer_factory.hpp:77] Creating layer inception_5a/3x3
I0903 16:45:36.627547 31317 net.cpp:91] Creating Layer inception_5a/3x3
I0903 16:45:36.627558 31317 net.cpp:425] inception_5a/3x3 <- inception_5a/3x3_reduce
I0903 16:45:36.627571 31317 net.cpp:399] inception_5a/3x3 -> inception_5a/3x3
I0903 16:45:36.630748 31321 net.cpp:141] Setting up inception_4e/3x3_reduce
I0903 16:45:36.630766 31321 net.cpp:148] Top shape: 10 160 14 14 (313600)
I0903 16:45:36.630771 31321 net.cpp:156] Memory required for data: 499376640
I0903 16:45:36.630781 31321 layer_factory.hpp:77] Creating layer inception_4e/relu_3x3_reduce
I0903 16:45:36.630791 31321 net.cpp:91] Creating Layer inception_4e/relu_3x3_reduce
I0903 16:45:36.630797 31321 net.cpp:425] inception_4e/relu_3x3_reduce <- inception_4e/3x3_reduce
I0903 16:45:36.630808 31321 net.cpp:386] inception_4e/relu_3x3_reduce -> inception_4e/3x3_reduce (in-place)
I0903 16:45:36.631065 31321 net.cpp:141] Setting up inception_4e/relu_3x3_reduce
I0903 16:45:36.631079 31321 net.cpp:148] Top shape: 10 160 14 14 (313600)
I0903 16:45:36.631083 31321 net.cpp:156] Memory required for data: 500631040
I0903 16:45:36.631088 31321 layer_factory.hpp:77] Creating layer inception_4e/3x3
I0903 16:45:36.631104 31321 net.cpp:91] Creating Layer inception_4e/3x3
I0903 16:45:36.631110 31321 net.cpp:425] inception_4e/3x3 <- inception_4e/3x3_reduce
I0903 16:45:36.631119 31321 net.cpp:399] inception_4e/3x3 -> inception_4e/3x3
I0903 16:45:36.635545 31317 net.cpp:141] Setting up inception_5a/3x3
I0903 16:45:36.635567 31317 net.cpp:148] Top shape: 10 320 7 7 (156800)
I0903 16:45:36.635572 31317 net.cpp:156] Memory required for data: 531238400
I0903 16:45:36.635582 31317 layer_factory.hpp:77] Creating layer inception_5a/relu_3x3
I0903 16:45:36.635592 31317 net.cpp:91] Creating Layer inception_5a/relu_3x3
I0903 16:45:36.635599 31317 net.cpp:425] inception_5a/relu_3x3 <- inception_5a/3x3
I0903 16:45:36.635607 31317 net.cpp:386] inception_5a/relu_3x3 -> inception_5a/3x3 (in-place)
I0903 16:45:36.636067 31317 net.cpp:141] Setting up inception_5a/relu_3x3
I0903 16:45:36.636091 31317 net.cpp:148] Top shape: 10 320 7 7 (156800)
I0903 16:45:36.636097 31317 net.cpp:156] Memory required for data: 531865600
I0903 16:45:36.636102 31317 layer_factory.hpp:77] Creating layer inception_5a/5x5_reduce
I0903 16:45:36.636119 31317 net.cpp:91] Creating Layer inception_5a/5x5_reduce
I0903 16:45:36.636126 31317 net.cpp:425] inception_5a/5x5_reduce <- pool4/3x3_s2_pool4/3x3_s2_0_split_2
I0903 16:45:36.636138 31317 net.cpp:399] inception_5a/5x5_reduce -> inception_5a/5x5_reduce
I0903 16:45:36.639089 31321 net.cpp:141] Setting up inception_4e/3x3
I0903 16:45:36.639111 31321 net.cpp:148] Top shape: 10 320 14 14 (627200)
I0903 16:45:36.639117 31321 net.cpp:156] Memory required for data: 503139840
I0903 16:45:36.639128 31321 layer_factory.hpp:77] Creating layer inception_4e/relu_3x3
I0903 16:45:36.639137 31321 net.cpp:91] Creating Layer inception_4e/relu_3x3
I0903 16:45:36.639148 31321 net.cpp:425] inception_4e/relu_3x3 <- inception_4e/3x3
I0903 16:45:36.639156 31321 net.cpp:386] inception_4e/relu_3x3 -> inception_4e/3x3 (in-place)
I0903 16:45:36.639847 31321 net.cpp:141] Setting up inception_4e/relu_3x3
I0903 16:45:36.639861 31321 net.cpp:148] Top shape: 10 320 14 14 (627200)
I0903 16:45:36.639869 31321 net.cpp:156] Memory required for data: 505648640
I0903 16:45:36.639874 31321 layer_factory.hpp:77] Creating layer inception_4e/5x5_reduce
I0903 16:45:36.639888 31321 net.cpp:91] Creating Layer inception_4e/5x5_reduce
I0903 16:45:36.639894 31321 net.cpp:425] inception_4e/5x5_reduce <- inception_4d/output_inception_4d/output_0_split_2
I0903 16:45:36.639906 31321 net.cpp:399] inception_4e/5x5_reduce -> inception_4e/5x5_reduce
I0903 16:45:36.639937 31317 net.cpp:141] Setting up inception_5a/5x5_reduce
I0903 16:45:36.639952 31317 net.cpp:148] Top shape: 10 32 7 7 (15680)
I0903 16:45:36.639957 31317 net.cpp:156] Memory required for data: 531928320
I0903 16:45:36.639966 31317 layer_factory.hpp:77] Creating layer inception_5a/relu_5x5_reduce
I0903 16:45:36.639976 31317 net.cpp:91] Creating Layer inception_5a/relu_5x5_reduce
I0903 16:45:36.639984 31317 net.cpp:425] inception_5a/relu_5x5_reduce <- inception_5a/5x5_reduce
I0903 16:45:36.639991 31317 net.cpp:386] inception_5a/relu_5x5_reduce -> inception_5a/5x5_reduce (in-place)
I0903 16:45:36.640893 31317 net.cpp:141] Setting up inception_5a/relu_5x5_reduce
I0903 16:45:36.640918 31317 net.cpp:148] Top shape: 10 32 7 7 (15680)
I0903 16:45:36.640926 31317 net.cpp:156] Memory required for data: 531991040
I0903 16:45:36.640935 31317 layer_factory.hpp:77] Creating layer inception_5a/5x5
I0903 16:45:36.640960 31317 net.cpp:91] Creating Layer inception_5a/5x5
I0903 16:45:36.640972 31317 net.cpp:425] inception_5a/5x5 <- inception_5a/5x5_reduce
I0903 16:45:36.640995 31317 net.cpp:399] inception_5a/5x5 -> inception_5a/5x5
I0903 16:45:36.643095 31321 net.cpp:141] Setting up inception_4e/5x5_reduce
I0903 16:45:36.643112 31321 net.cpp:148] Top shape: 10 32 14 14 (62720)
I0903 16:45:36.643117 31321 net.cpp:156] Memory required for data: 505899520
I0903 16:45:36.643127 31321 layer_factory.hpp:77] Creating layer inception_4e/relu_5x5_reduce
I0903 16:45:36.643136 31321 net.cpp:91] Creating Layer inception_4e/relu_5x5_reduce
I0903 16:45:36.643142 31321 net.cpp:425] inception_4e/relu_5x5_reduce <- inception_4e/5x5_reduce
I0903 16:45:36.643152 31321 net.cpp:386] inception_4e/relu_5x5_reduce -> inception_4e/5x5_reduce (in-place)
I0903 16:45:36.643589 31321 net.cpp:141] Setting up inception_4e/relu_5x5_reduce
I0903 16:45:36.643604 31321 net.cpp:148] Top shape: 10 32 14 14 (62720)
I0903 16:45:36.643610 31321 net.cpp:156] Memory required for data: 506150400
I0903 16:45:36.643615 31321 layer_factory.hpp:77] Creating layer inception_4e/5x5
I0903 16:45:36.643630 31321 net.cpp:91] Creating Layer inception_4e/5x5
I0903 16:45:36.643635 31321 net.cpp:425] inception_4e/5x5 <- inception_4e/5x5_reduce
I0903 16:45:36.643647 31321 net.cpp:399] inception_4e/5x5 -> inception_4e/5x5
I0903 16:45:36.647938 31317 net.cpp:141] Setting up inception_5a/5x5
I0903 16:45:36.647971 31317 net.cpp:148] Top shape: 10 128 7 7 (62720)
I0903 16:45:36.647981 31317 net.cpp:156] Memory required for data: 532241920
I0903 16:45:36.648000 31317 layer_factory.hpp:77] Creating layer inception_5a/relu_5x5
I0903 16:45:36.648049 31317 net.cpp:91] Creating Layer inception_5a/relu_5x5
I0903 16:45:36.648063 31317 net.cpp:425] inception_5a/relu_5x5 <- inception_5a/5x5
I0903 16:45:36.648087 31317 net.cpp:386] inception_5a/relu_5x5 -> inception_5a/5x5 (in-place)
I0903 16:45:36.648615 31317 net.cpp:141] Setting up inception_5a/relu_5x5
I0903 16:45:36.648638 31317 net.cpp:148] Top shape: 10 128 7 7 (62720)
I0903 16:45:36.648646 31317 net.cpp:156] Memory required for data: 532492800
I0903 16:45:36.648655 31317 layer_factory.hpp:77] Creating layer inception_5a/pool
I0903 16:45:36.648674 31317 net.cpp:91] Creating Layer inception_5a/pool
I0903 16:45:36.648684 31317 net.cpp:425] inception_5a/pool <- pool4/3x3_s2_pool4/3x3_s2_0_split_3
I0903 16:45:36.648695 31317 net.cpp:399] inception_5a/pool -> inception_5a/pool
I0903 16:45:36.649001 31321 net.cpp:141] Setting up inception_4e/5x5
I0903 16:45:36.649019 31321 net.cpp:148] Top shape: 10 128 14 14 (250880)
I0903 16:45:36.649025 31321 net.cpp:156] Memory required for data: 507153920
I0903 16:45:36.649030 31317 net.cpp:141] Setting up inception_5a/pool
I0903 16:45:36.649034 31321 layer_factory.hpp:77] Creating layer inception_4e/relu_5x5
I0903 16:45:36.649050 31317 net.cpp:148] Top shape: 10 832 7 7 (407680)
I0903 16:45:36.649054 31321 net.cpp:91] Creating Layer inception_4e/relu_5x5
I0903 16:45:36.649060 31317 net.cpp:156] Memory required for data: 534123520
I0903 16:45:36.649061 31321 net.cpp:425] inception_4e/relu_5x5 <- inception_4e/5x5
I0903 16:45:36.649070 31317 layer_factory.hpp:77] Creating layer inception_5a/pool_proj
I0903 16:45:36.649073 31321 net.cpp:386] inception_4e/relu_5x5 -> inception_4e/5x5 (in-place)
I0903 16:45:36.649098 31317 net.cpp:91] Creating Layer inception_5a/pool_proj
I0903 16:45:36.649109 31317 net.cpp:425] inception_5a/pool_proj <- inception_5a/pool
I0903 16:45:36.649132 31317 net.cpp:399] inception_5a/pool_proj -> inception_5a/pool_proj
I0903 16:45:36.649451 31321 net.cpp:141] Setting up inception_4e/relu_5x5
I0903 16:45:36.649463 31321 net.cpp:148] Top shape: 10 128 14 14 (250880)
I0903 16:45:36.649468 31321 net.cpp:156] Memory required for data: 508157440
I0903 16:45:36.649473 31321 layer_factory.hpp:77] Creating layer inception_4e/pool
I0903 16:45:36.649482 31321 net.cpp:91] Creating Layer inception_4e/pool
I0903 16:45:36.649487 31321 net.cpp:425] inception_4e/pool <- inception_4d/output_inception_4d/output_0_split_3
I0903 16:45:36.649497 31321 net.cpp:399] inception_4e/pool -> inception_4e/pool
I0903 16:45:36.649708 31321 net.cpp:141] Setting up inception_4e/pool
I0903 16:45:36.649720 31321 net.cpp:148] Top shape: 10 528 14 14 (1034880)
I0903 16:45:36.649724 31321 net.cpp:156] Memory required for data: 512296960
I0903 16:45:36.649729 31321 layer_factory.hpp:77] Creating layer inception_4e/pool_proj
I0903 16:45:36.649744 31321 net.cpp:91] Creating Layer inception_4e/pool_proj
I0903 16:45:36.649749 31321 net.cpp:425] inception_4e/pool_proj <- inception_4e/pool
I0903 16:45:36.649757 31321 net.cpp:399] inception_4e/pool_proj -> inception_4e/pool_proj
I0903 16:45:36.654454 31321 net.cpp:141] Setting up inception_4e/pool_proj
I0903 16:45:36.654472 31321 net.cpp:148] Top shape: 10 128 14 14 (250880)
I0903 16:45:36.654477 31321 net.cpp:156] Memory required for data: 513300480
I0903 16:45:36.654487 31321 layer_factory.hpp:77] Creating layer inception_4e/relu_pool_proj
I0903 16:45:36.654500 31321 net.cpp:91] Creating Layer inception_4e/relu_pool_proj
I0903 16:45:36.654506 31321 net.cpp:425] inception_4e/relu_pool_proj <- inception_4e/pool_proj
I0903 16:45:36.654513 31321 net.cpp:386] inception_4e/relu_pool_proj -> inception_4e/pool_proj (in-place)
I0903 16:45:36.655215 31321 net.cpp:141] Setting up inception_4e/relu_pool_proj
I0903 16:45:36.655242 31321 net.cpp:148] Top shape: 10 128 14 14 (250880)
I0903 16:45:36.655247 31321 net.cpp:156] Memory required for data: 514304000
I0903 16:45:36.655252 31321 layer_factory.hpp:77] Creating layer inception_4e/output
I0903 16:45:36.655266 31321 net.cpp:91] Creating Layer inception_4e/output
I0903 16:45:36.655272 31321 net.cpp:425] inception_4e/output <- inception_4e/1x1
I0903 16:45:36.655278 31321 net.cpp:425] inception_4e/output <- inception_4e/3x3
I0903 16:45:36.655283 31321 net.cpp:425] inception_4e/output <- inception_4e/5x5
I0903 16:45:36.655288 31321 net.cpp:425] inception_4e/output <- inception_4e/pool_proj
I0903 16:45:36.655295 31321 net.cpp:399] inception_4e/output -> inception_4e/output
I0903 16:45:36.655479 31321 net.cpp:141] Setting up inception_4e/output
I0903 16:45:36.655491 31321 net.cpp:148] Top shape: 10 832 14 14 (1630720)
I0903 16:45:36.655499 31321 net.cpp:156] Memory required for data: 520826880
I0903 16:45:36.655504 31321 layer_factory.hpp:77] Creating layer pool4/3x3_s2
I0903 16:45:36.655513 31321 net.cpp:91] Creating Layer pool4/3x3_s2
I0903 16:45:36.655517 31321 net.cpp:425] pool4/3x3_s2 <- inception_4e/output
I0903 16:45:36.655527 31321 net.cpp:399] pool4/3x3_s2 -> pool4/3x3_s2
I0903 16:45:36.655685 31321 net.cpp:141] Setting up pool4/3x3_s2
I0903 16:45:36.655696 31321 net.cpp:148] Top shape: 10 832 7 7 (407680)
I0903 16:45:36.655700 31321 net.cpp:156] Memory required for data: 522457600
I0903 16:45:36.655705 31321 layer_factory.hpp:77] Creating layer pool4/3x3_s2_pool4/3x3_s2_0_split
I0903 16:45:36.655725 31321 net.cpp:91] Creating Layer pool4/3x3_s2_pool4/3x3_s2_0_split
I0903 16:45:36.655730 31321 net.cpp:425] pool4/3x3_s2_pool4/3x3_s2_0_split <- pool4/3x3_s2
I0903 16:45:36.655740 31321 net.cpp:399] pool4/3x3_s2_pool4/3x3_s2_0_split -> pool4/3x3_s2_pool4/3x3_s2_0_split_0
I0903 16:45:36.655748 31321 net.cpp:399] pool4/3x3_s2_pool4/3x3_s2_0_split -> pool4/3x3_s2_pool4/3x3_s2_0_split_1
I0903 16:45:36.655756 31321 net.cpp:399] pool4/3x3_s2_pool4/3x3_s2_0_split -> pool4/3x3_s2_pool4/3x3_s2_0_split_2
I0903 16:45:36.655764 31321 net.cpp:399] pool4/3x3_s2_pool4/3x3_s2_0_split -> pool4/3x3_s2_pool4/3x3_s2_0_split_3
I0903 16:45:36.656147 31321 net.cpp:141] Setting up pool4/3x3_s2_pool4/3x3_s2_0_split
I0903 16:45:36.656159 31321 net.cpp:148] Top shape: 10 832 7 7 (407680)
I0903 16:45:36.656164 31321 net.cpp:148] Top shape: 10 832 7 7 (407680)
I0903 16:45:36.656170 31321 net.cpp:148] Top shape: 10 832 7 7 (407680)
I0903 16:45:36.656174 31321 net.cpp:148] Top shape: 10 832 7 7 (407680)
I0903 16:45:36.656178 31321 net.cpp:156] Memory required for data: 528980480
I0903 16:45:36.656183 31321 layer_factory.hpp:77] Creating layer inception_5a/1x1
I0903 16:45:36.656199 31321 net.cpp:91] Creating Layer inception_5a/1x1
I0903 16:45:36.656205 31321 net.cpp:425] inception_5a/1x1 <- pool4/3x3_s2_pool4/3x3_s2_0_split_0
I0903 16:45:36.656214 31321 net.cpp:399] inception_5a/1x1 -> inception_5a/1x1
I0903 16:45:36.656513 31317 net.cpp:141] Setting up inception_5a/pool_proj
I0903 16:45:36.656533 31317 net.cpp:148] Top shape: 10 128 7 7 (62720)
I0903 16:45:36.656541 31317 net.cpp:156] Memory required for data: 534374400
I0903 16:45:36.656556 31317 layer_factory.hpp:77] Creating layer inception_5a/relu_pool_proj
I0903 16:45:36.656574 31317 net.cpp:91] Creating Layer inception_5a/relu_pool_proj
I0903 16:45:36.656582 31317 net.cpp:425] inception_5a/relu_pool_proj <- inception_5a/pool_proj
I0903 16:45:36.656594 31317 net.cpp:386] inception_5a/relu_pool_proj -> inception_5a/pool_proj (in-place)
I0903 16:45:36.657385 31317 net.cpp:141] Setting up inception_5a/relu_pool_proj
I0903 16:45:36.657403 31317 net.cpp:148] Top shape: 10 128 7 7 (62720)
I0903 16:45:36.657410 31317 net.cpp:156] Memory required for data: 534625280
I0903 16:45:36.657418 31317 layer_factory.hpp:77] Creating layer inception_5a/output
I0903 16:45:36.657435 31317 net.cpp:91] Creating Layer inception_5a/output
I0903 16:45:36.657445 31317 net.cpp:425] inception_5a/output <- inception_5a/1x1
I0903 16:45:36.657456 31317 net.cpp:425] inception_5a/output <- inception_5a/3x3
I0903 16:45:36.657465 31317 net.cpp:425] inception_5a/output <- inception_5a/5x5
I0903 16:45:36.657474 31317 net.cpp:425] inception_5a/output <- inception_5a/pool_proj
I0903 16:45:36.657486 31317 net.cpp:399] inception_5a/output -> inception_5a/output
I0903 16:45:36.661898 31317 net.cpp:141] Setting up inception_5a/output
I0903 16:45:36.661917 31317 net.cpp:148] Top shape: 10 832 7 7 (407680)
I0903 16:45:36.661922 31317 net.cpp:156] Memory required for data: 536256000
I0903 16:45:36.661928 31317 layer_factory.hpp:77] Creating layer inception_5a/output_inception_5a/output_0_split
I0903 16:45:36.661936 31317 net.cpp:91] Creating Layer inception_5a/output_inception_5a/output_0_split
I0903 16:45:36.661942 31317 net.cpp:425] inception_5a/output_inception_5a/output_0_split <- inception_5a/output
I0903 16:45:36.661952 31317 net.cpp:399] inception_5a/output_inception_5a/output_0_split -> inception_5a/output_inception_5a/output_0_split_0
I0903 16:45:36.661962 31317 net.cpp:399] inception_5a/output_inception_5a/output_0_split -> inception_5a/output_inception_5a/output_0_split_1
I0903 16:45:36.661972 31317 net.cpp:399] inception_5a/output_inception_5a/output_0_split -> inception_5a/output_inception_5a/output_0_split_2
I0903 16:45:36.661979 31317 net.cpp:399] inception_5a/output_inception_5a/output_0_split -> inception_5a/output_inception_5a/output_0_split_3
I0903 16:45:36.662497 31317 net.cpp:141] Setting up inception_5a/output_inception_5a/output_0_split
I0903 16:45:36.662511 31317 net.cpp:148] Top shape: 10 832 7 7 (407680)
I0903 16:45:36.662518 31317 net.cpp:148] Top shape: 10 832 7 7 (407680)
I0903 16:45:36.662523 31317 net.cpp:148] Top shape: 10 832 7 7 (407680)
I0903 16:45:36.662528 31317 net.cpp:148] Top shape: 10 832 7 7 (407680)
I0903 16:45:36.662533 31317 net.cpp:156] Memory required for data: 542778880
I0903 16:45:36.662536 31317 layer_factory.hpp:77] Creating layer inception_5b/1x1
I0903 16:45:36.662554 31317 net.cpp:91] Creating Layer inception_5b/1x1
I0903 16:45:36.662560 31317 net.cpp:425] inception_5b/1x1 <- inception_5a/output_inception_5a/output_0_split_0
I0903 16:45:36.662571 31317 net.cpp:399] inception_5b/1x1 -> inception_5b/1x1
I0903 16:45:36.666066 31321 net.cpp:141] Setting up inception_5a/1x1
I0903 16:45:36.666110 31321 net.cpp:148] Top shape: 10 256 7 7 (125440)
I0903 16:45:36.666116 31321 net.cpp:156] Memory required for data: 529482240
I0903 16:45:36.666131 31321 layer_factory.hpp:77] Creating layer inception_5a/relu_1x1
I0903 16:45:36.666152 31321 net.cpp:91] Creating Layer inception_5a/relu_1x1
I0903 16:45:36.666162 31321 net.cpp:425] inception_5a/relu_1x1 <- inception_5a/1x1
I0903 16:45:36.666174 31321 net.cpp:386] inception_5a/relu_1x1 -> inception_5a/1x1 (in-place)
I0903 16:45:36.666828 31321 net.cpp:141] Setting up inception_5a/relu_1x1
I0903 16:45:36.666846 31321 net.cpp:148] Top shape: 10 256 7 7 (125440)
I0903 16:45:36.666852 31321 net.cpp:156] Memory required for data: 529984000
I0903 16:45:36.666857 31321 layer_factory.hpp:77] Creating layer inception_5a/3x3_reduce
I0903 16:45:36.666878 31321 net.cpp:91] Creating Layer inception_5a/3x3_reduce
I0903 16:45:36.666887 31321 net.cpp:425] inception_5a/3x3_reduce <- pool4/3x3_s2_pool4/3x3_s2_0_split_1
I0903 16:45:36.666898 31321 net.cpp:399] inception_5a/3x3_reduce -> inception_5a/3x3_reduce
I0903 16:45:36.669844 31317 net.cpp:141] Setting up inception_5b/1x1
I0903 16:45:36.669867 31317 net.cpp:148] Top shape: 10 384 7 7 (188160)
I0903 16:45:36.669872 31317 net.cpp:156] Memory required for data: 543531520
I0903 16:45:36.669883 31317 layer_factory.hpp:77] Creating layer inception_5b/relu_1x1
I0903 16:45:36.669895 31317 net.cpp:91] Creating Layer inception_5b/relu_1x1
I0903 16:45:36.669901 31317 net.cpp:425] inception_5b/relu_1x1 <- inception_5b/1x1
I0903 16:45:36.669911 31317 net.cpp:386] inception_5b/relu_1x1 -> inception_5b/1x1 (in-place)
I0903 16:45:36.670367 31317 net.cpp:141] Setting up inception_5b/relu_1x1
I0903 16:45:36.670382 31317 net.cpp:148] Top shape: 10 384 7 7 (188160)
I0903 16:45:36.670387 31317 net.cpp:156] Memory required for data: 544284160
I0903 16:45:36.670392 31317 layer_factory.hpp:77] Creating layer inception_5b/3x3_reduce
I0903 16:45:36.670406 31317 net.cpp:91] Creating Layer inception_5b/3x3_reduce
I0903 16:45:36.670413 31317 net.cpp:425] inception_5b/3x3_reduce <- inception_5a/output_inception_5a/output_0_split_1
I0903 16:45:36.670424 31317 net.cpp:399] inception_5b/3x3_reduce -> inception_5b/3x3_reduce
I0903 16:45:36.673579 31321 net.cpp:141] Setting up inception_5a/3x3_reduce
I0903 16:45:36.673602 31321 net.cpp:148] Top shape: 10 160 7 7 (78400)
I0903 16:45:36.673609 31321 net.cpp:156] Memory required for data: 530297600
I0903 16:45:36.673619 31321 layer_factory.hpp:77] Creating layer inception_5a/relu_3x3_reduce
I0903 16:45:36.673635 31321 net.cpp:91] Creating Layer inception_5a/relu_3x3_reduce
I0903 16:45:36.673641 31321 net.cpp:425] inception_5a/relu_3x3_reduce <- inception_5a/3x3_reduce
I0903 16:45:36.673650 31321 net.cpp:386] inception_5a/relu_3x3_reduce -> inception_5a/3x3_reduce (in-place)
I0903 16:45:36.674103 31321 net.cpp:141] Setting up inception_5a/relu_3x3_reduce
I0903 16:45:36.674118 31321 net.cpp:148] Top shape: 10 160 7 7 (78400)
I0903 16:45:36.674124 31321 net.cpp:156] Memory required for data: 530611200
I0903 16:45:36.674130 31321 layer_factory.hpp:77] Creating layer inception_5a/3x3
I0903 16:45:36.674149 31321 net.cpp:91] Creating Layer inception_5a/3x3
I0903 16:45:36.674156 31321 net.cpp:425] inception_5a/3x3 <- inception_5a/3x3_reduce
I0903 16:45:36.674170 31321 net.cpp:399] inception_5a/3x3 -> inception_5a/3x3
I0903 16:45:36.677557 31317 net.cpp:141] Setting up inception_5b/3x3_reduce
I0903 16:45:36.677580 31317 net.cpp:148] Top shape: 10 192 7 7 (94080)
I0903 16:45:36.677587 31317 net.cpp:156] Memory required for data: 544660480
I0903 16:45:36.677595 31317 layer_factory.hpp:77] Creating layer inception_5b/relu_3x3_reduce
I0903 16:45:36.677604 31317 net.cpp:91] Creating Layer inception_5b/relu_3x3_reduce
I0903 16:45:36.677610 31317 net.cpp:425] inception_5b/relu_3x3_reduce <- inception_5b/3x3_reduce
I0903 16:45:36.677619 31317 net.cpp:386] inception_5b/relu_3x3_reduce -> inception_5b/3x3_reduce (in-place)
I0903 16:45:36.677888 31317 net.cpp:141] Setting up inception_5b/relu_3x3_reduce
I0903 16:45:36.677899 31317 net.cpp:148] Top shape: 10 192 7 7 (94080)
I0903 16:45:36.677903 31317 net.cpp:156] Memory required for data: 545036800
I0903 16:45:36.677908 31317 layer_factory.hpp:77] Creating layer inception_5b/3x3
I0903 16:45:36.677927 31317 net.cpp:91] Creating Layer inception_5b/3x3
I0903 16:45:36.677932 31317 net.cpp:425] inception_5b/3x3 <- inception_5b/3x3_reduce
I0903 16:45:36.677940 31317 net.cpp:399] inception_5b/3x3 -> inception_5b/3x3
I0903 16:45:36.683554 31321 net.cpp:141] Setting up inception_5a/3x3
I0903 16:45:36.683578 31321 net.cpp:148] Top shape: 10 320 7 7 (156800)
I0903 16:45:36.683584 31321 net.cpp:156] Memory required for data: 531238400
I0903 16:45:36.683595 31321 layer_factory.hpp:77] Creating layer inception_5a/relu_3x3
I0903 16:45:36.683605 31321 net.cpp:91] Creating Layer inception_5a/relu_3x3
I0903 16:45:36.683611 31321 net.cpp:425] inception_5a/relu_3x3 <- inception_5a/3x3
I0903 16:45:36.683624 31321 net.cpp:386] inception_5a/relu_3x3 -> inception_5a/3x3 (in-place)
I0903 16:45:36.684149 31321 net.cpp:141] Setting up inception_5a/relu_3x3
I0903 16:45:36.684170 31321 net.cpp:148] Top shape: 10 320 7 7 (156800)
I0903 16:45:36.684175 31321 net.cpp:156] Memory required for data: 531865600
I0903 16:45:36.684181 31321 layer_factory.hpp:77] Creating layer inception_5a/5x5_reduce
I0903 16:45:36.684198 31321 net.cpp:91] Creating Layer inception_5a/5x5_reduce
I0903 16:45:36.684206 31321 net.cpp:425] inception_5a/5x5_reduce <- pool4/3x3_s2_pool4/3x3_s2_0_split_2
I0903 16:45:36.684221 31321 net.cpp:399] inception_5a/5x5_reduce -> inception_5a/5x5_reduce
I0903 16:45:36.687793 31317 net.cpp:141] Setting up inception_5b/3x3
I0903 16:45:36.687815 31317 net.cpp:148] Top shape: 10 384 7 7 (188160)
I0903 16:45:36.687820 31317 net.cpp:156] Memory required for data: 545789440
I0903 16:45:36.687829 31317 layer_factory.hpp:77] Creating layer inception_5b/relu_3x3
I0903 16:45:36.687839 31317 net.cpp:91] Creating Layer inception_5b/relu_3x3
I0903 16:45:36.687844 31317 net.cpp:425] inception_5b/relu_3x3 <- inception_5b/3x3
I0903 16:45:36.687851 31317 net.cpp:386] inception_5b/relu_3x3 -> inception_5b/3x3 (in-place)
I0903 16:45:36.688395 31321 net.cpp:141] Setting up inception_5a/5x5_reduce
I0903 16:45:36.688417 31321 net.cpp:148] Top shape: 10 32 7 7 (15680)
I0903 16:45:36.688423 31321 net.cpp:156] Memory required for data: 531928320
I0903 16:45:36.688434 31321 layer_factory.hpp:77] Creating layer inception_5a/relu_5x5_reduce
I0903 16:45:36.688444 31321 net.cpp:91] Creating Layer inception_5a/relu_5x5_reduce
I0903 16:45:36.688451 31321 net.cpp:425] inception_5a/relu_5x5_reduce <- inception_5a/5x5_reduce
I0903 16:45:36.688463 31321 net.cpp:386] inception_5a/relu_5x5_reduce -> inception_5a/5x5_reduce (in-place)
I0903 16:45:36.688477 31317 net.cpp:141] Setting up inception_5b/relu_3x3
I0903 16:45:36.688491 31317 net.cpp:148] Top shape: 10 384 7 7 (188160)
I0903 16:45:36.688495 31317 net.cpp:156] Memory required for data: 546542080
I0903 16:45:36.688500 31317 layer_factory.hpp:77] Creating layer inception_5b/5x5_reduce
I0903 16:45:36.688516 31317 net.cpp:91] Creating Layer inception_5b/5x5_reduce
I0903 16:45:36.688524 31317 net.cpp:425] inception_5b/5x5_reduce <- inception_5a/output_inception_5a/output_0_split_2
I0903 16:45:36.688534 31317 net.cpp:399] inception_5b/5x5_reduce -> inception_5b/5x5_reduce
I0903 16:45:36.689141 31321 net.cpp:141] Setting up inception_5a/relu_5x5_reduce
I0903 16:45:36.689157 31321 net.cpp:148] Top shape: 10 32 7 7 (15680)
I0903 16:45:36.689163 31321 net.cpp:156] Memory required for data: 531991040
I0903 16:45:36.689169 31321 layer_factory.hpp:77] Creating layer inception_5a/5x5
I0903 16:45:36.689190 31321 net.cpp:91] Creating Layer inception_5a/5x5
I0903 16:45:36.689198 31321 net.cpp:425] inception_5a/5x5 <- inception_5a/5x5_reduce
I0903 16:45:36.689208 31321 net.cpp:399] inception_5a/5x5 -> inception_5a/5x5
I0903 16:45:36.692689 31317 net.cpp:141] Setting up inception_5b/5x5_reduce
I0903 16:45:36.692708 31317 net.cpp:148] Top shape: 10 48 7 7 (23520)
I0903 16:45:36.692714 31317 net.cpp:156] Memory required for data: 546636160
I0903 16:45:36.692723 31317 layer_factory.hpp:77] Creating layer inception_5b/relu_5x5_reduce
I0903 16:45:36.692735 31317 net.cpp:91] Creating Layer inception_5b/relu_5x5_reduce
I0903 16:45:36.692742 31317 net.cpp:425] inception_5b/relu_5x5_reduce <- inception_5b/5x5_reduce
I0903 16:45:36.692751 31317 net.cpp:386] inception_5b/relu_5x5_reduce -> inception_5b/5x5_reduce (in-place)
I0903 16:45:36.693425 31317 net.cpp:141] Setting up inception_5b/relu_5x5_reduce
I0903 16:45:36.693440 31317 net.cpp:148] Top shape: 10 48 7 7 (23520)
I0903 16:45:36.693445 31317 net.cpp:156] Memory required for data: 546730240
I0903 16:45:36.693450 31317 layer_factory.hpp:77] Creating layer inception_5b/5x5
I0903 16:45:36.693469 31317 net.cpp:91] Creating Layer inception_5b/5x5
I0903 16:45:36.693475 31317 net.cpp:425] inception_5b/5x5 <- inception_5b/5x5_reduce
I0903 16:45:36.693483 31317 net.cpp:399] inception_5b/5x5 -> inception_5b/5x5
I0903 16:45:36.694296 31321 net.cpp:141] Setting up inception_5a/5x5
I0903 16:45:36.694317 31321 net.cpp:148] Top shape: 10 128 7 7 (62720)
I0903 16:45:36.694324 31321 net.cpp:156] Memory required for data: 532241920
I0903 16:45:36.694334 31321 layer_factory.hpp:77] Creating layer inception_5a/relu_5x5
I0903 16:45:36.694376 31321 net.cpp:91] Creating Layer inception_5a/relu_5x5
I0903 16:45:36.694385 31321 net.cpp:425] inception_5a/relu_5x5 <- inception_5a/5x5
I0903 16:45:36.694392 31321 net.cpp:386] inception_5a/relu_5x5 -> inception_5a/5x5 (in-place)
I0903 16:45:36.694875 31321 net.cpp:141] Setting up inception_5a/relu_5x5
I0903 16:45:36.694891 31321 net.cpp:148] Top shape: 10 128 7 7 (62720)
I0903 16:45:36.694896 31321 net.cpp:156] Memory required for data: 532492800
I0903 16:45:36.694903 31321 layer_factory.hpp:77] Creating layer inception_5a/pool
I0903 16:45:36.694919 31321 net.cpp:91] Creating Layer inception_5a/pool
I0903 16:45:36.694926 31321 net.cpp:425] inception_5a/pool <- pool4/3x3_s2_pool4/3x3_s2_0_split_3
I0903 16:45:36.694934 31321 net.cpp:399] inception_5a/pool -> inception_5a/pool
I0903 16:45:36.695099 31321 net.cpp:141] Setting up inception_5a/pool
I0903 16:45:36.695111 31321 net.cpp:148] Top shape: 10 832 7 7 (407680)
I0903 16:45:36.695116 31321 net.cpp:156] Memory required for data: 534123520
I0903 16:45:36.695122 31321 layer_factory.hpp:77] Creating layer inception_5a/pool_proj
I0903 16:45:36.695139 31321 net.cpp:91] Creating Layer inception_5a/pool_proj
I0903 16:45:36.695147 31321 net.cpp:425] inception_5a/pool_proj <- inception_5a/pool
I0903 16:45:36.695158 31321 net.cpp:399] inception_5a/pool_proj -> inception_5a/pool_proj
I0903 16:45:36.700001 31317 net.cpp:141] Setting up inception_5b/5x5
I0903 16:45:36.700019 31317 net.cpp:148] Top shape: 10 128 7 7 (62720)
I0903 16:45:36.700026 31317 net.cpp:156] Memory required for data: 546981120
I0903 16:45:36.700034 31317 layer_factory.hpp:77] Creating layer inception_5b/relu_5x5
I0903 16:45:36.700047 31317 net.cpp:91] Creating Layer inception_5b/relu_5x5
I0903 16:45:36.700052 31317 net.cpp:425] inception_5b/relu_5x5 <- inception_5b/5x5
I0903 16:45:36.700059 31317 net.cpp:386] inception_5b/relu_5x5 -> inception_5b/5x5 (in-place)
I0903 16:45:36.700553 31317 net.cpp:141] Setting up inception_5b/relu_5x5
I0903 16:45:36.700567 31317 net.cpp:148] Top shape: 10 128 7 7 (62720)
I0903 16:45:36.700572 31317 net.cpp:156] Memory required for data: 547232000
I0903 16:45:36.700577 31317 layer_factory.hpp:77] Creating layer inception_5b/pool
I0903 16:45:36.700587 31317 net.cpp:91] Creating Layer inception_5b/pool
I0903 16:45:36.700592 31317 net.cpp:425] inception_5b/pool <- inception_5a/output_inception_5a/output_0_split_3
I0903 16:45:36.700604 31317 net.cpp:399] inception_5b/pool -> inception_5b/pool
I0903 16:45:36.700700 31321 net.cpp:141] Setting up inception_5a/pool_proj
I0903 16:45:36.700719 31321 net.cpp:148] Top shape: 10 128 7 7 (62720)
I0903 16:45:36.700726 31321 net.cpp:156] Memory required for data: 534374400
I0903 16:45:36.700736 31321 layer_factory.hpp:77] Creating layer inception_5a/relu_pool_proj
I0903 16:45:36.700747 31321 net.cpp:91] Creating Layer inception_5a/relu_pool_proj
I0903 16:45:36.700753 31321 net.cpp:425] inception_5a/relu_pool_proj <- inception_5a/pool_proj
I0903 16:45:36.700762 31321 net.cpp:386] inception_5a/relu_pool_proj -> inception_5a/pool_proj (in-place)
I0903 16:45:36.700808 31317 net.cpp:141] Setting up inception_5b/pool
I0903 16:45:36.700819 31317 net.cpp:148] Top shape: 10 832 7 7 (407680)
I0903 16:45:36.700824 31317 net.cpp:156] Memory required for data: 548862720
I0903 16:45:36.700829 31317 layer_factory.hpp:77] Creating layer inception_5b/pool_proj
I0903 16:45:36.700845 31317 net.cpp:91] Creating Layer inception_5b/pool_proj
I0903 16:45:36.700850 31317 net.cpp:425] inception_5b/pool_proj <- inception_5b/pool
I0903 16:45:36.700861 31317 net.cpp:399] inception_5b/pool_proj -> inception_5b/pool_proj
I0903 16:45:36.701531 31321 net.cpp:141] Setting up inception_5a/relu_pool_proj
I0903 16:45:36.701551 31321 net.cpp:148] Top shape: 10 128 7 7 (62720)
I0903 16:45:36.701556 31321 net.cpp:156] Memory required for data: 534625280
I0903 16:45:36.701563 31321 layer_factory.hpp:77] Creating layer inception_5a/output
I0903 16:45:36.701573 31321 net.cpp:91] Creating Layer inception_5a/output
I0903 16:45:36.701580 31321 net.cpp:425] inception_5a/output <- inception_5a/1x1
I0903 16:45:36.701586 31321 net.cpp:425] inception_5a/output <- inception_5a/3x3
I0903 16:45:36.701593 31321 net.cpp:425] inception_5a/output <- inception_5a/5x5
I0903 16:45:36.701599 31321 net.cpp:425] inception_5a/output <- inception_5a/pool_proj
I0903 16:45:36.701606 31321 net.cpp:399] inception_5a/output -> inception_5a/output
I0903 16:45:36.701798 31321 net.cpp:141] Setting up inception_5a/output
I0903 16:45:36.701812 31321 net.cpp:148] Top shape: 10 832 7 7 (407680)
I0903 16:45:36.701817 31321 net.cpp:156] Memory required for data: 536256000
I0903 16:45:36.701822 31321 layer_factory.hpp:77] Creating layer inception_5a/output_inception_5a/output_0_split
I0903 16:45:36.701831 31321 net.cpp:91] Creating Layer inception_5a/output_inception_5a/output_0_split
I0903 16:45:36.701838 31321 net.cpp:425] inception_5a/output_inception_5a/output_0_split <- inception_5a/output
I0903 16:45:36.701849 31321 net.cpp:399] inception_5a/output_inception_5a/output_0_split -> inception_5a/output_inception_5a/output_0_split_0
I0903 16:45:36.701860 31321 net.cpp:399] inception_5a/output_inception_5a/output_0_split -> inception_5a/output_inception_5a/output_0_split_1
I0903 16:45:36.701870 31321 net.cpp:399] inception_5a/output_inception_5a/output_0_split -> inception_5a/output_inception_5a/output_0_split_2
I0903 16:45:36.701879 31321 net.cpp:399] inception_5a/output_inception_5a/output_0_split -> inception_5a/output_inception_5a/output_0_split_3
I0903 16:45:36.703083 31321 net.cpp:141] Setting up inception_5a/output_inception_5a/output_0_split
I0903 16:45:36.703099 31321 net.cpp:148] Top shape: 10 832 7 7 (407680)
I0903 16:45:36.703106 31321 net.cpp:148] Top shape: 10 832 7 7 (407680)
I0903 16:45:36.703112 31321 net.cpp:148] Top shape: 10 832 7 7 (407680)
I0903 16:45:36.703117 31321 net.cpp:148] Top shape: 10 832 7 7 (407680)
I0903 16:45:36.703122 31321 net.cpp:156] Memory required for data: 542778880
I0903 16:45:36.703127 31321 layer_factory.hpp:77] Creating layer inception_5b/1x1
I0903 16:45:36.703145 31321 net.cpp:91] Creating Layer inception_5b/1x1
I0903 16:45:36.703151 31321 net.cpp:425] inception_5b/1x1 <- inception_5a/output_inception_5a/output_0_split_0
I0903 16:45:36.703166 31321 net.cpp:399] inception_5b/1x1 -> inception_5b/1x1
I0903 16:45:36.706522 31317 net.cpp:141] Setting up inception_5b/pool_proj
I0903 16:45:36.706542 31317 net.cpp:148] Top shape: 10 128 7 7 (62720)
I0903 16:45:36.706547 31317 net.cpp:156] Memory required for data: 549113600
I0903 16:45:36.706557 31317 layer_factory.hpp:77] Creating layer inception_5b/relu_pool_proj
I0903 16:45:36.706564 31317 net.cpp:91] Creating Layer inception_5b/relu_pool_proj
I0903 16:45:36.706570 31317 net.cpp:425] inception_5b/relu_pool_proj <- inception_5b/pool_proj
I0903 16:45:36.706580 31317 net.cpp:386] inception_5b/relu_pool_proj -> inception_5b/pool_proj (in-place)
I0903 16:45:36.707026 31317 net.cpp:141] Setting up inception_5b/relu_pool_proj
I0903 16:45:36.707041 31317 net.cpp:148] Top shape: 10 128 7 7 (62720)
I0903 16:45:36.707046 31317 net.cpp:156] Memory required for data: 549364480
I0903 16:45:36.707051 31317 layer_factory.hpp:77] Creating layer inception_5b/output
I0903 16:45:36.707061 31317 net.cpp:91] Creating Layer inception_5b/output
I0903 16:45:36.707065 31317 net.cpp:425] inception_5b/output <- inception_5b/1x1
I0903 16:45:36.707072 31317 net.cpp:425] inception_5b/output <- inception_5b/3x3
I0903 16:45:36.707079 31317 net.cpp:425] inception_5b/output <- inception_5b/5x5
I0903 16:45:36.707085 31317 net.cpp:425] inception_5b/output <- inception_5b/pool_proj
I0903 16:45:36.707092 31317 net.cpp:399] inception_5b/output -> inception_5b/output
I0903 16:45:36.707173 31317 net.cpp:141] Setting up inception_5b/output
I0903 16:45:36.707185 31317 net.cpp:148] Top shape: 10 1024 7 7 (501760)
I0903 16:45:36.707188 31317 net.cpp:156] Memory required for data: 551371520
I0903 16:45:36.707193 31317 layer_factory.hpp:77] Creating layer pool5/7x7_s1
I0903 16:45:36.707202 31317 net.cpp:91] Creating Layer pool5/7x7_s1
I0903 16:45:36.707208 31317 net.cpp:425] pool5/7x7_s1 <- inception_5b/output
I0903 16:45:36.707216 31317 net.cpp:399] pool5/7x7_s1 -> pool5/7x7_s1
I0903 16:45:36.707568 31317 net.cpp:141] Setting up pool5/7x7_s1
I0903 16:45:36.707579 31317 net.cpp:148] Top shape: 10 1024 1 1 (10240)
I0903 16:45:36.707584 31317 net.cpp:156] Memory required for data: 551412480
I0903 16:45:36.707588 31317 layer_factory.hpp:77] Creating layer pool5/drop_7x7_s1
I0903 16:45:36.707600 31317 net.cpp:91] Creating Layer pool5/drop_7x7_s1
I0903 16:45:36.707607 31317 net.cpp:425] pool5/drop_7x7_s1 <- pool5/7x7_s1
I0903 16:45:36.707612 31317 net.cpp:386] pool5/drop_7x7_s1 -> pool5/7x7_s1 (in-place)
I0903 16:45:36.707801 31317 net.cpp:141] Setting up pool5/drop_7x7_s1
I0903 16:45:36.707818 31317 net.cpp:148] Top shape: 10 1024 1 1 (10240)
I0903 16:45:36.707823 31317 net.cpp:156] Memory required for data: 551453440
I0903 16:45:36.707826 31317 layer_factory.hpp:77] Creating layer loss3/classifier
I0903 16:45:36.707844 31317 net.cpp:91] Creating Layer loss3/classifier
I0903 16:45:36.707849 31317 net.cpp:425] loss3/classifier <- pool5/7x7_s1
I0903 16:45:36.707859 31317 net.cpp:399] loss3/classifier -> loss3/classifier
I0903 16:45:36.711541 31321 net.cpp:141] Setting up inception_5b/1x1
I0903 16:45:36.711563 31321 net.cpp:148] Top shape: 10 384 7 7 (188160)
I0903 16:45:36.711570 31321 net.cpp:156] Memory required for data: 543531520
I0903 16:45:36.711580 31321 layer_factory.hpp:77] Creating layer inception_5b/relu_1x1
I0903 16:45:36.711591 31321 net.cpp:91] Creating Layer inception_5b/relu_1x1
I0903 16:45:36.711597 31321 net.cpp:425] inception_5b/relu_1x1 <- inception_5b/1x1
I0903 16:45:36.711609 31321 net.cpp:386] inception_5b/relu_1x1 -> inception_5b/1x1 (in-place)
I0903 16:45:36.712122 31321 net.cpp:141] Setting up inception_5b/relu_1x1
I0903 16:45:36.712141 31321 net.cpp:148] Top shape: 10 384 7 7 (188160)
I0903 16:45:36.712146 31321 net.cpp:156] Memory required for data: 544284160
I0903 16:45:36.712152 31321 layer_factory.hpp:77] Creating layer inception_5b/3x3_reduce
I0903 16:45:36.712172 31321 net.cpp:91] Creating Layer inception_5b/3x3_reduce
I0903 16:45:36.712178 31321 net.cpp:425] inception_5b/3x3_reduce <- inception_5a/output_inception_5a/output_0_split_1
I0903 16:45:36.712191 31321 net.cpp:399] inception_5b/3x3_reduce -> inception_5b/3x3_reduce
I0903 16:45:36.716991 31321 net.cpp:141] Setting up inception_5b/3x3_reduce
I0903 16:45:36.717012 31321 net.cpp:148] Top shape: 10 192 7 7 (94080)
I0903 16:45:36.717018 31321 net.cpp:156] Memory required for data: 544660480
I0903 16:45:36.717028 31321 layer_factory.hpp:77] Creating layer inception_5b/relu_3x3_reduce
I0903 16:45:36.717038 31321 net.cpp:91] Creating Layer inception_5b/relu_3x3_reduce
I0903 16:45:36.717046 31321 net.cpp:425] inception_5b/relu_3x3_reduce <- inception_5b/3x3_reduce
I0903 16:45:36.717057 31321 net.cpp:386] inception_5b/relu_3x3_reduce -> inception_5b/3x3_reduce (in-place)
I0903 16:45:36.717370 31321 net.cpp:141] Setting up inception_5b/relu_3x3_reduce
I0903 16:45:36.717388 31321 net.cpp:148] Top shape: 10 192 7 7 (94080)
I0903 16:45:36.717393 31321 net.cpp:156] Memory required for data: 545036800
I0903 16:45:36.717399 31321 layer_factory.hpp:77] Creating layer inception_5b/3x3
I0903 16:45:36.717418 31321 net.cpp:91] Creating Layer inception_5b/3x3
I0903 16:45:36.717424 31321 net.cpp:425] inception_5b/3x3 <- inception_5b/3x3_reduce
I0903 16:45:36.717434 31321 net.cpp:399] inception_5b/3x3 -> inception_5b/3x3
I0903 16:45:36.720031 31317 net.cpp:141] Setting up loss3/classifier
I0903 16:45:36.720062 31317 net.cpp:148] Top shape: 10 1000 (10000)
I0903 16:45:36.720067 31317 net.cpp:156] Memory required for data: 551493440
I0903 16:45:36.720083 31317 layer_factory.hpp:77] Creating layer prob
I0903 16:45:36.720093 31317 net.cpp:91] Creating Layer prob
I0903 16:45:36.720098 31317 net.cpp:425] prob <- loss3/classifier
I0903 16:45:36.720105 31317 net.cpp:399] prob -> prob
I0903 16:45:36.720837 31317 net.cpp:141] Setting up prob
I0903 16:45:36.720852 31317 net.cpp:148] Top shape: 10 1000 (10000)
I0903 16:45:36.720870 31317 net.cpp:156] Memory required for data: 551533440
I0903 16:45:36.720875 31317 net.cpp:219] prob does not need backward computation.
I0903 16:45:36.720880 31317 net.cpp:219] loss3/classifier does not need backward computation.
I0903 16:45:36.720885 31317 net.cpp:219] pool5/drop_7x7_s1 does not need backward computation.
I0903 16:45:36.720888 31317 net.cpp:219] pool5/7x7_s1 does not need backward computation.
…
I0903 16:45:36.721560 31317 net.cpp:219] pool1/3x3_s2 does not need backward computation.
I0903 16:45:36.721565 31317 net.cpp:219] conv1/relu_7x7 does not need backward computation.
I0903 16:45:36.721570 31317 net.cpp:219] conv1/7x7_s2 does not need backward computation.
I0903 16:45:36.721573 31317 net.cpp:219] data does not need backward computation.
I0903 16:45:36.721577 31317 net.cpp:261] This network produces output prob
I0903 16:45:36.721709 31317 net.cpp:274] Network initialization done.
I0903 16:45:36.728255 31321 net.cpp:141] Setting up inception_5b/3x3
I0903 16:45:36.728279 31321 net.cpp:148] Top shape: 10 384 7 7 (188160)
I0903 16:45:36.728286 31321 net.cpp:156] Memory required for data: 545789440
I0903 16:45:36.728296 31321 layer_factory.hpp:77] Creating layer inception_5b/relu_3x3
I0903 16:45:36.728310 31321 net.cpp:91] Creating Layer inception_5b/relu_3x3
I0903 16:45:36.728318 31321 net.cpp:425] inception_5b/relu_3x3 <- inception_5b/3x3
I0903 16:45:36.728328 31321 net.cpp:386] inception_5b/relu_3x3 -> inception_5b/3x3 (in-place)
I0903 16:45:36.728904 31321 net.cpp:141] Setting up inception_5b/relu_3x3
I0903 16:45:36.728922 31321 net.cpp:148] Top shape: 10 384 7 7 (188160)
I0903 16:45:36.728927 31321 net.cpp:156] Memory required for data: 546542080
I0903 16:45:36.728934 31321 layer_factory.hpp:77] Creating layer inception_5b/5x5_reduce
I0903 16:45:36.728951 31321 net.cpp:91] Creating Layer inception_5b/5x5_reduce
I0903 16:45:36.728958 31321 net.cpp:425] inception_5b/5x5_reduce <- inception_5a/output_inception_5a/output_0_split_2
I0903 16:45:36.728968 31321 net.cpp:399] inception_5b/5x5_reduce -> inception_5b/5x5_reduce
I0903 16:45:36.731573 31321 net.cpp:141] Setting up inception_5b/5x5_reduce
I0903 16:45:36.731593 31321 net.cpp:148] Top shape: 10 48 7 7 (23520)
I0903 16:45:36.731598 31321 net.cpp:156] Memory required for data: 546636160
I0903 16:45:36.731608 31321 layer_factory.hpp:77] Creating layer inception_5b/relu_5x5_reduce
I0903 16:45:36.731618 31321 net.cpp:91] Creating Layer inception_5b/relu_5x5_reduce
I0903 16:45:36.731624 31321 net.cpp:425] inception_5b/relu_5x5_reduce <- inception_5b/5x5_reduce
I0903 16:45:36.731637 31321 net.cpp:386] inception_5b/relu_5x5_reduce -> inception_5b/5x5_reduce (in-place)
I0903 16:45:36.732141 31321 net.cpp:141] Setting up inception_5b/relu_5x5_reduce
I0903 16:45:36.732159 31321 net.cpp:148] Top shape: 10 48 7 7 (23520)
I0903 16:45:36.732164 31321 net.cpp:156] Memory required for data: 546730240
I0903 16:45:36.732170 31321 layer_factory.hpp:77] Creating layer inception_5b/5x5
I0903 16:45:36.732189 31321 net.cpp:91] Creating Layer inception_5b/5x5
I0903 16:45:36.732197 31321 net.cpp:425] inception_5b/5x5 <- inception_5b/5x5_reduce
I0903 16:45:36.732208 31321 net.cpp:399] inception_5b/5x5 -> inception_5b/5x5
I0903 16:45:36.736310 31321 net.cpp:141] Setting up inception_5b/5x5
I0903 16:45:36.736330 31321 net.cpp:148] Top shape: 10 128 7 7 (62720)
I0903 16:45:36.736336 31321 net.cpp:156] Memory required for data: 546981120
I0903 16:45:36.736347 31321 layer_factory.hpp:77] Creating layer inception_5b/relu_5x5
I0903 16:45:36.736357 31321 net.cpp:91] Creating Layer inception_5b/relu_5x5
I0903 16:45:36.736363 31321 net.cpp:425] inception_5b/relu_5x5 <- inception_5b/5x5
I0903 16:45:36.736371 31321 net.cpp:386] inception_5b/relu_5x5 -> inception_5b/5x5 (in-place)
I0903 16:45:36.736687 31321 net.cpp:141] Setting up inception_5b/relu_5x5
I0903 16:45:36.736703 31321 net.cpp:148] Top shape: 10 128 7 7 (62720)
I0903 16:45:36.736708 31321 net.cpp:156] Memory required for data: 547232000
I0903 16:45:36.736714 31321 layer_factory.hpp:77] Creating layer inception_5b/pool
I0903 16:45:36.736727 31321 net.cpp:91] Creating Layer inception_5b/pool
I0903 16:45:36.736734 31321 net.cpp:425] inception_5b/pool <- inception_5a/output_inception_5a/output_0_split_3
I0903 16:45:36.736742 31321 net.cpp:399] inception_5b/pool -> inception_5b/pool
I0903 16:45:36.736896 31321 net.cpp:141] Setting up inception_5b/pool
I0903 16:45:36.736908 31321 net.cpp:148] Top shape: 10 832 7 7 (407680)
I0903 16:45:36.736913 31321 net.cpp:156] Memory required for data: 548862720
I0903 16:45:36.736918 31321 layer_factory.hpp:77] Creating layer inception_5b/pool_proj
I0903 16:45:36.736935 31321 net.cpp:91] Creating Layer inception_5b/pool_proj
I0903 16:45:36.736943 31321 net.cpp:425] inception_5b/pool_proj <- inception_5b/pool
I0903 16:45:36.736956 31321 net.cpp:399] inception_5b/pool_proj -> inception_5b/pool_proj
I0903 16:45:36.741446 31321 net.cpp:141] Setting up inception_5b/pool_proj
I0903 16:45:36.741467 31321 net.cpp:148] Top shape: 10 128 7 7 (62720)
I0903 16:45:36.741473 31321 net.cpp:156] Memory required for data: 549113600
I0903 16:45:36.741483 31321 layer_factory.hpp:77] Creating layer inception_5b/relu_pool_proj
I0903 16:45:36.741493 31321 net.cpp:91] Creating Layer inception_5b/relu_pool_proj
I0903 16:45:36.741499 31321 net.cpp:425] inception_5b/relu_pool_proj <- inception_5b/pool_proj
I0903 16:45:36.741513 31321 net.cpp:386] inception_5b/relu_pool_proj -> inception_5b/pool_proj (in-place)
I0903 16:45:36.742019 31321 net.cpp:141] Setting up inception_5b/relu_pool_proj
I0903 16:45:36.742038 31321 net.cpp:148] Top shape: 10 128 7 7 (62720)
I0903 16:45:36.742043 31321 net.cpp:156] Memory required for data: 549364480
I0903 16:45:36.742048 31321 layer_factory.hpp:77] Creating layer inception_5b/output
I0903 16:45:36.742058 31321 net.cpp:91] Creating Layer inception_5b/output
I0903 16:45:36.742064 31321 net.cpp:425] inception_5b/output <- inception_5b/1x1
I0903 16:45:36.742071 31321 net.cpp:425] inception_5b/output <- inception_5b/3x3
I0903 16:45:36.742077 31321 net.cpp:425] inception_5b/output <- inception_5b/5x5
I0903 16:45:36.742084 31321 net.cpp:425] inception_5b/output <- inception_5b/pool_proj
I0903 16:45:36.742094 31321 net.cpp:399] inception_5b/output -> inception_5b/output
I0903 16:45:36.742183 31321 net.cpp:141] Setting up inception_5b/output
I0903 16:45:36.742195 31321 net.cpp:148] Top shape: 10 1024 7 7 (501760)
I0903 16:45:36.742200 31321 net.cpp:156] Memory required for data: 551371520
I0903 16:45:36.742205 31321 layer_factory.hpp:77] Creating layer pool5/7x7_s1
I0903 16:45:36.742220 31321 net.cpp:91] Creating Layer pool5/7x7_s1
I0903 16:45:36.742226 31321 net.cpp:425] pool5/7x7_s1 <- inception_5b/output
I0903 16:45:36.742234 31321 net.cpp:399] pool5/7x7_s1 -> pool5/7x7_s1
I0903 16:45:36.742626 31321 net.cpp:141] Setting up pool5/7x7_s1
I0903 16:45:36.742640 31321 net.cpp:148] Top shape: 10 1024 1 1 (10240)
I0903 16:45:36.742645 31321 net.cpp:156] Memory required for data: 551412480
I0903 16:45:36.742650 31321 layer_factory.hpp:77] Creating layer pool5/drop_7x7_s1
I0903 16:45:36.742661 31321 net.cpp:91] Creating Layer pool5/drop_7x7_s1
I0903 16:45:36.742667 31321 net.cpp:425] pool5/drop_7x7_s1 <- pool5/7x7_s1
I0903 16:45:36.742674 31321 net.cpp:386] pool5/drop_7x7_s1 -> pool5/7x7_s1 (in-place)
I0903 16:45:36.742779 31321 net.cpp:141] Setting up pool5/drop_7x7_s1
I0903 16:45:36.742790 31321 net.cpp:148] Top shape: 10 1024 1 1 (10240)
I0903 16:45:36.742795 31321 net.cpp:156] Memory required for data: 551453440
I0903 16:45:36.742800 31321 layer_factory.hpp:77] Creating layer loss3/classifier
I0903 16:45:36.742815 31321 net.cpp:91] Creating Layer loss3/classifier
I0903 16:45:36.742820 31321 net.cpp:425] loss3/classifier <- pool5/7x7_s1
I0903 16:45:36.742831 31321 net.cpp:399] loss3/classifier -> loss3/classifier
I0903 16:45:36.754204 31321 net.cpp:141] Setting up loss3/classifier
I0903 16:45:36.754225 31321 net.cpp:148] Top shape: 10 1000 (10000)
I0903 16:45:36.754230 31321 net.cpp:156] Memory required for data: 551493440
I0903 16:45:36.754240 31321 layer_factory.hpp:77] Creating layer prob
I0903 16:45:36.754251 31321 net.cpp:91] Creating Layer prob
I0903 16:45:36.754256 31321 net.cpp:425] prob <- loss3/classifier
I0903 16:45:36.754268 31321 net.cpp:399] prob -> prob
I0903 16:45:36.755131 31321 net.cpp:141] Setting up prob
I0903 16:45:36.755148 31321 net.cpp:148] Top shape: 10 1000 (10000)
I0903 16:45:36.755153 31321 net.cpp:156] Memory required for data: 551533440
I0903 16:45:36.755159 31321 net.cpp:219] prob does not need backward computation.
I0903 16:45:36.755165 31321 net.cpp:219] loss3/classifier does not need backward computation.
I0903 16:45:36.755170 31321 net.cpp:219] pool5/drop_7x7_s1 does not need backward computation.
I0903 16:45:36.755174 31321 net.cpp:219] pool5/7x7_s1 does not need backward computation.
…
