…
2016-07-30 09:57:10.913 STDERR [INFO] I0730 09:57:10.893615  6935 net.cpp:91] Creating Layer input
2016-07-30 09:57:10.913 STDERR [INFO] I0730 09:57:10.893625  6935 net.cpp:399] input -> frames_fc7
2016-07-30 09:57:10.913 STDERR [INFO] I0730 09:57:10.893647  6935 net.cpp:399] input -> cont_sentence
2016-07-30 09:57:10.913 STDERR [INFO] I0730 09:57:10.893659  6935 net.cpp:399] input -> input_sentence
2016-07-30 09:57:10.914 STDERR [INFO] I0730 09:57:10.893671  6935 net.cpp:399] input -> stage_indicator
2016-07-30 09:57:10.914 STDERR [INFO] I0730 09:57:10.894364  6935 net.cpp:141] Setting up input
2016-07-30 09:57:10.914 STDERR [INFO] I0730 09:57:10.894387  6935 net.cpp:148] Top shape: 1 4096 (4096)
2016-07-30 09:57:10.914 STDERR [INFO] I0730 09:57:10.894395  6935 net.cpp:148] Top shape: 1 1 (1)
2016-07-30 09:57:10.914 STDERR [INFO] I0730 09:57:10.894402  6935 net.cpp:148] Top shape: 1 1 (1)
2016-07-30 09:57:10.914 STDERR [INFO] I0730 09:57:10.894408  6935 net.cpp:148] Top shape: 1 1 (1)
2016-07-30 09:57:10.914 STDERR [INFO] I0730 09:57:10.894412  6935 net.cpp:156] Memory required for data: 16396
2016-07-30 09:57:10.914 STDERR [INFO] I0730 09:57:10.894419  6935 layer_factory.hpp:77] Creating layer cont_sentence_input_1_split
2016-07-30 09:57:10.914 STDERR [INFO] I0730 09:57:10.894443  6935 net.cpp:91] Creating Layer cont_sentence_input_1_split
2016-07-30 09:57:10.914 STDERR [INFO] I0730 09:57:10.894448  6935 net.cpp:425] cont_sentence_input_1_split <- cont_sentence
2016-07-30 09:57:10.915 STDERR [INFO] I0730 09:57:10.894475  6935 net.cpp:399] cont_sentence_input_1_split -> cont_sentence_input_1_split_0
2016-07-30 09:57:10.915 STDERR [INFO] I0730 09:57:10.894489  6935 net.cpp:399] cont_sentence_input_1_split -> cont_sentence_input_1_split_1
2016-07-30 09:57:10.915 STDERR [INFO] I0730 09:57:10.894659  6935 net.cpp:141] Setting up cont_sentence_input_1_split
2016-07-30 09:57:10.915 STDERR [INFO] I0730 09:57:10.894672  6935 net.cpp:148] Top shape: 1 1 (1)
2016-07-30 09:57:10.915 STDERR [INFO] I0730 09:57:10.894680  6935 net.cpp:148] Top shape: 1 1 (1)
2016-07-30 09:57:10.915 STDERR [INFO] I0730 09:57:10.894683  6935 net.cpp:156] Memory required for data: 16404
2016-07-30 09:57:10.915 STDERR [INFO] I0730 09:57:10.894702  6935 layer_factory.hpp:77] Creating layer embed_encoder
2016-07-30 09:57:10.916 STDERR [INFO] I0730 09:57:10.894716  6935 net.cpp:91] Creating Layer embed_encoder
2016-07-30 09:57:10.916 STDERR [INFO] I0730 09:57:10.894721  6935 net.cpp:425] embed_encoder <- frames_fc7
2016-07-30 09:57:10.916 STDERR [INFO] I0730 09:57:10.894742  6935 net.cpp:399] embed_encoder -> embedded_in_frames
2016-07-30 09:57:10.916 STDERR [INFO] I0730 09:57:10.902495  6945 net.cpp:141] Setting up conv1
2016-07-30 09:57:10.916 STDERR [INFO] I0730 09:57:10.902547  6945 net.cpp:148] Top shape: 10 96 55 55 (2904000)
2016-07-30 09:57:10.916 STDERR [INFO] I0730 09:57:10.902555  6945 net.cpp:156] Memory required for data: 17799480
2016-07-30 09:57:10.916 STDERR [INFO] I0730 09:57:10.902590  6945 layer_factory.hpp:77] Creating layer relu1
2016-07-30 09:57:10.916 STDERR [INFO] I0730 09:57:10.902613  6945 net.cpp:91] Creating Layer relu1
2016-07-30 09:57:10.916 STDERR [INFO] I0730 09:57:10.902622  6945 net.cpp:425] relu1 <- conv1
2016-07-30 09:57:10.916 STDERR [INFO] I0730 09:57:10.902632  6945 net.cpp:386] relu1 -> conv1 (in-place)
2016-07-30 09:57:10.916 STDERR [INFO] I0730 09:57:10.903496  6945 net.cpp:141] Setting up relu1
2016-07-30 09:57:10.916 STDERR [INFO] I0730 09:57:10.903512  6945 net.cpp:148] Top shape: 10 96 55 55 (2904000)
2016-07-30 09:57:10.917 STDERR [INFO] I0730 09:57:10.903518  6945 net.cpp:156] Memory required for data: 29415480
2016-07-30 09:57:10.917 STDERR [INFO] I0730 09:57:10.903525  6945 layer_factory.hpp:77] Creating layer pool1
2016-07-30 09:57:10.917 STDERR [INFO] I0730 09:57:10.903540  6945 net.cpp:91] Creating Layer pool1
2016-07-30 09:57:10.917 STDERR [INFO] I0730 09:57:10.903547  6945 net.cpp:425] pool1 <- conv1
2016-07-30 09:57:10.917 STDERR [INFO] I0730 09:57:10.903556  6945 net.cpp:399] pool1 -> pool1
2016-07-30 09:57:10.917 STDERR [INFO] I0730 09:57:10.903638  6945 net.cpp:141] Setting up pool1
2016-07-30 09:57:10.917 STDERR [INFO] I0730 09:57:10.903650  6945 net.cpp:148] Top shape: 10 96 27 27 (699840)
2016-07-30 09:57:10.917 STDERR [INFO] I0730 09:57:10.903656  6945 net.cpp:156] Memory required for data: 32214840
2016-07-30 09:57:10.918 STDERR [INFO] I0730 09:57:10.903661  6945 layer_factory.hpp:77] Creating layer norm1
2016-07-30 09:57:10.918 STDERR [INFO] I0730 09:57:10.903681  6945 net.cpp:91] Creating Layer norm1
2016-07-30 09:57:10.918 STDERR [INFO] I0730 09:57:10.903687  6945 net.cpp:425] norm1 <- pool1
2016-07-30 09:57:10.918 STDERR [INFO] I0730 09:57:10.903694  6945 net.cpp:399] norm1 -> norm1
2016-07-30 09:57:10.918 STDERR [INFO] I0730 09:57:10.904510  6945 net.cpp:141] Setting up norm1
2016-07-30 09:57:10.918 STDERR [INFO] I0730 09:57:10.904525  6945 net.cpp:148] Top shape: 10 96 27 27 (699840)
2016-07-30 09:57:10.918 STDERR [INFO] I0730 09:57:10.904531  6945 net.cpp:156] Memory required for data: 35014200
2016-07-30 09:57:10.918 STDERR [INFO] I0730 09:57:10.904536  6945 layer_factory.hpp:77] Creating layer conv2
2016-07-30 09:57:10.918 STDERR [INFO] I0730 09:57:10.904556  6945 net.cpp:91] Creating Layer conv2
2016-07-30 09:57:10.919 STDERR [INFO] I0730 09:57:10.904562  6945 net.cpp:425] conv2 <- norm1
2016-07-30 09:57:10.919 STDERR [INFO] I0730 09:57:10.904572  6945 net.cpp:399] conv2 -> conv2
2016-07-30 09:57:10.919 STDERR [INFO] I0730 09:57:10.911265  6945 net.cpp:141] Setting up conv2
2016-07-30 09:57:10.919 STDERR [INFO] I0730 09:57:10.911303  6945 net.cpp:148] Top shape: 10 256 27 27 (1866240)
2016-07-30 09:57:10.919 STDERR [INFO] I0730 09:57:10.911309  6945 net.cpp:156] Memory required for data: 42479160
2016-07-30 09:57:10.919 STDERR [INFO] I0730 09:57:10.911330  6945 layer_factory.hpp:77] Creating layer relu2
2016-07-30 09:57:10.919 STDERR [INFO] I0730 09:57:10.911347  6945 net.cpp:91] Creating Layer relu2
2016-07-30 09:57:10.919 STDERR [INFO] I0730 09:57:10.911355  6945 net.cpp:425] relu2 <- conv2
2016-07-30 09:57:10.919 STDERR [INFO] I0730 09:57:10.911362  6945 net.cpp:386] relu2 -> conv2 (in-place)
2016-07-30 09:57:10.919 STDERR [INFO] I0730 09:57:10.912075  6945 net.cpp:141] Setting up relu2
2016-07-30 09:57:10.919 STDERR [INFO] I0730 09:57:10.912091  6945 net.cpp:148] Top shape: 10 256 27 27 (1866240)
2016-07-30 09:57:10.919 STDERR [INFO] I0730 09:57:10.912096  6945 net.cpp:156] Memory required for data: 49944120
2016-07-30 09:57:10.920 STDERR [INFO] I0730 09:57:10.912101  6945 layer_factory.hpp:77] Creating layer pool2
2016-07-30 09:57:10.920 STDERR [INFO] I0730 09:57:10.912111  6945 net.cpp:91] Creating Layer pool2
2016-07-30 09:57:10.920 STDERR [INFO] I0730 09:57:10.912116  6945 net.cpp:425] pool2 <- conv2
2016-07-30 09:57:10.920 STDERR [INFO] I0730 09:57:10.912122  6945 net.cpp:399] pool2 -> pool2
2016-07-30 09:57:10.920 STDERR [INFO] I0730 09:57:10.912183  6945 net.cpp:141] Setting up pool2
2016-07-30 09:57:10.920 STDERR [INFO] I0730 09:57:10.912191  6945 net.cpp:148] Top shape: 10 256 13 13 (432640)
2016-07-30 09:57:10.920 STDERR [INFO] I0730 09:57:10.912196  6945 net.cpp:156] Memory required for data: 51674680
2016-07-30 09:57:10.920 STDERR [INFO] I0730 09:57:10.912200  6945 layer_factory.hpp:77] Creating layer norm2
2016-07-30 09:57:10.920 STDERR [INFO] I0730 09:57:10.912216  6945 net.cpp:91] Creating Layer norm2
2016-07-30 09:57:10.920 STDERR [INFO] I0730 09:57:10.912221  6945 net.cpp:425] norm2 <- pool2
2016-07-30 09:57:10.920 STDERR [INFO] I0730 09:57:10.912228  6945 net.cpp:399] norm2 -> norm2
2016-07-30 09:57:10.920 STDERR [INFO] I0730 09:57:10.912480  6945 net.cpp:141] Setting up norm2
2016-07-30 09:57:10.921 STDERR [INFO] I0730 09:57:10.912492  6945 net.cpp:148] Top shape: 10 256 13 13 (432640)
2016-07-30 09:57:10.921 STDERR [INFO] I0730 09:57:10.912497  6945 net.cpp:156] Memory required for data: 53405240
2016-07-30 09:57:10.921 STDERR [INFO] I0730 09:57:10.912500  6945 layer_factory.hpp:77] Creating layer conv3
2016-07-30 09:57:10.921 STDERR [INFO] I0730 09:57:10.912516  6945 net.cpp:91] Creating Layer conv3
2016-07-30 09:57:10.921 STDERR [INFO] I0730 09:57:10.912523  6945 net.cpp:425] conv3 <- norm2
2016-07-30 09:57:10.921 STDERR [INFO] I0730 09:57:10.912530  6945 net.cpp:399] conv3 -> conv3
2016-07-30 09:57:10.921 STDERR [INFO] I0730 09:57:10.917510  6945 net.cpp:141] Setting up conv3
2016-07-30 09:57:10.921 STDERR [INFO] I0730 09:57:10.917539  6945 net.cpp:148] Top shape: 10 384 13 13 (648960)
2016-07-30 09:57:10.921 STDERR [INFO] I0730 09:57:10.917544  6945 net.cpp:156] Memory required for data: 56001080
2016-07-30 09:57:10.921 STDERR [INFO] I0730 09:57:10.917560  6945 layer_factory.hpp:77] Creating layer relu3
2016-07-30 09:57:10.922 STDERR [INFO] I0730 09:57:10.917587  6945 net.cpp:91] Creating Layer relu3
2016-07-30 09:57:10.922 STDERR [INFO] I0730 09:57:10.917593  6945 net.cpp:425] relu3 <- conv3
2016-07-30 09:57:10.922 STDERR [INFO] I0730 09:57:10.917601  6945 net.cpp:386] relu3 -> conv3 (in-place)
2016-07-30 09:57:10.922 STDERR [INFO] I0730 09:57:10.918263  6945 net.cpp:141] Setting up relu3
2016-07-30 09:57:10.922 STDERR [INFO] I0730 09:57:10.918275  6945 net.cpp:148] Top shape: 10 384 13 13 (648960)
2016-07-30 09:57:10.922 STDERR [INFO] I0730 09:57:10.918280  6945 net.cpp:156] Memory required for data: 58596920
2016-07-30 09:57:10.922 STDERR [INFO] I0730 09:57:10.918285  6945 layer_factory.hpp:77] Creating layer conv4
2016-07-30 09:57:10.922 STDERR [INFO] I0730 09:57:10.918299  6945 net.cpp:91] Creating Layer conv4
2016-07-30 09:57:10.922 STDERR [INFO] I0730 09:57:10.918304  6945 net.cpp:425] conv4 <- conv3
2016-07-30 09:57:10.922 STDERR [INFO] I0730 09:57:10.918311  6945 net.cpp:399] conv4 -> conv4
2016-07-30 09:57:10.922 STDERR [INFO] I0730 09:57:10.920414  6935 net.cpp:141] Setting up embed_encoder
2016-07-30 09:57:10.922 STDERR [INFO] I0730 09:57:10.920445  6935 net.cpp:148] Top shape: 1 500 (500)
2016-07-30 09:57:10.923 STDERR [INFO] I0730 09:57:10.920451  6935 net.cpp:156] Memory required for data: 18404
2016-07-30 09:57:10.923 STDERR [INFO] I0730 09:57:10.920470  6935 layer_factory.hpp:77] Creating layer reshape_frames
2016-07-30 09:57:10.923 STDERR [INFO] I0730 09:57:10.920506  6935 net.cpp:91] Creating Layer reshape_frames
2016-07-30 09:57:10.923 STDERR [INFO] I0730 09:57:10.920514  6935 net.cpp:425] reshape_frames <- embedded_in_frames
2016-07-30 09:57:10.923 STDERR [INFO] I0730 09:57:10.920526  6935 net.cpp:399] reshape_frames -> embedded_input_frames
2016-07-30 09:57:10.923 STDERR [INFO] I0730 09:57:10.920583  6935 net.cpp:141] Setting up reshape_frames
2016-07-30 09:57:10.923 STDERR [INFO] I0730 09:57:10.920594  6935 net.cpp:148] Top shape: 1 1 500 (500)
2016-07-30 09:57:10.923 STDERR [INFO] I0730 09:57:10.920599  6935 net.cpp:156] Memory required for data: 20404
2016-07-30 09:57:10.923 STDERR [INFO] I0730 09:57:10.920604  6935 layer_factory.hpp:77] Creating layer reshape_stage_indicator
2016-07-30 09:57:10.923 STDERR [INFO] I0730 09:57:10.920616  6935 net.cpp:91] Creating Layer reshape_stage_indicator
2016-07-30 09:57:10.923 STDERR [INFO] I0730 09:57:10.920621  6935 net.cpp:425] reshape_stage_indicator <- stage_indicator
2016-07-30 09:57:10.924 STDERR [INFO] I0730 09:57:10.920631  6935 net.cpp:399] reshape_stage_indicator -> reshaped_stage_indicator
2016-07-30 09:57:10.924 STDERR [INFO] I0730 09:57:10.920729  6935 net.cpp:141] Setting up reshape_stage_indicator
2016-07-30 09:57:10.924 STDERR [INFO] I0730 09:57:10.920742  6935 net.cpp:148] Top shape: 1 1 1 (1)
2016-07-30 09:57:10.924 STDERR [INFO] I0730 09:57:10.920745  6935 net.cpp:156] Memory required for data: 20408
2016-07-30 09:57:10.924 STDERR [INFO] I0730 09:57:10.920750  6935 layer_factory.hpp:77] Creating layer embedding
2016-07-30 09:57:10.924 STDERR [INFO] I0730 09:57:10.920764  6935 net.cpp:91] Creating Layer embedding
2016-07-30 09:57:10.924 STDERR [INFO] I0730 09:57:10.920770  6935 net.cpp:425] embedding <- input_sentence
2016-07-30 09:57:10.924 STDERR [INFO] I0730 09:57:10.920779  6935 net.cpp:399] embedding -> embedded_input_sentence
2016-07-30 09:57:10.969 STDERR [INFO] I0730 09:57:10.968889  6945 net.cpp:141] Setting up conv4
2016-07-30 09:57:10.969 STDERR [INFO] I0730 09:57:10.968937  6945 net.cpp:148] Top shape: 10 384 13 13 (648960)
2016-07-30 09:57:10.969 STDERR [INFO] I0730 09:57:10.968945  6945 net.cpp:156] Memory required for data: 61192760
2016-07-30 09:57:10.969 STDERR [INFO] I0730 09:57:10.968961  6945 layer_factory.hpp:77] Creating layer relu4
2016-07-30 09:57:10.969 STDERR [INFO] I0730 09:57:10.968993  6945 net.cpp:91] Creating Layer relu4
2016-07-30 09:57:10.969 STDERR [INFO] I0730 09:57:10.969000  6945 net.cpp:425] relu4 <- conv4
2016-07-30 09:57:10.969 STDERR [INFO] I0730 09:57:10.969008  6945 net.cpp:386] relu4 -> conv4 (in-place)
2016-07-30 09:57:10.969 STDERR [INFO] I0730 09:57:10.969712  6945 net.cpp:141] Setting up relu4
2016-07-30 09:57:10.970 STDERR [INFO] I0730 09:57:10.969728  6945 net.cpp:148] Top shape: 10 384 13 13 (648960)
2016-07-30 09:57:10.970 STDERR [INFO] I0730 09:57:10.969732  6945 net.cpp:156] Memory required for data: 63788600
2016-07-30 09:57:10.970 STDERR [INFO] I0730 09:57:10.969738  6945 layer_factory.hpp:77] Creating layer conv5
2016-07-30 09:57:10.970 STDERR [INFO] I0730 09:57:10.969753  6945 net.cpp:91] Creating Layer conv5
2016-07-30 09:57:10.970 STDERR [INFO] I0730 09:57:10.969758  6945 net.cpp:425] conv5 <- conv4
2016-07-30 09:57:10.970 STDERR [INFO] I0730 09:57:10.969765  6945 net.cpp:399] conv5 -> conv5
2016-07-30 09:57:10.975 STDERR [INFO] I0730 09:57:10.975107  6945 net.cpp:141] Setting up conv5
2016-07-30 09:57:10.975 STDERR [INFO] I0730 09:57:10.975126  6945 net.cpp:148] Top shape: 10 256 13 13 (432640)
2016-07-30 09:57:10.975 STDERR [INFO] I0730 09:57:10.975132  6945 net.cpp:156] Memory required for data: 65519160
2016-07-30 09:57:10.975 STDERR [INFO] I0730 09:57:10.975150  6945 layer_factory.hpp:77] Creating layer relu5
2016-07-30 09:57:10.975 STDERR [INFO] I0730 09:57:10.975160  6945 net.cpp:91] Creating Layer relu5
2016-07-30 09:57:10.975 STDERR [INFO] I0730 09:57:10.975165  6945 net.cpp:425] relu5 <- conv5
2016-07-30 09:57:10.975 STDERR [INFO] I0730 09:57:10.975174  6945 net.cpp:386] relu5 -> conv5 (in-place)
2016-07-30 09:57:10.975 STDERR [INFO] I0730 09:57:10.975896  6945 net.cpp:141] Setting up relu5
2016-07-30 09:57:10.976 STDERR [INFO] I0730 09:57:10.975914  6945 net.cpp:148] Top shape: 10 256 13 13 (432640)
2016-07-30 09:57:10.976 STDERR [INFO] I0730 09:57:10.975919  6945 net.cpp:156] Memory required for data: 67249720
2016-07-30 09:57:10.976 STDERR [INFO] I0730 09:57:10.975924  6945 layer_factory.hpp:77] Creating layer pool5
2016-07-30 09:57:10.976 STDERR [INFO] I0730 09:57:10.975934  6945 net.cpp:91] Creating Layer pool5
2016-07-30 09:57:10.976 STDERR [INFO] I0730 09:57:10.975939  6945 net.cpp:425] pool5 <- conv5
2016-07-30 09:57:10.976 STDERR [INFO] I0730 09:57:10.975949  6945 net.cpp:399] pool5 -> pool5
2016-07-30 09:57:10.976 STDERR [INFO] I0730 09:57:10.976011  6945 net.cpp:141] Setting up pool5
2016-07-30 09:57:10.976 STDERR [INFO] I0730 09:57:10.976022  6945 net.cpp:148] Top shape: 10 256 6 6 (92160)
2016-07-30 09:57:10.976 STDERR [INFO] I0730 09:57:10.976027  6945 net.cpp:156] Memory required for data: 67618360
2016-07-30 09:57:10.976 STDERR [INFO] I0730 09:57:10.976032  6945 layer_factory.hpp:77] Creating layer fc6
2016-07-30 09:57:10.976 STDERR [INFO] I0730 09:57:10.976045  6945 net.cpp:91] Creating Layer fc6
2016-07-30 09:57:10.976 STDERR [INFO] I0730 09:57:10.976050  6945 net.cpp:425] fc6 <- pool5
2016-07-30 09:57:10.977 STDERR [INFO] I0730 09:57:10.976058  6945 net.cpp:399] fc6 -> fc6
2016-07-30 09:57:11.076 STDERR [INFO] I0730 09:57:11.076759  6945 net.cpp:141] Setting up fc6
2016-07-30 09:57:11.077 STDERR [INFO] I0730 09:57:11.076804  6945 net.cpp:148] Top shape: 10 4096 (40960)
2016-07-30 09:57:11.077 STDERR [INFO] I0730 09:57:11.076810  6945 net.cpp:156] Memory required for data: 67782200
2016-07-30 09:57:11.077 STDERR [INFO] I0730 09:57:11.076822  6945 layer_factory.hpp:77] Creating layer relu6
2016-07-30 09:57:11.078 STDERR [INFO] I0730 09:57:11.076839  6945 net.cpp:91] Creating Layer relu6
2016-07-30 09:57:11.078 STDERR [INFO] I0730 09:57:11.076845  6945 net.cpp:425] relu6 <- fc6
2016-07-30 09:57:11.078 STDERR [INFO] I0730 09:57:11.076853  6945 net.cpp:386] relu6 -> fc6 (in-place)
2016-07-30 09:57:11.078 STDERR [INFO] I0730 09:57:11.077174  6945 net.cpp:141] Setting up relu6
2016-07-30 09:57:11.078 STDERR [INFO] I0730 09:57:11.077185  6945 net.cpp:148] Top shape: 10 4096 (40960)
2016-07-30 09:57:11.078 STDERR [INFO] I0730 09:57:11.077190  6945 net.cpp:156] Memory required for data: 67946040
2016-07-30 09:57:11.078 STDERR [INFO] I0730 09:57:11.077195  6945 layer_factory.hpp:77] Creating layer drop6
2016-07-30 09:57:11.078 STDERR [INFO] I0730 09:57:11.077217  6945 net.cpp:91] Creating Layer drop6
2016-07-30 09:57:11.078 STDERR [INFO] I0730 09:57:11.077224  6945 net.cpp:425] drop6 <- fc6
2016-07-30 09:57:11.078 STDERR [INFO] I0730 09:57:11.077232  6945 net.cpp:386] drop6 -> fc6 (in-place)
2016-07-30 09:57:11.078 STDERR [INFO] I0730 09:57:11.077278  6945 net.cpp:141] Setting up drop6
2016-07-30 09:57:11.078 STDERR [INFO] I0730 09:57:11.077287  6945 net.cpp:148] Top shape: 10 4096 (40960)
2016-07-30 09:57:11.079 STDERR [INFO] I0730 09:57:11.077291  6945 net.cpp:156] Memory required for data: 68109880
2016-07-30 09:57:11.079 STDERR [INFO] I0730 09:57:11.077296  6945 layer_factory.hpp:77] Creating layer fc7
2016-07-30 09:57:11.079 STDERR [INFO] I0730 09:57:11.077311  6945 net.cpp:91] Creating Layer fc7
2016-07-30 09:57:11.079 STDERR [INFO] I0730 09:57:11.077316  6945 net.cpp:425] fc7 <- fc6
2016-07-30 09:57:11.079 STDERR [INFO] I0730 09:57:11.077322  6945 net.cpp:399] fc7 -> fc7
2016-07-30 09:57:11.123 STDERR [INFO] I0730 09:57:11.123169  6945 net.cpp:141] Setting up fc7
2016-07-30 09:57:11.123 STDERR [INFO] I0730 09:57:11.123221  6945 net.cpp:148] Top shape: 10 4096 (40960)
2016-07-30 09:57:11.123 STDERR [INFO] I0730 09:57:11.123229  6945 net.cpp:156] Memory required for data: 68273720
2016-07-30 09:57:11.123 STDERR [INFO] I0730 09:57:11.123241  6945 layer_factory.hpp:77] Creating layer relu7
2016-07-30 09:57:11.123 STDERR [INFO] I0730 09:57:11.123257  6945 net.cpp:91] Creating Layer relu7
2016-07-30 09:57:11.124 STDERR [INFO] I0730 09:57:11.123265  6945 net.cpp:425] relu7 <- fc7
2016-07-30 09:57:11.124 STDERR [INFO] I0730 09:57:11.123273  6945 net.cpp:386] relu7 -> fc7 (in-place)
2016-07-30 09:57:11.124 STDERR [INFO] I0730 09:57:11.124696  6945 net.cpp:141] Setting up relu7
2016-07-30 09:57:11.124 STDERR [INFO] I0730 09:57:11.124716  6945 net.cpp:148] Top shape: 10 4096 (40960)
2016-07-30 09:57:11.124 STDERR [INFO] I0730 09:57:11.124721  6945 net.cpp:156] Memory required for data: 68437560
2016-07-30 09:57:11.125 STDERR [INFO] I0730 09:57:11.124725  6945 layer_factory.hpp:77] Creating layer drop7
2016-07-30 09:57:11.125 STDERR [INFO] I0730 09:57:11.124735  6945 net.cpp:91] Creating Layer drop7
2016-07-30 09:57:11.125 STDERR [INFO] I0730 09:57:11.124740  6945 net.cpp:425] drop7 <- fc7
2016-07-30 09:57:11.125 STDERR [INFO] I0730 09:57:11.124747  6945 net.cpp:386] drop7 -> fc7 (in-place)
2016-07-30 09:57:11.125 STDERR [INFO] I0730 09:57:11.124789  6945 net.cpp:141] Setting up drop7
2016-07-30 09:57:11.125 STDERR [INFO] I0730 09:57:11.124799  6945 net.cpp:148] Top shape: 10 4096 (40960)
2016-07-30 09:57:11.125 STDERR [INFO] I0730 09:57:11.124802  6945 net.cpp:156] Memory required for data: 68601400
2016-07-30 09:57:11.125 STDERR [INFO] I0730 09:57:11.124807  6945 layer_factory.hpp:77] Creating layer fc8
2016-07-30 09:57:11.125 STDERR [INFO] I0730 09:57:11.124816  6945 net.cpp:91] Creating Layer fc8
2016-07-30 09:57:11.125 STDERR [INFO] I0730 09:57:11.124821  6945 net.cpp:425] fc8 <- fc7
2016-07-30 09:57:11.125 STDERR [INFO] I0730 09:57:11.124830  6945 net.cpp:399] fc8 -> fc8
2016-07-30 09:57:11.137 STDERR [INFO] I0730 09:57:11.137076  6945 net.cpp:141] Setting up fc8
2016-07-30 09:57:11.137 STDERR [INFO] I0730 09:57:11.137133  6945 net.cpp:148] Top shape: 10 1000 (10000)
2016-07-30 09:57:11.137 STDERR [INFO] I0730 09:57:11.137140  6945 net.cpp:156] Memory required for data: 68641400
2016-07-30 09:57:11.137 STDERR [INFO] I0730 09:57:11.137153  6945 layer_factory.hpp:77] Creating layer prob
2016-07-30 09:57:11.137 STDERR [INFO] I0730 09:57:11.137167  6945 net.cpp:91] Creating Layer prob
2016-07-30 09:57:11.137 STDERR [INFO] I0730 09:57:11.137173  6945 net.cpp:425] prob <- fc8
2016-07-30 09:57:11.137 STDERR [INFO] I0730 09:57:11.137188  6945 net.cpp:399] prob -> prob
2016-07-30 09:57:11.138 STDERR [INFO] I0730 09:57:11.137590  6945 net.cpp:141] Setting up prob
2016-07-30 09:57:11.138 STDERR [INFO] I0730 09:57:11.137603  6945 net.cpp:148] Top shape: 10 1000 (10000)
2016-07-30 09:57:11.138 STDERR [INFO] I0730 09:57:11.137606  6945 net.cpp:156] Memory required for data: 68681400
2016-07-30 09:57:11.138 STDERR [INFO] I0730 09:57:11.137611  6945 net.cpp:219] prob does not need backward computation.
2016-07-30 09:57:11.138 STDERR [INFO] I0730 09:57:11.137616  6945 net.cpp:219] fc8 does not need backward computation.
2016-07-30 09:57:11.138 STDERR [INFO] I0730 09:57:11.137621  6945 net.cpp:219] drop7 does not need backward computation.
…
2016-07-30 09:57:11.179 STDERR [INFO] }
2016-07-30 09:57:11.179 STDERR [INFO] I0730 09:57:11.165977  6935 layer_factory.hpp:77] Creating layer lstm1_
2016-07-30 09:57:11.179 STDERR [INFO] I0730 09:57:11.165993  6935 net.cpp:91] Creating Layer lstm1_
2016-07-30 09:57:11.179 STDERR [INFO] I0730 09:57:11.166000  6935 net.cpp:399] lstm1_ -> x
2016-07-30 09:57:11.179 STDERR [INFO] I0730 09:57:11.166014  6935 net.cpp:399] lstm1_ -> cont
2016-07-30 09:57:11.179 STDERR [INFO] I0730 09:57:11.166086  6935 net.cpp:141] Setting up lstm1_
2016-07-30 09:57:11.180 STDERR [INFO] I0730 09:57:11.166097  6935 net.cpp:148] Top shape: 1 1 500 (500)
2016-07-30 09:57:11.180 STDERR [INFO] I0730 09:57:11.166105  6935 net.cpp:148] Top shape: 1 1 (1)
2016-07-30 09:57:11.180 STDERR [INFO] I0730 09:57:11.166108  6935 net.cpp:156] Memory required for data: 2004
2016-07-30 09:57:11.180 STDERR [INFO] I0730 09:57:11.166115  6935 layer_factory.hpp:77] Creating layer lstm1_
2016-07-30 09:57:11.180 STDERR [INFO] I0730 09:57:11.166127  6935 net.cpp:91] Creating Layer lstm1_
2016-07-30 09:57:11.180 STDERR [INFO] I0730 09:57:11.166137  6935 net.cpp:399] lstm1_ -> c_0
2016-07-30 09:57:11.180 STDERR [INFO] I0730 09:57:11.166148  6935 net.cpp:399] lstm1_ -> h_0
2016-07-30 09:57:11.180 STDERR [INFO] I0730 09:57:11.166203  6935 net.cpp:141] Setting up lstm1_
2016-07-30 09:57:11.180 STDERR [INFO] I0730 09:57:11.166215  6935 net.cpp:148] Top shape: 1 1 1000 (1000)
2016-07-30 09:57:11.180 STDERR [INFO] I0730 09:57:11.166221  6935 net.cpp:148] Top shape: 1 1 1000 (1000)
2016-07-30 09:57:11.180 STDERR [INFO] I0730 09:57:11.166226  6935 net.cpp:156] Memory required for data: 10004
2016-07-30 09:57:11.181 STDERR [INFO] I0730 09:57:11.166231  6935 layer_factory.hpp:77] Creating layer lstm1_cont_slice
2016-07-30 09:57:11.181 STDERR [INFO] I0730 09:57:11.166241  6935 net.cpp:91] Creating Layer lstm1_cont_slice
2016-07-30 09:57:11.181 STDERR [INFO] I0730 09:57:11.166247  6935 net.cpp:425] lstm1_cont_slice <- cont
2016-07-30 09:57:11.181 STDERR [INFO] I0730 09:57:11.166254  6935 net.cpp:399] lstm1_cont_slice -> cont_1
2016-07-30 09:57:11.181 STDERR [INFO] I0730 09:57:11.166296  6935 net.cpp:141] Setting up lstm1_cont_slice
2016-07-30 09:57:11.181 STDERR [INFO] I0730 09:57:11.166306  6935 net.cpp:148] Top shape: 1 1 (1)
2016-07-30 09:57:11.181 STDERR [INFO] I0730 09:57:11.166311  6935 net.cpp:156] Memory required for data: 10008
2016-07-30 09:57:11.181 STDERR [INFO] I0730 09:57:11.166316  6935 layer_factory.hpp:77] Creating layer cont_1_lstm1_cont_slice_0_split
2016-07-30 09:57:11.181 STDERR [INFO] I0730 09:57:11.166324  6935 net.cpp:91] Creating Layer cont_1_lstm1_cont_slice_0_split
2016-07-30 09:57:11.181 STDERR [INFO] I0730 09:57:11.166330  6935 net.cpp:425] cont_1_lstm1_cont_slice_0_split <- cont_1
2016-07-30 09:57:11.182 STDERR [INFO] I0730 09:57:11.166339  6935 net.cpp:399] cont_1_lstm1_cont_slice_0_split -> cont_1_lstm1_cont_slice_0_split_0
2016-07-30 09:57:11.182 STDERR [INFO] I0730 09:57:11.166348  6935 net.cpp:399] cont_1_lstm1_cont_slice_0_split -> cont_1_lstm1_cont_slice_0_split_1
2016-07-30 09:57:11.182 STDERR [INFO] I0730 09:57:11.166402  6935 net.cpp:141] Setting up cont_1_lstm1_cont_slice_0_split
2016-07-30 09:57:11.182 STDERR [INFO] I0730 09:57:11.166412  6935 net.cpp:148] Top shape: 1 1 (1)
2016-07-30 09:57:11.182 STDERR [INFO] I0730 09:57:11.166419  6935 net.cpp:148] Top shape: 1 1 (1)
2016-07-30 09:57:11.182 STDERR [INFO] I0730 09:57:11.166424  6935 net.cpp:156] Memory required for data: 10016
2016-07-30 09:57:11.182 STDERR [INFO] I0730 09:57:11.166429  6935 layer_factory.hpp:77] Creating layer lstm1_x_transform
2016-07-30 09:57:11.182 STDERR [INFO] I0730 09:57:11.166440  6935 net.cpp:91] Creating Layer lstm1_x_transform
2016-07-30 09:57:11.182 STDERR [INFO] I0730 09:57:11.166445  6935 net.cpp:425] lstm1_x_transform <- x
2016-07-30 09:57:11.182 STDERR [INFO] I0730 09:57:11.166455  6935 net.cpp:399] lstm1_x_transform -> W_xc_x
2016-07-30 09:57:11.189 STDERR [INFO] I0730 09:57:11.189138  6935 net.cpp:141] Setting up lstm1_x_transform
2016-07-30 09:57:11.189 STDERR [INFO] I0730 09:57:11.189182  6935 net.cpp:148] Top shape: 1 1 4000 (4000)
2016-07-30 09:57:11.189 STDERR [INFO] I0730 09:57:11.189188  6935 net.cpp:156] Memory required for data: 26016
2016-07-30 09:57:11.189 STDERR [INFO] I0730 09:57:11.189208  6935 layer_factory.hpp:77] Creating layer lstm1_W_xc_x_slice
2016-07-30 09:57:11.189 STDERR [INFO] I0730 09:57:11.189223  6935 net.cpp:91] Creating Layer lstm1_W_xc_x_slice
2016-07-30 09:57:11.190 STDERR [INFO] I0730 09:57:11.189230  6935 net.cpp:425] lstm1_W_xc_x_slice <- W_xc_x
2016-07-30 09:57:11.190 STDERR [INFO] I0730 09:57:11.189240  6935 net.cpp:399] lstm1_W_xc_x_slice -> W_xc_x_1
2016-07-30 09:57:11.190 STDERR [INFO] I0730 09:57:11.189287  6935 net.cpp:141] Setting up lstm1_W_xc_x_slice
2016-07-30 09:57:11.190 STDERR [INFO] I0730 09:57:11.189297  6935 net.cpp:148] Top shape: 1 1 4000 (4000)
2016-07-30 09:57:11.190 STDERR [INFO] I0730 09:57:11.189301  6935 net.cpp:156] Memory required for data: 42016
2016-07-30 09:57:11.190 STDERR [INFO] I0730 09:57:11.189306  6935 layer_factory.hpp:77] Creating layer lstm1_h_conted_0
2016-07-30 09:57:11.190 STDERR [INFO] I0730 09:57:11.189317  6935 net.cpp:91] Creating Layer lstm1_h_conted_0
2016-07-30 09:57:11.190 STDERR [INFO] I0730 09:57:11.189322  6935 net.cpp:425] lstm1_h_conted_0 <- h_0
2016-07-30 09:57:11.190 STDERR [INFO] I0730 09:57:11.189328  6935 net.cpp:425] lstm1_h_conted_0 <- cont_1_lstm1_cont_slice_0_split_0
2016-07-30 09:57:11.190 STDERR [INFO] I0730 09:57:11.189335  6935 net.cpp:399] lstm1_h_conted_0 -> h_conted_0
2016-07-30 09:57:11.190 STDERR [INFO] I0730 09:57:11.189431  6935 net.cpp:141] Setting up lstm1_h_conted_0
2016-07-30 09:57:11.191 STDERR [INFO] I0730 09:57:11.189440  6935 net.cpp:148] Top shape: 1 1 1000 (1000)
2016-07-30 09:57:11.191 STDERR [INFO] I0730 09:57:11.189445  6935 net.cpp:156] Memory required for data: 46016
2016-07-30 09:57:11.191 STDERR [INFO] I0730 09:57:11.189450  6935 layer_factory.hpp:77] Creating layer lstm1_transform_1
2016-07-30 09:57:11.191 STDERR [INFO] I0730 09:57:11.189463  6935 net.cpp:91] Creating Layer lstm1_transform_1
2016-07-30 09:57:11.191 STDERR [INFO] I0730 09:57:11.189468  6935 net.cpp:425] lstm1_transform_1 <- h_conted_0
2016-07-30 09:57:11.191 STDERR [INFO] I0730 09:57:11.189476  6935 net.cpp:399] lstm1_transform_1 -> W_hc_h_0
2016-07-30 09:57:11.229 STDERR [INFO] I0730 09:57:11.228951  6935 net.cpp:141] Setting up lstm1_transform_1
2016-07-30 09:57:11.229 STDERR [INFO] I0730 09:57:11.229017  6935 net.cpp:148] Top shape: 1 1 4000 (4000)
2016-07-30 09:57:11.229 STDERR [INFO] I0730 09:57:11.229023  6935 net.cpp:156] Memory required for data: 62016
2016-07-30 09:57:11.229 STDERR [INFO] I0730 09:57:11.229043  6935 layer_factory.hpp:77] Creating layer lstm1_gate_input_1
2016-07-30 09:57:11.229 STDERR [INFO] I0730 09:57:11.229063  6935 net.cpp:91] Creating Layer lstm1_gate_input_1
2016-07-30 09:57:11.229 STDERR [INFO] I0730 09:57:11.229070  6935 net.cpp:425] lstm1_gate_input_1 <- W_hc_h_0
2016-07-30 09:57:11.229 STDERR [INFO] I0730 09:57:11.229079  6935 net.cpp:425] lstm1_gate_input_1 <- W_xc_x_1
2016-07-30 09:57:11.229 STDERR [INFO] I0730 09:57:11.229086  6935 net.cpp:399] lstm1_gate_input_1 -> gate_input_1
2016-07-30 09:57:11.230 STDERR [INFO] I0730 09:57:11.229157  6935 net.cpp:141] Setting up lstm1_gate_input_1
2016-07-30 09:57:11.230 STDERR [INFO] I0730 09:57:11.229167  6935 net.cpp:148] Top shape: 1 1 4000 (4000)
2016-07-30 09:57:11.230 STDERR [INFO] I0730 09:57:11.229171  6935 net.cpp:156] Memory required for data: 78016
2016-07-30 09:57:11.231 STDERR [INFO] I0730 09:57:11.229176  6935 layer_factory.hpp:77] Creating layer lstm1_unit_1
2016-07-30 09:57:11.231 STDERR [INFO] I0730 09:57:11.229187  6935 net.cpp:91] Creating Layer lstm1_unit_1
2016-07-30 09:57:11.231 STDERR [INFO] I0730 09:57:11.229193  6935 net.cpp:425] lstm1_unit_1 <- c_0
2016-07-30 09:57:11.231 STDERR [INFO] I0730 09:57:11.229199  6935 net.cpp:425] lstm1_unit_1 <- gate_input_1
2016-07-30 09:57:11.231 STDERR [INFO] I0730 09:57:11.229204  6935 net.cpp:425] lstm1_unit_1 <- cont_1_lstm1_cont_slice_0_split_1
2016-07-30 09:57:11.231 STDERR [INFO] I0730 09:57:11.229210  6935 net.cpp:399] lstm1_unit_1 -> c_1
2016-07-30 09:57:11.231 STDERR [INFO] I0730 09:57:11.229219  6935 net.cpp:399] lstm1_unit_1 -> h_1
2016-07-30 09:57:11.231 STDERR [INFO] I0730 09:57:11.229281  6935 net.cpp:141] Setting up lstm1_unit_1
2016-07-30 09:57:11.231 STDERR [INFO] I0730 09:57:11.229290  6935 net.cpp:148] Top shape: 1 1 1000 (1000)
2016-07-30 09:57:11.231 STDERR [INFO] I0730 09:57:11.229295  6935 net.cpp:148] Top shape: 1 1 1000 (1000)
2016-07-30 09:57:11.231 STDERR [INFO] I0730 09:57:11.229300  6935 net.cpp:156] Memory required for data: 86016
2016-07-30 09:57:11.232 STDERR [INFO] I0730 09:57:11.229305  6935 layer_factory.hpp:77] Creating layer lstm1_
2016-07-30 09:57:11.232 STDERR [INFO] I0730 09:57:11.229312  6935 net.cpp:91] Creating Layer lstm1_
2016-07-30 09:57:11.232 STDERR [INFO] I0730 09:57:11.229316  6935 net.cpp:425] lstm1_ <- c_1
2016-07-30 09:57:11.232 STDERR [INFO] I0730 09:57:11.229323  6935 net.cpp:399] lstm1_ -> c_T
2016-07-30 09:57:11.232 STDERR [INFO] I0730 09:57:11.229352  6935 net.cpp:141] Setting up lstm1_
2016-07-30 09:57:11.232 STDERR [INFO] I0730 09:57:11.229360  6935 net.cpp:148] Top shape: 1 1 1000 (1000)
2016-07-30 09:57:11.232 STDERR [INFO] I0730 09:57:11.229364  6935 net.cpp:156] Memory required for data: 90016
2016-07-30 09:57:11.232 STDERR [INFO] I0730 09:57:11.229368  6935 layer_factory.hpp:77] Creating layer lstm1_h_concat
2016-07-30 09:57:11.232 STDERR [INFO] I0730 09:57:11.229382  6935 net.cpp:91] Creating Layer lstm1_h_concat
2016-07-30 09:57:11.232 STDERR [INFO] I0730 09:57:11.229387  6935 net.cpp:425] lstm1_h_concat <- h_1
2016-07-30 09:57:11.232 STDERR [INFO] I0730 09:57:11.229393  6935 net.cpp:399] lstm1_h_concat -> h
2016-07-30 09:57:11.232 STDERR [INFO] I0730 09:57:11.229429  6935 net.cpp:141] Setting up lstm1_h_concat
2016-07-30 09:57:11.232 STDERR [INFO] I0730 09:57:11.229439  6935 net.cpp:148] Top shape: 1 1 1000 (1000)
2016-07-30 09:57:11.233 STDERR [INFO] I0730 09:57:11.229442  6935 net.cpp:156] Memory required for data: 94016
2016-07-30 09:57:11.233 STDERR [INFO] I0730 09:57:11.229446  6935 layer_factory.hpp:77] Creating layer h_pseudoloss
2016-07-30 09:57:11.233 STDERR [INFO] I0730 09:57:11.229455  6935 net.cpp:91] Creating Layer h_pseudoloss
2016-07-30 09:57:11.233 STDERR [INFO] I0730 09:57:11.229460  6935 net.cpp:425] h_pseudoloss <- h
…
2016-07-30 09:57:11.246 STDERR [INFO] }
2016-07-30 09:57:11.246 STDERR [INFO] I0730 09:57:11.230386  6935 layer_factory.hpp:77] Creating layer lstm2_
2016-07-30 09:57:11.246 STDERR [INFO] I0730 09:57:11.230397  6935 net.cpp:91] Creating Layer lstm2_
2016-07-30 09:57:11.247 STDERR [INFO] I0730 09:57:11.230404  6935 net.cpp:399] lstm2_ -> x
2016-07-30 09:57:11.247 STDERR [INFO] I0730 09:57:11.230414  6935 net.cpp:399] lstm2_ -> cont
2016-07-30 09:57:11.247 STDERR [INFO] I0730 09:57:11.230468  6935 net.cpp:141] Setting up lstm2_
2016-07-30 09:57:11.247 STDERR [INFO] I0730 09:57:11.230478  6935 net.cpp:148] Top shape: 1 1 1501 (1501)
2016-07-30 09:57:11.247 STDERR [INFO] I0730 09:57:11.230484  6935 net.cpp:148] Top shape: 1 1 (1)
2016-07-30 09:57:11.247 STDERR [INFO] I0730 09:57:11.230487  6935 net.cpp:156] Memory required for data: 6008
2016-07-30 09:57:11.247 STDERR [INFO] I0730 09:57:11.230492  6935 layer_factory.hpp:77] Creating layer lstm2_
2016-07-30 09:57:11.247 STDERR [INFO] I0730 09:57:11.230500  6935 net.cpp:91] Creating Layer lstm2_
2016-07-30 09:57:11.247 STDERR [INFO] I0730 09:57:11.230506  6935 net.cpp:399] lstm2_ -> c_0
2016-07-30 09:57:11.247 STDERR [INFO] I0730 09:57:11.230516  6935 net.cpp:399] lstm2_ -> h_0
2016-07-30 09:57:11.248 STDERR [INFO] I0730 09:57:11.230567  6935 net.cpp:141] Setting up lstm2_
2016-07-30 09:57:11.248 STDERR [INFO] I0730 09:57:11.230576  6935 net.cpp:148] Top shape: 1 1 1000 (1000)
2016-07-30 09:57:11.248 STDERR [INFO] I0730 09:57:11.230582  6935 net.cpp:148] Top shape: 1 1 1000 (1000)
2016-07-30 09:57:11.248 STDERR [INFO] I0730 09:57:11.230587  6935 net.cpp:156] Memory required for data: 14008
2016-07-30 09:57:11.248 STDERR [INFO] I0730 09:57:11.230590  6935 layer_factory.hpp:77] Creating layer lstm2_cont_slice
2016-07-30 09:57:11.248 STDERR [INFO] I0730 09:57:11.230599  6935 net.cpp:91] Creating Layer lstm2_cont_slice
2016-07-30 09:57:11.248 STDERR [INFO] I0730 09:57:11.230603  6935 net.cpp:425] lstm2_cont_slice <- cont
2016-07-30 09:57:11.248 STDERR [INFO] I0730 09:57:11.230613  6935 net.cpp:399] lstm2_cont_slice -> cont_1
2016-07-30 09:57:11.248 STDERR [INFO] I0730 09:57:11.230644  6935 net.cpp:141] Setting up lstm2_cont_slice
2016-07-30 09:57:11.248 STDERR [INFO] I0730 09:57:11.230654  6935 net.cpp:148] Top shape: 1 1 (1)
2016-07-30 09:57:11.248 STDERR [INFO] I0730 09:57:11.230657  6935 net.cpp:156] Memory required for data: 14012
2016-07-30 09:57:11.248 STDERR [INFO] I0730 09:57:11.230662  6935 layer_factory.hpp:77] Creating layer cont_1_lstm2_cont_slice_0_split
2016-07-30 09:57:11.249 STDERR [INFO] I0730 09:57:11.230669  6935 net.cpp:91] Creating Layer cont_1_lstm2_cont_slice_0_split
2016-07-30 09:57:11.249 STDERR [INFO] I0730 09:57:11.230674  6935 net.cpp:425] cont_1_lstm2_cont_slice_0_split <- cont_1
2016-07-30 09:57:11.249 STDERR [INFO] I0730 09:57:11.230679  6935 net.cpp:399] cont_1_lstm2_cont_slice_0_split -> cont_1_lstm2_cont_slice_0_split_0
2016-07-30 09:57:11.249 STDERR [INFO] I0730 09:57:11.230707  6935 net.cpp:399] cont_1_lstm2_cont_slice_0_split -> cont_1_lstm2_cont_slice_0_split_1
2016-07-30 09:57:11.249 STDERR [INFO] I0730 09:57:11.230754  6935 net.cpp:141] Setting up cont_1_lstm2_cont_slice_0_split
2016-07-30 09:57:11.249 STDERR [INFO] I0730 09:57:11.230763  6935 net.cpp:148] Top shape: 1 1 (1)
2016-07-30 09:57:11.249 STDERR [INFO] I0730 09:57:11.230768  6935 net.cpp:148] Top shape: 1 1 (1)
2016-07-30 09:57:11.249 STDERR [INFO] I0730 09:57:11.230772  6935 net.cpp:156] Memory required for data: 14020
2016-07-30 09:57:11.249 STDERR [INFO] I0730 09:57:11.230777  6935 layer_factory.hpp:77] Creating layer lstm2_x_transform
2016-07-30 09:57:11.249 STDERR [INFO] I0730 09:57:11.230789  6935 net.cpp:91] Creating Layer lstm2_x_transform
2016-07-30 09:57:11.249 STDERR [INFO] I0730 09:57:11.230794  6935 net.cpp:425] lstm2_x_transform <- x
2016-07-30 09:57:11.249 STDERR [INFO] I0730 09:57:11.230803  6935 net.cpp:399] lstm2_x_transform -> W_xc_x
2016-07-30 09:57:11.316 STDERR [INFO] I0730 09:57:11.316200  6935 net.cpp:141] Setting up lstm2_x_transform
2016-07-30 09:57:11.316 STDERR [INFO] I0730 09:57:11.316284  6935 net.cpp:148] Top shape: 1 1 4000 (4000)
2016-07-30 09:57:11.316 STDERR [INFO] I0730 09:57:11.316292  6935 net.cpp:156] Memory required for data: 30020
2016-07-30 09:57:11.316 STDERR [INFO] I0730 09:57:11.316328  6935 layer_factory.hpp:77] Creating layer lstm2_W_xc_x_slice
2016-07-30 09:57:11.317 STDERR [INFO] I0730 09:57:11.316401  6935 net.cpp:91] Creating Layer lstm2_W_xc_x_slice
2016-07-30 09:57:11.317 STDERR [INFO] I0730 09:57:11.316409  6935 net.cpp:425] lstm2_W_xc_x_slice <- W_xc_x
2016-07-30 09:57:11.317 STDERR [INFO] I0730 09:57:11.316421  6935 net.cpp:399] lstm2_W_xc_x_slice -> W_xc_x_1
2016-07-30 09:57:11.317 STDERR [INFO] I0730 09:57:11.316488  6935 net.cpp:141] Setting up lstm2_W_xc_x_slice
2016-07-30 09:57:11.317 STDERR [INFO] I0730 09:57:11.316499  6935 net.cpp:148] Top shape: 1 1 4000 (4000)
2016-07-30 09:57:11.317 STDERR [INFO] I0730 09:57:11.316504  6935 net.cpp:156] Memory required for data: 46020
2016-07-30 09:57:11.317 STDERR [INFO] I0730 09:57:11.316509  6935 layer_factory.hpp:77] Creating layer lstm2_h_conted_0
2016-07-30 09:57:11.317 STDERR [INFO] I0730 09:57:11.316540  6935 net.cpp:91] Creating Layer lstm2_h_conted_0
2016-07-30 09:57:11.317 STDERR [INFO] I0730 09:57:11.316546  6935 net.cpp:425] lstm2_h_conted_0 <- h_0
2016-07-30 09:57:11.317 STDERR [INFO] I0730 09:57:11.316553  6935 net.cpp:425] lstm2_h_conted_0 <- cont_1_lstm2_cont_slice_0_split_0
2016-07-30 09:57:11.317 STDERR [INFO] I0730 09:57:11.316561  6935 net.cpp:399] lstm2_h_conted_0 -> h_conted_0
2016-07-30 09:57:11.317 STDERR [INFO] I0730 09:57:11.316715  6935 net.cpp:141] Setting up lstm2_h_conted_0
2016-07-30 09:57:11.318 STDERR [INFO] I0730 09:57:11.316726  6935 net.cpp:148] Top shape: 1 1 1000 (1000)
2016-07-30 09:57:11.318 STDERR [INFO] I0730 09:57:11.316731  6935 net.cpp:156] Memory required for data: 50020
2016-07-30 09:57:11.318 STDERR [INFO] I0730 09:57:11.316745  6935 layer_factory.hpp:77] Creating layer lstm2_transform_1
2016-07-30 09:57:11.318 STDERR [INFO] I0730 09:57:11.316771  6935 net.cpp:91] Creating Layer lstm2_transform_1
2016-07-30 09:57:11.318 STDERR [INFO] I0730 09:57:11.316777  6935 net.cpp:425] lstm2_transform_1 <- h_conted_0
…
2016-07-30 09:57:11.359 STDERR [INFO] W0730 09:57:11.358475  6945 upgrade_proto.cpp:48] Note that future Caffe releases will only support transform_param messages for transformation fields.
2016-07-30 09:57:11.359 STDERR [INFO] I0730 09:57:11.358479  6945 upgrade_proto.cpp:52] Attempting to upgrade input file specified using deprecated V1LayerParameter: /tmp/cvld639136212153695853/bvlc_reference_caffenet.caffemodel
2016-07-30 09:57:11.362 STDERR [INFO] I0730 09:57:11.362259  6935 net.cpp:141] Setting up lstm2_transform_1
2016-07-30 09:57:11.362 STDERR [INFO] I0730 09:57:11.362303  6935 net.cpp:148] Top shape: 1 1 4000 (4000)
2016-07-30 09:57:11.362 STDERR [INFO] I0730 09:57:11.362310  6935 net.cpp:156] Memory required for data: 66020
2016-07-30 09:57:11.362 STDERR [INFO] I0730 09:57:11.362331  6935 layer_factory.hpp:77] Creating layer lstm2_gate_input_1
2016-07-30 09:57:11.362 STDERR [INFO] I0730 09:57:11.362355  6935 net.cpp:91] Creating Layer lstm2_gate_input_1
2016-07-30 09:57:11.362 STDERR [INFO] I0730 09:57:11.362366  6935 net.cpp:425] lstm2_gate_input_1 <- W_hc_h_0
2016-07-30 09:57:11.362 STDERR [INFO] I0730 09:57:11.362376  6935 net.cpp:425] lstm2_gate_input_1 <- W_xc_x_1
2016-07-30 09:57:11.363 STDERR [INFO] I0730 09:57:11.362385  6935 net.cpp:399] lstm2_gate_input_1 -> gate_input_1
2016-07-30 09:57:11.363 STDERR [INFO] I0730 09:57:11.362439  6935 net.cpp:141] Setting up lstm2_gate_input_1
2016-07-30 09:57:11.363 STDERR [INFO] I0730 09:57:11.362449  6935 net.cpp:148] Top shape: 1 1 4000 (4000)
2016-07-30 09:57:11.363 STDERR [INFO] I0730 09:57:11.362454  6935 net.cpp:156] Memory required for data: 82020
2016-07-30 09:57:11.363 STDERR [INFO] I0730 09:57:11.362459  6935 layer_factory.hpp:77] Creating layer lstm2_unit_1
2016-07-30 09:57:11.363 STDERR [INFO] I0730 09:57:11.362473  6935 net.cpp:91] Creating Layer lstm2_unit_1
2016-07-30 09:57:11.363 STDERR [INFO] I0730 09:57:11.362478  6935 net.cpp:425] lstm2_unit_1 <- c_0
2016-07-30 09:57:11.363 STDERR [INFO] I0730 09:57:11.362485  6935 net.cpp:425] lstm2_unit_1 <- gate_input_1
2016-07-30 09:57:11.363 STDERR [INFO] I0730 09:57:11.362491  6935 net.cpp:425] lstm2_unit_1 <- cont_1_lstm2_cont_slice_0_split_1
2016-07-30 09:57:11.363 STDERR [INFO] I0730 09:57:11.362498  6935 net.cpp:399] lstm2_unit_1 -> c_1
2016-07-30 09:57:11.363 STDERR [INFO] I0730 09:57:11.362507  6935 net.cpp:399] lstm2_unit_1 -> h_1
2016-07-30 09:57:11.364 STDERR [INFO] I0730 09:57:11.362578  6935 net.cpp:141] Setting up lstm2_unit_1
2016-07-30 09:57:11.364 STDERR [INFO] I0730 09:57:11.362588  6935 net.cpp:148] Top shape: 1 1 1000 (1000)
2016-07-30 09:57:11.364 STDERR [INFO] I0730 09:57:11.362594  6935 net.cpp:148] Top shape: 1 1 1000 (1000)
2016-07-30 09:57:11.364 STDERR [INFO] I0730 09:57:11.362599  6935 net.cpp:156] Memory required for data: 90020
2016-07-30 09:57:11.364 STDERR [INFO] I0730 09:57:11.362606  6935 layer_factory.hpp:77] Creating layer lstm2_
2016-07-30 09:57:11.364 STDERR [INFO] I0730 09:57:11.362614  6935 net.cpp:91] Creating Layer lstm2_
2016-07-30 09:57:11.364 STDERR [INFO] I0730 09:57:11.362619  6935 net.cpp:425] lstm2_ <- c_1
2016-07-30 09:57:11.364 STDERR [INFO] I0730 09:57:11.362629  6935 net.cpp:399] lstm2_ -> c_T
2016-07-30 09:57:11.364 STDERR [INFO] I0730 09:57:11.362663  6935 net.cpp:141] Setting up lstm2_
2016-07-30 09:57:11.364 STDERR [INFO] I0730 09:57:11.362673  6935 net.cpp:148] Top shape: 1 1 1000 (1000)
2016-07-30 09:57:11.364 STDERR [INFO] I0730 09:57:11.362679  6935 net.cpp:156] Memory required for data: 94020
2016-07-30 09:57:11.365 STDERR [INFO] I0730 09:57:11.362684  6935 layer_factory.hpp:77] Creating layer lstm2_h_concat
2016-07-30 09:57:11.365 STDERR [INFO] I0730 09:57:11.362721  6935 net.cpp:91] Creating Layer lstm2_h_concat
2016-07-30 09:57:11.365 STDERR [INFO] I0730 09:57:11.362728  6935 net.cpp:425] lstm2_h_concat <- h_1
2016-07-30 09:57:11.365 STDERR [INFO] I0730 09:57:11.362740  6935 net.cpp:399] lstm2_h_concat -> h
2016-07-30 09:57:11.365 STDERR [INFO] I0730 09:57:11.362781  6935 net.cpp:141] Setting up lstm2_h_concat
2016-07-30 09:57:11.365 STDERR [INFO] I0730 09:57:11.362790  6935 net.cpp:148] Top shape: 1 1 1000 (1000)
2016-07-30 09:57:11.365 STDERR [INFO] I0730 09:57:11.362795  6935 net.cpp:156] Memory required for data: 98020
2016-07-30 09:57:11.365 STDERR [INFO] I0730 09:57:11.362800  6935 layer_factory.hpp:77] Creating layer h_pseudoloss
2016-07-30 09:57:11.365 STDERR [INFO] I0730 09:57:11.362810  6935 net.cpp:91] Creating Layer h_pseudoloss
2016-07-30 09:57:11.366 STDERR [INFO] I0730 09:57:11.362815  6935 net.cpp:425] h_pseudoloss <- h
…
