…
W0924 03:27:52.434643 27440 upgrade_proto.cpp:71] Note that future Caffe releases will only support input layers and not input fields.
I0924 03:27:52.434864 27400 net.cpp:49] Initializing net from parameters: 
name: "s2vt:features_to_lstm"
state {
  phase: TEST
}
layer {
  name: "input"
  type: "Input"
  top: "frames_fc7"
  top: "cont_sentence"
  top: "input_sentence"
  top: "stage_indicator"
  input_param {
    shape {
      dim: 1
      dim: 4096
    }
    shape {
      dim: 1
      dim: 1
    }
    shape {
      dim: 1
      dim: 1
    }
    shape {
      dim: 1
      dim: 1
    }
  }
}
layer {
  name: "embed_encoder"
  type: "InnerProduct"
  bottom: "frames_fc7"
  top: "embedded_in_frames"
  param {
    lr_mult: 1
    decay_mult: 1
  }
  param {
    lr_mult: 2
    decay_mult: 0
  }
  inner_product_param {
    num_output: 500
    weight_filler {
      type: "xavier"
    }
    bias_filler {
      type: "constant"
      value: 0.2
    }
  }
}
layer {
  name: "reshape_frames"
  type: "Reshape"
  bottom: "embedded_in_frames"
  top: "embedded_input_frames"
  reshape_param {
    shape {
      dim: 1
      dim: 1
      dim: 500
    }
  }
}
layer {
  name: "reshape_stage_indicator"
  type: "Reshape"
  bottom: "stage_indicator"
  top: "reshaped_stage_indicator"
  reshape_param {
    shape {
      dim: 1
      dim: 1
      dim: 1
    }
  }
}
layer {
  name: "embedding"
  type: "Embed"
  bottom: "input_sentence"
  top: "embedded_input_sentence"
  param {
    lr_mult: 1
  }
  embed_param {
    num_output: 500
    input_dim: 46168
    bias_term: false
    weight_filler {
      type: "uniform"
      min: -0.08
      max: 0.08
    }
  }
}
layer {
  name: "lstm1"
  type: "LSTM"
  bottom: "embedded_input_frames"
  bottom: "cont_sentence"
  top: "lstm1"
  recurrent_param {
    num_output: 1000
    weight_filler {
      type: "uniform"
      min: -0.08
      max: 0.08
    }
    bias_filler {
      type: "constant"
      value: 0
    }
  }
}
layer {
  name: "concat"
  type: "Concat"
  bottom: "lstm1"
  bottom: "embedded_input_sentence"
  bottom: "reshaped_stage_indicator"
  top: "lstm1_video_sequence"
  concat_param {
    concat_dim: 2
  }
}
layer {
  name: "lstm2"
  type: "LSTM"
  bottom: "lstm1_video_sequence"
  bottom: "cont_sentence"
  top: "lstm2"
  recurrent_param {
    num_output: 1000
    weight_filler {
      type: "uniform"
      min: -0.08
      max: 0.08
    }
    bias_filler {
      type: "constant"
      value: 0
    }
  }
}
layer {
  name: "predict"
  type: "InnerProduct"
  bottom: "lstm2"
  top: "predict"
  param {
    lr_mult: 1
    decay_mult: 1
  }
  param {
    lr_mult: 2
    decay_mult: 0
  }
  inner_product_param {
    num_output: 46168
    weight_filler {
      type: "uniform"
      min: -0.08
      max: 0.08
    }
    bias_filler {
      type: "constant"
      value: 0
    }
    axis: 2
  }
}
layer {
  name: "probs"
  type: "Softmax"
  bottom: "predict"
  top: "probs"
  softmax_param {
    axis: 2
  }
}
I0924 03:27:52.434864 27402 net.cpp:49] Initializing net from parameters: 
name: "s2vt:features_to_lstm"
state {
  phase: TEST
}
layer {
  name: "input"
  type: "Input"
  top: "frames_fc7"
  top: "cont_sentence"
  top: "input_sentence"
  top: "stage_indicator"
  input_param {
    shape {
      dim: 1
      dim: 4096
    }
    shape {
      dim: 1
      dim: 1
    }
    shape {
      dim: 1
      dim: 1
    }
    shape {
      dim: 1
      dim: 1
    }
  }
}
layer {
  name: "embed_encoder"
  type: "InnerProduct"
  bottom: "frames_fc7"
  top: "embedded_in_frames"
  param {
    lr_mult: 1
    decay_mult: 1
  }
  param {
    lr_mult: 2
    decay_mult: 0
  }
  inner_product_param {
    num_output: 500
    weight_filler {
      type: "xavier"
    }
    bias_filler {
      type: "constant"
      value: 0.2
    }
  }
}
layer {
  name: "reshape_frames"
  type: "Reshape"
  bottom: "embedded_in_frames"
  top: "embedded_input_frames"
  reshape_param {
    shape {
      dim: 1
      dim: 1
      dim: 500
    }
  }
}
layer {
  name: "reshape_stage_indicator"
  type: "Reshape"
  bottom: "stage_indicator"
  top: "reshaped_stage_indicator"
  reshape_param {
    shape {
      dim: 1
      dim: 1
      dim: 1
    }
  }
}
layer {
  name: "embedding"
  type: "Embed"
  bottom: "input_sentence"
  top: "embedded_input_sentence"
  param {
    lr_mult: 1
  }
  embed_param {
    num_output: 500
    input_dim: 46168
    bias_term: false
    weight_filler {
      type: "uniform"
      min: -0.08
      max: 0.08
    }
  }
}
layer {
  name: "lstm1"
  type: "LSTM"
  bottom: "embedded_input_frames"
  bottom: "cont_sentence"
  top: "lstm1"
  recurrent_param {
    num_output: 1000
    weight_filler {
      type: "uniform"
      min: -0.08
      max: 0.08
    }
    bias_filler {
      type: "constant"
      value: 0
    }
  }
}
layer {
  name: "concat"
  type: "Concat"
  bottom: "lstm1"
  bottom: "embedded_input_sentence"
  bottom: "reshaped_stage_indicator"
  top: "lstm1_video_sequence"
  concat_param {
    concat_dim: 2
  }
}
layer {
  name: "lstm2"
  type: "LSTM"
  bottom: "lstm1_video_sequence"
  bottom: "cont_sentence"
  top: "lstm2"
  recurrent_param {
    num_output: 1000
    weight_filler {
      type: "uniform"
      min: -0.08
      max: 0.08
    }
    bias_filler {
      type: "constant"
      value: 0
    }
  }
}
layer {
  name: "predict"
  type: "InnerProduct"
  bottom: "lstm2"
  top: "predict"
  param {
    lr_mult: 1
    decay_mult: 1
  }
  param {
    lr_mult: 2
    decay_mult: 0
  }
  inner_product_param {
    num_output: 46168
    weight_filler {
      type: "uniform"
      min: -0.08
      max: 0.08
    }
    bias_filler {
      type: "constant"
      value: 0
    }
    axis: 2
  }
}
layer {
  name: "probs"
  type: "Softmax"
  bottom: "predict"
  top: "probs"
  softmax_param {
    axis: 2
  }
}
I0924 03:27:52.434905 27408 net.cpp:49] Initializing net from parameters: 
name: "CaffeNet"
state {
  phase: TEST
}
layer {
  name: "data"
  type: "Input"
  top: "data"
  input_param {
    shape {
      dim: 10
      dim: 3
      dim: 227
      dim: 227
    }
  }
}
layer {
  name: "conv1"
  type: "Convolution"
  bottom: "data"
  top: "conv1"
  convolution_param {
    num_output: 96
    kernel_size: 11
    stride: 4
  }
}
layer {
  name: "relu1"
  type: "ReLU"
  bottom: "conv1"
  top: "conv1"
}
layer {
  name: "pool1"
  type: "Pooling"
  bottom: "conv1"
  top: "pool1"
  pooling_param {
    pool: MAX
    kernel_size: 3
    stride: 2
  }
}
layer {
  name: "norm1"
  type: "LRN"
  bottom: "pool1"
  top: "norm1"
  lrn_param {
    local_size: 5
    alpha: 0.0001
    beta: 0.75
  }
}
layer {
  name: "conv2"
  type: "Convolution"
  bottom: "norm1"
  top: "conv2"
  convolution_param {
    num_output: 256
    pad: 2
    kernel_size: 5
    group: 2
  }
}
layer {
  name: "relu2"
  type: "ReLU"
  bottom: "conv2"
  top: "conv2"
}
layer {
  name: "pool2"
  type: "Pooling"
  bottom: "conv2"
  top: "pool2"
  pooling_param {
    pool: MAX
    kernel_size: 3
    stride: 2
  }
}
layer {
  name: "norm2"
  type: "LRN"
  bottom: "pool2"
  top: "norm2"
  lrn_param {
    local_size: 5
    alpha: 0.0001
    beta: 0.75
  }
}
layer {
  name: "conv3"
  type: "Convolution"
  bottom: "norm2"
  top: "conv3"
  convolution_param {
    num_output: 384
    pad: 1
    kernel_size: 3
  }
}
layer {
  name: "relu3"
  type: "ReLU"
  bottom: "conv3"
  top: "conv3"
}
layer {
  name: "conv4"
  type: "Convolution"
  bottom: "conv3"
  top: "conv4"
  convolution_param {
    num_output: 384
    pad: 1
    kernel_size: 3
    group: 2
  }
}
layer {
  name: "relu4"
  type: "ReLU"
  bottom: "conv4"
  top: "conv4"
}
layer {
  name: "conv5"
  type: "Convolution"
  bottom: "conv4"
  top: "conv5"
  convolution_param {
    num_output: 256
    pad: 1
    kernel_size: 3
    group: 2
  }
}
layer {
  name: "relu5"
  type: "ReLU"
  bottom: "conv5"
  top: "conv5"
}
layer {
  name: "pool5"
  type: "Pooling"
  bottom: "conv5"
  top: "pool5"
  pooling_param {
    pool: MAX
    kernel_size: 3
    stride: 2
  }
}
layer {
  name: "fc6"
  type: "InnerProduct"
  bottom: "pool5"
  top: "fc6"
  inner_product_param {
    num_output: 4096
  }
}
layer {
  name: "relu6"
  type: "ReLU"
  bottom: "fc6"
  top: "fc6"
}
layer {
  name: "drop6"
  type: "Dropout"
  bottom: "fc6"
  top: "fc6"
  dropout_param {
    dropout_ratio: 0.5
  }
}
layer {
  name: "fc7"
  type: "InnerProduct"
  bottom: "fc6"
  top: "fc7"
  inner_product_param {
    num_output: 4096
  }
}
layer {
  name: "relu7"
  type: "ReLU"
  bottom: "fc7"
  top: "fc7"
}
layer {
  name: "drop7"
  type: "Dropout"
  bottom: "fc7"
  top: "fc7"
  dropout_param {
    dropout_ratio: 0.5
  }
}
layer {
  name: "fc8"
  type: "InnerProduct"
  bottom: "fc7"
  top: "fc8"
  inner_product_param {
    num_output: 1000
  }
}
layer {
  name: "prob"
  type: "Softmax"
  bottom: "fc8"
  top: "prob"
}
I0924 03:27:52.434913 27434 net.cpp:49] Initializing net from parameters: 
name: "s2vt:features_to_lstm"
state {
  phase: TEST
}
layer {
  name: "input"
  type: "Input"
  top: "frames_fc7"
  top: "cont_sentence"
  top: "input_sentence"
  top: "stage_indicator"
  input_param {
    shape {
      dim: 1
      dim: 4096
    }
    shape {
      dim: 1
      dim: 1
    }
    shape {
      dim: 1
      dim: 1
    }
    shape {
      dim: 1
      dim: 1
    }
  }
}
layer {
  name: "embed_encoder"
  type: "InnerProduct"
  bottom: "frames_fc7"
  top: "embedded_in_frames"
  param {
    lr_mult: 1
    decay_mult: 1
  }
  param {
    lr_mult: 2
    decay_mult: 0
  }
  inner_product_param {
    num_output: 500
    weight_filler {
      type: "xavier"
    }
    bias_filler {
      type: "constant"
      value: 0.2
    }
  }
}
layer {
  name: "reshape_frames"
  type: "Reshape"
  bottom: "embedded_in_frames"
  top: "embedded_input_frames"
  reshape_param {
    shape {
      dim: 1
      dim: 1
      dim: 500
    }
  }
}
layer {
  name: "reshape_stage_indicator"
  type: "Reshape"
  bottom: "stage_indicator"
  top: "reshaped_stage_indicator"
  reshape_param {
    shape {
      dim: 1
      dim: 1
      dim: 1
    }
  }
}
layer {
  name: "embedding"
  type: "Embed"
  bottom: "input_sentence"
  top: "embedded_input_sentence"
  param {
    lr_mult: 1
  }
  embed_param {
    num_output: 500
    input_dim: 46168
    bias_term: false
    weight_filler {
      type: "uniform"
      min: -0.08
      max: 0.08
    }
  }
}
layer {
  name: "lstm1"
  type: "LSTM"
  bottom: "embedded_input_frames"
  bottom: "cont_sentence"
  top: "lstm1"
  recurrent_param {
    num_output: 1000
    weight_filler {
      type: "uniform"
      min: -0.08
      max: 0.08
    }
    bias_filler {
      type: "constant"
      value: 0
    }
  }
}
layer {
  name: "concat"
  type: "Concat"
  bottom: "lstm1"
  bottom: "embedded_input_sentence"
  bottom: "reshaped_stage_indicator"
  top: "lstm1_video_sequence"
  concat_param {
    concat_dim: 2
  }
}
layer {
  name: "lstm2"
  type: "LSTM"
  bottom: "lstm1_video_sequence"
  bottom: "cont_sentence"
  top: "lstm2"
  recurrent_param {
    num_output: 1000
    weight_filler {
      type: "uniform"
      min: -0.08
      max: 0.08
    }
    bias_filler {
      type: "constant"
      value: 0
    }
  }
}
layer {
  name: "predict"
  type: "InnerProduct"
  bottom: "lstm2"
  top: "predict"
  param {
    lr_mult: 1
    decay_mult: 1
  }
  param {
    lr_mult: 2
    decay_mult: 0
  }
  inner_product_param {
    num_output: 46168
    weight_filler {
      type: "uniform"
      min: -0.08
      max: 0.08
    }
    bias_filler {
      type: "constant"
      value: 0
    }
    axis: 2
  }
}
layer {
  name: "probs"
  type: "Softmax"
  bottom: "predict"
  top: "probs"
  softmax_param {
    axis: 2
  }
}
I0924 03:27:52.434931 27396 net.cpp:49] Initializing net from parameters: 
name: "s2vt:features_to_lstm"
state {
  phase: TEST
}
layer {
  name: "input"
  type: "Input"
  top: "frames_fc7"
  top: "cont_sentence"
  top: "input_sentence"
  top: "stage_indicator"
  input_param {
    shape {
      dim: 1
      dim: 4096
    }
    shape {
      dim: 1
      dim: 1
    }
    shape {
      dim: 1
      dim: 1
    }
    shape {
      dim: 1
      dim: 1
    }
  }
}
layer {
  name: "embed_encoder"
  type: "InnerProduct"
  bottom: "frames_fc7"
  top: "embedded_in_frames"
  param {
    lr_mult: 1
    decay_mult: 1
  }
  param {
    lr_mult: 2
    decay_mult: 0
  }
  inner_product_param {
    num_output: 500
    weight_filler {
      type: "xavier"
    }
    bias_filler {
      type: "constant"
      value: 0.2
    }
  }
}
layer {
  name: "reshape_frames"
  type: "Reshape"
  bottom: "embedded_in_frames"
  top: "embedded_input_frames"
  reshape_param {
    shape {
      dim: 1
      dim: 1
      dim: 500
    }
  }
}
layer {
  name: "reshape_stage_indicator"
  type: "Reshape"
  bottom: "stage_indicator"
  top: "reshaped_stage_indicator"
  reshape_param {
    shape {
      dim: 1
      dim: 1
      dim: 1
    }
  }
}
layer {
  name: "embedding"
  type: "Embed"
  bottom: "input_sentence"
  top: "embedded_input_sentence"
  param {
    lr_mult: 1
  }
  embed_param {
    num_output: 500
    input_dim: 46168
    bias_term: false
    weight_filler {
      type: "uniform"
      min: -0.08
      max: 0.08
    }
  }
}
layer {
  name: "lstm1"
  type: "LSTM"
  bottom: "embedded_input_frames"
  bottom: "cont_sentence"
  top: "lstm1"
  recurrent_param {
    num_output: 1000
    weight_filler {
      type: "uniform"
      min: -0.08
      max: 0.08
    }
    bias_filler {
      type: "constant"
      value: 0
    }
  }
}
layer {
  name: "concat"
  type: "Concat"
  bottom: "lstm1"
  bottom: "embedded_input_sentence"
  bottom: "reshaped_stage_indicator"
  top: "lstm1_video_sequence"
  concat_param {
    concat_dim: 2
  }
}
layer {
  name: "lstm2"
  type: "LSTM"
  bottom: "lstm1_video_sequence"
  bottom: "cont_sentence"
  top: "lstm2"
  recurrent_param {
    num_output: 1000
    weight_filler {
      type: "uniform"
      min: -0.08
      max: 0.08
    }
    bias_filler {
      type: "constant"
      value: 0
    }
  }
}
layer {
  name: "predict"
  type: "InnerProduct"
  bottom: "lstm2"
  top: "predict"
  param {
    lr_mult: 1
    decay_mult: 1
  }
  param {
    lr_mult: 2
    decay_mult: 0
  }
  inner_product_param {
    num_output: 46168
    weight_filler {
      type: "uniform"
      min: -0.08
      max: 0.08
    }
    bias_filler {
      type: "constant"
      value: 0
    }
    axis: 2
  }
}
layer {
  name: "probs"
  type: "Softmax"
  bottom: "predict"
  top: "probs"
  softmax_param {
    axis: 2
  }
}
I0924 03:27:52.434964 27414 net.cpp:49] Initializing net from parameters: 
name: "s2vt:features_to_lstm"
state {
  phase: TEST
}
layer {
  name: "input"
  type: "Input"
  top: "frames_fc7"
  top: "cont_sentence"
  top: "input_sentence"
  top: "stage_indicator"
  input_param {
    shape {
      dim: 1
      dim: 4096
    }
    shape {
      dim: 1
      dim: 1
    }
    shape {
      dim: 1
      dim: 1
    }
    shape {
      dim: 1
      dim: 1
    }
  }
}
layer {
  name: "embed_encoder"
  type: "InnerProduct"
  bottom: "frames_fc7"
  top: "embedded_in_frames"
  param {
    lr_mult: 1
    decay_mult: 1
  }
  param {
    lr_mult: 2
    decay_mult: 0
  }
  inner_product_param {
    num_output: 500
    weight_filler {
      type: "xavier"
    }
    bias_filler {
      type: "constant"
      value: 0.2
    }
  }
}
layer {
  name: "reshape_frames"
  type: "Reshape"
  bottom: "embedded_in_frames"
  top: "embedded_input_frames"
  reshape_param {
    shape {
      dim: 1
      dim: 1
      dim: 500
    }
  }
}
layer {
  name: "reshape_stage_indicator"
  type: "Reshape"
  bottom: "stage_indicator"
  top: "reshaped_stage_indicator"
  reshape_param {
    shape {
      dim: 1
      dim: 1
      dim: 1
    }
  }
}
layer {
  name: "embedding"
  type: "Embed"
  bottom: "input_sentence"
  top: "embedded_input_sentence"
  param {
    lr_mult: 1
  }
  embed_param {
    num_output: 500
    input_dim: 46168
    bias_term: false
    weight_filler {
      type: "uniform"
      min: -0.08
      max: 0.08
    }
  }
}
layer {
  name: "lstm1"
  type: "LSTM"
  bottom: "embedded_input_frames"
  bottom: "cont_sentence"
  top: "lstm1"
  recurrent_param {
    num_output: 1000
    weight_filler {
      type: "uniform"
      min: -0.08
      max: 0.08
    }
    bias_filler {
      type: "constant"
      value: 0
    }
  }
}
layer {
  name: "concat"
  type: "Concat"
  bottom: "lstm1"
  bottom: "embedded_input_sentence"
  bottom: "reshaped_stage_indicator"
  top: "lstm1_video_sequence"
  concat_param {
    concat_dim: 2
  }
}
layer {
  name: "lstm2"
  type: "LSTM"
  bottom: "lstm1_video_sequence"
  bottom: "cont_sentence"
  top: "lstm2"
  recurrent_param {
    num_output: 1000
    weight_filler {
      type: "uniform"
      min: -0.08
      max: 0.08
    }
    bias_filler {
      type: "constant"
      value: 0
    }
  }
}
layer {
  name: "predict"
  type: "InnerProduct"
  bottom: "lstm2"
  top: "predict"
  param {
    lr_mult: 1
    decay_mult: 1
  }
  param {
    lr_mult: 2
    decay_mult: 0
  }
  inner_product_param {
    num_output: 46168
    weight_filler {
      type: "uniform"
      min: -0.08
      max: 0.08
    }
    bias_filler {
      type: "constant"
      value: 0
    }
    axis: 2
  }
}
layer {
  name: "probs"
  type: "Softmax"
  bottom: "predict"
  top: "probs"
  softmax_param {
    axis: 2
  }
}
I0924 03:27:52.434964 27440 net.cpp:49] Initializing net from parameters: 
name: "s2vt:features_to_lstm"
state {
  phase: TEST
}
layer {
  name: "input"
  type: "Input"
  top: "frames_fc7"
  top: "cont_sentence"
  top: "input_sentence"
  top: "stage_indicator"
  input_param {
    shape {
      dim: 1
      dim: 4096
    }
    shape {
      dim: 1
      dim: 1
    }
    shape {
      dim: 1
      dim: 1
    }
    shape {
      dim: 1
      dim: 1
    }
  }
}
layer {
  name: "embed_encoder"
  type: "InnerProduct"
  bottom: "frames_fc7"
  top: "embedded_in_frames"
  param {
    lr_mult: 1
    decay_mult: 1
  }
  param {
    lr_mult: 2
    decay_mult: 0
  }
  inner_product_param {
    num_output: 500
    weight_filler {
      type: "xavier"
    }
    bias_filler {
      type: "constant"
      value: 0.2
    }
  }
}
layer {
  name: "reshape_frames"
  type: "Reshape"
  bottom: "embedded_in_frames"
  top: "embedded_input_frames"
  reshape_param {
    shape {
      dim: 1
      dim: 1
      dim: 500
    }
  }
}
layer {
  name: "reshape_stage_indicator"
  type: "Reshape"
  bottom: "stage_indicator"
  top: "reshaped_stage_indicator"
  reshape_param {
    shape {
      dim: 1
      dim: 1
      dim: 1
    }
  }
}
layer {
  name: "embedding"
  type: "Embed"
  bottom: "input_sentence"
  top: "embedded_input_sentence"
  param {
    lr_mult: 1
  }
  embed_param {
    num_output: 500
    input_dim: 46168
    bias_term: false
    weight_filler {
      type: "uniform"
      min: -0.08
      max: 0.08
    }
  }
}
layer {
  name: "lstm1"
  type: "LSTM"
  bottom: "embedded_input_frames"
  bottom: "cont_sentence"
  top: "lstm1"
  recurrent_param {
    num_output: 1000
    weight_filler {
      type: "uniform"
      min: -0.08
      max: 0.08
    }
    bias_filler {
      type: "constant"
      value: 0
    }
  }
}
layer {
  name: "concat"
  type: "Concat"
  bottom: "lstm1"
  bottom: "embedded_input_sentence"
  bottom: "reshaped_stage_indicator"
  top: "lstm1_video_sequence"
  concat_param {
    concat_dim: 2
  }
}
layer {
  name: "lstm2"
  type: "LSTM"
  bottom: "lstm1_video_sequence"
  bottom: "cont_sentence"
  top: "lstm2"
  recurrent_param {
    num_output: 1000
    weight_filler {
      type: "uniform"
      min: -0.08
      max: 0.08
    }
    bias_filler {
      type: "constant"
      value: 0
    }
  }
}
layer {
  name: "predict"
  type: "InnerProduct"
  bottom: "lstm2"
  top: "predict"
  param {
    lr_mult: 1
    decay_mult: 1
  }
  param {
    lr_mult: 2
    decay_mult: 0
  }
  inner_product_param {
    num_output: 46168
    weight_filler {
      type: "uniform"
      min: -0.08
      max: 0.08
    }
    bias_filler {
      type: "constant"
      value: 0
    }
    axis: 2
  }
}
layer {
  name: "probs"
  type: "Softmax"
  bottom: "predict"
  top: "probs"
  softmax_param {
    axis: 2
  }
}
I0924 03:27:52.435019 27400 layer_factory.hpp:77] Creating layer input
I0924 03:27:52.434563 27406 upgrade_proto.cpp:66] Attempting to upgrade input file specified using deprecated input fields: /home/peifeng/work/run/storm102/data/workers/66090b4f-6a85-4978-94dc-72016a8493da/tmp/cvld5844534543613977862/s2vt.words_to_preds.prototxt
I0924 03:27:52.438684 27406 upgrade_proto.cpp:69] Successfully upgraded file specified using deprecated input fields.
…
I0924 03:27:52.439103 27440 net.cpp:399] input -> frames_fc7
I0924 03:27:52.439122 27440 net.cpp:399] input -> cont_sentence
I0924 03:27:52.439122 27406 net.cpp:49] Initializing net from parameters: 
name: "s2vt:features_to_lstm"
state {
  phase: TEST
}
layer {
  name: "input"
  type: "Input"
  top: "frames_fc7"
  top: "cont_sentence"
  top: "input_sentence"
  top: "stage_indicator"
  input_param {
    shape {
      dim: 1
      dim: 4096
    }
    shape {
      dim: 1
      dim: 1
    }
    shape {
      dim: 1
      dim: 1
    }
    shape {
      dim: 1
      dim: 1
    }
  }
}
layer {
  name: "embed_encoder"
  type: "InnerProduct"
  bottom: "frames_fc7"
  top: "embedded_in_frames"
  param {
    lr_mult: 1
    decay_mult: 1
  }
  param {
    lr_mult: 2
    decay_mult: 0
  }
  inner_product_param {
    num_output: 500
    weight_filler {
      type: "xavier"
    }
    bias_filler {
      type: "constant"
      value: 0.2
    }
  }
}
layer {
  name: "reshape_frames"
  type: "Reshape"
  bottom: "embedded_in_frames"
  top: "embedded_input_frames"
  reshape_param {
    shape {
      dim: 1
      dim: 1
      dim: 500
    }
  }
}
layer {
  name: "reshape_stage_indicator"
  type: "Reshape"
  bottom: "stage_indicator"
  top: "reshaped_stage_indicator"
  reshape_param {
    shape {
      dim: 1
      dim: 1
      dim: 1
    }
  }
}
layer {
  name: "embedding"
  type: "Embed"
  bottom: "input_sentence"
  top: "embedded_input_sentence"
  param {
    lr_mult: 1
  }
  embed_param {
    num_output: 500
    input_dim: 46168
    bias_term: false
    weight_filler {
      type: "uniform"
      min: -0.08
      max: 0.08
    }
  }
}
layer {
  name: "lstm1"
  type: "LSTM"
  bottom: "embedded_input_frames"
  bottom: "cont_sentence"
  top: "lstm1"
  recurrent_param {
    num_output: 1000
    weight_filler {
      type: "uniform"
      min: -0.08
      max: 0.08
    }
    bias_filler {
      type: "constant"
      value: 0
    }
  }
}
layer {
  name: "concat"
  type: "Concat"
  bottom: "lstm1"
  bottom: "embedded_input_sentence"
  bottom: "reshaped_stage_indicator"
  top: "lstm1_video_sequence"
  concat_param {
    concat_dim: 2
  }
}
layer {
  name: "lstm2"
  type: "LSTM"
  bottom: "lstm1_video_sequence"
  bottom: "cont_sentence"
  top: "lstm2"
  recurrent_param {
    num_output: 1000
    weight_filler {
      type: "uniform"
      min: -0.08
      max: 0.08
    }
    bias_filler {
      type: "constant"
      value: 0
    }
  }
}
layer {
  name: "predict"
  type: "InnerProduct"
  bottom: "lstm2"
  top: "predict"
  param {
    lr_mult: 1
    decay_mult: 1
  }
  param {
    lr_mult: 2
    decay_mult: 0
  }
  inner_product_param {
    num_output: 46168
    weight_filler {
      type: "uniform"
      min: -0.08
      max: 0.08
    }
    bias_filler {
      type: "constant"
      value: 0
    }
    axis: 2
  }
}
layer {
  name: "probs"
  type: "Softmax"
  bottom: "predict"
  top: "probs"
  softmax_param {
    axis: 2
  }
}
I0924 03:27:52.439138 27440 net.cpp:399] input -> input_sentence
I0924 03:27:52.439152 27440 net.cpp:399] input -> stage_indicator
I0924 03:27:52.439246 27406 layer_factory.hpp:77] Creating layer input
I0924 03:27:52.439265 27406 net.cpp:91] Creating Layer input
I0924 03:27:52.439275 27406 net.cpp:399] input -> frames_fc7
I0924 03:27:52.439292 27406 net.cpp:399] input -> cont_sentence
I0924 03:27:52.439309 27406 net.cpp:399] input -> input_sentence
I0924 03:27:52.439324 27406 net.cpp:399] input -> stage_indicator
I0924 03:27:52.435019 27402 layer_factory.hpp:77] Creating layer input
I0924 03:27:52.439360 27402 net.cpp:91] Creating Layer input
I0924 03:27:52.439373 27402 net.cpp:399] input -> frames_fc7
I0924 03:27:52.439388 27402 net.cpp:399] input -> cont_sentence
I0924 03:27:52.439402 27402 net.cpp:399] input -> input_sentence
I0924 03:27:52.439417 27402 net.cpp:399] input -> stage_indicator
I0924 03:27:52.435051 27408 layer_factory.hpp:77] Creating layer data
I0924 03:27:52.439759 27408 net.cpp:91] Creating Layer data
I0924 03:27:52.439770 27408 net.cpp:399] data -> data
I0924 03:27:53.141628 27400 net.cpp:141] Setting up input
I0924 03:27:53.141799 27400 net.cpp:148] Top shape: 1 4096 (4096)
I0924 03:27:53.141819 27400 net.cpp:148] Top shape: 1 1 (1)
I0924 03:27:53.141829 27400 net.cpp:148] Top shape: 1 1 (1)
I0924 03:27:53.141841 27400 net.cpp:148] Top shape: 1 1 (1)
I0924 03:27:53.141850 27400 net.cpp:156] Memory required for data: 16396
I0924 03:27:53.141890 27400 layer_factory.hpp:77] Creating layer cont_sentence_input_1_split
I0924 03:27:53.141933 27400 net.cpp:91] Creating Layer cont_sentence_input_1_split
I0924 03:27:53.141953 27400 net.cpp:425] cont_sentence_input_1_split <- cont_sentence
I0924 03:27:53.141996 27400 net.cpp:399] cont_sentence_input_1_split -> cont_sentence_input_1_split_0
I0924 03:27:53.142029 27400 net.cpp:399] cont_sentence_input_1_split -> cont_sentence_input_1_split_1
I0924 03:27:53.142108 27400 net.cpp:141] Setting up cont_sentence_input_1_split
I0924 03:27:53.142127 27400 net.cpp:148] Top shape: 1 1 (1)
I0924 03:27:53.142139 27400 net.cpp:148] Top shape: 1 1 (1)
I0924 03:27:53.142148 27400 net.cpp:156] Memory required for data: 16404
I0924 03:27:53.142158 27400 layer_factory.hpp:77] Creating layer embed_encoder
I0924 03:27:53.142194 27400 net.cpp:91] Creating Layer embed_encoder
I0924 03:27:53.142206 27400 net.cpp:425] embed_encoder <- frames_fc7
I0924 03:27:53.142222 27400 net.cpp:399] embed_encoder -> embedded_in_frames
I0924 03:27:53.147271 27402 net.cpp:141] Setting up input
I0924 03:27:53.147326 27402 net.cpp:148] Top shape: 1 4096 (4096)
I0924 03:27:53.147339 27402 net.cpp:148] Top shape: 1 1 (1)
I0924 03:27:53.147349 27402 net.cpp:148] Top shape: 1 1 (1)
I0924 03:27:53.147348 27414 net.cpp:141] Setting up input
I0924 03:27:53.147361 27402 net.cpp:148] Top shape: 1 1 (1)
I0924 03:27:53.147368 27402 net.cpp:156] Memory required for data: 16396
I0924 03:27:53.147372 27414 net.cpp:148] Top shape: 1 4096 (4096)
I0924 03:27:53.147382 27414 net.cpp:148] Top shape: 1 1 (1)
I0924 03:27:53.147404 27414 net.cpp:148] Top shape: 1 1 (1)
I0924 03:27:53.147416 27414 net.cpp:148] Top shape: 1 1 (1)
I0924 03:27:53.147424 27414 net.cpp:156] Memory required for data: 16396
I0924 03:27:53.147382 27402 layer_factory.hpp:77] Creating layer cont_sentence_input_1_split
I0924 03:27:53.147433 27414 layer_factory.hpp:77] Creating layer cont_sentence_input_1_split
I0924 03:27:53.147462 27414 net.cpp:91] Creating Layer cont_sentence_input_1_split
I0924 03:27:53.147464 27402 net.cpp:91] Creating Layer cont_sentence_input_1_split
I0924 03:27:53.147474 27414 net.cpp:425] cont_sentence_input_1_split <- cont_sentence
I0924 03:27:53.147475 27402 net.cpp:425] cont_sentence_input_1_split <- cont_sentence
I0924 03:27:53.147511 27402 net.cpp:399] cont_sentence_input_1_split -> cont_sentence_input_1_split_0
I0924 03:27:53.147512 27414 net.cpp:399] cont_sentence_input_1_split -> cont_sentence_input_1_split_0
I0924 03:27:53.147531 27434 net.cpp:141] Setting up input
I0924 03:27:53.147574 27434 net.cpp:148] Top shape: 1 4096 (4096)
I0924 03:27:53.147584 27434 net.cpp:148] Top shape: 1 1 (1)
I0924 03:27:53.147595 27434 net.cpp:148] Top shape: 1 1 (1)
I0924 03:27:53.147603 27434 net.cpp:148] Top shape: 1 1 (1)
I0924 03:27:53.147608 27434 net.cpp:156] Memory required for data: 16396
I0924 03:27:53.147617 27434 layer_factory.hpp:77] Creating layer cont_sentence_input_1_split
I0924 03:27:53.147642 27434 net.cpp:91] Creating Layer cont_sentence_input_1_split
I0924 03:27:53.147653 27434 net.cpp:425] cont_sentence_input_1_split <- cont_sentence
I0924 03:27:53.147660 27440 net.cpp:141] Setting up input
I0924 03:27:53.147670 27434 net.cpp:399] cont_sentence_input_1_split -> cont_sentence_input_1_split_0
I0924 03:27:53.147677 27440 net.cpp:148] Top shape: 1 4096 (4096)
I0924 03:27:53.147688 27440 net.cpp:148] Top shape: 1 1 (1)
I0924 03:27:53.147696 27434 net.cpp:399] cont_sentence_input_1_split -> cont_sentence_input_1_split_1
I0924 03:27:53.147698 27440 net.cpp:148] Top shape: 1 1 (1)
I0924 03:27:53.147708 27440 net.cpp:148] Top shape: 1 1 (1)
I0924 03:27:53.147714 27440 net.cpp:156] Memory required for data: 16396
I0924 03:27:53.147723 27440 layer_factory.hpp:77] Creating layer cont_sentence_input_1_split
I0924 03:27:53.147737 27440 net.cpp:91] Creating Layer cont_sentence_input_1_split
I0924 03:27:53.147744 27440 net.cpp:425] cont_sentence_input_1_split <- cont_sentence
I0924 03:27:53.147758 27440 net.cpp:399] cont_sentence_input_1_split -> cont_sentence_input_1_split_0
I0924 03:27:53.147773 27440 net.cpp:399] cont_sentence_input_1_split -> cont_sentence_input_1_split_1
I0924 03:27:53.147780 27434 net.cpp:141] Setting up cont_sentence_input_1_split
I0924 03:27:53.147797 27434 net.cpp:148] Top shape: 1 1 (1)
I0924 03:27:53.147807 27434 net.cpp:148] Top shape: 1 1 (1)
I0924 03:27:53.147814 27434 net.cpp:156] Memory required for data: 16404
I0924 03:27:53.147821 27434 layer_factory.hpp:77] Creating layer embed_encoder
I0924 03:27:53.147843 27434 net.cpp:91] Creating Layer embed_encoder
I0924 03:27:53.147850 27440 net.cpp:141] Setting up cont_sentence_input_1_split
I0924 03:27:53.147855 27434 net.cpp:425] embed_encoder <- frames_fc7
I0924 03:27:53.147866 27440 net.cpp:148] Top shape: 1 1 (1)
I0924 03:27:53.147871 27434 net.cpp:399] embed_encoder -> embedded_in_frames
I0924 03:27:53.147876 27440 net.cpp:148] Top shape: 1 1 (1)
I0924 03:27:53.147884 27440 net.cpp:156] Memory required for data: 16404
I0924 03:27:53.147891 27440 layer_factory.hpp:77] Creating layer embed_encoder
I0924 03:27:53.147912 27440 net.cpp:91] Creating Layer embed_encoder
I0924 03:27:53.147920 27440 net.cpp:425] embed_encoder <- frames_fc7
I0924 03:27:53.147933 27440 net.cpp:399] embed_encoder -> embedded_in_frames
I0924 03:27:53.147534 27414 net.cpp:399] cont_sentence_input_1_split -> cont_sentence_input_1_split_1
I0924 03:27:53.147534 27402 net.cpp:399] cont_sentence_input_1_split -> cont_sentence_input_1_split_1
I0924 03:27:53.153568 27396 net.cpp:141] Setting up input
I0924 03:27:53.153622 27396 net.cpp:148] Top shape: 1 4096 (4096)
I0924 03:27:53.153637 27396 net.cpp:148] Top shape: 1 1 (1)
I0924 03:27:53.153650 27396 net.cpp:148] Top shape: 1 1 (1)
I0924 03:27:53.153661 27396 net.cpp:148] Top shape: 1 1 (1)
I0924 03:27:53.153669 27396 net.cpp:156] Memory required for data: 16396
I0924 03:27:53.153684 27396 layer_factory.hpp:77] Creating layer cont_sentence_input_1_split
I0924 03:27:53.153714 27396 net.cpp:91] Creating Layer cont_sentence_input_1_split
I0924 03:27:53.153726 27396 net.cpp:425] cont_sentence_input_1_split <- cont_sentence
I0924 03:27:53.153744 27396 net.cpp:399] cont_sentence_input_1_split -> cont_sentence_input_1_split_0
I0924 03:27:53.153767 27396 net.cpp:399] cont_sentence_input_1_split -> cont_sentence_input_1_split_1
I0924 03:27:53.153847 27396 net.cpp:141] Setting up cont_sentence_input_1_split
I0924 03:27:53.153867 27396 net.cpp:148] Top shape: 1 1 (1)
I0924 03:27:53.153877 27396 net.cpp:148] Top shape: 1 1 (1)
I0924 03:27:53.153885 27396 net.cpp:156] Memory required for data: 16404
I0924 03:27:53.153894 27396 layer_factory.hpp:77] Creating layer embed_encoder
I0924 03:27:53.153919 27396 net.cpp:91] Creating Layer embed_encoder
I0924 03:27:53.153929 27396 net.cpp:425] embed_encoder <- frames_fc7
I0924 03:27:53.153945 27396 net.cpp:399] embed_encoder -> embedded_in_frames
I0924 03:27:53.160187 27408 net.cpp:141] Setting up data
I0924 03:27:53.160245 27408 net.cpp:148] Top shape: 10 3 227 227 (1545870)
I0924 03:27:53.160256 27408 net.cpp:156] Memory required for data: 6183480
I0924 03:27:53.160271 27408 layer_factory.hpp:77] Creating layer conv1
I0924 03:27:53.160378 27408 net.cpp:91] Creating Layer conv1
I0924 03:27:53.160408 27408 net.cpp:425] conv1 <- data
I0924 03:27:53.160423 27408 net.cpp:399] conv1 -> conv1
I0924 03:27:53.162770 27402 net.cpp:141] Setting up cont_sentence_input_1_split
I0924 03:27:53.162816 27402 net.cpp:148] Top shape: 1 1 (1)
I0924 03:27:53.162827 27402 net.cpp:148] Top shape: 1 1 (1)
I0924 03:27:53.162835 27402 net.cpp:156] Memory required for data: 16404
I0924 03:27:53.162847 27402 layer_factory.hpp:77] Creating layer embed_encoder
I0924 03:27:53.162878 27402 net.cpp:91] Creating Layer embed_encoder
I0924 03:27:53.162889 27402 net.cpp:425] embed_encoder <- frames_fc7
I0924 03:27:53.162907 27402 net.cpp:399] embed_encoder -> embedded_in_frames
I0924 03:27:53.174754 27406 net.cpp:141] Setting up input
I0924 03:27:53.174819 27406 net.cpp:148] Top shape: 1 4096 (4096)
I0924 03:27:53.174836 27406 net.cpp:148] Top shape: 1 1 (1)
I0924 03:27:53.174849 27406 net.cpp:148] Top shape: 1 1 (1)
I0924 03:27:53.174861 27406 net.cpp:148] Top shape: 1 1 (1)
I0924 03:27:53.174870 27406 net.cpp:156] Memory required for data: 16396
I0924 03:27:53.174885 27406 layer_factory.hpp:77] Creating layer cont_sentence_input_1_split
I0924 03:27:53.174912 27406 net.cpp:91] Creating Layer cont_sentence_input_1_split
I0924 03:27:53.174924 27406 net.cpp:425] cont_sentence_input_1_split <- cont_sentence
I0924 03:27:53.174942 27406 net.cpp:399] cont_sentence_input_1_split -> cont_sentence_input_1_split_0
I0924 03:27:53.174965 27406 net.cpp:399] cont_sentence_input_1_split -> cont_sentence_input_1_split_1
I0924 03:27:53.181092 27400 net.cpp:141] Setting up embed_encoder
I0924 03:27:53.181145 27400 net.cpp:148] Top shape: 1 500 (500)
I0924 03:27:53.181157 27400 net.cpp:156] Memory required for data: 18404
I0924 03:27:53.181145 27414 net.cpp:141] Setting up cont_sentence_input_1_split
I0924 03:27:53.181200 27414 net.cpp:148] Top shape: 1 1 (1)
I0924 03:27:53.181205 27400 layer_factory.hpp:77] Creating layer reshape_frames
I0924 03:27:53.181213 27414 net.cpp:148] Top shape: 1 1 (1)
I0924 03:27:53.181222 27414 net.cpp:156] Memory required for data: 16404
I0924 03:27:53.181233 27414 layer_factory.hpp:77] Creating layer embed_encoder
I0924 03:27:53.181267 27414 net.cpp:91] Creating Layer embed_encoder
I0924 03:27:53.181278 27414 net.cpp:425] embed_encoder <- frames_fc7
I0924 03:27:53.181293 27400 net.cpp:91] Creating Layer reshape_frames
I0924 03:27:53.181298 27414 net.cpp:399] embed_encoder -> embedded_in_frames
I0924 03:27:53.181318 27400 net.cpp:425] reshape_frames <- embedded_in_frames
I0924 03:27:53.181334 27400 net.cpp:399] reshape_frames -> embedded_input_frames
I0924 03:27:53.186592 27400 net.cpp:141] Setting up reshape_frames
I0924 03:27:53.186652 27400 net.cpp:148] Top shape: 1 1 500 (500)
I0924 03:27:53.186662 27400 net.cpp:156] Memory required for data: 20404
I0924 03:27:53.186676 27400 layer_factory.hpp:77] Creating layer reshape_stage_indicator
I0924 03:27:53.186704 27400 net.cpp:91] Creating Layer reshape_stage_indicator
I0924 03:27:53.186714 27400 net.cpp:425] reshape_stage_indicator <- stage_indicator
I0924 03:27:53.186733 27400 net.cpp:399] reshape_stage_indicator -> reshaped_stage_indicator
I0924 03:27:53.195834 27406 net.cpp:141] Setting up cont_sentence_input_1_split
I0924 03:27:53.195868 27400 net.cpp:141] Setting up reshape_stage_indicator
I0924 03:27:53.195890 27400 net.cpp:148] Top shape: 1 1 1 (1)
I0924 03:27:53.195890 27406 net.cpp:148] Top shape: 1 1 (1)
I0924 03:27:53.195900 27400 net.cpp:156] Memory required for data: 20408
I0924 03:27:53.195904 27406 net.cpp:148] Top shape: 1 1 (1)
I0924 03:27:53.195912 27406 net.cpp:156] Memory required for data: 16404
I0924 03:27:53.195914 27400 layer_factory.hpp:77] Creating layer embedding
I0924 03:27:53.195921 27406 layer_factory.hpp:77] Creating layer embed_encoder
I0924 03:27:53.195941 27400 net.cpp:91] Creating Layer embedding
I0924 03:27:53.195943 27406 net.cpp:91] Creating Layer embed_encoder
I0924 03:27:53.195963 27400 net.cpp:425] embedding <- input_sentence
I0924 03:27:53.195968 27406 net.cpp:425] embed_encoder <- frames_fc7
I0924 03:27:53.195986 27400 net.cpp:399] embedding -> embedded_input_sentence
I0924 03:27:53.195988 27406 net.cpp:399] embed_encoder -> embedded_in_frames
I0924 03:27:53.196105 27396 net.cpp:141] Setting up embed_encoder
I0924 03:27:53.196157 27396 net.cpp:148] Top shape: 1 500 (500)
I0924 03:27:53.196164 27434 net.cpp:141] Setting up embed_encoder
I0924 03:27:53.196169 27396 net.cpp:156] Memory required for data: 18404
I0924 03:27:53.196198 27434 net.cpp:148] Top shape: 1 500 (500)
I0924 03:27:53.196210 27434 net.cpp:156] Memory required for data: 18404
I0924 03:27:53.196223 27396 layer_factory.hpp:77] Creating layer reshape_frames
I0924 03:27:53.196246 27434 layer_factory.hpp:77] Creating layer reshape_frames
I0924 03:27:53.196259 27396 net.cpp:91] Creating Layer reshape_frames
I0924 03:27:53.196272 27434 net.cpp:91] Creating Layer reshape_frames
I0924 03:27:53.196274 27396 net.cpp:425] reshape_frames <- embedded_in_frames
I0924 03:27:53.196295 27434 net.cpp:425] reshape_frames <- embedded_in_frames
I0924 03:27:53.196311 27396 net.cpp:399] reshape_frames -> embedded_input_frames
I0924 03:27:53.196316 27434 net.cpp:399] reshape_frames -> embedded_input_frames
I0924 03:27:53.203081 27396 net.cpp:141] Setting up reshape_frames
I0924 03:27:53.203104 27434 net.cpp:141] Setting up reshape_frames
I0924 03:27:53.203135 27434 net.cpp:148] Top shape: 1 1 500 (500)
I0924 03:27:53.203135 27396 net.cpp:148] Top shape: 1 1 500 (500)
I0924 03:27:53.203141 27434 net.cpp:156] Memory required for data: 20404
I0924 03:27:53.203146 27396 net.cpp:156] Memory required for data: 20404
I0924 03:27:53.203150 27434 layer_factory.hpp:77] Creating layer reshape_stage_indicator
I0924 03:27:53.203155 27396 layer_factory.hpp:77] Creating layer reshape_stage_indicator
I0924 03:27:53.203171 27434 net.cpp:91] Creating Layer reshape_stage_indicator
I0924 03:27:53.203172 27396 net.cpp:91] Creating Layer reshape_stage_indicator
I0924 03:27:53.203179 27434 net.cpp:425] reshape_stage_indicator <- stage_indicator
I0924 03:27:53.203183 27396 net.cpp:425] reshape_stage_indicator <- stage_indicator
I0924 03:27:53.203200 27434 net.cpp:399] reshape_stage_indicator -> reshaped_stage_indicator
I0924 03:27:53.203202 27396 net.cpp:399] reshape_stage_indicator -> reshaped_stage_indicator
I0924 03:27:53.203250 27434 net.cpp:141] Setting up reshape_stage_indicator
I0924 03:27:53.203260 27434 net.cpp:148] Top shape: 1 1 1 (1)
I0924 03:27:53.203264 27434 net.cpp:156] Memory required for data: 20408
I0924 03:27:53.203269 27434 layer_factory.hpp:77] Creating layer embedding
I0924 03:27:53.203282 27434 net.cpp:91] Creating Layer embedding
I0924 03:27:53.203287 27434 net.cpp:425] embedding <- input_sentence
I0924 03:27:53.203297 27434 net.cpp:399] embedding -> embedded_input_sentence
I0924 03:27:53.254745 27396 net.cpp:141] Setting up reshape_stage_indicator
I0924 03:27:53.254811 27396 net.cpp:148] Top shape: 1 1 1 (1)
I0924 03:27:53.254822 27396 net.cpp:156] Memory required for data: 20408
I0924 03:27:53.254833 27396 layer_factory.hpp:77] Creating layer embedding
I0924 03:27:53.254864 27396 net.cpp:91] Creating Layer embedding
I0924 03:27:53.254878 27396 net.cpp:425] embedding <- input_sentence
I0924 03:27:53.254904 27396 net.cpp:399] embedding -> embedded_input_sentence
I0924 03:27:53.262028 27402 net.cpp:141] Setting up embed_encoder
I0924 03:27:53.262079 27402 net.cpp:148] Top shape: 1 500 (500)
I0924 03:27:53.262086 27402 net.cpp:156] Memory required for data: 18404
I0924 03:27:53.262109 27402 layer_factory.hpp:77] Creating layer reshape_frames
I0924 03:27:53.262133 27402 net.cpp:91] Creating Layer reshape_frames
I0924 03:27:53.262143 27402 net.cpp:425] reshape_frames <- embedded_in_frames
I0924 03:27:53.262154 27402 net.cpp:399] reshape_frames -> embedded_input_frames
I0924 03:27:53.306793 27440 net.cpp:141] Setting up embed_encoder
I0924 03:27:53.306852 27440 net.cpp:148] Top shape: 1 500 (500)
I0924 03:27:53.306862 27440 net.cpp:156] Memory required for data: 18404
I0924 03:27:53.306895 27440 layer_factory.hpp:77] Creating layer reshape_frames
I0924 03:27:53.306922 27440 net.cpp:91] Creating Layer reshape_frames
I0924 03:27:53.306936 27440 net.cpp:425] reshape_frames <- embedded_in_frames
I0924 03:27:53.306955 27440 net.cpp:399] reshape_frames -> embedded_input_frames
I0924 03:27:53.350488 27402 net.cpp:141] Setting up reshape_frames
I0924 03:27:53.350554 27402 net.cpp:148] Top shape: 1 1 500 (500)
I0924 03:27:53.350567 27402 net.cpp:156] Memory required for data: 20404
I0924 03:27:53.350582 27402 layer_factory.hpp:77] Creating layer reshape_stage_indicator
I0924 03:27:53.350644 27402 net.cpp:91] Creating Layer reshape_stage_indicator
I0924 03:27:53.350664 27402 net.cpp:425] reshape_stage_indicator <- stage_indicator
I0924 03:27:53.350690 27402 net.cpp:399] reshape_stage_indicator -> reshaped_stage_indicator
I0924 03:27:53.350716 27440 net.cpp:141] Setting up reshape_frames
I0924 03:27:53.350736 27440 net.cpp:148] Top shape: 1 1 500 (500)
I0924 03:27:53.350742 27440 net.cpp:156] Memory required for data: 20404
I0924 03:27:53.350751 27440 layer_factory.hpp:77] Creating layer reshape_stage_indicator
I0924 03:27:53.350769 27440 net.cpp:91] Creating Layer reshape_stage_indicator
I0924 03:27:53.350782 27440 net.cpp:425] reshape_stage_indicator <- stage_indicator
I0924 03:27:53.350800 27440 net.cpp:399] reshape_stage_indicator -> reshaped_stage_indicator
I0924 03:27:53.350883 27406 net.cpp:141] Setting up embed_encoder
I0924 03:27:53.350898 27406 net.cpp:148] Top shape: 1 500 (500)
I0924 03:27:53.350901 27406 net.cpp:156] Memory required for data: 18404
I0924 03:27:53.350920 27406 layer_factory.hpp:77] Creating layer reshape_frames
I0924 03:27:53.350934 27406 net.cpp:91] Creating Layer reshape_frames
I0924 03:27:53.350940 27406 net.cpp:425] reshape_frames <- embedded_in_frames
I0924 03:27:53.350949 27406 net.cpp:399] reshape_frames -> embedded_input_frames
I0924 03:27:53.350986 27406 net.cpp:141] Setting up reshape_frames
I0924 03:27:53.350996 27406 net.cpp:148] Top shape: 1 1 500 (500)
I0924 03:27:53.350999 27406 net.cpp:156] Memory required for data: 20404
I0924 03:27:53.351006 27406 layer_factory.hpp:77] Creating layer reshape_stage_indicator
I0924 03:27:53.351016 27406 net.cpp:91] Creating Layer reshape_stage_indicator
I0924 03:27:53.351022 27406 net.cpp:425] reshape_stage_indicator <- stage_indicator
I0924 03:27:53.351032 27406 net.cpp:399] reshape_stage_indicator -> reshaped_stage_indicator
I0924 03:27:53.351063 27406 net.cpp:141] Setting up reshape_stage_indicator
I0924 03:27:53.351073 27406 net.cpp:148] Top shape: 1 1 1 (1)
I0924 03:27:53.351076 27406 net.cpp:156] Memory required for data: 20408
I0924 03:27:53.351081 27406 layer_factory.hpp:77] Creating layer embedding
I0924 03:27:53.351102 27406 net.cpp:91] Creating Layer embedding
I0924 03:27:53.351107 27406 net.cpp:425] embedding <- input_sentence
I0924 03:27:53.351117 27406 net.cpp:399] embedding -> embedded_input_sentence
I0924 03:27:53.392961 27414 net.cpp:141] Setting up embed_encoder
I0924 03:27:53.393074 27414 net.cpp:148] Top shape: 1 500 (500)
I0924 03:27:53.393085 27414 net.cpp:156] Memory required for data: 18404
I0924 03:27:53.393121 27414 layer_factory.hpp:77] Creating layer reshape_frames
I0924 03:27:53.393159 27414 net.cpp:91] Creating Layer reshape_frames
I0924 03:27:53.393172 27414 net.cpp:425] reshape_frames <- embedded_in_frames
I0924 03:27:53.393190 27414 net.cpp:399] reshape_frames -> embedded_input_frames
I0924 03:27:53.393262 27414 net.cpp:141] Setting up reshape_frames
I0924 03:27:53.393276 27414 net.cpp:148] Top shape: 1 1 500 (500)
I0924 03:27:53.393291 27414 net.cpp:156] Memory required for data: 20404
I0924 03:27:53.393301 27414 layer_factory.hpp:77] Creating layer reshape_stage_indicator
I0924 03:27:53.393321 27414 net.cpp:91] Creating Layer reshape_stage_indicator
I0924 03:27:53.393329 27414 net.cpp:425] reshape_stage_indicator <- stage_indicator
I0924 03:27:53.393342 27414 net.cpp:399] reshape_stage_indicator -> reshaped_stage_indicator
I0924 03:27:53.393393 27414 net.cpp:141] Setting up reshape_stage_indicator
I0924 03:27:53.393406 27414 net.cpp:148] Top shape: 1 1 1 (1)
I0924 03:27:53.393414 27414 net.cpp:156] Memory required for data: 20408
I0924 03:27:53.393420 27414 layer_factory.hpp:77] Creating layer embedding
I0924 03:27:53.393440 27414 net.cpp:91] Creating Layer embedding
I0924 03:27:53.393446 27414 net.cpp:425] embedding <- input_sentence
I0924 03:27:53.393460 27414 net.cpp:399] embedding -> embedded_input_sentence
I0924 03:27:53.448398 27402 net.cpp:141] Setting up reshape_stage_indicator
I0924 03:27:53.448457 27402 net.cpp:148] Top shape: 1 1 1 (1)
I0924 03:27:53.448468 27402 net.cpp:156] Memory required for data: 20408
I0924 03:27:53.448480 27402 layer_factory.hpp:77] Creating layer embedding
I0924 03:27:53.448477 27440 net.cpp:141] Setting up reshape_stage_indicator
I0924 03:27:53.448519 27440 net.cpp:148] Top shape: 1 1 1 (1)
I0924 03:27:53.448529 27440 net.cpp:156] Memory required for data: 20408
I0924 03:27:53.448540 27440 layer_factory.hpp:77] Creating layer embedding
I0924 03:27:53.448562 27440 net.cpp:91] Creating Layer embedding
I0924 03:27:53.448573 27440 net.cpp:425] embedding <- input_sentence
I0924 03:27:53.448570 27402 net.cpp:91] Creating Layer embedding
I0924 03:27:53.448591 27402 net.cpp:425] embedding <- input_sentence
I0924 03:27:53.448592 27440 net.cpp:399] embedding -> embedded_input_sentence
I0924 03:27:53.448626 27402 net.cpp:399] embedding -> embedded_input_sentence
I0924 03:27:53.551815 27400 net.cpp:141] Setting up embedding
I0924 03:27:53.551872 27400 net.cpp:148] Top shape: 1 1 500 (500)
I0924 03:27:53.551880 27400 net.cpp:156] Memory required for data: 22408
I0924 03:27:53.551884 27396 net.cpp:141] Setting up embedding
I0924 03:27:53.551905 27400 layer_factory.hpp:77] Creating layer lstm1
I0924 03:27:53.551928 27396 net.cpp:148] Top shape: 1 1 500 (500)
I0924 03:27:53.551923 27434 net.cpp:141] Setting up embedding
I0924 03:27:53.551939 27396 net.cpp:156] Memory required for data: 22408
I0924 03:27:53.551954 27434 net.cpp:148] Top shape: 1 1 500 (500)
I0924 03:27:53.551959 27434 net.cpp:156] Memory required for data: 22408
I0924 03:27:53.551965 27396 layer_factory.hpp:77] Creating layer lstm1
I0924 03:27:53.551959 27400 net.cpp:91] Creating Layer lstm1
I0924 03:27:53.551978 27434 layer_factory.hpp:77] Creating layer lstm1
I0924 03:27:53.551991 27400 net.cpp:425] lstm1 <- embedded_input_frames
I0924 03:27:53.551995 27434 net.cpp:91] Creating Layer lstm1
…
I0924 03:27:53.552068 27400 recurrent_layer.cpp:20] Initializing recurrent layer: assuming input batch contains 1 timesteps of 1 independent streams.
I0924 03:27:53.552665 27396 net.cpp:49] Initializing net from parameters: 
layer {
  name: "lstm1_"
  type: "Input"
  top: "x"
  top: "cont"
  input_param {
    shape {
      dim: 1
      dim: 1
      dim: 500
    }
    shape {
      dim: 1
      dim: 1
    }
  }
}
layer {
  name: "lstm1_"
  type: "Input"
  top: "c_0"
  top: "h_0"
  input_param {
    shape {
      dim: 1
      dim: 1
      dim: 1000
    }
    shape {
      dim: 1
      dim: 1
      dim: 1000
    }
  }
}
layer {
  name: "lstm1_cont_slice"
  type: "Slice"
  bottom: "cont"
  top: "cont_1"
  slice_param {
    axis: 0
  }
}
layer {
  name: "lstm1_x_transform"
  type: "InnerProduct"
  bottom: "x"
  top: "W_xc_x"
  param {
    name: "W_xc"
  }
  param {
    name: "b_c"
  }
  propagate_down: true
  inner_product_param {
    num_output: 4000
    bias_term: true
    weight_filler {
      type: "uniform"
      min: -0.08
      max: 0.08
    }
    bias_filler {
      type: "constant"
      value: 0
    }
    axis: 2
  }
}
layer {
  name: "lstm1_W_xc_x_slice"
  type: "Slice"
  bottom: "W_xc_x"
  top: "W_xc_x_1"
  slice_param {
    axis: 0
  }
}
layer {
  name: "lstm1_h_conted_0"
  type: "Scale"
  bottom: "h_0"
  bottom: "cont_1"
  top: "h_conted_0"
  scale_param {
    axis: 0
  }
}
layer {
  name: "lstm1_transform_1"
  type: "InnerProduct"
  bottom: "h_conted_0"
  top: "W_hc_h_0"
  param {
    name: "W_hc"
  }
  inner_product_param {
    num_output: 4000
    bias_term: false
    weight_filler {
      type: "uniform"
      min: -0.08
      max: 0.08
    }
    axis: 2
  }
}
layer {
  name: "lstm1_gate_input_1"
  type: "Eltwise"
  bottom: "W_hc_h_0"
  bottom: "W_xc_x_1"
  top: "gate_input_1"
  eltwise_param {
    operation: SUM
  }
}
layer {
  name: "lstm1_unit_1"
  type: "LSTMUnit"
  bottom: "c_0"
  bottom: "gate_input_1"
  bottom: "cont_1"
  top: "c_1"
  top: "h_1"
}
layer {
  name: "lstm1_"
  type: "Split"
  bottom: "c_1"
  top: "c_T"
}
layer {
  name: "lstm1_h_concat"
  type: "Concat"
  bottom: "h_1"
  top: "h"
  concat_param {
    axis: 0
  }
}
layer {
  name: "h_pseudoloss"
  type: "Reduction"
  bottom: "h"
  top: "h_pseudoloss"
  loss_weight: 1
}
I0924 03:27:53.552670 27400 net.cpp:49] Initializing net from parameters: 
layer {
  name: "lstm1_"
  type: "Input"
  top: "x"
  top: "cont"
  input_param {
    shape {
      dim: 1
      dim: 1
      dim: 500
    }
    shape {
      dim: 1
      dim: 1
    }
  }
}
layer {
  name: "lstm1_"
  type: "Input"
  top: "c_0"
  top: "h_0"
  input_param {
    shape {
      dim: 1
      dim: 1
      dim: 1000
    }
    shape {
      dim: 1
      dim: 1
      dim: 1000
    }
  }
}
layer {
  name: "lstm1_cont_slice"
  type: "Slice"
  bottom: "cont"
  top: "cont_1"
  slice_param {
    axis: 0
  }
}
layer {
  name: "lstm1_x_transform"
  type: "InnerProduct"
  bottom: "x"
  top: "W_xc_x"
  param {
    name: "W_xc"
  }
  param {
    name: "b_c"
  }
  propagate_down: true
  inner_product_param {
    num_output: 4000
    bias_term: true
    weight_filler {
      type: "uniform"
      min: -0.08
      max: 0.08
    }
    bias_filler {
      type: "constant"
      value: 0
    }
    axis: 2
  }
}
layer {
  name: "lstm1_W_xc_x_slice"
  type: "Slice"
  bottom: "W_xc_x"
  top: "W_xc_x_1"
  slice_param {
    axis: 0
  }
}
layer {
  name: "lstm1_h_conted_0"
  type: "Scale"
  bottom: "h_0"
  bottom: "cont_1"
  top: "h_conted_0"
  scale_param {
    axis: 0
  }
}
layer {
  name: "lstm1_transform_1"
  type: "InnerProduct"
  bottom: "h_conted_0"
  top: "W_hc_h_0"
  param {
    name: "W_hc"
  }
  inner_product_param {
    num_output: 4000
    bias_term: false
    weight_filler {
      type: "uniform"
      min: -0.08
      max: 0.08
    }
    axis: 2
  }
}
layer {
  name: "lstm1_gate_input_1"
  type: "Eltwise"
  bottom: "W_hc_h_0"
  bottom: "W_xc_x_1"
  top: "gate_input_1"
  eltwise_param {
    operation: SUM
  }
}
layer {
  name: "lstm1_unit_1"
  type: "LSTMUnit"
  bottom: "c_0"
  bottom: "gate_input_1"
  bottom: "cont_1"
  top: "c_1"
  top: "h_1"
}
layer {
  name: "lstm1_"
  type: "Split"
  bottom: "c_1"
  top: "c_T"
}
layer {
  name: "lstm1_h_concat"
  type: "Concat"
  bottom: "h_1"
  top: "h"
  concat_param {
    axis: 0
  }
}
layer {
  name: "h_pseudoloss"
  type: "Reduction"
  bottom: "h"
  top: "h_pseudoloss"
  loss_weight: 1
}
I0924 03:27:53.552666 27434 net.cpp:49] Initializing net from parameters: 
layer {
  name: "lstm1_"
  type: "Input"
  top: "x"
  top: "cont"
  input_param {
    shape {
      dim: 1
      dim: 1
      dim: 500
    }
    shape {
      dim: 1
      dim: 1
    }
  }
}
layer {
  name: "lstm1_"
  type: "Input"
  top: "c_0"
  top: "h_0"
  input_param {
    shape {
      dim: 1
      dim: 1
      dim: 1000
    }
    shape {
      dim: 1
      dim: 1
      dim: 1000
    }
  }
}
layer {
  name: "lstm1_cont_slice"
  type: "Slice"
  bottom: "cont"
  top: "cont_1"
  slice_param {
    axis: 0
  }
}
layer {
  name: "lstm1_x_transform"
  type: "InnerProduct"
  bottom: "x"
  top: "W_xc_x"
  param {
    name: "W_xc"
  }
  param {
    name: "b_c"
  }
  propagate_down: true
  inner_product_param {
    num_output: 4000
    bias_term: true
    weight_filler {
      type: "uniform"
      min: -0.08
      max: 0.08
    }
    bias_filler {
      type: "constant"
      value: 0
    }
    axis: 2
  }
}
layer {
  name: "lstm1_W_xc_x_slice"
  type: "Slice"
  bottom: "W_xc_x"
  top: "W_xc_x_1"
  slice_param {
    axis: 0
  }
}
layer {
  name: "lstm1_h_conted_0"
  type: "Scale"
  bottom: "h_0"
  bottom: "cont_1"
  top: "h_conted_0"
  scale_param {
    axis: 0
  }
}
layer {
  name: "lstm1_transform_1"
  type: "InnerProduct"
  bottom: "h_conted_0"
  top: "W_hc_h_0"
  param {
    name: "W_hc"
  }
  inner_product_param {
    num_output: 4000
    bias_term: false
    weight_filler {
      type: "uniform"
      min: -0.08
      max: 0.08
    }
    axis: 2
  }
}
layer {
  name: "lstm1_gate_input_1"
  type: "Eltwise"
  bottom: "W_hc_h_0"
  bottom: "W_xc_x_1"
  top: "gate_input_1"
  eltwise_param {
    operation: SUM
  }
}
layer {
  name: "lstm1_unit_1"
  type: "LSTMUnit"
  bottom: "c_0"
  bottom: "gate_input_1"
  bottom: "cont_1"
  top: "c_1"
  top: "h_1"
}
layer {
  name: "lstm1_"
  type: "Split"
  bottom: "c_1"
  top: "c_T"
}
layer {
  name: "lstm1_h_concat"
  type: "Concat"
  bottom: "h_1"
  top: "h"
  concat_param {
    axis: 0
  }
}
layer {
  name: "h_pseudoloss"
  type: "Reduction"
  bottom: "h"
  top: "h_pseudoloss"
  loss_weight: 1
}
I0924 03:27:53.552767 27396 layer_factory.hpp:77] Creating layer lstm1_
I0924 03:27:53.552778 27434 layer_factory.hpp:77] Creating layer lstm1_
I0924 03:27:53.552783 27396 net.cpp:91] Creating Layer lstm1_
I0924 03:27:53.552789 27396 net.cpp:399] lstm1_ -> x
I0924 03:27:53.552790 27434 net.cpp:91] Creating Layer lstm1_
I0924 03:27:53.552798 27434 net.cpp:399] lstm1_ -> x
I0924 03:27:53.552798 27400 layer_factory.hpp:77] Creating layer lstm1_
I0924 03:27:53.552809 27434 net.cpp:399] lstm1_ -> cont
I0924 03:27:53.552803 27396 net.cpp:399] lstm1_ -> cont
I0924 03:27:53.552819 27400 net.cpp:91] Creating Layer lstm1_
I0924 03:27:53.552834 27400 net.cpp:399] lstm1_ -> x
I0924 03:27:53.552845 27400 net.cpp:399] lstm1_ -> cont
I0924 03:27:53.583461 27400 net.cpp:141] Setting up lstm1_
I0924 03:27:53.583519 27400 net.cpp:148] Top shape: 1 1 500 (500)
I0924 03:27:53.583534 27400 net.cpp:148] Top shape: 1 1 (1)
I0924 03:27:53.583539 27434 net.cpp:141] Setting up lstm1_
I0924 03:27:53.583544 27400 net.cpp:156] Memory required for data: 2004
I0924 03:27:53.583554 27434 net.cpp:148] Top shape: 1 1 500 (500)
I0924 03:27:53.583557 27400 layer_factory.hpp:77] Creating layer lstm1_
I0924 03:27:53.583565 27434 net.cpp:148] Top shape: 1 1 (1)
I0924 03:27:53.583572 27434 net.cpp:156] Memory required for data: 2004
I0924 03:27:53.583580 27434 layer_factory.hpp:77] Creating layer lstm1_
I0924 03:27:53.583590 27400 net.cpp:91] Creating Layer lstm1_
I0924 03:27:53.583595 27434 net.cpp:91] Creating Layer lstm1_
I0924 03:27:53.583605 27400 net.cpp:399] lstm1_ -> c_0
I0924 03:27:53.583614 27434 net.cpp:399] lstm1_ -> c_0
I0924 03:27:53.583622 27396 net.cpp:141] Setting up lstm1_
I0924 03:27:53.583632 27400 net.cpp:399] lstm1_ -> h_0
I0924 03:27:53.583631 27434 net.cpp:399] lstm1_ -> h_0
I0924 03:27:53.583672 27396 net.cpp:148] Top shape: 1 1 500 (500)
I0924 03:27:53.583699 27396 net.cpp:148] Top shape: 1 1 (1)
I0924 03:27:53.583709 27396 net.cpp:156] Memory required for data: 2004
I0924 03:27:53.583720 27396 layer_factory.hpp:77] Creating layer lstm1_
I0924 03:27:53.583739 27396 net.cpp:91] Creating Layer lstm1_
I0924 03:27:53.583771 27396 net.cpp:399] lstm1_ -> c_0
I0924 03:27:53.583799 27396 net.cpp:399] lstm1_ -> h_0
I0924 03:27:53.589844 27434 net.cpp:141] Setting up lstm1_
I0924 03:27:53.589879 27434 net.cpp:148] Top shape: 1 1 1000 (1000)
I0924 03:27:53.589885 27434 net.cpp:148] Top shape: 1 1 1000 (1000)
I0924 03:27:53.589890 27434 net.cpp:156] Memory required for data: 10004
I0924 03:27:53.589896 27434 layer_factory.hpp:77] Creating layer lstm1_cont_slice
I0924 03:27:53.589905 27400 net.cpp:141] Setting up lstm1_
I0924 03:27:53.589912 27434 net.cpp:91] Creating Layer lstm1_cont_slice
I0924 03:27:53.589928 27434 net.cpp:425] lstm1_cont_slice <- cont
I0924 03:27:53.589931 27400 net.cpp:148] Top shape: 1 1 1000 (1000)
I0924 03:27:53.589941 27434 net.cpp:399] lstm1_cont_slice -> cont_1
I0924 03:27:53.589943 27400 net.cpp:148] Top shape: 1 1 1000 (1000)
I0924 03:27:53.589952 27400 net.cpp:156] Memory required for data: 10004
I0924 03:27:53.589962 27400 layer_factory.hpp:77] Creating layer lstm1_cont_slice
I0924 03:27:53.589972 27396 net.cpp:141] Setting up lstm1_
I0924 03:27:53.589989 27434 net.cpp:141] Setting up lstm1_cont_slice
I0924 03:27:53.589977 27400 net.cpp:91] Creating Layer lstm1_cont_slice
I0924 03:27:53.590004 27434 net.cpp:148] Top shape: 1 1 (1)
I0924 03:27:53.590009 27434 net.cpp:156] Memory required for data: 10008
I0924 03:27:53.589999 27396 net.cpp:148] Top shape: 1 1 1000 (1000)
I0924 03:27:53.590015 27434 layer_factory.hpp:77] Creating layer cont_1_lstm1_cont_slice_0_split
I0924 03:27:53.590015 27400 net.cpp:425] lstm1_cont_slice <- cont
I0924 03:27:53.590021 27396 net.cpp:148] Top shape: 1 1 1000 (1000)
I0924 03:27:53.590028 27434 net.cpp:91] Creating Layer cont_1_lstm1_cont_slice_0_split
I0924 03:27:53.590029 27396 net.cpp:156] Memory required for data: 10004
I0924 03:27:53.590034 27434 net.cpp:425] cont_1_lstm1_cont_slice_0_split <- cont_1
I0924 03:27:53.590039 27396 layer_factory.hpp:77] Creating layer lstm1_cont_slice
I0924 03:27:53.590041 27434 net.cpp:399] cont_1_lstm1_cont_slice_0_split -> cont_1_lstm1_cont_slice_0_split_0
I0924 03:27:53.590049 27400 net.cpp:399] lstm1_cont_slice -> cont_1
I0924 03:27:53.590059 27396 net.cpp:91] Creating Layer lstm1_cont_slice
I0924 03:27:53.590062 27434 net.cpp:399] cont_1_lstm1_cont_slice_0_split -> cont_1_lstm1_cont_slice_0_split_1
I0924 03:27:53.590068 27396 net.cpp:425] lstm1_cont_slice <- cont
I0924 03:27:53.590083 27396 net.cpp:399] lstm1_cont_slice -> cont_1
I0924 03:27:53.590117 27400 net.cpp:141] Setting up lstm1_cont_slice
I0924 03:27:53.590137 27400 net.cpp:148] Top shape: 1 1 (1)
I0924 03:27:53.590145 27400 net.cpp:156] Memory required for data: 10008
I0924 03:27:53.590153 27400 layer_factory.hpp:77] Creating layer cont_1_lstm1_cont_slice_0_split
I0924 03:27:53.590167 27400 net.cpp:91] Creating Layer cont_1_lstm1_cont_slice_0_split
I0924 03:27:53.590176 27400 net.cpp:425] cont_1_lstm1_cont_slice_0_split <- cont_1
I0924 03:27:53.590179 27434 net.cpp:141] Setting up cont_1_lstm1_cont_slice_0_split
I0924 03:27:53.590188 27400 net.cpp:399] cont_1_lstm1_cont_slice_0_split -> cont_1_lstm1_cont_slice_0_split_0
I0924 03:27:53.590193 27434 net.cpp:148] Top shape: 1 1 (1)
I0924 03:27:53.590204 27434 net.cpp:148] Top shape: 1 1 (1)
I0924 03:27:53.590204 27400 net.cpp:399] cont_1_lstm1_cont_slice_0_split -> cont_1_lstm1_cont_slice_0_split_1
I0924 03:27:53.590217 27434 net.cpp:156] Memory required for data: 10016
I0924 03:27:53.590220 27396 net.cpp:141] Setting up lstm1_cont_slice
I0924 03:27:53.590226 27434 layer_factory.hpp:77] Creating layer lstm1_x_transform
I0924 03:27:53.590239 27396 net.cpp:148] Top shape: 1 1 (1)
I0924 03:27:53.590246 27396 net.cpp:156] Memory required for data: 10008
I0924 03:27:53.590251 27434 net.cpp:91] Creating Layer lstm1_x_transform
I0924 03:27:53.590255 27396 layer_factory.hpp:77] Creating layer cont_1_lstm1_cont_slice_0_split
I0924 03:27:53.590261 27434 net.cpp:425] lstm1_x_transform <- x
I0924 03:27:53.590271 27396 net.cpp:91] Creating Layer cont_1_lstm1_cont_slice_0_split
I0924 03:27:53.590277 27434 net.cpp:399] lstm1_x_transform -> W_xc_x
I0924 03:27:53.590279 27396 net.cpp:425] cont_1_lstm1_cont_slice_0_split <- cont_1
I0924 03:27:53.590291 27396 net.cpp:399] cont_1_lstm1_cont_slice_0_split -> cont_1_lstm1_cont_slice_0_split_0
I0924 03:27:53.590303 27396 net.cpp:399] cont_1_lstm1_cont_slice_0_split -> cont_1_lstm1_cont_slice_0_split_1
I0924 03:27:53.590827 27400 net.cpp:141] Setting up cont_1_lstm1_cont_slice_0_split
I0924 03:27:53.590845 27400 net.cpp:148] Top shape: 1 1 (1)
I0924 03:27:53.590857 27400 net.cpp:148] Top shape: 1 1 (1)
I0924 03:27:53.590865 27400 net.cpp:156] Memory required for data: 10016
I0924 03:27:53.590872 27400 layer_factory.hpp:77] Creating layer lstm1_x_transform
I0924 03:27:53.590888 27400 net.cpp:91] Creating Layer lstm1_x_transform
I0924 03:27:53.590895 27400 net.cpp:425] lstm1_x_transform <- x
I0924 03:27:53.590909 27400 net.cpp:399] lstm1_x_transform -> W_xc_x
I0924 03:27:53.590920 27396 net.cpp:141] Setting up cont_1_lstm1_cont_slice_0_split
I0924 03:27:53.590939 27396 net.cpp:148] Top shape: 1 1 (1)
I0924 03:27:53.590948 27396 net.cpp:148] Top shape: 1 1 (1)
I0924 03:27:53.590955 27396 net.cpp:156] Memory required for data: 10016
I0924 03:27:53.590962 27396 layer_factory.hpp:77] Creating layer lstm1_x_transform
I0924 03:27:53.590979 27396 net.cpp:91] Creating Layer lstm1_x_transform
I0924 03:27:53.590987 27396 net.cpp:425] lstm1_x_transform <- x
I0924 03:27:53.591001 27396 net.cpp:399] lstm1_x_transform -> W_xc_x
I0924 03:27:53.617331 27406 net.cpp:141] Setting up embedding
I0924 03:27:53.617380 27406 net.cpp:148] Top shape: 1 1 500 (500)
I0924 03:27:53.617388 27406 net.cpp:156] Memory required for data: 22408
I0924 03:27:53.617405 27406 layer_factory.hpp:77] Creating layer lstm1
I0924 03:27:53.617429 27406 net.cpp:91] Creating Layer lstm1
I0924 03:27:53.617437 27406 net.cpp:425] lstm1 <- embedded_input_frames
I0924 03:27:53.617445 27406 net.cpp:425] lstm1 <- cont_sentence_input_1_split_0
I0924 03:27:53.617472 27406 net.cpp:399] lstm1 -> lstm1
I0924 03:27:53.617493 27406 recurrent_layer.cpp:20] Initializing recurrent layer: assuming input batch contains 1 timesteps of 1 independent streams.
I0924 03:27:53.618103 27406 net.cpp:49] Initializing net from parameters: 
layer {
  name: "lstm1_"
  type: "Input"
  top: "x"
  top: "cont"
  input_param {
    shape {
      dim: 1
      dim: 1
      dim: 500
    }
    shape {
      dim: 1
      dim: 1
    }
  }
}
layer {
  name: "lstm1_"
  type: "Input"
  top: "c_0"
  top: "h_0"
  input_param {
    shape {
      dim: 1
      dim: 1
      dim: 1000
    }
    shape {
      dim: 1
      dim: 1
      dim: 1000
    }
  }
}
layer {
  name: "lstm1_cont_slice"
  type: "Slice"
  bottom: "cont"
  top: "cont_1"
  slice_param {
    axis: 0
  }
}
layer {
  name: "lstm1_x_transform"
  type: "InnerProduct"
  bottom: "x"
  top: "W_xc_x"
  param {
    name: "W_xc"
  }
  param {
    name: "b_c"
  }
  propagate_down: true
  inner_product_param {
    num_output: 4000
    bias_term: true
    weight_filler {
      type: "uniform"
      min: -0.08
      max: 0.08
    }
    bias_filler {
      type: "constant"
      value: 0
    }
    axis: 2
  }
}
layer {
  name: "lstm1_W_xc_x_slice"
  type: "Slice"
  bottom: "W_xc_x"
  top: "W_xc_x_1"
  slice_param {
    axis: 0
  }
}
layer {
  name: "lstm1_h_conted_0"
  type: "Scale"
  bottom: "h_0"
  bottom: "cont_1"
  top: "h_conted_0"
  scale_param {
    axis: 0
  }
}
layer {
  name: "lstm1_transform_1"
  type: "InnerProduct"
  bottom: "h_conted_0"
  top: "W_hc_h_0"
  param {
    name: "W_hc"
  }
  inner_product_param {
    num_output: 4000
    bias_term: false
    weight_filler {
      type: "uniform"
      min: -0.08
      max: 0.08
    }
    axis: 2
  }
}
layer {
  name: "lstm1_gate_input_1"
  type: "Eltwise"
  bottom: "W_hc_h_0"
  bottom: "W_xc_x_1"
  top: "gate_input_1"
  eltwise_param {
    operation: SUM
  }
}
layer {
  name: "lstm1_unit_1"
  type: "LSTMUnit"
  bottom: "c_0"
  bottom: "gate_input_1"
  bottom: "cont_1"
  top: "c_1"
  top: "h_1"
}
layer {
  name: "lstm1_"
  type: "Split"
  bottom: "c_1"
  top: "c_T"
}
layer {
  name: "lstm1_h_concat"
  type: "Concat"
  bottom: "h_1"
  top: "h"
  concat_param {
    axis: 0
  }
}
layer {
  name: "h_pseudoloss"
  type: "Reduction"
  bottom: "h"
  top: "h_pseudoloss"
  loss_weight: 1
}
I0924 03:27:53.618263 27406 layer_factory.hpp:77] Creating layer lstm1_
I0924 03:27:53.618284 27406 net.cpp:91] Creating Layer lstm1_
I0924 03:27:53.618295 27406 net.cpp:399] lstm1_ -> x
I0924 03:27:53.618317 27406 net.cpp:399] lstm1_ -> cont
I0924 03:27:53.618687 27434 net.cpp:141] Setting up lstm1_x_transform
I0924 03:27:53.618710 27434 net.cpp:148] Top shape: 1 1 4000 (4000)
I0924 03:27:53.618717 27434 net.cpp:156] Memory required for data: 26016
I0924 03:27:53.618736 27434 layer_factory.hpp:77] Creating layer lstm1_W_xc_x_slice
I0924 03:27:53.618751 27434 net.cpp:91] Creating Layer lstm1_W_xc_x_slice
I0924 03:27:53.618759 27434 net.cpp:425] lstm1_W_xc_x_slice <- W_xc_x
I0924 03:27:53.618774 27434 net.cpp:399] lstm1_W_xc_x_slice -> W_xc_x_1
I0924 03:27:53.618834 27406 net.cpp:141] Setting up lstm1_
I0924 03:27:53.618855 27406 net.cpp:148] Top shape: 1 1 500 (500)
I0924 03:27:53.618866 27406 net.cpp:148] Top shape: 1 1 (1)
I0924 03:27:53.618873 27406 net.cpp:156] Memory required for data: 2004
I0924 03:27:53.618882 27406 layer_factory.hpp:77] Creating layer lstm1_
I0924 03:27:53.618888 27434 net.cpp:141] Setting up lstm1_W_xc_x_slice
I0924 03:27:53.618897 27406 net.cpp:91] Creating Layer lstm1_
I0924 03:27:53.618906 27434 net.cpp:148] Top shape: 1 1 4000 (4000)
I0924 03:27:53.618912 27406 net.cpp:399] lstm1_ -> c_0
I0924 03:27:53.618913 27434 net.cpp:156] Memory required for data: 42016
I0924 03:27:53.618935 27434 layer_factory.hpp:77] Creating layer lstm1_h_conted_0
I0924 03:27:53.618937 27406 net.cpp:399] lstm1_ -> h_0
I0924 03:27:53.618962 27434 net.cpp:91] Creating Layer lstm1_h_conted_0
I0924 03:27:53.618970 27434 net.cpp:425] lstm1_h_conted_0 <- h_0
I0924 03:27:53.618979 27434 net.cpp:425] lstm1_h_conted_0 <- cont_1_lstm1_cont_slice_0_split_0
I0924 03:27:53.618990 27434 net.cpp:399] lstm1_h_conted_0 -> h_conted_0
I0924 03:27:53.619050 27406 net.cpp:141] Setting up lstm1_
I0924 03:27:53.619066 27406 net.cpp:148] Top shape: 1 1 1000 (1000)
I0924 03:27:53.619077 27406 net.cpp:148] Top shape: 1 1 1000 (1000)
I0924 03:27:53.619084 27406 net.cpp:156] Memory required for data: 10004
I0924 03:27:53.619092 27406 layer_factory.hpp:77] Creating layer lstm1_cont_slice
I0924 03:27:53.619105 27406 net.cpp:91] Creating Layer lstm1_cont_slice
I0924 03:27:53.619113 27406 net.cpp:425] lstm1_cont_slice <- cont
I0924 03:27:53.619125 27406 net.cpp:399] lstm1_cont_slice -> cont_1
I0924 03:27:53.619199 27406 net.cpp:141] Setting up lstm1_cont_slice
I0924 03:27:53.619212 27406 net.cpp:148] Top shape: 1 1 (1)
I0924 03:27:53.619218 27406 net.cpp:156] Memory required for data: 10008
I0924 03:27:53.619227 27406 layer_factory.hpp:77] Creating layer cont_1_lstm1_cont_slice_0_split
I0924 03:27:53.619242 27406 net.cpp:91] Creating Layer cont_1_lstm1_cont_slice_0_split
I0924 03:27:53.619251 27406 net.cpp:425] cont_1_lstm1_cont_slice_0_split <- cont_1
I0924 03:27:53.619262 27406 net.cpp:399] cont_1_lstm1_cont_slice_0_split -> cont_1_lstm1_cont_slice_0_split_0
I0924 03:27:53.619276 27406 net.cpp:399] cont_1_lstm1_cont_slice_0_split -> cont_1_lstm1_cont_slice_0_split_1
I0924 03:27:53.619411 27406 net.cpp:141] Setting up cont_1_lstm1_cont_slice_0_split
I0924 03:27:53.619426 27406 net.cpp:148] Top shape: 1 1 (1)
I0924 03:27:53.619436 27406 net.cpp:148] Top shape: 1 1 (1)
I0924 03:27:53.619443 27406 net.cpp:156] Memory required for data: 10016
I0924 03:27:53.619451 27406 layer_factory.hpp:77] Creating layer lstm1_x_transform
I0924 03:27:53.619465 27406 net.cpp:91] Creating Layer lstm1_x_transform
I0924 03:27:53.619473 27406 net.cpp:425] lstm1_x_transform <- x
I0924 03:27:53.619489 27434 net.cpp:141] Setting up lstm1_h_conted_0
I0924 03:27:53.619493 27406 net.cpp:399] lstm1_x_transform -> W_xc_x
I0924 03:27:53.619510 27434 net.cpp:148] Top shape: 1 1 1000 (1000)
I0924 03:27:53.619518 27434 net.cpp:156] Memory required for data: 46016
I0924 03:27:53.619526 27434 layer_factory.hpp:77] Creating layer lstm1_transform_1
I0924 03:27:53.619542 27434 net.cpp:91] Creating Layer lstm1_transform_1
I0924 03:27:53.619550 27434 net.cpp:425] lstm1_transform_1 <- h_conted_0
I0924 03:27:53.619565 27434 net.cpp:399] lstm1_transform_1 -> W_hc_h_0
I0924 03:27:53.625293 27400 net.cpp:141] Setting up lstm1_x_transform
I0924 03:27:53.625358 27400 net.cpp:148] Top shape: 1 1 4000 (4000)
I0924 03:27:53.625376 27400 net.cpp:156] Memory required for data: 26016
I0924 03:27:53.625417 27400 layer_factory.hpp:77] Creating layer lstm1_W_xc_x_slice
I0924 03:27:53.625453 27400 net.cpp:91] Creating Layer lstm1_W_xc_x_slice
I0924 03:27:53.625471 27400 net.cpp:425] lstm1_W_xc_x_slice <- W_xc_x
I0924 03:27:53.625548 27400 net.cpp:399] lstm1_W_xc_x_slice -> W_xc_x_1
I0924 03:27:53.625651 27400 net.cpp:141] Setting up lstm1_W_xc_x_slice
I0924 03:27:53.625680 27400 net.cpp:148] Top shape: 1 1 4000 (4000)
I0924 03:27:53.625695 27400 net.cpp:156] Memory required for data: 42016
I0924 03:27:53.625711 27400 layer_factory.hpp:77] Creating layer lstm1_h_conted_0
I0924 03:27:53.625736 27400 net.cpp:91] Creating Layer lstm1_h_conted_0
I0924 03:27:53.625752 27400 net.cpp:425] lstm1_h_conted_0 <- h_0
I0924 03:27:53.625769 27400 net.cpp:425] lstm1_h_conted_0 <- cont_1_lstm1_cont_slice_0_split_0
I0924 03:27:53.625813 27400 net.cpp:399] lstm1_h_conted_0 -> h_conted_0
I0924 03:27:53.626024 27400 net.cpp:141] Setting up lstm1_h_conted_0
I0924 03:27:53.626039 27400 net.cpp:148] Top shape: 1 1 1000 (1000)
I0924 03:27:53.626046 27400 net.cpp:156] Memory required for data: 46016
I0924 03:27:53.626055 27400 layer_factory.hpp:77] Creating layer lstm1_transform_1
I0924 03:27:53.626083 27400 net.cpp:91] Creating Layer lstm1_transform_1
I0924 03:27:53.626091 27400 net.cpp:425] lstm1_transform_1 <- h_conted_0
I0924 03:27:53.626104 27400 net.cpp:399] lstm1_transform_1 -> W_hc_h_0
I0924 03:27:53.660043 27396 net.cpp:141] Setting up lstm1_x_transform
I0924 03:27:53.660100 27396 net.cpp:148] Top shape: 1 1 4000 (4000)
I0924 03:27:53.660109 27396 net.cpp:156] Memory required for data: 26016
I0924 03:27:53.660137 27396 layer_factory.hpp:77] Creating layer lstm1_W_xc_x_slice
I0924 03:27:53.660148 27406 net.cpp:141] Setting up lstm1_x_transform
I0924 03:27:53.660162 27396 net.cpp:91] Creating Layer lstm1_W_xc_x_slice
I0924 03:27:53.660184 27406 net.cpp:148] Top shape: 1 1 4000 (4000)
I0924 03:27:53.660190 27406 net.cpp:156] Memory required for data: 26016
I0924 03:27:53.660189 27396 net.cpp:425] lstm1_W_xc_x_slice <- W_xc_x
I0924 03:27:53.660215 27406 layer_factory.hpp:77] Creating layer lstm1_W_xc_x_slice
I0924 03:27:53.660218 27396 net.cpp:399] lstm1_W_xc_x_slice -> W_xc_x_1
I0924 03:27:53.660233 27406 net.cpp:91] Creating Layer lstm1_W_xc_x_slice
I0924 03:27:53.660240 27406 net.cpp:425] lstm1_W_xc_x_slice <- W_xc_x
I0924 03:27:53.660262 27406 net.cpp:399] lstm1_W_xc_x_slice -> W_xc_x_1
I0924 03:27:53.686352 27406 net.cpp:141] Setting up lstm1_W_xc_x_slice
I0924 03:27:53.686408 27406 net.cpp:148] Top shape: 1 1 4000 (4000)
I0924 03:27:53.686419 27406 net.cpp:156] Memory required for data: 42016
I0924 03:27:53.686430 27406 layer_factory.hpp:77] Creating layer lstm1_h_conted_0
I0924 03:27:53.686434 27396 net.cpp:141] Setting up lstm1_W_xc_x_slice
I0924 03:27:53.686457 27406 net.cpp:91] Creating Layer lstm1_h_conted_0
I0924 03:27:53.686470 27406 net.cpp:425] lstm1_h_conted_0 <- h_0
I0924 03:27:53.686477 27396 net.cpp:148] Top shape: 1 1 4000 (4000)
I0924 03:27:53.686485 27406 net.cpp:425] lstm1_h_conted_0 <- cont_1_lstm1_cont_slice_0_split_0
I0924 03:27:53.686487 27396 net.cpp:156] Memory required for data: 42016
I0924 03:27:53.686498 27406 net.cpp:399] lstm1_h_conted_0 -> h_conted_0
I0924 03:27:53.686723 27396 layer_factory.hpp:77] Creating layer lstm1_h_conted_0
I0924 03:27:53.686741 27406 net.cpp:141] Setting up lstm1_h_conted_0
I0924 03:27:53.686748 27396 net.cpp:91] Creating Layer lstm1_h_conted_0
I0924 03:27:53.686758 27406 net.cpp:148] Top shape: 1 1 1000 (1000)
I0924 03:27:53.686759 27396 net.cpp:425] lstm1_h_conted_0 <- h_0
I0924 03:27:53.686764 27406 net.cpp:156] Memory required for data: 46016
I0924 03:27:53.686770 27406 layer_factory.hpp:77] Creating layer lstm1_transform_1
I0924 03:27:53.686771 27396 net.cpp:425] lstm1_h_conted_0 <- cont_1_lstm1_cont_slice_0_split_0
I0924 03:27:53.686786 27406 net.cpp:91] Creating Layer lstm1_transform_1
I0924 03:27:53.686800 27406 net.cpp:425] lstm1_transform_1 <- h_conted_0
I0924 03:27:53.686827 27406 net.cpp:399] lstm1_transform_1 -> W_hc_h_0
I0924 03:27:53.686851 27414 net.cpp:141] Setting up embedding
I0924 03:27:53.686868 27414 net.cpp:148] Top shape: 1 1 500 (500)
I0924 03:27:53.686882 27414 net.cpp:156] Memory required for data: 22408
I0924 03:27:53.686905 27414 layer_factory.hpp:77] Creating layer lstm1
I0924 03:27:53.686785 27396 net.cpp:399] lstm1_h_conted_0 -> h_conted_0
I0924 03:27:53.687414 27400 net.cpp:141] Setting up lstm1_transform_1
I0924 03:27:53.687423 27414 net.cpp:91] Creating Layer lstm1
I0924 03:27:53.687446 27400 net.cpp:148] Top shape: 1 1 4000 (4000)
I0924 03:27:53.687451 27414 net.cpp:425] lstm1 <- embedded_input_frames
I0924 03:27:53.687455 27400 net.cpp:156] Memory required for data: 62016
I0924 03:27:53.687464 27414 net.cpp:425] lstm1 <- cont_sentence_input_1_split_0
I0924 03:27:53.687474 27400 layer_factory.hpp:77] Creating layer lstm1_gate_input_1
I0924 03:27:53.687479 27414 net.cpp:399] lstm1 -> lstm1
I0924 03:27:53.687496 27414 recurrent_layer.cpp:20] Initializing recurrent layer: assuming input batch contains 1 timesteps of 1 independent streams.
I0924 03:27:53.693941 27400 net.cpp:91] Creating Layer lstm1_gate_input_1
I0924 03:27:53.694003 27400 net.cpp:425] lstm1_gate_input_1 <- W_hc_h_0
I0924 03:27:53.694020 27400 net.cpp:425] lstm1_gate_input_1 <- W_xc_x_1
I0924 03:27:53.694042 27400 net.cpp:399] lstm1_gate_input_1 -> gate_input_1
I0924 03:27:53.694423 27414 net.cpp:49] Initializing net from parameters: 
layer {
  name: "lstm1_"
  type: "Input"
  top: "x"
  top: "cont"
  input_param {
    shape {
      dim: 1
      dim: 1
      dim: 500
    }
    shape {
      dim: 1
      dim: 1
    }
  }
}
layer {
  name: "lstm1_"
  type: "Input"
  top: "c_0"
  top: "h_0"
  input_param {
    shape {
      dim: 1
      dim: 1
      dim: 1000
    }
    shape {
      dim: 1
      dim: 1
      dim: 1000
    }
  }
}
layer {
  name: "lstm1_cont_slice"
  type: "Slice"
  bottom: "cont"
  top: "cont_1"
  slice_param {
    axis: 0
  }
}
layer {
  name: "lstm1_x_transform"
  type: "InnerProduct"
  bottom: "x"
  top: "W_xc_x"
  param {
    name: "W_xc"
  }
  param {
    name: "b_c"
  }
  propagate_down: true
  inner_product_param {
    num_output: 4000
    bias_term: true
    weight_filler {
      type: "uniform"
      min: -0.08
      max: 0.08
    }
    bias_filler {
      type: "constant"
      value: 0
    }
    axis: 2
  }
}
layer {
  name: "lstm1_W_xc_x_slice"
  type: "Slice"
  bottom: "W_xc_x"
  top: "W_xc_x_1"
  slice_param {
    axis: 0
  }
}
layer {
  name: "lstm1_h_conted_0"
  type: "Scale"
  bottom: "h_0"
  bottom: "cont_1"
  top: "h_conted_0"
  scale_param {
    axis: 0
  }
}
layer {
  name: "lstm1_transform_1"
  type: "InnerProduct"
  bottom: "h_conted_0"
  top: "W_hc_h_0"
  param {
    name: "W_hc"
  }
  inner_product_param {
    num_output: 4000
    bias_term: false
    weight_filler {
      type: "uniform"
      min: -0.08
      max: 0.08
    }
    axis: 2
  }
}
layer {
  name: "lstm1_gate_input_1"
  type: "Eltwise"
  bottom: "W_hc_h_0"
  bottom: "W_xc_x_1"
  top: "gate_input_1"
  eltwise_param {
    operation: SUM
  }
}
layer {
  name: "lstm1_unit_1"
  type: "LSTMUnit"
  bottom: "c_0"
  bottom: "gate_input_1"
  bottom: "cont_1"
  top: "c_1"
  top: "h_1"
}
layer {
  name: "lstm1_"
  type: "Split"
  bottom: "c_1"
  top: "c_T"
}
layer {
  name: "lstm1_h_concat"
  type: "Concat"
  bottom: "h_1"
  top: "h"
  concat_param {
    axis: 0
  }
}
layer {
  name: "h_pseudoloss"
  type: "Reduction"
  bottom: "h"
  top: "h_pseudoloss"
  loss_weight: 1
}
I0924 03:27:53.694563 27414 layer_factory.hpp:77] Creating layer lstm1_
I0924 03:27:53.694586 27414 net.cpp:91] Creating Layer lstm1_
I0924 03:27:53.694610 27414 net.cpp:399] lstm1_ -> x
I0924 03:27:53.694630 27414 net.cpp:399] lstm1_ -> cont
I0924 03:27:53.694924 27396 net.cpp:141] Setting up lstm1_h_conted_0
I0924 03:27:53.694947 27396 net.cpp:148] Top shape: 1 1 1000 (1000)
I0924 03:27:53.694955 27396 net.cpp:156] Memory required for data: 46016
I0924 03:27:53.694964 27396 layer_factory.hpp:77] Creating layer lstm1_transform_1
I0924 03:27:53.694979 27396 net.cpp:91] Creating Layer lstm1_transform_1
I0924 03:27:53.694989 27396 net.cpp:425] lstm1_transform_1 <- h_conted_0
I0924 03:27:53.695003 27396 net.cpp:399] lstm1_transform_1 -> W_hc_h_0
I0924 03:27:53.707744 27434 net.cpp:141] Setting up lstm1_transform_1
I0924 03:27:53.707789 27434 net.cpp:148] Top shape: 1 1 4000 (4000)
I0924 03:27:53.707795 27434 net.cpp:156] Memory required for data: 62016
I0924 03:27:53.707814 27434 layer_factory.hpp:77] Creating layer lstm1_gate_input_1
I0924 03:27:53.707826 27400 net.cpp:141] Setting up lstm1_gate_input_1
I0924 03:27:53.707840 27434 net.cpp:91] Creating Layer lstm1_gate_input_1
I0924 03:27:53.707865 27400 net.cpp:148] Top shape: 1 1 4000 (4000)
I0924 03:27:53.707866 27434 net.cpp:425] lstm1_gate_input_1 <- W_hc_h_0
I0924 03:27:53.707872 27400 net.cpp:156] Memory required for data: 78016
I0924 03:27:53.707877 27434 net.cpp:425] lstm1_gate_input_1 <- W_xc_x_1
I0924 03:27:53.707881 27400 layer_factory.hpp:77] Creating layer lstm1_unit_1
I0924 03:27:53.707886 27434 net.cpp:399] lstm1_gate_input_1 -> gate_input_1
I0924 03:27:53.707916 27414 net.cpp:141] Setting up lstm1_
I0924 03:27:53.707928 27400 net.cpp:91] Creating Layer lstm1_unit_1
I0924 03:27:53.707934 27414 net.cpp:148] Top shape: 1 1 500 (500)
I0924 03:27:53.707938 27400 net.cpp:425] lstm1_unit_1 <- c_0
I0924 03:27:53.707944 27434 net.cpp:141] Setting up lstm1_gate_input_1
I0924 03:27:53.707950 27400 net.cpp:425] lstm1_unit_1 <- gate_input_1
I0924 03:27:53.707944 27414 net.cpp:148] Top shape: 1 1 (1)
I0924 03:27:53.707959 27434 net.cpp:148] Top shape: 1 1 4000 (4000)
I0924 03:27:53.707965 27434 net.cpp:156] Memory required for data: 78016
I0924 03:27:53.707957 27400 net.cpp:425] lstm1_unit_1 <- cont_1_lstm1_cont_slice_0_split_1
I0924 03:27:53.707970 27414 net.cpp:156] Memory required for data: 2004
I0924 03:27:53.707972 27434 layer_factory.hpp:77] Creating layer lstm1_unit_1
I0924 03:27:53.707983 27414 layer_factory.hpp:77] Creating layer lstm1_
I0924 03:27:53.707988 27400 net.cpp:399] lstm1_unit_1 -> c_1
I0924 03:27:53.707991 27434 net.cpp:91] Creating Layer lstm1_unit_1
I0924 03:27:53.707998 27434 net.cpp:425] lstm1_unit_1 <- c_0
I0924 03:27:53.708003 27400 net.cpp:399] lstm1_unit_1 -> h_1
I0924 03:27:53.708003 27434 net.cpp:425] lstm1_unit_1 <- gate_input_1
I0924 03:27:53.708015 27414 net.cpp:91] Creating Layer lstm1_
I0924 03:27:53.708017 27434 net.cpp:425] lstm1_unit_1 <- cont_1_lstm1_cont_slice_0_split_1
I0924 03:27:53.708034 27414 net.cpp:399] lstm1_ -> c_0
I0924 03:27:53.708039 27434 net.cpp:399] lstm1_unit_1 -> c_1
I0924 03:27:53.708051 27434 net.cpp:399] lstm1_unit_1 -> h_1
I0924 03:27:53.708062 27414 net.cpp:399] lstm1_ -> h_0
I0924 03:27:53.708195 27434 net.cpp:141] Setting up lstm1_unit_1
I0924 03:27:53.708206 27434 net.cpp:148] Top shape: 1 1 1000 (1000)
I0924 03:27:53.708212 27434 net.cpp:148] Top shape: 1 1 1000 (1000)
I0924 03:27:53.708216 27434 net.cpp:156] Memory required for data: 86016
I0924 03:27:53.708221 27434 layer_factory.hpp:77] Creating layer lstm1_
I0924 03:27:53.708225 27414 net.cpp:141] Setting up lstm1_
I0924 03:27:53.708230 27434 net.cpp:91] Creating Layer lstm1_
I0924 03:27:53.708235 27434 net.cpp:425] lstm1_ <- c_1
I0924 03:27:53.708237 27414 net.cpp:148] Top shape: 1 1 1000 (1000)
I0924 03:27:53.708243 27434 net.cpp:399] lstm1_ -> c_T
I0924 03:27:53.708243 27414 net.cpp:148] Top shape: 1 1 1000 (1000)
I0924 03:27:53.708254 27414 net.cpp:156] Memory required for data: 10004
I0924 03:27:53.708262 27414 layer_factory.hpp:77] Creating layer lstm1_cont_slice
I0924 03:27:53.708281 27414 net.cpp:91] Creating Layer lstm1_cont_slice
I0924 03:27:53.708287 27414 net.cpp:425] lstm1_cont_slice <- cont
I0924 03:27:53.708294 27414 net.cpp:399] lstm1_cont_slice -> cont_1
I0924 03:27:53.708299 27434 net.cpp:141] Setting up lstm1_
I0924 03:27:53.708309 27434 net.cpp:148] Top shape: 1 1 1000 (1000)
I0924 03:27:53.708313 27434 net.cpp:156] Memory required for data: 90016
I0924 03:27:53.708318 27434 layer_factory.hpp:77] Creating layer lstm1_h_concat
I0924 03:27:53.708328 27434 net.cpp:91] Creating Layer lstm1_h_concat
I0924 03:27:53.708335 27434 net.cpp:425] lstm1_h_concat <- h_1
I0924 03:27:53.708343 27434 net.cpp:399] lstm1_h_concat -> h
I0924 03:27:53.708350 27400 net.cpp:141] Setting up lstm1_unit_1
I0924 03:27:53.708362 27400 net.cpp:148] Top shape: 1 1 1000 (1000)
I0924 03:27:53.708369 27400 net.cpp:148] Top shape: 1 1 1000 (1000)
I0924 03:27:53.708372 27400 net.cpp:156] Memory required for data: 86016
I0924 03:27:53.708379 27400 layer_factory.hpp:77] Creating layer lstm1_
I0924 03:27:53.708386 27400 net.cpp:91] Creating Layer lstm1_
I0924 03:27:53.708391 27400 net.cpp:425] lstm1_ <- c_1
I0924 03:27:53.708400 27400 net.cpp:399] lstm1_ -> c_T
I0924 03:27:53.708398 27414 net.cpp:141] Setting up lstm1_cont_slice
I0924 03:27:53.708412 27414 net.cpp:148] Top shape: 1 1 (1)
I0924 03:27:53.708417 27414 net.cpp:156] Memory required for data: 10008
I0924 03:27:53.708425 27414 layer_factory.hpp:77] Creating layer cont_1_lstm1_cont_slice_0_split
I0924 03:27:53.708425 27434 net.cpp:141] Setting up lstm1_h_concat
I0924 03:27:53.708436 27434 net.cpp:148] Top shape: 1 1 1000 (1000)
I0924 03:27:53.708436 27414 net.cpp:91] Creating Layer cont_1_lstm1_cont_slice_0_split
I0924 03:27:53.708441 27434 net.cpp:156] Memory required for data: 94016
I0924 03:27:53.708451 27414 net.cpp:425] cont_1_lstm1_cont_slice_0_split <- cont_1
I0924 03:27:53.708452 27434 layer_factory.hpp:77] Creating layer h_pseudoloss
I0924 03:27:53.708462 27414 net.cpp:399] cont_1_lstm1_cont_slice_0_split -> cont_1_lstm1_cont_slice_0_split_0
I0924 03:27:53.708472 27414 net.cpp:399] cont_1_lstm1_cont_slice_0_split -> cont_1_lstm1_cont_slice_0_split_1
I0924 03:27:53.708475 27434 net.cpp:91] Creating Layer h_pseudoloss
I0924 03:27:53.708482 27434 net.cpp:425] h_pseudoloss <- h
I0924 03:27:53.708482 27400 net.cpp:141] Setting up lstm1_
I0924 03:27:53.708488 27434 net.cpp:399] h_pseudoloss -> h_pseudoloss
I0924 03:27:53.708494 27400 net.cpp:148] Top shape: 1 1 1000 (1000)
I0924 03:27:53.708499 27400 net.cpp:156] Memory required for data: 90016
I0924 03:27:53.708504 27400 layer_factory.hpp:77] Creating layer lstm1_h_concat
I0924 03:27:53.708514 27400 net.cpp:91] Creating Layer lstm1_h_concat
I0924 03:27:53.708519 27400 net.cpp:425] lstm1_h_concat <- h_1
I0924 03:27:53.708528 27400 net.cpp:399] lstm1_h_concat -> h
I0924 03:27:53.708562 27414 net.cpp:141] Setting up cont_1_lstm1_cont_slice_0_split
I0924 03:27:53.708573 27414 net.cpp:148] Top shape: 1 1 (1)
I0924 03:27:53.708580 27414 net.cpp:148] Top shape: 1 1 (1)
I0924 03:27:53.708585 27414 net.cpp:156] Memory required for data: 10016
I0924 03:27:53.708595 27414 layer_factory.hpp:77] Creating layer lstm1_x_transform
I0924 03:27:53.708614 27414 net.cpp:91] Creating Layer lstm1_x_transform
I0924 03:27:53.708621 27414 net.cpp:425] lstm1_x_transform <- x
I0924 03:27:53.708631 27414 net.cpp:399] lstm1_x_transform -> W_xc_x
I0924 03:27:53.708676 27400 net.cpp:141] Setting up lstm1_h_concat
I0924 03:27:53.708688 27400 net.cpp:148] Top shape: 1 1 1000 (1000)
I0924 03:27:53.708693 27400 net.cpp:156] Memory required for data: 94016
I0924 03:27:53.708698 27400 layer_factory.hpp:77] Creating layer h_pseudoloss
I0924 03:27:53.708708 27400 net.cpp:91] Creating Layer h_pseudoloss
I0924 03:27:53.708712 27400 net.cpp:425] h_pseudoloss <- h
I0924 03:27:53.708720 27400 net.cpp:399] h_pseudoloss -> h_pseudoloss
I0924 03:27:53.708720 27434 net.cpp:141] Setting up h_pseudoloss
…
I0924 03:27:53.714380 27400 recurrent_layer.cpp:150] Adding parameter 2: W_hc
I0924 03:27:53.718703 27434 net.cpp:49] Initializing net from parameters: 
layer {
  name: "lstm2_"
  type: "Input"
  top: "x"
  top: "cont"
  input_param {
    shape {
      dim: 1
      dim: 1
      dim: 1501
    }
    shape {
      dim: 1
      dim: 1
    }
  }
}
layer {
  name: "lstm2_"
  type: "Input"
  top: "c_0"
  top: "h_0"
  input_param {
    shape {
      dim: 1
      dim: 1
      dim: 1000
    }
    shape {
      dim: 1
      dim: 1
      dim: 1000
    }
  }
}
layer {
  name: "lstm2_cont_slice"
  type: "Slice"
  bottom: "cont"
  top: "cont_1"
  slice_param {
    axis: 0
  }
}
layer {
  name: "lstm2_x_transform"
  type: "InnerProduct"
  bottom: "x"
  top: "W_xc_x"
  param {
    name: "W_xc"
  }
  param {
    name: "b_c"
  }
  propagate_down: true
  inner_product_param {
    num_output: 4000
    bias_term: true
    weight_filler {
      type: "uniform"
      min: -0.08
      max: 0.08
    }
    bias_filler {
      type: "constant"
      value: 0
    }
    axis: 2
  }
}
layer {
  name: "lstm2_W_xc_x_slice"
  type: "Slice"
  bottom: "W_xc_x"
  top: "W_xc_x_1"
  slice_param {
    axis: 0
  }
}
layer {
  name: "lstm2_h_conted_0"
  type: "Scale"
  bottom: "h_0"
  bottom: "cont_1"
  top: "h_conted_0"
  scale_param {
    axis: 0
  }
}
layer {
  name: "lstm2_transform_1"
  type: "InnerProduct"
  bottom: "h_conted_0"
  top: "W_hc_h_0"
  param {
    name: "W_hc"
  }
  inner_product_param {
    num_output: 4000
    bias_term: false
    weight_filler {
      type: "uniform"
      min: -0.08
      max: 0.08
    }
    axis: 2
  }
}
layer {
  name: "lstm2_gate_input_1"
  type: "Eltwise"
  bottom: "W_hc_h_0"
  bottom: "W_xc_x_1"
  top: "gate_input_1"
  eltwise_param {
    operation: SUM
  }
}
layer {
  name: "lstm2_unit_1"
  type: "LSTMUnit"
  bottom: "c_0"
  bottom: "gate_input_1"
  bottom: "cont_1"
  top: "c_1"
  top: "h_1"
}
layer {
  name: "lstm2_"
  type: "Split"
  bottom: "c_1"
  top: "c_T"
}
layer {
  name: "lstm2_h_concat"
  type: "Concat"
  bottom: "h_1"
  top: "h"
  concat_param {
    axis: 0
  }
}
layer {
  name: "h_pseudoloss"
  type: "Reduction"
  bottom: "h"
  top: "h_pseudoloss"
  loss_weight: 1
}
I0924 03:27:53.718920 27434 layer_factory.hpp:77] Creating layer lstm2_
I0924 03:27:53.718945 27434 net.cpp:91] Creating Layer lstm2_
I0924 03:27:53.718956 27434 net.cpp:399] lstm2_ -> x
I0924 03:27:53.718981 27434 net.cpp:399] lstm2_ -> cont
I0924 03:27:53.727946 27440 net.cpp:141] Setting up embedding
I0924 03:27:53.727987 27440 net.cpp:148] Top shape: 1 1 500 (500)
I0924 03:27:53.727993 27440 net.cpp:156] Memory required for data: 22408
I0924 03:27:53.728009 27440 layer_factory.hpp:77] Creating layer lstm1
I0924 03:27:53.728029 27440 net.cpp:91] Creating Layer lstm1
I0924 03:27:53.728035 27440 net.cpp:425] lstm1 <- embedded_input_frames
I0924 03:27:53.728044 27440 net.cpp:425] lstm1 <- cont_sentence_input_1_split_0
I0924 03:27:53.728055 27440 net.cpp:399] lstm1 -> lstm1
I0924 03:27:53.728071 27440 recurrent_layer.cpp:20] Initializing recurrent layer: assuming input batch contains 1 timesteps of 1 independent streams.
I0924 03:27:53.728081 27434 net.cpp:141] Setting up lstm2_
I0924 03:27:53.728123 27434 net.cpp:148] Top shape: 1 1 1501 (1501)
I0924 03:27:53.728137 27434 net.cpp:148] Top shape: 1 1 (1)
I0924 03:27:53.728145 27434 net.cpp:156] Memory required for data: 6008
I0924 03:27:53.728157 27434 layer_factory.hpp:77] Creating layer lstm2_
I0924 03:27:53.728183 27434 net.cpp:91] Creating Layer lstm2_
I0924 03:27:53.728202 27434 net.cpp:399] lstm2_ -> c_0
I0924 03:27:53.728229 27434 net.cpp:399] lstm2_ -> h_0
I0924 03:27:53.728324 27400 net.cpp:141] Setting up lstm1
I0924 03:27:53.728345 27400 net.cpp:148] Top shape: 1 1 1000 (1000)
I0924 03:27:53.728353 27400 net.cpp:156] Memory required for data: 26408
I0924 03:27:53.728374 27400 layer_factory.hpp:77] Creating layer concat
I0924 03:27:53.728379 27440 net.cpp:49] Initializing net from parameters: 
layer {
  name: "lstm1_"
  type: "Input"
  top: "x"
  top: "cont"
  input_param {
    shape {
      dim: 1
      dim: 1
      dim: 500
    }
    shape {
      dim: 1
      dim: 1
    }
  }
}
layer {
  name: "lstm1_"
  type: "Input"
  top: "c_0"
  top: "h_0"
  input_param {
    shape {
      dim: 1
      dim: 1
      dim: 1000
    }
    shape {
      dim: 1
      dim: 1
      dim: 1000
    }
  }
}
layer {
  name: "lstm1_cont_slice"
  type: "Slice"
  bottom: "cont"
  top: "cont_1"
  slice_param {
    axis: 0
  }
}
layer {
  name: "lstm1_x_transform"
  type: "InnerProduct"
  bottom: "x"
  top: "W_xc_x"
  param {
    name: "W_xc"
  }
  param {
    name: "b_c"
  }
  propagate_down: true
  inner_product_param {
    num_output: 4000
    bias_term: true
    weight_filler {
      type: "uniform"
      min: -0.08
      max: 0.08
    }
    bias_filler {
      type: "constant"
      value: 0
    }
    axis: 2
  }
}
layer {
  name: "lstm1_W_xc_x_slice"
  type: "Slice"
  bottom: "W_xc_x"
  top: "W_xc_x_1"
  slice_param {
    axis: 0
  }
}
layer {
  name: "lstm1_h_conted_0"
  type: "Scale"
  bottom: "h_0"
  bottom: "cont_1"
  top: "h_conted_0"
  scale_param {
    axis: 0
  }
}
layer {
  name: "lstm1_transform_1"
  type: "InnerProduct"
  bottom: "h_conted_0"
  top: "W_hc_h_0"
  param {
    name: "W_hc"
  }
  inner_product_param {
    num_output: 4000
    bias_term: false
    weight_filler {
      type: "uniform"
      min: -0.08
      max: 0.08
    }
    axis: 2
  }
}
layer {
  name: "lstm1_gate_input_1"
  type: "Eltwise"
  bottom: "W_hc_h_0"
  bottom: "W_xc_x_1"
  top: "gate_input_1"
  eltwise_param {
    operation: SUM
  }
}
layer {
  name: "lstm1_unit_1"
  type: "LSTMUnit"
  bottom: "c_0"
  bottom: "gate_input_1"
  bottom: "cont_1"
  top: "c_1"
  top: "h_1"
}
layer {
  name: "lstm1_"
  type: "Split"
  bottom: "c_1"
  top: "c_T"
}
layer {
  name: "lstm1_h_concat"
  type: "Concat"
  bottom: "h_1"
  top: "h"
  concat_param {
    axis: 0
  }
}
layer {
  name: "h_pseudoloss"
  type: "Reduction"
  bottom: "h"
  top: "h_pseudoloss"
  loss_weight: 1
}
I0924 03:27:53.728389 27400 net.cpp:91] Creating Layer concat
I0924 03:27:53.728397 27400 net.cpp:425] concat <- lstm1
I0924 03:27:53.728406 27400 net.cpp:425] concat <- embedded_input_sentence
I0924 03:27:53.728415 27400 net.cpp:425] concat <- reshaped_stage_indicator
I0924 03:27:53.728425 27400 net.cpp:399] concat -> lstm1_video_sequence
I0924 03:27:53.728478 27440 layer_factory.hpp:77] Creating layer lstm1_
I0924 03:27:53.728492 27440 net.cpp:91] Creating Layer lstm1_
I0924 03:27:53.728498 27440 net.cpp:399] lstm1_ -> x
I0924 03:27:53.728509 27440 net.cpp:399] lstm1_ -> cont
I0924 03:27:53.729506 27434 net.cpp:141] Setting up lstm2_
I0924 03:27:53.729526 27434 net.cpp:148] Top shape: 1 1 1000 (1000)
I0924 03:27:53.729537 27434 net.cpp:148] Top shape: 1 1 1000 (1000)
I0924 03:27:53.729543 27434 net.cpp:156] Memory required for data: 14008
I0924 03:27:53.729550 27434 layer_factory.hpp:77] Creating layer lstm2_cont_slice
I0924 03:27:53.729573 27434 net.cpp:91] Creating Layer lstm2_cont_slice
I0924 03:27:53.729584 27434 net.cpp:425] lstm2_cont_slice <- cont
I0924 03:27:53.729598 27434 net.cpp:399] lstm2_cont_slice -> cont_1
I0924 03:27:53.729655 27434 net.cpp:141] Setting up lstm2_cont_slice
I0924 03:27:53.729670 27434 net.cpp:148] Top shape: 1 1 (1)
I0924 03:27:53.729676 27434 net.cpp:156] Memory required for data: 14012
I0924 03:27:53.729684 27434 layer_factory.hpp:77] Creating layer cont_1_lstm2_cont_slice_0_split
I0924 03:27:53.729697 27434 net.cpp:91] Creating Layer cont_1_lstm2_cont_slice_0_split
I0924 03:27:53.729706 27434 net.cpp:425] cont_1_lstm2_cont_slice_0_split <- cont_1
I0924 03:27:53.729723 27434 net.cpp:399] cont_1_lstm2_cont_slice_0_split -> cont_1_lstm2_cont_slice_0_split_0
I0924 03:27:53.729739 27434 net.cpp:399] cont_1_lstm2_cont_slice_0_split -> cont_1_lstm2_cont_slice_0_split_1
I0924 03:27:53.729823 27434 net.cpp:141] Setting up cont_1_lstm2_cont_slice_0_split
I0924 03:27:53.729838 27434 net.cpp:148] Top shape: 1 1 (1)
I0924 03:27:53.729848 27434 net.cpp:148] Top shape: 1 1 (1)
I0924 03:27:53.729854 27434 net.cpp:156] Memory required for data: 14020
I0924 03:27:53.729862 27434 layer_factory.hpp:77] Creating layer lstm2_x_transform
I0924 03:27:53.729887 27434 net.cpp:91] Creating Layer lstm2_x_transform
I0924 03:27:53.729894 27434 net.cpp:425] lstm2_x_transform <- x
I0924 03:27:53.729907 27434 net.cpp:399] lstm2_x_transform -> W_xc_x
I0924 03:27:53.745947 27440 net.cpp:141] Setting up lstm1_
I0924 03:27:53.746006 27440 net.cpp:148] Top shape: 1 1 500 (500)
I0924 03:27:53.746021 27440 net.cpp:148] Top shape: 1 1 (1)
I0924 03:27:53.746029 27440 net.cpp:156] Memory required for data: 2004
I0924 03:27:53.746044 27440 layer_factory.hpp:77] Creating layer lstm1_
I0924 03:27:53.746078 27440 net.cpp:91] Creating Layer lstm1_
I0924 03:27:53.746101 27440 net.cpp:399] lstm1_ -> c_0
I0924 03:27:53.746131 27440 net.cpp:399] lstm1_ -> h_0
I0924 03:27:53.746147 27414 net.cpp:141] Setting up lstm1_x_transform
I0924 03:27:53.746184 27414 net.cpp:148] Top shape: 1 1 4000 (4000)
I0924 03:27:53.746191 27414 net.cpp:156] Memory required for data: 26016
I0924 03:27:53.746212 27414 layer_factory.hpp:77] Creating layer lstm1_W_xc_x_slice
I0924 03:27:53.746227 27414 net.cpp:91] Creating Layer lstm1_W_xc_x_slice
I0924 03:27:53.746234 27414 net.cpp:425] lstm1_W_xc_x_slice <- W_xc_x
I0924 03:27:53.746244 27414 net.cpp:399] lstm1_W_xc_x_slice -> W_xc_x_1
I0924 03:27:53.746245 27440 net.cpp:141] Setting up lstm1_
I0924 03:27:53.746264 27440 net.cpp:148] Top shape: 1 1 1000 (1000)
I0924 03:27:53.746275 27440 net.cpp:148] Top shape: 1 1 1000 (1000)
I0924 03:27:53.746282 27440 net.cpp:156] Memory required for data: 10004
I0924 03:27:53.746289 27440 layer_factory.hpp:77] Creating layer lstm1_cont_slice
I0924 03:27:53.746310 27440 net.cpp:91] Creating Layer lstm1_cont_slice
I0924 03:27:53.746320 27440 net.cpp:425] lstm1_cont_slice <- cont
I0924 03:27:53.746333 27440 net.cpp:399] lstm1_cont_slice -> cont_1
I0924 03:27:53.746341 27414 net.cpp:141] Setting up lstm1_W_xc_x_slice
I0924 03:27:53.746359 27414 net.cpp:148] Top shape: 1 1 4000 (4000)
I0924 03:27:53.746367 27414 net.cpp:156] Memory required for data: 42016
I0924 03:27:53.746376 27414 layer_factory.hpp:77] Creating layer lstm1_h_conted_0
I0924 03:27:53.746402 27440 net.cpp:141] Setting up lstm1_cont_slice
I0924 03:27:53.746407 27414 net.cpp:91] Creating Layer lstm1_h_conted_0
I0924 03:27:53.746430 27440 net.cpp:148] Top shape: 1 1 (1)
I0924 03:27:53.746433 27414 net.cpp:425] lstm1_h_conted_0 <- h_0
I0924 03:27:53.746443 27440 net.cpp:156] Memory required for data: 10008
I0924 03:27:53.746451 27414 net.cpp:425] lstm1_h_conted_0 <- cont_1_lstm1_cont_slice_0_split_0
I0924 03:27:53.746453 27440 layer_factory.hpp:77] Creating layer cont_1_lstm1_cont_slice_0_split
I0924 03:27:53.746462 27414 net.cpp:399] lstm1_h_conted_0 -> h_conted_0
I0924 03:27:53.746469 27440 net.cpp:91] Creating Layer cont_1_lstm1_cont_slice_0_split
I0924 03:27:53.746479 27440 net.cpp:425] cont_1_lstm1_cont_slice_0_split <- cont_1
I0924 03:27:53.746495 27440 net.cpp:399] cont_1_lstm1_cont_slice_0_split -> cont_1_lstm1_cont_slice_0_split_0
I0924 03:27:53.746510 27440 net.cpp:399] cont_1_lstm1_cont_slice_0_split -> cont_1_lstm1_cont_slice_0_split_1
I0924 03:27:53.746621 27406 net.cpp:141] Setting up lstm1_transform_1
I0924 03:27:53.746641 27406 net.cpp:148] Top shape: 1 1 4000 (4000)
I0924 03:27:53.746646 27406 net.cpp:156] Memory required for data: 62016
I0924 03:27:53.746659 27406 layer_factory.hpp:77] Creating layer lstm1_gate_input_1
I0924 03:27:53.746683 27406 net.cpp:91] Creating Layer lstm1_gate_input_1
I0924 03:27:53.746691 27406 net.cpp:425] lstm1_gate_input_1 <- W_hc_h_0
I0924 03:27:53.746698 27406 net.cpp:425] lstm1_gate_input_1 <- W_xc_x_1
I0924 03:27:53.746706 27406 net.cpp:399] lstm1_gate_input_1 -> gate_input_1
I0924 03:27:53.746758 27406 net.cpp:141] Setting up lstm1_gate_input_1
I0924 03:27:53.746768 27406 net.cpp:148] Top shape: 1 1 4000 (4000)
I0924 03:27:53.746773 27406 net.cpp:156] Memory required for data: 78016
I0924 03:27:53.746778 27406 layer_factory.hpp:77] Creating layer lstm1_unit_1
I0924 03:27:53.746788 27406 net.cpp:91] Creating Layer lstm1_unit_1
I0924 03:27:53.746793 27406 net.cpp:425] lstm1_unit_1 <- c_0
I0924 03:27:53.746798 27406 net.cpp:425] lstm1_unit_1 <- gate_input_1
I0924 03:27:53.746804 27406 net.cpp:425] lstm1_unit_1 <- cont_1_lstm1_cont_slice_0_split_1
I0924 03:27:53.746815 27406 net.cpp:399] lstm1_unit_1 -> c_1
I0924 03:27:53.746825 27406 net.cpp:399] lstm1_unit_1 -> h_1
I0924 03:27:53.746855 27440 net.cpp:141] Setting up cont_1_lstm1_cont_slice_0_split
I0924 03:27:53.746881 27440 net.cpp:148] Top shape: 1 1 (1)
I0924 03:27:53.746894 27440 net.cpp:148] Top shape: 1 1 (1)
I0924 03:27:53.746903 27440 net.cpp:156] Memory required for data: 10016
I0924 03:27:53.746907 27414 net.cpp:141] Setting up lstm1_h_conted_0
I0924 03:27:53.746912 27440 layer_factory.hpp:77] Creating layer lstm1_x_transform
I0924 03:27:53.746922 27414 net.cpp:148] Top shape: 1 1 1000 (1000)
I0924 03:27:53.746927 27414 net.cpp:156] Memory required for data: 46016
I0924 03:27:53.746932 27414 layer_factory.hpp:77] Creating layer lstm1_transform_1
I0924 03:27:53.746937 27440 net.cpp:91] Creating Layer lstm1_x_transform
I0924 03:27:53.746948 27440 net.cpp:425] lstm1_x_transform <- x
I0924 03:27:53.746949 27414 net.cpp:91] Creating Layer lstm1_transform_1
I0924 03:27:53.746970 27414 net.cpp:425] lstm1_transform_1 <- h_conted_0
I0924 03:27:53.746973 27440 net.cpp:399] lstm1_x_transform -> W_xc_x
I0924 03:27:53.746978 27406 net.cpp:141] Setting up lstm1_unit_1
I0924 03:27:53.746985 27414 net.cpp:399] lstm1_transform_1 -> W_hc_h_0
I0924 03:27:53.746991 27406 net.cpp:148] Top shape: 1 1 1000 (1000)
I0924 03:27:53.746999 27406 net.cpp:148] Top shape: 1 1 1000 (1000)
I0924 03:27:53.747002 27406 net.cpp:156] Memory required for data: 86016
I0924 03:27:53.747007 27406 layer_factory.hpp:77] Creating layer lstm1_
I0924 03:27:53.747016 27406 net.cpp:91] Creating Layer lstm1_
I0924 03:27:53.747020 27406 net.cpp:425] lstm1_ <- c_1
I0924 03:27:53.747028 27406 net.cpp:399] lstm1_ -> c_T
I0924 03:27:53.747074 27400 net.cpp:141] Setting up concat
I0924 03:27:53.747095 27400 net.cpp:148] Top shape: 1 1 1501 (1501)
I0924 03:27:53.747105 27400 net.cpp:156] Memory required for data: 32412
I0924 03:27:53.747115 27400 layer_factory.hpp:77] Creating layer lstm2
I0924 03:27:53.747138 27400 net.cpp:91] Creating Layer lstm2
I0924 03:27:53.747151 27400 net.cpp:425] lstm2 <- lstm1_video_sequence
I0924 03:27:53.747164 27400 net.cpp:425] lstm2 <- cont_sentence_input_1_split_1
I0924 03:27:53.747180 27400 net.cpp:399] lstm2 -> lstm2
I0924 03:27:53.747203 27400 recurrent_layer.cpp:20] Initializing recurrent layer: assuming input batch contains 1 timesteps of 1 independent streams.
I0924 03:27:53.747475 27406 net.cpp:141] Setting up lstm1_
I0924 03:27:53.747491 27406 net.cpp:148] Top shape: 1 1 1000 (1000)
I0924 03:27:53.747496 27406 net.cpp:156] Memory required for data: 90016
I0924 03:27:53.747501 27406 layer_factory.hpp:77] Creating layer lstm1_h_concat
I0924 03:27:53.747512 27406 net.cpp:91] Creating Layer lstm1_h_concat
I0924 03:27:53.747520 27406 net.cpp:425] lstm1_h_concat <- h_1
I0924 03:27:53.747529 27406 net.cpp:399] lstm1_h_concat -> h
I0924 03:27:53.759821 27400 net.cpp:49] Initializing net from parameters: 
layer {
  name: "lstm2_"
  type: "Input"
  top: "x"
  top: "cont"
  input_param {
    shape {
      dim: 1
      dim: 1
      dim: 1501
    }
    shape {
      dim: 1
      dim: 1
    }
  }
}
layer {
  name: "lstm2_"
  type: "Input"
  top: "c_0"
  top: "h_0"
  input_param {
    shape {
      dim: 1
      dim: 1
      dim: 1000
    }
    shape {
      dim: 1
      dim: 1
      dim: 1000
    }
  }
}
layer {
  name: "lstm2_cont_slice"
  type: "Slice"
  bottom: "cont"
  top: "cont_1"
  slice_param {
    axis: 0
  }
}
layer {
  name: "lstm2_x_transform"
  type: "InnerProduct"
  bottom: "x"
  top: "W_xc_x"
  param {
    name: "W_xc"
  }
  param {
    name: "b_c"
  }
  propagate_down: true
  inner_product_param {
    num_output: 4000
    bias_term: true
    weight_filler {
      type: "uniform"
      min: -0.08
      max: 0.08
    }
    bias_filler {
      type: "constant"
      value: 0
    }
    axis: 2
  }
}
layer {
  name: "lstm2_W_xc_x_slice"
  type: "Slice"
  bottom: "W_xc_x"
  top: "W_xc_x_1"
  slice_param {
    axis: 0
  }
}
layer {
  name: "lstm2_h_conted_0"
  type: "Scale"
  bottom: "h_0"
  bottom: "cont_1"
  top: "h_conted_0"
  scale_param {
    axis: 0
  }
}
layer {
  name: "lstm2_transform_1"
  type: "InnerProduct"
  bottom: "h_conted_0"
  top: "W_hc_h_0"
  param {
    name: "W_hc"
  }
  inner_product_param {
    num_output: 4000
    bias_term: false
    weight_filler {
      type: "uniform"
      min: -0.08
      max: 0.08
    }
    axis: 2
  }
}
layer {
  name: "lstm2_gate_input_1"
  type: "Eltwise"
  bottom: "W_hc_h_0"
  bottom: "W_xc_x_1"
  top: "gate_input_1"
  eltwise_param {
    operation: SUM
  }
}
layer {
  name: "lstm2_unit_1"
  type: "LSTMUnit"
  bottom: "c_0"
  bottom: "gate_input_1"
  bottom: "cont_1"
  top: "c_1"
  top: "h_1"
}
layer {
  name: "lstm2_"
  type: "Split"
  bottom: "c_1"
  top: "c_T"
}
layer {
  name: "lstm2_h_concat"
  type: "Concat"
  bottom: "h_1"
  top: "h"
  concat_param {
    axis: 0
  }
}
layer {
  name: "h_pseudoloss"
  type: "Reduction"
  bottom: "h"
  top: "h_pseudoloss"
  loss_weight: 1
}
I0924 03:27:53.760025 27400 layer_factory.hpp:77] Creating layer lstm2_
I0924 03:27:53.760047 27400 net.cpp:91] Creating Layer lstm2_
I0924 03:27:53.760059 27400 net.cpp:399] lstm2_ -> x
I0924 03:27:53.760084 27400 net.cpp:399] lstm2_ -> cont
I0924 03:27:53.784853 27400 net.cpp:141] Setting up lstm2_
I0924 03:27:53.784914 27400 net.cpp:148] Top shape: 1 1 1501 (1501)
I0924 03:27:53.784930 27400 net.cpp:148] Top shape: 1 1 (1)
I0924 03:27:53.784939 27400 net.cpp:156] Memory required for data: 6008
I0924 03:27:53.784955 27400 layer_factory.hpp:77] Creating layer lstm2_
I0924 03:27:53.784988 27400 net.cpp:91] Creating Layer lstm2_
I0924 03:27:53.785061 27400 net.cpp:399] lstm2_ -> c_0
I0924 03:27:53.785100 27400 net.cpp:399] lstm2_ -> h_0
I0924 03:27:53.789297 27406 net.cpp:141] Setting up lstm1_h_concat
I0924 03:27:53.789355 27406 net.cpp:148] Top shape: 1 1 1000 (1000)
I0924 03:27:53.789366 27406 net.cpp:156] Memory required for data: 94016
I0924 03:27:53.789379 27406 layer_factory.hpp:77] Creating layer h_pseudoloss
I0924 03:27:53.789633 27406 net.cpp:91] Creating Layer h_pseudoloss
I0924 03:27:53.789654 27406 net.cpp:425] h_pseudoloss <- h
I0924 03:27:53.789666 27396 net.cpp:141] Setting up lstm1_transform_1
I0924 03:27:53.789670 27406 net.cpp:399] h_pseudoloss -> h_pseudoloss
I0924 03:27:53.789690 27396 net.cpp:148] Top shape: 1 1 4000 (4000)
I0924 03:27:53.789695 27396 net.cpp:156] Memory required for data: 62016
I0924 03:27:53.789710 27396 layer_factory.hpp:77] Creating layer lstm1_gate_input_1
I0924 03:27:53.789731 27396 net.cpp:91] Creating Layer lstm1_gate_input_1
I0924 03:27:53.789738 27396 net.cpp:425] lstm1_gate_input_1 <- W_hc_h_0
I0924 03:27:53.789746 27396 net.cpp:425] lstm1_gate_input_1 <- W_xc_x_1
I0924 03:27:53.789759 27396 net.cpp:399] lstm1_gate_input_1 -> gate_input_1
I0924 03:27:53.816390 27400 net.cpp:141] Setting up lstm2_
I0924 03:27:53.816443 27400 net.cpp:148] Top shape: 1 1 1000 (1000)
I0924 03:27:53.816457 27400 net.cpp:148] Top shape: 1 1 1000 (1000)
I0924 03:27:53.816462 27400 net.cpp:156] Memory required for data: 14008
I0924 03:27:53.816470 27400 layer_factory.hpp:77] Creating layer lstm2_cont_slice
I0924 03:27:53.816490 27400 net.cpp:91] Creating Layer lstm2_cont_slice
I0924 03:27:53.816498 27400 net.cpp:425] lstm2_cont_slice <- cont
I0924 03:27:53.816509 27400 net.cpp:399] lstm2_cont_slice -> cont_1
I0924 03:27:53.816676 27414 net.cpp:141] Setting up lstm1_transform_1
I0924 03:27:53.816715 27414 net.cpp:148] Top shape: 1 1 4000 (4000)
I0924 03:27:53.816722 27414 net.cpp:156] Memory required for data: 62016
I0924 03:27:53.816722 27402 net.cpp:141] Setting up embedding
I0924 03:27:53.816745 27414 layer_factory.hpp:77] Creating layer lstm1_gate_input_1
I0924 03:27:53.816748 27402 net.cpp:148] Top shape: 1 1 500 (500)
I0924 03:27:53.816759 27402 net.cpp:156] Memory required for data: 22408
I0924 03:27:53.816769 27414 net.cpp:91] Creating Layer lstm1_gate_input_1
I0924 03:27:53.816778 27402 layer_factory.hpp:77] Creating layer lstm1
I0924 03:27:53.816779 27414 net.cpp:425] lstm1_gate_input_1 <- W_hc_h_0
I0924 03:27:53.816790 27414 net.cpp:425] lstm1_gate_input_1 <- W_xc_x_1
I0924 03:27:53.816795 27402 net.cpp:91] Creating Layer lstm1
I0924 03:27:53.816802 27402 net.cpp:425] lstm1 <- embedded_input_frames
I0924 03:27:53.816805 27414 net.cpp:399] lstm1_gate_input_1 -> gate_input_1
I0924 03:27:53.816812 27402 net.cpp:425] lstm1 <- cont_sentence_input_1_split_0
I0924 03:27:53.816812 27400 net.cpp:141] Setting up lstm2_cont_slice
I0924 03:27:53.816823 27402 net.cpp:399] lstm1 -> lstm1
I0924 03:27:53.816824 27400 net.cpp:148] Top shape: 1 1 (1)
I0924 03:27:53.816829 27400 net.cpp:156] Memory required for data: 14012
I0924 03:27:53.816834 27400 layer_factory.hpp:77] Creating layer cont_1_lstm2_cont_slice_0_split
I0924 03:27:53.816838 27402 recurrent_layer.cpp:20] Initializing recurrent layer: assuming input batch contains 1 timesteps of 1 independent streams.
I0924 03:27:53.816854 27400 net.cpp:91] Creating Layer cont_1_lstm2_cont_slice_0_split
…
I0924 03:27:53.817018 27406 net.cpp:219] lstm1_cont_slice does not need backward computation.
I0924 03:27:53.817025 27406 net.cpp:219] lstm1_ does not need backward computation.
I0924 03:27:53.817031 27406 net.cpp:219] lstm1_ does not need backward computation.
I0924 03:27:53.817037 27406 net.cpp:261] This network produces output c_T
I0924 03:27:53.817044 27406 net.cpp:261] This network produces output h_pseudoloss
I0924 03:27:53.817083 27406 net.cpp:274] Network initialization done.
I0924 03:27:53.817121 27434 net.cpp:141] Setting up lstm2_x_transform
I0924 03:27:53.817140 27434 net.cpp:148] Top shape: 1 1 4000 (4000)
I0924 03:27:53.817147 27434 net.cpp:156] Memory required for data: 30020
I0924 03:27:53.817154 27406 recurrent_layer.cpp:150] Adding parameter 0: W_xc
I0924 03:27:53.817164 27406 recurrent_layer.cpp:150] Adding parameter 1: b_c
I0924 03:27:53.817162 27440 net.cpp:141] Setting up lstm1_x_transform
I0924 03:27:53.817164 27434 layer_factory.hpp:77] Creating layer lstm2_W_xc_x_slice
I0924 03:27:53.817180 27406 recurrent_layer.cpp:150] Adding parameter 2: W_hc
I0924 03:27:53.817185 27440 net.cpp:148] Top shape: 1 1 4000 (4000)
I0924 03:27:53.817185 27402 net.cpp:49] Initializing net from parameters: 
layer {
  name: "lstm1_"
  type: "Input"
  top: "x"
  top: "cont"
  input_param {
    shape {
      dim: 1
      dim: 1
      dim: 500
    }
    shape {
      dim: 1
      dim: 1
    }
  }
}
layer {
  name: "lstm1_"
  type: "Input"
  top: "c_0"
  top: "h_0"
  input_param {
    shape {
      dim: 1
      dim: 1
      dim: 1000
    }
    shape {
      dim: 1
      dim: 1
      dim: 1000
    }
  }
}
layer {
  name: "lstm1_cont_slice"
  type: "Slice"
  bottom: "cont"
  top: "cont_1"
  slice_param {
    axis: 0
  }
}
layer {
  name: "lstm1_x_transform"
  type: "InnerProduct"
  bottom: "x"
  top: "W_xc_x"
  param {
    name: "W_xc"
  }
  param {
    name: "b_c"
  }
  propagate_down: true
  inner_product_param {
    num_output: 4000
    bias_term: true
    weight_filler {
      type: "uniform"
      min: -0.08
      max: 0.08
    }
    bias_filler {
      type: "constant"
      value: 0
    }
    axis: 2
  }
}
layer {
  name: "lstm1_W_xc_x_slice"
  type: "Slice"
  bottom: "W_xc_x"
  top: "W_xc_x_1"
  slice_param {
    axis: 0
  }
}
layer {
  name: "lstm1_h_conted_0"
  type: "Scale"
  bottom: "h_0"
  bottom: "cont_1"
  top: "h_conted_0"
  scale_param {
    axis: 0
  }
}
layer {
  name: "lstm1_transform_1"
  type: "InnerProduct"
  bottom: "h_conted_0"
  top: "W_hc_h_0"
  param {
    name: "W_hc"
  }
  inner_product_param {
    num_output: 4000
    bias_term: false
    weight_filler {
      type: "uniform"
      min: -0.08
      max: 0.08
    }
    axis: 2
  }
}
layer {
  name: "lstm1_gate_input_1"
  type: "Eltwise"
  bottom: "W_hc_h_0"
  bottom: "W_xc_x_1"
  top: "gate_input_1"
  eltwise_param {
    operation: SUM
  }
}
layer {
  name: "lstm1_unit_1"
  type: "LSTMUnit"
  bottom: "c_0"
  bottom: "gate_input_1"
  bottom: "cont_1"
  top: "c_1"
  top: "h_1"
}
layer {
  name: "lstm1_"
  type: "Split"
  bottom: "c_1"
  top: "c_T"
}
layer {
  name: "lstm1_h_concat"
  type: "Concat"
  bottom: "h_1"
  top: "h"
  concat_param {
    axis: 0
  }
}
layer {
  name: "h_pseudoloss"
  type: "Reduction"
  bottom: "h"
  top: "h_pseudoloss"
  loss_weight: 1
}
I0924 03:27:53.817196 27440 net.cpp:156] Memory required for data: 26016
I0924 03:27:53.817190 27400 net.cpp:141] Setting up cont_1_lstm2_cont_slice_0_split
I0924 03:27:53.817219 27400 net.cpp:148] Top shape: 1 1 (1)
I0924 03:27:53.817230 27400 net.cpp:148] Top shape: 1 1 (1)
I0924 03:27:53.817231 27440 layer_factory.hpp:77] Creating layer lstm1_W_xc_x_slice
I0924 03:27:53.817193 27434 net.cpp:91] Creating Layer lstm2_W_xc_x_slice
I0924 03:27:53.817247 27440 net.cpp:91] Creating Layer lstm1_W_xc_x_slice
I0924 03:27:53.817239 27400 net.cpp:156] Memory required for data: 14020
I0924 03:27:53.817257 27440 net.cpp:425] lstm1_W_xc_x_slice <- W_xc_x
I0924 03:27:53.817265 27400 layer_factory.hpp:77] Creating layer lstm2_x_transform
I0924 03:27:53.817266 27434 net.cpp:425] lstm2_W_xc_x_slice <- W_xc_x
I0924 03:27:53.817271 27440 net.cpp:399] lstm1_W_xc_x_slice -> W_xc_x_1
I0924 03:27:53.817282 27400 net.cpp:91] Creating Layer lstm2_x_transform
I0924 03:27:53.817283 27434 net.cpp:399] lstm2_W_xc_x_slice -> W_xc_x_1
I0924 03:27:53.817303 27400 net.cpp:425] lstm2_x_transform <- x
I0924 03:27:53.817306 27402 layer_factory.hpp:77] Creating layer lstm1_
I0924 03:27:53.817319 27402 net.cpp:91] Creating Layer lstm1_
I0924 03:27:53.817319 27400 net.cpp:399] lstm2_x_transform -> W_xc_x
I0924 03:27:53.817327 27402 net.cpp:399] lstm1_ -> x
I0924 03:27:53.817338 27402 net.cpp:399] lstm1_ -> cont
I0924 03:27:53.817347 27440 net.cpp:141] Setting up lstm1_W_xc_x_slice
I0924 03:27:53.817363 27440 net.cpp:148] Top shape: 1 1 4000 (4000)
I0924 03:27:53.817371 27440 net.cpp:156] Memory required for data: 42016
I0924 03:27:53.817380 27440 layer_factory.hpp:77] Creating layer lstm1_h_conted_0
I0924 03:27:53.817399 27440 net.cpp:91] Creating Layer lstm1_h_conted_0
I0924 03:27:53.817406 27440 net.cpp:425] lstm1_h_conted_0 <- h_0
I0924 03:27:53.817414 27440 net.cpp:425] lstm1_h_conted_0 <- cont_1_lstm1_cont_slice_0_split_0
I0924 03:27:53.817420 27440 net.cpp:399] lstm1_h_conted_0 -> h_conted_0
I0924 03:27:53.817432 27406 net.cpp:141] Setting up lstm1
I0924 03:27:53.817447 27406 net.cpp:148] Top shape: 1 1 1000 (1000)
I0924 03:27:53.817456 27406 net.cpp:156] Memory required for data: 26408
I0924 03:27:53.817476 27406 layer_factory.hpp:77] Creating layer concat
I0924 03:27:53.817479 27434 net.cpp:141] Setting up lstm2_W_xc_x_slice
I0924 03:27:53.817490 27406 net.cpp:91] Creating Layer concat
I0924 03:27:53.817493 27434 net.cpp:148] Top shape: 1 1 4000 (4000)
I0924 03:27:53.817512 27406 net.cpp:425] concat <- lstm1
I0924 03:27:53.817517 27434 net.cpp:156] Memory required for data: 46020
I0924 03:27:53.817517 27414 net.cpp:141] Setting up lstm1_gate_input_1
I0924 03:27:53.817523 27406 net.cpp:425] concat <- embedded_input_sentence
I0924 03:27:53.817523 27434 layer_factory.hpp:77] Creating layer lstm2_h_conted_0
I0924 03:27:53.817540 27406 net.cpp:425] concat <- reshaped_stage_indicator
I0924 03:27:53.817538 27414 net.cpp:148] Top shape: 1 1 4000 (4000)
I0924 03:27:53.817553 27406 net.cpp:399] concat -> lstm1_video_sequence
I0924 03:27:53.817554 27414 net.cpp:156] Memory required for data: 78016
I0924 03:27:53.817559 27434 net.cpp:91] Creating Layer lstm2_h_conted_0
I0924 03:27:53.817565 27434 net.cpp:425] lstm2_h_conted_0 <- h_0
I0924 03:27:53.817564 27414 layer_factory.hpp:77] Creating layer lstm1_unit_1
I0924 03:27:53.817576 27434 net.cpp:425] lstm2_h_conted_0 <- cont_1_lstm2_cont_slice_0_split_0
I0924 03:27:53.817584 27414 net.cpp:91] Creating Layer lstm1_unit_1
I0924 03:27:53.817584 27434 net.cpp:399] lstm2_h_conted_0 -> h_conted_0
I0924 03:27:53.817598 27414 net.cpp:425] lstm1_unit_1 <- c_0
I0924 03:27:53.817606 27414 net.cpp:425] lstm1_unit_1 <- gate_input_1
I0924 03:27:53.817612 27414 net.cpp:425] lstm1_unit_1 <- cont_1_lstm1_cont_slice_0_split_1
I0924 03:27:53.817620 27414 net.cpp:399] lstm1_unit_1 -> c_1
I0924 03:27:53.817629 27414 net.cpp:399] lstm1_unit_1 -> h_1
I0924 03:27:53.834853 27440 net.cpp:141] Setting up lstm1_h_conted_0
I0924 03:27:53.834894 27440 net.cpp:148] Top shape: 1 1 1000 (1000)
I0924 03:27:53.834903 27440 net.cpp:156] Memory required for data: 46016
I0924 03:27:53.834913 27440 layer_factory.hpp:77] Creating layer lstm1_transform_1
I0924 03:27:53.834935 27440 net.cpp:91] Creating Layer lstm1_transform_1
I0924 03:27:53.834945 27440 net.cpp:425] lstm1_transform_1 <- h_conted_0
I0924 03:27:53.834960 27440 net.cpp:399] lstm1_transform_1 -> W_hc_h_0
I0924 03:27:53.835100 27396 net.cpp:141] Setting up lstm1_gate_input_1
I0924 03:27:53.835119 27396 net.cpp:148] Top shape: 1 1 4000 (4000)
I0924 03:27:53.835124 27396 net.cpp:156] Memory required for data: 78016
I0924 03:27:53.835130 27396 layer_factory.hpp:77] Creating layer lstm1_unit_1
I0924 03:27:53.835141 27396 net.cpp:91] Creating Layer lstm1_unit_1
I0924 03:27:53.835147 27396 net.cpp:425] lstm1_unit_1 <- c_0
I0924 03:27:53.835155 27396 net.cpp:425] lstm1_unit_1 <- gate_input_1
I0924 03:27:53.835161 27396 net.cpp:425] lstm1_unit_1 <- cont_1_lstm1_cont_slice_0_split_1
I0924 03:27:53.835168 27396 net.cpp:399] lstm1_unit_1 -> c_1
I0924 03:27:53.835177 27396 net.cpp:399] lstm1_unit_1 -> h_1
I0924 03:27:53.835194 27406 net.cpp:141] Setting up concat
I0924 03:27:53.835212 27406 net.cpp:148] Top shape: 1 1 1501 (1501)
I0924 03:27:53.835217 27406 net.cpp:156] Memory required for data: 32412
I0924 03:27:53.835223 27406 layer_factory.hpp:77] Creating layer lstm2
I0924 03:27:53.835239 27406 net.cpp:91] Creating Layer lstm2
I0924 03:27:53.835247 27406 net.cpp:425] lstm2 <- lstm1_video_sequence
I0924 03:27:53.835253 27406 net.cpp:425] lstm2 <- cont_sentence_input_1_split_1
I0924 03:27:53.835263 27406 net.cpp:399] lstm2 -> lstm2
I0924 03:27:53.835275 27406 recurrent_layer.cpp:20] Initializing recurrent layer: assuming input batch contains 1 timesteps of 1 independent streams.
I0924 03:27:53.835309 27414 net.cpp:141] Setting up lstm1_unit_1
I0924 03:27:53.835350 27414 net.cpp:148] Top shape: 1 1 1000 (1000)
I0924 03:27:53.835361 27414 net.cpp:148] Top shape: 1 1 1000 (1000)
I0924 03:27:53.835368 27414 net.cpp:156] Memory required for data: 86016
I0924 03:27:53.835381 27414 layer_factory.hpp:77] Creating layer lstm1_
I0924 03:27:53.835399 27414 net.cpp:91] Creating Layer lstm1_
I0924 03:27:53.835409 27414 net.cpp:425] lstm1_ <- c_1
I0924 03:27:53.835425 27414 net.cpp:399] lstm1_ -> c_T
I0924 03:27:53.835484 27414 net.cpp:141] Setting up lstm1_
I0924 03:27:53.835500 27414 net.cpp:148] Top shape: 1 1 1000 (1000)
I0924 03:27:53.835506 27414 net.cpp:156] Memory required for data: 90016
I0924 03:27:53.835515 27414 layer_factory.hpp:77] Creating layer lstm1_h_concat
I0924 03:27:53.835535 27414 net.cpp:91] Creating Layer lstm1_h_concat
I0924 03:27:53.835543 27414 net.cpp:425] lstm1_h_concat <- h_1
I0924 03:27:53.835556 27414 net.cpp:399] lstm1_h_concat -> h
I0924 03:27:53.835574 27406 net.cpp:49] Initializing net from parameters: 
layer {
  name: "lstm2_"
  type: "Input"
  top: "x"
  top: "cont"
  input_param {
    shape {
      dim: 1
      dim: 1
      dim: 1501
    }
    shape {
      dim: 1
      dim: 1
    }
  }
}
layer {
  name: "lstm2_"
  type: "Input"
  top: "c_0"
  top: "h_0"
  input_param {
    shape {
      dim: 1
      dim: 1
      dim: 1000
    }
    shape {
      dim: 1
      dim: 1
      dim: 1000
    }
  }
}
layer {
  name: "lstm2_cont_slice"
  type: "Slice"
  bottom: "cont"
  top: "cont_1"
  slice_param {
    axis: 0
  }
}
layer {
  name: "lstm2_x_transform"
  type: "InnerProduct"
  bottom: "x"
  top: "W_xc_x"
  param {
    name: "W_xc"
  }
  param {
    name: "b_c"
  }
  propagate_down: true
  inner_product_param {
    num_output: 4000
    bias_term: true
    weight_filler {
      type: "uniform"
      min: -0.08
      max: 0.08
    }
    bias_filler {
      type: "constant"
      value: 0
    }
    axis: 2
  }
}
layer {
  name: "lstm2_W_xc_x_slice"
  type: "Slice"
  bottom: "W_xc_x"
  top: "W_xc_x_1"
  slice_param {
    axis: 0
  }
}
layer {
  name: "lstm2_h_conted_0"
  type: "Scale"
  bottom: "h_0"
  bottom: "cont_1"
  top: "h_conted_0"
  scale_param {
    axis: 0
  }
}
layer {
  name: "lstm2_transform_1"
  type: "InnerProduct"
  bottom: "h_conted_0"
  top: "W_hc_h_0"
  param {
    name: "W_hc"
  }
  inner_product_param {
    num_output: 4000
    bias_term: false
    weight_filler {
      type: "uniform"
      min: -0.08
      max: 0.08
    }
    axis: 2
  }
}
layer {
  name: "lstm2_gate_input_1"
  type: "Eltwise"
  bottom: "W_hc_h_0"
  bottom: "W_xc_x_1"
  top: "gate_input_1"
  eltwise_param {
    operation: SUM
  }
}
layer {
  name: "lstm2_unit_1"
  type: "LSTMUnit"
  bottom: "c_0"
  bottom: "gate_input_1"
  bottom: "cont_1"
  top: "c_1"
  top: "h_1"
}
layer {
  name: "lstm2_"
  type: "Split"
  bottom: "c_1"
  top: "c_T"
}
layer {
  name: "lstm2_h_concat"
  type: "Concat"
  bottom: "h_1"
  top: "h"
  concat_param {
    axis: 0
  }
}
layer {
  name: "h_pseudoloss"
  type: "Reduction"
  bottom: "h"
  top: "h_pseudoloss"
  loss_weight: 1
}
I0924 03:27:53.835610 27414 net.cpp:141] Setting up lstm1_h_concat
I0924 03:27:53.835625 27414 net.cpp:148] Top shape: 1 1 1000 (1000)
I0924 03:27:53.835633 27414 net.cpp:156] Memory required for data: 94016
I0924 03:27:53.835641 27414 layer_factory.hpp:77] Creating layer h_pseudoloss
I0924 03:27:53.835655 27414 net.cpp:91] Creating Layer h_pseudoloss
I0924 03:27:53.835664 27414 net.cpp:425] h_pseudoloss <- h
I0924 03:27:53.835666 27406 layer_factory.hpp:77] Creating layer lstm2_
I0924 03:27:53.835680 27406 net.cpp:91] Creating Layer lstm2_
I0924 03:27:53.835698 27406 net.cpp:399] lstm2_ -> x
I0924 03:27:53.835711 27406 net.cpp:399] lstm2_ -> cont
I0924 03:27:53.835680 27414 net.cpp:399] h_pseudoloss -> h_pseudoloss
I0924 03:27:53.835889 27434 net.cpp:141] Setting up lstm2_h_conted_0
I0924 03:27:53.835912 27434 net.cpp:148] Top shape: 1 1 1000 (1000)
I0924 03:27:53.835921 27434 net.cpp:156] Memory required for data: 50020
I0924 03:27:53.835929 27434 layer_factory.hpp:77] Creating layer lstm2_transform_1
I0924 03:27:53.835950 27434 net.cpp:91] Creating Layer lstm2_transform_1
I0924 03:27:53.835952 27406 net.cpp:141] Setting up lstm2_
I0924 03:27:53.835973 27434 net.cpp:425] lstm2_transform_1 <- h_conted_0
I0924 03:27:53.835981 27406 net.cpp:148] Top shape: 1 1 1501 (1501)
I0924 03:27:53.835989 27406 net.cpp:148] Top shape: 1 1 (1)
I0924 03:27:53.835989 27434 net.cpp:399] lstm2_transform_1 -> W_hc_h_0
I0924 03:27:53.835994 27406 net.cpp:156] Memory required for data: 6008
I0924 03:27:53.836001 27406 layer_factory.hpp:77] Creating layer lstm2_
I0924 03:27:53.836011 27406 net.cpp:91] Creating Layer lstm2_
I0924 03:27:53.836024 27406 net.cpp:399] lstm2_ -> c_0
I0924 03:27:53.836035 27406 net.cpp:399] lstm2_ -> h_0
I0924 03:27:53.846201 27402 net.cpp:141] Setting up lstm1_
I0924 03:27:53.846253 27402 net.cpp:148] Top shape: 1 1 500 (500)
I0924 03:27:53.846266 27402 net.cpp:148] Top shape: 1 1 (1)
I0924 03:27:53.846274 27402 net.cpp:156] Memory required for data: 2004
I0924 03:27:53.846288 27402 layer_factory.hpp:77] Creating layer lstm1_
I0924 03:27:53.846321 27402 net.cpp:91] Creating Layer lstm1_
I0924 03:27:53.846334 27402 net.cpp:399] lstm1_ -> c_0
I0924 03:27:53.846361 27402 net.cpp:399] lstm1_ -> h_0
I0924 03:27:53.846467 27402 net.cpp:141] Setting up lstm1_
I0924 03:27:53.846482 27402 net.cpp:148] Top shape: 1 1 1000 (1000)
I0924 03:27:53.846492 27402 net.cpp:148] Top shape: 1 1 1000 (1000)
I0924 03:27:53.846498 27402 net.cpp:156] Memory required for data: 10004
I0924 03:27:53.846506 27402 layer_factory.hpp:77] Creating layer lstm1_cont_slice
I0924 03:27:53.846523 27402 net.cpp:91] Creating Layer lstm1_cont_slice
I0924 03:27:53.846530 27402 net.cpp:425] lstm1_cont_slice <- cont
I0924 03:27:53.846544 27402 net.cpp:399] lstm1_cont_slice -> cont_1
I0924 03:27:53.856802 27402 net.cpp:141] Setting up lstm1_cont_slice
I0924 03:27:53.856853 27402 net.cpp:148] Top shape: 1 1 (1)
I0924 03:27:53.856861 27402 net.cpp:156] Memory required for data: 10008
I0924 03:27:53.856873 27402 layer_factory.hpp:77] Creating layer cont_1_lstm1_cont_slice_0_split
I0924 03:27:53.856896 27402 net.cpp:91] Creating Layer cont_1_lstm1_cont_slice_0_split
I0924 03:27:53.856907 27402 net.cpp:425] cont_1_lstm1_cont_slice_0_split <- cont_1
I0924 03:27:53.856925 27402 net.cpp:399] cont_1_lstm1_cont_slice_0_split -> cont_1_lstm1_cont_slice_0_split_0
I0924 03:27:53.856942 27402 net.cpp:399] cont_1_lstm1_cont_slice_0_split -> cont_1_lstm1_cont_slice_0_split_1
I0924 03:27:53.857031 27402 net.cpp:141] Setting up cont_1_lstm1_cont_slice_0_split
I0924 03:27:53.857044 27402 net.cpp:148] Top shape: 1 1 (1)
I0924 03:27:53.857054 27402 net.cpp:148] Top shape: 1 1 (1)
I0924 03:27:53.857061 27402 net.cpp:156] Memory required for data: 10016
I0924 03:27:53.857069 27402 layer_factory.hpp:77] Creating layer lstm1_x_transform
I0924 03:27:53.857095 27402 net.cpp:91] Creating Layer lstm1_x_transform
I0924 03:27:53.857102 27402 net.cpp:425] lstm1_x_transform <- x
I0924 03:27:53.857118 27402 net.cpp:399] lstm1_x_transform -> W_xc_x
I0924 03:27:53.862387 27406 net.cpp:141] Setting up lstm2_
I0924 03:27:53.862438 27406 net.cpp:148] Top shape: 1 1 1000 (1000)
I0924 03:27:53.862445 27406 net.cpp:148] Top shape: 1 1 1000 (1000)
I0924 03:27:53.862449 27406 net.cpp:156] Memory required for data: 14008
I0924 03:27:53.862458 27406 layer_factory.hpp:77] Creating layer lstm2_cont_slice
I0924 03:27:53.862499 27396 net.cpp:141] Setting up lstm1_unit_1
I0924 03:27:53.862519 27406 net.cpp:91] Creating Layer lstm2_cont_slice
I0924 03:27:53.862522 27396 net.cpp:148] Top shape: 1 1 1000 (1000)
I0924 03:27:53.862534 27406 net.cpp:425] lstm2_cont_slice <- cont
I0924 03:27:53.862534 27396 net.cpp:148] Top shape: 1 1 1000 (1000)
I0924 03:27:53.862542 27396 net.cpp:156] Memory required for data: 86016
I0924 03:27:53.862550 27396 layer_factory.hpp:77] Creating layer lstm1_
I0924 03:27:53.862555 27406 net.cpp:399] lstm2_cont_slice -> cont_1
I0924 03:27:53.862571 27396 net.cpp:91] Creating Layer lstm1_
I0924 03:27:53.862581 27396 net.cpp:425] lstm1_ <- c_1
I0924 03:27:53.862592 27396 net.cpp:399] lstm1_ -> c_T
I0924 03:27:53.862650 27406 net.cpp:141] Setting up lstm2_cont_slice
I0924 03:27:53.862666 27406 net.cpp:148] Top shape: 1 1 (1)
I0924 03:27:53.862671 27406 net.cpp:156] Memory required for data: 14012
I0924 03:27:53.862676 27406 layer_factory.hpp:77] Creating layer cont_1_lstm2_cont_slice_0_split
I0924 03:27:53.862685 27406 net.cpp:91] Creating Layer cont_1_lstm2_cont_slice_0_split
I0924 03:27:53.862690 27406 net.cpp:425] cont_1_lstm2_cont_slice_0_split <- cont_1
I0924 03:27:53.862704 27406 net.cpp:399] cont_1_lstm2_cont_slice_0_split -> cont_1_lstm2_cont_slice_0_split_0
I0924 03:27:53.862715 27406 net.cpp:399] cont_1_lstm2_cont_slice_0_split -> cont_1_lstm2_cont_slice_0_split_1
I0924 03:27:53.862735 27414 net.cpp:141] Setting up h_pseudoloss
I0924 03:27:53.862778 27414 net.cpp:148] Top shape: (1)
I0924 03:27:53.862782 27396 net.cpp:141] Setting up lstm1_
I0924 03:27:53.862798 27396 net.cpp:148] Top shape: 1 1 1000 (1000)
I0924 03:27:53.862788 27414 net.cpp:151]     with loss weight 1
I0924 03:27:53.862808 27396 net.cpp:156] Memory required for data: 90016
I0924 03:27:53.862812 27414 net.cpp:156] Memory required for data: 94020
I0924 03:27:53.863697 27396 layer_factory.hpp:77] Creating layer lstm1_h_concat
I0924 03:27:53.862871 27406 net.cpp:141] Setting up cont_1_lstm2_cont_slice_0_split
I0924 03:27:53.863718 27414 net.cpp:217] h_pseudoloss needs backward computation.
I0924 03:27:53.863723 27406 net.cpp:148] Top shape: 1 1 (1)
I0924 03:27:53.863731 27414 net.cpp:217] lstm1_h_concat needs backward computation.
I0924 03:27:53.863736 27406 net.cpp:148] Top shape: 1 1 (1)
I0924 03:27:53.863741 27414 net.cpp:219] lstm1_ does not need backward computation.
I0924 03:27:53.863747 27406 net.cpp:156] Memory required for data: 14020
I0924 03:27:53.863752 27414 net.cpp:217] lstm1_unit_1 needs backward computation.
I0924 03:27:53.863757 27406 layer_factory.hpp:77] Creating layer lstm2_x_transform
I0924 03:27:53.863765 27414 net.cpp:217] lstm1_gate_input_1 needs backward computation.
…
I0924 03:27:53.876701 27396 net.cpp:274] Network initialization done.
I0924 03:27:53.876816 27396 recurrent_layer.cpp:150] Adding parameter 0: W_xc
I0924 03:27:53.876837 27396 recurrent_layer.cpp:150] Adding parameter 1: b_c
I0924 03:27:53.876852 27396 recurrent_layer.cpp:150] Adding parameter 2: W_hc
I0924 03:27:53.876299 27414 net.cpp:425] concat <- embedded_input_sentence
I0924 03:27:53.878705 27414 net.cpp:425] concat <- reshaped_stage_indicator
I0924 03:27:53.878756 27414 net.cpp:399] concat -> lstm1_video_sequence
I0924 03:27:53.880362 27414 net.cpp:141] Setting up concat
I0924 03:27:53.880401 27414 net.cpp:148] Top shape: 1 1 1501 (1501)
I0924 03:27:53.880410 27414 net.cpp:156] Memory required for data: 32412
I0924 03:27:53.880421 27414 layer_factory.hpp:77] Creating layer lstm2
I0924 03:27:53.880451 27414 net.cpp:91] Creating Layer lstm2
I0924 03:27:53.880462 27414 net.cpp:425] lstm2 <- lstm1_video_sequence
I0924 03:27:53.880475 27414 net.cpp:425] lstm2 <- cont_sentence_input_1_split_1
I0924 03:27:53.880492 27414 net.cpp:399] lstm2 -> lstm2
I0924 03:27:53.880507 27396 net.cpp:141] Setting up lstm1
I0924 03:27:53.880512 27414 recurrent_layer.cpp:20] Initializing recurrent layer: assuming input batch contains 1 timesteps of 1 independent streams.
I0924 03:27:53.880532 27396 net.cpp:148] Top shape: 1 1 1000 (1000)
I0924 03:27:53.880540 27396 net.cpp:156] Memory required for data: 26408
I0924 03:27:53.880563 27396 layer_factory.hpp:77] Creating layer concat
I0924 03:27:53.880579 27396 net.cpp:91] Creating Layer concat
I0924 03:27:53.880587 27396 net.cpp:425] concat <- lstm1
I0924 03:27:53.880597 27396 net.cpp:425] concat <- embedded_input_sentence
I0924 03:27:53.880605 27396 net.cpp:425] concat <- reshaped_stage_indicator
I0924 03:27:53.880616 27396 net.cpp:399] concat -> lstm1_video_sequence
I0924 03:27:53.880663 27396 net.cpp:141] Setting up concat
I0924 03:27:53.880676 27396 net.cpp:148] Top shape: 1 1 1501 (1501)
I0924 03:27:53.880683 27396 net.cpp:156] Memory required for data: 32412
I0924 03:27:53.880691 27396 layer_factory.hpp:77] Creating layer lstm2
I0924 03:27:53.880733 27396 net.cpp:91] Creating Layer lstm2
I0924 03:27:53.880744 27396 net.cpp:425] lstm2 <- lstm1_video_sequence
I0924 03:27:53.880753 27396 net.cpp:425] lstm2 <- cont_sentence_input_1_split_1
I0924 03:27:53.880765 27396 net.cpp:399] lstm2 -> lstm2
I0924 03:27:53.880779 27396 recurrent_layer.cpp:20] Initializing recurrent layer: assuming input batch contains 1 timesteps of 1 independent streams.
I0924 03:27:53.880971 27414 net.cpp:49] Initializing net from parameters: 
layer {
  name: "lstm2_"
  type: "Input"
  top: "x"
  top: "cont"
  input_param {
    shape {
      dim: 1
      dim: 1
      dim: 1501
    }
    shape {
      dim: 1
      dim: 1
    }
  }
}
layer {
  name: "lstm2_"
  type: "Input"
  top: "c_0"
  top: "h_0"
  input_param {
    shape {
      dim: 1
      dim: 1
      dim: 1000
    }
    shape {
      dim: 1
      dim: 1
      dim: 1000
    }
  }
}
layer {
  name: "lstm2_cont_slice"
  type: "Slice"
  bottom: "cont"
  top: "cont_1"
  slice_param {
    axis: 0
  }
}
layer {
  name: "lstm2_x_transform"
  type: "InnerProduct"
  bottom: "x"
  top: "W_xc_x"
  param {
    name: "W_xc"
  }
  param {
    name: "b_c"
  }
  propagate_down: true
  inner_product_param {
    num_output: 4000
    bias_term: true
    weight_filler {
      type: "uniform"
      min: -0.08
      max: 0.08
    }
    bias_filler {
      type: "constant"
      value: 0
    }
    axis: 2
  }
}
layer {
  name: "lstm2_W_xc_x_slice"
  type: "Slice"
  bottom: "W_xc_x"
  top: "W_xc_x_1"
  slice_param {
    axis: 0
  }
}
layer {
  name: "lstm2_h_conted_0"
  type: "Scale"
  bottom: "h_0"
  bottom: "cont_1"
  top: "h_conted_0"
  scale_param {
    axis: 0
  }
}
layer {
  name: "lstm2_transform_1"
  type: "InnerProduct"
  bottom: "h_conted_0"
  top: "W_hc_h_0"
  param {
    name: "W_hc"
  }
  inner_product_param {
    num_output: 4000
    bias_term: false
    weight_filler {
      type: "uniform"
      min: -0.08
      max: 0.08
    }
    axis: 2
  }
}
layer {
  name: "lstm2_gate_input_1"
  type: "Eltwise"
  bottom: "W_hc_h_0"
  bottom: "W_xc_x_1"
  top: "gate_input_1"
  eltwise_param {
    operation: SUM
  }
}
layer {
  name: "lstm2_unit_1"
  type: "LSTMUnit"
  bottom: "c_0"
  bottom: "gate_input_1"
  bottom: "cont_1"
  top: "c_1"
  top: "h_1"
}
layer {
  name: "lstm2_"
  type: "Split"
  bottom: "c_1"
  top: "c_T"
}
layer {
  name: "lstm2_h_concat"
  type: "Concat"
  bottom: "h_1"
  top: "h"
  concat_param {
    axis: 0
  }
}
layer {
  name: "h_pseudoloss"
  type: "Reduction"
  bottom: "h"
  top: "h_pseudoloss"
  loss_weight: 1
}
I0924 03:27:53.881091 27396 net.cpp:49] Initializing net from parameters: 
layer {
  name: "lstm2_"
  type: "Input"
  top: "x"
  top: "cont"
  input_param {
    shape {
      dim: 1
      dim: 1
      dim: 1501
    }
    shape {
      dim: 1
      dim: 1
    }
  }
}
layer {
  name: "lstm2_"
  type: "Input"
  top: "c_0"
  top: "h_0"
  input_param {
    shape {
      dim: 1
      dim: 1
      dim: 1000
    }
    shape {
      dim: 1
      dim: 1
      dim: 1000
    }
  }
}
layer {
  name: "lstm2_cont_slice"
  type: "Slice"
  bottom: "cont"
  top: "cont_1"
  slice_param {
    axis: 0
  }
}
layer {
  name: "lstm2_x_transform"
  type: "InnerProduct"
  bottom: "x"
  top: "W_xc_x"
  param {
    name: "W_xc"
  }
  param {
    name: "b_c"
  }
  propagate_down: true
  inner_product_param {
    num_output: 4000
    bias_term: true
    weight_filler {
      type: "uniform"
      min: -0.08
      max: 0.08
    }
    bias_filler {
      type: "constant"
      value: 0
    }
    axis: 2
  }
}
layer {
  name: "lstm2_W_xc_x_slice"
  type: "Slice"
  bottom: "W_xc_x"
  top: "W_xc_x_1"
  slice_param {
    axis: 0
  }
}
layer {
  name: "lstm2_h_conted_0"
  type: "Scale"
  bottom: "h_0"
  bottom: "cont_1"
  top: "h_conted_0"
  scale_param {
    axis: 0
  }
}
layer {
  name: "lstm2_transform_1"
  type: "InnerProduct"
  bottom: "h_conted_0"
  top: "W_hc_h_0"
  param {
    name: "W_hc"
  }
  inner_product_param {
    num_output: 4000
    bias_term: false
    weight_filler {
      type: "uniform"
      min: -0.08
      max: 0.08
    }
    axis: 2
  }
}
layer {
  name: "lstm2_gate_input_1"
  type: "Eltwise"
  bottom: "W_hc_h_0"
  bottom: "W_xc_x_1"
  top: "gate_input_1"
  eltwise_param {
    operation: SUM
  }
}
layer {
  name: "lstm2_unit_1"
  type: "LSTMUnit"
  bottom: "c_0"
  bottom: "gate_input_1"
  bottom: "cont_1"
  top: "c_1"
  top: "h_1"
}
layer {
  name: "lstm2_"
  type: "Split"
  bottom: "c_1"
  top: "c_T"
}
layer {
  name: "lstm2_h_concat"
  type: "Concat"
  bottom: "h_1"
  top: "h"
  concat_param {
    axis: 0
  }
}
layer {
  name: "h_pseudoloss"
  type: "Reduction"
  bottom: "h"
  top: "h_pseudoloss"
  loss_weight: 1
}
I0924 03:27:53.881125 27414 layer_factory.hpp:77] Creating layer lstm2_
I0924 03:27:53.881146 27414 net.cpp:91] Creating Layer lstm2_
I0924 03:27:53.881157 27414 net.cpp:399] lstm2_ -> x
I0924 03:27:53.881176 27414 net.cpp:399] lstm2_ -> cont
I0924 03:27:53.881209 27396 layer_factory.hpp:77] Creating layer lstm2_
I0924 03:27:53.881225 27396 net.cpp:91] Creating Layer lstm2_
I0924 03:27:53.881234 27396 net.cpp:399] lstm2_ -> x
I0924 03:27:53.881250 27396 net.cpp:399] lstm2_ -> cont
I0924 03:27:53.881294 27414 net.cpp:141] Setting up lstm2_
I0924 03:27:53.881312 27414 net.cpp:148] Top shape: 1 1 1501 (1501)
I0924 03:27:53.881325 27414 net.cpp:148] Top shape: 1 1 (1)
I0924 03:27:53.881333 27414 net.cpp:156] Memory required for data: 6008
I0924 03:27:53.881343 27414 layer_factory.hpp:77] Creating layer lstm2_
I0924 03:27:53.881356 27396 net.cpp:141] Setting up lstm2_
I0924 03:27:53.881361 27414 net.cpp:91] Creating Layer lstm2_
I0924 03:27:53.881371 27396 net.cpp:148] Top shape: 1 1 1501 (1501)
I0924 03:27:53.881377 27414 net.cpp:399] lstm2_ -> c_0
I0924 03:27:53.881381 27396 net.cpp:148] Top shape: 1 1 (1)
I0924 03:27:53.881388 27396 net.cpp:156] Memory required for data: 6008
I0924 03:27:53.881395 27396 layer_factory.hpp:77] Creating layer lstm2_
I0924 03:27:53.881399 27414 net.cpp:399] lstm2_ -> h_0
I0924 03:27:53.881408 27396 net.cpp:91] Creating Layer lstm2_
I0924 03:27:53.881410 27434 net.cpp:141] Setting up lstm2_transform_1
I0924 03:27:53.881422 27396 net.cpp:399] lstm2_ -> c_0
I0924 03:27:53.881428 27434 net.cpp:148] Top shape: 1 1 4000 (4000)
I0924 03:27:53.881434 27434 net.cpp:156] Memory required for data: 66020
I0924 03:27:53.881438 27396 net.cpp:399] lstm2_ -> h_0
I0924 03:27:53.881445 27434 layer_factory.hpp:77] Creating layer lstm2_gate_input_1
I0924 03:27:53.881463 27434 net.cpp:91] Creating Layer lstm2_gate_input_1
I0924 03:27:53.881469 27434 net.cpp:425] lstm2_gate_input_1 <- W_hc_h_0
I0924 03:27:53.881476 27434 net.cpp:425] lstm2_gate_input_1 <- W_xc_x_1
I0924 03:27:53.881484 27434 net.cpp:399] lstm2_gate_input_1 -> gate_input_1
I0924 03:27:53.881533 27434 net.cpp:141] Setting up lstm2_gate_input_1
I0924 03:27:53.881546 27434 net.cpp:148] Top shape: 1 1 4000 (4000)
I0924 03:27:53.881556 27434 net.cpp:156] Memory required for data: 82020
I0924 03:27:53.881564 27434 layer_factory.hpp:77] Creating layer lstm2_unit_1
I0924 03:27:53.881567 27396 net.cpp:141] Setting up lstm2_
I0924 03:27:53.881577 27434 net.cpp:91] Creating Layer lstm2_unit_1
I0924 03:27:53.881582 27396 net.cpp:148] Top shape: 1 1 1000 (1000)
I0924 03:27:53.881587 27434 net.cpp:425] lstm2_unit_1 <- c_0
I0924 03:27:53.881592 27396 net.cpp:148] Top shape: 1 1 1000 (1000)
I0924 03:27:53.881592 27434 net.cpp:425] lstm2_unit_1 <- gate_input_1
I0924 03:27:53.881610 27396 net.cpp:156] Memory required for data: 14008
I0924 03:27:53.881615 27434 net.cpp:425] lstm2_unit_1 <- cont_1_lstm2_cont_slice_0_split_1
I0924 03:27:53.881613 27414 net.cpp:141] Setting up lstm2_
I0924 03:27:53.881624 27434 net.cpp:399] lstm2_unit_1 -> c_1
I0924 03:27:53.881619 27396 layer_factory.hpp:77] Creating layer lstm2_cont_slice
I0924 03:27:53.881634 27434 net.cpp:399] lstm2_unit_1 -> h_1
I0924 03:27:53.881640 27414 net.cpp:148] Top shape: 1 1 1000 (1000)
I0924 03:27:53.881644 27396 net.cpp:91] Creating Layer lstm2_cont_slice
I0924 03:27:53.881659 27396 net.cpp:425] lstm2_cont_slice <- cont
I0924 03:27:53.881660 27414 net.cpp:148] Top shape: 1 1 1000 (1000)
I0924 03:27:53.881669 27414 net.cpp:156] Memory required for data: 14008
I0924 03:27:53.881671 27396 net.cpp:399] lstm2_cont_slice -> cont_1
I0924 03:27:53.881685 27414 layer_factory.hpp:77] Creating layer lstm2_cont_slice
I0924 03:27:53.881701 27414 net.cpp:91] Creating Layer lstm2_cont_slice
I0924 03:27:53.881706 27434 net.cpp:141] Setting up lstm2_unit_1
I0924 03:27:53.881712 27414 net.cpp:425] lstm2_cont_slice <- cont
I0924 03:27:53.881717 27434 net.cpp:148] Top shape: 1 1 1000 (1000)
I0924 03:27:53.881723 27434 net.cpp:148] Top shape: 1 1 1000 (1000)
I0924 03:27:53.881727 27434 net.cpp:156] Memory required for data: 90020
I0924 03:27:53.881732 27434 layer_factory.hpp:77] Creating layer lstm2_
I0924 03:27:53.881734 27414 net.cpp:399] lstm2_cont_slice -> cont_1
I0924 03:27:53.881743 27434 net.cpp:91] Creating Layer lstm2_
I0924 03:27:53.881748 27434 net.cpp:425] lstm2_ <- c_1
I0924 03:27:53.881747 27396 net.cpp:141] Setting up lstm2_cont_slice
I0924 03:27:53.881755 27434 net.cpp:399] lstm2_ -> c_T
I0924 03:27:53.881764 27396 net.cpp:148] Top shape: 1 1 (1)
I0924 03:27:53.881793 27396 net.cpp:156] Memory required for data: 14012
I0924 03:27:53.881800 27396 layer_factory.hpp:77] Creating layer cont_1_lstm2_cont_slice_0_split
I0924 03:27:53.881803 27414 net.cpp:141] Setting up lstm2_cont_slice
I0924 03:27:53.881811 27396 net.cpp:91] Creating Layer cont_1_lstm2_cont_slice_0_split
I0924 03:27:53.881819 27396 net.cpp:425] cont_1_lstm2_cont_slice_0_split <- cont_1
I0924 03:27:53.881822 27414 net.cpp:148] Top shape: 1 1 (1)
I0924 03:27:53.881829 27434 net.cpp:141] Setting up lstm2_
I0924 03:27:53.881829 27396 net.cpp:399] cont_1_lstm2_cont_slice_0_split -> cont_1_lstm2_cont_slice_0_split_0
I0924 03:27:53.881844 27434 net.cpp:148] Top shape: 1 1 1000 (1000)
I0924 03:27:53.881831 27414 net.cpp:156] Memory required for data: 14012
I0924 03:27:53.881855 27396 net.cpp:399] cont_1_lstm2_cont_slice_0_split -> cont_1_lstm2_cont_slice_0_split_1
I0924 03:27:53.881849 27434 net.cpp:156] Memory required for data: 94020
I0924 03:27:53.881865 27434 layer_factory.hpp:77] Creating layer lstm2_h_concat
I0924 03:27:53.881866 27414 layer_factory.hpp:77] Creating layer cont_1_lstm2_cont_slice_0_split
I0924 03:27:53.881875 27434 net.cpp:91] Creating Layer lstm2_h_concat
I0924 03:27:53.881880 27434 net.cpp:425] lstm2_h_concat <- h_1
I0924 03:27:53.881882 27414 net.cpp:91] Creating Layer cont_1_lstm2_cont_slice_0_split
I0924 03:27:53.881891 27434 net.cpp:399] lstm2_h_concat -> h
I0924 03:27:53.881893 27414 net.cpp:425] cont_1_lstm2_cont_slice_0_split <- cont_1
I0924 03:27:53.881907 27414 net.cpp:399] cont_1_lstm2_cont_slice_0_split -> cont_1_lstm2_cont_slice_0_split_0
I0924 03:27:53.881929 27414 net.cpp:399] cont_1_lstm2_cont_slice_0_split -> cont_1_lstm2_cont_slice_0_split_1
I0924 03:27:53.881932 27434 net.cpp:141] Setting up lstm2_h_concat
I0924 03:27:53.881954 27434 net.cpp:148] Top shape: 1 1 1000 (1000)
I0924 03:27:53.881959 27434 net.cpp:156] Memory required for data: 98020
I0924 03:27:53.881964 27434 layer_factory.hpp:77] Creating layer h_pseudoloss
I0924 03:27:53.881973 27434 net.cpp:91] Creating Layer h_pseudoloss
I0924 03:27:53.881974 27396 net.cpp:141] Setting up cont_1_lstm2_cont_slice_0_split
I0924 03:27:53.881978 27434 net.cpp:425] h_pseudoloss <- h
I0924 03:27:53.881992 27396 net.cpp:148] Top shape: 1 1 (1)
I0924 03:27:53.881997 27434 net.cpp:399] h_pseudoloss -> h_pseudoloss
I0924 03:27:53.882002 27396 net.cpp:148] Top shape: 1 1 (1)
I0924 03:27:53.882009 27396 net.cpp:156] Memory required for data: 14020
I0924 03:27:53.882016 27396 layer_factory.hpp:77] Creating layer lstm2_x_transform
I0924 03:27:53.882036 27396 net.cpp:91] Creating Layer lstm2_x_transform
I0924 03:27:53.882045 27396 net.cpp:425] lstm2_x_transform <- x
I0924 03:27:53.882050 27414 net.cpp:141] Setting up cont_1_lstm2_cont_slice_0_split
I0924 03:27:53.882056 27396 net.cpp:399] lstm2_x_transform -> W_xc_x
I0924 03:27:53.882068 27414 net.cpp:148] Top shape: 1 1 (1)
I0924 03:27:53.882081 27414 net.cpp:148] Top shape: 1 1 (1)
I0924 03:27:53.882089 27414 net.cpp:156] Memory required for data: 14020
I0924 03:27:53.882097 27414 layer_factory.hpp:77] Creating layer lstm2_x_transform
I0924 03:27:53.882120 27414 net.cpp:91] Creating Layer lstm2_x_transform
I0924 03:27:53.882133 27414 net.cpp:425] lstm2_x_transform <- x
I0924 03:27:53.882135 27434 net.cpp:141] Setting up h_pseudoloss
I0924 03:27:53.882148 27414 net.cpp:399] lstm2_x_transform -> W_xc_x
…
I0924 03:27:53.882298 27434 net.cpp:219] lstm2_ does not need backward computation.
I0924 03:27:53.882302 27434 net.cpp:261] This network produces output c_T
I0924 03:27:53.882308 27434 net.cpp:261] This network produces output h_pseudoloss
I0924 03:27:53.882323 27434 net.cpp:274] Network initialization done.
I0924 03:27:53.882367 27434 recurrent_layer.cpp:150] Adding parameter 0: W_xc
I0924 03:27:53.882374 27434 recurrent_layer.cpp:150] Adding parameter 1: b_c
I0924 03:27:53.882377 27434 recurrent_layer.cpp:150] Adding parameter 2: W_hc
I0924 03:27:53.897044 27440 net.cpp:141] Setting up lstm1_transform_1
I0924 03:27:53.897092 27440 net.cpp:148] Top shape: 1 1 4000 (4000)
I0924 03:27:53.897099 27440 net.cpp:156] Memory required for data: 62016
I0924 03:27:53.897119 27440 layer_factory.hpp:77] Creating layer lstm1_gate_input_1
I0924 03:27:53.897142 27440 net.cpp:91] Creating Layer lstm1_gate_input_1
I0924 03:27:53.897151 27440 net.cpp:425] lstm1_gate_input_1 <- W_hc_h_0
I0924 03:27:53.897159 27440 net.cpp:425] lstm1_gate_input_1 <- W_xc_x_1
I0924 03:27:53.897168 27440 net.cpp:399] lstm1_gate_input_1 -> gate_input_1
I0924 03:27:53.914896 27402 net.cpp:141] Setting up lstm1_x_transform
I0924 03:27:53.914937 27402 net.cpp:148] Top shape: 1 1 4000 (4000)
I0924 03:27:53.914942 27402 net.cpp:156] Memory required for data: 26016
I0924 03:27:53.914968 27402 layer_factory.hpp:77] Creating layer lstm1_W_xc_x_slice
I0924 03:27:53.914988 27402 net.cpp:91] Creating Layer lstm1_W_xc_x_slice
I0924 03:27:53.914995 27402 net.cpp:425] lstm1_W_xc_x_slice <- W_xc_x
I0924 03:27:53.914994 27434 net.cpp:141] Setting up lstm2
I0924 03:27:53.915032 27402 net.cpp:399] lstm1_W_xc_x_slice -> W_xc_x_1
I0924 03:27:53.915045 27434 net.cpp:148] Top shape: 1 1 1000 (1000)
I0924 03:27:53.915051 27434 net.cpp:156] Memory required for data: 36412
I0924 03:27:53.915079 27434 layer_factory.hpp:77] Creating layer predict
I0924 03:27:53.915077 27440 net.cpp:141] Setting up lstm1_gate_input_1
I0924 03:27:53.915108 27440 net.cpp:148] Top shape: 1 1 4000 (4000)
I0924 03:27:53.915122 27440 net.cpp:156] Memory required for data: 78016
I0924 03:27:53.915108 27434 net.cpp:91] Creating Layer predict
I0924 03:27:53.915127 27440 layer_factory.hpp:77] Creating layer lstm1_unit_1
I0924 03:27:53.915135 27434 net.cpp:425] predict <- lstm2
I0924 03:27:53.915139 27440 net.cpp:91] Creating Layer lstm1_unit_1
I0924 03:27:53.915146 27440 net.cpp:425] lstm1_unit_1 <- c_0
I0924 03:27:53.915148 27402 net.cpp:141] Setting up lstm1_W_xc_x_slice
I0924 03:27:53.915154 27440 net.cpp:425] lstm1_unit_1 <- gate_input_1
I0924 03:27:53.915161 27440 net.cpp:425] lstm1_unit_1 <- cont_1_lstm1_cont_slice_0_split_1
I0924 03:27:53.915149 27434 net.cpp:399] predict -> predict
I0924 03:27:53.915169 27440 net.cpp:399] lstm1_unit_1 -> c_1
I0924 03:27:53.915163 27402 net.cpp:148] Top shape: 1 1 4000 (4000)
I0924 03:27:53.915179 27440 net.cpp:399] lstm1_unit_1 -> h_1
I0924 03:27:53.915180 27402 net.cpp:156] Memory required for data: 42016
I0924 03:27:53.915199 27402 layer_factory.hpp:77] Creating layer lstm1_h_conted_0
I0924 03:27:53.915212 27402 net.cpp:91] Creating Layer lstm1_h_conted_0
I0924 03:27:53.915217 27402 net.cpp:425] lstm1_h_conted_0 <- h_0
I0924 03:27:53.915218 27400 net.cpp:141] Setting up lstm2_x_transform
I0924 03:27:53.915225 27402 net.cpp:425] lstm1_h_conted_0 <- cont_1_lstm1_cont_slice_0_split_0
I0924 03:27:53.915240 27400 net.cpp:148] Top shape: 1 1 4000 (4000)
I0924 03:27:53.915246 27400 net.cpp:156] Memory required for data: 30020
I0924 03:27:53.915246 27402 net.cpp:399] lstm1_h_conted_0 -> h_conted_0
I0924 03:27:53.915259 27400 layer_factory.hpp:77] Creating layer lstm2_W_xc_x_slice
I0924 03:27:53.915271 27400 net.cpp:91] Creating Layer lstm2_W_xc_x_slice
I0924 03:27:53.915277 27400 net.cpp:425] lstm2_W_xc_x_slice <- W_xc_x
I0924 03:27:53.915276 27440 net.cpp:141] Setting up lstm1_unit_1
I0924 03:27:53.915285 27400 net.cpp:399] lstm2_W_xc_x_slice -> W_xc_x_1
I0924 03:27:53.915287 27440 net.cpp:148] Top shape: 1 1 1000 (1000)
I0924 03:27:53.915293 27440 net.cpp:148] Top shape: 1 1 1000 (1000)
I0924 03:27:53.915297 27440 net.cpp:156] Memory required for data: 86016
I0924 03:27:53.915302 27440 layer_factory.hpp:77] Creating layer lstm1_
I0924 03:27:53.915313 27440 net.cpp:91] Creating Layer lstm1_
I0924 03:27:53.915318 27440 net.cpp:425] lstm1_ <- c_1
I0924 03:27:53.915326 27440 net.cpp:399] lstm1_ -> c_T
I0924 03:27:54.002563 27400 net.cpp:141] Setting up lstm2_W_xc_x_slice
I0924 03:27:54.002692 27400 net.cpp:148] Top shape: 1 1 4000 (4000)
I0924 03:27:54.002707 27400 net.cpp:156] Memory required for data: 46020
I0924 03:27:54.002733 27400 layer_factory.hpp:77] Creating layer lstm2_h_conted_0
I0924 03:27:54.002773 27400 net.cpp:91] Creating Layer lstm2_h_conted_0
I0924 03:27:54.002791 27400 net.cpp:425] lstm2_h_conted_0 <- h_0
I0924 03:27:54.002812 27400 net.cpp:425] lstm2_h_conted_0 <- cont_1_lstm2_cont_slice_0_split_0
I0924 03:27:54.002832 27400 net.cpp:399] lstm2_h_conted_0 -> h_conted_0
I0924 03:27:54.012722 27440 net.cpp:141] Setting up lstm1_
I0924 03:27:54.012783 27440 net.cpp:148] Top shape: 1 1 1000 (1000)
I0924 03:27:54.012794 27440 net.cpp:156] Memory required for data: 90016
I0924 03:27:54.012807 27440 layer_factory.hpp:77] Creating layer lstm1_h_concat
I0924 03:27:54.012833 27440 net.cpp:91] Creating Layer lstm1_h_concat
I0924 03:27:54.012845 27440 net.cpp:425] lstm1_h_concat <- h_1
I0924 03:27:54.012877 27440 net.cpp:399] lstm1_h_concat -> h
I0924 03:27:54.013206 27402 net.cpp:141] Setting up lstm1_h_conted_0
I0924 03:27:54.013229 27402 net.cpp:148] Top shape: 1 1 1000 (1000)
I0924 03:27:54.013239 27402 net.cpp:156] Memory required for data: 46016
I0924 03:27:54.013249 27402 layer_factory.hpp:77] Creating layer lstm1_transform_1
I0924 03:27:54.013269 27402 net.cpp:91] Creating Layer lstm1_transform_1
I0924 03:27:54.013280 27402 net.cpp:425] lstm1_transform_1 <- h_conted_0
I0924 03:27:54.013298 27402 net.cpp:399] lstm1_transform_1 -> W_hc_h_0
I0924 03:27:54.023556 27400 net.cpp:141] Setting up lstm2_h_conted_0
I0924 03:27:54.023610 27400 net.cpp:148] Top shape: 1 1 1000 (1000)
I0924 03:27:54.023620 27400 net.cpp:156] Memory required for data: 50020
I0924 03:27:54.023632 27400 layer_factory.hpp:77] Creating layer lstm2_transform_1
I0924 03:27:54.023660 27400 net.cpp:91] Creating Layer lstm2_transform_1
I0924 03:27:54.023672 27400 net.cpp:425] lstm2_transform_1 <- h_conted_0
I0924 03:27:54.023692 27400 net.cpp:399] lstm2_transform_1 -> W_hc_h_0
I0924 03:27:54.034113 27440 net.cpp:141] Setting up lstm1_h_concat
I0924 03:27:54.034178 27440 net.cpp:148] Top shape: 1 1 1000 (1000)
I0924 03:27:54.034194 27440 net.cpp:156] Memory required for data: 94016
I0924 03:27:54.034210 27440 layer_factory.hpp:77] Creating layer h_pseudoloss
I0924 03:27:54.034240 27440 net.cpp:91] Creating Layer h_pseudoloss
I0924 03:27:54.034253 27440 net.cpp:425] h_pseudoloss <- h
I0924 03:27:54.034276 27440 net.cpp:399] h_pseudoloss -> h_pseudoloss
I0924 03:27:54.034286 27396 net.cpp:141] Setting up lstm2_x_transform
I0924 03:27:54.034323 27396 net.cpp:148] Top shape: 1 1 4000 (4000)
I0924 03:27:54.034328 27396 net.cpp:156] Memory required for data: 30020
I0924 03:27:54.034349 27396 layer_factory.hpp:77] Creating layer lstm2_W_xc_x_slice
I0924 03:27:54.034366 27396 net.cpp:91] Creating Layer lstm2_W_xc_x_slice
I0924 03:27:54.034373 27396 net.cpp:425] lstm2_W_xc_x_slice <- W_xc_x
I0924 03:27:54.034373 27414 net.cpp:141] Setting up lstm2_x_transform
I0924 03:27:54.034386 27396 net.cpp:399] lstm2_W_xc_x_slice -> W_xc_x_1
I0924 03:27:54.034396 27414 net.cpp:148] Top shape: 1 1 4000 (4000)
I0924 03:27:54.034407 27414 net.cpp:156] Memory required for data: 30020
I0924 03:27:54.034430 27414 layer_factory.hpp:77] Creating layer lstm2_W_xc_x_slice
I0924 03:27:54.034453 27414 net.cpp:91] Creating Layer lstm2_W_xc_x_slice
I0924 03:27:54.034466 27414 net.cpp:425] lstm2_W_xc_x_slice <- W_xc_x
I0924 03:27:54.034477 27414 net.cpp:399] lstm2_W_xc_x_slice -> W_xc_x_1
I0924 03:27:54.034518 27396 net.cpp:141] Setting up lstm2_W_xc_x_slice
I0924 03:27:54.034529 27396 net.cpp:148] Top shape: 1 1 4000 (4000)
I0924 03:27:54.034534 27396 net.cpp:156] Memory required for data: 46020
I0924 03:27:54.034539 27396 layer_factory.hpp:77] Creating layer lstm2_h_conted_0
I0924 03:27:54.034550 27396 net.cpp:91] Creating Layer lstm2_h_conted_0
I0924 03:27:54.034555 27396 net.cpp:425] lstm2_h_conted_0 <- h_0
I0924 03:27:54.034562 27396 net.cpp:425] lstm2_h_conted_0 <- cont_1_lstm2_cont_slice_0_split_0
I0924 03:27:54.034574 27396 net.cpp:399] lstm2_h_conted_0 -> h_conted_0
I0924 03:27:54.034734 27396 net.cpp:141] Setting up lstm2_h_conted_0
I0924 03:27:54.034749 27396 net.cpp:148] Top shape: 1 1 1000 (1000)
I0924 03:27:54.034754 27396 net.cpp:156] Memory required for data: 50020
I0924 03:27:54.034759 27396 layer_factory.hpp:77] Creating layer lstm2_transform_1
I0924 03:27:54.034773 27396 net.cpp:91] Creating Layer lstm2_transform_1
I0924 03:27:54.034780 27396 net.cpp:425] lstm2_transform_1 <- h_conted_0
I0924 03:27:54.034792 27396 net.cpp:399] lstm2_transform_1 -> W_hc_h_0
I0924 03:27:54.034801 27414 net.cpp:141] Setting up lstm2_W_xc_x_slice
I0924 03:27:54.034819 27414 net.cpp:148] Top shape: 1 1 4000 (4000)
I0924 03:27:54.034826 27414 net.cpp:156] Memory required for data: 46020
I0924 03:27:54.034834 27414 layer_factory.hpp:77] Creating layer lstm2_h_conted_0
I0924 03:27:54.034849 27414 net.cpp:91] Creating Layer lstm2_h_conted_0
I0924 03:27:54.034857 27414 net.cpp:425] lstm2_h_conted_0 <- h_0
I0924 03:27:54.034867 27414 net.cpp:425] lstm2_h_conted_0 <- cont_1_lstm2_cont_slice_0_split_0
I0924 03:27:54.034883 27414 net.cpp:399] lstm2_h_conted_0 -> h_conted_0
I0924 03:27:54.034958 27406 net.cpp:141] Setting up lstm2_x_transform
I0924 03:27:54.034979 27406 net.cpp:148] Top shape: 1 1 4000 (4000)
I0924 03:27:54.034987 27406 net.cpp:156] Memory required for data: 30020
I0924 03:27:54.035006 27406 layer_factory.hpp:77] Creating layer lstm2_W_xc_x_slice
I0924 03:27:54.035019 27406 net.cpp:91] Creating Layer lstm2_W_xc_x_slice
I0924 03:27:54.035028 27406 net.cpp:425] lstm2_W_xc_x_slice <- W_xc_x
I0924 03:27:54.035043 27406 net.cpp:399] lstm2_W_xc_x_slice -> W_xc_x_1
I0924 03:27:54.042904 27414 net.cpp:141] Setting up lstm2_h_conted_0
…
I0924 03:29:17.222247 27743 net.cpp:219] lstm2_ does not need backward computation.
I0924 03:29:17.222247 27715 net.cpp:148] Top shape: 1 1 4000 (4000)
I0924 03:29:17.222256 27743 net.cpp:217] lstm2_unit_1 needs backward computation.
I0924 03:29:17.222261 27715 net.cpp:156] Memory required for data: 30020
I0924 03:29:17.222257 27711 net.cpp:425] lstm1_unit_1 <- c_0
I0924 03:29:17.222270 27743 net.cpp:217] lstm2_gate_input_1 needs backward computation.
I0924 03:29:17.222272 27711 net.cpp:425] lstm1_unit_1 <- gate_input_1
I0924 03:29:17.222275 27715 layer_factory.hpp:77] Creating layer lstm2_W_xc_x_slice
I0924 03:29:17.222280 27743 net.cpp:217] lstm2_transform_1 needs backward computation.
I0924 03:29:17.222282 27723 net.cpp:141] Setting up lstm2_gate_input_1
I0924 03:29:17.222285 27715 net.cpp:91] Creating Layer lstm2_W_xc_x_slice
I0924 03:29:17.222293 27743 net.cpp:219] lstm2_h_conted_0 does not need backward computation.
I0924 03:29:17.222297 27723 net.cpp:148] Top shape: 1 1 4000 (4000)
I0924 03:29:17.222281 27711 net.cpp:425] lstm1_unit_1 <- cont_1_lstm1_cont_slice_0_split_1
I0924 03:29:17.222302 27723 net.cpp:156] Memory required for data: 82020
I0924 03:29:17.222306 27743 net.cpp:217] lstm2_W_xc_x_slice needs backward computation.
I0924 03:29:17.222303 27715 net.cpp:425] lstm2_W_xc_x_slice <- W_xc_x
I0924 03:29:17.222311 27723 layer_factory.hpp:77] Creating layer lstm2_unit_1
…
I0924 03:29:17.222342 27743 net.cpp:219] lstm2_cont_slice does not need backward computation.
I0924 03:29:17.222347 27723 net.cpp:425] lstm2_unit_1 <- gate_input_1
I0924 03:29:17.222354 27723 net.cpp:425] lstm2_unit_1 <- cont_1_lstm2_cont_slice_0_split_1
I0924 03:29:17.222347 27749 net.cpp:141] Setting up lstm2_gate_input_1
I0924 03:29:17.222353 27743 net.cpp:219] lstm2_ does not need backward computation.
I0924 03:29:17.222367 27711 net.cpp:399] lstm1_unit_1 -> h_1
I0924 03:29:17.222378 27743 net.cpp:219] lstm2_ does not need backward computation.
I0924 03:29:17.222368 27723 net.cpp:399] lstm2_unit_1 -> c_1
I0924 03:29:17.222373 27749 net.cpp:148] Top shape: 1 1 4000 (4000)
I0924 03:29:17.222393 27743 net.cpp:261] This network produces output c_T
I0924 03:29:17.222399 27709 net.cpp:141] Setting up lstm2_h_conted_0
I0924 03:29:17.222400 27749 net.cpp:156] Memory required for data: 82020
I0924 03:29:17.222419 27709 net.cpp:148] Top shape: 1 1 1000 (1000)
I0924 03:29:17.222403 27723 net.cpp:399] lstm2_unit_1 -> h_1
I0924 03:29:17.222425 27749 layer_factory.hpp:77] Creating layer lstm2_unit_1
I0924 03:29:17.222431 27709 net.cpp:156] Memory required for data: 50020
I0924 03:29:17.222404 27743 net.cpp:261] This network produces output h_pseudoloss
I0924 03:29:17.222435 27715 net.cpp:141] Setting up lstm2_W_xc_x_slice
I0924 03:29:17.222443 27749 net.cpp:91] Creating Layer lstm2_unit_1
I0924 03:29:17.222440 27709 layer_factory.hpp:77] Creating layer lstm2_transform_1
I0924 03:29:17.222455 27749 net.cpp:425] lstm2_unit_1 <- c_0
I0924 03:29:17.222457 27715 net.cpp:148] Top shape: 1 1 4000 (4000)
I0924 03:29:17.222462 27743 net.cpp:274] Network initialization done.
I0924 03:29:17.222465 27715 net.cpp:156] Memory required for data: 46020
I0924 03:29:17.222466 27749 net.cpp:425] lstm2_unit_1 <- gate_input_1
I0924 03:29:17.222475 27715 layer_factory.hpp:77] Creating layer lstm2_h_conted_0
I0924 03:29:17.222470 27709 net.cpp:91] Creating Layer lstm2_transform_1
I0924 03:29:17.222484 27749 net.cpp:425] lstm2_unit_1 <- cont_1_lstm2_cont_slice_0_split_1
I0924 03:29:17.222488 27709 net.cpp:425] lstm2_transform_1 <- h_conted_0
I0924 03:29:17.222489 27715 net.cpp:91] Creating Layer lstm2_h_conted_0
I0924 03:29:17.222499 27749 net.cpp:399] lstm2_unit_1 -> c_1
I0924 03:29:17.222504 27715 net.cpp:425] lstm2_h_conted_0 <- h_0
I0924 03:29:17.222507 27709 net.cpp:399] lstm2_transform_1 -> W_hc_h_0
I0924 03:29:17.222512 27749 net.cpp:399] lstm2_unit_1 -> h_1
I0924 03:29:17.222515 27715 net.cpp:425] lstm2_h_conted_0 <- cont_1_lstm2_cont_slice_0_split_0
I0924 03:29:17.222528 27743 recurrent_layer.cpp:150] Adding parameter 0: W_xc
I0924 03:29:17.222533 27723 net.cpp:141] Setting up lstm2_unit_1
I0924 03:29:17.222540 27743 recurrent_layer.cpp:150] Adding parameter 1: b_c
I0924 03:29:17.222534 27715 net.cpp:399] lstm2_h_conted_0 -> h_conted_0
I0924 03:29:17.222546 27723 net.cpp:148] Top shape: 1 1 1000 (1000)
I0924 03:29:17.222558 27723 net.cpp:148] Top shape: 1 1 1000 (1000)
I0924 03:29:17.222563 27723 net.cpp:156] Memory required for data: 90020
I0924 03:29:17.222546 27743 recurrent_layer.cpp:150] Adding parameter 2: W_hc
I0924 03:29:17.222568 27723 layer_factory.hpp:77] Creating layer lstm2_
I0924 03:29:17.222589 27723 net.cpp:91] Creating Layer lstm2_
I0924 03:29:17.222605 27723 net.cpp:425] lstm2_ <- c_1
I0924 03:29:17.222615 27723 net.cpp:399] lstm2_ -> c_T
I0924 03:29:17.222676 27723 net.cpp:141] Setting up lstm2_
I0924 03:29:17.222684 27723 net.cpp:148] Top shape: 1 1 1000 (1000)
I0924 03:29:17.222688 27723 net.cpp:156] Memory required for data: 94020
I0924 03:29:17.222693 27723 layer_factory.hpp:77] Creating layer lstm2_h_concat
I0924 03:29:17.222703 27723 net.cpp:91] Creating Layer lstm2_h_concat
I0924 03:29:17.222707 27723 net.cpp:425] lstm2_h_concat <- h_1
I0924 03:29:17.222718 27723 net.cpp:399] lstm2_h_concat -> h
I0924 03:29:17.230566 27723 net.cpp:141] Setting up lstm2_h_concat
I0924 03:29:17.230638 27723 net.cpp:148] Top shape: 1 1 1000 (1000)
I0924 03:29:17.230648 27723 net.cpp:156] Memory required for data: 98020
I0924 03:29:17.230659 27723 layer_factory.hpp:77] Creating layer h_pseudoloss
I0924 03:29:17.230751 27723 net.cpp:91] Creating Layer h_pseudoloss
I0924 03:29:17.230767 27723 net.cpp:425] h_pseudoloss <- h
I0924 03:29:17.230787 27723 net.cpp:399] h_pseudoloss -> h_pseudoloss
I0924 03:29:17.230847 27715 net.cpp:141] Setting up lstm2_h_conted_0
I0924 03:29:17.230904 27715 net.cpp:148] Top shape: 1 1 1000 (1000)
I0924 03:29:17.230919 27715 net.cpp:156] Memory required for data: 50020
I0924 03:29:17.230942 27715 layer_factory.hpp:77] Creating layer lstm2_transform_1
I0924 03:29:17.230974 27723 net.cpp:141] Setting up h_pseudoloss
I0924 03:29:17.230980 27715 net.cpp:91] Creating Layer lstm2_transform_1
I0924 03:29:17.230994 27723 net.cpp:148] Top shape: (1)
I0924 03:29:17.231004 27715 net.cpp:425] lstm2_transform_1 <- h_conted_0
…
I0924 03:29:17.231160 27723 net.cpp:219] lstm2_ does not need backward computation.
I0924 03:29:17.231168 27723 net.cpp:261] This network produces output c_T
I0924 03:29:17.231174 27723 net.cpp:261] This network produces output h_pseudoloss
I0924 03:29:17.231210 27723 net.cpp:274] Network initialization done.
I0924 03:29:17.231288 27723 recurrent_layer.cpp:150] Adding parameter 0: W_xc
I0924 03:29:17.231299 27723 recurrent_layer.cpp:150] Adding parameter 1: b_c
I0924 03:29:17.231307 27723 recurrent_layer.cpp:150] Adding parameter 2: W_hc
I0924 03:29:17.231326 27711 net.cpp:141] Setting up lstm1_unit_1
I0924 03:29:17.231348 27711 net.cpp:148] Top shape: 1 1 1000 (1000)
I0924 03:29:17.231359 27711 net.cpp:148] Top shape: 1 1 1000 (1000)
I0924 03:29:17.231366 27711 net.cpp:156] Memory required for data: 86016
I0924 03:29:17.231364 27743 net.cpp:141] Setting up lstm2
I0924 03:29:17.231377 27711 layer_factory.hpp:77] Creating layer lstm1_
I0924 03:29:17.231387 27743 net.cpp:148] Top shape: 1 1 1000 (1000)
I0924 03:29:17.231393 27711 net.cpp:91] Creating Layer lstm1_
I0924 03:29:17.231395 27743 net.cpp:156] Memory required for data: 36412
I0924 03:29:17.231418 27711 net.cpp:425] lstm1_ <- c_1
I0924 03:29:17.231431 27711 net.cpp:399] lstm1_ -> c_T
I0924 03:29:17.231441 27743 layer_factory.hpp:77] Creating layer predict
I0924 03:29:17.231457 27743 net.cpp:91] Creating Layer predict
I0924 03:29:17.231467 27743 net.cpp:425] predict <- lstm2
I0924 03:29:17.231480 27743 net.cpp:399] predict -> predict
I0924 03:29:17.242230 27711 net.cpp:141] Setting up lstm1_
I0924 03:29:17.242296 27711 net.cpp:148] Top shape: 1 1 1000 (1000)
I0924 03:29:17.242308 27711 net.cpp:156] Memory required for data: 90016
I0924 03:29:17.242324 27711 layer_factory.hpp:77] Creating layer lstm1_h_concat
I0924 03:29:17.242352 27711 net.cpp:91] Creating Layer lstm1_h_concat
I0924 03:29:17.242363 27711 net.cpp:425] lstm1_h_concat <- h_1
I0924 03:29:17.242442 27711 net.cpp:399] lstm1_h_concat -> h
I0924 03:29:17.324968 27711 net.cpp:141] Setting up lstm1_h_concat
I0924 03:29:17.325002 27749 net.cpp:141] Setting up lstm2_unit_1
I0924 03:29:17.325023 27711 net.cpp:148] Top shape: 1 1 1000 (1000)
I0924 03:29:17.325023 27749 net.cpp:148] Top shape: 1 1 1000 (1000)
I0924 03:29:17.325034 27711 net.cpp:156] Memory required for data: 94016
I0924 03:29:17.325039 27749 net.cpp:148] Top shape: 1 1 1000 (1000)
I0924 03:29:17.325043 27711 layer_factory.hpp:77] Creating layer h_pseudoloss
I0924 03:29:17.325044 27749 net.cpp:156] Memory required for data: 90020
I0924 03:29:17.325057 27749 layer_factory.hpp:77] Creating layer lstm2_
I0924 03:29:17.325067 27749 net.cpp:91] Creating Layer lstm2_
I0924 03:29:17.325074 27749 net.cpp:425] lstm2_ <- c_1
I0924 03:29:17.325086 27749 net.cpp:399] lstm2_ -> c_T
I0924 03:29:17.325074 27709 net.cpp:141] Setting up lstm2_transform_1
I0924 03:29:17.325074 27711 net.cpp:91] Creating Layer h_pseudoloss
I0924 03:29:17.325134 27709 net.cpp:148] Top shape: 1 1 4000 (4000)
I0924 03:29:17.325137 27711 net.cpp:425] h_pseudoloss <- h
I0924 03:29:17.325142 27715 net.cpp:141] Setting up lstm2_transform_1
I0924 03:29:17.325153 27711 net.cpp:399] h_pseudoloss -> h_pseudoloss
I0924 03:29:17.325143 27709 net.cpp:156] Memory required for data: 66020
I0924 03:29:17.325171 27715 net.cpp:148] Top shape: 1 1 4000 (4000)
I0924 03:29:17.325179 27715 net.cpp:156] Memory required for data: 66020
I0924 03:29:17.325186 27709 layer_factory.hpp:77] Creating layer lstm2_gate_input_1
I0924 03:29:17.325198 27715 layer_factory.hpp:77] Creating layer lstm2_gate_input_1
I0924 03:29:17.325215 27715 net.cpp:91] Creating Layer lstm2_gate_input_1
I0924 03:29:17.325214 27709 net.cpp:91] Creating Layer lstm2_gate_input_1
I0924 03:29:17.325237 27715 net.cpp:425] lstm2_gate_input_1 <- W_hc_h_0
I0924 03:29:17.325258 27709 net.cpp:425] lstm2_gate_input_1 <- W_hc_h_0
I0924 03:29:17.325264 27715 net.cpp:425] lstm2_gate_input_1 <- W_xc_x_1
I0924 03:29:17.325270 27709 net.cpp:425] lstm2_gate_input_1 <- W_xc_x_1
I0924 03:29:17.325280 27715 net.cpp:399] lstm2_gate_input_1 -> gate_input_1
I0924 03:29:17.325285 27709 net.cpp:399] lstm2_gate_input_1 -> gate_input_1
I0924 03:29:17.325369 27709 net.cpp:141] Setting up lstm2_gate_input_1
I0924 03:29:17.325386 27709 net.cpp:148] Top shape: 1 1 4000 (4000)
I0924 03:29:17.325393 27709 net.cpp:156] Memory required for data: 82020
I0924 03:29:17.325402 27709 layer_factory.hpp:77] Creating layer lstm2_unit_1
I0924 03:29:17.325404 27715 net.cpp:141] Setting up lstm2_gate_input_1
I0924 03:29:17.325415 27715 net.cpp:148] Top shape: 1 1 4000 (4000)
I0924 03:29:17.325419 27715 net.cpp:156] Memory required for data: 82020
I0924 03:29:17.325420 27709 net.cpp:91] Creating Layer lstm2_unit_1
I0924 03:29:17.325424 27715 layer_factory.hpp:77] Creating layer lstm2_unit_1
I0924 03:29:17.325431 27709 net.cpp:425] lstm2_unit_1 <- c_0
I0924 03:29:17.325433 27715 net.cpp:91] Creating Layer lstm2_unit_1
I0924 03:29:17.325448 27709 net.cpp:425] lstm2_unit_1 <- gate_input_1
I0924 03:29:17.325441 27749 net.cpp:141] Setting up lstm2_
I0924 03:29:17.325456 27715 net.cpp:425] lstm2_unit_1 <- c_0
I0924 03:29:17.325459 27709 net.cpp:425] lstm2_unit_1 <- cont_1_lstm2_cont_slice_0_split_1
I0924 03:29:17.325464 27749 net.cpp:148] Top shape: 1 1 1000 (1000)
I0924 03:29:17.325469 27749 net.cpp:156] Memory required for data: 94020
I0924 03:29:17.325467 27715 net.cpp:425] lstm2_unit_1 <- gate_input_1
I0924 03:29:17.325474 27749 layer_factory.hpp:77] Creating layer lstm2_h_concat
I0924 03:29:17.325477 27715 net.cpp:425] lstm2_unit_1 <- cont_1_lstm2_cont_slice_0_split_1
I0924 03:29:17.325472 27709 net.cpp:399] lstm2_unit_1 -> c_1
I0924 03:29:17.325495 27715 net.cpp:399] lstm2_unit_1 -> c_1
I0924 03:29:17.325500 27709 net.cpp:399] lstm2_unit_1 -> h_1
I0924 03:29:17.325495 27749 net.cpp:91] Creating Layer lstm2_h_concat
I0924 03:29:17.325513 27715 net.cpp:399] lstm2_unit_1 -> h_1
I0924 03:29:17.325517 27749 net.cpp:425] lstm2_h_concat <- h_1
I0924 03:29:17.325531 27749 net.cpp:399] lstm2_h_concat -> h
I0924 03:29:17.325569 27723 net.cpp:141] Setting up lstm2
I0924 03:29:17.325609 27723 net.cpp:148] Top shape: 1 1 1000 (1000)
I0924 03:29:17.325614 27723 net.cpp:156] Memory required for data: 36412
I0924 03:29:17.325620 27711 net.cpp:141] Setting up h_pseudoloss
I0924 03:29:17.325635 27723 layer_factory.hpp:77] Creating layer predict
I0924 03:29:17.325640 27711 net.cpp:148] Top shape: (1)
I0924 03:29:17.325652 27723 net.cpp:91] Creating Layer predict
I0924 03:29:17.325660 27723 net.cpp:425] predict <- lstm2
I0924 03:29:17.325649 27711 net.cpp:151]     with loss weight 1
I0924 03:29:17.325669 27723 net.cpp:399] predict -> predict
I0924 03:29:17.325671 27711 net.cpp:156] Memory required for data: 94020
I0924 03:29:17.325678 27711 net.cpp:217] h_pseudoloss needs backward computation.
I0924 03:29:17.325683 27711 net.cpp:217] lstm1_h_concat needs backward computation.
I0924 03:29:17.325688 27711 net.cpp:219] lstm1_ does not need backward computation.
I0924 03:29:17.325686 27749 net.cpp:141] Setting up lstm2_h_concat
I0924 03:29:17.325700 27711 net.cpp:217] lstm1_unit_1 needs backward computation.
I0924 03:29:17.325711 27749 net.cpp:148] Top shape: 1 1 1000 (1000)
I0924 03:29:17.325712 27711 net.cpp:217] lstm1_gate_input_1 needs backward computation.
I0924 03:29:17.325719 27749 net.cpp:156] Memory required for data: 98020
I0924 03:29:17.325724 27749 layer_factory.hpp:77] Creating layer h_pseudoloss
I0924 03:29:17.325724 27711 net.cpp:217] lstm1_transform_1 needs backward computation.
I0924 03:29:17.325739 27749 net.cpp:91] Creating Layer h_pseudoloss
…
I0924 03:29:17.325781 27711 net.cpp:219] lstm1_ does not need backward computation.
I0924 03:29:17.325785 27711 net.cpp:261] This network produces output c_T
I0924 03:29:17.325790 27711 net.cpp:261] This network produces output h_pseudoloss
I0924 03:29:17.325824 27711 net.cpp:274] Network initialization done.
I0924 03:29:17.325876 27711 recurrent_layer.cpp:150] Adding parameter 0: W_xc
I0924 03:29:17.325883 27711 recurrent_layer.cpp:150] Adding parameter 1: b_c
I0924 03:29:17.325887 27711 recurrent_layer.cpp:150] Adding parameter 2: W_hc
I0924 03:29:17.404813 27709 net.cpp:141] Setting up lstm2_unit_1
I0924 03:29:17.404870 27709 net.cpp:148] Top shape: 1 1 1000 (1000)
I0924 03:29:17.404878 27709 net.cpp:148] Top shape: 1 1 1000 (1000)
I0924 03:29:17.404883 27709 net.cpp:156] Memory required for data: 90020
I0924 03:29:17.404893 27709 layer_factory.hpp:77] Creating layer lstm2_
I0924 03:29:17.404918 27709 net.cpp:91] Creating Layer lstm2_
I0924 03:29:17.404927 27709 net.cpp:425] lstm2_ <- c_1
I0924 03:29:17.404942 27709 net.cpp:399] lstm2_ -> c_T
I0924 03:29:17.413604 27709 net.cpp:141] Setting up lstm2_
I0924 03:29:17.413671 27709 net.cpp:148] Top shape: 1 1 1000 (1000)
I0924 03:29:17.413671 27711 net.cpp:141] Setting up lstm1
I0924 03:29:17.413679 27709 net.cpp:156] Memory required for data: 94020
I0924 03:29:17.413693 27711 net.cpp:148] Top shape: 1 1 1000 (1000)
I0924 03:29:17.413696 27709 layer_factory.hpp:77] Creating layer lstm2_h_concat
I0924 03:29:17.413698 27711 net.cpp:156] Memory required for data: 26408
I0924 03:29:17.413720 27711 layer_factory.hpp:77] Creating layer concat
I0924 03:29:17.413724 27709 net.cpp:91] Creating Layer lstm2_h_concat
I0924 03:29:17.413732 27711 net.cpp:91] Creating Layer concat
I0924 03:29:17.413733 27709 net.cpp:425] lstm2_h_concat <- h_1
I0924 03:29:17.413738 27711 net.cpp:425] concat <- lstm1
I0924 03:29:17.413743 27709 net.cpp:399] lstm2_h_concat -> h
I0924 03:29:17.413745 27711 net.cpp:425] concat <- embedded_input_sentence
I0924 03:29:17.413751 27711 net.cpp:425] concat <- reshaped_stage_indicator
I0924 03:29:17.413758 27711 net.cpp:399] concat -> lstm1_video_sequence
I0924 03:29:17.424835 27749 net.cpp:141] Setting up h_pseudoloss
I0924 03:29:17.424901 27749 net.cpp:148] Top shape: (1)
I0924 03:29:17.424898 27709 net.cpp:141] Setting up lstm2_h_concat
I0924 03:29:17.424926 27709 net.cpp:148] Top shape: 1 1 1000 (1000)
I0924 03:29:17.424913 27749 net.cpp:151]     with loss weight 1
I0924 03:29:17.424937 27709 net.cpp:156] Memory required for data: 98020
I0924 03:29:17.424939 27749 net.cpp:156] Memory required for data: 98024
I0924 03:29:17.424952 27709 layer_factory.hpp:77] Creating layer h_pseudoloss
I0924 03:29:17.424953 27749 net.cpp:217] h_pseudoloss needs backward computation.
I0924 03:29:17.424959 27711 net.cpp:141] Setting up concat
I0924 03:29:17.424981 27709 net.cpp:91] Creating Layer h_pseudoloss
I0924 03:29:17.424993 27711 net.cpp:148] Top shape: 1 1 1501 (1501)
I0924 03:29:17.424993 27715 net.cpp:141] Setting up lstm2_unit_1
I0924 03:29:17.425011 27715 net.cpp:148] Top shape: 1 1 1000 (1000)
I0924 03:29:17.425021 27715 net.cpp:148] Top shape: 1 1 1000 (1000)
I0924 03:29:17.425024 27711 net.cpp:156] Memory required for data: 32412
I0924 03:29:17.425029 27715 net.cpp:156] Memory required for data: 90020
I0924 03:29:17.425037 27711 layer_factory.hpp:77] Creating layer lstm2
I0924 03:29:17.425040 27715 layer_factory.hpp:77] Creating layer lstm2_
I0924 03:29:17.425058 27715 net.cpp:91] Creating Layer lstm2_
I0924 03:29:17.425067 27711 net.cpp:91] Creating Layer lstm2
…
I0924 03:29:17.425374 27749 recurrent_layer.cpp:150] Adding parameter 2: W_hc
I0924 03:29:17.425587 27711 net.cpp:49] Initializing net from parameters: 
layer {
  name: "lstm2_"
  type: "Input"
  top: "x"
  top: "cont"
  input_param {
    shape {
      dim: 1
      dim: 1
      dim: 1501
    }
    shape {
      dim: 1
      dim: 1
    }
  }
}
layer {
  name: "lstm2_"
  type: "Input"
  top: "c_0"
  top: "h_0"
  input_param {
    shape {
      dim: 1
      dim: 1
      dim: 1000
    }
    shape {
      dim: 1
      dim: 1
      dim: 1000
    }
  }
}
layer {
  name: "lstm2_cont_slice"
  type: "Slice"
  bottom: "cont"
  top: "cont_1"
  slice_param {
    axis: 0
  }
}
layer {
  name: "lstm2_x_transform"
  type: "InnerProduct"
  bottom: "x"
  top: "W_xc_x"
  param {
    name: "W_xc"
  }
  param {
    name: "b_c"
  }
  propagate_down: true
  inner_product_param {
    num_output: 4000
    bias_term: true
    weight_filler {
      type: "uniform"
      min: -0.08
      max: 0.08
    }
    bias_filler {
      type: "constant"
      value: 0
    }
    axis: 2
  }
}
layer {
  name: "lstm2_W_xc_x_slice"
  type: "Slice"
  bottom: "W_xc_x"
  top: "W_xc_x_1"
  slice_param {
    axis: 0
  }
}
layer {
  name: "lstm2_h_conted_0"
  type: "Scale"
  bottom: "h_0"
  bottom: "cont_1"
  top: "h_conted_0"
  scale_param {
    axis: 0
  }
}
layer {
  name: "lstm2_transform_1"
  type: "InnerProduct"
  bottom: "h_conted_0"
  top: "W_hc_h_0"
  param {
    name: "W_hc"
  }
  inner_product_param {
    num_output: 4000
    bias_term: false
    weight_filler {
      type: "uniform"
      min: -0.08
      max: 0.08
    }
    axis: 2
  }
}
layer {
  name: "lstm2_gate_input_1"
  type: "Eltwise"
  bottom: "W_hc_h_0"
  bottom: "W_xc_x_1"
  top: "gate_input_1"
  eltwise_param {
    operation: SUM
  }
}
layer {
  name: "lstm2_unit_1"
  type: "LSTMUnit"
  bottom: "c_0"
  bottom: "gate_input_1"
  bottom: "cont_1"
  top: "c_1"
  top: "h_1"
}
layer {
  name: "lstm2_"
  type: "Split"
  bottom: "c_1"
  top: "c_T"
}
layer {
  name: "lstm2_h_concat"
  type: "Concat"
  bottom: "h_1"
  top: "h"
  concat_param {
    axis: 0
  }
}
layer {
  name: "h_pseudoloss"
  type: "Reduction"
  bottom: "h"
  top: "h_pseudoloss"
  loss_weight: 1
}
I0924 03:29:17.425719 27711 layer_factory.hpp:77] Creating layer lstm2_
I0924 03:29:17.425737 27711 net.cpp:91] Creating Layer lstm2_
I0924 03:29:17.425747 27711 net.cpp:399] lstm2_ -> x
I0924 03:29:17.425763 27711 net.cpp:399] lstm2_ -> cont
I0924 03:29:17.430302 27715 net.cpp:141] Setting up lstm2_
I0924 03:29:17.430346 27715 net.cpp:148] Top shape: 1 1 1000 (1000)
I0924 03:29:17.430354 27715 net.cpp:156] Memory required for data: 94020
I0924 03:29:17.430366 27715 layer_factory.hpp:77] Creating layer lstm2_h_concat
I0924 03:29:17.430389 27715 net.cpp:91] Creating Layer lstm2_h_concat
I0924 03:29:17.430399 27715 net.cpp:425] lstm2_h_concat <- h_1
I0924 03:29:17.430415 27715 net.cpp:399] lstm2_h_concat -> h
I0924 03:29:17.430485 27715 net.cpp:141] Setting up lstm2_h_concat
I0924 03:29:17.430498 27715 net.cpp:148] Top shape: 1 1 1000 (1000)
I0924 03:29:17.430505 27715 net.cpp:156] Memory required for data: 98020
I0924 03:29:17.430513 27715 layer_factory.hpp:77] Creating layer h_pseudoloss
I0924 03:29:17.430527 27715 net.cpp:91] Creating Layer h_pseudoloss
I0924 03:29:17.430534 27715 net.cpp:425] h_pseudoloss <- h
I0924 03:29:17.430546 27715 net.cpp:399] h_pseudoloss -> h_pseudoloss
I0924 03:29:17.430721 27715 net.cpp:141] Setting up h_pseudoloss
…
I0924 03:29:17.524360 27709 net.cpp:219] lstm2_ does not need backward computation.
I0924 03:29:17.524368 27709 net.cpp:261] This network produces output c_T
I0924 03:29:17.524376 27709 net.cpp:261] This network produces output h_pseudoloss
I0924 03:29:17.524400 27709 net.cpp:274] Network initialization done.
I0924 03:29:17.524479 27709 recurrent_layer.cpp:150] Adding parameter 0: W_xc
I0924 03:29:17.524492 27709 recurrent_layer.cpp:150] Adding parameter 1: b_c
I0924 03:29:17.524500 27709 recurrent_layer.cpp:150] Adding parameter 2: W_hc
I0924 03:29:17.607345 27711 net.cpp:141] Setting up lstm2_
I0924 03:29:17.607414 27711 net.cpp:148] Top shape: 1 1 1501 (1501)
I0924 03:29:17.607432 27711 net.cpp:148] Top shape: 1 1 (1)
I0924 03:29:17.607440 27711 net.cpp:156] Memory required for data: 6008
I0924 03:29:17.607453 27711 layer_factory.hpp:77] Creating layer lstm2_
I0924 03:29:17.607484 27711 net.cpp:91] Creating Layer lstm2_
I0924 03:29:17.607509 27711 net.cpp:399] lstm2_ -> c_0
I0924 03:29:17.607534 27711 net.cpp:399] lstm2_ -> h_0
I0924 03:29:17.607563 27709 net.cpp:141] Setting up lstm2
I0924 03:29:17.607583 27709 net.cpp:148] Top shape: 1 1 1000 (1000)
I0924 03:29:17.607590 27709 net.cpp:156] Memory required for data: 36412
I0924 03:29:17.607620 27709 layer_factory.hpp:77] Creating layer predict
I0924 03:29:17.607632 27711 net.cpp:141] Setting up lstm2_
I0924 03:29:17.607640 27709 net.cpp:91] Creating Layer predict
I0924 03:29:17.607645 27711 net.cpp:148] Top shape: 1 1 1000 (1000)
I0924 03:29:17.607651 27709 net.cpp:425] predict <- lstm2
I0924 03:29:17.607655 27711 net.cpp:148] Top shape: 1 1 1000 (1000)
I0924 03:29:17.607661 27711 net.cpp:156] Memory required for data: 14008
I0924 03:29:17.607666 27709 net.cpp:399] predict -> predict
I0924 03:29:17.607669 27711 layer_factory.hpp:77] Creating layer lstm2_cont_slice
I0924 03:29:17.607692 27711 net.cpp:91] Creating Layer lstm2_cont_slice
I0924 03:29:17.607702 27711 net.cpp:425] lstm2_cont_slice <- cont
I0924 03:29:17.607714 27711 net.cpp:399] lstm2_cont_slice -> cont_1
I0924 03:29:17.690944 27711 net.cpp:141] Setting up lstm2_cont_slice
I0924 03:29:17.691030 27711 net.cpp:148] Top shape: 1 1 (1)
I0924 03:29:17.691047 27711 net.cpp:156] Memory required for data: 14012
I0924 03:29:17.691067 27711 layer_factory.hpp:77] Creating layer cont_1_lstm2_cont_slice_0_split
I0924 03:29:17.691155 27711 net.cpp:91] Creating Layer cont_1_lstm2_cont_slice_0_split
I0924 03:29:17.691190 27711 net.cpp:425] cont_1_lstm2_cont_slice_0_split <- cont_1
I0924 03:29:17.691325 27711 net.cpp:399] cont_1_lstm2_cont_slice_0_split -> cont_1_lstm2_cont_slice_0_split_0
I0924 03:29:17.691354 27711 net.cpp:399] cont_1_lstm2_cont_slice_0_split -> cont_1_lstm2_cont_slice_0_split_1
I0924 03:29:17.691572 27711 net.cpp:141] Setting up cont_1_lstm2_cont_slice_0_split
I0924 03:29:17.691594 27711 net.cpp:148] Top shape: 1 1 (1)
I0924 03:29:17.691606 27711 net.cpp:148] Top shape: 1 1 (1)
I0924 03:29:17.691614 27711 net.cpp:156] Memory required for data: 14020
I0924 03:29:17.691624 27711 layer_factory.hpp:77] Creating layer lstm2_x_transform
I0924 03:29:17.691653 27711 net.cpp:91] Creating Layer lstm2_x_transform
I0924 03:29:17.691663 27711 net.cpp:425] lstm2_x_transform <- x
I0924 03:29:17.691679 27711 net.cpp:399] lstm2_x_transform -> W_xc_x
I0924 03:29:17.706181 27705 net.cpp:141] Setting up predict
I0924 03:29:17.706238 27705 net.cpp:148] Top shape: 1 1 46168 (46168)
I0924 03:29:17.706246 27705 net.cpp:156] Memory required for data: 221084
I0924 03:29:17.706267 27705 layer_factory.hpp:77] Creating layer probs
I0924 03:29:17.706288 27705 net.cpp:91] Creating Layer probs
I0924 03:29:17.706298 27705 net.cpp:425] probs <- predict
I0924 03:29:17.706312 27705 net.cpp:399] probs -> probs
I0924 03:29:17.706445 27743 net.cpp:141] Setting up predict
I0924 03:29:17.706495 27743 net.cpp:148] Top shape: 1 1 46168 (46168)
I0924 03:29:17.706503 27743 net.cpp:156] Memory required for data: 221084
I0924 03:29:17.706524 27743 layer_factory.hpp:77] Creating layer probs
I0924 03:29:17.706547 27743 net.cpp:91] Creating Layer probs
I0924 03:29:17.706559 27743 net.cpp:425] probs <- predict
I0924 03:29:17.706573 27743 net.cpp:399] probs -> probs
I0924 03:29:17.770156 27711 net.cpp:141] Setting up lstm2_x_transform
I0924 03:29:17.770208 27711 net.cpp:148] Top shape: 1 1 4000 (4000)
I0924 03:29:17.770215 27711 net.cpp:156] Memory required for data: 30020
I0924 03:29:17.770246 27711 layer_factory.hpp:77] Creating layer lstm2_W_xc_x_slice
I0924 03:29:17.770267 27711 net.cpp:91] Creating Layer lstm2_W_xc_x_slice
I0924 03:29:17.770274 27711 net.cpp:425] lstm2_W_xc_x_slice <- W_xc_x
I0924 03:29:17.770284 27711 net.cpp:399] lstm2_W_xc_x_slice -> W_xc_x_1
I0924 03:29:17.772814 27711 net.cpp:141] Setting up lstm2_W_xc_x_slice
I0924 03:29:17.772876 27711 net.cpp:148] Top shape: 1 1 4000 (4000)
I0924 03:29:17.772882 27711 net.cpp:156] Memory required for data: 46020
I0924 03:29:17.772896 27711 layer_factory.hpp:77] Creating layer lstm2_h_conted_0
I0924 03:29:17.772929 27711 net.cpp:91] Creating Layer lstm2_h_conted_0
I0924 03:29:17.772939 27711 net.cpp:425] lstm2_h_conted_0 <- h_0
I0924 03:29:17.772951 27711 net.cpp:425] lstm2_h_conted_0 <- cont_1_lstm2_cont_slice_0_split_0
I0924 03:29:17.772964 27711 net.cpp:399] lstm2_h_conted_0 -> h_conted_0
I0924 03:29:17.773443 27711 net.cpp:141] Setting up lstm2_h_conted_0
I0924 03:29:17.773458 27711 net.cpp:148] Top shape: 1 1 1000 (1000)
I0924 03:29:17.773464 27711 net.cpp:156] Memory required for data: 50020
I0924 03:29:17.773471 27711 layer_factory.hpp:77] Creating layer lstm2_transform_1
I0924 03:29:17.773491 27711 net.cpp:91] Creating Layer lstm2_transform_1
I0924 03:29:17.773499 27711 net.cpp:425] lstm2_transform_1 <- h_conted_0
I0924 03:29:17.773510 27711 net.cpp:399] lstm2_transform_1 -> W_hc_h_0
I0924 03:29:17.804328 27723 net.cpp:141] Setting up predict
I0924 03:29:17.804419 27723 net.cpp:148] Top shape: 1 1 46168 (46168)
I0924 03:29:17.804431 27723 net.cpp:156] Memory required for data: 221084
I0924 03:29:17.804456 27723 layer_factory.hpp:77] Creating layer probs
I0924 03:29:17.804477 27723 net.cpp:91] Creating Layer probs
I0924 03:29:17.804504 27723 net.cpp:425] probs <- predict
I0924 03:29:17.804520 27723 net.cpp:399] probs -> probs
I0924 03:29:17.832069 27711 net.cpp:141] Setting up lstm2_transform_1
I0924 03:29:17.832134 27711 net.cpp:148] Top shape: 1 1 4000 (4000)
I0924 03:29:17.832140 27711 net.cpp:156] Memory required for data: 66020
I0924 03:29:17.832166 27711 layer_factory.hpp:77] Creating layer lstm2_gate_input_1
I0924 03:29:17.832211 27711 net.cpp:91] Creating Layer lstm2_gate_input_1
I0924 03:29:17.832221 27711 net.cpp:425] lstm2_gate_input_1 <- W_hc_h_0
I0924 03:29:17.832228 27711 net.cpp:425] lstm2_gate_input_1 <- W_xc_x_1
I0924 03:29:17.832238 27711 net.cpp:399] lstm2_gate_input_1 -> gate_input_1
I0924 03:29:17.836447 27711 net.cpp:141] Setting up lstm2_gate_input_1
I0924 03:29:17.836953 27711 net.cpp:148] Top shape: 1 1 4000 (4000)
I0924 03:29:17.836980 27711 net.cpp:156] Memory required for data: 82020
I0924 03:29:17.837000 27711 layer_factory.hpp:77] Creating layer lstm2_unit_1
I0924 03:29:17.837036 27711 net.cpp:91] Creating Layer lstm2_unit_1
I0924 03:29:17.837052 27711 net.cpp:425] lstm2_unit_1 <- c_0
I0924 03:29:17.837074 27711 net.cpp:425] lstm2_unit_1 <- gate_input_1
I0924 03:29:17.837090 27711 net.cpp:425] lstm2_unit_1 <- cont_1_lstm2_cont_slice_0_split_1
I0924 03:29:17.837110 27711 net.cpp:399] lstm2_unit_1 -> c_1
I0924 03:29:17.837131 27711 net.cpp:399] lstm2_unit_1 -> h_1
I0924 03:29:17.841375 27711 net.cpp:141] Setting up lstm2_unit_1
I0924 03:29:17.841426 27711 net.cpp:148] Top shape: 1 1 1000 (1000)
I0924 03:29:17.841434 27711 net.cpp:148] Top shape: 1 1 1000 (1000)
I0924 03:29:17.841437 27711 net.cpp:156] Memory required for data: 90020
I0924 03:29:17.841446 27711 layer_factory.hpp:77] Creating layer lstm2_
I0924 03:29:17.841467 27711 net.cpp:91] Creating Layer lstm2_
I0924 03:29:17.841475 27711 net.cpp:425] lstm2_ <- c_1
I0924 03:29:17.841486 27711 net.cpp:399] lstm2_ -> c_T
I0924 03:29:17.849393 27711 net.cpp:141] Setting up lstm2_
I0924 03:29:17.849449 27711 net.cpp:148] Top shape: 1 1 1000 (1000)
I0924 03:29:17.849458 27711 net.cpp:156] Memory required for data: 94020
I0924 03:29:17.849472 27711 layer_factory.hpp:77] Creating layer lstm2_h_concat
I0924 03:29:17.849496 27711 net.cpp:91] Creating Layer lstm2_h_concat
I0924 03:29:17.849506 27711 net.cpp:425] lstm2_h_concat <- h_1
I0924 03:29:17.849530 27711 net.cpp:399] lstm2_h_concat -> h
I0924 03:29:17.852784 27711 net.cpp:141] Setting up lstm2_h_concat
I0924 03:29:17.853029 27711 net.cpp:148] Top shape: 1 1 1000 (1000)
I0924 03:29:17.853200 27711 net.cpp:156] Memory required for data: 98020
I0924 03:29:17.853360 27711 layer_factory.hpp:77] Creating layer h_pseudoloss
I0924 03:29:17.853502 27711 net.cpp:91] Creating Layer h_pseudoloss
I0924 03:29:17.853622 27711 net.cpp:425] h_pseudoloss <- h
I0924 03:29:17.853746 27711 net.cpp:399] h_pseudoloss -> h_pseudoloss
I0924 03:29:17.859866 27711 net.cpp:141] Setting up h_pseudoloss
…
I0924 03:29:17.862061 27711 net.cpp:219] lstm2_ does not need backward computation.
I0924 03:29:17.862210 27711 net.cpp:261] This network produces output c_T
I0924 03:29:17.862321 27711 net.cpp:261] This network produces output h_pseudoloss
I0924 03:29:17.862450 27711 net.cpp:274] Network initialization done.
I0924 03:29:17.862665 27711 recurrent_layer.cpp:150] Adding parameter 0: W_xc
I0924 03:29:17.862790 27711 recurrent_layer.cpp:150] Adding parameter 1: b_c
I0924 03:29:17.862906 27711 recurrent_layer.cpp:150] Adding parameter 2: W_hc
I0924 03:29:17.878407 27711 net.cpp:141] Setting up lstm2
I0924 03:29:17.878466 27711 net.cpp:148] Top shape: 1 1 1000 (1000)
I0924 03:29:17.878479 27711 net.cpp:156] Memory required for data: 36412
I0924 03:29:17.878516 27711 layer_factory.hpp:77] Creating layer predict
I0924 03:29:17.878548 27711 net.cpp:91] Creating Layer predict
I0924 03:29:17.878561 27711 net.cpp:425] predict <- lstm2
I0924 03:29:17.878577 27711 net.cpp:399] predict -> predict
I0924 03:29:17.960254 27715 net.cpp:141] Setting up predict
I0924 03:29:17.960319 27715 net.cpp:148] Top shape: 1 1 46168 (46168)
I0924 03:29:17.960331 27715 net.cpp:156] Memory required for data: 221084
I0924 03:29:17.960355 27715 layer_factory.hpp:77] Creating layer probs
I0924 03:29:17.960376 27715 net.cpp:91] Creating Layer probs
I0924 03:29:17.960388 27715 net.cpp:425] probs <- predict
I0924 03:29:17.960403 27715 net.cpp:399] probs -> probs
I0924 03:29:17.998378 27749 net.cpp:141] Setting up predict
I0924 03:29:17.998430 27749 net.cpp:148] Top shape: 1 1 46168 (46168)
I0924 03:29:17.998435 27749 net.cpp:156] Memory required for data: 221084
I0924 03:29:17.998450 27749 layer_factory.hpp:77] Creating layer probs
I0924 03:29:17.998469 27749 net.cpp:91] Creating Layer probs
I0924 03:29:17.998476 27749 net.cpp:425] probs <- predict
I0924 03:29:17.998486 27749 net.cpp:399] probs -> probs
I0924 03:29:18.005189 27705 net.cpp:141] Setting up probs
I0924 03:29:18.005236 27705 net.cpp:148] Top shape: 1 1 46168 (46168)
I0924 03:29:18.005246 27705 net.cpp:156] Memory required for data: 405756
I0924 03:29:18.005242 27749 net.cpp:141] Setting up probs
I0924 03:29:18.005257 27705 net.cpp:219] probs does not need backward computation.
I0924 03:29:18.005265 27749 net.cpp:148] Top shape: 1 1 46168 (46168)
I0924 03:29:18.005269 27705 net.cpp:219] predict does not need backward computation.
I0924 03:29:18.005271 27749 net.cpp:156] Memory required for data: 405756
I0924 03:29:18.005283 27705 net.cpp:219] lstm2 does not need backward computation.
I0924 03:29:18.005288 27749 net.cpp:219] probs does not need backward computation.
I0924 03:29:18.005295 27749 net.cpp:219] predict does not need backward computation.
…
I0924 03:29:18.007549 27705 net.cpp:219] reshape_frames does not need backward computation.
I0924 03:29:18.007568 27705 net.cpp:219] embed_encoder does not need backward computation.
I0924 03:29:18.007580 27705 net.cpp:219] cont_sentence_input_1_split does not need backward computation.
I0924 03:29:18.007588 27705 net.cpp:219] input does not need backward computation.
I0924 03:29:18.007596 27705 net.cpp:261] This network produces output probs
I0924 03:29:18.008005 27743 net.cpp:141] Setting up probs
I0924 03:29:18.008010 27705 net.cpp:274] Network initialization done.
I0924 03:29:18.008026 27743 net.cpp:148] Top shape: 1 1 46168 (46168)
I0924 03:29:18.008031 27743 net.cpp:156] Memory required for data: 405756
I0924 03:29:18.008038 27743 net.cpp:219] probs does not need backward computation.
I0924 03:29:18.008044 27743 net.cpp:219] predict does not need backward computation.
I0924 03:29:18.008047 27743 net.cpp:219] lstm2 does not need backward computation.
I0924 03:29:18.008054 27743 net.cpp:219] concat does not need backward computation.
I0924 03:29:18.008059 27743 net.cpp:219] lstm1 does not need backward computation.
I0924 03:29:18.008064 27743 net.cpp:219] embedding does not need backward computation.
I0924 03:29:18.008069 27743 net.cpp:219] reshape_stage_indicator does not need backward computation.
I0924 03:29:18.008074 27743 net.cpp:219] reshape_frames does not need backward computation.
I0924 03:29:18.008077 27743 net.cpp:219] embed_encoder does not need backward computation.
I0924 03:29:18.008081 27743 net.cpp:219] cont_sentence_input_1_split does not need backward computation.
I0924 03:29:18.008088 27743 net.cpp:219] input does not need backward computation.
I0924 03:29:18.008092 27743 net.cpp:261] This network produces output probs
I0924 03:29:18.008108 27743 net.cpp:274] Network initialization done.
I0924 03:29:18.009073 27715 net.cpp:141] Setting up probs
I0924 03:29:18.009104 27715 net.cpp:148] Top shape: 1 1 46168 (46168)
I0924 03:29:18.009114 27715 net.cpp:156] Memory required for data: 405756
I0924 03:29:18.009124 27715 net.cpp:219] probs does not need backward computation.
I0924 03:29:18.009132 27715 net.cpp:219] predict does not need backward computation.
I0924 03:29:18.009141 27715 net.cpp:219] lstm2 does not need backward computation.
I0924 03:29:18.009150 27715 net.cpp:219] concat does not need backward computation.
I0924 03:29:18.009160 27715 net.cpp:219] lstm1 does not need backward computation.
I0924 03:29:18.009171 27715 net.cpp:219] embedding does not need backward computation.
I0924 03:29:18.009182 27715 net.cpp:219] reshape_stage_indicator does not need backward computation.
I0924 03:29:18.009191 27715 net.cpp:219] reshape_frames does not need backward computation.
I0924 03:29:18.009198 27715 net.cpp:219] embed_encoder does not need backward computation.
I0924 03:29:18.009207 27715 net.cpp:219] cont_sentence_input_1_split does not need backward computation.
I0924 03:29:18.009217 27715 net.cpp:219] input does not need backward computation.
I0924 03:29:18.009223 27715 net.cpp:261] This network produces output probs
I0924 03:29:18.009253 27715 net.cpp:274] Network initialization done.
I0924 03:29:18.015903 27717 net.cpp:141] Setting up conv1
I0924 03:29:18.015967 27717 net.cpp:148] Top shape: 10 96 55 55 (2904000)
I0924 03:29:18.015982 27717 net.cpp:156] Memory required for data: 17799480
I0924 03:29:18.016016 27717 layer_factory.hpp:77] Creating layer relu1
I0924 03:29:18.016041 27717 net.cpp:91] Creating Layer relu1
I0924 03:29:18.016052 27717 net.cpp:425] relu1 <- conv1
I0924 03:29:18.016067 27717 net.cpp:386] relu1 -> conv1 (in-place)
I0924 03:29:18.017238 27717 net.cpp:141] Setting up relu1
I0924 03:29:18.017297 27717 net.cpp:148] Top shape: 10 96 55 55 (2904000)
I0924 03:29:18.017313 27717 net.cpp:156] Memory required for data: 29415480
I0924 03:29:18.017330 27717 layer_factory.hpp:77] Creating layer pool1
I0924 03:29:18.017370 27717 net.cpp:91] Creating Layer pool1
I0924 03:29:18.017384 27717 net.cpp:425] pool1 <- conv1
I0924 03:29:18.017402 27717 net.cpp:399] pool1 -> pool1
I0924 03:29:18.017588 27717 net.cpp:141] Setting up pool1
I0924 03:29:18.017609 27717 net.cpp:148] Top shape: 10 96 27 27 (699840)
I0924 03:29:18.017617 27717 net.cpp:156] Memory required for data: 32214840
I0924 03:29:18.017627 27717 layer_factory.hpp:77] Creating layer norm1
I0924 03:29:18.017657 27717 net.cpp:91] Creating Layer norm1
I0924 03:29:18.017668 27717 net.cpp:425] norm1 <- pool1
I0924 03:29:18.017679 27717 net.cpp:399] norm1 -> norm1
I0924 03:29:18.018251 27717 net.cpp:141] Setting up norm1
I0924 03:29:18.018272 27717 net.cpp:148] Top shape: 10 96 27 27 (699840)
I0924 03:29:18.018281 27717 net.cpp:156] Memory required for data: 35014200
I0924 03:29:18.018293 27717 layer_factory.hpp:77] Creating layer conv2
I0924 03:29:18.018318 27717 net.cpp:91] Creating Layer conv2
I0924 03:29:18.018328 27717 net.cpp:425] conv2 <- norm1
I0924 03:29:18.018342 27717 net.cpp:399] conv2 -> conv2
I0924 03:29:18.048408 27717 net.cpp:141] Setting up conv2
I0924 03:29:18.048463 27717 net.cpp:148] Top shape: 10 256 27 27 (1866240)
I0924 03:29:18.048473 27717 net.cpp:156] Memory required for data: 42479160
I0924 03:29:18.048501 27717 layer_factory.hpp:77] Creating layer relu2
I0924 03:29:18.049132 27717 net.cpp:91] Creating Layer relu2
I0924 03:29:18.049154 27717 net.cpp:425] relu2 <- conv2
I0924 03:29:18.049170 27717 net.cpp:386] relu2 -> conv2 (in-place)
I0924 03:29:18.050819 27717 net.cpp:141] Setting up relu2
I0924 03:29:18.050870 27717 net.cpp:148] Top shape: 10 256 27 27 (1866240)
I0924 03:29:18.050880 27717 net.cpp:156] Memory required for data: 49944120
I0924 03:29:18.050894 27717 layer_factory.hpp:77] Creating layer pool2
I0924 03:29:18.050920 27717 net.cpp:91] Creating Layer pool2
I0924 03:29:18.050931 27717 net.cpp:425] pool2 <- conv2
I0924 03:29:18.051362 27717 net.cpp:399] pool2 -> pool2
I0924 03:29:18.051568 27717 net.cpp:141] Setting up pool2
I0924 03:29:18.051589 27717 net.cpp:148] Top shape: 10 256 13 13 (432640)
I0924 03:29:18.051657 27717 net.cpp:156] Memory required for data: 51674680
I0924 03:29:18.051669 27717 layer_factory.hpp:77] Creating layer norm2
I0924 03:29:18.051964 27717 net.cpp:91] Creating Layer norm2
I0924 03:29:18.051980 27717 net.cpp:425] norm2 <- pool2
I0924 03:29:18.051995 27717 net.cpp:399] norm2 -> norm2
I0924 03:29:18.059351 27717 net.cpp:141] Setting up norm2
I0924 03:29:18.059406 27717 net.cpp:148] Top shape: 10 256 13 13 (432640)
I0924 03:29:18.059415 27717 net.cpp:156] Memory required for data: 53405240
I0924 03:29:18.059427 27717 layer_factory.hpp:77] Creating layer conv3
I0924 03:29:18.059463 27717 net.cpp:91] Creating Layer conv3
I0924 03:29:18.059474 27717 net.cpp:425] conv3 <- norm2
I0924 03:29:18.059489 27717 net.cpp:399] conv3 -> conv3
I0924 03:29:18.089679 27717 net.cpp:141] Setting up conv3
I0924 03:29:18.089745 27717 net.cpp:148] Top shape: 10 384 13 13 (648960)
I0924 03:29:18.089762 27717 net.cpp:156] Memory required for data: 56001080
I0924 03:29:18.089797 27717 layer_factory.hpp:77] Creating layer relu3
I0924 03:29:18.089823 27717 net.cpp:91] Creating Layer relu3
I0924 03:29:18.089834 27717 net.cpp:425] relu3 <- conv3
I0924 03:29:18.089848 27717 net.cpp:386] relu3 -> conv3 (in-place)
I0924 03:29:18.090446 27717 net.cpp:141] Setting up relu3
I0924 03:29:18.090476 27717 net.cpp:148] Top shape: 10 384 13 13 (648960)
I0924 03:29:18.090484 27717 net.cpp:156] Memory required for data: 58596920
I0924 03:29:18.090494 27717 layer_factory.hpp:77] Creating layer conv4
I0924 03:29:18.090526 27717 net.cpp:91] Creating Layer conv4
I0924 03:29:18.090538 27717 net.cpp:425] conv4 <- conv3
I0924 03:29:18.090553 27717 net.cpp:399] conv4 -> conv4
I0924 03:29:18.121750 27709 net.cpp:141] Setting up predict
I0924 03:29:18.121820 27709 net.cpp:148] Top shape: 1 1 46168 (46168)
I0924 03:29:18.121832 27709 net.cpp:156] Memory required for data: 221084
I0924 03:29:18.121856 27709 layer_factory.hpp:77] Creating layer probs
I0924 03:29:18.121886 27709 net.cpp:91] Creating Layer probs
I0924 03:29:18.121898 27709 net.cpp:425] probs <- predict
I0924 03:29:18.121915 27709 net.cpp:399] probs -> probs
I0924 03:29:18.123495 27709 net.cpp:141] Setting up probs
I0924 03:29:18.123545 27709 net.cpp:148] Top shape: 1 1 46168 (46168)
I0924 03:29:18.123556 27709 net.cpp:156] Memory required for data: 405756
I0924 03:29:18.123569 27709 net.cpp:219] probs does not need backward computation.
I0924 03:29:18.123581 27709 net.cpp:219] predict does not need backward computation.
I0924 03:29:18.123592 27709 net.cpp:219] lstm2 does not need backward computation.
I0924 03:29:18.123603 27709 net.cpp:219] concat does not need backward computation.
I0924 03:29:18.123613 27709 net.cpp:219] lstm1 does not need backward computation.
I0924 03:29:18.123625 27709 net.cpp:219] embedding does not need backward computation.
I0924 03:29:18.123634 27709 net.cpp:219] reshape_stage_indicator does not need backward computation.
I0924 03:29:18.123643 27709 net.cpp:219] reshape_frames does not need backward computation.
I0924 03:29:18.123653 27709 net.cpp:219] embed_encoder does not need backward computation.
I0924 03:29:18.123663 27709 net.cpp:219] cont_sentence_input_1_split does not need backward computation.
I0924 03:29:18.123677 27709 net.cpp:219] input does not need backward computation.
I0924 03:29:18.123684 27709 net.cpp:261] This network produces output probs
I0924 03:29:18.123714 27709 net.cpp:274] Network initialization done.
I0924 03:29:18.124613 27717 net.cpp:141] Setting up conv4
I0924 03:29:18.124636 27717 net.cpp:148] Top shape: 10 384 13 13 (648960)
I0924 03:29:18.124645 27717 net.cpp:156] Memory required for data: 61192760
I0924 03:29:18.124665 27717 layer_factory.hpp:77] Creating layer relu4
I0924 03:29:18.124708 27717 net.cpp:91] Creating Layer relu4
I0924 03:29:18.124722 27717 net.cpp:425] relu4 <- conv4
I0924 03:29:18.124735 27717 net.cpp:386] relu4 -> conv4 (in-place)
I0924 03:29:18.125663 27717 net.cpp:141] Setting up relu4
I0924 03:29:18.125686 27717 net.cpp:148] Top shape: 10 384 13 13 (648960)
I0924 03:29:18.125694 27717 net.cpp:156] Memory required for data: 63788600
I0924 03:29:18.125704 27717 layer_factory.hpp:77] Creating layer conv5
I0924 03:29:18.125751 27717 net.cpp:91] Creating Layer conv5
I0924 03:29:18.125762 27717 net.cpp:425] conv5 <- conv4
I0924 03:29:18.125778 27717 net.cpp:399] conv5 -> conv5
I0924 03:29:18.135213 27717 net.cpp:141] Setting up conv5
I0924 03:29:18.135277 27717 net.cpp:148] Top shape: 10 256 13 13 (432640)
I0924 03:29:18.135289 27717 net.cpp:156] Memory required for data: 65519160
I0924 03:29:18.135401 27717 layer_factory.hpp:77] Creating layer relu5
I0924 03:29:18.135488 27717 net.cpp:91] Creating Layer relu5
I0924 03:29:18.135500 27717 net.cpp:425] relu5 <- conv5
I0924 03:29:18.135515 27717 net.cpp:386] relu5 -> conv5 (in-place)
I0924 03:29:18.137504 27717 net.cpp:141] Setting up relu5
I0924 03:29:18.137552 27717 net.cpp:148] Top shape: 10 256 13 13 (432640)
I0924 03:29:18.137560 27717 net.cpp:156] Memory required for data: 67249720
I0924 03:29:18.137573 27717 layer_factory.hpp:77] Creating layer pool5
I0924 03:29:18.138041 27717 net.cpp:91] Creating Layer pool5
I0924 03:29:18.138057 27717 net.cpp:425] pool5 <- conv5
I0924 03:29:18.138074 27717 net.cpp:399] pool5 -> pool5
I0924 03:29:18.138573 27717 net.cpp:141] Setting up pool5
I0924 03:29:18.138608 27717 net.cpp:148] Top shape: 10 256 6 6 (92160)
I0924 03:29:18.138618 27717 net.cpp:156] Memory required for data: 67618360
I0924 03:29:18.138627 27717 layer_factory.hpp:77] Creating layer fc6
I0924 03:29:18.138648 27717 net.cpp:91] Creating Layer fc6
I0924 03:29:18.138658 27717 net.cpp:425] fc6 <- pool5
I0924 03:29:18.138669 27717 net.cpp:399] fc6 -> fc6
I0924 03:29:18.262284 27717 net.cpp:141] Setting up fc6
I0924 03:29:18.262339 27717 net.cpp:148] Top shape: 10 4096 (40960)
I0924 03:29:18.262348 27717 net.cpp:156] Memory required for data: 67782200
I0924 03:29:18.262369 27717 layer_factory.hpp:77] Creating layer relu6
I0924 03:29:18.262797 27717 net.cpp:91] Creating Layer relu6
I0924 03:29:18.262816 27717 net.cpp:425] relu6 <- fc6
I0924 03:29:18.262852 27717 net.cpp:386] relu6 -> fc6 (in-place)
I0924 03:29:18.264312 27717 net.cpp:141] Setting up relu6
I0924 03:29:18.264369 27717 net.cpp:148] Top shape: 10 4096 (40960)
I0924 03:29:18.264384 27717 net.cpp:156] Memory required for data: 67946040
I0924 03:29:18.264397 27717 layer_factory.hpp:77] Creating layer drop6
I0924 03:29:18.264456 27717 net.cpp:91] Creating Layer drop6
I0924 03:29:18.264469 27717 net.cpp:425] drop6 <- fc6
I0924 03:29:18.264890 27717 net.cpp:386] drop6 -> fc6 (in-place)
I0924 03:29:18.265106 27717 net.cpp:141] Setting up drop6
I0924 03:29:18.265130 27717 net.cpp:148] Top shape: 10 4096 (40960)
I0924 03:29:18.265157 27717 net.cpp:156] Memory required for data: 68109880
I0924 03:29:18.265168 27717 layer_factory.hpp:77] Creating layer fc7
I0924 03:29:18.265192 27717 net.cpp:91] Creating Layer fc7
I0924 03:29:18.265219 27717 net.cpp:425] fc7 <- fc6
I0924 03:29:18.265235 27717 net.cpp:399] fc7 -> fc7
I0924 03:29:18.328032 27717 net.cpp:141] Setting up fc7
I0924 03:29:18.328088 27717 net.cpp:148] Top shape: 10 4096 (40960)
I0924 03:29:18.328099 27717 net.cpp:156] Memory required for data: 68273720
I0924 03:29:18.328120 27717 layer_factory.hpp:77] Creating layer relu7
I0924 03:29:18.328570 27717 net.cpp:91] Creating Layer relu7
I0924 03:29:18.328585 27717 net.cpp:425] relu7 <- fc7
I0924 03:29:18.328601 27717 net.cpp:386] relu7 -> fc7 (in-place)
I0924 03:29:18.334414 27711 net.cpp:141] Setting up predict
I0924 03:29:18.334468 27711 net.cpp:148] Top shape: 1 1 46168 (46168)
I0924 03:29:18.334476 27711 net.cpp:156] Memory required for data: 221084
I0924 03:29:18.334511 27711 layer_factory.hpp:77] Creating layer probs
I0924 03:29:18.334534 27711 net.cpp:91] Creating Layer probs
I0924 03:29:18.334547 27711 net.cpp:425] probs <- predict
I0924 03:29:18.334563 27711 net.cpp:399] probs -> probs
I0924 03:29:18.335484 27717 net.cpp:141] Setting up relu7
I0924 03:29:18.335541 27717 net.cpp:148] Top shape: 10 4096 (40960)
I0924 03:29:18.335546 27717 net.cpp:156] Memory required for data: 68437560
I0924 03:29:18.335554 27717 layer_factory.hpp:77] Creating layer drop7
I0924 03:29:18.336663 27717 net.cpp:91] Creating Layer drop7
I0924 03:29:18.336684 27717 net.cpp:425] drop7 <- fc7
I0924 03:29:18.336697 27717 net.cpp:386] drop7 -> fc7 (in-place)
I0924 03:29:18.336879 27717 net.cpp:141] Setting up drop7
I0924 03:29:18.336894 27717 net.cpp:148] Top shape: 10 4096 (40960)
I0924 03:29:18.336899 27717 net.cpp:156] Memory required for data: 68601400
I0924 03:29:18.336905 27717 layer_factory.hpp:77] Creating layer fc8
I0924 03:29:18.336920 27717 net.cpp:91] Creating Layer fc8
I0924 03:29:18.336925 27717 net.cpp:425] fc8 <- fc7
I0924 03:29:18.337218 27717 net.cpp:399] fc8 -> fc8
I0924 03:29:18.351392 27711 net.cpp:141] Setting up probs
I0924 03:29:18.351451 27711 net.cpp:148] Top shape: 1 1 46168 (46168)
I0924 03:29:18.351459 27711 net.cpp:156] Memory required for data: 405756
I0924 03:29:18.351469 27711 net.cpp:219] probs does not need backward computation.
I0924 03:29:18.351478 27711 net.cpp:219] predict does not need backward computation.
I0924 03:29:18.351486 27711 net.cpp:219] lstm2 does not need backward computation.
I0924 03:29:18.351492 27711 net.cpp:219] concat does not need backward computation.
I0924 03:29:18.351498 27711 net.cpp:219] lstm1 does not need backward computation.
I0924 03:29:18.351505 27711 net.cpp:219] embedding does not need backward computation.
I0924 03:29:18.351510 27711 net.cpp:219] reshape_stage_indicator does not need backward computation.
I0924 03:29:18.351514 27711 net.cpp:219] reshape_frames does not need backward computation.
I0924 03:29:18.351519 27711 net.cpp:219] embed_encoder does not need backward computation.
I0924 03:29:18.351526 27711 net.cpp:219] cont_sentence_input_1_split does not need backward computation.
I0924 03:29:18.351531 27711 net.cpp:219] input does not need backward computation.
I0924 03:29:18.351536 27711 net.cpp:261] This network produces output probs
I0924 03:29:18.351558 27711 net.cpp:274] Network initialization done.
I0924 03:29:18.368572 27717 net.cpp:141] Setting up fc8
I0924 03:29:18.368641 27717 net.cpp:148] Top shape: 10 1000 (10000)
I0924 03:29:18.368654 27717 net.cpp:156] Memory required for data: 68641400
I0924 03:29:18.368682 27717 layer_factory.hpp:77] Creating layer prob
I0924 03:29:18.368707 27717 net.cpp:91] Creating Layer prob
I0924 03:29:18.368721 27717 net.cpp:425] prob <- fc8
I0924 03:29:18.368754 27717 net.cpp:399] prob -> prob
I0924 03:29:18.371176 27717 net.cpp:141] Setting up prob
I0924 03:29:18.371230 27717 net.cpp:148] Top shape: 10 1000 (10000)
I0924 03:29:18.371243 27717 net.cpp:156] Memory required for data: 68681400
I0924 03:29:18.371259 27717 net.cpp:219] prob does not need backward computation.
I0924 03:29:18.371273 27717 net.cpp:219] fc8 does not need backward computation.
I0924 03:29:18.371284 27717 net.cpp:219] drop7 does not need backward computation.
I0924 03:29:18.371294 27717 net.cpp:219] relu7 does not need backward computation.
…
