…
Java HotSpot(TM) 64-Bit Server VM warning: You have loaded library /tmp/cvld8946833970606024446/libopencv_java310.xine1.so which might have disabled stack guard. The VM will try to fix the stack guard now.
It's highly recommended that you fix the library with 'execstack -c <libfile>', or link it with '-z noexecstack'.
WARNING: Logging before InitGoogleLogging() is written to STDERR
I0720 14:29:09.260135 21101 net.cpp:49] Initializing net from parameters: 
name: "CaffeNet"
state {
  phase: TEST
}
layer {
  name: "data"
  type: "Input"
  top: "data"
  input_param {
    shape {
      dim: 10
      dim: 3
      dim: 227
      dim: 227
    }
  }
}
layer {
  name: "conv1"
  type: "Convolution"
  bottom: "data"
  top: "conv1"
  convolution_param {
    num_output: 96
    kernel_size: 11
    stride: 4
  }
}
layer {
  name: "relu1"
  type: "ReLU"
  bottom: "conv1"
  top: "conv1"
}
layer {
  name: "pool1"
  type: "Pooling"
  bottom: "conv1"
  top: "pool1"
  pooling_param {
    pool: MAX
    kernel_size: 3
    stride: 2
  }
}
layer {
  name: "norm1"
  type: "LRN"
  bottom: "pool1"
  top: "norm1"
  lrn_param {
    local_size: 5
    alpha: 0.0001
    beta: 0.75
  }
}
layer {
  name: "conv2"
  type: "Convolution"
  bottom: "norm1"
  top: "conv2"
  convolution_param {
    num_output: 256
    pad: 2
    kernel_size: 5
    group: 2
  }
}
layer {
  name: "relu2"
  type: "ReLU"
  bottom: "conv2"
  top: "conv2"
}
layer {
  name: "pool2"
  type: "Pooling"
  bottom: "conv2"
  top: "pool2"
  pooling_param {
    pool: MAX
    kernel_size: 3
    stride: 2
  }
}
layer {
  name: "norm2"
  type: "LRN"
  bottom: "pool2"
  top: "norm2"
  lrn_param {
    local_size: 5
    alpha: 0.0001
    beta: 0.75
  }
}
layer {
  name: "conv3"
  type: "Convolution"
  bottom: "norm2"
  top: "conv3"
  convolution_param {
    num_output: 384
    pad: 1
    kernel_size: 3
  }
}
layer {
  name: "relu3"
  type: "ReLU"
  bottom: "conv3"
  top: "conv3"
}
layer {
  name: "conv4"
  type: "Convolution"
  bottom: "conv3"
  top: "conv4"
  convolution_param {
    num_output: 384
    pad: 1
    kernel_size: 3
    group: 2
  }
}
layer {
  name: "relu4"
  type: "ReLU"
  bottom: "conv4"
  top: "conv4"
}
layer {
  name: "conv5"
  type: "Convolution"
  bottom: "conv4"
  top: "conv5"
  convolution_param {
    num_output: 256
    pad: 1
    kernel_size: 3
    group: 2
  }
}
layer {
  name: "relu5"
  type: "ReLU"
  bottom: "conv5"
  top: "conv5"
}
layer {
  name: "pool5"
  type: "Pooling"
  bottom: "conv5"
  top: "pool5"
  pooling_param {
    pool: MAX
    kernel_size: 3
    stride: 2
  }
}
layer {
  name: "fc6"
  type: "InnerProduct"
  bottom: "pool5"
  top: "fc6"
  inner_product_param {
    num_output: 4096
  }
}
layer {
  name: "relu6"
  type: "ReLU"
  bottom: "fc6"
  top: "fc6"
}
layer {
  name: "drop6"
  type: "Dropout"
  bottom: "fc6"
  top: "fc6"
  dropout_param {
    dropout_ratio: 0.5
  }
}
layer {
  name: "fc7"
  type: "InnerProduct"
  bottom: "fc6"
  top: "fc7"
  inner_product_param {
    num_output: 4096
  }
}
layer {
  name: "relu7"
  type: "ReLU"
  bottom: "fc7"
  top: "fc7"
}
layer {
  name: "drop7"
  type: "Dropout"
  bottom: "fc7"
  top: "fc7"
  dropout_param {
    dropout_ratio: 0.5
  }
}
layer {
  name: "fc8"
  type: "InnerProduct"
  bottom: "fc7"
  top: "fc8"
  inner_product_param {
    num_output: 1000
  }
}
layer {
  name: "prob"
  type: "Softmax"
  bottom: "fc8"
  top: "prob"
}
I0720 14:29:09.260309 21101 layer_factory.hpp:77] Creating layer data
I0720 14:29:09.260331 21101 net.cpp:91] Creating Layer data
I0720 14:29:09.260341 21101 net.cpp:399] data -> data
I0720 14:29:09.767846 21122 upgrade_proto.cpp:66] Attempting to upgrade input file specified using deprecated input fields: /tmp/cvld8946833970606024446/s2vt.words_to_preds.prototxt
I0720 14:29:09.767902 21122 upgrade_proto.cpp:69] Successfully upgraded file specified using deprecated input fields.
W0720 14:29:09.767915 21122 upgrade_proto.cpp:71] Note that future Caffe releases will only support input layers and not input fields.
I0720 14:29:09.768301 21122 net.cpp:49] Initializing net from parameters: 
name: "s2vt:features_to_lstm"
state {
  phase: TEST
}
layer {
  name: "input"
  type: "Input"
  top: "frames_fc7"
  top: "cont_sentence"
  top: "input_sentence"
  top: "stage_indicator"
  input_param {
    shape {
      dim: 1
      dim: 4096
    }
    shape {
      dim: 1
      dim: 1
    }
    shape {
      dim: 1
      dim: 1
    }
    shape {
      dim: 1
      dim: 1
    }
  }
}
layer {
  name: "embed_encoder"
  type: "InnerProduct"
  bottom: "frames_fc7"
  top: "embedded_in_frames"
  param {
    lr_mult: 1
    decay_mult: 1
  }
  param {
    lr_mult: 2
    decay_mult: 0
  }
  inner_product_param {
    num_output: 500
    weight_filler {
      type: "xavier"
    }
    bias_filler {
      type: "constant"
      value: 0.2
    }
  }
}
layer {
  name: "reshape_frames"
  type: "Reshape"
  bottom: "embedded_in_frames"
  top: "embedded_input_frames"
  reshape_param {
    shape {
      dim: 1
      dim: 1
      dim: 500
    }
  }
}
layer {
  name: "reshape_stage_indicator"
  type: "Reshape"
  bottom: "stage_indicator"
  top: "reshaped_stage_indicator"
  reshape_param {
    shape {
      dim: 1
      dim: 1
      dim: 1
    }
  }
}
layer {
  name: "embedding"
  type: "Embed"
  bottom: "input_sentence"
  top: "embedded_input_sentence"
  param {
    lr_mult: 1
  }
  embed_param {
    num_output: 500
    input_dim: 46168
    bias_term: false
    weight_filler {
      type: "uniform"
      min: -0.08
      max: 0.08
    }
  }
}
layer {
  name: "lstm1"
  type: "LSTM"
  bottom: "embedded_input_frames"
  bottom: "cont_sentence"
  top: "lstm1"
  recurrent_param {
    num_output: 1000
    weight_filler {
      type: "uniform"
      min: -0.08
      max: 0.08
    }
    bias_filler {
      type: "constant"
      value: 0
    }
  }
}
layer {
  name: "concat"
  type: "Concat"
  bottom: "lstm1"
  bottom: "embedded_input_sentence"
  bottom: "reshaped_stage_indicator"
  top: "lstm1_video_sequence"
  concat_param {
    concat_dim: 2
  }
}
layer {
  name: "lstm2"
  type: "LSTM"
  bottom: "lstm1_video_sequence"
  bottom: "cont_sentence"
  top: "lstm2"
  recurrent_param {
    num_output: 1000
    weight_filler {
      type: "uniform"
      min: -0.08
      max: 0.08
    }
    bias_filler {
      type: "constant"
      value: 0
    }
  }
}
layer {
  name: "predict"
  type: "InnerProduct"
  bottom: "lstm2"
  top: "predict"
  param {
    lr_mult: 1
    decay_mult: 1
  }
  param {
    lr_mult: 2
    decay_mult: 0
  }
  inner_product_param {
    num_output: 46168
    weight_filler {
      type: "uniform"
      min: -0.08
      max: 0.08
    }
    bias_filler {
      type: "constant"
      value: 0
    }
    axis: 2
  }
}
layer {
  name: "probs"
  type: "Softmax"
  bottom: "predict"
  top: "probs"
  softmax_param {
    axis: 2
  }
}
I0720 14:29:09.768553 21122 layer_factory.hpp:77] Creating layer input
I0720 14:29:09.768579 21122 net.cpp:91] Creating Layer input
I0720 14:29:09.768595 21122 net.cpp:399] input -> frames_fc7
I0720 14:29:09.768625 21122 net.cpp:399] input -> cont_sentence
I0720 14:29:09.768651 21122 net.cpp:399] input -> input_sentence
I0720 14:29:09.768678 21122 net.cpp:399] input -> stage_indicator
I0720 14:29:09.768707 21122 net.cpp:141] Setting up input
I0720 14:29:09.768738 21122 net.cpp:148] Top shape: 1 4096 (4096)
I0720 14:29:09.768753 21122 net.cpp:148] Top shape: 1 1 (1)
I0720 14:29:09.768764 21122 net.cpp:148] Top shape: 1 1 (1)
I0720 14:29:09.768774 21122 net.cpp:148] Top shape: 1 1 (1)
I0720 14:29:09.768782 21122 net.cpp:156] Memory required for data: 16396
I0720 14:29:09.768805 21122 layer_factory.hpp:77] Creating layer cont_sentence_input_1_split
I0720 14:29:09.768833 21122 net.cpp:91] Creating Layer cont_sentence_input_1_split
I0720 14:29:09.768851 21122 net.cpp:425] cont_sentence_input_1_split <- cont_sentence
I0720 14:29:09.768880 21122 net.cpp:399] cont_sentence_input_1_split -> cont_sentence_input_1_split_0
I0720 14:29:09.768899 21122 net.cpp:399] cont_sentence_input_1_split -> cont_sentence_input_1_split_1
I0720 14:29:09.768924 21122 net.cpp:141] Setting up cont_sentence_input_1_split
I0720 14:29:09.768936 21122 net.cpp:148] Top shape: 1 1 (1)
I0720 14:29:09.768945 21122 net.cpp:148] Top shape: 1 1 (1)
I0720 14:29:09.768951 21122 net.cpp:156] Memory required for data: 16404
I0720 14:29:09.768959 21122 layer_factory.hpp:77] Creating layer embed_encoder
I0720 14:29:09.768995 21122 net.cpp:91] Creating Layer embed_encoder
I0720 14:29:09.769004 21122 net.cpp:425] embed_encoder <- frames_fc7
I0720 14:29:09.769017 21122 net.cpp:399] embed_encoder -> embedded_in_frames
I0720 14:29:09.772169 21097 upgrade_proto.cpp:66] Attempting to upgrade input file specified using deprecated input fields: /tmp/cvld8946833970606024446/s2vt.words_to_preds.prototxt
…
W0720 14:29:09.773465 21095 upgrade_proto.cpp:71] Note that future Caffe releases will only support input layers and not input fields.
I0720 14:29:09.773501 21103 net.cpp:49] Initializing net from parameters: 
name: "s2vt:features_to_lstm"
state {
  phase: TEST
}
layer {
  name: "input"
  type: "Input"
  top: "frames_fc7"
  top: "cont_sentence"
  top: "input_sentence"
  top: "stage_indicator"
  input_param {
    shape {
      dim: 1
      dim: 4096
    }
    shape {
      dim: 1
      dim: 1
    }
    shape {
      dim: 1
      dim: 1
    }
    shape {
      dim: 1
      dim: 1
    }
  }
}
layer {
  name: "embed_encoder"
  type: "InnerProduct"
  bottom: "frames_fc7"
  top: "embedded_in_frames"
  param {
    lr_mult: 1
    decay_mult: 1
  }
  param {
    lr_mult: 2
    decay_mult: 0
  }
  inner_product_param {
    num_output: 500
    weight_filler {
      type: "xavier"
    }
    bias_filler {
      type: "constant"
      value: 0.2
    }
  }
}
layer {
  name: "reshape_frames"
  type: "Reshape"
  bottom: "embedded_in_frames"
  top: "embedded_input_frames"
  reshape_param {
    shape {
      dim: 1
      dim: 1
      dim: 500
    }
  }
}
layer {
  name: "reshape_stage_indicator"
  type: "Reshape"
  bottom: "stage_indicator"
  top: "reshaped_stage_indicator"
  reshape_param {
    shape {
      dim: 1
      dim: 1
      dim: 1
    }
  }
}
layer {
  name: "embedding"
  type: "Embed"
  bottom: "input_sentence"
  top: "embedded_input_sentence"
  param {
    lr_mult: 1
  }
  embed_param {
    num_output: 500
    input_dim: 46168
    bias_term: false
    weight_filler {
      type: "uniform"
      min: -0.08
      max: 0.08
    }
  }
}
layer {
  name: "lstm1"
  type: "LSTM"
  bottom: "embedded_input_frames"
  bottom: "cont_sentence"
  top: "lstm1"
  recurrent_param {
    num_output: 1000
    weight_filler {
      type: "uniform"
      min: -0.08
      max: 0.08
    }
    bias_filler {
      type: "constant"
      value: 0
    }
  }
}
layer {
  name: "concat"
  type: "Concat"
  bottom: "lstm1"
  bottom: "embedded_input_sentence"
  bottom: "reshaped_stage_indicator"
  top: "lstm1_video_sequence"
  concat_param {
    concat_dim: 2
  }
}
layer {
  name: "lstm2"
  type: "LSTM"
  bottom: "lstm1_video_sequence"
  bottom: "cont_sentence"
  top: "lstm2"
  recurrent_param {
    num_output: 1000
    weight_filler {
      type: "uniform"
      min: -0.08
      max: 0.08
    }
    bias_filler {
      type: "constant"
      value: 0
    }
  }
}
layer {
  name: "predict"
  type: "InnerProduct"
  bottom: "lstm2"
  top: "predict"
  param {
    lr_mult: 1
    decay_mult: 1
  }
  param {
    lr_mult: 2
    decay_mult: 0
  }
  inner_product_param {
    num_output: 46168
    weight_filler {
      type: "uniform"
      min: -0.08
      max: 0.08
    }
    bias_filler {
      type: "constant"
      value: 0
    }
    axis: 2
  }
}
layer {
  name: "probs"
  type: "Softmax"
  bottom: "predict"
  top: "probs"
  softmax_param {
    axis: 2
  }
}
I0720 14:29:09.773507 21093 upgrade_proto.cpp:66] Attempting to upgrade input file specified using deprecated input fields: /tmp/cvld8946833970606024446/s2vt.words_to_preds.prototxt
I0720 14:29:09.773541 21093 upgrade_proto.cpp:69] Successfully upgraded file specified using deprecated input fields.
W0720 14:29:09.773551 21093 upgrade_proto.cpp:71] Note that future Caffe releases will only support input layers and not input fields.
I0720 14:29:09.773170 21108 upgrade_proto.cpp:69] Successfully upgraded file specified using deprecated input fields.
W0720 14:29:09.773603 21108 upgrade_proto.cpp:71] Note that future Caffe releases will only support input layers and not input fields.
I0720 14:29:09.773627 21097 net.cpp:49] Initializing net from parameters: 
name: "s2vt:features_to_lstm"
state {
  phase: TEST
}
layer {
  name: "input"
  type: "Input"
  top: "frames_fc7"
  top: "cont_sentence"
  top: "input_sentence"
  top: "stage_indicator"
  input_param {
    shape {
      dim: 1
      dim: 4096
    }
    shape {
      dim: 1
      dim: 1
    }
    shape {
      dim: 1
      dim: 1
    }
    shape {
      dim: 1
      dim: 1
    }
  }
}
layer {
  name: "embed_encoder"
  type: "InnerProduct"
  bottom: "frames_fc7"
  top: "embedded_in_frames"
  param {
    lr_mult: 1
    decay_mult: 1
  }
  param {
    lr_mult: 2
    decay_mult: 0
  }
  inner_product_param {
    num_output: 500
    weight_filler {
      type: "xavier"
    }
    bias_filler {
      type: "constant"
      value: 0.2
    }
  }
}
layer {
  name: "reshape_frames"
  type: "Reshape"
  bottom: "embedded_in_frames"
  top: "embedded_input_frames"
  reshape_param {
    shape {
      dim: 1
      dim: 1
      dim: 500
    }
  }
}
layer {
  name: "reshape_stage_indicator"
  type: "Reshape"
  bottom: "stage_indicator"
  top: "reshaped_stage_indicator"
  reshape_param {
    shape {
      dim: 1
      dim: 1
      dim: 1
    }
  }
}
layer {
  name: "embedding"
  type: "Embed"
  bottom: "input_sentence"
  top: "embedded_input_sentence"
  param {
    lr_mult: 1
  }
  embed_param {
    num_output: 500
    input_dim: 46168
    bias_term: false
    weight_filler {
      type: "uniform"
      min: -0.08
      max: 0.08
    }
  }
}
layer {
  name: "lstm1"
  type: "LSTM"
  bottom: "embedded_input_frames"
  bottom: "cont_sentence"
  top: "lstm1"
  recurrent_param {
    num_output: 1000
    weight_filler {
      type: "uniform"
      min: -0.08
      max: 0.08
    }
    bias_filler {
      type: "constant"
      value: 0
    }
  }
}
layer {
  name: "concat"
  type: "Concat"
  bottom: "lstm1"
  bottom: "embedded_input_sentence"
  bottom: "reshaped_stage_indicator"
  top: "lstm1_video_sequence"
  concat_param {
    concat_dim: 2
  }
}
layer {
  name: "lstm2"
  type: "LSTM"
  bottom: "lstm1_video_sequence"
  bottom: "cont_sentence"
  top: "lstm2"
  recurrent_param {
    num_output: 1000
    weight_filler {
      type: "uniform"
      min: -0.08
      max: 0.08
    }
    bias_filler {
      type: "constant"
      value: 0
    }
  }
}
layer {
  name: "predict"
  type: "InnerProduct"
  bottom: "lstm2"
  top: "predict"
  param {
    lr_mult: 1
    decay_mult: 1
  }
  param {
    lr_mult: 2
    decay_mult: 0
  }
  inner_product_param {
    num_output: 46168
    weight_filler {
      type: "uniform"
      min: -0.08
      max: 0.08
    }
    bias_filler {
      type: "constant"
      value: 0
    }
    axis: 2
  }
}
layer {
  name: "probs"
  type: "Softmax"
  bottom: "predict"
  top: "probs"
  softmax_param {
    axis: 2
  }
}
I0720 14:29:09.773772 21116 upgrade_proto.cpp:66] Attempting to upgrade input file specified using deprecated input fields: /tmp/cvld8946833970606024446/s2vt.words_to_preds.prototxt
I0720 14:29:09.773787 21116 upgrade_proto.cpp:69] Successfully upgraded file specified using deprecated input fields.
W0720 14:29:09.773790 21116 upgrade_proto.cpp:71] Note that future Caffe releases will only support input layers and not input fields.
…
I0720 14:29:09.774008 21103 net.cpp:399] input -> cont_sentence
I0720 14:29:09.774050 21097 layer_factory.hpp:77] Creating layer input
I0720 14:29:09.774075 21097 net.cpp:91] Creating Layer input
I0720 14:29:09.774088 21097 net.cpp:399] input -> frames_fc7
I0720 14:29:09.774106 21103 net.cpp:399] input -> input_sentence
I0720 14:29:09.774113 21097 net.cpp:399] input -> cont_sentence
I0720 14:29:09.774132 21103 net.cpp:399] input -> stage_indicator
I0720 14:29:09.774133 21097 net.cpp:399] input -> input_sentence
I0720 14:29:09.774153 21103 net.cpp:141] Setting up input
I0720 14:29:09.774161 21103 net.cpp:148] Top shape: 1 4096 (4096)
I0720 14:29:09.774163 21097 net.cpp:399] input -> stage_indicator
I0720 14:29:09.774168 21103 net.cpp:148] Top shape: 1 1 (1)
I0720 14:29:09.774174 21103 net.cpp:148] Top shape: 1 1 (1)
I0720 14:29:09.774179 21103 net.cpp:148] Top shape: 1 1 (1)
I0720 14:29:09.774183 21103 net.cpp:156] Memory required for data: 16396
I0720 14:29:09.774184 21097 net.cpp:141] Setting up input
I0720 14:29:09.774188 21103 layer_factory.hpp:77] Creating layer cont_sentence_input_1_split
I0720 14:29:09.774204 21097 net.cpp:148] Top shape: 1 4096 (4096)
I0720 14:29:09.774216 21103 net.cpp:91] Creating Layer cont_sentence_input_1_split
I0720 14:29:09.774217 21097 net.cpp:148] Top shape: 1 1 (1)
I0720 14:29:09.774236 21103 net.cpp:425] cont_sentence_input_1_split <- cont_sentence
I0720 14:29:09.774237 21097 net.cpp:148] Top shape: 1 1 (1)
I0720 14:29:09.774252 21103 net.cpp:399] cont_sentence_input_1_split -> cont_sentence_input_1_split_0
I0720 14:29:09.774255 21097 net.cpp:148] Top shape: 1 1 (1)
I0720 14:29:09.774265 21103 net.cpp:399] cont_sentence_input_1_split -> cont_sentence_input_1_split_1
I0720 14:29:09.774265 21097 net.cpp:156] Memory required for data: 16396
I0720 14:29:09.774276 21097 layer_factory.hpp:77] Creating layer cont_sentence_input_1_split
I0720 14:29:09.774276 21103 net.cpp:141] Setting up cont_sentence_input_1_split
I0720 14:29:09.774283 21095 net.cpp:49] Initializing net from parameters: 
name: "s2vt:features_to_lstm"
state {
  phase: TEST
}
layer {
  name: "input"
  type: "Input"
  top: "frames_fc7"
  top: "cont_sentence"
  top: "input_sentence"
  top: "stage_indicator"
  input_param {
    shape {
      dim: 1
      dim: 4096
    }
    shape {
      dim: 1
      dim: 1
    }
    shape {
      dim: 1
      dim: 1
    }
    shape {
      dim: 1
      dim: 1
    }
  }
}
layer {
  name: "embed_encoder"
  type: "InnerProduct"
  bottom: "frames_fc7"
  top: "embedded_in_frames"
  param {
    lr_mult: 1
    decay_mult: 1
  }
  param {
    lr_mult: 2
    decay_mult: 0
  }
  inner_product_param {
    num_output: 500
    weight_filler {
      type: "xavier"
    }
    bias_filler {
      type: "constant"
      value: 0.2
    }
  }
}
layer {
  name: "reshape_frames"
  type: "Reshape"
  bottom: "embedded_in_frames"
  top: "embedded_input_frames"
  reshape_param {
    shape {
      dim: 1
      dim: 1
      dim: 500
    }
  }
}
layer {
  name: "reshape_stage_indicator"
  type: "Reshape"
  bottom: "stage_indicator"
  top: "reshaped_stage_indicator"
  reshape_param {
    shape {
      dim: 1
      dim: 1
      dim: 1
    }
  }
}
layer {
  name: "embedding"
  type: "Embed"
  bottom: "input_sentence"
  top: "embedded_input_sentence"
  param {
    lr_mult: 1
  }
  embed_param {
    num_output: 500
    input_dim: 46168
    bias_term: false
    weight_filler {
      type: "uniform"
      min: -0.08
      max: 0.08
    }
  }
}
layer {
  name: "lstm1"
  type: "LSTM"
  bottom: "embedded_input_frames"
  bottom: "cont_sentence"
  top: "lstm1"
  recurrent_param {
    num_output: 1000
    weight_filler {
      type: "uniform"
      min: -0.08
      max: 0.08
    }
    bias_filler {
      type: "constant"
      value: 0
    }
  }
}
layer {
  name: "concat"
  type: "Concat"
  bottom: "lstm1"
  bottom: "embedded_input_sentence"
  bottom: "reshaped_stage_indicator"
  top: "lstm1_video_sequence"
  concat_param {
    concat_dim: 2
  }
}
layer {
  name: "lstm2"
  type: "LSTM"
  bottom: "lstm1_video_sequence"
  bottom: "cont_sentence"
  top: "lstm2"
  recurrent_param {
    num_output: 1000
    weight_filler {
      type: "uniform"
      min: -0.08
      max: 0.08
    }
    bias_filler {
      type: "constant"
      value: 0
    }
  }
}
layer {
  name: "predict"
  type: "InnerProduct"
  bottom: "lstm2"
  top: "predict"
  param {
    lr_mult: 1
    decay_mult: 1
  }
  param {
    lr_mult: 2
    decay_mult: 0
  }
  inner_product_param {
    num_output: 46168
    weight_filler {
      type: "uniform"
      min: -0.08
      max: 0.08
    }
    bias_filler {
      type: "constant"
      value: 0
    }
    axis: 2
  }
}
layer {
  name: "probs"
  type: "Softmax"
  bottom: "predict"
  top: "probs"
  softmax_param {
    axis: 2
  }
}
I0720 14:29:09.774296 21097 net.cpp:91] Creating Layer cont_sentence_input_1_split
I0720 14:29:09.774292 21105 net.cpp:49] Initializing net from parameters: 
name: "s2vt:features_to_lstm"
state {
  phase: TEST
}
layer {
  name: "input"
  type: "Input"
  top: "frames_fc7"
  top: "cont_sentence"
  top: "input_sentence"
  top: "stage_indicator"
  input_param {
    shape {
      dim: 1
      dim: 4096
    }
    shape {
      dim: 1
      dim: 1
    }
    shape {
      dim: 1
      dim: 1
    }
    shape {
      dim: 1
      dim: 1
    }
  }
}
layer {
  name: "embed_encoder"
  type: "InnerProduct"
  bottom: "frames_fc7"
  top: "embedded_in_frames"
  param {
    lr_mult: 1
    decay_mult: 1
  }
  param {
    lr_mult: 2
    decay_mult: 0
  }
  inner_product_param {
    num_output: 500
    weight_filler {
      type: "xavier"
    }
    bias_filler {
      type: "constant"
      value: 0.2
    }
  }
}
layer {
  name: "reshape_frames"
  type: "Reshape"
  bottom: "embedded_in_frames"
  top: "embedded_input_frames"
  reshape_param {
    shape {
      dim: 1
      dim: 1
      dim: 500
    }
  }
}
layer {
  name: "reshape_stage_indicator"
  type: "Reshape"
  bottom: "stage_indicator"
  top: "reshaped_stage_indicator"
  reshape_param {
    shape {
      dim: 1
      dim: 1
      dim: 1
    }
  }
}
layer {
  name: "embedding"
  type: "Embed"
  bottom: "input_sentence"
  top: "embedded_input_sentence"
  param {
    lr_mult: 1
  }
  embed_param {
    num_output: 500
    input_dim: 46168
    bias_term: false
    weight_filler {
      type: "uniform"
      min: -0.08
      max: 0.08
    }
  }
}
layer {
  name: "lstm1"
  type: "LSTM"
  bottom: "embedded_input_frames"
  bottom: "cont_sentence"
  top: "lstm1"
  recurrent_param {
    num_output: 1000
    weight_filler {
      type: "uniform"
      min: -0.08
      max: 0.08
    }
    bias_filler {
      type: "constant"
      value: 0
    }
  }
}
layer {
  name: "concat"
  type: "Concat"
  bottom: "lstm1"
  bottom: "embedded_input_sentence"
  bottom: "reshaped_stage_indicator"
  top: "lstm1_video_sequence"
  concat_param {
    concat_dim: 2
  }
}
layer {
  name: "lstm2"
  type: "LSTM"
  bottom: "lstm1_video_sequence"
  bottom: "cont_sentence"
  top: "lstm2"
  recurrent_param {
    num_output: 1000
    weight_filler {
      type: "uniform"
      min: -0.08
      max: 0.08
    }
    bias_filler {
      type: "constant"
      value: 0
    }
  }
}
layer {
  name: "predict"
  type: "InnerProduct"
  bottom: "lstm2"
  top: "predict"
  param {
    lr_mult: 1
    decay_mult: 1
  }
  param {
    lr_mult: 2
    decay_mult: 0
  }
  inner_product_param {
    num_output: 46168
    weight_filler {
      type: "uniform"
      min: -0.08
      max: 0.08
    }
    bias_filler {
      type: "constant"
      value: 0
    }
    axis: 2
  }
}
layer {
  name: "probs"
  type: "Softmax"
  bottom: "predict"
  top: "probs"
  softmax_param {
    axis: 2
  }
}
I0720 14:29:09.774305 21097 net.cpp:425] cont_sentence_input_1_split <- cont_sentence
I0720 14:29:09.774281 21093 net.cpp:49] Initializing net from parameters: 
name: "s2vt:features_to_lstm"
state {
  phase: TEST
}
layer {
  name: "input"
  type: "Input"
  top: "frames_fc7"
  top: "cont_sentence"
  top: "input_sentence"
  top: "stage_indicator"
  input_param {
    shape {
      dim: 1
      dim: 4096
    }
    shape {
      dim: 1
      dim: 1
    }
    shape {
      dim: 1
      dim: 1
    }
    shape {
      dim: 1
      dim: 1
    }
  }
}
layer {
  name: "embed_encoder"
  type: "InnerProduct"
  bottom: "frames_fc7"
  top: "embedded_in_frames"
  param {
    lr_mult: 1
    decay_mult: 1
  }
  param {
    lr_mult: 2
    decay_mult: 0
  }
  inner_product_param {
    num_output: 500
    weight_filler {
      type: "xavier"
    }
    bias_filler {
      type: "constant"
      value: 0.2
    }
  }
}
layer {
  name: "reshape_frames"
  type: "Reshape"
  bottom: "embedded_in_frames"
  top: "embedded_input_frames"
  reshape_param {
    shape {
      dim: 1
      dim: 1
      dim: 500
    }
  }
}
layer {
  name: "reshape_stage_indicator"
  type: "Reshape"
  bottom: "stage_indicator"
  top: "reshaped_stage_indicator"
  reshape_param {
    shape {
      dim: 1
      dim: 1
      dim: 1
    }
  }
}
layer {
  name: "embedding"
  type: "Embed"
  bottom: "input_sentence"
  top: "embedded_input_sentence"
  param {
    lr_mult: 1
  }
  embed_param {
    num_output: 500
    input_dim: 46168
    bias_term: false
    weight_filler {
      type: "uniform"
      min: -0.08
      max: 0.08
    }
  }
}
layer {
  name: "lstm1"
  type: "LSTM"
  bottom: "embedded_input_frames"
  bottom: "cont_sentence"
  top: "lstm1"
  recurrent_param {
    num_output: 1000
    weight_filler {
      type: "uniform"
      min: -0.08
      max: 0.08
    }
    bias_filler {
      type: "constant"
      value: 0
    }
  }
}
layer {
  name: "concat"
  type: "Concat"
  bottom: "lstm1"
  bottom: "embedded_input_sentence"
  bottom: "reshaped_stage_indicator"
  top: "lstm1_video_sequence"
  concat_param {
    concat_dim: 2
  }
}
layer {
  name: "lstm2"
  type: "LSTM"
  bottom: "lstm1_video_sequence"
  bottom: "cont_sentence"
  top: "lstm2"
  recurrent_param {
    num_output: 1000
    weight_filler {
      type: "uniform"
      min: -0.08
      max: 0.08
    }
    bias_filler {
      type: "constant"
      value: 0
    }
  }
}
layer {
  name: "predict"
  type: "InnerProduct"
  bottom: "lstm2"
  top: "predict"
  param {
    lr_mult: 1
    decay_mult: 1
  }
  param {
    lr_mult: 2
    decay_mult: 0
  }
  inner_product_param {
    num_output: 46168
    weight_filler {
      type: "uniform"
      min: -0.08
      max: 0.08
    }
    bias_filler {
      type: "constant"
      value: 0
    }
    axis: 2
  }
}
layer {
  name: "probs"
  type: "Softmax"
  bottom: "predict"
  top: "probs"
  softmax_param {
    axis: 2
  }
}
I0720 14:29:09.774302 21103 net.cpp:148] Top shape: 1 1 (1)
I0720 14:29:09.774332 21103 net.cpp:148] Top shape: 1 1 (1)
I0720 14:29:09.774339 21103 net.cpp:156] Memory required for data: 16404
I0720 14:29:09.774348 21103 layer_factory.hpp:77] Creating layer embed_encoder
I0720 14:29:09.774390 21097 net.cpp:399] cont_sentence_input_1_split -> cont_sentence_input_1_split_0
I0720 14:29:09.774390 21118 net.cpp:49] Initializing net from parameters: 
name: "s2vt:features_to_lstm"
state {
  phase: TEST
}
layer {
  name: "input"
  type: "Input"
  top: "frames_fc7"
  top: "cont_sentence"
  top: "input_sentence"
  top: "stage_indicator"
  input_param {
    shape {
      dim: 1
      dim: 4096
    }
    shape {
      dim: 1
      dim: 1
    }
    shape {
      dim: 1
      dim: 1
    }
    shape {
      dim: 1
      dim: 1
    }
  }
}
layer {
  name: "embed_encoder"
  type: "InnerProduct"
  bottom: "frames_fc7"
  top: "embedded_in_frames"
  param {
    lr_mult: 1
    decay_mult: 1
  }
  param {
    lr_mult: 2
    decay_mult: 0
  }
  inner_product_param {
    num_output: 500
    weight_filler {
      type: "xavier"
    }
    bias_filler {
      type: "constant"
      value: 0.2
    }
  }
}
layer {
  name: "reshape_frames"
  type: "Reshape"
  bottom: "embedded_in_frames"
  top: "embedded_input_frames"
  reshape_param {
    shape {
      dim: 1
      dim: 1
      dim: 500
    }
  }
}
layer {
  name: "reshape_stage_indicator"
  type: "Reshape"
  bottom: "stage_indicator"
  top: "reshaped_stage_indicator"
  reshape_param {
    shape {
      dim: 1
      dim: 1
      dim: 1
    }
  }
}
layer {
  name: "embedding"
  type: "Embed"
  bottom: "input_sentence"
  top: "embedded_input_sentence"
  param {
    lr_mult: 1
  }
  embed_param {
    num_output: 500
    input_dim: 46168
    bias_term: false
    weight_filler {
      type: "uniform"
      min: -0.08
      max: 0.08
    }
  }
}
layer {
  name: "lstm1"
  type: "LSTM"
  bottom: "embedded_input_frames"
  bottom: "cont_sentence"
  top: "lstm1"
  recurrent_param {
    num_output: 1000
    weight_filler {
      type: "uniform"
      min: -0.08
      max: 0.08
    }
    bias_filler {
      type: "constant"
      value: 0
    }
  }
}
layer {
  name: "concat"
  type: "Concat"
  bottom: "lstm1"
  bottom: "embedded_input_sentence"
  bottom: "reshaped_stage_indicator"
  top: "lstm1_video_sequence"
  concat_param {
    concat_dim: 2
  }
}
layer {
  name: "lstm2"
  type: "LSTM"
  bottom: "lstm1_video_sequence"
  bottom: "cont_sentence"
  top: "lstm2"
  recurrent_param {
    num_output: 1000
    weight_filler {
      type: "uniform"
      min: -0.08
      max: 0.08
    }
    bias_filler {
      type: "constant"
      value: 0
    }
  }
}
layer {
  name: "predict"
  type: "InnerProduct"
  bottom: "lstm2"
  top: "predict"
  param {
    lr_mult: 1
    decay_mult: 1
  }
  param {
    lr_mult: 2
    decay_mult: 0
  }
  inner_product_param {
    num_output: 46168
    weight_filler {
      type: "uniform"
      min: -0.08
      max: 0.08
    }
    bias_filler {
      type: "constant"
      value: 0
    }
    axis: 2
  }
}
layer {
  name: "probs"
  type: "Softmax"
  bottom: "predict"
  top: "probs"
  softmax_param {
    axis: 2
  }
}
I0720 14:29:09.774415 21097 net.cpp:399] cont_sentence_input_1_split -> cont_sentence_input_1_split_1
I0720 14:29:09.774427 21095 layer_factory.hpp:77] Creating layer input
I0720 14:29:09.774433 21097 net.cpp:141] Setting up cont_sentence_input_1_split
I0720 14:29:09.774435 21093 layer_factory.hpp:77] Creating layer input
I0720 14:29:09.774444 21095 net.cpp:91] Creating Layer input
I0720 14:29:09.774446 21108 net.cpp:49] Initializing net from parameters: 
name: "s2vt:features_to_lstm"
state {
  phase: TEST
}
layer {
  name: "input"
  type: "Input"
  top: "frames_fc7"
  top: "cont_sentence"
  top: "input_sentence"
  top: "stage_indicator"
  input_param {
    shape {
      dim: 1
      dim: 4096
    }
    shape {
      dim: 1
      dim: 1
    }
    shape {
      dim: 1
      dim: 1
    }
    shape {
      dim: 1
      dim: 1
    }
  }
}
layer {
  name: "embed_encoder"
  type: "InnerProduct"
  bottom: "frames_fc7"
  top: "embedded_in_frames"
  param {
    lr_mult: 1
    decay_mult: 1
  }
  param {
    lr_mult: 2
    decay_mult: 0
  }
  inner_product_param {
    num_output: 500
    weight_filler {
      type: "xavier"
    }
    bias_filler {
      type: "constant"
      value: 0.2
    }
  }
}
layer {
  name: "reshape_frames"
  type: "Reshape"
  bottom: "embedded_in_frames"
  top: "embedded_input_frames"
  reshape_param {
    shape {
      dim: 1
      dim: 1
      dim: 500
    }
  }
}
layer {
  name: "reshape_stage_indicator"
  type: "Reshape"
  bottom: "stage_indicator"
  top: "reshaped_stage_indicator"
  reshape_param {
    shape {
      dim: 1
      dim: 1
      dim: 1
    }
  }
}
layer {
  name: "embedding"
  type: "Embed"
  bottom: "input_sentence"
  top: "embedded_input_sentence"
  param {
    lr_mult: 1
  }
  embed_param {
    num_output: 500
    input_dim: 46168
    bias_term: false
    weight_filler {
      type: "uniform"
      min: -0.08
      max: 0.08
    }
  }
}
layer {
  name: "lstm1"
  type: "LSTM"
  bottom: "embedded_input_frames"
  bottom: "cont_sentence"
  top: "lstm1"
  recurrent_param {
    num_output: 1000
    weight_filler {
      type: "uniform"
      min: -0.08
      max: 0.08
    }
    bias_filler {
      type: "constant"
      value: 0
    }
  }
}
layer {
  name: "concat"
  type: "Concat"
  bottom: "lstm1"
  bottom: "embedded_input_sentence"
  bottom: "reshaped_stage_indicator"
  top: "lstm1_video_sequence"
  concat_param {
    concat_dim: 2
  }
}
layer {
  name: "lstm2"
  type: "LSTM"
  bottom: "lstm1_video_sequence"
  bottom: "cont_sentence"
  top: "lstm2"
  recurrent_param {
    num_output: 1000
    weight_filler {
      type: "uniform"
      min: -0.08
      max: 0.08
    }
    bias_filler {
      type: "constant"
      value: 0
    }
  }
}
layer {
  name: "predict"
  type: "InnerProduct"
  bottom: "lstm2"
  top: "predict"
  param {
    lr_mult: 1
    decay_mult: 1
  }
  param {
    lr_mult: 2
    decay_mult: 0
  }
  inner_product_param {
    num_output: 46168
    weight_filler {
      type: "uniform"
      min: -0.08
      max: 0.08
    }
    bias_filler {
      type: "constant"
      value: 0
    }
    axis: 2
  }
}
layer {
  name: "probs"
  type: "Softmax"
  bottom: "predict"
  top: "probs"
  softmax_param {
    axis: 2
  }
}
I0720 14:29:09.774456 21093 net.cpp:91] Creating Layer input
I0720 14:29:09.774446 21097 net.cpp:148] Top shape: 1 1 (1)
I0720 14:29:09.774471 21093 net.cpp:399] input -> frames_fc7
I0720 14:29:09.774479 21097 net.cpp:148] Top shape: 1 1 (1)
I0720 14:29:09.774483 21103 net.cpp:91] Creating Layer embed_encoder
I0720 14:29:09.774488 21097 net.cpp:156] Memory required for data: 16404
I0720 14:29:09.774490 21093 net.cpp:399] input -> cont_sentence
I0720 14:29:09.774495 21097 layer_factory.hpp:77] Creating layer embed_encoder
I0720 14:29:09.774495 21103 net.cpp:425] embed_encoder <- frames_fc7
I0720 14:29:09.774507 21097 net.cpp:91] Creating Layer embed_encoder
I0720 14:29:09.774508 21093 net.cpp:399] input -> input_sentence
I0720 14:29:09.774513 21097 net.cpp:425] embed_encoder <- frames_fc7
I0720 14:29:09.774523 21097 net.cpp:399] embed_encoder -> embedded_in_frames
I0720 14:29:09.774525 21093 net.cpp:399] input -> stage_indicator
I0720 14:29:09.774462 21095 net.cpp:399] input -> frames_fc7
I0720 14:29:09.774541 21093 net.cpp:141] Setting up input
I0720 14:29:09.774547 21095 net.cpp:399] input -> cont_sentence
I0720 14:29:09.774360 21089 net.cpp:49] Initializing net from parameters: 
name: "s2vt:features_to_lstm"
state {
  phase: TEST
}
layer {
  name: "input"
  type: "Input"
  top: "frames_fc7"
  top: "cont_sentence"
  top: "input_sentence"
  top: "stage_indicator"
  input_param {
    shape {
      dim: 1
      dim: 4096
    }
    shape {
      dim: 1
      dim: 1
    }
    shape {
      dim: 1
      dim: 1
    }
    shape {
      dim: 1
      dim: 1
    }
  }
}
layer {
  name: "embed_encoder"
  type: "InnerProduct"
  bottom: "frames_fc7"
  top: "embedded_in_frames"
  param {
    lr_mult: 1
    decay_mult: 1
  }
  param {
    lr_mult: 2
    decay_mult: 0
  }
  inner_product_param {
    num_output: 500
    weight_filler {
      type: "xavier"
    }
    bias_filler {
      type: "constant"
      value: 0.2
    }
  }
}
layer {
  name: "reshape_frames"
  type: "Reshape"
  bottom: "embedded_in_frames"
  top: "embedded_input_frames"
  reshape_param {
    shape {
      dim: 1
      dim: 1
      dim: 500
    }
  }
}
layer {
  name: "reshape_stage_indicator"
  type: "Reshape"
  bottom: "stage_indicator"
  top: "reshaped_stage_indicator"
  reshape_param {
    shape {
      dim: 1
      dim: 1
      dim: 1
    }
  }
}
layer {
  name: "embedding"
  type: "Embed"
  bottom: "input_sentence"
  top: "embedded_input_sentence"
  param {
    lr_mult: 1
  }
  embed_param {
    num_output: 500
    input_dim: 46168
    bias_term: false
    weight_filler {
      type: "uniform"
      min: -0.08
      max: 0.08
    }
  }
}
layer {
  name: "lstm1"
  type: "LSTM"
  bottom: "embedded_input_frames"
  bottom: "cont_sentence"
  top: "lstm1"
  recurrent_param {
    num_output: 1000
    weight_filler {
      type: "uniform"
      min: -0.08
      max: 0.08
    }
    bias_filler {
      type: "constant"
      value: 0
    }
  }
}
layer {
  name: "concat"
  type: "Concat"
  bottom: "lstm1"
  bottom: "embedded_input_sentence"
  bottom: "reshaped_stage_indicator"
  top: "lstm1_video_sequence"
  concat_param {
    concat_dim: 2
  }
}
layer {
  name: "lstm2"
  type: "LSTM"
  bottom: "lstm1_video_sequence"
  bottom: "cont_sentence"
  top: "lstm2"
  recurrent_param {
    num_output: 1000
    weight_filler {
      type: "uniform"
      min: -0.08
      max: 0.08
    }
    bias_filler {
      type: "constant"
      value: 0
    }
  }
}
layer {
  name: "predict"
  type: "InnerProduct"
  bottom: "lstm2"
  top: "predict"
  param {
    lr_mult: 1
    decay_mult: 1
  }
  param {
    lr_mult: 2
    decay_mult: 0
  }
  inner_product_param {
    num_output: 46168
    weight_filler {
      type: "uniform"
      min: -0.08
      max: 0.08
    }
    bias_filler {
      type: "constant"
      value: 0
    }
    axis: 2
  }
}
layer {
  name: "probs"
  type: "Softmax"
  bottom: "predict"
  top: "probs"
  softmax_param {
    axis: 2
  }
}
I0720 14:29:09.774555 21093 net.cpp:148] Top shape: 1 4096 (4096)
I0720 14:29:09.774581 21093 net.cpp:148] Top shape: 1 1 (1)
I0720 14:29:09.774593 21093 net.cpp:148] Top shape: 1 1 (1)
I0720 14:29:09.774598 21093 net.cpp:148] Top shape: 1 1 (1)
I0720 14:29:09.774602 21093 net.cpp:156] Memory required for data: 16396
I0720 14:29:09.774607 21093 layer_factory.hpp:77] Creating layer cont_sentence_input_1_split
I0720 14:29:09.774616 21093 net.cpp:91] Creating Layer cont_sentence_input_1_split
I0720 14:29:09.774621 21093 net.cpp:425] cont_sentence_input_1_split <- cont_sentence
I0720 14:29:09.774628 21093 net.cpp:399] cont_sentence_input_1_split -> cont_sentence_input_1_split_0
I0720 14:29:09.774643 21103 net.cpp:399] embed_encoder -> embedded_in_frames
I0720 14:29:09.774545 21116 net.cpp:49] Initializing net from parameters: 
name: "s2vt:features_to_lstm"
state {
  phase: TEST
}
layer {
  name: "input"
  type: "Input"
  top: "frames_fc7"
  top: "cont_sentence"
  top: "input_sentence"
  top: "stage_indicator"
  input_param {
    shape {
      dim: 1
      dim: 4096
    }
    shape {
      dim: 1
      dim: 1
    }
    shape {
      dim: 1
      dim: 1
    }
    shape {
      dim: 1
      dim: 1
    }
  }
}
layer {
  name: "embed_encoder"
  type: "InnerProduct"
  bottom: "frames_fc7"
  top: "embedded_in_frames"
  param {
    lr_mult: 1
    decay_mult: 1
  }
  param {
    lr_mult: 2
    decay_mult: 0
  }
  inner_product_param {
    num_output: 500
    weight_filler {
      type: "xavier"
    }
    bias_filler {
      type: "constant"
      value: 0.2
    }
  }
}
layer {
  name: "reshape_frames"
  type: "Reshape"
  bottom: "embedded_in_frames"
  top: "embedded_input_frames"
  reshape_param {
    shape {
      dim: 1
      dim: 1
      dim: 500
    }
  }
}
layer {
  name: "reshape_stage_indicator"
  type: "Reshape"
  bottom: "stage_indicator"
  top: "reshaped_stage_indicator"
  reshape_param {
    shape {
      dim: 1
      dim: 1
      dim: 1
    }
  }
}
layer {
  name: "embedding"
  type: "Embed"
  bottom: "input_sentence"
  top: "embedded_input_sentence"
  param {
    lr_mult: 1
  }
  embed_param {
    num_output: 500
    input_dim: 46168
    bias_term: false
    weight_filler {
      type: "uniform"
      min: -0.08
      max: 0.08
    }
  }
}
layer {
  name: "lstm1"
  type: "LSTM"
  bottom: "embedded_input_frames"
  bottom: "cont_sentence"
  top: "lstm1"
  recurrent_param {
    num_output: 1000
    weight_filler {
      type: "uniform"
      min: -0.08
      max: 0.08
    }
    bias_filler {
      type: "constant"
      value: 0
    }
  }
}
layer {
  name: "concat"
  type: "Concat"
  bottom: "lstm1"
  bottom: "embedded_input_sentence"
  bottom: "reshaped_stage_indicator"
  top: "lstm1_video_sequence"
  concat_param {
    concat_dim: 2
  }
}
layer {
  name: "lstm2"
  type: "LSTM"
  bottom: "lstm1_video_sequence"
  bottom: "cont_sentence"
  top: "lstm2"
  recurrent_param {
    num_output: 1000
    weight_filler {
      type: "uniform"
      min: -0.08
      max: 0.08
    }
    bias_filler {
      type: "constant"
      value: 0
    }
  }
}
layer {
  name: "predict"
  type: "InnerProduct"
  bottom: "lstm2"
  top: "predict"
  param {
    lr_mult: 1
    decay_mult: 1
  }
  param {
    lr_mult: 2
    decay_mult: 0
  }
  inner_product_param {
    num_output: 46168
    weight_filler {
      type: "uniform"
      min: -0.08
      max: 0.08
    }
    bias_filler {
      type: "constant"
      value: 0
    }
    axis: 2
  }
}
layer {
  name: "probs"
  type: "Softmax"
  bottom: "predict"
  top: "probs"
  softmax_param {
    axis: 2
  }
}
I0720 14:29:09.774659 21095 net.cpp:399] input -> input_sentence
I0720 14:29:09.774667 21093 net.cpp:399] cont_sentence_input_1_split -> cont_sentence_input_1_split_1
I0720 14:29:09.774693 21095 net.cpp:399] input -> stage_indicator
I0720 14:29:09.774699 21093 net.cpp:141] Setting up cont_sentence_input_1_split
I0720 14:29:09.774708 21095 net.cpp:141] Setting up input
I0720 14:29:09.774715 21093 net.cpp:148] Top shape: 1 1 (1)
I0720 14:29:09.774721 21095 net.cpp:148] Top shape: 1 4096 (4096)
I0720 14:29:09.774729 21095 net.cpp:148] Top shape: 1 1 (1)
I0720 14:29:09.774729 21093 net.cpp:148] Top shape: 1 1 (1)
I0720 14:29:09.774735 21095 net.cpp:148] Top shape: 1 1 (1)
I0720 14:29:09.774739 21093 net.cpp:156] Memory required for data: 16404
I0720 14:29:09.774741 21095 net.cpp:148] Top shape: 1 1 (1)
I0720 14:29:09.774755 21095 net.cpp:156] Memory required for data: 16396
I0720 14:29:09.774754 21093 layer_factory.hpp:77] Creating layer embed_encoder
I0720 14:29:09.774755 21118 layer_factory.hpp:77] Creating layer input
I0720 14:29:09.774760 21095 layer_factory.hpp:77] Creating layer cont_sentence_input_1_split
I0720 14:29:09.774772 21118 net.cpp:91] Creating Layer input
I0720 14:29:09.774775 21095 net.cpp:91] Creating Layer cont_sentence_input_1_split
I0720 14:29:09.774780 21118 net.cpp:399] input -> frames_fc7
I0720 14:29:09.774781 21095 net.cpp:425] cont_sentence_input_1_split <- cont_sentence
I0720 14:29:09.774796 21118 net.cpp:399] input -> cont_sentence
I0720 14:29:09.774799 21095 net.cpp:399] cont_sentence_input_1_split -> cont_sentence_input_1_split_0
I0720 14:29:09.774811 21118 net.cpp:399] input -> input_sentence
I0720 14:29:09.774817 21095 net.cpp:399] cont_sentence_input_1_split -> cont_sentence_input_1_split_1
I0720 14:29:09.774809 21089 layer_factory.hpp:77] Creating layer input
I0720 14:29:09.774832 21118 net.cpp:399] input -> stage_indicator
I0720 14:29:09.774839 21089 net.cpp:91] Creating Layer input
I0720 14:29:09.774842 21095 net.cpp:141] Setting up cont_sentence_input_1_split
I0720 14:29:09.774852 21089 net.cpp:399] input -> frames_fc7
I0720 14:29:09.774854 21118 net.cpp:141] Setting up input
I0720 14:29:09.774857 21095 net.cpp:148] Top shape: 1 1 (1)
I0720 14:29:09.774866 21118 net.cpp:148] Top shape: 1 4096 (4096)
I0720 14:29:09.774869 21089 net.cpp:399] input -> cont_sentence
I0720 14:29:09.774868 21095 net.cpp:148] Top shape: 1 1 (1)
I0720 14:29:09.774883 21118 net.cpp:148] Top shape: 1 1 (1)
I0720 14:29:09.774885 21089 net.cpp:399] input -> input_sentence
I0720 14:29:09.774886 21095 net.cpp:156] Memory required for data: 16404
I0720 14:29:09.774894 21118 net.cpp:148] Top shape: 1 1 (1)
I0720 14:29:09.774896 21095 layer_factory.hpp:77] Creating layer embed_encoder
I0720 14:29:09.774901 21089 net.cpp:399] input -> stage_indicator
I0720 14:29:09.774904 21118 net.cpp:148] Top shape: 1 1 (1)
I0720 14:29:09.774911 21118 net.cpp:156] Memory required for data: 16396
I0720 14:29:09.774916 21095 net.cpp:91] Creating Layer embed_encoder
I0720 14:29:09.774821 21108 layer_factory.hpp:77] Creating layer input
I0720 14:29:09.774919 21118 layer_factory.hpp:77] Creating layer cont_sentence_input_1_split
I0720 14:29:09.774926 21095 net.cpp:425] embed_encoder <- frames_fc7
I0720 14:29:09.774933 21108 net.cpp:91] Creating Layer input
…
I0720 14:29:09.774986 21108 net.cpp:399] input -> input_sentence
I0720 14:29:09.774988 21118 net.cpp:399] cont_sentence_input_1_split -> cont_sentence_input_1_split_0
I0720 14:29:09.774993 21093 net.cpp:425] embed_encoder <- frames_fc7
I0720 14:29:09.775007 21108 net.cpp:399] input -> stage_indicator
I0720 14:29:09.775012 21118 net.cpp:399] cont_sentence_input_1_split -> cont_sentence_input_1_split_1
I0720 14:29:09.775019 21093 net.cpp:399] embed_encoder -> embedded_in_frames
I0720 14:29:09.775025 21108 net.cpp:141] Setting up input
I0720 14:29:09.775037 21116 layer_factory.hpp:77] Creating layer input
I0720 14:29:09.775043 21108 net.cpp:148] Top shape: 1 4096 (4096)
I0720 14:29:09.775051 21116 net.cpp:91] Creating Layer input
I0720 14:29:09.774919 21089 net.cpp:141] Setting up input
I0720 14:29:09.775053 21108 net.cpp:148] Top shape: 1 1 (1)
I0720 14:29:09.775068 21116 net.cpp:399] input -> frames_fc7
I0720 14:29:09.775070 21089 net.cpp:148] Top shape: 1 4096 (4096)
I0720 14:29:09.775080 21108 net.cpp:148] Top shape: 1 1 (1)
I0720 14:29:09.775087 21089 net.cpp:148] Top shape: 1 1 (1)
I0720 14:29:09.775025 21118 net.cpp:141] Setting up cont_sentence_input_1_split
I0720 14:29:09.775094 21108 net.cpp:148] Top shape: 1 1 (1)
I0720 14:29:09.775089 21116 net.cpp:399] input -> cont_sentence
I0720 14:29:09.775102 21089 net.cpp:148] Top shape: 1 1 (1)
I0720 14:29:09.775102 21108 net.cpp:156] Memory required for data: 16396
I0720 14:29:09.775116 21089 net.cpp:148] Top shape: 1 1 (1)
I0720 14:29:09.775118 21108 layer_factory.hpp:77] Creating layer cont_sentence_input_1_split
I0720 14:29:09.775121 21116 net.cpp:399] input -> input_sentence
I0720 14:29:09.775125 21089 net.cpp:156] Memory required for data: 16396
I0720 14:29:09.775135 21108 net.cpp:91] Creating Layer cont_sentence_input_1_split
I0720 14:29:09.775138 21089 layer_factory.hpp:77] Creating layer cont_sentence_input_1_split
I0720 14:29:09.775144 21108 net.cpp:425] cont_sentence_input_1_split <- cont_sentence
I0720 14:29:09.775102 21118 net.cpp:148] Top shape: 1 1 (1)
I0720 14:29:09.775152 21089 net.cpp:91] Creating Layer cont_sentence_input_1_split
I0720 14:29:09.775162 21108 net.cpp:399] cont_sentence_input_1_split -> cont_sentence_input_1_split_0
I0720 14:29:09.775166 21118 net.cpp:148] Top shape: 1 1 (1)
I0720 14:29:09.775168 21089 net.cpp:425] cont_sentence_input_1_split <- cont_sentence
I0720 14:29:09.775177 21118 net.cpp:156] Memory required for data: 16404
I0720 14:29:09.775179 21108 net.cpp:399] cont_sentence_input_1_split -> cont_sentence_input_1_split_1
I0720 14:29:09.775144 21116 net.cpp:399] input -> stage_indicator
I0720 14:29:09.775185 21089 net.cpp:399] cont_sentence_input_1_split -> cont_sentence_input_1_split_0
I0720 14:29:09.775197 21108 net.cpp:141] Setting up cont_sentence_input_1_split
I0720 14:29:09.775203 21116 net.cpp:141] Setting up input
I0720 14:29:09.775210 21108 net.cpp:148] Top shape: 1 1 (1)
I0720 14:29:09.775203 21089 net.cpp:399] cont_sentence_input_1_split -> cont_sentence_input_1_split_1
I0720 14:29:09.775223 21108 net.cpp:148] Top shape: 1 1 (1)
I0720 14:29:09.775185 21118 layer_factory.hpp:77] Creating layer embed_encoder
I0720 14:29:09.775235 21108 net.cpp:156] Memory required for data: 16404
I0720 14:29:09.775229 21089 net.cpp:141] Setting up cont_sentence_input_1_split
I0720 14:29:09.775248 21108 layer_factory.hpp:77] Creating layer embed_encoder
I0720 14:29:09.775223 21116 net.cpp:148] Top shape: 1 4096 (4096)
I0720 14:29:09.775259 21089 net.cpp:148] Top shape: 1 1 (1)
I0720 14:29:09.775264 21116 net.cpp:148] Top shape: 1 1 (1)
I0720 14:29:09.775270 21089 net.cpp:148] Top shape: 1 1 (1)
I0720 14:29:09.775274 21116 net.cpp:148] Top shape: 1 1 (1)
I0720 14:29:09.775270 21108 net.cpp:91] Creating Layer embed_encoder
I0720 14:29:09.775282 21089 net.cpp:156] Memory required for data: 16404
I0720 14:29:09.775249 21118 net.cpp:91] Creating Layer embed_encoder
I0720 14:29:09.775290 21108 net.cpp:425] embed_encoder <- frames_fc7
I0720 14:29:09.775284 21116 net.cpp:148] Top shape: 1 1 (1)
I0720 14:29:09.775293 21089 layer_factory.hpp:77] Creating layer embed_encoder
I0720 14:29:09.775300 21116 net.cpp:156] Memory required for data: 16396
I0720 14:29:09.775305 21108 net.cpp:399] embed_encoder -> embedded_in_frames
I0720 14:29:09.775308 21116 layer_factory.hpp:77] Creating layer cont_sentence_input_1_split
I0720 14:29:09.775312 21089 net.cpp:91] Creating Layer embed_encoder
I0720 14:29:09.775321 21089 net.cpp:425] embed_encoder <- frames_fc7
I0720 14:29:09.775293 21118 net.cpp:425] embed_encoder <- frames_fc7
I0720 14:29:09.775321 21116 net.cpp:91] Creating Layer cont_sentence_input_1_split
I0720 14:29:09.775346 21116 net.cpp:425] cont_sentence_input_1_split <- cont_sentence
I0720 14:29:09.775357 21116 net.cpp:399] cont_sentence_input_1_split -> cont_sentence_input_1_split_0
I0720 14:29:09.775362 21089 net.cpp:399] embed_encoder -> embedded_in_frames
I0720 14:29:09.775372 21116 net.cpp:399] cont_sentence_input_1_split -> cont_sentence_input_1_split_1
I0720 14:29:09.775387 21116 net.cpp:141] Setting up cont_sentence_input_1_split
I0720 14:29:09.775396 21116 net.cpp:148] Top shape: 1 1 (1)
I0720 14:29:09.775403 21116 net.cpp:148] Top shape: 1 1 (1)
I0720 14:29:09.775405 21116 net.cpp:156] Memory required for data: 16404
I0720 14:29:09.775410 21116 layer_factory.hpp:77] Creating layer embed_encoder
I0720 14:29:09.775425 21118 net.cpp:399] embed_encoder -> embedded_in_frames
I0720 14:29:09.775465 21116 net.cpp:91] Creating Layer embed_encoder
I0720 14:29:09.775482 21116 net.cpp:425] embed_encoder <- frames_fc7
I0720 14:29:09.775498 21116 net.cpp:399] embed_encoder -> embedded_in_frames
I0720 14:29:09.780905 21105 layer_factory.hpp:77] Creating layer input
I0720 14:29:09.780938 21105 net.cpp:91] Creating Layer input
I0720 14:29:09.780947 21105 net.cpp:399] input -> frames_fc7
I0720 14:29:09.780966 21105 net.cpp:399] input -> cont_sentence
I0720 14:29:09.780975 21105 net.cpp:399] input -> input_sentence
I0720 14:29:09.780985 21105 net.cpp:399] input -> stage_indicator
I0720 14:29:09.781002 21105 net.cpp:141] Setting up input
I0720 14:29:09.781010 21105 net.cpp:148] Top shape: 1 4096 (4096)
I0720 14:29:09.781016 21105 net.cpp:148] Top shape: 1 1 (1)
I0720 14:29:09.781021 21105 net.cpp:148] Top shape: 1 1 (1)
I0720 14:29:09.781026 21105 net.cpp:148] Top shape: 1 1 (1)
I0720 14:29:09.781030 21105 net.cpp:156] Memory required for data: 16396
I0720 14:29:09.781035 21105 layer_factory.hpp:77] Creating layer cont_sentence_input_1_split
I0720 14:29:09.781045 21105 net.cpp:91] Creating Layer cont_sentence_input_1_split
I0720 14:29:09.781051 21105 net.cpp:425] cont_sentence_input_1_split <- cont_sentence
I0720 14:29:09.781059 21105 net.cpp:399] cont_sentence_input_1_split -> cont_sentence_input_1_split_0
I0720 14:29:09.781069 21105 net.cpp:399] cont_sentence_input_1_split -> cont_sentence_input_1_split_1
I0720 14:29:09.781078 21105 net.cpp:141] Setting up cont_sentence_input_1_split
I0720 14:29:09.781085 21105 net.cpp:148] Top shape: 1 1 (1)
I0720 14:29:09.781090 21105 net.cpp:148] Top shape: 1 1 (1)
I0720 14:29:09.781093 21105 net.cpp:156] Memory required for data: 16404
I0720 14:29:09.781097 21105 layer_factory.hpp:77] Creating layer embed_encoder
I0720 14:29:09.781107 21105 net.cpp:91] Creating Layer embed_encoder
I0720 14:29:09.781111 21105 net.cpp:425] embed_encoder <- frames_fc7
I0720 14:29:09.781121 21105 net.cpp:399] embed_encoder -> embedded_in_frames
I0720 14:29:09.817490 21097 net.cpp:141] Setting up embed_encoder
I0720 14:29:09.817534 21097 net.cpp:148] Top shape: 1 500 (500)
I0720 14:29:09.817543 21097 net.cpp:156] Memory required for data: 18404
I0720 14:29:09.817581 21097 layer_factory.hpp:77] Creating layer reshape_frames
I0720 14:29:09.817608 21097 net.cpp:91] Creating Layer reshape_frames
I0720 14:29:09.817618 21097 net.cpp:425] reshape_frames <- embedded_in_frames
I0720 14:29:09.817631 21097 net.cpp:399] reshape_frames -> embedded_input_frames
I0720 14:29:09.817661 21097 net.cpp:141] Setting up reshape_frames
I0720 14:29:09.817672 21097 net.cpp:148] Top shape: 1 1 500 (500)
I0720 14:29:09.817677 21097 net.cpp:156] Memory required for data: 20404
I0720 14:29:09.817684 21097 layer_factory.hpp:77] Creating layer reshape_stage_indicator
I0720 14:29:09.817718 21103 net.cpp:141] Setting up embed_encoder
I0720 14:29:09.817740 21103 net.cpp:148] Top shape: 1 500 (500)
I0720 14:29:09.817749 21103 net.cpp:156] Memory required for data: 18404
I0720 14:29:09.817771 21103 layer_factory.hpp:77] Creating layer reshape_frames
I0720 14:29:09.821662 21097 net.cpp:91] Creating Layer reshape_stage_indicator
I0720 14:29:09.821682 21097 net.cpp:425] reshape_stage_indicator <- stage_indicator
I0720 14:29:09.822482 21103 net.cpp:91] Creating Layer reshape_frames
I0720 14:29:09.822504 21103 net.cpp:425] reshape_frames <- embedded_in_frames
I0720 14:29:09.822527 21103 net.cpp:399] reshape_frames -> embedded_input_frames
I0720 14:29:09.822556 21103 net.cpp:141] Setting up reshape_frames
I0720 14:29:09.822574 21103 net.cpp:148] Top shape: 1 1 500 (500)
I0720 14:29:09.822583 21103 net.cpp:156] Memory required for data: 20404
I0720 14:29:09.822592 21103 layer_factory.hpp:77] Creating layer reshape_stage_indicator
I0720 14:29:09.822612 21103 net.cpp:91] Creating Layer reshape_stage_indicator
I0720 14:29:09.822621 21103 net.cpp:425] reshape_stage_indicator <- stage_indicator
I0720 14:29:09.822635 21103 net.cpp:399] reshape_stage_indicator -> reshaped_stage_indicator
I0720 14:29:09.822655 21103 net.cpp:141] Setting up reshape_stage_indicator
I0720 14:29:09.822671 21103 net.cpp:148] Top shape: 1 1 1 (1)
I0720 14:29:09.822680 21103 net.cpp:156] Memory required for data: 20408
I0720 14:29:09.822715 21103 layer_factory.hpp:77] Creating layer embedding
I0720 14:29:09.822756 21089 net.cpp:141] Setting up embed_encoder
I0720 14:29:09.822772 21089 net.cpp:148] Top shape: 1 500 (500)
I0720 14:29:09.822778 21089 net.cpp:156] Memory required for data: 18404
I0720 14:29:09.822798 21089 layer_factory.hpp:77] Creating layer reshape_frames
I0720 14:29:09.821707 21097 net.cpp:399] reshape_stage_indicator -> reshaped_stage_indicator
I0720 14:29:09.822829 21097 net.cpp:141] Setting up reshape_stage_indicator
I0720 14:29:09.822840 21097 net.cpp:148] Top shape: 1 1 1 (1)
I0720 14:29:09.822847 21097 net.cpp:156] Memory required for data: 20408
I0720 14:29:09.822854 21097 layer_factory.hpp:77] Creating layer embedding
I0720 14:29:09.822866 21097 net.cpp:91] Creating Layer embedding
I0720 14:29:09.822873 21097 net.cpp:425] embedding <- input_sentence
I0720 14:29:09.822885 21097 net.cpp:399] embedding -> embedded_input_sentence
I0720 14:29:09.835378 21093 net.cpp:141] Setting up embed_encoder
I0720 14:29:09.835418 21093 net.cpp:148] Top shape: 1 500 (500)
I0720 14:29:09.835417 21089 net.cpp:91] Creating Layer reshape_frames
I0720 14:29:09.835425 21093 net.cpp:156] Memory required for data: 18404
I0720 14:29:09.835448 21089 net.cpp:425] reshape_frames <- embedded_in_frames
I0720 14:29:09.835458 21093 layer_factory.hpp:77] Creating layer reshape_frames
I0720 14:29:09.835472 21089 net.cpp:399] reshape_frames -> embedded_input_frames
I0720 14:29:09.835531 21089 net.cpp:141] Setting up reshape_frames
I0720 14:29:09.835548 21089 net.cpp:148] Top shape: 1 1 500 (500)
I0720 14:29:09.835554 21089 net.cpp:156] Memory required for data: 20404
I0720 14:29:09.835561 21089 layer_factory.hpp:77] Creating layer reshape_stage_indicator
I0720 14:29:09.835572 21089 net.cpp:91] Creating Layer reshape_stage_indicator
I0720 14:29:09.835577 21089 net.cpp:425] reshape_stage_indicator <- stage_indicator
I0720 14:29:09.835636 21103 net.cpp:91] Creating Layer embedding
I0720 14:29:09.835649 21093 net.cpp:91] Creating Layer reshape_frames
I0720 14:29:09.835660 21103 net.cpp:425] embedding <- input_sentence
I0720 14:29:09.835664 21093 net.cpp:425] reshape_frames <- embedded_in_frames
I0720 14:29:09.835693 21093 net.cpp:399] reshape_frames -> embedded_input_frames
I0720 14:29:09.835714 21093 net.cpp:141] Setting up reshape_frames
I0720 14:29:09.835723 21093 net.cpp:148] Top shape: 1 1 500 (500)
I0720 14:29:09.835727 21093 net.cpp:156] Memory required for data: 20404
I0720 14:29:09.835732 21093 layer_factory.hpp:77] Creating layer reshape_stage_indicator
I0720 14:29:09.835741 21093 net.cpp:91] Creating Layer reshape_stage_indicator
I0720 14:29:09.835747 21093 net.cpp:425] reshape_stage_indicator <- stage_indicator
I0720 14:29:09.836369 21103 net.cpp:399] embedding -> embedded_input_sentence
I0720 14:29:09.836405 21089 net.cpp:399] reshape_stage_indicator -> reshaped_stage_indicator
I0720 14:29:09.836429 21089 net.cpp:141] Setting up reshape_stage_indicator
I0720 14:29:09.836441 21093 net.cpp:399] reshape_stage_indicator -> reshaped_stage_indicator
I0720 14:29:09.836443 21089 net.cpp:148] Top shape: 1 1 1 (1)
I0720 14:29:09.836462 21089 net.cpp:156] Memory required for data: 20408
I0720 14:29:09.836468 21093 net.cpp:141] Setting up reshape_stage_indicator
I0720 14:29:09.836472 21089 layer_factory.hpp:77] Creating layer embedding
I0720 14:29:09.836482 21093 net.cpp:148] Top shape: 1 1 1 (1)
I0720 14:29:09.836488 21093 net.cpp:156] Memory required for data: 20408
I0720 14:29:09.836489 21089 net.cpp:91] Creating Layer embedding
I0720 14:29:09.836496 21093 layer_factory.hpp:77] Creating layer embedding
I0720 14:29:09.836519 21089 net.cpp:425] embedding <- input_sentence
I0720 14:29:09.836529 21093 net.cpp:91] Creating Layer embedding
I0720 14:29:09.836535 21089 net.cpp:399] embedding -> embedded_input_sentence
I0720 14:29:09.836537 21093 net.cpp:425] embedding <- input_sentence
I0720 14:29:09.836557 21093 net.cpp:399] embedding -> embedded_input_sentence
I0720 14:29:09.836591 21118 net.cpp:141] Setting up embed_encoder
I0720 14:29:09.836602 21118 net.cpp:148] Top shape: 1 500 (500)
I0720 14:29:09.836609 21118 net.cpp:156] Memory required for data: 18404
I0720 14:29:09.836627 21118 layer_factory.hpp:77] Creating layer reshape_frames
I0720 14:29:09.836647 21116 net.cpp:141] Setting up embed_encoder
I0720 14:29:09.836658 21116 net.cpp:148] Top shape: 1 500 (500)
I0720 14:29:09.836664 21116 net.cpp:156] Memory required for data: 18404
I0720 14:29:09.836679 21116 layer_factory.hpp:77] Creating layer reshape_frames
I0720 14:29:09.836696 21122 net.cpp:141] Setting up embed_encoder
I0720 14:29:09.836706 21122 net.cpp:148] Top shape: 1 500 (500)
I0720 14:29:09.836712 21122 net.cpp:156] Memory required for data: 18404
I0720 14:29:09.836727 21122 layer_factory.hpp:77] Creating layer reshape_frames
I0720 14:29:09.837837 21095 net.cpp:141] Setting up embed_encoder
I0720 14:29:09.837857 21095 net.cpp:148] Top shape: 1 500 (500)
I0720 14:29:09.837862 21095 net.cpp:156] Memory required for data: 18404
I0720 14:29:09.838140 21118 net.cpp:91] Creating Layer reshape_frames
I0720 14:29:09.838153 21118 net.cpp:425] reshape_frames <- embedded_in_frames
I0720 14:29:09.838166 21118 net.cpp:399] reshape_frames -> embedded_input_frames
I0720 14:29:09.838182 21118 net.cpp:141] Setting up reshape_frames
I0720 14:29:09.838192 21118 net.cpp:148] Top shape: 1 1 500 (500)
I0720 14:29:09.838198 21118 net.cpp:156] Memory required for data: 20404
I0720 14:29:09.838205 21118 layer_factory.hpp:77] Creating layer reshape_stage_indicator
I0720 14:29:09.838220 21116 net.cpp:91] Creating Layer reshape_frames
I0720 14:29:09.838229 21116 net.cpp:425] reshape_frames <- embedded_in_frames
I0720 14:29:09.838241 21116 net.cpp:399] reshape_frames -> embedded_input_frames
I0720 14:29:09.838254 21116 net.cpp:141] Setting up reshape_frames
I0720 14:29:09.838263 21116 net.cpp:148] Top shape: 1 1 500 (500)
I0720 14:29:09.838270 21116 net.cpp:156] Memory required for data: 20404
I0720 14:29:09.838276 21116 layer_factory.hpp:77] Creating layer reshape_stage_indicator
I0720 14:29:09.839442 21118 net.cpp:91] Creating Layer reshape_stage_indicator
I0720 14:29:09.839469 21118 net.cpp:425] reshape_stage_indicator <- stage_indicator
I0720 14:29:09.839483 21095 layer_factory.hpp:77] Creating layer reshape_frames
I0720 14:29:09.839488 21118 net.cpp:399] reshape_stage_indicator -> reshaped_stage_indicator
I0720 14:29:09.839509 21122 net.cpp:91] Creating Layer reshape_frames
I0720 14:29:09.839516 21095 net.cpp:91] Creating Layer reshape_frames
I0720 14:29:09.839525 21122 net.cpp:425] reshape_frames <- embedded_in_frames
I0720 14:29:09.839529 21095 net.cpp:425] reshape_frames <- embedded_in_frames
I0720 14:29:09.839530 21118 net.cpp:141] Setting up reshape_stage_indicator
I0720 14:29:09.839541 21122 net.cpp:399] reshape_frames -> embedded_input_frames
I0720 14:29:09.839546 21118 net.cpp:148] Top shape: 1 1 1 (1)
I0720 14:29:09.839555 21118 net.cpp:156] Memory required for data: 20408
I0720 14:29:09.839565 21118 layer_factory.hpp:77] Creating layer embedding
I0720 14:29:09.839565 21122 net.cpp:141] Setting up reshape_frames
I0720 14:29:09.839576 21118 net.cpp:91] Creating Layer embedding
I0720 14:29:09.839579 21122 net.cpp:148] Top shape: 1 1 500 (500)
I0720 14:29:09.839582 21118 net.cpp:425] embedding <- input_sentence
I0720 14:29:09.839584 21122 net.cpp:156] Memory required for data: 20404
I0720 14:29:09.839591 21122 layer_factory.hpp:77] Creating layer reshape_stage_indicator
I0720 14:29:09.839608 21116 net.cpp:91] Creating Layer reshape_stage_indicator
I0720 14:29:09.839615 21116 net.cpp:425] reshape_stage_indicator <- stage_indicator
I0720 14:29:09.839623 21116 net.cpp:399] reshape_stage_indicator -> reshaped_stage_indicator
I0720 14:29:09.839635 21116 net.cpp:141] Setting up reshape_stage_indicator
I0720 14:29:09.839643 21116 net.cpp:148] Top shape: 1 1 1 (1)
I0720 14:29:09.839648 21116 net.cpp:156] Memory required for data: 20408
I0720 14:29:09.839651 21116 layer_factory.hpp:77] Creating layer embedding
I0720 14:29:09.840420 21095 net.cpp:399] reshape_frames -> embedded_input_frames
I0720 14:29:09.840446 21095 net.cpp:141] Setting up reshape_frames
I0720 14:29:09.840454 21095 net.cpp:148] Top shape: 1 1 500 (500)
I0720 14:29:09.840459 21095 net.cpp:156] Memory required for data: 20404
I0720 14:29:09.840464 21095 layer_factory.hpp:77] Creating layer reshape_stage_indicator
I0720 14:29:09.840474 21095 net.cpp:91] Creating Layer reshape_stage_indicator
I0720 14:29:09.840479 21095 net.cpp:425] reshape_stage_indicator <- stage_indicator
I0720 14:29:09.840487 21095 net.cpp:399] reshape_stage_indicator -> reshaped_stage_indicator
I0720 14:29:09.840498 21095 net.cpp:141] Setting up reshape_stage_indicator
I0720 14:29:09.840512 21095 net.cpp:148] Top shape: 1 1 1 (1)
I0720 14:29:09.840519 21095 net.cpp:156] Memory required for data: 20408
I0720 14:29:09.840526 21095 layer_factory.hpp:77] Creating layer embedding
I0720 14:29:09.840538 21122 net.cpp:91] Creating Layer reshape_stage_indicator
I0720 14:29:09.840554 21122 net.cpp:425] reshape_stage_indicator <- stage_indicator
I0720 14:29:09.840569 21122 net.cpp:399] reshape_stage_indicator -> reshaped_stage_indicator
I0720 14:29:09.840592 21122 net.cpp:141] Setting up reshape_stage_indicator
I0720 14:29:09.840607 21122 net.cpp:148] Top shape: 1 1 1 (1)
I0720 14:29:09.840615 21122 net.cpp:156] Memory required for data: 20408
I0720 14:29:09.840622 21122 layer_factory.hpp:77] Creating layer embedding
I0720 14:29:09.840822 21118 net.cpp:399] embedding -> embedded_input_sentence
I0720 14:29:09.842586 21116 net.cpp:91] Creating Layer embedding
I0720 14:29:09.842608 21116 net.cpp:425] embedding <- input_sentence
I0720 14:29:09.842628 21116 net.cpp:399] embedding -> embedded_input_sentence
I0720 14:29:09.842628 21095 net.cpp:91] Creating Layer embedding
I0720 14:29:09.842749 21095 net.cpp:425] embedding <- input_sentence
I0720 14:29:09.842888 21122 net.cpp:91] Creating Layer embedding
I0720 14:29:09.842903 21122 net.cpp:425] embedding <- input_sentence
I0720 14:29:09.842914 21122 net.cpp:399] embedding -> embedded_input_sentence
I0720 14:29:09.844029 21095 net.cpp:399] embedding -> embedded_input_sentence
I0720 14:29:09.886454 21108 net.cpp:141] Setting up embed_encoder
I0720 14:29:09.886528 21108 net.cpp:148] Top shape: 1 500 (500)
I0720 14:29:09.886536 21108 net.cpp:156] Memory required for data: 18404
I0720 14:29:09.886567 21108 layer_factory.hpp:77] Creating layer reshape_frames
I0720 14:29:09.888002 21108 net.cpp:91] Creating Layer reshape_frames
I0720 14:29:09.888030 21108 net.cpp:425] reshape_frames <- embedded_in_frames
I0720 14:29:09.888051 21108 net.cpp:399] reshape_frames -> embedded_input_frames
I0720 14:29:09.888082 21108 net.cpp:141] Setting up reshape_frames
I0720 14:29:09.888093 21108 net.cpp:148] Top shape: 1 1 500 (500)
I0720 14:29:09.888099 21108 net.cpp:156] Memory required for data: 20404
I0720 14:29:09.888106 21108 layer_factory.hpp:77] Creating layer reshape_stage_indicator
I0720 14:29:09.891275 21108 net.cpp:91] Creating Layer reshape_stage_indicator
I0720 14:29:09.891300 21108 net.cpp:425] reshape_stage_indicator <- stage_indicator
I0720 14:29:09.891314 21108 net.cpp:399] reshape_stage_indicator -> reshaped_stage_indicator
I0720 14:29:09.891335 21108 net.cpp:141] Setting up reshape_stage_indicator
I0720 14:29:09.891348 21108 net.cpp:148] Top shape: 1 1 1 (1)
I0720 14:29:09.891355 21108 net.cpp:156] Memory required for data: 20408
I0720 14:29:09.891361 21108 layer_factory.hpp:77] Creating layer embedding
I0720 14:29:09.892592 21108 net.cpp:91] Creating Layer embedding
I0720 14:29:09.892637 21108 net.cpp:425] embedding <- input_sentence
I0720 14:29:09.892657 21108 net.cpp:399] embedding -> embedded_input_sentence
I0720 14:29:09.949051 21105 net.cpp:141] Setting up embed_encoder
I0720 14:29:09.949097 21105 net.cpp:148] Top shape: 1 500 (500)
I0720 14:29:09.949105 21105 net.cpp:156] Memory required for data: 18404
I0720 14:29:09.949125 21105 layer_factory.hpp:77] Creating layer reshape_frames
I0720 14:29:09.949142 21105 net.cpp:91] Creating Layer reshape_frames
I0720 14:29:09.949149 21105 net.cpp:425] reshape_frames <- embedded_in_frames
I0720 14:29:09.949627 21105 net.cpp:399] reshape_frames -> embedded_input_frames
I0720 14:29:09.949657 21105 net.cpp:141] Setting up reshape_frames
I0720 14:29:09.949666 21105 net.cpp:148] Top shape: 1 1 500 (500)
I0720 14:29:09.949671 21105 net.cpp:156] Memory required for data: 20404
I0720 14:29:09.949676 21105 layer_factory.hpp:77] Creating layer reshape_stage_indicator
I0720 14:29:09.949686 21105 net.cpp:91] Creating Layer reshape_stage_indicator
I0720 14:29:09.949690 21105 net.cpp:425] reshape_stage_indicator <- stage_indicator
I0720 14:29:09.949767 21105 net.cpp:399] reshape_stage_indicator -> reshaped_stage_indicator
I0720 14:29:09.949785 21105 net.cpp:141] Setting up reshape_stage_indicator
I0720 14:29:09.949793 21105 net.cpp:148] Top shape: 1 1 1 (1)
I0720 14:29:09.949798 21105 net.cpp:156] Memory required for data: 20408
I0720 14:29:09.949802 21105 layer_factory.hpp:77] Creating layer embedding
I0720 14:29:09.949813 21105 net.cpp:91] Creating Layer embedding
I0720 14:29:09.949818 21105 net.cpp:425] embedding <- input_sentence
I0720 14:29:09.950345 21105 net.cpp:399] embedding -> embedded_input_sentence
I0720 14:29:10.059649 21101 net.cpp:141] Setting up data
I0720 14:29:10.059707 21101 net.cpp:148] Top shape: 10 3 227 227 (1545870)
I0720 14:29:10.059720 21101 net.cpp:156] Memory required for data: 6183480
I0720 14:29:10.059734 21101 layer_factory.hpp:77] Creating layer conv1
I0720 14:29:10.059780 21101 net.cpp:91] Creating Layer conv1
I0720 14:29:10.059794 21101 net.cpp:425] conv1 <- data
I0720 14:29:10.059813 21101 net.cpp:399] conv1 -> conv1
I0720 14:29:10.126829 21118 net.cpp:141] Setting up embedding
I0720 14:29:10.126899 21118 net.cpp:148] Top shape: 1 1 500 (500)
I0720 14:29:10.126910 21118 net.cpp:156] Memory required for data: 22408
I0720 14:29:10.126940 21118 layer_factory.hpp:77] Creating layer lstm1
I0720 14:29:10.126983 21118 net.cpp:91] Creating Layer lstm1
I0720 14:29:10.126998 21118 net.cpp:425] lstm1 <- embedded_input_frames
I0720 14:29:10.127015 21118 net.cpp:425] lstm1 <- cont_sentence_input_1_split_0
I0720 14:29:10.127033 21118 net.cpp:399] lstm1 -> lstm1
I0720 14:29:10.127094 21118 recurrent_layer.cpp:20] Initializing recurrent layer: assuming input batch contains 1 timesteps of 1 independent streams.
I0720 14:29:10.127771 21118 net.cpp:49] Initializing net from parameters: 
layer {
  name: "lstm1_"
  type: "Input"
  top: "x"
  top: "cont"
  input_param {
    shape {
      dim: 1
      dim: 1
      dim: 500
    }
    shape {
      dim: 1
      dim: 1
    }
  }
}
layer {
  name: "lstm1_"
  type: "Input"
  top: "c_0"
  top: "h_0"
  input_param {
    shape {
      dim: 1
      dim: 1
      dim: 1000
    }
    shape {
      dim: 1
      dim: 1
      dim: 1000
    }
  }
}
layer {
  name: "lstm1_cont_slice"
  type: "Slice"
  bottom: "cont"
  top: "cont_1"
  slice_param {
    axis: 0
  }
}
layer {
  name: "lstm1_x_transform"
  type: "InnerProduct"
  bottom: "x"
  top: "W_xc_x"
  param {
    name: "W_xc"
  }
  param {
    name: "b_c"
  }
  propagate_down: true
  inner_product_param {
    num_output: 4000
    bias_term: true
    weight_filler {
      type: "uniform"
      min: -0.08
      max: 0.08
    }
    bias_filler {
      type: "constant"
      value: 0
    }
    axis: 2
  }
}
layer {
  name: "lstm1_W_xc_x_slice"
  type: "Slice"
  bottom: "W_xc_x"
  top: "W_xc_x_1"
  slice_param {
    axis: 0
  }
}
layer {
  name: "lstm1_h_conted_0"
  type: "Scale"
  bottom: "h_0"
  bottom: "cont_1"
  top: "h_conted_0"
  scale_param {
    axis: 0
  }
}
layer {
  name: "lstm1_transform_1"
  type: "InnerProduct"
  bottom: "h_conted_0"
  top: "W_hc_h_0"
  param {
    name: "W_hc"
  }
  inner_product_param {
    num_output: 4000
    bias_term: false
    weight_filler {
      type: "uniform"
      min: -0.08
      max: 0.08
    }
    axis: 2
  }
}
layer {
  name: "lstm1_gate_input_1"
  type: "Eltwise"
  bottom: "W_hc_h_0"
  bottom: "W_xc_x_1"
  top: "gate_input_1"
  eltwise_param {
    operation: SUM
  }
}
layer {
  name: "lstm1_unit_1"
  type: "LSTMUnit"
  bottom: "c_0"
  bottom: "gate_input_1"
  bottom: "cont_1"
  top: "c_1"
  top: "h_1"
}
layer {
  name: "lstm1_"
  type: "Split"
  bottom: "c_1"
  top: "c_T"
}
layer {
  name: "lstm1_h_concat"
  type: "Concat"
  bottom: "h_1"
  top: "h"
  concat_param {
    axis: 0
  }
}
layer {
  name: "h_pseudoloss"
  type: "Reduction"
  bottom: "h"
  top: "h_pseudoloss"
  loss_weight: 1
}
I0720 14:29:10.127948 21118 layer_factory.hpp:77] Creating layer lstm1_
I0720 14:29:10.127975 21118 net.cpp:91] Creating Layer lstm1_
I0720 14:29:10.127992 21118 net.cpp:399] lstm1_ -> x
I0720 14:29:10.128020 21118 net.cpp:399] lstm1_ -> cont
I0720 14:29:10.128046 21118 net.cpp:141] Setting up lstm1_
I0720 14:29:10.128062 21118 net.cpp:148] Top shape: 1 1 500 (500)
I0720 14:29:10.128072 21118 net.cpp:148] Top shape: 1 1 (1)
I0720 14:29:10.128079 21118 net.cpp:156] Memory required for data: 2004
I0720 14:29:10.128089 21118 layer_factory.hpp:77] Creating layer lstm1_
I0720 14:29:10.128106 21118 net.cpp:91] Creating Layer lstm1_
I0720 14:29:10.128121 21118 net.cpp:399] lstm1_ -> c_0
I0720 14:29:10.128142 21118 net.cpp:399] lstm1_ -> h_0
I0720 14:29:10.128165 21118 net.cpp:141] Setting up lstm1_
I0720 14:29:10.128182 21118 net.cpp:148] Top shape: 1 1 1000 (1000)
I0720 14:29:10.128196 21118 net.cpp:148] Top shape: 1 1 1000 (1000)
I0720 14:29:10.128204 21118 net.cpp:156] Memory required for data: 10004
I0720 14:29:10.128214 21118 layer_factory.hpp:77] Creating layer lstm1_cont_slice
I0720 14:29:10.128237 21118 net.cpp:91] Creating Layer lstm1_cont_slice
I0720 14:29:10.128250 21118 net.cpp:425] lstm1_cont_slice <- cont
I0720 14:29:10.128265 21118 net.cpp:399] lstm1_cont_slice -> cont_1
I0720 14:29:10.128291 21118 net.cpp:141] Setting up lstm1_cont_slice
I0720 14:29:10.128309 21118 net.cpp:148] Top shape: 1 1 (1)
I0720 14:29:10.128319 21118 net.cpp:156] Memory required for data: 10008
I0720 14:29:10.128329 21118 layer_factory.hpp:77] Creating layer cont_1_lstm1_cont_slice_0_split
I0720 14:29:10.128345 21118 net.cpp:91] Creating Layer cont_1_lstm1_cont_slice_0_split
I0720 14:29:10.128355 21118 net.cpp:425] cont_1_lstm1_cont_slice_0_split <- cont_1
I0720 14:29:10.128378 21118 net.cpp:399] cont_1_lstm1_cont_slice_0_split -> cont_1_lstm1_cont_slice_0_split_0
I0720 14:29:10.128398 21118 net.cpp:399] cont_1_lstm1_cont_slice_0_split -> cont_1_lstm1_cont_slice_0_split_1
I0720 14:29:10.128422 21118 net.cpp:141] Setting up cont_1_lstm1_cont_slice_0_split
I0720 14:29:10.128437 21118 net.cpp:148] Top shape: 1 1 (1)
I0720 14:29:10.128449 21118 net.cpp:148] Top shape: 1 1 (1)
I0720 14:29:10.128458 21118 net.cpp:156] Memory required for data: 10016
I0720 14:29:10.128468 21118 layer_factory.hpp:77] Creating layer lstm1_x_transform
I0720 14:29:10.128494 21118 net.cpp:91] Creating Layer lstm1_x_transform
I0720 14:29:10.128506 21118 net.cpp:425] lstm1_x_transform <- x
I0720 14:29:10.128525 21118 net.cpp:399] lstm1_x_transform -> W_xc_x
I0720 14:29:10.132782 21093 net.cpp:141] Setting up embedding
I0720 14:29:10.132827 21093 net.cpp:148] Top shape: 1 1 500 (500)
I0720 14:29:10.132832 21093 net.cpp:156] Memory required for data: 22408
I0720 14:29:10.132846 21093 layer_factory.hpp:77] Creating layer lstm1
I0720 14:29:10.132889 21093 net.cpp:91] Creating Layer lstm1
I0720 14:29:10.132897 21093 net.cpp:425] lstm1 <- embedded_input_frames
I0720 14:29:10.132905 21093 net.cpp:425] lstm1 <- cont_sentence_input_1_split_0
I0720 14:29:10.132915 21093 net.cpp:399] lstm1 -> lstm1
I0720 14:29:10.132933 21093 recurrent_layer.cpp:20] Initializing recurrent layer: assuming input batch contains 1 timesteps of 1 independent streams.
I0720 14:29:10.133208 21093 net.cpp:49] Initializing net from parameters: 
layer {
  name: "lstm1_"
  type: "Input"
  top: "x"
  top: "cont"
  input_param {
    shape {
      dim: 1
      dim: 1
      dim: 500
    }
    shape {
      dim: 1
      dim: 1
    }
  }
}
layer {
  name: "lstm1_"
  type: "Input"
  top: "c_0"
  top: "h_0"
  input_param {
    shape {
      dim: 1
      dim: 1
      dim: 1000
    }
    shape {
      dim: 1
      dim: 1
      dim: 1000
    }
  }
}
layer {
  name: "lstm1_cont_slice"
  type: "Slice"
  bottom: "cont"
  top: "cont_1"
  slice_param {
    axis: 0
  }
}
layer {
  name: "lstm1_x_transform"
  type: "InnerProduct"
  bottom: "x"
  top: "W_xc_x"
  param {
    name: "W_xc"
  }
  param {
    name: "b_c"
  }
  propagate_down: true
  inner_product_param {
    num_output: 4000
    bias_term: true
    weight_filler {
      type: "uniform"
      min: -0.08
      max: 0.08
    }
    bias_filler {
      type: "constant"
      value: 0
    }
    axis: 2
  }
}
layer {
  name: "lstm1_W_xc_x_slice"
  type: "Slice"
  bottom: "W_xc_x"
  top: "W_xc_x_1"
  slice_param {
    axis: 0
  }
}
layer {
  name: "lstm1_h_conted_0"
  type: "Scale"
  bottom: "h_0"
  bottom: "cont_1"
  top: "h_conted_0"
  scale_param {
    axis: 0
  }
}
layer {
  name: "lstm1_transform_1"
  type: "InnerProduct"
  bottom: "h_conted_0"
  top: "W_hc_h_0"
  param {
    name: "W_hc"
  }
  inner_product_param {
    num_output: 4000
    bias_term: false
    weight_filler {
      type: "uniform"
      min: -0.08
      max: 0.08
    }
    axis: 2
  }
}
layer {
  name: "lstm1_gate_input_1"
  type: "Eltwise"
  bottom: "W_hc_h_0"
  bottom: "W_xc_x_1"
  top: "gate_input_1"
  eltwise_param {
    operation: SUM
  }
}
layer {
  name: "lstm1_unit_1"
  type: "LSTMUnit"
  bottom: "c_0"
  bottom: "gate_input_1"
  bottom: "cont_1"
  top: "c_1"
  top: "h_1"
}
layer {
  name: "lstm1_"
  type: "Split"
  bottom: "c_1"
  top: "c_T"
}
layer {
  name: "lstm1_h_concat"
  type: "Concat"
  bottom: "h_1"
  top: "h"
  concat_param {
    axis: 0
  }
}
layer {
  name: "h_pseudoloss"
  type: "Reduction"
  bottom: "h"
  top: "h_pseudoloss"
  loss_weight: 1
}
I0720 14:29:10.133298 21093 layer_factory.hpp:77] Creating layer lstm1_
I0720 14:29:10.133311 21093 net.cpp:91] Creating Layer lstm1_
I0720 14:29:10.133317 21093 net.cpp:399] lstm1_ -> x
I0720 14:29:10.133328 21093 net.cpp:399] lstm1_ -> cont
I0720 14:29:10.133340 21093 net.cpp:141] Setting up lstm1_
I0720 14:29:10.133347 21093 net.cpp:148] Top shape: 1 1 500 (500)
I0720 14:29:10.133353 21093 net.cpp:148] Top shape: 1 1 (1)
I0720 14:29:10.133358 21093 net.cpp:156] Memory required for data: 2004
I0720 14:29:10.133361 21093 layer_factory.hpp:77] Creating layer lstm1_
I0720 14:29:10.133368 21093 net.cpp:91] Creating Layer lstm1_
I0720 14:29:10.133374 21093 net.cpp:399] lstm1_ -> c_0
I0720 14:29:10.133383 21093 net.cpp:399] lstm1_ -> h_0
I0720 14:29:10.133393 21093 net.cpp:141] Setting up lstm1_
I0720 14:29:10.133399 21093 net.cpp:148] Top shape: 1 1 1000 (1000)
I0720 14:29:10.133404 21093 net.cpp:148] Top shape: 1 1 1000 (1000)
I0720 14:29:10.133409 21093 net.cpp:156] Memory required for data: 10004
I0720 14:29:10.133412 21093 layer_factory.hpp:77] Creating layer lstm1_cont_slice
I0720 14:29:10.133424 21093 net.cpp:91] Creating Layer lstm1_cont_slice
I0720 14:29:10.133430 21093 net.cpp:425] lstm1_cont_slice <- cont
I0720 14:29:10.133435 21093 net.cpp:399] lstm1_cont_slice -> cont_1
I0720 14:29:10.133447 21093 net.cpp:141] Setting up lstm1_cont_slice
I0720 14:29:10.133455 21093 net.cpp:148] Top shape: 1 1 (1)
I0720 14:29:10.133458 21093 net.cpp:156] Memory required for data: 10008
I0720 14:29:10.133462 21093 layer_factory.hpp:77] Creating layer cont_1_lstm1_cont_slice_0_split
I0720 14:29:10.133471 21093 net.cpp:91] Creating Layer cont_1_lstm1_cont_slice_0_split
I0720 14:29:10.133476 21093 net.cpp:425] cont_1_lstm1_cont_slice_0_split <- cont_1
I0720 14:29:10.133482 21093 net.cpp:399] cont_1_lstm1_cont_slice_0_split -> cont_1_lstm1_cont_slice_0_split_0
I0720 14:29:10.133491 21093 net.cpp:399] cont_1_lstm1_cont_slice_0_split -> cont_1_lstm1_cont_slice_0_split_1
I0720 14:29:10.133500 21093 net.cpp:141] Setting up cont_1_lstm1_cont_slice_0_split
I0720 14:29:10.133507 21093 net.cpp:148] Top shape: 1 1 (1)
I0720 14:29:10.133512 21093 net.cpp:148] Top shape: 1 1 (1)
I0720 14:29:10.133515 21093 net.cpp:156] Memory required for data: 10016
I0720 14:29:10.133519 21093 layer_factory.hpp:77] Creating layer lstm1_x_transform
I0720 14:29:10.133532 21093 net.cpp:91] Creating Layer lstm1_x_transform
I0720 14:29:10.133536 21093 net.cpp:425] lstm1_x_transform <- x
I0720 14:29:10.133546 21093 net.cpp:399] lstm1_x_transform -> W_xc_x
I0720 14:29:10.136112 21097 net.cpp:141] Setting up embedding
I0720 14:29:10.136153 21097 net.cpp:148] Top shape: 1 1 500 (500)
I0720 14:29:10.136160 21097 net.cpp:156] Memory required for data: 22408
I0720 14:29:10.136180 21097 layer_factory.hpp:77] Creating layer lstm1
I0720 14:29:10.136201 21097 net.cpp:91] Creating Layer lstm1
I0720 14:29:10.136210 21097 net.cpp:425] lstm1 <- embedded_input_frames
I0720 14:29:10.136220 21097 net.cpp:425] lstm1 <- cont_sentence_input_1_split_0
I0720 14:29:10.136236 21097 net.cpp:399] lstm1 -> lstm1
I0720 14:29:10.136255 21097 recurrent_layer.cpp:20] Initializing recurrent layer: assuming input batch contains 1 timesteps of 1 independent streams.
I0720 14:29:10.136669 21097 net.cpp:49] Initializing net from parameters: 
layer {
  name: "lstm1_"
  type: "Input"
  top: "x"
  top: "cont"
  input_param {
    shape {
      dim: 1
      dim: 1
      dim: 500
    }
    shape {
      dim: 1
      dim: 1
    }
  }
}
layer {
  name: "lstm1_"
  type: "Input"
  top: "c_0"
  top: "h_0"
  input_param {
    shape {
      dim: 1
      dim: 1
      dim: 1000
    }
    shape {
      dim: 1
      dim: 1
      dim: 1000
    }
  }
}
layer {
  name: "lstm1_cont_slice"
  type: "Slice"
  bottom: "cont"
  top: "cont_1"
  slice_param {
    axis: 0
  }
}
layer {
  name: "lstm1_x_transform"
  type: "InnerProduct"
  bottom: "x"
  top: "W_xc_x"
  param {
    name: "W_xc"
  }
  param {
    name: "b_c"
  }
  propagate_down: true
  inner_product_param {
    num_output: 4000
    bias_term: true
    weight_filler {
      type: "uniform"
      min: -0.08
      max: 0.08
    }
    bias_filler {
      type: "constant"
      value: 0
    }
    axis: 2
  }
}
layer {
  name: "lstm1_W_xc_x_slice"
  type: "Slice"
  bottom: "W_xc_x"
  top: "W_xc_x_1"
  slice_param {
    axis: 0
  }
}
layer {
  name: "lstm1_h_conted_0"
  type: "Scale"
  bottom: "h_0"
  bottom: "cont_1"
  top: "h_conted_0"
  scale_param {
    axis: 0
  }
}
layer {
  name: "lstm1_transform_1"
  type: "InnerProduct"
  bottom: "h_conted_0"
  top: "W_hc_h_0"
  param {
    name: "W_hc"
  }
  inner_product_param {
    num_output: 4000
    bias_term: false
    weight_filler {
      type: "uniform"
      min: -0.08
      max: 0.08
    }
    axis: 2
  }
}
layer {
  name: "lstm1_gate_input_1"
  type: "Eltwise"
  bottom: "W_hc_h_0"
  bottom: "W_xc_x_1"
  top: "gate_input_1"
  eltwise_param {
    operation: SUM
  }
}
layer {
  name: "lstm1_unit_1"
  type: "LSTMUnit"
  bottom: "c_0"
  bottom: "gate_input_1"
  bottom: "cont_1"
  top: "c_1"
  top: "h_1"
}
layer {
  name: "lstm1_"
  type: "Split"
  bottom: "c_1"
  top: "c_T"
}
layer {
  name: "lstm1_h_concat"
  type: "Concat"
  bottom: "h_1"
  top: "h"
  concat_param {
    axis: 0
  }
}
layer {
  name: "h_pseudoloss"
  type: "Reduction"
  bottom: "h"
  top: "h_pseudoloss"
  loss_weight: 1
}
I0720 14:29:10.136792 21097 layer_factory.hpp:77] Creating layer lstm1_
I0720 14:29:10.136808 21097 net.cpp:91] Creating Layer lstm1_
I0720 14:29:10.136818 21097 net.cpp:399] lstm1_ -> x
I0720 14:29:10.136833 21097 net.cpp:399] lstm1_ -> cont
I0720 14:29:10.136850 21097 net.cpp:141] Setting up lstm1_
I0720 14:29:10.136862 21097 net.cpp:148] Top shape: 1 1 500 (500)
I0720 14:29:10.136870 21097 net.cpp:148] Top shape: 1 1 (1)
I0720 14:29:10.136878 21097 net.cpp:156] Memory required for data: 2004
I0720 14:29:10.136884 21097 layer_factory.hpp:77] Creating layer lstm1_
I0720 14:29:10.136894 21097 net.cpp:91] Creating Layer lstm1_
I0720 14:29:10.136905 21097 net.cpp:399] lstm1_ -> c_0
I0720 14:29:10.136924 21097 net.cpp:399] lstm1_ -> h_0
I0720 14:29:10.136937 21097 net.cpp:141] Setting up lstm1_
I0720 14:29:10.136948 21097 net.cpp:148] Top shape: 1 1 1000 (1000)
I0720 14:29:10.136956 21097 net.cpp:148] Top shape: 1 1 1000 (1000)
I0720 14:29:10.136962 21097 net.cpp:156] Memory required for data: 10004
I0720 14:29:10.136970 21097 layer_factory.hpp:77] Creating layer lstm1_cont_slice
I0720 14:29:10.136981 21097 net.cpp:91] Creating Layer lstm1_cont_slice
I0720 14:29:10.136987 21097 net.cpp:425] lstm1_cont_slice <- cont
I0720 14:29:10.137001 21097 net.cpp:399] lstm1_cont_slice -> cont_1
I0720 14:29:10.137017 21097 net.cpp:141] Setting up lstm1_cont_slice
I0720 14:29:10.137027 21097 net.cpp:148] Top shape: 1 1 (1)
I0720 14:29:10.137033 21097 net.cpp:156] Memory required for data: 10008
I0720 14:29:10.137040 21097 layer_factory.hpp:77] Creating layer cont_1_lstm1_cont_slice_0_split
I0720 14:29:10.137050 21097 net.cpp:91] Creating Layer cont_1_lstm1_cont_slice_0_split
I0720 14:29:10.137058 21097 net.cpp:425] cont_1_lstm1_cont_slice_0_split <- cont_1
I0720 14:29:10.137066 21097 net.cpp:399] cont_1_lstm1_cont_slice_0_split -> cont_1_lstm1_cont_slice_0_split_0
I0720 14:29:10.137078 21097 net.cpp:399] cont_1_lstm1_cont_slice_0_split -> cont_1_lstm1_cont_slice_0_split_1
I0720 14:29:10.137090 21097 net.cpp:141] Setting up cont_1_lstm1_cont_slice_0_split
I0720 14:29:10.137099 21097 net.cpp:148] Top shape: 1 1 (1)
I0720 14:29:10.137107 21097 net.cpp:148] Top shape: 1 1 (1)
I0720 14:29:10.137114 21097 net.cpp:156] Memory required for data: 10016
I0720 14:29:10.137120 21097 layer_factory.hpp:77] Creating layer lstm1_x_transform
I0720 14:29:10.137154 21097 net.cpp:91] Creating Layer lstm1_x_transform
I0720 14:29:10.137163 21097 net.cpp:425] lstm1_x_transform <- x
I0720 14:29:10.137182 21097 net.cpp:399] lstm1_x_transform -> W_xc_x
I0720 14:29:10.150823 21093 net.cpp:141] Setting up lstm1_x_transform
I0720 14:29:10.150863 21093 net.cpp:148] Top shape: 1 1 4000 (4000)
I0720 14:29:10.150867 21093 net.cpp:156] Memory required for data: 26016
I0720 14:29:10.150887 21093 layer_factory.hpp:77] Creating layer lstm1_W_xc_x_slice
I0720 14:29:10.150918 21093 net.cpp:91] Creating Layer lstm1_W_xc_x_slice
I0720 14:29:10.150928 21093 net.cpp:425] lstm1_W_xc_x_slice <- W_xc_x
I0720 14:29:10.150938 21093 net.cpp:399] lstm1_W_xc_x_slice -> W_xc_x_1
I0720 14:29:10.150956 21093 net.cpp:141] Setting up lstm1_W_xc_x_slice
I0720 14:29:10.150965 21093 net.cpp:148] Top shape: 1 1 4000 (4000)
I0720 14:29:10.150969 21093 net.cpp:156] Memory required for data: 42016
I0720 14:29:10.150974 21093 layer_factory.hpp:77] Creating layer lstm1_h_conted_0
I0720 14:29:10.150986 21093 net.cpp:91] Creating Layer lstm1_h_conted_0
I0720 14:29:10.150991 21093 net.cpp:425] lstm1_h_conted_0 <- h_0
I0720 14:29:10.150997 21093 net.cpp:425] lstm1_h_conted_0 <- cont_1_lstm1_cont_slice_0_split_0
I0720 14:29:10.151005 21093 net.cpp:399] lstm1_h_conted_0 -> h_conted_0
I0720 14:29:10.151031 21093 net.cpp:141] Setting up lstm1_h_conted_0
I0720 14:29:10.151038 21093 net.cpp:148] Top shape: 1 1 1000 (1000)
I0720 14:29:10.151042 21093 net.cpp:156] Memory required for data: 46016
I0720 14:29:10.151046 21093 layer_factory.hpp:77] Creating layer lstm1_transform_1
I0720 14:29:10.151060 21093 net.cpp:91] Creating Layer lstm1_transform_1
I0720 14:29:10.151065 21093 net.cpp:425] lstm1_transform_1 <- h_conted_0
I0720 14:29:10.151074 21093 net.cpp:399] lstm1_transform_1 -> W_hc_h_0
I0720 14:29:10.153017 21089 net.cpp:141] Setting up embedding
I0720 14:29:10.153048 21089 net.cpp:148] Top shape: 1 1 500 (500)
I0720 14:29:10.153055 21089 net.cpp:156] Memory required for data: 22408
I0720 14:29:10.153077 21089 layer_factory.hpp:77] Creating layer lstm1
I0720 14:29:10.153112 21089 net.cpp:91] Creating Layer lstm1
I0720 14:29:10.153126 21089 net.cpp:425] lstm1 <- embedded_input_frames
I0720 14:29:10.153136 21089 net.cpp:425] lstm1 <- cont_sentence_input_1_split_0
I0720 14:29:10.153149 21089 net.cpp:399] lstm1 -> lstm1
I0720 14:29:10.153168 21089 recurrent_layer.cpp:20] Initializing recurrent layer: assuming input batch contains 1 timesteps of 1 independent streams.
I0720 14:29:10.154297 21089 net.cpp:49] Initializing net from parameters: 
layer {
  name: "lstm1_"
  type: "Input"
  top: "x"
  top: "cont"
  input_param {
    shape {
      dim: 1
      dim: 1
      dim: 500
    }
    shape {
      dim: 1
      dim: 1
    }
  }
}
layer {
  name: "lstm1_"
  type: "Input"
  top: "c_0"
  top: "h_0"
  input_param {
    shape {
      dim: 1
      dim: 1
      dim: 1000
    }
    shape {
      dim: 1
      dim: 1
      dim: 1000
    }
  }
}
layer {
  name: "lstm1_cont_slice"
  type: "Slice"
  bottom: "cont"
  top: "cont_1"
  slice_param {
    axis: 0
  }
}
layer {
  name: "lstm1_x_transform"
  type: "InnerProduct"
  bottom: "x"
  top: "W_xc_x"
  param {
    name: "W_xc"
  }
  param {
    name: "b_c"
  }
  propagate_down: true
  inner_product_param {
    num_output: 4000
    bias_term: true
    weight_filler {
      type: "uniform"
      min: -0.08
      max: 0.08
    }
    bias_filler {
      type: "constant"
      value: 0
    }
    axis: 2
  }
}
layer {
  name: "lstm1_W_xc_x_slice"
  type: "Slice"
  bottom: "W_xc_x"
  top: "W_xc_x_1"
  slice_param {
    axis: 0
  }
}
layer {
  name: "lstm1_h_conted_0"
  type: "Scale"
  bottom: "h_0"
  bottom: "cont_1"
  top: "h_conted_0"
  scale_param {
    axis: 0
  }
}
layer {
  name: "lstm1_transform_1"
  type: "InnerProduct"
  bottom: "h_conted_0"
  top: "W_hc_h_0"
  param {
    name: "W_hc"
  }
  inner_product_param {
    num_output: 4000
    bias_term: false
    weight_filler {
      type: "uniform"
      min: -0.08
      max: 0.08
    }
    axis: 2
  }
}
layer {
  name: "lstm1_gate_input_1"
  type: "Eltwise"
  bottom: "W_hc_h_0"
  bottom: "W_xc_x_1"
  top: "gate_input_1"
  eltwise_param {
    operation: SUM
  }
}
layer {
  name: "lstm1_unit_1"
  type: "LSTMUnit"
  bottom: "c_0"
  bottom: "gate_input_1"
  bottom: "cont_1"
  top: "c_1"
  top: "h_1"
}
layer {
  name: "lstm1_"
  type: "Split"
  bottom: "c_1"
  top: "c_T"
}
layer {
  name: "lstm1_h_concat"
  type: "Concat"
  bottom: "h_1"
  top: "h"
  concat_param {
    axis: 0
  }
}
layer {
  name: "h_pseudoloss"
  type: "Reduction"
  bottom: "h"
  top: "h_pseudoloss"
  loss_weight: 1
}
I0720 14:29:10.154881 21089 layer_factory.hpp:77] Creating layer lstm1_
I0720 14:29:10.154906 21089 net.cpp:91] Creating Layer lstm1_
I0720 14:29:10.154917 21089 net.cpp:399] lstm1_ -> x
I0720 14:29:10.154937 21089 net.cpp:399] lstm1_ -> cont
I0720 14:29:10.154956 21089 net.cpp:141] Setting up lstm1_
I0720 14:29:10.154969 21089 net.cpp:148] Top shape: 1 1 500 (500)
I0720 14:29:10.154979 21089 net.cpp:148] Top shape: 1 1 (1)
I0720 14:29:10.154986 21089 net.cpp:156] Memory required for data: 2004
I0720 14:29:10.154994 21089 layer_factory.hpp:77] Creating layer lstm1_
I0720 14:29:10.155005 21089 net.cpp:91] Creating Layer lstm1_
I0720 14:29:10.155015 21089 net.cpp:399] lstm1_ -> c_0
I0720 14:29:10.155030 21089 net.cpp:399] lstm1_ -> h_0
I0720 14:29:10.155045 21089 net.cpp:141] Setting up lstm1_
I0720 14:29:10.155055 21089 net.cpp:148] Top shape: 1 1 1000 (1000)
I0720 14:29:10.155066 21089 net.cpp:148] Top shape: 1 1 1000 (1000)
I0720 14:29:10.155071 21089 net.cpp:156] Memory required for data: 10004
I0720 14:29:10.155078 21089 layer_factory.hpp:77] Creating layer lstm1_cont_slice
I0720 14:29:10.155092 21089 net.cpp:91] Creating Layer lstm1_cont_slice
I0720 14:29:10.155099 21089 net.cpp:425] lstm1_cont_slice <- cont
I0720 14:29:10.155475 21089 net.cpp:399] lstm1_cont_slice -> cont_1
I0720 14:29:10.155499 21089 net.cpp:141] Setting up lstm1_cont_slice
I0720 14:29:10.155511 21089 net.cpp:148] Top shape: 1 1 (1)
I0720 14:29:10.155517 21089 net.cpp:156] Memory required for data: 10008
I0720 14:29:10.155524 21089 layer_factory.hpp:77] Creating layer cont_1_lstm1_cont_slice_0_split
I0720 14:29:10.155536 21089 net.cpp:91] Creating Layer cont_1_lstm1_cont_slice_0_split
I0720 14:29:10.155547 21089 net.cpp:425] cont_1_lstm1_cont_slice_0_split <- cont_1
I0720 14:29:10.155560 21089 net.cpp:399] cont_1_lstm1_cont_slice_0_split -> cont_1_lstm1_cont_slice_0_split_0
I0720 14:29:10.155573 21089 net.cpp:399] cont_1_lstm1_cont_slice_0_split -> cont_1_lstm1_cont_slice_0_split_1
I0720 14:29:10.155588 21089 net.cpp:141] Setting up cont_1_lstm1_cont_slice_0_split
I0720 14:29:10.155598 21089 net.cpp:148] Top shape: 1 1 (1)
I0720 14:29:10.155607 21089 net.cpp:148] Top shape: 1 1 (1)
I0720 14:29:10.155614 21089 net.cpp:156] Memory required for data: 10016
I0720 14:29:10.155622 21089 layer_factory.hpp:77] Creating layer lstm1_x_transform
I0720 14:29:10.155658 21089 net.cpp:91] Creating Layer lstm1_x_transform
I0720 14:29:10.155668 21089 net.cpp:425] lstm1_x_transform <- x
I0720 14:29:10.155684 21089 net.cpp:399] lstm1_x_transform -> W_xc_x
I0720 14:29:10.162824 21097 net.cpp:141] Setting up lstm1_x_transform
I0720 14:29:10.162865 21097 net.cpp:148] Top shape: 1 1 4000 (4000)
I0720 14:29:10.162873 21097 net.cpp:156] Memory required for data: 26016
I0720 14:29:10.162914 21097 layer_factory.hpp:77] Creating layer lstm1_W_xc_x_slice
I0720 14:29:10.162932 21097 net.cpp:91] Creating Layer lstm1_W_xc_x_slice
I0720 14:29:10.162940 21097 net.cpp:425] lstm1_W_xc_x_slice <- W_xc_x
I0720 14:29:10.162955 21097 net.cpp:399] lstm1_W_xc_x_slice -> W_xc_x_1
I0720 14:29:10.162979 21097 net.cpp:141] Setting up lstm1_W_xc_x_slice
I0720 14:29:10.162991 21097 net.cpp:148] Top shape: 1 1 4000 (4000)
I0720 14:29:10.162997 21097 net.cpp:156] Memory required for data: 42016
I0720 14:29:10.163003 21097 layer_factory.hpp:77] Creating layer lstm1_h_conted_0
I0720 14:29:10.163015 21097 net.cpp:91] Creating Layer lstm1_h_conted_0
I0720 14:29:10.163022 21097 net.cpp:425] lstm1_h_conted_0 <- h_0
I0720 14:29:10.163031 21097 net.cpp:425] lstm1_h_conted_0 <- cont_1_lstm1_cont_slice_0_split_0
I0720 14:29:10.163058 21097 net.cpp:399] lstm1_h_conted_0 -> h_conted_0
I0720 14:29:10.163094 21097 net.cpp:141] Setting up lstm1_h_conted_0
I0720 14:29:10.163105 21097 net.cpp:148] Top shape: 1 1 1000 (1000)
I0720 14:29:10.163111 21097 net.cpp:156] Memory required for data: 46016
I0720 14:29:10.163118 21097 layer_factory.hpp:77] Creating layer lstm1_transform_1
I0720 14:29:10.163136 21097 net.cpp:91] Creating Layer lstm1_transform_1
I0720 14:29:10.163142 21097 net.cpp:425] lstm1_transform_1 <- h_conted_0
I0720 14:29:10.163153 21097 net.cpp:399] lstm1_transform_1 -> W_hc_h_0
I0720 14:29:10.163359 21118 net.cpp:141] Setting up lstm1_x_transform
I0720 14:29:10.163408 21118 net.cpp:148] Top shape: 1 1 4000 (4000)
I0720 14:29:10.163421 21118 net.cpp:156] Memory required for data: 26016
I0720 14:29:10.163453 21118 layer_factory.hpp:77] Creating layer lstm1_W_xc_x_slice
I0720 14:29:10.163482 21118 net.cpp:91] Creating Layer lstm1_W_xc_x_slice
I0720 14:29:10.163494 21118 net.cpp:425] lstm1_W_xc_x_slice <- W_xc_x
I0720 14:29:10.163509 21118 net.cpp:399] lstm1_W_xc_x_slice -> W_xc_x_1
I0720 14:29:10.163542 21118 net.cpp:141] Setting up lstm1_W_xc_x_slice
I0720 14:29:10.163559 21118 net.cpp:148] Top shape: 1 1 4000 (4000)
I0720 14:29:10.163569 21118 net.cpp:156] Memory required for data: 42016
I0720 14:29:10.163580 21118 layer_factory.hpp:77] Creating layer lstm1_h_conted_0
I0720 14:29:10.163626 21118 net.cpp:91] Creating Layer lstm1_h_conted_0
I0720 14:29:10.163642 21118 net.cpp:425] lstm1_h_conted_0 <- h_0
I0720 14:29:10.163656 21118 net.cpp:425] lstm1_h_conted_0 <- cont_1_lstm1_cont_slice_0_split_0
I0720 14:29:10.163672 21118 net.cpp:399] lstm1_h_conted_0 -> h_conted_0
I0720 14:29:10.163714 21118 net.cpp:141] Setting up lstm1_h_conted_0
I0720 14:29:10.163736 21118 net.cpp:148] Top shape: 1 1 1000 (1000)
I0720 14:29:10.163746 21118 net.cpp:156] Memory required for data: 46016
I0720 14:29:10.163758 21118 layer_factory.hpp:77] Creating layer lstm1_transform_1
I0720 14:29:10.163777 21118 net.cpp:91] Creating Layer lstm1_transform_1
I0720 14:29:10.163790 21118 net.cpp:425] lstm1_transform_1 <- h_conted_0
I0720 14:29:10.163828 21118 net.cpp:399] lstm1_transform_1 -> W_hc_h_0
I0720 14:29:10.164492 21095 net.cpp:141] Setting up embedding
I0720 14:29:10.164518 21095 net.cpp:148] Top shape: 1 1 500 (500)
I0720 14:29:10.164528 21095 net.cpp:156] Memory required for data: 22408
I0720 14:29:10.164548 21095 layer_factory.hpp:77] Creating layer lstm1
I0720 14:29:10.164571 21095 net.cpp:91] Creating Layer lstm1
I0720 14:29:10.164583 21095 net.cpp:425] lstm1 <- embedded_input_frames
I0720 14:29:10.164597 21095 net.cpp:425] lstm1 <- cont_sentence_input_1_split_0
I0720 14:29:10.164796 21095 net.cpp:399] lstm1 -> lstm1
I0720 14:29:10.164825 21095 recurrent_layer.cpp:20] Initializing recurrent layer: assuming input batch contains 1 timesteps of 1 independent streams.
I0720 14:29:10.166012 21095 net.cpp:49] Initializing net from parameters: 
layer {
  name: "lstm1_"
  type: "Input"
  top: "x"
  top: "cont"
  input_param {
    shape {
      dim: 1
      dim: 1
      dim: 500
    }
    shape {
      dim: 1
      dim: 1
    }
  }
}
layer {
  name: "lstm1_"
  type: "Input"
  top: "c_0"
  top: "h_0"
  input_param {
    shape {
      dim: 1
      dim: 1
      dim: 1000
    }
    shape {
      dim: 1
      dim: 1
      dim: 1000
    }
  }
}
layer {
  name: "lstm1_cont_slice"
  type: "Slice"
  bottom: "cont"
  top: "cont_1"
  slice_param {
    axis: 0
  }
}
layer {
  name: "lstm1_x_transform"
  type: "InnerProduct"
  bottom: "x"
  top: "W_xc_x"
  param {
    name: "W_xc"
  }
  param {
    name: "b_c"
  }
  propagate_down: true
  inner_product_param {
    num_output: 4000
    bias_term: true
    weight_filler {
      type: "uniform"
      min: -0.08
      max: 0.08
    }
    bias_filler {
      type: "constant"
      value: 0
    }
    axis: 2
  }
}
layer {
  name: "lstm1_W_xc_x_slice"
  type: "Slice"
  bottom: "W_xc_x"
  top: "W_xc_x_1"
  slice_param {
    axis: 0
  }
}
layer {
  name: "lstm1_h_conted_0"
  type: "Scale"
  bottom: "h_0"
  bottom: "cont_1"
  top: "h_conted_0"
  scale_param {
    axis: 0
  }
}
layer {
  name: "lstm1_transform_1"
  type: "InnerProduct"
  bottom: "h_conted_0"
  top: "W_hc_h_0"
  param {
    name: "W_hc"
  }
  inner_product_param {
    num_output: 4000
    bias_term: false
    weight_filler {
      type: "uniform"
      min: -0.08
      max: 0.08
    }
    axis: 2
  }
}
layer {
  name: "lstm1_gate_input_1"
  type: "Eltwise"
  bottom: "W_hc_h_0"
  bottom: "W_xc_x_1"
  top: "gate_input_1"
  eltwise_param {
    operation: SUM
  }
}
layer {
  name: "lstm1_unit_1"
  type: "LSTMUnit"
  bottom: "c_0"
  bottom: "gate_input_1"
  bottom: "cont_1"
  top: "c_1"
  top: "h_1"
}
layer {
  name: "lstm1_"
  type: "Split"
  bottom: "c_1"
  top: "c_T"
}
layer {
  name: "lstm1_h_concat"
  type: "Concat"
  bottom: "h_1"
  top: "h"
  concat_param {
    axis: 0
  }
}
layer {
  name: "h_pseudoloss"
  type: "Reduction"
  bottom: "h"
  top: "h_pseudoloss"
  loss_weight: 1
}
I0720 14:29:10.166658 21095 layer_factory.hpp:77] Creating layer lstm1_
I0720 14:29:10.166702 21095 net.cpp:91] Creating Layer lstm1_
I0720 14:29:10.166719 21095 net.cpp:399] lstm1_ -> x
I0720 14:29:10.166743 21095 net.cpp:399] lstm1_ -> cont
I0720 14:29:10.166766 21095 net.cpp:141] Setting up lstm1_
I0720 14:29:10.166784 21095 net.cpp:148] Top shape: 1 1 500 (500)
I0720 14:29:10.166796 21095 net.cpp:148] Top shape: 1 1 (1)
I0720 14:29:10.166805 21095 net.cpp:156] Memory required for data: 2004
I0720 14:29:10.166815 21095 layer_factory.hpp:77] Creating layer lstm1_
I0720 14:29:10.166831 21095 net.cpp:91] Creating Layer lstm1_
I0720 14:29:10.166846 21095 net.cpp:399] lstm1_ -> c_0
I0720 14:29:10.166864 21095 net.cpp:399] lstm1_ -> h_0
I0720 14:29:10.166883 21095 net.cpp:141] Setting up lstm1_
I0720 14:29:10.166898 21095 net.cpp:148] Top shape: 1 1 1000 (1000)
I0720 14:29:10.166909 21095 net.cpp:148] Top shape: 1 1 1000 (1000)
I0720 14:29:10.166918 21095 net.cpp:156] Memory required for data: 10004
I0720 14:29:10.166926 21095 layer_factory.hpp:77] Creating layer lstm1_cont_slice
I0720 14:29:10.166942 21095 net.cpp:91] Creating Layer lstm1_cont_slice
I0720 14:29:10.166952 21095 net.cpp:425] lstm1_cont_slice <- cont
I0720 14:29:10.166968 21095 net.cpp:399] lstm1_cont_slice -> cont_1
I0720 14:29:10.167304 21095 net.cpp:141] Setting up lstm1_cont_slice
I0720 14:29:10.167325 21095 net.cpp:148] Top shape: 1 1 (1)
I0720 14:29:10.167335 21095 net.cpp:156] Memory required for data: 10008
I0720 14:29:10.167343 21095 layer_factory.hpp:77] Creating layer cont_1_lstm1_cont_slice_0_split
I0720 14:29:10.167364 21095 net.cpp:91] Creating Layer cont_1_lstm1_cont_slice_0_split
I0720 14:29:10.167376 21095 net.cpp:425] cont_1_lstm1_cont_slice_0_split <- cont_1
I0720 14:29:10.167390 21095 net.cpp:399] cont_1_lstm1_cont_slice_0_split -> cont_1_lstm1_cont_slice_0_split_0
I0720 14:29:10.167410 21095 net.cpp:399] cont_1_lstm1_cont_slice_0_split -> cont_1_lstm1_cont_slice_0_split_1
I0720 14:29:10.167431 21095 net.cpp:141] Setting up cont_1_lstm1_cont_slice_0_split
I0720 14:29:10.167445 21095 net.cpp:148] Top shape: 1 1 (1)
I0720 14:29:10.167455 21095 net.cpp:148] Top shape: 1 1 (1)
I0720 14:29:10.167464 21095 net.cpp:156] Memory required for data: 10016
I0720 14:29:10.167474 21095 layer_factory.hpp:77] Creating layer lstm1_x_transform
I0720 14:29:10.167491 21095 net.cpp:91] Creating Layer lstm1_x_transform
I0720 14:29:10.167500 21095 net.cpp:425] lstm1_x_transform <- x
I0720 14:29:10.168510 21095 net.cpp:399] lstm1_x_transform -> W_xc_x
I0720 14:29:10.171043 21122 net.cpp:141] Setting up embedding
I0720 14:29:10.171133 21122 net.cpp:148] Top shape: 1 1 500 (500)
I0720 14:29:10.171144 21122 net.cpp:156] Memory required for data: 22408
I0720 14:29:10.171171 21122 layer_factory.hpp:77] Creating layer lstm1
I0720 14:29:10.171203 21122 net.cpp:91] Creating Layer lstm1
I0720 14:29:10.171216 21122 net.cpp:425] lstm1 <- embedded_input_frames
I0720 14:29:10.171232 21122 net.cpp:425] lstm1 <- cont_sentence_input_1_split_0
I0720 14:29:10.171289 21122 net.cpp:399] lstm1 -> lstm1
I0720 14:29:10.171320 21122 recurrent_layer.cpp:20] Initializing recurrent layer: assuming input batch contains 1 timesteps of 1 independent streams.
I0720 14:29:10.171892 21122 net.cpp:49] Initializing net from parameters: 
layer {
  name: "lstm1_"
  type: "Input"
  top: "x"
  top: "cont"
  input_param {
    shape {
      dim: 1
      dim: 1
      dim: 500
    }
    shape {
      dim: 1
      dim: 1
    }
  }
}
layer {
  name: "lstm1_"
  type: "Input"
  top: "c_0"
  top: "h_0"
  input_param {
    shape {
      dim: 1
      dim: 1
      dim: 1000
    }
    shape {
      dim: 1
      dim: 1
      dim: 1000
    }
  }
}
layer {
  name: "lstm1_cont_slice"
  type: "Slice"
  bottom: "cont"
  top: "cont_1"
  slice_param {
    axis: 0
  }
}
layer {
  name: "lstm1_x_transform"
  type: "InnerProduct"
  bottom: "x"
  top: "W_xc_x"
  param {
    name: "W_xc"
  }
  param {
    name: "b_c"
  }
  propagate_down: true
  inner_product_param {
    num_output: 4000
    bias_term: true
    weight_filler {
      type: "uniform"
      min: -0.08
      max: 0.08
    }
    bias_filler {
      type: "constant"
      value: 0
    }
    axis: 2
  }
}
layer {
  name: "lstm1_W_xc_x_slice"
  type: "Slice"
  bottom: "W_xc_x"
  top: "W_xc_x_1"
  slice_param {
    axis: 0
  }
}
layer {
  name: "lstm1_h_conted_0"
  type: "Scale"
  bottom: "h_0"
  bottom: "cont_1"
  top: "h_conted_0"
  scale_param {
    axis: 0
  }
}
layer {
  name: "lstm1_transform_1"
  type: "InnerProduct"
  bottom: "h_conted_0"
  top: "W_hc_h_0"
  param {
    name: "W_hc"
  }
  inner_product_param {
    num_output: 4000
    bias_term: false
    weight_filler {
      type: "uniform"
      min: -0.08
      max: 0.08
    }
    axis: 2
  }
}
layer {
  name: "lstm1_gate_input_1"
  type: "Eltwise"
  bottom: "W_hc_h_0"
  bottom: "W_xc_x_1"
  top: "gate_input_1"
  eltwise_param {
    operation: SUM
  }
}
layer {
  name: "lstm1_unit_1"
  type: "LSTMUnit"
  bottom: "c_0"
  bottom: "gate_input_1"
  bottom: "cont_1"
  top: "c_1"
  top: "h_1"
}
layer {
  name: "lstm1_"
  type: "Split"
  bottom: "c_1"
  top: "c_T"
}
layer {
  name: "lstm1_h_concat"
  type: "Concat"
  bottom: "h_1"
  top: "h"
  concat_param {
    axis: 0
  }
}
layer {
  name: "h_pseudoloss"
  type: "Reduction"
  bottom: "h"
  top: "h_pseudoloss"
  loss_weight: 1
}
I0720 14:29:10.172086 21122 layer_factory.hpp:77] Creating layer lstm1_
I0720 14:29:10.172116 21122 net.cpp:91] Creating Layer lstm1_
I0720 14:29:10.172127 21122 net.cpp:399] lstm1_ -> x
I0720 14:29:10.172149 21122 net.cpp:399] lstm1_ -> cont
I0720 14:29:10.172173 21122 net.cpp:141] Setting up lstm1_
I0720 14:29:10.172188 21122 net.cpp:148] Top shape: 1 1 500 (500)
I0720 14:29:10.172199 21122 net.cpp:148] Top shape: 1 1 (1)
I0720 14:29:10.172209 21122 net.cpp:156] Memory required for data: 2004
I0720 14:29:10.172217 21122 layer_factory.hpp:77] Creating layer lstm1_
I0720 14:29:10.172231 21122 net.cpp:91] Creating Layer lstm1_
I0720 14:29:10.172242 21122 net.cpp:399] lstm1_ -> c_0
I0720 14:29:10.172257 21122 net.cpp:399] lstm1_ -> h_0
I0720 14:29:10.172274 21122 net.cpp:141] Setting up lstm1_
I0720 14:29:10.172286 21122 net.cpp:148] Top shape: 1 1 1000 (1000)
I0720 14:29:10.172296 21122 net.cpp:148] Top shape: 1 1 1000 (1000)
I0720 14:29:10.172302 21122 net.cpp:156] Memory required for data: 10004
I0720 14:29:10.172309 21122 layer_factory.hpp:77] Creating layer lstm1_cont_slice
I0720 14:29:10.172322 21122 net.cpp:91] Creating Layer lstm1_cont_slice
I0720 14:29:10.172330 21122 net.cpp:425] lstm1_cont_slice <- cont
I0720 14:29:10.172341 21122 net.cpp:399] lstm1_cont_slice -> cont_1
I0720 14:29:10.172361 21122 net.cpp:141] Setting up lstm1_cont_slice
I0720 14:29:10.172374 21122 net.cpp:148] Top shape: 1 1 (1)
I0720 14:29:10.172380 21122 net.cpp:156] Memory required for data: 10008
I0720 14:29:10.172387 21122 layer_factory.hpp:77] Creating layer cont_1_lstm1_cont_slice_0_split
I0720 14:29:10.172421 21122 net.cpp:91] Creating Layer cont_1_lstm1_cont_slice_0_split
I0720 14:29:10.172435 21122 net.cpp:425] cont_1_lstm1_cont_slice_0_split <- cont_1
I0720 14:29:10.172447 21122 net.cpp:399] cont_1_lstm1_cont_slice_0_split -> cont_1_lstm1_cont_slice_0_split_0
I0720 14:29:10.172463 21122 net.cpp:399] cont_1_lstm1_cont_slice_0_split -> cont_1_lstm1_cont_slice_0_split_1
I0720 14:29:10.172482 21122 net.cpp:141] Setting up cont_1_lstm1_cont_slice_0_split
I0720 14:29:10.172500 21122 net.cpp:148] Top shape: 1 1 (1)
I0720 14:29:10.172511 21122 net.cpp:148] Top shape: 1 1 (1)
I0720 14:29:10.172518 21122 net.cpp:156] Memory required for data: 10016
I0720 14:29:10.172528 21122 layer_factory.hpp:77] Creating layer lstm1_x_transform
I0720 14:29:10.172545 21122 net.cpp:91] Creating Layer lstm1_x_transform
I0720 14:29:10.172554 21122 net.cpp:425] lstm1_x_transform <- x
I0720 14:29:10.172598 21122 net.cpp:399] lstm1_x_transform -> W_xc_x
I0720 14:29:10.180955 21089 net.cpp:141] Setting up lstm1_x_transform
I0720 14:29:10.180999 21089 net.cpp:148] Top shape: 1 1 4000 (4000)
I0720 14:29:10.181007 21089 net.cpp:156] Memory required for data: 26016
I0720 14:29:10.181032 21089 layer_factory.hpp:77] Creating layer lstm1_W_xc_x_slice
I0720 14:29:10.181056 21089 net.cpp:91] Creating Layer lstm1_W_xc_x_slice
I0720 14:29:10.181067 21089 net.cpp:425] lstm1_W_xc_x_slice <- W_xc_x
I0720 14:29:10.181082 21089 net.cpp:399] lstm1_W_xc_x_slice -> W_xc_x_1
I0720 14:29:10.181107 21089 net.cpp:141] Setting up lstm1_W_xc_x_slice
I0720 14:29:10.181118 21089 net.cpp:148] Top shape: 1 1 4000 (4000)
I0720 14:29:10.181126 21089 net.cpp:156] Memory required for data: 42016
I0720 14:29:10.181133 21089 layer_factory.hpp:77] Creating layer lstm1_h_conted_0
I0720 14:29:10.181150 21089 net.cpp:91] Creating Layer lstm1_h_conted_0
I0720 14:29:10.181159 21089 net.cpp:425] lstm1_h_conted_0 <- h_0
I0720 14:29:10.181169 21089 net.cpp:425] lstm1_h_conted_0 <- cont_1_lstm1_cont_slice_0_split_0
I0720 14:29:10.181180 21089 net.cpp:399] lstm1_h_conted_0 -> h_conted_0
I0720 14:29:10.181210 21089 net.cpp:141] Setting up lstm1_h_conted_0
I0720 14:29:10.181222 21089 net.cpp:148] Top shape: 1 1 1000 (1000)
I0720 14:29:10.181229 21089 net.cpp:156] Memory required for data: 46016
I0720 14:29:10.181236 21089 layer_factory.hpp:77] Creating layer lstm1_transform_1
I0720 14:29:10.181255 21089 net.cpp:91] Creating Layer lstm1_transform_1
I0720 14:29:10.181263 21089 net.cpp:425] lstm1_transform_1 <- h_conted_0
I0720 14:29:10.181278 21089 net.cpp:399] lstm1_transform_1 -> W_hc_h_0
I0720 14:29:10.182493 21116 net.cpp:141] Setting up embedding
I0720 14:29:10.182514 21116 net.cpp:148] Top shape: 1 1 500 (500)
I0720 14:29:10.182521 21116 net.cpp:156] Memory required for data: 22408
I0720 14:29:10.182535 21116 layer_factory.hpp:77] Creating layer lstm1
I0720 14:29:10.182551 21116 net.cpp:91] Creating Layer lstm1
I0720 14:29:10.182560 21116 net.cpp:425] lstm1 <- embedded_input_frames
I0720 14:29:10.182569 21116 net.cpp:425] lstm1 <- cont_sentence_input_1_split_0
I0720 14:29:10.182775 21116 net.cpp:399] lstm1 -> lstm1
I0720 14:29:10.182796 21116 recurrent_layer.cpp:20] Initializing recurrent layer: assuming input batch contains 1 timesteps of 1 independent streams.
I0720 14:29:10.183437 21116 net.cpp:49] Initializing net from parameters: 
layer {
  name: "lstm1_"
  type: "Input"
  top: "x"
  top: "cont"
  input_param {
    shape {
      dim: 1
      dim: 1
      dim: 500
    }
    shape {
      dim: 1
      dim: 1
    }
  }
}
layer {
  name: "lstm1_"
  type: "Input"
  top: "c_0"
  top: "h_0"
  input_param {
    shape {
      dim: 1
      dim: 1
      dim: 1000
    }
    shape {
      dim: 1
      dim: 1
      dim: 1000
    }
  }
}
layer {
  name: "lstm1_cont_slice"
  type: "Slice"
  bottom: "cont"
  top: "cont_1"
  slice_param {
    axis: 0
  }
}
layer {
  name: "lstm1_x_transform"
  type: "InnerProduct"
  bottom: "x"
  top: "W_xc_x"
  param {
    name: "W_xc"
  }
  param {
    name: "b_c"
  }
  propagate_down: true
  inner_product_param {
    num_output: 4000
    bias_term: true
    weight_filler {
      type: "uniform"
      min: -0.08
      max: 0.08
    }
    bias_filler {
      type: "constant"
      value: 0
    }
    axis: 2
  }
}
layer {
  name: "lstm1_W_xc_x_slice"
  type: "Slice"
  bottom: "W_xc_x"
  top: "W_xc_x_1"
  slice_param {
    axis: 0
  }
}
layer {
  name: "lstm1_h_conted_0"
  type: "Scale"
  bottom: "h_0"
  bottom: "cont_1"
  top: "h_conted_0"
  scale_param {
    axis: 0
  }
}
layer {
  name: "lstm1_transform_1"
  type: "InnerProduct"
  bottom: "h_conted_0"
  top: "W_hc_h_0"
  param {
    name: "W_hc"
  }
  inner_product_param {
    num_output: 4000
    bias_term: false
    weight_filler {
      type: "uniform"
      min: -0.08
      max: 0.08
    }
    axis: 2
  }
}
layer {
  name: "lstm1_gate_input_1"
  type: "Eltwise"
  bottom: "W_hc_h_0"
  bottom: "W_xc_x_1"
  top: "gate_input_1"
  eltwise_param {
    operation: SUM
  }
}
layer {
  name: "lstm1_unit_1"
  type: "LSTMUnit"
  bottom: "c_0"
  bottom: "gate_input_1"
  bottom: "cont_1"
  top: "c_1"
  top: "h_1"
}
layer {
  name: "lstm1_"
  type: "Split"
  bottom: "c_1"
  top: "c_T"
}
layer {
  name: "lstm1_h_concat"
  type: "Concat"
  bottom: "h_1"
  top: "h"
  concat_param {
    axis: 0
  }
}
layer {
  name: "h_pseudoloss"
  type: "Reduction"
  bottom: "h"
  top: "h_pseudoloss"
  loss_weight: 1
}
I0720 14:29:10.184074 21116 layer_factory.hpp:77] Creating layer lstm1_
I0720 14:29:10.184093 21116 net.cpp:91] Creating Layer lstm1_
I0720 14:29:10.184103 21116 net.cpp:399] lstm1_ -> x
I0720 14:29:10.184120 21116 net.cpp:399] lstm1_ -> cont
I0720 14:29:10.184139 21116 net.cpp:141] Setting up lstm1_
I0720 14:29:10.184150 21116 net.cpp:148] Top shape: 1 1 500 (500)
I0720 14:29:10.184159 21116 net.cpp:148] Top shape: 1 1 (1)
I0720 14:29:10.184165 21116 net.cpp:156] Memory required for data: 2004
I0720 14:29:10.184173 21116 layer_factory.hpp:77] Creating layer lstm1_
I0720 14:29:10.184185 21116 net.cpp:91] Creating Layer lstm1_
I0720 14:29:10.184193 21116 net.cpp:399] lstm1_ -> c_0
I0720 14:29:10.184206 21116 net.cpp:399] lstm1_ -> h_0
I0720 14:29:10.184221 21116 net.cpp:141] Setting up lstm1_
I0720 14:29:10.184231 21116 net.cpp:148] Top shape: 1 1 1000 (1000)
I0720 14:29:10.184239 21116 net.cpp:148] Top shape: 1 1 1000 (1000)
I0720 14:29:10.184245 21116 net.cpp:156] Memory required for data: 10004
I0720 14:29:10.184252 21116 layer_factory.hpp:77] Creating layer lstm1_cont_slice
I0720 14:29:10.184263 21116 net.cpp:91] Creating Layer lstm1_cont_slice
I0720 14:29:10.184270 21116 net.cpp:425] lstm1_cont_slice <- cont
I0720 14:29:10.184279 21116 net.cpp:399] lstm1_cont_slice -> cont_1
I0720 14:29:10.184295 21116 net.cpp:141] Setting up lstm1_cont_slice
I0720 14:29:10.184305 21116 net.cpp:148] Top shape: 1 1 (1)
I0720 14:29:10.184311 21116 net.cpp:156] Memory required for data: 10008
I0720 14:29:10.184319 21116 layer_factory.hpp:77] Creating layer cont_1_lstm1_cont_slice_0_split
I0720 14:29:10.184715 21116 net.cpp:91] Creating Layer cont_1_lstm1_cont_slice_0_split
I0720 14:29:10.184727 21116 net.cpp:425] cont_1_lstm1_cont_slice_0_split <- cont_1
I0720 14:29:10.184738 21116 net.cpp:399] cont_1_lstm1_cont_slice_0_split -> cont_1_lstm1_cont_slice_0_split_0
I0720 14:29:10.184751 21116 net.cpp:399] cont_1_lstm1_cont_slice_0_split -> cont_1_lstm1_cont_slice_0_split_1
I0720 14:29:10.184765 21116 net.cpp:141] Setting up cont_1_lstm1_cont_slice_0_split
I0720 14:29:10.184777 21116 net.cpp:148] Top shape: 1 1 (1)
I0720 14:29:10.184787 21116 net.cpp:148] Top shape: 1 1 (1)
I0720 14:29:10.184792 21116 net.cpp:156] Memory required for data: 10016
I0720 14:29:10.184798 21116 layer_factory.hpp:77] Creating layer lstm1_x_transform
I0720 14:29:10.184813 21116 net.cpp:91] Creating Layer lstm1_x_transform
I0720 14:29:10.184819 21116 net.cpp:425] lstm1_x_transform <- x
I0720 14:29:10.184849 21116 net.cpp:399] lstm1_x_transform -> W_xc_x
I0720 14:29:10.194627 21093 net.cpp:141] Setting up lstm1_transform_1
I0720 14:29:10.194680 21093 net.cpp:148] Top shape: 1 1 4000 (4000)
I0720 14:29:10.194705 21093 net.cpp:156] Memory required for data: 62016
I0720 14:29:10.194730 21093 layer_factory.hpp:77] Creating layer lstm1_gate_input_1
I0720 14:29:10.194754 21093 net.cpp:91] Creating Layer lstm1_gate_input_1
I0720 14:29:10.194766 21093 net.cpp:425] lstm1_gate_input_1 <- W_hc_h_0
I0720 14:29:10.194777 21093 net.cpp:425] lstm1_gate_input_1 <- W_xc_x_1
I0720 14:29:10.194804 21093 net.cpp:399] lstm1_gate_input_1 -> gate_input_1
I0720 14:29:10.194838 21093 net.cpp:141] Setting up lstm1_gate_input_1
I0720 14:29:10.194851 21093 net.cpp:148] Top shape: 1 1 4000 (4000)
I0720 14:29:10.194859 21093 net.cpp:156] Memory required for data: 78016
I0720 14:29:10.194867 21093 layer_factory.hpp:77] Creating layer lstm1_unit_1
I0720 14:29:10.194890 21093 net.cpp:91] Creating Layer lstm1_unit_1
I0720 14:29:10.194898 21093 net.cpp:425] lstm1_unit_1 <- c_0
I0720 14:29:10.194912 21093 net.cpp:425] lstm1_unit_1 <- gate_input_1
I0720 14:29:10.194921 21093 net.cpp:425] lstm1_unit_1 <- cont_1_lstm1_cont_slice_0_split_1
I0720 14:29:10.194932 21093 net.cpp:399] lstm1_unit_1 -> c_1
I0720 14:29:10.194947 21093 net.cpp:399] lstm1_unit_1 -> h_1
I0720 14:29:10.194970 21093 net.cpp:141] Setting up lstm1_unit_1
I0720 14:29:10.194982 21093 net.cpp:148] Top shape: 1 1 1000 (1000)
I0720 14:29:10.194991 21093 net.cpp:148] Top shape: 1 1 1000 (1000)
I0720 14:29:10.194998 21093 net.cpp:156] Memory required for data: 86016
I0720 14:29:10.195005 21093 layer_factory.hpp:77] Creating layer lstm1_
I0720 14:29:10.195016 21093 net.cpp:91] Creating Layer lstm1_
I0720 14:29:10.195024 21093 net.cpp:425] lstm1_ <- c_1
I0720 14:29:10.195039 21093 net.cpp:399] lstm1_ -> c_T
I0720 14:29:10.195055 21093 net.cpp:141] Setting up lstm1_
I0720 14:29:10.195065 21093 net.cpp:148] Top shape: 1 1 1000 (1000)
I0720 14:29:10.195072 21093 net.cpp:156] Memory required for data: 90016
I0720 14:29:10.195080 21093 layer_factory.hpp:77] Creating layer lstm1_h_concat
I0720 14:29:10.195102 21093 net.cpp:91] Creating Layer lstm1_h_concat
I0720 14:29:10.195111 21093 net.cpp:425] lstm1_h_concat <- h_1
I0720 14:29:10.195122 21093 net.cpp:399] lstm1_h_concat -> h
I0720 14:29:10.195139 21093 net.cpp:141] Setting up lstm1_h_concat
I0720 14:29:10.195150 21093 net.cpp:148] Top shape: 1 1 1000 (1000)
I0720 14:29:10.195158 21093 net.cpp:156] Memory required for data: 94016
I0720 14:29:10.195165 21093 layer_factory.hpp:77] Creating layer h_pseudoloss
I0720 14:29:10.195183 21093 net.cpp:91] Creating Layer h_pseudoloss
I0720 14:29:10.195191 21093 net.cpp:425] h_pseudoloss <- h
I0720 14:29:10.195207 21093 net.cpp:399] h_pseudoloss -> h_pseudoloss
I0720 14:29:10.195243 21093 net.cpp:141] Setting up h_pseudoloss
…
I0720 14:29:10.195426 21093 net.cpp:219] lstm1_ does not need backward computation.
I0720 14:29:10.195432 21093 net.cpp:261] This network produces output c_T
I0720 14:29:10.195441 21093 net.cpp:261] This network produces output h_pseudoloss
I0720 14:29:10.195466 21093 net.cpp:274] Network initialization done.
I0720 14:29:10.195539 21093 recurrent_layer.cpp:150] Adding parameter 0: W_xc
I0720 14:29:10.195550 21093 recurrent_layer.cpp:150] Adding parameter 1: b_c
I0720 14:29:10.195559 21093 recurrent_layer.cpp:150] Adding parameter 2: W_hc
I0720 14:29:10.195613 21093 net.cpp:141] Setting up lstm1
I0720 14:29:10.195627 21093 net.cpp:148] Top shape: 1 1 1000 (1000)
I0720 14:29:10.195634 21093 net.cpp:156] Memory required for data: 26408
I0720 14:29:10.195655 21093 layer_factory.hpp:77] Creating layer concat
I0720 14:29:10.195669 21093 net.cpp:91] Creating Layer concat
I0720 14:29:10.195678 21093 net.cpp:425] concat <- lstm1
I0720 14:29:10.195688 21093 net.cpp:425] concat <- embedded_input_sentence
I0720 14:29:10.195698 21093 net.cpp:425] concat <- reshaped_stage_indicator
I0720 14:29:10.195709 21093 net.cpp:399] concat -> lstm1_video_sequence
I0720 14:29:10.195725 21093 net.cpp:141] Setting up concat
I0720 14:29:10.195737 21093 net.cpp:148] Top shape: 1 1 1501 (1501)
I0720 14:29:10.195744 21093 net.cpp:156] Memory required for data: 32412
I0720 14:29:10.195752 21093 layer_factory.hpp:77] Creating layer lstm2
I0720 14:29:10.195768 21093 net.cpp:91] Creating Layer lstm2
I0720 14:29:10.195778 21093 net.cpp:425] lstm2 <- lstm1_video_sequence
I0720 14:29:10.195790 21093 net.cpp:425] lstm2 <- cont_sentence_input_1_split_1
I0720 14:29:10.195802 21093 net.cpp:399] lstm2 -> lstm2
I0720 14:29:10.195817 21093 recurrent_layer.cpp:20] Initializing recurrent layer: assuming input batch contains 1 timesteps of 1 independent streams.
I0720 14:29:10.196207 21093 net.cpp:49] Initializing net from parameters: 
layer {
  name: "lstm2_"
  type: "Input"
  top: "x"
  top: "cont"
  input_param {
    shape {
      dim: 1
      dim: 1
      dim: 1501
    }
    shape {
      dim: 1
      dim: 1
    }
  }
}
layer {
  name: "lstm2_"
  type: "Input"
  top: "c_0"
  top: "h_0"
  input_param {
    shape {
      dim: 1
      dim: 1
      dim: 1000
    }
    shape {
      dim: 1
      dim: 1
      dim: 1000
    }
  }
}
layer {
  name: "lstm2_cont_slice"
  type: "Slice"
  bottom: "cont"
  top: "cont_1"
  slice_param {
    axis: 0
  }
}
layer {
  name: "lstm2_x_transform"
  type: "InnerProduct"
  bottom: "x"
  top: "W_xc_x"
  param {
    name: "W_xc"
  }
  param {
    name: "b_c"
  }
  propagate_down: true
  inner_product_param {
    num_output: 4000
    bias_term: true
    weight_filler {
      type: "uniform"
      min: -0.08
      max: 0.08
    }
    bias_filler {
      type: "constant"
      value: 0
    }
    axis: 2
  }
}
layer {
  name: "lstm2_W_xc_x_slice"
  type: "Slice"
  bottom: "W_xc_x"
  top: "W_xc_x_1"
  slice_param {
    axis: 0
  }
}
layer {
  name: "lstm2_h_conted_0"
  type: "Scale"
  bottom: "h_0"
  bottom: "cont_1"
  top: "h_conted_0"
  scale_param {
    axis: 0
  }
}
layer {
  name: "lstm2_transform_1"
  type: "InnerProduct"
  bottom: "h_conted_0"
  top: "W_hc_h_0"
  param {
    name: "W_hc"
  }
  inner_product_param {
    num_output: 4000
    bias_term: false
    weight_filler {
      type: "uniform"
      min: -0.08
      max: 0.08
    }
    axis: 2
  }
}
layer {
  name: "lstm2_gate_input_1"
  type: "Eltwise"
  bottom: "W_hc_h_0"
  bottom: "W_xc_x_1"
  top: "gate_input_1"
  eltwise_param {
    operation: SUM
  }
}
layer {
  name: "lstm2_unit_1"
  type: "LSTMUnit"
  bottom: "c_0"
  bottom: "gate_input_1"
  bottom: "cont_1"
  top: "c_1"
  top: "h_1"
}
layer {
  name: "lstm2_"
  type: "Split"
  bottom: "c_1"
  top: "c_T"
}
layer {
  name: "lstm2_h_concat"
  type: "Concat"
  bottom: "h_1"
  top: "h"
  concat_param {
    axis: 0
  }
}
layer {
  name: "h_pseudoloss"
  type: "Reduction"
  bottom: "h"
  top: "h_pseudoloss"
  loss_weight: 1
}
I0720 14:29:10.196341 21093 layer_factory.hpp:77] Creating layer lstm2_
I0720 14:29:10.196359 21093 net.cpp:91] Creating Layer lstm2_
I0720 14:29:10.196369 21093 net.cpp:399] lstm2_ -> x
I0720 14:29:10.196387 21093 net.cpp:399] lstm2_ -> cont
I0720 14:29:10.196406 21093 net.cpp:141] Setting up lstm2_
I0720 14:29:10.196419 21093 net.cpp:148] Top shape: 1 1 1501 (1501)
I0720 14:29:10.196430 21093 net.cpp:148] Top shape: 1 1 (1)
I0720 14:29:10.196437 21093 net.cpp:156] Memory required for data: 6008
I0720 14:29:10.196446 21093 layer_factory.hpp:77] Creating layer lstm2_
I0720 14:29:10.196461 21093 net.cpp:91] Creating Layer lstm2_
I0720 14:29:10.196472 21093 net.cpp:399] lstm2_ -> c_0
I0720 14:29:10.196490 21093 net.cpp:399] lstm2_ -> h_0
I0720 14:29:10.196506 21093 net.cpp:141] Setting up lstm2_
I0720 14:29:10.196519 21093 net.cpp:148] Top shape: 1 1 1000 (1000)
I0720 14:29:10.196528 21093 net.cpp:148] Top shape: 1 1 1000 (1000)
I0720 14:29:10.196535 21093 net.cpp:156] Memory required for data: 14008
I0720 14:29:10.196543 21093 layer_factory.hpp:77] Creating layer lstm2_cont_slice
I0720 14:29:10.196557 21093 net.cpp:91] Creating Layer lstm2_cont_slice
I0720 14:29:10.196566 21093 net.cpp:425] lstm2_cont_slice <- cont
I0720 14:29:10.196578 21093 net.cpp:399] lstm2_cont_slice -> cont_1
I0720 14:29:10.196594 21093 net.cpp:141] Setting up lstm2_cont_slice
I0720 14:29:10.196607 21093 net.cpp:148] Top shape: 1 1 (1)
I0720 14:29:10.196614 21093 net.cpp:156] Memory required for data: 14012
I0720 14:29:10.196621 21093 layer_factory.hpp:77] Creating layer cont_1_lstm2_cont_slice_0_split
I0720 14:29:10.196638 21093 net.cpp:91] Creating Layer cont_1_lstm2_cont_slice_0_split
I0720 14:29:10.196647 21093 net.cpp:425] cont_1_lstm2_cont_slice_0_split <- cont_1
I0720 14:29:10.196660 21093 net.cpp:399] cont_1_lstm2_cont_slice_0_split -> cont_1_lstm2_cont_slice_0_split_0
I0720 14:29:10.196672 21093 net.cpp:399] cont_1_lstm2_cont_slice_0_split -> cont_1_lstm2_cont_slice_0_split_1
I0720 14:29:10.196689 21093 net.cpp:141] Setting up cont_1_lstm2_cont_slice_0_split
I0720 14:29:10.196702 21093 net.cpp:148] Top shape: 1 1 (1)
I0720 14:29:10.196710 21093 net.cpp:148] Top shape: 1 1 (1)
I0720 14:29:10.196717 21093 net.cpp:156] Memory required for data: 14020
I0720 14:29:10.196725 21093 layer_factory.hpp:77] Creating layer lstm2_x_transform
I0720 14:29:10.196741 21093 net.cpp:91] Creating Layer lstm2_x_transform
I0720 14:29:10.196750 21093 net.cpp:425] lstm2_x_transform <- x
I0720 14:29:10.196781 21093 net.cpp:399] lstm2_x_transform -> W_xc_x
I0720 14:29:10.197763 21095 net.cpp:141] Setting up lstm1_x_transform
I0720 14:29:10.197810 21095 net.cpp:148] Top shape: 1 1 4000 (4000)
I0720 14:29:10.197820 21095 net.cpp:156] Memory required for data: 26016
I0720 14:29:10.197846 21095 layer_factory.hpp:77] Creating layer lstm1_W_xc_x_slice
I0720 14:29:10.197866 21095 net.cpp:91] Creating Layer lstm1_W_xc_x_slice
I0720 14:29:10.197877 21095 net.cpp:425] lstm1_W_xc_x_slice <- W_xc_x
I0720 14:29:10.198321 21095 net.cpp:399] lstm1_W_xc_x_slice -> W_xc_x_1
I0720 14:29:10.198354 21095 net.cpp:141] Setting up lstm1_W_xc_x_slice
I0720 14:29:10.198372 21095 net.cpp:148] Top shape: 1 1 4000 (4000)
I0720 14:29:10.198380 21095 net.cpp:156] Memory required for data: 42016
I0720 14:29:10.198388 21095 layer_factory.hpp:77] Creating layer lstm1_h_conted_0
I0720 14:29:10.198405 21095 net.cpp:91] Creating Layer lstm1_h_conted_0
I0720 14:29:10.198413 21095 net.cpp:425] lstm1_h_conted_0 <- h_0
I0720 14:29:10.198424 21095 net.cpp:425] lstm1_h_conted_0 <- cont_1_lstm1_cont_slice_0_split_0
I0720 14:29:10.198441 21095 net.cpp:399] lstm1_h_conted_0 -> h_conted_0
I0720 14:29:10.198966 21095 net.cpp:141] Setting up lstm1_h_conted_0
I0720 14:29:10.198987 21095 net.cpp:148] Top shape: 1 1 1000 (1000)
I0720 14:29:10.198994 21095 net.cpp:156] Memory required for data: 46016
I0720 14:29:10.199003 21095 layer_factory.hpp:77] Creating layer lstm1_transform_1
I0720 14:29:10.199023 21095 net.cpp:91] Creating Layer lstm1_transform_1
I0720 14:29:10.199031 21095 net.cpp:425] lstm1_transform_1 <- h_conted_0
I0720 14:29:10.199072 21095 net.cpp:399] lstm1_transform_1 -> W_hc_h_0
I0720 14:29:10.204279 21122 net.cpp:141] Setting up lstm1_x_transform
I0720 14:29:10.204330 21122 net.cpp:148] Top shape: 1 1 4000 (4000)
I0720 14:29:10.204339 21122 net.cpp:156] Memory required for data: 26016
I0720 14:29:10.204370 21122 layer_factory.hpp:77] Creating layer lstm1_W_xc_x_slice
I0720 14:29:10.204823 21122 net.cpp:91] Creating Layer lstm1_W_xc_x_slice
I0720 14:29:10.204833 21122 net.cpp:425] lstm1_W_xc_x_slice <- W_xc_x
I0720 14:29:10.204849 21122 net.cpp:399] lstm1_W_xc_x_slice -> W_xc_x_1
I0720 14:29:10.204879 21122 net.cpp:141] Setting up lstm1_W_xc_x_slice
I0720 14:29:10.204891 21122 net.cpp:148] Top shape: 1 1 4000 (4000)
I0720 14:29:10.204898 21122 net.cpp:156] Memory required for data: 42016
I0720 14:29:10.204906 21122 layer_factory.hpp:77] Creating layer lstm1_h_conted_0
I0720 14:29:10.204957 21122 net.cpp:91] Creating Layer lstm1_h_conted_0
I0720 14:29:10.204968 21122 net.cpp:425] lstm1_h_conted_0 <- h_0
I0720 14:29:10.204978 21122 net.cpp:425] lstm1_h_conted_0 <- cont_1_lstm1_cont_slice_0_split_0
I0720 14:29:10.205494 21122 net.cpp:399] lstm1_h_conted_0 -> h_conted_0
I0720 14:29:10.205550 21122 net.cpp:141] Setting up lstm1_h_conted_0
I0720 14:29:10.205564 21122 net.cpp:148] Top shape: 1 1 1000 (1000)
I0720 14:29:10.205571 21122 net.cpp:156] Memory required for data: 46016
I0720 14:29:10.205579 21122 layer_factory.hpp:77] Creating layer lstm1_transform_1
I0720 14:29:10.205598 21122 net.cpp:91] Creating Layer lstm1_transform_1
I0720 14:29:10.205606 21122 net.cpp:425] lstm1_transform_1 <- h_conted_0
I0720 14:29:10.205636 21122 net.cpp:399] lstm1_transform_1 -> W_hc_h_0
I0720 14:29:10.206924 21103 net.cpp:141] Setting up embedding
I0720 14:29:10.206956 21103 net.cpp:148] Top shape: 1 1 500 (500)
I0720 14:29:10.206965 21103 net.cpp:156] Memory required for data: 22408
I0720 14:29:10.206987 21103 layer_factory.hpp:77] Creating layer lstm1
I0720 14:29:10.207010 21103 net.cpp:91] Creating Layer lstm1
I0720 14:29:10.207020 21103 net.cpp:425] lstm1 <- embedded_input_frames
I0720 14:29:10.207032 21103 net.cpp:425] lstm1 <- cont_sentence_input_1_split_0
I0720 14:29:10.207087 21103 net.cpp:399] lstm1 -> lstm1
I0720 14:29:10.207111 21103 recurrent_layer.cpp:20] Initializing recurrent layer: assuming input batch contains 1 timesteps of 1 independent streams.
I0720 14:29:10.208009 21103 net.cpp:49] Initializing net from parameters: 
layer {
  name: "lstm1_"
  type: "Input"
  top: "x"
  top: "cont"
  input_param {
    shape {
      dim: 1
      dim: 1
      dim: 500
    }
    shape {
      dim: 1
      dim: 1
    }
  }
}
layer {
  name: "lstm1_"
  type: "Input"
  top: "c_0"
  top: "h_0"
  input_param {
    shape {
      dim: 1
      dim: 1
      dim: 1000
    }
    shape {
      dim: 1
      dim: 1
      dim: 1000
    }
  }
}
layer {
  name: "lstm1_cont_slice"
  type: "Slice"
  bottom: "cont"
  top: "cont_1"
  slice_param {
    axis: 0
  }
}
layer {
  name: "lstm1_x_transform"
  type: "InnerProduct"
  bottom: "x"
  top: "W_xc_x"
  param {
    name: "W_xc"
  }
  param {
    name: "b_c"
  }
  propagate_down: true
  inner_product_param {
    num_output: 4000
    bias_term: true
    weight_filler {
      type: "uniform"
      min: -0.08
      max: 0.08
    }
    bias_filler {
      type: "constant"
      value: 0
    }
    axis: 2
  }
}
layer {
  name: "lstm1_W_xc_x_slice"
  type: "Slice"
  bottom: "W_xc_x"
  top: "W_xc_x_1"
  slice_param {
    axis: 0
  }
}
layer {
  name: "lstm1_h_conted_0"
  type: "Scale"
  bottom: "h_0"
  bottom: "cont_1"
  top: "h_conted_0"
  scale_param {
    axis: 0
  }
}
layer {
  name: "lstm1_transform_1"
  type: "InnerProduct"
  bottom: "h_conted_0"
  top: "W_hc_h_0"
  param {
    name: "W_hc"
  }
  inner_product_param {
    num_output: 4000
    bias_term: false
    weight_filler {
      type: "uniform"
      min: -0.08
      max: 0.08
    }
    axis: 2
  }
}
layer {
  name: "lstm1_gate_input_1"
  type: "Eltwise"
  bottom: "W_hc_h_0"
  bottom: "W_xc_x_1"
  top: "gate_input_1"
  eltwise_param {
    operation: SUM
  }
}
layer {
  name: "lstm1_unit_1"
  type: "LSTMUnit"
  bottom: "c_0"
  bottom: "gate_input_1"
  bottom: "cont_1"
  top: "c_1"
  top: "h_1"
}
layer {
  name: "lstm1_"
  type: "Split"
  bottom: "c_1"
  top: "c_T"
}
layer {
  name: "lstm1_h_concat"
  type: "Concat"
  bottom: "h_1"
  top: "h"
  concat_param {
    axis: 0
  }
}
layer {
  name: "h_pseudoloss"
  type: "Reduction"
  bottom: "h"
  top: "h_pseudoloss"
  loss_weight: 1
}
I0720 14:29:10.208684 21103 layer_factory.hpp:77] Creating layer lstm1_
I0720 14:29:10.208711 21103 net.cpp:91] Creating Layer lstm1_
I0720 14:29:10.208724 21103 net.cpp:399] lstm1_ -> x
I0720 14:29:10.208746 21103 net.cpp:399] lstm1_ -> cont
I0720 14:29:10.208770 21103 net.cpp:141] Setting up lstm1_
I0720 14:29:10.208784 21103 net.cpp:148] Top shape: 1 1 500 (500)
I0720 14:29:10.208796 21103 net.cpp:148] Top shape: 1 1 (1)
I0720 14:29:10.208806 21103 net.cpp:156] Memory required for data: 2004
I0720 14:29:10.208814 21103 layer_factory.hpp:77] Creating layer lstm1_
I0720 14:29:10.208828 21103 net.cpp:91] Creating Layer lstm1_
I0720 14:29:10.208840 21103 net.cpp:399] lstm1_ -> c_0
I0720 14:29:10.208858 21103 net.cpp:399] lstm1_ -> h_0
I0720 14:29:10.208876 21103 net.cpp:141] Setting up lstm1_
I0720 14:29:10.208889 21103 net.cpp:148] Top shape: 1 1 1000 (1000)
I0720 14:29:10.208900 21103 net.cpp:148] Top shape: 1 1 1000 (1000)
I0720 14:29:10.208909 21103 net.cpp:156] Memory required for data: 10004
I0720 14:29:10.208916 21103 layer_factory.hpp:77] Creating layer lstm1_cont_slice
I0720 14:29:10.208931 21103 net.cpp:91] Creating Layer lstm1_cont_slice
I0720 14:29:10.208940 21103 net.cpp:425] lstm1_cont_slice <- cont
I0720 14:29:10.208953 21103 net.cpp:399] lstm1_cont_slice -> cont_1
I0720 14:29:10.208974 21103 net.cpp:141] Setting up lstm1_cont_slice
I0720 14:29:10.208987 21103 net.cpp:148] Top shape: 1 1 (1)
I0720 14:29:10.208997 21103 net.cpp:156] Memory required for data: 10008
I0720 14:29:10.209005 21103 layer_factory.hpp:77] Creating layer cont_1_lstm1_cont_slice_0_split
I0720 14:29:10.209285 21103 net.cpp:91] Creating Layer cont_1_lstm1_cont_slice_0_split
I0720 14:29:10.209300 21103 net.cpp:425] cont_1_lstm1_cont_slice_0_split <- cont_1
I0720 14:29:10.209313 21103 net.cpp:399] cont_1_lstm1_cont_slice_0_split -> cont_1_lstm1_cont_slice_0_split_0
I0720 14:29:10.209329 21103 net.cpp:399] cont_1_lstm1_cont_slice_0_split -> cont_1_lstm1_cont_slice_0_split_1
I0720 14:29:10.209372 21103 net.cpp:141] Setting up cont_1_lstm1_cont_slice_0_split
I0720 14:29:10.209385 21103 net.cpp:148] Top shape: 1 1 (1)
I0720 14:29:10.209395 21103 net.cpp:148] Top shape: 1 1 (1)
I0720 14:29:10.209403 21103 net.cpp:156] Memory required for data: 10016
I0720 14:29:10.209413 21103 layer_factory.hpp:77] Creating layer lstm1_x_transform
I0720 14:29:10.209430 21103 net.cpp:91] Creating Layer lstm1_x_transform
I0720 14:29:10.209439 21103 net.cpp:425] lstm1_x_transform <- x
I0720 14:29:10.213081 21097 net.cpp:141] Setting up lstm1_transform_1
I0720 14:29:10.213121 21097 net.cpp:148] Top shape: 1 1 4000 (4000)
I0720 14:29:10.213129 21097 net.cpp:156] Memory required for data: 62016
I0720 14:29:10.213151 21097 layer_factory.hpp:77] Creating layer lstm1_gate_input_1
I0720 14:29:10.217391 21103 net.cpp:399] lstm1_x_transform -> W_xc_x
I0720 14:29:10.222832 21097 net.cpp:91] Creating Layer lstm1_gate_input_1
I0720 14:29:10.222870 21097 net.cpp:425] lstm1_gate_input_1 <- W_hc_h_0
I0720 14:29:10.222882 21097 net.cpp:425] lstm1_gate_input_1 <- W_xc_x_1
I0720 14:29:10.222898 21097 net.cpp:399] lstm1_gate_input_1 -> gate_input_1
I0720 14:29:10.222919 21097 net.cpp:141] Setting up lstm1_gate_input_1
I0720 14:29:10.222934 21097 net.cpp:148] Top shape: 1 1 4000 (4000)
I0720 14:29:10.222939 21097 net.cpp:156] Memory required for data: 78016
I0720 14:29:10.222945 21097 layer_factory.hpp:77] Creating layer lstm1_unit_1
I0720 14:29:10.222955 21097 net.cpp:91] Creating Layer lstm1_unit_1
I0720 14:29:10.222959 21097 net.cpp:425] lstm1_unit_1 <- c_0
I0720 14:29:10.222965 21097 net.cpp:425] lstm1_unit_1 <- gate_input_1
I0720 14:29:10.222970 21097 net.cpp:425] lstm1_unit_1 <- cont_1_lstm1_cont_slice_0_split_1
I0720 14:29:10.222977 21097 net.cpp:399] lstm1_unit_1 -> c_1
I0720 14:29:10.222985 21097 net.cpp:399] lstm1_unit_1 -> h_1
I0720 14:29:10.222996 21097 net.cpp:141] Setting up lstm1_unit_1
I0720 14:29:10.223002 21097 net.cpp:148] Top shape: 1 1 1000 (1000)
I0720 14:29:10.223007 21097 net.cpp:148] Top shape: 1 1 1000 (1000)
I0720 14:29:10.223011 21097 net.cpp:156] Memory required for data: 86016
I0720 14:29:10.223016 21097 layer_factory.hpp:77] Creating layer lstm1_
I0720 14:29:10.223471 21097 net.cpp:91] Creating Layer lstm1_
I0720 14:29:10.223486 21097 net.cpp:425] lstm1_ <- c_1
I0720 14:29:10.223541 21097 net.cpp:399] lstm1_ -> c_T
I0720 14:29:10.223563 21097 net.cpp:141] Setting up lstm1_
I0720 14:29:10.223577 21097 net.cpp:148] Top shape: 1 1 1000 (1000)
I0720 14:29:10.223577 21116 net.cpp:141] Setting up lstm1_x_transform
I0720 14:29:10.223585 21097 net.cpp:156] Memory required for data: 90016
I0720 14:29:10.223594 21097 layer_factory.hpp:77] Creating layer lstm1_h_concat
I0720 14:29:10.223608 21097 net.cpp:91] Creating Layer lstm1_h_concat
I0720 14:29:10.223614 21097 net.cpp:425] lstm1_h_concat <- h_1
I0720 14:29:10.223623 21097 net.cpp:399] lstm1_h_concat -> h
I0720 14:29:10.223635 21097 net.cpp:141] Setting up lstm1_h_concat
I0720 14:29:10.223642 21097 net.cpp:148] Top shape: 1 1 1000 (1000)
I0720 14:29:10.223647 21097 net.cpp:156] Memory required for data: 94016
I0720 14:29:10.223651 21097 layer_factory.hpp:77] Creating layer h_pseudoloss
I0720 14:29:10.224138 21116 net.cpp:148] Top shape: 1 1 4000 (4000)
I0720 14:29:10.224159 21116 net.cpp:156] Memory required for data: 26016
I0720 14:29:10.224141 21097 net.cpp:91] Creating Layer h_pseudoloss
I0720 14:29:10.224175 21097 net.cpp:425] h_pseudoloss <- h
I0720 14:29:10.224184 21116 layer_factory.hpp:77] Creating layer lstm1_W_xc_x_slice
I0720 14:29:10.224190 21097 net.cpp:399] h_pseudoloss -> h_pseudoloss
I0720 14:29:10.224198 21116 net.cpp:91] Creating Layer lstm1_W_xc_x_slice
…
I0720 14:29:10.224443 21097 net.cpp:219] cont_1_lstm1_cont_slice_0_split does not need backward computation.
I0720 14:29:10.224454 21097 net.cpp:219] lstm1_cont_slice does not need backward computation.
I0720 14:29:10.224465 21097 net.cpp:219] lstm1_ does not need backward computation.
I0720 14:29:10.224475 21097 net.cpp:219] lstm1_ does not need backward computation.
I0720 14:29:10.224484 21097 net.cpp:261] This network produces output c_T
I0720 14:29:10.224494 21097 net.cpp:261] This network produces output h_pseudoloss
I0720 14:29:10.224911 21116 net.cpp:141] Setting up lstm1_W_xc_x_slice
I0720 14:29:10.224926 21116 net.cpp:148] Top shape: 1 1 4000 (4000)
I0720 14:29:10.224932 21116 net.cpp:156] Memory required for data: 42016
I0720 14:29:10.224941 21116 layer_factory.hpp:77] Creating layer lstm1_h_conted_0
I0720 14:29:10.224951 21097 net.cpp:274] Network initialization done.
I0720 14:29:10.224956 21116 net.cpp:91] Creating Layer lstm1_h_conted_0
I0720 14:29:10.224964 21116 net.cpp:425] lstm1_h_conted_0 <- h_0
I0720 14:29:10.224973 21116 net.cpp:425] lstm1_h_conted_0 <- cont_1_lstm1_cont_slice_0_split_0
I0720 14:29:10.225023 21097 recurrent_layer.cpp:150] Adding parameter 0: W_xc
I0720 14:29:10.225038 21097 recurrent_layer.cpp:150] Adding parameter 1: b_c
I0720 14:29:10.225046 21097 recurrent_layer.cpp:150] Adding parameter 2: W_hc
I0720 14:29:10.225111 21097 net.cpp:141] Setting up lstm1
I0720 14:29:10.225128 21097 net.cpp:148] Top shape: 1 1 1000 (1000)
I0720 14:29:10.225137 21097 net.cpp:156] Memory required for data: 26408
I0720 14:29:10.225162 21097 layer_factory.hpp:77] Creating layer concat
I0720 14:29:10.225179 21097 net.cpp:91] Creating Layer concat
I0720 14:29:10.225189 21097 net.cpp:425] concat <- lstm1
I0720 14:29:10.225203 21097 net.cpp:425] concat <- embedded_input_sentence
I0720 14:29:10.225214 21097 net.cpp:425] concat <- reshaped_stage_indicator
I0720 14:29:10.225229 21097 net.cpp:399] concat -> lstm1_video_sequence
I0720 14:29:10.225249 21097 net.cpp:141] Setting up concat
I0720 14:29:10.225261 21097 net.cpp:148] Top shape: 1 1 1501 (1501)
I0720 14:29:10.225270 21097 net.cpp:156] Memory required for data: 32412
I0720 14:29:10.225278 21097 layer_factory.hpp:77] Creating layer lstm2
I0720 14:29:10.225301 21097 net.cpp:91] Creating Layer lstm2
I0720 14:29:10.225311 21097 net.cpp:425] lstm2 <- lstm1_video_sequence
I0720 14:29:10.225322 21097 net.cpp:425] lstm2 <- cont_sentence_input_1_split_1
I0720 14:29:10.225337 21097 net.cpp:399] lstm2 -> lstm2
I0720 14:29:10.225354 21097 recurrent_layer.cpp:20] Initializing recurrent layer: assuming input batch contains 1 timesteps of 1 independent streams.
I0720 14:29:10.225518 21116 net.cpp:399] lstm1_h_conted_0 -> h_conted_0
I0720 14:29:10.225577 21116 net.cpp:141] Setting up lstm1_h_conted_0
I0720 14:29:10.225594 21116 net.cpp:148] Top shape: 1 1 1000 (1000)
I0720 14:29:10.225600 21116 net.cpp:156] Memory required for data: 46016
I0720 14:29:10.225607 21116 layer_factory.hpp:77] Creating layer lstm1_transform_1
I0720 14:29:10.225623 21116 net.cpp:91] Creating Layer lstm1_transform_1
I0720 14:29:10.225631 21116 net.cpp:425] lstm1_transform_1 <- h_conted_0
I0720 14:29:10.225672 21116 net.cpp:399] lstm1_transform_1 -> W_hc_h_0
I0720 14:29:10.225817 21097 net.cpp:49] Initializing net from parameters: 
layer {
  name: "lstm2_"
  type: "Input"
  top: "x"
  top: "cont"
  input_param {
    shape {
      dim: 1
      dim: 1
      dim: 1501
    }
    shape {
      dim: 1
      dim: 1
    }
  }
}
layer {
  name: "lstm2_"
  type: "Input"
  top: "c_0"
  top: "h_0"
  input_param {
    shape {
      dim: 1
      dim: 1
      dim: 1000
    }
    shape {
      dim: 1
      dim: 1
      dim: 1000
    }
  }
}
layer {
  name: "lstm2_cont_slice"
  type: "Slice"
  bottom: "cont"
  top: "cont_1"
  slice_param {
    axis: 0
  }
}
layer {
  name: "lstm2_x_transform"
  type: "InnerProduct"
  bottom: "x"
  top: "W_xc_x"
  param {
    name: "W_xc"
  }
  param {
    name: "b_c"
  }
  propagate_down: true
  inner_product_param {
    num_output: 4000
    bias_term: true
    weight_filler {
      type: "uniform"
      min: -0.08
      max: 0.08
    }
    bias_filler {
      type: "constant"
      value: 0
    }
    axis: 2
  }
}
layer {
  name: "lstm2_W_xc_x_slice"
  type: "Slice"
  bottom: "W_xc_x"
  top: "W_xc_x_1"
  slice_param {
    axis: 0
  }
}
layer {
  name: "lstm2_h_conted_0"
  type: "Scale"
  bottom: "h_0"
  bottom: "cont_1"
  top: "h_conted_0"
  scale_param {
    axis: 0
  }
}
layer {
  name: "lstm2_transform_1"
  type: "InnerProduct"
  bottom: "h_conted_0"
  top: "W_hc_h_0"
  param {
    name: "W_hc"
  }
  inner_product_param {
    num_output: 4000
    bias_term: false
    weight_filler {
      type: "uniform"
      min: -0.08
      max: 0.08
    }
    axis: 2
  }
}
layer {
  name: "lstm2_gate_input_1"
  type: "Eltwise"
  bottom: "W_hc_h_0"
  bottom: "W_xc_x_1"
  top: "gate_input_1"
  eltwise_param {
    operation: SUM
  }
}
layer {
  name: "lstm2_unit_1"
  type: "LSTMUnit"
  bottom: "c_0"
  bottom: "gate_input_1"
  bottom: "cont_1"
  top: "c_1"
  top: "h_1"
}
layer {
  name: "lstm2_"
  type: "Split"
  bottom: "c_1"
  top: "c_T"
}
layer {
  name: "lstm2_h_concat"
  type: "Concat"
  bottom: "h_1"
  top: "h"
  concat_param {
    axis: 0
  }
}
layer {
  name: "h_pseudoloss"
  type: "Reduction"
  bottom: "h"
  top: "h_pseudoloss"
  loss_weight: 1
}
I0720 14:29:10.226358 21097 layer_factory.hpp:77] Creating layer lstm2_
I0720 14:29:10.226399 21097 net.cpp:91] Creating Layer lstm2_
I0720 14:29:10.226428 21097 net.cpp:399] lstm2_ -> x
I0720 14:29:10.226449 21097 net.cpp:399] lstm2_ -> cont
I0720 14:29:10.226470 21097 net.cpp:141] Setting up lstm2_
I0720 14:29:10.226483 21097 net.cpp:148] Top shape: 1 1 1501 (1501)
I0720 14:29:10.226495 21097 net.cpp:148] Top shape: 1 1 (1)
I0720 14:29:10.226502 21097 net.cpp:156] Memory required for data: 6008
I0720 14:29:10.226511 21097 layer_factory.hpp:77] Creating layer lstm2_
I0720 14:29:10.226524 21097 net.cpp:91] Creating Layer lstm2_
I0720 14:29:10.226536 21097 net.cpp:399] lstm2_ -> c_0
I0720 14:29:10.226552 21097 net.cpp:399] lstm2_ -> h_0
I0720 14:29:10.226568 21097 net.cpp:141] Setting up lstm2_
I0720 14:29:10.226579 21097 net.cpp:148] Top shape: 1 1 1000 (1000)
I0720 14:29:10.226590 21097 net.cpp:148] Top shape: 1 1 1000 (1000)
I0720 14:29:10.226596 21097 net.cpp:156] Memory required for data: 14008
I0720 14:29:10.226603 21097 layer_factory.hpp:77] Creating layer lstm2_cont_slice
I0720 14:29:10.226616 21097 net.cpp:91] Creating Layer lstm2_cont_slice
I0720 14:29:10.226624 21097 net.cpp:425] lstm2_cont_slice <- cont
I0720 14:29:10.226655 21097 net.cpp:399] lstm2_cont_slice -> cont_1
I0720 14:29:10.226675 21097 net.cpp:141] Setting up lstm2_cont_slice
I0720 14:29:10.226699 21097 net.cpp:148] Top shape: 1 1 (1)
I0720 14:29:10.226711 21097 net.cpp:156] Memory required for data: 14012
I0720 14:29:10.226717 21097 layer_factory.hpp:77] Creating layer cont_1_lstm2_cont_slice_0_split
I0720 14:29:10.226729 21097 net.cpp:91] Creating Layer cont_1_lstm2_cont_slice_0_split
I0720 14:29:10.226738 21097 net.cpp:425] cont_1_lstm2_cont_slice_0_split <- cont_1
I0720 14:29:10.226750 21097 net.cpp:399] cont_1_lstm2_cont_slice_0_split -> cont_1_lstm2_cont_slice_0_split_0
I0720 14:29:10.226764 21097 net.cpp:399] cont_1_lstm2_cont_slice_0_split -> cont_1_lstm2_cont_slice_0_split_1
I0720 14:29:10.226779 21097 net.cpp:141] Setting up cont_1_lstm2_cont_slice_0_split
I0720 14:29:10.226790 21097 net.cpp:148] Top shape: 1 1 (1)
I0720 14:29:10.226799 21097 net.cpp:148] Top shape: 1 1 (1)
I0720 14:29:10.226807 21097 net.cpp:156] Memory required for data: 14020
I0720 14:29:10.226815 21097 layer_factory.hpp:77] Creating layer lstm2_x_transform
I0720 14:29:10.226856 21097 net.cpp:91] Creating Layer lstm2_x_transform
I0720 14:29:10.226867 21097 net.cpp:425] lstm2_x_transform <- x
I0720 14:29:10.226881 21097 net.cpp:399] lstm2_x_transform -> W_xc_x
I0720 14:29:10.231154 21089 net.cpp:141] Setting up lstm1_transform_1
I0720 14:29:10.231200 21089 net.cpp:148] Top shape: 1 1 4000 (4000)
I0720 14:29:10.231209 21089 net.cpp:156] Memory required for data: 62016
I0720 14:29:10.231230 21089 layer_factory.hpp:77] Creating layer lstm1_gate_input_1
I0720 14:29:10.231253 21089 net.cpp:91] Creating Layer lstm1_gate_input_1
I0720 14:29:10.231262 21089 net.cpp:425] lstm1_gate_input_1 <- W_hc_h_0
I0720 14:29:10.231273 21089 net.cpp:425] lstm1_gate_input_1 <- W_xc_x_1
I0720 14:29:10.232390 21118 net.cpp:141] Setting up lstm1_transform_1
I0720 14:29:10.232441 21118 net.cpp:148] Top shape: 1 1 4000 (4000)
I0720 14:29:10.232455 21118 net.cpp:156] Memory required for data: 62016
I0720 14:29:10.232483 21118 layer_factory.hpp:77] Creating layer lstm1_gate_input_1
I0720 14:29:10.233395 21105 net.cpp:141] Setting up embedding
I0720 14:29:10.233417 21105 net.cpp:148] Top shape: 1 1 500 (500)
I0720 14:29:10.233422 21105 net.cpp:156] Memory required for data: 22408
I0720 14:29:10.233433 21105 layer_factory.hpp:77] Creating layer lstm1
I0720 14:29:10.234011 21089 net.cpp:399] lstm1_gate_input_1 -> gate_input_1
I0720 14:29:10.234025 21118 net.cpp:91] Creating Layer lstm1_gate_input_1
I0720 14:29:10.234030 21105 net.cpp:91] Creating Layer lstm1
I0720 14:29:10.234050 21118 net.cpp:425] lstm1_gate_input_1 <- W_hc_h_0
I0720 14:29:10.234045 21089 net.cpp:141] Setting up lstm1_gate_input_1
I0720 14:29:10.234069 21118 net.cpp:425] lstm1_gate_input_1 <- W_xc_x_1
I0720 14:29:10.234073 21089 net.cpp:148] Top shape: 1 1 4000 (4000)
I0720 14:29:10.234088 21118 net.cpp:399] lstm1_gate_input_1 -> gate_input_1
I0720 14:29:10.234100 21089 net.cpp:156] Memory required for data: 78016
I0720 14:29:10.234110 21089 layer_factory.hpp:77] Creating layer lstm1_unit_1
I0720 14:29:10.234118 21118 net.cpp:141] Setting up lstm1_gate_input_1
I0720 14:29:10.234124 21089 net.cpp:91] Creating Layer lstm1_unit_1
I0720 14:29:10.234134 21089 net.cpp:425] lstm1_unit_1 <- c_0
I0720 14:29:10.234138 21118 net.cpp:148] Top shape: 1 1 4000 (4000)
I0720 14:29:10.234144 21089 net.cpp:425] lstm1_unit_1 <- gate_input_1
I0720 14:29:10.234149 21118 net.cpp:156] Memory required for data: 78016
I0720 14:29:10.234155 21089 net.cpp:425] lstm1_unit_1 <- cont_1_lstm1_cont_slice_0_split_1
I0720 14:29:10.234163 21118 layer_factory.hpp:77] Creating layer lstm1_unit_1
I0720 14:29:10.234171 21089 net.cpp:399] lstm1_unit_1 -> c_1
I0720 14:29:10.234180 21118 net.cpp:91] Creating Layer lstm1_unit_1
I0720 14:29:10.234187 21089 net.cpp:399] lstm1_unit_1 -> h_1
I0720 14:29:10.234194 21118 net.cpp:425] lstm1_unit_1 <- c_0
I0720 14:29:10.234205 21089 net.cpp:141] Setting up lstm1_unit_1
I0720 14:29:10.234208 21118 net.cpp:425] lstm1_unit_1 <- gate_input_1
I0720 14:29:10.234217 21089 net.cpp:148] Top shape: 1 1 1000 (1000)
I0720 14:29:10.234222 21118 net.cpp:425] lstm1_unit_1 <- cont_1_lstm1_cont_slice_0_split_1
I0720 14:29:10.234230 21089 net.cpp:148] Top shape: 1 1 1000 (1000)
I0720 14:29:10.234237 21089 net.cpp:156] Memory required for data: 86016
I0720 14:29:10.234072 21105 net.cpp:425] lstm1 <- embedded_input_frames
I0720 14:29:10.234246 21089 layer_factory.hpp:77] Creating layer lstm1_
I0720 14:29:10.234268 21105 net.cpp:425] lstm1 <- cont_sentence_input_1_split_0
I0720 14:29:10.234269 21089 net.cpp:91] Creating Layer lstm1_
I0720 14:29:10.234287 21089 net.cpp:425] lstm1_ <- c_1
I0720 14:29:10.234294 21105 net.cpp:399] lstm1 -> lstm1
I0720 14:29:10.234318 21105 recurrent_layer.cpp:20] Initializing recurrent layer: assuming input batch contains 1 timesteps of 1 independent streams.
I0720 14:29:10.234674 21089 net.cpp:399] lstm1_ -> c_T
I0720 14:29:10.234681 21118 net.cpp:399] lstm1_unit_1 -> c_1
I0720 14:29:10.234706 21089 net.cpp:141] Setting up lstm1_
I0720 14:29:10.234719 21089 net.cpp:148] Top shape: 1 1 1000 (1000)
I0720 14:29:10.234724 21118 net.cpp:399] lstm1_unit_1 -> h_1
I0720 14:29:10.234726 21089 net.cpp:156] Memory required for data: 90016
I0720 14:29:10.234748 21089 layer_factory.hpp:77] Creating layer lstm1_h_concat
I0720 14:29:10.234755 21118 net.cpp:141] Setting up lstm1_unit_1
I0720 14:29:10.234762 21089 net.cpp:91] Creating Layer lstm1_h_concat
I0720 14:29:10.234773 21118 net.cpp:148] Top shape: 1 1 1000 (1000)
I0720 14:29:10.234776 21089 net.cpp:425] lstm1_h_concat <- h_1
I0720 14:29:10.234793 21118 net.cpp:148] Top shape: 1 1 1000 (1000)
I0720 14:29:10.234800 21089 net.cpp:399] lstm1_h_concat -> h
I0720 14:29:10.234804 21118 net.cpp:156] Memory required for data: 86016
I0720 14:29:10.234817 21118 layer_factory.hpp:77] Creating layer lstm1_
I0720 14:29:10.234820 21089 net.cpp:141] Setting up lstm1_h_concat
I0720 14:29:10.234833 21089 net.cpp:148] Top shape: 1 1 1000 (1000)
I0720 14:29:10.234839 21089 net.cpp:156] Memory required for data: 94016
I0720 14:29:10.234838 21118 net.cpp:91] Creating Layer lstm1_
I0720 14:29:10.234855 21089 layer_factory.hpp:77] Creating layer h_pseudoloss
I0720 14:29:10.234870 21118 net.cpp:425] lstm1_ <- c_1
I0720 14:29:10.234881 21089 net.cpp:91] Creating Layer h_pseudoloss
I0720 14:29:10.234889 21118 net.cpp:399] lstm1_ -> c_T
I0720 14:29:10.234890 21089 net.cpp:425] h_pseudoloss <- h
I0720 14:29:10.234913 21118 net.cpp:141] Setting up lstm1_
I0720 14:29:10.234930 21118 net.cpp:148] Top shape: 1 1 1000 (1000)
I0720 14:29:10.234941 21118 net.cpp:156] Memory required for data: 90016
I0720 14:29:10.234951 21118 layer_factory.hpp:77] Creating layer lstm1_h_concat
I0720 14:29:10.234966 21118 net.cpp:91] Creating Layer lstm1_h_concat
I0720 14:29:10.234977 21118 net.cpp:425] lstm1_h_concat <- h_1
I0720 14:29:10.235213 21089 net.cpp:399] h_pseudoloss -> h_pseudoloss
I0720 14:29:10.235220 21118 net.cpp:399] lstm1_h_concat -> h
I0720 14:29:10.235252 21118 net.cpp:141] Setting up lstm1_h_concat
I0720 14:29:10.235270 21118 net.cpp:148] Top shape: 1 1 1000 (1000)
I0720 14:29:10.235280 21118 net.cpp:156] Memory required for data: 94016
I0720 14:29:10.235291 21118 layer_factory.hpp:77] Creating layer h_pseudoloss
I0720 14:29:10.235308 21118 net.cpp:91] Creating Layer h_pseudoloss
I0720 14:29:10.235319 21118 net.cpp:425] h_pseudoloss <- h
I0720 14:29:10.235337 21089 net.cpp:141] Setting up h_pseudoloss
I0720 14:29:10.235342 21118 net.cpp:399] h_pseudoloss -> h_pseudoloss
…
I0720 14:29:10.236104 21118 net.cpp:261] This network produces output h_pseudoloss
I0720 14:29:10.236485 21089 net.cpp:49] Initializing net from parameters: 
layer {
  name: "lstm2_"
  type: "Input"
  top: "x"
  top: "cont"
  input_param {
    shape {
      dim: 1
      dim: 1
      dim: 1501
    }
    shape {
      dim: 1
      dim: 1
    }
  }
}
layer {
  name: "lstm2_"
  type: "Input"
  top: "c_0"
  top: "h_0"
  input_param {
    shape {
      dim: 1
      dim: 1
      dim: 1000
    }
    shape {
      dim: 1
      dim: 1
      dim: 1000
    }
  }
}
layer {
  name: "lstm2_cont_slice"
  type: "Slice"
  bottom: "cont"
  top: "cont_1"
  slice_param {
    axis: 0
  }
}
layer {
  name: "lstm2_x_transform"
  type: "InnerProduct"
  bottom: "x"
  top: "W_xc_x"
  param {
    name: "W_xc"
  }
  param {
    name: "b_c"
  }
  propagate_down: true
  inner_product_param {
    num_output: 4000
    bias_term: true
    weight_filler {
      type: "uniform"
      min: -0.08
      max: 0.08
    }
    bias_filler {
      type: "constant"
      value: 0
    }
    axis: 2
  }
}
layer {
  name: "lstm2_W_xc_x_slice"
  type: "Slice"
  bottom: "W_xc_x"
  top: "W_xc_x_1"
  slice_param {
    axis: 0
  }
}
layer {
  name: "lstm2_h_conted_0"
  type: "Scale"
  bottom: "h_0"
  bottom: "cont_1"
  top: "h_conted_0"
  scale_param {
    axis: 0
  }
}
layer {
  name: "lstm2_transform_1"
  type: "InnerProduct"
  bottom: "h_conted_0"
  top: "W_hc_h_0"
  param {
    name: "W_hc"
  }
  inner_product_param {
    num_output: 4000
    bias_term: false
    weight_filler {
      type: "uniform"
      min: -0.08
      max: 0.08
    }
    axis: 2
  }
}
layer {
  name: "lstm2_gate_input_1"
  type: "Eltwise"
  bottom: "W_hc_h_0"
  bottom: "W_xc_x_1"
  top: "gate_input_1"
  eltwise_param {
    operation: SUM
  }
}
layer {
  name: "lstm2_unit_1"
  type: "LSTMUnit"
  bottom: "c_0"
  bottom: "gate_input_1"
  bottom: "cont_1"
  top: "c_1"
  top: "h_1"
}
layer {
  name: "lstm2_"
  type: "Split"
  bottom: "c_1"
  top: "c_T"
}
layer {
  name: "lstm2_h_concat"
  type: "Concat"
  bottom: "h_1"
  top: "h"
  concat_param {
    axis: 0
  }
}
layer {
  name: "h_pseudoloss"
  type: "Reduction"
  bottom: "h"
  top: "h_pseudoloss"
  loss_weight: 1
}
I0720 14:29:10.236621 21118 net.cpp:274] Network initialization done.
I0720 14:29:10.236707 21118 recurrent_layer.cpp:150] Adding parameter 0: W_xc
I0720 14:29:10.236718 21118 recurrent_layer.cpp:150] Adding parameter 1: b_c
I0720 14:29:10.236726 21118 recurrent_layer.cpp:150] Adding parameter 2: W_hc
I0720 14:29:10.236779 21118 net.cpp:141] Setting up lstm1
I0720 14:29:10.236793 21118 net.cpp:148] Top shape: 1 1 1000 (1000)
I0720 14:29:10.236800 21118 net.cpp:156] Memory required for data: 26408
I0720 14:29:10.236819 21118 layer_factory.hpp:77] Creating layer concat
I0720 14:29:10.236832 21118 net.cpp:91] Creating Layer concat
I0720 14:29:10.236841 21118 net.cpp:425] concat <- lstm1
I0720 14:29:10.236851 21118 net.cpp:425] concat <- embedded_input_sentence
I0720 14:29:10.236860 21118 net.cpp:425] concat <- reshaped_stage_indicator
I0720 14:29:10.236870 21118 net.cpp:399] concat -> lstm1_video_sequence
I0720 14:29:10.236886 21118 net.cpp:141] Setting up concat
I0720 14:29:10.236896 21118 net.cpp:148] Top shape: 1 1 1501 (1501)
…
I0720 14:29:10.428946 21103 net.cpp:156] Memory required for data: 30020
I0720 14:29:10.429512 21103 layer_factory.hpp:77] Creating layer lstm2_W_xc_x_slice
I0720 14:29:10.429548 21103 net.cpp:91] Creating Layer lstm2_W_xc_x_slice
I0720 14:29:10.429563 21103 net.cpp:425] lstm2_W_xc_x_slice <- W_xc_x
I0720 14:29:10.430045 21103 net.cpp:399] lstm2_W_xc_x_slice -> W_xc_x_1
I0720 14:29:10.430085 21103 net.cpp:141] Setting up lstm2_W_xc_x_slice
I0720 14:29:10.430105 21103 net.cpp:148] Top shape: 1 1 4000 (4000)
I0720 14:29:10.430115 21103 net.cpp:156] Memory required for data: 46020
I0720 14:29:10.430124 21103 layer_factory.hpp:77] Creating layer lstm2_h_conted_0
I0720 14:29:10.430142 21103 net.cpp:91] Creating Layer lstm2_h_conted_0
I0720 14:29:10.430153 21103 net.cpp:425] lstm2_h_conted_0 <- h_0
I0720 14:29:10.430165 21103 net.cpp:425] lstm2_h_conted_0 <- cont_1_lstm2_cont_slice_0_split_0
I0720 14:29:10.431038 21103 net.cpp:399] lstm2_h_conted_0 -> h_conted_0
I0720 14:29:10.432127 21103 net.cpp:141] Setting up lstm2_h_conted_0
I0720 14:29:10.432159 21103 net.cpp:148] Top shape: 1 1 1000 (1000)
I0720 14:29:10.432168 21103 net.cpp:156] Memory required for data: 50020
I0720 14:29:10.432179 21103 layer_factory.hpp:77] Creating layer lstm2_transform_1
I0720 14:29:10.432204 21103 net.cpp:91] Creating Layer lstm2_transform_1
I0720 14:29:10.432215 21103 net.cpp:425] lstm2_transform_1 <- h_conted_0
I0720 14:29:10.432234 21103 net.cpp:399] lstm2_transform_1 -> W_hc_h_0
I0720 14:29:10.432855 21105 net.cpp:141] Setting up lstm2_x_transform
I0720 14:29:10.432912 21105 net.cpp:148] Top shape: 1 1 4000 (4000)
I0720 14:29:10.432925 21105 net.cpp:156] Memory required for data: 30020
I0720 14:29:10.432960 21105 layer_factory.hpp:77] Creating layer lstm2_W_xc_x_slice
I0720 14:29:10.432986 21105 net.cpp:91] Creating Layer lstm2_W_xc_x_slice
I0720 14:29:10.433001 21105 net.cpp:425] lstm2_W_xc_x_slice <- W_xc_x
I0720 14:29:10.433465 21105 net.cpp:399] lstm2_W_xc_x_slice -> W_xc_x_1
I0720 14:29:10.433517 21105 net.cpp:141] Setting up lstm2_W_xc_x_slice
I0720 14:29:10.433533 21105 net.cpp:148] Top shape: 1 1 4000 (4000)
I0720 14:29:10.433542 21105 net.cpp:156] Memory required for data: 46020
I0720 14:29:10.433548 21105 layer_factory.hpp:77] Creating layer lstm2_h_conted_0
I0720 14:29:10.433568 21105 net.cpp:91] Creating Layer lstm2_h_conted_0
I0720 14:29:10.433578 21105 net.cpp:425] lstm2_h_conted_0 <- h_0
I0720 14:29:10.433588 21105 net.cpp:425] lstm2_h_conted_0 <- cont_1_lstm2_cont_slice_0_split_0
I0720 14:29:10.433598 21105 net.cpp:399] lstm2_h_conted_0 -> h_conted_0
I0720 14:29:10.434545 21105 net.cpp:141] Setting up lstm2_h_conted_0
I0720 14:29:10.434576 21105 net.cpp:148] Top shape: 1 1 1000 (1000)
I0720 14:29:10.434584 21105 net.cpp:156] Memory required for data: 50020
I0720 14:29:10.434593 21105 layer_factory.hpp:77] Creating layer lstm2_transform_1
I0720 14:29:10.435122 21105 net.cpp:91] Creating Layer lstm2_transform_1
I0720 14:29:10.435144 21105 net.cpp:425] lstm2_transform_1 <- h_conted_0
I0720 14:29:10.435158 21105 net.cpp:399] lstm2_transform_1 -> W_hc_h_0
I0720 14:29:10.447474 21108 net.cpp:141] Setting up lstm2_x_transform
I0720 14:29:10.447540 21108 net.cpp:148] Top shape: 1 1 4000 (4000)
I0720 14:29:10.447546 21108 net.cpp:156] Memory required for data: 30020
I0720 14:29:10.447572 21108 layer_factory.hpp:77] Creating layer lstm2_W_xc_x_slice
I0720 14:29:10.448513 21108 net.cpp:91] Creating Layer lstm2_W_xc_x_slice
I0720 14:29:10.448537 21108 net.cpp:425] lstm2_W_xc_x_slice <- W_xc_x
I0720 14:29:10.448551 21108 net.cpp:399] lstm2_W_xc_x_slice -> W_xc_x_1
I0720 14:29:10.448585 21108 net.cpp:141] Setting up lstm2_W_xc_x_slice
I0720 14:29:10.448595 21108 net.cpp:148] Top shape: 1 1 4000 (4000)
I0720 14:29:10.448599 21108 net.cpp:156] Memory required for data: 46020
I0720 14:29:10.448604 21108 layer_factory.hpp:77] Creating layer lstm2_h_conted_0
I0720 14:29:10.448616 21108 net.cpp:91] Creating Layer lstm2_h_conted_0
I0720 14:29:10.448621 21108 net.cpp:425] lstm2_h_conted_0 <- h_0
I0720 14:29:10.448626 21108 net.cpp:425] lstm2_h_conted_0 <- cont_1_lstm2_cont_slice_0_split_0
I0720 14:29:10.448634 21108 net.cpp:399] lstm2_h_conted_0 -> h_conted_0
I0720 14:29:10.449729 21108 net.cpp:141] Setting up lstm2_h_conted_0
I0720 14:29:10.449759 21108 net.cpp:148] Top shape: 1 1 1000 (1000)
I0720 14:29:10.449764 21108 net.cpp:156] Memory required for data: 50020
I0720 14:29:10.449770 21108 layer_factory.hpp:77] Creating layer lstm2_transform_1
I0720 14:29:10.449789 21108 net.cpp:91] Creating Layer lstm2_transform_1
I0720 14:29:10.449795 21108 net.cpp:425] lstm2_transform_1 <- h_conted_0
I0720 14:29:10.449803 21108 net.cpp:399] lstm2_transform_1 -> W_hc_h_0
I0720 14:29:10.473122 21116 net.cpp:141] Setting up lstm2_transform_1
I0720 14:29:10.473183 21116 net.cpp:148] Top shape: 1 1 4000 (4000)
I0720 14:29:10.473193 21116 net.cpp:156] Memory required for data: 66020
I0720 14:29:10.473217 21116 layer_factory.hpp:77] Creating layer lstm2_gate_input_1
I0720 14:29:10.473618 21095 net.cpp:141] Setting up lstm2_transform_1
I0720 14:29:10.473651 21095 net.cpp:148] Top shape: 1 1 4000 (4000)
I0720 14:29:10.473672 21095 net.cpp:156] Memory required for data: 66020
I0720 14:29:10.473706 21095 layer_factory.hpp:77] Creating layer lstm2_gate_input_1
I0720 14:29:10.474212 21116 net.cpp:91] Creating Layer lstm2_gate_input_1
I0720 14:29:10.474215 21095 net.cpp:91] Creating Layer lstm2_gate_input_1
I0720 14:29:10.474262 21095 net.cpp:425] lstm2_gate_input_1 <- W_hc_h_0
I0720 14:29:10.474279 21095 net.cpp:425] lstm2_gate_input_1 <- W_xc_x_1
I0720 14:29:10.474298 21095 net.cpp:399] lstm2_gate_input_1 -> gate_input_1
I0720 14:29:10.474328 21095 net.cpp:141] Setting up lstm2_gate_input_1
I0720 14:29:10.474349 21095 net.cpp:148] Top shape: 1 1 4000 (4000)
I0720 14:29:10.474359 21095 net.cpp:156] Memory required for data: 82020
I0720 14:29:10.474371 21095 layer_factory.hpp:77] Creating layer lstm2_unit_1
I0720 14:29:10.474387 21095 net.cpp:91] Creating Layer lstm2_unit_1
I0720 14:29:10.474398 21095 net.cpp:425] lstm2_unit_1 <- c_0
I0720 14:29:10.474411 21095 net.cpp:425] lstm2_unit_1 <- gate_input_1
I0720 14:29:10.474423 21095 net.cpp:425] lstm2_unit_1 <- cont_1_lstm2_cont_slice_0_split_1
I0720 14:29:10.474437 21095 net.cpp:399] lstm2_unit_1 -> c_1
I0720 14:29:10.474455 21095 net.cpp:399] lstm2_unit_1 -> h_1
I0720 14:29:10.474477 21095 net.cpp:141] Setting up lstm2_unit_1
I0720 14:29:10.474490 21095 net.cpp:148] Top shape: 1 1 1000 (1000)
I0720 14:29:10.474503 21095 net.cpp:148] Top shape: 1 1 1000 (1000)
I0720 14:29:10.474512 21095 net.cpp:156] Memory required for data: 90020
I0720 14:29:10.474522 21095 layer_factory.hpp:77] Creating layer lstm2_
I0720 14:29:10.474808 21095 net.cpp:91] Creating Layer lstm2_
I0720 14:29:10.474840 21095 net.cpp:425] lstm2_ <- c_1
I0720 14:29:10.474870 21095 net.cpp:399] lstm2_ -> c_T
I0720 14:29:10.474892 21095 net.cpp:141] Setting up lstm2_
I0720 14:29:10.474907 21095 net.cpp:148] Top shape: 1 1 1000 (1000)
I0720 14:29:10.474916 21095 net.cpp:156] Memory required for data: 94020
I0720 14:29:10.474927 21095 layer_factory.hpp:77] Creating layer lstm2_h_concat
I0720 14:29:10.474944 21095 net.cpp:91] Creating Layer lstm2_h_concat
I0720 14:29:10.474953 21095 net.cpp:425] lstm2_h_concat <- h_1
I0720 14:29:10.474968 21095 net.cpp:399] lstm2_h_concat -> h
I0720 14:29:10.474990 21095 net.cpp:141] Setting up lstm2_h_concat
I0720 14:29:10.475004 21095 net.cpp:148] Top shape: 1 1 1000 (1000)
I0720 14:29:10.475013 21095 net.cpp:156] Memory required for data: 98020
I0720 14:29:10.475023 21095 layer_factory.hpp:77] Creating layer h_pseudoloss
I0720 14:29:10.475914 21095 net.cpp:91] Creating Layer h_pseudoloss
I0720 14:29:10.475942 21095 net.cpp:425] h_pseudoloss <- h
I0720 14:29:10.475961 21095 net.cpp:399] h_pseudoloss -> h_pseudoloss
I0720 14:29:10.476974 21095 net.cpp:141] Setting up h_pseudoloss
…
I0720 14:29:10.477195 21095 net.cpp:219] lstm2_ does not need backward computation.
I0720 14:29:10.477205 21095 net.cpp:261] This network produces output c_T
I0720 14:29:10.477216 21095 net.cpp:261] This network produces output h_pseudoloss
I0720 14:29:10.478021 21095 net.cpp:274] Network initialization done.
I0720 14:29:10.478137 21095 recurrent_layer.cpp:150] Adding parameter 0: W_xc
I0720 14:29:10.478152 21095 recurrent_layer.cpp:150] Adding parameter 1: b_c
I0720 14:29:10.478162 21095 recurrent_layer.cpp:150] Adding parameter 2: W_hc
I0720 14:29:10.478250 21095 net.cpp:141] Setting up lstm2
I0720 14:29:10.478269 21095 net.cpp:148] Top shape: 1 1 1000 (1000)
I0720 14:29:10.478279 21095 net.cpp:156] Memory required for data: 36412
I0720 14:29:10.478308 21095 layer_factory.hpp:77] Creating layer predict
I0720 14:29:10.478334 21095 net.cpp:91] Creating Layer predict
I0720 14:29:10.478346 21095 net.cpp:425] predict <- lstm2
I0720 14:29:10.478363 21095 net.cpp:399] predict -> predict
I0720 14:29:10.474239 21116 net.cpp:425] lstm2_gate_input_1 <- W_hc_h_0
I0720 14:29:10.479060 21116 net.cpp:425] lstm2_gate_input_1 <- W_xc_x_1
I0720 14:29:10.479081 21116 net.cpp:399] lstm2_gate_input_1 -> gate_input_1
I0720 14:29:10.479101 21116 net.cpp:141] Setting up lstm2_gate_input_1
I0720 14:29:10.479810 21116 net.cpp:148] Top shape: 1 1 4000 (4000)
I0720 14:29:10.479828 21116 net.cpp:156] Memory required for data: 82020
I0720 14:29:10.479837 21116 layer_factory.hpp:77] Creating layer lstm2_unit_1
I0720 14:29:10.479852 21116 net.cpp:91] Creating Layer lstm2_unit_1
I0720 14:29:10.479861 21116 net.cpp:425] lstm2_unit_1 <- c_0
I0720 14:29:10.479871 21116 net.cpp:425] lstm2_unit_1 <- gate_input_1
I0720 14:29:10.479881 21116 net.cpp:425] lstm2_unit_1 <- cont_1_lstm2_cont_slice_0_split_1
I0720 14:29:10.479892 21116 net.cpp:399] lstm2_unit_1 -> c_1
I0720 14:29:10.479907 21116 net.cpp:399] lstm2_unit_1 -> h_1
I0720 14:29:10.479923 21116 net.cpp:141] Setting up lstm2_unit_1
I0720 14:29:10.479934 21116 net.cpp:148] Top shape: 1 1 1000 (1000)
I0720 14:29:10.479944 21116 net.cpp:148] Top shape: 1 1 1000 (1000)
I0720 14:29:10.479950 21116 net.cpp:156] Memory required for data: 90020
I0720 14:29:10.479959 21116 layer_factory.hpp:77] Creating layer lstm2_
I0720 14:29:10.480861 21116 net.cpp:91] Creating Layer lstm2_
I0720 14:29:10.480880 21116 net.cpp:425] lstm2_ <- c_1
I0720 14:29:10.480893 21116 net.cpp:399] lstm2_ -> c_T
I0720 14:29:10.480909 21116 net.cpp:141] Setting up lstm2_
I0720 14:29:10.481384 21116 net.cpp:148] Top shape: 1 1 1000 (1000)
I0720 14:29:10.481400 21116 net.cpp:156] Memory required for data: 94020
I0720 14:29:10.481408 21116 layer_factory.hpp:77] Creating layer lstm2_h_concat
I0720 14:29:10.481423 21116 net.cpp:91] Creating Layer lstm2_h_concat
I0720 14:29:10.481431 21116 net.cpp:425] lstm2_h_concat <- h_1
I0720 14:29:10.481443 21116 net.cpp:399] lstm2_h_concat -> h
I0720 14:29:10.481462 21116 net.cpp:141] Setting up lstm2_h_concat
I0720 14:29:10.481474 21116 net.cpp:148] Top shape: 1 1 1000 (1000)
I0720 14:29:10.481482 21116 net.cpp:156] Memory required for data: 98020
I0720 14:29:10.481488 21116 layer_factory.hpp:77] Creating layer h_pseudoloss
I0720 14:29:10.481999 21116 net.cpp:91] Creating Layer h_pseudoloss
I0720 14:29:10.482014 21116 net.cpp:425] h_pseudoloss <- h
I0720 14:29:10.482028 21116 net.cpp:399] h_pseudoloss -> h_pseudoloss
I0720 14:29:10.482072 21116 net.cpp:141] Setting up h_pseudoloss
…
I0720 14:29:10.482218 21116 net.cpp:219] lstm2_ does not need backward computation.
I0720 14:29:10.482225 21116 net.cpp:261] This network produces output c_T
I0720 14:29:10.482233 21116 net.cpp:261] This network produces output h_pseudoloss
I0720 14:29:10.483094 21116 net.cpp:274] Network initialization done.
I0720 14:29:10.483173 21116 recurrent_layer.cpp:150] Adding parameter 0: W_xc
I0720 14:29:10.483184 21116 recurrent_layer.cpp:150] Adding parameter 1: b_c
I0720 14:29:10.483191 21116 recurrent_layer.cpp:150] Adding parameter 2: W_hc
I0720 14:29:10.483253 21116 net.cpp:141] Setting up lstm2
I0720 14:29:10.483268 21116 net.cpp:148] Top shape: 1 1 1000 (1000)
I0720 14:29:10.483274 21116 net.cpp:156] Memory required for data: 36412
I0720 14:29:10.483296 21116 layer_factory.hpp:77] Creating layer predict
I0720 14:29:10.483314 21116 net.cpp:91] Creating Layer predict
I0720 14:29:10.483325 21116 net.cpp:425] predict <- lstm2
I0720 14:29:10.483336 21116 net.cpp:399] predict -> predict
I0720 14:29:10.486508 21103 net.cpp:141] Setting up lstm2_transform_1
I0720 14:29:10.486593 21103 net.cpp:148] Top shape: 1 1 4000 (4000)
I0720 14:29:10.486609 21103 net.cpp:156] Memory required for data: 66020
I0720 14:29:10.486639 21103 layer_factory.hpp:77] Creating layer lstm2_gate_input_1
I0720 14:29:10.487231 21103 net.cpp:91] Creating Layer lstm2_gate_input_1
I0720 14:29:10.487257 21103 net.cpp:425] lstm2_gate_input_1 <- W_hc_h_0
I0720 14:29:10.487272 21103 net.cpp:425] lstm2_gate_input_1 <- W_xc_x_1
I0720 14:29:10.487292 21103 net.cpp:399] lstm2_gate_input_1 -> gate_input_1
I0720 14:29:10.487319 21103 net.cpp:141] Setting up lstm2_gate_input_1
I0720 14:29:10.487783 21103 net.cpp:148] Top shape: 1 1 4000 (4000)
I0720 14:29:10.487817 21103 net.cpp:156] Memory required for data: 82020
I0720 14:29:10.487839 21103 layer_factory.hpp:77] Creating layer lstm2_unit_1
I0720 14:29:10.487862 21103 net.cpp:91] Creating Layer lstm2_unit_1
I0720 14:29:10.487872 21103 net.cpp:425] lstm2_unit_1 <- c_0
I0720 14:29:10.487879 21103 net.cpp:425] lstm2_unit_1 <- gate_input_1
I0720 14:29:10.487884 21103 net.cpp:425] lstm2_unit_1 <- cont_1_lstm2_cont_slice_0_split_1
I0720 14:29:10.487891 21103 net.cpp:399] lstm2_unit_1 -> c_1
I0720 14:29:10.487900 21103 net.cpp:399] lstm2_unit_1 -> h_1
I0720 14:29:10.487911 21103 net.cpp:141] Setting up lstm2_unit_1
I0720 14:29:10.487918 21103 net.cpp:148] Top shape: 1 1 1000 (1000)
I0720 14:29:10.487923 21103 net.cpp:148] Top shape: 1 1 1000 (1000)
I0720 14:29:10.487927 21103 net.cpp:156] Memory required for data: 90020
I0720 14:29:10.487931 21103 layer_factory.hpp:77] Creating layer lstm2_
I0720 14:29:10.488682 21105 net.cpp:141] Setting up lstm2_transform_1
I0720 14:29:10.488737 21105 net.cpp:148] Top shape: 1 1 4000 (4000)
I0720 14:29:10.488746 21105 net.cpp:156] Memory required for data: 66020
I0720 14:29:10.488778 21105 layer_factory.hpp:77] Creating layer lstm2_gate_input_1
I0720 14:29:10.488819 21105 net.cpp:91] Creating Layer lstm2_gate_input_1
I0720 14:29:10.488832 21105 net.cpp:425] lstm2_gate_input_1 <- W_hc_h_0
I0720 14:29:10.488854 21105 net.cpp:425] lstm2_gate_input_1 <- W_xc_x_1
I0720 14:29:10.489799 21103 net.cpp:91] Creating Layer lstm2_
I0720 14:29:10.489836 21103 net.cpp:425] lstm2_ <- c_1
I0720 14:29:10.489858 21103 net.cpp:399] lstm2_ -> c_T
I0720 14:29:10.490326 21105 net.cpp:399] lstm2_gate_input_1 -> gate_input_1
I0720 14:29:10.490346 21103 net.cpp:141] Setting up lstm2_
I0720 14:29:10.490382 21103 net.cpp:148] Top shape: 1 1 1000 (1000)
I0720 14:29:10.490391 21103 net.cpp:156] Memory required for data: 94020
I0720 14:29:10.490399 21103 layer_factory.hpp:77] Creating layer lstm2_h_concat
I0720 14:29:10.490403 21105 net.cpp:141] Setting up lstm2_gate_input_1
I0720 14:29:10.490414 21103 net.cpp:91] Creating Layer lstm2_h_concat
I0720 14:29:10.490422 21105 net.cpp:148] Top shape: 1 1 4000 (4000)
I0720 14:29:10.490423 21103 net.cpp:425] lstm2_h_concat <- h_1
I0720 14:29:10.490427 21105 net.cpp:156] Memory required for data: 82020
I0720 14:29:10.490434 21105 layer_factory.hpp:77] Creating layer lstm2_unit_1
I0720 14:29:10.490437 21103 net.cpp:399] lstm2_h_concat -> h
I0720 14:29:10.490447 21105 net.cpp:91] Creating Layer lstm2_unit_1
I0720 14:29:10.490453 21105 net.cpp:425] lstm2_unit_1 <- c_0
I0720 14:29:10.490455 21103 net.cpp:141] Setting up lstm2_h_concat
I0720 14:29:10.490460 21105 net.cpp:425] lstm2_unit_1 <- gate_input_1
I0720 14:29:10.490466 21103 net.cpp:148] Top shape: 1 1 1000 (1000)
I0720 14:29:10.490468 21105 net.cpp:425] lstm2_unit_1 <- cont_1_lstm2_cont_slice_0_split_1
I0720 14:29:10.490478 21103 net.cpp:156] Memory required for data: 98020
I0720 14:29:10.490485 21103 layer_factory.hpp:77] Creating layer h_pseudoloss
I0720 14:29:10.490881 21105 net.cpp:399] lstm2_unit_1 -> c_1
I0720 14:29:10.490916 21105 net.cpp:399] lstm2_unit_1 -> h_1
I0720 14:29:10.490939 21105 net.cpp:141] Setting up lstm2_unit_1
I0720 14:29:10.490955 21105 net.cpp:148] Top shape: 1 1 1000 (1000)
I0720 14:29:10.490967 21105 net.cpp:148] Top shape: 1 1 1000 (1000)
I0720 14:29:10.490977 21105 net.cpp:156] Memory required for data: 90020
I0720 14:29:10.490988 21105 layer_factory.hpp:77] Creating layer lstm2_
I0720 14:29:10.491003 21105 net.cpp:91] Creating Layer lstm2_
I0720 14:29:10.491011 21105 net.cpp:425] lstm2_ <- c_1
I0720 14:29:10.491909 21103 net.cpp:91] Creating Layer h_pseudoloss
I0720 14:29:10.491911 21105 net.cpp:399] lstm2_ -> c_T
I0720 14:29:10.491936 21103 net.cpp:425] h_pseudoloss <- h
I0720 14:29:10.491973 21103 net.cpp:399] h_pseudoloss -> h_pseudoloss
I0720 14:29:10.491978 21105 net.cpp:141] Setting up lstm2_
I0720 14:29:10.491997 21105 net.cpp:148] Top shape: 1 1 1000 (1000)
I0720 14:29:10.492007 21105 net.cpp:156] Memory required for data: 94020
I0720 14:29:10.492017 21105 layer_factory.hpp:77] Creating layer lstm2_h_concat
I0720 14:29:10.492036 21105 net.cpp:91] Creating Layer lstm2_h_concat
I0720 14:29:10.492046 21105 net.cpp:425] lstm2_h_concat <- h_1
I0720 14:29:10.492614 21105 net.cpp:399] lstm2_h_concat -> h
I0720 14:29:10.492650 21105 net.cpp:141] Setting up lstm2_h_concat
I0720 14:29:10.492665 21105 net.cpp:148] Top shape: 1 1 1000 (1000)
I0720 14:29:10.492673 21105 net.cpp:156] Memory required for data: 98020
I0720 14:29:10.492682 21105 layer_factory.hpp:77] Creating layer h_pseudoloss
I0720 14:29:10.492702 21105 net.cpp:91] Creating Layer h_pseudoloss
I0720 14:29:10.492712 21105 net.cpp:425] h_pseudoloss <- h
I0720 14:29:10.492727 21105 net.cpp:399] h_pseudoloss -> h_pseudoloss
I0720 14:29:10.493136 21103 net.cpp:141] Setting up h_pseudoloss
…
I0720 14:29:10.493494 21105 net.cpp:219] lstm2_ does not need backward computation.
I0720 14:29:10.493505 21105 net.cpp:261] This network produces output c_T
I0720 14:29:10.493516 21105 net.cpp:261] This network produces output h_pseudoloss
I0720 14:29:10.493542 21105 net.cpp:274] Network initialization done.
I0720 14:29:10.493654 21105 recurrent_layer.cpp:150] Adding parameter 0: W_xc
I0720 14:29:10.493669 21105 recurrent_layer.cpp:150] Adding parameter 1: b_c
I0720 14:29:10.493677 21105 recurrent_layer.cpp:150] Adding parameter 2: W_hc
I0720 14:29:10.493777 21105 net.cpp:141] Setting up lstm2
I0720 14:29:10.493793 21105 net.cpp:148] Top shape: 1 1 1000 (1000)
I0720 14:29:10.493803 21105 net.cpp:156] Memory required for data: 36412
I0720 14:29:10.493834 21103 net.cpp:274] Network initialization done.
I0720 14:29:10.493837 21105 layer_factory.hpp:77] Creating layer predict
I0720 14:29:10.493876 21105 net.cpp:91] Creating Layer predict
I0720 14:29:10.493898 21105 net.cpp:425] predict <- lstm2
I0720 14:29:10.493919 21103 recurrent_layer.cpp:150] Adding parameter 0: W_xc
I0720 14:29:10.493929 21103 recurrent_layer.cpp:150] Adding parameter 1: b_c
I0720 14:29:10.493927 21105 net.cpp:399] predict -> predict
I0720 14:29:10.493937 21103 recurrent_layer.cpp:150] Adding parameter 2: W_hc
I0720 14:29:10.494006 21103 net.cpp:141] Setting up lstm2
I0720 14:29:10.494020 21103 net.cpp:148] Top shape: 1 1 1000 (1000)
I0720 14:29:10.494026 21103 net.cpp:156] Memory required for data: 36412
I0720 14:29:10.494048 21103 layer_factory.hpp:77] Creating layer predict
I0720 14:29:10.494067 21103 net.cpp:91] Creating Layer predict
I0720 14:29:10.494076 21103 net.cpp:425] predict <- lstm2
I0720 14:29:10.494088 21103 net.cpp:399] predict -> predict
I0720 14:29:10.501466 21108 net.cpp:141] Setting up lstm2_transform_1
I0720 14:29:10.501530 21108 net.cpp:148] Top shape: 1 1 4000 (4000)
I0720 14:29:10.501536 21108 net.cpp:156] Memory required for data: 66020
I0720 14:29:10.501559 21108 layer_factory.hpp:77] Creating layer lstm2_gate_input_1
I0720 14:29:10.502737 21108 net.cpp:91] Creating Layer lstm2_gate_input_1
I0720 14:29:10.502787 21108 net.cpp:425] lstm2_gate_input_1 <- W_hc_h_0
I0720 14:29:10.502810 21108 net.cpp:425] lstm2_gate_input_1 <- W_xc_x_1
I0720 14:29:10.502831 21108 net.cpp:399] lstm2_gate_input_1 -> gate_input_1
I0720 14:29:10.502866 21108 net.cpp:141] Setting up lstm2_gate_input_1
I0720 14:29:10.503550 21108 net.cpp:148] Top shape: 1 1 4000 (4000)
I0720 14:29:10.503569 21108 net.cpp:156] Memory required for data: 82020
I0720 14:29:10.503583 21108 layer_factory.hpp:77] Creating layer lstm2_unit_1
I0720 14:29:10.503605 21108 net.cpp:91] Creating Layer lstm2_unit_1
I0720 14:29:10.503618 21108 net.cpp:425] lstm2_unit_1 <- c_0
I0720 14:29:10.503631 21108 net.cpp:425] lstm2_unit_1 <- gate_input_1
I0720 14:29:10.503641 21108 net.cpp:425] lstm2_unit_1 <- cont_1_lstm2_cont_slice_0_split_1
I0720 14:29:10.503656 21108 net.cpp:399] lstm2_unit_1 -> c_1
I0720 14:29:10.503676 21108 net.cpp:399] lstm2_unit_1 -> h_1
I0720 14:29:10.503700 21108 net.cpp:141] Setting up lstm2_unit_1
I0720 14:29:10.503716 21108 net.cpp:148] Top shape: 1 1 1000 (1000)
I0720 14:29:10.503728 21108 net.cpp:148] Top shape: 1 1 1000 (1000)
I0720 14:29:10.503736 21108 net.cpp:156] Memory required for data: 90020
I0720 14:29:10.503746 21108 layer_factory.hpp:77] Creating layer lstm2_
I0720 14:29:10.504101 21108 net.cpp:91] Creating Layer lstm2_
I0720 14:29:10.504117 21108 net.cpp:425] lstm2_ <- c_1
I0720 14:29:10.504129 21108 net.cpp:399] lstm2_ -> c_T
I0720 14:29:10.504148 21108 net.cpp:141] Setting up lstm2_
I0720 14:29:10.504951 21108 net.cpp:148] Top shape: 1 1 1000 (1000)
I0720 14:29:10.504971 21108 net.cpp:156] Memory required for data: 94020
I0720 14:29:10.504981 21108 layer_factory.hpp:77] Creating layer lstm2_h_concat
I0720 14:29:10.505000 21108 net.cpp:91] Creating Layer lstm2_h_concat
I0720 14:29:10.505012 21108 net.cpp:425] lstm2_h_concat <- h_1
I0720 14:29:10.505024 21108 net.cpp:399] lstm2_h_concat -> h
I0720 14:29:10.505051 21108 net.cpp:141] Setting up lstm2_h_concat
I0720 14:29:10.505066 21108 net.cpp:148] Top shape: 1 1 1000 (1000)
I0720 14:29:10.505074 21108 net.cpp:156] Memory required for data: 98020
I0720 14:29:10.505081 21108 layer_factory.hpp:77] Creating layer h_pseudoloss
I0720 14:29:10.505470 21108 net.cpp:91] Creating Layer h_pseudoloss
I0720 14:29:10.505486 21108 net.cpp:425] h_pseudoloss <- h
I0720 14:29:10.505502 21108 net.cpp:399] h_pseudoloss -> h_pseudoloss
I0720 14:29:10.506865 21108 net.cpp:141] Setting up h_pseudoloss
…
I0720 14:29:10.507063 21108 net.cpp:219] lstm2_ does not need backward computation.
I0720 14:29:10.507071 21108 net.cpp:261] This network produces output c_T
I0720 14:29:10.507079 21108 net.cpp:261] This network produces output h_pseudoloss
I0720 14:29:10.508194 21108 net.cpp:274] Network initialization done.
I0720 14:29:10.508316 21108 recurrent_layer.cpp:150] Adding parameter 0: W_xc
I0720 14:29:10.508337 21108 recurrent_layer.cpp:150] Adding parameter 1: b_c
I0720 14:29:10.508347 21108 recurrent_layer.cpp:150] Adding parameter 2: W_hc
I0720 14:29:10.508440 21108 net.cpp:141] Setting up lstm2
I0720 14:29:10.508463 21108 net.cpp:148] Top shape: 1 1 1000 (1000)
I0720 14:29:10.508473 21108 net.cpp:156] Memory required for data: 36412
I0720 14:29:10.508504 21108 layer_factory.hpp:77] Creating layer predict
I0720 14:29:10.508538 21108 net.cpp:91] Creating Layer predict
I0720 14:29:10.508553 21108 net.cpp:425] predict <- lstm2
I0720 14:29:10.508572 21108 net.cpp:399] predict -> predict
I0720 14:29:10.772212 21101 net.cpp:141] Setting up conv1
I0720 14:29:10.772274 21101 net.cpp:148] Top shape: 10 96 55 55 (2904000)
I0720 14:29:10.772280 21101 net.cpp:156] Memory required for data: 17799480
I0720 14:29:10.772307 21101 layer_factory.hpp:77] Creating layer relu1
I0720 14:29:10.772330 21101 net.cpp:91] Creating Layer relu1
I0720 14:29:10.772336 21101 net.cpp:425] relu1 <- conv1
I0720 14:29:10.772346 21101 net.cpp:386] relu1 -> conv1 (in-place)
I0720 14:29:10.773222 21101 net.cpp:141] Setting up relu1
I0720 14:29:10.773239 21101 net.cpp:148] Top shape: 10 96 55 55 (2904000)
I0720 14:29:10.773244 21101 net.cpp:156] Memory required for data: 29415480
I0720 14:29:10.773249 21101 layer_factory.hpp:77] Creating layer pool1
I0720 14:29:10.773264 21101 net.cpp:91] Creating Layer pool1
I0720 14:29:10.773269 21101 net.cpp:425] pool1 <- conv1
I0720 14:29:10.773279 21101 net.cpp:399] pool1 -> pool1
I0720 14:29:10.773363 21101 net.cpp:141] Setting up pool1
I0720 14:29:10.773373 21101 net.cpp:148] Top shape: 10 96 27 27 (699840)
I0720 14:29:10.773378 21101 net.cpp:156] Memory required for data: 32214840
I0720 14:29:10.773382 21101 layer_factory.hpp:77] Creating layer norm1
I0720 14:29:10.773401 21101 net.cpp:91] Creating Layer norm1
I0720 14:29:10.773406 21101 net.cpp:425] norm1 <- pool1
I0720 14:29:10.773414 21101 net.cpp:399] norm1 -> norm1
I0720 14:29:10.774226 21101 net.cpp:141] Setting up norm1
I0720 14:29:10.774243 21101 net.cpp:148] Top shape: 10 96 27 27 (699840)
I0720 14:29:10.774248 21101 net.cpp:156] Memory required for data: 35014200
I0720 14:29:10.774255 21101 layer_factory.hpp:77] Creating layer conv2
I0720 14:29:10.774273 21101 net.cpp:91] Creating Layer conv2
I0720 14:29:10.774278 21101 net.cpp:425] conv2 <- norm1
I0720 14:29:10.774286 21101 net.cpp:399] conv2 -> conv2
I0720 14:29:10.778231 21093 net.cpp:141] Setting up predict
I0720 14:29:10.778280 21093 net.cpp:148] Top shape: 1 1 46168 (46168)
I0720 14:29:10.778288 21093 net.cpp:156] Memory required for data: 221084
I0720 14:29:10.778306 21093 layer_factory.hpp:77] Creating layer probs
I0720 14:29:10.778326 21093 net.cpp:91] Creating Layer probs
I0720 14:29:10.778334 21093 net.cpp:425] probs <- predict
I0720 14:29:10.778348 21093 net.cpp:399] probs -> probs
I0720 14:29:10.781349 21101 net.cpp:141] Setting up conv2
I0720 14:29:10.781388 21101 net.cpp:148] Top shape: 10 256 27 27 (1866240)
I0720 14:29:10.781394 21101 net.cpp:156] Memory required for data: 42479160
I0720 14:29:10.781422 21101 layer_factory.hpp:77] Creating layer relu2
I0720 14:29:10.781440 21101 net.cpp:91] Creating Layer relu2
I0720 14:29:10.781445 21101 net.cpp:425] relu2 <- conv2
I0720 14:29:10.781456 21101 net.cpp:386] relu2 -> conv2 (in-place)
I0720 14:29:10.781497 21093 net.cpp:141] Setting up probs
I0720 14:29:10.781514 21093 net.cpp:148] Top shape: 1 1 46168 (46168)
I0720 14:29:10.781522 21093 net.cpp:156] Memory required for data: 405756
I0720 14:29:10.781528 21093 net.cpp:219] probs does not need backward computation.
I0720 14:29:10.781536 21093 net.cpp:219] predict does not need backward computation.
I0720 14:29:10.781543 21093 net.cpp:219] lstm2 does not need backward computation.
I0720 14:29:10.781551 21093 net.cpp:219] concat does not need backward computation.
I0720 14:29:10.781559 21093 net.cpp:219] lstm1 does not need backward computation.
I0720 14:29:10.781568 21093 net.cpp:219] embedding does not need backward computation.
I0720 14:29:10.781574 21093 net.cpp:219] reshape_stage_indicator does not need backward computation.
I0720 14:29:10.781581 21093 net.cpp:219] reshape_frames does not need backward computation.
I0720 14:29:10.781589 21093 net.cpp:219] embed_encoder does not need backward computation.
I0720 14:29:10.781595 21093 net.cpp:219] cont_sentence_input_1_split does not need backward computation.
I0720 14:29:10.781604 21093 net.cpp:219] input does not need backward computation.
I0720 14:29:10.781610 21093 net.cpp:261] This network produces output probs
I0720 14:29:10.781633 21093 net.cpp:274] Network initialization done.
I0720 14:29:10.781715 21101 net.cpp:141] Setting up relu2
I0720 14:29:10.781728 21101 net.cpp:148] Top shape: 10 256 27 27 (1866240)
I0720 14:29:10.781731 21101 net.cpp:156] Memory required for data: 49944120
I0720 14:29:10.781736 21101 layer_factory.hpp:77] Creating layer pool2
I0720 14:29:10.781750 21101 net.cpp:91] Creating Layer pool2
I0720 14:29:10.781755 21101 net.cpp:425] pool2 <- conv2
I0720 14:29:10.781762 21101 net.cpp:399] pool2 -> pool2
I0720 14:29:10.781826 21101 net.cpp:141] Setting up pool2
I0720 14:29:10.781834 21101 net.cpp:148] Top shape: 10 256 13 13 (432640)
I0720 14:29:10.781838 21101 net.cpp:156] Memory required for data: 51674680
I0720 14:29:10.781842 21101 layer_factory.hpp:77] Creating layer norm2
I0720 14:29:10.781857 21101 net.cpp:91] Creating Layer norm2
I0720 14:29:10.781862 21101 net.cpp:425] norm2 <- pool2
I0720 14:29:10.781869 21101 net.cpp:399] norm2 -> norm2
I0720 14:29:10.782666 21101 net.cpp:141] Setting up norm2
I0720 14:29:10.782680 21101 net.cpp:148] Top shape: 10 256 13 13 (432640)
I0720 14:29:10.782685 21101 net.cpp:156] Memory required for data: 53405240
I0720 14:29:10.782699 21101 layer_factory.hpp:77] Creating layer conv3
I0720 14:29:10.782716 21101 net.cpp:91] Creating Layer conv3
I0720 14:29:10.782721 21101 net.cpp:425] conv3 <- norm2
I0720 14:29:10.782742 21101 net.cpp:399] conv3 -> conv3
I0720 14:29:10.788175 21101 net.cpp:141] Setting up conv3
I0720 14:29:10.788225 21101 net.cpp:148] Top shape: 10 384 13 13 (648960)
I0720 14:29:10.788231 21101 net.cpp:156] Memory required for data: 56001080
I0720 14:29:10.788257 21101 layer_factory.hpp:77] Creating layer relu3
I0720 14:29:10.788277 21101 net.cpp:91] Creating Layer relu3
I0720 14:29:10.788283 21101 net.cpp:425] relu3 <- conv3
I0720 14:29:10.788295 21101 net.cpp:386] relu3 -> conv3 (in-place)
I0720 14:29:10.788525 21101 net.cpp:141] Setting up relu3
I0720 14:29:10.788537 21101 net.cpp:148] Top shape: 10 384 13 13 (648960)
I0720 14:29:10.788542 21101 net.cpp:156] Memory required for data: 58596920
I0720 14:29:10.788547 21101 layer_factory.hpp:77] Creating layer conv4
I0720 14:29:10.788565 21101 net.cpp:91] Creating Layer conv4
I0720 14:29:10.788571 21101 net.cpp:425] conv4 <- conv3
I0720 14:29:10.788585 21101 net.cpp:399] conv4 -> conv4
I0720 14:29:10.798267 21101 net.cpp:141] Setting up conv4
I0720 14:29:10.798326 21101 net.cpp:148] Top shape: 10 384 13 13 (648960)
I0720 14:29:10.798333 21101 net.cpp:156] Memory required for data: 61192760
I0720 14:29:10.798352 21101 layer_factory.hpp:77] Creating layer relu4
I0720 14:29:10.798373 21101 net.cpp:91] Creating Layer relu4
I0720 14:29:10.798380 21101 net.cpp:425] relu4 <- conv4
I0720 14:29:10.798393 21101 net.cpp:386] relu4 -> conv4 (in-place)
I0720 14:29:10.798634 21101 net.cpp:141] Setting up relu4
I0720 14:29:10.798645 21101 net.cpp:148] Top shape: 10 384 13 13 (648960)
I0720 14:29:10.798650 21101 net.cpp:156] Memory required for data: 63788600
I0720 14:29:10.798655 21101 layer_factory.hpp:77] Creating layer conv5
I0720 14:29:10.799191 21101 net.cpp:91] Creating Layer conv5
I0720 14:29:10.799207 21101 net.cpp:425] conv5 <- conv4
I0720 14:29:10.799221 21101 net.cpp:399] conv5 -> conv5
I0720 14:29:10.808167 21101 net.cpp:141] Setting up conv5
I0720 14:29:10.808223 21101 net.cpp:148] Top shape: 10 256 13 13 (432640)
I0720 14:29:10.808228 21101 net.cpp:156] Memory required for data: 65519160
I0720 14:29:10.808254 21101 layer_factory.hpp:77] Creating layer relu5
I0720 14:29:10.808274 21101 net.cpp:91] Creating Layer relu5
I0720 14:29:10.808280 21101 net.cpp:425] relu5 <- conv5
I0720 14:29:10.808295 21101 net.cpp:386] relu5 -> conv5 (in-place)
I0720 14:29:10.808984 21101 net.cpp:141] Setting up relu5
I0720 14:29:10.809000 21101 net.cpp:148] Top shape: 10 256 13 13 (432640)
I0720 14:29:10.809003 21101 net.cpp:156] Memory required for data: 67249720
I0720 14:29:10.809010 21101 layer_factory.hpp:77] Creating layer pool5
I0720 14:29:10.809020 21101 net.cpp:91] Creating Layer pool5
I0720 14:29:10.809026 21101 net.cpp:425] pool5 <- conv5
I0720 14:29:10.809033 21101 net.cpp:399] pool5 -> pool5
I0720 14:29:10.809103 21101 net.cpp:141] Setting up pool5
I0720 14:29:10.809113 21101 net.cpp:148] Top shape: 10 256 6 6 (92160)
I0720 14:29:10.809118 21101 net.cpp:156] Memory required for data: 67618360
I0720 14:29:10.809121 21101 layer_factory.hpp:77] Creating layer fc6
I0720 14:29:10.809139 21101 net.cpp:91] Creating Layer fc6
I0720 14:29:10.809144 21101 net.cpp:425] fc6 <- pool5
I0720 14:29:10.809151 21101 net.cpp:399] fc6 -> fc6
I0720 14:29:10.874125 21089 net.cpp:141] Setting up predict
I0720 14:29:10.874179 21089 net.cpp:148] Top shape: 1 1 46168 (46168)
I0720 14:29:10.874187 21089 net.cpp:156] Memory required for data: 221084
I0720 14:29:10.874208 21089 layer_factory.hpp:77] Creating layer probs
I0720 14:29:10.874231 21089 net.cpp:91] Creating Layer probs
I0720 14:29:10.874241 21089 net.cpp:425] probs <- predict
I0720 14:29:10.874256 21089 net.cpp:399] probs -> probs
I0720 14:29:10.882280 21089 net.cpp:141] Setting up probs
I0720 14:29:10.882640 21089 net.cpp:148] Top shape: 1 1 46168 (46168)
I0720 14:29:10.882794 21089 net.cpp:156] Memory required for data: 405756
I0720 14:29:10.882916 21089 net.cpp:219] probs does not need backward computation.
I0720 14:29:10.883018 21089 net.cpp:219] predict does not need backward computation.
I0720 14:29:10.883157 21089 net.cpp:219] lstm2 does not need backward computation.
I0720 14:29:10.883256 21089 net.cpp:219] concat does not need backward computation.
I0720 14:29:10.883363 21089 net.cpp:219] lstm1 does not need backward computation.
I0720 14:29:10.883465 21089 net.cpp:219] embedding does not need backward computation.
I0720 14:29:10.883563 21089 net.cpp:219] reshape_stage_indicator does not need backward computation.
I0720 14:29:10.883662 21089 net.cpp:219] reshape_frames does not need backward computation.
I0720 14:29:10.883762 21089 net.cpp:219] embed_encoder does not need backward computation.
I0720 14:29:10.883860 21089 net.cpp:219] cont_sentence_input_1_split does not need backward computation.
I0720 14:29:10.883960 21089 net.cpp:219] input does not need backward computation.
I0720 14:29:10.884068 21089 net.cpp:261] This network produces output probs
I0720 14:29:10.884238 21089 net.cpp:274] Network initialization done.
I0720 14:29:10.903931 21122 net.cpp:141] Setting up predict
I0720 14:29:10.903976 21122 net.cpp:148] Top shape: 1 1 46168 (46168)
I0720 14:29:10.903985 21122 net.cpp:156] Memory required for data: 221084
I0720 14:29:10.904005 21122 layer_factory.hpp:77] Creating layer probs
I0720 14:29:10.904026 21122 net.cpp:91] Creating Layer probs
I0720 14:29:10.904037 21122 net.cpp:425] probs <- predict
I0720 14:29:10.904052 21122 net.cpp:399] probs -> probs
I0720 14:29:10.905402 21122 net.cpp:141] Setting up probs
I0720 14:29:10.905429 21122 net.cpp:148] Top shape: 1 1 46168 (46168)
I0720 14:29:10.905439 21122 net.cpp:156] Memory required for data: 405756
I0720 14:29:10.905452 21122 net.cpp:219] probs does not need backward computation.
I0720 14:29:10.905460 21122 net.cpp:219] predict does not need backward computation.
I0720 14:29:10.905469 21122 net.cpp:219] lstm2 does not need backward computation.
I0720 14:29:10.905478 21122 net.cpp:219] concat does not need backward computation.
I0720 14:29:10.905488 21122 net.cpp:219] lstm1 does not need backward computation.
I0720 14:29:10.905498 21122 net.cpp:219] embedding does not need backward computation.
I0720 14:29:10.905506 21122 net.cpp:219] reshape_stage_indicator does not need backward computation.
I0720 14:29:10.905515 21122 net.cpp:219] reshape_frames does not need backward computation.
I0720 14:29:10.905524 21122 net.cpp:219] embed_encoder does not need backward computation.
I0720 14:29:10.905539 21122 net.cpp:219] cont_sentence_input_1_split does not need backward computation.
I0720 14:29:10.905549 21122 net.cpp:219] input does not need backward computation.
I0720 14:29:10.905556 21122 net.cpp:261] This network produces output probs
I0720 14:29:10.905578 21122 net.cpp:274] Network initialization done.
I0720 14:29:10.917831 21101 net.cpp:141] Setting up fc6
I0720 14:29:10.917894 21101 net.cpp:148] Top shape: 10 4096 (40960)
I0720 14:29:10.917903 21101 net.cpp:156] Memory required for data: 67782200
I0720 14:29:10.917925 21101 layer_factory.hpp:77] Creating layer relu6
I0720 14:29:10.917948 21101 net.cpp:91] Creating Layer relu6
I0720 14:29:10.917958 21101 net.cpp:425] relu6 <- fc6
I0720 14:29:10.917975 21101 net.cpp:386] relu6 -> fc6 (in-place)
I0720 14:29:10.920948 21101 net.cpp:141] Setting up relu6
I0720 14:29:10.920979 21101 net.cpp:148] Top shape: 10 4096 (40960)
I0720 14:29:10.920986 21101 net.cpp:156] Memory required for data: 67946040
I0720 14:29:10.920996 21101 layer_factory.hpp:77] Creating layer drop6
I0720 14:29:10.921013 21101 net.cpp:91] Creating Layer drop6
I0720 14:29:10.921021 21101 net.cpp:425] drop6 <- fc6
I0720 14:29:10.921492 21101 net.cpp:386] drop6 -> fc6 (in-place)
I0720 14:29:10.921579 21101 net.cpp:141] Setting up drop6
I0720 14:29:10.921591 21101 net.cpp:148] Top shape: 10 4096 (40960)
I0720 14:29:10.921598 21101 net.cpp:156] Memory required for data: 68109880
I0720 14:29:10.921605 21101 layer_factory.hpp:77] Creating layer fc7
I0720 14:29:10.921620 21101 net.cpp:91] Creating Layer fc7
I0720 14:29:10.921627 21101 net.cpp:425] fc7 <- fc6
I0720 14:29:10.921638 21101 net.cpp:399] fc7 -> fc7
I0720 14:29:10.958312 21095 net.cpp:141] Setting up predict
I0720 14:29:10.958312 21118 net.cpp:141] Setting up predict
I0720 14:29:10.958318 21097 net.cpp:141] Setting up predict
I0720 14:29:10.958379 21118 net.cpp:148] Top shape: 1 1 46168 (46168)
I0720 14:29:10.958358 21095 net.cpp:148] Top shape: 1 1 46168 (46168)
I0720 14:29:10.958389 21118 net.cpp:156] Memory required for data: 221084
I0720 14:29:10.958397 21095 net.cpp:156] Memory required for data: 221084
I0720 14:29:10.958392 21097 net.cpp:148] Top shape: 1 1 46168 (46168)
I0720 14:29:10.958413 21097 net.cpp:156] Memory required for data: 221084
I0720 14:29:10.958417 21118 layer_factory.hpp:77] Creating layer probs
I0720 14:29:10.958416 21095 layer_factory.hpp:77] Creating layer probs
I0720 14:29:10.958436 21097 layer_factory.hpp:77] Creating layer probs
I0720 14:29:10.958439 21118 net.cpp:91] Creating Layer probs
I0720 14:29:10.958439 21095 net.cpp:91] Creating Layer probs
I0720 14:29:10.958449 21118 net.cpp:425] probs <- predict
I0720 14:29:10.958453 21095 net.cpp:425] probs <- predict
I0720 14:29:10.958456 21097 net.cpp:91] Creating Layer probs
I0720 14:29:10.958461 21118 net.cpp:399] probs -> probs
I0720 14:29:10.958465 21095 net.cpp:399] probs -> probs
I0720 14:29:10.958465 21097 net.cpp:425] probs <- predict
I0720 14:29:10.958478 21097 net.cpp:399] probs -> probs
I0720 14:29:10.965041 21108 net.cpp:141] Setting up predict
I0720 14:29:10.965123 21108 net.cpp:148] Top shape: 1 1 46168 (46168)
I0720 14:29:10.965142 21108 net.cpp:156] Memory required for data: 221084
I0720 14:29:10.965178 21108 layer_factory.hpp:77] Creating layer probs
I0720 14:29:10.965216 21108 net.cpp:91] Creating Layer probs
I0720 14:29:10.965236 21108 net.cpp:425] probs <- predict
I0720 14:29:10.965262 21108 net.cpp:399] probs -> probs
I0720 14:29:10.968011 21118 net.cpp:141] Setting up probs
I0720 14:29:10.968080 21118 net.cpp:148] Top shape: 1 1 46168 (46168)
I0720 14:29:10.968091 21118 net.cpp:156] Memory required for data: 405756
I0720 14:29:10.968106 21118 net.cpp:219] probs does not need backward computation.
I0720 14:29:10.968117 21118 net.cpp:219] predict does not need backward computation.
I0720 14:29:10.968127 21118 net.cpp:219] lstm2 does not need backward computation.
I0720 14:29:10.968137 21118 net.cpp:219] concat does not need backward computation.
I0720 14:29:10.968147 21118 net.cpp:219] lstm1 does not need backward computation.
I0720 14:29:10.968156 21118 net.cpp:219] embedding does not need backward computation.
I0720 14:29:10.968166 21118 net.cpp:219] reshape_stage_indicator does not need backward computation.
I0720 14:29:10.968175 21118 net.cpp:219] reshape_frames does not need backward computation.
I0720 14:29:10.968183 21118 net.cpp:219] embed_encoder does not need backward computation.
I0720 14:29:10.968191 21118 net.cpp:219] cont_sentence_input_1_split does not need backward computation.
I0720 14:29:10.968199 21118 net.cpp:219] input does not need backward computation.
I0720 14:29:10.968206 21118 net.cpp:261] This network produces output probs
I0720 14:29:10.968250 21118 net.cpp:274] Network initialization done.
I0720 14:29:10.968832 21095 net.cpp:141] Setting up probs
I0720 14:29:10.968890 21095 net.cpp:148] Top shape: 1 1 46168 (46168)
I0720 14:29:10.968901 21095 net.cpp:156] Memory required for data: 405756
I0720 14:29:10.968914 21095 net.cpp:219] probs does not need backward computation.
I0720 14:29:10.968921 21095 net.cpp:219] predict does not need backward computation.
I0720 14:29:10.968926 21095 net.cpp:219] lstm2 does not need backward computation.
I0720 14:29:10.968932 21095 net.cpp:219] concat does not need backward computation.
I0720 14:29:10.968938 21095 net.cpp:219] lstm1 does not need backward computation.
I0720 14:29:10.968943 21095 net.cpp:219] embedding does not need backward computation.
I0720 14:29:10.968948 21095 net.cpp:219] reshape_stage_indicator does not need backward computation.
I0720 14:29:10.968953 21095 net.cpp:219] reshape_frames does not need backward computation.
I0720 14:29:10.968958 21095 net.cpp:219] embed_encoder does not need backward computation.
I0720 14:29:10.968963 21095 net.cpp:219] cont_sentence_input_1_split does not need backward computation.
I0720 14:29:10.968968 21095 net.cpp:219] input does not need backward computation.
I0720 14:29:10.968971 21095 net.cpp:261] This network produces output probs
I0720 14:29:10.968987 21095 net.cpp:274] Network initialization done.
I0720 14:29:10.969007 21097 net.cpp:141] Setting up probs
I0720 14:29:10.969027 21097 net.cpp:148] Top shape: 1 1 46168 (46168)
I0720 14:29:10.969035 21097 net.cpp:156] Memory required for data: 405756
I0720 14:29:10.969044 21097 net.cpp:219] probs does not need backward computation.
I0720 14:29:10.969053 21097 net.cpp:219] predict does not need backward computation.
I0720 14:29:10.969060 21097 net.cpp:219] lstm2 does not need backward computation.
I0720 14:29:10.969069 21097 net.cpp:219] concat does not need backward computation.
I0720 14:29:10.969077 21097 net.cpp:219] lstm1 does not need backward computation.
I0720 14:29:10.969085 21097 net.cpp:219] embedding does not need backward computation.
I0720 14:29:10.969094 21097 net.cpp:219] reshape_stage_indicator does not need backward computation.
I0720 14:29:10.969101 21097 net.cpp:219] reshape_frames does not need backward computation.
I0720 14:29:10.969110 21097 net.cpp:219] embed_encoder does not need backward computation.
I0720 14:29:10.969116 21097 net.cpp:219] cont_sentence_input_1_split does not need backward computation.
I0720 14:29:10.969125 21097 net.cpp:219] input does not need backward computation.
I0720 14:29:10.969130 21097 net.cpp:261] This network produces output probs
I0720 14:29:10.969156 21097 net.cpp:274] Network initialization done.
I0720 14:29:10.970235 21108 net.cpp:141] Setting up probs
I0720 14:29:10.970288 21108 net.cpp:148] Top shape: 1 1 46168 (46168)
I0720 14:29:10.970304 21108 net.cpp:156] Memory required for data: 405756
I0720 14:29:10.970321 21108 net.cpp:219] probs does not need backward computation.
I0720 14:29:10.970338 21108 net.cpp:219] predict does not need backward computation.
I0720 14:29:10.970353 21108 net.cpp:219] lstm2 does not need backward computation.
I0720 14:29:10.970371 21108 net.cpp:219] concat does not need backward computation.
I0720 14:29:10.970386 21108 net.cpp:219] lstm1 does not need backward computation.
I0720 14:29:10.970402 21108 net.cpp:219] embedding does not need backward computation.
I0720 14:29:10.970418 21108 net.cpp:219] reshape_stage_indicator does not need backward computation.
I0720 14:29:10.970440 21108 net.cpp:219] reshape_frames does not need backward computation.
I0720 14:29:10.970456 21108 net.cpp:219] embed_encoder does not need backward computation.
I0720 14:29:10.970471 21108 net.cpp:219] cont_sentence_input_1_split does not need backward computation.
I0720 14:29:10.970487 21108 net.cpp:219] input does not need backward computation.
I0720 14:29:10.970499 21108 net.cpp:261] This network produces output probs
I0720 14:29:10.970530 21108 net.cpp:274] Network initialization done.
I0720 14:29:10.980346 21116 net.cpp:141] Setting up predict
I0720 14:29:10.980412 21116 net.cpp:148] Top shape: 1 1 46168 (46168)
I0720 14:29:10.980418 21116 net.cpp:156] Memory required for data: 221084
I0720 14:29:10.980437 21116 layer_factory.hpp:77] Creating layer probs
I0720 14:29:10.980455 21116 net.cpp:91] Creating Layer probs
I0720 14:29:10.980464 21116 net.cpp:425] probs <- predict
I0720 14:29:10.980478 21116 net.cpp:399] probs -> probs
I0720 14:29:10.984062 21101 net.cpp:141] Setting up fc7
I0720 14:29:10.984124 21101 net.cpp:148] Top shape: 10 4096 (40960)
I0720 14:29:10.984136 21101 net.cpp:156] Memory required for data: 68273720
I0720 14:29:10.984163 21101 layer_factory.hpp:77] Creating layer relu7
I0720 14:29:10.985071 21101 net.cpp:91] Creating Layer relu7
I0720 14:29:10.985097 21101 net.cpp:425] relu7 <- fc7
I0720 14:29:10.985118 21101 net.cpp:386] relu7 -> fc7 (in-place)
I0720 14:29:10.985601 21116 net.cpp:141] Setting up probs
I0720 14:29:10.985630 21116 net.cpp:148] Top shape: 1 1 46168 (46168)
I0720 14:29:10.985640 21116 net.cpp:156] Memory required for data: 405756
I0720 14:29:10.985651 21116 net.cpp:219] probs does not need backward computation.
I0720 14:29:10.985662 21116 net.cpp:219] predict does not need backward computation.
I0720 14:29:10.985671 21116 net.cpp:219] lstm2 does not need backward computation.
I0720 14:29:10.985682 21116 net.cpp:219] concat does not need backward computation.
I0720 14:29:10.985693 21116 net.cpp:219] lstm1 does not need backward computation.
I0720 14:29:10.985705 21116 net.cpp:219] embedding does not need backward computation.
I0720 14:29:10.985716 21116 net.cpp:219] reshape_stage_indicator does not need backward computation.
I0720 14:29:10.985726 21116 net.cpp:219] reshape_frames does not need backward computation.
I0720 14:29:10.985736 21116 net.cpp:219] embed_encoder does not need backward computation.
I0720 14:29:10.985746 21116 net.cpp:219] cont_sentence_input_1_split does not need backward computation.
I0720 14:29:10.985756 21116 net.cpp:219] input does not need backward computation.
I0720 14:29:10.985765 21116 net.cpp:261] This network produces output probs
I0720 14:29:10.986143 21116 net.cpp:274] Network initialization done.
I0720 14:29:10.987185 21101 net.cpp:141] Setting up relu7
I0720 14:29:10.987215 21101 net.cpp:148] Top shape: 10 4096 (40960)
I0720 14:29:10.987226 21101 net.cpp:156] Memory required for data: 68437560
I0720 14:29:10.987237 21101 layer_factory.hpp:77] Creating layer drop7
I0720 14:29:10.987262 21101 net.cpp:91] Creating Layer drop7
I0720 14:29:10.987273 21101 net.cpp:425] drop7 <- fc7
I0720 14:29:10.987691 21101 net.cpp:386] drop7 -> fc7 (in-place)
I0720 14:29:10.987813 21101 net.cpp:141] Setting up drop7
I0720 14:29:10.987829 21101 net.cpp:148] Top shape: 10 4096 (40960)
I0720 14:29:10.987838 21101 net.cpp:156] Memory required for data: 68601400
I0720 14:29:10.987844 21101 layer_factory.hpp:77] Creating layer fc8
I0720 14:29:10.987861 21101 net.cpp:91] Creating Layer fc8
I0720 14:29:10.987893 21101 net.cpp:425] fc8 <- fc7
I0720 14:29:10.987906 21101 net.cpp:399] fc8 -> fc8
I0720 14:29:10.998983 21103 net.cpp:141] Setting up predict
I0720 14:29:10.999035 21103 net.cpp:148] Top shape: 1 1 46168 (46168)
I0720 14:29:10.999042 21103 net.cpp:156] Memory required for data: 221084
I0720 14:29:10.999059 21103 layer_factory.hpp:77] Creating layer probs
I0720 14:29:10.999079 21103 net.cpp:91] Creating Layer probs
I0720 14:29:10.999088 21103 net.cpp:425] probs <- predict
I0720 14:29:10.999099 21103 net.cpp:399] probs -> probs
I0720 14:29:11.007244 21103 net.cpp:141] Setting up probs
I0720 14:29:11.007299 21103 net.cpp:148] Top shape: 1 1 46168 (46168)
I0720 14:29:11.007308 21103 net.cpp:156] Memory required for data: 405756
I0720 14:29:11.007323 21103 net.cpp:219] probs does not need backward computation.
I0720 14:29:11.007333 21103 net.cpp:219] predict does not need backward computation.
I0720 14:29:11.007344 21103 net.cpp:219] lstm2 does not need backward computation.
I0720 14:29:11.007352 21103 net.cpp:219] concat does not need backward computation.
I0720 14:29:11.007361 21103 net.cpp:219] lstm1 does not need backward computation.
I0720 14:29:11.007369 21103 net.cpp:219] embedding does not need backward computation.
I0720 14:29:11.007376 21103 net.cpp:219] reshape_stage_indicator does not need backward computation.
I0720 14:29:11.007385 21103 net.cpp:219] reshape_frames does not need backward computation.
I0720 14:29:11.007392 21103 net.cpp:219] embed_encoder does not need backward computation.
I0720 14:29:11.007400 21103 net.cpp:219] cont_sentence_input_1_split does not need backward computation.
I0720 14:29:11.007410 21103 net.cpp:219] input does not need backward computation.
I0720 14:29:11.007414 21103 net.cpp:261] This network produces output probs
I0720 14:29:11.008033 21103 net.cpp:274] Network initialization done.
I0720 14:29:11.008713 21101 net.cpp:141] Setting up fc8
I0720 14:29:11.008770 21101 net.cpp:148] Top shape: 10 1000 (10000)
I0720 14:29:11.008781 21101 net.cpp:156] Memory required for data: 68641400
I0720 14:29:11.008807 21101 layer_factory.hpp:77] Creating layer prob
I0720 14:29:11.009289 21101 net.cpp:91] Creating Layer prob
I0720 14:29:11.009305 21101 net.cpp:425] prob <- fc8
I0720 14:29:11.009330 21101 net.cpp:399] prob -> prob
I0720 14:29:11.015991 21101 net.cpp:141] Setting up prob
I0720 14:29:11.016062 21101 net.cpp:148] Top shape: 10 1000 (10000)
I0720 14:29:11.016074 21101 net.cpp:156] Memory required for data: 68681400
I0720 14:29:11.016089 21101 net.cpp:219] prob does not need backward computation.
I0720 14:29:11.016101 21101 net.cpp:219] fc8 does not need backward computation.
I0720 14:29:11.016109 21101 net.cpp:219] drop7 does not need backward computation.
I0720 14:29:11.016116 21101 net.cpp:219] relu7 does not need backward computation.
…
