…
2016-07-31 23:29:12.206 STDERR [INFO] I0731 23:29:12.187609 24566 net.cpp:91] Creating Layer input
2016-07-31 23:29:12.206 STDERR [INFO] I0731 23:29:12.187618 24566 net.cpp:399] input -> frames_fc7
2016-07-31 23:29:12.206 STDERR [INFO] I0731 23:29:12.187638 24566 net.cpp:399] input -> cont_sentence
2016-07-31 23:29:12.206 STDERR [INFO] I0731 23:29:12.187647 24566 net.cpp:399] input -> input_sentence
2016-07-31 23:29:12.206 STDERR [INFO] I0731 23:29:12.187656 24566 net.cpp:399] input -> stage_indicator
2016-07-31 23:29:12.206 STDERR [INFO] I0731 23:29:12.190385 24566 net.cpp:141] Setting up input
2016-07-31 23:29:12.206 STDERR [INFO] I0731 23:29:12.190407 24566 net.cpp:148] Top shape: 1 4096 (4096)
2016-07-31 23:29:12.206 STDERR [INFO] I0731 23:29:12.190412 24566 net.cpp:148] Top shape: 1 1 (1)
2016-07-31 23:29:12.207 STDERR [INFO] I0731 23:29:12.190418 24566 net.cpp:148] Top shape: 1 1 (1)
2016-07-31 23:29:12.207 STDERR [INFO] I0731 23:29:12.190423 24566 net.cpp:148] Top shape: 1 1 (1)
2016-07-31 23:29:12.207 STDERR [INFO] I0731 23:29:12.190428 24566 net.cpp:156] Memory required for data: 16396
2016-07-31 23:29:12.207 STDERR [INFO] I0731 23:29:12.190433 24566 layer_factory.hpp:77] Creating layer cont_sentence_input_1_split
2016-07-31 23:29:12.207 STDERR [INFO] I0731 23:29:12.190453 24566 net.cpp:91] Creating Layer cont_sentence_input_1_split
2016-07-31 23:29:12.207 STDERR [INFO] I0731 23:29:12.190457 24566 net.cpp:425] cont_sentence_input_1_split <- cont_sentence
2016-07-31 23:29:12.207 STDERR [INFO] I0731 23:29:12.190479 24566 net.cpp:399] cont_sentence_input_1_split -> cont_sentence_input_1_split_0
2016-07-31 23:29:12.207 STDERR [INFO] I0731 23:29:12.190490 24566 net.cpp:399] cont_sentence_input_1_split -> cont_sentence_input_1_split_1
2016-07-31 23:29:12.207 STDERR [INFO] I0731 23:29:12.190853 24566 net.cpp:141] Setting up cont_sentence_input_1_split
2016-07-31 23:29:12.207 STDERR [INFO] I0731 23:29:12.190863 24566 net.cpp:148] Top shape: 1 1 (1)
2016-07-31 23:29:12.207 STDERR [INFO] I0731 23:29:12.190868 24566 net.cpp:148] Top shape: 1 1 (1)
2016-07-31 23:29:12.207 STDERR [INFO] I0731 23:29:12.190872 24566 net.cpp:156] Memory required for data: 16404
2016-07-31 23:29:12.208 STDERR [INFO] I0731 23:29:12.190877 24566 layer_factory.hpp:77] Creating layer embed_encoder
2016-07-31 23:29:12.208 STDERR [INFO] I0731 23:29:12.190896 24566 net.cpp:91] Creating Layer embed_encoder
2016-07-31 23:29:12.208 STDERR [INFO] I0731 23:29:12.190901 24566 net.cpp:425] embed_encoder <- frames_fc7
…
2016-07-31 23:29:12.217 n.t.s.b.CVParticleBolt [INFO] [Timing] RequestID: 0 StreamID: home/peifeng/work/data/frame.320x240.jpg SequenceNr: 122 Leaving scale: 1470022152217 Size: 3530
2016-07-31 23:29:12.218 n.t.s.b.CVParticleBolt [INFO] [Timing] RequestID: 0 StreamID: home/peifeng/work/data/frame.320x240.jpg SequenceNr: 123 Entering scale: 1470022152218
2016-07-31 23:29:12.222 n.t.s.b.CVParticleBolt [INFO] [Timing] RequestID: 0 StreamID: home/peifeng/work/data/frame.320x240.jpg SequenceNr: 123 Leaving scale: 1470022152222 Size: 3530
2016-07-31 23:29:12.223 STDERR [INFO] I0731 23:29:12.222834 24566 net.cpp:141] Setting up embed_encoder
2016-07-31 23:29:12.223 STDERR [INFO] I0731 23:29:12.222882 24566 net.cpp:148] Top shape: 1 500 (500)
2016-07-31 23:29:12.223 STDERR [INFO] I0731 23:29:12.222887 24566 net.cpp:156] Memory required for data: 18404
2016-07-31 23:29:12.223 STDERR [INFO] I0731 23:29:12.222918 24566 layer_factory.hpp:77] Creating layer reshape_frames
2016-07-31 23:29:12.223 STDERR [INFO] I0731 23:29:12.222947 24566 net.cpp:91] Creating Layer reshape_frames
2016-07-31 23:29:12.223 STDERR [INFO] I0731 23:29:12.222955 24566 net.cpp:425] reshape_frames <- embedded_in_frames
2016-07-31 23:29:12.223 STDERR [INFO] I0731 23:29:12.222967 24566 net.cpp:399] reshape_frames -> embedded_input_frames
2016-07-31 23:29:12.223 STDERR [INFO] I0731 23:29:12.223033 24566 net.cpp:141] Setting up reshape_frames
2016-07-31 23:29:12.223 STDERR [INFO] I0731 23:29:12.223043 24566 net.cpp:148] Top shape: 1 1 500 (500)
2016-07-31 23:29:12.224 STDERR [INFO] I0731 23:29:12.223047 24566 net.cpp:156] Memory required for data: 20404
2016-07-31 23:29:12.224 STDERR [INFO] I0731 23:29:12.223052 24566 layer_factory.hpp:77] Creating layer reshape_stage_indicator
2016-07-31 23:29:12.224 STDERR [INFO] I0731 23:29:12.223062 24566 net.cpp:91] Creating Layer reshape_stage_indicator
2016-07-31 23:29:12.224 STDERR [INFO] I0731 23:29:12.223067 24566 net.cpp:425] reshape_stage_indicator <- stage_indicator
2016-07-31 23:29:12.224 STDERR [INFO] I0731 23:29:12.223080 24566 net.cpp:399] reshape_stage_indicator -> reshaped_stage_indicator
2016-07-31 23:29:12.224 STDERR [INFO] I0731 23:29:12.223116 24566 net.cpp:141] Setting up reshape_stage_indicator
2016-07-31 23:29:12.224 STDERR [INFO] I0731 23:29:12.223125 24566 net.cpp:148] Top shape: 1 1 1 (1)
2016-07-31 23:29:12.224 STDERR [INFO] I0731 23:29:12.223129 24566 net.cpp:156] Memory required for data: 20408
2016-07-31 23:29:12.224 STDERR [INFO] I0731 23:29:12.223134 24566 layer_factory.hpp:77] Creating layer embedding
2016-07-31 23:29:12.225 STDERR [INFO] I0731 23:29:12.223146 24566 net.cpp:91] Creating Layer embedding
2016-07-31 23:29:12.225 STDERR [INFO] I0731 23:29:12.223150 24566 net.cpp:425] embedding <- input_sentence
2016-07-31 23:29:12.225 STDERR [INFO] I0731 23:29:12.223158 24566 net.cpp:399] embedding -> embedded_input_sentence
2016-07-31 23:29:12.330 STDERR [INFO] I0731 23:29:12.330296 24576 net.cpp:141] Setting up conv1
2016-07-31 23:29:12.330 STDERR [INFO] I0731 23:29:12.330345 24576 net.cpp:148] Top shape: 10 96 55 55 (2904000)
2016-07-31 23:29:12.331 STDERR [INFO] I0731 23:29:12.330353 24576 net.cpp:156] Memory required for data: 17799480
2016-07-31 23:29:12.331 STDERR [INFO] I0731 23:29:12.330376 24576 layer_factory.hpp:77] Creating layer relu1
2016-07-31 23:29:12.331 STDERR [INFO] I0731 23:29:12.330394 24576 net.cpp:91] Creating Layer relu1
2016-07-31 23:29:12.331 STDERR [INFO] I0731 23:29:12.330401 24576 net.cpp:425] relu1 <- conv1
2016-07-31 23:29:12.331 STDERR [INFO] I0731 23:29:12.330420 24576 net.cpp:386] relu1 -> conv1 (in-place)
2016-07-31 23:29:12.331 STDERR [INFO] I0731 23:29:12.330953 24576 net.cpp:141] Setting up relu1
2016-07-31 23:29:12.331 STDERR [INFO] I0731 23:29:12.330968 24576 net.cpp:148] Top shape: 10 96 55 55 (2904000)
2016-07-31 23:29:12.331 STDERR [INFO] I0731 23:29:12.330973 24576 net.cpp:156] Memory required for data: 29415480
2016-07-31 23:29:12.331 STDERR [INFO] I0731 23:29:12.330979 24576 layer_factory.hpp:77] Creating layer pool1
2016-07-31 23:29:12.331 STDERR [INFO] I0731 23:29:12.330992 24576 net.cpp:91] Creating Layer pool1
2016-07-31 23:29:12.332 STDERR [INFO] I0731 23:29:12.330997 24576 net.cpp:425] pool1 <- conv1
2016-07-31 23:29:12.332 STDERR [INFO] I0731 23:29:12.331006 24576 net.cpp:399] pool1 -> pool1
2016-07-31 23:29:12.332 STDERR [INFO] I0731 23:29:12.331076 24576 net.cpp:141] Setting up pool1
2016-07-31 23:29:12.332 STDERR [INFO] I0731 23:29:12.331087 24576 net.cpp:148] Top shape: 10 96 27 27 (699840)
2016-07-31 23:29:12.332 STDERR [INFO] I0731 23:29:12.331092 24576 net.cpp:156] Memory required for data: 32214840
2016-07-31 23:29:12.332 STDERR [INFO] I0731 23:29:12.331097 24576 layer_factory.hpp:77] Creating layer norm1
2016-07-31 23:29:12.332 STDERR [INFO] I0731 23:29:12.331115 24576 net.cpp:91] Creating Layer norm1
2016-07-31 23:29:12.332 STDERR [INFO] I0731 23:29:12.331120 24576 net.cpp:425] norm1 <- pool1
2016-07-31 23:29:12.332 STDERR [INFO] I0731 23:29:12.331127 24576 net.cpp:399] norm1 -> norm1
2016-07-31 23:29:12.332 STDERR [INFO] I0731 23:29:12.331720 24576 net.cpp:141] Setting up norm1
2016-07-31 23:29:12.333 STDERR [INFO] I0731 23:29:12.331735 24576 net.cpp:148] Top shape: 10 96 27 27 (699840)
2016-07-31 23:29:12.333 STDERR [INFO] I0731 23:29:12.331742 24576 net.cpp:156] Memory required for data: 35014200
2016-07-31 23:29:12.333 STDERR [INFO] I0731 23:29:12.331750 24576 layer_factory.hpp:77] Creating layer conv2
2016-07-31 23:29:12.333 STDERR [INFO] I0731 23:29:12.331768 24576 net.cpp:91] Creating Layer conv2
2016-07-31 23:29:12.333 STDERR [INFO] I0731 23:29:12.331774 24576 net.cpp:425] conv2 <- norm1
2016-07-31 23:29:12.333 STDERR [INFO] I0731 23:29:12.331782 24576 net.cpp:399] conv2 -> conv2
2016-07-31 23:29:12.335 STDERR [INFO] I0731 23:29:12.335572 24576 net.cpp:141] Setting up conv2
2016-07-31 23:29:12.335 STDERR [INFO] I0731 23:29:12.335593 24576 net.cpp:148] Top shape: 10 256 27 27 (1866240)
2016-07-31 23:29:12.335 STDERR [INFO] I0731 23:29:12.335599 24576 net.cpp:156] Memory required for data: 42479160
2016-07-31 23:29:12.336 STDERR [INFO] I0731 23:29:12.335613 24576 layer_factory.hpp:77] Creating layer relu2
2016-07-31 23:29:12.336 STDERR [INFO] I0731 23:29:12.335626 24576 net.cpp:91] Creating Layer relu2
2016-07-31 23:29:12.336 STDERR [INFO] I0731 23:29:12.335633 24576 net.cpp:425] relu2 <- conv2
2016-07-31 23:29:12.336 STDERR [INFO] I0731 23:29:12.335639 24576 net.cpp:386] relu2 -> conv2 (in-place)
2016-07-31 23:29:12.336 STDERR [INFO] I0731 23:29:12.336210 24576 net.cpp:141] Setting up relu2
2016-07-31 23:29:12.336 STDERR [INFO] I0731 23:29:12.336223 24576 net.cpp:148] Top shape: 10 256 27 27 (1866240)
2016-07-31 23:29:12.336 STDERR [INFO] I0731 23:29:12.336228 24576 net.cpp:156] Memory required for data: 49944120
2016-07-31 23:29:12.336 STDERR [INFO] I0731 23:29:12.336235 24576 layer_factory.hpp:77] Creating layer pool2
2016-07-31 23:29:12.336 STDERR [INFO] I0731 23:29:12.336247 24576 net.cpp:91] Creating Layer pool2
2016-07-31 23:29:12.336 STDERR [INFO] I0731 23:29:12.336253 24576 net.cpp:425] pool2 <- conv2
2016-07-31 23:29:12.337 STDERR [INFO] I0731 23:29:12.336262 24576 net.cpp:399] pool2 -> pool2
2016-07-31 23:29:12.337 STDERR [INFO] I0731 23:29:12.336323 24576 net.cpp:141] Setting up pool2
2016-07-31 23:29:12.337 STDERR [INFO] I0731 23:29:12.336333 24576 net.cpp:148] Top shape: 10 256 13 13 (432640)
2016-07-31 23:29:12.337 STDERR [INFO] I0731 23:29:12.336338 24576 net.cpp:156] Memory required for data: 51674680
2016-07-31 23:29:12.337 STDERR [INFO] I0731 23:29:12.336343 24576 layer_factory.hpp:77] Creating layer norm2
2016-07-31 23:29:12.337 STDERR [INFO] I0731 23:29:12.336354 24576 net.cpp:91] Creating Layer norm2
2016-07-31 23:29:12.337 STDERR [INFO] I0731 23:29:12.336360 24576 net.cpp:425] norm2 <- pool2
2016-07-31 23:29:12.337 STDERR [INFO] I0731 23:29:12.336367 24576 net.cpp:399] norm2 -> norm2
2016-07-31 23:29:12.337 STDERR [INFO] I0731 23:29:12.336655 24576 net.cpp:141] Setting up norm2
2016-07-31 23:29:12.337 STDERR [INFO] I0731 23:29:12.336668 24576 net.cpp:148] Top shape: 10 256 13 13 (432640)
2016-07-31 23:29:12.338 STDERR [INFO] I0731 23:29:12.336673 24576 net.cpp:156] Memory required for data: 53405240
2016-07-31 23:29:12.338 STDERR [INFO] I0731 23:29:12.336678 24576 layer_factory.hpp:77] Creating layer conv3
2016-07-31 23:29:12.338 STDERR [INFO] I0731 23:29:12.336694 24576 net.cpp:91] Creating Layer conv3
2016-07-31 23:29:12.338 STDERR [INFO] I0731 23:29:12.336699 24576 net.cpp:425] conv3 <- norm2
2016-07-31 23:29:12.338 STDERR [INFO] I0731 23:29:12.336706 24576 net.cpp:399] conv3 -> conv3
2016-07-31 23:29:12.341 STDERR [INFO] I0731 23:29:12.341120 24576 net.cpp:141] Setting up conv3
2016-07-31 23:29:12.341 STDERR [INFO] I0731 23:29:12.341140 24576 net.cpp:148] Top shape: 10 384 13 13 (648960)
2016-07-31 23:29:12.341 STDERR [INFO] I0731 23:29:12.341146 24576 net.cpp:156] Memory required for data: 56001080
2016-07-31 23:29:12.341 STDERR [INFO] I0731 23:29:12.341161 24576 layer_factory.hpp:77] Creating layer relu3
2016-07-31 23:29:12.341 STDERR [INFO] I0731 23:29:12.341177 24576 net.cpp:91] Creating Layer relu3
2016-07-31 23:29:12.341 STDERR [INFO] I0731 23:29:12.341183 24576 net.cpp:425] relu3 <- conv3
2016-07-31 23:29:12.341 STDERR [INFO] I0731 23:29:12.341190 24576 net.cpp:386] relu3 -> conv3 (in-place)
2016-07-31 23:29:12.342 STDERR [INFO] I0731 23:29:12.341791 24576 net.cpp:141] Setting up relu3
2016-07-31 23:29:12.342 STDERR [INFO] I0731 23:29:12.341805 24576 net.cpp:148] Top shape: 10 384 13 13 (648960)
2016-07-31 23:29:12.342 STDERR [INFO] I0731 23:29:12.341810 24576 net.cpp:156] Memory required for data: 58596920
2016-07-31 23:29:12.342 STDERR [INFO] I0731 23:29:12.341816 24576 layer_factory.hpp:77] Creating layer conv4
2016-07-31 23:29:12.342 STDERR [INFO] I0731 23:29:12.341830 24576 net.cpp:91] Creating Layer conv4
2016-07-31 23:29:12.342 STDERR [INFO] I0731 23:29:12.341836 24576 net.cpp:425] conv4 <- conv3
2016-07-31 23:29:12.342 STDERR [INFO] I0731 23:29:12.341846 24576 net.cpp:399] conv4 -> conv4
2016-07-31 23:29:12.346 STDERR [INFO] I0731 23:29:12.346642 24576 net.cpp:141] Setting up conv4
2016-07-31 23:29:12.347 STDERR [INFO] I0731 23:29:12.346665 24576 net.cpp:148] Top shape: 10 384 13 13 (648960)
2016-07-31 23:29:12.347 STDERR [INFO] I0731 23:29:12.346671 24576 net.cpp:156] Memory required for data: 61192760
2016-07-31 23:29:12.347 STDERR [INFO] I0731 23:29:12.346681 24576 layer_factory.hpp:77] Creating layer relu4
2016-07-31 23:29:12.347 STDERR [INFO] I0731 23:29:12.346690 24576 net.cpp:91] Creating Layer relu4
2016-07-31 23:29:12.347 STDERR [INFO] I0731 23:29:12.346695 24576 net.cpp:425] relu4 <- conv4
2016-07-31 23:29:12.347 STDERR [INFO] I0731 23:29:12.346704 24576 net.cpp:386] relu4 -> conv4 (in-place)
2016-07-31 23:29:12.347 STDERR [INFO] I0731 23:29:12.347256 24576 net.cpp:141] Setting up relu4
2016-07-31 23:29:12.347 STDERR [INFO] I0731 23:29:12.347270 24576 net.cpp:148] Top shape: 10 384 13 13 (648960)
2016-07-31 23:29:12.347 STDERR [INFO] I0731 23:29:12.347275 24576 net.cpp:156] Memory required for data: 63788600
2016-07-31 23:29:12.347 STDERR [INFO] I0731 23:29:12.347281 24576 layer_factory.hpp:77] Creating layer conv5
2016-07-31 23:29:12.348 STDERR [INFO] I0731 23:29:12.347293 24576 net.cpp:91] Creating Layer conv5
2016-07-31 23:29:12.348 STDERR [INFO] I0731 23:29:12.347298 24576 net.cpp:425] conv5 <- conv4
2016-07-31 23:29:12.348 STDERR [INFO] I0731 23:29:12.347311 24576 net.cpp:399] conv5 -> conv5
2016-07-31 23:29:12.351 STDERR [INFO] I0731 23:29:12.351754 24576 net.cpp:141] Setting up conv5
2016-07-31 23:29:12.352 STDERR [INFO] I0731 23:29:12.351774 24576 net.cpp:148] Top shape: 10 256 13 13 (432640)
2016-07-31 23:29:12.352 STDERR [INFO] I0731 23:29:12.351783 24576 net.cpp:156] Memory required for data: 65519160
2016-07-31 23:29:12.352 STDERR [INFO] I0731 23:29:12.351799 24576 layer_factory.hpp:77] Creating layer relu5
2016-07-31 23:29:12.352 STDERR [INFO] I0731 23:29:12.351807 24576 net.cpp:91] Creating Layer relu5
2016-07-31 23:29:12.352 STDERR [INFO] I0731 23:29:12.351812 24576 net.cpp:425] relu5 <- conv5
2016-07-31 23:29:12.352 STDERR [INFO] I0731 23:29:12.351819 24576 net.cpp:386] relu5 -> conv5 (in-place)
2016-07-31 23:29:12.352 STDERR [INFO] I0731 23:29:12.352336 24576 net.cpp:141] Setting up relu5
2016-07-31 23:29:12.352 STDERR [INFO] I0731 23:29:12.352350 24576 net.cpp:148] Top shape: 10 256 13 13 (432640)
2016-07-31 23:29:12.352 STDERR [INFO] I0731 23:29:12.352356 24576 net.cpp:156] Memory required for data: 67249720
2016-07-31 23:29:12.353 STDERR [INFO] I0731 23:29:12.352361 24576 layer_factory.hpp:77] Creating layer pool5
2016-07-31 23:29:12.353 STDERR [INFO] I0731 23:29:12.352372 24576 net.cpp:91] Creating Layer pool5
2016-07-31 23:29:12.353 STDERR [INFO] I0731 23:29:12.352378 24576 net.cpp:425] pool5 <- conv5
2016-07-31 23:29:12.353 STDERR [INFO] I0731 23:29:12.352391 24576 net.cpp:399] pool5 -> pool5
2016-07-31 23:29:12.353 STDERR [INFO] I0731 23:29:12.352457 24576 net.cpp:141] Setting up pool5
2016-07-31 23:29:12.353 STDERR [INFO] I0731 23:29:12.352466 24576 net.cpp:148] Top shape: 10 256 6 6 (92160)
2016-07-31 23:29:12.353 STDERR [INFO] I0731 23:29:12.352470 24576 net.cpp:156] Memory required for data: 67618360
2016-07-31 23:29:12.353 STDERR [INFO] I0731 23:29:12.352475 24576 layer_factory.hpp:77] Creating layer fc6
2016-07-31 23:29:12.353 STDERR [INFO] I0731 23:29:12.352494 24576 net.cpp:91] Creating Layer fc6
2016-07-31 23:29:12.353 STDERR [INFO] I0731 23:29:12.352499 24576 net.cpp:425] fc6 <- pool5
…
2016-07-31 23:29:12.477 STDERR [INFO] }
2016-07-31 23:29:12.477 STDERR [INFO] I0731 23:29:12.463347 24566 layer_factory.hpp:77] Creating layer lstm1_
2016-07-31 23:29:12.477 STDERR [INFO] I0731 23:29:12.463361 24566 net.cpp:91] Creating Layer lstm1_
2016-07-31 23:29:12.477 STDERR [INFO] I0731 23:29:12.463368 24566 net.cpp:399] lstm1_ -> x
2016-07-31 23:29:12.477 STDERR [INFO] I0731 23:29:12.463382 24566 net.cpp:399] lstm1_ -> cont
2016-07-31 23:29:12.477 STDERR [INFO] I0731 23:29:12.463450 24566 net.cpp:141] Setting up lstm1_
2016-07-31 23:29:12.477 STDERR [INFO] I0731 23:29:12.463460 24566 net.cpp:148] Top shape: 1 1 500 (500)
2016-07-31 23:29:12.478 STDERR [INFO] I0731 23:29:12.463466 24566 net.cpp:148] Top shape: 1 1 (1)
2016-07-31 23:29:12.478 STDERR [INFO] I0731 23:29:12.463471 24566 net.cpp:156] Memory required for data: 2004
2016-07-31 23:29:12.478 STDERR [INFO] I0731 23:29:12.463476 24566 layer_factory.hpp:77] Creating layer lstm1_
2016-07-31 23:29:12.478 STDERR [INFO] I0731 23:29:12.463485 24566 net.cpp:91] Creating Layer lstm1_
2016-07-31 23:29:12.478 STDERR [INFO] I0731 23:29:12.463495 24566 net.cpp:399] lstm1_ -> c_0
2016-07-31 23:29:12.478 STDERR [INFO] I0731 23:29:12.463506 24566 net.cpp:399] lstm1_ -> h_0
2016-07-31 23:29:12.478 STDERR [INFO] I0731 23:29:12.463560 24566 net.cpp:141] Setting up lstm1_
2016-07-31 23:29:12.478 STDERR [INFO] I0731 23:29:12.463569 24566 net.cpp:148] Top shape: 1 1 1000 (1000)
2016-07-31 23:29:12.478 STDERR [INFO] I0731 23:29:12.463575 24566 net.cpp:148] Top shape: 1 1 1000 (1000)
2016-07-31 23:29:12.478 STDERR [INFO] I0731 23:29:12.463579 24566 net.cpp:156] Memory required for data: 10004
2016-07-31 23:29:12.478 STDERR [INFO] I0731 23:29:12.463584 24566 layer_factory.hpp:77] Creating layer lstm1_cont_slice
2016-07-31 23:29:12.478 STDERR [INFO] I0731 23:29:12.463596 24566 net.cpp:91] Creating Layer lstm1_cont_slice
2016-07-31 23:29:12.479 STDERR [INFO] I0731 23:29:12.463603 24566 net.cpp:425] lstm1_cont_slice <- cont
2016-07-31 23:29:12.479 STDERR [INFO] I0731 23:29:12.463611 24566 net.cpp:399] lstm1_cont_slice -> cont_1
2016-07-31 23:29:12.479 STDERR [INFO] I0731 23:29:12.463649 24566 net.cpp:141] Setting up lstm1_cont_slice
2016-07-31 23:29:12.479 STDERR [INFO] I0731 23:29:12.463659 24566 net.cpp:148] Top shape: 1 1 (1)
2016-07-31 23:29:12.480 STDERR [INFO] I0731 23:29:12.463663 24566 net.cpp:156] Memory required for data: 10008
2016-07-31 23:29:12.480 STDERR [INFO] I0731 23:29:12.463668 24566 layer_factory.hpp:77] Creating layer cont_1_lstm1_cont_slice_0_split
2016-07-31 23:29:12.480 STDERR [INFO] I0731 23:29:12.463676 24566 net.cpp:91] Creating Layer cont_1_lstm1_cont_slice_0_split
2016-07-31 23:29:12.480 STDERR [INFO] I0731 23:29:12.463681 24566 net.cpp:425] cont_1_lstm1_cont_slice_0_split <- cont_1
2016-07-31 23:29:12.480 STDERR [INFO] I0731 23:29:12.463693 24566 net.cpp:399] cont_1_lstm1_cont_slice_0_split -> cont_1_lstm1_cont_slice_0_split_0
2016-07-31 23:29:12.480 STDERR [INFO] I0731 23:29:12.463702 24566 net.cpp:399] cont_1_lstm1_cont_slice_0_split -> cont_1_lstm1_cont_slice_0_split_1
2016-07-31 23:29:12.480 STDERR [INFO] I0731 23:29:12.463757 24566 net.cpp:141] Setting up cont_1_lstm1_cont_slice_0_split
2016-07-31 23:29:12.480 STDERR [INFO] I0731 23:29:12.463767 24566 net.cpp:148] Top shape: 1 1 (1)
2016-07-31 23:29:12.480 STDERR [INFO] I0731 23:29:12.463771 24566 net.cpp:148] Top shape: 1 1 (1)
2016-07-31 23:29:12.480 STDERR [INFO] I0731 23:29:12.463776 24566 net.cpp:156] Memory required for data: 10016
2016-07-31 23:29:12.480 STDERR [INFO] I0731 23:29:12.463781 24566 layer_factory.hpp:77] Creating layer lstm1_x_transform
2016-07-31 23:29:12.480 STDERR [INFO] I0731 23:29:12.463791 24566 net.cpp:91] Creating Layer lstm1_x_transform
2016-07-31 23:29:12.481 STDERR [INFO] I0731 23:29:12.463796 24566 net.cpp:425] lstm1_x_transform <- x
2016-07-31 23:29:12.481 STDERR [INFO] I0731 23:29:12.463804 24566 net.cpp:399] lstm1_x_transform -> W_xc_x
2016-07-31 23:29:12.481 STDERR [INFO] I0731 23:29:12.468503 24576 net.cpp:141] Setting up fc6
2016-07-31 23:29:12.481 STDERR [INFO] I0731 23:29:12.468534 24576 net.cpp:148] Top shape: 10 4096 (40960)
2016-07-31 23:29:12.481 STDERR [INFO] I0731 23:29:12.468546 24576 net.cpp:156] Memory required for data: 67782200
2016-07-31 23:29:12.481 STDERR [INFO] I0731 23:29:12.468559 24576 layer_factory.hpp:77] Creating layer relu6
2016-07-31 23:29:12.481 STDERR [INFO] I0731 23:29:12.468572 24576 net.cpp:91] Creating Layer relu6
2016-07-31 23:29:12.481 STDERR [INFO] I0731 23:29:12.468580 24576 net.cpp:425] relu6 <- fc6
2016-07-31 23:29:12.481 STDERR [INFO] I0731 23:29:12.468595 24576 net.cpp:386] relu6 -> fc6 (in-place)
2016-07-31 23:29:12.481 STDERR [INFO] I0731 23:29:12.468956 24576 net.cpp:141] Setting up relu6
2016-07-31 23:29:12.482 STDERR [INFO] I0731 23:29:12.468968 24576 net.cpp:148] Top shape: 10 4096 (40960)
2016-07-31 23:29:12.482 STDERR [INFO] I0731 23:29:12.468973 24576 net.cpp:156] Memory required for data: 67946040
2016-07-31 23:29:12.482 STDERR [INFO] I0731 23:29:12.468981 24576 layer_factory.hpp:77] Creating layer drop6
2016-07-31 23:29:12.482 STDERR [INFO] I0731 23:29:12.469002 24576 net.cpp:91] Creating Layer drop6
2016-07-31 23:29:12.482 STDERR [INFO] I0731 23:29:12.469008 24576 net.cpp:425] drop6 <- fc6
2016-07-31 23:29:12.482 STDERR [INFO] I0731 23:29:12.469015 24576 net.cpp:386] drop6 -> fc6 (in-place)
2016-07-31 23:29:12.482 STDERR [INFO] I0731 23:29:12.469074 24576 net.cpp:141] Setting up drop6
2016-07-31 23:29:12.482 STDERR [INFO] I0731 23:29:12.469085 24576 net.cpp:148] Top shape: 10 4096 (40960)
2016-07-31 23:29:12.482 STDERR [INFO] I0731 23:29:12.469094 24576 net.cpp:156] Memory required for data: 68109880
2016-07-31 23:29:12.482 STDERR [INFO] I0731 23:29:12.469102 24576 layer_factory.hpp:77] Creating layer fc7
2016-07-31 23:29:12.482 STDERR [INFO] I0731 23:29:12.469120 24576 net.cpp:91] Creating Layer fc7
2016-07-31 23:29:12.482 STDERR [INFO] I0731 23:29:12.469130 24576 net.cpp:425] fc7 <- fc6
2016-07-31 23:29:12.483 STDERR [INFO] I0731 23:29:12.469139 24576 net.cpp:399] fc7 -> fc7
2016-07-31 23:29:12.501 STDERR [INFO] I0731 23:29:12.500948 24566 net.cpp:141] Setting up lstm1_x_transform
2016-07-31 23:29:12.501 STDERR [INFO] I0731 23:29:12.501004 24566 net.cpp:148] Top shape: 1 1 4000 (4000)
2016-07-31 23:29:12.501 STDERR [INFO] I0731 23:29:12.501010 24566 net.cpp:156] Memory required for data: 26016
2016-07-31 23:29:12.501 STDERR [INFO] I0731 23:29:12.501034 24566 layer_factory.hpp:77] Creating layer lstm1_W_xc_x_slice
2016-07-31 23:29:12.501 STDERR [INFO] I0731 23:29:12.501055 24566 net.cpp:91] Creating Layer lstm1_W_xc_x_slice
2016-07-31 23:29:12.502 STDERR [INFO] I0731 23:29:12.501061 24566 net.cpp:425] lstm1_W_xc_x_slice <- W_xc_x
2016-07-31 23:29:12.502 STDERR [INFO] I0731 23:29:12.501071 24566 net.cpp:399] lstm1_W_xc_x_slice -> W_xc_x_1
2016-07-31 23:29:12.502 STDERR [INFO] I0731 23:29:12.501119 24566 net.cpp:141] Setting up lstm1_W_xc_x_slice
2016-07-31 23:29:12.502 STDERR [INFO] I0731 23:29:12.501130 24566 net.cpp:148] Top shape: 1 1 4000 (4000)
2016-07-31 23:29:12.502 STDERR [INFO] I0731 23:29:12.501135 24566 net.cpp:156] Memory required for data: 42016
2016-07-31 23:29:12.502 STDERR [INFO] I0731 23:29:12.501140 24566 layer_factory.hpp:77] Creating layer lstm1_h_conted_0
2016-07-31 23:29:12.502 STDERR [INFO] I0731 23:29:12.501154 24566 net.cpp:91] Creating Layer lstm1_h_conted_0
2016-07-31 23:29:12.502 STDERR [INFO] I0731 23:29:12.501160 24566 net.cpp:425] lstm1_h_conted_0 <- h_0
2016-07-31 23:29:12.502 STDERR [INFO] I0731 23:29:12.501166 24566 net.cpp:425] lstm1_h_conted_0 <- cont_1_lstm1_cont_slice_0_split_0
2016-07-31 23:29:12.502 STDERR [INFO] I0731 23:29:12.501174 24566 net.cpp:399] lstm1_h_conted_0 -> h_conted_0
2016-07-31 23:29:12.503 STDERR [INFO] I0731 23:29:12.501273 24566 net.cpp:141] Setting up lstm1_h_conted_0
2016-07-31 23:29:12.503 STDERR [INFO] I0731 23:29:12.501284 24566 net.cpp:148] Top shape: 1 1 1000 (1000)
2016-07-31 23:29:12.503 STDERR [INFO] I0731 23:29:12.501288 24566 net.cpp:156] Memory required for data: 46016
2016-07-31 23:29:12.503 STDERR [INFO] I0731 23:29:12.501293 24566 layer_factory.hpp:77] Creating layer lstm1_transform_1
2016-07-31 23:29:12.503 STDERR [INFO] I0731 23:29:12.501312 24566 net.cpp:91] Creating Layer lstm1_transform_1
2016-07-31 23:29:12.503 STDERR [INFO] I0731 23:29:12.501317 24566 net.cpp:425] lstm1_transform_1 <- h_conted_0
2016-07-31 23:29:12.503 STDERR [INFO] I0731 23:29:12.501327 24566 net.cpp:399] lstm1_transform_1 -> W_hc_h_0
2016-07-31 23:29:12.519 STDERR [INFO] I0731 23:29:12.519381 24576 net.cpp:141] Setting up fc7
2016-07-31 23:29:12.520 STDERR [INFO] I0731 23:29:12.519439 24576 net.cpp:148] Top shape: 10 4096 (40960)
2016-07-31 23:29:12.520 STDERR [INFO] I0731 23:29:12.519445 24576 net.cpp:156] Memory required for data: 68273720
2016-07-31 23:29:12.520 STDERR [INFO] I0731 23:29:12.519460 24576 layer_factory.hpp:77] Creating layer relu7
2016-07-31 23:29:12.520 STDERR [INFO] I0731 23:29:12.519477 24576 net.cpp:91] Creating Layer relu7
2016-07-31 23:29:12.520 STDERR [INFO] I0731 23:29:12.519484 24576 net.cpp:425] relu7 <- fc7
2016-07-31 23:29:12.520 STDERR [INFO] I0731 23:29:12.519497 24576 net.cpp:386] relu7 -> fc7 (in-place)
2016-07-31 23:29:12.520 STDERR [INFO] I0731 23:29:12.520380 24576 net.cpp:141] Setting up relu7
2016-07-31 23:29:12.521 STDERR [INFO] I0731 23:29:12.520393 24576 net.cpp:148] Top shape: 10 4096 (40960)
2016-07-31 23:29:12.521 STDERR [INFO] I0731 23:29:12.520400 24576 net.cpp:156] Memory required for data: 68437560
2016-07-31 23:29:12.521 STDERR [INFO] I0731 23:29:12.520404 24576 layer_factory.hpp:77] Creating layer drop7
2016-07-31 23:29:12.521 STDERR [INFO] I0731 23:29:12.520416 24576 net.cpp:91] Creating Layer drop7
2016-07-31 23:29:12.521 STDERR [INFO] I0731 23:29:12.520421 24576 net.cpp:425] drop7 <- fc7
2016-07-31 23:29:12.521 STDERR [INFO] I0731 23:29:12.520431 24576 net.cpp:386] drop7 -> fc7 (in-place)
2016-07-31 23:29:12.521 STDERR [INFO] I0731 23:29:12.520474 24576 net.cpp:141] Setting up drop7
2016-07-31 23:29:12.521 STDERR [INFO] I0731 23:29:12.520483 24576 net.cpp:148] Top shape: 10 4096 (40960)
2016-07-31 23:29:12.521 STDERR [INFO] I0731 23:29:12.520488 24576 net.cpp:156] Memory required for data: 68601400
2016-07-31 23:29:12.521 STDERR [INFO] I0731 23:29:12.520493 24576 layer_factory.hpp:77] Creating layer fc8
2016-07-31 23:29:12.521 STDERR [INFO] I0731 23:29:12.520509 24576 net.cpp:91] Creating Layer fc8
2016-07-31 23:29:12.522 STDERR [INFO] I0731 23:29:12.520514 24576 net.cpp:425] fc8 <- fc7
2016-07-31 23:29:12.522 STDERR [INFO] I0731 23:29:12.520521 24576 net.cpp:399] fc8 -> fc8
2016-07-31 23:29:12.533 STDERR [INFO] I0731 23:29:12.533151 24576 net.cpp:141] Setting up fc8
2016-07-31 23:29:12.533 STDERR [INFO] I0731 23:29:12.533205 24576 net.cpp:148] Top shape: 10 1000 (10000)
2016-07-31 23:29:12.533 STDERR [INFO] I0731 23:29:12.533211 24576 net.cpp:156] Memory required for data: 68641400
2016-07-31 23:29:12.534 STDERR [INFO] I0731 23:29:12.533226 24576 layer_factory.hpp:77] Creating layer prob
2016-07-31 23:29:12.534 STDERR [INFO] I0731 23:29:12.533247 24576 net.cpp:91] Creating Layer prob
2016-07-31 23:29:12.534 STDERR [INFO] I0731 23:29:12.533254 24576 net.cpp:425] prob <- fc8
2016-07-31 23:29:12.534 STDERR [INFO] I0731 23:29:12.533272 24576 net.cpp:399] prob -> prob
2016-07-31 23:29:12.534 STDERR [INFO] I0731 23:29:12.533737 24576 net.cpp:141] Setting up prob
2016-07-31 23:29:12.534 STDERR [INFO] I0731 23:29:12.533751 24576 net.cpp:148] Top shape: 10 1000 (10000)
2016-07-31 23:29:12.534 STDERR [INFO] I0731 23:29:12.533756 24576 net.cpp:156] Memory required for data: 68681400
2016-07-31 23:29:12.534 STDERR [INFO] I0731 23:29:12.533761 24576 net.cpp:219] prob does not need backward computation.
2016-07-31 23:29:12.534 STDERR [INFO] I0731 23:29:12.533766 24576 net.cpp:219] fc8 does not need backward computation.
2016-07-31 23:29:12.534 STDERR [INFO] I0731 23:29:12.533771 24576 net.cpp:219] drop7 does not need backward computation.
…
2016-07-31 23:29:12.536 STDERR [INFO] I0731 23:29:12.533871 24576 net.cpp:219] conv1 does not need backward computation.
2016-07-31 23:29:12.536 STDERR [INFO] I0731 23:29:12.533876 24576 net.cpp:219] data does not need backward computation.
2016-07-31 23:29:12.536 STDERR [INFO] I0731 23:29:12.533880 24576 net.cpp:261] This network produces output prob
2016-07-31 23:29:12.537 STDERR [INFO] I0731 23:29:12.533903 24576 net.cpp:274] Network initialization done.
2016-07-31 23:29:12.545 STDERR [INFO] I0731 23:29:12.545539 24566 net.cpp:141] Setting up lstm1_transform_1
2016-07-31 23:29:12.546 STDERR [INFO] I0731 23:29:12.545588 24566 net.cpp:148] Top shape: 1 1 4000 (4000)
2016-07-31 23:29:12.546 STDERR [INFO] I0731 23:29:12.545595 24566 net.cpp:156] Memory required for data: 62016
2016-07-31 23:29:12.546 STDERR [INFO] I0731 23:29:12.545614 24566 layer_factory.hpp:77] Creating layer lstm1_gate_input_1
2016-07-31 23:29:12.546 STDERR [INFO] I0731 23:29:12.545645 24566 net.cpp:91] Creating Layer lstm1_gate_input_1
2016-07-31 23:29:12.546 STDERR [INFO] I0731 23:29:12.545653 24566 net.cpp:425] lstm1_gate_input_1 <- W_hc_h_0
2016-07-31 23:29:12.546 STDERR [INFO] I0731 23:29:12.545662 24566 net.cpp:425] lstm1_gate_input_1 <- W_xc_x_1
2016-07-31 23:29:12.546 STDERR [INFO] I0731 23:29:12.545670 24566 net.cpp:399] lstm1_gate_input_1 -> gate_input_1
2016-07-31 23:29:12.547 STDERR [INFO] I0731 23:29:12.545737 24566 net.cpp:141] Setting up lstm1_gate_input_1
2016-07-31 23:29:12.547 STDERR [INFO] I0731 23:29:12.545747 24566 net.cpp:148] Top shape: 1 1 4000 (4000)
2016-07-31 23:29:12.547 STDERR [INFO] I0731 23:29:12.545753 24566 net.cpp:156] Memory required for data: 78016
2016-07-31 23:29:12.547 STDERR [INFO] I0731 23:29:12.545758 24566 layer_factory.hpp:77] Creating layer lstm1_unit_1
2016-07-31 23:29:12.547 STDERR [INFO] I0731 23:29:12.545766 24566 net.cpp:91] Creating Layer lstm1_unit_1
2016-07-31 23:29:12.547 STDERR [INFO] I0731 23:29:12.545773 24566 net.cpp:425] lstm1_unit_1 <- c_0
2016-07-31 23:29:12.547 STDERR [INFO] I0731 23:29:12.545778 24566 net.cpp:425] lstm1_unit_1 <- gate_input_1
2016-07-31 23:29:12.547 STDERR [INFO] I0731 23:29:12.545783 24566 net.cpp:425] lstm1_unit_1 <- cont_1_lstm1_cont_slice_0_split_1
2016-07-31 23:29:12.548 STDERR [INFO] I0731 23:29:12.545794 24566 net.cpp:399] lstm1_unit_1 -> c_1
2016-07-31 23:29:12.548 STDERR [INFO] I0731 23:29:12.545804 24566 net.cpp:399] lstm1_unit_1 -> h_1
2016-07-31 23:29:12.548 STDERR [INFO] I0731 23:29:12.545872 24566 net.cpp:141] Setting up lstm1_unit_1
2016-07-31 23:29:12.548 STDERR [INFO] I0731 23:29:12.545882 24566 net.cpp:148] Top shape: 1 1 1000 (1000)
2016-07-31 23:29:12.548 STDERR [INFO] I0731 23:29:12.545888 24566 net.cpp:148] Top shape: 1 1 1000 (1000)
2016-07-31 23:29:12.548 STDERR [INFO] I0731 23:29:12.545892 24566 net.cpp:156] Memory required for data: 86016
2016-07-31 23:29:12.548 STDERR [INFO] I0731 23:29:12.545897 24566 layer_factory.hpp:77] Creating layer lstm1_
2016-07-31 23:29:12.548 STDERR [INFO] I0731 23:29:12.545907 24566 net.cpp:91] Creating Layer lstm1_
2016-07-31 23:29:12.548 STDERR [INFO] I0731 23:29:12.545912 24566 net.cpp:425] lstm1_ <- c_1
2016-07-31 23:29:12.548 STDERR [INFO] I0731 23:29:12.545919 24566 net.cpp:399] lstm1_ -> c_T
2016-07-31 23:29:12.548 STDERR [INFO] I0731 23:29:12.545955 24566 net.cpp:141] Setting up lstm1_
2016-07-31 23:29:12.548 STDERR [INFO] I0731 23:29:12.545964 24566 net.cpp:148] Top shape: 1 1 1000 (1000)
2016-07-31 23:29:12.549 STDERR [INFO] I0731 23:29:12.545969 24566 net.cpp:156] Memory required for data: 90016
2016-07-31 23:29:12.549 STDERR [INFO] I0731 23:29:12.545974 24566 layer_factory.hpp:77] Creating layer lstm1_h_concat
2016-07-31 23:29:12.549 STDERR [INFO] I0731 23:29:12.545984 24566 net.cpp:91] Creating Layer lstm1_h_concat
2016-07-31 23:29:12.549 STDERR [INFO] I0731 23:29:12.545989 24566 net.cpp:425] lstm1_h_concat <- h_1
2016-07-31 23:29:12.549 STDERR [INFO] I0731 23:29:12.545996 24566 net.cpp:399] lstm1_h_concat -> h
2016-07-31 23:29:12.549 STDERR [INFO] I0731 23:29:12.546046 24566 net.cpp:141] Setting up lstm1_h_concat
2016-07-31 23:29:12.549 STDERR [INFO] I0731 23:29:12.546056 24566 net.cpp:148] Top shape: 1 1 1000 (1000)
2016-07-31 23:29:12.549 STDERR [INFO] I0731 23:29:12.546061 24566 net.cpp:156] Memory required for data: 94016
2016-07-31 23:29:12.549 STDERR [INFO] I0731 23:29:12.546066 24566 layer_factory.hpp:77] Creating layer h_pseudoloss
2016-07-31 23:29:12.549 STDERR [INFO] I0731 23:29:12.546090 24566 net.cpp:91] Creating Layer h_pseudoloss
2016-07-31 23:29:12.549 STDERR [INFO] I0731 23:29:12.546095 24566 net.cpp:425] h_pseudoloss <- h
…
2016-07-31 23:29:12.566 STDERR [INFO] }
2016-07-31 23:29:12.566 STDERR [INFO] I0731 23:29:12.547077 24566 layer_factory.hpp:77] Creating layer lstm2_
2016-07-31 23:29:12.566 STDERR [INFO] I0731 23:29:12.547098 24566 net.cpp:91] Creating Layer lstm2_
2016-07-31 23:29:12.566 STDERR [INFO] I0731 23:29:12.547106 24566 net.cpp:399] lstm2_ -> x
2016-07-31 23:29:12.566 STDERR [INFO] I0731 23:29:12.547116 24566 net.cpp:399] lstm2_ -> cont
2016-07-31 23:29:12.567 STDERR [INFO] I0731 23:29:12.547175 24566 net.cpp:141] Setting up lstm2_
2016-07-31 23:29:12.567 STDERR [INFO] I0731 23:29:12.547185 24566 net.cpp:148] Top shape: 1 1 1501 (1501)
2016-07-31 23:29:12.567 STDERR [INFO] I0731 23:29:12.547191 24566 net.cpp:148] Top shape: 1 1 (1)
2016-07-31 23:29:12.567 STDERR [INFO] I0731 23:29:12.547196 24566 net.cpp:156] Memory required for data: 6008
2016-07-31 23:29:12.567 STDERR [INFO] I0731 23:29:12.547201 24566 layer_factory.hpp:77] Creating layer lstm2_
2016-07-31 23:29:12.567 STDERR [INFO] I0731 23:29:12.547210 24566 net.cpp:91] Creating Layer lstm2_
2016-07-31 23:29:12.567 STDERR [INFO] I0731 23:29:12.547219 24566 net.cpp:399] lstm2_ -> c_0
2016-07-31 23:29:12.567 STDERR [INFO] I0731 23:29:12.547230 24566 net.cpp:399] lstm2_ -> h_0
2016-07-31 23:29:12.567 STDERR [INFO] I0731 23:29:12.547284 24566 net.cpp:141] Setting up lstm2_
2016-07-31 23:29:12.567 STDERR [INFO] I0731 23:29:12.547293 24566 net.cpp:148] Top shape: 1 1 1000 (1000)
2016-07-31 23:29:12.567 STDERR [INFO] I0731 23:29:12.547299 24566 net.cpp:148] Top shape: 1 1 1000 (1000)
2016-07-31 23:29:12.568 STDERR [INFO] I0731 23:29:12.547304 24566 net.cpp:156] Memory required for data: 14008
2016-07-31 23:29:12.568 STDERR [INFO] I0731 23:29:12.547308 24566 layer_factory.hpp:77] Creating layer lstm2_cont_slice
2016-07-31 23:29:12.568 STDERR [INFO] I0731 23:29:12.547317 24566 net.cpp:91] Creating Layer lstm2_cont_slice
2016-07-31 23:29:12.568 STDERR [INFO] I0731 23:29:12.547322 24566 net.cpp:425] lstm2_cont_slice <- cont
2016-07-31 23:29:12.568 STDERR [INFO] I0731 23:29:12.547330 24566 net.cpp:399] lstm2_cont_slice -> cont_1
2016-07-31 23:29:12.568 STDERR [INFO] I0731 23:29:12.547365 24566 net.cpp:141] Setting up lstm2_cont_slice
2016-07-31 23:29:12.568 STDERR [INFO] I0731 23:29:12.547374 24566 net.cpp:148] Top shape: 1 1 (1)
2016-07-31 23:29:12.568 STDERR [INFO] I0731 23:29:12.547379 24566 net.cpp:156] Memory required for data: 14012
2016-07-31 23:29:12.568 STDERR [INFO] I0731 23:29:12.547384 24566 layer_factory.hpp:77] Creating layer cont_1_lstm2_cont_slice_0_split
2016-07-31 23:29:12.568 STDERR [INFO] I0731 23:29:12.547394 24566 net.cpp:91] Creating Layer cont_1_lstm2_cont_slice_0_split
2016-07-31 23:29:12.568 STDERR [INFO] I0731 23:29:12.547399 24566 net.cpp:425] cont_1_lstm2_cont_slice_0_split <- cont_1
2016-07-31 23:29:12.568 STDERR [INFO] I0731 23:29:12.547405 24566 net.cpp:399] cont_1_lstm2_cont_slice_0_split -> cont_1_lstm2_cont_slice_0_split_0
2016-07-31 23:29:12.569 STDERR [INFO] I0731 23:29:12.547415 24566 net.cpp:399] cont_1_lstm2_cont_slice_0_split -> cont_1_lstm2_cont_slice_0_split_1
2016-07-31 23:29:12.569 STDERR [INFO] I0731 23:29:12.547466 24566 net.cpp:141] Setting up cont_1_lstm2_cont_slice_0_split
2016-07-31 23:29:12.569 STDERR [INFO] I0731 23:29:12.547474 24566 net.cpp:148] Top shape: 1 1 (1)
2016-07-31 23:29:12.569 STDERR [INFO] I0731 23:29:12.547480 24566 net.cpp:148] Top shape: 1 1 (1)
2016-07-31 23:29:12.569 STDERR [INFO] I0731 23:29:12.547485 24566 net.cpp:156] Memory required for data: 14020
2016-07-31 23:29:12.569 STDERR [INFO] I0731 23:29:12.547489 24566 layer_factory.hpp:77] Creating layer lstm2_x_transform
2016-07-31 23:29:12.569 STDERR [INFO] I0731 23:29:12.547502 24566 net.cpp:91] Creating Layer lstm2_x_transform
2016-07-31 23:29:12.569 STDERR [INFO] I0731 23:29:12.547508 24566 net.cpp:425] lstm2_x_transform <- x
…
