…
W0925 22:04:17.707396 17000 upgrade_proto.cpp:71] Note that future Caffe releases will only support input layers and not input fields.
I0925 22:04:17.707881 17000 net.cpp:49] Initializing net from parameters: 
name: "s2vt:features_to_lstm"
state {
  phase: TEST
}
layer {
  name: "input"
  type: "Input"
  top: "frames_fc7"
  top: "cont_sentence"
  top: "input_sentence"
  top: "stage_indicator"
  input_param {
    shape {
      dim: 1
      dim: 4096
    }
    shape {
      dim: 1
      dim: 1
    }
    shape {
      dim: 1
      dim: 1
    }
    shape {
      dim: 1
      dim: 1
    }
  }
}
layer {
  name: "embed_encoder"
  type: "InnerProduct"
  bottom: "frames_fc7"
  top: "embedded_in_frames"
  param {
    lr_mult: 1
    decay_mult: 1
  }
  param {
    lr_mult: 2
    decay_mult: 0
  }
  inner_product_param {
    num_output: 500
    weight_filler {
      type: "xavier"
    }
    bias_filler {
      type: "constant"
      value: 0.2
    }
  }
}
layer {
  name: "reshape_frames"
  type: "Reshape"
  bottom: "embedded_in_frames"
  top: "embedded_input_frames"
  reshape_param {
    shape {
      dim: 1
      dim: 1
      dim: 500
    }
  }
}
layer {
  name: "reshape_stage_indicator"
  type: "Reshape"
  bottom: "stage_indicator"
  top: "reshaped_stage_indicator"
  reshape_param {
    shape {
      dim: 1
      dim: 1
      dim: 1
    }
  }
}
layer {
  name: "embedding"
  type: "Embed"
  bottom: "input_sentence"
  top: "embedded_input_sentence"
  param {
    lr_mult: 1
  }
  embed_param {
    num_output: 500
    input_dim: 46168
    bias_term: false
    weight_filler {
      type: "uniform"
      min: -0.08
      max: 0.08
    }
  }
}
layer {
  name: "lstm1"
  type: "LSTM"
  bottom: "embedded_input_frames"
  bottom: "cont_sentence"
  top: "lstm1"
  recurrent_param {
    num_output: 1000
    weight_filler {
      type: "uniform"
      min: -0.08
      max: 0.08
    }
    bias_filler {
      type: "constant"
      value: 0
    }
  }
}
layer {
  name: "concat"
  type: "Concat"
  bottom: "lstm1"
  bottom: "embedded_input_sentence"
  bottom: "reshaped_stage_indicator"
  top: "lstm1_video_sequence"
  concat_param {
    concat_dim: 2
  }
}
layer {
  name: "lstm2"
  type: "LSTM"
  bottom: "lstm1_video_sequence"
  bottom: "cont_sentence"
  top: "lstm2"
  recurrent_param {
    num_output: 1000
    weight_filler {
      type: "uniform"
      min: -0.08
      max: 0.08
    }
    bias_filler {
      type: "constant"
      value: 0
    }
  }
}
layer {
  name: "predict"
  type: "InnerProduct"
  bottom: "lstm2"
  top: "predict"
  param {
    lr_mult: 1
    decay_mult: 1
  }
  param {
    lr_mult: 2
    decay_mult: 0
  }
  inner_product_param {
    num_output: 46168
    weight_filler {
      type: "uniform"
      min: -0.08
      max: 0.08
    }
    bias_filler {
      type: "constant"
      value: 0
    }
    axis: 2
  }
}
layer {
  name: "probs"
  type: "Softmax"
  bottom: "predict"
  top: "probs"
  softmax_param {
    axis: 2
  }
}
I0925 22:04:17.707856 16998 net.cpp:49] Initializing net from parameters: 
name: "s2vt:features_to_lstm"
state {
  phase: TEST
}
layer {
  name: "input"
  type: "Input"
  top: "frames_fc7"
  top: "cont_sentence"
  top: "input_sentence"
  top: "stage_indicator"
  input_param {
    shape {
      dim: 1
      dim: 4096
    }
    shape {
      dim: 1
      dim: 1
    }
    shape {
      dim: 1
      dim: 1
    }
    shape {
      dim: 1
      dim: 1
    }
  }
}
layer {
  name: "embed_encoder"
  type: "InnerProduct"
  bottom: "frames_fc7"
  top: "embedded_in_frames"
  param {
    lr_mult: 1
    decay_mult: 1
  }
  param {
    lr_mult: 2
    decay_mult: 0
  }
  inner_product_param {
    num_output: 500
    weight_filler {
      type: "xavier"
    }
    bias_filler {
      type: "constant"
      value: 0.2
    }
  }
}
layer {
  name: "reshape_frames"
  type: "Reshape"
  bottom: "embedded_in_frames"
  top: "embedded_input_frames"
  reshape_param {
    shape {
      dim: 1
      dim: 1
      dim: 500
    }
  }
}
layer {
  name: "reshape_stage_indicator"
  type: "Reshape"
  bottom: "stage_indicator"
  top: "reshaped_stage_indicator"
  reshape_param {
    shape {
      dim: 1
      dim: 1
      dim: 1
    }
  }
}
layer {
  name: "embedding"
  type: "Embed"
  bottom: "input_sentence"
  top: "embedded_input_sentence"
  param {
    lr_mult: 1
  }
  embed_param {
    num_output: 500
    input_dim: 46168
    bias_term: false
    weight_filler {
      type: "uniform"
      min: -0.08
      max: 0.08
    }
  }
}
layer {
  name: "lstm1"
  type: "LSTM"
  bottom: "embedded_input_frames"
  bottom: "cont_sentence"
  top: "lstm1"
  recurrent_param {
    num_output: 1000
    weight_filler {
      type: "uniform"
      min: -0.08
      max: 0.08
    }
    bias_filler {
      type: "constant"
      value: 0
    }
  }
}
layer {
  name: "concat"
  type: "Concat"
  bottom: "lstm1"
  bottom: "embedded_input_sentence"
  bottom: "reshaped_stage_indicator"
  top: "lstm1_video_sequence"
  concat_param {
    concat_dim: 2
  }
}
layer {
  name: "lstm2"
  type: "LSTM"
  bottom: "lstm1_video_sequence"
  bottom: "cont_sentence"
  top: "lstm2"
  recurrent_param {
    num_output: 1000
    weight_filler {
      type: "uniform"
      min: -0.08
      max: 0.08
    }
    bias_filler {
      type: "constant"
      value: 0
    }
  }
}
layer {
  name: "predict"
  type: "InnerProduct"
  bottom: "lstm2"
  top: "predict"
  param {
    lr_mult: 1
    decay_mult: 1
  }
  param {
    lr_mult: 2
    decay_mult: 0
  }
  inner_product_param {
    num_output: 46168
    weight_filler {
      type: "uniform"
      min: -0.08
      max: 0.08
    }
    bias_filler {
      type: "constant"
      value: 0
    }
    axis: 2
  }
}
layer {
  name: "probs"
  type: "Softmax"
  bottom: "predict"
  top: "probs"
  softmax_param {
    axis: 2
  }
}
I0925 22:04:17.707856 16996 net.cpp:49] Initializing net from parameters: 
name: "s2vt:features_to_lstm"
state {
  phase: TEST
}
layer {
  name: "input"
  type: "Input"
  top: "frames_fc7"
  top: "cont_sentence"
  top: "input_sentence"
  top: "stage_indicator"
  input_param {
    shape {
      dim: 1
      dim: 4096
    }
    shape {
      dim: 1
      dim: 1
    }
    shape {
      dim: 1
      dim: 1
    }
    shape {
      dim: 1
      dim: 1
    }
  }
}
layer {
  name: "embed_encoder"
  type: "InnerProduct"
  bottom: "frames_fc7"
  top: "embedded_in_frames"
  param {
    lr_mult: 1
    decay_mult: 1
  }
  param {
    lr_mult: 2
    decay_mult: 0
  }
  inner_product_param {
    num_output: 500
    weight_filler {
      type: "xavier"
    }
    bias_filler {
      type: "constant"
      value: 0.2
    }
  }
}
layer {
  name: "reshape_frames"
  type: "Reshape"
  bottom: "embedded_in_frames"
  top: "embedded_input_frames"
  reshape_param {
    shape {
      dim: 1
      dim: 1
      dim: 500
    }
  }
}
layer {
  name: "reshape_stage_indicator"
  type: "Reshape"
  bottom: "stage_indicator"
  top: "reshaped_stage_indicator"
  reshape_param {
    shape {
      dim: 1
      dim: 1
      dim: 1
    }
  }
}
layer {
  name: "embedding"
  type: "Embed"
  bottom: "input_sentence"
  top: "embedded_input_sentence"
  param {
    lr_mult: 1
  }
  embed_param {
    num_output: 500
    input_dim: 46168
    bias_term: false
    weight_filler {
      type: "uniform"
      min: -0.08
      max: 0.08
    }
  }
}
layer {
  name: "lstm1"
  type: "LSTM"
  bottom: "embedded_input_frames"
  bottom: "cont_sentence"
  top: "lstm1"
  recurrent_param {
    num_output: 1000
    weight_filler {
      type: "uniform"
      min: -0.08
      max: 0.08
    }
    bias_filler {
      type: "constant"
      value: 0
    }
  }
}
layer {
  name: "concat"
  type: "Concat"
  bottom: "lstm1"
  bottom: "embedded_input_sentence"
  bottom: "reshaped_stage_indicator"
  top: "lstm1_video_sequence"
  concat_param {
    concat_dim: 2
  }
}
layer {
  name: "lstm2"
  type: "LSTM"
  bottom: "lstm1_video_sequence"
  bottom: "cont_sentence"
  top: "lstm2"
  recurrent_param {
    num_output: 1000
    weight_filler {
      type: "uniform"
      min: -0.08
      max: 0.08
    }
    bias_filler {
      type: "constant"
      value: 0
    }
  }
}
layer {
  name: "predict"
  type: "InnerProduct"
  bottom: "lstm2"
  top: "predict"
  param {
    lr_mult: 1
    decay_mult: 1
  }
  param {
    lr_mult: 2
    decay_mult: 0
  }
  inner_product_param {
    num_output: 46168
    weight_filler {
      type: "uniform"
      min: -0.08
      max: 0.08
    }
    bias_filler {
      type: "constant"
      value: 0
    }
    axis: 2
  }
}
layer {
  name: "probs"
  type: "Softmax"
  bottom: "predict"
  top: "probs"
  softmax_param {
    axis: 2
  }
}
I0925 22:04:17.707877 17006 net.cpp:49] Initializing net from parameters: 
name: "s2vt:features_to_lstm"
state {
  phase: TEST
}
layer {
  name: "input"
  type: "Input"
  top: "frames_fc7"
  top: "cont_sentence"
  top: "input_sentence"
  top: "stage_indicator"
  input_param {
    shape {
      dim: 1
      dim: 4096
    }
    shape {
      dim: 1
      dim: 1
    }
    shape {
      dim: 1
      dim: 1
    }
    shape {
      dim: 1
      dim: 1
    }
  }
}
layer {
  name: "embed_encoder"
  type: "InnerProduct"
  bottom: "frames_fc7"
  top: "embedded_in_frames"
  param {
    lr_mult: 1
    decay_mult: 1
  }
  param {
    lr_mult: 2
    decay_mult: 0
  }
  inner_product_param {
    num_output: 500
    weight_filler {
      type: "xavier"
    }
    bias_filler {
      type: "constant"
      value: 0.2
    }
  }
}
layer {
  name: "reshape_frames"
  type: "Reshape"
  bottom: "embedded_in_frames"
  top: "embedded_input_frames"
  reshape_param {
    shape {
      dim: 1
      dim: 1
      dim: 500
    }
  }
}
layer {
  name: "reshape_stage_indicator"
  type: "Reshape"
  bottom: "stage_indicator"
  top: "reshaped_stage_indicator"
  reshape_param {
    shape {
      dim: 1
      dim: 1
      dim: 1
    }
  }
}
layer {
  name: "embedding"
  type: "Embed"
  bottom: "input_sentence"
  top: "embedded_input_sentence"
  param {
    lr_mult: 1
  }
  embed_param {
    num_output: 500
    input_dim: 46168
    bias_term: false
    weight_filler {
      type: "uniform"
      min: -0.08
      max: 0.08
    }
  }
}
layer {
  name: "lstm1"
  type: "LSTM"
  bottom: "embedded_input_frames"
  bottom: "cont_sentence"
  top: "lstm1"
  recurrent_param {
    num_output: 1000
    weight_filler {
      type: "uniform"
      min: -0.08
      max: 0.08
    }
    bias_filler {
      type: "constant"
      value: 0
    }
  }
}
layer {
  name: "concat"
  type: "Concat"
  bottom: "lstm1"
  bottom: "embedded_input_sentence"
  bottom: "reshaped_stage_indicator"
  top: "lstm1_video_sequence"
  concat_param {
    concat_dim: 2
  }
}
layer {
  name: "lstm2"
  type: "LSTM"
  bottom: "lstm1_video_sequence"
  bottom: "cont_sentence"
  top: "lstm2"
  recurrent_param {
    num_output: 1000
    weight_filler {
      type: "uniform"
      min: -0.08
      max: 0.08
    }
    bias_filler {
      type: "constant"
      value: 0
    }
  }
}
layer {
  name: "predict"
  type: "InnerProduct"
  bottom: "lstm2"
  top: "predict"
  param {
    lr_mult: 1
    decay_mult: 1
  }
  param {
    lr_mult: 2
    decay_mult: 0
  }
  inner_product_param {
    num_output: 46168
    weight_filler {
      type: "uniform"
      min: -0.08
      max: 0.08
    }
    bias_filler {
      type: "constant"
      value: 0
    }
    axis: 2
  }
}
layer {
  name: "probs"
  type: "Softmax"
  bottom: "predict"
  top: "probs"
  softmax_param {
    axis: 2
  }
}
I0925 22:04:17.707921 17030 net.cpp:49] Initializing net from parameters: 
name: "s2vt:features_to_lstm"
state {
  phase: TEST
}
layer {
  name: "input"
  type: "Input"
  top: "frames_fc7"
  top: "cont_sentence"
  top: "input_sentence"
  top: "stage_indicator"
  input_param {
    shape {
      dim: 1
      dim: 4096
    }
    shape {
      dim: 1
      dim: 1
    }
    shape {
      dim: 1
      dim: 1
    }
    shape {
      dim: 1
      dim: 1
    }
  }
}
layer {
  name: "embed_encoder"
  type: "InnerProduct"
  bottom: "frames_fc7"
  top: "embedded_in_frames"
  param {
    lr_mult: 1
    decay_mult: 1
  }
  param {
    lr_mult: 2
    decay_mult: 0
  }
  inner_product_param {
    num_output: 500
    weight_filler {
      type: "xavier"
    }
    bias_filler {
      type: "constant"
      value: 0.2
    }
  }
}
layer {
  name: "reshape_frames"
  type: "Reshape"
  bottom: "embedded_in_frames"
  top: "embedded_input_frames"
  reshape_param {
    shape {
      dim: 1
      dim: 1
      dim: 500
    }
  }
}
layer {
  name: "reshape_stage_indicator"
  type: "Reshape"
  bottom: "stage_indicator"
  top: "reshaped_stage_indicator"
  reshape_param {
    shape {
      dim: 1
      dim: 1
      dim: 1
    }
  }
}
layer {
  name: "embedding"
  type: "Embed"
  bottom: "input_sentence"
  top: "embedded_input_sentence"
  param {
    lr_mult: 1
  }
  embed_param {
    num_output: 500
    input_dim: 46168
    bias_term: false
    weight_filler {
      type: "uniform"
      min: -0.08
      max: 0.08
    }
  }
}
layer {
  name: "lstm1"
  type: "LSTM"
  bottom: "embedded_input_frames"
  bottom: "cont_sentence"
  top: "lstm1"
  recurrent_param {
    num_output: 1000
    weight_filler {
      type: "uniform"
      min: -0.08
      max: 0.08
    }
    bias_filler {
      type: "constant"
      value: 0
    }
  }
}
layer {
  name: "concat"
  type: "Concat"
  bottom: "lstm1"
  bottom: "embedded_input_sentence"
  bottom: "reshaped_stage_indicator"
  top: "lstm1_video_sequence"
  concat_param {
    concat_dim: 2
  }
}
layer {
  name: "lstm2"
  type: "LSTM"
  bottom: "lstm1_video_sequence"
  bottom: "cont_sentence"
  top: "lstm2"
  recurrent_param {
    num_output: 1000
    weight_filler {
      type: "uniform"
      min: -0.08
      max: 0.08
    }
    bias_filler {
      type: "constant"
      value: 0
    }
  }
}
layer {
  name: "predict"
  type: "InnerProduct"
  bottom: "lstm2"
  top: "predict"
  param {
    lr_mult: 1
    decay_mult: 1
  }
  param {
    lr_mult: 2
    decay_mult: 0
  }
  inner_product_param {
    num_output: 46168
    weight_filler {
      type: "uniform"
      min: -0.08
      max: 0.08
    }
    bias_filler {
      type: "constant"
      value: 0
    }
    axis: 2
  }
}
layer {
  name: "probs"
  type: "Softmax"
  bottom: "predict"
  top: "probs"
  softmax_param {
    axis: 2
  }
}
I0925 22:04:17.707883 17024 net.cpp:49] Initializing net from parameters: 
name: "s2vt:features_to_lstm"
state {
  phase: TEST
}
layer {
  name: "input"
  type: "Input"
  top: "frames_fc7"
  top: "cont_sentence"
  top: "input_sentence"
  top: "stage_indicator"
  input_param {
    shape {
      dim: 1
      dim: 4096
    }
    shape {
      dim: 1
      dim: 1
    }
    shape {
      dim: 1
      dim: 1
    }
    shape {
      dim: 1
      dim: 1
    }
  }
}
layer {
  name: "embed_encoder"
  type: "InnerProduct"
  bottom: "frames_fc7"
  top: "embedded_in_frames"
  param {
    lr_mult: 1
    decay_mult: 1
  }
  param {
    lr_mult: 2
    decay_mult: 0
  }
  inner_product_param {
    num_output: 500
    weight_filler {
      type: "xavier"
    }
    bias_filler {
      type: "constant"
      value: 0.2
    }
  }
}
layer {
  name: "reshape_frames"
  type: "Reshape"
  bottom: "embedded_in_frames"
  top: "embedded_input_frames"
  reshape_param {
    shape {
      dim: 1
      dim: 1
      dim: 500
    }
  }
}
layer {
  name: "reshape_stage_indicator"
  type: "Reshape"
  bottom: "stage_indicator"
  top: "reshaped_stage_indicator"
  reshape_param {
    shape {
      dim: 1
      dim: 1
      dim: 1
    }
  }
}
layer {
  name: "embedding"
  type: "Embed"
  bottom: "input_sentence"
  top: "embedded_input_sentence"
  param {
    lr_mult: 1
  }
  embed_param {
    num_output: 500
    input_dim: 46168
    bias_term: false
    weight_filler {
      type: "uniform"
      min: -0.08
      max: 0.08
    }
  }
}
layer {
  name: "lstm1"
  type: "LSTM"
  bottom: "embedded_input_frames"
  bottom: "cont_sentence"
  top: "lstm1"
  recurrent_param {
    num_output: 1000
    weight_filler {
      type: "uniform"
      min: -0.08
      max: 0.08
    }
    bias_filler {
      type: "constant"
      value: 0
    }
  }
}
layer {
  name: "concat"
  type: "Concat"
  bottom: "lstm1"
  bottom: "embedded_input_sentence"
  bottom: "reshaped_stage_indicator"
  top: "lstm1_video_sequence"
  concat_param {
    concat_dim: 2
  }
}
layer {
  name: "lstm2"
  type: "LSTM"
  bottom: "lstm1_video_sequence"
  bottom: "cont_sentence"
  top: "lstm2"
  recurrent_param {
    num_output: 1000
    weight_filler {
      type: "uniform"
      min: -0.08
      max: 0.08
    }
    bias_filler {
      type: "constant"
      value: 0
    }
  }
}
layer {
  name: "predict"
  type: "InnerProduct"
  bottom: "lstm2"
  top: "predict"
  param {
    lr_mult: 1
    decay_mult: 1
  }
  param {
    lr_mult: 2
    decay_mult: 0
  }
  inner_product_param {
    num_output: 46168
    weight_filler {
      type: "uniform"
      min: -0.08
      max: 0.08
    }
    bias_filler {
      type: "constant"
      value: 0
    }
    axis: 2
  }
}
layer {
  name: "probs"
  type: "Softmax"
  bottom: "predict"
  top: "probs"
  softmax_param {
    axis: 2
  }
}
I0925 22:04:17.707877 17022 net.cpp:49] Initializing net from parameters: 
name: "CaffeNet"
state {
  phase: TEST
}
layer {
  name: "data"
  type: "Input"
  top: "data"
  input_param {
    shape {
      dim: 10
      dim: 3
      dim: 227
      dim: 227
    }
  }
}
layer {
  name: "conv1"
  type: "Convolution"
  bottom: "data"
  top: "conv1"
  convolution_param {
    num_output: 96
    kernel_size: 11
    stride: 4
  }
}
layer {
  name: "relu1"
  type: "ReLU"
  bottom: "conv1"
  top: "conv1"
}
layer {
  name: "pool1"
  type: "Pooling"
  bottom: "conv1"
  top: "pool1"
  pooling_param {
    pool: MAX
    kernel_size: 3
    stride: 2
  }
}
layer {
  name: "norm1"
  type: "LRN"
  bottom: "pool1"
  top: "norm1"
  lrn_param {
    local_size: 5
    alpha: 0.0001
    beta: 0.75
  }
}
layer {
  name: "conv2"
  type: "Convolution"
  bottom: "norm1"
  top: "conv2"
  convolution_param {
    num_output: 256
    pad: 2
    kernel_size: 5
    group: 2
  }
}
layer {
  name: "relu2"
  type: "ReLU"
  bottom: "conv2"
  top: "conv2"
}
layer {
  name: "pool2"
  type: "Pooling"
  bottom: "conv2"
  top: "pool2"
  pooling_param {
    pool: MAX
    kernel_size: 3
    stride: 2
  }
}
layer {
  name: "norm2"
  type: "LRN"
  bottom: "pool2"
  top: "norm2"
  lrn_param {
    local_size: 5
    alpha: 0.0001
    beta: 0.75
  }
}
layer {
  name: "conv3"
  type: "Convolution"
  bottom: "norm2"
  top: "conv3"
  convolution_param {
    num_output: 384
    pad: 1
    kernel_size: 3
  }
}
layer {
  name: "relu3"
  type: "ReLU"
  bottom: "conv3"
  top: "conv3"
}
layer {
  name: "conv4"
  type: "Convolution"
  bottom: "conv3"
  top: "conv4"
  convolution_param {
    num_output: 384
    pad: 1
    kernel_size: 3
    group: 2
  }
}
layer {
  name: "relu4"
  type: "ReLU"
  bottom: "conv4"
  top: "conv4"
}
layer {
  name: "conv5"
  type: "Convolution"
  bottom: "conv4"
  top: "conv5"
  convolution_param {
    num_output: 256
    pad: 1
    kernel_size: 3
    group: 2
  }
}
layer {
  name: "relu5"
  type: "ReLU"
  bottom: "conv5"
  top: "conv5"
}
layer {
  name: "pool5"
  type: "Pooling"
  bottom: "conv5"
  top: "pool5"
  pooling_param {
    pool: MAX
    kernel_size: 3
    stride: 2
  }
}
layer {
  name: "fc6"
  type: "InnerProduct"
  bottom: "pool5"
  top: "fc6"
  inner_product_param {
    num_output: 4096
  }
}
layer {
  name: "relu6"
  type: "ReLU"
  bottom: "fc6"
  top: "fc6"
}
layer {
  name: "drop6"
  type: "Dropout"
  bottom: "fc6"
  top: "fc6"
  dropout_param {
    dropout_ratio: 0.5
  }
}
layer {
  name: "fc7"
  type: "InnerProduct"
  bottom: "fc6"
  top: "fc7"
  inner_product_param {
    num_output: 4096
  }
}
layer {
  name: "relu7"
  type: "ReLU"
  bottom: "fc7"
  top: "fc7"
}
layer {
  name: "drop7"
  type: "Dropout"
  bottom: "fc7"
  top: "fc7"
  dropout_param {
    dropout_ratio: 0.5
  }
}
layer {
  name: "fc8"
  type: "InnerProduct"
  bottom: "fc7"
  top: "fc8"
  inner_product_param {
    num_output: 1000
  }
}
layer {
  name: "prob"
  type: "Softmax"
  bottom: "fc8"
  top: "prob"
}
I0925 22:04:17.708148 17000 layer_factory.hpp:77] Creating layer input
I0925 22:04:17.708159 17024 layer_factory.hpp:77] Creating layer input
I0925 22:04:17.708148 16998 layer_factory.hpp:77] Creating layer input
I0925 22:04:17.708149 16996 layer_factory.hpp:77] Creating layer input
I0925 22:04:17.708186 17030 layer_factory.hpp:77] Creating layer input
I0925 22:04:17.708165 17006 layer_factory.hpp:77] Creating layer input
…
I0925 22:04:17.708421 16996 net.cpp:399] input -> stage_indicator
I0925 22:04:17.708431 17006 net.cpp:399] input -> input_sentence
I0925 22:04:17.708426 17030 net.cpp:399] input -> input_sentence
I0925 22:04:17.708425 17000 net.cpp:399] input -> input_sentence
I0925 22:04:17.708463 17006 net.cpp:399] input -> stage_indicator
I0925 22:04:17.708472 17030 net.cpp:399] input -> stage_indicator
I0925 22:04:17.708483 17000 net.cpp:399] input -> stage_indicator
I0925 22:04:18.556253 17022 net.cpp:141] Setting up data
I0925 22:04:18.556349 17024 net.cpp:141] Setting up input
I0925 22:04:18.556388 17024 net.cpp:148] Top shape: 1 4096 (4096)
I0925 22:04:18.556391 17022 net.cpp:148] Top shape: 10 3 227 227 (1545870)
I0925 22:04:18.556399 17024 net.cpp:148] Top shape: 1 1 (1)
I0925 22:04:18.556407 17024 net.cpp:148] Top shape: 1 1 (1)
I0925 22:04:18.556414 17024 net.cpp:148] Top shape: 1 1 (1)
I0925 22:04:18.556406 17022 net.cpp:156] Memory required for data: 6183480
I0925 22:04:18.556419 17024 net.cpp:156] Memory required for data: 16396
I0925 22:04:18.556440 17024 layer_factory.hpp:77] Creating layer cont_sentence_input_1_split
I0925 22:04:18.556442 17022 layer_factory.hpp:77] Creating layer conv1
I0925 22:04:18.556474 17024 net.cpp:91] Creating Layer cont_sentence_input_1_split
I0925 22:04:18.556486 17024 net.cpp:425] cont_sentence_input_1_split <- cont_sentence
I0925 22:04:18.556488 17022 net.cpp:91] Creating Layer conv1
I0925 22:04:18.556501 17022 net.cpp:425] conv1 <- data
I0925 22:04:18.556514 17024 net.cpp:399] cont_sentence_input_1_split -> cont_sentence_input_1_split_0
I0925 22:04:18.556521 17022 net.cpp:399] conv1 -> conv1
I0925 22:04:18.556534 17024 net.cpp:399] cont_sentence_input_1_split -> cont_sentence_input_1_split_1
I0925 22:04:18.556718 17030 net.cpp:141] Setting up input
I0925 22:04:18.556740 17030 net.cpp:148] Top shape: 1 4096 (4096)
I0925 22:04:18.556747 17030 net.cpp:148] Top shape: 1 1 (1)
I0925 22:04:18.556754 17030 net.cpp:148] Top shape: 1 1 (1)
I0925 22:04:18.556761 17030 net.cpp:148] Top shape: 1 1 (1)
I0925 22:04:18.556758 17024 net.cpp:141] Setting up cont_sentence_input_1_split
I0925 22:04:18.556766 17030 net.cpp:156] Memory required for data: 16396
I0925 22:04:18.556772 17030 layer_factory.hpp:77] Creating layer cont_sentence_input_1_split
I0925 22:04:18.556773 17024 net.cpp:148] Top shape: 1 1 (1)
I0925 22:04:18.556790 17024 net.cpp:148] Top shape: 1 1 (1)
I0925 22:04:18.556797 17024 net.cpp:156] Memory required for data: 16404
I0925 22:04:18.556802 17030 net.cpp:91] Creating Layer cont_sentence_input_1_split
I0925 22:04:18.556804 17024 layer_factory.hpp:77] Creating layer embed_encoder
I0925 22:04:18.556810 17030 net.cpp:425] cont_sentence_input_1_split <- cont_sentence
I0925 22:04:18.556819 17030 net.cpp:399] cont_sentence_input_1_split -> cont_sentence_input_1_split_0
I0925 22:04:18.556829 17024 net.cpp:91] Creating Layer embed_encoder
I0925 22:04:18.556838 17024 net.cpp:425] embed_encoder <- frames_fc7
I0925 22:04:18.556844 17030 net.cpp:399] cont_sentence_input_1_split -> cont_sentence_input_1_split_1
I0925 22:04:18.556849 17024 net.cpp:399] embed_encoder -> embedded_in_frames
I0925 22:04:18.557026 17006 net.cpp:141] Setting up input
I0925 22:04:18.557052 17006 net.cpp:148] Top shape: 1 4096 (4096)
I0925 22:04:18.557066 17006 net.cpp:148] Top shape: 1 1 (1)
I0925 22:04:18.557077 17006 net.cpp:148] Top shape: 1 1 (1)
I0925 22:04:18.557085 17006 net.cpp:148] Top shape: 1 1 (1)
I0925 22:04:18.557090 17006 net.cpp:156] Memory required for data: 16396
I0925 22:04:18.557096 17006 layer_factory.hpp:77] Creating layer cont_sentence_input_1_split
I0925 22:04:18.557111 17006 net.cpp:91] Creating Layer cont_sentence_input_1_split
I0925 22:04:18.557118 17006 net.cpp:425] cont_sentence_input_1_split <- cont_sentence
I0925 22:04:18.557127 17006 net.cpp:399] cont_sentence_input_1_split -> cont_sentence_input_1_split_0
I0925 22:04:18.557139 17006 net.cpp:399] cont_sentence_input_1_split -> cont_sentence_input_1_split_1
I0925 22:04:18.557143 16998 net.cpp:141] Setting up input
I0925 22:04:18.557183 16998 net.cpp:148] Top shape: 1 4096 (4096)
I0925 22:04:18.557183 17030 net.cpp:141] Setting up cont_sentence_input_1_split
I0925 22:04:18.557199 16998 net.cpp:148] Top shape: 1 1 (1)
I0925 22:04:18.557216 17030 net.cpp:148] Top shape: 1 1 (1)
I0925 22:04:18.557224 17030 net.cpp:148] Top shape: 1 1 (1)
I0925 22:04:18.557229 16998 net.cpp:148] Top shape: 1 1 (1)
I0925 22:04:18.557230 17030 net.cpp:156] Memory required for data: 16404
I0925 22:04:18.557241 16998 net.cpp:148] Top shape: 1 1 (1)
I0925 22:04:18.557243 17030 layer_factory.hpp:77] Creating layer embed_encoder
I0925 22:04:18.557246 16998 net.cpp:156] Memory required for data: 16396
I0925 22:04:18.557252 16998 layer_factory.hpp:77] Creating layer cont_sentence_input_1_split
I0925 22:04:18.557270 16998 net.cpp:91] Creating Layer cont_sentence_input_1_split
I0925 22:04:18.557276 16998 net.cpp:425] cont_sentence_input_1_split <- cont_sentence
I0925 22:04:18.557273 16996 net.cpp:141] Setting up input
I0925 22:04:18.557281 17030 net.cpp:91] Creating Layer embed_encoder
I0925 22:04:18.557293 16996 net.cpp:148] Top shape: 1 4096 (4096)
I0925 22:04:18.557297 17030 net.cpp:425] embed_encoder <- frames_fc7
I0925 22:04:18.557286 16998 net.cpp:399] cont_sentence_input_1_split -> cont_sentence_input_1_split_0
I0925 22:04:18.557306 16996 net.cpp:148] Top shape: 1 1 (1)
I0925 22:04:18.557308 17030 net.cpp:399] embed_encoder -> embedded_in_frames
I0925 22:04:18.557313 16996 net.cpp:148] Top shape: 1 1 (1)
I0925 22:04:18.557319 16996 net.cpp:148] Top shape: 1 1 (1)
I0925 22:04:18.557318 16998 net.cpp:399] cont_sentence_input_1_split -> cont_sentence_input_1_split_1
I0925 22:04:18.557328 16996 net.cpp:156] Memory required for data: 16396
I0925 22:04:18.557335 16996 layer_factory.hpp:77] Creating layer cont_sentence_input_1_split
I0925 22:04:18.557346 16996 net.cpp:91] Creating Layer cont_sentence_input_1_split
I0925 22:04:18.557353 16996 net.cpp:425] cont_sentence_input_1_split <- cont_sentence
I0925 22:04:18.557364 16996 net.cpp:399] cont_sentence_input_1_split -> cont_sentence_input_1_split_0
I0925 22:04:18.557376 16996 net.cpp:399] cont_sentence_input_1_split -> cont_sentence_input_1_split_1
I0925 22:04:18.561987 17006 net.cpp:141] Setting up cont_sentence_input_1_split
I0925 22:04:18.562034 17006 net.cpp:148] Top shape: 1 1 (1)
I0925 22:04:18.562048 17006 net.cpp:148] Top shape: 1 1 (1)
I0925 22:04:18.562058 17006 net.cpp:156] Memory required for data: 16404
I0925 22:04:18.562072 17006 layer_factory.hpp:77] Creating layer embed_encoder
I0925 22:04:18.562120 17006 net.cpp:91] Creating Layer embed_encoder
I0925 22:04:18.562136 17006 net.cpp:425] embed_encoder <- frames_fc7
I0925 22:04:18.562157 17006 net.cpp:399] embed_encoder -> embedded_in_frames
I0925 22:04:18.562258 17000 net.cpp:141] Setting up input
I0925 22:04:18.562271 17000 net.cpp:148] Top shape: 1 4096 (4096)
I0925 22:04:18.562279 17000 net.cpp:148] Top shape: 1 1 (1)
I0925 22:04:18.562285 17000 net.cpp:148] Top shape: 1 1 (1)
I0925 22:04:18.562292 17000 net.cpp:148] Top shape: 1 1 (1)
I0925 22:04:18.562297 17000 net.cpp:156] Memory required for data: 16396
I0925 22:04:18.562304 17000 layer_factory.hpp:77] Creating layer cont_sentence_input_1_split
I0925 22:04:18.562319 17000 net.cpp:91] Creating Layer cont_sentence_input_1_split
I0925 22:04:18.562325 17000 net.cpp:425] cont_sentence_input_1_split <- cont_sentence
I0925 22:04:18.562336 17000 net.cpp:399] cont_sentence_input_1_split -> cont_sentence_input_1_split_0
I0925 22:04:18.562348 17000 net.cpp:399] cont_sentence_input_1_split -> cont_sentence_input_1_split_1
I0925 22:04:18.567159 16998 net.cpp:141] Setting up cont_sentence_input_1_split
I0925 22:04:18.567185 16996 net.cpp:141] Setting up cont_sentence_input_1_split
I0925 22:04:18.567226 16998 net.cpp:148] Top shape: 1 1 (1)
I0925 22:04:18.567239 16996 net.cpp:148] Top shape: 1 1 (1)
I0925 22:04:18.567243 16998 net.cpp:148] Top shape: 1 1 (1)
I0925 22:04:18.567256 16998 net.cpp:156] Memory required for data: 16404
I0925 22:04:18.567257 16996 net.cpp:148] Top shape: 1 1 (1)
I0925 22:04:18.567267 16998 layer_factory.hpp:77] Creating layer embed_encoder
I0925 22:04:18.567268 16996 net.cpp:156] Memory required for data: 16404
I0925 22:04:18.567284 16996 layer_factory.hpp:77] Creating layer embed_encoder
I0925 22:04:18.567299 16998 net.cpp:91] Creating Layer embed_encoder
I0925 22:04:18.567308 16998 net.cpp:425] embed_encoder <- frames_fc7
I0925 22:04:18.567314 16996 net.cpp:91] Creating Layer embed_encoder
I0925 22:04:18.567322 16998 net.cpp:399] embed_encoder -> embedded_in_frames
I0925 22:04:18.567328 16996 net.cpp:425] embed_encoder <- frames_fc7
I0925 22:04:18.567353 16996 net.cpp:399] embed_encoder -> embedded_in_frames
I0925 22:04:18.572072 17000 net.cpp:141] Setting up cont_sentence_input_1_split
I0925 22:04:18.572129 17000 net.cpp:148] Top shape: 1 1 (1)
I0925 22:04:18.572141 17000 net.cpp:148] Top shape: 1 1 (1)
I0925 22:04:18.572149 17000 net.cpp:156] Memory required for data: 16404
I0925 22:04:18.572160 17000 layer_factory.hpp:77] Creating layer embed_encoder
I0925 22:04:18.572190 17000 net.cpp:91] Creating Layer embed_encoder
I0925 22:04:18.572204 17000 net.cpp:425] embed_encoder <- frames_fc7
I0925 22:04:18.572221 17000 net.cpp:399] embed_encoder -> embedded_in_frames
I0925 22:04:18.590553 17024 net.cpp:141] Setting up embed_encoder
I0925 22:04:18.590631 17024 net.cpp:148] Top shape: 1 500 (500)
I0925 22:04:18.590644 17024 net.cpp:156] Memory required for data: 18404
I0925 22:04:18.590688 17024 layer_factory.hpp:77] Creating layer reshape_frames
I0925 22:04:18.590731 17024 net.cpp:91] Creating Layer reshape_frames
I0925 22:04:18.590746 17024 net.cpp:425] reshape_frames <- embedded_in_frames
I0925 22:04:18.590764 17024 net.cpp:399] reshape_frames -> embedded_input_frames
I0925 22:04:18.591863 17024 net.cpp:141] Setting up reshape_frames
I0925 22:04:18.591883 17024 net.cpp:148] Top shape: 1 1 500 (500)
I0925 22:04:18.591892 17024 net.cpp:156] Memory required for data: 20404
I0925 22:04:18.591902 17024 layer_factory.hpp:77] Creating layer reshape_stage_indicator
I0925 22:04:18.591922 17024 net.cpp:91] Creating Layer reshape_stage_indicator
I0925 22:04:18.591934 17024 net.cpp:425] reshape_stage_indicator <- stage_indicator
I0925 22:04:18.591953 17024 net.cpp:399] reshape_stage_indicator -> reshaped_stage_indicator
I0925 22:04:18.592339 17024 net.cpp:141] Setting up reshape_stage_indicator
I0925 22:04:18.592360 17024 net.cpp:148] Top shape: 1 1 1 (1)
I0925 22:04:18.592370 17024 net.cpp:156] Memory required for data: 20408
I0925 22:04:18.592380 17024 layer_factory.hpp:77] Creating layer embedding
I0925 22:04:18.592402 17024 net.cpp:91] Creating Layer embedding
I0925 22:04:18.592408 17030 net.cpp:141] Setting up embed_encoder
I0925 22:04:18.592414 17024 net.cpp:425] embedding <- input_sentence
I0925 22:04:18.592427 17030 net.cpp:148] Top shape: 1 500 (500)
I0925 22:04:18.592432 17024 net.cpp:399] embedding -> embedded_input_sentence
I0925 22:04:18.592435 17030 net.cpp:156] Memory required for data: 18404
I0925 22:04:18.592458 17030 layer_factory.hpp:77] Creating layer reshape_frames
I0925 22:04:18.592495 17030 net.cpp:91] Creating Layer reshape_frames
I0925 22:04:18.592509 17030 net.cpp:425] reshape_frames <- embedded_in_frames
I0925 22:04:18.592526 17030 net.cpp:399] reshape_frames -> embedded_input_frames
I0925 22:04:18.643827 17030 net.cpp:141] Setting up reshape_frames
I0925 22:04:18.643916 17030 net.cpp:148] Top shape: 1 1 500 (500)
I0925 22:04:18.643937 17030 net.cpp:156] Memory required for data: 20404
I0925 22:04:18.643964 17030 layer_factory.hpp:77] Creating layer reshape_stage_indicator
I0925 22:04:18.644028 17030 net.cpp:91] Creating Layer reshape_stage_indicator
I0925 22:04:18.644053 17030 net.cpp:425] reshape_stage_indicator <- stage_indicator
I0925 22:04:18.644119 17030 net.cpp:399] reshape_stage_indicator -> reshaped_stage_indicator
I0925 22:04:18.645933 17030 net.cpp:141] Setting up reshape_stage_indicator
I0925 22:04:18.645992 17030 net.cpp:148] Top shape: 1 1 1 (1)
I0925 22:04:18.646009 17030 net.cpp:156] Memory required for data: 20408
I0925 22:04:18.646028 17030 layer_factory.hpp:77] Creating layer embedding
I0925 22:04:18.646073 17030 net.cpp:91] Creating Layer embedding
I0925 22:04:18.646095 17030 net.cpp:425] embedding <- input_sentence
I0925 22:04:18.646152 17030 net.cpp:399] embedding -> embedded_input_sentence
I0925 22:04:18.646176 16996 net.cpp:141] Setting up embed_encoder
I0925 22:04:18.646204 16996 net.cpp:148] Top shape: 1 500 (500)
I0925 22:04:18.646214 16996 net.cpp:156] Memory required for data: 18404
I0925 22:04:18.646246 16996 layer_factory.hpp:77] Creating layer reshape_frames
I0925 22:04:18.646268 16996 net.cpp:91] Creating Layer reshape_frames
I0925 22:04:18.646280 16996 net.cpp:425] reshape_frames <- embedded_in_frames
I0925 22:04:18.646296 16996 net.cpp:399] reshape_frames -> embedded_input_frames
I0925 22:04:18.646363 16996 net.cpp:141] Setting up reshape_frames
I0925 22:04:18.646378 16996 net.cpp:148] Top shape: 1 1 500 (500)
I0925 22:04:18.646386 16996 net.cpp:156] Memory required for data: 20404
I0925 22:04:18.646395 16996 layer_factory.hpp:77] Creating layer reshape_stage_indicator
I0925 22:04:18.646397 16998 net.cpp:141] Setting up embed_encoder
I0925 22:04:18.646414 16996 net.cpp:91] Creating Layer reshape_stage_indicator
I0925 22:04:18.646423 16998 net.cpp:148] Top shape: 1 500 (500)
I0925 22:04:18.646425 16996 net.cpp:425] reshape_stage_indicator <- stage_indicator
I0925 22:04:18.646438 16998 net.cpp:156] Memory required for data: 18404
I0925 22:04:18.646458 16996 net.cpp:399] reshape_stage_indicator -> reshaped_stage_indicator
I0925 22:04:18.646478 16998 layer_factory.hpp:77] Creating layer reshape_frames
I0925 22:04:18.646507 16998 net.cpp:91] Creating Layer reshape_frames
I0925 22:04:18.646517 16998 net.cpp:425] reshape_frames <- embedded_in_frames
I0925 22:04:18.646531 16998 net.cpp:399] reshape_frames -> embedded_input_frames
I0925 22:04:18.700055 17000 net.cpp:141] Setting up embed_encoder
I0925 22:04:18.700122 17000 net.cpp:148] Top shape: 1 500 (500)
I0925 22:04:18.700134 17000 net.cpp:156] Memory required for data: 18404
I0925 22:04:18.700139 16996 net.cpp:141] Setting up reshape_stage_indicator
I0925 22:04:18.700168 17000 layer_factory.hpp:77] Creating layer reshape_frames
I0925 22:04:18.700171 16996 net.cpp:148] Top shape: 1 1 1 (1)
I0925 22:04:18.700181 16996 net.cpp:156] Memory required for data: 20408
I0925 22:04:18.700189 16996 layer_factory.hpp:77] Creating layer embedding
I0925 22:04:18.700186 16998 net.cpp:141] Setting up reshape_frames
I0925 22:04:18.700203 17000 net.cpp:91] Creating Layer reshape_frames
I0925 22:04:18.700209 16996 net.cpp:91] Creating Layer embedding
I0925 22:04:18.700215 16998 net.cpp:148] Top shape: 1 1 500 (500)
I0925 22:04:18.700217 17000 net.cpp:425] reshape_frames <- embedded_in_frames
I0925 22:04:18.700220 16996 net.cpp:425] embedding <- input_sentence
I0925 22:04:18.700227 16998 net.cpp:156] Memory required for data: 20404
I0925 22:04:18.700235 17000 net.cpp:399] reshape_frames -> embedded_input_frames
I0925 22:04:18.700237 16998 layer_factory.hpp:77] Creating layer reshape_stage_indicator
I0925 22:04:18.700243 16996 net.cpp:399] embedding -> embedded_input_sentence
I0925 22:04:18.700261 16998 net.cpp:91] Creating Layer reshape_stage_indicator
I0925 22:04:18.700275 16998 net.cpp:425] reshape_stage_indicator <- stage_indicator
I0925 22:04:18.700310 17000 net.cpp:141] Setting up reshape_frames
I0925 22:04:18.700325 17000 net.cpp:148] Top shape: 1 1 500 (500)
I0925 22:04:18.700335 17000 net.cpp:156] Memory required for data: 20404
I0925 22:04:18.700343 17000 layer_factory.hpp:77] Creating layer reshape_stage_indicator
I0925 22:04:18.700361 17000 net.cpp:91] Creating Layer reshape_stage_indicator
I0925 22:04:18.700350 16998 net.cpp:399] reshape_stage_indicator -> reshaped_stage_indicator
I0925 22:04:18.700387 17006 net.cpp:141] Setting up embed_encoder
I0925 22:04:18.700371 17000 net.cpp:425] reshape_stage_indicator <- stage_indicator
I0925 22:04:18.700409 17006 net.cpp:148] Top shape: 1 500 (500)
I0925 22:04:18.700413 17000 net.cpp:399] reshape_stage_indicator -> reshaped_stage_indicator
I0925 22:04:18.700420 17006 net.cpp:156] Memory required for data: 18404
I0925 22:04:18.700448 17006 layer_factory.hpp:77] Creating layer reshape_frames
I0925 22:04:18.700487 17006 net.cpp:91] Creating Layer reshape_frames
I0925 22:04:18.700502 17006 net.cpp:425] reshape_frames <- embedded_in_frames
I0925 22:04:18.700517 17006 net.cpp:399] reshape_frames -> embedded_input_frames
I0925 22:04:18.750998 17000 net.cpp:141] Setting up reshape_stage_indicator
I0925 22:04:18.751049 17000 net.cpp:148] Top shape: 1 1 1 (1)
I0925 22:04:18.751060 17000 net.cpp:156] Memory required for data: 20408
I0925 22:04:18.751055 16998 net.cpp:141] Setting up reshape_stage_indicator
I0925 22:04:18.751076 17000 layer_factory.hpp:77] Creating layer embedding
I0925 22:04:18.751085 16998 net.cpp:148] Top shape: 1 1 1 (1)
I0925 22:04:18.751094 16998 net.cpp:156] Memory required for data: 20408
I0925 22:04:18.751111 17000 net.cpp:91] Creating Layer embedding
I0925 22:04:18.751126 17000 net.cpp:425] embedding <- input_sentence
I0925 22:04:18.751107 16998 layer_factory.hpp:77] Creating layer embedding
I0925 22:04:18.751148 17000 net.cpp:399] embedding -> embedded_input_sentence
I0925 22:04:18.751150 17006 net.cpp:141] Setting up reshape_frames
I0925 22:04:18.751149 16998 net.cpp:91] Creating Layer embedding
I0925 22:04:18.751201 17006 net.cpp:148] Top shape: 1 1 500 (500)
I0925 22:04:18.751209 17006 net.cpp:156] Memory required for data: 20404
I0925 22:04:18.751209 16998 net.cpp:425] embedding <- input_sentence
I0925 22:04:18.751220 17006 layer_factory.hpp:77] Creating layer reshape_stage_indicator
I0925 22:04:18.751230 16998 net.cpp:399] embedding -> embedded_input_sentence
I0925 22:04:18.751250 17006 net.cpp:91] Creating Layer reshape_stage_indicator
I0925 22:04:18.751273 17006 net.cpp:425] reshape_stage_indicator <- stage_indicator
I0925 22:04:18.751304 17006 net.cpp:399] reshape_stage_indicator -> reshaped_stage_indicator
I0925 22:04:18.754958 17006 net.cpp:141] Setting up reshape_stage_indicator
I0925 22:04:18.755014 17006 net.cpp:148] Top shape: 1 1 1 (1)
I0925 22:04:18.755024 17006 net.cpp:156] Memory required for data: 20408
I0925 22:04:18.755082 17006 layer_factory.hpp:77] Creating layer embedding
I0925 22:04:18.755115 17006 net.cpp:91] Creating Layer embedding
I0925 22:04:18.755128 17006 net.cpp:425] embedding <- input_sentence
I0925 22:04:18.755148 17006 net.cpp:399] embedding -> embedded_input_sentence
I0925 22:04:18.865043 17024 net.cpp:141] Setting up embedding
I0925 22:04:18.865159 17024 net.cpp:148] Top shape: 1 1 500 (500)
I0925 22:04:18.865183 17024 net.cpp:156] Memory required for data: 22408
I0925 22:04:18.865720 17024 layer_factory.hpp:77] Creating layer lstm1
I0925 22:04:18.865798 17024 net.cpp:91] Creating Layer lstm1
I0925 22:04:18.865830 17024 net.cpp:425] lstm1 <- embedded_input_frames
I0925 22:04:18.865862 17024 net.cpp:425] lstm1 <- cont_sentence_input_1_split_0
I0925 22:04:18.865897 17024 net.cpp:399] lstm1 -> lstm1
I0925 22:04:18.865977 17024 recurrent_layer.cpp:20] Initializing recurrent layer: assuming input batch contains 1 timesteps of 1 independent streams.
I0925 22:04:18.923465 17024 net.cpp:49] Initializing net from parameters: 
layer {
  name: "lstm1_"
  type: "Input"
  top: "x"
  top: "cont"
  input_param {
    shape {
      dim: 1
      dim: 1
      dim: 500
    }
    shape {
      dim: 1
      dim: 1
    }
  }
}
layer {
  name: "lstm1_"
  type: "Input"
  top: "c_0"
  top: "h_0"
  input_param {
    shape {
      dim: 1
      dim: 1
      dim: 1000
    }
    shape {
      dim: 1
      dim: 1
      dim: 1000
    }
  }
}
layer {
  name: "lstm1_cont_slice"
  type: "Slice"
  bottom: "cont"
  top: "cont_1"
  slice_param {
    axis: 0
  }
}
layer {
  name: "lstm1_x_transform"
  type: "InnerProduct"
  bottom: "x"
  top: "W_xc_x"
  param {
    name: "W_xc"
  }
  param {
    name: "b_c"
  }
  propagate_down: true
  inner_product_param {
    num_output: 4000
    bias_term: true
    weight_filler {
      type: "uniform"
      min: -0.08
      max: 0.08
    }
    bias_filler {
      type: "constant"
      value: 0
    }
    axis: 2
  }
}
layer {
  name: "lstm1_W_xc_x_slice"
  type: "Slice"
  bottom: "W_xc_x"
  top: "W_xc_x_1"
  slice_param {
    axis: 0
  }
}
layer {
  name: "lstm1_h_conted_0"
  type: "Scale"
  bottom: "h_0"
  bottom: "cont_1"
  top: "h_conted_0"
  scale_param {
    axis: 0
  }
}
layer {
  name: "lstm1_transform_1"
  type: "InnerProduct"
  bottom: "h_conted_0"
  top: "W_hc_h_0"
  param {
    name: "W_hc"
  }
  inner_product_param {
    num_output: 4000
    bias_term: false
    weight_filler {
      type: "uniform"
      min: -0.08
      max: 0.08
    }
    axis: 2
  }
}
layer {
  name: "lstm1_gate_input_1"
  type: "Eltwise"
  bottom: "W_hc_h_0"
  bottom: "W_xc_x_1"
  top: "gate_input_1"
  eltwise_param {
    operation: SUM
  }
}
layer {
  name: "lstm1_unit_1"
  type: "LSTMUnit"
  bottom: "c_0"
  bottom: "gate_input_1"
  bottom: "cont_1"
  top: "c_1"
  top: "h_1"
}
layer {
  name: "lstm1_"
  type: "Split"
  bottom: "c_1"
  top: "c_T"
}
layer {
  name: "lstm1_h_concat"
  type: "Concat"
  bottom: "h_1"
  top: "h"
  concat_param {
    axis: 0
  }
}
layer {
  name: "h_pseudoloss"
  type: "Reduction"
  bottom: "h"
  top: "h_pseudoloss"
  loss_weight: 1
}
I0925 22:04:18.926836 17024 layer_factory.hpp:77] Creating layer lstm1_
I0925 22:04:18.926861 17024 net.cpp:91] Creating Layer lstm1_
I0925 22:04:18.926869 17024 net.cpp:399] lstm1_ -> x
I0925 22:04:18.926890 17024 net.cpp:399] lstm1_ -> cont
I0925 22:04:18.927428 17030 net.cpp:141] Setting up embedding
I0925 22:04:18.927453 17030 net.cpp:148] Top shape: 1 1 500 (500)
I0925 22:04:18.927459 17030 net.cpp:156] Memory required for data: 22408
I0925 22:04:18.927475 17030 layer_factory.hpp:77] Creating layer lstm1
I0925 22:04:18.927491 17030 net.cpp:91] Creating Layer lstm1
I0925 22:04:18.927500 17030 net.cpp:425] lstm1 <- embedded_input_frames
I0925 22:04:18.927508 17030 net.cpp:425] lstm1 <- cont_sentence_input_1_split_0
I0925 22:04:18.927531 17030 net.cpp:399] lstm1 -> lstm1
I0925 22:04:18.927547 17024 net.cpp:141] Setting up lstm1_
I0925 22:04:18.927548 17030 recurrent_layer.cpp:20] Initializing recurrent layer: assuming input batch contains 1 timesteps of 1 independent streams.
I0925 22:04:18.927577 17024 net.cpp:148] Top shape: 1 1 500 (500)
I0925 22:04:18.927587 17024 net.cpp:148] Top shape: 1 1 (1)
I0925 22:04:18.927592 17024 net.cpp:156] Memory required for data: 2004
I0925 22:04:18.927597 17024 layer_factory.hpp:77] Creating layer lstm1_
I0925 22:04:18.927611 17024 net.cpp:91] Creating Layer lstm1_
I0925 22:04:18.927623 17024 net.cpp:399] lstm1_ -> c_0
I0925 22:04:18.927636 17024 net.cpp:399] lstm1_ -> h_0
I0925 22:04:18.927901 17030 net.cpp:49] Initializing net from parameters: 
layer {
  name: "lstm1_"
  type: "Input"
  top: "x"
  top: "cont"
  input_param {
    shape {
      dim: 1
      dim: 1
      dim: 500
    }
    shape {
      dim: 1
      dim: 1
    }
  }
}
layer {
  name: "lstm1_"
  type: "Input"
  top: "c_0"
  top: "h_0"
  input_param {
    shape {
      dim: 1
      dim: 1
      dim: 1000
    }
    shape {
      dim: 1
      dim: 1
      dim: 1000
    }
  }
}
layer {
  name: "lstm1_cont_slice"
  type: "Slice"
  bottom: "cont"
  top: "cont_1"
  slice_param {
    axis: 0
  }
}
layer {
  name: "lstm1_x_transform"
  type: "InnerProduct"
  bottom: "x"
  top: "W_xc_x"
  param {
    name: "W_xc"
  }
  param {
    name: "b_c"
  }
  propagate_down: true
  inner_product_param {
    num_output: 4000
    bias_term: true
    weight_filler {
      type: "uniform"
      min: -0.08
      max: 0.08
    }
    bias_filler {
      type: "constant"
      value: 0
    }
    axis: 2
  }
}
layer {
  name: "lstm1_W_xc_x_slice"
  type: "Slice"
  bottom: "W_xc_x"
  top: "W_xc_x_1"
  slice_param {
    axis: 0
  }
}
layer {
  name: "lstm1_h_conted_0"
  type: "Scale"
  bottom: "h_0"
  bottom: "cont_1"
  top: "h_conted_0"
  scale_param {
    axis: 0
  }
}
layer {
  name: "lstm1_transform_1"
  type: "InnerProduct"
  bottom: "h_conted_0"
  top: "W_hc_h_0"
  param {
    name: "W_hc"
  }
  inner_product_param {
    num_output: 4000
    bias_term: false
    weight_filler {
      type: "uniform"
      min: -0.08
      max: 0.08
    }
    axis: 2
  }
}
layer {
  name: "lstm1_gate_input_1"
  type: "Eltwise"
  bottom: "W_hc_h_0"
  bottom: "W_xc_x_1"
  top: "gate_input_1"
  eltwise_param {
    operation: SUM
  }
}
layer {
  name: "lstm1_unit_1"
  type: "LSTMUnit"
  bottom: "c_0"
  bottom: "gate_input_1"
  bottom: "cont_1"
  top: "c_1"
  top: "h_1"
}
layer {
  name: "lstm1_"
  type: "Split"
  bottom: "c_1"
  top: "c_T"
}
layer {
  name: "lstm1_h_concat"
  type: "Concat"
  bottom: "h_1"
  top: "h"
  concat_param {
    axis: 0
  }
}
layer {
  name: "h_pseudoloss"
  type: "Reduction"
  bottom: "h"
  top: "h_pseudoloss"
  loss_weight: 1
}
I0925 22:04:18.927997 17030 layer_factory.hpp:77] Creating layer lstm1_
I0925 22:04:18.928010 17030 net.cpp:91] Creating Layer lstm1_
I0925 22:04:18.928017 17030 net.cpp:399] lstm1_ -> x
I0925 22:04:18.928030 17030 net.cpp:399] lstm1_ -> cont
I0925 22:04:18.933058 17030 net.cpp:141] Setting up lstm1_
I0925 22:04:18.933084 17024 net.cpp:141] Setting up lstm1_
I0925 22:04:18.933120 17024 net.cpp:148] Top shape: 1 1 1000 (1000)
I0925 22:04:18.933120 17030 net.cpp:148] Top shape: 1 1 500 (500)
I0925 22:04:18.933128 17024 net.cpp:148] Top shape: 1 1 1000 (1000)
I0925 22:04:18.933135 17024 net.cpp:156] Memory required for data: 10004
I0925 22:04:18.933135 17030 net.cpp:148] Top shape: 1 1 (1)
I0925 22:04:18.933145 17030 net.cpp:156] Memory required for data: 2004
I0925 22:04:18.933145 17024 layer_factory.hpp:77] Creating layer lstm1_cont_slice
I0925 22:04:18.933161 17030 layer_factory.hpp:77] Creating layer lstm1_
I0925 22:04:18.933179 17024 net.cpp:91] Creating Layer lstm1_cont_slice
I0925 22:04:18.933188 17024 net.cpp:425] lstm1_cont_slice <- cont
I0925 22:04:18.933187 17030 net.cpp:91] Creating Layer lstm1_
I0925 22:04:18.933218 17024 net.cpp:399] lstm1_cont_slice -> cont_1
I0925 22:04:18.933233 17030 net.cpp:399] lstm1_ -> c_0
I0925 22:04:18.933259 17030 net.cpp:399] lstm1_ -> h_0
I0925 22:04:18.938359 17024 net.cpp:141] Setting up lstm1_cont_slice
I0925 22:04:18.938418 17024 net.cpp:148] Top shape: 1 1 (1)
I0925 22:04:18.938418 17030 net.cpp:141] Setting up lstm1_
I0925 22:04:18.938429 17024 net.cpp:156] Memory required for data: 10008
I0925 22:04:18.938449 17030 net.cpp:148] Top shape: 1 1 1000 (1000)
I0925 22:04:18.938452 17024 layer_factory.hpp:77] Creating layer cont_1_lstm1_cont_slice_0_split
I0925 22:04:18.938467 17030 net.cpp:148] Top shape: 1 1 1000 (1000)
I0925 22:04:18.938477 17030 net.cpp:156] Memory required for data: 10004
I0925 22:04:18.938489 17030 layer_factory.hpp:77] Creating layer lstm1_cont_slice
I0925 22:04:18.938493 17024 net.cpp:91] Creating Layer cont_1_lstm1_cont_slice_0_split
I0925 22:04:18.938504 17024 net.cpp:425] cont_1_lstm1_cont_slice_0_split <- cont_1
I0925 22:04:18.938510 17030 net.cpp:91] Creating Layer lstm1_cont_slice
I0925 22:04:18.938518 17024 net.cpp:399] cont_1_lstm1_cont_slice_0_split -> cont_1_lstm1_cont_slice_0_split_0
I0925 22:04:18.938522 17030 net.cpp:425] lstm1_cont_slice <- cont
I0925 22:04:18.938540 17024 net.cpp:399] cont_1_lstm1_cont_slice_0_split -> cont_1_lstm1_cont_slice_0_split_1
I0925 22:04:18.938541 17030 net.cpp:399] lstm1_cont_slice -> cont_1
I0925 22:04:18.949127 17030 net.cpp:141] Setting up lstm1_cont_slice
I0925 22:04:18.949167 17024 net.cpp:141] Setting up cont_1_lstm1_cont_slice_0_split
I0925 22:04:18.949183 17030 net.cpp:148] Top shape: 1 1 (1)
I0925 22:04:18.949194 17024 net.cpp:148] Top shape: 1 1 (1)
I0925 22:04:18.949196 17030 net.cpp:156] Memory required for data: 10008
I0925 22:04:18.949208 17024 net.cpp:148] Top shape: 1 1 (1)
I0925 22:04:18.949213 17030 layer_factory.hpp:77] Creating layer cont_1_lstm1_cont_slice_0_split
I0925 22:04:18.949215 17024 net.cpp:156] Memory required for data: 10016
I0925 22:04:18.949237 17024 layer_factory.hpp:77] Creating layer lstm1_x_transform
I0925 22:04:18.949254 17030 net.cpp:91] Creating Layer cont_1_lstm1_cont_slice_0_split
I0925 22:04:18.949265 17024 net.cpp:91] Creating Layer lstm1_x_transform
I0925 22:04:18.949268 17030 net.cpp:425] cont_1_lstm1_cont_slice_0_split <- cont_1
I0925 22:04:18.949276 17024 net.cpp:425] lstm1_x_transform <- x
I0925 22:04:18.949290 17030 net.cpp:399] cont_1_lstm1_cont_slice_0_split -> cont_1_lstm1_cont_slice_0_split_0
I0925 22:04:18.949300 17024 net.cpp:399] lstm1_x_transform -> W_xc_x
I0925 22:04:18.949317 17030 net.cpp:399] cont_1_lstm1_cont_slice_0_split -> cont_1_lstm1_cont_slice_0_split_1
I0925 22:04:18.955510 17030 net.cpp:141] Setting up cont_1_lstm1_cont_slice_0_split
I0925 22:04:18.955571 17030 net.cpp:148] Top shape: 1 1 (1)
I0925 22:04:18.955587 17030 net.cpp:148] Top shape: 1 1 (1)
I0925 22:04:18.955597 17030 net.cpp:156] Memory required for data: 10016
I0925 22:04:18.955612 17030 layer_factory.hpp:77] Creating layer lstm1_x_transform
I0925 22:04:18.955651 17030 net.cpp:91] Creating Layer lstm1_x_transform
I0925 22:04:18.955664 17030 net.cpp:425] lstm1_x_transform <- x
I0925 22:04:18.955687 17030 net.cpp:399] lstm1_x_transform -> W_xc_x
I0925 22:04:18.982121 17024 net.cpp:141] Setting up lstm1_x_transform
I0925 22:04:18.982185 17024 net.cpp:148] Top shape: 1 1 4000 (4000)
I0925 22:04:18.982197 17024 net.cpp:156] Memory required for data: 26016
I0925 22:04:18.982234 17024 layer_factory.hpp:77] Creating layer lstm1_W_xc_x_slice
I0925 22:04:18.982277 17024 net.cpp:91] Creating Layer lstm1_W_xc_x_slice
I0925 22:04:18.982296 17024 net.cpp:425] lstm1_W_xc_x_slice <- W_xc_x
I0925 22:04:18.982314 17024 net.cpp:399] lstm1_W_xc_x_slice -> W_xc_x_1
I0925 22:04:18.988019 17024 net.cpp:141] Setting up lstm1_W_xc_x_slice
I0925 22:04:18.988564 17024 net.cpp:148] Top shape: 1 1 4000 (4000)
I0925 22:04:18.988328 17030 net.cpp:141] Setting up lstm1_x_transform
I0925 22:04:18.988585 17024 net.cpp:156] Memory required for data: 42016
I0925 22:04:18.988602 17024 layer_factory.hpp:77] Creating layer lstm1_h_conted_0
I0925 22:04:18.988605 17030 net.cpp:148] Top shape: 1 1 4000 (4000)
I0925 22:04:18.988618 17030 net.cpp:156] Memory required for data: 26016
I0925 22:04:18.988651 17030 layer_factory.hpp:77] Creating layer lstm1_W_xc_x_slice
I0925 22:04:18.988672 17030 net.cpp:91] Creating Layer lstm1_W_xc_x_slice
I0925 22:04:18.988680 17024 net.cpp:91] Creating Layer lstm1_h_conted_0
I0925 22:04:18.988688 17030 net.cpp:425] lstm1_W_xc_x_slice <- W_xc_x
I0925 22:04:18.988698 17024 net.cpp:425] lstm1_h_conted_0 <- h_0
I0925 22:04:18.988708 17030 net.cpp:399] lstm1_W_xc_x_slice -> W_xc_x_1
I0925 22:04:18.988713 17024 net.cpp:425] lstm1_h_conted_0 <- cont_1_lstm1_cont_slice_0_split_0
I0925 22:04:18.988731 17024 net.cpp:399] lstm1_h_conted_0 -> h_conted_0
I0925 22:04:18.988060 16996 net.cpp:141] Setting up embedding
I0925 22:04:18.989570 16996 net.cpp:148] Top shape: 1 1 500 (500)
I0925 22:04:18.989580 16996 net.cpp:156] Memory required for data: 22408
I0925 22:04:18.990687 16996 layer_factory.hpp:77] Creating layer lstm1
I0925 22:04:18.990731 16996 net.cpp:91] Creating Layer lstm1
I0925 22:04:18.990767 16996 net.cpp:425] lstm1 <- embedded_input_frames
I0925 22:04:18.990783 16996 net.cpp:425] lstm1 <- cont_sentence_input_1_split_0
I0925 22:04:18.990799 16996 net.cpp:399] lstm1 -> lstm1
I0925 22:04:18.990824 16996 recurrent_layer.cpp:20] Initializing recurrent layer: assuming input batch contains 1 timesteps of 1 independent streams.
I0925 22:04:18.991444 16996 net.cpp:49] Initializing net from parameters: 
layer {
  name: "lstm1_"
  type: "Input"
  top: "x"
  top: "cont"
  input_param {
    shape {
      dim: 1
      dim: 1
      dim: 500
    }
    shape {
      dim: 1
      dim: 1
    }
  }
}
layer {
  name: "lstm1_"
  type: "Input"
  top: "c_0"
  top: "h_0"
  input_param {
    shape {
      dim: 1
      dim: 1
      dim: 1000
    }
    shape {
      dim: 1
      dim: 1
      dim: 1000
    }
  }
}
layer {
  name: "lstm1_cont_slice"
  type: "Slice"
  bottom: "cont"
  top: "cont_1"
  slice_param {
    axis: 0
  }
}
layer {
  name: "lstm1_x_transform"
  type: "InnerProduct"
  bottom: "x"
  top: "W_xc_x"
  param {
    name: "W_xc"
  }
  param {
    name: "b_c"
  }
  propagate_down: true
  inner_product_param {
    num_output: 4000
    bias_term: true
    weight_filler {
      type: "uniform"
      min: -0.08
      max: 0.08
    }
    bias_filler {
      type: "constant"
      value: 0
    }
    axis: 2
  }
}
layer {
  name: "lstm1_W_xc_x_slice"
  type: "Slice"
  bottom: "W_xc_x"
  top: "W_xc_x_1"
  slice_param {
    axis: 0
  }
}
layer {
  name: "lstm1_h_conted_0"
  type: "Scale"
  bottom: "h_0"
  bottom: "cont_1"
  top: "h_conted_0"
  scale_param {
    axis: 0
  }
}
layer {
  name: "lstm1_transform_1"
  type: "InnerProduct"
  bottom: "h_conted_0"
  top: "W_hc_h_0"
  param {
    name: "W_hc"
  }
  inner_product_param {
    num_output: 4000
    bias_term: false
    weight_filler {
      type: "uniform"
      min: -0.08
      max: 0.08
    }
    axis: 2
  }
}
layer {
  name: "lstm1_gate_input_1"
  type: "Eltwise"
  bottom: "W_hc_h_0"
  bottom: "W_xc_x_1"
  top: "gate_input_1"
  eltwise_param {
    operation: SUM
  }
}
layer {
  name: "lstm1_unit_1"
  type: "LSTMUnit"
  bottom: "c_0"
  bottom: "gate_input_1"
  bottom: "cont_1"
  top: "c_1"
  top: "h_1"
}
layer {
  name: "lstm1_"
  type: "Split"
  bottom: "c_1"
  top: "c_T"
}
layer {
  name: "lstm1_h_concat"
  type: "Concat"
  bottom: "h_1"
  top: "h"
  concat_param {
    axis: 0
  }
}
layer {
  name: "h_pseudoloss"
  type: "Reduction"
  bottom: "h"
  top: "h_pseudoloss"
  loss_weight: 1
}
I0925 22:04:18.991649 16996 layer_factory.hpp:77] Creating layer lstm1_
I0925 22:04:18.991675 16996 net.cpp:91] Creating Layer lstm1_
I0925 22:04:18.991689 16996 net.cpp:399] lstm1_ -> x
I0925 22:04:18.991713 16996 net.cpp:399] lstm1_ -> cont
I0925 22:04:18.992247 17030 net.cpp:141] Setting up lstm1_W_xc_x_slice
I0925 22:04:18.992275 17030 net.cpp:148] Top shape: 1 1 4000 (4000)
I0925 22:04:18.992286 17030 net.cpp:156] Memory required for data: 42016
I0925 22:04:18.992297 17030 layer_factory.hpp:77] Creating layer lstm1_h_conted_0
I0925 22:04:18.992318 17030 net.cpp:91] Creating Layer lstm1_h_conted_0
I0925 22:04:18.992331 17030 net.cpp:425] lstm1_h_conted_0 <- h_0
I0925 22:04:18.992346 17030 net.cpp:425] lstm1_h_conted_0 <- cont_1_lstm1_cont_slice_0_split_0
I0925 22:04:18.992362 17030 net.cpp:399] lstm1_h_conted_0 -> h_conted_0
I0925 22:04:18.992380 16996 net.cpp:141] Setting up lstm1_
I0925 22:04:18.992401 16996 net.cpp:148] Top shape: 1 1 500 (500)
I0925 22:04:18.992409 16996 net.cpp:148] Top shape: 1 1 (1)
I0925 22:04:18.992414 16996 net.cpp:156] Memory required for data: 2004
I0925 22:04:18.992420 16996 layer_factory.hpp:77] Creating layer lstm1_
I0925 22:04:18.992439 16996 net.cpp:91] Creating Layer lstm1_
I0925 22:04:18.992455 16996 net.cpp:399] lstm1_ -> c_0
I0925 22:04:18.992475 16996 net.cpp:399] lstm1_ -> h_0
I0925 22:04:18.992558 16996 net.cpp:141] Setting up lstm1_
I0925 22:04:18.992579 16996 net.cpp:148] Top shape: 1 1 1000 (1000)
I0925 22:04:18.992588 16996 net.cpp:148] Top shape: 1 1 1000 (1000)
I0925 22:04:18.992593 16996 net.cpp:156] Memory required for data: 10004
I0925 22:04:18.992599 16996 layer_factory.hpp:77] Creating layer lstm1_cont_slice
I0925 22:04:18.992619 16996 net.cpp:91] Creating Layer lstm1_cont_slice
I0925 22:04:18.992630 16996 net.cpp:425] lstm1_cont_slice <- cont
I0925 22:04:18.992642 16996 net.cpp:399] lstm1_cont_slice -> cont_1
I0925 22:04:18.992708 16996 net.cpp:141] Setting up lstm1_cont_slice
I0925 22:04:18.992720 16996 net.cpp:148] Top shape: 1 1 (1)
I0925 22:04:18.992725 16996 net.cpp:156] Memory required for data: 10008
I0925 22:04:18.992733 16996 layer_factory.hpp:77] Creating layer cont_1_lstm1_cont_slice_0_split
I0925 22:04:18.992748 16996 net.cpp:91] Creating Layer cont_1_lstm1_cont_slice_0_split
I0925 22:04:18.992759 16996 net.cpp:425] cont_1_lstm1_cont_slice_0_split <- cont_1
I0925 22:04:18.992779 16996 net.cpp:399] cont_1_lstm1_cont_slice_0_split -> cont_1_lstm1_cont_slice_0_split_0
I0925 22:04:18.992782 17024 net.cpp:141] Setting up lstm1_h_conted_0
I0925 22:04:18.992791 16996 net.cpp:399] cont_1_lstm1_cont_slice_0_split -> cont_1_lstm1_cont_slice_0_split_1
I0925 22:04:18.992813 17024 net.cpp:148] Top shape: 1 1 1000 (1000)
I0925 22:04:18.992828 17024 net.cpp:156] Memory required for data: 46016
I0925 22:04:18.992841 17024 layer_factory.hpp:77] Creating layer lstm1_transform_1
I0925 22:04:18.992883 17024 net.cpp:91] Creating Layer lstm1_transform_1
I0925 22:04:18.992892 17030 net.cpp:141] Setting up lstm1_h_conted_0
I0925 22:04:18.992900 17024 net.cpp:425] lstm1_transform_1 <- h_conted_0
I0925 22:04:18.992914 17030 net.cpp:148] Top shape: 1 1 1000 (1000)
I0925 22:04:18.992923 17024 net.cpp:399] lstm1_transform_1 -> W_hc_h_0
I0925 22:04:18.992924 17030 net.cpp:156] Memory required for data: 46016
I0925 22:04:18.992980 17030 layer_factory.hpp:77] Creating layer lstm1_transform_1
I0925 22:04:18.993002 17030 net.cpp:91] Creating Layer lstm1_transform_1
I0925 22:04:18.993043 17030 net.cpp:425] lstm1_transform_1 <- h_conted_0
I0925 22:04:18.993069 17030 net.cpp:399] lstm1_transform_1 -> W_hc_h_0
I0925 22:04:19.005831 16996 net.cpp:141] Setting up cont_1_lstm1_cont_slice_0_split
I0925 22:04:19.005893 16996 net.cpp:148] Top shape: 1 1 (1)
I0925 22:04:19.005908 16996 net.cpp:148] Top shape: 1 1 (1)
I0925 22:04:19.005918 16996 net.cpp:156] Memory required for data: 10016
I0925 22:04:19.005935 16996 layer_factory.hpp:77] Creating layer lstm1_x_transform
I0925 22:04:19.005977 16996 net.cpp:91] Creating Layer lstm1_x_transform
I0925 22:04:19.005995 16996 net.cpp:425] lstm1_x_transform <- x
I0925 22:04:19.006028 16996 net.cpp:399] lstm1_x_transform -> W_xc_x
I0925 22:04:19.044481 17024 net.cpp:141] Setting up lstm1_transform_1
I0925 22:04:19.044538 17024 net.cpp:148] Top shape: 1 1 4000 (4000)
I0925 22:04:19.044549 17024 net.cpp:156] Memory required for data: 62016
I0925 22:04:19.044579 17024 layer_factory.hpp:77] Creating layer lstm1_gate_input_1
I0925 22:04:19.044611 17024 net.cpp:91] Creating Layer lstm1_gate_input_1
I0925 22:04:19.044625 17024 net.cpp:425] lstm1_gate_input_1 <- W_hc_h_0
I0925 22:04:19.044638 17024 net.cpp:425] lstm1_gate_input_1 <- W_xc_x_1
I0925 22:04:19.044661 17024 net.cpp:399] lstm1_gate_input_1 -> gate_input_1
I0925 22:04:19.044752 17024 net.cpp:141] Setting up lstm1_gate_input_1
I0925 22:04:19.044770 17024 net.cpp:148] Top shape: 1 1 4000 (4000)
I0925 22:04:19.044778 17024 net.cpp:156] Memory required for data: 78016
I0925 22:04:19.044788 17024 layer_factory.hpp:77] Creating layer lstm1_unit_1
I0925 22:04:19.044812 17024 net.cpp:91] Creating Layer lstm1_unit_1
I0925 22:04:19.044822 17024 net.cpp:425] lstm1_unit_1 <- c_0
I0925 22:04:19.044833 17024 net.cpp:425] lstm1_unit_1 <- gate_input_1
I0925 22:04:19.044847 17024 net.cpp:425] lstm1_unit_1 <- cont_1_lstm1_cont_slice_0_split_1
I0925 22:04:19.044858 17024 net.cpp:399] lstm1_unit_1 -> c_1
I0925 22:04:19.044877 17024 net.cpp:399] lstm1_unit_1 -> h_1
I0925 22:04:19.048099 17024 net.cpp:141] Setting up lstm1_unit_1
I0925 22:04:19.048130 17024 net.cpp:148] Top shape: 1 1 1000 (1000)
I0925 22:04:19.048142 17024 net.cpp:148] Top shape: 1 1 1000 (1000)
I0925 22:04:19.048151 17024 net.cpp:156] Memory required for data: 86016
I0925 22:04:19.048161 17024 layer_factory.hpp:77] Creating layer lstm1_
I0925 22:04:19.048177 17024 net.cpp:91] Creating Layer lstm1_
I0925 22:04:19.048187 17024 net.cpp:425] lstm1_ <- c_1
I0925 22:04:19.048183 16996 net.cpp:141] Setting up lstm1_x_transform
I0925 22:04:19.048207 17024 net.cpp:399] lstm1_ -> c_T
I0925 22:04:19.048209 16996 net.cpp:148] Top shape: 1 1 4000 (4000)
I0925 22:04:19.048266 16996 net.cpp:156] Memory required for data: 26016
I0925 22:04:19.048295 16996 layer_factory.hpp:77] Creating layer lstm1_W_xc_x_slice
I0925 22:04:19.048332 16996 net.cpp:91] Creating Layer lstm1_W_xc_x_slice
I0925 22:04:19.048347 16996 net.cpp:425] lstm1_W_xc_x_slice <- W_xc_x
I0925 22:04:19.048354 17024 net.cpp:141] Setting up lstm1_
I0925 22:04:19.048364 16996 net.cpp:399] lstm1_W_xc_x_slice -> W_xc_x_1
I0925 22:04:19.048372 17024 net.cpp:148] Top shape: 1 1 1000 (1000)
I0925 22:04:19.048382 17024 net.cpp:156] Memory required for data: 90016
I0925 22:04:19.048390 17024 layer_factory.hpp:77] Creating layer lstm1_h_concat
I0925 22:04:19.048406 17024 net.cpp:91] Creating Layer lstm1_h_concat
I0925 22:04:19.048415 17024 net.cpp:425] lstm1_h_concat <- h_1
I0925 22:04:19.048429 17024 net.cpp:399] lstm1_h_concat -> h
I0925 22:04:19.048441 16996 net.cpp:141] Setting up lstm1_W_xc_x_slice
I0925 22:04:19.048461 16996 net.cpp:148] Top shape: 1 1 4000 (4000)
I0925 22:04:19.048470 16996 net.cpp:156] Memory required for data: 42016
I0925 22:04:19.048480 16996 layer_factory.hpp:77] Creating layer lstm1_h_conted_0
I0925 22:04:19.048498 16996 net.cpp:91] Creating Layer lstm1_h_conted_0
I0925 22:04:19.048504 17024 net.cpp:141] Setting up lstm1_h_concat
I0925 22:04:19.048508 16996 net.cpp:425] lstm1_h_conted_0 <- h_0
I0925 22:04:19.048540 17024 net.cpp:148] Top shape: 1 1 1000 (1000)
I0925 22:04:19.048547 16996 net.cpp:425] lstm1_h_conted_0 <- cont_1_lstm1_cont_slice_0_split_0
I0925 22:04:19.048549 17024 net.cpp:156] Memory required for data: 94016
I0925 22:04:19.048570 17024 layer_factory.hpp:77] Creating layer h_pseudoloss
I0925 22:04:19.048571 16996 net.cpp:399] lstm1_h_conted_0 -> h_conted_0
I0925 22:04:19.048594 17024 net.cpp:91] Creating Layer h_pseudoloss
I0925 22:04:19.048604 17024 net.cpp:425] h_pseudoloss <- h
I0925 22:04:19.048617 17024 net.cpp:399] h_pseudoloss -> h_pseudoloss
I0925 22:04:19.049228 16996 net.cpp:141] Setting up lstm1_h_conted_0
I0925 22:04:19.049245 16996 net.cpp:148] Top shape: 1 1 1000 (1000)
I0925 22:04:19.049252 16996 net.cpp:156] Memory required for data: 46016
I0925 22:04:19.049257 16996 layer_factory.hpp:77] Creating layer lstm1_transform_1
I0925 22:04:19.049275 16996 net.cpp:91] Creating Layer lstm1_transform_1
I0925 22:04:19.049288 16996 net.cpp:425] lstm1_transform_1 <- h_conted_0
I0925 22:04:19.049293 17024 net.cpp:141] Setting up h_pseudoloss
I0925 22:04:19.049304 16996 net.cpp:399] lstm1_transform_1 -> W_hc_h_0
…
I0925 22:04:19.049454 17024 net.cpp:219] lstm1_ does not need backward computation.
I0925 22:04:19.049458 17024 net.cpp:261] This network produces output c_T
I0925 22:04:19.049463 17024 net.cpp:261] This network produces output h_pseudoloss
I0925 22:04:19.049484 17024 net.cpp:274] Network initialization done.
I0925 22:04:19.049548 17024 recurrent_layer.cpp:150] Adding parameter 0: W_xc
I0925 22:04:19.049556 17024 recurrent_layer.cpp:150] Adding parameter 1: b_c
I0925 22:04:19.049561 17024 recurrent_layer.cpp:150] Adding parameter 2: W_hc
I0925 22:04:19.058902 17024 net.cpp:141] Setting up lstm1
I0925 22:04:19.058954 17024 net.cpp:148] Top shape: 1 1 1000 (1000)
I0925 22:04:19.058965 17024 net.cpp:156] Memory required for data: 26408
I0925 22:04:19.059000 17024 layer_factory.hpp:77] Creating layer concat
I0925 22:04:19.059034 17024 net.cpp:91] Creating Layer concat
I0925 22:04:19.059051 17024 net.cpp:425] concat <- lstm1
I0925 22:04:19.059065 17024 net.cpp:425] concat <- embedded_input_sentence
I0925 22:04:19.059075 17024 net.cpp:425] concat <- reshaped_stage_indicator
I0925 22:04:19.059090 17024 net.cpp:399] concat -> lstm1_video_sequence
I0925 22:04:19.065798 17024 net.cpp:141] Setting up concat
I0925 22:04:19.065852 17024 net.cpp:148] Top shape: 1 1 1501 (1501)
I0925 22:04:19.065863 17024 net.cpp:156] Memory required for data: 32412
I0925 22:04:19.065867 17030 net.cpp:141] Setting up lstm1_transform_1
I0925 22:04:19.065877 17024 layer_factory.hpp:77] Creating layer lstm2
I0925 22:04:19.065906 17030 net.cpp:148] Top shape: 1 1 4000 (4000)
I0925 22:04:19.065918 17030 net.cpp:156] Memory required for data: 62016
I0925 22:04:19.065925 17024 net.cpp:91] Creating Layer lstm2
I0925 22:04:19.065939 17024 net.cpp:425] lstm2 <- lstm1_video_sequence
I0925 22:04:19.065948 17030 layer_factory.hpp:77] Creating layer lstm1_gate_input_1
I0925 22:04:19.065984 17030 net.cpp:91] Creating Layer lstm1_gate_input_1
I0925 22:04:19.065999 17030 net.cpp:425] lstm1_gate_input_1 <- W_hc_h_0
I0925 22:04:19.066014 17030 net.cpp:425] lstm1_gate_input_1 <- W_xc_x_1
I0925 22:04:19.066031 17030 net.cpp:399] lstm1_gate_input_1 -> gate_input_1
I0925 22:04:19.065953 17024 net.cpp:425] lstm2 <- cont_sentence_input_1_split_1
I0925 22:04:19.066244 17024 net.cpp:399] lstm2 -> lstm2
I0925 22:04:19.066275 17024 recurrent_layer.cpp:20] Initializing recurrent layer: assuming input batch contains 1 timesteps of 1 independent streams.
I0925 22:04:19.066803 17024 net.cpp:49] Initializing net from parameters: 
layer {
  name: "lstm2_"
  type: "Input"
  top: "x"
  top: "cont"
  input_param {
    shape {
      dim: 1
      dim: 1
      dim: 1501
    }
    shape {
      dim: 1
      dim: 1
    }
  }
}
layer {
  name: "lstm2_"
  type: "Input"
  top: "c_0"
  top: "h_0"
  input_param {
    shape {
      dim: 1
      dim: 1
      dim: 1000
    }
    shape {
      dim: 1
      dim: 1
      dim: 1000
    }
  }
}
layer {
  name: "lstm2_cont_slice"
  type: "Slice"
  bottom: "cont"
  top: "cont_1"
  slice_param {
    axis: 0
  }
}
layer {
  name: "lstm2_x_transform"
  type: "InnerProduct"
  bottom: "x"
  top: "W_xc_x"
  param {
    name: "W_xc"
  }
  param {
    name: "b_c"
  }
  propagate_down: true
  inner_product_param {
    num_output: 4000
    bias_term: true
    weight_filler {
      type: "uniform"
      min: -0.08
      max: 0.08
    }
    bias_filler {
      type: "constant"
      value: 0
    }
    axis: 2
  }
}
layer {
  name: "lstm2_W_xc_x_slice"
  type: "Slice"
  bottom: "W_xc_x"
  top: "W_xc_x_1"
  slice_param {
    axis: 0
  }
}
layer {
  name: "lstm2_h_conted_0"
  type: "Scale"
  bottom: "h_0"
  bottom: "cont_1"
  top: "h_conted_0"
  scale_param {
    axis: 0
  }
}
layer {
  name: "lstm2_transform_1"
  type: "InnerProduct"
  bottom: "h_conted_0"
  top: "W_hc_h_0"
  param {
    name: "W_hc"
  }
  inner_product_param {
    num_output: 4000
    bias_term: false
    weight_filler {
      type: "uniform"
      min: -0.08
      max: 0.08
    }
    axis: 2
  }
}
layer {
  name: "lstm2_gate_input_1"
  type: "Eltwise"
  bottom: "W_hc_h_0"
  bottom: "W_xc_x_1"
  top: "gate_input_1"
  eltwise_param {
    operation: SUM
  }
}
layer {
  name: "lstm2_unit_1"
  type: "LSTMUnit"
  bottom: "c_0"
  bottom: "gate_input_1"
  bottom: "cont_1"
  top: "c_1"
  top: "h_1"
}
layer {
  name: "lstm2_"
  type: "Split"
  bottom: "c_1"
  top: "c_T"
}
layer {
  name: "lstm2_h_concat"
  type: "Concat"
  bottom: "h_1"
  top: "h"
  concat_param {
    axis: 0
  }
}
layer {
  name: "h_pseudoloss"
  type: "Reduction"
  bottom: "h"
  top: "h_pseudoloss"
  loss_weight: 1
}
I0925 22:04:19.066964 17024 layer_factory.hpp:77] Creating layer lstm2_
I0925 22:04:19.066985 17024 net.cpp:91] Creating Layer lstm2_
I0925 22:04:19.066998 17024 net.cpp:399] lstm2_ -> x
I0925 22:04:19.067018 17024 net.cpp:399] lstm2_ -> cont
I0925 22:04:19.068171 17030 net.cpp:141] Setting up lstm1_gate_input_1
I0925 22:04:19.068193 17030 net.cpp:148] Top shape: 1 1 4000 (4000)
I0925 22:04:19.068205 17030 net.cpp:156] Memory required for data: 78016
I0925 22:04:19.068215 17030 layer_factory.hpp:77] Creating layer lstm1_unit_1
I0925 22:04:19.068239 17030 net.cpp:91] Creating Layer lstm1_unit_1
I0925 22:04:19.068253 17030 net.cpp:425] lstm1_unit_1 <- c_0
I0925 22:04:19.068250 17024 net.cpp:141] Setting up lstm2_
I0925 22:04:19.068274 17030 net.cpp:425] lstm1_unit_1 <- gate_input_1
I0925 22:04:19.068284 17024 net.cpp:148] Top shape: 1 1 1501 (1501)
I0925 22:04:19.068289 17030 net.cpp:425] lstm1_unit_1 <- cont_1_lstm1_cont_slice_0_split_1
I0925 22:04:19.068296 17024 net.cpp:148] Top shape: 1 1 (1)
I0925 22:04:19.068305 17024 net.cpp:156] Memory required for data: 6008
I0925 22:04:19.068306 17030 net.cpp:399] lstm1_unit_1 -> c_1
I0925 22:04:19.068315 17024 layer_factory.hpp:77] Creating layer lstm2_
I0925 22:04:19.068328 17030 net.cpp:399] lstm1_unit_1 -> h_1
I0925 22:04:19.068342 17024 net.cpp:91] Creating Layer lstm2_
I0925 22:04:19.068356 17024 net.cpp:399] lstm2_ -> c_0
I0925 22:04:19.068378 17024 net.cpp:399] lstm2_ -> h_0
I0925 22:04:19.068614 17030 net.cpp:141] Setting up lstm1_unit_1
I0925 22:04:19.068635 17030 net.cpp:148] Top shape: 1 1 1000 (1000)
I0925 22:04:19.068650 17030 net.cpp:148] Top shape: 1 1 1000 (1000)
I0925 22:04:19.068660 17030 net.cpp:156] Memory required for data: 86016
I0925 22:04:19.068670 17030 layer_factory.hpp:77] Creating layer lstm1_
I0925 22:04:19.068687 17030 net.cpp:91] Creating Layer lstm1_
I0925 22:04:19.068691 17024 net.cpp:141] Setting up lstm2_
I0925 22:04:19.068698 17030 net.cpp:425] lstm1_ <- c_1
I0925 22:04:19.068709 17024 net.cpp:148] Top shape: 1 1 1000 (1000)
I0925 22:04:19.068716 17030 net.cpp:399] lstm1_ -> c_T
I0925 22:04:19.068738 17024 net.cpp:148] Top shape: 1 1 1000 (1000)
I0925 22:04:19.068747 17024 net.cpp:156] Memory required for data: 14008
I0925 22:04:19.068756 17024 layer_factory.hpp:77] Creating layer lstm2_cont_slice
I0925 22:04:19.068775 17024 net.cpp:91] Creating Layer lstm2_cont_slice
I0925 22:04:19.068784 17024 net.cpp:425] lstm2_cont_slice <- cont
I0925 22:04:19.068797 17024 net.cpp:399] lstm2_cont_slice -> cont_1
I0925 22:04:19.071316 17030 net.cpp:141] Setting up lstm1_
I0925 22:04:19.071355 17030 net.cpp:148] Top shape: 1 1 1000 (1000)
I0925 22:04:19.071368 17030 net.cpp:156] Memory required for data: 90016
I0925 22:04:19.071382 17030 layer_factory.hpp:77] Creating layer lstm1_h_concat
I0925 22:04:19.071411 17030 net.cpp:91] Creating Layer lstm1_h_concat
I0925 22:04:19.071426 17030 net.cpp:425] lstm1_h_concat <- h_1
I0925 22:04:19.071447 17030 net.cpp:399] lstm1_h_concat -> h
I0925 22:04:19.071532 17030 net.cpp:141] Setting up lstm1_h_concat
I0925 22:04:19.071552 17030 net.cpp:148] Top shape: 1 1 1000 (1000)
I0925 22:04:19.071563 17030 net.cpp:156] Memory required for data: 94016
I0925 22:04:19.071574 17030 layer_factory.hpp:77] Creating layer h_pseudoloss
I0925 22:04:19.071593 17030 net.cpp:91] Creating Layer h_pseudoloss
I0925 22:04:19.071604 17030 net.cpp:425] h_pseudoloss <- h
I0925 22:04:19.071626 17030 net.cpp:399] h_pseudoloss -> h_pseudoloss
I0925 22:04:19.071790 17030 net.cpp:141] Setting up h_pseudoloss
…
I0925 22:04:19.072021 17030 net.cpp:219] lstm1_ does not need backward computation.
I0925 22:04:19.072029 17030 net.cpp:261] This network produces output c_T
I0925 22:04:19.072042 17030 net.cpp:261] This network produces output h_pseudoloss
I0925 22:04:19.072077 17030 net.cpp:274] Network initialization done.
I0925 22:04:19.072168 17030 recurrent_layer.cpp:150] Adding parameter 0: W_xc
I0925 22:04:19.072185 17030 recurrent_layer.cpp:150] Adding parameter 1: b_c
I0925 22:04:19.072196 17030 recurrent_layer.cpp:150] Adding parameter 2: W_hc
I0925 22:04:19.072391 17030 net.cpp:141] Setting up lstm1
I0925 22:04:19.072412 17030 net.cpp:148] Top shape: 1 1 1000 (1000)
I0925 22:04:19.072424 17030 net.cpp:156] Memory required for data: 26408
I0925 22:04:19.072455 17030 layer_factory.hpp:77] Creating layer concat
I0925 22:04:19.072477 17030 net.cpp:91] Creating Layer concat
I0925 22:04:19.072490 17030 net.cpp:425] concat <- lstm1
I0925 22:04:19.072505 17030 net.cpp:425] concat <- embedded_input_sentence
I0925 22:04:19.072520 17030 net.cpp:425] concat <- reshaped_stage_indicator
I0925 22:04:19.072535 17030 net.cpp:399] concat -> lstm1_video_sequence
I0925 22:04:19.072600 17030 net.cpp:141] Setting up concat
I0925 22:04:19.072620 17030 net.cpp:148] Top shape: 1 1 1501 (1501)
I0925 22:04:19.072631 17030 net.cpp:156] Memory required for data: 32412
I0925 22:04:19.072643 17030 layer_factory.hpp:77] Creating layer lstm2
I0925 22:04:19.072669 17030 net.cpp:91] Creating Layer lstm2
I0925 22:04:19.072681 17030 net.cpp:425] lstm2 <- lstm1_video_sequence
I0925 22:04:19.072695 17030 net.cpp:425] lstm2 <- cont_sentence_input_1_split_1
I0925 22:04:19.072715 17030 net.cpp:399] lstm2 -> lstm2
I0925 22:04:19.072741 17030 recurrent_layer.cpp:20] Initializing recurrent layer: assuming input batch contains 1 timesteps of 1 independent streams.
I0925 22:04:19.073235 17030 net.cpp:49] Initializing net from parameters: 
layer {
  name: "lstm2_"
  type: "Input"
  top: "x"
  top: "cont"
  input_param {
    shape {
      dim: 1
      dim: 1
      dim: 1501
    }
    shape {
      dim: 1
      dim: 1
    }
  }
}
layer {
  name: "lstm2_"
  type: "Input"
  top: "c_0"
  top: "h_0"
  input_param {
    shape {
      dim: 1
      dim: 1
      dim: 1000
    }
    shape {
      dim: 1
      dim: 1
      dim: 1000
    }
  }
}
layer {
  name: "lstm2_cont_slice"
  type: "Slice"
  bottom: "cont"
  top: "cont_1"
  slice_param {
    axis: 0
  }
}
layer {
  name: "lstm2_x_transform"
  type: "InnerProduct"
  bottom: "x"
  top: "W_xc_x"
  param {
    name: "W_xc"
  }
  param {
    name: "b_c"
  }
  propagate_down: true
  inner_product_param {
    num_output: 4000
    bias_term: true
    weight_filler {
      type: "uniform"
      min: -0.08
      max: 0.08
    }
    bias_filler {
      type: "constant"
      value: 0
    }
    axis: 2
  }
}
layer {
  name: "lstm2_W_xc_x_slice"
  type: "Slice"
  bottom: "W_xc_x"
  top: "W_xc_x_1"
  slice_param {
    axis: 0
  }
}
layer {
  name: "lstm2_h_conted_0"
  type: "Scale"
  bottom: "h_0"
  bottom: "cont_1"
  top: "h_conted_0"
  scale_param {
    axis: 0
  }
}
layer {
  name: "lstm2_transform_1"
  type: "InnerProduct"
  bottom: "h_conted_0"
  top: "W_hc_h_0"
  param {
    name: "W_hc"
  }
  inner_product_param {
    num_output: 4000
    bias_term: false
    weight_filler {
      type: "uniform"
      min: -0.08
      max: 0.08
    }
    axis: 2
  }
}
layer {
  name: "lstm2_gate_input_1"
  type: "Eltwise"
  bottom: "W_hc_h_0"
  bottom: "W_xc_x_1"
  top: "gate_input_1"
  eltwise_param {
    operation: SUM
  }
}
layer {
  name: "lstm2_unit_1"
  type: "LSTMUnit"
  bottom: "c_0"
  bottom: "gate_input_1"
  bottom: "cont_1"
  top: "c_1"
  top: "h_1"
}
layer {
  name: "lstm2_"
  type: "Split"
  bottom: "c_1"
  top: "c_T"
}
layer {
  name: "lstm2_h_concat"
  type: "Concat"
  bottom: "h_1"
  top: "h"
  concat_param {
    axis: 0
  }
}
layer {
  name: "h_pseudoloss"
  type: "Reduction"
  bottom: "h"
  top: "h_pseudoloss"
  loss_weight: 1
}
I0925 22:04:19.073421 17030 layer_factory.hpp:77] Creating layer lstm2_
I0925 22:04:19.073447 17030 net.cpp:91] Creating Layer lstm2_
I0925 22:04:19.073463 17030 net.cpp:399] lstm2_ -> x
I0925 22:04:19.073488 17030 net.cpp:399] lstm2_ -> cont
I0925 22:04:19.073596 17030 net.cpp:141] Setting up lstm2_
I0925 22:04:19.073618 17030 net.cpp:148] Top shape: 1 1 1501 (1501)
I0925 22:04:19.073632 17030 net.cpp:148] Top shape: 1 1 (1)
I0925 22:04:19.073642 17030 net.cpp:156] Memory required for data: 6008
I0925 22:04:19.073653 17030 layer_factory.hpp:77] Creating layer lstm2_
I0925 22:04:19.073673 17030 net.cpp:91] Creating Layer lstm2_
I0925 22:04:19.073688 17030 net.cpp:399] lstm2_ -> c_0
I0925 22:04:19.073710 17030 net.cpp:399] lstm2_ -> h_0
I0925 22:04:19.073822 17030 net.cpp:141] Setting up lstm2_
I0925 22:04:19.073843 17030 net.cpp:148] Top shape: 1 1 1000 (1000)
I0925 22:04:19.073856 17030 net.cpp:148] Top shape: 1 1 1000 (1000)
I0925 22:04:19.073866 17030 net.cpp:156] Memory required for data: 14008
I0925 22:04:19.073876 17030 layer_factory.hpp:77] Creating layer lstm2_cont_slice
I0925 22:04:19.073894 17030 net.cpp:91] Creating Layer lstm2_cont_slice
I0925 22:04:19.073907 17030 net.cpp:425] lstm2_cont_slice <- cont
I0925 22:04:19.073930 17030 net.cpp:399] lstm2_cont_slice -> cont_1
I0925 22:04:19.073998 17030 net.cpp:141] Setting up lstm2_cont_slice
I0925 22:04:19.074018 17030 net.cpp:148] Top shape: 1 1 (1)
I0925 22:04:19.074028 17030 net.cpp:156] Memory required for data: 14012
I0925 22:04:19.074039 17030 layer_factory.hpp:77] Creating layer cont_1_lstm2_cont_slice_0_split
I0925 22:04:19.074055 17030 net.cpp:91] Creating Layer cont_1_lstm2_cont_slice_0_split
I0925 22:04:19.074067 17030 net.cpp:425] cont_1_lstm2_cont_slice_0_split <- cont_1
I0925 22:04:19.074084 17030 net.cpp:399] cont_1_lstm2_cont_slice_0_split -> cont_1_lstm2_cont_slice_0_split_0
I0925 22:04:19.074103 17030 net.cpp:399] cont_1_lstm2_cont_slice_0_split -> cont_1_lstm2_cont_slice_0_split_1
I0925 22:04:19.074126 17000 net.cpp:141] Setting up embedding
I0925 22:04:19.074169 17000 net.cpp:148] Top shape: 1 1 500 (500)
I0925 22:04:19.074177 17000 net.cpp:156] Memory required for data: 22408
I0925 22:04:19.074196 17000 layer_factory.hpp:77] Creating layer lstm1
I0925 22:04:19.074220 17000 net.cpp:91] Creating Layer lstm1
I0925 22:04:19.074231 17000 net.cpp:425] lstm1 <- embedded_input_frames
I0925 22:04:19.074234 17030 net.cpp:141] Setting up cont_1_lstm2_cont_slice_0_split
I0925 22:04:19.074242 17000 net.cpp:425] lstm1 <- cont_sentence_input_1_split_0
I0925 22:04:19.074282 17030 net.cpp:148] Top shape: 1 1 (1)
I0925 22:04:19.074290 17000 net.cpp:399] lstm1 -> lstm1
I0925 22:04:19.074301 17030 net.cpp:148] Top shape: 1 1 (1)
I0925 22:04:19.074312 17000 recurrent_layer.cpp:20] Initializing recurrent layer: assuming input batch contains 1 timesteps of 1 independent streams.
I0925 22:04:19.074312 17030 net.cpp:156] Memory required for data: 14020
I0925 22:04:19.074327 17030 layer_factory.hpp:77] Creating layer lstm2_x_transform
I0925 22:04:19.074354 17030 net.cpp:91] Creating Layer lstm2_x_transform
I0925 22:04:19.074368 17030 net.cpp:425] lstm2_x_transform <- x
I0925 22:04:19.074388 17030 net.cpp:399] lstm2_x_transform -> W_xc_x
I0925 22:04:19.090503 17000 net.cpp:49] Initializing net from parameters: 
layer {
  name: "lstm1_"
  type: "Input"
  top: "x"
  top: "cont"
  input_param {
    shape {
      dim: 1
      dim: 1
      dim: 500
    }
    shape {
      dim: 1
      dim: 1
    }
  }
}
layer {
  name: "lstm1_"
  type: "Input"
  top: "c_0"
  top: "h_0"
  input_param {
    shape {
      dim: 1
      dim: 1
      dim: 1000
    }
    shape {
      dim: 1
      dim: 1
      dim: 1000
    }
  }
}
layer {
  name: "lstm1_cont_slice"
  type: "Slice"
  bottom: "cont"
  top: "cont_1"
  slice_param {
    axis: 0
  }
}
layer {
  name: "lstm1_x_transform"
  type: "InnerProduct"
  bottom: "x"
  top: "W_xc_x"
  param {
    name: "W_xc"
  }
  param {
    name: "b_c"
  }
  propagate_down: true
  inner_product_param {
    num_output: 4000
    bias_term: true
    weight_filler {
      type: "uniform"
      min: -0.08
      max: 0.08
    }
    bias_filler {
      type: "constant"
      value: 0
    }
    axis: 2
  }
}
layer {
  name: "lstm1_W_xc_x_slice"
  type: "Slice"
  bottom: "W_xc_x"
  top: "W_xc_x_1"
  slice_param {
    axis: 0
  }
}
layer {
  name: "lstm1_h_conted_0"
  type: "Scale"
  bottom: "h_0"
  bottom: "cont_1"
  top: "h_conted_0"
  scale_param {
    axis: 0
  }
}
layer {
  name: "lstm1_transform_1"
  type: "InnerProduct"
  bottom: "h_conted_0"
  top: "W_hc_h_0"
  param {
    name: "W_hc"
  }
  inner_product_param {
    num_output: 4000
    bias_term: false
    weight_filler {
      type: "uniform"
      min: -0.08
      max: 0.08
    }
    axis: 2
  }
}
layer {
  name: "lstm1_gate_input_1"
  type: "Eltwise"
  bottom: "W_hc_h_0"
  bottom: "W_xc_x_1"
  top: "gate_input_1"
  eltwise_param {
    operation: SUM
  }
}
layer {
  name: "lstm1_unit_1"
  type: "LSTMUnit"
  bottom: "c_0"
  bottom: "gate_input_1"
  bottom: "cont_1"
  top: "c_1"
  top: "h_1"
}
layer {
  name: "lstm1_"
  type: "Split"
  bottom: "c_1"
  top: "c_T"
}
layer {
  name: "lstm1_h_concat"
  type: "Concat"
  bottom: "h_1"
  top: "h"
  concat_param {
    axis: 0
  }
}
layer {
  name: "h_pseudoloss"
  type: "Reduction"
  bottom: "h"
  top: "h_pseudoloss"
  loss_weight: 1
}
I0925 22:04:19.090715 17000 layer_factory.hpp:77] Creating layer lstm1_
I0925 22:04:19.090744 17000 net.cpp:91] Creating Layer lstm1_
I0925 22:04:19.090757 17000 net.cpp:399] lstm1_ -> x
I0925 22:04:19.090781 17000 net.cpp:399] lstm1_ -> cont
I0925 22:04:19.093205 17024 net.cpp:141] Setting up lstm2_cont_slice
I0925 22:04:19.093261 17024 net.cpp:148] Top shape: 1 1 (1)
I0925 22:04:19.093273 17024 net.cpp:156] Memory required for data: 14012
I0925 22:04:19.093289 17024 layer_factory.hpp:77] Creating layer cont_1_lstm2_cont_slice_0_split
I0925 22:04:19.093315 17024 net.cpp:91] Creating Layer cont_1_lstm2_cont_slice_0_split
I0925 22:04:19.093328 17024 net.cpp:425] cont_1_lstm2_cont_slice_0_split <- cont_1
I0925 22:04:19.093353 17024 net.cpp:399] cont_1_lstm2_cont_slice_0_split -> cont_1_lstm2_cont_slice_0_split_0
I0925 22:04:19.093376 17024 net.cpp:399] cont_1_lstm2_cont_slice_0_split -> cont_1_lstm2_cont_slice_0_split_1
I0925 22:04:19.094442 16996 net.cpp:141] Setting up lstm1_transform_1
I0925 22:04:19.094477 16996 net.cpp:148] Top shape: 1 1 4000 (4000)
I0925 22:04:19.094487 16996 net.cpp:156] Memory required for data: 62016
I0925 22:04:19.094514 16996 layer_factory.hpp:77] Creating layer lstm1_gate_input_1
I0925 22:04:19.094511 17000 net.cpp:141] Setting up lstm1_
I0925 22:04:19.094547 16996 net.cpp:91] Creating Layer lstm1_gate_input_1
I0925 22:04:19.094561 16996 net.cpp:425] lstm1_gate_input_1 <- W_hc_h_0
I0925 22:04:19.094563 17000 net.cpp:148] Top shape: 1 1 500 (500)
I0925 22:04:19.094578 16996 net.cpp:425] lstm1_gate_input_1 <- W_xc_x_1
I0925 22:04:19.094583 17000 net.cpp:148] Top shape: 1 1 (1)
I0925 22:04:19.094609 17000 net.cpp:156] Memory required for data: 2004
I0925 22:04:19.094626 17000 layer_factory.hpp:77] Creating layer lstm1_
I0925 22:04:19.094913 16996 net.cpp:399] lstm1_gate_input_1 -> gate_input_1
I0925 22:04:19.094923 17024 net.cpp:141] Setting up cont_1_lstm2_cont_slice_0_split
I0925 22:04:19.094952 17024 net.cpp:148] Top shape: 1 1 (1)
I0925 22:04:19.094954 17000 net.cpp:91] Creating Layer lstm1_
I0925 22:04:19.094966 17024 net.cpp:148] Top shape: 1 1 (1)
I0925 22:04:19.094976 17024 net.cpp:156] Memory required for data: 14020
I0925 22:04:19.094979 17000 net.cpp:399] lstm1_ -> c_0
I0925 22:04:19.094988 17024 layer_factory.hpp:77] Creating layer lstm2_x_transform
I0925 22:04:19.095010 17000 net.cpp:399] lstm1_ -> h_0
I0925 22:04:19.095016 17024 net.cpp:91] Creating Layer lstm2_x_transform
I0925 22:04:19.095028 17024 net.cpp:425] lstm2_x_transform <- x
I0925 22:04:19.095054 17024 net.cpp:399] lstm2_x_transform -> W_xc_x
I0925 22:04:19.095288 16996 net.cpp:141] Setting up lstm1_gate_input_1
I0925 22:04:19.095306 16996 net.cpp:148] Top shape: 1 1 4000 (4000)
I0925 22:04:19.095312 16996 net.cpp:156] Memory required for data: 78016
I0925 22:04:19.095319 16996 layer_factory.hpp:77] Creating layer lstm1_unit_1
I0925 22:04:19.095329 16996 net.cpp:91] Creating Layer lstm1_unit_1
I0925 22:04:19.095335 16996 net.cpp:425] lstm1_unit_1 <- c_0
I0925 22:04:19.095342 16996 net.cpp:425] lstm1_unit_1 <- gate_input_1
I0925 22:04:19.095348 16996 net.cpp:425] lstm1_unit_1 <- cont_1_lstm1_cont_slice_0_split_1
I0925 22:04:19.095356 16996 net.cpp:399] lstm1_unit_1 -> c_1
I0925 22:04:19.095366 16996 net.cpp:399] lstm1_unit_1 -> h_1
I0925 22:04:19.095386 17000 net.cpp:141] Setting up lstm1_
I0925 22:04:19.095402 17000 net.cpp:148] Top shape: 1 1 1000 (1000)
I0925 22:04:19.095409 17000 net.cpp:148] Top shape: 1 1 1000 (1000)
I0925 22:04:19.095414 17000 net.cpp:156] Memory required for data: 10004
I0925 22:04:19.095420 17000 layer_factory.hpp:77] Creating layer lstm1_cont_slice
I0925 22:04:19.095433 17000 net.cpp:91] Creating Layer lstm1_cont_slice
I0925 22:04:19.095440 17000 net.cpp:425] lstm1_cont_slice <- cont
I0925 22:04:19.095449 17000 net.cpp:399] lstm1_cont_slice -> cont_1
I0925 22:04:19.095480 16996 net.cpp:141] Setting up lstm1_unit_1
I0925 22:04:19.095492 16996 net.cpp:148] Top shape: 1 1 1000 (1000)
I0925 22:04:19.095500 16996 net.cpp:148] Top shape: 1 1 1000 (1000)
I0925 22:04:19.095505 16996 net.cpp:156] Memory required for data: 86016
I0925 22:04:19.095511 16996 layer_factory.hpp:77] Creating layer lstm1_
I0925 22:04:19.095521 16996 net.cpp:91] Creating Layer lstm1_
I0925 22:04:19.095526 16996 net.cpp:425] lstm1_ <- c_1
I0925 22:04:19.095535 16996 net.cpp:399] lstm1_ -> c_T
I0925 22:04:19.108813 17000 net.cpp:141] Setting up lstm1_cont_slice
I0925 22:04:19.108850 17000 net.cpp:148] Top shape: 1 1 (1)
I0925 22:04:19.108856 17000 net.cpp:156] Memory required for data: 10008
I0925 22:04:19.108865 17000 layer_factory.hpp:77] Creating layer cont_1_lstm1_cont_slice_0_split
I0925 22:04:19.108880 17000 net.cpp:91] Creating Layer cont_1_lstm1_cont_slice_0_split
I0925 22:04:19.108887 17000 net.cpp:425] cont_1_lstm1_cont_slice_0_split <- cont_1
I0925 22:04:19.108899 17000 net.cpp:399] cont_1_lstm1_cont_slice_0_split -> cont_1_lstm1_cont_slice_0_split_0
I0925 22:04:19.108889 16996 net.cpp:141] Setting up lstm1_
I0925 22:04:19.108913 17000 net.cpp:399] cont_1_lstm1_cont_slice_0_split -> cont_1_lstm1_cont_slice_0_split_1
I0925 22:04:19.108947 16996 net.cpp:148] Top shape: 1 1 1000 (1000)
I0925 22:04:19.108960 16996 net.cpp:156] Memory required for data: 90016
I0925 22:04:19.108975 16996 layer_factory.hpp:77] Creating layer lstm1_h_concat
I0925 22:04:19.109046 16996 net.cpp:91] Creating Layer lstm1_h_concat
I0925 22:04:19.109064 16996 net.cpp:425] lstm1_h_concat <- h_1
I0925 22:04:19.109082 16996 net.cpp:399] lstm1_h_concat -> h
I0925 22:04:19.113842 16996 net.cpp:141] Setting up lstm1_h_concat
I0925 22:04:19.113888 16996 net.cpp:148] Top shape: 1 1 1000 (1000)
I0925 22:04:19.113894 17000 net.cpp:141] Setting up cont_1_lstm1_cont_slice_0_split
I0925 22:04:19.113899 16996 net.cpp:156] Memory required for data: 94016
I0925 22:04:19.113919 17000 net.cpp:148] Top shape: 1 1 (1)
I0925 22:04:19.113929 17000 net.cpp:148] Top shape: 1 1 (1)
I0925 22:04:19.113931 16996 layer_factory.hpp:77] Creating layer h_pseudoloss
I0925 22:04:19.113935 17000 net.cpp:156] Memory required for data: 10016
I0925 22:04:19.113960 17000 layer_factory.hpp:77] Creating layer lstm1_x_transform
I0925 22:04:19.113968 16996 net.cpp:91] Creating Layer h_pseudoloss
I0925 22:04:19.113981 17000 net.cpp:91] Creating Layer lstm1_x_transform
I0925 22:04:19.113981 16996 net.cpp:425] h_pseudoloss <- h
I0925 22:04:19.113988 17000 net.cpp:425] lstm1_x_transform <- x
I0925 22:04:19.114011 17000 net.cpp:399] lstm1_x_transform -> W_xc_x
I0925 22:04:19.114017 16996 net.cpp:399] h_pseudoloss -> h_pseudoloss
I0925 22:04:19.120692 16996 net.cpp:141] Setting up h_pseudoloss
I0925 22:04:19.120739 16996 net.cpp:148] Top shape: (1)
I0925 22:04:19.120741 16998 net.cpp:141] Setting up embedding
I0925 22:04:19.120764 16998 net.cpp:148] Top shape: 1 1 500 (500)
I0925 22:04:19.120750 16996 net.cpp:151]     with loss weight 1
I0925 22:04:19.120769 16998 net.cpp:156] Memory required for data: 22408
I0925 22:04:19.120774 16996 net.cpp:156] Memory required for data: 94020
I0925 22:04:19.120787 16996 net.cpp:217] h_pseudoloss needs backward computation.
I0925 22:04:19.120791 16998 layer_factory.hpp:77] Creating layer lstm1
I0925 22:04:19.120797 16996 net.cpp:217] lstm1_h_concat needs backward computation.
…
I0925 22:04:19.121071 16996 recurrent_layer.cpp:150] Adding parameter 2: W_hc
I0925 22:04:19.121255 16998 net.cpp:49] Initializing net from parameters: 
layer {
  name: "lstm1_"
  type: "Input"
  top: "x"
  top: "cont"
  input_param {
    shape {
      dim: 1
      dim: 1
      dim: 500
    }
    shape {
      dim: 1
      dim: 1
    }
  }
}
layer {
  name: "lstm1_"
  type: "Input"
  top: "c_0"
  top: "h_0"
  input_param {
    shape {
      dim: 1
      dim: 1
      dim: 1000
    }
    shape {
      dim: 1
      dim: 1
      dim: 1000
    }
  }
}
layer {
  name: "lstm1_cont_slice"
  type: "Slice"
  bottom: "cont"
  top: "cont_1"
  slice_param {
    axis: 0
  }
}
layer {
  name: "lstm1_x_transform"
  type: "InnerProduct"
  bottom: "x"
  top: "W_xc_x"
  param {
    name: "W_xc"
  }
  param {
    name: "b_c"
  }
  propagate_down: true
  inner_product_param {
    num_output: 4000
    bias_term: true
    weight_filler {
      type: "uniform"
      min: -0.08
      max: 0.08
    }
    bias_filler {
      type: "constant"
      value: 0
    }
    axis: 2
  }
}
layer {
  name: "lstm1_W_xc_x_slice"
  type: "Slice"
  bottom: "W_xc_x"
  top: "W_xc_x_1"
  slice_param {
    axis: 0
  }
}
layer {
  name: "lstm1_h_conted_0"
  type: "Scale"
  bottom: "h_0"
  bottom: "cont_1"
  top: "h_conted_0"
  scale_param {
    axis: 0
  }
}
layer {
  name: "lstm1_transform_1"
  type: "InnerProduct"
  bottom: "h_conted_0"
  top: "W_hc_h_0"
  param {
    name: "W_hc"
  }
  inner_product_param {
    num_output: 4000
    bias_term: false
    weight_filler {
      type: "uniform"
      min: -0.08
      max: 0.08
    }
    axis: 2
  }
}
layer {
  name: "lstm1_gate_input_1"
  type: "Eltwise"
  bottom: "W_hc_h_0"
  bottom: "W_xc_x_1"
  top: "gate_input_1"
  eltwise_param {
    operation: SUM
  }
}
layer {
  name: "lstm1_unit_1"
  type: "LSTMUnit"
  bottom: "c_0"
  bottom: "gate_input_1"
  bottom: "cont_1"
  top: "c_1"
  top: "h_1"
}
layer {
  name: "lstm1_"
  type: "Split"
  bottom: "c_1"
  top: "c_T"
}
layer {
  name: "lstm1_h_concat"
  type: "Concat"
  bottom: "h_1"
  top: "h"
  concat_param {
    axis: 0
  }
}
layer {
  name: "h_pseudoloss"
  type: "Reduction"
  bottom: "h"
  top: "h_pseudoloss"
  loss_weight: 1
}
I0925 22:04:19.121367 16998 layer_factory.hpp:77] Creating layer lstm1_
I0925 22:04:19.121382 16998 net.cpp:91] Creating Layer lstm1_
I0925 22:04:19.121389 16998 net.cpp:399] lstm1_ -> x
I0925 22:04:19.121402 16998 net.cpp:399] lstm1_ -> cont
I0925 22:04:19.121769 16996 net.cpp:141] Setting up lstm1
I0925 22:04:19.121789 16996 net.cpp:148] Top shape: 1 1 1000 (1000)
I0925 22:04:19.121795 16996 net.cpp:156] Memory required for data: 26408
I0925 22:04:19.121800 16998 net.cpp:141] Setting up lstm1_
I0925 22:04:19.121815 16998 net.cpp:148] Top shape: 1 1 500 (500)
I0925 22:04:19.121822 16998 net.cpp:148] Top shape: 1 1 (1)
I0925 22:04:19.121822 16996 layer_factory.hpp:77] Creating layer concat
I0925 22:04:19.121829 16998 net.cpp:156] Memory required for data: 2004
I0925 22:04:19.121835 16998 layer_factory.hpp:77] Creating layer lstm1_
I0925 22:04:19.121842 16996 net.cpp:91] Creating Layer concat
I0925 22:04:19.121845 16998 net.cpp:91] Creating Layer lstm1_
I0925 22:04:19.121865 16996 net.cpp:425] concat <- lstm1
I0925 22:04:19.121872 16998 net.cpp:399] lstm1_ -> c_0
I0925 22:04:19.121878 16996 net.cpp:425] concat <- embedded_input_sentence
I0925 22:04:19.121886 16998 net.cpp:399] lstm1_ -> h_0
I0925 22:04:19.121893 16996 net.cpp:425] concat <- reshaped_stage_indicator
I0925 22:04:19.121909 16996 net.cpp:399] concat -> lstm1_video_sequence
I0925 22:04:19.122122 16996 net.cpp:141] Setting up concat
I0925 22:04:19.122143 16996 net.cpp:148] Top shape: 1 1 1501 (1501)
I0925 22:04:19.122150 16996 net.cpp:156] Memory required for data: 32412
I0925 22:04:19.122158 16996 layer_factory.hpp:77] Creating layer lstm2
I0925 22:04:19.122175 16998 net.cpp:141] Setting up lstm1_
I0925 22:04:19.122180 16996 net.cpp:91] Creating Layer lstm2
I0925 22:04:19.122192 16998 net.cpp:148] Top shape: 1 1 1000 (1000)
I0925 22:04:19.122194 16996 net.cpp:425] lstm2 <- lstm1_video_sequence
I0925 22:04:19.122200 16998 net.cpp:148] Top shape: 1 1 1000 (1000)
I0925 22:04:19.122205 16998 net.cpp:156] Memory required for data: 10004
I0925 22:04:19.122206 16996 net.cpp:425] lstm2 <- cont_sentence_input_1_split_1
I0925 22:04:19.122210 16998 layer_factory.hpp:77] Creating layer lstm1_cont_slice
I0925 22:04:19.122237 16996 net.cpp:399] lstm2 -> lstm2
I0925 22:04:19.122241 16998 net.cpp:91] Creating Layer lstm1_cont_slice
I0925 22:04:19.122261 16998 net.cpp:425] lstm1_cont_slice <- cont
I0925 22:04:19.122264 16996 recurrent_layer.cpp:20] Initializing recurrent layer: assuming input batch contains 1 timesteps of 1 independent streams.
I0925 22:04:19.122273 16998 net.cpp:399] lstm1_cont_slice -> cont_1
I0925 22:04:19.122645 16996 net.cpp:49] Initializing net from parameters: 
layer {
  name: "lstm2_"
  type: "Input"
  top: "x"
  top: "cont"
  input_param {
    shape {
      dim: 1
      dim: 1
      dim: 1501
    }
    shape {
      dim: 1
      dim: 1
    }
  }
}
layer {
  name: "lstm2_"
  type: "Input"
  top: "c_0"
  top: "h_0"
  input_param {
    shape {
      dim: 1
      dim: 1
      dim: 1000
    }
    shape {
      dim: 1
      dim: 1
      dim: 1000
    }
  }
}
layer {
  name: "lstm2_cont_slice"
  type: "Slice"
  bottom: "cont"
  top: "cont_1"
  slice_param {
    axis: 0
  }
}
layer {
  name: "lstm2_x_transform"
  type: "InnerProduct"
  bottom: "x"
  top: "W_xc_x"
  param {
    name: "W_xc"
  }
  param {
    name: "b_c"
  }
  propagate_down: true
  inner_product_param {
    num_output: 4000
    bias_term: true
    weight_filler {
      type: "uniform"
      min: -0.08
      max: 0.08
    }
    bias_filler {
      type: "constant"
      value: 0
    }
    axis: 2
  }
}
layer {
  name: "lstm2_W_xc_x_slice"
  type: "Slice"
  bottom: "W_xc_x"
  top: "W_xc_x_1"
  slice_param {
    axis: 0
  }
}
layer {
  name: "lstm2_h_conted_0"
  type: "Scale"
  bottom: "h_0"
  bottom: "cont_1"
  top: "h_conted_0"
  scale_param {
    axis: 0
  }
}
layer {
  name: "lstm2_transform_1"
  type: "InnerProduct"
  bottom: "h_conted_0"
  top: "W_hc_h_0"
  param {
    name: "W_hc"
  }
  inner_product_param {
    num_output: 4000
    bias_term: false
    weight_filler {
      type: "uniform"
      min: -0.08
      max: 0.08
    }
    axis: 2
  }
}
layer {
  name: "lstm2_gate_input_1"
  type: "Eltwise"
  bottom: "W_hc_h_0"
  bottom: "W_xc_x_1"
  top: "gate_input_1"
  eltwise_param {
    operation: SUM
  }
}
layer {
  name: "lstm2_unit_1"
  type: "LSTMUnit"
  bottom: "c_0"
  bottom: "gate_input_1"
  bottom: "cont_1"
  top: "c_1"
  top: "h_1"
}
layer {
  name: "lstm2_"
  type: "Split"
  bottom: "c_1"
  top: "c_T"
}
layer {
  name: "lstm2_h_concat"
  type: "Concat"
  bottom: "h_1"
  top: "h"
  concat_param {
    axis: 0
  }
}
layer {
  name: "h_pseudoloss"
  type: "Reduction"
  bottom: "h"
  top: "h_pseudoloss"
  loss_weight: 1
}
I0925 22:04:19.122787 16996 layer_factory.hpp:77] Creating layer lstm2_
I0925 22:04:19.122808 16996 net.cpp:91] Creating Layer lstm2_
I0925 22:04:19.122822 16996 net.cpp:399] lstm2_ -> x
I0925 22:04:19.122841 16996 net.cpp:399] lstm2_ -> cont
I0925 22:04:19.126875 16998 net.cpp:141] Setting up lstm1_cont_slice
I0925 22:04:19.126906 16998 net.cpp:148] Top shape: 1 1 (1)
I0925 22:04:19.126914 16998 net.cpp:156] Memory required for data: 10008
I0925 22:04:19.126922 16998 layer_factory.hpp:77] Creating layer cont_1_lstm1_cont_slice_0_split
I0925 22:04:19.126945 16998 net.cpp:91] Creating Layer cont_1_lstm1_cont_slice_0_split
I0925 22:04:19.126945 16996 net.cpp:141] Setting up lstm2_
I0925 22:04:19.126951 16998 net.cpp:425] cont_1_lstm1_cont_slice_0_split <- cont_1
I0925 22:04:19.126968 16996 net.cpp:148] Top shape: 1 1 1501 (1501)
I0925 22:04:19.126976 16998 net.cpp:399] cont_1_lstm1_cont_slice_0_split -> cont_1_lstm1_cont_slice_0_split_0
I0925 22:04:19.126977 16996 net.cpp:148] Top shape: 1 1 (1)
I0925 22:04:19.126993 16996 net.cpp:156] Memory required for data: 6008
I0925 22:04:19.126998 16998 net.cpp:399] cont_1_lstm1_cont_slice_0_split -> cont_1_lstm1_cont_slice_0_split_1
I0925 22:04:19.127001 16996 layer_factory.hpp:77] Creating layer lstm2_
I0925 22:04:19.127020 16996 net.cpp:91] Creating Layer lstm2_
I0925 22:04:19.127028 16996 net.cpp:399] lstm2_ -> c_0
I0925 22:04:19.127041 16996 net.cpp:399] lstm2_ -> h_0
I0925 22:04:19.131819 16996 net.cpp:141] Setting up lstm2_
I0925 22:04:19.131847 16996 net.cpp:148] Top shape: 1 1 1000 (1000)
I0925 22:04:19.131860 16996 net.cpp:148] Top shape: 1 1 1000 (1000)
I0925 22:04:19.131857 16998 net.cpp:141] Setting up cont_1_lstm1_cont_slice_0_split
I0925 22:04:19.131868 16996 net.cpp:156] Memory required for data: 14008
I0925 22:04:19.131898 16998 net.cpp:148] Top shape: 1 1 (1)
I0925 22:04:19.131899 16996 layer_factory.hpp:77] Creating layer lstm2_cont_slice
I0925 22:04:19.131922 16998 net.cpp:148] Top shape: 1 1 (1)
I0925 22:04:19.131932 16998 net.cpp:156] Memory required for data: 10016
I0925 22:04:19.131938 16996 net.cpp:91] Creating Layer lstm2_cont_slice
I0925 22:04:19.131942 16998 layer_factory.hpp:77] Creating layer lstm1_x_transform
I0925 22:04:19.131963 16996 net.cpp:425] lstm2_cont_slice <- cont
I0925 22:04:19.131985 16996 net.cpp:399] lstm2_cont_slice -> cont_1
I0925 22:04:19.131986 16998 net.cpp:91] Creating Layer lstm1_x_transform
I0925 22:04:19.131999 16998 net.cpp:425] lstm1_x_transform <- x
I0925 22:04:19.132016 16998 net.cpp:399] lstm1_x_transform -> W_xc_x
I0925 22:04:19.145187 17006 net.cpp:141] Setting up embedding
I0925 22:04:19.145212 16996 net.cpp:141] Setting up lstm2_cont_slice
I0925 22:04:19.145247 16996 net.cpp:148] Top shape: 1 1 (1)
I0925 22:04:19.145247 17006 net.cpp:148] Top shape: 1 1 500 (500)
I0925 22:04:19.145264 16996 net.cpp:156] Memory required for data: 14012
I0925 22:04:19.145280 17006 net.cpp:156] Memory required for data: 22408
I0925 22:04:19.145292 16996 layer_factory.hpp:77] Creating layer cont_1_lstm2_cont_slice_0_split
I0925 22:04:19.145305 17006 layer_factory.hpp:77] Creating layer lstm1
I0925 22:04:19.145318 16996 net.cpp:91] Creating Layer cont_1_lstm2_cont_slice_0_split
…
I0925 22:04:19.145404 17006 recurrent_layer.cpp:20] Initializing recurrent layer: assuming input batch contains 1 timesteps of 1 independent streams.
I0925 22:04:19.145761 17006 net.cpp:49] Initializing net from parameters: 
layer {
  name: "lstm1_"
  type: "Input"
  top: "x"
  top: "cont"
  input_param {
    shape {
      dim: 1
      dim: 1
      dim: 500
    }
    shape {
      dim: 1
      dim: 1
    }
  }
}
layer {
  name: "lstm1_"
  type: "Input"
  top: "c_0"
  top: "h_0"
  input_param {
    shape {
      dim: 1
      dim: 1
      dim: 1000
    }
    shape {
      dim: 1
      dim: 1
      dim: 1000
    }
  }
}
layer {
  name: "lstm1_cont_slice"
  type: "Slice"
  bottom: "cont"
  top: "cont_1"
  slice_param {
    axis: 0
  }
}
layer {
  name: "lstm1_x_transform"
  type: "InnerProduct"
  bottom: "x"
  top: "W_xc_x"
  param {
    name: "W_xc"
  }
  param {
    name: "b_c"
  }
  propagate_down: true
  inner_product_param {
    num_output: 4000
    bias_term: true
    weight_filler {
      type: "uniform"
      min: -0.08
      max: 0.08
    }
    bias_filler {
      type: "constant"
      value: 0
    }
    axis: 2
  }
}
layer {
  name: "lstm1_W_xc_x_slice"
  type: "Slice"
  bottom: "W_xc_x"
  top: "W_xc_x_1"
  slice_param {
    axis: 0
  }
}
layer {
  name: "lstm1_h_conted_0"
  type: "Scale"
  bottom: "h_0"
  bottom: "cont_1"
  top: "h_conted_0"
  scale_param {
    axis: 0
  }
}
layer {
  name: "lstm1_transform_1"
  type: "InnerProduct"
  bottom: "h_conted_0"
  top: "W_hc_h_0"
  param {
    name: "W_hc"
  }
  inner_product_param {
    num_output: 4000
    bias_term: false
    weight_filler {
      type: "uniform"
      min: -0.08
      max: 0.08
    }
    axis: 2
  }
}
layer {
  name: "lstm1_gate_input_1"
  type: "Eltwise"
  bottom: "W_hc_h_0"
  bottom: "W_xc_x_1"
  top: "gate_input_1"
  eltwise_param {
    operation: SUM
  }
}
layer {
  name: "lstm1_unit_1"
  type: "LSTMUnit"
  bottom: "c_0"
  bottom: "gate_input_1"
  bottom: "cont_1"
  top: "c_1"
  top: "h_1"
}
layer {
  name: "lstm1_"
  type: "Split"
  bottom: "c_1"
  top: "c_T"
}
layer {
  name: "lstm1_h_concat"
  type: "Concat"
  bottom: "h_1"
  top: "h"
  concat_param {
    axis: 0
  }
}
layer {
  name: "h_pseudoloss"
  type: "Reduction"
  bottom: "h"
  top: "h_pseudoloss"
  loss_weight: 1
}
I0925 22:04:19.145892 17006 layer_factory.hpp:77] Creating layer lstm1_
I0925 22:04:19.145913 17006 net.cpp:91] Creating Layer lstm1_
I0925 22:04:19.145922 17006 net.cpp:399] lstm1_ -> x
I0925 22:04:19.145936 17006 net.cpp:399] lstm1_ -> cont
I0925 22:04:19.149957 17006 net.cpp:141] Setting up lstm1_
I0925 22:04:19.150008 17006 net.cpp:148] Top shape: 1 1 500 (500)
I0925 22:04:19.150022 17006 net.cpp:148] Top shape: 1 1 (1)
I0925 22:04:19.150029 17006 net.cpp:156] Memory required for data: 2004
I0925 22:04:19.150044 17006 layer_factory.hpp:77] Creating layer lstm1_
I0925 22:04:19.150075 17006 net.cpp:91] Creating Layer lstm1_
I0925 22:04:19.150105 17006 net.cpp:399] lstm1_ -> c_0
I0925 22:04:19.150140 17006 net.cpp:399] lstm1_ -> h_0
I0925 22:04:19.153075 16996 net.cpp:141] Setting up cont_1_lstm2_cont_slice_0_split
I0925 22:04:19.153125 16996 net.cpp:148] Top shape: 1 1 (1)
I0925 22:04:19.153139 16996 net.cpp:148] Top shape: 1 1 (1)
I0925 22:04:19.153148 16996 net.cpp:156] Memory required for data: 14020
I0925 22:04:19.153156 17006 net.cpp:141] Setting up lstm1_
I0925 22:04:19.153162 16996 layer_factory.hpp:77] Creating layer lstm2_x_transform
I0925 22:04:19.153174 17006 net.cpp:148] Top shape: 1 1 1000 (1000)
I0925 22:04:19.153184 17006 net.cpp:148] Top shape: 1 1 1000 (1000)
I0925 22:04:19.153192 17006 net.cpp:156] Memory required for data: 10004
I0925 22:04:19.153197 16996 net.cpp:91] Creating Layer lstm2_x_transform
I0925 22:04:19.153201 17006 layer_factory.hpp:77] Creating layer lstm1_cont_slice
I0925 22:04:19.153209 16996 net.cpp:425] lstm2_x_transform <- x
I0925 22:04:19.153224 17006 net.cpp:91] Creating Layer lstm1_cont_slice
I0925 22:04:19.153229 16996 net.cpp:399] lstm2_x_transform -> W_xc_x
I0925 22:04:19.153234 17006 net.cpp:425] lstm1_cont_slice <- cont
I0925 22:04:19.153250 17006 net.cpp:399] lstm1_cont_slice -> cont_1
I0925 22:04:19.153398 17006 net.cpp:141] Setting up lstm1_cont_slice
I0925 22:04:19.153419 17006 net.cpp:148] Top shape: 1 1 (1)
I0925 22:04:19.153427 17006 net.cpp:156] Memory required for data: 10008
I0925 22:04:19.153436 17006 layer_factory.hpp:77] Creating layer cont_1_lstm1_cont_slice_0_split
I0925 22:04:19.153452 17006 net.cpp:91] Creating Layer cont_1_lstm1_cont_slice_0_split
I0925 22:04:19.153461 17006 net.cpp:425] cont_1_lstm1_cont_slice_0_split <- cont_1
I0925 22:04:19.153479 17006 net.cpp:399] cont_1_lstm1_cont_slice_0_split -> cont_1_lstm1_cont_slice_0_split_0
I0925 22:04:19.153498 17006 net.cpp:399] cont_1_lstm1_cont_slice_0_split -> cont_1_lstm1_cont_slice_0_split_1
I0925 22:04:19.166586 17000 net.cpp:141] Setting up lstm1_x_transform
I0925 22:04:19.166662 17000 net.cpp:148] Top shape: 1 1 4000 (4000)
I0925 22:04:19.166673 17000 net.cpp:156] Memory required for data: 26016
I0925 22:04:19.166707 17000 layer_factory.hpp:77] Creating layer lstm1_W_xc_x_slice
I0925 22:04:19.166728 17000 net.cpp:91] Creating Layer lstm1_W_xc_x_slice
I0925 22:04:19.166740 17000 net.cpp:425] lstm1_W_xc_x_slice <- W_xc_x
I0925 22:04:19.166754 17000 net.cpp:399] lstm1_W_xc_x_slice -> W_xc_x_1
I0925 22:04:19.167593 17006 net.cpp:141] Setting up cont_1_lstm1_cont_slice_0_split
I0925 22:04:19.167656 17006 net.cpp:148] Top shape: 1 1 (1)
I0925 22:04:19.167681 17006 net.cpp:148] Top shape: 1 1 (1)
I0925 22:04:19.167697 17006 net.cpp:156] Memory required for data: 10016
I0925 22:04:19.167717 17006 layer_factory.hpp:77] Creating layer lstm1_x_transform
I0925 22:04:19.167764 17006 net.cpp:91] Creating Layer lstm1_x_transform
I0925 22:04:19.167786 17006 net.cpp:425] lstm1_x_transform <- x
I0925 22:04:19.167820 17006 net.cpp:399] lstm1_x_transform -> W_xc_x
I0925 22:04:19.168424 17000 net.cpp:141] Setting up lstm1_W_xc_x_slice
I0925 22:04:19.168445 17000 net.cpp:148] Top shape: 1 1 4000 (4000)
I0925 22:04:19.168452 17000 net.cpp:156] Memory required for data: 42016
I0925 22:04:19.168457 17000 layer_factory.hpp:77] Creating layer lstm1_h_conted_0
I0925 22:04:19.168473 17000 net.cpp:91] Creating Layer lstm1_h_conted_0
I0925 22:04:19.168484 17000 net.cpp:425] lstm1_h_conted_0 <- h_0
I0925 22:04:19.168493 17000 net.cpp:425] lstm1_h_conted_0 <- cont_1_lstm1_cont_slice_0_split_0
I0925 22:04:19.168503 17000 net.cpp:399] lstm1_h_conted_0 -> h_conted_0
I0925 22:04:19.168803 17000 net.cpp:141] Setting up lstm1_h_conted_0
I0925 22:04:19.168823 17000 net.cpp:148] Top shape: 1 1 1000 (1000)
I0925 22:04:19.168830 17000 net.cpp:156] Memory required for data: 46016
I0925 22:04:19.168836 17000 layer_factory.hpp:77] Creating layer lstm1_transform_1
I0925 22:04:19.168850 17000 net.cpp:91] Creating Layer lstm1_transform_1
I0925 22:04:19.168856 17000 net.cpp:425] lstm1_transform_1 <- h_conted_0
I0925 22:04:19.168877 17000 net.cpp:399] lstm1_transform_1 -> W_hc_h_0
I0925 22:04:19.186821 16998 net.cpp:141] Setting up lstm1_x_transform
I0925 22:04:19.186879 16998 net.cpp:148] Top shape: 1 1 4000 (4000)
I0925 22:04:19.186890 16998 net.cpp:156] Memory required for data: 26016
I0925 22:04:19.186957 17024 net.cpp:141] Setting up lstm2_x_transform
I0925 22:04:19.186975 16998 layer_factory.hpp:77] Creating layer lstm1_W_xc_x_slice
I0925 22:04:19.186980 17024 net.cpp:148] Top shape: 1 1 4000 (4000)
I0925 22:04:19.187010 17024 net.cpp:156] Memory required for data: 30020
I0925 22:04:19.187019 16998 net.cpp:91] Creating Layer lstm1_W_xc_x_slice
I0925 22:04:19.187031 16998 net.cpp:425] lstm1_W_xc_x_slice <- W_xc_x
I0925 22:04:19.187032 17024 layer_factory.hpp:77] Creating layer lstm2_W_xc_x_slice
I0925 22:04:19.187041 17030 net.cpp:141] Setting up lstm2_x_transform
I0925 22:04:19.187047 16998 net.cpp:399] lstm1_W_xc_x_slice -> W_xc_x_1
I0925 22:04:19.187050 17024 net.cpp:91] Creating Layer lstm2_W_xc_x_slice
I0925 22:04:19.187077 17030 net.cpp:148] Top shape: 1 1 4000 (4000)
I0925 22:04:19.187103 17024 net.cpp:425] lstm2_W_xc_x_slice <- W_xc_x
I0925 22:04:19.187108 17030 net.cpp:156] Memory required for data: 30020
I0925 22:04:19.187120 17024 net.cpp:399] lstm2_W_xc_x_slice -> W_xc_x_1
I0925 22:04:19.187130 17030 layer_factory.hpp:77] Creating layer lstm2_W_xc_x_slice
I0925 22:04:19.187149 17030 net.cpp:91] Creating Layer lstm2_W_xc_x_slice
I0925 22:04:19.187160 17030 net.cpp:425] lstm2_W_xc_x_slice <- W_xc_x
I0925 22:04:19.187180 17030 net.cpp:399] lstm2_W_xc_x_slice -> W_xc_x_1
I0925 22:04:19.187484 16998 net.cpp:141] Setting up lstm1_W_xc_x_slice
I0925 22:04:19.187503 16998 net.cpp:148] Top shape: 1 1 4000 (4000)
I0925 22:04:19.187518 16998 net.cpp:156] Memory required for data: 42016
I0925 22:04:19.187528 16998 layer_factory.hpp:77] Creating layer lstm1_h_conted_0
I0925 22:04:19.187537 17024 net.cpp:141] Setting up lstm2_W_xc_x_slice
I0925 22:04:19.187546 16998 net.cpp:91] Creating Layer lstm1_h_conted_0
I0925 22:04:19.187556 17024 net.cpp:148] Top shape: 1 1 4000 (4000)
I0925 22:04:19.187557 16998 net.cpp:425] lstm1_h_conted_0 <- h_0
I0925 22:04:19.187566 17024 net.cpp:156] Memory required for data: 46020
I0925 22:04:19.187569 16998 net.cpp:425] lstm1_h_conted_0 <- cont_1_lstm1_cont_slice_0_split_0
I0925 22:04:19.187574 17024 layer_factory.hpp:77] Creating layer lstm2_h_conted_0
I0925 22:04:19.187583 16998 net.cpp:399] lstm1_h_conted_0 -> h_conted_0
I0925 22:04:19.187589 17024 net.cpp:91] Creating Layer lstm2_h_conted_0
I0925 22:04:19.187599 17024 net.cpp:425] lstm2_h_conted_0 <- h_0
I0925 22:04:19.187604 17030 net.cpp:141] Setting up lstm2_W_xc_x_slice
I0925 22:04:19.187610 17024 net.cpp:425] lstm2_h_conted_0 <- cont_1_lstm2_cont_slice_0_split_0
I0925 22:04:19.187635 17030 net.cpp:148] Top shape: 1 1 4000 (4000)
I0925 22:04:19.187638 17024 net.cpp:399] lstm2_h_conted_0 -> h_conted_0
I0925 22:04:19.187654 17030 net.cpp:156] Memory required for data: 46020
I0925 22:04:19.187666 17030 layer_factory.hpp:77] Creating layer lstm2_h_conted_0
I0925 22:04:19.187683 17030 net.cpp:91] Creating Layer lstm2_h_conted_0
I0925 22:04:19.187696 17030 net.cpp:425] lstm2_h_conted_0 <- h_0
I0925 22:04:19.187711 17030 net.cpp:425] lstm2_h_conted_0 <- cont_1_lstm2_cont_slice_0_split_0
I0925 22:04:19.187734 17030 net.cpp:399] lstm2_h_conted_0 -> h_conted_0
I0925 22:04:19.187897 16998 net.cpp:141] Setting up lstm1_h_conted_0
I0925 22:04:19.187917 16998 net.cpp:148] Top shape: 1 1 1000 (1000)
I0925 22:04:19.187925 16998 net.cpp:156] Memory required for data: 46016
I0925 22:04:19.187935 16998 layer_factory.hpp:77] Creating layer lstm1_transform_1
I0925 22:04:19.187955 16998 net.cpp:91] Creating Layer lstm1_transform_1
I0925 22:04:19.187964 16998 net.cpp:425] lstm1_transform_1 <- h_conted_0
I0925 22:04:19.187979 16998 net.cpp:399] lstm1_transform_1 -> W_hc_h_0
I0925 22:04:19.188017 17024 net.cpp:141] Setting up lstm2_h_conted_0
I0925 22:04:19.188035 17024 net.cpp:148] Top shape: 1 1 1000 (1000)
I0925 22:04:19.188045 17024 net.cpp:156] Memory required for data: 50020
I0925 22:04:19.188053 17024 layer_factory.hpp:77] Creating layer lstm2_transform_1
I0925 22:04:19.188069 17024 net.cpp:91] Creating Layer lstm2_transform_1
I0925 22:04:19.188078 17024 net.cpp:425] lstm2_transform_1 <- h_conted_0
I0925 22:04:19.188098 17024 net.cpp:399] lstm2_transform_1 -> W_hc_h_0
I0925 22:04:19.199990 17030 net.cpp:141] Setting up lstm2_h_conted_0
I0925 22:04:19.200054 17030 net.cpp:148] Top shape: 1 1 1000 (1000)
I0925 22:04:19.200065 17030 net.cpp:156] Memory required for data: 50020
I0925 22:04:19.200080 17030 layer_factory.hpp:77] Creating layer lstm2_transform_1
I0925 22:04:19.200116 17030 net.cpp:91] Creating Layer lstm2_transform_1
I0925 22:04:19.200130 17030 net.cpp:425] lstm2_transform_1 <- h_conted_0
I0925 22:04:19.200153 17030 net.cpp:399] lstm2_transform_1 -> W_hc_h_0
I0925 22:04:19.223553 17006 net.cpp:141] Setting up lstm1_x_transform
I0925 22:04:19.224084 17006 net.cpp:148] Top shape: 1 1 4000 (4000)
I0925 22:04:19.224279 17006 net.cpp:156] Memory required for data: 26016
I0925 22:04:19.224447 17006 layer_factory.hpp:77] Creating layer lstm1_W_xc_x_slice
I0925 22:04:19.224619 17006 net.cpp:91] Creating Layer lstm1_W_xc_x_slice
I0925 22:04:19.224757 17006 net.cpp:425] lstm1_W_xc_x_slice <- W_xc_x
I0925 22:04:19.224900 17006 net.cpp:399] lstm1_W_xc_x_slice -> W_xc_x_1
I0925 22:04:19.230698 17006 net.cpp:141] Setting up lstm1_W_xc_x_slice
I0925 22:04:19.231055 17006 net.cpp:148] Top shape: 1 1 4000 (4000)
I0925 22:04:19.231253 17006 net.cpp:156] Memory required for data: 42016
I0925 22:04:19.231377 17006 layer_factory.hpp:77] Creating layer lstm1_h_conted_0
I0925 22:04:19.231518 17006 net.cpp:91] Creating Layer lstm1_h_conted_0
I0925 22:04:19.231640 17006 net.cpp:425] lstm1_h_conted_0 <- h_0
I0925 22:04:19.231768 17006 net.cpp:425] lstm1_h_conted_0 <- cont_1_lstm1_cont_slice_0_split_0
I0925 22:04:19.231815 17006 net.cpp:399] lstm1_h_conted_0 -> h_conted_0
I0925 22:04:19.234689 17006 net.cpp:141] Setting up lstm1_h_conted_0
I0925 22:04:19.234715 17006 net.cpp:148] Top shape: 1 1 1000 (1000)
I0925 22:04:19.234724 17006 net.cpp:156] Memory required for data: 46016
I0925 22:04:19.234731 17006 layer_factory.hpp:77] Creating layer lstm1_transform_1
I0925 22:04:19.234750 17006 net.cpp:91] Creating Layer lstm1_transform_1
I0925 22:04:19.234760 17006 net.cpp:425] lstm1_transform_1 <- h_conted_0
I0925 22:04:19.234773 17006 net.cpp:399] lstm1_transform_1 -> W_hc_h_0
I0925 22:04:19.234813 17000 net.cpp:141] Setting up lstm1_transform_1
I0925 22:04:19.234856 17000 net.cpp:148] Top shape: 1 1 4000 (4000)
I0925 22:04:19.234865 17000 net.cpp:156] Memory required for data: 62016
I0925 22:04:19.234890 17000 layer_factory.hpp:77] Creating layer lstm1_gate_input_1
I0925 22:04:19.234921 17000 net.cpp:91] Creating Layer lstm1_gate_input_1
I0925 22:04:19.234932 17000 net.cpp:425] lstm1_gate_input_1 <- W_hc_h_0
I0925 22:04:19.234946 17000 net.cpp:425] lstm1_gate_input_1 <- W_xc_x_1
I0925 22:04:19.234958 17000 net.cpp:399] lstm1_gate_input_1 -> gate_input_1
I0925 22:04:19.245185 17000 net.cpp:141] Setting up lstm1_gate_input_1
I0925 22:04:19.245242 16998 net.cpp:141] Setting up lstm1_transform_1
I0925 22:04:19.245735 17000 net.cpp:148] Top shape: 1 1 4000 (4000)
I0925 22:04:19.245748 16998 net.cpp:148] Top shape: 1 1 4000 (4000)
I0925 22:04:19.245367 16996 net.cpp:141] Setting up lstm2_x_transform
I0925 22:04:19.245749 17000 net.cpp:156] Memory required for data: 78016
I0925 22:04:19.245781 16998 net.cpp:156] Memory required for data: 62016
I0925 22:04:19.245790 17000 layer_factory.hpp:77] Creating layer lstm1_unit_1
I0925 22:04:19.245791 16996 net.cpp:148] Top shape: 1 1 4000 (4000)
I0925 22:04:19.245801 16996 net.cpp:156] Memory required for data: 30020
I0925 22:04:19.245810 16998 layer_factory.hpp:77] Creating layer lstm1_gate_input_1
I0925 22:04:19.245823 16996 layer_factory.hpp:77] Creating layer lstm2_W_xc_x_slice
I0925 22:04:19.245813 17000 net.cpp:91] Creating Layer lstm1_unit_1
I0925 22:04:19.245842 17000 net.cpp:425] lstm1_unit_1 <- c_0
I0925 22:04:19.245847 16996 net.cpp:91] Creating Layer lstm2_W_xc_x_slice
I0925 22:04:19.245848 16998 net.cpp:91] Creating Layer lstm1_gate_input_1
I0925 22:04:19.245856 16996 net.cpp:425] lstm2_W_xc_x_slice <- W_xc_x
I0925 22:04:19.245857 17000 net.cpp:425] lstm1_unit_1 <- gate_input_1
I0925 22:04:19.245867 16996 net.cpp:399] lstm2_W_xc_x_slice -> W_xc_x_1
I0925 22:04:19.245867 16998 net.cpp:425] lstm1_gate_input_1 <- W_hc_h_0
I0925 22:04:19.245868 17000 net.cpp:425] lstm1_unit_1 <- cont_1_lstm1_cont_slice_0_split_1
I0925 22:04:19.245893 16998 net.cpp:425] lstm1_gate_input_1 <- W_xc_x_1
I0925 22:04:19.245913 16998 net.cpp:399] lstm1_gate_input_1 -> gate_input_1
I0925 22:04:19.245913 17000 net.cpp:399] lstm1_unit_1 -> c_1
I0925 22:04:19.245951 17000 net.cpp:399] lstm1_unit_1 -> h_1
I0925 22:04:19.248049 16996 net.cpp:141] Setting up lstm2_W_xc_x_slice
I0925 22:04:19.248126 16998 net.cpp:141] Setting up lstm1_gate_input_1
I0925 22:04:19.248433 16996 net.cpp:148] Top shape: 1 1 4000 (4000)
I0925 22:04:19.248445 16998 net.cpp:148] Top shape: 1 1 4000 (4000)
I0925 22:04:19.248453 16998 net.cpp:156] Memory required for data: 78016
I0925 22:04:19.248456 16996 net.cpp:156] Memory required for data: 46020
I0925 22:04:19.248255 17000 net.cpp:141] Setting up lstm1_unit_1
I0925 22:04:19.248466 16996 layer_factory.hpp:77] Creating layer lstm2_h_conted_0
I0925 22:04:19.248461 16998 layer_factory.hpp:77] Creating layer lstm1_unit_1
I0925 22:04:19.248484 16996 net.cpp:91] Creating Layer lstm2_h_conted_0
I0925 22:04:19.248487 16998 net.cpp:91] Creating Layer lstm1_unit_1
I0925 22:04:19.248495 16998 net.cpp:425] lstm1_unit_1 <- c_0
I0925 22:04:19.248483 17000 net.cpp:148] Top shape: 1 1 1000 (1000)
I0925 22:04:19.248504 16998 net.cpp:425] lstm1_unit_1 <- gate_input_1
I0925 22:04:19.248512 16998 net.cpp:425] lstm1_unit_1 <- cont_1_lstm1_cont_slice_0_split_1
I0925 22:04:19.248515 17000 net.cpp:148] Top shape: 1 1 1000 (1000)
I0925 22:04:19.248497 16996 net.cpp:425] lstm2_h_conted_0 <- h_0
I0925 22:04:19.248523 16998 net.cpp:399] lstm1_unit_1 -> c_1
I0925 22:04:19.248524 17000 net.cpp:156] Memory required for data: 86016
I0925 22:04:19.248536 16998 net.cpp:399] lstm1_unit_1 -> h_1
I0925 22:04:19.248538 16996 net.cpp:425] lstm2_h_conted_0 <- cont_1_lstm2_cont_slice_0_split_0
I0925 22:04:19.248535 17000 layer_factory.hpp:77] Creating layer lstm1_
I0925 22:04:19.248549 16996 net.cpp:399] lstm2_h_conted_0 -> h_conted_0
I0925 22:04:19.248563 17000 net.cpp:91] Creating Layer lstm1_
I0925 22:04:19.248572 17000 net.cpp:425] lstm1_ <- c_1
I0925 22:04:19.248585 17000 net.cpp:399] lstm1_ -> c_T
I0925 22:04:19.249409 16998 net.cpp:141] Setting up lstm1_unit_1
I0925 22:04:19.249424 16998 net.cpp:148] Top shape: 1 1 1000 (1000)
I0925 22:04:19.249431 16998 net.cpp:148] Top shape: 1 1 1000 (1000)
I0925 22:04:19.249438 16998 net.cpp:156] Memory required for data: 86016
I0925 22:04:19.249444 16998 layer_factory.hpp:77] Creating layer lstm1_
I0925 22:04:19.249452 16998 net.cpp:91] Creating Layer lstm1_
I0925 22:04:19.249457 16998 net.cpp:425] lstm1_ <- c_1
I0925 22:04:19.249465 16998 net.cpp:399] lstm1_ -> c_T
I0925 22:04:19.249554 16996 net.cpp:141] Setting up lstm2_h_conted_0
I0925 22:04:19.249572 16996 net.cpp:148] Top shape: 1 1 1000 (1000)
I0925 22:04:19.249577 16996 net.cpp:156] Memory required for data: 50020
I0925 22:04:19.249583 16996 layer_factory.hpp:77] Creating layer lstm2_transform_1
I0925 22:04:19.249598 16998 net.cpp:141] Setting up lstm1_
I0925 22:04:19.249601 16996 net.cpp:91] Creating Layer lstm2_transform_1
I0925 22:04:19.249614 16998 net.cpp:148] Top shape: 1 1 1000 (1000)
I0925 22:04:19.249619 16996 net.cpp:425] lstm2_transform_1 <- h_conted_0
I0925 22:04:19.249621 16998 net.cpp:156] Memory required for data: 90016
I0925 22:04:19.249629 16998 layer_factory.hpp:77] Creating layer lstm1_h_concat
I0925 22:04:19.249631 16996 net.cpp:399] lstm2_transform_1 -> W_hc_h_0
I0925 22:04:19.249644 16998 net.cpp:91] Creating Layer lstm1_h_concat
I0925 22:04:19.249650 16998 net.cpp:425] lstm1_h_concat <- h_1
I0925 22:04:19.249660 16998 net.cpp:399] lstm1_h_concat -> h
I0925 22:04:19.249675 17000 net.cpp:141] Setting up lstm1_
I0925 22:04:19.249694 17000 net.cpp:148] Top shape: 1 1 1000 (1000)
I0925 22:04:19.249702 17000 net.cpp:156] Memory required for data: 90016
I0925 22:04:19.249711 17000 layer_factory.hpp:77] Creating layer lstm1_h_concat
I0925 22:04:19.249713 16998 net.cpp:141] Setting up lstm1_h_concat
I0925 22:04:19.249732 17000 net.cpp:91] Creating Layer lstm1_h_concat
I0925 22:04:19.249734 16998 net.cpp:148] Top shape: 1 1 1000 (1000)
I0925 22:04:19.249747 17000 net.cpp:425] lstm1_h_concat <- h_1
I0925 22:04:19.249750 16998 net.cpp:156] Memory required for data: 94016
I0925 22:04:19.249758 16998 layer_factory.hpp:77] Creating layer h_pseudoloss
I0925 22:04:19.249764 17000 net.cpp:399] lstm1_h_concat -> h
I0925 22:04:19.249769 16998 net.cpp:91] Creating Layer h_pseudoloss
I0925 22:04:19.249774 16998 net.cpp:425] h_pseudoloss <- h
I0925 22:04:19.249786 16998 net.cpp:399] h_pseudoloss -> h_pseudoloss
I0925 22:04:19.257956 17000 net.cpp:141] Setting up lstm1_h_concat
I0925 22:04:19.258016 17000 net.cpp:148] Top shape: 1 1 1000 (1000)
I0925 22:04:19.258029 17000 net.cpp:156] Memory required for data: 94016
I0925 22:04:19.258044 17000 layer_factory.hpp:77] Creating layer h_pseudoloss
I0925 22:04:19.258107 17000 net.cpp:91] Creating Layer h_pseudoloss
I0925 22:04:19.258123 17000 net.cpp:425] h_pseudoloss <- h
I0925 22:04:19.258143 17000 net.cpp:399] h_pseudoloss -> h_pseudoloss
I0925 22:04:19.258702 17024 net.cpp:141] Setting up lstm2_transform_1
I0925 22:04:19.258745 17024 net.cpp:148] Top shape: 1 1 4000 (4000)
I0925 22:04:19.258754 17024 net.cpp:156] Memory required for data: 66020
I0925 22:04:19.258780 17024 layer_factory.hpp:77] Creating layer lstm2_gate_input_1
I0925 22:04:19.258802 17024 net.cpp:91] Creating Layer lstm2_gate_input_1
I0925 22:04:19.258812 17024 net.cpp:425] lstm2_gate_input_1 <- W_hc_h_0
I0925 22:04:19.258823 17024 net.cpp:425] lstm2_gate_input_1 <- W_xc_x_1
I0925 22:04:19.258851 17024 net.cpp:399] lstm2_gate_input_1 -> gate_input_1
I0925 22:04:19.263195 17000 net.cpp:141] Setting up h_pseudoloss
I0925 22:04:19.263249 17000 net.cpp:148] Top shape: (1)
I0925 22:04:19.263259 17000 net.cpp:151]     with loss weight 1
I0925 22:04:19.263280 17000 net.cpp:156] Memory required for data: 94020
I0925 22:04:19.263293 17000 net.cpp:217] h_pseudoloss needs backward computation.
I0925 22:04:19.263304 17000 net.cpp:217] lstm1_h_concat needs backward computation.
I0925 22:04:19.263315 17000 net.cpp:219] lstm1_ does not need backward computation.
I0925 22:04:19.263325 17000 net.cpp:217] lstm1_unit_1 needs backward computation.
I0925 22:04:19.263315 16998 net.cpp:141] Setting up h_pseudoloss
I0925 22:04:19.263339 17000 net.cpp:217] lstm1_gate_input_1 needs backward computation.
I0925 22:04:19.263375 17024 net.cpp:141] Setting up lstm2_gate_input_1
I0925 22:04:19.263381 16998 net.cpp:148] Top shape: (1)
I0925 22:04:19.263419 17024 net.cpp:148] Top shape: 1 1 4000 (4000)
I0925 22:04:19.263425 17000 net.cpp:217] lstm1_transform_1 needs backward computation.
I0925 22:04:19.263429 17024 net.cpp:156] Memory required for data: 82020
I0925 22:04:19.263430 16998 net.cpp:151]     with loss weight 1
I0925 22:04:19.263471 17000 net.cpp:219] lstm1_h_conted_0 does not need backward computation.
I0925 22:04:19.263461 17024 layer_factory.hpp:77] Creating layer lstm2_unit_1
…
I0925 22:04:19.263743 16998 net.cpp:274] Network initialization done.
I0925 22:04:19.263797 17000 recurrent_layer.cpp:150] Adding parameter 0: W_xc
I0925 22:04:19.263813 17000 recurrent_layer.cpp:150] Adding parameter 1: b_c
I0925 22:04:19.263823 17000 recurrent_layer.cpp:150] Adding parameter 2: W_hc
I0925 22:04:19.263828 16998 recurrent_layer.cpp:150] Adding parameter 0: W_xc
I0925 22:04:19.263841 16998 recurrent_layer.cpp:150] Adding parameter 1: b_c
I0925 22:04:19.263851 16998 recurrent_layer.cpp:150] Adding parameter 2: W_hc
I0925 22:04:19.263214 17030 net.cpp:141] Setting up lstm2_transform_1
I0925 22:04:19.266409 17030 net.cpp:148] Top shape: 1 1 4000 (4000)
I0925 22:04:19.266422 17030 net.cpp:156] Memory required for data: 66020
I0925 22:04:19.266443 17030 layer_factory.hpp:77] Creating layer lstm2_gate_input_1
I0925 22:04:19.266471 17030 net.cpp:91] Creating Layer lstm2_gate_input_1
I0925 22:04:19.266484 17030 net.cpp:425] lstm2_gate_input_1 <- W_hc_h_0
I0925 22:04:19.266497 17030 net.cpp:425] lstm2_gate_input_1 <- W_xc_x_1
I0925 22:04:19.266516 17030 net.cpp:399] lstm2_gate_input_1 -> gate_input_1
I0925 22:04:19.272336 17030 net.cpp:141] Setting up lstm2_gate_input_1
I0925 22:04:19.272382 17030 net.cpp:148] Top shape: 1 1 4000 (4000)
I0925 22:04:19.272392 17030 net.cpp:156] Memory required for data: 82020
I0925 22:04:19.272403 17030 layer_factory.hpp:77] Creating layer lstm2_unit_1
I0925 22:04:19.272441 17030 net.cpp:91] Creating Layer lstm2_unit_1
I0925 22:04:19.272454 17024 net.cpp:141] Setting up lstm2_unit_1
I0925 22:04:19.272454 17030 net.cpp:425] lstm2_unit_1 <- c_0
I0925 22:04:19.272485 17024 net.cpp:148] Top shape: 1 1 1000 (1000)
I0925 22:04:19.272493 17030 net.cpp:425] lstm2_unit_1 <- gate_input_1
I0925 22:04:19.272496 17024 net.cpp:148] Top shape: 1 1 1000 (1000)
I0925 22:04:19.272511 17030 net.cpp:425] lstm2_unit_1 <- cont_1_lstm2_cont_slice_0_split_1
I0925 22:04:19.272513 17024 net.cpp:156] Memory required for data: 90020
I0925 22:04:19.272522 17024 layer_factory.hpp:77] Creating layer lstm2_
I0925 22:04:19.272526 17030 net.cpp:399] lstm2_unit_1 -> c_1
I0925 22:04:19.272536 17024 net.cpp:91] Creating Layer lstm2_
I0925 22:04:19.272542 17030 net.cpp:399] lstm2_unit_1 -> h_1
I0925 22:04:19.272544 17024 net.cpp:425] lstm2_ <- c_1
I0925 22:04:19.272564 17024 net.cpp:399] lstm2_ -> c_T
I0925 22:04:19.272691 17024 net.cpp:141] Setting up lstm2_
I0925 22:04:19.272706 17024 net.cpp:148] Top shape: 1 1 1000 (1000)
I0925 22:04:19.272712 17024 net.cpp:156] Memory required for data: 94020
I0925 22:04:19.272719 17024 layer_factory.hpp:77] Creating layer lstm2_h_concat
I0925 22:04:19.272739 17024 net.cpp:91] Creating Layer lstm2_h_concat
I0925 22:04:19.272748 17024 net.cpp:425] lstm2_h_concat <- h_1
I0925 22:04:19.272763 17024 net.cpp:399] lstm2_h_concat -> h
I0925 22:04:19.272771 16998 net.cpp:141] Setting up lstm1
I0925 22:04:19.272802 16998 net.cpp:148] Top shape: 1 1 1000 (1000)
I0925 22:04:19.272812 16998 net.cpp:156] Memory required for data: 26408
I0925 22:04:19.272840 16998 layer_factory.hpp:77] Creating layer concat
I0925 22:04:19.272837 17000 net.cpp:141] Setting up lstm1
I0925 22:04:19.272868 16998 net.cpp:91] Creating Layer concat
I0925 22:04:19.272872 17030 net.cpp:141] Setting up lstm2_unit_1
I0925 22:04:19.272881 16998 net.cpp:425] concat <- lstm1
I0925 22:04:19.272876 17000 net.cpp:148] Top shape: 1 1 1000 (1000)
I0925 22:04:19.272897 16998 net.cpp:425] concat <- embedded_input_sentence
I0925 22:04:19.272900 17030 net.cpp:148] Top shape: 1 1 1000 (1000)
I0925 22:04:19.272905 17000 net.cpp:156] Memory required for data: 26408
I0925 22:04:19.272912 16998 net.cpp:425] concat <- reshaped_stage_indicator
I0925 22:04:19.272915 17030 net.cpp:148] Top shape: 1 1 1000 (1000)
I0925 22:04:19.272923 17030 net.cpp:156] Memory required for data: 90020
I0925 22:04:19.272928 16998 net.cpp:399] concat -> lstm1_video_sequence
I0925 22:04:19.272933 17030 layer_factory.hpp:77] Creating layer lstm2_
I0925 22:04:19.272939 17000 layer_factory.hpp:77] Creating layer concat
I0925 22:04:19.272945 17030 net.cpp:91] Creating Layer lstm2_
I0925 22:04:19.272954 17030 net.cpp:425] lstm2_ <- c_1
I0925 22:04:19.272958 17000 net.cpp:91] Creating Layer concat
I0925 22:04:19.272970 17000 net.cpp:425] concat <- lstm1
I0925 22:04:19.272969 17030 net.cpp:399] lstm2_ -> c_T
I0925 22:04:19.272992 17000 net.cpp:425] concat <- embedded_input_sentence
I0925 22:04:19.273007 17000 net.cpp:425] concat <- reshaped_stage_indicator
I0925 22:04:19.273021 17000 net.cpp:399] concat -> lstm1_video_sequence
I0925 22:04:19.275732 17024 net.cpp:141] Setting up lstm2_h_concat
I0925 22:04:19.275763 17024 net.cpp:148] Top shape: 1 1 1000 (1000)
I0925 22:04:19.275769 17024 net.cpp:156] Memory required for data: 98020
I0925 22:04:19.275779 17024 layer_factory.hpp:77] Creating layer h_pseudoloss
I0925 22:04:19.275800 17024 net.cpp:91] Creating Layer h_pseudoloss
I0925 22:04:19.275816 17024 net.cpp:425] h_pseudoloss <- h
I0925 22:04:19.275796 16998 net.cpp:141] Setting up concat
I0925 22:04:19.275832 17024 net.cpp:399] h_pseudoloss -> h_pseudoloss
I0925 22:04:19.275846 16998 net.cpp:148] Top shape: 1 1 1501 (1501)
I0925 22:04:19.275856 16998 net.cpp:156] Memory required for data: 32412
I0925 22:04:19.275853 17030 net.cpp:141] Setting up lstm2_
I0925 22:04:19.275869 16998 layer_factory.hpp:77] Creating layer lstm2
I0925 22:04:19.275887 17030 net.cpp:148] Top shape: 1 1 1000 (1000)
I0925 22:04:19.275892 17030 net.cpp:156] Memory required for data: 94020
I0925 22:04:19.275898 17030 layer_factory.hpp:77] Creating layer lstm2_h_concat
I0925 22:04:19.275908 17030 net.cpp:91] Creating Layer lstm2_h_concat
I0925 22:04:19.275910 16998 net.cpp:91] Creating Layer lstm2
I0925 22:04:19.275918 17030 net.cpp:425] lstm2_h_concat <- h_1
I0925 22:04:19.275923 16998 net.cpp:425] lstm2 <- lstm1_video_sequence
I0925 22:04:19.275933 17030 net.cpp:399] lstm2_h_concat -> h
I0925 22:04:19.275919 17000 net.cpp:141] Setting up concat
I0925 22:04:19.275944 16998 net.cpp:425] lstm2 <- cont_sentence_input_1_split_1
I0925 22:04:19.275967 17000 net.cpp:148] Top shape: 1 1 1501 (1501)
I0925 22:04:19.275974 16998 net.cpp:399] lstm2 -> lstm2
I0925 22:04:19.275981 17000 net.cpp:156] Memory required for data: 32412
I0925 22:04:19.275993 17000 layer_factory.hpp:77] Creating layer lstm2
I0925 22:04:19.275995 16998 recurrent_layer.cpp:20] Initializing recurrent layer: assuming input batch contains 1 timesteps of 1 independent streams.
I0925 22:04:19.276010 17030 net.cpp:141] Setting up lstm2_h_concat
I0925 22:04:19.276021 17030 net.cpp:148] Top shape: 1 1 1000 (1000)
I0925 22:04:19.276026 17030 net.cpp:156] Memory required for data: 98020
I0925 22:04:19.276031 17030 layer_factory.hpp:77] Creating layer h_pseudoloss
I0925 22:04:19.276039 17030 net.cpp:91] Creating Layer h_pseudoloss
I0925 22:04:19.276043 17030 net.cpp:425] h_pseudoloss <- h
I0925 22:04:19.276056 17030 net.cpp:399] h_pseudoloss -> h_pseudoloss
I0925 22:04:19.276063 17000 net.cpp:91] Creating Layer lstm2
…
I0925 22:04:19.276435 17024 recurrent_layer.cpp:150] Adding parameter 0: W_xc
I0925 22:04:19.276437 16998 net.cpp:49] Initializing net from parameters: 
layer {
  name: "lstm2_"
  type: "Input"
  top: "x"
  top: "cont"
  input_param {
    shape {
      dim: 1
      dim: 1
      dim: 1501
    }
    shape {
      dim: 1
      dim: 1
    }
  }
}
layer {
  name: "lstm2_"
  type: "Input"
  top: "c_0"
  top: "h_0"
  input_param {
    shape {
      dim: 1
      dim: 1
      dim: 1000
    }
    shape {
      dim: 1
      dim: 1
      dim: 1000
    }
  }
}
layer {
  name: "lstm2_cont_slice"
  type: "Slice"
  bottom: "cont"
  top: "cont_1"
  slice_param {
    axis: 0
  }
}
layer {
  name: "lstm2_x_transform"
  type: "InnerProduct"
  bottom: "x"
  top: "W_xc_x"
  param {
    name: "W_xc"
  }
  param {
    name: "b_c"
  }
  propagate_down: true
  inner_product_param {
    num_output: 4000
    bias_term: true
    weight_filler {
      type: "uniform"
      min: -0.08
      max: 0.08
    }
    bias_filler {
      type: "constant"
      value: 0
    }
    axis: 2
  }
}
layer {
  name: "lstm2_W_xc_x_slice"
  type: "Slice"
  bottom: "W_xc_x"
  top: "W_xc_x_1"
  slice_param {
    axis: 0
  }
}
layer {
  name: "lstm2_h_conted_0"
  type: "Scale"
  bottom: "h_0"
  bottom: "cont_1"
  top: "h_conted_0"
  scale_param {
    axis: 0
  }
}
layer {
  name: "lstm2_transform_1"
  type: "InnerProduct"
  bottom: "h_conted_0"
  top: "W_hc_h_0"
  param {
    name: "W_hc"
  }
  inner_product_param {
    num_output: 4000
    bias_term: false
    weight_filler {
      type: "uniform"
      min: -0.08
      max: 0.08
    }
    axis: 2
  }
}
layer {
  name: "lstm2_gate_input_1"
  type: "Eltwise"
  bottom: "W_hc_h_0"
  bottom: "W_xc_x_1"
  top: "gate_input_1"
  eltwise_param {
    operation: SUM
  }
}
layer {
  name: "lstm2_unit_1"
  type: "LSTMUnit"
  bottom: "c_0"
  bottom: "gate_input_1"
  bottom: "cont_1"
  top: "c_1"
  top: "h_1"
}
layer {
  name: "lstm2_"
  type: "Split"
  bottom: "c_1"
  top: "c_T"
}
layer {
  name: "lstm2_h_concat"
  type: "Concat"
  bottom: "h_1"
  top: "h"
  concat_param {
    axis: 0
  }
}
layer {
  name: "h_pseudoloss"
  type: "Reduction"
  bottom: "h"
  top: "h_pseudoloss"
  loss_weight: 1
}
I0925 22:04:19.276446 17024 recurrent_layer.cpp:150] Adding parameter 1: b_c
I0925 22:04:19.276468 17024 recurrent_layer.cpp:150] Adding parameter 2: W_hc
I0925 22:04:19.276492 17030 recurrent_layer.cpp:150] Adding parameter 0: W_xc
I0925 22:04:19.276504 17030 recurrent_layer.cpp:150] Adding parameter 1: b_c
I0925 22:04:19.276513 17030 recurrent_layer.cpp:150] Adding parameter 2: W_hc
I0925 22:04:19.276528 17000 net.cpp:49] Initializing net from parameters: 
layer {
  name: "lstm2_"
  type: "Input"
  top: "x"
  top: "cont"
  input_param {
    shape {
      dim: 1
      dim: 1
      dim: 1501
    }
    shape {
      dim: 1
      dim: 1
    }
  }
}
layer {
  name: "lstm2_"
  type: "Input"
  top: "c_0"
  top: "h_0"
  input_param {
    shape {
      dim: 1
      dim: 1
      dim: 1000
    }
    shape {
      dim: 1
      dim: 1
      dim: 1000
    }
  }
}
layer {
  name: "lstm2_cont_slice"
  type: "Slice"
  bottom: "cont"
  top: "cont_1"
  slice_param {
    axis: 0
  }
}
layer {
  name: "lstm2_x_transform"
  type: "InnerProduct"
  bottom: "x"
  top: "W_xc_x"
  param {
    name: "W_xc"
  }
  param {
    name: "b_c"
  }
  propagate_down: true
  inner_product_param {
    num_output: 4000
    bias_term: true
    weight_filler {
      type: "uniform"
      min: -0.08
      max: 0.08
    }
    bias_filler {
      type: "constant"
      value: 0
    }
    axis: 2
  }
}
layer {
  name: "lstm2_W_xc_x_slice"
  type: "Slice"
  bottom: "W_xc_x"
  top: "W_xc_x_1"
  slice_param {
    axis: 0
  }
}
layer {
  name: "lstm2_h_conted_0"
  type: "Scale"
  bottom: "h_0"
  bottom: "cont_1"
  top: "h_conted_0"
  scale_param {
    axis: 0
  }
}
layer {
  name: "lstm2_transform_1"
  type: "InnerProduct"
  bottom: "h_conted_0"
  top: "W_hc_h_0"
  param {
    name: "W_hc"
  }
  inner_product_param {
    num_output: 4000
    bias_term: false
    weight_filler {
      type: "uniform"
      min: -0.08
      max: 0.08
    }
    axis: 2
  }
}
layer {
  name: "lstm2_gate_input_1"
  type: "Eltwise"
  bottom: "W_hc_h_0"
  bottom: "W_xc_x_1"
  top: "gate_input_1"
  eltwise_param {
    operation: SUM
  }
}
layer {
  name: "lstm2_unit_1"
  type: "LSTMUnit"
  bottom: "c_0"
  bottom: "gate_input_1"
  bottom: "cont_1"
  top: "c_1"
  top: "h_1"
}
layer {
  name: "lstm2_"
  type: "Split"
  bottom: "c_1"
  top: "c_T"
}
layer {
  name: "lstm2_h_concat"
  type: "Concat"
  bottom: "h_1"
  top: "h"
  concat_param {
    axis: 0
  }
}
layer {
  name: "h_pseudoloss"
  type: "Reduction"
  bottom: "h"
  top: "h_pseudoloss"
  loss_weight: 1
}
I0925 22:04:19.276597 16998 layer_factory.hpp:77] Creating layer lstm2_
I0925 22:04:19.276618 16998 net.cpp:91] Creating Layer lstm2_
I0925 22:04:19.276629 16998 net.cpp:399] lstm2_ -> x
I0925 22:04:19.276648 16998 net.cpp:399] lstm2_ -> cont
I0925 22:04:19.276666 17000 layer_factory.hpp:77] Creating layer lstm2_
I0925 22:04:19.276685 17000 net.cpp:91] Creating Layer lstm2_
I0925 22:04:19.276697 17000 net.cpp:399] lstm2_ -> x
I0925 22:04:19.276716 17000 net.cpp:399] lstm2_ -> cont
I0925 22:04:19.276867 17030 net.cpp:141] Setting up lstm2
I0925 22:04:19.276881 17030 net.cpp:148] Top shape: 1 1 1000 (1000)
I0925 22:04:19.276886 17030 net.cpp:156] Memory required for data: 36412
I0925 22:04:19.276902 17030 layer_factory.hpp:77] Creating layer predict
I0925 22:04:19.276914 17030 net.cpp:91] Creating Layer predict
I0925 22:04:19.276921 17030 net.cpp:425] predict <- lstm2
I0925 22:04:19.276931 17030 net.cpp:399] predict -> predict
I0925 22:04:19.276976 16998 net.cpp:141] Setting up lstm2_
I0925 22:04:19.276995 16998 net.cpp:148] Top shape: 1 1 1501 (1501)
I0925 22:04:19.277007 16998 net.cpp:148] Top shape: 1 1 (1)
I0925 22:04:19.277015 16998 net.cpp:156] Memory required for data: 6008
I0925 22:04:19.277025 16998 layer_factory.hpp:77] Creating layer lstm2_
I0925 22:04:19.277040 16998 net.cpp:91] Creating Layer lstm2_
I0925 22:04:19.277053 16998 net.cpp:399] lstm2_ -> c_0
I0925 22:04:19.277072 16998 net.cpp:399] lstm2_ -> h_0
I0925 22:04:19.277102 17024 net.cpp:141] Setting up lstm2
I0925 22:04:19.277118 17024 net.cpp:148] Top shape: 1 1 1000 (1000)
I0925 22:04:19.277125 17024 net.cpp:156] Memory required for data: 36412
I0925 22:04:19.277148 17024 layer_factory.hpp:77] Creating layer predict
I0925 22:04:19.277161 17024 net.cpp:91] Creating Layer predict
I0925 22:04:19.277170 17024 net.cpp:425] predict <- lstm2
I0925 22:04:19.277182 17024 net.cpp:399] predict -> predict
I0925 22:04:19.277190 16998 net.cpp:141] Setting up lstm2_
I0925 22:04:19.277209 16998 net.cpp:148] Top shape: 1 1 1000 (1000)
I0925 22:04:19.277220 16998 net.cpp:148] Top shape: 1 1 1000 (1000)
I0925 22:04:19.277228 16998 net.cpp:156] Memory required for data: 14008
I0925 22:04:19.277237 16998 layer_factory.hpp:77] Creating layer lstm2_cont_slice
I0925 22:04:19.277235 17000 net.cpp:141] Setting up lstm2_
I0925 22:04:19.277252 16998 net.cpp:91] Creating Layer lstm2_cont_slice
I0925 22:04:19.277256 17000 net.cpp:148] Top shape: 1 1 1501 (1501)
I0925 22:04:19.277262 16998 net.cpp:425] lstm2_cont_slice <- cont
I0925 22:04:19.277269 17000 net.cpp:148] Top shape: 1 1 (1)
I0925 22:04:19.277277 17000 net.cpp:156] Memory required for data: 6008
I0925 22:04:19.277281 16998 net.cpp:399] lstm2_cont_slice -> cont_1
I0925 22:04:19.277287 17000 layer_factory.hpp:77] Creating layer lstm2_
I0925 22:04:19.277304 17000 net.cpp:91] Creating Layer lstm2_
I0925 22:04:19.277433 17000 net.cpp:399] lstm2_ -> c_0
I0925 22:04:19.277470 17000 net.cpp:399] lstm2_ -> h_0
I0925 22:04:19.361781 16998 net.cpp:141] Setting up lstm2_cont_slice
I0925 22:04:19.361845 16998 net.cpp:148] Top shape: 1 1 (1)
I0925 22:04:19.361852 16998 net.cpp:156] Memory required for data: 14012
I0925 22:04:19.361862 16998 layer_factory.hpp:77] Creating layer cont_1_lstm2_cont_slice_0_split
I0925 22:04:19.361884 16998 net.cpp:91] Creating Layer cont_1_lstm2_cont_slice_0_split
I0925 22:04:19.361894 16998 net.cpp:425] cont_1_lstm2_cont_slice_0_split <- cont_1
I0925 22:04:19.361907 16998 net.cpp:399] cont_1_lstm2_cont_slice_0_split -> cont_1_lstm2_cont_slice_0_split_0
I0925 22:04:19.361922 16998 net.cpp:399] cont_1_lstm2_cont_slice_0_split -> cont_1_lstm2_cont_slice_0_split_1
I0925 22:04:19.448043 17006 net.cpp:141] Setting up lstm1_transform_1
I0925 22:04:19.448081 16996 net.cpp:141] Setting up lstm2_transform_1
I0925 22:04:19.448343 17000 net.cpp:141] Setting up lstm2_
I0925 22:04:19.448511 16996 net.cpp:148] Top shape: 1 1 4000 (4000)
I0925 22:04:19.448503 17006 net.cpp:148] Top shape: 1 1 4000 (4000)
I0925 22:04:19.448525 17000 net.cpp:148] Top shape: 1 1 1000 (1000)
I0925 22:04:19.448523 16996 net.cpp:156] Memory required for data: 66020
I0925 22:04:19.448544 17006 net.cpp:156] Memory required for data: 62016
I0925 22:04:19.448542 17000 net.cpp:148] Top shape: 1 1 1000 (1000)
I0925 22:04:19.448570 17006 layer_factory.hpp:77] Creating layer lstm1_gate_input_1
I0925 22:04:19.448570 16996 layer_factory.hpp:77] Creating layer lstm2_gate_input_1
I0925 22:04:19.448576 17000 net.cpp:156] Memory required for data: 14008
I0925 22:04:19.448595 17006 net.cpp:91] Creating Layer lstm1_gate_input_1
I0925 22:04:19.448596 17000 layer_factory.hpp:77] Creating layer lstm2_cont_slice
I0925 22:04:19.448598 16996 net.cpp:91] Creating Layer lstm2_gate_input_1
I0925 22:04:19.448602 17006 net.cpp:425] lstm1_gate_input_1 <- W_hc_h_0
I0925 22:04:19.448500 16998 net.cpp:141] Setting up cont_1_lstm2_cont_slice_0_split
I0925 22:04:19.448609 16996 net.cpp:425] lstm2_gate_input_1 <- W_hc_h_0
I0925 22:04:19.448611 17006 net.cpp:425] lstm1_gate_input_1 <- W_xc_x_1
I0925 22:04:19.448647 16996 net.cpp:425] lstm2_gate_input_1 <- W_xc_x_1
I0925 22:04:19.448653 17006 net.cpp:399] lstm1_gate_input_1 -> gate_input_1
I0925 22:04:19.448654 17000 net.cpp:91] Creating Layer lstm2_cont_slice
I0925 22:04:19.448664 16996 net.cpp:399] lstm2_gate_input_1 -> gate_input_1
I0925 22:04:19.448670 17000 net.cpp:425] lstm2_cont_slice <- cont
I0925 22:04:19.448673 16998 net.cpp:148] Top shape: 1 1 (1)
I0925 22:04:19.448689 17000 net.cpp:399] lstm2_cont_slice -> cont_1
I0925 22:04:19.448701 16998 net.cpp:148] Top shape: 1 1 (1)
I0925 22:04:19.448743 16998 net.cpp:156] Memory required for data: 14020
I0925 22:04:19.448770 16998 layer_factory.hpp:77] Creating layer lstm2_x_transform
I0925 22:04:19.448879 16998 net.cpp:91] Creating Layer lstm2_x_transform
I0925 22:04:19.448904 16998 net.cpp:425] lstm2_x_transform <- x
I0925 22:04:19.448968 16998 net.cpp:399] lstm2_x_transform -> W_xc_x
I0925 22:04:19.449110 17006 net.cpp:141] Setting up lstm1_gate_input_1
I0925 22:04:19.449122 17006 net.cpp:148] Top shape: 1 1 4000 (4000)
I0925 22:04:19.449127 17006 net.cpp:156] Memory required for data: 78016
I0925 22:04:19.449132 17006 layer_factory.hpp:77] Creating layer lstm1_unit_1
I0925 22:04:19.449141 17006 net.cpp:91] Creating Layer lstm1_unit_1
I0925 22:04:19.449146 17006 net.cpp:425] lstm1_unit_1 <- c_0
I0925 22:04:19.449152 17006 net.cpp:425] lstm1_unit_1 <- gate_input_1
I0925 22:04:19.449154 16996 net.cpp:141] Setting up lstm2_gate_input_1
I0925 22:04:19.449158 17006 net.cpp:425] lstm1_unit_1 <- cont_1_lstm1_cont_slice_0_split_1
I0925 22:04:19.449175 16996 net.cpp:148] Top shape: 1 1 4000 (4000)
I0925 22:04:19.449177 17006 net.cpp:399] lstm1_unit_1 -> c_1
I0925 22:04:19.449187 16996 net.cpp:156] Memory required for data: 82020
I0925 22:04:19.449195 17006 net.cpp:399] lstm1_unit_1 -> h_1
I0925 22:04:19.449196 16996 layer_factory.hpp:77] Creating layer lstm2_unit_1
I0925 22:04:19.449213 16996 net.cpp:91] Creating Layer lstm2_unit_1
I0925 22:04:19.449221 16996 net.cpp:425] lstm2_unit_1 <- c_0
I0925 22:04:19.449221 17000 net.cpp:141] Setting up lstm2_cont_slice
I0925 22:04:19.449230 16996 net.cpp:425] lstm2_unit_1 <- gate_input_1
I0925 22:04:19.449239 16996 net.cpp:425] lstm2_unit_1 <- cont_1_lstm2_cont_slice_0_split_1
I0925 22:04:19.449244 17000 net.cpp:148] Top shape: 1 1 (1)
I0925 22:04:19.449249 16996 net.cpp:399] lstm2_unit_1 -> c_1
I0925 22:04:19.449254 17000 net.cpp:156] Memory required for data: 14012
I0925 22:04:19.449264 16996 net.cpp:399] lstm2_unit_1 -> h_1
I0925 22:04:19.449282 17006 net.cpp:141] Setting up lstm1_unit_1
I0925 22:04:19.449292 17006 net.cpp:148] Top shape: 1 1 1000 (1000)
I0925 22:04:19.449300 17006 net.cpp:148] Top shape: 1 1 1000 (1000)
I0925 22:04:19.449303 17006 net.cpp:156] Memory required for data: 86016
I0925 22:04:19.449264 17000 layer_factory.hpp:77] Creating layer cont_1_lstm2_cont_slice_0_split
I0925 22:04:19.449319 17006 layer_factory.hpp:77] Creating layer lstm1_
I0925 22:04:19.449342 17000 net.cpp:91] Creating Layer cont_1_lstm2_cont_slice_0_split
I0925 22:04:19.449345 17006 net.cpp:91] Creating Layer lstm1_
I0925 22:04:19.449360 17000 net.cpp:425] cont_1_lstm2_cont_slice_0_split <- cont_1
I0925 22:04:19.449364 17006 net.cpp:425] lstm1_ <- c_1
I0925 22:04:19.449378 17006 net.cpp:399] lstm1_ -> c_T
I0925 22:04:19.449386 17000 net.cpp:399] cont_1_lstm2_cont_slice_0_split -> cont_1_lstm2_cont_slice_0_split_0
I0925 22:04:19.449407 17000 net.cpp:399] cont_1_lstm2_cont_slice_0_split -> cont_1_lstm2_cont_slice_0_split_1
I0925 22:04:19.464704 17006 net.cpp:141] Setting up lstm1_
I0925 22:04:19.464768 17006 net.cpp:148] Top shape: 1 1 1000 (1000)
I0925 22:04:19.464781 17006 net.cpp:156] Memory required for data: 90016
I0925 22:04:19.464794 17006 layer_factory.hpp:77] Creating layer lstm1_h_concat
I0925 22:04:19.464818 17006 net.cpp:91] Creating Layer lstm1_h_concat
I0925 22:04:19.464829 17006 net.cpp:425] lstm1_h_concat <- h_1
I0925 22:04:19.464856 17006 net.cpp:399] lstm1_h_concat -> h
I0925 22:04:19.480053 17000 net.cpp:141] Setting up cont_1_lstm2_cont_slice_0_split
I0925 22:04:19.480134 16996 net.cpp:141] Setting up lstm2_unit_1
I0925 22:04:19.480152 16996 net.cpp:148] Top shape: 1 1 1000 (1000)
I0925 22:04:19.480164 16996 net.cpp:148] Top shape: 1 1 1000 (1000)
I0925 22:04:19.480170 16996 net.cpp:156] Memory required for data: 90020
I0925 22:04:19.480175 17006 net.cpp:141] Setting up lstm1_h_concat
I0925 22:04:19.480183 17000 net.cpp:148] Top shape: 1 1 (1)
I0925 22:04:19.480182 16996 layer_factory.hpp:77] Creating layer lstm2_
I0925 22:04:19.480208 17006 net.cpp:148] Top shape: 1 1 1000 (1000)
I0925 22:04:19.480214 17006 net.cpp:156] Memory required for data: 94016
I0925 22:04:19.480212 17000 net.cpp:148] Top shape: 1 1 (1)
I0925 22:04:19.480221 17006 layer_factory.hpp:77] Creating layer h_pseudoloss
I0925 22:04:19.480226 16996 net.cpp:91] Creating Layer lstm2_
I0925 22:04:19.480228 17000 net.cpp:156] Memory required for data: 14020
I0925 22:04:19.480235 16996 net.cpp:425] lstm2_ <- c_1
I0925 22:04:19.480233 17006 net.cpp:91] Creating Layer h_pseudoloss
I0925 22:04:19.480253 17006 net.cpp:425] h_pseudoloss <- h
I0925 22:04:19.480253 17000 layer_factory.hpp:77] Creating layer lstm2_x_transform
I0925 22:04:19.480262 17006 net.cpp:399] h_pseudoloss -> h_pseudoloss
I0925 22:04:19.480257 16996 net.cpp:399] lstm2_ -> c_T
I0925 22:04:19.480304 17000 net.cpp:91] Creating Layer lstm2_x_transform
I0925 22:04:19.480324 17000 net.cpp:425] lstm2_x_transform <- x
I0925 22:04:19.480353 17000 net.cpp:399] lstm2_x_transform -> W_xc_x
I0925 22:04:19.487377 16996 net.cpp:141] Setting up lstm2_
I0925 22:04:19.487431 16996 net.cpp:148] Top shape: 1 1 1000 (1000)
I0925 22:04:19.487439 16996 net.cpp:156] Memory required for data: 94020
I0925 22:04:19.487452 16996 layer_factory.hpp:77] Creating layer lstm2_h_concat
I0925 22:04:19.487473 16996 net.cpp:91] Creating Layer lstm2_h_concat
I0925 22:04:19.487481 16996 net.cpp:425] lstm2_h_concat <- h_1
I0925 22:04:19.487499 16996 net.cpp:399] lstm2_h_concat -> h
I0925 22:04:19.502115 17006 net.cpp:141] Setting up h_pseudoloss
I0925 22:04:19.502163 16996 net.cpp:141] Setting up lstm2_h_concat
I0925 22:04:19.502171 17006 net.cpp:148] Top shape: (1)
I0925 22:04:19.502184 16996 net.cpp:148] Top shape: 1 1 1000 (1000)
I0925 22:04:19.502192 16996 net.cpp:156] Memory required for data: 98020
I0925 22:04:19.502182 17006 net.cpp:151]     with loss weight 1
I0925 22:04:19.502204 16996 layer_factory.hpp:77] Creating layer h_pseudoloss
I0925 22:04:19.502207 17006 net.cpp:156] Memory required for data: 94020
I0925 22:04:19.502218 17006 net.cpp:217] h_pseudoloss needs backward computation.
I0925 22:04:19.502228 16996 net.cpp:91] Creating Layer h_pseudoloss
…
I0925 22:04:19.502657 16996 net.cpp:219] lstm2_ does not need backward computation.
I0925 22:04:19.502663 16996 net.cpp:261] This network produces output c_T
I0925 22:04:19.502671 16996 net.cpp:261] This network produces output h_pseudoloss
I0925 22:04:19.502694 16996 net.cpp:274] Network initialization done.
I0925 22:04:19.502755 16996 recurrent_layer.cpp:150] Adding parameter 0: W_xc
I0925 22:04:19.502764 16996 recurrent_layer.cpp:150] Adding parameter 1: b_c
I0925 22:04:19.502771 16996 recurrent_layer.cpp:150] Adding parameter 2: W_hc
I0925 22:04:19.504485 17006 net.cpp:141] Setting up lstm1
I0925 22:04:19.504539 17006 net.cpp:148] Top shape: 1 1 1000 (1000)
I0925 22:04:19.504551 17006 net.cpp:156] Memory required for data: 26408
I0925 22:04:19.504586 17006 layer_factory.hpp:77] Creating layer concat
I0925 22:04:19.504616 17006 net.cpp:91] Creating Layer concat
I0925 22:04:19.504629 17006 net.cpp:425] concat <- lstm1
I0925 22:04:19.504643 17006 net.cpp:425] concat <- embedded_input_sentence
I0925 22:04:19.504653 17006 net.cpp:425] concat <- reshaped_stage_indicator
I0925 22:04:19.504667 17006 net.cpp:399] concat -> lstm1_video_sequence
I0925 22:04:19.504863 16996 net.cpp:141] Setting up lstm2
I0925 22:04:19.504881 16996 net.cpp:148] Top shape: 1 1 1000 (1000)
I0925 22:04:19.504889 16996 net.cpp:156] Memory required for data: 36412
I0925 22:04:19.504890 17006 net.cpp:141] Setting up concat
I0925 22:04:19.504904 17006 net.cpp:148] Top shape: 1 1 1501 (1501)
I0925 22:04:19.504911 17006 net.cpp:156] Memory required for data: 32412
I0925 22:04:19.504912 16996 layer_factory.hpp:77] Creating layer predict
I0925 22:04:19.504920 17006 layer_factory.hpp:77] Creating layer lstm2
I0925 22:04:19.504935 16996 net.cpp:91] Creating Layer predict
I0925 22:04:19.504938 17006 net.cpp:91] Creating Layer lstm2
I0925 22:04:19.504945 16996 net.cpp:425] predict <- lstm2
I0925 22:04:19.504945 17006 net.cpp:425] lstm2 <- lstm1_video_sequence
I0925 22:04:19.504964 17006 net.cpp:425] lstm2 <- cont_sentence_input_1_split_1
I0925 22:04:19.504964 16996 net.cpp:399] predict -> predict
I0925 22:04:19.504984 17006 net.cpp:399] lstm2 -> lstm2
I0925 22:04:19.505003 17006 recurrent_layer.cpp:20] Initializing recurrent layer: assuming input batch contains 1 timesteps of 1 independent streams.
I0925 22:04:19.505446 17006 net.cpp:49] Initializing net from parameters: 
layer {
  name: "lstm2_"
  type: "Input"
  top: "x"
  top: "cont"
  input_param {
    shape {
      dim: 1
      dim: 1
      dim: 1501
    }
    shape {
      dim: 1
      dim: 1
    }
  }
}
layer {
  name: "lstm2_"
  type: "Input"
  top: "c_0"
  top: "h_0"
  input_param {
    shape {
      dim: 1
      dim: 1
      dim: 1000
    }
    shape {
      dim: 1
      dim: 1
      dim: 1000
    }
  }
}
layer {
  name: "lstm2_cont_slice"
  type: "Slice"
  bottom: "cont"
  top: "cont_1"
  slice_param {
    axis: 0
  }
}
layer {
  name: "lstm2_x_transform"
  type: "InnerProduct"
  bottom: "x"
  top: "W_xc_x"
  param {
    name: "W_xc"
  }
  param {
    name: "b_c"
  }
  propagate_down: true
  inner_product_param {
    num_output: 4000
    bias_term: true
    weight_filler {
      type: "uniform"
      min: -0.08
      max: 0.08
    }
    bias_filler {
      type: "constant"
      value: 0
    }
    axis: 2
  }
}
layer {
  name: "lstm2_W_xc_x_slice"
  type: "Slice"
  bottom: "W_xc_x"
  top: "W_xc_x_1"
  slice_param {
    axis: 0
  }
}
layer {
  name: "lstm2_h_conted_0"
  type: "Scale"
  bottom: "h_0"
  bottom: "cont_1"
  top: "h_conted_0"
  scale_param {
    axis: 0
  }
}
layer {
  name: "lstm2_transform_1"
  type: "InnerProduct"
  bottom: "h_conted_0"
  top: "W_hc_h_0"
  param {
    name: "W_hc"
  }
  inner_product_param {
    num_output: 4000
    bias_term: false
    weight_filler {
      type: "uniform"
      min: -0.08
      max: 0.08
    }
    axis: 2
  }
}
layer {
  name: "lstm2_gate_input_1"
  type: "Eltwise"
  bottom: "W_hc_h_0"
  bottom: "W_xc_x_1"
  top: "gate_input_1"
  eltwise_param {
    operation: SUM
  }
}
layer {
  name: "lstm2_unit_1"
  type: "LSTMUnit"
  bottom: "c_0"
  bottom: "gate_input_1"
  bottom: "cont_1"
  top: "c_1"
  top: "h_1"
}
layer {
  name: "lstm2_"
  type: "Split"
  bottom: "c_1"
  top: "c_T"
}
layer {
  name: "lstm2_h_concat"
  type: "Concat"
  bottom: "h_1"
  top: "h"
  concat_param {
    axis: 0
  }
}
layer {
  name: "h_pseudoloss"
  type: "Reduction"
  bottom: "h"
  top: "h_pseudoloss"
  loss_weight: 1
}
I0925 22:04:19.505549 17006 layer_factory.hpp:77] Creating layer lstm2_
I0925 22:04:19.505561 17006 net.cpp:91] Creating Layer lstm2_
I0925 22:04:19.505568 17006 net.cpp:399] lstm2_ -> x
I0925 22:04:19.505580 17006 net.cpp:399] lstm2_ -> cont
I0925 22:04:19.506027 17006 net.cpp:141] Setting up lstm2_
I0925 22:04:19.506045 17006 net.cpp:148] Top shape: 1 1 1501 (1501)
I0925 22:04:19.506057 17006 net.cpp:148] Top shape: 1 1 (1)
I0925 22:04:19.506063 17006 net.cpp:156] Memory required for data: 6008
I0925 22:04:19.506072 17006 layer_factory.hpp:77] Creating layer lstm2_
I0925 22:04:19.506085 17006 net.cpp:91] Creating Layer lstm2_
I0925 22:04:19.506134 17006 net.cpp:399] lstm2_ -> c_0
I0925 22:04:19.506155 17006 net.cpp:399] lstm2_ -> h_0
I0925 22:04:19.598152 17006 net.cpp:141] Setting up lstm2_
I0925 22:04:19.598211 17006 net.cpp:148] Top shape: 1 1 1000 (1000)
I0925 22:04:19.598220 17006 net.cpp:148] Top shape: 1 1 1000 (1000)
I0925 22:04:19.598224 17006 net.cpp:156] Memory required for data: 14008
I0925 22:04:19.598234 17006 layer_factory.hpp:77] Creating layer lstm2_cont_slice
I0925 22:04:19.598258 17006 net.cpp:91] Creating Layer lstm2_cont_slice
I0925 22:04:19.598265 17006 net.cpp:425] lstm2_cont_slice <- cont
I0925 22:04:19.598278 17006 net.cpp:399] lstm2_cont_slice -> cont_1
I0925 22:04:19.620317 17006 net.cpp:141] Setting up lstm2_cont_slice
I0925 22:04:19.620378 17006 net.cpp:148] Top shape: 1 1 (1)
I0925 22:04:19.620388 17006 net.cpp:156] Memory required for data: 14012
I0925 22:04:19.620400 17006 layer_factory.hpp:77] Creating layer cont_1_lstm2_cont_slice_0_split
I0925 22:04:19.620443 17006 net.cpp:91] Creating Layer cont_1_lstm2_cont_slice_0_split
I0925 22:04:19.620456 17006 net.cpp:425] cont_1_lstm2_cont_slice_0_split <- cont_1
I0925 22:04:19.620472 17006 net.cpp:399] cont_1_lstm2_cont_slice_0_split -> cont_1_lstm2_cont_slice_0_split_0
I0925 22:04:19.620492 17006 net.cpp:399] cont_1_lstm2_cont_slice_0_split -> cont_1_lstm2_cont_slice_0_split_1
I0925 22:04:19.620664 16998 net.cpp:141] Setting up lstm2_x_transform
I0925 22:04:19.620683 16998 net.cpp:148] Top shape: 1 1 4000 (4000)
I0925 22:04:19.620688 16998 net.cpp:156] Memory required for data: 30020
I0925 22:04:19.620707 16998 layer_factory.hpp:77] Creating layer lstm2_W_xc_x_slice
I0925 22:04:19.620718 16998 net.cpp:91] Creating Layer lstm2_W_xc_x_slice
I0925 22:04:19.620725 16998 net.cpp:425] lstm2_W_xc_x_slice <- W_xc_x
I0925 22:04:19.620738 16998 net.cpp:399] lstm2_W_xc_x_slice -> W_xc_x_1
I0925 22:04:19.620770 17000 net.cpp:141] Setting up lstm2_x_transform
I0925 22:04:19.620810 17000 net.cpp:148] Top shape: 1 1 4000 (4000)
I0925 22:04:19.620816 17000 net.cpp:156] Memory required for data: 30020
I0925 22:04:19.620825 17006 net.cpp:141] Setting up cont_1_lstm2_cont_slice_0_split
I0925 22:04:19.620848 17000 layer_factory.hpp:77] Creating layer lstm2_W_xc_x_slice
I0925 22:04:19.620844 17006 net.cpp:148] Top shape: 1 1 (1)
I0925 22:04:19.620858 16998 net.cpp:141] Setting up lstm2_W_xc_x_slice
I0925 22:04:19.620868 17006 net.cpp:148] Top shape: 1 1 (1)
I0925 22:04:19.620872 16998 net.cpp:148] Top shape: 1 1 4000 (4000)
I0925 22:04:19.620884 17006 net.cpp:156] Memory required for data: 14020
I0925 22:04:19.620896 17006 layer_factory.hpp:77] Creating layer lstm2_x_transform
I0925 22:04:19.620901 16998 net.cpp:156] Memory required for data: 46020
I0925 22:04:19.620877 17000 net.cpp:91] Creating Layer lstm2_W_xc_x_slice
I0925 22:04:19.620908 16998 layer_factory.hpp:77] Creating layer lstm2_h_conted_0
I0925 22:04:19.620923 17006 net.cpp:91] Creating Layer lstm2_x_transform
I0925 22:04:19.620929 17000 net.cpp:425] lstm2_W_xc_x_slice <- W_xc_x
I0925 22:04:19.620937 16998 net.cpp:91] Creating Layer lstm2_h_conted_0
I0925 22:04:19.620951 16998 net.cpp:425] lstm2_h_conted_0 <- h_0
I0925 22:04:19.620959 16998 net.cpp:425] lstm2_h_conted_0 <- cont_1_lstm2_cont_slice_0_split_0
I0925 22:04:19.620965 17000 net.cpp:399] lstm2_W_xc_x_slice -> W_xc_x_1
I0925 22:04:19.620970 16998 net.cpp:399] lstm2_h_conted_0 -> h_conted_0
I0925 22:04:19.620934 17006 net.cpp:425] lstm2_x_transform <- x
I0925 22:04:19.621037 17006 net.cpp:399] lstm2_x_transform -> W_xc_x
I0925 22:04:19.626397 17000 net.cpp:141] Setting up lstm2_W_xc_x_slice
I0925 22:04:19.627130 17000 net.cpp:148] Top shape: 1 1 4000 (4000)
I0925 22:04:19.627521 17000 net.cpp:156] Memory required for data: 46020
I0925 22:04:19.627873 17000 layer_factory.hpp:77] Creating layer lstm2_h_conted_0
I0925 22:04:19.636603 17000 net.cpp:91] Creating Layer lstm2_h_conted_0
I0925 22:04:19.637323 17000 net.cpp:425] lstm2_h_conted_0 <- h_0
I0925 22:04:19.637365 17000 net.cpp:425] lstm2_h_conted_0 <- cont_1_lstm2_cont_slice_0_split_0
I0925 22:04:19.637392 17000 net.cpp:399] lstm2_h_conted_0 -> h_conted_0
I0925 22:04:19.638463 17000 net.cpp:141] Setting up lstm2_h_conted_0
I0925 22:04:19.638497 17000 net.cpp:148] Top shape: 1 1 1000 (1000)
I0925 22:04:19.638496 16998 net.cpp:141] Setting up lstm2_h_conted_0
I0925 22:04:19.638509 17000 net.cpp:156] Memory required for data: 50020
I0925 22:04:19.638521 17000 layer_factory.hpp:77] Creating layer lstm2_transform_1
I0925 22:04:19.638525 16998 net.cpp:148] Top shape: 1 1 1000 (1000)
I0925 22:04:19.638543 16998 net.cpp:156] Memory required for data: 50020
I0925 22:04:19.638547 17000 net.cpp:91] Creating Layer lstm2_transform_1
I0925 22:04:19.638555 16998 layer_factory.hpp:77] Creating layer lstm2_transform_1
I0925 22:04:19.638559 17000 net.cpp:425] lstm2_transform_1 <- h_conted_0
I0925 22:04:19.638583 16998 net.cpp:91] Creating Layer lstm2_transform_1
I0925 22:04:19.638612 17000 net.cpp:399] lstm2_transform_1 -> W_hc_h_0
I0925 22:04:19.638624 16998 net.cpp:425] lstm2_transform_1 <- h_conted_0
I0925 22:04:19.638644 16998 net.cpp:399] lstm2_transform_1 -> W_hc_h_0
I0925 22:04:19.693012 16998 net.cpp:141] Setting up lstm2_transform_1
I0925 22:04:19.693214 17006 net.cpp:141] Setting up lstm2_x_transform
I0925 22:04:19.693439 17006 net.cpp:148] Top shape: 1 1 4000 (4000)
I0925 22:04:19.693439 16998 net.cpp:148] Top shape: 1 1 4000 (4000)
I0925 22:04:19.693444 17006 net.cpp:156] Memory required for data: 30020
I0925 22:04:19.693449 16998 net.cpp:156] Memory required for data: 66020
I0925 22:04:19.693465 16998 layer_factory.hpp:77] Creating layer lstm2_gate_input_1
I0925 22:04:19.693469 17006 layer_factory.hpp:77] Creating layer lstm2_W_xc_x_slice
I0925 22:04:19.693485 17006 net.cpp:91] Creating Layer lstm2_W_xc_x_slice
I0925 22:04:19.693490 17006 net.cpp:425] lstm2_W_xc_x_slice <- W_xc_x
I0925 22:04:19.693491 16998 net.cpp:91] Creating Layer lstm2_gate_input_1
I0925 22:04:19.693500 16998 net.cpp:425] lstm2_gate_input_1 <- W_hc_h_0
I0925 22:04:19.693506 17006 net.cpp:399] lstm2_W_xc_x_slice -> W_xc_x_1
I0925 22:04:19.693506 16998 net.cpp:425] lstm2_gate_input_1 <- W_xc_x_1
I0925 22:04:19.693539 16998 net.cpp:399] lstm2_gate_input_1 -> gate_input_1
I0925 22:04:19.710078 17006 net.cpp:141] Setting up lstm2_W_xc_x_slice
I0925 22:04:19.710129 16998 net.cpp:141] Setting up lstm2_gate_input_1
I0925 22:04:19.710139 17006 net.cpp:148] Top shape: 1 1 4000 (4000)
I0925 22:04:19.710146 16998 net.cpp:148] Top shape: 1 1 4000 (4000)
I0925 22:04:19.710149 17006 net.cpp:156] Memory required for data: 46020
I0925 22:04:19.710152 16998 net.cpp:156] Memory required for data: 82020
I0925 22:04:19.710160 16998 layer_factory.hpp:77] Creating layer lstm2_unit_1
I0925 22:04:19.710161 17006 layer_factory.hpp:77] Creating layer lstm2_h_conted_0
I0925 22:04:19.710182 17006 net.cpp:91] Creating Layer lstm2_h_conted_0
I0925 22:04:19.710186 16998 net.cpp:91] Creating Layer lstm2_unit_1
I0925 22:04:19.710204 16998 net.cpp:425] lstm2_unit_1 <- c_0
I0925 22:04:19.710203 17006 net.cpp:425] lstm2_h_conted_0 <- h_0
I0925 22:04:19.710222 16998 net.cpp:425] lstm2_unit_1 <- gate_input_1
I0925 22:04:19.710229 16998 net.cpp:425] lstm2_unit_1 <- cont_1_lstm2_cont_slice_0_split_1
I0925 22:04:19.710232 17006 net.cpp:425] lstm2_h_conted_0 <- cont_1_lstm2_cont_slice_0_split_0
I0925 22:04:19.710237 16998 net.cpp:399] lstm2_unit_1 -> c_1
I0925 22:04:19.710247 17006 net.cpp:399] lstm2_h_conted_0 -> h_conted_0
I0925 22:04:19.710253 16998 net.cpp:399] lstm2_unit_1 -> h_1
I0925 22:04:19.710346 16998 net.cpp:141] Setting up lstm2_unit_1
I0925 22:04:19.710356 16998 net.cpp:148] Top shape: 1 1 1000 (1000)
I0925 22:04:19.710363 16998 net.cpp:148] Top shape: 1 1 1000 (1000)
I0925 22:04:19.710367 16998 net.cpp:156] Memory required for data: 90020
I0925 22:04:19.710372 16998 layer_factory.hpp:77] Creating layer lstm2_
I0925 22:04:19.710381 16998 net.cpp:91] Creating Layer lstm2_
I0925 22:04:19.710386 16998 net.cpp:425] lstm2_ <- c_1
I0925 22:04:19.710392 16998 net.cpp:399] lstm2_ -> c_T
I0925 22:04:19.710494 16998 net.cpp:141] Setting up lstm2_
I0925 22:04:19.710505 16998 net.cpp:148] Top shape: 1 1 1000 (1000)
I0925 22:04:19.710510 16998 net.cpp:156] Memory required for data: 94020
I0925 22:04:19.710515 16998 layer_factory.hpp:77] Creating layer lstm2_h_concat
I0925 22:04:19.710525 16998 net.cpp:91] Creating Layer lstm2_h_concat
I0925 22:04:19.710530 16998 net.cpp:425] lstm2_h_concat <- h_1
I0925 22:04:19.710552 16998 net.cpp:399] lstm2_h_concat -> h
I0925 22:04:19.710566 17006 net.cpp:141] Setting up lstm2_h_conted_0
I0925 22:04:19.710587 17006 net.cpp:148] Top shape: 1 1 1000 (1000)
I0925 22:04:19.710608 17006 net.cpp:156] Memory required for data: 50020
I0925 22:04:19.710613 16998 net.cpp:141] Setting up lstm2_h_concat
I0925 22:04:19.710619 17006 layer_factory.hpp:77] Creating layer lstm2_transform_1
I0925 22:04:19.710629 16998 net.cpp:148] Top shape: 1 1 1000 (1000)
I0925 22:04:19.710638 16998 net.cpp:156] Memory required for data: 98020
I0925 22:04:19.710644 16998 layer_factory.hpp:77] Creating layer h_pseudoloss
I0925 22:04:19.710649 17006 net.cpp:91] Creating Layer lstm2_transform_1
I0925 22:04:19.710657 16998 net.cpp:91] Creating Layer h_pseudoloss
I0925 22:04:19.710662 16998 net.cpp:425] h_pseudoloss <- h
I0925 22:04:19.710662 17006 net.cpp:425] lstm2_transform_1 <- h_conted_0
…
I0925 22:04:19.710963 16998 net.cpp:219] lstm2_ does not need backward computation.
I0925 22:04:19.710966 16998 net.cpp:261] This network produces output c_T
I0925 22:04:19.710971 16998 net.cpp:261] This network produces output h_pseudoloss
I0925 22:04:19.710988 16998 net.cpp:274] Network initialization done.
I0925 22:04:19.711045 16998 recurrent_layer.cpp:150] Adding parameter 0: W_xc
I0925 22:04:19.711051 16998 recurrent_layer.cpp:150] Adding parameter 1: b_c
I0925 22:04:19.711056 16998 recurrent_layer.cpp:150] Adding parameter 2: W_hc
I0925 22:04:19.720341 17000 net.cpp:141] Setting up lstm2_transform_1
I0925 22:04:19.720899 17000 net.cpp:148] Top shape: 1 1 4000 (4000)
I0925 22:04:19.720506 16998 net.cpp:141] Setting up lstm2
I0925 22:04:19.721050 17000 net.cpp:156] Memory required for data: 66020
I0925 22:04:19.721098 16998 net.cpp:148] Top shape: 1 1 1000 (1000)
I0925 22:04:19.721109 17000 layer_factory.hpp:77] Creating layer lstm2_gate_input_1
I0925 22:04:19.721112 16998 net.cpp:156] Memory required for data: 36412
I0925 22:04:19.721159 17000 net.cpp:91] Creating Layer lstm2_gate_input_1
I0925 22:04:19.721174 17000 net.cpp:425] lstm2_gate_input_1 <- W_hc_h_0
I0925 22:04:19.721171 16998 layer_factory.hpp:77] Creating layer predict
I0925 22:04:19.721195 17000 net.cpp:425] lstm2_gate_input_1 <- W_xc_x_1
I0925 22:04:19.721211 17000 net.cpp:399] lstm2_gate_input_1 -> gate_input_1
I0925 22:04:19.721222 16998 net.cpp:91] Creating Layer predict
I0925 22:04:19.721236 16998 net.cpp:425] predict <- lstm2
I0925 22:04:19.721251 16998 net.cpp:399] predict -> predict
I0925 22:04:19.721941 17000 net.cpp:141] Setting up lstm2_gate_input_1
I0925 22:04:19.721961 17000 net.cpp:148] Top shape: 1 1 4000 (4000)
I0925 22:04:19.721968 17000 net.cpp:156] Memory required for data: 82020
I0925 22:04:19.721976 17000 layer_factory.hpp:77] Creating layer lstm2_unit_1
I0925 22:04:19.721990 17000 net.cpp:91] Creating Layer lstm2_unit_1
I0925 22:04:19.721998 17000 net.cpp:425] lstm2_unit_1 <- c_0
I0925 22:04:19.722008 17000 net.cpp:425] lstm2_unit_1 <- gate_input_1
I0925 22:04:19.722018 17000 net.cpp:425] lstm2_unit_1 <- cont_1_lstm2_cont_slice_0_split_1
I0925 22:04:19.722029 17000 net.cpp:399] lstm2_unit_1 -> c_1
I0925 22:04:19.722045 17000 net.cpp:399] lstm2_unit_1 -> h_1
I0925 22:04:19.805593 17000 net.cpp:141] Setting up lstm2_unit_1
I0925 22:04:19.805654 17000 net.cpp:148] Top shape: 1 1 1000 (1000)
I0925 22:04:19.805667 17000 net.cpp:148] Top shape: 1 1 1000 (1000)
I0925 22:04:19.805675 17000 net.cpp:156] Memory required for data: 90020
I0925 22:04:19.805690 17000 layer_factory.hpp:77] Creating layer lstm2_
I0925 22:04:19.805765 17000 net.cpp:91] Creating Layer lstm2_
I0925 22:04:19.805780 17000 net.cpp:425] lstm2_ <- c_1
I0925 22:04:19.805797 17000 net.cpp:399] lstm2_ -> c_T
I0925 22:04:19.805920 17000 net.cpp:141] Setting up lstm2_
I0925 22:04:19.805938 17000 net.cpp:148] Top shape: 1 1 1000 (1000)
I0925 22:04:19.805948 17000 net.cpp:156] Memory required for data: 94020
I0925 22:04:19.805958 17000 layer_factory.hpp:77] Creating layer lstm2_h_concat
I0925 22:04:19.805974 17000 net.cpp:91] Creating Layer lstm2_h_concat
I0925 22:04:19.805984 17000 net.cpp:425] lstm2_h_concat <- h_1
I0925 22:04:19.806017 17000 net.cpp:399] lstm2_h_concat -> h
I0925 22:04:19.805915 17006 net.cpp:141] Setting up lstm2_transform_1
I0925 22:04:19.806068 17006 net.cpp:148] Top shape: 1 1 4000 (4000)
I0925 22:04:19.806078 17006 net.cpp:156] Memory required for data: 66020
I0925 22:04:19.806105 17006 layer_factory.hpp:77] Creating layer lstm2_gate_input_1
I0925 22:04:19.806136 17006 net.cpp:91] Creating Layer lstm2_gate_input_1
I0925 22:04:19.806149 17006 net.cpp:425] lstm2_gate_input_1 <- W_hc_h_0
I0925 22:04:19.806160 17006 net.cpp:425] lstm2_gate_input_1 <- W_xc_x_1
I0925 22:04:19.806174 17006 net.cpp:399] lstm2_gate_input_1 -> gate_input_1
I0925 22:04:19.806960 17024 net.cpp:141] Setting up predict
I0925 22:04:19.806985 17024 net.cpp:148] Top shape: 1 1 46168 (46168)
I0925 22:04:19.806993 17024 net.cpp:156] Memory required for data: 221084
I0925 22:04:19.807013 17024 layer_factory.hpp:77] Creating layer probs
I0925 22:04:19.807029 17024 net.cpp:91] Creating Layer probs
I0925 22:04:19.807039 17024 net.cpp:425] probs <- predict
I0925 22:04:19.807054 17024 net.cpp:399] probs -> probs
I0925 22:04:19.807168 17000 net.cpp:141] Setting up lstm2_h_concat
I0925 22:04:19.807184 17000 net.cpp:148] Top shape: 1 1 1000 (1000)
I0925 22:04:19.807191 17000 net.cpp:156] Memory required for data: 98020
I0925 22:04:19.807200 17000 layer_factory.hpp:77] Creating layer h_pseudoloss
I0925 22:04:19.807215 17000 net.cpp:91] Creating Layer h_pseudoloss
I0925 22:04:19.807225 17000 net.cpp:425] h_pseudoloss <- h
I0925 22:04:19.807238 17000 net.cpp:399] h_pseudoloss -> h_pseudoloss
I0925 22:04:19.807404 17000 net.cpp:141] Setting up h_pseudoloss
…
I0925 22:04:19.807567 17000 net.cpp:219] lstm2_ does not need backward computation.
I0925 22:04:19.807574 17000 net.cpp:261] This network produces output c_T
I0925 22:04:19.807581 17000 net.cpp:261] This network produces output h_pseudoloss
I0925 22:04:19.807605 17000 net.cpp:274] Network initialization done.
I0925 22:04:19.807783 17000 recurrent_layer.cpp:150] Adding parameter 0: W_xc
I0925 22:04:19.807814 17000 recurrent_layer.cpp:150] Adding parameter 1: b_c
I0925 22:04:19.807826 17000 recurrent_layer.cpp:150] Adding parameter 2: W_hc
I0925 22:04:19.808115 17000 net.cpp:141] Setting up lstm2
I0925 22:04:19.808137 17000 net.cpp:148] Top shape: 1 1 1000 (1000)
I0925 22:04:19.808146 17000 net.cpp:156] Memory required for data: 36412
I0925 22:04:19.808178 17000 layer_factory.hpp:77] Creating layer predict
I0925 22:04:19.808203 17000 net.cpp:91] Creating Layer predict
I0925 22:04:19.808218 17000 net.cpp:425] predict <- lstm2
I0925 22:04:19.808233 17000 net.cpp:399] predict -> predict
I0925 22:04:19.914361 17006 net.cpp:141] Setting up lstm2_gate_input_1
I0925 22:04:19.914418 17006 net.cpp:148] Top shape: 1 1 4000 (4000)
I0925 22:04:19.914425 17006 net.cpp:156] Memory required for data: 82020
I0925 22:04:19.914433 17006 layer_factory.hpp:77] Creating layer lstm2_unit_1
I0925 22:04:19.914451 17006 net.cpp:91] Creating Layer lstm2_unit_1
I0925 22:04:19.914458 17006 net.cpp:425] lstm2_unit_1 <- c_0
I0925 22:04:19.914470 17006 net.cpp:425] lstm2_unit_1 <- gate_input_1
I0925 22:04:19.914475 17006 net.cpp:425] lstm2_unit_1 <- cont_1_lstm2_cont_slice_0_split_1
I0925 22:04:19.914486 17006 net.cpp:399] lstm2_unit_1 -> c_1
I0925 22:04:19.914501 17006 net.cpp:399] lstm2_unit_1 -> h_1
I0925 22:04:19.914849 17006 net.cpp:141] Setting up lstm2_unit_1
I0925 22:04:19.914865 17006 net.cpp:148] Top shape: 1 1 1000 (1000)
I0925 22:04:19.914876 17006 net.cpp:148] Top shape: 1 1 1000 (1000)
I0925 22:04:19.914885 17006 net.cpp:156] Memory required for data: 90020
I0925 22:04:19.914891 17006 layer_factory.hpp:77] Creating layer lstm2_
I0925 22:04:19.914901 17006 net.cpp:91] Creating Layer lstm2_
I0925 22:04:19.914904 17006 net.cpp:425] lstm2_ <- c_1
I0925 22:04:19.914912 17006 net.cpp:399] lstm2_ -> c_T
I0925 22:04:19.923890 17030 net.cpp:141] Setting up predict
I0925 22:04:19.923933 17006 net.cpp:141] Setting up lstm2_
I0925 22:04:19.923950 17030 net.cpp:148] Top shape: 1 1 46168 (46168)
I0925 22:04:19.923954 17006 net.cpp:148] Top shape: 1 1 1000 (1000)
I0925 22:04:19.923961 17030 net.cpp:156] Memory required for data: 221084
I0925 22:04:19.923964 17006 net.cpp:156] Memory required for data: 94020
I0925 22:04:19.923986 17006 layer_factory.hpp:77] Creating layer lstm2_h_concat
I0925 22:04:19.923991 17030 layer_factory.hpp:77] Creating layer probs
I0925 22:04:19.924011 17030 net.cpp:91] Creating Layer probs
I0925 22:04:19.924015 17006 net.cpp:91] Creating Layer lstm2_h_concat
I0925 22:04:19.924023 17030 net.cpp:425] probs <- predict
I0925 22:04:19.924026 17006 net.cpp:425] lstm2_h_concat <- h_1
I0925 22:04:19.924038 17030 net.cpp:399] probs -> probs
I0925 22:04:19.924038 17006 net.cpp:399] lstm2_h_concat -> h
I0925 22:04:19.924319 17006 net.cpp:141] Setting up lstm2_h_concat
I0925 22:04:19.924335 17006 net.cpp:148] Top shape: 1 1 1000 (1000)
I0925 22:04:19.924341 17006 net.cpp:156] Memory required for data: 98020
I0925 22:04:19.924350 17006 layer_factory.hpp:77] Creating layer h_pseudoloss
I0925 22:04:19.924368 17006 net.cpp:91] Creating Layer h_pseudoloss
I0925 22:04:19.924376 17006 net.cpp:425] h_pseudoloss <- h
I0925 22:04:19.924387 17006 net.cpp:399] h_pseudoloss -> h_pseudoloss
I0925 22:04:19.929563 17006 net.cpp:141] Setting up h_pseudoloss
…
I0925 22:04:19.929765 17006 net.cpp:219] lstm2_ does not need backward computation.
I0925 22:04:19.929771 17006 net.cpp:261] This network produces output c_T
I0925 22:04:19.929780 17006 net.cpp:261] This network produces output h_pseudoloss
I0925 22:04:19.929810 17006 net.cpp:274] Network initialization done.
I0925 22:04:19.929890 17006 recurrent_layer.cpp:150] Adding parameter 0: W_xc
I0925 22:04:19.929903 17006 recurrent_layer.cpp:150] Adding parameter 1: b_c
I0925 22:04:19.929910 17006 recurrent_layer.cpp:150] Adding parameter 2: W_hc
I0925 22:04:19.932883 17006 net.cpp:141] Setting up lstm2
I0925 22:04:19.932916 17006 net.cpp:148] Top shape: 1 1 1000 (1000)
I0925 22:04:19.932925 17006 net.cpp:156] Memory required for data: 36412
I0925 22:04:19.932951 17006 layer_factory.hpp:77] Creating layer predict
I0925 22:04:19.932977 17006 net.cpp:91] Creating Layer predict
I0925 22:04:19.932988 17006 net.cpp:425] predict <- lstm2
I0925 22:04:19.933002 17006 net.cpp:399] predict -> predict
I0925 22:04:20.029989 16996 net.cpp:141] Setting up predict
I0925 22:04:20.030048 16996 net.cpp:148] Top shape: 1 1 46168 (46168)
I0925 22:04:20.030058 16996 net.cpp:156] Memory required for data: 221084
I0925 22:04:20.030082 16996 layer_factory.hpp:77] Creating layer probs
I0925 22:04:20.030109 16996 net.cpp:91] Creating Layer probs
I0925 22:04:20.030120 16996 net.cpp:425] probs <- predict
I0925 22:04:20.030136 16996 net.cpp:399] probs -> probs
I0925 22:04:20.050730 16996 net.cpp:141] Setting up probs
I0925 22:04:20.050787 16996 net.cpp:148] Top shape: 1 1 46168 (46168)
I0925 22:04:20.050796 16996 net.cpp:156] Memory required for data: 405756
I0925 22:04:20.050806 16996 net.cpp:219] probs does not need backward computation.
I0925 22:04:20.050815 16996 net.cpp:219] predict does not need backward computation.
I0925 22:04:20.050825 16996 net.cpp:219] lstm2 does not need backward computation.
I0925 22:04:20.050832 16996 net.cpp:219] concat does not need backward computation.
I0925 22:04:20.050838 16996 net.cpp:219] lstm1 does not need backward computation.
I0925 22:04:20.050844 16996 net.cpp:219] embedding does not need backward computation.
I0925 22:04:20.050853 16996 net.cpp:219] reshape_stage_indicator does not need backward computation.
I0925 22:04:20.050861 16996 net.cpp:219] reshape_frames does not need backward computation.
I0925 22:04:20.050869 16996 net.cpp:219] embed_encoder does not need backward computation.
I0925 22:04:20.050879 16996 net.cpp:219] cont_sentence_input_1_split does not need backward computation.
I0925 22:04:20.050886 16996 net.cpp:219] input does not need backward computation.
I0925 22:04:20.050891 16996 net.cpp:261] This network produces output probs
I0925 22:04:20.050920 16996 net.cpp:274] Network initialization done.
I0925 22:04:20.052281 17024 net.cpp:141] Setting up probs
I0925 22:04:20.052336 17024 net.cpp:148] Top shape: 1 1 46168 (46168)
I0925 22:04:20.052345 17024 net.cpp:156] Memory required for data: 405756
I0925 22:04:20.052356 17024 net.cpp:219] probs does not need backward computation.
I0925 22:04:20.052367 17024 net.cpp:219] predict does not need backward computation.
I0925 22:04:20.052376 17024 net.cpp:219] lstm2 does not need backward computation.
I0925 22:04:20.052386 17024 net.cpp:219] concat does not need backward computation.
I0925 22:04:20.052397 17024 net.cpp:219] lstm1 does not need backward computation.
I0925 22:04:20.052397 17030 net.cpp:141] Setting up probs
I0925 22:04:20.052407 17024 net.cpp:219] embedding does not need backward computation.
I0925 22:04:20.052417 17024 net.cpp:219] reshape_stage_indicator does not need backward computation.
I0925 22:04:20.052420 17030 net.cpp:148] Top shape: 1 1 46168 (46168)
I0925 22:04:20.052428 17024 net.cpp:219] reshape_frames does not need backward computation.
I0925 22:04:20.052429 17030 net.cpp:156] Memory required for data: 405756
I0925 22:04:20.052436 17024 net.cpp:219] embed_encoder does not need backward computation.
I0925 22:04:20.052439 17030 net.cpp:219] probs does not need backward computation.
I0925 22:04:20.052446 17024 net.cpp:219] cont_sentence_input_1_split does not need backward computation.
…
I0925 22:04:20.052518 17030 net.cpp:219] reshape_frames does not need backward computation.
I0925 22:04:20.052527 17030 net.cpp:219] embed_encoder does not need backward computation.
I0925 22:04:20.052536 17030 net.cpp:219] cont_sentence_input_1_split does not need backward computation.
I0925 22:04:20.052543 17030 net.cpp:219] input does not need backward computation.
I0925 22:04:20.052551 17030 net.cpp:261] This network produces output probs
I0925 22:04:20.052572 17030 net.cpp:274] Network initialization done.
I0925 22:04:20.053711 17022 net.cpp:141] Setting up conv1
I0925 22:04:20.053748 17022 net.cpp:148] Top shape: 10 96 55 55 (2904000)
I0925 22:04:20.053758 17022 net.cpp:156] Memory required for data: 17799480
I0925 22:04:20.053791 17022 layer_factory.hpp:77] Creating layer relu1
I0925 22:04:20.053817 17022 net.cpp:91] Creating Layer relu1
I0925 22:04:20.053828 17022 net.cpp:425] relu1 <- conv1
I0925 22:04:20.053843 17022 net.cpp:386] relu1 -> conv1 (in-place)
I0925 22:04:20.054437 17022 net.cpp:141] Setting up relu1
I0925 22:04:20.054456 17022 net.cpp:148] Top shape: 10 96 55 55 (2904000)
I0925 22:04:20.054466 17022 net.cpp:156] Memory required for data: 29415480
I0925 22:04:20.054474 17022 layer_factory.hpp:77] Creating layer pool1
I0925 22:04:20.054494 17022 net.cpp:91] Creating Layer pool1
I0925 22:04:20.054503 17022 net.cpp:425] pool1 <- conv1
I0925 22:04:20.054517 17022 net.cpp:399] pool1 -> pool1
I0925 22:04:20.054658 17022 net.cpp:141] Setting up pool1
I0925 22:04:20.054678 17022 net.cpp:148] Top shape: 10 96 27 27 (699840)
I0925 22:04:20.054685 17022 net.cpp:156] Memory required for data: 32214840
I0925 22:04:20.054694 17022 layer_factory.hpp:77] Creating layer norm1
I0925 22:04:20.054728 17022 net.cpp:91] Creating Layer norm1
I0925 22:04:20.054738 17022 net.cpp:425] norm1 <- pool1
I0925 22:04:20.054752 17022 net.cpp:399] norm1 -> norm1
I0925 22:04:20.055193 17022 net.cpp:141] Setting up norm1
I0925 22:04:20.055212 17022 net.cpp:148] Top shape: 10 96 27 27 (699840)
I0925 22:04:20.055219 17022 net.cpp:156] Memory required for data: 35014200
I0925 22:04:20.055228 17022 layer_factory.hpp:77] Creating layer conv2
I0925 22:04:20.055253 17022 net.cpp:91] Creating Layer conv2
I0925 22:04:20.055263 17022 net.cpp:425] conv2 <- norm1
I0925 22:04:20.055276 17022 net.cpp:399] conv2 -> conv2
I0925 22:04:20.061333 17022 net.cpp:141] Setting up conv2
I0925 22:04:20.061403 17022 net.cpp:148] Top shape: 10 256 27 27 (1866240)
I0925 22:04:20.061416 17022 net.cpp:156] Memory required for data: 42479160
I0925 22:04:20.061452 17022 layer_factory.hpp:77] Creating layer relu2
I0925 22:04:20.061482 17022 net.cpp:91] Creating Layer relu2
I0925 22:04:20.061496 17022 net.cpp:425] relu2 <- conv2
I0925 22:04:20.061516 17022 net.cpp:386] relu2 -> conv2 (in-place)
I0925 22:04:20.061977 17022 net.cpp:141] Setting up relu2
I0925 22:04:20.061997 17022 net.cpp:148] Top shape: 10 256 27 27 (1866240)
I0925 22:04:20.062007 17022 net.cpp:156] Memory required for data: 49944120
I0925 22:04:20.062017 17022 layer_factory.hpp:77] Creating layer pool2
I0925 22:04:20.062036 17022 net.cpp:91] Creating Layer pool2
I0925 22:04:20.062047 17022 net.cpp:425] pool2 <- conv2
I0925 22:04:20.062062 17022 net.cpp:399] pool2 -> pool2
I0925 22:04:20.062183 17022 net.cpp:141] Setting up pool2
I0925 22:04:20.062202 17022 net.cpp:148] Top shape: 10 256 13 13 (432640)
I0925 22:04:20.062211 17022 net.cpp:156] Memory required for data: 51674680
I0925 22:04:20.062222 17022 layer_factory.hpp:77] Creating layer norm2
I0925 22:04:20.062247 17022 net.cpp:91] Creating Layer norm2
I0925 22:04:20.062258 17022 net.cpp:425] norm2 <- pool2
I0925 22:04:20.062273 17022 net.cpp:399] norm2 -> norm2
I0925 22:04:20.063200 17022 net.cpp:141] Setting up norm2
I0925 22:04:20.063235 17022 net.cpp:148] Top shape: 10 256 13 13 (432640)
I0925 22:04:20.063246 17022 net.cpp:156] Memory required for data: 53405240
I0925 22:04:20.063263 17022 layer_factory.hpp:77] Creating layer conv3
I0925 22:04:20.063304 17022 net.cpp:91] Creating Layer conv3
I0925 22:04:20.063318 17022 net.cpp:425] conv3 <- norm2
I0925 22:04:20.063334 17022 net.cpp:399] conv3 -> conv3
I0925 22:04:20.076470 17022 net.cpp:141] Setting up conv3
I0925 22:04:20.076526 17022 net.cpp:148] Top shape: 10 384 13 13 (648960)
I0925 22:04:20.076536 17022 net.cpp:156] Memory required for data: 56001080
I0925 22:04:20.076566 17022 layer_factory.hpp:77] Creating layer relu3
I0925 22:04:20.076594 17022 net.cpp:91] Creating Layer relu3
I0925 22:04:20.076606 17022 net.cpp:425] relu3 <- conv3
I0925 22:04:20.076618 17022 net.cpp:386] relu3 -> conv3 (in-place)
I0925 22:04:20.077694 17022 net.cpp:141] Setting up relu3
I0925 22:04:20.077725 17022 net.cpp:148] Top shape: 10 384 13 13 (648960)
I0925 22:04:20.077734 17022 net.cpp:156] Memory required for data: 58596920
I0925 22:04:20.077744 17022 layer_factory.hpp:77] Creating layer conv4
I0925 22:04:20.078183 17022 net.cpp:91] Creating Layer conv4
I0925 22:04:20.078200 17022 net.cpp:425] conv4 <- conv3
I0925 22:04:20.078220 17022 net.cpp:399] conv4 -> conv4
I0925 22:04:20.119067 17022 net.cpp:141] Setting up conv4
I0925 22:04:20.119132 17022 net.cpp:148] Top shape: 10 384 13 13 (648960)
I0925 22:04:20.119144 17022 net.cpp:156] Memory required for data: 61192760
I0925 22:04:20.119169 17022 layer_factory.hpp:77] Creating layer relu4
I0925 22:04:20.119621 17022 net.cpp:91] Creating Layer relu4
I0925 22:04:20.119642 17022 net.cpp:425] relu4 <- conv4
I0925 22:04:20.119659 17022 net.cpp:386] relu4 -> conv4 (in-place)
I0925 22:04:20.121212 17022 net.cpp:141] Setting up relu4
I0925 22:04:20.121263 17022 net.cpp:148] Top shape: 10 384 13 13 (648960)
I0925 22:04:20.121274 17022 net.cpp:156] Memory required for data: 63788600
I0925 22:04:20.121287 17022 layer_factory.hpp:77] Creating layer conv5
I0925 22:04:20.121798 17022 net.cpp:91] Creating Layer conv5
I0925 22:04:20.121832 17022 net.cpp:425] conv5 <- conv4
I0925 22:04:20.121862 17022 net.cpp:399] conv5 -> conv5
I0925 22:04:20.136606 17022 net.cpp:141] Setting up conv5
I0925 22:04:20.136715 17022 net.cpp:148] Top shape: 10 256 13 13 (432640)
I0925 22:04:20.136735 17022 net.cpp:156] Memory required for data: 65519160
I0925 22:04:20.136790 17022 layer_factory.hpp:77] Creating layer relu5
I0925 22:04:20.136849 17022 net.cpp:91] Creating Layer relu5
I0925 22:04:20.136873 17022 net.cpp:425] relu5 <- conv5
I0925 22:04:20.136899 17022 net.cpp:386] relu5 -> conv5 (in-place)
I0925 22:04:20.137542 17022 net.cpp:141] Setting up relu5
I0925 22:04:20.137605 17022 net.cpp:148] Top shape: 10 256 13 13 (432640)
I0925 22:04:20.137619 17022 net.cpp:156] Memory required for data: 67249720
I0925 22:04:20.137631 17022 layer_factory.hpp:77] Creating layer pool5
I0925 22:04:20.137653 17022 net.cpp:91] Creating Layer pool5
I0925 22:04:20.137665 17022 net.cpp:425] pool5 <- conv5
I0925 22:04:20.137686 17022 net.cpp:399] pool5 -> pool5
I0925 22:04:20.137872 17022 net.cpp:141] Setting up pool5
I0925 22:04:20.137892 17022 net.cpp:148] Top shape: 10 256 6 6 (92160)
I0925 22:04:20.137900 17022 net.cpp:156] Memory required for data: 67618360
I0925 22:04:20.137910 17022 layer_factory.hpp:77] Creating layer fc6
I0925 22:04:20.137944 17022 net.cpp:91] Creating Layer fc6
I0925 22:04:20.137955 17022 net.cpp:425] fc6 <- pool5
I0925 22:04:20.137974 17022 net.cpp:399] fc6 -> fc6
I0925 22:04:20.227973 16998 net.cpp:141] Setting up predict
I0925 22:04:20.228034 16998 net.cpp:148] Top shape: 1 1 46168 (46168)
I0925 22:04:20.228040 16998 net.cpp:156] Memory required for data: 221084
I0925 22:04:20.228057 16998 layer_factory.hpp:77] Creating layer probs
I0925 22:04:20.228077 16998 net.cpp:91] Creating Layer probs
I0925 22:04:20.228085 16998 net.cpp:425] probs <- predict
I0925 22:04:20.228098 16998 net.cpp:399] probs -> probs
I0925 22:04:20.229064 16998 net.cpp:141] Setting up probs
I0925 22:04:20.229491 16998 net.cpp:148] Top shape: 1 1 46168 (46168)
I0925 22:04:20.229521 16998 net.cpp:156] Memory required for data: 405756
I0925 22:04:20.229542 16998 net.cpp:219] probs does not need backward computation.
I0925 22:04:20.229562 16998 net.cpp:219] predict does not need backward computation.
I0925 22:04:20.229578 16998 net.cpp:219] lstm2 does not need backward computation.
I0925 22:04:20.229595 16998 net.cpp:219] concat does not need backward computation.
I0925 22:04:20.229611 16998 net.cpp:219] lstm1 does not need backward computation.
I0925 22:04:20.229629 16998 net.cpp:219] embedding does not need backward computation.
I0925 22:04:20.229645 16998 net.cpp:219] reshape_stage_indicator does not need backward computation.
I0925 22:04:20.229660 16998 net.cpp:219] reshape_frames does not need backward computation.
I0925 22:04:20.229676 16998 net.cpp:219] embed_encoder does not need backward computation.
I0925 22:04:20.229691 16998 net.cpp:219] cont_sentence_input_1_split does not need backward computation.
I0925 22:04:20.229707 16998 net.cpp:219] input does not need backward computation.
I0925 22:04:20.229719 16998 net.cpp:261] This network produces output probs
I0925 22:04:20.230665 16998 net.cpp:274] Network initialization done.
I0925 22:04:20.283826 17022 net.cpp:141] Setting up fc6
I0925 22:04:20.283888 17022 net.cpp:148] Top shape: 10 4096 (40960)
I0925 22:04:20.283895 17022 net.cpp:156] Memory required for data: 67782200
I0925 22:04:20.283911 17022 layer_factory.hpp:77] Creating layer relu6
I0925 22:04:20.283931 17022 net.cpp:91] Creating Layer relu6
I0925 22:04:20.283938 17022 net.cpp:425] relu6 <- fc6
I0925 22:04:20.283972 17022 net.cpp:386] relu6 -> fc6 (in-place)
I0925 22:04:20.284826 17022 net.cpp:141] Setting up relu6
I0925 22:04:20.284862 17022 net.cpp:148] Top shape: 10 4096 (40960)
I0925 22:04:20.284869 17022 net.cpp:156] Memory required for data: 67946040
I0925 22:04:20.284883 17022 layer_factory.hpp:77] Creating layer drop6
I0925 22:04:20.284917 17022 net.cpp:91] Creating Layer drop6
I0925 22:04:20.284925 17022 net.cpp:425] drop6 <- fc6
I0925 22:04:20.284935 17022 net.cpp:386] drop6 -> fc6 (in-place)
I0925 22:04:20.285043 17022 net.cpp:141] Setting up drop6
I0925 22:04:20.285053 17022 net.cpp:148] Top shape: 10 4096 (40960)
I0925 22:04:20.285058 17022 net.cpp:156] Memory required for data: 68109880
I0925 22:04:20.285063 17022 layer_factory.hpp:77] Creating layer fc7
I0925 22:04:20.285073 17022 net.cpp:91] Creating Layer fc7
I0925 22:04:20.285079 17022 net.cpp:425] fc7 <- fc6
I0925 22:04:20.285089 17022 net.cpp:399] fc7 -> fc7
I0925 22:04:20.326705 17000 net.cpp:141] Setting up predict
I0925 22:04:20.326756 17000 net.cpp:148] Top shape: 1 1 46168 (46168)
I0925 22:04:20.326763 17000 net.cpp:156] Memory required for data: 221084
I0925 22:04:20.326779 17000 layer_factory.hpp:77] Creating layer probs
I0925 22:04:20.326799 17000 net.cpp:91] Creating Layer probs
I0925 22:04:20.326808 17000 net.cpp:425] probs <- predict
I0925 22:04:20.326819 17000 net.cpp:399] probs -> probs
I0925 22:04:20.329612 17000 net.cpp:141] Setting up probs
I0925 22:04:20.329702 17000 net.cpp:148] Top shape: 1 1 46168 (46168)
I0925 22:04:20.329716 17000 net.cpp:156] Memory required for data: 405756
I0925 22:04:20.329737 17000 net.cpp:219] probs does not need backward computation.
I0925 22:04:20.329756 17000 net.cpp:219] predict does not need backward computation.
I0925 22:04:20.329769 17000 net.cpp:219] lstm2 does not need backward computation.
I0925 22:04:20.329783 17000 net.cpp:219] concat does not need backward computation.
I0925 22:04:20.329798 17000 net.cpp:219] lstm1 does not need backward computation.
I0925 22:04:20.329814 17000 net.cpp:219] embedding does not need backward computation.
I0925 22:04:20.329830 17000 net.cpp:219] reshape_stage_indicator does not need backward computation.
I0925 22:04:20.329843 17000 net.cpp:219] reshape_frames does not need backward computation.
I0925 22:04:20.329859 17000 net.cpp:219] embed_encoder does not need backward computation.
I0925 22:04:20.329874 17000 net.cpp:219] cont_sentence_input_1_split does not need backward computation.
I0925 22:04:20.329886 17000 net.cpp:219] input does not need backward computation.
I0925 22:04:20.329897 17000 net.cpp:261] This network produces output probs
I0925 22:04:20.329933 17000 net.cpp:274] Network initialization done.
I0925 22:04:20.336457 17022 net.cpp:141] Setting up fc7
I0925 22:04:20.336508 17022 net.cpp:148] Top shape: 10 4096 (40960)
I0925 22:04:20.336514 17022 net.cpp:156] Memory required for data: 68273720
I0925 22:04:20.336531 17022 layer_factory.hpp:77] Creating layer relu7
I0925 22:04:20.336549 17022 net.cpp:91] Creating Layer relu7
I0925 22:04:20.336556 17022 net.cpp:425] relu7 <- fc7
I0925 22:04:20.336983 17022 net.cpp:386] relu7 -> fc7 (in-place)
I0925 22:04:20.337517 17022 net.cpp:141] Setting up relu7
I0925 22:04:20.337535 17022 net.cpp:148] Top shape: 10 4096 (40960)
I0925 22:04:20.337540 17022 net.cpp:156] Memory required for data: 68437560
I0925 22:04:20.337546 17022 layer_factory.hpp:77] Creating layer drop7
I0925 22:04:20.337563 17022 net.cpp:91] Creating Layer drop7
I0925 22:04:20.337568 17022 net.cpp:425] drop7 <- fc7
I0925 22:04:20.337575 17022 net.cpp:386] drop7 -> fc7 (in-place)
I0925 22:04:20.338063 17022 net.cpp:141] Setting up drop7
I0925 22:04:20.338075 17022 net.cpp:148] Top shape: 10 4096 (40960)
I0925 22:04:20.338080 17022 net.cpp:156] Memory required for data: 68601400
I0925 22:04:20.338085 17022 layer_factory.hpp:77] Creating layer fc8
I0925 22:04:20.338104 17022 net.cpp:91] Creating Layer fc8
I0925 22:04:20.338109 17022 net.cpp:425] fc8 <- fc7
I0925 22:04:20.338119 17022 net.cpp:399] fc8 -> fc8
I0925 22:04:20.351928 17022 net.cpp:141] Setting up fc8
I0925 22:04:20.351982 17022 net.cpp:148] Top shape: 10 1000 (10000)
I0925 22:04:20.351989 17022 net.cpp:156] Memory required for data: 68641400
I0925 22:04:20.352004 17022 layer_factory.hpp:77] Creating layer prob
I0925 22:04:20.352022 17022 net.cpp:91] Creating Layer prob
I0925 22:04:20.352030 17022 net.cpp:425] prob <- fc8
I0925 22:04:20.352476 17022 net.cpp:399] prob -> prob
I0925 22:04:20.355242 17022 net.cpp:141] Setting up prob
I0925 22:04:20.355296 17022 net.cpp:148] Top shape: 10 1000 (10000)
I0925 22:04:20.355303 17022 net.cpp:156] Memory required for data: 68681400
I0925 22:04:20.355314 17022 net.cpp:219] prob does not need backward computation.
I0925 22:04:20.355322 17022 net.cpp:219] fc8 does not need backward computation.
I0925 22:04:20.355327 17022 net.cpp:219] drop7 does not need backward computation.
I0925 22:04:20.355332 17022 net.cpp:219] relu7 does not need backward computation.
…
