…
Java HotSpot(TM) 64-Bit Server VM warning: You have loaded library /home/peifeng/work/run/storm102/data/workers/bc9c7292-6d46-491c-b45c-1c56df853a9e/tmp/cvld2496163837644395835/libopencv_java310.xine1.so which might have disabled stack guard. The VM will try to fix the stack guard now.
It's highly recommended that you fix the library with 'execstack -c <libfile>', or link it with '-z noexecstack'.
WARNING: Logging before InitGoogleLogging() is written to STDERR
I0903 16:38:31.256161 27408 net.cpp:49] Initializing net from parameters: 
name: "GoogleNet"
state {
  phase: TEST
}
layer {
  name: "data"
  type: "Input"
  top: "data"
  input_param {
    shape {
      dim: 10
      dim: 3
      dim: 224
      dim: 224
    }
  }
}
layer {
  name: "conv1/7x7_s2"
  type: "Convolution"
  bottom: "data"
  top: "conv1/7x7_s2"
  param {
    lr_mult: 1
    decay_mult: 1
  }
  param {
    lr_mult: 2
    decay_mult: 0
  }
  convolution_param {
    num_output: 64
    pad: 3
    kernel_size: 7
    stride: 2
    weight_filler {
      type: "xavier"
      std: 0.1
    }
    bias_filler {
      type: "constant"
      value: 0.2
    }
  }
}
layer {
  name: "conv1/relu_7x7"
  type: "ReLU"
  bottom: "conv1/7x7_s2"
  top: "conv1/7x7_s2"
}
layer {
  name: "pool1/3x3_s2"
  type: "Pooling"
  bottom: "conv1/7x7_s2"
  top: "pool1/3x3_s2"
  pooling_param {
    pool: MAX
    kernel_size: 3
    stride: 2
  }
}
layer {
  name: "pool1/norm1"
  type: "LRN"
  bottom: "pool1/3x3_s2"
  top: "pool1/norm1"
  lrn_param {
    local_size: 5
    alpha: 0.0001
    beta: 0.75
  }
}
layer {
  name: "conv2/3x3_reduce"
  type: "Convolution"
  bottom: "pool1/norm1"
  top: "conv2/3x3_reduce"
  param {
    lr_mult: 1
    decay_mult: 1
  }
  param {
    lr_mult: 2
    decay_mult: 0
  }
  convolution_param {
    num_output: 64
    kernel_size: 1
    weight_filler {
      type: "xavier"
      std: 0.1
    }
    bias_filler {
      type: "constant"
      value: 0.2
    }
  }
}
layer {
  name: "conv2/relu_3x3_reduce"
  type: "ReLU"
  bottom: "conv2/3x3_reduce"
  top: "conv2/3x3_reduce"
}
layer {
  name: "conv2/3x3"
  type: "Convolution"
  bottom: "conv2/3x3_reduce"
  top: "conv2/3x3"
  param {
    lr_mult: 1
    decay_mult: 1
  }
  param {
    lr_mult: 2
    decay_mult: 0
  }
  convolution_param {
    num_output: 192
    pad: 1
    kernel_size: 3
    weight_filler {
      type: "xavier"
      std: 0.03
    }
    bias_filler {
      type: "constant"
      value: 0.2
    }
  }
}
layer {
  name: "conv2/relu_3x3"
  type: "ReLU"
  bottom: "conv2/3x3"
  top: "conv2/3x3"
}
layer {
  name: "conv2/norm2"
  type: "LRN"
  bottom: "conv2/3x3"
  top: "conv2/norm2"
  lrn_param {
    local_size: 5
    alpha: 0.0001
    beta: 0.75
  }
}
layer {
  name: "pool2/3x3_s2"
  type: "Pooling"
  bottom: "conv2/norm2"
  top: "pool2/3x3_s2"
  pooling_param {
    pool: MAX
    kernel_size: 3
    stride: 2
  }
}
layer {
  name: "inception_3a/1x1"
  type: "Convolution"
  bottom: "pool2/3x3_s2"
  top: "inception_3a/1x1"
  param {
    lr_mult: 1
    decay_mult: 1
  }
  param {
    lr_mult: 2
    decay_mult: 0
  }
  convolution_param {
    num_output: 64
    kernel_size: 1
    weight_filler {
      type: "xavier"
      std: 0.03
    }
    bias_filler {
      type: "constant"
      value: 0.2
    }
  }
}
layer {
  name: "inception_3a/relu_1x1"
  type: "ReLU"
  bottom: "inception_3a/1x1"
  top: "inception_3a/1x1"
}
layer {
  name: "inception_3a/3x3_reduce"
  type: "Convolution"
  bottom: "pool2/3x3_s2"
  top: "inception_3a/3x3_reduce"
  param {
    lr_mult: 1
    decay_mult: 1
  }
  param {
    lr_mult: 2
    decay_mult: 0
  }
  convolution_param {
    num_output: 96
    kernel_size: 1
    weight_filler {
      type: "xavier"
      std: 0.09
    }
    bias_filler {
      type: "constant"
      value: 0.2
    }
  }
}
layer {
  name: "inception_3a/relu_3x3_reduce"
  type: "ReLU"
  bottom: "inception_3a/3x3_reduce"
  top: "inception_3a/3x3_reduce"
}
layer {
  name: "inception_3a/3x3"
  type: "Convolution"
  bottom: "inception_3a/3x3_reduce"
  top: "inception_3a/3x3"
  param {
    lr_mult: 1
    decay_mult: 1
  }
  param {
    lr_mult: 2
    decay_mult: 0
  }
  convolution_param {
    num_output: 128
    pad: 1
    kernel_size: 3
    weight_filler {
      type: "xavier"
      std: 0.03
    }
    bias_filler {
      type: "constant"
      value: 0.2
    }
  }
}
layer {
  name: "inception_3a/relu_3x3"
  type: "ReLU"
  bottom: "inception_3a/3x3"
  top: "inception_3a/3x3"
}
layer {
  name: "inception_3a/5x5_reduce"
  type: "Convolution"
  bottom: "pool2/3x3_s2"
  top: "inception_3a/5x5_reduce"
  param {
    lr_mult: 1
    decay_mult: 1
  }
  param {
    lr_mult: 2
    decay_mult: 0
  }
  convolution_param {
    num_output: 16
    kernel_size: 1
    weight_filler {
      type: "xavier"
      std: 0.2
    }
    bias_filler {
      type: "constant"
      value: 0.2
    }
  }
}
layer {
  name: "inception_3a/relu_5x5_reduce"
  type: "ReLU"
  bottom: "inception_3a/5x5_reduce"
  top: "inception_3a/5x5_reduce"
}
layer {
  name: "inception_3a/5x5"
  type: "Convolution"
  bottom: "inception_3a/5x5_reduce"
  top: "inception_3a/5x5"
  param {
    lr_mult: 1
    decay_mult: 1
  }
  param {
    lr_mult: 2
    decay_mult: 0
  }
  convolution_param {
    num_output: 32
    pad: 2
    kernel_size: 5
    weight_filler {
      type: "xavier"
      std: 0.03
    }
    bias_filler {
      type: "constant"
      value: 0.2
    }
  }
}
layer {
  name: "inception_3a/relu_5x5"
  type: "ReLU"
  bottom: "inception_3a/5x5"
  top: "inception_3a/5x5"
}
layer {
  name: "inception_3a/pool"
  type: "Pooling"
  bottom: "pool2/3x3_s2"
  top: "inception_3a/pool"
  pooling_param {
    pool: MAX
    kernel_size: 3
    stride: 1
    pad: 1
  }
}
layer {
  name: "inception_3a/pool_proj"
  type: "Convolution"
  bottom: "inception_3a/pool"
  top: "inception_3a/pool_proj"
  param {
    lr_mult: 1
    decay_mult: 1
  }
  param {
    lr_mult: 2
    decay_mult: 0
  }
  convolution_param {
    num_output: 32
    kernel_size: 1
    weight_filler {
      type: "xavier"
      std: 0.1
    }
    bias_filler {
      type: "constant"
      value: 0.2
    }
  }
}
layer {
  name: "inception_3a/relu_pool_proj"
  type: "ReLU"
  bottom: "inception_3a/pool_proj"
  top: "inception_3a/pool_proj"
}
layer {
  name: "inception_3a/output"
  type: "Concat"
  bottom: "inception_3a/1x1"
  bottom: "inception_3a/3x3"
  bottom: "inception_3a/5x5"
  bottom: "inception_3a/pool_proj"
  top: "inception_3a/output"
}
layer {
  name: "inception_3b/1x1"
  type: "Convolution"
  bottom: "inception_3a/output"
  top: "inception_3b/1x1"
  param {
    lr_mult: 1
    decay_mult: 1
  }
  param {
    lr_mult: 2
    decay_mult: 0
  }
  convolution_param {
    num_output: 128
    kernel_size: 1
    weight_filler {
      type: "xavier"
      std: 0.03
    }
    bias_filler {
      type: "constant"
      value: 0.2
    }
  }
}
layer {
  name: "inception_3b/relu_1x1"
  type: "ReLU"
  bottom: "inception_3b/1x1"
  top: "inception_3b/1x1"
}
layer {
  name: "inception_3b/3x3_reduce"
  type: "Convolution"
  bottom: "inception_3a/output"
  top: "inception_3b/3x3_reduce"
  param {
    lr_mult: 1
    decay_mult: 1
  }
  param {
    lr_mult: 2
    decay_mult: 0
  }
  convolution_param {
    num_output: 128
    kernel_size: 1
    weight_filler {
      type: "xavier"
      std: 0.09
    }
    bias_filler {
      type: "constant"
      value: 0.2
    }
  }
}
layer {
  name: "inception_3b/relu_3x3_reduce"
  type: "ReLU"
  bottom: "inception_3b/3x3_reduce"
  top: "inception_3b/3x3_reduce"
}
layer {
  name: "inception_3b/3x3"
  type: "Convolution"
  bottom: "inception_3b/3x3_reduce"
  top: "inception_3b/3x3"
  param {
    lr_mult: 1
    decay_mult: 1
  }
  param {
    lr_mult: 2
    decay_mult: 0
  }
  convolution_param {
    num_output: 192
    pad: 1
    kernel_size: 3
    weight_filler {
      type: "xavier"
      std: 0.03
    }
    bias_filler {
      type: "constant"
      value: 0.2
    }
  }
}
layer {
  name: "inception_3b/relu_3x3"
  type: "ReLU"
  bottom: "inception_3b/3x3"
  top: "inception_3b/3x3"
}
layer {
  name: "inception_3b/5x5_reduce"
  type: "Convolution"
  bottom: "inception_3a/output"
  top: "inception_3b/5x5_reduce"
  param {
    lr_mult: 1
    decay_mult: 1
  }
  param {
    lr_mult: 2
    decay_mult: 0
  }
  convolution_param {
    num_output: 32
    kernel_size: 1
    weight_filler {
      type: "xavier"
      std: 0.2
    }
    bias_filler {
      type: "constant"
      value: 0.2
    }
  }
}
layer {
  name: "inception_3b/relu_5x5_reduce"
  type: "ReLU"
  bottom: "inception_3b/5x5_reduce"
  top: "inception_3b/5x5_reduce"
}
layer {
  name: "inception_3b/5x5"
  type: "Convolution"
  bottom: "inception_3b/5x5_reduce"
  top: "inception_3b/5x5"
  param {
    lr_mult: 1
    decay_mult: 1
  }
  param {
    lr_mult: 2
    decay_mult: 0
  }
  convolution_param {
    num_output: 96
    pad: 2
    kernel_size: 5
    weight_filler {
      type: "xavier"
      std: 0.03
    }
    bias_filler {
      type: "constant"
      value: 0.2
    }
  }
}
layer {
  name: "inception_3b/relu_5x5"
  type: "ReLU"
  bottom: "inception_3b/5x5"
  top: "inception_3b/5x5"
}
layer {
  name: "inception_3b/pool"
  type: "Pooling"
  bottom: "inception_3a/output"
  top: "inception_3b/pool"
  pooling_param {
    pool: MAX
    kernel_size: 3
    stride: 1
    pad: 1
  }
}
layer {
  name: "inception_3b/pool_proj"
  type: "Convolution"
  bottom: "inception_3b/pool"
  top: "inception_3b/pool_proj"
  param {
    lr_mult: 1
    decay_mult: 1
  }
  param {
    lr_mult: 2
    decay_mult: 0
  }
  convolution_param {
    num_output: 64
    kernel_size: 1
    weight_filler {
      type: "xavier"
      std: 0.1
    }
    bias_filler {
      type: "constant"
      value: 0.2
    }
  }
}
layer {
  name: "inception_3b/relu_pool_proj"
  type: "ReLU"
  bottom: "inception_3b/pool_proj"
  top: "inception_3b/pool_proj"
}
layer {
  name: "inception_3b/output"
  type: "Concat"
  bottom: "inception_3b/1x1"
  bottom: "inception_3b/3x3"
  bottom: "inception_3b/5x5"
  bottom: "inception_3b/pool_proj"
  top: "inception_3b/output"
}
layer {
  name: "pool3/3x3_s2"
  type: "Pooling"
  bottom: "inception_3b/output"
  top: "pool3/3x3_s2"
  pooling_param {
    pool: MAX
    kernel_size: 3
    stride: 2
  }
}
layer {
  name: "inception_4a/1x1"
  type: "Convolution"
  bottom: "pool3/3x3_s2"
  top: "inception_4a/1x1"
  param {
    lr_mult: 1
    decay_mult: 1
  }
  param {
    lr_mult: 2
    decay_mult: 0
  }
  convolution_param {
    num_output: 192
    kernel_size: 1
    weight_filler {
      type: "xavier"
      std: 0.03
    }
    bias_filler {
      type: "constant"
      value: 0.2
    }
  }
}
layer {
  name: "inception_4a/relu_1x1"
  type: "ReLU"
  bottom: "inception_4a/1x1"
  top: "inception_4a/1x1"
}
layer {
  name: "inception_4a/3x3_reduce"
  type: "Convolution"
  bottom: "pool3/3x3_s2"
  top: "inception_4a/3x3_reduce"
  param {
    lr_mult: 1
    decay_mult: 1
  }
  param {
    lr_mult: 2
    decay_mult: 0
  }
  convolution_param {
    num_output: 96
    kernel_size: 1
    weight_filler {
      type: "xavier"
      std: 0.09
    }
    bias_filler {
      type: "constant"
      value: 0.2
    }
  }
}
layer {
  name: "inception_4a/relu_3x3_reduce"
  type: "ReLU"
  bottom: "inception_4a/3x3_reduce"
  top: "inception_4a/3x3_reduce"
}
layer {
  name: "inception_4a/3x3"
  type: "Convolution"
  bottom: "inception_4a/3x3_reduce"
  top: "inception_4a/3x3"
  param {
    lr_mult: 1
    decay_mult: 1
  }
  param {
    lr_mult: 2
    decay_mult: 0
  }
  convolution_param {
    num_output: 208
    pad: 1
    kernel_size: 3
    weight_filler {
      type: "xavier"
      std: 0.03
    }
    bias_filler {
      type: "constant"
      value: 0.2
    }
  }
}
layer {
  name: "inception_4a/relu_3x3"
  type: "ReLU"
  bottom: "inception_4a/3x3"
  top: "inception_4a/3x3"
}
layer {
  name: "inception_4a/5x5_reduce"
  type: "Convolution"
  bottom: "pool3/3x3_s2"
  top: "inception_4a/5x5_reduce"
  param {
    lr_mult: 1
    decay_mult: 1
  }
  param {
    lr_mult: 2
    decay_mult: 0
  }
  convolution_param {
    num_output: 16
    kernel_size: 1
    weight_filler {
      type: "xavier"
      std: 0.2
    }
    bias_filler {
      type: "constant"
      value: 0.2
    }
  }
}
layer {
  name: "inception_4a/relu_5x5_reduce"
  type: "ReLU"
  bottom: "inception_4a/5x5_reduce"
  top: "inception_4a/5x5_reduce"
}
layer {
  name: "inception_4a/5x5"
  type: "Convolution"
  bottom: "inception_4a/5x5_reduce"
  top: "inception_4a/5x5"
  param {
    lr_mult: 1
    decay_mult: 1
  }
  param {
    lr_mult: 2
    decay_mult: 0
  }
  convolution_param {
    num_output: 48
    pad: 2
    kernel_size: 5
    weight_filler {
      type: "xavier"
      std: 0.03
    }
    bias_filler {
      type: "constant"
      value: 0.2
    }
  }
}
layer {
  name: "inception_4a/relu_5x5"
  type: "ReLU"
  bottom: "inception_4a/5x5"
  top: "inception_4a/5x5"
}
layer {
  name: "inception_4a/pool"
  type: "Pooling"
  bottom: "pool3/3x3_s2"
  top: "inception_4a/pool"
  pooling_param {
    pool: MAX
    kernel_size: 3
    stride: 1
    pad: 1
  }
}
layer {
  name: "inception_4a/pool_proj"
  type: "Convolution"
  bottom: "inception_4a/pool"
  top: "inception_4a/pool_proj"
  param {
    lr_mult: 1
    decay_mult: 1
  }
  param {
    lr_mult: 2
    decay_mult: 0
  }
  convolution_param {
    num_output: 64
    kernel_size: 1
    weight_filler {
      type: "xavier"
      std: 0.1
    }
    bias_filler {
      type: "constant"
      value: 0.2
    }
  }
}
layer {
  name: "inception_4a/relu_pool_proj"
  type: "ReLU"
  bottom: "inception_4a/pool_proj"
  top: "inception_4a/pool_proj"
}
layer {
  name: "inception_4a/output"
  type: "Concat"
  bottom: "inception_4a/1x1"
  bottom: "inception_4a/3x3"
  bottom: "inception_4a/5x5"
  bottom: "inception_4a/pool_proj"
  top: "inception_4a/output"
}
layer {
  name: "inception_4b/1x1"
  type: "Convolution"
  bottom: "inception_4a/output"
  top: "inception_4b/1x1"
  param {
    lr_mult: 1
    decay_mult: 1
  }
  param {
    lr_mult: 2
    decay_mult: 0
  }
  convolution_param {
    num_output: 160
    kernel_size: 1
    weight_filler {
      type: "xavier"
      std: 0.03
    }
    bias_filler {
      type: "constant"
      value: 0.2
    }
  }
}
layer {
  name: "inception_4b/relu_1x1"
  type: "ReLU"
  bottom: "inception_4b/1x1"
  top: "inception_4b/1x1"
}
layer {
  name: "inception_4b/3x3_reduce"
  type: "Convolution"
  bottom: "inception_4a/output"
  top: "inception_4b/3x3_reduce"
  param {
    lr_mult: 1
    decay_mult: 1
  }
  param {
    lr_mult: 2
    decay_mult: 0
  }
  convolution_param {
    num_output: 112
    kernel_size: 1
    weight_filler {
      type: "xavier"
      std: 0.09
    }
    bias_filler {
      type: "constant"
      value: 0.2
    }
  }
}
layer {
  name: "inception_4b/relu_3x3_reduce"
  type: "ReLU"
  bottom: "inception_4b/3x3_reduce"
  top: "inception_4b/3x3_reduce"
}
layer {
  name: "inception_4b/3x3"
  type: "Convolution"
  bottom: "inception_4b/3x3_reduce"
  top: "inception_4b/3x3"
  param {
    lr_mult: 1
    decay_mult: 1
  }
  param {
    lr_mult: 2
    decay_mult: 0
  }
  convolution_param {
    num_output: 224
    pad: 1
    kernel_size: 3
    weight_filler {
      type: "xavier"
      std: 0.03
    }
    bias_filler {
      type: "constant"
      value: 0.2
    }
  }
}
layer {
  name: "inception_4b/relu_3x3"
  type: "ReLU"
  bottom: "inception_4b/3x3"
  top: "inception_4b/3x3"
}
layer {
  name: "inception_4b/5x5_reduce"
  type: "Convolution"
  bottom: "inception_4a/output"
  top: "inception_4b/5x5_reduce"
  param {
    lr_mult: 1
    decay_mult: 1
  }
  param {
    lr_mult: 2
    decay_mult: 0
  }
  convolution_param {
    num_output: 24
    kernel_size: 1
    weight_filler {
      type: "xavier"
      std: 0.2
    }
    bias_filler {
      type: "constant"
      value: 0.2
    }
  }
}
layer {
  name: "inception_4b/relu_5x5_reduce"
  type: "ReLU"
  bottom: "inception_4b/5x5_reduce"
  top: "inception_4b/5x5_reduce"
}
layer {
  name: "inception_4b/5x5"
  type: "Convolution"
  bottom: "inception_4b/5x5_reduce"
  top: "inception_4b/5x5"
  param {
    lr_mult: 1
    decay_mult: 1
  }
  param {
    lr_mult: 2
    decay_mult: 0
  }
  convolution_param {
    num_output: 64
    pad: 2
    kernel_size: 5
    weight_filler {
      type: "xavier"
      std: 0.03
    }
    bias_filler {
      type: "constant"
      value: 0.2
    }
  }
}
layer {
  name: "inception_4b/relu_5x5"
  type: "ReLU"
  bottom: "inception_4b/5x5"
  top: "inception_4b/5x5"
}
layer {
  name: "inception_4b/pool"
  type: "Pooling"
  bottom: "inception_4a/output"
  top: "inception_4b/pool"
  pooling_param {
    pool: MAX
    kernel_size: 3
    stride: 1
    pad: 1
  }
}
layer {
  name: "inception_4b/pool_proj"
  type: "Convolution"
  bottom: "inception_4b/pool"
  top: "inception_4b/pool_proj"
  param {
    lr_mult: 1
    decay_mult: 1
  }
  param {
    lr_mult: 2
    decay_mult: 0
  }
  convolution_param {
    num_output: 64
    kernel_size: 1
    weight_filler {
      type: "xavier"
      std: 0.1
    }
    bias_filler {
      type: "constant"
      value: 0.2
    }
  }
}
layer {
  name: "inception_4b/relu_pool_proj"
  type: "ReLU"
  bottom: "inception_4b/pool_proj"
  top: "inception_4b/pool_proj"
}
layer {
  name: "inception_4b/output"
  type: "Concat"
  bottom: "inception_4b/1x1"
  bottom: "inception_4b/3x3"
  bottom: "inception_4b/5x5"
  bottom: "inception_4b/pool_proj"
  top: "inception_4b/output"
}
layer {
  name: "inception_4c/1x1"
  type: "Convolution"
  bottom: "inception_4b/output"
  top: "inception_4c/1x1"
  param {
    lr_mult: 1
    decay_mult: 1
  }
  param {
    lr_mult: 2
    decay_mult: 0
  }
  convolution_param {
    num_output: 128
    kernel_size: 1
    weight_filler {
      type: "xavier"
      std: 0.03
    }
    bias_filler {
      type: "constant"
      value: 0.2
    }
  }
}
layer {
  name: "inception_4c/relu_1x1"
  type: "ReLU"
  bottom: "inception_4c/1x1"
  top: "inception_4c/1x1"
}
layer {
  name: "inception_4c/3x3_reduce"
  type: "Convolution"
  bottom: "inception_4b/output"
  top: "inception_4c/3x3_reduce"
  param {
    lr_mult: 1
    decay_mult: 1
  }
  param {
    lr_mult: 2
    decay_mult: 0
  }
  convolution_param {
    num_output: 128
    kernel_size: 1
    weight_filler {
      type: "xavier"
      std: 0.09
    }
    bias_filler {
      type: "constant"
      value: 0.2
    }
  }
}
layer {
  name: "inception_4c/relu_3x3_reduce"
  type: "ReLU"
  bottom: "inception_4c/3x3_reduce"
  top: "inception_4c/3x3_reduce"
}
layer {
  name: "inception_4c/3x3"
  type: "Convolution"
  bottom: "inception_4c/3x3_reduce"
  top: "inception_4c/3x3"
  param {
    lr_mult: 1
    decay_mult: 1
  }
  param {
    lr_mult: 2
    decay_mult: 0
  }
  convolution_param {
    num_output: 256
    pad: 1
    kernel_size: 3
    weight_filler {
      type: "xavier"
      std: 0.03
    }
    bias_filler {
      type: "constant"
      value: 0.2
    }
  }
}
layer {
  name: "inception_4c/relu_3x3"
  type: "ReLU"
  bottom: "inception_4c/3x3"
  top: "inception_4c/3x3"
}
layer {
  name: "inception_4c/5x5_reduce"
  type: "Convolution"
  bottom: "inception_4b/output"
  top: "inception_4c/5x5_reduce"
  param {
    lr_mult: 1
    decay_mult: 1
  }
  param {
    lr_mult: 2
    decay_mult: 0
  }
  convolution_param {
    num_output: 24
    kernel_size: 1
    weight_filler {
      type: "xavier"
      std: 0.2
    }
    bias_filler {
      type: "constant"
      value: 0.2
    }
  }
}
layer {
  name: "inception_4c/relu_5x5_reduce"
  type: "ReLU"
  bottom: "inception_4c/5x5_reduce"
  top: "inception_4c/5x5_reduce"
}
layer {
  name: "inception_4c/5x5"
  type: "Convolution"
  bottom: "inception_4c/5x5_reduce"
  top: "inception_4c/5x5"
  param {
    lr_mult: 1
    decay_mult: 1
  }
  param {
    lr_mult: 2
    decay_mult: 0
  }
  convolution_param {
    num_output: 64
    pad: 2
    kernel_size: 5
    weight_filler {
      type: "xavier"
      std: 0.03
    }
    bias_filler {
      type: "constant"
      value: 0.2
    }
  }
}
layer {
  name: "inception_4c/relu_5x5"
  type: "ReLU"
  bottom: "inception_4c/5x5"
  top: "inception_4c/5x5"
}
layer {
  name: "inception_4c/pool"
  type: "Pooling"
  bottom: "inception_4b/output"
  top: "inception_4c/pool"
  pooling_param {
    pool: MAX
    kernel_size: 3
    stride: 1
    pad: 1
  }
}
layer {
  name: "inception_4c/pool_proj"
  type: "Convolution"
  bottom: "inception_4c/pool"
  top: "inception_4c/pool_proj"
  param {
    lr_mult: 1
    decay_mult: 1
  }
  param {
    lr_mult: 2
    decay_mult: 0
  }
  convolution_param {
    num_output: 64
    kernel_size: 1
    weight_filler {
      type: "xavier"
      std: 0.1
    }
    bias_filler {
      type: "constant"
      value: 0.2
    }
  }
}
layer {
  name: "inception_4c/relu_pool_proj"
  type: "ReLU"
  bottom: "inception_4c/pool_proj"
  top: "inception_4c/pool_proj"
}
layer {
  name: "inception_4c/output"
  type: "Concat"
  bottom: "inception_4c/1x1"
  bottom: "inception_4c/3x3"
  bottom: "inception_4c/5x5"
  bottom: "inception_4c/pool_proj"
  top: "inception_4c/output"
}
layer {
  name: "inception_4d/1x1"
  type: "Convolution"
  bottom: "inception_4c/output"
  top: "inception_4d/1x1"
  param {
    lr_mult: 1
    decay_mult: 1
  }
  param {
    lr_mult: 2
    decay_mult: 0
  }
  convolution_param {
    num_output: 112
    kernel_size: 1
    weight_filler {
      type: "xavier"
      std: 0.03
    }
    bias_filler {
      type: "constant"
      value: 0.2
    }
  }
}
layer {
  name: "inception_4d/relu_1x1"
  type: "ReLU"
  bottom: "inception_4d/1x1"
  top: "inception_4d/1x1"
}
layer {
  name: "inception_4d/3x3_reduce"
  type: "Convolution"
  bottom: "inception_4c/output"
  top: "inception_4d/3x3_reduce"
  param {
    lr_mult: 1
    decay_mult: 1
  }
  param {
    lr_mult: 2
    decay_mult: 0
  }
  convolution_param {
    num_output: 144
    kernel_size: 1
    weight_filler {
      type: "xavier"
      std: 0.09
    }
    bias_filler {
      type: "constant"
      value: 0.2
    }
  }
}
layer {
  name: "inception_4d/relu_3x3_reduce"
  type: "ReLU"
  bottom: "inception_4d/3x3_reduce"
  top: "inception_4d/3x3_reduce"
}
layer {
  name: "inception_4d/3x3"
  type: "Convolution"
  bottom: "inception_4d/3x3_reduce"
  top: "inception_4d/3x3"
  param {
    lr_mult: 1
    decay_mult: 1
  }
  param {
    lr_mult: 2
    decay_mult: 0
  }
  convolution_param {
    num_output: 288
    pad: 1
    kernel_size: 3
    weight_filler {
      type: "xavier"
      std: 0.03
    }
    bias_filler {
      type: "constant"
      value: 0.2
    }
  }
}
layer {
  name: "inception_4d/relu_3x3"
  type: "ReLU"
  bottom: "inception_4d/3x3"
  top: "inception_4d/3x3"
}
layer {
  name: "inception_4d/5x5_reduce"
  type: "Convolution"
  bottom: "inception_4c/output"
  top: "inception_4d/5x5_reduce"
  param {
    lr_mult: 1
    decay_mult: 1
  }
  param {
    lr_mult: 2
    decay_mult: 0
  }
  convolution_param {
    num_output: 32
    kernel_size: 1
    weight_filler {
      type: "xavier"
      std: 0.2
    }
    bias_filler {
      type: "constant"
      value: 0.2
    }
  }
}
layer {
  name: "inception_4d/relu_5x5_reduce"
  type: "ReLU"
  bottom: "inception_4d/5x5_reduce"
  top: "inception_4d/5x5_reduce"
}
layer {
  name: "inception_4d/5x5"
  type: "Convolution"
  bottom: "inception_4d/5x5_reduce"
  top: "inception_4d/5x5"
  param {
    lr_mult: 1
    decay_mult: 1
  }
  param {
    lr_mult: 2
    decay_mult: 0
  }
  convolution_param {
    num_output: 64
    pad: 2
    kernel_size: 5
    weight_filler {
      type: "xavier"
      std: 0.03
    }
    bias_filler {
      type: "constant"
      value: 0.2
    }
  }
}
layer {
  name: "inception_4d/relu_5x5"
  type: "ReLU"
  bottom: "inception_4d/5x5"
  top: "inception_4d/5x5"
}
layer {
  name: "inception_4d/pool"
  type: "Pooling"
  bottom: "inception_4c/output"
  top: "inception_4d/pool"
  pooling_param {
    pool: MAX
    kernel_size: 3
    stride: 1
    pad: 1
  }
}
layer {
  name: "inception_4d/pool_proj"
  type: "Convolution"
  bottom: "inception_4d/pool"
  top: "inception_4d/pool_proj"
  param {
    lr_mult: 1
    decay_mult: 1
  }
  param {
    lr_mult: 2
    decay_mult: 0
  }
  convolution_param {
    num_output: 64
    kernel_size: 1
    weight_filler {
      type: "xavier"
      std: 0.1
    }
    bias_filler {
      type: "constant"
      value: 0.2
    }
  }
}
layer {
  name: "inception_4d/relu_pool_proj"
  type: "ReLU"
  bottom: "inception_4d/pool_proj"
  top: "inception_4d/pool_proj"
}
layer {
  name: "inception_4d/output"
  type: "Concat"
  bottom: "inception_4d/1x1"
  bottom: "inception_4d/3x3"
  bottom: "inception_4d/5x5"
  bottom: "inception_4d/pool_proj"
  top: "inception_4d/output"
}
layer {
  name: "inception_4e/1x1"
  type: "Convolution"
  bottom: "inception_4d/output"
  top: "inception_4e/1x1"
  param {
    lr_mult: 1
    decay_mult: 1
  }
  param {
    lr_mult: 2
    decay_mult: 0
  }
  convolution_param {
    num_output: 256
    kernel_size: 1
    weight_filler {
      type: "xavier"
      std: 0.03
    }
    bias_filler {
      type: "constant"
      value: 0.2
    }
  }
}
layer {
  name: "inception_4e/relu_1x1"
  type: "ReLU"
  bottom: "inception_4e/1x1"
  top: "inception_4e/1x1"
}
layer {
  name: "inception_4e/3x3_reduce"
  type: "Convolution"
  bottom: "inception_4d/output"
  top: "inception_4e/3x3_reduce"
  param {
    lr_mult: 1
    decay_mult: 1
  }
  param {
    lr_mult: 2
    decay_mult: 0
  }
  convolution_param {
    num_output: 160
    kernel_size: 1
    weight_filler {
      type: "xavier"
      std: 0.09
    }
    bias_filler {
      type: "constant"
      value: 0.2
    }
  }
}
layer {
  name: "inception_4e/relu_3x3_reduce"
  type: "ReLU"
  bottom: "inception_4e/3x3_reduce"
  top: "inception_4e/3x3_reduce"
}
layer {
  name: "inception_4e/3x3"
  type: "Convolution"
  bottom: "inception_4e/3x3_reduce"
  top: "inception_4e/3x3"
  param {
    lr_mult: 1
    decay_mult: 1
  }
  param {
    lr_mult: 2
    decay_mult: 0
  }
  convolution_param {
    num_output: 320
    pad: 1
    kernel_size: 3
    weight_filler {
      type: "xavier"
      std: 0.03
    }
    bias_filler {
      type: "constant"
      value: 0.2
    }
  }
}
layer {
  name: "inception_4e/relu_3x3"
  type: "ReLU"
  bottom: "inception_4e/3x3"
  top: "inception_4e/3x3"
}
layer {
  name: "inception_4e/5x5_reduce"
  type: "Convolution"
  bottom: "inception_4d/output"
  top: "inception_4e/5x5_reduce"
  param {
    lr_mult: 1
    decay_mult: 1
  }
  param {
    lr_mult: 2
    decay_mult: 0
  }
  convolution_param {
    num_output: 32
    kernel_size: 1
    weight_filler {
      type: "xavier"
      std: 0.2
    }
    bias_filler {
      type: "constant"
      value: 0.2
    }
  }
}
layer {
  name: "inception_4e/relu_5x5_reduce"
  type: "ReLU"
  bottom: "inception_4e/5x5_reduce"
  top: "inception_4e/5x5_reduce"
}
layer {
  name: "inception_4e/5x5"
  type: "Convolution"
  bottom: "inception_4e/5x5_reduce"
  top: "inception_4e/5x5"
  param {
    lr_mult: 1
    decay_mult: 1
  }
  param {
    lr_mult: 2
    decay_mult: 0
  }
  convolution_param {
    num_output: 128
    pad: 2
    kernel_size: 5
    weight_filler {
      type: "xavier"
      std: 0.03
    }
    bias_filler {
      type: "constant"
      value: 0.2
    }
  }
}
layer {
  name: "inception_4e/relu_5x5"
  type: "ReLU"
  bottom: "inception_4e/5x5"
  top: "inception_4e/5x5"
}
layer {
  name: "inception_4e/pool"
  type: "Pooling"
  bottom: "inception_4d/output"
  top: "inception_4e/pool"
  pooling_param {
    pool: MAX
    kernel_size: 3
    stride: 1
    pad: 1
  }
}
layer {
  name: "inception_4e/pool_proj"
  type: "Convolution"
  bottom: "inception_4e/pool"
  top: "inception_4e/pool_proj"
  param {
    lr_mult: 1
    decay_mult: 1
  }
  param {
    lr_mult: 2
    decay_mult: 0
  }
  convolution_param {
    num_output: 128
    kernel_size: 1
    weight_filler {
      type: "xavier"
      std: 0.1
    }
    bias_filler {
      type: "constant"
      value: 0.2
    }
  }
}
layer {
  name: "inception_4e/relu_pool_proj"
  type: "ReLU"
  bottom: "inception_4e/pool_proj"
  top: "inception_4e/pool_proj"
}
layer {
  name: "inception_4e/output"
  type: "Concat"
  bottom: "inception_4e/1x1"
  bottom: "inception_4e/3x3"
  bottom: "inception_4e/5x5"
  bottom: "inception_4e/pool_proj"
  top: "inception_4e/output"
}
layer {
  name: "pool4/3x3_s2"
  type: "Pooling"
  bottom: "inception_4e/output"
  top: "pool4/3x3_s2"
  pooling_param {
    pool: MAX
    kernel_size: 3
    stride: 2
  }
}
layer {
  name: "inception_5a/1x1"
  type: "Convolution"
  bottom: "pool4/3x3_s2"
  top: "inception_5a/1x1"
  param {
    lr_mult: 1
    decay_mult: 1
  }
  param {
    lr_mult: 2
    decay_mult: 0
  }
  convolution_param {
    num_output: 256
    kernel_size: 1
    weight_filler {
      type: "xavier"
      std: 0.03
    }
    bias_filler {
      type: "constant"
      value: 0.2
    }
  }
}
layer {
  name: "inception_5a/relu_1x1"
  type: "ReLU"
  bottom: "inception_5a/1x1"
  top: "inception_5a/1x1"
}
layer {
  name: "inception_5a/3x3_reduce"
  type: "Convolution"
  bottom: "pool4/3x3_s2"
  top: "inception_5a/3x3_reduce"
  param {
    lr_mult: 1
    decay_mult: 1
  }
  param {
    lr_mult: 2
    decay_mult: 0
  }
  convolution_param {
    num_output: 160
    kernel_size: 1
    weight_filler {
      type: "xavier"
      std: 0.09
    }
    bias_filler {
      type: "constant"
      value: 0.2
    }
  }
}
layer {
  name: "inception_5a/relu_3x3_reduce"
  type: "ReLU"
  bottom: "inception_5a/3x3_reduce"
  top: "inception_5a/3x3_reduce"
}
layer {
  name: "inception_5a/3x3"
  type: "Convolution"
  bottom: "inception_5a/3x3_reduce"
  top: "inception_5a/3x3"
  param {
    lr_mult: 1
    decay_mult: 1
  }
  param {
    lr_mult: 2
    decay_mult: 0
  }
  convolution_param {
    num_output: 320
    pad: 1
    kernel_size: 3
    weight_filler {
      type: "xavier"
      std: 0.03
    }
    bias_filler {
      type: "constant"
      value: 0.2
    }
  }
}
layer {
  name: "inception_5a/relu_3x3"
  type: "ReLU"
  bottom: "inception_5a/3x3"
  top: "inception_5a/3x3"
}
layer {
  name: "inception_5a/5x5_reduce"
  type: "Convolution"
  bottom: "pool4/3x3_s2"
  top: "inception_5a/5x5_reduce"
  param {
    lr_mult: 1
    decay_mult: 1
  }
  param {
    lr_mult: 2
    decay_mult: 0
  }
  convolution_param {
    num_output: 32
    kernel_size: 1
    weight_filler {
      type: "xavier"
      std: 0.2
    }
    bias_filler {
      type: "constant"
      value: 0.2
    }
I0903 16:38:31.257033 27408 layer_factory.hpp:77] Creating layer data
I0903 16:38:31.257062 27408 net.cpp:91] Creating Layer data
I0903 16:38:31.257072 27408 net.cpp:399] data -> data
I0903 16:38:31.261204 27404 net.cpp:49] Initializing net from parameters: 
name: "GoogleNet"
state {
  phase: TEST
}
layer {
  name: "data"
  type: "Input"
  top: "data"
  input_param {
    shape {
      dim: 10
      dim: 3
      dim: 224
      dim: 224
    }
  }
}
layer {
  name: "conv1/7x7_s2"
  type: "Convolution"
  bottom: "data"
  top: "conv1/7x7_s2"
  param {
    lr_mult: 1
    decay_mult: 1
  }
  param {
    lr_mult: 2
    decay_mult: 0
  }
  convolution_param {
    num_output: 64
    pad: 3
    kernel_size: 7
    stride: 2
    weight_filler {
      type: "xavier"
      std: 0.1
    }
    bias_filler {
      type: "constant"
      value: 0.2
    }
  }
}
layer {
  name: "conv1/relu_7x7"
  type: "ReLU"
  bottom: "conv1/7x7_s2"
  top: "conv1/7x7_s2"
}
layer {
  name: "pool1/3x3_s2"
  type: "Pooling"
  bottom: "conv1/7x7_s2"
  top: "pool1/3x3_s2"
  pooling_param {
    pool: MAX
    kernel_size: 3
    stride: 2
  }
}
layer {
  name: "pool1/norm1"
  type: "LRN"
  bottom: "pool1/3x3_s2"
  top: "pool1/norm1"
  lrn_param {
    local_size: 5
    alpha: 0.0001
    beta: 0.75
  }
}
layer {
  name: "conv2/3x3_reduce"
  type: "Convolution"
  bottom: "pool1/norm1"
  top: "conv2/3x3_reduce"
  param {
    lr_mult: 1
    decay_mult: 1
  }
  param {
    lr_mult: 2
    decay_mult: 0
  }
  convolution_param {
    num_output: 64
    kernel_size: 1
    weight_filler {
      type: "xavier"
      std: 0.1
    }
    bias_filler {
      type: "constant"
      value: 0.2
    }
  }
}
layer {
  name: "conv2/relu_3x3_reduce"
  type: "ReLU"
  bottom: "conv2/3x3_reduce"
  top: "conv2/3x3_reduce"
}
layer {
  name: "conv2/3x3"
  type: "Convolution"
  bottom: "conv2/3x3_reduce"
  top: "conv2/3x3"
  param {
    lr_mult: 1
    decay_mult: 1
  }
  param {
    lr_mult: 2
    decay_mult: 0
  }
  convolution_param {
    num_output: 192
    pad: 1
    kernel_size: 3
    weight_filler {
      type: "xavier"
      std: 0.03
    }
    bias_filler {
      type: "constant"
      value: 0.2
    }
  }
}
layer {
  name: "conv2/relu_3x3"
  type: "ReLU"
  bottom: "conv2/3x3"
  top: "conv2/3x3"
}
layer {
  name: "conv2/norm2"
  type: "LRN"
  bottom: "conv2/3x3"
  top: "conv2/norm2"
  lrn_param {
    local_size: 5
    alpha: 0.0001
    beta: 0.75
  }
}
layer {
  name: "pool2/3x3_s2"
  type: "Pooling"
  bottom: "conv2/norm2"
  top: "pool2/3x3_s2"
  pooling_param {
    pool: MAX
    kernel_size: 3
    stride: 2
  }
}
layer {
  name: "inception_3a/1x1"
  type: "Convolution"
  bottom: "pool2/3x3_s2"
  top: "inception_3a/1x1"
  param {
    lr_mult: 1
    decay_mult: 1
  }
  param {
    lr_mult: 2
    decay_mult: 0
  }
  convolution_param {
    num_output: 64
    kernel_size: 1
    weight_filler {
      type: "xavier"
      std: 0.03
    }
    bias_filler {
      type: "constant"
      value: 0.2
    }
  }
}
layer {
  name: "inception_3a/relu_1x1"
  type: "ReLU"
  bottom: "inception_3a/1x1"
  top: "inception_3a/1x1"
}
layer {
  name: "inception_3a/3x3_reduce"
  type: "Convolution"
  bottom: "pool2/3x3_s2"
  top: "inception_3a/3x3_reduce"
  param {
    lr_mult: 1
    decay_mult: 1
  }
  param {
    lr_mult: 2
    decay_mult: 0
  }
  convolution_param {
    num_output: 96
    kernel_size: 1
    weight_filler {
      type: "xavier"
      std: 0.09
    }
    bias_filler {
      type: "constant"
      value: 0.2
    }
  }
}
layer {
  name: "inception_3a/relu_3x3_reduce"
  type: "ReLU"
  bottom: "inception_3a/3x3_reduce"
  top: "inception_3a/3x3_reduce"
}
layer {
  name: "inception_3a/3x3"
  type: "Convolution"
  bottom: "inception_3a/3x3_reduce"
  top: "inception_3a/3x3"
  param {
    lr_mult: 1
    decay_mult: 1
  }
  param {
    lr_mult: 2
    decay_mult: 0
  }
  convolution_param {
    num_output: 128
    pad: 1
    kernel_size: 3
    weight_filler {
      type: "xavier"
      std: 0.03
    }
    bias_filler {
      type: "constant"
      value: 0.2
    }
  }
}
layer {
  name: "inception_3a/relu_3x3"
  type: "ReLU"
  bottom: "inception_3a/3x3"
  top: "inception_3a/3x3"
}
layer {
  name: "inception_3a/5x5_reduce"
  type: "Convolution"
  bottom: "pool2/3x3_s2"
  top: "inception_3a/5x5_reduce"
  param {
    lr_mult: 1
    decay_mult: 1
  }
  param {
    lr_mult: 2
    decay_mult: 0
  }
  convolution_param {
    num_output: 16
    kernel_size: 1
    weight_filler {
      type: "xavier"
      std: 0.2
    }
    bias_filler {
      type: "constant"
      value: 0.2
    }
  }
}
layer {
  name: "inception_3a/relu_5x5_reduce"
  type: "ReLU"
  bottom: "inception_3a/5x5_reduce"
  top: "inception_3a/5x5_reduce"
}
layer {
  name: "inception_3a/5x5"
  type: "Convolution"
  bottom: "inception_3a/5x5_reduce"
  top: "inception_3a/5x5"
  param {
    lr_mult: 1
    decay_mult: 1
  }
  param {
    lr_mult: 2
    decay_mult: 0
  }
  convolution_param {
    num_output: 32
    pad: 2
    kernel_size: 5
    weight_filler {
      type: "xavier"
      std: 0.03
    }
    bias_filler {
      type: "constant"
      value: 0.2
    }
  }
}
layer {
  name: "inception_3a/relu_5x5"
  type: "ReLU"
  bottom: "inception_3a/5x5"
  top: "inception_3a/5x5"
}
layer {
  name: "inception_3a/pool"
  type: "Pooling"
  bottom: "pool2/3x3_s2"
  top: "inception_3a/pool"
  pooling_param {
    pool: MAX
    kernel_size: 3
    stride: 1
    pad: 1
  }
}
layer {
  name: "inception_3a/pool_proj"
  type: "Convolution"
  bottom: "inception_3a/pool"
  top: "inception_3a/pool_proj"
  param {
    lr_mult: 1
    decay_mult: 1
  }
  param {
    lr_mult: 2
    decay_mult: 0
  }
  convolution_param {
    num_output: 32
    kernel_size: 1
    weight_filler {
      type: "xavier"
      std: 0.1
    }
    bias_filler {
      type: "constant"
      value: 0.2
    }
  }
}
layer {
  name: "inception_3a/relu_pool_proj"
  type: "ReLU"
  bottom: "inception_3a/pool_proj"
  top: "inception_3a/pool_proj"
}
layer {
  name: "inception_3a/output"
  type: "Concat"
  bottom: "inception_3a/1x1"
  bottom: "inception_3a/3x3"
  bottom: "inception_3a/5x5"
  bottom: "inception_3a/pool_proj"
  top: "inception_3a/output"
}
layer {
  name: "inception_3b/1x1"
  type: "Convolution"
  bottom: "inception_3a/output"
  top: "inception_3b/1x1"
  param {
    lr_mult: 1
    decay_mult: 1
  }
  param {
    lr_mult: 2
    decay_mult: 0
  }
  convolution_param {
    num_output: 128
    kernel_size: 1
    weight_filler {
      type: "xavier"
      std: 0.03
    }
    bias_filler {
      type: "constant"
      value: 0.2
    }
  }
}
layer {
  name: "inception_3b/relu_1x1"
  type: "ReLU"
  bottom: "inception_3b/1x1"
  top: "inception_3b/1x1"
}
layer {
  name: "inception_3b/3x3_reduce"
  type: "Convolution"
  bottom: "inception_3a/output"
  top: "inception_3b/3x3_reduce"
  param {
    lr_mult: 1
    decay_mult: 1
  }
  param {
    lr_mult: 2
    decay_mult: 0
  }
  convolution_param {
    num_output: 128
    kernel_size: 1
    weight_filler {
      type: "xavier"
      std: 0.09
    }
    bias_filler {
      type: "constant"
      value: 0.2
    }
  }
}
layer {
  name: "inception_3b/relu_3x3_reduce"
  type: "ReLU"
  bottom: "inception_3b/3x3_reduce"
  top: "inception_3b/3x3_reduce"
}
layer {
  name: "inception_3b/3x3"
  type: "Convolution"
  bottom: "inception_3b/3x3_reduce"
  top: "inception_3b/3x3"
  param {
    lr_mult: 1
    decay_mult: 1
  }
  param {
    lr_mult: 2
    decay_mult: 0
  }
  convolution_param {
    num_output: 192
    pad: 1
    kernel_size: 3
    weight_filler {
      type: "xavier"
      std: 0.03
    }
    bias_filler {
      type: "constant"
      value: 0.2
    }
  }
}
layer {
  name: "inception_3b/relu_3x3"
  type: "ReLU"
  bottom: "inception_3b/3x3"
  top: "inception_3b/3x3"
}
layer {
  name: "inception_3b/5x5_reduce"
  type: "Convolution"
  bottom: "inception_3a/output"
  top: "inception_3b/5x5_reduce"
  param {
    lr_mult: 1
    decay_mult: 1
  }
  param {
    lr_mult: 2
    decay_mult: 0
  }
  convolution_param {
    num_output: 32
    kernel_size: 1
    weight_filler {
      type: "xavier"
      std: 0.2
    }
    bias_filler {
      type: "constant"
      value: 0.2
    }
  }
}
layer {
  name: "inception_3b/relu_5x5_reduce"
  type: "ReLU"
  bottom: "inception_3b/5x5_reduce"
  top: "inception_3b/5x5_reduce"
}
layer {
  name: "inception_3b/5x5"
  type: "Convolution"
  bottom: "inception_3b/5x5_reduce"
  top: "inception_3b/5x5"
  param {
    lr_mult: 1
    decay_mult: 1
  }
  param {
    lr_mult: 2
    decay_mult: 0
  }
  convolution_param {
    num_output: 96
    pad: 2
    kernel_size: 5
    weight_filler {
      type: "xavier"
      std: 0.03
    }
    bias_filler {
      type: "constant"
      value: 0.2
    }
  }
}
layer {
  name: "inception_3b/relu_5x5"
  type: "ReLU"
  bottom: "inception_3b/5x5"
  top: "inception_3b/5x5"
}
layer {
  name: "inception_3b/pool"
  type: "Pooling"
  bottom: "inception_3a/output"
  top: "inception_3b/pool"
  pooling_param {
    pool: MAX
    kernel_size: 3
    stride: 1
    pad: 1
  }
}
layer {
  name: "inception_3b/pool_proj"
  type: "Convolution"
  bottom: "inception_3b/pool"
  top: "inception_3b/pool_proj"
  param {
    lr_mult: 1
    decay_mult: 1
  }
  param {
    lr_mult: 2
    decay_mult: 0
  }
  convolution_param {
    num_output: 64
    kernel_size: 1
    weight_filler {
      type: "xavier"
      std: 0.1
    }
    bias_filler {
      type: "constant"
      value: 0.2
    }
  }
}
layer {
  name: "inception_3b/relu_pool_proj"
  type: "ReLU"
  bottom: "inception_3b/pool_proj"
  top: "inception_3b/pool_proj"
}
layer {
  name: "inception_3b/output"
  type: "Concat"
  bottom: "inception_3b/1x1"
  bottom: "inception_3b/3x3"
  bottom: "inception_3b/5x5"
  bottom: "inception_3b/pool_proj"
  top: "inception_3b/output"
}
layer {
  name: "pool3/3x3_s2"
  type: "Pooling"
  bottom: "inception_3b/output"
  top: "pool3/3x3_s2"
  pooling_param {
    pool: MAX
    kernel_size: 3
    stride: 2
  }
}
layer {
  name: "inception_4a/1x1"
  type: "Convolution"
  bottom: "pool3/3x3_s2"
  top: "inception_4a/1x1"
  param {
    lr_mult: 1
    decay_mult: 1
  }
  param {
    lr_mult: 2
    decay_mult: 0
  }
  convolution_param {
    num_output: 192
    kernel_size: 1
    weight_filler {
      type: "xavier"
      std: 0.03
    }
    bias_filler {
      type: "constant"
      value: 0.2
    }
  }
}
layer {
  name: "inception_4a/relu_1x1"
  type: "ReLU"
  bottom: "inception_4a/1x1"
  top: "inception_4a/1x1"
}
layer {
  name: "inception_4a/3x3_reduce"
  type: "Convolution"
  bottom: "pool3/3x3_s2"
  top: "inception_4a/3x3_reduce"
  param {
    lr_mult: 1
    decay_mult: 1
  }
  param {
    lr_mult: 2
    decay_mult: 0
  }
  convolution_param {
    num_output: 96
    kernel_size: 1
    weight_filler {
      type: "xavier"
      std: 0.09
    }
    bias_filler {
      type: "constant"
      value: 0.2
    }
  }
}
layer {
  name: "inception_4a/relu_3x3_reduce"
  type: "ReLU"
  bottom: "inception_4a/3x3_reduce"
  top: "inception_4a/3x3_reduce"
}
layer {
  name: "inception_4a/3x3"
  type: "Convolution"
  bottom: "inception_4a/3x3_reduce"
  top: "inception_4a/3x3"
  param {
    lr_mult: 1
    decay_mult: 1
  }
  param {
    lr_mult: 2
    decay_mult: 0
  }
  convolution_param {
    num_output: 208
    pad: 1
    kernel_size: 3
    weight_filler {
      type: "xavier"
      std: 0.03
    }
    bias_filler {
      type: "constant"
      value: 0.2
    }
  }
}
layer {
  name: "inception_4a/relu_3x3"
  type: "ReLU"
  bottom: "inception_4a/3x3"
  top: "inception_4a/3x3"
}
layer {
  name: "inception_4a/5x5_reduce"
  type: "Convolution"
  bottom: "pool3/3x3_s2"
  top: "inception_4a/5x5_reduce"
  param {
    lr_mult: 1
    decay_mult: 1
  }
  param {
    lr_mult: 2
    decay_mult: 0
  }
  convolution_param {
    num_output: 16
    kernel_size: 1
    weight_filler {
      type: "xavier"
      std: 0.2
    }
    bias_filler {
      type: "constant"
      value: 0.2
    }
  }
}
layer {
  name: "inception_4a/relu_5x5_reduce"
  type: "ReLU"
  bottom: "inception_4a/5x5_reduce"
  top: "inception_4a/5x5_reduce"
}
layer {
  name: "inception_4a/5x5"
  type: "Convolution"
  bottom: "inception_4a/5x5_reduce"
  top: "inception_4a/5x5"
  param {
    lr_mult: 1
    decay_mult: 1
  }
  param {
    lr_mult: 2
    decay_mult: 0
  }
  convolution_param {
    num_output: 48
    pad: 2
    kernel_size: 5
    weight_filler {
      type: "xavier"
      std: 0.03
    }
    bias_filler {
      type: "constant"
      value: 0.2
    }
  }
}
layer {
  name: "inception_4a/relu_5x5"
  type: "ReLU"
  bottom: "inception_4a/5x5"
  top: "inception_4a/5x5"
}
layer {
  name: "inception_4a/pool"
  type: "Pooling"
  bottom: "pool3/3x3_s2"
  top: "inception_4a/pool"
  pooling_param {
    pool: MAX
    kernel_size: 3
    stride: 1
    pad: 1
  }
}
layer {
  name: "inception_4a/pool_proj"
  type: "Convolution"
  bottom: "inception_4a/pool"
  top: "inception_4a/pool_proj"
  param {
    lr_mult: 1
    decay_mult: 1
  }
  param {
    lr_mult: 2
    decay_mult: 0
  }
  convolution_param {
    num_output: 64
    kernel_size: 1
    weight_filler {
      type: "xavier"
      std: 0.1
    }
    bias_filler {
      type: "constant"
      value: 0.2
    }
  }
}
layer {
  name: "inception_4a/relu_pool_proj"
  type: "ReLU"
  bottom: "inception_4a/pool_proj"
  top: "inception_4a/pool_proj"
}
layer {
  name: "inception_4a/output"
  type: "Concat"
  bottom: "inception_4a/1x1"
  bottom: "inception_4a/3x3"
  bottom: "inception_4a/5x5"
  bottom: "inception_4a/pool_proj"
  top: "inception_4a/output"
}
layer {
  name: "inception_4b/1x1"
  type: "Convolution"
  bottom: "inception_4a/output"
  top: "inception_4b/1x1"
  param {
    lr_mult: 1
    decay_mult: 1
  }
  param {
    lr_mult: 2
    decay_mult: 0
  }
  convolution_param {
    num_output: 160
    kernel_size: 1
    weight_filler {
      type: "xavier"
      std: 0.03
    }
    bias_filler {
      type: "constant"
      value: 0.2
    }
  }
}
layer {
  name: "inception_4b/relu_1x1"
  type: "ReLU"
  bottom: "inception_4b/1x1"
  top: "inception_4b/1x1"
}
layer {
  name: "inception_4b/3x3_reduce"
  type: "Convolution"
  bottom: "inception_4a/output"
  top: "inception_4b/3x3_reduce"
  param {
    lr_mult: 1
    decay_mult: 1
  }
  param {
    lr_mult: 2
    decay_mult: 0
  }
  convolution_param {
    num_output: 112
    kernel_size: 1
    weight_filler {
      type: "xavier"
      std: 0.09
    }
    bias_filler {
      type: "constant"
      value: 0.2
    }
  }
}
layer {
  name: "inception_4b/relu_3x3_reduce"
  type: "ReLU"
  bottom: "inception_4b/3x3_reduce"
  top: "inception_4b/3x3_reduce"
}
layer {
  name: "inception_4b/3x3"
  type: "Convolution"
  bottom: "inception_4b/3x3_reduce"
  top: "inception_4b/3x3"
  param {
    lr_mult: 1
    decay_mult: 1
  }
  param {
    lr_mult: 2
    decay_mult: 0
  }
  convolution_param {
    num_output: 224
    pad: 1
    kernel_size: 3
    weight_filler {
      type: "xavier"
      std: 0.03
    }
    bias_filler {
      type: "constant"
      value: 0.2
    }
  }
}
layer {
  name: "inception_4b/relu_3x3"
  type: "ReLU"
  bottom: "inception_4b/3x3"
  top: "inception_4b/3x3"
}
layer {
  name: "inception_4b/5x5_reduce"
  type: "Convolution"
  bottom: "inception_4a/output"
  top: "inception_4b/5x5_reduce"
  param {
    lr_mult: 1
    decay_mult: 1
  }
  param {
    lr_mult: 2
    decay_mult: 0
  }
  convolution_param {
    num_output: 24
    kernel_size: 1
    weight_filler {
      type: "xavier"
      std: 0.2
    }
    bias_filler {
      type: "constant"
      value: 0.2
    }
  }
}
layer {
  name: "inception_4b/relu_5x5_reduce"
  type: "ReLU"
  bottom: "inception_4b/5x5_reduce"
  top: "inception_4b/5x5_reduce"
}
layer {
  name: "inception_4b/5x5"
  type: "Convolution"
  bottom: "inception_4b/5x5_reduce"
  top: "inception_4b/5x5"
  param {
    lr_mult: 1
    decay_mult: 1
  }
  param {
    lr_mult: 2
    decay_mult: 0
  }
  convolution_param {
    num_output: 64
    pad: 2
    kernel_size: 5
    weight_filler {
      type: "xavier"
      std: 0.03
    }
    bias_filler {
      type: "constant"
      value: 0.2
    }
  }
}
layer {
  name: "inception_4b/relu_5x5"
  type: "ReLU"
  bottom: "inception_4b/5x5"
  top: "inception_4b/5x5"
}
layer {
  name: "inception_4b/pool"
  type: "Pooling"
  bottom: "inception_4a/output"
  top: "inception_4b/pool"
  pooling_param {
    pool: MAX
    kernel_size: 3
    stride: 1
    pad: 1
  }
}
layer {
  name: "inception_4b/pool_proj"
  type: "Convolution"
  bottom: "inception_4b/pool"
  top: "inception_4b/pool_proj"
  param {
    lr_mult: 1
    decay_mult: 1
  }
  param {
    lr_mult: 2
    decay_mult: 0
  }
  convolution_param {
    num_output: 64
    kernel_size: 1
    weight_filler {
      type: "xavier"
      std: 0.1
    }
    bias_filler {
      type: "constant"
      value: 0.2
    }
  }
}
layer {
  name: "inception_4b/relu_pool_proj"
  type: "ReLU"
  bottom: "inception_4b/pool_proj"
  top: "inception_4b/pool_proj"
}
layer {
  name: "inception_4b/output"
  type: "Concat"
  bottom: "inception_4b/1x1"
  bottom: "inception_4b/3x3"
  bottom: "inception_4b/5x5"
  bottom: "inception_4b/pool_proj"
  top: "inception_4b/output"
}
layer {
  name: "inception_4c/1x1"
  type: "Convolution"
  bottom: "inception_4b/output"
  top: "inception_4c/1x1"
  param {
    lr_mult: 1
    decay_mult: 1
  }
  param {
    lr_mult: 2
    decay_mult: 0
  }
  convolution_param {
    num_output: 128
    kernel_size: 1
    weight_filler {
      type: "xavier"
      std: 0.03
    }
    bias_filler {
      type: "constant"
      value: 0.2
    }
  }
}
layer {
  name: "inception_4c/relu_1x1"
  type: "ReLU"
  bottom: "inception_4c/1x1"
  top: "inception_4c/1x1"
}
layer {
  name: "inception_4c/3x3_reduce"
  type: "Convolution"
  bottom: "inception_4b/output"
  top: "inception_4c/3x3_reduce"
  param {
    lr_mult: 1
    decay_mult: 1
  }
  param {
    lr_mult: 2
    decay_mult: 0
  }
  convolution_param {
    num_output: 128
    kernel_size: 1
    weight_filler {
      type: "xavier"
      std: 0.09
    }
    bias_filler {
      type: "constant"
      value: 0.2
    }
  }
}
layer {
  name: "inception_4c/relu_3x3_reduce"
  type: "ReLU"
  bottom: "inception_4c/3x3_reduce"
  top: "inception_4c/3x3_reduce"
}
layer {
  name: "inception_4c/3x3"
  type: "Convolution"
  bottom: "inception_4c/3x3_reduce"
  top: "inception_4c/3x3"
  param {
    lr_mult: 1
    decay_mult: 1
  }
  param {
    lr_mult: 2
    decay_mult: 0
  }
  convolution_param {
    num_output: 256
    pad: 1
    kernel_size: 3
    weight_filler {
      type: "xavier"
      std: 0.03
    }
    bias_filler {
      type: "constant"
      value: 0.2
    }
  }
}
layer {
  name: "inception_4c/relu_3x3"
  type: "ReLU"
  bottom: "inception_4c/3x3"
  top: "inception_4c/3x3"
}
layer {
  name: "inception_4c/5x5_reduce"
  type: "Convolution"
  bottom: "inception_4b/output"
  top: "inception_4c/5x5_reduce"
  param {
    lr_mult: 1
    decay_mult: 1
  }
  param {
    lr_mult: 2
    decay_mult: 0
  }
  convolution_param {
    num_output: 24
    kernel_size: 1
    weight_filler {
      type: "xavier"
      std: 0.2
    }
    bias_filler {
      type: "constant"
      value: 0.2
    }
  }
}
layer {
  name: "inception_4c/relu_5x5_reduce"
  type: "ReLU"
  bottom: "inception_4c/5x5_reduce"
  top: "inception_4c/5x5_reduce"
}
layer {
  name: "inception_4c/5x5"
  type: "Convolution"
  bottom: "inception_4c/5x5_reduce"
  top: "inception_4c/5x5"
  param {
    lr_mult: 1
    decay_mult: 1
  }
  param {
    lr_mult: 2
    decay_mult: 0
  }
  convolution_param {
    num_output: 64
    pad: 2
    kernel_size: 5
    weight_filler {
      type: "xavier"
      std: 0.03
    }
    bias_filler {
      type: "constant"
      value: 0.2
    }
  }
}
layer {
  name: "inception_4c/relu_5x5"
  type: "ReLU"
  bottom: "inception_4c/5x5"
  top: "inception_4c/5x5"
}
layer {
  name: "inception_4c/pool"
  type: "Pooling"
  bottom: "inception_4b/output"
  top: "inception_4c/pool"
  pooling_param {
    pool: MAX
    kernel_size: 3
    stride: 1
    pad: 1
  }
}
layer {
  name: "inception_4c/pool_proj"
  type: "Convolution"
  bottom: "inception_4c/pool"
  top: "inception_4c/pool_proj"
  param {
    lr_mult: 1
    decay_mult: 1
  }
  param {
    lr_mult: 2
    decay_mult: 0
  }
  convolution_param {
    num_output: 64
    kernel_size: 1
    weight_filler {
      type: "xavier"
      std: 0.1
    }
    bias_filler {
      type: "constant"
      value: 0.2
    }
  }
}
layer {
  name: "inception_4c/relu_pool_proj"
  type: "ReLU"
  bottom: "inception_4c/pool_proj"
  top: "inception_4c/pool_proj"
}
layer {
  name: "inception_4c/output"
  type: "Concat"
  bottom: "inception_4c/1x1"
  bottom: "inception_4c/3x3"
  bottom: "inception_4c/5x5"
  bottom: "inception_4c/pool_proj"
  top: "inception_4c/output"
}
layer {
  name: "inception_4d/1x1"
  type: "Convolution"
  bottom: "inception_4c/output"
  top: "inception_4d/1x1"
  param {
    lr_mult: 1
    decay_mult: 1
  }
  param {
    lr_mult: 2
    decay_mult: 0
  }
  convolution_param {
    num_output: 112
    kernel_size: 1
    weight_filler {
      type: "xavier"
      std: 0.03
    }
    bias_filler {
      type: "constant"
      value: 0.2
    }
  }
}
layer {
  name: "inception_4d/relu_1x1"
  type: "ReLU"
  bottom: "inception_4d/1x1"
  top: "inception_4d/1x1"
}
layer {
  name: "inception_4d/3x3_reduce"
  type: "Convolution"
  bottom: "inception_4c/output"
  top: "inception_4d/3x3_reduce"
  param {
    lr_mult: 1
    decay_mult: 1
  }
  param {
    lr_mult: 2
    decay_mult: 0
  }
  convolution_param {
    num_output: 144
    kernel_size: 1
    weight_filler {
      type: "xavier"
      std: 0.09
    }
    bias_filler {
      type: "constant"
      value: 0.2
    }
  }
}
layer {
  name: "inception_4d/relu_3x3_reduce"
  type: "ReLU"
  bottom: "inception_4d/3x3_reduce"
  top: "inception_4d/3x3_reduce"
}
layer {
  name: "inception_4d/3x3"
  type: "Convolution"
  bottom: "inception_4d/3x3_reduce"
  top: "inception_4d/3x3"
  param {
    lr_mult: 1
    decay_mult: 1
  }
  param {
    lr_mult: 2
    decay_mult: 0
  }
  convolution_param {
    num_output: 288
    pad: 1
    kernel_size: 3
    weight_filler {
      type: "xavier"
      std: 0.03
    }
    bias_filler {
      type: "constant"
      value: 0.2
    }
  }
}
layer {
  name: "inception_4d/relu_3x3"
  type: "ReLU"
  bottom: "inception_4d/3x3"
  top: "inception_4d/3x3"
}
layer {
  name: "inception_4d/5x5_reduce"
  type: "Convolution"
  bottom: "inception_4c/output"
  top: "inception_4d/5x5_reduce"
  param {
    lr_mult: 1
    decay_mult: 1
  }
  param {
    lr_mult: 2
    decay_mult: 0
  }
  convolution_param {
    num_output: 32
    kernel_size: 1
    weight_filler {
      type: "xavier"
      std: 0.2
    }
    bias_filler {
      type: "constant"
      value: 0.2
    }
  }
}
layer {
  name: "inception_4d/relu_5x5_reduce"
  type: "ReLU"
  bottom: "inception_4d/5x5_reduce"
  top: "inception_4d/5x5_reduce"
}
layer {
  name: "inception_4d/5x5"
  type: "Convolution"
  bottom: "inception_4d/5x5_reduce"
  top: "inception_4d/5x5"
  param {
    lr_mult: 1
    decay_mult: 1
  }
  param {
    lr_mult: 2
    decay_mult: 0
  }
  convolution_param {
    num_output: 64
    pad: 2
    kernel_size: 5
    weight_filler {
      type: "xavier"
      std: 0.03
    }
    bias_filler {
      type: "constant"
      value: 0.2
    }
  }
}
layer {
  name: "inception_4d/relu_5x5"
  type: "ReLU"
  bottom: "inception_4d/5x5"
  top: "inception_4d/5x5"
}
layer {
  name: "inception_4d/pool"
  type: "Pooling"
  bottom: "inception_4c/output"
  top: "inception_4d/pool"
  pooling_param {
    pool: MAX
    kernel_size: 3
    stride: 1
    pad: 1
  }
}
layer {
  name: "inception_4d/pool_proj"
  type: "Convolution"
  bottom: "inception_4d/pool"
  top: "inception_4d/pool_proj"
  param {
    lr_mult: 1
    decay_mult: 1
  }
  param {
    lr_mult: 2
    decay_mult: 0
  }
  convolution_param {
    num_output: 64
    kernel_size: 1
    weight_filler {
      type: "xavier"
      std: 0.1
    }
    bias_filler {
      type: "constant"
      value: 0.2
    }
  }
}
layer {
  name: "inception_4d/relu_pool_proj"
  type: "ReLU"
  bottom: "inception_4d/pool_proj"
  top: "inception_4d/pool_proj"
}
layer {
  name: "inception_4d/output"
  type: "Concat"
  bottom: "inception_4d/1x1"
  bottom: "inception_4d/3x3"
  bottom: "inception_4d/5x5"
  bottom: "inception_4d/pool_proj"
  top: "inception_4d/output"
}
layer {
  name: "inception_4e/1x1"
  type: "Convolution"
  bottom: "inception_4d/output"
  top: "inception_4e/1x1"
  param {
    lr_mult: 1
    decay_mult: 1
  }
  param {
    lr_mult: 2
    decay_mult: 0
  }
  convolution_param {
    num_output: 256
    kernel_size: 1
    weight_filler {
      type: "xavier"
      std: 0.03
    }
    bias_filler {
      type: "constant"
      value: 0.2
    }
  }
}
layer {
  name: "inception_4e/relu_1x1"
  type: "ReLU"
  bottom: "inception_4e/1x1"
  top: "inception_4e/1x1"
}
layer {
  name: "inception_4e/3x3_reduce"
  type: "Convolution"
  bottom: "inception_4d/output"
  top: "inception_4e/3x3_reduce"
  param {
    lr_mult: 1
    decay_mult: 1
  }
  param {
    lr_mult: 2
    decay_mult: 0
  }
  convolution_param {
    num_output: 160
    kernel_size: 1
    weight_filler {
      type: "xavier"
      std: 0.09
    }
    bias_filler {
      type: "constant"
      value: 0.2
    }
  }
}
layer {
  name: "inception_4e/relu_3x3_reduce"
  type: "ReLU"
  bottom: "inception_4e/3x3_reduce"
  top: "inception_4e/3x3_reduce"
}
layer {
  name: "inception_4e/3x3"
  type: "Convolution"
  bottom: "inception_4e/3x3_reduce"
  top: "inception_4e/3x3"
  param {
    lr_mult: 1
    decay_mult: 1
  }
  param {
    lr_mult: 2
    decay_mult: 0
  }
  convolution_param {
    num_output: 320
    pad: 1
    kernel_size: 3
    weight_filler {
      type: "xavier"
      std: 0.03
    }
    bias_filler {
      type: "constant"
      value: 0.2
    }
  }
}
layer {
  name: "inception_4e/relu_3x3"
  type: "ReLU"
  bottom: "inception_4e/3x3"
  top: "inception_4e/3x3"
}
layer {
  name: "inception_4e/5x5_reduce"
  type: "Convolution"
  bottom: "inception_4d/output"
  top: "inception_4e/5x5_reduce"
  param {
    lr_mult: 1
    decay_mult: 1
  }
  param {
    lr_mult: 2
    decay_mult: 0
  }
  convolution_param {
    num_output: 32
    kernel_size: 1
    weight_filler {
      type: "xavier"
      std: 0.2
    }
    bias_filler {
      type: "constant"
      value: 0.2
    }
  }
}
layer {
  name: "inception_4e/relu_5x5_reduce"
  type: "ReLU"
  bottom: "inception_4e/5x5_reduce"
  top: "inception_4e/5x5_reduce"
}
layer {
  name: "inception_4e/5x5"
  type: "Convolution"
  bottom: "inception_4e/5x5_reduce"
  top: "inception_4e/5x5"
  param {
    lr_mult: 1
    decay_mult: 1
  }
  param {
    lr_mult: 2
    decay_mult: 0
  }
  convolution_param {
    num_output: 128
    pad: 2
    kernel_size: 5
    weight_filler {
      type: "xavier"
      std: 0.03
    }
    bias_filler {
      type: "constant"
      value: 0.2
    }
  }
}
layer {
  name: "inception_4e/relu_5x5"
  type: "ReLU"
  bottom: "inception_4e/5x5"
  top: "inception_4e/5x5"
}
layer {
  name: "inception_4e/pool"
  type: "Pooling"
  bottom: "inception_4d/output"
  top: "inception_4e/pool"
  pooling_param {
    pool: MAX
    kernel_size: 3
    stride: 1
    pad: 1
  }
}
layer {
  name: "inception_4e/pool_proj"
  type: "Convolution"
  bottom: "inception_4e/pool"
  top: "inception_4e/pool_proj"
  param {
    lr_mult: 1
    decay_mult: 1
  }
  param {
    lr_mult: 2
    decay_mult: 0
  }
  convolution_param {
    num_output: 128
    kernel_size: 1
    weight_filler {
      type: "xavier"
      std: 0.1
    }
    bias_filler {
      type: "constant"
      value: 0.2
    }
  }
}
layer {
  name: "inception_4e/relu_pool_proj"
  type: "ReLU"
  bottom: "inception_4e/pool_proj"
  top: "inception_4e/pool_proj"
}
layer {
  name: "inception_4e/output"
  type: "Concat"
  bottom: "inception_4e/1x1"
  bottom: "inception_4e/3x3"
  bottom: "inception_4e/5x5"
  bottom: "inception_4e/pool_proj"
  top: "inception_4e/output"
}
layer {
  name: "pool4/3x3_s2"
  type: "Pooling"
  bottom: "inception_4e/output"
  top: "pool4/3x3_s2"
  pooling_param {
    pool: MAX
    kernel_size: 3
    stride: 2
  }
}
layer {
  name: "inception_5a/1x1"
  type: "Convolution"
  bottom: "pool4/3x3_s2"
  top: "inception_5a/1x1"
  param {
    lr_mult: 1
    decay_mult: 1
  }
  param {
    lr_mult: 2
    decay_mult: 0
  }
  convolution_param {
    num_output: 256
    kernel_size: 1
    weight_filler {
      type: "xavier"
      std: 0.03
    }
    bias_filler {
      type: "constant"
      value: 0.2
    }
  }
}
layer {
  name: "inception_5a/relu_1x1"
  type: "ReLU"
  bottom: "inception_5a/1x1"
  top: "inception_5a/1x1"
}
layer {
  name: "inception_5a/3x3_reduce"
  type: "Convolution"
  bottom: "pool4/3x3_s2"
  top: "inception_5a/3x3_reduce"
  param {
    lr_mult: 1
    decay_mult: 1
  }
  param {
    lr_mult: 2
    decay_mult: 0
  }
  convolution_param {
    num_output: 160
    kernel_size: 1
    weight_filler {
      type: "xavier"
      std: 0.09
    }
    bias_filler {
      type: "constant"
      value: 0.2
    }
  }
}
layer {
  name: "inception_5a/relu_3x3_reduce"
  type: "ReLU"
  bottom: "inception_5a/3x3_reduce"
  top: "inception_5a/3x3_reduce"
}
layer {
  name: "inception_5a/3x3"
  type: "Convolution"
  bottom: "inception_5a/3x3_reduce"
  top: "inception_5a/3x3"
  param {
    lr_mult: 1
    decay_mult: 1
  }
  param {
    lr_mult: 2
    decay_mult: 0
  }
  convolution_param {
    num_output: 320
    pad: 1
    kernel_size: 3
    weight_filler {
      type: "xavier"
      std: 0.03
    }
    bias_filler {
      type: "constant"
      value: 0.2
    }
  }
}
layer {
  name: "inception_5a/relu_3x3"
  type: "ReLU"
  bottom: "inception_5a/3x3"
  top: "inception_5a/3x3"
}
layer {
  name: "inception_5a/5x5_reduce"
  type: "Convolution"
  bottom: "pool4/3x3_s2"
  top: "inception_5a/5x5_reduce"
  param {
    lr_mult: 1
    decay_mult: 1
  }
  param {
    lr_mult: 2
    decay_mult: 0
  }
  convolution_param {
    num_output: 32
    kernel_size: 1
    weight_filler {
      type: "xavier"
      std: 0.2
    }
    bias_filler {
      type: "constant"
      value: 0.2
    }
I0903 16:38:31.262253 27404 layer_factory.hpp:77] Creating layer data
I0903 16:38:31.262275 27404 net.cpp:91] Creating Layer data
I0903 16:38:31.262289 27404 net.cpp:399] data -> data
I0903 16:38:32.175307 27408 net.cpp:141] Setting up data
I0903 16:38:32.175369 27408 net.cpp:148] Top shape: 10 3 224 224 (1505280)
I0903 16:38:32.175376 27408 net.cpp:156] Memory required for data: 6021120
I0903 16:38:32.175395 27408 layer_factory.hpp:77] Creating layer conv1/7x7_s2
I0903 16:38:32.175432 27408 net.cpp:91] Creating Layer conv1/7x7_s2
I0903 16:38:32.175441 27408 net.cpp:425] conv1/7x7_s2 <- data
I0903 16:38:32.175456 27408 net.cpp:399] conv1/7x7_s2 -> conv1/7x7_s2
I0903 16:38:32.198176 27404 net.cpp:141] Setting up data
I0903 16:38:32.198218 27404 net.cpp:148] Top shape: 10 3 224 224 (1505280)
I0903 16:38:32.198225 27404 net.cpp:156] Memory required for data: 6021120
I0903 16:38:32.198233 27404 layer_factory.hpp:77] Creating layer conv1/7x7_s2
I0903 16:38:32.198261 27404 net.cpp:91] Creating Layer conv1/7x7_s2
I0903 16:38:32.198267 27404 net.cpp:425] conv1/7x7_s2 <- data
I0903 16:38:32.198277 27404 net.cpp:399] conv1/7x7_s2 -> conv1/7x7_s2
I0903 16:38:32.488193 27408 net.cpp:141] Setting up conv1/7x7_s2
I0903 16:38:32.488234 27408 net.cpp:148] Top shape: 10 64 112 112 (8028160)
I0903 16:38:32.488240 27408 net.cpp:156] Memory required for data: 38133760
I0903 16:38:32.488265 27408 layer_factory.hpp:77] Creating layer conv1/relu_7x7
I0903 16:38:32.488291 27408 net.cpp:91] Creating Layer conv1/relu_7x7
I0903 16:38:32.488298 27408 net.cpp:425] conv1/relu_7x7 <- conv1/7x7_s2
I0903 16:38:32.488306 27408 net.cpp:386] conv1/relu_7x7 -> conv1/7x7_s2 (in-place)
I0903 16:38:32.488721 27408 net.cpp:141] Setting up conv1/relu_7x7
I0903 16:38:32.488735 27408 net.cpp:148] Top shape: 10 64 112 112 (8028160)
I0903 16:38:32.488740 27408 net.cpp:156] Memory required for data: 70246400
I0903 16:38:32.488745 27408 layer_factory.hpp:77] Creating layer pool1/3x3_s2
I0903 16:38:32.488759 27408 net.cpp:91] Creating Layer pool1/3x3_s2
I0903 16:38:32.488764 27408 net.cpp:425] pool1/3x3_s2 <- conv1/7x7_s2
I0903 16:38:32.488771 27408 net.cpp:399] pool1/3x3_s2 -> pool1/3x3_s2
I0903 16:38:32.493384 27408 net.cpp:141] Setting up pool1/3x3_s2
I0903 16:38:32.493405 27408 net.cpp:148] Top shape: 10 64 56 56 (2007040)
I0903 16:38:32.493412 27408 net.cpp:156] Memory required for data: 78274560
I0903 16:38:32.493417 27408 layer_factory.hpp:77] Creating layer pool1/norm1
I0903 16:38:32.493438 27408 net.cpp:91] Creating Layer pool1/norm1
I0903 16:38:32.493443 27408 net.cpp:425] pool1/norm1 <- pool1/3x3_s2
I0903 16:38:32.493451 27408 net.cpp:399] pool1/norm1 -> pool1/norm1
I0903 16:38:32.499797 27408 net.cpp:141] Setting up pool1/norm1
I0903 16:38:32.499817 27408 net.cpp:148] Top shape: 10 64 56 56 (2007040)
I0903 16:38:32.499824 27408 net.cpp:156] Memory required for data: 86302720
I0903 16:38:32.499830 27408 layer_factory.hpp:77] Creating layer conv2/3x3_reduce
I0903 16:38:32.499847 27408 net.cpp:91] Creating Layer conv2/3x3_reduce
I0903 16:38:32.499853 27408 net.cpp:425] conv2/3x3_reduce <- pool1/norm1
I0903 16:38:32.499862 27408 net.cpp:399] conv2/3x3_reduce -> conv2/3x3_reduce
I0903 16:38:32.505353 27404 net.cpp:141] Setting up conv1/7x7_s2
I0903 16:38:32.505375 27404 net.cpp:148] Top shape: 10 64 112 112 (8028160)
I0903 16:38:32.505381 27404 net.cpp:156] Memory required for data: 38133760
I0903 16:38:32.505398 27404 layer_factory.hpp:77] Creating layer conv1/relu_7x7
I0903 16:38:32.505409 27404 net.cpp:91] Creating Layer conv1/relu_7x7
I0903 16:38:32.505414 27404 net.cpp:425] conv1/relu_7x7 <- conv1/7x7_s2
I0903 16:38:32.505421 27404 net.cpp:386] conv1/relu_7x7 -> conv1/7x7_s2 (in-place)
I0903 16:38:32.505942 27404 net.cpp:141] Setting up conv1/relu_7x7
I0903 16:38:32.505959 27404 net.cpp:148] Top shape: 10 64 112 112 (8028160)
I0903 16:38:32.505964 27404 net.cpp:156] Memory required for data: 70246400
I0903 16:38:32.505970 27404 layer_factory.hpp:77] Creating layer pool1/3x3_s2
I0903 16:38:32.505980 27404 net.cpp:91] Creating Layer pool1/3x3_s2
I0903 16:38:32.505985 27404 net.cpp:425] pool1/3x3_s2 <- conv1/7x7_s2
I0903 16:38:32.505992 27404 net.cpp:399] pool1/3x3_s2 -> pool1/3x3_s2
I0903 16:38:32.506220 27404 net.cpp:141] Setting up pool1/3x3_s2
I0903 16:38:32.506240 27404 net.cpp:148] Top shape: 10 64 56 56 (2007040)
I0903 16:38:32.506244 27404 net.cpp:156] Memory required for data: 78274560
I0903 16:38:32.506249 27404 layer_factory.hpp:77] Creating layer pool1/norm1
I0903 16:38:32.506260 27404 net.cpp:91] Creating Layer pool1/norm1
I0903 16:38:32.506264 27404 net.cpp:425] pool1/norm1 <- pool1/3x3_s2
I0903 16:38:32.506271 27404 net.cpp:399] pool1/norm1 -> pool1/norm1
I0903 16:38:32.506738 27408 net.cpp:141] Setting up conv2/3x3_reduce
I0903 16:38:32.506744 27404 net.cpp:141] Setting up pool1/norm1
I0903 16:38:32.506760 27408 net.cpp:148] Top shape: 10 64 56 56 (2007040)
I0903 16:38:32.506763 27404 net.cpp:148] Top shape: 10 64 56 56 (2007040)
I0903 16:38:32.506767 27408 net.cpp:156] Memory required for data: 94330880
I0903 16:38:32.506768 27404 net.cpp:156] Memory required for data: 86302720
I0903 16:38:32.506773 27404 layer_factory.hpp:77] Creating layer conv2/3x3_reduce
I0903 16:38:32.506779 27408 layer_factory.hpp:77] Creating layer conv2/relu_3x3_reduce
I0903 16:38:32.506788 27404 net.cpp:91] Creating Layer conv2/3x3_reduce
I0903 16:38:32.506788 27408 net.cpp:91] Creating Layer conv2/relu_3x3_reduce
I0903 16:38:32.506793 27404 net.cpp:425] conv2/3x3_reduce <- pool1/norm1
I0903 16:38:32.506794 27408 net.cpp:425] conv2/relu_3x3_reduce <- conv2/3x3_reduce
I0903 16:38:32.506805 27404 net.cpp:399] conv2/3x3_reduce -> conv2/3x3_reduce
I0903 16:38:32.506814 27408 net.cpp:386] conv2/relu_3x3_reduce -> conv2/3x3_reduce (in-place)
I0903 16:38:32.507393 27408 net.cpp:141] Setting up conv2/relu_3x3_reduce
I0903 16:38:32.507406 27408 net.cpp:148] Top shape: 10 64 56 56 (2007040)
I0903 16:38:32.507411 27408 net.cpp:156] Memory required for data: 102359040
I0903 16:38:32.507416 27408 layer_factory.hpp:77] Creating layer conv2/3x3
I0903 16:38:32.507434 27408 net.cpp:91] Creating Layer conv2/3x3
I0903 16:38:32.507439 27408 net.cpp:425] conv2/3x3 <- conv2/3x3_reduce
I0903 16:38:32.507448 27408 net.cpp:399] conv2/3x3 -> conv2/3x3
I0903 16:38:32.510773 27404 net.cpp:141] Setting up conv2/3x3_reduce
I0903 16:38:32.510792 27404 net.cpp:148] Top shape: 10 64 56 56 (2007040)
I0903 16:38:32.510797 27404 net.cpp:156] Memory required for data: 94330880
I0903 16:38:32.510809 27404 layer_factory.hpp:77] Creating layer conv2/relu_3x3_reduce
I0903 16:38:32.510823 27404 net.cpp:91] Creating Layer conv2/relu_3x3_reduce
I0903 16:38:32.510828 27404 net.cpp:425] conv2/relu_3x3_reduce <- conv2/3x3_reduce
I0903 16:38:32.510834 27404 net.cpp:386] conv2/relu_3x3_reduce -> conv2/3x3_reduce (in-place)
I0903 16:38:32.511301 27404 net.cpp:141] Setting up conv2/relu_3x3_reduce
I0903 16:38:32.511314 27404 net.cpp:148] Top shape: 10 64 56 56 (2007040)
I0903 16:38:32.511319 27404 net.cpp:156] Memory required for data: 102359040
I0903 16:38:32.511324 27404 layer_factory.hpp:77] Creating layer conv2/3x3
I0903 16:38:32.511345 27404 net.cpp:91] Creating Layer conv2/3x3
I0903 16:38:32.511351 27404 net.cpp:425] conv2/3x3 <- conv2/3x3_reduce
I0903 16:38:32.511359 27404 net.cpp:399] conv2/3x3 -> conv2/3x3
I0903 16:38:32.513881 27408 net.cpp:141] Setting up conv2/3x3
I0903 16:38:32.513900 27408 net.cpp:148] Top shape: 10 192 56 56 (6021120)
I0903 16:38:32.513906 27408 net.cpp:156] Memory required for data: 126443520
I0903 16:38:32.513918 27408 layer_factory.hpp:77] Creating layer conv2/relu_3x3
I0903 16:38:32.513931 27408 net.cpp:91] Creating Layer conv2/relu_3x3
I0903 16:38:32.513936 27408 net.cpp:425] conv2/relu_3x3 <- conv2/3x3
I0903 16:38:32.513943 27408 net.cpp:386] conv2/relu_3x3 -> conv2/3x3 (in-place)
I0903 16:38:32.514255 27408 net.cpp:141] Setting up conv2/relu_3x3
I0903 16:38:32.514266 27408 net.cpp:148] Top shape: 10 192 56 56 (6021120)
I0903 16:38:32.514271 27408 net.cpp:156] Memory required for data: 150528000
I0903 16:38:32.514276 27408 layer_factory.hpp:77] Creating layer conv2/norm2
I0903 16:38:32.514295 27408 net.cpp:91] Creating Layer conv2/norm2
I0903 16:38:32.514300 27408 net.cpp:425] conv2/norm2 <- conv2/3x3
I0903 16:38:32.514309 27408 net.cpp:399] conv2/norm2 -> conv2/norm2
I0903 16:38:32.515049 27408 net.cpp:141] Setting up conv2/norm2
I0903 16:38:32.515064 27408 net.cpp:148] Top shape: 10 192 56 56 (6021120)
I0903 16:38:32.515069 27408 net.cpp:156] Memory required for data: 174612480
I0903 16:38:32.515074 27408 layer_factory.hpp:77] Creating layer pool2/3x3_s2
I0903 16:38:32.515086 27408 net.cpp:91] Creating Layer pool2/3x3_s2
I0903 16:38:32.515092 27408 net.cpp:425] pool2/3x3_s2 <- conv2/norm2
I0903 16:38:32.515100 27408 net.cpp:399] pool2/3x3_s2 -> pool2/3x3_s2
I0903 16:38:32.515507 27408 net.cpp:141] Setting up pool2/3x3_s2
I0903 16:38:32.515521 27408 net.cpp:148] Top shape: 10 192 28 28 (1505280)
I0903 16:38:32.515524 27408 net.cpp:156] Memory required for data: 180633600
I0903 16:38:32.515529 27408 layer_factory.hpp:77] Creating layer pool2/3x3_s2_pool2/3x3_s2_0_split
I0903 16:38:32.515547 27408 net.cpp:91] Creating Layer pool2/3x3_s2_pool2/3x3_s2_0_split
I0903 16:38:32.515552 27408 net.cpp:425] pool2/3x3_s2_pool2/3x3_s2_0_split <- pool2/3x3_s2
I0903 16:38:32.515561 27408 net.cpp:399] pool2/3x3_s2_pool2/3x3_s2_0_split -> pool2/3x3_s2_pool2/3x3_s2_0_split_0
I0903 16:38:32.515571 27408 net.cpp:399] pool2/3x3_s2_pool2/3x3_s2_0_split -> pool2/3x3_s2_pool2/3x3_s2_0_split_1
I0903 16:38:32.515579 27408 net.cpp:399] pool2/3x3_s2_pool2/3x3_s2_0_split -> pool2/3x3_s2_pool2/3x3_s2_0_split_2
I0903 16:38:32.515589 27408 net.cpp:399] pool2/3x3_s2_pool2/3x3_s2_0_split -> pool2/3x3_s2_pool2/3x3_s2_0_split_3
I0903 16:38:32.515856 27408 net.cpp:141] Setting up pool2/3x3_s2_pool2/3x3_s2_0_split
I0903 16:38:32.515872 27408 net.cpp:148] Top shape: 10 192 28 28 (1505280)
I0903 16:38:32.515878 27408 net.cpp:148] Top shape: 10 192 28 28 (1505280)
I0903 16:38:32.515883 27408 net.cpp:148] Top shape: 10 192 28 28 (1505280)
I0903 16:38:32.515889 27408 net.cpp:148] Top shape: 10 192 28 28 (1505280)
I0903 16:38:32.515892 27408 net.cpp:156] Memory required for data: 204718080
I0903 16:38:32.515897 27408 layer_factory.hpp:77] Creating layer inception_3a/1x1
I0903 16:38:32.515914 27408 net.cpp:91] Creating Layer inception_3a/1x1
I0903 16:38:32.515920 27408 net.cpp:425] inception_3a/1x1 <- pool2/3x3_s2_pool2/3x3_s2_0_split_0
I0903 16:38:32.515943 27408 net.cpp:399] inception_3a/1x1 -> inception_3a/1x1
I0903 16:38:32.516239 27404 net.cpp:141] Setting up conv2/3x3
I0903 16:38:32.516254 27404 net.cpp:148] Top shape: 10 192 56 56 (6021120)
I0903 16:38:32.516259 27404 net.cpp:156] Memory required for data: 126443520
I0903 16:38:32.516273 27404 layer_factory.hpp:77] Creating layer conv2/relu_3x3
I0903 16:38:32.516283 27404 net.cpp:91] Creating Layer conv2/relu_3x3
I0903 16:38:32.516288 27404 net.cpp:425] conv2/relu_3x3 <- conv2/3x3
I0903 16:38:32.516295 27404 net.cpp:386] conv2/relu_3x3 -> conv2/3x3 (in-place)
I0903 16:38:32.516661 27404 net.cpp:141] Setting up conv2/relu_3x3
I0903 16:38:32.516672 27404 net.cpp:148] Top shape: 10 192 56 56 (6021120)
I0903 16:38:32.516677 27404 net.cpp:156] Memory required for data: 150528000
I0903 16:38:32.516682 27404 layer_factory.hpp:77] Creating layer conv2/norm2
I0903 16:38:32.516693 27404 net.cpp:91] Creating Layer conv2/norm2
I0903 16:38:32.516698 27404 net.cpp:425] conv2/norm2 <- conv2/3x3
I0903 16:38:32.516705 27404 net.cpp:399] conv2/norm2 -> conv2/norm2
I0903 16:38:32.517391 27404 net.cpp:141] Setting up conv2/norm2
I0903 16:38:32.517405 27404 net.cpp:148] Top shape: 10 192 56 56 (6021120)
I0903 16:38:32.517408 27404 net.cpp:156] Memory required for data: 174612480
I0903 16:38:32.517415 27404 layer_factory.hpp:77] Creating layer pool2/3x3_s2
I0903 16:38:32.517432 27404 net.cpp:91] Creating Layer pool2/3x3_s2
I0903 16:38:32.517437 27404 net.cpp:425] pool2/3x3_s2 <- conv2/norm2
I0903 16:38:32.517446 27404 net.cpp:399] pool2/3x3_s2 -> pool2/3x3_s2
I0903 16:38:32.517881 27404 net.cpp:141] Setting up pool2/3x3_s2
I0903 16:38:32.517891 27404 net.cpp:148] Top shape: 10 192 28 28 (1505280)
I0903 16:38:32.517896 27404 net.cpp:156] Memory required for data: 180633600
I0903 16:38:32.517900 27404 layer_factory.hpp:77] Creating layer pool2/3x3_s2_pool2/3x3_s2_0_split
I0903 16:38:32.517917 27404 net.cpp:91] Creating Layer pool2/3x3_s2_pool2/3x3_s2_0_split
I0903 16:38:32.517922 27404 net.cpp:425] pool2/3x3_s2_pool2/3x3_s2_0_split <- pool2/3x3_s2
I0903 16:38:32.517930 27404 net.cpp:399] pool2/3x3_s2_pool2/3x3_s2_0_split -> pool2/3x3_s2_pool2/3x3_s2_0_split_0
I0903 16:38:32.517941 27404 net.cpp:399] pool2/3x3_s2_pool2/3x3_s2_0_split -> pool2/3x3_s2_pool2/3x3_s2_0_split_1
I0903 16:38:32.517949 27404 net.cpp:399] pool2/3x3_s2_pool2/3x3_s2_0_split -> pool2/3x3_s2_pool2/3x3_s2_0_split_2
I0903 16:38:32.517956 27404 net.cpp:399] pool2/3x3_s2_pool2/3x3_s2_0_split -> pool2/3x3_s2_pool2/3x3_s2_0_split_3
I0903 16:38:32.518282 27404 net.cpp:141] Setting up pool2/3x3_s2_pool2/3x3_s2_0_split
I0903 16:38:32.518293 27404 net.cpp:148] Top shape: 10 192 28 28 (1505280)
I0903 16:38:32.518299 27404 net.cpp:148] Top shape: 10 192 28 28 (1505280)
I0903 16:38:32.518304 27404 net.cpp:148] Top shape: 10 192 28 28 (1505280)
I0903 16:38:32.518309 27404 net.cpp:148] Top shape: 10 192 28 28 (1505280)
I0903 16:38:32.518313 27404 net.cpp:156] Memory required for data: 204718080
I0903 16:38:32.518318 27404 layer_factory.hpp:77] Creating layer inception_3a/1x1
I0903 16:38:32.518335 27404 net.cpp:91] Creating Layer inception_3a/1x1
I0903 16:38:32.518340 27404 net.cpp:425] inception_3a/1x1 <- pool2/3x3_s2_pool2/3x3_s2_0_split_0
I0903 16:38:32.518349 27404 net.cpp:399] inception_3a/1x1 -> inception_3a/1x1
I0903 16:38:32.519636 27408 net.cpp:141] Setting up inception_3a/1x1
I0903 16:38:32.519654 27408 net.cpp:148] Top shape: 10 64 28 28 (501760)
I0903 16:38:32.519659 27408 net.cpp:156] Memory required for data: 206725120
I0903 16:38:32.519667 27408 layer_factory.hpp:77] Creating layer inception_3a/relu_1x1
I0903 16:38:32.519680 27408 net.cpp:91] Creating Layer inception_3a/relu_1x1
I0903 16:38:32.519685 27408 net.cpp:425] inception_3a/relu_1x1 <- inception_3a/1x1
I0903 16:38:32.519691 27408 net.cpp:386] inception_3a/relu_1x1 -> inception_3a/1x1 (in-place)
I0903 16:38:32.520179 27408 net.cpp:141] Setting up inception_3a/relu_1x1
I0903 16:38:32.520193 27408 net.cpp:148] Top shape: 10 64 28 28 (501760)
I0903 16:38:32.520200 27408 net.cpp:156] Memory required for data: 208732160
I0903 16:38:32.520206 27408 layer_factory.hpp:77] Creating layer inception_3a/3x3_reduce
I0903 16:38:32.520220 27408 net.cpp:91] Creating Layer inception_3a/3x3_reduce
I0903 16:38:32.520226 27408 net.cpp:425] inception_3a/3x3_reduce <- pool2/3x3_s2_pool2/3x3_s2_0_split_1
I0903 16:38:32.520237 27408 net.cpp:399] inception_3a/3x3_reduce -> inception_3a/3x3_reduce
I0903 16:38:32.523093 27404 net.cpp:141] Setting up inception_3a/1x1
I0903 16:38:32.523113 27404 net.cpp:148] Top shape: 10 64 28 28 (501760)
I0903 16:38:32.523118 27404 net.cpp:156] Memory required for data: 206725120
I0903 16:38:32.523126 27404 layer_factory.hpp:77] Creating layer inception_3a/relu_1x1
I0903 16:38:32.523135 27404 net.cpp:91] Creating Layer inception_3a/relu_1x1
I0903 16:38:32.523141 27404 net.cpp:425] inception_3a/relu_1x1 <- inception_3a/1x1
I0903 16:38:32.523149 27404 net.cpp:386] inception_3a/relu_1x1 -> inception_3a/1x1 (in-place)
I0903 16:38:32.523576 27404 net.cpp:141] Setting up inception_3a/relu_1x1
I0903 16:38:32.523591 27404 net.cpp:148] Top shape: 10 64 28 28 (501760)
I0903 16:38:32.523596 27404 net.cpp:156] Memory required for data: 208732160
I0903 16:38:32.523600 27404 layer_factory.hpp:77] Creating layer inception_3a/3x3_reduce
I0903 16:38:32.523617 27404 net.cpp:91] Creating Layer inception_3a/3x3_reduce
I0903 16:38:32.523623 27404 net.cpp:425] inception_3a/3x3_reduce <- pool2/3x3_s2_pool2/3x3_s2_0_split_1
I0903 16:38:32.523634 27404 net.cpp:399] inception_3a/3x3_reduce -> inception_3a/3x3_reduce
I0903 16:38:32.526010 27408 net.cpp:141] Setting up inception_3a/3x3_reduce
I0903 16:38:32.526027 27408 net.cpp:148] Top shape: 10 96 28 28 (752640)
I0903 16:38:32.526032 27408 net.cpp:156] Memory required for data: 211742720
I0903 16:38:32.526046 27408 layer_factory.hpp:77] Creating layer inception_3a/relu_3x3_reduce
I0903 16:38:32.526054 27408 net.cpp:91] Creating Layer inception_3a/relu_3x3_reduce
I0903 16:38:32.526059 27408 net.cpp:425] inception_3a/relu_3x3_reduce <- inception_3a/3x3_reduce
I0903 16:38:32.526070 27408 net.cpp:386] inception_3a/relu_3x3_reduce -> inception_3a/3x3_reduce (in-place)
I0903 16:38:32.526348 27408 net.cpp:141] Setting up inception_3a/relu_3x3_reduce
I0903 16:38:32.526360 27408 net.cpp:148] Top shape: 10 96 28 28 (752640)
I0903 16:38:32.526365 27408 net.cpp:156] Memory required for data: 214753280
I0903 16:38:32.526370 27408 layer_factory.hpp:77] Creating layer inception_3a/3x3
I0903 16:38:32.526387 27408 net.cpp:91] Creating Layer inception_3a/3x3
I0903 16:38:32.526393 27408 net.cpp:425] inception_3a/3x3 <- inception_3a/3x3_reduce
I0903 16:38:32.526404 27408 net.cpp:399] inception_3a/3x3 -> inception_3a/3x3
I0903 16:38:32.528187 27404 net.cpp:141] Setting up inception_3a/3x3_reduce
I0903 16:38:32.528205 27404 net.cpp:148] Top shape: 10 96 28 28 (752640)
I0903 16:38:32.528210 27404 net.cpp:156] Memory required for data: 211742720
I0903 16:38:32.528223 27404 layer_factory.hpp:77] Creating layer inception_3a/relu_3x3_reduce
I0903 16:38:32.528241 27404 net.cpp:91] Creating Layer inception_3a/relu_3x3_reduce
I0903 16:38:32.528247 27404 net.cpp:425] inception_3a/relu_3x3_reduce <- inception_3a/3x3_reduce
I0903 16:38:32.528254 27404 net.cpp:386] inception_3a/relu_3x3_reduce -> inception_3a/3x3_reduce (in-place)
I0903 16:38:32.528517 27404 net.cpp:141] Setting up inception_3a/relu_3x3_reduce
I0903 16:38:32.528528 27404 net.cpp:148] Top shape: 10 96 28 28 (752640)
I0903 16:38:32.528533 27404 net.cpp:156] Memory required for data: 214753280
I0903 16:38:32.528537 27404 layer_factory.hpp:77] Creating layer inception_3a/3x3
I0903 16:38:32.528555 27404 net.cpp:91] Creating Layer inception_3a/3x3
I0903 16:38:32.528563 27404 net.cpp:425] inception_3a/3x3 <- inception_3a/3x3_reduce
I0903 16:38:32.528573 27404 net.cpp:399] inception_3a/3x3 -> inception_3a/3x3
I0903 16:38:32.529841 27408 net.cpp:141] Setting up inception_3a/3x3
I0903 16:38:32.529861 27408 net.cpp:148] Top shape: 10 128 28 28 (1003520)
I0903 16:38:32.529866 27408 net.cpp:156] Memory required for data: 218767360
I0903 16:38:32.529875 27408 layer_factory.hpp:77] Creating layer inception_3a/relu_3x3
I0903 16:38:32.529884 27408 net.cpp:91] Creating Layer inception_3a/relu_3x3
I0903 16:38:32.529891 27408 net.cpp:425] inception_3a/relu_3x3 <- inception_3a/3x3
I0903 16:38:32.529897 27408 net.cpp:386] inception_3a/relu_3x3 -> inception_3a/3x3 (in-place)
I0903 16:38:32.530310 27408 net.cpp:141] Setting up inception_3a/relu_3x3
I0903 16:38:32.530323 27408 net.cpp:148] Top shape: 10 128 28 28 (1003520)
I0903 16:38:32.530328 27408 net.cpp:156] Memory required for data: 222781440
I0903 16:38:32.530333 27408 layer_factory.hpp:77] Creating layer inception_3a/5x5_reduce
I0903 16:38:32.530349 27408 net.cpp:91] Creating Layer inception_3a/5x5_reduce
I0903 16:38:32.530355 27408 net.cpp:425] inception_3a/5x5_reduce <- pool2/3x3_s2_pool2/3x3_s2_0_split_2
I0903 16:38:32.530364 27408 net.cpp:399] inception_3a/5x5_reduce -> inception_3a/5x5_reduce
I0903 16:38:32.532553 27404 net.cpp:141] Setting up inception_3a/3x3
I0903 16:38:32.532570 27404 net.cpp:148] Top shape: 10 128 28 28 (1003520)
I0903 16:38:32.532575 27404 net.cpp:156] Memory required for data: 218767360
I0903 16:38:32.532584 27404 layer_factory.hpp:77] Creating layer inception_3a/relu_3x3
I0903 16:38:32.532593 27404 net.cpp:91] Creating Layer inception_3a/relu_3x3
I0903 16:38:32.532598 27404 net.cpp:425] inception_3a/relu_3x3 <- inception_3a/3x3
I0903 16:38:32.532610 27404 net.cpp:386] inception_3a/relu_3x3 -> inception_3a/3x3 (in-place)
I0903 16:38:32.533103 27404 net.cpp:141] Setting up inception_3a/relu_3x3
I0903 16:38:32.533118 27404 net.cpp:148] Top shape: 10 128 28 28 (1003520)
I0903 16:38:32.533123 27404 net.cpp:156] Memory required for data: 222781440
I0903 16:38:32.533128 27404 layer_factory.hpp:77] Creating layer inception_3a/5x5_reduce
I0903 16:38:32.533145 27404 net.cpp:91] Creating Layer inception_3a/5x5_reduce
I0903 16:38:32.533151 27404 net.cpp:425] inception_3a/5x5_reduce <- pool2/3x3_s2_pool2/3x3_s2_0_split_2
I0903 16:38:32.533162 27404 net.cpp:399] inception_3a/5x5_reduce -> inception_3a/5x5_reduce
I0903 16:38:32.533346 27408 net.cpp:141] Setting up inception_3a/5x5_reduce
I0903 16:38:32.533360 27408 net.cpp:148] Top shape: 10 16 28 28 (125440)
I0903 16:38:32.533365 27408 net.cpp:156] Memory required for data: 223283200
I0903 16:38:32.533375 27408 layer_factory.hpp:77] Creating layer inception_3a/relu_5x5_reduce
I0903 16:38:32.533385 27408 net.cpp:91] Creating Layer inception_3a/relu_5x5_reduce
I0903 16:38:32.533390 27408 net.cpp:425] inception_3a/relu_5x5_reduce <- inception_3a/5x5_reduce
I0903 16:38:32.533397 27408 net.cpp:386] inception_3a/relu_5x5_reduce -> inception_3a/5x5_reduce (in-place)
I0903 16:38:32.533947 27408 net.cpp:141] Setting up inception_3a/relu_5x5_reduce
I0903 16:38:32.533962 27408 net.cpp:148] Top shape: 10 16 28 28 (125440)
I0903 16:38:32.533967 27408 net.cpp:156] Memory required for data: 223784960
I0903 16:38:32.533972 27408 layer_factory.hpp:77] Creating layer inception_3a/5x5
I0903 16:38:32.533987 27408 net.cpp:91] Creating Layer inception_3a/5x5
I0903 16:38:32.533993 27408 net.cpp:425] inception_3a/5x5 <- inception_3a/5x5_reduce
I0903 16:38:32.534004 27408 net.cpp:399] inception_3a/5x5 -> inception_3a/5x5
I0903 16:38:32.536027 27404 net.cpp:141] Setting up inception_3a/5x5_reduce
I0903 16:38:32.536046 27404 net.cpp:148] Top shape: 10 16 28 28 (125440)
I0903 16:38:32.536052 27404 net.cpp:156] Memory required for data: 223283200
I0903 16:38:32.536061 27404 layer_factory.hpp:77] Creating layer inception_3a/relu_5x5_reduce
I0903 16:38:32.536075 27404 net.cpp:91] Creating Layer inception_3a/relu_5x5_reduce
I0903 16:38:32.536082 27404 net.cpp:425] inception_3a/relu_5x5_reduce <- inception_3a/5x5_reduce
I0903 16:38:32.536088 27404 net.cpp:386] inception_3a/relu_5x5_reduce -> inception_3a/5x5_reduce (in-place)
I0903 16:38:32.536505 27404 net.cpp:141] Setting up inception_3a/relu_5x5_reduce
I0903 16:38:32.536521 27404 net.cpp:148] Top shape: 10 16 28 28 (125440)
I0903 16:38:32.536526 27404 net.cpp:156] Memory required for data: 223784960
I0903 16:38:32.536531 27404 layer_factory.hpp:77] Creating layer inception_3a/5x5
I0903 16:38:32.536547 27404 net.cpp:91] Creating Layer inception_3a/5x5
I0903 16:38:32.536553 27404 net.cpp:425] inception_3a/5x5 <- inception_3a/5x5_reduce
I0903 16:38:32.536562 27404 net.cpp:399] inception_3a/5x5 -> inception_3a/5x5
I0903 16:38:32.537817 27408 net.cpp:141] Setting up inception_3a/5x5
I0903 16:38:32.537834 27408 net.cpp:148] Top shape: 10 32 28 28 (250880)
I0903 16:38:32.537839 27408 net.cpp:156] Memory required for data: 224788480
I0903 16:38:32.537848 27408 layer_factory.hpp:77] Creating layer inception_3a/relu_5x5
I0903 16:38:32.537858 27408 net.cpp:91] Creating Layer inception_3a/relu_5x5
I0903 16:38:32.537865 27408 net.cpp:425] inception_3a/relu_5x5 <- inception_3a/5x5
I0903 16:38:32.537873 27408 net.cpp:386] inception_3a/relu_5x5 -> inception_3a/5x5 (in-place)
I0903 16:38:32.538177 27408 net.cpp:141] Setting up inception_3a/relu_5x5
I0903 16:38:32.538188 27408 net.cpp:148] Top shape: 10 32 28 28 (250880)
I0903 16:38:32.538193 27408 net.cpp:156] Memory required for data: 225792000
I0903 16:38:32.538198 27408 layer_factory.hpp:77] Creating layer inception_3a/pool
I0903 16:38:32.538210 27408 net.cpp:91] Creating Layer inception_3a/pool
I0903 16:38:32.538216 27408 net.cpp:425] inception_3a/pool <- pool2/3x3_s2_pool2/3x3_s2_0_split_3
I0903 16:38:32.538224 27408 net.cpp:399] inception_3a/pool -> inception_3a/pool
I0903 16:38:32.538372 27408 net.cpp:141] Setting up inception_3a/pool
I0903 16:38:32.538381 27408 net.cpp:148] Top shape: 10 192 28 28 (1505280)
I0903 16:38:32.538386 27408 net.cpp:156] Memory required for data: 231813120
I0903 16:38:32.538390 27408 layer_factory.hpp:77] Creating layer inception_3a/pool_proj
I0903 16:38:32.538408 27408 net.cpp:91] Creating Layer inception_3a/pool_proj
I0903 16:38:32.538421 27408 net.cpp:425] inception_3a/pool_proj <- inception_3a/pool
I0903 16:38:32.538430 27408 net.cpp:399] inception_3a/pool_proj -> inception_3a/pool_proj
I0903 16:38:32.540523 27404 net.cpp:141] Setting up inception_3a/5x5
I0903 16:38:32.540540 27404 net.cpp:148] Top shape: 10 32 28 28 (250880)
I0903 16:38:32.540545 27404 net.cpp:156] Memory required for data: 224788480
I0903 16:38:32.540555 27404 layer_factory.hpp:77] Creating layer inception_3a/relu_5x5
I0903 16:38:32.540566 27404 net.cpp:91] Creating Layer inception_3a/relu_5x5
I0903 16:38:32.540572 27404 net.cpp:425] inception_3a/relu_5x5 <- inception_3a/5x5
I0903 16:38:32.540580 27404 net.cpp:386] inception_3a/relu_5x5 -> inception_3a/5x5 (in-place)
I0903 16:38:32.540873 27404 net.cpp:141] Setting up inception_3a/relu_5x5
I0903 16:38:32.540884 27404 net.cpp:148] Top shape: 10 32 28 28 (250880)
I0903 16:38:32.540889 27404 net.cpp:156] Memory required for data: 225792000
I0903 16:38:32.540894 27404 layer_factory.hpp:77] Creating layer inception_3a/pool
I0903 16:38:32.540902 27404 net.cpp:91] Creating Layer inception_3a/pool
I0903 16:38:32.540907 27404 net.cpp:425] inception_3a/pool <- pool2/3x3_s2_pool2/3x3_s2_0_split_3
I0903 16:38:32.540917 27404 net.cpp:399] inception_3a/pool -> inception_3a/pool
I0903 16:38:32.541064 27404 net.cpp:141] Setting up inception_3a/pool
I0903 16:38:32.541074 27404 net.cpp:148] Top shape: 10 192 28 28 (1505280)
I0903 16:38:32.541079 27404 net.cpp:156] Memory required for data: 231813120
I0903 16:38:32.541084 27404 layer_factory.hpp:77] Creating layer inception_3a/pool_proj
I0903 16:38:32.541103 27404 net.cpp:91] Creating Layer inception_3a/pool_proj
I0903 16:38:32.541110 27404 net.cpp:425] inception_3a/pool_proj <- inception_3a/pool
I0903 16:38:32.541117 27404 net.cpp:399] inception_3a/pool_proj -> inception_3a/pool_proj
I0903 16:38:32.541764 27408 net.cpp:141] Setting up inception_3a/pool_proj
I0903 16:38:32.541782 27408 net.cpp:148] Top shape: 10 32 28 28 (250880)
I0903 16:38:32.541788 27408 net.cpp:156] Memory required for data: 232816640
I0903 16:38:32.541801 27408 layer_factory.hpp:77] Creating layer inception_3a/relu_pool_proj
I0903 16:38:32.541815 27408 net.cpp:91] Creating Layer inception_3a/relu_pool_proj
I0903 16:38:32.541821 27408 net.cpp:425] inception_3a/relu_pool_proj <- inception_3a/pool_proj
I0903 16:38:32.541829 27408 net.cpp:386] inception_3a/relu_pool_proj -> inception_3a/pool_proj (in-place)
I0903 16:38:32.542337 27408 net.cpp:141] Setting up inception_3a/relu_pool_proj
I0903 16:38:32.542352 27408 net.cpp:148] Top shape: 10 32 28 28 (250880)
I0903 16:38:32.542357 27408 net.cpp:156] Memory required for data: 233820160
I0903 16:38:32.542362 27408 layer_factory.hpp:77] Creating layer inception_3a/output
I0903 16:38:32.542384 27408 net.cpp:91] Creating Layer inception_3a/output
I0903 16:38:32.542390 27408 net.cpp:425] inception_3a/output <- inception_3a/1x1
I0903 16:38:32.542397 27408 net.cpp:425] inception_3a/output <- inception_3a/3x3
I0903 16:38:32.542402 27408 net.cpp:425] inception_3a/output <- inception_3a/5x5
I0903 16:38:32.542407 27408 net.cpp:425] inception_3a/output <- inception_3a/pool_proj
I0903 16:38:32.542424 27408 net.cpp:399] inception_3a/output -> inception_3a/output
I0903 16:38:32.542594 27408 net.cpp:141] Setting up inception_3a/output
I0903 16:38:32.542605 27408 net.cpp:148] Top shape: 10 256 28 28 (2007040)
I0903 16:38:32.542609 27408 net.cpp:156] Memory required for data: 241848320
I0903 16:38:32.542614 27408 layer_factory.hpp:77] Creating layer inception_3a/output_inception_3a/output_0_split
I0903 16:38:32.542623 27408 net.cpp:91] Creating Layer inception_3a/output_inception_3a/output_0_split
I0903 16:38:32.542626 27408 net.cpp:425] inception_3a/output_inception_3a/output_0_split <- inception_3a/output
I0903 16:38:32.542636 27408 net.cpp:399] inception_3a/output_inception_3a/output_0_split -> inception_3a/output_inception_3a/output_0_split_0
I0903 16:38:32.542644 27408 net.cpp:399] inception_3a/output_inception_3a/output_0_split -> inception_3a/output_inception_3a/output_0_split_1
I0903 16:38:32.542652 27408 net.cpp:399] inception_3a/output_inception_3a/output_0_split -> inception_3a/output_inception_3a/output_0_split_2
I0903 16:38:32.542660 27408 net.cpp:399] inception_3a/output_inception_3a/output_0_split -> inception_3a/output_inception_3a/output_0_split_3
I0903 16:38:32.543200 27408 net.cpp:141] Setting up inception_3a/output_inception_3a/output_0_split
I0903 16:38:32.543210 27408 net.cpp:148] Top shape: 10 256 28 28 (2007040)
I0903 16:38:32.543216 27408 net.cpp:148] Top shape: 10 256 28 28 (2007040)
I0903 16:38:32.543221 27408 net.cpp:148] Top shape: 10 256 28 28 (2007040)
I0903 16:38:32.543226 27408 net.cpp:148] Top shape: 10 256 28 28 (2007040)
I0903 16:38:32.543231 27408 net.cpp:156] Memory required for data: 273960960
I0903 16:38:32.543234 27408 layer_factory.hpp:77] Creating layer inception_3b/1x1
I0903 16:38:32.543253 27408 net.cpp:91] Creating Layer inception_3b/1x1
I0903 16:38:32.543258 27408 net.cpp:425] inception_3b/1x1 <- inception_3a/output_inception_3a/output_0_split_0
I0903 16:38:32.543269 27408 net.cpp:399] inception_3b/1x1 -> inception_3b/1x1
I0903 16:38:32.544026 27404 net.cpp:141] Setting up inception_3a/pool_proj
I0903 16:38:32.544044 27404 net.cpp:148] Top shape: 10 32 28 28 (250880)
I0903 16:38:32.544049 27404 net.cpp:156] Memory required for data: 232816640
I0903 16:38:32.544064 27404 layer_factory.hpp:77] Creating layer inception_3a/relu_pool_proj
I0903 16:38:32.544082 27404 net.cpp:91] Creating Layer inception_3a/relu_pool_proj
I0903 16:38:32.544088 27404 net.cpp:425] inception_3a/relu_pool_proj <- inception_3a/pool_proj
I0903 16:38:32.544096 27404 net.cpp:386] inception_3a/relu_pool_proj -> inception_3a/pool_proj (in-place)
I0903 16:38:32.544569 27404 net.cpp:141] Setting up inception_3a/relu_pool_proj
I0903 16:38:32.544584 27404 net.cpp:148] Top shape: 10 32 28 28 (250880)
I0903 16:38:32.544589 27404 net.cpp:156] Memory required for data: 233820160
I0903 16:38:32.544595 27404 layer_factory.hpp:77] Creating layer inception_3a/output
I0903 16:38:32.544602 27404 net.cpp:91] Creating Layer inception_3a/output
I0903 16:38:32.544610 27404 net.cpp:425] inception_3a/output <- inception_3a/1x1
I0903 16:38:32.544616 27404 net.cpp:425] inception_3a/output <- inception_3a/3x3
I0903 16:38:32.544622 27404 net.cpp:425] inception_3a/output <- inception_3a/5x5
I0903 16:38:32.544627 27404 net.cpp:425] inception_3a/output <- inception_3a/pool_proj
I0903 16:38:32.544632 27404 net.cpp:399] inception_3a/output -> inception_3a/output
I0903 16:38:32.544734 27404 net.cpp:141] Setting up inception_3a/output
I0903 16:38:32.544744 27404 net.cpp:148] Top shape: 10 256 28 28 (2007040)
I0903 16:38:32.544749 27404 net.cpp:156] Memory required for data: 241848320
I0903 16:38:32.544754 27404 layer_factory.hpp:77] Creating layer inception_3a/output_inception_3a/output_0_split
I0903 16:38:32.544764 27404 net.cpp:91] Creating Layer inception_3a/output_inception_3a/output_0_split
I0903 16:38:32.544769 27404 net.cpp:425] inception_3a/output_inception_3a/output_0_split <- inception_3a/output
I0903 16:38:32.544775 27404 net.cpp:399] inception_3a/output_inception_3a/output_0_split -> inception_3a/output_inception_3a/output_0_split_0
I0903 16:38:32.544783 27404 net.cpp:399] inception_3a/output_inception_3a/output_0_split -> inception_3a/output_inception_3a/output_0_split_1
I0903 16:38:32.544790 27404 net.cpp:399] inception_3a/output_inception_3a/output_0_split -> inception_3a/output_inception_3a/output_0_split_2
I0903 16:38:32.544798 27404 net.cpp:399] inception_3a/output_inception_3a/output_0_split -> inception_3a/output_inception_3a/output_0_split_3
I0903 16:38:32.545343 27404 net.cpp:141] Setting up inception_3a/output_inception_3a/output_0_split
I0903 16:38:32.545354 27404 net.cpp:148] Top shape: 10 256 28 28 (2007040)
I0903 16:38:32.545361 27404 net.cpp:148] Top shape: 10 256 28 28 (2007040)
I0903 16:38:32.545366 27404 net.cpp:148] Top shape: 10 256 28 28 (2007040)
I0903 16:38:32.545370 27404 net.cpp:148] Top shape: 10 256 28 28 (2007040)
I0903 16:38:32.545374 27404 net.cpp:156] Memory required for data: 273960960
I0903 16:38:32.545378 27404 layer_factory.hpp:77] Creating layer inception_3b/1x1
I0903 16:38:32.545397 27404 net.cpp:91] Creating Layer inception_3b/1x1
I0903 16:38:32.545402 27404 net.cpp:425] inception_3b/1x1 <- inception_3a/output_inception_3a/output_0_split_0
I0903 16:38:32.545409 27404 net.cpp:399] inception_3b/1x1 -> inception_3b/1x1
I0903 16:38:32.546185 27408 net.cpp:141] Setting up inception_3b/1x1
I0903 16:38:32.546201 27408 net.cpp:148] Top shape: 10 128 28 28 (1003520)
I0903 16:38:32.546206 27408 net.cpp:156] Memory required for data: 277975040
I0903 16:38:32.546216 27408 layer_factory.hpp:77] Creating layer inception_3b/relu_1x1
I0903 16:38:32.546226 27408 net.cpp:91] Creating Layer inception_3b/relu_1x1
I0903 16:38:32.546232 27408 net.cpp:425] inception_3b/relu_1x1 <- inception_3b/1x1
I0903 16:38:32.546239 27408 net.cpp:386] inception_3b/relu_1x1 -> inception_3b/1x1 (in-place)
I0903 16:38:32.546730 27408 net.cpp:141] Setting up inception_3b/relu_1x1
I0903 16:38:32.546746 27408 net.cpp:148] Top shape: 10 128 28 28 (1003520)
I0903 16:38:32.546751 27408 net.cpp:156] Memory required for data: 281989120
I0903 16:38:32.546756 27408 layer_factory.hpp:77] Creating layer inception_3b/3x3_reduce
I0903 16:38:32.546771 27408 net.cpp:91] Creating Layer inception_3b/3x3_reduce
I0903 16:38:32.546777 27408 net.cpp:425] inception_3b/3x3_reduce <- inception_3a/output_inception_3a/output_0_split_1
I0903 16:38:32.546788 27408 net.cpp:399] inception_3b/3x3_reduce -> inception_3b/3x3_reduce
I0903 16:38:32.548614 27404 net.cpp:141] Setting up inception_3b/1x1
I0903 16:38:32.548634 27404 net.cpp:148] Top shape: 10 128 28 28 (1003520)
I0903 16:38:32.548640 27404 net.cpp:156] Memory required for data: 277975040
I0903 16:38:32.548648 27404 layer_factory.hpp:77] Creating layer inception_3b/relu_1x1
I0903 16:38:32.548656 27404 net.cpp:91] Creating Layer inception_3b/relu_1x1
I0903 16:38:32.548662 27404 net.cpp:425] inception_3b/relu_1x1 <- inception_3b/1x1
I0903 16:38:32.548669 27404 net.cpp:386] inception_3b/relu_1x1 -> inception_3b/1x1 (in-place)
I0903 16:38:32.549131 27404 net.cpp:141] Setting up inception_3b/relu_1x1
I0903 16:38:32.549147 27404 net.cpp:148] Top shape: 10 128 28 28 (1003520)
I0903 16:38:32.549151 27404 net.cpp:156] Memory required for data: 281989120
I0903 16:38:32.549156 27404 layer_factory.hpp:77] Creating layer inception_3b/3x3_reduce
I0903 16:38:32.549173 27404 net.cpp:91] Creating Layer inception_3b/3x3_reduce
I0903 16:38:32.549180 27404 net.cpp:425] inception_3b/3x3_reduce <- inception_3a/output_inception_3a/output_0_split_1
I0903 16:38:32.549188 27404 net.cpp:399] inception_3b/3x3_reduce -> inception_3b/3x3_reduce
I0903 16:38:32.549880 27408 net.cpp:141] Setting up inception_3b/3x3_reduce
I0903 16:38:32.549897 27408 net.cpp:148] Top shape: 10 128 28 28 (1003520)
I0903 16:38:32.549902 27408 net.cpp:156] Memory required for data: 286003200
I0903 16:38:32.549912 27408 layer_factory.hpp:77] Creating layer inception_3b/relu_3x3_reduce
I0903 16:38:32.549932 27408 net.cpp:91] Creating Layer inception_3b/relu_3x3_reduce
I0903 16:38:32.549937 27408 net.cpp:425] inception_3b/relu_3x3_reduce <- inception_3b/3x3_reduce
I0903 16:38:32.549947 27408 net.cpp:386] inception_3b/relu_3x3_reduce -> inception_3b/3x3_reduce (in-place)
I0903 16:38:32.550292 27408 net.cpp:141] Setting up inception_3b/relu_3x3_reduce
I0903 16:38:32.550304 27408 net.cpp:148] Top shape: 10 128 28 28 (1003520)
I0903 16:38:32.550308 27408 net.cpp:156] Memory required for data: 290017280
I0903 16:38:32.550313 27408 layer_factory.hpp:77] Creating layer inception_3b/3x3
I0903 16:38:32.550330 27408 net.cpp:91] Creating Layer inception_3b/3x3
I0903 16:38:32.550338 27408 net.cpp:425] inception_3b/3x3 <- inception_3b/3x3_reduce
I0903 16:38:32.550346 27408 net.cpp:399] inception_3b/3x3 -> inception_3b/3x3
I0903 16:38:32.552695 27404 net.cpp:141] Setting up inception_3b/3x3_reduce
I0903 16:38:32.552712 27404 net.cpp:148] Top shape: 10 128 28 28 (1003520)
I0903 16:38:32.552717 27404 net.cpp:156] Memory required for data: 286003200
I0903 16:38:32.552726 27404 layer_factory.hpp:77] Creating layer inception_3b/relu_3x3_reduce
I0903 16:38:32.552737 27404 net.cpp:91] Creating Layer inception_3b/relu_3x3_reduce
I0903 16:38:32.552743 27404 net.cpp:425] inception_3b/relu_3x3_reduce <- inception_3b/3x3_reduce
I0903 16:38:32.552750 27404 net.cpp:386] inception_3b/relu_3x3_reduce -> inception_3b/3x3_reduce (in-place)
I0903 16:38:32.552991 27404 net.cpp:141] Setting up inception_3b/relu_3x3_reduce
I0903 16:38:32.553002 27404 net.cpp:148] Top shape: 10 128 28 28 (1003520)
I0903 16:38:32.553006 27404 net.cpp:156] Memory required for data: 290017280
I0903 16:38:32.553011 27404 layer_factory.hpp:77] Creating layer inception_3b/3x3
I0903 16:38:32.553032 27404 net.cpp:91] Creating Layer inception_3b/3x3
I0903 16:38:32.553037 27404 net.cpp:425] inception_3b/3x3 <- inception_3b/3x3_reduce
I0903 16:38:32.553046 27404 net.cpp:399] inception_3b/3x3 -> inception_3b/3x3
I0903 16:38:32.555727 27408 net.cpp:141] Setting up inception_3b/3x3
I0903 16:38:32.555747 27408 net.cpp:148] Top shape: 10 192 28 28 (1505280)
I0903 16:38:32.555752 27408 net.cpp:156] Memory required for data: 296038400
I0903 16:38:32.555760 27408 layer_factory.hpp:77] Creating layer inception_3b/relu_3x3
I0903 16:38:32.555773 27408 net.cpp:91] Creating Layer inception_3b/relu_3x3
I0903 16:38:32.555778 27408 net.cpp:425] inception_3b/relu_3x3 <- inception_3b/3x3
I0903 16:38:32.555789 27408 net.cpp:386] inception_3b/relu_3x3 -> inception_3b/3x3 (in-place)
I0903 16:38:32.556296 27408 net.cpp:141] Setting up inception_3b/relu_3x3
I0903 16:38:32.556313 27408 net.cpp:148] Top shape: 10 192 28 28 (1505280)
I0903 16:38:32.556318 27408 net.cpp:156] Memory required for data: 302059520
I0903 16:38:32.556323 27408 layer_factory.hpp:77] Creating layer inception_3b/5x5_reduce
I0903 16:38:32.556347 27408 net.cpp:91] Creating Layer inception_3b/5x5_reduce
I0903 16:38:32.556354 27408 net.cpp:425] inception_3b/5x5_reduce <- inception_3a/output_inception_3a/output_0_split_2
I0903 16:38:32.556365 27408 net.cpp:399] inception_3b/5x5_reduce -> inception_3b/5x5_reduce
I0903 16:38:32.558516 27404 net.cpp:141] Setting up inception_3b/3x3
I0903 16:38:32.558532 27404 net.cpp:148] Top shape: 10 192 28 28 (1505280)
I0903 16:38:32.558537 27404 net.cpp:156] Memory required for data: 296038400
I0903 16:38:32.558547 27404 layer_factory.hpp:77] Creating layer inception_3b/relu_3x3
I0903 16:38:32.558573 27404 net.cpp:91] Creating Layer inception_3b/relu_3x3
I0903 16:38:32.558578 27404 net.cpp:425] inception_3b/relu_3x3 <- inception_3b/3x3
I0903 16:38:32.558586 27404 net.cpp:386] inception_3b/relu_3x3 -> inception_3b/3x3 (in-place)
I0903 16:38:32.559149 27404 net.cpp:141] Setting up inception_3b/relu_3x3
I0903 16:38:32.559164 27404 net.cpp:148] Top shape: 10 192 28 28 (1505280)
I0903 16:38:32.559167 27404 net.cpp:156] Memory required for data: 302059520
I0903 16:38:32.559173 27404 layer_factory.hpp:77] Creating layer inception_3b/5x5_reduce
I0903 16:38:32.559195 27404 net.cpp:91] Creating Layer inception_3b/5x5_reduce
I0903 16:38:32.559201 27404 net.cpp:425] inception_3b/5x5_reduce <- inception_3a/output_inception_3a/output_0_split_2
I0903 16:38:32.559211 27404 net.cpp:399] inception_3b/5x5_reduce -> inception_3b/5x5_reduce
I0903 16:38:32.559259 27408 net.cpp:141] Setting up inception_3b/5x5_reduce
I0903 16:38:32.559275 27408 net.cpp:148] Top shape: 10 32 28 28 (250880)
I0903 16:38:32.559280 27408 net.cpp:156] Memory required for data: 303063040
I0903 16:38:32.559289 27408 layer_factory.hpp:77] Creating layer inception_3b/relu_5x5_reduce
I0903 16:38:32.559298 27408 net.cpp:91] Creating Layer inception_3b/relu_5x5_reduce
I0903 16:38:32.559303 27408 net.cpp:425] inception_3b/relu_5x5_reduce <- inception_3b/5x5_reduce
I0903 16:38:32.559310 27408 net.cpp:386] inception_3b/relu_5x5_reduce -> inception_3b/5x5_reduce (in-place)
I0903 16:38:32.559857 27408 net.cpp:141] Setting up inception_3b/relu_5x5_reduce
I0903 16:38:32.559872 27408 net.cpp:148] Top shape: 10 32 28 28 (250880)
I0903 16:38:32.559877 27408 net.cpp:156] Memory required for data: 304066560
I0903 16:38:32.559882 27408 layer_factory.hpp:77] Creating layer inception_3b/5x5
I0903 16:38:32.559898 27408 net.cpp:91] Creating Layer inception_3b/5x5
I0903 16:38:32.559906 27408 net.cpp:425] inception_3b/5x5 <- inception_3b/5x5_reduce
I0903 16:38:32.559913 27408 net.cpp:399] inception_3b/5x5 -> inception_3b/5x5
I0903 16:38:32.562340 27404 net.cpp:141] Setting up inception_3b/5x5_reduce
I0903 16:38:32.562357 27404 net.cpp:148] Top shape: 10 32 28 28 (250880)
I0903 16:38:32.562362 27404 net.cpp:156] Memory required for data: 303063040
I0903 16:38:32.562371 27404 layer_factory.hpp:77] Creating layer inception_3b/relu_5x5_reduce
I0903 16:38:32.562381 27404 net.cpp:91] Creating Layer inception_3b/relu_5x5_reduce
I0903 16:38:32.562386 27404 net.cpp:425] inception_3b/relu_5x5_reduce <- inception_3b/5x5_reduce
I0903 16:38:32.562397 27404 net.cpp:386] inception_3b/relu_5x5_reduce -> inception_3b/5x5_reduce (in-place)
I0903 16:38:32.562851 27404 net.cpp:141] Setting up inception_3b/relu_5x5_reduce
I0903 16:38:32.562866 27404 net.cpp:148] Top shape: 10 32 28 28 (250880)
I0903 16:38:32.562871 27404 net.cpp:156] Memory required for data: 304066560
I0903 16:38:32.562876 27404 layer_factory.hpp:77] Creating layer inception_3b/5x5
I0903 16:38:32.562894 27404 net.cpp:91] Creating Layer inception_3b/5x5
I0903 16:38:32.562901 27404 net.cpp:425] inception_3b/5x5 <- inception_3b/5x5_reduce
I0903 16:38:32.562911 27404 net.cpp:399] inception_3b/5x5 -> inception_3b/5x5
I0903 16:38:32.565296 27408 net.cpp:141] Setting up inception_3b/5x5
I0903 16:38:32.565315 27408 net.cpp:148] Top shape: 10 96 28 28 (752640)
I0903 16:38:32.565320 27408 net.cpp:156] Memory required for data: 307077120
I0903 16:38:32.565328 27408 layer_factory.hpp:77] Creating layer inception_3b/relu_5x5
I0903 16:38:32.565340 27408 net.cpp:91] Creating Layer inception_3b/relu_5x5
I0903 16:38:32.565345 27408 net.cpp:425] inception_3b/relu_5x5 <- inception_3b/5x5
I0903 16:38:32.565352 27408 net.cpp:386] inception_3b/relu_5x5 -> inception_3b/5x5 (in-place)
I0903 16:38:32.565673 27408 net.cpp:141] Setting up inception_3b/relu_5x5
I0903 16:38:32.565685 27408 net.cpp:148] Top shape: 10 96 28 28 (752640)
I0903 16:38:32.565690 27408 net.cpp:156] Memory required for data: 310087680
I0903 16:38:32.565695 27408 layer_factory.hpp:77] Creating layer inception_3b/pool
I0903 16:38:32.565703 27408 net.cpp:91] Creating Layer inception_3b/pool
I0903 16:38:32.565708 27408 net.cpp:425] inception_3b/pool <- inception_3a/output_inception_3a/output_0_split_3
I0903 16:38:32.565718 27408 net.cpp:399] inception_3b/pool -> inception_3b/pool
I0903 16:38:32.566076 27408 net.cpp:141] Setting up inception_3b/pool
I0903 16:38:32.566089 27408 net.cpp:148] Top shape: 10 256 28 28 (2007040)
I0903 16:38:32.566093 27408 net.cpp:156] Memory required for data: 318115840
I0903 16:38:32.566098 27408 layer_factory.hpp:77] Creating layer inception_3b/pool_proj
I0903 16:38:32.566113 27408 net.cpp:91] Creating Layer inception_3b/pool_proj
I0903 16:38:32.566119 27408 net.cpp:425] inception_3b/pool_proj <- inception_3b/pool
I0903 16:38:32.566128 27408 net.cpp:399] inception_3b/pool_proj -> inception_3b/pool_proj
I0903 16:38:32.567903 27404 net.cpp:141] Setting up inception_3b/5x5
I0903 16:38:32.567924 27404 net.cpp:148] Top shape: 10 96 28 28 (752640)
I0903 16:38:32.567929 27404 net.cpp:156] Memory required for data: 307077120
I0903 16:38:32.567939 27404 layer_factory.hpp:77] Creating layer inception_3b/relu_5x5
I0903 16:38:32.567947 27404 net.cpp:91] Creating Layer inception_3b/relu_5x5
I0903 16:38:32.567953 27404 net.cpp:425] inception_3b/relu_5x5 <- inception_3b/5x5
I0903 16:38:32.567960 27404 net.cpp:386] inception_3b/relu_5x5 -> inception_3b/5x5 (in-place)
I0903 16:38:32.568282 27404 net.cpp:141] Setting up inception_3b/relu_5x5
I0903 16:38:32.568295 27404 net.cpp:148] Top shape: 10 96 28 28 (752640)
I0903 16:38:32.568300 27404 net.cpp:156] Memory required for data: 310087680
I0903 16:38:32.568305 27404 layer_factory.hpp:77] Creating layer inception_3b/pool
I0903 16:38:32.568315 27404 net.cpp:91] Creating Layer inception_3b/pool
I0903 16:38:32.568320 27404 net.cpp:425] inception_3b/pool <- inception_3a/output_inception_3a/output_0_split_3
I0903 16:38:32.568336 27404 net.cpp:399] inception_3b/pool -> inception_3b/pool
I0903 16:38:32.568475 27404 net.cpp:141] Setting up inception_3b/pool
I0903 16:38:32.568485 27404 net.cpp:148] Top shape: 10 256 28 28 (2007040)
I0903 16:38:32.568490 27404 net.cpp:156] Memory required for data: 318115840
I0903 16:38:32.568495 27404 layer_factory.hpp:77] Creating layer inception_3b/pool_proj
I0903 16:38:32.568509 27404 net.cpp:91] Creating Layer inception_3b/pool_proj
I0903 16:38:32.568514 27404 net.cpp:425] inception_3b/pool_proj <- inception_3b/pool
I0903 16:38:32.568529 27404 net.cpp:399] inception_3b/pool_proj -> inception_3b/pool_proj
I0903 16:38:32.569367 27408 net.cpp:141] Setting up inception_3b/pool_proj
I0903 16:38:32.569383 27408 net.cpp:148] Top shape: 10 64 28 28 (501760)
I0903 16:38:32.569388 27408 net.cpp:156] Memory required for data: 320122880
I0903 16:38:32.569397 27408 layer_factory.hpp:77] Creating layer inception_3b/relu_pool_proj
I0903 16:38:32.569417 27408 net.cpp:91] Creating Layer inception_3b/relu_pool_proj
I0903 16:38:32.569423 27408 net.cpp:425] inception_3b/relu_pool_proj <- inception_3b/pool_proj
I0903 16:38:32.569430 27408 net.cpp:386] inception_3b/relu_pool_proj -> inception_3b/pool_proj (in-place)
I0903 16:38:32.569939 27408 net.cpp:141] Setting up inception_3b/relu_pool_proj
I0903 16:38:32.569954 27408 net.cpp:148] Top shape: 10 64 28 28 (501760)
I0903 16:38:32.569959 27408 net.cpp:156] Memory required for data: 322129920
I0903 16:38:32.569964 27408 layer_factory.hpp:77] Creating layer inception_3b/output
I0903 16:38:32.569977 27408 net.cpp:91] Creating Layer inception_3b/output
I0903 16:38:32.569983 27408 net.cpp:425] inception_3b/output <- inception_3b/1x1
I0903 16:38:32.569989 27408 net.cpp:425] inception_3b/output <- inception_3b/3x3
I0903 16:38:32.569994 27408 net.cpp:425] inception_3b/output <- inception_3b/5x5
I0903 16:38:32.570000 27408 net.cpp:425] inception_3b/output <- inception_3b/pool_proj
I0903 16:38:32.570006 27408 net.cpp:399] inception_3b/output -> inception_3b/output
I0903 16:38:32.570269 27408 net.cpp:141] Setting up inception_3b/output
I0903 16:38:32.570281 27408 net.cpp:148] Top shape: 10 480 28 28 (3763200)
I0903 16:38:32.570284 27408 net.cpp:156] Memory required for data: 337182720
I0903 16:38:32.570289 27408 layer_factory.hpp:77] Creating layer pool3/3x3_s2
I0903 16:38:32.570303 27408 net.cpp:91] Creating Layer pool3/3x3_s2
I0903 16:38:32.570309 27408 net.cpp:425] pool3/3x3_s2 <- inception_3b/output
I0903 16:38:32.570318 27408 net.cpp:399] pool3/3x3_s2 -> pool3/3x3_s2
I0903 16:38:32.570760 27408 net.cpp:141] Setting up pool3/3x3_s2
I0903 16:38:32.570772 27408 net.cpp:148] Top shape: 10 480 14 14 (940800)
I0903 16:38:32.570776 27408 net.cpp:156] Memory required for data: 340945920
I0903 16:38:32.570781 27408 layer_factory.hpp:77] Creating layer pool3/3x3_s2_pool3/3x3_s2_0_split
I0903 16:38:32.570791 27408 net.cpp:91] Creating Layer pool3/3x3_s2_pool3/3x3_s2_0_split
I0903 16:38:32.570796 27408 net.cpp:425] pool3/3x3_s2_pool3/3x3_s2_0_split <- pool3/3x3_s2
I0903 16:38:32.570804 27408 net.cpp:399] pool3/3x3_s2_pool3/3x3_s2_0_split -> pool3/3x3_s2_pool3/3x3_s2_0_split_0
I0903 16:38:32.570812 27408 net.cpp:399] pool3/3x3_s2_pool3/3x3_s2_0_split -> pool3/3x3_s2_pool3/3x3_s2_0_split_1
I0903 16:38:32.570821 27408 net.cpp:399] pool3/3x3_s2_pool3/3x3_s2_0_split -> pool3/3x3_s2_pool3/3x3_s2_0_split_2
I0903 16:38:32.570827 27408 net.cpp:399] pool3/3x3_s2_pool3/3x3_s2_0_split -> pool3/3x3_s2_pool3/3x3_s2_0_split_3
I0903 16:38:32.571178 27408 net.cpp:141] Setting up pool3/3x3_s2_pool3/3x3_s2_0_split
I0903 16:38:32.571189 27408 net.cpp:148] Top shape: 10 480 14 14 (940800)
I0903 16:38:32.571195 27408 net.cpp:148] Top shape: 10 480 14 14 (940800)
I0903 16:38:32.571200 27408 net.cpp:148] Top shape: 10 480 14 14 (940800)
I0903 16:38:32.571205 27408 net.cpp:148] Top shape: 10 480 14 14 (940800)
I0903 16:38:32.571209 27408 net.cpp:156] Memory required for data: 355998720
I0903 16:38:32.571214 27408 layer_factory.hpp:77] Creating layer inception_4a/1x1
I0903 16:38:32.571229 27408 net.cpp:91] Creating Layer inception_4a/1x1
I0903 16:38:32.571235 27408 net.cpp:425] inception_4a/1x1 <- pool3/3x3_s2_pool3/3x3_s2_0_split_0
I0903 16:38:32.571244 27408 net.cpp:399] inception_4a/1x1 -> inception_4a/1x1
I0903 16:38:32.571689 27404 net.cpp:141] Setting up inception_3b/pool_proj
I0903 16:38:32.571705 27404 net.cpp:148] Top shape: 10 64 28 28 (501760)
I0903 16:38:32.571710 27404 net.cpp:156] Memory required for data: 320122880
I0903 16:38:32.571719 27404 layer_factory.hpp:77] Creating layer inception_3b/relu_pool_proj
I0903 16:38:32.571732 27404 net.cpp:91] Creating Layer inception_3b/relu_pool_proj
I0903 16:38:32.571738 27404 net.cpp:425] inception_3b/relu_pool_proj <- inception_3b/pool_proj
I0903 16:38:32.571745 27404 net.cpp:386] inception_3b/relu_pool_proj -> inception_3b/pool_proj (in-place)
I0903 16:38:32.572198 27404 net.cpp:141] Setting up inception_3b/relu_pool_proj
I0903 16:38:32.572216 27404 net.cpp:148] Top shape: 10 64 28 28 (501760)
I0903 16:38:32.572219 27404 net.cpp:156] Memory required for data: 322129920
I0903 16:38:32.572224 27404 layer_factory.hpp:77] Creating layer inception_3b/output
I0903 16:38:32.572237 27404 net.cpp:91] Creating Layer inception_3b/output
I0903 16:38:32.572242 27404 net.cpp:425] inception_3b/output <- inception_3b/1x1
I0903 16:38:32.572248 27404 net.cpp:425] inception_3b/output <- inception_3b/3x3
I0903 16:38:32.572254 27404 net.cpp:425] inception_3b/output <- inception_3b/5x5
I0903 16:38:32.572259 27404 net.cpp:425] inception_3b/output <- inception_3b/pool_proj
I0903 16:38:32.572269 27404 net.cpp:399] inception_3b/output -> inception_3b/output
I0903 16:38:32.572331 27404 net.cpp:141] Setting up inception_3b/output
I0903 16:38:32.572340 27404 net.cpp:148] Top shape: 10 480 28 28 (3763200)
I0903 16:38:32.572345 27404 net.cpp:156] Memory required for data: 337182720
I0903 16:38:32.572350 27404 layer_factory.hpp:77] Creating layer pool3/3x3_s2
I0903 16:38:32.572357 27404 net.cpp:91] Creating Layer pool3/3x3_s2
I0903 16:38:32.572362 27404 net.cpp:425] pool3/3x3_s2 <- inception_3b/output
I0903 16:38:32.572371 27404 net.cpp:399] pool3/3x3_s2 -> pool3/3x3_s2
I0903 16:38:32.572463 27404 net.cpp:141] Setting up pool3/3x3_s2
I0903 16:38:32.572474 27404 net.cpp:148] Top shape: 10 480 14 14 (940800)
I0903 16:38:32.572479 27404 net.cpp:156] Memory required for data: 340945920
I0903 16:38:32.572482 27404 layer_factory.hpp:77] Creating layer pool3/3x3_s2_pool3/3x3_s2_0_split
I0903 16:38:32.572494 27404 net.cpp:91] Creating Layer pool3/3x3_s2_pool3/3x3_s2_0_split
I0903 16:38:32.572497 27404 net.cpp:425] pool3/3x3_s2_pool3/3x3_s2_0_split <- pool3/3x3_s2
I0903 16:38:32.572504 27404 net.cpp:399] pool3/3x3_s2_pool3/3x3_s2_0_split -> pool3/3x3_s2_pool3/3x3_s2_0_split_0
I0903 16:38:32.572512 27404 net.cpp:399] pool3/3x3_s2_pool3/3x3_s2_0_split -> pool3/3x3_s2_pool3/3x3_s2_0_split_1
I0903 16:38:32.572520 27404 net.cpp:399] pool3/3x3_s2_pool3/3x3_s2_0_split -> pool3/3x3_s2_pool3/3x3_s2_0_split_2
I0903 16:38:32.572527 27404 net.cpp:399] pool3/3x3_s2_pool3/3x3_s2_0_split -> pool3/3x3_s2_pool3/3x3_s2_0_split_3
I0903 16:38:32.572659 27404 net.cpp:141] Setting up pool3/3x3_s2_pool3/3x3_s2_0_split
I0903 16:38:32.572667 27404 net.cpp:148] Top shape: 10 480 14 14 (940800)
I0903 16:38:32.572674 27404 net.cpp:148] Top shape: 10 480 14 14 (940800)
I0903 16:38:32.572679 27404 net.cpp:148] Top shape: 10 480 14 14 (940800)
I0903 16:38:32.572684 27404 net.cpp:148] Top shape: 10 480 14 14 (940800)
I0903 16:38:32.572686 27404 net.cpp:156] Memory required for data: 355998720
I0903 16:38:32.572691 27404 layer_factory.hpp:77] Creating layer inception_4a/1x1
I0903 16:38:32.572706 27404 net.cpp:91] Creating Layer inception_4a/1x1
I0903 16:38:32.572711 27404 net.cpp:425] inception_4a/1x1 <- pool3/3x3_s2_pool3/3x3_s2_0_split_0
I0903 16:38:32.572721 27404 net.cpp:399] inception_4a/1x1 -> inception_4a/1x1
I0903 16:38:32.575155 27408 net.cpp:141] Setting up inception_4a/1x1
I0903 16:38:32.575171 27408 net.cpp:148] Top shape: 10 192 14 14 (376320)
I0903 16:38:32.575176 27408 net.cpp:156] Memory required for data: 357504000
I0903 16:38:32.575186 27408 layer_factory.hpp:77] Creating layer inception_4a/relu_1x1
I0903 16:38:32.575199 27408 net.cpp:91] Creating Layer inception_4a/relu_1x1
I0903 16:38:32.575206 27408 net.cpp:425] inception_4a/relu_1x1 <- inception_4a/1x1
I0903 16:38:32.575212 27408 net.cpp:386] inception_4a/relu_1x1 -> inception_4a/1x1 (in-place)
I0903 16:38:32.575845 27408 net.cpp:141] Setting up inception_4a/relu_1x1
I0903 16:38:32.575860 27408 net.cpp:148] Top shape: 10 192 14 14 (376320)
I0903 16:38:32.575865 27408 net.cpp:156] Memory required for data: 359009280
I0903 16:38:32.575870 27408 layer_factory.hpp:77] Creating layer inception_4a/3x3_reduce
I0903 16:38:32.575889 27408 net.cpp:91] Creating Layer inception_4a/3x3_reduce
I0903 16:38:32.575896 27408 net.cpp:425] inception_4a/3x3_reduce <- pool3/3x3_s2_pool3/3x3_s2_0_split_1
I0903 16:38:32.575904 27408 net.cpp:399] inception_4a/3x3_reduce -> inception_4a/3x3_reduce
I0903 16:38:32.576334 27404 net.cpp:141] Setting up inception_4a/1x1
I0903 16:38:32.576351 27404 net.cpp:148] Top shape: 10 192 14 14 (376320)
I0903 16:38:32.576356 27404 net.cpp:156] Memory required for data: 357504000
I0903 16:38:32.576365 27404 layer_factory.hpp:77] Creating layer inception_4a/relu_1x1
I0903 16:38:32.576377 27404 net.cpp:91] Creating Layer inception_4a/relu_1x1
I0903 16:38:32.576383 27404 net.cpp:425] inception_4a/relu_1x1 <- inception_4a/1x1
I0903 16:38:32.576390 27404 net.cpp:386] inception_4a/relu_1x1 -> inception_4a/1x1 (in-place)
I0903 16:38:32.576894 27404 net.cpp:141] Setting up inception_4a/relu_1x1
I0903 16:38:32.576908 27404 net.cpp:148] Top shape: 10 192 14 14 (376320)
I0903 16:38:32.576913 27404 net.cpp:156] Memory required for data: 359009280
I0903 16:38:32.576918 27404 layer_factory.hpp:77] Creating layer inception_4a/3x3_reduce
I0903 16:38:32.576936 27404 net.cpp:91] Creating Layer inception_4a/3x3_reduce
I0903 16:38:32.576942 27404 net.cpp:425] inception_4a/3x3_reduce <- pool3/3x3_s2_pool3/3x3_s2_0_split_1
I0903 16:38:32.576951 27404 net.cpp:399] inception_4a/3x3_reduce -> inception_4a/3x3_reduce
I0903 16:38:32.579462 27408 net.cpp:141] Setting up inception_4a/3x3_reduce
I0903 16:38:32.579478 27408 net.cpp:148] Top shape: 10 96 14 14 (188160)
I0903 16:38:32.579483 27408 net.cpp:156] Memory required for data: 359761920
I0903 16:38:32.579510 27408 layer_factory.hpp:77] Creating layer inception_4a/relu_3x3_reduce
I0903 16:38:32.579520 27408 net.cpp:91] Creating Layer inception_4a/relu_3x3_reduce
I0903 16:38:32.579525 27408 net.cpp:425] inception_4a/relu_3x3_reduce <- inception_4a/3x3_reduce
I0903 16:38:32.579535 27408 net.cpp:386] inception_4a/relu_3x3_reduce -> inception_4a/3x3_reduce (in-place)
I0903 16:38:32.579830 27404 net.cpp:141] Setting up inception_4a/3x3_reduce
I0903 16:38:32.579844 27404 net.cpp:148] Top shape: 10 96 14 14 (188160)
I0903 16:38:32.579849 27404 net.cpp:156] Memory required for data: 359761920
I0903 16:38:32.579860 27408 net.cpp:141] Setting up inception_4a/relu_3x3_reduce
I0903 16:38:32.579869 27404 layer_factory.hpp:77] Creating layer inception_4a/relu_3x3_reduce
I0903 16:38:32.579871 27408 net.cpp:148] Top shape: 10 96 14 14 (188160)
I0903 16:38:32.579877 27408 net.cpp:156] Memory required for data: 360514560
I0903 16:38:32.579879 27404 net.cpp:91] Creating Layer inception_4a/relu_3x3_reduce
I0903 16:38:32.579882 27408 layer_factory.hpp:77] Creating layer inception_4a/3x3
I0903 16:38:32.579885 27404 net.cpp:425] inception_4a/relu_3x3_reduce <- inception_4a/3x3_reduce
I0903 16:38:32.579893 27404 net.cpp:386] inception_4a/relu_3x3_reduce -> inception_4a/3x3_reduce (in-place)
I0903 16:38:32.579900 27408 net.cpp:91] Creating Layer inception_4a/3x3
I0903 16:38:32.579906 27408 net.cpp:425] inception_4a/3x3 <- inception_4a/3x3_reduce
I0903 16:38:32.579916 27408 net.cpp:399] inception_4a/3x3 -> inception_4a/3x3
I0903 16:38:32.580286 27404 net.cpp:141] Setting up inception_4a/relu_3x3_reduce
I0903 16:38:32.580297 27404 net.cpp:148] Top shape: 10 96 14 14 (188160)
I0903 16:38:32.580302 27404 net.cpp:156] Memory required for data: 360514560
I0903 16:38:32.580307 27404 layer_factory.hpp:77] Creating layer inception_4a/3x3
I0903 16:38:32.580322 27404 net.cpp:91] Creating Layer inception_4a/3x3
I0903 16:38:32.580327 27404 net.cpp:425] inception_4a/3x3 <- inception_4a/3x3_reduce
I0903 16:38:32.580335 27404 net.cpp:399] inception_4a/3x3 -> inception_4a/3x3
I0903 16:38:32.584799 27408 net.cpp:141] Setting up inception_4a/3x3
I0903 16:38:32.584815 27408 net.cpp:148] Top shape: 10 208 14 14 (407680)
I0903 16:38:32.584820 27408 net.cpp:156] Memory required for data: 362145280
I0903 16:38:32.584830 27408 layer_factory.hpp:77] Creating layer inception_4a/relu_3x3
I0903 16:38:32.584851 27408 net.cpp:91] Creating Layer inception_4a/relu_3x3
I0903 16:38:32.584856 27408 net.cpp:425] inception_4a/relu_3x3 <- inception_4a/3x3
I0903 16:38:32.584863 27408 net.cpp:386] inception_4a/relu_3x3 -> inception_4a/3x3 (in-place)
I0903 16:38:32.585388 27408 net.cpp:141] Setting up inception_4a/relu_3x3
I0903 16:38:32.585403 27408 net.cpp:148] Top shape: 10 208 14 14 (407680)
I0903 16:38:32.585408 27408 net.cpp:156] Memory required for data: 363776000
I0903 16:38:32.585413 27408 layer_factory.hpp:77] Creating layer inception_4a/5x5_reduce
I0903 16:38:32.585433 27408 net.cpp:91] Creating Layer inception_4a/5x5_reduce
I0903 16:38:32.585438 27408 net.cpp:425] inception_4a/5x5_reduce <- pool3/3x3_s2_pool3/3x3_s2_0_split_2
I0903 16:38:32.585448 27408 net.cpp:399] inception_4a/5x5_reduce -> inception_4a/5x5_reduce
I0903 16:38:32.585999 27404 net.cpp:141] Setting up inception_4a/3x3
I0903 16:38:32.586015 27404 net.cpp:148] Top shape: 10 208 14 14 (407680)
I0903 16:38:32.586020 27404 net.cpp:156] Memory required for data: 362145280
I0903 16:38:32.586030 27404 layer_factory.hpp:77] Creating layer inception_4a/relu_3x3
I0903 16:38:32.586041 27404 net.cpp:91] Creating Layer inception_4a/relu_3x3
I0903 16:38:32.586048 27404 net.cpp:425] inception_4a/relu_3x3 <- inception_4a/3x3
I0903 16:38:32.586057 27404 net.cpp:386] inception_4a/relu_3x3 -> inception_4a/3x3 (in-place)
I0903 16:38:32.586590 27404 net.cpp:141] Setting up inception_4a/relu_3x3
I0903 16:38:32.586604 27404 net.cpp:148] Top shape: 10 208 14 14 (407680)
I0903 16:38:32.586609 27404 net.cpp:156] Memory required for data: 363776000
I0903 16:38:32.586614 27404 layer_factory.hpp:77] Creating layer inception_4a/5x5_reduce
I0903 16:38:32.586629 27404 net.cpp:91] Creating Layer inception_4a/5x5_reduce
I0903 16:38:32.586635 27404 net.cpp:425] inception_4a/5x5_reduce <- pool3/3x3_s2_pool3/3x3_s2_0_split_2
I0903 16:38:32.586645 27404 net.cpp:399] inception_4a/5x5_reduce -> inception_4a/5x5_reduce
I0903 16:38:32.588414 27408 net.cpp:141] Setting up inception_4a/5x5_reduce
I0903 16:38:32.588431 27408 net.cpp:148] Top shape: 10 16 14 14 (31360)
I0903 16:38:32.588436 27408 net.cpp:156] Memory required for data: 363901440
I0903 16:38:32.588444 27408 layer_factory.hpp:77] Creating layer inception_4a/relu_5x5_reduce
I0903 16:38:32.588454 27408 net.cpp:91] Creating Layer inception_4a/relu_5x5_reduce
I0903 16:38:32.588459 27408 net.cpp:425] inception_4a/relu_5x5_reduce <- inception_4a/5x5_reduce
I0903 16:38:32.588470 27408 net.cpp:386] inception_4a/relu_5x5_reduce -> inception_4a/5x5_reduce (in-place)
I0903 16:38:32.589092 27408 net.cpp:141] Setting up inception_4a/relu_5x5_reduce
I0903 16:38:32.589105 27408 net.cpp:148] Top shape: 10 16 14 14 (31360)
I0903 16:38:32.589110 27408 net.cpp:156] Memory required for data: 364026880
I0903 16:38:32.589115 27408 layer_factory.hpp:77] Creating layer inception_4a/5x5
I0903 16:38:32.589133 27408 net.cpp:91] Creating Layer inception_4a/5x5
I0903 16:38:32.589138 27408 net.cpp:425] inception_4a/5x5 <- inception_4a/5x5_reduce
I0903 16:38:32.589149 27408 net.cpp:399] inception_4a/5x5 -> inception_4a/5x5
I0903 16:38:32.589833 27404 net.cpp:141] Setting up inception_4a/5x5_reduce
I0903 16:38:32.589848 27404 net.cpp:148] Top shape: 10 16 14 14 (31360)
I0903 16:38:32.589854 27404 net.cpp:156] Memory required for data: 363901440
I0903 16:38:32.589862 27404 layer_factory.hpp:77] Creating layer inception_4a/relu_5x5_reduce
I0903 16:38:32.589874 27404 net.cpp:91] Creating Layer inception_4a/relu_5x5_reduce
I0903 16:38:32.589880 27404 net.cpp:425] inception_4a/relu_5x5_reduce <- inception_4a/5x5_reduce
I0903 16:38:32.589889 27404 net.cpp:386] inception_4a/relu_5x5_reduce -> inception_4a/5x5_reduce (in-place)
I0903 16:38:32.590409 27404 net.cpp:141] Setting up inception_4a/relu_5x5_reduce
I0903 16:38:32.590425 27404 net.cpp:148] Top shape: 10 16 14 14 (31360)
I0903 16:38:32.590428 27404 net.cpp:156] Memory required for data: 364026880
I0903 16:38:32.590433 27404 layer_factory.hpp:77] Creating layer inception_4a/5x5
I0903 16:38:32.590452 27404 net.cpp:91] Creating Layer inception_4a/5x5
I0903 16:38:32.590457 27404 net.cpp:425] inception_4a/5x5 <- inception_4a/5x5_reduce
I0903 16:38:32.590466 27404 net.cpp:399] inception_4a/5x5 -> inception_4a/5x5
I0903 16:38:32.592517 27408 net.cpp:141] Setting up inception_4a/5x5
I0903 16:38:32.592533 27408 net.cpp:148] Top shape: 10 48 14 14 (94080)
I0903 16:38:32.592538 27408 net.cpp:156] Memory required for data: 364403200
I0903 16:38:32.592547 27408 layer_factory.hpp:77] Creating layer inception_4a/relu_5x5
I0903 16:38:32.592558 27408 net.cpp:91] Creating Layer inception_4a/relu_5x5
I0903 16:38:32.592564 27408 net.cpp:425] inception_4a/relu_5x5 <- inception_4a/5x5
I0903 16:38:32.592571 27408 net.cpp:386] inception_4a/relu_5x5 -> inception_4a/5x5 (in-place)
I0903 16:38:32.592895 27408 net.cpp:141] Setting up inception_4a/relu_5x5
I0903 16:38:32.592910 27408 net.cpp:148] Top shape: 10 48 14 14 (94080)
I0903 16:38:32.592914 27408 net.cpp:156] Memory required for data: 364779520
I0903 16:38:32.592919 27408 layer_factory.hpp:77] Creating layer inception_4a/pool
I0903 16:38:32.592928 27408 net.cpp:91] Creating Layer inception_4a/pool
I0903 16:38:32.592934 27408 net.cpp:425] inception_4a/pool <- pool3/3x3_s2_pool3/3x3_s2_0_split_3
I0903 16:38:32.592943 27408 net.cpp:399] inception_4a/pool -> inception_4a/pool
I0903 16:38:32.593225 27408 net.cpp:141] Setting up inception_4a/pool
I0903 16:38:32.593236 27408 net.cpp:148] Top shape: 10 480 14 14 (940800)
I0903 16:38:32.593240 27408 net.cpp:156] Memory required for data: 368542720
I0903 16:38:32.593245 27408 layer_factory.hpp:77] Creating layer inception_4a/pool_proj
I0903 16:38:32.593271 27408 net.cpp:91] Creating Layer inception_4a/pool_proj
I0903 16:38:32.593277 27408 net.cpp:425] inception_4a/pool_proj <- inception_4a/pool
I0903 16:38:32.593286 27408 net.cpp:399] inception_4a/pool_proj -> inception_4a/pool_proj
I0903 16:38:32.593776 27404 net.cpp:141] Setting up inception_4a/5x5
I0903 16:38:32.593794 27404 net.cpp:148] Top shape: 10 48 14 14 (94080)
I0903 16:38:32.593799 27404 net.cpp:156] Memory required for data: 364403200
I0903 16:38:32.593808 27404 layer_factory.hpp:77] Creating layer inception_4a/relu_5x5
I0903 16:38:32.593816 27404 net.cpp:91] Creating Layer inception_4a/relu_5x5
I0903 16:38:32.593822 27404 net.cpp:425] inception_4a/relu_5x5 <- inception_4a/5x5
I0903 16:38:32.593829 27404 net.cpp:386] inception_4a/relu_5x5 -> inception_4a/5x5 (in-place)
I0903 16:38:32.594143 27404 net.cpp:141] Setting up inception_4a/relu_5x5
I0903 16:38:32.594156 27404 net.cpp:148] Top shape: 10 48 14 14 (94080)
I0903 16:38:32.594159 27404 net.cpp:156] Memory required for data: 364779520
I0903 16:38:32.594164 27404 layer_factory.hpp:77] Creating layer inception_4a/pool
I0903 16:38:32.594175 27404 net.cpp:91] Creating Layer inception_4a/pool
I0903 16:38:32.594182 27404 net.cpp:425] inception_4a/pool <- pool3/3x3_s2_pool3/3x3_s2_0_split_3
I0903 16:38:32.594188 27404 net.cpp:399] inception_4a/pool -> inception_4a/pool
I0903 16:38:32.594286 27404 net.cpp:141] Setting up inception_4a/pool
I0903 16:38:32.594296 27404 net.cpp:148] Top shape: 10 480 14 14 (940800)
I0903 16:38:32.594300 27404 net.cpp:156] Memory required for data: 368542720
I0903 16:38:32.594305 27404 layer_factory.hpp:77] Creating layer inception_4a/pool_proj
I0903 16:38:32.594319 27404 net.cpp:91] Creating Layer inception_4a/pool_proj
I0903 16:38:32.594324 27404 net.cpp:425] inception_4a/pool_proj <- inception_4a/pool
I0903 16:38:32.594336 27404 net.cpp:399] inception_4a/pool_proj -> inception_4a/pool_proj
I0903 16:38:32.596657 27408 net.cpp:141] Setting up inception_4a/pool_proj
I0903 16:38:32.596674 27408 net.cpp:148] Top shape: 10 64 14 14 (125440)
I0903 16:38:32.596679 27408 net.cpp:156] Memory required for data: 369044480
I0903 16:38:32.596688 27408 layer_factory.hpp:77] Creating layer inception_4a/relu_pool_proj
I0903 16:38:32.596696 27408 net.cpp:91] Creating Layer inception_4a/relu_pool_proj
I0903 16:38:32.596703 27408 net.cpp:425] inception_4a/relu_pool_proj <- inception_4a/pool_proj
I0903 16:38:32.596714 27408 net.cpp:386] inception_4a/relu_pool_proj -> inception_4a/pool_proj (in-place)
I0903 16:38:32.597270 27408 net.cpp:141] Setting up inception_4a/relu_pool_proj
I0903 16:38:32.597285 27408 net.cpp:148] Top shape: 10 64 14 14 (125440)
I0903 16:38:32.597288 27408 net.cpp:156] Memory required for data: 369546240
I0903 16:38:32.597295 27408 layer_factory.hpp:77] Creating layer inception_4a/output
I0903 16:38:32.597302 27408 net.cpp:91] Creating Layer inception_4a/output
I0903 16:38:32.597307 27408 net.cpp:425] inception_4a/output <- inception_4a/1x1
I0903 16:38:32.597321 27408 net.cpp:425] inception_4a/output <- inception_4a/3x3
I0903 16:38:32.597326 27408 net.cpp:425] inception_4a/output <- inception_4a/5x5
I0903 16:38:32.597332 27408 net.cpp:425] inception_4a/output <- inception_4a/pool_proj
I0903 16:38:32.597340 27408 net.cpp:399] inception_4a/output -> inception_4a/output
I0903 16:38:32.597427 27408 net.cpp:141] Setting up inception_4a/output
I0903 16:38:32.597439 27408 net.cpp:148] Top shape: 10 512 14 14 (1003520)
I0903 16:38:32.597442 27408 net.cpp:156] Memory required for data: 373560320
I0903 16:38:32.597447 27408 layer_factory.hpp:77] Creating layer inception_4a/output_inception_4a/output_0_split
I0903 16:38:32.597457 27408 net.cpp:91] Creating Layer inception_4a/output_inception_4a/output_0_split
I0903 16:38:32.597462 27408 net.cpp:425] inception_4a/output_inception_4a/output_0_split <- inception_4a/output
I0903 16:38:32.597470 27408 net.cpp:399] inception_4a/output_inception_4a/output_0_split -> inception_4a/output_inception_4a/output_0_split_0
I0903 16:38:32.597478 27408 net.cpp:399] inception_4a/output_inception_4a/output_0_split -> inception_4a/output_inception_4a/output_0_split_1
I0903 16:38:32.597486 27408 net.cpp:399] inception_4a/output_inception_4a/output_0_split -> inception_4a/output_inception_4a/output_0_split_2
I0903 16:38:32.597494 27408 net.cpp:399] inception_4a/output_inception_4a/output_0_split -> inception_4a/output_inception_4a/output_0_split_3
I0903 16:38:32.597825 27408 net.cpp:141] Setting up inception_4a/output_inception_4a/output_0_split
I0903 16:38:32.597836 27408 net.cpp:148] Top shape: 10 512 14 14 (1003520)
I0903 16:38:32.597841 27408 net.cpp:148] Top shape: 10 512 14 14 (1003520)
I0903 16:38:32.597846 27408 net.cpp:148] Top shape: 10 512 14 14 (1003520)
I0903 16:38:32.597851 27408 net.cpp:148] Top shape: 10 512 14 14 (1003520)
I0903 16:38:32.597847 27404 net.cpp:141] Setting up inception_4a/pool_proj
I0903 16:38:32.597857 27408 net.cpp:156] Memory required for data: 389616640
I0903 16:38:32.597868 27408 layer_factory.hpp:77] Creating layer inception_4b/1x1
I0903 16:38:32.597869 27404 net.cpp:148] Top shape: 10 64 14 14 (125440)
I0903 16:38:32.597874 27404 net.cpp:156] Memory required for data: 369044480
I0903 16:38:32.597883 27404 layer_factory.hpp:77] Creating layer inception_4a/relu_pool_proj
I0903 16:38:32.597887 27408 net.cpp:91] Creating Layer inception_4b/1x1
I0903 16:38:32.597892 27408 net.cpp:425] inception_4b/1x1 <- inception_4a/output_inception_4a/output_0_split_0
I0903 16:38:32.597894 27404 net.cpp:91] Creating Layer inception_4a/relu_pool_proj
I0903 16:38:32.597900 27404 net.cpp:425] inception_4a/relu_pool_proj <- inception_4a/pool_proj
I0903 16:38:32.597901 27408 net.cpp:399] inception_4b/1x1 -> inception_4b/1x1
I0903 16:38:32.597908 27404 net.cpp:386] inception_4a/relu_pool_proj -> inception_4a/pool_proj (in-place)
I0903 16:38:32.598450 27404 net.cpp:141] Setting up inception_4a/relu_pool_proj
I0903 16:38:32.598464 27404 net.cpp:148] Top shape: 10 64 14 14 (125440)
I0903 16:38:32.598467 27404 net.cpp:156] Memory required for data: 369546240
I0903 16:38:32.598472 27404 layer_factory.hpp:77] Creating layer inception_4a/output
I0903 16:38:32.598484 27404 net.cpp:91] Creating Layer inception_4a/output
I0903 16:38:32.598489 27404 net.cpp:425] inception_4a/output <- inception_4a/1x1
I0903 16:38:32.598495 27404 net.cpp:425] inception_4a/output <- inception_4a/3x3
I0903 16:38:32.598500 27404 net.cpp:425] inception_4a/output <- inception_4a/5x5
I0903 16:38:32.598505 27404 net.cpp:425] inception_4a/output <- inception_4a/pool_proj
I0903 16:38:32.598511 27404 net.cpp:399] inception_4a/output -> inception_4a/output
I0903 16:38:32.598659 27404 net.cpp:141] Setting up inception_4a/output
I0903 16:38:32.598671 27404 net.cpp:148] Top shape: 10 512 14 14 (1003520)
I0903 16:38:32.598676 27404 net.cpp:156] Memory required for data: 373560320
I0903 16:38:32.598680 27404 layer_factory.hpp:77] Creating layer inception_4a/output_inception_4a/output_0_split
I0903 16:38:32.598690 27404 net.cpp:91] Creating Layer inception_4a/output_inception_4a/output_0_split
I0903 16:38:32.598695 27404 net.cpp:425] inception_4a/output_inception_4a/output_0_split <- inception_4a/output
I0903 16:38:32.598701 27404 net.cpp:399] inception_4a/output_inception_4a/output_0_split -> inception_4a/output_inception_4a/output_0_split_0
I0903 16:38:32.598718 27404 net.cpp:399] inception_4a/output_inception_4a/output_0_split -> inception_4a/output_inception_4a/output_0_split_1
I0903 16:38:32.598726 27404 net.cpp:399] inception_4a/output_inception_4a/output_0_split -> inception_4a/output_inception_4a/output_0_split_2
I0903 16:38:32.598737 27404 net.cpp:399] inception_4a/output_inception_4a/output_0_split -> inception_4a/output_inception_4a/output_0_split_3
I0903 16:38:32.599030 27404 net.cpp:141] Setting up inception_4a/output_inception_4a/output_0_split
I0903 16:38:32.599040 27404 net.cpp:148] Top shape: 10 512 14 14 (1003520)
I0903 16:38:32.599055 27404 net.cpp:148] Top shape: 10 512 14 14 (1003520)
I0903 16:38:32.599059 27404 net.cpp:148] Top shape: 10 512 14 14 (1003520)
I0903 16:38:32.599064 27404 net.cpp:148] Top shape: 10 512 14 14 (1003520)
I0903 16:38:32.599068 27404 net.cpp:156] Memory required for data: 389616640
I0903 16:38:32.599073 27404 layer_factory.hpp:77] Creating layer inception_4b/1x1
I0903 16:38:32.599090 27404 net.cpp:91] Creating Layer inception_4b/1x1
I0903 16:38:32.599095 27404 net.cpp:425] inception_4b/1x1 <- inception_4a/output_inception_4a/output_0_split_0
I0903 16:38:32.599103 27404 net.cpp:399] inception_4b/1x1 -> inception_4b/1x1
I0903 16:38:32.602913 27408 net.cpp:141] Setting up inception_4b/1x1
I0903 16:38:32.602931 27408 net.cpp:148] Top shape: 10 160 14 14 (313600)
I0903 16:38:32.602936 27408 net.cpp:156] Memory required for data: 390871040
I0903 16:38:32.602946 27408 layer_factory.hpp:77] Creating layer inception_4b/relu_1x1
I0903 16:38:32.602954 27408 net.cpp:91] Creating Layer inception_4b/relu_1x1
I0903 16:38:32.602962 27408 net.cpp:425] inception_4b/relu_1x1 <- inception_4b/1x1
I0903 16:38:32.602972 27408 net.cpp:386] inception_4b/relu_1x1 -> inception_4b/1x1 (in-place)
I0903 16:38:32.603020 27404 net.cpp:141] Setting up inception_4b/1x1
I0903 16:38:32.603035 27404 net.cpp:148] Top shape: 10 160 14 14 (313600)
I0903 16:38:32.603045 27404 net.cpp:156] Memory required for data: 390871040
I0903 16:38:32.603055 27404 layer_factory.hpp:77] Creating layer inception_4b/relu_1x1
I0903 16:38:32.603063 27404 net.cpp:91] Creating Layer inception_4b/relu_1x1
I0903 16:38:32.603070 27404 net.cpp:425] inception_4b/relu_1x1 <- inception_4b/1x1
I0903 16:38:32.603085 27404 net.cpp:386] inception_4b/relu_1x1 -> inception_4b/1x1 (in-place)
I0903 16:38:32.603430 27408 net.cpp:141] Setting up inception_4b/relu_1x1
I0903 16:38:32.603443 27408 net.cpp:148] Top shape: 10 160 14 14 (313600)
I0903 16:38:32.603448 27408 net.cpp:156] Memory required for data: 392125440
I0903 16:38:32.603452 27408 layer_factory.hpp:77] Creating layer inception_4b/3x3_reduce
I0903 16:38:32.603477 27408 net.cpp:91] Creating Layer inception_4b/3x3_reduce
I0903 16:38:32.603483 27408 net.cpp:425] inception_4b/3x3_reduce <- inception_4a/output_inception_4a/output_0_split_1
I0903 16:38:32.603494 27408 net.cpp:399] inception_4b/3x3_reduce -> inception_4b/3x3_reduce
I0903 16:38:32.603610 27404 net.cpp:141] Setting up inception_4b/relu_1x1
I0903 16:38:32.603623 27404 net.cpp:148] Top shape: 10 160 14 14 (313600)
I0903 16:38:32.603628 27404 net.cpp:156] Memory required for data: 392125440
I0903 16:38:32.603633 27404 layer_factory.hpp:77] Creating layer inception_4b/3x3_reduce
I0903 16:38:32.603651 27404 net.cpp:91] Creating Layer inception_4b/3x3_reduce
I0903 16:38:32.603657 27404 net.cpp:425] inception_4b/3x3_reduce <- inception_4a/output_inception_4a/output_0_split_1
I0903 16:38:32.603665 27404 net.cpp:399] inception_4b/3x3_reduce -> inception_4b/3x3_reduce
I0903 16:38:32.606755 27408 net.cpp:141] Setting up inception_4b/3x3_reduce
I0903 16:38:32.606777 27408 net.cpp:148] Top shape: 10 112 14 14 (219520)
I0903 16:38:32.606782 27408 net.cpp:156] Memory required for data: 393003520
I0903 16:38:32.606791 27408 layer_factory.hpp:77] Creating layer inception_4b/relu_3x3_reduce
I0903 16:38:32.606801 27408 net.cpp:91] Creating Layer inception_4b/relu_3x3_reduce
I0903 16:38:32.606806 27408 net.cpp:425] inception_4b/relu_3x3_reduce <- inception_4b/3x3_reduce
I0903 16:38:32.606813 27408 net.cpp:386] inception_4b/relu_3x3_reduce -> inception_4b/3x3_reduce (in-place)
I0903 16:38:32.607218 27408 net.cpp:141] Setting up inception_4b/relu_3x3_reduce
I0903 16:38:32.607231 27408 net.cpp:148] Top shape: 10 112 14 14 (219520)
I0903 16:38:32.607236 27408 net.cpp:156] Memory required for data: 393881600
I0903 16:38:32.607241 27408 layer_factory.hpp:77] Creating layer inception_4b/3x3
I0903 16:38:32.607257 27408 net.cpp:91] Creating Layer inception_4b/3x3
I0903 16:38:32.607264 27408 net.cpp:425] inception_4b/3x3 <- inception_4b/3x3_reduce
I0903 16:38:32.607275 27408 net.cpp:399] inception_4b/3x3 -> inception_4b/3x3
I0903 16:38:32.607316 27404 net.cpp:141] Setting up inception_4b/3x3_reduce
I0903 16:38:32.607331 27404 net.cpp:148] Top shape: 10 112 14 14 (219520)
I0903 16:38:32.607336 27404 net.cpp:156] Memory required for data: 393003520
I0903 16:38:32.607345 27404 layer_factory.hpp:77] Creating layer inception_4b/relu_3x3_reduce
I0903 16:38:32.607354 27404 net.cpp:91] Creating Layer inception_4b/relu_3x3_reduce
I0903 16:38:32.607363 27404 net.cpp:425] inception_4b/relu_3x3_reduce <- inception_4b/3x3_reduce
I0903 16:38:32.607374 27404 net.cpp:386] inception_4b/relu_3x3_reduce -> inception_4b/3x3_reduce (in-place)
I0903 16:38:32.607728 27404 net.cpp:141] Setting up inception_4b/relu_3x3_reduce
I0903 16:38:32.607738 27404 net.cpp:148] Top shape: 10 112 14 14 (219520)
I0903 16:38:32.607743 27404 net.cpp:156] Memory required for data: 393881600
I0903 16:38:32.607748 27404 layer_factory.hpp:77] Creating layer inception_4b/3x3
I0903 16:38:32.607764 27404 net.cpp:91] Creating Layer inception_4b/3x3
I0903 16:38:32.607769 27404 net.cpp:425] inception_4b/3x3 <- inception_4b/3x3_reduce
I0903 16:38:32.607780 27404 net.cpp:399] inception_4b/3x3 -> inception_4b/3x3
I0903 16:38:32.614053 27408 net.cpp:141] Setting up inception_4b/3x3
I0903 16:38:32.614094 27408 net.cpp:148] Top shape: 10 224 14 14 (439040)
I0903 16:38:32.614104 27408 net.cpp:156] Memory required for data: 395637760
I0903 16:38:32.614122 27408 layer_factory.hpp:77] Creating layer inception_4b/relu_3x3
I0903 16:38:32.614140 27408 net.cpp:91] Creating Layer inception_4b/relu_3x3
I0903 16:38:32.614152 27408 net.cpp:425] inception_4b/relu_3x3 <- inception_4b/3x3
I0903 16:38:32.614166 27408 net.cpp:386] inception_4b/relu_3x3 -> inception_4b/3x3 (in-place)
I0903 16:38:32.615039 27408 net.cpp:141] Setting up inception_4b/relu_3x3
I0903 16:38:32.615063 27408 net.cpp:148] Top shape: 10 224 14 14 (439040)
I0903 16:38:32.615072 27408 net.cpp:156] Memory required for data: 397393920
I0903 16:38:32.615082 27408 layer_factory.hpp:77] Creating layer inception_4b/5x5_reduce
I0903 16:38:32.615101 27404 net.cpp:141] Setting up inception_4b/3x3
I0903 16:38:32.615118 27404 net.cpp:148] Top shape: 10 224 14 14 (439040)
I0903 16:38:32.615123 27404 net.cpp:156] Memory required for data: 395637760
I0903 16:38:32.615123 27408 net.cpp:91] Creating Layer inception_4b/5x5_reduce
I0903 16:38:32.615134 27404 layer_factory.hpp:77] Creating layer inception_4b/relu_3x3
I0903 16:38:32.615135 27408 net.cpp:425] inception_4b/5x5_reduce <- inception_4a/output_inception_4a/output_0_split_2
I0903 16:38:32.615144 27404 net.cpp:91] Creating Layer inception_4b/relu_3x3
I0903 16:38:32.615149 27404 net.cpp:425] inception_4b/relu_3x3 <- inception_4b/3x3
I0903 16:38:32.615151 27408 net.cpp:399] inception_4b/5x5_reduce -> inception_4b/5x5_reduce
I0903 16:38:32.615157 27404 net.cpp:386] inception_4b/relu_3x3 -> inception_4b/3x3 (in-place)
I0903 16:38:32.615711 27404 net.cpp:141] Setting up inception_4b/relu_3x3
I0903 16:38:32.615725 27404 net.cpp:148] Top shape: 10 224 14 14 (439040)
I0903 16:38:32.615730 27404 net.cpp:156] Memory required for data: 397393920
I0903 16:38:32.615734 27404 layer_factory.hpp:77] Creating layer inception_4b/5x5_reduce
I0903 16:38:32.615761 27404 net.cpp:91] Creating Layer inception_4b/5x5_reduce
I0903 16:38:32.615768 27404 net.cpp:425] inception_4b/5x5_reduce <- inception_4a/output_inception_4a/output_0_split_2
I0903 16:38:32.615777 27404 net.cpp:399] inception_4b/5x5_reduce -> inception_4b/5x5_reduce
I0903 16:38:32.618913 27404 net.cpp:141] Setting up inception_4b/5x5_reduce
I0903 16:38:32.618937 27404 net.cpp:148] Top shape: 10 24 14 14 (47040)
I0903 16:38:32.618945 27404 net.cpp:156] Memory required for data: 397582080
I0903 16:38:32.618962 27404 layer_factory.hpp:77] Creating layer inception_4b/relu_5x5_reduce
I0903 16:38:32.618976 27404 net.cpp:91] Creating Layer inception_4b/relu_5x5_reduce
I0903 16:38:32.618986 27404 net.cpp:425] inception_4b/relu_5x5_reduce <- inception_4b/5x5_reduce
I0903 16:38:32.618999 27404 net.cpp:386] inception_4b/relu_5x5_reduce -> inception_4b/5x5_reduce (in-place)
I0903 16:38:32.619812 27404 net.cpp:141] Setting up inception_4b/relu_5x5_reduce
I0903 16:38:32.619832 27404 net.cpp:148] Top shape: 10 24 14 14 (47040)
I0903 16:38:32.619840 27404 net.cpp:156] Memory required for data: 397770240
I0903 16:38:32.619849 27404 layer_factory.hpp:77] Creating layer inception_4b/5x5
I0903 16:38:32.619877 27404 net.cpp:91] Creating Layer inception_4b/5x5
I0903 16:38:32.619890 27404 net.cpp:425] inception_4b/5x5 <- inception_4b/5x5_reduce
I0903 16:38:32.619896 27408 net.cpp:141] Setting up inception_4b/5x5_reduce
I0903 16:38:32.619911 27404 net.cpp:399] inception_4b/5x5 -> inception_4b/5x5
I0903 16:38:32.619916 27408 net.cpp:148] Top shape: 10 24 14 14 (47040)
I0903 16:38:32.619927 27408 net.cpp:156] Memory required for data: 397582080
I0903 16:38:32.619942 27408 layer_factory.hpp:77] Creating layer inception_4b/relu_5x5_reduce
I0903 16:38:32.619954 27408 net.cpp:91] Creating Layer inception_4b/relu_5x5_reduce
I0903 16:38:32.619963 27408 net.cpp:425] inception_4b/relu_5x5_reduce <- inception_4b/5x5_reduce
I0903 16:38:32.619973 27408 net.cpp:386] inception_4b/relu_5x5_reduce -> inception_4b/5x5_reduce (in-place)
I0903 16:38:32.620841 27408 net.cpp:141] Setting up inception_4b/relu_5x5_reduce
I0903 16:38:32.620867 27408 net.cpp:148] Top shape: 10 24 14 14 (47040)
I0903 16:38:32.620877 27408 net.cpp:156] Memory required for data: 397770240
I0903 16:38:32.620885 27408 layer_factory.hpp:77] Creating layer inception_4b/5x5
I0903 16:38:32.620911 27408 net.cpp:91] Creating Layer inception_4b/5x5
I0903 16:38:32.620923 27408 net.cpp:425] inception_4b/5x5 <- inception_4b/5x5_reduce
I0903 16:38:32.620937 27408 net.cpp:399] inception_4b/5x5 -> inception_4b/5x5
I0903 16:38:32.625084 27404 net.cpp:141] Setting up inception_4b/5x5
I0903 16:38:32.625110 27404 net.cpp:148] Top shape: 10 64 14 14 (125440)
I0903 16:38:32.625119 27404 net.cpp:156] Memory required for data: 398272000
I0903 16:38:32.625135 27404 layer_factory.hpp:77] Creating layer inception_4b/relu_5x5
I0903 16:38:32.625155 27404 net.cpp:91] Creating Layer inception_4b/relu_5x5
I0903 16:38:32.625166 27404 net.cpp:425] inception_4b/relu_5x5 <- inception_4b/5x5
I0903 16:38:32.625180 27404 net.cpp:386] inception_4b/relu_5x5 -> inception_4b/5x5 (in-place)
I0903 16:38:32.625706 27404 net.cpp:141] Setting up inception_4b/relu_5x5
I0903 16:38:32.625725 27404 net.cpp:148] Top shape: 10 64 14 14 (125440)
I0903 16:38:32.625735 27404 net.cpp:156] Memory required for data: 398773760
I0903 16:38:32.625746 27404 layer_factory.hpp:77] Creating layer inception_4b/pool
I0903 16:38:32.625777 27404 net.cpp:91] Creating Layer inception_4b/pool
I0903 16:38:32.625790 27404 net.cpp:425] inception_4b/pool <- inception_4a/output_inception_4a/output_0_split_3
I0903 16:38:32.625808 27404 net.cpp:399] inception_4b/pool -> inception_4b/pool
I0903 16:38:32.626173 27404 net.cpp:141] Setting up inception_4b/pool
I0903 16:38:32.626191 27404 net.cpp:148] Top shape: 10 512 14 14 (1003520)
I0903 16:38:32.626200 27404 net.cpp:156] Memory required for data: 402787840
I0903 16:38:32.626209 27404 layer_factory.hpp:77] Creating layer inception_4b/pool_proj
I0903 16:38:32.626248 27404 net.cpp:91] Creating Layer inception_4b/pool_proj
I0903 16:38:32.626262 27404 net.cpp:425] inception_4b/pool_proj <- inception_4b/pool
I0903 16:38:32.626279 27404 net.cpp:399] inception_4b/pool_proj -> inception_4b/pool_proj
I0903 16:38:32.627276 27408 net.cpp:141] Setting up inception_4b/5x5
I0903 16:38:32.627295 27408 net.cpp:148] Top shape: 10 64 14 14 (125440)
I0903 16:38:32.627300 27408 net.cpp:156] Memory required for data: 398272000
I0903 16:38:32.627310 27408 layer_factory.hpp:77] Creating layer inception_4b/relu_5x5
I0903 16:38:32.627320 27408 net.cpp:91] Creating Layer inception_4b/relu_5x5
I0903 16:38:32.627326 27408 net.cpp:425] inception_4b/relu_5x5 <- inception_4b/5x5
I0903 16:38:32.627336 27408 net.cpp:386] inception_4b/relu_5x5 -> inception_4b/5x5 (in-place)
I0903 16:38:32.627604 27408 net.cpp:141] Setting up inception_4b/relu_5x5
I0903 16:38:32.627614 27408 net.cpp:148] Top shape: 10 64 14 14 (125440)
I0903 16:38:32.627619 27408 net.cpp:156] Memory required for data: 398773760
I0903 16:38:32.627624 27408 layer_factory.hpp:77] Creating layer inception_4b/pool
I0903 16:38:32.627646 27408 net.cpp:91] Creating Layer inception_4b/pool
I0903 16:38:32.627653 27408 net.cpp:425] inception_4b/pool <- inception_4a/output_inception_4a/output_0_split_3
I0903 16:38:32.627661 27408 net.cpp:399] inception_4b/pool -> inception_4b/pool
I0903 16:38:32.627854 27408 net.cpp:141] Setting up inception_4b/pool
I0903 16:38:32.627866 27408 net.cpp:148] Top shape: 10 512 14 14 (1003520)
I0903 16:38:32.627869 27408 net.cpp:156] Memory required for data: 402787840
I0903 16:38:32.627874 27408 layer_factory.hpp:77] Creating layer inception_4b/pool_proj
I0903 16:38:32.627890 27408 net.cpp:91] Creating Layer inception_4b/pool_proj
I0903 16:38:32.627897 27408 net.cpp:425] inception_4b/pool_proj <- inception_4b/pool
I0903 16:38:32.627907 27408 net.cpp:399] inception_4b/pool_proj -> inception_4b/pool_proj
I0903 16:38:32.630376 27404 net.cpp:141] Setting up inception_4b/pool_proj
I0903 16:38:32.630398 27404 net.cpp:148] Top shape: 10 64 14 14 (125440)
I0903 16:38:32.630408 27404 net.cpp:156] Memory required for data: 403289600
I0903 16:38:32.630424 27404 layer_factory.hpp:77] Creating layer inception_4b/relu_pool_proj
I0903 16:38:32.630451 27404 net.cpp:91] Creating Layer inception_4b/relu_pool_proj
I0903 16:38:32.630462 27404 net.cpp:425] inception_4b/relu_pool_proj <- inception_4b/pool_proj
I0903 16:38:32.630475 27404 net.cpp:386] inception_4b/relu_pool_proj -> inception_4b/pool_proj (in-place)
I0903 16:38:32.631337 27404 net.cpp:141] Setting up inception_4b/relu_pool_proj
I0903 16:38:32.631359 27404 net.cpp:148] Top shape: 10 64 14 14 (125440)
I0903 16:38:32.631369 27404 net.cpp:156] Memory required for data: 403791360
I0903 16:38:32.631379 27404 layer_factory.hpp:77] Creating layer inception_4b/output
I0903 16:38:32.631408 27404 net.cpp:91] Creating Layer inception_4b/output
I0903 16:38:32.631407 27408 net.cpp:141] Setting up inception_4b/pool_proj
I0903 16:38:32.631424 27404 net.cpp:425] inception_4b/output <- inception_4b/1x1
I0903 16:38:32.631436 27404 net.cpp:425] inception_4b/output <- inception_4b/3x3
I0903 16:38:32.631438 27408 net.cpp:148] Top shape: 10 64 14 14 (125440)
I0903 16:38:32.631453 27404 net.cpp:425] inception_4b/output <- inception_4b/5x5
I0903 16:38:32.631458 27408 net.cpp:156] Memory required for data: 403289600
I0903 16:38:32.631464 27404 net.cpp:425] inception_4b/output <- inception_4b/pool_proj
I0903 16:38:32.631477 27404 net.cpp:399] inception_4b/output -> inception_4b/output
I0903 16:38:32.631476 27408 layer_factory.hpp:77] Creating layer inception_4b/relu_pool_proj
I0903 16:38:32.631495 27408 net.cpp:91] Creating Layer inception_4b/relu_pool_proj
I0903 16:38:32.631506 27408 net.cpp:425] inception_4b/relu_pool_proj <- inception_4b/pool_proj
I0903 16:38:32.631526 27408 net.cpp:386] inception_4b/relu_pool_proj -> inception_4b/pool_proj (in-place)
I0903 16:38:32.631587 27404 net.cpp:141] Setting up inception_4b/output
I0903 16:38:32.631604 27404 net.cpp:148] Top shape: 10 512 14 14 (1003520)
I0903 16:38:32.631613 27404 net.cpp:156] Memory required for data: 407805440
I0903 16:38:32.631620 27404 layer_factory.hpp:77] Creating layer inception_4b/output_inception_4b/output_0_split
I0903 16:38:32.631635 27404 net.cpp:91] Creating Layer inception_4b/output_inception_4b/output_0_split
I0903 16:38:32.631644 27404 net.cpp:425] inception_4b/output_inception_4b/output_0_split <- inception_4b/output
I0903 16:38:32.631661 27404 net.cpp:399] inception_4b/output_inception_4b/output_0_split -> inception_4b/output_inception_4b/output_0_split_0
I0903 16:38:32.631680 27404 net.cpp:399] inception_4b/output_inception_4b/output_0_split -> inception_4b/output_inception_4b/output_0_split_1
I0903 16:38:32.631695 27404 net.cpp:399] inception_4b/output_inception_4b/output_0_split -> inception_4b/output_inception_4b/output_0_split_2
I0903 16:38:32.631711 27404 net.cpp:399] inception_4b/output_inception_4b/output_0_split -> inception_4b/output_inception_4b/output_0_split_3
I0903 16:38:32.632421 27408 net.cpp:141] Setting up inception_4b/relu_pool_proj
I0903 16:38:32.632441 27408 net.cpp:148] Top shape: 10 64 14 14 (125440)
I0903 16:38:32.632450 27408 net.cpp:156] Memory required for data: 403791360
I0903 16:38:32.632448 27404 net.cpp:141] Setting up inception_4b/output_inception_4b/output_0_split
I0903 16:38:32.632465 27408 layer_factory.hpp:77] Creating layer inception_4b/output
I0903 16:38:32.632477 27404 net.cpp:148] Top shape: 10 512 14 14 (1003520)
I0903 16:38:32.632488 27408 net.cpp:91] Creating Layer inception_4b/output
I0903 16:38:32.632490 27404 net.cpp:148] Top shape: 10 512 14 14 (1003520)
I0903 16:38:32.632504 27408 net.cpp:425] inception_4b/output <- inception_4b/1x1
I0903 16:38:32.632511 27404 net.cpp:148] Top shape: 10 512 14 14 (1003520)
I0903 16:38:32.632517 27408 net.cpp:425] inception_4b/output <- inception_4b/3x3
I0903 16:38:32.632524 27404 net.cpp:148] Top shape: 10 512 14 14 (1003520)
I0903 16:38:32.632529 27408 net.cpp:425] inception_4b/output <- inception_4b/5x5
I0903 16:38:32.632531 27404 net.cpp:156] Memory required for data: 423861760
…
I0903 16:38:32.725994 27404 layer_factory.hpp:77] Creating layer pool4/3x3_s2
I0903 16:38:32.726002 27404 net.cpp:91] Creating Layer pool4/3x3_s2
I0903 16:38:32.726007 27404 net.cpp:425] pool4/3x3_s2 <- inception_4e/output
I0903 16:38:32.726017 27404 net.cpp:399] pool4/3x3_s2 -> pool4/3x3_s2
I0903 16:38:32.726130 27404 net.cpp:141] Setting up pool4/3x3_s2
I0903 16:38:32.726141 27404 net.cpp:148] Top shape: 10 832 7 7 (407680)
I0903 16:38:32.726145 27404 net.cpp:156] Memory required for data: 522457600
I0903 16:38:32.726150 27404 layer_factory.hpp:77] Creating layer pool4/3x3_s2_pool4/3x3_s2_0_split
I0903 16:38:32.726158 27404 net.cpp:91] Creating Layer pool4/3x3_s2_pool4/3x3_s2_0_split
I0903 16:38:32.726163 27404 net.cpp:425] pool4/3x3_s2_pool4/3x3_s2_0_split <- pool4/3x3_s2
I0903 16:38:32.726172 27404 net.cpp:399] pool4/3x3_s2_pool4/3x3_s2_0_split -> pool4/3x3_s2_pool4/3x3_s2_0_split_0
I0903 16:38:32.726181 27404 net.cpp:399] pool4/3x3_s2_pool4/3x3_s2_0_split -> pool4/3x3_s2_pool4/3x3_s2_0_split_1
I0903 16:38:32.726188 27404 net.cpp:399] pool4/3x3_s2_pool4/3x3_s2_0_split -> pool4/3x3_s2_pool4/3x3_s2_0_split_2
I0903 16:38:32.726197 27404 net.cpp:399] pool4/3x3_s2_pool4/3x3_s2_0_split -> pool4/3x3_s2_pool4/3x3_s2_0_split_3
I0903 16:38:32.726681 27404 net.cpp:141] Setting up pool4/3x3_s2_pool4/3x3_s2_0_split
I0903 16:38:32.726693 27404 net.cpp:148] Top shape: 10 832 7 7 (407680)
I0903 16:38:32.726699 27404 net.cpp:148] Top shape: 10 832 7 7 (407680)
I0903 16:38:32.726704 27404 net.cpp:148] Top shape: 10 832 7 7 (407680)
I0903 16:38:32.726709 27404 net.cpp:148] Top shape: 10 832 7 7 (407680)
I0903 16:38:32.726712 27404 net.cpp:156] Memory required for data: 528980480
I0903 16:38:32.726717 27404 layer_factory.hpp:77] Creating layer inception_5a/1x1
I0903 16:38:32.726729 27404 net.cpp:91] Creating Layer inception_5a/1x1
I0903 16:38:32.726735 27404 net.cpp:425] inception_5a/1x1 <- pool4/3x3_s2_pool4/3x3_s2_0_split_0
I0903 16:38:32.726747 27404 net.cpp:399] inception_5a/1x1 -> inception_5a/1x1
I0903 16:38:32.729790 27408 net.cpp:141] Setting up inception_4e/3x3
I0903 16:38:32.729812 27408 net.cpp:148] Top shape: 10 320 14 14 (627200)
I0903 16:38:32.729821 27408 net.cpp:156] Memory required for data: 503139840
I0903 16:38:32.729838 27408 layer_factory.hpp:77] Creating layer inception_4e/relu_3x3
I0903 16:38:32.729858 27408 net.cpp:91] Creating Layer inception_4e/relu_3x3
I0903 16:38:32.729871 27408 net.cpp:425] inception_4e/relu_3x3 <- inception_4e/3x3
I0903 16:38:32.729889 27408 net.cpp:386] inception_4e/relu_3x3 -> inception_4e/3x3 (in-place)
I0903 16:38:32.730607 27408 net.cpp:141] Setting up inception_4e/relu_3x3
I0903 16:38:32.730628 27408 net.cpp:148] Top shape: 10 320 14 14 (627200)
I0903 16:38:32.730636 27408 net.cpp:156] Memory required for data: 505648640
I0903 16:38:32.730645 27408 layer_factory.hpp:77] Creating layer inception_4e/5x5_reduce
I0903 16:38:32.730672 27408 net.cpp:91] Creating Layer inception_4e/5x5_reduce
I0903 16:38:32.730689 27408 net.cpp:425] inception_4e/5x5_reduce <- inception_4d/output_inception_4d/output_0_split_2
I0903 16:38:32.730706 27408 net.cpp:399] inception_4e/5x5_reduce -> inception_4e/5x5_reduce
I0903 16:38:32.732379 27404 net.cpp:141] Setting up inception_5a/1x1
I0903 16:38:32.732395 27404 net.cpp:148] Top shape: 10 256 7 7 (125440)
I0903 16:38:32.732400 27404 net.cpp:156] Memory required for data: 529482240
I0903 16:38:32.732410 27404 layer_factory.hpp:77] Creating layer inception_5a/relu_1x1
I0903 16:38:32.732419 27404 net.cpp:91] Creating Layer inception_5a/relu_1x1
I0903 16:38:32.732424 27404 net.cpp:425] inception_5a/relu_1x1 <- inception_5a/1x1
I0903 16:38:32.732435 27404 net.cpp:386] inception_5a/relu_1x1 -> inception_5a/1x1 (in-place)
I0903 16:38:32.732910 27404 net.cpp:141] Setting up inception_5a/relu_1x1
I0903 16:38:32.732923 27404 net.cpp:148] Top shape: 10 256 7 7 (125440)
I0903 16:38:32.732928 27404 net.cpp:156] Memory required for data: 529984000
I0903 16:38:32.732933 27404 layer_factory.hpp:77] Creating layer inception_5a/3x3_reduce
I0903 16:38:32.732949 27404 net.cpp:91] Creating Layer inception_5a/3x3_reduce
I0903 16:38:32.732954 27404 net.cpp:425] inception_5a/3x3_reduce <- pool4/3x3_s2_pool4/3x3_s2_0_split_1
I0903 16:38:32.732966 27404 net.cpp:399] inception_5a/3x3_reduce -> inception_5a/3x3_reduce
I0903 16:38:32.735241 27408 net.cpp:141] Setting up inception_4e/5x5_reduce
I0903 16:38:32.735262 27408 net.cpp:148] Top shape: 10 32 14 14 (62720)
I0903 16:38:32.735272 27408 net.cpp:156] Memory required for data: 505899520
I0903 16:38:32.735288 27408 layer_factory.hpp:77] Creating layer inception_4e/relu_5x5_reduce
I0903 16:38:32.735304 27408 net.cpp:91] Creating Layer inception_4e/relu_5x5_reduce
I0903 16:38:32.735316 27408 net.cpp:425] inception_4e/relu_5x5_reduce <- inception_4e/5x5_reduce
I0903 16:38:32.735330 27408 net.cpp:386] inception_4e/relu_5x5_reduce -> inception_4e/5x5_reduce (in-place)
I0903 16:38:32.735955 27408 net.cpp:141] Setting up inception_4e/relu_5x5_reduce
I0903 16:38:32.735975 27408 net.cpp:148] Top shape: 10 32 14 14 (62720)
I0903 16:38:32.735983 27408 net.cpp:156] Memory required for data: 506150400
I0903 16:38:32.735993 27408 layer_factory.hpp:77] Creating layer inception_4e/5x5
I0903 16:38:32.736021 27408 net.cpp:91] Creating Layer inception_4e/5x5
I0903 16:38:32.736033 27408 net.cpp:425] inception_4e/5x5 <- inception_4e/5x5_reduce
I0903 16:38:32.736054 27408 net.cpp:399] inception_4e/5x5 -> inception_4e/5x5
I0903 16:38:32.738651 27404 net.cpp:141] Setting up inception_5a/3x3_reduce
I0903 16:38:32.738670 27404 net.cpp:148] Top shape: 10 160 7 7 (78400)
I0903 16:38:32.738675 27404 net.cpp:156] Memory required for data: 530297600
I0903 16:38:32.738685 27404 layer_factory.hpp:77] Creating layer inception_5a/relu_3x3_reduce
I0903 16:38:32.738694 27404 net.cpp:91] Creating Layer inception_5a/relu_3x3_reduce
I0903 16:38:32.738700 27404 net.cpp:425] inception_5a/relu_3x3_reduce <- inception_5a/3x3_reduce
I0903 16:38:32.738708 27404 net.cpp:386] inception_5a/relu_3x3_reduce -> inception_5a/3x3_reduce (in-place)
I0903 16:38:32.738977 27404 net.cpp:141] Setting up inception_5a/relu_3x3_reduce
I0903 16:38:32.738988 27404 net.cpp:148] Top shape: 10 160 7 7 (78400)
I0903 16:38:32.738992 27404 net.cpp:156] Memory required for data: 530611200
I0903 16:38:32.738997 27404 layer_factory.hpp:77] Creating layer inception_5a/3x3
I0903 16:38:32.739012 27404 net.cpp:91] Creating Layer inception_5a/3x3
I0903 16:38:32.739018 27404 net.cpp:425] inception_5a/3x3 <- inception_5a/3x3_reduce
I0903 16:38:32.739030 27404 net.cpp:399] inception_5a/3x3 -> inception_5a/3x3
I0903 16:38:32.742241 27408 net.cpp:141] Setting up inception_4e/5x5
I0903 16:38:32.742264 27408 net.cpp:148] Top shape: 10 128 14 14 (250880)
I0903 16:38:32.742274 27408 net.cpp:156] Memory required for data: 507153920
I0903 16:38:32.742290 27408 layer_factory.hpp:77] Creating layer inception_4e/relu_5x5
I0903 16:38:32.742311 27408 net.cpp:91] Creating Layer inception_4e/relu_5x5
I0903 16:38:32.742324 27408 net.cpp:425] inception_4e/relu_5x5 <- inception_4e/5x5
I0903 16:38:32.742339 27408 net.cpp:386] inception_4e/relu_5x5 -> inception_4e/5x5 (in-place)
I0903 16:38:32.742799 27408 net.cpp:141] Setting up inception_4e/relu_5x5
I0903 16:38:32.742817 27408 net.cpp:148] Top shape: 10 128 14 14 (250880)
I0903 16:38:32.742826 27408 net.cpp:156] Memory required for data: 508157440
I0903 16:38:32.742836 27408 layer_factory.hpp:77] Creating layer inception_4e/pool
I0903 16:38:32.742851 27408 net.cpp:91] Creating Layer inception_4e/pool
I0903 16:38:32.742863 27408 net.cpp:425] inception_4e/pool <- inception_4d/output_inception_4d/output_0_split_3
I0903 16:38:32.742888 27408 net.cpp:399] inception_4e/pool -> inception_4e/pool
I0903 16:38:32.743090 27408 net.cpp:141] Setting up inception_4e/pool
I0903 16:38:32.743108 27408 net.cpp:148] Top shape: 10 528 14 14 (1034880)
I0903 16:38:32.743116 27408 net.cpp:156] Memory required for data: 512296960
I0903 16:38:32.743125 27408 layer_factory.hpp:77] Creating layer inception_4e/pool_proj
I0903 16:38:32.743154 27408 net.cpp:91] Creating Layer inception_4e/pool_proj
I0903 16:38:32.743166 27408 net.cpp:425] inception_4e/pool_proj <- inception_4e/pool
I0903 16:38:32.743183 27408 net.cpp:399] inception_4e/pool_proj -> inception_4e/pool_proj
I0903 16:38:32.746738 27408 net.cpp:141] Setting up inception_4e/pool_proj
I0903 16:38:32.746760 27408 net.cpp:148] Top shape: 10 128 14 14 (250880)
I0903 16:38:32.746769 27408 net.cpp:156] Memory required for data: 513300480
I0903 16:38:32.746784 27408 layer_factory.hpp:77] Creating layer inception_4e/relu_pool_proj
I0903 16:38:32.746803 27408 net.cpp:91] Creating Layer inception_4e/relu_pool_proj
I0903 16:38:32.746814 27408 net.cpp:425] inception_4e/relu_pool_proj <- inception_4e/pool_proj
I0903 16:38:32.746827 27408 net.cpp:386] inception_4e/relu_pool_proj -> inception_4e/pool_proj (in-place)
I0903 16:38:32.747390 27404 net.cpp:141] Setting up inception_5a/3x3
I0903 16:38:32.747405 27404 net.cpp:148] Top shape: 10 320 7 7 (156800)
I0903 16:38:32.747409 27404 net.cpp:156] Memory required for data: 531238400
I0903 16:38:32.747419 27404 layer_factory.hpp:77] Creating layer inception_5a/relu_3x3
I0903 16:38:32.747427 27404 net.cpp:91] Creating Layer inception_5a/relu_3x3
I0903 16:38:32.747433 27404 net.cpp:425] inception_5a/relu_3x3 <- inception_5a/3x3
I0903 16:38:32.747444 27404 net.cpp:386] inception_5a/relu_3x3 -> inception_5a/3x3 (in-place)
I0903 16:38:32.747789 27408 net.cpp:141] Setting up inception_4e/relu_pool_proj
I0903 16:38:32.747819 27408 net.cpp:148] Top shape: 10 128 14 14 (250880)
I0903 16:38:32.747829 27408 net.cpp:156] Memory required for data: 514304000
I0903 16:38:32.747839 27408 layer_factory.hpp:77] Creating layer inception_4e/output
I0903 16:38:32.747862 27408 net.cpp:91] Creating Layer inception_4e/output
I0903 16:38:32.747874 27408 net.cpp:425] inception_4e/output <- inception_4e/1x1
I0903 16:38:32.747885 27408 net.cpp:425] inception_4e/output <- inception_4e/3x3
I0903 16:38:32.747897 27408 net.cpp:425] inception_4e/output <- inception_4e/5x5
I0903 16:38:32.747907 27408 net.cpp:425] inception_4e/output <- inception_4e/pool_proj
I0903 16:38:32.747921 27408 net.cpp:399] inception_4e/output -> inception_4e/output
I0903 16:38:32.747961 27404 net.cpp:141] Setting up inception_5a/relu_3x3
I0903 16:38:32.747974 27404 net.cpp:148] Top shape: 10 320 7 7 (156800)
I0903 16:38:32.747979 27404 net.cpp:156] Memory required for data: 531865600
I0903 16:38:32.747984 27404 layer_factory.hpp:77] Creating layer inception_5a/5x5_reduce
I0903 16:38:32.748002 27404 net.cpp:91] Creating Layer inception_5a/5x5_reduce
I0903 16:38:32.748008 27404 net.cpp:425] inception_5a/5x5_reduce <- pool4/3x3_s2_pool4/3x3_s2_0_split_2
I0903 16:38:32.748016 27404 net.cpp:399] inception_5a/5x5_reduce -> inception_5a/5x5_reduce
I0903 16:38:32.748037 27408 net.cpp:141] Setting up inception_4e/output
I0903 16:38:32.748055 27408 net.cpp:148] Top shape: 10 832 14 14 (1630720)
I0903 16:38:32.748064 27408 net.cpp:156] Memory required for data: 520826880
I0903 16:38:32.748085 27408 layer_factory.hpp:77] Creating layer pool4/3x3_s2
I0903 16:38:32.748101 27408 net.cpp:91] Creating Layer pool4/3x3_s2
I0903 16:38:32.748114 27408 net.cpp:425] pool4/3x3_s2 <- inception_4e/output
I0903 16:38:32.748128 27408 net.cpp:399] pool4/3x3_s2 -> pool4/3x3_s2
I0903 16:38:32.748493 27408 net.cpp:141] Setting up pool4/3x3_s2
I0903 16:38:32.748514 27408 net.cpp:148] Top shape: 10 832 7 7 (407680)
I0903 16:38:32.748524 27408 net.cpp:156] Memory required for data: 522457600
I0903 16:38:32.748533 27408 layer_factory.hpp:77] Creating layer pool4/3x3_s2_pool4/3x3_s2_0_split
I0903 16:38:32.748549 27408 net.cpp:91] Creating Layer pool4/3x3_s2_pool4/3x3_s2_0_split
I0903 16:38:32.748559 27408 net.cpp:425] pool4/3x3_s2_pool4/3x3_s2_0_split <- pool4/3x3_s2
I0903 16:38:32.748574 27408 net.cpp:399] pool4/3x3_s2_pool4/3x3_s2_0_split -> pool4/3x3_s2_pool4/3x3_s2_0_split_0
I0903 16:38:32.748590 27408 net.cpp:399] pool4/3x3_s2_pool4/3x3_s2_0_split -> pool4/3x3_s2_pool4/3x3_s2_0_split_1
I0903 16:38:32.748615 27408 net.cpp:399] pool4/3x3_s2_pool4/3x3_s2_0_split -> pool4/3x3_s2_pool4/3x3_s2_0_split_2
I0903 16:38:32.748631 27408 net.cpp:399] pool4/3x3_s2_pool4/3x3_s2_0_split -> pool4/3x3_s2_pool4/3x3_s2_0_split_3
I0903 16:38:32.749068 27408 net.cpp:141] Setting up pool4/3x3_s2_pool4/3x3_s2_0_split
I0903 16:38:32.749085 27408 net.cpp:148] Top shape: 10 832 7 7 (407680)
I0903 16:38:32.749099 27408 net.cpp:148] Top shape: 10 832 7 7 (407680)
I0903 16:38:32.749109 27408 net.cpp:148] Top shape: 10 832 7 7 (407680)
I0903 16:38:32.749119 27408 net.cpp:148] Top shape: 10 832 7 7 (407680)
I0903 16:38:32.749126 27408 net.cpp:156] Memory required for data: 528980480
I0903 16:38:32.749136 27408 layer_factory.hpp:77] Creating layer inception_5a/1x1
I0903 16:38:32.749157 27408 net.cpp:91] Creating Layer inception_5a/1x1
I0903 16:38:32.749169 27408 net.cpp:425] inception_5a/1x1 <- pool4/3x3_s2_pool4/3x3_s2_0_split_0
I0903 16:38:32.749196 27408 net.cpp:399] inception_5a/1x1 -> inception_5a/1x1
I0903 16:38:32.751938 27404 net.cpp:141] Setting up inception_5a/5x5_reduce
I0903 16:38:32.751955 27404 net.cpp:148] Top shape: 10 32 7 7 (15680)
I0903 16:38:32.751960 27404 net.cpp:156] Memory required for data: 531928320
I0903 16:38:32.751969 27404 layer_factory.hpp:77] Creating layer inception_5a/relu_5x5_reduce
I0903 16:38:32.751981 27404 net.cpp:91] Creating Layer inception_5a/relu_5x5_reduce
I0903 16:38:32.751986 27404 net.cpp:425] inception_5a/relu_5x5_reduce <- inception_5a/5x5_reduce
I0903 16:38:32.751993 27404 net.cpp:386] inception_5a/relu_5x5_reduce -> inception_5a/5x5_reduce (in-place)
I0903 16:38:32.752440 27404 net.cpp:141] Setting up inception_5a/relu_5x5_reduce
I0903 16:38:32.752461 27404 net.cpp:148] Top shape: 10 32 7 7 (15680)
I0903 16:38:32.752466 27404 net.cpp:156] Memory required for data: 531991040
I0903 16:38:32.752471 27404 layer_factory.hpp:77] Creating layer inception_5a/5x5
I0903 16:38:32.752488 27404 net.cpp:91] Creating Layer inception_5a/5x5
I0903 16:38:32.752495 27404 net.cpp:425] inception_5a/5x5 <- inception_5a/5x5_reduce
I0903 16:38:32.752503 27404 net.cpp:399] inception_5a/5x5 -> inception_5a/5x5
I0903 16:38:32.755842 27408 net.cpp:141] Setting up inception_5a/1x1
I0903 16:38:32.755867 27408 net.cpp:148] Top shape: 10 256 7 7 (125440)
I0903 16:38:32.755877 27408 net.cpp:156] Memory required for data: 529482240
I0903 16:38:32.755892 27408 layer_factory.hpp:77] Creating layer inception_5a/relu_1x1
I0903 16:38:32.755908 27408 net.cpp:91] Creating Layer inception_5a/relu_1x1
I0903 16:38:32.755919 27408 net.cpp:425] inception_5a/relu_1x1 <- inception_5a/1x1
I0903 16:38:32.755934 27408 net.cpp:386] inception_5a/relu_1x1 -> inception_5a/1x1 (in-place)
I0903 16:38:32.756453 27404 net.cpp:141] Setting up inception_5a/5x5
I0903 16:38:32.756469 27404 net.cpp:148] Top shape: 10 128 7 7 (62720)
I0903 16:38:32.756475 27404 net.cpp:156] Memory required for data: 532241920
I0903 16:38:32.756484 27404 layer_factory.hpp:77] Creating layer inception_5a/relu_5x5
I0903 16:38:32.756527 27404 net.cpp:91] Creating Layer inception_5a/relu_5x5
I0903 16:38:32.756533 27404 net.cpp:425] inception_5a/relu_5x5 <- inception_5a/5x5
I0903 16:38:32.756541 27404 net.cpp:386] inception_5a/relu_5x5 -> inception_5a/5x5 (in-place)
I0903 16:38:32.756726 27408 net.cpp:141] Setting up inception_5a/relu_1x1
I0903 16:38:32.756744 27408 net.cpp:148] Top shape: 10 256 7 7 (125440)
I0903 16:38:32.756762 27408 net.cpp:156] Memory required for data: 529984000
I0903 16:38:32.756772 27408 layer_factory.hpp:77] Creating layer inception_5a/3x3_reduce
I0903 16:38:32.756798 27408 net.cpp:91] Creating Layer inception_5a/3x3_reduce
I0903 16:38:32.756810 27408 net.cpp:425] inception_5a/3x3_reduce <- pool4/3x3_s2_pool4/3x3_s2_0_split_1
I0903 16:38:32.756832 27404 net.cpp:141] Setting up inception_5a/relu_5x5
I0903 16:38:32.756835 27408 net.cpp:399] inception_5a/3x3_reduce -> inception_5a/3x3_reduce
I0903 16:38:32.756846 27404 net.cpp:148] Top shape: 10 128 7 7 (62720)
I0903 16:38:32.756851 27404 net.cpp:156] Memory required for data: 532492800
I0903 16:38:32.756856 27404 layer_factory.hpp:77] Creating layer inception_5a/pool
I0903 16:38:32.756865 27404 net.cpp:91] Creating Layer inception_5a/pool
I0903 16:38:32.756870 27404 net.cpp:425] inception_5a/pool <- pool4/3x3_s2_pool4/3x3_s2_0_split_3
I0903 16:38:32.756878 27404 net.cpp:399] inception_5a/pool -> inception_5a/pool
I0903 16:38:32.757093 27404 net.cpp:141] Setting up inception_5a/pool
I0903 16:38:32.757107 27404 net.cpp:148] Top shape: 10 832 7 7 (407680)
I0903 16:38:32.757110 27404 net.cpp:156] Memory required for data: 534123520
I0903 16:38:32.757115 27404 layer_factory.hpp:77] Creating layer inception_5a/pool_proj
I0903 16:38:32.757128 27404 net.cpp:91] Creating Layer inception_5a/pool_proj
I0903 16:38:32.757133 27404 net.cpp:425] inception_5a/pool_proj <- inception_5a/pool
I0903 16:38:32.757144 27404 net.cpp:399] inception_5a/pool_proj -> inception_5a/pool_proj
I0903 16:38:32.762276 27404 net.cpp:141] Setting up inception_5a/pool_proj
I0903 16:38:32.762295 27404 net.cpp:148] Top shape: 10 128 7 7 (62720)
I0903 16:38:32.762300 27404 net.cpp:156] Memory required for data: 534374400
I0903 16:38:32.762308 27404 layer_factory.hpp:77] Creating layer inception_5a/relu_pool_proj
I0903 16:38:32.762316 27404 net.cpp:91] Creating Layer inception_5a/relu_pool_proj
I0903 16:38:32.762322 27404 net.cpp:425] inception_5a/relu_pool_proj <- inception_5a/pool_proj
I0903 16:38:32.762332 27404 net.cpp:386] inception_5a/relu_pool_proj -> inception_5a/pool_proj (in-place)
I0903 16:38:32.762930 27404 net.cpp:141] Setting up inception_5a/relu_pool_proj
I0903 16:38:32.762945 27404 net.cpp:148] Top shape: 10 128 7 7 (62720)
I0903 16:38:32.762950 27404 net.cpp:156] Memory required for data: 534625280
I0903 16:38:32.762955 27404 layer_factory.hpp:77] Creating layer inception_5a/output
I0903 16:38:32.762964 27404 net.cpp:91] Creating Layer inception_5a/output
I0903 16:38:32.762969 27404 net.cpp:425] inception_5a/output <- inception_5a/1x1
I0903 16:38:32.762976 27404 net.cpp:425] inception_5a/output <- inception_5a/3x3
I0903 16:38:32.762984 27404 net.cpp:425] inception_5a/output <- inception_5a/5x5
I0903 16:38:32.762989 27404 net.cpp:425] inception_5a/output <- inception_5a/pool_proj
I0903 16:38:32.762995 27404 net.cpp:399] inception_5a/output -> inception_5a/output
I0903 16:38:32.763109 27404 net.cpp:141] Setting up inception_5a/output
I0903 16:38:32.763120 27404 net.cpp:148] Top shape: 10 832 7 7 (407680)
I0903 16:38:32.763124 27404 net.cpp:156] Memory required for data: 536256000
I0903 16:38:32.763129 27404 layer_factory.hpp:77] Creating layer inception_5a/output_inception_5a/output_0_split
I0903 16:38:32.763139 27404 net.cpp:91] Creating Layer inception_5a/output_inception_5a/output_0_split
I0903 16:38:32.763144 27404 net.cpp:425] inception_5a/output_inception_5a/output_0_split <- inception_5a/output
I0903 16:38:32.763151 27404 net.cpp:399] inception_5a/output_inception_5a/output_0_split -> inception_5a/output_inception_5a/output_0_split_0
I0903 16:38:32.763160 27404 net.cpp:399] inception_5a/output_inception_5a/output_0_split -> inception_5a/output_inception_5a/output_0_split_1
I0903 16:38:32.763169 27404 net.cpp:399] inception_5a/output_inception_5a/output_0_split -> inception_5a/output_inception_5a/output_0_split_2
I0903 16:38:32.763176 27404 net.cpp:399] inception_5a/output_inception_5a/output_0_split -> inception_5a/output_inception_5a/output_0_split_3
I0903 16:38:32.763541 27404 net.cpp:141] Setting up inception_5a/output_inception_5a/output_0_split
I0903 16:38:32.763553 27404 net.cpp:148] Top shape: 10 832 7 7 (407680)
I0903 16:38:32.763558 27404 net.cpp:148] Top shape: 10 832 7 7 (407680)
I0903 16:38:32.763563 27404 net.cpp:148] Top shape: 10 832 7 7 (407680)
I0903 16:38:32.763568 27404 net.cpp:148] Top shape: 10 832 7 7 (407680)
I0903 16:38:32.763572 27404 net.cpp:156] Memory required for data: 542778880
I0903 16:38:32.763576 27404 layer_factory.hpp:77] Creating layer inception_5b/1x1
I0903 16:38:32.763595 27404 net.cpp:91] Creating Layer inception_5b/1x1
I0903 16:38:32.763600 27404 net.cpp:425] inception_5b/1x1 <- inception_5a/output_inception_5a/output_0_split_0
I0903 16:38:32.763609 27404 net.cpp:399] inception_5b/1x1 -> inception_5b/1x1
I0903 16:38:32.764370 27408 net.cpp:141] Setting up inception_5a/3x3_reduce
I0903 16:38:32.764391 27408 net.cpp:148] Top shape: 10 160 7 7 (78400)
I0903 16:38:32.764401 27408 net.cpp:156] Memory required for data: 530297600
I0903 16:38:32.764417 27408 layer_factory.hpp:77] Creating layer inception_5a/relu_3x3_reduce
I0903 16:38:32.764451 27408 net.cpp:91] Creating Layer inception_5a/relu_3x3_reduce
I0903 16:38:32.764467 27408 net.cpp:425] inception_5a/relu_3x3_reduce <- inception_5a/3x3_reduce
I0903 16:38:32.764480 27408 net.cpp:386] inception_5a/relu_3x3_reduce -> inception_5a/3x3_reduce (in-place)
I0903 16:38:32.764991 27408 net.cpp:141] Setting up inception_5a/relu_3x3_reduce
I0903 16:38:32.765009 27408 net.cpp:148] Top shape: 10 160 7 7 (78400)
I0903 16:38:32.765018 27408 net.cpp:156] Memory required for data: 530611200
I0903 16:38:32.765028 27408 layer_factory.hpp:77] Creating layer inception_5a/3x3
I0903 16:38:32.765067 27408 net.cpp:91] Creating Layer inception_5a/3x3
I0903 16:38:32.765081 27408 net.cpp:425] inception_5a/3x3 <- inception_5a/3x3_reduce
I0903 16:38:32.765100 27408 net.cpp:399] inception_5a/3x3 -> inception_5a/3x3
I0903 16:38:32.769412 27404 net.cpp:141] Setting up inception_5b/1x1
I0903 16:38:32.769433 27404 net.cpp:148] Top shape: 10 384 7 7 (188160)
I0903 16:38:32.769438 27404 net.cpp:156] Memory required for data: 543531520
I0903 16:38:32.769448 27404 layer_factory.hpp:77] Creating layer inception_5b/relu_1x1
I0903 16:38:32.769459 27404 net.cpp:91] Creating Layer inception_5b/relu_1x1
I0903 16:38:32.769464 27404 net.cpp:425] inception_5b/relu_1x1 <- inception_5b/1x1
I0903 16:38:32.769472 27404 net.cpp:386] inception_5b/relu_1x1 -> inception_5b/1x1 (in-place)
I0903 16:38:32.769914 27404 net.cpp:141] Setting up inception_5b/relu_1x1
I0903 16:38:32.769930 27404 net.cpp:148] Top shape: 10 384 7 7 (188160)
I0903 16:38:32.769935 27404 net.cpp:156] Memory required for data: 544284160
I0903 16:38:32.769940 27404 layer_factory.hpp:77] Creating layer inception_5b/3x3_reduce
I0903 16:38:32.769955 27404 net.cpp:91] Creating Layer inception_5b/3x3_reduce
I0903 16:38:32.769961 27404 net.cpp:425] inception_5b/3x3_reduce <- inception_5a/output_inception_5a/output_0_split_1
I0903 16:38:32.769973 27404 net.cpp:399] inception_5b/3x3_reduce -> inception_5b/3x3_reduce
I0903 16:38:32.774206 27408 net.cpp:141] Setting up inception_5a/3x3
I0903 16:38:32.774229 27408 net.cpp:148] Top shape: 10 320 7 7 (156800)
I0903 16:38:32.774238 27408 net.cpp:156] Memory required for data: 531238400
I0903 16:38:32.774255 27408 layer_factory.hpp:77] Creating layer inception_5a/relu_3x3
I0903 16:38:32.774271 27408 net.cpp:91] Creating Layer inception_5a/relu_3x3
I0903 16:38:32.774283 27408 net.cpp:425] inception_5a/relu_3x3 <- inception_5a/3x3
I0903 16:38:32.774302 27408 net.cpp:386] inception_5a/relu_3x3 -> inception_5a/3x3 (in-place)
I0903 16:38:32.775123 27408 net.cpp:141] Setting up inception_5a/relu_3x3
I0903 16:38:32.775142 27408 net.cpp:148] Top shape: 10 320 7 7 (156800)
I0903 16:38:32.775151 27408 net.cpp:156] Memory required for data: 531865600
I0903 16:38:32.775161 27408 layer_factory.hpp:77] Creating layer inception_5a/5x5_reduce
I0903 16:38:32.775189 27408 net.cpp:91] Creating Layer inception_5a/5x5_reduce
I0903 16:38:32.775204 27408 net.cpp:425] inception_5a/5x5_reduce <- pool4/3x3_s2_pool4/3x3_s2_0_split_2
I0903 16:38:32.775228 27408 net.cpp:399] inception_5a/5x5_reduce -> inception_5a/5x5_reduce
I0903 16:38:32.775239 27404 net.cpp:141] Setting up inception_5b/3x3_reduce
I0903 16:38:32.775254 27404 net.cpp:148] Top shape: 10 192 7 7 (94080)
I0903 16:38:32.775259 27404 net.cpp:156] Memory required for data: 544660480
I0903 16:38:32.775267 27404 layer_factory.hpp:77] Creating layer inception_5b/relu_3x3_reduce
I0903 16:38:32.775279 27404 net.cpp:91] Creating Layer inception_5b/relu_3x3_reduce
I0903 16:38:32.775285 27404 net.cpp:425] inception_5b/relu_3x3_reduce <- inception_5b/3x3_reduce
I0903 16:38:32.775291 27404 net.cpp:386] inception_5b/relu_3x3_reduce -> inception_5b/3x3_reduce (in-place)
I0903 16:38:32.775734 27404 net.cpp:141] Setting up inception_5b/relu_3x3_reduce
I0903 16:38:32.775746 27404 net.cpp:148] Top shape: 10 192 7 7 (94080)
I0903 16:38:32.775750 27404 net.cpp:156] Memory required for data: 545036800
I0903 16:38:32.775755 27404 layer_factory.hpp:77] Creating layer inception_5b/3x3
I0903 16:38:32.775774 27404 net.cpp:91] Creating Layer inception_5b/3x3
I0903 16:38:32.775779 27404 net.cpp:425] inception_5b/3x3 <- inception_5b/3x3_reduce
I0903 16:38:32.775789 27404 net.cpp:399] inception_5b/3x3 -> inception_5b/3x3
I0903 16:38:32.779840 27408 net.cpp:141] Setting up inception_5a/5x5_reduce
I0903 16:38:32.779862 27408 net.cpp:148] Top shape: 10 32 7 7 (15680)
I0903 16:38:32.779871 27408 net.cpp:156] Memory required for data: 531928320
I0903 16:38:32.779887 27408 layer_factory.hpp:77] Creating layer inception_5a/relu_5x5_reduce
I0903 16:38:32.779907 27408 net.cpp:91] Creating Layer inception_5a/relu_5x5_reduce
I0903 16:38:32.779919 27408 net.cpp:425] inception_5a/relu_5x5_reduce <- inception_5a/5x5_reduce
I0903 16:38:32.779932 27408 net.cpp:386] inception_5a/relu_5x5_reduce -> inception_5a/5x5_reduce (in-place)
I0903 16:38:32.780586 27408 net.cpp:141] Setting up inception_5a/relu_5x5_reduce
I0903 16:38:32.780606 27408 net.cpp:148] Top shape: 10 32 7 7 (15680)
I0903 16:38:32.780614 27408 net.cpp:156] Memory required for data: 531991040
I0903 16:38:32.780623 27408 layer_factory.hpp:77] Creating layer inception_5a/5x5
I0903 16:38:32.780649 27408 net.cpp:91] Creating Layer inception_5a/5x5
I0903 16:38:32.780663 27408 net.cpp:425] inception_5a/5x5 <- inception_5a/5x5_reduce
I0903 16:38:32.780686 27408 net.cpp:399] inception_5a/5x5 -> inception_5a/5x5
I0903 16:38:32.784660 27408 net.cpp:141] Setting up inception_5a/5x5
I0903 16:38:32.784680 27408 net.cpp:148] Top shape: 10 128 7 7 (62720)
I0903 16:38:32.784690 27408 net.cpp:156] Memory required for data: 532241920
I0903 16:38:32.784705 27408 layer_factory.hpp:77] Creating layer inception_5a/relu_5x5
I0903 16:38:32.784765 27408 net.cpp:91] Creating Layer inception_5a/relu_5x5
I0903 16:38:32.784778 27408 net.cpp:425] inception_5a/relu_5x5 <- inception_5a/5x5
I0903 16:38:32.784802 27408 net.cpp:386] inception_5a/relu_5x5 -> inception_5a/5x5 (in-place)
I0903 16:38:32.785400 27408 net.cpp:141] Setting up inception_5a/relu_5x5
I0903 16:38:32.785419 27408 net.cpp:148] Top shape: 10 128 7 7 (62720)
I0903 16:38:32.785429 27408 net.cpp:156] Memory required for data: 532492800
I0903 16:38:32.785439 27408 layer_factory.hpp:77] Creating layer inception_5a/pool
I0903 16:38:32.785459 27408 net.cpp:91] Creating Layer inception_5a/pool
I0903 16:38:32.785470 27408 net.cpp:425] inception_5a/pool <- pool4/3x3_s2_pool4/3x3_s2_0_split_3
I0903 16:38:32.785485 27408 net.cpp:399] inception_5a/pool -> inception_5a/pool
I0903 16:38:32.785578 27404 net.cpp:141] Setting up inception_5b/3x3
I0903 16:38:32.785593 27404 net.cpp:148] Top shape: 10 384 7 7 (188160)
I0903 16:38:32.785598 27404 net.cpp:156] Memory required for data: 545789440
I0903 16:38:32.785606 27404 layer_factory.hpp:77] Creating layer inception_5b/relu_3x3
I0903 16:38:32.785614 27404 net.cpp:91] Creating Layer inception_5b/relu_3x3
I0903 16:38:32.785624 27404 net.cpp:425] inception_5b/relu_3x3 <- inception_5b/3x3
I0903 16:38:32.785635 27404 net.cpp:386] inception_5b/relu_3x3 -> inception_5b/3x3 (in-place)
I0903 16:38:32.786077 27408 net.cpp:141] Setting up inception_5a/pool
I0903 16:38:32.786095 27408 net.cpp:148] Top shape: 10 832 7 7 (407680)
I0903 16:38:32.786105 27408 net.cpp:156] Memory required for data: 534123520
I0903 16:38:32.786114 27408 layer_factory.hpp:77] Creating layer inception_5a/pool_proj
I0903 16:38:32.786139 27408 net.cpp:91] Creating Layer inception_5a/pool_proj
I0903 16:38:32.786151 27408 net.cpp:425] inception_5a/pool_proj <- inception_5a/pool
I0903 16:38:32.786173 27404 net.cpp:141] Setting up inception_5b/relu_3x3
I0903 16:38:32.786175 27408 net.cpp:399] inception_5a/pool_proj -> inception_5a/pool_proj
I0903 16:38:32.786190 27404 net.cpp:148] Top shape: 10 384 7 7 (188160)
I0903 16:38:32.786195 27404 net.cpp:156] Memory required for data: 546542080
I0903 16:38:32.786201 27404 layer_factory.hpp:77] Creating layer inception_5b/5x5_reduce
I0903 16:38:32.786216 27404 net.cpp:91] Creating Layer inception_5b/5x5_reduce
I0903 16:38:32.786223 27404 net.cpp:425] inception_5b/5x5_reduce <- inception_5a/output_inception_5a/output_0_split_2
I0903 16:38:32.786234 27404 net.cpp:399] inception_5b/5x5_reduce -> inception_5b/5x5_reduce
I0903 16:38:32.790591 27404 net.cpp:141] Setting up inception_5b/5x5_reduce
I0903 16:38:32.790607 27404 net.cpp:148] Top shape: 10 48 7 7 (23520)
I0903 16:38:32.790612 27404 net.cpp:156] Memory required for data: 546636160
I0903 16:38:32.790621 27404 layer_factory.hpp:77] Creating layer inception_5b/relu_5x5_reduce
I0903 16:38:32.790632 27404 net.cpp:91] Creating Layer inception_5b/relu_5x5_reduce
I0903 16:38:32.790639 27404 net.cpp:425] inception_5b/relu_5x5_reduce <- inception_5b/5x5_reduce
I0903 16:38:32.790647 27404 net.cpp:386] inception_5b/relu_5x5_reduce -> inception_5b/5x5_reduce (in-place)
I0903 16:38:32.791174 27404 net.cpp:141] Setting up inception_5b/relu_5x5_reduce
I0903 16:38:32.791188 27404 net.cpp:148] Top shape: 10 48 7 7 (23520)
I0903 16:38:32.791193 27404 net.cpp:156] Memory required for data: 546730240
I0903 16:38:32.791198 27404 layer_factory.hpp:77] Creating layer inception_5b/5x5
I0903 16:38:32.791213 27404 net.cpp:91] Creating Layer inception_5b/5x5
I0903 16:38:32.791219 27404 net.cpp:425] inception_5b/5x5 <- inception_5b/5x5_reduce
I0903 16:38:32.791231 27404 net.cpp:399] inception_5b/5x5 -> inception_5b/5x5
I0903 16:38:32.791987 27408 net.cpp:141] Setting up inception_5a/pool_proj
I0903 16:38:32.792007 27408 net.cpp:148] Top shape: 10 128 7 7 (62720)
I0903 16:38:32.792016 27408 net.cpp:156] Memory required for data: 534374400
I0903 16:38:32.792032 27408 layer_factory.hpp:77] Creating layer inception_5a/relu_pool_proj
I0903 16:38:32.792057 27408 net.cpp:91] Creating Layer inception_5a/relu_pool_proj
I0903 16:38:32.792078 27408 net.cpp:425] inception_5a/relu_pool_proj <- inception_5a/pool_proj
I0903 16:38:32.792093 27408 net.cpp:386] inception_5a/relu_pool_proj -> inception_5a/pool_proj (in-place)
I0903 16:38:32.792732 27408 net.cpp:141] Setting up inception_5a/relu_pool_proj
I0903 16:38:32.792752 27408 net.cpp:148] Top shape: 10 128 7 7 (62720)
I0903 16:38:32.792762 27408 net.cpp:156] Memory required for data: 534625280
I0903 16:38:32.792770 27408 layer_factory.hpp:77] Creating layer inception_5a/output
I0903 16:38:32.792791 27408 net.cpp:91] Creating Layer inception_5a/output
I0903 16:38:32.792804 27408 net.cpp:425] inception_5a/output <- inception_5a/1x1
I0903 16:38:32.792815 27408 net.cpp:425] inception_5a/output <- inception_5a/3x3
I0903 16:38:32.792826 27408 net.cpp:425] inception_5a/output <- inception_5a/5x5
I0903 16:38:32.792837 27408 net.cpp:425] inception_5a/output <- inception_5a/pool_proj
I0903 16:38:32.792855 27408 net.cpp:399] inception_5a/output -> inception_5a/output
I0903 16:38:32.792973 27408 net.cpp:141] Setting up inception_5a/output
I0903 16:38:32.792990 27408 net.cpp:148] Top shape: 10 832 7 7 (407680)
I0903 16:38:32.793000 27408 net.cpp:156] Memory required for data: 536256000
I0903 16:38:32.793009 27408 layer_factory.hpp:77] Creating layer inception_5a/output_inception_5a/output_0_split
I0903 16:38:32.793023 27408 net.cpp:91] Creating Layer inception_5a/output_inception_5a/output_0_split
I0903 16:38:32.793035 27408 net.cpp:425] inception_5a/output_inception_5a/output_0_split <- inception_5a/output
I0903 16:38:32.793052 27408 net.cpp:399] inception_5a/output_inception_5a/output_0_split -> inception_5a/output_inception_5a/output_0_split_0
I0903 16:38:32.793071 27408 net.cpp:399] inception_5a/output_inception_5a/output_0_split -> inception_5a/output_inception_5a/output_0_split_1
I0903 16:38:32.793089 27408 net.cpp:399] inception_5a/output_inception_5a/output_0_split -> inception_5a/output_inception_5a/output_0_split_2
I0903 16:38:32.793105 27408 net.cpp:399] inception_5a/output_inception_5a/output_0_split -> inception_5a/output_inception_5a/output_0_split_3
I0903 16:38:32.793931 27408 net.cpp:141] Setting up inception_5a/output_inception_5a/output_0_split
I0903 16:38:32.793948 27408 net.cpp:148] Top shape: 10 832 7 7 (407680)
I0903 16:38:32.793959 27408 net.cpp:148] Top shape: 10 832 7 7 (407680)
I0903 16:38:32.793972 27408 net.cpp:148] Top shape: 10 832 7 7 (407680)
I0903 16:38:32.793982 27408 net.cpp:148] Top shape: 10 832 7 7 (407680)
I0903 16:38:32.793988 27408 net.cpp:156] Memory required for data: 542778880
I0903 16:38:32.793998 27408 layer_factory.hpp:77] Creating layer inception_5b/1x1
I0903 16:38:32.794026 27408 net.cpp:91] Creating Layer inception_5b/1x1
I0903 16:38:32.794040 27408 net.cpp:425] inception_5b/1x1 <- inception_5a/output_inception_5a/output_0_split_0
I0903 16:38:32.794061 27408 net.cpp:399] inception_5b/1x1 -> inception_5b/1x1
I0903 16:38:32.796761 27404 net.cpp:141] Setting up inception_5b/5x5
I0903 16:38:32.796778 27404 net.cpp:148] Top shape: 10 128 7 7 (62720)
I0903 16:38:32.796783 27404 net.cpp:156] Memory required for data: 546981120
I0903 16:38:32.796792 27404 layer_factory.hpp:77] Creating layer inception_5b/relu_5x5
I0903 16:38:32.796802 27404 net.cpp:91] Creating Layer inception_5b/relu_5x5
I0903 16:38:32.796809 27404 net.cpp:425] inception_5b/relu_5x5 <- inception_5b/5x5
I0903 16:38:32.796816 27404 net.cpp:386] inception_5b/relu_5x5 -> inception_5b/5x5 (in-place)
I0903 16:38:32.797086 27404 net.cpp:141] Setting up inception_5b/relu_5x5
I0903 16:38:32.797098 27404 net.cpp:148] Top shape: 10 128 7 7 (62720)
I0903 16:38:32.797102 27404 net.cpp:156] Memory required for data: 547232000
I0903 16:38:32.797107 27404 layer_factory.hpp:77] Creating layer inception_5b/pool
I0903 16:38:32.797118 27404 net.cpp:91] Creating Layer inception_5b/pool
I0903 16:38:32.797134 27404 net.cpp:425] inception_5b/pool <- inception_5a/output_inception_5a/output_0_split_3
I0903 16:38:32.797142 27404 net.cpp:399] inception_5b/pool -> inception_5b/pool
I0903 16:38:32.797271 27404 net.cpp:141] Setting up inception_5b/pool
I0903 16:38:32.797281 27404 net.cpp:148] Top shape: 10 832 7 7 (407680)
I0903 16:38:32.797286 27404 net.cpp:156] Memory required for data: 548862720
I0903 16:38:32.797291 27404 layer_factory.hpp:77] Creating layer inception_5b/pool_proj
I0903 16:38:32.797307 27404 net.cpp:91] Creating Layer inception_5b/pool_proj
I0903 16:38:32.797312 27404 net.cpp:425] inception_5b/pool_proj <- inception_5b/pool
I0903 16:38:32.797322 27404 net.cpp:399] inception_5b/pool_proj -> inception_5b/pool_proj
I0903 16:38:32.801415 27408 net.cpp:141] Setting up inception_5b/1x1
I0903 16:38:32.801440 27408 net.cpp:148] Top shape: 10 384 7 7 (188160)
I0903 16:38:32.801451 27408 net.cpp:156] Memory required for data: 543531520
I0903 16:38:32.801468 27408 layer_factory.hpp:77] Creating layer inception_5b/relu_1x1
I0903 16:38:32.801483 27408 net.cpp:91] Creating Layer inception_5b/relu_1x1
I0903 16:38:32.801494 27408 net.cpp:425] inception_5b/relu_1x1 <- inception_5b/1x1
I0903 16:38:32.801512 27408 net.cpp:386] inception_5b/relu_1x1 -> inception_5b/1x1 (in-place)
I0903 16:38:32.802166 27404 net.cpp:141] Setting up inception_5b/pool_proj
I0903 16:38:32.802182 27404 net.cpp:148] Top shape: 10 128 7 7 (62720)
I0903 16:38:32.802187 27404 net.cpp:156] Memory required for data: 549113600
I0903 16:38:32.802201 27404 layer_factory.hpp:77] Creating layer inception_5b/relu_pool_proj
I0903 16:38:32.802212 27404 net.cpp:91] Creating Layer inception_5b/relu_pool_proj
I0903 16:38:32.802218 27404 net.cpp:425] inception_5b/relu_pool_proj <- inception_5b/pool_proj
I0903 16:38:32.802225 27404 net.cpp:386] inception_5b/relu_pool_proj -> inception_5b/pool_proj (in-place)
I0903 16:38:32.802300 27408 net.cpp:141] Setting up inception_5b/relu_1x1
I0903 16:38:32.802320 27408 net.cpp:148] Top shape: 10 384 7 7 (188160)
I0903 16:38:32.802330 27408 net.cpp:156] Memory required for data: 544284160
I0903 16:38:32.802340 27408 layer_factory.hpp:77] Creating layer inception_5b/3x3_reduce
I0903 16:38:32.802364 27408 net.cpp:91] Creating Layer inception_5b/3x3_reduce
I0903 16:38:32.802377 27408 net.cpp:425] inception_5b/3x3_reduce <- inception_5a/output_inception_5a/output_0_split_1
I0903 16:38:32.802400 27408 net.cpp:399] inception_5b/3x3_reduce -> inception_5b/3x3_reduce
I0903 16:38:32.802817 27404 net.cpp:141] Setting up inception_5b/relu_pool_proj
I0903 16:38:32.802832 27404 net.cpp:148] Top shape: 10 128 7 7 (62720)
I0903 16:38:32.802836 27404 net.cpp:156] Memory required for data: 549364480
I0903 16:38:32.802841 27404 layer_factory.hpp:77] Creating layer inception_5b/output
I0903 16:38:32.802850 27404 net.cpp:91] Creating Layer inception_5b/output
I0903 16:38:32.802855 27404 net.cpp:425] inception_5b/output <- inception_5b/1x1
I0903 16:38:32.802862 27404 net.cpp:425] inception_5b/output <- inception_5b/3x3
I0903 16:38:32.802867 27404 net.cpp:425] inception_5b/output <- inception_5b/5x5
I0903 16:38:32.802872 27404 net.cpp:425] inception_5b/output <- inception_5b/pool_proj
I0903 16:38:32.802878 27404 net.cpp:399] inception_5b/output -> inception_5b/output
I0903 16:38:32.803097 27404 net.cpp:141] Setting up inception_5b/output
I0903 16:38:32.803110 27404 net.cpp:148] Top shape: 10 1024 7 7 (501760)
I0903 16:38:32.803115 27404 net.cpp:156] Memory required for data: 551371520
I0903 16:38:32.803120 27404 layer_factory.hpp:77] Creating layer pool5/7x7_s1
I0903 16:38:32.803129 27404 net.cpp:91] Creating Layer pool5/7x7_s1
I0903 16:38:32.803134 27404 net.cpp:425] pool5/7x7_s1 <- inception_5b/output
I0903 16:38:32.803145 27404 net.cpp:399] pool5/7x7_s1 -> pool5/7x7_s1
I0903 16:38:32.803675 27404 net.cpp:141] Setting up pool5/7x7_s1
I0903 16:38:32.803689 27404 net.cpp:148] Top shape: 10 1024 1 1 (10240)
I0903 16:38:32.803692 27404 net.cpp:156] Memory required for data: 551412480
I0903 16:38:32.803697 27404 layer_factory.hpp:77] Creating layer pool5/drop_7x7_s1
I0903 16:38:32.803712 27404 net.cpp:91] Creating Layer pool5/drop_7x7_s1
I0903 16:38:32.803721 27404 net.cpp:425] pool5/drop_7x7_s1 <- pool5/7x7_s1
I0903 16:38:32.803728 27404 net.cpp:386] pool5/drop_7x7_s1 -> pool5/7x7_s1 (in-place)
I0903 16:38:32.804661 27404 net.cpp:141] Setting up pool5/drop_7x7_s1
I0903 16:38:32.804674 27404 net.cpp:148] Top shape: 10 1024 1 1 (10240)
I0903 16:38:32.804679 27404 net.cpp:156] Memory required for data: 551453440
I0903 16:38:32.804684 27404 layer_factory.hpp:77] Creating layer loss3/classifier
I0903 16:38:32.804703 27404 net.cpp:91] Creating Layer loss3/classifier
I0903 16:38:32.804708 27404 net.cpp:425] loss3/classifier <- pool5/7x7_s1
I0903 16:38:32.804716 27404 net.cpp:399] loss3/classifier -> loss3/classifier
I0903 16:38:32.809139 27408 net.cpp:141] Setting up inception_5b/3x3_reduce
I0903 16:38:32.809166 27408 net.cpp:148] Top shape: 10 192 7 7 (94080)
I0903 16:38:32.809172 27408 net.cpp:156] Memory required for data: 544660480
I0903 16:38:32.809183 27408 layer_factory.hpp:77] Creating layer inception_5b/relu_3x3_reduce
I0903 16:38:32.809195 27408 net.cpp:91] Creating Layer inception_5b/relu_3x3_reduce
I0903 16:38:32.809202 27408 net.cpp:425] inception_5b/relu_3x3_reduce <- inception_5b/3x3_reduce
I0903 16:38:32.809213 27408 net.cpp:386] inception_5b/relu_3x3_reduce -> inception_5b/3x3_reduce (in-place)
I0903 16:38:32.809490 27408 net.cpp:141] Setting up inception_5b/relu_3x3_reduce
I0903 16:38:32.809501 27408 net.cpp:148] Top shape: 10 192 7 7 (94080)
I0903 16:38:32.809505 27408 net.cpp:156] Memory required for data: 545036800
I0903 16:38:32.809510 27408 layer_factory.hpp:77] Creating layer inception_5b/3x3
I0903 16:38:32.809530 27408 net.cpp:91] Creating Layer inception_5b/3x3
I0903 16:38:32.809536 27408 net.cpp:425] inception_5b/3x3 <- inception_5b/3x3_reduce
I0903 16:38:32.809545 27408 net.cpp:399] inception_5b/3x3 -> inception_5b/3x3
I0903 16:38:32.815786 27404 net.cpp:141] Setting up loss3/classifier
I0903 16:38:32.815812 27404 net.cpp:148] Top shape: 10 1000 (10000)
I0903 16:38:32.815817 27404 net.cpp:156] Memory required for data: 551493440
I0903 16:38:32.815829 27404 layer_factory.hpp:77] Creating layer prob
I0903 16:38:32.815840 27404 net.cpp:91] Creating Layer prob
I0903 16:38:32.815846 27404 net.cpp:425] prob <- loss3/classifier
I0903 16:38:32.815855 27404 net.cpp:399] prob -> prob
I0903 16:38:32.816849 27404 net.cpp:141] Setting up prob
I0903 16:38:32.816865 27404 net.cpp:148] Top shape: 10 1000 (10000)
I0903 16:38:32.816870 27404 net.cpp:156] Memory required for data: 551533440
I0903 16:38:32.816875 27404 net.cpp:219] prob does not need backward computation.
I0903 16:38:32.816880 27404 net.cpp:219] loss3/classifier does not need backward computation.
I0903 16:38:32.816886 27404 net.cpp:219] pool5/drop_7x7_s1 does not need backward computation.
I0903 16:38:32.816890 27404 net.cpp:219] pool5/7x7_s1 does not need backward computation.
…
I0903 16:38:32.817639 27404 net.cpp:219] pool1/3x3_s2 does not need backward computation.
I0903 16:38:32.817644 27404 net.cpp:219] conv1/relu_7x7 does not need backward computation.
I0903 16:38:32.817648 27404 net.cpp:219] conv1/7x7_s2 does not need backward computation.
I0903 16:38:32.817653 27404 net.cpp:219] data does not need backward computation.
I0903 16:38:32.817656 27404 net.cpp:261] This network produces output prob
I0903 16:38:32.817785 27404 net.cpp:274] Network initialization done.
I0903 16:38:32.818619 27408 net.cpp:141] Setting up inception_5b/3x3
I0903 16:38:32.818637 27408 net.cpp:148] Top shape: 10 384 7 7 (188160)
I0903 16:38:32.818642 27408 net.cpp:156] Memory required for data: 545789440
I0903 16:38:32.818653 27408 layer_factory.hpp:77] Creating layer inception_5b/relu_3x3
I0903 16:38:32.818662 27408 net.cpp:91] Creating Layer inception_5b/relu_3x3
I0903 16:38:32.818670 27408 net.cpp:425] inception_5b/relu_3x3 <- inception_5b/3x3
I0903 16:38:32.818677 27408 net.cpp:386] inception_5b/relu_3x3 -> inception_5b/3x3 (in-place)
I0903 16:38:32.819149 27408 net.cpp:141] Setting up inception_5b/relu_3x3
I0903 16:38:32.819162 27408 net.cpp:148] Top shape: 10 384 7 7 (188160)
I0903 16:38:32.819166 27408 net.cpp:156] Memory required for data: 546542080
I0903 16:38:32.819171 27408 layer_factory.hpp:77] Creating layer inception_5b/5x5_reduce
I0903 16:38:32.819198 27408 net.cpp:91] Creating Layer inception_5b/5x5_reduce
I0903 16:38:32.819206 27408 net.cpp:425] inception_5b/5x5_reduce <- inception_5a/output_inception_5a/output_0_split_2
I0903 16:38:32.819218 27408 net.cpp:399] inception_5b/5x5_reduce -> inception_5b/5x5_reduce
I0903 16:38:32.821750 27408 net.cpp:141] Setting up inception_5b/5x5_reduce
I0903 16:38:32.821771 27408 net.cpp:148] Top shape: 10 48 7 7 (23520)
I0903 16:38:32.821776 27408 net.cpp:156] Memory required for data: 546636160
I0903 16:38:32.821786 27408 layer_factory.hpp:77] Creating layer inception_5b/relu_5x5_reduce
I0903 16:38:32.821796 27408 net.cpp:91] Creating Layer inception_5b/relu_5x5_reduce
I0903 16:38:32.821802 27408 net.cpp:425] inception_5b/relu_5x5_reduce <- inception_5b/5x5_reduce
I0903 16:38:32.821813 27408 net.cpp:386] inception_5b/relu_5x5_reduce -> inception_5b/5x5_reduce (in-place)
I0903 16:38:32.822274 27408 net.cpp:141] Setting up inception_5b/relu_5x5_reduce
I0903 16:38:32.822288 27408 net.cpp:148] Top shape: 10 48 7 7 (23520)
I0903 16:38:32.822291 27408 net.cpp:156] Memory required for data: 546730240
I0903 16:38:32.822296 27408 layer_factory.hpp:77] Creating layer inception_5b/5x5
I0903 16:38:32.822316 27408 net.cpp:91] Creating Layer inception_5b/5x5
I0903 16:38:32.822322 27408 net.cpp:425] inception_5b/5x5 <- inception_5b/5x5_reduce
I0903 16:38:32.822331 27408 net.cpp:399] inception_5b/5x5 -> inception_5b/5x5
I0903 16:38:32.827451 27408 net.cpp:141] Setting up inception_5b/5x5
I0903 16:38:32.827491 27408 net.cpp:148] Top shape: 10 128 7 7 (62720)
I0903 16:38:32.827500 27408 net.cpp:156] Memory required for data: 546981120
I0903 16:38:32.827518 27408 layer_factory.hpp:77] Creating layer inception_5b/relu_5x5
I0903 16:38:32.827543 27408 net.cpp:91] Creating Layer inception_5b/relu_5x5
I0903 16:38:32.827556 27408 net.cpp:425] inception_5b/relu_5x5 <- inception_5b/5x5
I0903 16:38:32.827570 27408 net.cpp:386] inception_5b/relu_5x5 -> inception_5b/5x5 (in-place)
I0903 16:38:32.828081 27408 net.cpp:141] Setting up inception_5b/relu_5x5
I0903 16:38:32.828102 27408 net.cpp:148] Top shape: 10 128 7 7 (62720)
I0903 16:38:32.828111 27408 net.cpp:156] Memory required for data: 547232000
I0903 16:38:32.828120 27408 layer_factory.hpp:77] Creating layer inception_5b/pool
I0903 16:38:32.828138 27408 net.cpp:91] Creating Layer inception_5b/pool
I0903 16:38:32.828150 27408 net.cpp:425] inception_5b/pool <- inception_5a/output_inception_5a/output_0_split_3
I0903 16:38:32.828177 27408 net.cpp:399] inception_5b/pool -> inception_5b/pool
I0903 16:38:32.828430 27408 net.cpp:141] Setting up inception_5b/pool
I0903 16:38:32.828449 27408 net.cpp:148] Top shape: 10 832 7 7 (407680)
I0903 16:38:32.828457 27408 net.cpp:156] Memory required for data: 548862720
I0903 16:38:32.828465 27408 layer_factory.hpp:77] Creating layer inception_5b/pool_proj
I0903 16:38:32.828497 27408 net.cpp:91] Creating Layer inception_5b/pool_proj
I0903 16:38:32.828510 27408 net.cpp:425] inception_5b/pool_proj <- inception_5b/pool
I0903 16:38:32.828531 27408 net.cpp:399] inception_5b/pool_proj -> inception_5b/pool_proj
I0903 16:38:32.833369 27408 net.cpp:141] Setting up inception_5b/pool_proj
I0903 16:38:32.833417 27408 net.cpp:148] Top shape: 10 128 7 7 (62720)
I0903 16:38:32.833425 27408 net.cpp:156] Memory required for data: 549113600
I0903 16:38:32.833444 27408 layer_factory.hpp:77] Creating layer inception_5b/relu_pool_proj
I0903 16:38:32.833462 27408 net.cpp:91] Creating Layer inception_5b/relu_pool_proj
I0903 16:38:32.833485 27408 net.cpp:425] inception_5b/relu_pool_proj <- inception_5b/pool_proj
I0903 16:38:32.833503 27408 net.cpp:386] inception_5b/relu_pool_proj -> inception_5b/pool_proj (in-place)
I0903 16:38:32.834178 27408 net.cpp:141] Setting up inception_5b/relu_pool_proj
I0903 16:38:32.834197 27408 net.cpp:148] Top shape: 10 128 7 7 (62720)
I0903 16:38:32.834206 27408 net.cpp:156] Memory required for data: 549364480
I0903 16:38:32.834215 27408 layer_factory.hpp:77] Creating layer inception_5b/output
I0903 16:38:32.834240 27408 net.cpp:91] Creating Layer inception_5b/output
I0903 16:38:32.834254 27408 net.cpp:425] inception_5b/output <- inception_5b/1x1
I0903 16:38:32.834266 27408 net.cpp:425] inception_5b/output <- inception_5b/3x3
I0903 16:38:32.834278 27408 net.cpp:425] inception_5b/output <- inception_5b/5x5
I0903 16:38:32.834288 27408 net.cpp:425] inception_5b/output <- inception_5b/pool_proj
I0903 16:38:32.834301 27408 net.cpp:399] inception_5b/output -> inception_5b/output
I0903 16:38:32.834435 27408 net.cpp:141] Setting up inception_5b/output
I0903 16:38:32.834453 27408 net.cpp:148] Top shape: 10 1024 7 7 (501760)
I0903 16:38:32.834463 27408 net.cpp:156] Memory required for data: 551371520
I0903 16:38:32.834471 27408 layer_factory.hpp:77] Creating layer pool5/7x7_s1
I0903 16:38:32.834502 27408 net.cpp:91] Creating Layer pool5/7x7_s1
I0903 16:38:32.834513 27408 net.cpp:425] pool5/7x7_s1 <- inception_5b/output
I0903 16:38:32.834528 27408 net.cpp:399] pool5/7x7_s1 -> pool5/7x7_s1
I0903 16:38:32.835132 27408 net.cpp:141] Setting up pool5/7x7_s1
I0903 16:38:32.835151 27408 net.cpp:148] Top shape: 10 1024 1 1 (10240)
I0903 16:38:32.835161 27408 net.cpp:156] Memory required for data: 551412480
I0903 16:38:32.835170 27408 layer_factory.hpp:77] Creating layer pool5/drop_7x7_s1
I0903 16:38:32.835192 27408 net.cpp:91] Creating Layer pool5/drop_7x7_s1
I0903 16:38:32.835204 27408 net.cpp:425] pool5/drop_7x7_s1 <- pool5/7x7_s1
I0903 16:38:32.835222 27408 net.cpp:386] pool5/drop_7x7_s1 -> pool5/7x7_s1 (in-place)
I0903 16:38:32.835340 27408 net.cpp:141] Setting up pool5/drop_7x7_s1
I0903 16:38:32.835357 27408 net.cpp:148] Top shape: 10 1024 1 1 (10240)
I0903 16:38:32.835366 27408 net.cpp:156] Memory required for data: 551453440
I0903 16:38:32.835376 27408 layer_factory.hpp:77] Creating layer loss3/classifier
I0903 16:38:32.835393 27408 net.cpp:91] Creating Layer loss3/classifier
I0903 16:38:32.835405 27408 net.cpp:425] loss3/classifier <- pool5/7x7_s1
I0903 16:38:32.835424 27408 net.cpp:399] loss3/classifier -> loss3/classifier
I0903 16:38:32.846529 27408 net.cpp:141] Setting up loss3/classifier
I0903 16:38:32.846570 27408 net.cpp:148] Top shape: 10 1000 (10000)
I0903 16:38:32.846577 27408 net.cpp:156] Memory required for data: 551493440
I0903 16:38:32.846596 27408 layer_factory.hpp:77] Creating layer prob
I0903 16:38:32.846613 27408 net.cpp:91] Creating Layer prob
I0903 16:38:32.846624 27408 net.cpp:425] prob <- loss3/classifier
I0903 16:38:32.846638 27408 net.cpp:399] prob -> prob
I0903 16:38:32.847786 27408 net.cpp:141] Setting up prob
I0903 16:38:32.847808 27408 net.cpp:148] Top shape: 10 1000 (10000)
I0903 16:38:32.847817 27408 net.cpp:156] Memory required for data: 551533440
I0903 16:38:32.847827 27408 net.cpp:219] prob does not need backward computation.
I0903 16:38:32.847837 27408 net.cpp:219] loss3/classifier does not need backward computation.
I0903 16:38:32.847851 27408 net.cpp:219] pool5/drop_7x7_s1 does not need backward computation.
I0903 16:38:32.847859 27408 net.cpp:219] pool5/7x7_s1 does not need backward computation.
…
