…
Java HotSpot(TM) 64-Bit Server VM warning: You have loaded library /tmp/cvld2143321159716554905/libopencv_java310.so which might have disabled stack guard. The VM will try to fix the stack guard now.
It's highly recommended that you fix the library with 'execstack -c <libfile>', or link it with '-z noexecstack'.
WARNING: cuda not found in compile time, setting current GPU will not work.
WARNING: Logging before InitGoogleLogging() is written to STDERR
I0706 23:41:53.820225  9777 net.cpp:49] Initializing net from parameters: 
name: "GoogleNet"
state {
  phase: TEST
}
layer {
  name: "data"
  type: "Input"
  top: "data"
  input_param {
    shape {
      dim: 10
      dim: 3
      dim: 224
      dim: 224
    }
  }
}
layer {
  name: "conv1/7x7_s2"
  type: "Convolution"
  bottom: "data"
  top: "conv1/7x7_s2"
  param {
    lr_mult: 1
    decay_mult: 1
  }
  param {
    lr_mult: 2
    decay_mult: 0
  }
  convolution_param {
    num_output: 64
    pad: 3
    kernel_size: 7
    stride: 2
    weight_filler {
      type: "xavier"
      std: 0.1
    }
    bias_filler {
      type: "constant"
      value: 0.2
    }
  }
}
layer {
  name: "conv1/relu_7x7"
  type: "ReLU"
  bottom: "conv1/7x7_s2"
  top: "conv1/7x7_s2"
}
layer {
  name: "pool1/3x3_s2"
  type: "Pooling"
  bottom: "conv1/7x7_s2"
  top: "pool1/3x3_s2"
  pooling_param {
    pool: MAX
    kernel_size: 3
    stride: 2
  }
}
layer {
  name: "pool1/norm1"
  type: "LRN"
  bottom: "pool1/3x3_s2"
  top: "pool1/norm1"
  lrn_param {
    local_size: 5
    alpha: 0.0001
    beta: 0.75
  }
}
layer {
  name: "conv2/3x3_reduce"
  type: "Convolution"
  bottom: "pool1/norm1"
  top: "conv2/3x3_reduce"
  param {
    lr_mult: 1
    decay_mult: 1
  }
  param {
    lr_mult: 2
    decay_mult: 0
  }
  convolution_param {
    num_output: 64
    kernel_size: 1
    weight_filler {
      type: "xavier"
      std: 0.1
    }
    bias_filler {
      type: "constant"
      value: 0.2
    }
  }
}
layer {
  name: "conv2/relu_3x3_reduce"
  type: "ReLU"
  bottom: "conv2/3x3_reduce"
  top: "conv2/3x3_reduce"
}
layer {
  name: "conv2/3x3"
  type: "Convolution"
  bottom: "conv2/3x3_reduce"
  top: "conv2/3x3"
  param {
    lr_mult: 1
    decay_mult: 1
  }
  param {
    lr_mult: 2
    decay_mult: 0
  }
  convolution_param {
    num_output: 192
    pad: 1
    kernel_size: 3
    weight_filler {
      type: "xavier"
      std: 0.03
    }
    bias_filler {
      type: "constant"
      value: 0.2
    }
  }
}
layer {
  name: "conv2/relu_3x3"
  type: "ReLU"
  bottom: "conv2/3x3"
  top: "conv2/3x3"
}
layer {
  name: "conv2/norm2"
  type: "LRN"
  bottom: "conv2/3x3"
  top: "conv2/norm2"
  lrn_param {
    local_size: 5
    alpha: 0.0001
    beta: 0.75
  }
}
layer {
  name: "pool2/3x3_s2"
  type: "Pooling"
  bottom: "conv2/norm2"
  top: "pool2/3x3_s2"
  pooling_param {
    pool: MAX
    kernel_size: 3
    stride: 2
  }
}
layer {
  name: "inception_3a/1x1"
  type: "Convolution"
  bottom: "pool2/3x3_s2"
  top: "inception_3a/1x1"
  param {
    lr_mult: 1
    decay_mult: 1
  }
  param {
    lr_mult: 2
    decay_mult: 0
  }
  convolution_param {
    num_output: 64
    kernel_size: 1
    weight_filler {
      type: "xavier"
      std: 0.03
    }
    bias_filler {
      type: "constant"
      value: 0.2
    }
  }
}
layer {
  name: "inception_3a/relu_1x1"
  type: "ReLU"
  bottom: "inception_3a/1x1"
  top: "inception_3a/1x1"
}
layer {
  name: "inception_3a/3x3_reduce"
  type: "Convolution"
  bottom: "pool2/3x3_s2"
  top: "inception_3a/3x3_reduce"
  param {
    lr_mult: 1
    decay_mult: 1
  }
  param {
    lr_mult: 2
    decay_mult: 0
  }
  convolution_param {
    num_output: 96
    kernel_size: 1
    weight_filler {
      type: "xavier"
      std: 0.09
    }
    bias_filler {
      type: "constant"
      value: 0.2
    }
  }
}
layer {
  name: "inception_3a/relu_3x3_reduce"
  type: "ReLU"
  bottom: "inception_3a/3x3_reduce"
  top: "inception_3a/3x3_reduce"
}
layer {
  name: "inception_3a/3x3"
  type: "Convolution"
  bottom: "inception_3a/3x3_reduce"
  top: "inception_3a/3x3"
  param {
    lr_mult: 1
    decay_mult: 1
  }
  param {
    lr_mult: 2
    decay_mult: 0
  }
  convolution_param {
    num_output: 128
    pad: 1
    kernel_size: 3
    weight_filler {
      type: "xavier"
      std: 0.03
    }
    bias_filler {
      type: "constant"
      value: 0.2
    }
  }
}
layer {
  name: "inception_3a/relu_3x3"
  type: "ReLU"
  bottom: "inception_3a/3x3"
  top: "inception_3a/3x3"
}
layer {
  name: "inception_3a/5x5_reduce"
  type: "Convolution"
  bottom: "pool2/3x3_s2"
  top: "inception_3a/5x5_reduce"
  param {
    lr_mult: 1
    decay_mult: 1
  }
  param {
    lr_mult: 2
    decay_mult: 0
  }
  convolution_param {
    num_output: 16
    kernel_size: 1
    weight_filler {
      type: "xavier"
      std: 0.2
    }
    bias_filler {
      type: "constant"
      value: 0.2
    }
  }
}
layer {
  name: "inception_3a/relu_5x5_reduce"
  type: "ReLU"
  bottom: "inception_3a/5x5_reduce"
  top: "inception_3a/5x5_reduce"
}
layer {
  name: "inception_3a/5x5"
  type: "Convolution"
  bottom: "inception_3a/5x5_reduce"
  top: "inception_3a/5x5"
  param {
    lr_mult: 1
    decay_mult: 1
  }
  param {
    lr_mult: 2
    decay_mult: 0
  }
  convolution_param {
    num_output: 32
    pad: 2
    kernel_size: 5
    weight_filler {
      type: "xavier"
      std: 0.03
    }
    bias_filler {
      type: "constant"
      value: 0.2
    }
  }
}
layer {
  name: "inception_3a/relu_5x5"
  type: "ReLU"
  bottom: "inception_3a/5x5"
  top: "inception_3a/5x5"
}
layer {
  name: "inception_3a/pool"
  type: "Pooling"
  bottom: "pool2/3x3_s2"
  top: "inception_3a/pool"
  pooling_param {
    pool: MAX
    kernel_size: 3
    stride: 1
    pad: 1
  }
}
layer {
  name: "inception_3a/pool_proj"
  type: "Convolution"
  bottom: "inception_3a/pool"
  top: "inception_3a/pool_proj"
  param {
    lr_mult: 1
    decay_mult: 1
  }
  param {
    lr_mult: 2
    decay_mult: 0
  }
  convolution_param {
    num_output: 32
    kernel_size: 1
    weight_filler {
      type: "xavier"
      std: 0.1
    }
    bias_filler {
      type: "constant"
      value: 0.2
    }
  }
}
layer {
  name: "inception_3a/relu_pool_proj"
  type: "ReLU"
  bottom: "inception_3a/pool_proj"
  top: "inception_3a/pool_proj"
}
layer {
  name: "inception_3a/output"
  type: "Concat"
  bottom: "inception_3a/1x1"
  bottom: "inception_3a/3x3"
  bottom: "inception_3a/5x5"
  bottom: "inception_3a/pool_proj"
  top: "inception_3a/output"
}
layer {
  name: "inception_3b/1x1"
  type: "Convolution"
  bottom: "inception_3a/output"
  top: "inception_3b/1x1"
  param {
    lr_mult: 1
    decay_mult: 1
  }
  param {
    lr_mult: 2
    decay_mult: 0
  }
  convolution_param {
    num_output: 128
    kernel_size: 1
    weight_filler {
      type: "xavier"
      std: 0.03
    }
    bias_filler {
      type: "constant"
      value: 0.2
    }
  }
}
layer {
  name: "inception_3b/relu_1x1"
  type: "ReLU"
  bottom: "inception_3b/1x1"
  top: "inception_3b/1x1"
}
layer {
  name: "inception_3b/3x3_reduce"
  type: "Convolution"
  bottom: "inception_3a/output"
  top: "inception_3b/3x3_reduce"
  param {
    lr_mult: 1
    decay_mult: 1
  }
  param {
    lr_mult: 2
    decay_mult: 0
  }
  convolution_param {
    num_output: 128
    kernel_size: 1
    weight_filler {
      type: "xavier"
      std: 0.09
    }
    bias_filler {
      type: "constant"
      value: 0.2
    }
  }
}
layer {
  name: "inception_3b/relu_3x3_reduce"
  type: "ReLU"
  bottom: "inception_3b/3x3_reduce"
  top: "inception_3b/3x3_reduce"
}
layer {
  name: "inception_3b/3x3"
  type: "Convolution"
  bottom: "inception_3b/3x3_reduce"
  top: "inception_3b/3x3"
  param {
    lr_mult: 1
    decay_mult: 1
  }
  param {
    lr_mult: 2
    decay_mult: 0
  }
  convolution_param {
    num_output: 192
    pad: 1
    kernel_size: 3
    weight_filler {
      type: "xavier"
      std: 0.03
    }
    bias_filler {
      type: "constant"
      value: 0.2
    }
  }
}
layer {
  name: "inception_3b/relu_3x3"
  type: "ReLU"
  bottom: "inception_3b/3x3"
  top: "inception_3b/3x3"
}
layer {
  name: "inception_3b/5x5_reduce"
  type: "Convolution"
  bottom: "inception_3a/output"
  top: "inception_3b/5x5_reduce"
  param {
    lr_mult: 1
    decay_mult: 1
  }
  param {
    lr_mult: 2
    decay_mult: 0
  }
  convolution_param {
    num_output: 32
    kernel_size: 1
    weight_filler {
      type: "xavier"
      std: 0.2
    }
    bias_filler {
      type: "constant"
      value: 0.2
    }
  }
}
layer {
  name: "inception_3b/relu_5x5_reduce"
  type: "ReLU"
  bottom: "inception_3b/5x5_reduce"
  top: "inception_3b/5x5_reduce"
}
layer {
  name: "inception_3b/5x5"
  type: "Convolution"
  bottom: "inception_3b/5x5_reduce"
  top: "inception_3b/5x5"
  param {
    lr_mult: 1
    decay_mult: 1
  }
  param {
    lr_mult: 2
    decay_mult: 0
  }
  convolution_param {
    num_output: 96
    pad: 2
    kernel_size: 5
    weight_filler {
      type: "xavier"
      std: 0.03
    }
    bias_filler {
      type: "constant"
      value: 0.2
    }
  }
}
layer {
  name: "inception_3b/relu_5x5"
  type: "ReLU"
  bottom: "inception_3b/5x5"
  top: "inception_3b/5x5"
}
layer {
  name: "inception_3b/pool"
  type: "Pooling"
  bottom: "inception_3a/output"
  top: "inception_3b/pool"
  pooling_param {
    pool: MAX
    kernel_size: 3
    stride: 1
    pad: 1
  }
}
layer {
  name: "inception_3b/pool_proj"
  type: "Convolution"
  bottom: "inception_3b/pool"
  top: "inception_3b/pool_proj"
  param {
    lr_mult: 1
    decay_mult: 1
  }
  param {
    lr_mult: 2
    decay_mult: 0
  }
  convolution_param {
    num_output: 64
    kernel_size: 1
    weight_filler {
      type: "xavier"
      std: 0.1
    }
    bias_filler {
      type: "constant"
      value: 0.2
    }
  }
}
layer {
  name: "inception_3b/relu_pool_proj"
  type: "ReLU"
  bottom: "inception_3b/pool_proj"
  top: "inception_3b/pool_proj"
}
layer {
  name: "inception_3b/output"
  type: "Concat"
  bottom: "inception_3b/1x1"
  bottom: "inception_3b/3x3"
  bottom: "inception_3b/5x5"
  bottom: "inception_3b/pool_proj"
  top: "inception_3b/output"
}
layer {
  name: "pool3/3x3_s2"
  type: "Pooling"
  bottom: "inception_3b/output"
  top: "pool3/3x3_s2"
  pooling_param {
    pool: MAX
    kernel_size: 3
    stride: 2
  }
}
layer {
  name: "inception_4a/1x1"
  type: "Convolution"
  bottom: "pool3/3x3_s2"
  top: "inception_4a/1x1"
  param {
    lr_mult: 1
    decay_mult: 1
  }
  param {
    lr_mult: 2
    decay_mult: 0
  }
  convolution_param {
    num_output: 192
    kernel_size: 1
    weight_filler {
      type: "xavier"
      std: 0.03
    }
    bias_filler {
      type: "constant"
      value: 0.2
    }
  }
}
layer {
  name: "inception_4a/relu_1x1"
  type: "ReLU"
  bottom: "inception_4a/1x1"
  top: "inception_4a/1x1"
}
layer {
  name: "inception_4a/3x3_reduce"
  type: "Convolution"
  bottom: "pool3/3x3_s2"
  top: "inception_4a/3x3_reduce"
  param {
    lr_mult: 1
    decay_mult: 1
  }
  param {
    lr_mult: 2
    decay_mult: 0
  }
  convolution_param {
    num_output: 96
    kernel_size: 1
    weight_filler {
      type: "xavier"
      std: 0.09
    }
    bias_filler {
      type: "constant"
      value: 0.2
    }
  }
}
layer {
  name: "inception_4a/relu_3x3_reduce"
  type: "ReLU"
  bottom: "inception_4a/3x3_reduce"
  top: "inception_4a/3x3_reduce"
}
layer {
  name: "inception_4a/3x3"
  type: "Convolution"
  bottom: "inception_4a/3x3_reduce"
  top: "inception_4a/3x3"
  param {
    lr_mult: 1
    decay_mult: 1
  }
  param {
    lr_mult: 2
    decay_mult: 0
  }
  convolution_param {
    num_output: 208
    pad: 1
    kernel_size: 3
    weight_filler {
      type: "xavier"
      std: 0.03
    }
    bias_filler {
      type: "constant"
      value: 0.2
    }
  }
}
layer {
  name: "inception_4a/relu_3x3"
  type: "ReLU"
  bottom: "inception_4a/3x3"
  top: "inception_4a/3x3"
}
layer {
  name: "inception_4a/5x5_reduce"
  type: "Convolution"
  bottom: "pool3/3x3_s2"
  top: "inception_4a/5x5_reduce"
  param {
    lr_mult: 1
    decay_mult: 1
  }
  param {
    lr_mult: 2
    decay_mult: 0
  }
  convolution_param {
    num_output: 16
    kernel_size: 1
    weight_filler {
      type: "xavier"
      std: 0.2
    }
    bias_filler {
      type: "constant"
      value: 0.2
    }
  }
}
layer {
  name: "inception_4a/relu_5x5_reduce"
  type: "ReLU"
  bottom: "inception_4a/5x5_reduce"
  top: "inception_4a/5x5_reduce"
}
layer {
  name: "inception_4a/5x5"
  type: "Convolution"
  bottom: "inception_4a/5x5_reduce"
  top: "inception_4a/5x5"
  param {
    lr_mult: 1
    decay_mult: 1
  }
  param {
    lr_mult: 2
    decay_mult: 0
  }
  convolution_param {
    num_output: 48
    pad: 2
    kernel_size: 5
    weight_filler {
      type: "xavier"
      std: 0.03
    }
    bias_filler {
      type: "constant"
      value: 0.2
    }
  }
}
layer {
  name: "inception_4a/relu_5x5"
  type: "ReLU"
  bottom: "inception_4a/5x5"
  top: "inception_4a/5x5"
}
layer {
  name: "inception_4a/pool"
  type: "Pooling"
  bottom: "pool3/3x3_s2"
  top: "inception_4a/pool"
  pooling_param {
    pool: MAX
    kernel_size: 3
    stride: 1
    pad: 1
  }
}
layer {
  name: "inception_4a/pool_proj"
  type: "Convolution"
  bottom: "inception_4a/pool"
  top: "inception_4a/pool_proj"
  param {
    lr_mult: 1
    decay_mult: 1
  }
  param {
    lr_mult: 2
    decay_mult: 0
  }
  convolution_param {
    num_output: 64
    kernel_size: 1
    weight_filler {
      type: "xavier"
      std: 0.1
    }
    bias_filler {
      type: "constant"
      value: 0.2
    }
  }
}
layer {
  name: "inception_4a/relu_pool_proj"
  type: "ReLU"
  bottom: "inception_4a/pool_proj"
  top: "inception_4a/pool_proj"
}
layer {
  name: "inception_4a/output"
  type: "Concat"
  bottom: "inception_4a/1x1"
  bottom: "inception_4a/3x3"
  bottom: "inception_4a/5x5"
  bottom: "inception_4a/pool_proj"
  top: "inception_4a/output"
}
layer {
  name: "inception_4b/1x1"
  type: "Convolution"
  bottom: "inception_4a/output"
  top: "inception_4b/1x1"
  param {
    lr_mult: 1
    decay_mult: 1
  }
  param {
    lr_mult: 2
    decay_mult: 0
  }
  convolution_param {
    num_output: 160
    kernel_size: 1
    weight_filler {
      type: "xavier"
      std: 0.03
    }
    bias_filler {
      type: "constant"
      value: 0.2
    }
  }
}
layer {
  name: "inception_4b/relu_1x1"
  type: "ReLU"
  bottom: "inception_4b/1x1"
  top: "inception_4b/1x1"
}
layer {
  name: "inception_4b/3x3_reduce"
  type: "Convolution"
  bottom: "inception_4a/output"
  top: "inception_4b/3x3_reduce"
  param {
    lr_mult: 1
    decay_mult: 1
  }
  param {
    lr_mult: 2
    decay_mult: 0
  }
  convolution_param {
    num_output: 112
    kernel_size: 1
    weight_filler {
      type: "xavier"
      std: 0.09
    }
    bias_filler {
      type: "constant"
      value: 0.2
    }
  }
}
layer {
  name: "inception_4b/relu_3x3_reduce"
  type: "ReLU"
  bottom: "inception_4b/3x3_reduce"
  top: "inception_4b/3x3_reduce"
}
layer {
  name: "inception_4b/3x3"
  type: "Convolution"
  bottom: "inception_4b/3x3_reduce"
  top: "inception_4b/3x3"
  param {
    lr_mult: 1
    decay_mult: 1
  }
  param {
    lr_mult: 2
    decay_mult: 0
  }
  convolution_param {
    num_output: 224
    pad: 1
    kernel_size: 3
    weight_filler {
      type: "xavier"
      std: 0.03
    }
    bias_filler {
      type: "constant"
      value: 0.2
    }
  }
}
layer {
  name: "inception_4b/relu_3x3"
  type: "ReLU"
  bottom: "inception_4b/3x3"
  top: "inception_4b/3x3"
}
layer {
  name: "inception_4b/5x5_reduce"
  type: "Convolution"
  bottom: "inception_4a/output"
  top: "inception_4b/5x5_reduce"
  param {
    lr_mult: 1
    decay_mult: 1
  }
  param {
    lr_mult: 2
    decay_mult: 0
  }
  convolution_param {
    num_output: 24
    kernel_size: 1
    weight_filler {
      type: "xavier"
      std: 0.2
    }
    bias_filler {
      type: "constant"
      value: 0.2
    }
  }
}
layer {
  name: "inception_4b/relu_5x5_reduce"
  type: "ReLU"
  bottom: "inception_4b/5x5_reduce"
  top: "inception_4b/5x5_reduce"
}
layer {
  name: "inception_4b/5x5"
  type: "Convolution"
  bottom: "inception_4b/5x5_reduce"
  top: "inception_4b/5x5"
  param {
    lr_mult: 1
    decay_mult: 1
  }
  param {
    lr_mult: 2
    decay_mult: 0
  }
  convolution_param {
    num_output: 64
    pad: 2
    kernel_size: 5
    weight_filler {
      type: "xavier"
      std: 0.03
    }
    bias_filler {
      type: "constant"
      value: 0.2
    }
  }
}
layer {
  name: "inception_4b/relu_5x5"
  type: "ReLU"
  bottom: "inception_4b/5x5"
  top: "inception_4b/5x5"
}
layer {
  name: "inception_4b/pool"
  type: "Pooling"
  bottom: "inception_4a/output"
  top: "inception_4b/pool"
  pooling_param {
    pool: MAX
    kernel_size: 3
    stride: 1
    pad: 1
  }
}
layer {
  name: "inception_4b/pool_proj"
  type: "Convolution"
  bottom: "inception_4b/pool"
  top: "inception_4b/pool_proj"
  param {
    lr_mult: 1
    decay_mult: 1
  }
  param {
    lr_mult: 2
    decay_mult: 0
  }
  convolution_param {
    num_output: 64
    kernel_size: 1
    weight_filler {
      type: "xavier"
      std: 0.1
    }
    bias_filler {
      type: "constant"
      value: 0.2
    }
  }
}
layer {
  name: "inception_4b/relu_pool_proj"
  type: "ReLU"
  bottom: "inception_4b/pool_proj"
  top: "inception_4b/pool_proj"
}
layer {
  name: "inception_4b/output"
  type: "Concat"
  bottom: "inception_4b/1x1"
  bottom: "inception_4b/3x3"
  bottom: "inception_4b/5x5"
  bottom: "inception_4b/pool_proj"
  top: "inception_4b/output"
}
layer {
  name: "inception_4c/1x1"
  type: "Convolution"
  bottom: "inception_4b/output"
  top: "inception_4c/1x1"
  param {
    lr_mult: 1
    decay_mult: 1
  }
  param {
    lr_mult: 2
    decay_mult: 0
  }
  convolution_param {
    num_output: 128
    kernel_size: 1
    weight_filler {
      type: "xavier"
      std: 0.03
    }
    bias_filler {
      type: "constant"
      value: 0.2
    }
  }
}
layer {
  name: "inception_4c/relu_1x1"
  type: "ReLU"
  bottom: "inception_4c/1x1"
  top: "inception_4c/1x1"
}
layer {
  name: "inception_4c/3x3_reduce"
  type: "Convolution"
  bottom: "inception_4b/output"
  top: "inception_4c/3x3_reduce"
  param {
    lr_mult: 1
    decay_mult: 1
  }
  param {
    lr_mult: 2
    decay_mult: 0
  }
  convolution_param {
    num_output: 128
    kernel_size: 1
    weight_filler {
      type: "xavier"
      std: 0.09
    }
    bias_filler {
      type: "constant"
      value: 0.2
    }
  }
}
layer {
  name: "inception_4c/relu_3x3_reduce"
  type: "ReLU"
  bottom: "inception_4c/3x3_reduce"
  top: "inception_4c/3x3_reduce"
}
layer {
  name: "inception_4c/3x3"
  type: "Convolution"
  bottom: "inception_4c/3x3_reduce"
  top: "inception_4c/3x3"
  param {
    lr_mult: 1
    decay_mult: 1
  }
  param {
    lr_mult: 2
    decay_mult: 0
  }
  convolution_param {
    num_output: 256
    pad: 1
    kernel_size: 3
    weight_filler {
      type: "xavier"
      std: 0.03
    }
    bias_filler {
      type: "constant"
      value: 0.2
    }
  }
}
layer {
  name: "inception_4c/relu_3x3"
  type: "ReLU"
  bottom: "inception_4c/3x3"
  top: "inception_4c/3x3"
}
layer {
  name: "inception_4c/5x5_reduce"
  type: "Convolution"
  bottom: "inception_4b/output"
  top: "inception_4c/5x5_reduce"
  param {
    lr_mult: 1
    decay_mult: 1
  }
  param {
    lr_mult: 2
    decay_mult: 0
  }
  convolution_param {
    num_output: 24
    kernel_size: 1
    weight_filler {
      type: "xavier"
      std: 0.2
    }
    bias_filler {
      type: "constant"
      value: 0.2
    }
  }
}
layer {
  name: "inception_4c/relu_5x5_reduce"
  type: "ReLU"
  bottom: "inception_4c/5x5_reduce"
  top: "inception_4c/5x5_reduce"
}
layer {
  name: "inception_4c/5x5"
  type: "Convolution"
  bottom: "inception_4c/5x5_reduce"
  top: "inception_4c/5x5"
  param {
    lr_mult: 1
    decay_mult: 1
  }
  param {
    lr_mult: 2
    decay_mult: 0
  }
  convolution_param {
    num_output: 64
    pad: 2
    kernel_size: 5
    weight_filler {
      type: "xavier"
      std: 0.03
    }
    bias_filler {
      type: "constant"
      value: 0.2
    }
  }
}
layer {
  name: "inception_4c/relu_5x5"
  type: "ReLU"
  bottom: "inception_4c/5x5"
  top: "inception_4c/5x5"
}
layer {
  name: "inception_4c/pool"
  type: "Pooling"
  bottom: "inception_4b/output"
  top: "inception_4c/pool"
  pooling_param {
    pool: MAX
    kernel_size: 3
    stride: 1
    pad: 1
  }
}
layer {
  name: "inception_4c/pool_proj"
  type: "Convolution"
  bottom: "inception_4c/pool"
  top: "inception_4c/pool_proj"
  param {
    lr_mult: 1
    decay_mult: 1
  }
  param {
    lr_mult: 2
    decay_mult: 0
  }
  convolution_param {
    num_output: 64
    kernel_size: 1
    weight_filler {
      type: "xavier"
      std: 0.1
    }
    bias_filler {
      type: "constant"
      value: 0.2
    }
  }
}
layer {
  name: "inception_4c/relu_pool_proj"
  type: "ReLU"
  bottom: "inception_4c/pool_proj"
  top: "inception_4c/pool_proj"
}
layer {
  name: "inception_4c/output"
  type: "Concat"
  bottom: "inception_4c/1x1"
  bottom: "inception_4c/3x3"
  bottom: "inception_4c/5x5"
  bottom: "inception_4c/pool_proj"
  top: "inception_4c/output"
}
layer {
  name: "inception_4d/1x1"
  type: "Convolution"
  bottom: "inception_4c/output"
  top: "inception_4d/1x1"
  param {
    lr_mult: 1
    decay_mult: 1
  }
  param {
    lr_mult: 2
    decay_mult: 0
  }
  convolution_param {
    num_output: 112
    kernel_size: 1
    weight_filler {
      type: "xavier"
      std: 0.03
    }
    bias_filler {
      type: "constant"
      value: 0.2
    }
  }
}
layer {
  name: "inception_4d/relu_1x1"
  type: "ReLU"
  bottom: "inception_4d/1x1"
  top: "inception_4d/1x1"
}
layer {
  name: "inception_4d/3x3_reduce"
  type: "Convolution"
  bottom: "inception_4c/output"
  top: "inception_4d/3x3_reduce"
  param {
    lr_mult: 1
    decay_mult: 1
  }
  param {
    lr_mult: 2
    decay_mult: 0
  }
  convolution_param {
    num_output: 144
    kernel_size: 1
    weight_filler {
      type: "xavier"
      std: 0.09
    }
    bias_filler {
      type: "constant"
      value: 0.2
    }
  }
}
layer {
  name: "inception_4d/relu_3x3_reduce"
  type: "ReLU"
  bottom: "inception_4d/3x3_reduce"
  top: "inception_4d/3x3_reduce"
}
layer {
  name: "inception_4d/3x3"
  type: "Convolution"
  bottom: "inception_4d/3x3_reduce"
  top: "inception_4d/3x3"
  param {
    lr_mult: 1
    decay_mult: 1
  }
  param {
    lr_mult: 2
    decay_mult: 0
  }
  convolution_param {
    num_output: 288
    pad: 1
    kernel_size: 3
    weight_filler {
      type: "xavier"
      std: 0.03
    }
    bias_filler {
      type: "constant"
      value: 0.2
    }
  }
}
layer {
  name: "inception_4d/relu_3x3"
  type: "ReLU"
  bottom: "inception_4d/3x3"
  top: "inception_4d/3x3"
}
layer {
  name: "inception_4d/5x5_reduce"
  type: "Convolution"
  bottom: "inception_4c/output"
  top: "inception_4d/5x5_reduce"
  param {
    lr_mult: 1
    decay_mult: 1
  }
  param {
    lr_mult: 2
    decay_mult: 0
  }
  convolution_param {
    num_output: 32
    kernel_size: 1
    weight_filler {
      type: "xavier"
      std: 0.2
    }
    bias_filler {
      type: "constant"
      value: 0.2
    }
  }
}
layer {
  name: "inception_4d/relu_5x5_reduce"
  type: "ReLU"
  bottom: "inception_4d/5x5_reduce"
  top: "inception_4d/5x5_reduce"
}
layer {
  name: "inception_4d/5x5"
  type: "Convolution"
  bottom: "inception_4d/5x5_reduce"
  top: "inception_4d/5x5"
  param {
    lr_mult: 1
    decay_mult: 1
  }
  param {
    lr_mult: 2
    decay_mult: 0
  }
  convolution_param {
    num_output: 64
    pad: 2
    kernel_size: 5
    weight_filler {
      type: "xavier"
      std: 0.03
    }
    bias_filler {
      type: "constant"
      value: 0.2
    }
  }
}
layer {
  name: "inception_4d/relu_5x5"
  type: "ReLU"
  bottom: "inception_4d/5x5"
  top: "inception_4d/5x5"
}
layer {
  name: "inception_4d/pool"
  type: "Pooling"
  bottom: "inception_4c/output"
  top: "inception_4d/pool"
  pooling_param {
    pool: MAX
    kernel_size: 3
    stride: 1
    pad: 1
  }
}
layer {
  name: "inception_4d/pool_proj"
  type: "Convolution"
  bottom: "inception_4d/pool"
  top: "inception_4d/pool_proj"
  param {
    lr_mult: 1
    decay_mult: 1
  }
  param {
    lr_mult: 2
    decay_mult: 0
  }
  convolution_param {
    num_output: 64
    kernel_size: 1
    weight_filler {
      type: "xavier"
      std: 0.1
    }
    bias_filler {
      type: "constant"
      value: 0.2
    }
  }
}
layer {
  name: "inception_4d/relu_pool_proj"
  type: "ReLU"
  bottom: "inception_4d/pool_proj"
  top: "inception_4d/pool_proj"
}
layer {
  name: "inception_4d/output"
  type: "Concat"
  bottom: "inception_4d/1x1"
  bottom: "inception_4d/3x3"
  bottom: "inception_4d/5x5"
  bottom: "inception_4d/pool_proj"
  top: "inception_4d/output"
}
layer {
  name: "inception_4e/1x1"
  type: "Convolution"
  bottom: "inception_4d/output"
  top: "inception_4e/1x1"
  param {
    lr_mult: 1
    decay_mult: 1
  }
  param {
    lr_mult: 2
    decay_mult: 0
  }
  convolution_param {
    num_output: 256
    kernel_size: 1
    weight_filler {
      type: "xavier"
      std: 0.03
    }
    bias_filler {
      type: "constant"
      value: 0.2
    }
  }
}
layer {
  name: "inception_4e/relu_1x1"
  type: "ReLU"
  bottom: "inception_4e/1x1"
  top: "inception_4e/1x1"
}
layer {
  name: "inception_4e/3x3_reduce"
  type: "Convolution"
  bottom: "inception_4d/output"
  top: "inception_4e/3x3_reduce"
  param {
    lr_mult: 1
    decay_mult: 1
  }
  param {
    lr_mult: 2
    decay_mult: 0
  }
  convolution_param {
    num_output: 160
    kernel_size: 1
    weight_filler {
      type: "xavier"
      std: 0.09
    }
    bias_filler {
      type: "constant"
      value: 0.2
    }
  }
}
layer {
  name: "inception_4e/relu_3x3_reduce"
  type: "ReLU"
  bottom: "inception_4e/3x3_reduce"
  top: "inception_4e/3x3_reduce"
}
layer {
  name: "inception_4e/3x3"
  type: "Convolution"
  bottom: "inception_4e/3x3_reduce"
  top: "inception_4e/3x3"
  param {
    lr_mult: 1
    decay_mult: 1
  }
  param {
    lr_mult: 2
    decay_mult: 0
  }
  convolution_param {
    num_output: 320
    pad: 1
    kernel_size: 3
    weight_filler {
      type: "xavier"
      std: 0.03
    }
    bias_filler {
      type: "constant"
      value: 0.2
    }
  }
}
layer {
  name: "inception_4e/relu_3x3"
  type: "ReLU"
  bottom: "inception_4e/3x3"
  top: "inception_4e/3x3"
}
layer {
  name: "inception_4e/5x5_reduce"
  type: "Convolution"
  bottom: "inception_4d/output"
  top: "inception_4e/5x5_reduce"
  param {
    lr_mult: 1
    decay_mult: 1
  }
  param {
    lr_mult: 2
    decay_mult: 0
  }
  convolution_param {
    num_output: 32
    kernel_size: 1
    weight_filler {
      type: "xavier"
      std: 0.2
    }
    bias_filler {
      type: "constant"
      value: 0.2
    }
  }
}
layer {
  name: "inception_4e/relu_5x5_reduce"
  type: "ReLU"
  bottom: "inception_4e/5x5_reduce"
  top: "inception_4e/5x5_reduce"
}
layer {
  name: "inception_4e/5x5"
  type: "Convolution"
  bottom: "inception_4e/5x5_reduce"
  top: "inception_4e/5x5"
  param {
    lr_mult: 1
    decay_mult: 1
  }
  param {
    lr_mult: 2
    decay_mult: 0
  }
  convolution_param {
    num_output: 128
    pad: 2
    kernel_size: 5
    weight_filler {
      type: "xavier"
      std: 0.03
    }
    bias_filler {
      type: "constant"
      value: 0.2
    }
  }
}
layer {
  name: "inception_4e/relu_5x5"
  type: "ReLU"
  bottom: "inception_4e/5x5"
  top: "inception_4e/5x5"
}
layer {
  name: "inception_4e/pool"
  type: "Pooling"
  bottom: "inception_4d/output"
  top: "inception_4e/pool"
  pooling_param {
    pool: MAX
    kernel_size: 3
    stride: 1
    pad: 1
  }
}
layer {
  name: "inception_4e/pool_proj"
  type: "Convolution"
  bottom: "inception_4e/pool"
  top: "inception_4e/pool_proj"
  param {
    lr_mult: 1
    decay_mult: 1
  }
  param {
    lr_mult: 2
    decay_mult: 0
  }
  convolution_param {
    num_output: 128
    kernel_size: 1
    weight_filler {
      type: "xavier"
      std: 0.1
    }
    bias_filler {
      type: "constant"
      value: 0.2
    }
  }
}
layer {
  name: "inception_4e/relu_pool_proj"
  type: "ReLU"
  bottom: "inception_4e/pool_proj"
  top: "inception_4e/pool_proj"
}
layer {
  name: "inception_4e/output"
  type: "Concat"
  bottom: "inception_4e/1x1"
  bottom: "inception_4e/3x3"
  bottom: "inception_4e/5x5"
  bottom: "inception_4e/pool_proj"
  top: "inception_4e/output"
}
layer {
  name: "pool4/3x3_s2"
  type: "Pooling"
  bottom: "inception_4e/output"
  top: "pool4/3x3_s2"
  pooling_param {
    pool: MAX
    kernel_size: 3
    stride: 2
  }
}
layer {
  name: "inception_5a/1x1"
  type: "Convolution"
  bottom: "pool4/3x3_s2"
  top: "inception_5a/1x1"
  param {
    lr_mult: 1
    decay_mult: 1
  }
  param {
    lr_mult: 2
    decay_mult: 0
  }
  convolution_param {
    num_output: 256
    kernel_size: 1
    weight_filler {
      type: "xavier"
      std: 0.03
    }
    bias_filler {
      type: "constant"
      value: 0.2
    }
  }
}
layer {
  name: "inception_5a/relu_1x1"
  type: "ReLU"
  bottom: "inception_5a/1x1"
  top: "inception_5a/1x1"
}
layer {
  name: "inception_5a/3x3_reduce"
  type: "Convolution"
  bottom: "pool4/3x3_s2"
  top: "inception_5a/3x3_reduce"
  param {
    lr_mult: 1
    decay_mult: 1
  }
  param {
    lr_mult: 2
    decay_mult: 0
  }
  convolution_param {
    num_output: 160
    kernel_size: 1
    weight_filler {
      type: "xavier"
      std: 0.09
    }
    bias_filler {
      type: "constant"
      value: 0.2
    }
  }
}
layer {
  name: "inception_5a/relu_3x3_reduce"
  type: "ReLU"
  bottom: "inception_5a/3x3_reduce"
  top: "inception_5a/3x3_reduce"
}
layer {
  name: "inception_5a/3x3"
  type: "Convolution"
  bottom: "inception_5a/3x3_reduce"
  top: "inception_5a/3x3"
  param {
    lr_mult: 1
    decay_mult: 1
  }
  param {
    lr_mult: 2
    decay_mult: 0
  }
  convolution_param {
    num_output: 320
    pad: 1
    kernel_size: 3
    weight_filler {
      type: "xavier"
      std: 0.03
    }
    bias_filler {
      type: "constant"
      value: 0.2
    }
  }
}
layer {
  name: "inception_5a/relu_3x3"
  type: "ReLU"
  bottom: "inception_5a/3x3"
  top: "inception_5a/3x3"
}
layer {
  name: "inception_5a/5x5_reduce"
  type: "Convolution"
  bottom: "pool4/3x3_s2"
  top: "inception_5a/5x5_reduce"
  param {
    lr_mult: 1
    decay_mult: 1
  }
  param {
    lr_mult: 2
    decay_mult: 0
  }
  convolution_param {
    num_output: 32
    kernel_size: 1
    weight_filler {
      type: "xavier"
      std: 0.2
    }
    bias_filler {
      type: "constant"
      value: 0.2
    }
I0706 23:41:53.821053  9777 layer_factory.hpp:77] Creating layer data
I0706 23:41:53.821076  9777 net.cpp:91] Creating Layer data
I0706 23:41:53.821085  9777 net.cpp:399] data -> data
I0706 23:41:54.401587  9777 net.cpp:141] Setting up data
I0706 23:41:54.402791  9777 net.cpp:148] Top shape: 10 3 224 224 (1505280)
I0706 23:41:54.402804  9777 net.cpp:156] Memory required for data: 6021120
I0706 23:41:54.402824  9777 layer_factory.hpp:77] Creating layer conv1/7x7_s2
I0706 23:41:54.402858  9777 net.cpp:91] Creating Layer conv1/7x7_s2
I0706 23:41:54.402866  9777 net.cpp:425] conv1/7x7_s2 <- data
I0706 23:41:54.402879  9777 net.cpp:399] conv1/7x7_s2 -> conv1/7x7_s2
I0706 23:41:54.625114  9777 net.cpp:141] Setting up conv1/7x7_s2
I0706 23:41:54.625170  9777 net.cpp:148] Top shape: 10 64 112 112 (8028160)
I0706 23:41:54.625176  9777 net.cpp:156] Memory required for data: 38133760
I0706 23:41:54.625205  9777 layer_factory.hpp:77] Creating layer conv1/relu_7x7
I0706 23:41:54.625226  9777 net.cpp:91] Creating Layer conv1/relu_7x7
I0706 23:41:54.625233  9777 net.cpp:425] conv1/relu_7x7 <- conv1/7x7_s2
I0706 23:41:54.625241  9777 net.cpp:386] conv1/relu_7x7 -> conv1/7x7_s2 (in-place)
I0706 23:41:54.625927  9777 net.cpp:141] Setting up conv1/relu_7x7
I0706 23:41:54.625941  9777 net.cpp:148] Top shape: 10 64 112 112 (8028160)
I0706 23:41:54.625946  9777 net.cpp:156] Memory required for data: 70246400
I0706 23:41:54.625952  9777 layer_factory.hpp:77] Creating layer pool1/3x3_s2
I0706 23:41:54.625965  9777 net.cpp:91] Creating Layer pool1/3x3_s2
I0706 23:41:54.625970  9777 net.cpp:425] pool1/3x3_s2 <- conv1/7x7_s2
I0706 23:41:54.625977  9777 net.cpp:399] pool1/3x3_s2 -> pool1/3x3_s2
I0706 23:41:54.626194  9777 net.cpp:141] Setting up pool1/3x3_s2
I0706 23:41:54.626231  9777 net.cpp:148] Top shape: 10 64 56 56 (2007040)
I0706 23:41:54.626236  9777 net.cpp:156] Memory required for data: 78274560
I0706 23:41:54.626245  9777 layer_factory.hpp:77] Creating layer pool1/norm1
I0706 23:41:54.626269  9777 net.cpp:91] Creating Layer pool1/norm1
I0706 23:41:54.626276  9777 net.cpp:425] pool1/norm1 <- pool1/3x3_s2
I0706 23:41:54.626286  9777 net.cpp:399] pool1/norm1 -> pool1/norm1
I0706 23:41:54.627621  9777 net.cpp:141] Setting up pool1/norm1
I0706 23:41:54.627653  9777 net.cpp:148] Top shape: 10 64 56 56 (2007040)
I0706 23:41:54.627658  9777 net.cpp:156] Memory required for data: 86302720
I0706 23:41:54.627663  9777 layer_factory.hpp:77] Creating layer conv2/3x3_reduce
I0706 23:41:54.627681  9777 net.cpp:91] Creating Layer conv2/3x3_reduce
I0706 23:41:54.627687  9777 net.cpp:425] conv2/3x3_reduce <- pool1/norm1
I0706 23:41:54.627696  9777 net.cpp:399] conv2/3x3_reduce -> conv2/3x3_reduce
I0706 23:41:54.630174  9777 net.cpp:141] Setting up conv2/3x3_reduce
I0706 23:41:54.630205  9777 net.cpp:148] Top shape: 10 64 56 56 (2007040)
I0706 23:41:54.630211  9777 net.cpp:156] Memory required for data: 94330880
I0706 23:41:54.630225  9777 layer_factory.hpp:77] Creating layer conv2/relu_3x3_reduce
I0706 23:41:54.630235  9777 net.cpp:91] Creating Layer conv2/relu_3x3_reduce
I0706 23:41:54.630239  9777 net.cpp:425] conv2/relu_3x3_reduce <- conv2/3x3_reduce
I0706 23:41:54.630246  9777 net.cpp:386] conv2/relu_3x3_reduce -> conv2/3x3_reduce (in-place)
I0706 23:41:54.630946  9777 net.cpp:141] Setting up conv2/relu_3x3_reduce
I0706 23:41:54.630962  9777 net.cpp:148] Top shape: 10 64 56 56 (2007040)
I0706 23:41:54.630967  9777 net.cpp:156] Memory required for data: 102359040
I0706 23:41:54.630972  9777 layer_factory.hpp:77] Creating layer conv2/3x3
I0706 23:41:54.630983  9777 net.cpp:91] Creating Layer conv2/3x3
I0706 23:41:54.630990  9777 net.cpp:425] conv2/3x3 <- conv2/3x3_reduce
I0706 23:41:54.631000  9777 net.cpp:399] conv2/3x3 -> conv2/3x3
I0706 23:41:54.635190  9777 net.cpp:141] Setting up conv2/3x3
I0706 23:41:54.635221  9777 net.cpp:148] Top shape: 10 192 56 56 (6021120)
I0706 23:41:54.635226  9777 net.cpp:156] Memory required for data: 126443520
I0706 23:41:54.635238  9777 layer_factory.hpp:77] Creating layer conv2/relu_3x3
I0706 23:41:54.635247  9777 net.cpp:91] Creating Layer conv2/relu_3x3
I0706 23:41:54.635252  9777 net.cpp:425] conv2/relu_3x3 <- conv2/3x3
I0706 23:41:54.635262  9777 net.cpp:386] conv2/relu_3x3 -> conv2/3x3 (in-place)
I0706 23:41:54.635495  9777 net.cpp:141] Setting up conv2/relu_3x3
I0706 23:41:54.635509  9777 net.cpp:148] Top shape: 10 192 56 56 (6021120)
I0706 23:41:54.635512  9777 net.cpp:156] Memory required for data: 150528000
I0706 23:41:54.635517  9777 layer_factory.hpp:77] Creating layer conv2/norm2
I0706 23:41:54.635525  9777 net.cpp:91] Creating Layer conv2/norm2
I0706 23:41:54.635529  9777 net.cpp:425] conv2/norm2 <- conv2/3x3
I0706 23:41:54.635538  9777 net.cpp:399] conv2/norm2 -> conv2/norm2
I0706 23:41:54.636271  9777 net.cpp:141] Setting up conv2/norm2
I0706 23:41:54.636284  9777 net.cpp:148] Top shape: 10 192 56 56 (6021120)
I0706 23:41:54.636289  9777 net.cpp:156] Memory required for data: 174612480
I0706 23:41:54.636293  9777 layer_factory.hpp:77] Creating layer pool2/3x3_s2
I0706 23:41:54.636303  9777 net.cpp:91] Creating Layer pool2/3x3_s2
I0706 23:41:54.636307  9777 net.cpp:425] pool2/3x3_s2 <- conv2/norm2
I0706 23:41:54.636317  9777 net.cpp:399] pool2/3x3_s2 -> pool2/3x3_s2
I0706 23:41:54.636368  9777 net.cpp:141] Setting up pool2/3x3_s2
I0706 23:41:54.636375  9777 net.cpp:148] Top shape: 10 192 28 28 (1505280)
I0706 23:41:54.636379  9777 net.cpp:156] Memory required for data: 180633600
I0706 23:41:54.636384  9777 layer_factory.hpp:77] Creating layer pool2/3x3_s2_pool2/3x3_s2_0_split
I0706 23:41:54.636402  9777 net.cpp:91] Creating Layer pool2/3x3_s2_pool2/3x3_s2_0_split
I0706 23:41:54.636407  9777 net.cpp:425] pool2/3x3_s2_pool2/3x3_s2_0_split <- pool2/3x3_s2
I0706 23:41:54.636414  9777 net.cpp:399] pool2/3x3_s2_pool2/3x3_s2_0_split -> pool2/3x3_s2_pool2/3x3_s2_0_split_0
I0706 23:41:54.636423  9777 net.cpp:399] pool2/3x3_s2_pool2/3x3_s2_0_split -> pool2/3x3_s2_pool2/3x3_s2_0_split_1
I0706 23:41:54.636431  9777 net.cpp:399] pool2/3x3_s2_pool2/3x3_s2_0_split -> pool2/3x3_s2_pool2/3x3_s2_0_split_2
I0706 23:41:54.636438  9777 net.cpp:399] pool2/3x3_s2_pool2/3x3_s2_0_split -> pool2/3x3_s2_pool2/3x3_s2_0_split_3
I0706 23:41:54.636508  9777 net.cpp:141] Setting up pool2/3x3_s2_pool2/3x3_s2_0_split
I0706 23:41:54.636518  9777 net.cpp:148] Top shape: 10 192 28 28 (1505280)
I0706 23:41:54.636525  9777 net.cpp:148] Top shape: 10 192 28 28 (1505280)
I0706 23:41:54.636530  9777 net.cpp:148] Top shape: 10 192 28 28 (1505280)
I0706 23:41:54.636535  9777 net.cpp:148] Top shape: 10 192 28 28 (1505280)
I0706 23:41:54.636539  9777 net.cpp:156] Memory required for data: 204718080
I0706 23:41:54.636543  9777 layer_factory.hpp:77] Creating layer inception_3a/1x1
I0706 23:41:54.636554  9777 net.cpp:91] Creating Layer inception_3a/1x1
I0706 23:41:54.636559  9777 net.cpp:425] inception_3a/1x1 <- pool2/3x3_s2_pool2/3x3_s2_0_split_0
I0706 23:41:54.636585  9777 net.cpp:399] inception_3a/1x1 -> inception_3a/1x1
I0706 23:41:54.640174  9777 net.cpp:141] Setting up inception_3a/1x1
I0706 23:41:54.640207  9777 net.cpp:148] Top shape: 10 64 28 28 (501760)
I0706 23:41:54.640213  9777 net.cpp:156] Memory required for data: 206725120
I0706 23:41:54.640221  9777 layer_factory.hpp:77] Creating layer inception_3a/relu_1x1
I0706 23:41:54.640233  9777 net.cpp:91] Creating Layer inception_3a/relu_1x1
I0706 23:41:54.640238  9777 net.cpp:425] inception_3a/relu_1x1 <- inception_3a/1x1
I0706 23:41:54.640244  9777 net.cpp:386] inception_3a/relu_1x1 -> inception_3a/1x1 (in-place)
I0706 23:41:54.640483  9777 net.cpp:141] Setting up inception_3a/relu_1x1
I0706 23:41:54.640494  9777 net.cpp:148] Top shape: 10 64 28 28 (501760)
I0706 23:41:54.640498  9777 net.cpp:156] Memory required for data: 208732160
I0706 23:41:54.640503  9777 layer_factory.hpp:77] Creating layer inception_3a/3x3_reduce
I0706 23:41:54.640519  9777 net.cpp:91] Creating Layer inception_3a/3x3_reduce
I0706 23:41:54.640525  9777 net.cpp:425] inception_3a/3x3_reduce <- pool2/3x3_s2_pool2/3x3_s2_0_split_1
I0706 23:41:54.640533  9777 net.cpp:399] inception_3a/3x3_reduce -> inception_3a/3x3_reduce
I0706 23:41:54.643595  9777 net.cpp:141] Setting up inception_3a/3x3_reduce
I0706 23:41:54.643625  9777 net.cpp:148] Top shape: 10 96 28 28 (752640)
I0706 23:41:54.643631  9777 net.cpp:156] Memory required for data: 211742720
I0706 23:41:54.643646  9777 layer_factory.hpp:77] Creating layer inception_3a/relu_3x3_reduce
I0706 23:41:54.643656  9777 net.cpp:91] Creating Layer inception_3a/relu_3x3_reduce
I0706 23:41:54.643661  9777 net.cpp:425] inception_3a/relu_3x3_reduce <- inception_3a/3x3_reduce
I0706 23:41:54.643668  9777 net.cpp:386] inception_3a/relu_3x3_reduce -> inception_3a/3x3_reduce (in-place)
I0706 23:41:54.643893  9777 net.cpp:141] Setting up inception_3a/relu_3x3_reduce
I0706 23:41:54.643904  9777 net.cpp:148] Top shape: 10 96 28 28 (752640)
I0706 23:41:54.643909  9777 net.cpp:156] Memory required for data: 214753280
I0706 23:41:54.643913  9777 layer_factory.hpp:77] Creating layer inception_3a/3x3
I0706 23:41:54.643932  9777 net.cpp:91] Creating Layer inception_3a/3x3
I0706 23:41:54.643939  9777 net.cpp:425] inception_3a/3x3 <- inception_3a/3x3_reduce
I0706 23:41:54.643946  9777 net.cpp:399] inception_3a/3x3 -> inception_3a/3x3
I0706 23:41:54.646679  9777 net.cpp:141] Setting up inception_3a/3x3
I0706 23:41:54.646704  9777 net.cpp:148] Top shape: 10 128 28 28 (1003520)
I0706 23:41:54.646710  9777 net.cpp:156] Memory required for data: 218767360
I0706 23:41:54.646724  9777 layer_factory.hpp:77] Creating layer inception_3a/relu_3x3
I0706 23:41:54.646735  9777 net.cpp:91] Creating Layer inception_3a/relu_3x3
I0706 23:41:54.646740  9777 net.cpp:425] inception_3a/relu_3x3 <- inception_3a/3x3
I0706 23:41:54.646747  9777 net.cpp:386] inception_3a/relu_3x3 -> inception_3a/3x3 (in-place)
I0706 23:41:54.647433  9777 net.cpp:141] Setting up inception_3a/relu_3x3
I0706 23:41:54.647449  9777 net.cpp:148] Top shape: 10 128 28 28 (1003520)
I0706 23:41:54.647454  9777 net.cpp:156] Memory required for data: 222781440
I0706 23:41:54.647459  9777 layer_factory.hpp:77] Creating layer inception_3a/5x5_reduce
I0706 23:41:54.647472  9777 net.cpp:91] Creating Layer inception_3a/5x5_reduce
I0706 23:41:54.647478  9777 net.cpp:425] inception_3a/5x5_reduce <- pool2/3x3_s2_pool2/3x3_s2_0_split_2
I0706 23:41:54.647490  9777 net.cpp:399] inception_3a/5x5_reduce -> inception_3a/5x5_reduce
I0706 23:41:54.649474  9777 net.cpp:141] Setting up inception_3a/5x5_reduce
I0706 23:41:54.649490  9777 net.cpp:148] Top shape: 10 16 28 28 (125440)
I0706 23:41:54.649508  9777 net.cpp:156] Memory required for data: 223283200
I0706 23:41:54.649516  9777 layer_factory.hpp:77] Creating layer inception_3a/relu_5x5_reduce
I0706 23:41:54.649524  9777 net.cpp:91] Creating Layer inception_3a/relu_5x5_reduce
I0706 23:41:54.649529  9777 net.cpp:425] inception_3a/relu_5x5_reduce <- inception_3a/5x5_reduce
I0706 23:41:54.649539  9777 net.cpp:386] inception_3a/relu_5x5_reduce -> inception_3a/5x5_reduce (in-place)
I0706 23:41:54.649767  9777 net.cpp:141] Setting up inception_3a/relu_5x5_reduce
I0706 23:41:54.649780  9777 net.cpp:148] Top shape: 10 16 28 28 (125440)
I0706 23:41:54.649785  9777 net.cpp:156] Memory required for data: 223784960
I0706 23:41:54.649790  9777 layer_factory.hpp:77] Creating layer inception_3a/5x5
I0706 23:41:54.649804  9777 net.cpp:91] Creating Layer inception_3a/5x5
I0706 23:41:54.649811  9777 net.cpp:425] inception_3a/5x5 <- inception_3a/5x5_reduce
I0706 23:41:54.649817  9777 net.cpp:399] inception_3a/5x5 -> inception_3a/5x5
I0706 23:41:54.653025  9777 net.cpp:141] Setting up inception_3a/5x5
I0706 23:41:54.653059  9777 net.cpp:148] Top shape: 10 32 28 28 (250880)
I0706 23:41:54.653065  9777 net.cpp:156] Memory required for data: 224788480
I0706 23:41:54.653074  9777 layer_factory.hpp:77] Creating layer inception_3a/relu_5x5
I0706 23:41:54.653082  9777 net.cpp:91] Creating Layer inception_3a/relu_5x5
I0706 23:41:54.653087  9777 net.cpp:425] inception_3a/relu_5x5 <- inception_3a/5x5
I0706 23:41:54.653095  9777 net.cpp:386] inception_3a/relu_5x5 -> inception_3a/5x5 (in-place)
I0706 23:41:54.653345  9777 net.cpp:141] Setting up inception_3a/relu_5x5
I0706 23:41:54.653357  9777 net.cpp:148] Top shape: 10 32 28 28 (250880)
I0706 23:41:54.653360  9777 net.cpp:156] Memory required for data: 225792000
I0706 23:41:54.653365  9777 layer_factory.hpp:77] Creating layer inception_3a/pool
I0706 23:41:54.653376  9777 net.cpp:91] Creating Layer inception_3a/pool
I0706 23:41:54.653381  9777 net.cpp:425] inception_3a/pool <- pool2/3x3_s2_pool2/3x3_s2_0_split_3
I0706 23:41:54.653389  9777 net.cpp:399] inception_3a/pool -> inception_3a/pool
I0706 23:41:54.653455  9777 net.cpp:141] Setting up inception_3a/pool
I0706 23:41:54.653463  9777 net.cpp:148] Top shape: 10 192 28 28 (1505280)
I0706 23:41:54.653467  9777 net.cpp:156] Memory required for data: 231813120
I0706 23:41:54.653471  9777 layer_factory.hpp:77] Creating layer inception_3a/pool_proj
I0706 23:41:54.653487  9777 net.cpp:91] Creating Layer inception_3a/pool_proj
I0706 23:41:54.653493  9777 net.cpp:425] inception_3a/pool_proj <- inception_3a/pool
I0706 23:41:54.653503  9777 net.cpp:399] inception_3a/pool_proj -> inception_3a/pool_proj
I0706 23:41:54.655665  9777 net.cpp:141] Setting up inception_3a/pool_proj
I0706 23:41:54.655695  9777 net.cpp:148] Top shape: 10 32 28 28 (250880)
I0706 23:41:54.655700  9777 net.cpp:156] Memory required for data: 232816640
I0706 23:41:54.655719  9777 layer_factory.hpp:77] Creating layer inception_3a/relu_pool_proj
I0706 23:41:54.655728  9777 net.cpp:91] Creating Layer inception_3a/relu_pool_proj
I0706 23:41:54.655735  9777 net.cpp:425] inception_3a/relu_pool_proj <- inception_3a/pool_proj
I0706 23:41:54.655741  9777 net.cpp:386] inception_3a/relu_pool_proj -> inception_3a/pool_proj (in-place)
I0706 23:41:54.656445  9777 net.cpp:141] Setting up inception_3a/relu_pool_proj
I0706 23:41:54.656460  9777 net.cpp:148] Top shape: 10 32 28 28 (250880)
I0706 23:41:54.656464  9777 net.cpp:156] Memory required for data: 233820160
I0706 23:41:54.656468  9777 layer_factory.hpp:77] Creating layer inception_3a/output
I0706 23:41:54.656486  9777 net.cpp:91] Creating Layer inception_3a/output
I0706 23:41:54.656492  9777 net.cpp:425] inception_3a/output <- inception_3a/1x1
I0706 23:41:54.656498  9777 net.cpp:425] inception_3a/output <- inception_3a/3x3
I0706 23:41:54.656507  9777 net.cpp:425] inception_3a/output <- inception_3a/5x5
I0706 23:41:54.656512  9777 net.cpp:425] inception_3a/output <- inception_3a/pool_proj
I0706 23:41:54.656518  9777 net.cpp:399] inception_3a/output -> inception_3a/output
I0706 23:41:54.656556  9777 net.cpp:141] Setting up inception_3a/output
I0706 23:41:54.656564  9777 net.cpp:148] Top shape: 10 256 28 28 (2007040)
I0706 23:41:54.656569  9777 net.cpp:156] Memory required for data: 241848320
I0706 23:41:54.656574  9777 layer_factory.hpp:77] Creating layer inception_3a/output_inception_3a/output_0_split
I0706 23:41:54.656584  9777 net.cpp:91] Creating Layer inception_3a/output_inception_3a/output_0_split
I0706 23:41:54.656589  9777 net.cpp:425] inception_3a/output_inception_3a/output_0_split <- inception_3a/output
I0706 23:41:54.656595  9777 net.cpp:399] inception_3a/output_inception_3a/output_0_split -> inception_3a/output_inception_3a/output_0_split_0
I0706 23:41:54.656605  9777 net.cpp:399] inception_3a/output_inception_3a/output_0_split -> inception_3a/output_inception_3a/output_0_split_1
I0706 23:41:54.656613  9777 net.cpp:399] inception_3a/output_inception_3a/output_0_split -> inception_3a/output_inception_3a/output_0_split_2
I0706 23:41:54.656620  9777 net.cpp:399] inception_3a/output_inception_3a/output_0_split -> inception_3a/output_inception_3a/output_0_split_3
I0706 23:41:54.656695  9777 net.cpp:141] Setting up inception_3a/output_inception_3a/output_0_split
I0706 23:41:54.656704  9777 net.cpp:148] Top shape: 10 256 28 28 (2007040)
I0706 23:41:54.656709  9777 net.cpp:148] Top shape: 10 256 28 28 (2007040)
I0706 23:41:54.656714  9777 net.cpp:148] Top shape: 10 256 28 28 (2007040)
I0706 23:41:54.656719  9777 net.cpp:148] Top shape: 10 256 28 28 (2007040)
I0706 23:41:54.656723  9777 net.cpp:156] Memory required for data: 273960960
I0706 23:41:54.656728  9777 layer_factory.hpp:77] Creating layer inception_3b/1x1
I0706 23:41:54.656740  9777 net.cpp:91] Creating Layer inception_3b/1x1
I0706 23:41:54.656745  9777 net.cpp:425] inception_3b/1x1 <- inception_3a/output_inception_3a/output_0_split_0
I0706 23:41:54.656755  9777 net.cpp:399] inception_3b/1x1 -> inception_3b/1x1
I0706 23:41:54.659020  9777 net.cpp:141] Setting up inception_3b/1x1
I0706 23:41:54.659042  9777 net.cpp:148] Top shape: 10 128 28 28 (1003520)
I0706 23:41:54.659047  9777 net.cpp:156] Memory required for data: 277975040
I0706 23:41:54.659055  9777 layer_factory.hpp:77] Creating layer inception_3b/relu_1x1
I0706 23:41:54.659065  9777 net.cpp:91] Creating Layer inception_3b/relu_1x1
I0706 23:41:54.659070  9777 net.cpp:425] inception_3b/relu_1x1 <- inception_3b/1x1
I0706 23:41:54.659080  9777 net.cpp:386] inception_3b/relu_1x1 -> inception_3b/1x1 (in-place)
I0706 23:41:54.659306  9777 net.cpp:141] Setting up inception_3b/relu_1x1
I0706 23:41:54.659318  9777 net.cpp:148] Top shape: 10 128 28 28 (1003520)
I0706 23:41:54.659322  9777 net.cpp:156] Memory required for data: 281989120
I0706 23:41:54.659327  9777 layer_factory.hpp:77] Creating layer inception_3b/3x3_reduce
I0706 23:41:54.659339  9777 net.cpp:91] Creating Layer inception_3b/3x3_reduce
I0706 23:41:54.659344  9777 net.cpp:425] inception_3b/3x3_reduce <- inception_3a/output_inception_3a/output_0_split_1
I0706 23:41:54.659356  9777 net.cpp:399] inception_3b/3x3_reduce -> inception_3b/3x3_reduce
I0706 23:41:54.661628  9777 net.cpp:141] Setting up inception_3b/3x3_reduce
I0706 23:41:54.661645  9777 net.cpp:148] Top shape: 10 128 28 28 (1003520)
I0706 23:41:54.661650  9777 net.cpp:156] Memory required for data: 286003200
I0706 23:41:54.661659  9777 layer_factory.hpp:77] Creating layer inception_3b/relu_3x3_reduce
I0706 23:41:54.661666  9777 net.cpp:91] Creating Layer inception_3b/relu_3x3_reduce
I0706 23:41:54.661671  9777 net.cpp:425] inception_3b/relu_3x3_reduce <- inception_3b/3x3_reduce
I0706 23:41:54.661682  9777 net.cpp:386] inception_3b/relu_3x3_reduce -> inception_3b/3x3_reduce (in-place)
I0706 23:41:54.661911  9777 net.cpp:141] Setting up inception_3b/relu_3x3_reduce
I0706 23:41:54.661922  9777 net.cpp:148] Top shape: 10 128 28 28 (1003520)
I0706 23:41:54.661926  9777 net.cpp:156] Memory required for data: 290017280
I0706 23:41:54.661931  9777 layer_factory.hpp:77] Creating layer inception_3b/3x3
I0706 23:41:54.661944  9777 net.cpp:91] Creating Layer inception_3b/3x3
I0706 23:41:54.661950  9777 net.cpp:425] inception_3b/3x3 <- inception_3b/3x3_reduce
I0706 23:41:54.661960  9777 net.cpp:399] inception_3b/3x3 -> inception_3b/3x3
I0706 23:41:54.666652  9777 net.cpp:141] Setting up inception_3b/3x3
I0706 23:41:54.666676  9777 net.cpp:148] Top shape: 10 192 28 28 (1505280)
I0706 23:41:54.666682  9777 net.cpp:156] Memory required for data: 296038400
I0706 23:41:54.666697  9777 layer_factory.hpp:77] Creating layer inception_3b/relu_3x3
I0706 23:41:54.666713  9777 net.cpp:91] Creating Layer inception_3b/relu_3x3
I0706 23:41:54.666719  9777 net.cpp:425] inception_3b/relu_3x3 <- inception_3b/3x3
I0706 23:41:54.666726  9777 net.cpp:386] inception_3b/relu_3x3 -> inception_3b/3x3 (in-place)
I0706 23:41:54.667419  9777 net.cpp:141] Setting up inception_3b/relu_3x3
I0706 23:41:54.667434  9777 net.cpp:148] Top shape: 10 192 28 28 (1505280)
I0706 23:41:54.667439  9777 net.cpp:156] Memory required for data: 302059520
I0706 23:41:54.667444  9777 layer_factory.hpp:77] Creating layer inception_3b/5x5_reduce
I0706 23:41:54.667459  9777 net.cpp:91] Creating Layer inception_3b/5x5_reduce
I0706 23:41:54.667464  9777 net.cpp:425] inception_3b/5x5_reduce <- inception_3a/output_inception_3a/output_0_split_2
I0706 23:41:54.667476  9777 net.cpp:399] inception_3b/5x5_reduce -> inception_3b/5x5_reduce
I0706 23:41:54.669508  9777 net.cpp:141] Setting up inception_3b/5x5_reduce
I0706 23:41:54.669525  9777 net.cpp:148] Top shape: 10 32 28 28 (250880)
I0706 23:41:54.669530  9777 net.cpp:156] Memory required for data: 303063040
I0706 23:41:54.669538  9777 layer_factory.hpp:77] Creating layer inception_3b/relu_5x5_reduce
I0706 23:41:54.669546  9777 net.cpp:91] Creating Layer inception_3b/relu_5x5_reduce
I0706 23:41:54.669551  9777 net.cpp:425] inception_3b/relu_5x5_reduce <- inception_3b/5x5_reduce
I0706 23:41:54.669562  9777 net.cpp:386] inception_3b/relu_5x5_reduce -> inception_3b/5x5_reduce (in-place)
I0706 23:41:54.669790  9777 net.cpp:141] Setting up inception_3b/relu_5x5_reduce
I0706 23:41:54.669803  9777 net.cpp:148] Top shape: 10 32 28 28 (250880)
I0706 23:41:54.669807  9777 net.cpp:156] Memory required for data: 304066560
I0706 23:41:54.669812  9777 layer_factory.hpp:77] Creating layer inception_3b/5x5
I0706 23:41:54.669826  9777 net.cpp:91] Creating Layer inception_3b/5x5
I0706 23:41:54.669832  9777 net.cpp:425] inception_3b/5x5 <- inception_3b/5x5_reduce
I0706 23:41:54.669841  9777 net.cpp:399] inception_3b/5x5 -> inception_3b/5x5
I0706 23:41:54.673416  9777 net.cpp:141] Setting up inception_3b/5x5
I0706 23:41:54.673434  9777 net.cpp:148] Top shape: 10 96 28 28 (752640)
I0706 23:41:54.673439  9777 net.cpp:156] Memory required for data: 307077120
I0706 23:41:54.673449  9777 layer_factory.hpp:77] Creating layer inception_3b/relu_5x5
I0706 23:41:54.673458  9777 net.cpp:91] Creating Layer inception_3b/relu_5x5
I0706 23:41:54.673465  9777 net.cpp:425] inception_3b/relu_5x5 <- inception_3b/5x5
I0706 23:41:54.673470  9777 net.cpp:386] inception_3b/relu_5x5 -> inception_3b/5x5 (in-place)
I0706 23:41:54.673701  9777 net.cpp:141] Setting up inception_3b/relu_5x5
I0706 23:41:54.673712  9777 net.cpp:148] Top shape: 10 96 28 28 (752640)
I0706 23:41:54.673715  9777 net.cpp:156] Memory required for data: 310087680
I0706 23:41:54.673720  9777 layer_factory.hpp:77] Creating layer inception_3b/pool
I0706 23:41:54.673733  9777 net.cpp:91] Creating Layer inception_3b/pool
I0706 23:41:54.673738  9777 net.cpp:425] inception_3b/pool <- inception_3a/output_inception_3a/output_0_split_3
I0706 23:41:54.673748  9777 net.cpp:399] inception_3b/pool -> inception_3b/pool
I0706 23:41:54.673807  9777 net.cpp:141] Setting up inception_3b/pool
I0706 23:41:54.673817  9777 net.cpp:148] Top shape: 10 256 28 28 (2007040)
I0706 23:41:54.673820  9777 net.cpp:156] Memory required for data: 318115840
I0706 23:41:54.673825  9777 layer_factory.hpp:77] Creating layer inception_3b/pool_proj
I0706 23:41:54.673838  9777 net.cpp:91] Creating Layer inception_3b/pool_proj
I0706 23:41:54.673843  9777 net.cpp:425] inception_3b/pool_proj <- inception_3b/pool
I0706 23:41:54.673854  9777 net.cpp:399] inception_3b/pool_proj -> inception_3b/pool_proj
I0706 23:41:54.675957  9777 net.cpp:141] Setting up inception_3b/pool_proj
I0706 23:41:54.675977  9777 net.cpp:148] Top shape: 10 64 28 28 (501760)
I0706 23:41:54.675982  9777 net.cpp:156] Memory required for data: 320122880
I0706 23:41:54.675990  9777 layer_factory.hpp:77] Creating layer inception_3b/relu_pool_proj
I0706 23:41:54.675999  9777 net.cpp:91] Creating Layer inception_3b/relu_pool_proj
I0706 23:41:54.676004  9777 net.cpp:425] inception_3b/relu_pool_proj <- inception_3b/pool_proj
I0706 23:41:54.676012  9777 net.cpp:386] inception_3b/relu_pool_proj -> inception_3b/pool_proj (in-place)
I0706 23:41:54.676709  9777 net.cpp:141] Setting up inception_3b/relu_pool_proj
I0706 23:41:54.676724  9777 net.cpp:148] Top shape: 10 64 28 28 (501760)
I0706 23:41:54.676728  9777 net.cpp:156] Memory required for data: 322129920
I0706 23:41:54.676733  9777 layer_factory.hpp:77] Creating layer inception_3b/output
I0706 23:41:54.676741  9777 net.cpp:91] Creating Layer inception_3b/output
I0706 23:41:54.676746  9777 net.cpp:425] inception_3b/output <- inception_3b/1x1
I0706 23:41:54.676753  9777 net.cpp:425] inception_3b/output <- inception_3b/3x3
I0706 23:41:54.676758  9777 net.cpp:425] inception_3b/output <- inception_3b/5x5
I0706 23:41:54.676762  9777 net.cpp:425] inception_3b/output <- inception_3b/pool_proj
I0706 23:41:54.676769  9777 net.cpp:399] inception_3b/output -> inception_3b/output
I0706 23:41:54.676811  9777 net.cpp:141] Setting up inception_3b/output
I0706 23:41:54.676821  9777 net.cpp:148] Top shape: 10 480 28 28 (3763200)
I0706 23:41:54.676826  9777 net.cpp:156] Memory required for data: 337182720
I0706 23:41:54.676829  9777 layer_factory.hpp:77] Creating layer pool3/3x3_s2
I0706 23:41:54.676838  9777 net.cpp:91] Creating Layer pool3/3x3_s2
I0706 23:41:54.676843  9777 net.cpp:425] pool3/3x3_s2 <- inception_3b/output
I0706 23:41:54.676849  9777 net.cpp:399] pool3/3x3_s2 -> pool3/3x3_s2
I0706 23:41:54.676908  9777 net.cpp:141] Setting up pool3/3x3_s2
I0706 23:41:54.676918  9777 net.cpp:148] Top shape: 10 480 14 14 (940800)
I0706 23:41:54.676923  9777 net.cpp:156] Memory required for data: 340945920
I0706 23:41:54.676926  9777 layer_factory.hpp:77] Creating layer pool3/3x3_s2_pool3/3x3_s2_0_split
I0706 23:41:54.676937  9777 net.cpp:91] Creating Layer pool3/3x3_s2_pool3/3x3_s2_0_split
I0706 23:41:54.676941  9777 net.cpp:425] pool3/3x3_s2_pool3/3x3_s2_0_split <- pool3/3x3_s2
I0706 23:41:54.676947  9777 net.cpp:399] pool3/3x3_s2_pool3/3x3_s2_0_split -> pool3/3x3_s2_pool3/3x3_s2_0_split_0
I0706 23:41:54.676955  9777 net.cpp:399] pool3/3x3_s2_pool3/3x3_s2_0_split -> pool3/3x3_s2_pool3/3x3_s2_0_split_1
I0706 23:41:54.676964  9777 net.cpp:399] pool3/3x3_s2_pool3/3x3_s2_0_split -> pool3/3x3_s2_pool3/3x3_s2_0_split_2
I0706 23:41:54.676971  9777 net.cpp:399] pool3/3x3_s2_pool3/3x3_s2_0_split -> pool3/3x3_s2_pool3/3x3_s2_0_split_3
I0706 23:41:54.677049  9777 net.cpp:141] Setting up pool3/3x3_s2_pool3/3x3_s2_0_split
I0706 23:41:54.677058  9777 net.cpp:148] Top shape: 10 480 14 14 (940800)
I0706 23:41:54.677064  9777 net.cpp:148] Top shape: 10 480 14 14 (940800)
I0706 23:41:54.677068  9777 net.cpp:148] Top shape: 10 480 14 14 (940800)
I0706 23:41:54.677073  9777 net.cpp:148] Top shape: 10 480 14 14 (940800)
I0706 23:41:54.677078  9777 net.cpp:156] Memory required for data: 355998720
I0706 23:41:54.677083  9777 layer_factory.hpp:77] Creating layer inception_4a/1x1
I0706 23:41:54.677095  9777 net.cpp:91] Creating Layer inception_4a/1x1
I0706 23:41:54.677100  9777 net.cpp:425] inception_4a/1x1 <- pool3/3x3_s2_pool3/3x3_s2_0_split_0
I0706 23:41:54.677111  9777 net.cpp:399] inception_4a/1x1 -> inception_4a/1x1
I0706 23:41:54.680317  9777 net.cpp:141] Setting up inception_4a/1x1
I0706 23:41:54.680335  9777 net.cpp:148] Top shape: 10 192 14 14 (376320)
I0706 23:41:54.680340  9777 net.cpp:156] Memory required for data: 357504000
I0706 23:41:54.680347  9777 layer_factory.hpp:77] Creating layer inception_4a/relu_1x1
I0706 23:41:54.680359  9777 net.cpp:91] Creating Layer inception_4a/relu_1x1
I0706 23:41:54.680364  9777 net.cpp:425] inception_4a/relu_1x1 <- inception_4a/1x1
I0706 23:41:54.680371  9777 net.cpp:386] inception_4a/relu_1x1 -> inception_4a/1x1 (in-place)
I0706 23:41:54.680603  9777 net.cpp:141] Setting up inception_4a/relu_1x1
I0706 23:41:54.680613  9777 net.cpp:148] Top shape: 10 192 14 14 (376320)
I0706 23:41:54.680618  9777 net.cpp:156] Memory required for data: 359009280
I0706 23:41:54.680621  9777 layer_factory.hpp:77] Creating layer inception_4a/3x3_reduce
I0706 23:41:54.680636  9777 net.cpp:91] Creating Layer inception_4a/3x3_reduce
I0706 23:41:54.680642  9777 net.cpp:425] inception_4a/3x3_reduce <- pool3/3x3_s2_pool3/3x3_s2_0_split_1
I0706 23:41:54.680652  9777 net.cpp:399] inception_4a/3x3_reduce -> inception_4a/3x3_reduce
I0706 23:41:54.682986  9777 net.cpp:141] Setting up inception_4a/3x3_reduce
I0706 23:41:54.683003  9777 net.cpp:148] Top shape: 10 96 14 14 (188160)
I0706 23:41:54.683008  9777 net.cpp:156] Memory required for data: 359761920
I0706 23:41:54.683037  9777 layer_factory.hpp:77] Creating layer inception_4a/relu_3x3_reduce
I0706 23:41:54.683044  9777 net.cpp:91] Creating Layer inception_4a/relu_3x3_reduce
I0706 23:41:54.683049  9777 net.cpp:425] inception_4a/relu_3x3_reduce <- inception_4a/3x3_reduce
I0706 23:41:54.683055  9777 net.cpp:386] inception_4a/relu_3x3_reduce -> inception_4a/3x3_reduce (in-place)
I0706 23:41:54.683282  9777 net.cpp:141] Setting up inception_4a/relu_3x3_reduce
I0706 23:41:54.683293  9777 net.cpp:148] Top shape: 10 96 14 14 (188160)
I0706 23:41:54.683297  9777 net.cpp:156] Memory required for data: 360514560
I0706 23:41:54.683302  9777 layer_factory.hpp:77] Creating layer inception_4a/3x3
I0706 23:41:54.683315  9777 net.cpp:91] Creating Layer inception_4a/3x3
I0706 23:41:54.683321  9777 net.cpp:425] inception_4a/3x3 <- inception_4a/3x3_reduce
I0706 23:41:54.683332  9777 net.cpp:399] inception_4a/3x3 -> inception_4a/3x3
I0706 23:41:54.687628  9777 net.cpp:141] Setting up inception_4a/3x3
I0706 23:41:54.687649  9777 net.cpp:148] Top shape: 10 208 14 14 (407680)
I0706 23:41:54.687654  9777 net.cpp:156] Memory required for data: 362145280
I0706 23:41:54.687662  9777 layer_factory.hpp:77] Creating layer inception_4a/relu_3x3
I0706 23:41:54.687670  9777 net.cpp:91] Creating Layer inception_4a/relu_3x3
I0706 23:41:54.687676  9777 net.cpp:425] inception_4a/relu_3x3 <- inception_4a/3x3
I0706 23:41:54.687685  9777 net.cpp:386] inception_4a/relu_3x3 -> inception_4a/3x3 (in-place)
I0706 23:41:54.688381  9777 net.cpp:141] Setting up inception_4a/relu_3x3
I0706 23:41:54.688397  9777 net.cpp:148] Top shape: 10 208 14 14 (407680)
I0706 23:41:54.688401  9777 net.cpp:156] Memory required for data: 363776000
I0706 23:41:54.688406  9777 layer_factory.hpp:77] Creating layer inception_4a/5x5_reduce
I0706 23:41:54.688421  9777 net.cpp:91] Creating Layer inception_4a/5x5_reduce
I0706 23:41:54.688426  9777 net.cpp:425] inception_4a/5x5_reduce <- pool3/3x3_s2_pool3/3x3_s2_0_split_2
I0706 23:41:54.688438  9777 net.cpp:399] inception_4a/5x5_reduce -> inception_4a/5x5_reduce
I0706 23:41:54.690495  9777 net.cpp:141] Setting up inception_4a/5x5_reduce
I0706 23:41:54.690512  9777 net.cpp:148] Top shape: 10 16 14 14 (31360)
I0706 23:41:54.690517  9777 net.cpp:156] Memory required for data: 363901440
I0706 23:41:54.690526  9777 layer_factory.hpp:77] Creating layer inception_4a/relu_5x5_reduce
I0706 23:41:54.690532  9777 net.cpp:91] Creating Layer inception_4a/relu_5x5_reduce
I0706 23:41:54.690538  9777 net.cpp:425] inception_4a/relu_5x5_reduce <- inception_4a/5x5_reduce
I0706 23:41:54.690548  9777 net.cpp:386] inception_4a/relu_5x5_reduce -> inception_4a/5x5_reduce (in-place)
I0706 23:41:54.690788  9777 net.cpp:141] Setting up inception_4a/relu_5x5_reduce
I0706 23:41:54.690799  9777 net.cpp:148] Top shape: 10 16 14 14 (31360)
I0706 23:41:54.690804  9777 net.cpp:156] Memory required for data: 364026880
I0706 23:41:54.690809  9777 layer_factory.hpp:77] Creating layer inception_4a/5x5
I0706 23:41:54.690822  9777 net.cpp:91] Creating Layer inception_4a/5x5
I0706 23:41:54.690829  9777 net.cpp:425] inception_4a/5x5 <- inception_4a/5x5_reduce
I0706 23:41:54.690840  9777 net.cpp:399] inception_4a/5x5 -> inception_4a/5x5
I0706 23:41:54.692967  9777 net.cpp:141] Setting up inception_4a/5x5
I0706 23:41:54.692984  9777 net.cpp:148] Top shape: 10 48 14 14 (94080)
I0706 23:41:54.692989  9777 net.cpp:156] Memory required for data: 364403200
I0706 23:41:54.692997  9777 layer_factory.hpp:77] Creating layer inception_4a/relu_5x5
I0706 23:41:54.693007  9777 net.cpp:91] Creating Layer inception_4a/relu_5x5
I0706 23:41:54.693012  9777 net.cpp:425] inception_4a/relu_5x5 <- inception_4a/5x5
I0706 23:41:54.693018  9777 net.cpp:386] inception_4a/relu_5x5 -> inception_4a/5x5 (in-place)
I0706 23:41:54.693248  9777 net.cpp:141] Setting up inception_4a/relu_5x5
I0706 23:41:54.693259  9777 net.cpp:148] Top shape: 10 48 14 14 (94080)
I0706 23:41:54.693264  9777 net.cpp:156] Memory required for data: 364779520
I0706 23:41:54.693267  9777 layer_factory.hpp:77] Creating layer inception_4a/pool
I0706 23:41:54.693279  9777 net.cpp:91] Creating Layer inception_4a/pool
I0706 23:41:54.693285  9777 net.cpp:425] inception_4a/pool <- pool3/3x3_s2_pool3/3x3_s2_0_split_3
I0706 23:41:54.693295  9777 net.cpp:399] inception_4a/pool -> inception_4a/pool
I0706 23:41:54.693363  9777 net.cpp:141] Setting up inception_4a/pool
I0706 23:41:54.693372  9777 net.cpp:148] Top shape: 10 480 14 14 (940800)
I0706 23:41:54.693377  9777 net.cpp:156] Memory required for data: 368542720
I0706 23:41:54.693382  9777 layer_factory.hpp:77] Creating layer inception_4a/pool_proj
I0706 23:41:54.693394  9777 net.cpp:91] Creating Layer inception_4a/pool_proj
I0706 23:41:54.693399  9777 net.cpp:425] inception_4a/pool_proj <- inception_4a/pool
I0706 23:41:54.693410  9777 net.cpp:399] inception_4a/pool_proj -> inception_4a/pool_proj
I0706 23:41:54.695670  9777 net.cpp:141] Setting up inception_4a/pool_proj
I0706 23:41:54.695688  9777 net.cpp:148] Top shape: 10 64 14 14 (125440)
I0706 23:41:54.695693  9777 net.cpp:156] Memory required for data: 369044480
I0706 23:41:54.695700  9777 layer_factory.hpp:77] Creating layer inception_4a/relu_pool_proj
I0706 23:41:54.695719  9777 net.cpp:91] Creating Layer inception_4a/relu_pool_proj
I0706 23:41:54.695725  9777 net.cpp:425] inception_4a/relu_pool_proj <- inception_4a/pool_proj
I0706 23:41:54.695732  9777 net.cpp:386] inception_4a/relu_pool_proj -> inception_4a/pool_proj (in-place)
I0706 23:41:54.696455  9777 net.cpp:141] Setting up inception_4a/relu_pool_proj
I0706 23:41:54.696470  9777 net.cpp:148] Top shape: 10 64 14 14 (125440)
I0706 23:41:54.696475  9777 net.cpp:156] Memory required for data: 369546240
I0706 23:41:54.696480  9777 layer_factory.hpp:77] Creating layer inception_4a/output
I0706 23:41:54.696491  9777 net.cpp:91] Creating Layer inception_4a/output
I0706 23:41:54.696497  9777 net.cpp:425] inception_4a/output <- inception_4a/1x1
I0706 23:41:54.696503  9777 net.cpp:425] inception_4a/output <- inception_4a/3x3
I0706 23:41:54.696508  9777 net.cpp:425] inception_4a/output <- inception_4a/5x5
I0706 23:41:54.696513  9777 net.cpp:425] inception_4a/output <- inception_4a/pool_proj
I0706 23:41:54.696519  9777 net.cpp:399] inception_4a/output -> inception_4a/output
I0706 23:41:54.696566  9777 net.cpp:141] Setting up inception_4a/output
I0706 23:41:54.696575  9777 net.cpp:148] Top shape: 10 512 14 14 (1003520)
I0706 23:41:54.696579  9777 net.cpp:156] Memory required for data: 373560320
I0706 23:41:54.696584  9777 layer_factory.hpp:77] Creating layer inception_4a/output_inception_4a/output_0_split
I0706 23:41:54.696593  9777 net.cpp:91] Creating Layer inception_4a/output_inception_4a/output_0_split
I0706 23:41:54.696596  9777 net.cpp:425] inception_4a/output_inception_4a/output_0_split <- inception_4a/output
I0706 23:41:54.696606  9777 net.cpp:399] inception_4a/output_inception_4a/output_0_split -> inception_4a/output_inception_4a/output_0_split_0
I0706 23:41:54.696615  9777 net.cpp:399] inception_4a/output_inception_4a/output_0_split -> inception_4a/output_inception_4a/output_0_split_1
I0706 23:41:54.696624  9777 net.cpp:399] inception_4a/output_inception_4a/output_0_split -> inception_4a/output_inception_4a/output_0_split_2
I0706 23:41:54.696630  9777 net.cpp:399] inception_4a/output_inception_4a/output_0_split -> inception_4a/output_inception_4a/output_0_split_3
I0706 23:41:54.696714  9777 net.cpp:141] Setting up inception_4a/output_inception_4a/output_0_split
I0706 23:41:54.696723  9777 net.cpp:148] Top shape: 10 512 14 14 (1003520)
I0706 23:41:54.696729  9777 net.cpp:148] Top shape: 10 512 14 14 (1003520)
I0706 23:41:54.696734  9777 net.cpp:148] Top shape: 10 512 14 14 (1003520)
I0706 23:41:54.696738  9777 net.cpp:148] Top shape: 10 512 14 14 (1003520)
I0706 23:41:54.696743  9777 net.cpp:156] Memory required for data: 389616640
I0706 23:41:54.696746  9777 layer_factory.hpp:77] Creating layer inception_4b/1x1
I0706 23:41:54.696763  9777 net.cpp:91] Creating Layer inception_4b/1x1
I0706 23:41:54.696768  9777 net.cpp:425] inception_4b/1x1 <- inception_4a/output_inception_4a/output_0_split_0
I0706 23:41:54.696776  9777 net.cpp:399] inception_4b/1x1 -> inception_4b/1x1
I0706 23:41:54.699759  9777 net.cpp:141] Setting up inception_4b/1x1
I0706 23:41:54.699784  9777 net.cpp:148] Top shape: 10 160 14 14 (313600)
I0706 23:41:54.699789  9777 net.cpp:156] Memory required for data: 390871040
I0706 23:41:54.699797  9777 layer_factory.hpp:77] Creating layer inception_4b/relu_1x1
I0706 23:41:54.699806  9777 net.cpp:91] Creating Layer inception_4b/relu_1x1
I0706 23:41:54.699812  9777 net.cpp:425] inception_4b/relu_1x1 <- inception_4b/1x1
I0706 23:41:54.699820  9777 net.cpp:386] inception_4b/relu_1x1 -> inception_4b/1x1 (in-place)
I0706 23:41:54.700052  9777 net.cpp:141] Setting up inception_4b/relu_1x1
I0706 23:41:54.700062  9777 net.cpp:148] Top shape: 10 160 14 14 (313600)
I0706 23:41:54.700067  9777 net.cpp:156] Memory required for data: 392125440
I0706 23:41:54.700072  9777 layer_factory.hpp:77] Creating layer inception_4b/3x3_reduce
I0706 23:41:54.700085  9777 net.cpp:91] Creating Layer inception_4b/3x3_reduce
I0706 23:41:54.700090  9777 net.cpp:425] inception_4b/3x3_reduce <- inception_4a/output_inception_4a/output_0_split_1
I0706 23:41:54.700103  9777 net.cpp:399] inception_4b/3x3_reduce -> inception_4b/3x3_reduce
I0706 23:41:54.702592  9777 net.cpp:141] Setting up inception_4b/3x3_reduce
I0706 23:41:54.702610  9777 net.cpp:148] Top shape: 10 112 14 14 (219520)
I0706 23:41:54.702615  9777 net.cpp:156] Memory required for data: 393003520
I0706 23:41:54.702622  9777 layer_factory.hpp:77] Creating layer inception_4b/relu_3x3_reduce
I0706 23:41:54.702633  9777 net.cpp:91] Creating Layer inception_4b/relu_3x3_reduce
I0706 23:41:54.702639  9777 net.cpp:425] inception_4b/relu_3x3_reduce <- inception_4b/3x3_reduce
I0706 23:41:54.702646  9777 net.cpp:386] inception_4b/relu_3x3_reduce -> inception_4b/3x3_reduce (in-place)
I0706 23:41:54.702893  9777 net.cpp:141] Setting up inception_4b/relu_3x3_reduce
I0706 23:41:54.702905  9777 net.cpp:148] Top shape: 10 112 14 14 (219520)
I0706 23:41:54.702909  9777 net.cpp:156] Memory required for data: 393881600
I0706 23:41:54.702913  9777 layer_factory.hpp:77] Creating layer inception_4b/3x3
I0706 23:41:54.702927  9777 net.cpp:91] Creating Layer inception_4b/3x3
I0706 23:41:54.702934  9777 net.cpp:425] inception_4b/3x3 <- inception_4b/3x3_reduce
I0706 23:41:54.702944  9777 net.cpp:399] inception_4b/3x3 -> inception_4b/3x3
I0706 23:41:54.708186  9777 net.cpp:141] Setting up inception_4b/3x3
I0706 23:41:54.708204  9777 net.cpp:148] Top shape: 10 224 14 14 (439040)
I0706 23:41:54.708209  9777 net.cpp:156] Memory required for data: 395637760
I0706 23:41:54.708219  9777 layer_factory.hpp:77] Creating layer inception_4b/relu_3x3
I0706 23:41:54.708228  9777 net.cpp:91] Creating Layer inception_4b/relu_3x3
I0706 23:41:54.708235  9777 net.cpp:425] inception_4b/relu_3x3 <- inception_4b/3x3
I0706 23:41:54.708241  9777 net.cpp:386] inception_4b/relu_3x3 -> inception_4b/3x3 (in-place)
I0706 23:41:54.708955  9777 net.cpp:141] Setting up inception_4b/relu_3x3
I0706 23:41:54.708971  9777 net.cpp:148] Top shape: 10 224 14 14 (439040)
I0706 23:41:54.708974  9777 net.cpp:156] Memory required for data: 397393920
I0706 23:41:54.708979  9777 layer_factory.hpp:77] Creating layer inception_4b/5x5_reduce
I0706 23:41:54.709005  9777 net.cpp:91] Creating Layer inception_4b/5x5_reduce
I0706 23:41:54.709012  9777 net.cpp:425] inception_4b/5x5_reduce <- inception_4a/output_inception_4a/output_0_split_2
I0706 23:41:54.709022  9777 net.cpp:399] inception_4b/5x5_reduce -> inception_4b/5x5_reduce
I0706 23:41:54.711158  9777 net.cpp:141] Setting up inception_4b/5x5_reduce
I0706 23:41:54.711176  9777 net.cpp:148] Top shape: 10 24 14 14 (47040)
I0706 23:41:54.711181  9777 net.cpp:156] Memory required for data: 397582080
I0706 23:41:54.711189  9777 layer_factory.hpp:77] Creating layer inception_4b/relu_5x5_reduce
I0706 23:41:54.711201  9777 net.cpp:91] Creating Layer inception_4b/relu_5x5_reduce
I0706 23:41:54.711207  9777 net.cpp:425] inception_4b/relu_5x5_reduce <- inception_4b/5x5_reduce
I0706 23:41:54.711213  9777 net.cpp:386] inception_4b/relu_5x5_reduce -> inception_4b/5x5_reduce (in-place)
I0706 23:41:54.711447  9777 net.cpp:141] Setting up inception_4b/relu_5x5_reduce
I0706 23:41:54.711458  9777 net.cpp:148] Top shape: 10 24 14 14 (47040)
I0706 23:41:54.711462  9777 net.cpp:156] Memory required for data: 397770240
I0706 23:41:54.711467  9777 layer_factory.hpp:77] Creating layer inception_4b/5x5
I0706 23:41:54.711482  9777 net.cpp:91] Creating Layer inception_4b/5x5
I0706 23:41:54.711488  9777 net.cpp:425] inception_4b/5x5 <- inception_4b/5x5_reduce
I0706 23:41:54.711498  9777 net.cpp:399] inception_4b/5x5 -> inception_4b/5x5
I0706 23:41:54.714792  9777 net.cpp:141] Setting up inception_4b/5x5
I0706 23:41:54.714809  9777 net.cpp:148] Top shape: 10 64 14 14 (125440)
I0706 23:41:54.714814  9777 net.cpp:156] Memory required for data: 398272000
I0706 23:41:54.714823  9777 layer_factory.hpp:77] Creating layer inception_4b/relu_5x5
I0706 23:41:54.714833  9777 net.cpp:91] Creating Layer inception_4b/relu_5x5
I0706 23:41:54.714838  9777 net.cpp:425] inception_4b/relu_5x5 <- inception_4b/5x5
I0706 23:41:54.714845  9777 net.cpp:386] inception_4b/relu_5x5 -> inception_4b/5x5 (in-place)
I0706 23:41:54.715083  9777 net.cpp:141] Setting up inception_4b/relu_5x5
I0706 23:41:54.715095  9777 net.cpp:148] Top shape: 10 64 14 14 (125440)
I0706 23:41:54.715098  9777 net.cpp:156] Memory required for data: 398773760
I0706 23:41:54.715103  9777 layer_factory.hpp:77] Creating layer inception_4b/pool
I0706 23:41:54.715116  9777 net.cpp:91] Creating Layer inception_4b/pool
I0706 23:41:54.715121  9777 net.cpp:425] inception_4b/pool <- inception_4a/output_inception_4a/output_0_split_3
I0706 23:41:54.715131  9777 net.cpp:399] inception_4b/pool -> inception_4b/pool
I0706 23:41:54.715196  9777 net.cpp:141] Setting up inception_4b/pool
I0706 23:41:54.715205  9777 net.cpp:148] Top shape: 10 512 14 14 (1003520)
I0706 23:41:54.715209  9777 net.cpp:156] Memory required for data: 402787840
I0706 23:41:54.715214  9777 layer_factory.hpp:77] Creating layer inception_4b/pool_proj
I0706 23:41:54.715227  9777 net.cpp:91] Creating Layer inception_4b/pool_proj
I0706 23:41:54.715232  9777 net.cpp:425] inception_4b/pool_proj <- inception_4b/pool
I0706 23:41:54.715243  9777 net.cpp:399] inception_4b/pool_proj -> inception_4b/pool_proj
I0706 23:41:54.717491  9777 net.cpp:141] Setting up inception_4b/pool_proj
I0706 23:41:54.717507  9777 net.cpp:148] Top shape: 10 64 14 14 (125440)
I0706 23:41:54.717514  9777 net.cpp:156] Memory required for data: 403289600
I0706 23:41:54.717521  9777 layer_factory.hpp:77] Creating layer inception_4b/relu_pool_proj
I0706 23:41:54.717528  9777 net.cpp:91] Creating Layer inception_4b/relu_pool_proj
I0706 23:41:54.717535  9777 net.cpp:425] inception_4b/relu_pool_proj <- inception_4b/pool_proj
I0706 23:41:54.717545  9777 net.cpp:386] inception_4b/relu_pool_proj -> inception_4b/pool_proj (in-place)
I0706 23:41:54.718255  9777 net.cpp:141] Setting up inception_4b/relu_pool_proj
I0706 23:41:54.718271  9777 net.cpp:148] Top shape: 10 64 14 14 (125440)
I0706 23:41:54.718274  9777 net.cpp:156] Memory required for data: 403791360
I0706 23:41:54.718279  9777 layer_factory.hpp:77] Creating layer inception_4b/output
I0706 23:41:54.718287  9777 net.cpp:91] Creating Layer inception_4b/output
I0706 23:41:54.718292  9777 net.cpp:425] inception_4b/output <- inception_4b/1x1
I0706 23:41:54.718298  9777 net.cpp:425] inception_4b/output <- inception_4b/3x3
I0706 23:41:54.718303  9777 net.cpp:425] inception_4b/output <- inception_4b/5x5
I0706 23:41:54.718308  9777 net.cpp:425] inception_4b/output <- inception_4b/pool_proj
I0706 23:41:54.718317  9777 net.cpp:399] inception_4b/output -> inception_4b/output
I0706 23:41:54.718364  9777 net.cpp:141] Setting up inception_4b/output
I0706 23:41:54.718374  9777 net.cpp:148] Top shape: 10 512 14 14 (1003520)
I0706 23:41:54.718377  9777 net.cpp:156] Memory required for data: 407805440
I0706 23:41:54.718381  9777 layer_factory.hpp:77] Creating layer inception_4b/output_inception_4b/output_0_split
I0706 23:41:54.718389  9777 net.cpp:91] Creating Layer inception_4b/output_inception_4b/output_0_split
I0706 23:41:54.718394  9777 net.cpp:425] inception_4b/output_inception_4b/output_0_split <- inception_4b/output
I0706 23:41:54.718400  9777 net.cpp:399] inception_4b/output_inception_4b/output_0_split -> inception_4b/output_inception_4b/output_0_split_0
I0706 23:41:54.718411  9777 net.cpp:399] inception_4b/output_inception_4b/output_0_split -> inception_4b/output_inception_4b/output_0_split_1
I0706 23:41:54.718420  9777 net.cpp:399] inception_4b/output_inception_4b/output_0_split -> inception_4b/output_inception_4b/output_0_split_2
I0706 23:41:54.718426  9777 net.cpp:399] inception_4b/output_inception_4b/output_0_split -> inception_4b/output_inception_4b/output_0_split_3
I0706 23:41:54.718513  9777 net.cpp:141] Setting up inception_4b/output_inception_4b/output_0_split
I0706 23:41:54.718521  9777 net.cpp:148] Top shape: 10 512 14 14 (1003520)
I0706 23:41:54.718528  9777 net.cpp:148] Top shape: 10 512 14 14 (1003520)
I0706 23:41:54.718533  9777 net.cpp:148] Top shape: 10 512 14 14 (1003520)
I0706 23:41:54.718538  9777 net.cpp:148] Top shape: 10 512 14 14 (1003520)
I0706 23:41:54.718540  9777 net.cpp:156] Memory required for data: 423861760
I0706 23:41:54.718545  9777 layer_factory.hpp:77] Creating layer inception_4c/1x1
I0706 23:41:54.718561  9777 net.cpp:91] Creating Layer inception_4c/1x1
I0706 23:41:54.718566  9777 net.cpp:425] inception_4c/1x1 <- inception_4b/output_inception_4b/output_0_split_0
I0706 23:41:54.718575  9777 net.cpp:399] inception_4c/1x1 -> inception_4c/1x1
I0706 23:41:54.721087  9777 net.cpp:141] Setting up inception_4c/1x1
I0706 23:41:54.721104  9777 net.cpp:148] Top shape: 10 128 14 14 (250880)
I0706 23:41:54.721109  9777 net.cpp:156] Memory required for data: 424865280
I0706 23:41:54.721118  9777 layer_factory.hpp:77] Creating layer inception_4c/relu_1x1
I0706 23:41:54.721129  9777 net.cpp:91] Creating Layer inception_4c/relu_1x1
I0706 23:41:54.721135  9777 net.cpp:425] inception_4c/relu_1x1 <- inception_4c/1x1
I0706 23:41:54.721141  9777 net.cpp:386] inception_4c/relu_1x1 -> inception_4c/1x1 (in-place)
I0706 23:41:54.721380  9777 net.cpp:141] Setting up inception_4c/relu_1x1
I0706 23:41:54.721391  9777 net.cpp:148] Top shape: 10 128 14 14 (250880)
I0706 23:41:54.721395  9777 net.cpp:156] Memory required for data: 425868800
I0706 23:41:54.721400  9777 layer_factory.hpp:77] Creating layer inception_4c/3x3_reduce
I0706 23:41:54.721415  9777 net.cpp:91] Creating Layer inception_4c/3x3_reduce
I0706 23:41:54.721420  9777 net.cpp:425] inception_4c/3x3_reduce <- inception_4b/output_inception_4b/output_0_split_1
I0706 23:41:54.721431  9777 net.cpp:399] inception_4c/3x3_reduce -> inception_4c/3x3_reduce
I0706 23:41:54.723963  9777 net.cpp:141] Setting up inception_4c/3x3_reduce
I0706 23:41:54.723980  9777 net.cpp:148] Top shape: 10 128 14 14 (250880)
I0706 23:41:54.723985  9777 net.cpp:156] Memory required for data: 426872320
I0706 23:41:54.723994  9777 layer_factory.hpp:77] Creating layer inception_4c/relu_3x3_reduce
I0706 23:41:54.724004  9777 net.cpp:91] Creating Layer inception_4c/relu_3x3_reduce
I0706 23:41:54.724010  9777 net.cpp:425] inception_4c/relu_3x3_reduce <- inception_4c/3x3_reduce
I0706 23:41:54.724016  9777 net.cpp:386] inception_4c/relu_3x3_reduce -> inception_4c/3x3_reduce (in-place)
I0706 23:41:54.724254  9777 net.cpp:141] Setting up inception_4c/relu_3x3_reduce
I0706 23:41:54.724266  9777 net.cpp:148] Top shape: 10 128 14 14 (250880)
I0706 23:41:54.724269  9777 net.cpp:156] Memory required for data: 427875840
I0706 23:41:54.724274  9777 layer_factory.hpp:77] Creating layer inception_4c/3x3
I0706 23:41:54.724288  9777 net.cpp:91] Creating Layer inception_4c/3x3
I0706 23:41:54.724294  9777 net.cpp:425] inception_4c/3x3 <- inception_4c/3x3_reduce
I0706 23:41:54.724304  9777 net.cpp:399] inception_4c/3x3 -> inception_4c/3x3
I0706 23:41:54.729511  9777 net.cpp:141] Setting up inception_4c/3x3
I0706 23:41:54.729543  9777 net.cpp:148] Top shape: 10 256 14 14 (501760)
I0706 23:41:54.729548  9777 net.cpp:156] Memory required for data: 429882880
I0706 23:41:54.729557  9777 layer_factory.hpp:77] Creating layer inception_4c/relu_3x3
I0706 23:41:54.729568  9777 net.cpp:91] Creating Layer inception_4c/relu_3x3
I0706 23:41:54.729573  9777 net.cpp:425] inception_4c/relu_3x3 <- inception_4c/3x3
I0706 23:41:54.729580  9777 net.cpp:386] inception_4c/relu_3x3 -> inception_4c/3x3 (in-place)
I0706 23:41:54.730298  9777 net.cpp:141] Setting up inception_4c/relu_3x3
I0706 23:41:54.730314  9777 net.cpp:148] Top shape: 10 256 14 14 (501760)
I0706 23:41:54.730319  9777 net.cpp:156] Memory required for data: 431889920
I0706 23:41:54.730324  9777 layer_factory.hpp:77] Creating layer inception_4c/5x5_reduce
I0706 23:41:54.730337  9777 net.cpp:91] Creating Layer inception_4c/5x5_reduce
I0706 23:41:54.730343  9777 net.cpp:425] inception_4c/5x5_reduce <- inception_4b/output_inception_4b/output_0_split_2
I0706 23:41:54.730355  9777 net.cpp:399] inception_4c/5x5_reduce -> inception_4c/5x5_reduce
I0706 23:41:54.732555  9777 net.cpp:141] Setting up inception_4c/5x5_reduce
I0706 23:41:54.732574  9777 net.cpp:148] Top shape: 10 24 14 14 (47040)
I0706 23:41:54.732579  9777 net.cpp:156] Memory required for data: 432078080
I0706 23:41:54.732588  9777 layer_factory.hpp:77] Creating layer inception_4c/relu_5x5_reduce
I0706 23:41:54.732599  9777 net.cpp:91] Creating Layer inception_4c/relu_5x5_reduce
I0706 23:41:54.732604  9777 net.cpp:425] inception_4c/relu_5x5_reduce <- inception_4c/5x5_reduce
I0706 23:41:54.732611  9777 net.cpp:386] inception_4c/relu_5x5_reduce -> inception_4c/5x5_reduce (in-place)
I0706 23:41:54.732852  9777 net.cpp:141] Setting up inception_4c/relu_5x5_reduce
I0706 23:41:54.732863  9777 net.cpp:148] Top shape: 10 24 14 14 (47040)
I0706 23:41:54.732867  9777 net.cpp:156] Memory required for data: 432266240
I0706 23:41:54.732872  9777 layer_factory.hpp:77] Creating layer inception_4c/5x5
I0706 23:41:54.732887  9777 net.cpp:91] Creating Layer inception_4c/5x5
I0706 23:41:54.732893  9777 net.cpp:425] inception_4c/5x5 <- inception_4c/5x5_reduce
I0706 23:41:54.732903  9777 net.cpp:399] inception_4c/5x5 -> inception_4c/5x5
I0706 23:41:54.735838  9777 net.cpp:141] Setting up inception_4c/5x5
I0706 23:41:54.735857  9777 net.cpp:148] Top shape: 10 64 14 14 (125440)
I0706 23:41:54.735862  9777 net.cpp:156] Memory required for data: 432768000
I0706 23:41:54.735870  9777 layer_factory.hpp:77] Creating layer inception_4c/relu_5x5
I0706 23:41:54.735878  9777 net.cpp:91] Creating Layer inception_4c/relu_5x5
I0706 23:41:54.735883  9777 net.cpp:425] inception_4c/relu_5x5 <- inception_4c/5x5
I0706 23:41:54.735893  9777 net.cpp:386] inception_4c/relu_5x5 -> inception_4c/5x5 (in-place)
I0706 23:41:54.736132  9777 net.cpp:141] Setting up inception_4c/relu_5x5
I0706 23:41:54.736143  9777 net.cpp:148] Top shape: 10 64 14 14 (125440)
I0706 23:41:54.736148  9777 net.cpp:156] Memory required for data: 433269760
I0706 23:41:54.736152  9777 layer_factory.hpp:77] Creating layer inception_4c/pool
I0706 23:41:54.736166  9777 net.cpp:91] Creating Layer inception_4c/pool
I0706 23:41:54.736171  9777 net.cpp:425] inception_4c/pool <- inception_4b/output_inception_4b/output_0_split_3
I0706 23:41:54.736178  9777 net.cpp:399] inception_4c/pool -> inception_4c/pool
I0706 23:41:54.736249  9777 net.cpp:141] Setting up inception_4c/pool
I0706 23:41:54.736259  9777 net.cpp:148] Top shape: 10 512 14 14 (1003520)
I0706 23:41:54.736263  9777 net.cpp:156] Memory required for data: 437283840
I0706 23:41:54.736268  9777 layer_factory.hpp:77] Creating layer inception_4c/pool_proj
I0706 23:41:54.736281  9777 net.cpp:91] Creating Layer inception_4c/pool_proj
I0706 23:41:54.736286  9777 net.cpp:425] inception_4c/pool_proj <- inception_4c/pool
I0706 23:41:54.736297  9777 net.cpp:399] inception_4c/pool_proj -> inception_4c/pool_proj
I0706 23:41:54.739738  9777 net.cpp:141] Setting up inception_4c/pool_proj
I0706 23:41:54.739760  9777 net.cpp:148] Top shape: 10 64 14 14 (125440)
I0706 23:41:54.739765  9777 net.cpp:156] Memory required for data: 437785600
I0706 23:41:54.739801  9777 layer_factory.hpp:77] Creating layer inception_4c/relu_pool_proj
I0706 23:41:54.739811  9777 net.cpp:91] Creating Layer inception_4c/relu_pool_proj
I0706 23:41:54.739817  9777 net.cpp:425] inception_4c/relu_pool_proj <- inception_4c/pool_proj
I0706 23:41:54.739825  9777 net.cpp:386] inception_4c/relu_pool_proj -> inception_4c/pool_proj (in-place)
I0706 23:41:54.740578  9777 net.cpp:141] Setting up inception_4c/relu_pool_proj
I0706 23:41:54.740597  9777 net.cpp:148] Top shape: 10 64 14 14 (125440)
I0706 23:41:54.740602  9777 net.cpp:156] Memory required for data: 438287360
I0706 23:41:54.740607  9777 layer_factory.hpp:77] Creating layer inception_4c/output
I0706 23:41:54.740615  9777 net.cpp:91] Creating Layer inception_4c/output
I0706 23:41:54.740620  9777 net.cpp:425] inception_4c/output <- inception_4c/1x1
I0706 23:41:54.740628  9777 net.cpp:425] inception_4c/output <- inception_4c/3x3
I0706 23:41:54.740633  9777 net.cpp:425] inception_4c/output <- inception_4c/5x5
I0706 23:41:54.740638  9777 net.cpp:425] inception_4c/output <- inception_4c/pool_proj
I0706 23:41:54.740643  9777 net.cpp:399] inception_4c/output -> inception_4c/output
I0706 23:41:54.740698  9777 net.cpp:141] Setting up inception_4c/output
I0706 23:41:54.740711  9777 net.cpp:148] Top shape: 10 512 14 14 (1003520)
I0706 23:41:54.740715  9777 net.cpp:156] Memory required for data: 442301440
I0706 23:41:54.740720  9777 layer_factory.hpp:77] Creating layer inception_4c/output_inception_4c/output_0_split
I0706 23:41:54.740728  9777 net.cpp:91] Creating Layer inception_4c/output_inception_4c/output_0_split
I0706 23:41:54.740732  9777 net.cpp:425] inception_4c/output_inception_4c/output_0_split <- inception_4c/output
I0706 23:41:54.740739  9777 net.cpp:399] inception_4c/output_inception_4c/output_0_split -> inception_4c/output_inception_4c/output_0_split_0
I0706 23:41:54.740747  9777 net.cpp:399] inception_4c/output_inception_4c/output_0_split -> inception_4c/output_inception_4c/output_0_split_1
I0706 23:41:54.740754  9777 net.cpp:399] inception_4c/output_inception_4c/output_0_split -> inception_4c/output_inception_4c/output_0_split_2
I0706 23:41:54.740766  9777 net.cpp:399] inception_4c/output_inception_4c/output_0_split -> inception_4c/output_inception_4c/output_0_split_3
I0706 23:41:54.740859  9777 net.cpp:141] Setting up inception_4c/output_inception_4c/output_0_split
I0706 23:41:54.740867  9777 net.cpp:148] Top shape: 10 512 14 14 (1003520)
I0706 23:41:54.740874  9777 net.cpp:148] Top shape: 10 512 14 14 (1003520)
I0706 23:41:54.740878  9777 net.cpp:148] Top shape: 10 512 14 14 (1003520)
I0706 23:41:54.740883  9777 net.cpp:148] Top shape: 10 512 14 14 (1003520)
I0706 23:41:54.740886  9777 net.cpp:156] Memory required for data: 458357760
I0706 23:41:54.740891  9777 layer_factory.hpp:77] Creating layer inception_4d/1x1
I0706 23:41:54.740907  9777 net.cpp:91] Creating Layer inception_4d/1x1
I0706 23:41:54.740912  9777 net.cpp:425] inception_4d/1x1 <- inception_4c/output_inception_4c/output_0_split_0
I0706 23:41:54.740922  9777 net.cpp:399] inception_4d/1x1 -> inception_4d/1x1
I0706 23:41:54.743595  9777 net.cpp:141] Setting up inception_4d/1x1
I0706 23:41:54.743626  9777 net.cpp:148] Top shape: 10 112 14 14 (219520)
I0706 23:41:54.743633  9777 net.cpp:156] Memory required for data: 459235840
I0706 23:41:54.743641  9777 layer_factory.hpp:77] Creating layer inception_4d/relu_1x1
I0706 23:41:54.743649  9777 net.cpp:91] Creating Layer inception_4d/relu_1x1
I0706 23:41:54.743655  9777 net.cpp:425] inception_4d/relu_1x1 <- inception_4d/1x1
I0706 23:41:54.743665  9777 net.cpp:386] inception_4d/relu_1x1 -> inception_4d/1x1 (in-place)
I0706 23:41:54.743904  9777 net.cpp:141] Setting up inception_4d/relu_1x1
I0706 23:41:54.743916  9777 net.cpp:148] Top shape: 10 112 14 14 (219520)
I0706 23:41:54.743919  9777 net.cpp:156] Memory required for data: 460113920
I0706 23:41:54.743924  9777 layer_factory.hpp:77] Creating layer inception_4d/3x3_reduce
I0706 23:41:54.743944  9777 net.cpp:91] Creating Layer inception_4d/3x3_reduce
I0706 23:41:54.743950  9777 net.cpp:425] inception_4d/3x3_reduce <- inception_4c/output_inception_4c/output_0_split_1
I0706 23:41:54.743958  9777 net.cpp:399] inception_4d/3x3_reduce -> inception_4d/3x3_reduce
I0706 23:41:54.746657  9777 net.cpp:141] Setting up inception_4d/3x3_reduce
I0706 23:41:54.746675  9777 net.cpp:148] Top shape: 10 144 14 14 (282240)
I0706 23:41:54.746680  9777 net.cpp:156] Memory required for data: 461242880
I0706 23:41:54.746698  9777 layer_factory.hpp:77] Creating layer inception_4d/relu_3x3_reduce
I0706 23:41:54.746707  9777 net.cpp:91] Creating Layer inception_4d/relu_3x3_reduce
I0706 23:41:54.746716  9777 net.cpp:425] inception_4d/relu_3x3_reduce <- inception_4d/3x3_reduce
I0706 23:41:54.746727  9777 net.cpp:386] inception_4d/relu_3x3_reduce -> inception_4d/3x3_reduce (in-place)
I0706 23:41:54.746973  9777 net.cpp:141] Setting up inception_4d/relu_3x3_reduce
I0706 23:41:54.746984  9777 net.cpp:148] Top shape: 10 144 14 14 (282240)
I0706 23:41:54.746989  9777 net.cpp:156] Memory required for data: 462371840
I0706 23:41:54.746994  9777 layer_factory.hpp:77] Creating layer inception_4d/3x3
I0706 23:41:54.747010  9777 net.cpp:91] Creating Layer inception_4d/3x3
I0706 23:41:54.747016  9777 net.cpp:425] inception_4d/3x3 <- inception_4d/3x3_reduce
I0706 23:41:54.747027  9777 net.cpp:399] inception_4d/3x3 -> inception_4d/3x3
I0706 23:41:54.753360  9777 net.cpp:141] Setting up inception_4d/3x3
I0706 23:41:54.753386  9777 net.cpp:148] Top shape: 10 288 14 14 (564480)
I0706 23:41:54.753391  9777 net.cpp:156] Memory required for data: 464629760
I0706 23:41:54.753399  9777 layer_factory.hpp:77] Creating layer inception_4d/relu_3x3
I0706 23:41:54.753410  9777 net.cpp:91] Creating Layer inception_4d/relu_3x3
I0706 23:41:54.753417  9777 net.cpp:425] inception_4d/relu_3x3 <- inception_4d/3x3
I0706 23:41:54.753424  9777 net.cpp:386] inception_4d/relu_3x3 -> inception_4d/3x3 (in-place)
I0706 23:41:54.754180  9777 net.cpp:141] Setting up inception_4d/relu_3x3
I0706 23:41:54.754195  9777 net.cpp:148] Top shape: 10 288 14 14 (564480)
I0706 23:41:54.754200  9777 net.cpp:156] Memory required for data: 466887680
I0706 23:41:54.754205  9777 layer_factory.hpp:77] Creating layer inception_4d/5x5_reduce
I0706 23:41:54.754223  9777 net.cpp:91] Creating Layer inception_4d/5x5_reduce
I0706 23:41:54.754230  9777 net.cpp:425] inception_4d/5x5_reduce <- inception_4c/output_inception_4c/output_0_split_2
I0706 23:41:54.754240  9777 net.cpp:399] inception_4d/5x5_reduce -> inception_4d/5x5_reduce
I0706 23:41:54.756495  9777 net.cpp:141] Setting up inception_4d/5x5_reduce
I0706 23:41:54.756515  9777 net.cpp:148] Top shape: 10 32 14 14 (62720)
I0706 23:41:54.756521  9777 net.cpp:156] Memory required for data: 467138560
I0706 23:41:54.756530  9777 layer_factory.hpp:77] Creating layer inception_4d/relu_5x5_reduce
I0706 23:41:54.756537  9777 net.cpp:91] Creating Layer inception_4d/relu_5x5_reduce
I0706 23:41:54.756542  9777 net.cpp:425] inception_4d/relu_5x5_reduce <- inception_4d/5x5_reduce
I0706 23:41:54.756551  9777 net.cpp:386] inception_4d/relu_5x5_reduce -> inception_4d/5x5_reduce (in-place)
I0706 23:41:54.756795  9777 net.cpp:141] Setting up inception_4d/relu_5x5_reduce
I0706 23:41:54.756806  9777 net.cpp:148] Top shape: 10 32 14 14 (62720)
I0706 23:41:54.756810  9777 net.cpp:156] Memory required for data: 467389440
I0706 23:41:54.756814  9777 layer_factory.hpp:77] Creating layer inception_4d/5x5
I0706 23:41:54.756831  9777 net.cpp:91] Creating Layer inception_4d/5x5
I0706 23:41:54.756837  9777 net.cpp:425] inception_4d/5x5 <- inception_4d/5x5_reduce
I0706 23:41:54.756845  9777 net.cpp:399] inception_4d/5x5 -> inception_4d/5x5
I0706 23:41:54.759377  9777 net.cpp:141] Setting up inception_4d/5x5
I0706 23:41:54.759395  9777 net.cpp:148] Top shape: 10 64 14 14 (125440)
I0706 23:41:54.759400  9777 net.cpp:156] Memory required for data: 467891200
I0706 23:41:54.759408  9777 layer_factory.hpp:77] Creating layer inception_4d/relu_5x5
I0706 23:41:54.759421  9777 net.cpp:91] Creating Layer inception_4d/relu_5x5
I0706 23:41:54.759428  9777 net.cpp:425] inception_4d/relu_5x5 <- inception_4d/5x5
I0706 23:41:54.759434  9777 net.cpp:386] inception_4d/relu_5x5 -> inception_4d/5x5 (in-place)
I0706 23:41:54.759675  9777 net.cpp:141] Setting up inception_4d/relu_5x5
I0706 23:41:54.759686  9777 net.cpp:148] Top shape: 10 64 14 14 (125440)
I0706 23:41:54.759690  9777 net.cpp:156] Memory required for data: 468392960
I0706 23:41:54.759696  9777 layer_factory.hpp:77] Creating layer inception_4d/pool
I0706 23:41:54.759704  9777 net.cpp:91] Creating Layer inception_4d/pool
I0706 23:41:54.759709  9777 net.cpp:425] inception_4d/pool <- inception_4c/output_inception_4c/output_0_split_3
I0706 23:41:54.759719  9777 net.cpp:399] inception_4d/pool -> inception_4d/pool
I0706 23:41:54.759789  9777 net.cpp:141] Setting up inception_4d/pool
I0706 23:41:54.759799  9777 net.cpp:148] Top shape: 10 512 14 14 (1003520)
I0706 23:41:54.759804  9777 net.cpp:156] Memory required for data: 472407040
I0706 23:41:54.759807  9777 layer_factory.hpp:77] Creating layer inception_4d/pool_proj
I0706 23:41:54.759824  9777 net.cpp:91] Creating Layer inception_4d/pool_proj
I0706 23:41:54.759830  9777 net.cpp:425] inception_4d/pool_proj <- inception_4d/pool
I0706 23:41:54.759837  9777 net.cpp:399] inception_4d/pool_proj -> inception_4d/pool_proj
I0706 23:41:54.762265  9777 net.cpp:141] Setting up inception_4d/pool_proj
I0706 23:41:54.762282  9777 net.cpp:148] Top shape: 10 64 14 14 (125440)
I0706 23:41:54.762287  9777 net.cpp:156] Memory required for data: 472908800
I0706 23:41:54.762295  9777 layer_factory.hpp:77] Creating layer inception_4d/relu_pool_proj
I0706 23:41:54.762305  9777 net.cpp:91] Creating Layer inception_4d/relu_pool_proj
I0706 23:41:54.762310  9777 net.cpp:425] inception_4d/relu_pool_proj <- inception_4d/pool_proj
I0706 23:41:54.762320  9777 net.cpp:386] inception_4d/relu_pool_proj -> inception_4d/pool_proj (in-place)
I0706 23:41:54.763074  9777 net.cpp:141] Setting up inception_4d/relu_pool_proj
I0706 23:41:54.763090  9777 net.cpp:148] Top shape: 10 64 14 14 (125440)
I0706 23:41:54.763094  9777 net.cpp:156] Memory required for data: 473410560
I0706 23:41:54.763099  9777 layer_factory.hpp:77] Creating layer inception_4d/output
I0706 23:41:54.763110  9777 net.cpp:91] Creating Layer inception_4d/output
I0706 23:41:54.763115  9777 net.cpp:425] inception_4d/output <- inception_4d/1x1
I0706 23:41:54.763123  9777 net.cpp:425] inception_4d/output <- inception_4d/3x3
I0706 23:41:54.763128  9777 net.cpp:425] inception_4d/output <- inception_4d/5x5
I0706 23:41:54.763133  9777 net.cpp:425] inception_4d/output <- inception_4d/pool_proj
I0706 23:41:54.763139  9777 net.cpp:399] inception_4d/output -> inception_4d/output
I0706 23:41:54.763183  9777 net.cpp:141] Setting up inception_4d/output
I0706 23:41:54.763193  9777 net.cpp:148] Top shape: 10 528 14 14 (1034880)
I0706 23:41:54.763197  9777 net.cpp:156] Memory required for data: 477550080
I0706 23:41:54.763201  9777 layer_factory.hpp:77] Creating layer inception_4d/output_inception_4d/output_0_split
I0706 23:41:54.763213  9777 net.cpp:91] Creating Layer inception_4d/output_inception_4d/output_0_split
I0706 23:41:54.763218  9777 net.cpp:425] inception_4d/output_inception_4d/output_0_split <- inception_4d/output
I0706 23:41:54.763226  9777 net.cpp:399] inception_4d/output_inception_4d/output_0_split -> inception_4d/output_inception_4d/output_0_split_0
I0706 23:41:54.763236  9777 net.cpp:399] inception_4d/output_inception_4d/output_0_split -> inception_4d/output_inception_4d/output_0_split_1
I0706 23:41:54.763242  9777 net.cpp:399] inception_4d/output_inception_4d/output_0_split -> inception_4d/output_inception_4d/output_0_split_2
I0706 23:41:54.763250  9777 net.cpp:399] inception_4d/output_inception_4d/output_0_split -> inception_4d/output_inception_4d/output_0_split_3
I0706 23:41:54.763345  9777 net.cpp:141] Setting up inception_4d/output_inception_4d/output_0_split
I0706 23:41:54.763355  9777 net.cpp:148] Top shape: 10 528 14 14 (1034880)
I0706 23:41:54.763362  9777 net.cpp:148] Top shape: 10 528 14 14 (1034880)
I0706 23:41:54.763368  9777 net.cpp:148] Top shape: 10 528 14 14 (1034880)
I0706 23:41:54.763373  9777 net.cpp:148] Top shape: 10 528 14 14 (1034880)
I0706 23:41:54.763376  9777 net.cpp:156] Memory required for data: 494108160
I0706 23:41:54.763381  9777 layer_factory.hpp:77] Creating layer inception_4e/1x1
I0706 23:41:54.763392  9777 net.cpp:91] Creating Layer inception_4e/1x1
I0706 23:41:54.763397  9777 net.cpp:425] inception_4e/1x1 <- inception_4d/output_inception_4d/output_0_split_0
I0706 23:41:54.763409  9777 net.cpp:399] inception_4e/1x1 -> inception_4e/1x1
I0706 23:41:54.768169  9777 net.cpp:141] Setting up inception_4e/1x1
I0706 23:41:54.768190  9777 net.cpp:148] Top shape: 10 256 14 14 (501760)
I0706 23:41:54.768196  9777 net.cpp:156] Memory required for data: 496115200
I0706 23:41:54.768204  9777 layer_factory.hpp:77] Creating layer inception_4e/relu_1x1
I0706 23:41:54.768216  9777 net.cpp:91] Creating Layer inception_4e/relu_1x1
I0706 23:41:54.768223  9777 net.cpp:425] inception_4e/relu_1x1 <- inception_4e/1x1
I0706 23:41:54.768229  9777 net.cpp:386] inception_4e/relu_1x1 -> inception_4e/1x1 (in-place)
I0706 23:41:54.768477  9777 net.cpp:141] Setting up inception_4e/relu_1x1
I0706 23:41:54.768489  9777 net.cpp:148] Top shape: 10 256 14 14 (501760)
I0706 23:41:54.768493  9777 net.cpp:156] Memory required for data: 498122240
I0706 23:41:54.768498  9777 layer_factory.hpp:77] Creating layer inception_4e/3x3_reduce
I0706 23:41:54.768517  9777 net.cpp:91] Creating Layer inception_4e/3x3_reduce
I0706 23:41:54.768522  9777 net.cpp:425] inception_4e/3x3_reduce <- inception_4d/output_inception_4d/output_0_split_1
I0706 23:41:54.768530  9777 net.cpp:399] inception_4e/3x3_reduce -> inception_4e/3x3_reduce
I0706 23:41:54.771311  9777 net.cpp:141] Setting up inception_4e/3x3_reduce
I0706 23:41:54.771329  9777 net.cpp:148] Top shape: 10 160 14 14 (313600)
I0706 23:41:54.771334  9777 net.cpp:156] Memory required for data: 499376640
I0706 23:41:54.771342  9777 layer_factory.hpp:77] Creating layer inception_4e/relu_3x3_reduce
I0706 23:41:54.771353  9777 net.cpp:91] Creating Layer inception_4e/relu_3x3_reduce
I0706 23:41:54.771359  9777 net.cpp:425] inception_4e/relu_3x3_reduce <- inception_4e/3x3_reduce
I0706 23:41:54.771365  9777 net.cpp:386] inception_4e/relu_3x3_reduce -> inception_4e/3x3_reduce (in-place)
I0706 23:41:54.771610  9777 net.cpp:141] Setting up inception_4e/relu_3x3_reduce
I0706 23:41:54.771621  9777 net.cpp:148] Top shape: 10 160 14 14 (313600)
I0706 23:41:54.771625  9777 net.cpp:156] Memory required for data: 500631040
I0706 23:41:54.771631  9777 layer_factory.hpp:77] Creating layer inception_4e/3x3
I0706 23:41:54.771644  9777 net.cpp:91] Creating Layer inception_4e/3x3
I0706 23:41:54.771651  9777 net.cpp:425] inception_4e/3x3 <- inception_4e/3x3_reduce
I0706 23:41:54.771658  9777 net.cpp:399] inception_4e/3x3 -> inception_4e/3x3
I0706 23:41:54.778683  9777 net.cpp:141] Setting up inception_4e/3x3
I0706 23:41:54.778712  9777 net.cpp:148] Top shape: 10 320 14 14 (627200)
I0706 23:41:54.778717  9777 net.cpp:156] Memory required for data: 503139840
I0706 23:41:54.778726  9777 layer_factory.hpp:77] Creating layer inception_4e/relu_3x3
I0706 23:41:54.778739  9777 net.cpp:91] Creating Layer inception_4e/relu_3x3
I0706 23:41:54.778746  9777 net.cpp:425] inception_4e/relu_3x3 <- inception_4e/3x3
I0706 23:41:54.778753  9777 net.cpp:386] inception_4e/relu_3x3 -> inception_4e/3x3 (in-place)
I0706 23:41:54.779484  9777 net.cpp:141] Setting up inception_4e/relu_3x3
I0706 23:41:54.779503  9777 net.cpp:148] Top shape: 10 320 14 14 (627200)
I0706 23:41:54.779508  9777 net.cpp:156] Memory required for data: 505648640
I0706 23:41:54.779513  9777 layer_factory.hpp:77] Creating layer inception_4e/5x5_reduce
I0706 23:41:54.779528  9777 net.cpp:91] Creating Layer inception_4e/5x5_reduce
I0706 23:41:54.779536  9777 net.cpp:425] inception_4e/5x5_reduce <- inception_4d/output_inception_4d/output_0_split_2
I0706 23:41:54.779543  9777 net.cpp:399] inception_4e/5x5_reduce -> inception_4e/5x5_reduce
I0706 23:41:54.800086  9777 net.cpp:141] Setting up inception_4e/5x5_reduce
I0706 23:41:54.800607  9777 net.cpp:148] Top shape: 10 32 14 14 (62720)
I0706 23:41:54.800719  9777 net.cpp:156] Memory required for data: 505899520
I0706 23:41:54.800835  9777 layer_factory.hpp:77] Creating layer inception_4e/relu_5x5_reduce
I0706 23:41:54.800950  9777 net.cpp:91] Creating Layer inception_4e/relu_5x5_reduce
I0706 23:41:54.801056  9777 net.cpp:425] inception_4e/relu_5x5_reduce <- inception_4e/5x5_reduce
I0706 23:41:54.801219  9777 net.cpp:386] inception_4e/relu_5x5_reduce -> inception_4e/5x5_reduce (in-place)
I0706 23:41:54.801663  9777 net.cpp:141] Setting up inception_4e/relu_5x5_reduce
I0706 23:41:54.801805  9777 net.cpp:148] Top shape: 10 32 14 14 (62720)
I0706 23:41:54.801906  9777 net.cpp:156] Memory required for data: 506150400
I0706 23:41:54.802009  9777 layer_factory.hpp:77] Creating layer inception_4e/5x5
I0706 23:41:54.802681  9777 net.cpp:91] Creating Layer inception_4e/5x5
I0706 23:41:54.802804  9777 net.cpp:425] inception_4e/5x5 <- inception_4e/5x5_reduce
I0706 23:41:54.803257  9777 net.cpp:399] inception_4e/5x5 -> inception_4e/5x5
I0706 23:41:54.807977  9777 net.cpp:141] Setting up inception_4e/5x5
I0706 23:41:54.807996  9777 net.cpp:148] Top shape: 10 128 14 14 (250880)
I0706 23:41:54.808001  9777 net.cpp:156] Memory required for data: 507153920
I0706 23:41:54.808010  9777 layer_factory.hpp:77] Creating layer inception_4e/relu_5x5
I0706 23:41:54.808027  9777 net.cpp:91] Creating Layer inception_4e/relu_5x5
I0706 23:41:54.808033  9777 net.cpp:425] inception_4e/relu_5x5 <- inception_4e/5x5
I0706 23:41:54.808039  9777 net.cpp:386] inception_4e/relu_5x5 -> inception_4e/5x5 (in-place)
I0706 23:41:54.808282  9777 net.cpp:141] Setting up inception_4e/relu_5x5
I0706 23:41:54.808293  9777 net.cpp:148] Top shape: 10 128 14 14 (250880)
I0706 23:41:54.808297  9777 net.cpp:156] Memory required for data: 508157440
I0706 23:41:54.808302  9777 layer_factory.hpp:77] Creating layer inception_4e/pool
I0706 23:41:54.808313  9777 net.cpp:91] Creating Layer inception_4e/pool
I0706 23:41:54.808318  9777 net.cpp:425] inception_4e/pool <- inception_4d/output_inception_4d/output_0_split_3
I0706 23:41:54.808326  9777 net.cpp:399] inception_4e/pool -> inception_4e/pool
I0706 23:41:54.808398  9777 net.cpp:141] Setting up inception_4e/pool
I0706 23:41:54.808408  9777 net.cpp:148] Top shape: 10 528 14 14 (1034880)
I0706 23:41:54.808411  9777 net.cpp:156] Memory required for data: 512296960
I0706 23:41:54.808415  9777 layer_factory.hpp:77] Creating layer inception_4e/pool_proj
I0706 23:41:54.808429  9777 net.cpp:91] Creating Layer inception_4e/pool_proj
I0706 23:41:54.808434  9777 net.cpp:425] inception_4e/pool_proj <- inception_4e/pool
I0706 23:41:54.808444  9777 net.cpp:399] inception_4e/pool_proj -> inception_4e/pool_proj
I0706 23:41:54.811106  9777 net.cpp:141] Setting up inception_4e/pool_proj
I0706 23:41:54.811125  9777 net.cpp:148] Top shape: 10 128 14 14 (250880)
I0706 23:41:54.811131  9777 net.cpp:156] Memory required for data: 513300480
I0706 23:41:54.811139  9777 layer_factory.hpp:77] Creating layer inception_4e/relu_pool_proj
I0706 23:41:54.811151  9777 net.cpp:91] Creating Layer inception_4e/relu_pool_proj
I0706 23:41:54.811156  9777 net.cpp:425] inception_4e/relu_pool_proj <- inception_4e/pool_proj
I0706 23:41:54.811163  9777 net.cpp:386] inception_4e/relu_pool_proj -> inception_4e/pool_proj (in-place)
I0706 23:41:54.811895  9777 net.cpp:141] Setting up inception_4e/relu_pool_proj
I0706 23:41:54.811911  9777 net.cpp:148] Top shape: 10 128 14 14 (250880)
I0706 23:41:54.811915  9777 net.cpp:156] Memory required for data: 514304000
I0706 23:41:54.811921  9777 layer_factory.hpp:77] Creating layer inception_4e/output
I0706 23:41:54.811933  9777 net.cpp:91] Creating Layer inception_4e/output
I0706 23:41:54.811939  9777 net.cpp:425] inception_4e/output <- inception_4e/1x1
I0706 23:41:54.811944  9777 net.cpp:425] inception_4e/output <- inception_4e/3x3
I0706 23:41:54.811950  9777 net.cpp:425] inception_4e/output <- inception_4e/5x5
I0706 23:41:54.811955  9777 net.cpp:425] inception_4e/output <- inception_4e/pool_proj
I0706 23:41:54.811961  9777 net.cpp:399] inception_4e/output -> inception_4e/output
I0706 23:41:54.812011  9777 net.cpp:141] Setting up inception_4e/output
I0706 23:41:54.812021  9777 net.cpp:148] Top shape: 10 832 14 14 (1630720)
I0706 23:41:54.812026  9777 net.cpp:156] Memory required for data: 520826880
I0706 23:41:54.812031  9777 layer_factory.hpp:77] Creating layer pool4/3x3_s2
I0706 23:41:54.812039  9777 net.cpp:91] Creating Layer pool4/3x3_s2
I0706 23:41:54.812043  9777 net.cpp:425] pool4/3x3_s2 <- inception_4e/output
I0706 23:41:54.812053  9777 net.cpp:399] pool4/3x3_s2 -> pool4/3x3_s2
I0706 23:41:54.812139  9777 net.cpp:141] Setting up pool4/3x3_s2
I0706 23:41:54.812150  9777 net.cpp:148] Top shape: 10 832 7 7 (407680)
I0706 23:41:54.812155  9777 net.cpp:156] Memory required for data: 522457600
I0706 23:41:54.812158  9777 layer_factory.hpp:77] Creating layer pool4/3x3_s2_pool4/3x3_s2_0_split
I0706 23:41:54.812167  9777 net.cpp:91] Creating Layer pool4/3x3_s2_pool4/3x3_s2_0_split
I0706 23:41:54.812172  9777 net.cpp:425] pool4/3x3_s2_pool4/3x3_s2_0_split <- pool4/3x3_s2
I0706 23:41:54.812181  9777 net.cpp:399] pool4/3x3_s2_pool4/3x3_s2_0_split -> pool4/3x3_s2_pool4/3x3_s2_0_split_0
I0706 23:41:54.812189  9777 net.cpp:399] pool4/3x3_s2_pool4/3x3_s2_0_split -> pool4/3x3_s2_pool4/3x3_s2_0_split_1
I0706 23:41:54.812196  9777 net.cpp:399] pool4/3x3_s2_pool4/3x3_s2_0_split -> pool4/3x3_s2_pool4/3x3_s2_0_split_2
I0706 23:41:54.812204  9777 net.cpp:399] pool4/3x3_s2_pool4/3x3_s2_0_split -> pool4/3x3_s2_pool4/3x3_s2_0_split_3
I0706 23:41:54.812319  9777 net.cpp:141] Setting up pool4/3x3_s2_pool4/3x3_s2_0_split
I0706 23:41:54.812331  9777 net.cpp:148] Top shape: 10 832 7 7 (407680)
I0706 23:41:54.812337  9777 net.cpp:148] Top shape: 10 832 7 7 (407680)
I0706 23:41:54.812345  9777 net.cpp:148] Top shape: 10 832 7 7 (407680)
I0706 23:41:54.812355  9777 net.cpp:148] Top shape: 10 832 7 7 (407680)
I0706 23:41:54.812361  9777 net.cpp:156] Memory required for data: 528980480
I0706 23:41:54.812366  9777 layer_factory.hpp:77] Creating layer inception_5a/1x1
I0706 23:41:54.812381  9777 net.cpp:91] Creating Layer inception_5a/1x1
I0706 23:41:54.812387  9777 net.cpp:425] inception_5a/1x1 <- pool4/3x3_s2_pool4/3x3_s2_0_split_0
I0706 23:41:54.812397  9777 net.cpp:399] inception_5a/1x1 -> inception_5a/1x1
I0706 23:41:54.817351  9777 net.cpp:141] Setting up inception_5a/1x1
I0706 23:41:54.817374  9777 net.cpp:148] Top shape: 10 256 7 7 (125440)
I0706 23:41:54.817379  9777 net.cpp:156] Memory required for data: 529482240
I0706 23:41:54.817389  9777 layer_factory.hpp:77] Creating layer inception_5a/relu_1x1
I0706 23:41:54.817399  9777 net.cpp:91] Creating Layer inception_5a/relu_1x1
I0706 23:41:54.817405  9777 net.cpp:425] inception_5a/relu_1x1 <- inception_5a/1x1
I0706 23:41:54.817414  9777 net.cpp:386] inception_5a/relu_1x1 -> inception_5a/1x1 (in-place)
I0706 23:41:54.817662  9777 net.cpp:141] Setting up inception_5a/relu_1x1
I0706 23:41:54.817672  9777 net.cpp:148] Top shape: 10 256 7 7 (125440)
I0706 23:41:54.817677  9777 net.cpp:156] Memory required for data: 529984000
I0706 23:41:54.817682  9777 layer_factory.hpp:77] Creating layer inception_5a/3x3_reduce
I0706 23:41:54.817698  9777 net.cpp:91] Creating Layer inception_5a/3x3_reduce
I0706 23:41:54.817704  9777 net.cpp:425] inception_5a/3x3_reduce <- pool4/3x3_s2_pool4/3x3_s2_0_split_1
I0706 23:41:54.817713  9777 net.cpp:399] inception_5a/3x3_reduce -> inception_5a/3x3_reduce
I0706 23:41:54.822043  9777 net.cpp:141] Setting up inception_5a/3x3_reduce
I0706 23:41:54.822077  9777 net.cpp:148] Top shape: 10 160 7 7 (78400)
I0706 23:41:54.822082  9777 net.cpp:156] Memory required for data: 530297600
I0706 23:41:54.822090  9777 layer_factory.hpp:77] Creating layer inception_5a/relu_3x3_reduce
I0706 23:41:54.822099  9777 net.cpp:91] Creating Layer inception_5a/relu_3x3_reduce
I0706 23:41:54.822105  9777 net.cpp:425] inception_5a/relu_3x3_reduce <- inception_5a/3x3_reduce
I0706 23:41:54.822116  9777 net.cpp:386] inception_5a/relu_3x3_reduce -> inception_5a/3x3_reduce (in-place)
I0706 23:41:54.822367  9777 net.cpp:141] Setting up inception_5a/relu_3x3_reduce
I0706 23:41:54.822381  9777 net.cpp:148] Top shape: 10 160 7 7 (78400)
I0706 23:41:54.822386  9777 net.cpp:156] Memory required for data: 530611200
I0706 23:41:54.822389  9777 layer_factory.hpp:77] Creating layer inception_5a/3x3
I0706 23:41:54.822405  9777 net.cpp:91] Creating Layer inception_5a/3x3
I0706 23:41:54.822412  9777 net.cpp:425] inception_5a/3x3 <- inception_5a/3x3_reduce
I0706 23:41:54.822419  9777 net.cpp:399] inception_5a/3x3 -> inception_5a/3x3
I0706 23:41:54.830291  9777 net.cpp:141] Setting up inception_5a/3x3
I0706 23:41:54.830323  9777 net.cpp:148] Top shape: 10 320 7 7 (156800)
I0706 23:41:54.830329  9777 net.cpp:156] Memory required for data: 531238400
I0706 23:41:54.830343  9777 layer_factory.hpp:77] Creating layer inception_5a/relu_3x3
I0706 23:41:54.830351  9777 net.cpp:91] Creating Layer inception_5a/relu_3x3
I0706 23:41:54.830358  9777 net.cpp:425] inception_5a/relu_3x3 <- inception_5a/3x3
I0706 23:41:54.830366  9777 net.cpp:386] inception_5a/relu_3x3 -> inception_5a/3x3 (in-place)
I0706 23:41:54.831130  9777 net.cpp:141] Setting up inception_5a/relu_3x3
I0706 23:41:54.831146  9777 net.cpp:148] Top shape: 10 320 7 7 (156800)
I0706 23:41:54.831151  9777 net.cpp:156] Memory required for data: 531865600
I0706 23:41:54.831156  9777 layer_factory.hpp:77] Creating layer inception_5a/5x5_reduce
I0706 23:41:54.831171  9777 net.cpp:91] Creating Layer inception_5a/5x5_reduce
I0706 23:41:54.831176  9777 net.cpp:425] inception_5a/5x5_reduce <- pool4/3x3_s2_pool4/3x3_s2_0_split_2
I0706 23:41:54.831188  9777 net.cpp:399] inception_5a/5x5_reduce -> inception_5a/5x5_reduce
I0706 23:41:54.833564  9777 net.cpp:141] Setting up inception_5a/5x5_reduce
I0706 23:41:54.833592  9777 net.cpp:148] Top shape: 10 32 7 7 (15680)
I0706 23:41:54.833598  9777 net.cpp:156] Memory required for data: 531928320
I0706 23:41:54.833607  9777 layer_factory.hpp:77] Creating layer inception_5a/relu_5x5_reduce
I0706 23:41:54.833617  9777 net.cpp:91] Creating Layer inception_5a/relu_5x5_reduce
I0706 23:41:54.833623  9777 net.cpp:425] inception_5a/relu_5x5_reduce <- inception_5a/5x5_reduce
I0706 23:41:54.833631  9777 net.cpp:386] inception_5a/relu_5x5_reduce -> inception_5a/5x5_reduce (in-place)
I0706 23:41:54.833901  9777 net.cpp:141] Setting up inception_5a/relu_5x5_reduce
I0706 23:41:54.833914  9777 net.cpp:148] Top shape: 10 32 7 7 (15680)
I0706 23:41:54.833917  9777 net.cpp:156] Memory required for data: 531991040
I0706 23:41:54.833922  9777 layer_factory.hpp:77] Creating layer inception_5a/5x5
I0706 23:41:54.833936  9777 net.cpp:91] Creating Layer inception_5a/5x5
I0706 23:41:54.833942  9777 net.cpp:425] inception_5a/5x5 <- inception_5a/5x5_reduce
I0706 23:41:54.833953  9777 net.cpp:399] inception_5a/5x5 -> inception_5a/5x5
I0706 23:41:54.836972  9777 net.cpp:141] Setting up inception_5a/5x5
I0706 23:41:54.836992  9777 net.cpp:148] Top shape: 10 128 7 7 (62720)
I0706 23:41:54.836997  9777 net.cpp:156] Memory required for data: 532241920
I0706 23:41:54.837007  9777 layer_factory.hpp:77] Creating layer inception_5a/relu_5x5
I0706 23:41:54.837040  9777 net.cpp:91] Creating Layer inception_5a/relu_5x5
I0706 23:41:54.837046  9777 net.cpp:425] inception_5a/relu_5x5 <- inception_5a/5x5
I0706 23:41:54.837054  9777 net.cpp:386] inception_5a/relu_5x5 -> inception_5a/5x5 (in-place)
I0706 23:41:54.837301  9777 net.cpp:141] Setting up inception_5a/relu_5x5
I0706 23:41:54.837312  9777 net.cpp:148] Top shape: 10 128 7 7 (62720)
I0706 23:41:54.837316  9777 net.cpp:156] Memory required for data: 532492800
I0706 23:41:54.837322  9777 layer_factory.hpp:77] Creating layer inception_5a/pool
I0706 23:41:54.837332  9777 net.cpp:91] Creating Layer inception_5a/pool
I0706 23:41:54.837337  9777 net.cpp:425] inception_5a/pool <- pool4/3x3_s2_pool4/3x3_s2_0_split_3
I0706 23:41:54.837347  9777 net.cpp:399] inception_5a/pool -> inception_5a/pool
I0706 23:41:54.837420  9777 net.cpp:141] Setting up inception_5a/pool
I0706 23:41:54.837430  9777 net.cpp:148] Top shape: 10 832 7 7 (407680)
I0706 23:41:54.837435  9777 net.cpp:156] Memory required for data: 534123520
I0706 23:41:54.837438  9777 layer_factory.hpp:77] Creating layer inception_5a/pool_proj
I0706 23:41:54.837455  9777 net.cpp:91] Creating Layer inception_5a/pool_proj
I0706 23:41:54.837461  9777 net.cpp:425] inception_5a/pool_proj <- inception_5a/pool
I0706 23:41:54.837469  9777 net.cpp:399] inception_5a/pool_proj -> inception_5a/pool_proj
I0706 23:41:54.841550  9777 net.cpp:141] Setting up inception_5a/pool_proj
I0706 23:41:54.841573  9777 net.cpp:148] Top shape: 10 128 7 7 (62720)
I0706 23:41:54.841578  9777 net.cpp:156] Memory required for data: 534374400
I0706 23:41:54.841586  9777 layer_factory.hpp:77] Creating layer inception_5a/relu_pool_proj
I0706 23:41:54.841595  9777 net.cpp:91] Creating Layer inception_5a/relu_pool_proj
I0706 23:41:54.841601  9777 net.cpp:425] inception_5a/relu_pool_proj <- inception_5a/pool_proj
I0706 23:41:54.841611  9777 net.cpp:386] inception_5a/relu_pool_proj -> inception_5a/pool_proj (in-place)
I0706 23:41:54.842372  9777 net.cpp:141] Setting up inception_5a/relu_pool_proj
I0706 23:41:54.842388  9777 net.cpp:148] Top shape: 10 128 7 7 (62720)
I0706 23:41:54.842392  9777 net.cpp:156] Memory required for data: 534625280
I0706 23:41:54.842397  9777 layer_factory.hpp:77] Creating layer inception_5a/output
I0706 23:41:54.842406  9777 net.cpp:91] Creating Layer inception_5a/output
I0706 23:41:54.842411  9777 net.cpp:425] inception_5a/output <- inception_5a/1x1
I0706 23:41:54.842422  9777 net.cpp:425] inception_5a/output <- inception_5a/3x3
I0706 23:41:54.842427  9777 net.cpp:425] inception_5a/output <- inception_5a/5x5
I0706 23:41:54.842432  9777 net.cpp:425] inception_5a/output <- inception_5a/pool_proj
I0706 23:41:54.842438  9777 net.cpp:399] inception_5a/output -> inception_5a/output
I0706 23:41:54.842490  9777 net.cpp:141] Setting up inception_5a/output
I0706 23:41:54.842499  9777 net.cpp:148] Top shape: 10 832 7 7 (407680)
I0706 23:41:54.842504  9777 net.cpp:156] Memory required for data: 536256000
I0706 23:41:54.842509  9777 layer_factory.hpp:77] Creating layer inception_5a/output_inception_5a/output_0_split
I0706 23:41:54.842516  9777 net.cpp:91] Creating Layer inception_5a/output_inception_5a/output_0_split
I0706 23:41:54.842520  9777 net.cpp:425] inception_5a/output_inception_5a/output_0_split <- inception_5a/output
I0706 23:41:54.842531  9777 net.cpp:399] inception_5a/output_inception_5a/output_0_split -> inception_5a/output_inception_5a/output_0_split_0
I0706 23:41:54.842540  9777 net.cpp:399] inception_5a/output_inception_5a/output_0_split -> inception_5a/output_inception_5a/output_0_split_1
I0706 23:41:54.842548  9777 net.cpp:399] inception_5a/output_inception_5a/output_0_split -> inception_5a/output_inception_5a/output_0_split_2
I0706 23:41:54.842555  9777 net.cpp:399] inception_5a/output_inception_5a/output_0_split -> inception_5a/output_inception_5a/output_0_split_3
I0706 23:41:54.842659  9777 net.cpp:141] Setting up inception_5a/output_inception_5a/output_0_split
I0706 23:41:54.842669  9777 net.cpp:148] Top shape: 10 832 7 7 (407680)
I0706 23:41:54.842674  9777 net.cpp:148] Top shape: 10 832 7 7 (407680)
I0706 23:41:54.842679  9777 net.cpp:148] Top shape: 10 832 7 7 (407680)
I0706 23:41:54.842684  9777 net.cpp:148] Top shape: 10 832 7 7 (407680)
I0706 23:41:54.842695  9777 net.cpp:156] Memory required for data: 542778880
I0706 23:41:54.842700  9777 layer_factory.hpp:77] Creating layer inception_5b/1x1
I0706 23:41:54.842718  9777 net.cpp:91] Creating Layer inception_5b/1x1
I0706 23:41:54.842725  9777 net.cpp:425] inception_5b/1x1 <- inception_5a/output_inception_5a/output_0_split_0
I0706 23:41:54.842732  9777 net.cpp:399] inception_5b/1x1 -> inception_5b/1x1
I0706 23:41:54.849306  9777 net.cpp:141] Setting up inception_5b/1x1
I0706 23:41:54.849334  9777 net.cpp:148] Top shape: 10 384 7 7 (188160)
I0706 23:41:54.849340  9777 net.cpp:156] Memory required for data: 543531520
I0706 23:41:54.849350  9777 layer_factory.hpp:77] Creating layer inception_5b/relu_1x1
I0706 23:41:54.849360  9777 net.cpp:91] Creating Layer inception_5b/relu_1x1
I0706 23:41:54.849366  9777 net.cpp:425] inception_5b/relu_1x1 <- inception_5b/1x1
I0706 23:41:54.849378  9777 net.cpp:386] inception_5b/relu_1x1 -> inception_5b/1x1 (in-place)
I0706 23:41:54.849633  9777 net.cpp:141] Setting up inception_5b/relu_1x1
I0706 23:41:54.849644  9777 net.cpp:148] Top shape: 10 384 7 7 (188160)
I0706 23:41:54.849648  9777 net.cpp:156] Memory required for data: 544284160
I0706 23:41:54.849653  9777 layer_factory.hpp:77] Creating layer inception_5b/3x3_reduce
I0706 23:41:54.849668  9777 net.cpp:91] Creating Layer inception_5b/3x3_reduce
I0706 23:41:54.849674  9777 net.cpp:425] inception_5b/3x3_reduce <- inception_5a/output_inception_5a/output_0_split_1
I0706 23:41:54.849686  9777 net.cpp:399] inception_5b/3x3_reduce -> inception_5b/3x3_reduce
I0706 23:41:54.854192  9777 net.cpp:141] Setting up inception_5b/3x3_reduce
I0706 23:41:54.854214  9777 net.cpp:148] Top shape: 10 192 7 7 (94080)
I0706 23:41:54.854219  9777 net.cpp:156] Memory required for data: 544660480
I0706 23:41:54.854228  9777 layer_factory.hpp:77] Creating layer inception_5b/relu_3x3_reduce
I0706 23:41:54.854239  9777 net.cpp:91] Creating Layer inception_5b/relu_3x3_reduce
I0706 23:41:54.854245  9777 net.cpp:425] inception_5b/relu_3x3_reduce <- inception_5b/3x3_reduce
I0706 23:41:54.854252  9777 net.cpp:386] inception_5b/relu_3x3_reduce -> inception_5b/3x3_reduce (in-place)
I0706 23:41:54.854506  9777 net.cpp:141] Setting up inception_5b/relu_3x3_reduce
I0706 23:41:54.854516  9777 net.cpp:148] Top shape: 10 192 7 7 (94080)
I0706 23:41:54.854521  9777 net.cpp:156] Memory required for data: 545036800
I0706 23:41:54.854526  9777 layer_factory.hpp:77] Creating layer inception_5b/3x3
I0706 23:41:54.854542  9777 net.cpp:91] Creating Layer inception_5b/3x3
I0706 23:41:54.854548  9777 net.cpp:425] inception_5b/3x3 <- inception_5b/3x3_reduce
I0706 23:41:54.854557  9777 net.cpp:399] inception_5b/3x3 -> inception_5b/3x3
I0706 23:41:54.864168  9777 net.cpp:141] Setting up inception_5b/3x3
I0706 23:41:54.864202  9777 net.cpp:148] Top shape: 10 384 7 7 (188160)
I0706 23:41:54.864208  9777 net.cpp:156] Memory required for data: 545789440
I0706 23:41:54.864219  9777 layer_factory.hpp:77] Creating layer inception_5b/relu_3x3
I0706 23:41:54.864234  9777 net.cpp:91] Creating Layer inception_5b/relu_3x3
I0706 23:41:54.864243  9777 net.cpp:425] inception_5b/relu_3x3 <- inception_5b/3x3
I0706 23:41:54.864259  9777 net.cpp:386] inception_5b/relu_3x3 -> inception_5b/3x3 (in-place)
I0706 23:41:54.865212  9777 net.cpp:141] Setting up inception_5b/relu_3x3
I0706 23:41:54.865229  9777 net.cpp:148] Top shape: 10 384 7 7 (188160)
I0706 23:41:54.865234  9777 net.cpp:156] Memory required for data: 546542080
I0706 23:41:54.865239  9777 layer_factory.hpp:77] Creating layer inception_5b/5x5_reduce
I0706 23:41:54.865259  9777 net.cpp:91] Creating Layer inception_5b/5x5_reduce
I0706 23:41:54.865267  9777 net.cpp:425] inception_5b/5x5_reduce <- inception_5a/output_inception_5a/output_0_split_2
I0706 23:41:54.865278  9777 net.cpp:399] inception_5b/5x5_reduce -> inception_5b/5x5_reduce
I0706 23:41:54.868074  9777 net.cpp:141] Setting up inception_5b/5x5_reduce
I0706 23:41:54.868098  9777 net.cpp:148] Top shape: 10 48 7 7 (23520)
I0706 23:41:54.868103  9777 net.cpp:156] Memory required for data: 546636160
I0706 23:41:54.868111  9777 layer_factory.hpp:77] Creating layer inception_5b/relu_5x5_reduce
I0706 23:41:54.868120  9777 net.cpp:91] Creating Layer inception_5b/relu_5x5_reduce
I0706 23:41:54.868126  9777 net.cpp:425] inception_5b/relu_5x5_reduce <- inception_5b/5x5_reduce
I0706 23:41:54.868136  9777 net.cpp:386] inception_5b/relu_5x5_reduce -> inception_5b/5x5_reduce (in-place)
I0706 23:41:54.868387  9777 net.cpp:141] Setting up inception_5b/relu_5x5_reduce
I0706 23:41:54.868398  9777 net.cpp:148] Top shape: 10 48 7 7 (23520)
I0706 23:41:54.868402  9777 net.cpp:156] Memory required for data: 546730240
I0706 23:41:54.868407  9777 layer_factory.hpp:77] Creating layer inception_5b/5x5
I0706 23:41:54.868422  9777 net.cpp:91] Creating Layer inception_5b/5x5
I0706 23:41:54.868428  9777 net.cpp:425] inception_5b/5x5 <- inception_5b/5x5_reduce
I0706 23:41:54.868438  9777 net.cpp:399] inception_5b/5x5 -> inception_5b/5x5
I0706 23:41:54.874406  9777 net.cpp:141] Setting up inception_5b/5x5
I0706 23:41:54.874454  9777 net.cpp:148] Top shape: 10 128 7 7 (62720)
I0706 23:41:54.874462  9777 net.cpp:156] Memory required for data: 546981120
I0706 23:41:54.874480  9777 layer_factory.hpp:77] Creating layer inception_5b/relu_5x5
I0706 23:41:54.874497  9777 net.cpp:91] Creating Layer inception_5b/relu_5x5
I0706 23:41:54.874508  9777 net.cpp:425] inception_5b/relu_5x5 <- inception_5b/5x5
I0706 23:41:54.874523  9777 net.cpp:386] inception_5b/relu_5x5 -> inception_5b/5x5 (in-place)
I0706 23:41:54.874903  9777 net.cpp:141] Setting up inception_5b/relu_5x5
I0706 23:41:54.874919  9777 net.cpp:148] Top shape: 10 128 7 7 (62720)
I0706 23:41:54.874925  9777 net.cpp:156] Memory required for data: 547232000
I0706 23:41:54.874933  9777 layer_factory.hpp:77] Creating layer inception_5b/pool
I0706 23:41:54.874950  9777 net.cpp:91] Creating Layer inception_5b/pool
I0706 23:41:54.874958  9777 net.cpp:425] inception_5b/pool <- inception_5a/output_inception_5a/output_0_split_3
I0706 23:41:54.874969  9777 net.cpp:399] inception_5b/pool -> inception_5b/pool
I0706 23:41:54.875082  9777 net.cpp:141] Setting up inception_5b/pool
I0706 23:41:54.875095  9777 net.cpp:148] Top shape: 10 832 7 7 (407680)
I0706 23:41:54.875102  9777 net.cpp:156] Memory required for data: 548862720
I0706 23:41:54.875108  9777 layer_factory.hpp:77] Creating layer inception_5b/pool_proj
I0706 23:41:54.875130  9777 net.cpp:91] Creating Layer inception_5b/pool_proj
I0706 23:41:54.875138  9777 net.cpp:425] inception_5b/pool_proj <- inception_5b/pool
I0706 23:41:54.875154  9777 net.cpp:399] inception_5b/pool_proj -> inception_5b/pool_proj
I0706 23:41:54.881364  9777 net.cpp:141] Setting up inception_5b/pool_proj
I0706 23:41:54.881404  9777 net.cpp:148] Top shape: 10 128 7 7 (62720)
I0706 23:41:54.881414  9777 net.cpp:156] Memory required for data: 549113600
I0706 23:41:54.881434  9777 layer_factory.hpp:77] Creating layer inception_5b/relu_pool_proj
I0706 23:41:54.881460  9777 net.cpp:91] Creating Layer inception_5b/relu_pool_proj
I0706 23:41:54.881474  9777 net.cpp:425] inception_5b/relu_pool_proj <- inception_5b/pool_proj
I0706 23:41:54.881489  9777 net.cpp:386] inception_5b/relu_pool_proj -> inception_5b/pool_proj (in-place)
I0706 23:41:54.883226  9777 net.cpp:141] Setting up inception_5b/relu_pool_proj
I0706 23:41:54.883251  9777 net.cpp:148] Top shape: 10 128 7 7 (62720)
I0706 23:41:54.883260  9777 net.cpp:156] Memory required for data: 549364480
I0706 23:41:54.883270  9777 layer_factory.hpp:77] Creating layer inception_5b/output
I0706 23:41:54.883293  9777 net.cpp:91] Creating Layer inception_5b/output
I0706 23:41:54.883306  9777 net.cpp:425] inception_5b/output <- inception_5b/1x1
I0706 23:41:54.883318  9777 net.cpp:425] inception_5b/output <- inception_5b/3x3
I0706 23:41:54.883329  9777 net.cpp:425] inception_5b/output <- inception_5b/5x5
I0706 23:41:54.883339  9777 net.cpp:425] inception_5b/output <- inception_5b/pool_proj
I0706 23:41:54.883353  9777 net.cpp:399] inception_5b/output -> inception_5b/output
I0706 23:41:54.883442  9777 net.cpp:141] Setting up inception_5b/output
I0706 23:41:54.883455  9777 net.cpp:148] Top shape: 10 1024 7 7 (501760)
I0706 23:41:54.883460  9777 net.cpp:156] Memory required for data: 551371520
I0706 23:41:54.883465  9777 layer_factory.hpp:77] Creating layer pool5/7x7_s1
I0706 23:41:54.883476  9777 net.cpp:91] Creating Layer pool5/7x7_s1
I0706 23:41:54.883481  9777 net.cpp:425] pool5/7x7_s1 <- inception_5b/output
I0706 23:41:54.883491  9777 net.cpp:399] pool5/7x7_s1 -> pool5/7x7_s1
I0706 23:41:54.883824  9777 net.cpp:141] Setting up pool5/7x7_s1
I0706 23:41:54.883836  9777 net.cpp:148] Top shape: 10 1024 1 1 (10240)
I0706 23:41:54.883841  9777 net.cpp:156] Memory required for data: 551412480
I0706 23:41:54.883846  9777 layer_factory.hpp:77] Creating layer pool5/drop_7x7_s1
I0706 23:41:54.883865  9777 net.cpp:91] Creating Layer pool5/drop_7x7_s1
I0706 23:41:54.883872  9777 net.cpp:425] pool5/drop_7x7_s1 <- pool5/7x7_s1
I0706 23:41:54.883882  9777 net.cpp:386] pool5/drop_7x7_s1 -> pool5/7x7_s1 (in-place)
I0706 23:41:54.883934  9777 net.cpp:141] Setting up pool5/drop_7x7_s1
I0706 23:41:54.883944  9777 net.cpp:148] Top shape: 10 1024 1 1 (10240)
I0706 23:41:54.883949  9777 net.cpp:156] Memory required for data: 551453440
I0706 23:41:54.883952  9777 layer_factory.hpp:77] Creating layer loss3/classifier
I0706 23:41:54.883970  9777 net.cpp:91] Creating Layer loss3/classifier
I0706 23:41:54.883975  9777 net.cpp:425] loss3/classifier <- pool5/7x7_s1
I0706 23:41:54.883982  9777 net.cpp:399] loss3/classifier -> loss3/classifier
I0706 23:41:54.894846  9777 net.cpp:141] Setting up loss3/classifier
I0706 23:41:54.894881  9777 net.cpp:148] Top shape: 10 1000 (10000)
I0706 23:41:54.894886  9777 net.cpp:156] Memory required for data: 551493440
I0706 23:41:54.894899  9777 layer_factory.hpp:77] Creating layer prob
I0706 23:41:54.894914  9777 net.cpp:91] Creating Layer prob
I0706 23:41:54.894922  9777 net.cpp:425] prob <- loss3/classifier
I0706 23:41:54.894929  9777 net.cpp:399] prob -> prob
I0706 23:41:54.896417  9777 net.cpp:141] Setting up prob
I0706 23:41:54.896436  9777 net.cpp:148] Top shape: 10 1000 (10000)
I0706 23:41:54.896441  9777 net.cpp:156] Memory required for data: 551533440
I0706 23:41:54.896447  9777 net.cpp:219] prob does not need backward computation.
I0706 23:41:54.896452  9777 net.cpp:219] loss3/classifier does not need backward computation.
I0706 23:41:54.896456  9777 net.cpp:219] pool5/drop_7x7_s1 does not need backward computation.
I0706 23:41:54.896461  9777 net.cpp:219] pool5/7x7_s1 does not need backward computation.
…
