…
I0924 02:21:42.329792 23016 upgrade_proto.cpp:66] Attempting to upgrade input file specified using deprecated input fields: /home/peifeng/work/run/storm102/data/workers/32879288-8512-4a1a-9810-7fba6e43467a/tmp/cvld6941996019404201254/s2vt.words_to_preds.prototxt
I0924 02:21:42.329792 23040 upgrade_proto.cpp:66] Attempting to upgrade input file specified using deprecated input fields: /home/peifeng/work/run/storm102/data/workers/32879288-8512-4a1a-9810-7fba6e43467a/tmp/cvld6941996019404201254/s2vt.words_to_preds.prototxt
I0924 02:21:42.329890 23042 net.cpp:49] Initializing net from parameters: 
name: "CaffeNet"
state {
  phase: TEST
}
layer {
  name: "data"
  type: "Input"
  top: "data"
  input_param {
    shape {
      dim: 10
      dim: 3
      dim: 227
      dim: 227
    }
  }
}
layer {
  name: "conv1"
  type: "Convolution"
  bottom: "data"
  top: "conv1"
  convolution_param {
    num_output: 96
    kernel_size: 11
    stride: 4
  }
}
layer {
  name: "relu1"
  type: "ReLU"
  bottom: "conv1"
  top: "conv1"
}
layer {
  name: "pool1"
  type: "Pooling"
  bottom: "conv1"
  top: "pool1"
  pooling_param {
    pool: MAX
    kernel_size: 3
    stride: 2
  }
}
layer {
  name: "norm1"
  type: "LRN"
  bottom: "pool1"
  top: "norm1"
  lrn_param {
    local_size: 5
    alpha: 0.0001
    beta: 0.75
  }
}
layer {
  name: "conv2"
  type: "Convolution"
  bottom: "norm1"
  top: "conv2"
  convolution_param {
    num_output: 256
    pad: 2
    kernel_size: 5
    group: 2
  }
}
layer {
  name: "relu2"
  type: "ReLU"
  bottom: "conv2"
  top: "conv2"
}
layer {
  name: "pool2"
  type: "Pooling"
  bottom: "conv2"
  top: "pool2"
  pooling_param {
    pool: MAX
    kernel_size: 3
    stride: 2
  }
}
layer {
  name: "norm2"
  type: "LRN"
  bottom: "pool2"
  top: "norm2"
  lrn_param {
    local_size: 5
    alpha: 0.0001
    beta: 0.75
  }
}
layer {
  name: "conv3"
  type: "Convolution"
  bottom: "norm2"
  top: "conv3"
  convolution_param {
    num_output: 384
    pad: 1
    kernel_size: 3
  }
}
layer {
  name: "relu3"
  type: "ReLU"
  bottom: "conv3"
  top: "conv3"
}
layer {
  name: "conv4"
  type: "Convolution"
  bottom: "conv3"
  top: "conv4"
  convolution_param {
    num_output: 384
    pad: 1
    kernel_size: 3
    group: 2
  }
}
layer {
  name: "relu4"
  type: "ReLU"
  bottom: "conv4"
  top: "conv4"
}
layer {
  name: "conv5"
  type: "Convolution"
  bottom: "conv4"
  top: "conv5"
  convolution_param {
    num_output: 256
    pad: 1
    kernel_size: 3
    group: 2
  }
}
layer {
  name: "relu5"
  type: "ReLU"
  bottom: "conv5"
  top: "conv5"
}
layer {
  name: "pool5"
  type: "Pooling"
  bottom: "conv5"
  top: "pool5"
  pooling_param {
    pool: MAX
    kernel_size: 3
    stride: 2
  }
}
layer {
  name: "fc6"
  type: "InnerProduct"
  bottom: "pool5"
  top: "fc6"
  inner_product_param {
    num_output: 4096
  }
}
layer {
  name: "relu6"
  type: "ReLU"
  bottom: "fc6"
  top: "fc6"
}
layer {
  name: "drop6"
  type: "Dropout"
  bottom: "fc6"
  top: "fc6"
  dropout_param {
    dropout_ratio: 0.5
  }
}
layer {
  name: "fc7"
  type: "InnerProduct"
  bottom: "fc6"
  top: "fc7"
  inner_product_param {
    num_output: 4096
  }
}
layer {
  name: "relu7"
  type: "ReLU"
  bottom: "fc7"
  top: "fc7"
}
layer {
  name: "drop7"
  type: "Dropout"
  bottom: "fc7"
  top: "fc7"
  dropout_param {
    dropout_ratio: 0.5
  }
}
layer {
  name: "fc8"
  type: "InnerProduct"
  bottom: "fc7"
  top: "fc8"
  inner_product_param {
    num_output: 1000
  }
}
layer {
  name: "prob"
  type: "Softmax"
  bottom: "fc8"
  top: "prob"
}
I0924 02:21:42.330329 23034 upgrade_proto.cpp:66] Attempting to upgrade input file specified using deprecated input fields: /home/peifeng/work/run/storm102/data/workers/32879288-8512-4a1a-9810-7fba6e43467a/tmp/cvld6941996019404201254/s2vt.words_to_preds.prototxt
I0924 02:21:42.330716 23034 upgrade_proto.cpp:69] Successfully upgraded file specified using deprecated input fields.
…
I0924 02:21:42.330824 23042 net.cpp:91] Creating Layer data
I0924 02:21:42.330837 23042 net.cpp:399] data -> data
I0924 02:21:42.331223 23020 net.cpp:49] Initializing net from parameters: 
name: "s2vt:features_to_lstm"
state {
  phase: TEST
}
layer {
  name: "input"
  type: "Input"
  top: "frames_fc7"
  top: "cont_sentence"
  top: "input_sentence"
  top: "stage_indicator"
  input_param {
    shape {
      dim: 1
      dim: 4096
    }
    shape {
      dim: 1
      dim: 1
    }
    shape {
      dim: 1
      dim: 1
    }
    shape {
      dim: 1
      dim: 1
    }
  }
}
layer {
  name: "embed_encoder"
  type: "InnerProduct"
  bottom: "frames_fc7"
  top: "embedded_in_frames"
  param {
    lr_mult: 1
    decay_mult: 1
  }
  param {
    lr_mult: 2
    decay_mult: 0
  }
  inner_product_param {
    num_output: 500
    weight_filler {
      type: "xavier"
    }
    bias_filler {
      type: "constant"
      value: 0.2
    }
  }
}
layer {
  name: "reshape_frames"
  type: "Reshape"
  bottom: "embedded_in_frames"
  top: "embedded_input_frames"
  reshape_param {
    shape {
      dim: 1
      dim: 1
      dim: 500
    }
  }
}
layer {
  name: "reshape_stage_indicator"
  type: "Reshape"
  bottom: "stage_indicator"
  top: "reshaped_stage_indicator"
  reshape_param {
    shape {
      dim: 1
      dim: 1
      dim: 1
    }
  }
}
layer {
  name: "embedding"
  type: "Embed"
  bottom: "input_sentence"
  top: "embedded_input_sentence"
  param {
    lr_mult: 1
  }
  embed_param {
    num_output: 500
    input_dim: 46168
    bias_term: false
    weight_filler {
      type: "uniform"
      min: -0.08
      max: 0.08
    }
  }
}
layer {
  name: "lstm1"
  type: "LSTM"
  bottom: "embedded_input_frames"
  bottom: "cont_sentence"
  top: "lstm1"
  recurrent_param {
    num_output: 1000
    weight_filler {
      type: "uniform"
      min: -0.08
      max: 0.08
    }
    bias_filler {
      type: "constant"
      value: 0
    }
  }
}
layer {
  name: "concat"
  type: "Concat"
  bottom: "lstm1"
  bottom: "embedded_input_sentence"
  bottom: "reshaped_stage_indicator"
  top: "lstm1_video_sequence"
  concat_param {
    concat_dim: 2
  }
}
layer {
  name: "lstm2"
  type: "LSTM"
  bottom: "lstm1_video_sequence"
  bottom: "cont_sentence"
  top: "lstm2"
  recurrent_param {
    num_output: 1000
    weight_filler {
      type: "uniform"
      min: -0.08
      max: 0.08
    }
    bias_filler {
      type: "constant"
      value: 0
    }
  }
}
layer {
  name: "predict"
  type: "InnerProduct"
  bottom: "lstm2"
  top: "predict"
  param {
    lr_mult: 1
    decay_mult: 1
  }
  param {
    lr_mult: 2
    decay_mult: 0
  }
  inner_product_param {
    num_output: 46168
    weight_filler {
      type: "uniform"
      min: -0.08
      max: 0.08
    }
    bias_filler {
      type: "constant"
      value: 0
    }
    axis: 2
  }
}
layer {
  name: "probs"
  type: "Softmax"
  bottom: "predict"
  top: "probs"
  softmax_param {
    axis: 2
  }
}
I0924 02:21:42.331310 23040 net.cpp:49] Initializing net from parameters: 
name: "s2vt:features_to_lstm"
state {
  phase: TEST
}
layer {
  name: "input"
  type: "Input"
  top: "frames_fc7"
  top: "cont_sentence"
  top: "input_sentence"
  top: "stage_indicator"
  input_param {
    shape {
      dim: 1
      dim: 4096
    }
    shape {
      dim: 1
      dim: 1
    }
    shape {
      dim: 1
      dim: 1
    }
    shape {
      dim: 1
      dim: 1
    }
  }
}
layer {
  name: "embed_encoder"
  type: "InnerProduct"
  bottom: "frames_fc7"
  top: "embedded_in_frames"
  param {
    lr_mult: 1
    decay_mult: 1
  }
  param {
    lr_mult: 2
    decay_mult: 0
  }
  inner_product_param {
    num_output: 500
    weight_filler {
      type: "xavier"
    }
    bias_filler {
      type: "constant"
      value: 0.2
    }
  }
}
layer {
  name: "reshape_frames"
  type: "Reshape"
  bottom: "embedded_in_frames"
  top: "embedded_input_frames"
  reshape_param {
    shape {
      dim: 1
      dim: 1
      dim: 500
    }
  }
}
layer {
  name: "reshape_stage_indicator"
  type: "Reshape"
  bottom: "stage_indicator"
  top: "reshaped_stage_indicator"
  reshape_param {
    shape {
      dim: 1
      dim: 1
      dim: 1
    }
  }
}
layer {
  name: "embedding"
  type: "Embed"
  bottom: "input_sentence"
  top: "embedded_input_sentence"
  param {
    lr_mult: 1
  }
  embed_param {
    num_output: 500
    input_dim: 46168
    bias_term: false
    weight_filler {
      type: "uniform"
      min: -0.08
      max: 0.08
    }
  }
}
layer {
  name: "lstm1"
  type: "LSTM"
  bottom: "embedded_input_frames"
  bottom: "cont_sentence"
  top: "lstm1"
  recurrent_param {
    num_output: 1000
    weight_filler {
      type: "uniform"
      min: -0.08
      max: 0.08
    }
    bias_filler {
      type: "constant"
      value: 0
    }
  }
}
layer {
  name: "concat"
  type: "Concat"
  bottom: "lstm1"
  bottom: "embedded_input_sentence"
  bottom: "reshaped_stage_indicator"
  top: "lstm1_video_sequence"
  concat_param {
    concat_dim: 2
  }
}
layer {
  name: "lstm2"
  type: "LSTM"
  bottom: "lstm1_video_sequence"
  bottom: "cont_sentence"
  top: "lstm2"
  recurrent_param {
    num_output: 1000
    weight_filler {
      type: "uniform"
      min: -0.08
      max: 0.08
    }
    bias_filler {
      type: "constant"
      value: 0
    }
  }
}
layer {
  name: "predict"
  type: "InnerProduct"
  bottom: "lstm2"
  top: "predict"
  param {
    lr_mult: 1
    decay_mult: 1
  }
  param {
    lr_mult: 2
    decay_mult: 0
  }
  inner_product_param {
    num_output: 46168
    weight_filler {
      type: "uniform"
      min: -0.08
      max: 0.08
    }
    bias_filler {
      type: "constant"
      value: 0
    }
    axis: 2
  }
}
layer {
  name: "probs"
  type: "Softmax"
  bottom: "predict"
  top: "probs"
  softmax_param {
    axis: 2
  }
}
I0924 02:21:42.331442 23020 layer_factory.hpp:77] Creating layer input
I0924 02:21:42.331471 23020 net.cpp:91] Creating Layer input
I0924 02:21:42.331478 23040 layer_factory.hpp:77] Creating layer input
I0924 02:21:42.331488 23020 net.cpp:399] input -> frames_fc7
I0924 02:21:42.331506 23040 net.cpp:91] Creating Layer input
I0924 02:21:42.331522 23020 net.cpp:399] input -> cont_sentence
…
W0924 02:21:42.331707 23016 upgrade_proto.cpp:71] Note that future Caffe releases will only support input layers and not input fields.
I0924 02:21:42.332038 23034 net.cpp:49] Initializing net from parameters: 
name: "s2vt:features_to_lstm"
state {
  phase: TEST
}
layer {
  name: "input"
  type: "Input"
  top: "frames_fc7"
  top: "cont_sentence"
  top: "input_sentence"
  top: "stage_indicator"
  input_param {
    shape {
      dim: 1
      dim: 4096
    }
    shape {
      dim: 1
      dim: 1
    }
    shape {
      dim: 1
      dim: 1
    }
    shape {
      dim: 1
      dim: 1
    }
  }
}
layer {
  name: "embed_encoder"
  type: "InnerProduct"
  bottom: "frames_fc7"
  top: "embedded_in_frames"
  param {
    lr_mult: 1
    decay_mult: 1
  }
  param {
    lr_mult: 2
    decay_mult: 0
  }
  inner_product_param {
    num_output: 500
    weight_filler {
      type: "xavier"
    }
    bias_filler {
      type: "constant"
      value: 0.2
    }
  }
}
layer {
  name: "reshape_frames"
  type: "Reshape"
  bottom: "embedded_in_frames"
  top: "embedded_input_frames"
  reshape_param {
    shape {
      dim: 1
      dim: 1
      dim: 500
    }
  }
}
layer {
  name: "reshape_stage_indicator"
  type: "Reshape"
  bottom: "stage_indicator"
  top: "reshaped_stage_indicator"
  reshape_param {
    shape {
      dim: 1
      dim: 1
      dim: 1
    }
  }
}
layer {
  name: "embedding"
  type: "Embed"
  bottom: "input_sentence"
  top: "embedded_input_sentence"
  param {
    lr_mult: 1
  }
  embed_param {
    num_output: 500
    input_dim: 46168
    bias_term: false
    weight_filler {
      type: "uniform"
      min: -0.08
      max: 0.08
    }
  }
}
layer {
  name: "lstm1"
  type: "LSTM"
  bottom: "embedded_input_frames"
  bottom: "cont_sentence"
  top: "lstm1"
  recurrent_param {
    num_output: 1000
    weight_filler {
      type: "uniform"
      min: -0.08
      max: 0.08
    }
    bias_filler {
      type: "constant"
      value: 0
    }
  }
}
layer {
  name: "concat"
  type: "Concat"
  bottom: "lstm1"
  bottom: "embedded_input_sentence"
  bottom: "reshaped_stage_indicator"
  top: "lstm1_video_sequence"
  concat_param {
    concat_dim: 2
  }
}
layer {
  name: "lstm2"
  type: "LSTM"
  bottom: "lstm1_video_sequence"
  bottom: "cont_sentence"
  top: "lstm2"
  recurrent_param {
    num_output: 1000
    weight_filler {
      type: "uniform"
      min: -0.08
      max: 0.08
    }
    bias_filler {
      type: "constant"
      value: 0
    }
  }
}
layer {
  name: "predict"
  type: "InnerProduct"
  bottom: "lstm2"
  top: "predict"
  param {
    lr_mult: 1
    decay_mult: 1
  }
  param {
    lr_mult: 2
    decay_mult: 0
  }
  inner_product_param {
    num_output: 46168
    weight_filler {
      type: "uniform"
      min: -0.08
      max: 0.08
    }
    bias_filler {
      type: "constant"
      value: 0
    }
    axis: 2
  }
}
layer {
  name: "probs"
  type: "Softmax"
  bottom: "predict"
  top: "probs"
  softmax_param {
    axis: 2
  }
}
I0924 02:21:42.332159 23016 net.cpp:49] Initializing net from parameters: 
name: "s2vt:features_to_lstm"
state {
  phase: TEST
}
layer {
  name: "input"
  type: "Input"
  top: "frames_fc7"
  top: "cont_sentence"
  top: "input_sentence"
  top: "stage_indicator"
  input_param {
    shape {
      dim: 1
      dim: 4096
    }
    shape {
      dim: 1
      dim: 1
    }
    shape {
      dim: 1
      dim: 1
    }
    shape {
      dim: 1
      dim: 1
    }
  }
}
layer {
  name: "embed_encoder"
  type: "InnerProduct"
  bottom: "frames_fc7"
  top: "embedded_in_frames"
  param {
    lr_mult: 1
    decay_mult: 1
  }
  param {
    lr_mult: 2
    decay_mult: 0
  }
  inner_product_param {
    num_output: 500
    weight_filler {
      type: "xavier"
    }
    bias_filler {
      type: "constant"
      value: 0.2
    }
  }
}
layer {
  name: "reshape_frames"
  type: "Reshape"
  bottom: "embedded_in_frames"
  top: "embedded_input_frames"
  reshape_param {
    shape {
      dim: 1
      dim: 1
      dim: 500
    }
  }
}
layer {
  name: "reshape_stage_indicator"
  type: "Reshape"
  bottom: "stage_indicator"
  top: "reshaped_stage_indicator"
  reshape_param {
    shape {
      dim: 1
      dim: 1
      dim: 1
    }
  }
}
layer {
  name: "embedding"
  type: "Embed"
  bottom: "input_sentence"
  top: "embedded_input_sentence"
  param {
    lr_mult: 1
  }
  embed_param {
    num_output: 500
    input_dim: 46168
    bias_term: false
    weight_filler {
      type: "uniform"
      min: -0.08
      max: 0.08
    }
  }
}
layer {
  name: "lstm1"
  type: "LSTM"
  bottom: "embedded_input_frames"
  bottom: "cont_sentence"
  top: "lstm1"
  recurrent_param {
    num_output: 1000
    weight_filler {
      type: "uniform"
      min: -0.08
      max: 0.08
    }
    bias_filler {
      type: "constant"
      value: 0
    }
  }
}
layer {
  name: "concat"
  type: "Concat"
  bottom: "lstm1"
  bottom: "embedded_input_sentence"
  bottom: "reshaped_stage_indicator"
  top: "lstm1_video_sequence"
  concat_param {
    concat_dim: 2
  }
}
layer {
  name: "lstm2"
  type: "LSTM"
  bottom: "lstm1_video_sequence"
  bottom: "cont_sentence"
  top: "lstm2"
  recurrent_param {
    num_output: 1000
    weight_filler {
      type: "uniform"
      min: -0.08
      max: 0.08
    }
    bias_filler {
      type: "constant"
      value: 0
    }
  }
}
layer {
  name: "predict"
  type: "InnerProduct"
  bottom: "lstm2"
  top: "predict"
  param {
    lr_mult: 1
    decay_mult: 1
  }
  param {
    lr_mult: 2
    decay_mult: 0
  }
  inner_product_param {
    num_output: 46168
    weight_filler {
      type: "uniform"
      min: -0.08
      max: 0.08
    }
    bias_filler {
      type: "constant"
      value: 0
    }
    axis: 2
  }
}
layer {
  name: "probs"
  type: "Softmax"
  bottom: "predict"
  top: "probs"
  softmax_param {
    axis: 2
  }
}
I0924 02:21:42.332168 23034 layer_factory.hpp:77] Creating layer input
I0924 02:21:42.332206 23034 net.cpp:91] Creating Layer input
I0924 02:21:42.332222 23034 net.cpp:399] input -> frames_fc7
I0924 02:21:42.332243 23034 net.cpp:399] input -> cont_sentence
I0924 02:21:42.332262 23034 net.cpp:399] input -> input_sentence
I0924 02:21:42.332280 23034 net.cpp:399] input -> stage_indicator
I0924 02:21:42.332315 23016 layer_factory.hpp:77] Creating layer input
I0924 02:21:42.332336 23016 net.cpp:91] Creating Layer input
I0924 02:21:42.332350 23016 net.cpp:399] input -> frames_fc7
I0924 02:21:42.332372 23016 net.cpp:399] input -> cont_sentence
I0924 02:21:42.332393 23016 net.cpp:399] input -> input_sentence
I0924 02:21:42.332413 23016 net.cpp:399] input -> stage_indicator
I0924 02:21:42.971624 23042 net.cpp:141] Setting up data
I0924 02:21:42.971700 23042 net.cpp:148] Top shape: 10 3 227 227 (1545870)
I0924 02:21:42.971709 23042 net.cpp:156] Memory required for data: 6183480
I0924 02:21:42.971730 23042 layer_factory.hpp:77] Creating layer conv1
I0924 02:21:42.971767 23042 net.cpp:91] Creating Layer conv1
I0924 02:21:42.971778 23042 net.cpp:425] conv1 <- data
I0924 02:21:42.971793 23042 net.cpp:399] conv1 -> conv1
I0924 02:21:42.971879 23020 net.cpp:141] Setting up input
I0924 02:21:42.971920 23020 net.cpp:148] Top shape: 1 4096 (4096)
I0924 02:21:42.971931 23020 net.cpp:148] Top shape: 1 1 (1)
I0924 02:21:42.971935 23016 net.cpp:141] Setting up input
I0924 02:21:42.971940 23020 net.cpp:148] Top shape: 1 1 (1)
I0924 02:21:42.971963 23016 net.cpp:148] Top shape: 1 4096 (4096)
I0924 02:21:42.971967 23020 net.cpp:148] Top shape: 1 1 (1)
I0924 02:21:42.971971 23016 net.cpp:148] Top shape: 1 1 (1)
I0924 02:21:42.971976 23020 net.cpp:156] Memory required for data: 16396
I0924 02:21:42.971978 23016 net.cpp:148] Top shape: 1 1 (1)
I0924 02:21:42.971994 23020 layer_factory.hpp:77] Creating layer cont_sentence_input_1_split
I0924 02:21:42.972005 23016 net.cpp:148] Top shape: 1 1 (1)
I0924 02:21:42.972015 23016 net.cpp:156] Memory required for data: 16396
I0924 02:21:42.972025 23016 layer_factory.hpp:77] Creating layer cont_sentence_input_1_split
I0924 02:21:42.972033 23020 net.cpp:91] Creating Layer cont_sentence_input_1_split
I0924 02:21:42.972039 23016 net.cpp:91] Creating Layer cont_sentence_input_1_split
I0924 02:21:42.972043 23020 net.cpp:425] cont_sentence_input_1_split <- cont_sentence
I0924 02:21:42.972061 23016 net.cpp:425] cont_sentence_input_1_split <- cont_sentence
I0924 02:21:42.972100 23016 net.cpp:399] cont_sentence_input_1_split -> cont_sentence_input_1_split_0
I0924 02:21:42.972100 23020 net.cpp:399] cont_sentence_input_1_split -> cont_sentence_input_1_split_0
I0924 02:21:42.972129 23016 net.cpp:399] cont_sentence_input_1_split -> cont_sentence_input_1_split_1
I0924 02:21:42.972131 23020 net.cpp:399] cont_sentence_input_1_split -> cont_sentence_input_1_split_1
I0924 02:21:42.972151 23034 net.cpp:141] Setting up input
I0924 02:21:42.972167 23034 net.cpp:148] Top shape: 1 4096 (4096)
I0924 02:21:42.972179 23034 net.cpp:148] Top shape: 1 1 (1)
I0924 02:21:42.972190 23034 net.cpp:148] Top shape: 1 1 (1)
I0924 02:21:42.972201 23034 net.cpp:148] Top shape: 1 1 (1)
I0924 02:21:42.972208 23034 net.cpp:156] Memory required for data: 16396
I0924 02:21:42.972214 23034 layer_factory.hpp:77] Creating layer cont_sentence_input_1_split
I0924 02:21:42.972229 23034 net.cpp:91] Creating Layer cont_sentence_input_1_split
I0924 02:21:42.972237 23034 net.cpp:425] cont_sentence_input_1_split <- cont_sentence
I0924 02:21:42.972251 23034 net.cpp:399] cont_sentence_input_1_split -> cont_sentence_input_1_split_0
I0924 02:21:42.972265 23016 net.cpp:141] Setting up cont_sentence_input_1_split
I0924 02:21:42.972061 23040 net.cpp:141] Setting up input
I0924 02:21:42.972286 23016 net.cpp:148] Top shape: 1 1 (1)
I0924 02:21:42.972270 23034 net.cpp:399] cont_sentence_input_1_split -> cont_sentence_input_1_split_1
I0924 02:21:42.972295 23020 net.cpp:141] Setting up cont_sentence_input_1_split
I0924 02:21:42.972302 23016 net.cpp:148] Top shape: 1 1 (1)
I0924 02:21:42.972312 23020 net.cpp:148] Top shape: 1 1 (1)
I0924 02:21:42.972312 23016 net.cpp:156] Memory required for data: 16404
I0924 02:21:42.972331 23020 net.cpp:148] Top shape: 1 1 (1)
I0924 02:21:42.972333 23016 layer_factory.hpp:77] Creating layer embed_encoder
I0924 02:21:42.972338 23020 net.cpp:156] Memory required for data: 16404
I0924 02:21:42.972347 23020 layer_factory.hpp:77] Creating layer embed_encoder
I0924 02:21:42.972363 23034 net.cpp:141] Setting up cont_sentence_input_1_split
I0924 02:21:42.972365 23016 net.cpp:91] Creating Layer embed_encoder
I0924 02:21:42.972383 23034 net.cpp:148] Top shape: 1 1 (1)
I0924 02:21:42.972365 23020 net.cpp:91] Creating Layer embed_encoder
I0924 02:21:42.972388 23016 net.cpp:425] embed_encoder <- frames_fc7
I0924 02:21:42.972286 23040 net.cpp:148] Top shape: 1 4096 (4096)
I0924 02:21:42.972400 23020 net.cpp:425] embed_encoder <- frames_fc7
I0924 02:21:42.972412 23040 net.cpp:148] Top shape: 1 1 (1)
I0924 02:21:42.972416 23020 net.cpp:399] embed_encoder -> embedded_in_frames
I0924 02:21:42.972419 23016 net.cpp:399] embed_encoder -> embedded_in_frames
I0924 02:21:42.972424 23040 net.cpp:148] Top shape: 1 1 (1)
I0924 02:21:42.972434 23040 net.cpp:148] Top shape: 1 1 (1)
I0924 02:21:42.972442 23040 net.cpp:156] Memory required for data: 16396
I0924 02:21:42.972451 23040 layer_factory.hpp:77] Creating layer cont_sentence_input_1_split
I0924 02:21:42.972465 23040 net.cpp:91] Creating Layer cont_sentence_input_1_split
I0924 02:21:42.972473 23040 net.cpp:425] cont_sentence_input_1_split <- cont_sentence
I0924 02:21:42.972482 23040 net.cpp:399] cont_sentence_input_1_split -> cont_sentence_input_1_split_0
I0924 02:21:42.972496 23040 net.cpp:399] cont_sentence_input_1_split -> cont_sentence_input_1_split_1
I0924 02:21:42.972395 23034 net.cpp:148] Top shape: 1 1 (1)
I0924 02:21:42.972524 23034 net.cpp:156] Memory required for data: 16404
I0924 02:21:42.972534 23034 layer_factory.hpp:77] Creating layer embed_encoder
I0924 02:21:42.972550 23034 net.cpp:91] Creating Layer embed_encoder
I0924 02:21:42.972558 23034 net.cpp:425] embed_encoder <- frames_fc7
I0924 02:21:42.972566 23034 net.cpp:399] embed_encoder -> embedded_in_frames
I0924 02:21:42.981998 23040 net.cpp:141] Setting up cont_sentence_input_1_split
I0924 02:21:42.982066 23040 net.cpp:148] Top shape: 1 1 (1)
I0924 02:21:42.982089 23040 net.cpp:148] Top shape: 1 1 (1)
I0924 02:21:42.982105 23040 net.cpp:156] Memory required for data: 16404
I0924 02:21:42.982121 23040 layer_factory.hpp:77] Creating layer embed_encoder
I0924 02:21:42.982166 23040 net.cpp:91] Creating Layer embed_encoder
I0924 02:21:42.982187 23040 net.cpp:425] embed_encoder <- frames_fc7
I0924 02:21:42.982214 23040 net.cpp:399] embed_encoder -> embedded_in_frames
I0924 02:21:43.000244 23020 net.cpp:141] Setting up embed_encoder
I0924 02:21:43.000303 23020 net.cpp:148] Top shape: 1 500 (500)
I0924 02:21:43.000311 23020 net.cpp:156] Memory required for data: 18404
I0924 02:21:43.000352 23020 layer_factory.hpp:77] Creating layer reshape_frames
I0924 02:21:43.000396 23020 net.cpp:91] Creating Layer reshape_frames
I0924 02:21:43.000408 23020 net.cpp:425] reshape_frames <- embedded_in_frames
I0924 02:21:43.000423 23020 net.cpp:399] reshape_frames -> embedded_input_frames
I0924 02:21:43.009260 23020 net.cpp:141] Setting up reshape_frames
I0924 02:21:43.009290 23020 net.cpp:148] Top shape: 1 1 500 (500)
I0924 02:21:43.009295 23020 net.cpp:156] Memory required for data: 20404
I0924 02:21:43.009302 23020 layer_factory.hpp:77] Creating layer reshape_stage_indicator
I0924 02:21:43.009317 23020 net.cpp:91] Creating Layer reshape_stage_indicator
I0924 02:21:43.009325 23020 net.cpp:425] reshape_stage_indicator <- stage_indicator
I0924 02:21:43.009335 23020 net.cpp:399] reshape_stage_indicator -> reshaped_stage_indicator
I0924 02:21:43.009487 23016 net.cpp:141] Setting up embed_encoder
I0924 02:21:43.009505 23016 net.cpp:148] Top shape: 1 500 (500)
I0924 02:21:43.009512 23016 net.cpp:156] Memory required for data: 18404
I0924 02:21:43.009531 23016 layer_factory.hpp:77] Creating layer reshape_frames
I0924 02:21:43.009543 23016 net.cpp:91] Creating Layer reshape_frames
I0924 02:21:43.009549 23016 net.cpp:425] reshape_frames <- embedded_in_frames
I0924 02:21:43.009548 23040 net.cpp:141] Setting up embed_encoder
I0924 02:21:43.009563 23016 net.cpp:399] reshape_frames -> embedded_input_frames
I0924 02:21:43.009567 23040 net.cpp:148] Top shape: 1 500 (500)
I0924 02:21:43.009573 23040 net.cpp:156] Memory required for data: 18404
I0924 02:21:43.009588 23040 layer_factory.hpp:77] Creating layer reshape_frames
I0924 02:21:43.009600 23040 net.cpp:91] Creating Layer reshape_frames
I0924 02:21:43.009601 23020 net.cpp:141] Setting up reshape_stage_indicator
I0924 02:21:43.009608 23040 net.cpp:425] reshape_frames <- embedded_in_frames
I0924 02:21:43.009613 23020 net.cpp:148] Top shape: 1 1 1 (1)
I0924 02:21:43.009616 23040 net.cpp:399] reshape_frames -> embedded_input_frames
I0924 02:21:43.009618 23020 net.cpp:156] Memory required for data: 20408
I0924 02:21:43.009624 23020 layer_factory.hpp:77] Creating layer embedding
I0924 02:21:43.009640 23020 net.cpp:91] Creating Layer embedding
I0924 02:21:43.009646 23020 net.cpp:425] embedding <- input_sentence
I0924 02:21:43.009655 23020 net.cpp:399] embedding -> embedded_input_sentence
I0924 02:21:43.009660 23040 net.cpp:141] Setting up reshape_frames
I0924 02:21:43.009670 23040 net.cpp:148] Top shape: 1 1 500 (500)
I0924 02:21:43.009675 23040 net.cpp:156] Memory required for data: 20404
I0924 02:21:43.009680 23040 layer_factory.hpp:77] Creating layer reshape_stage_indicator
I0924 02:21:43.009690 23040 net.cpp:91] Creating Layer reshape_stage_indicator
I0924 02:21:43.009696 23040 net.cpp:425] reshape_stage_indicator <- stage_indicator
I0924 02:21:43.009694 23016 net.cpp:141] Setting up reshape_frames
I0924 02:21:43.009704 23040 net.cpp:399] reshape_stage_indicator -> reshaped_stage_indicator
I0924 02:21:43.009711 23016 net.cpp:148] Top shape: 1 1 500 (500)
I0924 02:21:43.009718 23016 net.cpp:156] Memory required for data: 20404
I0924 02:21:43.009727 23016 layer_factory.hpp:77] Creating layer reshape_stage_indicator
I0924 02:21:43.009743 23016 net.cpp:91] Creating Layer reshape_stage_indicator
I0924 02:21:43.009753 23016 net.cpp:425] reshape_stage_indicator <- stage_indicator
I0924 02:21:43.009765 23016 net.cpp:399] reshape_stage_indicator -> reshaped_stage_indicator
I0924 02:21:43.050202 23040 net.cpp:141] Setting up reshape_stage_indicator
I0924 02:21:43.050256 23034 net.cpp:141] Setting up embed_encoder
I0924 02:21:43.050266 23040 net.cpp:148] Top shape: 1 1 1 (1)
I0924 02:21:43.050274 23034 net.cpp:148] Top shape: 1 500 (500)
I0924 02:21:43.050274 23040 net.cpp:156] Memory required for data: 20408
I0924 02:21:43.050282 23034 net.cpp:156] Memory required for data: 18404
I0924 02:21:43.050288 23040 layer_factory.hpp:77] Creating layer embedding
I0924 02:21:43.050312 23034 layer_factory.hpp:77] Creating layer reshape_frames
I0924 02:21:43.050318 23040 net.cpp:91] Creating Layer embedding
I0924 02:21:43.050329 23040 net.cpp:425] embedding <- input_sentence
I0924 02:21:43.050333 23034 net.cpp:91] Creating Layer reshape_frames
I0924 02:21:43.050343 23034 net.cpp:425] reshape_frames <- embedded_in_frames
I0924 02:21:43.050346 23040 net.cpp:399] embedding -> embedded_input_sentence
I0924 02:21:43.050357 23034 net.cpp:399] reshape_frames -> embedded_input_frames
I0924 02:21:43.097352 23034 net.cpp:141] Setting up reshape_frames
I0924 02:21:43.097426 23034 net.cpp:148] Top shape: 1 1 500 (500)
I0924 02:21:43.097446 23034 net.cpp:156] Memory required for data: 20404
I0924 02:21:43.097467 23034 layer_factory.hpp:77] Creating layer reshape_stage_indicator
I0924 02:21:43.097512 23034 net.cpp:91] Creating Layer reshape_stage_indicator
I0924 02:21:43.097533 23034 net.cpp:425] reshape_stage_indicator <- stage_indicator
I0924 02:21:43.097573 23034 net.cpp:399] reshape_stage_indicator -> reshaped_stage_indicator
I0924 02:21:43.097694 23034 net.cpp:141] Setting up reshape_stage_indicator
I0924 02:21:43.097723 23034 net.cpp:148] Top shape: 1 1 1 (1)
I0924 02:21:43.097738 23034 net.cpp:156] Memory required for data: 20408
I0924 02:21:43.097751 23034 layer_factory.hpp:77] Creating layer embedding
I0924 02:21:43.097781 23034 net.cpp:91] Creating Layer embedding
I0924 02:21:43.097797 23034 net.cpp:425] embedding <- input_sentence
I0924 02:21:43.097826 23034 net.cpp:399] embedding -> embedded_input_sentence
I0924 02:21:43.153127 23016 net.cpp:141] Setting up reshape_stage_indicator
I0924 02:21:43.153188 23016 net.cpp:148] Top shape: 1 1 1 (1)
I0924 02:21:43.153199 23016 net.cpp:156] Memory required for data: 20408
I0924 02:21:43.153211 23016 layer_factory.hpp:77] Creating layer embedding
I0924 02:21:43.153247 23016 net.cpp:91] Creating Layer embedding
I0924 02:21:43.153259 23016 net.cpp:425] embedding <- input_sentence
I0924 02:21:43.153276 23016 net.cpp:399] embedding -> embedded_input_sentence
I0924 02:21:43.245249 23020 net.cpp:141] Setting up embedding
I0924 02:21:43.245895 23020 net.cpp:148] Top shape: 1 1 500 (500)
I0924 02:21:43.246083 23020 net.cpp:156] Memory required for data: 22408
I0924 02:21:43.246359 23020 layer_factory.hpp:77] Creating layer lstm1
I0924 02:21:43.246564 23020 net.cpp:91] Creating Layer lstm1
I0924 02:21:43.246793 23020 net.cpp:425] lstm1 <- embedded_input_frames
I0924 02:21:43.246970 23020 net.cpp:425] lstm1 <- cont_sentence_input_1_split_0
I0924 02:21:43.247284 23020 net.cpp:399] lstm1 -> lstm1
I0924 02:21:43.247495 23020 recurrent_layer.cpp:20] Initializing recurrent layer: assuming input batch contains 1 timesteps of 1 independent streams.
I0924 02:21:43.248246 23020 net.cpp:49] Initializing net from parameters: 
layer {
  name: "lstm1_"
  type: "Input"
  top: "x"
  top: "cont"
  input_param {
    shape {
      dim: 1
      dim: 1
      dim: 500
    }
    shape {
      dim: 1
      dim: 1
    }
  }
}
layer {
  name: "lstm1_"
  type: "Input"
  top: "c_0"
  top: "h_0"
  input_param {
    shape {
      dim: 1
      dim: 1
      dim: 1000
    }
    shape {
      dim: 1
      dim: 1
      dim: 1000
    }
  }
}
layer {
  name: "lstm1_cont_slice"
  type: "Slice"
  bottom: "cont"
  top: "cont_1"
  slice_param {
    axis: 0
  }
}
layer {
  name: "lstm1_x_transform"
  type: "InnerProduct"
  bottom: "x"
  top: "W_xc_x"
  param {
    name: "W_xc"
  }
  param {
    name: "b_c"
  }
  propagate_down: true
  inner_product_param {
    num_output: 4000
    bias_term: true
    weight_filler {
      type: "uniform"
      min: -0.08
      max: 0.08
    }
    bias_filler {
      type: "constant"
      value: 0
    }
    axis: 2
  }
}
layer {
  name: "lstm1_W_xc_x_slice"
  type: "Slice"
  bottom: "W_xc_x"
  top: "W_xc_x_1"
  slice_param {
    axis: 0
  }
}
layer {
  name: "lstm1_h_conted_0"
  type: "Scale"
  bottom: "h_0"
  bottom: "cont_1"
  top: "h_conted_0"
  scale_param {
    axis: 0
  }
}
layer {
  name: "lstm1_transform_1"
  type: "InnerProduct"
  bottom: "h_conted_0"
  top: "W_hc_h_0"
  param {
    name: "W_hc"
  }
  inner_product_param {
    num_output: 4000
    bias_term: false
    weight_filler {
      type: "uniform"
      min: -0.08
      max: 0.08
    }
    axis: 2
  }
}
layer {
  name: "lstm1_gate_input_1"
  type: "Eltwise"
  bottom: "W_hc_h_0"
  bottom: "W_xc_x_1"
  top: "gate_input_1"
  eltwise_param {
    operation: SUM
  }
}
layer {
  name: "lstm1_unit_1"
  type: "LSTMUnit"
  bottom: "c_0"
  bottom: "gate_input_1"
  bottom: "cont_1"
  top: "c_1"
  top: "h_1"
}
layer {
  name: "lstm1_"
  type: "Split"
  bottom: "c_1"
  top: "c_T"
}
layer {
  name: "lstm1_h_concat"
  type: "Concat"
  bottom: "h_1"
  top: "h"
  concat_param {
    axis: 0
  }
}
layer {
  name: "h_pseudoloss"
  type: "Reduction"
  bottom: "h"
  top: "h_pseudoloss"
  loss_weight: 1
}
I0924 02:21:43.248953 23020 layer_factory.hpp:77] Creating layer lstm1_
I0924 02:21:43.248976 23020 net.cpp:91] Creating Layer lstm1_
I0924 02:21:43.248987 23020 net.cpp:399] lstm1_ -> x
I0924 02:21:43.249006 23020 net.cpp:399] lstm1_ -> cont
I0924 02:21:43.251827 23020 net.cpp:141] Setting up lstm1_
I0924 02:21:43.251849 23020 net.cpp:148] Top shape: 1 1 500 (500)
I0924 02:21:43.251859 23020 net.cpp:148] Top shape: 1 1 (1)
I0924 02:21:43.251866 23020 net.cpp:156] Memory required for data: 2004
I0924 02:21:43.251875 23020 layer_factory.hpp:77] Creating layer lstm1_
I0924 02:21:43.251891 23020 net.cpp:91] Creating Layer lstm1_
I0924 02:21:43.251904 23020 net.cpp:399] lstm1_ -> c_0
I0924 02:21:43.251922 23020 net.cpp:399] lstm1_ -> h_0
I0924 02:21:43.252323 23020 net.cpp:141] Setting up lstm1_
I0924 02:21:43.252339 23020 net.cpp:148] Top shape: 1 1 1000 (1000)
I0924 02:21:43.252349 23020 net.cpp:148] Top shape: 1 1 1000 (1000)
I0924 02:21:43.252356 23020 net.cpp:156] Memory required for data: 10004
I0924 02:21:43.252362 23020 layer_factory.hpp:77] Creating layer lstm1_cont_slice
I0924 02:21:43.252377 23020 net.cpp:91] Creating Layer lstm1_cont_slice
I0924 02:21:43.252384 23020 net.cpp:425] lstm1_cont_slice <- cont
I0924 02:21:43.252395 23020 net.cpp:399] lstm1_cont_slice -> cont_1
I0924 02:21:43.252732 23020 net.cpp:141] Setting up lstm1_cont_slice
I0924 02:21:43.252748 23020 net.cpp:148] Top shape: 1 1 (1)
I0924 02:21:43.252753 23020 net.cpp:156] Memory required for data: 10008
I0924 02:21:43.252761 23020 layer_factory.hpp:77] Creating layer cont_1_lstm1_cont_slice_0_split
I0924 02:21:43.252776 23020 net.cpp:91] Creating Layer cont_1_lstm1_cont_slice_0_split
I0924 02:21:43.252784 23020 net.cpp:425] cont_1_lstm1_cont_slice_0_split <- cont_1
I0924 02:21:43.252794 23020 net.cpp:399] cont_1_lstm1_cont_slice_0_split -> cont_1_lstm1_cont_slice_0_split_0
I0924 02:21:43.252806 23020 net.cpp:399] cont_1_lstm1_cont_slice_0_split -> cont_1_lstm1_cont_slice_0_split_1
I0924 02:21:43.253541 23020 net.cpp:141] Setting up cont_1_lstm1_cont_slice_0_split
I0924 02:21:43.253556 23020 net.cpp:148] Top shape: 1 1 (1)
I0924 02:21:43.253566 23020 net.cpp:148] Top shape: 1 1 (1)
I0924 02:21:43.253572 23020 net.cpp:156] Memory required for data: 10016
I0924 02:21:43.253579 23020 layer_factory.hpp:77] Creating layer lstm1_x_transform
I0924 02:21:43.253597 23020 net.cpp:91] Creating Layer lstm1_x_transform
I0924 02:21:43.253604 23020 net.cpp:425] lstm1_x_transform <- x
I0924 02:21:43.253621 23020 net.cpp:399] lstm1_x_transform -> W_xc_x
I0924 02:21:43.288794 23020 net.cpp:141] Setting up lstm1_x_transform
I0924 02:21:43.288847 23020 net.cpp:148] Top shape: 1 1 4000 (4000)
I0924 02:21:43.288856 23020 net.cpp:156] Memory required for data: 26016
I0924 02:21:43.288887 23020 layer_factory.hpp:77] Creating layer lstm1_W_xc_x_slice
I0924 02:21:43.288913 23020 net.cpp:91] Creating Layer lstm1_W_xc_x_slice
I0924 02:21:43.288923 23020 net.cpp:425] lstm1_W_xc_x_slice <- W_xc_x
I0924 02:21:43.288936 23020 net.cpp:399] lstm1_W_xc_x_slice -> W_xc_x_1
I0924 02:21:43.290051 23020 net.cpp:141] Setting up lstm1_W_xc_x_slice
I0924 02:21:43.290066 23020 net.cpp:148] Top shape: 1 1 4000 (4000)
I0924 02:21:43.290073 23020 net.cpp:156] Memory required for data: 42016
I0924 02:21:43.290081 23020 layer_factory.hpp:77] Creating layer lstm1_h_conted_0
I0924 02:21:43.290112 23020 net.cpp:91] Creating Layer lstm1_h_conted_0
I0924 02:21:43.290120 23020 net.cpp:425] lstm1_h_conted_0 <- h_0
I0924 02:21:43.290129 23020 net.cpp:425] lstm1_h_conted_0 <- cont_1_lstm1_cont_slice_0_split_0
I0924 02:21:43.290141 23020 net.cpp:399] lstm1_h_conted_0 -> h_conted_0
I0924 02:21:43.294847 23020 net.cpp:141] Setting up lstm1_h_conted_0
I0924 02:21:43.294881 23020 net.cpp:148] Top shape: 1 1 1000 (1000)
I0924 02:21:43.294889 23020 net.cpp:156] Memory required for data: 46016
I0924 02:21:43.294898 23020 layer_factory.hpp:77] Creating layer lstm1_transform_1
I0924 02:21:43.294924 23020 net.cpp:91] Creating Layer lstm1_transform_1
I0924 02:21:43.294934 23020 net.cpp:425] lstm1_transform_1 <- h_conted_0
I0924 02:21:43.294948 23020 net.cpp:399] lstm1_transform_1 -> W_hc_h_0
I0924 02:21:43.304958 23040 net.cpp:141] Setting up embedding
I0924 02:21:43.305009 23040 net.cpp:148] Top shape: 1 1 500 (500)
I0924 02:21:43.305016 23040 net.cpp:156] Memory required for data: 22408
I0924 02:21:43.305037 23040 layer_factory.hpp:77] Creating layer lstm1
I0924 02:21:43.305060 23040 net.cpp:91] Creating Layer lstm1
I0924 02:21:43.305069 23040 net.cpp:425] lstm1 <- embedded_input_frames
I0924 02:21:43.305080 23040 net.cpp:425] lstm1 <- cont_sentence_input_1_split_0
I0924 02:21:43.305091 23040 net.cpp:399] lstm1 -> lstm1
I0924 02:21:43.305112 23040 recurrent_layer.cpp:20] Initializing recurrent layer: assuming input batch contains 1 timesteps of 1 independent streams.
I0924 02:21:43.305428 23040 net.cpp:49] Initializing net from parameters: 
layer {
  name: "lstm1_"
  type: "Input"
  top: "x"
  top: "cont"
  input_param {
    shape {
      dim: 1
      dim: 1
      dim: 500
    }
    shape {
      dim: 1
      dim: 1
    }
  }
}
layer {
  name: "lstm1_"
  type: "Input"
  top: "c_0"
  top: "h_0"
  input_param {
    shape {
      dim: 1
      dim: 1
      dim: 1000
    }
    shape {
      dim: 1
      dim: 1
      dim: 1000
    }
  }
}
layer {
  name: "lstm1_cont_slice"
  type: "Slice"
  bottom: "cont"
  top: "cont_1"
  slice_param {
    axis: 0
  }
}
layer {
  name: "lstm1_x_transform"
  type: "InnerProduct"
  bottom: "x"
  top: "W_xc_x"
  param {
    name: "W_xc"
  }
  param {
    name: "b_c"
  }
  propagate_down: true
  inner_product_param {
    num_output: 4000
    bias_term: true
    weight_filler {
      type: "uniform"
      min: -0.08
      max: 0.08
    }
    bias_filler {
      type: "constant"
      value: 0
    }
    axis: 2
  }
}
layer {
  name: "lstm1_W_xc_x_slice"
  type: "Slice"
  bottom: "W_xc_x"
  top: "W_xc_x_1"
  slice_param {
    axis: 0
  }
}
layer {
  name: "lstm1_h_conted_0"
  type: "Scale"
  bottom: "h_0"
  bottom: "cont_1"
  top: "h_conted_0"
  scale_param {
    axis: 0
  }
}
layer {
  name: "lstm1_transform_1"
  type: "InnerProduct"
  bottom: "h_conted_0"
  top: "W_hc_h_0"
  param {
    name: "W_hc"
  }
  inner_product_param {
    num_output: 4000
    bias_term: false
    weight_filler {
      type: "uniform"
      min: -0.08
      max: 0.08
    }
    axis: 2
  }
}
layer {
  name: "lstm1_gate_input_1"
  type: "Eltwise"
  bottom: "W_hc_h_0"
  bottom: "W_xc_x_1"
  top: "gate_input_1"
  eltwise_param {
    operation: SUM
  }
}
layer {
  name: "lstm1_unit_1"
  type: "LSTMUnit"
  bottom: "c_0"
  bottom: "gate_input_1"
  bottom: "cont_1"
  top: "c_1"
  top: "h_1"
}
layer {
  name: "lstm1_"
  type: "Split"
  bottom: "c_1"
  top: "c_T"
}
layer {
  name: "lstm1_h_concat"
  type: "Concat"
  bottom: "h_1"
  top: "h"
  concat_param {
    axis: 0
  }
}
layer {
  name: "h_pseudoloss"
  type: "Reduction"
  bottom: "h"
  top: "h_pseudoloss"
  loss_weight: 1
}
I0924 02:21:43.305524 23040 layer_factory.hpp:77] Creating layer lstm1_
I0924 02:21:43.305541 23040 net.cpp:91] Creating Layer lstm1_
I0924 02:21:43.305547 23040 net.cpp:399] lstm1_ -> x
I0924 02:21:43.305560 23040 net.cpp:399] lstm1_ -> cont
I0924 02:21:43.308203 23040 net.cpp:141] Setting up lstm1_
I0924 02:21:43.308248 23040 net.cpp:148] Top shape: 1 1 500 (500)
I0924 02:21:43.308260 23040 net.cpp:148] Top shape: 1 1 (1)
I0924 02:21:43.308269 23040 net.cpp:156] Memory required for data: 2004
I0924 02:21:43.308282 23040 layer_factory.hpp:77] Creating layer lstm1_
I0924 02:21:43.308315 23040 net.cpp:91] Creating Layer lstm1_
I0924 02:21:43.308326 23040 net.cpp:399] lstm1_ -> c_0
I0924 02:21:43.308346 23040 net.cpp:399] lstm1_ -> h_0
I0924 02:21:43.308573 23040 net.cpp:141] Setting up lstm1_
I0924 02:21:43.308584 23040 net.cpp:148] Top shape: 1 1 1000 (1000)
I0924 02:21:43.308590 23040 net.cpp:148] Top shape: 1 1 1000 (1000)
I0924 02:21:43.308594 23040 net.cpp:156] Memory required for data: 10004
I0924 02:21:43.308599 23040 layer_factory.hpp:77] Creating layer lstm1_cont_slice
I0924 02:21:43.308611 23040 net.cpp:91] Creating Layer lstm1_cont_slice
I0924 02:21:43.308617 23040 net.cpp:425] lstm1_cont_slice <- cont
I0924 02:21:43.308630 23040 net.cpp:399] lstm1_cont_slice -> cont_1
I0924 02:21:43.312582 23040 net.cpp:141] Setting up lstm1_cont_slice
I0924 02:21:43.312621 23040 net.cpp:148] Top shape: 1 1 (1)
I0924 02:21:43.312631 23040 net.cpp:156] Memory required for data: 10008
I0924 02:21:43.312638 23040 layer_factory.hpp:77] Creating layer cont_1_lstm1_cont_slice_0_split
I0924 02:21:43.312649 23040 net.cpp:91] Creating Layer cont_1_lstm1_cont_slice_0_split
I0924 02:21:43.312655 23040 net.cpp:425] cont_1_lstm1_cont_slice_0_split <- cont_1
I0924 02:21:43.312664 23040 net.cpp:399] cont_1_lstm1_cont_slice_0_split -> cont_1_lstm1_cont_slice_0_split_0
I0924 02:21:43.312675 23040 net.cpp:399] cont_1_lstm1_cont_slice_0_split -> cont_1_lstm1_cont_slice_0_split_1
I0924 02:21:43.312842 23040 net.cpp:141] Setting up cont_1_lstm1_cont_slice_0_split
I0924 02:21:43.312854 23040 net.cpp:148] Top shape: 1 1 (1)
I0924 02:21:43.312860 23040 net.cpp:148] Top shape: 1 1 (1)
I0924 02:21:43.312865 23040 net.cpp:156] Memory required for data: 10016
I0924 02:21:43.312870 23040 layer_factory.hpp:77] Creating layer lstm1_x_transform
I0924 02:21:43.312889 23040 net.cpp:91] Creating Layer lstm1_x_transform
I0924 02:21:43.312896 23040 net.cpp:425] lstm1_x_transform <- x
I0924 02:21:43.312904 23040 net.cpp:399] lstm1_x_transform -> W_xc_x
I0924 02:21:43.334683 23040 net.cpp:141] Setting up lstm1_x_transform
I0924 02:21:43.334739 23040 net.cpp:148] Top shape: 1 1 4000 (4000)
I0924 02:21:43.334749 23040 net.cpp:156] Memory required for data: 26016
I0924 02:21:43.334779 23040 layer_factory.hpp:77] Creating layer lstm1_W_xc_x_slice
I0924 02:21:43.334805 23040 net.cpp:91] Creating Layer lstm1_W_xc_x_slice
I0924 02:21:43.334817 23040 net.cpp:425] lstm1_W_xc_x_slice <- W_xc_x
I0924 02:21:43.334838 23040 net.cpp:399] lstm1_W_xc_x_slice -> W_xc_x_1
I0924 02:21:43.339013 23040 net.cpp:141] Setting up lstm1_W_xc_x_slice
I0924 02:21:43.339056 23040 net.cpp:148] Top shape: 1 1 4000 (4000)
I0924 02:21:43.339067 23040 net.cpp:156] Memory required for data: 42016
I0924 02:21:43.339079 23040 layer_factory.hpp:77] Creating layer lstm1_h_conted_0
I0924 02:21:43.339104 23040 net.cpp:91] Creating Layer lstm1_h_conted_0
I0924 02:21:43.339117 23040 net.cpp:425] lstm1_h_conted_0 <- h_0
I0924 02:21:43.339130 23040 net.cpp:425] lstm1_h_conted_0 <- cont_1_lstm1_cont_slice_0_split_0
I0924 02:21:43.339153 23040 net.cpp:399] lstm1_h_conted_0 -> h_conted_0
I0924 02:21:43.339418 23040 net.cpp:141] Setting up lstm1_h_conted_0
I0924 02:21:43.339437 23040 net.cpp:148] Top shape: 1 1 1000 (1000)
I0924 02:21:43.339447 23040 net.cpp:156] Memory required for data: 46016
I0924 02:21:43.339457 23040 layer_factory.hpp:77] Creating layer lstm1_transform_1
I0924 02:21:43.339479 23040 net.cpp:91] Creating Layer lstm1_transform_1
I0924 02:21:43.339489 23040 net.cpp:425] lstm1_transform_1 <- h_conted_0
I0924 02:21:43.339509 23040 net.cpp:399] lstm1_transform_1 -> W_hc_h_0
I0924 02:21:43.352545 23020 net.cpp:141] Setting up lstm1_transform_1
I0924 02:21:43.352602 23020 net.cpp:148] Top shape: 1 1 4000 (4000)
I0924 02:21:43.352610 23020 net.cpp:156] Memory required for data: 62016
I0924 02:21:43.352636 23020 layer_factory.hpp:77] Creating layer lstm1_gate_input_1
I0924 02:21:43.352664 23020 net.cpp:91] Creating Layer lstm1_gate_input_1
I0924 02:21:43.352679 23020 net.cpp:425] lstm1_gate_input_1 <- W_hc_h_0
I0924 02:21:43.352690 23020 net.cpp:425] lstm1_gate_input_1 <- W_xc_x_1
I0924 02:21:43.352702 23020 net.cpp:399] lstm1_gate_input_1 -> gate_input_1
I0924 02:21:43.374377 23020 net.cpp:141] Setting up lstm1_gate_input_1
I0924 02:21:43.374459 23020 net.cpp:148] Top shape: 1 1 4000 (4000)
I0924 02:21:43.374471 23020 net.cpp:156] Memory required for data: 78016
I0924 02:21:43.374483 23020 layer_factory.hpp:77] Creating layer lstm1_unit_1
I0924 02:21:43.374524 23020 net.cpp:91] Creating Layer lstm1_unit_1
I0924 02:21:43.374536 23020 net.cpp:425] lstm1_unit_1 <- c_0
I0924 02:21:43.374549 23020 net.cpp:425] lstm1_unit_1 <- gate_input_1
I0924 02:21:43.374558 23020 net.cpp:425] lstm1_unit_1 <- cont_1_lstm1_cont_slice_0_split_1
I0924 02:21:43.374572 23020 net.cpp:399] lstm1_unit_1 -> c_1
I0924 02:21:43.374591 23020 net.cpp:399] lstm1_unit_1 -> h_1
I0924 02:21:43.374415 23034 net.cpp:141] Setting up embedding
I0924 02:21:43.374640 23034 net.cpp:148] Top shape: 1 1 500 (500)
I0924 02:21:43.374649 23034 net.cpp:156] Memory required for data: 22408
I0924 02:21:43.374667 23034 layer_factory.hpp:77] Creating layer lstm1
I0924 02:21:43.374685 23034 net.cpp:91] Creating Layer lstm1
I0924 02:21:43.374693 23034 net.cpp:425] lstm1 <- embedded_input_frames
I0924 02:21:43.374703 23034 net.cpp:425] lstm1 <- cont_sentence_input_1_split_0
I0924 02:21:43.374718 23034 net.cpp:399] lstm1 -> lstm1
I0924 02:21:43.374737 23034 recurrent_layer.cpp:20] Initializing recurrent layer: assuming input batch contains 1 timesteps of 1 independent streams.
I0924 02:21:43.375172 23034 net.cpp:49] Initializing net from parameters: 
layer {
  name: "lstm1_"
  type: "Input"
  top: "x"
  top: "cont"
  input_param {
    shape {
      dim: 1
      dim: 1
      dim: 500
    }
    shape {
      dim: 1
      dim: 1
    }
  }
}
layer {
  name: "lstm1_"
  type: "Input"
  top: "c_0"
  top: "h_0"
  input_param {
    shape {
      dim: 1
      dim: 1
      dim: 1000
    }
    shape {
      dim: 1
      dim: 1
      dim: 1000
    }
  }
}
layer {
  name: "lstm1_cont_slice"
  type: "Slice"
  bottom: "cont"
  top: "cont_1"
  slice_param {
    axis: 0
  }
}
layer {
  name: "lstm1_x_transform"
  type: "InnerProduct"
  bottom: "x"
  top: "W_xc_x"
  param {
    name: "W_xc"
  }
  param {
    name: "b_c"
  }
  propagate_down: true
  inner_product_param {
    num_output: 4000
    bias_term: true
    weight_filler {
      type: "uniform"
      min: -0.08
      max: 0.08
    }
    bias_filler {
      type: "constant"
      value: 0
    }
    axis: 2
  }
}
layer {
  name: "lstm1_W_xc_x_slice"
  type: "Slice"
  bottom: "W_xc_x"
  top: "W_xc_x_1"
  slice_param {
    axis: 0
  }
}
layer {
  name: "lstm1_h_conted_0"
  type: "Scale"
  bottom: "h_0"
  bottom: "cont_1"
  top: "h_conted_0"
  scale_param {
    axis: 0
  }
}
layer {
  name: "lstm1_transform_1"
  type: "InnerProduct"
  bottom: "h_conted_0"
  top: "W_hc_h_0"
  param {
    name: "W_hc"
  }
  inner_product_param {
    num_output: 4000
    bias_term: false
    weight_filler {
      type: "uniform"
      min: -0.08
      max: 0.08
    }
    axis: 2
  }
}
layer {
  name: "lstm1_gate_input_1"
  type: "Eltwise"
  bottom: "W_hc_h_0"
  bottom: "W_xc_x_1"
  top: "gate_input_1"
  eltwise_param {
    operation: SUM
  }
}
layer {
  name: "lstm1_unit_1"
  type: "LSTMUnit"
  bottom: "c_0"
  bottom: "gate_input_1"
  bottom: "cont_1"
  top: "c_1"
  top: "h_1"
}
layer {
  name: "lstm1_"
  type: "Split"
  bottom: "c_1"
  top: "c_T"
}
layer {
  name: "lstm1_h_concat"
  type: "Concat"
  bottom: "h_1"
  top: "h"
  concat_param {
    axis: 0
  }
}
layer {
  name: "h_pseudoloss"
  type: "Reduction"
  bottom: "h"
  top: "h_pseudoloss"
  loss_weight: 1
}
I0924 02:21:43.375313 23034 layer_factory.hpp:77] Creating layer lstm1_
I0924 02:21:43.375332 23034 net.cpp:91] Creating Layer lstm1_
I0924 02:21:43.375344 23034 net.cpp:399] lstm1_ -> x
I0924 02:21:43.375361 23034 net.cpp:399] lstm1_ -> cont
I0924 02:21:43.380422 23034 net.cpp:141] Setting up lstm1_
I0924 02:21:43.380453 23034 net.cpp:148] Top shape: 1 1 500 (500)
I0924 02:21:43.380465 23034 net.cpp:148] Top shape: 1 1 (1)
I0924 02:21:43.380471 23034 net.cpp:156] Memory required for data: 2004
I0924 02:21:43.380482 23034 layer_factory.hpp:77] Creating layer lstm1_
I0924 02:21:43.380502 23034 net.cpp:91] Creating Layer lstm1_
I0924 02:21:43.380520 23034 net.cpp:399] lstm1_ -> c_0
I0924 02:21:43.380542 23034 net.cpp:399] lstm1_ -> h_0
I0924 02:21:43.380625 23034 net.cpp:141] Setting up lstm1_
I0924 02:21:43.380640 23034 net.cpp:148] Top shape: 1 1 1000 (1000)
I0924 02:21:43.380650 23034 net.cpp:148] Top shape: 1 1 1000 (1000)
I0924 02:21:43.380657 23034 net.cpp:156] Memory required for data: 10004
I0924 02:21:43.380666 23034 layer_factory.hpp:77] Creating layer lstm1_cont_slice
I0924 02:21:43.380681 23034 net.cpp:91] Creating Layer lstm1_cont_slice
I0924 02:21:43.380688 23034 net.cpp:425] lstm1_cont_slice <- cont
I0924 02:21:43.380704 23034 net.cpp:399] lstm1_cont_slice -> cont_1
I0924 02:21:43.380753 23034 net.cpp:141] Setting up lstm1_cont_slice
I0924 02:21:43.380767 23034 net.cpp:148] Top shape: 1 1 (1)
I0924 02:21:43.380774 23034 net.cpp:156] Memory required for data: 10008
I0924 02:21:43.380781 23034 layer_factory.hpp:77] Creating layer cont_1_lstm1_cont_slice_0_split
I0924 02:21:43.380910 23034 net.cpp:91] Creating Layer cont_1_lstm1_cont_slice_0_split
I0924 02:21:43.380923 23034 net.cpp:425] cont_1_lstm1_cont_slice_0_split <- cont_1
I0924 02:21:43.380934 23034 net.cpp:399] cont_1_lstm1_cont_slice_0_split -> cont_1_lstm1_cont_slice_0_split_0
I0924 02:21:43.380947 23034 net.cpp:399] cont_1_lstm1_cont_slice_0_split -> cont_1_lstm1_cont_slice_0_split_1
I0924 02:21:43.381026 23034 net.cpp:141] Setting up cont_1_lstm1_cont_slice_0_split
I0924 02:21:43.381039 23034 net.cpp:148] Top shape: 1 1 (1)
I0924 02:21:43.381049 23034 net.cpp:148] Top shape: 1 1 (1)
I0924 02:21:43.381057 23034 net.cpp:156] Memory required for data: 10016
I0924 02:21:43.381063 23034 layer_factory.hpp:77] Creating layer lstm1_x_transform
I0924 02:21:43.381081 23034 net.cpp:91] Creating Layer lstm1_x_transform
I0924 02:21:43.381089 23034 net.cpp:425] lstm1_x_transform <- x
I0924 02:21:43.381103 23034 net.cpp:399] lstm1_x_transform -> W_xc_x
I0924 02:21:43.381170 23020 net.cpp:141] Setting up lstm1_unit_1
I0924 02:21:43.381186 23020 net.cpp:148] Top shape: 1 1 1000 (1000)
I0924 02:21:43.381196 23020 net.cpp:148] Top shape: 1 1 1000 (1000)
I0924 02:21:43.381202 23020 net.cpp:156] Memory required for data: 86016
I0924 02:21:43.381209 23020 layer_factory.hpp:77] Creating layer lstm1_
I0924 02:21:43.381220 23020 net.cpp:91] Creating Layer lstm1_
I0924 02:21:43.381229 23020 net.cpp:425] lstm1_ <- c_1
I0924 02:21:43.381243 23020 net.cpp:399] lstm1_ -> c_T
I0924 02:21:43.381290 23020 net.cpp:141] Setting up lstm1_
I0924 02:21:43.381302 23020 net.cpp:148] Top shape: 1 1 1000 (1000)
I0924 02:21:43.381309 23020 net.cpp:156] Memory required for data: 90016
I0924 02:21:43.381317 23020 layer_factory.hpp:77] Creating layer lstm1_h_concat
I0924 02:21:43.381331 23020 net.cpp:91] Creating Layer lstm1_h_concat
I0924 02:21:43.381340 23020 net.cpp:425] lstm1_h_concat <- h_1
I0924 02:21:43.381351 23020 net.cpp:399] lstm1_h_concat -> h
I0924 02:21:43.386893 23020 net.cpp:141] Setting up lstm1_h_concat
I0924 02:21:43.386945 23020 net.cpp:148] Top shape: 1 1 1000 (1000)
I0924 02:21:43.386955 23020 net.cpp:156] Memory required for data: 94016
I0924 02:21:43.386967 23020 layer_factory.hpp:77] Creating layer h_pseudoloss
I0924 02:21:43.387004 23020 net.cpp:91] Creating Layer h_pseudoloss
I0924 02:21:43.387017 23020 net.cpp:425] h_pseudoloss <- h
I0924 02:21:43.387032 23020 net.cpp:399] h_pseudoloss -> h_pseudoloss
I0924 02:21:43.388739 23020 net.cpp:141] Setting up h_pseudoloss
…
I0924 02:21:43.388945 23020 net.cpp:219] lstm1_ does not need backward computation.
I0924 02:21:43.388953 23020 net.cpp:261] This network produces output c_T
I0924 02:21:43.388965 23020 net.cpp:261] This network produces output h_pseudoloss
I0924 02:21:43.388993 23020 net.cpp:274] Network initialization done.
I0924 02:21:43.389081 23020 recurrent_layer.cpp:150] Adding parameter 0: W_xc
I0924 02:21:43.389093 23020 recurrent_layer.cpp:150] Adding parameter 1: b_c
I0924 02:21:43.389101 23020 recurrent_layer.cpp:150] Adding parameter 2: W_hc
I0924 02:21:43.390738 23020 net.cpp:141] Setting up lstm1
I0924 02:21:43.390756 23020 net.cpp:148] Top shape: 1 1 1000 (1000)
I0924 02:21:43.390764 23020 net.cpp:156] Memory required for data: 26408
I0924 02:21:43.390789 23020 layer_factory.hpp:77] Creating layer concat
I0924 02:21:43.390810 23020 net.cpp:91] Creating Layer concat
I0924 02:21:43.390818 23020 net.cpp:425] concat <- lstm1
I0924 02:21:43.390830 23020 net.cpp:425] concat <- embedded_input_sentence
I0924 02:21:43.390838 23020 net.cpp:425] concat <- reshaped_stage_indicator
I0924 02:21:43.390849 23020 net.cpp:399] concat -> lstm1_video_sequence
I0924 02:21:43.392653 23020 net.cpp:141] Setting up concat
I0924 02:21:43.392673 23020 net.cpp:148] Top shape: 1 1 1501 (1501)
I0924 02:21:43.392680 23020 net.cpp:156] Memory required for data: 32412
I0924 02:21:43.392688 23020 layer_factory.hpp:77] Creating layer lstm2
I0924 02:21:43.392751 23020 net.cpp:91] Creating Layer lstm2
I0924 02:21:43.392763 23020 net.cpp:425] lstm2 <- lstm1_video_sequence
I0924 02:21:43.392774 23020 net.cpp:425] lstm2 <- cont_sentence_input_1_split_1
I0924 02:21:43.392787 23020 net.cpp:399] lstm2 -> lstm2
I0924 02:21:43.392805 23020 recurrent_layer.cpp:20] Initializing recurrent layer: assuming input batch contains 1 timesteps of 1 independent streams.
I0924 02:21:43.393218 23020 net.cpp:49] Initializing net from parameters: 
layer {
  name: "lstm2_"
  type: "Input"
  top: "x"
  top: "cont"
  input_param {
    shape {
      dim: 1
      dim: 1
      dim: 1501
    }
    shape {
      dim: 1
      dim: 1
    }
  }
}
layer {
  name: "lstm2_"
  type: "Input"
  top: "c_0"
  top: "h_0"
  input_param {
    shape {
      dim: 1
      dim: 1
      dim: 1000
    }
    shape {
      dim: 1
      dim: 1
      dim: 1000
    }
  }
}
layer {
  name: "lstm2_cont_slice"
  type: "Slice"
  bottom: "cont"
  top: "cont_1"
  slice_param {
    axis: 0
  }
}
layer {
  name: "lstm2_x_transform"
  type: "InnerProduct"
  bottom: "x"
  top: "W_xc_x"
  param {
    name: "W_xc"
  }
  param {
    name: "b_c"
  }
  propagate_down: true
  inner_product_param {
    num_output: 4000
    bias_term: true
    weight_filler {
      type: "uniform"
      min: -0.08
      max: 0.08
    }
    bias_filler {
      type: "constant"
      value: 0
    }
    axis: 2
  }
}
layer {
  name: "lstm2_W_xc_x_slice"
  type: "Slice"
  bottom: "W_xc_x"
  top: "W_xc_x_1"
  slice_param {
    axis: 0
  }
}
layer {
  name: "lstm2_h_conted_0"
  type: "Scale"
  bottom: "h_0"
  bottom: "cont_1"
  top: "h_conted_0"
  scale_param {
    axis: 0
  }
}
layer {
  name: "lstm2_transform_1"
  type: "InnerProduct"
  bottom: "h_conted_0"
  top: "W_hc_h_0"
  param {
    name: "W_hc"
  }
  inner_product_param {
    num_output: 4000
    bias_term: false
    weight_filler {
      type: "uniform"
      min: -0.08
      max: 0.08
    }
    axis: 2
  }
}
layer {
  name: "lstm2_gate_input_1"
  type: "Eltwise"
  bottom: "W_hc_h_0"
  bottom: "W_xc_x_1"
  top: "gate_input_1"
  eltwise_param {
    operation: SUM
  }
}
layer {
  name: "lstm2_unit_1"
  type: "LSTMUnit"
  bottom: "c_0"
  bottom: "gate_input_1"
  bottom: "cont_1"
  top: "c_1"
  top: "h_1"
}
layer {
  name: "lstm2_"
  type: "Split"
  bottom: "c_1"
  top: "c_T"
}
layer {
  name: "lstm2_h_concat"
  type: "Concat"
  bottom: "h_1"
  top: "h"
  concat_param {
    axis: 0
  }
}
layer {
  name: "h_pseudoloss"
  type: "Reduction"
  bottom: "h"
  top: "h_pseudoloss"
  loss_weight: 1
}
I0924 02:21:43.393352 23020 layer_factory.hpp:77] Creating layer lstm2_
I0924 02:21:43.393370 23020 net.cpp:91] Creating Layer lstm2_
I0924 02:21:43.393381 23020 net.cpp:399] lstm2_ -> x
I0924 02:21:43.393399 23020 net.cpp:399] lstm2_ -> cont
I0924 02:21:43.397171 23020 net.cpp:141] Setting up lstm2_
I0924 02:21:43.397197 23020 net.cpp:148] Top shape: 1 1 1501 (1501)
I0924 02:21:43.397208 23020 net.cpp:148] Top shape: 1 1 (1)
I0924 02:21:43.397215 23020 net.cpp:156] Memory required for data: 6008
I0924 02:21:43.397224 23020 layer_factory.hpp:77] Creating layer lstm2_
I0924 02:21:43.397251 23020 net.cpp:91] Creating Layer lstm2_
I0924 02:21:43.397264 23020 net.cpp:399] lstm2_ -> c_0
I0924 02:21:43.397284 23020 net.cpp:399] lstm2_ -> h_0
I0924 02:21:43.397475 23020 net.cpp:141] Setting up lstm2_
I0924 02:21:43.397490 23020 net.cpp:148] Top shape: 1 1 1000 (1000)
I0924 02:21:43.397500 23020 net.cpp:148] Top shape: 1 1 1000 (1000)
I0924 02:21:43.397506 23020 net.cpp:156] Memory required for data: 14008
I0924 02:21:43.397514 23020 layer_factory.hpp:77] Creating layer lstm2_cont_slice
I0924 02:21:43.397529 23020 net.cpp:91] Creating Layer lstm2_cont_slice
I0924 02:21:43.397538 23020 net.cpp:425] lstm2_cont_slice <- cont
I0924 02:21:43.397550 23020 net.cpp:399] lstm2_cont_slice -> cont_1
I0924 02:21:43.399117 23020 net.cpp:141] Setting up lstm2_cont_slice
I0924 02:21:43.399134 23020 net.cpp:148] Top shape: 1 1 (1)
I0924 02:21:43.399142 23020 net.cpp:156] Memory required for data: 14012
I0924 02:21:43.399150 23020 layer_factory.hpp:77] Creating layer cont_1_lstm2_cont_slice_0_split
I0924 02:21:43.399163 23020 net.cpp:91] Creating Layer cont_1_lstm2_cont_slice_0_split
I0924 02:21:43.399217 23020 net.cpp:425] cont_1_lstm2_cont_slice_0_split <- cont_1
I0924 02:21:43.399235 23020 net.cpp:399] cont_1_lstm2_cont_slice_0_split -> cont_1_lstm2_cont_slice_0_split_0
I0924 02:21:43.399250 23020 net.cpp:399] cont_1_lstm2_cont_slice_0_split -> cont_1_lstm2_cont_slice_0_split_1
I0924 02:21:43.399374 23020 net.cpp:141] Setting up cont_1_lstm2_cont_slice_0_split
I0924 02:21:43.399394 23020 net.cpp:148] Top shape: 1 1 (1)
I0924 02:21:43.399404 23020 net.cpp:148] Top shape: 1 1 (1)
I0924 02:21:43.399410 23020 net.cpp:156] Memory required for data: 14020
I0924 02:21:43.399416 23020 layer_factory.hpp:77] Creating layer lstm2_x_transform
I0924 02:21:43.399435 23020 net.cpp:91] Creating Layer lstm2_x_transform
I0924 02:21:43.399443 23020 net.cpp:425] lstm2_x_transform <- x
I0924 02:21:43.399459 23020 net.cpp:399] lstm2_x_transform -> W_xc_x
I0924 02:21:43.402791 23040 net.cpp:141] Setting up lstm1_transform_1
I0924 02:21:43.402819 23040 net.cpp:148] Top shape: 1 1 4000 (4000)
I0924 02:21:43.402830 23040 net.cpp:156] Memory required for data: 62016
I0924 02:21:43.402853 23040 layer_factory.hpp:77] Creating layer lstm1_gate_input_1
I0924 02:21:43.402885 23040 net.cpp:91] Creating Layer lstm1_gate_input_1
I0924 02:21:43.402899 23040 net.cpp:425] lstm1_gate_input_1 <- W_hc_h_0
I0924 02:21:43.402914 23040 net.cpp:425] lstm1_gate_input_1 <- W_xc_x_1
I0924 02:21:43.402928 23040 net.cpp:399] lstm1_gate_input_1 -> gate_input_1
I0924 02:21:43.420059 23040 net.cpp:141] Setting up lstm1_gate_input_1
I0924 02:21:43.420145 23040 net.cpp:148] Top shape: 1 1 4000 (4000)
I0924 02:21:43.420164 23040 net.cpp:156] Memory required for data: 78016
I0924 02:21:43.420171 23016 net.cpp:141] Setting up embedding
I0924 02:21:43.420183 23040 layer_factory.hpp:77] Creating layer lstm1_unit_1
I0924 02:21:43.420192 23016 net.cpp:148] Top shape: 1 1 500 (500)
I0924 02:21:43.420200 23016 net.cpp:156] Memory required for data: 22408
I0924 02:21:43.420210 23040 net.cpp:91] Creating Layer lstm1_unit_1
I0924 02:21:43.420222 23040 net.cpp:425] lstm1_unit_1 <- c_0
I0924 02:21:43.420224 23016 layer_factory.hpp:77] Creating layer lstm1
I0924 02:21:43.420236 23040 net.cpp:425] lstm1_unit_1 <- gate_input_1
I0924 02:21:43.420248 23040 net.cpp:425] lstm1_unit_1 <- cont_1_lstm1_cont_slice_0_split_1
…
I0924 02:21:43.420312 23016 recurrent_layer.cpp:20] Initializing recurrent layer: assuming input batch contains 1 timesteps of 1 independent streams.
I0924 02:21:43.420889 23016 net.cpp:49] Initializing net from parameters: 
layer {
  name: "lstm1_"
  type: "Input"
  top: "x"
  top: "cont"
  input_param {
    shape {
      dim: 1
      dim: 1
      dim: 500
    }
    shape {
      dim: 1
      dim: 1
    }
  }
}
layer {
  name: "lstm1_"
  type: "Input"
  top: "c_0"
  top: "h_0"
  input_param {
    shape {
      dim: 1
      dim: 1
      dim: 1000
    }
    shape {
      dim: 1
      dim: 1
      dim: 1000
    }
  }
}
layer {
  name: "lstm1_cont_slice"
  type: "Slice"
  bottom: "cont"
  top: "cont_1"
  slice_param {
    axis: 0
  }
}
layer {
  name: "lstm1_x_transform"
  type: "InnerProduct"
  bottom: "x"
  top: "W_xc_x"
  param {
    name: "W_xc"
  }
  param {
    name: "b_c"
  }
  propagate_down: true
  inner_product_param {
    num_output: 4000
    bias_term: true
    weight_filler {
      type: "uniform"
      min: -0.08
      max: 0.08
    }
    bias_filler {
      type: "constant"
      value: 0
    }
    axis: 2
  }
}
layer {
  name: "lstm1_W_xc_x_slice"
  type: "Slice"
  bottom: "W_xc_x"
  top: "W_xc_x_1"
  slice_param {
    axis: 0
  }
}
layer {
  name: "lstm1_h_conted_0"
  type: "Scale"
  bottom: "h_0"
  bottom: "cont_1"
  top: "h_conted_0"
  scale_param {
    axis: 0
  }
}
layer {
  name: "lstm1_transform_1"
  type: "InnerProduct"
  bottom: "h_conted_0"
  top: "W_hc_h_0"
  param {
    name: "W_hc"
  }
  inner_product_param {
    num_output: 4000
    bias_term: false
    weight_filler {
      type: "uniform"
      min: -0.08
      max: 0.08
    }
    axis: 2
  }
}
layer {
  name: "lstm1_gate_input_1"
  type: "Eltwise"
  bottom: "W_hc_h_0"
  bottom: "W_xc_x_1"
  top: "gate_input_1"
  eltwise_param {
    operation: SUM
  }
}
layer {
  name: "lstm1_unit_1"
  type: "LSTMUnit"
  bottom: "c_0"
  bottom: "gate_input_1"
  bottom: "cont_1"
  top: "c_1"
  top: "h_1"
}
layer {
  name: "lstm1_"
  type: "Split"
  bottom: "c_1"
  top: "c_T"
}
layer {
  name: "lstm1_h_concat"
  type: "Concat"
  bottom: "h_1"
  top: "h"
  concat_param {
    axis: 0
  }
}
layer {
  name: "h_pseudoloss"
  type: "Reduction"
  bottom: "h"
  top: "h_pseudoloss"
  loss_weight: 1
}
I0924 02:21:43.421082 23016 layer_factory.hpp:77] Creating layer lstm1_
I0924 02:21:43.421104 23016 net.cpp:91] Creating Layer lstm1_
I0924 02:21:43.421116 23016 net.cpp:399] lstm1_ -> x
I0924 02:21:43.421139 23016 net.cpp:399] lstm1_ -> cont
I0924 02:21:43.430522 23034 net.cpp:141] Setting up lstm1_x_transform
I0924 02:21:43.430574 23034 net.cpp:148] Top shape: 1 1 4000 (4000)
I0924 02:21:43.430584 23034 net.cpp:156] Memory required for data: 26016
I0924 02:21:43.430629 23034 layer_factory.hpp:77] Creating layer lstm1_W_xc_x_slice
I0924 02:21:43.430655 23034 net.cpp:91] Creating Layer lstm1_W_xc_x_slice
I0924 02:21:43.430666 23034 net.cpp:425] lstm1_W_xc_x_slice <- W_xc_x
I0924 02:21:43.430680 23034 net.cpp:399] lstm1_W_xc_x_slice -> W_xc_x_1
I0924 02:21:43.430761 23040 net.cpp:141] Setting up lstm1_unit_1
I0924 02:21:43.430783 23040 net.cpp:148] Top shape: 1 1 1000 (1000)
I0924 02:21:43.430794 23040 net.cpp:148] Top shape: 1 1 1000 (1000)
I0924 02:21:43.430800 23040 net.cpp:156] Memory required for data: 86016
I0924 02:21:43.430810 23040 layer_factory.hpp:77] Creating layer lstm1_
I0924 02:21:43.430824 23040 net.cpp:91] Creating Layer lstm1_
I0924 02:21:43.430833 23040 net.cpp:425] lstm1_ <- c_1
I0924 02:21:43.430845 23040 net.cpp:399] lstm1_ -> c_T
I0924 02:21:43.430888 23034 net.cpp:141] Setting up lstm1_W_xc_x_slice
I0924 02:21:43.430938 23034 net.cpp:148] Top shape: 1 1 4000 (4000)
I0924 02:21:43.430949 23034 net.cpp:156] Memory required for data: 42016
I0924 02:21:43.430963 23034 layer_factory.hpp:77] Creating layer lstm1_h_conted_0
I0924 02:21:43.430989 23034 net.cpp:91] Creating Layer lstm1_h_conted_0
I0924 02:21:43.431000 23034 net.cpp:425] lstm1_h_conted_0 <- h_0
I0924 02:21:43.431016 23034 net.cpp:425] lstm1_h_conted_0 <- cont_1_lstm1_cont_slice_0_split_0
I0924 02:21:43.431032 23034 net.cpp:399] lstm1_h_conted_0 -> h_conted_0
I0924 02:21:43.434608 23040 net.cpp:141] Setting up lstm1_
I0924 02:21:43.434633 23040 net.cpp:148] Top shape: 1 1 1000 (1000)
I0924 02:21:43.434640 23040 net.cpp:156] Memory required for data: 90016
I0924 02:21:43.434649 23040 layer_factory.hpp:77] Creating layer lstm1_h_concat
I0924 02:21:43.434666 23040 net.cpp:91] Creating Layer lstm1_h_concat
I0924 02:21:43.434674 23040 net.cpp:425] lstm1_h_concat <- h_1
I0924 02:21:43.434686 23040 net.cpp:399] lstm1_h_concat -> h
I0924 02:21:43.434721 23016 net.cpp:141] Setting up lstm1_
I0924 02:21:43.434751 23016 net.cpp:148] Top shape: 1 1 500 (500)
I0924 02:21:43.434758 23016 net.cpp:148] Top shape: 1 1 (1)
I0924 02:21:43.434767 23016 net.cpp:156] Memory required for data: 2004
I0924 02:21:43.434773 23040 net.cpp:141] Setting up lstm1_h_concat
I0924 02:21:43.434779 23016 layer_factory.hpp:77] Creating layer lstm1_
I0924 02:21:43.434790 23040 net.cpp:148] Top shape: 1 1 1000 (1000)
I0924 02:21:43.434798 23040 net.cpp:156] Memory required for data: 94016
I0924 02:21:43.434806 23040 layer_factory.hpp:77] Creating layer h_pseudoloss
I0924 02:21:43.434806 23016 net.cpp:91] Creating Layer lstm1_
I0924 02:21:43.434820 23040 net.cpp:91] Creating Layer h_pseudoloss
I0924 02:21:43.434828 23016 net.cpp:399] lstm1_ -> c_0
I0924 02:21:43.434830 23040 net.cpp:425] h_pseudoloss <- h
I0924 02:21:43.434866 23016 net.cpp:399] lstm1_ -> h_0
I0924 02:21:43.434876 23040 net.cpp:399] h_pseudoloss -> h_pseudoloss
I0924 02:21:43.434932 23034 net.cpp:141] Setting up lstm1_h_conted_0
I0924 02:21:43.434959 23034 net.cpp:148] Top shape: 1 1 1000 (1000)
I0924 02:21:43.434968 23034 net.cpp:156] Memory required for data: 46016
I0924 02:21:43.434978 23034 layer_factory.hpp:77] Creating layer lstm1_transform_1
I0924 02:21:43.435000 23034 net.cpp:91] Creating Layer lstm1_transform_1
I0924 02:21:43.435012 23034 net.cpp:425] lstm1_transform_1 <- h_conted_0
I0924 02:21:43.435029 23034 net.cpp:399] lstm1_transform_1 -> W_hc_h_0
I0924 02:21:43.435030 23016 net.cpp:141] Setting up lstm1_
I0924 02:21:43.435056 23016 net.cpp:148] Top shape: 1 1 1000 (1000)
I0924 02:21:43.435070 23016 net.cpp:148] Top shape: 1 1 1000 (1000)
I0924 02:21:43.435078 23016 net.cpp:156] Memory required for data: 10004
I0924 02:21:43.435088 23016 layer_factory.hpp:77] Creating layer lstm1_cont_slice
I0924 02:21:43.435106 23016 net.cpp:91] Creating Layer lstm1_cont_slice
I0924 02:21:43.435117 23016 net.cpp:425] lstm1_cont_slice <- cont
I0924 02:21:43.435132 23016 net.cpp:399] lstm1_cont_slice -> cont_1
I0924 02:21:43.435204 23016 net.cpp:141] Setting up lstm1_cont_slice
I0924 02:21:43.435221 23016 net.cpp:148] Top shape: 1 1 (1)
I0924 02:21:43.435230 23016 net.cpp:156] Memory required for data: 10008
I0924 02:21:43.435238 23016 layer_factory.hpp:77] Creating layer cont_1_lstm1_cont_slice_0_split
I0924 02:21:43.435257 23016 net.cpp:91] Creating Layer cont_1_lstm1_cont_slice_0_split
I0924 02:21:43.435267 23016 net.cpp:425] cont_1_lstm1_cont_slice_0_split <- cont_1
I0924 02:21:43.435279 23016 net.cpp:399] cont_1_lstm1_cont_slice_0_split -> cont_1_lstm1_cont_slice_0_split_0
…
I0924 02:21:43.444531 23040 net.cpp:219] lstm1_ does not need backward computation.
I0924 02:21:43.444538 23040 net.cpp:261] This network produces output c_T
I0924 02:21:43.444548 23040 net.cpp:261] This network produces output h_pseudoloss
I0924 02:21:43.444576 23040 net.cpp:274] Network initialization done.
I0924 02:21:43.444658 23040 recurrent_layer.cpp:150] Adding parameter 0: W_xc
I0924 02:21:43.444670 23040 recurrent_layer.cpp:150] Adding parameter 1: b_c
I0924 02:21:43.444679 23040 recurrent_layer.cpp:150] Adding parameter 2: W_hc
I0924 02:21:43.444865 23040 net.cpp:141] Setting up lstm1
I0924 02:21:43.444883 23040 net.cpp:148] Top shape: 1 1 1000 (1000)
I0924 02:21:43.444891 23040 net.cpp:156] Memory required for data: 26408
I0924 02:21:43.444916 23040 layer_factory.hpp:77] Creating layer concat
I0924 02:21:43.444936 23040 net.cpp:91] Creating Layer concat
I0924 02:21:43.444947 23040 net.cpp:425] concat <- lstm1
I0924 02:21:43.444959 23040 net.cpp:425] concat <- embedded_input_sentence
I0924 02:21:43.444969 23040 net.cpp:425] concat <- reshaped_stage_indicator
I0924 02:21:43.444982 23040 net.cpp:399] concat -> lstm1_video_sequence
I0924 02:21:43.445042 23040 net.cpp:141] Setting up concat
I0924 02:21:43.445057 23040 net.cpp:148] Top shape: 1 1 1501 (1501)
I0924 02:21:43.445065 23040 net.cpp:156] Memory required for data: 32412
I0924 02:21:43.445072 23040 layer_factory.hpp:77] Creating layer lstm2
I0924 02:21:43.445094 23040 net.cpp:91] Creating Layer lstm2
I0924 02:21:43.445103 23040 net.cpp:425] lstm2 <- lstm1_video_sequence
I0924 02:21:43.445114 23040 net.cpp:425] lstm2 <- cont_sentence_input_1_split_1
I0924 02:21:43.445127 23040 net.cpp:399] lstm2 -> lstm2
I0924 02:21:43.445144 23040 recurrent_layer.cpp:20] Initializing recurrent layer: assuming input batch contains 1 timesteps of 1 independent streams.
I0924 02:21:43.445545 23040 net.cpp:49] Initializing net from parameters: 
layer {
  name: "lstm2_"
  type: "Input"
  top: "x"
  top: "cont"
  input_param {
    shape {
      dim: 1
      dim: 1
      dim: 1501
    }
    shape {
      dim: 1
      dim: 1
    }
  }
}
layer {
  name: "lstm2_"
  type: "Input"
  top: "c_0"
  top: "h_0"
  input_param {
    shape {
      dim: 1
      dim: 1
      dim: 1000
    }
    shape {
      dim: 1
      dim: 1
      dim: 1000
    }
  }
}
layer {
  name: "lstm2_cont_slice"
  type: "Slice"
  bottom: "cont"
  top: "cont_1"
  slice_param {
    axis: 0
  }
}
layer {
  name: "lstm2_x_transform"
  type: "InnerProduct"
  bottom: "x"
  top: "W_xc_x"
  param {
    name: "W_xc"
  }
  param {
    name: "b_c"
  }
  propagate_down: true
  inner_product_param {
    num_output: 4000
    bias_term: true
    weight_filler {
      type: "uniform"
      min: -0.08
      max: 0.08
    }
    bias_filler {
      type: "constant"
      value: 0
    }
    axis: 2
  }
}
layer {
  name: "lstm2_W_xc_x_slice"
  type: "Slice"
  bottom: "W_xc_x"
  top: "W_xc_x_1"
  slice_param {
    axis: 0
  }
}
layer {
  name: "lstm2_h_conted_0"
  type: "Scale"
  bottom: "h_0"
  bottom: "cont_1"
  top: "h_conted_0"
  scale_param {
    axis: 0
  }
}
layer {
  name: "lstm2_transform_1"
  type: "InnerProduct"
  bottom: "h_conted_0"
  top: "W_hc_h_0"
  param {
    name: "W_hc"
  }
  inner_product_param {
    num_output: 4000
    bias_term: false
    weight_filler {
      type: "uniform"
      min: -0.08
      max: 0.08
    }
    axis: 2
  }
}
layer {
  name: "lstm2_gate_input_1"
  type: "Eltwise"
  bottom: "W_hc_h_0"
  bottom: "W_xc_x_1"
  top: "gate_input_1"
  eltwise_param {
    operation: SUM
  }
}
layer {
  name: "lstm2_unit_1"
  type: "LSTMUnit"
  bottom: "c_0"
  bottom: "gate_input_1"
  bottom: "cont_1"
  top: "c_1"
  top: "h_1"
}
layer {
  name: "lstm2_"
  type: "Split"
  bottom: "c_1"
  top: "c_T"
}
layer {
  name: "lstm2_h_concat"
  type: "Concat"
  bottom: "h_1"
  top: "h"
  concat_param {
    axis: 0
  }
}
layer {
  name: "h_pseudoloss"
  type: "Reduction"
  bottom: "h"
  top: "h_pseudoloss"
  loss_weight: 1
}
I0924 02:21:43.445689 23040 layer_factory.hpp:77] Creating layer lstm2_
I0924 02:21:43.445708 23040 net.cpp:91] Creating Layer lstm2_
I0924 02:21:43.445719 23040 net.cpp:399] lstm2_ -> x
I0924 02:21:43.445737 23040 net.cpp:399] lstm2_ -> cont
I0924 02:21:43.445818 23040 net.cpp:141] Setting up lstm2_
I0924 02:21:43.445833 23040 net.cpp:148] Top shape: 1 1 1501 (1501)
I0924 02:21:43.445844 23040 net.cpp:148] Top shape: 1 1 (1)
I0924 02:21:43.445852 23040 net.cpp:156] Memory required for data: 6008
I0924 02:21:43.445859 23040 layer_factory.hpp:77] Creating layer lstm2_
I0924 02:21:43.445874 23040 net.cpp:91] Creating Layer lstm2_
I0924 02:21:43.445890 23040 net.cpp:399] lstm2_ -> c_0
I0924 02:21:43.445907 23040 net.cpp:399] lstm2_ -> h_0
I0924 02:21:43.445986 23040 net.cpp:141] Setting up lstm2_
I0924 02:21:43.446000 23040 net.cpp:148] Top shape: 1 1 1000 (1000)
I0924 02:21:43.446010 23040 net.cpp:148] Top shape: 1 1 1000 (1000)
I0924 02:21:43.446018 23040 net.cpp:156] Memory required for data: 14008
I0924 02:21:43.446027 23040 layer_factory.hpp:77] Creating layer lstm2_cont_slice
I0924 02:21:43.446040 23040 net.cpp:91] Creating Layer lstm2_cont_slice
I0924 02:21:43.446049 23040 net.cpp:425] lstm2_cont_slice <- cont
I0924 02:21:43.446061 23040 net.cpp:399] lstm2_cont_slice -> cont_1
I0924 02:21:43.446110 23040 net.cpp:141] Setting up lstm2_cont_slice
I0924 02:21:43.446123 23040 net.cpp:148] Top shape: 1 1 (1)
I0924 02:21:43.446131 23040 net.cpp:156] Memory required for data: 14012
I0924 02:21:43.446138 23040 layer_factory.hpp:77] Creating layer cont_1_lstm2_cont_slice_0_split
I0924 02:21:43.446156 23040 net.cpp:91] Creating Layer cont_1_lstm2_cont_slice_0_split
I0924 02:21:43.446163 23040 net.cpp:425] cont_1_lstm2_cont_slice_0_split <- cont_1
I0924 02:21:43.446176 23040 net.cpp:399] cont_1_lstm2_cont_slice_0_split -> cont_1_lstm2_cont_slice_0_split_0
I0924 02:21:43.446189 23040 net.cpp:399] cont_1_lstm2_cont_slice_0_split -> cont_1_lstm2_cont_slice_0_split_1
I0924 02:21:43.446264 23040 net.cpp:141] Setting up cont_1_lstm2_cont_slice_0_split
I0924 02:21:43.446279 23040 net.cpp:148] Top shape: 1 1 (1)
I0924 02:21:43.446288 23040 net.cpp:148] Top shape: 1 1 (1)
I0924 02:21:43.446296 23040 net.cpp:156] Memory required for data: 14020
I0924 02:21:43.446305 23040 layer_factory.hpp:77] Creating layer lstm2_x_transform
I0924 02:21:43.446324 23040 net.cpp:91] Creating Layer lstm2_x_transform
I0924 02:21:43.446333 23040 net.cpp:425] lstm2_x_transform <- x
I0924 02:21:43.446346 23040 net.cpp:399] lstm2_x_transform -> W_xc_x
I0924 02:21:43.462898 23016 net.cpp:141] Setting up cont_1_lstm1_cont_slice_0_split
I0924 02:21:43.462949 23016 net.cpp:148] Top shape: 1 1 (1)
I0924 02:21:43.462961 23016 net.cpp:148] Top shape: 1 1 (1)
I0924 02:21:43.462970 23016 net.cpp:156] Memory required for data: 10016
I0924 02:21:43.462981 23016 layer_factory.hpp:77] Creating layer lstm1_x_transform
I0924 02:21:43.463013 23016 net.cpp:91] Creating Layer lstm1_x_transform
I0924 02:21:43.463024 23016 net.cpp:425] lstm1_x_transform <- x
I0924 02:21:43.463048 23016 net.cpp:399] lstm1_x_transform -> W_xc_x
I0924 02:21:43.481075 23020 net.cpp:141] Setting up lstm2_x_transform
I0924 02:21:43.481124 23020 net.cpp:148] Top shape: 1 1 4000 (4000)
I0924 02:21:43.481134 23020 net.cpp:156] Memory required for data: 30020
I0924 02:21:43.481163 23020 layer_factory.hpp:77] Creating layer lstm2_W_xc_x_slice
I0924 02:21:43.481189 23020 net.cpp:91] Creating Layer lstm2_W_xc_x_slice
I0924 02:21:43.481200 23020 net.cpp:425] lstm2_W_xc_x_slice <- W_xc_x
I0924 02:21:43.481215 23020 net.cpp:399] lstm2_W_xc_x_slice -> W_xc_x_1
I0924 02:21:43.481287 23020 net.cpp:141] Setting up lstm2_W_xc_x_slice
I0924 02:21:43.481303 23020 net.cpp:148] Top shape: 1 1 4000 (4000)
I0924 02:21:43.481312 23020 net.cpp:156] Memory required for data: 46020
I0924 02:21:43.481319 23020 layer_factory.hpp:77] Creating layer lstm2_h_conted_0
I0924 02:21:43.481335 23020 net.cpp:91] Creating Layer lstm2_h_conted_0
I0924 02:21:43.481344 23020 net.cpp:425] lstm2_h_conted_0 <- h_0
I0924 02:21:43.481354 23020 net.cpp:425] lstm2_h_conted_0 <- cont_1_lstm2_cont_slice_0_split_0
I0924 02:21:43.481365 23020 net.cpp:399] lstm2_h_conted_0 -> h_conted_0
I0924 02:21:43.481519 23020 net.cpp:141] Setting up lstm2_h_conted_0
I0924 02:21:43.481534 23020 net.cpp:148] Top shape: 1 1 1000 (1000)
I0924 02:21:43.481542 23020 net.cpp:156] Memory required for data: 50020
I0924 02:21:43.481551 23020 layer_factory.hpp:77] Creating layer lstm2_transform_1
I0924 02:21:43.481572 23020 net.cpp:91] Creating Layer lstm2_transform_1
I0924 02:21:43.481581 23020 net.cpp:425] lstm2_transform_1 <- h_conted_0
I0924 02:21:43.481600 23020 net.cpp:399] lstm2_transform_1 -> W_hc_h_0
I0924 02:21:43.504127 23034 net.cpp:141] Setting up lstm1_transform_1
I0924 02:21:43.504233 23034 net.cpp:148] Top shape: 1 1 4000 (4000)
I0924 02:21:43.504245 23034 net.cpp:156] Memory required for data: 62016
I0924 02:21:43.504276 23034 layer_factory.hpp:77] Creating layer lstm1_gate_input_1
I0924 02:21:43.504313 23034 net.cpp:91] Creating Layer lstm1_gate_input_1
I0924 02:21:43.504328 23034 net.cpp:425] lstm1_gate_input_1 <- W_hc_h_0
I0924 02:21:43.504340 23034 net.cpp:425] lstm1_gate_input_1 <- W_xc_x_1
I0924 02:21:43.504356 23034 net.cpp:399] lstm1_gate_input_1 -> gate_input_1
I0924 02:21:43.504437 23016 net.cpp:141] Setting up lstm1_x_transform
I0924 02:21:43.504482 23016 net.cpp:148] Top shape: 1 1 4000 (4000)
I0924 02:21:43.504487 23034 net.cpp:141] Setting up lstm1_gate_input_1
I0924 02:21:43.504493 23016 net.cpp:156] Memory required for data: 26016
I0924 02:21:43.504503 23034 net.cpp:148] Top shape: 1 1 4000 (4000)
I0924 02:21:43.504511 23034 net.cpp:156] Memory required for data: 78016
I0924 02:21:43.504519 23034 layer_factory.hpp:77] Creating layer lstm1_unit_1
I0924 02:21:43.504524 23016 layer_factory.hpp:77] Creating layer lstm1_W_xc_x_slice
I0924 02:21:43.504534 23034 net.cpp:91] Creating Layer lstm1_unit_1
I0924 02:21:43.504544 23034 net.cpp:425] lstm1_unit_1 <- c_0
I0924 02:21:43.504549 23016 net.cpp:91] Creating Layer lstm1_W_xc_x_slice
I0924 02:21:43.504554 23034 net.cpp:425] lstm1_unit_1 <- gate_input_1
I0924 02:21:43.504561 23016 net.cpp:425] lstm1_W_xc_x_slice <- W_xc_x
I0924 02:21:43.504565 23034 net.cpp:425] lstm1_unit_1 <- cont_1_lstm1_cont_slice_0_split_1
I0924 02:21:43.504578 23034 net.cpp:399] lstm1_unit_1 -> c_1
I0924 02:21:43.504586 23016 net.cpp:399] lstm1_W_xc_x_slice -> W_xc_x_1
I0924 02:21:43.504592 23034 net.cpp:399] lstm1_unit_1 -> h_1
I0924 02:21:43.508496 23016 net.cpp:141] Setting up lstm1_W_xc_x_slice
I0924 02:21:43.508533 23016 net.cpp:148] Top shape: 1 1 4000 (4000)
I0924 02:21:43.508543 23016 net.cpp:156] Memory required for data: 42016
I0924 02:21:43.508553 23016 layer_factory.hpp:77] Creating layer lstm1_h_conted_0
I0924 02:21:43.508571 23016 net.cpp:91] Creating Layer lstm1_h_conted_0
I0924 02:21:43.508582 23016 net.cpp:425] lstm1_h_conted_0 <- h_0
I0924 02:21:43.508594 23016 net.cpp:425] lstm1_h_conted_0 <- cont_1_lstm1_cont_slice_0_split_0
I0924 02:21:43.508610 23016 net.cpp:399] lstm1_h_conted_0 -> h_conted_0
I0924 02:21:43.508669 23034 net.cpp:141] Setting up lstm1_unit_1
I0924 02:21:43.508697 23034 net.cpp:148] Top shape: 1 1 1000 (1000)
I0924 02:21:43.508708 23034 net.cpp:148] Top shape: 1 1 1000 (1000)
I0924 02:21:43.508714 23034 net.cpp:156] Memory required for data: 86016
I0924 02:21:43.508723 23034 layer_factory.hpp:77] Creating layer lstm1_
I0924 02:21:43.508744 23034 net.cpp:91] Creating Layer lstm1_
I0924 02:21:43.508752 23034 net.cpp:425] lstm1_ <- c_1
I0924 02:21:43.508765 23034 net.cpp:399] lstm1_ -> c_T
I0924 02:21:43.508862 23016 net.cpp:141] Setting up lstm1_h_conted_0
I0924 02:21:43.508882 23016 net.cpp:148] Top shape: 1 1 1000 (1000)
I0924 02:21:43.508889 23016 net.cpp:156] Memory required for data: 46016
I0924 02:21:43.508898 23016 layer_factory.hpp:77] Creating layer lstm1_transform_1
I0924 02:21:43.508910 23034 net.cpp:141] Setting up lstm1_
I0924 02:21:43.508919 23016 net.cpp:91] Creating Layer lstm1_transform_1
I0924 02:21:43.508927 23034 net.cpp:148] Top shape: 1 1 1000 (1000)
I0924 02:21:43.508930 23016 net.cpp:425] lstm1_transform_1 <- h_conted_0
I0924 02:21:43.508935 23034 net.cpp:156] Memory required for data: 90016
I0924 02:21:43.508944 23034 layer_factory.hpp:77] Creating layer lstm1_h_concat
I0924 02:21:43.508951 23016 net.cpp:399] lstm1_transform_1 -> W_hc_h_0
I0924 02:21:43.508960 23034 net.cpp:91] Creating Layer lstm1_h_concat
I0924 02:21:43.508970 23034 net.cpp:425] lstm1_h_concat <- h_1
I0924 02:21:43.508986 23034 net.cpp:399] lstm1_h_concat -> h
I0924 02:21:43.520041 23034 net.cpp:141] Setting up lstm1_h_concat
I0924 02:21:43.520097 23034 net.cpp:148] Top shape: 1 1 1000 (1000)
I0924 02:21:43.520107 23034 net.cpp:156] Memory required for data: 94016
I0924 02:21:43.520120 23034 layer_factory.hpp:77] Creating layer h_pseudoloss
I0924 02:21:43.520146 23034 net.cpp:91] Creating Layer h_pseudoloss
I0924 02:21:43.520159 23034 net.cpp:425] h_pseudoloss <- h
I0924 02:21:43.520176 23034 net.cpp:399] h_pseudoloss -> h_pseudoloss
I0924 02:21:43.524279 23034 net.cpp:141] Setting up h_pseudoloss
I0924 02:21:43.524309 23034 net.cpp:148] Top shape: (1)
I0924 02:21:43.524318 23034 net.cpp:151]     with loss weight 1
I0924 02:21:43.524344 23034 net.cpp:156] Memory required for data: 94020
I0924 02:21:43.524355 23034 net.cpp:217] h_pseudoloss needs backward computation.
I0924 02:21:43.524354 23040 net.cpp:141] Setting up lstm2_x_transform
I0924 02:21:43.524372 23034 net.cpp:217] lstm1_h_concat needs backward computation.
I0924 02:21:43.524380 23040 net.cpp:148] Top shape: 1 1 4000 (4000)
I0924 02:21:43.524382 23034 net.cpp:219] lstm1_ does not need backward computation.
I0924 02:21:43.524386 23040 net.cpp:156] Memory required for data: 30020
I0924 02:21:43.524391 23034 net.cpp:217] lstm1_unit_1 needs backward computation.
I0924 02:21:43.524404 23040 layer_factory.hpp:77] Creating layer lstm2_W_xc_x_slice
I0924 02:21:43.524402 23034 net.cpp:217] lstm1_gate_input_1 needs backward computation.
…
I0924 02:21:43.524493 23034 net.cpp:219] lstm1_cont_slice does not need backward computation.
I0924 02:21:43.524503 23034 net.cpp:219] lstm1_ does not need backward computation.
I0924 02:21:43.524511 23034 net.cpp:219] lstm1_ does not need backward computation.
I0924 02:21:43.524518 23034 net.cpp:261] This network produces output c_T
I0924 02:21:43.524528 23034 net.cpp:261] This network produces output h_pseudoloss
I0924 02:21:43.524552 23034 net.cpp:274] Network initialization done.
I0924 02:21:43.524576 23040 net.cpp:141] Setting up lstm2_W_xc_x_slice
I0924 02:21:43.524588 23040 net.cpp:148] Top shape: 1 1 4000 (4000)
I0924 02:21:43.524593 23040 net.cpp:156] Memory required for data: 46020
I0924 02:21:43.524598 23040 layer_factory.hpp:77] Creating layer lstm2_h_conted_0
I0924 02:21:43.524610 23040 net.cpp:91] Creating Layer lstm2_h_conted_0
I0924 02:21:43.524616 23040 net.cpp:425] lstm2_h_conted_0 <- h_0
I0924 02:21:43.524622 23040 net.cpp:425] lstm2_h_conted_0 <- cont_1_lstm2_cont_slice_0_split_0
I0924 02:21:43.524631 23040 net.cpp:399] lstm2_h_conted_0 -> h_conted_0
I0924 02:21:43.524633 23034 recurrent_layer.cpp:150] Adding parameter 0: W_xc
I0924 02:21:43.524654 23034 recurrent_layer.cpp:150] Adding parameter 1: b_c
I0924 02:21:43.524665 23034 recurrent_layer.cpp:150] Adding parameter 2: W_hc
I0924 02:21:43.529098 23020 net.cpp:141] Setting up lstm2_transform_1
I0924 02:21:43.529121 23020 net.cpp:148] Top shape: 1 1 4000 (4000)
I0924 02:21:43.529127 23020 net.cpp:156] Memory required for data: 66020
I0924 02:21:43.529140 23020 layer_factory.hpp:77] Creating layer lstm2_gate_input_1
I0924 02:21:43.529157 23020 net.cpp:91] Creating Layer lstm2_gate_input_1
I0924 02:21:43.529163 23020 net.cpp:425] lstm2_gate_input_1 <- W_hc_h_0
I0924 02:21:43.529170 23020 net.cpp:425] lstm2_gate_input_1 <- W_xc_x_1
I0924 02:21:43.529181 23020 net.cpp:399] lstm2_gate_input_1 -> gate_input_1
I0924 02:21:43.529207 23040 net.cpp:141] Setting up lstm2_h_conted_0
I0924 02:21:43.529224 23040 net.cpp:148] Top shape: 1 1 1000 (1000)
I0924 02:21:43.529229 23040 net.cpp:156] Memory required for data: 50020
I0924 02:21:43.529230 23020 net.cpp:141] Setting up lstm2_gate_input_1
I0924 02:21:43.529235 23040 layer_factory.hpp:77] Creating layer lstm2_transform_1
I0924 02:21:43.529242 23020 net.cpp:148] Top shape: 1 1 4000 (4000)
I0924 02:21:43.529247 23020 net.cpp:156] Memory required for data: 82020
I0924 02:21:43.529252 23020 layer_factory.hpp:77] Creating layer lstm2_unit_1
I0924 02:21:43.529250 23040 net.cpp:91] Creating Layer lstm2_transform_1
I0924 02:21:43.529265 23020 net.cpp:91] Creating Layer lstm2_unit_1
I0924 02:21:43.529268 23040 net.cpp:425] lstm2_transform_1 <- h_conted_0
I0924 02:21:43.529271 23020 net.cpp:425] lstm2_unit_1 <- c_0
I0924 02:21:43.529278 23020 net.cpp:425] lstm2_unit_1 <- gate_input_1
I0924 02:21:43.529278 23040 net.cpp:399] lstm2_transform_1 -> W_hc_h_0
I0924 02:21:43.529284 23020 net.cpp:425] lstm2_unit_1 <- cont_1_lstm2_cont_slice_0_split_1
I0924 02:21:43.529290 23020 net.cpp:399] lstm2_unit_1 -> c_1
I0924 02:21:43.529302 23020 net.cpp:399] lstm2_unit_1 -> h_1
I0924 02:21:43.532521 23020 net.cpp:141] Setting up lstm2_unit_1
I0924 02:21:43.532542 23020 net.cpp:148] Top shape: 1 1 1000 (1000)
I0924 02:21:43.532551 23020 net.cpp:148] Top shape: 1 1 1000 (1000)
I0924 02:21:43.532555 23020 net.cpp:156] Memory required for data: 90020
I0924 02:21:43.532560 23034 net.cpp:141] Setting up lstm1
I0924 02:21:43.532560 23020 layer_factory.hpp:77] Creating layer lstm2_
I0924 02:21:43.532593 23034 net.cpp:148] Top shape: 1 1 1000 (1000)
I0924 02:21:43.532600 23020 net.cpp:91] Creating Layer lstm2_
I0924 02:21:43.532604 23034 net.cpp:156] Memory required for data: 26408
I0924 02:21:43.532608 23020 net.cpp:425] lstm2_ <- c_1
I0924 02:21:43.532618 23020 net.cpp:399] lstm2_ -> c_T
I0924 02:21:43.532629 23034 layer_factory.hpp:77] Creating layer concat
I0924 02:21:43.532649 23034 net.cpp:91] Creating Layer concat
I0924 02:21:43.532660 23034 net.cpp:425] concat <- lstm1
I0924 02:21:43.532671 23034 net.cpp:425] concat <- embedded_input_sentence
I0924 02:21:43.532681 23034 net.cpp:425] concat <- reshaped_stage_indicator
I0924 02:21:43.532694 23034 net.cpp:399] concat -> lstm1_video_sequence
I0924 02:21:43.543803 23020 net.cpp:141] Setting up lstm2_
I0924 02:21:43.543844 23034 net.cpp:141] Setting up concat
I0924 02:21:43.543855 23020 net.cpp:148] Top shape: 1 1 1000 (1000)
I0924 02:21:43.543874 23020 net.cpp:156] Memory required for data: 94020
I0924 02:21:43.543875 23034 net.cpp:148] Top shape: 1 1 1501 (1501)
I0924 02:21:43.543884 23020 layer_factory.hpp:77] Creating layer lstm2_h_concat
I0924 02:21:43.543885 23034 net.cpp:156] Memory required for data: 32412
I0924 02:21:43.543895 23034 layer_factory.hpp:77] Creating layer lstm2
I0924 02:21:43.543905 23020 net.cpp:91] Creating Layer lstm2_h_concat
I0924 02:21:43.543912 23020 net.cpp:425] lstm2_h_concat <- h_1
I0924 02:21:43.543921 23034 net.cpp:91] Creating Layer lstm2
I0924 02:21:43.543928 23020 net.cpp:399] lstm2_h_concat -> h
I0924 02:21:43.543933 23034 net.cpp:425] lstm2 <- lstm1_video_sequence
I0924 02:21:43.543946 23034 net.cpp:425] lstm2 <- cont_sentence_input_1_split_1
I0924 02:21:43.543962 23034 net.cpp:399] lstm2 -> lstm2
I0924 02:21:43.543985 23034 recurrent_layer.cpp:20] Initializing recurrent layer: assuming input batch contains 1 timesteps of 1 independent streams.
I0924 02:21:43.544435 23034 net.cpp:49] Initializing net from parameters: 
layer {
  name: "lstm2_"
  type: "Input"
  top: "x"
  top: "cont"
  input_param {
    shape {
      dim: 1
      dim: 1
      dim: 1501
    }
    shape {
      dim: 1
      dim: 1
    }
  }
}
layer {
  name: "lstm2_"
  type: "Input"
  top: "c_0"
  top: "h_0"
  input_param {
    shape {
      dim: 1
      dim: 1
      dim: 1000
    }
    shape {
      dim: 1
      dim: 1
      dim: 1000
    }
  }
}
layer {
  name: "lstm2_cont_slice"
  type: "Slice"
  bottom: "cont"
  top: "cont_1"
  slice_param {
    axis: 0
  }
}
layer {
  name: "lstm2_x_transform"
  type: "InnerProduct"
  bottom: "x"
  top: "W_xc_x"
  param {
    name: "W_xc"
  }
  param {
    name: "b_c"
  }
  propagate_down: true
  inner_product_param {
    num_output: 4000
    bias_term: true
    weight_filler {
      type: "uniform"
      min: -0.08
      max: 0.08
    }
    bias_filler {
      type: "constant"
      value: 0
    }
    axis: 2
  }
}
layer {
  name: "lstm2_W_xc_x_slice"
  type: "Slice"
  bottom: "W_xc_x"
  top: "W_xc_x_1"
  slice_param {
    axis: 0
  }
}
layer {
  name: "lstm2_h_conted_0"
  type: "Scale"
  bottom: "h_0"
  bottom: "cont_1"
  top: "h_conted_0"
  scale_param {
    axis: 0
  }
}
layer {
  name: "lstm2_transform_1"
  type: "InnerProduct"
  bottom: "h_conted_0"
  top: "W_hc_h_0"
  param {
    name: "W_hc"
  }
  inner_product_param {
    num_output: 4000
    bias_term: false
    weight_filler {
      type: "uniform"
      min: -0.08
      max: 0.08
    }
    axis: 2
  }
}
layer {
  name: "lstm2_gate_input_1"
  type: "Eltwise"
  bottom: "W_hc_h_0"
  bottom: "W_xc_x_1"
  top: "gate_input_1"
  eltwise_param {
    operation: SUM
  }
}
layer {
  name: "lstm2_unit_1"
  type: "LSTMUnit"
  bottom: "c_0"
  bottom: "gate_input_1"
  bottom: "cont_1"
  top: "c_1"
  top: "h_1"
}
layer {
  name: "lstm2_"
  type: "Split"
  bottom: "c_1"
  top: "c_T"
}
layer {
  name: "lstm2_h_concat"
  type: "Concat"
  bottom: "h_1"
  top: "h"
  concat_param {
    axis: 0
  }
}
layer {
  name: "h_pseudoloss"
  type: "Reduction"
  bottom: "h"
  top: "h_pseudoloss"
  loss_weight: 1
}
I0924 02:21:43.544592 23034 layer_factory.hpp:77] Creating layer lstm2_
I0924 02:21:43.544615 23034 net.cpp:91] Creating Layer lstm2_
I0924 02:21:43.544630 23034 net.cpp:399] lstm2_ -> x
I0924 02:21:43.544651 23034 net.cpp:399] lstm2_ -> cont
I0924 02:21:43.546701 23020 net.cpp:141] Setting up lstm2_h_concat
I0924 02:21:43.546735 23020 net.cpp:148] Top shape: 1 1 1000 (1000)
I0924 02:21:43.546741 23020 net.cpp:156] Memory required for data: 98020
I0924 02:21:43.546751 23020 layer_factory.hpp:77] Creating layer h_pseudoloss
I0924 02:21:43.546766 23034 net.cpp:141] Setting up lstm2_
I0924 02:21:43.546780 23020 net.cpp:91] Creating Layer h_pseudoloss
I0924 02:21:43.546783 23034 net.cpp:148] Top shape: 1 1 1501 (1501)
I0924 02:21:43.546797 23020 net.cpp:425] h_pseudoloss <- h
I0924 02:21:43.546802 23034 net.cpp:148] Top shape: 1 1 (1)
I0924 02:21:43.546807 23034 net.cpp:156] Memory required for data: 6008
I0924 02:21:43.546813 23034 layer_factory.hpp:77] Creating layer lstm2_
I0924 02:21:43.546811 23020 net.cpp:399] h_pseudoloss -> h_pseudoloss
I0924 02:21:43.546829 23034 net.cpp:91] Creating Layer lstm2_
I0924 02:21:43.546840 23034 net.cpp:399] lstm2_ -> c_0
I0924 02:21:43.546854 23034 net.cpp:399] lstm2_ -> h_0
I0924 02:21:43.546993 23034 net.cpp:141] Setting up lstm2_
I0924 02:21:43.547005 23034 net.cpp:148] Top shape: 1 1 1000 (1000)
I0924 02:21:43.547011 23034 net.cpp:148] Top shape: 1 1 1000 (1000)
I0924 02:21:43.547015 23034 net.cpp:156] Memory required for data: 14008
I0924 02:21:43.547020 23034 layer_factory.hpp:77] Creating layer lstm2_cont_slice
I0924 02:21:43.547034 23034 net.cpp:91] Creating Layer lstm2_cont_slice
I0924 02:21:43.547039 23034 net.cpp:425] lstm2_cont_slice <- cont
I0924 02:21:43.547046 23034 net.cpp:399] lstm2_cont_slice -> cont_1
I0924 02:21:43.547087 23020 net.cpp:141] Setting up h_pseudoloss
…
I0924 02:21:43.547248 23020 net.cpp:219] lstm2_ does not need backward computation.
I0924 02:21:43.547255 23020 net.cpp:261] This network produces output c_T
I0924 02:21:43.547262 23020 net.cpp:261] This network produces output h_pseudoloss
I0924 02:21:43.547289 23020 net.cpp:274] Network initialization done.
I0924 02:21:43.547358 23020 recurrent_layer.cpp:150] Adding parameter 0: W_xc
I0924 02:21:43.547369 23020 recurrent_layer.cpp:150] Adding parameter 1: b_c
I0924 02:21:43.547376 23020 recurrent_layer.cpp:150] Adding parameter 2: W_hc
I0924 02:21:43.547528 23034 net.cpp:141] Setting up lstm2_cont_slice
I0924 02:21:43.547544 23034 net.cpp:148] Top shape: 1 1 (1)
I0924 02:21:43.547549 23034 net.cpp:156] Memory required for data: 14012
I0924 02:21:43.547559 23034 layer_factory.hpp:77] Creating layer cont_1_lstm2_cont_slice_0_split
I0924 02:21:43.547571 23034 net.cpp:91] Creating Layer cont_1_lstm2_cont_slice_0_split
I0924 02:21:43.547580 23034 net.cpp:425] cont_1_lstm2_cont_slice_0_split <- cont_1
I0924 02:21:43.547587 23034 net.cpp:399] cont_1_lstm2_cont_slice_0_split -> cont_1_lstm2_cont_slice_0_split_0
I0924 02:21:43.547597 23034 net.cpp:399] cont_1_lstm2_cont_slice_0_split -> cont_1_lstm2_cont_slice_0_split_1
I0924 02:21:43.547739 23020 net.cpp:141] Setting up lstm2
I0924 02:21:43.547756 23020 net.cpp:148] Top shape: 1 1 1000 (1000)
I0924 02:21:43.547763 23034 net.cpp:141] Setting up cont_1_lstm2_cont_slice_0_split
I0924 02:21:43.547765 23020 net.cpp:156] Memory required for data: 36412
I0924 02:21:43.547785 23034 net.cpp:148] Top shape: 1 1 (1)
I0924 02:21:43.547791 23034 net.cpp:148] Top shape: 1 1 (1)
I0924 02:21:43.547796 23034 net.cpp:156] Memory required for data: 14020
I0924 02:21:43.547801 23034 layer_factory.hpp:77] Creating layer lstm2_x_transform
I0924 02:21:43.547806 23020 layer_factory.hpp:77] Creating layer predict
I0924 02:21:43.547818 23034 net.cpp:91] Creating Layer lstm2_x_transform
I0924 02:21:43.547824 23034 net.cpp:425] lstm2_x_transform <- x
I0924 02:21:43.547823 23020 net.cpp:91] Creating Layer predict
I0924 02:21:43.547838 23034 net.cpp:399] lstm2_x_transform -> W_xc_x
I0924 02:21:43.547842 23020 net.cpp:425] predict <- lstm2
I0924 02:21:43.547857 23020 net.cpp:399] predict -> predict
I0924 02:21:43.650949 23040 net.cpp:141] Setting up lstm2_transform_1
I0924 02:21:43.651010 23040 net.cpp:148] Top shape: 1 1 4000 (4000)
I0924 02:21:43.651020 23040 net.cpp:156] Memory required for data: 66020
I0924 02:21:43.651051 23040 layer_factory.hpp:77] Creating layer lstm2_gate_input_1
I0924 02:21:43.651088 23016 net.cpp:141] Setting up lstm1_transform_1
I0924 02:21:43.651108 23040 net.cpp:91] Creating Layer lstm2_gate_input_1
I0924 02:21:43.651136 23016 net.cpp:148] Top shape: 1 1 4000 (4000)
I0924 02:21:43.651144 23040 net.cpp:425] lstm2_gate_input_1 <- W_hc_h_0
I0924 02:21:43.651145 23016 net.cpp:156] Memory required for data: 62016
I0924 02:21:43.651163 23040 net.cpp:425] lstm2_gate_input_1 <- W_xc_x_1
I0924 02:21:43.651180 23040 net.cpp:399] lstm2_gate_input_1 -> gate_input_1
I0924 02:21:43.651185 23016 layer_factory.hpp:77] Creating layer lstm1_gate_input_1
I0924 02:21:43.651212 23016 net.cpp:91] Creating Layer lstm1_gate_input_1
I0924 02:21:43.651221 23016 net.cpp:425] lstm1_gate_input_1 <- W_hc_h_0
I0924 02:21:43.651232 23016 net.cpp:425] lstm1_gate_input_1 <- W_xc_x_1
I0924 02:21:43.651240 23016 net.cpp:399] lstm1_gate_input_1 -> gate_input_1
I0924 02:21:43.651934 23016 net.cpp:141] Setting up lstm1_gate_input_1
I0924 02:21:43.651960 23016 net.cpp:148] Top shape: 1 1 4000 (4000)
I0924 02:21:43.651969 23016 net.cpp:156] Memory required for data: 78016
I0924 02:21:43.651975 23016 layer_factory.hpp:77] Creating layer lstm1_unit_1
I0924 02:21:43.651988 23016 net.cpp:91] Creating Layer lstm1_unit_1
I0924 02:21:43.651994 23016 net.cpp:425] lstm1_unit_1 <- c_0
I0924 02:21:43.652003 23016 net.cpp:425] lstm1_unit_1 <- gate_input_1
I0924 02:21:43.652009 23016 net.cpp:425] lstm1_unit_1 <- cont_1_lstm1_cont_slice_0_split_1
I0924 02:21:43.652024 23016 net.cpp:399] lstm1_unit_1 -> c_1
I0924 02:21:43.652036 23016 net.cpp:399] lstm1_unit_1 -> h_1
I0924 02:21:43.652062 23040 net.cpp:141] Setting up lstm2_gate_input_1
I0924 02:21:43.652096 23040 net.cpp:148] Top shape: 1 1 4000 (4000)
I0924 02:21:43.652104 23040 net.cpp:156] Memory required for data: 82020
I0924 02:21:43.652114 23040 layer_factory.hpp:77] Creating layer lstm2_unit_1
I0924 02:21:43.652137 23040 net.cpp:91] Creating Layer lstm2_unit_1
I0924 02:21:43.652145 23016 net.cpp:141] Setting up lstm1_unit_1
I0924 02:21:43.652146 23040 net.cpp:425] lstm2_unit_1 <- c_0
I0924 02:21:43.652164 23016 net.cpp:148] Top shape: 1 1 1000 (1000)
I0924 02:21:43.652189 23040 net.cpp:425] lstm2_unit_1 <- gate_input_1
I0924 02:21:43.652192 23016 net.cpp:148] Top shape: 1 1 1000 (1000)
I0924 02:21:43.652209 23040 net.cpp:425] lstm2_unit_1 <- cont_1_lstm2_cont_slice_0_split_1
I0924 02:21:43.652214 23016 net.cpp:156] Memory required for data: 86016
I0924 02:21:43.652221 23016 layer_factory.hpp:77] Creating layer lstm1_
I0924 02:21:43.652222 23040 net.cpp:399] lstm2_unit_1 -> c_1
I0924 02:21:43.652231 23016 net.cpp:91] Creating Layer lstm1_
I0924 02:21:43.652238 23016 net.cpp:425] lstm1_ <- c_1
I0924 02:21:43.652241 23040 net.cpp:399] lstm2_unit_1 -> h_1
I0924 02:21:43.652246 23016 net.cpp:399] lstm1_ -> c_T
I0924 02:21:43.652339 23016 net.cpp:141] Setting up lstm1_
I0924 02:21:43.652351 23016 net.cpp:148] Top shape: 1 1 1000 (1000)
I0924 02:21:43.652357 23016 net.cpp:156] Memory required for data: 90016
I0924 02:21:43.652362 23016 layer_factory.hpp:77] Creating layer lstm1_h_concat
I0924 02:21:43.652374 23016 net.cpp:91] Creating Layer lstm1_h_concat
I0924 02:21:43.652382 23016 net.cpp:425] lstm1_h_concat <- h_1
I0924 02:21:43.652391 23016 net.cpp:399] lstm1_h_concat -> h
I0924 02:21:43.652457 23040 net.cpp:141] Setting up lstm2_unit_1
I0924 02:21:43.652473 23040 net.cpp:148] Top shape: 1 1 1000 (1000)
I0924 02:21:43.652483 23040 net.cpp:148] Top shape: 1 1 1000 (1000)
I0924 02:21:43.652490 23040 net.cpp:156] Memory required for data: 90020
I0924 02:21:43.652498 23040 layer_factory.hpp:77] Creating layer lstm2_
I0924 02:21:43.652503 23016 net.cpp:141] Setting up lstm1_h_concat
I0924 02:21:43.652516 23016 net.cpp:148] Top shape: 1 1 1000 (1000)
I0924 02:21:43.652529 23016 net.cpp:156] Memory required for data: 94016
I0924 02:21:43.652515 23040 net.cpp:91] Creating Layer lstm2_
I0924 02:21:43.652534 23016 layer_factory.hpp:77] Creating layer h_pseudoloss
I0924 02:21:43.652541 23040 net.cpp:425] lstm2_ <- c_1
I0924 02:21:43.652551 23016 net.cpp:91] Creating Layer h_pseudoloss
I0924 02:21:43.652555 23040 net.cpp:399] lstm2_ -> c_T
I0924 02:21:43.652559 23016 net.cpp:425] h_pseudoloss <- h
I0924 02:21:43.652570 23016 net.cpp:399] h_pseudoloss -> h_pseudoloss
I0924 02:21:43.652664 23040 net.cpp:141] Setting up lstm2_
I0924 02:21:43.652680 23040 net.cpp:148] Top shape: 1 1 1000 (1000)
I0924 02:21:43.652688 23040 net.cpp:156] Memory required for data: 94020
I0924 02:21:43.652695 23040 layer_factory.hpp:77] Creating layer lstm2_h_concat
I0924 02:21:43.652714 23040 net.cpp:91] Creating Layer lstm2_h_concat
I0924 02:21:43.652722 23040 net.cpp:425] lstm2_h_concat <- h_1
I0924 02:21:43.652734 23040 net.cpp:399] lstm2_h_concat -> h
I0924 02:21:43.653121 23040 net.cpp:141] Setting up lstm2_h_concat
I0924 02:21:43.653137 23040 net.cpp:148] Top shape: 1 1 1000 (1000)
I0924 02:21:43.653144 23040 net.cpp:156] Memory required for data: 98020
I0924 02:21:43.653153 23040 layer_factory.hpp:77] Creating layer h_pseudoloss
I0924 02:21:43.653167 23040 net.cpp:91] Creating Layer h_pseudoloss
I0924 02:21:43.653167 23016 net.cpp:141] Setting up h_pseudoloss
I0924 02:21:43.653182 23040 net.cpp:425] h_pseudoloss <- h
I0924 02:21:43.653198 23016 net.cpp:148] Top shape: (1)
…
I0924 02:21:43.653539 23040 net.cpp:219] cont_1_lstm2_cont_slice_0_split does not need backward computation.
I0924 02:21:43.653548 23040 net.cpp:219] lstm2_cont_slice does not need backward computation.
I0924 02:21:43.653558 23040 net.cpp:219] lstm2_ does not need backward computation.
I0924 02:21:43.653564 23040 net.cpp:219] lstm2_ does not need backward computation.
I0924 02:21:43.653571 23040 net.cpp:261] This network produces output c_T
I0924 02:21:43.653579 23040 net.cpp:261] This network produces output h_pseudoloss
I0924 02:21:43.653580 23016 net.cpp:141] Setting up lstm1
I0924 02:21:43.653595 23016 net.cpp:148] Top shape: 1 1 1000 (1000)
I0924 02:21:43.653600 23016 net.cpp:156] Memory required for data: 26408
I0924 02:21:43.653604 23040 net.cpp:274] Network initialization done.
I0924 02:21:43.653619 23016 layer_factory.hpp:77] Creating layer concat
I0924 02:21:43.653630 23016 net.cpp:91] Creating Layer concat
I0924 02:21:43.653640 23016 net.cpp:425] concat <- lstm1
I0924 02:21:43.653647 23016 net.cpp:425] concat <- embedded_input_sentence
I0924 02:21:43.653655 23016 net.cpp:425] concat <- reshaped_stage_indicator
I0924 02:21:43.653661 23016 net.cpp:399] concat -> lstm1_video_sequence
I0924 02:21:43.653677 23040 recurrent_layer.cpp:150] Adding parameter 0: W_xc
I0924 02:21:43.653687 23040 recurrent_layer.cpp:150] Adding parameter 1: b_c
I0924 02:21:43.653694 23040 recurrent_layer.cpp:150] Adding parameter 2: W_hc
I0924 02:21:43.653892 23016 net.cpp:141] Setting up concat
I0924 02:21:43.653905 23016 net.cpp:148] Top shape: 1 1 1501 (1501)
I0924 02:21:43.653910 23016 net.cpp:156] Memory required for data: 32412
I0924 02:21:43.653916 23016 layer_factory.hpp:77] Creating layer lstm2
I0924 02:21:43.653933 23016 net.cpp:91] Creating Layer lstm2
I0924 02:21:43.653939 23016 net.cpp:425] lstm2 <- lstm1_video_sequence
I0924 02:21:43.653946 23016 net.cpp:425] lstm2 <- cont_sentence_input_1_split_1
I0924 02:21:43.653955 23016 net.cpp:399] lstm2 -> lstm2
I0924 02:21:43.653964 23040 net.cpp:141] Setting up lstm2
I0924 02:21:43.653970 23016 recurrent_layer.cpp:20] Initializing recurrent layer: assuming input batch contains 1 timesteps of 1 independent streams.
I0924 02:21:43.653986 23040 net.cpp:148] Top shape: 1 1 1000 (1000)
I0924 02:21:43.653995 23040 net.cpp:156] Memory required for data: 36412
I0924 02:21:43.654017 23040 layer_factory.hpp:77] Creating layer predict
I0924 02:21:43.654037 23040 net.cpp:91] Creating Layer predict
I0924 02:21:43.654047 23040 net.cpp:425] predict <- lstm2
I0924 02:21:43.654058 23040 net.cpp:399] predict -> predict
I0924 02:21:43.728444 23016 net.cpp:49] Initializing net from parameters: 
layer {
  name: "lstm2_"
  type: "Input"
  top: "x"
  top: "cont"
  input_param {
    shape {
      dim: 1
      dim: 1
      dim: 1501
    }
    shape {
      dim: 1
      dim: 1
    }
  }
}
layer {
  name: "lstm2_"
  type: "Input"
  top: "c_0"
  top: "h_0"
  input_param {
    shape {
      dim: 1
      dim: 1
      dim: 1000
    }
    shape {
      dim: 1
      dim: 1
      dim: 1000
    }
  }
}
layer {
  name: "lstm2_cont_slice"
  type: "Slice"
  bottom: "cont"
  top: "cont_1"
  slice_param {
    axis: 0
  }
}
layer {
  name: "lstm2_x_transform"
  type: "InnerProduct"
  bottom: "x"
  top: "W_xc_x"
  param {
    name: "W_xc"
  }
  param {
    name: "b_c"
  }
  propagate_down: true
  inner_product_param {
    num_output: 4000
    bias_term: true
    weight_filler {
      type: "uniform"
      min: -0.08
      max: 0.08
    }
    bias_filler {
      type: "constant"
      value: 0
    }
    axis: 2
  }
}
layer {
  name: "lstm2_W_xc_x_slice"
  type: "Slice"
  bottom: "W_xc_x"
  top: "W_xc_x_1"
  slice_param {
    axis: 0
  }
}
layer {
  name: "lstm2_h_conted_0"
  type: "Scale"
  bottom: "h_0"
  bottom: "cont_1"
  top: "h_conted_0"
  scale_param {
    axis: 0
  }
}
layer {
  name: "lstm2_transform_1"
  type: "InnerProduct"
  bottom: "h_conted_0"
  top: "W_hc_h_0"
  param {
    name: "W_hc"
  }
  inner_product_param {
    num_output: 4000
    bias_term: false
    weight_filler {
      type: "uniform"
      min: -0.08
      max: 0.08
    }
    axis: 2
  }
}
layer {
  name: "lstm2_gate_input_1"
  type: "Eltwise"
  bottom: "W_hc_h_0"
  bottom: "W_xc_x_1"
  top: "gate_input_1"
  eltwise_param {
    operation: SUM
  }
}
layer {
  name: "lstm2_unit_1"
  type: "LSTMUnit"
  bottom: "c_0"
  bottom: "gate_input_1"
  bottom: "cont_1"
  top: "c_1"
  top: "h_1"
}
layer {
  name: "lstm2_"
  type: "Split"
  bottom: "c_1"
  top: "c_T"
}
layer {
  name: "lstm2_h_concat"
  type: "Concat"
  bottom: "h_1"
  top: "h"
  concat_param {
    axis: 0
  }
}
layer {
  name: "h_pseudoloss"
  type: "Reduction"
  bottom: "h"
  top: "h_pseudoloss"
  loss_weight: 1
}
I0924 02:21:43.728653 23016 layer_factory.hpp:77] Creating layer lstm2_
I0924 02:21:43.728672 23016 net.cpp:91] Creating Layer lstm2_
I0924 02:21:43.728682 23016 net.cpp:399] lstm2_ -> x
I0924 02:21:43.728704 23016 net.cpp:399] lstm2_ -> cont
I0924 02:21:43.735627 23042 net.cpp:141] Setting up conv1
I0924 02:21:43.735688 23042 net.cpp:148] Top shape: 10 96 55 55 (2904000)
I0924 02:21:43.735700 23042 net.cpp:156] Memory required for data: 17799480
I0924 02:21:43.735733 23042 layer_factory.hpp:77] Creating layer relu1
I0924 02:21:43.735761 23042 net.cpp:91] Creating Layer relu1
I0924 02:21:43.735774 23042 net.cpp:425] relu1 <- conv1
I0924 02:21:43.735788 23042 net.cpp:386] relu1 -> conv1 (in-place)
I0924 02:21:43.736048 23034 net.cpp:141] Setting up lstm2_x_transform
I0924 02:21:43.736096 23034 net.cpp:148] Top shape: 1 1 4000 (4000)
I0924 02:21:43.736106 23034 net.cpp:156] Memory required for data: 30020
I0924 02:21:43.736140 23034 layer_factory.hpp:77] Creating layer lstm2_W_xc_x_slice
I0924 02:21:43.736155 23016 net.cpp:141] Setting up lstm2_
I0924 02:21:43.736166 23034 net.cpp:91] Creating Layer lstm2_W_xc_x_slice
I0924 02:21:43.736176 23016 net.cpp:148] Top shape: 1 1 1501 (1501)
I0924 02:21:43.736178 23034 net.cpp:425] lstm2_W_xc_x_slice <- W_xc_x
I0924 02:21:43.736186 23016 net.cpp:148] Top shape: 1 1 (1)
I0924 02:21:43.736191 23016 net.cpp:156] Memory required for data: 6008
I0924 02:21:43.736198 23016 layer_factory.hpp:77] Creating layer lstm2_
I0924 02:21:43.736202 23034 net.cpp:399] lstm2_W_xc_x_slice -> W_xc_x_1
I0924 02:21:43.736217 23016 net.cpp:91] Creating Layer lstm2_
I0924 02:21:43.736276 23016 net.cpp:399] lstm2_ -> c_0
I0924 02:21:43.736301 23016 net.cpp:399] lstm2_ -> h_0
I0924 02:21:43.736804 23016 net.cpp:141] Setting up lstm2_
I0924 02:21:43.736819 23016 net.cpp:148] Top shape: 1 1 1000 (1000)
I0924 02:21:43.736825 23016 net.cpp:148] Top shape: 1 1 1000 (1000)
I0924 02:21:43.736830 23016 net.cpp:156] Memory required for data: 14008
I0924 02:21:43.736836 23016 layer_factory.hpp:77] Creating layer lstm2_cont_slice
I0924 02:21:43.736856 23016 net.cpp:91] Creating Layer lstm2_cont_slice
I0924 02:21:43.736863 23016 net.cpp:425] lstm2_cont_slice <- cont
I0924 02:21:43.736873 23016 net.cpp:399] lstm2_cont_slice -> cont_1
I0924 02:21:43.736902 23034 net.cpp:141] Setting up lstm2_W_xc_x_slice
I0924 02:21:43.736930 23034 net.cpp:148] Top shape: 1 1 4000 (4000)
I0924 02:21:43.736937 23016 net.cpp:141] Setting up lstm2_cont_slice
I0924 02:21:43.736940 23034 net.cpp:156] Memory required for data: 46020
I0924 02:21:43.736949 23016 net.cpp:148] Top shape: 1 1 (1)
I0924 02:21:43.736953 23034 layer_factory.hpp:77] Creating layer lstm2_h_conted_0
I0924 02:21:43.736955 23016 net.cpp:156] Memory required for data: 14012
I0924 02:21:43.736974 23016 layer_factory.hpp:77] Creating layer cont_1_lstm2_cont_slice_0_split
I0924 02:21:43.736980 23034 net.cpp:91] Creating Layer lstm2_h_conted_0
I0924 02:21:43.736985 23016 net.cpp:91] Creating Layer cont_1_lstm2_cont_slice_0_split
I0924 02:21:43.736997 23034 net.cpp:425] lstm2_h_conted_0 <- h_0
I0924 02:21:43.737002 23016 net.cpp:425] cont_1_lstm2_cont_slice_0_split <- cont_1
I0924 02:21:43.737012 23034 net.cpp:425] lstm2_h_conted_0 <- cont_1_lstm2_cont_slice_0_split_0
I0924 02:21:43.737017 23016 net.cpp:399] cont_1_lstm2_cont_slice_0_split -> cont_1_lstm2_cont_slice_0_split_0
I0924 02:21:43.737030 23016 net.cpp:399] cont_1_lstm2_cont_slice_0_split -> cont_1_lstm2_cont_slice_0_split_1
I0924 02:21:43.737035 23034 net.cpp:399] lstm2_h_conted_0 -> h_conted_0
I0924 02:21:43.737061 23042 net.cpp:141] Setting up relu1
I0924 02:21:43.737083 23042 net.cpp:148] Top shape: 10 96 55 55 (2904000)
I0924 02:21:43.737093 23042 net.cpp:156] Memory required for data: 29415480
I0924 02:21:43.737102 23016 net.cpp:141] Setting up cont_1_lstm2_cont_slice_0_split
I0924 02:21:43.737103 23042 layer_factory.hpp:77] Creating layer pool1
I0924 02:21:43.737114 23016 net.cpp:148] Top shape: 1 1 (1)
I0924 02:21:43.737123 23016 net.cpp:148] Top shape: 1 1 (1)
I0924 02:21:43.737128 23016 net.cpp:156] Memory required for data: 14020
I0924 02:21:43.737125 23042 net.cpp:91] Creating Layer pool1
I0924 02:21:43.737140 23016 layer_factory.hpp:77] Creating layer lstm2_x_transform
I0924 02:21:43.737154 23042 net.cpp:425] pool1 <- conv1
I0924 02:21:43.737169 23016 net.cpp:91] Creating Layer lstm2_x_transform
I0924 02:21:43.737170 23042 net.cpp:399] pool1 -> pool1
I0924 02:21:43.737175 23016 net.cpp:425] lstm2_x_transform <- x
I0924 02:21:43.737185 23016 net.cpp:399] lstm2_x_transform -> W_xc_x
I0924 02:21:43.737294 23034 net.cpp:141] Setting up lstm2_h_conted_0
I0924 02:21:43.737313 23034 net.cpp:148] Top shape: 1 1 1000 (1000)
I0924 02:21:43.737321 23034 net.cpp:156] Memory required for data: 50020
I0924 02:21:43.737329 23034 layer_factory.hpp:77] Creating layer lstm2_transform_1
I0924 02:21:43.737349 23034 net.cpp:91] Creating Layer lstm2_transform_1
I0924 02:21:43.737359 23034 net.cpp:425] lstm2_transform_1 <- h_conted_0
I0924 02:21:43.737378 23034 net.cpp:399] lstm2_transform_1 -> W_hc_h_0
I0924 02:21:43.737442 23042 net.cpp:141] Setting up pool1
I0924 02:21:43.737462 23042 net.cpp:148] Top shape: 10 96 27 27 (699840)
I0924 02:21:43.737471 23042 net.cpp:156] Memory required for data: 32214840
I0924 02:21:43.737480 23042 layer_factory.hpp:77] Creating layer norm1
I0924 02:21:43.737509 23042 net.cpp:91] Creating Layer norm1
I0924 02:21:43.737519 23042 net.cpp:425] norm1 <- pool1
I0924 02:21:43.737532 23042 net.cpp:399] norm1 -> norm1
I0924 02:21:43.761715 23042 net.cpp:141] Setting up norm1
I0924 02:21:43.761781 23042 net.cpp:148] Top shape: 10 96 27 27 (699840)
I0924 02:21:43.761793 23042 net.cpp:156] Memory required for data: 35014200
I0924 02:21:43.761806 23042 layer_factory.hpp:77] Creating layer conv2
I0924 02:21:43.761837 23042 net.cpp:91] Creating Layer conv2
I0924 02:21:43.761849 23042 net.cpp:425] conv2 <- norm1
I0924 02:21:43.761868 23042 net.cpp:399] conv2 -> conv2
I0924 02:21:43.767601 23042 net.cpp:141] Setting up conv2
I0924 02:21:43.767658 23042 net.cpp:148] Top shape: 10 256 27 27 (1866240)
I0924 02:21:43.767668 23042 net.cpp:156] Memory required for data: 42479160
I0924 02:21:43.767704 23042 layer_factory.hpp:77] Creating layer relu2
I0924 02:21:43.767727 23042 net.cpp:91] Creating Layer relu2
I0924 02:21:43.767737 23042 net.cpp:425] relu2 <- conv2
I0924 02:21:43.767756 23042 net.cpp:386] relu2 -> conv2 (in-place)
I0924 02:21:43.768384 23042 net.cpp:141] Setting up relu2
I0924 02:21:43.768404 23042 net.cpp:148] Top shape: 10 256 27 27 (1866240)
I0924 02:21:43.768414 23042 net.cpp:156] Memory required for data: 49944120
I0924 02:21:43.768424 23042 layer_factory.hpp:77] Creating layer pool2
I0924 02:21:43.768440 23042 net.cpp:91] Creating Layer pool2
I0924 02:21:43.768451 23042 net.cpp:425] pool2 <- conv2
I0924 02:21:43.768465 23042 net.cpp:399] pool2 -> pool2
I0924 02:21:43.768569 23042 net.cpp:141] Setting up pool2
I0924 02:21:43.768586 23042 net.cpp:148] Top shape: 10 256 13 13 (432640)
I0924 02:21:43.768594 23042 net.cpp:156] Memory required for data: 51674680
I0924 02:21:43.768602 23042 layer_factory.hpp:77] Creating layer norm2
I0924 02:21:43.768621 23042 net.cpp:91] Creating Layer norm2
I0924 02:21:43.768631 23042 net.cpp:425] norm2 <- pool2
I0924 02:21:43.768648 23042 net.cpp:399] norm2 -> norm2
I0924 02:21:43.769106 23042 net.cpp:141] Setting up norm2
I0924 02:21:43.769124 23042 net.cpp:148] Top shape: 10 256 13 13 (432640)
I0924 02:21:43.769132 23042 net.cpp:156] Memory required for data: 53405240
I0924 02:21:43.769141 23042 layer_factory.hpp:77] Creating layer conv3
I0924 02:21:43.769163 23042 net.cpp:91] Creating Layer conv3
I0924 02:21:43.769173 23042 net.cpp:425] conv3 <- norm2
I0924 02:21:43.769191 23042 net.cpp:399] conv3 -> conv3
I0924 02:21:43.775015 23042 net.cpp:141] Setting up conv3
I0924 02:21:43.775076 23042 net.cpp:148] Top shape: 10 384 13 13 (648960)
I0924 02:21:43.775089 23042 net.cpp:156] Memory required for data: 56001080
I0924 02:21:43.775120 23042 layer_factory.hpp:77] Creating layer relu3
I0924 02:21:43.775146 23042 net.cpp:91] Creating Layer relu3
I0924 02:21:43.775158 23042 net.cpp:425] relu3 <- conv3
I0924 02:21:43.775172 23042 net.cpp:386] relu3 -> conv3 (in-place)
I0924 02:21:43.775581 23042 net.cpp:141] Setting up relu3
I0924 02:21:43.775600 23042 net.cpp:148] Top shape: 10 384 13 13 (648960)
I0924 02:21:43.775609 23042 net.cpp:156] Memory required for data: 58596920
I0924 02:21:43.775617 23042 layer_factory.hpp:77] Creating layer conv4
I0924 02:21:43.775641 23042 net.cpp:91] Creating Layer conv4
I0924 02:21:43.775651 23042 net.cpp:425] conv4 <- conv3
I0924 02:21:43.775665 23042 net.cpp:399] conv4 -> conv4
I0924 02:21:43.782433 23042 net.cpp:141] Setting up conv4
I0924 02:21:43.782498 23042 net.cpp:148] Top shape: 10 384 13 13 (648960)
I0924 02:21:43.782510 23042 net.cpp:156] Memory required for data: 61192760
I0924 02:21:43.782531 23042 layer_factory.hpp:77] Creating layer relu4
I0924 02:21:43.782559 23042 net.cpp:91] Creating Layer relu4
I0924 02:21:43.782570 23042 net.cpp:425] relu4 <- conv4
I0924 02:21:43.782584 23042 net.cpp:386] relu4 -> conv4 (in-place)
I0924 02:21:43.783207 23042 net.cpp:141] Setting up relu4
I0924 02:21:43.783228 23042 net.cpp:148] Top shape: 10 384 13 13 (648960)
I0924 02:21:43.783237 23042 net.cpp:156] Memory required for data: 63788600
I0924 02:21:43.783246 23042 layer_factory.hpp:77] Creating layer conv5
I0924 02:21:43.783272 23042 net.cpp:91] Creating Layer conv5
I0924 02:21:43.783282 23042 net.cpp:425] conv5 <- conv4
I0924 02:21:43.783295 23042 net.cpp:399] conv5 -> conv5
I0924 02:21:43.789134 23042 net.cpp:141] Setting up conv5
I0924 02:21:43.789191 23042 net.cpp:148] Top shape: 10 256 13 13 (432640)
I0924 02:21:43.789201 23042 net.cpp:156] Memory required for data: 65519160
I0924 02:21:43.789235 23042 layer_factory.hpp:77] Creating layer relu5
I0924 02:21:43.789258 23042 net.cpp:91] Creating Layer relu5
I0924 02:21:43.789270 23042 net.cpp:425] relu5 <- conv5
I0924 02:21:43.789288 23042 net.cpp:386] relu5 -> conv5 (in-place)
I0924 02:21:43.789911 23042 net.cpp:141] Setting up relu5
I0924 02:21:43.789934 23042 net.cpp:148] Top shape: 10 256 13 13 (432640)
I0924 02:21:43.789944 23042 net.cpp:156] Memory required for data: 67249720
I0924 02:21:43.789953 23042 layer_factory.hpp:77] Creating layer pool5
I0924 02:21:43.789970 23042 net.cpp:91] Creating Layer pool5
I0924 02:21:43.789980 23042 net.cpp:425] pool5 <- conv5
I0924 02:21:43.789997 23042 net.cpp:399] pool5 -> pool5
I0924 02:21:43.790108 23042 net.cpp:141] Setting up pool5
I0924 02:21:43.790129 23042 net.cpp:148] Top shape: 10 256 6 6 (92160)
I0924 02:21:43.790138 23042 net.cpp:156] Memory required for data: 67618360
I0924 02:21:43.790148 23042 layer_factory.hpp:77] Creating layer fc6
I0924 02:21:43.790169 23042 net.cpp:91] Creating Layer fc6
I0924 02:21:43.790177 23042 net.cpp:425] fc6 <- pool5
I0924 02:21:43.790190 23042 net.cpp:399] fc6 -> fc6
I0924 02:21:43.870496 23034 net.cpp:141] Setting up lstm2_transform_1
I0924 02:21:43.870556 23034 net.cpp:148] Top shape: 1 1 4000 (4000)
I0924 02:21:43.870566 23034 net.cpp:156] Memory required for data: 66020
I0924 02:21:43.870610 23034 layer_factory.hpp:77] Creating layer lstm2_gate_input_1
I0924 02:21:43.870645 23034 net.cpp:91] Creating Layer lstm2_gate_input_1
I0924 02:21:43.870659 23034 net.cpp:425] lstm2_gate_input_1 <- W_hc_h_0
I0924 02:21:43.870671 23034 net.cpp:425] lstm2_gate_input_1 <- W_xc_x_1
I0924 02:21:43.870687 23034 net.cpp:399] lstm2_gate_input_1 -> gate_input_1
I0924 02:21:43.870863 23016 net.cpp:141] Setting up lstm2_x_transform
I0924 02:21:43.870898 23034 net.cpp:141] Setting up lstm2_gate_input_1
I0924 02:21:43.870908 23016 net.cpp:148] Top shape: 1 1 4000 (4000)
I0924 02:21:43.870916 23034 net.cpp:148] Top shape: 1 1 4000 (4000)
I0924 02:21:43.870919 23016 net.cpp:156] Memory required for data: 30020
I0924 02:21:43.870924 23034 net.cpp:156] Memory required for data: 82020
I0924 02:21:43.870934 23034 layer_factory.hpp:77] Creating layer lstm2_unit_1
I0924 02:21:43.870949 23034 net.cpp:91] Creating Layer lstm2_unit_1
I0924 02:21:43.870950 23016 layer_factory.hpp:77] Creating layer lstm2_W_xc_x_slice
I0924 02:21:43.870957 23034 net.cpp:425] lstm2_unit_1 <- c_0
I0924 02:21:43.870970 23034 net.cpp:425] lstm2_unit_1 <- gate_input_1
I0924 02:21:43.870975 23016 net.cpp:91] Creating Layer lstm2_W_xc_x_slice
I0924 02:21:43.870978 23034 net.cpp:425] lstm2_unit_1 <- cont_1_lstm2_cont_slice_0_split_1
I0924 02:21:43.870986 23016 net.cpp:425] lstm2_W_xc_x_slice <- W_xc_x
I0924 02:21:43.870995 23034 net.cpp:399] lstm2_unit_1 -> c_1
I0924 02:21:43.871002 23016 net.cpp:399] lstm2_W_xc_x_slice -> W_xc_x_1
I0924 02:21:43.871011 23034 net.cpp:399] lstm2_unit_1 -> h_1
I0924 02:21:43.871098 23016 net.cpp:141] Setting up lstm2_W_xc_x_slice
I0924 02:21:43.871115 23016 net.cpp:148] Top shape: 1 1 4000 (4000)
I0924 02:21:43.871124 23016 net.cpp:156] Memory required for data: 46020
I0924 02:21:43.871134 23016 layer_factory.hpp:77] Creating layer lstm2_h_conted_0
I0924 02:21:43.871157 23016 net.cpp:91] Creating Layer lstm2_h_conted_0
I0924 02:21:43.871168 23016 net.cpp:425] lstm2_h_conted_0 <- h_0
I0924 02:21:43.871179 23016 net.cpp:425] lstm2_h_conted_0 <- cont_1_lstm2_cont_slice_0_split_0
I0924 02:21:43.871192 23016 net.cpp:399] lstm2_h_conted_0 -> h_conted_0
I0924 02:21:43.871199 23034 net.cpp:141] Setting up lstm2_unit_1
I0924 02:21:43.871218 23034 net.cpp:148] Top shape: 1 1 1000 (1000)
I0924 02:21:43.871225 23034 net.cpp:148] Top shape: 1 1 1000 (1000)
I0924 02:21:43.871230 23034 net.cpp:156] Memory required for data: 90020
I0924 02:21:43.871237 23034 layer_factory.hpp:77] Creating layer lstm2_
I0924 02:21:43.871246 23034 net.cpp:91] Creating Layer lstm2_
I0924 02:21:43.871253 23034 net.cpp:425] lstm2_ <- c_1
I0924 02:21:43.871260 23034 net.cpp:399] lstm2_ -> c_T
I0924 02:21:43.871392 23016 net.cpp:141] Setting up lstm2_h_conted_0
I0924 02:21:43.871409 23016 net.cpp:148] Top shape: 1 1 1000 (1000)
I0924 02:21:43.871417 23016 net.cpp:156] Memory required for data: 50020
I0924 02:21:43.871425 23016 layer_factory.hpp:77] Creating layer lstm2_transform_1
I0924 02:21:43.871430 23034 net.cpp:141] Setting up lstm2_
I0924 02:21:43.871443 23034 net.cpp:148] Top shape: 1 1 1000 (1000)
I0924 02:21:43.871448 23034 net.cpp:156] Memory required for data: 94020
I0924 02:21:43.871454 23034 layer_factory.hpp:77] Creating layer lstm2_h_concat
I0924 02:21:43.871450 23016 net.cpp:91] Creating Layer lstm2_transform_1
I0924 02:21:43.871475 23034 net.cpp:91] Creating Layer lstm2_h_concat
I0924 02:21:43.871487 23016 net.cpp:425] lstm2_transform_1 <- h_conted_0
I0924 02:21:43.871491 23034 net.cpp:425] lstm2_h_concat <- h_1
I0924 02:21:43.871510 23034 net.cpp:399] lstm2_h_concat -> h
I0924 02:21:43.871508 23016 net.cpp:399] lstm2_transform_1 -> W_hc_h_0
I0924 02:21:43.871567 23034 net.cpp:141] Setting up lstm2_h_concat
I0924 02:21:43.871578 23034 net.cpp:148] Top shape: 1 1 1000 (1000)
I0924 02:21:43.871583 23034 net.cpp:156] Memory required for data: 98020
I0924 02:21:43.871588 23034 layer_factory.hpp:77] Creating layer h_pseudoloss
I0924 02:21:43.871598 23034 net.cpp:91] Creating Layer h_pseudoloss
I0924 02:21:43.871603 23034 net.cpp:425] h_pseudoloss <- h
I0924 02:21:43.871610 23034 net.cpp:399] h_pseudoloss -> h_pseudoloss
I0924 02:21:43.871740 23034 net.cpp:141] Setting up h_pseudoloss
…
I0924 02:21:43.871862 23034 net.cpp:219] lstm2_ does not need backward computation.
I0924 02:21:43.871866 23034 net.cpp:261] This network produces output c_T
I0924 02:21:43.871871 23034 net.cpp:261] This network produces output h_pseudoloss
I0924 02:21:43.871887 23034 net.cpp:274] Network initialization done.
I0924 02:21:43.871938 23034 recurrent_layer.cpp:150] Adding parameter 0: W_xc
I0924 02:21:43.871944 23034 recurrent_layer.cpp:150] Adding parameter 1: b_c
I0924 02:21:43.871949 23034 recurrent_layer.cpp:150] Adding parameter 2: W_hc
I0924 02:21:43.883399 23034 net.cpp:141] Setting up lstm2
I0924 02:21:43.883458 23034 net.cpp:148] Top shape: 1 1 1000 (1000)
I0924 02:21:43.883468 23034 net.cpp:156] Memory required for data: 36412
I0924 02:21:43.883502 23034 layer_factory.hpp:77] Creating layer predict
I0924 02:21:43.883533 23034 net.cpp:91] Creating Layer predict
I0924 02:21:43.883545 23034 net.cpp:425] predict <- lstm2
I0924 02:21:43.883563 23034 net.cpp:399] predict -> predict
I0924 02:21:43.962656 23016 net.cpp:141] Setting up lstm2_transform_1
I0924 02:21:43.962813 23042 net.cpp:141] Setting up fc6
I0924 02:21:43.963364 23042 net.cpp:148] Top shape: 10 4096 (40960)
I0924 02:21:43.963382 23042 net.cpp:156] Memory required for data: 67782200
I0924 02:21:43.963409 23042 layer_factory.hpp:77] Creating layer relu6
I0924 02:21:43.963438 23042 net.cpp:91] Creating Layer relu6
I0924 02:21:43.963454 23042 net.cpp:425] relu6 <- fc6
I0924 02:21:43.963477 23042 net.cpp:386] relu6 -> fc6 (in-place)
I0924 02:21:43.964123 23042 net.cpp:141] Setting up relu6
I0924 02:21:43.964144 23042 net.cpp:148] Top shape: 10 4096 (40960)
I0924 02:21:43.964155 23042 net.cpp:156] Memory required for data: 67946040
I0924 02:21:43.964167 23042 layer_factory.hpp:77] Creating layer drop6
I0924 02:21:43.964210 23042 net.cpp:91] Creating Layer drop6
I0924 02:21:43.964226 23042 net.cpp:425] drop6 <- fc6
I0924 02:21:43.964241 23042 net.cpp:386] drop6 -> fc6 (in-place)
I0924 02:21:43.964346 23042 net.cpp:141] Setting up drop6
I0924 02:21:43.964367 23042 net.cpp:148] Top shape: 10 4096 (40960)
I0924 02:21:43.964378 23042 net.cpp:156] Memory required for data: 68109880
I0924 02:21:43.964388 23042 layer_factory.hpp:77] Creating layer fc7
I0924 02:21:43.964407 23042 net.cpp:91] Creating Layer fc7
I0924 02:21:43.964419 23042 net.cpp:425] fc7 <- fc6
I0924 02:21:43.964443 23042 net.cpp:399] fc7 -> fc7
I0924 02:21:43.963363 23016 net.cpp:148] Top shape: 1 1 4000 (4000)
I0924 02:21:43.964757 23016 net.cpp:156] Memory required for data: 66020
I0924 02:21:43.964794 23016 layer_factory.hpp:77] Creating layer lstm2_gate_input_1
I0924 02:21:43.993561 23016 net.cpp:91] Creating Layer lstm2_gate_input_1
I0924 02:21:43.993620 23016 net.cpp:425] lstm2_gate_input_1 <- W_hc_h_0
I0924 02:21:43.993635 23016 net.cpp:425] lstm2_gate_input_1 <- W_xc_x_1
I0924 02:21:43.993664 23016 net.cpp:399] lstm2_gate_input_1 -> gate_input_1
I0924 02:21:43.998826 23016 net.cpp:141] Setting up lstm2_gate_input_1
I0924 02:21:43.998884 23016 net.cpp:148] Top shape: 1 1 4000 (4000)
I0924 02:21:43.998891 23016 net.cpp:156] Memory required for data: 82020
I0924 02:21:43.998901 23016 layer_factory.hpp:77] Creating layer lstm2_unit_1
I0924 02:21:43.998942 23016 net.cpp:91] Creating Layer lstm2_unit_1
I0924 02:21:43.998951 23016 net.cpp:425] lstm2_unit_1 <- c_0
I0924 02:21:43.998963 23016 net.cpp:425] lstm2_unit_1 <- gate_input_1
I0924 02:21:43.998970 23016 net.cpp:425] lstm2_unit_1 <- cont_1_lstm2_cont_slice_0_split_1
I0924 02:21:43.998980 23016 net.cpp:399] lstm2_unit_1 -> c_1
I0924 02:21:43.998996 23016 net.cpp:399] lstm2_unit_1 -> h_1
I0924 02:21:43.999109 23016 net.cpp:141] Setting up lstm2_unit_1
I0924 02:21:43.999121 23016 net.cpp:148] Top shape: 1 1 1000 (1000)
I0924 02:21:43.999128 23016 net.cpp:148] Top shape: 1 1 1000 (1000)
I0924 02:21:43.999133 23016 net.cpp:156] Memory required for data: 90020
I0924 02:21:43.999140 23016 layer_factory.hpp:77] Creating layer lstm2_
I0924 02:21:43.999150 23016 net.cpp:91] Creating Layer lstm2_
I0924 02:21:43.999155 23016 net.cpp:425] lstm2_ <- c_1
I0924 02:21:43.999168 23016 net.cpp:399] lstm2_ -> c_T
I0924 02:21:43.999207 23016 net.cpp:141] Setting up lstm2_
I0924 02:21:43.999218 23016 net.cpp:148] Top shape: 1 1 1000 (1000)
I0924 02:21:43.999223 23016 net.cpp:156] Memory required for data: 94020
I0924 02:21:43.999229 23016 layer_factory.hpp:77] Creating layer lstm2_h_concat
I0924 02:21:43.999240 23016 net.cpp:91] Creating Layer lstm2_h_concat
I0924 02:21:43.999246 23016 net.cpp:425] lstm2_h_concat <- h_1
I0924 02:21:43.999254 23016 net.cpp:399] lstm2_h_concat -> h
I0924 02:21:43.999302 23016 net.cpp:141] Setting up lstm2_h_concat
I0924 02:21:43.999318 23016 net.cpp:148] Top shape: 1 1 1000 (1000)
I0924 02:21:43.999326 23016 net.cpp:156] Memory required for data: 98020
I0924 02:21:43.999336 23016 layer_factory.hpp:77] Creating layer h_pseudoloss
I0924 02:21:43.999353 23016 net.cpp:91] Creating Layer h_pseudoloss
I0924 02:21:43.999363 23016 net.cpp:425] h_pseudoloss <- h
I0924 02:21:43.999377 23016 net.cpp:399] h_pseudoloss -> h_pseudoloss
I0924 02:21:43.999526 23016 net.cpp:141] Setting up h_pseudoloss
…
I0924 02:21:43.999656 23016 net.cpp:219] lstm2_ does not need backward computation.
I0924 02:21:43.999661 23016 net.cpp:261] This network produces output c_T
I0924 02:21:43.999667 23016 net.cpp:261] This network produces output h_pseudoloss
I0924 02:21:43.999686 23016 net.cpp:274] Network initialization done.
I0924 02:21:43.999764 23016 recurrent_layer.cpp:150] Adding parameter 0: W_xc
I0924 02:21:43.999778 23016 recurrent_layer.cpp:150] Adding parameter 1: b_c
I0924 02:21:43.999788 23016 recurrent_layer.cpp:150] Adding parameter 2: W_hc
I0924 02:21:43.999927 23016 net.cpp:141] Setting up lstm2
I0924 02:21:43.999941 23016 net.cpp:148] Top shape: 1 1 1000 (1000)
I0924 02:21:43.999946 23016 net.cpp:156] Memory required for data: 36412
I0924 02:21:43.999965 23016 layer_factory.hpp:77] Creating layer predict
I0924 02:21:43.999980 23016 net.cpp:91] Creating Layer predict
I0924 02:21:43.999989 23016 net.cpp:425] predict <- lstm2
I0924 02:21:43.999997 23016 net.cpp:399] predict -> predict
I0924 02:21:44.087080 23020 net.cpp:141] Setting up predict
I0924 02:21:44.087141 23020 net.cpp:148] Top shape: 1 1 46168 (46168)
I0924 02:21:44.087154 23020 net.cpp:156] Memory required for data: 221084
I0924 02:21:44.087151 23042 net.cpp:141] Setting up fc7
I0924 02:21:44.087179 23020 layer_factory.hpp:77] Creating layer probs
I0924 02:21:44.087191 23042 net.cpp:148] Top shape: 10 4096 (40960)
I0924 02:21:44.087198 23042 net.cpp:156] Memory required for data: 68273720
I0924 02:21:44.087206 23020 net.cpp:91] Creating Layer probs
I0924 02:21:44.087214 23042 layer_factory.hpp:77] Creating layer relu7
I0924 02:21:44.087220 23020 net.cpp:425] probs <- predict
I0924 02:21:44.087235 23042 net.cpp:91] Creating Layer relu7
I0924 02:21:44.087244 23042 net.cpp:425] relu7 <- fc7
I0924 02:21:44.087239 23020 net.cpp:399] probs -> probs
I0924 02:21:44.087255 23042 net.cpp:386] relu7 -> fc7 (in-place)
I0924 02:21:44.087961 23042 net.cpp:141] Setting up relu7
I0924 02:21:44.087976 23042 net.cpp:148] Top shape: 10 4096 (40960)
I0924 02:21:44.087982 23042 net.cpp:156] Memory required for data: 68437560
I0924 02:21:44.087988 23042 layer_factory.hpp:77] Creating layer drop7
I0924 02:21:44.088003 23042 net.cpp:91] Creating Layer drop7
I0924 02:21:44.088009 23042 net.cpp:425] drop7 <- fc7
I0924 02:21:44.088017 23042 net.cpp:386] drop7 -> fc7 (in-place)
I0924 02:21:44.088063 23042 net.cpp:141] Setting up drop7
I0924 02:21:44.088074 23042 net.cpp:148] Top shape: 10 4096 (40960)
I0924 02:21:44.088079 23042 net.cpp:156] Memory required for data: 68601400
I0924 02:21:44.088085 23042 layer_factory.hpp:77] Creating layer fc8
I0924 02:21:44.088101 23042 net.cpp:91] Creating Layer fc8
I0924 02:21:44.088107 23042 net.cpp:425] fc8 <- fc7
I0924 02:21:44.088117 23042 net.cpp:399] fc8 -> fc8
I0924 02:21:44.096698 23040 net.cpp:141] Setting up predict
I0924 02:21:44.096750 23040 net.cpp:148] Top shape: 1 1 46168 (46168)
I0924 02:21:44.096757 23040 net.cpp:156] Memory required for data: 221084
I0924 02:21:44.096773 23040 layer_factory.hpp:77] Creating layer probs
I0924 02:21:44.096796 23040 net.cpp:91] Creating Layer probs
I0924 02:21:44.096803 23040 net.cpp:425] probs <- predict
I0924 02:21:44.096815 23040 net.cpp:399] probs -> probs
I0924 02:21:44.097923 23020 net.cpp:141] Setting up probs
I0924 02:21:44.097959 23040 net.cpp:141] Setting up probs
I0924 02:21:44.097973 23020 net.cpp:148] Top shape: 1 1 46168 (46168)
I0924 02:21:44.097980 23040 net.cpp:148] Top shape: 1 1 46168 (46168)
I0924 02:21:44.097981 23020 net.cpp:156] Memory required for data: 405756
I0924 02:21:44.097987 23040 net.cpp:156] Memory required for data: 405756
I0924 02:21:44.097993 23020 net.cpp:219] probs does not need backward computation.
I0924 02:21:44.097997 23040 net.cpp:219] probs does not need backward computation.
I0924 02:21:44.098003 23020 net.cpp:219] predict does not need backward computation.
…
