…
Java HotSpot(TM) 64-Bit Server VM warning: You have loaded library /tmp/cvld2283922685743177667/libopencv_java310.xine1.so which might have disabled stack guard. The VM will try to fix the stack guard now.
It's highly recommended that you fix the library with 'execstack -c <libfile>', or link it with '-z noexecstack'.
WARNING: Logging before InitGoogleLogging() is written to STDERR
I0803 21:58:57.246531 27107 net.cpp:49] Initializing net from parameters: 
name: "CaffeNet"
state {
  phase: TEST
}
layer {
  name: "data"
  type: "Input"
  top: "data"
  input_param {
    shape {
      dim: 10
      dim: 3
      dim: 227
      dim: 227
    }
  }
}
layer {
  name: "conv1"
  type: "Convolution"
  bottom: "data"
  top: "conv1"
  convolution_param {
    num_output: 96
    kernel_size: 11
    stride: 4
  }
}
layer {
  name: "relu1"
  type: "ReLU"
  bottom: "conv1"
  top: "conv1"
}
layer {
  name: "pool1"
  type: "Pooling"
  bottom: "conv1"
  top: "pool1"
  pooling_param {
    pool: MAX
    kernel_size: 3
    stride: 2
  }
}
layer {
  name: "norm1"
  type: "LRN"
  bottom: "pool1"
  top: "norm1"
  lrn_param {
    local_size: 5
    alpha: 0.0001
    beta: 0.75
  }
}
layer {
  name: "conv2"
  type: "Convolution"
  bottom: "norm1"
  top: "conv2"
  convolution_param {
    num_output: 256
    pad: 2
    kernel_size: 5
    group: 2
  }
}
layer {
  name: "relu2"
  type: "ReLU"
  bottom: "conv2"
  top: "conv2"
}
layer {
  name: "pool2"
  type: "Pooling"
  bottom: "conv2"
  top: "pool2"
  pooling_param {
    pool: MAX
    kernel_size: 3
    stride: 2
  }
}
layer {
  name: "norm2"
  type: "LRN"
  bottom: "pool2"
  top: "norm2"
  lrn_param {
    local_size: 5
    alpha: 0.0001
    beta: 0.75
  }
}
layer {
  name: "conv3"
  type: "Convolution"
  bottom: "norm2"
  top: "conv3"
  convolution_param {
    num_output: 384
    pad: 1
    kernel_size: 3
  }
}
layer {
  name: "relu3"
  type: "ReLU"
  bottom: "conv3"
  top: "conv3"
}
layer {
  name: "conv4"
  type: "Convolution"
  bottom: "conv3"
  top: "conv4"
  convolution_param {
    num_output: 384
    pad: 1
    kernel_size: 3
    group: 2
  }
}
layer {
  name: "relu4"
  type: "ReLU"
  bottom: "conv4"
  top: "conv4"
}
layer {
  name: "conv5"
  type: "Convolution"
  bottom: "conv4"
  top: "conv5"
  convolution_param {
    num_output: 256
    pad: 1
    kernel_size: 3
    group: 2
  }
}
layer {
  name: "relu5"
  type: "ReLU"
  bottom: "conv5"
  top: "conv5"
}
layer {
  name: "pool5"
  type: "Pooling"
  bottom: "conv5"
  top: "pool5"
  pooling_param {
    pool: MAX
    kernel_size: 3
    stride: 2
  }
}
layer {
  name: "fc6"
  type: "InnerProduct"
  bottom: "pool5"
  top: "fc6"
  inner_product_param {
    num_output: 4096
  }
}
layer {
  name: "relu6"
  type: "ReLU"
  bottom: "fc6"
  top: "fc6"
}
layer {
  name: "drop6"
  type: "Dropout"
  bottom: "fc6"
  top: "fc6"
  dropout_param {
    dropout_ratio: 0.5
  }
}
layer {
  name: "fc7"
  type: "InnerProduct"
  bottom: "fc6"
  top: "fc7"
  inner_product_param {
    num_output: 4096
  }
}
layer {
  name: "relu7"
  type: "ReLU"
  bottom: "fc7"
  top: "fc7"
}
layer {
  name: "drop7"
  type: "Dropout"
  bottom: "fc7"
  top: "fc7"
  dropout_param {
    dropout_ratio: 0.5
  }
}
layer {
  name: "fc8"
  type: "InnerProduct"
  bottom: "fc7"
  top: "fc8"
  inner_product_param {
    num_output: 1000
  }
}
layer {
  name: "prob"
  type: "Softmax"
  bottom: "fc8"
  top: "prob"
}
I0803 21:58:57.246701 27107 layer_factory.hpp:77] Creating layer data
I0803 21:58:57.246723 27107 net.cpp:91] Creating Layer data
I0803 21:58:57.246732 27107 net.cpp:399] data -> data
I0803 21:58:57.738550 27107 net.cpp:141] Setting up data
I0803 21:58:57.738662 27107 net.cpp:148] Top shape: 10 3 227 227 (1545870)
I0803 21:58:57.738669 27107 net.cpp:156] Memory required for data: 6183480
I0803 21:58:57.738688 27107 layer_factory.hpp:77] Creating layer conv1
I0803 21:58:57.738714 27107 net.cpp:91] Creating Layer conv1
I0803 21:58:57.738723 27107 net.cpp:425] conv1 <- data
I0803 21:58:57.738736 27107 net.cpp:399] conv1 -> conv1
I0803 21:58:57.916400 27097 upgrade_proto.cpp:66] Attempting to upgrade input file specified using deprecated input fields: /tmp/cvld2283922685743177667/s2vt.words_to_preds.prototxt
I0803 21:58:57.916484 27097 upgrade_proto.cpp:69] Successfully upgraded file specified using deprecated input fields.
W0803 21:58:57.916498 27097 upgrade_proto.cpp:71] Note that future Caffe releases will only support input layers and not input fields.
I0803 21:58:57.916919 27097 net.cpp:49] Initializing net from parameters: 
name: "s2vt:features_to_lstm"
state {
  phase: TEST
}
layer {
  name: "input"
  type: "Input"
  top: "frames_fc7"
  top: "cont_sentence"
  top: "input_sentence"
  top: "stage_indicator"
  input_param {
    shape {
      dim: 1
      dim: 4096
    }
    shape {
      dim: 1
      dim: 1
    }
    shape {
      dim: 1
      dim: 1
    }
    shape {
      dim: 1
      dim: 1
    }
  }
}
layer {
  name: "embed_encoder"
  type: "InnerProduct"
  bottom: "frames_fc7"
  top: "embedded_in_frames"
  param {
    lr_mult: 1
    decay_mult: 1
  }
  param {
    lr_mult: 2
    decay_mult: 0
  }
  inner_product_param {
    num_output: 500
    weight_filler {
      type: "xavier"
    }
    bias_filler {
      type: "constant"
      value: 0.2
    }
  }
}
layer {
  name: "reshape_frames"
  type: "Reshape"
  bottom: "embedded_in_frames"
  top: "embedded_input_frames"
  reshape_param {
    shape {
      dim: 1
      dim: 1
      dim: 500
    }
  }
}
layer {
  name: "reshape_stage_indicator"
  type: "Reshape"
  bottom: "stage_indicator"
  top: "reshaped_stage_indicator"
  reshape_param {
    shape {
      dim: 1
      dim: 1
      dim: 1
    }
  }
}
layer {
  name: "embedding"
  type: "Embed"
  bottom: "input_sentence"
  top: "embedded_input_sentence"
  param {
    lr_mult: 1
  }
  embed_param {
    num_output: 500
    input_dim: 46168
    bias_term: false
    weight_filler {
      type: "uniform"
      min: -0.08
      max: 0.08
    }
  }
}
layer {
  name: "lstm1"
  type: "LSTM"
  bottom: "embedded_input_frames"
  bottom: "cont_sentence"
  top: "lstm1"
  recurrent_param {
    num_output: 1000
    weight_filler {
      type: "uniform"
      min: -0.08
      max: 0.08
    }
    bias_filler {
      type: "constant"
      value: 0
    }
  }
}
layer {
  name: "concat"
  type: "Concat"
  bottom: "lstm1"
  bottom: "embedded_input_sentence"
  bottom: "reshaped_stage_indicator"
  top: "lstm1_video_sequence"
  concat_param {
    concat_dim: 2
  }
}
layer {
  name: "lstm2"
  type: "LSTM"
  bottom: "lstm1_video_sequence"
  bottom: "cont_sentence"
  top: "lstm2"
  recurrent_param {
    num_output: 1000
    weight_filler {
      type: "uniform"
      min: -0.08
      max: 0.08
    }
    bias_filler {
      type: "constant"
      value: 0
    }
  }
}
layer {
  name: "predict"
  type: "InnerProduct"
  bottom: "lstm2"
  top: "predict"
  param {
    lr_mult: 1
    decay_mult: 1
  }
  param {
    lr_mult: 2
    decay_mult: 0
  }
  inner_product_param {
    num_output: 46168
    weight_filler {
      type: "uniform"
      min: -0.08
      max: 0.08
    }
    bias_filler {
      type: "constant"
      value: 0
    }
    axis: 2
  }
}
layer {
  name: "probs"
  type: "Softmax"
  bottom: "predict"
  top: "probs"
  softmax_param {
    axis: 2
  }
}
I0803 21:58:57.917033 27097 layer_factory.hpp:77] Creating layer input
I0803 21:58:57.917052 27097 net.cpp:91] Creating Layer input
I0803 21:58:57.917062 27097 net.cpp:399] input -> frames_fc7
I0803 21:58:57.917083 27097 net.cpp:399] input -> cont_sentence
I0803 21:58:57.917095 27097 net.cpp:399] input -> input_sentence
I0803 21:58:57.917106 27097 net.cpp:399] input -> stage_indicator
I0803 21:58:57.923880 27097 net.cpp:141] Setting up input
I0803 21:58:57.923915 27097 net.cpp:148] Top shape: 1 4096 (4096)
I0803 21:58:57.923929 27097 net.cpp:148] Top shape: 1 1 (1)
I0803 21:58:57.923940 27097 net.cpp:148] Top shape: 1 1 (1)
I0803 21:58:57.923951 27097 net.cpp:148] Top shape: 1 1 (1)
I0803 21:58:57.923959 27097 net.cpp:156] Memory required for data: 16396
I0803 21:58:57.923969 27097 layer_factory.hpp:77] Creating layer cont_sentence_input_1_split
I0803 21:58:57.924003 27097 net.cpp:91] Creating Layer cont_sentence_input_1_split
I0803 21:58:57.924015 27097 net.cpp:425] cont_sentence_input_1_split <- cont_sentence
I0803 21:58:57.924048 27097 net.cpp:399] cont_sentence_input_1_split -> cont_sentence_input_1_split_0
I0803 21:58:57.924068 27097 net.cpp:399] cont_sentence_input_1_split -> cont_sentence_input_1_split_1
I0803 21:58:57.924502 27097 net.cpp:141] Setting up cont_sentence_input_1_split
I0803 21:58:57.924523 27097 net.cpp:148] Top shape: 1 1 (1)
I0803 21:58:57.924535 27097 net.cpp:148] Top shape: 1 1 (1)
I0803 21:58:57.924548 27097 net.cpp:156] Memory required for data: 16404
I0803 21:58:57.924566 27097 layer_factory.hpp:77] Creating layer embed_encoder
I0803 21:58:57.924612 27097 net.cpp:91] Creating Layer embed_encoder
I0803 21:58:57.924634 27097 net.cpp:425] embed_encoder <- frames_fc7
I0803 21:58:57.924662 27097 net.cpp:399] embed_encoder -> embedded_in_frames
I0803 21:58:57.952384 27107 net.cpp:141] Setting up conv1
I0803 21:58:57.952438 27107 net.cpp:148] Top shape: 10 96 55 55 (2904000)
I0803 21:58:57.952445 27107 net.cpp:156] Memory required for data: 17799480
I0803 21:58:57.952471 27107 layer_factory.hpp:77] Creating layer relu1
I0803 21:58:57.952487 27107 net.cpp:91] Creating Layer relu1
I0803 21:58:57.952494 27107 net.cpp:425] relu1 <- conv1
I0803 21:58:57.952502 27107 net.cpp:386] relu1 -> conv1 (in-place)
I0803 21:58:57.952875 27107 net.cpp:141] Setting up relu1
I0803 21:58:57.952889 27107 net.cpp:148] Top shape: 10 96 55 55 (2904000)
I0803 21:58:57.952894 27107 net.cpp:156] Memory required for data: 29415480
I0803 21:58:57.952899 27107 layer_factory.hpp:77] Creating layer pool1
I0803 21:58:57.952911 27107 net.cpp:91] Creating Layer pool1
I0803 21:58:57.952916 27107 net.cpp:425] pool1 <- conv1
I0803 21:58:57.952924 27107 net.cpp:399] pool1 -> pool1
I0803 21:58:57.952988 27107 net.cpp:141] Setting up pool1
I0803 21:58:57.952998 27107 net.cpp:148] Top shape: 10 96 27 27 (699840)
I0803 21:58:57.953002 27107 net.cpp:156] Memory required for data: 32214840
I0803 21:58:57.953007 27107 layer_factory.hpp:77] Creating layer norm1
I0803 21:58:57.953022 27107 net.cpp:91] Creating Layer norm1
I0803 21:58:57.953027 27107 net.cpp:425] norm1 <- pool1
I0803 21:58:57.953034 27107 net.cpp:399] norm1 -> norm1
I0803 21:58:57.953469 27107 net.cpp:141] Setting up norm1
I0803 21:58:57.953483 27107 net.cpp:148] Top shape: 10 96 27 27 (699840)
I0803 21:58:57.953488 27107 net.cpp:156] Memory required for data: 35014200
I0803 21:58:57.953493 27107 layer_factory.hpp:77] Creating layer conv2
I0803 21:58:57.953512 27107 net.cpp:91] Creating Layer conv2
I0803 21:58:57.953519 27107 net.cpp:425] conv2 <- norm1
I0803 21:58:57.953526 27107 net.cpp:399] conv2 -> conv2
I0803 21:58:57.957342 27107 net.cpp:141] Setting up conv2
I0803 21:58:57.957361 27107 net.cpp:148] Top shape: 10 256 27 27 (1866240)
I0803 21:58:57.957367 27107 net.cpp:156] Memory required for data: 42479160
I0803 21:58:57.957381 27107 layer_factory.hpp:77] Creating layer relu2
I0803 21:58:57.957389 27107 net.cpp:91] Creating Layer relu2
I0803 21:58:57.957396 27107 net.cpp:425] relu2 <- conv2
I0803 21:58:57.957404 27107 net.cpp:386] relu2 -> conv2 (in-place)
I0803 21:58:57.957465 27097 net.cpp:141] Setting up embed_encoder
I0803 21:58:57.957500 27097 net.cpp:148] Top shape: 1 500 (500)
I0803 21:58:57.957507 27097 net.cpp:156] Memory required for data: 18404
I0803 21:58:57.957527 27097 layer_factory.hpp:77] Creating layer reshape_frames
I0803 21:58:57.957558 27097 net.cpp:91] Creating Layer reshape_frames
I0803 21:58:57.957571 27097 net.cpp:425] reshape_frames <- embedded_in_frames
I0803 21:58:57.957590 27097 net.cpp:399] reshape_frames -> embedded_input_frames
I0803 21:58:57.957834 27097 net.cpp:141] Setting up reshape_frames
I0803 21:58:57.957854 27097 net.cpp:148] Top shape: 1 1 500 (500)
I0803 21:58:57.957864 27097 net.cpp:156] Memory required for data: 20404
I0803 21:58:57.957875 27097 layer_factory.hpp:77] Creating layer reshape_stage_indicator
I0803 21:58:57.957895 27097 net.cpp:91] Creating Layer reshape_stage_indicator
I0803 21:58:57.957906 27097 net.cpp:425] reshape_stage_indicator <- stage_indicator
I0803 21:58:57.957916 27107 net.cpp:141] Setting up relu2
I0803 21:58:57.957927 27097 net.cpp:399] reshape_stage_indicator -> reshaped_stage_indicator
I0803 21:58:57.957931 27107 net.cpp:148] Top shape: 10 256 27 27 (1866240)
I0803 21:58:57.957945 27107 net.cpp:156] Memory required for data: 49944120
I0803 21:58:57.957950 27107 layer_factory.hpp:77] Creating layer pool2
I0803 21:58:57.957963 27107 net.cpp:91] Creating Layer pool2
I0803 21:58:57.957968 27107 net.cpp:425] pool2 <- conv2
I0803 21:58:57.957975 27107 net.cpp:399] pool2 -> pool2
I0803 21:58:57.958009 27097 net.cpp:141] Setting up reshape_stage_indicator
I0803 21:58:57.958029 27097 net.cpp:148] Top shape: 1 1 1 (1)
I0803 21:58:57.958039 27097 net.cpp:156] Memory required for data: 20408
I0803 21:58:57.958050 27097 layer_factory.hpp:77] Creating layer embedding
I0803 21:58:57.958073 27107 net.cpp:141] Setting up pool2
I0803 21:58:57.958073 27097 net.cpp:91] Creating Layer embedding
I0803 21:58:57.958086 27107 net.cpp:148] Top shape: 10 256 13 13 (432640)
I0803 21:58:57.958091 27107 net.cpp:156] Memory required for data: 51674680
I0803 21:58:57.958089 27097 net.cpp:425] embedding <- input_sentence
I0803 21:58:57.958097 27107 layer_factory.hpp:77] Creating layer norm2
I0803 21:58:57.958108 27107 net.cpp:91] Creating Layer norm2
I0803 21:58:57.958114 27107 net.cpp:425] norm2 <- pool2
I0803 21:58:57.958114 27097 net.cpp:399] embedding -> embedded_input_sentence
I0803 21:58:57.958123 27107 net.cpp:399] norm2 -> norm2
I0803 21:58:58.003377 27107 net.cpp:141] Setting up norm2
I0803 21:58:58.003403 27107 net.cpp:148] Top shape: 10 256 13 13 (432640)
I0803 21:58:58.003410 27107 net.cpp:156] Memory required for data: 53405240
I0803 21:58:58.003415 27107 layer_factory.hpp:77] Creating layer conv3
I0803 21:58:58.003428 27107 net.cpp:91] Creating Layer conv3
I0803 21:58:58.003434 27107 net.cpp:425] conv3 <- norm2
I0803 21:58:58.003445 27107 net.cpp:399] conv3 -> conv3
I0803 21:58:58.007226 27107 net.cpp:141] Setting up conv3
I0803 21:58:58.007252 27107 net.cpp:148] Top shape: 10 384 13 13 (648960)
I0803 21:58:58.007258 27107 net.cpp:156] Memory required for data: 56001080
I0803 21:58:58.007273 27107 layer_factory.hpp:77] Creating layer relu3
I0803 21:58:58.007287 27107 net.cpp:91] Creating Layer relu3
I0803 21:58:58.007293 27107 net.cpp:425] relu3 <- conv3
I0803 21:58:58.007304 27107 net.cpp:386] relu3 -> conv3 (in-place)
I0803 21:58:58.007688 27107 net.cpp:141] Setting up relu3
I0803 21:58:58.007701 27107 net.cpp:148] Top shape: 10 384 13 13 (648960)
I0803 21:58:58.007706 27107 net.cpp:156] Memory required for data: 58596920
I0803 21:58:58.007711 27107 layer_factory.hpp:77] Creating layer conv4
I0803 21:58:58.007726 27107 net.cpp:91] Creating Layer conv4
I0803 21:58:58.007732 27107 net.cpp:425] conv4 <- conv3
I0803 21:58:58.007740 27107 net.cpp:399] conv4 -> conv4
I0803 21:58:58.011736 27107 net.cpp:141] Setting up conv4
I0803 21:58:58.011771 27107 net.cpp:148] Top shape: 10 384 13 13 (648960)
I0803 21:58:58.011780 27107 net.cpp:156] Memory required for data: 61192760
I0803 21:58:58.011797 27107 layer_factory.hpp:77] Creating layer relu4
I0803 21:58:58.011813 27107 net.cpp:91] Creating Layer relu4
I0803 21:58:58.011822 27107 net.cpp:425] relu4 <- conv4
I0803 21:58:58.011840 27107 net.cpp:386] relu4 -> conv4 (in-place)
I0803 21:58:58.012398 27107 net.cpp:141] Setting up relu4
I0803 21:58:58.012419 27107 net.cpp:148] Top shape: 10 384 13 13 (648960)
I0803 21:58:58.012429 27107 net.cpp:156] Memory required for data: 63788600
I0803 21:58:58.012439 27107 layer_factory.hpp:77] Creating layer conv5
I0803 21:58:58.012468 27107 net.cpp:91] Creating Layer conv5
I0803 21:58:58.012480 27107 net.cpp:425] conv5 <- conv4
I0803 21:58:58.012495 27107 net.cpp:399] conv5 -> conv5
I0803 21:58:58.017016 27107 net.cpp:141] Setting up conv5
I0803 21:58:58.017043 27107 net.cpp:148] Top shape: 10 256 13 13 (432640)
I0803 21:58:58.017050 27107 net.cpp:156] Memory required for data: 65519160
I0803 21:58:58.017066 27107 layer_factory.hpp:77] Creating layer relu5
I0803 21:58:58.017081 27107 net.cpp:91] Creating Layer relu5
I0803 21:58:58.017087 27107 net.cpp:425] relu5 <- conv5
I0803 21:58:58.017094 27107 net.cpp:386] relu5 -> conv5 (in-place)
I0803 21:58:58.017511 27107 net.cpp:141] Setting up relu5
I0803 21:58:58.017525 27107 net.cpp:148] Top shape: 10 256 13 13 (432640)
I0803 21:58:58.017530 27107 net.cpp:156] Memory required for data: 67249720
I0803 21:58:58.017539 27107 layer_factory.hpp:77] Creating layer pool5
I0803 21:58:58.017552 27107 net.cpp:91] Creating Layer pool5
I0803 21:58:58.017557 27107 net.cpp:425] pool5 <- conv5
I0803 21:58:58.017567 27107 net.cpp:399] pool5 -> pool5
I0803 21:58:58.017629 27107 net.cpp:141] Setting up pool5
I0803 21:58:58.017638 27107 net.cpp:148] Top shape: 10 256 6 6 (92160)
I0803 21:58:58.017642 27107 net.cpp:156] Memory required for data: 67618360
I0803 21:58:58.017647 27107 layer_factory.hpp:77] Creating layer fc6
I0803 21:58:58.017662 27107 net.cpp:91] Creating Layer fc6
I0803 21:58:58.017668 27107 net.cpp:425] fc6 <- pool5
I0803 21:58:58.017674 27107 net.cpp:399] fc6 -> fc6
I0803 21:58:58.116055 27107 net.cpp:141] Setting up fc6
I0803 21:58:58.116108 27107 net.cpp:148] Top shape: 10 4096 (40960)
I0803 21:58:58.116114 27107 net.cpp:156] Memory required for data: 67782200
I0803 21:58:58.116127 27107 layer_factory.hpp:77] Creating layer relu6
I0803 21:58:58.116147 27107 net.cpp:91] Creating Layer relu6
I0803 21:58:58.116153 27107 net.cpp:425] relu6 <- fc6
I0803 21:58:58.116163 27107 net.cpp:386] relu6 -> fc6 (in-place)
I0803 21:58:58.116468 27107 net.cpp:141] Setting up relu6
I0803 21:58:58.116479 27107 net.cpp:148] Top shape: 10 4096 (40960)
I0803 21:58:58.116483 27107 net.cpp:156] Memory required for data: 67946040
I0803 21:58:58.116488 27107 layer_factory.hpp:77] Creating layer drop6
I0803 21:58:58.116500 27107 net.cpp:91] Creating Layer drop6
I0803 21:58:58.116506 27107 net.cpp:425] drop6 <- fc6
I0803 21:58:58.116513 27107 net.cpp:386] drop6 -> fc6 (in-place)
I0803 21:58:58.116564 27107 net.cpp:141] Setting up drop6
I0803 21:58:58.116576 27107 net.cpp:148] Top shape: 10 4096 (40960)
I0803 21:58:58.116583 27107 net.cpp:156] Memory required for data: 68109880
I0803 21:58:58.116590 27107 layer_factory.hpp:77] Creating layer fc7
I0803 21:58:58.116605 27107 net.cpp:91] Creating Layer fc7
I0803 21:58:58.116613 27107 net.cpp:425] fc7 <- fc6
I0803 21:58:58.116633 27107 net.cpp:399] fc7 -> fc7
I0803 21:58:58.160827 27107 net.cpp:141] Setting up fc7
I0803 21:58:58.160864 27107 net.cpp:148] Top shape: 10 4096 (40960)
I0803 21:58:58.160883 27107 net.cpp:156] Memory required for data: 68273720
I0803 21:58:58.160897 27107 layer_factory.hpp:77] Creating layer relu7
I0803 21:58:58.160913 27107 net.cpp:91] Creating Layer relu7
I0803 21:58:58.160920 27107 net.cpp:425] relu7 <- fc7
I0803 21:58:58.160930 27107 net.cpp:386] relu7 -> fc7 (in-place)
I0803 21:58:58.161561 27107 net.cpp:141] Setting up relu7
I0803 21:58:58.161573 27107 net.cpp:148] Top shape: 10 4096 (40960)
I0803 21:58:58.161577 27107 net.cpp:156] Memory required for data: 68437560
I0803 21:58:58.161582 27107 layer_factory.hpp:77] Creating layer drop7
I0803 21:58:58.161594 27107 net.cpp:91] Creating Layer drop7
I0803 21:58:58.161599 27107 net.cpp:425] drop7 <- fc7
I0803 21:58:58.161609 27107 net.cpp:386] drop7 -> fc7 (in-place)
I0803 21:58:58.161645 27107 net.cpp:141] Setting up drop7
I0803 21:58:58.161653 27107 net.cpp:148] Top shape: 10 4096 (40960)
I0803 21:58:58.161658 27107 net.cpp:156] Memory required for data: 68601400
I0803 21:58:58.161661 27107 layer_factory.hpp:77] Creating layer fc8
I0803 21:58:58.161674 27107 net.cpp:91] Creating Layer fc8
I0803 21:58:58.161679 27107 net.cpp:425] fc8 <- fc7
I0803 21:58:58.161686 27107 net.cpp:399] fc8 -> fc8
I0803 21:58:58.172627 27107 net.cpp:141] Setting up fc8
I0803 21:58:58.172682 27107 net.cpp:148] Top shape: 10 1000 (10000)
I0803 21:58:58.172688 27107 net.cpp:156] Memory required for data: 68641400
I0803 21:58:58.172700 27107 layer_factory.hpp:77] Creating layer prob
I0803 21:58:58.172722 27107 net.cpp:91] Creating Layer prob
I0803 21:58:58.172729 27107 net.cpp:425] prob <- fc8
I0803 21:58:58.172737 27107 net.cpp:399] prob -> prob
I0803 21:58:58.173156 27107 net.cpp:141] Setting up prob
I0803 21:58:58.173167 27107 net.cpp:148] Top shape: 10 1000 (10000)
I0803 21:58:58.173172 27107 net.cpp:156] Memory required for data: 68681400
I0803 21:58:58.173177 27107 net.cpp:219] prob does not need backward computation.
I0803 21:58:58.173182 27107 net.cpp:219] fc8 does not need backward computation.
I0803 21:58:58.173187 27107 net.cpp:219] drop7 does not need backward computation.
I0803 21:58:58.173192 27107 net.cpp:219] relu7 does not need backward computation.
…
I0803 21:58:58.173274 27107 net.cpp:219] norm1 does not need backward computation.
I0803 21:58:58.173280 27107 net.cpp:219] pool1 does not need backward computation.
I0803 21:58:58.173283 27107 net.cpp:219] relu1 does not need backward computation.
I0803 21:58:58.173288 27107 net.cpp:219] conv1 does not need backward computation.
I0803 21:58:58.173292 27107 net.cpp:219] data does not need backward computation.
I0803 21:58:58.173296 27107 net.cpp:261] This network produces output prob
I0803 21:58:58.173332 27107 net.cpp:274] Network initialization done.
I0803 21:58:58.204466 27097 net.cpp:141] Setting up embedding
I0803 21:58:58.204527 27097 net.cpp:148] Top shape: 1 1 500 (500)
I0803 21:58:58.204535 27097 net.cpp:156] Memory required for data: 22408
I0803 21:58:58.204555 27097 layer_factory.hpp:77] Creating layer lstm1
I0803 21:58:58.204579 27097 net.cpp:91] Creating Layer lstm1
I0803 21:58:58.204588 27097 net.cpp:425] lstm1 <- embedded_input_frames
I0803 21:58:58.204597 27097 net.cpp:425] lstm1 <- cont_sentence_input_1_split_0
I0803 21:58:58.204610 27097 net.cpp:399] lstm1 -> lstm1
I0803 21:58:58.204641 27097 recurrent_layer.cpp:20] Initializing recurrent layer: assuming input batch contains 1 timesteps of 1 independent streams.
I0803 21:58:58.205071 27097 net.cpp:49] Initializing net from parameters: 
layer {
  name: "lstm1_"
  type: "Input"
  top: "x"
  top: "cont"
  input_param {
    shape {
      dim: 1
      dim: 1
      dim: 500
    }
    shape {
      dim: 1
      dim: 1
    }
  }
}
layer {
  name: "lstm1_"
  type: "Input"
  top: "c_0"
  top: "h_0"
  input_param {
    shape {
      dim: 1
      dim: 1
      dim: 1000
    }
    shape {
      dim: 1
      dim: 1
      dim: 1000
    }
  }
}
layer {
  name: "lstm1_cont_slice"
  type: "Slice"
  bottom: "cont"
  top: "cont_1"
  slice_param {
    axis: 0
  }
}
layer {
  name: "lstm1_x_transform"
  type: "InnerProduct"
  bottom: "x"
  top: "W_xc_x"
  param {
    name: "W_xc"
  }
  param {
    name: "b_c"
  }
  propagate_down: true
  inner_product_param {
    num_output: 4000
    bias_term: true
    weight_filler {
      type: "uniform"
      min: -0.08
      max: 0.08
    }
    bias_filler {
      type: "constant"
      value: 0
    }
    axis: 2
  }
}
layer {
  name: "lstm1_W_xc_x_slice"
  type: "Slice"
  bottom: "W_xc_x"
  top: "W_xc_x_1"
  slice_param {
    axis: 0
  }
}
layer {
  name: "lstm1_h_conted_0"
  type: "Scale"
  bottom: "h_0"
  bottom: "cont_1"
  top: "h_conted_0"
  scale_param {
    axis: 0
  }
}
layer {
  name: "lstm1_transform_1"
  type: "InnerProduct"
  bottom: "h_conted_0"
  top: "W_hc_h_0"
  param {
    name: "W_hc"
  }
  inner_product_param {
    num_output: 4000
    bias_term: false
    weight_filler {
      type: "uniform"
      min: -0.08
      max: 0.08
    }
    axis: 2
  }
}
layer {
  name: "lstm1_gate_input_1"
  type: "Eltwise"
  bottom: "W_hc_h_0"
  bottom: "W_xc_x_1"
  top: "gate_input_1"
  eltwise_param {
    operation: SUM
  }
}
layer {
  name: "lstm1_unit_1"
  type: "LSTMUnit"
  bottom: "c_0"
  bottom: "gate_input_1"
  bottom: "cont_1"
  top: "c_1"
  top: "h_1"
}
layer {
  name: "lstm1_"
  type: "Split"
  bottom: "c_1"
  top: "c_T"
}
layer {
  name: "lstm1_h_concat"
  type: "Concat"
  bottom: "h_1"
  top: "h"
  concat_param {
    axis: 0
  }
}
layer {
  name: "h_pseudoloss"
  type: "Reduction"
  bottom: "h"
  top: "h_pseudoloss"
  loss_weight: 1
}
I0803 21:58:58.205178 27097 layer_factory.hpp:77] Creating layer lstm1_
I0803 21:58:58.205193 27097 net.cpp:91] Creating Layer lstm1_
I0803 21:58:58.205200 27097 net.cpp:399] lstm1_ -> x
I0803 21:58:58.205214 27097 net.cpp:399] lstm1_ -> cont
I0803 21:58:58.205297 27097 net.cpp:141] Setting up lstm1_
I0803 21:58:58.205310 27097 net.cpp:148] Top shape: 1 1 500 (500)
I0803 21:58:58.205317 27097 net.cpp:148] Top shape: 1 1 (1)
I0803 21:58:58.205322 27097 net.cpp:156] Memory required for data: 2004
I0803 21:58:58.205328 27097 layer_factory.hpp:77] Creating layer lstm1_
I0803 21:58:58.205338 27097 net.cpp:91] Creating Layer lstm1_
I0803 21:58:58.205348 27097 net.cpp:399] lstm1_ -> c_0
I0803 21:58:58.205359 27097 net.cpp:399] lstm1_ -> h_0
I0803 21:58:58.205416 27097 net.cpp:141] Setting up lstm1_
I0803 21:58:58.205427 27097 net.cpp:148] Top shape: 1 1 1000 (1000)
I0803 21:58:58.205433 27097 net.cpp:148] Top shape: 1 1 1000 (1000)
I0803 21:58:58.205438 27097 net.cpp:156] Memory required for data: 10004
I0803 21:58:58.205443 27097 layer_factory.hpp:77] Creating layer lstm1_cont_slice
I0803 21:58:58.205453 27097 net.cpp:91] Creating Layer lstm1_cont_slice
I0803 21:58:58.205459 27097 net.cpp:425] lstm1_cont_slice <- cont
I0803 21:58:58.205469 27097 net.cpp:399] lstm1_cont_slice -> cont_1
I0803 21:58:58.205507 27097 net.cpp:141] Setting up lstm1_cont_slice
I0803 21:58:58.205518 27097 net.cpp:148] Top shape: 1 1 (1)
I0803 21:58:58.205523 27097 net.cpp:156] Memory required for data: 10008
I0803 21:58:58.205528 27097 layer_factory.hpp:77] Creating layer cont_1_lstm1_cont_slice_0_split
I0803 21:58:58.205549 27097 net.cpp:91] Creating Layer cont_1_lstm1_cont_slice_0_split
I0803 21:58:58.205555 27097 net.cpp:425] cont_1_lstm1_cont_slice_0_split <- cont_1
I0803 21:58:58.205562 27097 net.cpp:399] cont_1_lstm1_cont_slice_0_split -> cont_1_lstm1_cont_slice_0_split_0
I0803 21:58:58.205572 27097 net.cpp:399] cont_1_lstm1_cont_slice_0_split -> cont_1_lstm1_cont_slice_0_split_1
I0803 21:58:58.205627 27097 net.cpp:141] Setting up cont_1_lstm1_cont_slice_0_split
I0803 21:58:58.205637 27097 net.cpp:148] Top shape: 1 1 (1)
I0803 21:58:58.205643 27097 net.cpp:148] Top shape: 1 1 (1)
I0803 21:58:58.205648 27097 net.cpp:156] Memory required for data: 10016
I0803 21:58:58.205653 27097 layer_factory.hpp:77] Creating layer lstm1_x_transform
I0803 21:58:58.205664 27097 net.cpp:91] Creating Layer lstm1_x_transform
I0803 21:58:58.205670 27097 net.cpp:425] lstm1_x_transform <- x
I0803 21:58:58.205678 27097 net.cpp:399] lstm1_x_transform -> W_xc_x
I0803 21:58:58.232076 27097 net.cpp:141] Setting up lstm1_x_transform
I0803 21:58:58.232131 27097 net.cpp:148] Top shape: 1 1 4000 (4000)
I0803 21:58:58.232137 27097 net.cpp:156] Memory required for data: 26016
I0803 21:58:58.232162 27097 layer_factory.hpp:77] Creating layer lstm1_W_xc_x_slice
I0803 21:58:58.232185 27097 net.cpp:91] Creating Layer lstm1_W_xc_x_slice
I0803 21:58:58.232194 27097 net.cpp:425] lstm1_W_xc_x_slice <- W_xc_x
I0803 21:58:58.232205 27097 net.cpp:399] lstm1_W_xc_x_slice -> W_xc_x_1
I0803 21:58:58.232256 27097 net.cpp:141] Setting up lstm1_W_xc_x_slice
I0803 21:58:58.232267 27097 net.cpp:148] Top shape: 1 1 4000 (4000)
I0803 21:58:58.232272 27097 net.cpp:156] Memory required for data: 42016
I0803 21:58:58.232277 27097 layer_factory.hpp:77] Creating layer lstm1_h_conted_0
I0803 21:58:58.232293 27097 net.cpp:91] Creating Layer lstm1_h_conted_0
I0803 21:58:58.232300 27097 net.cpp:425] lstm1_h_conted_0 <- h_0
I0803 21:58:58.232306 27097 net.cpp:425] lstm1_h_conted_0 <- cont_1_lstm1_cont_slice_0_split_0
I0803 21:58:58.232314 27097 net.cpp:399] lstm1_h_conted_0 -> h_conted_0
I0803 21:58:58.232429 27097 net.cpp:141] Setting up lstm1_h_conted_0
I0803 21:58:58.232439 27097 net.cpp:148] Top shape: 1 1 1000 (1000)
I0803 21:58:58.232445 27097 net.cpp:156] Memory required for data: 46016
I0803 21:58:58.232450 27097 layer_factory.hpp:77] Creating layer lstm1_transform_1
I0803 21:58:58.232468 27097 net.cpp:91] Creating Layer lstm1_transform_1
I0803 21:58:58.232475 27097 net.cpp:425] lstm1_transform_1 <- h_conted_0
I0803 21:58:58.232483 27097 net.cpp:399] lstm1_transform_1 -> W_hc_h_0
I0803 21:58:58.275147 27097 net.cpp:141] Setting up lstm1_transform_1
I0803 21:58:58.275204 27097 net.cpp:148] Top shape: 1 1 4000 (4000)
I0803 21:58:58.275213 27097 net.cpp:156] Memory required for data: 62016
I0803 21:58:58.275236 27097 layer_factory.hpp:77] Creating layer lstm1_gate_input_1
I0803 21:58:58.275260 27097 net.cpp:91] Creating Layer lstm1_gate_input_1
I0803 21:58:58.275269 27097 net.cpp:425] lstm1_gate_input_1 <- W_hc_h_0
I0803 21:58:58.275277 27097 net.cpp:425] lstm1_gate_input_1 <- W_xc_x_1
I0803 21:58:58.275290 27097 net.cpp:399] lstm1_gate_input_1 -> gate_input_1
I0803 21:58:58.275352 27097 net.cpp:141] Setting up lstm1_gate_input_1
I0803 21:58:58.275363 27097 net.cpp:148] Top shape: 1 1 4000 (4000)
I0803 21:58:58.275368 27097 net.cpp:156] Memory required for data: 78016
I0803 21:58:58.275373 27097 layer_factory.hpp:77] Creating layer lstm1_unit_1
I0803 21:58:58.275388 27097 net.cpp:91] Creating Layer lstm1_unit_1
I0803 21:58:58.275393 27097 net.cpp:425] lstm1_unit_1 <- c_0
I0803 21:58:58.275399 27097 net.cpp:425] lstm1_unit_1 <- gate_input_1
I0803 21:58:58.275405 27097 net.cpp:425] lstm1_unit_1 <- cont_1_lstm1_cont_slice_0_split_1
I0803 21:58:58.275413 27097 net.cpp:399] lstm1_unit_1 -> c_1
I0803 21:58:58.275423 27097 net.cpp:399] lstm1_unit_1 -> h_1
I0803 21:58:58.275492 27097 net.cpp:141] Setting up lstm1_unit_1
I0803 21:58:58.275502 27097 net.cpp:148] Top shape: 1 1 1000 (1000)
I0803 21:58:58.275509 27097 net.cpp:148] Top shape: 1 1 1000 (1000)
I0803 21:58:58.275514 27097 net.cpp:156] Memory required for data: 86016
I0803 21:58:58.275519 27097 layer_factory.hpp:77] Creating layer lstm1_
I0803 21:58:58.275528 27097 net.cpp:91] Creating Layer lstm1_
I0803 21:58:58.275533 27097 net.cpp:425] lstm1_ <- c_1
I0803 21:58:58.275543 27097 net.cpp:399] lstm1_ -> c_T
I0803 21:58:58.275578 27097 net.cpp:141] Setting up lstm1_
I0803 21:58:58.275588 27097 net.cpp:148] Top shape: 1 1 1000 (1000)
I0803 21:58:58.275593 27097 net.cpp:156] Memory required for data: 90016
I0803 21:58:58.275599 27097 layer_factory.hpp:77] Creating layer lstm1_h_concat
I0803 21:58:58.275609 27097 net.cpp:91] Creating Layer lstm1_h_concat
I0803 21:58:58.275614 27097 net.cpp:425] lstm1_h_concat <- h_1
I0803 21:58:58.275621 27097 net.cpp:399] lstm1_h_concat -> h
I0803 21:58:58.275678 27097 net.cpp:141] Setting up lstm1_h_concat
I0803 21:58:58.275688 27097 net.cpp:148] Top shape: 1 1 1000 (1000)
I0803 21:58:58.275693 27097 net.cpp:156] Memory required for data: 94016
I0803 21:58:58.275698 27097 layer_factory.hpp:77] Creating layer h_pseudoloss
I0803 21:58:58.275715 27097 net.cpp:91] Creating Layer h_pseudoloss
I0803 21:58:58.275720 27097 net.cpp:425] h_pseudoloss <- h
I0803 21:58:58.275728 27097 net.cpp:399] h_pseudoloss -> h_pseudoloss
I0803 21:58:58.275837 27097 net.cpp:141] Setting up h_pseudoloss
…
I0803 21:58:58.275974 27097 net.cpp:219] lstm1_ does not need backward computation.
I0803 21:58:58.275979 27097 net.cpp:261] This network produces output c_T
I0803 21:58:58.275984 27097 net.cpp:261] This network produces output h_pseudoloss
I0803 21:58:58.276000 27097 net.cpp:274] Network initialization done.
I0803 21:58:58.276060 27097 recurrent_layer.cpp:150] Adding parameter 0: W_xc
I0803 21:58:58.276068 27097 recurrent_layer.cpp:150] Adding parameter 1: b_c
I0803 21:58:58.276072 27097 recurrent_layer.cpp:150] Adding parameter 2: W_hc
I0803 21:58:58.276199 27097 net.cpp:141] Setting up lstm1
I0803 21:58:58.276214 27097 net.cpp:148] Top shape: 1 1 1000 (1000)
I0803 21:58:58.276219 27097 net.cpp:156] Memory required for data: 26408
I0803 21:58:58.276234 27097 layer_factory.hpp:77] Creating layer concat
I0803 21:58:58.276245 27097 net.cpp:91] Creating Layer concat
I0803 21:58:58.276252 27097 net.cpp:425] concat <- lstm1
I0803 21:58:58.276259 27097 net.cpp:425] concat <- embedded_input_sentence
I0803 21:58:58.276265 27097 net.cpp:425] concat <- reshaped_stage_indicator
I0803 21:58:58.276273 27097 net.cpp:399] concat -> lstm1_video_sequence
I0803 21:58:58.276311 27097 net.cpp:141] Setting up concat
I0803 21:58:58.276321 27097 net.cpp:148] Top shape: 1 1 1501 (1501)
I0803 21:58:58.276326 27097 net.cpp:156] Memory required for data: 32412
I0803 21:58:58.276331 27097 layer_factory.hpp:77] Creating layer lstm2
I0803 21:58:58.276345 27097 net.cpp:91] Creating Layer lstm2
I0803 21:58:58.276353 27097 net.cpp:425] lstm2 <- lstm1_video_sequence
I0803 21:58:58.276360 27097 net.cpp:425] lstm2 <- cont_sentence_input_1_split_1
I0803 21:58:58.276367 27097 net.cpp:399] lstm2 -> lstm2
I0803 21:58:58.276379 27097 recurrent_layer.cpp:20] Initializing recurrent layer: assuming input batch contains 1 timesteps of 1 independent streams.
I0803 21:58:58.276660 27097 net.cpp:49] Initializing net from parameters: 
layer {
  name: "lstm2_"
  type: "Input"
  top: "x"
  top: "cont"
  input_param {
    shape {
      dim: 1
      dim: 1
      dim: 1501
    }
    shape {
      dim: 1
      dim: 1
    }
  }
}
layer {
  name: "lstm2_"
  type: "Input"
  top: "c_0"
  top: "h_0"
  input_param {
    shape {
      dim: 1
      dim: 1
      dim: 1000
    }
    shape {
      dim: 1
      dim: 1
      dim: 1000
    }
  }
}
layer {
  name: "lstm2_cont_slice"
  type: "Slice"
  bottom: "cont"
  top: "cont_1"
  slice_param {
    axis: 0
  }
}
layer {
  name: "lstm2_x_transform"
  type: "InnerProduct"
  bottom: "x"
  top: "W_xc_x"
  param {
    name: "W_xc"
  }
  param {
    name: "b_c"
  }
  propagate_down: true
  inner_product_param {
    num_output: 4000
    bias_term: true
    weight_filler {
      type: "uniform"
      min: -0.08
      max: 0.08
    }
    bias_filler {
      type: "constant"
      value: 0
    }
    axis: 2
  }
}
layer {
  name: "lstm2_W_xc_x_slice"
  type: "Slice"
  bottom: "W_xc_x"
  top: "W_xc_x_1"
  slice_param {
    axis: 0
  }
}
layer {
  name: "lstm2_h_conted_0"
  type: "Scale"
  bottom: "h_0"
  bottom: "cont_1"
  top: "h_conted_0"
  scale_param {
    axis: 0
  }
}
layer {
  name: "lstm2_transform_1"
  type: "InnerProduct"
  bottom: "h_conted_0"
  top: "W_hc_h_0"
  param {
    name: "W_hc"
  }
  inner_product_param {
    num_output: 4000
    bias_term: false
    weight_filler {
      type: "uniform"
      min: -0.08
      max: 0.08
    }
    axis: 2
  }
}
layer {
  name: "lstm2_gate_input_1"
  type: "Eltwise"
  bottom: "W_hc_h_0"
  bottom: "W_xc_x_1"
  top: "gate_input_1"
  eltwise_param {
    operation: SUM
  }
}
layer {
  name: "lstm2_unit_1"
  type: "LSTMUnit"
  bottom: "c_0"
  bottom: "gate_input_1"
  bottom: "cont_1"
  top: "c_1"
  top: "h_1"
}
layer {
  name: "lstm2_"
  type: "Split"
  bottom: "c_1"
  top: "c_T"
}
layer {
  name: "lstm2_h_concat"
  type: "Concat"
  bottom: "h_1"
  top: "h"
  concat_param {
    axis: 0
  }
}
layer {
  name: "h_pseudoloss"
  type: "Reduction"
  bottom: "h"
  top: "h_pseudoloss"
  loss_weight: 1
}
I0803 21:58:58.276757 27097 layer_factory.hpp:77] Creating layer lstm2_
I0803 21:58:58.276770 27097 net.cpp:91] Creating Layer lstm2_
I0803 21:58:58.276777 27097 net.cpp:399] lstm2_ -> x
I0803 21:58:58.276788 27097 net.cpp:399] lstm2_ -> cont
I0803 21:58:58.276859 27097 net.cpp:141] Setting up lstm2_
I0803 21:58:58.276875 27097 net.cpp:148] Top shape: 1 1 1501 (1501)
I0803 21:58:58.276882 27097 net.cpp:148] Top shape: 1 1 (1)
I0803 21:58:58.276887 27097 net.cpp:156] Memory required for data: 6008
I0803 21:58:58.276892 27097 layer_factory.hpp:77] Creating layer lstm2_
I0803 21:58:58.276906 27097 net.cpp:91] Creating Layer lstm2_
I0803 21:58:58.276913 27097 net.cpp:399] lstm2_ -> c_0
I0803 21:58:58.276924 27097 net.cpp:399] lstm2_ -> h_0
I0803 21:58:58.276984 27097 net.cpp:141] Setting up lstm2_
I0803 21:58:58.276995 27097 net.cpp:148] Top shape: 1 1 1000 (1000)
I0803 21:58:58.277003 27097 net.cpp:148] Top shape: 1 1 1000 (1000)
I0803 21:58:58.277006 27097 net.cpp:156] Memory required for data: 14008
I0803 21:58:58.277011 27097 layer_factory.hpp:77] Creating layer lstm2_cont_slice
I0803 21:58:58.277020 27097 net.cpp:91] Creating Layer lstm2_cont_slice
I0803 21:58:58.277026 27097 net.cpp:425] lstm2_cont_slice <- cont
I0803 21:58:58.277034 27097 net.cpp:399] lstm2_cont_slice -> cont_1
I0803 21:58:58.277073 27097 net.cpp:141] Setting up lstm2_cont_slice
I0803 21:58:58.277084 27097 net.cpp:148] Top shape: 1 1 (1)
I0803 21:58:58.277089 27097 net.cpp:156] Memory required for data: 14012
I0803 21:58:58.277093 27097 layer_factory.hpp:77] Creating layer cont_1_lstm2_cont_slice_0_split
I0803 21:58:58.277101 27097 net.cpp:91] Creating Layer cont_1_lstm2_cont_slice_0_split
I0803 21:58:58.277107 27097 net.cpp:425] cont_1_lstm2_cont_slice_0_split <- cont_1
I0803 21:58:58.277117 27097 net.cpp:399] cont_1_lstm2_cont_slice_0_split -> cont_1_lstm2_cont_slice_0_split_0
I0803 21:58:58.277125 27097 net.cpp:399] cont_1_lstm2_cont_slice_0_split -> cont_1_lstm2_cont_slice_0_split_1
I0803 21:58:58.277174 27097 net.cpp:141] Setting up cont_1_lstm2_cont_slice_0_split
I0803 21:58:58.277187 27097 net.cpp:148] Top shape: 1 1 (1)
I0803 21:58:58.277194 27097 net.cpp:148] Top shape: 1 1 (1)
I0803 21:58:58.277199 27097 net.cpp:156] Memory required for data: 14020
I0803 21:58:58.277204 27097 layer_factory.hpp:77] Creating layer lstm2_x_transform
I0803 21:58:58.277215 27097 net.cpp:91] Creating Layer lstm2_x_transform
I0803 21:58:58.277220 27097 net.cpp:425] lstm2_x_transform <- x
I0803 21:58:58.277230 27097 net.cpp:399] lstm2_x_transform -> W_xc_x
I0803 21:58:58.341897 27097 net.cpp:141] Setting up lstm2_x_transform
I0803 21:58:58.341953 27097 net.cpp:148] Top shape: 1 1 4000 (4000)
I0803 21:58:58.341959 27097 net.cpp:156] Memory required for data: 30020
I0803 21:58:58.341985 27097 layer_factory.hpp:77] Creating layer lstm2_W_xc_x_slice
I0803 21:58:58.342005 27097 net.cpp:91] Creating Layer lstm2_W_xc_x_slice
I0803 21:58:58.342012 27097 net.cpp:425] lstm2_W_xc_x_slice <- W_xc_x
I0803 21:58:58.342022 27097 net.cpp:399] lstm2_W_xc_x_slice -> W_xc_x_1
I0803 21:58:58.342077 27097 net.cpp:141] Setting up lstm2_W_xc_x_slice
I0803 21:58:58.342089 27097 net.cpp:148] Top shape: 1 1 4000 (4000)
I0803 21:58:58.342094 27097 net.cpp:156] Memory required for data: 46020
I0803 21:58:58.342099 27097 layer_factory.hpp:77] Creating layer lstm2_h_conted_0
I0803 21:58:58.342111 27097 net.cpp:91] Creating Layer lstm2_h_conted_0
I0803 21:58:58.342118 27097 net.cpp:425] lstm2_h_conted_0 <- h_0
I0803 21:58:58.342123 27097 net.cpp:425] lstm2_h_conted_0 <- cont_1_lstm2_cont_slice_0_split_0
I0803 21:58:58.342131 27097 net.cpp:399] lstm2_h_conted_0 -> h_conted_0
I0803 21:58:58.342239 27097 net.cpp:141] Setting up lstm2_h_conted_0
I0803 21:58:58.342250 27097 net.cpp:148] Top shape: 1 1 1000 (1000)
I0803 21:58:58.342255 27097 net.cpp:156] Memory required for data: 50020
I0803 21:58:58.342260 27097 layer_factory.hpp:77] Creating layer lstm2_transform_1
I0803 21:58:58.342273 27097 net.cpp:91] Creating Layer lstm2_transform_1
I0803 21:58:58.342280 27097 net.cpp:425] lstm2_transform_1 <- h_conted_0
I0803 21:58:58.342293 27097 net.cpp:399] lstm2_transform_1 -> W_hc_h_0
I0803 21:58:58.394532 27097 net.cpp:141] Setting up lstm2_transform_1
I0803 21:58:58.394683 27097 net.cpp:148] Top shape: 1 1 4000 (4000)
I0803 21:58:58.394691 27097 net.cpp:156] Memory required for data: 66020
I0803 21:58:58.394714 27097 layer_factory.hpp:77] Creating layer lstm2_gate_input_1
I0803 21:58:58.394737 27097 net.cpp:91] Creating Layer lstm2_gate_input_1
I0803 21:58:58.394743 27097 net.cpp:425] lstm2_gate_input_1 <- W_hc_h_0
I0803 21:58:58.394752 27097 net.cpp:425] lstm2_gate_input_1 <- W_xc_x_1
I0803 21:58:58.394770 27097 net.cpp:399] lstm2_gate_input_1 -> gate_input_1
I0803 21:58:58.394896 27097 net.cpp:141] Setting up lstm2_gate_input_1
I0803 21:58:58.394908 27097 net.cpp:148] Top shape: 1 1 4000 (4000)
I0803 21:58:58.394912 27097 net.cpp:156] Memory required for data: 82020
I0803 21:58:58.394917 27097 layer_factory.hpp:77] Creating layer lstm2_unit_1
I0803 21:58:58.394927 27097 net.cpp:91] Creating Layer lstm2_unit_1
I0803 21:58:58.394930 27097 net.cpp:425] lstm2_unit_1 <- c_0
I0803 21:58:58.394937 27097 net.cpp:425] lstm2_unit_1 <- gate_input_1
I0803 21:58:58.394942 27097 net.cpp:425] lstm2_unit_1 <- cont_1_lstm2_cont_slice_0_split_1
I0803 21:58:58.394948 27097 net.cpp:399] lstm2_unit_1 -> c_1
I0803 21:58:58.394956 27097 net.cpp:399] lstm2_unit_1 -> h_1
I0803 21:58:58.395020 27097 net.cpp:141] Setting up lstm2_unit_1
I0803 21:58:58.395030 27097 net.cpp:148] Top shape: 1 1 1000 (1000)
I0803 21:58:58.395035 27097 net.cpp:148] Top shape: 1 1 1000 (1000)
I0803 21:58:58.395040 27097 net.cpp:156] Memory required for data: 90020
I0803 21:58:58.395043 27097 layer_factory.hpp:77] Creating layer lstm2_
I0803 21:58:58.395052 27097 net.cpp:91] Creating Layer lstm2_
I0803 21:58:58.395057 27097 net.cpp:425] lstm2_ <- c_1
I0803 21:58:58.395064 27097 net.cpp:399] lstm2_ -> c_T
I0803 21:58:58.395094 27097 net.cpp:141] Setting up lstm2_
I0803 21:58:58.395103 27097 net.cpp:148] Top shape: 1 1 1000 (1000)
I0803 21:58:58.395107 27097 net.cpp:156] Memory required for data: 94020
I0803 21:58:58.395112 27097 layer_factory.hpp:77] Creating layer lstm2_h_concat
I0803 21:58:58.395125 27097 net.cpp:91] Creating Layer lstm2_h_concat
I0803 21:58:58.395130 27097 net.cpp:425] lstm2_h_concat <- h_1
I0803 21:58:58.395139 27097 net.cpp:399] lstm2_h_concat -> h
I0803 21:58:58.395172 27097 net.cpp:141] Setting up lstm2_h_concat
I0803 21:58:58.395180 27097 net.cpp:148] Top shape: 1 1 1000 (1000)
I0803 21:58:58.395185 27097 net.cpp:156] Memory required for data: 98020
I0803 21:58:58.395190 27097 layer_factory.hpp:77] Creating layer h_pseudoloss
I0803 21:58:58.395200 27097 net.cpp:91] Creating Layer h_pseudoloss
I0803 21:58:58.395206 27097 net.cpp:425] h_pseudoloss <- h
I0803 21:58:58.395212 27097 net.cpp:399] h_pseudoloss -> h_pseudoloss
I0803 21:58:58.395309 27097 net.cpp:141] Setting up h_pseudoloss
…
