…
Java HotSpot(TM) 64-Bit Server VM warning: You have loaded library /tmp/cvld2899106568001838105/libopencv_java310.xine1.so which might have disabled stack guard. The VM will try to fix the stack guard now.
It's highly recommended that you fix the library with 'execstack -c <libfile>', or link it with '-z noexecstack'.
WARNING: Logging before InitGoogleLogging() is written to STDERR
I0714 20:34:47.311810 32003 net.cpp:49] Initializing net from parameters: 
name: "GoogleNet"
state {
  phase: TEST
}
layer {
  name: "data"
  type: "Input"
  top: "data"
  input_param {
    shape {
      dim: 10
      dim: 3
      dim: 224
      dim: 224
    }
  }
}
layer {
  name: "conv1/7x7_s2"
  type: "Convolution"
  bottom: "data"
  top: "conv1/7x7_s2"
  param {
    lr_mult: 1
    decay_mult: 1
  }
  param {
    lr_mult: 2
    decay_mult: 0
  }
  convolution_param {
    num_output: 64
    pad: 3
    kernel_size: 7
    stride: 2
    weight_filler {
      type: "xavier"
      std: 0.1
    }
    bias_filler {
      type: "constant"
      value: 0.2
    }
  }
}
layer {
  name: "conv1/relu_7x7"
  type: "ReLU"
  bottom: "conv1/7x7_s2"
  top: "conv1/7x7_s2"
}
layer {
  name: "pool1/3x3_s2"
  type: "Pooling"
  bottom: "conv1/7x7_s2"
  top: "pool1/3x3_s2"
  pooling_param {
    pool: MAX
    kernel_size: 3
    stride: 2
  }
}
layer {
  name: "pool1/norm1"
  type: "LRN"
  bottom: "pool1/3x3_s2"
  top: "pool1/norm1"
  lrn_param {
    local_size: 5
    alpha: 0.0001
    beta: 0.75
  }
}
layer {
  name: "conv2/3x3_reduce"
  type: "Convolution"
  bottom: "pool1/norm1"
  top: "conv2/3x3_reduce"
  param {
    lr_mult: 1
    decay_mult: 1
  }
  param {
    lr_mult: 2
    decay_mult: 0
  }
  convolution_param {
    num_output: 64
    kernel_size: 1
    weight_filler {
      type: "xavier"
      std: 0.1
    }
    bias_filler {
      type: "constant"
      value: 0.2
    }
  }
}
layer {
  name: "conv2/relu_3x3_reduce"
  type: "ReLU"
  bottom: "conv2/3x3_reduce"
  top: "conv2/3x3_reduce"
}
layer {
  name: "conv2/3x3"
  type: "Convolution"
  bottom: "conv2/3x3_reduce"
  top: "conv2/3x3"
  param {
    lr_mult: 1
    decay_mult: 1
  }
  param {
    lr_mult: 2
    decay_mult: 0
  }
  convolution_param {
    num_output: 192
    pad: 1
    kernel_size: 3
    weight_filler {
      type: "xavier"
      std: 0.03
    }
    bias_filler {
      type: "constant"
      value: 0.2
    }
  }
}
layer {
  name: "conv2/relu_3x3"
  type: "ReLU"
  bottom: "conv2/3x3"
  top: "conv2/3x3"
}
layer {
  name: "conv2/norm2"
  type: "LRN"
  bottom: "conv2/3x3"
  top: "conv2/norm2"
  lrn_param {
    local_size: 5
    alpha: 0.0001
    beta: 0.75
  }
}
layer {
  name: "pool2/3x3_s2"
  type: "Pooling"
  bottom: "conv2/norm2"
  top: "pool2/3x3_s2"
  pooling_param {
    pool: MAX
    kernel_size: 3
    stride: 2
  }
}
layer {
  name: "inception_3a/1x1"
  type: "Convolution"
  bottom: "pool2/3x3_s2"
  top: "inception_3a/1x1"
  param {
    lr_mult: 1
    decay_mult: 1
  }
  param {
    lr_mult: 2
    decay_mult: 0
  }
  convolution_param {
    num_output: 64
    kernel_size: 1
    weight_filler {
      type: "xavier"
      std: 0.03
    }
    bias_filler {
      type: "constant"
      value: 0.2
    }
  }
}
layer {
  name: "inception_3a/relu_1x1"
  type: "ReLU"
  bottom: "inception_3a/1x1"
  top: "inception_3a/1x1"
}
layer {
  name: "inception_3a/3x3_reduce"
  type: "Convolution"
  bottom: "pool2/3x3_s2"
  top: "inception_3a/3x3_reduce"
  param {
    lr_mult: 1
    decay_mult: 1
  }
  param {
    lr_mult: 2
    decay_mult: 0
  }
  convolution_param {
    num_output: 96
    kernel_size: 1
    weight_filler {
      type: "xavier"
      std: 0.09
    }
    bias_filler {
      type: "constant"
      value: 0.2
    }
  }
}
layer {
  name: "inception_3a/relu_3x3_reduce"
  type: "ReLU"
  bottom: "inception_3a/3x3_reduce"
  top: "inception_3a/3x3_reduce"
}
layer {
  name: "inception_3a/3x3"
  type: "Convolution"
  bottom: "inception_3a/3x3_reduce"
  top: "inception_3a/3x3"
  param {
    lr_mult: 1
    decay_mult: 1
  }
  param {
    lr_mult: 2
    decay_mult: 0
  }
  convolution_param {
    num_output: 128
    pad: 1
    kernel_size: 3
    weight_filler {
      type: "xavier"
      std: 0.03
    }
    bias_filler {
      type: "constant"
      value: 0.2
    }
  }
}
layer {
  name: "inception_3a/relu_3x3"
  type: "ReLU"
  bottom: "inception_3a/3x3"
  top: "inception_3a/3x3"
}
layer {
  name: "inception_3a/5x5_reduce"
  type: "Convolution"
  bottom: "pool2/3x3_s2"
  top: "inception_3a/5x5_reduce"
  param {
    lr_mult: 1
    decay_mult: 1
  }
  param {
    lr_mult: 2
    decay_mult: 0
  }
  convolution_param {
    num_output: 16
    kernel_size: 1
    weight_filler {
      type: "xavier"
      std: 0.2
    }
    bias_filler {
      type: "constant"
      value: 0.2
    }
  }
}
layer {
  name: "inception_3a/relu_5x5_reduce"
  type: "ReLU"
  bottom: "inception_3a/5x5_reduce"
  top: "inception_3a/5x5_reduce"
}
layer {
  name: "inception_3a/5x5"
  type: "Convolution"
  bottom: "inception_3a/5x5_reduce"
  top: "inception_3a/5x5"
  param {
    lr_mult: 1
    decay_mult: 1
  }
  param {
    lr_mult: 2
    decay_mult: 0
  }
  convolution_param {
    num_output: 32
    pad: 2
    kernel_size: 5
    weight_filler {
      type: "xavier"
      std: 0.03
    }
    bias_filler {
      type: "constant"
      value: 0.2
    }
  }
}
layer {
  name: "inception_3a/relu_5x5"
  type: "ReLU"
  bottom: "inception_3a/5x5"
  top: "inception_3a/5x5"
}
layer {
  name: "inception_3a/pool"
  type: "Pooling"
  bottom: "pool2/3x3_s2"
  top: "inception_3a/pool"
  pooling_param {
    pool: MAX
    kernel_size: 3
    stride: 1
    pad: 1
  }
}
layer {
  name: "inception_3a/pool_proj"
  type: "Convolution"
  bottom: "inception_3a/pool"
  top: "inception_3a/pool_proj"
  param {
    lr_mult: 1
    decay_mult: 1
  }
  param {
    lr_mult: 2
    decay_mult: 0
  }
  convolution_param {
    num_output: 32
    kernel_size: 1
    weight_filler {
      type: "xavier"
      std: 0.1
    }
    bias_filler {
      type: "constant"
      value: 0.2
    }
  }
}
layer {
  name: "inception_3a/relu_pool_proj"
  type: "ReLU"
  bottom: "inception_3a/pool_proj"
  top: "inception_3a/pool_proj"
}
layer {
  name: "inception_3a/output"
  type: "Concat"
  bottom: "inception_3a/1x1"
  bottom: "inception_3a/3x3"
  bottom: "inception_3a/5x5"
  bottom: "inception_3a/pool_proj"
  top: "inception_3a/output"
}
layer {
  name: "inception_3b/1x1"
  type: "Convolution"
  bottom: "inception_3a/output"
  top: "inception_3b/1x1"
  param {
    lr_mult: 1
    decay_mult: 1
  }
  param {
    lr_mult: 2
    decay_mult: 0
  }
  convolution_param {
    num_output: 128
    kernel_size: 1
    weight_filler {
      type: "xavier"
      std: 0.03
    }
    bias_filler {
      type: "constant"
      value: 0.2
    }
  }
}
layer {
  name: "inception_3b/relu_1x1"
  type: "ReLU"
  bottom: "inception_3b/1x1"
  top: "inception_3b/1x1"
}
layer {
  name: "inception_3b/3x3_reduce"
  type: "Convolution"
  bottom: "inception_3a/output"
  top: "inception_3b/3x3_reduce"
  param {
    lr_mult: 1
    decay_mult: 1
  }
  param {
    lr_mult: 2
    decay_mult: 0
  }
  convolution_param {
    num_output: 128
    kernel_size: 1
    weight_filler {
      type: "xavier"
      std: 0.09
    }
    bias_filler {
      type: "constant"
      value: 0.2
    }
  }
}
layer {
  name: "inception_3b/relu_3x3_reduce"
  type: "ReLU"
  bottom: "inception_3b/3x3_reduce"
  top: "inception_3b/3x3_reduce"
}
layer {
  name: "inception_3b/3x3"
  type: "Convolution"
  bottom: "inception_3b/3x3_reduce"
  top: "inception_3b/3x3"
  param {
    lr_mult: 1
    decay_mult: 1
  }
  param {
    lr_mult: 2
    decay_mult: 0
  }
  convolution_param {
    num_output: 192
    pad: 1
    kernel_size: 3
    weight_filler {
      type: "xavier"
      std: 0.03
    }
    bias_filler {
      type: "constant"
      value: 0.2
    }
  }
}
layer {
  name: "inception_3b/relu_3x3"
  type: "ReLU"
  bottom: "inception_3b/3x3"
  top: "inception_3b/3x3"
}
layer {
  name: "inception_3b/5x5_reduce"
  type: "Convolution"
  bottom: "inception_3a/output"
  top: "inception_3b/5x5_reduce"
  param {
    lr_mult: 1
    decay_mult: 1
  }
  param {
    lr_mult: 2
    decay_mult: 0
  }
  convolution_param {
    num_output: 32
    kernel_size: 1
    weight_filler {
      type: "xavier"
      std: 0.2
    }
    bias_filler {
      type: "constant"
      value: 0.2
    }
  }
}
layer {
  name: "inception_3b/relu_5x5_reduce"
  type: "ReLU"
  bottom: "inception_3b/5x5_reduce"
  top: "inception_3b/5x5_reduce"
}
layer {
  name: "inception_3b/5x5"
  type: "Convolution"
  bottom: "inception_3b/5x5_reduce"
  top: "inception_3b/5x5"
  param {
    lr_mult: 1
    decay_mult: 1
  }
  param {
    lr_mult: 2
    decay_mult: 0
  }
  convolution_param {
    num_output: 96
    pad: 2
    kernel_size: 5
    weight_filler {
      type: "xavier"
      std: 0.03
    }
    bias_filler {
      type: "constant"
      value: 0.2
    }
  }
}
layer {
  name: "inception_3b/relu_5x5"
  type: "ReLU"
  bottom: "inception_3b/5x5"
  top: "inception_3b/5x5"
}
layer {
  name: "inception_3b/pool"
  type: "Pooling"
  bottom: "inception_3a/output"
  top: "inception_3b/pool"
  pooling_param {
    pool: MAX
    kernel_size: 3
    stride: 1
    pad: 1
  }
}
layer {
  name: "inception_3b/pool_proj"
  type: "Convolution"
  bottom: "inception_3b/pool"
  top: "inception_3b/pool_proj"
  param {
    lr_mult: 1
    decay_mult: 1
  }
  param {
    lr_mult: 2
    decay_mult: 0
  }
  convolution_param {
    num_output: 64
    kernel_size: 1
    weight_filler {
      type: "xavier"
      std: 0.1
    }
    bias_filler {
      type: "constant"
      value: 0.2
    }
  }
}
layer {
  name: "inception_3b/relu_pool_proj"
  type: "ReLU"
  bottom: "inception_3b/pool_proj"
  top: "inception_3b/pool_proj"
}
layer {
  name: "inception_3b/output"
  type: "Concat"
  bottom: "inception_3b/1x1"
  bottom: "inception_3b/3x3"
  bottom: "inception_3b/5x5"
  bottom: "inception_3b/pool_proj"
  top: "inception_3b/output"
}
layer {
  name: "pool3/3x3_s2"
  type: "Pooling"
  bottom: "inception_3b/output"
  top: "pool3/3x3_s2"
  pooling_param {
    pool: MAX
    kernel_size: 3
    stride: 2
  }
}
layer {
  name: "inception_4a/1x1"
  type: "Convolution"
  bottom: "pool3/3x3_s2"
  top: "inception_4a/1x1"
  param {
    lr_mult: 1
    decay_mult: 1
  }
  param {
    lr_mult: 2
    decay_mult: 0
  }
  convolution_param {
    num_output: 192
    kernel_size: 1
    weight_filler {
      type: "xavier"
      std: 0.03
    }
    bias_filler {
      type: "constant"
      value: 0.2
    }
  }
}
layer {
  name: "inception_4a/relu_1x1"
  type: "ReLU"
  bottom: "inception_4a/1x1"
  top: "inception_4a/1x1"
}
layer {
  name: "inception_4a/3x3_reduce"
  type: "Convolution"
  bottom: "pool3/3x3_s2"
  top: "inception_4a/3x3_reduce"
  param {
    lr_mult: 1
    decay_mult: 1
  }
  param {
    lr_mult: 2
    decay_mult: 0
  }
  convolution_param {
    num_output: 96
    kernel_size: 1
    weight_filler {
      type: "xavier"
      std: 0.09
    }
    bias_filler {
      type: "constant"
      value: 0.2
    }
  }
}
layer {
  name: "inception_4a/relu_3x3_reduce"
  type: "ReLU"
  bottom: "inception_4a/3x3_reduce"
  top: "inception_4a/3x3_reduce"
}
layer {
  name: "inception_4a/3x3"
  type: "Convolution"
  bottom: "inception_4a/3x3_reduce"
  top: "inception_4a/3x3"
  param {
    lr_mult: 1
    decay_mult: 1
  }
  param {
    lr_mult: 2
    decay_mult: 0
  }
  convolution_param {
    num_output: 208
    pad: 1
    kernel_size: 3
    weight_filler {
      type: "xavier"
      std: 0.03
    }
    bias_filler {
      type: "constant"
      value: 0.2
    }
  }
}
layer {
  name: "inception_4a/relu_3x3"
  type: "ReLU"
  bottom: "inception_4a/3x3"
  top: "inception_4a/3x3"
}
layer {
  name: "inception_4a/5x5_reduce"
  type: "Convolution"
  bottom: "pool3/3x3_s2"
  top: "inception_4a/5x5_reduce"
  param {
    lr_mult: 1
    decay_mult: 1
  }
  param {
    lr_mult: 2
    decay_mult: 0
  }
  convolution_param {
    num_output: 16
    kernel_size: 1
    weight_filler {
      type: "xavier"
      std: 0.2
    }
    bias_filler {
      type: "constant"
      value: 0.2
    }
  }
}
layer {
  name: "inception_4a/relu_5x5_reduce"
  type: "ReLU"
  bottom: "inception_4a/5x5_reduce"
  top: "inception_4a/5x5_reduce"
}
layer {
  name: "inception_4a/5x5"
  type: "Convolution"
  bottom: "inception_4a/5x5_reduce"
  top: "inception_4a/5x5"
  param {
    lr_mult: 1
    decay_mult: 1
  }
  param {
    lr_mult: 2
    decay_mult: 0
  }
  convolution_param {
    num_output: 48
    pad: 2
    kernel_size: 5
    weight_filler {
      type: "xavier"
      std: 0.03
    }
    bias_filler {
      type: "constant"
      value: 0.2
    }
  }
}
layer {
  name: "inception_4a/relu_5x5"
  type: "ReLU"
  bottom: "inception_4a/5x5"
  top: "inception_4a/5x5"
}
layer {
  name: "inception_4a/pool"
  type: "Pooling"
  bottom: "pool3/3x3_s2"
  top: "inception_4a/pool"
  pooling_param {
    pool: MAX
    kernel_size: 3
    stride: 1
    pad: 1
  }
}
layer {
  name: "inception_4a/pool_proj"
  type: "Convolution"
  bottom: "inception_4a/pool"
  top: "inception_4a/pool_proj"
  param {
    lr_mult: 1
    decay_mult: 1
  }
  param {
    lr_mult: 2
    decay_mult: 0
  }
  convolution_param {
    num_output: 64
    kernel_size: 1
    weight_filler {
      type: "xavier"
      std: 0.1
    }
    bias_filler {
      type: "constant"
      value: 0.2
    }
  }
}
layer {
  name: "inception_4a/relu_pool_proj"
  type: "ReLU"
  bottom: "inception_4a/pool_proj"
  top: "inception_4a/pool_proj"
}
layer {
  name: "inception_4a/output"
  type: "Concat"
  bottom: "inception_4a/1x1"
  bottom: "inception_4a/3x3"
  bottom: "inception_4a/5x5"
  bottom: "inception_4a/pool_proj"
  top: "inception_4a/output"
}
layer {
  name: "inception_4b/1x1"
  type: "Convolution"
  bottom: "inception_4a/output"
  top: "inception_4b/1x1"
  param {
    lr_mult: 1
    decay_mult: 1
  }
  param {
    lr_mult: 2
    decay_mult: 0
  }
  convolution_param {
    num_output: 160
    kernel_size: 1
    weight_filler {
      type: "xavier"
      std: 0.03
    }
    bias_filler {
      type: "constant"
      value: 0.2
    }
  }
}
layer {
  name: "inception_4b/relu_1x1"
  type: "ReLU"
  bottom: "inception_4b/1x1"
  top: "inception_4b/1x1"
}
layer {
  name: "inception_4b/3x3_reduce"
  type: "Convolution"
  bottom: "inception_4a/output"
  top: "inception_4b/3x3_reduce"
  param {
    lr_mult: 1
    decay_mult: 1
  }
  param {
    lr_mult: 2
    decay_mult: 0
  }
  convolution_param {
    num_output: 112
    kernel_size: 1
    weight_filler {
      type: "xavier"
      std: 0.09
    }
    bias_filler {
      type: "constant"
      value: 0.2
    }
  }
}
layer {
  name: "inception_4b/relu_3x3_reduce"
  type: "ReLU"
  bottom: "inception_4b/3x3_reduce"
  top: "inception_4b/3x3_reduce"
}
layer {
  name: "inception_4b/3x3"
  type: "Convolution"
  bottom: "inception_4b/3x3_reduce"
  top: "inception_4b/3x3"
  param {
    lr_mult: 1
    decay_mult: 1
  }
  param {
    lr_mult: 2
    decay_mult: 0
  }
  convolution_param {
    num_output: 224
    pad: 1
    kernel_size: 3
    weight_filler {
      type: "xavier"
      std: 0.03
    }
    bias_filler {
      type: "constant"
      value: 0.2
    }
  }
}
layer {
  name: "inception_4b/relu_3x3"
  type: "ReLU"
  bottom: "inception_4b/3x3"
  top: "inception_4b/3x3"
}
layer {
  name: "inception_4b/5x5_reduce"
  type: "Convolution"
  bottom: "inception_4a/output"
  top: "inception_4b/5x5_reduce"
  param {
    lr_mult: 1
    decay_mult: 1
  }
  param {
    lr_mult: 2
    decay_mult: 0
  }
  convolution_param {
    num_output: 24
    kernel_size: 1
    weight_filler {
      type: "xavier"
      std: 0.2
    }
    bias_filler {
      type: "constant"
      value: 0.2
    }
  }
}
layer {
  name: "inception_4b/relu_5x5_reduce"
  type: "ReLU"
  bottom: "inception_4b/5x5_reduce"
  top: "inception_4b/5x5_reduce"
}
layer {
  name: "inception_4b/5x5"
  type: "Convolution"
  bottom: "inception_4b/5x5_reduce"
  top: "inception_4b/5x5"
  param {
    lr_mult: 1
    decay_mult: 1
  }
  param {
    lr_mult: 2
    decay_mult: 0
  }
  convolution_param {
    num_output: 64
    pad: 2
    kernel_size: 5
    weight_filler {
      type: "xavier"
      std: 0.03
    }
    bias_filler {
      type: "constant"
      value: 0.2
    }
  }
}
layer {
  name: "inception_4b/relu_5x5"
  type: "ReLU"
  bottom: "inception_4b/5x5"
  top: "inception_4b/5x5"
}
layer {
  name: "inception_4b/pool"
  type: "Pooling"
  bottom: "inception_4a/output"
  top: "inception_4b/pool"
  pooling_param {
    pool: MAX
    kernel_size: 3
    stride: 1
    pad: 1
  }
}
layer {
  name: "inception_4b/pool_proj"
  type: "Convolution"
  bottom: "inception_4b/pool"
  top: "inception_4b/pool_proj"
  param {
    lr_mult: 1
    decay_mult: 1
  }
  param {
    lr_mult: 2
    decay_mult: 0
  }
  convolution_param {
    num_output: 64
    kernel_size: 1
    weight_filler {
      type: "xavier"
      std: 0.1
    }
    bias_filler {
      type: "constant"
      value: 0.2
    }
  }
}
layer {
  name: "inception_4b/relu_pool_proj"
  type: "ReLU"
  bottom: "inception_4b/pool_proj"
  top: "inception_4b/pool_proj"
}
layer {
  name: "inception_4b/output"
  type: "Concat"
  bottom: "inception_4b/1x1"
  bottom: "inception_4b/3x3"
  bottom: "inception_4b/5x5"
  bottom: "inception_4b/pool_proj"
  top: "inception_4b/output"
}
layer {
  name: "inception_4c/1x1"
  type: "Convolution"
  bottom: "inception_4b/output"
  top: "inception_4c/1x1"
  param {
    lr_mult: 1
    decay_mult: 1
  }
  param {
    lr_mult: 2
    decay_mult: 0
  }
  convolution_param {
    num_output: 128
    kernel_size: 1
    weight_filler {
      type: "xavier"
      std: 0.03
    }
    bias_filler {
      type: "constant"
      value: 0.2
    }
  }
}
layer {
  name: "inception_4c/relu_1x1"
  type: "ReLU"
  bottom: "inception_4c/1x1"
  top: "inception_4c/1x1"
}
layer {
  name: "inception_4c/3x3_reduce"
  type: "Convolution"
  bottom: "inception_4b/output"
  top: "inception_4c/3x3_reduce"
  param {
    lr_mult: 1
    decay_mult: 1
  }
  param {
    lr_mult: 2
    decay_mult: 0
  }
  convolution_param {
    num_output: 128
    kernel_size: 1
    weight_filler {
      type: "xavier"
      std: 0.09
    }
    bias_filler {
      type: "constant"
      value: 0.2
    }
  }
}
layer {
  name: "inception_4c/relu_3x3_reduce"
  type: "ReLU"
  bottom: "inception_4c/3x3_reduce"
  top: "inception_4c/3x3_reduce"
}
layer {
  name: "inception_4c/3x3"
  type: "Convolution"
  bottom: "inception_4c/3x3_reduce"
  top: "inception_4c/3x3"
  param {
    lr_mult: 1
    decay_mult: 1
  }
  param {
    lr_mult: 2
    decay_mult: 0
  }
  convolution_param {
    num_output: 256
    pad: 1
    kernel_size: 3
    weight_filler {
      type: "xavier"
      std: 0.03
    }
    bias_filler {
      type: "constant"
      value: 0.2
    }
  }
}
layer {
  name: "inception_4c/relu_3x3"
  type: "ReLU"
  bottom: "inception_4c/3x3"
  top: "inception_4c/3x3"
}
layer {
  name: "inception_4c/5x5_reduce"
  type: "Convolution"
  bottom: "inception_4b/output"
  top: "inception_4c/5x5_reduce"
  param {
    lr_mult: 1
    decay_mult: 1
  }
  param {
    lr_mult: 2
    decay_mult: 0
  }
  convolution_param {
    num_output: 24
    kernel_size: 1
    weight_filler {
      type: "xavier"
      std: 0.2
    }
    bias_filler {
      type: "constant"
      value: 0.2
    }
  }
}
layer {
  name: "inception_4c/relu_5x5_reduce"
  type: "ReLU"
  bottom: "inception_4c/5x5_reduce"
  top: "inception_4c/5x5_reduce"
}
layer {
  name: "inception_4c/5x5"
  type: "Convolution"
  bottom: "inception_4c/5x5_reduce"
  top: "inception_4c/5x5"
  param {
    lr_mult: 1
    decay_mult: 1
  }
  param {
    lr_mult: 2
    decay_mult: 0
  }
  convolution_param {
    num_output: 64
    pad: 2
    kernel_size: 5
    weight_filler {
      type: "xavier"
      std: 0.03
    }
    bias_filler {
      type: "constant"
      value: 0.2
    }
  }
}
layer {
  name: "inception_4c/relu_5x5"
  type: "ReLU"
  bottom: "inception_4c/5x5"
  top: "inception_4c/5x5"
}
layer {
  name: "inception_4c/pool"
  type: "Pooling"
  bottom: "inception_4b/output"
  top: "inception_4c/pool"
  pooling_param {
    pool: MAX
    kernel_size: 3
    stride: 1
    pad: 1
  }
}
layer {
  name: "inception_4c/pool_proj"
  type: "Convolution"
  bottom: "inception_4c/pool"
  top: "inception_4c/pool_proj"
  param {
    lr_mult: 1
    decay_mult: 1
  }
  param {
    lr_mult: 2
    decay_mult: 0
  }
  convolution_param {
    num_output: 64
    kernel_size: 1
    weight_filler {
      type: "xavier"
      std: 0.1
    }
    bias_filler {
      type: "constant"
      value: 0.2
    }
  }
}
layer {
  name: "inception_4c/relu_pool_proj"
  type: "ReLU"
  bottom: "inception_4c/pool_proj"
  top: "inception_4c/pool_proj"
}
layer {
  name: "inception_4c/output"
  type: "Concat"
  bottom: "inception_4c/1x1"
  bottom: "inception_4c/3x3"
  bottom: "inception_4c/5x5"
  bottom: "inception_4c/pool_proj"
  top: "inception_4c/output"
}
layer {
  name: "inception_4d/1x1"
  type: "Convolution"
  bottom: "inception_4c/output"
  top: "inception_4d/1x1"
  param {
    lr_mult: 1
    decay_mult: 1
  }
  param {
    lr_mult: 2
    decay_mult: 0
  }
  convolution_param {
    num_output: 112
    kernel_size: 1
    weight_filler {
      type: "xavier"
      std: 0.03
    }
    bias_filler {
      type: "constant"
      value: 0.2
    }
  }
}
layer {
  name: "inception_4d/relu_1x1"
  type: "ReLU"
  bottom: "inception_4d/1x1"
  top: "inception_4d/1x1"
}
layer {
  name: "inception_4d/3x3_reduce"
  type: "Convolution"
  bottom: "inception_4c/output"
  top: "inception_4d/3x3_reduce"
  param {
    lr_mult: 1
    decay_mult: 1
  }
  param {
    lr_mult: 2
    decay_mult: 0
  }
  convolution_param {
    num_output: 144
    kernel_size: 1
    weight_filler {
      type: "xavier"
      std: 0.09
    }
    bias_filler {
      type: "constant"
      value: 0.2
    }
  }
}
layer {
  name: "inception_4d/relu_3x3_reduce"
  type: "ReLU"
  bottom: "inception_4d/3x3_reduce"
  top: "inception_4d/3x3_reduce"
}
layer {
  name: "inception_4d/3x3"
  type: "Convolution"
  bottom: "inception_4d/3x3_reduce"
  top: "inception_4d/3x3"
  param {
    lr_mult: 1
    decay_mult: 1
  }
  param {
    lr_mult: 2
    decay_mult: 0
  }
  convolution_param {
    num_output: 288
    pad: 1
    kernel_size: 3
    weight_filler {
      type: "xavier"
      std: 0.03
    }
    bias_filler {
      type: "constant"
      value: 0.2
    }
  }
}
layer {
  name: "inception_4d/relu_3x3"
  type: "ReLU"
  bottom: "inception_4d/3x3"
  top: "inception_4d/3x3"
}
layer {
  name: "inception_4d/5x5_reduce"
  type: "Convolution"
  bottom: "inception_4c/output"
  top: "inception_4d/5x5_reduce"
  param {
    lr_mult: 1
    decay_mult: 1
  }
  param {
    lr_mult: 2
    decay_mult: 0
  }
  convolution_param {
    num_output: 32
    kernel_size: 1
    weight_filler {
      type: "xavier"
      std: 0.2
    }
    bias_filler {
      type: "constant"
      value: 0.2
    }
  }
}
layer {
  name: "inception_4d/relu_5x5_reduce"
  type: "ReLU"
  bottom: "inception_4d/5x5_reduce"
  top: "inception_4d/5x5_reduce"
}
layer {
  name: "inception_4d/5x5"
  type: "Convolution"
  bottom: "inception_4d/5x5_reduce"
  top: "inception_4d/5x5"
  param {
    lr_mult: 1
    decay_mult: 1
  }
  param {
    lr_mult: 2
    decay_mult: 0
  }
  convolution_param {
    num_output: 64
    pad: 2
    kernel_size: 5
    weight_filler {
      type: "xavier"
      std: 0.03
    }
    bias_filler {
      type: "constant"
      value: 0.2
    }
  }
}
layer {
  name: "inception_4d/relu_5x5"
  type: "ReLU"
  bottom: "inception_4d/5x5"
  top: "inception_4d/5x5"
}
layer {
  name: "inception_4d/pool"
  type: "Pooling"
  bottom: "inception_4c/output"
  top: "inception_4d/pool"
  pooling_param {
    pool: MAX
    kernel_size: 3
    stride: 1
    pad: 1
  }
}
layer {
  name: "inception_4d/pool_proj"
  type: "Convolution"
  bottom: "inception_4d/pool"
  top: "inception_4d/pool_proj"
  param {
    lr_mult: 1
    decay_mult: 1
  }
  param {
    lr_mult: 2
    decay_mult: 0
  }
  convolution_param {
    num_output: 64
    kernel_size: 1
    weight_filler {
      type: "xavier"
      std: 0.1
    }
    bias_filler {
      type: "constant"
      value: 0.2
    }
  }
}
layer {
  name: "inception_4d/relu_pool_proj"
  type: "ReLU"
  bottom: "inception_4d/pool_proj"
  top: "inception_4d/pool_proj"
}
layer {
  name: "inception_4d/output"
  type: "Concat"
  bottom: "inception_4d/1x1"
  bottom: "inception_4d/3x3"
  bottom: "inception_4d/5x5"
  bottom: "inception_4d/pool_proj"
  top: "inception_4d/output"
}
layer {
  name: "inception_4e/1x1"
  type: "Convolution"
  bottom: "inception_4d/output"
  top: "inception_4e/1x1"
  param {
    lr_mult: 1
    decay_mult: 1
  }
  param {
    lr_mult: 2
    decay_mult: 0
  }
  convolution_param {
    num_output: 256
    kernel_size: 1
    weight_filler {
      type: "xavier"
      std: 0.03
    }
    bias_filler {
      type: "constant"
      value: 0.2
    }
  }
}
layer {
  name: "inception_4e/relu_1x1"
  type: "ReLU"
  bottom: "inception_4e/1x1"
  top: "inception_4e/1x1"
}
layer {
  name: "inception_4e/3x3_reduce"
  type: "Convolution"
  bottom: "inception_4d/output"
  top: "inception_4e/3x3_reduce"
  param {
    lr_mult: 1
    decay_mult: 1
  }
  param {
    lr_mult: 2
    decay_mult: 0
  }
  convolution_param {
    num_output: 160
    kernel_size: 1
    weight_filler {
      type: "xavier"
      std: 0.09
    }
    bias_filler {
      type: "constant"
      value: 0.2
    }
  }
}
layer {
  name: "inception_4e/relu_3x3_reduce"
  type: "ReLU"
  bottom: "inception_4e/3x3_reduce"
  top: "inception_4e/3x3_reduce"
}
layer {
  name: "inception_4e/3x3"
  type: "Convolution"
  bottom: "inception_4e/3x3_reduce"
  top: "inception_4e/3x3"
  param {
    lr_mult: 1
    decay_mult: 1
  }
  param {
    lr_mult: 2
    decay_mult: 0
  }
  convolution_param {
    num_output: 320
    pad: 1
    kernel_size: 3
    weight_filler {
      type: "xavier"
      std: 0.03
    }
    bias_filler {
      type: "constant"
      value: 0.2
    }
  }
}
layer {
  name: "inception_4e/relu_3x3"
  type: "ReLU"
  bottom: "inception_4e/3x3"
  top: "inception_4e/3x3"
}
layer {
  name: "inception_4e/5x5_reduce"
  type: "Convolution"
  bottom: "inception_4d/output"
  top: "inception_4e/5x5_reduce"
  param {
    lr_mult: 1
    decay_mult: 1
  }
  param {
    lr_mult: 2
    decay_mult: 0
  }
  convolution_param {
    num_output: 32
    kernel_size: 1
    weight_filler {
      type: "xavier"
      std: 0.2
    }
    bias_filler {
      type: "constant"
      value: 0.2
    }
  }
}
layer {
  name: "inception_4e/relu_5x5_reduce"
  type: "ReLU"
  bottom: "inception_4e/5x5_reduce"
  top: "inception_4e/5x5_reduce"
}
layer {
  name: "inception_4e/5x5"
  type: "Convolution"
  bottom: "inception_4e/5x5_reduce"
  top: "inception_4e/5x5"
  param {
    lr_mult: 1
    decay_mult: 1
  }
  param {
    lr_mult: 2
    decay_mult: 0
  }
  convolution_param {
    num_output: 128
    pad: 2
    kernel_size: 5
    weight_filler {
      type: "xavier"
      std: 0.03
    }
    bias_filler {
      type: "constant"
      value: 0.2
    }
  }
}
layer {
  name: "inception_4e/relu_5x5"
  type: "ReLU"
  bottom: "inception_4e/5x5"
  top: "inception_4e/5x5"
}
layer {
  name: "inception_4e/pool"
  type: "Pooling"
  bottom: "inception_4d/output"
  top: "inception_4e/pool"
  pooling_param {
    pool: MAX
    kernel_size: 3
    stride: 1
    pad: 1
  }
}
layer {
  name: "inception_4e/pool_proj"
  type: "Convolution"
  bottom: "inception_4e/pool"
  top: "inception_4e/pool_proj"
  param {
    lr_mult: 1
    decay_mult: 1
  }
  param {
    lr_mult: 2
    decay_mult: 0
  }
  convolution_param {
    num_output: 128
    kernel_size: 1
    weight_filler {
      type: "xavier"
      std: 0.1
    }
    bias_filler {
      type: "constant"
      value: 0.2
    }
  }
}
layer {
  name: "inception_4e/relu_pool_proj"
  type: "ReLU"
  bottom: "inception_4e/pool_proj"
  top: "inception_4e/pool_proj"
}
layer {
  name: "inception_4e/output"
  type: "Concat"
  bottom: "inception_4e/1x1"
  bottom: "inception_4e/3x3"
  bottom: "inception_4e/5x5"
  bottom: "inception_4e/pool_proj"
  top: "inception_4e/output"
}
layer {
  name: "pool4/3x3_s2"
  type: "Pooling"
  bottom: "inception_4e/output"
  top: "pool4/3x3_s2"
  pooling_param {
    pool: MAX
    kernel_size: 3
    stride: 2
  }
}
layer {
  name: "inception_5a/1x1"
  type: "Convolution"
  bottom: "pool4/3x3_s2"
  top: "inception_5a/1x1"
  param {
    lr_mult: 1
    decay_mult: 1
  }
  param {
    lr_mult: 2
    decay_mult: 0
  }
  convolution_param {
    num_output: 256
    kernel_size: 1
    weight_filler {
      type: "xavier"
      std: 0.03
    }
    bias_filler {
      type: "constant"
      value: 0.2
    }
  }
}
layer {
  name: "inception_5a/relu_1x1"
  type: "ReLU"
  bottom: "inception_5a/1x1"
  top: "inception_5a/1x1"
}
layer {
  name: "inception_5a/3x3_reduce"
  type: "Convolution"
  bottom: "pool4/3x3_s2"
  top: "inception_5a/3x3_reduce"
  param {
    lr_mult: 1
    decay_mult: 1
  }
  param {
    lr_mult: 2
    decay_mult: 0
  }
  convolution_param {
    num_output: 160
    kernel_size: 1
    weight_filler {
      type: "xavier"
      std: 0.09
    }
    bias_filler {
      type: "constant"
      value: 0.2
    }
  }
}
layer {
  name: "inception_5a/relu_3x3_reduce"
  type: "ReLU"
  bottom: "inception_5a/3x3_reduce"
  top: "inception_5a/3x3_reduce"
}
layer {
  name: "inception_5a/3x3"
  type: "Convolution"
  bottom: "inception_5a/3x3_reduce"
  top: "inception_5a/3x3"
  param {
    lr_mult: 1
    decay_mult: 1
  }
  param {
    lr_mult: 2
    decay_mult: 0
  }
  convolution_param {
    num_output: 320
    pad: 1
    kernel_size: 3
    weight_filler {
      type: "xavier"
      std: 0.03
    }
    bias_filler {
      type: "constant"
      value: 0.2
    }
  }
}
layer {
  name: "inception_5a/relu_3x3"
  type: "ReLU"
  bottom: "inception_5a/3x3"
  top: "inception_5a/3x3"
}
layer {
  name: "inception_5a/5x5_reduce"
  type: "Convolution"
  bottom: "pool4/3x3_s2"
  top: "inception_5a/5x5_reduce"
  param {
    lr_mult: 1
    decay_mult: 1
  }
  param {
    lr_mult: 2
    decay_mult: 0
  }
  convolution_param {
    num_output: 32
    kernel_size: 1
    weight_filler {
      type: "xavier"
      std: 0.2
    }
    bias_filler {
      type: "constant"
      value: 0.2
    }
I0714 20:34:47.312872 32003 layer_factory.hpp:77] Creating layer data
I0714 20:34:47.312903 32003 net.cpp:91] Creating Layer data
I0714 20:34:47.312916 32003 net.cpp:399] data -> data
I0714 20:34:47.319589 32007 net.cpp:49] Initializing net from parameters: 
name: "GoogleNet"
state {
  phase: TEST
}
layer {
  name: "data"
  type: "Input"
  top: "data"
  input_param {
    shape {
      dim: 10
      dim: 3
      dim: 224
      dim: 224
    }
  }
}
layer {
  name: "conv1/7x7_s2"
  type: "Convolution"
  bottom: "data"
  top: "conv1/7x7_s2"
  param {
    lr_mult: 1
    decay_mult: 1
  }
  param {
    lr_mult: 2
    decay_mult: 0
  }
  convolution_param {
    num_output: 64
    pad: 3
    kernel_size: 7
    stride: 2
    weight_filler {
      type: "xavier"
      std: 0.1
    }
    bias_filler {
      type: "constant"
      value: 0.2
    }
  }
}
layer {
  name: "conv1/relu_7x7"
  type: "ReLU"
  bottom: "conv1/7x7_s2"
  top: "conv1/7x7_s2"
}
layer {
  name: "pool1/3x3_s2"
  type: "Pooling"
  bottom: "conv1/7x7_s2"
  top: "pool1/3x3_s2"
  pooling_param {
    pool: MAX
    kernel_size: 3
    stride: 2
  }
}
layer {
  name: "pool1/norm1"
  type: "LRN"
  bottom: "pool1/3x3_s2"
  top: "pool1/norm1"
  lrn_param {
    local_size: 5
    alpha: 0.0001
    beta: 0.75
  }
}
layer {
  name: "conv2/3x3_reduce"
  type: "Convolution"
  bottom: "pool1/norm1"
  top: "conv2/3x3_reduce"
  param {
    lr_mult: 1
    decay_mult: 1
  }
  param {
    lr_mult: 2
    decay_mult: 0
  }
  convolution_param {
    num_output: 64
    kernel_size: 1
    weight_filler {
      type: "xavier"
      std: 0.1
    }
    bias_filler {
      type: "constant"
      value: 0.2
    }
  }
}
layer {
  name: "conv2/relu_3x3_reduce"
  type: "ReLU"
  bottom: "conv2/3x3_reduce"
  top: "conv2/3x3_reduce"
}
layer {
  name: "conv2/3x3"
  type: "Convolution"
  bottom: "conv2/3x3_reduce"
  top: "conv2/3x3"
  param {
    lr_mult: 1
    decay_mult: 1
  }
  param {
    lr_mult: 2
    decay_mult: 0
  }
  convolution_param {
    num_output: 192
    pad: 1
    kernel_size: 3
    weight_filler {
      type: "xavier"
      std: 0.03
    }
    bias_filler {
      type: "constant"
      value: 0.2
    }
  }
}
layer {
  name: "conv2/relu_3x3"
  type: "ReLU"
  bottom: "conv2/3x3"
  top: "conv2/3x3"
}
layer {
  name: "conv2/norm2"
  type: "LRN"
  bottom: "conv2/3x3"
  top: "conv2/norm2"
  lrn_param {
    local_size: 5
    alpha: 0.0001
    beta: 0.75
  }
}
layer {
  name: "pool2/3x3_s2"
  type: "Pooling"
  bottom: "conv2/norm2"
  top: "pool2/3x3_s2"
  pooling_param {
    pool: MAX
    kernel_size: 3
    stride: 2
  }
}
layer {
  name: "inception_3a/1x1"
  type: "Convolution"
  bottom: "pool2/3x3_s2"
  top: "inception_3a/1x1"
  param {
    lr_mult: 1
    decay_mult: 1
  }
  param {
    lr_mult: 2
    decay_mult: 0
  }
  convolution_param {
    num_output: 64
    kernel_size: 1
    weight_filler {
      type: "xavier"
      std: 0.03
    }
    bias_filler {
      type: "constant"
      value: 0.2
    }
  }
}
layer {
  name: "inception_3a/relu_1x1"
  type: "ReLU"
  bottom: "inception_3a/1x1"
  top: "inception_3a/1x1"
}
layer {
  name: "inception_3a/3x3_reduce"
  type: "Convolution"
  bottom: "pool2/3x3_s2"
  top: "inception_3a/3x3_reduce"
  param {
    lr_mult: 1
    decay_mult: 1
  }
  param {
    lr_mult: 2
    decay_mult: 0
  }
  convolution_param {
    num_output: 96
    kernel_size: 1
    weight_filler {
      type: "xavier"
      std: 0.09
    }
    bias_filler {
      type: "constant"
      value: 0.2
    }
  }
}
layer {
  name: "inception_3a/relu_3x3_reduce"
  type: "ReLU"
  bottom: "inception_3a/3x3_reduce"
  top: "inception_3a/3x3_reduce"
}
layer {
  name: "inception_3a/3x3"
  type: "Convolution"
  bottom: "inception_3a/3x3_reduce"
  top: "inception_3a/3x3"
  param {
    lr_mult: 1
    decay_mult: 1
  }
  param {
    lr_mult: 2
    decay_mult: 0
  }
  convolution_param {
    num_output: 128
    pad: 1
    kernel_size: 3
    weight_filler {
      type: "xavier"
      std: 0.03
    }
    bias_filler {
      type: "constant"
      value: 0.2
    }
  }
}
layer {
  name: "inception_3a/relu_3x3"
  type: "ReLU"
  bottom: "inception_3a/3x3"
  top: "inception_3a/3x3"
}
layer {
  name: "inception_3a/5x5_reduce"
  type: "Convolution"
  bottom: "pool2/3x3_s2"
  top: "inception_3a/5x5_reduce"
  param {
    lr_mult: 1
    decay_mult: 1
  }
  param {
    lr_mult: 2
    decay_mult: 0
  }
  convolution_param {
    num_output: 16
    kernel_size: 1
    weight_filler {
      type: "xavier"
      std: 0.2
    }
    bias_filler {
      type: "constant"
      value: 0.2
    }
  }
}
layer {
  name: "inception_3a/relu_5x5_reduce"
  type: "ReLU"
  bottom: "inception_3a/5x5_reduce"
  top: "inception_3a/5x5_reduce"
}
layer {
  name: "inception_3a/5x5"
  type: "Convolution"
  bottom: "inception_3a/5x5_reduce"
  top: "inception_3a/5x5"
  param {
    lr_mult: 1
    decay_mult: 1
  }
  param {
    lr_mult: 2
    decay_mult: 0
  }
  convolution_param {
    num_output: 32
    pad: 2
    kernel_size: 5
    weight_filler {
      type: "xavier"
      std: 0.03
    }
    bias_filler {
      type: "constant"
      value: 0.2
    }
  }
}
layer {
  name: "inception_3a/relu_5x5"
  type: "ReLU"
  bottom: "inception_3a/5x5"
  top: "inception_3a/5x5"
}
layer {
  name: "inception_3a/pool"
  type: "Pooling"
  bottom: "pool2/3x3_s2"
  top: "inception_3a/pool"
  pooling_param {
    pool: MAX
    kernel_size: 3
    stride: 1
    pad: 1
  }
}
layer {
  name: "inception_3a/pool_proj"
  type: "Convolution"
  bottom: "inception_3a/pool"
  top: "inception_3a/pool_proj"
  param {
    lr_mult: 1
    decay_mult: 1
  }
  param {
    lr_mult: 2
    decay_mult: 0
  }
  convolution_param {
    num_output: 32
    kernel_size: 1
    weight_filler {
      type: "xavier"
      std: 0.1
    }
    bias_filler {
      type: "constant"
      value: 0.2
    }
  }
}
layer {
  name: "inception_3a/relu_pool_proj"
  type: "ReLU"
  bottom: "inception_3a/pool_proj"
  top: "inception_3a/pool_proj"
}
layer {
  name: "inception_3a/output"
  type: "Concat"
  bottom: "inception_3a/1x1"
  bottom: "inception_3a/3x3"
  bottom: "inception_3a/5x5"
  bottom: "inception_3a/pool_proj"
  top: "inception_3a/output"
}
layer {
  name: "inception_3b/1x1"
  type: "Convolution"
  bottom: "inception_3a/output"
  top: "inception_3b/1x1"
  param {
    lr_mult: 1
    decay_mult: 1
  }
  param {
    lr_mult: 2
    decay_mult: 0
  }
  convolution_param {
    num_output: 128
    kernel_size: 1
    weight_filler {
      type: "xavier"
      std: 0.03
    }
    bias_filler {
      type: "constant"
      value: 0.2
    }
  }
}
layer {
  name: "inception_3b/relu_1x1"
  type: "ReLU"
  bottom: "inception_3b/1x1"
  top: "inception_3b/1x1"
}
layer {
  name: "inception_3b/3x3_reduce"
  type: "Convolution"
  bottom: "inception_3a/output"
  top: "inception_3b/3x3_reduce"
  param {
    lr_mult: 1
    decay_mult: 1
  }
  param {
    lr_mult: 2
    decay_mult: 0
  }
  convolution_param {
    num_output: 128
    kernel_size: 1
    weight_filler {
      type: "xavier"
      std: 0.09
    }
    bias_filler {
      type: "constant"
      value: 0.2
    }
  }
}
layer {
  name: "inception_3b/relu_3x3_reduce"
  type: "ReLU"
  bottom: "inception_3b/3x3_reduce"
  top: "inception_3b/3x3_reduce"
}
layer {
  name: "inception_3b/3x3"
  type: "Convolution"
  bottom: "inception_3b/3x3_reduce"
  top: "inception_3b/3x3"
  param {
    lr_mult: 1
    decay_mult: 1
  }
  param {
    lr_mult: 2
    decay_mult: 0
  }
  convolution_param {
    num_output: 192
    pad: 1
    kernel_size: 3
    weight_filler {
      type: "xavier"
      std: 0.03
    }
    bias_filler {
      type: "constant"
      value: 0.2
    }
  }
}
layer {
  name: "inception_3b/relu_3x3"
  type: "ReLU"
  bottom: "inception_3b/3x3"
  top: "inception_3b/3x3"
}
layer {
  name: "inception_3b/5x5_reduce"
  type: "Convolution"
  bottom: "inception_3a/output"
  top: "inception_3b/5x5_reduce"
  param {
    lr_mult: 1
    decay_mult: 1
  }
  param {
    lr_mult: 2
    decay_mult: 0
  }
  convolution_param {
    num_output: 32
    kernel_size: 1
    weight_filler {
      type: "xavier"
      std: 0.2
    }
    bias_filler {
      type: "constant"
      value: 0.2
    }
  }
}
layer {
  name: "inception_3b/relu_5x5_reduce"
  type: "ReLU"
  bottom: "inception_3b/5x5_reduce"
  top: "inception_3b/5x5_reduce"
}
layer {
  name: "inception_3b/5x5"
  type: "Convolution"
  bottom: "inception_3b/5x5_reduce"
  top: "inception_3b/5x5"
  param {
    lr_mult: 1
    decay_mult: 1
  }
  param {
    lr_mult: 2
    decay_mult: 0
  }
  convolution_param {
    num_output: 96
    pad: 2
    kernel_size: 5
    weight_filler {
      type: "xavier"
      std: 0.03
    }
    bias_filler {
      type: "constant"
      value: 0.2
    }
  }
}
layer {
  name: "inception_3b/relu_5x5"
  type: "ReLU"
  bottom: "inception_3b/5x5"
  top: "inception_3b/5x5"
}
layer {
  name: "inception_3b/pool"
  type: "Pooling"
  bottom: "inception_3a/output"
  top: "inception_3b/pool"
  pooling_param {
    pool: MAX
    kernel_size: 3
    stride: 1
    pad: 1
  }
}
layer {
  name: "inception_3b/pool_proj"
  type: "Convolution"
  bottom: "inception_3b/pool"
  top: "inception_3b/pool_proj"
  param {
    lr_mult: 1
    decay_mult: 1
  }
  param {
    lr_mult: 2
    decay_mult: 0
  }
  convolution_param {
    num_output: 64
    kernel_size: 1
    weight_filler {
      type: "xavier"
      std: 0.1
    }
    bias_filler {
      type: "constant"
      value: 0.2
    }
  }
}
layer {
  name: "inception_3b/relu_pool_proj"
  type: "ReLU"
  bottom: "inception_3b/pool_proj"
  top: "inception_3b/pool_proj"
}
layer {
  name: "inception_3b/output"
  type: "Concat"
  bottom: "inception_3b/1x1"
  bottom: "inception_3b/3x3"
  bottom: "inception_3b/5x5"
  bottom: "inception_3b/pool_proj"
  top: "inception_3b/output"
}
layer {
  name: "pool3/3x3_s2"
  type: "Pooling"
  bottom: "inception_3b/output"
  top: "pool3/3x3_s2"
  pooling_param {
    pool: MAX
    kernel_size: 3
    stride: 2
  }
}
layer {
  name: "inception_4a/1x1"
  type: "Convolution"
  bottom: "pool3/3x3_s2"
  top: "inception_4a/1x1"
  param {
    lr_mult: 1
    decay_mult: 1
  }
  param {
    lr_mult: 2
    decay_mult: 0
  }
  convolution_param {
    num_output: 192
    kernel_size: 1
    weight_filler {
      type: "xavier"
      std: 0.03
    }
    bias_filler {
      type: "constant"
      value: 0.2
    }
  }
}
layer {
  name: "inception_4a/relu_1x1"
  type: "ReLU"
  bottom: "inception_4a/1x1"
  top: "inception_4a/1x1"
}
layer {
  name: "inception_4a/3x3_reduce"
  type: "Convolution"
  bottom: "pool3/3x3_s2"
  top: "inception_4a/3x3_reduce"
  param {
    lr_mult: 1
    decay_mult: 1
  }
  param {
    lr_mult: 2
    decay_mult: 0
  }
  convolution_param {
    num_output: 96
    kernel_size: 1
    weight_filler {
      type: "xavier"
      std: 0.09
    }
    bias_filler {
      type: "constant"
      value: 0.2
    }
  }
}
layer {
  name: "inception_4a/relu_3x3_reduce"
  type: "ReLU"
  bottom: "inception_4a/3x3_reduce"
  top: "inception_4a/3x3_reduce"
}
layer {
  name: "inception_4a/3x3"
  type: "Convolution"
  bottom: "inception_4a/3x3_reduce"
  top: "inception_4a/3x3"
  param {
    lr_mult: 1
    decay_mult: 1
  }
  param {
    lr_mult: 2
    decay_mult: 0
  }
  convolution_param {
    num_output: 208
    pad: 1
    kernel_size: 3
    weight_filler {
      type: "xavier"
      std: 0.03
    }
    bias_filler {
      type: "constant"
      value: 0.2
    }
  }
}
layer {
  name: "inception_4a/relu_3x3"
  type: "ReLU"
  bottom: "inception_4a/3x3"
  top: "inception_4a/3x3"
}
layer {
  name: "inception_4a/5x5_reduce"
  type: "Convolution"
  bottom: "pool3/3x3_s2"
  top: "inception_4a/5x5_reduce"
  param {
    lr_mult: 1
    decay_mult: 1
  }
  param {
    lr_mult: 2
    decay_mult: 0
  }
  convolution_param {
    num_output: 16
    kernel_size: 1
    weight_filler {
      type: "xavier"
      std: 0.2
    }
    bias_filler {
      type: "constant"
      value: 0.2
    }
  }
}
layer {
  name: "inception_4a/relu_5x5_reduce"
  type: "ReLU"
  bottom: "inception_4a/5x5_reduce"
  top: "inception_4a/5x5_reduce"
}
layer {
  name: "inception_4a/5x5"
  type: "Convolution"
  bottom: "inception_4a/5x5_reduce"
  top: "inception_4a/5x5"
  param {
    lr_mult: 1
    decay_mult: 1
  }
  param {
    lr_mult: 2
    decay_mult: 0
  }
  convolution_param {
    num_output: 48
    pad: 2
    kernel_size: 5
    weight_filler {
      type: "xavier"
      std: 0.03
    }
    bias_filler {
      type: "constant"
      value: 0.2
    }
  }
}
layer {
  name: "inception_4a/relu_5x5"
  type: "ReLU"
  bottom: "inception_4a/5x5"
  top: "inception_4a/5x5"
}
layer {
  name: "inception_4a/pool"
  type: "Pooling"
  bottom: "pool3/3x3_s2"
  top: "inception_4a/pool"
  pooling_param {
    pool: MAX
    kernel_size: 3
    stride: 1
    pad: 1
  }
}
layer {
  name: "inception_4a/pool_proj"
  type: "Convolution"
  bottom: "inception_4a/pool"
  top: "inception_4a/pool_proj"
  param {
    lr_mult: 1
    decay_mult: 1
  }
  param {
    lr_mult: 2
    decay_mult: 0
  }
  convolution_param {
    num_output: 64
    kernel_size: 1
    weight_filler {
      type: "xavier"
      std: 0.1
    }
    bias_filler {
      type: "constant"
      value: 0.2
    }
  }
}
layer {
  name: "inception_4a/relu_pool_proj"
  type: "ReLU"
  bottom: "inception_4a/pool_proj"
  top: "inception_4a/pool_proj"
}
layer {
  name: "inception_4a/output"
  type: "Concat"
  bottom: "inception_4a/1x1"
  bottom: "inception_4a/3x3"
  bottom: "inception_4a/5x5"
  bottom: "inception_4a/pool_proj"
  top: "inception_4a/output"
}
layer {
  name: "inception_4b/1x1"
  type: "Convolution"
  bottom: "inception_4a/output"
  top: "inception_4b/1x1"
  param {
    lr_mult: 1
    decay_mult: 1
  }
  param {
    lr_mult: 2
    decay_mult: 0
  }
  convolution_param {
    num_output: 160
    kernel_size: 1
    weight_filler {
      type: "xavier"
      std: 0.03
    }
    bias_filler {
      type: "constant"
      value: 0.2
    }
  }
}
layer {
  name: "inception_4b/relu_1x1"
  type: "ReLU"
  bottom: "inception_4b/1x1"
  top: "inception_4b/1x1"
}
layer {
  name: "inception_4b/3x3_reduce"
  type: "Convolution"
  bottom: "inception_4a/output"
  top: "inception_4b/3x3_reduce"
  param {
    lr_mult: 1
    decay_mult: 1
  }
  param {
    lr_mult: 2
    decay_mult: 0
  }
  convolution_param {
    num_output: 112
    kernel_size: 1
    weight_filler {
      type: "xavier"
      std: 0.09
    }
    bias_filler {
      type: "constant"
      value: 0.2
    }
  }
}
layer {
  name: "inception_4b/relu_3x3_reduce"
  type: "ReLU"
  bottom: "inception_4b/3x3_reduce"
  top: "inception_4b/3x3_reduce"
}
layer {
  name: "inception_4b/3x3"
  type: "Convolution"
  bottom: "inception_4b/3x3_reduce"
  top: "inception_4b/3x3"
  param {
    lr_mult: 1
    decay_mult: 1
  }
  param {
    lr_mult: 2
    decay_mult: 0
  }
  convolution_param {
    num_output: 224
    pad: 1
    kernel_size: 3
    weight_filler {
      type: "xavier"
      std: 0.03
    }
    bias_filler {
      type: "constant"
      value: 0.2
    }
  }
}
layer {
  name: "inception_4b/relu_3x3"
  type: "ReLU"
  bottom: "inception_4b/3x3"
  top: "inception_4b/3x3"
}
layer {
  name: "inception_4b/5x5_reduce"
  type: "Convolution"
  bottom: "inception_4a/output"
  top: "inception_4b/5x5_reduce"
  param {
    lr_mult: 1
    decay_mult: 1
  }
  param {
    lr_mult: 2
    decay_mult: 0
  }
  convolution_param {
    num_output: 24
    kernel_size: 1
    weight_filler {
      type: "xavier"
      std: 0.2
    }
    bias_filler {
      type: "constant"
      value: 0.2
    }
  }
}
layer {
  name: "inception_4b/relu_5x5_reduce"
  type: "ReLU"
  bottom: "inception_4b/5x5_reduce"
  top: "inception_4b/5x5_reduce"
}
layer {
  name: "inception_4b/5x5"
  type: "Convolution"
  bottom: "inception_4b/5x5_reduce"
  top: "inception_4b/5x5"
  param {
    lr_mult: 1
    decay_mult: 1
  }
  param {
    lr_mult: 2
    decay_mult: 0
  }
  convolution_param {
    num_output: 64
    pad: 2
    kernel_size: 5
    weight_filler {
      type: "xavier"
      std: 0.03
    }
    bias_filler {
      type: "constant"
      value: 0.2
    }
  }
}
layer {
  name: "inception_4b/relu_5x5"
  type: "ReLU"
  bottom: "inception_4b/5x5"
  top: "inception_4b/5x5"
}
layer {
  name: "inception_4b/pool"
  type: "Pooling"
  bottom: "inception_4a/output"
  top: "inception_4b/pool"
  pooling_param {
    pool: MAX
    kernel_size: 3
    stride: 1
    pad: 1
  }
}
layer {
  name: "inception_4b/pool_proj"
  type: "Convolution"
  bottom: "inception_4b/pool"
  top: "inception_4b/pool_proj"
  param {
    lr_mult: 1
    decay_mult: 1
  }
  param {
    lr_mult: 2
    decay_mult: 0
  }
  convolution_param {
    num_output: 64
    kernel_size: 1
    weight_filler {
      type: "xavier"
      std: 0.1
    }
    bias_filler {
      type: "constant"
      value: 0.2
    }
  }
}
layer {
  name: "inception_4b/relu_pool_proj"
  type: "ReLU"
  bottom: "inception_4b/pool_proj"
  top: "inception_4b/pool_proj"
}
layer {
  name: "inception_4b/output"
  type: "Concat"
  bottom: "inception_4b/1x1"
  bottom: "inception_4b/3x3"
  bottom: "inception_4b/5x5"
  bottom: "inception_4b/pool_proj"
  top: "inception_4b/output"
}
layer {
  name: "inception_4c/1x1"
  type: "Convolution"
  bottom: "inception_4b/output"
  top: "inception_4c/1x1"
  param {
    lr_mult: 1
    decay_mult: 1
  }
  param {
    lr_mult: 2
    decay_mult: 0
  }
  convolution_param {
    num_output: 128
    kernel_size: 1
    weight_filler {
      type: "xavier"
      std: 0.03
    }
    bias_filler {
      type: "constant"
      value: 0.2
    }
  }
}
layer {
  name: "inception_4c/relu_1x1"
  type: "ReLU"
  bottom: "inception_4c/1x1"
  top: "inception_4c/1x1"
}
layer {
  name: "inception_4c/3x3_reduce"
  type: "Convolution"
  bottom: "inception_4b/output"
  top: "inception_4c/3x3_reduce"
  param {
    lr_mult: 1
    decay_mult: 1
  }
  param {
    lr_mult: 2
    decay_mult: 0
  }
  convolution_param {
    num_output: 128
    kernel_size: 1
    weight_filler {
      type: "xavier"
      std: 0.09
    }
    bias_filler {
      type: "constant"
      value: 0.2
    }
  }
}
layer {
  name: "inception_4c/relu_3x3_reduce"
  type: "ReLU"
  bottom: "inception_4c/3x3_reduce"
  top: "inception_4c/3x3_reduce"
}
layer {
  name: "inception_4c/3x3"
  type: "Convolution"
  bottom: "inception_4c/3x3_reduce"
  top: "inception_4c/3x3"
  param {
    lr_mult: 1
    decay_mult: 1
  }
  param {
    lr_mult: 2
    decay_mult: 0
  }
  convolution_param {
    num_output: 256
    pad: 1
    kernel_size: 3
    weight_filler {
      type: "xavier"
      std: 0.03
    }
    bias_filler {
      type: "constant"
      value: 0.2
    }
  }
}
layer {
  name: "inception_4c/relu_3x3"
  type: "ReLU"
  bottom: "inception_4c/3x3"
  top: "inception_4c/3x3"
}
layer {
  name: "inception_4c/5x5_reduce"
  type: "Convolution"
  bottom: "inception_4b/output"
  top: "inception_4c/5x5_reduce"
  param {
    lr_mult: 1
    decay_mult: 1
  }
  param {
    lr_mult: 2
    decay_mult: 0
  }
  convolution_param {
    num_output: 24
    kernel_size: 1
    weight_filler {
      type: "xavier"
      std: 0.2
    }
    bias_filler {
      type: "constant"
      value: 0.2
    }
  }
}
layer {
  name: "inception_4c/relu_5x5_reduce"
  type: "ReLU"
  bottom: "inception_4c/5x5_reduce"
  top: "inception_4c/5x5_reduce"
}
layer {
  name: "inception_4c/5x5"
  type: "Convolution"
  bottom: "inception_4c/5x5_reduce"
  top: "inception_4c/5x5"
  param {
    lr_mult: 1
    decay_mult: 1
  }
  param {
    lr_mult: 2
    decay_mult: 0
  }
  convolution_param {
    num_output: 64
    pad: 2
    kernel_size: 5
    weight_filler {
      type: "xavier"
      std: 0.03
    }
    bias_filler {
      type: "constant"
      value: 0.2
    }
  }
}
layer {
  name: "inception_4c/relu_5x5"
  type: "ReLU"
  bottom: "inception_4c/5x5"
  top: "inception_4c/5x5"
}
layer {
  name: "inception_4c/pool"
  type: "Pooling"
  bottom: "inception_4b/output"
  top: "inception_4c/pool"
  pooling_param {
    pool: MAX
    kernel_size: 3
    stride: 1
    pad: 1
  }
}
layer {
  name: "inception_4c/pool_proj"
  type: "Convolution"
  bottom: "inception_4c/pool"
  top: "inception_4c/pool_proj"
  param {
    lr_mult: 1
    decay_mult: 1
  }
  param {
    lr_mult: 2
    decay_mult: 0
  }
  convolution_param {
    num_output: 64
    kernel_size: 1
    weight_filler {
      type: "xavier"
      std: 0.1
    }
    bias_filler {
      type: "constant"
      value: 0.2
    }
  }
}
layer {
  name: "inception_4c/relu_pool_proj"
  type: "ReLU"
  bottom: "inception_4c/pool_proj"
  top: "inception_4c/pool_proj"
}
layer {
  name: "inception_4c/output"
  type: "Concat"
  bottom: "inception_4c/1x1"
  bottom: "inception_4c/3x3"
  bottom: "inception_4c/5x5"
  bottom: "inception_4c/pool_proj"
  top: "inception_4c/output"
}
layer {
  name: "inception_4d/1x1"
  type: "Convolution"
  bottom: "inception_4c/output"
  top: "inception_4d/1x1"
  param {
    lr_mult: 1
    decay_mult: 1
  }
  param {
    lr_mult: 2
    decay_mult: 0
  }
  convolution_param {
    num_output: 112
    kernel_size: 1
    weight_filler {
      type: "xavier"
      std: 0.03
    }
    bias_filler {
      type: "constant"
      value: 0.2
    }
  }
}
layer {
  name: "inception_4d/relu_1x1"
  type: "ReLU"
  bottom: "inception_4d/1x1"
  top: "inception_4d/1x1"
}
layer {
  name: "inception_4d/3x3_reduce"
  type: "Convolution"
  bottom: "inception_4c/output"
  top: "inception_4d/3x3_reduce"
  param {
    lr_mult: 1
    decay_mult: 1
  }
  param {
    lr_mult: 2
    decay_mult: 0
  }
  convolution_param {
    num_output: 144
    kernel_size: 1
    weight_filler {
      type: "xavier"
      std: 0.09
    }
    bias_filler {
      type: "constant"
      value: 0.2
    }
  }
}
layer {
  name: "inception_4d/relu_3x3_reduce"
  type: "ReLU"
  bottom: "inception_4d/3x3_reduce"
  top: "inception_4d/3x3_reduce"
}
layer {
  name: "inception_4d/3x3"
  type: "Convolution"
  bottom: "inception_4d/3x3_reduce"
  top: "inception_4d/3x3"
  param {
    lr_mult: 1
    decay_mult: 1
  }
  param {
    lr_mult: 2
    decay_mult: 0
  }
  convolution_param {
    num_output: 288
    pad: 1
    kernel_size: 3
    weight_filler {
      type: "xavier"
      std: 0.03
    }
    bias_filler {
      type: "constant"
      value: 0.2
    }
  }
}
layer {
  name: "inception_4d/relu_3x3"
  type: "ReLU"
  bottom: "inception_4d/3x3"
  top: "inception_4d/3x3"
}
layer {
  name: "inception_4d/5x5_reduce"
  type: "Convolution"
  bottom: "inception_4c/output"
  top: "inception_4d/5x5_reduce"
  param {
    lr_mult: 1
    decay_mult: 1
  }
  param {
    lr_mult: 2
    decay_mult: 0
  }
  convolution_param {
    num_output: 32
    kernel_size: 1
    weight_filler {
      type: "xavier"
      std: 0.2
    }
    bias_filler {
      type: "constant"
      value: 0.2
    }
  }
}
layer {
  name: "inception_4d/relu_5x5_reduce"
  type: "ReLU"
  bottom: "inception_4d/5x5_reduce"
  top: "inception_4d/5x5_reduce"
}
layer {
  name: "inception_4d/5x5"
  type: "Convolution"
  bottom: "inception_4d/5x5_reduce"
  top: "inception_4d/5x5"
  param {
    lr_mult: 1
    decay_mult: 1
  }
  param {
    lr_mult: 2
    decay_mult: 0
  }
  convolution_param {
    num_output: 64
    pad: 2
    kernel_size: 5
    weight_filler {
      type: "xavier"
      std: 0.03
    }
    bias_filler {
      type: "constant"
      value: 0.2
    }
  }
}
layer {
  name: "inception_4d/relu_5x5"
  type: "ReLU"
  bottom: "inception_4d/5x5"
  top: "inception_4d/5x5"
}
layer {
  name: "inception_4d/pool"
  type: "Pooling"
  bottom: "inception_4c/output"
  top: "inception_4d/pool"
  pooling_param {
    pool: MAX
    kernel_size: 3
    stride: 1
    pad: 1
  }
}
layer {
  name: "inception_4d/pool_proj"
  type: "Convolution"
  bottom: "inception_4d/pool"
  top: "inception_4d/pool_proj"
  param {
    lr_mult: 1
    decay_mult: 1
  }
  param {
    lr_mult: 2
    decay_mult: 0
  }
  convolution_param {
    num_output: 64
    kernel_size: 1
    weight_filler {
      type: "xavier"
      std: 0.1
    }
    bias_filler {
      type: "constant"
      value: 0.2
    }
  }
}
layer {
  name: "inception_4d/relu_pool_proj"
  type: "ReLU"
  bottom: "inception_4d/pool_proj"
  top: "inception_4d/pool_proj"
}
layer {
  name: "inception_4d/output"
  type: "Concat"
  bottom: "inception_4d/1x1"
  bottom: "inception_4d/3x3"
  bottom: "inception_4d/5x5"
  bottom: "inception_4d/pool_proj"
  top: "inception_4d/output"
}
layer {
  name: "inception_4e/1x1"
  type: "Convolution"
  bottom: "inception_4d/output"
  top: "inception_4e/1x1"
  param {
    lr_mult: 1
    decay_mult: 1
  }
  param {
    lr_mult: 2
    decay_mult: 0
  }
  convolution_param {
    num_output: 256
    kernel_size: 1
    weight_filler {
      type: "xavier"
      std: 0.03
    }
    bias_filler {
      type: "constant"
      value: 0.2
    }
  }
}
layer {
  name: "inception_4e/relu_1x1"
  type: "ReLU"
  bottom: "inception_4e/1x1"
  top: "inception_4e/1x1"
}
layer {
  name: "inception_4e/3x3_reduce"
  type: "Convolution"
  bottom: "inception_4d/output"
  top: "inception_4e/3x3_reduce"
  param {
    lr_mult: 1
    decay_mult: 1
  }
  param {
    lr_mult: 2
    decay_mult: 0
  }
  convolution_param {
    num_output: 160
    kernel_size: 1
    weight_filler {
      type: "xavier"
      std: 0.09
    }
    bias_filler {
      type: "constant"
      value: 0.2
    }
  }
}
layer {
  name: "inception_4e/relu_3x3_reduce"
  type: "ReLU"
  bottom: "inception_4e/3x3_reduce"
  top: "inception_4e/3x3_reduce"
}
layer {
  name: "inception_4e/3x3"
  type: "Convolution"
  bottom: "inception_4e/3x3_reduce"
  top: "inception_4e/3x3"
  param {
    lr_mult: 1
    decay_mult: 1
  }
  param {
    lr_mult: 2
    decay_mult: 0
  }
  convolution_param {
    num_output: 320
    pad: 1
    kernel_size: 3
    weight_filler {
      type: "xavier"
      std: 0.03
    }
    bias_filler {
      type: "constant"
      value: 0.2
    }
  }
}
layer {
  name: "inception_4e/relu_3x3"
  type: "ReLU"
  bottom: "inception_4e/3x3"
  top: "inception_4e/3x3"
}
layer {
  name: "inception_4e/5x5_reduce"
  type: "Convolution"
  bottom: "inception_4d/output"
  top: "inception_4e/5x5_reduce"
  param {
    lr_mult: 1
    decay_mult: 1
  }
  param {
    lr_mult: 2
    decay_mult: 0
  }
  convolution_param {
    num_output: 32
    kernel_size: 1
    weight_filler {
      type: "xavier"
      std: 0.2
    }
    bias_filler {
      type: "constant"
      value: 0.2
    }
  }
}
layer {
  name: "inception_4e/relu_5x5_reduce"
  type: "ReLU"
  bottom: "inception_4e/5x5_reduce"
  top: "inception_4e/5x5_reduce"
}
layer {
  name: "inception_4e/5x5"
  type: "Convolution"
  bottom: "inception_4e/5x5_reduce"
  top: "inception_4e/5x5"
  param {
    lr_mult: 1
    decay_mult: 1
  }
  param {
    lr_mult: 2
    decay_mult: 0
  }
  convolution_param {
    num_output: 128
    pad: 2
    kernel_size: 5
    weight_filler {
      type: "xavier"
      std: 0.03
    }
    bias_filler {
      type: "constant"
      value: 0.2
    }
  }
}
layer {
  name: "inception_4e/relu_5x5"
  type: "ReLU"
  bottom: "inception_4e/5x5"
  top: "inception_4e/5x5"
}
layer {
  name: "inception_4e/pool"
  type: "Pooling"
  bottom: "inception_4d/output"
  top: "inception_4e/pool"
  pooling_param {
    pool: MAX
    kernel_size: 3
    stride: 1
    pad: 1
  }
}
layer {
  name: "inception_4e/pool_proj"
  type: "Convolution"
  bottom: "inception_4e/pool"
  top: "inception_4e/pool_proj"
  param {
    lr_mult: 1
    decay_mult: 1
  }
  param {
    lr_mult: 2
    decay_mult: 0
  }
  convolution_param {
    num_output: 128
    kernel_size: 1
    weight_filler {
      type: "xavier"
      std: 0.1
    }
    bias_filler {
      type: "constant"
      value: 0.2
    }
  }
}
layer {
  name: "inception_4e/relu_pool_proj"
  type: "ReLU"
  bottom: "inception_4e/pool_proj"
  top: "inception_4e/pool_proj"
}
layer {
  name: "inception_4e/output"
  type: "Concat"
  bottom: "inception_4e/1x1"
  bottom: "inception_4e/3x3"
  bottom: "inception_4e/5x5"
  bottom: "inception_4e/pool_proj"
  top: "inception_4e/output"
}
layer {
  name: "pool4/3x3_s2"
  type: "Pooling"
  bottom: "inception_4e/output"
  top: "pool4/3x3_s2"
  pooling_param {
    pool: MAX
    kernel_size: 3
    stride: 2
  }
}
layer {
  name: "inception_5a/1x1"
  type: "Convolution"
  bottom: "pool4/3x3_s2"
  top: "inception_5a/1x1"
  param {
    lr_mult: 1
    decay_mult: 1
  }
  param {
    lr_mult: 2
    decay_mult: 0
  }
  convolution_param {
    num_output: 256
    kernel_size: 1
    weight_filler {
      type: "xavier"
      std: 0.03
    }
    bias_filler {
      type: "constant"
      value: 0.2
    }
  }
}
layer {
  name: "inception_5a/relu_1x1"
  type: "ReLU"
  bottom: "inception_5a/1x1"
  top: "inception_5a/1x1"
}
layer {
  name: "inception_5a/3x3_reduce"
  type: "Convolution"
  bottom: "pool4/3x3_s2"
  top: "inception_5a/3x3_reduce"
  param {
    lr_mult: 1
    decay_mult: 1
  }
  param {
    lr_mult: 2
    decay_mult: 0
  }
  convolution_param {
    num_output: 160
    kernel_size: 1
    weight_filler {
      type: "xavier"
      std: 0.09
    }
    bias_filler {
      type: "constant"
      value: 0.2
    }
  }
}
layer {
  name: "inception_5a/relu_3x3_reduce"
  type: "ReLU"
  bottom: "inception_5a/3x3_reduce"
  top: "inception_5a/3x3_reduce"
}
layer {
  name: "inception_5a/3x3"
  type: "Convolution"
  bottom: "inception_5a/3x3_reduce"
  top: "inception_5a/3x3"
  param {
    lr_mult: 1
    decay_mult: 1
  }
  param {
    lr_mult: 2
    decay_mult: 0
  }
  convolution_param {
    num_output: 320
    pad: 1
    kernel_size: 3
    weight_filler {
      type: "xavier"
      std: 0.03
    }
    bias_filler {
      type: "constant"
      value: 0.2
    }
  }
}
layer {
  name: "inception_5a/relu_3x3"
  type: "ReLU"
  bottom: "inception_5a/3x3"
  top: "inception_5a/3x3"
}
layer {
  name: "inception_5a/5x5_reduce"
  type: "Convolution"
  bottom: "pool4/3x3_s2"
  top: "inception_5a/5x5_reduce"
  param {
    lr_mult: 1
    decay_mult: 1
  }
  param {
    lr_mult: 2
    decay_mult: 0
  }
  convolution_param {
    num_output: 32
    kernel_size: 1
    weight_filler {
      type: "xavier"
      std: 0.2
    }
    bias_filler {
      type: "constant"
      value: 0.2
    }
I0714 20:34:47.320531 32007 layer_factory.hpp:77] Creating layer data
I0714 20:34:47.320554 32007 net.cpp:91] Creating Layer data
I0714 20:34:47.320562 32007 net.cpp:399] data -> data
I0714 20:34:48.401494 32003 net.cpp:141] Setting up data
I0714 20:34:48.401597 32003 net.cpp:148] Top shape: 10 3 224 224 (1505280)
I0714 20:34:48.401605 32003 net.cpp:156] Memory required for data: 6021120
I0714 20:34:48.401631 32003 layer_factory.hpp:77] Creating layer conv1/7x7_s2
I0714 20:34:48.401680 32003 net.cpp:91] Creating Layer conv1/7x7_s2
I0714 20:34:48.401691 32003 net.cpp:425] conv1/7x7_s2 <- data
I0714 20:34:48.401708 32003 net.cpp:399] conv1/7x7_s2 -> conv1/7x7_s2
I0714 20:34:48.411597 32007 net.cpp:141] Setting up data
I0714 20:34:48.411644 32007 net.cpp:148] Top shape: 10 3 224 224 (1505280)
I0714 20:34:48.411651 32007 net.cpp:156] Memory required for data: 6021120
I0714 20:34:48.411662 32007 layer_factory.hpp:77] Creating layer conv1/7x7_s2
I0714 20:34:48.411695 32007 net.cpp:91] Creating Layer conv1/7x7_s2
I0714 20:34:48.411701 32007 net.cpp:425] conv1/7x7_s2 <- data
I0714 20:34:48.411713 32007 net.cpp:399] conv1/7x7_s2 -> conv1/7x7_s2
I0714 20:34:48.880488 32003 net.cpp:141] Setting up conv1/7x7_s2
I0714 20:34:48.880543 32003 net.cpp:148] Top shape: 10 64 112 112 (8028160)
I0714 20:34:48.880550 32003 net.cpp:156] Memory required for data: 38133760
I0714 20:34:48.880579 32003 layer_factory.hpp:77] Creating layer conv1/relu_7x7
I0714 20:34:48.880599 32003 net.cpp:91] Creating Layer conv1/relu_7x7
I0714 20:34:48.880606 32003 net.cpp:425] conv1/relu_7x7 <- conv1/7x7_s2
I0714 20:34:48.880616 32003 net.cpp:386] conv1/relu_7x7 -> conv1/7x7_s2 (in-place)
I0714 20:34:48.881961 32003 net.cpp:141] Setting up conv1/relu_7x7
I0714 20:34:48.881979 32003 net.cpp:148] Top shape: 10 64 112 112 (8028160)
I0714 20:34:48.881986 32003 net.cpp:156] Memory required for data: 70246400
I0714 20:34:48.881992 32003 layer_factory.hpp:77] Creating layer pool1/3x3_s2
I0714 20:34:48.882007 32003 net.cpp:91] Creating Layer pool1/3x3_s2
I0714 20:34:48.882014 32003 net.cpp:425] pool1/3x3_s2 <- conv1/7x7_s2
I0714 20:34:48.882024 32003 net.cpp:399] pool1/3x3_s2 -> pool1/3x3_s2
I0714 20:34:48.882022 32007 net.cpp:141] Setting up conv1/7x7_s2
I0714 20:34:48.882045 32007 net.cpp:148] Top shape: 10 64 112 112 (8028160)
I0714 20:34:48.882050 32007 net.cpp:156] Memory required for data: 38133760
I0714 20:34:48.882066 32007 layer_factory.hpp:77] Creating layer conv1/relu_7x7
I0714 20:34:48.882078 32007 net.cpp:91] Creating Layer conv1/relu_7x7
I0714 20:34:48.882086 32007 net.cpp:425] conv1/relu_7x7 <- conv1/7x7_s2
I0714 20:34:48.882092 32007 net.cpp:386] conv1/relu_7x7 -> conv1/7x7_s2 (in-place)
I0714 20:34:48.882712 32003 net.cpp:141] Setting up pool1/3x3_s2
I0714 20:34:48.882726 32003 net.cpp:148] Top shape: 10 64 56 56 (2007040)
I0714 20:34:48.882731 32003 net.cpp:156] Memory required for data: 78274560
I0714 20:34:48.882737 32003 layer_factory.hpp:77] Creating layer pool1/norm1
I0714 20:34:48.882756 32003 net.cpp:91] Creating Layer pool1/norm1
I0714 20:34:48.882763 32003 net.cpp:425] pool1/norm1 <- pool1/3x3_s2
I0714 20:34:48.882771 32003 net.cpp:399] pool1/norm1 -> pool1/norm1
I0714 20:34:48.882953 32007 net.cpp:141] Setting up conv1/relu_7x7
I0714 20:34:48.882969 32007 net.cpp:148] Top shape: 10 64 112 112 (8028160)
I0714 20:34:48.882974 32007 net.cpp:156] Memory required for data: 70246400
I0714 20:34:48.882982 32007 layer_factory.hpp:77] Creating layer pool1/3x3_s2
I0714 20:34:48.882992 32007 net.cpp:91] Creating Layer pool1/3x3_s2
I0714 20:34:48.882997 32007 net.cpp:425] pool1/3x3_s2 <- conv1/7x7_s2
I0714 20:34:48.883005 32007 net.cpp:399] pool1/3x3_s2 -> pool1/3x3_s2
I0714 20:34:48.883596 32007 net.cpp:141] Setting up pool1/3x3_s2
I0714 20:34:48.883611 32007 net.cpp:148] Top shape: 10 64 56 56 (2007040)
I0714 20:34:48.883617 32007 net.cpp:156] Memory required for data: 78274560
I0714 20:34:48.883623 32007 layer_factory.hpp:77] Creating layer pool1/norm1
I0714 20:34:48.883635 32007 net.cpp:91] Creating Layer pool1/norm1
I0714 20:34:48.883641 32007 net.cpp:425] pool1/norm1 <- pool1/3x3_s2
I0714 20:34:48.883651 32007 net.cpp:399] pool1/norm1 -> pool1/norm1
I0714 20:34:48.884456 32003 net.cpp:141] Setting up pool1/norm1
I0714 20:34:48.884474 32003 net.cpp:148] Top shape: 10 64 56 56 (2007040)
I0714 20:34:48.884479 32003 net.cpp:156] Memory required for data: 86302720
I0714 20:34:48.884485 32003 layer_factory.hpp:77] Creating layer conv2/3x3_reduce
I0714 20:34:48.884508 32003 net.cpp:91] Creating Layer conv2/3x3_reduce
I0714 20:34:48.884516 32003 net.cpp:425] conv2/3x3_reduce <- pool1/norm1
I0714 20:34:48.884524 32003 net.cpp:399] conv2/3x3_reduce -> conv2/3x3_reduce
I0714 20:34:48.884609 32007 net.cpp:141] Setting up pool1/norm1
I0714 20:34:48.884624 32007 net.cpp:148] Top shape: 10 64 56 56 (2007040)
I0714 20:34:48.884630 32007 net.cpp:156] Memory required for data: 86302720
I0714 20:34:48.884636 32007 layer_factory.hpp:77] Creating layer conv2/3x3_reduce
I0714 20:34:48.884651 32007 net.cpp:91] Creating Layer conv2/3x3_reduce
I0714 20:34:48.884657 32007 net.cpp:425] conv2/3x3_reduce <- pool1/norm1
I0714 20:34:48.884667 32007 net.cpp:399] conv2/3x3_reduce -> conv2/3x3_reduce
I0714 20:34:48.890951 32003 net.cpp:141] Setting up conv2/3x3_reduce
I0714 20:34:48.890974 32003 net.cpp:148] Top shape: 10 64 56 56 (2007040)
I0714 20:34:48.890980 32003 net.cpp:156] Memory required for data: 94330880
I0714 20:34:48.890995 32003 layer_factory.hpp:77] Creating layer conv2/relu_3x3_reduce
I0714 20:34:48.891006 32003 net.cpp:91] Creating Layer conv2/relu_3x3_reduce
I0714 20:34:48.891013 32003 net.cpp:425] conv2/relu_3x3_reduce <- conv2/3x3_reduce
I0714 20:34:48.891021 32003 net.cpp:386] conv2/relu_3x3_reduce -> conv2/3x3_reduce (in-place)
I0714 20:34:48.891988 32007 net.cpp:141] Setting up conv2/3x3_reduce
I0714 20:34:48.891990 32003 net.cpp:141] Setting up conv2/relu_3x3_reduce
I0714 20:34:48.892010 32007 net.cpp:148] Top shape: 10 64 56 56 (2007040)
I0714 20:34:48.892017 32003 net.cpp:148] Top shape: 10 64 56 56 (2007040)
I0714 20:34:48.892017 32007 net.cpp:156] Memory required for data: 94330880
I0714 20:34:48.892027 32003 net.cpp:156] Memory required for data: 102359040
I0714 20:34:48.892035 32003 layer_factory.hpp:77] Creating layer conv2/3x3
I0714 20:34:48.892041 32007 layer_factory.hpp:77] Creating layer conv2/relu_3x3_reduce
I0714 20:34:48.892052 32007 net.cpp:91] Creating Layer conv2/relu_3x3_reduce
I0714 20:34:48.892055 32003 net.cpp:91] Creating Layer conv2/3x3
I0714 20:34:48.892058 32007 net.cpp:425] conv2/relu_3x3_reduce <- conv2/3x3_reduce
I0714 20:34:48.892062 32003 net.cpp:425] conv2/3x3 <- conv2/3x3_reduce
I0714 20:34:48.892067 32007 net.cpp:386] conv2/relu_3x3_reduce -> conv2/3x3_reduce (in-place)
I0714 20:34:48.892073 32003 net.cpp:399] conv2/3x3 -> conv2/3x3
I0714 20:34:48.893024 32007 net.cpp:141] Setting up conv2/relu_3x3_reduce
I0714 20:34:48.893041 32007 net.cpp:148] Top shape: 10 64 56 56 (2007040)
I0714 20:34:48.893046 32007 net.cpp:156] Memory required for data: 102359040
I0714 20:34:48.893054 32007 layer_factory.hpp:77] Creating layer conv2/3x3
I0714 20:34:48.893069 32007 net.cpp:91] Creating Layer conv2/3x3
I0714 20:34:48.893075 32007 net.cpp:425] conv2/3x3 <- conv2/3x3_reduce
I0714 20:34:48.893085 32007 net.cpp:399] conv2/3x3 -> conv2/3x3
I0714 20:34:48.901074 32003 net.cpp:141] Setting up conv2/3x3
I0714 20:34:48.901094 32003 net.cpp:148] Top shape: 10 192 56 56 (6021120)
I0714 20:34:48.901100 32003 net.cpp:156] Memory required for data: 126443520
I0714 20:34:48.901120 32003 layer_factory.hpp:77] Creating layer conv2/relu_3x3
I0714 20:34:48.901134 32003 net.cpp:91] Creating Layer conv2/relu_3x3
I0714 20:34:48.901141 32003 net.cpp:425] conv2/relu_3x3 <- conv2/3x3
I0714 20:34:48.901152 32003 net.cpp:386] conv2/relu_3x3 -> conv2/3x3 (in-place)
I0714 20:34:48.901566 32003 net.cpp:141] Setting up conv2/relu_3x3
I0714 20:34:48.901579 32003 net.cpp:148] Top shape: 10 192 56 56 (6021120)
I0714 20:34:48.901584 32003 net.cpp:156] Memory required for data: 150528000
I0714 20:34:48.901590 32003 layer_factory.hpp:77] Creating layer conv2/norm2
I0714 20:34:48.901613 32003 net.cpp:91] Creating Layer conv2/norm2
I0714 20:34:48.901621 32003 net.cpp:425] conv2/norm2 <- conv2/3x3
I0714 20:34:48.901633 32003 net.cpp:399] conv2/norm2 -> conv2/norm2
I0714 20:34:48.902349 32007 net.cpp:141] Setting up conv2/3x3
I0714 20:34:48.902374 32007 net.cpp:148] Top shape: 10 192 56 56 (6021120)
I0714 20:34:48.902381 32007 net.cpp:156] Memory required for data: 126443520
I0714 20:34:48.902396 32007 layer_factory.hpp:77] Creating layer conv2/relu_3x3
I0714 20:34:48.902408 32007 net.cpp:91] Creating Layer conv2/relu_3x3
I0714 20:34:48.902417 32007 net.cpp:425] conv2/relu_3x3 <- conv2/3x3
I0714 20:34:48.902426 32007 net.cpp:386] conv2/relu_3x3 -> conv2/3x3 (in-place)
I0714 20:34:48.902719 32007 net.cpp:141] Setting up conv2/relu_3x3
I0714 20:34:48.902732 32007 net.cpp:148] Top shape: 10 192 56 56 (6021120)
I0714 20:34:48.902739 32007 net.cpp:156] Memory required for data: 150528000
I0714 20:34:48.902745 32007 layer_factory.hpp:77] Creating layer conv2/norm2
I0714 20:34:48.902758 32007 net.cpp:91] Creating Layer conv2/norm2
I0714 20:34:48.902765 32007 net.cpp:425] conv2/norm2 <- conv2/3x3
I0714 20:34:48.902776 32007 net.cpp:399] conv2/norm2 -> conv2/norm2
I0714 20:34:48.903617 32003 net.cpp:141] Setting up conv2/norm2
I0714 20:34:48.903635 32003 net.cpp:148] Top shape: 10 192 56 56 (6021120)
I0714 20:34:48.903640 32003 net.cpp:156] Memory required for data: 174612480
I0714 20:34:48.903646 32003 layer_factory.hpp:77] Creating layer pool2/3x3_s2
I0714 20:34:48.903661 32003 net.cpp:91] Creating Layer pool2/3x3_s2
I0714 20:34:48.903667 32003 net.cpp:425] pool2/3x3_s2 <- conv2/norm2
I0714 20:34:48.903679 32003 net.cpp:399] pool2/3x3_s2 -> pool2/3x3_s2
I0714 20:34:48.903848 32007 net.cpp:141] Setting up conv2/norm2
I0714 20:34:48.903863 32007 net.cpp:148] Top shape: 10 192 56 56 (6021120)
I0714 20:34:48.903869 32007 net.cpp:156] Memory required for data: 174612480
I0714 20:34:48.903868 32003 net.cpp:141] Setting up pool2/3x3_s2
I0714 20:34:48.903877 32007 layer_factory.hpp:77] Creating layer pool2/3x3_s2
I0714 20:34:48.903882 32003 net.cpp:148] Top shape: 10 192 28 28 (1505280)
I0714 20:34:48.903887 32003 net.cpp:156] Memory required for data: 180633600
I0714 20:34:48.903890 32007 net.cpp:91] Creating Layer pool2/3x3_s2
I0714 20:34:48.903893 32003 layer_factory.hpp:77] Creating layer pool2/3x3_s2_pool2/3x3_s2_0_split
I0714 20:34:48.903898 32007 net.cpp:425] pool2/3x3_s2 <- conv2/norm2
I0714 20:34:48.903908 32007 net.cpp:399] pool2/3x3_s2 -> pool2/3x3_s2
I0714 20:34:48.903913 32003 net.cpp:91] Creating Layer pool2/3x3_s2_pool2/3x3_s2_0_split
I0714 20:34:48.903919 32003 net.cpp:425] pool2/3x3_s2_pool2/3x3_s2_0_split <- pool2/3x3_s2
I0714 20:34:48.903934 32003 net.cpp:399] pool2/3x3_s2_pool2/3x3_s2_0_split -> pool2/3x3_s2_pool2/3x3_s2_0_split_0
I0714 20:34:48.903946 32003 net.cpp:399] pool2/3x3_s2_pool2/3x3_s2_0_split -> pool2/3x3_s2_pool2/3x3_s2_0_split_1
I0714 20:34:48.903955 32003 net.cpp:399] pool2/3x3_s2_pool2/3x3_s2_0_split -> pool2/3x3_s2_pool2/3x3_s2_0_split_2
I0714 20:34:48.903964 32003 net.cpp:399] pool2/3x3_s2_pool2/3x3_s2_0_split -> pool2/3x3_s2_pool2/3x3_s2_0_split_3
I0714 20:34:48.904042 32007 net.cpp:141] Setting up pool2/3x3_s2
I0714 20:34:48.904054 32007 net.cpp:148] Top shape: 10 192 28 28 (1505280)
I0714 20:34:48.904059 32007 net.cpp:156] Memory required for data: 180633600
I0714 20:34:48.904067 32007 layer_factory.hpp:77] Creating layer pool2/3x3_s2_pool2/3x3_s2_0_split
I0714 20:34:48.904076 32007 net.cpp:91] Creating Layer pool2/3x3_s2_pool2/3x3_s2_0_split
I0714 20:34:48.904081 32007 net.cpp:425] pool2/3x3_s2_pool2/3x3_s2_0_split <- pool2/3x3_s2
I0714 20:34:48.904093 32007 net.cpp:399] pool2/3x3_s2_pool2/3x3_s2_0_split -> pool2/3x3_s2_pool2/3x3_s2_0_split_0
I0714 20:34:48.904105 32007 net.cpp:399] pool2/3x3_s2_pool2/3x3_s2_0_split -> pool2/3x3_s2_pool2/3x3_s2_0_split_1
I0714 20:34:48.904115 32007 net.cpp:399] pool2/3x3_s2_pool2/3x3_s2_0_split -> pool2/3x3_s2_pool2/3x3_s2_0_split_2
I0714 20:34:48.904126 32007 net.cpp:399] pool2/3x3_s2_pool2/3x3_s2_0_split -> pool2/3x3_s2_pool2/3x3_s2_0_split_3
I0714 20:34:48.904155 32003 net.cpp:141] Setting up pool2/3x3_s2_pool2/3x3_s2_0_split
I0714 20:34:48.904170 32003 net.cpp:148] Top shape: 10 192 28 28 (1505280)
I0714 20:34:48.904178 32003 net.cpp:148] Top shape: 10 192 28 28 (1505280)
I0714 20:34:48.904184 32003 net.cpp:148] Top shape: 10 192 28 28 (1505280)
I0714 20:34:48.904191 32003 net.cpp:148] Top shape: 10 192 28 28 (1505280)
I0714 20:34:48.904196 32003 net.cpp:156] Memory required for data: 204718080
I0714 20:34:48.904201 32003 layer_factory.hpp:77] Creating layer inception_3a/1x1
I0714 20:34:48.904217 32003 net.cpp:91] Creating Layer inception_3a/1x1
I0714 20:34:48.904223 32003 net.cpp:425] inception_3a/1x1 <- pool2/3x3_s2_pool2/3x3_s2_0_split_0
I0714 20:34:48.904258 32003 net.cpp:399] inception_3a/1x1 -> inception_3a/1x1
I0714 20:34:48.904289 32007 net.cpp:141] Setting up pool2/3x3_s2_pool2/3x3_s2_0_split
I0714 20:34:48.904305 32007 net.cpp:148] Top shape: 10 192 28 28 (1505280)
I0714 20:34:48.904312 32007 net.cpp:148] Top shape: 10 192 28 28 (1505280)
I0714 20:34:48.904319 32007 net.cpp:148] Top shape: 10 192 28 28 (1505280)
I0714 20:34:48.904323 32007 net.cpp:148] Top shape: 10 192 28 28 (1505280)
I0714 20:34:48.904328 32007 net.cpp:156] Memory required for data: 204718080
I0714 20:34:48.904333 32007 layer_factory.hpp:77] Creating layer inception_3a/1x1
I0714 20:34:48.904351 32007 net.cpp:91] Creating Layer inception_3a/1x1
I0714 20:34:48.904359 32007 net.cpp:425] inception_3a/1x1 <- pool2/3x3_s2_pool2/3x3_s2_0_split_0
I0714 20:34:48.904369 32007 net.cpp:399] inception_3a/1x1 -> inception_3a/1x1
I0714 20:34:48.910349 32003 net.cpp:141] Setting up inception_3a/1x1
I0714 20:34:48.910372 32003 net.cpp:148] Top shape: 10 64 28 28 (501760)
I0714 20:34:48.910378 32003 net.cpp:156] Memory required for data: 206725120
I0714 20:34:48.910389 32003 layer_factory.hpp:77] Creating layer inception_3a/relu_1x1
I0714 20:34:48.910401 32003 net.cpp:91] Creating Layer inception_3a/relu_1x1
I0714 20:34:48.910408 32003 net.cpp:425] inception_3a/relu_1x1 <- inception_3a/1x1
I0714 20:34:48.910420 32003 net.cpp:386] inception_3a/relu_1x1 -> inception_3a/1x1 (in-place)
I0714 20:34:48.911007 32003 net.cpp:141] Setting up inception_3a/relu_1x1
I0714 20:34:48.911025 32003 net.cpp:148] Top shape: 10 64 28 28 (501760)
I0714 20:34:48.911031 32003 net.cpp:156] Memory required for data: 208732160
I0714 20:34:48.911036 32003 layer_factory.hpp:77] Creating layer inception_3a/3x3_reduce
I0714 20:34:48.911059 32003 net.cpp:91] Creating Layer inception_3a/3x3_reduce
I0714 20:34:48.911067 32003 net.cpp:425] inception_3a/3x3_reduce <- pool2/3x3_s2_pool2/3x3_s2_0_split_1
I0714 20:34:48.911077 32003 net.cpp:399] inception_3a/3x3_reduce -> inception_3a/3x3_reduce
I0714 20:34:48.912940 32007 net.cpp:141] Setting up inception_3a/1x1
I0714 20:34:48.912958 32007 net.cpp:148] Top shape: 10 64 28 28 (501760)
I0714 20:34:48.912964 32007 net.cpp:156] Memory required for data: 206725120
I0714 20:34:48.912976 32007 layer_factory.hpp:77] Creating layer inception_3a/relu_1x1
I0714 20:34:48.912986 32007 net.cpp:91] Creating Layer inception_3a/relu_1x1
I0714 20:34:48.912995 32007 net.cpp:425] inception_3a/relu_1x1 <- inception_3a/1x1
I0714 20:34:48.913004 32007 net.cpp:386] inception_3a/relu_1x1 -> inception_3a/1x1 (in-place)
I0714 20:34:48.913914 32007 net.cpp:141] Setting up inception_3a/relu_1x1
I0714 20:34:48.913930 32007 net.cpp:148] Top shape: 10 64 28 28 (501760)
I0714 20:34:48.913936 32007 net.cpp:156] Memory required for data: 208732160
I0714 20:34:48.913943 32007 layer_factory.hpp:77] Creating layer inception_3a/3x3_reduce
I0714 20:34:48.913962 32007 net.cpp:91] Creating Layer inception_3a/3x3_reduce
I0714 20:34:48.913970 32007 net.cpp:425] inception_3a/3x3_reduce <- pool2/3x3_s2_pool2/3x3_s2_0_split_1
I0714 20:34:48.913980 32007 net.cpp:399] inception_3a/3x3_reduce -> inception_3a/3x3_reduce
I0714 20:34:48.920168 32003 net.cpp:141] Setting up inception_3a/3x3_reduce
I0714 20:34:48.920189 32003 net.cpp:148] Top shape: 10 96 28 28 (752640)
I0714 20:34:48.920195 32003 net.cpp:156] Memory required for data: 211742720
I0714 20:34:48.920212 32003 layer_factory.hpp:77] Creating layer inception_3a/relu_3x3_reduce
I0714 20:34:48.920230 32003 net.cpp:91] Creating Layer inception_3a/relu_3x3_reduce
I0714 20:34:48.920239 32003 net.cpp:425] inception_3a/relu_3x3_reduce <- inception_3a/3x3_reduce
I0714 20:34:48.920248 32003 net.cpp:386] inception_3a/relu_3x3_reduce -> inception_3a/3x3_reduce (in-place)
I0714 20:34:48.920527 32003 net.cpp:141] Setting up inception_3a/relu_3x3_reduce
I0714 20:34:48.920541 32003 net.cpp:148] Top shape: 10 96 28 28 (752640)
I0714 20:34:48.920547 32003 net.cpp:156] Memory required for data: 214753280
I0714 20:34:48.920552 32003 layer_factory.hpp:77] Creating layer inception_3a/3x3
I0714 20:34:48.920577 32003 net.cpp:91] Creating Layer inception_3a/3x3
I0714 20:34:48.920583 32003 net.cpp:425] inception_3a/3x3 <- inception_3a/3x3_reduce
I0714 20:34:48.920599 32003 net.cpp:399] inception_3a/3x3 -> inception_3a/3x3
I0714 20:34:48.921720 32007 net.cpp:141] Setting up inception_3a/3x3_reduce
I0714 20:34:48.921744 32007 net.cpp:148] Top shape: 10 96 28 28 (752640)
I0714 20:34:48.921754 32007 net.cpp:156] Memory required for data: 211742720
I0714 20:34:48.921788 32007 layer_factory.hpp:77] Creating layer inception_3a/relu_3x3_reduce
I0714 20:34:48.921808 32007 net.cpp:91] Creating Layer inception_3a/relu_3x3_reduce
I0714 20:34:48.921819 32007 net.cpp:425] inception_3a/relu_3x3_reduce <- inception_3a/3x3_reduce
I0714 20:34:48.921833 32007 net.cpp:386] inception_3a/relu_3x3_reduce -> inception_3a/3x3_reduce (in-place)
I0714 20:34:48.922305 32007 net.cpp:141] Setting up inception_3a/relu_3x3_reduce
I0714 20:34:48.922327 32007 net.cpp:148] Top shape: 10 96 28 28 (752640)
I0714 20:34:48.922338 32007 net.cpp:156] Memory required for data: 214753280
I0714 20:34:48.922349 32007 layer_factory.hpp:77] Creating layer inception_3a/3x3
I0714 20:34:48.922395 32007 net.cpp:91] Creating Layer inception_3a/3x3
I0714 20:34:48.922410 32007 net.cpp:425] inception_3a/3x3 <- inception_3a/3x3_reduce
I0714 20:34:48.922430 32007 net.cpp:399] inception_3a/3x3 -> inception_3a/3x3
I0714 20:34:48.925292 32003 net.cpp:141] Setting up inception_3a/3x3
I0714 20:34:48.925313 32003 net.cpp:148] Top shape: 10 128 28 28 (1003520)
I0714 20:34:48.925319 32003 net.cpp:156] Memory required for data: 218767360
I0714 20:34:48.925330 32003 layer_factory.hpp:77] Creating layer inception_3a/relu_3x3
I0714 20:34:48.925341 32003 net.cpp:91] Creating Layer inception_3a/relu_3x3
I0714 20:34:48.925348 32003 net.cpp:425] inception_3a/relu_3x3 <- inception_3a/3x3
I0714 20:34:48.925361 32003 net.cpp:386] inception_3a/relu_3x3 -> inception_3a/3x3 (in-place)
I0714 20:34:48.926276 32003 net.cpp:141] Setting up inception_3a/relu_3x3
I0714 20:34:48.926293 32003 net.cpp:148] Top shape: 10 128 28 28 (1003520)
I0714 20:34:48.926300 32003 net.cpp:156] Memory required for data: 222781440
I0714 20:34:48.926306 32003 layer_factory.hpp:77] Creating layer inception_3a/5x5_reduce
I0714 20:34:48.926326 32003 net.cpp:91] Creating Layer inception_3a/5x5_reduce
I0714 20:34:48.926333 32003 net.cpp:425] inception_3a/5x5_reduce <- pool2/3x3_s2_pool2/3x3_s2_0_split_2
I0714 20:34:48.926347 32003 net.cpp:399] inception_3a/5x5_reduce -> inception_3a/5x5_reduce
I0714 20:34:48.929958 32007 net.cpp:141] Setting up inception_3a/3x3
I0714 20:34:48.929982 32007 net.cpp:148] Top shape: 10 128 28 28 (1003520)
I0714 20:34:48.929993 32007 net.cpp:156] Memory required for data: 218767360
I0714 20:34:48.930012 32007 layer_factory.hpp:77] Creating layer inception_3a/relu_3x3
I0714 20:34:48.930029 32007 net.cpp:91] Creating Layer inception_3a/relu_3x3
I0714 20:34:48.930040 32007 net.cpp:425] inception_3a/relu_3x3 <- inception_3a/3x3
I0714 20:34:48.930063 32007 net.cpp:386] inception_3a/relu_3x3 -> inception_3a/3x3 (in-place)
I0714 20:34:48.931495 32007 net.cpp:141] Setting up inception_3a/relu_3x3
I0714 20:34:48.931517 32007 net.cpp:148] Top shape: 10 128 28 28 (1003520)
I0714 20:34:48.931529 32007 net.cpp:156] Memory required for data: 222781440
I0714 20:34:48.931540 32007 layer_factory.hpp:77] Creating layer inception_3a/5x5_reduce
I0714 20:34:48.931573 32007 net.cpp:91] Creating Layer inception_3a/5x5_reduce
I0714 20:34:48.931587 32007 net.cpp:425] inception_3a/5x5_reduce <- pool2/3x3_s2_pool2/3x3_s2_0_split_2
I0714 20:34:48.931604 32003 net.cpp:141] Setting up inception_3a/5x5_reduce
I0714 20:34:48.931612 32007 net.cpp:399] inception_3a/5x5_reduce -> inception_3a/5x5_reduce
I0714 20:34:48.931620 32003 net.cpp:148] Top shape: 10 16 28 28 (125440)
I0714 20:34:48.931627 32003 net.cpp:156] Memory required for data: 223283200
I0714 20:34:48.931638 32003 layer_factory.hpp:77] Creating layer inception_3a/relu_5x5_reduce
I0714 20:34:48.931648 32003 net.cpp:91] Creating Layer inception_3a/relu_5x5_reduce
I0714 20:34:48.931655 32003 net.cpp:425] inception_3a/relu_5x5_reduce <- inception_3a/5x5_reduce
I0714 20:34:48.931668 32003 net.cpp:386] inception_3a/relu_5x5_reduce -> inception_3a/5x5_reduce (in-place)
I0714 20:34:48.932126 32003 net.cpp:141] Setting up inception_3a/relu_5x5_reduce
I0714 20:34:48.932139 32003 net.cpp:148] Top shape: 10 16 28 28 (125440)
I0714 20:34:48.932145 32003 net.cpp:156] Memory required for data: 223784960
I0714 20:34:48.932152 32003 layer_factory.hpp:77] Creating layer inception_3a/5x5
I0714 20:34:48.932171 32003 net.cpp:91] Creating Layer inception_3a/5x5
I0714 20:34:48.932178 32003 net.cpp:425] inception_3a/5x5 <- inception_3a/5x5_reduce
I0714 20:34:48.932189 32003 net.cpp:399] inception_3a/5x5 -> inception_3a/5x5
I0714 20:34:48.936614 32007 net.cpp:141] Setting up inception_3a/5x5_reduce
I0714 20:34:48.936638 32007 net.cpp:148] Top shape: 10 16 28 28 (125440)
I0714 20:34:48.936648 32007 net.cpp:156] Memory required for data: 223283200
I0714 20:34:48.936668 32007 layer_factory.hpp:77] Creating layer inception_3a/relu_5x5_reduce
I0714 20:34:48.936693 32007 net.cpp:91] Creating Layer inception_3a/relu_5x5_reduce
I0714 20:34:48.936708 32007 net.cpp:425] inception_3a/relu_5x5_reduce <- inception_3a/5x5_reduce
I0714 20:34:48.936725 32007 net.cpp:386] inception_3a/relu_5x5_reduce -> inception_3a/5x5_reduce (in-place)
I0714 20:34:48.937229 32007 net.cpp:141] Setting up inception_3a/relu_5x5_reduce
I0714 20:34:48.937252 32007 net.cpp:148] Top shape: 10 16 28 28 (125440)
I0714 20:34:48.937263 32007 net.cpp:156] Memory required for data: 223784960
I0714 20:34:48.937273 32007 layer_factory.hpp:77] Creating layer inception_3a/5x5
I0714 20:34:48.937304 32007 net.cpp:91] Creating Layer inception_3a/5x5
I0714 20:34:48.937319 32007 net.cpp:425] inception_3a/5x5 <- inception_3a/5x5_reduce
I0714 20:34:48.937342 32007 net.cpp:399] inception_3a/5x5 -> inception_3a/5x5
I0714 20:34:48.937412 32003 net.cpp:141] Setting up inception_3a/5x5
I0714 20:34:48.937428 32003 net.cpp:148] Top shape: 10 32 28 28 (250880)
I0714 20:34:48.937434 32003 net.cpp:156] Memory required for data: 224788480
I0714 20:34:48.937445 32003 layer_factory.hpp:77] Creating layer inception_3a/relu_5x5
I0714 20:34:48.937458 32003 net.cpp:91] Creating Layer inception_3a/relu_5x5
I0714 20:34:48.937465 32003 net.cpp:425] inception_3a/relu_5x5 <- inception_3a/5x5
I0714 20:34:48.937474 32003 net.cpp:386] inception_3a/relu_5x5 -> inception_3a/5x5 (in-place)
I0714 20:34:48.937891 32003 net.cpp:141] Setting up inception_3a/relu_5x5
I0714 20:34:48.937904 32003 net.cpp:148] Top shape: 10 32 28 28 (250880)
I0714 20:34:48.937909 32003 net.cpp:156] Memory required for data: 225792000
I0714 20:34:48.937916 32003 layer_factory.hpp:77] Creating layer inception_3a/pool
I0714 20:34:48.937927 32003 net.cpp:91] Creating Layer inception_3a/pool
I0714 20:34:48.937934 32003 net.cpp:425] inception_3a/pool <- pool2/3x3_s2_pool2/3x3_s2_0_split_3
I0714 20:34:48.937947 32003 net.cpp:399] inception_3a/pool -> inception_3a/pool
I0714 20:34:48.938159 32003 net.cpp:141] Setting up inception_3a/pool
I0714 20:34:48.938172 32003 net.cpp:148] Top shape: 10 192 28 28 (1505280)
I0714 20:34:48.938177 32003 net.cpp:156] Memory required for data: 231813120
I0714 20:34:48.938182 32003 layer_factory.hpp:77] Creating layer inception_3a/pool_proj
I0714 20:34:48.938205 32003 net.cpp:91] Creating Layer inception_3a/pool_proj
I0714 20:34:48.938213 32003 net.cpp:425] inception_3a/pool_proj <- inception_3a/pool
I0714 20:34:48.938223 32003 net.cpp:399] inception_3a/pool_proj -> inception_3a/pool_proj
I0714 20:34:48.942323 32003 net.cpp:141] Setting up inception_3a/pool_proj
I0714 20:34:48.942348 32003 net.cpp:148] Top shape: 10 32 28 28 (250880)
I0714 20:34:48.942353 32003 net.cpp:156] Memory required for data: 232816640
I0714 20:34:48.942375 32003 layer_factory.hpp:77] Creating layer inception_3a/relu_pool_proj
I0714 20:34:48.942387 32003 net.cpp:91] Creating Layer inception_3a/relu_pool_proj
I0714 20:34:48.942399 32003 net.cpp:425] inception_3a/relu_pool_proj <- inception_3a/pool_proj
I0714 20:34:48.942409 32003 net.cpp:386] inception_3a/relu_pool_proj -> inception_3a/pool_proj (in-place)
I0714 20:34:48.943449 32003 net.cpp:141] Setting up inception_3a/relu_pool_proj
I0714 20:34:48.943467 32003 net.cpp:148] Top shape: 10 32 28 28 (250880)
I0714 20:34:48.943473 32003 net.cpp:156] Memory required for data: 233820160
I0714 20:34:48.943480 32003 layer_factory.hpp:77] Creating layer inception_3a/output
I0714 20:34:48.943500 32003 net.cpp:91] Creating Layer inception_3a/output
I0714 20:34:48.943507 32003 net.cpp:425] inception_3a/output <- inception_3a/1x1
I0714 20:34:48.943516 32003 net.cpp:425] inception_3a/output <- inception_3a/3x3
I0714 20:34:48.943521 32003 net.cpp:425] inception_3a/output <- inception_3a/5x5
I0714 20:34:48.943527 32003 net.cpp:425] inception_3a/output <- inception_3a/pool_proj
I0714 20:34:48.943537 32003 net.cpp:399] inception_3a/output -> inception_3a/output
I0714 20:34:48.944334 32003 net.cpp:141] Setting up inception_3a/output
I0714 20:34:48.944346 32003 net.cpp:148] Top shape: 10 256 28 28 (2007040)
I0714 20:34:48.944345 32007 net.cpp:141] Setting up inception_3a/5x5
I0714 20:34:48.944353 32003 net.cpp:156] Memory required for data: 241848320
I0714 20:34:48.944372 32003 layer_factory.hpp:77] Creating layer inception_3a/output_inception_3a/output_0_split
I0714 20:34:48.944381 32007 net.cpp:148] Top shape: 10 32 28 28 (250880)
I0714 20:34:48.944388 32003 net.cpp:91] Creating Layer inception_3a/output_inception_3a/output_0_split
I0714 20:34:48.944396 32003 net.cpp:425] inception_3a/output_inception_3a/output_0_split <- inception_3a/output
I0714 20:34:48.944394 32007 net.cpp:156] Memory required for data: 224788480
I0714 20:34:48.944414 32003 net.cpp:399] inception_3a/output_inception_3a/output_0_split -> inception_3a/output_inception_3a/output_0_split_0
I0714 20:34:48.944425 32003 net.cpp:399] inception_3a/output_inception_3a/output_0_split -> inception_3a/output_inception_3a/output_0_split_1
I0714 20:34:48.944430 32007 layer_factory.hpp:77] Creating layer inception_3a/relu_5x5
I0714 20:34:48.944435 32003 net.cpp:399] inception_3a/output_inception_3a/output_0_split -> inception_3a/output_inception_3a/output_0_split_2
I0714 20:34:48.944453 32007 net.cpp:91] Creating Layer inception_3a/relu_5x5
I0714 20:34:48.944453 32003 net.cpp:399] inception_3a/output_inception_3a/output_0_split -> inception_3a/output_inception_3a/output_0_split_3
I0714 20:34:48.944473 32007 net.cpp:425] inception_3a/relu_5x5 <- inception_3a/5x5
I0714 20:34:48.944489 32007 net.cpp:386] inception_3a/relu_5x5 -> inception_3a/5x5 (in-place)
I0714 20:34:48.944766 32003 net.cpp:141] Setting up inception_3a/output_inception_3a/output_0_split
I0714 20:34:48.944778 32003 net.cpp:148] Top shape: 10 256 28 28 (2007040)
I0714 20:34:48.944785 32003 net.cpp:148] Top shape: 10 256 28 28 (2007040)
I0714 20:34:48.944792 32003 net.cpp:148] Top shape: 10 256 28 28 (2007040)
I0714 20:34:48.944797 32003 net.cpp:148] Top shape: 10 256 28 28 (2007040)
I0714 20:34:48.944802 32003 net.cpp:156] Memory required for data: 273960960
I0714 20:34:48.944808 32003 layer_factory.hpp:77] Creating layer inception_3b/1x1
I0714 20:34:48.944840 32003 net.cpp:91] Creating Layer inception_3b/1x1
I0714 20:34:48.944849 32003 net.cpp:425] inception_3b/1x1 <- inception_3a/output_inception_3a/output_0_split_0
I0714 20:34:48.944860 32003 net.cpp:399] inception_3b/1x1 -> inception_3b/1x1
I0714 20:34:48.945294 32007 net.cpp:141] Setting up inception_3a/relu_5x5
I0714 20:34:48.945317 32007 net.cpp:148] Top shape: 10 32 28 28 (250880)
I0714 20:34:48.945327 32007 net.cpp:156] Memory required for data: 225792000
I0714 20:34:48.945338 32007 layer_factory.hpp:77] Creating layer inception_3a/pool
I0714 20:34:48.945355 32007 net.cpp:91] Creating Layer inception_3a/pool
I0714 20:34:48.945369 32007 net.cpp:425] inception_3a/pool <- pool2/3x3_s2_pool2/3x3_s2_0_split_3
I0714 20:34:48.945390 32007 net.cpp:399] inception_3a/pool -> inception_3a/pool
I0714 20:34:48.945570 32007 net.cpp:141] Setting up inception_3a/pool
I0714 20:34:48.945590 32007 net.cpp:148] Top shape: 10 192 28 28 (1505280)
I0714 20:34:48.945600 32007 net.cpp:156] Memory required for data: 231813120
I0714 20:34:48.945611 32007 layer_factory.hpp:77] Creating layer inception_3a/pool_proj
I0714 20:34:48.945638 32007 net.cpp:91] Creating Layer inception_3a/pool_proj
I0714 20:34:48.945652 32007 net.cpp:425] inception_3a/pool_proj <- inception_3a/pool
I0714 20:34:48.945674 32007 net.cpp:399] inception_3a/pool_proj -> inception_3a/pool_proj
I0714 20:34:48.949483 32003 net.cpp:141] Setting up inception_3b/1x1
I0714 20:34:48.949508 32003 net.cpp:148] Top shape: 10 128 28 28 (1003520)
I0714 20:34:48.949515 32003 net.cpp:156] Memory required for data: 277975040
I0714 20:34:48.949527 32003 layer_factory.hpp:77] Creating layer inception_3b/relu_1x1
I0714 20:34:48.949537 32003 net.cpp:91] Creating Layer inception_3b/relu_1x1
I0714 20:34:48.949544 32003 net.cpp:425] inception_3b/relu_1x1 <- inception_3b/1x1
I0714 20:34:48.949558 32003 net.cpp:386] inception_3b/relu_1x1 -> inception_3b/1x1 (in-place)
I0714 20:34:48.949867 32003 net.cpp:141] Setting up inception_3b/relu_1x1
I0714 20:34:48.949884 32003 net.cpp:148] Top shape: 10 128 28 28 (1003520)
I0714 20:34:48.949889 32003 net.cpp:156] Memory required for data: 281989120
I0714 20:34:48.949895 32003 layer_factory.hpp:77] Creating layer inception_3b/3x3_reduce
I0714 20:34:48.949916 32003 net.cpp:91] Creating Layer inception_3b/3x3_reduce
I0714 20:34:48.949924 32003 net.cpp:425] inception_3b/3x3_reduce <- inception_3a/output_inception_3a/output_0_split_1
I0714 20:34:48.949935 32003 net.cpp:399] inception_3b/3x3_reduce -> inception_3b/3x3_reduce
I0714 20:34:48.951210 32007 net.cpp:141] Setting up inception_3a/pool_proj
I0714 20:34:48.951231 32007 net.cpp:148] Top shape: 10 32 28 28 (250880)
I0714 20:34:48.951236 32007 net.cpp:156] Memory required for data: 232816640
I0714 20:34:48.951256 32007 layer_factory.hpp:77] Creating layer inception_3a/relu_pool_proj
I0714 20:34:48.951270 32007 net.cpp:91] Creating Layer inception_3a/relu_pool_proj
I0714 20:34:48.951277 32007 net.cpp:425] inception_3a/relu_pool_proj <- inception_3a/pool_proj
I0714 20:34:48.951289 32007 net.cpp:386] inception_3a/relu_pool_proj -> inception_3a/pool_proj (in-place)
I0714 20:34:48.953841 32007 net.cpp:141] Setting up inception_3a/relu_pool_proj
I0714 20:34:48.953912 32007 net.cpp:148] Top shape: 10 32 28 28 (250880)
I0714 20:34:48.953923 32007 net.cpp:156] Memory required for data: 233820160
I0714 20:34:48.953953 32007 layer_factory.hpp:77] Creating layer inception_3a/output
I0714 20:34:48.953984 32007 net.cpp:91] Creating Layer inception_3a/output
I0714 20:34:48.953999 32007 net.cpp:425] inception_3a/output <- inception_3a/1x1
I0714 20:34:48.954015 32007 net.cpp:425] inception_3a/output <- inception_3a/3x3
I0714 20:34:48.954027 32007 net.cpp:425] inception_3a/output <- inception_3a/5x5
I0714 20:34:48.954037 32007 net.cpp:425] inception_3a/output <- inception_3a/pool_proj
I0714 20:34:48.954051 32007 net.cpp:399] inception_3a/output -> inception_3a/output
I0714 20:34:48.954375 32007 net.cpp:141] Setting up inception_3a/output
I0714 20:34:48.954390 32007 net.cpp:148] Top shape: 10 256 28 28 (2007040)
I0714 20:34:48.954407 32007 net.cpp:156] Memory required for data: 241848320
I0714 20:34:48.954416 32007 layer_factory.hpp:77] Creating layer inception_3a/output_inception_3a/output_0_split
I0714 20:34:48.954432 32007 net.cpp:91] Creating Layer inception_3a/output_inception_3a/output_0_split
I0714 20:34:48.954438 32007 net.cpp:425] inception_3a/output_inception_3a/output_0_split <- inception_3a/output
I0714 20:34:48.954447 32007 net.cpp:399] inception_3a/output_inception_3a/output_0_split -> inception_3a/output_inception_3a/output_0_split_0
I0714 20:34:48.954459 32007 net.cpp:399] inception_3a/output_inception_3a/output_0_split -> inception_3a/output_inception_3a/output_0_split_1
I0714 20:34:48.954469 32007 net.cpp:399] inception_3a/output_inception_3a/output_0_split -> inception_3a/output_inception_3a/output_0_split_2
I0714 20:34:48.954479 32007 net.cpp:399] inception_3a/output_inception_3a/output_0_split -> inception_3a/output_inception_3a/output_0_split_3
I0714 20:34:48.955816 32007 net.cpp:141] Setting up inception_3a/output_inception_3a/output_0_split
I0714 20:34:48.955847 32007 net.cpp:148] Top shape: 10 256 28 28 (2007040)
I0714 20:34:48.955858 32007 net.cpp:148] Top shape: 10 256 28 28 (2007040)
I0714 20:34:48.955869 32007 net.cpp:148] Top shape: 10 256 28 28 (2007040)
I0714 20:34:48.955879 32007 net.cpp:148] Top shape: 10 256 28 28 (2007040)
I0714 20:34:48.955888 32007 net.cpp:156] Memory required for data: 273960960
I0714 20:34:48.955899 32007 layer_factory.hpp:77] Creating layer inception_3b/1x1
I0714 20:34:48.955941 32007 net.cpp:91] Creating Layer inception_3b/1x1
I0714 20:34:48.955955 32007 net.cpp:425] inception_3b/1x1 <- inception_3a/output_inception_3a/output_0_split_0
I0714 20:34:48.955972 32007 net.cpp:399] inception_3b/1x1 -> inception_3b/1x1
I0714 20:34:48.956588 32003 net.cpp:141] Setting up inception_3b/3x3_reduce
I0714 20:34:48.956606 32003 net.cpp:148] Top shape: 10 128 28 28 (1003520)
I0714 20:34:48.956612 32003 net.cpp:156] Memory required for data: 286003200
I0714 20:34:48.956624 32003 layer_factory.hpp:77] Creating layer inception_3b/relu_3x3_reduce
I0714 20:34:48.956634 32003 net.cpp:91] Creating Layer inception_3b/relu_3x3_reduce
I0714 20:34:48.956640 32003 net.cpp:425] inception_3b/relu_3x3_reduce <- inception_3b/3x3_reduce
I0714 20:34:48.956653 32003 net.cpp:386] inception_3b/relu_3x3_reduce -> inception_3b/3x3_reduce (in-place)
I0714 20:34:48.957099 32003 net.cpp:141] Setting up inception_3b/relu_3x3_reduce
I0714 20:34:48.957113 32003 net.cpp:148] Top shape: 10 128 28 28 (1003520)
I0714 20:34:48.957119 32003 net.cpp:156] Memory required for data: 290017280
I0714 20:34:48.957125 32003 layer_factory.hpp:77] Creating layer inception_3b/3x3
I0714 20:34:48.957149 32003 net.cpp:91] Creating Layer inception_3b/3x3
I0714 20:34:48.957155 32003 net.cpp:425] inception_3b/3x3 <- inception_3b/3x3_reduce
I0714 20:34:48.957166 32003 net.cpp:399] inception_3b/3x3 -> inception_3b/3x3
I0714 20:34:48.964710 32007 net.cpp:141] Setting up inception_3b/1x1
I0714 20:34:48.964753 32007 net.cpp:148] Top shape: 10 128 28 28 (1003520)
I0714 20:34:48.964764 32007 net.cpp:156] Memory required for data: 277975040
I0714 20:34:48.964787 32007 layer_factory.hpp:77] Creating layer inception_3b/relu_1x1
I0714 20:34:48.964807 32007 net.cpp:91] Creating Layer inception_3b/relu_1x1
I0714 20:34:48.964821 32007 net.cpp:425] inception_3b/relu_1x1 <- inception_3b/1x1
I0714 20:34:48.964841 32007 net.cpp:386] inception_3b/relu_1x1 -> inception_3b/1x1 (in-place)
I0714 20:34:48.964869 32003 net.cpp:141] Setting up inception_3b/3x3
I0714 20:34:48.964890 32003 net.cpp:148] Top shape: 10 192 28 28 (1505280)
I0714 20:34:48.964895 32003 net.cpp:156] Memory required for data: 296038400
I0714 20:34:48.964907 32003 layer_factory.hpp:77] Creating layer inception_3b/relu_3x3
I0714 20:34:48.964927 32003 net.cpp:91] Creating Layer inception_3b/relu_3x3
I0714 20:34:48.964936 32003 net.cpp:425] inception_3b/relu_3x3 <- inception_3b/3x3
I0714 20:34:48.964946 32003 net.cpp:386] inception_3b/relu_3x3 -> inception_3b/3x3 (in-place)
I0714 20:34:48.965432 32007 net.cpp:141] Setting up inception_3b/relu_1x1
I0714 20:34:48.965457 32007 net.cpp:148] Top shape: 10 128 28 28 (1003520)
I0714 20:34:48.965467 32007 net.cpp:156] Memory required for data: 281989120
I0714 20:34:48.965477 32007 layer_factory.hpp:77] Creating layer inception_3b/3x3_reduce
I0714 20:34:48.965509 32007 net.cpp:91] Creating Layer inception_3b/3x3_reduce
I0714 20:34:48.965523 32007 net.cpp:425] inception_3b/3x3_reduce <- inception_3a/output_inception_3a/output_0_split_1
I0714 20:34:48.965541 32007 net.cpp:399] inception_3b/3x3_reduce -> inception_3b/3x3_reduce
I0714 20:34:48.966039 32003 net.cpp:141] Setting up inception_3b/relu_3x3
I0714 20:34:48.966055 32003 net.cpp:148] Top shape: 10 192 28 28 (1505280)
I0714 20:34:48.966060 32003 net.cpp:156] Memory required for data: 302059520
I0714 20:34:48.966066 32003 layer_factory.hpp:77] Creating layer inception_3b/5x5_reduce
I0714 20:34:48.966089 32003 net.cpp:91] Creating Layer inception_3b/5x5_reduce
I0714 20:34:48.966097 32003 net.cpp:425] inception_3b/5x5_reduce <- inception_3a/output_inception_3a/output_0_split_2
I0714 20:34:48.966109 32003 net.cpp:399] inception_3b/5x5_reduce -> inception_3b/5x5_reduce
I0714 20:34:48.971428 32003 net.cpp:141] Setting up inception_3b/5x5_reduce
I0714 20:34:48.971449 32003 net.cpp:148] Top shape: 10 32 28 28 (250880)
I0714 20:34:48.971462 32003 net.cpp:156] Memory required for data: 303063040
I0714 20:34:48.971473 32003 layer_factory.hpp:77] Creating layer inception_3b/relu_5x5_reduce
I0714 20:34:48.971489 32003 net.cpp:91] Creating Layer inception_3b/relu_5x5_reduce
I0714 20:34:48.971498 32003 net.cpp:425] inception_3b/relu_5x5_reduce <- inception_3b/5x5_reduce
I0714 20:34:48.971506 32003 net.cpp:386] inception_3b/relu_5x5_reduce -> inception_3b/5x5_reduce (in-place)
I0714 20:34:48.972017 32003 net.cpp:141] Setting up inception_3b/relu_5x5_reduce
I0714 20:34:48.972033 32003 net.cpp:148] Top shape: 10 32 28 28 (250880)
I0714 20:34:48.972038 32003 net.cpp:156] Memory required for data: 304066560
I0714 20:34:48.972044 32003 layer_factory.hpp:77] Creating layer inception_3b/5x5
I0714 20:34:48.972064 32003 net.cpp:91] Creating Layer inception_3b/5x5
I0714 20:34:48.972072 32003 net.cpp:425] inception_3b/5x5 <- inception_3b/5x5_reduce
I0714 20:34:48.972086 32003 net.cpp:399] inception_3b/5x5 -> inception_3b/5x5
I0714 20:34:48.972152 32007 net.cpp:141] Setting up inception_3b/3x3_reduce
I0714 20:34:48.972170 32007 net.cpp:148] Top shape: 10 128 28 28 (1003520)
I0714 20:34:48.972177 32007 net.cpp:156] Memory required for data: 286003200
I0714 20:34:48.972187 32007 layer_factory.hpp:77] Creating layer inception_3b/relu_3x3_reduce
I0714 20:34:48.972200 32007 net.cpp:91] Creating Layer inception_3b/relu_3x3_reduce
I0714 20:34:48.972208 32007 net.cpp:425] inception_3b/relu_3x3_reduce <- inception_3b/3x3_reduce
I0714 20:34:48.972216 32007 net.cpp:386] inception_3b/relu_3x3_reduce -> inception_3b/3x3_reduce (in-place)
I0714 20:34:48.972703 32007 net.cpp:141] Setting up inception_3b/relu_3x3_reduce
I0714 20:34:48.972718 32007 net.cpp:148] Top shape: 10 128 28 28 (1003520)
I0714 20:34:48.972723 32007 net.cpp:156] Memory required for data: 290017280
I0714 20:34:48.972728 32007 layer_factory.hpp:77] Creating layer inception_3b/3x3
I0714 20:34:48.972750 32007 net.cpp:91] Creating Layer inception_3b/3x3
I0714 20:34:48.972759 32007 net.cpp:425] inception_3b/3x3 <- inception_3b/3x3_reduce
I0714 20:34:48.972769 32007 net.cpp:399] inception_3b/3x3 -> inception_3b/3x3
I0714 20:34:48.979583 32003 net.cpp:141] Setting up inception_3b/5x5
I0714 20:34:48.979609 32003 net.cpp:148] Top shape: 10 96 28 28 (752640)
I0714 20:34:48.979614 32003 net.cpp:156] Memory required for data: 307077120
I0714 20:34:48.979624 32003 layer_factory.hpp:77] Creating layer inception_3b/relu_5x5
I0714 20:34:48.979635 32003 net.cpp:91] Creating Layer inception_3b/relu_5x5
I0714 20:34:48.979641 32003 net.cpp:425] inception_3b/relu_5x5 <- inception_3b/5x5
I0714 20:34:48.979650 32003 net.cpp:386] inception_3b/relu_5x5 -> inception_3b/5x5 (in-place)
I0714 20:34:48.980090 32003 net.cpp:141] Setting up inception_3b/relu_5x5
I0714 20:34:48.980104 32003 net.cpp:148] Top shape: 10 96 28 28 (752640)
I0714 20:34:48.980110 32003 net.cpp:156] Memory required for data: 310087680
I0714 20:34:48.980116 32003 layer_factory.hpp:77] Creating layer inception_3b/pool
I0714 20:34:48.980126 32003 net.cpp:91] Creating Layer inception_3b/pool
I0714 20:34:48.980134 32003 net.cpp:425] inception_3b/pool <- inception_3a/output_inception_3a/output_0_split_3
I0714 20:34:48.980145 32003 net.cpp:399] inception_3b/pool -> inception_3b/pool
I0714 20:34:48.981003 32003 net.cpp:141] Setting up inception_3b/pool
I0714 20:34:48.981017 32003 net.cpp:148] Top shape: 10 256 28 28 (2007040)
I0714 20:34:48.981022 32003 net.cpp:156] Memory required for data: 318115840
I0714 20:34:48.981029 32003 layer_factory.hpp:77] Creating layer inception_3b/pool_proj
I0714 20:34:48.981045 32003 net.cpp:91] Creating Layer inception_3b/pool_proj
I0714 20:34:48.981053 32003 net.cpp:425] inception_3b/pool_proj <- inception_3b/pool
I0714 20:34:48.981073 32003 net.cpp:399] inception_3b/pool_proj -> inception_3b/pool_proj
I0714 20:34:48.984335 32007 net.cpp:141] Setting up inception_3b/3x3
I0714 20:34:48.984366 32007 net.cpp:148] Top shape: 10 192 28 28 (1505280)
I0714 20:34:48.984375 32007 net.cpp:156] Memory required for data: 296038400
I0714 20:34:48.984390 32007 layer_factory.hpp:77] Creating layer inception_3b/relu_3x3
I0714 20:34:48.984417 32007 net.cpp:91] Creating Layer inception_3b/relu_3x3
I0714 20:34:48.984428 32007 net.cpp:425] inception_3b/relu_3x3 <- inception_3b/3x3
I0714 20:34:48.984441 32007 net.cpp:386] inception_3b/relu_3x3 -> inception_3b/3x3 (in-place)
I0714 20:34:48.986101 32007 net.cpp:141] Setting up inception_3b/relu_3x3
I0714 20:34:48.986125 32007 net.cpp:148] Top shape: 10 192 28 28 (1505280)
I0714 20:34:48.986134 32007 net.cpp:156] Memory required for data: 302059520
I0714 20:34:48.986141 32007 layer_factory.hpp:77] Creating layer inception_3b/5x5_reduce
I0714 20:34:48.986162 32003 net.cpp:141] Setting up inception_3b/pool_proj
I0714 20:34:48.986169 32007 net.cpp:91] Creating Layer inception_3b/5x5_reduce
I0714 20:34:48.986179 32003 net.cpp:148] Top shape: 10 64 28 28 (501760)
I0714 20:34:48.986181 32007 net.cpp:425] inception_3b/5x5_reduce <- inception_3a/output_inception_3a/output_0_split_2
I0714 20:34:48.986189 32003 net.cpp:156] Memory required for data: 320122880
I0714 20:34:48.986198 32007 net.cpp:399] inception_3b/5x5_reduce -> inception_3b/5x5_reduce
I0714 20:34:48.986202 32003 layer_factory.hpp:77] Creating layer inception_3b/relu_pool_proj
I0714 20:34:48.986217 32003 net.cpp:91] Creating Layer inception_3b/relu_pool_proj
I0714 20:34:48.986225 32003 net.cpp:425] inception_3b/relu_pool_proj <- inception_3b/pool_proj
I0714 20:34:48.986234 32003 net.cpp:386] inception_3b/relu_pool_proj -> inception_3b/pool_proj (in-place)
I0714 20:34:48.987262 32003 net.cpp:141] Setting up inception_3b/relu_pool_proj
I0714 20:34:48.987282 32003 net.cpp:148] Top shape: 10 64 28 28 (501760)
I0714 20:34:48.987287 32003 net.cpp:156] Memory required for data: 322129920
I0714 20:34:48.987293 32003 layer_factory.hpp:77] Creating layer inception_3b/output
I0714 20:34:48.987308 32003 net.cpp:91] Creating Layer inception_3b/output
I0714 20:34:48.987315 32003 net.cpp:425] inception_3b/output <- inception_3b/1x1
I0714 20:34:48.987323 32003 net.cpp:425] inception_3b/output <- inception_3b/3x3
I0714 20:34:48.987329 32003 net.cpp:425] inception_3b/output <- inception_3b/5x5
I0714 20:34:48.987335 32003 net.cpp:425] inception_3b/output <- inception_3b/pool_proj
I0714 20:34:48.987342 32003 net.cpp:399] inception_3b/output -> inception_3b/output
I0714 20:34:48.987531 32003 net.cpp:141] Setting up inception_3b/output
I0714 20:34:48.987545 32003 net.cpp:148] Top shape: 10 480 28 28 (3763200)
I0714 20:34:48.987550 32003 net.cpp:156] Memory required for data: 337182720
I0714 20:34:48.987555 32003 layer_factory.hpp:77] Creating layer pool3/3x3_s2
I0714 20:34:48.987571 32003 net.cpp:91] Creating Layer pool3/3x3_s2
I0714 20:34:48.987578 32003 net.cpp:425] pool3/3x3_s2 <- inception_3b/output
I0714 20:34:48.987591 32003 net.cpp:399] pool3/3x3_s2 -> pool3/3x3_s2
I0714 20:34:48.987774 32003 net.cpp:141] Setting up pool3/3x3_s2
I0714 20:34:48.987787 32003 net.cpp:148] Top shape: 10 480 14 14 (940800)
I0714 20:34:48.987792 32003 net.cpp:156] Memory required for data: 340945920
I0714 20:34:48.987798 32003 layer_factory.hpp:77] Creating layer pool3/3x3_s2_pool3/3x3_s2_0_split
I0714 20:34:48.987808 32003 net.cpp:91] Creating Layer pool3/3x3_s2_pool3/3x3_s2_0_split
I0714 20:34:48.987814 32003 net.cpp:425] pool3/3x3_s2_pool3/3x3_s2_0_split <- pool3/3x3_s2
I0714 20:34:48.987825 32003 net.cpp:399] pool3/3x3_s2_pool3/3x3_s2_0_split -> pool3/3x3_s2_pool3/3x3_s2_0_split_0
I0714 20:34:48.987835 32003 net.cpp:399] pool3/3x3_s2_pool3/3x3_s2_0_split -> pool3/3x3_s2_pool3/3x3_s2_0_split_1
I0714 20:34:48.987844 32003 net.cpp:399] pool3/3x3_s2_pool3/3x3_s2_0_split -> pool3/3x3_s2_pool3/3x3_s2_0_split_2
I0714 20:34:48.987854 32003 net.cpp:399] pool3/3x3_s2_pool3/3x3_s2_0_split -> pool3/3x3_s2_pool3/3x3_s2_0_split_3
I0714 20:34:48.988406 32003 net.cpp:141] Setting up pool3/3x3_s2_pool3/3x3_s2_0_split
I0714 20:34:48.988420 32003 net.cpp:148] Top shape: 10 480 14 14 (940800)
I0714 20:34:48.988426 32003 net.cpp:148] Top shape: 10 480 14 14 (940800)
I0714 20:34:48.988432 32003 net.cpp:148] Top shape: 10 480 14 14 (940800)
I0714 20:34:48.988438 32003 net.cpp:148] Top shape: 10 480 14 14 (940800)
I0714 20:34:48.988443 32003 net.cpp:156] Memory required for data: 355998720
I0714 20:34:48.988450 32003 layer_factory.hpp:77] Creating layer inception_4a/1x1
I0714 20:34:48.988469 32003 net.cpp:91] Creating Layer inception_4a/1x1
I0714 20:34:48.988477 32003 net.cpp:425] inception_4a/1x1 <- pool3/3x3_s2_pool3/3x3_s2_0_split_0
I0714 20:34:48.988487 32003 net.cpp:399] inception_4a/1x1 -> inception_4a/1x1
I0714 20:34:48.991191 32007 net.cpp:141] Setting up inception_3b/5x5_reduce
I0714 20:34:48.991221 32007 net.cpp:148] Top shape: 10 32 28 28 (250880)
I0714 20:34:48.991230 32007 net.cpp:156] Memory required for data: 303063040
I0714 20:34:48.991245 32007 layer_factory.hpp:77] Creating layer inception_3b/relu_5x5_reduce
I0714 20:34:48.991277 32007 net.cpp:91] Creating Layer inception_3b/relu_5x5_reduce
I0714 20:34:48.991288 32007 net.cpp:425] inception_3b/relu_5x5_reduce <- inception_3b/5x5_reduce
I0714 20:34:48.991299 32007 net.cpp:386] inception_3b/relu_5x5_reduce -> inception_3b/5x5_reduce (in-place)
I0714 20:34:48.991775 32007 net.cpp:141] Setting up inception_3b/relu_5x5_reduce
I0714 20:34:48.991792 32007 net.cpp:148] Top shape: 10 32 28 28 (250880)
I0714 20:34:48.991799 32007 net.cpp:156] Memory required for data: 304066560
I0714 20:34:48.991806 32007 layer_factory.hpp:77] Creating layer inception_3b/5x5
I0714 20:34:48.991830 32007 net.cpp:91] Creating Layer inception_3b/5x5
I0714 20:34:48.991842 32007 net.cpp:425] inception_3b/5x5 <- inception_3b/5x5_reduce
I0714 20:34:48.991858 32007 net.cpp:399] inception_3b/5x5 -> inception_3b/5x5
I0714 20:34:48.997437 32003 net.cpp:141] Setting up inception_4a/1x1
I0714 20:34:48.997459 32003 net.cpp:148] Top shape: 10 192 14 14 (376320)
I0714 20:34:48.997465 32003 net.cpp:156] Memory required for data: 357504000
I0714 20:34:48.997478 32003 layer_factory.hpp:77] Creating layer inception_4a/relu_1x1
I0714 20:34:48.997491 32003 net.cpp:91] Creating Layer inception_4a/relu_1x1
I0714 20:34:48.997498 32003 net.cpp:425] inception_4a/relu_1x1 <- inception_4a/1x1
I0714 20:34:48.997506 32003 net.cpp:386] inception_4a/relu_1x1 -> inception_4a/1x1 (in-place)
I0714 20:34:48.997791 32003 net.cpp:141] Setting up inception_4a/relu_1x1
I0714 20:34:48.997803 32003 net.cpp:148] Top shape: 10 192 14 14 (376320)
I0714 20:34:48.997808 32003 net.cpp:156] Memory required for data: 359009280
I0714 20:34:48.997814 32003 layer_factory.hpp:77] Creating layer inception_4a/3x3_reduce
I0714 20:34:48.997836 32003 net.cpp:91] Creating Layer inception_4a/3x3_reduce
I0714 20:34:48.997844 32003 net.cpp:425] inception_4a/3x3_reduce <- pool3/3x3_s2_pool3/3x3_s2_0_split_1
I0714 20:34:48.997854 32003 net.cpp:399] inception_4a/3x3_reduce -> inception_4a/3x3_reduce
I0714 20:34:49.003278 32007 net.cpp:141] Setting up inception_3b/5x5
I0714 20:34:49.003312 32007 net.cpp:148] Top shape: 10 96 28 28 (752640)
I0714 20:34:49.003320 32007 net.cpp:156] Memory required for data: 307077120
I0714 20:34:49.003334 32007 layer_factory.hpp:77] Creating layer inception_3b/relu_5x5
I0714 20:34:49.003345 32007 net.cpp:91] Creating Layer inception_3b/relu_5x5
I0714 20:34:49.003353 32007 net.cpp:425] inception_3b/relu_5x5 <- inception_3b/5x5
I0714 20:34:49.003363 32007 net.cpp:386] inception_3b/relu_5x5 -> inception_3b/5x5 (in-place)
I0714 20:34:49.003922 32007 net.cpp:141] Setting up inception_3b/relu_5x5
I0714 20:34:49.003942 32007 net.cpp:148] Top shape: 10 96 28 28 (752640)
I0714 20:34:49.003948 32007 net.cpp:156] Memory required for data: 310087680
I0714 20:34:49.003955 32007 layer_factory.hpp:77] Creating layer inception_3b/pool
I0714 20:34:49.003973 32007 net.cpp:91] Creating Layer inception_3b/pool
I0714 20:34:49.003980 32007 net.cpp:425] inception_3b/pool <- inception_3a/output_inception_3a/output_0_split_3
I0714 20:34:49.003991 32007 net.cpp:399] inception_3b/pool -> inception_3b/pool
I0714 20:34:49.003988 32003 net.cpp:141] Setting up inception_4a/3x3_reduce
I0714 20:34:49.004015 32003 net.cpp:148] Top shape: 10 96 14 14 (188160)
I0714 20:34:49.004021 32003 net.cpp:156] Memory required for data: 359761920
I0714 20:34:49.004045 32003 layer_factory.hpp:77] Creating layer inception_4a/relu_3x3_reduce
I0714 20:34:49.004058 32003 net.cpp:91] Creating Layer inception_4a/relu_3x3_reduce
I0714 20:34:49.004065 32003 net.cpp:425] inception_4a/relu_3x3_reduce <- inception_4a/3x3_reduce
I0714 20:34:49.004075 32003 net.cpp:386] inception_4a/relu_3x3_reduce -> inception_4a/3x3_reduce (in-place)
I0714 20:34:49.004329 32007 net.cpp:141] Setting up inception_3b/pool
I0714 20:34:49.004345 32007 net.cpp:148] Top shape: 10 256 28 28 (2007040)
I0714 20:34:49.004351 32007 net.cpp:156] Memory required for data: 318115840
I0714 20:34:49.004357 32007 layer_factory.hpp:77] Creating layer inception_3b/pool_proj
I0714 20:34:49.004379 32007 net.cpp:91] Creating Layer inception_3b/pool_proj
I0714 20:34:49.004386 32007 net.cpp:425] inception_3b/pool_proj <- inception_3b/pool
I0714 20:34:49.004402 32007 net.cpp:399] inception_3b/pool_proj -> inception_3b/pool_proj
I0714 20:34:49.004431 32003 net.cpp:141] Setting up inception_4a/relu_3x3_reduce
I0714 20:34:49.004446 32003 net.cpp:148] Top shape: 10 96 14 14 (188160)
I0714 20:34:49.004451 32003 net.cpp:156] Memory required for data: 360514560
I0714 20:34:49.004457 32003 layer_factory.hpp:77] Creating layer inception_4a/3x3
I0714 20:34:49.004489 32003 net.cpp:91] Creating Layer inception_4a/3x3
I0714 20:34:49.004503 32003 net.cpp:425] inception_4a/3x3 <- inception_4a/3x3_reduce
I0714 20:34:49.004514 32003 net.cpp:399] inception_4a/3x3 -> inception_4a/3x3
I0714 20:34:49.011921 32007 net.cpp:141] Setting up inception_3b/pool_proj
I0714 20:34:49.011950 32007 net.cpp:148] Top shape: 10 64 28 28 (501760)
I0714 20:34:49.011958 32007 net.cpp:156] Memory required for data: 320122880
I0714 20:34:49.011972 32007 layer_factory.hpp:77] Creating layer inception_3b/relu_pool_proj
I0714 20:34:49.011991 32007 net.cpp:91] Creating Layer inception_3b/relu_pool_proj
I0714 20:34:49.012001 32007 net.cpp:425] inception_3b/relu_pool_proj <- inception_3b/pool_proj
I0714 20:34:49.012012 32007 net.cpp:386] inception_3b/relu_pool_proj -> inception_3b/pool_proj (in-place)
I0714 20:34:49.013337 32007 net.cpp:141] Setting up inception_3b/relu_pool_proj
I0714 20:34:49.013358 32007 net.cpp:148] Top shape: 10 64 28 28 (501760)
I0714 20:34:49.013365 32007 net.cpp:156] Memory required for data: 322129920
I0714 20:34:49.013373 32007 layer_factory.hpp:77] Creating layer inception_3b/output
I0714 20:34:49.013391 32007 net.cpp:91] Creating Layer inception_3b/output
I0714 20:34:49.013401 32007 net.cpp:425] inception_3b/output <- inception_3b/1x1
I0714 20:34:49.013409 32007 net.cpp:425] inception_3b/output <- inception_3b/3x3
I0714 20:34:49.013417 32007 net.cpp:425] inception_3b/output <- inception_3b/5x5
I0714 20:34:49.013424 32007 net.cpp:425] inception_3b/output <- inception_3b/pool_proj
I0714 20:34:49.013440 32007 net.cpp:399] inception_3b/output -> inception_3b/output
I0714 20:34:49.013531 32003 net.cpp:141] Setting up inception_4a/3x3
I0714 20:34:49.013563 32003 net.cpp:148] Top shape: 10 208 14 14 (407680)
I0714 20:34:49.013567 32007 net.cpp:141] Setting up inception_3b/output
I0714 20:34:49.013571 32003 net.cpp:156] Memory required for data: 362145280
I0714 20:34:49.013592 32007 net.cpp:148] Top shape: 10 480 28 28 (3763200)
I0714 20:34:49.013599 32007 net.cpp:156] Memory required for data: 337182720
I0714 20:34:49.013600 32003 layer_factory.hpp:77] Creating layer inception_4a/relu_3x3
I0714 20:34:49.013607 32007 layer_factory.hpp:77] Creating layer pool3/3x3_s2
I0714 20:34:49.013618 32007 net.cpp:91] Creating Layer pool3/3x3_s2
I0714 20:34:49.013619 32003 net.cpp:91] Creating Layer inception_4a/relu_3x3
I0714 20:34:49.013627 32007 net.cpp:425] pool3/3x3_s2 <- inception_3b/output
I0714 20:34:49.013631 32003 net.cpp:425] inception_4a/relu_3x3 <- inception_4a/3x3
I0714 20:34:49.013640 32007 net.cpp:399] pool3/3x3_s2 -> pool3/3x3_s2
I0714 20:34:49.013643 32003 net.cpp:386] inception_4a/relu_3x3 -> inception_4a/3x3 (in-place)
I0714 20:34:49.014951 32007 net.cpp:141] Setting up pool3/3x3_s2
I0714 20:34:49.014971 32007 net.cpp:148] Top shape: 10 480 14 14 (940800)
I0714 20:34:49.014978 32007 net.cpp:156] Memory required for data: 340945920
I0714 20:34:49.014984 32007 layer_factory.hpp:77] Creating layer pool3/3x3_s2_pool3/3x3_s2_0_split
I0714 20:34:49.015002 32007 net.cpp:91] Creating Layer pool3/3x3_s2_pool3/3x3_s2_0_split
I0714 20:34:49.015008 32007 net.cpp:425] pool3/3x3_s2_pool3/3x3_s2_0_split <- pool3/3x3_s2
I0714 20:34:49.015018 32007 net.cpp:399] pool3/3x3_s2_pool3/3x3_s2_0_split -> pool3/3x3_s2_pool3/3x3_s2_0_split_0
I0714 20:34:49.015029 32007 net.cpp:399] pool3/3x3_s2_pool3/3x3_s2_0_split -> pool3/3x3_s2_pool3/3x3_s2_0_split_1
I0714 20:34:49.015035 32003 net.cpp:141] Setting up inception_4a/relu_3x3
I0714 20:34:49.015040 32007 net.cpp:399] pool3/3x3_s2_pool3/3x3_s2_0_split -> pool3/3x3_s2_pool3/3x3_s2_0_split_2
I0714 20:34:49.015055 32003 net.cpp:148] Top shape: 10 208 14 14 (407680)
I0714 20:34:49.015061 32003 net.cpp:156] Memory required for data: 363776000
I0714 20:34:49.015064 32007 net.cpp:399] pool3/3x3_s2_pool3/3x3_s2_0_split -> pool3/3x3_s2_pool3/3x3_s2_0_split_3
I0714 20:34:49.015069 32003 layer_factory.hpp:77] Creating layer inception_4a/5x5_reduce
I0714 20:34:49.015097 32003 net.cpp:91] Creating Layer inception_4a/5x5_reduce
I0714 20:34:49.015106 32003 net.cpp:425] inception_4a/5x5_reduce <- pool3/3x3_s2_pool3/3x3_s2_0_split_2
I0714 20:34:49.015118 32003 net.cpp:399] inception_4a/5x5_reduce -> inception_4a/5x5_reduce
I0714 20:34:49.015542 32007 net.cpp:141] Setting up pool3/3x3_s2_pool3/3x3_s2_0_split
I0714 20:34:49.015558 32007 net.cpp:148] Top shape: 10 480 14 14 (940800)
I0714 20:34:49.015566 32007 net.cpp:148] Top shape: 10 480 14 14 (940800)
I0714 20:34:49.015573 32007 net.cpp:148] Top shape: 10 480 14 14 (940800)
I0714 20:34:49.015580 32007 net.cpp:148] Top shape: 10 480 14 14 (940800)
I0714 20:34:49.015585 32007 net.cpp:156] Memory required for data: 355998720
I0714 20:34:49.015591 32007 layer_factory.hpp:77] Creating layer inception_4a/1x1
I0714 20:34:49.015614 32007 net.cpp:91] Creating Layer inception_4a/1x1
I0714 20:34:49.015622 32007 net.cpp:425] inception_4a/1x1 <- pool3/3x3_s2_pool3/3x3_s2_0_split_0
I0714 20:34:49.015635 32007 net.cpp:399] inception_4a/1x1 -> inception_4a/1x1
I0714 20:34:49.021432 32003 net.cpp:141] Setting up inception_4a/5x5_reduce
I0714 20:34:49.021473 32003 net.cpp:148] Top shape: 10 16 14 14 (31360)
I0714 20:34:49.021481 32003 net.cpp:156] Memory required for data: 363901440
I0714 20:34:49.021494 32003 layer_factory.hpp:77] Creating layer inception_4a/relu_5x5_reduce
I0714 20:34:49.021507 32003 net.cpp:91] Creating Layer inception_4a/relu_5x5_reduce
I0714 20:34:49.021514 32003 net.cpp:425] inception_4a/relu_5x5_reduce <- inception_4a/5x5_reduce
I0714 20:34:49.021528 32003 net.cpp:386] inception_4a/relu_5x5_reduce -> inception_4a/5x5_reduce (in-place)
I0714 20:34:49.021998 32003 net.cpp:141] Setting up inception_4a/relu_5x5_reduce
I0714 20:34:49.022012 32003 net.cpp:148] Top shape: 10 16 14 14 (31360)
I0714 20:34:49.022018 32003 net.cpp:156] Memory required for data: 364026880
I0714 20:34:49.022024 32003 layer_factory.hpp:77] Creating layer inception_4a/5x5
I0714 20:34:49.022047 32003 net.cpp:91] Creating Layer inception_4a/5x5
I0714 20:34:49.022055 32003 net.cpp:425] inception_4a/5x5 <- inception_4a/5x5_reduce
I0714 20:34:49.022066 32003 net.cpp:399] inception_4a/5x5 -> inception_4a/5x5
I0714 20:34:49.022080 32007 net.cpp:141] Setting up inception_4a/1x1
I0714 20:34:49.022101 32007 net.cpp:148] Top shape: 10 192 14 14 (376320)
I0714 20:34:49.022109 32007 net.cpp:156] Memory required for data: 357504000
I0714 20:34:49.022121 32007 layer_factory.hpp:77] Creating layer inception_4a/relu_1x1
I0714 20:34:49.022135 32007 net.cpp:91] Creating Layer inception_4a/relu_1x1
I0714 20:34:49.022143 32007 net.cpp:425] inception_4a/relu_1x1 <- inception_4a/1x1
I0714 20:34:49.022152 32007 net.cpp:386] inception_4a/relu_1x1 -> inception_4a/1x1 (in-place)
I0714 20:34:49.022584 32007 net.cpp:141] Setting up inception_4a/relu_1x1
I0714 20:34:49.022598 32007 net.cpp:148] Top shape: 10 192 14 14 (376320)
I0714 20:34:49.022603 32007 net.cpp:156] Memory required for data: 359009280
I0714 20:34:49.022609 32007 layer_factory.hpp:77] Creating layer inception_4a/3x3_reduce
I0714 20:34:49.022629 32007 net.cpp:91] Creating Layer inception_4a/3x3_reduce
I0714 20:34:49.022639 32007 net.cpp:425] inception_4a/3x3_reduce <- pool3/3x3_s2_pool3/3x3_s2_0_split_1
I0714 20:34:49.022650 32007 net.cpp:399] inception_4a/3x3_reduce -> inception_4a/3x3_reduce
I0714 20:34:49.026670 32003 net.cpp:141] Setting up inception_4a/5x5
I0714 20:34:49.026710 32003 net.cpp:148] Top shape: 10 48 14 14 (94080)
I0714 20:34:49.026723 32003 net.cpp:156] Memory required for data: 364403200
I0714 20:34:49.026741 32003 layer_factory.hpp:77] Creating layer inception_4a/relu_5x5
I0714 20:34:49.026764 32003 net.cpp:91] Creating Layer inception_4a/relu_5x5
I0714 20:34:49.026780 32003 net.cpp:425] inception_4a/relu_5x5 <- inception_4a/5x5
I0714 20:34:49.026796 32003 net.cpp:386] inception_4a/relu_5x5 -> inception_4a/5x5 (in-place)
I0714 20:34:49.026989 32007 net.cpp:141] Setting up inception_4a/3x3_reduce
I0714 20:34:49.027006 32007 net.cpp:148] Top shape: 10 96 14 14 (188160)
I0714 20:34:49.027012 32007 net.cpp:156] Memory required for data: 359761920
I0714 20:34:49.027052 32007 layer_factory.hpp:77] Creating layer inception_4a/relu_3x3_reduce
I0714 20:34:49.027068 32007 net.cpp:91] Creating Layer inception_4a/relu_3x3_reduce
I0714 20:34:49.027076 32007 net.cpp:425] inception_4a/relu_3x3_reduce <- inception_4a/3x3_reduce
I0714 20:34:49.027084 32007 net.cpp:386] inception_4a/relu_3x3_reduce -> inception_4a/3x3_reduce (in-place)
I0714 20:34:49.027405 32003 net.cpp:141] Setting up inception_4a/relu_5x5
I0714 20:34:49.027418 32007 net.cpp:141] Setting up inception_4a/relu_3x3_reduce
I0714 20:34:49.027429 32003 net.cpp:148] Top shape: 10 48 14 14 (94080)
I0714 20:34:49.027433 32007 net.cpp:148] Top shape: 10 96 14 14 (188160)
I0714 20:34:49.027448 32007 net.cpp:156] Memory required for data: 360514560
I0714 20:34:49.027448 32003 net.cpp:156] Memory required for data: 364779520
I0714 20:34:49.027456 32007 layer_factory.hpp:77] Creating layer inception_4a/3x3
I0714 20:34:49.027463 32003 layer_factory.hpp:77] Creating layer inception_4a/pool
I0714 20:34:49.027480 32007 net.cpp:91] Creating Layer inception_4a/3x3
I0714 20:34:49.027482 32003 net.cpp:91] Creating Layer inception_4a/pool
I0714 20:34:49.027489 32007 net.cpp:425] inception_4a/3x3 <- inception_4a/3x3_reduce
I0714 20:34:49.027496 32003 net.cpp:425] inception_4a/pool <- pool3/3x3_s2_pool3/3x3_s2_0_split_3
I0714 20:34:49.027500 32007 net.cpp:399] inception_4a/3x3 -> inception_4a/3x3
I0714 20:34:49.027519 32003 net.cpp:399] inception_4a/pool -> inception_4a/pool
I0714 20:34:49.027897 32003 net.cpp:141] Setting up inception_4a/pool
I0714 20:34:49.027920 32003 net.cpp:148] Top shape: 10 480 14 14 (940800)
I0714 20:34:49.027930 32003 net.cpp:156] Memory required for data: 368542720
I0714 20:34:49.027940 32003 layer_factory.hpp:77] Creating layer inception_4a/pool_proj
I0714 20:34:49.027974 32003 net.cpp:91] Creating Layer inception_4a/pool_proj
I0714 20:34:49.027990 32003 net.cpp:425] inception_4a/pool_proj <- inception_4a/pool
I0714 20:34:49.028010 32003 net.cpp:399] inception_4a/pool_proj -> inception_4a/pool_proj
I0714 20:34:49.034024 32003 net.cpp:141] Setting up inception_4a/pool_proj
I0714 20:34:49.034049 32003 net.cpp:148] Top shape: 10 64 14 14 (125440)
I0714 20:34:49.034060 32003 net.cpp:156] Memory required for data: 369044480
I0714 20:34:49.034081 32003 layer_factory.hpp:77] Creating layer inception_4a/relu_pool_proj
I0714 20:34:49.034101 32003 net.cpp:91] Creating Layer inception_4a/relu_pool_proj
I0714 20:34:49.034113 32003 net.cpp:425] inception_4a/relu_pool_proj <- inception_4a/pool_proj
I0714 20:34:49.034137 32003 net.cpp:386] inception_4a/relu_pool_proj -> inception_4a/pool_proj (in-place)
I0714 20:34:49.035236 32007 net.cpp:141] Setting up inception_4a/3x3
I0714 20:34:49.035256 32007 net.cpp:148] Top shape: 10 208 14 14 (407680)
I0714 20:34:49.035264 32007 net.cpp:156] Memory required for data: 362145280
I0714 20:34:49.035274 32007 layer_factory.hpp:77] Creating layer inception_4a/relu_3x3
I0714 20:34:49.035289 32007 net.cpp:91] Creating Layer inception_4a/relu_3x3
I0714 20:34:49.035296 32007 net.cpp:425] inception_4a/relu_3x3 <- inception_4a/3x3
I0714 20:34:49.035305 32007 net.cpp:386] inception_4a/relu_3x3 -> inception_4a/3x3 (in-place)
I0714 20:34:49.035356 32003 net.cpp:141] Setting up inception_4a/relu_pool_proj
I0714 20:34:49.035378 32003 net.cpp:148] Top shape: 10 64 14 14 (125440)
I0714 20:34:49.035389 32003 net.cpp:156] Memory required for data: 369546240
I0714 20:34:49.035400 32003 layer_factory.hpp:77] Creating layer inception_4a/output
I0714 20:34:49.035418 32003 net.cpp:91] Creating Layer inception_4a/output
I0714 20:34:49.035430 32003 net.cpp:425] inception_4a/output <- inception_4a/1x1
I0714 20:34:49.035445 32003 net.cpp:425] inception_4a/output <- inception_4a/3x3
I0714 20:34:49.035472 32003 net.cpp:425] inception_4a/output <- inception_4a/5x5
I0714 20:34:49.035486 32003 net.cpp:425] inception_4a/output <- inception_4a/pool_proj
I0714 20:34:49.035504 32003 net.cpp:399] inception_4a/output -> inception_4a/output
I0714 20:34:49.036120 32003 net.cpp:141] Setting up inception_4a/output
I0714 20:34:49.036142 32003 net.cpp:148] Top shape: 10 512 14 14 (1003520)
I0714 20:34:49.036154 32003 net.cpp:156] Memory required for data: 373560320
I0714 20:34:49.036164 32003 layer_factory.hpp:77] Creating layer inception_4a/output_inception_4a/output_0_split
I0714 20:34:49.036188 32003 net.cpp:91] Creating Layer inception_4a/output_inception_4a/output_0_split
I0714 20:34:49.036201 32003 net.cpp:425] inception_4a/output_inception_4a/output_0_split <- inception_4a/output
I0714 20:34:49.036214 32007 net.cpp:141] Setting up inception_4a/relu_3x3
I0714 20:34:49.036217 32003 net.cpp:399] inception_4a/output_inception_4a/output_0_split -> inception_4a/output_inception_4a/output_0_split_0
I0714 20:34:49.036234 32007 net.cpp:148] Top shape: 10 208 14 14 (407680)
I0714 20:34:49.036240 32007 net.cpp:156] Memory required for data: 363776000
I0714 20:34:49.036247 32007 layer_factory.hpp:77] Creating layer inception_4a/5x5_reduce
I0714 20:34:49.036250 32003 net.cpp:399] inception_4a/output_inception_4a/output_0_split -> inception_4a/output_inception_4a/output_0_split_1
I0714 20:34:49.036267 32007 net.cpp:91] Creating Layer inception_4a/5x5_reduce
I0714 20:34:49.036272 32003 net.cpp:399] inception_4a/output_inception_4a/output_0_split -> inception_4a/output_inception_4a/output_0_split_2
I0714 20:34:49.036276 32007 net.cpp:425] inception_4a/5x5_reduce <- pool3/3x3_s2_pool3/3x3_s2_0_split_2
I0714 20:34:49.036288 32007 net.cpp:399] inception_4a/5x5_reduce -> inception_4a/5x5_reduce
I0714 20:34:49.036290 32003 net.cpp:399] inception_4a/output_inception_4a/output_0_split -> inception_4a/output_inception_4a/output_0_split_3
I0714 20:34:49.036989 32003 net.cpp:141] Setting up inception_4a/output_inception_4a/output_0_split
I0714 20:34:49.037011 32003 net.cpp:148] Top shape: 10 512 14 14 (1003520)
I0714 20:34:49.037026 32003 net.cpp:148] Top shape: 10 512 14 14 (1003520)
I0714 20:34:49.037039 32003 net.cpp:148] Top shape: 10 512 14 14 (1003520)
I0714 20:34:49.037052 32003 net.cpp:148] Top shape: 10 512 14 14 (1003520)
I0714 20:34:49.037061 32003 net.cpp:156] Memory required for data: 389616640
I0714 20:34:49.037072 32003 layer_factory.hpp:77] Creating layer inception_4b/1x1
I0714 20:34:49.037108 32003 net.cpp:91] Creating Layer inception_4b/1x1
I0714 20:34:49.037124 32003 net.cpp:425] inception_4b/1x1 <- inception_4a/output_inception_4a/output_0_split_0
I0714 20:34:49.037147 32003 net.cpp:399] inception_4b/1x1 -> inception_4b/1x1
I0714 20:34:49.040043 32007 net.cpp:141] Setting up inception_4a/5x5_reduce
I0714 20:34:49.040063 32007 net.cpp:148] Top shape: 10 16 14 14 (31360)
I0714 20:34:49.040069 32007 net.cpp:156] Memory required for data: 363901440
I0714 20:34:49.040081 32007 layer_factory.hpp:77] Creating layer inception_4a/relu_5x5_reduce
I0714 20:34:49.040094 32007 net.cpp:91] Creating Layer inception_4a/relu_5x5_reduce
I0714 20:34:49.040102 32007 net.cpp:425] inception_4a/relu_5x5_reduce <- inception_4a/5x5_reduce
I0714 20:34:49.040114 32007 net.cpp:386] inception_4a/relu_5x5_reduce -> inception_4a/5x5_reduce (in-place)
I0714 20:34:49.040397 32007 net.cpp:141] Setting up inception_4a/relu_5x5_reduce
I0714 20:34:49.040410 32007 net.cpp:148] Top shape: 10 16 14 14 (31360)
I0714 20:34:49.040416 32007 net.cpp:156] Memory required for data: 364026880
I0714 20:34:49.040421 32007 layer_factory.hpp:77] Creating layer inception_4a/5x5
I0714 20:34:49.040441 32007 net.cpp:91] Creating Layer inception_4a/5x5
I0714 20:34:49.040448 32007 net.cpp:425] inception_4a/5x5 <- inception_4a/5x5_reduce
I0714 20:34:49.040460 32007 net.cpp:399] inception_4a/5x5 -> inception_4a/5x5
I0714 20:34:49.044327 32003 net.cpp:141] Setting up inception_4b/1x1
I0714 20:34:49.044351 32003 net.cpp:148] Top shape: 10 160 14 14 (313600)
I0714 20:34:49.044361 32003 net.cpp:156] Memory required for data: 390871040
I0714 20:34:49.044381 32003 layer_factory.hpp:77] Creating layer inception_4b/relu_1x1
I0714 20:34:49.044406 32003 net.cpp:91] Creating Layer inception_4b/relu_1x1
I0714 20:34:49.044421 32003 net.cpp:425] inception_4b/relu_1x1 <- inception_4b/1x1
I0714 20:34:49.044437 32003 net.cpp:386] inception_4b/relu_1x1 -> inception_4b/1x1 (in-place)
I0714 20:34:49.044478 32007 net.cpp:141] Setting up inception_4a/5x5
I0714 20:34:49.044495 32007 net.cpp:148] Top shape: 10 48 14 14 (94080)
I0714 20:34:49.044500 32007 net.cpp:156] Memory required for data: 364403200
I0714 20:34:49.044510 32007 layer_factory.hpp:77] Creating layer inception_4a/relu_5x5
I0714 20:34:49.044523 32007 net.cpp:91] Creating Layer inception_4a/relu_5x5
I0714 20:34:49.044530 32007 net.cpp:425] inception_4a/relu_5x5 <- inception_4a/5x5
I0714 20:34:49.044538 32007 net.cpp:386] inception_4a/relu_5x5 -> inception_4a/5x5 (in-place)
I0714 20:34:49.044932 32007 net.cpp:141] Setting up inception_4a/relu_5x5
I0714 20:34:49.044946 32007 net.cpp:148] Top shape: 10 48 14 14 (94080)
I0714 20:34:49.044951 32007 net.cpp:156] Memory required for data: 364779520
I0714 20:34:49.044957 32007 layer_factory.hpp:77] Creating layer inception_4a/pool
I0714 20:34:49.044971 32007 net.cpp:91] Creating Layer inception_4a/pool
I0714 20:34:49.044980 32007 net.cpp:425] inception_4a/pool <- pool3/3x3_s2_pool3/3x3_s2_0_split_3
I0714 20:34:49.044991 32007 net.cpp:399] inception_4a/pool -> inception_4a/pool
I0714 20:34:49.045006 32003 net.cpp:141] Setting up inception_4b/relu_1x1
I0714 20:34:49.045027 32003 net.cpp:148] Top shape: 10 160 14 14 (313600)
I0714 20:34:49.045037 32003 net.cpp:156] Memory required for data: 392125440
I0714 20:34:49.045049 32003 layer_factory.hpp:77] Creating layer inception_4b/3x3_reduce
I0714 20:34:49.045081 32003 net.cpp:91] Creating Layer inception_4b/3x3_reduce
I0714 20:34:49.045097 32003 net.cpp:425] inception_4b/3x3_reduce <- inception_4a/output_inception_4a/output_0_split_1
I0714 20:34:49.045111 32007 net.cpp:141] Setting up inception_4a/pool
I0714 20:34:49.045125 32007 net.cpp:148] Top shape: 10 480 14 14 (940800)
I0714 20:34:49.045122 32003 net.cpp:399] inception_4b/3x3_reduce -> inception_4b/3x3_reduce
I0714 20:34:49.045130 32007 net.cpp:156] Memory required for data: 368542720
I0714 20:34:49.045135 32007 layer_factory.hpp:77] Creating layer inception_4a/pool_proj
I0714 20:34:49.045156 32007 net.cpp:91] Creating Layer inception_4a/pool_proj
I0714 20:34:49.045163 32007 net.cpp:425] inception_4a/pool_proj <- inception_4a/pool
I0714 20:34:49.045173 32007 net.cpp:399] inception_4a/pool_proj -> inception_4a/pool_proj
I0714 20:34:49.049456 32007 net.cpp:141] Setting up inception_4a/pool_proj
I0714 20:34:49.049482 32007 net.cpp:148] Top shape: 10 64 14 14 (125440)
I0714 20:34:49.049489 32007 net.cpp:156] Memory required for data: 369044480
I0714 20:34:49.049500 32007 layer_factory.hpp:77] Creating layer inception_4a/relu_pool_proj
I0714 20:34:49.049511 32007 net.cpp:91] Creating Layer inception_4a/relu_pool_proj
I0714 20:34:49.049518 32007 net.cpp:425] inception_4a/relu_pool_proj <- inception_4a/pool_proj
I0714 20:34:49.049530 32007 net.cpp:386] inception_4a/relu_pool_proj -> inception_4a/pool_proj (in-place)
I0714 20:34:49.051146 32007 net.cpp:141] Setting up inception_4a/relu_pool_proj
I0714 20:34:49.051163 32007 net.cpp:148] Top shape: 10 64 14 14 (125440)
I0714 20:34:49.051169 32007 net.cpp:156] Memory required for data: 369546240
I0714 20:34:49.051175 32007 layer_factory.hpp:77] Creating layer inception_4a/output
I0714 20:34:49.051185 32007 net.cpp:91] Creating Layer inception_4a/output
I0714 20:34:49.051192 32007 net.cpp:425] inception_4a/output <- inception_4a/1x1
I0714 20:34:49.051200 32007 net.cpp:425] inception_4a/output <- inception_4a/3x3
I0714 20:34:49.051206 32007 net.cpp:425] inception_4a/output <- inception_4a/5x5
I0714 20:34:49.051213 32007 net.cpp:425] inception_4a/output <- inception_4a/pool_proj
I0714 20:34:49.051223 32007 net.cpp:399] inception_4a/output -> inception_4a/output
I0714 20:34:49.051364 32007 net.cpp:141] Setting up inception_4a/output
I0714 20:34:49.051378 32007 net.cpp:148] Top shape: 10 512 14 14 (1003520)
I0714 20:34:49.051383 32007 net.cpp:156] Memory required for data: 373560320
I0714 20:34:49.051388 32007 layer_factory.hpp:77] Creating layer inception_4a/output_inception_4a/output_0_split
I0714 20:34:49.051400 32007 net.cpp:91] Creating Layer inception_4a/output_inception_4a/output_0_split
I0714 20:34:49.051400 32003 net.cpp:141] Setting up inception_4b/3x3_reduce
I0714 20:34:49.051406 32007 net.cpp:425] inception_4a/output_inception_4a/output_0_split <- inception_4a/output
I0714 20:34:49.051429 32007 net.cpp:399] inception_4a/output_inception_4a/output_0_split -> inception_4a/output_inception_4a/output_0_split_0
I0714 20:34:49.051434 32003 net.cpp:148] Top shape: 10 112 14 14 (219520)
I0714 20:34:49.051440 32007 net.cpp:399] inception_4a/output_inception_4a/output_0_split -> inception_4a/output_inception_4a/output_0_split_1
I0714 20:34:49.051447 32003 net.cpp:156] Memory required for data: 393003520
I0714 20:34:49.051450 32007 net.cpp:399] inception_4a/output_inception_4a/output_0_split -> inception_4a/output_inception_4a/output_0_split_2
I0714 20:34:49.051467 32007 net.cpp:399] inception_4a/output_inception_4a/output_0_split -> inception_4a/output_inception_4a/output_0_split_3
I0714 20:34:49.051471 32003 layer_factory.hpp:77] Creating layer inception_4b/relu_3x3_reduce
I0714 20:34:49.051491 32003 net.cpp:91] Creating Layer inception_4b/relu_3x3_reduce
I0714 20:34:49.051506 32003 net.cpp:425] inception_4b/relu_3x3_reduce <- inception_4b/3x3_reduce
I0714 20:34:49.051522 32003 net.cpp:386] inception_4b/relu_3x3_reduce -> inception_4b/3x3_reduce (in-place)
I0714 20:34:49.051995 32007 net.cpp:141] Setting up inception_4a/output_inception_4a/output_0_split
I0714 20:34:49.052007 32007 net.cpp:148] Top shape: 10 512 14 14 (1003520)
I0714 20:34:49.052014 32007 net.cpp:148] Top shape: 10 512 14 14 (1003520)
I0714 20:34:49.052021 32007 net.cpp:148] Top shape: 10 512 14 14 (1003520)
I0714 20:34:49.052026 32007 net.cpp:148] Top shape: 10 512 14 14 (1003520)
I0714 20:34:49.052031 32007 net.cpp:156] Memory required for data: 389616640
I0714 20:34:49.052037 32007 layer_factory.hpp:77] Creating layer inception_4b/1x1
I0714 20:34:49.052057 32007 net.cpp:91] Creating Layer inception_4b/1x1
I0714 20:34:49.052065 32007 net.cpp:425] inception_4b/1x1 <- inception_4a/output_inception_4a/output_0_split_0
I0714 20:34:49.052078 32007 net.cpp:399] inception_4b/1x1 -> inception_4b/1x1
I0714 20:34:49.052218 32003 net.cpp:141] Setting up inception_4b/relu_3x3_reduce
I0714 20:34:49.052240 32003 net.cpp:148] Top shape: 10 112 14 14 (219520)
I0714 20:34:49.052251 32003 net.cpp:156] Memory required for data: 393881600
I0714 20:34:49.052264 32003 layer_factory.hpp:77] Creating layer inception_4b/3x3
I0714 20:34:49.052296 32003 net.cpp:91] Creating Layer inception_4b/3x3
I0714 20:34:49.052311 32003 net.cpp:425] inception_4b/3x3 <- inception_4b/3x3_reduce
I0714 20:34:49.052340 32003 net.cpp:399] inception_4b/3x3 -> inception_4b/3x3
I0714 20:34:49.059489 32007 net.cpp:141] Setting up inception_4b/1x1
I0714 20:34:49.059507 32007 net.cpp:148] Top shape: 10 160 14 14 (313600)
I0714 20:34:49.059514 32007 net.cpp:156] Memory required for data: 390871040
I0714 20:34:49.059525 32007 layer_factory.hpp:77] Creating layer inception_4b/relu_1x1
I0714 20:34:49.059540 32007 net.cpp:91] Creating Layer inception_4b/relu_1x1
I0714 20:34:49.059547 32007 net.cpp:425] inception_4b/relu_1x1 <- inception_4b/1x1
I0714 20:34:49.059556 32007 net.cpp:386] inception_4b/relu_1x1 -> inception_4b/1x1 (in-place)
I0714 20:34:49.059844 32007 net.cpp:141] Setting up inception_4b/relu_1x1
I0714 20:34:49.059857 32007 net.cpp:148] Top shape: 10 160 14 14 (313600)
I0714 20:34:49.059862 32007 net.cpp:156] Memory required for data: 392125440
I0714 20:34:49.059869 32007 layer_factory.hpp:77] Creating layer inception_4b/3x3_reduce
I0714 20:34:49.059887 32007 net.cpp:91] Creating Layer inception_4b/3x3_reduce
I0714 20:34:49.059895 32007 net.cpp:425] inception_4b/3x3_reduce <- inception_4a/output_inception_4a/output_0_split_1
I0714 20:34:49.059907 32007 net.cpp:399] inception_4b/3x3_reduce -> inception_4b/3x3_reduce
I0714 20:34:49.061543 32003 net.cpp:141] Setting up inception_4b/3x3
I0714 20:34:49.061568 32003 net.cpp:148] Top shape: 10 224 14 14 (439040)
I0714 20:34:49.061578 32003 net.cpp:156] Memory required for data: 395637760
I0714 20:34:49.061600 32003 layer_factory.hpp:77] Creating layer inception_4b/relu_3x3
I0714 20:34:49.061624 32003 net.cpp:91] Creating Layer inception_4b/relu_3x3
I0714 20:34:49.061638 32003 net.cpp:425] inception_4b/relu_3x3 <- inception_4b/3x3
I0714 20:34:49.061655 32003 net.cpp:386] inception_4b/relu_3x3 -> inception_4b/3x3 (in-place)
I0714 20:34:49.062811 32003 net.cpp:141] Setting up inception_4b/relu_3x3
I0714 20:34:49.062834 32003 net.cpp:148] Top shape: 10 224 14 14 (439040)
I0714 20:34:49.062850 32003 net.cpp:156] Memory required for data: 397393920
I0714 20:34:49.062862 32003 layer_factory.hpp:77] Creating layer inception_4b/5x5_reduce
I0714 20:34:49.062914 32003 net.cpp:91] Creating Layer inception_4b/5x5_reduce
I0714 20:34:49.062929 32003 net.cpp:425] inception_4b/5x5_reduce <- inception_4a/output_inception_4a/output_0_split_2
I0714 20:34:49.062952 32003 net.cpp:399] inception_4b/5x5_reduce -> inception_4b/5x5_reduce
I0714 20:34:49.065748 32007 net.cpp:141] Setting up inception_4b/3x3_reduce
I0714 20:34:49.065770 32007 net.cpp:148] Top shape: 10 112 14 14 (219520)
I0714 20:34:49.065776 32007 net.cpp:156] Memory required for data: 393003520
I0714 20:34:49.065788 32007 layer_factory.hpp:77] Creating layer inception_4b/relu_3x3_reduce
I0714 20:34:49.065798 32007 net.cpp:91] Creating Layer inception_4b/relu_3x3_reduce
I0714 20:34:49.065804 32007 net.cpp:425] inception_4b/relu_3x3_reduce <- inception_4b/3x3_reduce
I0714 20:34:49.065812 32007 net.cpp:386] inception_4b/relu_3x3_reduce -> inception_4b/3x3_reduce (in-place)
I0714 20:34:49.066119 32007 net.cpp:141] Setting up inception_4b/relu_3x3_reduce
I0714 20:34:49.066133 32007 net.cpp:148] Top shape: 10 112 14 14 (219520)
I0714 20:34:49.066138 32007 net.cpp:156] Memory required for data: 393881600
I0714 20:34:49.066144 32007 layer_factory.hpp:77] Creating layer inception_4b/3x3
I0714 20:34:49.066161 32007 net.cpp:91] Creating Layer inception_4b/3x3
I0714 20:34:49.066169 32007 net.cpp:425] inception_4b/3x3 <- inception_4b/3x3_reduce
I0714 20:34:49.066182 32007 net.cpp:399] inception_4b/3x3 -> inception_4b/3x3
I0714 20:34:49.070005 32003 net.cpp:141] Setting up inception_4b/5x5_reduce
I0714 20:34:49.070031 32003 net.cpp:148] Top shape: 10 24 14 14 (47040)
I0714 20:34:49.070042 32003 net.cpp:156] Memory required for data: 397582080
I0714 20:34:49.070063 32003 layer_factory.hpp:77] Creating layer inception_4b/relu_5x5_reduce
I0714 20:34:49.070082 32003 net.cpp:91] Creating Layer inception_4b/relu_5x5_reduce
I0714 20:34:49.070096 32003 net.cpp:425] inception_4b/relu_5x5_reduce <- inception_4b/5x5_reduce
I0714 20:34:49.070118 32003 net.cpp:386] inception_4b/relu_5x5_reduce -> inception_4b/5x5_reduce (in-place)
I0714 20:34:49.070605 32003 net.cpp:141] Setting up inception_4b/relu_5x5_reduce
I0714 20:34:49.070627 32003 net.cpp:148] Top shape: 10 24 14 14 (47040)
I0714 20:34:49.070638 32003 net.cpp:156] Memory required for data: 397770240
I0714 20:34:49.070652 32003 layer_factory.hpp:77] Creating layer inception_4b/5x5
I0714 20:34:49.070683 32003 net.cpp:91] Creating Layer inception_4b/5x5
I0714 20:34:49.070711 32003 net.cpp:425] inception_4b/5x5 <- inception_4b/5x5_reduce
I0714 20:34:49.070740 32003 net.cpp:399] inception_4b/5x5 -> inception_4b/5x5
I0714 20:34:49.077199 32003 net.cpp:141] Setting up inception_4b/5x5
I0714 20:34:49.077224 32003 net.cpp:148] Top shape: 10 64 14 14 (125440)
I0714 20:34:49.077234 32003 net.cpp:156] Memory required for data: 398272000
I0714 20:34:49.077255 32003 layer_factory.hpp:77] Creating layer inception_4b/relu_5x5
I0714 20:34:49.077281 32003 net.cpp:91] Creating Layer inception_4b/relu_5x5
I0714 20:34:49.077296 32003 net.cpp:425] inception_4b/relu_5x5 <- inception_4b/5x5
I0714 20:34:49.077312 32003 net.cpp:386] inception_4b/relu_5x5 -> inception_4b/5x5 (in-place)
I0714 20:34:49.077730 32007 net.cpp:141] Setting up inception_4b/3x3
I0714 20:34:49.077747 32007 net.cpp:148] Top shape: 10 224 14 14 (439040)
I0714 20:34:49.077752 32007 net.cpp:156] Memory required for data: 395637760
I0714 20:34:49.077764 32007 layer_factory.hpp:77] Creating layer inception_4b/relu_3x3
I0714 20:34:49.077776 32007 net.cpp:91] Creating Layer inception_4b/relu_3x3
I0714 20:34:49.077783 32007 net.cpp:425] inception_4b/relu_3x3 <- inception_4b/3x3
I0714 20:34:49.077791 32007 net.cpp:386] inception_4b/relu_3x3 -> inception_4b/3x3 (in-place)
I0714 20:34:49.077994 32003 net.cpp:141] Setting up inception_4b/relu_5x5
I0714 20:34:49.078016 32003 net.cpp:148] Top shape: 10 64 14 14 (125440)
I0714 20:34:49.078027 32003 net.cpp:156] Memory required for data: 398773760
I0714 20:34:49.078039 32003 layer_factory.hpp:77] Creating layer inception_4b/pool
I0714 20:34:49.078061 32003 net.cpp:91] Creating Layer inception_4b/pool
I0714 20:34:49.078074 32003 net.cpp:425] inception_4b/pool <- inception_4a/output_inception_4a/output_0_split_3
I0714 20:34:49.078099 32003 net.cpp:399] inception_4b/pool -> inception_4b/pool
I0714 20:34:49.078748 32003 net.cpp:141] Setting up inception_4b/pool
I0714 20:34:49.078770 32003 net.cpp:148] Top shape: 10 512 14 14 (1003520)
I0714 20:34:49.078775 32007 net.cpp:141] Setting up inception_4b/relu_3x3
I0714 20:34:49.078780 32003 net.cpp:156] Memory required for data: 402787840
I0714 20:34:49.078791 32007 net.cpp:148] Top shape: 10 224 14 14 (439040)
I0714 20:34:49.078794 32003 layer_factory.hpp:77] Creating layer inception_4b/pool_proj
I0714 20:34:49.078797 32007 net.cpp:156] Memory required for data: 397393920
I0714 20:34:49.078812 32007 layer_factory.hpp:77] Creating layer inception_4b/5x5_reduce
I0714 20:34:49.078841 32003 net.cpp:91] Creating Layer inception_4b/pool_proj
I0714 20:34:49.078850 32007 net.cpp:91] Creating Layer inception_4b/5x5_reduce
I0714 20:34:49.078860 32007 net.cpp:425] inception_4b/5x5_reduce <- inception_4a/output_inception_4a/output_0_split_2
I0714 20:34:49.078858 32003 net.cpp:425] inception_4b/pool_proj <- inception_4b/pool
I0714 20:34:49.078876 32007 net.cpp:399] inception_4b/5x5_reduce -> inception_4b/5x5_reduce
I0714 20:34:49.078894 32003 net.cpp:399] inception_4b/pool_proj -> inception_4b/pool_proj
I0714 20:34:49.083575 32007 net.cpp:141] Setting up inception_4b/5x5_reduce
I0714 20:34:49.083595 32007 net.cpp:148] Top shape: 10 24 14 14 (47040)
I0714 20:34:49.083600 32007 net.cpp:156] Memory required for data: 397582080
I0714 20:34:49.083612 32007 layer_factory.hpp:77] Creating layer inception_4b/relu_5x5_reduce
I0714 20:34:49.083621 32007 net.cpp:91] Creating Layer inception_4b/relu_5x5_reduce
I0714 20:34:49.083628 32007 net.cpp:425] inception_4b/relu_5x5_reduce <- inception_4b/5x5_reduce
I0714 20:34:49.083636 32007 net.cpp:386] inception_4b/relu_5x5_reduce -> inception_4b/5x5_reduce (in-place)
I0714 20:34:49.084081 32007 net.cpp:141] Setting up inception_4b/relu_5x5_reduce
I0714 20:34:49.084095 32007 net.cpp:148] Top shape: 10 24 14 14 (47040)
I0714 20:34:49.084100 32007 net.cpp:156] Memory required for data: 397770240
I0714 20:34:49.084106 32007 layer_factory.hpp:77] Creating layer inception_4b/5x5
I0714 20:34:49.084123 32007 net.cpp:91] Creating Layer inception_4b/5x5
I0714 20:34:49.084131 32007 net.cpp:425] inception_4b/5x5 <- inception_4b/5x5_reduce
I0714 20:34:49.084144 32007 net.cpp:399] inception_4b/5x5 -> inception_4b/5x5
I0714 20:34:49.084731 32003 net.cpp:141] Setting up inception_4b/pool_proj
I0714 20:34:49.084755 32003 net.cpp:148] Top shape: 10 64 14 14 (125440)
I0714 20:34:49.084767 32003 net.cpp:156] Memory required for data: 403289600
I0714 20:34:49.084789 32003 layer_factory.hpp:77] Creating layer inception_4b/relu_pool_proj
I0714 20:34:49.084806 32003 net.cpp:91] Creating Layer inception_4b/relu_pool_proj
I0714 20:34:49.084820 32003 net.cpp:425] inception_4b/relu_pool_proj <- inception_4b/pool_proj
I0714 20:34:49.084844 32003 net.cpp:386] inception_4b/relu_pool_proj -> inception_4b/pool_proj (in-place)
I0714 20:34:49.085914 32003 net.cpp:141] Setting up inception_4b/relu_pool_proj
I0714 20:34:49.085937 32003 net.cpp:148] Top shape: 10 64 14 14 (125440)
I0714 20:34:49.085947 32003 net.cpp:156] Memory required for data: 403791360
I0714 20:34:49.085958 32003 layer_factory.hpp:77] Creating layer inception_4b/output
I0714 20:34:49.085976 32003 net.cpp:91] Creating Layer inception_4b/output
I0714 20:34:49.085988 32003 net.cpp:425] inception_4b/output <- inception_4b/1x1
I0714 20:34:49.086001 32003 net.cpp:425] inception_4b/output <- inception_4b/3x3
I0714 20:34:49.086015 32003 net.cpp:425] inception_4b/output <- inception_4b/5x5
I0714 20:34:49.086029 32003 net.cpp:425] inception_4b/output <- inception_4b/pool_proj
I0714 20:34:49.086052 32003 net.cpp:399] inception_4b/output -> inception_4b/output
I0714 20:34:49.086400 32003 net.cpp:141] Setting up inception_4b/output
I0714 20:34:49.086421 32003 net.cpp:148] Top shape: 10 512 14 14 (1003520)
I0714 20:34:49.086431 32003 net.cpp:156] Memory required for data: 407805440
I0714 20:34:49.086441 32003 layer_factory.hpp:77] Creating layer inception_4b/output_inception_4b/output_0_split
I0714 20:34:49.086462 32003 net.cpp:91] Creating Layer inception_4b/output_inception_4b/output_0_split
I0714 20:34:49.086474 32003 net.cpp:425] inception_4b/output_inception_4b/output_0_split <- inception_4b/output
I0714 20:34:49.086499 32003 net.cpp:399] inception_4b/output_inception_4b/output_0_split -> inception_4b/output_inception_4b/output_0_split_0
I0714 20:34:49.086522 32003 net.cpp:399] inception_4b/output_inception_4b/output_0_split -> inception_4b/output_inception_4b/output_0_split_1
I0714 20:34:49.086544 32003 net.cpp:399] inception_4b/output_inception_4b/output_0_split -> inception_4b/output_inception_4b/output_0_split_2
I0714 20:34:49.086568 32003 net.cpp:399] inception_4b/output_inception_4b/output_0_split -> inception_4b/output_inception_4b/output_0_split_3
I0714 20:34:49.087332 32003 net.cpp:141] Setting up inception_4b/output_inception_4b/output_0_split
I0714 20:34:49.087358 32003 net.cpp:148] Top shape: 10 512 14 14 (1003520)
I0714 20:34:49.087373 32003 net.cpp:148] Top shape: 10 512 14 14 (1003520)
I0714 20:34:49.087386 32003 net.cpp:148] Top shape: 10 512 14 14 (1003520)
I0714 20:34:49.087399 32003 net.cpp:148] Top shape: 10 512 14 14 (1003520)
I0714 20:34:49.087407 32003 net.cpp:156] Memory required for data: 423861760
I0714 20:34:49.087419 32003 layer_factory.hpp:77] Creating layer inception_4c/1x1
I0714 20:34:49.087445 32003 net.cpp:91] Creating Layer inception_4c/1x1
I0714 20:34:49.087458 32003 net.cpp:425] inception_4c/1x1 <- inception_4b/output_inception_4b/output_0_split_0
I0714 20:34:49.087486 32003 net.cpp:399] inception_4c/1x1 -> inception_4c/1x1
I0714 20:34:49.091253 32007 net.cpp:141] Setting up inception_4b/5x5
I0714 20:34:49.091274 32007 net.cpp:148] Top shape: 10 64 14 14 (125440)
I0714 20:34:49.091279 32007 net.cpp:156] Memory required for data: 398272000
I0714 20:34:49.091289 32007 layer_factory.hpp:77] Creating layer inception_4b/relu_5x5
I0714 20:34:49.091303 32007 net.cpp:91] Creating Layer inception_4b/relu_5x5
I0714 20:34:49.091311 32007 net.cpp:425] inception_4b/relu_5x5 <- inception_4b/5x5
I0714 20:34:49.091320 32007 net.cpp:386] inception_4b/relu_5x5 -> inception_4b/5x5 (in-place)
I0714 20:34:49.091701 32007 net.cpp:141] Setting up inception_4b/relu_5x5
I0714 20:34:49.091717 32007 net.cpp:148] Top shape: 10 64 14 14 (125440)
I0714 20:34:49.091722 32007 net.cpp:156] Memory required for data: 398773760
I0714 20:34:49.091727 32007 layer_factory.hpp:77] Creating layer inception_4b/pool
I0714 20:34:49.091737 32007 net.cpp:91] Creating Layer inception_4b/pool
I0714 20:34:49.091744 32007 net.cpp:425] inception_4b/pool <- inception_4a/output_inception_4a/output_0_split_3
I0714 20:34:49.091758 32007 net.cpp:399] inception_4b/pool -> inception_4b/pool
I0714 20:34:49.092641 32007 net.cpp:141] Setting up inception_4b/pool
I0714 20:34:49.092658 32007 net.cpp:148] Top shape: 10 512 14 14 (1003520)
I0714 20:34:49.092663 32007 net.cpp:156] Memory required for data: 402787840
I0714 20:34:49.092669 32007 layer_factory.hpp:77] Creating layer inception_4b/pool_proj
I0714 20:34:49.092686 32007 net.cpp:91] Creating Layer inception_4b/pool_proj
I0714 20:34:49.092694 32007 net.cpp:425] inception_4b/pool_proj <- inception_4b/pool
I0714 20:34:49.092706 32007 net.cpp:399] inception_4b/pool_proj -> inception_4b/pool_proj
I0714 20:34:49.093631 32003 net.cpp:141] Setting up inception_4c/1x1
I0714 20:34:49.093654 32003 net.cpp:148] Top shape: 10 128 14 14 (250880)
I0714 20:34:49.093664 32003 net.cpp:156] Memory required for data: 424865280
I0714 20:34:49.093688 32003 layer_factory.hpp:77] Creating layer inception_4c/relu_1x1
I0714 20:34:49.093713 32003 net.cpp:91] Creating Layer inception_4c/relu_1x1
I0714 20:34:49.093727 32003 net.cpp:425] inception_4c/relu_1x1 <- inception_4c/1x1
I0714 20:34:49.093745 32003 net.cpp:386] inception_4c/relu_1x1 -> inception_4c/1x1 (in-place)
I0714 20:34:49.094455 32003 net.cpp:141] Setting up inception_4c/relu_1x1
I0714 20:34:49.094476 32003 net.cpp:148] Top shape: 10 128 14 14 (250880)
I0714 20:34:49.094487 32003 net.cpp:156] Memory required for data: 425868800
I0714 20:34:49.094498 32003 layer_factory.hpp:77] Creating layer inception_4c/3x3_reduce
I0714 20:34:49.094532 32003 net.cpp:91] Creating Layer inception_4c/3x3_reduce
…
I0714 20:34:49.224864 32003 net.cpp:141] Setting up inception_4e/relu_5x5_reduce
I0714 20:34:49.224877 32003 net.cpp:148] Top shape: 10 32 14 14 (62720)
I0714 20:34:49.224884 32003 net.cpp:156] Memory required for data: 506150400
I0714 20:34:49.224889 32003 layer_factory.hpp:77] Creating layer inception_4e/5x5
I0714 20:34:49.224908 32003 net.cpp:91] Creating Layer inception_4e/5x5
I0714 20:34:49.224916 32003 net.cpp:425] inception_4e/5x5 <- inception_4e/5x5_reduce
I0714 20:34:49.224931 32003 net.cpp:399] inception_4e/5x5 -> inception_4e/5x5
I0714 20:34:49.231180 32007 net.cpp:141] Setting up inception_4e/5x5
I0714 20:34:49.231209 32007 net.cpp:148] Top shape: 10 128 14 14 (250880)
I0714 20:34:49.231220 32007 net.cpp:156] Memory required for data: 507153920
I0714 20:34:49.231240 32007 layer_factory.hpp:77] Creating layer inception_4e/relu_5x5
I0714 20:34:49.231262 32007 net.cpp:91] Creating Layer inception_4e/relu_5x5
I0714 20:34:49.231276 32007 net.cpp:425] inception_4e/relu_5x5 <- inception_4e/5x5
I0714 20:34:49.231292 32007 net.cpp:386] inception_4e/relu_5x5 -> inception_4e/5x5 (in-place)
I0714 20:34:49.231824 32007 net.cpp:141] Setting up inception_4e/relu_5x5
I0714 20:34:49.231845 32007 net.cpp:148] Top shape: 10 128 14 14 (250880)
I0714 20:34:49.231856 32007 net.cpp:156] Memory required for data: 508157440
I0714 20:34:49.231868 32007 layer_factory.hpp:77] Creating layer inception_4e/pool
I0714 20:34:49.231892 32007 net.cpp:91] Creating Layer inception_4e/pool
I0714 20:34:49.231909 32007 net.cpp:425] inception_4e/pool <- inception_4d/output_inception_4d/output_0_split_3
I0714 20:34:49.231931 32007 net.cpp:399] inception_4e/pool -> inception_4e/pool
I0714 20:34:49.232225 32007 net.cpp:141] Setting up inception_4e/pool
I0714 20:34:49.232246 32007 net.cpp:148] Top shape: 10 528 14 14 (1034880)
I0714 20:34:49.232257 32007 net.cpp:156] Memory required for data: 512296960
I0714 20:34:49.232269 32007 layer_factory.hpp:77] Creating layer inception_4e/pool_proj
I0714 20:34:49.232302 32007 net.cpp:91] Creating Layer inception_4e/pool_proj
I0714 20:34:49.232318 32007 net.cpp:425] inception_4e/pool_proj <- inception_4e/pool
I0714 20:34:49.232339 32007 net.cpp:399] inception_4e/pool_proj -> inception_4e/pool_proj
I0714 20:34:49.232839 32003 net.cpp:141] Setting up inception_4e/5x5
I0714 20:34:49.232856 32003 net.cpp:148] Top shape: 10 128 14 14 (250880)
I0714 20:34:49.232862 32003 net.cpp:156] Memory required for data: 507153920
I0714 20:34:49.232872 32003 layer_factory.hpp:77] Creating layer inception_4e/relu_5x5
I0714 20:34:49.232885 32003 net.cpp:91] Creating Layer inception_4e/relu_5x5
I0714 20:34:49.232893 32003 net.cpp:425] inception_4e/relu_5x5 <- inception_4e/5x5
I0714 20:34:49.232903 32003 net.cpp:386] inception_4e/relu_5x5 -> inception_4e/5x5 (in-place)
I0714 20:34:49.233395 32003 net.cpp:141] Setting up inception_4e/relu_5x5
I0714 20:34:49.233409 32003 net.cpp:148] Top shape: 10 128 14 14 (250880)
I0714 20:34:49.233415 32003 net.cpp:156] Memory required for data: 508157440
I0714 20:34:49.233422 32003 layer_factory.hpp:77] Creating layer inception_4e/pool
I0714 20:34:49.233436 32003 net.cpp:91] Creating Layer inception_4e/pool
I0714 20:34:49.233444 32003 net.cpp:425] inception_4e/pool <- inception_4d/output_inception_4d/output_0_split_3
I0714 20:34:49.233456 32003 net.cpp:399] inception_4e/pool -> inception_4e/pool
I0714 20:34:49.233695 32003 net.cpp:141] Setting up inception_4e/pool
I0714 20:34:49.233710 32003 net.cpp:148] Top shape: 10 528 14 14 (1034880)
I0714 20:34:49.233713 32003 net.cpp:156] Memory required for data: 512296960
I0714 20:34:49.233721 32003 layer_factory.hpp:77] Creating layer inception_4e/pool_proj
I0714 20:34:49.233742 32003 net.cpp:91] Creating Layer inception_4e/pool_proj
I0714 20:34:49.233750 32003 net.cpp:425] inception_4e/pool_proj <- inception_4e/pool
I0714 20:34:49.233762 32003 net.cpp:399] inception_4e/pool_proj -> inception_4e/pool_proj
I0714 20:34:49.238098 32007 net.cpp:141] Setting up inception_4e/pool_proj
I0714 20:34:49.238121 32007 net.cpp:148] Top shape: 10 128 14 14 (250880)
I0714 20:34:49.238132 32007 net.cpp:156] Memory required for data: 513300480
I0714 20:34:49.238152 32007 layer_factory.hpp:77] Creating layer inception_4e/relu_pool_proj
I0714 20:34:49.238176 32007 net.cpp:91] Creating Layer inception_4e/relu_pool_proj
I0714 20:34:49.238193 32007 net.cpp:425] inception_4e/relu_pool_proj <- inception_4e/pool_proj
I0714 20:34:49.238209 32007 net.cpp:386] inception_4e/relu_pool_proj -> inception_4e/pool_proj (in-place)
I0714 20:34:49.239738 32003 net.cpp:141] Setting up inception_4e/pool_proj
I0714 20:34:49.239758 32003 net.cpp:148] Top shape: 10 128 14 14 (250880)
I0714 20:34:49.239764 32003 net.cpp:156] Memory required for data: 513300480
I0714 20:34:49.239775 32003 layer_factory.hpp:77] Creating layer inception_4e/relu_pool_proj
I0714 20:34:49.239799 32003 net.cpp:91] Creating Layer inception_4e/relu_pool_proj
I0714 20:34:49.239795 32007 net.cpp:141] Setting up inception_4e/relu_pool_proj
I0714 20:34:49.239814 32003 net.cpp:425] inception_4e/relu_pool_proj <- inception_4e/pool_proj
I0714 20:34:49.239830 32003 net.cpp:386] inception_4e/relu_pool_proj -> inception_4e/pool_proj (in-place)
I0714 20:34:49.239831 32007 net.cpp:148] Top shape: 10 128 14 14 (250880)
I0714 20:34:49.239845 32007 net.cpp:156] Memory required for data: 514304000
I0714 20:34:49.239856 32007 layer_factory.hpp:77] Creating layer inception_4e/output
I0714 20:34:49.239881 32007 net.cpp:91] Creating Layer inception_4e/output
I0714 20:34:49.239897 32007 net.cpp:425] inception_4e/output <- inception_4e/1x1
I0714 20:34:49.239912 32007 net.cpp:425] inception_4e/output <- inception_4e/3x3
I0714 20:34:49.239925 32007 net.cpp:425] inception_4e/output <- inception_4e/5x5
I0714 20:34:49.239938 32007 net.cpp:425] inception_4e/output <- inception_4e/pool_proj
I0714 20:34:49.239954 32007 net.cpp:399] inception_4e/output -> inception_4e/output
I0714 20:34:49.240641 32007 net.cpp:141] Setting up inception_4e/output
I0714 20:34:49.240664 32007 net.cpp:148] Top shape: 10 832 14 14 (1630720)
I0714 20:34:49.240674 32007 net.cpp:156] Memory required for data: 520826880
I0714 20:34:49.240685 32007 layer_factory.hpp:77] Creating layer pool4/3x3_s2
I0714 20:34:49.240715 32007 net.cpp:91] Creating Layer pool4/3x3_s2
I0714 20:34:49.240731 32007 net.cpp:425] pool4/3x3_s2 <- inception_4e/output
I0714 20:34:49.240757 32007 net.cpp:399] pool4/3x3_s2 -> pool4/3x3_s2
I0714 20:34:49.240763 32003 net.cpp:141] Setting up inception_4e/relu_pool_proj
I0714 20:34:49.240778 32003 net.cpp:148] Top shape: 10 128 14 14 (250880)
I0714 20:34:49.240783 32003 net.cpp:156] Memory required for data: 514304000
I0714 20:34:49.240789 32003 layer_factory.hpp:77] Creating layer inception_4e/output
I0714 20:34:49.240803 32003 net.cpp:91] Creating Layer inception_4e/output
I0714 20:34:49.240811 32003 net.cpp:425] inception_4e/output <- inception_4e/1x1
I0714 20:34:49.240820 32003 net.cpp:425] inception_4e/output <- inception_4e/3x3
I0714 20:34:49.240826 32003 net.cpp:425] inception_4e/output <- inception_4e/5x5
I0714 20:34:49.240833 32003 net.cpp:425] inception_4e/output <- inception_4e/pool_proj
I0714 20:34:49.240840 32003 net.cpp:399] inception_4e/output -> inception_4e/output
I0714 20:34:49.240991 32003 net.cpp:141] Setting up inception_4e/output
I0714 20:34:49.241004 32003 net.cpp:148] Top shape: 10 832 14 14 (1630720)
I0714 20:34:49.241009 32003 net.cpp:156] Memory required for data: 520826880
I0714 20:34:49.241015 32003 layer_factory.hpp:77] Creating layer pool4/3x3_s2
I0714 20:34:49.241030 32003 net.cpp:91] Creating Layer pool4/3x3_s2
I0714 20:34:49.241039 32003 net.cpp:425] pool4/3x3_s2 <- inception_4e/output
I0714 20:34:49.241050 32003 net.cpp:399] pool4/3x3_s2 -> pool4/3x3_s2
I0714 20:34:49.241046 32007 net.cpp:141] Setting up pool4/3x3_s2
I0714 20:34:49.241070 32007 net.cpp:148] Top shape: 10 832 7 7 (407680)
I0714 20:34:49.241080 32007 net.cpp:156] Memory required for data: 522457600
I0714 20:34:49.241091 32007 layer_factory.hpp:77] Creating layer pool4/3x3_s2_pool4/3x3_s2_0_split
I0714 20:34:49.241114 32007 net.cpp:91] Creating Layer pool4/3x3_s2_pool4/3x3_s2_0_split
I0714 20:34:49.241128 32007 net.cpp:425] pool4/3x3_s2_pool4/3x3_s2_0_split <- pool4/3x3_s2
I0714 20:34:49.241144 32007 net.cpp:399] pool4/3x3_s2_pool4/3x3_s2_0_split -> pool4/3x3_s2_pool4/3x3_s2_0_split_0
I0714 20:34:49.241169 32007 net.cpp:399] pool4/3x3_s2_pool4/3x3_s2_0_split -> pool4/3x3_s2_pool4/3x3_s2_0_split_1
I0714 20:34:49.241190 32007 net.cpp:399] pool4/3x3_s2_pool4/3x3_s2_0_split -> pool4/3x3_s2_pool4/3x3_s2_0_split_2
I0714 20:34:49.241194 32003 net.cpp:141] Setting up pool4/3x3_s2
I0714 20:34:49.241207 32003 net.cpp:148] Top shape: 10 832 7 7 (407680)
I0714 20:34:49.241210 32007 net.cpp:399] pool4/3x3_s2_pool4/3x3_s2_0_split -> pool4/3x3_s2_pool4/3x3_s2_0_split_3
I0714 20:34:49.241212 32003 net.cpp:156] Memory required for data: 522457600
I0714 20:34:49.241230 32003 layer_factory.hpp:77] Creating layer pool4/3x3_s2_pool4/3x3_s2_0_split
I0714 20:34:49.241245 32003 net.cpp:91] Creating Layer pool4/3x3_s2_pool4/3x3_s2_0_split
I0714 20:34:49.241252 32003 net.cpp:425] pool4/3x3_s2_pool4/3x3_s2_0_split <- pool4/3x3_s2
I0714 20:34:49.241261 32003 net.cpp:399] pool4/3x3_s2_pool4/3x3_s2_0_split -> pool4/3x3_s2_pool4/3x3_s2_0_split_0
I0714 20:34:49.241273 32003 net.cpp:399] pool4/3x3_s2_pool4/3x3_s2_0_split -> pool4/3x3_s2_pool4/3x3_s2_0_split_1
I0714 20:34:49.241283 32003 net.cpp:399] pool4/3x3_s2_pool4/3x3_s2_0_split -> pool4/3x3_s2_pool4/3x3_s2_0_split_2
I0714 20:34:49.241292 32003 net.cpp:399] pool4/3x3_s2_pool4/3x3_s2_0_split -> pool4/3x3_s2_pool4/3x3_s2_0_split_3
I0714 20:34:49.241763 32003 net.cpp:141] Setting up pool4/3x3_s2_pool4/3x3_s2_0_split
I0714 20:34:49.241777 32003 net.cpp:148] Top shape: 10 832 7 7 (407680)
I0714 20:34:49.241785 32003 net.cpp:148] Top shape: 10 832 7 7 (407680)
I0714 20:34:49.241791 32003 net.cpp:148] Top shape: 10 832 7 7 (407680)
I0714 20:34:49.241796 32003 net.cpp:148] Top shape: 10 832 7 7 (407680)
I0714 20:34:49.241801 32003 net.cpp:156] Memory required for data: 528980480
I0714 20:34:49.241806 32003 layer_factory.hpp:77] Creating layer inception_5a/1x1
I0714 20:34:49.241827 32003 net.cpp:91] Creating Layer inception_5a/1x1
I0714 20:34:49.241834 32003 net.cpp:425] inception_5a/1x1 <- pool4/3x3_s2_pool4/3x3_s2_0_split_0
I0714 20:34:49.241844 32003 net.cpp:399] inception_5a/1x1 -> inception_5a/1x1
I0714 20:34:49.241859 32007 net.cpp:141] Setting up pool4/3x3_s2_pool4/3x3_s2_0_split
I0714 20:34:49.241881 32007 net.cpp:148] Top shape: 10 832 7 7 (407680)
I0714 20:34:49.241894 32007 net.cpp:148] Top shape: 10 832 7 7 (407680)
I0714 20:34:49.241907 32007 net.cpp:148] Top shape: 10 832 7 7 (407680)
I0714 20:34:49.241920 32007 net.cpp:148] Top shape: 10 832 7 7 (407680)
I0714 20:34:49.241930 32007 net.cpp:156] Memory required for data: 528980480
I0714 20:34:49.241940 32007 layer_factory.hpp:77] Creating layer inception_5a/1x1
I0714 20:34:49.241971 32007 net.cpp:91] Creating Layer inception_5a/1x1
I0714 20:34:49.241987 32007 net.cpp:425] inception_5a/1x1 <- pool4/3x3_s2_pool4/3x3_s2_0_split_0
I0714 20:34:49.242007 32007 net.cpp:399] inception_5a/1x1 -> inception_5a/1x1
I0714 20:34:49.250171 32003 net.cpp:141] Setting up inception_5a/1x1
I0714 20:34:49.250192 32003 net.cpp:148] Top shape: 10 256 7 7 (125440)
I0714 20:34:49.250198 32003 net.cpp:156] Memory required for data: 529482240
I0714 20:34:49.250210 32003 layer_factory.hpp:77] Creating layer inception_5a/relu_1x1
I0714 20:34:49.250222 32003 net.cpp:91] Creating Layer inception_5a/relu_1x1
I0714 20:34:49.250231 32003 net.cpp:425] inception_5a/relu_1x1 <- inception_5a/1x1
I0714 20:34:49.250238 32003 net.cpp:386] inception_5a/relu_1x1 -> inception_5a/1x1 (in-place)
I0714 20:34:49.250648 32003 net.cpp:141] Setting up inception_5a/relu_1x1
I0714 20:34:49.250663 32003 net.cpp:148] Top shape: 10 256 7 7 (125440)
I0714 20:34:49.250668 32003 net.cpp:156] Memory required for data: 529984000
I0714 20:34:49.250674 32003 layer_factory.hpp:77] Creating layer inception_5a/3x3_reduce
I0714 20:34:49.250708 32003 net.cpp:91] Creating Layer inception_5a/3x3_reduce
I0714 20:34:49.250717 32003 net.cpp:425] inception_5a/3x3_reduce <- pool4/3x3_s2_pool4/3x3_s2_0_split_1
I0714 20:34:49.250730 32003 net.cpp:399] inception_5a/3x3_reduce -> inception_5a/3x3_reduce
I0714 20:34:49.254117 32007 net.cpp:141] Setting up inception_5a/1x1
I0714 20:34:49.254142 32007 net.cpp:148] Top shape: 10 256 7 7 (125440)
I0714 20:34:49.254153 32007 net.cpp:156] Memory required for data: 529482240
I0714 20:34:49.254170 32007 layer_factory.hpp:77] Creating layer inception_5a/relu_1x1
I0714 20:34:49.254194 32007 net.cpp:91] Creating Layer inception_5a/relu_1x1
I0714 20:34:49.254207 32007 net.cpp:425] inception_5a/relu_1x1 <- inception_5a/1x1
I0714 20:34:49.254223 32007 net.cpp:386] inception_5a/relu_1x1 -> inception_5a/1x1 (in-place)
I0714 20:34:49.254786 32007 net.cpp:141] Setting up inception_5a/relu_1x1
I0714 20:34:49.254811 32007 net.cpp:148] Top shape: 10 256 7 7 (125440)
I0714 20:34:49.254822 32007 net.cpp:156] Memory required for data: 529984000
I0714 20:34:49.254832 32007 layer_factory.hpp:77] Creating layer inception_5a/3x3_reduce
I0714 20:34:49.254866 32007 net.cpp:91] Creating Layer inception_5a/3x3_reduce
I0714 20:34:49.254883 32007 net.cpp:425] inception_5a/3x3_reduce <- pool4/3x3_s2_pool4/3x3_s2_0_split_1
I0714 20:34:49.254902 32007 net.cpp:399] inception_5a/3x3_reduce -> inception_5a/3x3_reduce
I0714 20:34:49.259492 32003 net.cpp:141] Setting up inception_5a/3x3_reduce
I0714 20:34:49.259513 32003 net.cpp:148] Top shape: 10 160 7 7 (78400)
I0714 20:34:49.259519 32003 net.cpp:156] Memory required for data: 530297600
I0714 20:34:49.259531 32003 layer_factory.hpp:77] Creating layer inception_5a/relu_3x3_reduce
I0714 20:34:49.259542 32003 net.cpp:91] Creating Layer inception_5a/relu_3x3_reduce
I0714 20:34:49.259549 32003 net.cpp:425] inception_5a/relu_3x3_reduce <- inception_5a/3x3_reduce
I0714 20:34:49.259562 32003 net.cpp:386] inception_5a/relu_3x3_reduce -> inception_5a/3x3_reduce (in-place)
I0714 20:34:49.259862 32003 net.cpp:141] Setting up inception_5a/relu_3x3_reduce
I0714 20:34:49.259878 32003 net.cpp:148] Top shape: 10 160 7 7 (78400)
I0714 20:34:49.259884 32003 net.cpp:156] Memory required for data: 530611200
I0714 20:34:49.259891 32003 layer_factory.hpp:77] Creating layer inception_5a/3x3
I0714 20:34:49.259908 32003 net.cpp:91] Creating Layer inception_5a/3x3
I0714 20:34:49.259917 32003 net.cpp:425] inception_5a/3x3 <- inception_5a/3x3_reduce
I0714 20:34:49.259927 32003 net.cpp:399] inception_5a/3x3 -> inception_5a/3x3
I0714 20:34:49.265313 32007 net.cpp:141] Setting up inception_5a/3x3_reduce
I0714 20:34:49.265339 32007 net.cpp:148] Top shape: 10 160 7 7 (78400)
I0714 20:34:49.265352 32007 net.cpp:156] Memory required for data: 530297600
I0714 20:34:49.265372 32007 layer_factory.hpp:77] Creating layer inception_5a/relu_3x3_reduce
I0714 20:34:49.265388 32007 net.cpp:91] Creating Layer inception_5a/relu_3x3_reduce
I0714 20:34:49.265400 32007 net.cpp:425] inception_5a/relu_3x3_reduce <- inception_5a/3x3_reduce
I0714 20:34:49.265422 32007 net.cpp:386] inception_5a/relu_3x3_reduce -> inception_5a/3x3_reduce (in-place)
I0714 20:34:49.265950 32007 net.cpp:141] Setting up inception_5a/relu_3x3_reduce
I0714 20:34:49.265983 32007 net.cpp:148] Top shape: 10 160 7 7 (78400)
I0714 20:34:49.265995 32007 net.cpp:156] Memory required for data: 530611200
I0714 20:34:49.266006 32007 layer_factory.hpp:77] Creating layer inception_5a/3x3
I0714 20:34:49.266036 32007 net.cpp:91] Creating Layer inception_5a/3x3
I0714 20:34:49.266053 32007 net.cpp:425] inception_5a/3x3 <- inception_5a/3x3_reduce
I0714 20:34:49.266073 32007 net.cpp:399] inception_5a/3x3 -> inception_5a/3x3
I0714 20:34:49.271987 32003 net.cpp:141] Setting up inception_5a/3x3
I0714 20:34:49.272017 32003 net.cpp:148] Top shape: 10 320 7 7 (156800)
I0714 20:34:49.272022 32003 net.cpp:156] Memory required for data: 531238400
I0714 20:34:49.272038 32003 layer_factory.hpp:77] Creating layer inception_5a/relu_3x3
I0714 20:34:49.272050 32003 net.cpp:91] Creating Layer inception_5a/relu_3x3
I0714 20:34:49.272058 32003 net.cpp:425] inception_5a/relu_3x3 <- inception_5a/3x3
I0714 20:34:49.272068 32003 net.cpp:386] inception_5a/relu_3x3 -> inception_5a/3x3 (in-place)
I0714 20:34:49.272934 32003 net.cpp:141] Setting up inception_5a/relu_3x3
I0714 20:34:49.272953 32003 net.cpp:148] Top shape: 10 320 7 7 (156800)
I0714 20:34:49.272958 32003 net.cpp:156] Memory required for data: 531865600
I0714 20:34:49.272964 32003 layer_factory.hpp:77] Creating layer inception_5a/5x5_reduce
I0714 20:34:49.272985 32003 net.cpp:91] Creating Layer inception_5a/5x5_reduce
I0714 20:34:49.272994 32003 net.cpp:425] inception_5a/5x5_reduce <- pool4/3x3_s2_pool4/3x3_s2_0_split_2
I0714 20:34:49.273008 32003 net.cpp:399] inception_5a/5x5_reduce -> inception_5a/5x5_reduce
I0714 20:34:49.277842 32003 net.cpp:141] Setting up inception_5a/5x5_reduce
I0714 20:34:49.277865 32003 net.cpp:148] Top shape: 10 32 7 7 (15680)
I0714 20:34:49.277871 32003 net.cpp:156] Memory required for data: 531928320
I0714 20:34:49.277884 32003 layer_factory.hpp:77] Creating layer inception_5a/relu_5x5_reduce
I0714 20:34:49.277899 32003 net.cpp:91] Creating Layer inception_5a/relu_5x5_reduce
I0714 20:34:49.277907 32003 net.cpp:425] inception_5a/relu_5x5_reduce <- inception_5a/5x5_reduce
I0714 20:34:49.277916 32003 net.cpp:386] inception_5a/relu_5x5_reduce -> inception_5a/5x5_reduce (in-place)
I0714 20:34:49.278389 32003 net.cpp:141] Setting up inception_5a/relu_5x5_reduce
I0714 20:34:49.278404 32003 net.cpp:148] Top shape: 10 32 7 7 (15680)
I0714 20:34:49.278409 32003 net.cpp:156] Memory required for data: 531991040
I0714 20:34:49.278415 32003 layer_factory.hpp:77] Creating layer inception_5a/5x5
I0714 20:34:49.278435 32003 net.cpp:91] Creating Layer inception_5a/5x5
I0714 20:34:49.278444 32003 net.cpp:425] inception_5a/5x5 <- inception_5a/5x5_reduce
I0714 20:34:49.278456 32003 net.cpp:399] inception_5a/5x5 -> inception_5a/5x5
I0714 20:34:49.279783 32007 net.cpp:141] Setting up inception_5a/3x3
I0714 20:34:49.279808 32007 net.cpp:148] Top shape: 10 320 7 7 (156800)
I0714 20:34:49.279819 32007 net.cpp:156] Memory required for data: 531238400
I0714 20:34:49.279844 32007 layer_factory.hpp:77] Creating layer inception_5a/relu_3x3
I0714 20:34:49.279865 32007 net.cpp:91] Creating Layer inception_5a/relu_3x3
I0714 20:34:49.279877 32007 net.cpp:425] inception_5a/relu_3x3 <- inception_5a/3x3
I0714 20:34:49.279897 32007 net.cpp:386] inception_5a/relu_3x3 -> inception_5a/3x3 (in-place)
I0714 20:34:49.281101 32007 net.cpp:141] Setting up inception_5a/relu_3x3
I0714 20:34:49.281123 32007 net.cpp:148] Top shape: 10 320 7 7 (156800)
I0714 20:34:49.281134 32007 net.cpp:156] Memory required for data: 531865600
I0714 20:34:49.281146 32007 layer_factory.hpp:77] Creating layer inception_5a/5x5_reduce
I0714 20:34:49.281173 32007 net.cpp:91] Creating Layer inception_5a/5x5_reduce
I0714 20:34:49.281189 32007 net.cpp:425] inception_5a/5x5_reduce <- pool4/3x3_s2_pool4/3x3_s2_0_split_2
I0714 20:34:49.281219 32007 net.cpp:399] inception_5a/5x5_reduce -> inception_5a/5x5_reduce
I0714 20:34:49.284318 32003 net.cpp:141] Setting up inception_5a/5x5
I0714 20:34:49.284338 32003 net.cpp:148] Top shape: 10 128 7 7 (62720)
I0714 20:34:49.284345 32003 net.cpp:156] Memory required for data: 532241920
I0714 20:34:49.284355 32003 layer_factory.hpp:77] Creating layer inception_5a/relu_5x5
I0714 20:34:49.284399 32003 net.cpp:91] Creating Layer inception_5a/relu_5x5
I0714 20:34:49.284409 32003 net.cpp:425] inception_5a/relu_5x5 <- inception_5a/5x5
I0714 20:34:49.284418 32003 net.cpp:386] inception_5a/relu_5x5 -> inception_5a/5x5 (in-place)
I0714 20:34:49.284767 32003 net.cpp:141] Setting up inception_5a/relu_5x5
I0714 20:34:49.284781 32003 net.cpp:148] Top shape: 10 128 7 7 (62720)
I0714 20:34:49.284787 32003 net.cpp:156] Memory required for data: 532492800
I0714 20:34:49.284795 32003 layer_factory.hpp:77] Creating layer inception_5a/pool
I0714 20:34:49.284806 32003 net.cpp:91] Creating Layer inception_5a/pool
I0714 20:34:49.284812 32003 net.cpp:425] inception_5a/pool <- pool4/3x3_s2_pool4/3x3_s2_0_split_3
I0714 20:34:49.284826 32003 net.cpp:399] inception_5a/pool -> inception_5a/pool
I0714 20:34:49.285517 32003 net.cpp:141] Setting up inception_5a/pool
I0714 20:34:49.285533 32003 net.cpp:148] Top shape: 10 832 7 7 (407680)
I0714 20:34:49.285538 32003 net.cpp:156] Memory required for data: 534123520
I0714 20:34:49.285544 32003 layer_factory.hpp:77] Creating layer inception_5a/pool_proj
I0714 20:34:49.285564 32003 net.cpp:91] Creating Layer inception_5a/pool_proj
I0714 20:34:49.285573 32003 net.cpp:425] inception_5a/pool_proj <- inception_5a/pool
I0714 20:34:49.285586 32003 net.cpp:399] inception_5a/pool_proj -> inception_5a/pool_proj
I0714 20:34:49.289403 32007 net.cpp:141] Setting up inception_5a/5x5_reduce
I0714 20:34:49.289428 32007 net.cpp:148] Top shape: 10 32 7 7 (15680)
I0714 20:34:49.289439 32007 net.cpp:156] Memory required for data: 531928320
I0714 20:34:49.289458 32007 layer_factory.hpp:77] Creating layer inception_5a/relu_5x5_reduce
I0714 20:34:49.289484 32007 net.cpp:91] Creating Layer inception_5a/relu_5x5_reduce
I0714 20:34:49.289499 32007 net.cpp:425] inception_5a/relu_5x5_reduce <- inception_5a/5x5_reduce
I0714 20:34:49.289515 32007 net.cpp:386] inception_5a/relu_5x5_reduce -> inception_5a/5x5_reduce (in-place)
I0714 20:34:49.290084 32007 net.cpp:141] Setting up inception_5a/relu_5x5_reduce
I0714 20:34:49.290105 32007 net.cpp:148] Top shape: 10 32 7 7 (15680)
I0714 20:34:49.290115 32007 net.cpp:156] Memory required for data: 531991040
I0714 20:34:49.290127 32007 layer_factory.hpp:77] Creating layer inception_5a/5x5
I0714 20:34:49.290168 32007 net.cpp:91] Creating Layer inception_5a/5x5
I0714 20:34:49.290184 32007 net.cpp:425] inception_5a/5x5 <- inception_5a/5x5_reduce
I0714 20:34:49.290210 32007 net.cpp:399] inception_5a/5x5 -> inception_5a/5x5
I0714 20:34:49.293076 32003 net.cpp:141] Setting up inception_5a/pool_proj
I0714 20:34:49.293097 32003 net.cpp:148] Top shape: 10 128 7 7 (62720)
I0714 20:34:49.293102 32003 net.cpp:156] Memory required for data: 534374400
I0714 20:34:49.293117 32003 layer_factory.hpp:77] Creating layer inception_5a/relu_pool_proj
I0714 20:34:49.293130 32003 net.cpp:91] Creating Layer inception_5a/relu_pool_proj
I0714 20:34:49.293138 32003 net.cpp:425] inception_5a/relu_pool_proj <- inception_5a/pool_proj
I0714 20:34:49.293146 32003 net.cpp:386] inception_5a/relu_pool_proj -> inception_5a/pool_proj (in-place)
I0714 20:34:49.294145 32003 net.cpp:141] Setting up inception_5a/relu_pool_proj
I0714 20:34:49.294163 32003 net.cpp:148] Top shape: 10 128 7 7 (62720)
I0714 20:34:49.294169 32003 net.cpp:156] Memory required for data: 534625280
I0714 20:34:49.294176 32003 layer_factory.hpp:77] Creating layer inception_5a/output
I0714 20:34:49.294186 32003 net.cpp:91] Creating Layer inception_5a/output
I0714 20:34:49.294193 32003 net.cpp:425] inception_5a/output <- inception_5a/1x1
I0714 20:34:49.294201 32003 net.cpp:425] inception_5a/output <- inception_5a/3x3
I0714 20:34:49.294208 32003 net.cpp:425] inception_5a/output <- inception_5a/5x5
I0714 20:34:49.294214 32003 net.cpp:425] inception_5a/output <- inception_5a/pool_proj
I0714 20:34:49.294221 32003 net.cpp:399] inception_5a/output -> inception_5a/output
I0714 20:34:49.295228 32003 net.cpp:141] Setting up inception_5a/output
I0714 20:34:49.295243 32003 net.cpp:148] Top shape: 10 832 7 7 (407680)
I0714 20:34:49.295248 32003 net.cpp:156] Memory required for data: 536256000
I0714 20:34:49.295254 32003 layer_factory.hpp:77] Creating layer inception_5a/output_inception_5a/output_0_split
I0714 20:34:49.295266 32003 net.cpp:91] Creating Layer inception_5a/output_inception_5a/output_0_split
I0714 20:34:49.295272 32003 net.cpp:425] inception_5a/output_inception_5a/output_0_split <- inception_5a/output
I0714 20:34:49.295280 32003 net.cpp:399] inception_5a/output_inception_5a/output_0_split -> inception_5a/output_inception_5a/output_0_split_0
I0714 20:34:49.295296 32003 net.cpp:399] inception_5a/output_inception_5a/output_0_split -> inception_5a/output_inception_5a/output_0_split_1
I0714 20:34:49.295307 32003 net.cpp:399] inception_5a/output_inception_5a/output_0_split -> inception_5a/output_inception_5a/output_0_split_2
I0714 20:34:49.295317 32003 net.cpp:399] inception_5a/output_inception_5a/output_0_split -> inception_5a/output_inception_5a/output_0_split_3
I0714 20:34:49.295735 32003 net.cpp:141] Setting up inception_5a/output_inception_5a/output_0_split
I0714 20:34:49.295748 32003 net.cpp:148] Top shape: 10 832 7 7 (407680)
I0714 20:34:49.295755 32003 net.cpp:148] Top shape: 10 832 7 7 (407680)
I0714 20:34:49.295761 32003 net.cpp:148] Top shape: 10 832 7 7 (407680)
I0714 20:34:49.295768 32003 net.cpp:148] Top shape: 10 832 7 7 (407680)
I0714 20:34:49.295773 32003 net.cpp:156] Memory required for data: 542778880
I0714 20:34:49.295778 32003 layer_factory.hpp:77] Creating layer inception_5b/1x1
I0714 20:34:49.295796 32003 net.cpp:91] Creating Layer inception_5b/1x1
I0714 20:34:49.295804 32003 net.cpp:425] inception_5b/1x1 <- inception_5a/output_inception_5a/output_0_split_0
I0714 20:34:49.295825 32003 net.cpp:399] inception_5b/1x1 -> inception_5b/1x1
I0714 20:34:49.299676 32007 net.cpp:141] Setting up inception_5a/5x5
I0714 20:34:49.299701 32007 net.cpp:148] Top shape: 10 128 7 7 (62720)
I0714 20:34:49.299712 32007 net.cpp:156] Memory required for data: 532241920
I0714 20:34:49.299731 32007 layer_factory.hpp:77] Creating layer inception_5a/relu_5x5
I0714 20:34:49.299788 32007 net.cpp:91] Creating Layer inception_5a/relu_5x5
I0714 20:34:49.299809 32007 net.cpp:425] inception_5a/relu_5x5 <- inception_5a/5x5
I0714 20:34:49.299828 32007 net.cpp:386] inception_5a/relu_5x5 -> inception_5a/5x5 (in-place)
I0714 20:34:49.300359 32007 net.cpp:141] Setting up inception_5a/relu_5x5
I0714 20:34:49.300381 32007 net.cpp:148] Top shape: 10 128 7 7 (62720)
I0714 20:34:49.300392 32007 net.cpp:156] Memory required for data: 532492800
I0714 20:34:49.300405 32007 layer_factory.hpp:77] Creating layer inception_5a/pool
I0714 20:34:49.300421 32007 net.cpp:91] Creating Layer inception_5a/pool
I0714 20:34:49.300437 32007 net.cpp:425] inception_5a/pool <- pool4/3x3_s2_pool4/3x3_s2_0_split_3
I0714 20:34:49.300465 32007 net.cpp:399] inception_5a/pool -> inception_5a/pool
I0714 20:34:49.300705 32007 net.cpp:141] Setting up inception_5a/pool
I0714 20:34:49.300726 32007 net.cpp:148] Top shape: 10 832 7 7 (407680)
I0714 20:34:49.300736 32007 net.cpp:156] Memory required for data: 534123520
I0714 20:34:49.300747 32007 layer_factory.hpp:77] Creating layer inception_5a/pool_proj
I0714 20:34:49.300778 32007 net.cpp:91] Creating Layer inception_5a/pool_proj
I0714 20:34:49.300794 32007 net.cpp:425] inception_5a/pool_proj <- inception_5a/pool
I0714 20:34:49.300819 32007 net.cpp:399] inception_5a/pool_proj -> inception_5a/pool_proj
I0714 20:34:49.307199 32003 net.cpp:141] Setting up inception_5b/1x1
I0714 20:34:49.307220 32003 net.cpp:148] Top shape: 10 384 7 7 (188160)
I0714 20:34:49.307227 32003 net.cpp:156] Memory required for data: 543531520
I0714 20:34:49.307238 32003 layer_factory.hpp:77] Creating layer inception_5b/relu_1x1
I0714 20:34:49.307248 32003 net.cpp:91] Creating Layer inception_5b/relu_1x1
I0714 20:34:49.307255 32003 net.cpp:425] inception_5b/relu_1x1 <- inception_5b/1x1
I0714 20:34:49.307270 32003 net.cpp:386] inception_5b/relu_1x1 -> inception_5b/1x1 (in-place)
I0714 20:34:49.307718 32003 net.cpp:141] Setting up inception_5b/relu_1x1
I0714 20:34:49.307732 32003 net.cpp:148] Top shape: 10 384 7 7 (188160)
I0714 20:34:49.307737 32003 net.cpp:156] Memory required for data: 544284160
I0714 20:34:49.307745 32003 layer_factory.hpp:77] Creating layer inception_5b/3x3_reduce
I0714 20:34:49.307765 32003 net.cpp:91] Creating Layer inception_5b/3x3_reduce
I0714 20:34:49.307772 32003 net.cpp:425] inception_5b/3x3_reduce <- inception_5a/output_inception_5a/output_0_split_1
I0714 20:34:49.307783 32003 net.cpp:399] inception_5b/3x3_reduce -> inception_5b/3x3_reduce
I0714 20:34:49.308465 32007 net.cpp:141] Setting up inception_5a/pool_proj
I0714 20:34:49.308487 32007 net.cpp:148] Top shape: 10 128 7 7 (62720)
I0714 20:34:49.308497 32007 net.cpp:156] Memory required for data: 534374400
I0714 20:34:49.308516 32007 layer_factory.hpp:77] Creating layer inception_5a/relu_pool_proj
I0714 20:34:49.308538 32007 net.cpp:91] Creating Layer inception_5a/relu_pool_proj
I0714 20:34:49.308552 32007 net.cpp:425] inception_5a/relu_pool_proj <- inception_5a/pool_proj
I0714 20:34:49.308569 32007 net.cpp:386] inception_5a/relu_pool_proj -> inception_5a/pool_proj (in-place)
I0714 20:34:49.309669 32007 net.cpp:141] Setting up inception_5a/relu_pool_proj
I0714 20:34:49.309695 32007 net.cpp:148] Top shape: 10 128 7 7 (62720)
I0714 20:34:49.309705 32007 net.cpp:156] Memory required for data: 534625280
I0714 20:34:49.309716 32007 layer_factory.hpp:77] Creating layer inception_5a/output
I0714 20:34:49.309732 32007 net.cpp:91] Creating Layer inception_5a/output
I0714 20:34:49.309746 32007 net.cpp:425] inception_5a/output <- inception_5a/1x1
I0714 20:34:49.309759 32007 net.cpp:425] inception_5a/output <- inception_5a/3x3
I0714 20:34:49.309772 32007 net.cpp:425] inception_5a/output <- inception_5a/5x5
I0714 20:34:49.309783 32007 net.cpp:425] inception_5a/output <- inception_5a/pool_proj
I0714 20:34:49.309798 32007 net.cpp:399] inception_5a/output -> inception_5a/output
I0714 20:34:49.310130 32007 net.cpp:141] Setting up inception_5a/output
I0714 20:34:49.310151 32007 net.cpp:148] Top shape: 10 832 7 7 (407680)
I0714 20:34:49.310163 32007 net.cpp:156] Memory required for data: 536256000
I0714 20:34:49.310173 32007 layer_factory.hpp:77] Creating layer inception_5a/output_inception_5a/output_0_split
I0714 20:34:49.310189 32007 net.cpp:91] Creating Layer inception_5a/output_inception_5a/output_0_split
I0714 20:34:49.310202 32007 net.cpp:425] inception_5a/output_inception_5a/output_0_split <- inception_5a/output
I0714 20:34:49.310217 32007 net.cpp:399] inception_5a/output_inception_5a/output_0_split -> inception_5a/output_inception_5a/output_0_split_0
I0714 20:34:49.310245 32007 net.cpp:399] inception_5a/output_inception_5a/output_0_split -> inception_5a/output_inception_5a/output_0_split_1
I0714 20:34:49.310268 32007 net.cpp:399] inception_5a/output_inception_5a/output_0_split -> inception_5a/output_inception_5a/output_0_split_2
I0714 20:34:49.310289 32007 net.cpp:399] inception_5a/output_inception_5a/output_0_split -> inception_5a/output_inception_5a/output_0_split_3
I0714 20:34:49.311069 32007 net.cpp:141] Setting up inception_5a/output_inception_5a/output_0_split
I0714 20:34:49.311089 32007 net.cpp:148] Top shape: 10 832 7 7 (407680)
I0714 20:34:49.311103 32007 net.cpp:148] Top shape: 10 832 7 7 (407680)
I0714 20:34:49.311116 32007 net.cpp:148] Top shape: 10 832 7 7 (407680)
I0714 20:34:49.311130 32007 net.cpp:148] Top shape: 10 832 7 7 (407680)
I0714 20:34:49.311138 32007 net.cpp:156] Memory required for data: 542778880
I0714 20:34:49.311148 32007 layer_factory.hpp:77] Creating layer inception_5b/1x1
I0714 20:34:49.311177 32007 net.cpp:91] Creating Layer inception_5b/1x1
I0714 20:34:49.311192 32007 net.cpp:425] inception_5b/1x1 <- inception_5a/output_inception_5a/output_0_split_0
I0714 20:34:49.311218 32007 net.cpp:399] inception_5b/1x1 -> inception_5b/1x1
I0714 20:34:49.316540 32003 net.cpp:141] Setting up inception_5b/3x3_reduce
I0714 20:34:49.316570 32003 net.cpp:148] Top shape: 10 192 7 7 (94080)
I0714 20:34:49.316577 32003 net.cpp:156] Memory required for data: 544660480
I0714 20:34:49.316588 32003 layer_factory.hpp:77] Creating layer inception_5b/relu_3x3_reduce
I0714 20:34:49.316601 32003 net.cpp:91] Creating Layer inception_5b/relu_3x3_reduce
I0714 20:34:49.316607 32003 net.cpp:425] inception_5b/relu_3x3_reduce <- inception_5b/3x3_reduce
I0714 20:34:49.316617 32003 net.cpp:386] inception_5b/relu_3x3_reduce -> inception_5b/3x3_reduce (in-place)
I0714 20:34:49.317106 32003 net.cpp:141] Setting up inception_5b/relu_3x3_reduce
I0714 20:34:49.317119 32003 net.cpp:148] Top shape: 10 192 7 7 (94080)
I0714 20:34:49.317126 32003 net.cpp:156] Memory required for data: 545036800
I0714 20:34:49.317132 32003 layer_factory.hpp:77] Creating layer inception_5b/3x3
I0714 20:34:49.317152 32003 net.cpp:91] Creating Layer inception_5b/3x3
I0714 20:34:49.317159 32003 net.cpp:425] inception_5b/3x3 <- inception_5b/3x3_reduce
I0714 20:34:49.317174 32003 net.cpp:399] inception_5b/3x3 -> inception_5b/3x3
I0714 20:34:49.322592 32007 net.cpp:141] Setting up inception_5b/1x1
I0714 20:34:49.322618 32007 net.cpp:148] Top shape: 10 384 7 7 (188160)
I0714 20:34:49.322628 32007 net.cpp:156] Memory required for data: 543531520
I0714 20:34:49.322648 32007 layer_factory.hpp:77] Creating layer inception_5b/relu_1x1
I0714 20:34:49.322666 32007 net.cpp:91] Creating Layer inception_5b/relu_1x1
I0714 20:34:49.322679 32007 net.cpp:425] inception_5b/relu_1x1 <- inception_5b/1x1
I0714 20:34:49.322715 32007 net.cpp:386] inception_5b/relu_1x1 -> inception_5b/1x1 (in-place)
I0714 20:34:49.323247 32007 net.cpp:141] Setting up inception_5b/relu_1x1
I0714 20:34:49.323269 32007 net.cpp:148] Top shape: 10 384 7 7 (188160)
I0714 20:34:49.323281 32007 net.cpp:156] Memory required for data: 544284160
I0714 20:34:49.323293 32007 layer_factory.hpp:77] Creating layer inception_5b/3x3_reduce
I0714 20:34:49.323323 32007 net.cpp:91] Creating Layer inception_5b/3x3_reduce
I0714 20:34:49.323338 32007 net.cpp:425] inception_5b/3x3_reduce <- inception_5a/output_inception_5a/output_0_split_1
I0714 20:34:49.323359 32007 net.cpp:399] inception_5b/3x3_reduce -> inception_5b/3x3_reduce
I0714 20:34:49.330736 32007 net.cpp:141] Setting up inception_5b/3x3_reduce
I0714 20:34:49.330770 32007 net.cpp:148] Top shape: 10 192 7 7 (94080)
I0714 20:34:49.330781 32007 net.cpp:156] Memory required for data: 544660480
I0714 20:34:49.330801 32007 layer_factory.hpp:77] Creating layer inception_5b/relu_3x3_reduce
I0714 20:34:49.330818 32007 net.cpp:91] Creating Layer inception_5b/relu_3x3_reduce
I0714 20:34:49.330832 32007 net.cpp:425] inception_5b/relu_3x3_reduce <- inception_5b/3x3_reduce
I0714 20:34:49.330847 32007 net.cpp:386] inception_5b/relu_3x3_reduce -> inception_5b/3x3_reduce (in-place)
I0714 20:34:49.331626 32007 net.cpp:141] Setting up inception_5b/relu_3x3_reduce
I0714 20:34:49.331645 32003 net.cpp:141] Setting up inception_5b/3x3
I0714 20:34:49.331647 32007 net.cpp:148] Top shape: 10 192 7 7 (94080)
I0714 20:34:49.331665 32003 net.cpp:148] Top shape: 10 384 7 7 (188160)
I0714 20:34:49.331670 32003 net.cpp:156] Memory required for data: 545789440
I0714 20:34:49.331670 32007 net.cpp:156] Memory required for data: 545036800
I0714 20:34:49.331684 32003 layer_factory.hpp:77] Creating layer inception_5b/relu_3x3
I0714 20:34:49.331684 32007 layer_factory.hpp:77] Creating layer inception_5b/3x3
I0714 20:34:49.331699 32003 net.cpp:91] Creating Layer inception_5b/relu_3x3
I0714 20:34:49.331708 32003 net.cpp:425] inception_5b/relu_3x3 <- inception_5b/3x3
I0714 20:34:49.331717 32003 net.cpp:386] inception_5b/relu_3x3 -> inception_5b/3x3 (in-place)
I0714 20:34:49.331714 32007 net.cpp:91] Creating Layer inception_5b/3x3
I0714 20:34:49.331730 32007 net.cpp:425] inception_5b/3x3 <- inception_5b/3x3_reduce
I0714 20:34:49.331758 32007 net.cpp:399] inception_5b/3x3 -> inception_5b/3x3
I0714 20:34:49.332747 32003 net.cpp:141] Setting up inception_5b/relu_3x3
I0714 20:34:49.332765 32003 net.cpp:148] Top shape: 10 384 7 7 (188160)
I0714 20:34:49.332772 32003 net.cpp:156] Memory required for data: 546542080
I0714 20:34:49.332779 32003 layer_factory.hpp:77] Creating layer inception_5b/5x5_reduce
I0714 20:34:49.332801 32003 net.cpp:91] Creating Layer inception_5b/5x5_reduce
I0714 20:34:49.332810 32003 net.cpp:425] inception_5b/5x5_reduce <- inception_5a/output_inception_5a/output_0_split_2
I0714 20:34:49.332821 32003 net.cpp:399] inception_5b/5x5_reduce -> inception_5b/5x5_reduce
I0714 20:34:49.339473 32003 net.cpp:141] Setting up inception_5b/5x5_reduce
I0714 20:34:49.339495 32003 net.cpp:148] Top shape: 10 48 7 7 (23520)
I0714 20:34:49.339501 32003 net.cpp:156] Memory required for data: 546636160
I0714 20:34:49.339512 32003 layer_factory.hpp:77] Creating layer inception_5b/relu_5x5_reduce
I0714 20:34:49.339524 32003 net.cpp:91] Creating Layer inception_5b/relu_5x5_reduce
I0714 20:34:49.339530 32003 net.cpp:425] inception_5b/relu_5x5_reduce <- inception_5b/5x5_reduce
I0714 20:34:49.339543 32003 net.cpp:386] inception_5b/relu_5x5_reduce -> inception_5b/5x5_reduce (in-place)
I0714 20:34:49.339848 32003 net.cpp:141] Setting up inception_5b/relu_5x5_reduce
I0714 20:34:49.339861 32003 net.cpp:148] Top shape: 10 48 7 7 (23520)
I0714 20:34:49.339866 32003 net.cpp:156] Memory required for data: 546730240
I0714 20:34:49.339872 32003 layer_factory.hpp:77] Creating layer inception_5b/5x5
I0714 20:34:49.339890 32003 net.cpp:91] Creating Layer inception_5b/5x5
I0714 20:34:49.339898 32003 net.cpp:425] inception_5b/5x5 <- inception_5b/5x5_reduce
I0714 20:34:49.339912 32003 net.cpp:399] inception_5b/5x5 -> inception_5b/5x5
I0714 20:34:49.346307 32007 net.cpp:141] Setting up inception_5b/3x3
I0714 20:34:49.346333 32007 net.cpp:148] Top shape: 10 384 7 7 (188160)
I0714 20:34:49.346343 32007 net.cpp:156] Memory required for data: 545789440
I0714 20:34:49.346362 32007 layer_factory.hpp:77] Creating layer inception_5b/relu_3x3
I0714 20:34:49.346387 32007 net.cpp:91] Creating Layer inception_5b/relu_3x3
I0714 20:34:49.346401 32007 net.cpp:425] inception_5b/relu_3x3 <- inception_5b/3x3
I0714 20:34:49.346418 32007 net.cpp:386] inception_5b/relu_3x3 -> inception_5b/3x3 (in-place)
I0714 20:34:49.346698 32003 net.cpp:141] Setting up inception_5b/5x5
I0714 20:34:49.346719 32003 net.cpp:148] Top shape: 10 128 7 7 (62720)
I0714 20:34:49.346724 32003 net.cpp:156] Memory required for data: 546981120
I0714 20:34:49.346735 32003 layer_factory.hpp:77] Creating layer inception_5b/relu_5x5
I0714 20:34:49.346750 32003 net.cpp:91] Creating Layer inception_5b/relu_5x5
I0714 20:34:49.346756 32003 net.cpp:425] inception_5b/relu_5x5 <- inception_5b/5x5
I0714 20:34:49.346765 32003 net.cpp:386] inception_5b/relu_5x5 -> inception_5b/5x5 (in-place)
I0714 20:34:49.347093 32003 net.cpp:141] Setting up inception_5b/relu_5x5
I0714 20:34:49.347106 32003 net.cpp:148] Top shape: 10 128 7 7 (62720)
I0714 20:34:49.347112 32003 net.cpp:156] Memory required for data: 547232000
I0714 20:34:49.347118 32003 layer_factory.hpp:77] Creating layer inception_5b/pool
I0714 20:34:49.347133 32003 net.cpp:91] Creating Layer inception_5b/pool
I0714 20:34:49.347141 32003 net.cpp:425] inception_5b/pool <- inception_5a/output_inception_5a/output_0_split_3
I0714 20:34:49.347153 32003 net.cpp:399] inception_5b/pool -> inception_5b/pool
I0714 20:34:49.347687 32003 net.cpp:141] Setting up inception_5b/pool
I0714 20:34:49.347700 32003 net.cpp:148] Top shape: 10 832 7 7 (407680)
I0714 20:34:49.347705 32003 net.cpp:156] Memory required for data: 548862720
I0714 20:34:49.347710 32003 layer_factory.hpp:77] Creating layer inception_5b/pool_proj
I0714 20:34:49.347734 32003 net.cpp:91] Creating Layer inception_5b/pool_proj
I0714 20:34:49.347743 32003 net.cpp:425] inception_5b/pool_proj <- inception_5b/pool
I0714 20:34:49.347754 32003 net.cpp:399] inception_5b/pool_proj -> inception_5b/pool_proj
I0714 20:34:49.348062 32007 net.cpp:141] Setting up inception_5b/relu_3x3
I0714 20:34:49.348084 32007 net.cpp:148] Top shape: 10 384 7 7 (188160)
I0714 20:34:49.348096 32007 net.cpp:156] Memory required for data: 546542080
I0714 20:34:49.348107 32007 layer_factory.hpp:77] Creating layer inception_5b/5x5_reduce
I0714 20:34:49.348141 32007 net.cpp:91] Creating Layer inception_5b/5x5_reduce
I0714 20:34:49.348157 32007 net.cpp:425] inception_5b/5x5_reduce <- inception_5a/output_inception_5a/output_0_split_2
I0714 20:34:49.348178 32007 net.cpp:399] inception_5b/5x5_reduce -> inception_5b/5x5_reduce
I0714 20:34:49.357396 32007 net.cpp:141] Setting up inception_5b/5x5_reduce
I0714 20:34:49.357420 32007 net.cpp:148] Top shape: 10 48 7 7 (23520)
I0714 20:34:49.357431 32007 net.cpp:156] Memory required for data: 546636160
I0714 20:34:49.357450 32007 layer_factory.hpp:77] Creating layer inception_5b/relu_5x5_reduce
I0714 20:34:49.357467 32007 net.cpp:91] Creating Layer inception_5b/relu_5x5_reduce
I0714 20:34:49.357481 32007 net.cpp:425] inception_5b/relu_5x5_reduce <- inception_5b/5x5_reduce
I0714 20:34:49.357512 32007 net.cpp:386] inception_5b/relu_5x5_reduce -> inception_5b/5x5_reduce (in-place)
I0714 20:34:49.358494 32007 net.cpp:141] Setting up inception_5b/relu_5x5_reduce
I0714 20:34:49.358515 32007 net.cpp:148] Top shape: 10 48 7 7 (23520)
I0714 20:34:49.358531 32007 net.cpp:156] Memory required for data: 546730240
I0714 20:34:49.358542 32007 layer_factory.hpp:77] Creating layer inception_5b/5x5
I0714 20:34:49.358566 32007 net.cpp:91] Creating Layer inception_5b/5x5
I0714 20:34:49.358582 32007 net.cpp:425] inception_5b/5x5 <- inception_5b/5x5_reduce
I0714 20:34:49.358610 32007 net.cpp:399] inception_5b/5x5 -> inception_5b/5x5
I0714 20:34:49.359155 32003 net.cpp:141] Setting up inception_5b/pool_proj
I0714 20:34:49.359216 32003 net.cpp:148] Top shape: 10 128 7 7 (62720)
I0714 20:34:49.359227 32003 net.cpp:156] Memory required for data: 549113600
I0714 20:34:49.359251 32003 layer_factory.hpp:77] Creating layer inception_5b/relu_pool_proj
I0714 20:34:49.359273 32003 net.cpp:91] Creating Layer inception_5b/relu_pool_proj
I0714 20:34:49.359288 32003 net.cpp:425] inception_5b/relu_pool_proj <- inception_5b/pool_proj
I0714 20:34:49.359304 32003 net.cpp:386] inception_5b/relu_pool_proj -> inception_5b/pool_proj (in-place)
I0714 20:34:49.360872 32003 net.cpp:141] Setting up inception_5b/relu_pool_proj
I0714 20:34:49.360901 32003 net.cpp:148] Top shape: 10 128 7 7 (62720)
I0714 20:34:49.360910 32003 net.cpp:156] Memory required for data: 549364480
I0714 20:34:49.360919 32003 layer_factory.hpp:77] Creating layer inception_5b/output
I0714 20:34:49.360934 32003 net.cpp:91] Creating Layer inception_5b/output
I0714 20:34:49.360945 32003 net.cpp:425] inception_5b/output <- inception_5b/1x1
I0714 20:34:49.360957 32003 net.cpp:425] inception_5b/output <- inception_5b/3x3
I0714 20:34:49.360966 32003 net.cpp:425] inception_5b/output <- inception_5b/5x5
I0714 20:34:49.360976 32003 net.cpp:425] inception_5b/output <- inception_5b/pool_proj
I0714 20:34:49.360990 32003 net.cpp:399] inception_5b/output -> inception_5b/output
I0714 20:34:49.361172 32003 net.cpp:141] Setting up inception_5b/output
I0714 20:34:49.361191 32003 net.cpp:148] Top shape: 10 1024 7 7 (501760)
I0714 20:34:49.361199 32003 net.cpp:156] Memory required for data: 551371520
I0714 20:34:49.361207 32003 layer_factory.hpp:77] Creating layer pool5/7x7_s1
I0714 20:34:49.361223 32003 net.cpp:91] Creating Layer pool5/7x7_s1
I0714 20:34:49.361232 32003 net.cpp:425] pool5/7x7_s1 <- inception_5b/output
I0714 20:34:49.361253 32003 net.cpp:399] pool5/7x7_s1 -> pool5/7x7_s1
I0714 20:34:49.361891 32003 net.cpp:141] Setting up pool5/7x7_s1
I0714 20:34:49.361912 32003 net.cpp:148] Top shape: 10 1024 1 1 (10240)
I0714 20:34:49.361919 32003 net.cpp:156] Memory required for data: 551412480
I0714 20:34:49.361927 32003 layer_factory.hpp:77] Creating layer pool5/drop_7x7_s1
I0714 20:34:49.361949 32003 net.cpp:91] Creating Layer pool5/drop_7x7_s1
I0714 20:34:49.361958 32003 net.cpp:425] pool5/drop_7x7_s1 <- pool5/7x7_s1
I0714 20:34:49.361970 32003 net.cpp:386] pool5/drop_7x7_s1 -> pool5/7x7_s1 (in-place)
I0714 20:34:49.362123 32003 net.cpp:141] Setting up pool5/drop_7x7_s1
I0714 20:34:49.362141 32003 net.cpp:148] Top shape: 10 1024 1 1 (10240)
I0714 20:34:49.362149 32003 net.cpp:156] Memory required for data: 551453440
I0714 20:34:49.362157 32003 layer_factory.hpp:77] Creating layer loss3/classifier
I0714 20:34:49.362191 32003 net.cpp:91] Creating Layer loss3/classifier
I0714 20:34:49.362201 32003 net.cpp:425] loss3/classifier <- pool5/7x7_s1
I0714 20:34:49.362215 32003 net.cpp:399] loss3/classifier -> loss3/classifier
I0714 20:34:49.370332 32007 net.cpp:141] Setting up inception_5b/5x5
I0714 20:34:49.370357 32007 net.cpp:148] Top shape: 10 128 7 7 (62720)
I0714 20:34:49.370364 32007 net.cpp:156] Memory required for data: 546981120
I0714 20:34:49.370375 32007 layer_factory.hpp:77] Creating layer inception_5b/relu_5x5
I0714 20:34:49.370388 32007 net.cpp:91] Creating Layer inception_5b/relu_5x5
I0714 20:34:49.370396 32007 net.cpp:425] inception_5b/relu_5x5 <- inception_5b/5x5
I0714 20:34:49.370404 32007 net.cpp:386] inception_5b/relu_5x5 -> inception_5b/5x5 (in-place)
I0714 20:34:49.370740 32007 net.cpp:141] Setting up inception_5b/relu_5x5
I0714 20:34:49.370759 32007 net.cpp:148] Top shape: 10 128 7 7 (62720)
I0714 20:34:49.370764 32007 net.cpp:156] Memory required for data: 547232000
I0714 20:34:49.370770 32007 layer_factory.hpp:77] Creating layer inception_5b/pool
I0714 20:34:49.370780 32007 net.cpp:91] Creating Layer inception_5b/pool
I0714 20:34:49.370787 32007 net.cpp:425] inception_5b/pool <- inception_5a/output_inception_5a/output_0_split_3
I0714 20:34:49.370800 32007 net.cpp:399] inception_5b/pool -> inception_5b/pool
I0714 20:34:49.370959 32007 net.cpp:141] Setting up inception_5b/pool
I0714 20:34:49.370970 32007 net.cpp:148] Top shape: 10 832 7 7 (407680)
I0714 20:34:49.370975 32007 net.cpp:156] Memory required for data: 548862720
I0714 20:34:49.370981 32007 layer_factory.hpp:77] Creating layer inception_5b/pool_proj
I0714 20:34:49.371004 32007 net.cpp:91] Creating Layer inception_5b/pool_proj
I0714 20:34:49.371012 32007 net.cpp:425] inception_5b/pool_proj <- inception_5b/pool
I0714 20:34:49.371023 32007 net.cpp:399] inception_5b/pool_proj -> inception_5b/pool_proj
I0714 20:34:49.376814 32007 net.cpp:141] Setting up inception_5b/pool_proj
I0714 20:34:49.376838 32007 net.cpp:148] Top shape: 10 128 7 7 (62720)
I0714 20:34:49.376844 32007 net.cpp:156] Memory required for data: 549113600
I0714 20:34:49.376855 32007 layer_factory.hpp:77] Creating layer inception_5b/relu_pool_proj
I0714 20:34:49.376865 32007 net.cpp:91] Creating Layer inception_5b/relu_pool_proj
I0714 20:34:49.376873 32007 net.cpp:425] inception_5b/relu_pool_proj <- inception_5b/pool_proj
I0714 20:34:49.376881 32007 net.cpp:386] inception_5b/relu_pool_proj -> inception_5b/pool_proj (in-place)
I0714 20:34:49.377751 32007 net.cpp:141] Setting up inception_5b/relu_pool_proj
I0714 20:34:49.377770 32007 net.cpp:148] Top shape: 10 128 7 7 (62720)
I0714 20:34:49.377775 32007 net.cpp:156] Memory required for data: 549364480
I0714 20:34:49.377781 32007 layer_factory.hpp:77] Creating layer inception_5b/output
I0714 20:34:49.377791 32007 net.cpp:91] Creating Layer inception_5b/output
I0714 20:34:49.377797 32007 net.cpp:425] inception_5b/output <- inception_5b/1x1
I0714 20:34:49.377805 32007 net.cpp:425] inception_5b/output <- inception_5b/3x3
I0714 20:34:49.377811 32007 net.cpp:425] inception_5b/output <- inception_5b/5x5
I0714 20:34:49.377817 32007 net.cpp:425] inception_5b/output <- inception_5b/pool_proj
I0714 20:34:49.377825 32007 net.cpp:399] inception_5b/output -> inception_5b/output
I0714 20:34:49.377923 32007 net.cpp:141] Setting up inception_5b/output
I0714 20:34:49.377935 32007 net.cpp:148] Top shape: 10 1024 7 7 (501760)
I0714 20:34:49.377940 32007 net.cpp:156] Memory required for data: 551371520
I0714 20:34:49.377946 32007 layer_factory.hpp:77] Creating layer pool5/7x7_s1
I0714 20:34:49.377956 32007 net.cpp:91] Creating Layer pool5/7x7_s1
I0714 20:34:49.377964 32007 net.cpp:425] pool5/7x7_s1 <- inception_5b/output
I0714 20:34:49.377977 32007 net.cpp:399] pool5/7x7_s1 -> pool5/7x7_s1
I0714 20:34:49.378355 32007 net.cpp:141] Setting up pool5/7x7_s1
I0714 20:34:49.378368 32007 net.cpp:148] Top shape: 10 1024 1 1 (10240)
I0714 20:34:49.378373 32007 net.cpp:156] Memory required for data: 551412480
I0714 20:34:49.378379 32007 layer_factory.hpp:77] Creating layer pool5/drop_7x7_s1
I0714 20:34:49.378392 32007 net.cpp:91] Creating Layer pool5/drop_7x7_s1
I0714 20:34:49.378398 32007 net.cpp:425] pool5/drop_7x7_s1 <- pool5/7x7_s1
I0714 20:34:49.378407 32007 net.cpp:386] pool5/drop_7x7_s1 -> pool5/7x7_s1 (in-place)
I0714 20:34:49.378494 32007 net.cpp:141] Setting up pool5/drop_7x7_s1
I0714 20:34:49.378509 32007 net.cpp:148] Top shape: 10 1024 1 1 (10240)
I0714 20:34:49.378515 32007 net.cpp:156] Memory required for data: 551453440
I0714 20:34:49.378520 32007 layer_factory.hpp:77] Creating layer loss3/classifier
I0714 20:34:49.378533 32007 net.cpp:91] Creating Layer loss3/classifier
I0714 20:34:49.378540 32007 net.cpp:425] loss3/classifier <- pool5/7x7_s1
I0714 20:34:49.378552 32007 net.cpp:399] loss3/classifier -> loss3/classifier
I0714 20:34:49.382508 32003 net.cpp:141] Setting up loss3/classifier
I0714 20:34:49.382541 32003 net.cpp:148] Top shape: 10 1000 (10000)
I0714 20:34:49.382550 32003 net.cpp:156] Memory required for data: 551493440
I0714 20:34:49.382565 32003 layer_factory.hpp:77] Creating layer prob
I0714 20:34:49.382580 32003 net.cpp:91] Creating Layer prob
I0714 20:34:49.382591 32003 net.cpp:425] prob <- loss3/classifier
I0714 20:34:49.382603 32003 net.cpp:399] prob -> prob
I0714 20:34:49.384295 32003 net.cpp:141] Setting up prob
I0714 20:34:49.384322 32003 net.cpp:148] Top shape: 10 1000 (10000)
I0714 20:34:49.384330 32003 net.cpp:156] Memory required for data: 551533440
I0714 20:34:49.384338 32003 net.cpp:219] prob does not need backward computation.
I0714 20:34:49.384347 32003 net.cpp:219] loss3/classifier does not need backward computation.
I0714 20:34:49.384354 32003 net.cpp:219] pool5/drop_7x7_s1 does not need backward computation.
I0714 20:34:49.384361 32003 net.cpp:219] pool5/7x7_s1 does not need backward computation.
…
