…
2016-07-30 10:43:18.823 STDERR [INFO]   bottom: "fc8"
2016-07-30 10:43:18.823 STDERR [INFO]   top: "prob"
2016-07-30 10:43:18.823 STDERR [INFO] }
2016-07-30 10:43:18.823 STDERR [INFO] I0730 10:43:18.760885 14514 layer_factory.hpp:77] Creating layer data
2016-07-30 10:43:18.823 STDERR [INFO] I0730 10:43:18.760915 14514 net.cpp:91] Creating Layer data
2016-07-30 10:43:18.823 STDERR [INFO] I0730 10:43:18.760926 14514 net.cpp:399] data -> data
2016-07-30 10:43:19.376 STDERR [INFO] I0730 10:43:19.376513 14514 net.cpp:141] Setting up data
2016-07-30 10:43:21.543 STDERR [INFO] I0730 10:43:19.376657 14514 net.cpp:148] Top shape: 10 3 227 227 (1545870)
2016-07-30 10:43:21.543 STDERR [INFO] I0730 10:43:19.376667 14514 net.cpp:156] Memory required for data: 6183480
2016-07-30 10:43:21.544 STDERR [INFO] I0730 10:43:19.376689 14514 layer_factory.hpp:77] Creating layer conv1
2016-07-30 10:43:21.544 STDERR [INFO] I0730 10:43:19.376726 14514 net.cpp:91] Creating Layer conv1
2016-07-30 10:43:21.544 STDERR [INFO] I0730 10:43:19.376737 14514 net.cpp:425] conv1 <- data
2016-07-30 10:43:21.544 STDERR [INFO] I0730 10:43:19.376755 14514 net.cpp:399] conv1 -> conv1
2016-07-30 10:43:21.545 STDERR [INFO] I0730 10:43:19.628960 14514 net.cpp:141] Setting up conv1
2016-07-30 10:43:21.545 STDERR [INFO] I0730 10:43:19.629016 14514 net.cpp:148] Top shape: 10 96 55 55 (2904000)
2016-07-30 10:43:21.545 STDERR [INFO] I0730 10:43:19.629024 14514 net.cpp:156] Memory required for data: 17799480
2016-07-30 10:43:21.546 STDERR [INFO] I0730 10:43:19.629060 14514 layer_factory.hpp:77] Creating layer relu1
2016-07-30 10:43:21.546 STDERR [INFO] I0730 10:43:19.629082 14514 net.cpp:91] Creating Layer relu1
2016-07-30 10:43:21.546 STDERR [INFO] I0730 10:43:19.629092 14514 net.cpp:425] relu1 <- conv1
2016-07-30 10:43:21.546 STDERR [INFO] I0730 10:43:19.629101 14514 net.cpp:386] relu1 -> conv1 (in-place)
2016-07-30 10:43:21.546 STDERR [INFO] I0730 10:43:19.629876 14514 net.cpp:141] Setting up relu1
2016-07-30 10:43:21.546 STDERR [INFO] I0730 10:43:19.629892 14514 net.cpp:148] Top shape: 10 96 55 55 (2904000)
2016-07-30 10:43:21.546 STDERR [INFO] I0730 10:43:19.629897 14514 net.cpp:156] Memory required for data: 29415480
2016-07-30 10:43:21.546 STDERR [INFO] I0730 10:43:19.629904 14514 layer_factory.hpp:77] Creating layer pool1
2016-07-30 10:43:21.547 STDERR [INFO] I0730 10:43:19.629920 14514 net.cpp:91] Creating Layer pool1
2016-07-30 10:43:21.548 STDERR [INFO] I0730 10:43:19.629925 14514 net.cpp:425] pool1 <- conv1
2016-07-30 10:43:21.548 STDERR [INFO] I0730 10:43:19.629935 14514 net.cpp:399] pool1 -> pool1
2016-07-30 10:43:21.548 STDERR [INFO] I0730 10:43:19.630019 14514 net.cpp:141] Setting up pool1
2016-07-30 10:43:21.549 STDERR [INFO] I0730 10:43:19.630031 14514 net.cpp:148] Top shape: 10 96 27 27 (699840)
2016-07-30 10:43:21.549 STDERR [INFO] I0730 10:43:19.630036 14514 net.cpp:156] Memory required for data: 32214840
2016-07-30 10:43:21.549 STDERR [INFO] I0730 10:43:19.630043 14514 layer_factory.hpp:77] Creating layer norm1
2016-07-30 10:43:21.549 STDERR [INFO] I0730 10:43:19.630064 14514 net.cpp:91] Creating Layer norm1
2016-07-30 10:43:21.549 STDERR [INFO] I0730 10:43:19.630070 14514 net.cpp:425] norm1 <- pool1
2016-07-30 10:43:21.549 STDERR [INFO] I0730 10:43:19.630079 14514 net.cpp:399] norm1 -> norm1
2016-07-30 10:43:21.549 STDERR [INFO] I0730 10:43:19.630908 14514 net.cpp:141] Setting up norm1
2016-07-30 10:43:21.549 STDERR [INFO] I0730 10:43:19.630925 14514 net.cpp:148] Top shape: 10 96 27 27 (699840)
2016-07-30 10:43:21.549 STDERR [INFO] I0730 10:43:19.630930 14514 net.cpp:156] Memory required for data: 35014200
2016-07-30 10:43:21.550 STDERR [INFO] I0730 10:43:19.630936 14514 layer_factory.hpp:77] Creating layer conv2
2016-07-30 10:43:21.550 STDERR [INFO] I0730 10:43:19.630956 14514 net.cpp:91] Creating Layer conv2
2016-07-30 10:43:21.550 STDERR [INFO] I0730 10:43:19.630962 14514 net.cpp:425] conv2 <- norm1
2016-07-30 10:43:21.550 STDERR [INFO] I0730 10:43:19.630971 14514 net.cpp:399] conv2 -> conv2
2016-07-30 10:43:21.550 STDERR [INFO] I0730 10:43:19.636852 14514 net.cpp:141] Setting up conv2
2016-07-30 10:43:21.550 STDERR [INFO] I0730 10:43:19.636875 14514 net.cpp:148] Top shape: 10 256 27 27 (1866240)
2016-07-30 10:43:21.551 STDERR [INFO] I0730 10:43:19.636881 14514 net.cpp:156] Memory required for data: 42479160
2016-07-30 10:43:21.551 STDERR [INFO] I0730 10:43:19.636895 14514 layer_factory.hpp:77] Creating layer relu2
2016-07-30 10:43:21.551 STDERR [INFO] I0730 10:43:19.636906 14514 net.cpp:91] Creating Layer relu2
2016-07-30 10:43:21.551 STDERR [INFO] I0730 10:43:19.636912 14514 net.cpp:425] relu2 <- conv2
2016-07-30 10:43:21.551 STDERR [INFO] I0730 10:43:19.636919 14514 net.cpp:386] relu2 -> conv2 (in-place)
2016-07-30 10:43:21.551 STDERR [INFO] I0730 10:43:19.637724 14514 net.cpp:141] Setting up relu2
2016-07-30 10:43:21.551 STDERR [INFO] I0730 10:43:19.637738 14514 net.cpp:148] Top shape: 10 256 27 27 (1866240)
2016-07-30 10:43:21.551 STDERR [INFO] I0730 10:43:19.637744 14514 net.cpp:156] Memory required for data: 49944120
2016-07-30 10:43:21.551 STDERR [INFO] I0730 10:43:19.637750 14514 layer_factory.hpp:77] Creating layer pool2
2016-07-30 10:43:21.552 STDERR [INFO] I0730 10:43:19.637760 14514 net.cpp:91] Creating Layer pool2
2016-07-30 10:43:21.552 STDERR [INFO] I0730 10:43:19.637766 14514 net.cpp:425] pool2 <- conv2
2016-07-30 10:43:21.552 STDERR [INFO] I0730 10:43:19.637778 14514 net.cpp:399] pool2 -> pool2
2016-07-30 10:43:21.552 STDERR [INFO] I0730 10:43:19.637840 14514 net.cpp:141] Setting up pool2
2016-07-30 10:43:21.552 STDERR [INFO] I0730 10:43:19.637850 14514 net.cpp:148] Top shape: 10 256 13 13 (432640)
2016-07-30 10:43:21.552 STDERR [INFO] I0730 10:43:19.637854 14514 net.cpp:156] Memory required for data: 51674680
2016-07-30 10:43:21.552 STDERR [INFO] I0730 10:43:19.637859 14514 layer_factory.hpp:77] Creating layer norm2
2016-07-30 10:43:21.552 STDERR [INFO] I0730 10:43:19.637876 14514 net.cpp:91] Creating Layer norm2
2016-07-30 10:43:21.553 STDERR [INFO] I0730 10:43:19.637881 14514 net.cpp:425] norm2 <- pool2
2016-07-30 10:43:21.553 STDERR [INFO] I0730 10:43:19.637892 14514 net.cpp:399] norm2 -> norm2
2016-07-30 10:43:21.553 STDERR [INFO] I0730 10:43:19.638173 14514 net.cpp:141] Setting up norm2
2016-07-30 10:43:21.553 STDERR [INFO] I0730 10:43:19.638186 14514 net.cpp:148] Top shape: 10 256 13 13 (432640)
2016-07-30 10:43:21.553 STDERR [INFO] I0730 10:43:19.638191 14514 net.cpp:156] Memory required for data: 53405240
2016-07-30 10:43:21.553 STDERR [INFO] I0730 10:43:19.638197 14514 layer_factory.hpp:77] Creating layer conv3
2016-07-30 10:43:21.553 STDERR [INFO] I0730 10:43:19.638216 14514 net.cpp:91] Creating Layer conv3
2016-07-30 10:43:21.553 STDERR [INFO] I0730 10:43:19.638222 14514 net.cpp:425] conv3 <- norm2
2016-07-30 10:43:21.553 STDERR [INFO] I0730 10:43:19.638232 14514 net.cpp:399] conv3 -> conv3
2016-07-30 10:43:21.553 STDERR [INFO] I0730 10:43:19.643337 14514 net.cpp:141] Setting up conv3
2016-07-30 10:43:21.554 STDERR [INFO] I0730 10:43:19.643355 14514 net.cpp:148] Top shape: 10 384 13 13 (648960)
2016-07-30 10:43:21.554 STDERR [INFO] I0730 10:43:19.643362 14514 net.cpp:156] Memory required for data: 56001080
2016-07-30 10:43:21.554 STDERR [INFO] I0730 10:43:19.643379 14514 layer_factory.hpp:77] Creating layer relu3
2016-07-30 10:43:21.554 STDERR [INFO] I0730 10:43:19.643390 14514 net.cpp:91] Creating Layer relu3
2016-07-30 10:43:21.554 STDERR [INFO] I0730 10:43:19.643396 14514 net.cpp:425] relu3 <- conv3
2016-07-30 10:43:21.554 STDERR [INFO] I0730 10:43:19.643404 14514 net.cpp:386] relu3 -> conv3 (in-place)
2016-07-30 10:43:21.554 STDERR [INFO] I0730 10:43:19.644194 14514 net.cpp:141] Setting up relu3
2016-07-30 10:43:21.554 STDERR [INFO] I0730 10:43:19.644212 14514 net.cpp:148] Top shape: 10 384 13 13 (648960)
2016-07-30 10:43:21.554 STDERR [INFO] I0730 10:43:19.644217 14514 net.cpp:156] Memory required for data: 58596920
2016-07-30 10:43:21.555 STDERR [INFO] I0730 10:43:19.644222 14514 layer_factory.hpp:77] Creating layer conv4
2016-07-30 10:43:21.555 STDERR [INFO] I0730 10:43:19.644235 14514 net.cpp:91] Creating Layer conv4
2016-07-30 10:43:21.555 STDERR [INFO] I0730 10:43:19.644242 14514 net.cpp:425] conv4 <- conv3
2016-07-30 10:43:21.555 STDERR [INFO] I0730 10:43:19.644253 14514 net.cpp:399] conv4 -> conv4
2016-07-30 10:43:21.555 STDERR [INFO] I0730 10:43:19.649974 14514 net.cpp:141] Setting up conv4
2016-07-30 10:43:21.555 STDERR [INFO] I0730 10:43:19.649993 14514 net.cpp:148] Top shape: 10 384 13 13 (648960)
2016-07-30 10:43:21.555 STDERR [INFO] I0730 10:43:19.649999 14514 net.cpp:156] Memory required for data: 61192760
2016-07-30 10:43:21.555 STDERR [INFO] I0730 10:43:19.650009 14514 layer_factory.hpp:77] Creating layer relu4
2016-07-30 10:43:21.555 STDERR [INFO] I0730 10:43:19.650024 14514 net.cpp:91] Creating Layer relu4
2016-07-30 10:43:21.556 STDERR [INFO] I0730 10:43:19.650030 14514 net.cpp:425] relu4 <- conv4
2016-07-30 10:43:21.556 STDERR [INFO] I0730 10:43:19.650041 14514 net.cpp:386] relu4 -> conv4 (in-place)
2016-07-30 10:43:21.556 STDERR [INFO] I0730 10:43:19.650846 14514 net.cpp:141] Setting up relu4
2016-07-30 10:43:21.556 STDERR [INFO] I0730 10:43:19.650861 14514 net.cpp:148] Top shape: 10 384 13 13 (648960)
2016-07-30 10:43:21.556 STDERR [INFO] I0730 10:43:19.650866 14514 net.cpp:156] Memory required for data: 63788600
2016-07-30 10:43:21.556 STDERR [INFO] I0730 10:43:19.650872 14514 layer_factory.hpp:77] Creating layer conv5
2016-07-30 10:43:21.556 STDERR [INFO] I0730 10:43:19.650888 14514 net.cpp:91] Creating Layer conv5
2016-07-30 10:43:21.556 STDERR [INFO] I0730 10:43:19.650894 14514 net.cpp:425] conv5 <- conv4
2016-07-30 10:43:21.556 STDERR [INFO] I0730 10:43:19.650903 14514 net.cpp:399] conv5 -> conv5
2016-07-30 10:43:21.557 STDERR [INFO] I0730 10:43:19.656697 14514 net.cpp:141] Setting up conv5
2016-07-30 10:43:21.557 STDERR [INFO] I0730 10:43:19.656714 14514 net.cpp:148] Top shape: 10 256 13 13 (432640)
2016-07-30 10:43:21.557 STDERR [INFO] I0730 10:43:19.656720 14514 net.cpp:156] Memory required for data: 65519160
2016-07-30 10:43:21.557 STDERR [INFO] I0730 10:43:19.656738 14514 layer_factory.hpp:77] Creating layer relu5
2016-07-30 10:43:21.557 STDERR [INFO] I0730 10:43:19.656749 14514 net.cpp:91] Creating Layer relu5
2016-07-30 10:43:21.557 STDERR [INFO] I0730 10:43:19.656755 14514 net.cpp:425] relu5 <- conv5
2016-07-30 10:43:21.557 STDERR [INFO] I0730 10:43:19.656765 14514 net.cpp:386] relu5 -> conv5 (in-place)
2016-07-30 10:43:21.557 STDERR [INFO] I0730 10:43:19.657547 14514 net.cpp:141] Setting up relu5
2016-07-30 10:43:21.557 STDERR [INFO] I0730 10:43:19.657562 14514 net.cpp:148] Top shape: 10 256 13 13 (432640)
2016-07-30 10:43:21.557 STDERR [INFO] I0730 10:43:19.657567 14514 net.cpp:156] Memory required for data: 67249720
2016-07-30 10:43:21.558 STDERR [INFO] I0730 10:43:19.657573 14514 layer_factory.hpp:77] Creating layer pool5
2016-07-30 10:43:21.558 STDERR [INFO] I0730 10:43:19.657588 14514 net.cpp:91] Creating Layer pool5
2016-07-30 10:43:21.558 STDERR [INFO] I0730 10:43:19.657593 14514 net.cpp:425] pool5 <- conv5
2016-07-30 10:43:21.558 STDERR [INFO] I0730 10:43:19.657601 14514 net.cpp:399] pool5 -> pool5
2016-07-30 10:43:21.558 STDERR [INFO] I0730 10:43:19.657670 14514 net.cpp:141] Setting up pool5
2016-07-30 10:43:21.558 STDERR [INFO] I0730 10:43:19.657680 14514 net.cpp:148] Top shape: 10 256 6 6 (92160)
2016-07-30 10:43:21.558 STDERR [INFO] I0730 10:43:19.657685 14514 net.cpp:156] Memory required for data: 67618360
2016-07-30 10:43:21.558 STDERR [INFO] I0730 10:43:19.657692 14514 layer_factory.hpp:77] Creating layer fc6
2016-07-30 10:43:21.558 STDERR [INFO] I0730 10:43:19.657713 14514 net.cpp:91] Creating Layer fc6
2016-07-30 10:43:21.558 STDERR [INFO] I0730 10:43:19.657719 14514 net.cpp:425] fc6 <- pool5
2016-07-30 10:43:21.559 STDERR [INFO] I0730 10:43:19.657732 14514 net.cpp:399] fc6 -> fc6
2016-07-30 10:43:21.559 STDERR [INFO] I0730 10:43:19.771212 14514 net.cpp:141] Setting up fc6
2016-07-30 10:43:21.559 STDERR [INFO] I0730 10:43:19.771268 14514 net.cpp:148] Top shape: 10 4096 (40960)
2016-07-30 10:43:21.559 STDERR [INFO] I0730 10:43:19.771275 14514 net.cpp:156] Memory required for data: 67782200
2016-07-30 10:43:21.559 STDERR [INFO] I0730 10:43:19.771292 14514 layer_factory.hpp:77] Creating layer relu6
2016-07-30 10:43:21.559 STDERR [INFO] I0730 10:43:19.771319 14514 net.cpp:91] Creating Layer relu6
2016-07-30 10:43:21.559 STDERR [INFO] I0730 10:43:19.771328 14514 net.cpp:425] relu6 <- fc6
2016-07-30 10:43:21.559 STDERR [INFO] I0730 10:43:19.771340 14514 net.cpp:386] relu6 -> fc6 (in-place)
2016-07-30 10:43:21.559 STDERR [INFO] I0730 10:43:19.771729 14514 net.cpp:141] Setting up relu6
2016-07-30 10:43:21.559 STDERR [INFO] I0730 10:43:19.771742 14514 net.cpp:148] Top shape: 10 4096 (40960)
2016-07-30 10:43:21.560 STDERR [INFO] I0730 10:43:19.771747 14514 net.cpp:156] Memory required for data: 67946040
2016-07-30 10:43:21.560 STDERR [INFO] I0730 10:43:19.771754 14514 layer_factory.hpp:77] Creating layer drop6
2016-07-30 10:43:21.560 STDERR [INFO] I0730 10:43:19.771778 14514 net.cpp:91] Creating Layer drop6
2016-07-30 10:43:21.560 STDERR [INFO] I0730 10:43:19.771785 14514 net.cpp:425] drop6 <- fc6
2016-07-30 10:43:21.560 STDERR [INFO] I0730 10:43:19.771795 14514 net.cpp:386] drop6 -> fc6 (in-place)
2016-07-30 10:43:21.560 STDERR [INFO] I0730 10:43:19.771852 14514 net.cpp:141] Setting up drop6
2016-07-30 10:43:21.560 STDERR [INFO] I0730 10:43:19.771862 14514 net.cpp:148] Top shape: 10 4096 (40960)
2016-07-30 10:43:21.560 STDERR [INFO] I0730 10:43:19.771867 14514 net.cpp:156] Memory required for data: 68109880
2016-07-30 10:43:21.560 STDERR [INFO] I0730 10:43:19.771872 14514 layer_factory.hpp:77] Creating layer fc7
2016-07-30 10:43:21.560 STDERR [INFO] I0730 10:43:19.771891 14514 net.cpp:91] Creating Layer fc7
2016-07-30 10:43:21.561 STDERR [INFO] I0730 10:43:19.771898 14514 net.cpp:425] fc7 <- fc6
2016-07-30 10:43:21.561 STDERR [INFO] I0730 10:43:19.771905 14514 net.cpp:399] fc7 -> fc7
2016-07-30 10:43:21.561 STDERR [INFO] I0730 10:43:19.823390 14514 net.cpp:141] Setting up fc7
2016-07-30 10:43:21.561 STDERR [INFO] I0730 10:43:19.823448 14514 net.cpp:148] Top shape: 10 4096 (40960)
2016-07-30 10:43:21.561 STDERR [INFO] I0730 10:43:19.823456 14514 net.cpp:156] Memory required for data: 68273720
2016-07-30 10:43:21.561 STDERR [INFO] I0730 10:43:19.823472 14514 layer_factory.hpp:77] Creating layer relu7
2016-07-30 10:43:21.561 STDERR [INFO] I0730 10:43:19.823493 14514 net.cpp:91] Creating Layer relu7
2016-07-30 10:43:21.562 STDERR [INFO] I0730 10:43:19.823501 14514 net.cpp:425] relu7 <- fc7
2016-07-30 10:43:21.562 STDERR [INFO] I0730 10:43:19.823513 14514 net.cpp:386] relu7 -> fc7 (in-place)
2016-07-30 10:43:21.562 STDERR [INFO] I0730 10:43:19.825474 14514 net.cpp:141] Setting up relu7
2016-07-30 10:43:21.562 STDERR [INFO] I0730 10:43:19.825490 14514 net.cpp:148] Top shape: 10 4096 (40960)
2016-07-30 10:43:21.562 STDERR [INFO] I0730 10:43:19.825496 14514 net.cpp:156] Memory required for data: 68437560
2016-07-30 10:43:21.562 STDERR [INFO] I0730 10:43:19.825502 14514 layer_factory.hpp:77] Creating layer drop7
2016-07-30 10:43:21.562 STDERR [INFO] I0730 10:43:19.825515 14514 net.cpp:91] Creating Layer drop7
2016-07-30 10:43:21.562 STDERR [INFO] I0730 10:43:19.825520 14514 net.cpp:425] drop7 <- fc7
2016-07-30 10:43:21.562 STDERR [INFO] I0730 10:43:19.825527 14514 net.cpp:386] drop7 -> fc7 (in-place)
2016-07-30 10:43:21.563 STDERR [INFO] I0730 10:43:19.825578 14514 net.cpp:141] Setting up drop7
2016-07-30 10:43:21.563 STDERR [INFO] I0730 10:43:19.825588 14514 net.cpp:148] Top shape: 10 4096 (40960)
2016-07-30 10:43:21.563 STDERR [INFO] I0730 10:43:19.825593 14514 net.cpp:156] Memory required for data: 68601400
2016-07-30 10:43:21.563 STDERR [INFO] I0730 10:43:19.825598 14514 layer_factory.hpp:77] Creating layer fc8
2016-07-30 10:43:21.563 STDERR [INFO] I0730 10:43:19.825613 14514 net.cpp:91] Creating Layer fc8
2016-07-30 10:43:21.563 STDERR [INFO] I0730 10:43:19.825618 14514 net.cpp:425] fc8 <- fc7
2016-07-30 10:43:21.563 STDERR [INFO] I0730 10:43:19.825628 14514 net.cpp:399] fc8 -> fc8
2016-07-30 10:43:21.563 STDERR [INFO] I0730 10:43:19.839190 14514 net.cpp:141] Setting up fc8
2016-07-30 10:43:21.563 STDERR [INFO] I0730 10:43:19.839244 14514 net.cpp:148] Top shape: 10 1000 (10000)
2016-07-30 10:43:21.564 STDERR [INFO] I0730 10:43:19.839251 14514 net.cpp:156] Memory required for data: 68641400
2016-07-30 10:43:21.564 STDERR [INFO] I0730 10:43:19.839267 14514 layer_factory.hpp:77] Creating layer prob
2016-07-30 10:43:21.564 STDERR [INFO] I0730 10:43:19.839289 14514 net.cpp:91] Creating Layer prob
2016-07-30 10:43:21.564 STDERR [INFO] I0730 10:43:19.839298 14514 net.cpp:425] prob <- fc8
2016-07-30 10:43:21.564 STDERR [INFO] I0730 10:43:19.839318 14514 net.cpp:399] prob -> prob
2016-07-30 10:43:21.564 STDERR [INFO] I0730 10:43:19.839804 14514 net.cpp:141] Setting up prob
2016-07-30 10:43:21.564 STDERR [INFO] I0730 10:43:19.839818 14514 net.cpp:148] Top shape: 10 1000 (10000)
2016-07-30 10:43:21.564 STDERR [INFO] I0730 10:43:19.839823 14514 net.cpp:156] Memory required for data: 68681400
2016-07-30 10:43:21.564 STDERR [INFO] I0730 10:43:19.839828 14514 net.cpp:219] prob does not need backward computation.
2016-07-30 10:43:21.564 STDERR [INFO] I0730 10:43:19.839834 14514 net.cpp:219] fc8 does not need backward computation.
2016-07-30 10:43:21.565 STDERR [INFO] I0730 10:43:19.839839 14514 net.cpp:219] drop7 does not need backward computation.
…
2016-07-30 10:43:21.921 STDERR [INFO] I0730 10:43:21.902060 14503 net.cpp:91] Creating Layer input
2016-07-30 10:43:21.921 STDERR [INFO] I0730 10:43:21.902068 14503 net.cpp:399] input -> frames_fc7
2016-07-30 10:43:21.921 STDERR [INFO] I0730 10:43:21.902088 14503 net.cpp:399] input -> cont_sentence
2016-07-30 10:43:21.921 STDERR [INFO] I0730 10:43:21.902101 14503 net.cpp:399] input -> input_sentence
2016-07-30 10:43:21.921 STDERR [INFO] I0730 10:43:21.902112 14503 net.cpp:399] input -> stage_indicator
2016-07-30 10:43:21.921 STDERR [INFO] I0730 10:43:21.902272 14503 net.cpp:141] Setting up input
2016-07-30 10:43:21.921 STDERR [INFO] I0730 10:43:21.902285 14503 net.cpp:148] Top shape: 1 4096 (4096)
2016-07-30 10:43:21.921 STDERR [INFO] I0730 10:43:21.902292 14503 net.cpp:148] Top shape: 1 1 (1)
2016-07-30 10:43:21.921 STDERR [INFO] I0730 10:43:21.902298 14503 net.cpp:148] Top shape: 1 1 (1)
2016-07-30 10:43:21.921 STDERR [INFO] I0730 10:43:21.902304 14503 net.cpp:148] Top shape: 1 1 (1)
2016-07-30 10:43:21.921 STDERR [INFO] I0730 10:43:21.902309 14503 net.cpp:156] Memory required for data: 16396
2016-07-30 10:43:21.921 STDERR [INFO] I0730 10:43:21.902315 14503 layer_factory.hpp:77] Creating layer cont_sentence_input_1_split
2016-07-30 10:43:21.922 STDERR [INFO] I0730 10:43:21.902334 14503 net.cpp:91] Creating Layer cont_sentence_input_1_split
2016-07-30 10:43:21.922 STDERR [INFO] I0730 10:43:21.902340 14503 net.cpp:425] cont_sentence_input_1_split <- cont_sentence
2016-07-30 10:43:21.922 STDERR [INFO] I0730 10:43:21.902357 14503 net.cpp:399] cont_sentence_input_1_split -> cont_sentence_input_1_split_0
2016-07-30 10:43:21.922 STDERR [INFO] I0730 10:43:21.902369 14503 net.cpp:399] cont_sentence_input_1_split -> cont_sentence_input_1_split_1
2016-07-30 10:43:21.922 STDERR [INFO] I0730 10:43:21.902420 14503 net.cpp:141] Setting up cont_sentence_input_1_split
2016-07-30 10:43:21.922 STDERR [INFO] I0730 10:43:21.902432 14503 net.cpp:148] Top shape: 1 1 (1)
2016-07-30 10:43:21.922 STDERR [INFO] I0730 10:43:21.902438 14503 net.cpp:148] Top shape: 1 1 (1)
2016-07-30 10:43:21.922 STDERR [INFO] I0730 10:43:21.902443 14503 net.cpp:156] Memory required for data: 16404
2016-07-30 10:43:21.922 STDERR [INFO] I0730 10:43:21.902448 14503 layer_factory.hpp:77] Creating layer embed_encoder
2016-07-30 10:43:21.922 STDERR [INFO] I0730 10:43:21.902459 14503 net.cpp:91] Creating Layer embed_encoder
2016-07-30 10:43:21.923 STDERR [INFO] I0730 10:43:21.902465 14503 net.cpp:425] embed_encoder <- frames_fc7
2016-07-30 10:43:21.923 STDERR [INFO] I0730 10:43:21.902474 14503 net.cpp:399] embed_encoder -> embedded_in_frames
2016-07-30 10:43:21.925 STDERR [INFO] I0730 10:43:21.925624 14503 net.cpp:141] Setting up embed_encoder
2016-07-30 10:43:21.925 STDERR [INFO] I0730 10:43:21.925668 14503 net.cpp:148] Top shape: 1 500 (500)
2016-07-30 10:43:21.926 STDERR [INFO] I0730 10:43:21.925673 14503 net.cpp:156] Memory required for data: 18404
2016-07-30 10:43:21.926 STDERR [INFO] I0730 10:43:21.925694 14503 layer_factory.hpp:77] Creating layer reshape_frames
2016-07-30 10:43:21.926 STDERR [INFO] I0730 10:43:21.925714 14503 net.cpp:91] Creating Layer reshape_frames
2016-07-30 10:43:21.926 STDERR [INFO] I0730 10:43:21.925721 14503 net.cpp:425] reshape_frames <- embedded_in_frames
2016-07-30 10:43:21.926 STDERR [INFO] I0730 10:43:21.925734 14503 net.cpp:399] reshape_frames -> embedded_input_frames
2016-07-30 10:43:21.926 STDERR [INFO] I0730 10:43:21.925793 14503 net.cpp:141] Setting up reshape_frames
2016-07-30 10:43:21.926 STDERR [INFO] I0730 10:43:21.925804 14503 net.cpp:148] Top shape: 1 1 500 (500)
2016-07-30 10:43:21.926 STDERR [INFO] I0730 10:43:21.925809 14503 net.cpp:156] Memory required for data: 20404
2016-07-30 10:43:21.926 STDERR [INFO] I0730 10:43:21.925814 14503 layer_factory.hpp:77] Creating layer reshape_stage_indicator
2016-07-30 10:43:21.926 STDERR [INFO] I0730 10:43:21.925827 14503 net.cpp:91] Creating Layer reshape_stage_indicator
2016-07-30 10:43:21.927 STDERR [INFO] I0730 10:43:21.925832 14503 net.cpp:425] reshape_stage_indicator <- stage_indicator
2016-07-30 10:43:21.927 STDERR [INFO] I0730 10:43:21.925842 14503 net.cpp:399] reshape_stage_indicator -> reshaped_stage_indicator
2016-07-30 10:43:21.927 STDERR [INFO] I0730 10:43:21.925889 14503 net.cpp:141] Setting up reshape_stage_indicator
2016-07-30 10:43:21.927 STDERR [INFO] I0730 10:43:21.925900 14503 net.cpp:148] Top shape: 1 1 1 (1)
2016-07-30 10:43:21.927 STDERR [INFO] I0730 10:43:21.925905 14503 net.cpp:156] Memory required for data: 20408
2016-07-30 10:43:21.927 STDERR [INFO] I0730 10:43:21.925910 14503 layer_factory.hpp:77] Creating layer embedding
2016-07-30 10:43:21.927 STDERR [INFO] I0730 10:43:21.925922 14503 net.cpp:91] Creating Layer embedding
2016-07-30 10:43:21.927 STDERR [INFO] I0730 10:43:21.925928 14503 net.cpp:425] embedding <- input_sentence
2016-07-30 10:43:21.927 STDERR [INFO] I0730 10:43:21.925937 14503 net.cpp:399] embedding -> embedded_input_sentence
2016-07-30 10:43:22.170 STDERR [INFO] I0730 10:43:22.170239 14503 net.cpp:141] Setting up embedding
2016-07-30 10:43:22.170 STDERR [INFO] I0730 10:43:22.170289 14503 net.cpp:148] Top shape: 1 1 500 (500)
2016-07-30 10:43:22.170 STDERR [INFO] I0730 10:43:22.170295 14503 net.cpp:156] Memory required for data: 22408
2016-07-30 10:43:22.171 STDERR [INFO] I0730 10:43:22.170315 14503 layer_factory.hpp:77] Creating layer lstm1
2016-07-30 10:43:22.171 STDERR [INFO] I0730 10:43:22.170341 14503 net.cpp:91] Creating Layer lstm1
2016-07-30 10:43:22.171 STDERR [INFO] I0730 10:43:22.170351 14503 net.cpp:425] lstm1 <- embedded_input_frames
…
2016-07-30 10:43:22.185 STDERR [INFO] }
2016-07-30 10:43:22.185 STDERR [INFO] I0730 10:43:22.170955 14503 layer_factory.hpp:77] Creating layer lstm1_
2016-07-30 10:43:22.185 STDERR [INFO] I0730 10:43:22.170974 14503 net.cpp:91] Creating Layer lstm1_
2016-07-30 10:43:22.185 STDERR [INFO] I0730 10:43:22.170980 14503 net.cpp:399] lstm1_ -> x
2016-07-30 10:43:22.185 STDERR [INFO] I0730 10:43:22.170994 14503 net.cpp:399] lstm1_ -> cont
2016-07-30 10:43:22.185 STDERR [INFO] I0730 10:43:22.171064 14503 net.cpp:141] Setting up lstm1_
2016-07-30 10:43:22.185 STDERR [INFO] I0730 10:43:22.171077 14503 net.cpp:148] Top shape: 1 1 500 (500)
2016-07-30 10:43:22.185 STDERR [INFO] I0730 10:43:22.171083 14503 net.cpp:148] Top shape: 1 1 (1)
2016-07-30 10:43:22.186 STDERR [INFO] I0730 10:43:22.171087 14503 net.cpp:156] Memory required for data: 2004
2016-07-30 10:43:22.186 STDERR [INFO] I0730 10:43:22.171093 14503 layer_factory.hpp:77] Creating layer lstm1_
2016-07-30 10:43:22.186 STDERR [INFO] I0730 10:43:22.171106 14503 net.cpp:91] Creating Layer lstm1_
2016-07-30 10:43:22.186 STDERR [INFO] I0730 10:43:22.171113 14503 net.cpp:399] lstm1_ -> c_0
2016-07-30 10:43:22.186 STDERR [INFO] I0730 10:43:22.171124 14503 net.cpp:399] lstm1_ -> h_0
2016-07-30 10:43:22.186 STDERR [INFO] I0730 10:43:22.171180 14503 net.cpp:141] Setting up lstm1_
2016-07-30 10:43:22.186 STDERR [INFO] I0730 10:43:22.171191 14503 net.cpp:148] Top shape: 1 1 1000 (1000)
2016-07-30 10:43:22.186 STDERR [INFO] I0730 10:43:22.171197 14503 net.cpp:148] Top shape: 1 1 1000 (1000)
2016-07-30 10:43:22.186 STDERR [INFO] I0730 10:43:22.171201 14503 net.cpp:156] Memory required for data: 10004
2016-07-30 10:43:22.186 STDERR [INFO] I0730 10:43:22.171206 14503 layer_factory.hpp:77] Creating layer lstm1_cont_slice
2016-07-30 10:43:22.186 STDERR [INFO] I0730 10:43:22.171218 14503 net.cpp:91] Creating Layer lstm1_cont_slice
2016-07-30 10:43:22.187 STDERR [INFO] I0730 10:43:22.171223 14503 net.cpp:425] lstm1_cont_slice <- cont
2016-07-30 10:43:22.187 STDERR [INFO] I0730 10:43:22.171234 14503 net.cpp:399] lstm1_cont_slice -> cont_1
2016-07-30 10:43:22.187 STDERR [INFO] I0730 10:43:22.171278 14503 net.cpp:141] Setting up lstm1_cont_slice
2016-07-30 10:43:22.187 STDERR [INFO] I0730 10:43:22.171288 14503 net.cpp:148] Top shape: 1 1 (1)
2016-07-30 10:43:22.187 STDERR [INFO] I0730 10:43:22.171293 14503 net.cpp:156] Memory required for data: 10008
2016-07-30 10:43:22.187 STDERR [INFO] I0730 10:43:22.171298 14503 layer_factory.hpp:77] Creating layer cont_1_lstm1_cont_slice_0_split
2016-07-30 10:43:22.187 STDERR [INFO] I0730 10:43:22.171308 14503 net.cpp:91] Creating Layer cont_1_lstm1_cont_slice_0_split
2016-07-30 10:43:22.187 STDERR [INFO] I0730 10:43:22.171313 14503 net.cpp:425] cont_1_lstm1_cont_slice_0_split <- cont_1
2016-07-30 10:43:22.187 STDERR [INFO] I0730 10:43:22.171320 14503 net.cpp:399] cont_1_lstm1_cont_slice_0_split -> cont_1_lstm1_cont_slice_0_split_0
2016-07-30 10:43:22.187 STDERR [INFO] I0730 10:43:22.171332 14503 net.cpp:399] cont_1_lstm1_cont_slice_0_split -> cont_1_lstm1_cont_slice_0_split_1
2016-07-30 10:43:22.187 STDERR [INFO] I0730 10:43:22.171386 14503 net.cpp:141] Setting up cont_1_lstm1_cont_slice_0_split
2016-07-30 10:43:22.188 STDERR [INFO] I0730 10:43:22.171394 14503 net.cpp:148] Top shape: 1 1 (1)
2016-07-30 10:43:22.188 STDERR [INFO] I0730 10:43:22.171401 14503 net.cpp:148] Top shape: 1 1 (1)
2016-07-30 10:43:22.188 STDERR [INFO] I0730 10:43:22.171406 14503 net.cpp:156] Memory required for data: 10016
2016-07-30 10:43:22.188 STDERR [INFO] I0730 10:43:22.171411 14503 layer_factory.hpp:77] Creating layer lstm1_x_transform
2016-07-30 10:43:22.188 STDERR [INFO] I0730 10:43:22.171424 14503 net.cpp:91] Creating Layer lstm1_x_transform
2016-07-30 10:43:22.188 STDERR [INFO] I0730 10:43:22.171430 14503 net.cpp:425] lstm1_x_transform <- x
2016-07-30 10:43:22.188 STDERR [INFO] I0730 10:43:22.171438 14503 net.cpp:399] lstm1_x_transform -> W_xc_x
2016-07-30 10:43:22.194 STDERR [INFO] I0730 10:43:22.194142 14503 net.cpp:141] Setting up lstm1_x_transform
2016-07-30 10:43:22.194 STDERR [INFO] I0730 10:43:22.194190 14503 net.cpp:148] Top shape: 1 1 4000 (4000)
2016-07-30 10:43:22.194 STDERR [INFO] I0730 10:43:22.194195 14503 net.cpp:156] Memory required for data: 26016
2016-07-30 10:43:22.194 STDERR [INFO] I0730 10:43:22.194218 14503 layer_factory.hpp:77] Creating layer lstm1_W_xc_x_slice
2016-07-30 10:43:22.194 STDERR [INFO] I0730 10:43:22.194236 14503 net.cpp:91] Creating Layer lstm1_W_xc_x_slice
2016-07-30 10:43:22.194 STDERR [INFO] I0730 10:43:22.194242 14503 net.cpp:425] lstm1_W_xc_x_slice <- W_xc_x
2016-07-30 10:43:22.194 STDERR [INFO] I0730 10:43:22.194257 14503 net.cpp:399] lstm1_W_xc_x_slice -> W_xc_x_1
2016-07-30 10:43:22.195 STDERR [INFO] I0730 10:43:22.194305 14503 net.cpp:141] Setting up lstm1_W_xc_x_slice
2016-07-30 10:43:22.195 STDERR [INFO] I0730 10:43:22.194316 14503 net.cpp:148] Top shape: 1 1 4000 (4000)
2016-07-30 10:43:22.195 STDERR [INFO] I0730 10:43:22.194321 14503 net.cpp:156] Memory required for data: 42016
2016-07-30 10:43:22.195 STDERR [INFO] I0730 10:43:22.194326 14503 layer_factory.hpp:77] Creating layer lstm1_h_conted_0
2016-07-30 10:43:22.195 STDERR [INFO] I0730 10:43:22.194337 14503 net.cpp:91] Creating Layer lstm1_h_conted_0
2016-07-30 10:43:22.195 STDERR [INFO] I0730 10:43:22.194344 14503 net.cpp:425] lstm1_h_conted_0 <- h_0
2016-07-30 10:43:22.195 STDERR [INFO] I0730 10:43:22.194350 14503 net.cpp:425] lstm1_h_conted_0 <- cont_1_lstm1_cont_slice_0_split_0
2016-07-30 10:43:22.195 STDERR [INFO] I0730 10:43:22.194361 14503 net.cpp:399] lstm1_h_conted_0 -> h_conted_0
2016-07-30 10:43:22.195 STDERR [INFO] I0730 10:43:22.194483 14503 net.cpp:141] Setting up lstm1_h_conted_0
2016-07-30 10:43:22.195 STDERR [INFO] I0730 10:43:22.194494 14503 net.cpp:148] Top shape: 1 1 1000 (1000)
2016-07-30 10:43:22.195 STDERR [INFO] I0730 10:43:22.194499 14503 net.cpp:156] Memory required for data: 46016
2016-07-30 10:43:22.196 STDERR [INFO] I0730 10:43:22.194504 14503 layer_factory.hpp:77] Creating layer lstm1_transform_1
2016-07-30 10:43:22.196 STDERR [INFO] I0730 10:43:22.194522 14503 net.cpp:91] Creating Layer lstm1_transform_1
2016-07-30 10:43:22.196 STDERR [INFO] I0730 10:43:22.194528 14503 net.cpp:425] lstm1_transform_1 <- h_conted_0
2016-07-30 10:43:22.196 STDERR [INFO] I0730 10:43:22.194537 14503 net.cpp:399] lstm1_transform_1 -> W_hc_h_0
2016-07-30 10:43:22.214 STDERR [INFO] I0730 10:43:22.214490 14514 upgrade_proto.cpp:60] Successfully upgraded file specified using deprecated V1LayerParameter
2016-07-30 10:43:22.238 STDERR [INFO] I0730 10:43:22.238068 14503 net.cpp:141] Setting up lstm1_transform_1
2016-07-30 10:43:22.238 STDERR [INFO] I0730 10:43:22.238118 14503 net.cpp:148] Top shape: 1 1 4000 (4000)
2016-07-30 10:43:22.238 STDERR [INFO] I0730 10:43:22.238127 14503 net.cpp:156] Memory required for data: 62016
2016-07-30 10:43:22.239 STDERR [INFO] I0730 10:43:22.238147 14503 layer_factory.hpp:77] Creating layer lstm1_gate_input_1
2016-07-30 10:43:22.239 STDERR [INFO] I0730 10:43:22.238175 14503 net.cpp:91] Creating Layer lstm1_gate_input_1
2016-07-30 10:43:22.239 STDERR [INFO] I0730 10:43:22.238184 14503 net.cpp:425] lstm1_gate_input_1 <- W_hc_h_0
2016-07-30 10:43:22.239 STDERR [INFO] I0730 10:43:22.238194 14503 net.cpp:425] lstm1_gate_input_1 <- W_xc_x_1
2016-07-30 10:43:22.239 STDERR [INFO] I0730 10:43:22.238204 14503 net.cpp:399] lstm1_gate_input_1 -> gate_input_1
2016-07-30 10:43:22.239 STDERR [INFO] I0730 10:43:22.238266 14503 net.cpp:141] Setting up lstm1_gate_input_1
2016-07-30 10:43:22.239 STDERR [INFO] I0730 10:43:22.238277 14503 net.cpp:148] Top shape: 1 1 4000 (4000)
2016-07-30 10:43:22.239 STDERR [INFO] I0730 10:43:22.238282 14503 net.cpp:156] Memory required for data: 78016
2016-07-30 10:43:22.239 STDERR [INFO] I0730 10:43:22.238288 14503 layer_factory.hpp:77] Creating layer lstm1_unit_1
2016-07-30 10:43:22.239 STDERR [INFO] I0730 10:43:22.238302 14503 net.cpp:91] Creating Layer lstm1_unit_1
2016-07-30 10:43:22.239 STDERR [INFO] I0730 10:43:22.238308 14503 net.cpp:425] lstm1_unit_1 <- c_0
2016-07-30 10:43:22.240 STDERR [INFO] I0730 10:43:22.238315 14503 net.cpp:425] lstm1_unit_1 <- gate_input_1
2016-07-30 10:43:22.240 STDERR [INFO] I0730 10:43:22.238322 14503 net.cpp:425] lstm1_unit_1 <- cont_1_lstm1_cont_slice_0_split_1
2016-07-30 10:43:22.240 STDERR [INFO] I0730 10:43:22.238330 14503 net.cpp:399] lstm1_unit_1 -> c_1
2016-07-30 10:43:22.240 STDERR [INFO] I0730 10:43:22.238346 14503 net.cpp:399] lstm1_unit_1 -> h_1
2016-07-30 10:43:22.240 STDERR [INFO] I0730 10:43:22.238431 14503 net.cpp:141] Setting up lstm1_unit_1
2016-07-30 10:43:22.240 STDERR [INFO] I0730 10:43:22.238443 14503 net.cpp:148] Top shape: 1 1 1000 (1000)
2016-07-30 10:43:22.240 STDERR [INFO] I0730 10:43:22.238451 14503 net.cpp:148] Top shape: 1 1 1000 (1000)
2016-07-30 10:43:22.241 STDERR [INFO] I0730 10:43:22.238454 14503 net.cpp:156] Memory required for data: 86016
2016-07-30 10:43:22.241 STDERR [INFO] I0730 10:43:22.238461 14503 layer_factory.hpp:77] Creating layer lstm1_
2016-07-30 10:43:22.241 STDERR [INFO] I0730 10:43:22.238471 14503 net.cpp:91] Creating Layer lstm1_
2016-07-30 10:43:22.241 STDERR [INFO] I0730 10:43:22.238476 14503 net.cpp:425] lstm1_ <- c_1
2016-07-30 10:43:22.241 STDERR [INFO] I0730 10:43:22.238486 14503 net.cpp:399] lstm1_ -> c_T
2016-07-30 10:43:22.241 STDERR [INFO] I0730 10:43:22.238520 14503 net.cpp:141] Setting up lstm1_
2016-07-30 10:43:22.241 STDERR [INFO] I0730 10:43:22.238530 14503 net.cpp:148] Top shape: 1 1 1000 (1000)
2016-07-30 10:43:22.241 STDERR [INFO] I0730 10:43:22.238535 14503 net.cpp:156] Memory required for data: 90016
2016-07-30 10:43:22.241 STDERR [INFO] I0730 10:43:22.238540 14503 layer_factory.hpp:77] Creating layer lstm1_h_concat
2016-07-30 10:43:22.241 STDERR [INFO] I0730 10:43:22.238551 14503 net.cpp:91] Creating Layer lstm1_h_concat
2016-07-30 10:43:22.241 STDERR [INFO] I0730 10:43:22.238556 14503 net.cpp:425] lstm1_h_concat <- h_1
2016-07-30 10:43:22.241 STDERR [INFO] I0730 10:43:22.238564 14503 net.cpp:399] lstm1_h_concat -> h
2016-07-30 10:43:22.242 STDERR [INFO] I0730 10:43:22.238613 14503 net.cpp:141] Setting up lstm1_h_concat
2016-07-30 10:43:22.242 STDERR [INFO] I0730 10:43:22.238623 14503 net.cpp:148] Top shape: 1 1 1000 (1000)
2016-07-30 10:43:22.242 STDERR [INFO] I0730 10:43:22.238628 14503 net.cpp:156] Memory required for data: 94016
2016-07-30 10:43:22.242 STDERR [INFO] I0730 10:43:22.238633 14503 layer_factory.hpp:77] Creating layer h_pseudoloss
2016-07-30 10:43:22.242 STDERR [INFO] I0730 10:43:22.238648 14503 net.cpp:91] Creating Layer h_pseudoloss
2016-07-30 10:43:22.242 STDERR [INFO] I0730 10:43:22.238653 14503 net.cpp:425] h_pseudoloss <- h
…
2016-07-30 10:43:22.258 STDERR [INFO] }
2016-07-30 10:43:22.258 STDERR [INFO] I0730 10:43:22.239935 14503 layer_factory.hpp:77] Creating layer lstm2_
2016-07-30 10:43:22.258 STDERR [INFO] I0730 10:43:22.239950 14503 net.cpp:91] Creating Layer lstm2_
2016-07-30 10:43:22.258 STDERR [INFO] I0730 10:43:22.239958 14503 net.cpp:399] lstm2_ -> x
2016-07-30 10:43:22.258 STDERR [INFO] I0730 10:43:22.239970 14503 net.cpp:399] lstm2_ -> cont
2016-07-30 10:43:22.258 STDERR [INFO] I0730 10:43:22.240032 14503 net.cpp:141] Setting up lstm2_
2016-07-30 10:43:22.259 STDERR [INFO] I0730 10:43:22.240043 14503 net.cpp:148] Top shape: 1 1 1501 (1501)
2016-07-30 10:43:22.259 STDERR [INFO] I0730 10:43:22.240051 14503 net.cpp:148] Top shape: 1 1 (1)
2016-07-30 10:43:22.259 STDERR [INFO] I0730 10:43:22.240054 14503 net.cpp:156] Memory required for data: 6008
2016-07-30 10:43:22.259 STDERR [INFO] I0730 10:43:22.240061 14503 layer_factory.hpp:77] Creating layer lstm2_
2016-07-30 10:43:22.259 STDERR [INFO] I0730 10:43:22.240073 14503 net.cpp:91] Creating Layer lstm2_
2016-07-30 10:43:22.259 STDERR [INFO] I0730 10:43:22.240082 14503 net.cpp:399] lstm2_ -> c_0
2016-07-30 10:43:22.259 STDERR [INFO] I0730 10:43:22.240092 14503 net.cpp:399] lstm2_ -> h_0
2016-07-30 10:43:22.259 STDERR [INFO] I0730 10:43:22.240161 14503 net.cpp:141] Setting up lstm2_
2016-07-30 10:43:22.259 STDERR [INFO] I0730 10:43:22.240173 14503 net.cpp:148] Top shape: 1 1 1000 (1000)
2016-07-30 10:43:22.259 STDERR [INFO] I0730 10:43:22.240180 14503 net.cpp:148] Top shape: 1 1 1000 (1000)
2016-07-30 10:43:22.259 STDERR [INFO] I0730 10:43:22.240185 14503 net.cpp:156] Memory required for data: 14008
2016-07-30 10:43:22.259 STDERR [INFO] I0730 10:43:22.240190 14503 layer_factory.hpp:77] Creating layer lstm2_cont_slice
2016-07-30 10:43:22.260 STDERR [INFO] I0730 10:43:22.240200 14503 net.cpp:91] Creating Layer lstm2_cont_slice
2016-07-30 10:43:22.260 STDERR [INFO] I0730 10:43:22.240206 14503 net.cpp:425] lstm2_cont_slice <- cont
2016-07-30 10:43:22.260 STDERR [INFO] I0730 10:43:22.240214 14503 net.cpp:399] lstm2_cont_slice -> cont_1
2016-07-30 10:43:22.260 STDERR [INFO] I0730 10:43:22.240257 14503 net.cpp:141] Setting up lstm2_cont_slice
2016-07-30 10:43:22.260 STDERR [INFO] I0730 10:43:22.240267 14503 net.cpp:148] Top shape: 1 1 (1)
2016-07-30 10:43:22.260 STDERR [INFO] I0730 10:43:22.240272 14503 net.cpp:156] Memory required for data: 14012
2016-07-30 10:43:22.260 STDERR [INFO] I0730 10:43:22.240278 14503 layer_factory.hpp:77] Creating layer cont_1_lstm2_cont_slice_0_split
2016-07-30 10:43:22.260 STDERR [INFO] I0730 10:43:22.240285 14503 net.cpp:91] Creating Layer cont_1_lstm2_cont_slice_0_split
2016-07-30 10:43:22.260 STDERR [INFO] I0730 10:43:22.240291 14503 net.cpp:425] cont_1_lstm2_cont_slice_0_split <- cont_1
2016-07-30 10:43:22.260 STDERR [INFO] I0730 10:43:22.240301 14503 net.cpp:399] cont_1_lstm2_cont_slice_0_split -> cont_1_lstm2_cont_slice_0_split_0
2016-07-30 10:43:22.261 STDERR [INFO] I0730 10:43:22.240310 14503 net.cpp:399] cont_1_lstm2_cont_slice_0_split -> cont_1_lstm2_cont_slice_0_split_1
2016-07-30 10:43:22.261 STDERR [INFO] I0730 10:43:22.240361 14503 net.cpp:141] Setting up cont_1_lstm2_cont_slice_0_split
2016-07-30 10:43:22.261 STDERR [INFO] I0730 10:43:22.240370 14503 net.cpp:148] Top shape: 1 1 (1)
2016-07-30 10:43:22.261 STDERR [INFO] I0730 10:43:22.240376 14503 net.cpp:148] Top shape: 1 1 (1)
2016-07-30 10:43:22.261 STDERR [INFO] I0730 10:43:22.240381 14503 net.cpp:156] Memory required for data: 14020
2016-07-30 10:43:22.261 STDERR [INFO] I0730 10:43:22.240386 14503 layer_factory.hpp:77] Creating layer lstm2_x_transform
2016-07-30 10:43:22.261 STDERR [INFO] I0730 10:43:22.240401 14503 net.cpp:91] Creating Layer lstm2_x_transform
2016-07-30 10:43:22.261 STDERR [INFO] I0730 10:43:22.240406 14503 net.cpp:425] lstm2_x_transform <- x
2016-07-30 10:43:22.261 STDERR [INFO] I0730 10:43:22.240417 14503 net.cpp:399] lstm2_x_transform -> W_xc_x
2016-07-30 10:43:22.269 STDERR [INFO] I0730 10:43:22.269161 14514 net.cpp:752] Ignoring source layer loss
2016-07-30 10:43:22.305 STDERR [INFO] I0730 10:43:22.304880 14503 net.cpp:141] Setting up lstm2_x_transform
2016-07-30 10:43:22.305 STDERR [INFO] I0730 10:43:22.304927 14503 net.cpp:148] Top shape: 1 1 4000 (4000)
2016-07-30 10:43:22.305 STDERR [INFO] I0730 10:43:22.304934 14503 net.cpp:156] Memory required for data: 30020
2016-07-30 10:43:22.305 STDERR [INFO] I0730 10:43:22.304957 14503 layer_factory.hpp:77] Creating layer lstm2_W_xc_x_slice
2016-07-30 10:43:22.305 STDERR [INFO] I0730 10:43:22.304975 14503 net.cpp:91] Creating Layer lstm2_W_xc_x_slice
2016-07-30 10:43:22.306 STDERR [INFO] I0730 10:43:22.304982 14503 net.cpp:425] lstm2_W_xc_x_slice <- W_xc_x
2016-07-30 10:43:22.306 STDERR [INFO] I0730 10:43:22.304992 14503 net.cpp:399] lstm2_W_xc_x_slice -> W_xc_x_1
2016-07-30 10:43:22.306 STDERR [INFO] I0730 10:43:22.305047 14503 net.cpp:141] Setting up lstm2_W_xc_x_slice
2016-07-30 10:43:22.306 STDERR [INFO] I0730 10:43:22.305058 14503 net.cpp:148] Top shape: 1 1 4000 (4000)
2016-07-30 10:43:22.306 STDERR [INFO] I0730 10:43:22.305063 14503 net.cpp:156] Memory required for data: 46020
2016-07-30 10:43:22.306 STDERR [INFO] I0730 10:43:22.305068 14503 layer_factory.hpp:77] Creating layer lstm2_h_conted_0
2016-07-30 10:43:22.306 STDERR [INFO] I0730 10:43:22.305081 14503 net.cpp:91] Creating Layer lstm2_h_conted_0
2016-07-30 10:43:22.306 STDERR [INFO] I0730 10:43:22.305086 14503 net.cpp:425] lstm2_h_conted_0 <- h_0
2016-07-30 10:43:22.306 STDERR [INFO] I0730 10:43:22.305094 14503 net.cpp:425] lstm2_h_conted_0 <- cont_1_lstm2_cont_slice_0_split_0
2016-07-30 10:43:22.307 STDERR [INFO] I0730 10:43:22.305101 14503 net.cpp:399] lstm2_h_conted_0 -> h_conted_0
2016-07-30 10:43:22.307 STDERR [INFO] I0730 10:43:22.305207 14503 net.cpp:141] Setting up lstm2_h_conted_0
2016-07-30 10:43:22.307 STDERR [INFO] I0730 10:43:22.305217 14503 net.cpp:148] Top shape: 1 1 1000 (1000)
2016-07-30 10:43:22.307 STDERR [INFO] I0730 10:43:22.305222 14503 net.cpp:156] Memory required for data: 50020
2016-07-30 10:43:22.307 STDERR [INFO] I0730 10:43:22.305227 14503 layer_factory.hpp:77] Creating layer lstm2_transform_1
2016-07-30 10:43:22.307 STDERR [INFO] I0730 10:43:22.305239 14503 net.cpp:91] Creating Layer lstm2_transform_1
2016-07-30 10:43:22.307 STDERR [INFO] I0730 10:43:22.305245 14503 net.cpp:425] lstm2_transform_1 <- h_conted_0
2016-07-30 10:43:22.307 STDERR [INFO] I0730 10:43:22.305254 14503 net.cpp:399] lstm2_transform_1 -> W_hc_h_0
2016-07-30 10:43:22.349 STDERR [INFO] I0730 10:43:22.349223 14503 net.cpp:141] Setting up lstm2_transform_1
2016-07-30 10:43:22.349 STDERR [INFO] I0730 10:43:22.349267 14503 net.cpp:148] Top shape: 1 1 4000 (4000)
2016-07-30 10:43:22.350 STDERR [INFO] I0730 10:43:22.349274 14503 net.cpp:156] Memory required for data: 66020
2016-07-30 10:43:22.350 STDERR [INFO] I0730 10:43:22.349293 14503 layer_factory.hpp:77] Creating layer lstm2_gate_input_1
2016-07-30 10:43:22.350 STDERR [INFO] I0730 10:43:22.349314 14503 net.cpp:91] Creating Layer lstm2_gate_input_1
2016-07-30 10:43:22.350 STDERR [INFO] I0730 10:43:22.349323 14503 net.cpp:425] lstm2_gate_input_1 <- W_hc_h_0
2016-07-30 10:43:22.350 STDERR [INFO] I0730 10:43:22.349331 14503 net.cpp:425] lstm2_gate_input_1 <- W_xc_x_1
2016-07-30 10:43:22.350 STDERR [INFO] I0730 10:43:22.349346 14503 net.cpp:399] lstm2_gate_input_1 -> gate_input_1
2016-07-30 10:43:22.350 STDERR [INFO] I0730 10:43:22.349398 14503 net.cpp:141] Setting up lstm2_gate_input_1
2016-07-30 10:43:22.350 STDERR [INFO] I0730 10:43:22.349426 14503 net.cpp:148] Top shape: 1 1 4000 (4000)
2016-07-30 10:43:22.350 STDERR [INFO] I0730 10:43:22.349431 14503 net.cpp:156] Memory required for data: 82020
2016-07-30 10:43:22.350 STDERR [INFO] I0730 10:43:22.349436 14503 layer_factory.hpp:77] Creating layer lstm2_unit_1
2016-07-30 10:43:22.350 STDERR [INFO] I0730 10:43:22.349447 14503 net.cpp:91] Creating Layer lstm2_unit_1
2016-07-30 10:43:22.350 STDERR [INFO] I0730 10:43:22.349452 14503 net.cpp:425] lstm2_unit_1 <- c_0
2016-07-30 10:43:22.351 STDERR [INFO] I0730 10:43:22.349459 14503 net.cpp:425] lstm2_unit_1 <- gate_input_1
2016-07-30 10:43:22.351 STDERR [INFO] I0730 10:43:22.349465 14503 net.cpp:425] lstm2_unit_1 <- cont_1_lstm2_cont_slice_0_split_1
2016-07-30 10:43:22.351 STDERR [INFO] I0730 10:43:22.349472 14503 net.cpp:399] lstm2_unit_1 -> c_1
2016-07-30 10:43:22.351 STDERR [INFO] I0730 10:43:22.349483 14503 net.cpp:399] lstm2_unit_1 -> h_1
2016-07-30 10:43:22.351 STDERR [INFO] I0730 10:43:22.349555 14503 net.cpp:141] Setting up lstm2_unit_1
2016-07-30 10:43:22.351 STDERR [INFO] I0730 10:43:22.349565 14503 net.cpp:148] Top shape: 1 1 1000 (1000)
2016-07-30 10:43:22.351 STDERR [INFO] I0730 10:43:22.349572 14503 net.cpp:148] Top shape: 1 1 1000 (1000)
2016-07-30 10:43:22.351 STDERR [INFO] I0730 10:43:22.349576 14503 net.cpp:156] Memory required for data: 90020
2016-07-30 10:43:22.351 STDERR [INFO] I0730 10:43:22.349581 14503 layer_factory.hpp:77] Creating layer lstm2_
2016-07-30 10:43:22.351 STDERR [INFO] I0730 10:43:22.349592 14503 net.cpp:91] Creating Layer lstm2_
2016-07-30 10:43:22.352 STDERR [INFO] I0730 10:43:22.349597 14503 net.cpp:425] lstm2_ <- c_1
2016-07-30 10:43:22.352 STDERR [INFO] I0730 10:43:22.349606 14503 net.cpp:399] lstm2_ -> c_T
2016-07-30 10:43:22.352 STDERR [INFO] I0730 10:43:22.349639 14503 net.cpp:141] Setting up lstm2_
2016-07-30 10:43:22.352 STDERR [INFO] I0730 10:43:22.349652 14503 net.cpp:148] Top shape: 1 1 1000 (1000)
2016-07-30 10:43:22.352 STDERR [INFO] I0730 10:43:22.349656 14503 net.cpp:156] Memory required for data: 94020
2016-07-30 10:43:22.355 STDERR [INFO] I0730 10:43:22.349663 14503 layer_factory.hpp:77] Creating layer lstm2_h_concat
2016-07-30 10:43:22.355 STDERR [INFO] I0730 10:43:22.349673 14503 net.cpp:91] Creating Layer lstm2_h_concat
2016-07-30 10:43:22.355 STDERR [INFO] I0730 10:43:22.349678 14503 net.cpp:425] lstm2_h_concat <- h_1
2016-07-30 10:43:22.355 STDERR [INFO] I0730 10:43:22.349689 14503 net.cpp:399] lstm2_h_concat -> h
2016-07-30 10:43:22.355 STDERR [INFO] I0730 10:43:22.349727 14503 net.cpp:141] Setting up lstm2_h_concat
2016-07-30 10:43:22.355 STDERR [INFO] I0730 10:43:22.349736 14503 net.cpp:148] Top shape: 1 1 1000 (1000)
2016-07-30 10:43:22.355 STDERR [INFO] I0730 10:43:22.349741 14503 net.cpp:156] Memory required for data: 98020
2016-07-30 10:43:22.355 STDERR [INFO] I0730 10:43:22.349746 14503 layer_factory.hpp:77] Creating layer h_pseudoloss
2016-07-30 10:43:22.355 STDERR [INFO] I0730 10:43:22.349759 14503 net.cpp:91] Creating Layer h_pseudoloss
2016-07-30 10:43:22.356 STDERR [INFO] I0730 10:43:22.349764 14503 net.cpp:425] h_pseudoloss <- h
…
