…
Java HotSpot(TM) 64-Bit Server VM warning: You have loaded library /home/peifeng/work/run/storm102/data/workers/edfaf8d3-0eb0-47de-a2f2-ae46f8c72685/tmp/cvld5833817900380144570/libopencv_java310.xine1.so which might have disabled stack guard. The VM will try to fix the stack guard now.
It's highly recommended that you fix the library with 'execstack -c <libfile>', or link it with '-z noexecstack'.
WARNING: Logging before InitGoogleLogging() is written to STDERR
I0915 12:00:04.105304 30406 net.cpp:49] Initializing net from parameters: 
name: "GoogleNet"
state {
  phase: TEST
}
layer {
  name: "data"
  type: "Input"
  top: "data"
  input_param {
    shape {
      dim: 10
      dim: 3
      dim: 224
      dim: 224
    }
  }
}
layer {
  name: "conv1/7x7_s2"
  type: "Convolution"
  bottom: "data"
  top: "conv1/7x7_s2"
  param {
    lr_mult: 1
    decay_mult: 1
  }
  param {
    lr_mult: 2
    decay_mult: 0
  }
  convolution_param {
    num_output: 64
    pad: 3
    kernel_size: 7
    stride: 2
    weight_filler {
      type: "xavier"
      std: 0.1
    }
    bias_filler {
      type: "constant"
      value: 0.2
    }
  }
}
layer {
  name: "conv1/relu_7x7"
  type: "ReLU"
  bottom: "conv1/7x7_s2"
  top: "conv1/7x7_s2"
}
layer {
  name: "pool1/3x3_s2"
  type: "Pooling"
  bottom: "conv1/7x7_s2"
  top: "pool1/3x3_s2"
  pooling_param {
    pool: MAX
    kernel_size: 3
    stride: 2
  }
}
layer {
  name: "pool1/norm1"
  type: "LRN"
  bottom: "pool1/3x3_s2"
  top: "pool1/norm1"
  lrn_param {
    local_size: 5
    alpha: 0.0001
    beta: 0.75
  }
}
layer {
  name: "conv2/3x3_reduce"
  type: "Convolution"
  bottom: "pool1/norm1"
  top: "conv2/3x3_reduce"
  param {
    lr_mult: 1
    decay_mult: 1
  }
  param {
    lr_mult: 2
    decay_mult: 0
  }
  convolution_param {
    num_output: 64
    kernel_size: 1
    weight_filler {
      type: "xavier"
      std: 0.1
    }
    bias_filler {
      type: "constant"
      value: 0.2
    }
  }
}
layer {
  name: "conv2/relu_3x3_reduce"
  type: "ReLU"
  bottom: "conv2/3x3_reduce"
  top: "conv2/3x3_reduce"
}
layer {
  name: "conv2/3x3"
  type: "Convolution"
  bottom: "conv2/3x3_reduce"
  top: "conv2/3x3"
  param {
    lr_mult: 1
    decay_mult: 1
  }
  param {
    lr_mult: 2
    decay_mult: 0
  }
  convolution_param {
    num_output: 192
    pad: 1
    kernel_size: 3
    weight_filler {
      type: "xavier"
      std: 0.03
    }
    bias_filler {
      type: "constant"
      value: 0.2
    }
  }
}
layer {
  name: "conv2/relu_3x3"
  type: "ReLU"
  bottom: "conv2/3x3"
  top: "conv2/3x3"
}
layer {
  name: "conv2/norm2"
  type: "LRN"
  bottom: "conv2/3x3"
  top: "conv2/norm2"
  lrn_param {
    local_size: 5
    alpha: 0.0001
    beta: 0.75
  }
}
layer {
  name: "pool2/3x3_s2"
  type: "Pooling"
  bottom: "conv2/norm2"
  top: "pool2/3x3_s2"
  pooling_param {
    pool: MAX
    kernel_size: 3
    stride: 2
  }
}
layer {
  name: "inception_3a/1x1"
  type: "Convolution"
  bottom: "pool2/3x3_s2"
  top: "inception_3a/1x1"
  param {
    lr_mult: 1
    decay_mult: 1
  }
  param {
    lr_mult: 2
    decay_mult: 0
  }
  convolution_param {
    num_output: 64
    kernel_size: 1
    weight_filler {
      type: "xavier"
      std: 0.03
    }
    bias_filler {
      type: "constant"
      value: 0.2
    }
  }
}
layer {
  name: "inception_3a/relu_1x1"
  type: "ReLU"
  bottom: "inception_3a/1x1"
  top: "inception_3a/1x1"
}
layer {
  name: "inception_3a/3x3_reduce"
  type: "Convolution"
  bottom: "pool2/3x3_s2"
  top: "inception_3a/3x3_reduce"
  param {
    lr_mult: 1
    decay_mult: 1
  }
  param {
    lr_mult: 2
    decay_mult: 0
  }
  convolution_param {
    num_output: 96
    kernel_size: 1
    weight_filler {
      type: "xavier"
      std: 0.09
    }
    bias_filler {
      type: "constant"
      value: 0.2
    }
  }
}
layer {
  name: "inception_3a/relu_3x3_reduce"
  type: "ReLU"
  bottom: "inception_3a/3x3_reduce"
  top: "inception_3a/3x3_reduce"
}
layer {
  name: "inception_3a/3x3"
  type: "Convolution"
  bottom: "inception_3a/3x3_reduce"
  top: "inception_3a/3x3"
  param {
    lr_mult: 1
    decay_mult: 1
  }
  param {
    lr_mult: 2
    decay_mult: 0
  }
  convolution_param {
    num_output: 128
    pad: 1
    kernel_size: 3
    weight_filler {
      type: "xavier"
      std: 0.03
    }
    bias_filler {
      type: "constant"
      value: 0.2
    }
  }
}
layer {
  name: "inception_3a/relu_3x3"
  type: "ReLU"
  bottom: "inception_3a/3x3"
  top: "inception_3a/3x3"
}
layer {
  name: "inception_3a/5x5_reduce"
  type: "Convolution"
  bottom: "pool2/3x3_s2"
  top: "inception_3a/5x5_reduce"
  param {
    lr_mult: 1
    decay_mult: 1
  }
  param {
    lr_mult: 2
    decay_mult: 0
  }
  convolution_param {
    num_output: 16
    kernel_size: 1
    weight_filler {
      type: "xavier"
      std: 0.2
    }
    bias_filler {
      type: "constant"
      value: 0.2
    }
  }
}
layer {
  name: "inception_3a/relu_5x5_reduce"
  type: "ReLU"
  bottom: "inception_3a/5x5_reduce"
  top: "inception_3a/5x5_reduce"
}
layer {
  name: "inception_3a/5x5"
  type: "Convolution"
  bottom: "inception_3a/5x5_reduce"
  top: "inception_3a/5x5"
  param {
    lr_mult: 1
    decay_mult: 1
  }
  param {
    lr_mult: 2
    decay_mult: 0
  }
  convolution_param {
    num_output: 32
    pad: 2
    kernel_size: 5
    weight_filler {
      type: "xavier"
      std: 0.03
    }
    bias_filler {
      type: "constant"
      value: 0.2
    }
  }
}
layer {
  name: "inception_3a/relu_5x5"
  type: "ReLU"
  bottom: "inception_3a/5x5"
  top: "inception_3a/5x5"
}
layer {
  name: "inception_3a/pool"
  type: "Pooling"
  bottom: "pool2/3x3_s2"
  top: "inception_3a/pool"
  pooling_param {
    pool: MAX
    kernel_size: 3
    stride: 1
    pad: 1
  }
}
layer {
  name: "inception_3a/pool_proj"
  type: "Convolution"
  bottom: "inception_3a/pool"
  top: "inception_3a/pool_proj"
  param {
    lr_mult: 1
    decay_mult: 1
  }
  param {
    lr_mult: 2
    decay_mult: 0
  }
  convolution_param {
    num_output: 32
    kernel_size: 1
    weight_filler {
      type: "xavier"
      std: 0.1
    }
    bias_filler {
      type: "constant"
      value: 0.2
    }
  }
}
layer {
  name: "inception_3a/relu_pool_proj"
  type: "ReLU"
  bottom: "inception_3a/pool_proj"
  top: "inception_3a/pool_proj"
}
layer {
  name: "inception_3a/output"
  type: "Concat"
  bottom: "inception_3a/1x1"
  bottom: "inception_3a/3x3"
  bottom: "inception_3a/5x5"
  bottom: "inception_3a/pool_proj"
  top: "inception_3a/output"
}
layer {
  name: "inception_3b/1x1"
  type: "Convolution"
  bottom: "inception_3a/output"
  top: "inception_3b/1x1"
  param {
    lr_mult: 1
    decay_mult: 1
  }
  param {
    lr_mult: 2
    decay_mult: 0
  }
  convolution_param {
    num_output: 128
    kernel_size: 1
    weight_filler {
      type: "xavier"
      std: 0.03
    }
    bias_filler {
      type: "constant"
      value: 0.2
    }
  }
}
layer {
  name: "inception_3b/relu_1x1"
  type: "ReLU"
  bottom: "inception_3b/1x1"
  top: "inception_3b/1x1"
}
layer {
  name: "inception_3b/3x3_reduce"
  type: "Convolution"
  bottom: "inception_3a/output"
  top: "inception_3b/3x3_reduce"
  param {
    lr_mult: 1
    decay_mult: 1
  }
  param {
    lr_mult: 2
    decay_mult: 0
  }
  convolution_param {
    num_output: 128
    kernel_size: 1
    weight_filler {
      type: "xavier"
      std: 0.09
    }
    bias_filler {
      type: "constant"
      value: 0.2
    }
  }
}
layer {
  name: "inception_3b/relu_3x3_reduce"
  type: "ReLU"
  bottom: "inception_3b/3x3_reduce"
  top: "inception_3b/3x3_reduce"
}
layer {
  name: "inception_3b/3x3"
  type: "Convolution"
  bottom: "inception_3b/3x3_reduce"
  top: "inception_3b/3x3"
  param {
    lr_mult: 1
    decay_mult: 1
  }
  param {
    lr_mult: 2
    decay_mult: 0
  }
  convolution_param {
    num_output: 192
    pad: 1
    kernel_size: 3
    weight_filler {
      type: "xavier"
      std: 0.03
    }
    bias_filler {
      type: "constant"
      value: 0.2
    }
  }
}
layer {
  name: "inception_3b/relu_3x3"
  type: "ReLU"
  bottom: "inception_3b/3x3"
  top: "inception_3b/3x3"
}
layer {
  name: "inception_3b/5x5_reduce"
  type: "Convolution"
  bottom: "inception_3a/output"
  top: "inception_3b/5x5_reduce"
  param {
    lr_mult: 1
    decay_mult: 1
  }
  param {
    lr_mult: 2
    decay_mult: 0
  }
  convolution_param {
    num_output: 32
    kernel_size: 1
    weight_filler {
      type: "xavier"
      std: 0.2
    }
    bias_filler {
      type: "constant"
      value: 0.2
    }
  }
}
layer {
  name: "inception_3b/relu_5x5_reduce"
  type: "ReLU"
  bottom: "inception_3b/5x5_reduce"
  top: "inception_3b/5x5_reduce"
}
layer {
  name: "inception_3b/5x5"
  type: "Convolution"
  bottom: "inception_3b/5x5_reduce"
  top: "inception_3b/5x5"
  param {
    lr_mult: 1
    decay_mult: 1
  }
  param {
    lr_mult: 2
    decay_mult: 0
  }
  convolution_param {
    num_output: 96
    pad: 2
    kernel_size: 5
    weight_filler {
      type: "xavier"
      std: 0.03
    }
    bias_filler {
      type: "constant"
      value: 0.2
    }
  }
}
layer {
  name: "inception_3b/relu_5x5"
  type: "ReLU"
  bottom: "inception_3b/5x5"
  top: "inception_3b/5x5"
}
layer {
  name: "inception_3b/pool"
  type: "Pooling"
  bottom: "inception_3a/output"
  top: "inception_3b/pool"
  pooling_param {
    pool: MAX
    kernel_size: 3
    stride: 1
    pad: 1
  }
}
layer {
  name: "inception_3b/pool_proj"
  type: "Convolution"
  bottom: "inception_3b/pool"
  top: "inception_3b/pool_proj"
  param {
    lr_mult: 1
    decay_mult: 1
  }
  param {
    lr_mult: 2
    decay_mult: 0
  }
  convolution_param {
    num_output: 64
    kernel_size: 1
    weight_filler {
      type: "xavier"
      std: 0.1
    }
    bias_filler {
      type: "constant"
      value: 0.2
    }
  }
}
layer {
  name: "inception_3b/relu_pool_proj"
  type: "ReLU"
  bottom: "inception_3b/pool_proj"
  top: "inception_3b/pool_proj"
}
layer {
  name: "inception_3b/output"
  type: "Concat"
  bottom: "inception_3b/1x1"
  bottom: "inception_3b/3x3"
  bottom: "inception_3b/5x5"
  bottom: "inception_3b/pool_proj"
  top: "inception_3b/output"
}
layer {
  name: "pool3/3x3_s2"
  type: "Pooling"
  bottom: "inception_3b/output"
  top: "pool3/3x3_s2"
  pooling_param {
    pool: MAX
    kernel_size: 3
    stride: 2
  }
}
layer {
  name: "inception_4a/1x1"
  type: "Convolution"
  bottom: "pool3/3x3_s2"
  top: "inception_4a/1x1"
  param {
    lr_mult: 1
    decay_mult: 1
  }
  param {
    lr_mult: 2
    decay_mult: 0
  }
  convolution_param {
    num_output: 192
    kernel_size: 1
    weight_filler {
      type: "xavier"
      std: 0.03
    }
    bias_filler {
      type: "constant"
      value: 0.2
    }
  }
}
layer {
  name: "inception_4a/relu_1x1"
  type: "ReLU"
  bottom: "inception_4a/1x1"
  top: "inception_4a/1x1"
}
layer {
  name: "inception_4a/3x3_reduce"
  type: "Convolution"
  bottom: "pool3/3x3_s2"
  top: "inception_4a/3x3_reduce"
  param {
    lr_mult: 1
    decay_mult: 1
  }
  param {
    lr_mult: 2
    decay_mult: 0
  }
  convolution_param {
    num_output: 96
    kernel_size: 1
    weight_filler {
      type: "xavier"
      std: 0.09
    }
    bias_filler {
      type: "constant"
      value: 0.2
    }
  }
}
layer {
  name: "inception_4a/relu_3x3_reduce"
  type: "ReLU"
  bottom: "inception_4a/3x3_reduce"
  top: "inception_4a/3x3_reduce"
}
layer {
  name: "inception_4a/3x3"
  type: "Convolution"
  bottom: "inception_4a/3x3_reduce"
  top: "inception_4a/3x3"
  param {
    lr_mult: 1
    decay_mult: 1
  }
  param {
    lr_mult: 2
    decay_mult: 0
  }
  convolution_param {
    num_output: 208
    pad: 1
    kernel_size: 3
    weight_filler {
      type: "xavier"
      std: 0.03
    }
    bias_filler {
      type: "constant"
      value: 0.2
    }
  }
}
layer {
  name: "inception_4a/relu_3x3"
  type: "ReLU"
  bottom: "inception_4a/3x3"
  top: "inception_4a/3x3"
}
layer {
  name: "inception_4a/5x5_reduce"
  type: "Convolution"
  bottom: "pool3/3x3_s2"
  top: "inception_4a/5x5_reduce"
  param {
    lr_mult: 1
    decay_mult: 1
  }
  param {
    lr_mult: 2
    decay_mult: 0
  }
  convolution_param {
    num_output: 16
    kernel_size: 1
    weight_filler {
      type: "xavier"
      std: 0.2
    }
    bias_filler {
      type: "constant"
      value: 0.2
    }
  }
}
layer {
  name: "inception_4a/relu_5x5_reduce"
  type: "ReLU"
  bottom: "inception_4a/5x5_reduce"
  top: "inception_4a/5x5_reduce"
}
layer {
  name: "inception_4a/5x5"
  type: "Convolution"
  bottom: "inception_4a/5x5_reduce"
  top: "inception_4a/5x5"
  param {
    lr_mult: 1
    decay_mult: 1
  }
  param {
    lr_mult: 2
    decay_mult: 0
  }
  convolution_param {
    num_output: 48
    pad: 2
    kernel_size: 5
    weight_filler {
      type: "xavier"
      std: 0.03
    }
    bias_filler {
      type: "constant"
      value: 0.2
    }
  }
}
layer {
  name: "inception_4a/relu_5x5"
  type: "ReLU"
  bottom: "inception_4a/5x5"
  top: "inception_4a/5x5"
}
layer {
  name: "inception_4a/pool"
  type: "Pooling"
  bottom: "pool3/3x3_s2"
  top: "inception_4a/pool"
  pooling_param {
    pool: MAX
    kernel_size: 3
    stride: 1
    pad: 1
  }
}
layer {
  name: "inception_4a/pool_proj"
  type: "Convolution"
  bottom: "inception_4a/pool"
  top: "inception_4a/pool_proj"
  param {
    lr_mult: 1
    decay_mult: 1
  }
  param {
    lr_mult: 2
    decay_mult: 0
  }
  convolution_param {
    num_output: 64
    kernel_size: 1
    weight_filler {
      type: "xavier"
      std: 0.1
    }
    bias_filler {
      type: "constant"
      value: 0.2
    }
  }
}
layer {
  name: "inception_4a/relu_pool_proj"
  type: "ReLU"
  bottom: "inception_4a/pool_proj"
  top: "inception_4a/pool_proj"
}
layer {
  name: "inception_4a/output"
  type: "Concat"
  bottom: "inception_4a/1x1"
  bottom: "inception_4a/3x3"
  bottom: "inception_4a/5x5"
  bottom: "inception_4a/pool_proj"
  top: "inception_4a/output"
}
layer {
  name: "inception_4b/1x1"
  type: "Convolution"
  bottom: "inception_4a/output"
  top: "inception_4b/1x1"
  param {
    lr_mult: 1
    decay_mult: 1
  }
  param {
    lr_mult: 2
    decay_mult: 0
  }
  convolution_param {
    num_output: 160
    kernel_size: 1
    weight_filler {
      type: "xavier"
      std: 0.03
    }
    bias_filler {
      type: "constant"
      value: 0.2
    }
  }
}
layer {
  name: "inception_4b/relu_1x1"
  type: "ReLU"
  bottom: "inception_4b/1x1"
  top: "inception_4b/1x1"
}
layer {
  name: "inception_4b/3x3_reduce"
  type: "Convolution"
  bottom: "inception_4a/output"
  top: "inception_4b/3x3_reduce"
  param {
    lr_mult: 1
    decay_mult: 1
  }
  param {
    lr_mult: 2
    decay_mult: 0
  }
  convolution_param {
    num_output: 112
    kernel_size: 1
    weight_filler {
      type: "xavier"
      std: 0.09
    }
    bias_filler {
      type: "constant"
      value: 0.2
    }
  }
}
layer {
  name: "inception_4b/relu_3x3_reduce"
  type: "ReLU"
  bottom: "inception_4b/3x3_reduce"
  top: "inception_4b/3x3_reduce"
}
layer {
  name: "inception_4b/3x3"
  type: "Convolution"
  bottom: "inception_4b/3x3_reduce"
  top: "inception_4b/3x3"
  param {
    lr_mult: 1
    decay_mult: 1
  }
  param {
    lr_mult: 2
    decay_mult: 0
  }
  convolution_param {
    num_output: 224
    pad: 1
    kernel_size: 3
    weight_filler {
      type: "xavier"
      std: 0.03
    }
    bias_filler {
      type: "constant"
      value: 0.2
    }
  }
}
layer {
  name: "inception_4b/relu_3x3"
  type: "ReLU"
  bottom: "inception_4b/3x3"
  top: "inception_4b/3x3"
}
layer {
  name: "inception_4b/5x5_reduce"
  type: "Convolution"
  bottom: "inception_4a/output"
  top: "inception_4b/5x5_reduce"
  param {
    lr_mult: 1
    decay_mult: 1
  }
  param {
    lr_mult: 2
    decay_mult: 0
  }
  convolution_param {
    num_output: 24
    kernel_size: 1
    weight_filler {
      type: "xavier"
      std: 0.2
    }
    bias_filler {
      type: "constant"
      value: 0.2
    }
  }
}
layer {
  name: "inception_4b/relu_5x5_reduce"
  type: "ReLU"
  bottom: "inception_4b/5x5_reduce"
  top: "inception_4b/5x5_reduce"
}
layer {
  name: "inception_4b/5x5"
  type: "Convolution"
  bottom: "inception_4b/5x5_reduce"
  top: "inception_4b/5x5"
  param {
    lr_mult: 1
    decay_mult: 1
  }
  param {
    lr_mult: 2
    decay_mult: 0
  }
  convolution_param {
    num_output: 64
    pad: 2
    kernel_size: 5
    weight_filler {
      type: "xavier"
      std: 0.03
    }
    bias_filler {
      type: "constant"
      value: 0.2
    }
  }
}
layer {
  name: "inception_4b/relu_5x5"
  type: "ReLU"
  bottom: "inception_4b/5x5"
  top: "inception_4b/5x5"
}
layer {
  name: "inception_4b/pool"
  type: "Pooling"
  bottom: "inception_4a/output"
  top: "inception_4b/pool"
  pooling_param {
    pool: MAX
    kernel_size: 3
    stride: 1
    pad: 1
  }
}
layer {
  name: "inception_4b/pool_proj"
  type: "Convolution"
  bottom: "inception_4b/pool"
  top: "inception_4b/pool_proj"
  param {
    lr_mult: 1
    decay_mult: 1
  }
  param {
    lr_mult: 2
    decay_mult: 0
  }
  convolution_param {
    num_output: 64
    kernel_size: 1
    weight_filler {
      type: "xavier"
      std: 0.1
    }
    bias_filler {
      type: "constant"
      value: 0.2
    }
  }
}
layer {
  name: "inception_4b/relu_pool_proj"
  type: "ReLU"
  bottom: "inception_4b/pool_proj"
  top: "inception_4b/pool_proj"
}
layer {
  name: "inception_4b/output"
  type: "Concat"
  bottom: "inception_4b/1x1"
  bottom: "inception_4b/3x3"
  bottom: "inception_4b/5x5"
  bottom: "inception_4b/pool_proj"
  top: "inception_4b/output"
}
layer {
  name: "inception_4c/1x1"
  type: "Convolution"
  bottom: "inception_4b/output"
  top: "inception_4c/1x1"
  param {
    lr_mult: 1
    decay_mult: 1
  }
  param {
    lr_mult: 2
    decay_mult: 0
  }
  convolution_param {
    num_output: 128
    kernel_size: 1
    weight_filler {
      type: "xavier"
      std: 0.03
    }
    bias_filler {
      type: "constant"
      value: 0.2
    }
  }
}
layer {
  name: "inception_4c/relu_1x1"
  type: "ReLU"
  bottom: "inception_4c/1x1"
  top: "inception_4c/1x1"
}
layer {
  name: "inception_4c/3x3_reduce"
  type: "Convolution"
  bottom: "inception_4b/output"
  top: "inception_4c/3x3_reduce"
  param {
    lr_mult: 1
    decay_mult: 1
  }
  param {
    lr_mult: 2
    decay_mult: 0
  }
  convolution_param {
    num_output: 128
    kernel_size: 1
    weight_filler {
      type: "xavier"
      std: 0.09
    }
    bias_filler {
      type: "constant"
      value: 0.2
    }
  }
}
layer {
  name: "inception_4c/relu_3x3_reduce"
  type: "ReLU"
  bottom: "inception_4c/3x3_reduce"
  top: "inception_4c/3x3_reduce"
}
layer {
  name: "inception_4c/3x3"
  type: "Convolution"
  bottom: "inception_4c/3x3_reduce"
  top: "inception_4c/3x3"
  param {
    lr_mult: 1
    decay_mult: 1
  }
  param {
    lr_mult: 2
    decay_mult: 0
  }
  convolution_param {
    num_output: 256
    pad: 1
    kernel_size: 3
    weight_filler {
      type: "xavier"
      std: 0.03
    }
    bias_filler {
      type: "constant"
      value: 0.2
    }
  }
}
layer {
  name: "inception_4c/relu_3x3"
  type: "ReLU"
  bottom: "inception_4c/3x3"
  top: "inception_4c/3x3"
}
layer {
  name: "inception_4c/5x5_reduce"
  type: "Convolution"
  bottom: "inception_4b/output"
  top: "inception_4c/5x5_reduce"
  param {
    lr_mult: 1
    decay_mult: 1
  }
  param {
    lr_mult: 2
    decay_mult: 0
  }
  convolution_param {
    num_output: 24
    kernel_size: 1
    weight_filler {
      type: "xavier"
      std: 0.2
    }
    bias_filler {
      type: "constant"
      value: 0.2
    }
  }
}
layer {
  name: "inception_4c/relu_5x5_reduce"
  type: "ReLU"
  bottom: "inception_4c/5x5_reduce"
  top: "inception_4c/5x5_reduce"
}
layer {
  name: "inception_4c/5x5"
  type: "Convolution"
  bottom: "inception_4c/5x5_reduce"
  top: "inception_4c/5x5"
  param {
    lr_mult: 1
    decay_mult: 1
  }
  param {
    lr_mult: 2
    decay_mult: 0
  }
  convolution_param {
    num_output: 64
    pad: 2
    kernel_size: 5
    weight_filler {
      type: "xavier"
      std: 0.03
    }
    bias_filler {
      type: "constant"
      value: 0.2
    }
  }
}
layer {
  name: "inception_4c/relu_5x5"
  type: "ReLU"
  bottom: "inception_4c/5x5"
  top: "inception_4c/5x5"
}
layer {
  name: "inception_4c/pool"
  type: "Pooling"
  bottom: "inception_4b/output"
  top: "inception_4c/pool"
  pooling_param {
    pool: MAX
    kernel_size: 3
    stride: 1
    pad: 1
  }
}
layer {
  name: "inception_4c/pool_proj"
  type: "Convolution"
  bottom: "inception_4c/pool"
  top: "inception_4c/pool_proj"
  param {
    lr_mult: 1
    decay_mult: 1
  }
  param {
    lr_mult: 2
    decay_mult: 0
  }
  convolution_param {
    num_output: 64
    kernel_size: 1
    weight_filler {
      type: "xavier"
      std: 0.1
    }
    bias_filler {
      type: "constant"
      value: 0.2
    }
  }
}
layer {
  name: "inception_4c/relu_pool_proj"
  type: "ReLU"
  bottom: "inception_4c/pool_proj"
  top: "inception_4c/pool_proj"
}
layer {
  name: "inception_4c/output"
  type: "Concat"
  bottom: "inception_4c/1x1"
  bottom: "inception_4c/3x3"
  bottom: "inception_4c/5x5"
  bottom: "inception_4c/pool_proj"
  top: "inception_4c/output"
}
layer {
  name: "inception_4d/1x1"
  type: "Convolution"
  bottom: "inception_4c/output"
  top: "inception_4d/1x1"
  param {
    lr_mult: 1
    decay_mult: 1
  }
  param {
    lr_mult: 2
    decay_mult: 0
  }
  convolution_param {
    num_output: 112
    kernel_size: 1
    weight_filler {
      type: "xavier"
      std: 0.03
    }
    bias_filler {
      type: "constant"
      value: 0.2
    }
  }
}
layer {
  name: "inception_4d/relu_1x1"
  type: "ReLU"
  bottom: "inception_4d/1x1"
  top: "inception_4d/1x1"
}
layer {
  name: "inception_4d/3x3_reduce"
  type: "Convolution"
  bottom: "inception_4c/output"
  top: "inception_4d/3x3_reduce"
  param {
    lr_mult: 1
    decay_mult: 1
  }
  param {
    lr_mult: 2
    decay_mult: 0
  }
  convolution_param {
    num_output: 144
    kernel_size: 1
    weight_filler {
      type: "xavier"
      std: 0.09
    }
    bias_filler {
      type: "constant"
      value: 0.2
    }
  }
}
layer {
  name: "inception_4d/relu_3x3_reduce"
  type: "ReLU"
  bottom: "inception_4d/3x3_reduce"
  top: "inception_4d/3x3_reduce"
}
layer {
  name: "inception_4d/3x3"
  type: "Convolution"
  bottom: "inception_4d/3x3_reduce"
  top: "inception_4d/3x3"
  param {
    lr_mult: 1
    decay_mult: 1
  }
  param {
    lr_mult: 2
    decay_mult: 0
  }
  convolution_param {
    num_output: 288
    pad: 1
    kernel_size: 3
    weight_filler {
      type: "xavier"
      std: 0.03
    }
    bias_filler {
      type: "constant"
      value: 0.2
    }
  }
}
layer {
  name: "inception_4d/relu_3x3"
  type: "ReLU"
  bottom: "inception_4d/3x3"
  top: "inception_4d/3x3"
}
layer {
  name: "inception_4d/5x5_reduce"
  type: "Convolution"
  bottom: "inception_4c/output"
  top: "inception_4d/5x5_reduce"
  param {
    lr_mult: 1
    decay_mult: 1
  }
  param {
    lr_mult: 2
    decay_mult: 0
  }
  convolution_param {
    num_output: 32
    kernel_size: 1
    weight_filler {
      type: "xavier"
      std: 0.2
    }
    bias_filler {
      type: "constant"
      value: 0.2
    }
  }
}
layer {
  name: "inception_4d/relu_5x5_reduce"
  type: "ReLU"
  bottom: "inception_4d/5x5_reduce"
  top: "inception_4d/5x5_reduce"
}
layer {
  name: "inception_4d/5x5"
  type: "Convolution"
  bottom: "inception_4d/5x5_reduce"
  top: "inception_4d/5x5"
  param {
    lr_mult: 1
    decay_mult: 1
  }
  param {
    lr_mult: 2
    decay_mult: 0
  }
  convolution_param {
    num_output: 64
    pad: 2
    kernel_size: 5
    weight_filler {
      type: "xavier"
      std: 0.03
    }
    bias_filler {
      type: "constant"
      value: 0.2
    }
  }
}
layer {
  name: "inception_4d/relu_5x5"
  type: "ReLU"
  bottom: "inception_4d/5x5"
  top: "inception_4d/5x5"
}
layer {
  name: "inception_4d/pool"
  type: "Pooling"
  bottom: "inception_4c/output"
  top: "inception_4d/pool"
  pooling_param {
    pool: MAX
    kernel_size: 3
    stride: 1
    pad: 1
  }
}
layer {
  name: "inception_4d/pool_proj"
  type: "Convolution"
  bottom: "inception_4d/pool"
  top: "inception_4d/pool_proj"
  param {
    lr_mult: 1
    decay_mult: 1
  }
  param {
    lr_mult: 2
    decay_mult: 0
  }
  convolution_param {
    num_output: 64
    kernel_size: 1
    weight_filler {
      type: "xavier"
      std: 0.1
    }
    bias_filler {
      type: "constant"
      value: 0.2
    }
  }
}
layer {
  name: "inception_4d/relu_pool_proj"
  type: "ReLU"
  bottom: "inception_4d/pool_proj"
  top: "inception_4d/pool_proj"
}
layer {
  name: "inception_4d/output"
  type: "Concat"
  bottom: "inception_4d/1x1"
  bottom: "inception_4d/3x3"
  bottom: "inception_4d/5x5"
  bottom: "inception_4d/pool_proj"
  top: "inception_4d/output"
}
layer {
  name: "inception_4e/1x1"
  type: "Convolution"
  bottom: "inception_4d/output"
  top: "inception_4e/1x1"
  param {
    lr_mult: 1
    decay_mult: 1
  }
  param {
    lr_mult: 2
    decay_mult: 0
  }
  convolution_param {
    num_output: 256
    kernel_size: 1
    weight_filler {
      type: "xavier"
      std: 0.03
    }
    bias_filler {
      type: "constant"
      value: 0.2
    }
  }
}
layer {
  name: "inception_4e/relu_1x1"
  type: "ReLU"
  bottom: "inception_4e/1x1"
  top: "inception_4e/1x1"
}
layer {
  name: "inception_4e/3x3_reduce"
  type: "Convolution"
  bottom: "inception_4d/output"
  top: "inception_4e/3x3_reduce"
  param {
    lr_mult: 1
    decay_mult: 1
  }
  param {
    lr_mult: 2
    decay_mult: 0
  }
  convolution_param {
    num_output: 160
    kernel_size: 1
    weight_filler {
      type: "xavier"
      std: 0.09
    }
    bias_filler {
      type: "constant"
      value: 0.2
    }
  }
}
layer {
  name: "inception_4e/relu_3x3_reduce"
  type: "ReLU"
  bottom: "inception_4e/3x3_reduce"
  top: "inception_4e/3x3_reduce"
}
layer {
  name: "inception_4e/3x3"
  type: "Convolution"
  bottom: "inception_4e/3x3_reduce"
  top: "inception_4e/3x3"
  param {
    lr_mult: 1
    decay_mult: 1
  }
  param {
    lr_mult: 2
    decay_mult: 0
  }
  convolution_param {
    num_output: 320
    pad: 1
    kernel_size: 3
    weight_filler {
      type: "xavier"
      std: 0.03
    }
    bias_filler {
      type: "constant"
      value: 0.2
    }
  }
}
layer {
  name: "inception_4e/relu_3x3"
  type: "ReLU"
  bottom: "inception_4e/3x3"
  top: "inception_4e/3x3"
}
layer {
  name: "inception_4e/5x5_reduce"
  type: "Convolution"
  bottom: "inception_4d/output"
  top: "inception_4e/5x5_reduce"
  param {
    lr_mult: 1
    decay_mult: 1
  }
  param {
    lr_mult: 2
    decay_mult: 0
  }
  convolution_param {
    num_output: 32
    kernel_size: 1
    weight_filler {
      type: "xavier"
      std: 0.2
    }
    bias_filler {
      type: "constant"
      value: 0.2
    }
  }
}
layer {
  name: "inception_4e/relu_5x5_reduce"
  type: "ReLU"
  bottom: "inception_4e/5x5_reduce"
  top: "inception_4e/5x5_reduce"
}
layer {
  name: "inception_4e/5x5"
  type: "Convolution"
  bottom: "inception_4e/5x5_reduce"
  top: "inception_4e/5x5"
  param {
    lr_mult: 1
    decay_mult: 1
  }
  param {
    lr_mult: 2
    decay_mult: 0
  }
  convolution_param {
    num_output: 128
    pad: 2
    kernel_size: 5
    weight_filler {
      type: "xavier"
      std: 0.03
    }
    bias_filler {
      type: "constant"
      value: 0.2
    }
  }
}
layer {
  name: "inception_4e/relu_5x5"
  type: "ReLU"
  bottom: "inception_4e/5x5"
  top: "inception_4e/5x5"
}
layer {
  name: "inception_4e/pool"
  type: "Pooling"
  bottom: "inception_4d/output"
  top: "inception_4e/pool"
  pooling_param {
    pool: MAX
    kernel_size: 3
    stride: 1
    pad: 1
  }
}
layer {
  name: "inception_4e/pool_proj"
  type: "Convolution"
  bottom: "inception_4e/pool"
  top: "inception_4e/pool_proj"
  param {
    lr_mult: 1
    decay_mult: 1
  }
  param {
    lr_mult: 2
    decay_mult: 0
  }
  convolution_param {
    num_output: 128
    kernel_size: 1
    weight_filler {
      type: "xavier"
      std: 0.1
    }
    bias_filler {
      type: "constant"
      value: 0.2
    }
  }
}
layer {
  name: "inception_4e/relu_pool_proj"
  type: "ReLU"
  bottom: "inception_4e/pool_proj"
  top: "inception_4e/pool_proj"
}
layer {
  name: "inception_4e/output"
  type: "Concat"
  bottom: "inception_4e/1x1"
  bottom: "inception_4e/3x3"
  bottom: "inception_4e/5x5"
  bottom: "inception_4e/pool_proj"
  top: "inception_4e/output"
}
layer {
  name: "pool4/3x3_s2"
  type: "Pooling"
  bottom: "inception_4e/output"
  top: "pool4/3x3_s2"
  pooling_param {
    pool: MAX
    kernel_size: 3
    stride: 2
  }
}
layer {
  name: "inception_5a/1x1"
  type: "Convolution"
  bottom: "pool4/3x3_s2"
  top: "inception_5a/1x1"
  param {
    lr_mult: 1
    decay_mult: 1
  }
  param {
    lr_mult: 2
    decay_mult: 0
  }
  convolution_param {
    num_output: 256
    kernel_size: 1
    weight_filler {
      type: "xavier"
      std: 0.03
    }
    bias_filler {
      type: "constant"
      value: 0.2
    }
  }
}
layer {
  name: "inception_5a/relu_1x1"
  type: "ReLU"
  bottom: "inception_5a/1x1"
  top: "inception_5a/1x1"
}
layer {
  name: "inception_5a/3x3_reduce"
  type: "Convolution"
  bottom: "pool4/3x3_s2"
  top: "inception_5a/3x3_reduce"
  param {
    lr_mult: 1
    decay_mult: 1
  }
  param {
    lr_mult: 2
    decay_mult: 0
  }
  convolution_param {
    num_output: 160
    kernel_size: 1
    weight_filler {
      type: "xavier"
      std: 0.09
    }
    bias_filler {
      type: "constant"
      value: 0.2
    }
  }
}
layer {
  name: "inception_5a/relu_3x3_reduce"
  type: "ReLU"
  bottom: "inception_5a/3x3_reduce"
  top: "inception_5a/3x3_reduce"
}
layer {
  name: "inception_5a/3x3"
  type: "Convolution"
  bottom: "inception_5a/3x3_reduce"
  top: "inception_5a/3x3"
  param {
    lr_mult: 1
    decay_mult: 1
  }
  param {
    lr_mult: 2
    decay_mult: 0
  }
  convolution_param {
    num_output: 320
    pad: 1
    kernel_size: 3
    weight_filler {
      type: "xavier"
      std: 0.03
    }
    bias_filler {
      type: "constant"
      value: 0.2
    }
  }
}
layer {
  name: "inception_5a/relu_3x3"
  type: "ReLU"
  bottom: "inception_5a/3x3"
  top: "inception_5a/3x3"
}
layer {
  name: "inception_5a/5x5_reduce"
  type: "Convolution"
  bottom: "pool4/3x3_s2"
  top: "inception_5a/5x5_reduce"
  param {
    lr_mult: 1
    decay_mult: 1
  }
  param {
    lr_mult: 2
    decay_mult: 0
  }
  convolution_param {
    num_output: 32
    kernel_size: 1
    weight_filler {
      type: "xavier"
      std: 0.2
    }
    bias_filler {
      type: "constant"
      value: 0.2
    }
I0915 12:00:04.106132 30406 layer_factory.hpp:77] Creating layer data
I0915 12:00:04.106156 30406 net.cpp:91] Creating Layer data
I0915 12:00:04.106165 30406 net.cpp:399] data -> data
I0915 12:00:04.617581 30406 net.cpp:141] Setting up data
I0915 12:00:04.617650 30406 net.cpp:148] Top shape: 10 3 224 224 (1505280)
I0915 12:00:04.617657 30406 net.cpp:156] Memory required for data: 6021120
I0915 12:00:04.617676 30406 layer_factory.hpp:77] Creating layer conv1/7x7_s2
I0915 12:00:04.617710 30406 net.cpp:91] Creating Layer conv1/7x7_s2
I0915 12:00:04.617719 30406 net.cpp:425] conv1/7x7_s2 <- data
I0915 12:00:04.617733 30406 net.cpp:399] conv1/7x7_s2 -> conv1/7x7_s2
I0915 12:00:04.790599 30406 net.cpp:141] Setting up conv1/7x7_s2
I0915 12:00:04.790659 30406 net.cpp:148] Top shape: 10 64 112 112 (8028160)
I0915 12:00:04.790666 30406 net.cpp:156] Memory required for data: 38133760
I0915 12:00:04.790690 30406 layer_factory.hpp:77] Creating layer conv1/relu_7x7
I0915 12:00:04.790707 30406 net.cpp:91] Creating Layer conv1/relu_7x7
I0915 12:00:04.790714 30406 net.cpp:425] conv1/relu_7x7 <- conv1/7x7_s2
I0915 12:00:04.790721 30406 net.cpp:386] conv1/relu_7x7 -> conv1/7x7_s2 (in-place)
I0915 12:00:04.791100 30406 net.cpp:141] Setting up conv1/relu_7x7
I0915 12:00:04.791113 30406 net.cpp:148] Top shape: 10 64 112 112 (8028160)
I0915 12:00:04.791118 30406 net.cpp:156] Memory required for data: 70246400
I0915 12:00:04.791123 30406 layer_factory.hpp:77] Creating layer pool1/3x3_s2
I0915 12:00:04.791136 30406 net.cpp:91] Creating Layer pool1/3x3_s2
I0915 12:00:04.791141 30406 net.cpp:425] pool1/3x3_s2 <- conv1/7x7_s2
I0915 12:00:04.791148 30406 net.cpp:399] pool1/3x3_s2 -> pool1/3x3_s2
I0915 12:00:04.791215 30406 net.cpp:141] Setting up pool1/3x3_s2
I0915 12:00:04.791226 30406 net.cpp:148] Top shape: 10 64 56 56 (2007040)
I0915 12:00:04.791230 30406 net.cpp:156] Memory required for data: 78274560
I0915 12:00:04.791235 30406 layer_factory.hpp:77] Creating layer pool1/norm1
I0915 12:00:04.791250 30406 net.cpp:91] Creating Layer pool1/norm1
I0915 12:00:04.791256 30406 net.cpp:425] pool1/norm1 <- pool1/3x3_s2
I0915 12:00:04.791263 30406 net.cpp:399] pool1/norm1 -> pool1/norm1
I0915 12:00:04.791517 30406 net.cpp:141] Setting up pool1/norm1
I0915 12:00:04.791529 30406 net.cpp:148] Top shape: 10 64 56 56 (2007040)
I0915 12:00:04.791534 30406 net.cpp:156] Memory required for data: 86302720
I0915 12:00:04.791539 30406 layer_factory.hpp:77] Creating layer conv2/3x3_reduce
I0915 12:00:04.791556 30406 net.cpp:91] Creating Layer conv2/3x3_reduce
I0915 12:00:04.791561 30406 net.cpp:425] conv2/3x3_reduce <- pool1/norm1
I0915 12:00:04.791569 30406 net.cpp:399] conv2/3x3_reduce -> conv2/3x3_reduce
I0915 12:00:04.793498 30406 net.cpp:141] Setting up conv2/3x3_reduce
I0915 12:00:04.793527 30406 net.cpp:148] Top shape: 10 64 56 56 (2007040)
I0915 12:00:04.793534 30406 net.cpp:156] Memory required for data: 94330880
I0915 12:00:04.793545 30406 layer_factory.hpp:77] Creating layer conv2/relu_3x3_reduce
I0915 12:00:04.793555 30406 net.cpp:91] Creating Layer conv2/relu_3x3_reduce
I0915 12:00:04.793560 30406 net.cpp:425] conv2/relu_3x3_reduce <- conv2/3x3_reduce
I0915 12:00:04.793566 30406 net.cpp:386] conv2/relu_3x3_reduce -> conv2/3x3_reduce (in-place)
I0915 12:00:04.793925 30406 net.cpp:141] Setting up conv2/relu_3x3_reduce
I0915 12:00:04.793936 30406 net.cpp:148] Top shape: 10 64 56 56 (2007040)
I0915 12:00:04.793941 30406 net.cpp:156] Memory required for data: 102359040
I0915 12:00:04.793947 30406 layer_factory.hpp:77] Creating layer conv2/3x3
I0915 12:00:04.793959 30406 net.cpp:91] Creating Layer conv2/3x3
I0915 12:00:04.793965 30406 net.cpp:425] conv2/3x3 <- conv2/3x3_reduce
I0915 12:00:04.793972 30406 net.cpp:399] conv2/3x3 -> conv2/3x3
I0915 12:00:04.796960 30406 net.cpp:141] Setting up conv2/3x3
I0915 12:00:04.796990 30406 net.cpp:148] Top shape: 10 192 56 56 (6021120)
I0915 12:00:04.796996 30406 net.cpp:156] Memory required for data: 126443520
I0915 12:00:04.797008 30406 layer_factory.hpp:77] Creating layer conv2/relu_3x3
I0915 12:00:04.797019 30406 net.cpp:91] Creating Layer conv2/relu_3x3
I0915 12:00:04.797024 30406 net.cpp:425] conv2/relu_3x3 <- conv2/3x3
I0915 12:00:04.797030 30406 net.cpp:386] conv2/relu_3x3 -> conv2/3x3 (in-place)
I0915 12:00:04.797240 30406 net.cpp:141] Setting up conv2/relu_3x3
I0915 12:00:04.797250 30406 net.cpp:148] Top shape: 10 192 56 56 (6021120)
I0915 12:00:04.797255 30406 net.cpp:156] Memory required for data: 150528000
I0915 12:00:04.797260 30406 layer_factory.hpp:77] Creating layer conv2/norm2
I0915 12:00:04.797269 30406 net.cpp:91] Creating Layer conv2/norm2
I0915 12:00:04.797274 30406 net.cpp:425] conv2/norm2 <- conv2/3x3
I0915 12:00:04.797281 30406 net.cpp:399] conv2/norm2 -> conv2/norm2
I0915 12:00:04.797683 30406 net.cpp:141] Setting up conv2/norm2
I0915 12:00:04.797695 30406 net.cpp:148] Top shape: 10 192 56 56 (6021120)
I0915 12:00:04.797700 30406 net.cpp:156] Memory required for data: 174612480
I0915 12:00:04.797705 30406 layer_factory.hpp:77] Creating layer pool2/3x3_s2
I0915 12:00:04.797714 30406 net.cpp:91] Creating Layer pool2/3x3_s2
I0915 12:00:04.797719 30406 net.cpp:425] pool2/3x3_s2 <- conv2/norm2
I0915 12:00:04.797727 30406 net.cpp:399] pool2/3x3_s2 -> pool2/3x3_s2
I0915 12:00:04.797770 30406 net.cpp:141] Setting up pool2/3x3_s2
I0915 12:00:04.797778 30406 net.cpp:148] Top shape: 10 192 28 28 (1505280)
I0915 12:00:04.797783 30406 net.cpp:156] Memory required for data: 180633600
I0915 12:00:04.797787 30406 layer_factory.hpp:77] Creating layer pool2/3x3_s2_pool2/3x3_s2_0_split
I0915 12:00:04.797796 30406 net.cpp:91] Creating Layer pool2/3x3_s2_pool2/3x3_s2_0_split
I0915 12:00:04.797801 30406 net.cpp:425] pool2/3x3_s2_pool2/3x3_s2_0_split <- pool2/3x3_s2
I0915 12:00:04.797807 30406 net.cpp:399] pool2/3x3_s2_pool2/3x3_s2_0_split -> pool2/3x3_s2_pool2/3x3_s2_0_split_0
I0915 12:00:04.797816 30406 net.cpp:399] pool2/3x3_s2_pool2/3x3_s2_0_split -> pool2/3x3_s2_pool2/3x3_s2_0_split_1
I0915 12:00:04.797826 30406 net.cpp:399] pool2/3x3_s2_pool2/3x3_s2_0_split -> pool2/3x3_s2_pool2/3x3_s2_0_split_2
I0915 12:00:04.797833 30406 net.cpp:399] pool2/3x3_s2_pool2/3x3_s2_0_split -> pool2/3x3_s2_pool2/3x3_s2_0_split_3
I0915 12:00:04.797895 30406 net.cpp:141] Setting up pool2/3x3_s2_pool2/3x3_s2_0_split
I0915 12:00:04.797904 30406 net.cpp:148] Top shape: 10 192 28 28 (1505280)
I0915 12:00:04.797910 30406 net.cpp:148] Top shape: 10 192 28 28 (1505280)
I0915 12:00:04.797916 30406 net.cpp:148] Top shape: 10 192 28 28 (1505280)
I0915 12:00:04.797921 30406 net.cpp:148] Top shape: 10 192 28 28 (1505280)
I0915 12:00:04.797925 30406 net.cpp:156] Memory required for data: 204718080
I0915 12:00:04.797930 30406 layer_factory.hpp:77] Creating layer inception_3a/1x1
I0915 12:00:04.797941 30406 net.cpp:91] Creating Layer inception_3a/1x1
I0915 12:00:04.797947 30406 net.cpp:425] inception_3a/1x1 <- pool2/3x3_s2_pool2/3x3_s2_0_split_0
I0915 12:00:04.797966 30406 net.cpp:399] inception_3a/1x1 -> inception_3a/1x1
I0915 12:00:04.799845 30406 net.cpp:141] Setting up inception_3a/1x1
I0915 12:00:04.799875 30406 net.cpp:148] Top shape: 10 64 28 28 (501760)
I0915 12:00:04.799880 30406 net.cpp:156] Memory required for data: 206725120
I0915 12:00:04.799890 30406 layer_factory.hpp:77] Creating layer inception_3a/relu_1x1
I0915 12:00:04.799897 30406 net.cpp:91] Creating Layer inception_3a/relu_1x1
I0915 12:00:04.799903 30406 net.cpp:425] inception_3a/relu_1x1 <- inception_3a/1x1
I0915 12:00:04.799914 30406 net.cpp:386] inception_3a/relu_1x1 -> inception_3a/1x1 (in-place)
I0915 12:00:04.800302 30406 net.cpp:141] Setting up inception_3a/relu_1x1
I0915 12:00:04.800314 30406 net.cpp:148] Top shape: 10 64 28 28 (501760)
I0915 12:00:04.800319 30406 net.cpp:156] Memory required for data: 208732160
I0915 12:00:04.800324 30406 layer_factory.hpp:77] Creating layer inception_3a/3x3_reduce
I0915 12:00:04.800410 30406 net.cpp:91] Creating Layer inception_3a/3x3_reduce
I0915 12:00:04.800453 30406 net.cpp:425] inception_3a/3x3_reduce <- pool2/3x3_s2_pool2/3x3_s2_0_split_1
I0915 12:00:04.800485 30406 net.cpp:399] inception_3a/3x3_reduce -> inception_3a/3x3_reduce
I0915 12:00:04.803205 30406 net.cpp:141] Setting up inception_3a/3x3_reduce
I0915 12:00:04.803231 30406 net.cpp:148] Top shape: 10 96 28 28 (752640)
I0915 12:00:04.803236 30406 net.cpp:156] Memory required for data: 211742720
I0915 12:00:04.803254 30406 layer_factory.hpp:77] Creating layer inception_3a/relu_3x3_reduce
I0915 12:00:04.803264 30406 net.cpp:91] Creating Layer inception_3a/relu_3x3_reduce
I0915 12:00:04.803270 30406 net.cpp:425] inception_3a/relu_3x3_reduce <- inception_3a/3x3_reduce
I0915 12:00:04.803280 30406 net.cpp:386] inception_3a/relu_3x3_reduce -> inception_3a/3x3_reduce (in-place)
I0915 12:00:04.803520 30406 net.cpp:141] Setting up inception_3a/relu_3x3_reduce
I0915 12:00:04.803532 30406 net.cpp:148] Top shape: 10 96 28 28 (752640)
I0915 12:00:04.803536 30406 net.cpp:156] Memory required for data: 214753280
I0915 12:00:04.803541 30406 layer_factory.hpp:77] Creating layer inception_3a/3x3
I0915 12:00:04.803562 30406 net.cpp:91] Creating Layer inception_3a/3x3
I0915 12:00:04.803567 30406 net.cpp:425] inception_3a/3x3 <- inception_3a/3x3_reduce
I0915 12:00:04.803576 30406 net.cpp:399] inception_3a/3x3 -> inception_3a/3x3
I0915 12:00:04.805780 30406 net.cpp:141] Setting up inception_3a/3x3
I0915 12:00:04.805799 30406 net.cpp:148] Top shape: 10 128 28 28 (1003520)
I0915 12:00:04.805804 30406 net.cpp:156] Memory required for data: 218767360
I0915 12:00:04.805814 30406 layer_factory.hpp:77] Creating layer inception_3a/relu_3x3
I0915 12:00:04.805825 30406 net.cpp:91] Creating Layer inception_3a/relu_3x3
I0915 12:00:04.805831 30406 net.cpp:425] inception_3a/relu_3x3 <- inception_3a/3x3
I0915 12:00:04.805838 30406 net.cpp:386] inception_3a/relu_3x3 -> inception_3a/3x3 (in-place)
I0915 12:00:04.806224 30406 net.cpp:141] Setting up inception_3a/relu_3x3
I0915 12:00:04.806236 30406 net.cpp:148] Top shape: 10 128 28 28 (1003520)
I0915 12:00:04.806241 30406 net.cpp:156] Memory required for data: 222781440
I0915 12:00:04.806246 30406 layer_factory.hpp:77] Creating layer inception_3a/5x5_reduce
I0915 12:00:04.806260 30406 net.cpp:91] Creating Layer inception_3a/5x5_reduce
I0915 12:00:04.806267 30406 net.cpp:425] inception_3a/5x5_reduce <- pool2/3x3_s2_pool2/3x3_s2_0_split_2
I0915 12:00:04.806279 30406 net.cpp:399] inception_3a/5x5_reduce -> inception_3a/5x5_reduce
I0915 12:00:04.807498 30406 net.cpp:141] Setting up inception_3a/5x5_reduce
I0915 12:00:04.807515 30406 net.cpp:148] Top shape: 10 16 28 28 (125440)
I0915 12:00:04.807523 30406 net.cpp:156] Memory required for data: 223283200
I0915 12:00:04.807531 30406 layer_factory.hpp:77] Creating layer inception_3a/relu_5x5_reduce
I0915 12:00:04.807540 30406 net.cpp:91] Creating Layer inception_3a/relu_5x5_reduce
I0915 12:00:04.807545 30406 net.cpp:425] inception_3a/relu_5x5_reduce <- inception_3a/5x5_reduce
I0915 12:00:04.807554 30406 net.cpp:386] inception_3a/relu_5x5_reduce -> inception_3a/5x5_reduce (in-place)
I0915 12:00:04.807940 30406 net.cpp:141] Setting up inception_3a/relu_5x5_reduce
I0915 12:00:04.807960 30406 net.cpp:148] Top shape: 10 16 28 28 (125440)
I0915 12:00:04.807965 30406 net.cpp:156] Memory required for data: 223784960
I0915 12:00:04.807970 30406 layer_factory.hpp:77] Creating layer inception_3a/5x5
I0915 12:00:04.807986 30406 net.cpp:91] Creating Layer inception_3a/5x5
I0915 12:00:04.807991 30406 net.cpp:425] inception_3a/5x5 <- inception_3a/5x5_reduce
I0915 12:00:04.807999 30406 net.cpp:399] inception_3a/5x5 -> inception_3a/5x5
I0915 12:00:04.809978 30406 net.cpp:141] Setting up inception_3a/5x5
I0915 12:00:04.809996 30406 net.cpp:148] Top shape: 10 32 28 28 (250880)
I0915 12:00:04.810003 30406 net.cpp:156] Memory required for data: 224788480
I0915 12:00:04.810011 30406 layer_factory.hpp:77] Creating layer inception_3a/relu_5x5
I0915 12:00:04.810176 30406 net.cpp:91] Creating Layer inception_3a/relu_5x5
I0915 12:00:04.810184 30406 net.cpp:425] inception_3a/relu_5x5 <- inception_3a/5x5
I0915 12:00:04.810195 30406 net.cpp:386] inception_3a/relu_5x5 -> inception_3a/5x5 (in-place)
I0915 12:00:04.810430 30406 net.cpp:141] Setting up inception_3a/relu_5x5
I0915 12:00:04.810443 30406 net.cpp:148] Top shape: 10 32 28 28 (250880)
I0915 12:00:04.810447 30406 net.cpp:156] Memory required for data: 225792000
I0915 12:00:04.810453 30406 layer_factory.hpp:77] Creating layer inception_3a/pool
I0915 12:00:04.810462 30406 net.cpp:91] Creating Layer inception_3a/pool
I0915 12:00:04.810467 30406 net.cpp:425] inception_3a/pool <- pool2/3x3_s2_pool2/3x3_s2_0_split_3
I0915 12:00:04.810474 30406 net.cpp:399] inception_3a/pool -> inception_3a/pool
I0915 12:00:04.810534 30406 net.cpp:141] Setting up inception_3a/pool
I0915 12:00:04.810544 30406 net.cpp:148] Top shape: 10 192 28 28 (1505280)
I0915 12:00:04.810547 30406 net.cpp:156] Memory required for data: 231813120
I0915 12:00:04.810552 30406 layer_factory.hpp:77] Creating layer inception_3a/pool_proj
I0915 12:00:04.810567 30406 net.cpp:91] Creating Layer inception_3a/pool_proj
I0915 12:00:04.810573 30406 net.cpp:425] inception_3a/pool_proj <- inception_3a/pool
I0915 12:00:04.810583 30406 net.cpp:399] inception_3a/pool_proj -> inception_3a/pool_proj
I0915 12:00:04.811966 30406 net.cpp:141] Setting up inception_3a/pool_proj
I0915 12:00:04.811983 30406 net.cpp:148] Top shape: 10 32 28 28 (250880)
I0915 12:00:04.811988 30406 net.cpp:156] Memory required for data: 232816640
I0915 12:00:04.812005 30406 layer_factory.hpp:77] Creating layer inception_3a/relu_pool_proj
I0915 12:00:04.812016 30406 net.cpp:91] Creating Layer inception_3a/relu_pool_proj
I0915 12:00:04.812021 30406 net.cpp:425] inception_3a/relu_pool_proj <- inception_3a/pool_proj
I0915 12:00:04.812027 30406 net.cpp:386] inception_3a/relu_pool_proj -> inception_3a/pool_proj (in-place)
I0915 12:00:04.812423 30406 net.cpp:141] Setting up inception_3a/relu_pool_proj
I0915 12:00:04.812436 30406 net.cpp:148] Top shape: 10 32 28 28 (250880)
I0915 12:00:04.812441 30406 net.cpp:156] Memory required for data: 233820160
I0915 12:00:04.812446 30406 layer_factory.hpp:77] Creating layer inception_3a/output
I0915 12:00:04.812466 30406 net.cpp:91] Creating Layer inception_3a/output
I0915 12:00:04.812471 30406 net.cpp:425] inception_3a/output <- inception_3a/1x1
I0915 12:00:04.812479 30406 net.cpp:425] inception_3a/output <- inception_3a/3x3
I0915 12:00:04.812484 30406 net.cpp:425] inception_3a/output <- inception_3a/5x5
I0915 12:00:04.812489 30406 net.cpp:425] inception_3a/output <- inception_3a/pool_proj
I0915 12:00:04.812494 30406 net.cpp:399] inception_3a/output -> inception_3a/output
I0915 12:00:04.812537 30406 net.cpp:141] Setting up inception_3a/output
I0915 12:00:04.812546 30406 net.cpp:148] Top shape: 10 256 28 28 (2007040)
I0915 12:00:04.812551 30406 net.cpp:156] Memory required for data: 241848320
I0915 12:00:04.812556 30406 layer_factory.hpp:77] Creating layer inception_3a/output_inception_3a/output_0_split
I0915 12:00:04.812564 30406 net.cpp:91] Creating Layer inception_3a/output_inception_3a/output_0_split
I0915 12:00:04.812568 30406 net.cpp:425] inception_3a/output_inception_3a/output_0_split <- inception_3a/output
I0915 12:00:04.812577 30406 net.cpp:399] inception_3a/output_inception_3a/output_0_split -> inception_3a/output_inception_3a/output_0_split_0
I0915 12:00:04.812587 30406 net.cpp:399] inception_3a/output_inception_3a/output_0_split -> inception_3a/output_inception_3a/output_0_split_1
I0915 12:00:04.812594 30406 net.cpp:399] inception_3a/output_inception_3a/output_0_split -> inception_3a/output_inception_3a/output_0_split_2
I0915 12:00:04.812602 30406 net.cpp:399] inception_3a/output_inception_3a/output_0_split -> inception_3a/output_inception_3a/output_0_split_3
I0915 12:00:04.812682 30406 net.cpp:141] Setting up inception_3a/output_inception_3a/output_0_split
I0915 12:00:04.812693 30406 net.cpp:148] Top shape: 10 256 28 28 (2007040)
I0915 12:00:04.812700 30406 net.cpp:148] Top shape: 10 256 28 28 (2007040)
I0915 12:00:04.812705 30406 net.cpp:148] Top shape: 10 256 28 28 (2007040)
I0915 12:00:04.812710 30406 net.cpp:148] Top shape: 10 256 28 28 (2007040)
I0915 12:00:04.812713 30406 net.cpp:156] Memory required for data: 273960960
I0915 12:00:04.812718 30406 layer_factory.hpp:77] Creating layer inception_3b/1x1
I0915 12:00:04.812732 30406 net.cpp:91] Creating Layer inception_3b/1x1
I0915 12:00:04.812737 30406 net.cpp:425] inception_3b/1x1 <- inception_3a/output_inception_3a/output_0_split_0
I0915 12:00:04.812747 30406 net.cpp:399] inception_3b/1x1 -> inception_3b/1x1
I0915 12:00:04.814164 30406 net.cpp:141] Setting up inception_3b/1x1
I0915 12:00:04.814180 30406 net.cpp:148] Top shape: 10 128 28 28 (1003520)
I0915 12:00:04.814187 30406 net.cpp:156] Memory required for data: 277975040
I0915 12:00:04.814194 30406 layer_factory.hpp:77] Creating layer inception_3b/relu_1x1
I0915 12:00:04.814203 30406 net.cpp:91] Creating Layer inception_3b/relu_1x1
I0915 12:00:04.814208 30406 net.cpp:425] inception_3b/relu_1x1 <- inception_3b/1x1
I0915 12:00:04.814215 30406 net.cpp:386] inception_3b/relu_1x1 -> inception_3b/1x1 (in-place)
I0915 12:00:04.814594 30406 net.cpp:141] Setting up inception_3b/relu_1x1
I0915 12:00:04.814606 30406 net.cpp:148] Top shape: 10 128 28 28 (1003520)
I0915 12:00:04.814610 30406 net.cpp:156] Memory required for data: 281989120
I0915 12:00:04.814615 30406 layer_factory.hpp:77] Creating layer inception_3b/3x3_reduce
I0915 12:00:04.814630 30406 net.cpp:91] Creating Layer inception_3b/3x3_reduce
I0915 12:00:04.814636 30406 net.cpp:425] inception_3b/3x3_reduce <- inception_3a/output_inception_3a/output_0_split_1
I0915 12:00:04.814646 30406 net.cpp:399] inception_3b/3x3_reduce -> inception_3b/3x3_reduce
I0915 12:00:04.816282 30406 net.cpp:141] Setting up inception_3b/3x3_reduce
I0915 12:00:04.816295 30406 net.cpp:148] Top shape: 10 128 28 28 (1003520)
I0915 12:00:04.816300 30406 net.cpp:156] Memory required for data: 286003200
I0915 12:00:04.816309 30406 layer_factory.hpp:77] Creating layer inception_3b/relu_3x3_reduce
I0915 12:00:04.816318 30406 net.cpp:91] Creating Layer inception_3b/relu_3x3_reduce
I0915 12:00:04.816323 30406 net.cpp:425] inception_3b/relu_3x3_reduce <- inception_3b/3x3_reduce
I0915 12:00:04.816334 30406 net.cpp:386] inception_3b/relu_3x3_reduce -> inception_3b/3x3_reduce (in-place)
I0915 12:00:04.816556 30406 net.cpp:141] Setting up inception_3b/relu_3x3_reduce
I0915 12:00:04.816570 30406 net.cpp:148] Top shape: 10 128 28 28 (1003520)
I0915 12:00:04.816575 30406 net.cpp:156] Memory required for data: 290017280
I0915 12:00:04.816579 30406 layer_factory.hpp:77] Creating layer inception_3b/3x3
I0915 12:00:04.816593 30406 net.cpp:91] Creating Layer inception_3b/3x3
I0915 12:00:04.816599 30406 net.cpp:425] inception_3b/3x3 <- inception_3b/3x3_reduce
I0915 12:00:04.816607 30406 net.cpp:399] inception_3b/3x3 -> inception_3b/3x3
I0915 12:00:04.820310 30406 net.cpp:141] Setting up inception_3b/3x3
I0915 12:00:04.820328 30406 net.cpp:148] Top shape: 10 192 28 28 (1505280)
I0915 12:00:04.820333 30406 net.cpp:156] Memory required for data: 296038400
I0915 12:00:04.820343 30406 layer_factory.hpp:77] Creating layer inception_3b/relu_3x3
I0915 12:00:04.820356 30406 net.cpp:91] Creating Layer inception_3b/relu_3x3
I0915 12:00:04.820363 30406 net.cpp:425] inception_3b/relu_3x3 <- inception_3b/3x3
I0915 12:00:04.820370 30406 net.cpp:386] inception_3b/relu_3x3 -> inception_3b/3x3 (in-place)
I0915 12:00:04.820761 30406 net.cpp:141] Setting up inception_3b/relu_3x3
I0915 12:00:04.820776 30406 net.cpp:148] Top shape: 10 192 28 28 (1505280)
I0915 12:00:04.820781 30406 net.cpp:156] Memory required for data: 302059520
I0915 12:00:04.820786 30406 layer_factory.hpp:77] Creating layer inception_3b/5x5_reduce
I0915 12:00:04.820801 30406 net.cpp:91] Creating Layer inception_3b/5x5_reduce
I0915 12:00:04.820806 30406 net.cpp:425] inception_3b/5x5_reduce <- inception_3a/output_inception_3a/output_0_split_2
I0915 12:00:04.820816 30406 net.cpp:399] inception_3b/5x5_reduce -> inception_3b/5x5_reduce
I0915 12:00:04.822068 30406 net.cpp:141] Setting up inception_3b/5x5_reduce
I0915 12:00:04.822088 30406 net.cpp:148] Top shape: 10 32 28 28 (250880)
I0915 12:00:04.822093 30406 net.cpp:156] Memory required for data: 303063040
I0915 12:00:04.822101 30406 layer_factory.hpp:77] Creating layer inception_3b/relu_5x5_reduce
I0915 12:00:04.822109 30406 net.cpp:91] Creating Layer inception_3b/relu_5x5_reduce
I0915 12:00:04.822115 30406 net.cpp:425] inception_3b/relu_5x5_reduce <- inception_3b/5x5_reduce
I0915 12:00:04.822123 30406 net.cpp:386] inception_3b/relu_5x5_reduce -> inception_3b/5x5_reduce (in-place)
I0915 12:00:04.822511 30406 net.cpp:141] Setting up inception_3b/relu_5x5_reduce
I0915 12:00:04.822523 30406 net.cpp:148] Top shape: 10 32 28 28 (250880)
I0915 12:00:04.822528 30406 net.cpp:156] Memory required for data: 304066560
I0915 12:00:04.822533 30406 layer_factory.hpp:77] Creating layer inception_3b/5x5
I0915 12:00:04.822548 30406 net.cpp:91] Creating Layer inception_3b/5x5
I0915 12:00:04.822554 30406 net.cpp:425] inception_3b/5x5 <- inception_3b/5x5_reduce
I0915 12:00:04.822566 30406 net.cpp:399] inception_3b/5x5 -> inception_3b/5x5
I0915 12:00:04.825181 30406 net.cpp:141] Setting up inception_3b/5x5
I0915 12:00:04.825201 30406 net.cpp:148] Top shape: 10 96 28 28 (752640)
I0915 12:00:04.825206 30406 net.cpp:156] Memory required for data: 307077120
I0915 12:00:04.825215 30406 layer_factory.hpp:77] Creating layer inception_3b/relu_5x5
I0915 12:00:04.825224 30406 net.cpp:91] Creating Layer inception_3b/relu_5x5
I0915 12:00:04.825230 30406 net.cpp:425] inception_3b/relu_5x5 <- inception_3b/5x5
I0915 12:00:04.825237 30406 net.cpp:386] inception_3b/relu_5x5 -> inception_3b/5x5 (in-place)
I0915 12:00:04.825469 30406 net.cpp:141] Setting up inception_3b/relu_5x5
I0915 12:00:04.825479 30406 net.cpp:148] Top shape: 10 96 28 28 (752640)
I0915 12:00:04.825484 30406 net.cpp:156] Memory required for data: 310087680
I0915 12:00:04.825489 30406 layer_factory.hpp:77] Creating layer inception_3b/pool
I0915 12:00:04.825497 30406 net.cpp:91] Creating Layer inception_3b/pool
I0915 12:00:04.825503 30406 net.cpp:425] inception_3b/pool <- inception_3a/output_inception_3a/output_0_split_3
I0915 12:00:04.825512 30406 net.cpp:399] inception_3b/pool -> inception_3b/pool
I0915 12:00:04.825572 30406 net.cpp:141] Setting up inception_3b/pool
I0915 12:00:04.825582 30406 net.cpp:148] Top shape: 10 256 28 28 (2007040)
I0915 12:00:04.825587 30406 net.cpp:156] Memory required for data: 318115840
I0915 12:00:04.825590 30406 layer_factory.hpp:77] Creating layer inception_3b/pool_proj
I0915 12:00:04.825605 30406 net.cpp:91] Creating Layer inception_3b/pool_proj
I0915 12:00:04.825611 30406 net.cpp:425] inception_3b/pool_proj <- inception_3b/pool
I0915 12:00:04.825619 30406 net.cpp:399] inception_3b/pool_proj -> inception_3b/pool_proj
I0915 12:00:04.827119 30406 net.cpp:141] Setting up inception_3b/pool_proj
I0915 12:00:04.827136 30406 net.cpp:148] Top shape: 10 64 28 28 (501760)
I0915 12:00:04.827141 30406 net.cpp:156] Memory required for data: 320122880
I0915 12:00:04.827149 30406 layer_factory.hpp:77] Creating layer inception_3b/relu_pool_proj
I0915 12:00:04.827157 30406 net.cpp:91] Creating Layer inception_3b/relu_pool_proj
I0915 12:00:04.827163 30406 net.cpp:425] inception_3b/relu_pool_proj <- inception_3b/pool_proj
I0915 12:00:04.827173 30406 net.cpp:386] inception_3b/relu_pool_proj -> inception_3b/pool_proj (in-place)
I0915 12:00:04.827571 30406 net.cpp:141] Setting up inception_3b/relu_pool_proj
I0915 12:00:04.827584 30406 net.cpp:148] Top shape: 10 64 28 28 (501760)
I0915 12:00:04.827589 30406 net.cpp:156] Memory required for data: 322129920
I0915 12:00:04.827594 30406 layer_factory.hpp:77] Creating layer inception_3b/output
I0915 12:00:04.827602 30406 net.cpp:91] Creating Layer inception_3b/output
I0915 12:00:04.827607 30406 net.cpp:425] inception_3b/output <- inception_3b/1x1
I0915 12:00:04.827613 30406 net.cpp:425] inception_3b/output <- inception_3b/3x3
I0915 12:00:04.827620 30406 net.cpp:425] inception_3b/output <- inception_3b/5x5
I0915 12:00:04.827625 30406 net.cpp:425] inception_3b/output <- inception_3b/pool_proj
I0915 12:00:04.827635 30406 net.cpp:399] inception_3b/output -> inception_3b/output
I0915 12:00:04.827673 30406 net.cpp:141] Setting up inception_3b/output
I0915 12:00:04.827682 30406 net.cpp:148] Top shape: 10 480 28 28 (3763200)
I0915 12:00:04.827687 30406 net.cpp:156] Memory required for data: 337182720
I0915 12:00:04.827692 30406 layer_factory.hpp:77] Creating layer pool3/3x3_s2
I0915 12:00:04.827699 30406 net.cpp:91] Creating Layer pool3/3x3_s2
I0915 12:00:04.827704 30406 net.cpp:425] pool3/3x3_s2 <- inception_3b/output
I0915 12:00:04.827711 30406 net.cpp:399] pool3/3x3_s2 -> pool3/3x3_s2
I0915 12:00:04.827770 30406 net.cpp:141] Setting up pool3/3x3_s2
I0915 12:00:04.827782 30406 net.cpp:148] Top shape: 10 480 14 14 (940800)
I0915 12:00:04.827787 30406 net.cpp:156] Memory required for data: 340945920
I0915 12:00:04.827792 30406 layer_factory.hpp:77] Creating layer pool3/3x3_s2_pool3/3x3_s2_0_split
I0915 12:00:04.827800 30406 net.cpp:91] Creating Layer pool3/3x3_s2_pool3/3x3_s2_0_split
I0915 12:00:04.827805 30406 net.cpp:425] pool3/3x3_s2_pool3/3x3_s2_0_split <- pool3/3x3_s2
I0915 12:00:04.827813 30406 net.cpp:399] pool3/3x3_s2_pool3/3x3_s2_0_split -> pool3/3x3_s2_pool3/3x3_s2_0_split_0
I0915 12:00:04.827821 30406 net.cpp:399] pool3/3x3_s2_pool3/3x3_s2_0_split -> pool3/3x3_s2_pool3/3x3_s2_0_split_1
I0915 12:00:04.827829 30406 net.cpp:399] pool3/3x3_s2_pool3/3x3_s2_0_split -> pool3/3x3_s2_pool3/3x3_s2_0_split_2
I0915 12:00:04.827837 30406 net.cpp:399] pool3/3x3_s2_pool3/3x3_s2_0_split -> pool3/3x3_s2_pool3/3x3_s2_0_split_3
I0915 12:00:04.827913 30406 net.cpp:141] Setting up pool3/3x3_s2_pool3/3x3_s2_0_split
I0915 12:00:04.827922 30406 net.cpp:148] Top shape: 10 480 14 14 (940800)
I0915 12:00:04.827929 30406 net.cpp:148] Top shape: 10 480 14 14 (940800)
I0915 12:00:04.827935 30406 net.cpp:148] Top shape: 10 480 14 14 (940800)
I0915 12:00:04.827940 30406 net.cpp:148] Top shape: 10 480 14 14 (940800)
I0915 12:00:04.827944 30406 net.cpp:156] Memory required for data: 355998720
I0915 12:00:04.827949 30406 layer_factory.hpp:77] Creating layer inception_4a/1x1
I0915 12:00:04.827960 30406 net.cpp:91] Creating Layer inception_4a/1x1
I0915 12:00:04.827965 30406 net.cpp:425] inception_4a/1x1 <- pool3/3x3_s2_pool3/3x3_s2_0_split_0
I0915 12:00:04.827976 30406 net.cpp:399] inception_4a/1x1 -> inception_4a/1x1
I0915 12:00:04.830118 30406 net.cpp:141] Setting up inception_4a/1x1
I0915 12:00:04.830135 30406 net.cpp:148] Top shape: 10 192 14 14 (376320)
I0915 12:00:04.830140 30406 net.cpp:156] Memory required for data: 357504000
I0915 12:00:04.830148 30406 layer_factory.hpp:77] Creating layer inception_4a/relu_1x1
I0915 12:00:04.830160 30406 net.cpp:91] Creating Layer inception_4a/relu_1x1
I0915 12:00:04.830168 30406 net.cpp:425] inception_4a/relu_1x1 <- inception_4a/1x1
I0915 12:00:04.830173 30406 net.cpp:386] inception_4a/relu_1x1 -> inception_4a/1x1 (in-place)
I0915 12:00:04.830564 30406 net.cpp:141] Setting up inception_4a/relu_1x1
I0915 12:00:04.830576 30406 net.cpp:148] Top shape: 10 192 14 14 (376320)
I0915 12:00:04.830581 30406 net.cpp:156] Memory required for data: 359009280
I0915 12:00:04.830586 30406 layer_factory.hpp:77] Creating layer inception_4a/3x3_reduce
I0915 12:00:04.830603 30406 net.cpp:91] Creating Layer inception_4a/3x3_reduce
I0915 12:00:04.830610 30406 net.cpp:425] inception_4a/3x3_reduce <- pool3/3x3_s2_pool3/3x3_s2_0_split_1
I0915 12:00:04.830618 30406 net.cpp:399] inception_4a/3x3_reduce -> inception_4a/3x3_reduce
I0915 12:00:04.832384 30406 net.cpp:141] Setting up inception_4a/3x3_reduce
I0915 12:00:04.832401 30406 net.cpp:148] Top shape: 10 96 14 14 (188160)
I0915 12:00:04.832406 30406 net.cpp:156] Memory required for data: 359761920
I0915 12:00:04.832424 30406 layer_factory.hpp:77] Creating layer inception_4a/relu_3x3_reduce
I0915 12:00:04.832433 30406 net.cpp:91] Creating Layer inception_4a/relu_3x3_reduce
I0915 12:00:04.832439 30406 net.cpp:425] inception_4a/relu_3x3_reduce <- inception_4a/3x3_reduce
I0915 12:00:04.832447 30406 net.cpp:386] inception_4a/relu_3x3_reduce -> inception_4a/3x3_reduce (in-place)
I0915 12:00:04.832672 30406 net.cpp:141] Setting up inception_4a/relu_3x3_reduce
I0915 12:00:04.832684 30406 net.cpp:148] Top shape: 10 96 14 14 (188160)
I0915 12:00:04.832687 30406 net.cpp:156] Memory required for data: 360514560
I0915 12:00:04.832692 30406 layer_factory.hpp:77] Creating layer inception_4a/3x3
I0915 12:00:04.832706 30406 net.cpp:91] Creating Layer inception_4a/3x3
I0915 12:00:04.832712 30406 net.cpp:425] inception_4a/3x3 <- inception_4a/3x3_reduce
I0915 12:00:04.832725 30406 net.cpp:399] inception_4a/3x3 -> inception_4a/3x3
I0915 12:00:04.836546 30406 net.cpp:141] Setting up inception_4a/3x3
I0915 12:00:04.836561 30406 net.cpp:148] Top shape: 10 208 14 14 (407680)
I0915 12:00:04.836566 30406 net.cpp:156] Memory required for data: 362145280
I0915 12:00:04.836575 30406 layer_factory.hpp:77] Creating layer inception_4a/relu_3x3
I0915 12:00:04.836586 30406 net.cpp:91] Creating Layer inception_4a/relu_3x3
I0915 12:00:04.836592 30406 net.cpp:425] inception_4a/relu_3x3 <- inception_4a/3x3
I0915 12:00:04.836599 30406 net.cpp:386] inception_4a/relu_3x3 -> inception_4a/3x3 (in-place)
I0915 12:00:04.836989 30406 net.cpp:141] Setting up inception_4a/relu_3x3
I0915 12:00:04.837002 30406 net.cpp:148] Top shape: 10 208 14 14 (407680)
I0915 12:00:04.837007 30406 net.cpp:156] Memory required for data: 363776000
I0915 12:00:04.837011 30406 layer_factory.hpp:77] Creating layer inception_4a/5x5_reduce
I0915 12:00:04.837025 30406 net.cpp:91] Creating Layer inception_4a/5x5_reduce
I0915 12:00:04.837031 30406 net.cpp:425] inception_4a/5x5_reduce <- pool3/3x3_s2_pool3/3x3_s2_0_split_2
I0915 12:00:04.837044 30406 net.cpp:399] inception_4a/5x5_reduce -> inception_4a/5x5_reduce
I0915 12:00:04.838347 30406 net.cpp:141] Setting up inception_4a/5x5_reduce
I0915 12:00:04.838364 30406 net.cpp:148] Top shape: 10 16 14 14 (31360)
I0915 12:00:04.838369 30406 net.cpp:156] Memory required for data: 363901440
I0915 12:00:04.838378 30406 layer_factory.hpp:77] Creating layer inception_4a/relu_5x5_reduce
I0915 12:00:04.838387 30406 net.cpp:91] Creating Layer inception_4a/relu_5x5_reduce
I0915 12:00:04.838392 30406 net.cpp:425] inception_4a/relu_5x5_reduce <- inception_4a/5x5_reduce
I0915 12:00:04.838399 30406 net.cpp:386] inception_4a/relu_5x5_reduce -> inception_4a/5x5_reduce (in-place)
I0915 12:00:04.838790 30406 net.cpp:141] Setting up inception_4a/relu_5x5_reduce
I0915 12:00:04.838802 30406 net.cpp:148] Top shape: 10 16 14 14 (31360)
I0915 12:00:04.838807 30406 net.cpp:156] Memory required for data: 364026880
I0915 12:00:04.838812 30406 layer_factory.hpp:77] Creating layer inception_4a/5x5
I0915 12:00:04.838827 30406 net.cpp:91] Creating Layer inception_4a/5x5
I0915 12:00:04.838835 30406 net.cpp:425] inception_4a/5x5 <- inception_4a/5x5_reduce
I0915 12:00:04.838845 30406 net.cpp:399] inception_4a/5x5 -> inception_4a/5x5
I0915 12:00:04.840381 30406 net.cpp:141] Setting up inception_4a/5x5
I0915 12:00:04.840399 30406 net.cpp:148] Top shape: 10 48 14 14 (94080)
I0915 12:00:04.840404 30406 net.cpp:156] Memory required for data: 364403200
I0915 12:00:04.840412 30406 layer_factory.hpp:77] Creating layer inception_4a/relu_5x5
I0915 12:00:04.840421 30406 net.cpp:91] Creating Layer inception_4a/relu_5x5
I0915 12:00:04.840426 30406 net.cpp:425] inception_4a/relu_5x5 <- inception_4a/5x5
I0915 12:00:04.840433 30406 net.cpp:386] inception_4a/relu_5x5 -> inception_4a/5x5 (in-place)
I0915 12:00:04.840662 30406 net.cpp:141] Setting up inception_4a/relu_5x5
I0915 12:00:04.840673 30406 net.cpp:148] Top shape: 10 48 14 14 (94080)
I0915 12:00:04.840677 30406 net.cpp:156] Memory required for data: 364779520
I0915 12:00:04.840682 30406 layer_factory.hpp:77] Creating layer inception_4a/pool
I0915 12:00:04.840693 30406 net.cpp:91] Creating Layer inception_4a/pool
I0915 12:00:04.840699 30406 net.cpp:425] inception_4a/pool <- pool3/3x3_s2_pool3/3x3_s2_0_split_3
I0915 12:00:04.840706 30406 net.cpp:399] inception_4a/pool -> inception_4a/pool
I0915 12:00:04.840767 30406 net.cpp:141] Setting up inception_4a/pool
I0915 12:00:04.840777 30406 net.cpp:148] Top shape: 10 480 14 14 (940800)
I0915 12:00:04.840781 30406 net.cpp:156] Memory required for data: 368542720
I0915 12:00:04.840786 30406 layer_factory.hpp:77] Creating layer inception_4a/pool_proj
I0915 12:00:04.840801 30406 net.cpp:91] Creating Layer inception_4a/pool_proj
I0915 12:00:04.840806 30406 net.cpp:425] inception_4a/pool_proj <- inception_4a/pool
I0915 12:00:04.840816 30406 net.cpp:399] inception_4a/pool_proj -> inception_4a/pool_proj
I0915 12:00:04.842428 30406 net.cpp:141] Setting up inception_4a/pool_proj
I0915 12:00:04.842444 30406 net.cpp:148] Top shape: 10 64 14 14 (125440)
I0915 12:00:04.842449 30406 net.cpp:156] Memory required for data: 369044480
I0915 12:00:04.842459 30406 layer_factory.hpp:77] Creating layer inception_4a/relu_pool_proj
I0915 12:00:04.842470 30406 net.cpp:91] Creating Layer inception_4a/relu_pool_proj
I0915 12:00:04.842476 30406 net.cpp:425] inception_4a/relu_pool_proj <- inception_4a/pool_proj
I0915 12:00:04.842485 30406 net.cpp:386] inception_4a/relu_pool_proj -> inception_4a/pool_proj (in-place)
I0915 12:00:04.842885 30406 net.cpp:141] Setting up inception_4a/relu_pool_proj
I0915 12:00:04.842898 30406 net.cpp:148] Top shape: 10 64 14 14 (125440)
I0915 12:00:04.842902 30406 net.cpp:156] Memory required for data: 369546240
I0915 12:00:04.842907 30406 layer_factory.hpp:77] Creating layer inception_4a/output
I0915 12:00:04.842916 30406 net.cpp:91] Creating Layer inception_4a/output
I0915 12:00:04.842921 30406 net.cpp:425] inception_4a/output <- inception_4a/1x1
I0915 12:00:04.842928 30406 net.cpp:425] inception_4a/output <- inception_4a/3x3
I0915 12:00:04.842933 30406 net.cpp:425] inception_4a/output <- inception_4a/5x5
I0915 12:00:04.842938 30406 net.cpp:425] inception_4a/output <- inception_4a/pool_proj
I0915 12:00:04.842947 30406 net.cpp:399] inception_4a/output -> inception_4a/output
I0915 12:00:04.842986 30406 net.cpp:141] Setting up inception_4a/output
I0915 12:00:04.842996 30406 net.cpp:148] Top shape: 10 512 14 14 (1003520)
I0915 12:00:04.843000 30406 net.cpp:156] Memory required for data: 373560320
I0915 12:00:04.843005 30406 layer_factory.hpp:77] Creating layer inception_4a/output_inception_4a/output_0_split
I0915 12:00:04.843017 30406 net.cpp:91] Creating Layer inception_4a/output_inception_4a/output_0_split
I0915 12:00:04.843022 30406 net.cpp:425] inception_4a/output_inception_4a/output_0_split <- inception_4a/output
I0915 12:00:04.843029 30406 net.cpp:399] inception_4a/output_inception_4a/output_0_split -> inception_4a/output_inception_4a/output_0_split_0
I0915 12:00:04.843039 30406 net.cpp:399] inception_4a/output_inception_4a/output_0_split -> inception_4a/output_inception_4a/output_0_split_1
I0915 12:00:04.843049 30406 net.cpp:399] inception_4a/output_inception_4a/output_0_split -> inception_4a/output_inception_4a/output_0_split_2
I0915 12:00:04.843056 30406 net.cpp:399] inception_4a/output_inception_4a/output_0_split -> inception_4a/output_inception_4a/output_0_split_3
I0915 12:00:04.843138 30406 net.cpp:141] Setting up inception_4a/output_inception_4a/output_0_split
I0915 12:00:04.843147 30406 net.cpp:148] Top shape: 10 512 14 14 (1003520)
I0915 12:00:04.843152 30406 net.cpp:148] Top shape: 10 512 14 14 (1003520)
I0915 12:00:04.843158 30406 net.cpp:148] Top shape: 10 512 14 14 (1003520)
I0915 12:00:04.843163 30406 net.cpp:148] Top shape: 10 512 14 14 (1003520)
I0915 12:00:04.843168 30406 net.cpp:156] Memory required for data: 389616640
I0915 12:00:04.843171 30406 layer_factory.hpp:77] Creating layer inception_4b/1x1
I0915 12:00:04.843188 30406 net.cpp:91] Creating Layer inception_4b/1x1
I0915 12:00:04.843194 30406 net.cpp:425] inception_4b/1x1 <- inception_4a/output_inception_4a/output_0_split_0
I0915 12:00:04.843204 30406 net.cpp:399] inception_4b/1x1 -> inception_4b/1x1
I0915 12:00:04.845082 30406 net.cpp:141] Setting up inception_4b/1x1
I0915 12:00:04.845104 30406 net.cpp:148] Top shape: 10 160 14 14 (313600)
I0915 12:00:04.845109 30406 net.cpp:156] Memory required for data: 390871040
I0915 12:00:04.845119 30406 layer_factory.hpp:77] Creating layer inception_4b/relu_1x1
I0915 12:00:04.845127 30406 net.cpp:91] Creating Layer inception_4b/relu_1x1
I0915 12:00:04.845134 30406 net.cpp:425] inception_4b/relu_1x1 <- inception_4b/1x1
I0915 12:00:04.845141 30406 net.cpp:386] inception_4b/relu_1x1 -> inception_4b/1x1 (in-place)
I0915 12:00:04.845537 30406 net.cpp:141] Setting up inception_4b/relu_1x1
I0915 12:00:04.845551 30406 net.cpp:148] Top shape: 10 160 14 14 (313600)
I0915 12:00:04.845556 30406 net.cpp:156] Memory required for data: 392125440
I0915 12:00:04.845561 30406 layer_factory.hpp:77] Creating layer inception_4b/3x3_reduce
I0915 12:00:04.845576 30406 net.cpp:91] Creating Layer inception_4b/3x3_reduce
I0915 12:00:04.845582 30406 net.cpp:425] inception_4b/3x3_reduce <- inception_4a/output_inception_4a/output_0_split_1
I0915 12:00:04.845590 30406 net.cpp:399] inception_4b/3x3_reduce -> inception_4b/3x3_reduce
I0915 12:00:04.847434 30406 net.cpp:141] Setting up inception_4b/3x3_reduce
I0915 12:00:04.847450 30406 net.cpp:148] Top shape: 10 112 14 14 (219520)
I0915 12:00:04.847455 30406 net.cpp:156] Memory required for data: 393003520
I0915 12:00:04.847463 30406 layer_factory.hpp:77] Creating layer inception_4b/relu_3x3_reduce
I0915 12:00:04.847471 30406 net.cpp:91] Creating Layer inception_4b/relu_3x3_reduce
I0915 12:00:04.847477 30406 net.cpp:425] inception_4b/relu_3x3_reduce <- inception_4b/3x3_reduce
I0915 12:00:04.847487 30406 net.cpp:386] inception_4b/relu_3x3_reduce -> inception_4b/3x3_reduce (in-place)
I0915 12:00:04.847718 30406 net.cpp:141] Setting up inception_4b/relu_3x3_reduce
I0915 12:00:04.847728 30406 net.cpp:148] Top shape: 10 112 14 14 (219520)
I0915 12:00:04.847734 30406 net.cpp:156] Memory required for data: 393881600
I0915 12:00:04.847739 30406 layer_factory.hpp:77] Creating layer inception_4b/3x3
I0915 12:00:04.847751 30406 net.cpp:91] Creating Layer inception_4b/3x3
I0915 12:00:04.847756 30406 net.cpp:425] inception_4b/3x3 <- inception_4b/3x3_reduce
I0915 12:00:04.847769 30406 net.cpp:399] inception_4b/3x3 -> inception_4b/3x3
I0915 12:00:04.851837 30406 net.cpp:141] Setting up inception_4b/3x3
I0915 12:00:04.851855 30406 net.cpp:148] Top shape: 10 224 14 14 (439040)
I0915 12:00:04.851861 30406 net.cpp:156] Memory required for data: 395637760
I0915 12:00:04.851869 30406 layer_factory.hpp:77] Creating layer inception_4b/relu_3x3
I0915 12:00:04.851877 30406 net.cpp:91] Creating Layer inception_4b/relu_3x3
I0915 12:00:04.851883 30406 net.cpp:425] inception_4b/relu_3x3 <- inception_4b/3x3
I0915 12:00:04.851891 30406 net.cpp:386] inception_4b/relu_3x3 -> inception_4b/3x3 (in-place)
I0915 12:00:04.852322 30406 net.cpp:141] Setting up inception_4b/relu_3x3
I0915 12:00:04.852336 30406 net.cpp:148] Top shape: 10 224 14 14 (439040)
I0915 12:00:04.852341 30406 net.cpp:156] Memory required for data: 397393920
I0915 12:00:04.852346 30406 layer_factory.hpp:77] Creating layer inception_4b/5x5_reduce
I0915 12:00:04.852372 30406 net.cpp:91] Creating Layer inception_4b/5x5_reduce
I0915 12:00:04.852378 30406 net.cpp:425] inception_4b/5x5_reduce <- inception_4a/output_inception_4a/output_0_split_2
I0915 12:00:04.852387 30406 net.cpp:399] inception_4b/5x5_reduce -> inception_4b/5x5_reduce
I0915 12:00:04.853741 30406 net.cpp:141] Setting up inception_4b/5x5_reduce
I0915 12:00:04.853759 30406 net.cpp:148] Top shape: 10 24 14 14 (47040)
I0915 12:00:04.853763 30406 net.cpp:156] Memory required for data: 397582080
I0915 12:00:04.853772 30406 layer_factory.hpp:77] Creating layer inception_4b/relu_5x5_reduce
I0915 12:00:04.853785 30406 net.cpp:91] Creating Layer inception_4b/relu_5x5_reduce
I0915 12:00:04.853790 30406 net.cpp:425] inception_4b/relu_5x5_reduce <- inception_4b/5x5_reduce
I0915 12:00:04.853797 30406 net.cpp:386] inception_4b/relu_5x5_reduce -> inception_4b/5x5_reduce (in-place)
I0915 12:00:04.854198 30406 net.cpp:141] Setting up inception_4b/relu_5x5_reduce
I0915 12:00:04.854212 30406 net.cpp:148] Top shape: 10 24 14 14 (47040)
I0915 12:00:04.854217 30406 net.cpp:156] Memory required for data: 397770240
I0915 12:00:04.854221 30406 layer_factory.hpp:77] Creating layer inception_4b/5x5
I0915 12:00:04.854238 30406 net.cpp:91] Creating Layer inception_4b/5x5
I0915 12:00:04.854244 30406 net.cpp:425] inception_4b/5x5 <- inception_4b/5x5_reduce
I0915 12:00:04.854254 30406 net.cpp:399] inception_4b/5x5 -> inception_4b/5x5
I0915 12:00:04.856674 30406 net.cpp:141] Setting up inception_4b/5x5
I0915 12:00:04.856693 30406 net.cpp:148] Top shape: 10 64 14 14 (125440)
I0915 12:00:04.856698 30406 net.cpp:156] Memory required for data: 398272000
I0915 12:00:04.856708 30406 layer_factory.hpp:77] Creating layer inception_4b/relu_5x5
I0915 12:00:04.856715 30406 net.cpp:91] Creating Layer inception_4b/relu_5x5
I0915 12:00:04.856721 30406 net.cpp:425] inception_4b/relu_5x5 <- inception_4b/5x5
I0915 12:00:04.856732 30406 net.cpp:386] inception_4b/relu_5x5 -> inception_4b/5x5 (in-place)
I0915 12:00:04.856964 30406 net.cpp:141] Setting up inception_4b/relu_5x5
I0915 12:00:04.856976 30406 net.cpp:148] Top shape: 10 64 14 14 (125440)
I0915 12:00:04.856979 30406 net.cpp:156] Memory required for data: 398773760
I0915 12:00:04.856984 30406 layer_factory.hpp:77] Creating layer inception_4b/pool
I0915 12:00:04.856997 30406 net.cpp:91] Creating Layer inception_4b/pool
I0915 12:00:04.857002 30406 net.cpp:425] inception_4b/pool <- inception_4a/output_inception_4a/output_0_split_3
I0915 12:00:04.857009 30406 net.cpp:399] inception_4b/pool -> inception_4b/pool
I0915 12:00:04.857075 30406 net.cpp:141] Setting up inception_4b/pool
I0915 12:00:04.857085 30406 net.cpp:148] Top shape: 10 512 14 14 (1003520)
I0915 12:00:04.857089 30406 net.cpp:156] Memory required for data: 402787840
I0915 12:00:04.857095 30406 layer_factory.hpp:77] Creating layer inception_4b/pool_proj
I0915 12:00:04.857108 30406 net.cpp:91] Creating Layer inception_4b/pool_proj
I0915 12:00:04.857115 30406 net.cpp:425] inception_4b/pool_proj <- inception_4b/pool
I0915 12:00:04.857125 30406 net.cpp:399] inception_4b/pool_proj -> inception_4b/pool_proj
I0915 12:00:04.858759 30406 net.cpp:141] Setting up inception_4b/pool_proj
I0915 12:00:04.858777 30406 net.cpp:148] Top shape: 10 64 14 14 (125440)
I0915 12:00:04.858781 30406 net.cpp:156] Memory required for data: 403289600
I0915 12:00:04.858790 30406 layer_factory.hpp:77] Creating layer inception_4b/relu_pool_proj
I0915 12:00:04.858803 30406 net.cpp:91] Creating Layer inception_4b/relu_pool_proj
I0915 12:00:04.858808 30406 net.cpp:425] inception_4b/relu_pool_proj <- inception_4b/pool_proj
I0915 12:00:04.858817 30406 net.cpp:386] inception_4b/relu_pool_proj -> inception_4b/pool_proj (in-place)
I0915 12:00:04.859217 30406 net.cpp:141] Setting up inception_4b/relu_pool_proj
I0915 12:00:04.859230 30406 net.cpp:148] Top shape: 10 64 14 14 (125440)
I0915 12:00:04.859235 30406 net.cpp:156] Memory required for data: 403791360
I0915 12:00:04.859239 30406 layer_factory.hpp:77] Creating layer inception_4b/output
I0915 12:00:04.859247 30406 net.cpp:91] Creating Layer inception_4b/output
I0915 12:00:04.859252 30406 net.cpp:425] inception_4b/output <- inception_4b/1x1
I0915 12:00:04.859259 30406 net.cpp:425] inception_4b/output <- inception_4b/3x3
I0915 12:00:04.859264 30406 net.cpp:425] inception_4b/output <- inception_4b/5x5
I0915 12:00:04.859269 30406 net.cpp:425] inception_4b/output <- inception_4b/pool_proj
I0915 12:00:04.859278 30406 net.cpp:399] inception_4b/output -> inception_4b/output
I0915 12:00:04.859320 30406 net.cpp:141] Setting up inception_4b/output
I0915 12:00:04.859328 30406 net.cpp:148] Top shape: 10 512 14 14 (1003520)
I0915 12:00:04.859333 30406 net.cpp:156] Memory required for data: 407805440
I0915 12:00:04.859338 30406 layer_factory.hpp:77] Creating layer inception_4b/output_inception_4b/output_0_split
I0915 12:00:04.859350 30406 net.cpp:91] Creating Layer inception_4b/output_inception_4b/output_0_split
I0915 12:00:04.859356 30406 net.cpp:425] inception_4b/output_inception_4b/output_0_split <- inception_4b/output
I0915 12:00:04.859364 30406 net.cpp:399] inception_4b/output_inception_4b/output_0_split -> inception_4b/output_inception_4b/output_0_split_0
I0915 12:00:04.859372 30406 net.cpp:399] inception_4b/output_inception_4b/output_0_split -> inception_4b/output_inception_4b/output_0_split_1
I0915 12:00:04.859383 30406 net.cpp:399] inception_4b/output_inception_4b/output_0_split -> inception_4b/output_inception_4b/output_0_split_2
I0915 12:00:04.859391 30406 net.cpp:399] inception_4b/output_inception_4b/output_0_split -> inception_4b/output_inception_4b/output_0_split_3
I0915 12:00:04.859477 30406 net.cpp:141] Setting up inception_4b/output_inception_4b/output_0_split
I0915 12:00:04.859485 30406 net.cpp:148] Top shape: 10 512 14 14 (1003520)
I0915 12:00:04.859491 30406 net.cpp:148] Top shape: 10 512 14 14 (1003520)
I0915 12:00:04.859498 30406 net.cpp:148] Top shape: 10 512 14 14 (1003520)
I0915 12:00:04.859503 30406 net.cpp:148] Top shape: 10 512 14 14 (1003520)
I0915 12:00:04.859506 30406 net.cpp:156] Memory required for data: 423861760
I0915 12:00:04.859510 30406 layer_factory.hpp:77] Creating layer inception_4c/1x1
I0915 12:00:04.859524 30406 net.cpp:91] Creating Layer inception_4c/1x1
I0915 12:00:04.859530 30406 net.cpp:425] inception_4c/1x1 <- inception_4b/output_inception_4b/output_0_split_0
I0915 12:00:04.859541 30406 net.cpp:399] inception_4c/1x1 -> inception_4c/1x1
I0915 12:00:04.861268 30406 net.cpp:141] Setting up inception_4c/1x1
I0915 12:00:04.861284 30406 net.cpp:148] Top shape: 10 128 14 14 (250880)
I0915 12:00:04.861289 30406 net.cpp:156] Memory required for data: 424865280
I0915 12:00:04.861299 30406 layer_factory.hpp:77] Creating layer inception_4c/relu_1x1
I0915 12:00:04.861310 30406 net.cpp:91] Creating Layer inception_4c/relu_1x1
I0915 12:00:04.861316 30406 net.cpp:425] inception_4c/relu_1x1 <- inception_4c/1x1
I0915 12:00:04.861323 30406 net.cpp:386] inception_4c/relu_1x1 -> inception_4c/1x1 (in-place)
I0915 12:00:04.861712 30406 net.cpp:141] Setting up inception_4c/relu_1x1
I0915 12:00:04.861726 30406 net.cpp:148] Top shape: 10 128 14 14 (250880)
I0915 12:00:04.861729 30406 net.cpp:156] Memory required for data: 425868800
I0915 12:00:04.861734 30406 layer_factory.hpp:77] Creating layer inception_4c/3x3_reduce
I0915 12:00:04.861752 30406 net.cpp:91] Creating Layer inception_4c/3x3_reduce
I0915 12:00:04.861758 30406 net.cpp:425] inception_4c/3x3_reduce <- inception_4b/output_inception_4b/output_0_split_1
I0915 12:00:04.861766 30406 net.cpp:399] inception_4c/3x3_reduce -> inception_4c/3x3_reduce
I0915 12:00:04.863662 30406 net.cpp:141] Setting up inception_4c/3x3_reduce
I0915 12:00:04.863679 30406 net.cpp:148] Top shape: 10 128 14 14 (250880)
I0915 12:00:04.863684 30406 net.cpp:156] Memory required for data: 426872320
I0915 12:00:04.863692 30406 layer_factory.hpp:77] Creating layer inception_4c/relu_3x3_reduce
I0915 12:00:04.863701 30406 net.cpp:91] Creating Layer inception_4c/relu_3x3_reduce
I0915 12:00:04.863709 30406 net.cpp:425] inception_4c/relu_3x3_reduce <- inception_4c/3x3_reduce
I0915 12:00:04.863716 30406 net.cpp:386] inception_4c/relu_3x3_reduce -> inception_4c/3x3_reduce (in-place)
I0915 12:00:04.863945 30406 net.cpp:141] Setting up inception_4c/relu_3x3_reduce
I0915 12:00:04.863956 30406 net.cpp:148] Top shape: 10 128 14 14 (250880)
I0915 12:00:04.863960 30406 net.cpp:156] Memory required for data: 427875840
I0915 12:00:04.863965 30406 layer_factory.hpp:77] Creating layer inception_4c/3x3
I0915 12:00:04.863982 30406 net.cpp:91] Creating Layer inception_4c/3x3
I0915 12:00:04.863988 30406 net.cpp:425] inception_4c/3x3 <- inception_4c/3x3_reduce
I0915 12:00:04.863996 30406 net.cpp:399] inception_4c/3x3 -> inception_4c/3x3
I0915 12:00:04.868398 30406 net.cpp:141] Setting up inception_4c/3x3
I0915 12:00:04.868417 30406 net.cpp:148] Top shape: 10 256 14 14 (501760)
I0915 12:00:04.868422 30406 net.cpp:156] Memory required for data: 429882880
I0915 12:00:04.868430 30406 layer_factory.hpp:77] Creating layer inception_4c/relu_3x3
I0915 12:00:04.868439 30406 net.cpp:91] Creating Layer inception_4c/relu_3x3
I0915 12:00:04.868445 30406 net.cpp:425] inception_4c/relu_3x3 <- inception_4c/3x3
I0915 12:00:04.868455 30406 net.cpp:386] inception_4c/relu_3x3 -> inception_4c/3x3 (in-place)
I0915 12:00:04.868855 30406 net.cpp:141] Setting up inception_4c/relu_3x3
I0915 12:00:04.868867 30406 net.cpp:148] Top shape: 10 256 14 14 (501760)
I0915 12:00:04.868872 30406 net.cpp:156] Memory required for data: 431889920
I0915 12:00:04.868877 30406 layer_factory.hpp:77] Creating layer inception_4c/5x5_reduce
I0915 12:00:04.868892 30406 net.cpp:91] Creating Layer inception_4c/5x5_reduce
I0915 12:00:04.868899 30406 net.cpp:425] inception_4c/5x5_reduce <- inception_4b/output_inception_4b/output_0_split_2
I0915 12:00:04.868909 30406 net.cpp:399] inception_4c/5x5_reduce -> inception_4c/5x5_reduce
I0915 12:00:04.870280 30406 net.cpp:141] Setting up inception_4c/5x5_reduce
I0915 12:00:04.870297 30406 net.cpp:148] Top shape: 10 24 14 14 (47040)
I0915 12:00:04.870302 30406 net.cpp:156] Memory required for data: 432078080
I0915 12:00:04.870311 30406 layer_factory.hpp:77] Creating layer inception_4c/relu_5x5_reduce
I0915 12:00:04.870322 30406 net.cpp:91] Creating Layer inception_4c/relu_5x5_reduce
I0915 12:00:04.870329 30406 net.cpp:425] inception_4c/relu_5x5_reduce <- inception_4c/5x5_reduce
I0915 12:00:04.870335 30406 net.cpp:386] inception_4c/relu_5x5_reduce -> inception_4c/5x5_reduce (in-place)
I0915 12:00:04.870734 30406 net.cpp:141] Setting up inception_4c/relu_5x5_reduce
I0915 12:00:04.870749 30406 net.cpp:148] Top shape: 10 24 14 14 (47040)
I0915 12:00:04.870754 30406 net.cpp:156] Memory required for data: 432266240
I0915 12:00:04.870760 30406 layer_factory.hpp:77] Creating layer inception_4c/5x5
I0915 12:00:04.870774 30406 net.cpp:91] Creating Layer inception_4c/5x5
I0915 12:00:04.870780 30406 net.cpp:425] inception_4c/5x5 <- inception_4c/5x5_reduce
I0915 12:00:04.870789 30406 net.cpp:399] inception_4c/5x5 -> inception_4c/5x5
I0915 12:00:04.872764 30406 net.cpp:141] Setting up inception_4c/5x5
I0915 12:00:04.872782 30406 net.cpp:148] Top shape: 10 64 14 14 (125440)
I0915 12:00:04.872787 30406 net.cpp:156] Memory required for data: 432768000
I0915 12:00:04.872797 30406 layer_factory.hpp:77] Creating layer inception_4c/relu_5x5
I0915 12:00:04.872804 30406 net.cpp:91] Creating Layer inception_4c/relu_5x5
I0915 12:00:04.872810 30406 net.cpp:425] inception_4c/relu_5x5 <- inception_4c/5x5
I0915 12:00:04.872817 30406 net.cpp:386] inception_4c/relu_5x5 -> inception_4c/5x5 (in-place)
I0915 12:00:04.873054 30406 net.cpp:141] Setting up inception_4c/relu_5x5
I0915 12:00:04.873064 30406 net.cpp:148] Top shape: 10 64 14 14 (125440)
I0915 12:00:04.873069 30406 net.cpp:156] Memory required for data: 433269760
I0915 12:00:04.873073 30406 layer_factory.hpp:77] Creating layer inception_4c/pool
I0915 12:00:04.873085 30406 net.cpp:91] Creating Layer inception_4c/pool
I0915 12:00:04.873090 30406 net.cpp:425] inception_4c/pool <- inception_4b/output_inception_4b/output_0_split_3
I0915 12:00:04.873098 30406 net.cpp:399] inception_4c/pool -> inception_4c/pool
I0915 12:00:04.873167 30406 net.cpp:141] Setting up inception_4c/pool
I0915 12:00:04.873175 30406 net.cpp:148] Top shape: 10 512 14 14 (1003520)
I0915 12:00:04.873179 30406 net.cpp:156] Memory required for data: 437283840
I0915 12:00:04.873184 30406 layer_factory.hpp:77] Creating layer inception_4c/pool_proj
I0915 12:00:04.873198 30406 net.cpp:91] Creating Layer inception_4c/pool_proj
I0915 12:00:04.873204 30406 net.cpp:425] inception_4c/pool_proj <- inception_4c/pool
I0915 12:00:04.873215 30406 net.cpp:399] inception_4c/pool_proj -> inception_4c/pool_proj
I0915 12:00:04.875607 30406 net.cpp:141] Setting up inception_4c/pool_proj
I0915 12:00:04.875627 30406 net.cpp:148] Top shape: 10 64 14 14 (125440)
I0915 12:00:04.875633 30406 net.cpp:156] Memory required for data: 437785600
I0915 12:00:04.875658 30406 layer_factory.hpp:77] Creating layer inception_4c/relu_pool_proj
I0915 12:00:04.875669 30406 net.cpp:91] Creating Layer inception_4c/relu_pool_proj
I0915 12:00:04.875674 30406 net.cpp:425] inception_4c/relu_pool_proj <- inception_4c/pool_proj
I0915 12:00:04.875684 30406 net.cpp:386] inception_4c/relu_pool_proj -> inception_4c/pool_proj (in-place)
I0915 12:00:04.876096 30406 net.cpp:141] Setting up inception_4c/relu_pool_proj
I0915 12:00:04.876108 30406 net.cpp:148] Top shape: 10 64 14 14 (125440)
I0915 12:00:04.876113 30406 net.cpp:156] Memory required for data: 438287360
I0915 12:00:04.876118 30406 layer_factory.hpp:77] Creating layer inception_4c/output
I0915 12:00:04.876130 30406 net.cpp:91] Creating Layer inception_4c/output
I0915 12:00:04.876137 30406 net.cpp:425] inception_4c/output <- inception_4c/1x1
I0915 12:00:04.876142 30406 net.cpp:425] inception_4c/output <- inception_4c/3x3
I0915 12:00:04.876148 30406 net.cpp:425] inception_4c/output <- inception_4c/5x5
I0915 12:00:04.876153 30406 net.cpp:425] inception_4c/output <- inception_4c/pool_proj
I0915 12:00:04.876163 30406 net.cpp:399] inception_4c/output -> inception_4c/output
I0915 12:00:04.876204 30406 net.cpp:141] Setting up inception_4c/output
I0915 12:00:04.876214 30406 net.cpp:148] Top shape: 10 512 14 14 (1003520)
I0915 12:00:04.876219 30406 net.cpp:156] Memory required for data: 442301440
I0915 12:00:04.876224 30406 layer_factory.hpp:77] Creating layer inception_4c/output_inception_4c/output_0_split
I0915 12:00:04.876235 30406 net.cpp:91] Creating Layer inception_4c/output_inception_4c/output_0_split
I0915 12:00:04.876241 30406 net.cpp:425] inception_4c/output_inception_4c/output_0_split <- inception_4c/output
I0915 12:00:04.876248 30406 net.cpp:399] inception_4c/output_inception_4c/output_0_split -> inception_4c/output_inception_4c/output_0_split_0
I0915 12:00:04.876257 30406 net.cpp:399] inception_4c/output_inception_4c/output_0_split -> inception_4c/output_inception_4c/output_0_split_1
I0915 12:00:04.876266 30406 net.cpp:399] inception_4c/output_inception_4c/output_0_split -> inception_4c/output_inception_4c/output_0_split_2
I0915 12:00:04.876276 30406 net.cpp:399] inception_4c/output_inception_4c/output_0_split -> inception_4c/output_inception_4c/output_0_split_3
I0915 12:00:04.876364 30406 net.cpp:141] Setting up inception_4c/output_inception_4c/output_0_split
I0915 12:00:04.876374 30406 net.cpp:148] Top shape: 10 512 14 14 (1003520)
I0915 12:00:04.876379 30406 net.cpp:148] Top shape: 10 512 14 14 (1003520)
I0915 12:00:04.876385 30406 net.cpp:148] Top shape: 10 512 14 14 (1003520)
I0915 12:00:04.876390 30406 net.cpp:148] Top shape: 10 512 14 14 (1003520)
I0915 12:00:04.876394 30406 net.cpp:156] Memory required for data: 458357760
I0915 12:00:04.876399 30406 layer_factory.hpp:77] Creating layer inception_4d/1x1
I0915 12:00:04.876412 30406 net.cpp:91] Creating Layer inception_4d/1x1
I0915 12:00:04.876418 30406 net.cpp:425] inception_4d/1x1 <- inception_4c/output_inception_4c/output_0_split_0
I0915 12:00:04.876430 30406 net.cpp:399] inception_4d/1x1 -> inception_4d/1x1
I0915 12:00:04.878118 30406 net.cpp:141] Setting up inception_4d/1x1
I0915 12:00:04.878136 30406 net.cpp:148] Top shape: 10 112 14 14 (219520)
I0915 12:00:04.878141 30406 net.cpp:156] Memory required for data: 459235840
I0915 12:00:04.878150 30406 layer_factory.hpp:77] Creating layer inception_4d/relu_1x1
I0915 12:00:04.878162 30406 net.cpp:91] Creating Layer inception_4d/relu_1x1
I0915 12:00:04.878168 30406 net.cpp:425] inception_4d/relu_1x1 <- inception_4d/1x1
I0915 12:00:04.878175 30406 net.cpp:386] inception_4d/relu_1x1 -> inception_4d/1x1 (in-place)
I0915 12:00:04.878576 30406 net.cpp:141] Setting up inception_4d/relu_1x1
I0915 12:00:04.878588 30406 net.cpp:148] Top shape: 10 112 14 14 (219520)
I0915 12:00:04.878592 30406 net.cpp:156] Memory required for data: 460113920
I0915 12:00:04.878597 30406 layer_factory.hpp:77] Creating layer inception_4d/3x3_reduce
I0915 12:00:04.878612 30406 net.cpp:91] Creating Layer inception_4d/3x3_reduce
I0915 12:00:04.878618 30406 net.cpp:425] inception_4d/3x3_reduce <- inception_4c/output_inception_4c/output_0_split_1
I0915 12:00:04.878629 30406 net.cpp:399] inception_4d/3x3_reduce -> inception_4d/3x3_reduce
I0915 12:00:04.880645 30406 net.cpp:141] Setting up inception_4d/3x3_reduce
I0915 12:00:04.880662 30406 net.cpp:148] Top shape: 10 144 14 14 (282240)
I0915 12:00:04.880667 30406 net.cpp:156] Memory required for data: 461242880
I0915 12:00:04.880676 30406 layer_factory.hpp:77] Creating layer inception_4d/relu_3x3_reduce
I0915 12:00:04.880684 30406 net.cpp:91] Creating Layer inception_4d/relu_3x3_reduce
I0915 12:00:04.880691 30406 net.cpp:425] inception_4d/relu_3x3_reduce <- inception_4d/3x3_reduce
I0915 12:00:04.880702 30406 net.cpp:386] inception_4d/relu_3x3_reduce -> inception_4d/3x3_reduce (in-place)
I0915 12:00:04.880939 30406 net.cpp:141] Setting up inception_4d/relu_3x3_reduce
I0915 12:00:04.880952 30406 net.cpp:148] Top shape: 10 144 14 14 (282240)
I0915 12:00:04.880957 30406 net.cpp:156] Memory required for data: 462371840
I0915 12:00:04.880962 30406 layer_factory.hpp:77] Creating layer inception_4d/3x3
I0915 12:00:04.880977 30406 net.cpp:91] Creating Layer inception_4d/3x3
I0915 12:00:04.880983 30406 net.cpp:425] inception_4d/3x3 <- inception_4d/3x3_reduce
I0915 12:00:04.880991 30406 net.cpp:399] inception_4d/3x3 -> inception_4d/3x3
I0915 12:00:04.886117 30406 net.cpp:141] Setting up inception_4d/3x3
I0915 12:00:04.886137 30406 net.cpp:148] Top shape: 10 288 14 14 (564480)
I0915 12:00:04.886142 30406 net.cpp:156] Memory required for data: 464629760
I0915 12:00:04.886152 30406 layer_factory.hpp:77] Creating layer inception_4d/relu_3x3
I0915 12:00:04.886163 30406 net.cpp:91] Creating Layer inception_4d/relu_3x3
I0915 12:00:04.886170 30406 net.cpp:425] inception_4d/relu_3x3 <- inception_4d/3x3
I0915 12:00:04.886179 30406 net.cpp:386] inception_4d/relu_3x3 -> inception_4d/3x3 (in-place)
I0915 12:00:04.886596 30406 net.cpp:141] Setting up inception_4d/relu_3x3
I0915 12:00:04.886610 30406 net.cpp:148] Top shape: 10 288 14 14 (564480)
I0915 12:00:04.886615 30406 net.cpp:156] Memory required for data: 466887680
I0915 12:00:04.886620 30406 layer_factory.hpp:77] Creating layer inception_4d/5x5_reduce
I0915 12:00:04.886634 30406 net.cpp:91] Creating Layer inception_4d/5x5_reduce
I0915 12:00:04.886641 30406 net.cpp:425] inception_4d/5x5_reduce <- inception_4c/output_inception_4c/output_0_split_2
I0915 12:00:04.886649 30406 net.cpp:399] inception_4d/5x5_reduce -> inception_4d/5x5_reduce
I0915 12:00:04.888101 30406 net.cpp:141] Setting up inception_4d/5x5_reduce
I0915 12:00:04.888119 30406 net.cpp:148] Top shape: 10 32 14 14 (62720)
I0915 12:00:04.888125 30406 net.cpp:156] Memory required for data: 467138560
I0915 12:00:04.888134 30406 layer_factory.hpp:77] Creating layer inception_4d/relu_5x5_reduce
I0915 12:00:04.888144 30406 net.cpp:91] Creating Layer inception_4d/relu_5x5_reduce
I0915 12:00:04.888151 30406 net.cpp:425] inception_4d/relu_5x5_reduce <- inception_4d/5x5_reduce
I0915 12:00:04.888159 30406 net.cpp:386] inception_4d/relu_5x5_reduce -> inception_4d/5x5_reduce (in-place)
I0915 12:00:04.888564 30406 net.cpp:141] Setting up inception_4d/relu_5x5_reduce
I0915 12:00:04.888576 30406 net.cpp:148] Top shape: 10 32 14 14 (62720)
I0915 12:00:04.888581 30406 net.cpp:156] Memory required for data: 467389440
I0915 12:00:04.888586 30406 layer_factory.hpp:77] Creating layer inception_4d/5x5
I0915 12:00:04.888602 30406 net.cpp:91] Creating Layer inception_4d/5x5
I0915 12:00:04.888608 30406 net.cpp:425] inception_4d/5x5 <- inception_4d/5x5_reduce
I0915 12:00:04.888620 30406 net.cpp:399] inception_4d/5x5 -> inception_4d/5x5
I0915 12:00:04.890470 30406 net.cpp:141] Setting up inception_4d/5x5
I0915 12:00:04.890488 30406 net.cpp:148] Top shape: 10 64 14 14 (125440)
I0915 12:00:04.890493 30406 net.cpp:156] Memory required for data: 467891200
I0915 12:00:04.890501 30406 layer_factory.hpp:77] Creating layer inception_4d/relu_5x5
I0915 12:00:04.890511 30406 net.cpp:91] Creating Layer inception_4d/relu_5x5
I0915 12:00:04.890516 30406 net.cpp:425] inception_4d/relu_5x5 <- inception_4d/5x5
I0915 12:00:04.890522 30406 net.cpp:386] inception_4d/relu_5x5 -> inception_4d/5x5 (in-place)
I0915 12:00:04.890763 30406 net.cpp:141] Setting up inception_4d/relu_5x5
I0915 12:00:04.890774 30406 net.cpp:148] Top shape: 10 64 14 14 (125440)
I0915 12:00:04.890777 30406 net.cpp:156] Memory required for data: 468392960
I0915 12:00:04.890782 30406 layer_factory.hpp:77] Creating layer inception_4d/pool
I0915 12:00:04.890794 30406 net.cpp:91] Creating Layer inception_4d/pool
I0915 12:00:04.890801 30406 net.cpp:425] inception_4d/pool <- inception_4c/output_inception_4c/output_0_split_3
I0915 12:00:04.890808 30406 net.cpp:399] inception_4d/pool -> inception_4d/pool
I0915 12:00:04.890877 30406 net.cpp:141] Setting up inception_4d/pool
I0915 12:00:04.890887 30406 net.cpp:148] Top shape: 10 512 14 14 (1003520)
I0915 12:00:04.890890 30406 net.cpp:156] Memory required for data: 472407040
I0915 12:00:04.890895 30406 layer_factory.hpp:77] Creating layer inception_4d/pool_proj
I0915 12:00:04.890909 30406 net.cpp:91] Creating Layer inception_4d/pool_proj
I0915 12:00:04.890916 30406 net.cpp:425] inception_4d/pool_proj <- inception_4d/pool
I0915 12:00:04.890926 30406 net.cpp:399] inception_4d/pool_proj -> inception_4d/pool_proj
I0915 12:00:04.892652 30406 net.cpp:141] Setting up inception_4d/pool_proj
I0915 12:00:04.892669 30406 net.cpp:148] Top shape: 10 64 14 14 (125440)
I0915 12:00:04.892675 30406 net.cpp:156] Memory required for data: 472908800
I0915 12:00:04.892683 30406 layer_factory.hpp:77] Creating layer inception_4d/relu_pool_proj
I0915 12:00:04.892693 30406 net.cpp:91] Creating Layer inception_4d/relu_pool_proj
I0915 12:00:04.892699 30406 net.cpp:425] inception_4d/relu_pool_proj <- inception_4d/pool_proj
I0915 12:00:04.892709 30406 net.cpp:386] inception_4d/relu_pool_proj -> inception_4d/pool_proj (in-place)
I0915 12:00:04.893120 30406 net.cpp:141] Setting up inception_4d/relu_pool_proj
I0915 12:00:04.893131 30406 net.cpp:148] Top shape: 10 64 14 14 (125440)
I0915 12:00:04.893136 30406 net.cpp:156] Memory required for data: 473410560
I0915 12:00:04.893141 30406 layer_factory.hpp:77] Creating layer inception_4d/output
I0915 12:00:04.893151 30406 net.cpp:91] Creating Layer inception_4d/output
I0915 12:00:04.893156 30406 net.cpp:425] inception_4d/output <- inception_4d/1x1
I0915 12:00:04.893162 30406 net.cpp:425] inception_4d/output <- inception_4d/3x3
I0915 12:00:04.893167 30406 net.cpp:425] inception_4d/output <- inception_4d/5x5
I0915 12:00:04.893173 30406 net.cpp:425] inception_4d/output <- inception_4d/pool_proj
I0915 12:00:04.893182 30406 net.cpp:399] inception_4d/output -> inception_4d/output
I0915 12:00:04.893229 30406 net.cpp:141] Setting up inception_4d/output
I0915 12:00:04.893239 30406 net.cpp:148] Top shape: 10 528 14 14 (1034880)
I0915 12:00:04.893244 30406 net.cpp:156] Memory required for data: 477550080
I0915 12:00:04.893249 30406 layer_factory.hpp:77] Creating layer inception_4d/output_inception_4d/output_0_split
I0915 12:00:04.893256 30406 net.cpp:91] Creating Layer inception_4d/output_inception_4d/output_0_split
I0915 12:00:04.893261 30406 net.cpp:425] inception_4d/output_inception_4d/output_0_split <- inception_4d/output
I0915 12:00:04.893267 30406 net.cpp:399] inception_4d/output_inception_4d/output_0_split -> inception_4d/output_inception_4d/output_0_split_0
I0915 12:00:04.893281 30406 net.cpp:399] inception_4d/output_inception_4d/output_0_split -> inception_4d/output_inception_4d/output_0_split_1
I0915 12:00:04.893290 30406 net.cpp:399] inception_4d/output_inception_4d/output_0_split -> inception_4d/output_inception_4d/output_0_split_2
I0915 12:00:04.893298 30406 net.cpp:399] inception_4d/output_inception_4d/output_0_split -> inception_4d/output_inception_4d/output_0_split_3
I0915 12:00:04.893394 30406 net.cpp:141] Setting up inception_4d/output_inception_4d/output_0_split
I0915 12:00:04.893404 30406 net.cpp:148] Top shape: 10 528 14 14 (1034880)
I0915 12:00:04.893409 30406 net.cpp:148] Top shape: 10 528 14 14 (1034880)
I0915 12:00:04.893414 30406 net.cpp:148] Top shape: 10 528 14 14 (1034880)
I0915 12:00:04.893419 30406 net.cpp:148] Top shape: 10 528 14 14 (1034880)
I0915 12:00:04.893424 30406 net.cpp:156] Memory required for data: 494108160
I0915 12:00:04.893429 30406 layer_factory.hpp:77] Creating layer inception_4e/1x1
I0915 12:00:04.893445 30406 net.cpp:91] Creating Layer inception_4e/1x1
I0915 12:00:04.893450 30406 net.cpp:425] inception_4e/1x1 <- inception_4d/output_inception_4d/output_0_split_0
I0915 12:00:04.893458 30406 net.cpp:399] inception_4e/1x1 -> inception_4e/1x1
I0915 12:00:04.896749 30406 net.cpp:141] Setting up inception_4e/1x1
I0915 12:00:04.896767 30406 net.cpp:148] Top shape: 10 256 14 14 (501760)
I0915 12:00:04.896773 30406 net.cpp:156] Memory required for data: 496115200
I0915 12:00:04.896782 30406 layer_factory.hpp:77] Creating layer inception_4e/relu_1x1
I0915 12:00:04.896790 30406 net.cpp:91] Creating Layer inception_4e/relu_1x1
I0915 12:00:04.896796 30406 net.cpp:425] inception_4e/relu_1x1 <- inception_4e/1x1
I0915 12:00:04.896803 30406 net.cpp:386] inception_4e/relu_1x1 -> inception_4e/1x1 (in-place)
I0915 12:00:04.897214 30406 net.cpp:141] Setting up inception_4e/relu_1x1
I0915 12:00:04.897228 30406 net.cpp:148] Top shape: 10 256 14 14 (501760)
I0915 12:00:04.897233 30406 net.cpp:156] Memory required for data: 498122240
I0915 12:00:04.897238 30406 layer_factory.hpp:77] Creating layer inception_4e/3x3_reduce
I0915 12:00:04.897253 30406 net.cpp:91] Creating Layer inception_4e/3x3_reduce
I0915 12:00:04.897258 30406 net.cpp:425] inception_4e/3x3_reduce <- inception_4d/output_inception_4d/output_0_split_1
I0915 12:00:04.897269 30406 net.cpp:399] inception_4e/3x3_reduce -> inception_4e/3x3_reduce
I0915 12:00:04.899374 30406 net.cpp:141] Setting up inception_4e/3x3_reduce
I0915 12:00:04.899391 30406 net.cpp:148] Top shape: 10 160 14 14 (313600)
I0915 12:00:04.899396 30406 net.cpp:156] Memory required for data: 499376640
I0915 12:00:04.899405 30406 layer_factory.hpp:77] Creating layer inception_4e/relu_3x3_reduce
I0915 12:00:04.899416 30406 net.cpp:91] Creating Layer inception_4e/relu_3x3_reduce
I0915 12:00:04.899423 30406 net.cpp:425] inception_4e/relu_3x3_reduce <- inception_4e/3x3_reduce
I0915 12:00:04.899430 30406 net.cpp:386] inception_4e/relu_3x3_reduce -> inception_4e/3x3_reduce (in-place)
I0915 12:00:04.899665 30406 net.cpp:141] Setting up inception_4e/relu_3x3_reduce
I0915 12:00:04.899677 30406 net.cpp:148] Top shape: 10 160 14 14 (313600)
I0915 12:00:04.899682 30406 net.cpp:156] Memory required for data: 500631040
I0915 12:00:04.899687 30406 layer_factory.hpp:77] Creating layer inception_4e/3x3
I0915 12:00:04.899701 30406 net.cpp:91] Creating Layer inception_4e/3x3
I0915 12:00:04.899708 30406 net.cpp:425] inception_4e/3x3 <- inception_4e/3x3_reduce
I0915 12:00:04.899718 30406 net.cpp:399] inception_4e/3x3 -> inception_4e/3x3
I0915 12:00:04.905628 30406 net.cpp:141] Setting up inception_4e/3x3
I0915 12:00:04.905649 30406 net.cpp:148] Top shape: 10 320 14 14 (627200)
I0915 12:00:04.905655 30406 net.cpp:156] Memory required for data: 503139840
I0915 12:00:04.905664 30406 layer_factory.hpp:77] Creating layer inception_4e/relu_3x3
I0915 12:00:04.905673 30406 net.cpp:91] Creating Layer inception_4e/relu_3x3
I0915 12:00:04.905679 30406 net.cpp:425] inception_4e/relu_3x3 <- inception_4e/3x3
I0915 12:00:04.905686 30406 net.cpp:386] inception_4e/relu_3x3 -> inception_4e/3x3 (in-place)
I0915 12:00:04.906113 30406 net.cpp:141] Setting up inception_4e/relu_3x3
I0915 12:00:04.906126 30406 net.cpp:148] Top shape: 10 320 14 14 (627200)
I0915 12:00:04.906131 30406 net.cpp:156] Memory required for data: 505648640
I0915 12:00:04.906136 30406 layer_factory.hpp:77] Creating layer inception_4e/5x5_reduce
I0915 12:00:04.906152 30406 net.cpp:91] Creating Layer inception_4e/5x5_reduce
I0915 12:00:04.906158 30406 net.cpp:425] inception_4e/5x5_reduce <- inception_4d/output_inception_4d/output_0_split_2
I0915 12:00:04.906169 30406 net.cpp:399] inception_4e/5x5_reduce -> inception_4e/5x5_reduce
I0915 12:00:04.907624 30406 net.cpp:141] Setting up inception_4e/5x5_reduce
I0915 12:00:04.907640 30406 net.cpp:148] Top shape: 10 32 14 14 (62720)
I0915 12:00:04.907645 30406 net.cpp:156] Memory required for data: 505899520
I0915 12:00:04.907655 30406 layer_factory.hpp:77] Creating layer inception_4e/relu_5x5_reduce
I0915 12:00:04.907662 30406 net.cpp:91] Creating Layer inception_4e/relu_5x5_reduce
I0915 12:00:04.907668 30406 net.cpp:425] inception_4e/relu_5x5_reduce <- inception_4e/5x5_reduce
I0915 12:00:04.907680 30406 net.cpp:386] inception_4e/relu_5x5_reduce -> inception_4e/5x5_reduce (in-place)
I0915 12:00:04.908109 30406 net.cpp:141] Setting up inception_4e/relu_5x5_reduce
I0915 12:00:04.908123 30406 net.cpp:148] Top shape: 10 32 14 14 (62720)
I0915 12:00:04.908128 30406 net.cpp:156] Memory required for data: 506150400
I0915 12:00:04.908133 30406 layer_factory.hpp:77] Creating layer inception_4e/5x5
I0915 12:00:04.908150 30406 net.cpp:91] Creating Layer inception_4e/5x5
I0915 12:00:04.908156 30406 net.cpp:425] inception_4e/5x5 <- inception_4e/5x5_reduce
I0915 12:00:04.908165 30406 net.cpp:399] inception_4e/5x5 -> inception_4e/5x5
I0915 12:00:04.911092 30406 net.cpp:141] Setting up inception_4e/5x5
I0915 12:00:04.911108 30406 net.cpp:148] Top shape: 10 128 14 14 (250880)
I0915 12:00:04.911114 30406 net.cpp:156] Memory required for data: 507153920
I0915 12:00:04.911123 30406 layer_factory.hpp:77] Creating layer inception_4e/relu_5x5
I0915 12:00:04.911131 30406 net.cpp:91] Creating Layer inception_4e/relu_5x5
I0915 12:00:04.911137 30406 net.cpp:425] inception_4e/relu_5x5 <- inception_4e/5x5
I0915 12:00:04.911146 30406 net.cpp:386] inception_4e/relu_5x5 -> inception_4e/5x5 (in-place)
I0915 12:00:04.911386 30406 net.cpp:141] Setting up inception_4e/relu_5x5
I0915 12:00:04.911398 30406 net.cpp:148] Top shape: 10 128 14 14 (250880)
I0915 12:00:04.911402 30406 net.cpp:156] Memory required for data: 508157440
I0915 12:00:04.911407 30406 layer_factory.hpp:77] Creating layer inception_4e/pool
I0915 12:00:04.911420 30406 net.cpp:91] Creating Layer inception_4e/pool
I0915 12:00:04.911427 30406 net.cpp:425] inception_4e/pool <- inception_4d/output_inception_4d/output_0_split_3
I0915 12:00:04.911434 30406 net.cpp:399] inception_4e/pool -> inception_4e/pool
I0915 12:00:04.911506 30406 net.cpp:141] Setting up inception_4e/pool
I0915 12:00:04.911516 30406 net.cpp:148] Top shape: 10 528 14 14 (1034880)
I0915 12:00:04.911520 30406 net.cpp:156] Memory required for data: 512296960
I0915 12:00:04.911525 30406 layer_factory.hpp:77] Creating layer inception_4e/pool_proj
I0915 12:00:04.911540 30406 net.cpp:91] Creating Layer inception_4e/pool_proj
I0915 12:00:04.911545 30406 net.cpp:425] inception_4e/pool_proj <- inception_4e/pool
I0915 12:00:04.911556 30406 net.cpp:399] inception_4e/pool_proj -> inception_4e/pool_proj
I0915 12:00:04.913545 30406 net.cpp:141] Setting up inception_4e/pool_proj
I0915 12:00:04.913563 30406 net.cpp:148] Top shape: 10 128 14 14 (250880)
I0915 12:00:04.913568 30406 net.cpp:156] Memory required for data: 513300480
I0915 12:00:04.913578 30406 layer_factory.hpp:77] Creating layer inception_4e/relu_pool_proj
I0915 12:00:04.913585 30406 net.cpp:91] Creating Layer inception_4e/relu_pool_proj
I0915 12:00:04.913591 30406 net.cpp:425] inception_4e/relu_pool_proj <- inception_4e/pool_proj
I0915 12:00:04.913599 30406 net.cpp:386] inception_4e/relu_pool_proj -> inception_4e/pool_proj (in-place)
I0915 12:00:04.914017 30406 net.cpp:141] Setting up inception_4e/relu_pool_proj
I0915 12:00:04.914029 30406 net.cpp:148] Top shape: 10 128 14 14 (250880)
I0915 12:00:04.914034 30406 net.cpp:156] Memory required for data: 514304000
I0915 12:00:04.914039 30406 layer_factory.hpp:77] Creating layer inception_4e/output
I0915 12:00:04.914047 30406 net.cpp:91] Creating Layer inception_4e/output
I0915 12:00:04.914053 30406 net.cpp:425] inception_4e/output <- inception_4e/1x1
I0915 12:00:04.914059 30406 net.cpp:425] inception_4e/output <- inception_4e/3x3
I0915 12:00:04.914064 30406 net.cpp:425] inception_4e/output <- inception_4e/5x5
I0915 12:00:04.914070 30406 net.cpp:425] inception_4e/output <- inception_4e/pool_proj
I0915 12:00:04.914080 30406 net.cpp:399] inception_4e/output -> inception_4e/output
I0915 12:00:04.914125 30406 net.cpp:141] Setting up inception_4e/output
I0915 12:00:04.914137 30406 net.cpp:148] Top shape: 10 832 14 14 (1630720)
I0915 12:00:04.914142 30406 net.cpp:156] Memory required for data: 520826880
I0915 12:00:04.914146 30406 layer_factory.hpp:77] Creating layer pool4/3x3_s2
I0915 12:00:04.914155 30406 net.cpp:91] Creating Layer pool4/3x3_s2
I0915 12:00:04.914160 30406 net.cpp:425] pool4/3x3_s2 <- inception_4e/output
I0915 12:00:04.914167 30406 net.cpp:399] pool4/3x3_s2 -> pool4/3x3_s2
I0915 12:00:04.914232 30406 net.cpp:141] Setting up pool4/3x3_s2
I0915 12:00:04.914242 30406 net.cpp:148] Top shape: 10 832 7 7 (407680)
I0915 12:00:04.914245 30406 net.cpp:156] Memory required for data: 522457600
I0915 12:00:04.914250 30406 layer_factory.hpp:77] Creating layer pool4/3x3_s2_pool4/3x3_s2_0_split
I0915 12:00:04.914258 30406 net.cpp:91] Creating Layer pool4/3x3_s2_pool4/3x3_s2_0_split
I0915 12:00:04.914263 30406 net.cpp:425] pool4/3x3_s2_pool4/3x3_s2_0_split <- pool4/3x3_s2
I0915 12:00:04.914273 30406 net.cpp:399] pool4/3x3_s2_pool4/3x3_s2_0_split -> pool4/3x3_s2_pool4/3x3_s2_0_split_0
I0915 12:00:04.914281 30406 net.cpp:399] pool4/3x3_s2_pool4/3x3_s2_0_split -> pool4/3x3_s2_pool4/3x3_s2_0_split_1
I0915 12:00:04.914290 30406 net.cpp:399] pool4/3x3_s2_pool4/3x3_s2_0_split -> pool4/3x3_s2_pool4/3x3_s2_0_split_2
I0915 12:00:04.914299 30406 net.cpp:399] pool4/3x3_s2_pool4/3x3_s2_0_split -> pool4/3x3_s2_pool4/3x3_s2_0_split_3
I0915 12:00:04.914396 30406 net.cpp:141] Setting up pool4/3x3_s2_pool4/3x3_s2_0_split
I0915 12:00:04.914408 30406 net.cpp:148] Top shape: 10 832 7 7 (407680)
I0915 12:00:04.914414 30406 net.cpp:148] Top shape: 10 832 7 7 (407680)
I0915 12:00:04.914419 30406 net.cpp:148] Top shape: 10 832 7 7 (407680)
I0915 12:00:04.914424 30406 net.cpp:148] Top shape: 10 832 7 7 (407680)
I0915 12:00:04.914428 30406 net.cpp:156] Memory required for data: 528980480
I0915 12:00:04.914433 30406 layer_factory.hpp:77] Creating layer inception_5a/1x1
I0915 12:00:04.914446 30406 net.cpp:91] Creating Layer inception_5a/1x1
I0915 12:00:04.914453 30406 net.cpp:425] inception_5a/1x1 <- pool4/3x3_s2_pool4/3x3_s2_0_split_0
I0915 12:00:04.914460 30406 net.cpp:399] inception_5a/1x1 -> inception_5a/1x1
I0915 12:00:04.918067 30406 net.cpp:141] Setting up inception_5a/1x1
I0915 12:00:04.918087 30406 net.cpp:148] Top shape: 10 256 7 7 (125440)
I0915 12:00:04.918092 30406 net.cpp:156] Memory required for data: 529482240
I0915 12:00:04.918100 30406 layer_factory.hpp:77] Creating layer inception_5a/relu_1x1
I0915 12:00:04.918108 30406 net.cpp:91] Creating Layer inception_5a/relu_1x1
I0915 12:00:04.918114 30406 net.cpp:425] inception_5a/relu_1x1 <- inception_5a/1x1
I0915 12:00:04.918121 30406 net.cpp:386] inception_5a/relu_1x1 -> inception_5a/1x1 (in-place)
I0915 12:00:04.918540 30406 net.cpp:141] Setting up inception_5a/relu_1x1
I0915 12:00:04.918551 30406 net.cpp:148] Top shape: 10 256 7 7 (125440)
I0915 12:00:04.918556 30406 net.cpp:156] Memory required for data: 529984000
I0915 12:00:04.918561 30406 layer_factory.hpp:77] Creating layer inception_5a/3x3_reduce
I0915 12:00:04.918576 30406 net.cpp:91] Creating Layer inception_5a/3x3_reduce
I0915 12:00:04.918583 30406 net.cpp:425] inception_5a/3x3_reduce <- pool4/3x3_s2_pool4/3x3_s2_0_split_1
I0915 12:00:04.918594 30406 net.cpp:399] inception_5a/3x3_reduce -> inception_5a/3x3_reduce
I0915 12:00:04.921802 30406 net.cpp:141] Setting up inception_5a/3x3_reduce
I0915 12:00:04.921820 30406 net.cpp:148] Top shape: 10 160 7 7 (78400)
I0915 12:00:04.921825 30406 net.cpp:156] Memory required for data: 530297600
I0915 12:00:04.921834 30406 layer_factory.hpp:77] Creating layer inception_5a/relu_3x3_reduce
I0915 12:00:04.921845 30406 net.cpp:91] Creating Layer inception_5a/relu_3x3_reduce
I0915 12:00:04.921851 30406 net.cpp:425] inception_5a/relu_3x3_reduce <- inception_5a/3x3_reduce
I0915 12:00:04.921859 30406 net.cpp:386] inception_5a/relu_3x3_reduce -> inception_5a/3x3_reduce (in-place)
I0915 12:00:04.922106 30406 net.cpp:141] Setting up inception_5a/relu_3x3_reduce
I0915 12:00:04.922116 30406 net.cpp:148] Top shape: 10 160 7 7 (78400)
I0915 12:00:04.922121 30406 net.cpp:156] Memory required for data: 530611200
I0915 12:00:04.922125 30406 layer_factory.hpp:77] Creating layer inception_5a/3x3
I0915 12:00:04.922139 30406 net.cpp:91] Creating Layer inception_5a/3x3
I0915 12:00:04.922145 30406 net.cpp:425] inception_5a/3x3 <- inception_5a/3x3_reduce
I0915 12:00:04.922154 30406 net.cpp:399] inception_5a/3x3 -> inception_5a/3x3
I0915 12:00:04.928642 30406 net.cpp:141] Setting up inception_5a/3x3
I0915 12:00:04.928660 30406 net.cpp:148] Top shape: 10 320 7 7 (156800)
I0915 12:00:04.928665 30406 net.cpp:156] Memory required for data: 531238400
I0915 12:00:04.928674 30406 layer_factory.hpp:77] Creating layer inception_5a/relu_3x3
I0915 12:00:04.928683 30406 net.cpp:91] Creating Layer inception_5a/relu_3x3
I0915 12:00:04.928689 30406 net.cpp:425] inception_5a/relu_3x3 <- inception_5a/3x3
I0915 12:00:04.928700 30406 net.cpp:386] inception_5a/relu_3x3 -> inception_5a/3x3 (in-place)
I0915 12:00:04.929124 30406 net.cpp:141] Setting up inception_5a/relu_3x3
I0915 12:00:04.929137 30406 net.cpp:148] Top shape: 10 320 7 7 (156800)
I0915 12:00:04.929141 30406 net.cpp:156] Memory required for data: 531865600
I0915 12:00:04.929147 30406 layer_factory.hpp:77] Creating layer inception_5a/5x5_reduce
I0915 12:00:04.929162 30406 net.cpp:91] Creating Layer inception_5a/5x5_reduce
I0915 12:00:04.929169 30406 net.cpp:425] inception_5a/5x5_reduce <- pool4/3x3_s2_pool4/3x3_s2_0_split_2
I0915 12:00:04.929179 30406 net.cpp:399] inception_5a/5x5_reduce -> inception_5a/5x5_reduce
I0915 12:00:04.930766 30406 net.cpp:141] Setting up inception_5a/5x5_reduce
I0915 12:00:04.930784 30406 net.cpp:148] Top shape: 10 32 7 7 (15680)
I0915 12:00:04.930789 30406 net.cpp:156] Memory required for data: 531928320
I0915 12:00:04.930799 30406 layer_factory.hpp:77] Creating layer inception_5a/relu_5x5_reduce
I0915 12:00:04.930806 30406 net.cpp:91] Creating Layer inception_5a/relu_5x5_reduce
I0915 12:00:04.930812 30406 net.cpp:425] inception_5a/relu_5x5_reduce <- inception_5a/5x5_reduce
I0915 12:00:04.930824 30406 net.cpp:386] inception_5a/relu_5x5_reduce -> inception_5a/5x5_reduce (in-place)
I0915 12:00:04.931239 30406 net.cpp:141] Setting up inception_5a/relu_5x5_reduce
I0915 12:00:04.931252 30406 net.cpp:148] Top shape: 10 32 7 7 (15680)
I0915 12:00:04.931257 30406 net.cpp:156] Memory required for data: 531991040
I0915 12:00:04.931262 30406 layer_factory.hpp:77] Creating layer inception_5a/5x5
I0915 12:00:04.931277 30406 net.cpp:91] Creating Layer inception_5a/5x5
I0915 12:00:04.931284 30406 net.cpp:425] inception_5a/5x5 <- inception_5a/5x5_reduce
I0915 12:00:04.931293 30406 net.cpp:399] inception_5a/5x5 -> inception_5a/5x5
I0915 12:00:04.933583 30406 net.cpp:141] Setting up inception_5a/5x5
I0915 12:00:04.933601 30406 net.cpp:148] Top shape: 10 128 7 7 (62720)
I0915 12:00:04.933606 30406 net.cpp:156] Memory required for data: 532241920
I0915 12:00:04.933615 30406 layer_factory.hpp:77] Creating layer inception_5a/relu_5x5
I0915 12:00:04.933648 30406 net.cpp:91] Creating Layer inception_5a/relu_5x5
I0915 12:00:04.933655 30406 net.cpp:425] inception_5a/relu_5x5 <- inception_5a/5x5
I0915 12:00:04.933665 30406 net.cpp:386] inception_5a/relu_5x5 -> inception_5a/5x5 (in-place)
I0915 12:00:04.933904 30406 net.cpp:141] Setting up inception_5a/relu_5x5
I0915 12:00:04.933915 30406 net.cpp:148] Top shape: 10 128 7 7 (62720)
I0915 12:00:04.933920 30406 net.cpp:156] Memory required for data: 532492800
I0915 12:00:04.933925 30406 layer_factory.hpp:77] Creating layer inception_5a/pool
I0915 12:00:04.933938 30406 net.cpp:91] Creating Layer inception_5a/pool
I0915 12:00:04.933943 30406 net.cpp:425] inception_5a/pool <- pool4/3x3_s2_pool4/3x3_s2_0_split_3
I0915 12:00:04.933950 30406 net.cpp:399] inception_5a/pool -> inception_5a/pool
I0915 12:00:04.934025 30406 net.cpp:141] Setting up inception_5a/pool
I0915 12:00:04.934034 30406 net.cpp:148] Top shape: 10 832 7 7 (407680)
I0915 12:00:04.934038 30406 net.cpp:156] Memory required for data: 534123520
I0915 12:00:04.934043 30406 layer_factory.hpp:77] Creating layer inception_5a/pool_proj
I0915 12:00:04.934057 30406 net.cpp:91] Creating Layer inception_5a/pool_proj
I0915 12:00:04.934064 30406 net.cpp:425] inception_5a/pool_proj <- inception_5a/pool
I0915 12:00:04.934077 30406 net.cpp:399] inception_5a/pool_proj -> inception_5a/pool_proj
I0915 12:00:04.937152 30406 net.cpp:141] Setting up inception_5a/pool_proj
I0915 12:00:04.937172 30406 net.cpp:148] Top shape: 10 128 7 7 (62720)
I0915 12:00:04.937177 30406 net.cpp:156] Memory required for data: 534374400
I0915 12:00:04.937186 30406 layer_factory.hpp:77] Creating layer inception_5a/relu_pool_proj
I0915 12:00:04.937194 30406 net.cpp:91] Creating Layer inception_5a/relu_pool_proj
I0915 12:00:04.937201 30406 net.cpp:425] inception_5a/relu_pool_proj <- inception_5a/pool_proj
I0915 12:00:04.937206 30406 net.cpp:386] inception_5a/relu_pool_proj -> inception_5a/pool_proj (in-place)
I0915 12:00:04.937611 30406 net.cpp:141] Setting up inception_5a/relu_pool_proj
I0915 12:00:04.937623 30406 net.cpp:148] Top shape: 10 128 7 7 (62720)
I0915 12:00:04.937628 30406 net.cpp:156] Memory required for data: 534625280
I0915 12:00:04.937633 30406 layer_factory.hpp:77] Creating layer inception_5a/output
I0915 12:00:04.937641 30406 net.cpp:91] Creating Layer inception_5a/output
I0915 12:00:04.937647 30406 net.cpp:425] inception_5a/output <- inception_5a/1x1
I0915 12:00:04.937654 30406 net.cpp:425] inception_5a/output <- inception_5a/3x3
I0915 12:00:04.937659 30406 net.cpp:425] inception_5a/output <- inception_5a/5x5
I0915 12:00:04.937676 30406 net.cpp:425] inception_5a/output <- inception_5a/pool_proj
I0915 12:00:04.937683 30406 net.cpp:399] inception_5a/output -> inception_5a/output
I0915 12:00:04.937736 30406 net.cpp:141] Setting up inception_5a/output
I0915 12:00:04.937746 30406 net.cpp:148] Top shape: 10 832 7 7 (407680)
I0915 12:00:04.937749 30406 net.cpp:156] Memory required for data: 536256000
I0915 12:00:04.937754 30406 layer_factory.hpp:77] Creating layer inception_5a/output_inception_5a/output_0_split
I0915 12:00:04.937764 30406 net.cpp:91] Creating Layer inception_5a/output_inception_5a/output_0_split
I0915 12:00:04.937769 30406 net.cpp:425] inception_5a/output_inception_5a/output_0_split <- inception_5a/output
I0915 12:00:04.937777 30406 net.cpp:399] inception_5a/output_inception_5a/output_0_split -> inception_5a/output_inception_5a/output_0_split_0
I0915 12:00:04.937785 30406 net.cpp:399] inception_5a/output_inception_5a/output_0_split -> inception_5a/output_inception_5a/output_0_split_1
I0915 12:00:04.937793 30406 net.cpp:399] inception_5a/output_inception_5a/output_0_split -> inception_5a/output_inception_5a/output_0_split_2
I0915 12:00:04.937803 30406 net.cpp:399] inception_5a/output_inception_5a/output_0_split -> inception_5a/output_inception_5a/output_0_split_3
I0915 12:00:04.937906 30406 net.cpp:141] Setting up inception_5a/output_inception_5a/output_0_split
I0915 12:00:04.937916 30406 net.cpp:148] Top shape: 10 832 7 7 (407680)
I0915 12:00:04.937922 30406 net.cpp:148] Top shape: 10 832 7 7 (407680)
I0915 12:00:04.937927 30406 net.cpp:148] Top shape: 10 832 7 7 (407680)
I0915 12:00:04.937932 30406 net.cpp:148] Top shape: 10 832 7 7 (407680)
I0915 12:00:04.937937 30406 net.cpp:156] Memory required for data: 542778880
I0915 12:00:04.937942 30406 layer_factory.hpp:77] Creating layer inception_5b/1x1
I0915 12:00:04.937955 30406 net.cpp:91] Creating Layer inception_5b/1x1
I0915 12:00:04.937963 30406 net.cpp:425] inception_5b/1x1 <- inception_5a/output_inception_5a/output_0_split_0
I0915 12:00:04.937973 30406 net.cpp:399] inception_5b/1x1 -> inception_5b/1x1
I0915 12:00:04.942551 30406 net.cpp:141] Setting up inception_5b/1x1
I0915 12:00:04.942569 30406 net.cpp:148] Top shape: 10 384 7 7 (188160)
I0915 12:00:04.942574 30406 net.cpp:156] Memory required for data: 543531520
I0915 12:00:04.942582 30406 layer_factory.hpp:77] Creating layer inception_5b/relu_1x1
I0915 12:00:04.942595 30406 net.cpp:91] Creating Layer inception_5b/relu_1x1
I0915 12:00:04.942600 30406 net.cpp:425] inception_5b/relu_1x1 <- inception_5b/1x1
I0915 12:00:04.942608 30406 net.cpp:386] inception_5b/relu_1x1 -> inception_5b/1x1 (in-place)
I0915 12:00:04.943008 30406 net.cpp:141] Setting up inception_5b/relu_1x1
I0915 12:00:04.943020 30406 net.cpp:148] Top shape: 10 384 7 7 (188160)
I0915 12:00:04.943025 30406 net.cpp:156] Memory required for data: 544284160
I0915 12:00:04.943030 30406 layer_factory.hpp:77] Creating layer inception_5b/3x3_reduce
I0915 12:00:04.943043 30406 net.cpp:91] Creating Layer inception_5b/3x3_reduce
I0915 12:00:04.943061 30406 net.cpp:425] inception_5b/3x3_reduce <- inception_5a/output_inception_5a/output_0_split_1
I0915 12:00:04.943071 30406 net.cpp:399] inception_5b/3x3_reduce -> inception_5b/3x3_reduce
I0915 12:00:04.946545 30406 net.cpp:141] Setting up inception_5b/3x3_reduce
I0915 12:00:04.946564 30406 net.cpp:148] Top shape: 10 192 7 7 (94080)
I0915 12:00:04.946569 30406 net.cpp:156] Memory required for data: 544660480
I0915 12:00:04.946578 30406 layer_factory.hpp:77] Creating layer inception_5b/relu_3x3_reduce
I0915 12:00:04.946590 30406 net.cpp:91] Creating Layer inception_5b/relu_3x3_reduce
I0915 12:00:04.946597 30406 net.cpp:425] inception_5b/relu_3x3_reduce <- inception_5b/3x3_reduce
I0915 12:00:04.946606 30406 net.cpp:386] inception_5b/relu_3x3_reduce -> inception_5b/3x3_reduce (in-place)
I0915 12:00:04.946858 30406 net.cpp:141] Setting up inception_5b/relu_3x3_reduce
I0915 12:00:04.946868 30406 net.cpp:148] Top shape: 10 192 7 7 (94080)
I0915 12:00:04.946873 30406 net.cpp:156] Memory required for data: 545036800
I0915 12:00:04.946878 30406 layer_factory.hpp:77] Creating layer inception_5b/3x3
I0915 12:00:04.946892 30406 net.cpp:91] Creating Layer inception_5b/3x3
I0915 12:00:04.946900 30406 net.cpp:425] inception_5b/3x3 <- inception_5b/3x3_reduce
I0915 12:00:04.946908 30406 net.cpp:399] inception_5b/3x3 -> inception_5b/3x3
I0915 12:00:04.954704 30406 net.cpp:141] Setting up inception_5b/3x3
I0915 12:00:04.954721 30406 net.cpp:148] Top shape: 10 384 7 7 (188160)
I0915 12:00:04.954727 30406 net.cpp:156] Memory required for data: 545789440
I0915 12:00:04.954736 30406 layer_factory.hpp:77] Creating layer inception_5b/relu_3x3
I0915 12:00:04.954744 30406 net.cpp:91] Creating Layer inception_5b/relu_3x3
I0915 12:00:04.954751 30406 net.cpp:425] inception_5b/relu_3x3 <- inception_5b/3x3
I0915 12:00:04.954757 30406 net.cpp:386] inception_5b/relu_3x3 -> inception_5b/3x3 (in-place)
I0915 12:00:04.955191 30406 net.cpp:141] Setting up inception_5b/relu_3x3
I0915 12:00:04.955204 30406 net.cpp:148] Top shape: 10 384 7 7 (188160)
I0915 12:00:04.955209 30406 net.cpp:156] Memory required for data: 546542080
I0915 12:00:04.955214 30406 layer_factory.hpp:77] Creating layer inception_5b/5x5_reduce
I0915 12:00:04.955229 30406 net.cpp:91] Creating Layer inception_5b/5x5_reduce
I0915 12:00:04.955235 30406 net.cpp:425] inception_5b/5x5_reduce <- inception_5a/output_inception_5a/output_0_split_2
I0915 12:00:04.955246 30406 net.cpp:399] inception_5b/5x5_reduce -> inception_5b/5x5_reduce
I0915 12:00:04.956964 30406 net.cpp:141] Setting up inception_5b/5x5_reduce
I0915 12:00:04.956980 30406 net.cpp:148] Top shape: 10 48 7 7 (23520)
I0915 12:00:04.956985 30406 net.cpp:156] Memory required for data: 546636160
I0915 12:00:04.956993 30406 layer_factory.hpp:77] Creating layer inception_5b/relu_5x5_reduce
I0915 12:00:04.957001 30406 net.cpp:91] Creating Layer inception_5b/relu_5x5_reduce
I0915 12:00:04.957007 30406 net.cpp:425] inception_5b/relu_5x5_reduce <- inception_5b/5x5_reduce
I0915 12:00:04.957013 30406 net.cpp:386] inception_5b/relu_5x5_reduce -> inception_5b/5x5_reduce (in-place)
I0915 12:00:04.957453 30406 net.cpp:141] Setting up inception_5b/relu_5x5_reduce
I0915 12:00:04.957463 30406 net.cpp:148] Top shape: 10 48 7 7 (23520)
I0915 12:00:04.957468 30406 net.cpp:156] Memory required for data: 546730240
I0915 12:00:04.957473 30406 layer_factory.hpp:77] Creating layer inception_5b/5x5
I0915 12:00:04.957490 30406 net.cpp:91] Creating Layer inception_5b/5x5
I0915 12:00:04.957496 30406 net.cpp:425] inception_5b/5x5 <- inception_5b/5x5_reduce
I0915 12:00:04.957505 30406 net.cpp:399] inception_5b/5x5 -> inception_5b/5x5
I0915 12:00:04.960516 30406 net.cpp:141] Setting up inception_5b/5x5
I0915 12:00:04.960533 30406 net.cpp:148] Top shape: 10 128 7 7 (62720)
I0915 12:00:04.960538 30406 net.cpp:156] Memory required for data: 546981120
I0915 12:00:04.960547 30406 layer_factory.hpp:77] Creating layer inception_5b/relu_5x5
I0915 12:00:04.960561 30406 net.cpp:91] Creating Layer inception_5b/relu_5x5
I0915 12:00:04.960567 30406 net.cpp:425] inception_5b/relu_5x5 <- inception_5b/5x5
I0915 12:00:04.960574 30406 net.cpp:386] inception_5b/relu_5x5 -> inception_5b/5x5 (in-place)
I0915 12:00:04.960829 30406 net.cpp:141] Setting up inception_5b/relu_5x5
I0915 12:00:04.960839 30406 net.cpp:148] Top shape: 10 128 7 7 (62720)
I0915 12:00:04.960844 30406 net.cpp:156] Memory required for data: 547232000
I0915 12:00:04.960850 30406 layer_factory.hpp:77] Creating layer inception_5b/pool
I0915 12:00:04.960858 30406 net.cpp:91] Creating Layer inception_5b/pool
I0915 12:00:04.960863 30406 net.cpp:425] inception_5b/pool <- inception_5a/output_inception_5a/output_0_split_3
I0915 12:00:04.960875 30406 net.cpp:399] inception_5b/pool -> inception_5b/pool
I0915 12:00:04.960947 30406 net.cpp:141] Setting up inception_5b/pool
I0915 12:00:04.960957 30406 net.cpp:148] Top shape: 10 832 7 7 (407680)
I0915 12:00:04.960960 30406 net.cpp:156] Memory required for data: 548862720
I0915 12:00:04.960964 30406 layer_factory.hpp:77] Creating layer inception_5b/pool_proj
I0915 12:00:04.960980 30406 net.cpp:91] Creating Layer inception_5b/pool_proj
I0915 12:00:04.960986 30406 net.cpp:425] inception_5b/pool_proj <- inception_5b/pool
I0915 12:00:04.960994 30406 net.cpp:399] inception_5b/pool_proj -> inception_5b/pool_proj
I0915 12:00:04.964112 30406 net.cpp:141] Setting up inception_5b/pool_proj
I0915 12:00:04.964128 30406 net.cpp:148] Top shape: 10 128 7 7 (62720)
I0915 12:00:04.964134 30406 net.cpp:156] Memory required for data: 549113600
I0915 12:00:04.964143 30406 layer_factory.hpp:77] Creating layer inception_5b/relu_pool_proj
I0915 12:00:04.964151 30406 net.cpp:91] Creating Layer inception_5b/relu_pool_proj
I0915 12:00:04.964157 30406 net.cpp:425] inception_5b/relu_pool_proj <- inception_5b/pool_proj
I0915 12:00:04.964169 30406 net.cpp:386] inception_5b/relu_pool_proj -> inception_5b/pool_proj (in-place)
I0915 12:00:04.964604 30406 net.cpp:141] Setting up inception_5b/relu_pool_proj
I0915 12:00:04.964617 30406 net.cpp:148] Top shape: 10 128 7 7 (62720)
I0915 12:00:04.964622 30406 net.cpp:156] Memory required for data: 549364480
I0915 12:00:04.964627 30406 layer_factory.hpp:77] Creating layer inception_5b/output
I0915 12:00:04.964648 30406 net.cpp:91] Creating Layer inception_5b/output
I0915 12:00:04.964653 30406 net.cpp:425] inception_5b/output <- inception_5b/1x1
I0915 12:00:04.964659 30406 net.cpp:425] inception_5b/output <- inception_5b/3x3
I0915 12:00:04.964665 30406 net.cpp:425] inception_5b/output <- inception_5b/5x5
I0915 12:00:04.964670 30406 net.cpp:425] inception_5b/output <- inception_5b/pool_proj
I0915 12:00:04.964680 30406 net.cpp:399] inception_5b/output -> inception_5b/output
I0915 12:00:04.964730 30406 net.cpp:141] Setting up inception_5b/output
I0915 12:00:04.964742 30406 net.cpp:148] Top shape: 10 1024 7 7 (501760)
I0915 12:00:04.964747 30406 net.cpp:156] Memory required for data: 551371520
I0915 12:00:04.964751 30406 layer_factory.hpp:77] Creating layer pool5/7x7_s1
I0915 12:00:04.964759 30406 net.cpp:91] Creating Layer pool5/7x7_s1
I0915 12:00:04.964766 30406 net.cpp:425] pool5/7x7_s1 <- inception_5b/output
I0915 12:00:04.964772 30406 net.cpp:399] pool5/7x7_s1 -> pool5/7x7_s1
I0915 12:00:04.965082 30406 net.cpp:141] Setting up pool5/7x7_s1
I0915 12:00:04.965093 30406 net.cpp:148] Top shape: 10 1024 1 1 (10240)
I0915 12:00:04.965097 30406 net.cpp:156] Memory required for data: 551412480
I0915 12:00:04.965102 30406 layer_factory.hpp:77] Creating layer pool5/drop_7x7_s1
I0915 12:00:04.965123 30406 net.cpp:91] Creating Layer pool5/drop_7x7_s1
I0915 12:00:04.965128 30406 net.cpp:425] pool5/drop_7x7_s1 <- pool5/7x7_s1
I0915 12:00:04.965136 30406 net.cpp:386] pool5/drop_7x7_s1 -> pool5/7x7_s1 (in-place)
I0915 12:00:04.965185 30406 net.cpp:141] Setting up pool5/drop_7x7_s1
I0915 12:00:04.965194 30406 net.cpp:148] Top shape: 10 1024 1 1 (10240)
I0915 12:00:04.965198 30406 net.cpp:156] Memory required for data: 551453440
I0915 12:00:04.965204 30406 layer_factory.hpp:77] Creating layer loss3/classifier
I0915 12:00:04.965212 30406 net.cpp:91] Creating Layer loss3/classifier
I0915 12:00:04.965217 30406 net.cpp:425] loss3/classifier <- pool5/7x7_s1
I0915 12:00:04.965229 30406 net.cpp:399] loss3/classifier -> loss3/classifier
I0915 12:00:04.974939 30406 net.cpp:141] Setting up loss3/classifier
I0915 12:00:04.974968 30406 net.cpp:148] Top shape: 10 1000 (10000)
I0915 12:00:04.974973 30406 net.cpp:156] Memory required for data: 551493440
I0915 12:00:04.974984 30406 layer_factory.hpp:77] Creating layer prob
I0915 12:00:04.974997 30406 net.cpp:91] Creating Layer prob
I0915 12:00:04.975004 30406 net.cpp:425] prob <- loss3/classifier
I0915 12:00:04.975013 30406 net.cpp:399] prob -> prob
I0915 12:00:04.975666 30406 net.cpp:141] Setting up prob
I0915 12:00:04.975682 30406 net.cpp:148] Top shape: 10 1000 (10000)
I0915 12:00:04.975687 30406 net.cpp:156] Memory required for data: 551533440
I0915 12:00:04.975692 30406 net.cpp:219] prob does not need backward computation.
I0915 12:00:04.975697 30406 net.cpp:219] loss3/classifier does not need backward computation.
I0915 12:00:04.975702 30406 net.cpp:219] pool5/drop_7x7_s1 does not need backward computation.
I0915 12:00:04.975706 30406 net.cpp:219] pool5/7x7_s1 does not need backward computation.
…
