…
Java HotSpot(TM) 64-Bit Server VM warning: You have loaded library /tmp/cvld5400151062959061732/libopencv_java310.xine1.so which might have disabled stack guard. The VM will try to fix the stack guard now.
It's highly recommended that you fix the library with 'execstack -c <libfile>', or link it with '-z noexecstack'.
WARNING: Logging before InitGoogleLogging() is written to STDERR
I0801 00:12:32.283799  3157 net.cpp:49] Initializing net from parameters: 
name: "CaffeNet"
state {
  phase: TEST
}
layer {
  name: "data"
  type: "Input"
  top: "data"
  input_param {
    shape {
      dim: 10
      dim: 3
      dim: 227
      dim: 227
    }
  }
}
layer {
  name: "conv1"
  type: "Convolution"
  bottom: "data"
  top: "conv1"
  convolution_param {
    num_output: 96
    kernel_size: 11
    stride: 4
  }
}
layer {
  name: "relu1"
  type: "ReLU"
  bottom: "conv1"
  top: "conv1"
}
layer {
  name: "pool1"
  type: "Pooling"
  bottom: "conv1"
  top: "pool1"
  pooling_param {
    pool: MAX
    kernel_size: 3
    stride: 2
  }
}
layer {
  name: "norm1"
  type: "LRN"
  bottom: "pool1"
  top: "norm1"
  lrn_param {
    local_size: 5
    alpha: 0.0001
    beta: 0.75
  }
}
layer {
  name: "conv2"
  type: "Convolution"
  bottom: "norm1"
  top: "conv2"
  convolution_param {
    num_output: 256
    pad: 2
    kernel_size: 5
    group: 2
  }
}
layer {
  name: "relu2"
  type: "ReLU"
  bottom: "conv2"
  top: "conv2"
}
layer {
  name: "pool2"
  type: "Pooling"
  bottom: "conv2"
  top: "pool2"
  pooling_param {
    pool: MAX
    kernel_size: 3
    stride: 2
  }
}
layer {
  name: "norm2"
  type: "LRN"
  bottom: "pool2"
  top: "norm2"
  lrn_param {
    local_size: 5
    alpha: 0.0001
    beta: 0.75
  }
}
layer {
  name: "conv3"
  type: "Convolution"
  bottom: "norm2"
  top: "conv3"
  convolution_param {
    num_output: 384
    pad: 1
    kernel_size: 3
  }
}
layer {
  name: "relu3"
  type: "ReLU"
  bottom: "conv3"
  top: "conv3"
}
layer {
  name: "conv4"
  type: "Convolution"
  bottom: "conv3"
  top: "conv4"
  convolution_param {
    num_output: 384
    pad: 1
    kernel_size: 3
    group: 2
  }
}
layer {
  name: "relu4"
  type: "ReLU"
  bottom: "conv4"
  top: "conv4"
}
layer {
  name: "conv5"
  type: "Convolution"
  bottom: "conv4"
  top: "conv5"
  convolution_param {
    num_output: 256
    pad: 1
    kernel_size: 3
    group: 2
  }
}
layer {
  name: "relu5"
  type: "ReLU"
  bottom: "conv5"
  top: "conv5"
}
layer {
  name: "pool5"
  type: "Pooling"
  bottom: "conv5"
  top: "pool5"
  pooling_param {
    pool: MAX
    kernel_size: 3
    stride: 2
  }
}
layer {
  name: "fc6"
  type: "InnerProduct"
  bottom: "pool5"
  top: "fc6"
  inner_product_param {
    num_output: 4096
  }
}
layer {
  name: "relu6"
  type: "ReLU"
  bottom: "fc6"
  top: "fc6"
}
layer {
  name: "drop6"
  type: "Dropout"
  bottom: "fc6"
  top: "fc6"
  dropout_param {
    dropout_ratio: 0.5
  }
}
layer {
  name: "fc7"
  type: "InnerProduct"
  bottom: "fc6"
  top: "fc7"
  inner_product_param {
    num_output: 4096
  }
}
layer {
  name: "relu7"
  type: "ReLU"
  bottom: "fc7"
  top: "fc7"
}
layer {
  name: "drop7"
  type: "Dropout"
  bottom: "fc7"
  top: "fc7"
  dropout_param {
    dropout_ratio: 0.5
  }
}
layer {
  name: "fc8"
  type: "InnerProduct"
  bottom: "fc7"
  top: "fc8"
  inner_product_param {
    num_output: 1000
  }
}
layer {
  name: "prob"
  type: "Softmax"
  bottom: "fc8"
  top: "prob"
}
I0801 00:12:32.283998  3157 layer_factory.hpp:77] Creating layer data
I0801 00:12:32.284032  3157 net.cpp:91] Creating Layer data
I0801 00:12:32.284044  3157 net.cpp:399] data -> data
I0801 00:12:32.791259  3157 net.cpp:141] Setting up data
I0801 00:12:32.791651  3157 net.cpp:148] Top shape: 10 3 227 227 (1545870)
I0801 00:12:32.791661  3157 net.cpp:156] Memory required for data: 6183480
I0801 00:12:32.791682  3157 layer_factory.hpp:77] Creating layer conv1
I0801 00:12:32.791714  3157 net.cpp:91] Creating Layer conv1
I0801 00:12:32.791723  3157 net.cpp:425] conv1 <- data
I0801 00:12:32.791738  3157 net.cpp:399] conv1 -> conv1
I0801 00:12:32.866317  3147 upgrade_proto.cpp:66] Attempting to upgrade input file specified using deprecated input fields: /tmp/cvld5400151062959061732/s2vt.words_to_preds.prototxt
I0801 00:12:32.866372  3147 upgrade_proto.cpp:69] Successfully upgraded file specified using deprecated input fields.
W0801 00:12:32.866380  3147 upgrade_proto.cpp:71] Note that future Caffe releases will only support input layers and not input fields.
I0801 00:12:32.866662  3147 net.cpp:49] Initializing net from parameters: 
name: "s2vt:features_to_lstm"
state {
  phase: TEST
}
layer {
  name: "input"
  type: "Input"
  top: "frames_fc7"
  top: "cont_sentence"
  top: "input_sentence"
  top: "stage_indicator"
  input_param {
    shape {
      dim: 1
      dim: 4096
    }
    shape {
      dim: 1
      dim: 1
    }
    shape {
      dim: 1
      dim: 1
    }
    shape {
      dim: 1
      dim: 1
    }
  }
}
layer {
  name: "embed_encoder"
  type: "InnerProduct"
  bottom: "frames_fc7"
  top: "embedded_in_frames"
  param {
    lr_mult: 1
    decay_mult: 1
  }
  param {
    lr_mult: 2
    decay_mult: 0
  }
  inner_product_param {
    num_output: 500
    weight_filler {
      type: "xavier"
    }
    bias_filler {
      type: "constant"
      value: 0.2
    }
  }
}
layer {
  name: "reshape_frames"
  type: "Reshape"
  bottom: "embedded_in_frames"
  top: "embedded_input_frames"
  reshape_param {
    shape {
      dim: 1
      dim: 1
      dim: 500
    }
  }
}
layer {
  name: "reshape_stage_indicator"
  type: "Reshape"
  bottom: "stage_indicator"
  top: "reshaped_stage_indicator"
  reshape_param {
    shape {
      dim: 1
      dim: 1
      dim: 1
    }
  }
}
layer {
  name: "embedding"
  type: "Embed"
  bottom: "input_sentence"
  top: "embedded_input_sentence"
  param {
    lr_mult: 1
  }
  embed_param {
    num_output: 500
    input_dim: 46168
    bias_term: false
    weight_filler {
      type: "uniform"
      min: -0.08
      max: 0.08
    }
  }
}
layer {
  name: "lstm1"
  type: "LSTM"
  bottom: "embedded_input_frames"
  bottom: "cont_sentence"
  top: "lstm1"
  recurrent_param {
    num_output: 1000
    weight_filler {
      type: "uniform"
      min: -0.08
      max: 0.08
    }
    bias_filler {
      type: "constant"
      value: 0
    }
  }
}
layer {
  name: "concat"
  type: "Concat"
  bottom: "lstm1"
  bottom: "embedded_input_sentence"
  bottom: "reshaped_stage_indicator"
  top: "lstm1_video_sequence"
  concat_param {
    concat_dim: 2
  }
}
layer {
  name: "lstm2"
  type: "LSTM"
  bottom: "lstm1_video_sequence"
  bottom: "cont_sentence"
  top: "lstm2"
  recurrent_param {
    num_output: 1000
    weight_filler {
      type: "uniform"
      min: -0.08
      max: 0.08
    }
    bias_filler {
      type: "constant"
      value: 0
    }
  }
}
layer {
  name: "predict"
  type: "InnerProduct"
  bottom: "lstm2"
  top: "predict"
  param {
    lr_mult: 1
    decay_mult: 1
  }
  param {
    lr_mult: 2
    decay_mult: 0
  }
  inner_product_param {
    num_output: 46168
    weight_filler {
      type: "uniform"
      min: -0.08
      max: 0.08
    }
    bias_filler {
      type: "constant"
      value: 0
    }
    axis: 2
  }
}
layer {
  name: "probs"
  type: "Softmax"
  bottom: "predict"
  top: "probs"
  softmax_param {
    axis: 2
  }
}
I0801 00:12:32.866770  3147 layer_factory.hpp:77] Creating layer input
I0801 00:12:32.866786  3147 net.cpp:91] Creating Layer input
I0801 00:12:32.866796  3147 net.cpp:399] input -> frames_fc7
I0801 00:12:32.866816  3147 net.cpp:399] input -> cont_sentence
I0801 00:12:32.866827  3147 net.cpp:399] input -> input_sentence
I0801 00:12:32.866837  3147 net.cpp:399] input -> stage_indicator
I0801 00:12:32.867746  3147 net.cpp:141] Setting up input
I0801 00:12:32.867765  3147 net.cpp:148] Top shape: 1 4096 (4096)
I0801 00:12:32.867774  3147 net.cpp:148] Top shape: 1 1 (1)
I0801 00:12:32.867779  3147 net.cpp:148] Top shape: 1 1 (1)
I0801 00:12:32.867784  3147 net.cpp:148] Top shape: 1 1 (1)
I0801 00:12:32.867789  3147 net.cpp:156] Memory required for data: 16396
I0801 00:12:32.867795  3147 layer_factory.hpp:77] Creating layer cont_sentence_input_1_split
I0801 00:12:32.867815  3147 net.cpp:91] Creating Layer cont_sentence_input_1_split
I0801 00:12:32.867820  3147 net.cpp:425] cont_sentence_input_1_split <- cont_sentence
I0801 00:12:32.867841  3147 net.cpp:399] cont_sentence_input_1_split -> cont_sentence_input_1_split_0
I0801 00:12:32.867854  3147 net.cpp:399] cont_sentence_input_1_split -> cont_sentence_input_1_split_1
I0801 00:12:32.869197  3147 net.cpp:141] Setting up cont_sentence_input_1_split
I0801 00:12:32.869221  3147 net.cpp:148] Top shape: 1 1 (1)
I0801 00:12:32.869235  3147 net.cpp:148] Top shape: 1 1 (1)
I0801 00:12:32.869245  3147 net.cpp:156] Memory required for data: 16404
I0801 00:12:32.869253  3147 layer_factory.hpp:77] Creating layer embed_encoder
I0801 00:12:32.869283  3147 net.cpp:91] Creating Layer embed_encoder
I0801 00:12:32.869297  3147 net.cpp:425] embed_encoder <- frames_fc7
I0801 00:12:32.869313  3147 net.cpp:399] embed_encoder -> embedded_in_frames
I0801 00:12:32.905376  3147 net.cpp:141] Setting up embed_encoder
I0801 00:12:32.905437  3147 net.cpp:148] Top shape: 1 500 (500)
I0801 00:12:32.905444  3147 net.cpp:156] Memory required for data: 18404
I0801 00:12:32.905474  3147 layer_factory.hpp:77] Creating layer reshape_frames
I0801 00:12:32.905505  3147 net.cpp:91] Creating Layer reshape_frames
I0801 00:12:32.905514  3147 net.cpp:425] reshape_frames <- embedded_in_frames
I0801 00:12:32.905525  3147 net.cpp:399] reshape_frames -> embedded_input_frames
I0801 00:12:32.908517  3147 net.cpp:141] Setting up reshape_frames
I0801 00:12:32.908536  3147 net.cpp:148] Top shape: 1 1 500 (500)
I0801 00:12:32.908541  3147 net.cpp:156] Memory required for data: 20404
I0801 00:12:32.908546  3147 layer_factory.hpp:77] Creating layer reshape_stage_indicator
I0801 00:12:32.908558  3147 net.cpp:91] Creating Layer reshape_stage_indicator
I0801 00:12:32.908576  3147 net.cpp:425] reshape_stage_indicator <- stage_indicator
I0801 00:12:32.908586  3147 net.cpp:399] reshape_stage_indicator -> reshaped_stage_indicator
I0801 00:12:32.908713  3147 net.cpp:141] Setting up reshape_stage_indicator
I0801 00:12:32.908725  3147 net.cpp:148] Top shape: 1 1 1 (1)
I0801 00:12:32.908728  3147 net.cpp:156] Memory required for data: 20408
I0801 00:12:32.908733  3147 layer_factory.hpp:77] Creating layer embedding
I0801 00:12:32.908749  3147 net.cpp:91] Creating Layer embedding
I0801 00:12:32.908754  3147 net.cpp:425] embedding <- input_sentence
I0801 00:12:32.908763  3147 net.cpp:399] embedding -> embedded_input_sentence
I0801 00:12:33.040427  3157 net.cpp:141] Setting up conv1
I0801 00:12:33.040491  3157 net.cpp:148] Top shape: 10 96 55 55 (2904000)
I0801 00:12:33.040498  3157 net.cpp:156] Memory required for data: 17799480
I0801 00:12:33.040523  3157 layer_factory.hpp:77] Creating layer relu1
I0801 00:12:33.040541  3157 net.cpp:91] Creating Layer relu1
I0801 00:12:33.040549  3157 net.cpp:425] relu1 <- conv1
I0801 00:12:33.040557  3157 net.cpp:386] relu1 -> conv1 (in-place)
I0801 00:12:33.041008  3157 net.cpp:141] Setting up relu1
I0801 00:12:33.041021  3157 net.cpp:148] Top shape: 10 96 55 55 (2904000)
I0801 00:12:33.041028  3157 net.cpp:156] Memory required for data: 29415480
I0801 00:12:33.041033  3157 layer_factory.hpp:77] Creating layer pool1
I0801 00:12:33.041045  3157 net.cpp:91] Creating Layer pool1
I0801 00:12:33.041050  3157 net.cpp:425] pool1 <- conv1
I0801 00:12:33.041059  3157 net.cpp:399] pool1 -> pool1
I0801 00:12:33.041126  3157 net.cpp:141] Setting up pool1
I0801 00:12:33.041136  3157 net.cpp:148] Top shape: 10 96 27 27 (699840)
I0801 00:12:33.041141  3157 net.cpp:156] Memory required for data: 32214840
I0801 00:12:33.041146  3157 layer_factory.hpp:77] Creating layer norm1
I0801 00:12:33.041164  3157 net.cpp:91] Creating Layer norm1
I0801 00:12:33.041169  3157 net.cpp:425] norm1 <- pool1
I0801 00:12:33.041177  3157 net.cpp:399] norm1 -> norm1
I0801 00:12:33.041656  3157 net.cpp:141] Setting up norm1
I0801 00:12:33.041671  3157 net.cpp:148] Top shape: 10 96 27 27 (699840)
I0801 00:12:33.041676  3157 net.cpp:156] Memory required for data: 35014200
I0801 00:12:33.041681  3157 layer_factory.hpp:77] Creating layer conv2
I0801 00:12:33.041697  3157 net.cpp:91] Creating Layer conv2
I0801 00:12:33.041702  3157 net.cpp:425] conv2 <- norm1
I0801 00:12:33.041709  3157 net.cpp:399] conv2 -> conv2
I0801 00:12:33.044886  3157 net.cpp:141] Setting up conv2
I0801 00:12:33.044922  3157 net.cpp:148] Top shape: 10 256 27 27 (1866240)
I0801 00:12:33.044929  3157 net.cpp:156] Memory required for data: 42479160
I0801 00:12:33.044941  3157 layer_factory.hpp:77] Creating layer relu2
I0801 00:12:33.044950  3157 net.cpp:91] Creating Layer relu2
I0801 00:12:33.044955  3157 net.cpp:425] relu2 <- conv2
I0801 00:12:33.044963  3157 net.cpp:386] relu2 -> conv2 (in-place)
I0801 00:12:33.045415  3157 net.cpp:141] Setting up relu2
I0801 00:12:33.045428  3157 net.cpp:148] Top shape: 10 256 27 27 (1866240)
I0801 00:12:33.045433  3157 net.cpp:156] Memory required for data: 49944120
I0801 00:12:33.045439  3157 layer_factory.hpp:77] Creating layer pool2
I0801 00:12:33.045449  3157 net.cpp:91] Creating Layer pool2
I0801 00:12:33.045454  3157 net.cpp:425] pool2 <- conv2
I0801 00:12:33.045460  3157 net.cpp:399] pool2 -> pool2
I0801 00:12:33.045516  3157 net.cpp:141] Setting up pool2
I0801 00:12:33.045526  3157 net.cpp:148] Top shape: 10 256 13 13 (432640)
I0801 00:12:33.045529  3157 net.cpp:156] Memory required for data: 51674680
I0801 00:12:33.045534  3157 layer_factory.hpp:77] Creating layer norm2
I0801 00:12:33.045547  3157 net.cpp:91] Creating Layer norm2
I0801 00:12:33.045552  3157 net.cpp:425] norm2 <- pool2
I0801 00:12:33.045558  3157 net.cpp:399] norm2 -> norm2
I0801 00:12:33.045809  3157 net.cpp:141] Setting up norm2
I0801 00:12:33.045820  3157 net.cpp:148] Top shape: 10 256 13 13 (432640)
I0801 00:12:33.045825  3157 net.cpp:156] Memory required for data: 53405240
I0801 00:12:33.045830  3157 layer_factory.hpp:77] Creating layer conv3
I0801 00:12:33.045842  3157 net.cpp:91] Creating Layer conv3
I0801 00:12:33.045847  3157 net.cpp:425] conv3 <- norm2
I0801 00:12:33.045856  3157 net.cpp:399] conv3 -> conv3
I0801 00:12:33.049557  3157 net.cpp:141] Setting up conv3
I0801 00:12:33.049576  3157 net.cpp:148] Top shape: 10 384 13 13 (648960)
I0801 00:12:33.049582  3157 net.cpp:156] Memory required for data: 56001080
I0801 00:12:33.049598  3157 layer_factory.hpp:77] Creating layer relu3
I0801 00:12:33.049607  3157 net.cpp:91] Creating Layer relu3
I0801 00:12:33.049612  3157 net.cpp:425] relu3 <- conv3
I0801 00:12:33.049621  3157 net.cpp:386] relu3 -> conv3 (in-place)
I0801 00:12:33.050062  3157 net.cpp:141] Setting up relu3
I0801 00:12:33.050074  3157 net.cpp:148] Top shape: 10 384 13 13 (648960)
I0801 00:12:33.050079  3157 net.cpp:156] Memory required for data: 58596920
I0801 00:12:33.050084  3157 layer_factory.hpp:77] Creating layer conv4
I0801 00:12:33.050096  3157 net.cpp:91] Creating Layer conv4
I0801 00:12:33.050102  3157 net.cpp:425] conv4 <- conv3
I0801 00:12:33.050109  3157 net.cpp:399] conv4 -> conv4
I0801 00:12:33.054200  3157 net.cpp:141] Setting up conv4
I0801 00:12:33.054235  3157 net.cpp:148] Top shape: 10 384 13 13 (648960)
I0801 00:12:33.054241  3157 net.cpp:156] Memory required for data: 61192760
I0801 00:12:33.054250  3157 layer_factory.hpp:77] Creating layer relu4
I0801 00:12:33.054260  3157 net.cpp:91] Creating Layer relu4
I0801 00:12:33.054265  3157 net.cpp:425] relu4 <- conv4
I0801 00:12:33.054276  3157 net.cpp:386] relu4 -> conv4 (in-place)
I0801 00:12:33.054718  3157 net.cpp:141] Setting up relu4
I0801 00:12:33.054731  3157 net.cpp:148] Top shape: 10 384 13 13 (648960)
I0801 00:12:33.054736  3157 net.cpp:156] Memory required for data: 63788600
I0801 00:12:33.054741  3157 layer_factory.hpp:77] Creating layer conv5
I0801 00:12:33.054756  3157 net.cpp:91] Creating Layer conv5
I0801 00:12:33.054762  3157 net.cpp:425] conv5 <- conv4
I0801 00:12:33.054771  3157 net.cpp:399] conv5 -> conv5
I0801 00:12:33.058676  3157 net.cpp:141] Setting up conv5
I0801 00:12:33.058692  3157 net.cpp:148] Top shape: 10 256 13 13 (432640)
I0801 00:12:33.058712  3157 net.cpp:156] Memory required for data: 65519160
I0801 00:12:33.058727  3157 layer_factory.hpp:77] Creating layer relu5
I0801 00:12:33.058735  3157 net.cpp:91] Creating Layer relu5
I0801 00:12:33.058740  3157 net.cpp:425] relu5 <- conv5
I0801 00:12:33.058750  3157 net.cpp:386] relu5 -> conv5 (in-place)
I0801 00:12:33.059203  3157 net.cpp:141] Setting up relu5
I0801 00:12:33.059216  3157 net.cpp:148] Top shape: 10 256 13 13 (432640)
I0801 00:12:33.059221  3157 net.cpp:156] Memory required for data: 67249720
I0801 00:12:33.059226  3157 layer_factory.hpp:77] Creating layer pool5
I0801 00:12:33.059240  3157 net.cpp:91] Creating Layer pool5
I0801 00:12:33.059245  3157 net.cpp:425] pool5 <- conv5
I0801 00:12:33.059252  3157 net.cpp:399] pool5 -> pool5
I0801 00:12:33.059315  3157 net.cpp:141] Setting up pool5
I0801 00:12:33.059324  3157 net.cpp:148] Top shape: 10 256 6 6 (92160)
I0801 00:12:33.059329  3157 net.cpp:156] Memory required for data: 67618360
I0801 00:12:33.059334  3157 layer_factory.hpp:77] Creating layer fc6
I0801 00:12:33.059350  3157 net.cpp:91] Creating Layer fc6
I0801 00:12:33.059355  3157 net.cpp:425] fc6 <- pool5
I0801 00:12:33.059361  3157 net.cpp:399] fc6 -> fc6
I0801 00:12:33.125574  3147 net.cpp:141] Setting up embedding
I0801 00:12:33.125633  3147 net.cpp:148] Top shape: 1 1 500 (500)
I0801 00:12:33.125644  3147 net.cpp:156] Memory required for data: 22408
I0801 00:12:33.125670  3147 layer_factory.hpp:77] Creating layer lstm1
I0801 00:12:33.125700  3147 net.cpp:91] Creating Layer lstm1
I0801 00:12:33.125712  3147 net.cpp:425] lstm1 <- embedded_input_frames
I0801 00:12:33.125727  3147 net.cpp:425] lstm1 <- cont_sentence_input_1_split_0
I0801 00:12:33.125756  3147 net.cpp:399] lstm1 -> lstm1
I0801 00:12:33.125808  3147 recurrent_layer.cpp:20] Initializing recurrent layer: assuming input batch contains 1 timesteps of 1 independent streams.
I0801 00:12:33.126379  3147 net.cpp:49] Initializing net from parameters: 
layer {
  name: "lstm1_"
  type: "Input"
  top: "x"
  top: "cont"
  input_param {
    shape {
      dim: 1
      dim: 1
      dim: 500
    }
    shape {
      dim: 1
      dim: 1
    }
  }
}
layer {
  name: "lstm1_"
  type: "Input"
  top: "c_0"
  top: "h_0"
  input_param {
    shape {
      dim: 1
      dim: 1
      dim: 1000
    }
    shape {
      dim: 1
      dim: 1
      dim: 1000
    }
  }
}
layer {
  name: "lstm1_cont_slice"
  type: "Slice"
  bottom: "cont"
  top: "cont_1"
  slice_param {
    axis: 0
  }
}
layer {
  name: "lstm1_x_transform"
  type: "InnerProduct"
  bottom: "x"
  top: "W_xc_x"
  param {
    name: "W_xc"
  }
  param {
    name: "b_c"
  }
  propagate_down: true
  inner_product_param {
    num_output: 4000
    bias_term: true
    weight_filler {
      type: "uniform"
      min: -0.08
      max: 0.08
    }
    bias_filler {
      type: "constant"
      value: 0
    }
    axis: 2
  }
}
layer {
  name: "lstm1_W_xc_x_slice"
  type: "Slice"
  bottom: "W_xc_x"
  top: "W_xc_x_1"
  slice_param {
    axis: 0
  }
}
layer {
  name: "lstm1_h_conted_0"
  type: "Scale"
  bottom: "h_0"
  bottom: "cont_1"
  top: "h_conted_0"
  scale_param {
    axis: 0
  }
}
layer {
  name: "lstm1_transform_1"
  type: "InnerProduct"
  bottom: "h_conted_0"
  top: "W_hc_h_0"
  param {
    name: "W_hc"
  }
  inner_product_param {
    num_output: 4000
    bias_term: false
    weight_filler {
      type: "uniform"
      min: -0.08
      max: 0.08
    }
    axis: 2
  }
}
layer {
  name: "lstm1_gate_input_1"
  type: "Eltwise"
  bottom: "W_hc_h_0"
  bottom: "W_xc_x_1"
  top: "gate_input_1"
  eltwise_param {
    operation: SUM
  }
}
layer {
  name: "lstm1_unit_1"
  type: "LSTMUnit"
  bottom: "c_0"
  bottom: "gate_input_1"
  bottom: "cont_1"
  top: "c_1"
  top: "h_1"
}
layer {
  name: "lstm1_"
  type: "Split"
  bottom: "c_1"
  top: "c_T"
}
layer {
  name: "lstm1_h_concat"
  type: "Concat"
  bottom: "h_1"
  top: "h"
  concat_param {
    axis: 0
  }
}
layer {
  name: "h_pseudoloss"
  type: "Reduction"
  bottom: "h"
  top: "h_pseudoloss"
  loss_weight: 1
}
I0801 00:12:33.126530  3147 layer_factory.hpp:77] Creating layer lstm1_
I0801 00:12:33.126552  3147 net.cpp:91] Creating Layer lstm1_
I0801 00:12:33.126565  3147 net.cpp:399] lstm1_ -> x
I0801 00:12:33.126585  3147 net.cpp:399] lstm1_ -> cont
I0801 00:12:33.126674  3147 net.cpp:141] Setting up lstm1_
I0801 00:12:33.126690  3147 net.cpp:148] Top shape: 1 1 500 (500)
I0801 00:12:33.126701  3147 net.cpp:148] Top shape: 1 1 (1)
I0801 00:12:33.126709  3147 net.cpp:156] Memory required for data: 2004
I0801 00:12:33.126718  3147 layer_factory.hpp:77] Creating layer lstm1_
I0801 00:12:33.126732  3147 net.cpp:91] Creating Layer lstm1_
I0801 00:12:33.126745  3147 net.cpp:399] lstm1_ -> c_0
I0801 00:12:33.126761  3147 net.cpp:399] lstm1_ -> h_0
I0801 00:12:33.126837  3147 net.cpp:141] Setting up lstm1_
I0801 00:12:33.126852  3147 net.cpp:148] Top shape: 1 1 1000 (1000)
I0801 00:12:33.126863  3147 net.cpp:148] Top shape: 1 1 1000 (1000)
I0801 00:12:33.126870  3147 net.cpp:156] Memory required for data: 10004
I0801 00:12:33.126879  3147 layer_factory.hpp:77] Creating layer lstm1_cont_slice
I0801 00:12:33.126891  3147 net.cpp:91] Creating Layer lstm1_cont_slice
I0801 00:12:33.126899  3147 net.cpp:425] lstm1_cont_slice <- cont
I0801 00:12:33.126910  3147 net.cpp:399] lstm1_cont_slice -> cont_1
I0801 00:12:33.126965  3147 net.cpp:141] Setting up lstm1_cont_slice
I0801 00:12:33.126981  3147 net.cpp:148] Top shape: 1 1 (1)
I0801 00:12:33.126986  3147 net.cpp:156] Memory required for data: 10008
I0801 00:12:33.126994  3147 layer_factory.hpp:77] Creating layer cont_1_lstm1_cont_slice_0_split
I0801 00:12:33.127012  3147 net.cpp:91] Creating Layer cont_1_lstm1_cont_slice_0_split
I0801 00:12:33.127020  3147 net.cpp:425] cont_1_lstm1_cont_slice_0_split <- cont_1
I0801 00:12:33.127032  3147 net.cpp:399] cont_1_lstm1_cont_slice_0_split -> cont_1_lstm1_cont_slice_0_split_0
I0801 00:12:33.127044  3147 net.cpp:399] cont_1_lstm1_cont_slice_0_split -> cont_1_lstm1_cont_slice_0_split_1
I0801 00:12:33.127117  3147 net.cpp:141] Setting up cont_1_lstm1_cont_slice_0_split
I0801 00:12:33.127130  3147 net.cpp:148] Top shape: 1 1 (1)
I0801 00:12:33.127140  3147 net.cpp:148] Top shape: 1 1 (1)
I0801 00:12:33.127149  3147 net.cpp:156] Memory required for data: 10016
I0801 00:12:33.127157  3147 layer_factory.hpp:77] Creating layer lstm1_x_transform
I0801 00:12:33.127172  3147 net.cpp:91] Creating Layer lstm1_x_transform
I0801 00:12:33.127182  3147 net.cpp:425] lstm1_x_transform <- x
I0801 00:12:33.127200  3147 net.cpp:399] lstm1_x_transform -> W_xc_x
I0801 00:12:33.154000  3147 net.cpp:141] Setting up lstm1_x_transform
I0801 00:12:33.154062  3147 net.cpp:148] Top shape: 1 1 4000 (4000)
I0801 00:12:33.154074  3147 net.cpp:156] Memory required for data: 26016
I0801 00:12:33.154110  3147 layer_factory.hpp:77] Creating layer lstm1_W_xc_x_slice
I0801 00:12:33.154135  3147 net.cpp:91] Creating Layer lstm1_W_xc_x_slice
I0801 00:12:33.154146  3147 net.cpp:425] lstm1_W_xc_x_slice <- W_xc_x
I0801 00:12:33.154161  3147 net.cpp:399] lstm1_W_xc_x_slice -> W_xc_x_1
I0801 00:12:33.154232  3147 net.cpp:141] Setting up lstm1_W_xc_x_slice
I0801 00:12:33.154252  3147 net.cpp:148] Top shape: 1 1 4000 (4000)
I0801 00:12:33.154259  3147 net.cpp:156] Memory required for data: 42016
I0801 00:12:33.154268  3147 layer_factory.hpp:77] Creating layer lstm1_h_conted_0
I0801 00:12:33.154284  3147 net.cpp:91] Creating Layer lstm1_h_conted_0
I0801 00:12:33.154294  3147 net.cpp:425] lstm1_h_conted_0 <- h_0
I0801 00:12:33.154304  3147 net.cpp:425] lstm1_h_conted_0 <- cont_1_lstm1_cont_slice_0_split_0
I0801 00:12:33.154315  3147 net.cpp:399] lstm1_h_conted_0 -> h_conted_0
I0801 00:12:33.154450  3147 net.cpp:141] Setting up lstm1_h_conted_0
I0801 00:12:33.154466  3147 net.cpp:148] Top shape: 1 1 1000 (1000)
I0801 00:12:33.154474  3147 net.cpp:156] Memory required for data: 46016
I0801 00:12:33.154484  3147 layer_factory.hpp:77] Creating layer lstm1_transform_1
I0801 00:12:33.154505  3147 net.cpp:91] Creating Layer lstm1_transform_1
I0801 00:12:33.154511  3147 net.cpp:425] lstm1_transform_1 <- h_conted_0
I0801 00:12:33.154525  3147 net.cpp:399] lstm1_transform_1 -> W_hc_h_0
I0801 00:12:33.172549  3157 net.cpp:141] Setting up fc6
I0801 00:12:33.172606  3157 net.cpp:148] Top shape: 10 4096 (40960)
I0801 00:12:33.172613  3157 net.cpp:156] Memory required for data: 67782200
I0801 00:12:33.172631  3157 layer_factory.hpp:77] Creating layer relu6
I0801 00:12:33.172652  3157 net.cpp:91] Creating Layer relu6
I0801 00:12:33.172660  3157 net.cpp:425] relu6 <- fc6
I0801 00:12:33.172673  3157 net.cpp:386] relu6 -> fc6 (in-place)
I0801 00:12:33.173010  3157 net.cpp:141] Setting up relu6
I0801 00:12:33.173022  3157 net.cpp:148] Top shape: 10 4096 (40960)
I0801 00:12:33.173027  3157 net.cpp:156] Memory required for data: 67946040
I0801 00:12:33.173032  3157 layer_factory.hpp:77] Creating layer drop6
I0801 00:12:33.173043  3157 net.cpp:91] Creating Layer drop6
I0801 00:12:33.173048  3157 net.cpp:425] drop6 <- fc6
I0801 00:12:33.173058  3157 net.cpp:386] drop6 -> fc6 (in-place)
I0801 00:12:33.173111  3157 net.cpp:141] Setting up drop6
I0801 00:12:33.173120  3157 net.cpp:148] Top shape: 10 4096 (40960)
I0801 00:12:33.173125  3157 net.cpp:156] Memory required for data: 68109880
I0801 00:12:33.173130  3157 layer_factory.hpp:77] Creating layer fc7
I0801 00:12:33.173141  3157 net.cpp:91] Creating Layer fc7
I0801 00:12:33.173144  3157 net.cpp:425] fc7 <- fc6
I0801 00:12:33.173157  3157 net.cpp:399] fc7 -> fc7
I0801 00:12:33.207151  3147 net.cpp:141] Setting up lstm1_transform_1
I0801 00:12:33.207237  3147 net.cpp:148] Top shape: 1 1 4000 (4000)
I0801 00:12:33.207257  3147 net.cpp:156] Memory required for data: 62016
I0801 00:12:33.207303  3147 layer_factory.hpp:77] Creating layer lstm1_gate_input_1
I0801 00:12:33.207347  3147 net.cpp:91] Creating Layer lstm1_gate_input_1
I0801 00:12:33.207370  3147 net.cpp:425] lstm1_gate_input_1 <- W_hc_h_0
I0801 00:12:33.207394  3147 net.cpp:425] lstm1_gate_input_1 <- W_xc_x_1
I0801 00:12:33.207429  3147 net.cpp:399] lstm1_gate_input_1 -> gate_input_1
I0801 00:12:33.207574  3147 net.cpp:141] Setting up lstm1_gate_input_1
I0801 00:12:33.207612  3147 net.cpp:148] Top shape: 1 1 4000 (4000)
I0801 00:12:33.207628  3147 net.cpp:156] Memory required for data: 78016
I0801 00:12:33.207646  3147 layer_factory.hpp:77] Creating layer lstm1_unit_1
I0801 00:12:33.207674  3147 net.cpp:91] Creating Layer lstm1_unit_1
I0801 00:12:33.207691  3147 net.cpp:425] lstm1_unit_1 <- c_0
I0801 00:12:33.207710  3147 net.cpp:425] lstm1_unit_1 <- gate_input_1
I0801 00:12:33.207731  3147 net.cpp:425] lstm1_unit_1 <- cont_1_lstm1_cont_slice_0_split_1
I0801 00:12:33.207753  3147 net.cpp:399] lstm1_unit_1 -> c_1
I0801 00:12:33.207784  3147 net.cpp:399] lstm1_unit_1 -> h_1
I0801 00:12:33.207998  3147 net.cpp:141] Setting up lstm1_unit_1
I0801 00:12:33.208042  3147 net.cpp:148] Top shape: 1 1 1000 (1000)
I0801 00:12:33.208063  3147 net.cpp:148] Top shape: 1 1 1000 (1000)
I0801 00:12:33.208078  3147 net.cpp:156] Memory required for data: 86016
I0801 00:12:33.208094  3147 layer_factory.hpp:77] Creating layer lstm1_
I0801 00:12:33.208120  3147 net.cpp:91] Creating Layer lstm1_
I0801 00:12:33.208138  3147 net.cpp:425] lstm1_ <- c_1
I0801 00:12:33.208163  3147 net.cpp:399] lstm1_ -> c_T
I0801 00:12:33.208261  3147 net.cpp:141] Setting up lstm1_
I0801 00:12:33.208297  3147 net.cpp:148] Top shape: 1 1 1000 (1000)
I0801 00:12:33.208315  3147 net.cpp:156] Memory required for data: 90016
I0801 00:12:33.208331  3147 layer_factory.hpp:77] Creating layer lstm1_h_concat
I0801 00:12:33.208372  3147 net.cpp:91] Creating Layer lstm1_h_concat
I0801 00:12:33.208392  3147 net.cpp:425] lstm1_h_concat <- h_1
I0801 00:12:33.208423  3147 net.cpp:399] lstm1_h_concat -> h
I0801 00:12:33.208525  3147 net.cpp:141] Setting up lstm1_h_concat
I0801 00:12:33.208552  3147 net.cpp:148] Top shape: 1 1 1000 (1000)
I0801 00:12:33.208567  3147 net.cpp:156] Memory required for data: 94016
I0801 00:12:33.208583  3147 layer_factory.hpp:77] Creating layer h_pseudoloss
I0801 00:12:33.208626  3147 net.cpp:91] Creating Layer h_pseudoloss
I0801 00:12:33.208647  3147 net.cpp:425] h_pseudoloss <- h
I0801 00:12:33.208668  3147 net.cpp:399] h_pseudoloss -> h_pseudoloss
I0801 00:12:33.208935  3147 net.cpp:141] Setting up h_pseudoloss
…
I0801 00:12:33.209290  3147 net.cpp:219] lstm1_ does not need backward computation.
I0801 00:12:33.209305  3147 net.cpp:261] This network produces output c_T
I0801 00:12:33.209321  3147 net.cpp:261] This network produces output h_pseudoloss
I0801 00:12:33.209373  3147 net.cpp:274] Network initialization done.
I0801 00:12:33.209523  3147 recurrent_layer.cpp:150] Adding parameter 0: W_xc
I0801 00:12:33.209548  3147 recurrent_layer.cpp:150] Adding parameter 1: b_c
I0801 00:12:33.209564  3147 recurrent_layer.cpp:150] Adding parameter 2: W_hc
I0801 00:12:33.209877  3147 net.cpp:141] Setting up lstm1
I0801 00:12:33.209908  3147 net.cpp:148] Top shape: 1 1 1000 (1000)
I0801 00:12:33.209928  3147 net.cpp:156] Memory required for data: 26408
I0801 00:12:33.209974  3147 layer_factory.hpp:77] Creating layer concat
I0801 00:12:33.210005  3147 net.cpp:91] Creating Layer concat
I0801 00:12:33.210026  3147 net.cpp:425] concat <- lstm1
I0801 00:12:33.210048  3147 net.cpp:425] concat <- embedded_input_sentence
I0801 00:12:33.210070  3147 net.cpp:425] concat <- reshaped_stage_indicator
I0801 00:12:33.210096  3147 net.cpp:399] concat -> lstm1_video_sequence
I0801 00:12:33.210203  3147 net.cpp:141] Setting up concat
I0801 00:12:33.210230  3147 net.cpp:148] Top shape: 1 1 1501 (1501)
I0801 00:12:33.210247  3147 net.cpp:156] Memory required for data: 32412
I0801 00:12:33.210263  3147 layer_factory.hpp:77] Creating layer lstm2
I0801 00:12:33.210301  3147 net.cpp:91] Creating Layer lstm2
I0801 00:12:33.210321  3147 net.cpp:425] lstm2 <- lstm1_video_sequence
I0801 00:12:33.210342  3147 net.cpp:425] lstm2 <- cont_sentence_input_1_split_1
I0801 00:12:33.210368  3147 net.cpp:399] lstm2 -> lstm2
I0801 00:12:33.210403  3147 recurrent_layer.cpp:20] Initializing recurrent layer: assuming input batch contains 1 timesteps of 1 independent streams.
I0801 00:12:33.211019  3147 net.cpp:49] Initializing net from parameters: 
layer {
  name: "lstm2_"
  type: "Input"
  top: "x"
  top: "cont"
  input_param {
    shape {
      dim: 1
      dim: 1
      dim: 1501
    }
    shape {
      dim: 1
      dim: 1
    }
  }
}
layer {
  name: "lstm2_"
  type: "Input"
  top: "c_0"
  top: "h_0"
  input_param {
    shape {
      dim: 1
      dim: 1
      dim: 1000
    }
    shape {
      dim: 1
      dim: 1
      dim: 1000
    }
  }
}
layer {
  name: "lstm2_cont_slice"
  type: "Slice"
  bottom: "cont"
  top: "cont_1"
  slice_param {
    axis: 0
  }
}
layer {
  name: "lstm2_x_transform"
  type: "InnerProduct"
  bottom: "x"
  top: "W_xc_x"
  param {
    name: "W_xc"
  }
  param {
    name: "b_c"
  }
  propagate_down: true
  inner_product_param {
    num_output: 4000
    bias_term: true
    weight_filler {
      type: "uniform"
      min: -0.08
      max: 0.08
    }
    bias_filler {
      type: "constant"
      value: 0
    }
    axis: 2
  }
}
layer {
  name: "lstm2_W_xc_x_slice"
  type: "Slice"
  bottom: "W_xc_x"
  top: "W_xc_x_1"
  slice_param {
    axis: 0
  }
}
layer {
  name: "lstm2_h_conted_0"
  type: "Scale"
  bottom: "h_0"
  bottom: "cont_1"
  top: "h_conted_0"
  scale_param {
    axis: 0
  }
}
layer {
  name: "lstm2_transform_1"
  type: "InnerProduct"
  bottom: "h_conted_0"
  top: "W_hc_h_0"
  param {
    name: "W_hc"
  }
  inner_product_param {
    num_output: 4000
    bias_term: false
    weight_filler {
      type: "uniform"
      min: -0.08
      max: 0.08
    }
    axis: 2
  }
}
layer {
  name: "lstm2_gate_input_1"
  type: "Eltwise"
  bottom: "W_hc_h_0"
  bottom: "W_xc_x_1"
  top: "gate_input_1"
  eltwise_param {
    operation: SUM
  }
}
layer {
  name: "lstm2_unit_1"
  type: "LSTMUnit"
  bottom: "c_0"
  bottom: "gate_input_1"
  bottom: "cont_1"
  top: "c_1"
  top: "h_1"
}
layer {
  name: "lstm2_"
  type: "Split"
  bottom: "c_1"
  top: "c_T"
}
layer {
  name: "lstm2_h_concat"
  type: "Concat"
  bottom: "h_1"
  top: "h"
  concat_param {
    axis: 0
  }
}
layer {
  name: "h_pseudoloss"
  type: "Reduction"
  bottom: "h"
  top: "h_pseudoloss"
  loss_weight: 1
}
I0801 00:12:33.211249  3147 layer_factory.hpp:77] Creating layer lstm2_
I0801 00:12:33.211284  3147 net.cpp:91] Creating Layer lstm2_
I0801 00:12:33.211310  3147 net.cpp:399] lstm2_ -> x
I0801 00:12:33.211344  3147 net.cpp:399] lstm2_ -> cont
I0801 00:12:33.211510  3147 net.cpp:141] Setting up lstm2_
I0801 00:12:33.211541  3147 net.cpp:148] Top shape: 1 1 1501 (1501)
I0801 00:12:33.211562  3147 net.cpp:148] Top shape: 1 1 (1)
I0801 00:12:33.211578  3147 net.cpp:156] Memory required for data: 6008
I0801 00:12:33.211596  3147 layer_factory.hpp:77] Creating layer lstm2_
I0801 00:12:33.211624  3147 net.cpp:91] Creating Layer lstm2_
I0801 00:12:33.211648  3147 net.cpp:399] lstm2_ -> c_0
I0801 00:12:33.211694  3147 net.cpp:399] lstm2_ -> h_0
I0801 00:12:33.211869  3147 net.cpp:141] Setting up lstm2_
I0801 00:12:33.211901  3147 net.cpp:148] Top shape: 1 1 1000 (1000)
I0801 00:12:33.211923  3147 net.cpp:148] Top shape: 1 1 1000 (1000)
I0801 00:12:33.211938  3147 net.cpp:156] Memory required for data: 14008
I0801 00:12:33.211953  3147 layer_factory.hpp:77] Creating layer lstm2_cont_slice
I0801 00:12:33.212035  3147 net.cpp:91] Creating Layer lstm2_cont_slice
I0801 00:12:33.212061  3147 net.cpp:425] lstm2_cont_slice <- cont
I0801 00:12:33.212088  3147 net.cpp:399] lstm2_cont_slice -> cont_1
I0801 00:12:33.212198  3147 net.cpp:141] Setting up lstm2_cont_slice
I0801 00:12:33.212229  3147 net.cpp:148] Top shape: 1 1 (1)
I0801 00:12:33.212244  3147 net.cpp:156] Memory required for data: 14012
I0801 00:12:33.212261  3147 layer_factory.hpp:77] Creating layer cont_1_lstm2_cont_slice_0_split
I0801 00:12:33.212286  3147 net.cpp:91] Creating Layer cont_1_lstm2_cont_slice_0_split
I0801 00:12:33.212306  3147 net.cpp:425] cont_1_lstm2_cont_slice_0_split <- cont_1
I0801 00:12:33.212345  3147 net.cpp:399] cont_1_lstm2_cont_slice_0_split -> cont_1_lstm2_cont_slice_0_split_0
I0801 00:12:33.212379  3147 net.cpp:399] cont_1_lstm2_cont_slice_0_split -> cont_1_lstm2_cont_slice_0_split_1
I0801 00:12:33.212550  3147 net.cpp:141] Setting up cont_1_lstm2_cont_slice_0_split
I0801 00:12:33.212580  3147 net.cpp:148] Top shape: 1 1 (1)
I0801 00:12:33.212601  3147 net.cpp:148] Top shape: 1 1 (1)
I0801 00:12:33.212616  3147 net.cpp:156] Memory required for data: 14020
I0801 00:12:33.212631  3147 layer_factory.hpp:77] Creating layer lstm2_x_transform
I0801 00:12:33.212671  3147 net.cpp:91] Creating Layer lstm2_x_transform
I0801 00:12:33.212692  3147 net.cpp:425] lstm2_x_transform <- x
I0801 00:12:33.212721  3147 net.cpp:399] lstm2_x_transform -> W_xc_x
I0801 00:12:33.242624  3157 net.cpp:141] Setting up fc7
I0801 00:12:33.242707  3157 net.cpp:148] Top shape: 10 4096 (40960)
I0801 00:12:33.242724  3157 net.cpp:156] Memory required for data: 68273720
I0801 00:12:33.242763  3157 layer_factory.hpp:77] Creating layer relu7
I0801 00:12:33.242799  3157 net.cpp:91] Creating Layer relu7
I0801 00:12:33.242820  3157 net.cpp:425] relu7 <- fc7
I0801 00:12:33.242851  3157 net.cpp:386] relu7 -> fc7 (in-place)
I0801 00:12:33.254467  3157 net.cpp:141] Setting up relu7
I0801 00:12:33.254526  3157 net.cpp:148] Top shape: 10 4096 (40960)
I0801 00:12:33.254535  3157 net.cpp:156] Memory required for data: 68437560
I0801 00:12:33.254549  3157 layer_factory.hpp:77] Creating layer drop7
I0801 00:12:33.254576  3157 net.cpp:91] Creating Layer drop7
I0801 00:12:33.254588  3157 net.cpp:425] drop7 <- fc7
I0801 00:12:33.254603  3157 net.cpp:386] drop7 -> fc7 (in-place)
I0801 00:12:33.254689  3157 net.cpp:141] Setting up drop7
I0801 00:12:33.254703  3157 net.cpp:148] Top shape: 10 4096 (40960)
I0801 00:12:33.254711  3157 net.cpp:156] Memory required for data: 68601400
I0801 00:12:33.254719  3157 layer_factory.hpp:77] Creating layer fc8
I0801 00:12:33.254741  3157 net.cpp:91] Creating Layer fc8
I0801 00:12:33.254750  3157 net.cpp:425] fc8 <- fc7
I0801 00:12:33.254765  3157 net.cpp:399] fc8 -> fc8
I0801 00:12:33.270193  3157 net.cpp:141] Setting up fc8
I0801 00:12:33.270251  3157 net.cpp:148] Top shape: 10 1000 (10000)
I0801 00:12:33.270261  3157 net.cpp:156] Memory required for data: 68641400
I0801 00:12:33.270282  3157 layer_factory.hpp:77] Creating layer prob
I0801 00:12:33.270311  3157 net.cpp:91] Creating Layer prob
I0801 00:12:33.270323  3157 net.cpp:425] prob <- fc8
I0801 00:12:33.270337  3157 net.cpp:399] prob -> prob
I0801 00:12:33.270961  3157 net.cpp:141] Setting up prob
I0801 00:12:33.270982  3157 net.cpp:148] Top shape: 10 1000 (10000)
I0801 00:12:33.270990  3157 net.cpp:156] Memory required for data: 68681400
I0801 00:12:33.270999  3157 net.cpp:219] prob does not need backward computation.
I0801 00:12:33.271008  3157 net.cpp:219] fc8 does not need backward computation.
I0801 00:12:33.271024  3157 net.cpp:219] drop7 does not need backward computation.
I0801 00:12:33.271033  3157 net.cpp:219] relu7 does not need backward computation.
…
I0801 00:12:33.271162  3157 net.cpp:219] norm1 does not need backward computation.
I0801 00:12:33.271170  3157 net.cpp:219] pool1 does not need backward computation.
I0801 00:12:33.271178  3157 net.cpp:219] relu1 does not need backward computation.
I0801 00:12:33.271186  3157 net.cpp:219] conv1 does not need backward computation.
I0801 00:12:33.271194  3157 net.cpp:219] data does not need backward computation.
I0801 00:12:33.271201  3157 net.cpp:261] This network produces output prob
I0801 00:12:33.271235  3157 net.cpp:274] Network initialization done.
I0801 00:12:33.308316  3147 net.cpp:141] Setting up lstm2_x_transform
I0801 00:12:33.308369  3147 net.cpp:148] Top shape: 1 1 4000 (4000)
I0801 00:12:33.308377  3147 net.cpp:156] Memory required for data: 30020
I0801 00:12:33.308398  3147 layer_factory.hpp:77] Creating layer lstm2_W_xc_x_slice
I0801 00:12:33.308416  3147 net.cpp:91] Creating Layer lstm2_W_xc_x_slice
I0801 00:12:33.308424  3147 net.cpp:425] lstm2_W_xc_x_slice <- W_xc_x
I0801 00:12:33.308439  3147 net.cpp:399] lstm2_W_xc_x_slice -> W_xc_x_1
I0801 00:12:33.308488  3147 net.cpp:141] Setting up lstm2_W_xc_x_slice
I0801 00:12:33.308500  3147 net.cpp:148] Top shape: 1 1 4000 (4000)
I0801 00:12:33.308503  3147 net.cpp:156] Memory required for data: 46020
I0801 00:12:33.308509  3147 layer_factory.hpp:77] Creating layer lstm2_h_conted_0
I0801 00:12:33.308521  3147 net.cpp:91] Creating Layer lstm2_h_conted_0
I0801 00:12:33.308526  3147 net.cpp:425] lstm2_h_conted_0 <- h_0
I0801 00:12:33.308532  3147 net.cpp:425] lstm2_h_conted_0 <- cont_1_lstm2_cont_slice_0_split_0
I0801 00:12:33.308544  3147 net.cpp:399] lstm2_h_conted_0 -> h_conted_0
I0801 00:12:33.308657  3147 net.cpp:141] Setting up lstm2_h_conted_0
I0801 00:12:33.308667  3147 net.cpp:148] Top shape: 1 1 1000 (1000)
I0801 00:12:33.308672  3147 net.cpp:156] Memory required for data: 50020
I0801 00:12:33.308677  3147 layer_factory.hpp:77] Creating layer lstm2_transform_1
I0801 00:12:33.308694  3147 net.cpp:91] Creating Layer lstm2_transform_1
I0801 00:12:33.308701  3147 net.cpp:425] lstm2_transform_1 <- h_conted_0
I0801 00:12:33.308709  3147 net.cpp:399] lstm2_transform_1 -> W_hc_h_0
I0801 00:12:33.352603  3147 net.cpp:141] Setting up lstm2_transform_1
I0801 00:12:33.352659  3147 net.cpp:148] Top shape: 1 1 4000 (4000)
I0801 00:12:33.352666  3147 net.cpp:156] Memory required for data: 66020
I0801 00:12:33.352687  3147 layer_factory.hpp:77] Creating layer lstm2_gate_input_1
I0801 00:12:33.352715  3147 net.cpp:91] Creating Layer lstm2_gate_input_1
I0801 00:12:33.352725  3147 net.cpp:425] lstm2_gate_input_1 <- W_hc_h_0
I0801 00:12:33.352733  3147 net.cpp:425] lstm2_gate_input_1 <- W_xc_x_1
I0801 00:12:33.352742  3147 net.cpp:399] lstm2_gate_input_1 -> gate_input_1
I0801 00:12:33.352798  3147 net.cpp:141] Setting up lstm2_gate_input_1
I0801 00:12:33.352812  3147 net.cpp:148] Top shape: 1 1 4000 (4000)
I0801 00:12:33.352816  3147 net.cpp:156] Memory required for data: 82020
I0801 00:12:33.352821  3147 layer_factory.hpp:77] Creating layer lstm2_unit_1
I0801 00:12:33.352831  3147 net.cpp:91] Creating Layer lstm2_unit_1
I0801 00:12:33.352836  3147 net.cpp:425] lstm2_unit_1 <- c_0
I0801 00:12:33.352843  3147 net.cpp:425] lstm2_unit_1 <- gate_input_1
I0801 00:12:33.352849  3147 net.cpp:425] lstm2_unit_1 <- cont_1_lstm2_cont_slice_0_split_1
I0801 00:12:33.352869  3147 net.cpp:399] lstm2_unit_1 -> c_1
I0801 00:12:33.352880  3147 net.cpp:399] lstm2_unit_1 -> h_1
I0801 00:12:33.352952  3147 net.cpp:141] Setting up lstm2_unit_1
I0801 00:12:33.352962  3147 net.cpp:148] Top shape: 1 1 1000 (1000)
I0801 00:12:33.352969  3147 net.cpp:148] Top shape: 1 1 1000 (1000)
I0801 00:12:33.352974  3147 net.cpp:156] Memory required for data: 90020
I0801 00:12:33.352979  3147 layer_factory.hpp:77] Creating layer lstm2_
I0801 00:12:33.352988  3147 net.cpp:91] Creating Layer lstm2_
I0801 00:12:33.352993  3147 net.cpp:425] lstm2_ <- c_1
I0801 00:12:33.353001  3147 net.cpp:399] lstm2_ -> c_T
I0801 00:12:33.353039  3147 net.cpp:141] Setting up lstm2_
I0801 00:12:33.353049  3147 net.cpp:148] Top shape: 1 1 1000 (1000)
I0801 00:12:33.353054  3147 net.cpp:156] Memory required for data: 94020
I0801 00:12:33.353058  3147 layer_factory.hpp:77] Creating layer lstm2_h_concat
I0801 00:12:33.353070  3147 net.cpp:91] Creating Layer lstm2_h_concat
I0801 00:12:33.353075  3147 net.cpp:425] lstm2_h_concat <- h_1
I0801 00:12:33.353082  3147 net.cpp:399] lstm2_h_concat -> h
I0801 00:12:33.353124  3147 net.cpp:141] Setting up lstm2_h_concat
I0801 00:12:33.353133  3147 net.cpp:148] Top shape: 1 1 1000 (1000)
I0801 00:12:33.353138  3147 net.cpp:156] Memory required for data: 98020
I0801 00:12:33.353143  3147 layer_factory.hpp:77] Creating layer h_pseudoloss
I0801 00:12:33.353153  3147 net.cpp:91] Creating Layer h_pseudoloss
I0801 00:12:33.353159  3147 net.cpp:425] h_pseudoloss <- h
I0801 00:12:33.353166  3147 net.cpp:399] h_pseudoloss -> h_pseudoloss
I0801 00:12:33.353266  3147 net.cpp:141] Setting up h_pseudoloss
…
