…
Java HotSpot(TM) 64-Bit Server VM warning: You have loaded library /tmp/cvld674630653465806253/libopencv_java310.xine1.so which might have disabled stack guard. The VM will try to fix the stack guard now.
It's highly recommended that you fix the library with 'execstack -c <libfile>', or link it with '-z noexecstack'.
WARNING: Logging before InitGoogleLogging() is written to STDERR
I0714 21:53:12.513442 13329 net.cpp:49] Initializing net from parameters: 
name: "GoogleNet"
state {
  phase: TEST
}
layer {
  name: "data"
  type: "Input"
  top: "data"
  input_param {
    shape {
      dim: 10
      dim: 3
      dim: 224
      dim: 224
    }
  }
}
layer {
  name: "conv1/7x7_s2"
  type: "Convolution"
  bottom: "data"
  top: "conv1/7x7_s2"
  param {
    lr_mult: 1
    decay_mult: 1
  }
  param {
    lr_mult: 2
    decay_mult: 0
  }
  convolution_param {
    num_output: 64
    pad: 3
    kernel_size: 7
    stride: 2
    weight_filler {
      type: "xavier"
      std: 0.1
    }
    bias_filler {
      type: "constant"
      value: 0.2
    }
  }
}
layer {
  name: "conv1/relu_7x7"
  type: "ReLU"
  bottom: "conv1/7x7_s2"
  top: "conv1/7x7_s2"
}
layer {
  name: "pool1/3x3_s2"
  type: "Pooling"
  bottom: "conv1/7x7_s2"
  top: "pool1/3x3_s2"
  pooling_param {
    pool: MAX
    kernel_size: 3
    stride: 2
  }
}
layer {
  name: "pool1/norm1"
  type: "LRN"
  bottom: "pool1/3x3_s2"
  top: "pool1/norm1"
  lrn_param {
    local_size: 5
    alpha: 0.0001
    beta: 0.75
  }
}
layer {
  name: "conv2/3x3_reduce"
  type: "Convolution"
  bottom: "pool1/norm1"
  top: "conv2/3x3_reduce"
  param {
    lr_mult: 1
    decay_mult: 1
  }
  param {
    lr_mult: 2
    decay_mult: 0
  }
  convolution_param {
    num_output: 64
    kernel_size: 1
    weight_filler {
      type: "xavier"
      std: 0.1
    }
    bias_filler {
      type: "constant"
      value: 0.2
    }
  }
}
layer {
  name: "conv2/relu_3x3_reduce"
  type: "ReLU"
  bottom: "conv2/3x3_reduce"
  top: "conv2/3x3_reduce"
}
layer {
  name: "conv2/3x3"
  type: "Convolution"
  bottom: "conv2/3x3_reduce"
  top: "conv2/3x3"
  param {
    lr_mult: 1
    decay_mult: 1
  }
  param {
    lr_mult: 2
    decay_mult: 0
  }
  convolution_param {
    num_output: 192
    pad: 1
    kernel_size: 3
    weight_filler {
      type: "xavier"
      std: 0.03
    }
    bias_filler {
      type: "constant"
      value: 0.2
    }
  }
}
layer {
  name: "conv2/relu_3x3"
  type: "ReLU"
  bottom: "conv2/3x3"
  top: "conv2/3x3"
}
layer {
  name: "conv2/norm2"
  type: "LRN"
  bottom: "conv2/3x3"
  top: "conv2/norm2"
  lrn_param {
    local_size: 5
    alpha: 0.0001
    beta: 0.75
  }
}
layer {
  name: "pool2/3x3_s2"
  type: "Pooling"
  bottom: "conv2/norm2"
  top: "pool2/3x3_s2"
  pooling_param {
    pool: MAX
    kernel_size: 3
    stride: 2
  }
}
layer {
  name: "inception_3a/1x1"
  type: "Convolution"
  bottom: "pool2/3x3_s2"
  top: "inception_3a/1x1"
  param {
    lr_mult: 1
    decay_mult: 1
  }
  param {
    lr_mult: 2
    decay_mult: 0
  }
  convolution_param {
    num_output: 64
    kernel_size: 1
    weight_filler {
      type: "xavier"
      std: 0.03
    }
    bias_filler {
      type: "constant"
      value: 0.2
    }
  }
}
layer {
  name: "inception_3a/relu_1x1"
  type: "ReLU"
  bottom: "inception_3a/1x1"
  top: "inception_3a/1x1"
}
layer {
  name: "inception_3a/3x3_reduce"
  type: "Convolution"
  bottom: "pool2/3x3_s2"
  top: "inception_3a/3x3_reduce"
  param {
    lr_mult: 1
    decay_mult: 1
  }
  param {
    lr_mult: 2
    decay_mult: 0
  }
  convolution_param {
    num_output: 96
    kernel_size: 1
    weight_filler {
      type: "xavier"
      std: 0.09
    }
    bias_filler {
      type: "constant"
      value: 0.2
    }
  }
}
layer {
  name: "inception_3a/relu_3x3_reduce"
  type: "ReLU"
  bottom: "inception_3a/3x3_reduce"
  top: "inception_3a/3x3_reduce"
}
layer {
  name: "inception_3a/3x3"
  type: "Convolution"
  bottom: "inception_3a/3x3_reduce"
  top: "inception_3a/3x3"
  param {
    lr_mult: 1
    decay_mult: 1
  }
  param {
    lr_mult: 2
    decay_mult: 0
  }
  convolution_param {
    num_output: 128
    pad: 1
    kernel_size: 3
    weight_filler {
      type: "xavier"
      std: 0.03
    }
    bias_filler {
      type: "constant"
      value: 0.2
    }
  }
}
layer {
  name: "inception_3a/relu_3x3"
  type: "ReLU"
  bottom: "inception_3a/3x3"
  top: "inception_3a/3x3"
}
layer {
  name: "inception_3a/5x5_reduce"
  type: "Convolution"
  bottom: "pool2/3x3_s2"
  top: "inception_3a/5x5_reduce"
  param {
    lr_mult: 1
    decay_mult: 1
  }
  param {
    lr_mult: 2
    decay_mult: 0
  }
  convolution_param {
    num_output: 16
    kernel_size: 1
    weight_filler {
      type: "xavier"
      std: 0.2
    }
    bias_filler {
      type: "constant"
      value: 0.2
    }
  }
}
layer {
  name: "inception_3a/relu_5x5_reduce"
  type: "ReLU"
  bottom: "inception_3a/5x5_reduce"
  top: "inception_3a/5x5_reduce"
}
layer {
  name: "inception_3a/5x5"
  type: "Convolution"
  bottom: "inception_3a/5x5_reduce"
  top: "inception_3a/5x5"
  param {
    lr_mult: 1
    decay_mult: 1
  }
  param {
    lr_mult: 2
    decay_mult: 0
  }
  convolution_param {
    num_output: 32
    pad: 2
    kernel_size: 5
    weight_filler {
      type: "xavier"
      std: 0.03
    }
    bias_filler {
      type: "constant"
      value: 0.2
    }
  }
}
layer {
  name: "inception_3a/relu_5x5"
  type: "ReLU"
  bottom: "inception_3a/5x5"
  top: "inception_3a/5x5"
}
layer {
  name: "inception_3a/pool"
  type: "Pooling"
  bottom: "pool2/3x3_s2"
  top: "inception_3a/pool"
  pooling_param {
    pool: MAX
    kernel_size: 3
    stride: 1
    pad: 1
  }
}
layer {
  name: "inception_3a/pool_proj"
  type: "Convolution"
  bottom: "inception_3a/pool"
  top: "inception_3a/pool_proj"
  param {
    lr_mult: 1
    decay_mult: 1
  }
  param {
    lr_mult: 2
    decay_mult: 0
  }
  convolution_param {
    num_output: 32
    kernel_size: 1
    weight_filler {
      type: "xavier"
      std: 0.1
    }
    bias_filler {
      type: "constant"
      value: 0.2
    }
  }
}
layer {
  name: "inception_3a/relu_pool_proj"
  type: "ReLU"
  bottom: "inception_3a/pool_proj"
  top: "inception_3a/pool_proj"
}
layer {
  name: "inception_3a/output"
  type: "Concat"
  bottom: "inception_3a/1x1"
  bottom: "inception_3a/3x3"
  bottom: "inception_3a/5x5"
  bottom: "inception_3a/pool_proj"
  top: "inception_3a/output"
}
layer {
  name: "inception_3b/1x1"
  type: "Convolution"
  bottom: "inception_3a/output"
  top: "inception_3b/1x1"
  param {
    lr_mult: 1
    decay_mult: 1
  }
  param {
    lr_mult: 2
    decay_mult: 0
  }
  convolution_param {
    num_output: 128
    kernel_size: 1
    weight_filler {
      type: "xavier"
      std: 0.03
    }
    bias_filler {
      type: "constant"
      value: 0.2
    }
  }
}
layer {
  name: "inception_3b/relu_1x1"
  type: "ReLU"
  bottom: "inception_3b/1x1"
  top: "inception_3b/1x1"
}
layer {
  name: "inception_3b/3x3_reduce"
  type: "Convolution"
  bottom: "inception_3a/output"
  top: "inception_3b/3x3_reduce"
  param {
    lr_mult: 1
    decay_mult: 1
  }
  param {
    lr_mult: 2
    decay_mult: 0
  }
  convolution_param {
    num_output: 128
    kernel_size: 1
    weight_filler {
      type: "xavier"
      std: 0.09
    }
    bias_filler {
      type: "constant"
      value: 0.2
    }
  }
}
layer {
  name: "inception_3b/relu_3x3_reduce"
  type: "ReLU"
  bottom: "inception_3b/3x3_reduce"
  top: "inception_3b/3x3_reduce"
}
layer {
  name: "inception_3b/3x3"
  type: "Convolution"
  bottom: "inception_3b/3x3_reduce"
  top: "inception_3b/3x3"
  param {
    lr_mult: 1
    decay_mult: 1
  }
  param {
    lr_mult: 2
    decay_mult: 0
  }
  convolution_param {
    num_output: 192
    pad: 1
    kernel_size: 3
    weight_filler {
      type: "xavier"
      std: 0.03
    }
    bias_filler {
      type: "constant"
      value: 0.2
    }
  }
}
layer {
  name: "inception_3b/relu_3x3"
  type: "ReLU"
  bottom: "inception_3b/3x3"
  top: "inception_3b/3x3"
}
layer {
  name: "inception_3b/5x5_reduce"
  type: "Convolution"
  bottom: "inception_3a/output"
  top: "inception_3b/5x5_reduce"
  param {
    lr_mult: 1
    decay_mult: 1
  }
  param {
    lr_mult: 2
    decay_mult: 0
  }
  convolution_param {
    num_output: 32
    kernel_size: 1
    weight_filler {
      type: "xavier"
      std: 0.2
    }
    bias_filler {
      type: "constant"
      value: 0.2
    }
  }
}
layer {
  name: "inception_3b/relu_5x5_reduce"
  type: "ReLU"
  bottom: "inception_3b/5x5_reduce"
  top: "inception_3b/5x5_reduce"
}
layer {
  name: "inception_3b/5x5"
  type: "Convolution"
  bottom: "inception_3b/5x5_reduce"
  top: "inception_3b/5x5"
  param {
    lr_mult: 1
    decay_mult: 1
  }
  param {
    lr_mult: 2
    decay_mult: 0
  }
  convolution_param {
    num_output: 96
    pad: 2
    kernel_size: 5
    weight_filler {
      type: "xavier"
      std: 0.03
    }
    bias_filler {
      type: "constant"
      value: 0.2
    }
  }
}
layer {
  name: "inception_3b/relu_5x5"
  type: "ReLU"
  bottom: "inception_3b/5x5"
  top: "inception_3b/5x5"
}
layer {
  name: "inception_3b/pool"
  type: "Pooling"
  bottom: "inception_3a/output"
  top: "inception_3b/pool"
  pooling_param {
    pool: MAX
    kernel_size: 3
    stride: 1
    pad: 1
  }
}
layer {
  name: "inception_3b/pool_proj"
  type: "Convolution"
  bottom: "inception_3b/pool"
  top: "inception_3b/pool_proj"
  param {
    lr_mult: 1
    decay_mult: 1
  }
  param {
    lr_mult: 2
    decay_mult: 0
  }
  convolution_param {
    num_output: 64
    kernel_size: 1
    weight_filler {
      type: "xavier"
      std: 0.1
    }
    bias_filler {
      type: "constant"
      value: 0.2
    }
  }
}
layer {
  name: "inception_3b/relu_pool_proj"
  type: "ReLU"
  bottom: "inception_3b/pool_proj"
  top: "inception_3b/pool_proj"
}
layer {
  name: "inception_3b/output"
  type: "Concat"
  bottom: "inception_3b/1x1"
  bottom: "inception_3b/3x3"
  bottom: "inception_3b/5x5"
  bottom: "inception_3b/pool_proj"
  top: "inception_3b/output"
}
layer {
  name: "pool3/3x3_s2"
  type: "Pooling"
  bottom: "inception_3b/output"
  top: "pool3/3x3_s2"
  pooling_param {
    pool: MAX
    kernel_size: 3
    stride: 2
  }
}
layer {
  name: "inception_4a/1x1"
  type: "Convolution"
  bottom: "pool3/3x3_s2"
  top: "inception_4a/1x1"
  param {
    lr_mult: 1
    decay_mult: 1
  }
  param {
    lr_mult: 2
    decay_mult: 0
  }
  convolution_param {
    num_output: 192
    kernel_size: 1
    weight_filler {
      type: "xavier"
      std: 0.03
    }
    bias_filler {
      type: "constant"
      value: 0.2
    }
  }
}
layer {
  name: "inception_4a/relu_1x1"
  type: "ReLU"
  bottom: "inception_4a/1x1"
  top: "inception_4a/1x1"
}
layer {
  name: "inception_4a/3x3_reduce"
  type: "Convolution"
  bottom: "pool3/3x3_s2"
  top: "inception_4a/3x3_reduce"
  param {
    lr_mult: 1
    decay_mult: 1
  }
  param {
    lr_mult: 2
    decay_mult: 0
  }
  convolution_param {
    num_output: 96
    kernel_size: 1
    weight_filler {
      type: "xavier"
      std: 0.09
    }
    bias_filler {
      type: "constant"
      value: 0.2
    }
  }
}
layer {
  name: "inception_4a/relu_3x3_reduce"
  type: "ReLU"
  bottom: "inception_4a/3x3_reduce"
  top: "inception_4a/3x3_reduce"
}
layer {
  name: "inception_4a/3x3"
  type: "Convolution"
  bottom: "inception_4a/3x3_reduce"
  top: "inception_4a/3x3"
  param {
    lr_mult: 1
    decay_mult: 1
  }
  param {
    lr_mult: 2
    decay_mult: 0
  }
  convolution_param {
    num_output: 208
    pad: 1
    kernel_size: 3
    weight_filler {
      type: "xavier"
      std: 0.03
    }
    bias_filler {
      type: "constant"
      value: 0.2
    }
  }
}
layer {
  name: "inception_4a/relu_3x3"
  type: "ReLU"
  bottom: "inception_4a/3x3"
  top: "inception_4a/3x3"
}
layer {
  name: "inception_4a/5x5_reduce"
  type: "Convolution"
  bottom: "pool3/3x3_s2"
  top: "inception_4a/5x5_reduce"
  param {
    lr_mult: 1
    decay_mult: 1
  }
  param {
    lr_mult: 2
    decay_mult: 0
  }
  convolution_param {
    num_output: 16
    kernel_size: 1
    weight_filler {
      type: "xavier"
      std: 0.2
    }
    bias_filler {
      type: "constant"
      value: 0.2
    }
  }
}
layer {
  name: "inception_4a/relu_5x5_reduce"
  type: "ReLU"
  bottom: "inception_4a/5x5_reduce"
  top: "inception_4a/5x5_reduce"
}
layer {
  name: "inception_4a/5x5"
  type: "Convolution"
  bottom: "inception_4a/5x5_reduce"
  top: "inception_4a/5x5"
  param {
    lr_mult: 1
    decay_mult: 1
  }
  param {
    lr_mult: 2
    decay_mult: 0
  }
  convolution_param {
    num_output: 48
    pad: 2
    kernel_size: 5
    weight_filler {
      type: "xavier"
      std: 0.03
    }
    bias_filler {
      type: "constant"
      value: 0.2
    }
  }
}
layer {
  name: "inception_4a/relu_5x5"
  type: "ReLU"
  bottom: "inception_4a/5x5"
  top: "inception_4a/5x5"
}
layer {
  name: "inception_4a/pool"
  type: "Pooling"
  bottom: "pool3/3x3_s2"
  top: "inception_4a/pool"
  pooling_param {
    pool: MAX
    kernel_size: 3
    stride: 1
    pad: 1
  }
}
layer {
  name: "inception_4a/pool_proj"
  type: "Convolution"
  bottom: "inception_4a/pool"
  top: "inception_4a/pool_proj"
  param {
    lr_mult: 1
    decay_mult: 1
  }
  param {
    lr_mult: 2
    decay_mult: 0
  }
  convolution_param {
    num_output: 64
    kernel_size: 1
    weight_filler {
      type: "xavier"
      std: 0.1
    }
    bias_filler {
      type: "constant"
      value: 0.2
    }
  }
}
layer {
  name: "inception_4a/relu_pool_proj"
  type: "ReLU"
  bottom: "inception_4a/pool_proj"
  top: "inception_4a/pool_proj"
}
layer {
  name: "inception_4a/output"
  type: "Concat"
  bottom: "inception_4a/1x1"
  bottom: "inception_4a/3x3"
  bottom: "inception_4a/5x5"
  bottom: "inception_4a/pool_proj"
  top: "inception_4a/output"
}
layer {
  name: "inception_4b/1x1"
  type: "Convolution"
  bottom: "inception_4a/output"
  top: "inception_4b/1x1"
  param {
    lr_mult: 1
    decay_mult: 1
  }
  param {
    lr_mult: 2
    decay_mult: 0
  }
  convolution_param {
    num_output: 160
    kernel_size: 1
    weight_filler {
      type: "xavier"
      std: 0.03
    }
    bias_filler {
      type: "constant"
      value: 0.2
    }
  }
}
layer {
  name: "inception_4b/relu_1x1"
  type: "ReLU"
  bottom: "inception_4b/1x1"
  top: "inception_4b/1x1"
}
layer {
  name: "inception_4b/3x3_reduce"
  type: "Convolution"
  bottom: "inception_4a/output"
  top: "inception_4b/3x3_reduce"
  param {
    lr_mult: 1
    decay_mult: 1
  }
  param {
    lr_mult: 2
    decay_mult: 0
  }
  convolution_param {
    num_output: 112
    kernel_size: 1
    weight_filler {
      type: "xavier"
      std: 0.09
    }
    bias_filler {
      type: "constant"
      value: 0.2
    }
  }
}
layer {
  name: "inception_4b/relu_3x3_reduce"
  type: "ReLU"
  bottom: "inception_4b/3x3_reduce"
  top: "inception_4b/3x3_reduce"
}
layer {
  name: "inception_4b/3x3"
  type: "Convolution"
  bottom: "inception_4b/3x3_reduce"
  top: "inception_4b/3x3"
  param {
    lr_mult: 1
    decay_mult: 1
  }
  param {
    lr_mult: 2
    decay_mult: 0
  }
  convolution_param {
    num_output: 224
    pad: 1
    kernel_size: 3
    weight_filler {
      type: "xavier"
      std: 0.03
    }
    bias_filler {
      type: "constant"
      value: 0.2
    }
  }
}
layer {
  name: "inception_4b/relu_3x3"
  type: "ReLU"
  bottom: "inception_4b/3x3"
  top: "inception_4b/3x3"
}
layer {
  name: "inception_4b/5x5_reduce"
  type: "Convolution"
  bottom: "inception_4a/output"
  top: "inception_4b/5x5_reduce"
  param {
    lr_mult: 1
    decay_mult: 1
  }
  param {
    lr_mult: 2
    decay_mult: 0
  }
  convolution_param {
    num_output: 24
    kernel_size: 1
    weight_filler {
      type: "xavier"
      std: 0.2
    }
    bias_filler {
      type: "constant"
      value: 0.2
    }
  }
}
layer {
  name: "inception_4b/relu_5x5_reduce"
  type: "ReLU"
  bottom: "inception_4b/5x5_reduce"
  top: "inception_4b/5x5_reduce"
}
layer {
  name: "inception_4b/5x5"
  type: "Convolution"
  bottom: "inception_4b/5x5_reduce"
  top: "inception_4b/5x5"
  param {
    lr_mult: 1
    decay_mult: 1
  }
  param {
    lr_mult: 2
    decay_mult: 0
  }
  convolution_param {
    num_output: 64
    pad: 2
    kernel_size: 5
    weight_filler {
      type: "xavier"
      std: 0.03
    }
    bias_filler {
      type: "constant"
      value: 0.2
    }
  }
}
layer {
  name: "inception_4b/relu_5x5"
  type: "ReLU"
  bottom: "inception_4b/5x5"
  top: "inception_4b/5x5"
}
layer {
  name: "inception_4b/pool"
  type: "Pooling"
  bottom: "inception_4a/output"
  top: "inception_4b/pool"
  pooling_param {
    pool: MAX
    kernel_size: 3
    stride: 1
    pad: 1
  }
}
layer {
  name: "inception_4b/pool_proj"
  type: "Convolution"
  bottom: "inception_4b/pool"
  top: "inception_4b/pool_proj"
  param {
    lr_mult: 1
    decay_mult: 1
  }
  param {
    lr_mult: 2
    decay_mult: 0
  }
  convolution_param {
    num_output: 64
    kernel_size: 1
    weight_filler {
      type: "xavier"
      std: 0.1
    }
    bias_filler {
      type: "constant"
      value: 0.2
    }
  }
}
layer {
  name: "inception_4b/relu_pool_proj"
  type: "ReLU"
  bottom: "inception_4b/pool_proj"
  top: "inception_4b/pool_proj"
}
layer {
  name: "inception_4b/output"
  type: "Concat"
  bottom: "inception_4b/1x1"
  bottom: "inception_4b/3x3"
  bottom: "inception_4b/5x5"
  bottom: "inception_4b/pool_proj"
  top: "inception_4b/output"
}
layer {
  name: "inception_4c/1x1"
  type: "Convolution"
  bottom: "inception_4b/output"
  top: "inception_4c/1x1"
  param {
    lr_mult: 1
    decay_mult: 1
  }
  param {
    lr_mult: 2
    decay_mult: 0
  }
  convolution_param {
    num_output: 128
    kernel_size: 1
    weight_filler {
      type: "xavier"
      std: 0.03
    }
    bias_filler {
      type: "constant"
      value: 0.2
    }
  }
}
layer {
  name: "inception_4c/relu_1x1"
  type: "ReLU"
  bottom: "inception_4c/1x1"
  top: "inception_4c/1x1"
}
layer {
  name: "inception_4c/3x3_reduce"
  type: "Convolution"
  bottom: "inception_4b/output"
  top: "inception_4c/3x3_reduce"
  param {
    lr_mult: 1
    decay_mult: 1
  }
  param {
    lr_mult: 2
    decay_mult: 0
  }
  convolution_param {
    num_output: 128
    kernel_size: 1
    weight_filler {
      type: "xavier"
      std: 0.09
    }
    bias_filler {
      type: "constant"
      value: 0.2
    }
  }
}
layer {
  name: "inception_4c/relu_3x3_reduce"
  type: "ReLU"
  bottom: "inception_4c/3x3_reduce"
  top: "inception_4c/3x3_reduce"
}
layer {
  name: "inception_4c/3x3"
  type: "Convolution"
  bottom: "inception_4c/3x3_reduce"
  top: "inception_4c/3x3"
  param {
    lr_mult: 1
    decay_mult: 1
  }
  param {
    lr_mult: 2
    decay_mult: 0
  }
  convolution_param {
    num_output: 256
    pad: 1
    kernel_size: 3
    weight_filler {
      type: "xavier"
      std: 0.03
    }
    bias_filler {
      type: "constant"
      value: 0.2
    }
  }
}
layer {
  name: "inception_4c/relu_3x3"
  type: "ReLU"
  bottom: "inception_4c/3x3"
  top: "inception_4c/3x3"
}
layer {
  name: "inception_4c/5x5_reduce"
  type: "Convolution"
  bottom: "inception_4b/output"
  top: "inception_4c/5x5_reduce"
  param {
    lr_mult: 1
    decay_mult: 1
  }
  param {
    lr_mult: 2
    decay_mult: 0
  }
  convolution_param {
    num_output: 24
    kernel_size: 1
    weight_filler {
      type: "xavier"
      std: 0.2
    }
    bias_filler {
      type: "constant"
      value: 0.2
    }
  }
}
layer {
  name: "inception_4c/relu_5x5_reduce"
  type: "ReLU"
  bottom: "inception_4c/5x5_reduce"
  top: "inception_4c/5x5_reduce"
}
layer {
  name: "inception_4c/5x5"
  type: "Convolution"
  bottom: "inception_4c/5x5_reduce"
  top: "inception_4c/5x5"
  param {
    lr_mult: 1
    decay_mult: 1
  }
  param {
    lr_mult: 2
    decay_mult: 0
  }
  convolution_param {
    num_output: 64
    pad: 2
    kernel_size: 5
    weight_filler {
      type: "xavier"
      std: 0.03
    }
    bias_filler {
      type: "constant"
      value: 0.2
    }
  }
}
layer {
  name: "inception_4c/relu_5x5"
  type: "ReLU"
  bottom: "inception_4c/5x5"
  top: "inception_4c/5x5"
}
layer {
  name: "inception_4c/pool"
  type: "Pooling"
  bottom: "inception_4b/output"
  top: "inception_4c/pool"
  pooling_param {
    pool: MAX
    kernel_size: 3
    stride: 1
    pad: 1
  }
}
layer {
  name: "inception_4c/pool_proj"
  type: "Convolution"
  bottom: "inception_4c/pool"
  top: "inception_4c/pool_proj"
  param {
    lr_mult: 1
    decay_mult: 1
  }
  param {
    lr_mult: 2
    decay_mult: 0
  }
  convolution_param {
    num_output: 64
    kernel_size: 1
    weight_filler {
      type: "xavier"
      std: 0.1
    }
    bias_filler {
      type: "constant"
      value: 0.2
    }
  }
}
layer {
  name: "inception_4c/relu_pool_proj"
  type: "ReLU"
  bottom: "inception_4c/pool_proj"
  top: "inception_4c/pool_proj"
}
layer {
  name: "inception_4c/output"
  type: "Concat"
  bottom: "inception_4c/1x1"
  bottom: "inception_4c/3x3"
  bottom: "inception_4c/5x5"
  bottom: "inception_4c/pool_proj"
  top: "inception_4c/output"
}
layer {
  name: "inception_4d/1x1"
  type: "Convolution"
  bottom: "inception_4c/output"
  top: "inception_4d/1x1"
  param {
    lr_mult: 1
    decay_mult: 1
  }
  param {
    lr_mult: 2
    decay_mult: 0
  }
  convolution_param {
    num_output: 112
    kernel_size: 1
    weight_filler {
      type: "xavier"
      std: 0.03
    }
    bias_filler {
      type: "constant"
      value: 0.2
    }
  }
}
layer {
  name: "inception_4d/relu_1x1"
  type: "ReLU"
  bottom: "inception_4d/1x1"
  top: "inception_4d/1x1"
}
layer {
  name: "inception_4d/3x3_reduce"
  type: "Convolution"
  bottom: "inception_4c/output"
  top: "inception_4d/3x3_reduce"
  param {
    lr_mult: 1
    decay_mult: 1
  }
  param {
    lr_mult: 2
    decay_mult: 0
  }
  convolution_param {
    num_output: 144
    kernel_size: 1
    weight_filler {
      type: "xavier"
      std: 0.09
    }
    bias_filler {
      type: "constant"
      value: 0.2
    }
  }
}
layer {
  name: "inception_4d/relu_3x3_reduce"
  type: "ReLU"
  bottom: "inception_4d/3x3_reduce"
  top: "inception_4d/3x3_reduce"
}
layer {
  name: "inception_4d/3x3"
  type: "Convolution"
  bottom: "inception_4d/3x3_reduce"
  top: "inception_4d/3x3"
  param {
    lr_mult: 1
    decay_mult: 1
  }
  param {
    lr_mult: 2
    decay_mult: 0
  }
  convolution_param {
    num_output: 288
    pad: 1
    kernel_size: 3
    weight_filler {
      type: "xavier"
      std: 0.03
    }
    bias_filler {
      type: "constant"
      value: 0.2
    }
  }
}
layer {
  name: "inception_4d/relu_3x3"
  type: "ReLU"
  bottom: "inception_4d/3x3"
  top: "inception_4d/3x3"
}
layer {
  name: "inception_4d/5x5_reduce"
  type: "Convolution"
  bottom: "inception_4c/output"
  top: "inception_4d/5x5_reduce"
  param {
    lr_mult: 1
    decay_mult: 1
  }
  param {
    lr_mult: 2
    decay_mult: 0
  }
  convolution_param {
    num_output: 32
    kernel_size: 1
    weight_filler {
      type: "xavier"
      std: 0.2
    }
    bias_filler {
      type: "constant"
      value: 0.2
    }
  }
}
layer {
  name: "inception_4d/relu_5x5_reduce"
  type: "ReLU"
  bottom: "inception_4d/5x5_reduce"
  top: "inception_4d/5x5_reduce"
}
layer {
  name: "inception_4d/5x5"
  type: "Convolution"
  bottom: "inception_4d/5x5_reduce"
  top: "inception_4d/5x5"
  param {
    lr_mult: 1
    decay_mult: 1
  }
  param {
    lr_mult: 2
    decay_mult: 0
  }
  convolution_param {
    num_output: 64
    pad: 2
    kernel_size: 5
    weight_filler {
      type: "xavier"
      std: 0.03
    }
    bias_filler {
      type: "constant"
      value: 0.2
    }
  }
}
layer {
  name: "inception_4d/relu_5x5"
  type: "ReLU"
  bottom: "inception_4d/5x5"
  top: "inception_4d/5x5"
}
layer {
  name: "inception_4d/pool"
  type: "Pooling"
  bottom: "inception_4c/output"
  top: "inception_4d/pool"
  pooling_param {
    pool: MAX
    kernel_size: 3
    stride: 1
    pad: 1
  }
}
layer {
  name: "inception_4d/pool_proj"
  type: "Convolution"
  bottom: "inception_4d/pool"
  top: "inception_4d/pool_proj"
  param {
    lr_mult: 1
    decay_mult: 1
  }
  param {
    lr_mult: 2
    decay_mult: 0
  }
  convolution_param {
    num_output: 64
    kernel_size: 1
    weight_filler {
      type: "xavier"
      std: 0.1
    }
    bias_filler {
      type: "constant"
      value: 0.2
    }
  }
}
layer {
  name: "inception_4d/relu_pool_proj"
  type: "ReLU"
  bottom: "inception_4d/pool_proj"
  top: "inception_4d/pool_proj"
}
layer {
  name: "inception_4d/output"
  type: "Concat"
  bottom: "inception_4d/1x1"
  bottom: "inception_4d/3x3"
  bottom: "inception_4d/5x5"
  bottom: "inception_4d/pool_proj"
  top: "inception_4d/output"
}
layer {
  name: "inception_4e/1x1"
  type: "Convolution"
  bottom: "inception_4d/output"
  top: "inception_4e/1x1"
  param {
    lr_mult: 1
    decay_mult: 1
  }
  param {
    lr_mult: 2
    decay_mult: 0
  }
  convolution_param {
    num_output: 256
    kernel_size: 1
    weight_filler {
      type: "xavier"
      std: 0.03
    }
    bias_filler {
      type: "constant"
      value: 0.2
    }
  }
}
layer {
  name: "inception_4e/relu_1x1"
  type: "ReLU"
  bottom: "inception_4e/1x1"
  top: "inception_4e/1x1"
}
layer {
  name: "inception_4e/3x3_reduce"
  type: "Convolution"
  bottom: "inception_4d/output"
  top: "inception_4e/3x3_reduce"
  param {
    lr_mult: 1
    decay_mult: 1
  }
  param {
    lr_mult: 2
    decay_mult: 0
  }
  convolution_param {
    num_output: 160
    kernel_size: 1
    weight_filler {
      type: "xavier"
      std: 0.09
    }
    bias_filler {
      type: "constant"
      value: 0.2
    }
  }
}
layer {
  name: "inception_4e/relu_3x3_reduce"
  type: "ReLU"
  bottom: "inception_4e/3x3_reduce"
  top: "inception_4e/3x3_reduce"
}
layer {
  name: "inception_4e/3x3"
  type: "Convolution"
  bottom: "inception_4e/3x3_reduce"
  top: "inception_4e/3x3"
  param {
    lr_mult: 1
    decay_mult: 1
  }
  param {
    lr_mult: 2
    decay_mult: 0
  }
  convolution_param {
    num_output: 320
    pad: 1
    kernel_size: 3
    weight_filler {
      type: "xavier"
      std: 0.03
    }
    bias_filler {
      type: "constant"
      value: 0.2
    }
  }
}
layer {
  name: "inception_4e/relu_3x3"
  type: "ReLU"
  bottom: "inception_4e/3x3"
  top: "inception_4e/3x3"
}
layer {
  name: "inception_4e/5x5_reduce"
  type: "Convolution"
  bottom: "inception_4d/output"
  top: "inception_4e/5x5_reduce"
  param {
    lr_mult: 1
    decay_mult: 1
  }
  param {
    lr_mult: 2
    decay_mult: 0
  }
  convolution_param {
    num_output: 32
    kernel_size: 1
    weight_filler {
      type: "xavier"
      std: 0.2
    }
    bias_filler {
      type: "constant"
      value: 0.2
    }
  }
}
layer {
  name: "inception_4e/relu_5x5_reduce"
  type: "ReLU"
  bottom: "inception_4e/5x5_reduce"
  top: "inception_4e/5x5_reduce"
}
layer {
  name: "inception_4e/5x5"
  type: "Convolution"
  bottom: "inception_4e/5x5_reduce"
  top: "inception_4e/5x5"
  param {
    lr_mult: 1
    decay_mult: 1
  }
  param {
    lr_mult: 2
    decay_mult: 0
  }
  convolution_param {
    num_output: 128
    pad: 2
    kernel_size: 5
    weight_filler {
      type: "xavier"
      std: 0.03
    }
    bias_filler {
      type: "constant"
      value: 0.2
    }
  }
}
layer {
  name: "inception_4e/relu_5x5"
  type: "ReLU"
  bottom: "inception_4e/5x5"
  top: "inception_4e/5x5"
}
layer {
  name: "inception_4e/pool"
  type: "Pooling"
  bottom: "inception_4d/output"
  top: "inception_4e/pool"
  pooling_param {
    pool: MAX
    kernel_size: 3
    stride: 1
    pad: 1
  }
}
layer {
  name: "inception_4e/pool_proj"
  type: "Convolution"
  bottom: "inception_4e/pool"
  top: "inception_4e/pool_proj"
  param {
    lr_mult: 1
    decay_mult: 1
  }
  param {
    lr_mult: 2
    decay_mult: 0
  }
  convolution_param {
    num_output: 128
    kernel_size: 1
    weight_filler {
      type: "xavier"
      std: 0.1
    }
    bias_filler {
      type: "constant"
      value: 0.2
    }
  }
}
layer {
  name: "inception_4e/relu_pool_proj"
  type: "ReLU"
  bottom: "inception_4e/pool_proj"
  top: "inception_4e/pool_proj"
}
layer {
  name: "inception_4e/output"
  type: "Concat"
  bottom: "inception_4e/1x1"
  bottom: "inception_4e/3x3"
  bottom: "inception_4e/5x5"
  bottom: "inception_4e/pool_proj"
  top: "inception_4e/output"
}
layer {
  name: "pool4/3x3_s2"
  type: "Pooling"
  bottom: "inception_4e/output"
  top: "pool4/3x3_s2"
  pooling_param {
    pool: MAX
    kernel_size: 3
    stride: 2
  }
}
layer {
  name: "inception_5a/1x1"
  type: "Convolution"
  bottom: "pool4/3x3_s2"
  top: "inception_5a/1x1"
  param {
    lr_mult: 1
    decay_mult: 1
  }
  param {
    lr_mult: 2
    decay_mult: 0
  }
  convolution_param {
    num_output: 256
    kernel_size: 1
    weight_filler {
      type: "xavier"
      std: 0.03
    }
    bias_filler {
      type: "constant"
      value: 0.2
    }
  }
}
layer {
  name: "inception_5a/relu_1x1"
  type: "ReLU"
  bottom: "inception_5a/1x1"
  top: "inception_5a/1x1"
}
layer {
  name: "inception_5a/3x3_reduce"
  type: "Convolution"
  bottom: "pool4/3x3_s2"
  top: "inception_5a/3x3_reduce"
  param {
    lr_mult: 1
    decay_mult: 1
  }
  param {
    lr_mult: 2
    decay_mult: 0
  }
  convolution_param {
    num_output: 160
    kernel_size: 1
    weight_filler {
      type: "xavier"
      std: 0.09
    }
    bias_filler {
      type: "constant"
      value: 0.2
    }
  }
}
layer {
  name: "inception_5a/relu_3x3_reduce"
  type: "ReLU"
  bottom: "inception_5a/3x3_reduce"
  top: "inception_5a/3x3_reduce"
}
layer {
  name: "inception_5a/3x3"
  type: "Convolution"
  bottom: "inception_5a/3x3_reduce"
  top: "inception_5a/3x3"
  param {
    lr_mult: 1
    decay_mult: 1
  }
  param {
    lr_mult: 2
    decay_mult: 0
  }
  convolution_param {
    num_output: 320
    pad: 1
    kernel_size: 3
    weight_filler {
      type: "xavier"
      std: 0.03
    }
    bias_filler {
      type: "constant"
      value: 0.2
    }
  }
}
layer {
  name: "inception_5a/relu_3x3"
  type: "ReLU"
  bottom: "inception_5a/3x3"
  top: "inception_5a/3x3"
}
layer {
  name: "inception_5a/5x5_reduce"
  type: "Convolution"
  bottom: "pool4/3x3_s2"
  top: "inception_5a/5x5_reduce"
  param {
    lr_mult: 1
    decay_mult: 1
  }
  param {
    lr_mult: 2
    decay_mult: 0
  }
  convolution_param {
    num_output: 32
    kernel_size: 1
    weight_filler {
      type: "xavier"
      std: 0.2
    }
    bias_filler {
      type: "constant"
      value: 0.2
    }
I0714 21:53:12.514526 13329 layer_factory.hpp:77] Creating layer data
I0714 21:53:12.514555 13329 net.cpp:91] Creating Layer data
I0714 21:53:12.514567 13329 net.cpp:399] data -> data
I0714 21:53:12.521374 13325 net.cpp:49] Initializing net from parameters: 
name: "GoogleNet"
state {
  phase: TEST
}
layer {
  name: "data"
  type: "Input"
  top: "data"
  input_param {
    shape {
      dim: 10
      dim: 3
      dim: 224
      dim: 224
    }
  }
}
layer {
  name: "conv1/7x7_s2"
  type: "Convolution"
  bottom: "data"
  top: "conv1/7x7_s2"
  param {
    lr_mult: 1
    decay_mult: 1
  }
  param {
    lr_mult: 2
    decay_mult: 0
  }
  convolution_param {
    num_output: 64
    pad: 3
    kernel_size: 7
    stride: 2
    weight_filler {
      type: "xavier"
      std: 0.1
    }
    bias_filler {
      type: "constant"
      value: 0.2
    }
  }
}
layer {
  name: "conv1/relu_7x7"
  type: "ReLU"
  bottom: "conv1/7x7_s2"
  top: "conv1/7x7_s2"
}
layer {
  name: "pool1/3x3_s2"
  type: "Pooling"
  bottom: "conv1/7x7_s2"
  top: "pool1/3x3_s2"
  pooling_param {
    pool: MAX
    kernel_size: 3
    stride: 2
  }
}
layer {
  name: "pool1/norm1"
  type: "LRN"
  bottom: "pool1/3x3_s2"
  top: "pool1/norm1"
  lrn_param {
    local_size: 5
    alpha: 0.0001
    beta: 0.75
  }
}
layer {
  name: "conv2/3x3_reduce"
  type: "Convolution"
  bottom: "pool1/norm1"
  top: "conv2/3x3_reduce"
  param {
    lr_mult: 1
    decay_mult: 1
  }
  param {
    lr_mult: 2
    decay_mult: 0
  }
  convolution_param {
    num_output: 64
    kernel_size: 1
    weight_filler {
      type: "xavier"
      std: 0.1
    }
    bias_filler {
      type: "constant"
      value: 0.2
    }
  }
}
layer {
  name: "conv2/relu_3x3_reduce"
  type: "ReLU"
  bottom: "conv2/3x3_reduce"
  top: "conv2/3x3_reduce"
}
layer {
  name: "conv2/3x3"
  type: "Convolution"
  bottom: "conv2/3x3_reduce"
  top: "conv2/3x3"
  param {
    lr_mult: 1
    decay_mult: 1
  }
  param {
    lr_mult: 2
    decay_mult: 0
  }
  convolution_param {
    num_output: 192
    pad: 1
    kernel_size: 3
    weight_filler {
      type: "xavier"
      std: 0.03
    }
    bias_filler {
      type: "constant"
      value: 0.2
    }
  }
}
layer {
  name: "conv2/relu_3x3"
  type: "ReLU"
  bottom: "conv2/3x3"
  top: "conv2/3x3"
}
layer {
  name: "conv2/norm2"
  type: "LRN"
  bottom: "conv2/3x3"
  top: "conv2/norm2"
  lrn_param {
    local_size: 5
    alpha: 0.0001
    beta: 0.75
  }
}
layer {
  name: "pool2/3x3_s2"
  type: "Pooling"
  bottom: "conv2/norm2"
  top: "pool2/3x3_s2"
  pooling_param {
    pool: MAX
    kernel_size: 3
    stride: 2
  }
}
layer {
  name: "inception_3a/1x1"
  type: "Convolution"
  bottom: "pool2/3x3_s2"
  top: "inception_3a/1x1"
  param {
    lr_mult: 1
    decay_mult: 1
  }
  param {
    lr_mult: 2
    decay_mult: 0
  }
  convolution_param {
    num_output: 64
    kernel_size: 1
    weight_filler {
      type: "xavier"
      std: 0.03
    }
    bias_filler {
      type: "constant"
      value: 0.2
    }
  }
}
layer {
  name: "inception_3a/relu_1x1"
  type: "ReLU"
  bottom: "inception_3a/1x1"
  top: "inception_3a/1x1"
}
layer {
  name: "inception_3a/3x3_reduce"
  type: "Convolution"
  bottom: "pool2/3x3_s2"
  top: "inception_3a/3x3_reduce"
  param {
    lr_mult: 1
    decay_mult: 1
  }
  param {
    lr_mult: 2
    decay_mult: 0
  }
  convolution_param {
    num_output: 96
    kernel_size: 1
    weight_filler {
      type: "xavier"
      std: 0.09
    }
    bias_filler {
      type: "constant"
      value: 0.2
    }
  }
}
layer {
  name: "inception_3a/relu_3x3_reduce"
  type: "ReLU"
  bottom: "inception_3a/3x3_reduce"
  top: "inception_3a/3x3_reduce"
}
layer {
  name: "inception_3a/3x3"
  type: "Convolution"
  bottom: "inception_3a/3x3_reduce"
  top: "inception_3a/3x3"
  param {
    lr_mult: 1
    decay_mult: 1
  }
  param {
    lr_mult: 2
    decay_mult: 0
  }
  convolution_param {
    num_output: 128
    pad: 1
    kernel_size: 3
    weight_filler {
      type: "xavier"
      std: 0.03
    }
    bias_filler {
      type: "constant"
      value: 0.2
    }
  }
}
layer {
  name: "inception_3a/relu_3x3"
  type: "ReLU"
  bottom: "inception_3a/3x3"
  top: "inception_3a/3x3"
}
layer {
  name: "inception_3a/5x5_reduce"
  type: "Convolution"
  bottom: "pool2/3x3_s2"
  top: "inception_3a/5x5_reduce"
  param {
    lr_mult: 1
    decay_mult: 1
  }
  param {
    lr_mult: 2
    decay_mult: 0
  }
  convolution_param {
    num_output: 16
    kernel_size: 1
    weight_filler {
      type: "xavier"
      std: 0.2
    }
    bias_filler {
      type: "constant"
      value: 0.2
    }
  }
}
layer {
  name: "inception_3a/relu_5x5_reduce"
  type: "ReLU"
  bottom: "inception_3a/5x5_reduce"
  top: "inception_3a/5x5_reduce"
}
layer {
  name: "inception_3a/5x5"
  type: "Convolution"
  bottom: "inception_3a/5x5_reduce"
  top: "inception_3a/5x5"
  param {
    lr_mult: 1
    decay_mult: 1
  }
  param {
    lr_mult: 2
    decay_mult: 0
  }
  convolution_param {
    num_output: 32
    pad: 2
    kernel_size: 5
    weight_filler {
      type: "xavier"
      std: 0.03
    }
    bias_filler {
      type: "constant"
      value: 0.2
    }
  }
}
layer {
  name: "inception_3a/relu_5x5"
  type: "ReLU"
  bottom: "inception_3a/5x5"
  top: "inception_3a/5x5"
}
layer {
  name: "inception_3a/pool"
  type: "Pooling"
  bottom: "pool2/3x3_s2"
  top: "inception_3a/pool"
  pooling_param {
    pool: MAX
    kernel_size: 3
    stride: 1
    pad: 1
  }
}
layer {
  name: "inception_3a/pool_proj"
  type: "Convolution"
  bottom: "inception_3a/pool"
  top: "inception_3a/pool_proj"
  param {
    lr_mult: 1
    decay_mult: 1
  }
  param {
    lr_mult: 2
    decay_mult: 0
  }
  convolution_param {
    num_output: 32
    kernel_size: 1
    weight_filler {
      type: "xavier"
      std: 0.1
    }
    bias_filler {
      type: "constant"
      value: 0.2
    }
  }
}
layer {
  name: "inception_3a/relu_pool_proj"
  type: "ReLU"
  bottom: "inception_3a/pool_proj"
  top: "inception_3a/pool_proj"
}
layer {
  name: "inception_3a/output"
  type: "Concat"
  bottom: "inception_3a/1x1"
  bottom: "inception_3a/3x3"
  bottom: "inception_3a/5x5"
  bottom: "inception_3a/pool_proj"
  top: "inception_3a/output"
}
layer {
  name: "inception_3b/1x1"
  type: "Convolution"
  bottom: "inception_3a/output"
  top: "inception_3b/1x1"
  param {
    lr_mult: 1
    decay_mult: 1
  }
  param {
    lr_mult: 2
    decay_mult: 0
  }
  convolution_param {
    num_output: 128
    kernel_size: 1
    weight_filler {
      type: "xavier"
      std: 0.03
    }
    bias_filler {
      type: "constant"
      value: 0.2
    }
  }
}
layer {
  name: "inception_3b/relu_1x1"
  type: "ReLU"
  bottom: "inception_3b/1x1"
  top: "inception_3b/1x1"
}
layer {
  name: "inception_3b/3x3_reduce"
  type: "Convolution"
  bottom: "inception_3a/output"
  top: "inception_3b/3x3_reduce"
  param {
    lr_mult: 1
    decay_mult: 1
  }
  param {
    lr_mult: 2
    decay_mult: 0
  }
  convolution_param {
    num_output: 128
    kernel_size: 1
    weight_filler {
      type: "xavier"
      std: 0.09
    }
    bias_filler {
      type: "constant"
      value: 0.2
    }
  }
}
layer {
  name: "inception_3b/relu_3x3_reduce"
  type: "ReLU"
  bottom: "inception_3b/3x3_reduce"
  top: "inception_3b/3x3_reduce"
}
layer {
  name: "inception_3b/3x3"
  type: "Convolution"
  bottom: "inception_3b/3x3_reduce"
  top: "inception_3b/3x3"
  param {
    lr_mult: 1
    decay_mult: 1
  }
  param {
    lr_mult: 2
    decay_mult: 0
  }
  convolution_param {
    num_output: 192
    pad: 1
    kernel_size: 3
    weight_filler {
      type: "xavier"
      std: 0.03
    }
    bias_filler {
      type: "constant"
      value: 0.2
    }
  }
}
layer {
  name: "inception_3b/relu_3x3"
  type: "ReLU"
  bottom: "inception_3b/3x3"
  top: "inception_3b/3x3"
}
layer {
  name: "inception_3b/5x5_reduce"
  type: "Convolution"
  bottom: "inception_3a/output"
  top: "inception_3b/5x5_reduce"
  param {
    lr_mult: 1
    decay_mult: 1
  }
  param {
    lr_mult: 2
    decay_mult: 0
  }
  convolution_param {
    num_output: 32
    kernel_size: 1
    weight_filler {
      type: "xavier"
      std: 0.2
    }
    bias_filler {
      type: "constant"
      value: 0.2
    }
  }
}
layer {
  name: "inception_3b/relu_5x5_reduce"
  type: "ReLU"
  bottom: "inception_3b/5x5_reduce"
  top: "inception_3b/5x5_reduce"
}
layer {
  name: "inception_3b/5x5"
  type: "Convolution"
  bottom: "inception_3b/5x5_reduce"
  top: "inception_3b/5x5"
  param {
    lr_mult: 1
    decay_mult: 1
  }
  param {
    lr_mult: 2
    decay_mult: 0
  }
  convolution_param {
    num_output: 96
    pad: 2
    kernel_size: 5
    weight_filler {
      type: "xavier"
      std: 0.03
    }
    bias_filler {
      type: "constant"
      value: 0.2
    }
  }
}
layer {
  name: "inception_3b/relu_5x5"
  type: "ReLU"
  bottom: "inception_3b/5x5"
  top: "inception_3b/5x5"
}
layer {
  name: "inception_3b/pool"
  type: "Pooling"
  bottom: "inception_3a/output"
  top: "inception_3b/pool"
  pooling_param {
    pool: MAX
    kernel_size: 3
    stride: 1
    pad: 1
  }
}
layer {
  name: "inception_3b/pool_proj"
  type: "Convolution"
  bottom: "inception_3b/pool"
  top: "inception_3b/pool_proj"
  param {
    lr_mult: 1
    decay_mult: 1
  }
  param {
    lr_mult: 2
    decay_mult: 0
  }
  convolution_param {
    num_output: 64
    kernel_size: 1
    weight_filler {
      type: "xavier"
      std: 0.1
    }
    bias_filler {
      type: "constant"
      value: 0.2
    }
  }
}
layer {
  name: "inception_3b/relu_pool_proj"
  type: "ReLU"
  bottom: "inception_3b/pool_proj"
  top: "inception_3b/pool_proj"
}
layer {
  name: "inception_3b/output"
  type: "Concat"
  bottom: "inception_3b/1x1"
  bottom: "inception_3b/3x3"
  bottom: "inception_3b/5x5"
  bottom: "inception_3b/pool_proj"
  top: "inception_3b/output"
}
layer {
  name: "pool3/3x3_s2"
  type: "Pooling"
  bottom: "inception_3b/output"
  top: "pool3/3x3_s2"
  pooling_param {
    pool: MAX
    kernel_size: 3
    stride: 2
  }
}
layer {
  name: "inception_4a/1x1"
  type: "Convolution"
  bottom: "pool3/3x3_s2"
  top: "inception_4a/1x1"
  param {
    lr_mult: 1
    decay_mult: 1
  }
  param {
    lr_mult: 2
    decay_mult: 0
  }
  convolution_param {
    num_output: 192
    kernel_size: 1
    weight_filler {
      type: "xavier"
      std: 0.03
    }
    bias_filler {
      type: "constant"
      value: 0.2
    }
  }
}
layer {
  name: "inception_4a/relu_1x1"
  type: "ReLU"
  bottom: "inception_4a/1x1"
  top: "inception_4a/1x1"
}
layer {
  name: "inception_4a/3x3_reduce"
  type: "Convolution"
  bottom: "pool3/3x3_s2"
  top: "inception_4a/3x3_reduce"
  param {
    lr_mult: 1
    decay_mult: 1
  }
  param {
    lr_mult: 2
    decay_mult: 0
  }
  convolution_param {
    num_output: 96
    kernel_size: 1
    weight_filler {
      type: "xavier"
      std: 0.09
    }
    bias_filler {
      type: "constant"
      value: 0.2
    }
  }
}
layer {
  name: "inception_4a/relu_3x3_reduce"
  type: "ReLU"
  bottom: "inception_4a/3x3_reduce"
  top: "inception_4a/3x3_reduce"
}
layer {
  name: "inception_4a/3x3"
  type: "Convolution"
  bottom: "inception_4a/3x3_reduce"
  top: "inception_4a/3x3"
  param {
    lr_mult: 1
    decay_mult: 1
  }
  param {
    lr_mult: 2
    decay_mult: 0
  }
  convolution_param {
    num_output: 208
    pad: 1
    kernel_size: 3
    weight_filler {
      type: "xavier"
      std: 0.03
    }
    bias_filler {
      type: "constant"
      value: 0.2
    }
  }
}
layer {
  name: "inception_4a/relu_3x3"
  type: "ReLU"
  bottom: "inception_4a/3x3"
  top: "inception_4a/3x3"
}
layer {
  name: "inception_4a/5x5_reduce"
  type: "Convolution"
  bottom: "pool3/3x3_s2"
  top: "inception_4a/5x5_reduce"
  param {
    lr_mult: 1
    decay_mult: 1
  }
  param {
    lr_mult: 2
    decay_mult: 0
  }
  convolution_param {
    num_output: 16
    kernel_size: 1
    weight_filler {
      type: "xavier"
      std: 0.2
    }
    bias_filler {
      type: "constant"
      value: 0.2
    }
  }
}
layer {
  name: "inception_4a/relu_5x5_reduce"
  type: "ReLU"
  bottom: "inception_4a/5x5_reduce"
  top: "inception_4a/5x5_reduce"
}
layer {
  name: "inception_4a/5x5"
  type: "Convolution"
  bottom: "inception_4a/5x5_reduce"
  top: "inception_4a/5x5"
  param {
    lr_mult: 1
    decay_mult: 1
  }
  param {
    lr_mult: 2
    decay_mult: 0
  }
  convolution_param {
    num_output: 48
    pad: 2
    kernel_size: 5
    weight_filler {
      type: "xavier"
      std: 0.03
    }
    bias_filler {
      type: "constant"
      value: 0.2
    }
  }
}
layer {
  name: "inception_4a/relu_5x5"
  type: "ReLU"
  bottom: "inception_4a/5x5"
  top: "inception_4a/5x5"
}
layer {
  name: "inception_4a/pool"
  type: "Pooling"
  bottom: "pool3/3x3_s2"
  top: "inception_4a/pool"
  pooling_param {
    pool: MAX
    kernel_size: 3
    stride: 1
    pad: 1
  }
}
layer {
  name: "inception_4a/pool_proj"
  type: "Convolution"
  bottom: "inception_4a/pool"
  top: "inception_4a/pool_proj"
  param {
    lr_mult: 1
    decay_mult: 1
  }
  param {
    lr_mult: 2
    decay_mult: 0
  }
  convolution_param {
    num_output: 64
    kernel_size: 1
    weight_filler {
      type: "xavier"
      std: 0.1
    }
    bias_filler {
      type: "constant"
      value: 0.2
    }
  }
}
layer {
  name: "inception_4a/relu_pool_proj"
  type: "ReLU"
  bottom: "inception_4a/pool_proj"
  top: "inception_4a/pool_proj"
}
layer {
  name: "inception_4a/output"
  type: "Concat"
  bottom: "inception_4a/1x1"
  bottom: "inception_4a/3x3"
  bottom: "inception_4a/5x5"
  bottom: "inception_4a/pool_proj"
  top: "inception_4a/output"
}
layer {
  name: "inception_4b/1x1"
  type: "Convolution"
  bottom: "inception_4a/output"
  top: "inception_4b/1x1"
  param {
    lr_mult: 1
    decay_mult: 1
  }
  param {
    lr_mult: 2
    decay_mult: 0
  }
  convolution_param {
    num_output: 160
    kernel_size: 1
    weight_filler {
      type: "xavier"
      std: 0.03
    }
    bias_filler {
      type: "constant"
      value: 0.2
    }
  }
}
layer {
  name: "inception_4b/relu_1x1"
  type: "ReLU"
  bottom: "inception_4b/1x1"
  top: "inception_4b/1x1"
}
layer {
  name: "inception_4b/3x3_reduce"
  type: "Convolution"
  bottom: "inception_4a/output"
  top: "inception_4b/3x3_reduce"
  param {
    lr_mult: 1
    decay_mult: 1
  }
  param {
    lr_mult: 2
    decay_mult: 0
  }
  convolution_param {
    num_output: 112
    kernel_size: 1
    weight_filler {
      type: "xavier"
      std: 0.09
    }
    bias_filler {
      type: "constant"
      value: 0.2
    }
  }
}
layer {
  name: "inception_4b/relu_3x3_reduce"
  type: "ReLU"
  bottom: "inception_4b/3x3_reduce"
  top: "inception_4b/3x3_reduce"
}
layer {
  name: "inception_4b/3x3"
  type: "Convolution"
  bottom: "inception_4b/3x3_reduce"
  top: "inception_4b/3x3"
  param {
    lr_mult: 1
    decay_mult: 1
  }
  param {
    lr_mult: 2
    decay_mult: 0
  }
  convolution_param {
    num_output: 224
    pad: 1
    kernel_size: 3
    weight_filler {
      type: "xavier"
      std: 0.03
    }
    bias_filler {
      type: "constant"
      value: 0.2
    }
  }
}
layer {
  name: "inception_4b/relu_3x3"
  type: "ReLU"
  bottom: "inception_4b/3x3"
  top: "inception_4b/3x3"
}
layer {
  name: "inception_4b/5x5_reduce"
  type: "Convolution"
  bottom: "inception_4a/output"
  top: "inception_4b/5x5_reduce"
  param {
    lr_mult: 1
    decay_mult: 1
  }
  param {
    lr_mult: 2
    decay_mult: 0
  }
  convolution_param {
    num_output: 24
    kernel_size: 1
    weight_filler {
      type: "xavier"
      std: 0.2
    }
    bias_filler {
      type: "constant"
      value: 0.2
    }
  }
}
layer {
  name: "inception_4b/relu_5x5_reduce"
  type: "ReLU"
  bottom: "inception_4b/5x5_reduce"
  top: "inception_4b/5x5_reduce"
}
layer {
  name: "inception_4b/5x5"
  type: "Convolution"
  bottom: "inception_4b/5x5_reduce"
  top: "inception_4b/5x5"
  param {
    lr_mult: 1
    decay_mult: 1
  }
  param {
    lr_mult: 2
    decay_mult: 0
  }
  convolution_param {
    num_output: 64
    pad: 2
    kernel_size: 5
    weight_filler {
      type: "xavier"
      std: 0.03
    }
    bias_filler {
      type: "constant"
      value: 0.2
    }
  }
}
layer {
  name: "inception_4b/relu_5x5"
  type: "ReLU"
  bottom: "inception_4b/5x5"
  top: "inception_4b/5x5"
}
layer {
  name: "inception_4b/pool"
  type: "Pooling"
  bottom: "inception_4a/output"
  top: "inception_4b/pool"
  pooling_param {
    pool: MAX
    kernel_size: 3
    stride: 1
    pad: 1
  }
}
layer {
  name: "inception_4b/pool_proj"
  type: "Convolution"
  bottom: "inception_4b/pool"
  top: "inception_4b/pool_proj"
  param {
    lr_mult: 1
    decay_mult: 1
  }
  param {
    lr_mult: 2
    decay_mult: 0
  }
  convolution_param {
    num_output: 64
    kernel_size: 1
    weight_filler {
      type: "xavier"
      std: 0.1
    }
    bias_filler {
      type: "constant"
      value: 0.2
    }
  }
}
layer {
  name: "inception_4b/relu_pool_proj"
  type: "ReLU"
  bottom: "inception_4b/pool_proj"
  top: "inception_4b/pool_proj"
}
layer {
  name: "inception_4b/output"
  type: "Concat"
  bottom: "inception_4b/1x1"
  bottom: "inception_4b/3x3"
  bottom: "inception_4b/5x5"
  bottom: "inception_4b/pool_proj"
  top: "inception_4b/output"
}
layer {
  name: "inception_4c/1x1"
  type: "Convolution"
  bottom: "inception_4b/output"
  top: "inception_4c/1x1"
  param {
    lr_mult: 1
    decay_mult: 1
  }
  param {
    lr_mult: 2
    decay_mult: 0
  }
  convolution_param {
    num_output: 128
    kernel_size: 1
    weight_filler {
      type: "xavier"
      std: 0.03
    }
    bias_filler {
      type: "constant"
      value: 0.2
    }
  }
}
layer {
  name: "inception_4c/relu_1x1"
  type: "ReLU"
  bottom: "inception_4c/1x1"
  top: "inception_4c/1x1"
}
layer {
  name: "inception_4c/3x3_reduce"
  type: "Convolution"
  bottom: "inception_4b/output"
  top: "inception_4c/3x3_reduce"
  param {
    lr_mult: 1
    decay_mult: 1
  }
  param {
    lr_mult: 2
    decay_mult: 0
  }
  convolution_param {
    num_output: 128
    kernel_size: 1
    weight_filler {
      type: "xavier"
      std: 0.09
    }
    bias_filler {
      type: "constant"
      value: 0.2
    }
  }
}
layer {
  name: "inception_4c/relu_3x3_reduce"
  type: "ReLU"
  bottom: "inception_4c/3x3_reduce"
  top: "inception_4c/3x3_reduce"
}
layer {
  name: "inception_4c/3x3"
  type: "Convolution"
  bottom: "inception_4c/3x3_reduce"
  top: "inception_4c/3x3"
  param {
    lr_mult: 1
    decay_mult: 1
  }
  param {
    lr_mult: 2
    decay_mult: 0
  }
  convolution_param {
    num_output: 256
    pad: 1
    kernel_size: 3
    weight_filler {
      type: "xavier"
      std: 0.03
    }
    bias_filler {
      type: "constant"
      value: 0.2
    }
  }
}
layer {
  name: "inception_4c/relu_3x3"
  type: "ReLU"
  bottom: "inception_4c/3x3"
  top: "inception_4c/3x3"
}
layer {
  name: "inception_4c/5x5_reduce"
  type: "Convolution"
  bottom: "inception_4b/output"
  top: "inception_4c/5x5_reduce"
  param {
    lr_mult: 1
    decay_mult: 1
  }
  param {
    lr_mult: 2
    decay_mult: 0
  }
  convolution_param {
    num_output: 24
    kernel_size: 1
    weight_filler {
      type: "xavier"
      std: 0.2
    }
    bias_filler {
      type: "constant"
      value: 0.2
    }
  }
}
layer {
  name: "inception_4c/relu_5x5_reduce"
  type: "ReLU"
  bottom: "inception_4c/5x5_reduce"
  top: "inception_4c/5x5_reduce"
}
layer {
  name: "inception_4c/5x5"
  type: "Convolution"
  bottom: "inception_4c/5x5_reduce"
  top: "inception_4c/5x5"
  param {
    lr_mult: 1
    decay_mult: 1
  }
  param {
    lr_mult: 2
    decay_mult: 0
  }
  convolution_param {
    num_output: 64
    pad: 2
    kernel_size: 5
    weight_filler {
      type: "xavier"
      std: 0.03
    }
    bias_filler {
      type: "constant"
      value: 0.2
    }
  }
}
layer {
  name: "inception_4c/relu_5x5"
  type: "ReLU"
  bottom: "inception_4c/5x5"
  top: "inception_4c/5x5"
}
layer {
  name: "inception_4c/pool"
  type: "Pooling"
  bottom: "inception_4b/output"
  top: "inception_4c/pool"
  pooling_param {
    pool: MAX
    kernel_size: 3
    stride: 1
    pad: 1
  }
}
layer {
  name: "inception_4c/pool_proj"
  type: "Convolution"
  bottom: "inception_4c/pool"
  top: "inception_4c/pool_proj"
  param {
    lr_mult: 1
    decay_mult: 1
  }
  param {
    lr_mult: 2
    decay_mult: 0
  }
  convolution_param {
    num_output: 64
    kernel_size: 1
    weight_filler {
      type: "xavier"
      std: 0.1
    }
    bias_filler {
      type: "constant"
      value: 0.2
    }
  }
}
layer {
  name: "inception_4c/relu_pool_proj"
  type: "ReLU"
  bottom: "inception_4c/pool_proj"
  top: "inception_4c/pool_proj"
}
layer {
  name: "inception_4c/output"
  type: "Concat"
  bottom: "inception_4c/1x1"
  bottom: "inception_4c/3x3"
  bottom: "inception_4c/5x5"
  bottom: "inception_4c/pool_proj"
  top: "inception_4c/output"
}
layer {
  name: "inception_4d/1x1"
  type: "Convolution"
  bottom: "inception_4c/output"
  top: "inception_4d/1x1"
  param {
    lr_mult: 1
    decay_mult: 1
  }
  param {
    lr_mult: 2
    decay_mult: 0
  }
  convolution_param {
    num_output: 112
    kernel_size: 1
    weight_filler {
      type: "xavier"
      std: 0.03
    }
    bias_filler {
      type: "constant"
      value: 0.2
    }
  }
}
layer {
  name: "inception_4d/relu_1x1"
  type: "ReLU"
  bottom: "inception_4d/1x1"
  top: "inception_4d/1x1"
}
layer {
  name: "inception_4d/3x3_reduce"
  type: "Convolution"
  bottom: "inception_4c/output"
  top: "inception_4d/3x3_reduce"
  param {
    lr_mult: 1
    decay_mult: 1
  }
  param {
    lr_mult: 2
    decay_mult: 0
  }
  convolution_param {
    num_output: 144
    kernel_size: 1
    weight_filler {
      type: "xavier"
      std: 0.09
    }
    bias_filler {
      type: "constant"
      value: 0.2
    }
  }
}
layer {
  name: "inception_4d/relu_3x3_reduce"
  type: "ReLU"
  bottom: "inception_4d/3x3_reduce"
  top: "inception_4d/3x3_reduce"
}
layer {
  name: "inception_4d/3x3"
  type: "Convolution"
  bottom: "inception_4d/3x3_reduce"
  top: "inception_4d/3x3"
  param {
    lr_mult: 1
    decay_mult: 1
  }
  param {
    lr_mult: 2
    decay_mult: 0
  }
  convolution_param {
    num_output: 288
    pad: 1
    kernel_size: 3
    weight_filler {
      type: "xavier"
      std: 0.03
    }
    bias_filler {
      type: "constant"
      value: 0.2
    }
  }
}
layer {
  name: "inception_4d/relu_3x3"
  type: "ReLU"
  bottom: "inception_4d/3x3"
  top: "inception_4d/3x3"
}
layer {
  name: "inception_4d/5x5_reduce"
  type: "Convolution"
  bottom: "inception_4c/output"
  top: "inception_4d/5x5_reduce"
  param {
    lr_mult: 1
    decay_mult: 1
  }
  param {
    lr_mult: 2
    decay_mult: 0
  }
  convolution_param {
    num_output: 32
    kernel_size: 1
    weight_filler {
      type: "xavier"
      std: 0.2
    }
    bias_filler {
      type: "constant"
      value: 0.2
    }
  }
}
layer {
  name: "inception_4d/relu_5x5_reduce"
  type: "ReLU"
  bottom: "inception_4d/5x5_reduce"
  top: "inception_4d/5x5_reduce"
}
layer {
  name: "inception_4d/5x5"
  type: "Convolution"
  bottom: "inception_4d/5x5_reduce"
  top: "inception_4d/5x5"
  param {
    lr_mult: 1
    decay_mult: 1
  }
  param {
    lr_mult: 2
    decay_mult: 0
  }
  convolution_param {
    num_output: 64
    pad: 2
    kernel_size: 5
    weight_filler {
      type: "xavier"
      std: 0.03
    }
    bias_filler {
      type: "constant"
      value: 0.2
    }
  }
}
layer {
  name: "inception_4d/relu_5x5"
  type: "ReLU"
  bottom: "inception_4d/5x5"
  top: "inception_4d/5x5"
}
layer {
  name: "inception_4d/pool"
  type: "Pooling"
  bottom: "inception_4c/output"
  top: "inception_4d/pool"
  pooling_param {
    pool: MAX
    kernel_size: 3
    stride: 1
    pad: 1
  }
}
layer {
  name: "inception_4d/pool_proj"
  type: "Convolution"
  bottom: "inception_4d/pool"
  top: "inception_4d/pool_proj"
  param {
    lr_mult: 1
    decay_mult: 1
  }
  param {
    lr_mult: 2
    decay_mult: 0
  }
  convolution_param {
    num_output: 64
    kernel_size: 1
    weight_filler {
      type: "xavier"
      std: 0.1
    }
    bias_filler {
      type: "constant"
      value: 0.2
    }
  }
}
layer {
  name: "inception_4d/relu_pool_proj"
  type: "ReLU"
  bottom: "inception_4d/pool_proj"
  top: "inception_4d/pool_proj"
}
layer {
  name: "inception_4d/output"
  type: "Concat"
  bottom: "inception_4d/1x1"
  bottom: "inception_4d/3x3"
  bottom: "inception_4d/5x5"
  bottom: "inception_4d/pool_proj"
  top: "inception_4d/output"
}
layer {
  name: "inception_4e/1x1"
  type: "Convolution"
  bottom: "inception_4d/output"
  top: "inception_4e/1x1"
  param {
    lr_mult: 1
    decay_mult: 1
  }
  param {
    lr_mult: 2
    decay_mult: 0
  }
  convolution_param {
    num_output: 256
    kernel_size: 1
    weight_filler {
      type: "xavier"
      std: 0.03
    }
    bias_filler {
      type: "constant"
      value: 0.2
    }
  }
}
layer {
  name: "inception_4e/relu_1x1"
  type: "ReLU"
  bottom: "inception_4e/1x1"
  top: "inception_4e/1x1"
}
layer {
  name: "inception_4e/3x3_reduce"
  type: "Convolution"
  bottom: "inception_4d/output"
  top: "inception_4e/3x3_reduce"
  param {
    lr_mult: 1
    decay_mult: 1
  }
  param {
    lr_mult: 2
    decay_mult: 0
  }
  convolution_param {
    num_output: 160
    kernel_size: 1
    weight_filler {
      type: "xavier"
      std: 0.09
    }
    bias_filler {
      type: "constant"
      value: 0.2
    }
  }
}
layer {
  name: "inception_4e/relu_3x3_reduce"
  type: "ReLU"
  bottom: "inception_4e/3x3_reduce"
  top: "inception_4e/3x3_reduce"
}
layer {
  name: "inception_4e/3x3"
  type: "Convolution"
  bottom: "inception_4e/3x3_reduce"
  top: "inception_4e/3x3"
  param {
    lr_mult: 1
    decay_mult: 1
  }
  param {
    lr_mult: 2
    decay_mult: 0
  }
  convolution_param {
    num_output: 320
    pad: 1
    kernel_size: 3
    weight_filler {
      type: "xavier"
      std: 0.03
    }
    bias_filler {
      type: "constant"
      value: 0.2
    }
  }
}
layer {
  name: "inception_4e/relu_3x3"
  type: "ReLU"
  bottom: "inception_4e/3x3"
  top: "inception_4e/3x3"
}
layer {
  name: "inception_4e/5x5_reduce"
  type: "Convolution"
  bottom: "inception_4d/output"
  top: "inception_4e/5x5_reduce"
  param {
    lr_mult: 1
    decay_mult: 1
  }
  param {
    lr_mult: 2
    decay_mult: 0
  }
  convolution_param {
    num_output: 32
    kernel_size: 1
    weight_filler {
      type: "xavier"
      std: 0.2
    }
    bias_filler {
      type: "constant"
      value: 0.2
    }
  }
}
layer {
  name: "inception_4e/relu_5x5_reduce"
  type: "ReLU"
  bottom: "inception_4e/5x5_reduce"
  top: "inception_4e/5x5_reduce"
}
layer {
  name: "inception_4e/5x5"
  type: "Convolution"
  bottom: "inception_4e/5x5_reduce"
  top: "inception_4e/5x5"
  param {
    lr_mult: 1
    decay_mult: 1
  }
  param {
    lr_mult: 2
    decay_mult: 0
  }
  convolution_param {
    num_output: 128
    pad: 2
    kernel_size: 5
    weight_filler {
      type: "xavier"
      std: 0.03
    }
    bias_filler {
      type: "constant"
      value: 0.2
    }
  }
}
layer {
  name: "inception_4e/relu_5x5"
  type: "ReLU"
  bottom: "inception_4e/5x5"
  top: "inception_4e/5x5"
}
layer {
  name: "inception_4e/pool"
  type: "Pooling"
  bottom: "inception_4d/output"
  top: "inception_4e/pool"
  pooling_param {
    pool: MAX
    kernel_size: 3
    stride: 1
    pad: 1
  }
}
layer {
  name: "inception_4e/pool_proj"
  type: "Convolution"
  bottom: "inception_4e/pool"
  top: "inception_4e/pool_proj"
  param {
    lr_mult: 1
    decay_mult: 1
  }
  param {
    lr_mult: 2
    decay_mult: 0
  }
  convolution_param {
    num_output: 128
    kernel_size: 1
    weight_filler {
      type: "xavier"
      std: 0.1
    }
    bias_filler {
      type: "constant"
      value: 0.2
    }
  }
}
layer {
  name: "inception_4e/relu_pool_proj"
  type: "ReLU"
  bottom: "inception_4e/pool_proj"
  top: "inception_4e/pool_proj"
}
layer {
  name: "inception_4e/output"
  type: "Concat"
  bottom: "inception_4e/1x1"
  bottom: "inception_4e/3x3"
  bottom: "inception_4e/5x5"
  bottom: "inception_4e/pool_proj"
  top: "inception_4e/output"
}
layer {
  name: "pool4/3x3_s2"
  type: "Pooling"
  bottom: "inception_4e/output"
  top: "pool4/3x3_s2"
  pooling_param {
    pool: MAX
    kernel_size: 3
    stride: 2
  }
}
layer {
  name: "inception_5a/1x1"
  type: "Convolution"
  bottom: "pool4/3x3_s2"
  top: "inception_5a/1x1"
  param {
    lr_mult: 1
    decay_mult: 1
  }
  param {
    lr_mult: 2
    decay_mult: 0
  }
  convolution_param {
    num_output: 256
    kernel_size: 1
    weight_filler {
      type: "xavier"
      std: 0.03
    }
    bias_filler {
      type: "constant"
      value: 0.2
    }
  }
}
layer {
  name: "inception_5a/relu_1x1"
  type: "ReLU"
  bottom: "inception_5a/1x1"
  top: "inception_5a/1x1"
}
layer {
  name: "inception_5a/3x3_reduce"
  type: "Convolution"
  bottom: "pool4/3x3_s2"
  top: "inception_5a/3x3_reduce"
  param {
    lr_mult: 1
    decay_mult: 1
  }
  param {
    lr_mult: 2
    decay_mult: 0
  }
  convolution_param {
    num_output: 160
    kernel_size: 1
    weight_filler {
      type: "xavier"
      std: 0.09
    }
    bias_filler {
      type: "constant"
      value: 0.2
    }
  }
}
layer {
  name: "inception_5a/relu_3x3_reduce"
  type: "ReLU"
  bottom: "inception_5a/3x3_reduce"
  top: "inception_5a/3x3_reduce"
}
layer {
  name: "inception_5a/3x3"
  type: "Convolution"
  bottom: "inception_5a/3x3_reduce"
  top: "inception_5a/3x3"
  param {
    lr_mult: 1
    decay_mult: 1
  }
  param {
    lr_mult: 2
    decay_mult: 0
  }
  convolution_param {
    num_output: 320
    pad: 1
    kernel_size: 3
    weight_filler {
      type: "xavier"
      std: 0.03
    }
    bias_filler {
      type: "constant"
      value: 0.2
    }
  }
}
layer {
  name: "inception_5a/relu_3x3"
  type: "ReLU"
  bottom: "inception_5a/3x3"
  top: "inception_5a/3x3"
}
layer {
  name: "inception_5a/5x5_reduce"
  type: "Convolution"
  bottom: "pool4/3x3_s2"
  top: "inception_5a/5x5_reduce"
  param {
    lr_mult: 1
    decay_mult: 1
  }
  param {
    lr_mult: 2
    decay_mult: 0
  }
  convolution_param {
    num_output: 32
    kernel_size: 1
    weight_filler {
      type: "xavier"
      std: 0.2
    }
    bias_filler {
      type: "constant"
      value: 0.2
    }
I0714 21:53:12.522347 13325 layer_factory.hpp:77] Creating layer data
I0714 21:53:12.522368 13325 net.cpp:91] Creating Layer data
I0714 21:53:12.522377 13325 net.cpp:399] data -> data
I0714 21:53:13.590898 13329 net.cpp:141] Setting up data
I0714 21:53:13.591009 13329 net.cpp:148] Top shape: 10 3 224 224 (1505280)
I0714 21:53:13.591022 13329 net.cpp:156] Memory required for data: 6021120
I0714 21:53:13.591058 13329 layer_factory.hpp:77] Creating layer conv1/7x7_s2
I0714 21:53:13.591122 13329 net.cpp:91] Creating Layer conv1/7x7_s2
I0714 21:53:13.591141 13329 net.cpp:425] conv1/7x7_s2 <- data
I0714 21:53:13.591171 13329 net.cpp:399] conv1/7x7_s2 -> conv1/7x7_s2
I0714 21:53:13.593341 13325 net.cpp:141] Setting up data
I0714 21:53:13.593364 13325 net.cpp:148] Top shape: 10 3 224 224 (1505280)
I0714 21:53:13.593374 13325 net.cpp:156] Memory required for data: 6021120
I0714 21:53:13.593380 13325 layer_factory.hpp:77] Creating layer conv1/7x7_s2
I0714 21:53:13.593400 13325 net.cpp:91] Creating Layer conv1/7x7_s2
I0714 21:53:13.593406 13325 net.cpp:425] conv1/7x7_s2 <- data
I0714 21:53:13.593416 13325 net.cpp:399] conv1/7x7_s2 -> conv1/7x7_s2
I0714 21:53:14.039664 13325 net.cpp:141] Setting up conv1/7x7_s2
I0714 21:53:14.039728 13325 net.cpp:148] Top shape: 10 64 112 112 (8028160)
I0714 21:53:14.039736 13325 net.cpp:156] Memory required for data: 38133760
I0714 21:53:14.039772 13325 layer_factory.hpp:77] Creating layer conv1/relu_7x7
I0714 21:53:14.039794 13325 net.cpp:91] Creating Layer conv1/relu_7x7
I0714 21:53:14.039803 13325 net.cpp:425] conv1/relu_7x7 <- conv1/7x7_s2
I0714 21:53:14.039813 13325 net.cpp:386] conv1/relu_7x7 -> conv1/7x7_s2 (in-place)
I0714 21:53:14.040824 13325 net.cpp:141] Setting up conv1/relu_7x7
I0714 21:53:14.040843 13325 net.cpp:148] Top shape: 10 64 112 112 (8028160)
I0714 21:53:14.040848 13325 net.cpp:156] Memory required for data: 70246400
I0714 21:53:14.040853 13325 layer_factory.hpp:77] Creating layer pool1/3x3_s2
I0714 21:53:14.040869 13325 net.cpp:91] Creating Layer pool1/3x3_s2
I0714 21:53:14.040874 13325 net.cpp:425] pool1/3x3_s2 <- conv1/7x7_s2
I0714 21:53:14.040899 13325 net.cpp:399] pool1/3x3_s2 -> pool1/3x3_s2
I0714 21:53:14.044450 13325 net.cpp:141] Setting up pool1/3x3_s2
I0714 21:53:14.044472 13325 net.cpp:148] Top shape: 10 64 56 56 (2007040)
I0714 21:53:14.044478 13325 net.cpp:156] Memory required for data: 78274560
I0714 21:53:14.044484 13325 layer_factory.hpp:77] Creating layer pool1/norm1
I0714 21:53:14.044512 13325 net.cpp:91] Creating Layer pool1/norm1
I0714 21:53:14.044519 13325 net.cpp:425] pool1/norm1 <- pool1/3x3_s2
I0714 21:53:14.044528 13325 net.cpp:399] pool1/norm1 -> pool1/norm1
I0714 21:53:14.046144 13325 net.cpp:141] Setting up pool1/norm1
I0714 21:53:14.046166 13325 net.cpp:148] Top shape: 10 64 56 56 (2007040)
I0714 21:53:14.046171 13325 net.cpp:156] Memory required for data: 86302720
I0714 21:53:14.046177 13325 layer_factory.hpp:77] Creating layer conv2/3x3_reduce
I0714 21:53:14.046218 13325 net.cpp:91] Creating Layer conv2/3x3_reduce
I0714 21:53:14.046226 13325 net.cpp:425] conv2/3x3_reduce <- pool1/norm1
I0714 21:53:14.046234 13325 net.cpp:399] conv2/3x3_reduce -> conv2/3x3_reduce
I0714 21:53:14.048842 13329 net.cpp:141] Setting up conv1/7x7_s2
I0714 21:53:14.048867 13329 net.cpp:148] Top shape: 10 64 112 112 (8028160)
I0714 21:53:14.048874 13329 net.cpp:156] Memory required for data: 38133760
I0714 21:53:14.048892 13329 layer_factory.hpp:77] Creating layer conv1/relu_7x7
I0714 21:53:14.048902 13329 net.cpp:91] Creating Layer conv1/relu_7x7
I0714 21:53:14.048908 13329 net.cpp:425] conv1/relu_7x7 <- conv1/7x7_s2
I0714 21:53:14.048915 13329 net.cpp:386] conv1/relu_7x7 -> conv1/7x7_s2 (in-place)
I0714 21:53:14.049710 13329 net.cpp:141] Setting up conv1/relu_7x7
I0714 21:53:14.049728 13329 net.cpp:148] Top shape: 10 64 112 112 (8028160)
I0714 21:53:14.049733 13329 net.cpp:156] Memory required for data: 70246400
I0714 21:53:14.049738 13329 layer_factory.hpp:77] Creating layer pool1/3x3_s2
I0714 21:53:14.049753 13329 net.cpp:91] Creating Layer pool1/3x3_s2
I0714 21:53:14.049759 13329 net.cpp:425] pool1/3x3_s2 <- conv1/7x7_s2
I0714 21:53:14.049770 13329 net.cpp:399] pool1/3x3_s2 -> pool1/3x3_s2
I0714 21:53:14.050170 13329 net.cpp:141] Setting up pool1/3x3_s2
I0714 21:53:14.050184 13329 net.cpp:148] Top shape: 10 64 56 56 (2007040)
I0714 21:53:14.050189 13329 net.cpp:156] Memory required for data: 78274560
I0714 21:53:14.050194 13329 layer_factory.hpp:77] Creating layer pool1/norm1
I0714 21:53:14.050207 13329 net.cpp:91] Creating Layer pool1/norm1
I0714 21:53:14.050214 13329 net.cpp:425] pool1/norm1 <- pool1/3x3_s2
I0714 21:53:14.050220 13329 net.cpp:399] pool1/norm1 -> pool1/norm1
I0714 21:53:14.051368 13325 net.cpp:141] Setting up conv2/3x3_reduce
I0714 21:53:14.051383 13329 net.cpp:141] Setting up pool1/norm1
I0714 21:53:14.051393 13325 net.cpp:148] Top shape: 10 64 56 56 (2007040)
I0714 21:53:14.051398 13329 net.cpp:148] Top shape: 10 64 56 56 (2007040)
I0714 21:53:14.051398 13325 net.cpp:156] Memory required for data: 94330880
I0714 21:53:14.051403 13329 net.cpp:156] Memory required for data: 86302720
I0714 21:53:14.051409 13329 layer_factory.hpp:77] Creating layer conv2/3x3_reduce
I0714 21:53:14.051414 13325 layer_factory.hpp:77] Creating layer conv2/relu_3x3_reduce
I0714 21:53:14.051424 13325 net.cpp:91] Creating Layer conv2/relu_3x3_reduce
I0714 21:53:14.051429 13325 net.cpp:425] conv2/relu_3x3_reduce <- conv2/3x3_reduce
I0714 21:53:14.051429 13329 net.cpp:91] Creating Layer conv2/3x3_reduce
I0714 21:53:14.051435 13329 net.cpp:425] conv2/3x3_reduce <- pool1/norm1
I0714 21:53:14.051439 13325 net.cpp:386] conv2/relu_3x3_reduce -> conv2/3x3_reduce (in-place)
I0714 21:53:14.051445 13329 net.cpp:399] conv2/3x3_reduce -> conv2/3x3_reduce
I0714 21:53:14.052474 13325 net.cpp:141] Setting up conv2/relu_3x3_reduce
I0714 21:53:14.052490 13325 net.cpp:148] Top shape: 10 64 56 56 (2007040)
I0714 21:53:14.052495 13325 net.cpp:156] Memory required for data: 102359040
I0714 21:53:14.052501 13325 layer_factory.hpp:77] Creating layer conv2/3x3
I0714 21:53:14.052520 13325 net.cpp:91] Creating Layer conv2/3x3
I0714 21:53:14.052525 13325 net.cpp:425] conv2/3x3 <- conv2/3x3_reduce
I0714 21:53:14.052538 13325 net.cpp:399] conv2/3x3 -> conv2/3x3
I0714 21:53:14.057878 13329 net.cpp:141] Setting up conv2/3x3_reduce
I0714 21:53:14.057901 13329 net.cpp:148] Top shape: 10 64 56 56 (2007040)
I0714 21:53:14.057907 13329 net.cpp:156] Memory required for data: 94330880
I0714 21:53:14.057920 13329 layer_factory.hpp:77] Creating layer conv2/relu_3x3_reduce
I0714 21:53:14.057934 13329 net.cpp:91] Creating Layer conv2/relu_3x3_reduce
I0714 21:53:14.057940 13329 net.cpp:425] conv2/relu_3x3_reduce <- conv2/3x3_reduce
I0714 21:53:14.057948 13329 net.cpp:386] conv2/relu_3x3_reduce -> conv2/3x3_reduce (in-place)
I0714 21:53:14.058876 13329 net.cpp:141] Setting up conv2/relu_3x3_reduce
I0714 21:53:14.058893 13329 net.cpp:148] Top shape: 10 64 56 56 (2007040)
I0714 21:53:14.058898 13329 net.cpp:156] Memory required for data: 102359040
I0714 21:53:14.058904 13329 layer_factory.hpp:77] Creating layer conv2/3x3
I0714 21:53:14.058925 13329 net.cpp:91] Creating Layer conv2/3x3
I0714 21:53:14.058931 13329 net.cpp:425] conv2/3x3 <- conv2/3x3_reduce
I0714 21:53:14.058940 13329 net.cpp:399] conv2/3x3 -> conv2/3x3
I0714 21:53:14.063560 13325 net.cpp:141] Setting up conv2/3x3
I0714 21:53:14.063582 13325 net.cpp:148] Top shape: 10 192 56 56 (6021120)
I0714 21:53:14.063588 13325 net.cpp:156] Memory required for data: 126443520
I0714 21:53:14.063604 13325 layer_factory.hpp:77] Creating layer conv2/relu_3x3
I0714 21:53:14.063616 13325 net.cpp:91] Creating Layer conv2/relu_3x3
I0714 21:53:14.063621 13325 net.cpp:425] conv2/relu_3x3 <- conv2/3x3
I0714 21:53:14.063628 13325 net.cpp:386] conv2/relu_3x3 -> conv2/3x3 (in-place)
I0714 21:53:14.063982 13325 net.cpp:141] Setting up conv2/relu_3x3
I0714 21:53:14.063995 13325 net.cpp:148] Top shape: 10 192 56 56 (6021120)
I0714 21:53:14.064000 13325 net.cpp:156] Memory required for data: 150528000
I0714 21:53:14.064007 13325 layer_factory.hpp:77] Creating layer conv2/norm2
I0714 21:53:14.064019 13325 net.cpp:91] Creating Layer conv2/norm2
I0714 21:53:14.064024 13325 net.cpp:425] conv2/norm2 <- conv2/3x3
I0714 21:53:14.064033 13325 net.cpp:399] conv2/norm2 -> conv2/norm2
I0714 21:53:14.065723 13325 net.cpp:141] Setting up conv2/norm2
I0714 21:53:14.065745 13325 net.cpp:148] Top shape: 10 192 56 56 (6021120)
I0714 21:53:14.065750 13325 net.cpp:156] Memory required for data: 174612480
I0714 21:53:14.065757 13325 layer_factory.hpp:77] Creating layer pool2/3x3_s2
I0714 21:53:14.065768 13325 net.cpp:91] Creating Layer pool2/3x3_s2
I0714 21:53:14.065773 13325 net.cpp:425] pool2/3x3_s2 <- conv2/norm2
I0714 21:53:14.065788 13325 net.cpp:399] pool2/3x3_s2 -> pool2/3x3_s2
I0714 21:53:14.066025 13325 net.cpp:141] Setting up pool2/3x3_s2
I0714 21:53:14.066036 13325 net.cpp:148] Top shape: 10 192 28 28 (1505280)
I0714 21:53:14.066040 13325 net.cpp:156] Memory required for data: 180633600
I0714 21:53:14.066050 13325 layer_factory.hpp:77] Creating layer pool2/3x3_s2_pool2/3x3_s2_0_split
I0714 21:53:14.066061 13325 net.cpp:91] Creating Layer pool2/3x3_s2_pool2/3x3_s2_0_split
I0714 21:53:14.066066 13325 net.cpp:425] pool2/3x3_s2_pool2/3x3_s2_0_split <- pool2/3x3_s2
I0714 21:53:14.066076 13325 net.cpp:399] pool2/3x3_s2_pool2/3x3_s2_0_split -> pool2/3x3_s2_pool2/3x3_s2_0_split_0
I0714 21:53:14.066085 13325 net.cpp:399] pool2/3x3_s2_pool2/3x3_s2_0_split -> pool2/3x3_s2_pool2/3x3_s2_0_split_1
I0714 21:53:14.066094 13325 net.cpp:399] pool2/3x3_s2_pool2/3x3_s2_0_split -> pool2/3x3_s2_pool2/3x3_s2_0_split_2
I0714 21:53:14.066102 13325 net.cpp:399] pool2/3x3_s2_pool2/3x3_s2_0_split -> pool2/3x3_s2_pool2/3x3_s2_0_split_3
I0714 21:53:14.066802 13329 net.cpp:141] Setting up conv2/3x3
I0714 21:53:14.066823 13329 net.cpp:148] Top shape: 10 192 56 56 (6021120)
I0714 21:53:14.066828 13329 net.cpp:156] Memory required for data: 126443520
I0714 21:53:14.066845 13329 layer_factory.hpp:77] Creating layer conv2/relu_3x3
I0714 21:53:14.066855 13329 net.cpp:91] Creating Layer conv2/relu_3x3
I0714 21:53:14.066861 13329 net.cpp:425] conv2/relu_3x3 <- conv2/3x3
I0714 21:53:14.066869 13329 net.cpp:386] conv2/relu_3x3 -> conv2/3x3 (in-place)
I0714 21:53:14.066884 13325 net.cpp:141] Setting up pool2/3x3_s2_pool2/3x3_s2_0_split
I0714 21:53:14.066895 13325 net.cpp:148] Top shape: 10 192 28 28 (1505280)
I0714 21:53:14.066902 13325 net.cpp:148] Top shape: 10 192 28 28 (1505280)
I0714 21:53:14.066907 13325 net.cpp:148] Top shape: 10 192 28 28 (1505280)
I0714 21:53:14.066913 13325 net.cpp:148] Top shape: 10 192 28 28 (1505280)
I0714 21:53:14.066917 13325 net.cpp:156] Memory required for data: 204718080
I0714 21:53:14.066922 13325 layer_factory.hpp:77] Creating layer inception_3a/1x1
I0714 21:53:14.066941 13325 net.cpp:91] Creating Layer inception_3a/1x1
I0714 21:53:14.066947 13325 net.cpp:425] inception_3a/1x1 <- pool2/3x3_s2_pool2/3x3_s2_0_split_0
I0714 21:53:14.066977 13325 net.cpp:399] inception_3a/1x1 -> inception_3a/1x1
I0714 21:53:14.067298 13329 net.cpp:141] Setting up conv2/relu_3x3
I0714 21:53:14.067311 13329 net.cpp:148] Top shape: 10 192 56 56 (6021120)
I0714 21:53:14.067315 13329 net.cpp:156] Memory required for data: 150528000
I0714 21:53:14.067322 13329 layer_factory.hpp:77] Creating layer conv2/norm2
I0714 21:53:14.067333 13329 net.cpp:91] Creating Layer conv2/norm2
I0714 21:53:14.067338 13329 net.cpp:425] conv2/norm2 <- conv2/3x3
I0714 21:53:14.067347 13329 net.cpp:399] conv2/norm2 -> conv2/norm2
I0714 21:53:14.068398 13329 net.cpp:141] Setting up conv2/norm2
I0714 21:53:14.068413 13329 net.cpp:148] Top shape: 10 192 56 56 (6021120)
I0714 21:53:14.068418 13329 net.cpp:156] Memory required for data: 174612480
I0714 21:53:14.068423 13329 layer_factory.hpp:77] Creating layer pool2/3x3_s2
I0714 21:53:14.068436 13329 net.cpp:91] Creating Layer pool2/3x3_s2
I0714 21:53:14.068442 13329 net.cpp:425] pool2/3x3_s2 <- conv2/norm2
I0714 21:53:14.068452 13329 net.cpp:399] pool2/3x3_s2 -> pool2/3x3_s2
I0714 21:53:14.068771 13329 net.cpp:141] Setting up pool2/3x3_s2
I0714 21:53:14.068783 13329 net.cpp:148] Top shape: 10 192 28 28 (1505280)
I0714 21:53:14.068788 13329 net.cpp:156] Memory required for data: 180633600
I0714 21:53:14.068792 13329 layer_factory.hpp:77] Creating layer pool2/3x3_s2_pool2/3x3_s2_0_split
I0714 21:53:14.068804 13329 net.cpp:91] Creating Layer pool2/3x3_s2_pool2/3x3_s2_0_split
I0714 21:53:14.068809 13329 net.cpp:425] pool2/3x3_s2_pool2/3x3_s2_0_split <- pool2/3x3_s2
I0714 21:53:14.068816 13329 net.cpp:399] pool2/3x3_s2_pool2/3x3_s2_0_split -> pool2/3x3_s2_pool2/3x3_s2_0_split_0
I0714 21:53:14.068830 13329 net.cpp:399] pool2/3x3_s2_pool2/3x3_s2_0_split -> pool2/3x3_s2_pool2/3x3_s2_0_split_1
I0714 21:53:14.068838 13329 net.cpp:399] pool2/3x3_s2_pool2/3x3_s2_0_split -> pool2/3x3_s2_pool2/3x3_s2_0_split_2
I0714 21:53:14.068845 13329 net.cpp:399] pool2/3x3_s2_pool2/3x3_s2_0_split -> pool2/3x3_s2_pool2/3x3_s2_0_split_3
I0714 21:53:14.069844 13329 net.cpp:141] Setting up pool2/3x3_s2_pool2/3x3_s2_0_split
I0714 21:53:14.069856 13329 net.cpp:148] Top shape: 10 192 28 28 (1505280)
I0714 21:53:14.069862 13329 net.cpp:148] Top shape: 10 192 28 28 (1505280)
I0714 21:53:14.069867 13329 net.cpp:148] Top shape: 10 192 28 28 (1505280)
I0714 21:53:14.069874 13329 net.cpp:148] Top shape: 10 192 28 28 (1505280)
I0714 21:53:14.069877 13329 net.cpp:156] Memory required for data: 204718080
I0714 21:53:14.069882 13329 layer_factory.hpp:77] Creating layer inception_3a/1x1
I0714 21:53:14.069900 13329 net.cpp:91] Creating Layer inception_3a/1x1
I0714 21:53:14.069906 13329 net.cpp:425] inception_3a/1x1 <- pool2/3x3_s2_pool2/3x3_s2_0_split_0
I0714 21:53:14.069916 13329 net.cpp:399] inception_3a/1x1 -> inception_3a/1x1
I0714 21:53:14.073688 13325 net.cpp:141] Setting up inception_3a/1x1
I0714 21:53:14.073709 13325 net.cpp:148] Top shape: 10 64 28 28 (501760)
I0714 21:53:14.073715 13325 net.cpp:156] Memory required for data: 206725120
I0714 21:53:14.073725 13325 layer_factory.hpp:77] Creating layer inception_3a/relu_1x1
I0714 21:53:14.073736 13325 net.cpp:91] Creating Layer inception_3a/relu_1x1
I0714 21:53:14.073742 13325 net.cpp:425] inception_3a/relu_1x1 <- inception_3a/1x1
I0714 21:53:14.073750 13325 net.cpp:386] inception_3a/relu_1x1 -> inception_3a/1x1 (in-place)
I0714 21:53:14.074146 13325 net.cpp:141] Setting up inception_3a/relu_1x1
I0714 21:53:14.074159 13325 net.cpp:148] Top shape: 10 64 28 28 (501760)
I0714 21:53:14.074164 13325 net.cpp:156] Memory required for data: 208732160
I0714 21:53:14.074170 13325 layer_factory.hpp:77] Creating layer inception_3a/3x3_reduce
I0714 21:53:14.074189 13325 net.cpp:91] Creating Layer inception_3a/3x3_reduce
I0714 21:53:14.074195 13325 net.cpp:425] inception_3a/3x3_reduce <- pool2/3x3_s2_pool2/3x3_s2_0_split_1
I0714 21:53:14.074208 13325 net.cpp:399] inception_3a/3x3_reduce -> inception_3a/3x3_reduce
I0714 21:53:14.080430 13329 net.cpp:141] Setting up inception_3a/1x1
I0714 21:53:14.080454 13329 net.cpp:148] Top shape: 10 64 28 28 (501760)
I0714 21:53:14.080459 13329 net.cpp:156] Memory required for data: 206725120
I0714 21:53:14.080471 13329 layer_factory.hpp:77] Creating layer inception_3a/relu_1x1
I0714 21:53:14.080481 13329 net.cpp:91] Creating Layer inception_3a/relu_1x1
I0714 21:53:14.080485 13329 net.cpp:425] inception_3a/relu_1x1 <- inception_3a/1x1
I0714 21:53:14.080493 13329 net.cpp:386] inception_3a/relu_1x1 -> inception_3a/1x1 (in-place)
I0714 21:53:14.080806 13329 net.cpp:141] Setting up inception_3a/relu_1x1
I0714 21:53:14.080818 13329 net.cpp:148] Top shape: 10 64 28 28 (501760)
I0714 21:53:14.080823 13329 net.cpp:156] Memory required for data: 208732160
I0714 21:53:14.080828 13329 layer_factory.hpp:77] Creating layer inception_3a/3x3_reduce
I0714 21:53:14.080844 13329 net.cpp:91] Creating Layer inception_3a/3x3_reduce
I0714 21:53:14.080850 13329 net.cpp:425] inception_3a/3x3_reduce <- pool2/3x3_s2_pool2/3x3_s2_0_split_1
I0714 21:53:14.080863 13329 net.cpp:399] inception_3a/3x3_reduce -> inception_3a/3x3_reduce
I0714 21:53:14.085527 13325 net.cpp:141] Setting up inception_3a/3x3_reduce
I0714 21:53:14.085551 13325 net.cpp:148] Top shape: 10 96 28 28 (752640)
I0714 21:53:14.085557 13325 net.cpp:156] Memory required for data: 211742720
I0714 21:53:14.085577 13325 layer_factory.hpp:77] Creating layer inception_3a/relu_3x3_reduce
I0714 21:53:14.085588 13325 net.cpp:91] Creating Layer inception_3a/relu_3x3_reduce
I0714 21:53:14.085594 13325 net.cpp:425] inception_3a/relu_3x3_reduce <- inception_3a/3x3_reduce
I0714 21:53:14.085602 13325 net.cpp:386] inception_3a/relu_3x3_reduce -> inception_3a/3x3_reduce (in-place)
I0714 21:53:14.085990 13325 net.cpp:141] Setting up inception_3a/relu_3x3_reduce
I0714 21:53:14.086004 13325 net.cpp:148] Top shape: 10 96 28 28 (752640)
I0714 21:53:14.086007 13325 net.cpp:156] Memory required for data: 214753280
I0714 21:53:14.086014 13325 layer_factory.hpp:77] Creating layer inception_3a/3x3
I0714 21:53:14.086036 13325 net.cpp:91] Creating Layer inception_3a/3x3
I0714 21:53:14.086043 13325 net.cpp:425] inception_3a/3x3 <- inception_3a/3x3_reduce
I0714 21:53:14.086056 13325 net.cpp:399] inception_3a/3x3 -> inception_3a/3x3
I0714 21:53:14.087488 13329 net.cpp:141] Setting up inception_3a/3x3_reduce
I0714 21:53:14.087508 13329 net.cpp:148] Top shape: 10 96 28 28 (752640)
I0714 21:53:14.087513 13329 net.cpp:156] Memory required for data: 211742720
I0714 21:53:14.087527 13329 layer_factory.hpp:77] Creating layer inception_3a/relu_3x3_reduce
I0714 21:53:14.087538 13329 net.cpp:91] Creating Layer inception_3a/relu_3x3_reduce
I0714 21:53:14.087543 13329 net.cpp:425] inception_3a/relu_3x3_reduce <- inception_3a/3x3_reduce
I0714 21:53:14.087553 13329 net.cpp:386] inception_3a/relu_3x3_reduce -> inception_3a/3x3_reduce (in-place)
I0714 21:53:14.087824 13329 net.cpp:141] Setting up inception_3a/relu_3x3_reduce
I0714 21:53:14.087836 13329 net.cpp:148] Top shape: 10 96 28 28 (752640)
I0714 21:53:14.087841 13329 net.cpp:156] Memory required for data: 214753280
I0714 21:53:14.087846 13329 layer_factory.hpp:77] Creating layer inception_3a/3x3
I0714 21:53:14.087868 13329 net.cpp:91] Creating Layer inception_3a/3x3
I0714 21:53:14.087874 13329 net.cpp:425] inception_3a/3x3 <- inception_3a/3x3_reduce
I0714 21:53:14.087883 13329 net.cpp:399] inception_3a/3x3 -> inception_3a/3x3
I0714 21:53:14.091410 13325 net.cpp:141] Setting up inception_3a/3x3
I0714 21:53:14.091430 13325 net.cpp:148] Top shape: 10 128 28 28 (1003520)
I0714 21:53:14.091436 13325 net.cpp:156] Memory required for data: 218767360
I0714 21:53:14.091446 13325 layer_factory.hpp:77] Creating layer inception_3a/relu_3x3
I0714 21:53:14.091459 13325 net.cpp:91] Creating Layer inception_3a/relu_3x3
I0714 21:53:14.091465 13325 net.cpp:425] inception_3a/relu_3x3 <- inception_3a/3x3
I0714 21:53:14.091476 13325 net.cpp:386] inception_3a/relu_3x3 -> inception_3a/3x3 (in-place)
I0714 21:53:14.092514 13325 net.cpp:141] Setting up inception_3a/relu_3x3
I0714 21:53:14.092531 13325 net.cpp:148] Top shape: 10 128 28 28 (1003520)
I0714 21:53:14.092536 13325 net.cpp:156] Memory required for data: 222781440
I0714 21:53:14.092535 13329 net.cpp:141] Setting up inception_3a/3x3
I0714 21:53:14.092542 13325 layer_factory.hpp:77] Creating layer inception_3a/5x5_reduce
I0714 21:53:14.092550 13329 net.cpp:148] Top shape: 10 128 28 28 (1003520)
I0714 21:53:14.092556 13329 net.cpp:156] Memory required for data: 218767360
I0714 21:53:14.092561 13325 net.cpp:91] Creating Layer inception_3a/5x5_reduce
I0714 21:53:14.092566 13329 layer_factory.hpp:77] Creating layer inception_3a/relu_3x3
I0714 21:53:14.092568 13325 net.cpp:425] inception_3a/5x5_reduce <- pool2/3x3_s2_pool2/3x3_s2_0_split_2
I0714 21:53:14.092578 13325 net.cpp:399] inception_3a/5x5_reduce -> inception_3a/5x5_reduce
I0714 21:53:14.092579 13329 net.cpp:91] Creating Layer inception_3a/relu_3x3
I0714 21:53:14.092588 13329 net.cpp:425] inception_3a/relu_3x3 <- inception_3a/3x3
I0714 21:53:14.092597 13329 net.cpp:386] inception_3a/relu_3x3 -> inception_3a/3x3 (in-place)
I0714 21:53:14.093567 13329 net.cpp:141] Setting up inception_3a/relu_3x3
I0714 21:53:14.093583 13329 net.cpp:148] Top shape: 10 128 28 28 (1003520)
I0714 21:53:14.093588 13329 net.cpp:156] Memory required for data: 222781440
I0714 21:53:14.093593 13329 layer_factory.hpp:77] Creating layer inception_3a/5x5_reduce
I0714 21:53:14.093623 13329 net.cpp:91] Creating Layer inception_3a/5x5_reduce
I0714 21:53:14.093631 13329 net.cpp:425] inception_3a/5x5_reduce <- pool2/3x3_s2_pool2/3x3_s2_0_split_2
I0714 21:53:14.093641 13329 net.cpp:399] inception_3a/5x5_reduce -> inception_3a/5x5_reduce
I0714 21:53:14.098019 13325 net.cpp:141] Setting up inception_3a/5x5_reduce
I0714 21:53:14.098042 13325 net.cpp:148] Top shape: 10 16 28 28 (125440)
I0714 21:53:14.098047 13325 net.cpp:156] Memory required for data: 223283200
I0714 21:53:14.098057 13325 layer_factory.hpp:77] Creating layer inception_3a/relu_5x5_reduce
I0714 21:53:14.098068 13325 net.cpp:91] Creating Layer inception_3a/relu_5x5_reduce
I0714 21:53:14.098074 13325 net.cpp:425] inception_3a/relu_5x5_reduce <- inception_3a/5x5_reduce
I0714 21:53:14.098083 13325 net.cpp:386] inception_3a/relu_5x5_reduce -> inception_3a/5x5_reduce (in-place)
I0714 21:53:14.098486 13325 net.cpp:141] Setting up inception_3a/relu_5x5_reduce
I0714 21:53:14.098500 13325 net.cpp:148] Top shape: 10 16 28 28 (125440)
I0714 21:53:14.098505 13325 net.cpp:156] Memory required for data: 223784960
I0714 21:53:14.098510 13325 layer_factory.hpp:77] Creating layer inception_3a/5x5
I0714 21:53:14.098531 13325 net.cpp:91] Creating Layer inception_3a/5x5
I0714 21:53:14.098536 13325 net.cpp:425] inception_3a/5x5 <- inception_3a/5x5_reduce
I0714 21:53:14.098546 13325 net.cpp:399] inception_3a/5x5 -> inception_3a/5x5
I0714 21:53:14.098613 13329 net.cpp:141] Setting up inception_3a/5x5_reduce
I0714 21:53:14.098629 13329 net.cpp:148] Top shape: 10 16 28 28 (125440)
I0714 21:53:14.098634 13329 net.cpp:156] Memory required for data: 223283200
I0714 21:53:14.098644 13329 layer_factory.hpp:77] Creating layer inception_3a/relu_5x5_reduce
I0714 21:53:14.098656 13329 net.cpp:91] Creating Layer inception_3a/relu_5x5_reduce
I0714 21:53:14.098662 13329 net.cpp:425] inception_3a/relu_5x5_reduce <- inception_3a/5x5_reduce
I0714 21:53:14.098672 13329 net.cpp:386] inception_3a/relu_5x5_reduce -> inception_3a/5x5_reduce (in-place)
I0714 21:53:14.099113 13329 net.cpp:141] Setting up inception_3a/relu_5x5_reduce
I0714 21:53:14.099126 13329 net.cpp:148] Top shape: 10 16 28 28 (125440)
I0714 21:53:14.099131 13329 net.cpp:156] Memory required for data: 223784960
I0714 21:53:14.099136 13329 layer_factory.hpp:77] Creating layer inception_3a/5x5
I0714 21:53:14.099154 13329 net.cpp:91] Creating Layer inception_3a/5x5
I0714 21:53:14.099160 13329 net.cpp:425] inception_3a/5x5 <- inception_3a/5x5_reduce
I0714 21:53:14.099174 13329 net.cpp:399] inception_3a/5x5 -> inception_3a/5x5
I0714 21:53:14.104897 13325 net.cpp:141] Setting up inception_3a/5x5
I0714 21:53:14.104918 13325 net.cpp:148] Top shape: 10 32 28 28 (250880)
I0714 21:53:14.104924 13325 net.cpp:156] Memory required for data: 224788480
I0714 21:53:14.104934 13325 layer_factory.hpp:77] Creating layer inception_3a/relu_5x5
I0714 21:53:14.104944 13325 net.cpp:91] Creating Layer inception_3a/relu_5x5
I0714 21:53:14.104950 13325 net.cpp:425] inception_3a/relu_5x5 <- inception_3a/5x5
I0714 21:53:14.104964 13325 net.cpp:386] inception_3a/relu_5x5 -> inception_3a/5x5 (in-place)
I0714 21:53:14.105361 13325 net.cpp:141] Setting up inception_3a/relu_5x5
I0714 21:53:14.105376 13325 net.cpp:148] Top shape: 10 32 28 28 (250880)
I0714 21:53:14.105381 13325 net.cpp:156] Memory required for data: 225792000
I0714 21:53:14.105386 13325 layer_factory.hpp:77] Creating layer inception_3a/pool
I0714 21:53:14.105397 13325 net.cpp:91] Creating Layer inception_3a/pool
I0714 21:53:14.105403 13325 net.cpp:425] inception_3a/pool <- pool2/3x3_s2_pool2/3x3_s2_0_split_3
I0714 21:53:14.105412 13325 net.cpp:399] inception_3a/pool -> inception_3a/pool
I0714 21:53:14.106027 13329 net.cpp:141] Setting up inception_3a/5x5
I0714 21:53:14.106045 13329 net.cpp:148] Top shape: 10 32 28 28 (250880)
I0714 21:53:14.106051 13329 net.cpp:156] Memory required for data: 224788480
I0714 21:53:14.106060 13329 layer_factory.hpp:77] Creating layer inception_3a/relu_5x5
I0714 21:53:14.106070 13329 net.cpp:91] Creating Layer inception_3a/relu_5x5
I0714 21:53:14.106068 13325 net.cpp:141] Setting up inception_3a/pool
I0714 21:53:14.106079 13329 net.cpp:425] inception_3a/relu_5x5 <- inception_3a/5x5
I0714 21:53:14.106093 13325 net.cpp:148] Top shape: 10 192 28 28 (1505280)
I0714 21:53:14.106099 13325 net.cpp:156] Memory required for data: 231813120
I0714 21:53:14.106099 13329 net.cpp:386] inception_3a/relu_5x5 -> inception_3a/5x5 (in-place)
I0714 21:53:14.106106 13325 layer_factory.hpp:77] Creating layer inception_3a/pool_proj
I0714 21:53:14.106122 13325 net.cpp:91] Creating Layer inception_3a/pool_proj
I0714 21:53:14.106127 13325 net.cpp:425] inception_3a/pool_proj <- inception_3a/pool
I0714 21:53:14.106140 13325 net.cpp:399] inception_3a/pool_proj -> inception_3a/pool_proj
I0714 21:53:14.106505 13329 net.cpp:141] Setting up inception_3a/relu_5x5
I0714 21:53:14.106518 13329 net.cpp:148] Top shape: 10 32 28 28 (250880)
I0714 21:53:14.106523 13329 net.cpp:156] Memory required for data: 225792000
I0714 21:53:14.106528 13329 layer_factory.hpp:77] Creating layer inception_3a/pool
I0714 21:53:14.106540 13329 net.cpp:91] Creating Layer inception_3a/pool
I0714 21:53:14.106546 13329 net.cpp:425] inception_3a/pool <- pool2/3x3_s2_pool2/3x3_s2_0_split_3
I0714 21:53:14.106554 13329 net.cpp:399] inception_3a/pool -> inception_3a/pool
I0714 21:53:14.106787 13329 net.cpp:141] Setting up inception_3a/pool
I0714 21:53:14.106801 13329 net.cpp:148] Top shape: 10 192 28 28 (1505280)
I0714 21:53:14.106804 13329 net.cpp:156] Memory required for data: 231813120
I0714 21:53:14.106809 13329 layer_factory.hpp:77] Creating layer inception_3a/pool_proj
I0714 21:53:14.106825 13329 net.cpp:91] Creating Layer inception_3a/pool_proj
I0714 21:53:14.106832 13329 net.cpp:425] inception_3a/pool_proj <- inception_3a/pool
I0714 21:53:14.106844 13329 net.cpp:399] inception_3a/pool_proj -> inception_3a/pool_proj
I0714 21:53:14.110893 13325 net.cpp:141] Setting up inception_3a/pool_proj
I0714 21:53:14.110913 13325 net.cpp:148] Top shape: 10 32 28 28 (250880)
I0714 21:53:14.110918 13325 net.cpp:156] Memory required for data: 232816640
I0714 21:53:14.110937 13325 layer_factory.hpp:77] Creating layer inception_3a/relu_pool_proj
I0714 21:53:14.110949 13325 net.cpp:91] Creating Layer inception_3a/relu_pool_proj
I0714 21:53:14.110954 13325 net.cpp:425] inception_3a/relu_pool_proj <- inception_3a/pool_proj
I0714 21:53:14.110963 13325 net.cpp:386] inception_3a/relu_pool_proj -> inception_3a/pool_proj (in-place)
I0714 21:53:14.111979 13325 net.cpp:141] Setting up inception_3a/relu_pool_proj
I0714 21:53:14.111996 13325 net.cpp:148] Top shape: 10 32 28 28 (250880)
I0714 21:53:14.112001 13325 net.cpp:156] Memory required for data: 233820160
I0714 21:53:14.112009 13325 layer_factory.hpp:77] Creating layer inception_3a/output
I0714 21:53:14.112041 13325 net.cpp:91] Creating Layer inception_3a/output
I0714 21:53:14.112047 13325 net.cpp:425] inception_3a/output <- inception_3a/1x1
I0714 21:53:14.112056 13325 net.cpp:425] inception_3a/output <- inception_3a/3x3
I0714 21:53:14.112061 13325 net.cpp:425] inception_3a/output <- inception_3a/5x5
I0714 21:53:14.112066 13325 net.cpp:425] inception_3a/output <- inception_3a/pool_proj
I0714 21:53:14.112072 13325 net.cpp:399] inception_3a/output -> inception_3a/output
I0714 21:53:14.112102 13329 net.cpp:141] Setting up inception_3a/pool_proj
I0714 21:53:14.112118 13329 net.cpp:148] Top shape: 10 32 28 28 (250880)
I0714 21:53:14.112123 13329 net.cpp:156] Memory required for data: 232816640
I0714 21:53:14.112139 13329 layer_factory.hpp:77] Creating layer inception_3a/relu_pool_proj
I0714 21:53:14.112149 13329 net.cpp:91] Creating Layer inception_3a/relu_pool_proj
I0714 21:53:14.112149 13325 net.cpp:141] Setting up inception_3a/output
I0714 21:53:14.112154 13329 net.cpp:425] inception_3a/relu_pool_proj <- inception_3a/pool_proj
I0714 21:53:14.112160 13325 net.cpp:148] Top shape: 10 256 28 28 (2007040)
I0714 21:53:14.112162 13329 net.cpp:386] inception_3a/relu_pool_proj -> inception_3a/pool_proj (in-place)
I0714 21:53:14.112165 13325 net.cpp:156] Memory required for data: 241848320
I0714 21:53:14.112170 13325 layer_factory.hpp:77] Creating layer inception_3a/output_inception_3a/output_0_split
I0714 21:53:14.112180 13325 net.cpp:91] Creating Layer inception_3a/output_inception_3a/output_0_split
I0714 21:53:14.112185 13325 net.cpp:425] inception_3a/output_inception_3a/output_0_split <- inception_3a/output
I0714 21:53:14.112196 13325 net.cpp:399] inception_3a/output_inception_3a/output_0_split -> inception_3a/output_inception_3a/output_0_split_0
I0714 21:53:14.112206 13325 net.cpp:399] inception_3a/output_inception_3a/output_0_split -> inception_3a/output_inception_3a/output_0_split_1
I0714 21:53:14.112215 13325 net.cpp:399] inception_3a/output_inception_3a/output_0_split -> inception_3a/output_inception_3a/output_0_split_2
I0714 21:53:14.112223 13325 net.cpp:399] inception_3a/output_inception_3a/output_0_split -> inception_3a/output_inception_3a/output_0_split_3
I0714 21:53:14.113070 13325 net.cpp:141] Setting up inception_3a/output_inception_3a/output_0_split
I0714 21:53:14.113083 13325 net.cpp:148] Top shape: 10 256 28 28 (2007040)
I0714 21:53:14.113090 13325 net.cpp:148] Top shape: 10 256 28 28 (2007040)
I0714 21:53:14.113095 13325 net.cpp:148] Top shape: 10 256 28 28 (2007040)
I0714 21:53:14.113101 13325 net.cpp:148] Top shape: 10 256 28 28 (2007040)
I0714 21:53:14.113104 13325 net.cpp:156] Memory required for data: 273960960
I0714 21:53:14.113103 13329 net.cpp:141] Setting up inception_3a/relu_pool_proj
I0714 21:53:14.113111 13325 layer_factory.hpp:77] Creating layer inception_3b/1x1
I0714 21:53:14.113121 13329 net.cpp:148] Top shape: 10 32 28 28 (250880)
I0714 21:53:14.113126 13329 net.cpp:156] Memory required for data: 233820160
I0714 21:53:14.113128 13325 net.cpp:91] Creating Layer inception_3b/1x1
I0714 21:53:14.113132 13329 layer_factory.hpp:77] Creating layer inception_3a/output
I0714 21:53:14.113135 13325 net.cpp:425] inception_3b/1x1 <- inception_3a/output_inception_3a/output_0_split_0
I0714 21:53:14.113142 13329 net.cpp:91] Creating Layer inception_3a/output
I0714 21:53:14.113147 13329 net.cpp:425] inception_3a/output <- inception_3a/1x1
I0714 21:53:14.113148 13325 net.cpp:399] inception_3b/1x1 -> inception_3b/1x1
I0714 21:53:14.113153 13329 net.cpp:425] inception_3a/output <- inception_3a/3x3
I0714 21:53:14.113159 13329 net.cpp:425] inception_3a/output <- inception_3a/5x5
I0714 21:53:14.113164 13329 net.cpp:425] inception_3a/output <- inception_3a/pool_proj
I0714 21:53:14.113171 13329 net.cpp:399] inception_3a/output -> inception_3a/output
I0714 21:53:14.113314 13329 net.cpp:141] Setting up inception_3a/output
I0714 21:53:14.113327 13329 net.cpp:148] Top shape: 10 256 28 28 (2007040)
I0714 21:53:14.113330 13329 net.cpp:156] Memory required for data: 241848320
I0714 21:53:14.113337 13329 layer_factory.hpp:77] Creating layer inception_3a/output_inception_3a/output_0_split
I0714 21:53:14.113344 13329 net.cpp:91] Creating Layer inception_3a/output_inception_3a/output_0_split
I0714 21:53:14.113349 13329 net.cpp:425] inception_3a/output_inception_3a/output_0_split <- inception_3a/output
I0714 21:53:14.113358 13329 net.cpp:399] inception_3a/output_inception_3a/output_0_split -> inception_3a/output_inception_3a/output_0_split_0
I0714 21:53:14.113370 13329 net.cpp:399] inception_3a/output_inception_3a/output_0_split -> inception_3a/output_inception_3a/output_0_split_1
I0714 21:53:14.113379 13329 net.cpp:399] inception_3a/output_inception_3a/output_0_split -> inception_3a/output_inception_3a/output_0_split_2
I0714 21:53:14.113387 13329 net.cpp:399] inception_3a/output_inception_3a/output_0_split -> inception_3a/output_inception_3a/output_0_split_3
I0714 21:53:14.113765 13329 net.cpp:141] Setting up inception_3a/output_inception_3a/output_0_split
I0714 21:53:14.113777 13329 net.cpp:148] Top shape: 10 256 28 28 (2007040)
I0714 21:53:14.113785 13329 net.cpp:148] Top shape: 10 256 28 28 (2007040)
I0714 21:53:14.113790 13329 net.cpp:148] Top shape: 10 256 28 28 (2007040)
I0714 21:53:14.113795 13329 net.cpp:148] Top shape: 10 256 28 28 (2007040)
I0714 21:53:14.113800 13329 net.cpp:156] Memory required for data: 273960960
I0714 21:53:14.113803 13329 layer_factory.hpp:77] Creating layer inception_3b/1x1
I0714 21:53:14.113818 13329 net.cpp:91] Creating Layer inception_3b/1x1
I0714 21:53:14.113824 13329 net.cpp:425] inception_3b/1x1 <- inception_3a/output_inception_3a/output_0_split_0
I0714 21:53:14.113837 13329 net.cpp:399] inception_3b/1x1 -> inception_3b/1x1
I0714 21:53:14.117986 13325 net.cpp:141] Setting up inception_3b/1x1
I0714 21:53:14.118005 13325 net.cpp:148] Top shape: 10 128 28 28 (1003520)
I0714 21:53:14.118011 13325 net.cpp:156] Memory required for data: 277975040
I0714 21:53:14.118021 13325 layer_factory.hpp:77] Creating layer inception_3b/relu_1x1
I0714 21:53:14.118043 13325 net.cpp:91] Creating Layer inception_3b/relu_1x1
I0714 21:53:14.118051 13325 net.cpp:425] inception_3b/relu_1x1 <- inception_3b/1x1
I0714 21:53:14.118062 13325 net.cpp:386] inception_3b/relu_1x1 -> inception_3b/1x1 (in-place)
I0714 21:53:14.118453 13325 net.cpp:141] Setting up inception_3b/relu_1x1
I0714 21:53:14.118466 13325 net.cpp:148] Top shape: 10 128 28 28 (1003520)
I0714 21:53:14.118471 13325 net.cpp:156] Memory required for data: 281989120
I0714 21:53:14.118477 13325 layer_factory.hpp:77] Creating layer inception_3b/3x3_reduce
I0714 21:53:14.118499 13325 net.cpp:91] Creating Layer inception_3b/3x3_reduce
I0714 21:53:14.118505 13325 net.cpp:425] inception_3b/3x3_reduce <- inception_3a/output_inception_3a/output_0_split_1
I0714 21:53:14.118517 13325 net.cpp:399] inception_3b/3x3_reduce -> inception_3b/3x3_reduce
I0714 21:53:14.118585 13329 net.cpp:141] Setting up inception_3b/1x1
I0714 21:53:14.118602 13329 net.cpp:148] Top shape: 10 128 28 28 (1003520)
I0714 21:53:14.118607 13329 net.cpp:156] Memory required for data: 277975040
I0714 21:53:14.118615 13329 layer_factory.hpp:77] Creating layer inception_3b/relu_1x1
I0714 21:53:14.118628 13329 net.cpp:91] Creating Layer inception_3b/relu_1x1
I0714 21:53:14.118635 13329 net.cpp:425] inception_3b/relu_1x1 <- inception_3b/1x1
I0714 21:53:14.118643 13329 net.cpp:386] inception_3b/relu_1x1 -> inception_3b/1x1 (in-place)
I0714 21:53:14.119042 13329 net.cpp:141] Setting up inception_3b/relu_1x1
I0714 21:53:14.119056 13329 net.cpp:148] Top shape: 10 128 28 28 (1003520)
I0714 21:53:14.119061 13329 net.cpp:156] Memory required for data: 281989120
I0714 21:53:14.119066 13329 layer_factory.hpp:77] Creating layer inception_3b/3x3_reduce
I0714 21:53:14.119083 13329 net.cpp:91] Creating Layer inception_3b/3x3_reduce
I0714 21:53:14.119091 13329 net.cpp:425] inception_3b/3x3_reduce <- inception_3a/output_inception_3a/output_0_split_1
I0714 21:53:14.119102 13329 net.cpp:399] inception_3b/3x3_reduce -> inception_3b/3x3_reduce
I0714 21:53:14.122869 13325 net.cpp:141] Setting up inception_3b/3x3_reduce
I0714 21:53:14.122890 13325 net.cpp:148] Top shape: 10 128 28 28 (1003520)
I0714 21:53:14.122896 13325 net.cpp:156] Memory required for data: 286003200
I0714 21:53:14.122907 13325 layer_factory.hpp:77] Creating layer inception_3b/relu_3x3_reduce
I0714 21:53:14.122920 13325 net.cpp:91] Creating Layer inception_3b/relu_3x3_reduce
I0714 21:53:14.122926 13325 net.cpp:425] inception_3b/relu_3x3_reduce <- inception_3b/3x3_reduce
I0714 21:53:14.122933 13325 net.cpp:386] inception_3b/relu_3x3_reduce -> inception_3b/3x3_reduce (in-place)
I0714 21:53:14.123265 13329 net.cpp:141] Setting up inception_3b/3x3_reduce
I0714 21:53:14.123282 13329 net.cpp:148] Top shape: 10 128 28 28 (1003520)
I0714 21:53:14.123288 13329 net.cpp:156] Memory required for data: 286003200
I0714 21:53:14.123297 13329 layer_factory.hpp:77] Creating layer inception_3b/relu_3x3_reduce
I0714 21:53:14.123302 13325 net.cpp:141] Setting up inception_3b/relu_3x3_reduce
I0714 21:53:14.123306 13329 net.cpp:91] Creating Layer inception_3b/relu_3x3_reduce
I0714 21:53:14.123319 13325 net.cpp:148] Top shape: 10 128 28 28 (1003520)
I0714 21:53:14.123322 13329 net.cpp:425] inception_3b/relu_3x3_reduce <- inception_3b/3x3_reduce
I0714 21:53:14.123324 13325 net.cpp:156] Memory required for data: 290017280
I0714 21:53:14.123329 13329 net.cpp:386] inception_3b/relu_3x3_reduce -> inception_3b/3x3_reduce (in-place)
I0714 21:53:14.123329 13325 layer_factory.hpp:77] Creating layer inception_3b/3x3
I0714 21:53:14.123349 13325 net.cpp:91] Creating Layer inception_3b/3x3
I0714 21:53:14.123355 13325 net.cpp:425] inception_3b/3x3 <- inception_3b/3x3_reduce
I0714 21:53:14.123369 13325 net.cpp:399] inception_3b/3x3 -> inception_3b/3x3
I0714 21:53:14.123764 13329 net.cpp:141] Setting up inception_3b/relu_3x3_reduce
I0714 21:53:14.123776 13329 net.cpp:148] Top shape: 10 128 28 28 (1003520)
I0714 21:53:14.123781 13329 net.cpp:156] Memory required for data: 290017280
I0714 21:53:14.123786 13329 layer_factory.hpp:77] Creating layer inception_3b/3x3
I0714 21:53:14.123802 13329 net.cpp:91] Creating Layer inception_3b/3x3
I0714 21:53:14.123808 13329 net.cpp:425] inception_3b/3x3 <- inception_3b/3x3_reduce
I0714 21:53:14.123831 13329 net.cpp:399] inception_3b/3x3 -> inception_3b/3x3
I0714 21:53:14.131721 13325 net.cpp:141] Setting up inception_3b/3x3
I0714 21:53:14.131742 13325 net.cpp:148] Top shape: 10 192 28 28 (1505280)
I0714 21:53:14.131748 13325 net.cpp:156] Memory required for data: 296038400
I0714 21:53:14.131758 13325 layer_factory.hpp:77] Creating layer inception_3b/relu_3x3
I0714 21:53:14.131780 13325 net.cpp:91] Creating Layer inception_3b/relu_3x3
I0714 21:53:14.131786 13325 net.cpp:425] inception_3b/relu_3x3 <- inception_3b/3x3
I0714 21:53:14.131794 13325 net.cpp:386] inception_3b/relu_3x3 -> inception_3b/3x3 (in-place)
I0714 21:53:14.132805 13325 net.cpp:141] Setting up inception_3b/relu_3x3
I0714 21:53:14.132822 13325 net.cpp:148] Top shape: 10 192 28 28 (1505280)
I0714 21:53:14.132827 13325 net.cpp:156] Memory required for data: 302059520
I0714 21:53:14.132833 13325 layer_factory.hpp:77] Creating layer inception_3b/5x5_reduce
I0714 21:53:14.132851 13325 net.cpp:91] Creating Layer inception_3b/5x5_reduce
I0714 21:53:14.132858 13325 net.cpp:425] inception_3b/5x5_reduce <- inception_3a/output_inception_3a/output_0_split_2
I0714 21:53:14.132872 13325 net.cpp:399] inception_3b/5x5_reduce -> inception_3b/5x5_reduce
I0714 21:53:14.132906 13329 net.cpp:141] Setting up inception_3b/3x3
I0714 21:53:14.132922 13329 net.cpp:148] Top shape: 10 192 28 28 (1505280)
I0714 21:53:14.132928 13329 net.cpp:156] Memory required for data: 296038400
I0714 21:53:14.132937 13329 layer_factory.hpp:77] Creating layer inception_3b/relu_3x3
I0714 21:53:14.132954 13329 net.cpp:91] Creating Layer inception_3b/relu_3x3
I0714 21:53:14.132961 13329 net.cpp:425] inception_3b/relu_3x3 <- inception_3b/3x3
I0714 21:53:14.132972 13329 net.cpp:386] inception_3b/relu_3x3 -> inception_3b/3x3 (in-place)
I0714 21:53:14.133957 13329 net.cpp:141] Setting up inception_3b/relu_3x3
I0714 21:53:14.133975 13329 net.cpp:148] Top shape: 10 192 28 28 (1505280)
I0714 21:53:14.133980 13329 net.cpp:156] Memory required for data: 302059520
I0714 21:53:14.133985 13329 layer_factory.hpp:77] Creating layer inception_3b/5x5_reduce
I0714 21:53:14.134001 13329 net.cpp:91] Creating Layer inception_3b/5x5_reduce
I0714 21:53:14.134007 13329 net.cpp:425] inception_3b/5x5_reduce <- inception_3a/output_inception_3a/output_0_split_2
I0714 21:53:14.134021 13329 net.cpp:399] inception_3b/5x5_reduce -> inception_3b/5x5_reduce
I0714 21:53:14.139750 13329 net.cpp:141] Setting up inception_3b/5x5_reduce
I0714 21:53:14.139770 13329 net.cpp:148] Top shape: 10 32 28 28 (250880)
I0714 21:53:14.139775 13329 net.cpp:156] Memory required for data: 303063040
I0714 21:53:14.139786 13329 layer_factory.hpp:77] Creating layer inception_3b/relu_5x5_reduce
I0714 21:53:14.139783 13325 net.cpp:141] Setting up inception_3b/5x5_reduce
I0714 21:53:14.139809 13329 net.cpp:91] Creating Layer inception_3b/relu_5x5_reduce
I0714 21:53:14.139839 13329 net.cpp:425] inception_3b/relu_5x5_reduce <- inception_3b/5x5_reduce
I0714 21:53:14.139847 13325 net.cpp:148] Top shape: 10 32 28 28 (250880)
I0714 21:53:14.139853 13329 net.cpp:386] inception_3b/relu_5x5_reduce -> inception_3b/5x5_reduce (in-place)
I0714 21:53:14.139864 13325 net.cpp:156] Memory required for data: 303063040
I0714 21:53:14.139889 13325 layer_factory.hpp:77] Creating layer inception_3b/relu_5x5_reduce
I0714 21:53:14.139912 13325 net.cpp:91] Creating Layer inception_3b/relu_5x5_reduce
I0714 21:53:14.139926 13325 net.cpp:425] inception_3b/relu_5x5_reduce <- inception_3b/5x5_reduce
I0714 21:53:14.139947 13325 net.cpp:386] inception_3b/relu_5x5_reduce -> inception_3b/5x5_reduce (in-place)
I0714 21:53:14.140251 13329 net.cpp:141] Setting up inception_3b/relu_5x5_reduce
I0714 21:53:14.140265 13329 net.cpp:148] Top shape: 10 32 28 28 (250880)
I0714 21:53:14.140270 13329 net.cpp:156] Memory required for data: 304066560
I0714 21:53:14.140275 13329 layer_factory.hpp:77] Creating layer inception_3b/5x5
I0714 21:53:14.140295 13329 net.cpp:91] Creating Layer inception_3b/5x5
I0714 21:53:14.140302 13329 net.cpp:425] inception_3b/5x5 <- inception_3b/5x5_reduce
I0714 21:53:14.140312 13329 net.cpp:399] inception_3b/5x5 -> inception_3b/5x5
I0714 21:53:14.140727 13325 net.cpp:141] Setting up inception_3b/relu_5x5_reduce
I0714 21:53:14.140753 13325 net.cpp:148] Top shape: 10 32 28 28 (250880)
I0714 21:53:14.140761 13325 net.cpp:156] Memory required for data: 304066560
I0714 21:53:14.140770 13325 layer_factory.hpp:77] Creating layer inception_3b/5x5
I0714 21:53:14.140811 13325 net.cpp:91] Creating Layer inception_3b/5x5
I0714 21:53:14.140823 13325 net.cpp:425] inception_3b/5x5 <- inception_3b/5x5_reduce
I0714 21:53:14.140841 13325 net.cpp:399] inception_3b/5x5 -> inception_3b/5x5
I0714 21:53:14.149147 13329 net.cpp:141] Setting up inception_3b/5x5
I0714 21:53:14.149171 13329 net.cpp:148] Top shape: 10 96 28 28 (752640)
I0714 21:53:14.149178 13329 net.cpp:156] Memory required for data: 307077120
I0714 21:53:14.149188 13329 layer_factory.hpp:77] Creating layer inception_3b/relu_5x5
I0714 21:53:14.149199 13329 net.cpp:91] Creating Layer inception_3b/relu_5x5
I0714 21:53:14.149204 13329 net.cpp:425] inception_3b/relu_5x5 <- inception_3b/5x5
I0714 21:53:14.149225 13329 net.cpp:386] inception_3b/relu_5x5 -> inception_3b/5x5 (in-place)
I0714 21:53:14.149649 13329 net.cpp:141] Setting up inception_3b/relu_5x5
I0714 21:53:14.149665 13329 net.cpp:148] Top shape: 10 96 28 28 (752640)
I0714 21:53:14.149670 13329 net.cpp:156] Memory required for data: 310087680
I0714 21:53:14.149675 13329 layer_factory.hpp:77] Creating layer inception_3b/pool
I0714 21:53:14.149685 13329 net.cpp:91] Creating Layer inception_3b/pool
I0714 21:53:14.149691 13329 net.cpp:425] inception_3b/pool <- inception_3a/output_inception_3a/output_0_split_3
I0714 21:53:14.149699 13329 net.cpp:399] inception_3b/pool -> inception_3b/pool
I0714 21:53:14.149750 13325 net.cpp:141] Setting up inception_3b/5x5
I0714 21:53:14.149777 13325 net.cpp:148] Top shape: 10 96 28 28 (752640)
I0714 21:53:14.149788 13325 net.cpp:156] Memory required for data: 307077120
I0714 21:53:14.149809 13325 layer_factory.hpp:77] Creating layer inception_3b/relu_5x5
I0714 21:53:14.149817 13329 net.cpp:141] Setting up inception_3b/pool
I0714 21:53:14.149828 13329 net.cpp:148] Top shape: 10 256 28 28 (2007040)
I0714 21:53:14.149827 13325 net.cpp:91] Creating Layer inception_3b/relu_5x5
I0714 21:53:14.149833 13329 net.cpp:156] Memory required for data: 318115840
I0714 21:53:14.149839 13329 layer_factory.hpp:77] Creating layer inception_3b/pool_proj
I0714 21:53:14.149844 13325 net.cpp:425] inception_3b/relu_5x5 <- inception_3b/5x5
I0714 21:53:14.149855 13329 net.cpp:91] Creating Layer inception_3b/pool_proj
I0714 21:53:14.149862 13329 net.cpp:425] inception_3b/pool_proj <- inception_3b/pool
I0714 21:53:14.149868 13325 net.cpp:386] inception_3b/relu_5x5 -> inception_3b/5x5 (in-place)
I0714 21:53:14.149874 13329 net.cpp:399] inception_3b/pool_proj -> inception_3b/pool_proj
I0714 21:53:14.150755 13325 net.cpp:141] Setting up inception_3b/relu_5x5
I0714 21:53:14.150782 13325 net.cpp:148] Top shape: 10 96 28 28 (752640)
I0714 21:53:14.150792 13325 net.cpp:156] Memory required for data: 310087680
I0714 21:53:14.150804 13325 layer_factory.hpp:77] Creating layer inception_3b/pool
I0714 21:53:14.150820 13325 net.cpp:91] Creating Layer inception_3b/pool
I0714 21:53:14.150833 13325 net.cpp:425] inception_3b/pool <- inception_3a/output_inception_3a/output_0_split_3
I0714 21:53:14.150851 13325 net.cpp:399] inception_3b/pool -> inception_3b/pool
I0714 21:53:14.151861 13325 net.cpp:141] Setting up inception_3b/pool
I0714 21:53:14.151880 13325 net.cpp:148] Top shape: 10 256 28 28 (2007040)
I0714 21:53:14.151885 13325 net.cpp:156] Memory required for data: 318115840
I0714 21:53:14.151891 13325 layer_factory.hpp:77] Creating layer inception_3b/pool_proj
I0714 21:53:14.151911 13325 net.cpp:91] Creating Layer inception_3b/pool_proj
I0714 21:53:14.151917 13325 net.cpp:425] inception_3b/pool_proj <- inception_3b/pool
I0714 21:53:14.151927 13325 net.cpp:399] inception_3b/pool_proj -> inception_3b/pool_proj
I0714 21:53:14.153820 13329 net.cpp:141] Setting up inception_3b/pool_proj
I0714 21:53:14.153844 13329 net.cpp:148] Top shape: 10 64 28 28 (501760)
I0714 21:53:14.153849 13329 net.cpp:156] Memory required for data: 320122880
I0714 21:53:14.153861 13329 layer_factory.hpp:77] Creating layer inception_3b/relu_pool_proj
I0714 21:53:14.153870 13329 net.cpp:91] Creating Layer inception_3b/relu_pool_proj
I0714 21:53:14.153877 13329 net.cpp:425] inception_3b/relu_pool_proj <- inception_3b/pool_proj
I0714 21:53:14.153887 13329 net.cpp:386] inception_3b/relu_pool_proj -> inception_3b/pool_proj (in-place)
I0714 21:53:14.155222 13329 net.cpp:141] Setting up inception_3b/relu_pool_proj
I0714 21:53:14.155241 13329 net.cpp:148] Top shape: 10 64 28 28 (501760)
I0714 21:53:14.155246 13329 net.cpp:156] Memory required for data: 322129920
I0714 21:53:14.155251 13329 layer_factory.hpp:77] Creating layer inception_3b/output
I0714 21:53:14.155261 13329 net.cpp:91] Creating Layer inception_3b/output
I0714 21:53:14.155267 13329 net.cpp:425] inception_3b/output <- inception_3b/1x1
I0714 21:53:14.155274 13329 net.cpp:425] inception_3b/output <- inception_3b/3x3
I0714 21:53:14.155280 13329 net.cpp:425] inception_3b/output <- inception_3b/5x5
I0714 21:53:14.155285 13329 net.cpp:425] inception_3b/output <- inception_3b/pool_proj
I0714 21:53:14.155295 13329 net.cpp:399] inception_3b/output -> inception_3b/output
I0714 21:53:14.155628 13329 net.cpp:141] Setting up inception_3b/output
I0714 21:53:14.155640 13329 net.cpp:148] Top shape: 10 480 28 28 (3763200)
I0714 21:53:14.155645 13329 net.cpp:156] Memory required for data: 337182720
I0714 21:53:14.155650 13329 layer_factory.hpp:77] Creating layer pool3/3x3_s2
I0714 21:53:14.155661 13329 net.cpp:91] Creating Layer pool3/3x3_s2
I0714 21:53:14.155666 13329 net.cpp:425] pool3/3x3_s2 <- inception_3b/output
I0714 21:53:14.155674 13329 net.cpp:399] pool3/3x3_s2 -> pool3/3x3_s2
I0714 21:53:14.156008 13329 net.cpp:141] Setting up pool3/3x3_s2
I0714 21:53:14.156024 13329 net.cpp:148] Top shape: 10 480 14 14 (940800)
I0714 21:53:14.156028 13329 net.cpp:156] Memory required for data: 340945920
I0714 21:53:14.156033 13329 layer_factory.hpp:77] Creating layer pool3/3x3_s2_pool3/3x3_s2_0_split
I0714 21:53:14.156043 13329 net.cpp:91] Creating Layer pool3/3x3_s2_pool3/3x3_s2_0_split
I0714 21:53:14.156049 13329 net.cpp:425] pool3/3x3_s2_pool3/3x3_s2_0_split <- pool3/3x3_s2
I0714 21:53:14.156055 13329 net.cpp:399] pool3/3x3_s2_pool3/3x3_s2_0_split -> pool3/3x3_s2_pool3/3x3_s2_0_split_0
I0714 21:53:14.156064 13329 net.cpp:399] pool3/3x3_s2_pool3/3x3_s2_0_split -> pool3/3x3_s2_pool3/3x3_s2_0_split_1
I0714 21:53:14.156075 13329 net.cpp:399] pool3/3x3_s2_pool3/3x3_s2_0_split -> pool3/3x3_s2_pool3/3x3_s2_0_split_2
I0714 21:53:14.156085 13329 net.cpp:399] pool3/3x3_s2_pool3/3x3_s2_0_split -> pool3/3x3_s2_pool3/3x3_s2_0_split_3
I0714 21:53:14.156435 13329 net.cpp:141] Setting up pool3/3x3_s2_pool3/3x3_s2_0_split
I0714 21:53:14.156447 13329 net.cpp:148] Top shape: 10 480 14 14 (940800)
I0714 21:53:14.156453 13329 net.cpp:148] Top shape: 10 480 14 14 (940800)
I0714 21:53:14.156460 13329 net.cpp:148] Top shape: 10 480 14 14 (940800)
I0714 21:53:14.156464 13329 net.cpp:148] Top shape: 10 480 14 14 (940800)
I0714 21:53:14.156468 13329 net.cpp:156] Memory required for data: 355998720
I0714 21:53:14.156473 13329 layer_factory.hpp:77] Creating layer inception_4a/1x1
I0714 21:53:14.156491 13329 net.cpp:91] Creating Layer inception_4a/1x1
I0714 21:53:14.156497 13329 net.cpp:425] inception_4a/1x1 <- pool3/3x3_s2_pool3/3x3_s2_0_split_0
I0714 21:53:14.156507 13329 net.cpp:399] inception_4a/1x1 -> inception_4a/1x1
I0714 21:53:14.156637 13325 net.cpp:141] Setting up inception_3b/pool_proj
I0714 21:53:14.156657 13325 net.cpp:148] Top shape: 10 64 28 28 (501760)
I0714 21:53:14.156662 13325 net.cpp:156] Memory required for data: 320122880
I0714 21:53:14.156674 13325 layer_factory.hpp:77] Creating layer inception_3b/relu_pool_proj
I0714 21:53:14.156683 13325 net.cpp:91] Creating Layer inception_3b/relu_pool_proj
I0714 21:53:14.156690 13325 net.cpp:425] inception_3b/relu_pool_proj <- inception_3b/pool_proj
I0714 21:53:14.156700 13325 net.cpp:386] inception_3b/relu_pool_proj -> inception_3b/pool_proj (in-place)
I0714 21:53:14.157742 13325 net.cpp:141] Setting up inception_3b/relu_pool_proj
I0714 21:53:14.157758 13325 net.cpp:148] Top shape: 10 64 28 28 (501760)
I0714 21:53:14.157763 13325 net.cpp:156] Memory required for data: 322129920
I0714 21:53:14.157769 13325 layer_factory.hpp:77] Creating layer inception_3b/output
I0714 21:53:14.157783 13325 net.cpp:91] Creating Layer inception_3b/output
I0714 21:53:14.157788 13325 net.cpp:425] inception_3b/output <- inception_3b/1x1
I0714 21:53:14.157796 13325 net.cpp:425] inception_3b/output <- inception_3b/3x3
I0714 21:53:14.157802 13325 net.cpp:425] inception_3b/output <- inception_3b/5x5
I0714 21:53:14.157809 13325 net.cpp:425] inception_3b/output <- inception_3b/pool_proj
I0714 21:53:14.157815 13325 net.cpp:399] inception_3b/output -> inception_3b/output
I0714 21:53:14.157888 13325 net.cpp:141] Setting up inception_3b/output
I0714 21:53:14.157899 13325 net.cpp:148] Top shape: 10 480 28 28 (3763200)
I0714 21:53:14.157904 13325 net.cpp:156] Memory required for data: 337182720
I0714 21:53:14.157909 13325 layer_factory.hpp:77] Creating layer pool3/3x3_s2
I0714 21:53:14.157920 13325 net.cpp:91] Creating Layer pool3/3x3_s2
I0714 21:53:14.157927 13325 net.cpp:425] pool3/3x3_s2 <- inception_3b/output
I0714 21:53:14.157933 13325 net.cpp:399] pool3/3x3_s2 -> pool3/3x3_s2
I0714 21:53:14.158043 13325 net.cpp:141] Setting up pool3/3x3_s2
I0714 21:53:14.158056 13325 net.cpp:148] Top shape: 10 480 14 14 (940800)
I0714 21:53:14.158059 13325 net.cpp:156] Memory required for data: 340945920
I0714 21:53:14.158064 13325 layer_factory.hpp:77] Creating layer pool3/3x3_s2_pool3/3x3_s2_0_split
I0714 21:53:14.158073 13325 net.cpp:91] Creating Layer pool3/3x3_s2_pool3/3x3_s2_0_split
I0714 21:53:14.158078 13325 net.cpp:425] pool3/3x3_s2_pool3/3x3_s2_0_split <- pool3/3x3_s2
I0714 21:53:14.158085 13325 net.cpp:399] pool3/3x3_s2_pool3/3x3_s2_0_split -> pool3/3x3_s2_pool3/3x3_s2_0_split_0
I0714 21:53:14.158098 13325 net.cpp:399] pool3/3x3_s2_pool3/3x3_s2_0_split -> pool3/3x3_s2_pool3/3x3_s2_0_split_1
I0714 21:53:14.158107 13325 net.cpp:399] pool3/3x3_s2_pool3/3x3_s2_0_split -> pool3/3x3_s2_pool3/3x3_s2_0_split_2
I0714 21:53:14.158115 13325 net.cpp:399] pool3/3x3_s2_pool3/3x3_s2_0_split -> pool3/3x3_s2_pool3/3x3_s2_0_split_3
I0714 21:53:14.158277 13325 net.cpp:141] Setting up pool3/3x3_s2_pool3/3x3_s2_0_split
I0714 21:53:14.158288 13325 net.cpp:148] Top shape: 10 480 14 14 (940800)
I0714 21:53:14.158293 13325 net.cpp:148] Top shape: 10 480 14 14 (940800)
I0714 21:53:14.158298 13325 net.cpp:148] Top shape: 10 480 14 14 (940800)
I0714 21:53:14.158304 13325 net.cpp:148] Top shape: 10 480 14 14 (940800)
I0714 21:53:14.158308 13325 net.cpp:156] Memory required for data: 355998720
I0714 21:53:14.158313 13325 layer_factory.hpp:77] Creating layer inception_4a/1x1
I0714 21:53:14.158329 13325 net.cpp:91] Creating Layer inception_4a/1x1
I0714 21:53:14.158334 13325 net.cpp:425] inception_4a/1x1 <- pool3/3x3_s2_pool3/3x3_s2_0_split_0
I0714 21:53:14.158347 13325 net.cpp:399] inception_4a/1x1 -> inception_4a/1x1
I0714 21:53:14.163628 13329 net.cpp:141] Setting up inception_4a/1x1
I0714 21:53:14.163651 13329 net.cpp:148] Top shape: 10 192 14 14 (376320)
I0714 21:53:14.163657 13329 net.cpp:156] Memory required for data: 357504000
I0714 21:53:14.163667 13329 layer_factory.hpp:77] Creating layer inception_4a/relu_1x1
I0714 21:53:14.163677 13329 net.cpp:91] Creating Layer inception_4a/relu_1x1
I0714 21:53:14.163683 13329 net.cpp:425] inception_4a/relu_1x1 <- inception_4a/1x1
I0714 21:53:14.163692 13329 net.cpp:386] inception_4a/relu_1x1 -> inception_4a/1x1 (in-place)
I0714 21:53:14.164124 13329 net.cpp:141] Setting up inception_4a/relu_1x1
I0714 21:53:14.164137 13329 net.cpp:148] Top shape: 10 192 14 14 (376320)
I0714 21:53:14.164142 13329 net.cpp:156] Memory required for data: 359009280
I0714 21:53:14.164139 13325 net.cpp:141] Setting up inception_4a/1x1
I0714 21:53:14.164149 13329 layer_factory.hpp:77] Creating layer inception_4a/3x3_reduce
I0714 21:53:14.164156 13325 net.cpp:148] Top shape: 10 192 14 14 (376320)
I0714 21:53:14.164162 13325 net.cpp:156] Memory required for data: 357504000
I0714 21:53:14.164165 13329 net.cpp:91] Creating Layer inception_4a/3x3_reduce
I0714 21:53:14.164172 13329 net.cpp:425] inception_4a/3x3_reduce <- pool3/3x3_s2_pool3/3x3_s2_0_split_1
I0714 21:53:14.164173 13325 layer_factory.hpp:77] Creating layer inception_4a/relu_1x1
I0714 21:53:14.164183 13325 net.cpp:91] Creating Layer inception_4a/relu_1x1
I0714 21:53:14.164186 13329 net.cpp:399] inception_4a/3x3_reduce -> inception_4a/3x3_reduce
I0714 21:53:14.164189 13325 net.cpp:425] inception_4a/relu_1x1 <- inception_4a/1x1
I0714 21:53:14.164197 13325 net.cpp:386] inception_4a/relu_1x1 -> inception_4a/1x1 (in-place)
I0714 21:53:14.164664 13325 net.cpp:141] Setting up inception_4a/relu_1x1
I0714 21:53:14.164676 13325 net.cpp:148] Top shape: 10 192 14 14 (376320)
I0714 21:53:14.164681 13325 net.cpp:156] Memory required for data: 359009280
I0714 21:53:14.164686 13325 layer_factory.hpp:77] Creating layer inception_4a/3x3_reduce
I0714 21:53:14.164705 13325 net.cpp:91] Creating Layer inception_4a/3x3_reduce
I0714 21:53:14.164710 13325 net.cpp:425] inception_4a/3x3_reduce <- pool3/3x3_s2_pool3/3x3_s2_0_split_1
I0714 21:53:14.164724 13325 net.cpp:399] inception_4a/3x3_reduce -> inception_4a/3x3_reduce
I0714 21:53:14.168786 13329 net.cpp:141] Setting up inception_4a/3x3_reduce
I0714 21:53:14.168804 13329 net.cpp:148] Top shape: 10 96 14 14 (188160)
I0714 21:53:14.168809 13329 net.cpp:156] Memory required for data: 359761920
I0714 21:53:14.168833 13329 layer_factory.hpp:77] Creating layer inception_4a/relu_3x3_reduce
I0714 21:53:14.168843 13329 net.cpp:91] Creating Layer inception_4a/relu_3x3_reduce
I0714 21:53:14.168849 13329 net.cpp:425] inception_4a/relu_3x3_reduce <- inception_4a/3x3_reduce
I0714 21:53:14.168858 13329 net.cpp:386] inception_4a/relu_3x3_reduce -> inception_4a/3x3_reduce (in-place)
I0714 21:53:14.169191 13325 net.cpp:141] Setting up inception_4a/3x3_reduce
I0714 21:53:14.169208 13325 net.cpp:148] Top shape: 10 96 14 14 (188160)
I0714 21:53:14.169214 13325 net.cpp:156] Memory required for data: 359761920
I0714 21:53:14.169224 13329 net.cpp:141] Setting up inception_4a/relu_3x3_reduce
I0714 21:53:14.169234 13325 layer_factory.hpp:77] Creating layer inception_4a/relu_3x3_reduce
I0714 21:53:14.169236 13329 net.cpp:148] Top shape: 10 96 14 14 (188160)
I0714 21:53:14.169241 13329 net.cpp:156] Memory required for data: 360514560
I0714 21:53:14.169244 13325 net.cpp:91] Creating Layer inception_4a/relu_3x3_reduce
I0714 21:53:14.169246 13329 layer_factory.hpp:77] Creating layer inception_4a/3x3
I0714 21:53:14.169250 13325 net.cpp:425] inception_4a/relu_3x3_reduce <- inception_4a/3x3_reduce
I0714 21:53:14.169257 13325 net.cpp:386] inception_4a/relu_3x3_reduce -> inception_4a/3x3_reduce (in-place)
I0714 21:53:14.169265 13329 net.cpp:91] Creating Layer inception_4a/3x3
I0714 21:53:14.169272 13329 net.cpp:425] inception_4a/3x3 <- inception_4a/3x3_reduce
I0714 21:53:14.169286 13329 net.cpp:399] inception_4a/3x3 -> inception_4a/3x3
I0714 21:53:14.169669 13325 net.cpp:141] Setting up inception_4a/relu_3x3_reduce
I0714 21:53:14.169683 13325 net.cpp:148] Top shape: 10 96 14 14 (188160)
I0714 21:53:14.169687 13325 net.cpp:156] Memory required for data: 360514560
I0714 21:53:14.169693 13325 layer_factory.hpp:77] Creating layer inception_4a/3x3
I0714 21:53:14.169710 13325 net.cpp:91] Creating Layer inception_4a/3x3
I0714 21:53:14.169718 13325 net.cpp:425] inception_4a/3x3 <- inception_4a/3x3_reduce
I0714 21:53:14.169731 13325 net.cpp:399] inception_4a/3x3 -> inception_4a/3x3
I0714 21:53:14.177436 13329 net.cpp:141] Setting up inception_4a/3x3
I0714 21:53:14.177459 13329 net.cpp:148] Top shape: 10 208 14 14 (407680)
I0714 21:53:14.177464 13329 net.cpp:156] Memory required for data: 362145280
I0714 21:53:14.177474 13329 layer_factory.hpp:77] Creating layer inception_4a/relu_3x3
I0714 21:53:14.177484 13329 net.cpp:91] Creating Layer inception_4a/relu_3x3
I0714 21:53:14.177490 13329 net.cpp:425] inception_4a/relu_3x3 <- inception_4a/3x3
I0714 21:53:14.177500 13329 net.cpp:386] inception_4a/relu_3x3 -> inception_4a/3x3 (in-place)
I0714 21:53:14.178527 13329 net.cpp:141] Setting up inception_4a/relu_3x3
I0714 21:53:14.178544 13329 net.cpp:148] Top shape: 10 208 14 14 (407680)
I0714 21:53:14.178550 13329 net.cpp:156] Memory required for data: 363776000
I0714 21:53:14.178555 13329 layer_factory.hpp:77] Creating layer inception_4a/5x5_reduce
I0714 21:53:14.178571 13329 net.cpp:91] Creating Layer inception_4a/5x5_reduce
I0714 21:53:14.178578 13329 net.cpp:425] inception_4a/5x5_reduce <- pool3/3x3_s2_pool3/3x3_s2_0_split_2
I0714 21:53:14.178592 13329 net.cpp:399] inception_4a/5x5_reduce -> inception_4a/5x5_reduce
I0714 21:53:14.178632 13325 net.cpp:141] Setting up inception_4a/3x3
I0714 21:53:14.178649 13325 net.cpp:148] Top shape: 10 208 14 14 (407680)
I0714 21:53:14.178654 13325 net.cpp:156] Memory required for data: 362145280
I0714 21:53:14.178664 13325 layer_factory.hpp:77] Creating layer inception_4a/relu_3x3
I0714 21:53:14.178676 13325 net.cpp:91] Creating Layer inception_4a/relu_3x3
I0714 21:53:14.178683 13325 net.cpp:425] inception_4a/relu_3x3 <- inception_4a/3x3
I0714 21:53:14.178705 13325 net.cpp:386] inception_4a/relu_3x3 -> inception_4a/3x3 (in-place)
I0714 21:53:14.179759 13325 net.cpp:141] Setting up inception_4a/relu_3x3
I0714 21:53:14.179776 13325 net.cpp:148] Top shape: 10 208 14 14 (407680)
I0714 21:53:14.179781 13325 net.cpp:156] Memory required for data: 363776000
I0714 21:53:14.179787 13325 layer_factory.hpp:77] Creating layer inception_4a/5x5_reduce
I0714 21:53:14.179806 13325 net.cpp:91] Creating Layer inception_4a/5x5_reduce
I0714 21:53:14.179813 13325 net.cpp:425] inception_4a/5x5_reduce <- pool3/3x3_s2_pool3/3x3_s2_0_split_2
I0714 21:53:14.179827 13325 net.cpp:399] inception_4a/5x5_reduce -> inception_4a/5x5_reduce
I0714 21:53:14.184092 13329 net.cpp:141] Setting up inception_4a/5x5_reduce
I0714 21:53:14.184110 13329 net.cpp:148] Top shape: 10 16 14 14 (31360)
I0714 21:53:14.184116 13329 net.cpp:156] Memory required for data: 363901440
I0714 21:53:14.184126 13329 layer_factory.hpp:77] Creating layer inception_4a/relu_5x5_reduce
I0714 21:53:14.184139 13329 net.cpp:91] Creating Layer inception_4a/relu_5x5_reduce
I0714 21:53:14.184144 13329 net.cpp:425] inception_4a/relu_5x5_reduce <- inception_4a/5x5_reduce
I0714 21:53:14.184152 13329 net.cpp:386] inception_4a/relu_5x5_reduce -> inception_4a/5x5_reduce (in-place)
I0714 21:53:14.184576 13329 net.cpp:141] Setting up inception_4a/relu_5x5_reduce
I0714 21:53:14.184592 13329 net.cpp:148] Top shape: 10 16 14 14 (31360)
I0714 21:53:14.184597 13329 net.cpp:156] Memory required for data: 364026880
I0714 21:53:14.184602 13329 layer_factory.hpp:77] Creating layer inception_4a/5x5
I0714 21:53:14.184622 13329 net.cpp:91] Creating Layer inception_4a/5x5
I0714 21:53:14.184628 13329 net.cpp:425] inception_4a/5x5 <- inception_4a/5x5_reduce
I0714 21:53:14.184638 13329 net.cpp:399] inception_4a/5x5 -> inception_4a/5x5
I0714 21:53:14.184713 13325 net.cpp:141] Setting up inception_4a/5x5_reduce
I0714 21:53:14.184729 13325 net.cpp:148] Top shape: 10 16 14 14 (31360)
I0714 21:53:14.184737 13325 net.cpp:156] Memory required for data: 363901440
I0714 21:53:14.184747 13325 layer_factory.hpp:77] Creating layer inception_4a/relu_5x5_reduce
I0714 21:53:14.184756 13325 net.cpp:91] Creating Layer inception_4a/relu_5x5_reduce
I0714 21:53:14.184762 13325 net.cpp:425] inception_4a/relu_5x5_reduce <- inception_4a/5x5_reduce
I0714 21:53:14.184770 13325 net.cpp:386] inception_4a/relu_5x5_reduce -> inception_4a/5x5_reduce (in-place)
I0714 21:53:14.185215 13325 net.cpp:141] Setting up inception_4a/relu_5x5_reduce
I0714 21:53:14.185228 13325 net.cpp:148] Top shape: 10 16 14 14 (31360)
I0714 21:53:14.185233 13325 net.cpp:156] Memory required for data: 364026880
I0714 21:53:14.185241 13325 layer_factory.hpp:77] Creating layer inception_4a/5x5
I0714 21:53:14.185259 13325 net.cpp:91] Creating Layer inception_4a/5x5
I0714 21:53:14.185266 13325 net.cpp:425] inception_4a/5x5 <- inception_4a/5x5_reduce
I0714 21:53:14.185279 13325 net.cpp:399] inception_4a/5x5 -> inception_4a/5x5
I0714 21:53:14.188841 13329 net.cpp:141] Setting up inception_4a/5x5
I0714 21:53:14.188861 13329 net.cpp:148] Top shape: 10 48 14 14 (94080)
I0714 21:53:14.188868 13329 net.cpp:156] Memory required for data: 364403200
I0714 21:53:14.188876 13329 layer_factory.hpp:77] Creating layer inception_4a/relu_5x5
I0714 21:53:14.188885 13329 net.cpp:91] Creating Layer inception_4a/relu_5x5
I0714 21:53:14.188891 13329 net.cpp:425] inception_4a/relu_5x5 <- inception_4a/5x5
I0714 21:53:14.188899 13329 net.cpp:386] inception_4a/relu_5x5 -> inception_4a/5x5 (in-place)
I0714 21:53:14.189224 13329 net.cpp:141] Setting up inception_4a/relu_5x5
I0714 21:53:14.189236 13329 net.cpp:148] Top shape: 10 48 14 14 (94080)
I0714 21:53:14.189241 13329 net.cpp:156] Memory required for data: 364779520
I0714 21:53:14.189254 13329 layer_factory.hpp:77] Creating layer inception_4a/pool
I0714 21:53:14.189265 13329 net.cpp:91] Creating Layer inception_4a/pool
I0714 21:53:14.189271 13329 net.cpp:425] inception_4a/pool <- pool3/3x3_s2_pool3/3x3_s2_0_split_3
I0714 21:53:14.189280 13329 net.cpp:399] inception_4a/pool -> inception_4a/pool
I0714 21:53:14.189813 13329 net.cpp:141] Setting up inception_4a/pool
I0714 21:53:14.189827 13329 net.cpp:148] Top shape: 10 480 14 14 (940800)
I0714 21:53:14.189832 13329 net.cpp:156] Memory required for data: 368542720
I0714 21:53:14.189837 13329 layer_factory.hpp:77] Creating layer inception_4a/pool_proj
I0714 21:53:14.189853 13329 net.cpp:91] Creating Layer inception_4a/pool_proj
I0714 21:53:14.189860 13329 net.cpp:425] inception_4a/pool_proj <- inception_4a/pool
I0714 21:53:14.189877 13329 net.cpp:399] inception_4a/pool_proj -> inception_4a/pool_proj
I0714 21:53:14.190534 13325 net.cpp:141] Setting up inception_4a/5x5
I0714 21:53:14.190552 13325 net.cpp:148] Top shape: 10 48 14 14 (94080)
I0714 21:53:14.190557 13325 net.cpp:156] Memory required for data: 364403200
I0714 21:53:14.190567 13325 layer_factory.hpp:77] Creating layer inception_4a/relu_5x5
I0714 21:53:14.190577 13325 net.cpp:91] Creating Layer inception_4a/relu_5x5
I0714 21:53:14.190583 13325 net.cpp:425] inception_4a/relu_5x5 <- inception_4a/5x5
I0714 21:53:14.190595 13325 net.cpp:386] inception_4a/relu_5x5 -> inception_4a/5x5 (in-place)
I0714 21:53:14.190958 13325 net.cpp:141] Setting up inception_4a/relu_5x5
I0714 21:53:14.190980 13325 net.cpp:148] Top shape: 10 48 14 14 (94080)
I0714 21:53:14.190985 13325 net.cpp:156] Memory required for data: 364779520
I0714 21:53:14.190991 13325 layer_factory.hpp:77] Creating layer inception_4a/pool
I0714 21:53:14.191001 13325 net.cpp:91] Creating Layer inception_4a/pool
I0714 21:53:14.191007 13325 net.cpp:425] inception_4a/pool <- pool3/3x3_s2_pool3/3x3_s2_0_split_3
I0714 21:53:14.191016 13325 net.cpp:399] inception_4a/pool -> inception_4a/pool
I0714 21:53:14.191138 13325 net.cpp:141] Setting up inception_4a/pool
I0714 21:53:14.191149 13325 net.cpp:148] Top shape: 10 480 14 14 (940800)
I0714 21:53:14.191154 13325 net.cpp:156] Memory required for data: 368542720
I0714 21:53:14.191159 13325 layer_factory.hpp:77] Creating layer inception_4a/pool_proj
I0714 21:53:14.191175 13325 net.cpp:91] Creating Layer inception_4a/pool_proj
I0714 21:53:14.191181 13325 net.cpp:425] inception_4a/pool_proj <- inception_4a/pool
I0714 21:53:14.191195 13325 net.cpp:399] inception_4a/pool_proj -> inception_4a/pool_proj
I0714 21:53:14.194790 13329 net.cpp:141] Setting up inception_4a/pool_proj
I0714 21:53:14.194810 13329 net.cpp:148] Top shape: 10 64 14 14 (125440)
I0714 21:53:14.194815 13329 net.cpp:156] Memory required for data: 369044480
I0714 21:53:14.194824 13329 layer_factory.hpp:77] Creating layer inception_4a/relu_pool_proj
I0714 21:53:14.194839 13329 net.cpp:91] Creating Layer inception_4a/relu_pool_proj
I0714 21:53:14.194845 13329 net.cpp:425] inception_4a/relu_pool_proj <- inception_4a/pool_proj
I0714 21:53:14.194854 13329 net.cpp:386] inception_4a/relu_pool_proj -> inception_4a/pool_proj (in-place)
I0714 21:53:14.196344 13329 net.cpp:141] Setting up inception_4a/relu_pool_proj
I0714 21:53:14.196360 13329 net.cpp:148] Top shape: 10 64 14 14 (125440)
I0714 21:53:14.196365 13329 net.cpp:156] Memory required for data: 369546240
I0714 21:53:14.196372 13329 layer_factory.hpp:77] Creating layer inception_4a/output
I0714 21:53:14.196382 13329 net.cpp:91] Creating Layer inception_4a/output
I0714 21:53:14.196389 13329 net.cpp:425] inception_4a/output <- inception_4a/1x1
I0714 21:53:14.196396 13329 net.cpp:425] inception_4a/output <- inception_4a/3x3
I0714 21:53:14.196401 13329 net.cpp:425] inception_4a/output <- inception_4a/5x5
I0714 21:53:14.196408 13329 net.cpp:425] inception_4a/output <- inception_4a/pool_proj
I0714 21:53:14.196414 13329 net.cpp:399] inception_4a/output -> inception_4a/output
I0714 21:53:14.196449 13325 net.cpp:141] Setting up inception_4a/pool_proj
I0714 21:53:14.196467 13325 net.cpp:148] Top shape: 10 64 14 14 (125440)
I0714 21:53:14.196473 13325 net.cpp:156] Memory required for data: 369044480
I0714 21:53:14.196483 13325 layer_factory.hpp:77] Creating layer inception_4a/relu_pool_proj
I0714 21:53:14.196493 13325 net.cpp:91] Creating Layer inception_4a/relu_pool_proj
I0714 21:53:14.196494 13329 net.cpp:141] Setting up inception_4a/output
I0714 21:53:14.196499 13325 net.cpp:425] inception_4a/relu_pool_proj <- inception_4a/pool_proj
I0714 21:53:14.196507 13325 net.cpp:386] inception_4a/relu_pool_proj -> inception_4a/pool_proj (in-place)
I0714 21:53:14.196513 13329 net.cpp:148] Top shape: 10 512 14 14 (1003520)
I0714 21:53:14.196517 13329 net.cpp:156] Memory required for data: 373560320
I0714 21:53:14.196523 13329 layer_factory.hpp:77] Creating layer inception_4a/output_inception_4a/output_0_split
I0714 21:53:14.196532 13329 net.cpp:91] Creating Layer inception_4a/output_inception_4a/output_0_split
I0714 21:53:14.196537 13329 net.cpp:425] inception_4a/output_inception_4a/output_0_split <- inception_4a/output
I0714 21:53:14.196544 13329 net.cpp:399] inception_4a/output_inception_4a/output_0_split -> inception_4a/output_inception_4a/output_0_split_0
I0714 21:53:14.196553 13329 net.cpp:399] inception_4a/output_inception_4a/output_0_split -> inception_4a/output_inception_4a/output_0_split_1
I0714 21:53:14.196565 13329 net.cpp:399] inception_4a/output_inception_4a/output_0_split -> inception_4a/output_inception_4a/output_0_split_2
I0714 21:53:14.196575 13329 net.cpp:399] inception_4a/output_inception_4a/output_0_split -> inception_4a/output_inception_4a/output_0_split_3
I0714 21:53:14.197455 13329 net.cpp:141] Setting up inception_4a/output_inception_4a/output_0_split
I0714 21:53:14.197470 13329 net.cpp:148] Top shape: 10 512 14 14 (1003520)
I0714 21:53:14.197477 13329 net.cpp:148] Top shape: 10 512 14 14 (1003520)
I0714 21:53:14.197482 13329 net.cpp:148] Top shape: 10 512 14 14 (1003520)
I0714 21:53:14.197487 13329 net.cpp:148] Top shape: 10 512 14 14 (1003520)
I0714 21:53:14.197491 13329 net.cpp:156] Memory required for data: 389616640
I0714 21:53:14.197496 13329 layer_factory.hpp:77] Creating layer inception_4b/1x1
I0714 21:53:14.197491 13325 net.cpp:141] Setting up inception_4a/relu_pool_proj
I0714 21:53:14.197510 13325 net.cpp:148] Top shape: 10 64 14 14 (125440)
I0714 21:53:14.197512 13329 net.cpp:91] Creating Layer inception_4b/1x1
I0714 21:53:14.197515 13325 net.cpp:156] Memory required for data: 369546240
I0714 21:53:14.197520 13329 net.cpp:425] inception_4b/1x1 <- inception_4a/output_inception_4a/output_0_split_0
I0714 21:53:14.197521 13325 layer_factory.hpp:77] Creating layer inception_4a/output
I0714 21:53:14.197528 13329 net.cpp:399] inception_4b/1x1 -> inception_4b/1x1
I0714 21:53:14.197531 13325 net.cpp:91] Creating Layer inception_4a/output
I0714 21:53:14.197537 13325 net.cpp:425] inception_4a/output <- inception_4a/1x1
I0714 21:53:14.197545 13325 net.cpp:425] inception_4a/output <- inception_4a/3x3
I0714 21:53:14.197551 13325 net.cpp:425] inception_4a/output <- inception_4a/5x5
I0714 21:53:14.197556 13325 net.cpp:425] inception_4a/output <- inception_4a/pool_proj
I0714 21:53:14.197561 13325 net.cpp:399] inception_4a/output -> inception_4a/output
I0714 21:53:14.197732 13325 net.cpp:141] Setting up inception_4a/output
I0714 21:53:14.197744 13325 net.cpp:148] Top shape: 10 512 14 14 (1003520)
I0714 21:53:14.197749 13325 net.cpp:156] Memory required for data: 373560320
I0714 21:53:14.197754 13325 layer_factory.hpp:77] Creating layer inception_4a/output_inception_4a/output_0_split
I0714 21:53:14.197765 13325 net.cpp:91] Creating Layer inception_4a/output_inception_4a/output_0_split
I0714 21:53:14.197770 13325 net.cpp:425] inception_4a/output_inception_4a/output_0_split <- inception_4a/output
I0714 21:53:14.197782 13325 net.cpp:399] inception_4a/output_inception_4a/output_0_split -> inception_4a/output_inception_4a/output_0_split_0
I0714 21:53:14.197793 13325 net.cpp:399] inception_4a/output_inception_4a/output_0_split -> inception_4a/output_inception_4a/output_0_split_1
I0714 21:53:14.197801 13325 net.cpp:399] inception_4a/output_inception_4a/output_0_split -> inception_4a/output_inception_4a/output_0_split_2
I0714 21:53:14.197809 13325 net.cpp:399] inception_4a/output_inception_4a/output_0_split -> inception_4a/output_inception_4a/output_0_split_3
I0714 21:53:14.198220 13325 net.cpp:141] Setting up inception_4a/output_inception_4a/output_0_split
I0714 21:53:14.198231 13325 net.cpp:148] Top shape: 10 512 14 14 (1003520)
I0714 21:53:14.198237 13325 net.cpp:148] Top shape: 10 512 14 14 (1003520)
I0714 21:53:14.198242 13325 net.cpp:148] Top shape: 10 512 14 14 (1003520)
I0714 21:53:14.198248 13325 net.cpp:148] Top shape: 10 512 14 14 (1003520)
I0714 21:53:14.198252 13325 net.cpp:156] Memory required for data: 389616640
I0714 21:53:14.198257 13325 layer_factory.hpp:77] Creating layer inception_4b/1x1
I0714 21:53:14.198273 13325 net.cpp:91] Creating Layer inception_4b/1x1
I0714 21:53:14.198279 13325 net.cpp:425] inception_4b/1x1 <- inception_4a/output_inception_4a/output_0_split_0
I0714 21:53:14.198293 13325 net.cpp:399] inception_4b/1x1 -> inception_4b/1x1
I0714 21:53:14.202914 13329 net.cpp:141] Setting up inception_4b/1x1
I0714 21:53:14.202935 13329 net.cpp:148] Top shape: 10 160 14 14 (313600)
I0714 21:53:14.202940 13329 net.cpp:156] Memory required for data: 390871040
I0714 21:53:14.202950 13329 layer_factory.hpp:77] Creating layer inception_4b/relu_1x1
I0714 21:53:14.202961 13329 net.cpp:91] Creating Layer inception_4b/relu_1x1
I0714 21:53:14.202967 13329 net.cpp:425] inception_4b/relu_1x1 <- inception_4b/1x1
I0714 21:53:14.202977 13329 net.cpp:386] inception_4b/relu_1x1 -> inception_4b/1x1 (in-place)
I0714 21:53:14.203440 13329 net.cpp:141] Setting up inception_4b/relu_1x1
I0714 21:53:14.203454 13329 net.cpp:148] Top shape: 10 160 14 14 (313600)
I0714 21:53:14.203459 13329 net.cpp:156] Memory required for data: 392125440
I0714 21:53:14.203464 13329 layer_factory.hpp:77] Creating layer inception_4b/3x3_reduce
I0714 21:53:14.203482 13329 net.cpp:91] Creating Layer inception_4b/3x3_reduce
I0714 21:53:14.203490 13329 net.cpp:425] inception_4b/3x3_reduce <- inception_4a/output_inception_4a/output_0_split_1
I0714 21:53:14.203500 13329 net.cpp:399] inception_4b/3x3_reduce -> inception_4b/3x3_reduce
I0714 21:53:14.203550 13325 net.cpp:141] Setting up inception_4b/1x1
I0714 21:53:14.203567 13325 net.cpp:148] Top shape: 10 160 14 14 (313600)
I0714 21:53:14.203572 13325 net.cpp:156] Memory required for data: 390871040
I0714 21:53:14.203582 13325 layer_factory.hpp:77] Creating layer inception_4b/relu_1x1
I0714 21:53:14.203594 13325 net.cpp:91] Creating Layer inception_4b/relu_1x1
I0714 21:53:14.203600 13325 net.cpp:425] inception_4b/relu_1x1 <- inception_4b/1x1
I0714 21:53:14.203608 13325 net.cpp:386] inception_4b/relu_1x1 -> inception_4b/1x1 (in-place)
I0714 21:53:14.204023 13325 net.cpp:141] Setting up inception_4b/relu_1x1
I0714 21:53:14.204036 13325 net.cpp:148] Top shape: 10 160 14 14 (313600)
I0714 21:53:14.204041 13325 net.cpp:156] Memory required for data: 392125440
I0714 21:53:14.204046 13325 layer_factory.hpp:77] Creating layer inception_4b/3x3_reduce
I0714 21:53:14.204067 13325 net.cpp:91] Creating Layer inception_4b/3x3_reduce
I0714 21:53:14.204073 13325 net.cpp:425] inception_4b/3x3_reduce <- inception_4a/output_inception_4a/output_0_split_1
I0714 21:53:14.204083 13325 net.cpp:399] inception_4b/3x3_reduce -> inception_4b/3x3_reduce
I0714 21:53:14.208076 13329 net.cpp:141] Setting up inception_4b/3x3_reduce
I0714 21:53:14.208096 13329 net.cpp:148] Top shape: 10 112 14 14 (219520)
I0714 21:53:14.208101 13329 net.cpp:156] Memory required for data: 393003520
I0714 21:53:14.208111 13329 layer_factory.hpp:77] Creating layer inception_4b/relu_3x3_reduce
I0714 21:53:14.208119 13329 net.cpp:91] Creating Layer inception_4b/relu_3x3_reduce
I0714 21:53:14.208127 13329 net.cpp:425] inception_4b/relu_3x3_reduce <- inception_4b/3x3_reduce
I0714 21:53:14.208138 13329 net.cpp:386] inception_4b/relu_3x3_reduce -> inception_4b/3x3_reduce (in-place)
I0714 21:53:14.208540 13329 net.cpp:141] Setting up inception_4b/relu_3x3_reduce
I0714 21:53:14.208546 13325 net.cpp:141] Setting up inception_4b/3x3_reduce
I0714 21:53:14.208556 13329 net.cpp:148] Top shape: 10 112 14 14 (219520)
I0714 21:53:14.208562 13329 net.cpp:156] Memory required for data: 393881600
I0714 21:53:14.208564 13325 net.cpp:148] Top shape: 10 112 14 14 (219520)
I0714 21:53:14.208569 13329 layer_factory.hpp:77] Creating layer inception_4b/3x3
I0714 21:53:14.208570 13325 net.cpp:156] Memory required for data: 393003520
I0714 21:53:14.208580 13325 layer_factory.hpp:77] Creating layer inception_4b/relu_3x3_reduce
I0714 21:53:14.208585 13329 net.cpp:91] Creating Layer inception_4b/3x3
I0714 21:53:14.208590 13325 net.cpp:91] Creating Layer inception_4b/relu_3x3_reduce
I0714 21:53:14.208592 13329 net.cpp:425] inception_4b/3x3 <- inception_4b/3x3_reduce
I0714 21:53:14.208596 13325 net.cpp:425] inception_4b/relu_3x3_reduce <- inception_4b/3x3_reduce
I0714 21:53:14.208606 13329 net.cpp:399] inception_4b/3x3 -> inception_4b/3x3
I0714 21:53:14.208609 13325 net.cpp:386] inception_4b/relu_3x3_reduce -> inception_4b/3x3_reduce (in-place)
I0714 21:53:14.209031 13325 net.cpp:141] Setting up inception_4b/relu_3x3_reduce
I0714 21:53:14.209048 13325 net.cpp:148] Top shape: 10 112 14 14 (219520)
I0714 21:53:14.209051 13325 net.cpp:156] Memory required for data: 393881600
I0714 21:53:14.209058 13325 layer_factory.hpp:77] Creating layer inception_4b/3x3
I0714 21:53:14.209076 13325 net.cpp:91] Creating Layer inception_4b/3x3
I0714 21:53:14.209082 13325 net.cpp:425] inception_4b/3x3 <- inception_4b/3x3_reduce
I0714 21:53:14.209092 13325 net.cpp:399] inception_4b/3x3 -> inception_4b/3x3
I0714 21:53:14.217552 13329 net.cpp:141] Setting up inception_4b/3x3
I0714 21:53:14.217574 13329 net.cpp:148] Top shape: 10 224 14 14 (439040)
I0714 21:53:14.217581 13329 net.cpp:156] Memory required for data: 395637760
I0714 21:53:14.217591 13329 layer_factory.hpp:77] Creating layer inception_4b/relu_3x3
I0714 21:53:14.217600 13329 net.cpp:91] Creating Layer inception_4b/relu_3x3
I0714 21:53:14.217607 13329 net.cpp:425] inception_4b/relu_3x3 <- inception_4b/3x3
I0714 21:53:14.217614 13329 net.cpp:386] inception_4b/relu_3x3 -> inception_4b/3x3 (in-place)
I0714 21:53:14.219120 13329 net.cpp:141] Setting up inception_4b/relu_3x3
I0714 21:53:14.219138 13329 net.cpp:148] Top shape: 10 224 14 14 (439040)
I0714 21:53:14.219143 13329 net.cpp:156] Memory required for data: 397393920
I0714 21:53:14.219149 13329 layer_factory.hpp:77] Creating layer inception_4b/5x5_reduce
I0714 21:53:14.219180 13329 net.cpp:91] Creating Layer inception_4b/5x5_reduce
I0714 21:53:14.219187 13329 net.cpp:425] inception_4b/5x5_reduce <- inception_4a/output_inception_4a/output_0_split_2
I0714 21:53:14.219197 13329 net.cpp:399] inception_4b/5x5_reduce -> inception_4b/5x5_reduce
I0714 21:53:14.219228 13325 net.cpp:141] Setting up inception_4b/3x3
I0714 21:53:14.219244 13325 net.cpp:148] Top shape: 10 224 14 14 (439040)
I0714 21:53:14.219249 13325 net.cpp:156] Memory required for data: 395637760
I0714 21:53:14.219259 13325 layer_factory.hpp:77] Creating layer inception_4b/relu_3x3
I0714 21:53:14.219269 13325 net.cpp:91] Creating Layer inception_4b/relu_3x3
I0714 21:53:14.219276 13325 net.cpp:425] inception_4b/relu_3x3 <- inception_4b/3x3
I0714 21:53:14.219288 13325 net.cpp:386] inception_4b/relu_3x3 -> inception_4b/3x3 (in-place)
I0714 21:53:14.220264 13325 net.cpp:141] Setting up inception_4b/relu_3x3
I0714 21:53:14.220281 13325 net.cpp:148] Top shape: 10 224 14 14 (439040)
I0714 21:53:14.220286 13325 net.cpp:156] Memory required for data: 397393920
I0714 21:53:14.220291 13325 layer_factory.hpp:77] Creating layer inception_4b/5x5_reduce
I0714 21:53:14.220324 13325 net.cpp:91] Creating Layer inception_4b/5x5_reduce
I0714 21:53:14.220331 13325 net.cpp:425] inception_4b/5x5_reduce <- inception_4a/output_inception_4a/output_0_split_2
I0714 21:53:14.220341 13325 net.cpp:399] inception_4b/5x5_reduce -> inception_4b/5x5_reduce
I0714 21:53:14.224918 13329 net.cpp:141] Setting up inception_4b/5x5_reduce
I0714 21:53:14.224937 13329 net.cpp:148] Top shape: 10 24 14 14 (47040)
I0714 21:53:14.224942 13329 net.cpp:156] Memory required for data: 397582080
I0714 21:53:14.224953 13329 layer_factory.hpp:77] Creating layer inception_4b/relu_5x5_reduce
I0714 21:53:14.224967 13329 net.cpp:91] Creating Layer inception_4b/relu_5x5_reduce
I0714 21:53:14.224974 13329 net.cpp:425] inception_4b/relu_5x5_reduce <- inception_4b/5x5_reduce
I0714 21:53:14.224982 13329 net.cpp:386] inception_4b/relu_5x5_reduce -> inception_4b/5x5_reduce (in-place)
I0714 21:53:14.225478 13329 net.cpp:141] Setting up inception_4b/relu_5x5_reduce
I0714 21:53:14.225494 13329 net.cpp:148] Top shape: 10 24 14 14 (47040)
I0714 21:53:14.225499 13329 net.cpp:156] Memory required for data: 397770240
I0714 21:53:14.225504 13329 layer_factory.hpp:77] Creating layer inception_4b/5x5
I0714 21:53:14.225522 13329 net.cpp:91] Creating Layer inception_4b/5x5
I0714 21:53:14.225529 13329 net.cpp:425] inception_4b/5x5 <- inception_4b/5x5_reduce
I0714 21:53:14.225541 13329 net.cpp:399] inception_4b/5x5 -> inception_4b/5x5
I0714 21:53:14.225585 13325 net.cpp:141] Setting up inception_4b/5x5_reduce
I0714 21:53:14.225605 13325 net.cpp:148] Top shape: 10 24 14 14 (47040)
I0714 21:53:14.225610 13325 net.cpp:156] Memory required for data: 397582080
I0714 21:53:14.225621 13325 layer_factory.hpp:77] Creating layer inception_4b/relu_5x5_reduce
I0714 21:53:14.225637 13325 net.cpp:91] Creating Layer inception_4b/relu_5x5_reduce
I0714 21:53:14.225646 13325 net.cpp:425] inception_4b/relu_5x5_reduce <- inception_4b/5x5_reduce
I0714 21:53:14.225653 13325 net.cpp:386] inception_4b/relu_5x5_reduce -> inception_4b/5x5_reduce (in-place)
I0714 21:53:14.226100 13325 net.cpp:141] Setting up inception_4b/relu_5x5_reduce
I0714 21:53:14.226114 13325 net.cpp:148] Top shape: 10 24 14 14 (47040)
I0714 21:53:14.226119 13325 net.cpp:156] Memory required for data: 397770240
I0714 21:53:14.226125 13325 layer_factory.hpp:77] Creating layer inception_4b/5x5
I0714 21:53:14.226145 13325 net.cpp:91] Creating Layer inception_4b/5x5
I0714 21:53:14.226151 13325 net.cpp:425] inception_4b/5x5 <- inception_4b/5x5_reduce
I0714 21:53:14.226163 13325 net.cpp:399] inception_4b/5x5 -> inception_4b/5x5
I0714 21:53:14.233803 13329 net.cpp:141] Setting up inception_4b/5x5
I0714 21:53:14.233831 13329 net.cpp:148] Top shape: 10 64 14 14 (125440)
I0714 21:53:14.233837 13329 net.cpp:156] Memory required for data: 398272000
I0714 21:53:14.233849 13329 layer_factory.hpp:77] Creating layer inception_4b/relu_5x5
I0714 21:53:14.233862 13329 net.cpp:91] Creating Layer inception_4b/relu_5x5
I0714 21:53:14.233870 13329 net.cpp:425] inception_4b/relu_5x5 <- inception_4b/5x5
I0714 21:53:14.233877 13329 net.cpp:386] inception_4b/relu_5x5 -> inception_4b/5x5 (in-place)
I0714 21:53:14.234314 13325 net.cpp:141] Setting up inception_4b/5x5
I0714 21:53:14.234333 13325 net.cpp:148] Top shape: 10 64 14 14 (125440)
I0714 21:53:14.234334 13329 net.cpp:141] Setting up inception_4b/relu_5x5
I0714 21:53:14.234339 13325 net.cpp:156] Memory required for data: 398272000
I0714 21:53:14.234351 13329 net.cpp:148] Top shape: 10 64 14 14 (125440)
I0714 21:53:14.234356 13329 net.cpp:156] Memory required for data: 398773760
I0714 21:53:14.234359 13325 layer_factory.hpp:77] Creating layer inception_4b/relu_5x5
I0714 21:53:14.234361 13329 layer_factory.hpp:77] Creating layer inception_4b/pool
I0714 21:53:14.234374 13325 net.cpp:91] Creating Layer inception_4b/relu_5x5
I0714 21:53:14.234377 13329 net.cpp:91] Creating Layer inception_4b/pool
I0714 21:53:14.234391 13329 net.cpp:425] inception_4b/pool <- inception_4a/output_inception_4a/output_0_split_3
I0714 21:53:14.234390 13325 net.cpp:425] inception_4b/relu_5x5 <- inception_4b/5x5
I0714 21:53:14.234405 13329 net.cpp:399] inception_4b/pool -> inception_4b/pool
I0714 21:53:14.234411 13325 net.cpp:386] inception_4b/relu_5x5 -> inception_4b/5x5 (in-place)
I0714 21:53:14.234750 13329 net.cpp:141] Setting up inception_4b/pool
I0714 21:53:14.234762 13329 net.cpp:148] Top shape: 10 512 14 14 (1003520)
I0714 21:53:14.234766 13329 net.cpp:156] Memory required for data: 402787840
I0714 21:53:14.234771 13329 layer_factory.hpp:77] Creating layer inception_4b/pool_proj
I0714 21:53:14.234792 13329 net.cpp:91] Creating Layer inception_4b/pool_proj
I0714 21:53:14.234799 13329 net.cpp:425] inception_4b/pool_proj <- inception_4b/pool
I0714 21:53:14.234808 13329 net.cpp:399] inception_4b/pool_proj -> inception_4b/pool_proj
I0714 21:53:14.234819 13325 net.cpp:141] Setting up inception_4b/relu_5x5
I0714 21:53:14.234833 13325 net.cpp:148] Top shape: 10 64 14 14 (125440)
I0714 21:53:14.234838 13325 net.cpp:156] Memory required for data: 398773760
I0714 21:53:14.234843 13325 layer_factory.hpp:77] Creating layer inception_4b/pool
I0714 21:53:14.234858 13325 net.cpp:91] Creating Layer inception_4b/pool
I0714 21:53:14.234864 13325 net.cpp:425] inception_4b/pool <- inception_4a/output_inception_4a/output_0_split_3
I0714 21:53:14.234875 13325 net.cpp:399] inception_4b/pool -> inception_4b/pool
I0714 21:53:14.235149 13325 net.cpp:141] Setting up inception_4b/pool
I0714 21:53:14.235162 13325 net.cpp:148] Top shape: 10 512 14 14 (1003520)
I0714 21:53:14.235167 13325 net.cpp:156] Memory required for data: 402787840
I0714 21:53:14.235172 13325 layer_factory.hpp:77] Creating layer inception_4b/pool_proj
I0714 21:53:14.235193 13325 net.cpp:91] Creating Layer inception_4b/pool_proj
I0714 21:53:14.235199 13325 net.cpp:425] inception_4b/pool_proj <- inception_4b/pool
I0714 21:53:14.235208 13325 net.cpp:399] inception_4b/pool_proj -> inception_4b/pool_proj
I0714 21:53:14.239045 13329 net.cpp:141] Setting up inception_4b/pool_proj
I0714 21:53:14.239064 13329 net.cpp:148] Top shape: 10 64 14 14 (125440)
I0714 21:53:14.239070 13329 net.cpp:156] Memory required for data: 403289600
I0714 21:53:14.239079 13329 layer_factory.hpp:77] Creating layer inception_4b/relu_pool_proj
I0714 21:53:14.239094 13329 net.cpp:91] Creating Layer inception_4b/relu_pool_proj
I0714 21:53:14.239099 13329 net.cpp:425] inception_4b/relu_pool_proj <- inception_4b/pool_proj
I0714 21:53:14.239107 13329 net.cpp:386] inception_4b/relu_pool_proj -> inception_4b/pool_proj (in-place)
I0714 21:53:14.240100 13329 net.cpp:141] Setting up inception_4b/relu_pool_proj
I0714 21:53:14.240118 13329 net.cpp:148] Top shape: 10 64 14 14 (125440)
I0714 21:53:14.240123 13329 net.cpp:156] Memory required for data: 403791360
I0714 21:53:14.240129 13329 layer_factory.hpp:77] Creating layer inception_4b/output
I0714 21:53:14.240142 13329 net.cpp:91] Creating Layer inception_4b/output
I0714 21:53:14.240149 13329 net.cpp:425] inception_4b/output <- inception_4b/1x1
I0714 21:53:14.240156 13329 net.cpp:425] inception_4b/output <- inception_4b/3x3
I0714 21:53:14.240162 13329 net.cpp:425] inception_4b/output <- inception_4b/5x5
I0714 21:53:14.240167 13329 net.cpp:425] inception_4b/output <- inception_4b/pool_proj
I0714 21:53:14.240175 13329 net.cpp:399] inception_4b/output -> inception_4b/output
I0714 21:53:14.240243 13325 net.cpp:141] Setting up inception_4b/pool_proj
I0714 21:53:14.240260 13325 net.cpp:148] Top shape: 10 64 14 14 (125440)
I0714 21:53:14.240265 13325 net.cpp:156] Memory required for data: 403289600
I0714 21:53:14.240275 13325 layer_factory.hpp:77] Creating layer inception_4b/relu_pool_proj
I0714 21:53:14.240275 13329 net.cpp:141] Setting up inception_4b/output
I0714 21:53:14.240288 13329 net.cpp:148] Top shape: 10 512 14 14 (1003520)
I0714 21:53:14.240293 13329 net.cpp:156] Memory required for data: 407805440
I0714 21:53:14.240294 13325 net.cpp:91] Creating Layer inception_4b/relu_pool_proj
I0714 21:53:14.240304 13329 layer_factory.hpp:77] Creating layer inception_4b/output_inception_4b/output_0_split
I0714 21:53:14.240308 13325 net.cpp:425] inception_4b/relu_pool_proj <- inception_4b/pool_proj
I0714 21:53:14.240315 13325 net.cpp:386] inception_4b/relu_pool_proj -> inception_4b/pool_proj (in-place)
I0714 21:53:14.240319 13329 net.cpp:91] Creating Layer inception_4b/output_inception_4b/output_0_split
I0714 21:53:14.240324 13329 net.cpp:425] inception_4b/output_inception_4b/output_0_split <- inception_4b/output
I0714 21:53:14.240334 13329 net.cpp:399] inception_4b/output_inception_4b/output_0_split -> inception_4b/output_inception_4b/output_0_split_0
I0714 21:53:14.240345 13329 net.cpp:399] inception_4b/output_inception_4b/output_0_split -> inception_4b/output_inception_4b/output_0_split_1
I0714 21:53:14.240353 13329 net.cpp:399] inception_4b/output_inception_4b/output_0_split -> inception_4b/output_inception_4b/output_0_split_2
I0714 21:53:14.240361 13329 net.cpp:399] inception_4b/output_inception_4b/output_0_split -> inception_4b/output_inception_4b/output_0_split_3
I0714 21:53:14.241299 13325 net.cpp:141] Setting up inception_4b/relu_pool_proj
I0714 21:53:14.241314 13325 net.cpp:148] Top shape: 10 64 14 14 (125440)
I0714 21:53:14.241319 13325 net.cpp:156] Memory required for data: 403791360
I0714 21:53:14.241325 13325 layer_factory.hpp:77] Creating layer inception_4b/output
I0714 21:53:14.241348 13325 net.cpp:91] Creating Layer inception_4b/output
I0714 21:53:14.241355 13325 net.cpp:425] inception_4b/output <- inception_4b/1x1
I0714 21:53:14.241364 13325 net.cpp:425] inception_4b/output <- inception_4b/3x3
I0714 21:53:14.241359 13329 net.cpp:141] Setting up inception_4b/output_inception_4b/output_0_split
I0714 21:53:14.241369 13325 net.cpp:425] inception_4b/output <- inception_4b/5x5
I0714 21:53:14.241381 13325 net.cpp:425] inception_4b/output <- inception_4b/pool_proj
I0714 21:53:14.241384 13329 net.cpp:148] Top shape: 10 512 14 14 (1003520)
I0714 21:53:14.241390 13329 net.cpp:148] Top shape: 10 512 14 14 (1003520)
I0714 21:53:14.241389 13325 net.cpp:399] inception_4b/output -> inception_4b/output
I0714 21:53:14.241396 13329 net.cpp:148] Top shape: 10 512 14 14 (1003520)
…
I0714 21:53:14.391003 13329 net.cpp:91] Creating Layer inception_4e/5x5
I0714 21:53:14.391011 13329 net.cpp:425] inception_4e/5x5 <- inception_4e/5x5_reduce
I0714 21:53:14.391022 13329 net.cpp:399] inception_4e/5x5 -> inception_4e/5x5
I0714 21:53:14.391178 13325 net.cpp:141] Setting up inception_4e/pool
I0714 21:53:14.391193 13325 net.cpp:148] Top shape: 10 528 14 14 (1034880)
I0714 21:53:14.391198 13325 net.cpp:156] Memory required for data: 512296960
I0714 21:53:14.391203 13325 layer_factory.hpp:77] Creating layer inception_4e/pool_proj
I0714 21:53:14.391219 13325 net.cpp:91] Creating Layer inception_4e/pool_proj
I0714 21:53:14.391225 13325 net.cpp:425] inception_4e/pool_proj <- inception_4e/pool
I0714 21:53:14.391238 13325 net.cpp:399] inception_4e/pool_proj -> inception_4e/pool_proj
I0714 21:53:14.398272 13325 net.cpp:141] Setting up inception_4e/pool_proj
I0714 21:53:14.398296 13325 net.cpp:148] Top shape: 10 128 14 14 (250880)
I0714 21:53:14.398303 13325 net.cpp:156] Memory required for data: 513300480
I0714 21:53:14.398313 13325 layer_factory.hpp:77] Creating layer inception_4e/relu_pool_proj
I0714 21:53:14.398326 13325 net.cpp:91] Creating Layer inception_4e/relu_pool_proj
I0714 21:53:14.398332 13325 net.cpp:425] inception_4e/relu_pool_proj <- inception_4e/pool_proj
I0714 21:53:14.398340 13325 net.cpp:386] inception_4e/relu_pool_proj -> inception_4e/pool_proj (in-place)
I0714 21:53:14.400028 13325 net.cpp:141] Setting up inception_4e/relu_pool_proj
I0714 21:53:14.400046 13325 net.cpp:148] Top shape: 10 128 14 14 (250880)
I0714 21:53:14.400053 13325 net.cpp:156] Memory required for data: 514304000
I0714 21:53:14.400058 13325 layer_factory.hpp:77] Creating layer inception_4e/output
I0714 21:53:14.400071 13325 net.cpp:91] Creating Layer inception_4e/output
I0714 21:53:14.400077 13325 net.cpp:425] inception_4e/output <- inception_4e/1x1
I0714 21:53:14.400085 13325 net.cpp:425] inception_4e/output <- inception_4e/3x3
I0714 21:53:14.400091 13325 net.cpp:425] inception_4e/output <- inception_4e/5x5
I0714 21:53:14.400097 13325 net.cpp:425] inception_4e/output <- inception_4e/pool_proj
I0714 21:53:14.400104 13325 net.cpp:399] inception_4e/output -> inception_4e/output
I0714 21:53:14.400243 13329 net.cpp:141] Setting up inception_4e/5x5
I0714 21:53:14.400261 13329 net.cpp:148] Top shape: 10 128 14 14 (250880)
I0714 21:53:14.400267 13329 net.cpp:156] Memory required for data: 507153920
I0714 21:53:14.400272 13325 net.cpp:141] Setting up inception_4e/output
I0714 21:53:14.400279 13329 layer_factory.hpp:77] Creating layer inception_4e/relu_5x5
I0714 21:53:14.400288 13325 net.cpp:148] Top shape: 10 832 14 14 (1630720)
I0714 21:53:14.400291 13329 net.cpp:91] Creating Layer inception_4e/relu_5x5
I0714 21:53:14.400293 13325 net.cpp:156] Memory required for data: 520826880
I0714 21:53:14.400298 13329 net.cpp:425] inception_4e/relu_5x5 <- inception_4e/5x5
I0714 21:53:14.400300 13325 layer_factory.hpp:77] Creating layer pool4/3x3_s2
I0714 21:53:14.400317 13329 net.cpp:386] inception_4e/relu_5x5 -> inception_4e/5x5 (in-place)
I0714 21:53:14.400321 13325 net.cpp:91] Creating Layer pool4/3x3_s2
I0714 21:53:14.400327 13325 net.cpp:425] pool4/3x3_s2 <- inception_4e/output
I0714 21:53:14.400336 13325 net.cpp:399] pool4/3x3_s2 -> pool4/3x3_s2
I0714 21:53:14.400712 13325 net.cpp:141] Setting up pool4/3x3_s2
I0714 21:53:14.400725 13325 net.cpp:148] Top shape: 10 832 7 7 (407680)
I0714 21:53:14.400729 13325 net.cpp:156] Memory required for data: 522457600
I0714 21:53:14.400734 13325 layer_factory.hpp:77] Creating layer pool4/3x3_s2_pool4/3x3_s2_0_split
I0714 21:53:14.400748 13325 net.cpp:91] Creating Layer pool4/3x3_s2_pool4/3x3_s2_0_split
I0714 21:53:14.400753 13325 net.cpp:425] pool4/3x3_s2_pool4/3x3_s2_0_split <- pool4/3x3_s2
I0714 21:53:14.400760 13325 net.cpp:399] pool4/3x3_s2_pool4/3x3_s2_0_split -> pool4/3x3_s2_pool4/3x3_s2_0_split_0
I0714 21:53:14.400769 13325 net.cpp:399] pool4/3x3_s2_pool4/3x3_s2_0_split -> pool4/3x3_s2_pool4/3x3_s2_0_split_1
I0714 21:53:14.400779 13325 net.cpp:399] pool4/3x3_s2_pool4/3x3_s2_0_split -> pool4/3x3_s2_pool4/3x3_s2_0_split_2
I0714 21:53:14.400786 13325 net.cpp:399] pool4/3x3_s2_pool4/3x3_s2_0_split -> pool4/3x3_s2_pool4/3x3_s2_0_split_3
I0714 21:53:14.400801 13329 net.cpp:141] Setting up inception_4e/relu_5x5
I0714 21:53:14.400816 13329 net.cpp:148] Top shape: 10 128 14 14 (250880)
I0714 21:53:14.400825 13329 net.cpp:156] Memory required for data: 508157440
I0714 21:53:14.400830 13329 layer_factory.hpp:77] Creating layer inception_4e/pool
I0714 21:53:14.400842 13329 net.cpp:91] Creating Layer inception_4e/pool
I0714 21:53:14.400849 13329 net.cpp:425] inception_4e/pool <- inception_4d/output_inception_4d/output_0_split_3
I0714 21:53:14.400858 13329 net.cpp:399] inception_4e/pool -> inception_4e/pool
I0714 21:53:14.401150 13329 net.cpp:141] Setting up inception_4e/pool
I0714 21:53:14.401165 13329 net.cpp:148] Top shape: 10 528 14 14 (1034880)
I0714 21:53:14.401170 13329 net.cpp:156] Memory required for data: 512296960
I0714 21:53:14.401175 13329 layer_factory.hpp:77] Creating layer inception_4e/pool_proj
I0714 21:53:14.401193 13329 net.cpp:91] Creating Layer inception_4e/pool_proj
I0714 21:53:14.401201 13329 net.cpp:425] inception_4e/pool_proj <- inception_4e/pool
I0714 21:53:14.401216 13329 net.cpp:399] inception_4e/pool_proj -> inception_4e/pool_proj
I0714 21:53:14.401263 13325 net.cpp:141] Setting up pool4/3x3_s2_pool4/3x3_s2_0_split
I0714 21:53:14.401281 13325 net.cpp:148] Top shape: 10 832 7 7 (407680)
I0714 21:53:14.401288 13325 net.cpp:148] Top shape: 10 832 7 7 (407680)
I0714 21:53:14.401294 13325 net.cpp:148] Top shape: 10 832 7 7 (407680)
I0714 21:53:14.401299 13325 net.cpp:148] Top shape: 10 832 7 7 (407680)
I0714 21:53:14.401304 13325 net.cpp:156] Memory required for data: 528980480
I0714 21:53:14.401309 13325 layer_factory.hpp:77] Creating layer inception_5a/1x1
I0714 21:53:14.401330 13325 net.cpp:91] Creating Layer inception_5a/1x1
I0714 21:53:14.401338 13325 net.cpp:425] inception_5a/1x1 <- pool4/3x3_s2_pool4/3x3_s2_0_split_0
I0714 21:53:14.401348 13325 net.cpp:399] inception_5a/1x1 -> inception_5a/1x1
I0714 21:53:14.414046 13329 net.cpp:141] Setting up inception_4e/pool_proj
I0714 21:53:14.414084 13325 net.cpp:141] Setting up inception_5a/1x1
I0714 21:53:14.414094 13329 net.cpp:148] Top shape: 10 128 14 14 (250880)
I0714 21:53:14.414105 13325 net.cpp:148] Top shape: 10 256 7 7 (125440)
I0714 21:53:14.414105 13329 net.cpp:156] Memory required for data: 513300480
I0714 21:53:14.414119 13325 net.cpp:156] Memory required for data: 529482240
I0714 21:53:14.414134 13325 layer_factory.hpp:77] Creating layer inception_5a/relu_1x1
I0714 21:53:14.414137 13329 layer_factory.hpp:77] Creating layer inception_4e/relu_pool_proj
I0714 21:53:14.414150 13325 net.cpp:91] Creating Layer inception_5a/relu_1x1
I0714 21:53:14.414154 13329 net.cpp:91] Creating Layer inception_4e/relu_pool_proj
I0714 21:53:14.414160 13325 net.cpp:425] inception_5a/relu_1x1 <- inception_5a/1x1
I0714 21:53:14.414168 13329 net.cpp:425] inception_4e/relu_pool_proj <- inception_4e/pool_proj
I0714 21:53:14.414175 13325 net.cpp:386] inception_5a/relu_1x1 -> inception_5a/1x1 (in-place)
I0714 21:53:14.414188 13329 net.cpp:386] inception_4e/relu_pool_proj -> inception_4e/pool_proj (in-place)
I0714 21:53:14.414554 13325 net.cpp:141] Setting up inception_5a/relu_1x1
I0714 21:53:14.414568 13325 net.cpp:148] Top shape: 10 256 7 7 (125440)
I0714 21:53:14.414575 13325 net.cpp:156] Memory required for data: 529984000
I0714 21:53:14.414582 13325 layer_factory.hpp:77] Creating layer inception_5a/3x3_reduce
I0714 21:53:14.414599 13325 net.cpp:91] Creating Layer inception_5a/3x3_reduce
I0714 21:53:14.414609 13325 net.cpp:425] inception_5a/3x3_reduce <- pool4/3x3_s2_pool4/3x3_s2_0_split_1
I0714 21:53:14.414623 13325 net.cpp:399] inception_5a/3x3_reduce -> inception_5a/3x3_reduce
I0714 21:53:14.415953 13329 net.cpp:141] Setting up inception_4e/relu_pool_proj
I0714 21:53:14.415982 13329 net.cpp:148] Top shape: 10 128 14 14 (250880)
I0714 21:53:14.415990 13329 net.cpp:156] Memory required for data: 514304000
I0714 21:53:14.416000 13329 layer_factory.hpp:77] Creating layer inception_4e/output
I0714 21:53:14.416018 13329 net.cpp:91] Creating Layer inception_4e/output
I0714 21:53:14.416033 13329 net.cpp:425] inception_4e/output <- inception_4e/1x1
I0714 21:53:14.416046 13329 net.cpp:425] inception_4e/output <- inception_4e/3x3
I0714 21:53:14.416056 13329 net.cpp:425] inception_4e/output <- inception_4e/5x5
I0714 21:53:14.416067 13329 net.cpp:425] inception_4e/output <- inception_4e/pool_proj
I0714 21:53:14.416079 13329 net.cpp:399] inception_4e/output -> inception_4e/output
I0714 21:53:14.416265 13329 net.cpp:141] Setting up inception_4e/output
I0714 21:53:14.416283 13329 net.cpp:148] Top shape: 10 832 14 14 (1630720)
I0714 21:53:14.416291 13329 net.cpp:156] Memory required for data: 520826880
I0714 21:53:14.416301 13329 layer_factory.hpp:77] Creating layer pool4/3x3_s2
I0714 21:53:14.416319 13329 net.cpp:91] Creating Layer pool4/3x3_s2
I0714 21:53:14.416329 13329 net.cpp:425] pool4/3x3_s2 <- inception_4e/output
I0714 21:53:14.416343 13329 net.cpp:399] pool4/3x3_s2 -> pool4/3x3_s2
I0714 21:53:14.418839 13329 net.cpp:141] Setting up pool4/3x3_s2
I0714 21:53:14.418877 13329 net.cpp:148] Top shape: 10 832 7 7 (407680)
I0714 21:53:14.418884 13329 net.cpp:156] Memory required for data: 522457600
I0714 21:53:14.418894 13329 layer_factory.hpp:77] Creating layer pool4/3x3_s2_pool4/3x3_s2_0_split
I0714 21:53:14.418915 13329 net.cpp:91] Creating Layer pool4/3x3_s2_pool4/3x3_s2_0_split
I0714 21:53:14.418923 13329 net.cpp:425] pool4/3x3_s2_pool4/3x3_s2_0_split <- pool4/3x3_s2
I0714 21:53:14.418934 13329 net.cpp:399] pool4/3x3_s2_pool4/3x3_s2_0_split -> pool4/3x3_s2_pool4/3x3_s2_0_split_0
I0714 21:53:14.418949 13329 net.cpp:399] pool4/3x3_s2_pool4/3x3_s2_0_split -> pool4/3x3_s2_pool4/3x3_s2_0_split_1
I0714 21:53:14.418959 13329 net.cpp:399] pool4/3x3_s2_pool4/3x3_s2_0_split -> pool4/3x3_s2_pool4/3x3_s2_0_split_2
I0714 21:53:14.418969 13329 net.cpp:399] pool4/3x3_s2_pool4/3x3_s2_0_split -> pool4/3x3_s2_pool4/3x3_s2_0_split_3
I0714 21:53:14.419246 13329 net.cpp:141] Setting up pool4/3x3_s2_pool4/3x3_s2_0_split
I0714 21:53:14.419258 13329 net.cpp:148] Top shape: 10 832 7 7 (407680)
I0714 21:53:14.419265 13329 net.cpp:148] Top shape: 10 832 7 7 (407680)
I0714 21:53:14.419270 13329 net.cpp:148] Top shape: 10 832 7 7 (407680)
I0714 21:53:14.419275 13329 net.cpp:148] Top shape: 10 832 7 7 (407680)
I0714 21:53:14.419281 13329 net.cpp:156] Memory required for data: 528980480
I0714 21:53:14.419286 13329 layer_factory.hpp:77] Creating layer inception_5a/1x1
I0714 21:53:14.419307 13329 net.cpp:91] Creating Layer inception_5a/1x1
I0714 21:53:14.419314 13329 net.cpp:425] inception_5a/1x1 <- pool4/3x3_s2_pool4/3x3_s2_0_split_0
I0714 21:53:14.419324 13329 net.cpp:399] inception_5a/1x1 -> inception_5a/1x1
I0714 21:53:14.426847 13325 net.cpp:141] Setting up inception_5a/3x3_reduce
I0714 21:53:14.426889 13325 net.cpp:148] Top shape: 10 160 7 7 (78400)
I0714 21:53:14.426897 13325 net.cpp:156] Memory required for data: 530297600
I0714 21:53:14.426910 13325 layer_factory.hpp:77] Creating layer inception_5a/relu_3x3_reduce
I0714 21:53:14.426925 13325 net.cpp:91] Creating Layer inception_5a/relu_3x3_reduce
I0714 21:53:14.426935 13325 net.cpp:425] inception_5a/relu_3x3_reduce <- inception_5a/3x3_reduce
I0714 21:53:14.426949 13325 net.cpp:386] inception_5a/relu_3x3_reduce -> inception_5a/3x3_reduce (in-place)
I0714 21:53:14.427289 13325 net.cpp:141] Setting up inception_5a/relu_3x3_reduce
I0714 21:53:14.427302 13325 net.cpp:148] Top shape: 10 160 7 7 (78400)
I0714 21:53:14.427307 13325 net.cpp:156] Memory required for data: 530611200
I0714 21:53:14.427312 13325 layer_factory.hpp:77] Creating layer inception_5a/3x3
I0714 21:53:14.427336 13325 net.cpp:91] Creating Layer inception_5a/3x3
I0714 21:53:14.427343 13325 net.cpp:425] inception_5a/3x3 <- inception_5a/3x3_reduce
I0714 21:53:14.427353 13325 net.cpp:399] inception_5a/3x3 -> inception_5a/3x3
I0714 21:53:14.430959 13329 net.cpp:141] Setting up inception_5a/1x1
I0714 21:53:14.430985 13329 net.cpp:148] Top shape: 10 256 7 7 (125440)
I0714 21:53:14.430992 13329 net.cpp:156] Memory required for data: 529482240
I0714 21:53:14.431005 13329 layer_factory.hpp:77] Creating layer inception_5a/relu_1x1
I0714 21:53:14.431015 13329 net.cpp:91] Creating Layer inception_5a/relu_1x1
I0714 21:53:14.431025 13329 net.cpp:425] inception_5a/relu_1x1 <- inception_5a/1x1
I0714 21:53:14.431035 13329 net.cpp:386] inception_5a/relu_1x1 -> inception_5a/1x1 (in-place)
I0714 21:53:14.431365 13329 net.cpp:141] Setting up inception_5a/relu_1x1
I0714 21:53:14.431377 13329 net.cpp:148] Top shape: 10 256 7 7 (125440)
I0714 21:53:14.431381 13329 net.cpp:156] Memory required for data: 529984000
I0714 21:53:14.431387 13329 layer_factory.hpp:77] Creating layer inception_5a/3x3_reduce
I0714 21:53:14.431406 13329 net.cpp:91] Creating Layer inception_5a/3x3_reduce
I0714 21:53:14.431413 13329 net.cpp:425] inception_5a/3x3_reduce <- pool4/3x3_s2_pool4/3x3_s2_0_split_1
I0714 21:53:14.431427 13329 net.cpp:399] inception_5a/3x3_reduce -> inception_5a/3x3_reduce
I0714 21:53:14.438612 13329 net.cpp:141] Setting up inception_5a/3x3_reduce
I0714 21:53:14.438634 13329 net.cpp:148] Top shape: 10 160 7 7 (78400)
I0714 21:53:14.438640 13329 net.cpp:156] Memory required for data: 530297600
I0714 21:53:14.438650 13329 layer_factory.hpp:77] Creating layer inception_5a/relu_3x3_reduce
I0714 21:53:14.438673 13329 net.cpp:91] Creating Layer inception_5a/relu_3x3_reduce
I0714 21:53:14.438680 13329 net.cpp:425] inception_5a/relu_3x3_reduce <- inception_5a/3x3_reduce
I0714 21:53:14.438701 13329 net.cpp:386] inception_5a/relu_3x3_reduce -> inception_5a/3x3_reduce (in-place)
I0714 21:53:14.439187 13329 net.cpp:141] Setting up inception_5a/relu_3x3_reduce
I0714 21:53:14.439201 13329 net.cpp:148] Top shape: 10 160 7 7 (78400)
I0714 21:53:14.439206 13329 net.cpp:156] Memory required for data: 530611200
I0714 21:53:14.439213 13329 layer_factory.hpp:77] Creating layer inception_5a/3x3
I0714 21:53:14.439231 13329 net.cpp:91] Creating Layer inception_5a/3x3
I0714 21:53:14.439239 13329 net.cpp:425] inception_5a/3x3 <- inception_5a/3x3_reduce
I0714 21:53:14.439259 13329 net.cpp:399] inception_5a/3x3 -> inception_5a/3x3
I0714 21:53:14.439993 13325 net.cpp:141] Setting up inception_5a/3x3
I0714 21:53:14.440016 13325 net.cpp:148] Top shape: 10 320 7 7 (156800)
I0714 21:53:14.440021 13325 net.cpp:156] Memory required for data: 531238400
I0714 21:53:14.440032 13325 layer_factory.hpp:77] Creating layer inception_5a/relu_3x3
I0714 21:53:14.440042 13325 net.cpp:91] Creating Layer inception_5a/relu_3x3
I0714 21:53:14.440049 13325 net.cpp:425] inception_5a/relu_3x3 <- inception_5a/3x3
I0714 21:53:14.440057 13325 net.cpp:386] inception_5a/relu_3x3 -> inception_5a/3x3 (in-place)
I0714 21:53:14.441102 13325 net.cpp:141] Setting up inception_5a/relu_3x3
I0714 21:53:14.441118 13325 net.cpp:148] Top shape: 10 320 7 7 (156800)
I0714 21:53:14.441123 13325 net.cpp:156] Memory required for data: 531865600
I0714 21:53:14.441128 13325 layer_factory.hpp:77] Creating layer inception_5a/5x5_reduce
I0714 21:53:14.441146 13325 net.cpp:91] Creating Layer inception_5a/5x5_reduce
I0714 21:53:14.441154 13325 net.cpp:425] inception_5a/5x5_reduce <- pool4/3x3_s2_pool4/3x3_s2_0_split_2
I0714 21:53:14.441165 13325 net.cpp:399] inception_5a/5x5_reduce -> inception_5a/5x5_reduce
I0714 21:53:14.446725 13325 net.cpp:141] Setting up inception_5a/5x5_reduce
I0714 21:53:14.446746 13325 net.cpp:148] Top shape: 10 32 7 7 (15680)
I0714 21:53:14.446753 13325 net.cpp:156] Memory required for data: 531928320
I0714 21:53:14.446763 13325 layer_factory.hpp:77] Creating layer inception_5a/relu_5x5_reduce
I0714 21:53:14.446777 13325 net.cpp:91] Creating Layer inception_5a/relu_5x5_reduce
I0714 21:53:14.446784 13325 net.cpp:425] inception_5a/relu_5x5_reduce <- inception_5a/5x5_reduce
I0714 21:53:14.446792 13325 net.cpp:386] inception_5a/relu_5x5_reduce -> inception_5a/5x5_reduce (in-place)
I0714 21:53:14.447118 13325 net.cpp:141] Setting up inception_5a/relu_5x5_reduce
I0714 21:53:14.447131 13325 net.cpp:148] Top shape: 10 32 7 7 (15680)
I0714 21:53:14.447135 13325 net.cpp:156] Memory required for data: 531991040
I0714 21:53:14.447141 13325 layer_factory.hpp:77] Creating layer inception_5a/5x5
I0714 21:53:14.447157 13325 net.cpp:91] Creating Layer inception_5a/5x5
I0714 21:53:14.447163 13325 net.cpp:425] inception_5a/5x5 <- inception_5a/5x5_reduce
I0714 21:53:14.447176 13325 net.cpp:399] inception_5a/5x5 -> inception_5a/5x5
I0714 21:53:14.452749 13329 net.cpp:141] Setting up inception_5a/3x3
I0714 21:53:14.452769 13329 net.cpp:148] Top shape: 10 320 7 7 (156800)
I0714 21:53:14.452775 13329 net.cpp:156] Memory required for data: 531238400
I0714 21:53:14.452788 13329 layer_factory.hpp:77] Creating layer inception_5a/relu_3x3
I0714 21:53:14.452800 13329 net.cpp:91] Creating Layer inception_5a/relu_3x3
I0714 21:53:14.452805 13329 net.cpp:425] inception_5a/relu_3x3 <- inception_5a/3x3
I0714 21:53:14.452813 13329 net.cpp:386] inception_5a/relu_3x3 -> inception_5a/3x3 (in-place)
I0714 21:53:14.453992 13329 net.cpp:141] Setting up inception_5a/relu_3x3
I0714 21:53:14.454012 13329 net.cpp:148] Top shape: 10 320 7 7 (156800)
I0714 21:53:14.454017 13329 net.cpp:156] Memory required for data: 531865600
I0714 21:53:14.454023 13329 layer_factory.hpp:77] Creating layer inception_5a/5x5_reduce
I0714 21:53:14.454042 13329 net.cpp:91] Creating Layer inception_5a/5x5_reduce
I0714 21:53:14.454049 13329 net.cpp:425] inception_5a/5x5_reduce <- pool4/3x3_s2_pool4/3x3_s2_0_split_2
I0714 21:53:14.454061 13329 net.cpp:399] inception_5a/5x5_reduce -> inception_5a/5x5_reduce
I0714 21:53:14.454181 13325 net.cpp:141] Setting up inception_5a/5x5
I0714 21:53:14.454197 13325 net.cpp:148] Top shape: 10 128 7 7 (62720)
I0714 21:53:14.454202 13325 net.cpp:156] Memory required for data: 532241920
I0714 21:53:14.454212 13325 layer_factory.hpp:77] Creating layer inception_5a/relu_5x5
I0714 21:53:14.454257 13325 net.cpp:91] Creating Layer inception_5a/relu_5x5
I0714 21:53:14.454265 13325 net.cpp:425] inception_5a/relu_5x5 <- inception_5a/5x5
I0714 21:53:14.454273 13325 net.cpp:386] inception_5a/relu_5x5 -> inception_5a/5x5 (in-place)
I0714 21:53:14.454730 13325 net.cpp:141] Setting up inception_5a/relu_5x5
I0714 21:53:14.454746 13325 net.cpp:148] Top shape: 10 128 7 7 (62720)
I0714 21:53:14.454751 13325 net.cpp:156] Memory required for data: 532492800
I0714 21:53:14.454757 13325 layer_factory.hpp:77] Creating layer inception_5a/pool
I0714 21:53:14.454769 13325 net.cpp:91] Creating Layer inception_5a/pool
I0714 21:53:14.454776 13325 net.cpp:425] inception_5a/pool <- pool4/3x3_s2_pool4/3x3_s2_0_split_3
I0714 21:53:14.454787 13325 net.cpp:399] inception_5a/pool -> inception_5a/pool
I0714 21:53:14.455042 13325 net.cpp:141] Setting up inception_5a/pool
I0714 21:53:14.455054 13325 net.cpp:148] Top shape: 10 832 7 7 (407680)
I0714 21:53:14.455060 13325 net.cpp:156] Memory required for data: 534123520
I0714 21:53:14.455065 13325 layer_factory.hpp:77] Creating layer inception_5a/pool_proj
I0714 21:53:14.455085 13325 net.cpp:91] Creating Layer inception_5a/pool_proj
I0714 21:53:14.455091 13325 net.cpp:425] inception_5a/pool_proj <- inception_5a/pool
I0714 21:53:14.455101 13325 net.cpp:399] inception_5a/pool_proj -> inception_5a/pool_proj
I0714 21:53:14.461447 13329 net.cpp:141] Setting up inception_5a/5x5_reduce
I0714 21:53:14.461468 13329 net.cpp:148] Top shape: 10 32 7 7 (15680)
I0714 21:53:14.461474 13329 net.cpp:156] Memory required for data: 531928320
I0714 21:53:14.461484 13329 layer_factory.hpp:77] Creating layer inception_5a/relu_5x5_reduce
I0714 21:53:14.461498 13329 net.cpp:91] Creating Layer inception_5a/relu_5x5_reduce
I0714 21:53:14.461505 13329 net.cpp:425] inception_5a/relu_5x5_reduce <- inception_5a/5x5_reduce
I0714 21:53:14.461513 13329 net.cpp:386] inception_5a/relu_5x5_reduce -> inception_5a/5x5_reduce (in-place)
I0714 21:53:14.461933 13329 net.cpp:141] Setting up inception_5a/relu_5x5_reduce
I0714 21:53:14.461946 13329 net.cpp:148] Top shape: 10 32 7 7 (15680)
I0714 21:53:14.461951 13329 net.cpp:156] Memory required for data: 531991040
I0714 21:53:14.461957 13329 layer_factory.hpp:77] Creating layer inception_5a/5x5
I0714 21:53:14.461978 13329 net.cpp:91] Creating Layer inception_5a/5x5
I0714 21:53:14.461985 13329 net.cpp:425] inception_5a/5x5 <- inception_5a/5x5_reduce
I0714 21:53:14.461994 13329 net.cpp:399] inception_5a/5x5 -> inception_5a/5x5
I0714 21:53:14.462656 13325 net.cpp:141] Setting up inception_5a/pool_proj
I0714 21:53:14.462671 13325 net.cpp:148] Top shape: 10 128 7 7 (62720)
I0714 21:53:14.462677 13325 net.cpp:156] Memory required for data: 534374400
I0714 21:53:14.462699 13325 layer_factory.hpp:77] Creating layer inception_5a/relu_pool_proj
I0714 21:53:14.462709 13325 net.cpp:91] Creating Layer inception_5a/relu_pool_proj
I0714 21:53:14.462716 13325 net.cpp:425] inception_5a/relu_pool_proj <- inception_5a/pool_proj
I0714 21:53:14.462728 13325 net.cpp:386] inception_5a/relu_pool_proj -> inception_5a/pool_proj (in-place)
I0714 21:53:14.463788 13325 net.cpp:141] Setting up inception_5a/relu_pool_proj
I0714 21:53:14.463804 13325 net.cpp:148] Top shape: 10 128 7 7 (62720)
I0714 21:53:14.463809 13325 net.cpp:156] Memory required for data: 534625280
I0714 21:53:14.463814 13325 layer_factory.hpp:77] Creating layer inception_5a/output
I0714 21:53:14.463825 13325 net.cpp:91] Creating Layer inception_5a/output
I0714 21:53:14.463831 13325 net.cpp:425] inception_5a/output <- inception_5a/1x1
I0714 21:53:14.463841 13325 net.cpp:425] inception_5a/output <- inception_5a/3x3
I0714 21:53:14.463847 13325 net.cpp:425] inception_5a/output <- inception_5a/5x5
I0714 21:53:14.463853 13325 net.cpp:425] inception_5a/output <- inception_5a/pool_proj
I0714 21:53:14.463860 13325 net.cpp:399] inception_5a/output -> inception_5a/output
I0714 21:53:14.463953 13325 net.cpp:141] Setting up inception_5a/output
I0714 21:53:14.463964 13325 net.cpp:148] Top shape: 10 832 7 7 (407680)
I0714 21:53:14.463969 13325 net.cpp:156] Memory required for data: 536256000
I0714 21:53:14.463973 13325 layer_factory.hpp:77] Creating layer inception_5a/output_inception_5a/output_0_split
I0714 21:53:14.463994 13325 net.cpp:91] Creating Layer inception_5a/output_inception_5a/output_0_split
I0714 21:53:14.463999 13325 net.cpp:425] inception_5a/output_inception_5a/output_0_split <- inception_5a/output
I0714 21:53:14.464007 13325 net.cpp:399] inception_5a/output_inception_5a/output_0_split -> inception_5a/output_inception_5a/output_0_split_0
I0714 21:53:14.464017 13325 net.cpp:399] inception_5a/output_inception_5a/output_0_split -> inception_5a/output_inception_5a/output_0_split_1
I0714 21:53:14.464030 13325 net.cpp:399] inception_5a/output_inception_5a/output_0_split -> inception_5a/output_inception_5a/output_0_split_2
I0714 21:53:14.464038 13325 net.cpp:399] inception_5a/output_inception_5a/output_0_split -> inception_5a/output_inception_5a/output_0_split_3
I0714 21:53:14.464278 13325 net.cpp:141] Setting up inception_5a/output_inception_5a/output_0_split
I0714 21:53:14.464289 13325 net.cpp:148] Top shape: 10 832 7 7 (407680)
I0714 21:53:14.464295 13325 net.cpp:148] Top shape: 10 832 7 7 (407680)
I0714 21:53:14.464301 13325 net.cpp:148] Top shape: 10 832 7 7 (407680)
I0714 21:53:14.464306 13325 net.cpp:148] Top shape: 10 832 7 7 (407680)
I0714 21:53:14.464310 13325 net.cpp:156] Memory required for data: 542778880
I0714 21:53:14.464315 13325 layer_factory.hpp:77] Creating layer inception_5b/1x1
I0714 21:53:14.464332 13325 net.cpp:91] Creating Layer inception_5b/1x1
I0714 21:53:14.464339 13325 net.cpp:425] inception_5b/1x1 <- inception_5a/output_inception_5a/output_0_split_0
I0714 21:53:14.464350 13325 net.cpp:399] inception_5b/1x1 -> inception_5b/1x1
I0714 21:53:14.469717 13329 net.cpp:141] Setting up inception_5a/5x5
I0714 21:53:14.469741 13329 net.cpp:148] Top shape: 10 128 7 7 (62720)
I0714 21:53:14.469748 13329 net.cpp:156] Memory required for data: 532241920
I0714 21:53:14.469758 13329 layer_factory.hpp:77] Creating layer inception_5a/relu_5x5
I0714 21:53:14.469799 13329 net.cpp:91] Creating Layer inception_5a/relu_5x5
I0714 21:53:14.469805 13329 net.cpp:425] inception_5a/relu_5x5 <- inception_5a/5x5
I0714 21:53:14.469813 13329 net.cpp:386] inception_5a/relu_5x5 -> inception_5a/5x5 (in-place)
I0714 21:53:14.470146 13329 net.cpp:141] Setting up inception_5a/relu_5x5
I0714 21:53:14.470160 13329 net.cpp:148] Top shape: 10 128 7 7 (62720)
I0714 21:53:14.470165 13329 net.cpp:156] Memory required for data: 532492800
I0714 21:53:14.470171 13329 layer_factory.hpp:77] Creating layer inception_5a/pool
I0714 21:53:14.470185 13329 net.cpp:91] Creating Layer inception_5a/pool
I0714 21:53:14.470191 13329 net.cpp:425] inception_5a/pool <- pool4/3x3_s2_pool4/3x3_s2_0_split_3
I0714 21:53:14.470202 13329 net.cpp:399] inception_5a/pool -> inception_5a/pool
I0714 21:53:14.470350 13329 net.cpp:141] Setting up inception_5a/pool
I0714 21:53:14.470360 13329 net.cpp:148] Top shape: 10 832 7 7 (407680)
I0714 21:53:14.470365 13329 net.cpp:156] Memory required for data: 534123520
I0714 21:53:14.470369 13329 layer_factory.hpp:77] Creating layer inception_5a/pool_proj
I0714 21:53:14.470391 13329 net.cpp:91] Creating Layer inception_5a/pool_proj
I0714 21:53:14.470398 13329 net.cpp:425] inception_5a/pool_proj <- inception_5a/pool
I0714 21:53:14.470407 13329 net.cpp:399] inception_5a/pool_proj -> inception_5a/pool_proj
I0714 21:53:14.476944 13325 net.cpp:141] Setting up inception_5b/1x1
I0714 21:53:14.476989 13325 net.cpp:148] Top shape: 10 384 7 7 (188160)
I0714 21:53:14.476996 13325 net.cpp:156] Memory required for data: 543531520
I0714 21:53:14.477010 13325 layer_factory.hpp:77] Creating layer inception_5b/relu_1x1
I0714 21:53:14.477025 13325 net.cpp:91] Creating Layer inception_5b/relu_1x1
I0714 21:53:14.477033 13325 net.cpp:425] inception_5b/relu_1x1 <- inception_5b/1x1
I0714 21:53:14.477047 13325 net.cpp:386] inception_5b/relu_1x1 -> inception_5b/1x1 (in-place)
I0714 21:53:14.477568 13325 net.cpp:141] Setting up inception_5b/relu_1x1
I0714 21:53:14.477586 13325 net.cpp:148] Top shape: 10 384 7 7 (188160)
I0714 21:53:14.477591 13325 net.cpp:156] Memory required for data: 544284160
I0714 21:53:14.477586 13329 net.cpp:141] Setting up inception_5a/pool_proj
I0714 21:53:14.477597 13325 layer_factory.hpp:77] Creating layer inception_5b/3x3_reduce
I0714 21:53:14.477607 13329 net.cpp:148] Top shape: 10 128 7 7 (62720)
I0714 21:53:14.477612 13329 net.cpp:156] Memory required for data: 534374400
I0714 21:53:14.477623 13329 layer_factory.hpp:77] Creating layer inception_5a/relu_pool_proj
I0714 21:53:14.477623 13325 net.cpp:91] Creating Layer inception_5b/3x3_reduce
I0714 21:53:14.477632 13325 net.cpp:425] inception_5b/3x3_reduce <- inception_5a/output_inception_5a/output_0_split_1
I0714 21:53:14.477634 13329 net.cpp:91] Creating Layer inception_5a/relu_pool_proj
I0714 21:53:14.477643 13325 net.cpp:399] inception_5b/3x3_reduce -> inception_5b/3x3_reduce
I0714 21:53:14.477643 13329 net.cpp:425] inception_5a/relu_pool_proj <- inception_5a/pool_proj
I0714 21:53:14.477668 13329 net.cpp:386] inception_5a/relu_pool_proj -> inception_5a/pool_proj (in-place)
I0714 21:53:14.478756 13329 net.cpp:141] Setting up inception_5a/relu_pool_proj
I0714 21:53:14.478775 13329 net.cpp:148] Top shape: 10 128 7 7 (62720)
I0714 21:53:14.478781 13329 net.cpp:156] Memory required for data: 534625280
I0714 21:53:14.478786 13329 layer_factory.hpp:77] Creating layer inception_5a/output
I0714 21:53:14.478796 13329 net.cpp:91] Creating Layer inception_5a/output
I0714 21:53:14.478802 13329 net.cpp:425] inception_5a/output <- inception_5a/1x1
I0714 21:53:14.478811 13329 net.cpp:425] inception_5a/output <- inception_5a/3x3
I0714 21:53:14.478816 13329 net.cpp:425] inception_5a/output <- inception_5a/5x5
I0714 21:53:14.478821 13329 net.cpp:425] inception_5a/output <- inception_5a/pool_proj
I0714 21:53:14.478832 13329 net.cpp:399] inception_5a/output -> inception_5a/output
I0714 21:53:14.479039 13329 net.cpp:141] Setting up inception_5a/output
I0714 21:53:14.479051 13329 net.cpp:148] Top shape: 10 832 7 7 (407680)
I0714 21:53:14.479056 13329 net.cpp:156] Memory required for data: 536256000
I0714 21:53:14.479063 13329 layer_factory.hpp:77] Creating layer inception_5a/output_inception_5a/output_0_split
I0714 21:53:14.479077 13329 net.cpp:91] Creating Layer inception_5a/output_inception_5a/output_0_split
I0714 21:53:14.479082 13329 net.cpp:425] inception_5a/output_inception_5a/output_0_split <- inception_5a/output
I0714 21:53:14.479090 13329 net.cpp:399] inception_5a/output_inception_5a/output_0_split -> inception_5a/output_inception_5a/output_0_split_0
I0714 21:53:14.479100 13329 net.cpp:399] inception_5a/output_inception_5a/output_0_split -> inception_5a/output_inception_5a/output_0_split_1
I0714 21:53:14.479110 13329 net.cpp:399] inception_5a/output_inception_5a/output_0_split -> inception_5a/output_inception_5a/output_0_split_2
I0714 21:53:14.479122 13329 net.cpp:399] inception_5a/output_inception_5a/output_0_split -> inception_5a/output_inception_5a/output_0_split_3
I0714 21:53:14.481240 13329 net.cpp:141] Setting up inception_5a/output_inception_5a/output_0_split
I0714 21:53:14.481259 13329 net.cpp:148] Top shape: 10 832 7 7 (407680)
I0714 21:53:14.481266 13329 net.cpp:148] Top shape: 10 832 7 7 (407680)
I0714 21:53:14.481271 13329 net.cpp:148] Top shape: 10 832 7 7 (407680)
I0714 21:53:14.481276 13329 net.cpp:148] Top shape: 10 832 7 7 (407680)
I0714 21:53:14.481281 13329 net.cpp:156] Memory required for data: 542778880
I0714 21:53:14.481288 13329 layer_factory.hpp:77] Creating layer inception_5b/1x1
I0714 21:53:14.481307 13329 net.cpp:91] Creating Layer inception_5b/1x1
I0714 21:53:14.481312 13329 net.cpp:425] inception_5b/1x1 <- inception_5a/output_inception_5a/output_0_split_0
I0714 21:53:14.481323 13329 net.cpp:399] inception_5b/1x1 -> inception_5b/1x1
I0714 21:53:14.486353 13325 net.cpp:141] Setting up inception_5b/3x3_reduce
I0714 21:53:14.486377 13325 net.cpp:148] Top shape: 10 192 7 7 (94080)
I0714 21:53:14.486382 13325 net.cpp:156] Memory required for data: 544660480
I0714 21:53:14.486392 13325 layer_factory.hpp:77] Creating layer inception_5b/relu_3x3_reduce
I0714 21:53:14.486407 13325 net.cpp:91] Creating Layer inception_5b/relu_3x3_reduce
I0714 21:53:14.486414 13325 net.cpp:425] inception_5b/relu_3x3_reduce <- inception_5b/3x3_reduce
I0714 21:53:14.486423 13325 net.cpp:386] inception_5b/relu_3x3_reduce -> inception_5b/3x3_reduce (in-place)
I0714 21:53:14.486909 13325 net.cpp:141] Setting up inception_5b/relu_3x3_reduce
I0714 21:53:14.486927 13325 net.cpp:148] Top shape: 10 192 7 7 (94080)
I0714 21:53:14.486932 13325 net.cpp:156] Memory required for data: 545036800
I0714 21:53:14.486937 13325 layer_factory.hpp:77] Creating layer inception_5b/3x3
I0714 21:53:14.486958 13325 net.cpp:91] Creating Layer inception_5b/3x3
I0714 21:53:14.486963 13325 net.cpp:425] inception_5b/3x3 <- inception_5b/3x3_reduce
I0714 21:53:14.486976 13325 net.cpp:399] inception_5b/3x3 -> inception_5b/3x3
I0714 21:53:14.492466 13329 net.cpp:141] Setting up inception_5b/1x1
I0714 21:53:14.492489 13329 net.cpp:148] Top shape: 10 384 7 7 (188160)
I0714 21:53:14.492496 13329 net.cpp:156] Memory required for data: 543531520
I0714 21:53:14.492506 13329 layer_factory.hpp:77] Creating layer inception_5b/relu_1x1
I0714 21:53:14.492516 13329 net.cpp:91] Creating Layer inception_5b/relu_1x1
I0714 21:53:14.492522 13329 net.cpp:425] inception_5b/relu_1x1 <- inception_5b/1x1
I0714 21:53:14.492532 13329 net.cpp:386] inception_5b/relu_1x1 -> inception_5b/1x1 (in-place)
I0714 21:53:14.492848 13329 net.cpp:141] Setting up inception_5b/relu_1x1
I0714 21:53:14.492861 13329 net.cpp:148] Top shape: 10 384 7 7 (188160)
I0714 21:53:14.492866 13329 net.cpp:156] Memory required for data: 544284160
I0714 21:53:14.492871 13329 layer_factory.hpp:77] Creating layer inception_5b/3x3_reduce
I0714 21:53:14.492892 13329 net.cpp:91] Creating Layer inception_5b/3x3_reduce
I0714 21:53:14.492898 13329 net.cpp:425] inception_5b/3x3_reduce <- inception_5a/output_inception_5a/output_0_split_1
I0714 21:53:14.492908 13329 net.cpp:399] inception_5b/3x3_reduce -> inception_5b/3x3_reduce
I0714 21:53:14.500444 13329 net.cpp:141] Setting up inception_5b/3x3_reduce
I0714 21:53:14.500464 13329 net.cpp:148] Top shape: 10 192 7 7 (94080)
I0714 21:53:14.500469 13329 net.cpp:156] Memory required for data: 544660480
I0714 21:53:14.500479 13329 layer_factory.hpp:77] Creating layer inception_5b/relu_3x3_reduce
I0714 21:53:14.500494 13329 net.cpp:91] Creating Layer inception_5b/relu_3x3_reduce
I0714 21:53:14.500500 13329 net.cpp:425] inception_5b/relu_3x3_reduce <- inception_5b/3x3_reduce
I0714 21:53:14.500509 13329 net.cpp:386] inception_5b/relu_3x3_reduce -> inception_5b/3x3_reduce (in-place)
I0714 21:53:14.501039 13329 net.cpp:141] Setting up inception_5b/relu_3x3_reduce
I0714 21:53:14.501055 13329 net.cpp:148] Top shape: 10 192 7 7 (94080)
I0714 21:53:14.501060 13329 net.cpp:156] Memory required for data: 545036800
I0714 21:53:14.501065 13329 layer_factory.hpp:77] Creating layer inception_5b/3x3
I0714 21:53:14.501085 13329 net.cpp:91] Creating Layer inception_5b/3x3
I0714 21:53:14.501091 13329 net.cpp:425] inception_5b/3x3 <- inception_5b/3x3_reduce
I0714 21:53:14.501103 13329 net.cpp:399] inception_5b/3x3 -> inception_5b/3x3
I0714 21:53:14.501189 13325 net.cpp:141] Setting up inception_5b/3x3
I0714 21:53:14.501209 13325 net.cpp:148] Top shape: 10 384 7 7 (188160)
I0714 21:53:14.501214 13325 net.cpp:156] Memory required for data: 545789440
I0714 21:53:14.501224 13325 layer_factory.hpp:77] Creating layer inception_5b/relu_3x3
I0714 21:53:14.501235 13325 net.cpp:91] Creating Layer inception_5b/relu_3x3
I0714 21:53:14.501242 13325 net.cpp:425] inception_5b/relu_3x3 <- inception_5b/3x3
I0714 21:53:14.501250 13325 net.cpp:386] inception_5b/relu_3x3 -> inception_5b/3x3 (in-place)
I0714 21:53:14.502313 13325 net.cpp:141] Setting up inception_5b/relu_3x3
I0714 21:53:14.502333 13325 net.cpp:148] Top shape: 10 384 7 7 (188160)
I0714 21:53:14.502338 13325 net.cpp:156] Memory required for data: 546542080
I0714 21:53:14.502344 13325 layer_factory.hpp:77] Creating layer inception_5b/5x5_reduce
I0714 21:53:14.502362 13325 net.cpp:91] Creating Layer inception_5b/5x5_reduce
I0714 21:53:14.502368 13325 net.cpp:425] inception_5b/5x5_reduce <- inception_5a/output_inception_5a/output_0_split_2
I0714 21:53:14.502382 13325 net.cpp:399] inception_5b/5x5_reduce -> inception_5b/5x5_reduce
I0714 21:53:14.508772 13325 net.cpp:141] Setting up inception_5b/5x5_reduce
I0714 21:53:14.508792 13325 net.cpp:148] Top shape: 10 48 7 7 (23520)
I0714 21:53:14.508798 13325 net.cpp:156] Memory required for data: 546636160
I0714 21:53:14.508808 13325 layer_factory.hpp:77] Creating layer inception_5b/relu_5x5_reduce
I0714 21:53:14.508818 13325 net.cpp:91] Creating Layer inception_5b/relu_5x5_reduce
I0714 21:53:14.508826 13325 net.cpp:425] inception_5b/relu_5x5_reduce <- inception_5b/5x5_reduce
I0714 21:53:14.508836 13325 net.cpp:386] inception_5b/relu_5x5_reduce -> inception_5b/5x5_reduce (in-place)
I0714 21:53:14.509137 13325 net.cpp:141] Setting up inception_5b/relu_5x5_reduce
I0714 21:53:14.509150 13325 net.cpp:148] Top shape: 10 48 7 7 (23520)
I0714 21:53:14.509155 13325 net.cpp:156] Memory required for data: 546730240
I0714 21:53:14.509160 13325 layer_factory.hpp:77] Creating layer inception_5b/5x5
I0714 21:53:14.509177 13325 net.cpp:91] Creating Layer inception_5b/5x5
I0714 21:53:14.509186 13325 net.cpp:425] inception_5b/5x5 <- inception_5b/5x5_reduce
I0714 21:53:14.509196 13325 net.cpp:399] inception_5b/5x5 -> inception_5b/5x5
I0714 21:53:14.515662 13329 net.cpp:141] Setting up inception_5b/3x3
I0714 21:53:14.515686 13329 net.cpp:148] Top shape: 10 384 7 7 (188160)
I0714 21:53:14.515691 13329 net.cpp:156] Memory required for data: 545789440
I0714 21:53:14.515702 13329 layer_factory.hpp:77] Creating layer inception_5b/relu_3x3
I0714 21:53:14.515712 13329 net.cpp:91] Creating Layer inception_5b/relu_3x3
I0714 21:53:14.515718 13329 net.cpp:425] inception_5b/relu_3x3 <- inception_5b/3x3
I0714 21:53:14.515729 13329 net.cpp:386] inception_5b/relu_3x3 -> inception_5b/3x3 (in-place)
I0714 21:53:14.516790 13329 net.cpp:141] Setting up inception_5b/relu_3x3
I0714 21:53:14.516808 13329 net.cpp:148] Top shape: 10 384 7 7 (188160)
I0714 21:53:14.516813 13329 net.cpp:156] Memory required for data: 546542080
I0714 21:53:14.516819 13329 layer_factory.hpp:77] Creating layer inception_5b/5x5_reduce
I0714 21:53:14.516837 13329 net.cpp:91] Creating Layer inception_5b/5x5_reduce
I0714 21:53:14.516844 13329 net.cpp:425] inception_5b/5x5_reduce <- inception_5a/output_inception_5a/output_0_split_2
I0714 21:53:14.516857 13329 net.cpp:399] inception_5b/5x5_reduce -> inception_5b/5x5_reduce
I0714 21:53:14.516907 13325 net.cpp:141] Setting up inception_5b/5x5
I0714 21:53:14.516924 13325 net.cpp:148] Top shape: 10 128 7 7 (62720)
I0714 21:53:14.516929 13325 net.cpp:156] Memory required for data: 546981120
I0714 21:53:14.516939 13325 layer_factory.hpp:77] Creating layer inception_5b/relu_5x5
I0714 21:53:14.516949 13325 net.cpp:91] Creating Layer inception_5b/relu_5x5
I0714 21:53:14.516955 13325 net.cpp:425] inception_5b/relu_5x5 <- inception_5b/5x5
I0714 21:53:14.516968 13325 net.cpp:386] inception_5b/relu_5x5 -> inception_5b/5x5 (in-place)
I0714 21:53:14.517479 13325 net.cpp:141] Setting up inception_5b/relu_5x5
I0714 21:53:14.517500 13325 net.cpp:148] Top shape: 10 128 7 7 (62720)
I0714 21:53:14.517505 13325 net.cpp:156] Memory required for data: 547232000
I0714 21:53:14.517511 13325 layer_factory.hpp:77] Creating layer inception_5b/pool
I0714 21:53:14.517524 13325 net.cpp:91] Creating Layer inception_5b/pool
I0714 21:53:14.517529 13325 net.cpp:425] inception_5b/pool <- inception_5a/output_inception_5a/output_0_split_3
I0714 21:53:14.517539 13325 net.cpp:399] inception_5b/pool -> inception_5b/pool
I0714 21:53:14.517887 13325 net.cpp:141] Setting up inception_5b/pool
I0714 21:53:14.517904 13325 net.cpp:148] Top shape: 10 832 7 7 (407680)
I0714 21:53:14.517910 13325 net.cpp:156] Memory required for data: 548862720
I0714 21:53:14.517915 13325 layer_factory.hpp:77] Creating layer inception_5b/pool_proj
I0714 21:53:14.517933 13325 net.cpp:91] Creating Layer inception_5b/pool_proj
I0714 21:53:14.517940 13325 net.cpp:425] inception_5b/pool_proj <- inception_5b/pool
I0714 21:53:14.517951 13325 net.cpp:399] inception_5b/pool_proj -> inception_5b/pool_proj
I0714 21:53:14.524533 13329 net.cpp:141] Setting up inception_5b/5x5_reduce
I0714 21:53:14.524556 13329 net.cpp:148] Top shape: 10 48 7 7 (23520)
I0714 21:53:14.524564 13329 net.cpp:156] Memory required for data: 546636160
I0714 21:53:14.524586 13329 layer_factory.hpp:77] Creating layer inception_5b/relu_5x5_reduce
I0714 21:53:14.524598 13329 net.cpp:91] Creating Layer inception_5b/relu_5x5_reduce
I0714 21:53:14.524605 13329 net.cpp:425] inception_5b/relu_5x5_reduce <- inception_5b/5x5_reduce
I0714 21:53:14.524621 13329 net.cpp:386] inception_5b/relu_5x5_reduce -> inception_5b/5x5_reduce (in-place)
I0714 21:53:14.525092 13329 net.cpp:141] Setting up inception_5b/relu_5x5_reduce
I0714 21:53:14.525110 13329 net.cpp:148] Top shape: 10 48 7 7 (23520)
I0714 21:53:14.525115 13329 net.cpp:156] Memory required for data: 546730240
I0714 21:53:14.525120 13329 layer_factory.hpp:77] Creating layer inception_5b/5x5
I0714 21:53:14.525140 13329 net.cpp:91] Creating Layer inception_5b/5x5
I0714 21:53:14.525146 13329 net.cpp:425] inception_5b/5x5 <- inception_5b/5x5_reduce
I0714 21:53:14.525158 13329 net.cpp:399] inception_5b/5x5 -> inception_5b/5x5
I0714 21:53:14.525952 13325 net.cpp:141] Setting up inception_5b/pool_proj
I0714 21:53:14.525975 13325 net.cpp:148] Top shape: 10 128 7 7 (62720)
I0714 21:53:14.525981 13325 net.cpp:156] Memory required for data: 549113600
I0714 21:53:14.525992 13325 layer_factory.hpp:77] Creating layer inception_5b/relu_pool_proj
I0714 21:53:14.526006 13325 net.cpp:91] Creating Layer inception_5b/relu_pool_proj
I0714 21:53:14.526013 13325 net.cpp:425] inception_5b/relu_pool_proj <- inception_5b/pool_proj
I0714 21:53:14.526021 13325 net.cpp:386] inception_5b/relu_pool_proj -> inception_5b/pool_proj (in-place)
I0714 21:53:14.527170 13325 net.cpp:141] Setting up inception_5b/relu_pool_proj
I0714 21:53:14.527189 13325 net.cpp:148] Top shape: 10 128 7 7 (62720)
I0714 21:53:14.527194 13325 net.cpp:156] Memory required for data: 549364480
I0714 21:53:14.527199 13325 layer_factory.hpp:77] Creating layer inception_5b/output
I0714 21:53:14.527214 13325 net.cpp:91] Creating Layer inception_5b/output
I0714 21:53:14.527220 13325 net.cpp:425] inception_5b/output <- inception_5b/1x1
I0714 21:53:14.527227 13325 net.cpp:425] inception_5b/output <- inception_5b/3x3
I0714 21:53:14.527233 13325 net.cpp:425] inception_5b/output <- inception_5b/5x5
I0714 21:53:14.527240 13325 net.cpp:425] inception_5b/output <- inception_5b/pool_proj
I0714 21:53:14.527246 13325 net.cpp:399] inception_5b/output -> inception_5b/output
I0714 21:53:14.527360 13325 net.cpp:141] Setting up inception_5b/output
I0714 21:53:14.527371 13325 net.cpp:148] Top shape: 10 1024 7 7 (501760)
I0714 21:53:14.527376 13325 net.cpp:156] Memory required for data: 551371520
I0714 21:53:14.527381 13325 layer_factory.hpp:77] Creating layer pool5/7x7_s1
I0714 21:53:14.527390 13325 net.cpp:91] Creating Layer pool5/7x7_s1
I0714 21:53:14.527396 13325 net.cpp:425] pool5/7x7_s1 <- inception_5b/output
I0714 21:53:14.527407 13325 net.cpp:399] pool5/7x7_s1 -> pool5/7x7_s1
I0714 21:53:14.527822 13325 net.cpp:141] Setting up pool5/7x7_s1
I0714 21:53:14.527835 13325 net.cpp:148] Top shape: 10 1024 1 1 (10240)
I0714 21:53:14.527839 13325 net.cpp:156] Memory required for data: 551412480
I0714 21:53:14.527845 13325 layer_factory.hpp:77] Creating layer pool5/drop_7x7_s1
I0714 21:53:14.527858 13325 net.cpp:91] Creating Layer pool5/drop_7x7_s1
I0714 21:53:14.527863 13325 net.cpp:425] pool5/drop_7x7_s1 <- pool5/7x7_s1
I0714 21:53:14.527873 13325 net.cpp:386] pool5/drop_7x7_s1 -> pool5/7x7_s1 (in-place)
I0714 21:53:14.527978 13325 net.cpp:141] Setting up pool5/drop_7x7_s1
I0714 21:53:14.527989 13325 net.cpp:148] Top shape: 10 1024 1 1 (10240)
I0714 21:53:14.527994 13325 net.cpp:156] Memory required for data: 551453440
I0714 21:53:14.527998 13325 layer_factory.hpp:77] Creating layer loss3/classifier
I0714 21:53:14.528017 13325 net.cpp:91] Creating Layer loss3/classifier
I0714 21:53:14.528023 13325 net.cpp:425] loss3/classifier <- pool5/7x7_s1
I0714 21:53:14.528033 13325 net.cpp:399] loss3/classifier -> loss3/classifier
I0714 21:53:14.534848 13329 net.cpp:141] Setting up inception_5b/5x5
I0714 21:53:14.534871 13329 net.cpp:148] Top shape: 10 128 7 7 (62720)
I0714 21:53:14.534876 13329 net.cpp:156] Memory required for data: 546981120
I0714 21:53:14.534888 13329 layer_factory.hpp:77] Creating layer inception_5b/relu_5x5
I0714 21:53:14.534896 13329 net.cpp:91] Creating Layer inception_5b/relu_5x5
I0714 21:53:14.534903 13329 net.cpp:425] inception_5b/relu_5x5 <- inception_5b/5x5
I0714 21:53:14.534914 13329 net.cpp:386] inception_5b/relu_5x5 -> inception_5b/5x5 (in-place)
I0714 21:53:14.535215 13329 net.cpp:141] Setting up inception_5b/relu_5x5
I0714 21:53:14.535228 13329 net.cpp:148] Top shape: 10 128 7 7 (62720)
I0714 21:53:14.535233 13329 net.cpp:156] Memory required for data: 547232000
I0714 21:53:14.535238 13329 layer_factory.hpp:77] Creating layer inception_5b/pool
I0714 21:53:14.535250 13329 net.cpp:91] Creating Layer inception_5b/pool
I0714 21:53:14.535257 13329 net.cpp:425] inception_5b/pool <- inception_5a/output_inception_5a/output_0_split_3
I0714 21:53:14.535265 13329 net.cpp:399] inception_5b/pool -> inception_5b/pool
I0714 21:53:14.535423 13329 net.cpp:141] Setting up inception_5b/pool
I0714 21:53:14.535434 13329 net.cpp:148] Top shape: 10 832 7 7 (407680)
I0714 21:53:14.535439 13329 net.cpp:156] Memory required for data: 548862720
I0714 21:53:14.535444 13329 layer_factory.hpp:77] Creating layer inception_5b/pool_proj
I0714 21:53:14.535459 13329 net.cpp:91] Creating Layer inception_5b/pool_proj
I0714 21:53:14.535466 13329 net.cpp:425] inception_5b/pool_proj <- inception_5b/pool
I0714 21:53:14.535483 13329 net.cpp:399] inception_5b/pool_proj -> inception_5b/pool_proj
I0714 21:53:14.541060 13325 net.cpp:141] Setting up loss3/classifier
I0714 21:53:14.541085 13325 net.cpp:148] Top shape: 10 1000 (10000)
I0714 21:53:14.541090 13325 net.cpp:156] Memory required for data: 551493440
I0714 21:53:14.541100 13325 layer_factory.hpp:77] Creating layer prob
I0714 21:53:14.541116 13325 net.cpp:91] Creating Layer prob
I0714 21:53:14.541124 13325 net.cpp:425] prob <- loss3/classifier
I0714 21:53:14.541132 13325 net.cpp:399] prob -> prob
I0714 21:53:14.542930 13329 net.cpp:141] Setting up inception_5b/pool_proj
I0714 21:53:14.542953 13329 net.cpp:148] Top shape: 10 128 7 7 (62720)
I0714 21:53:14.542958 13329 net.cpp:156] Memory required for data: 549113600
I0714 21:53:14.542969 13329 layer_factory.hpp:77] Creating layer inception_5b/relu_pool_proj
I0714 21:53:14.542974 13325 net.cpp:141] Setting up prob
I0714 21:53:14.542979 13329 net.cpp:91] Creating Layer inception_5b/relu_pool_proj
I0714 21:53:14.542994 13325 net.cpp:148] Top shape: 10 1000 (10000)
I0714 21:53:14.542997 13329 net.cpp:425] inception_5b/relu_pool_proj <- inception_5b/pool_proj
I0714 21:53:14.542999 13325 net.cpp:156] Memory required for data: 551533440
I0714 21:53:14.543006 13325 net.cpp:219] prob does not need backward computation.
I0714 21:53:14.543011 13329 net.cpp:386] inception_5b/relu_pool_proj -> inception_5b/pool_proj (in-place)
I0714 21:53:14.543012 13325 net.cpp:219] loss3/classifier does not need backward computation.
…
I0714 21:53:14.543779 13325 net.cpp:219] pool1/norm1 does not need backward computation.
I0714 21:53:14.543784 13325 net.cpp:219] pool1/3x3_s2 does not need backward computation.
I0714 21:53:14.543790 13325 net.cpp:219] conv1/relu_7x7 does not need backward computation.
I0714 21:53:14.543794 13325 net.cpp:219] conv1/7x7_s2 does not need backward computation.
I0714 21:53:14.543800 13325 net.cpp:219] data does not need backward computation.
I0714 21:53:14.543804 13325 net.cpp:261] This network produces output prob
I0714 21:53:14.543912 13329 net.cpp:141] Setting up inception_5b/relu_pool_proj
I0714 21:53:14.543926 13329 net.cpp:148] Top shape: 10 128 7 7 (62720)
I0714 21:53:14.543931 13329 net.cpp:156] Memory required for data: 549364480
I0714 21:53:14.543937 13329 layer_factory.hpp:77] Creating layer inception_5b/output
I0714 21:53:14.543951 13329 net.cpp:91] Creating Layer inception_5b/output
I0714 21:53:14.543957 13329 net.cpp:425] inception_5b/output <- inception_5b/1x1
I0714 21:53:14.543965 13329 net.cpp:425] inception_5b/output <- inception_5b/3x3
I0714 21:53:14.543964 13325 net.cpp:274] Network initialization done.
I0714 21:53:14.543974 13329 net.cpp:425] inception_5b/output <- inception_5b/5x5
I0714 21:53:14.543993 13329 net.cpp:425] inception_5b/output <- inception_5b/pool_proj
I0714 21:53:14.544001 13329 net.cpp:399] inception_5b/output -> inception_5b/output
I0714 21:53:14.544106 13329 net.cpp:141] Setting up inception_5b/output
I0714 21:53:14.544117 13329 net.cpp:148] Top shape: 10 1024 7 7 (501760)
I0714 21:53:14.544122 13329 net.cpp:156] Memory required for data: 551371520
I0714 21:53:14.544127 13329 layer_factory.hpp:77] Creating layer pool5/7x7_s1
I0714 21:53:14.544142 13329 net.cpp:91] Creating Layer pool5/7x7_s1
I0714 21:53:14.544147 13329 net.cpp:425] pool5/7x7_s1 <- inception_5b/output
I0714 21:53:14.544162 13329 net.cpp:399] pool5/7x7_s1 -> pool5/7x7_s1
I0714 21:53:14.544538 13329 net.cpp:141] Setting up pool5/7x7_s1
I0714 21:53:14.544550 13329 net.cpp:148] Top shape: 10 1024 1 1 (10240)
I0714 21:53:14.544555 13329 net.cpp:156] Memory required for data: 551412480
I0714 21:53:14.544561 13329 layer_factory.hpp:77] Creating layer pool5/drop_7x7_s1
I0714 21:53:14.544571 13329 net.cpp:91] Creating Layer pool5/drop_7x7_s1
I0714 21:53:14.544577 13329 net.cpp:425] pool5/drop_7x7_s1 <- pool5/7x7_s1
I0714 21:53:14.544587 13329 net.cpp:386] pool5/drop_7x7_s1 -> pool5/7x7_s1 (in-place)
I0714 21:53:14.544674 13329 net.cpp:141] Setting up pool5/drop_7x7_s1
I0714 21:53:14.544685 13329 net.cpp:148] Top shape: 10 1024 1 1 (10240)
I0714 21:53:14.544689 13329 net.cpp:156] Memory required for data: 551453440
I0714 21:53:14.544694 13329 layer_factory.hpp:77] Creating layer loss3/classifier
I0714 21:53:14.544713 13329 net.cpp:91] Creating Layer loss3/classifier
I0714 21:53:14.544718 13329 net.cpp:425] loss3/classifier <- pool5/7x7_s1
I0714 21:53:14.544726 13329 net.cpp:399] loss3/classifier -> loss3/classifier
I0714 21:53:14.557029 13329 net.cpp:141] Setting up loss3/classifier
I0714 21:53:14.557056 13329 net.cpp:148] Top shape: 10 1000 (10000)
I0714 21:53:14.557061 13329 net.cpp:156] Memory required for data: 551493440
I0714 21:53:14.557072 13329 layer_factory.hpp:77] Creating layer prob
I0714 21:53:14.557090 13329 net.cpp:91] Creating Layer prob
I0714 21:53:14.557096 13329 net.cpp:425] prob <- loss3/classifier
I0714 21:53:14.557106 13329 net.cpp:399] prob -> prob
I0714 21:53:14.558516 13329 net.cpp:141] Setting up prob
I0714 21:53:14.558532 13329 net.cpp:148] Top shape: 10 1000 (10000)
I0714 21:53:14.558537 13329 net.cpp:156] Memory required for data: 551533440
I0714 21:53:14.558543 13329 net.cpp:219] prob does not need backward computation.
I0714 21:53:14.558548 13329 net.cpp:219] loss3/classifier does not need backward computation.
I0714 21:53:14.558552 13329 net.cpp:219] pool5/drop_7x7_s1 does not need backward computation.
I0714 21:53:14.558557 13329 net.cpp:219] pool5/7x7_s1 does not need backward computation.
…
