…
Java HotSpot(TM) 64-Bit Server VM warning: You have loaded library /home/peifeng/work/run/storm102/data/workers/f86df444-aa80-4794-b456-c2c29780bd94/tmp/cvld5327148163157470638/libopencv_java310.xine1.so which might have disabled stack guard. The VM will try to fix the stack guard now.
It's highly recommended that you fix the library with 'execstack -c <libfile>', or link it with '-z noexecstack'.
WARNING: Logging before InitGoogleLogging() is written to STDERR
I0915 12:19:41.313940  3732 net.cpp:49] Initializing net from parameters: 
name: "GoogleNet"
state {
  phase: TEST
}
layer {
  name: "data"
  type: "Input"
  top: "data"
  input_param {
    shape {
      dim: 10
      dim: 3
      dim: 224
      dim: 224
    }
  }
}
layer {
  name: "conv1/7x7_s2"
  type: "Convolution"
  bottom: "data"
  top: "conv1/7x7_s2"
  param {
    lr_mult: 1
    decay_mult: 1
  }
  param {
    lr_mult: 2
    decay_mult: 0
  }
  convolution_param {
    num_output: 64
    pad: 3
    kernel_size: 7
    stride: 2
    weight_filler {
      type: "xavier"
      std: 0.1
    }
    bias_filler {
      type: "constant"
      value: 0.2
    }
  }
}
layer {
  name: "conv1/relu_7x7"
  type: "ReLU"
  bottom: "conv1/7x7_s2"
  top: "conv1/7x7_s2"
}
layer {
  name: "pool1/3x3_s2"
  type: "Pooling"
  bottom: "conv1/7x7_s2"
  top: "pool1/3x3_s2"
  pooling_param {
    pool: MAX
    kernel_size: 3
    stride: 2
  }
}
layer {
  name: "pool1/norm1"
  type: "LRN"
  bottom: "pool1/3x3_s2"
  top: "pool1/norm1"
  lrn_param {
    local_size: 5
    alpha: 0.0001
    beta: 0.75
  }
}
layer {
  name: "conv2/3x3_reduce"
  type: "Convolution"
  bottom: "pool1/norm1"
  top: "conv2/3x3_reduce"
  param {
    lr_mult: 1
    decay_mult: 1
  }
  param {
    lr_mult: 2
    decay_mult: 0
  }
  convolution_param {
    num_output: 64
    kernel_size: 1
    weight_filler {
      type: "xavier"
      std: 0.1
    }
    bias_filler {
      type: "constant"
      value: 0.2
    }
  }
}
layer {
  name: "conv2/relu_3x3_reduce"
  type: "ReLU"
  bottom: "conv2/3x3_reduce"
  top: "conv2/3x3_reduce"
}
layer {
  name: "conv2/3x3"
  type: "Convolution"
  bottom: "conv2/3x3_reduce"
  top: "conv2/3x3"
  param {
    lr_mult: 1
    decay_mult: 1
  }
  param {
    lr_mult: 2
    decay_mult: 0
  }
  convolution_param {
    num_output: 192
    pad: 1
    kernel_size: 3
    weight_filler {
      type: "xavier"
      std: 0.03
    }
    bias_filler {
      type: "constant"
      value: 0.2
    }
  }
}
layer {
  name: "conv2/relu_3x3"
  type: "ReLU"
  bottom: "conv2/3x3"
  top: "conv2/3x3"
}
layer {
  name: "conv2/norm2"
  type: "LRN"
  bottom: "conv2/3x3"
  top: "conv2/norm2"
  lrn_param {
    local_size: 5
    alpha: 0.0001
    beta: 0.75
  }
}
layer {
  name: "pool2/3x3_s2"
  type: "Pooling"
  bottom: "conv2/norm2"
  top: "pool2/3x3_s2"
  pooling_param {
    pool: MAX
    kernel_size: 3
    stride: 2
  }
}
layer {
  name: "inception_3a/1x1"
  type: "Convolution"
  bottom: "pool2/3x3_s2"
  top: "inception_3a/1x1"
  param {
    lr_mult: 1
    decay_mult: 1
  }
  param {
    lr_mult: 2
    decay_mult: 0
  }
  convolution_param {
    num_output: 64
    kernel_size: 1
    weight_filler {
      type: "xavier"
      std: 0.03
    }
    bias_filler {
      type: "constant"
      value: 0.2
    }
  }
}
layer {
  name: "inception_3a/relu_1x1"
  type: "ReLU"
  bottom: "inception_3a/1x1"
  top: "inception_3a/1x1"
}
layer {
  name: "inception_3a/3x3_reduce"
  type: "Convolution"
  bottom: "pool2/3x3_s2"
  top: "inception_3a/3x3_reduce"
  param {
    lr_mult: 1
    decay_mult: 1
  }
  param {
    lr_mult: 2
    decay_mult: 0
  }
  convolution_param {
    num_output: 96
    kernel_size: 1
    weight_filler {
      type: "xavier"
      std: 0.09
    }
    bias_filler {
      type: "constant"
      value: 0.2
    }
  }
}
layer {
  name: "inception_3a/relu_3x3_reduce"
  type: "ReLU"
  bottom: "inception_3a/3x3_reduce"
  top: "inception_3a/3x3_reduce"
}
layer {
  name: "inception_3a/3x3"
  type: "Convolution"
  bottom: "inception_3a/3x3_reduce"
  top: "inception_3a/3x3"
  param {
    lr_mult: 1
    decay_mult: 1
  }
  param {
    lr_mult: 2
    decay_mult: 0
  }
  convolution_param {
    num_output: 128
    pad: 1
    kernel_size: 3
    weight_filler {
      type: "xavier"
      std: 0.03
    }
    bias_filler {
      type: "constant"
      value: 0.2
    }
  }
}
layer {
  name: "inception_3a/relu_3x3"
  type: "ReLU"
  bottom: "inception_3a/3x3"
  top: "inception_3a/3x3"
}
layer {
  name: "inception_3a/5x5_reduce"
  type: "Convolution"
  bottom: "pool2/3x3_s2"
  top: "inception_3a/5x5_reduce"
  param {
    lr_mult: 1
    decay_mult: 1
  }
  param {
    lr_mult: 2
    decay_mult: 0
  }
  convolution_param {
    num_output: 16
    kernel_size: 1
    weight_filler {
      type: "xavier"
      std: 0.2
    }
    bias_filler {
      type: "constant"
      value: 0.2
    }
  }
}
layer {
  name: "inception_3a/relu_5x5_reduce"
  type: "ReLU"
  bottom: "inception_3a/5x5_reduce"
  top: "inception_3a/5x5_reduce"
}
layer {
  name: "inception_3a/5x5"
  type: "Convolution"
  bottom: "inception_3a/5x5_reduce"
  top: "inception_3a/5x5"
  param {
    lr_mult: 1
    decay_mult: 1
  }
  param {
    lr_mult: 2
    decay_mult: 0
  }
  convolution_param {
    num_output: 32
    pad: 2
    kernel_size: 5
    weight_filler {
      type: "xavier"
      std: 0.03
    }
    bias_filler {
      type: "constant"
      value: 0.2
    }
  }
}
layer {
  name: "inception_3a/relu_5x5"
  type: "ReLU"
  bottom: "inception_3a/5x5"
  top: "inception_3a/5x5"
}
layer {
  name: "inception_3a/pool"
  type: "Pooling"
  bottom: "pool2/3x3_s2"
  top: "inception_3a/pool"
  pooling_param {
    pool: MAX
    kernel_size: 3
    stride: 1
    pad: 1
  }
}
layer {
  name: "inception_3a/pool_proj"
  type: "Convolution"
  bottom: "inception_3a/pool"
  top: "inception_3a/pool_proj"
  param {
    lr_mult: 1
    decay_mult: 1
  }
  param {
    lr_mult: 2
    decay_mult: 0
  }
  convolution_param {
    num_output: 32
    kernel_size: 1
    weight_filler {
      type: "xavier"
      std: 0.1
    }
    bias_filler {
      type: "constant"
      value: 0.2
    }
  }
}
layer {
  name: "inception_3a/relu_pool_proj"
  type: "ReLU"
  bottom: "inception_3a/pool_proj"
  top: "inception_3a/pool_proj"
}
layer {
  name: "inception_3a/output"
  type: "Concat"
  bottom: "inception_3a/1x1"
  bottom: "inception_3a/3x3"
  bottom: "inception_3a/5x5"
  bottom: "inception_3a/pool_proj"
  top: "inception_3a/output"
}
layer {
  name: "inception_3b/1x1"
  type: "Convolution"
  bottom: "inception_3a/output"
  top: "inception_3b/1x1"
  param {
    lr_mult: 1
    decay_mult: 1
  }
  param {
    lr_mult: 2
    decay_mult: 0
  }
  convolution_param {
    num_output: 128
    kernel_size: 1
    weight_filler {
      type: "xavier"
      std: 0.03
    }
    bias_filler {
      type: "constant"
      value: 0.2
    }
  }
}
layer {
  name: "inception_3b/relu_1x1"
  type: "ReLU"
  bottom: "inception_3b/1x1"
  top: "inception_3b/1x1"
}
layer {
  name: "inception_3b/3x3_reduce"
  type: "Convolution"
  bottom: "inception_3a/output"
  top: "inception_3b/3x3_reduce"
  param {
    lr_mult: 1
    decay_mult: 1
  }
  param {
    lr_mult: 2
    decay_mult: 0
  }
  convolution_param {
    num_output: 128
    kernel_size: 1
    weight_filler {
      type: "xavier"
      std: 0.09
    }
    bias_filler {
      type: "constant"
      value: 0.2
    }
  }
}
layer {
  name: "inception_3b/relu_3x3_reduce"
  type: "ReLU"
  bottom: "inception_3b/3x3_reduce"
  top: "inception_3b/3x3_reduce"
}
layer {
  name: "inception_3b/3x3"
  type: "Convolution"
  bottom: "inception_3b/3x3_reduce"
  top: "inception_3b/3x3"
  param {
    lr_mult: 1
    decay_mult: 1
  }
  param {
    lr_mult: 2
    decay_mult: 0
  }
  convolution_param {
    num_output: 192
    pad: 1
    kernel_size: 3
    weight_filler {
      type: "xavier"
      std: 0.03
    }
    bias_filler {
      type: "constant"
      value: 0.2
    }
  }
}
layer {
  name: "inception_3b/relu_3x3"
  type: "ReLU"
  bottom: "inception_3b/3x3"
  top: "inception_3b/3x3"
}
layer {
  name: "inception_3b/5x5_reduce"
  type: "Convolution"
  bottom: "inception_3a/output"
  top: "inception_3b/5x5_reduce"
  param {
    lr_mult: 1
    decay_mult: 1
  }
  param {
    lr_mult: 2
    decay_mult: 0
  }
  convolution_param {
    num_output: 32
    kernel_size: 1
    weight_filler {
      type: "xavier"
      std: 0.2
    }
    bias_filler {
      type: "constant"
      value: 0.2
    }
  }
}
layer {
  name: "inception_3b/relu_5x5_reduce"
  type: "ReLU"
  bottom: "inception_3b/5x5_reduce"
  top: "inception_3b/5x5_reduce"
}
layer {
  name: "inception_3b/5x5"
  type: "Convolution"
  bottom: "inception_3b/5x5_reduce"
  top: "inception_3b/5x5"
  param {
    lr_mult: 1
    decay_mult: 1
  }
  param {
    lr_mult: 2
    decay_mult: 0
  }
  convolution_param {
    num_output: 96
    pad: 2
    kernel_size: 5
    weight_filler {
      type: "xavier"
      std: 0.03
    }
    bias_filler {
      type: "constant"
      value: 0.2
    }
  }
}
layer {
  name: "inception_3b/relu_5x5"
  type: "ReLU"
  bottom: "inception_3b/5x5"
  top: "inception_3b/5x5"
}
layer {
  name: "inception_3b/pool"
  type: "Pooling"
  bottom: "inception_3a/output"
  top: "inception_3b/pool"
  pooling_param {
    pool: MAX
    kernel_size: 3
    stride: 1
    pad: 1
  }
}
layer {
  name: "inception_3b/pool_proj"
  type: "Convolution"
  bottom: "inception_3b/pool"
  top: "inception_3b/pool_proj"
  param {
    lr_mult: 1
    decay_mult: 1
  }
  param {
    lr_mult: 2
    decay_mult: 0
  }
  convolution_param {
    num_output: 64
    kernel_size: 1
    weight_filler {
      type: "xavier"
      std: 0.1
    }
    bias_filler {
      type: "constant"
      value: 0.2
    }
  }
}
layer {
  name: "inception_3b/relu_pool_proj"
  type: "ReLU"
  bottom: "inception_3b/pool_proj"
  top: "inception_3b/pool_proj"
}
layer {
  name: "inception_3b/output"
  type: "Concat"
  bottom: "inception_3b/1x1"
  bottom: "inception_3b/3x3"
  bottom: "inception_3b/5x5"
  bottom: "inception_3b/pool_proj"
  top: "inception_3b/output"
}
layer {
  name: "pool3/3x3_s2"
  type: "Pooling"
  bottom: "inception_3b/output"
  top: "pool3/3x3_s2"
  pooling_param {
    pool: MAX
    kernel_size: 3
    stride: 2
  }
}
layer {
  name: "inception_4a/1x1"
  type: "Convolution"
  bottom: "pool3/3x3_s2"
  top: "inception_4a/1x1"
  param {
    lr_mult: 1
    decay_mult: 1
  }
  param {
    lr_mult: 2
    decay_mult: 0
  }
  convolution_param {
    num_output: 192
    kernel_size: 1
    weight_filler {
      type: "xavier"
      std: 0.03
    }
    bias_filler {
      type: "constant"
      value: 0.2
    }
  }
}
layer {
  name: "inception_4a/relu_1x1"
  type: "ReLU"
  bottom: "inception_4a/1x1"
  top: "inception_4a/1x1"
}
layer {
  name: "inception_4a/3x3_reduce"
  type: "Convolution"
  bottom: "pool3/3x3_s2"
  top: "inception_4a/3x3_reduce"
  param {
    lr_mult: 1
    decay_mult: 1
  }
  param {
    lr_mult: 2
    decay_mult: 0
  }
  convolution_param {
    num_output: 96
    kernel_size: 1
    weight_filler {
      type: "xavier"
      std: 0.09
    }
    bias_filler {
      type: "constant"
      value: 0.2
    }
  }
}
layer {
  name: "inception_4a/relu_3x3_reduce"
  type: "ReLU"
  bottom: "inception_4a/3x3_reduce"
  top: "inception_4a/3x3_reduce"
}
layer {
  name: "inception_4a/3x3"
  type: "Convolution"
  bottom: "inception_4a/3x3_reduce"
  top: "inception_4a/3x3"
  param {
    lr_mult: 1
    decay_mult: 1
  }
  param {
    lr_mult: 2
    decay_mult: 0
  }
  convolution_param {
    num_output: 208
    pad: 1
    kernel_size: 3
    weight_filler {
      type: "xavier"
      std: 0.03
    }
    bias_filler {
      type: "constant"
      value: 0.2
    }
  }
}
layer {
  name: "inception_4a/relu_3x3"
  type: "ReLU"
  bottom: "inception_4a/3x3"
  top: "inception_4a/3x3"
}
layer {
  name: "inception_4a/5x5_reduce"
  type: "Convolution"
  bottom: "pool3/3x3_s2"
  top: "inception_4a/5x5_reduce"
  param {
    lr_mult: 1
    decay_mult: 1
  }
  param {
    lr_mult: 2
    decay_mult: 0
  }
  convolution_param {
    num_output: 16
    kernel_size: 1
    weight_filler {
      type: "xavier"
      std: 0.2
    }
    bias_filler {
      type: "constant"
      value: 0.2
    }
  }
}
layer {
  name: "inception_4a/relu_5x5_reduce"
  type: "ReLU"
  bottom: "inception_4a/5x5_reduce"
  top: "inception_4a/5x5_reduce"
}
layer {
  name: "inception_4a/5x5"
  type: "Convolution"
  bottom: "inception_4a/5x5_reduce"
  top: "inception_4a/5x5"
  param {
    lr_mult: 1
    decay_mult: 1
  }
  param {
    lr_mult: 2
    decay_mult: 0
  }
  convolution_param {
    num_output: 48
    pad: 2
    kernel_size: 5
    weight_filler {
      type: "xavier"
      std: 0.03
    }
    bias_filler {
      type: "constant"
      value: 0.2
    }
  }
}
layer {
  name: "inception_4a/relu_5x5"
  type: "ReLU"
  bottom: "inception_4a/5x5"
  top: "inception_4a/5x5"
}
layer {
  name: "inception_4a/pool"
  type: "Pooling"
  bottom: "pool3/3x3_s2"
  top: "inception_4a/pool"
  pooling_param {
    pool: MAX
    kernel_size: 3
    stride: 1
    pad: 1
  }
}
layer {
  name: "inception_4a/pool_proj"
  type: "Convolution"
  bottom: "inception_4a/pool"
  top: "inception_4a/pool_proj"
  param {
    lr_mult: 1
    decay_mult: 1
  }
  param {
    lr_mult: 2
    decay_mult: 0
  }
  convolution_param {
    num_output: 64
    kernel_size: 1
    weight_filler {
      type: "xavier"
      std: 0.1
    }
    bias_filler {
      type: "constant"
      value: 0.2
    }
  }
}
layer {
  name: "inception_4a/relu_pool_proj"
  type: "ReLU"
  bottom: "inception_4a/pool_proj"
  top: "inception_4a/pool_proj"
}
layer {
  name: "inception_4a/output"
  type: "Concat"
  bottom: "inception_4a/1x1"
  bottom: "inception_4a/3x3"
  bottom: "inception_4a/5x5"
  bottom: "inception_4a/pool_proj"
  top: "inception_4a/output"
}
layer {
  name: "inception_4b/1x1"
  type: "Convolution"
  bottom: "inception_4a/output"
  top: "inception_4b/1x1"
  param {
    lr_mult: 1
    decay_mult: 1
  }
  param {
    lr_mult: 2
    decay_mult: 0
  }
  convolution_param {
    num_output: 160
    kernel_size: 1
    weight_filler {
      type: "xavier"
      std: 0.03
    }
    bias_filler {
      type: "constant"
      value: 0.2
    }
  }
}
layer {
  name: "inception_4b/relu_1x1"
  type: "ReLU"
  bottom: "inception_4b/1x1"
  top: "inception_4b/1x1"
}
layer {
  name: "inception_4b/3x3_reduce"
  type: "Convolution"
  bottom: "inception_4a/output"
  top: "inception_4b/3x3_reduce"
  param {
    lr_mult: 1
    decay_mult: 1
  }
  param {
    lr_mult: 2
    decay_mult: 0
  }
  convolution_param {
    num_output: 112
    kernel_size: 1
    weight_filler {
      type: "xavier"
      std: 0.09
    }
    bias_filler {
      type: "constant"
      value: 0.2
    }
  }
}
layer {
  name: "inception_4b/relu_3x3_reduce"
  type: "ReLU"
  bottom: "inception_4b/3x3_reduce"
  top: "inception_4b/3x3_reduce"
}
layer {
  name: "inception_4b/3x3"
  type: "Convolution"
  bottom: "inception_4b/3x3_reduce"
  top: "inception_4b/3x3"
  param {
    lr_mult: 1
    decay_mult: 1
  }
  param {
    lr_mult: 2
    decay_mult: 0
  }
  convolution_param {
    num_output: 224
    pad: 1
    kernel_size: 3
    weight_filler {
      type: "xavier"
      std: 0.03
    }
    bias_filler {
      type: "constant"
      value: 0.2
    }
  }
}
layer {
  name: "inception_4b/relu_3x3"
  type: "ReLU"
  bottom: "inception_4b/3x3"
  top: "inception_4b/3x3"
}
layer {
  name: "inception_4b/5x5_reduce"
  type: "Convolution"
  bottom: "inception_4a/output"
  top: "inception_4b/5x5_reduce"
  param {
    lr_mult: 1
    decay_mult: 1
  }
  param {
    lr_mult: 2
    decay_mult: 0
  }
  convolution_param {
    num_output: 24
    kernel_size: 1
    weight_filler {
      type: "xavier"
      std: 0.2
    }
    bias_filler {
      type: "constant"
      value: 0.2
    }
  }
}
layer {
  name: "inception_4b/relu_5x5_reduce"
  type: "ReLU"
  bottom: "inception_4b/5x5_reduce"
  top: "inception_4b/5x5_reduce"
}
layer {
  name: "inception_4b/5x5"
  type: "Convolution"
  bottom: "inception_4b/5x5_reduce"
  top: "inception_4b/5x5"
  param {
    lr_mult: 1
    decay_mult: 1
  }
  param {
    lr_mult: 2
    decay_mult: 0
  }
  convolution_param {
    num_output: 64
    pad: 2
    kernel_size: 5
    weight_filler {
      type: "xavier"
      std: 0.03
    }
    bias_filler {
      type: "constant"
      value: 0.2
    }
  }
}
layer {
  name: "inception_4b/relu_5x5"
  type: "ReLU"
  bottom: "inception_4b/5x5"
  top: "inception_4b/5x5"
}
layer {
  name: "inception_4b/pool"
  type: "Pooling"
  bottom: "inception_4a/output"
  top: "inception_4b/pool"
  pooling_param {
    pool: MAX
    kernel_size: 3
    stride: 1
    pad: 1
  }
}
layer {
  name: "inception_4b/pool_proj"
  type: "Convolution"
  bottom: "inception_4b/pool"
  top: "inception_4b/pool_proj"
  param {
    lr_mult: 1
    decay_mult: 1
  }
  param {
    lr_mult: 2
    decay_mult: 0
  }
  convolution_param {
    num_output: 64
    kernel_size: 1
    weight_filler {
      type: "xavier"
      std: 0.1
    }
    bias_filler {
      type: "constant"
      value: 0.2
    }
  }
}
layer {
  name: "inception_4b/relu_pool_proj"
  type: "ReLU"
  bottom: "inception_4b/pool_proj"
  top: "inception_4b/pool_proj"
}
layer {
  name: "inception_4b/output"
  type: "Concat"
  bottom: "inception_4b/1x1"
  bottom: "inception_4b/3x3"
  bottom: "inception_4b/5x5"
  bottom: "inception_4b/pool_proj"
  top: "inception_4b/output"
}
layer {
  name: "inception_4c/1x1"
  type: "Convolution"
  bottom: "inception_4b/output"
  top: "inception_4c/1x1"
  param {
    lr_mult: 1
    decay_mult: 1
  }
  param {
    lr_mult: 2
    decay_mult: 0
  }
  convolution_param {
    num_output: 128
    kernel_size: 1
    weight_filler {
      type: "xavier"
      std: 0.03
    }
    bias_filler {
      type: "constant"
      value: 0.2
    }
  }
}
layer {
  name: "inception_4c/relu_1x1"
  type: "ReLU"
  bottom: "inception_4c/1x1"
  top: "inception_4c/1x1"
}
layer {
  name: "inception_4c/3x3_reduce"
  type: "Convolution"
  bottom: "inception_4b/output"
  top: "inception_4c/3x3_reduce"
  param {
    lr_mult: 1
    decay_mult: 1
  }
  param {
    lr_mult: 2
    decay_mult: 0
  }
  convolution_param {
    num_output: 128
    kernel_size: 1
    weight_filler {
      type: "xavier"
      std: 0.09
    }
    bias_filler {
      type: "constant"
      value: 0.2
    }
  }
}
layer {
  name: "inception_4c/relu_3x3_reduce"
  type: "ReLU"
  bottom: "inception_4c/3x3_reduce"
  top: "inception_4c/3x3_reduce"
}
layer {
  name: "inception_4c/3x3"
  type: "Convolution"
  bottom: "inception_4c/3x3_reduce"
  top: "inception_4c/3x3"
  param {
    lr_mult: 1
    decay_mult: 1
  }
  param {
    lr_mult: 2
    decay_mult: 0
  }
  convolution_param {
    num_output: 256
    pad: 1
    kernel_size: 3
    weight_filler {
      type: "xavier"
      std: 0.03
    }
    bias_filler {
      type: "constant"
      value: 0.2
    }
  }
}
layer {
  name: "inception_4c/relu_3x3"
  type: "ReLU"
  bottom: "inception_4c/3x3"
  top: "inception_4c/3x3"
}
layer {
  name: "inception_4c/5x5_reduce"
  type: "Convolution"
  bottom: "inception_4b/output"
  top: "inception_4c/5x5_reduce"
  param {
    lr_mult: 1
    decay_mult: 1
  }
  param {
    lr_mult: 2
    decay_mult: 0
  }
  convolution_param {
    num_output: 24
    kernel_size: 1
    weight_filler {
      type: "xavier"
      std: 0.2
    }
    bias_filler {
      type: "constant"
      value: 0.2
    }
  }
}
layer {
  name: "inception_4c/relu_5x5_reduce"
  type: "ReLU"
  bottom: "inception_4c/5x5_reduce"
  top: "inception_4c/5x5_reduce"
}
layer {
  name: "inception_4c/5x5"
  type: "Convolution"
  bottom: "inception_4c/5x5_reduce"
  top: "inception_4c/5x5"
  param {
    lr_mult: 1
    decay_mult: 1
  }
  param {
    lr_mult: 2
    decay_mult: 0
  }
  convolution_param {
    num_output: 64
    pad: 2
    kernel_size: 5
    weight_filler {
      type: "xavier"
      std: 0.03
    }
    bias_filler {
      type: "constant"
      value: 0.2
    }
  }
}
layer {
  name: "inception_4c/relu_5x5"
  type: "ReLU"
  bottom: "inception_4c/5x5"
  top: "inception_4c/5x5"
}
layer {
  name: "inception_4c/pool"
  type: "Pooling"
  bottom: "inception_4b/output"
  top: "inception_4c/pool"
  pooling_param {
    pool: MAX
    kernel_size: 3
    stride: 1
    pad: 1
  }
}
layer {
  name: "inception_4c/pool_proj"
  type: "Convolution"
  bottom: "inception_4c/pool"
  top: "inception_4c/pool_proj"
  param {
    lr_mult: 1
    decay_mult: 1
  }
  param {
    lr_mult: 2
    decay_mult: 0
  }
  convolution_param {
    num_output: 64
    kernel_size: 1
    weight_filler {
      type: "xavier"
      std: 0.1
    }
    bias_filler {
      type: "constant"
      value: 0.2
    }
  }
}
layer {
  name: "inception_4c/relu_pool_proj"
  type: "ReLU"
  bottom: "inception_4c/pool_proj"
  top: "inception_4c/pool_proj"
}
layer {
  name: "inception_4c/output"
  type: "Concat"
  bottom: "inception_4c/1x1"
  bottom: "inception_4c/3x3"
  bottom: "inception_4c/5x5"
  bottom: "inception_4c/pool_proj"
  top: "inception_4c/output"
}
layer {
  name: "inception_4d/1x1"
  type: "Convolution"
  bottom: "inception_4c/output"
  top: "inception_4d/1x1"
  param {
    lr_mult: 1
    decay_mult: 1
  }
  param {
    lr_mult: 2
    decay_mult: 0
  }
  convolution_param {
    num_output: 112
    kernel_size: 1
    weight_filler {
      type: "xavier"
      std: 0.03
    }
    bias_filler {
      type: "constant"
      value: 0.2
    }
  }
}
layer {
  name: "inception_4d/relu_1x1"
  type: "ReLU"
  bottom: "inception_4d/1x1"
  top: "inception_4d/1x1"
}
layer {
  name: "inception_4d/3x3_reduce"
  type: "Convolution"
  bottom: "inception_4c/output"
  top: "inception_4d/3x3_reduce"
  param {
    lr_mult: 1
    decay_mult: 1
  }
  param {
    lr_mult: 2
    decay_mult: 0
  }
  convolution_param {
    num_output: 144
    kernel_size: 1
    weight_filler {
      type: "xavier"
      std: 0.09
    }
    bias_filler {
      type: "constant"
      value: 0.2
    }
  }
}
layer {
  name: "inception_4d/relu_3x3_reduce"
  type: "ReLU"
  bottom: "inception_4d/3x3_reduce"
  top: "inception_4d/3x3_reduce"
}
layer {
  name: "inception_4d/3x3"
  type: "Convolution"
  bottom: "inception_4d/3x3_reduce"
  top: "inception_4d/3x3"
  param {
    lr_mult: 1
    decay_mult: 1
  }
  param {
    lr_mult: 2
    decay_mult: 0
  }
  convolution_param {
    num_output: 288
    pad: 1
    kernel_size: 3
    weight_filler {
      type: "xavier"
      std: 0.03
    }
    bias_filler {
      type: "constant"
      value: 0.2
    }
  }
}
layer {
  name: "inception_4d/relu_3x3"
  type: "ReLU"
  bottom: "inception_4d/3x3"
  top: "inception_4d/3x3"
}
layer {
  name: "inception_4d/5x5_reduce"
  type: "Convolution"
  bottom: "inception_4c/output"
  top: "inception_4d/5x5_reduce"
  param {
    lr_mult: 1
    decay_mult: 1
  }
  param {
    lr_mult: 2
    decay_mult: 0
  }
  convolution_param {
    num_output: 32
    kernel_size: 1
    weight_filler {
      type: "xavier"
      std: 0.2
    }
    bias_filler {
      type: "constant"
      value: 0.2
    }
  }
}
layer {
  name: "inception_4d/relu_5x5_reduce"
  type: "ReLU"
  bottom: "inception_4d/5x5_reduce"
  top: "inception_4d/5x5_reduce"
}
layer {
  name: "inception_4d/5x5"
  type: "Convolution"
  bottom: "inception_4d/5x5_reduce"
  top: "inception_4d/5x5"
  param {
    lr_mult: 1
    decay_mult: 1
  }
  param {
    lr_mult: 2
    decay_mult: 0
  }
  convolution_param {
    num_output: 64
    pad: 2
    kernel_size: 5
    weight_filler {
      type: "xavier"
      std: 0.03
    }
    bias_filler {
      type: "constant"
      value: 0.2
    }
  }
}
layer {
  name: "inception_4d/relu_5x5"
  type: "ReLU"
  bottom: "inception_4d/5x5"
  top: "inception_4d/5x5"
}
layer {
  name: "inception_4d/pool"
  type: "Pooling"
  bottom: "inception_4c/output"
  top: "inception_4d/pool"
  pooling_param {
    pool: MAX
    kernel_size: 3
    stride: 1
    pad: 1
  }
}
layer {
  name: "inception_4d/pool_proj"
  type: "Convolution"
  bottom: "inception_4d/pool"
  top: "inception_4d/pool_proj"
  param {
    lr_mult: 1
    decay_mult: 1
  }
  param {
    lr_mult: 2
    decay_mult: 0
  }
  convolution_param {
    num_output: 64
    kernel_size: 1
    weight_filler {
      type: "xavier"
      std: 0.1
    }
    bias_filler {
      type: "constant"
      value: 0.2
    }
  }
}
layer {
  name: "inception_4d/relu_pool_proj"
  type: "ReLU"
  bottom: "inception_4d/pool_proj"
  top: "inception_4d/pool_proj"
}
layer {
  name: "inception_4d/output"
  type: "Concat"
  bottom: "inception_4d/1x1"
  bottom: "inception_4d/3x3"
  bottom: "inception_4d/5x5"
  bottom: "inception_4d/pool_proj"
  top: "inception_4d/output"
}
layer {
  name: "inception_4e/1x1"
  type: "Convolution"
  bottom: "inception_4d/output"
  top: "inception_4e/1x1"
  param {
    lr_mult: 1
    decay_mult: 1
  }
  param {
    lr_mult: 2
    decay_mult: 0
  }
  convolution_param {
    num_output: 256
    kernel_size: 1
    weight_filler {
      type: "xavier"
      std: 0.03
    }
    bias_filler {
      type: "constant"
      value: 0.2
    }
  }
}
layer {
  name: "inception_4e/relu_1x1"
  type: "ReLU"
  bottom: "inception_4e/1x1"
  top: "inception_4e/1x1"
}
layer {
  name: "inception_4e/3x3_reduce"
  type: "Convolution"
  bottom: "inception_4d/output"
  top: "inception_4e/3x3_reduce"
  param {
    lr_mult: 1
    decay_mult: 1
  }
  param {
    lr_mult: 2
    decay_mult: 0
  }
  convolution_param {
    num_output: 160
    kernel_size: 1
    weight_filler {
      type: "xavier"
      std: 0.09
    }
    bias_filler {
      type: "constant"
      value: 0.2
    }
  }
}
layer {
  name: "inception_4e/relu_3x3_reduce"
  type: "ReLU"
  bottom: "inception_4e/3x3_reduce"
  top: "inception_4e/3x3_reduce"
}
layer {
  name: "inception_4e/3x3"
  type: "Convolution"
  bottom: "inception_4e/3x3_reduce"
  top: "inception_4e/3x3"
  param {
    lr_mult: 1
    decay_mult: 1
  }
  param {
    lr_mult: 2
    decay_mult: 0
  }
  convolution_param {
    num_output: 320
    pad: 1
    kernel_size: 3
    weight_filler {
      type: "xavier"
      std: 0.03
    }
    bias_filler {
      type: "constant"
      value: 0.2
    }
  }
}
layer {
  name: "inception_4e/relu_3x3"
  type: "ReLU"
  bottom: "inception_4e/3x3"
  top: "inception_4e/3x3"
}
layer {
  name: "inception_4e/5x5_reduce"
  type: "Convolution"
  bottom: "inception_4d/output"
  top: "inception_4e/5x5_reduce"
  param {
    lr_mult: 1
    decay_mult: 1
  }
  param {
    lr_mult: 2
    decay_mult: 0
  }
  convolution_param {
    num_output: 32
    kernel_size: 1
    weight_filler {
      type: "xavier"
      std: 0.2
    }
    bias_filler {
      type: "constant"
      value: 0.2
    }
  }
}
layer {
  name: "inception_4e/relu_5x5_reduce"
  type: "ReLU"
  bottom: "inception_4e/5x5_reduce"
  top: "inception_4e/5x5_reduce"
}
layer {
  name: "inception_4e/5x5"
  type: "Convolution"
  bottom: "inception_4e/5x5_reduce"
  top: "inception_4e/5x5"
  param {
    lr_mult: 1
    decay_mult: 1
  }
  param {
    lr_mult: 2
    decay_mult: 0
  }
  convolution_param {
    num_output: 128
    pad: 2
    kernel_size: 5
    weight_filler {
      type: "xavier"
      std: 0.03
    }
    bias_filler {
      type: "constant"
      value: 0.2
    }
  }
}
layer {
  name: "inception_4e/relu_5x5"
  type: "ReLU"
  bottom: "inception_4e/5x5"
  top: "inception_4e/5x5"
}
layer {
  name: "inception_4e/pool"
  type: "Pooling"
  bottom: "inception_4d/output"
  top: "inception_4e/pool"
  pooling_param {
    pool: MAX
    kernel_size: 3
    stride: 1
    pad: 1
  }
}
layer {
  name: "inception_4e/pool_proj"
  type: "Convolution"
  bottom: "inception_4e/pool"
  top: "inception_4e/pool_proj"
  param {
    lr_mult: 1
    decay_mult: 1
  }
  param {
    lr_mult: 2
    decay_mult: 0
  }
  convolution_param {
    num_output: 128
    kernel_size: 1
    weight_filler {
      type: "xavier"
      std: 0.1
    }
    bias_filler {
      type: "constant"
      value: 0.2
    }
  }
}
layer {
  name: "inception_4e/relu_pool_proj"
  type: "ReLU"
  bottom: "inception_4e/pool_proj"
  top: "inception_4e/pool_proj"
}
layer {
  name: "inception_4e/output"
  type: "Concat"
  bottom: "inception_4e/1x1"
  bottom: "inception_4e/3x3"
  bottom: "inception_4e/5x5"
  bottom: "inception_4e/pool_proj"
  top: "inception_4e/output"
}
layer {
  name: "pool4/3x3_s2"
  type: "Pooling"
  bottom: "inception_4e/output"
  top: "pool4/3x3_s2"
  pooling_param {
    pool: MAX
    kernel_size: 3
    stride: 2
  }
}
layer {
  name: "inception_5a/1x1"
  type: "Convolution"
  bottom: "pool4/3x3_s2"
  top: "inception_5a/1x1"
  param {
    lr_mult: 1
    decay_mult: 1
  }
  param {
    lr_mult: 2
    decay_mult: 0
  }
  convolution_param {
    num_output: 256
    kernel_size: 1
    weight_filler {
      type: "xavier"
      std: 0.03
    }
    bias_filler {
      type: "constant"
      value: 0.2
    }
  }
}
layer {
  name: "inception_5a/relu_1x1"
  type: "ReLU"
  bottom: "inception_5a/1x1"
  top: "inception_5a/1x1"
}
layer {
  name: "inception_5a/3x3_reduce"
  type: "Convolution"
  bottom: "pool4/3x3_s2"
  top: "inception_5a/3x3_reduce"
  param {
    lr_mult: 1
    decay_mult: 1
  }
  param {
    lr_mult: 2
    decay_mult: 0
  }
  convolution_param {
    num_output: 160
    kernel_size: 1
    weight_filler {
      type: "xavier"
      std: 0.09
    }
    bias_filler {
      type: "constant"
      value: 0.2
    }
  }
}
layer {
  name: "inception_5a/relu_3x3_reduce"
  type: "ReLU"
  bottom: "inception_5a/3x3_reduce"
  top: "inception_5a/3x3_reduce"
}
layer {
  name: "inception_5a/3x3"
  type: "Convolution"
  bottom: "inception_5a/3x3_reduce"
  top: "inception_5a/3x3"
  param {
    lr_mult: 1
    decay_mult: 1
  }
  param {
    lr_mult: 2
    decay_mult: 0
  }
  convolution_param {
    num_output: 320
    pad: 1
    kernel_size: 3
    weight_filler {
      type: "xavier"
      std: 0.03
    }
    bias_filler {
      type: "constant"
      value: 0.2
    }
  }
}
layer {
  name: "inception_5a/relu_3x3"
  type: "ReLU"
  bottom: "inception_5a/3x3"
  top: "inception_5a/3x3"
}
layer {
  name: "inception_5a/5x5_reduce"
  type: "Convolution"
  bottom: "pool4/3x3_s2"
  top: "inception_5a/5x5_reduce"
  param {
    lr_mult: 1
    decay_mult: 1
  }
  param {
    lr_mult: 2
    decay_mult: 0
  }
  convolution_param {
    num_output: 32
    kernel_size: 1
    weight_filler {
      type: "xavier"
      std: 0.2
    }
    bias_filler {
      type: "constant"
      value: 0.2
    }
I0915 12:19:41.314775  3732 layer_factory.hpp:77] Creating layer data
I0915 12:19:41.314800  3732 net.cpp:91] Creating Layer data
I0915 12:19:41.314810  3732 net.cpp:399] data -> data
I0915 12:19:41.816766  3732 net.cpp:141] Setting up data
I0915 12:19:41.816833  3732 net.cpp:148] Top shape: 10 3 224 224 (1505280)
I0915 12:19:41.816838  3732 net.cpp:156] Memory required for data: 6021120
I0915 12:19:41.816857  3732 layer_factory.hpp:77] Creating layer conv1/7x7_s2
I0915 12:19:41.816890  3732 net.cpp:91] Creating Layer conv1/7x7_s2
I0915 12:19:41.816900  3732 net.cpp:425] conv1/7x7_s2 <- data
I0915 12:19:41.816913  3732 net.cpp:399] conv1/7x7_s2 -> conv1/7x7_s2
I0915 12:19:41.987517  3732 net.cpp:141] Setting up conv1/7x7_s2
I0915 12:19:41.987563  3732 net.cpp:148] Top shape: 10 64 112 112 (8028160)
I0915 12:19:41.987571  3732 net.cpp:156] Memory required for data: 38133760
I0915 12:19:41.987593  3732 layer_factory.hpp:77] Creating layer conv1/relu_7x7
I0915 12:19:41.987610  3732 net.cpp:91] Creating Layer conv1/relu_7x7
I0915 12:19:41.987617  3732 net.cpp:425] conv1/relu_7x7 <- conv1/7x7_s2
I0915 12:19:41.987624  3732 net.cpp:386] conv1/relu_7x7 -> conv1/7x7_s2 (in-place)
I0915 12:19:41.988003  3732 net.cpp:141] Setting up conv1/relu_7x7
I0915 12:19:41.988016  3732 net.cpp:148] Top shape: 10 64 112 112 (8028160)
I0915 12:19:41.988021  3732 net.cpp:156] Memory required for data: 70246400
I0915 12:19:41.988026  3732 layer_factory.hpp:77] Creating layer pool1/3x3_s2
I0915 12:19:41.988039  3732 net.cpp:91] Creating Layer pool1/3x3_s2
I0915 12:19:41.988044  3732 net.cpp:425] pool1/3x3_s2 <- conv1/7x7_s2
I0915 12:19:41.988050  3732 net.cpp:399] pool1/3x3_s2 -> pool1/3x3_s2
I0915 12:19:41.988126  3732 net.cpp:141] Setting up pool1/3x3_s2
I0915 12:19:41.988137  3732 net.cpp:148] Top shape: 10 64 56 56 (2007040)
I0915 12:19:41.988142  3732 net.cpp:156] Memory required for data: 78274560
I0915 12:19:41.988147  3732 layer_factory.hpp:77] Creating layer pool1/norm1
I0915 12:19:41.988163  3732 net.cpp:91] Creating Layer pool1/norm1
I0915 12:19:41.988168  3732 net.cpp:425] pool1/norm1 <- pool1/3x3_s2
I0915 12:19:41.988174  3732 net.cpp:399] pool1/norm1 -> pool1/norm1
I0915 12:19:41.988423  3732 net.cpp:141] Setting up pool1/norm1
I0915 12:19:41.988436  3732 net.cpp:148] Top shape: 10 64 56 56 (2007040)
I0915 12:19:41.988440  3732 net.cpp:156] Memory required for data: 86302720
I0915 12:19:41.988445  3732 layer_factory.hpp:77] Creating layer conv2/3x3_reduce
I0915 12:19:41.988461  3732 net.cpp:91] Creating Layer conv2/3x3_reduce
I0915 12:19:41.988466  3732 net.cpp:425] conv2/3x3_reduce <- pool1/norm1
I0915 12:19:41.988473  3732 net.cpp:399] conv2/3x3_reduce -> conv2/3x3_reduce
I0915 12:19:41.990545  3732 net.cpp:141] Setting up conv2/3x3_reduce
I0915 12:19:41.990568  3732 net.cpp:148] Top shape: 10 64 56 56 (2007040)
I0915 12:19:41.990573  3732 net.cpp:156] Memory required for data: 94330880
I0915 12:19:41.990586  3732 layer_factory.hpp:77] Creating layer conv2/relu_3x3_reduce
I0915 12:19:41.990593  3732 net.cpp:91] Creating Layer conv2/relu_3x3_reduce
I0915 12:19:41.990598  3732 net.cpp:425] conv2/relu_3x3_reduce <- conv2/3x3_reduce
I0915 12:19:41.990607  3732 net.cpp:386] conv2/relu_3x3_reduce -> conv2/3x3_reduce (in-place)
I0915 12:19:41.990993  3732 net.cpp:141] Setting up conv2/relu_3x3_reduce
I0915 12:19:41.991006  3732 net.cpp:148] Top shape: 10 64 56 56 (2007040)
I0915 12:19:41.991011  3732 net.cpp:156] Memory required for data: 102359040
I0915 12:19:41.991015  3732 layer_factory.hpp:77] Creating layer conv2/3x3
I0915 12:19:41.991030  3732 net.cpp:91] Creating Layer conv2/3x3
I0915 12:19:41.991035  3732 net.cpp:425] conv2/3x3 <- conv2/3x3_reduce
I0915 12:19:41.991046  3732 net.cpp:399] conv2/3x3 -> conv2/3x3
I0915 12:19:41.994129  3732 net.cpp:141] Setting up conv2/3x3
I0915 12:19:41.994148  3732 net.cpp:148] Top shape: 10 192 56 56 (6021120)
I0915 12:19:41.994166  3732 net.cpp:156] Memory required for data: 126443520
I0915 12:19:41.994179  3732 layer_factory.hpp:77] Creating layer conv2/relu_3x3
I0915 12:19:41.994190  3732 net.cpp:91] Creating Layer conv2/relu_3x3
I0915 12:19:41.994195  3732 net.cpp:425] conv2/relu_3x3 <- conv2/3x3
I0915 12:19:41.994205  3732 net.cpp:386] conv2/relu_3x3 -> conv2/3x3 (in-place)
I0915 12:19:41.994431  3732 net.cpp:141] Setting up conv2/relu_3x3
I0915 12:19:41.994441  3732 net.cpp:148] Top shape: 10 192 56 56 (6021120)
I0915 12:19:41.994448  3732 net.cpp:156] Memory required for data: 150528000
I0915 12:19:41.994452  3732 layer_factory.hpp:77] Creating layer conv2/norm2
I0915 12:19:41.994462  3732 net.cpp:91] Creating Layer conv2/norm2
I0915 12:19:41.994465  3732 net.cpp:425] conv2/norm2 <- conv2/3x3
I0915 12:19:41.994472  3732 net.cpp:399] conv2/norm2 -> conv2/norm2
I0915 12:19:41.994899  3732 net.cpp:141] Setting up conv2/norm2
I0915 12:19:41.994911  3732 net.cpp:148] Top shape: 10 192 56 56 (6021120)
I0915 12:19:41.994916  3732 net.cpp:156] Memory required for data: 174612480
I0915 12:19:41.994921  3732 layer_factory.hpp:77] Creating layer pool2/3x3_s2
I0915 12:19:41.994930  3732 net.cpp:91] Creating Layer pool2/3x3_s2
I0915 12:19:41.994933  3732 net.cpp:425] pool2/3x3_s2 <- conv2/norm2
I0915 12:19:41.994943  3732 net.cpp:399] pool2/3x3_s2 -> pool2/3x3_s2
I0915 12:19:41.994992  3732 net.cpp:141] Setting up pool2/3x3_s2
I0915 12:19:41.995000  3732 net.cpp:148] Top shape: 10 192 28 28 (1505280)
I0915 12:19:41.995004  3732 net.cpp:156] Memory required for data: 180633600
I0915 12:19:41.995008  3732 layer_factory.hpp:77] Creating layer pool2/3x3_s2_pool2/3x3_s2_0_split
I0915 12:19:41.995028  3732 net.cpp:91] Creating Layer pool2/3x3_s2_pool2/3x3_s2_0_split
I0915 12:19:41.995034  3732 net.cpp:425] pool2/3x3_s2_pool2/3x3_s2_0_split <- pool2/3x3_s2
I0915 12:19:41.995040  3732 net.cpp:399] pool2/3x3_s2_pool2/3x3_s2_0_split -> pool2/3x3_s2_pool2/3x3_s2_0_split_0
I0915 12:19:41.995051  3732 net.cpp:399] pool2/3x3_s2_pool2/3x3_s2_0_split -> pool2/3x3_s2_pool2/3x3_s2_0_split_1
I0915 12:19:41.995059  3732 net.cpp:399] pool2/3x3_s2_pool2/3x3_s2_0_split -> pool2/3x3_s2_pool2/3x3_s2_0_split_2
I0915 12:19:41.995067  3732 net.cpp:399] pool2/3x3_s2_pool2/3x3_s2_0_split -> pool2/3x3_s2_pool2/3x3_s2_0_split_3
I0915 12:19:41.995137  3732 net.cpp:141] Setting up pool2/3x3_s2_pool2/3x3_s2_0_split
I0915 12:19:41.995146  3732 net.cpp:148] Top shape: 10 192 28 28 (1505280)
I0915 12:19:41.995152  3732 net.cpp:148] Top shape: 10 192 28 28 (1505280)
I0915 12:19:41.995157  3732 net.cpp:148] Top shape: 10 192 28 28 (1505280)
I0915 12:19:41.995162  3732 net.cpp:148] Top shape: 10 192 28 28 (1505280)
I0915 12:19:41.995167  3732 net.cpp:156] Memory required for data: 204718080
I0915 12:19:41.995170  3732 layer_factory.hpp:77] Creating layer inception_3a/1x1
I0915 12:19:41.995184  3732 net.cpp:91] Creating Layer inception_3a/1x1
I0915 12:19:41.995189  3732 net.cpp:425] inception_3a/1x1 <- pool2/3x3_s2_pool2/3x3_s2_0_split_0
I0915 12:19:41.995214  3732 net.cpp:399] inception_3a/1x1 -> inception_3a/1x1
I0915 12:19:41.997056  3732 net.cpp:141] Setting up inception_3a/1x1
I0915 12:19:41.997072  3732 net.cpp:148] Top shape: 10 64 28 28 (501760)
I0915 12:19:41.997078  3732 net.cpp:156] Memory required for data: 206725120
I0915 12:19:41.997087  3732 layer_factory.hpp:77] Creating layer inception_3a/relu_1x1
I0915 12:19:41.997097  3732 net.cpp:91] Creating Layer inception_3a/relu_1x1
I0915 12:19:41.997103  3732 net.cpp:425] inception_3a/relu_1x1 <- inception_3a/1x1
I0915 12:19:41.997110  3732 net.cpp:386] inception_3a/relu_1x1 -> inception_3a/1x1 (in-place)
I0915 12:19:41.997489  3732 net.cpp:141] Setting up inception_3a/relu_1x1
I0915 12:19:41.997503  3732 net.cpp:148] Top shape: 10 64 28 28 (501760)
I0915 12:19:41.997509  3732 net.cpp:156] Memory required for data: 208732160
I0915 12:19:41.997514  3732 layer_factory.hpp:77] Creating layer inception_3a/3x3_reduce
I0915 12:19:41.997526  3732 net.cpp:91] Creating Layer inception_3a/3x3_reduce
I0915 12:19:41.997531  3732 net.cpp:425] inception_3a/3x3_reduce <- pool2/3x3_s2_pool2/3x3_s2_0_split_1
I0915 12:19:41.997544  3732 net.cpp:399] inception_3a/3x3_reduce -> inception_3a/3x3_reduce
I0915 12:19:42.000116  3732 net.cpp:141] Setting up inception_3a/3x3_reduce
I0915 12:19:42.000135  3732 net.cpp:148] Top shape: 10 96 28 28 (752640)
I0915 12:19:42.000140  3732 net.cpp:156] Memory required for data: 211742720
I0915 12:19:42.000154  3732 layer_factory.hpp:77] Creating layer inception_3a/relu_3x3_reduce
I0915 12:19:42.000162  3732 net.cpp:91] Creating Layer inception_3a/relu_3x3_reduce
I0915 12:19:42.000167  3732 net.cpp:425] inception_3a/relu_3x3_reduce <- inception_3a/3x3_reduce
I0915 12:19:42.000180  3732 net.cpp:386] inception_3a/relu_3x3_reduce -> inception_3a/3x3_reduce (in-place)
I0915 12:19:42.000417  3732 net.cpp:141] Setting up inception_3a/relu_3x3_reduce
I0915 12:19:42.000428  3732 net.cpp:148] Top shape: 10 96 28 28 (752640)
I0915 12:19:42.000432  3732 net.cpp:156] Memory required for data: 214753280
I0915 12:19:42.000437  3732 layer_factory.hpp:77] Creating layer inception_3a/3x3
I0915 12:19:42.000454  3732 net.cpp:91] Creating Layer inception_3a/3x3
I0915 12:19:42.000460  3732 net.cpp:425] inception_3a/3x3 <- inception_3a/3x3_reduce
I0915 12:19:42.000471  3732 net.cpp:399] inception_3a/3x3 -> inception_3a/3x3
I0915 12:19:42.002646  3732 net.cpp:141] Setting up inception_3a/3x3
I0915 12:19:42.002683  3732 net.cpp:148] Top shape: 10 128 28 28 (1003520)
I0915 12:19:42.002688  3732 net.cpp:156] Memory required for data: 218767360
I0915 12:19:42.002698  3732 layer_factory.hpp:77] Creating layer inception_3a/relu_3x3
I0915 12:19:42.002712  3732 net.cpp:91] Creating Layer inception_3a/relu_3x3
I0915 12:19:42.002718  3732 net.cpp:425] inception_3a/relu_3x3 <- inception_3a/3x3
I0915 12:19:42.002727  3732 net.cpp:386] inception_3a/relu_3x3 -> inception_3a/3x3 (in-place)
I0915 12:19:42.003118  3732 net.cpp:141] Setting up inception_3a/relu_3x3
I0915 12:19:42.003130  3732 net.cpp:148] Top shape: 10 128 28 28 (1003520)
I0915 12:19:42.003134  3732 net.cpp:156] Memory required for data: 222781440
I0915 12:19:42.003141  3732 layer_factory.hpp:77] Creating layer inception_3a/5x5_reduce
I0915 12:19:42.003159  3732 net.cpp:91] Creating Layer inception_3a/5x5_reduce
I0915 12:19:42.003165  3732 net.cpp:425] inception_3a/5x5_reduce <- pool2/3x3_s2_pool2/3x3_s2_0_split_2
I0915 12:19:42.003175  3732 net.cpp:399] inception_3a/5x5_reduce -> inception_3a/5x5_reduce
I0915 12:19:42.004395  3732 net.cpp:141] Setting up inception_3a/5x5_reduce
I0915 12:19:42.004417  3732 net.cpp:148] Top shape: 10 16 28 28 (125440)
I0915 12:19:42.004422  3732 net.cpp:156] Memory required for data: 223283200
I0915 12:19:42.004431  3732 layer_factory.hpp:77] Creating layer inception_3a/relu_5x5_reduce
I0915 12:19:42.004441  3732 net.cpp:91] Creating Layer inception_3a/relu_5x5_reduce
I0915 12:19:42.004446  3732 net.cpp:425] inception_3a/relu_5x5_reduce <- inception_3a/5x5_reduce
I0915 12:19:42.004454  3732 net.cpp:386] inception_3a/relu_5x5_reduce -> inception_3a/5x5_reduce (in-place)
I0915 12:19:42.004837  3732 net.cpp:141] Setting up inception_3a/relu_5x5_reduce
I0915 12:19:42.004849  3732 net.cpp:148] Top shape: 10 16 28 28 (125440)
I0915 12:19:42.004853  3732 net.cpp:156] Memory required for data: 223784960
I0915 12:19:42.004858  3732 layer_factory.hpp:77] Creating layer inception_3a/5x5
I0915 12:19:42.004873  3732 net.cpp:91] Creating Layer inception_3a/5x5
I0915 12:19:42.004878  3732 net.cpp:425] inception_3a/5x5 <- inception_3a/5x5_reduce
I0915 12:19:42.004890  3732 net.cpp:399] inception_3a/5x5 -> inception_3a/5x5
I0915 12:19:42.006789  3732 net.cpp:141] Setting up inception_3a/5x5
I0915 12:19:42.006819  3732 net.cpp:148] Top shape: 10 32 28 28 (250880)
I0915 12:19:42.006824  3732 net.cpp:156] Memory required for data: 224788480
I0915 12:19:42.006832  3732 layer_factory.hpp:77] Creating layer inception_3a/relu_5x5
I0915 12:19:42.006844  3732 net.cpp:91] Creating Layer inception_3a/relu_5x5
I0915 12:19:42.006849  3732 net.cpp:425] inception_3a/relu_5x5 <- inception_3a/5x5
I0915 12:19:42.006855  3732 net.cpp:386] inception_3a/relu_5x5 -> inception_3a/5x5 (in-place)
I0915 12:19:42.007084  3732 net.cpp:141] Setting up inception_3a/relu_5x5
I0915 12:19:42.007096  3732 net.cpp:148] Top shape: 10 32 28 28 (250880)
I0915 12:19:42.007099  3732 net.cpp:156] Memory required for data: 225792000
I0915 12:19:42.007104  3732 layer_factory.hpp:77] Creating layer inception_3a/pool
I0915 12:19:42.007113  3732 net.cpp:91] Creating Layer inception_3a/pool
I0915 12:19:42.007118  3732 net.cpp:425] inception_3a/pool <- pool2/3x3_s2_pool2/3x3_s2_0_split_3
I0915 12:19:42.007128  3732 net.cpp:399] inception_3a/pool -> inception_3a/pool
I0915 12:19:42.007194  3732 net.cpp:141] Setting up inception_3a/pool
I0915 12:19:42.007205  3732 net.cpp:148] Top shape: 10 192 28 28 (1505280)
I0915 12:19:42.007210  3732 net.cpp:156] Memory required for data: 231813120
I0915 12:19:42.007215  3732 layer_factory.hpp:77] Creating layer inception_3a/pool_proj
I0915 12:19:42.007225  3732 net.cpp:91] Creating Layer inception_3a/pool_proj
I0915 12:19:42.007230  3732 net.cpp:425] inception_3a/pool_proj <- inception_3a/pool
I0915 12:19:42.007241  3732 net.cpp:399] inception_3a/pool_proj -> inception_3a/pool_proj
I0915 12:19:42.008630  3732 net.cpp:141] Setting up inception_3a/pool_proj
I0915 12:19:42.008661  3732 net.cpp:148] Top shape: 10 32 28 28 (250880)
I0915 12:19:42.008666  3732 net.cpp:156] Memory required for data: 232816640
I0915 12:19:42.008679  3732 layer_factory.hpp:77] Creating layer inception_3a/relu_pool_proj
I0915 12:19:42.008692  3732 net.cpp:91] Creating Layer inception_3a/relu_pool_proj
I0915 12:19:42.008697  3732 net.cpp:425] inception_3a/relu_pool_proj <- inception_3a/pool_proj
I0915 12:19:42.008704  3732 net.cpp:386] inception_3a/relu_pool_proj -> inception_3a/pool_proj (in-place)
I0915 12:19:42.009088  3732 net.cpp:141] Setting up inception_3a/relu_pool_proj
I0915 12:19:42.009099  3732 net.cpp:148] Top shape: 10 32 28 28 (250880)
I0915 12:19:42.009104  3732 net.cpp:156] Memory required for data: 233820160
I0915 12:19:42.009109  3732 layer_factory.hpp:77] Creating layer inception_3a/output
I0915 12:19:42.009130  3732 net.cpp:91] Creating Layer inception_3a/output
I0915 12:19:42.009135  3732 net.cpp:425] inception_3a/output <- inception_3a/1x1
I0915 12:19:42.009141  3732 net.cpp:425] inception_3a/output <- inception_3a/3x3
I0915 12:19:42.009146  3732 net.cpp:425] inception_3a/output <- inception_3a/5x5
I0915 12:19:42.009151  3732 net.cpp:425] inception_3a/output <- inception_3a/pool_proj
I0915 12:19:42.009157  3732 net.cpp:399] inception_3a/output -> inception_3a/output
I0915 12:19:42.009197  3732 net.cpp:141] Setting up inception_3a/output
I0915 12:19:42.009207  3732 net.cpp:148] Top shape: 10 256 28 28 (2007040)
I0915 12:19:42.009212  3732 net.cpp:156] Memory required for data: 241848320
I0915 12:19:42.009215  3732 layer_factory.hpp:77] Creating layer inception_3a/output_inception_3a/output_0_split
I0915 12:19:42.009223  3732 net.cpp:91] Creating Layer inception_3a/output_inception_3a/output_0_split
I0915 12:19:42.009227  3732 net.cpp:425] inception_3a/output_inception_3a/output_0_split <- inception_3a/output
I0915 12:19:42.009238  3732 net.cpp:399] inception_3a/output_inception_3a/output_0_split -> inception_3a/output_inception_3a/output_0_split_0
I0915 12:19:42.009248  3732 net.cpp:399] inception_3a/output_inception_3a/output_0_split -> inception_3a/output_inception_3a/output_0_split_1
I0915 12:19:42.009255  3732 net.cpp:399] inception_3a/output_inception_3a/output_0_split -> inception_3a/output_inception_3a/output_0_split_2
I0915 12:19:42.009263  3732 net.cpp:399] inception_3a/output_inception_3a/output_0_split -> inception_3a/output_inception_3a/output_0_split_3
I0915 12:19:42.009351  3732 net.cpp:141] Setting up inception_3a/output_inception_3a/output_0_split
I0915 12:19:42.009359  3732 net.cpp:148] Top shape: 10 256 28 28 (2007040)
I0915 12:19:42.009366  3732 net.cpp:148] Top shape: 10 256 28 28 (2007040)
I0915 12:19:42.009371  3732 net.cpp:148] Top shape: 10 256 28 28 (2007040)
I0915 12:19:42.009376  3732 net.cpp:148] Top shape: 10 256 28 28 (2007040)
I0915 12:19:42.009379  3732 net.cpp:156] Memory required for data: 273960960
I0915 12:19:42.009383  3732 layer_factory.hpp:77] Creating layer inception_3b/1x1
I0915 12:19:42.009397  3732 net.cpp:91] Creating Layer inception_3b/1x1
I0915 12:19:42.009402  3732 net.cpp:425] inception_3b/1x1 <- inception_3a/output_inception_3a/output_0_split_0
I0915 12:19:42.009409  3732 net.cpp:399] inception_3b/1x1 -> inception_3b/1x1
I0915 12:19:42.010799  3732 net.cpp:141] Setting up inception_3b/1x1
I0915 12:19:42.010812  3732 net.cpp:148] Top shape: 10 128 28 28 (1003520)
I0915 12:19:42.010818  3732 net.cpp:156] Memory required for data: 277975040
I0915 12:19:42.010825  3732 layer_factory.hpp:77] Creating layer inception_3b/relu_1x1
I0915 12:19:42.010834  3732 net.cpp:91] Creating Layer inception_3b/relu_1x1
I0915 12:19:42.010839  3732 net.cpp:425] inception_3b/relu_1x1 <- inception_3b/1x1
I0915 12:19:42.010848  3732 net.cpp:386] inception_3b/relu_1x1 -> inception_3b/1x1 (in-place)
I0915 12:19:42.011224  3732 net.cpp:141] Setting up inception_3b/relu_1x1
I0915 12:19:42.011237  3732 net.cpp:148] Top shape: 10 128 28 28 (1003520)
I0915 12:19:42.011241  3732 net.cpp:156] Memory required for data: 281989120
I0915 12:19:42.011246  3732 layer_factory.hpp:77] Creating layer inception_3b/3x3_reduce
I0915 12:19:42.011260  3732 net.cpp:91] Creating Layer inception_3b/3x3_reduce
I0915 12:19:42.011266  3732 net.cpp:425] inception_3b/3x3_reduce <- inception_3a/output_inception_3a/output_0_split_1
I0915 12:19:42.011278  3732 net.cpp:399] inception_3b/3x3_reduce -> inception_3b/3x3_reduce
I0915 12:19:42.012908  3732 net.cpp:141] Setting up inception_3b/3x3_reduce
I0915 12:19:42.012925  3732 net.cpp:148] Top shape: 10 128 28 28 (1003520)
I0915 12:19:42.012933  3732 net.cpp:156] Memory required for data: 286003200
I0915 12:19:42.012943  3732 layer_factory.hpp:77] Creating layer inception_3b/relu_3x3_reduce
I0915 12:19:42.012950  3732 net.cpp:91] Creating Layer inception_3b/relu_3x3_reduce
I0915 12:19:42.012956  3732 net.cpp:425] inception_3b/relu_3x3_reduce <- inception_3b/3x3_reduce
I0915 12:19:42.012964  3732 net.cpp:386] inception_3b/relu_3x3_reduce -> inception_3b/3x3_reduce (in-place)
I0915 12:19:42.013190  3732 net.cpp:141] Setting up inception_3b/relu_3x3_reduce
I0915 12:19:42.013201  3732 net.cpp:148] Top shape: 10 128 28 28 (1003520)
I0915 12:19:42.013206  3732 net.cpp:156] Memory required for data: 290017280
I0915 12:19:42.013211  3732 layer_factory.hpp:77] Creating layer inception_3b/3x3
I0915 12:19:42.013223  3732 net.cpp:91] Creating Layer inception_3b/3x3
I0915 12:19:42.013229  3732 net.cpp:425] inception_3b/3x3 <- inception_3b/3x3_reduce
I0915 12:19:42.013240  3732 net.cpp:399] inception_3b/3x3 -> inception_3b/3x3
I0915 12:19:42.016933  3732 net.cpp:141] Setting up inception_3b/3x3
I0915 12:19:42.016963  3732 net.cpp:148] Top shape: 10 192 28 28 (1505280)
I0915 12:19:42.016969  3732 net.cpp:156] Memory required for data: 296038400
I0915 12:19:42.016978  3732 layer_factory.hpp:77] Creating layer inception_3b/relu_3x3
I0915 12:19:42.016994  3732 net.cpp:91] Creating Layer inception_3b/relu_3x3
I0915 12:19:42.017000  3732 net.cpp:425] inception_3b/relu_3x3 <- inception_3b/3x3
I0915 12:19:42.017009  3732 net.cpp:386] inception_3b/relu_3x3 -> inception_3b/3x3 (in-place)
I0915 12:19:42.017406  3732 net.cpp:141] Setting up inception_3b/relu_3x3
I0915 12:19:42.017418  3732 net.cpp:148] Top shape: 10 192 28 28 (1505280)
I0915 12:19:42.017423  3732 net.cpp:156] Memory required for data: 302059520
I0915 12:19:42.017427  3732 layer_factory.hpp:77] Creating layer inception_3b/5x5_reduce
I0915 12:19:42.017441  3732 net.cpp:91] Creating Layer inception_3b/5x5_reduce
I0915 12:19:42.017447  3732 net.cpp:425] inception_3b/5x5_reduce <- inception_3a/output_inception_3a/output_0_split_2
I0915 12:19:42.017459  3732 net.cpp:399] inception_3b/5x5_reduce -> inception_3b/5x5_reduce
I0915 12:19:42.018697  3732 net.cpp:141] Setting up inception_3b/5x5_reduce
I0915 12:19:42.018725  3732 net.cpp:148] Top shape: 10 32 28 28 (250880)
I0915 12:19:42.018730  3732 net.cpp:156] Memory required for data: 303063040
I0915 12:19:42.018739  3732 layer_factory.hpp:77] Creating layer inception_3b/relu_5x5_reduce
I0915 12:19:42.018748  3732 net.cpp:91] Creating Layer inception_3b/relu_5x5_reduce
I0915 12:19:42.018754  3732 net.cpp:425] inception_3b/relu_5x5_reduce <- inception_3b/5x5_reduce
I0915 12:19:42.018762  3732 net.cpp:386] inception_3b/relu_5x5_reduce -> inception_3b/5x5_reduce (in-place)
I0915 12:19:42.019143  3732 net.cpp:141] Setting up inception_3b/relu_5x5_reduce
I0915 12:19:42.019156  3732 net.cpp:148] Top shape: 10 32 28 28 (250880)
I0915 12:19:42.019160  3732 net.cpp:156] Memory required for data: 304066560
I0915 12:19:42.019165  3732 layer_factory.hpp:77] Creating layer inception_3b/5x5
I0915 12:19:42.019179  3732 net.cpp:91] Creating Layer inception_3b/5x5
I0915 12:19:42.019186  3732 net.cpp:425] inception_3b/5x5 <- inception_3b/5x5_reduce
I0915 12:19:42.019197  3732 net.cpp:399] inception_3b/5x5 -> inception_3b/5x5
I0915 12:19:42.021791  3732 net.cpp:141] Setting up inception_3b/5x5
I0915 12:19:42.021821  3732 net.cpp:148] Top shape: 10 96 28 28 (752640)
I0915 12:19:42.021827  3732 net.cpp:156] Memory required for data: 307077120
I0915 12:19:42.021836  3732 layer_factory.hpp:77] Creating layer inception_3b/relu_5x5
I0915 12:19:42.021843  3732 net.cpp:91] Creating Layer inception_3b/relu_5x5
I0915 12:19:42.021849  3732 net.cpp:425] inception_3b/relu_5x5 <- inception_3b/5x5
I0915 12:19:42.021858  3732 net.cpp:386] inception_3b/relu_5x5 -> inception_3b/5x5 (in-place)
I0915 12:19:42.022083  3732 net.cpp:141] Setting up inception_3b/relu_5x5
I0915 12:19:42.022094  3732 net.cpp:148] Top shape: 10 96 28 28 (752640)
I0915 12:19:42.022099  3732 net.cpp:156] Memory required for data: 310087680
I0915 12:19:42.022104  3732 layer_factory.hpp:77] Creating layer inception_3b/pool
I0915 12:19:42.022115  3732 net.cpp:91] Creating Layer inception_3b/pool
I0915 12:19:42.022121  3732 net.cpp:425] inception_3b/pool <- inception_3a/output_inception_3a/output_0_split_3
I0915 12:19:42.022128  3732 net.cpp:399] inception_3b/pool -> inception_3b/pool
I0915 12:19:42.022188  3732 net.cpp:141] Setting up inception_3b/pool
I0915 12:19:42.022198  3732 net.cpp:148] Top shape: 10 256 28 28 (2007040)
I0915 12:19:42.022202  3732 net.cpp:156] Memory required for data: 318115840
I0915 12:19:42.022207  3732 layer_factory.hpp:77] Creating layer inception_3b/pool_proj
I0915 12:19:42.022219  3732 net.cpp:91] Creating Layer inception_3b/pool_proj
I0915 12:19:42.022225  3732 net.cpp:425] inception_3b/pool_proj <- inception_3b/pool
I0915 12:19:42.022244  3732 net.cpp:399] inception_3b/pool_proj -> inception_3b/pool_proj
I0915 12:19:42.023728  3732 net.cpp:141] Setting up inception_3b/pool_proj
I0915 12:19:42.023758  3732 net.cpp:148] Top shape: 10 64 28 28 (501760)
I0915 12:19:42.023763  3732 net.cpp:156] Memory required for data: 320122880
I0915 12:19:42.023772  3732 layer_factory.hpp:77] Creating layer inception_3b/relu_pool_proj
I0915 12:19:42.023782  3732 net.cpp:91] Creating Layer inception_3b/relu_pool_proj
I0915 12:19:42.023788  3732 net.cpp:425] inception_3b/relu_pool_proj <- inception_3b/pool_proj
I0915 12:19:42.023795  3732 net.cpp:386] inception_3b/relu_pool_proj -> inception_3b/pool_proj (in-place)
I0915 12:19:42.024193  3732 net.cpp:141] Setting up inception_3b/relu_pool_proj
I0915 12:19:42.024205  3732 net.cpp:148] Top shape: 10 64 28 28 (501760)
I0915 12:19:42.024212  3732 net.cpp:156] Memory required for data: 322129920
I0915 12:19:42.024217  3732 layer_factory.hpp:77] Creating layer inception_3b/output
I0915 12:19:42.024225  3732 net.cpp:91] Creating Layer inception_3b/output
I0915 12:19:42.024230  3732 net.cpp:425] inception_3b/output <- inception_3b/1x1
I0915 12:19:42.024236  3732 net.cpp:425] inception_3b/output <- inception_3b/3x3
I0915 12:19:42.024242  3732 net.cpp:425] inception_3b/output <- inception_3b/5x5
I0915 12:19:42.024247  3732 net.cpp:425] inception_3b/output <- inception_3b/pool_proj
I0915 12:19:42.024253  3732 net.cpp:399] inception_3b/output -> inception_3b/output
I0915 12:19:42.024294  3732 net.cpp:141] Setting up inception_3b/output
I0915 12:19:42.024304  3732 net.cpp:148] Top shape: 10 480 28 28 (3763200)
I0915 12:19:42.024308  3732 net.cpp:156] Memory required for data: 337182720
I0915 12:19:42.024312  3732 layer_factory.hpp:77] Creating layer pool3/3x3_s2
I0915 12:19:42.024320  3732 net.cpp:91] Creating Layer pool3/3x3_s2
I0915 12:19:42.024330  3732 net.cpp:425] pool3/3x3_s2 <- inception_3b/output
I0915 12:19:42.024338  3732 net.cpp:399] pool3/3x3_s2 -> pool3/3x3_s2
I0915 12:19:42.024395  3732 net.cpp:141] Setting up pool3/3x3_s2
I0915 12:19:42.024405  3732 net.cpp:148] Top shape: 10 480 14 14 (940800)
I0915 12:19:42.024410  3732 net.cpp:156] Memory required for data: 340945920
I0915 12:19:42.024413  3732 layer_factory.hpp:77] Creating layer pool3/3x3_s2_pool3/3x3_s2_0_split
I0915 12:19:42.024420  3732 net.cpp:91] Creating Layer pool3/3x3_s2_pool3/3x3_s2_0_split
I0915 12:19:42.024425  3732 net.cpp:425] pool3/3x3_s2_pool3/3x3_s2_0_split <- pool3/3x3_s2
I0915 12:19:42.024435  3732 net.cpp:399] pool3/3x3_s2_pool3/3x3_s2_0_split -> pool3/3x3_s2_pool3/3x3_s2_0_split_0
I0915 12:19:42.024443  3732 net.cpp:399] pool3/3x3_s2_pool3/3x3_s2_0_split -> pool3/3x3_s2_pool3/3x3_s2_0_split_1
I0915 12:19:42.024451  3732 net.cpp:399] pool3/3x3_s2_pool3/3x3_s2_0_split -> pool3/3x3_s2_pool3/3x3_s2_0_split_2
I0915 12:19:42.024458  3732 net.cpp:399] pool3/3x3_s2_pool3/3x3_s2_0_split -> pool3/3x3_s2_pool3/3x3_s2_0_split_3
I0915 12:19:42.024536  3732 net.cpp:141] Setting up pool3/3x3_s2_pool3/3x3_s2_0_split
I0915 12:19:42.024547  3732 net.cpp:148] Top shape: 10 480 14 14 (940800)
I0915 12:19:42.024554  3732 net.cpp:148] Top shape: 10 480 14 14 (940800)
I0915 12:19:42.024559  3732 net.cpp:148] Top shape: 10 480 14 14 (940800)
I0915 12:19:42.024564  3732 net.cpp:148] Top shape: 10 480 14 14 (940800)
I0915 12:19:42.024567  3732 net.cpp:156] Memory required for data: 355998720
I0915 12:19:42.024571  3732 layer_factory.hpp:77] Creating layer inception_4a/1x1
I0915 12:19:42.024585  3732 net.cpp:91] Creating Layer inception_4a/1x1
I0915 12:19:42.024590  3732 net.cpp:425] inception_4a/1x1 <- pool3/3x3_s2_pool3/3x3_s2_0_split_0
I0915 12:19:42.024598  3732 net.cpp:399] inception_4a/1x1 -> inception_4a/1x1
I0915 12:19:42.026717  3732 net.cpp:141] Setting up inception_4a/1x1
I0915 12:19:42.026749  3732 net.cpp:148] Top shape: 10 192 14 14 (376320)
I0915 12:19:42.026754  3732 net.cpp:156] Memory required for data: 357504000
I0915 12:19:42.026763  3732 layer_factory.hpp:77] Creating layer inception_4a/relu_1x1
I0915 12:19:42.026772  3732 net.cpp:91] Creating Layer inception_4a/relu_1x1
I0915 12:19:42.026777  3732 net.cpp:425] inception_4a/relu_1x1 <- inception_4a/1x1
I0915 12:19:42.026783  3732 net.cpp:386] inception_4a/relu_1x1 -> inception_4a/1x1 (in-place)
I0915 12:19:42.027169  3732 net.cpp:141] Setting up inception_4a/relu_1x1
I0915 12:19:42.027182  3732 net.cpp:148] Top shape: 10 192 14 14 (376320)
I0915 12:19:42.027186  3732 net.cpp:156] Memory required for data: 359009280
I0915 12:19:42.027191  3732 layer_factory.hpp:77] Creating layer inception_4a/3x3_reduce
I0915 12:19:42.027206  3732 net.cpp:91] Creating Layer inception_4a/3x3_reduce
I0915 12:19:42.027212  3732 net.cpp:425] inception_4a/3x3_reduce <- pool3/3x3_s2_pool3/3x3_s2_0_split_1
I0915 12:19:42.027223  3732 net.cpp:399] inception_4a/3x3_reduce -> inception_4a/3x3_reduce
I0915 12:19:42.029666  3732 net.cpp:141] Setting up inception_4a/3x3_reduce
I0915 12:19:42.029709  3732 net.cpp:148] Top shape: 10 96 14 14 (188160)
I0915 12:19:42.029717  3732 net.cpp:156] Memory required for data: 359761920
I0915 12:19:42.029753  3732 layer_factory.hpp:77] Creating layer inception_4a/relu_3x3_reduce
I0915 12:19:42.029774  3732 net.cpp:91] Creating Layer inception_4a/relu_3x3_reduce
I0915 12:19:42.029785  3732 net.cpp:425] inception_4a/relu_3x3_reduce <- inception_4a/3x3_reduce
I0915 12:19:42.029806  3732 net.cpp:386] inception_4a/relu_3x3_reduce -> inception_4a/3x3_reduce (in-place)
I0915 12:19:42.030138  3732 net.cpp:141] Setting up inception_4a/relu_3x3_reduce
I0915 12:19:42.030153  3732 net.cpp:148] Top shape: 10 96 14 14 (188160)
I0915 12:19:42.030174  3732 net.cpp:156] Memory required for data: 360514560
I0915 12:19:42.030182  3732 layer_factory.hpp:77] Creating layer inception_4a/3x3
I0915 12:19:42.030208  3732 net.cpp:91] Creating Layer inception_4a/3x3
I0915 12:19:42.030217  3732 net.cpp:425] inception_4a/3x3 <- inception_4a/3x3_reduce
I0915 12:19:42.030230  3732 net.cpp:399] inception_4a/3x3 -> inception_4a/3x3
I0915 12:19:42.033900  3732 net.cpp:141] Setting up inception_4a/3x3
I0915 12:19:42.033918  3732 net.cpp:148] Top shape: 10 208 14 14 (407680)
I0915 12:19:42.033924  3732 net.cpp:156] Memory required for data: 362145280
I0915 12:19:42.033932  3732 layer_factory.hpp:77] Creating layer inception_4a/relu_3x3
I0915 12:19:42.033944  3732 net.cpp:91] Creating Layer inception_4a/relu_3x3
I0915 12:19:42.033951  3732 net.cpp:425] inception_4a/relu_3x3 <- inception_4a/3x3
I0915 12:19:42.033958  3732 net.cpp:386] inception_4a/relu_3x3 -> inception_4a/3x3 (in-place)
I0915 12:19:42.034350  3732 net.cpp:141] Setting up inception_4a/relu_3x3
I0915 12:19:42.034363  3732 net.cpp:148] Top shape: 10 208 14 14 (407680)
I0915 12:19:42.034368  3732 net.cpp:156] Memory required for data: 363776000
I0915 12:19:42.034373  3732 layer_factory.hpp:77] Creating layer inception_4a/5x5_reduce
I0915 12:19:42.034389  3732 net.cpp:91] Creating Layer inception_4a/5x5_reduce
I0915 12:19:42.034395  3732 net.cpp:425] inception_4a/5x5_reduce <- pool3/3x3_s2_pool3/3x3_s2_0_split_2
I0915 12:19:42.034404  3732 net.cpp:399] inception_4a/5x5_reduce -> inception_4a/5x5_reduce
I0915 12:19:42.035683  3732 net.cpp:141] Setting up inception_4a/5x5_reduce
I0915 12:19:42.035701  3732 net.cpp:148] Top shape: 10 16 14 14 (31360)
I0915 12:19:42.035706  3732 net.cpp:156] Memory required for data: 363901440
I0915 12:19:42.035713  3732 layer_factory.hpp:77] Creating layer inception_4a/relu_5x5_reduce
I0915 12:19:42.035722  3732 net.cpp:91] Creating Layer inception_4a/relu_5x5_reduce
I0915 12:19:42.035730  3732 net.cpp:425] inception_4a/relu_5x5_reduce <- inception_4a/5x5_reduce
I0915 12:19:42.035737  3732 net.cpp:386] inception_4a/relu_5x5_reduce -> inception_4a/5x5_reduce (in-place)
I0915 12:19:42.036137  3732 net.cpp:141] Setting up inception_4a/relu_5x5_reduce
I0915 12:19:42.036150  3732 net.cpp:148] Top shape: 10 16 14 14 (31360)
I0915 12:19:42.036154  3732 net.cpp:156] Memory required for data: 364026880
I0915 12:19:42.036159  3732 layer_factory.hpp:77] Creating layer inception_4a/5x5
I0915 12:19:42.036175  3732 net.cpp:91] Creating Layer inception_4a/5x5
I0915 12:19:42.036180  3732 net.cpp:425] inception_4a/5x5 <- inception_4a/5x5_reduce
I0915 12:19:42.036191  3732 net.cpp:399] inception_4a/5x5 -> inception_4a/5x5
I0915 12:19:42.037716  3732 net.cpp:141] Setting up inception_4a/5x5
I0915 12:19:42.037732  3732 net.cpp:148] Top shape: 10 48 14 14 (94080)
I0915 12:19:42.037737  3732 net.cpp:156] Memory required for data: 364403200
I0915 12:19:42.037746  3732 layer_factory.hpp:77] Creating layer inception_4a/relu_5x5
I0915 12:19:42.037757  3732 net.cpp:91] Creating Layer inception_4a/relu_5x5
I0915 12:19:42.037763  3732 net.cpp:425] inception_4a/relu_5x5 <- inception_4a/5x5
I0915 12:19:42.037770  3732 net.cpp:386] inception_4a/relu_5x5 -> inception_4a/5x5 (in-place)
I0915 12:19:42.037997  3732 net.cpp:141] Setting up inception_4a/relu_5x5
I0915 12:19:42.038008  3732 net.cpp:148] Top shape: 10 48 14 14 (94080)
I0915 12:19:42.038012  3732 net.cpp:156] Memory required for data: 364779520
I0915 12:19:42.038017  3732 layer_factory.hpp:77] Creating layer inception_4a/pool
I0915 12:19:42.038029  3732 net.cpp:91] Creating Layer inception_4a/pool
I0915 12:19:42.038035  3732 net.cpp:425] inception_4a/pool <- pool3/3x3_s2_pool3/3x3_s2_0_split_3
I0915 12:19:42.038043  3732 net.cpp:399] inception_4a/pool -> inception_4a/pool
I0915 12:19:42.038105  3732 net.cpp:141] Setting up inception_4a/pool
I0915 12:19:42.038115  3732 net.cpp:148] Top shape: 10 480 14 14 (940800)
I0915 12:19:42.038120  3732 net.cpp:156] Memory required for data: 368542720
I0915 12:19:42.038123  3732 layer_factory.hpp:77] Creating layer inception_4a/pool_proj
I0915 12:19:42.038136  3732 net.cpp:91] Creating Layer inception_4a/pool_proj
I0915 12:19:42.038142  3732 net.cpp:425] inception_4a/pool_proj <- inception_4a/pool
I0915 12:19:42.038153  3732 net.cpp:399] inception_4a/pool_proj -> inception_4a/pool_proj
I0915 12:19:42.039741  3732 net.cpp:141] Setting up inception_4a/pool_proj
I0915 12:19:42.039758  3732 net.cpp:148] Top shape: 10 64 14 14 (125440)
I0915 12:19:42.039763  3732 net.cpp:156] Memory required for data: 369044480
I0915 12:19:42.039772  3732 layer_factory.hpp:77] Creating layer inception_4a/relu_pool_proj
I0915 12:19:42.039779  3732 net.cpp:91] Creating Layer inception_4a/relu_pool_proj
I0915 12:19:42.039785  3732 net.cpp:425] inception_4a/relu_pool_proj <- inception_4a/pool_proj
I0915 12:19:42.039795  3732 net.cpp:386] inception_4a/relu_pool_proj -> inception_4a/pool_proj (in-place)
I0915 12:19:42.040200  3732 net.cpp:141] Setting up inception_4a/relu_pool_proj
I0915 12:19:42.040213  3732 net.cpp:148] Top shape: 10 64 14 14 (125440)
I0915 12:19:42.040217  3732 net.cpp:156] Memory required for data: 369546240
I0915 12:19:42.040222  3732 layer_factory.hpp:77] Creating layer inception_4a/output
I0915 12:19:42.040235  3732 net.cpp:91] Creating Layer inception_4a/output
I0915 12:19:42.040241  3732 net.cpp:425] inception_4a/output <- inception_4a/1x1
I0915 12:19:42.040246  3732 net.cpp:425] inception_4a/output <- inception_4a/3x3
I0915 12:19:42.040252  3732 net.cpp:425] inception_4a/output <- inception_4a/5x5
I0915 12:19:42.040257  3732 net.cpp:425] inception_4a/output <- inception_4a/pool_proj
I0915 12:19:42.040263  3732 net.cpp:399] inception_4a/output -> inception_4a/output
I0915 12:19:42.040307  3732 net.cpp:141] Setting up inception_4a/output
I0915 12:19:42.040315  3732 net.cpp:148] Top shape: 10 512 14 14 (1003520)
I0915 12:19:42.040320  3732 net.cpp:156] Memory required for data: 373560320
I0915 12:19:42.040325  3732 layer_factory.hpp:77] Creating layer inception_4a/output_inception_4a/output_0_split
I0915 12:19:42.040333  3732 net.cpp:91] Creating Layer inception_4a/output_inception_4a/output_0_split
I0915 12:19:42.040338  3732 net.cpp:425] inception_4a/output_inception_4a/output_0_split <- inception_4a/output
I0915 12:19:42.040349  3732 net.cpp:399] inception_4a/output_inception_4a/output_0_split -> inception_4a/output_inception_4a/output_0_split_0
I0915 12:19:42.040357  3732 net.cpp:399] inception_4a/output_inception_4a/output_0_split -> inception_4a/output_inception_4a/output_0_split_1
I0915 12:19:42.040365  3732 net.cpp:399] inception_4a/output_inception_4a/output_0_split -> inception_4a/output_inception_4a/output_0_split_2
I0915 12:19:42.040374  3732 net.cpp:399] inception_4a/output_inception_4a/output_0_split -> inception_4a/output_inception_4a/output_0_split_3
I0915 12:19:42.040457  3732 net.cpp:141] Setting up inception_4a/output_inception_4a/output_0_split
I0915 12:19:42.040465  3732 net.cpp:148] Top shape: 10 512 14 14 (1003520)
I0915 12:19:42.040472  3732 net.cpp:148] Top shape: 10 512 14 14 (1003520)
I0915 12:19:42.040477  3732 net.cpp:148] Top shape: 10 512 14 14 (1003520)
I0915 12:19:42.040482  3732 net.cpp:148] Top shape: 10 512 14 14 (1003520)
I0915 12:19:42.040484  3732 net.cpp:156] Memory required for data: 389616640
I0915 12:19:42.040489  3732 layer_factory.hpp:77] Creating layer inception_4b/1x1
I0915 12:19:42.040505  3732 net.cpp:91] Creating Layer inception_4b/1x1
I0915 12:19:42.040511  3732 net.cpp:425] inception_4b/1x1 <- inception_4a/output_inception_4a/output_0_split_0
I0915 12:19:42.040519  3732 net.cpp:399] inception_4b/1x1 -> inception_4b/1x1
I0915 12:19:42.042332  3732 net.cpp:141] Setting up inception_4b/1x1
I0915 12:19:42.042348  3732 net.cpp:148] Top shape: 10 160 14 14 (313600)
I0915 12:19:42.042353  3732 net.cpp:156] Memory required for data: 390871040
I0915 12:19:42.042362  3732 layer_factory.hpp:77] Creating layer inception_4b/relu_1x1
I0915 12:19:42.042371  3732 net.cpp:91] Creating Layer inception_4b/relu_1x1
I0915 12:19:42.042376  3732 net.cpp:425] inception_4b/relu_1x1 <- inception_4b/1x1
I0915 12:19:42.042384  3732 net.cpp:386] inception_4b/relu_1x1 -> inception_4b/1x1 (in-place)
I0915 12:19:42.042769  3732 net.cpp:141] Setting up inception_4b/relu_1x1
I0915 12:19:42.042783  3732 net.cpp:148] Top shape: 10 160 14 14 (313600)
I0915 12:19:42.042786  3732 net.cpp:156] Memory required for data: 392125440
I0915 12:19:42.042791  3732 layer_factory.hpp:77] Creating layer inception_4b/3x3_reduce
I0915 12:19:42.042805  3732 net.cpp:91] Creating Layer inception_4b/3x3_reduce
I0915 12:19:42.042810  3732 net.cpp:425] inception_4b/3x3_reduce <- inception_4a/output_inception_4a/output_0_split_1
I0915 12:19:42.042822  3732 net.cpp:399] inception_4b/3x3_reduce -> inception_4b/3x3_reduce
I0915 12:19:42.044642  3732 net.cpp:141] Setting up inception_4b/3x3_reduce
I0915 12:19:42.044659  3732 net.cpp:148] Top shape: 10 112 14 14 (219520)
I0915 12:19:42.044664  3732 net.cpp:156] Memory required for data: 393003520
I0915 12:19:42.044672  3732 layer_factory.hpp:77] Creating layer inception_4b/relu_3x3_reduce
I0915 12:19:42.044685  3732 net.cpp:91] Creating Layer inception_4b/relu_3x3_reduce
I0915 12:19:42.044692  3732 net.cpp:425] inception_4b/relu_3x3_reduce <- inception_4b/3x3_reduce
I0915 12:19:42.044698  3732 net.cpp:386] inception_4b/relu_3x3_reduce -> inception_4b/3x3_reduce (in-place)
I0915 12:19:42.044929  3732 net.cpp:141] Setting up inception_4b/relu_3x3_reduce
I0915 12:19:42.044942  3732 net.cpp:148] Top shape: 10 112 14 14 (219520)
I0915 12:19:42.044947  3732 net.cpp:156] Memory required for data: 393881600
I0915 12:19:42.044951  3732 layer_factory.hpp:77] Creating layer inception_4b/3x3
I0915 12:19:42.044965  3732 net.cpp:91] Creating Layer inception_4b/3x3
I0915 12:19:42.044971  3732 net.cpp:425] inception_4b/3x3 <- inception_4b/3x3_reduce
I0915 12:19:42.044980  3732 net.cpp:399] inception_4b/3x3 -> inception_4b/3x3
I0915 12:19:42.049010  3732 net.cpp:141] Setting up inception_4b/3x3
I0915 12:19:42.049029  3732 net.cpp:148] Top shape: 10 224 14 14 (439040)
I0915 12:19:42.049034  3732 net.cpp:156] Memory required for data: 395637760
I0915 12:19:42.049042  3732 layer_factory.hpp:77] Creating layer inception_4b/relu_3x3
I0915 12:19:42.049053  3732 net.cpp:91] Creating Layer inception_4b/relu_3x3
I0915 12:19:42.049059  3732 net.cpp:425] inception_4b/relu_3x3 <- inception_4b/3x3
I0915 12:19:42.049067  3732 net.cpp:386] inception_4b/relu_3x3 -> inception_4b/3x3 (in-place)
I0915 12:19:42.049481  3732 net.cpp:141] Setting up inception_4b/relu_3x3
I0915 12:19:42.049494  3732 net.cpp:148] Top shape: 10 224 14 14 (439040)
I0915 12:19:42.049499  3732 net.cpp:156] Memory required for data: 397393920
I0915 12:19:42.049504  3732 layer_factory.hpp:77] Creating layer inception_4b/5x5_reduce
I0915 12:19:42.049528  3732 net.cpp:91] Creating Layer inception_4b/5x5_reduce
I0915 12:19:42.049535  3732 net.cpp:425] inception_4b/5x5_reduce <- inception_4a/output_inception_4a/output_0_split_2
I0915 12:19:42.049546  3732 net.cpp:399] inception_4b/5x5_reduce -> inception_4b/5x5_reduce
I0915 12:19:42.050889  3732 net.cpp:141] Setting up inception_4b/5x5_reduce
I0915 12:19:42.050905  3732 net.cpp:148] Top shape: 10 24 14 14 (47040)
I0915 12:19:42.050910  3732 net.cpp:156] Memory required for data: 397582080
I0915 12:19:42.050920  3732 layer_factory.hpp:77] Creating layer inception_4b/relu_5x5_reduce
I0915 12:19:42.050927  3732 net.cpp:91] Creating Layer inception_4b/relu_5x5_reduce
I0915 12:19:42.050933  3732 net.cpp:425] inception_4b/relu_5x5_reduce <- inception_4b/5x5_reduce
I0915 12:19:42.050940  3732 net.cpp:386] inception_4b/relu_5x5_reduce -> inception_4b/5x5_reduce (in-place)
I0915 12:19:42.051632  3732 net.cpp:141] Setting up inception_4b/relu_5x5_reduce
I0915 12:19:42.051648  3732 net.cpp:148] Top shape: 10 24 14 14 (47040)
I0915 12:19:42.051653  3732 net.cpp:156] Memory required for data: 397770240
I0915 12:19:42.051658  3732 layer_factory.hpp:77] Creating layer inception_4b/5x5
I0915 12:19:42.051674  3732 net.cpp:91] Creating Layer inception_4b/5x5
I0915 12:19:42.051681  3732 net.cpp:425] inception_4b/5x5 <- inception_4b/5x5_reduce
I0915 12:19:42.051692  3732 net.cpp:399] inception_4b/5x5 -> inception_4b/5x5
I0915 12:19:42.054214  3732 net.cpp:141] Setting up inception_4b/5x5
I0915 12:19:42.054246  3732 net.cpp:148] Top shape: 10 64 14 14 (125440)
I0915 12:19:42.054251  3732 net.cpp:156] Memory required for data: 398272000
I0915 12:19:42.054260  3732 layer_factory.hpp:77] Creating layer inception_4b/relu_5x5
I0915 12:19:42.054271  3732 net.cpp:91] Creating Layer inception_4b/relu_5x5
I0915 12:19:42.054277  3732 net.cpp:425] inception_4b/relu_5x5 <- inception_4b/5x5
I0915 12:19:42.054285  3732 net.cpp:386] inception_4b/relu_5x5 -> inception_4b/5x5 (in-place)
I0915 12:19:42.054520  3732 net.cpp:141] Setting up inception_4b/relu_5x5
I0915 12:19:42.054532  3732 net.cpp:148] Top shape: 10 64 14 14 (125440)
I0915 12:19:42.054535  3732 net.cpp:156] Memory required for data: 398773760
I0915 12:19:42.054540  3732 layer_factory.hpp:77] Creating layer inception_4b/pool
I0915 12:19:42.054553  3732 net.cpp:91] Creating Layer inception_4b/pool
I0915 12:19:42.054558  3732 net.cpp:425] inception_4b/pool <- inception_4a/output_inception_4a/output_0_split_3
I0915 12:19:42.054569  3732 net.cpp:399] inception_4b/pool -> inception_4b/pool
I0915 12:19:42.054641  3732 net.cpp:141] Setting up inception_4b/pool
I0915 12:19:42.054651  3732 net.cpp:148] Top shape: 10 512 14 14 (1003520)
I0915 12:19:42.054656  3732 net.cpp:156] Memory required for data: 402787840
I0915 12:19:42.054661  3732 layer_factory.hpp:77] Creating layer inception_4b/pool_proj
I0915 12:19:42.054673  3732 net.cpp:91] Creating Layer inception_4b/pool_proj
I0915 12:19:42.054679  3732 net.cpp:425] inception_4b/pool_proj <- inception_4b/pool
I0915 12:19:42.054690  3732 net.cpp:399] inception_4b/pool_proj -> inception_4b/pool_proj
I0915 12:19:42.056355  3732 net.cpp:141] Setting up inception_4b/pool_proj
I0915 12:19:42.056373  3732 net.cpp:148] Top shape: 10 64 14 14 (125440)
I0915 12:19:42.056378  3732 net.cpp:156] Memory required for data: 403289600
I0915 12:19:42.056386  3732 layer_factory.hpp:77] Creating layer inception_4b/relu_pool_proj
I0915 12:19:42.056394  3732 net.cpp:91] Creating Layer inception_4b/relu_pool_proj
I0915 12:19:42.056401  3732 net.cpp:425] inception_4b/relu_pool_proj <- inception_4b/pool_proj
I0915 12:19:42.056411  3732 net.cpp:386] inception_4b/relu_pool_proj -> inception_4b/pool_proj (in-place)
I0915 12:19:42.056809  3732 net.cpp:141] Setting up inception_4b/relu_pool_proj
I0915 12:19:42.056823  3732 net.cpp:148] Top shape: 10 64 14 14 (125440)
I0915 12:19:42.056828  3732 net.cpp:156] Memory required for data: 403791360
I0915 12:19:42.056831  3732 layer_factory.hpp:77] Creating layer inception_4b/output
I0915 12:19:42.056839  3732 net.cpp:91] Creating Layer inception_4b/output
I0915 12:19:42.056844  3732 net.cpp:425] inception_4b/output <- inception_4b/1x1
I0915 12:19:42.056854  3732 net.cpp:425] inception_4b/output <- inception_4b/3x3
I0915 12:19:42.056860  3732 net.cpp:425] inception_4b/output <- inception_4b/5x5
I0915 12:19:42.056866  3732 net.cpp:425] inception_4b/output <- inception_4b/pool_proj
I0915 12:19:42.056874  3732 net.cpp:399] inception_4b/output -> inception_4b/output
I0915 12:19:42.056916  3732 net.cpp:141] Setting up inception_4b/output
I0915 12:19:42.056926  3732 net.cpp:148] Top shape: 10 512 14 14 (1003520)
I0915 12:19:42.056929  3732 net.cpp:156] Memory required for data: 407805440
I0915 12:19:42.056934  3732 layer_factory.hpp:77] Creating layer inception_4b/output_inception_4b/output_0_split
I0915 12:19:42.056942  3732 net.cpp:91] Creating Layer inception_4b/output_inception_4b/output_0_split
I0915 12:19:42.056946  3732 net.cpp:425] inception_4b/output_inception_4b/output_0_split <- inception_4b/output
I0915 12:19:42.056957  3732 net.cpp:399] inception_4b/output_inception_4b/output_0_split -> inception_4b/output_inception_4b/output_0_split_0
I0915 12:19:42.056967  3732 net.cpp:399] inception_4b/output_inception_4b/output_0_split -> inception_4b/output_inception_4b/output_0_split_1
I0915 12:19:42.056974  3732 net.cpp:399] inception_4b/output_inception_4b/output_0_split -> inception_4b/output_inception_4b/output_0_split_2
I0915 12:19:42.056982  3732 net.cpp:399] inception_4b/output_inception_4b/output_0_split -> inception_4b/output_inception_4b/output_0_split_3
I0915 12:19:42.057068  3732 net.cpp:141] Setting up inception_4b/output_inception_4b/output_0_split
I0915 12:19:42.057077  3732 net.cpp:148] Top shape: 10 512 14 14 (1003520)
I0915 12:19:42.057083  3732 net.cpp:148] Top shape: 10 512 14 14 (1003520)
I0915 12:19:42.057093  3732 net.cpp:148] Top shape: 10 512 14 14 (1003520)
I0915 12:19:42.057098  3732 net.cpp:148] Top shape: 10 512 14 14 (1003520)
I0915 12:19:42.057102  3732 net.cpp:156] Memory required for data: 423861760
I0915 12:19:42.057106  3732 layer_factory.hpp:77] Creating layer inception_4c/1x1
I0915 12:19:42.057126  3732 net.cpp:91] Creating Layer inception_4c/1x1
I0915 12:19:42.057132  3732 net.cpp:425] inception_4c/1x1 <- inception_4b/output_inception_4b/output_0_split_0
I0915 12:19:42.057139  3732 net.cpp:399] inception_4c/1x1 -> inception_4c/1x1
I0915 12:19:42.058845  3732 net.cpp:141] Setting up inception_4c/1x1
I0915 12:19:42.058861  3732 net.cpp:148] Top shape: 10 128 14 14 (250880)
I0915 12:19:42.058879  3732 net.cpp:156] Memory required for data: 424865280
I0915 12:19:42.058887  3732 layer_factory.hpp:77] Creating layer inception_4c/relu_1x1
I0915 12:19:42.058895  3732 net.cpp:91] Creating Layer inception_4c/relu_1x1
I0915 12:19:42.058900  3732 net.cpp:425] inception_4c/relu_1x1 <- inception_4c/1x1
I0915 12:19:42.058910  3732 net.cpp:386] inception_4c/relu_1x1 -> inception_4c/1x1 (in-place)
I0915 12:19:42.059305  3732 net.cpp:141] Setting up inception_4c/relu_1x1
I0915 12:19:42.059317  3732 net.cpp:148] Top shape: 10 128 14 14 (250880)
I0915 12:19:42.059322  3732 net.cpp:156] Memory required for data: 425868800
I0915 12:19:42.059326  3732 layer_factory.hpp:77] Creating layer inception_4c/3x3_reduce
I0915 12:19:42.059341  3732 net.cpp:91] Creating Layer inception_4c/3x3_reduce
I0915 12:19:42.059347  3732 net.cpp:425] inception_4c/3x3_reduce <- inception_4b/output_inception_4b/output_0_split_1
I0915 12:19:42.059360  3732 net.cpp:399] inception_4c/3x3_reduce -> inception_4c/3x3_reduce
I0915 12:19:42.061285  3732 net.cpp:141] Setting up inception_4c/3x3_reduce
I0915 12:19:42.061316  3732 net.cpp:148] Top shape: 10 128 14 14 (250880)
I0915 12:19:42.061321  3732 net.cpp:156] Memory required for data: 426872320
I0915 12:19:42.061329  3732 layer_factory.hpp:77] Creating layer inception_4c/relu_3x3_reduce
I0915 12:19:42.061342  3732 net.cpp:91] Creating Layer inception_4c/relu_3x3_reduce
I0915 12:19:42.061347  3732 net.cpp:425] inception_4c/relu_3x3_reduce <- inception_4c/3x3_reduce
I0915 12:19:42.061354  3732 net.cpp:386] inception_4c/relu_3x3_reduce -> inception_4c/3x3_reduce (in-place)
I0915 12:19:42.061588  3732 net.cpp:141] Setting up inception_4c/relu_3x3_reduce
I0915 12:19:42.061599  3732 net.cpp:148] Top shape: 10 128 14 14 (250880)
I0915 12:19:42.061604  3732 net.cpp:156] Memory required for data: 427875840
I0915 12:19:42.061607  3732 layer_factory.hpp:77] Creating layer inception_4c/3x3
I0915 12:19:42.061622  3732 net.cpp:91] Creating Layer inception_4c/3x3
I0915 12:19:42.061628  3732 net.cpp:425] inception_4c/3x3 <- inception_4c/3x3_reduce
I0915 12:19:42.061640  3732 net.cpp:399] inception_4c/3x3 -> inception_4c/3x3
I0915 12:19:42.065879  3732 net.cpp:141] Setting up inception_4c/3x3
I0915 12:19:42.065909  3732 net.cpp:148] Top shape: 10 256 14 14 (501760)
I0915 12:19:42.065915  3732 net.cpp:156] Memory required for data: 429882880
I0915 12:19:42.065923  3732 layer_factory.hpp:77] Creating layer inception_4c/relu_3x3
I0915 12:19:42.065934  3732 net.cpp:91] Creating Layer inception_4c/relu_3x3
I0915 12:19:42.065940  3732 net.cpp:425] inception_4c/relu_3x3 <- inception_4c/3x3
I0915 12:19:42.065948  3732 net.cpp:386] inception_4c/relu_3x3 -> inception_4c/3x3 (in-place)
I0915 12:19:42.066345  3732 net.cpp:141] Setting up inception_4c/relu_3x3
I0915 12:19:42.066359  3732 net.cpp:148] Top shape: 10 256 14 14 (501760)
I0915 12:19:42.066365  3732 net.cpp:156] Memory required for data: 431889920
I0915 12:19:42.066370  3732 layer_factory.hpp:77] Creating layer inception_4c/5x5_reduce
I0915 12:19:42.066383  3732 net.cpp:91] Creating Layer inception_4c/5x5_reduce
I0915 12:19:42.066390  3732 net.cpp:425] inception_4c/5x5_reduce <- inception_4b/output_inception_4b/output_0_split_2
I0915 12:19:42.066398  3732 net.cpp:399] inception_4c/5x5_reduce -> inception_4c/5x5_reduce
I0915 12:19:42.067759  3732 net.cpp:141] Setting up inception_4c/5x5_reduce
I0915 12:19:42.067790  3732 net.cpp:148] Top shape: 10 24 14 14 (47040)
I0915 12:19:42.067795  3732 net.cpp:156] Memory required for data: 432078080
I0915 12:19:42.067803  3732 layer_factory.hpp:77] Creating layer inception_4c/relu_5x5_reduce
I0915 12:19:42.067811  3732 net.cpp:91] Creating Layer inception_4c/relu_5x5_reduce
I0915 12:19:42.067817  3732 net.cpp:425] inception_4c/relu_5x5_reduce <- inception_4c/5x5_reduce
I0915 12:19:42.067827  3732 net.cpp:386] inception_4c/relu_5x5_reduce -> inception_4c/5x5_reduce (in-place)
I0915 12:19:42.068228  3732 net.cpp:141] Setting up inception_4c/relu_5x5_reduce
I0915 12:19:42.068241  3732 net.cpp:148] Top shape: 10 24 14 14 (47040)
I0915 12:19:42.068245  3732 net.cpp:156] Memory required for data: 432266240
I0915 12:19:42.068250  3732 layer_factory.hpp:77] Creating layer inception_4c/5x5
I0915 12:19:42.068266  3732 net.cpp:91] Creating Layer inception_4c/5x5
I0915 12:19:42.068272  3732 net.cpp:425] inception_4c/5x5 <- inception_4c/5x5_reduce
I0915 12:19:42.068284  3732 net.cpp:399] inception_4c/5x5 -> inception_4c/5x5
I0915 12:19:42.070230  3732 net.cpp:141] Setting up inception_4c/5x5
I0915 12:19:42.070247  3732 net.cpp:148] Top shape: 10 64 14 14 (125440)
I0915 12:19:42.070252  3732 net.cpp:156] Memory required for data: 432768000
I0915 12:19:42.070261  3732 layer_factory.hpp:77] Creating layer inception_4c/relu_5x5
I0915 12:19:42.070271  3732 net.cpp:91] Creating Layer inception_4c/relu_5x5
I0915 12:19:42.070277  3732 net.cpp:425] inception_4c/relu_5x5 <- inception_4c/5x5
I0915 12:19:42.070284  3732 net.cpp:386] inception_4c/relu_5x5 -> inception_4c/5x5 (in-place)
I0915 12:19:42.070519  3732 net.cpp:141] Setting up inception_4c/relu_5x5
I0915 12:19:42.070530  3732 net.cpp:148] Top shape: 10 64 14 14 (125440)
I0915 12:19:42.070534  3732 net.cpp:156] Memory required for data: 433269760
I0915 12:19:42.070539  3732 layer_factory.hpp:77] Creating layer inception_4c/pool
I0915 12:19:42.070550  3732 net.cpp:91] Creating Layer inception_4c/pool
I0915 12:19:42.070556  3732 net.cpp:425] inception_4c/pool <- inception_4b/output_inception_4b/output_0_split_3
I0915 12:19:42.070567  3732 net.cpp:399] inception_4c/pool -> inception_4c/pool
I0915 12:19:42.070631  3732 net.cpp:141] Setting up inception_4c/pool
I0915 12:19:42.070641  3732 net.cpp:148] Top shape: 10 512 14 14 (1003520)
I0915 12:19:42.070646  3732 net.cpp:156] Memory required for data: 437283840
I0915 12:19:42.070649  3732 layer_factory.hpp:77] Creating layer inception_4c/pool_proj
I0915 12:19:42.070662  3732 net.cpp:91] Creating Layer inception_4c/pool_proj
I0915 12:19:42.070668  3732 net.cpp:425] inception_4c/pool_proj <- inception_4c/pool
I0915 12:19:42.070679  3732 net.cpp:399] inception_4c/pool_proj -> inception_4c/pool_proj
I0915 12:19:42.073057  3732 net.cpp:141] Setting up inception_4c/pool_proj
I0915 12:19:42.073076  3732 net.cpp:148] Top shape: 10 64 14 14 (125440)
I0915 12:19:42.073081  3732 net.cpp:156] Memory required for data: 437785600
I0915 12:19:42.073107  3732 layer_factory.hpp:77] Creating layer inception_4c/relu_pool_proj
I0915 12:19:42.073117  3732 net.cpp:91] Creating Layer inception_4c/relu_pool_proj
I0915 12:19:42.073122  3732 net.cpp:425] inception_4c/relu_pool_proj <- inception_4c/pool_proj
I0915 12:19:42.073132  3732 net.cpp:386] inception_4c/relu_pool_proj -> inception_4c/pool_proj (in-place)
I0915 12:19:42.073532  3732 net.cpp:141] Setting up inception_4c/relu_pool_proj
I0915 12:19:42.073545  3732 net.cpp:148] Top shape: 10 64 14 14 (125440)
I0915 12:19:42.073549  3732 net.cpp:156] Memory required for data: 438287360
I0915 12:19:42.073554  3732 layer_factory.hpp:77] Creating layer inception_4c/output
I0915 12:19:42.073562  3732 net.cpp:91] Creating Layer inception_4c/output
I0915 12:19:42.073568  3732 net.cpp:425] inception_4c/output <- inception_4c/1x1
I0915 12:19:42.073575  3732 net.cpp:425] inception_4c/output <- inception_4c/3x3
I0915 12:19:42.073580  3732 net.cpp:425] inception_4c/output <- inception_4c/5x5
I0915 12:19:42.073585  3732 net.cpp:425] inception_4c/output <- inception_4c/pool_proj
I0915 12:19:42.073596  3732 net.cpp:399] inception_4c/output -> inception_4c/output
I0915 12:19:42.073640  3732 net.cpp:141] Setting up inception_4c/output
I0915 12:19:42.073649  3732 net.cpp:148] Top shape: 10 512 14 14 (1003520)
I0915 12:19:42.073653  3732 net.cpp:156] Memory required for data: 442301440
I0915 12:19:42.073658  3732 layer_factory.hpp:77] Creating layer inception_4c/output_inception_4c/output_0_split
I0915 12:19:42.073665  3732 net.cpp:91] Creating Layer inception_4c/output_inception_4c/output_0_split
I0915 12:19:42.073670  3732 net.cpp:425] inception_4c/output_inception_4c/output_0_split <- inception_4c/output
I0915 12:19:42.073678  3732 net.cpp:399] inception_4c/output_inception_4c/output_0_split -> inception_4c/output_inception_4c/output_0_split_0
I0915 12:19:42.073685  3732 net.cpp:399] inception_4c/output_inception_4c/output_0_split -> inception_4c/output_inception_4c/output_0_split_1
I0915 12:19:42.073698  3732 net.cpp:399] inception_4c/output_inception_4c/output_0_split -> inception_4c/output_inception_4c/output_0_split_2
I0915 12:19:42.073706  3732 net.cpp:399] inception_4c/output_inception_4c/output_0_split -> inception_4c/output_inception_4c/output_0_split_3
I0915 12:19:42.073797  3732 net.cpp:141] Setting up inception_4c/output_inception_4c/output_0_split
I0915 12:19:42.073807  3732 net.cpp:148] Top shape: 10 512 14 14 (1003520)
I0915 12:19:42.073812  3732 net.cpp:148] Top shape: 10 512 14 14 (1003520)
I0915 12:19:42.073817  3732 net.cpp:148] Top shape: 10 512 14 14 (1003520)
I0915 12:19:42.073822  3732 net.cpp:148] Top shape: 10 512 14 14 (1003520)
I0915 12:19:42.073827  3732 net.cpp:156] Memory required for data: 458357760
I0915 12:19:42.073830  3732 layer_factory.hpp:77] Creating layer inception_4d/1x1
I0915 12:19:42.073846  3732 net.cpp:91] Creating Layer inception_4d/1x1
I0915 12:19:42.073853  3732 net.cpp:425] inception_4d/1x1 <- inception_4c/output_inception_4c/output_0_split_0
I0915 12:19:42.073861  3732 net.cpp:399] inception_4d/1x1 -> inception_4d/1x1
I0915 12:19:42.075543  3732 net.cpp:141] Setting up inception_4d/1x1
I0915 12:19:42.075556  3732 net.cpp:148] Top shape: 10 112 14 14 (219520)
I0915 12:19:42.075562  3732 net.cpp:156] Memory required for data: 459235840
I0915 12:19:42.075569  3732 layer_factory.hpp:77] Creating layer inception_4d/relu_1x1
I0915 12:19:42.075580  3732 net.cpp:91] Creating Layer inception_4d/relu_1x1
I0915 12:19:42.075587  3732 net.cpp:425] inception_4d/relu_1x1 <- inception_4d/1x1
I0915 12:19:42.075593  3732 net.cpp:386] inception_4d/relu_1x1 -> inception_4d/1x1 (in-place)
I0915 12:19:42.075994  3732 net.cpp:141] Setting up inception_4d/relu_1x1
I0915 12:19:42.076005  3732 net.cpp:148] Top shape: 10 112 14 14 (219520)
I0915 12:19:42.076010  3732 net.cpp:156] Memory required for data: 460113920
I0915 12:19:42.076015  3732 layer_factory.hpp:77] Creating layer inception_4d/3x3_reduce
I0915 12:19:42.076031  3732 net.cpp:91] Creating Layer inception_4d/3x3_reduce
I0915 12:19:42.076037  3732 net.cpp:425] inception_4d/3x3_reduce <- inception_4c/output_inception_4c/output_0_split_1
I0915 12:19:42.076046  3732 net.cpp:399] inception_4d/3x3_reduce -> inception_4d/3x3_reduce
I0915 12:19:42.078725  3732 net.cpp:141] Setting up inception_4d/3x3_reduce
I0915 12:19:42.078742  3732 net.cpp:148] Top shape: 10 144 14 14 (282240)
I0915 12:19:42.078747  3732 net.cpp:156] Memory required for data: 461242880
I0915 12:19:42.078757  3732 layer_factory.hpp:77] Creating layer inception_4d/relu_3x3_reduce
I0915 12:19:42.078768  3732 net.cpp:91] Creating Layer inception_4d/relu_3x3_reduce
I0915 12:19:42.078774  3732 net.cpp:425] inception_4d/relu_3x3_reduce <- inception_4d/3x3_reduce
I0915 12:19:42.078781  3732 net.cpp:386] inception_4d/relu_3x3_reduce -> inception_4d/3x3_reduce (in-place)
I0915 12:19:42.079020  3732 net.cpp:141] Setting up inception_4d/relu_3x3_reduce
I0915 12:19:42.079033  3732 net.cpp:148] Top shape: 10 144 14 14 (282240)
I0915 12:19:42.079038  3732 net.cpp:156] Memory required for data: 462371840
I0915 12:19:42.079042  3732 layer_factory.hpp:77] Creating layer inception_4d/3x3
I0915 12:19:42.079056  3732 net.cpp:91] Creating Layer inception_4d/3x3
I0915 12:19:42.079062  3732 net.cpp:425] inception_4d/3x3 <- inception_4d/3x3_reduce
I0915 12:19:42.079071  3732 net.cpp:399] inception_4d/3x3 -> inception_4d/3x3
I0915 12:19:42.084185  3732 net.cpp:141] Setting up inception_4d/3x3
I0915 12:19:42.084205  3732 net.cpp:148] Top shape: 10 288 14 14 (564480)
I0915 12:19:42.084210  3732 net.cpp:156] Memory required for data: 464629760
I0915 12:19:42.084219  3732 layer_factory.hpp:77] Creating layer inception_4d/relu_3x3
I0915 12:19:42.084228  3732 net.cpp:91] Creating Layer inception_4d/relu_3x3
I0915 12:19:42.084233  3732 net.cpp:425] inception_4d/relu_3x3 <- inception_4d/3x3
I0915 12:19:42.084244  3732 net.cpp:386] inception_4d/relu_3x3 -> inception_4d/3x3 (in-place)
I0915 12:19:42.084650  3732 net.cpp:141] Setting up inception_4d/relu_3x3
I0915 12:19:42.084663  3732 net.cpp:148] Top shape: 10 288 14 14 (564480)
I0915 12:19:42.084667  3732 net.cpp:156] Memory required for data: 466887680
I0915 12:19:42.084672  3732 layer_factory.hpp:77] Creating layer inception_4d/5x5_reduce
I0915 12:19:42.084688  3732 net.cpp:91] Creating Layer inception_4d/5x5_reduce
I0915 12:19:42.084695  3732 net.cpp:425] inception_4d/5x5_reduce <- inception_4c/output_inception_4c/output_0_split_2
I0915 12:19:42.084707  3732 net.cpp:399] inception_4d/5x5_reduce -> inception_4d/5x5_reduce
I0915 12:19:42.086140  3732 net.cpp:141] Setting up inception_4d/5x5_reduce
I0915 12:19:42.086158  3732 net.cpp:148] Top shape: 10 32 14 14 (62720)
I0915 12:19:42.086163  3732 net.cpp:156] Memory required for data: 467138560
I0915 12:19:42.086170  3732 layer_factory.hpp:77] Creating layer inception_4d/relu_5x5_reduce
I0915 12:19:42.086182  3732 net.cpp:91] Creating Layer inception_4d/relu_5x5_reduce
I0915 12:19:42.086189  3732 net.cpp:425] inception_4d/relu_5x5_reduce <- inception_4d/5x5_reduce
I0915 12:19:42.086195  3732 net.cpp:386] inception_4d/relu_5x5_reduce -> inception_4d/5x5_reduce (in-place)
I0915 12:19:42.086598  3732 net.cpp:141] Setting up inception_4d/relu_5x5_reduce
I0915 12:19:42.086611  3732 net.cpp:148] Top shape: 10 32 14 14 (62720)
I0915 12:19:42.086616  3732 net.cpp:156] Memory required for data: 467389440
I0915 12:19:42.086621  3732 layer_factory.hpp:77] Creating layer inception_4d/5x5
I0915 12:19:42.086637  3732 net.cpp:91] Creating Layer inception_4d/5x5
I0915 12:19:42.086643  3732 net.cpp:425] inception_4d/5x5 <- inception_4d/5x5_reduce
I0915 12:19:42.086652  3732 net.cpp:399] inception_4d/5x5 -> inception_4d/5x5
I0915 12:19:42.088511  3732 net.cpp:141] Setting up inception_4d/5x5
I0915 12:19:42.088528  3732 net.cpp:148] Top shape: 10 64 14 14 (125440)
I0915 12:19:42.088533  3732 net.cpp:156] Memory required for data: 467891200
I0915 12:19:42.088541  3732 layer_factory.hpp:77] Creating layer inception_4d/relu_5x5
I0915 12:19:42.088549  3732 net.cpp:91] Creating Layer inception_4d/relu_5x5
I0915 12:19:42.088556  3732 net.cpp:425] inception_4d/relu_5x5 <- inception_4d/5x5
I0915 12:19:42.088564  3732 net.cpp:386] inception_4d/relu_5x5 -> inception_4d/5x5 (in-place)
I0915 12:19:42.088801  3732 net.cpp:141] Setting up inception_4d/relu_5x5
I0915 12:19:42.088812  3732 net.cpp:148] Top shape: 10 64 14 14 (125440)
I0915 12:19:42.088816  3732 net.cpp:156] Memory required for data: 468392960
I0915 12:19:42.088821  3732 layer_factory.hpp:77] Creating layer inception_4d/pool
I0915 12:19:42.088834  3732 net.cpp:91] Creating Layer inception_4d/pool
I0915 12:19:42.088840  3732 net.cpp:425] inception_4d/pool <- inception_4c/output_inception_4c/output_0_split_3
I0915 12:19:42.088847  3732 net.cpp:399] inception_4d/pool -> inception_4d/pool
I0915 12:19:42.088917  3732 net.cpp:141] Setting up inception_4d/pool
I0915 12:19:42.088927  3732 net.cpp:148] Top shape: 10 512 14 14 (1003520)
I0915 12:19:42.088932  3732 net.cpp:156] Memory required for data: 472407040
I0915 12:19:42.088935  3732 layer_factory.hpp:77] Creating layer inception_4d/pool_proj
I0915 12:19:42.088948  3732 net.cpp:91] Creating Layer inception_4d/pool_proj
I0915 12:19:42.088954  3732 net.cpp:425] inception_4d/pool_proj <- inception_4d/pool
I0915 12:19:42.088965  3732 net.cpp:399] inception_4d/pool_proj -> inception_4d/pool_proj
I0915 12:19:42.090687  3732 net.cpp:141] Setting up inception_4d/pool_proj
I0915 12:19:42.090704  3732 net.cpp:148] Top shape: 10 64 14 14 (125440)
I0915 12:19:42.090709  3732 net.cpp:156] Memory required for data: 472908800
I0915 12:19:42.090718  3732 layer_factory.hpp:77] Creating layer inception_4d/relu_pool_proj
I0915 12:19:42.090728  3732 net.cpp:91] Creating Layer inception_4d/relu_pool_proj
I0915 12:19:42.090734  3732 net.cpp:425] inception_4d/relu_pool_proj <- inception_4d/pool_proj
I0915 12:19:42.090740  3732 net.cpp:386] inception_4d/relu_pool_proj -> inception_4d/pool_proj (in-place)
I0915 12:19:42.091152  3732 net.cpp:141] Setting up inception_4d/relu_pool_proj
I0915 12:19:42.091166  3732 net.cpp:148] Top shape: 10 64 14 14 (125440)
I0915 12:19:42.091171  3732 net.cpp:156] Memory required for data: 473410560
I0915 12:19:42.091176  3732 layer_factory.hpp:77] Creating layer inception_4d/output
I0915 12:19:42.091184  3732 net.cpp:91] Creating Layer inception_4d/output
I0915 12:19:42.091189  3732 net.cpp:425] inception_4d/output <- inception_4d/1x1
I0915 12:19:42.091195  3732 net.cpp:425] inception_4d/output <- inception_4d/3x3
I0915 12:19:42.091202  3732 net.cpp:425] inception_4d/output <- inception_4d/5x5
I0915 12:19:42.091207  3732 net.cpp:425] inception_4d/output <- inception_4d/pool_proj
I0915 12:19:42.091213  3732 net.cpp:399] inception_4d/output -> inception_4d/output
I0915 12:19:42.091261  3732 net.cpp:141] Setting up inception_4d/output
I0915 12:19:42.091271  3732 net.cpp:148] Top shape: 10 528 14 14 (1034880)
I0915 12:19:42.091275  3732 net.cpp:156] Memory required for data: 477550080
I0915 12:19:42.091280  3732 layer_factory.hpp:77] Creating layer inception_4d/output_inception_4d/output_0_split
I0915 12:19:42.091289  3732 net.cpp:91] Creating Layer inception_4d/output_inception_4d/output_0_split
I0915 12:19:42.091295  3732 net.cpp:425] inception_4d/output_inception_4d/output_0_split <- inception_4d/output
I0915 12:19:42.091302  3732 net.cpp:399] inception_4d/output_inception_4d/output_0_split -> inception_4d/output_inception_4d/output_0_split_0
I0915 12:19:42.091311  3732 net.cpp:399] inception_4d/output_inception_4d/output_0_split -> inception_4d/output_inception_4d/output_0_split_1
I0915 12:19:42.091320  3732 net.cpp:399] inception_4d/output_inception_4d/output_0_split -> inception_4d/output_inception_4d/output_0_split_2
I0915 12:19:42.091327  3732 net.cpp:399] inception_4d/output_inception_4d/output_0_split -> inception_4d/output_inception_4d/output_0_split_3
I0915 12:19:42.091425  3732 net.cpp:141] Setting up inception_4d/output_inception_4d/output_0_split
I0915 12:19:42.091435  3732 net.cpp:148] Top shape: 10 528 14 14 (1034880)
I0915 12:19:42.091440  3732 net.cpp:148] Top shape: 10 528 14 14 (1034880)
I0915 12:19:42.091445  3732 net.cpp:148] Top shape: 10 528 14 14 (1034880)
I0915 12:19:42.091450  3732 net.cpp:148] Top shape: 10 528 14 14 (1034880)
I0915 12:19:42.091454  3732 net.cpp:156] Memory required for data: 494108160
I0915 12:19:42.091459  3732 layer_factory.hpp:77] Creating layer inception_4e/1x1
I0915 12:19:42.091473  3732 net.cpp:91] Creating Layer inception_4e/1x1
I0915 12:19:42.091480  3732 net.cpp:425] inception_4e/1x1 <- inception_4d/output_inception_4d/output_0_split_0
I0915 12:19:42.091490  3732 net.cpp:399] inception_4e/1x1 -> inception_4e/1x1
I0915 12:19:42.094774  3732 net.cpp:141] Setting up inception_4e/1x1
I0915 12:19:42.094792  3732 net.cpp:148] Top shape: 10 256 14 14 (501760)
I0915 12:19:42.094799  3732 net.cpp:156] Memory required for data: 496115200
I0915 12:19:42.094806  3732 layer_factory.hpp:77] Creating layer inception_4e/relu_1x1
I0915 12:19:42.094817  3732 net.cpp:91] Creating Layer inception_4e/relu_1x1
I0915 12:19:42.094823  3732 net.cpp:425] inception_4e/relu_1x1 <- inception_4e/1x1
I0915 12:19:42.094830  3732 net.cpp:386] inception_4e/relu_1x1 -> inception_4e/1x1 (in-place)
I0915 12:19:42.095240  3732 net.cpp:141] Setting up inception_4e/relu_1x1
I0915 12:19:42.095253  3732 net.cpp:148] Top shape: 10 256 14 14 (501760)
I0915 12:19:42.095257  3732 net.cpp:156] Memory required for data: 498122240
I0915 12:19:42.095263  3732 layer_factory.hpp:77] Creating layer inception_4e/3x3_reduce
I0915 12:19:42.095276  3732 net.cpp:91] Creating Layer inception_4e/3x3_reduce
I0915 12:19:42.095283  3732 net.cpp:425] inception_4e/3x3_reduce <- inception_4d/output_inception_4d/output_0_split_1
I0915 12:19:42.095294  3732 net.cpp:399] inception_4e/3x3_reduce -> inception_4e/3x3_reduce
I0915 12:19:42.097431  3732 net.cpp:141] Setting up inception_4e/3x3_reduce
I0915 12:19:42.097460  3732 net.cpp:148] Top shape: 10 160 14 14 (313600)
I0915 12:19:42.097466  3732 net.cpp:156] Memory required for data: 499376640
I0915 12:19:42.097476  3732 layer_factory.hpp:77] Creating layer inception_4e/relu_3x3_reduce
I0915 12:19:42.097483  3732 net.cpp:91] Creating Layer inception_4e/relu_3x3_reduce
I0915 12:19:42.097489  3732 net.cpp:425] inception_4e/relu_3x3_reduce <- inception_4e/3x3_reduce
I0915 12:19:42.097496  3732 net.cpp:386] inception_4e/relu_3x3_reduce -> inception_4e/3x3_reduce (in-place)
I0915 12:19:42.097740  3732 net.cpp:141] Setting up inception_4e/relu_3x3_reduce
I0915 12:19:42.097751  3732 net.cpp:148] Top shape: 10 160 14 14 (313600)
I0915 12:19:42.097756  3732 net.cpp:156] Memory required for data: 500631040
I0915 12:19:42.097761  3732 layer_factory.hpp:77] Creating layer inception_4e/3x3
I0915 12:19:42.097774  3732 net.cpp:91] Creating Layer inception_4e/3x3
I0915 12:19:42.097780  3732 net.cpp:425] inception_4e/3x3 <- inception_4e/3x3_reduce
I0915 12:19:42.097792  3732 net.cpp:399] inception_4e/3x3 -> inception_4e/3x3
I0915 12:19:42.103657  3732 net.cpp:141] Setting up inception_4e/3x3
I0915 12:19:42.103682  3732 net.cpp:148] Top shape: 10 320 14 14 (627200)
I0915 12:19:42.103687  3732 net.cpp:156] Memory required for data: 503139840
I0915 12:19:42.103695  3732 layer_factory.hpp:77] Creating layer inception_4e/relu_3x3
I0915 12:19:42.103704  3732 net.cpp:91] Creating Layer inception_4e/relu_3x3
I0915 12:19:42.103710  3732 net.cpp:425] inception_4e/relu_3x3 <- inception_4e/3x3
I0915 12:19:42.103720  3732 net.cpp:386] inception_4e/relu_3x3 -> inception_4e/3x3 (in-place)
I0915 12:19:42.104156  3732 net.cpp:141] Setting up inception_4e/relu_3x3
I0915 12:19:42.104168  3732 net.cpp:148] Top shape: 10 320 14 14 (627200)
I0915 12:19:42.104172  3732 net.cpp:156] Memory required for data: 505648640
I0915 12:19:42.104177  3732 layer_factory.hpp:77] Creating layer inception_4e/5x5_reduce
I0915 12:19:42.104193  3732 net.cpp:91] Creating Layer inception_4e/5x5_reduce
I0915 12:19:42.104199  3732 net.cpp:425] inception_4e/5x5_reduce <- inception_4d/output_inception_4d/output_0_split_2
I0915 12:19:42.104212  3732 net.cpp:399] inception_4e/5x5_reduce -> inception_4e/5x5_reduce
I0915 12:19:42.105639  3732 net.cpp:141] Setting up inception_4e/5x5_reduce
I0915 12:19:42.105657  3732 net.cpp:148] Top shape: 10 32 14 14 (62720)
I0915 12:19:42.105662  3732 net.cpp:156] Memory required for data: 505899520
I0915 12:19:42.105670  3732 layer_factory.hpp:77] Creating layer inception_4e/relu_5x5_reduce
I0915 12:19:42.105679  3732 net.cpp:91] Creating Layer inception_4e/relu_5x5_reduce
I0915 12:19:42.105684  3732 net.cpp:425] inception_4e/relu_5x5_reduce <- inception_4e/5x5_reduce
I0915 12:19:42.105690  3732 net.cpp:386] inception_4e/relu_5x5_reduce -> inception_4e/5x5_reduce (in-place)
I0915 12:19:42.106091  3732 net.cpp:141] Setting up inception_4e/relu_5x5_reduce
I0915 12:19:42.106103  3732 net.cpp:148] Top shape: 10 32 14 14 (62720)
I0915 12:19:42.106107  3732 net.cpp:156] Memory required for data: 506150400
I0915 12:19:42.106112  3732 layer_factory.hpp:77] Creating layer inception_4e/5x5
I0915 12:19:42.106127  3732 net.cpp:91] Creating Layer inception_4e/5x5
I0915 12:19:42.106133  3732 net.cpp:425] inception_4e/5x5 <- inception_4e/5x5_reduce
I0915 12:19:42.106143  3732 net.cpp:399] inception_4e/5x5 -> inception_4e/5x5
I0915 12:19:42.109068  3732 net.cpp:141] Setting up inception_4e/5x5
I0915 12:19:42.109098  3732 net.cpp:148] Top shape: 10 128 14 14 (250880)
I0915 12:19:42.109104  3732 net.cpp:156] Memory required for data: 507153920
I0915 12:19:42.109112  3732 layer_factory.hpp:77] Creating layer inception_4e/relu_5x5
I0915 12:19:42.109124  3732 net.cpp:91] Creating Layer inception_4e/relu_5x5
I0915 12:19:42.109130  3732 net.cpp:425] inception_4e/relu_5x5 <- inception_4e/5x5
I0915 12:19:42.109138  3732 net.cpp:386] inception_4e/relu_5x5 -> inception_4e/5x5 (in-place)
I0915 12:19:42.109382  3732 net.cpp:141] Setting up inception_4e/relu_5x5
I0915 12:19:42.109393  3732 net.cpp:148] Top shape: 10 128 14 14 (250880)
I0915 12:19:42.109397  3732 net.cpp:156] Memory required for data: 508157440
I0915 12:19:42.109402  3732 layer_factory.hpp:77] Creating layer inception_4e/pool
I0915 12:19:42.109411  3732 net.cpp:91] Creating Layer inception_4e/pool
I0915 12:19:42.109417  3732 net.cpp:425] inception_4e/pool <- inception_4d/output_inception_4d/output_0_split_3
I0915 12:19:42.109427  3732 net.cpp:399] inception_4e/pool -> inception_4e/pool
I0915 12:19:42.109498  3732 net.cpp:141] Setting up inception_4e/pool
I0915 12:19:42.109508  3732 net.cpp:148] Top shape: 10 528 14 14 (1034880)
I0915 12:19:42.109511  3732 net.cpp:156] Memory required for data: 512296960
I0915 12:19:42.109515  3732 layer_factory.hpp:77] Creating layer inception_4e/pool_proj
I0915 12:19:42.109532  3732 net.cpp:91] Creating Layer inception_4e/pool_proj
I0915 12:19:42.109539  3732 net.cpp:425] inception_4e/pool_proj <- inception_4e/pool
I0915 12:19:42.109547  3732 net.cpp:399] inception_4e/pool_proj -> inception_4e/pool_proj
I0915 12:19:42.111543  3732 net.cpp:141] Setting up inception_4e/pool_proj
I0915 12:19:42.111560  3732 net.cpp:148] Top shape: 10 128 14 14 (250880)
I0915 12:19:42.111564  3732 net.cpp:156] Memory required for data: 513300480
I0915 12:19:42.111573  3732 layer_factory.hpp:77] Creating layer inception_4e/relu_pool_proj
I0915 12:19:42.111582  3732 net.cpp:91] Creating Layer inception_4e/relu_pool_proj
I0915 12:19:42.111589  3732 net.cpp:425] inception_4e/relu_pool_proj <- inception_4e/pool_proj
I0915 12:19:42.111596  3732 net.cpp:386] inception_4e/relu_pool_proj -> inception_4e/pool_proj (in-place)
I0915 12:19:42.112011  3732 net.cpp:141] Setting up inception_4e/relu_pool_proj
I0915 12:19:42.112023  3732 net.cpp:148] Top shape: 10 128 14 14 (250880)
I0915 12:19:42.112028  3732 net.cpp:156] Memory required for data: 514304000
I0915 12:19:42.112032  3732 layer_factory.hpp:77] Creating layer inception_4e/output
I0915 12:19:42.112043  3732 net.cpp:91] Creating Layer inception_4e/output
I0915 12:19:42.112048  3732 net.cpp:425] inception_4e/output <- inception_4e/1x1
I0915 12:19:42.112054  3732 net.cpp:425] inception_4e/output <- inception_4e/3x3
I0915 12:19:42.112061  3732 net.cpp:425] inception_4e/output <- inception_4e/5x5
I0915 12:19:42.112066  3732 net.cpp:425] inception_4e/output <- inception_4e/pool_proj
I0915 12:19:42.112079  3732 net.cpp:399] inception_4e/output -> inception_4e/output
I0915 12:19:42.112128  3732 net.cpp:141] Setting up inception_4e/output
I0915 12:19:42.112140  3732 net.cpp:148] Top shape: 10 832 14 14 (1630720)
I0915 12:19:42.112145  3732 net.cpp:156] Memory required for data: 520826880
I0915 12:19:42.112149  3732 layer_factory.hpp:77] Creating layer pool4/3x3_s2
I0915 12:19:42.112157  3732 net.cpp:91] Creating Layer pool4/3x3_s2
I0915 12:19:42.112162  3732 net.cpp:425] pool4/3x3_s2 <- inception_4e/output
I0915 12:19:42.112171  3732 net.cpp:399] pool4/3x3_s2 -> pool4/3x3_s2
I0915 12:19:42.112234  3732 net.cpp:141] Setting up pool4/3x3_s2
I0915 12:19:42.112244  3732 net.cpp:148] Top shape: 10 832 7 7 (407680)
I0915 12:19:42.112248  3732 net.cpp:156] Memory required for data: 522457600
I0915 12:19:42.112253  3732 layer_factory.hpp:77] Creating layer pool4/3x3_s2_pool4/3x3_s2_0_split
I0915 12:19:42.112263  3732 net.cpp:91] Creating Layer pool4/3x3_s2_pool4/3x3_s2_0_split
I0915 12:19:42.112268  3732 net.cpp:425] pool4/3x3_s2_pool4/3x3_s2_0_split <- pool4/3x3_s2
I0915 12:19:42.112275  3732 net.cpp:399] pool4/3x3_s2_pool4/3x3_s2_0_split -> pool4/3x3_s2_pool4/3x3_s2_0_split_0
I0915 12:19:42.112283  3732 net.cpp:399] pool4/3x3_s2_pool4/3x3_s2_0_split -> pool4/3x3_s2_pool4/3x3_s2_0_split_1
I0915 12:19:42.112290  3732 net.cpp:399] pool4/3x3_s2_pool4/3x3_s2_0_split -> pool4/3x3_s2_pool4/3x3_s2_0_split_2
I0915 12:19:42.112301  3732 net.cpp:399] pool4/3x3_s2_pool4/3x3_s2_0_split -> pool4/3x3_s2_pool4/3x3_s2_0_split_3
I0915 12:19:42.112401  3732 net.cpp:141] Setting up pool4/3x3_s2_pool4/3x3_s2_0_split
I0915 12:19:42.112411  3732 net.cpp:148] Top shape: 10 832 7 7 (407680)
I0915 12:19:42.112416  3732 net.cpp:148] Top shape: 10 832 7 7 (407680)
I0915 12:19:42.112421  3732 net.cpp:148] Top shape: 10 832 7 7 (407680)
I0915 12:19:42.112426  3732 net.cpp:148] Top shape: 10 832 7 7 (407680)
I0915 12:19:42.112431  3732 net.cpp:156] Memory required for data: 528980480
I0915 12:19:42.112434  3732 layer_factory.hpp:77] Creating layer inception_5a/1x1
I0915 12:19:42.112450  3732 net.cpp:91] Creating Layer inception_5a/1x1
I0915 12:19:42.112457  3732 net.cpp:425] inception_5a/1x1 <- pool4/3x3_s2_pool4/3x3_s2_0_split_0
I0915 12:19:42.112468  3732 net.cpp:399] inception_5a/1x1 -> inception_5a/1x1
I0915 12:19:42.116044  3732 net.cpp:141] Setting up inception_5a/1x1
I0915 12:19:42.116061  3732 net.cpp:148] Top shape: 10 256 7 7 (125440)
I0915 12:19:42.116066  3732 net.cpp:156] Memory required for data: 529482240
I0915 12:19:42.116081  3732 layer_factory.hpp:77] Creating layer inception_5a/relu_1x1
I0915 12:19:42.116092  3732 net.cpp:91] Creating Layer inception_5a/relu_1x1
I0915 12:19:42.116099  3732 net.cpp:425] inception_5a/relu_1x1 <- inception_5a/1x1
I0915 12:19:42.116106  3732 net.cpp:386] inception_5a/relu_1x1 -> inception_5a/1x1 (in-place)
I0915 12:19:42.116521  3732 net.cpp:141] Setting up inception_5a/relu_1x1
I0915 12:19:42.116534  3732 net.cpp:148] Top shape: 10 256 7 7 (125440)
I0915 12:19:42.116539  3732 net.cpp:156] Memory required for data: 529984000
I0915 12:19:42.116544  3732 layer_factory.hpp:77] Creating layer inception_5a/3x3_reduce
I0915 12:19:42.116559  3732 net.cpp:91] Creating Layer inception_5a/3x3_reduce
I0915 12:19:42.116564  3732 net.cpp:425] inception_5a/3x3_reduce <- pool4/3x3_s2_pool4/3x3_s2_0_split_1
I0915 12:19:42.116577  3732 net.cpp:399] inception_5a/3x3_reduce -> inception_5a/3x3_reduce
I0915 12:19:42.119748  3732 net.cpp:141] Setting up inception_5a/3x3_reduce
I0915 12:19:42.119779  3732 net.cpp:148] Top shape: 10 160 7 7 (78400)
I0915 12:19:42.119784  3732 net.cpp:156] Memory required for data: 530297600
I0915 12:19:42.119792  3732 layer_factory.hpp:77] Creating layer inception_5a/relu_3x3_reduce
I0915 12:19:42.119803  3732 net.cpp:91] Creating Layer inception_5a/relu_3x3_reduce
I0915 12:19:42.119809  3732 net.cpp:425] inception_5a/relu_3x3_reduce <- inception_5a/3x3_reduce
I0915 12:19:42.119830  3732 net.cpp:386] inception_5a/relu_3x3_reduce -> inception_5a/3x3_reduce (in-place)
I0915 12:19:42.120085  3732 net.cpp:141] Setting up inception_5a/relu_3x3_reduce
I0915 12:19:42.120096  3732 net.cpp:148] Top shape: 10 160 7 7 (78400)
I0915 12:19:42.120100  3732 net.cpp:156] Memory required for data: 530611200
I0915 12:19:42.120105  3732 layer_factory.hpp:77] Creating layer inception_5a/3x3
I0915 12:19:42.120122  3732 net.cpp:91] Creating Layer inception_5a/3x3
I0915 12:19:42.120129  3732 net.cpp:425] inception_5a/3x3 <- inception_5a/3x3_reduce
I0915 12:19:42.120141  3732 net.cpp:399] inception_5a/3x3 -> inception_5a/3x3
I0915 12:19:42.126466  3732 net.cpp:141] Setting up inception_5a/3x3
I0915 12:19:42.126498  3732 net.cpp:148] Top shape: 10 320 7 7 (156800)
I0915 12:19:42.126504  3732 net.cpp:156] Memory required for data: 531238400
I0915 12:19:42.126516  3732 layer_factory.hpp:77] Creating layer inception_5a/relu_3x3
I0915 12:19:42.126524  3732 net.cpp:91] Creating Layer inception_5a/relu_3x3
I0915 12:19:42.126530  3732 net.cpp:425] inception_5a/relu_3x3 <- inception_5a/3x3
I0915 12:19:42.126538  3732 net.cpp:386] inception_5a/relu_3x3 -> inception_5a/3x3 (in-place)
I0915 12:19:42.126968  3732 net.cpp:141] Setting up inception_5a/relu_3x3
I0915 12:19:42.126986  3732 net.cpp:148] Top shape: 10 320 7 7 (156800)
I0915 12:19:42.126991  3732 net.cpp:156] Memory required for data: 531865600
I0915 12:19:42.126996  3732 layer_factory.hpp:77] Creating layer inception_5a/5x5_reduce
I0915 12:19:42.127012  3732 net.cpp:91] Creating Layer inception_5a/5x5_reduce
I0915 12:19:42.127018  3732 net.cpp:425] inception_5a/5x5_reduce <- pool4/3x3_s2_pool4/3x3_s2_0_split_2
I0915 12:19:42.127027  3732 net.cpp:399] inception_5a/5x5_reduce -> inception_5a/5x5_reduce
I0915 12:19:42.128613  3732 net.cpp:141] Setting up inception_5a/5x5_reduce
I0915 12:19:42.128630  3732 net.cpp:148] Top shape: 10 32 7 7 (15680)
I0915 12:19:42.128638  3732 net.cpp:156] Memory required for data: 531928320
I0915 12:19:42.128646  3732 layer_factory.hpp:77] Creating layer inception_5a/relu_5x5_reduce
I0915 12:19:42.128654  3732 net.cpp:91] Creating Layer inception_5a/relu_5x5_reduce
I0915 12:19:42.128660  3732 net.cpp:425] inception_5a/relu_5x5_reduce <- inception_5a/5x5_reduce
I0915 12:19:42.128667  3732 net.cpp:386] inception_5a/relu_5x5_reduce -> inception_5a/5x5_reduce (in-place)
I0915 12:19:42.129081  3732 net.cpp:141] Setting up inception_5a/relu_5x5_reduce
I0915 12:19:42.129104  3732 net.cpp:148] Top shape: 10 32 7 7 (15680)
I0915 12:19:42.129108  3732 net.cpp:156] Memory required for data: 531991040
I0915 12:19:42.129113  3732 layer_factory.hpp:77] Creating layer inception_5a/5x5
I0915 12:19:42.129128  3732 net.cpp:91] Creating Layer inception_5a/5x5
I0915 12:19:42.129135  3732 net.cpp:425] inception_5a/5x5 <- inception_5a/5x5_reduce
I0915 12:19:42.129143  3732 net.cpp:399] inception_5a/5x5 -> inception_5a/5x5
I0915 12:19:42.131407  3732 net.cpp:141] Setting up inception_5a/5x5
I0915 12:19:42.131424  3732 net.cpp:148] Top shape: 10 128 7 7 (62720)
I0915 12:19:42.131429  3732 net.cpp:156] Memory required for data: 532241920
I0915 12:19:42.131438  3732 layer_factory.hpp:77] Creating layer inception_5a/relu_5x5
I0915 12:19:42.131470  3732 net.cpp:91] Creating Layer inception_5a/relu_5x5
I0915 12:19:42.131477  3732 net.cpp:425] inception_5a/relu_5x5 <- inception_5a/5x5
I0915 12:19:42.131484  3732 net.cpp:386] inception_5a/relu_5x5 -> inception_5a/5x5 (in-place)
I0915 12:19:42.131731  3732 net.cpp:141] Setting up inception_5a/relu_5x5
I0915 12:19:42.131742  3732 net.cpp:148] Top shape: 10 128 7 7 (62720)
I0915 12:19:42.131745  3732 net.cpp:156] Memory required for data: 532492800
I0915 12:19:42.131752  3732 layer_factory.hpp:77] Creating layer inception_5a/pool
I0915 12:19:42.131763  3732 net.cpp:91] Creating Layer inception_5a/pool
I0915 12:19:42.131769  3732 net.cpp:425] inception_5a/pool <- pool4/3x3_s2_pool4/3x3_s2_0_split_3
I0915 12:19:42.131781  3732 net.cpp:399] inception_5a/pool -> inception_5a/pool
I0915 12:19:42.131853  3732 net.cpp:141] Setting up inception_5a/pool
I0915 12:19:42.131863  3732 net.cpp:148] Top shape: 10 832 7 7 (407680)
I0915 12:19:42.131868  3732 net.cpp:156] Memory required for data: 534123520
I0915 12:19:42.131872  3732 layer_factory.hpp:77] Creating layer inception_5a/pool_proj
I0915 12:19:42.131886  3732 net.cpp:91] Creating Layer inception_5a/pool_proj
I0915 12:19:42.131891  3732 net.cpp:425] inception_5a/pool_proj <- inception_5a/pool
I0915 12:19:42.131902  3732 net.cpp:399] inception_5a/pool_proj -> inception_5a/pool_proj
I0915 12:19:42.134928  3732 net.cpp:141] Setting up inception_5a/pool_proj
I0915 12:19:42.134948  3732 net.cpp:148] Top shape: 10 128 7 7 (62720)
I0915 12:19:42.134953  3732 net.cpp:156] Memory required for data: 534374400
I0915 12:19:42.134961  3732 layer_factory.hpp:77] Creating layer inception_5a/relu_pool_proj
I0915 12:19:42.134969  3732 net.cpp:91] Creating Layer inception_5a/relu_pool_proj
I0915 12:19:42.134974  3732 net.cpp:425] inception_5a/relu_pool_proj <- inception_5a/pool_proj
I0915 12:19:42.134985  3732 net.cpp:386] inception_5a/relu_pool_proj -> inception_5a/pool_proj (in-place)
I0915 12:19:42.135406  3732 net.cpp:141] Setting up inception_5a/relu_pool_proj
I0915 12:19:42.135419  3732 net.cpp:148] Top shape: 10 128 7 7 (62720)
I0915 12:19:42.135424  3732 net.cpp:156] Memory required for data: 534625280
I0915 12:19:42.135428  3732 layer_factory.hpp:77] Creating layer inception_5a/output
I0915 12:19:42.135437  3732 net.cpp:91] Creating Layer inception_5a/output
I0915 12:19:42.135442  3732 net.cpp:425] inception_5a/output <- inception_5a/1x1
I0915 12:19:42.135448  3732 net.cpp:425] inception_5a/output <- inception_5a/3x3
I0915 12:19:42.135457  3732 net.cpp:425] inception_5a/output <- inception_5a/5x5
I0915 12:19:42.135462  3732 net.cpp:425] inception_5a/output <- inception_5a/pool_proj
I0915 12:19:42.135469  3732 net.cpp:399] inception_5a/output -> inception_5a/output
I0915 12:19:42.135516  3732 net.cpp:141] Setting up inception_5a/output
I0915 12:19:42.135525  3732 net.cpp:148] Top shape: 10 832 7 7 (407680)
I0915 12:19:42.135530  3732 net.cpp:156] Memory required for data: 536256000
I0915 12:19:42.135535  3732 layer_factory.hpp:77] Creating layer inception_5a/output_inception_5a/output_0_split
I0915 12:19:42.135546  3732 net.cpp:91] Creating Layer inception_5a/output_inception_5a/output_0_split
I0915 12:19:42.135552  3732 net.cpp:425] inception_5a/output_inception_5a/output_0_split <- inception_5a/output
I0915 12:19:42.135560  3732 net.cpp:399] inception_5a/output_inception_5a/output_0_split -> inception_5a/output_inception_5a/output_0_split_0
I0915 12:19:42.135571  3732 net.cpp:399] inception_5a/output_inception_5a/output_0_split -> inception_5a/output_inception_5a/output_0_split_1
I0915 12:19:42.135578  3732 net.cpp:399] inception_5a/output_inception_5a/output_0_split -> inception_5a/output_inception_5a/output_0_split_2
I0915 12:19:42.135586  3732 net.cpp:399] inception_5a/output_inception_5a/output_0_split -> inception_5a/output_inception_5a/output_0_split_3
I0915 12:19:42.135690  3732 net.cpp:141] Setting up inception_5a/output_inception_5a/output_0_split
I0915 12:19:42.135700  3732 net.cpp:148] Top shape: 10 832 7 7 (407680)
I0915 12:19:42.135706  3732 net.cpp:148] Top shape: 10 832 7 7 (407680)
I0915 12:19:42.135711  3732 net.cpp:148] Top shape: 10 832 7 7 (407680)
I0915 12:19:42.135716  3732 net.cpp:148] Top shape: 10 832 7 7 (407680)
I0915 12:19:42.135720  3732 net.cpp:156] Memory required for data: 542778880
I0915 12:19:42.135725  3732 layer_factory.hpp:77] Creating layer inception_5b/1x1
I0915 12:19:42.135737  3732 net.cpp:91] Creating Layer inception_5b/1x1
I0915 12:19:42.135743  3732 net.cpp:425] inception_5b/1x1 <- inception_5a/output_inception_5a/output_0_split_0
I0915 12:19:42.135754  3732 net.cpp:399] inception_5b/1x1 -> inception_5b/1x1
I0915 12:19:42.140280  3732 net.cpp:141] Setting up inception_5b/1x1
I0915 12:19:42.140300  3732 net.cpp:148] Top shape: 10 384 7 7 (188160)
I0915 12:19:42.140305  3732 net.cpp:156] Memory required for data: 543531520
I0915 12:19:42.140314  3732 layer_factory.hpp:77] Creating layer inception_5b/relu_1x1
I0915 12:19:42.140322  3732 net.cpp:91] Creating Layer inception_5b/relu_1x1
I0915 12:19:42.140327  3732 net.cpp:425] inception_5b/relu_1x1 <- inception_5b/1x1
I0915 12:19:42.140338  3732 net.cpp:386] inception_5b/relu_1x1 -> inception_5b/1x1 (in-place)
I0915 12:19:42.140759  3732 net.cpp:141] Setting up inception_5b/relu_1x1
I0915 12:19:42.140771  3732 net.cpp:148] Top shape: 10 384 7 7 (188160)
I0915 12:19:42.140776  3732 net.cpp:156] Memory required for data: 544284160
I0915 12:19:42.140780  3732 layer_factory.hpp:77] Creating layer inception_5b/3x3_reduce
I0915 12:19:42.140796  3732 net.cpp:91] Creating Layer inception_5b/3x3_reduce
I0915 12:19:42.140804  3732 net.cpp:425] inception_5b/3x3_reduce <- inception_5a/output_inception_5a/output_0_split_1
I0915 12:19:42.140815  3732 net.cpp:399] inception_5b/3x3_reduce -> inception_5b/3x3_reduce
I0915 12:19:42.144248  3732 net.cpp:141] Setting up inception_5b/3x3_reduce
I0915 12:19:42.144266  3732 net.cpp:148] Top shape: 10 192 7 7 (94080)
I0915 12:19:42.144271  3732 net.cpp:156] Memory required for data: 544660480
I0915 12:19:42.144280  3732 layer_factory.hpp:77] Creating layer inception_5b/relu_3x3_reduce
I0915 12:19:42.144289  3732 net.cpp:91] Creating Layer inception_5b/relu_3x3_reduce
I0915 12:19:42.144294  3732 net.cpp:425] inception_5b/relu_3x3_reduce <- inception_5b/3x3_reduce
I0915 12:19:42.144304  3732 net.cpp:386] inception_5b/relu_3x3_reduce -> inception_5b/3x3_reduce (in-place)
I0915 12:19:42.144556  3732 net.cpp:141] Setting up inception_5b/relu_3x3_reduce
I0915 12:19:42.144570  3732 net.cpp:148] Top shape: 10 192 7 7 (94080)
I0915 12:19:42.144574  3732 net.cpp:156] Memory required for data: 545036800
I0915 12:19:42.144579  3732 layer_factory.hpp:77] Creating layer inception_5b/3x3
I0915 12:19:42.144594  3732 net.cpp:91] Creating Layer inception_5b/3x3
I0915 12:19:42.144600  3732 net.cpp:425] inception_5b/3x3 <- inception_5b/3x3_reduce
I0915 12:19:42.144609  3732 net.cpp:399] inception_5b/3x3 -> inception_5b/3x3
I0915 12:19:42.152397  3732 net.cpp:141] Setting up inception_5b/3x3
I0915 12:19:42.152420  3732 net.cpp:148] Top shape: 10 384 7 7 (188160)
I0915 12:19:42.152426  3732 net.cpp:156] Memory required for data: 545789440
I0915 12:19:42.152436  3732 layer_factory.hpp:77] Creating layer inception_5b/relu_3x3
I0915 12:19:42.152446  3732 net.cpp:91] Creating Layer inception_5b/relu_3x3
I0915 12:19:42.152452  3732 net.cpp:425] inception_5b/relu_3x3 <- inception_5b/3x3
I0915 12:19:42.152461  3732 net.cpp:386] inception_5b/relu_3x3 -> inception_5b/3x3 (in-place)
I0915 12:19:42.152889  3732 net.cpp:141] Setting up inception_5b/relu_3x3
I0915 12:19:42.152905  3732 net.cpp:148] Top shape: 10 384 7 7 (188160)
I0915 12:19:42.152910  3732 net.cpp:156] Memory required for data: 546542080
I0915 12:19:42.152915  3732 layer_factory.hpp:77] Creating layer inception_5b/5x5_reduce
I0915 12:19:42.152930  3732 net.cpp:91] Creating Layer inception_5b/5x5_reduce
I0915 12:19:42.152936  3732 net.cpp:425] inception_5b/5x5_reduce <- inception_5a/output_inception_5a/output_0_split_2
I0915 12:19:42.152950  3732 net.cpp:399] inception_5b/5x5_reduce -> inception_5b/5x5_reduce
I0915 12:19:42.154661  3732 net.cpp:141] Setting up inception_5b/5x5_reduce
I0915 12:19:42.154677  3732 net.cpp:148] Top shape: 10 48 7 7 (23520)
I0915 12:19:42.154682  3732 net.cpp:156] Memory required for data: 546636160
I0915 12:19:42.154690  3732 layer_factory.hpp:77] Creating layer inception_5b/relu_5x5_reduce
I0915 12:19:42.154701  3732 net.cpp:91] Creating Layer inception_5b/relu_5x5_reduce
I0915 12:19:42.154707  3732 net.cpp:425] inception_5b/relu_5x5_reduce <- inception_5b/5x5_reduce
I0915 12:19:42.154714  3732 net.cpp:386] inception_5b/relu_5x5_reduce -> inception_5b/5x5_reduce (in-place)
I0915 12:19:42.155135  3732 net.cpp:141] Setting up inception_5b/relu_5x5_reduce
I0915 12:19:42.155150  3732 net.cpp:148] Top shape: 10 48 7 7 (23520)
I0915 12:19:42.155155  3732 net.cpp:156] Memory required for data: 546730240
I0915 12:19:42.155161  3732 layer_factory.hpp:77] Creating layer inception_5b/5x5
I0915 12:19:42.155175  3732 net.cpp:91] Creating Layer inception_5b/5x5
I0915 12:19:42.155181  3732 net.cpp:425] inception_5b/5x5 <- inception_5b/5x5_reduce
I0915 12:19:42.155194  3732 net.cpp:399] inception_5b/5x5 -> inception_5b/5x5
I0915 12:19:42.158191  3732 net.cpp:141] Setting up inception_5b/5x5
I0915 12:19:42.158210  3732 net.cpp:148] Top shape: 10 128 7 7 (62720)
I0915 12:19:42.158215  3732 net.cpp:156] Memory required for data: 546981120
I0915 12:19:42.158223  3732 layer_factory.hpp:77] Creating layer inception_5b/relu_5x5
I0915 12:19:42.158231  3732 net.cpp:91] Creating Layer inception_5b/relu_5x5
I0915 12:19:42.158237  3732 net.cpp:425] inception_5b/relu_5x5 <- inception_5b/5x5
I0915 12:19:42.158247  3732 net.cpp:386] inception_5b/relu_5x5 -> inception_5b/5x5 (in-place)
I0915 12:19:42.158500  3732 net.cpp:141] Setting up inception_5b/relu_5x5
I0915 12:19:42.158511  3732 net.cpp:148] Top shape: 10 128 7 7 (62720)
I0915 12:19:42.158515  3732 net.cpp:156] Memory required for data: 547232000
I0915 12:19:42.158520  3732 layer_factory.hpp:77] Creating layer inception_5b/pool
I0915 12:19:42.158531  3732 net.cpp:91] Creating Layer inception_5b/pool
I0915 12:19:42.158537  3732 net.cpp:425] inception_5b/pool <- inception_5a/output_inception_5a/output_0_split_3
I0915 12:19:42.158545  3732 net.cpp:399] inception_5b/pool -> inception_5b/pool
I0915 12:19:42.158622  3732 net.cpp:141] Setting up inception_5b/pool
I0915 12:19:42.158632  3732 net.cpp:148] Top shape: 10 832 7 7 (407680)
I0915 12:19:42.158638  3732 net.cpp:156] Memory required for data: 548862720
I0915 12:19:42.158641  3732 layer_factory.hpp:77] Creating layer inception_5b/pool_proj
I0915 12:19:42.158655  3732 net.cpp:91] Creating Layer inception_5b/pool_proj
I0915 12:19:42.158661  3732 net.cpp:425] inception_5b/pool_proj <- inception_5b/pool
I0915 12:19:42.158673  3732 net.cpp:399] inception_5b/pool_proj -> inception_5b/pool_proj
I0915 12:19:42.161743  3732 net.cpp:141] Setting up inception_5b/pool_proj
I0915 12:19:42.161761  3732 net.cpp:148] Top shape: 10 128 7 7 (62720)
I0915 12:19:42.161767  3732 net.cpp:156] Memory required for data: 549113600
I0915 12:19:42.161775  3732 layer_factory.hpp:77] Creating layer inception_5b/relu_pool_proj
I0915 12:19:42.161787  3732 net.cpp:91] Creating Layer inception_5b/relu_pool_proj
I0915 12:19:42.161793  3732 net.cpp:425] inception_5b/relu_pool_proj <- inception_5b/pool_proj
I0915 12:19:42.161800  3732 net.cpp:386] inception_5b/relu_pool_proj -> inception_5b/pool_proj (in-place)
I0915 12:19:42.162231  3732 net.cpp:141] Setting up inception_5b/relu_pool_proj
I0915 12:19:42.162243  3732 net.cpp:148] Top shape: 10 128 7 7 (62720)
I0915 12:19:42.162248  3732 net.cpp:156] Memory required for data: 549364480
I0915 12:19:42.162252  3732 layer_factory.hpp:77] Creating layer inception_5b/output
I0915 12:19:42.162262  3732 net.cpp:91] Creating Layer inception_5b/output
I0915 12:19:42.162268  3732 net.cpp:425] inception_5b/output <- inception_5b/1x1
I0915 12:19:42.162274  3732 net.cpp:425] inception_5b/output <- inception_5b/3x3
I0915 12:19:42.162281  3732 net.cpp:425] inception_5b/output <- inception_5b/5x5
I0915 12:19:42.162286  3732 net.cpp:425] inception_5b/output <- inception_5b/pool_proj
I0915 12:19:42.162292  3732 net.cpp:399] inception_5b/output -> inception_5b/output
I0915 12:19:42.162346  3732 net.cpp:141] Setting up inception_5b/output
I0915 12:19:42.162356  3732 net.cpp:148] Top shape: 10 1024 7 7 (501760)
I0915 12:19:42.162361  3732 net.cpp:156] Memory required for data: 551371520
I0915 12:19:42.162365  3732 layer_factory.hpp:77] Creating layer pool5/7x7_s1
I0915 12:19:42.162374  3732 net.cpp:91] Creating Layer pool5/7x7_s1
I0915 12:19:42.162379  3732 net.cpp:425] pool5/7x7_s1 <- inception_5b/output
I0915 12:19:42.162387  3732 net.cpp:399] pool5/7x7_s1 -> pool5/7x7_s1
I0915 12:19:42.162701  3732 net.cpp:141] Setting up pool5/7x7_s1
I0915 12:19:42.162715  3732 net.cpp:148] Top shape: 10 1024 1 1 (10240)
I0915 12:19:42.162719  3732 net.cpp:156] Memory required for data: 551412480
I0915 12:19:42.162724  3732 layer_factory.hpp:77] Creating layer pool5/drop_7x7_s1
I0915 12:19:42.162739  3732 net.cpp:91] Creating Layer pool5/drop_7x7_s1
I0915 12:19:42.162744  3732 net.cpp:425] pool5/drop_7x7_s1 <- pool5/7x7_s1
I0915 12:19:42.162750  3732 net.cpp:386] pool5/drop_7x7_s1 -> pool5/7x7_s1 (in-place)
I0915 12:19:42.162803  3732 net.cpp:141] Setting up pool5/drop_7x7_s1
I0915 12:19:42.162813  3732 net.cpp:148] Top shape: 10 1024 1 1 (10240)
I0915 12:19:42.162817  3732 net.cpp:156] Memory required for data: 551453440
I0915 12:19:42.162822  3732 layer_factory.hpp:77] Creating layer loss3/classifier
I0915 12:19:42.162838  3732 net.cpp:91] Creating Layer loss3/classifier
I0915 12:19:42.162844  3732 net.cpp:425] loss3/classifier <- pool5/7x7_s1
I0915 12:19:42.162852  3732 net.cpp:399] loss3/classifier -> loss3/classifier
I0915 12:19:42.172610  3732 net.cpp:141] Setting up loss3/classifier
I0915 12:19:42.172643  3732 net.cpp:148] Top shape: 10 1000 (10000)
I0915 12:19:42.172648  3732 net.cpp:156] Memory required for data: 551493440
I0915 12:19:42.172659  3732 layer_factory.hpp:77] Creating layer prob
I0915 12:19:42.172674  3732 net.cpp:91] Creating Layer prob
I0915 12:19:42.172682  3732 net.cpp:425] prob <- loss3/classifier
I0915 12:19:42.172690  3732 net.cpp:399] prob -> prob
I0915 12:19:42.173375  3732 net.cpp:141] Setting up prob
I0915 12:19:42.173391  3732 net.cpp:148] Top shape: 10 1000 (10000)
I0915 12:19:42.173395  3732 net.cpp:156] Memory required for data: 551533440
I0915 12:19:42.173401  3732 net.cpp:219] prob does not need backward computation.
I0915 12:19:42.173406  3732 net.cpp:219] loss3/classifier does not need backward computation.
I0915 12:19:42.173410  3732 net.cpp:219] pool5/drop_7x7_s1 does not need backward computation.
I0915 12:19:42.173414  3732 net.cpp:219] pool5/7x7_s1 does not need backward computation.
…
