…
W0925 22:41:17.728274  6815 upgrade_proto.cpp:71] Note that future Caffe releases will only support input layers and not input fields.
I0925 22:41:17.728436  6841 net.cpp:49] Initializing net from parameters: 
name: "s2vt:features_to_lstm"
state {
  phase: TEST
}
layer {
  name: "input"
  type: "Input"
  top: "frames_fc7"
  top: "cont_sentence"
  top: "input_sentence"
  top: "stage_indicator"
  input_param {
    shape {
      dim: 1
      dim: 4096
    }
    shape {
      dim: 1
      dim: 1
    }
    shape {
      dim: 1
      dim: 1
    }
    shape {
      dim: 1
      dim: 1
    }
  }
}
layer {
  name: "embed_encoder"
  type: "InnerProduct"
  bottom: "frames_fc7"
  top: "embedded_in_frames"
  param {
    lr_mult: 1
    decay_mult: 1
  }
  param {
    lr_mult: 2
    decay_mult: 0
  }
  inner_product_param {
    num_output: 500
    weight_filler {
      type: "xavier"
    }
    bias_filler {
      type: "constant"
      value: 0.2
    }
  }
}
layer {
  name: "reshape_frames"
  type: "Reshape"
  bottom: "embedded_in_frames"
  top: "embedded_input_frames"
  reshape_param {
    shape {
      dim: 1
      dim: 1
      dim: 500
    }
  }
}
layer {
  name: "reshape_stage_indicator"
  type: "Reshape"
  bottom: "stage_indicator"
  top: "reshaped_stage_indicator"
  reshape_param {
    shape {
      dim: 1
      dim: 1
      dim: 1
    }
  }
}
layer {
  name: "embedding"
  type: "Embed"
  bottom: "input_sentence"
  top: "embedded_input_sentence"
  param {
    lr_mult: 1
  }
  embed_param {
    num_output: 500
    input_dim: 46168
    bias_term: false
    weight_filler {
      type: "uniform"
      min: -0.08
      max: 0.08
    }
  }
}
layer {
  name: "lstm1"
  type: "LSTM"
  bottom: "embedded_input_frames"
  bottom: "cont_sentence"
  top: "lstm1"
  recurrent_param {
    num_output: 1000
    weight_filler {
      type: "uniform"
      min: -0.08
      max: 0.08
    }
    bias_filler {
      type: "constant"
      value: 0
    }
  }
}
layer {
  name: "concat"
  type: "Concat"
  bottom: "lstm1"
  bottom: "embedded_input_sentence"
  bottom: "reshaped_stage_indicator"
  top: "lstm1_video_sequence"
  concat_param {
    concat_dim: 2
  }
}
layer {
  name: "lstm2"
  type: "LSTM"
  bottom: "lstm1_video_sequence"
  bottom: "cont_sentence"
  top: "lstm2"
  recurrent_param {
    num_output: 1000
    weight_filler {
      type: "uniform"
      min: -0.08
      max: 0.08
    }
    bias_filler {
      type: "constant"
      value: 0
    }
  }
}
layer {
  name: "predict"
  type: "InnerProduct"
  bottom: "lstm2"
  top: "predict"
  param {
    lr_mult: 1
    decay_mult: 1
  }
  param {
    lr_mult: 2
    decay_mult: 0
  }
  inner_product_param {
    num_output: 46168
    weight_filler {
      type: "uniform"
      min: -0.08
      max: 0.08
    }
    bias_filler {
      type: "constant"
      value: 0
    }
    axis: 2
  }
}
layer {
  name: "probs"
  type: "Softmax"
  bottom: "predict"
  top: "probs"
  softmax_param {
    axis: 2
  }
}
I0925 22:41:17.728459  6831 net.cpp:49] Initializing net from parameters: 
name: "s2vt:features_to_lstm"
state {
  phase: TEST
}
layer {
  name: "input"
  type: "Input"
  top: "frames_fc7"
  top: "cont_sentence"
  top: "input_sentence"
  top: "stage_indicator"
  input_param {
    shape {
      dim: 1
      dim: 4096
    }
    shape {
      dim: 1
      dim: 1
    }
    shape {
      dim: 1
      dim: 1
    }
    shape {
      dim: 1
      dim: 1
    }
  }
}
layer {
  name: "embed_encoder"
  type: "InnerProduct"
  bottom: "frames_fc7"
  top: "embedded_in_frames"
  param {
    lr_mult: 1
    decay_mult: 1
  }
  param {
    lr_mult: 2
    decay_mult: 0
  }
  inner_product_param {
    num_output: 500
    weight_filler {
      type: "xavier"
    }
    bias_filler {
      type: "constant"
      value: 0.2
    }
  }
}
layer {
  name: "reshape_frames"
  type: "Reshape"
  bottom: "embedded_in_frames"
  top: "embedded_input_frames"
  reshape_param {
    shape {
      dim: 1
      dim: 1
      dim: 500
    }
  }
}
layer {
  name: "reshape_stage_indicator"
  type: "Reshape"
  bottom: "stage_indicator"
  top: "reshaped_stage_indicator"
  reshape_param {
    shape {
      dim: 1
      dim: 1
      dim: 1
    }
  }
}
layer {
  name: "embedding"
  type: "Embed"
  bottom: "input_sentence"
  top: "embedded_input_sentence"
  param {
    lr_mult: 1
  }
  embed_param {
    num_output: 500
    input_dim: 46168
    bias_term: false
    weight_filler {
      type: "uniform"
      min: -0.08
      max: 0.08
    }
  }
}
layer {
  name: "lstm1"
  type: "LSTM"
  bottom: "embedded_input_frames"
  bottom: "cont_sentence"
  top: "lstm1"
  recurrent_param {
    num_output: 1000
    weight_filler {
      type: "uniform"
      min: -0.08
      max: 0.08
    }
    bias_filler {
      type: "constant"
      value: 0
    }
  }
}
layer {
  name: "concat"
  type: "Concat"
  bottom: "lstm1"
  bottom: "embedded_input_sentence"
  bottom: "reshaped_stage_indicator"
  top: "lstm1_video_sequence"
  concat_param {
    concat_dim: 2
  }
}
layer {
  name: "lstm2"
  type: "LSTM"
  bottom: "lstm1_video_sequence"
  bottom: "cont_sentence"
  top: "lstm2"
  recurrent_param {
    num_output: 1000
    weight_filler {
      type: "uniform"
      min: -0.08
      max: 0.08
    }
    bias_filler {
      type: "constant"
      value: 0
    }
  }
}
layer {
  name: "predict"
  type: "InnerProduct"
  bottom: "lstm2"
  top: "predict"
  param {
    lr_mult: 1
    decay_mult: 1
  }
  param {
    lr_mult: 2
    decay_mult: 0
  }
  inner_product_param {
    num_output: 46168
    weight_filler {
      type: "uniform"
      min: -0.08
      max: 0.08
    }
    bias_filler {
      type: "constant"
      value: 0
    }
    axis: 2
  }
}
layer {
  name: "probs"
  type: "Softmax"
  bottom: "predict"
  top: "probs"
  softmax_param {
    axis: 2
  }
}
I0925 22:41:17.728507  6799 net.cpp:49] Initializing net from parameters: 
name: "s2vt:features_to_lstm"
state {
  phase: TEST
}
layer {
  name: "input"
  type: "Input"
  top: "frames_fc7"
  top: "cont_sentence"
  top: "input_sentence"
  top: "stage_indicator"
  input_param {
    shape {
      dim: 1
      dim: 4096
    }
    shape {
      dim: 1
      dim: 1
    }
    shape {
      dim: 1
      dim: 1
    }
    shape {
      dim: 1
      dim: 1
    }
  }
}
layer {
  name: "embed_encoder"
  type: "InnerProduct"
  bottom: "frames_fc7"
  top: "embedded_in_frames"
  param {
    lr_mult: 1
    decay_mult: 1
  }
  param {
    lr_mult: 2
    decay_mult: 0
  }
  inner_product_param {
    num_output: 500
    weight_filler {
      type: "xavier"
    }
    bias_filler {
      type: "constant"
      value: 0.2
    }
  }
}
layer {
  name: "reshape_frames"
  type: "Reshape"
  bottom: "embedded_in_frames"
  top: "embedded_input_frames"
  reshape_param {
    shape {
      dim: 1
      dim: 1
      dim: 500
    }
  }
}
layer {
  name: "reshape_stage_indicator"
  type: "Reshape"
  bottom: "stage_indicator"
  top: "reshaped_stage_indicator"
  reshape_param {
    shape {
      dim: 1
      dim: 1
      dim: 1
    }
  }
}
layer {
  name: "embedding"
  type: "Embed"
  bottom: "input_sentence"
  top: "embedded_input_sentence"
  param {
    lr_mult: 1
  }
  embed_param {
    num_output: 500
    input_dim: 46168
    bias_term: false
    weight_filler {
      type: "uniform"
      min: -0.08
      max: 0.08
    }
  }
}
layer {
  name: "lstm1"
  type: "LSTM"
  bottom: "embedded_input_frames"
  bottom: "cont_sentence"
  top: "lstm1"
  recurrent_param {
    num_output: 1000
    weight_filler {
      type: "uniform"
      min: -0.08
      max: 0.08
    }
    bias_filler {
      type: "constant"
      value: 0
    }
  }
}
layer {
  name: "concat"
  type: "Concat"
  bottom: "lstm1"
  bottom: "embedded_input_sentence"
  bottom: "reshaped_stage_indicator"
  top: "lstm1_video_sequence"
  concat_param {
    concat_dim: 2
  }
}
layer {
  name: "lstm2"
  type: "LSTM"
  bottom: "lstm1_video_sequence"
  bottom: "cont_sentence"
  top: "lstm2"
  recurrent_param {
    num_output: 1000
    weight_filler {
      type: "uniform"
      min: -0.08
      max: 0.08
    }
    bias_filler {
      type: "constant"
      value: 0
    }
  }
}
layer {
  name: "predict"
  type: "InnerProduct"
  bottom: "lstm2"
  top: "predict"
  param {
    lr_mult: 1
    decay_mult: 1
  }
  param {
    lr_mult: 2
    decay_mult: 0
  }
  inner_product_param {
    num_output: 46168
    weight_filler {
      type: "uniform"
      min: -0.08
      max: 0.08
    }
    bias_filler {
      type: "constant"
      value: 0
    }
    axis: 2
  }
}
layer {
  name: "probs"
  type: "Softmax"
  bottom: "predict"
  top: "probs"
  softmax_param {
    axis: 2
  }
}
I0925 22:41:17.728507  6797 net.cpp:49] Initializing net from parameters: 
name: "s2vt:features_to_lstm"
state {
  phase: TEST
}
layer {
  name: "input"
  type: "Input"
  top: "frames_fc7"
  top: "cont_sentence"
  top: "input_sentence"
  top: "stage_indicator"
  input_param {
    shape {
      dim: 1
      dim: 4096
    }
    shape {
      dim: 1
      dim: 1
    }
    shape {
      dim: 1
      dim: 1
    }
    shape {
      dim: 1
      dim: 1
    }
  }
}
layer {
  name: "embed_encoder"
  type: "InnerProduct"
  bottom: "frames_fc7"
  top: "embedded_in_frames"
  param {
    lr_mult: 1
    decay_mult: 1
  }
  param {
    lr_mult: 2
    decay_mult: 0
  }
  inner_product_param {
    num_output: 500
    weight_filler {
      type: "xavier"
    }
    bias_filler {
      type: "constant"
      value: 0.2
    }
  }
}
layer {
  name: "reshape_frames"
  type: "Reshape"
  bottom: "embedded_in_frames"
  top: "embedded_input_frames"
  reshape_param {
    shape {
      dim: 1
      dim: 1
      dim: 500
    }
  }
}
layer {
  name: "reshape_stage_indicator"
  type: "Reshape"
  bottom: "stage_indicator"
  top: "reshaped_stage_indicator"
  reshape_param {
    shape {
      dim: 1
      dim: 1
      dim: 1
    }
  }
}
layer {
  name: "embedding"
  type: "Embed"
  bottom: "input_sentence"
  top: "embedded_input_sentence"
  param {
    lr_mult: 1
  }
  embed_param {
    num_output: 500
    input_dim: 46168
    bias_term: false
    weight_filler {
      type: "uniform"
      min: -0.08
      max: 0.08
    }
  }
}
layer {
  name: "lstm1"
  type: "LSTM"
  bottom: "embedded_input_frames"
  bottom: "cont_sentence"
  top: "lstm1"
  recurrent_param {
    num_output: 1000
    weight_filler {
      type: "uniform"
      min: -0.08
      max: 0.08
    }
    bias_filler {
      type: "constant"
      value: 0
    }
  }
}
layer {
  name: "concat"
  type: "Concat"
  bottom: "lstm1"
  bottom: "embedded_input_sentence"
  bottom: "reshaped_stage_indicator"
  top: "lstm1_video_sequence"
  concat_param {
    concat_dim: 2
  }
}
layer {
  name: "lstm2"
  type: "LSTM"
  bottom: "lstm1_video_sequence"
  bottom: "cont_sentence"
  top: "lstm2"
  recurrent_param {
    num_output: 1000
    weight_filler {
      type: "uniform"
      min: -0.08
      max: 0.08
    }
    bias_filler {
      type: "constant"
      value: 0
    }
  }
}
layer {
  name: "predict"
  type: "InnerProduct"
  bottom: "lstm2"
  top: "predict"
  param {
    lr_mult: 1
    decay_mult: 1
  }
  param {
    lr_mult: 2
    decay_mult: 0
  }
  inner_product_param {
    num_output: 46168
    weight_filler {
      type: "uniform"
      min: -0.08
      max: 0.08
    }
    bias_filler {
      type: "constant"
      value: 0
    }
    axis: 2
  }
}
layer {
  name: "probs"
  type: "Softmax"
  bottom: "predict"
  top: "probs"
  softmax_param {
    axis: 2
  }
}
I0925 22:41:17.728507  6803 net.cpp:49] Initializing net from parameters: 
name: "s2vt:features_to_lstm"
state {
  phase: TEST
}
layer {
  name: "input"
  type: "Input"
  top: "frames_fc7"
  top: "cont_sentence"
  top: "input_sentence"
  top: "stage_indicator"
  input_param {
    shape {
      dim: 1
      dim: 4096
    }
    shape {
      dim: 1
      dim: 1
    }
    shape {
      dim: 1
      dim: 1
    }
    shape {
      dim: 1
      dim: 1
    }
  }
}
layer {
  name: "embed_encoder"
  type: "InnerProduct"
  bottom: "frames_fc7"
  top: "embedded_in_frames"
  param {
    lr_mult: 1
    decay_mult: 1
  }
  param {
    lr_mult: 2
    decay_mult: 0
  }
  inner_product_param {
    num_output: 500
    weight_filler {
      type: "xavier"
    }
    bias_filler {
      type: "constant"
      value: 0.2
    }
  }
}
layer {
  name: "reshape_frames"
  type: "Reshape"
  bottom: "embedded_in_frames"
  top: "embedded_input_frames"
  reshape_param {
    shape {
      dim: 1
      dim: 1
      dim: 500
    }
  }
}
layer {
  name: "reshape_stage_indicator"
  type: "Reshape"
  bottom: "stage_indicator"
  top: "reshaped_stage_indicator"
  reshape_param {
    shape {
      dim: 1
      dim: 1
      dim: 1
    }
  }
}
layer {
  name: "embedding"
  type: "Embed"
  bottom: "input_sentence"
  top: "embedded_input_sentence"
  param {
    lr_mult: 1
  }
  embed_param {
    num_output: 500
    input_dim: 46168
    bias_term: false
    weight_filler {
      type: "uniform"
      min: -0.08
      max: 0.08
    }
  }
}
layer {
  name: "lstm1"
  type: "LSTM"
  bottom: "embedded_input_frames"
  bottom: "cont_sentence"
  top: "lstm1"
  recurrent_param {
    num_output: 1000
    weight_filler {
      type: "uniform"
      min: -0.08
      max: 0.08
    }
    bias_filler {
      type: "constant"
      value: 0
    }
  }
}
layer {
  name: "concat"
  type: "Concat"
  bottom: "lstm1"
  bottom: "embedded_input_sentence"
  bottom: "reshaped_stage_indicator"
  top: "lstm1_video_sequence"
  concat_param {
    concat_dim: 2
  }
}
layer {
  name: "lstm2"
  type: "LSTM"
  bottom: "lstm1_video_sequence"
  bottom: "cont_sentence"
  top: "lstm2"
  recurrent_param {
    num_output: 1000
    weight_filler {
      type: "uniform"
      min: -0.08
      max: 0.08
    }
    bias_filler {
      type: "constant"
      value: 0
    }
  }
}
layer {
  name: "predict"
  type: "InnerProduct"
  bottom: "lstm2"
  top: "predict"
  param {
    lr_mult: 1
    decay_mult: 1
  }
  param {
    lr_mult: 2
    decay_mult: 0
  }
  inner_product_param {
    num_output: 46168
    weight_filler {
      type: "uniform"
      min: -0.08
      max: 0.08
    }
    bias_filler {
      type: "constant"
      value: 0
    }
    axis: 2
  }
}
layer {
  name: "probs"
  type: "Softmax"
  bottom: "predict"
  top: "probs"
  softmax_param {
    axis: 2
  }
}
I0925 22:41:17.728564  6815 net.cpp:49] Initializing net from parameters: 
name: "s2vt:features_to_lstm"
state {
  phase: TEST
}
layer {
  name: "input"
  type: "Input"
  top: "frames_fc7"
  top: "cont_sentence"
  top: "input_sentence"
  top: "stage_indicator"
  input_param {
    shape {
      dim: 1
      dim: 4096
    }
    shape {
      dim: 1
      dim: 1
    }
    shape {
      dim: 1
      dim: 1
    }
    shape {
      dim: 1
      dim: 1
    }
  }
}
layer {
  name: "embed_encoder"
  type: "InnerProduct"
  bottom: "frames_fc7"
  top: "embedded_in_frames"
  param {
    lr_mult: 1
    decay_mult: 1
  }
  param {
    lr_mult: 2
    decay_mult: 0
  }
  inner_product_param {
    num_output: 500
    weight_filler {
      type: "xavier"
    }
    bias_filler {
      type: "constant"
      value: 0.2
    }
  }
}
layer {
  name: "reshape_frames"
  type: "Reshape"
  bottom: "embedded_in_frames"
  top: "embedded_input_frames"
  reshape_param {
    shape {
      dim: 1
      dim: 1
      dim: 500
    }
  }
}
layer {
  name: "reshape_stage_indicator"
  type: "Reshape"
  bottom: "stage_indicator"
  top: "reshaped_stage_indicator"
  reshape_param {
    shape {
      dim: 1
      dim: 1
      dim: 1
    }
  }
}
layer {
  name: "embedding"
  type: "Embed"
  bottom: "input_sentence"
  top: "embedded_input_sentence"
  param {
    lr_mult: 1
  }
  embed_param {
    num_output: 500
    input_dim: 46168
    bias_term: false
    weight_filler {
      type: "uniform"
      min: -0.08
      max: 0.08
    }
  }
}
layer {
  name: "lstm1"
  type: "LSTM"
  bottom: "embedded_input_frames"
  bottom: "cont_sentence"
  top: "lstm1"
  recurrent_param {
    num_output: 1000
    weight_filler {
      type: "uniform"
      min: -0.08
      max: 0.08
    }
    bias_filler {
      type: "constant"
      value: 0
    }
  }
}
layer {
  name: "concat"
  type: "Concat"
  bottom: "lstm1"
  bottom: "embedded_input_sentence"
  bottom: "reshaped_stage_indicator"
  top: "lstm1_video_sequence"
  concat_param {
    concat_dim: 2
  }
}
layer {
  name: "lstm2"
  type: "LSTM"
  bottom: "lstm1_video_sequence"
  bottom: "cont_sentence"
  top: "lstm2"
  recurrent_param {
    num_output: 1000
    weight_filler {
      type: "uniform"
      min: -0.08
      max: 0.08
    }
    bias_filler {
      type: "constant"
      value: 0
    }
  }
}
layer {
  name: "predict"
  type: "InnerProduct"
  bottom: "lstm2"
  top: "predict"
  param {
    lr_mult: 1
    decay_mult: 1
  }
  param {
    lr_mult: 2
    decay_mult: 0
  }
  inner_product_param {
    num_output: 46168
    weight_filler {
      type: "uniform"
      min: -0.08
      max: 0.08
    }
    bias_filler {
      type: "constant"
      value: 0
    }
    axis: 2
  }
}
layer {
  name: "probs"
  type: "Softmax"
  bottom: "predict"
  top: "probs"
  softmax_param {
    axis: 2
  }
}
I0925 22:41:17.728586  6841 layer_factory.hpp:77] Creating layer input
I0925 22:41:17.728587  6831 layer_factory.hpp:77] Creating layer input
I0925 22:41:17.728622  6841 net.cpp:91] Creating Layer input
I0925 22:41:17.728623  6831 net.cpp:91] Creating Layer input
I0925 22:41:17.728633  6841 net.cpp:399] input -> frames_fc7
I0925 22:41:17.728636  6831 net.cpp:399] input -> frames_fc7
…
I0925 22:41:17.728699  6797 net.cpp:399] input -> frames_fc7
I0925 22:41:17.728713  6803 net.cpp:399] input -> frames_fc7
I0925 22:41:17.728716  6815 net.cpp:399] input -> frames_fc7
I0925 22:41:17.728720  6831 net.cpp:399] input -> stage_indicator
I0925 22:41:17.728710  6799 net.cpp:399] input -> cont_sentence
I0925 22:41:17.728703  6833 net.cpp:49] Initializing net from parameters: 
name: "CaffeNet"
state {
  phase: TEST
}
layer {
  name: "data"
  type: "Input"
  top: "data"
  input_param {
    shape {
      dim: 10
      dim: 3
      dim: 227
      dim: 227
    }
  }
}
layer {
  name: "conv1"
  type: "Convolution"
  bottom: "data"
  top: "conv1"
  convolution_param {
    num_output: 96
    kernel_size: 11
    stride: 4
  }
}
layer {
  name: "relu1"
  type: "ReLU"
  bottom: "conv1"
  top: "conv1"
}
layer {
  name: "pool1"
  type: "Pooling"
  bottom: "conv1"
  top: "pool1"
  pooling_param {
    pool: MAX
    kernel_size: 3
    stride: 2
  }
}
layer {
  name: "norm1"
  type: "LRN"
  bottom: "pool1"
  top: "norm1"
  lrn_param {
    local_size: 5
    alpha: 0.0001
    beta: 0.75
  }
}
layer {
  name: "conv2"
  type: "Convolution"
  bottom: "norm1"
  top: "conv2"
  convolution_param {
    num_output: 256
    pad: 2
    kernel_size: 5
    group: 2
  }
}
layer {
  name: "relu2"
  type: "ReLU"
  bottom: "conv2"
  top: "conv2"
}
layer {
  name: "pool2"
  type: "Pooling"
  bottom: "conv2"
  top: "pool2"
  pooling_param {
    pool: MAX
    kernel_size: 3
    stride: 2
  }
}
layer {
  name: "norm2"
  type: "LRN"
  bottom: "pool2"
  top: "norm2"
  lrn_param {
    local_size: 5
    alpha: 0.0001
    beta: 0.75
  }
}
layer {
  name: "conv3"
  type: "Convolution"
  bottom: "norm2"
  top: "conv3"
  convolution_param {
    num_output: 384
    pad: 1
    kernel_size: 3
  }
}
layer {
  name: "relu3"
  type: "ReLU"
  bottom: "conv3"
  top: "conv3"
}
layer {
  name: "conv4"
  type: "Convolution"
  bottom: "conv3"
  top: "conv4"
  convolution_param {
    num_output: 384
    pad: 1
    kernel_size: 3
    group: 2
  }
}
layer {
  name: "relu4"
  type: "ReLU"
  bottom: "conv4"
  top: "conv4"
}
layer {
  name: "conv5"
  type: "Convolution"
  bottom: "conv4"
  top: "conv5"
  convolution_param {
    num_output: 256
    pad: 1
    kernel_size: 3
    group: 2
  }
}
layer {
  name: "relu5"
  type: "ReLU"
  bottom: "conv5"
  top: "conv5"
}
layer {
  name: "pool5"
  type: "Pooling"
  bottom: "conv5"
  top: "pool5"
  pooling_param {
    pool: MAX
    kernel_size: 3
    stride: 2
  }
}
layer {
  name: "fc6"
  type: "InnerProduct"
  bottom: "pool5"
  top: "fc6"
  inner_product_param {
    num_output: 4096
  }
}
layer {
  name: "relu6"
  type: "ReLU"
  bottom: "fc6"
  top: "fc6"
}
layer {
  name: "drop6"
  type: "Dropout"
  bottom: "fc6"
  top: "fc6"
  dropout_param {
    dropout_ratio: 0.5
  }
}
layer {
  name: "fc7"
  type: "InnerProduct"
  bottom: "fc6"
  top: "fc7"
  inner_product_param {
    num_output: 4096
  }
}
layer {
  name: "relu7"
  type: "ReLU"
  bottom: "fc7"
  top: "fc7"
}
layer {
  name: "drop7"
  type: "Dropout"
  bottom: "fc7"
  top: "fc7"
  dropout_param {
    dropout_ratio: 0.5
  }
}
layer {
  name: "fc8"
  type: "InnerProduct"
  bottom: "fc7"
  top: "fc8"
  inner_product_param {
    num_output: 1000
  }
}
layer {
  name: "prob"
  type: "Softmax"
  bottom: "fc8"
  top: "prob"
}
I0925 22:41:17.728737  6815 net.cpp:399] input -> cont_sentence
I0925 22:41:17.728705  6841 net.cpp:399] input -> stage_indicator
I0925 22:41:17.728734  6803 net.cpp:399] input -> cont_sentence
I0925 22:41:17.728741  6799 net.cpp:399] input -> input_sentence
I0925 22:41:17.728734  6797 net.cpp:399] input -> cont_sentence
I0925 22:41:17.728770  6803 net.cpp:399] input -> input_sentence
…
I0925 22:41:17.728911  6833 net.cpp:91] Creating Layer data
I0925 22:41:17.728927  6833 net.cpp:399] data -> data
I0925 22:41:17.728938  6793 net.cpp:49] Initializing net from parameters: 
name: "s2vt:features_to_lstm"
state {
  phase: TEST
}
layer {
  name: "input"
  type: "Input"
  top: "frames_fc7"
  top: "cont_sentence"
  top: "input_sentence"
  top: "stage_indicator"
  input_param {
    shape {
      dim: 1
      dim: 4096
    }
    shape {
      dim: 1
      dim: 1
    }
    shape {
      dim: 1
      dim: 1
    }
    shape {
      dim: 1
      dim: 1
    }
  }
}
layer {
  name: "embed_encoder"
  type: "InnerProduct"
  bottom: "frames_fc7"
  top: "embedded_in_frames"
  param {
    lr_mult: 1
    decay_mult: 1
  }
  param {
    lr_mult: 2
    decay_mult: 0
  }
  inner_product_param {
    num_output: 500
    weight_filler {
      type: "xavier"
    }
    bias_filler {
      type: "constant"
      value: 0.2
    }
  }
}
layer {
  name: "reshape_frames"
  type: "Reshape"
  bottom: "embedded_in_frames"
  top: "embedded_input_frames"
  reshape_param {
    shape {
      dim: 1
      dim: 1
      dim: 500
    }
  }
}
layer {
  name: "reshape_stage_indicator"
  type: "Reshape"
  bottom: "stage_indicator"
  top: "reshaped_stage_indicator"
  reshape_param {
    shape {
      dim: 1
      dim: 1
      dim: 1
    }
  }
}
layer {
  name: "embedding"
  type: "Embed"
  bottom: "input_sentence"
  top: "embedded_input_sentence"
  param {
    lr_mult: 1
  }
  embed_param {
    num_output: 500
    input_dim: 46168
    bias_term: false
    weight_filler {
      type: "uniform"
      min: -0.08
      max: 0.08
    }
  }
}
layer {
  name: "lstm1"
  type: "LSTM"
  bottom: "embedded_input_frames"
  bottom: "cont_sentence"
  top: "lstm1"
  recurrent_param {
    num_output: 1000
    weight_filler {
      type: "uniform"
      min: -0.08
      max: 0.08
    }
    bias_filler {
      type: "constant"
      value: 0
    }
  }
}
layer {
  name: "concat"
  type: "Concat"
  bottom: "lstm1"
  bottom: "embedded_input_sentence"
  bottom: "reshaped_stage_indicator"
  top: "lstm1_video_sequence"
  concat_param {
    concat_dim: 2
  }
}
layer {
  name: "lstm2"
  type: "LSTM"
  bottom: "lstm1_video_sequence"
  bottom: "cont_sentence"
  top: "lstm2"
  recurrent_param {
    num_output: 1000
    weight_filler {
      type: "uniform"
      min: -0.08
      max: 0.08
    }
    bias_filler {
      type: "constant"
      value: 0
    }
  }
}
layer {
  name: "predict"
  type: "InnerProduct"
  bottom: "lstm2"
  top: "predict"
  param {
    lr_mult: 1
    decay_mult: 1
  }
  param {
    lr_mult: 2
    decay_mult: 0
  }
  inner_product_param {
    num_output: 46168
    weight_filler {
      type: "uniform"
      min: -0.08
      max: 0.08
    }
    bias_filler {
      type: "constant"
      value: 0
    }
    axis: 2
  }
}
layer {
  name: "probs"
  type: "Softmax"
  bottom: "predict"
  top: "probs"
  softmax_param {
    axis: 2
  }
}
I0925 22:41:17.729025  6793 layer_factory.hpp:77] Creating layer input
I0925 22:41:17.729037  6793 net.cpp:91] Creating Layer input
I0925 22:41:17.729045  6793 net.cpp:399] input -> frames_fc7
I0925 22:41:17.729059  6793 net.cpp:399] input -> cont_sentence
I0925 22:41:17.729071  6793 net.cpp:399] input -> input_sentence
I0925 22:41:17.729082  6793 net.cpp:399] input -> stage_indicator
I0925 22:41:17.730823  6811 upgrade_proto.cpp:66] Attempting to upgrade input file specified using deprecated input fields: /home/peifeng/work/run/storm102/data/workers/5d55f8d4-7336-41b7-ab16-bec97d9efc0e/tmp/cvld585287634257731398/s2vt.words_to_preds.prototxt
I0925 22:41:17.730841  6811 upgrade_proto.cpp:69] Successfully upgraded file specified using deprecated input fields.
W0925 22:41:17.730846  6811 upgrade_proto.cpp:71] Note that future Caffe releases will only support input layers and not input fields.
I0925 22:41:17.731050  6811 net.cpp:49] Initializing net from parameters: 
name: "s2vt:features_to_lstm"
state {
  phase: TEST
}
layer {
  name: "input"
  type: "Input"
  top: "frames_fc7"
  top: "cont_sentence"
  top: "input_sentence"
  top: "stage_indicator"
  input_param {
    shape {
      dim: 1
      dim: 4096
    }
    shape {
      dim: 1
      dim: 1
    }
    shape {
      dim: 1
      dim: 1
    }
    shape {
      dim: 1
      dim: 1
    }
  }
}
layer {
  name: "embed_encoder"
  type: "InnerProduct"
  bottom: "frames_fc7"
  top: "embedded_in_frames"
  param {
    lr_mult: 1
    decay_mult: 1
  }
  param {
    lr_mult: 2
    decay_mult: 0
  }
  inner_product_param {
    num_output: 500
    weight_filler {
      type: "xavier"
    }
    bias_filler {
      type: "constant"
      value: 0.2
    }
  }
}
layer {
  name: "reshape_frames"
  type: "Reshape"
  bottom: "embedded_in_frames"
  top: "embedded_input_frames"
  reshape_param {
    shape {
      dim: 1
      dim: 1
      dim: 500
    }
  }
}
layer {
  name: "reshape_stage_indicator"
  type: "Reshape"
  bottom: "stage_indicator"
  top: "reshaped_stage_indicator"
  reshape_param {
    shape {
      dim: 1
      dim: 1
      dim: 1
    }
  }
}
layer {
  name: "embedding"
  type: "Embed"
  bottom: "input_sentence"
  top: "embedded_input_sentence"
  param {
    lr_mult: 1
  }
  embed_param {
    num_output: 500
    input_dim: 46168
    bias_term: false
    weight_filler {
      type: "uniform"
      min: -0.08
      max: 0.08
    }
  }
}
layer {
  name: "lstm1"
  type: "LSTM"
  bottom: "embedded_input_frames"
  bottom: "cont_sentence"
  top: "lstm1"
  recurrent_param {
    num_output: 1000
    weight_filler {
      type: "uniform"
      min: -0.08
      max: 0.08
    }
    bias_filler {
      type: "constant"
      value: 0
    }
  }
}
layer {
  name: "concat"
  type: "Concat"
  bottom: "lstm1"
  bottom: "embedded_input_sentence"
  bottom: "reshaped_stage_indicator"
  top: "lstm1_video_sequence"
  concat_param {
    concat_dim: 2
  }
}
layer {
  name: "lstm2"
  type: "LSTM"
  bottom: "lstm1_video_sequence"
  bottom: "cont_sentence"
  top: "lstm2"
  recurrent_param {
    num_output: 1000
    weight_filler {
      type: "uniform"
      min: -0.08
      max: 0.08
    }
    bias_filler {
      type: "constant"
      value: 0
    }
  }
}
layer {
  name: "predict"
  type: "InnerProduct"
  bottom: "lstm2"
  top: "predict"
  param {
    lr_mult: 1
    decay_mult: 1
  }
  param {
    lr_mult: 2
    decay_mult: 0
  }
  inner_product_param {
    num_output: 46168
    weight_filler {
      type: "uniform"
      min: -0.08
      max: 0.08
    }
    bias_filler {
      type: "constant"
      value: 0
    }
    axis: 2
  }
}
layer {
  name: "probs"
  type: "Softmax"
  bottom: "predict"
  top: "probs"
  softmax_param {
    axis: 2
  }
}
I0925 22:41:17.731132  6811 layer_factory.hpp:77] Creating layer input
I0925 22:41:17.731143  6811 net.cpp:91] Creating Layer input
I0925 22:41:17.731149  6811 net.cpp:399] input -> frames_fc7
I0925 22:41:17.731161  6811 net.cpp:399] input -> cont_sentence
I0925 22:41:17.731173  6811 net.cpp:399] input -> input_sentence
I0925 22:41:17.731181  6811 net.cpp:399] input -> stage_indicator
I0925 22:41:18.624397  6833 net.cpp:141] Setting up data
I0925 22:41:18.624492  6833 net.cpp:148] Top shape: 10 3 227 227 (1545870)
I0925 22:41:18.624500  6833 net.cpp:156] Memory required for data: 6183480
I0925 22:41:18.624518  6833 layer_factory.hpp:77] Creating layer conv1
I0925 22:41:18.624548  6833 net.cpp:91] Creating Layer conv1
I0925 22:41:18.624557  6833 net.cpp:425] conv1 <- data
I0925 22:41:18.624572  6833 net.cpp:399] conv1 -> conv1
I0925 22:41:18.625051  6793 net.cpp:141] Setting up input
I0925 22:41:18.625085  6793 net.cpp:148] Top shape: 1 4096 (4096)
I0925 22:41:18.625093  6793 net.cpp:148] Top shape: 1 1 (1)
I0925 22:41:18.625099  6793 net.cpp:148] Top shape: 1 1 (1)
I0925 22:41:18.625105  6793 net.cpp:148] Top shape: 1 1 (1)
I0925 22:41:18.625099  6811 net.cpp:141] Setting up input
I0925 22:41:18.625109  6793 net.cpp:156] Memory required for data: 16396
I0925 22:41:18.625128  6793 layer_factory.hpp:77] Creating layer cont_sentence_input_1_split
I0925 22:41:18.625131  6831 net.cpp:141] Setting up input
I0925 22:41:18.625126  6811 net.cpp:148] Top shape: 1 4096 (4096)
I0925 22:41:18.625152  6831 net.cpp:148] Top shape: 1 4096 (4096)
I0925 22:41:18.625156  6811 net.cpp:148] Top shape: 1 1 (1)
I0925 22:41:18.625159  6793 net.cpp:91] Creating Layer cont_sentence_input_1_split
I0925 22:41:18.625164  6831 net.cpp:148] Top shape: 1 1 (1)
I0925 22:41:18.625166  6793 net.cpp:425] cont_sentence_input_1_split <- cont_sentence
I0925 22:41:18.625166  6811 net.cpp:148] Top shape: 1 1 (1)
I0925 22:41:18.625196  6811 net.cpp:148] Top shape: 1 1 (1)
I0925 22:41:18.625206  6811 net.cpp:156] Memory required for data: 16396
I0925 22:41:18.625211  6793 net.cpp:399] cont_sentence_input_1_split -> cont_sentence_input_1_split_0
I0925 22:41:18.625216  6811 layer_factory.hpp:77] Creating layer cont_sentence_input_1_split
I0925 22:41:18.625223  6799 net.cpp:141] Setting up input
I0925 22:41:18.625226  6793 net.cpp:399] cont_sentence_input_1_split -> cont_sentence_input_1_split_1
I0925 22:41:18.625237  6811 net.cpp:91] Creating Layer cont_sentence_input_1_split
I0925 22:41:18.625241  6799 net.cpp:148] Top shape: 1 4096 (4096)
I0925 22:41:18.625247  6811 net.cpp:425] cont_sentence_input_1_split <- cont_sentence
I0925 22:41:18.625252  6799 net.cpp:148] Top shape: 1 1 (1)
I0925 22:41:18.625260  6811 net.cpp:399] cont_sentence_input_1_split -> cont_sentence_input_1_split_0
I0925 22:41:18.625180  6831 net.cpp:148] Top shape: 1 1 (1)
I0925 22:41:18.625279  6831 net.cpp:148] Top shape: 1 1 (1)
I0925 22:41:18.625285  6811 net.cpp:399] cont_sentence_input_1_split -> cont_sentence_input_1_split_1
I0925 22:41:18.625288  6831 net.cpp:156] Memory required for data: 16396
I0925 22:41:18.625296  6831 layer_factory.hpp:77] Creating layer cont_sentence_input_1_split
I0925 22:41:18.625311  6831 net.cpp:91] Creating Layer cont_sentence_input_1_split
I0925 22:41:18.625314  6793 net.cpp:141] Setting up cont_sentence_input_1_split
I0925 22:41:18.625321  6831 net.cpp:425] cont_sentence_input_1_split <- cont_sentence
I0925 22:41:18.625327  6793 net.cpp:148] Top shape: 1 1 (1)
I0925 22:41:18.625334  6793 net.cpp:148] Top shape: 1 1 (1)
I0925 22:41:18.625339  6793 net.cpp:156] Memory required for data: 16404
I0925 22:41:18.625262  6799 net.cpp:148] Top shape: 1 1 (1)
I0925 22:41:18.625349  6815 net.cpp:141] Setting up input
I0925 22:41:18.625355  6799 net.cpp:148] Top shape: 1 1 (1)
I0925 22:41:18.625351  6793 layer_factory.hpp:77] Creating layer embed_encoder
I0925 22:41:18.625363  6799 net.cpp:156] Memory required for data: 16396
I0925 22:41:18.625366  6815 net.cpp:148] Top shape: 1 4096 (4096)
I0925 22:41:18.625372  6799 layer_factory.hpp:77] Creating layer cont_sentence_input_1_split
I0925 22:41:18.625376  6815 net.cpp:148] Top shape: 1 1 (1)
I0925 22:41:18.625385  6793 net.cpp:91] Creating Layer embed_encoder
I0925 22:41:18.625388  6799 net.cpp:91] Creating Layer cont_sentence_input_1_split
I0925 22:41:18.625398  6793 net.cpp:425] embed_encoder <- frames_fc7
I0925 22:41:18.625398  6799 net.cpp:425] cont_sentence_input_1_split <- cont_sentence
I0925 22:41:18.625396  6797 net.cpp:141] Setting up input
I0925 22:41:18.625407  6793 net.cpp:399] embed_encoder -> embedded_in_frames
I0925 22:41:18.625385  6815 net.cpp:148] Top shape: 1 1 (1)
I0925 22:41:18.625337  6831 net.cpp:399] cont_sentence_input_1_split -> cont_sentence_input_1_split_0
I0925 22:41:18.625422  6797 net.cpp:148] Top shape: 1 4096 (4096)
I0925 22:41:18.625429  6815 net.cpp:148] Top shape: 1 1 (1)
I0925 22:41:18.625432  6831 net.cpp:399] cont_sentence_input_1_split -> cont_sentence_input_1_split_1
I0925 22:41:18.625438  6815 net.cpp:156] Memory required for data: 16396
I0925 22:41:18.625448  6815 layer_factory.hpp:77] Creating layer cont_sentence_input_1_split
I0925 22:41:18.625434  6797 net.cpp:148] Top shape: 1 1 (1)
I0925 22:41:18.625468  6815 net.cpp:91] Creating Layer cont_sentence_input_1_split
I0925 22:41:18.625473  6797 net.cpp:148] Top shape: 1 1 (1)
I0925 22:41:18.625478  6815 net.cpp:425] cont_sentence_input_1_split <- cont_sentence
I0925 22:41:18.625484  6797 net.cpp:148] Top shape: 1 1 (1)
I0925 22:41:18.625489  6815 net.cpp:399] cont_sentence_input_1_split -> cont_sentence_input_1_split_0
I0925 22:41:18.625493  6797 net.cpp:156] Memory required for data: 16396
I0925 22:41:18.625500  6797 layer_factory.hpp:77] Creating layer cont_sentence_input_1_split
I0925 22:41:18.625507  6815 net.cpp:399] cont_sentence_input_1_split -> cont_sentence_input_1_split_1
I0925 22:41:18.625516  6797 net.cpp:91] Creating Layer cont_sentence_input_1_split
I0925 22:41:18.625525  6797 net.cpp:425] cont_sentence_input_1_split <- cont_sentence
I0925 22:41:18.625537  6797 net.cpp:399] cont_sentence_input_1_split -> cont_sentence_input_1_split_0
I0925 22:41:18.625553  6797 net.cpp:399] cont_sentence_input_1_split -> cont_sentence_input_1_split_1
I0925 22:41:18.625555  6841 net.cpp:141] Setting up input
I0925 22:41:18.625571  6841 net.cpp:148] Top shape: 1 4096 (4096)
I0925 22:41:18.625412  6799 net.cpp:399] cont_sentence_input_1_split -> cont_sentence_input_1_split_0
I0925 22:41:18.625586  6841 net.cpp:148] Top shape: 1 1 (1)
I0925 22:41:18.625586  6815 net.cpp:141] Setting up cont_sentence_input_1_split
I0925 22:41:18.625596  6841 net.cpp:148] Top shape: 1 1 (1)
I0925 22:41:18.625600  6815 net.cpp:148] Top shape: 1 1 (1)
I0925 22:41:18.625599  6799 net.cpp:399] cont_sentence_input_1_split -> cont_sentence_input_1_split_1
I0925 22:41:18.625605  6841 net.cpp:148] Top shape: 1 1 (1)
I0925 22:41:18.625607  6815 net.cpp:148] Top shape: 1 1 (1)
I0925 22:41:18.625618  6841 net.cpp:156] Memory required for data: 16396
I0925 22:41:18.625628  6841 layer_factory.hpp:77] Creating layer cont_sentence_input_1_split
I0925 22:41:18.625627  6815 net.cpp:156] Memory required for data: 16404
I0925 22:41:18.625643  6841 net.cpp:91] Creating Layer cont_sentence_input_1_split
I0925 22:41:18.625643  6815 layer_factory.hpp:77] Creating layer embed_encoder
I0925 22:41:18.625650  6841 net.cpp:425] cont_sentence_input_1_split <- cont_sentence
I0925 22:41:18.625663  6841 net.cpp:399] cont_sentence_input_1_split -> cont_sentence_input_1_split_0
I0925 22:41:18.625663  6815 net.cpp:91] Creating Layer embed_encoder
I0925 22:41:18.625674  6815 net.cpp:425] embed_encoder <- frames_fc7
I0925 22:41:18.625679  6841 net.cpp:399] cont_sentence_input_1_split -> cont_sentence_input_1_split_1
I0925 22:41:18.625687  6815 net.cpp:399] embed_encoder -> embedded_in_frames
I0925 22:41:18.630162  6797 net.cpp:141] Setting up cont_sentence_input_1_split
I0925 22:41:18.630208  6797 net.cpp:148] Top shape: 1 1 (1)
I0925 22:41:18.630220  6797 net.cpp:148] Top shape: 1 1 (1)
I0925 22:41:18.630228  6797 net.cpp:156] Memory required for data: 16404
I0925 22:41:18.630240  6797 layer_factory.hpp:77] Creating layer embed_encoder
I0925 22:41:18.630270  6797 net.cpp:91] Creating Layer embed_encoder
I0925 22:41:18.630282  6797 net.cpp:425] embed_encoder <- frames_fc7
I0925 22:41:18.630300  6797 net.cpp:399] embed_encoder -> embedded_in_frames
I0925 22:41:18.636101  6831 net.cpp:141] Setting up cont_sentence_input_1_split
I0925 22:41:18.636157  6831 net.cpp:148] Top shape: 1 1 (1)
I0925 22:41:18.636168  6831 net.cpp:148] Top shape: 1 1 (1)
I0925 22:41:18.636176  6831 net.cpp:156] Memory required for data: 16404
I0925 22:41:18.636188  6831 layer_factory.hpp:77] Creating layer embed_encoder
I0925 22:41:18.636217  6831 net.cpp:91] Creating Layer embed_encoder
I0925 22:41:18.636227  6831 net.cpp:425] embed_encoder <- frames_fc7
I0925 22:41:18.636245  6831 net.cpp:399] embed_encoder -> embedded_in_frames
I0925 22:41:18.640554  6803 net.cpp:141] Setting up input
I0925 22:41:18.640576  6811 net.cpp:141] Setting up cont_sentence_input_1_split
I0925 22:41:18.640602  6803 net.cpp:148] Top shape: 1 4096 (4096)
I0925 22:41:18.640614  6803 net.cpp:148] Top shape: 1 1 (1)
I0925 22:41:18.640614  6811 net.cpp:148] Top shape: 1 1 (1)
I0925 22:41:18.640621  6803 net.cpp:148] Top shape: 1 1 (1)
I0925 22:41:18.640625  6811 net.cpp:148] Top shape: 1 1 (1)
I0925 22:41:18.640628  6803 net.cpp:148] Top shape: 1 1 (1)
I0925 22:41:18.640630  6811 net.cpp:156] Memory required for data: 16404
I0925 22:41:18.640626  6799 net.cpp:141] Setting up cont_sentence_input_1_split
I0925 22:41:18.640640  6811 layer_factory.hpp:77] Creating layer embed_encoder
I0925 22:41:18.640633  6803 net.cpp:156] Memory required for data: 16396
I0925 22:41:18.640653  6799 net.cpp:148] Top shape: 1 1 (1)
I0925 22:41:18.640657  6803 layer_factory.hpp:77] Creating layer cont_sentence_input_1_split
I0925 22:41:18.640664  6799 net.cpp:148] Top shape: 1 1 (1)
I0925 22:41:18.640667  6811 net.cpp:91] Creating Layer embed_encoder
I0925 22:41:18.640671  6799 net.cpp:156] Memory required for data: 16404
I0925 22:41:18.640674  6803 net.cpp:91] Creating Layer cont_sentence_input_1_split
I0925 22:41:18.640682  6799 layer_factory.hpp:77] Creating layer embed_encoder
I0925 22:41:18.640676  6811 net.cpp:425] embed_encoder <- frames_fc7
I0925 22:41:18.640686  6803 net.cpp:425] cont_sentence_input_1_split <- cont_sentence
I0925 22:41:18.640702  6811 net.cpp:399] embed_encoder -> embedded_in_frames
I0925 22:41:18.640704  6799 net.cpp:91] Creating Layer embed_encoder
I0925 22:41:18.640712  6803 net.cpp:399] cont_sentence_input_1_split -> cont_sentence_input_1_split_0
I0925 22:41:18.640714  6799 net.cpp:425] embed_encoder <- frames_fc7
I0925 22:41:18.640728  6803 net.cpp:399] cont_sentence_input_1_split -> cont_sentence_input_1_split_1
I0925 22:41:18.640728  6799 net.cpp:399] embed_encoder -> embedded_in_frames
I0925 22:41:18.649966  6803 net.cpp:141] Setting up cont_sentence_input_1_split
I0925 22:41:18.650023  6803 net.cpp:148] Top shape: 1 1 (1)
I0925 22:41:18.650037  6803 net.cpp:148] Top shape: 1 1 (1)
I0925 22:41:18.650043  6803 net.cpp:156] Memory required for data: 16404
I0925 22:41:18.650055  6803 layer_factory.hpp:77] Creating layer embed_encoder
I0925 22:41:18.650063  6841 net.cpp:141] Setting up cont_sentence_input_1_split
I0925 22:41:18.650082  6803 net.cpp:91] Creating Layer embed_encoder
I0925 22:41:18.650085  6841 net.cpp:148] Top shape: 1 1 (1)
I0925 22:41:18.650092  6803 net.cpp:425] embed_encoder <- frames_fc7
I0925 22:41:18.650095  6841 net.cpp:148] Top shape: 1 1 (1)
I0925 22:41:18.650102  6841 net.cpp:156] Memory required for data: 16404
I0925 22:41:18.650110  6841 layer_factory.hpp:77] Creating layer embed_encoder
I0925 22:41:18.650112  6803 net.cpp:399] embed_encoder -> embedded_in_frames
I0925 22:41:18.650138  6841 net.cpp:91] Creating Layer embed_encoder
I0925 22:41:18.650149  6841 net.cpp:425] embed_encoder <- frames_fc7
I0925 22:41:18.650162  6841 net.cpp:399] embed_encoder -> embedded_in_frames
I0925 22:41:18.669452  6797 net.cpp:141] Setting up embed_encoder
I0925 22:41:18.669502  6831 net.cpp:141] Setting up embed_encoder
I0925 22:41:18.669507  6797 net.cpp:148] Top shape: 1 500 (500)
I0925 22:41:18.669524  6831 net.cpp:148] Top shape: 1 500 (500)
I0925 22:41:18.669525  6797 net.cpp:156] Memory required for data: 18404
I0925 22:41:18.669536  6831 net.cpp:156] Memory required for data: 18404
I0925 22:41:18.669567  6797 layer_factory.hpp:77] Creating layer reshape_frames
I0925 22:41:18.669567  6831 layer_factory.hpp:77] Creating layer reshape_frames
I0925 22:41:18.669617  6831 net.cpp:91] Creating Layer reshape_frames
I0925 22:41:18.669620  6797 net.cpp:91] Creating Layer reshape_frames
I0925 22:41:18.669634  6831 net.cpp:425] reshape_frames <- embedded_in_frames
I0925 22:41:18.669636  6797 net.cpp:425] reshape_frames <- embedded_in_frames
I0925 22:41:18.669651  6797 net.cpp:399] reshape_frames -> embedded_input_frames
I0925 22:41:18.669651  6831 net.cpp:399] reshape_frames -> embedded_input_frames
I0925 22:41:18.675657  6797 net.cpp:141] Setting up reshape_frames
I0925 22:41:18.675719  6797 net.cpp:148] Top shape: 1 1 500 (500)
I0925 22:41:18.675729  6797 net.cpp:156] Memory required for data: 20404
I0925 22:41:18.675742  6797 layer_factory.hpp:77] Creating layer reshape_stage_indicator
I0925 22:41:18.675773  6797 net.cpp:91] Creating Layer reshape_stage_indicator
I0925 22:41:18.675786  6797 net.cpp:425] reshape_stage_indicator <- stage_indicator
I0925 22:41:18.675811  6797 net.cpp:399] reshape_stage_indicator -> reshaped_stage_indicator
I0925 22:41:18.675676  6831 net.cpp:141] Setting up reshape_frames
I0925 22:41:18.677101  6831 net.cpp:148] Top shape: 1 1 500 (500)
I0925 22:41:18.677112  6831 net.cpp:156] Memory required for data: 20404
I0925 22:41:18.677122  6831 layer_factory.hpp:77] Creating layer reshape_stage_indicator
I0925 22:41:18.677163  6831 net.cpp:91] Creating Layer reshape_stage_indicator
I0925 22:41:18.677175  6831 net.cpp:425] reshape_stage_indicator <- stage_indicator
I0925 22:41:18.677187  6831 net.cpp:399] reshape_stage_indicator -> reshaped_stage_indicator
I0925 22:41:18.678269  6797 net.cpp:141] Setting up reshape_stage_indicator
I0925 22:41:18.678292  6797 net.cpp:148] Top shape: 1 1 1 (1)
I0925 22:41:18.678300  6797 net.cpp:156] Memory required for data: 20408
I0925 22:41:18.678308  6797 layer_factory.hpp:77] Creating layer embedding
I0925 22:41:18.678333  6797 net.cpp:91] Creating Layer embedding
I0925 22:41:18.678341  6797 net.cpp:425] embedding <- input_sentence
I0925 22:41:18.678356  6797 net.cpp:399] embedding -> embedded_input_sentence
I0925 22:41:18.720378  6831 net.cpp:141] Setting up reshape_stage_indicator
I0925 22:41:18.720535  6831 net.cpp:148] Top shape: 1 1 1 (1)
I0925 22:41:18.720562  6831 net.cpp:156] Memory required for data: 20408
I0925 22:41:18.720592  6831 layer_factory.hpp:77] Creating layer embedding
I0925 22:41:18.723263  6831 net.cpp:91] Creating Layer embedding
I0925 22:41:18.723333  6831 net.cpp:425] embedding <- input_sentence
I0925 22:41:18.723384  6831 net.cpp:399] embedding -> embedded_input_sentence
I0925 22:41:18.729074  6811 net.cpp:141] Setting up embed_encoder
I0925 22:41:18.729135  6811 net.cpp:148] Top shape: 1 500 (500)
I0925 22:41:18.729146  6811 net.cpp:156] Memory required for data: 18404
I0925 22:41:18.729176  6811 layer_factory.hpp:77] Creating layer reshape_frames
I0925 22:41:18.729202  6811 net.cpp:91] Creating Layer reshape_frames
I0925 22:41:18.729215  6811 net.cpp:425] reshape_frames <- embedded_in_frames
I0925 22:41:18.729267  6811 net.cpp:399] reshape_frames -> embedded_input_frames
I0925 22:41:18.781922  6799 net.cpp:141] Setting up embed_encoder
I0925 22:41:18.782024  6799 net.cpp:148] Top shape: 1 500 (500)
I0925 22:41:18.782039  6799 net.cpp:156] Memory required for data: 18404
I0925 22:41:18.782083  6799 layer_factory.hpp:77] Creating layer reshape_frames
I0925 22:41:18.782119  6799 net.cpp:91] Creating Layer reshape_frames
I0925 22:41:18.782133  6799 net.cpp:425] reshape_frames <- embedded_in_frames
I0925 22:41:18.782156  6799 net.cpp:399] reshape_frames -> embedded_input_frames
I0925 22:41:18.782245  6799 net.cpp:141] Setting up reshape_frames
I0925 22:41:18.782266  6799 net.cpp:148] Top shape: 1 1 500 (500)
I0925 22:41:18.782277  6799 net.cpp:156] Memory required for data: 20404
I0925 22:41:18.782287  6799 layer_factory.hpp:77] Creating layer reshape_stage_indicator
I0925 22:41:18.782312  6799 net.cpp:91] Creating Layer reshape_stage_indicator
I0925 22:41:18.782327  6799 net.cpp:425] reshape_stage_indicator <- stage_indicator
I0925 22:41:18.782351  6799 net.cpp:399] reshape_stage_indicator -> reshaped_stage_indicator
I0925 22:41:18.782435  6799 net.cpp:141] Setting up reshape_stage_indicator
I0925 22:41:18.782459  6799 net.cpp:148] Top shape: 1 1 1 (1)
I0925 22:41:18.782467  6799 net.cpp:156] Memory required for data: 20408
I0925 22:41:18.782480  6799 layer_factory.hpp:77] Creating layer embedding
I0925 22:41:18.782508  6799 net.cpp:91] Creating Layer embedding
I0925 22:41:18.782521  6799 net.cpp:425] embedding <- input_sentence
I0925 22:41:18.782544  6799 net.cpp:399] embedding -> embedded_input_sentence
I0925 22:41:18.828855  6793 net.cpp:141] Setting up embed_encoder
I0925 22:41:18.828908  6793 net.cpp:148] Top shape: 1 500 (500)
I0925 22:41:18.828919  6793 net.cpp:156] Memory required for data: 18404
I0925 22:41:18.828951  6793 layer_factory.hpp:77] Creating layer reshape_frames
I0925 22:41:18.828980  6793 net.cpp:91] Creating Layer reshape_frames
I0925 22:41:18.828990  6793 net.cpp:425] reshape_frames <- embedded_in_frames
I0925 22:41:18.829006  6793 net.cpp:399] reshape_frames -> embedded_input_frames
I0925 22:41:18.829036  6811 net.cpp:141] Setting up reshape_frames
I0925 22:41:18.829082  6811 net.cpp:148] Top shape: 1 1 500 (500)
I0925 22:41:18.829089  6811 net.cpp:156] Memory required for data: 20404
I0925 22:41:18.829093  6793 net.cpp:141] Setting up reshape_frames
I0925 22:41:18.829102  6811 layer_factory.hpp:77] Creating layer reshape_stage_indicator
I0925 22:41:18.829109  6793 net.cpp:148] Top shape: 1 1 500 (500)
I0925 22:41:18.829118  6793 net.cpp:156] Memory required for data: 20404
I0925 22:41:18.829125  6793 layer_factory.hpp:77] Creating layer reshape_stage_indicator
I0925 22:41:18.829129  6811 net.cpp:91] Creating Layer reshape_stage_indicator
I0925 22:41:18.829140  6793 net.cpp:91] Creating Layer reshape_stage_indicator
I0925 22:41:18.829176  6793 net.cpp:425] reshape_stage_indicator <- stage_indicator
I0925 22:41:18.829190  6793 net.cpp:399] reshape_stage_indicator -> reshaped_stage_indicator
I0925 22:41:18.829243  6793 net.cpp:141] Setting up reshape_stage_indicator
I0925 22:41:18.829257  6793 net.cpp:148] Top shape: 1 1 1 (1)
I0925 22:41:18.829264  6793 net.cpp:156] Memory required for data: 20408
I0925 22:41:18.829272  6793 layer_factory.hpp:77] Creating layer embedding
I0925 22:41:18.829293  6793 net.cpp:91] Creating Layer embedding
I0925 22:41:18.829300  6793 net.cpp:425] embedding <- input_sentence
I0925 22:41:18.829313  6793 net.cpp:399] embedding -> embedded_input_sentence
I0925 22:41:18.829141  6811 net.cpp:425] reshape_stage_indicator <- stage_indicator
I0925 22:41:18.830646  6811 net.cpp:399] reshape_stage_indicator -> reshaped_stage_indicator
I0925 22:41:18.885064  6815 net.cpp:141] Setting up embed_encoder
I0925 22:41:18.885159  6815 net.cpp:148] Top shape: 1 500 (500)
I0925 22:41:18.885166  6815 net.cpp:156] Memory required for data: 18404
I0925 22:41:18.885202  6815 layer_factory.hpp:77] Creating layer reshape_frames
I0925 22:41:18.885238  6815 net.cpp:91] Creating Layer reshape_frames
I0925 22:41:18.885251  6815 net.cpp:425] reshape_frames <- embedded_in_frames
I0925 22:41:18.885269  6815 net.cpp:399] reshape_frames -> embedded_input_frames
I0925 22:41:18.885331  6815 net.cpp:141] Setting up reshape_frames
I0925 22:41:18.885346  6815 net.cpp:148] Top shape: 1 1 500 (500)
I0925 22:41:18.885360  6815 net.cpp:156] Memory required for data: 20404
I0925 22:41:18.885367  6815 layer_factory.hpp:77] Creating layer reshape_stage_indicator
I0925 22:41:18.885385  6815 net.cpp:91] Creating Layer reshape_stage_indicator
I0925 22:41:18.885392  6815 net.cpp:425] reshape_stage_indicator <- stage_indicator
I0925 22:41:18.885411  6815 net.cpp:399] reshape_stage_indicator -> reshaped_stage_indicator
I0925 22:41:18.885479  6815 net.cpp:141] Setting up reshape_stage_indicator
I0925 22:41:18.885496  6815 net.cpp:148] Top shape: 1 1 1 (1)
I0925 22:41:18.885504  6815 net.cpp:156] Memory required for data: 20408
I0925 22:41:18.885511  6815 layer_factory.hpp:77] Creating layer embedding
I0925 22:41:18.885535  6815 net.cpp:91] Creating Layer embedding
I0925 22:41:18.885542  6815 net.cpp:425] embedding <- input_sentence
I0925 22:41:18.885560  6815 net.cpp:399] embedding -> embedded_input_sentence
I0925 22:41:18.942499  6841 net.cpp:141] Setting up embed_encoder
I0925 22:41:18.942590  6841 net.cpp:148] Top shape: 1 500 (500)
I0925 22:41:18.942620  6841 net.cpp:156] Memory required for data: 18404
I0925 22:41:18.942632  6803 net.cpp:141] Setting up embed_encoder
I0925 22:41:18.942656  6803 net.cpp:148] Top shape: 1 500 (500)
I0925 22:41:18.942664  6803 net.cpp:156] Memory required for data: 18404
I0925 22:41:18.942669  6841 layer_factory.hpp:77] Creating layer reshape_frames
I0925 22:41:18.942685  6803 layer_factory.hpp:77] Creating layer reshape_frames
I0925 22:41:18.942701  6803 net.cpp:91] Creating Layer reshape_frames
I0925 22:41:18.942701  6841 net.cpp:91] Creating Layer reshape_frames
I0925 22:41:18.942734  6803 net.cpp:425] reshape_frames <- embedded_in_frames
I0925 22:41:18.942736  6841 net.cpp:425] reshape_frames <- embedded_in_frames
I0925 22:41:18.942752  6803 net.cpp:399] reshape_frames -> embedded_input_frames
I0925 22:41:18.942816  6841 net.cpp:399] reshape_frames -> embedded_input_frames
I0925 22:41:18.942848  6797 net.cpp:141] Setting up embedding
I0925 22:41:18.942864  6797 net.cpp:148] Top shape: 1 1 500 (500)
I0925 22:41:18.942869  6797 net.cpp:156] Memory required for data: 22408
I0925 22:41:18.942880  6797 layer_factory.hpp:77] Creating layer lstm1
I0925 22:41:18.942903  6797 net.cpp:91] Creating Layer lstm1
I0925 22:41:18.942930  6797 net.cpp:425] lstm1 <- embedded_input_frames
I0925 22:41:18.942940  6797 net.cpp:425] lstm1 <- cont_sentence_input_1_split_0
I0925 22:41:18.942903  6811 net.cpp:141] Setting up reshape_stage_indicator
I0925 22:41:18.942958  6797 net.cpp:399] lstm1 -> lstm1
I0925 22:41:18.942966  6811 net.cpp:148] Top shape: 1 1 1 (1)
I0925 22:41:18.942981  6811 net.cpp:156] Memory required for data: 20408
I0925 22:41:18.942988  6841 net.cpp:141] Setting up reshape_frames
I0925 22:41:18.943017  6841 net.cpp:148] Top shape: 1 1 500 (500)
I0925 22:41:18.943017  6803 net.cpp:141] Setting up reshape_frames
I0925 22:41:18.943033  6841 net.cpp:156] Memory required for data: 20404
I0925 22:41:18.943038  6803 net.cpp:148] Top shape: 1 1 500 (500)
I0925 22:41:18.943042  6841 layer_factory.hpp:77] Creating layer reshape_stage_indicator
I0925 22:41:18.943048  6803 net.cpp:156] Memory required for data: 20404
I0925 22:41:18.943055  6803 layer_factory.hpp:77] Creating layer reshape_stage_indicator
I0925 22:41:18.943065  6841 net.cpp:91] Creating Layer reshape_stage_indicator
I0925 22:41:18.943073  6803 net.cpp:91] Creating Layer reshape_stage_indicator
I0925 22:41:18.943074  6841 net.cpp:425] reshape_stage_indicator <- stage_indicator
I0925 22:41:18.943095  6803 net.cpp:425] reshape_stage_indicator <- stage_indicator
I0925 22:41:18.943109  6803 net.cpp:399] reshape_stage_indicator -> reshaped_stage_indicator
I0925 22:41:18.942991  6811 layer_factory.hpp:77] Creating layer embedding
I0925 22:41:18.943148  6811 net.cpp:91] Creating Layer embedding
I0925 22:41:18.943159  6811 net.cpp:425] embedding <- input_sentence
I0925 22:41:18.943169  6803 net.cpp:141] Setting up reshape_stage_indicator
I0925 22:41:18.943171  6841 net.cpp:399] reshape_stage_indicator -> reshaped_stage_indicator
I0925 22:41:18.943192  6803 net.cpp:148] Top shape: 1 1 1 (1)
I0925 22:41:18.943202  6803 net.cpp:156] Memory required for data: 20408
I0925 22:41:18.943176  6811 net.cpp:399] embedding -> embedded_input_sentence
I0925 22:41:18.943238  6797 recurrent_layer.cpp:20] Initializing recurrent layer: assuming input batch contains 1 timesteps of 1 independent streams.
I0925 22:41:18.943243  6841 net.cpp:141] Setting up reshape_stage_indicator
I0925 22:41:18.943282  6841 net.cpp:148] Top shape: 1 1 1 (1)
I0925 22:41:18.943294  6841 net.cpp:156] Memory required for data: 20408
I0925 22:41:18.943305  6841 layer_factory.hpp:77] Creating layer embedding
I0925 22:41:18.943320  6841 net.cpp:91] Creating Layer embedding
I0925 22:41:18.943330  6841 net.cpp:425] embedding <- input_sentence
I0925 22:41:18.943343  6841 net.cpp:399] embedding -> embedded_input_sentence
I0925 22:41:18.943210  6803 layer_factory.hpp:77] Creating layer embedding
I0925 22:41:18.946652  6803 net.cpp:91] Creating Layer embedding
I0925 22:41:18.946712  6803 net.cpp:425] embedding <- input_sentence
I0925 22:41:18.946751  6803 net.cpp:399] embedding -> embedded_input_sentence
I0925 22:41:18.947836  6797 net.cpp:49] Initializing net from parameters: 
layer {
  name: "lstm1_"
  type: "Input"
  top: "x"
  top: "cont"
  input_param {
    shape {
      dim: 1
      dim: 1
      dim: 500
    }
    shape {
      dim: 1
      dim: 1
    }
  }
}
layer {
  name: "lstm1_"
  type: "Input"
  top: "c_0"
  top: "h_0"
  input_param {
    shape {
      dim: 1
      dim: 1
      dim: 1000
    }
    shape {
      dim: 1
      dim: 1
      dim: 1000
    }
  }
}
layer {
  name: "lstm1_cont_slice"
  type: "Slice"
  bottom: "cont"
  top: "cont_1"
  slice_param {
    axis: 0
  }
}
layer {
  name: "lstm1_x_transform"
  type: "InnerProduct"
  bottom: "x"
  top: "W_xc_x"
  param {
    name: "W_xc"
  }
  param {
    name: "b_c"
  }
  propagate_down: true
  inner_product_param {
    num_output: 4000
    bias_term: true
    weight_filler {
      type: "uniform"
      min: -0.08
      max: 0.08
    }
    bias_filler {
      type: "constant"
      value: 0
    }
    axis: 2
  }
}
layer {
  name: "lstm1_W_xc_x_slice"
  type: "Slice"
  bottom: "W_xc_x"
  top: "W_xc_x_1"
  slice_param {
    axis: 0
  }
}
layer {
  name: "lstm1_h_conted_0"
  type: "Scale"
  bottom: "h_0"
  bottom: "cont_1"
  top: "h_conted_0"
  scale_param {
    axis: 0
  }
}
layer {
  name: "lstm1_transform_1"
  type: "InnerProduct"
  bottom: "h_conted_0"
  top: "W_hc_h_0"
  param {
    name: "W_hc"
  }
  inner_product_param {
    num_output: 4000
    bias_term: false
    weight_filler {
      type: "uniform"
      min: -0.08
      max: 0.08
    }
    axis: 2
  }
}
layer {
  name: "lstm1_gate_input_1"
  type: "Eltwise"
  bottom: "W_hc_h_0"
  bottom: "W_xc_x_1"
  top: "gate_input_1"
  eltwise_param {
    operation: SUM
  }
}
layer {
  name: "lstm1_unit_1"
  type: "LSTMUnit"
  bottom: "c_0"
  bottom: "gate_input_1"
  bottom: "cont_1"
  top: "c_1"
  top: "h_1"
}
layer {
  name: "lstm1_"
  type: "Split"
  bottom: "c_1"
  top: "c_T"
}
layer {
  name: "lstm1_h_concat"
  type: "Concat"
  bottom: "h_1"
  top: "h"
  concat_param {
    axis: 0
  }
}
layer {
  name: "h_pseudoloss"
  type: "Reduction"
  bottom: "h"
  top: "h_pseudoloss"
  loss_weight: 1
}
I0925 22:41:18.954385  6797 layer_factory.hpp:77] Creating layer lstm1_
I0925 22:41:18.954426  6797 net.cpp:91] Creating Layer lstm1_
I0925 22:41:18.954438  6797 net.cpp:399] lstm1_ -> x
I0925 22:41:18.954463  6797 net.cpp:399] lstm1_ -> cont
I0925 22:41:19.046130  6831 net.cpp:141] Setting up embedding
I0925 22:41:19.046197  6831 net.cpp:148] Top shape: 1 1 500 (500)
I0925 22:41:19.046205  6831 net.cpp:156] Memory required for data: 22408
I0925 22:41:19.046226  6831 layer_factory.hpp:77] Creating layer lstm1
I0925 22:41:19.046249  6831 net.cpp:91] Creating Layer lstm1
I0925 22:41:19.046258  6831 net.cpp:425] lstm1 <- embedded_input_frames
I0925 22:41:19.046267  6831 net.cpp:425] lstm1 <- cont_sentence_input_1_split_0
I0925 22:41:19.046280  6831 net.cpp:399] lstm1 -> lstm1
I0925 22:41:19.046300  6831 recurrent_layer.cpp:20] Initializing recurrent layer: assuming input batch contains 1 timesteps of 1 independent streams.
I0925 22:41:19.046613  6831 net.cpp:49] Initializing net from parameters: 
layer {
  name: "lstm1_"
  type: "Input"
  top: "x"
  top: "cont"
  input_param {
    shape {
      dim: 1
      dim: 1
      dim: 500
    }
    shape {
      dim: 1
      dim: 1
    }
  }
}
layer {
  name: "lstm1_"
  type: "Input"
  top: "c_0"
  top: "h_0"
  input_param {
    shape {
      dim: 1
      dim: 1
      dim: 1000
    }
    shape {
      dim: 1
      dim: 1
      dim: 1000
    }
  }
}
layer {
  name: "lstm1_cont_slice"
  type: "Slice"
  bottom: "cont"
  top: "cont_1"
  slice_param {
    axis: 0
  }
}
layer {
  name: "lstm1_x_transform"
  type: "InnerProduct"
  bottom: "x"
  top: "W_xc_x"
  param {
    name: "W_xc"
  }
  param {
    name: "b_c"
  }
  propagate_down: true
  inner_product_param {
    num_output: 4000
    bias_term: true
    weight_filler {
      type: "uniform"
      min: -0.08
      max: 0.08
    }
    bias_filler {
      type: "constant"
      value: 0
    }
    axis: 2
  }
}
layer {
  name: "lstm1_W_xc_x_slice"
  type: "Slice"
  bottom: "W_xc_x"
  top: "W_xc_x_1"
  slice_param {
    axis: 0
  }
}
layer {
  name: "lstm1_h_conted_0"
  type: "Scale"
  bottom: "h_0"
  bottom: "cont_1"
  top: "h_conted_0"
  scale_param {
    axis: 0
  }
}
layer {
  name: "lstm1_transform_1"
  type: "InnerProduct"
  bottom: "h_conted_0"
  top: "W_hc_h_0"
  param {
    name: "W_hc"
  }
  inner_product_param {
    num_output: 4000
    bias_term: false
    weight_filler {
      type: "uniform"
      min: -0.08
      max: 0.08
    }
    axis: 2
  }
}
layer {
  name: "lstm1_gate_input_1"
  type: "Eltwise"
  bottom: "W_hc_h_0"
  bottom: "W_xc_x_1"
  top: "gate_input_1"
  eltwise_param {
    operation: SUM
  }
}
layer {
  name: "lstm1_unit_1"
  type: "LSTMUnit"
  bottom: "c_0"
  bottom: "gate_input_1"
  bottom: "cont_1"
  top: "c_1"
  top: "h_1"
}
layer {
  name: "lstm1_"
  type: "Split"
  bottom: "c_1"
  top: "c_T"
}
layer {
  name: "lstm1_h_concat"
  type: "Concat"
  bottom: "h_1"
  top: "h"
  concat_param {
    axis: 0
  }
}
layer {
  name: "h_pseudoloss"
  type: "Reduction"
  bottom: "h"
  top: "h_pseudoloss"
  loss_weight: 1
}
I0925 22:41:19.046725  6831 layer_factory.hpp:77] Creating layer lstm1_
I0925 22:41:19.046738  6831 net.cpp:91] Creating Layer lstm1_
I0925 22:41:19.046744  6831 net.cpp:399] lstm1_ -> x
I0925 22:41:19.046756  6831 net.cpp:399] lstm1_ -> cont
I0925 22:41:19.108371  6799 net.cpp:141] Setting up embedding
I0925 22:41:19.108428  6799 net.cpp:148] Top shape: 1 1 500 (500)
I0925 22:41:19.108436  6799 net.cpp:156] Memory required for data: 22408
I0925 22:41:19.108465  6799 layer_factory.hpp:77] Creating layer lstm1
I0925 22:41:19.108479  6793 net.cpp:141] Setting up embedding
I0925 22:41:19.108497  6799 net.cpp:91] Creating Layer lstm1
I0925 22:41:19.108505  6793 net.cpp:148] Top shape: 1 1 500 (500)
I0925 22:41:19.108510  6799 net.cpp:425] lstm1 <- embedded_input_frames
I0925 22:41:19.108513  6793 net.cpp:156] Memory required for data: 22408
I0925 22:41:19.108515  6797 net.cpp:141] Setting up lstm1_
I0925 22:41:19.108526  6799 net.cpp:425] lstm1 <- cont_sentence_input_1_split_0
I0925 22:41:19.108531  6797 net.cpp:148] Top shape: 1 1 500 (500)
I0925 22:41:19.108532  6793 layer_factory.hpp:77] Creating layer lstm1
I0925 22:41:19.108547  6799 net.cpp:399] lstm1 -> lstm1
I0925 22:41:19.108557  6793 net.cpp:91] Creating Layer lstm1
I0925 22:41:19.108548  6797 net.cpp:148] Top shape: 1 1 (1)
I0925 22:41:19.108568  6793 net.cpp:425] lstm1 <- embedded_input_frames
I0925 22:41:19.108569  6797 net.cpp:156] Memory required for data: 2004
I0925 22:41:19.108584  6793 net.cpp:425] lstm1 <- cont_sentence_input_1_split_0
I0925 22:41:19.108584  6799 recurrent_layer.cpp:20] Initializing recurrent layer: assuming input batch contains 1 timesteps of 1 independent streams.
I0925 22:41:19.108609  6793 net.cpp:399] lstm1 -> lstm1
I0925 22:41:19.108587  6797 layer_factory.hpp:77] Creating layer lstm1_
I0925 22:41:19.108633  6793 recurrent_layer.cpp:20] Initializing recurrent layer: assuming input batch contains 1 timesteps of 1 independent streams.
I0925 22:41:19.108644  6797 net.cpp:91] Creating Layer lstm1_
I0925 22:41:19.108666  6797 net.cpp:399] lstm1_ -> c_0
I0925 22:41:19.108692  6797 net.cpp:399] lstm1_ -> h_0
I0925 22:41:19.108783  6797 net.cpp:141] Setting up lstm1_
I0925 22:41:19.108800  6797 net.cpp:148] Top shape: 1 1 1000 (1000)
I0925 22:41:19.108809  6797 net.cpp:148] Top shape: 1 1 1000 (1000)
I0925 22:41:19.108816  6797 net.cpp:156] Memory required for data: 10004
I0925 22:41:19.108825  6797 layer_factory.hpp:77] Creating layer lstm1_cont_slice
I0925 22:41:19.108840  6797 net.cpp:91] Creating Layer lstm1_cont_slice
I0925 22:41:19.108850  6797 net.cpp:425] lstm1_cont_slice <- cont
I0925 22:41:19.108866  6797 net.cpp:399] lstm1_cont_slice -> cont_1
I0925 22:41:19.108918  6797 net.cpp:141] Setting up lstm1_cont_slice
I0925 22:41:19.108934  6797 net.cpp:148] Top shape: 1 1 (1)
I0925 22:41:19.108942  6797 net.cpp:156] Memory required for data: 10008
I0925 22:41:19.108950  6797 layer_factory.hpp:77] Creating layer cont_1_lstm1_cont_slice_0_split
I0925 22:41:19.108968  6797 net.cpp:91] Creating Layer cont_1_lstm1_cont_slice_0_split
I0925 22:41:19.108978  6797 net.cpp:425] cont_1_lstm1_cont_slice_0_split <- cont_1
I0925 22:41:19.108990  6797 net.cpp:399] cont_1_lstm1_cont_slice_0_split -> cont_1_lstm1_cont_slice_0_split_0
I0925 22:41:19.109004  6797 net.cpp:399] cont_1_lstm1_cont_slice_0_split -> cont_1_lstm1_cont_slice_0_split_1
I0925 22:41:19.109028  6793 net.cpp:49] Initializing net from parameters: 
layer {
  name: "lstm1_"
  type: "Input"
  top: "x"
  top: "cont"
  input_param {
    shape {
      dim: 1
      dim: 1
      dim: 500
    }
    shape {
      dim: 1
      dim: 1
    }
  }
}
layer {
  name: "lstm1_"
  type: "Input"
  top: "c_0"
  top: "h_0"
  input_param {
    shape {
      dim: 1
      dim: 1
      dim: 1000
    }
    shape {
      dim: 1
      dim: 1
      dim: 1000
    }
  }
}
layer {
  name: "lstm1_cont_slice"
  type: "Slice"
  bottom: "cont"
  top: "cont_1"
  slice_param {
    axis: 0
  }
}
layer {
  name: "lstm1_x_transform"
  type: "InnerProduct"
  bottom: "x"
  top: "W_xc_x"
  param {
    name: "W_xc"
  }
  param {
    name: "b_c"
  }
  propagate_down: true
  inner_product_param {
    num_output: 4000
    bias_term: true
    weight_filler {
      type: "uniform"
      min: -0.08
      max: 0.08
    }
    bias_filler {
      type: "constant"
      value: 0
    }
    axis: 2
  }
}
layer {
  name: "lstm1_W_xc_x_slice"
  type: "Slice"
  bottom: "W_xc_x"
  top: "W_xc_x_1"
  slice_param {
    axis: 0
  }
}
layer {
  name: "lstm1_h_conted_0"
  type: "Scale"
  bottom: "h_0"
  bottom: "cont_1"
  top: "h_conted_0"
  scale_param {
    axis: 0
  }
}
layer {
  name: "lstm1_transform_1"
  type: "InnerProduct"
  bottom: "h_conted_0"
  top: "W_hc_h_0"
  param {
    name: "W_hc"
  }
  inner_product_param {
    num_output: 4000
    bias_term: false
    weight_filler {
      type: "uniform"
      min: -0.08
      max: 0.08
    }
    axis: 2
  }
}
layer {
  name: "lstm1_gate_input_1"
  type: "Eltwise"
  bottom: "W_hc_h_0"
  bottom: "W_xc_x_1"
  top: "gate_input_1"
  eltwise_param {
    operation: SUM
  }
}
layer {
  name: "lstm1_unit_1"
  type: "LSTMUnit"
  bottom: "c_0"
  bottom: "gate_input_1"
  bottom: "cont_1"
  top: "c_1"
  top: "h_1"
}
layer {
  name: "lstm1_"
  type: "Split"
  bottom: "c_1"
  top: "c_T"
}
layer {
  name: "lstm1_h_concat"
  type: "Concat"
  bottom: "h_1"
  top: "h"
  concat_param {
    axis: 0
  }
}
layer {
  name: "h_pseudoloss"
  type: "Reduction"
  bottom: "h"
  top: "h_pseudoloss"
  loss_weight: 1
}
I0925 22:41:19.109028  6799 net.cpp:49] Initializing net from parameters: 
layer {
  name: "lstm1_"
  type: "Input"
  top: "x"
  top: "cont"
  input_param {
    shape {
      dim: 1
      dim: 1
      dim: 500
    }
    shape {
      dim: 1
      dim: 1
    }
  }
}
layer {
  name: "lstm1_"
  type: "Input"
  top: "c_0"
  top: "h_0"
  input_param {
    shape {
      dim: 1
      dim: 1
      dim: 1000
    }
    shape {
      dim: 1
      dim: 1
      dim: 1000
    }
  }
}
layer {
  name: "lstm1_cont_slice"
  type: "Slice"
  bottom: "cont"
  top: "cont_1"
  slice_param {
    axis: 0
  }
}
layer {
  name: "lstm1_x_transform"
  type: "InnerProduct"
  bottom: "x"
  top: "W_xc_x"
  param {
    name: "W_xc"
  }
  param {
    name: "b_c"
  }
  propagate_down: true
  inner_product_param {
    num_output: 4000
    bias_term: true
    weight_filler {
      type: "uniform"
      min: -0.08
      max: 0.08
    }
    bias_filler {
      type: "constant"
      value: 0
    }
    axis: 2
  }
}
layer {
  name: "lstm1_W_xc_x_slice"
  type: "Slice"
  bottom: "W_xc_x"
  top: "W_xc_x_1"
  slice_param {
    axis: 0
  }
}
layer {
  name: "lstm1_h_conted_0"
  type: "Scale"
  bottom: "h_0"
  bottom: "cont_1"
  top: "h_conted_0"
  scale_param {
    axis: 0
  }
}
layer {
  name: "lstm1_transform_1"
  type: "InnerProduct"
  bottom: "h_conted_0"
  top: "W_hc_h_0"
  param {
    name: "W_hc"
  }
  inner_product_param {
    num_output: 4000
    bias_term: false
    weight_filler {
      type: "uniform"
      min: -0.08
      max: 0.08
    }
    axis: 2
  }
}
layer {
  name: "lstm1_gate_input_1"
  type: "Eltwise"
  bottom: "W_hc_h_0"
  bottom: "W_xc_x_1"
  top: "gate_input_1"
  eltwise_param {
    operation: SUM
  }
}
layer {
  name: "lstm1_unit_1"
  type: "LSTMUnit"
  bottom: "c_0"
  bottom: "gate_input_1"
  bottom: "cont_1"
  top: "c_1"
  top: "h_1"
}
layer {
  name: "lstm1_"
  type: "Split"
  bottom: "c_1"
  top: "c_T"
}
layer {
  name: "lstm1_h_concat"
  type: "Concat"
  bottom: "h_1"
  top: "h"
  concat_param {
    axis: 0
  }
}
layer {
  name: "h_pseudoloss"
  type: "Reduction"
  bottom: "h"
  top: "h_pseudoloss"
  loss_weight: 1
}
I0925 22:41:19.109086  6797 net.cpp:141] Setting up cont_1_lstm1_cont_slice_0_split
I0925 22:41:19.109102  6797 net.cpp:148] Top shape: 1 1 (1)
I0925 22:41:19.109112  6797 net.cpp:148] Top shape: 1 1 (1)
I0925 22:41:19.109119  6797 net.cpp:156] Memory required for data: 10016
I0925 22:41:19.109128  6797 layer_factory.hpp:77] Creating layer lstm1_x_transform
I0925 22:41:19.109146  6797 net.cpp:91] Creating Layer lstm1_x_transform
I0925 22:41:19.109155  6797 net.cpp:425] lstm1_x_transform <- x
I0925 22:41:19.109169  6797 net.cpp:399] lstm1_x_transform -> W_xc_x
I0925 22:41:19.109171  6793 layer_factory.hpp:77] Creating layer lstm1_
I0925 22:41:19.109174  6799 layer_factory.hpp:77] Creating layer lstm1_
I0925 22:41:19.109186  6793 net.cpp:91] Creating Layer lstm1_
I0925 22:41:19.109199  6793 net.cpp:399] lstm1_ -> x
I0925 22:41:19.109197  6799 net.cpp:91] Creating Layer lstm1_
I0925 22:41:19.109225  6793 net.cpp:399] lstm1_ -> cont
I0925 22:41:19.109230  6799 net.cpp:399] lstm1_ -> x
I0925 22:41:19.109252  6799 net.cpp:399] lstm1_ -> cont
I0925 22:41:19.114080  6831 net.cpp:141] Setting up lstm1_
I0925 22:41:19.114132  6831 net.cpp:148] Top shape: 1 1 500 (500)
I0925 22:41:19.114148  6831 net.cpp:148] Top shape: 1 1 (1)
I0925 22:41:19.114156  6831 net.cpp:156] Memory required for data: 2004
I0925 22:41:19.114169  6831 layer_factory.hpp:77] Creating layer lstm1_
I0925 22:41:19.114198  6831 net.cpp:91] Creating Layer lstm1_
I0925 22:41:19.114214  6831 net.cpp:399] lstm1_ -> c_0
I0925 22:41:19.114239  6831 net.cpp:399] lstm1_ -> h_0
I0925 22:41:19.114327  6831 net.cpp:141] Setting up lstm1_
I0925 22:41:19.114341  6831 net.cpp:148] Top shape: 1 1 1000 (1000)
I0925 22:41:19.114351  6831 net.cpp:148] Top shape: 1 1 1000 (1000)
I0925 22:41:19.114356  6831 net.cpp:156] Memory required for data: 10004
I0925 22:41:19.114364  6831 layer_factory.hpp:77] Creating layer lstm1_cont_slice
I0925 22:41:19.114378  6831 net.cpp:91] Creating Layer lstm1_cont_slice
I0925 22:41:19.114387  6831 net.cpp:425] lstm1_cont_slice <- cont
I0925 22:41:19.114400  6831 net.cpp:399] lstm1_cont_slice -> cont_1
I0925 22:41:19.114451  6831 net.cpp:141] Setting up lstm1_cont_slice
I0925 22:41:19.114472  6831 net.cpp:148] Top shape: 1 1 (1)
I0925 22:41:19.114480  6831 net.cpp:156] Memory required for data: 10008
I0925 22:41:19.114486  6831 layer_factory.hpp:77] Creating layer cont_1_lstm1_cont_slice_0_split
I0925 22:41:19.114498  6831 net.cpp:91] Creating Layer cont_1_lstm1_cont_slice_0_split
I0925 22:41:19.114506  6831 net.cpp:425] cont_1_lstm1_cont_slice_0_split <- cont_1
I0925 22:41:19.114518  6831 net.cpp:399] cont_1_lstm1_cont_slice_0_split -> cont_1_lstm1_cont_slice_0_split_0
I0925 22:41:19.114531  6831 net.cpp:399] cont_1_lstm1_cont_slice_0_split -> cont_1_lstm1_cont_slice_0_split_1
I0925 22:41:19.114622  6831 net.cpp:141] Setting up cont_1_lstm1_cont_slice_0_split
I0925 22:41:19.114636  6831 net.cpp:148] Top shape: 1 1 (1)
I0925 22:41:19.114646  6831 net.cpp:148] Top shape: 1 1 (1)
I0925 22:41:19.114652  6831 net.cpp:156] Memory required for data: 10016
I0925 22:41:19.114660  6831 layer_factory.hpp:77] Creating layer lstm1_x_transform
I0925 22:41:19.114682  6831 net.cpp:91] Creating Layer lstm1_x_transform
I0925 22:41:19.114691  6831 net.cpp:425] lstm1_x_transform <- x
I0925 22:41:19.114707  6831 net.cpp:399] lstm1_x_transform -> W_xc_x
I0925 22:41:19.130697  6799 net.cpp:141] Setting up lstm1_
I0925 22:41:19.130749  6799 net.cpp:148] Top shape: 1 1 500 (500)
I0925 22:41:19.130766  6799 net.cpp:148] Top shape: 1 1 (1)
I0925 22:41:19.130776  6799 net.cpp:156] Memory required for data: 2004
I0925 22:41:19.130792  6799 layer_factory.hpp:77] Creating layer lstm1_
I0925 22:41:19.130826  6799 net.cpp:91] Creating Layer lstm1_
I0925 22:41:19.130852  6799 net.cpp:399] lstm1_ -> c_0
I0925 22:41:19.130887  6799 net.cpp:399] lstm1_ -> h_0
I0925 22:41:19.131001  6799 net.cpp:141] Setting up lstm1_
I0925 22:41:19.131021  6799 net.cpp:148] Top shape: 1 1 1000 (1000)
I0925 22:41:19.131032  6799 net.cpp:148] Top shape: 1 1 1000 (1000)
I0925 22:41:19.131042  6799 net.cpp:156] Memory required for data: 10004
I0925 22:41:19.131050  6799 layer_factory.hpp:77] Creating layer lstm1_cont_slice
I0925 22:41:19.131069  6799 net.cpp:91] Creating Layer lstm1_cont_slice
I0925 22:41:19.131081  6799 net.cpp:425] lstm1_cont_slice <- cont
I0925 22:41:19.131101  6799 net.cpp:399] lstm1_cont_slice -> cont_1
I0925 22:41:19.131161  6799 net.cpp:141] Setting up lstm1_cont_slice
I0925 22:41:19.131180  6799 net.cpp:148] Top shape: 1 1 (1)
I0925 22:41:19.131187  6799 net.cpp:156] Memory required for data: 10008
I0925 22:41:19.131197  6799 layer_factory.hpp:77] Creating layer cont_1_lstm1_cont_slice_0_split
I0925 22:41:19.131217  6799 net.cpp:91] Creating Layer cont_1_lstm1_cont_slice_0_split
I0925 22:41:19.131227  6799 net.cpp:425] cont_1_lstm1_cont_slice_0_split <- cont_1
I0925 22:41:19.131242  6799 net.cpp:399] cont_1_lstm1_cont_slice_0_split -> cont_1_lstm1_cont_slice_0_split_0
I0925 22:41:19.131263  6799 net.cpp:399] cont_1_lstm1_cont_slice_0_split -> cont_1_lstm1_cont_slice_0_split_1
I0925 22:41:19.131348  6799 net.cpp:141] Setting up cont_1_lstm1_cont_slice_0_split
I0925 22:41:19.131366  6799 net.cpp:148] Top shape: 1 1 (1)
I0925 22:41:19.131378  6799 net.cpp:148] Top shape: 1 1 (1)
I0925 22:41:19.131386  6799 net.cpp:156] Memory required for data: 10016
I0925 22:41:19.131397  6799 layer_factory.hpp:77] Creating layer lstm1_x_transform
I0925 22:41:19.131420  6799 net.cpp:91] Creating Layer lstm1_x_transform
I0925 22:41:19.131431  6799 net.cpp:425] lstm1_x_transform <- x
I0925 22:41:19.131448  6799 net.cpp:399] lstm1_x_transform -> W_xc_x
I0925 22:41:19.137020  6815 net.cpp:141] Setting up embedding
I0925 22:41:19.137069  6815 net.cpp:148] Top shape: 1 1 500 (500)
I0925 22:41:19.137075  6815 net.cpp:156] Memory required for data: 22408
I0925 22:41:19.137095  6815 layer_factory.hpp:77] Creating layer lstm1
I0925 22:41:19.137116  6815 net.cpp:91] Creating Layer lstm1
I0925 22:41:19.137125  6815 net.cpp:425] lstm1 <- embedded_input_frames
I0925 22:41:19.137135  6815 net.cpp:425] lstm1 <- cont_sentence_input_1_split_0
I0925 22:41:19.137145  6815 net.cpp:399] lstm1 -> lstm1
I0925 22:41:19.137164  6815 recurrent_layer.cpp:20] Initializing recurrent layer: assuming input batch contains 1 timesteps of 1 independent streams.
I0925 22:41:19.137550  6815 net.cpp:49] Initializing net from parameters: 
layer {
  name: "lstm1_"
  type: "Input"
  top: "x"
  top: "cont"
  input_param {
    shape {
      dim: 1
      dim: 1
      dim: 500
    }
    shape {
      dim: 1
      dim: 1
    }
  }
}
layer {
  name: "lstm1_"
  type: "Input"
  top: "c_0"
  top: "h_0"
  input_param {
    shape {
      dim: 1
      dim: 1
      dim: 1000
    }
    shape {
      dim: 1
      dim: 1
      dim: 1000
    }
  }
}
layer {
  name: "lstm1_cont_slice"
  type: "Slice"
  bottom: "cont"
  top: "cont_1"
  slice_param {
    axis: 0
  }
}
layer {
  name: "lstm1_x_transform"
  type: "InnerProduct"
  bottom: "x"
  top: "W_xc_x"
  param {
    name: "W_xc"
  }
  param {
    name: "b_c"
  }
  propagate_down: true
  inner_product_param {
    num_output: 4000
    bias_term: true
    weight_filler {
      type: "uniform"
      min: -0.08
      max: 0.08
    }
    bias_filler {
      type: "constant"
      value: 0
    }
    axis: 2
  }
}
layer {
  name: "lstm1_W_xc_x_slice"
  type: "Slice"
  bottom: "W_xc_x"
  top: "W_xc_x_1"
  slice_param {
    axis: 0
  }
}
layer {
  name: "lstm1_h_conted_0"
  type: "Scale"
  bottom: "h_0"
  bottom: "cont_1"
  top: "h_conted_0"
  scale_param {
    axis: 0
  }
}
layer {
  name: "lstm1_transform_1"
  type: "InnerProduct"
  bottom: "h_conted_0"
  top: "W_hc_h_0"
  param {
    name: "W_hc"
  }
  inner_product_param {
    num_output: 4000
    bias_term: false
    weight_filler {
      type: "uniform"
      min: -0.08
      max: 0.08
    }
    axis: 2
  }
}
layer {
  name: "lstm1_gate_input_1"
  type: "Eltwise"
  bottom: "W_hc_h_0"
  bottom: "W_xc_x_1"
  top: "gate_input_1"
  eltwise_param {
    operation: SUM
  }
}
layer {
  name: "lstm1_unit_1"
  type: "LSTMUnit"
  bottom: "c_0"
  bottom: "gate_input_1"
  bottom: "cont_1"
  top: "c_1"
  top: "h_1"
}
layer {
  name: "lstm1_"
  type: "Split"
  bottom: "c_1"
  top: "c_T"
}
layer {
  name: "lstm1_h_concat"
  type: "Concat"
  bottom: "h_1"
  top: "h"
  concat_param {
    axis: 0
  }
}
layer {
  name: "h_pseudoloss"
  type: "Reduction"
  bottom: "h"
  top: "h_pseudoloss"
  loss_weight: 1
}
I0925 22:41:19.137678  6815 layer_factory.hpp:77] Creating layer lstm1_
I0925 22:41:19.137696  6815 net.cpp:91] Creating Layer lstm1_
I0925 22:41:19.137706  6815 net.cpp:399] lstm1_ -> x
I0925 22:41:19.137720  6815 net.cpp:399] lstm1_ -> cont
I0925 22:41:19.138072  6793 net.cpp:141] Setting up lstm1_
I0925 22:41:19.138136  6793 net.cpp:148] Top shape: 1 1 500 (500)
I0925 22:41:19.138152  6793 net.cpp:148] Top shape: 1 1 (1)
I0925 22:41:19.138162  6793 net.cpp:156] Memory required for data: 2004
I0925 22:41:19.138177  6793 layer_factory.hpp:77] Creating layer lstm1_
I0925 22:41:19.138213  6793 net.cpp:91] Creating Layer lstm1_
I0925 22:41:19.138279  6793 net.cpp:399] lstm1_ -> c_0
I0925 22:41:19.138310  6793 net.cpp:399] lstm1_ -> h_0
I0925 22:41:19.154125  6793 net.cpp:141] Setting up lstm1_
I0925 22:41:19.154119  6797 net.cpp:141] Setting up lstm1_x_transform
I0925 22:41:19.154173  6797 net.cpp:148] Top shape: 1 1 4000 (4000)
I0925 22:41:19.154173  6793 net.cpp:148] Top shape: 1 1 1000 (1000)
I0925 22:41:19.154191  6797 net.cpp:156] Memory required for data: 26016
I0925 22:41:19.154201  6793 net.cpp:148] Top shape: 1 1 1000 (1000)
I0925 22:41:19.154211  6793 net.cpp:156] Memory required for data: 10004
I0925 22:41:19.154220  6793 layer_factory.hpp:77] Creating layer lstm1_cont_slice
I0925 22:41:19.154220  6797 layer_factory.hpp:77] Creating layer lstm1_W_xc_x_slice
I0925 22:41:19.154237  6797 net.cpp:91] Creating Layer lstm1_W_xc_x_slice
I0925 22:41:19.154242  6793 net.cpp:91] Creating Layer lstm1_cont_slice
I0925 22:41:19.154247  6797 net.cpp:425] lstm1_W_xc_x_slice <- W_xc_x
I0925 22:41:19.154252  6815 net.cpp:141] Setting up lstm1_
I0925 22:41:19.154263  6797 net.cpp:399] lstm1_W_xc_x_slice -> W_xc_x_1
I0925 22:41:19.154286  6815 net.cpp:148] Top shape: 1 1 500 (500)
I0925 22:41:19.154252  6793 net.cpp:425] lstm1_cont_slice <- cont
I0925 22:41:19.154299  6815 net.cpp:148] Top shape: 1 1 (1)
I0925 22:41:19.154317  6815 net.cpp:156] Memory required for data: 2004
I0925 22:41:19.154320  6793 net.cpp:399] lstm1_cont_slice -> cont_1
I0925 22:41:19.154327  6815 layer_factory.hpp:77] Creating layer lstm1_
I0925 22:41:19.154348  6815 net.cpp:91] Creating Layer lstm1_
I0925 22:41:19.154356  6831 net.cpp:141] Setting up lstm1_x_transform
I0925 22:41:19.154367  6815 net.cpp:399] lstm1_ -> c_0
I0925 22:41:19.154376  6831 net.cpp:148] Top shape: 1 1 4000 (4000)
I0925 22:41:19.154386  6831 net.cpp:156] Memory required for data: 26016
I0925 22:41:19.154387  6815 net.cpp:399] lstm1_ -> h_0
I0925 22:41:19.154400  6831 layer_factory.hpp:77] Creating layer lstm1_W_xc_x_slice
I0925 22:41:19.154410  6831 net.cpp:91] Creating Layer lstm1_W_xc_x_slice
I0925 22:41:19.154417  6831 net.cpp:425] lstm1_W_xc_x_slice <- W_xc_x
I0925 22:41:19.154425  6797 net.cpp:141] Setting up lstm1_W_xc_x_slice
I0925 22:41:19.154433  6831 net.cpp:399] lstm1_W_xc_x_slice -> W_xc_x_1
I0925 22:41:19.154443  6797 net.cpp:148] Top shape: 1 1 4000 (4000)
I0925 22:41:19.154450  6797 net.cpp:156] Memory required for data: 42016
I0925 22:41:19.154458  6797 layer_factory.hpp:77] Creating layer lstm1_h_conted_0
I0925 22:41:19.154462  6793 net.cpp:141] Setting up lstm1_cont_slice
I0925 22:41:19.154479  6793 net.cpp:148] Top shape: 1 1 (1)
I0925 22:41:19.154484  6831 net.cpp:141] Setting up lstm1_W_xc_x_slice
I0925 22:41:19.154487  6793 net.cpp:156] Memory required for data: 10008
I0925 22:41:19.154495  6793 layer_factory.hpp:77] Creating layer cont_1_lstm1_cont_slice_0_split
I0925 22:41:19.154486  6797 net.cpp:91] Creating Layer lstm1_h_conted_0
I0925 22:41:19.154508  6793 net.cpp:91] Creating Layer cont_1_lstm1_cont_slice_0_split
I0925 22:41:19.154510  6831 net.cpp:148] Top shape: 1 1 4000 (4000)
I0925 22:41:19.154513  6797 net.cpp:425] lstm1_h_conted_0 <- h_0
I0925 22:41:19.154517  6793 net.cpp:425] cont_1_lstm1_cont_slice_0_split <- cont_1
I0925 22:41:19.154525  6797 net.cpp:425] lstm1_h_conted_0 <- cont_1_lstm1_cont_slice_0_split_0
I0925 22:41:19.154537  6797 net.cpp:399] lstm1_h_conted_0 -> h_conted_0
I0925 22:41:19.154541  6793 net.cpp:399] cont_1_lstm1_cont_slice_0_split -> cont_1_lstm1_cont_slice_0_split_0
I0925 22:41:19.154556  6793 net.cpp:399] cont_1_lstm1_cont_slice_0_split -> cont_1_lstm1_cont_slice_0_split_1
I0925 22:41:19.154633  6793 net.cpp:141] Setting up cont_1_lstm1_cont_slice_0_split
I0925 22:41:19.154650  6793 net.cpp:148] Top shape: 1 1 (1)
I0925 22:41:19.154657  6793 net.cpp:148] Top shape: 1 1 (1)
I0925 22:41:19.154662  6793 net.cpp:156] Memory required for data: 10016
I0925 22:41:19.154667  6793 layer_factory.hpp:77] Creating layer lstm1_x_transform
I0925 22:41:19.154685  6793 net.cpp:91] Creating Layer lstm1_x_transform
I0925 22:41:19.154683  6815 net.cpp:141] Setting up lstm1_
I0925 22:41:19.154691  6793 net.cpp:425] lstm1_x_transform <- x
I0925 22:41:19.154700  6793 net.cpp:399] lstm1_x_transform -> W_xc_x
I0925 22:41:19.154700  6815 net.cpp:148] Top shape: 1 1 1000 (1000)
I0925 22:41:19.154712  6815 net.cpp:148] Top shape: 1 1 1000 (1000)
I0925 22:41:19.154719  6815 net.cpp:156] Memory required for data: 10004
I0925 22:41:19.154727  6815 layer_factory.hpp:77] Creating layer lstm1_cont_slice
I0925 22:41:19.154742  6815 net.cpp:91] Creating Layer lstm1_cont_slice
I0925 22:41:19.154749  6815 net.cpp:425] lstm1_cont_slice <- cont
I0925 22:41:19.154518  6831 net.cpp:156] Memory required for data: 42016
I0925 22:41:19.154762  6831 layer_factory.hpp:77] Creating layer lstm1_h_conted_0
I0925 22:41:19.154764  6815 net.cpp:399] lstm1_cont_slice -> cont_1
I0925 22:41:19.154772  6831 net.cpp:91] Creating Layer lstm1_h_conted_0
I0925 22:41:19.154778  6831 net.cpp:425] lstm1_h_conted_0 <- h_0
I0925 22:41:19.154788  6831 net.cpp:425] lstm1_h_conted_0 <- cont_1_lstm1_cont_slice_0_split_0
I0925 22:41:19.154803  6831 net.cpp:399] lstm1_h_conted_0 -> h_conted_0
I0925 22:41:19.154820  6815 net.cpp:141] Setting up lstm1_cont_slice
I0925 22:41:19.154834  6815 net.cpp:148] Top shape: 1 1 (1)
I0925 22:41:19.154841  6815 net.cpp:156] Memory required for data: 10008
I0925 22:41:19.154850  6815 layer_factory.hpp:77] Creating layer cont_1_lstm1_cont_slice_0_split
I0925 22:41:19.154865  6815 net.cpp:91] Creating Layer cont_1_lstm1_cont_slice_0_split
I0925 22:41:19.154872  6815 net.cpp:425] cont_1_lstm1_cont_slice_0_split <- cont_1
I0925 22:41:19.154884  6815 net.cpp:399] cont_1_lstm1_cont_slice_0_split -> cont_1_lstm1_cont_slice_0_split_0
I0925 22:41:19.154897  6815 net.cpp:399] cont_1_lstm1_cont_slice_0_split -> cont_1_lstm1_cont_slice_0_split_1
I0925 22:41:19.154911  6799 net.cpp:141] Setting up lstm1_x_transform
I0925 22:41:19.154929  6799 net.cpp:148] Top shape: 1 1 4000 (4000)
I0925 22:41:19.154937  6799 net.cpp:156] Memory required for data: 26016
I0925 22:41:19.154955  6799 layer_factory.hpp:77] Creating layer lstm1_W_xc_x_slice
I0925 22:41:19.154970  6799 net.cpp:91] Creating Layer lstm1_W_xc_x_slice
I0925 22:41:19.154978  6799 net.cpp:425] lstm1_W_xc_x_slice <- W_xc_x
I0925 22:41:19.154985  6799 net.cpp:399] lstm1_W_xc_x_slice -> W_xc_x_1
I0925 22:41:19.154971  6815 net.cpp:141] Setting up cont_1_lstm1_cont_slice_0_split
I0925 22:41:19.155009  6815 net.cpp:148] Top shape: 1 1 (1)
I0925 22:41:19.155019  6815 net.cpp:148] Top shape: 1 1 (1)
I0925 22:41:19.155026  6815 net.cpp:156] Memory required for data: 10016
I0925 22:41:19.155026  6799 net.cpp:141] Setting up lstm1_W_xc_x_slice
I0925 22:41:19.155035  6815 layer_factory.hpp:77] Creating layer lstm1_x_transform
I0925 22:41:19.155062  6815 net.cpp:91] Creating Layer lstm1_x_transform
I0925 22:41:19.155072  6815 net.cpp:425] lstm1_x_transform <- x
I0925 22:41:19.155086  6815 net.cpp:399] lstm1_x_transform -> W_xc_x
I0925 22:41:19.155038  6799 net.cpp:148] Top shape: 1 1 4000 (4000)
I0925 22:41:19.155110  6799 net.cpp:156] Memory required for data: 42016
I0925 22:41:19.155122  6799 layer_factory.hpp:77] Creating layer lstm1_h_conted_0
I0925 22:41:19.155136  6799 net.cpp:91] Creating Layer lstm1_h_conted_0
I0925 22:41:19.155145  6799 net.cpp:425] lstm1_h_conted_0 <- h_0
I0925 22:41:19.155156  6799 net.cpp:425] lstm1_h_conted_0 <- cont_1_lstm1_cont_slice_0_split_0
I0925 22:41:19.155201  6831 net.cpp:141] Setting up lstm1_h_conted_0
I0925 22:41:19.155210  6799 net.cpp:399] lstm1_h_conted_0 -> h_conted_0
I0925 22:41:19.155218  6831 net.cpp:148] Top shape: 1 1 1000 (1000)
I0925 22:41:19.155225  6831 net.cpp:156] Memory required for data: 46016
I0925 22:41:19.155235  6831 layer_factory.hpp:77] Creating layer lstm1_transform_1
I0925 22:41:19.155251  6831 net.cpp:91] Creating Layer lstm1_transform_1
I0925 22:41:19.155259  6831 net.cpp:425] lstm1_transform_1 <- h_conted_0
I0925 22:41:19.155278  6831 net.cpp:399] lstm1_transform_1 -> W_hc_h_0
I0925 22:41:19.159446  6797 net.cpp:141] Setting up lstm1_h_conted_0
I0925 22:41:19.159488  6797 net.cpp:148] Top shape: 1 1 1000 (1000)
I0925 22:41:19.159497  6797 net.cpp:156] Memory required for data: 46016
I0925 22:41:19.159508  6797 layer_factory.hpp:77] Creating layer lstm1_transform_1
I0925 22:41:19.159531  6797 net.cpp:91] Creating Layer lstm1_transform_1
I0925 22:41:19.159541  6797 net.cpp:425] lstm1_transform_1 <- h_conted_0
I0925 22:41:19.159561  6797 net.cpp:399] lstm1_transform_1 -> W_hc_h_0
I0925 22:41:19.169895  6799 net.cpp:141] Setting up lstm1_h_conted_0
I0925 22:41:19.169955  6799 net.cpp:148] Top shape: 1 1 1000 (1000)
I0925 22:41:19.169966  6799 net.cpp:156] Memory required for data: 46016
I0925 22:41:19.169978  6799 layer_factory.hpp:77] Creating layer lstm1_transform_1
I0925 22:41:19.170009  6799 net.cpp:91] Creating Layer lstm1_transform_1
I0925 22:41:19.170023  6799 net.cpp:425] lstm1_transform_1 <- h_conted_0
I0925 22:41:19.170043  6799 net.cpp:399] lstm1_transform_1 -> W_hc_h_0
I0925 22:41:19.193857  6793 net.cpp:141] Setting up lstm1_x_transform
I0925 22:41:19.194046  6815 net.cpp:141] Setting up lstm1_x_transform
I0925 22:41:19.194082  6815 net.cpp:148] Top shape: 1 1 4000 (4000)
I0925 22:41:19.194098  6815 net.cpp:156] Memory required for data: 26016
I0925 22:41:19.194139  6815 layer_factory.hpp:77] Creating layer lstm1_W_xc_x_slice
I0925 22:41:19.194174  6815 net.cpp:91] Creating Layer lstm1_W_xc_x_slice
I0925 22:41:19.194191  6815 net.cpp:425] lstm1_W_xc_x_slice <- W_xc_x
I0925 22:41:19.194216  6815 net.cpp:399] lstm1_W_xc_x_slice -> W_xc_x_1
I0925 22:41:19.194332  6815 net.cpp:141] Setting up lstm1_W_xc_x_slice
I0925 22:41:19.194360  6815 net.cpp:148] Top shape: 1 1 4000 (4000)
I0925 22:41:19.194372  6815 net.cpp:156] Memory required for data: 42016
I0925 22:41:19.194386  6815 layer_factory.hpp:77] Creating layer lstm1_h_conted_0
I0925 22:41:19.194412  6815 net.cpp:91] Creating Layer lstm1_h_conted_0
I0925 22:41:19.194429  6815 net.cpp:425] lstm1_h_conted_0 <- h_0
I0925 22:41:19.194447  6815 net.cpp:425] lstm1_h_conted_0 <- cont_1_lstm1_cont_slice_0_split_0
I0925 22:41:19.194468  6815 net.cpp:399] lstm1_h_conted_0 -> h_conted_0
I0925 22:41:19.194753  6815 net.cpp:141] Setting up lstm1_h_conted_0
I0925 22:41:19.194780  6815 net.cpp:148] Top shape: 1 1 1000 (1000)
I0925 22:41:19.194794  6815 net.cpp:156] Memory required for data: 46016
I0925 22:41:19.194809  6815 layer_factory.hpp:77] Creating layer lstm1_transform_1
I0925 22:41:19.194839  6815 net.cpp:91] Creating Layer lstm1_transform_1
I0925 22:41:19.194855  6815 net.cpp:425] lstm1_transform_1 <- h_conted_0
I0925 22:41:19.194876  6815 net.cpp:399] lstm1_transform_1 -> W_hc_h_0
I0925 22:41:19.195017  6793 net.cpp:148] Top shape: 1 1 4000 (4000)
I0925 22:41:19.195046  6793 net.cpp:156] Memory required for data: 26016
I0925 22:41:19.195127  6793 layer_factory.hpp:77] Creating layer lstm1_W_xc_x_slice
I0925 22:41:19.195147  6793 net.cpp:91] Creating Layer lstm1_W_xc_x_slice
I0925 22:41:19.195154  6793 net.cpp:425] lstm1_W_xc_x_slice <- W_xc_x
I0925 22:41:19.195165  6793 net.cpp:399] lstm1_W_xc_x_slice -> W_xc_x_1
I0925 22:41:19.205174  6793 net.cpp:141] Setting up lstm1_W_xc_x_slice
I0925 22:41:19.205219  6793 net.cpp:148] Top shape: 1 1 4000 (4000)
I0925 22:41:19.205227  6793 net.cpp:156] Memory required for data: 42016
I0925 22:41:19.205234  6811 net.cpp:141] Setting up embedding
I0925 22:41:19.205238  6793 layer_factory.hpp:77] Creating layer lstm1_h_conted_0
I0925 22:41:19.205271  6811 net.cpp:148] Top shape: 1 1 500 (500)
I0925 22:41:19.205279  6811 net.cpp:156] Memory required for data: 22408
I0925 22:41:19.205292  6793 net.cpp:91] Creating Layer lstm1_h_conted_0
I0925 22:41:19.205302  6811 layer_factory.hpp:77] Creating layer lstm1
I0925 22:41:19.205323  6811 net.cpp:91] Creating Layer lstm1
I0925 22:41:19.205333  6811 net.cpp:425] lstm1 <- embedded_input_frames
I0925 22:41:19.205304  6793 net.cpp:425] lstm1_h_conted_0 <- h_0
I0925 22:41:19.205346  6811 net.cpp:425] lstm1 <- cont_sentence_input_1_split_0
I0925 22:41:19.205396  6811 net.cpp:399] lstm1 -> lstm1
I0925 22:41:19.205401  6793 net.cpp:425] lstm1_h_conted_0 <- cont_1_lstm1_cont_slice_0_split_0
I0925 22:41:19.205422  6811 recurrent_layer.cpp:20] Initializing recurrent layer: assuming input batch contains 1 timesteps of 1 independent streams.
I0925 22:41:19.205440  6793 net.cpp:399] lstm1_h_conted_0 -> h_conted_0
I0925 22:41:19.205958  6811 net.cpp:49] Initializing net from parameters: 
layer {
  name: "lstm1_"
  type: "Input"
  top: "x"
  top: "cont"
  input_param {
    shape {
      dim: 1
      dim: 1
      dim: 500
    }
    shape {
      dim: 1
      dim: 1
    }
  }
}
layer {
  name: "lstm1_"
  type: "Input"
  top: "c_0"
  top: "h_0"
  input_param {
    shape {
      dim: 1
      dim: 1
      dim: 1000
    }
    shape {
      dim: 1
      dim: 1
      dim: 1000
    }
  }
}
layer {
  name: "lstm1_cont_slice"
  type: "Slice"
  bottom: "cont"
  top: "cont_1"
  slice_param {
    axis: 0
  }
}
layer {
  name: "lstm1_x_transform"
  type: "InnerProduct"
  bottom: "x"
  top: "W_xc_x"
  param {
    name: "W_xc"
  }
  param {
    name: "b_c"
  }
  propagate_down: true
  inner_product_param {
    num_output: 4000
    bias_term: true
    weight_filler {
      type: "uniform"
      min: -0.08
      max: 0.08
    }
    bias_filler {
      type: "constant"
      value: 0
    }
    axis: 2
  }
}
layer {
  name: "lstm1_W_xc_x_slice"
  type: "Slice"
  bottom: "W_xc_x"
  top: "W_xc_x_1"
  slice_param {
    axis: 0
  }
}
layer {
  name: "lstm1_h_conted_0"
  type: "Scale"
  bottom: "h_0"
  bottom: "cont_1"
  top: "h_conted_0"
  scale_param {
    axis: 0
  }
}
layer {
  name: "lstm1_transform_1"
  type: "InnerProduct"
  bottom: "h_conted_0"
  top: "W_hc_h_0"
  param {
    name: "W_hc"
  }
  inner_product_param {
    num_output: 4000
    bias_term: false
    weight_filler {
      type: "uniform"
      min: -0.08
      max: 0.08
    }
    axis: 2
  }
}
layer {
  name: "lstm1_gate_input_1"
  type: "Eltwise"
  bottom: "W_hc_h_0"
  bottom: "W_xc_x_1"
  top: "gate_input_1"
  eltwise_param {
    operation: SUM
  }
}
layer {
  name: "lstm1_unit_1"
  type: "LSTMUnit"
  bottom: "c_0"
  bottom: "gate_input_1"
  bottom: "cont_1"
  top: "c_1"
  top: "h_1"
}
layer {
  name: "lstm1_"
  type: "Split"
  bottom: "c_1"
  top: "c_T"
}
layer {
  name: "lstm1_h_concat"
  type: "Concat"
  bottom: "h_1"
  top: "h"
  concat_param {
    axis: 0
  }
}
layer {
  name: "h_pseudoloss"
  type: "Reduction"
  bottom: "h"
  top: "h_pseudoloss"
  loss_weight: 1
}
I0925 22:41:19.206151  6811 layer_factory.hpp:77] Creating layer lstm1_
I0925 22:41:19.206181  6811 net.cpp:91] Creating Layer lstm1_
I0925 22:41:19.206194  6811 net.cpp:399] lstm1_ -> x
I0925 22:41:19.206218  6811 net.cpp:399] lstm1_ -> cont
I0925 22:41:19.211050  6793 net.cpp:141] Setting up lstm1_h_conted_0
I0925 22:41:19.211135  6793 net.cpp:148] Top shape: 1 1 1000 (1000)
I0925 22:41:19.211150  6793 net.cpp:156] Memory required for data: 46016
I0925 22:41:19.211168  6793 layer_factory.hpp:77] Creating layer lstm1_transform_1
I0925 22:41:19.211210  6793 net.cpp:91] Creating Layer lstm1_transform_1
I0925 22:41:19.211227  6793 net.cpp:425] lstm1_transform_1 <- h_conted_0
I0925 22:41:19.211256  6793 net.cpp:399] lstm1_transform_1 -> W_hc_h_0
I0925 22:41:19.211271  6811 net.cpp:141] Setting up lstm1_
I0925 22:41:19.211331  6811 net.cpp:148] Top shape: 1 1 500 (500)
I0925 22:41:19.211347  6811 net.cpp:148] Top shape: 1 1 (1)
I0925 22:41:19.211356  6811 net.cpp:156] Memory required for data: 2004
I0925 22:41:19.211371  6811 layer_factory.hpp:77] Creating layer lstm1_
I0925 22:41:19.211402  6811 net.cpp:91] Creating Layer lstm1_
I0925 22:41:19.211498  6811 net.cpp:399] lstm1_ -> c_0
I0925 22:41:19.211535  6811 net.cpp:399] lstm1_ -> h_0
I0925 22:41:19.222229  6811 net.cpp:141] Setting up lstm1_
I0925 22:41:19.222249  6811 net.cpp:148] Top shape: 1 1 1000 (1000)
I0925 22:41:19.222255  6811 net.cpp:148] Top shape: 1 1 1000 (1000)
I0925 22:41:19.222260  6811 net.cpp:156] Memory required for data: 10004
I0925 22:41:19.222268  6811 layer_factory.hpp:77] Creating layer lstm1_cont_slice
I0925 22:41:19.222295  6811 net.cpp:91] Creating Layer lstm1_cont_slice
I0925 22:41:19.222302  6811 net.cpp:425] lstm1_cont_slice <- cont
I0925 22:41:19.222311  6811 net.cpp:399] lstm1_cont_slice -> cont_1
I0925 22:41:19.222354  6797 net.cpp:141] Setting up lstm1_transform_1
I0925 22:41:19.222378  6811 net.cpp:141] Setting up lstm1_cont_slice
I0925 22:41:19.222403  6811 net.cpp:148] Top shape: 1 1 (1)
I0925 22:41:19.222407  6811 net.cpp:156] Memory required for data: 10008
I0925 22:41:19.222406  6797 net.cpp:148] Top shape: 1 1 4000 (4000)
I0925 22:41:19.222412  6811 layer_factory.hpp:77] Creating layer cont_1_lstm1_cont_slice_0_split
I0925 22:41:19.222426  6797 net.cpp:156] Memory required for data: 62016
I0925 22:41:19.222436  6811 net.cpp:91] Creating Layer cont_1_lstm1_cont_slice_0_split
I0925 22:41:19.222443  6811 net.cpp:425] cont_1_lstm1_cont_slice_0_split <- cont_1
I0925 22:41:19.222455  6811 net.cpp:399] cont_1_lstm1_cont_slice_0_split -> cont_1_lstm1_cont_slice_0_split_0
I0925 22:41:19.222452  6831 net.cpp:141] Setting up lstm1_transform_1
I0925 22:41:19.222465  6811 net.cpp:399] cont_1_lstm1_cont_slice_0_split -> cont_1_lstm1_cont_slice_0_split_1
I0925 22:41:19.222475  6797 layer_factory.hpp:77] Creating layer lstm1_gate_input_1
I0925 22:41:19.222475  6831 net.cpp:148] Top shape: 1 1 4000 (4000)
I0925 22:41:19.222504  6831 net.cpp:156] Memory required for data: 62016
I0925 22:41:19.222517  6797 net.cpp:91] Creating Layer lstm1_gate_input_1
I0925 22:41:19.222520  6831 layer_factory.hpp:77] Creating layer lstm1_gate_input_1
I0925 22:41:19.222532  6797 net.cpp:425] lstm1_gate_input_1 <- W_hc_h_0
I0925 22:41:19.222543  6831 net.cpp:91] Creating Layer lstm1_gate_input_1
I0925 22:41:19.222544  6797 net.cpp:425] lstm1_gate_input_1 <- W_xc_x_1
I0925 22:41:19.222551  6831 net.cpp:425] lstm1_gate_input_1 <- W_hc_h_0
I0925 22:41:19.222558  6811 net.cpp:141] Setting up cont_1_lstm1_cont_slice_0_split
I0925 22:41:19.222564  6831 net.cpp:425] lstm1_gate_input_1 <- W_xc_x_1
I0925 22:41:19.222565  6797 net.cpp:399] lstm1_gate_input_1 -> gate_input_1
I0925 22:41:19.222571  6811 net.cpp:148] Top shape: 1 1 (1)
I0925 22:41:19.222579  6811 net.cpp:148] Top shape: 1 1 (1)
I0925 22:41:19.222579  6831 net.cpp:399] lstm1_gate_input_1 -> gate_input_1
I0925 22:41:19.222582  6811 net.cpp:156] Memory required for data: 10016
I0925 22:41:19.222589  6811 layer_factory.hpp:77] Creating layer lstm1_x_transform
I0925 22:41:19.222615  6811 net.cpp:91] Creating Layer lstm1_x_transform
I0925 22:41:19.222621  6811 net.cpp:425] lstm1_x_transform <- x
I0925 22:41:19.222630  6811 net.cpp:399] lstm1_x_transform -> W_xc_x
I0925 22:41:19.238472  6797 net.cpp:141] Setting up lstm1_gate_input_1
I0925 22:41:19.238510  6831 net.cpp:141] Setting up lstm1_gate_input_1
I0925 22:41:19.238529  6797 net.cpp:148] Top shape: 1 1 4000 (4000)
I0925 22:41:19.238533  6831 net.cpp:148] Top shape: 1 1 4000 (4000)
I0925 22:41:19.238540  6797 net.cpp:156] Memory required for data: 78016
I0925 22:41:19.238543  6831 net.cpp:156] Memory required for data: 78016
I0925 22:41:19.238562  6831 layer_factory.hpp:77] Creating layer lstm1_unit_1
I0925 22:41:19.238562  6797 layer_factory.hpp:77] Creating layer lstm1_unit_1
I0925 22:41:19.238601  6797 net.cpp:91] Creating Layer lstm1_unit_1
I0925 22:41:19.238620  6797 net.cpp:425] lstm1_unit_1 <- c_0
I0925 22:41:19.238636  6797 net.cpp:425] lstm1_unit_1 <- gate_input_1
I0925 22:41:19.238646  6797 net.cpp:425] lstm1_unit_1 <- cont_1_lstm1_cont_slice_0_split_1
I0925 22:41:19.238659  6797 net.cpp:399] lstm1_unit_1 -> c_1
I0925 22:41:19.238685  6797 net.cpp:399] lstm1_unit_1 -> h_1
I0925 22:41:19.238602  6831 net.cpp:91] Creating Layer lstm1_unit_1
I0925 22:41:19.238755  6831 net.cpp:425] lstm1_unit_1 <- c_0
I0925 22:41:19.238785  6831 net.cpp:425] lstm1_unit_1 <- gate_input_1
I0925 22:41:19.238796  6831 net.cpp:425] lstm1_unit_1 <- cont_1_lstm1_cont_slice_0_split_1
I0925 22:41:19.238813  6831 net.cpp:399] lstm1_unit_1 -> c_1
I0925 22:41:19.238827  6831 net.cpp:399] lstm1_unit_1 -> h_1
I0925 22:41:19.246356  6797 net.cpp:141] Setting up lstm1_unit_1
I0925 22:41:19.246407  6797 net.cpp:148] Top shape: 1 1 1000 (1000)
I0925 22:41:19.246419  6797 net.cpp:148] Top shape: 1 1 1000 (1000)
I0925 22:41:19.246426  6797 net.cpp:156] Memory required for data: 86016
I0925 22:41:19.246438  6797 layer_factory.hpp:77] Creating layer lstm1_
I0925 22:41:19.246459  6797 net.cpp:91] Creating Layer lstm1_
I0925 22:41:19.246469  6797 net.cpp:425] lstm1_ <- c_1
I0925 22:41:19.246485  6797 net.cpp:399] lstm1_ -> c_T
I0925 22:41:19.246543  6797 net.cpp:141] Setting up lstm1_
I0925 22:41:19.246558  6797 net.cpp:148] Top shape: 1 1 1000 (1000)
I0925 22:41:19.246565  6797 net.cpp:156] Memory required for data: 90016
I0925 22:41:19.246574  6797 layer_factory.hpp:77] Creating layer lstm1_h_concat
I0925 22:41:19.246589  6797 net.cpp:91] Creating Layer lstm1_h_concat
I0925 22:41:19.246610  6797 net.cpp:425] lstm1_h_concat <- h_1
I0925 22:41:19.246628  6797 net.cpp:399] lstm1_h_concat -> h
I0925 22:41:19.246680  6797 net.cpp:141] Setting up lstm1_h_concat
I0925 22:41:19.246695  6797 net.cpp:148] Top shape: 1 1 1000 (1000)
I0925 22:41:19.246701  6797 net.cpp:156] Memory required for data: 94016
I0925 22:41:19.246708  6797 layer_factory.hpp:77] Creating layer h_pseudoloss
I0925 22:41:19.246736  6797 net.cpp:91] Creating Layer h_pseudoloss
I0925 22:41:19.246744  6797 net.cpp:425] h_pseudoloss <- h
I0925 22:41:19.246757  6797 net.cpp:399] h_pseudoloss -> h_pseudoloss
I0925 22:41:19.246898  6797 net.cpp:141] Setting up h_pseudoloss
…
I0925 22:41:19.247087  6797 net.cpp:219] lstm1_ does not need backward computation.
I0925 22:41:19.247093  6797 net.cpp:261] This network produces output c_T
I0925 22:41:19.247102  6797 net.cpp:261] This network produces output h_pseudoloss
I0925 22:41:19.247133  6797 net.cpp:274] Network initialization done.
I0925 22:41:19.247225  6797 recurrent_layer.cpp:150] Adding parameter 0: W_xc
I0925 22:41:19.247236  6797 recurrent_layer.cpp:150] Adding parameter 1: b_c
I0925 22:41:19.247244  6797 recurrent_layer.cpp:150] Adding parameter 2: W_hc
I0925 22:41:19.247401  6797 net.cpp:141] Setting up lstm1
I0925 22:41:19.247418  6797 net.cpp:148] Top shape: 1 1 1000 (1000)
I0925 22:41:19.247426  6797 net.cpp:156] Memory required for data: 26408
I0925 22:41:19.247449  6797 layer_factory.hpp:77] Creating layer concat
I0925 22:41:19.247462  6797 net.cpp:91] Creating Layer concat
I0925 22:41:19.247473  6797 net.cpp:425] concat <- lstm1
I0925 22:41:19.247483  6797 net.cpp:425] concat <- embedded_input_sentence
I0925 22:41:19.247493  6797 net.cpp:425] concat <- reshaped_stage_indicator
I0925 22:41:19.247504  6797 net.cpp:399] concat -> lstm1_video_sequence
I0925 22:41:19.247551  6797 net.cpp:141] Setting up concat
I0925 22:41:19.247565  6797 net.cpp:148] Top shape: 1 1 1501 (1501)
I0925 22:41:19.247572  6797 net.cpp:156] Memory required for data: 32412
I0925 22:41:19.247581  6797 layer_factory.hpp:77] Creating layer lstm2
I0925 22:41:19.247598  6797 net.cpp:91] Creating Layer lstm2
I0925 22:41:19.247606  6797 net.cpp:425] lstm2 <- lstm1_video_sequence
I0925 22:41:19.247615  6797 net.cpp:425] lstm2 <- cont_sentence_input_1_split_1
I0925 22:41:19.247627  6797 net.cpp:399] lstm2 -> lstm2
I0925 22:41:19.247642  6797 recurrent_layer.cpp:20] Initializing recurrent layer: assuming input batch contains 1 timesteps of 1 independent streams.
I0925 22:41:19.247710  6799 net.cpp:141] Setting up lstm1_transform_1
I0925 22:41:19.247735  6799 net.cpp:148] Top shape: 1 1 4000 (4000)
I0925 22:41:19.247742  6799 net.cpp:156] Memory required for data: 62016
I0925 22:41:19.247758  6799 layer_factory.hpp:77] Creating layer lstm1_gate_input_1
I0925 22:41:19.247774  6799 net.cpp:91] Creating Layer lstm1_gate_input_1
I0925 22:41:19.247783  6799 net.cpp:425] lstm1_gate_input_1 <- W_hc_h_0
I0925 22:41:19.247792  6799 net.cpp:425] lstm1_gate_input_1 <- W_xc_x_1
I0925 22:41:19.247804  6799 net.cpp:399] lstm1_gate_input_1 -> gate_input_1
I0925 22:41:19.248009  6797 net.cpp:49] Initializing net from parameters: 
layer {
  name: "lstm2_"
  type: "Input"
  top: "x"
  top: "cont"
  input_param {
    shape {
      dim: 1
      dim: 1
      dim: 1501
    }
    shape {
      dim: 1
      dim: 1
    }
  }
}
layer {
  name: "lstm2_"
  type: "Input"
  top: "c_0"
  top: "h_0"
  input_param {
    shape {
      dim: 1
      dim: 1
      dim: 1000
    }
    shape {
      dim: 1
      dim: 1
      dim: 1000
    }
  }
}
layer {
  name: "lstm2_cont_slice"
  type: "Slice"
  bottom: "cont"
  top: "cont_1"
  slice_param {
    axis: 0
  }
}
layer {
  name: "lstm2_x_transform"
  type: "InnerProduct"
  bottom: "x"
  top: "W_xc_x"
  param {
    name: "W_xc"
  }
  param {
    name: "b_c"
  }
  propagate_down: true
  inner_product_param {
    num_output: 4000
    bias_term: true
    weight_filler {
      type: "uniform"
      min: -0.08
      max: 0.08
    }
    bias_filler {
      type: "constant"
      value: 0
    }
    axis: 2
  }
}
layer {
  name: "lstm2_W_xc_x_slice"
  type: "Slice"
  bottom: "W_xc_x"
  top: "W_xc_x_1"
  slice_param {
    axis: 0
  }
}
layer {
  name: "lstm2_h_conted_0"
  type: "Scale"
  bottom: "h_0"
  bottom: "cont_1"
  top: "h_conted_0"
  scale_param {
    axis: 0
  }
}
layer {
  name: "lstm2_transform_1"
  type: "InnerProduct"
  bottom: "h_conted_0"
  top: "W_hc_h_0"
  param {
    name: "W_hc"
  }
  inner_product_param {
    num_output: 4000
    bias_term: false
    weight_filler {
      type: "uniform"
      min: -0.08
      max: 0.08
    }
    axis: 2
  }
}
layer {
  name: "lstm2_gate_input_1"
  type: "Eltwise"
  bottom: "W_hc_h_0"
  bottom: "W_xc_x_1"
  top: "gate_input_1"
  eltwise_param {
    operation: SUM
  }
}
layer {
  name: "lstm2_unit_1"
  type: "LSTMUnit"
  bottom: "c_0"
  bottom: "gate_input_1"
  bottom: "cont_1"
  top: "c_1"
  top: "h_1"
}
layer {
  name: "lstm2_"
  type: "Split"
  bottom: "c_1"
  top: "c_T"
}
layer {
  name: "lstm2_h_concat"
  type: "Concat"
  bottom: "h_1"
  top: "h"
  concat_param {
    axis: 0
  }
}
layer {
  name: "h_pseudoloss"
  type: "Reduction"
  bottom: "h"
  top: "h_pseudoloss"
  loss_weight: 1
}
I0925 22:41:19.248136  6797 layer_factory.hpp:77] Creating layer lstm2_
I0925 22:41:19.248152  6797 net.cpp:91] Creating Layer lstm2_
I0925 22:41:19.248162  6797 net.cpp:399] lstm2_ -> x
I0925 22:41:19.248178  6797 net.cpp:399] lstm2_ -> cont
I0925 22:41:19.253177  6799 net.cpp:141] Setting up lstm1_gate_input_1
I0925 22:41:19.253216  6799 net.cpp:148] Top shape: 1 1 4000 (4000)
I0925 22:41:19.253226  6799 net.cpp:156] Memory required for data: 78016
I0925 22:41:19.253237  6799 layer_factory.hpp:77] Creating layer lstm1_unit_1
I0925 22:41:19.253260  6799 net.cpp:91] Creating Layer lstm1_unit_1
I0925 22:41:19.253269  6799 net.cpp:425] lstm1_unit_1 <- c_0
I0925 22:41:19.253280  6799 net.cpp:425] lstm1_unit_1 <- gate_input_1
I0925 22:41:19.253288  6799 net.cpp:425] lstm1_unit_1 <- cont_1_lstm1_cont_slice_0_split_1
I0925 22:41:19.253300  6799 net.cpp:399] lstm1_unit_1 -> c_1
I0925 22:41:19.253316  6799 net.cpp:399] lstm1_unit_1 -> h_1
I0925 22:41:19.253332  6797 net.cpp:141] Setting up lstm2_
I0925 22:41:19.253351  6797 net.cpp:148] Top shape: 1 1 1501 (1501)
I0925 22:41:19.253362  6797 net.cpp:148] Top shape: 1 1 (1)
I0925 22:41:19.253370  6797 net.cpp:156] Memory required for data: 6008
I0925 22:41:19.253377  6797 layer_factory.hpp:77] Creating layer lstm2_
I0925 22:41:19.253396  6797 net.cpp:91] Creating Layer lstm2_
I0925 22:41:19.253412  6797 net.cpp:399] lstm2_ -> c_0
I0925 22:41:19.253429  6797 net.cpp:399] lstm2_ -> h_0
I0925 22:41:19.253468  6831 net.cpp:141] Setting up lstm1_unit_1
I0925 22:41:19.253490  6831 net.cpp:148] Top shape: 1 1 1000 (1000)
I0925 22:41:19.253501  6831 net.cpp:148] Top shape: 1 1 1000 (1000)
I0925 22:41:19.253509  6831 net.cpp:156] Memory required for data: 86016
I0925 22:41:19.253517  6831 layer_factory.hpp:77] Creating layer lstm1_
I0925 22:41:19.253515  6799 net.cpp:141] Setting up lstm1_unit_1
I0925 22:41:19.253543  6831 net.cpp:91] Creating Layer lstm1_
I0925 22:41:19.253548  6799 net.cpp:148] Top shape: 1 1 1000 (1000)
I0925 22:41:19.253553  6831 net.cpp:425] lstm1_ <- c_1
I0925 22:41:19.253559  6799 net.cpp:148] Top shape: 1 1 1000 (1000)
I0925 22:41:19.253566  6799 net.cpp:156] Memory required for data: 86016
I0925 22:41:19.253566  6831 net.cpp:399] lstm1_ -> c_T
I0925 22:41:19.253576  6799 layer_factory.hpp:77] Creating layer lstm1_
I0925 22:41:19.253587  6799 net.cpp:91] Creating Layer lstm1_
I0925 22:41:19.253594  6799 net.cpp:425] lstm1_ <- c_1
I0925 22:41:19.253595  6797 net.cpp:141] Setting up lstm2_
I0925 22:41:19.253605  6799 net.cpp:399] lstm1_ -> c_T
I0925 22:41:19.253612  6797 net.cpp:148] Top shape: 1 1 1000 (1000)
I0925 22:41:19.253623  6797 net.cpp:148] Top shape: 1 1 1000 (1000)
I0925 22:41:19.253629  6797 net.cpp:156] Memory required for data: 14008
I0925 22:41:19.253636  6797 layer_factory.hpp:77] Creating layer lstm2_cont_slice
I0925 22:41:19.253655  6797 net.cpp:91] Creating Layer lstm2_cont_slice
I0925 22:41:19.253670  6797 net.cpp:425] lstm2_cont_slice <- cont
I0925 22:41:19.253684  6797 net.cpp:399] lstm2_cont_slice -> cont_1
I0925 22:41:19.253691  6799 net.cpp:141] Setting up lstm1_
I0925 22:41:19.253706  6799 net.cpp:148] Top shape: 1 1 1000 (1000)
I0925 22:41:19.253715  6799 net.cpp:156] Memory required for data: 90016
I0925 22:41:19.253721  6799 layer_factory.hpp:77] Creating layer lstm1_h_concat
I0925 22:41:19.253738  6799 net.cpp:91] Creating Layer lstm1_h_concat
I0925 22:41:19.253746  6799 net.cpp:425] lstm1_h_concat <- h_1
I0925 22:41:19.253747  6797 net.cpp:141] Setting up lstm2_cont_slice
I0925 22:41:19.253758  6799 net.cpp:399] lstm1_h_concat -> h
I0925 22:41:19.253762  6797 net.cpp:148] Top shape: 1 1 (1)
I0925 22:41:19.253769  6797 net.cpp:156] Memory required for data: 14012
I0925 22:41:19.253777  6797 layer_factory.hpp:77] Creating layer cont_1_lstm2_cont_slice_0_split
I0925 22:41:19.253789  6797 net.cpp:91] Creating Layer cont_1_lstm2_cont_slice_0_split
I0925 22:41:19.253798  6797 net.cpp:425] cont_1_lstm2_cont_slice_0_split <- cont_1
I0925 22:41:19.253813  6797 net.cpp:399] cont_1_lstm2_cont_slice_0_split -> cont_1_lstm2_cont_slice_0_split_0
I0925 22:41:19.253828  6797 net.cpp:399] cont_1_lstm2_cont_slice_0_split -> cont_1_lstm2_cont_slice_0_split_1
I0925 22:41:19.253654  6831 net.cpp:141] Setting up lstm1_
I0925 22:41:19.253854  6799 net.cpp:141] Setting up lstm1_h_concat
I0925 22:41:19.253862  6831 net.cpp:148] Top shape: 1 1 1000 (1000)
I0925 22:41:19.253868  6799 net.cpp:148] Top shape: 1 1 1000 (1000)
I0925 22:41:19.253873  6831 net.cpp:156] Memory required for data: 90016
I0925 22:41:19.253876  6799 net.cpp:156] Memory required for data: 94016
I0925 22:41:19.253881  6831 layer_factory.hpp:77] Creating layer lstm1_h_concat
I0925 22:41:19.253885  6799 layer_factory.hpp:77] Creating layer h_pseudoloss
I0925 22:41:19.253895  6831 net.cpp:91] Creating Layer lstm1_h_concat
I0925 22:41:19.253897  6799 net.cpp:91] Creating Layer h_pseudoloss
I0925 22:41:19.253903  6831 net.cpp:425] lstm1_h_concat <- h_1
I0925 22:41:19.253904  6799 net.cpp:425] h_pseudoloss <- h
I0925 22:41:19.253916  6831 net.cpp:399] lstm1_h_concat -> h
I0925 22:41:19.253919  6799 net.cpp:399] h_pseudoloss -> h_pseudoloss
I0925 22:41:19.253973  6831 net.cpp:141] Setting up lstm1_h_concat
I0925 22:41:19.253988  6831 net.cpp:148] Top shape: 1 1 1000 (1000)
I0925 22:41:19.253994  6831 net.cpp:156] Memory required for data: 94016
I0925 22:41:19.254001  6831 layer_factory.hpp:77] Creating layer h_pseudoloss
I0925 22:41:19.254014  6831 net.cpp:91] Creating Layer h_pseudoloss
I0925 22:41:19.254021  6831 net.cpp:425] h_pseudoloss <- h
I0925 22:41:19.254032  6831 net.cpp:399] h_pseudoloss -> h_pseudoloss
I0925 22:41:19.254207  6831 net.cpp:141] Setting up h_pseudoloss
…
I0925 22:41:19.254359  6831 net.cpp:219] lstm1_ does not need backward computation.
I0925 22:41:19.254365  6831 net.cpp:261] This network produces output c_T
I0925 22:41:19.254374  6831 net.cpp:261] This network produces output h_pseudoloss
I0925 22:41:19.254397  6831 net.cpp:274] Network initialization done.
I0925 22:41:19.254456  6831 recurrent_layer.cpp:150] Adding parameter 0: W_xc
I0925 22:41:19.254464  6831 recurrent_layer.cpp:150] Adding parameter 1: b_c
I0925 22:41:19.254472  6831 recurrent_layer.cpp:150] Adding parameter 2: W_hc
I0925 22:41:19.254626  6831 net.cpp:141] Setting up lstm1
I0925 22:41:19.254642  6831 net.cpp:148] Top shape: 1 1 1000 (1000)
I0925 22:41:19.254649  6831 net.cpp:156] Memory required for data: 26408
I0925 22:41:19.254670  6831 layer_factory.hpp:77] Creating layer concat
I0925 22:41:19.254683  6831 net.cpp:91] Creating Layer concat
I0925 22:41:19.254690  6831 net.cpp:425] concat <- lstm1
I0925 22:41:19.254700  6831 net.cpp:425] concat <- embedded_input_sentence
I0925 22:41:19.254709  6831 net.cpp:425] concat <- reshaped_stage_indicator
I0925 22:41:19.254719  6831 net.cpp:399] concat -> lstm1_video_sequence
I0925 22:41:19.254765  6831 net.cpp:141] Setting up concat
I0925 22:41:19.254777  6831 net.cpp:148] Top shape: 1 1 1501 (1501)
I0925 22:41:19.254784  6831 net.cpp:156] Memory required for data: 32412
I0925 22:41:19.254791  6831 layer_factory.hpp:77] Creating layer lstm2
I0925 22:41:19.254808  6831 net.cpp:91] Creating Layer lstm2
I0925 22:41:19.254817  6831 net.cpp:425] lstm2 <- lstm1_video_sequence
I0925 22:41:19.254827  6831 net.cpp:425] lstm2 <- cont_sentence_input_1_split_1
I0925 22:41:19.254838  6831 net.cpp:399] lstm2 -> lstm2
I0925 22:41:19.254853  6831 recurrent_layer.cpp:20] Initializing recurrent layer: assuming input batch contains 1 timesteps of 1 independent streams.
I0925 22:41:19.255205  6831 net.cpp:49] Initializing net from parameters: 
layer {
  name: "lstm2_"
  type: "Input"
  top: "x"
  top: "cont"
  input_param {
    shape {
      dim: 1
      dim: 1
      dim: 1501
    }
    shape {
      dim: 1
      dim: 1
    }
  }
}
layer {
  name: "lstm2_"
  type: "Input"
  top: "c_0"
  top: "h_0"
  input_param {
    shape {
      dim: 1
      dim: 1
      dim: 1000
    }
    shape {
      dim: 1
      dim: 1
      dim: 1000
    }
  }
}
layer {
  name: "lstm2_cont_slice"
  type: "Slice"
  bottom: "cont"
  top: "cont_1"
  slice_param {
    axis: 0
  }
}
layer {
  name: "lstm2_x_transform"
  type: "InnerProduct"
  bottom: "x"
  top: "W_xc_x"
  param {
    name: "W_xc"
  }
  param {
    name: "b_c"
  }
  propagate_down: true
  inner_product_param {
    num_output: 4000
    bias_term: true
    weight_filler {
      type: "uniform"
      min: -0.08
      max: 0.08
    }
    bias_filler {
      type: "constant"
      value: 0
    }
    axis: 2
  }
}
layer {
  name: "lstm2_W_xc_x_slice"
  type: "Slice"
  bottom: "W_xc_x"
  top: "W_xc_x_1"
  slice_param {
    axis: 0
  }
}
layer {
  name: "lstm2_h_conted_0"
  type: "Scale"
  bottom: "h_0"
  bottom: "cont_1"
  top: "h_conted_0"
  scale_param {
    axis: 0
  }
}
layer {
  name: "lstm2_transform_1"
  type: "InnerProduct"
  bottom: "h_conted_0"
  top: "W_hc_h_0"
  param {
    name: "W_hc"
  }
  inner_product_param {
    num_output: 4000
    bias_term: false
    weight_filler {
      type: "uniform"
      min: -0.08
      max: 0.08
    }
    axis: 2
  }
}
layer {
  name: "lstm2_gate_input_1"
  type: "Eltwise"
  bottom: "W_hc_h_0"
  bottom: "W_xc_x_1"
  top: "gate_input_1"
  eltwise_param {
    operation: SUM
  }
}
layer {
  name: "lstm2_unit_1"
  type: "LSTMUnit"
  bottom: "c_0"
  bottom: "gate_input_1"
  bottom: "cont_1"
  top: "c_1"
  top: "h_1"
}
layer {
  name: "lstm2_"
  type: "Split"
  bottom: "c_1"
  top: "c_T"
}
layer {
  name: "lstm2_h_concat"
  type: "Concat"
  bottom: "h_1"
  top: "h"
  concat_param {
    axis: 0
  }
}
layer {
  name: "h_pseudoloss"
  type: "Reduction"
  bottom: "h"
  top: "h_pseudoloss"
  loss_weight: 1
}
I0925 22:41:19.255328  6831 layer_factory.hpp:77] Creating layer lstm2_
I0925 22:41:19.255344  6831 net.cpp:91] Creating Layer lstm2_
I0925 22:41:19.255354  6831 net.cpp:399] lstm2_ -> x
I0925 22:41:19.255370  6831 net.cpp:399] lstm2_ -> cont
I0925 22:41:19.255444  6831 net.cpp:141] Setting up lstm2_
I0925 22:41:19.255458  6831 net.cpp:148] Top shape: 1 1 1501 (1501)
I0925 22:41:19.255467  6831 net.cpp:148] Top shape: 1 1 (1)
I0925 22:41:19.255475  6831 net.cpp:156] Memory required for data: 6008
I0925 22:41:19.255482  6831 layer_factory.hpp:77] Creating layer lstm2_
I0925 22:41:19.255494  6831 net.cpp:91] Creating Layer lstm2_
I0925 22:41:19.255508  6831 net.cpp:399] lstm2_ -> c_0
I0925 22:41:19.255525  6831 net.cpp:399] lstm2_ -> h_0
I0925 22:41:19.255594  6831 net.cpp:141] Setting up lstm2_
I0925 22:41:19.255609  6831 net.cpp:148] Top shape: 1 1 1000 (1000)
I0925 22:41:19.255617  6831 net.cpp:148] Top shape: 1 1 1000 (1000)
I0925 22:41:19.255625  6831 net.cpp:156] Memory required for data: 14008
I0925 22:41:19.255632  6831 layer_factory.hpp:77] Creating layer lstm2_cont_slice
I0925 22:41:19.255645  6831 net.cpp:91] Creating Layer lstm2_cont_slice
I0925 22:41:19.255651  6831 net.cpp:425] lstm2_cont_slice <- cont
I0925 22:41:19.255661  6831 net.cpp:399] lstm2_cont_slice -> cont_1
I0925 22:41:19.255707  6831 net.cpp:141] Setting up lstm2_cont_slice
I0925 22:41:19.255719  6831 net.cpp:148] Top shape: 1 1 (1)
I0925 22:41:19.255726  6831 net.cpp:156] Memory required for data: 14012
I0925 22:41:19.255734  6831 layer_factory.hpp:77] Creating layer cont_1_lstm2_cont_slice_0_split
I0925 22:41:19.255750  6831 net.cpp:91] Creating Layer cont_1_lstm2_cont_slice_0_split
I0925 22:41:19.255759  6831 net.cpp:425] cont_1_lstm2_cont_slice_0_split <- cont_1
I0925 22:41:19.255769  6831 net.cpp:399] cont_1_lstm2_cont_slice_0_split -> cont_1_lstm2_cont_slice_0_split_0
I0925 22:41:19.255781  6831 net.cpp:399] cont_1_lstm2_cont_slice_0_split -> cont_1_lstm2_cont_slice_0_split_1
I0925 22:41:19.255846  6831 net.cpp:141] Setting up cont_1_lstm2_cont_slice_0_split
I0925 22:41:19.255859  6831 net.cpp:148] Top shape: 1 1 (1)
I0925 22:41:19.255868  6831 net.cpp:148] Top shape: 1 1 (1)
I0925 22:41:19.255875  6831 net.cpp:156] Memory required for data: 14020
I0925 22:41:19.255883  6831 layer_factory.hpp:77] Creating layer lstm2_x_transform
I0925 22:41:19.255900  6831 net.cpp:91] Creating Layer lstm2_x_transform
I0925 22:41:19.255908  6831 net.cpp:425] lstm2_x_transform <- x
I0925 22:41:19.255920  6831 net.cpp:399] lstm2_x_transform -> W_xc_x
I0925 22:41:19.280139  6799 net.cpp:141] Setting up h_pseudoloss
I0925 22:41:19.280200  6799 net.cpp:148] Top shape: (1)
I0925 22:41:19.280215  6815 net.cpp:141] Setting up lstm1_transform_1
I0925 22:41:19.280210  6799 net.cpp:151]     with loss weight 1
I0925 22:41:19.280236  6799 net.cpp:156] Memory required for data: 94020
I0925 22:41:19.280242  6815 net.cpp:148] Top shape: 1 1 4000 (4000)
I0925 22:41:19.280251  6799 net.cpp:217] h_pseudoloss needs backward computation.
I0925 22:41:19.280251  6815 net.cpp:156] Memory required for data: 62016
I0925 22:41:19.280269  6799 net.cpp:217] lstm1_h_concat needs backward computation.
I0925 22:41:19.280280  6799 net.cpp:219] lstm1_ does not need backward computation.
I0925 22:41:19.280288  6815 layer_factory.hpp:77] Creating layer lstm1_gate_input_1
…
I0925 22:41:19.280424  6799 net.cpp:219] lstm1_h_conted_0 does not need backward computation.
I0925 22:41:19.280436  6799 net.cpp:217] lstm1_W_xc_x_slice needs backward computation.
I0925 22:41:19.280444  6799 net.cpp:217] lstm1_x_transform needs backward computation.
I0925 22:41:19.280441  6793 net.cpp:141] Setting up lstm1_transform_1
I0925 22:41:19.280453  6799 net.cpp:219] cont_1_lstm1_cont_slice_0_split does not need backward computation.
I0925 22:41:19.280462  6799 net.cpp:219] lstm1_cont_slice does not need backward computation.
I0925 22:41:19.280472  6799 net.cpp:219] lstm1_ does not need backward computation.
I0925 22:41:19.280464  6793 net.cpp:148] Top shape: 1 1 4000 (4000)
I0925 22:41:19.280479  6799 net.cpp:219] lstm1_ does not need backward computation.
I0925 22:41:19.280488  6799 net.cpp:261] This network produces output c_T
I0925 22:41:19.280486  6793 net.cpp:156] Memory required for data: 62016
I0925 22:41:19.280505  6799 net.cpp:261] This network produces output h_pseudoloss
I0925 22:41:19.280522  6793 layer_factory.hpp:77] Creating layer lstm1_gate_input_1
I0925 22:41:19.280535  6799 net.cpp:274] Network initialization done.
I0925 22:41:19.280550  6793 net.cpp:91] Creating Layer lstm1_gate_input_1
I0925 22:41:19.280563  6793 net.cpp:425] lstm1_gate_input_1 <- W_hc_h_0
I0925 22:41:19.280576  6793 net.cpp:425] lstm1_gate_input_1 <- W_xc_x_1
I0925 22:41:19.280578  6815 net.cpp:141] Setting up lstm1_gate_input_1
I0925 22:41:19.280592  6793 net.cpp:399] lstm1_gate_input_1 -> gate_input_1
I0925 22:41:19.280594  6815 net.cpp:148] Top shape: 1 1 4000 (4000)
I0925 22:41:19.280619  6797 net.cpp:141] Setting up cont_1_lstm2_cont_slice_0_split
I0925 22:41:19.280619  6815 net.cpp:156] Memory required for data: 78016
I0925 22:41:19.280656  6797 net.cpp:148] Top shape: 1 1 (1)
I0925 22:41:19.280656  6815 layer_factory.hpp:77] Creating layer lstm1_unit_1
I0925 22:41:19.280674  6797 net.cpp:148] Top shape: 1 1 (1)
I0925 22:41:19.280683  6797 net.cpp:156] Memory required for data: 14020
I0925 22:41:19.280684  6815 net.cpp:91] Creating Layer lstm1_unit_1
I0925 22:41:19.280697  6797 layer_factory.hpp:77] Creating layer lstm2_x_transform
I0925 22:41:19.280700  6815 net.cpp:425] lstm1_unit_1 <- c_0
I0925 22:41:19.280710  6815 net.cpp:425] lstm1_unit_1 <- gate_input_1
I0925 22:41:19.280719  6815 net.cpp:425] lstm1_unit_1 <- cont_1_lstm1_cont_slice_0_split_1
I0925 22:41:19.280726  6797 net.cpp:91] Creating Layer lstm2_x_transform
I0925 22:41:19.280730  6815 net.cpp:399] lstm1_unit_1 -> c_1
I0925 22:41:19.280737  6797 net.cpp:425] lstm2_x_transform <- x
I0925 22:41:19.280743  6815 net.cpp:399] lstm1_unit_1 -> h_1
I0925 22:41:19.280750  6793 net.cpp:141] Setting up lstm1_gate_input_1
I0925 22:41:19.280755  6797 net.cpp:399] lstm2_x_transform -> W_xc_x
I0925 22:41:19.280778  6793 net.cpp:148] Top shape: 1 1 4000 (4000)
I0925 22:41:19.280789  6793 net.cpp:156] Memory required for data: 78016
I0925 22:41:19.280799  6793 layer_factory.hpp:77] Creating layer lstm1_unit_1
I0925 22:41:19.280813  6793 net.cpp:91] Creating Layer lstm1_unit_1
I0925 22:41:19.280824  6793 net.cpp:425] lstm1_unit_1 <- c_0
I0925 22:41:19.280835  6793 net.cpp:425] lstm1_unit_1 <- gate_input_1
I0925 22:41:19.280846  6793 net.cpp:425] lstm1_unit_1 <- cont_1_lstm1_cont_slice_0_split_1
I0925 22:41:19.280884  6793 net.cpp:399] lstm1_unit_1 -> c_1
I0925 22:41:19.280890  6811 net.cpp:141] Setting up lstm1_x_transform
I0925 22:41:19.280905  6793 net.cpp:399] lstm1_unit_1 -> h_1
I0925 22:41:19.280935  6811 net.cpp:148] Top shape: 1 1 4000 (4000)
I0925 22:41:19.280845  6799 recurrent_layer.cpp:150] Adding parameter 0: W_xc
I0925 22:41:19.280943  6811 net.cpp:156] Memory required for data: 26016
I0925 22:41:19.280956  6799 recurrent_layer.cpp:150] Adding parameter 1: b_c
I0925 22:41:19.280967  6799 recurrent_layer.cpp:150] Adding parameter 2: W_hc
I0925 22:41:19.280969  6811 layer_factory.hpp:77] Creating layer lstm1_W_xc_x_slice
I0925 22:41:19.280990  6811 net.cpp:91] Creating Layer lstm1_W_xc_x_slice
I0925 22:41:19.281002  6811 net.cpp:425] lstm1_W_xc_x_slice <- W_xc_x
I0925 22:41:19.281016  6811 net.cpp:399] lstm1_W_xc_x_slice -> W_xc_x_1
I0925 22:41:19.281040  6815 net.cpp:141] Setting up lstm1_unit_1
I0925 22:41:19.281059  6815 net.cpp:148] Top shape: 1 1 1000 (1000)
I0925 22:41:19.281067  6815 net.cpp:148] Top shape: 1 1 1000 (1000)
I0925 22:41:19.281075  6815 net.cpp:156] Memory required for data: 86016
I0925 22:41:19.281082  6815 layer_factory.hpp:77] Creating layer lstm1_
I0925 22:41:19.281096  6815 net.cpp:91] Creating Layer lstm1_
I0925 22:41:19.281105  6815 net.cpp:425] lstm1_ <- c_1
I0925 22:41:19.281116  6815 net.cpp:399] lstm1_ -> c_T
I0925 22:41:19.281172  6793 net.cpp:141] Setting up lstm1_unit_1
I0925 22:41:19.281191  6793 net.cpp:148] Top shape: 1 1 1000 (1000)
I0925 22:41:19.281205  6793 net.cpp:148] Top shape: 1 1 1000 (1000)
I0925 22:41:19.281214  6793 net.cpp:156] Memory required for data: 86016
I0925 22:41:19.281224  6793 layer_factory.hpp:77] Creating layer lstm1_
I0925 22:41:19.281244  6793 net.cpp:91] Creating Layer lstm1_
I0925 22:41:19.281256  6793 net.cpp:425] lstm1_ <- c_1
I0925 22:41:19.281271  6793 net.cpp:399] lstm1_ -> c_T
I0925 22:41:19.296561  6811 net.cpp:141] Setting up lstm1_W_xc_x_slice
I0925 22:41:19.296613  6811 net.cpp:148] Top shape: 1 1 4000 (4000)
I0925 22:41:19.296623  6811 net.cpp:156] Memory required for data: 42016
I0925 22:41:19.296638  6811 layer_factory.hpp:77] Creating layer lstm1_h_conted_0
I0925 22:41:19.296674  6811 net.cpp:91] Creating Layer lstm1_h_conted_0
I0925 22:41:19.296687  6811 net.cpp:425] lstm1_h_conted_0 <- h_0
I0925 22:41:19.296699  6811 net.cpp:425] lstm1_h_conted_0 <- cont_1_lstm1_cont_slice_0_split_0
I0925 22:41:19.296707  6811 net.cpp:399] lstm1_h_conted_0 -> h_conted_0
I0925 22:41:19.296769  6815 net.cpp:141] Setting up lstm1_
I0925 22:41:19.296830  6815 net.cpp:148] Top shape: 1 1 1000 (1000)
I0925 22:41:19.296844  6815 net.cpp:156] Memory required for data: 90016
I0925 22:41:19.296859  6815 layer_factory.hpp:77] Creating layer lstm1_h_concat
I0925 22:41:19.296895  6815 net.cpp:91] Creating Layer lstm1_h_concat
I0925 22:41:19.296907  6811 net.cpp:141] Setting up lstm1_h_conted_0
I0925 22:41:19.296911  6815 net.cpp:425] lstm1_h_concat <- h_1
I0925 22:41:19.296936  6811 net.cpp:148] Top shape: 1 1 1000 (1000)
I0925 22:41:19.296953  6811 net.cpp:156] Memory required for data: 46016
I0925 22:41:19.296960  6811 layer_factory.hpp:77] Creating layer lstm1_transform_1
I0925 22:41:19.296962  6815 net.cpp:399] lstm1_h_concat -> h
I0925 22:41:19.296974  6793 net.cpp:141] Setting up lstm1_
I0925 22:41:19.297003  6793 net.cpp:148] Top shape: 1 1 1000 (1000)
I0925 22:41:19.297016  6793 net.cpp:156] Memory required for data: 90016
I0925 22:41:19.297027  6793 layer_factory.hpp:77] Creating layer lstm1_h_concat
I0925 22:41:19.297044  6793 net.cpp:91] Creating Layer lstm1_h_concat
I0925 22:41:19.297056  6793 net.cpp:425] lstm1_h_concat <- h_1
I0925 22:41:19.297061  6815 net.cpp:141] Setting up lstm1_h_concat
I0925 22:41:19.297080  6793 net.cpp:399] lstm1_h_concat -> h
I0925 22:41:19.297154  6793 net.cpp:141] Setting up lstm1_h_concat
I0925 22:41:19.297173  6793 net.cpp:148] Top shape: 1 1 1000 (1000)
I0925 22:41:19.297183  6793 net.cpp:156] Memory required for data: 94016
I0925 22:41:19.297191  6793 layer_factory.hpp:77] Creating layer h_pseudoloss
I0925 22:41:19.297209  6793 net.cpp:91] Creating Layer h_pseudoloss
I0925 22:41:19.297219  6793 net.cpp:425] h_pseudoloss <- h
I0925 22:41:19.297235  6793 net.cpp:399] h_pseudoloss -> h_pseudoloss
I0925 22:41:19.297392  6793 net.cpp:141] Setting up h_pseudoloss
…
I0925 22:41:19.297591  6793 net.cpp:219] lstm1_ does not need backward computation.
I0925 22:41:19.297600  6793 net.cpp:261] This network produces output c_T
I0925 22:41:19.297610  6793 net.cpp:261] This network produces output h_pseudoloss
I0925 22:41:19.297634  6793 net.cpp:274] Network initialization done.
I0925 22:41:19.297718  6793 recurrent_layer.cpp:150] Adding parameter 0: W_xc
I0925 22:41:19.297734  6793 recurrent_layer.cpp:150] Adding parameter 1: b_c
I0925 22:41:19.297744  6793 recurrent_layer.cpp:150] Adding parameter 2: W_hc
I0925 22:41:19.297914  6793 net.cpp:141] Setting up lstm1
I0925 22:41:19.297935  6793 net.cpp:148] Top shape: 1 1 1000 (1000)
I0925 22:41:19.297943  6793 net.cpp:156] Memory required for data: 26408
I0925 22:41:19.297971  6793 layer_factory.hpp:77] Creating layer concat
I0925 22:41:19.297989  6793 net.cpp:91] Creating Layer concat
I0925 22:41:19.298002  6793 net.cpp:425] concat <- lstm1
I0925 22:41:19.298014  6793 net.cpp:425] concat <- embedded_input_sentence
I0925 22:41:19.298027  6793 net.cpp:425] concat <- reshaped_stage_indicator
I0925 22:41:19.298041  6793 net.cpp:399] concat -> lstm1_video_sequence
I0925 22:41:19.298097  6793 net.cpp:141] Setting up concat
I0925 22:41:19.298115  6793 net.cpp:148] Top shape: 1 1 1501 (1501)
I0925 22:41:19.298125  6793 net.cpp:156] Memory required for data: 32412
I0925 22:41:19.298135  6793 layer_factory.hpp:77] Creating layer lstm2
I0925 22:41:19.298156  6793 net.cpp:91] Creating Layer lstm2
I0925 22:41:19.298168  6793 net.cpp:425] lstm2 <- lstm1_video_sequence
I0925 22:41:19.298180  6793 net.cpp:425] lstm2 <- cont_sentence_input_1_split_1
I0925 22:41:19.298197  6793 net.cpp:399] lstm2 -> lstm2
I0925 22:41:19.298216  6793 recurrent_layer.cpp:20] Initializing recurrent layer: assuming input batch contains 1 timesteps of 1 independent streams.
I0925 22:41:19.297081  6815 net.cpp:148] Top shape: 1 1 1000 (1000)
I0925 22:41:19.298681  6815 net.cpp:156] Memory required for data: 94016
I0925 22:41:19.298693  6815 layer_factory.hpp:77] Creating layer h_pseudoloss
I0925 22:41:19.298708  6815 net.cpp:91] Creating Layer h_pseudoloss
I0925 22:41:19.298717  6815 net.cpp:425] h_pseudoloss <- h
I0925 22:41:19.298720  6841 net.cpp:141] Setting up embedding
I0925 22:41:19.298740  6841 net.cpp:148] Top shape: 1 1 500 (500)
I0925 22:41:19.298768  6841 net.cpp:156] Memory required for data: 22408
I0925 22:41:19.298787  6841 layer_factory.hpp:77] Creating layer lstm1
I0925 22:41:19.298802  6841 net.cpp:91] Creating Layer lstm1
I0925 22:41:19.298811  6841 net.cpp:425] lstm1 <- embedded_input_frames
I0925 22:41:19.298821  6841 net.cpp:425] lstm1 <- cont_sentence_input_1_split_0
I0925 22:41:19.298859  6841 net.cpp:399] lstm1 -> lstm1
I0925 22:41:19.298879  6841 recurrent_layer.cpp:20] Initializing recurrent layer: assuming input batch contains 1 timesteps of 1 independent streams.
I0925 22:41:19.298897  6799 net.cpp:141] Setting up lstm1
I0925 22:41:19.298918  6799 net.cpp:148] Top shape: 1 1 1000 (1000)
I0925 22:41:19.298926  6799 net.cpp:156] Memory required for data: 26408
I0925 22:41:19.298949  6799 layer_factory.hpp:77] Creating layer concat
I0925 22:41:19.298964  6799 net.cpp:91] Creating Layer concat
I0925 22:41:19.298974  6799 net.cpp:425] concat <- lstm1
I0925 22:41:19.298985  6799 net.cpp:425] concat <- embedded_input_sentence
I0925 22:41:19.298993  6799 net.cpp:425] concat <- reshaped_stage_indicator
I0925 22:41:19.299003  6799 net.cpp:399] concat -> lstm1_video_sequence
I0925 22:41:19.299423  6799 net.cpp:141] Setting up concat
I0925 22:41:19.299439  6799 net.cpp:148] Top shape: 1 1 1501 (1501)
I0925 22:41:19.299448  6799 net.cpp:156] Memory required for data: 32412
I0925 22:41:19.299455  6799 layer_factory.hpp:77] Creating layer lstm2
I0925 22:41:19.299494  6799 net.cpp:91] Creating Layer lstm2
I0925 22:41:19.299501  6799 net.cpp:425] lstm2 <- lstm1_video_sequence
I0925 22:41:19.299511  6799 net.cpp:425] lstm2 <- cont_sentence_input_1_split_1
I0925 22:41:19.299523  6799 net.cpp:399] lstm2 -> lstm2
I0925 22:41:19.299538  6799 recurrent_layer.cpp:20] Initializing recurrent layer: assuming input batch contains 1 timesteps of 1 independent streams.
I0925 22:41:19.298740  6815 net.cpp:399] h_pseudoloss -> h_pseudoloss
I0925 22:41:19.296980  6811 net.cpp:91] Creating Layer lstm1_transform_1
I0925 22:41:19.302767  6811 net.cpp:425] lstm1_transform_1 <- h_conted_0
I0925 22:41:19.302810  6811 net.cpp:399] lstm1_transform_1 -> W_hc_h_0
I0925 22:41:19.302914  6799 net.cpp:49] Initializing net from parameters: 
layer {
  name: "lstm2_"
  type: "Input"
  top: "x"
  top: "cont"
  input_param {
    shape {
      dim: 1
      dim: 1
      dim: 1501
    }
    shape {
      dim: 1
      dim: 1
    }
  }
}
layer {
  name: "lstm2_"
  type: "Input"
  top: "c_0"
  top: "h_0"
  input_param {
    shape {
      dim: 1
      dim: 1
      dim: 1000
    }
    shape {
      dim: 1
      dim: 1
      dim: 1000
    }
  }
}
layer {
  name: "lstm2_cont_slice"
  type: "Slice"
  bottom: "cont"
  top: "cont_1"
  slice_param {
    axis: 0
  }
}
layer {
  name: "lstm2_x_transform"
  type: "InnerProduct"
  bottom: "x"
  top: "W_xc_x"
  param {
    name: "W_xc"
  }
  param {
    name: "b_c"
  }
  propagate_down: true
  inner_product_param {
    num_output: 4000
    bias_term: true
    weight_filler {
      type: "uniform"
      min: -0.08
      max: 0.08
    }
    bias_filler {
      type: "constant"
      value: 0
    }
    axis: 2
  }
}
layer {
  name: "lstm2_W_xc_x_slice"
  type: "Slice"
  bottom: "W_xc_x"
  top: "W_xc_x_1"
  slice_param {
    axis: 0
  }
}
layer {
  name: "lstm2_h_conted_0"
  type: "Scale"
  bottom: "h_0"
  bottom: "cont_1"
  top: "h_conted_0"
  scale_param {
    axis: 0
  }
}
layer {
  name: "lstm2_transform_1"
  type: "InnerProduct"
  bottom: "h_conted_0"
  top: "W_hc_h_0"
  param {
    name: "W_hc"
  }
  inner_product_param {
    num_output: 4000
    bias_term: false
    weight_filler {
      type: "uniform"
      min: -0.08
      max: 0.08
    }
    axis: 2
  }
}
layer {
  name: "lstm2_gate_input_1"
  type: "Eltwise"
  bottom: "W_hc_h_0"
  bottom: "W_xc_x_1"
  top: "gate_input_1"
  eltwise_param {
    operation: SUM
  }
}
layer {
  name: "lstm2_unit_1"
  type: "LSTMUnit"
  bottom: "c_0"
  bottom: "gate_input_1"
  bottom: "cont_1"
  top: "c_1"
  top: "h_1"
}
layer {
  name: "lstm2_"
  type: "Split"
  bottom: "c_1"
  top: "c_T"
}
layer {
  name: "lstm2_h_concat"
  type: "Concat"
  bottom: "h_1"
  top: "h"
  concat_param {
    axis: 0
  }
}
layer {
  name: "h_pseudoloss"
  type: "Reduction"
  bottom: "h"
  top: "h_pseudoloss"
  loss_weight: 1
}
I0925 22:41:19.302959  6793 net.cpp:49] Initializing net from parameters: 
layer {
  name: "lstm2_"
  type: "Input"
  top: "x"
  top: "cont"
  input_param {
    shape {
      dim: 1
      dim: 1
      dim: 1501
    }
    shape {
      dim: 1
      dim: 1
    }
  }
}
layer {
  name: "lstm2_"
  type: "Input"
  top: "c_0"
  top: "h_0"
  input_param {
    shape {
      dim: 1
      dim: 1
      dim: 1000
    }
    shape {
      dim: 1
      dim: 1
      dim: 1000
    }
  }
}
layer {
  name: "lstm2_cont_slice"
  type: "Slice"
  bottom: "cont"
  top: "cont_1"
  slice_param {
    axis: 0
  }
}
layer {
  name: "lstm2_x_transform"
  type: "InnerProduct"
  bottom: "x"
  top: "W_xc_x"
  param {
    name: "W_xc"
  }
  param {
    name: "b_c"
  }
  propagate_down: true
  inner_product_param {
    num_output: 4000
    bias_term: true
    weight_filler {
      type: "uniform"
      min: -0.08
      max: 0.08
    }
    bias_filler {
      type: "constant"
      value: 0
    }
    axis: 2
  }
}
layer {
  name: "lstm2_W_xc_x_slice"
  type: "Slice"
  bottom: "W_xc_x"
  top: "W_xc_x_1"
  slice_param {
    axis: 0
  }
}
layer {
  name: "lstm2_h_conted_0"
  type: "Scale"
  bottom: "h_0"
  bottom: "cont_1"
  top: "h_conted_0"
  scale_param {
    axis: 0
  }
}
layer {
  name: "lstm2_transform_1"
  type: "InnerProduct"
  bottom: "h_conted_0"
  top: "W_hc_h_0"
  param {
    name: "W_hc"
  }
  inner_product_param {
    num_output: 4000
    bias_term: false
    weight_filler {
      type: "uniform"
      min: -0.08
      max: 0.08
    }
    axis: 2
  }
}
layer {
  name: "lstm2_gate_input_1"
  type: "Eltwise"
  bottom: "W_hc_h_0"
  bottom: "W_xc_x_1"
  top: "gate_input_1"
  eltwise_param {
    operation: SUM
  }
}
layer {
  name: "lstm2_unit_1"
  type: "LSTMUnit"
  bottom: "c_0"
  bottom: "gate_input_1"
  bottom: "cont_1"
  top: "c_1"
  top: "h_1"
}
layer {
  name: "lstm2_"
  type: "Split"
  bottom: "c_1"
  top: "c_T"
}
layer {
  name: "lstm2_h_concat"
  type: "Concat"
  bottom: "h_1"
  top: "h"
  concat_param {
    axis: 0
  }
}
layer {
  name: "h_pseudoloss"
  type: "Reduction"
  bottom: "h"
  top: "h_pseudoloss"
  loss_weight: 1
}
I0925 22:41:19.303846  6793 layer_factory.hpp:77] Creating layer lstm2_
I0925 22:41:19.303854  6799 layer_factory.hpp:77] Creating layer lstm2_
I0925 22:41:19.303875  6793 net.cpp:91] Creating Layer lstm2_
I0925 22:41:19.303876  6799 net.cpp:91] Creating Layer lstm2_
I0925 22:41:19.303900  6793 net.cpp:399] lstm2_ -> x
I0925 22:41:19.303902  6841 net.cpp:49] Initializing net from parameters: 
layer {
  name: "lstm1_"
  type: "Input"
  top: "x"
  top: "cont"
  input_param {
    shape {
      dim: 1
      dim: 1
      dim: 500
    }
    shape {
      dim: 1
      dim: 1
    }
  }
}
layer {
  name: "lstm1_"
  type: "Input"
  top: "c_0"
  top: "h_0"
  input_param {
    shape {
      dim: 1
      dim: 1
      dim: 1000
    }
    shape {
      dim: 1
      dim: 1
      dim: 1000
    }
  }
}
layer {
  name: "lstm1_cont_slice"
  type: "Slice"
  bottom: "cont"
  top: "cont_1"
  slice_param {
    axis: 0
  }
}
layer {
  name: "lstm1_x_transform"
  type: "InnerProduct"
  bottom: "x"
  top: "W_xc_x"
  param {
    name: "W_xc"
  }
  param {
    name: "b_c"
  }
  propagate_down: true
  inner_product_param {
    num_output: 4000
    bias_term: true
    weight_filler {
      type: "uniform"
      min: -0.08
      max: 0.08
    }
    bias_filler {
      type: "constant"
      value: 0
    }
    axis: 2
  }
}
layer {
  name: "lstm1_W_xc_x_slice"
  type: "Slice"
  bottom: "W_xc_x"
  top: "W_xc_x_1"
  slice_param {
    axis: 0
  }
}
layer {
  name: "lstm1_h_conted_0"
  type: "Scale"
  bottom: "h_0"
  bottom: "cont_1"
  top: "h_conted_0"
  scale_param {
    axis: 0
  }
}
layer {
  name: "lstm1_transform_1"
  type: "InnerProduct"
  bottom: "h_conted_0"
  top: "W_hc_h_0"
  param {
    name: "W_hc"
  }
  inner_product_param {
    num_output: 4000
    bias_term: false
    weight_filler {
      type: "uniform"
      min: -0.08
      max: 0.08
    }
    axis: 2
  }
}
layer {
  name: "lstm1_gate_input_1"
  type: "Eltwise"
  bottom: "W_hc_h_0"
  bottom: "W_xc_x_1"
  top: "gate_input_1"
  eltwise_param {
    operation: SUM
  }
}
layer {
  name: "lstm1_unit_1"
  type: "LSTMUnit"
  bottom: "c_0"
  bottom: "gate_input_1"
  bottom: "cont_1"
  top: "c_1"
  top: "h_1"
}
layer {
  name: "lstm1_"
  type: "Split"
  bottom: "c_1"
  top: "c_T"
}
layer {
  name: "lstm1_h_concat"
  type: "Concat"
  bottom: "h_1"
  top: "h"
  concat_param {
    axis: 0
  }
}
layer {
  name: "h_pseudoloss"
  type: "Reduction"
  bottom: "h"
  top: "h_pseudoloss"
  loss_weight: 1
}
I0925 22:41:19.303902  6799 net.cpp:399] lstm2_ -> x
I0925 22:41:19.303936  6793 net.cpp:399] lstm2_ -> cont
I0925 22:41:19.303944  6799 net.cpp:399] lstm2_ -> cont
I0925 22:41:19.304915  6841 layer_factory.hpp:77] Creating layer lstm1_
I0925 22:41:19.304941  6841 net.cpp:91] Creating Layer lstm1_
I0925 22:41:19.304955  6841 net.cpp:399] lstm1_ -> x
I0925 22:41:19.304975  6841 net.cpp:399] lstm1_ -> cont
…
I0925 22:41:19.314476  6815 net.cpp:219] lstm1_ does not need backward computation.
I0925 22:41:19.314481  6815 net.cpp:261] This network produces output c_T
I0925 22:41:19.314491  6815 net.cpp:261] This network produces output h_pseudoloss
I0925 22:41:19.314520  6815 net.cpp:274] Network initialization done.
I0925 22:41:19.314616  6815 recurrent_layer.cpp:150] Adding parameter 0: W_xc
I0925 22:41:19.314630  6815 recurrent_layer.cpp:150] Adding parameter 1: b_c
I0925 22:41:19.314637  6815 recurrent_layer.cpp:150] Adding parameter 2: W_hc
I0925 22:41:19.314796  6815 net.cpp:141] Setting up lstm1
I0925 22:41:19.314815  6815 net.cpp:148] Top shape: 1 1 1000 (1000)
I0925 22:41:19.314822  6815 net.cpp:156] Memory required for data: 26408
I0925 22:41:19.314846  6815 layer_factory.hpp:77] Creating layer concat
I0925 22:41:19.314867  6815 net.cpp:91] Creating Layer concat
I0925 22:41:19.314878  6815 net.cpp:425] concat <- lstm1
I0925 22:41:19.314889  6815 net.cpp:425] concat <- embedded_input_sentence
I0925 22:41:19.314899  6815 net.cpp:425] concat <- reshaped_stage_indicator
I0925 22:41:19.314911  6815 net.cpp:399] concat -> lstm1_video_sequence
I0925 22:41:19.314970  6815 net.cpp:141] Setting up concat
I0925 22:41:19.314983  6815 net.cpp:148] Top shape: 1 1 1501 (1501)
I0925 22:41:19.314990  6815 net.cpp:156] Memory required for data: 32412
I0925 22:41:19.314998  6815 layer_factory.hpp:77] Creating layer lstm2
I0925 22:41:19.315018  6815 net.cpp:91] Creating Layer lstm2
I0925 22:41:19.315027  6815 net.cpp:425] lstm2 <- lstm1_video_sequence
I0925 22:41:19.315037  6815 net.cpp:425] lstm2 <- cont_sentence_input_1_split_1
I0925 22:41:19.315047  6815 net.cpp:399] lstm2 -> lstm2
I0925 22:41:19.315063  6815 recurrent_layer.cpp:20] Initializing recurrent layer: assuming input batch contains 1 timesteps of 1 independent streams.
I0925 22:41:19.315443  6815 net.cpp:49] Initializing net from parameters: 
layer {
  name: "lstm2_"
  type: "Input"
  top: "x"
  top: "cont"
  input_param {
    shape {
      dim: 1
      dim: 1
      dim: 1501
    }
    shape {
      dim: 1
      dim: 1
    }
  }
}
layer {
  name: "lstm2_"
  type: "Input"
  top: "c_0"
  top: "h_0"
  input_param {
    shape {
      dim: 1
      dim: 1
      dim: 1000
    }
    shape {
      dim: 1
      dim: 1
      dim: 1000
    }
  }
}
layer {
  name: "lstm2_cont_slice"
  type: "Slice"
  bottom: "cont"
  top: "cont_1"
  slice_param {
    axis: 0
  }
}
layer {
  name: "lstm2_x_transform"
  type: "InnerProduct"
  bottom: "x"
  top: "W_xc_x"
  param {
    name: "W_xc"
  }
  param {
    name: "b_c"
  }
  propagate_down: true
  inner_product_param {
    num_output: 4000
    bias_term: true
    weight_filler {
      type: "uniform"
      min: -0.08
      max: 0.08
    }
    bias_filler {
      type: "constant"
      value: 0
    }
    axis: 2
  }
}
layer {
  name: "lstm2_W_xc_x_slice"
  type: "Slice"
  bottom: "W_xc_x"
  top: "W_xc_x_1"
  slice_param {
    axis: 0
  }
}
layer {
  name: "lstm2_h_conted_0"
  type: "Scale"
  bottom: "h_0"
  bottom: "cont_1"
  top: "h_conted_0"
  scale_param {
    axis: 0
  }
}
layer {
  name: "lstm2_transform_1"
  type: "InnerProduct"
  bottom: "h_conted_0"
  top: "W_hc_h_0"
  param {
    name: "W_hc"
  }
  inner_product_param {
    num_output: 4000
    bias_term: false
    weight_filler {
      type: "uniform"
      min: -0.08
      max: 0.08
    }
    axis: 2
  }
}
layer {
  name: "lstm2_gate_input_1"
  type: "Eltwise"
  bottom: "W_hc_h_0"
  bottom: "W_xc_x_1"
  top: "gate_input_1"
  eltwise_param {
    operation: SUM
  }
}
layer {
  name: "lstm2_unit_1"
  type: "LSTMUnit"
  bottom: "c_0"
  bottom: "gate_input_1"
  bottom: "cont_1"
  top: "c_1"
  top: "h_1"
}
layer {
  name: "lstm2_"
  type: "Split"
  bottom: "c_1"
  top: "c_T"
}
layer {
  name: "lstm2_h_concat"
  type: "Concat"
  bottom: "h_1"
  top: "h"
  concat_param {
    axis: 0
  }
}
layer {
  name: "h_pseudoloss"
  type: "Reduction"
  bottom: "h"
  top: "h_pseudoloss"
  loss_weight: 1
}
I0925 22:41:19.315579  6815 layer_factory.hpp:77] Creating layer lstm2_
I0925 22:41:19.315601  6815 net.cpp:91] Creating Layer lstm2_
I0925 22:41:19.315610  6815 net.cpp:399] lstm2_ -> x
I0925 22:41:19.315628  6815 net.cpp:399] lstm2_ -> cont
I0925 22:41:19.315703  6815 net.cpp:141] Setting up lstm2_
I0925 22:41:19.315719  6815 net.cpp:148] Top shape: 1 1 1501 (1501)
I0925 22:41:19.315731  6815 net.cpp:148] Top shape: 1 1 (1)
I0925 22:41:19.315737  6815 net.cpp:156] Memory required for data: 6008
I0925 22:41:19.315743  6815 layer_factory.hpp:77] Creating layer lstm2_
I0925 22:41:19.315757  6815 net.cpp:91] Creating Layer lstm2_
I0925 22:41:19.315768  6815 net.cpp:399] lstm2_ -> c_0
I0925 22:41:19.315784  6815 net.cpp:399] lstm2_ -> h_0
I0925 22:41:19.315858  6815 net.cpp:141] Setting up lstm2_
I0925 22:41:19.315873  6815 net.cpp:148] Top shape: 1 1 1000 (1000)
I0925 22:41:19.315883  6815 net.cpp:148] Top shape: 1 1 1000 (1000)
I0925 22:41:19.315891  6815 net.cpp:156] Memory required for data: 14008
I0925 22:41:19.315897  6815 layer_factory.hpp:77] Creating layer lstm2_cont_slice
I0925 22:41:19.315912  6815 net.cpp:91] Creating Layer lstm2_cont_slice
I0925 22:41:19.315922  6815 net.cpp:425] lstm2_cont_slice <- cont
I0925 22:41:19.315939  6815 net.cpp:399] lstm2_cont_slice -> cont_1
I0925 22:41:19.315990  6815 net.cpp:141] Setting up lstm2_cont_slice
I0925 22:41:19.316004  6815 net.cpp:148] Top shape: 1 1 (1)
I0925 22:41:19.316011  6815 net.cpp:156] Memory required for data: 14012
I0925 22:41:19.316020  6815 layer_factory.hpp:77] Creating layer cont_1_lstm2_cont_slice_0_split
I0925 22:41:19.316030  6815 net.cpp:91] Creating Layer cont_1_lstm2_cont_slice_0_split
I0925 22:41:19.316038  6815 net.cpp:425] cont_1_lstm2_cont_slice_0_split <- cont_1
I0925 22:41:19.316048  6815 net.cpp:399] cont_1_lstm2_cont_slice_0_split -> cont_1_lstm2_cont_slice_0_split_0
I0925 22:41:19.316061  6815 net.cpp:399] cont_1_lstm2_cont_slice_0_split -> cont_1_lstm2_cont_slice_0_split_1
I0925 22:41:19.316189  6799 net.cpp:141] Setting up lstm2_
I0925 22:41:19.316210  6799 net.cpp:148] Top shape: 1 1 1501 (1501)
I0925 22:41:19.316222  6799 net.cpp:148] Top shape: 1 1 (1)
I0925 22:41:19.316231  6799 net.cpp:156] Memory required for data: 6008
I0925 22:41:19.316232  6803 net.cpp:141] Setting up embedding
I0925 22:41:19.316239  6799 layer_factory.hpp:77] Creating layer lstm2_
I0925 22:41:19.316256  6799 net.cpp:91] Creating Layer lstm2_
I0925 22:41:19.316269  6799 net.cpp:399] lstm2_ -> c_0
I0925 22:41:19.316288  6799 net.cpp:399] lstm2_ -> h_0
I0925 22:41:19.316298  6803 net.cpp:148] Top shape: 1 1 500 (500)
I0925 22:41:19.316309  6803 net.cpp:156] Memory required for data: 22408
I0925 22:41:19.316326  6803 layer_factory.hpp:77] Creating layer lstm1
I0925 22:41:19.316344  6803 net.cpp:91] Creating Layer lstm1
I0925 22:41:19.316354  6803 net.cpp:425] lstm1 <- embedded_input_frames
I0925 22:41:19.316350  6793 net.cpp:141] Setting up lstm2_
I0925 22:41:19.316365  6803 net.cpp:425] lstm1 <- cont_sentence_input_1_split_0
I0925 22:41:19.316375  6793 net.cpp:148] Top shape: 1 1 1501 (1501)
I0925 22:41:19.316381  6803 net.cpp:399] lstm1 -> lstm1
I0925 22:41:19.316390  6793 net.cpp:148] Top shape: 1 1 (1)
I0925 22:41:19.316396  6803 recurrent_layer.cpp:20] Initializing recurrent layer: assuming input batch contains 1 timesteps of 1 independent streams.
I0925 22:41:19.316398  6793 net.cpp:156] Memory required for data: 6008
I0925 22:41:19.316409  6793 layer_factory.hpp:77] Creating layer lstm2_
I0925 22:41:19.316428  6793 net.cpp:91] Creating Layer lstm2_
I0925 22:41:19.316448  6793 net.cpp:399] lstm2_ -> c_0
I0925 22:41:19.316471  6793 net.cpp:399] lstm2_ -> h_0
I0925 22:41:19.316488  6841 net.cpp:141] Setting up lstm1_
I0925 22:41:19.316570  6841 net.cpp:148] Top shape: 1 1 500 (500)
I0925 22:41:19.316583  6841 net.cpp:148] Top shape: 1 1 (1)
I0925 22:41:19.316591  6841 net.cpp:156] Memory required for data: 2004
I0925 22:41:19.316601  6841 layer_factory.hpp:77] Creating layer lstm1_
I0925 22:41:19.316638  6815 net.cpp:141] Setting up cont_1_lstm2_cont_slice_0_split
I0925 22:41:19.316658  6815 net.cpp:148] Top shape: 1 1 (1)
I0925 22:41:19.316659  6841 net.cpp:91] Creating Layer lstm1_
I0925 22:41:19.316673  6815 net.cpp:148] Top shape: 1 1 (1)
I0925 22:41:19.316682  6815 net.cpp:156] Memory required for data: 14020
I0925 22:41:19.316694  6815 layer_factory.hpp:77] Creating layer lstm2_x_transform
I0925 22:41:19.316706  6841 net.cpp:399] lstm1_ -> c_0
I0925 22:41:19.316717  6815 net.cpp:91] Creating Layer lstm2_x_transform
I0925 22:41:19.316720  6799 net.cpp:141] Setting up lstm2_
I0925 22:41:19.316730  6815 net.cpp:425] lstm2_x_transform <- x
I0925 22:41:19.316733  6841 net.cpp:399] lstm1_ -> h_0
I0925 22:41:19.316738  6799 net.cpp:148] Top shape: 1 1 1000 (1000)
I0925 22:41:19.316746  6815 net.cpp:399] lstm2_x_transform -> W_xc_x
I0925 22:41:19.316750  6799 net.cpp:148] Top shape: 1 1 1000 (1000)
I0925 22:41:19.316758  6799 net.cpp:156] Memory required for data: 14008
I0925 22:41:19.316766  6799 layer_factory.hpp:77] Creating layer lstm2_cont_slice
I0925 22:41:19.316781  6799 net.cpp:91] Creating Layer lstm2_cont_slice
I0925 22:41:19.316788  6799 net.cpp:425] lstm2_cont_slice <- cont
I0925 22:41:19.316789  6793 net.cpp:141] Setting up lstm2_
I0925 22:41:19.316805  6799 net.cpp:399] lstm2_cont_slice -> cont_1
I0925 22:41:19.316818  6793 net.cpp:148] Top shape: 1 1 1000 (1000)
I0925 22:41:19.316831  6841 net.cpp:141] Setting up lstm1_
I0925 22:41:19.316846  6841 net.cpp:148] Top shape: 1 1 1000 (1000)
I0925 22:41:19.316856  6841 net.cpp:148] Top shape: 1 1 1000 (1000)
I0925 22:41:19.316862  6841 net.cpp:156] Memory required for data: 10004
I0925 22:41:19.316870  6841 layer_factory.hpp:77] Creating layer lstm1_cont_slice
I0925 22:41:19.316907  6793 net.cpp:148] Top shape: 1 1 1000 (1000)
I0925 22:41:19.316920  6793 net.cpp:156] Memory required for data: 14008
I0925 22:41:19.316929  6793 layer_factory.hpp:77] Creating layer lstm2_cont_slice
I0925 22:41:19.316936  6799 net.cpp:141] Setting up lstm2_cont_slice
I0925 22:41:19.316953  6799 net.cpp:148] Top shape: 1 1 (1)
I0925 22:41:19.316961  6799 net.cpp:156] Memory required for data: 14012
I0925 22:41:19.316969  6799 layer_factory.hpp:77] Creating layer cont_1_lstm2_cont_slice_0_split
I0925 22:41:19.316982  6799 net.cpp:91] Creating Layer cont_1_lstm2_cont_slice_0_split
I0925 22:41:19.316990  6799 net.cpp:425] cont_1_lstm2_cont_slice_0_split <- cont_1
I0925 22:41:19.317003  6799 net.cpp:399] cont_1_lstm2_cont_slice_0_split -> cont_1_lstm2_cont_slice_0_split_0
…
I0925 22:41:19.317849  6841 net.cpp:425] lstm1_cont_slice <- cont
I0925 22:41:19.317862  6841 net.cpp:399] lstm1_cont_slice -> cont_1
I0925 22:41:19.318660  6803 net.cpp:49] Initializing net from parameters: 
layer {
  name: "lstm1_"
  type: "Input"
  top: "x"
  top: "cont"
  input_param {
    shape {
      dim: 1
      dim: 1
      dim: 500
    }
    shape {
      dim: 1
      dim: 1
    }
  }
}
layer {
  name: "lstm1_"
  type: "Input"
  top: "c_0"
  top: "h_0"
  input_param {
    shape {
      dim: 1
      dim: 1
      dim: 1000
    }
    shape {
      dim: 1
      dim: 1
      dim: 1000
    }
  }
}
layer {
  name: "lstm1_cont_slice"
  type: "Slice"
  bottom: "cont"
  top: "cont_1"
  slice_param {
    axis: 0
  }
}
layer {
  name: "lstm1_x_transform"
  type: "InnerProduct"
  bottom: "x"
  top: "W_xc_x"
  param {
    name: "W_xc"
  }
  param {
    name: "b_c"
  }
  propagate_down: true
  inner_product_param {
    num_output: 4000
    bias_term: true
    weight_filler {
      type: "uniform"
      min: -0.08
      max: 0.08
    }
    bias_filler {
      type: "constant"
      value: 0
    }
    axis: 2
  }
}
layer {
  name: "lstm1_W_xc_x_slice"
  type: "Slice"
  bottom: "W_xc_x"
  top: "W_xc_x_1"
  slice_param {
    axis: 0
  }
}
layer {
  name: "lstm1_h_conted_0"
  type: "Scale"
  bottom: "h_0"
  bottom: "cont_1"
  top: "h_conted_0"
  scale_param {
    axis: 0
  }
}
layer {
  name: "lstm1_transform_1"
  type: "InnerProduct"
  bottom: "h_conted_0"
  top: "W_hc_h_0"
  param {
    name: "W_hc"
  }
  inner_product_param {
    num_output: 4000
    bias_term: false
    weight_filler {
      type: "uniform"
      min: -0.08
      max: 0.08
    }
    axis: 2
  }
}
layer {
  name: "lstm1_gate_input_1"
  type: "Eltwise"
  bottom: "W_hc_h_0"
  bottom: "W_xc_x_1"
  top: "gate_input_1"
  eltwise_param {
    operation: SUM
  }
}
layer {
  name: "lstm1_unit_1"
  type: "LSTMUnit"
  bottom: "c_0"
  bottom: "gate_input_1"
  bottom: "cont_1"
  top: "c_1"
  top: "h_1"
}
layer {
  name: "lstm1_"
  type: "Split"
  bottom: "c_1"
  top: "c_T"
}
layer {
  name: "lstm1_h_concat"
  type: "Concat"
  bottom: "h_1"
  top: "h"
  concat_param {
    axis: 0
  }
}
layer {
  name: "h_pseudoloss"
  type: "Reduction"
  bottom: "h"
  top: "h_pseudoloss"
  loss_weight: 1
}
I0925 22:41:19.318807  6803 layer_factory.hpp:77] Creating layer lstm1_
I0925 22:41:19.318826  6803 net.cpp:91] Creating Layer lstm1_
I0925 22:41:19.318838  6803 net.cpp:399] lstm1_ -> x
I0925 22:41:19.318856  6803 net.cpp:399] lstm1_ -> cont
I0925 22:41:19.334223  6793 net.cpp:141] Setting up lstm2_cont_slice
I0925 22:41:19.334276  6793 net.cpp:148] Top shape: 1 1 (1)
I0925 22:41:19.334288  6793 net.cpp:156] Memory required for data: 14012
I0925 22:41:19.334302  6793 layer_factory.hpp:77] Creating layer cont_1_lstm2_cont_slice_0_split
I0925 22:41:19.334302  6841 net.cpp:141] Setting up lstm1_cont_slice
I0925 22:41:19.334358  6793 net.cpp:91] Creating Layer cont_1_lstm2_cont_slice_0_split
I0925 22:41:19.334362  6841 net.cpp:148] Top shape: 1 1 (1)
I0925 22:41:19.334378  6793 net.cpp:425] cont_1_lstm2_cont_slice_0_split <- cont_1
I0925 22:41:19.334383  6841 net.cpp:156] Memory required for data: 10008
I0925 22:41:19.334395  6841 layer_factory.hpp:77] Creating layer cont_1_lstm1_cont_slice_0_split
I0925 22:41:19.334396  6793 net.cpp:399] cont_1_lstm2_cont_slice_0_split -> cont_1_lstm2_cont_slice_0_split_0
I0925 22:41:19.334415  6841 net.cpp:91] Creating Layer cont_1_lstm1_cont_slice_0_split
I0925 22:41:19.334419  6793 net.cpp:399] cont_1_lstm2_cont_slice_0_split -> cont_1_lstm2_cont_slice_0_split_1
I0925 22:41:19.334425  6841 net.cpp:425] cont_1_lstm1_cont_slice_0_split <- cont_1
I0925 22:41:19.334460  6841 net.cpp:399] cont_1_lstm1_cont_slice_0_split -> cont_1_lstm1_cont_slice_0_split_0
I0925 22:41:19.334477  6841 net.cpp:399] cont_1_lstm1_cont_slice_0_split -> cont_1_lstm1_cont_slice_0_split_1
I0925 22:41:19.334547  6799 net.cpp:141] Setting up cont_1_lstm2_cont_slice_0_split
I0925 22:41:19.334566  6799 net.cpp:148] Top shape: 1 1 (1)
I0925 22:41:19.334576  6799 net.cpp:148] Top shape: 1 1 (1)
I0925 22:41:19.334584  6799 net.cpp:156] Memory required for data: 14020
I0925 22:41:19.334586  6803 net.cpp:141] Setting up lstm1_
I0925 22:41:19.334592  6799 layer_factory.hpp:77] Creating layer lstm2_x_transform
I0925 22:41:19.334652  6799 net.cpp:91] Creating Layer lstm2_x_transform
I0925 22:41:19.334663  6799 net.cpp:425] lstm2_x_transform <- x
I0925 22:41:19.334616  6803 net.cpp:148] Top shape: 1 1 500 (500)
I0925 22:41:19.334679  6799 net.cpp:399] lstm2_x_transform -> W_xc_x
I0925 22:41:19.334689  6803 net.cpp:148] Top shape: 1 1 (1)
I0925 22:41:19.334697  6803 net.cpp:156] Memory required for data: 2004
I0925 22:41:19.334707  6803 layer_factory.hpp:77] Creating layer lstm1_
I0925 22:41:19.334738  6803 net.cpp:91] Creating Layer lstm1_
I0925 22:41:19.334758  6803 net.cpp:399] lstm1_ -> c_0
I0925 22:41:19.334779  6803 net.cpp:399] lstm1_ -> h_0
I0925 22:41:19.348875  6831 net.cpp:141] Setting up lstm2_x_transform
I0925 22:41:19.348932  6831 net.cpp:148] Top shape: 1 1 4000 (4000)
I0925 22:41:19.348942  6831 net.cpp:156] Memory required for data: 30020
I0925 22:41:19.348973  6831 layer_factory.hpp:77] Creating layer lstm2_W_xc_x_slice
I0925 22:41:19.348992  6831 net.cpp:91] Creating Layer lstm2_W_xc_x_slice
I0925 22:41:19.349001  6831 net.cpp:425] lstm2_W_xc_x_slice <- W_xc_x
…
I0925 22:41:19.688273  6811 net.cpp:156] Memory required for data: 50020
I0925 22:41:19.688287  6799 recurrent_layer.cpp:150] Adding parameter 2: W_hc
I0925 22:41:19.688302  6811 layer_factory.hpp:77] Creating layer lstm2_transform_1
I0925 22:41:19.688346  6811 net.cpp:91] Creating Layer lstm2_transform_1
I0925 22:41:19.688359  6811 net.cpp:425] lstm2_transform_1 <- h_conted_0
I0925 22:41:19.688812  6811 net.cpp:399] lstm2_transform_1 -> W_hc_h_0
I0925 22:41:19.705399  6799 net.cpp:141] Setting up lstm2
I0925 22:41:19.705454  6799 net.cpp:148] Top shape: 1 1 1000 (1000)
I0925 22:41:19.705463  6799 net.cpp:156] Memory required for data: 36412
I0925 22:41:19.705559  6841 net.cpp:141] Setting up lstm1_unit_1
I0925 22:41:19.705581  6841 net.cpp:148] Top shape: 1 1 1000 (1000)
I0925 22:41:19.705595  6841 net.cpp:148] Top shape: 1 1 1000 (1000)
I0925 22:41:19.705605  6841 net.cpp:156] Memory required for data: 86016
I0925 22:41:19.705607  6799 layer_factory.hpp:77] Creating layer predict
I0925 22:41:19.705615  6841 layer_factory.hpp:77] Creating layer lstm1_
I0925 22:41:19.705621  6815 net.cpp:141] Setting up lstm2
I0925 22:41:19.705646  6815 net.cpp:148] Top shape: 1 1 1000 (1000)
I0925 22:41:19.705648  6799 net.cpp:91] Creating Layer predict
I0925 22:41:19.705646  6841 net.cpp:91] Creating Layer lstm1_
I0925 22:41:19.705662  6815 net.cpp:156] Memory required for data: 36412
I0925 22:41:19.705668  6799 net.cpp:425] predict <- lstm2
I0925 22:41:19.705672  6841 net.cpp:425] lstm1_ <- c_1
I0925 22:41:19.705687  6799 net.cpp:399] predict -> predict
I0925 22:41:19.705690  6841 net.cpp:399] lstm1_ -> c_T
I0925 22:41:19.705714  6815 layer_factory.hpp:77] Creating layer predict
I0925 22:41:19.705734  6815 net.cpp:91] Creating Layer predict
I0925 22:41:19.705746  6815 net.cpp:425] predict <- lstm2
I0925 22:41:19.705759  6815 net.cpp:399] predict -> predict
I0925 22:41:19.705761  6841 net.cpp:141] Setting up lstm1_
I0925 22:41:19.705778  6841 net.cpp:148] Top shape: 1 1 1000 (1000)
I0925 22:41:19.705827  6841 net.cpp:156] Memory required for data: 90016
I0925 22:41:19.705868  6841 layer_factory.hpp:77] Creating layer lstm1_h_concat
I0925 22:41:19.705899  6841 net.cpp:91] Creating Layer lstm1_h_concat
I0925 22:41:19.705910  6841 net.cpp:425] lstm1_h_concat <- h_1
I0925 22:41:19.714221  6841 net.cpp:399] lstm1_h_concat -> h
I0925 22:41:19.719733  6803 net.cpp:141] Setting up lstm2_h_conted_0
I0925 22:41:19.719795  6803 net.cpp:148] Top shape: 1 1 1000 (1000)
I0925 22:41:19.719805  6803 net.cpp:156] Memory required for data: 50020
I0925 22:41:19.719815  6803 layer_factory.hpp:77] Creating layer lstm2_transform_1
I0925 22:41:19.719838  6803 net.cpp:91] Creating Layer lstm2_transform_1
I0925 22:41:19.719846  6803 net.cpp:425] lstm2_transform_1 <- h_conted_0
I0925 22:41:19.719861  6803 net.cpp:399] lstm2_transform_1 -> W_hc_h_0
I0925 22:41:19.800325  6841 net.cpp:141] Setting up lstm1_h_concat
I0925 22:41:19.800395  6841 net.cpp:148] Top shape: 1 1 1000 (1000)
I0925 22:41:19.800401  6841 net.cpp:156] Memory required for data: 94016
I0925 22:41:19.800412  6841 layer_factory.hpp:77] Creating layer h_pseudoloss
I0925 22:41:19.800436  6841 net.cpp:91] Creating Layer h_pseudoloss
I0925 22:41:19.800442  6841 net.cpp:425] h_pseudoloss <- h
I0925 22:41:19.800457  6841 net.cpp:399] h_pseudoloss -> h_pseudoloss
I0925 22:41:19.888195  6793 net.cpp:141] Setting up lstm2_transform_1
I0925 22:41:19.888263  6793 net.cpp:148] Top shape: 1 1 4000 (4000)
I0925 22:41:19.888270  6793 net.cpp:156] Memory required for data: 66020
I0925 22:41:19.888301  6793 layer_factory.hpp:77] Creating layer lstm2_gate_input_1
I0925 22:41:19.890130  6841 net.cpp:141] Setting up h_pseudoloss
I0925 22:41:19.890070  6811 net.cpp:141] Setting up lstm2_transform_1
I0925 22:41:19.890182  6841 net.cpp:148] Top shape: (1)
I0925 22:41:19.890194  6811 net.cpp:148] Top shape: 1 1 4000 (4000)
I0925 22:41:19.890193  6841 net.cpp:151]     with loss weight 1
I0925 22:41:19.890223  6811 net.cpp:156] Memory required for data: 66020
I0925 22:41:19.890228  6841 net.cpp:156] Memory required for data: 94020
I0925 22:41:19.890239  6841 net.cpp:217] h_pseudoloss needs backward computation.
I0925 22:41:19.890247  6841 net.cpp:217] lstm1_h_concat needs backward computation.
I0925 22:41:19.890249  6811 layer_factory.hpp:77] Creating layer lstm2_gate_input_1
…
I0925 22:41:19.897915  6841 net.cpp:261] This network produces output c_T
I0925 22:41:19.897927  6841 net.cpp:261] This network produces output h_pseudoloss
I0925 22:41:19.897954  6841 net.cpp:274] Network initialization done.
I0925 22:41:19.898046  6841 recurrent_layer.cpp:150] Adding parameter 0: W_xc
I0925 22:41:19.898057  6841 recurrent_layer.cpp:150] Adding parameter 1: b_c
I0925 22:41:19.898066  6841 recurrent_layer.cpp:150] Adding parameter 2: W_hc
I0925 22:41:19.898123  6793 net.cpp:399] lstm2_gate_input_1 -> gate_input_1
I0925 22:41:19.934038  6811 net.cpp:141] Setting up lstm2_gate_input_1
I0925 22:41:19.934094  6811 net.cpp:148] Top shape: 1 1 4000 (4000)
I0925 22:41:19.934104  6811 net.cpp:156] Memory required for data: 82020
I0925 22:41:19.934118  6811 layer_factory.hpp:77] Creating layer lstm2_unit_1
I0925 22:41:19.934140  6811 net.cpp:91] Creating Layer lstm2_unit_1
I0925 22:41:19.934151  6811 net.cpp:425] lstm2_unit_1 <- c_0
I0925 22:41:19.934165  6811 net.cpp:425] lstm2_unit_1 <- gate_input_1
I0925 22:41:19.934175  6811 net.cpp:425] lstm2_unit_1 <- cont_1_lstm2_cont_slice_0_split_1
I0925 22:41:19.934216  6811 net.cpp:399] lstm2_unit_1 -> c_1
I0925 22:41:19.934238  6811 net.cpp:399] lstm2_unit_1 -> h_1
I0925 22:41:19.934407  6811 net.cpp:141] Setting up lstm2_unit_1
I0925 22:41:19.934423  6811 net.cpp:148] Top shape: 1 1 1000 (1000)
I0925 22:41:19.934435  6811 net.cpp:148] Top shape: 1 1 1000 (1000)
I0925 22:41:19.934442  6811 net.cpp:156] Memory required for data: 90020
I0925 22:41:19.934449  6811 layer_factory.hpp:77] Creating layer lstm2_
I0925 22:41:19.934463  6811 net.cpp:91] Creating Layer lstm2_
I0925 22:41:19.934470  6811 net.cpp:425] lstm2_ <- c_1
I0925 22:41:19.934483  6811 net.cpp:399] lstm2_ -> c_T
I0925 22:41:19.934475  6841 net.cpp:141] Setting up lstm1
I0925 22:41:19.934514  6841 net.cpp:148] Top shape: 1 1 1000 (1000)
I0925 22:41:19.934523  6841 net.cpp:156] Memory required for data: 26408
I0925 22:41:19.934551  6841 layer_factory.hpp:77] Creating layer concat
I0925 22:41:19.934559  6811 net.cpp:141] Setting up lstm2_
I0925 22:41:19.934571  6841 net.cpp:91] Creating Layer concat
I0925 22:41:19.934577  6811 net.cpp:148] Top shape: 1 1 1000 (1000)
I0925 22:41:19.934587  6841 net.cpp:425] concat <- lstm1
I0925 22:41:19.934592  6811 net.cpp:156] Memory required for data: 94020
I0925 22:41:19.934613  6811 layer_factory.hpp:77] Creating layer lstm2_h_concat
I0925 22:41:19.934626  6841 net.cpp:425] concat <- embedded_input_sentence
I0925 22:41:19.934633  6811 net.cpp:91] Creating Layer lstm2_h_concat
I0925 22:41:19.934638  6841 net.cpp:425] concat <- reshaped_stage_indicator
I0925 22:41:19.934643  6811 net.cpp:425] lstm2_h_concat <- h_1
I0925 22:41:19.934651  6841 net.cpp:399] concat -> lstm1_video_sequence
I0925 22:41:19.934654  6811 net.cpp:399] lstm2_h_concat -> h
I0925 22:41:19.934728  6841 net.cpp:141] Setting up concat
I0925 22:41:19.934744  6841 net.cpp:148] Top shape: 1 1 1501 (1501)
I0925 22:41:19.934751  6841 net.cpp:156] Memory required for data: 32412
I0925 22:41:19.934759  6841 layer_factory.hpp:77] Creating layer lstm2
I0925 22:41:19.934778  6841 net.cpp:91] Creating Layer lstm2
I0925 22:41:19.934787  6841 net.cpp:425] lstm2 <- lstm1_video_sequence
I0925 22:41:19.934798  6841 net.cpp:425] lstm2 <- cont_sentence_input_1_split_1
I0925 22:41:19.934808  6841 net.cpp:399] lstm2 -> lstm2
I0925 22:41:19.934824  6841 recurrent_layer.cpp:20] Initializing recurrent layer: assuming input batch contains 1 timesteps of 1 independent streams.
I0925 22:41:19.935047  6831 net.cpp:141] Setting up predict
I0925 22:41:19.935075  6831 net.cpp:148] Top shape: 1 1 46168 (46168)
I0925 22:41:19.935082  6831 net.cpp:156] Memory required for data: 221084
I0925 22:41:19.935097  6831 layer_factory.hpp:77] Creating layer probs
I0925 22:41:19.935115  6831 net.cpp:91] Creating Layer probs
I0925 22:41:19.935129  6831 net.cpp:425] probs <- predict
I0925 22:41:19.935135  6803 net.cpp:141] Setting up lstm2_transform_1
I0925 22:41:19.935166  6803 net.cpp:148] Top shape: 1 1 4000 (4000)
I0925 22:41:19.935178  6803 net.cpp:156] Memory required for data: 66020
I0925 22:41:19.935143  6831 net.cpp:399] probs -> probs
I0925 22:41:19.935199  6803 layer_factory.hpp:77] Creating layer lstm2_gate_input_1
I0925 22:41:19.935227  6803 net.cpp:91] Creating Layer lstm2_gate_input_1
I0925 22:41:19.935240  6803 net.cpp:425] lstm2_gate_input_1 <- W_hc_h_0
I0925 22:41:19.935247  6811 net.cpp:141] Setting up lstm2_h_concat
I0925 22:41:19.935252  6803 net.cpp:425] lstm2_gate_input_1 <- W_xc_x_1
I0925 22:41:19.935271  6811 net.cpp:148] Top shape: 1 1 1000 (1000)
I0925 22:41:19.935292  6803 net.cpp:399] lstm2_gate_input_1 -> gate_input_1
I0925 22:41:19.935292  6811 net.cpp:156] Memory required for data: 98020
I0925 22:41:19.935312  6811 layer_factory.hpp:77] Creating layer h_pseudoloss
I0925 22:41:19.935377  6803 net.cpp:141] Setting up lstm2_gate_input_1
I0925 22:41:19.935376  6811 net.cpp:91] Creating Layer h_pseudoloss
I0925 22:41:19.935398  6803 net.cpp:148] Top shape: 1 1 4000 (4000)
I0925 22:41:19.935406  6811 net.cpp:425] h_pseudoloss <- h
I0925 22:41:19.935407  6803 net.cpp:156] Memory required for data: 82020
I0925 22:41:19.935426  6811 net.cpp:399] h_pseudoloss -> h_pseudoloss
I0925 22:41:19.935431  6803 layer_factory.hpp:77] Creating layer lstm2_unit_1
I0925 22:41:19.935444  6793 net.cpp:141] Setting up lstm2_gate_input_1
I0925 22:41:19.935452  6803 net.cpp:91] Creating Layer lstm2_unit_1
I0925 22:41:19.935461  6793 net.cpp:148] Top shape: 1 1 4000 (4000)
I0925 22:41:19.935461  6803 net.cpp:425] lstm2_unit_1 <- c_0
I0925 22:41:19.935472  6793 net.cpp:156] Memory required for data: 82020
I0925 22:41:19.935479  6803 net.cpp:425] lstm2_unit_1 <- gate_input_1
I0925 22:41:19.935376  6841 net.cpp:49] Initializing net from parameters: 
layer {
  name: "lstm2_"
  type: "Input"
  top: "x"
  top: "cont"
  input_param {
    shape {
      dim: 1
      dim: 1
      dim: 1501
    }
    shape {
      dim: 1
      dim: 1
    }
  }
}
layer {
  name: "lstm2_"
  type: "Input"
  top: "c_0"
  top: "h_0"
  input_param {
    shape {
      dim: 1
      dim: 1
      dim: 1000
    }
    shape {
      dim: 1
      dim: 1
      dim: 1000
    }
  }
}
layer {
  name: "lstm2_cont_slice"
  type: "Slice"
  bottom: "cont"
  top: "cont_1"
  slice_param {
    axis: 0
  }
}
layer {
  name: "lstm2_x_transform"
  type: "InnerProduct"
  bottom: "x"
  top: "W_xc_x"
  param {
    name: "W_xc"
  }
  param {
    name: "b_c"
  }
  propagate_down: true
  inner_product_param {
    num_output: 4000
    bias_term: true
    weight_filler {
      type: "uniform"
      min: -0.08
      max: 0.08
    }
    bias_filler {
      type: "constant"
      value: 0
    }
    axis: 2
  }
}
layer {
  name: "lstm2_W_xc_x_slice"
  type: "Slice"
  bottom: "W_xc_x"
  top: "W_xc_x_1"
  slice_param {
    axis: 0
  }
}
layer {
  name: "lstm2_h_conted_0"
  type: "Scale"
  bottom: "h_0"
  bottom: "cont_1"
  top: "h_conted_0"
  scale_param {
    axis: 0
  }
}
layer {
  name: "lstm2_transform_1"
  type: "InnerProduct"
  bottom: "h_conted_0"
  top: "W_hc_h_0"
  param {
    name: "W_hc"
  }
  inner_product_param {
    num_output: 4000
    bias_term: false
    weight_filler {
      type: "uniform"
      min: -0.08
      max: 0.08
    }
    axis: 2
  }
}
layer {
  name: "lstm2_gate_input_1"
  type: "Eltwise"
  bottom: "W_hc_h_0"
  bottom: "W_xc_x_1"
  top: "gate_input_1"
  eltwise_param {
    operation: SUM
  }
}
layer {
  name: "lstm2_unit_1"
  type: "LSTMUnit"
  bottom: "c_0"
  bottom: "gate_input_1"
  bottom: "cont_1"
  top: "c_1"
  top: "h_1"
}
layer {
  name: "lstm2_"
  type: "Split"
  bottom: "c_1"
  top: "c_T"
}
layer {
  name: "lstm2_h_concat"
  type: "Concat"
  bottom: "h_1"
  top: "h"
  concat_param {
    axis: 0
  }
}
layer {
  name: "h_pseudoloss"
  type: "Reduction"
  bottom: "h"
  top: "h_pseudoloss"
  loss_weight: 1
}
I0925 22:41:19.935497  6803 net.cpp:425] lstm2_unit_1 <- cont_1_lstm2_cont_slice_0_split_1
I0925 22:41:19.935509  6803 net.cpp:399] lstm2_unit_1 -> c_1
I0925 22:41:19.935525  6803 net.cpp:399] lstm2_unit_1 -> h_1
I0925 22:41:19.935603  6811 net.cpp:141] Setting up h_pseudoloss
I0925 22:41:19.935611  6841 layer_factory.hpp:77] Creating layer lstm2_
I0925 22:41:19.935621  6811 net.cpp:148] Top shape: (1)
…
I0925 22:41:19.935482  6793 layer_factory.hpp:77] Creating layer lstm2_unit_1
I0925 22:41:19.935693  6811 net.cpp:219] lstm2_ does not need backward computation.
I0925 22:41:19.935712  6793 net.cpp:91] Creating Layer lstm2_unit_1
I0925 22:41:19.935714  6811 net.cpp:217] lstm2_unit_1 needs backward computation.
I0925 22:41:19.935730  6793 net.cpp:425] lstm2_unit_1 <- c_0
I0925 22:41:19.935742  6811 net.cpp:217] lstm2_gate_input_1 needs backward computation.
I0925 22:41:19.935746  6803 net.cpp:141] Setting up lstm2_unit_1
I0925 22:41:19.935760  6811 net.cpp:217] lstm2_transform_1 needs backward computation.
I0925 22:41:19.935762  6803 net.cpp:148] Top shape: 1 1 1000 (1000)
I0925 22:41:19.935770  6811 net.cpp:219] lstm2_h_conted_0 does not need backward computation.
I0925 22:41:19.935775  6803 net.cpp:148] Top shape: 1 1 1000 (1000)
I0925 22:41:19.935781  6811 net.cpp:217] lstm2_W_xc_x_slice needs backward computation.
I0925 22:41:19.935786  6803 net.cpp:156] Memory required for data: 90020
I0925 22:41:19.935791  6811 net.cpp:217] lstm2_x_transform needs backward computation.
I0925 22:41:19.935796  6803 layer_factory.hpp:77] Creating layer lstm2_
I0925 22:41:19.935802  6811 net.cpp:219] cont_1_lstm2_cont_slice_0_split does not need backward computation.
I0925 22:41:19.935811  6803 net.cpp:91] Creating Layer lstm2_
I0925 22:41:19.935827  6803 net.cpp:425] lstm2_ <- c_1
I0925 22:41:19.935812  6811 net.cpp:219] lstm2_cont_slice does not need backward computation.
I0925 22:41:19.935840  6841 net.cpp:141] Setting up lstm2_
I0925 22:41:19.935844  6803 net.cpp:399] lstm2_ -> c_T
I0925 22:41:19.935842  6811 net.cpp:219] lstm2_ does not need backward computation.
I0925 22:41:19.935858  6841 net.cpp:148] Top shape: 1 1 1501 (1501)
I0925 22:41:19.935859  6811 net.cpp:219] lstm2_ does not need backward computation.
I0925 22:41:19.935874  6841 net.cpp:148] Top shape: 1 1 (1)
I0925 22:41:19.935874  6811 net.cpp:261] This network produces output c_T
I0925 22:41:19.935745  6793 net.cpp:425] lstm2_unit_1 <- gate_input_1
I0925 22:41:19.935884  6841 net.cpp:156] Memory required for data: 6008
I0925 22:41:19.935899  6793 net.cpp:425] lstm2_unit_1 <- cont_1_lstm2_cont_slice_0_split_1
I0925 22:41:19.935897  6811 net.cpp:261] This network produces output h_pseudoloss
I0925 22:41:19.935910  6841 layer_factory.hpp:77] Creating layer lstm2_
I0925 22:41:19.935915  6793 net.cpp:399] lstm2_unit_1 -> c_1
I0925 22:41:19.935927  6841 net.cpp:91] Creating Layer lstm2_
I0925 22:41:19.935936  6811 net.cpp:274] Network initialization done.
I0925 22:41:19.935930  6793 net.cpp:399] lstm2_unit_1 -> h_1
I0925 22:41:19.935951  6841 net.cpp:399] lstm2_ -> c_0
I0925 22:41:19.935969  6841 net.cpp:399] lstm2_ -> h_0
I0925 22:41:19.936033  6811 recurrent_layer.cpp:150] Adding parameter 0: W_xc
I0925 22:41:19.936043  6811 recurrent_layer.cpp:150] Adding parameter 1: b_c
I0925 22:41:19.936050  6811 recurrent_layer.cpp:150] Adding parameter 2: W_hc
I0925 22:41:19.936345  6803 net.cpp:141] Setting up lstm2_
I0925 22:41:19.936364  6803 net.cpp:148] Top shape: 1 1 1000 (1000)
I0925 22:41:19.936372  6803 net.cpp:156] Memory required for data: 94020
I0925 22:41:19.936381  6803 layer_factory.hpp:77] Creating layer lstm2_h_concat
I0925 22:41:19.936394  6803 net.cpp:91] Creating Layer lstm2_h_concat
I0925 22:41:19.936403  6803 net.cpp:425] lstm2_h_concat <- h_1
I0925 22:41:19.936420  6803 net.cpp:399] lstm2_h_concat -> h
I0925 22:41:19.936453  6793 net.cpp:141] Setting up lstm2_unit_1
I0925 22:41:19.936467  6793 net.cpp:148] Top shape: 1 1 1000 (1000)
I0925 22:41:19.936473  6793 net.cpp:148] Top shape: 1 1 1000 (1000)
I0925 22:41:19.936478  6793 net.cpp:156] Memory required for data: 90020
I0925 22:41:19.936483  6793 layer_factory.hpp:77] Creating layer lstm2_
I0925 22:41:19.936491  6793 net.cpp:91] Creating Layer lstm2_
I0925 22:41:19.936496  6793 net.cpp:425] lstm2_ <- c_1
I0925 22:41:19.936503  6793 net.cpp:399] lstm2_ -> c_T
I0925 22:41:19.936589  6803 net.cpp:141] Setting up lstm2_h_concat
I0925 22:41:19.936604  6803 net.cpp:148] Top shape: 1 1 1000 (1000)
I0925 22:41:19.936612  6803 net.cpp:156] Memory required for data: 98020
I0925 22:41:19.936620  6803 layer_factory.hpp:77] Creating layer h_pseudoloss
I0925 22:41:19.936635  6803 net.cpp:91] Creating Layer h_pseudoloss
I0925 22:41:19.936645  6803 net.cpp:425] h_pseudoloss <- h
I0925 22:41:19.936645  6793 net.cpp:141] Setting up lstm2_
I0925 22:41:19.936657  6803 net.cpp:399] h_pseudoloss -> h_pseudoloss
I0925 22:41:19.936730  6841 net.cpp:141] Setting up lstm2_
I0925 22:41:19.936743  6841 net.cpp:148] Top shape: 1 1 1000 (1000)
I0925 22:41:19.936749  6841 net.cpp:148] Top shape: 1 1 1000 (1000)
I0925 22:41:19.936754  6841 net.cpp:156] Memory required for data: 14008
I0925 22:41:19.936759  6841 layer_factory.hpp:77] Creating layer lstm2_cont_slice
I0925 22:41:19.936769  6841 net.cpp:91] Creating Layer lstm2_cont_slice
I0925 22:41:19.936774  6841 net.cpp:425] lstm2_cont_slice <- cont
I0925 22:41:19.936782  6841 net.cpp:399] lstm2_cont_slice -> cont_1
I0925 22:41:19.936658  6793 net.cpp:148] Top shape: 1 1 1000 (1000)
I0925 22:41:19.936795  6811 net.cpp:141] Setting up lstm2
I0925 22:41:19.936815  6793 net.cpp:156] Memory required for data: 94020
I0925 22:41:19.936841  6793 layer_factory.hpp:77] Creating layer lstm2_h_concat
I0925 22:41:19.936856  6793 net.cpp:91] Creating Layer lstm2_h_concat
I0925 22:41:19.936859  6811 net.cpp:148] Top shape: 1 1 1000 (1000)
I0925 22:41:19.936866  6793 net.cpp:425] lstm2_h_concat <- h_1
I0925 22:41:19.936871  6811 net.cpp:156] Memory required for data: 36412
I0925 22:41:19.936884  6793 net.cpp:399] lstm2_h_concat -> h
I0925 22:41:19.936949  6811 layer_factory.hpp:77] Creating layer predict
I0925 22:41:19.936974  6841 net.cpp:141] Setting up lstm2_cont_slice
I0925 22:41:19.936990  6841 net.cpp:148] Top shape: 1 1 (1)
I0925 22:41:19.936975  6811 net.cpp:91] Creating Layer predict
I0925 22:41:19.936995  6841 net.cpp:156] Memory required for data: 14012
I0925 22:41:19.937011  6811 net.cpp:425] predict <- lstm2
I0925 22:41:19.937021  6841 layer_factory.hpp:77] Creating layer cont_1_lstm2_cont_slice_0_split
I0925 22:41:19.937026  6811 net.cpp:399] predict -> predict
I0925 22:41:19.937043  6793 net.cpp:141] Setting up lstm2_h_concat
I0925 22:41:19.937043  6841 net.cpp:91] Creating Layer cont_1_lstm2_cont_slice_0_split
I0925 22:41:19.937062  6793 net.cpp:148] Top shape: 1 1 1000 (1000)
I0925 22:41:19.937064  6841 net.cpp:425] cont_1_lstm2_cont_slice_0_split <- cont_1
I0925 22:41:19.937072  6793 net.cpp:156] Memory required for data: 98020
I0925 22:41:19.937077  6841 net.cpp:399] cont_1_lstm2_cont_slice_0_split -> cont_1_lstm2_cont_slice_0_split_0
I0925 22:41:19.937079  6793 layer_factory.hpp:77] Creating layer h_pseudoloss
I0925 22:41:19.937090  6841 net.cpp:399] cont_1_lstm2_cont_slice_0_split -> cont_1_lstm2_cont_slice_0_split_1
…
I0925 22:41:20.014356  6793 net.cpp:219] lstm2_ does not need backward computation.
I0925 22:41:20.014364  6793 net.cpp:261] This network produces output c_T
I0925 22:41:20.014374  6793 net.cpp:261] This network produces output h_pseudoloss
I0925 22:41:20.014402  6793 net.cpp:274] Network initialization done.
I0925 22:41:20.014477  6793 recurrent_layer.cpp:150] Adding parameter 0: W_xc
I0925 22:41:20.014488  6793 recurrent_layer.cpp:150] Adding parameter 1: b_c
I0925 22:41:20.014495  6793 recurrent_layer.cpp:150] Adding parameter 2: W_hc
I0925 22:41:20.034720  6803 net.cpp:141] Setting up lstm2
I0925 22:41:20.035156  6803 net.cpp:148] Top shape: 1 1 1000 (1000)
I0925 22:41:20.035352  6803 net.cpp:156] Memory required for data: 36412
I0925 22:41:20.035516  6803 layer_factory.hpp:77] Creating layer predict
I0925 22:41:20.035668  6803 net.cpp:91] Creating Layer predict
I0925 22:41:20.035825  6803 net.cpp:425] predict <- lstm2
I0925 22:41:20.035959  6803 net.cpp:399] predict -> predict
I0925 22:41:20.034766  6793 net.cpp:141] Setting up lstm2
I0925 22:41:20.036530  6793 net.cpp:148] Top shape: 1 1 1000 (1000)
I0925 22:41:20.036687  6793 net.cpp:156] Memory required for data: 36412
I0925 22:41:20.036896  6793 layer_factory.hpp:77] Creating layer predict
I0925 22:41:20.037050  6793 net.cpp:91] Creating Layer predict
I0925 22:41:20.037245  6793 net.cpp:425] predict <- lstm2
I0925 22:41:20.037904  6793 net.cpp:399] predict -> predict
I0925 22:41:20.218277  6815 net.cpp:141] Setting up predict
I0925 22:41:20.218328  6815 net.cpp:148] Top shape: 1 1 46168 (46168)
I0925 22:41:20.218336  6815 net.cpp:156] Memory required for data: 221084
I0925 22:41:20.218353  6815 layer_factory.hpp:77] Creating layer probs
I0925 22:41:20.218371  6815 net.cpp:91] Creating Layer probs
I0925 22:41:20.218379  6815 net.cpp:425] probs <- predict
I0925 22:41:20.218389  6815 net.cpp:399] probs -> probs
I0925 22:41:20.218430  6841 net.cpp:141] Setting up lstm2_x_transform
I0925 22:41:20.218451  6841 net.cpp:148] Top shape: 1 1 4000 (4000)
I0925 22:41:20.218459  6841 net.cpp:156] Memory required for data: 30020
I0925 22:41:20.218480  6841 layer_factory.hpp:77] Creating layer lstm2_W_xc_x_slice
I0925 22:41:20.218495  6841 net.cpp:91] Creating Layer lstm2_W_xc_x_slice
I0925 22:41:20.218504  6841 net.cpp:425] lstm2_W_xc_x_slice <- W_xc_x
I0925 22:41:20.218510  6797 net.cpp:141] Setting up predict
I0925 22:41:20.219532  6797 net.cpp:148] Top shape: 1 1 46168 (46168)
I0925 22:41:20.219552  6797 net.cpp:156] Memory required for data: 221084
I0925 22:41:20.219574  6797 layer_factory.hpp:77] Creating layer probs
I0925 22:41:20.219594  6797 net.cpp:91] Creating Layer probs
I0925 22:41:20.219607  6797 net.cpp:425] probs <- predict
I0925 22:41:20.219619  6797 net.cpp:399] probs -> probs
I0925 22:41:20.220904  6841 net.cpp:399] lstm2_W_xc_x_slice -> W_xc_x_1
I0925 22:41:20.228591  6841 net.cpp:141] Setting up lstm2_W_xc_x_slice
I0925 22:41:20.228657  6841 net.cpp:148] Top shape: 1 1 4000 (4000)
I0925 22:41:20.228669  6841 net.cpp:156] Memory required for data: 46020
I0925 22:41:20.228685  6841 layer_factory.hpp:77] Creating layer lstm2_h_conted_0
I0925 22:41:20.228716  6841 net.cpp:91] Creating Layer lstm2_h_conted_0
I0925 22:41:20.228729  6841 net.cpp:425] lstm2_h_conted_0 <- h_0
I0925 22:41:20.228742  6841 net.cpp:425] lstm2_h_conted_0 <- cont_1_lstm2_cont_slice_0_split_0
I0925 22:41:20.228757  6841 net.cpp:399] lstm2_h_conted_0 -> h_conted_0
I0925 22:41:20.237195  6841 net.cpp:141] Setting up lstm2_h_conted_0
I0925 22:41:20.237257  6841 net.cpp:148] Top shape: 1 1 1000 (1000)
I0925 22:41:20.237267  6841 net.cpp:156] Memory required for data: 50020
I0925 22:41:20.237279  6841 layer_factory.hpp:77] Creating layer lstm2_transform_1
I0925 22:41:20.237308  6841 net.cpp:91] Creating Layer lstm2_transform_1
I0925 22:41:20.237319  6841 net.cpp:425] lstm2_transform_1 <- h_conted_0
I0925 22:41:20.237365  6841 net.cpp:399] lstm2_transform_1 -> W_hc_h_0
I0925 22:41:20.274893  6799 net.cpp:141] Setting up predict
I0925 22:41:20.274946  6799 net.cpp:148] Top shape: 1 1 46168 (46168)
I0925 22:41:20.274953  6799 net.cpp:156] Memory required for data: 221084
I0925 22:41:20.274969  6799 layer_factory.hpp:77] Creating layer probs
I0925 22:41:20.274991  6799 net.cpp:91] Creating Layer probs
I0925 22:41:20.274998  6799 net.cpp:425] probs <- predict
I0925 22:41:20.275009  6799 net.cpp:399] probs -> probs
I0925 22:41:20.303429  6841 net.cpp:141] Setting up lstm2_transform_1
I0925 22:41:20.303480  6841 net.cpp:148] Top shape: 1 1 4000 (4000)
I0925 22:41:20.303488  6841 net.cpp:156] Memory required for data: 66020
I0925 22:41:20.303514  6841 layer_factory.hpp:77] Creating layer lstm2_gate_input_1
I0925 22:41:20.303545  6841 net.cpp:91] Creating Layer lstm2_gate_input_1
I0925 22:41:20.303555  6841 net.cpp:425] lstm2_gate_input_1 <- W_hc_h_0
I0925 22:41:20.303563  6841 net.cpp:425] lstm2_gate_input_1 <- W_xc_x_1
I0925 22:41:20.303571  6841 net.cpp:399] lstm2_gate_input_1 -> gate_input_1
I0925 22:41:20.315398  6841 net.cpp:141] Setting up lstm2_gate_input_1
I0925 22:41:20.315448  6841 net.cpp:148] Top shape: 1 1 4000 (4000)
I0925 22:41:20.315454  6841 net.cpp:156] Memory required for data: 82020
I0925 22:41:20.315464  6841 layer_factory.hpp:77] Creating layer lstm2_unit_1
I0925 22:41:20.315484  6841 net.cpp:91] Creating Layer lstm2_unit_1
I0925 22:41:20.315492  6841 net.cpp:425] lstm2_unit_1 <- c_0
I0925 22:41:20.315505  6841 net.cpp:425] lstm2_unit_1 <- gate_input_1
I0925 22:41:20.315510  6841 net.cpp:425] lstm2_unit_1 <- cont_1_lstm2_cont_slice_0_split_1
I0925 22:41:20.315523  6841 net.cpp:399] lstm2_unit_1 -> c_1
I0925 22:41:20.315542  6841 net.cpp:399] lstm2_unit_1 -> h_1
I0925 22:41:20.315807  6841 net.cpp:141] Setting up lstm2_unit_1
I0925 22:41:20.315824  6841 net.cpp:148] Top shape: 1 1 1000 (1000)
I0925 22:41:20.315832  6841 net.cpp:148] Top shape: 1 1 1000 (1000)
I0925 22:41:20.315837  6841 net.cpp:156] Memory required for data: 90020
I0925 22:41:20.315842  6841 layer_factory.hpp:77] Creating layer lstm2_
I0925 22:41:20.315851  6841 net.cpp:91] Creating Layer lstm2_
I0925 22:41:20.315856  6841 net.cpp:425] lstm2_ <- c_1
I0925 22:41:20.315863  6841 net.cpp:399] lstm2_ -> c_T
I0925 22:41:20.318478  6841 net.cpp:141] Setting up lstm2_
I0925 22:41:20.318492  6841 net.cpp:148] Top shape: 1 1 1000 (1000)
I0925 22:41:20.318497  6841 net.cpp:156] Memory required for data: 94020
I0925 22:41:20.318502  6841 layer_factory.hpp:77] Creating layer lstm2_h_concat
I0925 22:41:20.318512  6841 net.cpp:91] Creating Layer lstm2_h_concat
I0925 22:41:20.318521  6841 net.cpp:425] lstm2_h_concat <- h_1
I0925 22:41:20.318527  6841 net.cpp:399] lstm2_h_concat -> h
I0925 22:41:20.321410  6841 net.cpp:141] Setting up lstm2_h_concat
I0925 22:41:20.321432  6841 net.cpp:148] Top shape: 1 1 1000 (1000)
I0925 22:41:20.321437  6841 net.cpp:156] Memory required for data: 98020
I0925 22:41:20.321444  6841 layer_factory.hpp:77] Creating layer h_pseudoloss
I0925 22:41:20.321462  6841 net.cpp:91] Creating Layer h_pseudoloss
I0925 22:41:20.321468  6841 net.cpp:425] h_pseudoloss <- h
I0925 22:41:20.321476  6841 net.cpp:399] h_pseudoloss -> h_pseudoloss
I0925 22:41:20.323911  6841 net.cpp:141] Setting up h_pseudoloss
…
I0925 22:41:20.324036  6841 net.cpp:219] lstm2_ does not need backward computation.
I0925 22:41:20.324044  6841 net.cpp:261] This network produces output c_T
I0925 22:41:20.324053  6841 net.cpp:261] This network produces output h_pseudoloss
I0925 22:41:20.324090  6841 net.cpp:274] Network initialization done.
I0925 22:41:20.324152  6841 recurrent_layer.cpp:150] Adding parameter 0: W_xc
I0925 22:41:20.324164  6841 recurrent_layer.cpp:150] Adding parameter 1: b_c
I0925 22:41:20.324169  6841 recurrent_layer.cpp:150] Adding parameter 2: W_hc
I0925 22:41:20.337520  6841 net.cpp:141] Setting up lstm2
I0925 22:41:20.337568  6841 net.cpp:148] Top shape: 1 1 1000 (1000)
I0925 22:41:20.337574  6841 net.cpp:156] Memory required for data: 36412
I0925 22:41:20.337596  6841 layer_factory.hpp:77] Creating layer predict
I0925 22:41:20.337616  6841 net.cpp:91] Creating Layer predict
I0925 22:41:20.337625  6841 net.cpp:425] predict <- lstm2
I0925 22:41:20.337635  6841 net.cpp:399] predict -> predict
I0925 22:41:20.459480  6811 net.cpp:141] Setting up predict
I0925 22:41:20.460001  6811 net.cpp:148] Top shape: 1 1 46168 (46168)
I0925 22:41:20.460203  6811 net.cpp:156] Memory required for data: 221084
I0925 22:41:20.460330  6811 layer_factory.hpp:77] Creating layer probs
I0925 22:41:20.460472  6811 net.cpp:91] Creating Layer probs
I0925 22:41:20.460599  6811 net.cpp:425] probs <- predict
I0925 22:41:20.460711  6811 net.cpp:399] probs -> probs
I0925 22:41:20.499197  6803 net.cpp:141] Setting up predict
I0925 22:41:20.499244  6803 net.cpp:148] Top shape: 1 1 46168 (46168)
I0925 22:41:20.499251  6803 net.cpp:156] Memory required for data: 221084
I0925 22:41:20.499266  6803 layer_factory.hpp:77] Creating layer probs
I0925 22:41:20.499284  6803 net.cpp:91] Creating Layer probs
I0925 22:41:20.499292  6803 net.cpp:425] probs <- predict
I0925 22:41:20.499302  6803 net.cpp:399] probs -> probs
I0925 22:41:20.572156  6815 net.cpp:141] Setting up probs
I0925 22:41:20.572211  6815 net.cpp:148] Top shape: 1 1 46168 (46168)
I0925 22:41:20.572221  6815 net.cpp:156] Memory required for data: 405756
I0925 22:41:20.572237  6815 net.cpp:219] probs does not need backward computation.
I0925 22:41:20.572247  6815 net.cpp:219] predict does not need backward computation.
I0925 22:41:20.572255  6815 net.cpp:219] lstm2 does not need backward computation.
I0925 22:41:20.572264  6815 net.cpp:219] concat does not need backward computation.
I0925 22:41:20.572273  6815 net.cpp:219] lstm1 does not need backward computation.
I0925 22:41:20.572283  6815 net.cpp:219] embedding does not need backward computation.
I0925 22:41:20.572289  6815 net.cpp:219] reshape_stage_indicator does not need backward computation.
I0925 22:41:20.572298  6815 net.cpp:219] reshape_frames does not need backward computation.
I0925 22:41:20.572304  6815 net.cpp:219] embed_encoder does not need backward computation.
I0925 22:41:20.572312  6815 net.cpp:219] cont_sentence_input_1_split does not need backward computation.
I0925 22:41:20.572322  6815 net.cpp:219] input does not need backward computation.
I0925 22:41:20.572329  6815 net.cpp:261] This network produces output probs
I0925 22:41:20.572355  6815 net.cpp:274] Network initialization done.
I0925 22:41:20.579607  6797 net.cpp:141] Setting up probs
I0925 22:41:20.579661  6797 net.cpp:148] Top shape: 1 1 46168 (46168)
I0925 22:41:20.579670  6797 net.cpp:156] Memory required for data: 405756
I0925 22:41:20.579684  6797 net.cpp:219] probs does not need backward computation.
I0925 22:41:20.579697  6797 net.cpp:219] predict does not need backward computation.
I0925 22:41:20.579710  6797 net.cpp:219] lstm2 does not need backward computation.
I0925 22:41:20.579720  6797 net.cpp:219] concat does not need backward computation.
I0925 22:41:20.579728  6797 net.cpp:219] lstm1 does not need backward computation.
I0925 22:41:20.579738  6797 net.cpp:219] embedding does not need backward computation.
I0925 22:41:20.579747  6797 net.cpp:219] reshape_stage_indicator does not need backward computation.
I0925 22:41:20.579756  6797 net.cpp:219] reshape_frames does not need backward computation.
I0925 22:41:20.579766  6797 net.cpp:219] embed_encoder does not need backward computation.
I0925 22:41:20.579776  6797 net.cpp:219] cont_sentence_input_1_split does not need backward computation.
I0925 22:41:20.579784  6797 net.cpp:219] input does not need backward computation.
I0925 22:41:20.579790  6797 net.cpp:261] This network produces output probs
I0925 22:41:20.579816  6797 net.cpp:274] Network initialization done.
I0925 22:41:20.582182  6831 net.cpp:141] Setting up probs
I0925 22:41:20.582233  6831 net.cpp:148] Top shape: 1 1 46168 (46168)
I0925 22:41:20.582243  6831 net.cpp:156] Memory required for data: 405756
I0925 22:41:20.582257  6831 net.cpp:219] probs does not need backward computation.
I0925 22:41:20.582268  6831 net.cpp:219] predict does not need backward computation.
I0925 22:41:20.582280  6831 net.cpp:219] lstm2 does not need backward computation.
I0925 22:41:20.582290  6831 net.cpp:219] concat does not need backward computation.
I0925 22:41:20.582301  6831 net.cpp:219] lstm1 does not need backward computation.
I0925 22:41:20.582310  6831 net.cpp:219] embedding does not need backward computation.
I0925 22:41:20.582320  6831 net.cpp:219] reshape_stage_indicator does not need backward computation.
I0925 22:41:20.582329  6831 net.cpp:219] reshape_frames does not need backward computation.
I0925 22:41:20.582337  6831 net.cpp:219] embed_encoder does not need backward computation.
I0925 22:41:20.582346  6831 net.cpp:219] cont_sentence_input_1_split does not need backward computation.
I0925 22:41:20.582355  6831 net.cpp:219] input does not need backward computation.
I0925 22:41:20.582362  6831 net.cpp:261] This network produces output probs
I0925 22:41:20.582391  6831 net.cpp:274] Network initialization done.
I0925 22:41:20.584383  6811 net.cpp:141] Setting up probs
I0925 22:41:20.584429  6811 net.cpp:148] Top shape: 1 1 46168 (46168)
I0925 22:41:20.584441  6811 net.cpp:156] Memory required for data: 405756
I0925 22:41:20.584455  6811 net.cpp:219] probs does not need backward computation.
I0925 22:41:20.584467  6811 net.cpp:219] predict does not need backward computation.
I0925 22:41:20.584477  6811 net.cpp:219] lstm2 does not need backward computation.
I0925 22:41:20.584489  6811 net.cpp:219] concat does not need backward computation.
I0925 22:41:20.584501  6811 net.cpp:219] lstm1 does not need backward computation.
I0925 22:41:20.584512  6811 net.cpp:219] embedding does not need backward computation.
I0925 22:41:20.584522  6811 net.cpp:219] reshape_stage_indicator does not need backward computation.
I0925 22:41:20.584530  6811 net.cpp:219] reshape_frames does not need backward computation.
I0925 22:41:20.584539  6811 net.cpp:219] embed_encoder does not need backward computation.
I0925 22:41:20.584549  6811 net.cpp:219] cont_sentence_input_1_split does not need backward computation.
I0925 22:41:20.584579  6811 net.cpp:219] input does not need backward computation.
I0925 22:41:20.584589  6811 net.cpp:261] This network produces output probs
I0925 22:41:20.584619  6811 net.cpp:274] Network initialization done.
I0925 22:41:20.586237  6833 net.cpp:141] Setting up conv1
I0925 22:41:20.586279  6833 net.cpp:148] Top shape: 10 96 55 55 (2904000)
I0925 22:41:20.586289  6833 net.cpp:156] Memory required for data: 17799480
I0925 22:41:20.586355  6833 layer_factory.hpp:77] Creating layer relu1
I0925 22:41:20.586393  6833 net.cpp:91] Creating Layer relu1
I0925 22:41:20.586408  6833 net.cpp:425] relu1 <- conv1
I0925 22:41:20.586421  6833 net.cpp:386] relu1 -> conv1 (in-place)
I0925 22:41:20.587126  6803 net.cpp:141] Setting up probs
I0925 22:41:20.587146  6833 net.cpp:141] Setting up relu1
I0925 22:41:20.587159  6803 net.cpp:148] Top shape: 1 1 46168 (46168)
I0925 22:41:20.587165  6833 net.cpp:148] Top shape: 10 96 55 55 (2904000)
I0925 22:41:20.587168  6803 net.cpp:156] Memory required for data: 405756
I0925 22:41:20.587173  6833 net.cpp:156] Memory required for data: 29415480
I0925 22:41:20.587178  6803 net.cpp:219] probs does not need backward computation.
I0925 22:41:20.587188  6803 net.cpp:219] predict does not need backward computation.
I0925 22:41:20.587182  6833 layer_factory.hpp:77] Creating layer pool1
…
I0925 22:41:20.587244  6803 net.cpp:219] reshape_frames does not need backward computation.
I0925 22:41:20.587252  6803 net.cpp:219] embed_encoder does not need backward computation.
I0925 22:41:20.587263  6803 net.cpp:219] cont_sentence_input_1_split does not need backward computation.
I0925 22:41:20.587272  6803 net.cpp:219] input does not need backward computation.
I0925 22:41:20.587280  6803 net.cpp:261] This network produces output probs
I0925 22:41:20.587303  6803 net.cpp:274] Network initialization done.
I0925 22:41:20.587364  6833 net.cpp:141] Setting up pool1
I0925 22:41:20.587380  6833 net.cpp:148] Top shape: 10 96 27 27 (699840)
I0925 22:41:20.587388  6833 net.cpp:156] Memory required for data: 32214840
I0925 22:41:20.587396  6833 layer_factory.hpp:77] Creating layer norm1
I0925 22:41:20.587435  6833 net.cpp:91] Creating Layer norm1
I0925 22:41:20.587450  6833 net.cpp:425] norm1 <- pool1
I0925 22:41:20.587462  6833 net.cpp:399] norm1 -> norm1
I0925 22:41:20.588320  6799 net.cpp:141] Setting up probs
I0925 22:41:20.588345  6799 net.cpp:148] Top shape: 1 1 46168 (46168)
I0925 22:41:20.588352  6799 net.cpp:156] Memory required for data: 405756
I0925 22:41:20.588361  6799 net.cpp:219] probs does not need backward computation.
I0925 22:41:20.588371  6799 net.cpp:219] predict does not need backward computation.
I0925 22:41:20.588378  6799 net.cpp:219] lstm2 does not need backward computation.
I0925 22:41:20.588387  6799 net.cpp:219] concat does not need backward computation.
I0925 22:41:20.588397  6799 net.cpp:219] lstm1 does not need backward computation.
I0925 22:41:20.588405  6799 net.cpp:219] embedding does not need backward computation.
I0925 22:41:20.588413  6799 net.cpp:219] reshape_stage_indicator does not need backward computation.
I0925 22:41:20.588421  6799 net.cpp:219] reshape_frames does not need backward computation.
I0925 22:41:20.588429  6799 net.cpp:219] embed_encoder does not need backward computation.
I0925 22:41:20.588438  6799 net.cpp:219] cont_sentence_input_1_split does not need backward computation.
I0925 22:41:20.588445  6799 net.cpp:219] input does not need backward computation.
I0925 22:41:20.588452  6799 net.cpp:261] This network produces output probs
I0925 22:41:20.588474  6799 net.cpp:274] Network initialization done.
I0925 22:41:20.588502  6833 net.cpp:141] Setting up norm1
I0925 22:41:20.588522  6833 net.cpp:148] Top shape: 10 96 27 27 (699840)
I0925 22:41:20.588531  6833 net.cpp:156] Memory required for data: 35014200
I0925 22:41:20.588541  6833 layer_factory.hpp:77] Creating layer conv2
I0925 22:41:20.588567  6833 net.cpp:91] Creating Layer conv2
I0925 22:41:20.588575  6833 net.cpp:425] conv2 <- norm1
I0925 22:41:20.588587  6833 net.cpp:399] conv2 -> conv2
I0925 22:41:20.593706  6833 net.cpp:141] Setting up conv2
I0925 22:41:20.593755  6833 net.cpp:148] Top shape: 10 256 27 27 (1866240)
I0925 22:41:20.593761  6833 net.cpp:156] Memory required for data: 42479160
I0925 22:41:20.593803  6833 layer_factory.hpp:77] Creating layer relu2
I0925 22:41:20.593822  6833 net.cpp:91] Creating Layer relu2
I0925 22:41:20.593829  6833 net.cpp:425] relu2 <- conv2
I0925 22:41:20.593838  6833 net.cpp:386] relu2 -> conv2 (in-place)
I0925 22:41:20.594545  6833 net.cpp:141] Setting up relu2
I0925 22:41:20.594570  6833 net.cpp:148] Top shape: 10 256 27 27 (1866240)
I0925 22:41:20.594576  6833 net.cpp:156] Memory required for data: 49944120
I0925 22:41:20.594583  6833 layer_factory.hpp:77] Creating layer pool2
I0925 22:41:20.594610  6833 net.cpp:91] Creating Layer pool2
I0925 22:41:20.594620  6833 net.cpp:425] pool2 <- conv2
I0925 22:41:20.594635  6833 net.cpp:399] pool2 -> pool2
I0925 22:41:20.594750  6833 net.cpp:141] Setting up pool2
I0925 22:41:20.594763  6833 net.cpp:148] Top shape: 10 256 13 13 (432640)
I0925 22:41:20.594766  6833 net.cpp:156] Memory required for data: 51674680
I0925 22:41:20.594772  6833 layer_factory.hpp:77] Creating layer norm2
I0925 22:41:20.594786  6833 net.cpp:91] Creating Layer norm2
I0925 22:41:20.594791  6833 net.cpp:425] norm2 <- pool2
I0925 22:41:20.594799  6833 net.cpp:399] norm2 -> norm2
I0925 22:41:20.597013  6833 net.cpp:141] Setting up norm2
I0925 22:41:20.597054  6833 net.cpp:148] Top shape: 10 256 13 13 (432640)
I0925 22:41:20.597059  6833 net.cpp:156] Memory required for data: 53405240
I0925 22:41:20.597067  6833 layer_factory.hpp:77] Creating layer conv3
I0925 22:41:20.598315  6833 net.cpp:91] Creating Layer conv3
I0925 22:41:20.598351  6833 net.cpp:425] conv3 <- norm2
I0925 22:41:20.598374  6833 net.cpp:399] conv3 -> conv3
I0925 22:41:20.630818  6793 net.cpp:141] Setting up predict
I0925 22:41:20.630882  6793 net.cpp:148] Top shape: 1 1 46168 (46168)
I0925 22:41:20.630893  6793 net.cpp:156] Memory required for data: 221084
I0925 22:41:20.630916  6793 layer_factory.hpp:77] Creating layer probs
I0925 22:41:20.630949  6793 net.cpp:91] Creating Layer probs
I0925 22:41:20.630960  6793 net.cpp:425] probs <- predict
I0925 22:41:20.630977  6793 net.cpp:399] probs -> probs
I0925 22:41:20.632489  6793 net.cpp:141] Setting up probs
I0925 22:41:20.632563  6793 net.cpp:148] Top shape: 1 1 46168 (46168)
I0925 22:41:20.632576  6793 net.cpp:156] Memory required for data: 405756
I0925 22:41:20.632594  6793 net.cpp:219] probs does not need backward computation.
I0925 22:41:20.632608  6793 net.cpp:219] predict does not need backward computation.
I0925 22:41:20.632624  6793 net.cpp:219] lstm2 does not need backward computation.
I0925 22:41:20.632638  6793 net.cpp:219] concat does not need backward computation.
I0925 22:41:20.632652  6793 net.cpp:219] lstm1 does not need backward computation.
I0925 22:41:20.632668  6793 net.cpp:219] embedding does not need backward computation.
I0925 22:41:20.632678  6793 net.cpp:219] reshape_stage_indicator does not need backward computation.
I0925 22:41:20.632690  6793 net.cpp:219] reshape_frames does not need backward computation.
I0925 22:41:20.632702  6793 net.cpp:219] embed_encoder does not need backward computation.
I0925 22:41:20.632714  6793 net.cpp:219] cont_sentence_input_1_split does not need backward computation.
I0925 22:41:20.632726  6793 net.cpp:219] input does not need backward computation.
I0925 22:41:20.632735  6793 net.cpp:261] This network produces output probs
I0925 22:41:20.632764  6793 net.cpp:274] Network initialization done.
I0925 22:41:20.632486  6833 net.cpp:141] Setting up conv3
I0925 22:41:20.634306  6833 net.cpp:148] Top shape: 10 384 13 13 (648960)
I0925 22:41:20.634328  6833 net.cpp:156] Memory required for data: 56001080
I0925 22:41:20.634395  6833 layer_factory.hpp:77] Creating layer relu3
I0925 22:41:20.634423  6833 net.cpp:91] Creating Layer relu3
I0925 22:41:20.634434  6833 net.cpp:425] relu3 <- conv3
I0925 22:41:20.635051  6833 net.cpp:386] relu3 -> conv3 (in-place)
I0925 22:41:20.635764  6833 net.cpp:141] Setting up relu3
I0925 22:41:20.635793  6833 net.cpp:148] Top shape: 10 384 13 13 (648960)
I0925 22:41:20.635802  6833 net.cpp:156] Memory required for data: 58596920
I0925 22:41:20.635813  6833 layer_factory.hpp:77] Creating layer conv4
I0925 22:41:20.635845  6833 net.cpp:91] Creating Layer conv4
I0925 22:41:20.635857  6833 net.cpp:425] conv4 <- conv3
I0925 22:41:20.635944  6833 net.cpp:399] conv4 -> conv4
I0925 22:41:20.675489  6833 net.cpp:141] Setting up conv4
I0925 22:41:20.676589  6833 net.cpp:148] Top shape: 10 384 13 13 (648960)
I0925 22:41:20.677189  6833 net.cpp:156] Memory required for data: 61192760
I0925 22:41:20.677639  6833 layer_factory.hpp:77] Creating layer relu4
I0925 22:41:20.678148  6833 net.cpp:91] Creating Layer relu4
I0925 22:41:20.678776  6833 net.cpp:425] relu4 <- conv4
I0925 22:41:20.679160  6833 net.cpp:386] relu4 -> conv4 (in-place)
I0925 22:41:20.681828  6833 net.cpp:141] Setting up relu4
I0925 22:41:20.682862  6833 net.cpp:148] Top shape: 10 384 13 13 (648960)
I0925 22:41:20.683228  6833 net.cpp:156] Memory required for data: 63788600
I0925 22:41:20.683707  6833 layer_factory.hpp:77] Creating layer conv5
I0925 22:41:20.683949  6833 net.cpp:91] Creating Layer conv5
I0925 22:41:20.684114  6833 net.cpp:425] conv5 <- conv4
I0925 22:41:20.684783  6833 net.cpp:399] conv5 -> conv5
I0925 22:41:20.718729  6833 net.cpp:141] Setting up conv5
I0925 22:41:20.719316  6833 net.cpp:148] Top shape: 10 256 13 13 (432640)
I0925 22:41:20.719535  6833 net.cpp:156] Memory required for data: 65519160
I0925 22:41:20.719729  6833 layer_factory.hpp:77] Creating layer relu5
I0925 22:41:20.719980  6833 net.cpp:91] Creating Layer relu5
I0925 22:41:20.720229  6833 net.cpp:425] relu5 <- conv5
I0925 22:41:20.720396  6833 net.cpp:386] relu5 -> conv5 (in-place)
I0925 22:41:20.722082  6833 net.cpp:141] Setting up relu5
I0925 22:41:20.722578  6833 net.cpp:148] Top shape: 10 256 13 13 (432640)
I0925 22:41:20.722754  6833 net.cpp:156] Memory required for data: 67249720
I0925 22:41:20.722908  6833 layer_factory.hpp:77] Creating layer pool5
I0925 22:41:20.723074  6833 net.cpp:91] Creating Layer pool5
I0925 22:41:20.723306  6833 net.cpp:425] pool5 <- conv5
I0925 22:41:20.723467  6833 net.cpp:399] pool5 -> pool5
I0925 22:41:20.724545  6833 net.cpp:141] Setting up pool5
I0925 22:41:20.725024  6833 net.cpp:148] Top shape: 10 256 6 6 (92160)
I0925 22:41:20.725225  6833 net.cpp:156] Memory required for data: 67618360
I0925 22:41:20.725384  6833 layer_factory.hpp:77] Creating layer fc6
I0925 22:41:20.725874  6833 net.cpp:91] Creating Layer fc6
I0925 22:41:20.726070  6833 net.cpp:425] fc6 <- pool5
I0925 22:41:20.726341  6833 net.cpp:399] fc6 -> fc6
I0925 22:41:20.851996  6841 net.cpp:141] Setting up predict
I0925 22:41:20.852077  6841 net.cpp:148] Top shape: 1 1 46168 (46168)
I0925 22:41:20.852088  6841 net.cpp:156] Memory required for data: 221084
I0925 22:41:20.852123  6841 layer_factory.hpp:77] Creating layer probs
I0925 22:41:20.852151  6841 net.cpp:91] Creating Layer probs
I0925 22:41:20.852177  6841 net.cpp:425] probs <- predict
I0925 22:41:20.852195  6841 net.cpp:399] probs -> probs
I0925 22:41:20.854480  6841 net.cpp:141] Setting up probs
I0925 22:41:20.854557  6841 net.cpp:148] Top shape: 1 1 46168 (46168)
I0925 22:41:20.854568  6841 net.cpp:156] Memory required for data: 405756
I0925 22:41:20.854583  6841 net.cpp:219] probs does not need backward computation.
I0925 22:41:20.854609  6841 net.cpp:219] predict does not need backward computation.
I0925 22:41:20.854620  6841 net.cpp:219] lstm2 does not need backward computation.
I0925 22:41:20.854640  6841 net.cpp:219] concat does not need backward computation.
I0925 22:41:20.854651  6841 net.cpp:219] lstm1 does not need backward computation.
I0925 22:41:20.854665  6841 net.cpp:219] embedding does not need backward computation.
I0925 22:41:20.854673  6841 net.cpp:219] reshape_stage_indicator does not need backward computation.
I0925 22:41:20.854681  6841 net.cpp:219] reshape_frames does not need backward computation.
I0925 22:41:20.854697  6841 net.cpp:219] embed_encoder does not need backward computation.
I0925 22:41:20.854706  6841 net.cpp:219] cont_sentence_input_1_split does not need backward computation.
I0925 22:41:20.854723  6841 net.cpp:219] input does not need backward computation.
I0925 22:41:20.854729  6841 net.cpp:261] This network produces output probs
I0925 22:41:20.855221  6841 net.cpp:274] Network initialization done.
I0925 22:41:20.888072  6833 net.cpp:141] Setting up fc6
I0925 22:41:20.888798  6833 net.cpp:148] Top shape: 10 4096 (40960)
I0925 22:41:20.888977  6833 net.cpp:156] Memory required for data: 67782200
I0925 22:41:20.889240  6833 layer_factory.hpp:77] Creating layer relu6
I0925 22:41:20.889431  6833 net.cpp:91] Creating Layer relu6
I0925 22:41:20.889600  6833 net.cpp:425] relu6 <- fc6
I0925 22:41:20.889976  6833 net.cpp:386] relu6 -> fc6 (in-place)
I0925 22:41:20.891604  6833 net.cpp:141] Setting up relu6
I0925 22:41:20.892180  6833 net.cpp:148] Top shape: 10 4096 (40960)
I0925 22:41:20.892369  6833 net.cpp:156] Memory required for data: 67946040
I0925 22:41:20.892396  6833 layer_factory.hpp:77] Creating layer drop6
I0925 22:41:20.892443  6833 net.cpp:91] Creating Layer drop6
I0925 22:41:20.892460  6833 net.cpp:425] drop6 <- fc6
I0925 22:41:20.892731  6833 net.cpp:386] drop6 -> fc6 (in-place)
I0925 22:41:20.893085  6833 net.cpp:141] Setting up drop6
I0925 22:41:20.893115  6833 net.cpp:148] Top shape: 10 4096 (40960)
I0925 22:41:20.893124  6833 net.cpp:156] Memory required for data: 68109880
I0925 22:41:20.893170  6833 layer_factory.hpp:77] Creating layer fc7
I0925 22:41:20.893213  6833 net.cpp:91] Creating Layer fc7
I0925 22:41:20.893224  6833 net.cpp:425] fc7 <- fc6
I0925 22:41:20.893237  6833 net.cpp:399] fc7 -> fc7
I0925 22:41:20.957406  6833 net.cpp:141] Setting up fc7
I0925 22:41:20.957473  6833 net.cpp:148] Top shape: 10 4096 (40960)
I0925 22:41:20.957484  6833 net.cpp:156] Memory required for data: 68273720
I0925 22:41:20.957511  6833 layer_factory.hpp:77] Creating layer relu7
I0925 22:41:20.957543  6833 net.cpp:91] Creating Layer relu7
I0925 22:41:20.957557  6833 net.cpp:425] relu7 <- fc7
I0925 22:41:20.957576  6833 net.cpp:386] relu7 -> fc7 (in-place)
I0925 22:41:20.959259  6833 net.cpp:141] Setting up relu7
I0925 22:41:20.959331  6833 net.cpp:148] Top shape: 10 4096 (40960)
I0925 22:41:20.959343  6833 net.cpp:156] Memory required for data: 68437560
I0925 22:41:20.959358  6833 layer_factory.hpp:77] Creating layer drop7
I0925 22:41:20.959386  6833 net.cpp:91] Creating Layer drop7
I0925 22:41:20.959398  6833 net.cpp:425] drop7 <- fc7
I0925 22:41:20.960405  6833 net.cpp:386] drop7 -> fc7 (in-place)
I0925 22:41:20.960635  6833 net.cpp:141] Setting up drop7
I0925 22:41:20.961045  6833 net.cpp:148] Top shape: 10 4096 (40960)
I0925 22:41:20.961055  6833 net.cpp:156] Memory required for data: 68601400
I0925 22:41:20.961066  6833 layer_factory.hpp:77] Creating layer fc8
I0925 22:41:20.961088  6833 net.cpp:91] Creating Layer fc8
I0925 22:41:20.961098  6833 net.cpp:425] fc8 <- fc7
I0925 22:41:20.961113  6833 net.cpp:399] fc8 -> fc8
I0925 22:41:20.987637  6833 net.cpp:141] Setting up fc8
I0925 22:41:20.987709  6833 net.cpp:148] Top shape: 10 1000 (10000)
I0925 22:41:20.987720  6833 net.cpp:156] Memory required for data: 68641400
I0925 22:41:20.987743  6833 layer_factory.hpp:77] Creating layer prob
I0925 22:41:20.988812  6833 net.cpp:91] Creating Layer prob
I0925 22:41:20.988868  6833 net.cpp:425] prob <- fc8
I0925 22:41:20.988898  6833 net.cpp:399] prob -> prob
I0925 22:41:20.992621  6833 net.cpp:141] Setting up prob
I0925 22:41:20.992681  6833 net.cpp:148] Top shape: 10 1000 (10000)
I0925 22:41:20.992691  6833 net.cpp:156] Memory required for data: 68681400
I0925 22:41:20.992705  6833 net.cpp:219] prob does not need backward computation.
I0925 22:41:20.992717  6833 net.cpp:219] fc8 does not need backward computation.
I0925 22:41:20.992725  6833 net.cpp:219] drop7 does not need backward computation.
I0925 22:41:20.992733  6833 net.cpp:219] relu7 does not need backward computation.
…
