…
Java HotSpot(TM) 64-Bit Server VM warning: You have loaded library /home/lvnguyen/tools/opencv-3.1.0/install/lib/libopencv_core.so.3.1.0 which might have disabled stack guard. The VM will try to fix the stack guard now.
It's highly recommended that you fix the library with 'execstack -c <libfile>', or link it with '-z noexecstack'.
WARNING: Logging before InitGoogleLogging() is written to STDERR
I0705 15:10:40.206908 21448 net.cpp:49] Initializing net from parameters: 
name: "GoogleNet"
state {
  phase: TEST
}
layer {
  name: "data"
  type: "Input"
  top: "data"
  input_param {
    shape {
      dim: 10
      dim: 3
      dim: 224
      dim: 224
    }
  }
}
layer {
  name: "conv1/7x7_s2"
  type: "Convolution"
  bottom: "data"
  top: "conv1/7x7_s2"
  param {
    lr_mult: 1
    decay_mult: 1
  }
  param {
    lr_mult: 2
    decay_mult: 0
  }
  convolution_param {
    num_output: 64
    pad: 3
    kernel_size: 7
    stride: 2
    weight_filler {
      type: "xavier"
      std: 0.1
    }
    bias_filler {
      type: "constant"
      value: 0.2
    }
  }
}
layer {
  name: "conv1/relu_7x7"
  type: "ReLU"
  bottom: "conv1/7x7_s2"
  top: "conv1/7x7_s2"
}
layer {
  name: "pool1/3x3_s2"
  type: "Pooling"
  bottom: "conv1/7x7_s2"
  top: "pool1/3x3_s2"
  pooling_param {
    pool: MAX
    kernel_size: 3
    stride: 2
  }
}
layer {
  name: "pool1/norm1"
  type: "LRN"
  bottom: "pool1/3x3_s2"
  top: "pool1/norm1"
  lrn_param {
    local_size: 5
    alpha: 0.0001
    beta: 0.75
  }
}
layer {
  name: "conv2/3x3_reduce"
  type: "Convolution"
  bottom: "pool1/norm1"
  top: "conv2/3x3_reduce"
  param {
    lr_mult: 1
    decay_mult: 1
  }
  param {
    lr_mult: 2
    decay_mult: 0
  }
  convolution_param {
    num_output: 64
    kernel_size: 1
    weight_filler {
      type: "xavier"
      std: 0.1
    }
    bias_filler {
      type: "constant"
      value: 0.2
    }
  }
}
layer {
  name: "conv2/relu_3x3_reduce"
  type: "ReLU"
  bottom: "conv2/3x3_reduce"
  top: "conv2/3x3_reduce"
}
layer {
  name: "conv2/3x3"
  type: "Convolution"
  bottom: "conv2/3x3_reduce"
  top: "conv2/3x3"
  param {
    lr_mult: 1
    decay_mult: 1
  }
  param {
    lr_mult: 2
    decay_mult: 0
  }
  convolution_param {
    num_output: 192
    pad: 1
    kernel_size: 3
    weight_filler {
      type: "xavier"
      std: 0.03
    }
    bias_filler {
      type: "constant"
      value: 0.2
    }
  }
}
layer {
  name: "conv2/relu_3x3"
  type: "ReLU"
  bottom: "conv2/3x3"
  top: "conv2/3x3"
}
layer {
  name: "conv2/norm2"
  type: "LRN"
  bottom: "conv2/3x3"
  top: "conv2/norm2"
  lrn_param {
    local_size: 5
    alpha: 0.0001
    beta: 0.75
  }
}
layer {
  name: "pool2/3x3_s2"
  type: "Pooling"
  bottom: "conv2/norm2"
  top: "pool2/3x3_s2"
  pooling_param {
    pool: MAX
    kernel_size: 3
    stride: 2
  }
}
layer {
  name: "inception_3a/1x1"
  type: "Convolution"
  bottom: "pool2/3x3_s2"
  top: "inception_3a/1x1"
  param {
    lr_mult: 1
    decay_mult: 1
  }
  param {
    lr_mult: 2
    decay_mult: 0
  }
  convolution_param {
    num_output: 64
    kernel_size: 1
    weight_filler {
      type: "xavier"
      std: 0.03
    }
    bias_filler {
      type: "constant"
      value: 0.2
    }
  }
}
layer {
  name: "inception_3a/relu_1x1"
  type: "ReLU"
  bottom: "inception_3a/1x1"
  top: "inception_3a/1x1"
}
layer {
  name: "inception_3a/3x3_reduce"
  type: "Convolution"
  bottom: "pool2/3x3_s2"
  top: "inception_3a/3x3_reduce"
  param {
    lr_mult: 1
    decay_mult: 1
  }
  param {
    lr_mult: 2
    decay_mult: 0
  }
  convolution_param {
    num_output: 96
    kernel_size: 1
    weight_filler {
      type: "xavier"
      std: 0.09
    }
    bias_filler {
      type: "constant"
      value: 0.2
    }
  }
}
layer {
  name: "inception_3a/relu_3x3_reduce"
  type: "ReLU"
  bottom: "inception_3a/3x3_reduce"
  top: "inception_3a/3x3_reduce"
}
layer {
  name: "inception_3a/3x3"
  type: "Convolution"
  bottom: "inception_3a/3x3_reduce"
  top: "inception_3a/3x3"
  param {
    lr_mult: 1
    decay_mult: 1
  }
  param {
    lr_mult: 2
    decay_mult: 0
  }
  convolution_param {
    num_output: 128
    pad: 1
    kernel_size: 3
    weight_filler {
      type: "xavier"
      std: 0.03
    }
    bias_filler {
      type: "constant"
      value: 0.2
    }
  }
}
layer {
  name: "inception_3a/relu_3x3"
  type: "ReLU"
  bottom: "inception_3a/3x3"
  top: "inception_3a/3x3"
}
layer {
  name: "inception_3a/5x5_reduce"
  type: "Convolution"
  bottom: "pool2/3x3_s2"
  top: "inception_3a/5x5_reduce"
  param {
    lr_mult: 1
    decay_mult: 1
  }
  param {
    lr_mult: 2
    decay_mult: 0
  }
  convolution_param {
    num_output: 16
    kernel_size: 1
    weight_filler {
      type: "xavier"
      std: 0.2
    }
    bias_filler {
      type: "constant"
      value: 0.2
    }
  }
}
layer {
  name: "inception_3a/relu_5x5_reduce"
  type: "ReLU"
  bottom: "inception_3a/5x5_reduce"
  top: "inception_3a/5x5_reduce"
}
layer {
  name: "inception_3a/5x5"
  type: "Convolution"
  bottom: "inception_3a/5x5_reduce"
  top: "inception_3a/5x5"
  param {
    lr_mult: 1
    decay_mult: 1
  }
  param {
    lr_mult: 2
    decay_mult: 0
  }
  convolution_param {
    num_output: 32
    pad: 2
    kernel_size: 5
    weight_filler {
      type: "xavier"
      std: 0.03
    }
    bias_filler {
      type: "constant"
      value: 0.2
    }
  }
}
layer {
  name: "inception_3a/relu_5x5"
  type: "ReLU"
  bottom: "inception_3a/5x5"
  top: "inception_3a/5x5"
}
layer {
  name: "inception_3a/pool"
  type: "Pooling"
  bottom: "pool2/3x3_s2"
  top: "inception_3a/pool"
  pooling_param {
    pool: MAX
    kernel_size: 3
    stride: 1
    pad: 1
  }
}
layer {
  name: "inception_3a/pool_proj"
  type: "Convolution"
  bottom: "inception_3a/pool"
  top: "inception_3a/pool_proj"
  param {
    lr_mult: 1
    decay_mult: 1
  }
  param {
    lr_mult: 2
    decay_mult: 0
  }
  convolution_param {
    num_output: 32
    kernel_size: 1
    weight_filler {
      type: "xavier"
      std: 0.1
    }
    bias_filler {
      type: "constant"
      value: 0.2
    }
  }
}
layer {
  name: "inception_3a/relu_pool_proj"
  type: "ReLU"
  bottom: "inception_3a/pool_proj"
  top: "inception_3a/pool_proj"
}
layer {
  name: "inception_3a/output"
  type: "Concat"
  bottom: "inception_3a/1x1"
  bottom: "inception_3a/3x3"
  bottom: "inception_3a/5x5"
  bottom: "inception_3a/pool_proj"
  top: "inception_3a/output"
}
layer {
  name: "inception_3b/1x1"
  type: "Convolution"
  bottom: "inception_3a/output"
  top: "inception_3b/1x1"
  param {
    lr_mult: 1
    decay_mult: 1
  }
  param {
    lr_mult: 2
    decay_mult: 0
  }
  convolution_param {
    num_output: 128
    kernel_size: 1
    weight_filler {
      type: "xavier"
      std: 0.03
    }
    bias_filler {
      type: "constant"
      value: 0.2
    }
  }
}
layer {
  name: "inception_3b/relu_1x1"
  type: "ReLU"
  bottom: "inception_3b/1x1"
  top: "inception_3b/1x1"
}
layer {
  name: "inception_3b/3x3_reduce"
  type: "Convolution"
  bottom: "inception_3a/output"
  top: "inception_3b/3x3_reduce"
  param {
    lr_mult: 1
    decay_mult: 1
  }
  param {
    lr_mult: 2
    decay_mult: 0
  }
  convolution_param {
    num_output: 128
    kernel_size: 1
    weight_filler {
      type: "xavier"
      std: 0.09
    }
    bias_filler {
      type: "constant"
      value: 0.2
    }
  }
}
layer {
  name: "inception_3b/relu_3x3_reduce"
  type: "ReLU"
  bottom: "inception_3b/3x3_reduce"
  top: "inception_3b/3x3_reduce"
}
layer {
  name: "inception_3b/3x3"
  type: "Convolution"
  bottom: "inception_3b/3x3_reduce"
  top: "inception_3b/3x3"
  param {
    lr_mult: 1
    decay_mult: 1
  }
  param {
    lr_mult: 2
    decay_mult: 0
  }
  convolution_param {
    num_output: 192
    pad: 1
    kernel_size: 3
    weight_filler {
      type: "xavier"
      std: 0.03
    }
    bias_filler {
      type: "constant"
      value: 0.2
    }
  }
}
layer {
  name: "inception_3b/relu_3x3"
  type: "ReLU"
  bottom: "inception_3b/3x3"
  top: "inception_3b/3x3"
}
layer {
  name: "inception_3b/5x5_reduce"
  type: "Convolution"
  bottom: "inception_3a/output"
  top: "inception_3b/5x5_reduce"
  param {
    lr_mult: 1
    decay_mult: 1
  }
  param {
    lr_mult: 2
    decay_mult: 0
  }
  convolution_param {
    num_output: 32
    kernel_size: 1
    weight_filler {
      type: "xavier"
      std: 0.2
    }
    bias_filler {
      type: "constant"
      value: 0.2
    }
  }
}
layer {
  name: "inception_3b/relu_5x5_reduce"
  type: "ReLU"
  bottom: "inception_3b/5x5_reduce"
  top: "inception_3b/5x5_reduce"
}
layer {
  name: "inception_3b/5x5"
  type: "Convolution"
  bottom: "inception_3b/5x5_reduce"
  top: "inception_3b/5x5"
  param {
    lr_mult: 1
    decay_mult: 1
  }
  param {
    lr_mult: 2
    decay_mult: 0
  }
  convolution_param {
    num_output: 96
    pad: 2
    kernel_size: 5
    weight_filler {
      type: "xavier"
      std: 0.03
    }
    bias_filler {
      type: "constant"
      value: 0.2
    }
  }
}
layer {
  name: "inception_3b/relu_5x5"
  type: "ReLU"
  bottom: "inception_3b/5x5"
  top: "inception_3b/5x5"
}
layer {
  name: "inception_3b/pool"
  type: "Pooling"
  bottom: "inception_3a/output"
  top: "inception_3b/pool"
  pooling_param {
    pool: MAX
    kernel_size: 3
    stride: 1
    pad: 1
  }
}
layer {
  name: "inception_3b/pool_proj"
  type: "Convolution"
  bottom: "inception_3b/pool"
  top: "inception_3b/pool_proj"
  param {
    lr_mult: 1
    decay_mult: 1
  }
  param {
    lr_mult: 2
    decay_mult: 0
  }
  convolution_param {
    num_output: 64
    kernel_size: 1
    weight_filler {
      type: "xavier"
      std: 0.1
    }
    bias_filler {
      type: "constant"
      value: 0.2
    }
  }
}
layer {
  name: "inception_3b/relu_pool_proj"
  type: "ReLU"
  bottom: "inception_3b/pool_proj"
  top: "inception_3b/pool_proj"
}
layer {
  name: "inception_3b/output"
  type: "Concat"
  bottom: "inception_3b/1x1"
  bottom: "inception_3b/3x3"
  bottom: "inception_3b/5x5"
  bottom: "inception_3b/pool_proj"
  top: "inception_3b/output"
}
layer {
  name: "pool3/3x3_s2"
  type: "Pooling"
  bottom: "inception_3b/output"
  top: "pool3/3x3_s2"
  pooling_param {
    pool: MAX
    kernel_size: 3
    stride: 2
  }
}
layer {
  name: "inception_4a/1x1"
  type: "Convolution"
  bottom: "pool3/3x3_s2"
  top: "inception_4a/1x1"
  param {
    lr_mult: 1
    decay_mult: 1
  }
  param {
    lr_mult: 2
    decay_mult: 0
  }
  convolution_param {
    num_output: 192
    kernel_size: 1
    weight_filler {
      type: "xavier"
      std: 0.03
    }
    bias_filler {
      type: "constant"
      value: 0.2
    }
  }
}
layer {
  name: "inception_4a/relu_1x1"
  type: "ReLU"
  bottom: "inception_4a/1x1"
  top: "inception_4a/1x1"
}
layer {
  name: "inception_4a/3x3_reduce"
  type: "Convolution"
  bottom: "pool3/3x3_s2"
  top: "inception_4a/3x3_reduce"
  param {
    lr_mult: 1
    decay_mult: 1
  }
  param {
    lr_mult: 2
    decay_mult: 0
  }
  convolution_param {
    num_output: 96
    kernel_size: 1
    weight_filler {
      type: "xavier"
      std: 0.09
    }
    bias_filler {
      type: "constant"
      value: 0.2
    }
  }
}
layer {
  name: "inception_4a/relu_3x3_reduce"
  type: "ReLU"
  bottom: "inception_4a/3x3_reduce"
  top: "inception_4a/3x3_reduce"
}
layer {
  name: "inception_4a/3x3"
  type: "Convolution"
  bottom: "inception_4a/3x3_reduce"
  top: "inception_4a/3x3"
  param {
    lr_mult: 1
    decay_mult: 1
  }
  param {
    lr_mult: 2
    decay_mult: 0
  }
  convolution_param {
    num_output: 208
    pad: 1
    kernel_size: 3
    weight_filler {
      type: "xavier"
      std: 0.03
    }
    bias_filler {
      type: "constant"
      value: 0.2
    }
  }
}
layer {
  name: "inception_4a/relu_3x3"
  type: "ReLU"
  bottom: "inception_4a/3x3"
  top: "inception_4a/3x3"
}
layer {
  name: "inception_4a/5x5_reduce"
  type: "Convolution"
  bottom: "pool3/3x3_s2"
  top: "inception_4a/5x5_reduce"
  param {
    lr_mult: 1
    decay_mult: 1
  }
  param {
    lr_mult: 2
    decay_mult: 0
  }
  convolution_param {
    num_output: 16
    kernel_size: 1
    weight_filler {
      type: "xavier"
      std: 0.2
    }
    bias_filler {
      type: "constant"
      value: 0.2
    }
  }
}
layer {
  name: "inception_4a/relu_5x5_reduce"
  type: "ReLU"
  bottom: "inception_4a/5x5_reduce"
  top: "inception_4a/5x5_reduce"
}
layer {
  name: "inception_4a/5x5"
  type: "Convolution"
  bottom: "inception_4a/5x5_reduce"
  top: "inception_4a/5x5"
  param {
    lr_mult: 1
    decay_mult: 1
  }
  param {
    lr_mult: 2
    decay_mult: 0
  }
  convolution_param {
    num_output: 48
    pad: 2
    kernel_size: 5
    weight_filler {
      type: "xavier"
      std: 0.03
    }
    bias_filler {
      type: "constant"
      value: 0.2
    }
  }
}
layer {
  name: "inception_4a/relu_5x5"
  type: "ReLU"
  bottom: "inception_4a/5x5"
  top: "inception_4a/5x5"
}
layer {
  name: "inception_4a/pool"
  type: "Pooling"
  bottom: "pool3/3x3_s2"
  top: "inception_4a/pool"
  pooling_param {
    pool: MAX
    kernel_size: 3
    stride: 1
    pad: 1
  }
}
layer {
  name: "inception_4a/pool_proj"
  type: "Convolution"
  bottom: "inception_4a/pool"
  top: "inception_4a/pool_proj"
  param {
    lr_mult: 1
    decay_mult: 1
  }
  param {
    lr_mult: 2
    decay_mult: 0
  }
  convolution_param {
    num_output: 64
    kernel_size: 1
    weight_filler {
      type: "xavier"
      std: 0.1
    }
    bias_filler {
      type: "constant"
      value: 0.2
    }
  }
}
layer {
  name: "inception_4a/relu_pool_proj"
  type: "ReLU"
  bottom: "inception_4a/pool_proj"
  top: "inception_4a/pool_proj"
}
layer {
  name: "inception_4a/output"
  type: "Concat"
  bottom: "inception_4a/1x1"
  bottom: "inception_4a/3x3"
  bottom: "inception_4a/5x5"
  bottom: "inception_4a/pool_proj"
  top: "inception_4a/output"
}
layer {
  name: "inception_4b/1x1"
  type: "Convolution"
  bottom: "inception_4a/output"
  top: "inception_4b/1x1"
  param {
    lr_mult: 1
    decay_mult: 1
  }
  param {
    lr_mult: 2
    decay_mult: 0
  }
  convolution_param {
    num_output: 160
    kernel_size: 1
    weight_filler {
      type: "xavier"
      std: 0.03
    }
    bias_filler {
      type: "constant"
      value: 0.2
    }
  }
}
layer {
  name: "inception_4b/relu_1x1"
  type: "ReLU"
  bottom: "inception_4b/1x1"
  top: "inception_4b/1x1"
}
layer {
  name: "inception_4b/3x3_reduce"
  type: "Convolution"
  bottom: "inception_4a/output"
  top: "inception_4b/3x3_reduce"
  param {
    lr_mult: 1
    decay_mult: 1
  }
  param {
    lr_mult: 2
    decay_mult: 0
  }
  convolution_param {
    num_output: 112
    kernel_size: 1
    weight_filler {
      type: "xavier"
      std: 0.09
    }
    bias_filler {
      type: "constant"
      value: 0.2
    }
  }
}
layer {
  name: "inception_4b/relu_3x3_reduce"
  type: "ReLU"
  bottom: "inception_4b/3x3_reduce"
  top: "inception_4b/3x3_reduce"
}
layer {
  name: "inception_4b/3x3"
  type: "Convolution"
  bottom: "inception_4b/3x3_reduce"
  top: "inception_4b/3x3"
  param {
    lr_mult: 1
    decay_mult: 1
  }
  param {
    lr_mult: 2
    decay_mult: 0
  }
  convolution_param {
    num_output: 224
    pad: 1
    kernel_size: 3
    weight_filler {
      type: "xavier"
      std: 0.03
    }
    bias_filler {
      type: "constant"
      value: 0.2
    }
  }
}
layer {
  name: "inception_4b/relu_3x3"
  type: "ReLU"
  bottom: "inception_4b/3x3"
  top: "inception_4b/3x3"
}
layer {
  name: "inception_4b/5x5_reduce"
  type: "Convolution"
  bottom: "inception_4a/output"
  top: "inception_4b/5x5_reduce"
  param {
    lr_mult: 1
    decay_mult: 1
  }
  param {
    lr_mult: 2
    decay_mult: 0
  }
  convolution_param {
    num_output: 24
    kernel_size: 1
    weight_filler {
      type: "xavier"
      std: 0.2
    }
    bias_filler {
      type: "constant"
      value: 0.2
    }
  }
}
layer {
  name: "inception_4b/relu_5x5_reduce"
  type: "ReLU"
  bottom: "inception_4b/5x5_reduce"
  top: "inception_4b/5x5_reduce"
}
layer {
  name: "inception_4b/5x5"
  type: "Convolution"
  bottom: "inception_4b/5x5_reduce"
  top: "inception_4b/5x5"
  param {
    lr_mult: 1
    decay_mult: 1
  }
  param {
    lr_mult: 2
    decay_mult: 0
  }
  convolution_param {
    num_output: 64
    pad: 2
    kernel_size: 5
    weight_filler {
      type: "xavier"
      std: 0.03
    }
    bias_filler {
      type: "constant"
      value: 0.2
    }
  }
}
layer {
  name: "inception_4b/relu_5x5"
  type: "ReLU"
  bottom: "inception_4b/5x5"
  top: "inception_4b/5x5"
}
layer {
  name: "inception_4b/pool"
  type: "Pooling"
  bottom: "inception_4a/output"
  top: "inception_4b/pool"
  pooling_param {
    pool: MAX
    kernel_size: 3
    stride: 1
    pad: 1
  }
}
layer {
  name: "inception_4b/pool_proj"
  type: "Convolution"
  bottom: "inception_4b/pool"
  top: "inception_4b/pool_proj"
  param {
    lr_mult: 1
    decay_mult: 1
  }
  param {
    lr_mult: 2
    decay_mult: 0
  }
  convolution_param {
    num_output: 64
    kernel_size: 1
    weight_filler {
      type: "xavier"
      std: 0.1
    }
    bias_filler {
      type: "constant"
      value: 0.2
    }
  }
}
layer {
  name: "inception_4b/relu_pool_proj"
  type: "ReLU"
  bottom: "inception_4b/pool_proj"
  top: "inception_4b/pool_proj"
}
layer {
  name: "inception_4b/output"
  type: "Concat"
  bottom: "inception_4b/1x1"
  bottom: "inception_4b/3x3"
  bottom: "inception_4b/5x5"
  bottom: "inception_4b/pool_proj"
  top: "inception_4b/output"
}
layer {
  name: "inception_4c/1x1"
  type: "Convolution"
  bottom: "inception_4b/output"
  top: "inception_4c/1x1"
  param {
    lr_mult: 1
    decay_mult: 1
  }
  param {
    lr_mult: 2
    decay_mult: 0
  }
  convolution_param {
    num_output: 128
    kernel_size: 1
    weight_filler {
      type: "xavier"
      std: 0.03
    }
    bias_filler {
      type: "constant"
      value: 0.2
    }
  }
}
layer {
  name: "inception_4c/relu_1x1"
  type: "ReLU"
  bottom: "inception_4c/1x1"
  top: "inception_4c/1x1"
}
layer {
  name: "inception_4c/3x3_reduce"
  type: "Convolution"
  bottom: "inception_4b/output"
  top: "inception_4c/3x3_reduce"
  param {
    lr_mult: 1
    decay_mult: 1
  }
  param {
    lr_mult: 2
    decay_mult: 0
  }
  convolution_param {
    num_output: 128
    kernel_size: 1
    weight_filler {
      type: "xavier"
      std: 0.09
    }
    bias_filler {
      type: "constant"
      value: 0.2
    }
  }
}
layer {
  name: "inception_4c/relu_3x3_reduce"
  type: "ReLU"
  bottom: "inception_4c/3x3_reduce"
  top: "inception_4c/3x3_reduce"
}
layer {
  name: "inception_4c/3x3"
  type: "Convolution"
  bottom: "inception_4c/3x3_reduce"
  top: "inception_4c/3x3"
  param {
    lr_mult: 1
    decay_mult: 1
  }
  param {
    lr_mult: 2
    decay_mult: 0
  }
  convolution_param {
    num_output: 256
    pad: 1
    kernel_size: 3
    weight_filler {
      type: "xavier"
      std: 0.03
    }
    bias_filler {
      type: "constant"
      value: 0.2
    }
  }
}
layer {
  name: "inception_4c/relu_3x3"
  type: "ReLU"
  bottom: "inception_4c/3x3"
  top: "inception_4c/3x3"
}
layer {
  name: "inception_4c/5x5_reduce"
  type: "Convolution"
  bottom: "inception_4b/output"
  top: "inception_4c/5x5_reduce"
  param {
    lr_mult: 1
    decay_mult: 1
  }
  param {
    lr_mult: 2
    decay_mult: 0
  }
  convolution_param {
    num_output: 24
    kernel_size: 1
    weight_filler {
      type: "xavier"
      std: 0.2
    }
    bias_filler {
      type: "constant"
      value: 0.2
    }
  }
}
layer {
  name: "inception_4c/relu_5x5_reduce"
  type: "ReLU"
  bottom: "inception_4c/5x5_reduce"
  top: "inception_4c/5x5_reduce"
}
layer {
  name: "inception_4c/5x5"
  type: "Convolution"
  bottom: "inception_4c/5x5_reduce"
  top: "inception_4c/5x5"
  param {
    lr_mult: 1
    decay_mult: 1
  }
  param {
    lr_mult: 2
    decay_mult: 0
  }
  convolution_param {
    num_output: 64
    pad: 2
    kernel_size: 5
    weight_filler {
      type: "xavier"
      std: 0.03
    }
    bias_filler {
      type: "constant"
      value: 0.2
    }
  }
}
layer {
  name: "inception_4c/relu_5x5"
  type: "ReLU"
  bottom: "inception_4c/5x5"
  top: "inception_4c/5x5"
}
layer {
  name: "inception_4c/pool"
  type: "Pooling"
  bottom: "inception_4b/output"
  top: "inception_4c/pool"
  pooling_param {
    pool: MAX
    kernel_size: 3
    stride: 1
    pad: 1
  }
}
layer {
  name: "inception_4c/pool_proj"
  type: "Convolution"
  bottom: "inception_4c/pool"
  top: "inception_4c/pool_proj"
  param {
    lr_mult: 1
    decay_mult: 1
  }
  param {
    lr_mult: 2
    decay_mult: 0
  }
  convolution_param {
    num_output: 64
    kernel_size: 1
    weight_filler {
      type: "xavier"
      std: 0.1
    }
    bias_filler {
      type: "constant"
      value: 0.2
    }
  }
}
layer {
  name: "inception_4c/relu_pool_proj"
  type: "ReLU"
  bottom: "inception_4c/pool_proj"
  top: "inception_4c/pool_proj"
}
layer {
  name: "inception_4c/output"
  type: "Concat"
  bottom: "inception_4c/1x1"
  bottom: "inception_4c/3x3"
  bottom: "inception_4c/5x5"
  bottom: "inception_4c/pool_proj"
  top: "inception_4c/output"
}
layer {
  name: "inception_4d/1x1"
  type: "Convolution"
  bottom: "inception_4c/output"
  top: "inception_4d/1x1"
  param {
    lr_mult: 1
    decay_mult: 1
  }
  param {
    lr_mult: 2
    decay_mult: 0
  }
  convolution_param {
    num_output: 112
    kernel_size: 1
    weight_filler {
      type: "xavier"
      std: 0.03
    }
    bias_filler {
      type: "constant"
      value: 0.2
    }
  }
}
layer {
  name: "inception_4d/relu_1x1"
  type: "ReLU"
  bottom: "inception_4d/1x1"
  top: "inception_4d/1x1"
}
layer {
  name: "inception_4d/3x3_reduce"
  type: "Convolution"
  bottom: "inception_4c/output"
  top: "inception_4d/3x3_reduce"
  param {
    lr_mult: 1
    decay_mult: 1
  }
  param {
    lr_mult: 2
    decay_mult: 0
  }
  convolution_param {
    num_output: 144
    kernel_size: 1
    weight_filler {
      type: "xavier"
      std: 0.09
    }
    bias_filler {
      type: "constant"
      value: 0.2
    }
  }
}
layer {
  name: "inception_4d/relu_3x3_reduce"
  type: "ReLU"
  bottom: "inception_4d/3x3_reduce"
  top: "inception_4d/3x3_reduce"
}
layer {
  name: "inception_4d/3x3"
  type: "Convolution"
  bottom: "inception_4d/3x3_reduce"
  top: "inception_4d/3x3"
  param {
    lr_mult: 1
    decay_mult: 1
  }
  param {
    lr_mult: 2
    decay_mult: 0
  }
  convolution_param {
    num_output: 288
    pad: 1
    kernel_size: 3
    weight_filler {
      type: "xavier"
      std: 0.03
    }
    bias_filler {
      type: "constant"
      value: 0.2
    }
  }
}
layer {
  name: "inception_4d/relu_3x3"
  type: "ReLU"
  bottom: "inception_4d/3x3"
  top: "inception_4d/3x3"
}
layer {
  name: "inception_4d/5x5_reduce"
  type: "Convolution"
  bottom: "inception_4c/output"
  top: "inception_4d/5x5_reduce"
  param {
    lr_mult: 1
    decay_mult: 1
  }
  param {
    lr_mult: 2
    decay_mult: 0
  }
  convolution_param {
    num_output: 32
    kernel_size: 1
    weight_filler {
      type: "xavier"
      std: 0.2
    }
    bias_filler {
      type: "constant"
      value: 0.2
    }
  }
}
layer {
  name: "inception_4d/relu_5x5_reduce"
  type: "ReLU"
  bottom: "inception_4d/5x5_reduce"
  top: "inception_4d/5x5_reduce"
}
layer {
  name: "inception_4d/5x5"
  type: "Convolution"
  bottom: "inception_4d/5x5_reduce"
  top: "inception_4d/5x5"
  param {
    lr_mult: 1
    decay_mult: 1
  }
  param {
    lr_mult: 2
    decay_mult: 0
  }
  convolution_param {
    num_output: 64
    pad: 2
    kernel_size: 5
    weight_filler {
      type: "xavier"
      std: 0.03
    }
    bias_filler {
      type: "constant"
      value: 0.2
    }
  }
}
layer {
  name: "inception_4d/relu_5x5"
  type: "ReLU"
  bottom: "inception_4d/5x5"
  top: "inception_4d/5x5"
}
layer {
  name: "inception_4d/pool"
  type: "Pooling"
  bottom: "inception_4c/output"
  top: "inception_4d/pool"
  pooling_param {
    pool: MAX
    kernel_size: 3
    stride: 1
    pad: 1
  }
}
layer {
  name: "inception_4d/pool_proj"
  type: "Convolution"
  bottom: "inception_4d/pool"
  top: "inception_4d/pool_proj"
  param {
    lr_mult: 1
    decay_mult: 1
  }
  param {
    lr_mult: 2
    decay_mult: 0
  }
  convolution_param {
    num_output: 64
    kernel_size: 1
    weight_filler {
      type: "xavier"
      std: 0.1
    }
    bias_filler {
      type: "constant"
      value: 0.2
    }
  }
}
layer {
  name: "inception_4d/relu_pool_proj"
  type: "ReLU"
  bottom: "inception_4d/pool_proj"
  top: "inception_4d/pool_proj"
}
layer {
  name: "inception_4d/output"
  type: "Concat"
  bottom: "inception_4d/1x1"
  bottom: "inception_4d/3x3"
  bottom: "inception_4d/5x5"
  bottom: "inception_4d/pool_proj"
  top: "inception_4d/output"
}
layer {
  name: "inception_4e/1x1"
  type: "Convolution"
  bottom: "inception_4d/output"
  top: "inception_4e/1x1"
  param {
    lr_mult: 1
    decay_mult: 1
  }
  param {
    lr_mult: 2
    decay_mult: 0
  }
  convolution_param {
    num_output: 256
    kernel_size: 1
    weight_filler {
      type: "xavier"
      std: 0.03
    }
    bias_filler {
      type: "constant"
      value: 0.2
    }
  }
}
layer {
  name: "inception_4e/relu_1x1"
  type: "ReLU"
  bottom: "inception_4e/1x1"
  top: "inception_4e/1x1"
}
layer {
  name: "inception_4e/3x3_reduce"
  type: "Convolution"
  bottom: "inception_4d/output"
  top: "inception_4e/3x3_reduce"
  param {
    lr_mult: 1
    decay_mult: 1
  }
  param {
    lr_mult: 2
    decay_mult: 0
  }
  convolution_param {
    num_output: 160
    kernel_size: 1
    weight_filler {
      type: "xavier"
      std: 0.09
    }
    bias_filler {
      type: "constant"
      value: 0.2
    }
  }
}
layer {
  name: "inception_4e/relu_3x3_reduce"
  type: "ReLU"
  bottom: "inception_4e/3x3_reduce"
  top: "inception_4e/3x3_reduce"
}
layer {
  name: "inception_4e/3x3"
  type: "Convolution"
  bottom: "inception_4e/3x3_reduce"
  top: "inception_4e/3x3"
  param {
    lr_mult: 1
    decay_mult: 1
  }
  param {
    lr_mult: 2
    decay_mult: 0
  }
  convolution_param {
    num_output: 320
    pad: 1
    kernel_size: 3
    weight_filler {
      type: "xavier"
      std: 0.03
    }
    bias_filler {
      type: "constant"
      value: 0.2
    }
  }
}
layer {
  name: "inception_4e/relu_3x3"
  type: "ReLU"
  bottom: "inception_4e/3x3"
  top: "inception_4e/3x3"
}
layer {
  name: "inception_4e/5x5_reduce"
  type: "Convolution"
  bottom: "inception_4d/output"
  top: "inception_4e/5x5_reduce"
  param {
    lr_mult: 1
    decay_mult: 1
  }
  param {
    lr_mult: 2
    decay_mult: 0
  }
  convolution_param {
    num_output: 32
    kernel_size: 1
    weight_filler {
      type: "xavier"
      std: 0.2
    }
    bias_filler {
      type: "constant"
      value: 0.2
    }
  }
}
layer {
  name: "inception_4e/relu_5x5_reduce"
  type: "ReLU"
  bottom: "inception_4e/5x5_reduce"
  top: "inception_4e/5x5_reduce"
}
layer {
  name: "inception_4e/5x5"
  type: "Convolution"
  bottom: "inception_4e/5x5_reduce"
  top: "inception_4e/5x5"
  param {
    lr_mult: 1
    decay_mult: 1
  }
  param {
    lr_mult: 2
    decay_mult: 0
  }
  convolution_param {
    num_output: 128
    pad: 2
    kernel_size: 5
    weight_filler {
      type: "xavier"
      std: 0.03
    }
    bias_filler {
      type: "constant"
      value: 0.2
    }
  }
}
layer {
  name: "inception_4e/relu_5x5"
  type: "ReLU"
  bottom: "inception_4e/5x5"
  top: "inception_4e/5x5"
}
layer {
  name: "inception_4e/pool"
  type: "Pooling"
  bottom: "inception_4d/output"
  top: "inception_4e/pool"
  pooling_param {
    pool: MAX
    kernel_size: 3
    stride: 1
    pad: 1
  }
}
layer {
  name: "inception_4e/pool_proj"
  type: "Convolution"
  bottom: "inception_4e/pool"
  top: "inception_4e/pool_proj"
  param {
    lr_mult: 1
    decay_mult: 1
  }
  param {
    lr_mult: 2
    decay_mult: 0
  }
  convolution_param {
    num_output: 128
    kernel_size: 1
    weight_filler {
      type: "xavier"
      std: 0.1
    }
    bias_filler {
      type: "constant"
      value: 0.2
    }
  }
}
layer {
  name: "inception_4e/relu_pool_proj"
  type: "ReLU"
  bottom: "inception_4e/pool_proj"
  top: "inception_4e/pool_proj"
}
layer {
  name: "inception_4e/output"
  type: "Concat"
  bottom: "inception_4e/1x1"
  bottom: "inception_4e/3x3"
  bottom: "inception_4e/5x5"
  bottom: "inception_4e/pool_proj"
  top: "inception_4e/output"
}
layer {
  name: "pool4/3x3_s2"
  type: "Pooling"
  bottom: "inception_4e/output"
  top: "pool4/3x3_s2"
  pooling_param {
    pool: MAX
    kernel_size: 3
    stride: 2
  }
}
layer {
  name: "inception_5a/1x1"
  type: "Convolution"
  bottom: "pool4/3x3_s2"
  top: "inception_5a/1x1"
  param {
    lr_mult: 1
    decay_mult: 1
  }
  param {
    lr_mult: 2
    decay_mult: 0
  }
  convolution_param {
    num_output: 256
    kernel_size: 1
    weight_filler {
      type: "xavier"
      std: 0.03
    }
    bias_filler {
      type: "constant"
      value: 0.2
    }
  }
}
layer {
  name: "inception_5a/relu_1x1"
  type: "ReLU"
  bottom: "inception_5a/1x1"
  top: "inception_5a/1x1"
}
layer {
  name: "inception_5a/3x3_reduce"
  type: "Convolution"
  bottom: "pool4/3x3_s2"
  top: "inception_5a/3x3_reduce"
  param {
    lr_mult: 1
    decay_mult: 1
  }
  param {
    lr_mult: 2
    decay_mult: 0
  }
  convolution_param {
    num_output: 160
    kernel_size: 1
    weight_filler {
      type: "xavier"
      std: 0.09
    }
    bias_filler {
      type: "constant"
      value: 0.2
    }
  }
}
layer {
  name: "inception_5a/relu_3x3_reduce"
  type: "ReLU"
  bottom: "inception_5a/3x3_reduce"
  top: "inception_5a/3x3_reduce"
}
layer {
  name: "inception_5a/3x3"
  type: "Convolution"
  bottom: "inception_5a/3x3_reduce"
  top: "inception_5a/3x3"
  param {
    lr_mult: 1
    decay_mult: 1
  }
  param {
    lr_mult: 2
    decay_mult: 0
  }
  convolution_param {
    num_output: 320
    pad: 1
    kernel_size: 3
    weight_filler {
      type: "xavier"
      std: 0.03
    }
    bias_filler {
      type: "constant"
      value: 0.2
    }
  }
}
layer {
  name: "inception_5a/relu_3x3"
  type: "ReLU"
  bottom: "inception_5a/3x3"
  top: "inception_5a/3x3"
}
layer {
  name: "inception_5a/5x5_reduce"
  type: "Convolution"
  bottom: "pool4/3x3_s2"
  top: "inception_5a/5x5_reduce"
  param {
    lr_mult: 1
    decay_mult: 1
  }
  param {
    lr_mult: 2
    decay_mult: 0
  }
  convolution_param {
    num_output: 32
    kernel_size: 1
    weight_filler {
      type: "xavier"
      std: 0.2
    }
    bias_filler {
      type: "constant"
      value: 0.2
    }
I0705 15:10:40.207787 21448 layer_factory.hpp:77] Creating layer data
I0705 15:10:40.207815 21448 net.cpp:91] Creating Layer data
I0705 15:10:40.207826 21448 net.cpp:399] data -> data
I0705 15:10:40.663779 21448 net.cpp:141] Setting up data
I0705 15:10:40.663852 21448 net.cpp:148] Top shape: 10 3 224 224 (1505280)
I0705 15:10:40.663859 21448 net.cpp:156] Memory required for data: 6021120
I0705 15:10:40.663880 21448 layer_factory.hpp:77] Creating layer conv1/7x7_s2
I0705 15:10:40.663916 21448 net.cpp:91] Creating Layer conv1/7x7_s2
I0705 15:10:40.663926 21448 net.cpp:425] conv1/7x7_s2 <- data
I0705 15:10:40.663941 21448 net.cpp:399] conv1/7x7_s2 -> conv1/7x7_s2
I0705 15:10:40.903244 21448 net.cpp:141] Setting up conv1/7x7_s2
I0705 15:10:40.903292 21448 net.cpp:148] Top shape: 10 64 112 112 (8028160)
I0705 15:10:40.903300 21448 net.cpp:156] Memory required for data: 38133760
I0705 15:10:40.903326 21448 layer_factory.hpp:77] Creating layer conv1/relu_7x7
I0705 15:10:40.903343 21448 net.cpp:91] Creating Layer conv1/relu_7x7
I0705 15:10:40.903350 21448 net.cpp:425] conv1/relu_7x7 <- conv1/7x7_s2
I0705 15:10:40.903360 21448 net.cpp:386] conv1/relu_7x7 -> conv1/7x7_s2 (in-place)
I0705 15:10:40.904049 21448 net.cpp:141] Setting up conv1/relu_7x7
I0705 15:10:40.904065 21448 net.cpp:148] Top shape: 10 64 112 112 (8028160)
I0705 15:10:40.904070 21448 net.cpp:156] Memory required for data: 70246400
I0705 15:10:40.904075 21448 layer_factory.hpp:77] Creating layer pool1/3x3_s2
I0705 15:10:40.904088 21448 net.cpp:91] Creating Layer pool1/3x3_s2
I0705 15:10:40.904093 21448 net.cpp:425] pool1/3x3_s2 <- conv1/7x7_s2
I0705 15:10:40.904101 21448 net.cpp:399] pool1/3x3_s2 -> pool1/3x3_s2
I0705 15:10:40.904168 21448 net.cpp:141] Setting up pool1/3x3_s2
I0705 15:10:40.904180 21448 net.cpp:148] Top shape: 10 64 56 56 (2007040)
I0705 15:10:40.904183 21448 net.cpp:156] Memory required for data: 78274560
I0705 15:10:40.904188 21448 layer_factory.hpp:77] Creating layer pool1/norm1
I0705 15:10:40.904203 21448 net.cpp:91] Creating Layer pool1/norm1
I0705 15:10:40.904208 21448 net.cpp:425] pool1/norm1 <- pool1/3x3_s2
I0705 15:10:40.904216 21448 net.cpp:399] pool1/norm1 -> pool1/norm1
I0705 15:10:40.904474 21448 net.cpp:141] Setting up pool1/norm1
I0705 15:10:40.904485 21448 net.cpp:148] Top shape: 10 64 56 56 (2007040)
I0705 15:10:40.904489 21448 net.cpp:156] Memory required for data: 86302720
I0705 15:10:40.904495 21448 layer_factory.hpp:77] Creating layer conv2/3x3_reduce
I0705 15:10:40.904515 21448 net.cpp:91] Creating Layer conv2/3x3_reduce
I0705 15:10:40.904520 21448 net.cpp:425] conv2/3x3_reduce <- pool1/norm1
I0705 15:10:40.904531 21448 net.cpp:399] conv2/3x3_reduce -> conv2/3x3_reduce
I0705 15:10:40.907721 21448 net.cpp:141] Setting up conv2/3x3_reduce
I0705 15:10:40.907753 21448 net.cpp:148] Top shape: 10 64 56 56 (2007040)
I0705 15:10:40.907758 21448 net.cpp:156] Memory required for data: 94330880
I0705 15:10:40.907776 21448 layer_factory.hpp:77] Creating layer conv2/relu_3x3_reduce
I0705 15:10:40.907789 21448 net.cpp:91] Creating Layer conv2/relu_3x3_reduce
I0705 15:10:40.907795 21448 net.cpp:425] conv2/relu_3x3_reduce <- conv2/3x3_reduce
I0705 15:10:40.907802 21448 net.cpp:386] conv2/relu_3x3_reduce -> conv2/3x3_reduce (in-place)
I0705 15:10:40.908696 21448 net.cpp:141] Setting up conv2/relu_3x3_reduce
I0705 15:10:40.908720 21448 net.cpp:148] Top shape: 10 64 56 56 (2007040)
I0705 15:10:40.908725 21448 net.cpp:156] Memory required for data: 102359040
I0705 15:10:40.908730 21448 layer_factory.hpp:77] Creating layer conv2/3x3
I0705 15:10:40.908751 21448 net.cpp:91] Creating Layer conv2/3x3
I0705 15:10:40.908756 21448 net.cpp:425] conv2/3x3 <- conv2/3x3_reduce
I0705 15:10:40.908764 21448 net.cpp:399] conv2/3x3 -> conv2/3x3
I0705 15:10:40.913228 21448 net.cpp:141] Setting up conv2/3x3
I0705 15:10:40.913266 21448 net.cpp:148] Top shape: 10 192 56 56 (6021120)
I0705 15:10:40.913272 21448 net.cpp:156] Memory required for data: 126443520
I0705 15:10:40.913291 21448 layer_factory.hpp:77] Creating layer conv2/relu_3x3
I0705 15:10:40.913307 21448 net.cpp:91] Creating Layer conv2/relu_3x3
I0705 15:10:40.913313 21448 net.cpp:425] conv2/relu_3x3 <- conv2/3x3
I0705 15:10:40.913321 21448 net.cpp:386] conv2/relu_3x3 -> conv2/3x3 (in-place)
I0705 15:10:40.914019 21448 net.cpp:141] Setting up conv2/relu_3x3
I0705 15:10:40.914036 21448 net.cpp:148] Top shape: 10 192 56 56 (6021120)
I0705 15:10:40.914041 21448 net.cpp:156] Memory required for data: 150528000
I0705 15:10:40.914046 21448 layer_factory.hpp:77] Creating layer conv2/norm2
I0705 15:10:40.914057 21448 net.cpp:91] Creating Layer conv2/norm2
I0705 15:10:40.914062 21448 net.cpp:425] conv2/norm2 <- conv2/3x3
I0705 15:10:40.914072 21448 net.cpp:399] conv2/norm2 -> conv2/norm2
I0705 15:10:40.914315 21448 net.cpp:141] Setting up conv2/norm2
I0705 15:10:40.914330 21448 net.cpp:148] Top shape: 10 192 56 56 (6021120)
I0705 15:10:40.914333 21448 net.cpp:156] Memory required for data: 174612480
I0705 15:10:40.914338 21448 layer_factory.hpp:77] Creating layer pool2/3x3_s2
I0705 15:10:40.914348 21448 net.cpp:91] Creating Layer pool2/3x3_s2
I0705 15:10:40.914352 21448 net.cpp:425] pool2/3x3_s2 <- conv2/norm2
I0705 15:10:40.914360 21448 net.cpp:399] pool2/3x3_s2 -> pool2/3x3_s2
I0705 15:10:40.914412 21448 net.cpp:141] Setting up pool2/3x3_s2
I0705 15:10:40.914420 21448 net.cpp:148] Top shape: 10 192 28 28 (1505280)
I0705 15:10:40.914424 21448 net.cpp:156] Memory required for data: 180633600
I0705 15:10:40.914428 21448 layer_factory.hpp:77] Creating layer pool2/3x3_s2_pool2/3x3_s2_0_split
I0705 15:10:40.914438 21448 net.cpp:91] Creating Layer pool2/3x3_s2_pool2/3x3_s2_0_split
I0705 15:10:40.914443 21448 net.cpp:425] pool2/3x3_s2_pool2/3x3_s2_0_split <- pool2/3x3_s2
I0705 15:10:40.914451 21448 net.cpp:399] pool2/3x3_s2_pool2/3x3_s2_0_split -> pool2/3x3_s2_pool2/3x3_s2_0_split_0
I0705 15:10:40.914461 21448 net.cpp:399] pool2/3x3_s2_pool2/3x3_s2_0_split -> pool2/3x3_s2_pool2/3x3_s2_0_split_1
I0705 15:10:40.914469 21448 net.cpp:399] pool2/3x3_s2_pool2/3x3_s2_0_split -> pool2/3x3_s2_pool2/3x3_s2_0_split_2
I0705 15:10:40.914479 21448 net.cpp:399] pool2/3x3_s2_pool2/3x3_s2_0_split -> pool2/3x3_s2_pool2/3x3_s2_0_split_3
I0705 15:10:40.914547 21448 net.cpp:141] Setting up pool2/3x3_s2_pool2/3x3_s2_0_split
I0705 15:10:40.914556 21448 net.cpp:148] Top shape: 10 192 28 28 (1505280)
I0705 15:10:40.914561 21448 net.cpp:148] Top shape: 10 192 28 28 (1505280)
I0705 15:10:40.914566 21448 net.cpp:148] Top shape: 10 192 28 28 (1505280)
I0705 15:10:40.914572 21448 net.cpp:148] Top shape: 10 192 28 28 (1505280)
I0705 15:10:40.914574 21448 net.cpp:156] Memory required for data: 204718080
I0705 15:10:40.914579 21448 layer_factory.hpp:77] Creating layer inception_3a/1x1
I0705 15:10:40.914595 21448 net.cpp:91] Creating Layer inception_3a/1x1
I0705 15:10:40.914600 21448 net.cpp:425] inception_3a/1x1 <- pool2/3x3_s2_pool2/3x3_s2_0_split_0
I0705 15:10:40.914629 21448 net.cpp:399] inception_3a/1x1 -> inception_3a/1x1
I0705 15:10:40.918377 21448 net.cpp:141] Setting up inception_3a/1x1
I0705 15:10:40.918401 21448 net.cpp:148] Top shape: 10 64 28 28 (501760)
I0705 15:10:40.918406 21448 net.cpp:156] Memory required for data: 206725120
I0705 15:10:40.918416 21448 layer_factory.hpp:77] Creating layer inception_3a/relu_1x1
I0705 15:10:40.918426 21448 net.cpp:91] Creating Layer inception_3a/relu_1x1
I0705 15:10:40.918431 21448 net.cpp:425] inception_3a/relu_1x1 <- inception_3a/1x1
I0705 15:10:40.918442 21448 net.cpp:386] inception_3a/relu_1x1 -> inception_3a/1x1 (in-place)
I0705 15:10:40.919155 21448 net.cpp:141] Setting up inception_3a/relu_1x1
I0705 15:10:40.919172 21448 net.cpp:148] Top shape: 10 64 28 28 (501760)
I0705 15:10:40.919176 21448 net.cpp:156] Memory required for data: 208732160
I0705 15:10:40.919181 21448 layer_factory.hpp:77] Creating layer inception_3a/3x3_reduce
I0705 15:10:40.919199 21448 net.cpp:91] Creating Layer inception_3a/3x3_reduce
I0705 15:10:40.919205 21448 net.cpp:425] inception_3a/3x3_reduce <- pool2/3x3_s2_pool2/3x3_s2_0_split_1
I0705 15:10:40.919217 21448 net.cpp:399] inception_3a/3x3_reduce -> inception_3a/3x3_reduce
I0705 15:10:40.922258 21448 net.cpp:141] Setting up inception_3a/3x3_reduce
I0705 15:10:40.922278 21448 net.cpp:148] Top shape: 10 96 28 28 (752640)
I0705 15:10:40.922284 21448 net.cpp:156] Memory required for data: 211742720
I0705 15:10:40.922297 21448 layer_factory.hpp:77] Creating layer inception_3a/relu_3x3_reduce
I0705 15:10:40.922307 21448 net.cpp:91] Creating Layer inception_3a/relu_3x3_reduce
I0705 15:10:40.922315 21448 net.cpp:425] inception_3a/relu_3x3_reduce <- inception_3a/3x3_reduce
I0705 15:10:40.922322 21448 net.cpp:386] inception_3a/relu_3x3_reduce -> inception_3a/3x3_reduce (in-place)
I0705 15:10:40.922539 21448 net.cpp:141] Setting up inception_3a/relu_3x3_reduce
I0705 15:10:40.922550 21448 net.cpp:148] Top shape: 10 96 28 28 (752640)
I0705 15:10:40.922554 21448 net.cpp:156] Memory required for data: 214753280
I0705 15:10:40.922559 21448 layer_factory.hpp:77] Creating layer inception_3a/3x3
I0705 15:10:40.922580 21448 net.cpp:91] Creating Layer inception_3a/3x3
I0705 15:10:40.922585 21448 net.cpp:425] inception_3a/3x3 <- inception_3a/3x3_reduce
I0705 15:10:40.922595 21448 net.cpp:399] inception_3a/3x3 -> inception_3a/3x3
I0705 15:10:40.926378 21448 net.cpp:141] Setting up inception_3a/3x3
I0705 15:10:40.926419 21448 net.cpp:148] Top shape: 10 128 28 28 (1003520)
I0705 15:10:40.926424 21448 net.cpp:156] Memory required for data: 218767360
I0705 15:10:40.926437 21448 layer_factory.hpp:77] Creating layer inception_3a/relu_3x3
I0705 15:10:40.926451 21448 net.cpp:91] Creating Layer inception_3a/relu_3x3
I0705 15:10:40.926458 21448 net.cpp:425] inception_3a/relu_3x3 <- inception_3a/3x3
I0705 15:10:40.926466 21448 net.cpp:386] inception_3a/relu_3x3 -> inception_3a/3x3 (in-place)
I0705 15:10:40.926712 21448 net.cpp:141] Setting up inception_3a/relu_3x3
I0705 15:10:40.926728 21448 net.cpp:148] Top shape: 10 128 28 28 (1003520)
I0705 15:10:40.926735 21448 net.cpp:156] Memory required for data: 222781440
I0705 15:10:40.926744 21448 layer_factory.hpp:77] Creating layer inception_3a/5x5_reduce
I0705 15:10:40.926766 21448 net.cpp:91] Creating Layer inception_3a/5x5_reduce
I0705 15:10:40.926772 21448 net.cpp:425] inception_3a/5x5_reduce <- pool2/3x3_s2_pool2/3x3_s2_0_split_2
I0705 15:10:40.926785 21448 net.cpp:399] inception_3a/5x5_reduce -> inception_3a/5x5_reduce
I0705 15:10:40.928771 21448 net.cpp:141] Setting up inception_3a/5x5_reduce
I0705 15:10:40.928788 21448 net.cpp:148] Top shape: 10 16 28 28 (125440)
I0705 15:10:40.928793 21448 net.cpp:156] Memory required for data: 223283200
I0705 15:10:40.928802 21448 layer_factory.hpp:77] Creating layer inception_3a/relu_5x5_reduce
I0705 15:10:40.928810 21448 net.cpp:91] Creating Layer inception_3a/relu_5x5_reduce
I0705 15:10:40.928817 21448 net.cpp:425] inception_3a/relu_5x5_reduce <- inception_3a/5x5_reduce
I0705 15:10:40.928823 21448 net.cpp:386] inception_3a/relu_5x5_reduce -> inception_3a/5x5_reduce (in-place)
I0705 15:10:40.929774 21448 net.cpp:141] Setting up inception_3a/relu_5x5_reduce
I0705 15:10:40.929790 21448 net.cpp:148] Top shape: 10 16 28 28 (125440)
I0705 15:10:40.929795 21448 net.cpp:156] Memory required for data: 223784960
I0705 15:10:40.929800 21448 layer_factory.hpp:77] Creating layer inception_3a/5x5
I0705 15:10:40.929816 21448 net.cpp:91] Creating Layer inception_3a/5x5
I0705 15:10:40.929822 21448 net.cpp:425] inception_3a/5x5 <- inception_3a/5x5_reduce
I0705 15:10:40.929832 21448 net.cpp:399] inception_3a/5x5 -> inception_3a/5x5
I0705 15:10:40.933049 21448 net.cpp:141] Setting up inception_3a/5x5
I0705 15:10:40.933078 21448 net.cpp:148] Top shape: 10 32 28 28 (250880)
I0705 15:10:40.933082 21448 net.cpp:156] Memory required for data: 224788480
I0705 15:10:40.933092 21448 layer_factory.hpp:77] Creating layer inception_3a/relu_5x5
I0705 15:10:40.933104 21448 net.cpp:91] Creating Layer inception_3a/relu_5x5
I0705 15:10:40.933109 21448 net.cpp:425] inception_3a/relu_5x5 <- inception_3a/5x5
I0705 15:10:40.933120 21448 net.cpp:386] inception_3a/relu_5x5 -> inception_3a/5x5 (in-place)
I0705 15:10:40.933349 21448 net.cpp:141] Setting up inception_3a/relu_5x5
I0705 15:10:40.933362 21448 net.cpp:148] Top shape: 10 32 28 28 (250880)
I0705 15:10:40.933365 21448 net.cpp:156] Memory required for data: 225792000
I0705 15:10:40.933370 21448 layer_factory.hpp:77] Creating layer inception_3a/pool
I0705 15:10:40.933382 21448 net.cpp:91] Creating Layer inception_3a/pool
I0705 15:10:40.933387 21448 net.cpp:425] inception_3a/pool <- pool2/3x3_s2_pool2/3x3_s2_0_split_3
I0705 15:10:40.933394 21448 net.cpp:399] inception_3a/pool -> inception_3a/pool
I0705 15:10:40.933454 21448 net.cpp:141] Setting up inception_3a/pool
I0705 15:10:40.933464 21448 net.cpp:148] Top shape: 10 192 28 28 (1505280)
I0705 15:10:40.933467 21448 net.cpp:156] Memory required for data: 231813120
I0705 15:10:40.933471 21448 layer_factory.hpp:77] Creating layer inception_3a/pool_proj
I0705 15:10:40.933488 21448 net.cpp:91] Creating Layer inception_3a/pool_proj
I0705 15:10:40.933495 21448 net.cpp:425] inception_3a/pool_proj <- inception_3a/pool
I0705 15:10:40.933504 21448 net.cpp:399] inception_3a/pool_proj -> inception_3a/pool_proj
I0705 15:10:40.935590 21448 net.cpp:141] Setting up inception_3a/pool_proj
I0705 15:10:40.935611 21448 net.cpp:148] Top shape: 10 32 28 28 (250880)
I0705 15:10:40.935616 21448 net.cpp:156] Memory required for data: 232816640
I0705 15:10:40.935634 21448 layer_factory.hpp:77] Creating layer inception_3a/relu_pool_proj
I0705 15:10:40.935647 21448 net.cpp:91] Creating Layer inception_3a/relu_pool_proj
I0705 15:10:40.935652 21448 net.cpp:425] inception_3a/relu_pool_proj <- inception_3a/pool_proj
I0705 15:10:40.935659 21448 net.cpp:386] inception_3a/relu_pool_proj -> inception_3a/pool_proj (in-place)
I0705 15:10:40.935868 21448 net.cpp:141] Setting up inception_3a/relu_pool_proj
I0705 15:10:40.935880 21448 net.cpp:148] Top shape: 10 32 28 28 (250880)
I0705 15:10:40.935884 21448 net.cpp:156] Memory required for data: 233820160
I0705 15:10:40.935889 21448 layer_factory.hpp:77] Creating layer inception_3a/output
I0705 15:10:40.935917 21448 net.cpp:91] Creating Layer inception_3a/output
I0705 15:10:40.935927 21448 net.cpp:425] inception_3a/output <- inception_3a/1x1
I0705 15:10:40.935937 21448 net.cpp:425] inception_3a/output <- inception_3a/3x3
I0705 15:10:40.935945 21448 net.cpp:425] inception_3a/output <- inception_3a/5x5
I0705 15:10:40.935953 21448 net.cpp:425] inception_3a/output <- inception_3a/pool_proj
I0705 15:10:40.935967 21448 net.cpp:399] inception_3a/output -> inception_3a/output
I0705 15:10:40.936020 21448 net.cpp:141] Setting up inception_3a/output
I0705 15:10:40.936035 21448 net.cpp:148] Top shape: 10 256 28 28 (2007040)
I0705 15:10:40.936043 21448 net.cpp:156] Memory required for data: 241848320
I0705 15:10:40.936050 21448 layer_factory.hpp:77] Creating layer inception_3a/output_inception_3a/output_0_split
I0705 15:10:40.936065 21448 net.cpp:91] Creating Layer inception_3a/output_inception_3a/output_0_split
I0705 15:10:40.936070 21448 net.cpp:425] inception_3a/output_inception_3a/output_0_split <- inception_3a/output
I0705 15:10:40.936077 21448 net.cpp:399] inception_3a/output_inception_3a/output_0_split -> inception_3a/output_inception_3a/output_0_split_0
I0705 15:10:40.936086 21448 net.cpp:399] inception_3a/output_inception_3a/output_0_split -> inception_3a/output_inception_3a/output_0_split_1
I0705 15:10:40.936094 21448 net.cpp:399] inception_3a/output_inception_3a/output_0_split -> inception_3a/output_inception_3a/output_0_split_2
I0705 15:10:40.936105 21448 net.cpp:399] inception_3a/output_inception_3a/output_0_split -> inception_3a/output_inception_3a/output_0_split_3
I0705 15:10:40.936183 21448 net.cpp:141] Setting up inception_3a/output_inception_3a/output_0_split
I0705 15:10:40.936192 21448 net.cpp:148] Top shape: 10 256 28 28 (2007040)
I0705 15:10:40.936198 21448 net.cpp:148] Top shape: 10 256 28 28 (2007040)
I0705 15:10:40.936203 21448 net.cpp:148] Top shape: 10 256 28 28 (2007040)
I0705 15:10:40.936208 21448 net.cpp:148] Top shape: 10 256 28 28 (2007040)
I0705 15:10:40.936211 21448 net.cpp:156] Memory required for data: 273960960
I0705 15:10:40.936215 21448 layer_factory.hpp:77] Creating layer inception_3b/1x1
I0705 15:10:40.936229 21448 net.cpp:91] Creating Layer inception_3b/1x1
I0705 15:10:40.936234 21448 net.cpp:425] inception_3b/1x1 <- inception_3a/output_inception_3a/output_0_split_0
I0705 15:10:40.936249 21448 net.cpp:399] inception_3b/1x1 -> inception_3b/1x1
I0705 15:10:40.938771 21448 net.cpp:141] Setting up inception_3b/1x1
I0705 15:10:40.938802 21448 net.cpp:148] Top shape: 10 128 28 28 (1003520)
I0705 15:10:40.938807 21448 net.cpp:156] Memory required for data: 277975040
I0705 15:10:40.938819 21448 layer_factory.hpp:77] Creating layer inception_3b/relu_1x1
I0705 15:10:40.938832 21448 net.cpp:91] Creating Layer inception_3b/relu_1x1
I0705 15:10:40.938838 21448 net.cpp:425] inception_3b/relu_1x1 <- inception_3b/1x1
I0705 15:10:40.938846 21448 net.cpp:386] inception_3b/relu_1x1 -> inception_3b/1x1 (in-place)
I0705 15:10:40.939667 21448 net.cpp:141] Setting up inception_3b/relu_1x1
I0705 15:10:40.939684 21448 net.cpp:148] Top shape: 10 128 28 28 (1003520)
I0705 15:10:40.939689 21448 net.cpp:156] Memory required for data: 281989120
I0705 15:10:40.939694 21448 layer_factory.hpp:77] Creating layer inception_3b/3x3_reduce
I0705 15:10:40.939713 21448 net.cpp:91] Creating Layer inception_3b/3x3_reduce
I0705 15:10:40.939719 21448 net.cpp:425] inception_3b/3x3_reduce <- inception_3a/output_inception_3a/output_0_split_1
I0705 15:10:40.939730 21448 net.cpp:399] inception_3b/3x3_reduce -> inception_3b/3x3_reduce
I0705 15:10:40.941984 21448 net.cpp:141] Setting up inception_3b/3x3_reduce
I0705 15:10:40.942004 21448 net.cpp:148] Top shape: 10 128 28 28 (1003520)
I0705 15:10:40.942009 21448 net.cpp:156] Memory required for data: 286003200
I0705 15:10:40.942018 21448 layer_factory.hpp:77] Creating layer inception_3b/relu_3x3_reduce
I0705 15:10:40.942029 21448 net.cpp:91] Creating Layer inception_3b/relu_3x3_reduce
I0705 15:10:40.942035 21448 net.cpp:425] inception_3b/relu_3x3_reduce <- inception_3b/3x3_reduce
I0705 15:10:40.942044 21448 net.cpp:386] inception_3b/relu_3x3_reduce -> inception_3b/3x3_reduce (in-place)
I0705 15:10:40.942260 21448 net.cpp:141] Setting up inception_3b/relu_3x3_reduce
I0705 15:10:40.942270 21448 net.cpp:148] Top shape: 10 128 28 28 (1003520)
I0705 15:10:40.942275 21448 net.cpp:156] Memory required for data: 290017280
I0705 15:10:40.942278 21448 layer_factory.hpp:77] Creating layer inception_3b/3x3
I0705 15:10:40.942294 21448 net.cpp:91] Creating Layer inception_3b/3x3
I0705 15:10:40.942301 21448 net.cpp:425] inception_3b/3x3 <- inception_3b/3x3_reduce
I0705 15:10:40.942311 21448 net.cpp:399] inception_3b/3x3 -> inception_3b/3x3
I0705 15:10:40.947157 21448 net.cpp:141] Setting up inception_3b/3x3
I0705 15:10:40.947185 21448 net.cpp:148] Top shape: 10 192 28 28 (1505280)
I0705 15:10:40.947190 21448 net.cpp:156] Memory required for data: 296038400
I0705 15:10:40.947201 21448 layer_factory.hpp:77] Creating layer inception_3b/relu_3x3
I0705 15:10:40.947221 21448 net.cpp:91] Creating Layer inception_3b/relu_3x3
I0705 15:10:40.947227 21448 net.cpp:425] inception_3b/relu_3x3 <- inception_3b/3x3
I0705 15:10:40.947234 21448 net.cpp:386] inception_3b/relu_3x3 -> inception_3b/3x3 (in-place)
I0705 15:10:40.947450 21448 net.cpp:141] Setting up inception_3b/relu_3x3
I0705 15:10:40.947461 21448 net.cpp:148] Top shape: 10 192 28 28 (1505280)
I0705 15:10:40.947465 21448 net.cpp:156] Memory required for data: 302059520
I0705 15:10:40.947470 21448 layer_factory.hpp:77] Creating layer inception_3b/5x5_reduce
I0705 15:10:40.947486 21448 net.cpp:91] Creating Layer inception_3b/5x5_reduce
I0705 15:10:40.947492 21448 net.cpp:425] inception_3b/5x5_reduce <- inception_3a/output_inception_3a/output_0_split_2
I0705 15:10:40.947504 21448 net.cpp:399] inception_3b/5x5_reduce -> inception_3b/5x5_reduce
I0705 15:10:40.949543 21448 net.cpp:141] Setting up inception_3b/5x5_reduce
I0705 15:10:40.949563 21448 net.cpp:148] Top shape: 10 32 28 28 (250880)
I0705 15:10:40.949568 21448 net.cpp:156] Memory required for data: 303063040
I0705 15:10:40.949578 21448 layer_factory.hpp:77] Creating layer inception_3b/relu_5x5_reduce
I0705 15:10:40.949586 21448 net.cpp:91] Creating Layer inception_3b/relu_5x5_reduce
I0705 15:10:40.949591 21448 net.cpp:425] inception_3b/relu_5x5_reduce <- inception_3b/5x5_reduce
I0705 15:10:40.949599 21448 net.cpp:386] inception_3b/relu_5x5_reduce -> inception_3b/5x5_reduce (in-place)
I0705 15:10:40.950302 21448 net.cpp:141] Setting up inception_3b/relu_5x5_reduce
I0705 15:10:40.950319 21448 net.cpp:148] Top shape: 10 32 28 28 (250880)
I0705 15:10:40.950323 21448 net.cpp:156] Memory required for data: 304066560
I0705 15:10:40.950328 21448 layer_factory.hpp:77] Creating layer inception_3b/5x5
I0705 15:10:40.950345 21448 net.cpp:91] Creating Layer inception_3b/5x5
I0705 15:10:40.950351 21448 net.cpp:425] inception_3b/5x5 <- inception_3b/5x5_reduce
I0705 15:10:40.950362 21448 net.cpp:399] inception_3b/5x5 -> inception_3b/5x5
I0705 15:10:40.954298 21448 net.cpp:141] Setting up inception_3b/5x5
I0705 15:10:40.954337 21448 net.cpp:148] Top shape: 10 96 28 28 (752640)
I0705 15:10:40.954344 21448 net.cpp:156] Memory required for data: 307077120
I0705 15:10:40.954356 21448 layer_factory.hpp:77] Creating layer inception_3b/relu_5x5
I0705 15:10:40.954370 21448 net.cpp:91] Creating Layer inception_3b/relu_5x5
I0705 15:10:40.954378 21448 net.cpp:425] inception_3b/relu_5x5 <- inception_3b/5x5
I0705 15:10:40.954386 21448 net.cpp:386] inception_3b/relu_5x5 -> inception_3b/5x5 (in-place)
I0705 15:10:40.954607 21448 net.cpp:141] Setting up inception_3b/relu_5x5
I0705 15:10:40.954617 21448 net.cpp:148] Top shape: 10 96 28 28 (752640)
I0705 15:10:40.954622 21448 net.cpp:156] Memory required for data: 310087680
I0705 15:10:40.954627 21448 layer_factory.hpp:77] Creating layer inception_3b/pool
I0705 15:10:40.954638 21448 net.cpp:91] Creating Layer inception_3b/pool
I0705 15:10:40.954645 21448 net.cpp:425] inception_3b/pool <- inception_3a/output_inception_3a/output_0_split_3
I0705 15:10:40.954653 21448 net.cpp:399] inception_3b/pool -> inception_3b/pool
I0705 15:10:40.954742 21448 net.cpp:141] Setting up inception_3b/pool
I0705 15:10:40.954757 21448 net.cpp:148] Top shape: 10 256 28 28 (2007040)
I0705 15:10:40.954766 21448 net.cpp:156] Memory required for data: 318115840
I0705 15:10:40.954772 21448 layer_factory.hpp:77] Creating layer inception_3b/pool_proj
I0705 15:10:40.954792 21448 net.cpp:91] Creating Layer inception_3b/pool_proj
I0705 15:10:40.954799 21448 net.cpp:425] inception_3b/pool_proj <- inception_3b/pool
I0705 15:10:40.954807 21448 net.cpp:399] inception_3b/pool_proj -> inception_3b/pool_proj
I0705 15:10:40.956965 21448 net.cpp:141] Setting up inception_3b/pool_proj
I0705 15:10:40.956984 21448 net.cpp:148] Top shape: 10 64 28 28 (501760)
I0705 15:10:40.956989 21448 net.cpp:156] Memory required for data: 320122880
I0705 15:10:40.956998 21448 layer_factory.hpp:77] Creating layer inception_3b/relu_pool_proj
I0705 15:10:40.957007 21448 net.cpp:91] Creating Layer inception_3b/relu_pool_proj
I0705 15:10:40.957013 21448 net.cpp:425] inception_3b/relu_pool_proj <- inception_3b/pool_proj
I0705 15:10:40.957023 21448 net.cpp:386] inception_3b/relu_pool_proj -> inception_3b/pool_proj (in-place)
I0705 15:10:40.957237 21448 net.cpp:141] Setting up inception_3b/relu_pool_proj
I0705 15:10:40.957248 21448 net.cpp:148] Top shape: 10 64 28 28 (501760)
I0705 15:10:40.957253 21448 net.cpp:156] Memory required for data: 322129920
I0705 15:10:40.957257 21448 layer_factory.hpp:77] Creating layer inception_3b/output
I0705 15:10:40.957268 21448 net.cpp:91] Creating Layer inception_3b/output
I0705 15:10:40.957274 21448 net.cpp:425] inception_3b/output <- inception_3b/1x1
I0705 15:10:40.957279 21448 net.cpp:425] inception_3b/output <- inception_3b/3x3
I0705 15:10:40.957285 21448 net.cpp:425] inception_3b/output <- inception_3b/5x5
I0705 15:10:40.957290 21448 net.cpp:425] inception_3b/output <- inception_3b/pool_proj
I0705 15:10:40.957296 21448 net.cpp:399] inception_3b/output -> inception_3b/output
I0705 15:10:40.957337 21448 net.cpp:141] Setting up inception_3b/output
I0705 15:10:40.957346 21448 net.cpp:148] Top shape: 10 480 28 28 (3763200)
I0705 15:10:40.957350 21448 net.cpp:156] Memory required for data: 337182720
I0705 15:10:40.957355 21448 layer_factory.hpp:77] Creating layer pool3/3x3_s2
I0705 15:10:40.957363 21448 net.cpp:91] Creating Layer pool3/3x3_s2
I0705 15:10:40.957368 21448 net.cpp:425] pool3/3x3_s2 <- inception_3b/output
I0705 15:10:40.957377 21448 net.cpp:399] pool3/3x3_s2 -> pool3/3x3_s2
I0705 15:10:40.957437 21448 net.cpp:141] Setting up pool3/3x3_s2
I0705 15:10:40.957447 21448 net.cpp:148] Top shape: 10 480 14 14 (940800)
I0705 15:10:40.957450 21448 net.cpp:156] Memory required for data: 340945920
I0705 15:10:40.957454 21448 layer_factory.hpp:77] Creating layer pool3/3x3_s2_pool3/3x3_s2_0_split
I0705 15:10:40.957463 21448 net.cpp:91] Creating Layer pool3/3x3_s2_pool3/3x3_s2_0_split
I0705 15:10:40.957468 21448 net.cpp:425] pool3/3x3_s2_pool3/3x3_s2_0_split <- pool3/3x3_s2
I0705 15:10:40.957478 21448 net.cpp:399] pool3/3x3_s2_pool3/3x3_s2_0_split -> pool3/3x3_s2_pool3/3x3_s2_0_split_0
I0705 15:10:40.957485 21448 net.cpp:399] pool3/3x3_s2_pool3/3x3_s2_0_split -> pool3/3x3_s2_pool3/3x3_s2_0_split_1
I0705 15:10:40.957494 21448 net.cpp:399] pool3/3x3_s2_pool3/3x3_s2_0_split -> pool3/3x3_s2_pool3/3x3_s2_0_split_2
I0705 15:10:40.957501 21448 net.cpp:399] pool3/3x3_s2_pool3/3x3_s2_0_split -> pool3/3x3_s2_pool3/3x3_s2_0_split_3
I0705 15:10:40.957577 21448 net.cpp:141] Setting up pool3/3x3_s2_pool3/3x3_s2_0_split
I0705 15:10:40.957587 21448 net.cpp:148] Top shape: 10 480 14 14 (940800)
I0705 15:10:40.957592 21448 net.cpp:148] Top shape: 10 480 14 14 (940800)
I0705 15:10:40.957597 21448 net.cpp:148] Top shape: 10 480 14 14 (940800)
I0705 15:10:40.957602 21448 net.cpp:148] Top shape: 10 480 14 14 (940800)
I0705 15:10:40.957605 21448 net.cpp:156] Memory required for data: 355998720
I0705 15:10:40.957610 21448 layer_factory.hpp:77] Creating layer inception_4a/1x1
I0705 15:10:40.957628 21448 net.cpp:91] Creating Layer inception_4a/1x1
I0705 15:10:40.957633 21448 net.cpp:425] inception_4a/1x1 <- pool3/3x3_s2_pool3/3x3_s2_0_split_0
I0705 15:10:40.957641 21448 net.cpp:399] inception_4a/1x1 -> inception_4a/1x1
I0705 15:10:40.961144 21448 net.cpp:141] Setting up inception_4a/1x1
I0705 15:10:40.961174 21448 net.cpp:148] Top shape: 10 192 14 14 (376320)
I0705 15:10:40.961179 21448 net.cpp:156] Memory required for data: 357504000
I0705 15:10:40.961191 21448 layer_factory.hpp:77] Creating layer inception_4a/relu_1x1
I0705 15:10:40.961206 21448 net.cpp:91] Creating Layer inception_4a/relu_1x1
I0705 15:10:40.961213 21448 net.cpp:425] inception_4a/relu_1x1 <- inception_4a/1x1
I0705 15:10:40.961220 21448 net.cpp:386] inception_4a/relu_1x1 -> inception_4a/1x1 (in-place)
I0705 15:10:40.961947 21448 net.cpp:141] Setting up inception_4a/relu_1x1
I0705 15:10:40.961963 21448 net.cpp:148] Top shape: 10 192 14 14 (376320)
I0705 15:10:40.961968 21448 net.cpp:156] Memory required for data: 359009280
I0705 15:10:40.961973 21448 layer_factory.hpp:77] Creating layer inception_4a/3x3_reduce
I0705 15:10:40.961994 21448 net.cpp:91] Creating Layer inception_4a/3x3_reduce
I0705 15:10:40.962002 21448 net.cpp:425] inception_4a/3x3_reduce <- pool3/3x3_s2_pool3/3x3_s2_0_split_1
I0705 15:10:40.962009 21448 net.cpp:399] inception_4a/3x3_reduce -> inception_4a/3x3_reduce
I0705 15:10:40.964498 21448 net.cpp:141] Setting up inception_4a/3x3_reduce
I0705 15:10:40.964524 21448 net.cpp:148] Top shape: 10 96 14 14 (188160)
I0705 15:10:40.964529 21448 net.cpp:156] Memory required for data: 359761920
I0705 15:10:40.964558 21448 layer_factory.hpp:77] Creating layer inception_4a/relu_3x3_reduce
I0705 15:10:40.964570 21448 net.cpp:91] Creating Layer inception_4a/relu_3x3_reduce
I0705 15:10:40.964575 21448 net.cpp:425] inception_4a/relu_3x3_reduce <- inception_4a/3x3_reduce
I0705 15:10:40.964581 21448 net.cpp:386] inception_4a/relu_3x3_reduce -> inception_4a/3x3_reduce (in-place)
I0705 15:10:40.964795 21448 net.cpp:141] Setting up inception_4a/relu_3x3_reduce
I0705 15:10:40.964807 21448 net.cpp:148] Top shape: 10 96 14 14 (188160)
I0705 15:10:40.964812 21448 net.cpp:156] Memory required for data: 360514560
I0705 15:10:40.964815 21448 layer_factory.hpp:77] Creating layer inception_4a/3x3
I0705 15:10:40.964831 21448 net.cpp:91] Creating Layer inception_4a/3x3
I0705 15:10:40.964846 21448 net.cpp:425] inception_4a/3x3 <- inception_4a/3x3_reduce
I0705 15:10:40.964857 21448 net.cpp:399] inception_4a/3x3 -> inception_4a/3x3
I0705 15:10:40.969918 21448 net.cpp:141] Setting up inception_4a/3x3
I0705 15:10:40.969959 21448 net.cpp:148] Top shape: 10 208 14 14 (407680)
I0705 15:10:40.969964 21448 net.cpp:156] Memory required for data: 362145280
I0705 15:10:40.969979 21448 layer_factory.hpp:77] Creating layer inception_4a/relu_3x3
I0705 15:10:40.969998 21448 net.cpp:91] Creating Layer inception_4a/relu_3x3
I0705 15:10:40.970006 21448 net.cpp:425] inception_4a/relu_3x3 <- inception_4a/3x3
I0705 15:10:40.970016 21448 net.cpp:386] inception_4a/relu_3x3 -> inception_4a/3x3 (in-place)
I0705 15:10:40.970240 21448 net.cpp:141] Setting up inception_4a/relu_3x3
I0705 15:10:40.970252 21448 net.cpp:148] Top shape: 10 208 14 14 (407680)
I0705 15:10:40.970257 21448 net.cpp:156] Memory required for data: 363776000
I0705 15:10:40.970262 21448 layer_factory.hpp:77] Creating layer inception_4a/5x5_reduce
I0705 15:10:40.970283 21448 net.cpp:91] Creating Layer inception_4a/5x5_reduce
I0705 15:10:40.970288 21448 net.cpp:425] inception_4a/5x5_reduce <- pool3/3x3_s2_pool3/3x3_s2_0_split_2
I0705 15:10:40.970299 21448 net.cpp:399] inception_4a/5x5_reduce -> inception_4a/5x5_reduce
I0705 15:10:40.972396 21448 net.cpp:141] Setting up inception_4a/5x5_reduce
I0705 15:10:40.972417 21448 net.cpp:148] Top shape: 10 16 14 14 (31360)
I0705 15:10:40.972424 21448 net.cpp:156] Memory required for data: 363901440
I0705 15:10:40.972440 21448 layer_factory.hpp:77] Creating layer inception_4a/relu_5x5_reduce
I0705 15:10:40.972448 21448 net.cpp:91] Creating Layer inception_4a/relu_5x5_reduce
I0705 15:10:40.972453 21448 net.cpp:425] inception_4a/relu_5x5_reduce <- inception_4a/5x5_reduce
I0705 15:10:40.972460 21448 net.cpp:386] inception_4a/relu_5x5_reduce -> inception_4a/5x5_reduce (in-place)
I0705 15:10:40.973183 21448 net.cpp:141] Setting up inception_4a/relu_5x5_reduce
I0705 15:10:40.973199 21448 net.cpp:148] Top shape: 10 16 14 14 (31360)
I0705 15:10:40.973204 21448 net.cpp:156] Memory required for data: 364026880
I0705 15:10:40.973209 21448 layer_factory.hpp:77] Creating layer inception_4a/5x5
I0705 15:10:40.973227 21448 net.cpp:91] Creating Layer inception_4a/5x5
I0705 15:10:40.973232 21448 net.cpp:425] inception_4a/5x5 <- inception_4a/5x5_reduce
I0705 15:10:40.973242 21448 net.cpp:399] inception_4a/5x5 -> inception_4a/5x5
I0705 15:10:40.975378 21448 net.cpp:141] Setting up inception_4a/5x5
I0705 15:10:40.975399 21448 net.cpp:148] Top shape: 10 48 14 14 (94080)
I0705 15:10:40.975404 21448 net.cpp:156] Memory required for data: 364403200
I0705 15:10:40.975414 21448 layer_factory.hpp:77] Creating layer inception_4a/relu_5x5
I0705 15:10:40.975422 21448 net.cpp:91] Creating Layer inception_4a/relu_5x5
I0705 15:10:40.975427 21448 net.cpp:425] inception_4a/relu_5x5 <- inception_4a/5x5
I0705 15:10:40.975435 21448 net.cpp:386] inception_4a/relu_5x5 -> inception_4a/5x5 (in-place)
I0705 15:10:40.975657 21448 net.cpp:141] Setting up inception_4a/relu_5x5
I0705 15:10:40.975668 21448 net.cpp:148] Top shape: 10 48 14 14 (94080)
I0705 15:10:40.975673 21448 net.cpp:156] Memory required for data: 364779520
I0705 15:10:40.975677 21448 layer_factory.hpp:77] Creating layer inception_4a/pool
I0705 15:10:40.975690 21448 net.cpp:91] Creating Layer inception_4a/pool
I0705 15:10:40.975695 21448 net.cpp:425] inception_4a/pool <- pool3/3x3_s2_pool3/3x3_s2_0_split_3
I0705 15:10:40.975703 21448 net.cpp:399] inception_4a/pool -> inception_4a/pool
I0705 15:10:40.975765 21448 net.cpp:141] Setting up inception_4a/pool
I0705 15:10:40.975775 21448 net.cpp:148] Top shape: 10 480 14 14 (940800)
I0705 15:10:40.975778 21448 net.cpp:156] Memory required for data: 368542720
I0705 15:10:40.975783 21448 layer_factory.hpp:77] Creating layer inception_4a/pool_proj
I0705 15:10:40.975797 21448 net.cpp:91] Creating Layer inception_4a/pool_proj
I0705 15:10:40.975803 21448 net.cpp:425] inception_4a/pool_proj <- inception_4a/pool
I0705 15:10:40.975811 21448 net.cpp:399] inception_4a/pool_proj -> inception_4a/pool_proj
I0705 15:10:40.978027 21448 net.cpp:141] Setting up inception_4a/pool_proj
I0705 15:10:40.978045 21448 net.cpp:148] Top shape: 10 64 14 14 (125440)
I0705 15:10:40.978050 21448 net.cpp:156] Memory required for data: 369044480
I0705 15:10:40.978060 21448 layer_factory.hpp:77] Creating layer inception_4a/relu_pool_proj
I0705 15:10:40.978072 21448 net.cpp:91] Creating Layer inception_4a/relu_pool_proj
I0705 15:10:40.978078 21448 net.cpp:425] inception_4a/relu_pool_proj <- inception_4a/pool_proj
I0705 15:10:40.978085 21448 net.cpp:386] inception_4a/relu_pool_proj -> inception_4a/pool_proj (in-place)
I0705 15:10:40.978304 21448 net.cpp:141] Setting up inception_4a/relu_pool_proj
I0705 15:10:40.978315 21448 net.cpp:148] Top shape: 10 64 14 14 (125440)
I0705 15:10:40.978319 21448 net.cpp:156] Memory required for data: 369546240
I0705 15:10:40.978324 21448 layer_factory.hpp:77] Creating layer inception_4a/output
I0705 15:10:40.978332 21448 net.cpp:91] Creating Layer inception_4a/output
I0705 15:10:40.978338 21448 net.cpp:425] inception_4a/output <- inception_4a/1x1
I0705 15:10:40.978343 21448 net.cpp:425] inception_4a/output <- inception_4a/3x3
I0705 15:10:40.978349 21448 net.cpp:425] inception_4a/output <- inception_4a/5x5
I0705 15:10:40.978354 21448 net.cpp:425] inception_4a/output <- inception_4a/pool_proj
I0705 15:10:40.978364 21448 net.cpp:399] inception_4a/output -> inception_4a/output
I0705 15:10:40.978406 21448 net.cpp:141] Setting up inception_4a/output
I0705 15:10:40.978415 21448 net.cpp:148] Top shape: 10 512 14 14 (1003520)
I0705 15:10:40.978420 21448 net.cpp:156] Memory required for data: 373560320
I0705 15:10:40.978423 21448 layer_factory.hpp:77] Creating layer inception_4a/output_inception_4a/output_0_split
I0705 15:10:40.978433 21448 net.cpp:91] Creating Layer inception_4a/output_inception_4a/output_0_split
I0705 15:10:40.978437 21448 net.cpp:425] inception_4a/output_inception_4a/output_0_split <- inception_4a/output
I0705 15:10:40.978444 21448 net.cpp:399] inception_4a/output_inception_4a/output_0_split -> inception_4a/output_inception_4a/output_0_split_0
I0705 15:10:40.978453 21448 net.cpp:399] inception_4a/output_inception_4a/output_0_split -> inception_4a/output_inception_4a/output_0_split_1
I0705 15:10:40.978464 21448 net.cpp:399] inception_4a/output_inception_4a/output_0_split -> inception_4a/output_inception_4a/output_0_split_2
I0705 15:10:40.978472 21448 net.cpp:399] inception_4a/output_inception_4a/output_0_split -> inception_4a/output_inception_4a/output_0_split_3
I0705 15:10:40.978554 21448 net.cpp:141] Setting up inception_4a/output_inception_4a/output_0_split
I0705 15:10:40.978562 21448 net.cpp:148] Top shape: 10 512 14 14 (1003520)
I0705 15:10:40.978569 21448 net.cpp:148] Top shape: 10 512 14 14 (1003520)
I0705 15:10:40.978574 21448 net.cpp:148] Top shape: 10 512 14 14 (1003520)
I0705 15:10:40.978577 21448 net.cpp:148] Top shape: 10 512 14 14 (1003520)
I0705 15:10:40.978581 21448 net.cpp:156] Memory required for data: 389616640
I0705 15:10:40.978585 21448 layer_factory.hpp:77] Creating layer inception_4b/1x1
I0705 15:10:40.978603 21448 net.cpp:91] Creating Layer inception_4b/1x1
I0705 15:10:40.978608 21448 net.cpp:425] inception_4b/1x1 <- inception_4a/output_inception_4a/output_0_split_0
I0705 15:10:40.978617 21448 net.cpp:399] inception_4b/1x1 -> inception_4b/1x1
I0705 15:10:40.981541 21448 net.cpp:141] Setting up inception_4b/1x1
I0705 15:10:40.981570 21448 net.cpp:148] Top shape: 10 160 14 14 (313600)
I0705 15:10:40.981575 21448 net.cpp:156] Memory required for data: 390871040
I0705 15:10:40.981586 21448 layer_factory.hpp:77] Creating layer inception_4b/relu_1x1
I0705 15:10:40.981603 21448 net.cpp:91] Creating Layer inception_4b/relu_1x1
I0705 15:10:40.981611 21448 net.cpp:425] inception_4b/relu_1x1 <- inception_4b/1x1
I0705 15:10:40.981618 21448 net.cpp:386] inception_4b/relu_1x1 -> inception_4b/1x1 (in-place)
I0705 15:10:40.982404 21448 net.cpp:141] Setting up inception_4b/relu_1x1
I0705 15:10:40.982421 21448 net.cpp:148] Top shape: 10 160 14 14 (313600)
I0705 15:10:40.982429 21448 net.cpp:156] Memory required for data: 392125440
I0705 15:10:40.982434 21448 layer_factory.hpp:77] Creating layer inception_4b/3x3_reduce
I0705 15:10:40.982448 21448 net.cpp:91] Creating Layer inception_4b/3x3_reduce
I0705 15:10:40.982455 21448 net.cpp:425] inception_4b/3x3_reduce <- inception_4a/output_inception_4a/output_0_split_1
I0705 15:10:40.982467 21448 net.cpp:399] inception_4b/3x3_reduce -> inception_4b/3x3_reduce
I0705 15:10:40.985100 21448 net.cpp:141] Setting up inception_4b/3x3_reduce
I0705 15:10:40.985128 21448 net.cpp:148] Top shape: 10 112 14 14 (219520)
I0705 15:10:40.985134 21448 net.cpp:156] Memory required for data: 393003520
I0705 15:10:40.985146 21448 layer_factory.hpp:77] Creating layer inception_4b/relu_3x3_reduce
I0705 15:10:40.985157 21448 net.cpp:91] Creating Layer inception_4b/relu_3x3_reduce
I0705 15:10:40.985164 21448 net.cpp:425] inception_4b/relu_3x3_reduce <- inception_4b/3x3_reduce
I0705 15:10:40.985172 21448 net.cpp:386] inception_4b/relu_3x3_reduce -> inception_4b/3x3_reduce (in-place)
I0705 15:10:40.985401 21448 net.cpp:141] Setting up inception_4b/relu_3x3_reduce
I0705 15:10:40.985412 21448 net.cpp:148] Top shape: 10 112 14 14 (219520)
I0705 15:10:40.985417 21448 net.cpp:156] Memory required for data: 393881600
I0705 15:10:40.985421 21448 layer_factory.hpp:77] Creating layer inception_4b/3x3
I0705 15:10:40.985438 21448 net.cpp:91] Creating Layer inception_4b/3x3
I0705 15:10:40.985445 21448 net.cpp:425] inception_4b/3x3 <- inception_4b/3x3_reduce
I0705 15:10:40.985456 21448 net.cpp:399] inception_4b/3x3 -> inception_4b/3x3
I0705 15:10:40.992028 21448 net.cpp:141] Setting up inception_4b/3x3
I0705 15:10:40.992070 21448 net.cpp:148] Top shape: 10 224 14 14 (439040)
I0705 15:10:40.992079 21448 net.cpp:156] Memory required for data: 395637760
I0705 15:10:40.992092 21448 layer_factory.hpp:77] Creating layer inception_4b/relu_3x3
I0705 15:10:40.992107 21448 net.cpp:91] Creating Layer inception_4b/relu_3x3
I0705 15:10:40.992116 21448 net.cpp:425] inception_4b/relu_3x3 <- inception_4b/3x3
I0705 15:10:40.992125 21448 net.cpp:386] inception_4b/relu_3x3 -> inception_4b/3x3 (in-place)
I0705 15:10:40.992364 21448 net.cpp:141] Setting up inception_4b/relu_3x3
I0705 15:10:40.992377 21448 net.cpp:148] Top shape: 10 224 14 14 (439040)
I0705 15:10:40.992380 21448 net.cpp:156] Memory required for data: 397393920
I0705 15:10:40.992384 21448 layer_factory.hpp:77] Creating layer inception_4b/5x5_reduce
I0705 15:10:40.992416 21448 net.cpp:91] Creating Layer inception_4b/5x5_reduce
I0705 15:10:40.992422 21448 net.cpp:425] inception_4b/5x5_reduce <- inception_4a/output_inception_4a/output_0_split_2
I0705 15:10:40.992432 21448 net.cpp:399] inception_4b/5x5_reduce -> inception_4b/5x5_reduce
I0705 15:10:40.994577 21448 net.cpp:141] Setting up inception_4b/5x5_reduce
I0705 15:10:40.994596 21448 net.cpp:148] Top shape: 10 24 14 14 (47040)
I0705 15:10:40.994601 21448 net.cpp:156] Memory required for data: 397582080
I0705 15:10:40.994611 21448 layer_factory.hpp:77] Creating layer inception_4b/relu_5x5_reduce
I0705 15:10:40.994619 21448 net.cpp:91] Creating Layer inception_4b/relu_5x5_reduce
I0705 15:10:40.994626 21448 net.cpp:425] inception_4b/relu_5x5_reduce <- inception_4b/5x5_reduce
I0705 15:10:40.994637 21448 net.cpp:386] inception_4b/relu_5x5_reduce -> inception_4b/5x5_reduce (in-place)
I0705 15:10:40.995378 21448 net.cpp:141] Setting up inception_4b/relu_5x5_reduce
I0705 15:10:40.995393 21448 net.cpp:148] Top shape: 10 24 14 14 (47040)
I0705 15:10:40.995398 21448 net.cpp:156] Memory required for data: 397770240
I0705 15:10:40.995404 21448 layer_factory.hpp:77] Creating layer inception_4b/5x5
I0705 15:10:40.995424 21448 net.cpp:91] Creating Layer inception_4b/5x5
I0705 15:10:40.995429 21448 net.cpp:425] inception_4b/5x5 <- inception_4b/5x5_reduce
I0705 15:10:40.995439 21448 net.cpp:399] inception_4b/5x5 -> inception_4b/5x5
I0705 15:10:40.998842 21448 net.cpp:141] Setting up inception_4b/5x5
I0705 15:10:40.998869 21448 net.cpp:148] Top shape: 10 64 14 14 (125440)
I0705 15:10:40.998874 21448 net.cpp:156] Memory required for data: 398272000
I0705 15:10:40.998885 21448 layer_factory.hpp:77] Creating layer inception_4b/relu_5x5
I0705 15:10:40.998896 21448 net.cpp:91] Creating Layer inception_4b/relu_5x5
I0705 15:10:40.998903 21448 net.cpp:425] inception_4b/relu_5x5 <- inception_4b/5x5
I0705 15:10:40.998910 21448 net.cpp:386] inception_4b/relu_5x5 -> inception_4b/5x5 (in-place)
I0705 15:10:40.999138 21448 net.cpp:141] Setting up inception_4b/relu_5x5
I0705 15:10:40.999150 21448 net.cpp:148] Top shape: 10 64 14 14 (125440)
I0705 15:10:40.999153 21448 net.cpp:156] Memory required for data: 398773760
I0705 15:10:40.999158 21448 layer_factory.hpp:77] Creating layer inception_4b/pool
I0705 15:10:40.999168 21448 net.cpp:91] Creating Layer inception_4b/pool
I0705 15:10:40.999177 21448 net.cpp:425] inception_4b/pool <- inception_4a/output_inception_4a/output_0_split_3
I0705 15:10:40.999184 21448 net.cpp:399] inception_4b/pool -> inception_4b/pool
I0705 15:10:40.999253 21448 net.cpp:141] Setting up inception_4b/pool
I0705 15:10:40.999263 21448 net.cpp:148] Top shape: 10 512 14 14 (1003520)
I0705 15:10:40.999266 21448 net.cpp:156] Memory required for data: 402787840
I0705 15:10:40.999271 21448 layer_factory.hpp:77] Creating layer inception_4b/pool_proj
I0705 15:10:40.999287 21448 net.cpp:91] Creating Layer inception_4b/pool_proj
I0705 15:10:40.999294 21448 net.cpp:425] inception_4b/pool_proj <- inception_4b/pool
I0705 15:10:40.999302 21448 net.cpp:399] inception_4b/pool_proj -> inception_4b/pool_proj
I0705 15:10:41.001667 21448 net.cpp:141] Setting up inception_4b/pool_proj
I0705 15:10:41.001685 21448 net.cpp:148] Top shape: 10 64 14 14 (125440)
I0705 15:10:41.001691 21448 net.cpp:156] Memory required for data: 403289600
I0705 15:10:41.001700 21448 layer_factory.hpp:77] Creating layer inception_4b/relu_pool_proj
I0705 15:10:41.001713 21448 net.cpp:91] Creating Layer inception_4b/relu_pool_proj
I0705 15:10:41.001719 21448 net.cpp:425] inception_4b/relu_pool_proj <- inception_4b/pool_proj
I0705 15:10:41.001726 21448 net.cpp:386] inception_4b/relu_pool_proj -> inception_4b/pool_proj (in-place)
I0705 15:10:41.001957 21448 net.cpp:141] Setting up inception_4b/relu_pool_proj
I0705 15:10:41.001970 21448 net.cpp:148] Top shape: 10 64 14 14 (125440)
I0705 15:10:41.001973 21448 net.cpp:156] Memory required for data: 403791360
I0705 15:10:41.001978 21448 layer_factory.hpp:77] Creating layer inception_4b/output
I0705 15:10:41.001987 21448 net.cpp:91] Creating Layer inception_4b/output
I0705 15:10:41.001992 21448 net.cpp:425] inception_4b/output <- inception_4b/1x1
I0705 15:10:41.001998 21448 net.cpp:425] inception_4b/output <- inception_4b/3x3
I0705 15:10:41.002004 21448 net.cpp:425] inception_4b/output <- inception_4b/5x5
I0705 15:10:41.002009 21448 net.cpp:425] inception_4b/output <- inception_4b/pool_proj
I0705 15:10:41.002018 21448 net.cpp:399] inception_4b/output -> inception_4b/output
I0705 15:10:41.002059 21448 net.cpp:141] Setting up inception_4b/output
I0705 15:10:41.002071 21448 net.cpp:148] Top shape: 10 512 14 14 (1003520)
I0705 15:10:41.002075 21448 net.cpp:156] Memory required for data: 407805440
I0705 15:10:41.002080 21448 layer_factory.hpp:77] Creating layer inception_4b/output_inception_4b/output_0_split
I0705 15:10:41.002089 21448 net.cpp:91] Creating Layer inception_4b/output_inception_4b/output_0_split
I0705 15:10:41.002094 21448 net.cpp:425] inception_4b/output_inception_4b/output_0_split <- inception_4b/output
I0705 15:10:41.002100 21448 net.cpp:399] inception_4b/output_inception_4b/output_0_split -> inception_4b/output_inception_4b/output_0_split_0
I0705 15:10:41.002109 21448 net.cpp:399] inception_4b/output_inception_4b/output_0_split -> inception_4b/output_inception_4b/output_0_split_1
I0705 15:10:41.002117 21448 net.cpp:399] inception_4b/output_inception_4b/output_0_split -> inception_4b/output_inception_4b/output_0_split_2
I0705 15:10:41.002128 21448 net.cpp:399] inception_4b/output_inception_4b/output_0_split -> inception_4b/output_inception_4b/output_0_split_3
I0705 15:10:41.002214 21448 net.cpp:141] Setting up inception_4b/output_inception_4b/output_0_split
I0705 15:10:41.002223 21448 net.cpp:148] Top shape: 10 512 14 14 (1003520)
I0705 15:10:41.002228 21448 net.cpp:148] Top shape: 10 512 14 14 (1003520)
I0705 15:10:41.002233 21448 net.cpp:148] Top shape: 10 512 14 14 (1003520)
I0705 15:10:41.002238 21448 net.cpp:148] Top shape: 10 512 14 14 (1003520)
I0705 15:10:41.002243 21448 net.cpp:156] Memory required for data: 423861760
I0705 15:10:41.002248 21448 layer_factory.hpp:77] Creating layer inception_4c/1x1
I0705 15:10:41.002264 21448 net.cpp:91] Creating Layer inception_4c/1x1
I0705 15:10:41.002269 21448 net.cpp:425] inception_4c/1x1 <- inception_4b/output_inception_4b/output_0_split_0
I0705 15:10:41.002279 21448 net.cpp:399] inception_4c/1x1 -> inception_4c/1x1
I0705 15:10:41.004838 21448 net.cpp:141] Setting up inception_4c/1x1
I0705 15:10:41.004856 21448 net.cpp:148] Top shape: 10 128 14 14 (250880)
I0705 15:10:41.004861 21448 net.cpp:156] Memory required for data: 424865280
I0705 15:10:41.004870 21448 layer_factory.hpp:77] Creating layer inception_4c/relu_1x1
I0705 15:10:41.004879 21448 net.cpp:91] Creating Layer inception_4c/relu_1x1
I0705 15:10:41.004885 21448 net.cpp:425] inception_4c/relu_1x1 <- inception_4c/1x1
I0705 15:10:41.004895 21448 net.cpp:386] inception_4c/relu_1x1 -> inception_4c/1x1 (in-place)
I0705 15:10:41.005604 21448 net.cpp:141] Setting up inception_4c/relu_1x1
I0705 15:10:41.005620 21448 net.cpp:148] Top shape: 10 128 14 14 (250880)
I0705 15:10:41.005625 21448 net.cpp:156] Memory required for data: 425868800
I0705 15:10:41.005630 21448 layer_factory.hpp:77] Creating layer inception_4c/3x3_reduce
I0705 15:10:41.005645 21448 net.cpp:91] Creating Layer inception_4c/3x3_reduce
I0705 15:10:41.005656 21448 net.cpp:425] inception_4c/3x3_reduce <- inception_4b/output_inception_4b/output_0_split_1
I0705 15:10:41.005664 21448 net.cpp:399] inception_4c/3x3_reduce -> inception_4c/3x3_reduce
I0705 15:10:41.008209 21448 net.cpp:141] Setting up inception_4c/3x3_reduce
I0705 15:10:41.008229 21448 net.cpp:148] Top shape: 10 128 14 14 (250880)
I0705 15:10:41.008234 21448 net.cpp:156] Memory required for data: 426872320
I0705 15:10:41.008244 21448 layer_factory.hpp:77] Creating layer inception_4c/relu_3x3_reduce
I0705 15:10:41.008257 21448 net.cpp:91] Creating Layer inception_4c/relu_3x3_reduce
I0705 15:10:41.008263 21448 net.cpp:425] inception_4c/relu_3x3_reduce <- inception_4c/3x3_reduce
I0705 15:10:41.008272 21448 net.cpp:386] inception_4c/relu_3x3_reduce -> inception_4c/3x3_reduce (in-place)
I0705 15:10:41.008496 21448 net.cpp:141] Setting up inception_4c/relu_3x3_reduce
I0705 15:10:41.008507 21448 net.cpp:148] Top shape: 10 128 14 14 (250880)
I0705 15:10:41.008512 21448 net.cpp:156] Memory required for data: 427875840
I0705 15:10:41.008517 21448 layer_factory.hpp:77] Creating layer inception_4c/3x3
I0705 15:10:41.008533 21448 net.cpp:91] Creating Layer inception_4c/3x3
I0705 15:10:41.008539 21448 net.cpp:425] inception_4c/3x3 <- inception_4c/3x3_reduce
I0705 15:10:41.008549 21448 net.cpp:399] inception_4c/3x3 -> inception_4c/3x3
I0705 15:10:41.014665 21448 net.cpp:141] Setting up inception_4c/3x3
I0705 15:10:41.014729 21448 net.cpp:148] Top shape: 10 256 14 14 (501760)
I0705 15:10:41.014737 21448 net.cpp:156] Memory required for data: 429882880
I0705 15:10:41.014756 21448 layer_factory.hpp:77] Creating layer inception_4c/relu_3x3
I0705 15:10:41.014775 21448 net.cpp:91] Creating Layer inception_4c/relu_3x3
I0705 15:10:41.014786 21448 net.cpp:425] inception_4c/relu_3x3 <- inception_4c/3x3
I0705 15:10:41.014794 21448 net.cpp:386] inception_4c/relu_3x3 -> inception_4c/3x3 (in-place)
I0705 15:10:41.015045 21448 net.cpp:141] Setting up inception_4c/relu_3x3
I0705 15:10:41.015058 21448 net.cpp:148] Top shape: 10 256 14 14 (501760)
I0705 15:10:41.015061 21448 net.cpp:156] Memory required for data: 431889920
I0705 15:10:41.015066 21448 layer_factory.hpp:77] Creating layer inception_4c/5x5_reduce
I0705 15:10:41.015085 21448 net.cpp:91] Creating Layer inception_4c/5x5_reduce
I0705 15:10:41.015091 21448 net.cpp:425] inception_4c/5x5_reduce <- inception_4b/output_inception_4b/output_0_split_2
I0705 15:10:41.015103 21448 net.cpp:399] inception_4c/5x5_reduce -> inception_4c/5x5_reduce
I0705 15:10:41.017421 21448 net.cpp:141] Setting up inception_4c/5x5_reduce
I0705 15:10:41.017443 21448 net.cpp:148] Top shape: 10 24 14 14 (47040)
I0705 15:10:41.017448 21448 net.cpp:156] Memory required for data: 432078080
I0705 15:10:41.017458 21448 layer_factory.hpp:77] Creating layer inception_4c/relu_5x5_reduce
I0705 15:10:41.017467 21448 net.cpp:91] Creating Layer inception_4c/relu_5x5_reduce
I0705 15:10:41.017474 21448 net.cpp:425] inception_4c/relu_5x5_reduce <- inception_4c/5x5_reduce
I0705 15:10:41.017491 21448 net.cpp:386] inception_4c/relu_5x5_reduce -> inception_4c/5x5_reduce (in-place)
I0705 15:10:41.018388 21448 net.cpp:141] Setting up inception_4c/relu_5x5_reduce
I0705 15:10:41.018410 21448 net.cpp:148] Top shape: 10 24 14 14 (47040)
I0705 15:10:41.018415 21448 net.cpp:156] Memory required for data: 432266240
I0705 15:10:41.018421 21448 layer_factory.hpp:77] Creating layer inception_4c/5x5
I0705 15:10:41.018440 21448 net.cpp:91] Creating Layer inception_4c/5x5
I0705 15:10:41.018446 21448 net.cpp:425] inception_4c/5x5 <- inception_4c/5x5_reduce
I0705 15:10:41.018455 21448 net.cpp:399] inception_4c/5x5 -> inception_4c/5x5
I0705 15:10:41.021738 21448 net.cpp:141] Setting up inception_4c/5x5
I0705 15:10:41.021766 21448 net.cpp:148] Top shape: 10 64 14 14 (125440)
I0705 15:10:41.021772 21448 net.cpp:156] Memory required for data: 432768000
I0705 15:10:41.021783 21448 layer_factory.hpp:77] Creating layer inception_4c/relu_5x5
I0705 15:10:41.021797 21448 net.cpp:91] Creating Layer inception_4c/relu_5x5
I0705 15:10:41.021805 21448 net.cpp:425] inception_4c/relu_5x5 <- inception_4c/5x5
I0705 15:10:41.021812 21448 net.cpp:386] inception_4c/relu_5x5 -> inception_4c/5x5 (in-place)
I0705 15:10:41.022049 21448 net.cpp:141] Setting up inception_4c/relu_5x5
I0705 15:10:41.022060 21448 net.cpp:148] Top shape: 10 64 14 14 (125440)
I0705 15:10:41.022064 21448 net.cpp:156] Memory required for data: 433269760
I0705 15:10:41.022069 21448 layer_factory.hpp:77] Creating layer inception_4c/pool
I0705 15:10:41.022083 21448 net.cpp:91] Creating Layer inception_4c/pool
I0705 15:10:41.022089 21448 net.cpp:425] inception_4c/pool <- inception_4b/output_inception_4b/output_0_split_3
I0705 15:10:41.022100 21448 net.cpp:399] inception_4c/pool -> inception_4c/pool
I0705 15:10:41.022171 21448 net.cpp:141] Setting up inception_4c/pool
I0705 15:10:41.022179 21448 net.cpp:148] Top shape: 10 512 14 14 (1003520)
I0705 15:10:41.022184 21448 net.cpp:156] Memory required for data: 437283840
I0705 15:10:41.022188 21448 layer_factory.hpp:77] Creating layer inception_4c/pool_proj
I0705 15:10:41.022204 21448 net.cpp:91] Creating Layer inception_4c/pool_proj
I0705 15:10:41.022210 21448 net.cpp:425] inception_4c/pool_proj <- inception_4c/pool
I0705 15:10:41.022222 21448 net.cpp:399] inception_4c/pool_proj -> inception_4c/pool_proj
I0705 15:10:41.026226 21448 net.cpp:141] Setting up inception_4c/pool_proj
I0705 15:10:41.026264 21448 net.cpp:148] Top shape: 10 64 14 14 (125440)
I0705 15:10:41.026270 21448 net.cpp:156] Memory required for data: 437785600
I0705 15:10:41.026301 21448 layer_factory.hpp:77] Creating layer inception_4c/relu_pool_proj
I0705 15:10:41.026315 21448 net.cpp:91] Creating Layer inception_4c/relu_pool_proj
I0705 15:10:41.026324 21448 net.cpp:425] inception_4c/relu_pool_proj <- inception_4c/pool_proj
I0705 15:10:41.026335 21448 net.cpp:386] inception_4c/relu_pool_proj -> inception_4c/pool_proj (in-place)
I0705 15:10:41.026569 21448 net.cpp:141] Setting up inception_4c/relu_pool_proj
I0705 15:10:41.026582 21448 net.cpp:148] Top shape: 10 64 14 14 (125440)
I0705 15:10:41.026587 21448 net.cpp:156] Memory required for data: 438287360
I0705 15:10:41.026592 21448 layer_factory.hpp:77] Creating layer inception_4c/output
I0705 15:10:41.026602 21448 net.cpp:91] Creating Layer inception_4c/output
I0705 15:10:41.026607 21448 net.cpp:425] inception_4c/output <- inception_4c/1x1
I0705 15:10:41.026613 21448 net.cpp:425] inception_4c/output <- inception_4c/3x3
I0705 15:10:41.026619 21448 net.cpp:425] inception_4c/output <- inception_4c/5x5
I0705 15:10:41.026624 21448 net.cpp:425] inception_4c/output <- inception_4c/pool_proj
I0705 15:10:41.026631 21448 net.cpp:399] inception_4c/output -> inception_4c/output
I0705 15:10:41.026682 21448 net.cpp:141] Setting up inception_4c/output
I0705 15:10:41.026705 21448 net.cpp:148] Top shape: 10 512 14 14 (1003520)
I0705 15:10:41.026712 21448 net.cpp:156] Memory required for data: 442301440
I0705 15:10:41.026721 21448 layer_factory.hpp:77] Creating layer inception_4c/output_inception_4c/output_0_split
I0705 15:10:41.026733 21448 net.cpp:91] Creating Layer inception_4c/output_inception_4c/output_0_split
I0705 15:10:41.026742 21448 net.cpp:425] inception_4c/output_inception_4c/output_0_split <- inception_4c/output
I0705 15:10:41.026757 21448 net.cpp:399] inception_4c/output_inception_4c/output_0_split -> inception_4c/output_inception_4c/output_0_split_0
I0705 15:10:41.026770 21448 net.cpp:399] inception_4c/output_inception_4c/output_0_split -> inception_4c/output_inception_4c/output_0_split_1
I0705 15:10:41.026779 21448 net.cpp:399] inception_4c/output_inception_4c/output_0_split -> inception_4c/output_inception_4c/output_0_split_2
I0705 15:10:41.026787 21448 net.cpp:399] inception_4c/output_inception_4c/output_0_split -> inception_4c/output_inception_4c/output_0_split_3
I0705 15:10:41.026885 21448 net.cpp:141] Setting up inception_4c/output_inception_4c/output_0_split
I0705 15:10:41.026895 21448 net.cpp:148] Top shape: 10 512 14 14 (1003520)
I0705 15:10:41.026901 21448 net.cpp:148] Top shape: 10 512 14 14 (1003520)
I0705 15:10:41.026906 21448 net.cpp:148] Top shape: 10 512 14 14 (1003520)
I0705 15:10:41.026911 21448 net.cpp:148] Top shape: 10 512 14 14 (1003520)
I0705 15:10:41.026914 21448 net.cpp:156] Memory required for data: 458357760
I0705 15:10:41.026919 21448 layer_factory.hpp:77] Creating layer inception_4d/1x1
I0705 15:10:41.026935 21448 net.cpp:91] Creating Layer inception_4d/1x1
I0705 15:10:41.026942 21448 net.cpp:425] inception_4d/1x1 <- inception_4c/output_inception_4c/output_0_split_0
I0705 15:10:41.026952 21448 net.cpp:399] inception_4d/1x1 -> inception_4d/1x1
I0705 15:10:41.029762 21448 net.cpp:141] Setting up inception_4d/1x1
I0705 15:10:41.029788 21448 net.cpp:148] Top shape: 10 112 14 14 (219520)
I0705 15:10:41.029793 21448 net.cpp:156] Memory required for data: 459235840
I0705 15:10:41.029803 21448 layer_factory.hpp:77] Creating layer inception_4d/relu_1x1
I0705 15:10:41.029816 21448 net.cpp:91] Creating Layer inception_4d/relu_1x1
I0705 15:10:41.029824 21448 net.cpp:425] inception_4d/relu_1x1 <- inception_4d/1x1
I0705 15:10:41.029830 21448 net.cpp:386] inception_4d/relu_1x1 -> inception_4d/1x1 (in-place)
I0705 15:10:41.030556 21448 net.cpp:141] Setting up inception_4d/relu_1x1
I0705 15:10:41.030572 21448 net.cpp:148] Top shape: 10 112 14 14 (219520)
I0705 15:10:41.030577 21448 net.cpp:156] Memory required for data: 460113920
I0705 15:10:41.030582 21448 layer_factory.hpp:77] Creating layer inception_4d/3x3_reduce
I0705 15:10:41.030601 21448 net.cpp:91] Creating Layer inception_4d/3x3_reduce
I0705 15:10:41.030608 21448 net.cpp:425] inception_4d/3x3_reduce <- inception_4c/output_inception_4c/output_0_split_1
I0705 15:10:41.030617 21448 net.cpp:399] inception_4d/3x3_reduce -> inception_4d/3x3_reduce
I0705 15:10:41.033289 21448 net.cpp:141] Setting up inception_4d/3x3_reduce
I0705 15:10:41.033308 21448 net.cpp:148] Top shape: 10 144 14 14 (282240)
I0705 15:10:41.033313 21448 net.cpp:156] Memory required for data: 461242880
I0705 15:10:41.033321 21448 layer_factory.hpp:77] Creating layer inception_4d/relu_3x3_reduce
I0705 15:10:41.033332 21448 net.cpp:91] Creating Layer inception_4d/relu_3x3_reduce
I0705 15:10:41.033339 21448 net.cpp:425] inception_4d/relu_3x3_reduce <- inception_4d/3x3_reduce
I0705 15:10:41.033345 21448 net.cpp:386] inception_4d/relu_3x3_reduce -> inception_4d/3x3_reduce (in-place)
I0705 15:10:41.033576 21448 net.cpp:141] Setting up inception_4d/relu_3x3_reduce
I0705 15:10:41.033591 21448 net.cpp:148] Top shape: 10 144 14 14 (282240)
I0705 15:10:41.033594 21448 net.cpp:156] Memory required for data: 462371840
I0705 15:10:41.033599 21448 layer_factory.hpp:77] Creating layer inception_4d/3x3
I0705 15:10:41.033614 21448 net.cpp:91] Creating Layer inception_4d/3x3
I0705 15:10:41.033620 21448 net.cpp:425] inception_4d/3x3 <- inception_4d/3x3_reduce
I0705 15:10:41.033628 21448 net.cpp:399] inception_4d/3x3 -> inception_4d/3x3
I0705 15:10:41.039849 21448 net.cpp:141] Setting up inception_4d/3x3
I0705 15:10:41.039873 21448 net.cpp:148] Top shape: 10 288 14 14 (564480)
I0705 15:10:41.039880 21448 net.cpp:156] Memory required for data: 464629760
I0705 15:10:41.039890 21448 layer_factory.hpp:77] Creating layer inception_4d/relu_3x3
I0705 15:10:41.039899 21448 net.cpp:91] Creating Layer inception_4d/relu_3x3
I0705 15:10:41.039906 21448 net.cpp:425] inception_4d/relu_3x3 <- inception_4d/3x3
I0705 15:10:41.039916 21448 net.cpp:386] inception_4d/relu_3x3 -> inception_4d/3x3 (in-place)
I0705 15:10:41.040140 21448 net.cpp:141] Setting up inception_4d/relu_3x3
I0705 15:10:41.040154 21448 net.cpp:148] Top shape: 10 288 14 14 (564480)
I0705 15:10:41.040158 21448 net.cpp:156] Memory required for data: 466887680
I0705 15:10:41.040163 21448 layer_factory.hpp:77] Creating layer inception_4d/5x5_reduce
I0705 15:10:41.040180 21448 net.cpp:91] Creating Layer inception_4d/5x5_reduce
I0705 15:10:41.040186 21448 net.cpp:425] inception_4d/5x5_reduce <- inception_4c/output_inception_4c/output_0_split_2
I0705 15:10:41.040195 21448 net.cpp:399] inception_4d/5x5_reduce -> inception_4d/5x5_reduce
I0705 15:10:41.042426 21448 net.cpp:141] Setting up inception_4d/5x5_reduce
I0705 15:10:41.042445 21448 net.cpp:148] Top shape: 10 32 14 14 (62720)
I0705 15:10:41.042450 21448 net.cpp:156] Memory required for data: 467138560
I0705 15:10:41.042459 21448 layer_factory.hpp:77] Creating layer inception_4d/relu_5x5_reduce
I0705 15:10:41.042472 21448 net.cpp:91] Creating Layer inception_4d/relu_5x5_reduce
I0705 15:10:41.042479 21448 net.cpp:425] inception_4d/relu_5x5_reduce <- inception_4d/5x5_reduce
I0705 15:10:41.042485 21448 net.cpp:386] inception_4d/relu_5x5_reduce -> inception_4d/5x5_reduce (in-place)
I0705 15:10:41.043227 21448 net.cpp:141] Setting up inception_4d/relu_5x5_reduce
I0705 15:10:41.043243 21448 net.cpp:148] Top shape: 10 32 14 14 (62720)
I0705 15:10:41.043247 21448 net.cpp:156] Memory required for data: 467389440
I0705 15:10:41.043252 21448 layer_factory.hpp:77] Creating layer inception_4d/5x5
I0705 15:10:41.043272 21448 net.cpp:91] Creating Layer inception_4d/5x5
I0705 15:10:41.043277 21448 net.cpp:425] inception_4d/5x5 <- inception_4d/5x5_reduce
I0705 15:10:41.043287 21448 net.cpp:399] inception_4d/5x5 -> inception_4d/5x5
I0705 15:10:41.045702 21448 net.cpp:141] Setting up inception_4d/5x5
I0705 15:10:41.045718 21448 net.cpp:148] Top shape: 10 64 14 14 (125440)
I0705 15:10:41.045723 21448 net.cpp:156] Memory required for data: 467891200
I0705 15:10:41.045732 21448 layer_factory.hpp:77] Creating layer inception_4d/relu_5x5
I0705 15:10:41.045742 21448 net.cpp:91] Creating Layer inception_4d/relu_5x5
I0705 15:10:41.045747 21448 net.cpp:425] inception_4d/relu_5x5 <- inception_4d/5x5
I0705 15:10:41.045758 21448 net.cpp:386] inception_4d/relu_5x5 -> inception_4d/5x5 (in-place)
I0705 15:10:41.045980 21448 net.cpp:141] Setting up inception_4d/relu_5x5
I0705 15:10:41.045991 21448 net.cpp:148] Top shape: 10 64 14 14 (125440)
I0705 15:10:41.045995 21448 net.cpp:156] Memory required for data: 468392960
I0705 15:10:41.046000 21448 layer_factory.hpp:77] Creating layer inception_4d/pool
I0705 15:10:41.046013 21448 net.cpp:91] Creating Layer inception_4d/pool
I0705 15:10:41.046020 21448 net.cpp:425] inception_4d/pool <- inception_4c/output_inception_4c/output_0_split_3
I0705 15:10:41.046027 21448 net.cpp:399] inception_4d/pool -> inception_4d/pool
I0705 15:10:41.046097 21448 net.cpp:141] Setting up inception_4d/pool
I0705 15:10:41.046106 21448 net.cpp:148] Top shape: 10 512 14 14 (1003520)
I0705 15:10:41.046110 21448 net.cpp:156] Memory required for data: 472407040
I0705 15:10:41.046114 21448 layer_factory.hpp:77] Creating layer inception_4d/pool_proj
I0705 15:10:41.046128 21448 net.cpp:91] Creating Layer inception_4d/pool_proj
I0705 15:10:41.046134 21448 net.cpp:425] inception_4d/pool_proj <- inception_4d/pool
I0705 15:10:41.046145 21448 net.cpp:399] inception_4d/pool_proj -> inception_4d/pool_proj
I0705 15:10:41.048454 21448 net.cpp:141] Setting up inception_4d/pool_proj
I0705 15:10:41.048470 21448 net.cpp:148] Top shape: 10 64 14 14 (125440)
I0705 15:10:41.048476 21448 net.cpp:156] Memory required for data: 472908800
I0705 15:10:41.048485 21448 layer_factory.hpp:77] Creating layer inception_4d/relu_pool_proj
I0705 15:10:41.048496 21448 net.cpp:91] Creating Layer inception_4d/relu_pool_proj
I0705 15:10:41.048501 21448 net.cpp:425] inception_4d/relu_pool_proj <- inception_4d/pool_proj
I0705 15:10:41.048508 21448 net.cpp:386] inception_4d/relu_pool_proj -> inception_4d/pool_proj (in-place)
I0705 15:10:41.048743 21448 net.cpp:141] Setting up inception_4d/relu_pool_proj
I0705 15:10:41.048754 21448 net.cpp:148] Top shape: 10 64 14 14 (125440)
I0705 15:10:41.048758 21448 net.cpp:156] Memory required for data: 473410560
I0705 15:10:41.048763 21448 layer_factory.hpp:77] Creating layer inception_4d/output
I0705 15:10:41.048775 21448 net.cpp:91] Creating Layer inception_4d/output
I0705 15:10:41.048781 21448 net.cpp:425] inception_4d/output <- inception_4d/1x1
I0705 15:10:41.048787 21448 net.cpp:425] inception_4d/output <- inception_4d/3x3
I0705 15:10:41.048792 21448 net.cpp:425] inception_4d/output <- inception_4d/5x5
I0705 15:10:41.048797 21448 net.cpp:425] inception_4d/output <- inception_4d/pool_proj
I0705 15:10:41.048805 21448 net.cpp:399] inception_4d/output -> inception_4d/output
I0705 15:10:41.048849 21448 net.cpp:141] Setting up inception_4d/output
I0705 15:10:41.048858 21448 net.cpp:148] Top shape: 10 528 14 14 (1034880)
I0705 15:10:41.048862 21448 net.cpp:156] Memory required for data: 477550080
I0705 15:10:41.048866 21448 layer_factory.hpp:77] Creating layer inception_4d/output_inception_4d/output_0_split
I0705 15:10:41.048879 21448 net.cpp:91] Creating Layer inception_4d/output_inception_4d/output_0_split
I0705 15:10:41.048884 21448 net.cpp:425] inception_4d/output_inception_4d/output_0_split <- inception_4d/output
I0705 15:10:41.048892 21448 net.cpp:399] inception_4d/output_inception_4d/output_0_split -> inception_4d/output_inception_4d/output_0_split_0
I0705 15:10:41.048899 21448 net.cpp:399] inception_4d/output_inception_4d/output_0_split -> inception_4d/output_inception_4d/output_0_split_1
I0705 15:10:41.048907 21448 net.cpp:399] inception_4d/output_inception_4d/output_0_split -> inception_4d/output_inception_4d/output_0_split_2
I0705 15:10:41.048919 21448 net.cpp:399] inception_4d/output_inception_4d/output_0_split -> inception_4d/output_inception_4d/output_0_split_3
I0705 15:10:41.049011 21448 net.cpp:141] Setting up inception_4d/output_inception_4d/output_0_split
I0705 15:10:41.049021 21448 net.cpp:148] Top shape: 10 528 14 14 (1034880)
I0705 15:10:41.049026 21448 net.cpp:148] Top shape: 10 528 14 14 (1034880)
I0705 15:10:41.049031 21448 net.cpp:148] Top shape: 10 528 14 14 (1034880)
I0705 15:10:41.049036 21448 net.cpp:148] Top shape: 10 528 14 14 (1034880)
I0705 15:10:41.049039 21448 net.cpp:156] Memory required for data: 494108160
I0705 15:10:41.049043 21448 layer_factory.hpp:77] Creating layer inception_4e/1x1
I0705 15:10:41.049060 21448 net.cpp:91] Creating Layer inception_4e/1x1
I0705 15:10:41.049065 21448 net.cpp:425] inception_4e/1x1 <- inception_4d/output_inception_4d/output_0_split_0
I0705 15:10:41.049077 21448 net.cpp:399] inception_4e/1x1 -> inception_4e/1x1
I0705 15:10:41.053782 21448 net.cpp:141] Setting up inception_4e/1x1
I0705 15:10:41.053807 21448 net.cpp:148] Top shape: 10 256 14 14 (501760)
I0705 15:10:41.053817 21448 net.cpp:156] Memory required for data: 496115200
I0705 15:10:41.053829 21448 layer_factory.hpp:77] Creating layer inception_4e/relu_1x1
I0705 15:10:41.053839 21448 net.cpp:91] Creating Layer inception_4e/relu_1x1
I0705 15:10:41.053845 21448 net.cpp:425] inception_4e/relu_1x1 <- inception_4e/1x1
I0705 15:10:41.053855 21448 net.cpp:386] inception_4e/relu_1x1 -> inception_4e/1x1 (in-place)
I0705 15:10:41.054678 21448 net.cpp:141] Setting up inception_4e/relu_1x1
I0705 15:10:41.054711 21448 net.cpp:148] Top shape: 10 256 14 14 (501760)
I0705 15:10:41.054720 21448 net.cpp:156] Memory required for data: 498122240
I0705 15:10:41.054729 21448 layer_factory.hpp:77] Creating layer inception_4e/3x3_reduce
I0705 15:10:41.054754 21448 net.cpp:91] Creating Layer inception_4e/3x3_reduce
I0705 15:10:41.054761 21448 net.cpp:425] inception_4e/3x3_reduce <- inception_4d/output_inception_4d/output_0_split_1
I0705 15:10:41.054774 21448 net.cpp:399] inception_4e/3x3_reduce -> inception_4e/3x3_reduce
I0705 15:10:41.057694 21448 net.cpp:141] Setting up inception_4e/3x3_reduce
I0705 15:10:41.057715 21448 net.cpp:148] Top shape: 10 160 14 14 (313600)
I0705 15:10:41.057720 21448 net.cpp:156] Memory required for data: 499376640
I0705 15:10:41.057730 21448 layer_factory.hpp:77] Creating layer inception_4e/relu_3x3_reduce
I0705 15:10:41.057740 21448 net.cpp:91] Creating Layer inception_4e/relu_3x3_reduce
I0705 15:10:41.057746 21448 net.cpp:425] inception_4e/relu_3x3_reduce <- inception_4e/3x3_reduce
I0705 15:10:41.057752 21448 net.cpp:386] inception_4e/relu_3x3_reduce -> inception_4e/3x3_reduce (in-place)
I0705 15:10:41.057983 21448 net.cpp:141] Setting up inception_4e/relu_3x3_reduce
I0705 15:10:41.057994 21448 net.cpp:148] Top shape: 10 160 14 14 (313600)
I0705 15:10:41.057998 21448 net.cpp:156] Memory required for data: 500631040
I0705 15:10:41.058003 21448 layer_factory.hpp:77] Creating layer inception_4e/3x3
I0705 15:10:41.058018 21448 net.cpp:91] Creating Layer inception_4e/3x3
I0705 15:10:41.058024 21448 net.cpp:425] inception_4e/3x3 <- inception_4e/3x3_reduce
I0705 15:10:41.058037 21448 net.cpp:399] inception_4e/3x3 -> inception_4e/3x3
I0705 15:10:41.065552 21448 net.cpp:141] Setting up inception_4e/3x3
I0705 15:10:41.065590 21448 net.cpp:148] Top shape: 10 320 14 14 (627200)
I0705 15:10:41.065596 21448 net.cpp:156] Memory required for data: 503139840
I0705 15:10:41.065609 21448 layer_factory.hpp:77] Creating layer inception_4e/relu_3x3
I0705 15:10:41.065628 21448 net.cpp:91] Creating Layer inception_4e/relu_3x3
I0705 15:10:41.065637 21448 net.cpp:425] inception_4e/relu_3x3 <- inception_4e/3x3
I0705 15:10:41.065647 21448 net.cpp:386] inception_4e/relu_3x3 -> inception_4e/3x3 (in-place)
I0705 15:10:41.065896 21448 net.cpp:141] Setting up inception_4e/relu_3x3
I0705 15:10:41.065907 21448 net.cpp:148] Top shape: 10 320 14 14 (627200)
I0705 15:10:41.065910 21448 net.cpp:156] Memory required for data: 505648640
I0705 15:10:41.065915 21448 layer_factory.hpp:77] Creating layer inception_4e/5x5_reduce
I0705 15:10:41.065937 21448 net.cpp:91] Creating Layer inception_4e/5x5_reduce
I0705 15:10:41.065944 21448 net.cpp:425] inception_4e/5x5_reduce <- inception_4d/output_inception_4d/output_0_split_2
I0705 15:10:41.065953 21448 net.cpp:399] inception_4e/5x5_reduce -> inception_4e/5x5_reduce
I0705 15:10:41.068187 21448 net.cpp:141] Setting up inception_4e/5x5_reduce
I0705 15:10:41.068204 21448 net.cpp:148] Top shape: 10 32 14 14 (62720)
I0705 15:10:41.068210 21448 net.cpp:156] Memory required for data: 505899520
I0705 15:10:41.068219 21448 layer_factory.hpp:77] Creating layer inception_4e/relu_5x5_reduce
I0705 15:10:41.068231 21448 net.cpp:91] Creating Layer inception_4e/relu_5x5_reduce
I0705 15:10:41.068238 21448 net.cpp:425] inception_4e/relu_5x5_reduce <- inception_4e/5x5_reduce
I0705 15:10:41.068243 21448 net.cpp:386] inception_4e/relu_5x5_reduce -> inception_4e/5x5_reduce (in-place)
I0705 15:10:41.068949 21448 net.cpp:141] Setting up inception_4e/relu_5x5_reduce
I0705 15:10:41.068967 21448 net.cpp:148] Top shape: 10 32 14 14 (62720)
I0705 15:10:41.068972 21448 net.cpp:156] Memory required for data: 506150400
I0705 15:10:41.068977 21448 layer_factory.hpp:77] Creating layer inception_4e/5x5
I0705 15:10:41.068994 21448 net.cpp:91] Creating Layer inception_4e/5x5
I0705 15:10:41.069000 21448 net.cpp:425] inception_4e/5x5 <- inception_4e/5x5_reduce
I0705 15:10:41.069008 21448 net.cpp:399] inception_4e/5x5 -> inception_4e/5x5
I0705 15:10:41.072933 21448 net.cpp:141] Setting up inception_4e/5x5
I0705 15:10:41.072957 21448 net.cpp:148] Top shape: 10 128 14 14 (250880)
I0705 15:10:41.072962 21448 net.cpp:156] Memory required for data: 507153920
I0705 15:10:41.072970 21448 layer_factory.hpp:77] Creating layer inception_4e/relu_5x5
I0705 15:10:41.072980 21448 net.cpp:91] Creating Layer inception_4e/relu_5x5
I0705 15:10:41.072986 21448 net.cpp:425] inception_4e/relu_5x5 <- inception_4e/5x5
I0705 15:10:41.072998 21448 net.cpp:386] inception_4e/relu_5x5 -> inception_4e/5x5 (in-place)
I0705 15:10:41.073227 21448 net.cpp:141] Setting up inception_4e/relu_5x5
I0705 15:10:41.073240 21448 net.cpp:148] Top shape: 10 128 14 14 (250880)
I0705 15:10:41.073246 21448 net.cpp:156] Memory required for data: 508157440
I0705 15:10:41.073251 21448 layer_factory.hpp:77] Creating layer inception_4e/pool
I0705 15:10:41.073261 21448 net.cpp:91] Creating Layer inception_4e/pool
I0705 15:10:41.073266 21448 net.cpp:425] inception_4e/pool <- inception_4d/output_inception_4d/output_0_split_3
I0705 15:10:41.073273 21448 net.cpp:399] inception_4e/pool -> inception_4e/pool
I0705 15:10:41.073345 21448 net.cpp:141] Setting up inception_4e/pool
I0705 15:10:41.073355 21448 net.cpp:148] Top shape: 10 528 14 14 (1034880)
I0705 15:10:41.073359 21448 net.cpp:156] Memory required for data: 512296960
I0705 15:10:41.073364 21448 layer_factory.hpp:77] Creating layer inception_4e/pool_proj
I0705 15:10:41.073379 21448 net.cpp:91] Creating Layer inception_4e/pool_proj
I0705 15:10:41.073385 21448 net.cpp:425] inception_4e/pool_proj <- inception_4e/pool
I0705 15:10:41.073395 21448 net.cpp:399] inception_4e/pool_proj -> inception_4e/pool_proj
I0705 15:10:41.075991 21448 net.cpp:141] Setting up inception_4e/pool_proj
I0705 15:10:41.076009 21448 net.cpp:148] Top shape: 10 128 14 14 (250880)
I0705 15:10:41.076015 21448 net.cpp:156] Memory required for data: 513300480
I0705 15:10:41.076023 21448 layer_factory.hpp:77] Creating layer inception_4e/relu_pool_proj
I0705 15:10:41.076036 21448 net.cpp:91] Creating Layer inception_4e/relu_pool_proj
I0705 15:10:41.076042 21448 net.cpp:425] inception_4e/relu_pool_proj <- inception_4e/pool_proj
I0705 15:10:41.076051 21448 net.cpp:386] inception_4e/relu_pool_proj -> inception_4e/pool_proj (in-place)
I0705 15:10:41.076289 21448 net.cpp:141] Setting up inception_4e/relu_pool_proj
I0705 15:10:41.076300 21448 net.cpp:148] Top shape: 10 128 14 14 (250880)
I0705 15:10:41.076304 21448 net.cpp:156] Memory required for data: 514304000
I0705 15:10:41.076309 21448 layer_factory.hpp:77] Creating layer inception_4e/output
I0705 15:10:41.076318 21448 net.cpp:91] Creating Layer inception_4e/output
I0705 15:10:41.076323 21448 net.cpp:425] inception_4e/output <- inception_4e/1x1
I0705 15:10:41.076333 21448 net.cpp:425] inception_4e/output <- inception_4e/3x3
I0705 15:10:41.076339 21448 net.cpp:425] inception_4e/output <- inception_4e/5x5
I0705 15:10:41.076344 21448 net.cpp:425] inception_4e/output <- inception_4e/pool_proj
I0705 15:10:41.076350 21448 net.cpp:399] inception_4e/output -> inception_4e/output
I0705 15:10:41.076398 21448 net.cpp:141] Setting up inception_4e/output
I0705 15:10:41.076407 21448 net.cpp:148] Top shape: 10 832 14 14 (1630720)
I0705 15:10:41.076411 21448 net.cpp:156] Memory required for data: 520826880
I0705 15:10:41.076416 21448 layer_factory.hpp:77] Creating layer pool4/3x3_s2
I0705 15:10:41.076424 21448 net.cpp:91] Creating Layer pool4/3x3_s2
I0705 15:10:41.076429 21448 net.cpp:425] pool4/3x3_s2 <- inception_4e/output
I0705 15:10:41.076439 21448 net.cpp:399] pool4/3x3_s2 -> pool4/3x3_s2
I0705 15:10:41.076500 21448 net.cpp:141] Setting up pool4/3x3_s2
I0705 15:10:41.076510 21448 net.cpp:148] Top shape: 10 832 7 7 (407680)
I0705 15:10:41.076514 21448 net.cpp:156] Memory required for data: 522457600
I0705 15:10:41.076519 21448 layer_factory.hpp:77] Creating layer pool4/3x3_s2_pool4/3x3_s2_0_split
I0705 15:10:41.076530 21448 net.cpp:91] Creating Layer pool4/3x3_s2_pool4/3x3_s2_0_split
I0705 15:10:41.076535 21448 net.cpp:425] pool4/3x3_s2_pool4/3x3_s2_0_split <- pool4/3x3_s2
I0705 15:10:41.076542 21448 net.cpp:399] pool4/3x3_s2_pool4/3x3_s2_0_split -> pool4/3x3_s2_pool4/3x3_s2_0_split_0
I0705 15:10:41.076550 21448 net.cpp:399] pool4/3x3_s2_pool4/3x3_s2_0_split -> pool4/3x3_s2_pool4/3x3_s2_0_split_1
I0705 15:10:41.076561 21448 net.cpp:399] pool4/3x3_s2_pool4/3x3_s2_0_split -> pool4/3x3_s2_pool4/3x3_s2_0_split_2
I0705 15:10:41.076570 21448 net.cpp:399] pool4/3x3_s2_pool4/3x3_s2_0_split -> pool4/3x3_s2_pool4/3x3_s2_0_split_3
I0705 15:10:41.076663 21448 net.cpp:141] Setting up pool4/3x3_s2_pool4/3x3_s2_0_split
I0705 15:10:41.076673 21448 net.cpp:148] Top shape: 10 832 7 7 (407680)
I0705 15:10:41.076678 21448 net.cpp:148] Top shape: 10 832 7 7 (407680)
I0705 15:10:41.076683 21448 net.cpp:148] Top shape: 10 832 7 7 (407680)
I0705 15:10:41.076688 21448 net.cpp:148] Top shape: 10 832 7 7 (407680)
I0705 15:10:41.076691 21448 net.cpp:156] Memory required for data: 528980480
I0705 15:10:41.076695 21448 layer_factory.hpp:77] Creating layer inception_5a/1x1
I0705 15:10:41.076709 21448 net.cpp:91] Creating Layer inception_5a/1x1
I0705 15:10:41.076715 21448 net.cpp:425] inception_5a/1x1 <- pool4/3x3_s2_pool4/3x3_s2_0_split_0
I0705 15:10:41.076726 21448 net.cpp:399] inception_5a/1x1 -> inception_5a/1x1
I0705 15:10:41.081459 21448 net.cpp:141] Setting up inception_5a/1x1
I0705 15:10:41.081480 21448 net.cpp:148] Top shape: 10 256 7 7 (125440)
I0705 15:10:41.081485 21448 net.cpp:156] Memory required for data: 529482240
I0705 15:10:41.081496 21448 layer_factory.hpp:77] Creating layer inception_5a/relu_1x1
I0705 15:10:41.081508 21448 net.cpp:91] Creating Layer inception_5a/relu_1x1
I0705 15:10:41.081514 21448 net.cpp:425] inception_5a/relu_1x1 <- inception_5a/1x1
I0705 15:10:41.081523 21448 net.cpp:386] inception_5a/relu_1x1 -> inception_5a/1x1 (in-place)
I0705 15:10:41.082231 21448 net.cpp:141] Setting up inception_5a/relu_1x1
I0705 15:10:41.082247 21448 net.cpp:148] Top shape: 10 256 7 7 (125440)
I0705 15:10:41.082252 21448 net.cpp:156] Memory required for data: 529984000
I0705 15:10:41.082257 21448 layer_factory.hpp:77] Creating layer inception_5a/3x3_reduce
I0705 15:10:41.082273 21448 net.cpp:91] Creating Layer inception_5a/3x3_reduce
I0705 15:10:41.082278 21448 net.cpp:425] inception_5a/3x3_reduce <- pool4/3x3_s2_pool4/3x3_s2_0_split_1
I0705 15:10:41.082288 21448 net.cpp:399] inception_5a/3x3_reduce -> inception_5a/3x3_reduce
I0705 15:10:41.086416 21448 net.cpp:141] Setting up inception_5a/3x3_reduce
I0705 15:10:41.086436 21448 net.cpp:148] Top shape: 10 160 7 7 (78400)
I0705 15:10:41.086441 21448 net.cpp:156] Memory required for data: 530297600
I0705 15:10:41.086450 21448 layer_factory.hpp:77] Creating layer inception_5a/relu_3x3_reduce
I0705 15:10:41.086463 21448 net.cpp:91] Creating Layer inception_5a/relu_3x3_reduce
I0705 15:10:41.086469 21448 net.cpp:425] inception_5a/relu_3x3_reduce <- inception_5a/3x3_reduce
I0705 15:10:41.086477 21448 net.cpp:386] inception_5a/relu_3x3_reduce -> inception_5a/3x3_reduce (in-place)
I0705 15:10:41.086735 21448 net.cpp:141] Setting up inception_5a/relu_3x3_reduce
I0705 15:10:41.086746 21448 net.cpp:148] Top shape: 10 160 7 7 (78400)
I0705 15:10:41.086751 21448 net.cpp:156] Memory required for data: 530611200
I0705 15:10:41.086756 21448 layer_factory.hpp:77] Creating layer inception_5a/3x3
I0705 15:10:41.086773 21448 net.cpp:91] Creating Layer inception_5a/3x3
I0705 15:10:41.086781 21448 net.cpp:425] inception_5a/3x3 <- inception_5a/3x3_reduce
I0705 15:10:41.086791 21448 net.cpp:399] inception_5a/3x3 -> inception_5a/3x3
I0705 15:10:41.094997 21448 net.cpp:141] Setting up inception_5a/3x3
I0705 15:10:41.095021 21448 net.cpp:148] Top shape: 10 320 7 7 (156800)
I0705 15:10:41.095026 21448 net.cpp:156] Memory required for data: 531238400
I0705 15:10:41.095036 21448 layer_factory.hpp:77] Creating layer inception_5a/relu_3x3
I0705 15:10:41.095046 21448 net.cpp:91] Creating Layer inception_5a/relu_3x3
I0705 15:10:41.095052 21448 net.cpp:425] inception_5a/relu_3x3 <- inception_5a/3x3
I0705 15:10:41.095062 21448 net.cpp:386] inception_5a/relu_3x3 -> inception_5a/3x3 (in-place)
I0705 15:10:41.095309 21448 net.cpp:141] Setting up inception_5a/relu_3x3
I0705 15:10:41.095320 21448 net.cpp:148] Top shape: 10 320 7 7 (156800)
I0705 15:10:41.095324 21448 net.cpp:156] Memory required for data: 531865600
I0705 15:10:41.095329 21448 layer_factory.hpp:77] Creating layer inception_5a/5x5_reduce
I0705 15:10:41.095348 21448 net.cpp:91] Creating Layer inception_5a/5x5_reduce
I0705 15:10:41.095355 21448 net.cpp:425] inception_5a/5x5_reduce <- pool4/3x3_s2_pool4/3x3_s2_0_split_2
I0705 15:10:41.095365 21448 net.cpp:399] inception_5a/5x5_reduce -> inception_5a/5x5_reduce
I0705 15:10:41.097725 21448 net.cpp:141] Setting up inception_5a/5x5_reduce
I0705 15:10:41.097744 21448 net.cpp:148] Top shape: 10 32 7 7 (15680)
I0705 15:10:41.097750 21448 net.cpp:156] Memory required for data: 531928320
I0705 15:10:41.097759 21448 layer_factory.hpp:77] Creating layer inception_5a/relu_5x5_reduce
I0705 15:10:41.097769 21448 net.cpp:91] Creating Layer inception_5a/relu_5x5_reduce
I0705 15:10:41.097777 21448 net.cpp:425] inception_5a/relu_5x5_reduce <- inception_5a/5x5_reduce
I0705 15:10:41.097784 21448 net.cpp:386] inception_5a/relu_5x5_reduce -> inception_5a/5x5_reduce (in-place)
I0705 15:10:41.100018 21448 net.cpp:141] Setting up inception_5a/relu_5x5_reduce
I0705 15:10:41.100087 21448 net.cpp:148] Top shape: 10 32 7 7 (15680)
I0705 15:10:41.100101 21448 net.cpp:156] Memory required for data: 531991040
I0705 15:10:41.100116 21448 layer_factory.hpp:77] Creating layer inception_5a/5x5
I0705 15:10:41.100160 21448 net.cpp:91] Creating Layer inception_5a/5x5
I0705 15:10:41.100178 21448 net.cpp:425] inception_5a/5x5 <- inception_5a/5x5_reduce
I0705 15:10:41.100204 21448 net.cpp:399] inception_5a/5x5 -> inception_5a/5x5
I0705 15:10:41.103956 21448 net.cpp:141] Setting up inception_5a/5x5
I0705 15:10:41.103979 21448 net.cpp:148] Top shape: 10 128 7 7 (62720)
I0705 15:10:41.103984 21448 net.cpp:156] Memory required for data: 532241920
I0705 15:10:41.103996 21448 layer_factory.hpp:77] Creating layer inception_5a/relu_5x5
I0705 15:10:41.104048 21448 net.cpp:91] Creating Layer inception_5a/relu_5x5
I0705 15:10:41.104054 21448 net.cpp:425] inception_5a/relu_5x5 <- inception_5a/5x5
I0705 15:10:41.104063 21448 net.cpp:386] inception_5a/relu_5x5 -> inception_5a/5x5 (in-place)
I0705 15:10:41.104318 21448 net.cpp:141] Setting up inception_5a/relu_5x5
I0705 15:10:41.104329 21448 net.cpp:148] Top shape: 10 128 7 7 (62720)
I0705 15:10:41.104334 21448 net.cpp:156] Memory required for data: 532492800
I0705 15:10:41.104341 21448 layer_factory.hpp:77] Creating layer inception_5a/pool
I0705 15:10:41.104351 21448 net.cpp:91] Creating Layer inception_5a/pool
I0705 15:10:41.104358 21448 net.cpp:425] inception_5a/pool <- pool4/3x3_s2_pool4/3x3_s2_0_split_3
I0705 15:10:41.104369 21448 net.cpp:399] inception_5a/pool -> inception_5a/pool
I0705 15:10:41.104452 21448 net.cpp:141] Setting up inception_5a/pool
I0705 15:10:41.104462 21448 net.cpp:148] Top shape: 10 832 7 7 (407680)
I0705 15:10:41.104466 21448 net.cpp:156] Memory required for data: 534123520
I0705 15:10:41.104471 21448 layer_factory.hpp:77] Creating layer inception_5a/pool_proj
I0705 15:10:41.104486 21448 net.cpp:91] Creating Layer inception_5a/pool_proj
I0705 15:10:41.104493 21448 net.cpp:425] inception_5a/pool_proj <- inception_5a/pool
I0705 15:10:41.104501 21448 net.cpp:399] inception_5a/pool_proj -> inception_5a/pool_proj
I0705 15:10:41.111089 21448 net.cpp:141] Setting up inception_5a/pool_proj
I0705 15:10:41.111115 21448 net.cpp:148] Top shape: 10 128 7 7 (62720)
I0705 15:10:41.111122 21448 net.cpp:156] Memory required for data: 534374400
I0705 15:10:41.111134 21448 layer_factory.hpp:77] Creating layer inception_5a/relu_pool_proj
I0705 15:10:41.111147 21448 net.cpp:91] Creating Layer inception_5a/relu_pool_proj
I0705 15:10:41.111155 21448 net.cpp:425] inception_5a/relu_pool_proj <- inception_5a/pool_proj
I0705 15:10:41.111163 21448 net.cpp:386] inception_5a/relu_pool_proj -> inception_5a/pool_proj (in-place)
I0705 15:10:41.111446 21448 net.cpp:141] Setting up inception_5a/relu_pool_proj
I0705 15:10:41.111460 21448 net.cpp:148] Top shape: 10 128 7 7 (62720)
I0705 15:10:41.111465 21448 net.cpp:156] Memory required for data: 534625280
I0705 15:10:41.111471 21448 layer_factory.hpp:77] Creating layer inception_5a/output
I0705 15:10:41.111480 21448 net.cpp:91] Creating Layer inception_5a/output
I0705 15:10:41.111486 21448 net.cpp:425] inception_5a/output <- inception_5a/1x1
I0705 15:10:41.111493 21448 net.cpp:425] inception_5a/output <- inception_5a/3x3
I0705 15:10:41.111500 21448 net.cpp:425] inception_5a/output <- inception_5a/5x5
I0705 15:10:41.111505 21448 net.cpp:425] inception_5a/output <- inception_5a/pool_proj
I0705 15:10:41.111516 21448 net.cpp:399] inception_5a/output -> inception_5a/output
I0705 15:10:41.111572 21448 net.cpp:141] Setting up inception_5a/output
I0705 15:10:41.111587 21448 net.cpp:148] Top shape: 10 832 7 7 (407680)
I0705 15:10:41.111591 21448 net.cpp:156] Memory required for data: 536256000
I0705 15:10:41.111598 21448 layer_factory.hpp:77] Creating layer inception_5a/output_inception_5a/output_0_split
I0705 15:10:41.111606 21448 net.cpp:91] Creating Layer inception_5a/output_inception_5a/output_0_split
I0705 15:10:41.111613 21448 net.cpp:425] inception_5a/output_inception_5a/output_0_split <- inception_5a/output
I0705 15:10:41.111619 21448 net.cpp:399] inception_5a/output_inception_5a/output_0_split -> inception_5a/output_inception_5a/output_0_split_0
I0705 15:10:41.111629 21448 net.cpp:399] inception_5a/output_inception_5a/output_0_split -> inception_5a/output_inception_5a/output_0_split_1
I0705 15:10:41.111639 21448 net.cpp:399] inception_5a/output_inception_5a/output_0_split -> inception_5a/output_inception_5a/output_0_split_2
I0705 15:10:41.111651 21448 net.cpp:399] inception_5a/output_inception_5a/output_0_split -> inception_5a/output_inception_5a/output_0_split_3
I0705 15:10:41.111771 21448 net.cpp:141] Setting up inception_5a/output_inception_5a/output_0_split
I0705 15:10:41.111781 21448 net.cpp:148] Top shape: 10 832 7 7 (407680)
I0705 15:10:41.111788 21448 net.cpp:148] Top shape: 10 832 7 7 (407680)
I0705 15:10:41.111793 21448 net.cpp:148] Top shape: 10 832 7 7 (407680)
I0705 15:10:41.111799 21448 net.cpp:148] Top shape: 10 832 7 7 (407680)
I0705 15:10:41.111804 21448 net.cpp:156] Memory required for data: 542778880
I0705 15:10:41.111809 21448 layer_factory.hpp:77] Creating layer inception_5b/1x1
I0705 15:10:41.111824 21448 net.cpp:91] Creating Layer inception_5b/1x1
I0705 15:10:41.111831 21448 net.cpp:425] inception_5b/1x1 <- inception_5a/output_inception_5a/output_0_split_0
I0705 15:10:41.111843 21448 net.cpp:399] inception_5b/1x1 -> inception_5b/1x1
I0705 15:10:41.118305 21448 net.cpp:141] Setting up inception_5b/1x1
I0705 15:10:41.118332 21448 net.cpp:148] Top shape: 10 384 7 7 (188160)
I0705 15:10:41.118338 21448 net.cpp:156] Memory required for data: 543531520
I0705 15:10:41.118350 21448 layer_factory.hpp:77] Creating layer inception_5b/relu_1x1
I0705 15:10:41.118360 21448 net.cpp:91] Creating Layer inception_5b/relu_1x1
I0705 15:10:41.118366 21448 net.cpp:425] inception_5b/relu_1x1 <- inception_5b/1x1
I0705 15:10:41.118373 21448 net.cpp:386] inception_5b/relu_1x1 -> inception_5b/1x1 (in-place)
I0705 15:10:41.119220 21448 net.cpp:141] Setting up inception_5b/relu_1x1
I0705 15:10:41.119236 21448 net.cpp:148] Top shape: 10 384 7 7 (188160)
I0705 15:10:41.119242 21448 net.cpp:156] Memory required for data: 544284160
I0705 15:10:41.119248 21448 layer_factory.hpp:77] Creating layer inception_5b/3x3_reduce
I0705 15:10:41.119266 21448 net.cpp:91] Creating Layer inception_5b/3x3_reduce
I0705 15:10:41.119273 21448 net.cpp:425] inception_5b/3x3_reduce <- inception_5a/output_inception_5a/output_0_split_1
I0705 15:10:41.119283 21448 net.cpp:399] inception_5b/3x3_reduce -> inception_5b/3x3_reduce
I0705 15:10:41.124264 21448 net.cpp:141] Setting up inception_5b/3x3_reduce
I0705 15:10:41.124289 21448 net.cpp:148] Top shape: 10 192 7 7 (94080)
I0705 15:10:41.124294 21448 net.cpp:156] Memory required for data: 544660480
I0705 15:10:41.124305 21448 layer_factory.hpp:77] Creating layer inception_5b/relu_3x3_reduce
I0705 15:10:41.124315 21448 net.cpp:91] Creating Layer inception_5b/relu_3x3_reduce
I0705 15:10:41.124321 21448 net.cpp:425] inception_5b/relu_3x3_reduce <- inception_5b/3x3_reduce
I0705 15:10:41.124328 21448 net.cpp:386] inception_5b/relu_3x3_reduce -> inception_5b/3x3_reduce (in-place)
I0705 15:10:41.124591 21448 net.cpp:141] Setting up inception_5b/relu_3x3_reduce
I0705 15:10:41.124603 21448 net.cpp:148] Top shape: 10 192 7 7 (94080)
I0705 15:10:41.124608 21448 net.cpp:156] Memory required for data: 545036800
I0705 15:10:41.124614 21448 layer_factory.hpp:77] Creating layer inception_5b/3x3
I0705 15:10:41.124629 21448 net.cpp:91] Creating Layer inception_5b/3x3
I0705 15:10:41.124634 21448 net.cpp:425] inception_5b/3x3 <- inception_5b/3x3_reduce
I0705 15:10:41.124647 21448 net.cpp:399] inception_5b/3x3 -> inception_5b/3x3
I0705 15:10:41.134553 21448 net.cpp:141] Setting up inception_5b/3x3
I0705 15:10:41.134578 21448 net.cpp:148] Top shape: 10 384 7 7 (188160)
I0705 15:10:41.134585 21448 net.cpp:156] Memory required for data: 545789440
I0705 15:10:41.134595 21448 layer_factory.hpp:77] Creating layer inception_5b/relu_3x3
I0705 15:10:41.134609 21448 net.cpp:91] Creating Layer inception_5b/relu_3x3
I0705 15:10:41.134616 21448 net.cpp:425] inception_5b/relu_3x3 <- inception_5b/3x3
I0705 15:10:41.134624 21448 net.cpp:386] inception_5b/relu_3x3 -> inception_5b/3x3 (in-place)
I0705 15:10:41.134901 21448 net.cpp:141] Setting up inception_5b/relu_3x3
I0705 15:10:41.134912 21448 net.cpp:148] Top shape: 10 384 7 7 (188160)
I0705 15:10:41.134917 21448 net.cpp:156] Memory required for data: 546542080
I0705 15:10:41.134922 21448 layer_factory.hpp:77] Creating layer inception_5b/5x5_reduce
I0705 15:10:41.134938 21448 net.cpp:91] Creating Layer inception_5b/5x5_reduce
I0705 15:10:41.134943 21448 net.cpp:425] inception_5b/5x5_reduce <- inception_5a/output_inception_5a/output_0_split_2
I0705 15:10:41.134955 21448 net.cpp:399] inception_5b/5x5_reduce -> inception_5b/5x5_reduce
I0705 15:10:41.137645 21448 net.cpp:141] Setting up inception_5b/5x5_reduce
I0705 15:10:41.137667 21448 net.cpp:148] Top shape: 10 48 7 7 (23520)
I0705 15:10:41.137673 21448 net.cpp:156] Memory required for data: 546636160
I0705 15:10:41.137683 21448 layer_factory.hpp:77] Creating layer inception_5b/relu_5x5_reduce
I0705 15:10:41.137697 21448 net.cpp:91] Creating Layer inception_5b/relu_5x5_reduce
I0705 15:10:41.137704 21448 net.cpp:425] inception_5b/relu_5x5_reduce <- inception_5b/5x5_reduce
I0705 15:10:41.137725 21448 net.cpp:386] inception_5b/relu_5x5_reduce -> inception_5b/5x5_reduce (in-place)
I0705 15:10:41.138551 21448 net.cpp:141] Setting up inception_5b/relu_5x5_reduce
I0705 15:10:41.138568 21448 net.cpp:148] Top shape: 10 48 7 7 (23520)
I0705 15:10:41.138573 21448 net.cpp:156] Memory required for data: 546730240
I0705 15:10:41.138578 21448 layer_factory.hpp:77] Creating layer inception_5b/5x5
I0705 15:10:41.138597 21448 net.cpp:91] Creating Layer inception_5b/5x5
I0705 15:10:41.138618 21448 net.cpp:425] inception_5b/5x5 <- inception_5b/5x5_reduce
I0705 15:10:41.138628 21448 net.cpp:399] inception_5b/5x5 -> inception_5b/5x5
I0705 15:10:41.142742 21448 net.cpp:141] Setting up inception_5b/5x5
I0705 15:10:41.142761 21448 net.cpp:148] Top shape: 10 128 7 7 (62720)
I0705 15:10:41.142766 21448 net.cpp:156] Memory required for data: 546981120
I0705 15:10:41.142776 21448 layer_factory.hpp:77] Creating layer inception_5b/relu_5x5
I0705 15:10:41.142787 21448 net.cpp:91] Creating Layer inception_5b/relu_5x5
I0705 15:10:41.142793 21448 net.cpp:425] inception_5b/relu_5x5 <- inception_5b/5x5
I0705 15:10:41.142813 21448 net.cpp:386] inception_5b/relu_5x5 -> inception_5b/5x5 (in-place)
I0705 15:10:41.143065 21448 net.cpp:141] Setting up inception_5b/relu_5x5
I0705 15:10:41.143077 21448 net.cpp:148] Top shape: 10 128 7 7 (62720)
I0705 15:10:41.143081 21448 net.cpp:156] Memory required for data: 547232000
I0705 15:10:41.143086 21448 layer_factory.hpp:77] Creating layer inception_5b/pool
I0705 15:10:41.143100 21448 net.cpp:91] Creating Layer inception_5b/pool
I0705 15:10:41.143106 21448 net.cpp:425] inception_5b/pool <- inception_5a/output_inception_5a/output_0_split_3
I0705 15:10:41.143116 21448 net.cpp:399] inception_5b/pool -> inception_5b/pool
I0705 15:10:41.143193 21448 net.cpp:141] Setting up inception_5b/pool
I0705 15:10:41.143203 21448 net.cpp:148] Top shape: 10 832 7 7 (407680)
I0705 15:10:41.143208 21448 net.cpp:156] Memory required for data: 548862720
I0705 15:10:41.143213 21448 layer_factory.hpp:77] Creating layer inception_5b/pool_proj
I0705 15:10:41.143225 21448 net.cpp:91] Creating Layer inception_5b/pool_proj
I0705 15:10:41.143231 21448 net.cpp:425] inception_5b/pool_proj <- inception_5b/pool
I0705 15:10:41.143241 21448 net.cpp:399] inception_5b/pool_proj -> inception_5b/pool_proj
I0705 15:10:41.147532 21448 net.cpp:141] Setting up inception_5b/pool_proj
I0705 15:10:41.147553 21448 net.cpp:148] Top shape: 10 128 7 7 (62720)
I0705 15:10:41.147559 21448 net.cpp:156] Memory required for data: 549113600
I0705 15:10:41.147568 21448 layer_factory.hpp:77] Creating layer inception_5b/relu_pool_proj
I0705 15:10:41.147581 21448 net.cpp:91] Creating Layer inception_5b/relu_pool_proj
I0705 15:10:41.147588 21448 net.cpp:425] inception_5b/relu_pool_proj <- inception_5b/pool_proj
I0705 15:10:41.147594 21448 net.cpp:386] inception_5b/relu_pool_proj -> inception_5b/pool_proj (in-place)
I0705 15:10:41.147832 21448 net.cpp:141] Setting up inception_5b/relu_pool_proj
I0705 15:10:41.147843 21448 net.cpp:148] Top shape: 10 128 7 7 (62720)
I0705 15:10:41.147848 21448 net.cpp:156] Memory required for data: 549364480
I0705 15:10:41.147852 21448 layer_factory.hpp:77] Creating layer inception_5b/output
I0705 15:10:41.147861 21448 net.cpp:91] Creating Layer inception_5b/output
I0705 15:10:41.147866 21448 net.cpp:425] inception_5b/output <- inception_5b/1x1
I0705 15:10:41.147872 21448 net.cpp:425] inception_5b/output <- inception_5b/3x3
I0705 15:10:41.147877 21448 net.cpp:425] inception_5b/output <- inception_5b/5x5
I0705 15:10:41.147882 21448 net.cpp:425] inception_5b/output <- inception_5b/pool_proj
I0705 15:10:41.147892 21448 net.cpp:399] inception_5b/output -> inception_5b/output
I0705 15:10:41.147941 21448 net.cpp:141] Setting up inception_5b/output
I0705 15:10:41.147954 21448 net.cpp:148] Top shape: 10 1024 7 7 (501760)
I0705 15:10:41.147958 21448 net.cpp:156] Memory required for data: 551371520
I0705 15:10:41.147963 21448 layer_factory.hpp:77] Creating layer pool5/7x7_s1
I0705 15:10:41.147970 21448 net.cpp:91] Creating Layer pool5/7x7_s1
I0705 15:10:41.147975 21448 net.cpp:425] pool5/7x7_s1 <- inception_5b/output
I0705 15:10:41.147982 21448 net.cpp:399] pool5/7x7_s1 -> pool5/7x7_s1
I0705 15:10:41.148779 21448 net.cpp:141] Setting up pool5/7x7_s1
I0705 15:10:41.148795 21448 net.cpp:148] Top shape: 10 1024 1 1 (10240)
I0705 15:10:41.148800 21448 net.cpp:156] Memory required for data: 551412480
I0705 15:10:41.148804 21448 layer_factory.hpp:77] Creating layer pool5/drop_7x7_s1
I0705 15:10:41.148825 21448 net.cpp:91] Creating Layer pool5/drop_7x7_s1
I0705 15:10:41.148833 21448 net.cpp:425] pool5/drop_7x7_s1 <- pool5/7x7_s1
I0705 15:10:41.148847 21448 net.cpp:386] pool5/drop_7x7_s1 -> pool5/7x7_s1 (in-place)
I0705 15:10:41.148906 21448 net.cpp:141] Setting up pool5/drop_7x7_s1
I0705 15:10:41.148916 21448 net.cpp:148] Top shape: 10 1024 1 1 (10240)
I0705 15:10:41.148921 21448 net.cpp:156] Memory required for data: 551453440
I0705 15:10:41.148926 21448 layer_factory.hpp:77] Creating layer loss3/classifier
I0705 15:10:41.148941 21448 net.cpp:91] Creating Layer loss3/classifier
I0705 15:10:41.148947 21448 net.cpp:425] loss3/classifier <- pool5/7x7_s1
I0705 15:10:41.148957 21448 net.cpp:399] loss3/classifier -> loss3/classifier
I0705 15:10:41.159606 21448 net.cpp:141] Setting up loss3/classifier
I0705 15:10:41.159641 21448 net.cpp:148] Top shape: 10 1000 (10000)
I0705 15:10:41.159646 21448 net.cpp:156] Memory required for data: 551493440
I0705 15:10:41.159657 21448 layer_factory.hpp:77] Creating layer prob
I0705 15:10:41.159668 21448 net.cpp:91] Creating Layer prob
I0705 15:10:41.159675 21448 net.cpp:425] prob <- loss3/classifier
I0705 15:10:41.159687 21448 net.cpp:399] prob -> prob
I0705 15:10:41.161108 21448 net.cpp:141] Setting up prob
I0705 15:10:41.161126 21448 net.cpp:148] Top shape: 10 1000 (10000)
I0705 15:10:41.161131 21448 net.cpp:156] Memory required for data: 551533440
I0705 15:10:41.161136 21448 net.cpp:219] prob does not need backward computation.
I0705 15:10:41.161141 21448 net.cpp:219] loss3/classifier does not need backward computation.
I0705 15:10:41.161146 21448 net.cpp:219] pool5/drop_7x7_s1 does not need backward computation.
I0705 15:10:41.161150 21448 net.cpp:219] pool5/7x7_s1 does not need backward computation.
…
