…
I0924 02:25:21.554711 25042 upgrade_proto.cpp:69] Successfully upgraded file specified using deprecated input fields.
W0924 02:25:21.554715 25022 upgrade_proto.cpp:71] Note that future Caffe releases will only support input layers and not input fields.
W0924 02:25:21.554720 25042 upgrade_proto.cpp:71] Note that future Caffe releases will only support input layers and not input fields.
I0924 02:25:21.554853 25044 net.cpp:49] Initializing net from parameters: 
name: "CaffeNet"
state {
  phase: TEST
}
layer {
  name: "data"
  type: "Input"
  top: "data"
  input_param {
    shape {
      dim: 10
      dim: 3
      dim: 227
      dim: 227
    }
  }
}
layer {
  name: "conv1"
  type: "Convolution"
  bottom: "data"
  top: "conv1"
  convolution_param {
    num_output: 96
    kernel_size: 11
    stride: 4
  }
}
layer {
  name: "relu1"
  type: "ReLU"
  bottom: "conv1"
  top: "conv1"
}
layer {
  name: "pool1"
  type: "Pooling"
  bottom: "conv1"
  top: "pool1"
  pooling_param {
    pool: MAX
    kernel_size: 3
    stride: 2
  }
}
layer {
  name: "norm1"
  type: "LRN"
  bottom: "pool1"
  top: "norm1"
  lrn_param {
    local_size: 5
    alpha: 0.0001
    beta: 0.75
  }
}
layer {
  name: "conv2"
  type: "Convolution"
  bottom: "norm1"
  top: "conv2"
  convolution_param {
    num_output: 256
    pad: 2
    kernel_size: 5
    group: 2
  }
}
layer {
  name: "relu2"
  type: "ReLU"
  bottom: "conv2"
  top: "conv2"
}
layer {
  name: "pool2"
  type: "Pooling"
  bottom: "conv2"
  top: "pool2"
  pooling_param {
    pool: MAX
    kernel_size: 3
    stride: 2
  }
}
layer {
  name: "norm2"
  type: "LRN"
  bottom: "pool2"
  top: "norm2"
  lrn_param {
    local_size: 5
    alpha: 0.0001
    beta: 0.75
  }
}
layer {
  name: "conv3"
  type: "Convolution"
  bottom: "norm2"
  top: "conv3"
  convolution_param {
    num_output: 384
    pad: 1
    kernel_size: 3
  }
}
layer {
  name: "relu3"
  type: "ReLU"
  bottom: "conv3"
  top: "conv3"
}
layer {
  name: "conv4"
  type: "Convolution"
  bottom: "conv3"
  top: "conv4"
  convolution_param {
    num_output: 384
    pad: 1
    kernel_size: 3
    group: 2
  }
}
layer {
  name: "relu4"
  type: "ReLU"
  bottom: "conv4"
  top: "conv4"
}
layer {
  name: "conv5"
  type: "Convolution"
  bottom: "conv4"
  top: "conv5"
  convolution_param {
    num_output: 256
    pad: 1
    kernel_size: 3
    group: 2
  }
}
layer {
  name: "relu5"
  type: "ReLU"
  bottom: "conv5"
  top: "conv5"
}
layer {
  name: "pool5"
  type: "Pooling"
  bottom: "conv5"
  top: "pool5"
  pooling_param {
    pool: MAX
    kernel_size: 3
    stride: 2
  }
}
layer {
  name: "fc6"
  type: "InnerProduct"
  bottom: "pool5"
  top: "fc6"
  inner_product_param {
    num_output: 4096
  }
}
layer {
  name: "relu6"
  type: "ReLU"
  bottom: "fc6"
  top: "fc6"
}
layer {
  name: "drop6"
  type: "Dropout"
  bottom: "fc6"
  top: "fc6"
  dropout_param {
    dropout_ratio: 0.5
  }
}
layer {
  name: "fc7"
  type: "InnerProduct"
  bottom: "fc6"
  top: "fc7"
  inner_product_param {
    num_output: 4096
  }
}
layer {
  name: "relu7"
  type: "ReLU"
  bottom: "fc7"
  top: "fc7"
}
layer {
  name: "drop7"
  type: "Dropout"
  bottom: "fc7"
  top: "fc7"
  dropout_param {
    dropout_ratio: 0.5
  }
}
layer {
  name: "fc8"
  type: "InnerProduct"
  bottom: "fc7"
  top: "fc8"
  inner_product_param {
    num_output: 1000
  }
}
layer {
  name: "prob"
  type: "Softmax"
  bottom: "fc8"
  top: "prob"
}
I0924 02:25:21.554986 25044 layer_factory.hpp:77] Creating layer data
I0924 02:25:21.554981 25036 net.cpp:49] Initializing net from parameters: 
name: "s2vt:features_to_lstm"
state {
  phase: TEST
}
layer {
  name: "input"
  type: "Input"
  top: "frames_fc7"
  top: "cont_sentence"
  top: "input_sentence"
  top: "stage_indicator"
  input_param {
    shape {
      dim: 1
      dim: 4096
    }
    shape {
      dim: 1
      dim: 1
    }
    shape {
      dim: 1
      dim: 1
    }
    shape {
      dim: 1
      dim: 1
    }
  }
}
layer {
  name: "embed_encoder"
  type: "InnerProduct"
  bottom: "frames_fc7"
  top: "embedded_in_frames"
  param {
    lr_mult: 1
    decay_mult: 1
  }
  param {
    lr_mult: 2
    decay_mult: 0
  }
  inner_product_param {
    num_output: 500
    weight_filler {
      type: "xavier"
    }
    bias_filler {
      type: "constant"
      value: 0.2
    }
  }
}
layer {
  name: "reshape_frames"
  type: "Reshape"
  bottom: "embedded_in_frames"
  top: "embedded_input_frames"
  reshape_param {
    shape {
      dim: 1
      dim: 1
      dim: 500
    }
  }
}
layer {
  name: "reshape_stage_indicator"
  type: "Reshape"
  bottom: "stage_indicator"
  top: "reshaped_stage_indicator"
  reshape_param {
    shape {
      dim: 1
      dim: 1
      dim: 1
    }
  }
}
layer {
  name: "embedding"
  type: "Embed"
  bottom: "input_sentence"
  top: "embedded_input_sentence"
  param {
    lr_mult: 1
  }
  embed_param {
    num_output: 500
    input_dim: 46168
    bias_term: false
    weight_filler {
      type: "uniform"
      min: -0.08
      max: 0.08
    }
  }
}
layer {
  name: "lstm1"
  type: "LSTM"
  bottom: "embedded_input_frames"
  bottom: "cont_sentence"
  top: "lstm1"
  recurrent_param {
    num_output: 1000
    weight_filler {
      type: "uniform"
      min: -0.08
      max: 0.08
    }
    bias_filler {
      type: "constant"
      value: 0
    }
  }
}
layer {
  name: "concat"
  type: "Concat"
  bottom: "lstm1"
  bottom: "embedded_input_sentence"
  bottom: "reshaped_stage_indicator"
  top: "lstm1_video_sequence"
  concat_param {
    concat_dim: 2
  }
}
layer {
  name: "lstm2"
  type: "LSTM"
  bottom: "lstm1_video_sequence"
  bottom: "cont_sentence"
  top: "lstm2"
  recurrent_param {
    num_output: 1000
    weight_filler {
      type: "uniform"
      min: -0.08
      max: 0.08
    }
    bias_filler {
      type: "constant"
      value: 0
    }
  }
}
layer {
  name: "predict"
  type: "InnerProduct"
  bottom: "lstm2"
  top: "predict"
  param {
    lr_mult: 1
    decay_mult: 1
  }
  param {
    lr_mult: 2
    decay_mult: 0
  }
  inner_product_param {
    num_output: 46168
    weight_filler {
      type: "uniform"
      min: -0.08
      max: 0.08
    }
    bias_filler {
      type: "constant"
      value: 0
    }
    axis: 2
  }
}
layer {
  name: "probs"
  type: "Softmax"
  bottom: "predict"
  top: "probs"
  softmax_param {
    axis: 2
  }
}
I0924 02:25:21.555022 25044 net.cpp:91] Creating Layer data
I0924 02:25:21.555025 25018 net.cpp:49] Initializing net from parameters: 
name: "s2vt:features_to_lstm"
state {
  phase: TEST
}
layer {
  name: "input"
  type: "Input"
  top: "frames_fc7"
  top: "cont_sentence"
  top: "input_sentence"
  top: "stage_indicator"
  input_param {
    shape {
      dim: 1
      dim: 4096
    }
    shape {
      dim: 1
      dim: 1
    }
    shape {
      dim: 1
      dim: 1
    }
    shape {
      dim: 1
      dim: 1
    }
  }
}
layer {
  name: "embed_encoder"
  type: "InnerProduct"
  bottom: "frames_fc7"
  top: "embedded_in_frames"
  param {
    lr_mult: 1
    decay_mult: 1
  }
  param {
    lr_mult: 2
    decay_mult: 0
  }
  inner_product_param {
    num_output: 500
    weight_filler {
      type: "xavier"
    }
    bias_filler {
      type: "constant"
      value: 0.2
    }
  }
}
layer {
  name: "reshape_frames"
  type: "Reshape"
  bottom: "embedded_in_frames"
  top: "embedded_input_frames"
  reshape_param {
    shape {
      dim: 1
      dim: 1
      dim: 500
    }
  }
}
layer {
  name: "reshape_stage_indicator"
  type: "Reshape"
  bottom: "stage_indicator"
  top: "reshaped_stage_indicator"
  reshape_param {
    shape {
      dim: 1
      dim: 1
      dim: 1
    }
  }
}
layer {
  name: "embedding"
  type: "Embed"
  bottom: "input_sentence"
  top: "embedded_input_sentence"
  param {
    lr_mult: 1
  }
  embed_param {
    num_output: 500
    input_dim: 46168
    bias_term: false
    weight_filler {
      type: "uniform"
      min: -0.08
      max: 0.08
    }
  }
}
layer {
  name: "lstm1"
  type: "LSTM"
  bottom: "embedded_input_frames"
  bottom: "cont_sentence"
  top: "lstm1"
  recurrent_param {
    num_output: 1000
    weight_filler {
      type: "uniform"
      min: -0.08
      max: 0.08
    }
    bias_filler {
      type: "constant"
      value: 0
    }
  }
}
layer {
  name: "concat"
  type: "Concat"
  bottom: "lstm1"
  bottom: "embedded_input_sentence"
  bottom: "reshaped_stage_indicator"
  top: "lstm1_video_sequence"
  concat_param {
    concat_dim: 2
  }
}
layer {
  name: "lstm2"
  type: "LSTM"
  bottom: "lstm1_video_sequence"
  bottom: "cont_sentence"
  top: "lstm2"
  recurrent_param {
    num_output: 1000
    weight_filler {
      type: "uniform"
      min: -0.08
      max: 0.08
    }
    bias_filler {
      type: "constant"
      value: 0
    }
  }
}
layer {
  name: "predict"
  type: "InnerProduct"
  bottom: "lstm2"
  top: "predict"
  param {
    lr_mult: 1
    decay_mult: 1
  }
  param {
    lr_mult: 2
    decay_mult: 0
  }
  inner_product_param {
    num_output: 46168
    weight_filler {
      type: "uniform"
      min: -0.08
      max: 0.08
    }
    bias_filler {
      type: "constant"
      value: 0
    }
    axis: 2
  }
}
layer {
  name: "probs"
  type: "Softmax"
  bottom: "predict"
  top: "probs"
  softmax_param {
    axis: 2
  }
}
I0924 02:25:21.555028 25022 net.cpp:49] Initializing net from parameters: 
name: "s2vt:features_to_lstm"
state {
  phase: TEST
}
layer {
  name: "input"
  type: "Input"
  top: "frames_fc7"
  top: "cont_sentence"
  top: "input_sentence"
  top: "stage_indicator"
  input_param {
    shape {
      dim: 1
      dim: 4096
    }
    shape {
      dim: 1
      dim: 1
    }
    shape {
      dim: 1
      dim: 1
    }
    shape {
      dim: 1
      dim: 1
    }
  }
}
layer {
  name: "embed_encoder"
  type: "InnerProduct"
  bottom: "frames_fc7"
  top: "embedded_in_frames"
  param {
    lr_mult: 1
    decay_mult: 1
  }
  param {
    lr_mult: 2
    decay_mult: 0
  }
  inner_product_param {
    num_output: 500
    weight_filler {
      type: "xavier"
    }
    bias_filler {
      type: "constant"
      value: 0.2
    }
  }
}
layer {
  name: "reshape_frames"
  type: "Reshape"
  bottom: "embedded_in_frames"
  top: "embedded_input_frames"
  reshape_param {
    shape {
      dim: 1
      dim: 1
      dim: 500
    }
  }
}
layer {
  name: "reshape_stage_indicator"
  type: "Reshape"
  bottom: "stage_indicator"
  top: "reshaped_stage_indicator"
  reshape_param {
    shape {
      dim: 1
      dim: 1
      dim: 1
    }
  }
}
layer {
  name: "embedding"
  type: "Embed"
  bottom: "input_sentence"
  top: "embedded_input_sentence"
  param {
    lr_mult: 1
  }
  embed_param {
    num_output: 500
    input_dim: 46168
    bias_term: false
    weight_filler {
      type: "uniform"
      min: -0.08
      max: 0.08
    }
  }
}
layer {
  name: "lstm1"
  type: "LSTM"
  bottom: "embedded_input_frames"
  bottom: "cont_sentence"
  top: "lstm1"
  recurrent_param {
    num_output: 1000
    weight_filler {
      type: "uniform"
      min: -0.08
      max: 0.08
    }
    bias_filler {
      type: "constant"
      value: 0
    }
  }
}
layer {
  name: "concat"
  type: "Concat"
  bottom: "lstm1"
  bottom: "embedded_input_sentence"
  bottom: "reshaped_stage_indicator"
  top: "lstm1_video_sequence"
  concat_param {
    concat_dim: 2
  }
}
layer {
  name: "lstm2"
  type: "LSTM"
  bottom: "lstm1_video_sequence"
  bottom: "cont_sentence"
  top: "lstm2"
  recurrent_param {
    num_output: 1000
    weight_filler {
      type: "uniform"
      min: -0.08
      max: 0.08
    }
    bias_filler {
      type: "constant"
      value: 0
    }
  }
}
layer {
  name: "predict"
  type: "InnerProduct"
  bottom: "lstm2"
  top: "predict"
  param {
    lr_mult: 1
    decay_mult: 1
  }
  param {
    lr_mult: 2
    decay_mult: 0
  }
  inner_product_param {
    num_output: 46168
    weight_filler {
      type: "uniform"
      min: -0.08
      max: 0.08
    }
    bias_filler {
      type: "constant"
      value: 0
    }
    axis: 2
  }
}
layer {
  name: "probs"
  type: "Softmax"
  bottom: "predict"
  top: "probs"
  softmax_param {
    axis: 2
  }
}
I0924 02:25:21.555034 25044 net.cpp:399] data -> data
I0924 02:25:21.555061 25042 net.cpp:49] Initializing net from parameters: 
name: "s2vt:features_to_lstm"
state {
  phase: TEST
}
layer {
  name: "input"
  type: "Input"
  top: "frames_fc7"
  top: "cont_sentence"
  top: "input_sentence"
  top: "stage_indicator"
  input_param {
    shape {
      dim: 1
      dim: 4096
    }
    shape {
      dim: 1
      dim: 1
    }
    shape {
      dim: 1
      dim: 1
    }
    shape {
      dim: 1
      dim: 1
    }
  }
}
layer {
  name: "embed_encoder"
  type: "InnerProduct"
  bottom: "frames_fc7"
  top: "embedded_in_frames"
  param {
    lr_mult: 1
    decay_mult: 1
  }
  param {
    lr_mult: 2
    decay_mult: 0
  }
  inner_product_param {
    num_output: 500
    weight_filler {
      type: "xavier"
    }
    bias_filler {
      type: "constant"
      value: 0.2
    }
  }
}
layer {
  name: "reshape_frames"
  type: "Reshape"
  bottom: "embedded_in_frames"
  top: "embedded_input_frames"
  reshape_param {
    shape {
      dim: 1
      dim: 1
      dim: 500
    }
  }
}
layer {
  name: "reshape_stage_indicator"
  type: "Reshape"
  bottom: "stage_indicator"
  top: "reshaped_stage_indicator"
  reshape_param {
    shape {
      dim: 1
      dim: 1
      dim: 1
    }
  }
}
layer {
  name: "embedding"
  type: "Embed"
  bottom: "input_sentence"
  top: "embedded_input_sentence"
  param {
    lr_mult: 1
  }
  embed_param {
    num_output: 500
    input_dim: 46168
    bias_term: false
    weight_filler {
      type: "uniform"
      min: -0.08
      max: 0.08
    }
  }
}
layer {
  name: "lstm1"
  type: "LSTM"
  bottom: "embedded_input_frames"
  bottom: "cont_sentence"
  top: "lstm1"
  recurrent_param {
    num_output: 1000
    weight_filler {
      type: "uniform"
      min: -0.08
      max: 0.08
    }
    bias_filler {
      type: "constant"
      value: 0
    }
  }
}
layer {
  name: "concat"
  type: "Concat"
  bottom: "lstm1"
  bottom: "embedded_input_sentence"
  bottom: "reshaped_stage_indicator"
  top: "lstm1_video_sequence"
  concat_param {
    concat_dim: 2
  }
}
layer {
  name: "lstm2"
  type: "LSTM"
  bottom: "lstm1_video_sequence"
  bottom: "cont_sentence"
  top: "lstm2"
  recurrent_param {
    num_output: 1000
    weight_filler {
      type: "uniform"
      min: -0.08
      max: 0.08
    }
    bias_filler {
      type: "constant"
      value: 0
    }
  }
}
layer {
  name: "predict"
  type: "InnerProduct"
  bottom: "lstm2"
  top: "predict"
  param {
    lr_mult: 1
    decay_mult: 1
  }
  param {
    lr_mult: 2
    decay_mult: 0
  }
  inner_product_param {
    num_output: 46168
    weight_filler {
      type: "uniform"
      min: -0.08
      max: 0.08
    }
    bias_filler {
      type: "constant"
      value: 0
    }
    axis: 2
  }
}
layer {
  name: "probs"
  type: "Softmax"
  bottom: "predict"
  top: "probs"
  softmax_param {
    axis: 2
  }
}
I0924 02:25:21.555186 25022 layer_factory.hpp:77] Creating layer input
I0924 02:25:21.555187 25018 layer_factory.hpp:77] Creating layer input
I0924 02:25:21.555204 25036 layer_factory.hpp:77] Creating layer input
I0924 02:25:21.555209 25042 layer_factory.hpp:77] Creating layer input
I0924 02:25:21.555213 25022 net.cpp:91] Creating Layer input
…
I0924 02:25:21.555306 25022 net.cpp:399] input -> stage_indicator
I0924 02:25:21.555308 25018 net.cpp:399] input -> stage_indicator
I0924 02:25:21.555310 25036 net.cpp:399] input -> cont_sentence
I0924 02:25:21.555310 25042 net.cpp:399] input -> cont_sentence
I0924 02:25:21.555351 25036 net.cpp:399] input -> input_sentence
I0924 02:25:21.555367 25042 net.cpp:399] input -> input_sentence
I0924 02:25:21.555382 25042 net.cpp:399] input -> stage_indicator
I0924 02:25:21.555384 25036 net.cpp:399] input -> stage_indicator
I0924 02:25:22.107798 25044 net.cpp:141] Setting up data
I0924 02:25:22.107869 25044 net.cpp:148] Top shape: 10 3 227 227 (1545870)
I0924 02:25:22.107877 25044 net.cpp:156] Memory required for data: 6183480
I0924 02:25:22.107882 25022 net.cpp:141] Setting up input
I0924 02:25:22.107897 25044 layer_factory.hpp:77] Creating layer conv1
I0924 02:25:22.107900 25022 net.cpp:148] Top shape: 1 4096 (4096)
I0924 02:25:22.107908 25022 net.cpp:148] Top shape: 1 1 (1)
I0924 02:25:22.107913 25022 net.cpp:148] Top shape: 1 1 (1)
I0924 02:25:22.107918 25022 net.cpp:148] Top shape: 1 1 (1)
I0924 02:25:22.107923 25022 net.cpp:156] Memory required for data: 16396
I0924 02:25:22.107928 25044 net.cpp:91] Creating Layer conv1
I0924 02:25:22.107929 25022 layer_factory.hpp:77] Creating layer cont_sentence_input_1_split
I0924 02:25:22.107938 25044 net.cpp:425] conv1 <- data
I0924 02:25:22.107949 25022 net.cpp:91] Creating Layer cont_sentence_input_1_split
I0924 02:25:22.107952 25044 net.cpp:399] conv1 -> conv1
I0924 02:25:22.107956 25022 net.cpp:425] cont_sentence_input_1_split <- cont_sentence
I0924 02:25:22.107976 25022 net.cpp:399] cont_sentence_input_1_split -> cont_sentence_input_1_split_0
I0924 02:25:22.107990 25022 net.cpp:399] cont_sentence_input_1_split -> cont_sentence_input_1_split_1
I0924 02:25:22.108377 25036 net.cpp:141] Setting up input
I0924 02:25:22.108414 25036 net.cpp:148] Top shape: 1 4096 (4096)
I0924 02:25:22.108422 25036 net.cpp:148] Top shape: 1 1 (1)
I0924 02:25:22.108428 25036 net.cpp:148] Top shape: 1 1 (1)
I0924 02:25:22.108433 25036 net.cpp:148] Top shape: 1 1 (1)
I0924 02:25:22.108438 25036 net.cpp:156] Memory required for data: 16396
I0924 02:25:22.108446 25036 layer_factory.hpp:77] Creating layer cont_sentence_input_1_split
I0924 02:25:22.108465 25036 net.cpp:91] Creating Layer cont_sentence_input_1_split
I0924 02:25:22.108472 25036 net.cpp:425] cont_sentence_input_1_split <- cont_sentence
I0924 02:25:22.108482 25036 net.cpp:399] cont_sentence_input_1_split -> cont_sentence_input_1_split_0
I0924 02:25:22.108496 25036 net.cpp:399] cont_sentence_input_1_split -> cont_sentence_input_1_split_1
I0924 02:25:22.109171 25018 net.cpp:141] Setting up input
I0924 02:25:22.109191 25018 net.cpp:148] Top shape: 1 4096 (4096)
I0924 02:25:22.109199 25018 net.cpp:148] Top shape: 1 1 (1)
I0924 02:25:22.109205 25018 net.cpp:148] Top shape: 1 1 (1)
I0924 02:25:22.109210 25018 net.cpp:148] Top shape: 1 1 (1)
I0924 02:25:22.109215 25018 net.cpp:156] Memory required for data: 16396
I0924 02:25:22.109221 25018 layer_factory.hpp:77] Creating layer cont_sentence_input_1_split
I0924 02:25:22.109231 25018 net.cpp:91] Creating Layer cont_sentence_input_1_split
I0924 02:25:22.109237 25018 net.cpp:425] cont_sentence_input_1_split <- cont_sentence
I0924 02:25:22.109247 25018 net.cpp:399] cont_sentence_input_1_split -> cont_sentence_input_1_split_0
I0924 02:25:22.109258 25018 net.cpp:399] cont_sentence_input_1_split -> cont_sentence_input_1_split_1
I0924 02:25:22.109257 25036 net.cpp:141] Setting up cont_sentence_input_1_split
I0924 02:25:22.109277 25036 net.cpp:148] Top shape: 1 1 (1)
I0924 02:25:22.109284 25036 net.cpp:148] Top shape: 1 1 (1)
I0924 02:25:22.109289 25036 net.cpp:156] Memory required for data: 16404
I0924 02:25:22.109294 25036 layer_factory.hpp:77] Creating layer embed_encoder
I0924 02:25:22.109302 25022 net.cpp:141] Setting up cont_sentence_input_1_split
I0924 02:25:22.109321 25022 net.cpp:148] Top shape: 1 1 (1)
I0924 02:25:22.109323 25036 net.cpp:91] Creating Layer embed_encoder
I0924 02:25:22.109328 25022 net.cpp:148] Top shape: 1 1 (1)
I0924 02:25:22.109330 25036 net.cpp:425] embed_encoder <- frames_fc7
I0924 02:25:22.109334 25022 net.cpp:156] Memory required for data: 16404
I0924 02:25:22.109340 25036 net.cpp:399] embed_encoder -> embedded_in_frames
I0924 02:25:22.109340 25022 layer_factory.hpp:77] Creating layer embed_encoder
I0924 02:25:22.109370 25022 net.cpp:91] Creating Layer embed_encoder
I0924 02:25:22.109377 25022 net.cpp:425] embed_encoder <- frames_fc7
I0924 02:25:22.109387 25022 net.cpp:399] embed_encoder -> embedded_in_frames
I0924 02:25:22.109613 25042 net.cpp:141] Setting up input
I0924 02:25:22.109627 25042 net.cpp:148] Top shape: 1 4096 (4096)
I0924 02:25:22.109638 25042 net.cpp:148] Top shape: 1 1 (1)
I0924 02:25:22.109648 25042 net.cpp:148] Top shape: 1 1 (1)
I0924 02:25:22.109659 25042 net.cpp:148] Top shape: 1 1 (1)
I0924 02:25:22.109668 25042 net.cpp:156] Memory required for data: 16396
I0924 02:25:22.109671 25018 net.cpp:141] Setting up cont_sentence_input_1_split
I0924 02:25:22.109676 25042 layer_factory.hpp:77] Creating layer cont_sentence_input_1_split
I0924 02:25:22.109685 25018 net.cpp:148] Top shape: 1 1 (1)
I0924 02:25:22.109689 25042 net.cpp:91] Creating Layer cont_sentence_input_1_split
I0924 02:25:22.109696 25018 net.cpp:148] Top shape: 1 1 (1)
I0924 02:25:22.109699 25042 net.cpp:425] cont_sentence_input_1_split <- cont_sentence
I0924 02:25:22.109705 25018 net.cpp:156] Memory required for data: 16404
I0924 02:25:22.109714 25018 layer_factory.hpp:77] Creating layer embed_encoder
I0924 02:25:22.109724 25042 net.cpp:399] cont_sentence_input_1_split -> cont_sentence_input_1_split_0
I0924 02:25:22.109733 25018 net.cpp:91] Creating Layer embed_encoder
I0924 02:25:22.109740 25042 net.cpp:399] cont_sentence_input_1_split -> cont_sentence_input_1_split_1
I0924 02:25:22.109742 25018 net.cpp:425] embed_encoder <- frames_fc7
I0924 02:25:22.109758 25018 net.cpp:399] embed_encoder -> embedded_in_frames
I0924 02:25:22.121805 25042 net.cpp:141] Setting up cont_sentence_input_1_split
I0924 02:25:22.121948 25042 net.cpp:148] Top shape: 1 1 (1)
I0924 02:25:22.121976 25042 net.cpp:148] Top shape: 1 1 (1)
I0924 02:25:22.121992 25042 net.cpp:156] Memory required for data: 16404
I0924 02:25:22.122012 25042 layer_factory.hpp:77] Creating layer embed_encoder
I0924 02:25:22.122054 25042 net.cpp:91] Creating Layer embed_encoder
I0924 02:25:22.122076 25042 net.cpp:425] embed_encoder <- frames_fc7
I0924 02:25:22.122133 25042 net.cpp:399] embed_encoder -> embedded_in_frames
I0924 02:25:22.136943 25022 net.cpp:141] Setting up embed_encoder
I0924 02:25:22.137621 25022 net.cpp:148] Top shape: 1 500 (500)
I0924 02:25:22.137786 25022 net.cpp:156] Memory required for data: 18404
I0924 02:25:22.137970 25022 layer_factory.hpp:77] Creating layer reshape_frames
I0924 02:25:22.138232 25022 net.cpp:91] Creating Layer reshape_frames
I0924 02:25:22.138394 25022 net.cpp:425] reshape_frames <- embedded_in_frames
I0924 02:25:22.138558 25022 net.cpp:399] reshape_frames -> embedded_input_frames
I0924 02:25:22.138835 25022 net.cpp:141] Setting up reshape_frames
I0924 02:25:22.139001 25022 net.cpp:148] Top shape: 1 1 500 (500)
I0924 02:25:22.139237 25022 net.cpp:156] Memory required for data: 20404
I0924 02:25:22.139397 25022 layer_factory.hpp:77] Creating layer reshape_stage_indicator
I0924 02:25:22.139564 25022 net.cpp:91] Creating Layer reshape_stage_indicator
I0924 02:25:22.139761 25022 net.cpp:425] reshape_stage_indicator <- stage_indicator
I0924 02:25:22.139925 25022 net.cpp:399] reshape_stage_indicator -> reshaped_stage_indicator
I0924 02:25:22.143616 25022 net.cpp:141] Setting up reshape_stage_indicator
I0924 02:25:22.143640 25022 net.cpp:148] Top shape: 1 1 1 (1)
I0924 02:25:22.143646 25022 net.cpp:156] Memory required for data: 20408
I0924 02:25:22.143651 25022 layer_factory.hpp:77] Creating layer embedding
I0924 02:25:22.143666 25022 net.cpp:91] Creating Layer embedding
I0924 02:25:22.143671 25022 net.cpp:425] embedding <- input_sentence
I0924 02:25:22.143682 25022 net.cpp:399] embedding -> embedded_input_sentence
I0924 02:25:22.143813 25036 net.cpp:141] Setting up embed_encoder
I0924 02:25:22.143851 25036 net.cpp:148] Top shape: 1 500 (500)
I0924 02:25:22.143857 25036 net.cpp:156] Memory required for data: 18404
I0924 02:25:22.143875 25036 layer_factory.hpp:77] Creating layer reshape_frames
I0924 02:25:22.143896 25036 net.cpp:91] Creating Layer reshape_frames
I0924 02:25:22.143904 25036 net.cpp:425] reshape_frames <- embedded_in_frames
I0924 02:25:22.143915 25036 net.cpp:399] reshape_frames -> embedded_input_frames
I0924 02:25:22.182801 25036 net.cpp:141] Setting up reshape_frames
I0924 02:25:22.182826 25036 net.cpp:148] Top shape: 1 1 500 (500)
I0924 02:25:22.182835 25036 net.cpp:156] Memory required for data: 20404
I0924 02:25:22.182844 25036 layer_factory.hpp:77] Creating layer reshape_stage_indicator
I0924 02:25:22.182862 25036 net.cpp:91] Creating Layer reshape_stage_indicator
I0924 02:25:22.182873 25036 net.cpp:425] reshape_stage_indicator <- stage_indicator
I0924 02:25:22.182935 25036 net.cpp:399] reshape_stage_indicator -> reshaped_stage_indicator
I0924 02:25:22.183013 25036 net.cpp:141] Setting up reshape_stage_indicator
I0924 02:25:22.183030 25036 net.cpp:148] Top shape: 1 1 1 (1)
I0924 02:25:22.183038 25036 net.cpp:156] Memory required for data: 20408
I0924 02:25:22.183046 25036 layer_factory.hpp:77] Creating layer embedding
I0924 02:25:22.183064 25036 net.cpp:91] Creating Layer embedding
I0924 02:25:22.183073 25036 net.cpp:425] embedding <- input_sentence
I0924 02:25:22.183086 25036 net.cpp:399] embedding -> embedded_input_sentence
I0924 02:25:22.183264 25042 net.cpp:141] Setting up embed_encoder
I0924 02:25:22.183300 25018 net.cpp:141] Setting up embed_encoder
I0924 02:25:22.183310 25042 net.cpp:148] Top shape: 1 500 (500)
I0924 02:25:22.183316 25018 net.cpp:148] Top shape: 1 500 (500)
I0924 02:25:22.183318 25042 net.cpp:156] Memory required for data: 18404
I0924 02:25:22.183326 25018 net.cpp:156] Memory required for data: 18404
I0924 02:25:22.183346 25018 layer_factory.hpp:77] Creating layer reshape_frames
I0924 02:25:22.183346 25042 layer_factory.hpp:77] Creating layer reshape_frames
I0924 02:25:22.183373 25018 net.cpp:91] Creating Layer reshape_frames
I0924 02:25:22.183373 25042 net.cpp:91] Creating Layer reshape_frames
I0924 02:25:22.183393 25042 net.cpp:425] reshape_frames <- embedded_in_frames
I0924 02:25:22.183393 25018 net.cpp:425] reshape_frames <- embedded_in_frames
I0924 02:25:22.183415 25018 net.cpp:399] reshape_frames -> embedded_input_frames
I0924 02:25:22.183430 25042 net.cpp:399] reshape_frames -> embedded_input_frames
I0924 02:25:22.225322 25018 net.cpp:141] Setting up reshape_frames
I0924 02:25:22.225340 25042 net.cpp:141] Setting up reshape_frames
I0924 02:25:22.225384 25018 net.cpp:148] Top shape: 1 1 500 (500)
I0924 02:25:22.225384 25042 net.cpp:148] Top shape: 1 1 500 (500)
I0924 02:25:22.225405 25018 net.cpp:156] Memory required for data: 20404
I0924 02:25:22.225406 25042 net.cpp:156] Memory required for data: 20404
I0924 02:25:22.225425 25042 layer_factory.hpp:77] Creating layer reshape_stage_indicator
I0924 02:25:22.225425 25018 layer_factory.hpp:77] Creating layer reshape_stage_indicator
I0924 02:25:22.225473 25018 net.cpp:91] Creating Layer reshape_stage_indicator
I0924 02:25:22.225473 25042 net.cpp:91] Creating Layer reshape_stage_indicator
I0924 02:25:22.225502 25042 net.cpp:425] reshape_stage_indicator <- stage_indicator
I0924 02:25:22.225502 25018 net.cpp:425] reshape_stage_indicator <- stage_indicator
I0924 02:25:22.225536 25042 net.cpp:399] reshape_stage_indicator -> reshaped_stage_indicator
I0924 02:25:22.225536 25018 net.cpp:399] reshape_stage_indicator -> reshaped_stage_indicator
I0924 02:25:22.230188 25018 net.cpp:141] Setting up reshape_stage_indicator
I0924 02:25:22.230234 25018 net.cpp:148] Top shape: 1 1 1 (1)
I0924 02:25:22.230238 25042 net.cpp:141] Setting up reshape_stage_indicator
I0924 02:25:22.230245 25018 net.cpp:156] Memory required for data: 20408
I0924 02:25:22.230253 25042 net.cpp:148] Top shape: 1 1 1 (1)
I0924 02:25:22.230257 25018 layer_factory.hpp:77] Creating layer embedding
I0924 02:25:22.230262 25042 net.cpp:156] Memory required for data: 20408
I0924 02:25:22.230268 25042 layer_factory.hpp:77] Creating layer embedding
I0924 02:25:22.230279 25018 net.cpp:91] Creating Layer embedding
I0924 02:25:22.230281 25042 net.cpp:91] Creating Layer embedding
I0924 02:25:22.230289 25042 net.cpp:425] embedding <- input_sentence
I0924 02:25:22.230289 25018 net.cpp:425] embedding <- input_sentence
I0924 02:25:22.230312 25042 net.cpp:399] embedding -> embedded_input_sentence
I0924 02:25:22.230315 25018 net.cpp:399] embedding -> embedded_input_sentence
I0924 02:25:22.392283 25022 net.cpp:141] Setting up embedding
I0924 02:25:22.392336 25022 net.cpp:148] Top shape: 1 1 500 (500)
I0924 02:25:22.392349 25022 net.cpp:156] Memory required for data: 22408
I0924 02:25:22.392371 25022 layer_factory.hpp:77] Creating layer lstm1
I0924 02:25:22.392406 25022 net.cpp:91] Creating Layer lstm1
I0924 02:25:22.392419 25022 net.cpp:425] lstm1 <- embedded_input_frames
I0924 02:25:22.392432 25022 net.cpp:425] lstm1 <- cont_sentence_input_1_split_0
I0924 02:25:22.392447 25022 net.cpp:399] lstm1 -> lstm1
I0924 02:25:22.392488 25022 recurrent_layer.cpp:20] Initializing recurrent layer: assuming input batch contains 1 timesteps of 1 independent streams.
I0924 02:25:22.392982 25022 net.cpp:49] Initializing net from parameters: 
layer {
  name: "lstm1_"
  type: "Input"
  top: "x"
  top: "cont"
  input_param {
    shape {
      dim: 1
      dim: 1
      dim: 500
    }
    shape {
      dim: 1
      dim: 1
    }
  }
}
layer {
  name: "lstm1_"
  type: "Input"
  top: "c_0"
  top: "h_0"
  input_param {
    shape {
      dim: 1
      dim: 1
      dim: 1000
    }
    shape {
      dim: 1
      dim: 1
      dim: 1000
    }
  }
}
layer {
  name: "lstm1_cont_slice"
  type: "Slice"
  bottom: "cont"
  top: "cont_1"
  slice_param {
    axis: 0
  }
}
layer {
  name: "lstm1_x_transform"
  type: "InnerProduct"
  bottom: "x"
  top: "W_xc_x"
  param {
    name: "W_xc"
  }
  param {
    name: "b_c"
  }
  propagate_down: true
  inner_product_param {
    num_output: 4000
    bias_term: true
    weight_filler {
      type: "uniform"
      min: -0.08
      max: 0.08
    }
    bias_filler {
      type: "constant"
      value: 0
    }
    axis: 2
  }
}
layer {
  name: "lstm1_W_xc_x_slice"
  type: "Slice"
  bottom: "W_xc_x"
  top: "W_xc_x_1"
  slice_param {
    axis: 0
  }
}
layer {
  name: "lstm1_h_conted_0"
  type: "Scale"
  bottom: "h_0"
  bottom: "cont_1"
  top: "h_conted_0"
  scale_param {
    axis: 0
  }
}
layer {
  name: "lstm1_transform_1"
  type: "InnerProduct"
  bottom: "h_conted_0"
  top: "W_hc_h_0"
  param {
    name: "W_hc"
  }
  inner_product_param {
    num_output: 4000
    bias_term: false
    weight_filler {
      type: "uniform"
      min: -0.08
      max: 0.08
    }
    axis: 2
  }
}
layer {
  name: "lstm1_gate_input_1"
  type: "Eltwise"
  bottom: "W_hc_h_0"
  bottom: "W_xc_x_1"
  top: "gate_input_1"
  eltwise_param {
    operation: SUM
  }
}
layer {
  name: "lstm1_unit_1"
  type: "LSTMUnit"
  bottom: "c_0"
  bottom: "gate_input_1"
  bottom: "cont_1"
  top: "c_1"
  top: "h_1"
}
layer {
  name: "lstm1_"
  type: "Split"
  bottom: "c_1"
  top: "c_T"
}
layer {
  name: "lstm1_h_concat"
  type: "Concat"
  bottom: "h_1"
  top: "h"
  concat_param {
    axis: 0
  }
}
layer {
  name: "h_pseudoloss"
  type: "Reduction"
  bottom: "h"
  top: "h_pseudoloss"
  loss_weight: 1
}
I0924 02:25:22.393111 25022 layer_factory.hpp:77] Creating layer lstm1_
I0924 02:25:22.393129 25022 net.cpp:91] Creating Layer lstm1_
I0924 02:25:22.393141 25022 net.cpp:399] lstm1_ -> x
I0924 02:25:22.393169 25022 net.cpp:399] lstm1_ -> cont
I0924 02:25:22.396039 25022 net.cpp:141] Setting up lstm1_
I0924 02:25:22.396069 25022 net.cpp:148] Top shape: 1 1 500 (500)
I0924 02:25:22.396080 25022 net.cpp:148] Top shape: 1 1 (1)
I0924 02:25:22.396086 25022 net.cpp:156] Memory required for data: 2004
I0924 02:25:22.396100 25022 layer_factory.hpp:77] Creating layer lstm1_
I0924 02:25:22.396121 25022 net.cpp:91] Creating Layer lstm1_
I0924 02:25:22.396133 25022 net.cpp:399] lstm1_ -> c_0
I0924 02:25:22.396150 25022 net.cpp:399] lstm1_ -> h_0
I0924 02:25:22.396703 25022 net.cpp:141] Setting up lstm1_
I0924 02:25:22.396721 25022 net.cpp:148] Top shape: 1 1 1000 (1000)
I0924 02:25:22.396730 25022 net.cpp:148] Top shape: 1 1 1000 (1000)
I0924 02:25:22.396738 25022 net.cpp:156] Memory required for data: 10004
I0924 02:25:22.396746 25022 layer_factory.hpp:77] Creating layer lstm1_cont_slice
I0924 02:25:22.396760 25022 net.cpp:91] Creating Layer lstm1_cont_slice
I0924 02:25:22.396770 25022 net.cpp:425] lstm1_cont_slice <- cont
I0924 02:25:22.396782 25022 net.cpp:399] lstm1_cont_slice -> cont_1
I0924 02:25:22.403583 25022 net.cpp:141] Setting up lstm1_cont_slice
I0924 02:25:22.403620 25022 net.cpp:148] Top shape: 1 1 (1)
I0924 02:25:22.403626 25022 net.cpp:156] Memory required for data: 10008
I0924 02:25:22.403633 25022 layer_factory.hpp:77] Creating layer cont_1_lstm1_cont_slice_0_split
I0924 02:25:22.403647 25022 net.cpp:91] Creating Layer cont_1_lstm1_cont_slice_0_split
I0924 02:25:22.403655 25022 net.cpp:425] cont_1_lstm1_cont_slice_0_split <- cont_1
I0924 02:25:22.403664 25022 net.cpp:399] cont_1_lstm1_cont_slice_0_split -> cont_1_lstm1_cont_slice_0_split_0
I0924 02:25:22.403676 25022 net.cpp:399] cont_1_lstm1_cont_slice_0_split -> cont_1_lstm1_cont_slice_0_split_1
I0924 02:25:22.403764 25022 net.cpp:141] Setting up cont_1_lstm1_cont_slice_0_split
I0924 02:25:22.403774 25022 net.cpp:148] Top shape: 1 1 (1)
I0924 02:25:22.403781 25022 net.cpp:148] Top shape: 1 1 (1)
I0924 02:25:22.403785 25022 net.cpp:156] Memory required for data: 10016
I0924 02:25:22.403790 25022 layer_factory.hpp:77] Creating layer lstm1_x_transform
I0924 02:25:22.403821 25022 net.cpp:91] Creating Layer lstm1_x_transform
I0924 02:25:22.403828 25022 net.cpp:425] lstm1_x_transform <- x
I0924 02:25:22.403841 25022 net.cpp:399] lstm1_x_transform -> W_xc_x
I0924 02:25:22.407907 25036 net.cpp:141] Setting up embedding
I0924 02:25:22.407950 25036 net.cpp:148] Top shape: 1 1 500 (500)
I0924 02:25:22.407958 25036 net.cpp:156] Memory required for data: 22408
I0924 02:25:22.407975 25036 layer_factory.hpp:77] Creating layer lstm1
I0924 02:25:22.407996 25036 net.cpp:91] Creating Layer lstm1
I0924 02:25:22.408004 25036 net.cpp:425] lstm1 <- embedded_input_frames
I0924 02:25:22.408012 25036 net.cpp:425] lstm1 <- cont_sentence_input_1_split_0
I0924 02:25:22.408026 25036 net.cpp:399] lstm1 -> lstm1
I0924 02:25:22.408046 25036 recurrent_layer.cpp:20] Initializing recurrent layer: assuming input batch contains 1 timesteps of 1 independent streams.
I0924 02:25:22.408370 25036 net.cpp:49] Initializing net from parameters: 
layer {
  name: "lstm1_"
  type: "Input"
  top: "x"
  top: "cont"
  input_param {
    shape {
      dim: 1
      dim: 1
      dim: 500
    }
    shape {
      dim: 1
      dim: 1
    }
  }
}
layer {
  name: "lstm1_"
  type: "Input"
  top: "c_0"
  top: "h_0"
  input_param {
    shape {
      dim: 1
      dim: 1
      dim: 1000
    }
    shape {
      dim: 1
      dim: 1
      dim: 1000
    }
  }
}
layer {
  name: "lstm1_cont_slice"
  type: "Slice"
  bottom: "cont"
  top: "cont_1"
  slice_param {
    axis: 0
  }
}
layer {
  name: "lstm1_x_transform"
  type: "InnerProduct"
  bottom: "x"
  top: "W_xc_x"
  param {
    name: "W_xc"
  }
  param {
    name: "b_c"
  }
  propagate_down: true
  inner_product_param {
    num_output: 4000
    bias_term: true
    weight_filler {
      type: "uniform"
      min: -0.08
      max: 0.08
    }
    bias_filler {
      type: "constant"
      value: 0
    }
    axis: 2
  }
}
layer {
  name: "lstm1_W_xc_x_slice"
  type: "Slice"
  bottom: "W_xc_x"
  top: "W_xc_x_1"
  slice_param {
    axis: 0
  }
}
layer {
  name: "lstm1_h_conted_0"
  type: "Scale"
  bottom: "h_0"
  bottom: "cont_1"
  top: "h_conted_0"
  scale_param {
    axis: 0
  }
}
layer {
  name: "lstm1_transform_1"
  type: "InnerProduct"
  bottom: "h_conted_0"
  top: "W_hc_h_0"
  param {
    name: "W_hc"
  }
  inner_product_param {
    num_output: 4000
    bias_term: false
    weight_filler {
      type: "uniform"
      min: -0.08
      max: 0.08
    }
    axis: 2
  }
}
layer {
  name: "lstm1_gate_input_1"
  type: "Eltwise"
  bottom: "W_hc_h_0"
  bottom: "W_xc_x_1"
  top: "gate_input_1"
  eltwise_param {
    operation: SUM
  }
}
layer {
  name: "lstm1_unit_1"
  type: "LSTMUnit"
  bottom: "c_0"
  bottom: "gate_input_1"
  bottom: "cont_1"
  top: "c_1"
  top: "h_1"
}
layer {
  name: "lstm1_"
  type: "Split"
  bottom: "c_1"
  top: "c_T"
}
layer {
  name: "lstm1_h_concat"
  type: "Concat"
  bottom: "h_1"
  top: "h"
  concat_param {
    axis: 0
  }
}
layer {
  name: "h_pseudoloss"
  type: "Reduction"
  bottom: "h"
  top: "h_pseudoloss"
  loss_weight: 1
}
I0924 02:25:22.408470 25036 layer_factory.hpp:77] Creating layer lstm1_
I0924 02:25:22.408484 25036 net.cpp:91] Creating Layer lstm1_
I0924 02:25:22.408491 25036 net.cpp:399] lstm1_ -> x
I0924 02:25:22.408504 25036 net.cpp:399] lstm1_ -> cont
I0924 02:25:22.409690 25036 net.cpp:141] Setting up lstm1_
I0924 02:25:22.409703 25036 net.cpp:148] Top shape: 1 1 500 (500)
I0924 02:25:22.409708 25036 net.cpp:148] Top shape: 1 1 (1)
I0924 02:25:22.409713 25036 net.cpp:156] Memory required for data: 2004
I0924 02:25:22.409718 25036 layer_factory.hpp:77] Creating layer lstm1_
I0924 02:25:22.409728 25036 net.cpp:91] Creating Layer lstm1_
I0924 02:25:22.409739 25036 net.cpp:399] lstm1_ -> c_0
I0924 02:25:22.409750 25036 net.cpp:399] lstm1_ -> h_0
I0924 02:25:22.411562 25036 net.cpp:141] Setting up lstm1_
I0924 02:25:22.411581 25036 net.cpp:148] Top shape: 1 1 1000 (1000)
I0924 02:25:22.411587 25036 net.cpp:148] Top shape: 1 1 1000 (1000)
I0924 02:25:22.411592 25036 net.cpp:156] Memory required for data: 10004
I0924 02:25:22.411597 25036 layer_factory.hpp:77] Creating layer lstm1_cont_slice
I0924 02:25:22.411613 25036 net.cpp:91] Creating Layer lstm1_cont_slice
I0924 02:25:22.411620 25036 net.cpp:425] lstm1_cont_slice <- cont
I0924 02:25:22.411628 25036 net.cpp:399] lstm1_cont_slice -> cont_1
I0924 02:25:22.411835 25036 net.cpp:141] Setting up lstm1_cont_slice
I0924 02:25:22.411846 25036 net.cpp:148] Top shape: 1 1 (1)
I0924 02:25:22.411850 25036 net.cpp:156] Memory required for data: 10008
I0924 02:25:22.411855 25036 layer_factory.hpp:77] Creating layer cont_1_lstm1_cont_slice_0_split
I0924 02:25:22.411864 25036 net.cpp:91] Creating Layer cont_1_lstm1_cont_slice_0_split
I0924 02:25:22.411870 25036 net.cpp:425] cont_1_lstm1_cont_slice_0_split <- cont_1
I0924 02:25:22.411882 25036 net.cpp:399] cont_1_lstm1_cont_slice_0_split -> cont_1_lstm1_cont_slice_0_split_0
I0924 02:25:22.411892 25036 net.cpp:399] cont_1_lstm1_cont_slice_0_split -> cont_1_lstm1_cont_slice_0_split_1
I0924 02:25:22.412657 25036 net.cpp:141] Setting up cont_1_lstm1_cont_slice_0_split
I0924 02:25:22.412673 25036 net.cpp:148] Top shape: 1 1 (1)
I0924 02:25:22.412680 25036 net.cpp:148] Top shape: 1 1 (1)
I0924 02:25:22.412684 25036 net.cpp:156] Memory required for data: 10016
I0924 02:25:22.412690 25036 layer_factory.hpp:77] Creating layer lstm1_x_transform
I0924 02:25:22.412703 25036 net.cpp:91] Creating Layer lstm1_x_transform
I0924 02:25:22.412708 25036 net.cpp:425] lstm1_x_transform <- x
I0924 02:25:22.412716 25036 net.cpp:399] lstm1_x_transform -> W_xc_x
I0924 02:25:22.428526 25022 net.cpp:141] Setting up lstm1_x_transform
I0924 02:25:22.428570 25022 net.cpp:148] Top shape: 1 1 4000 (4000)
I0924 02:25:22.428575 25022 net.cpp:156] Memory required for data: 26016
I0924 02:25:22.428596 25022 layer_factory.hpp:77] Creating layer lstm1_W_xc_x_slice
I0924 02:25:22.428611 25022 net.cpp:91] Creating Layer lstm1_W_xc_x_slice
I0924 02:25:22.428617 25022 net.cpp:425] lstm1_W_xc_x_slice <- W_xc_x
I0924 02:25:22.428630 25022 net.cpp:399] lstm1_W_xc_x_slice -> W_xc_x_1
I0924 02:25:22.428707 25022 net.cpp:141] Setting up lstm1_W_xc_x_slice
I0924 02:25:22.428719 25022 net.cpp:148] Top shape: 1 1 4000 (4000)
I0924 02:25:22.428724 25022 net.cpp:156] Memory required for data: 42016
I0924 02:25:22.428730 25022 layer_factory.hpp:77] Creating layer lstm1_h_conted_0
I0924 02:25:22.428758 25022 net.cpp:91] Creating Layer lstm1_h_conted_0
I0924 02:25:22.428766 25022 net.cpp:425] lstm1_h_conted_0 <- h_0
I0924 02:25:22.428772 25022 net.cpp:425] lstm1_h_conted_0 <- cont_1_lstm1_cont_slice_0_split_0
I0924 02:25:22.428781 25022 net.cpp:399] lstm1_h_conted_0 -> h_conted_0
I0924 02:25:22.434911 25036 net.cpp:141] Setting up lstm1_x_transform
I0924 02:25:22.434962 25036 net.cpp:148] Top shape: 1 1 4000 (4000)
I0924 02:25:22.434967 25036 net.cpp:156] Memory required for data: 26016
I0924 02:25:22.434990 25036 layer_factory.hpp:77] Creating layer lstm1_W_xc_x_slice
I0924 02:25:22.435010 25036 net.cpp:91] Creating Layer lstm1_W_xc_x_slice
I0924 02:25:22.435017 25036 net.cpp:425] lstm1_W_xc_x_slice <- W_xc_x
I0924 02:25:22.435027 25036 net.cpp:399] lstm1_W_xc_x_slice -> W_xc_x_1
I0924 02:25:22.435314 25036 net.cpp:141] Setting up lstm1_W_xc_x_slice
I0924 02:25:22.435325 25036 net.cpp:148] Top shape: 1 1 4000 (4000)
I0924 02:25:22.435330 25036 net.cpp:156] Memory required for data: 42016
I0924 02:25:22.435335 25036 layer_factory.hpp:77] Creating layer lstm1_h_conted_0
I0924 02:25:22.435365 25036 net.cpp:91] Creating Layer lstm1_h_conted_0
I0924 02:25:22.435374 25036 net.cpp:425] lstm1_h_conted_0 <- h_0
I0924 02:25:22.435379 25036 net.cpp:425] lstm1_h_conted_0 <- cont_1_lstm1_cont_slice_0_split_0
I0924 02:25:22.435387 25036 net.cpp:399] lstm1_h_conted_0 -> h_conted_0
I0924 02:25:22.441741 25036 net.cpp:141] Setting up lstm1_h_conted_0
I0924 02:25:22.441779 25036 net.cpp:148] Top shape: 1 1 1000 (1000)
I0924 02:25:22.441789 25036 net.cpp:156] Memory required for data: 46016
I0924 02:25:22.441802 25036 layer_factory.hpp:77] Creating layer lstm1_transform_1
I0924 02:25:22.441805 25022 net.cpp:141] Setting up lstm1_h_conted_0
I0924 02:25:22.441828 25036 net.cpp:91] Creating Layer lstm1_transform_1
I0924 02:25:22.441840 25036 net.cpp:425] lstm1_transform_1 <- h_conted_0
I0924 02:25:22.441849 25022 net.cpp:148] Top shape: 1 1 1000 (1000)
I0924 02:25:22.441859 25036 net.cpp:399] lstm1_transform_1 -> W_hc_h_0
I0924 02:25:22.441864 25022 net.cpp:156] Memory required for data: 46016
I0924 02:25:22.441879 25022 layer_factory.hpp:77] Creating layer lstm1_transform_1
I0924 02:25:22.441907 25022 net.cpp:91] Creating Layer lstm1_transform_1
I0924 02:25:22.441921 25022 net.cpp:425] lstm1_transform_1 <- h_conted_0
I0924 02:25:22.441941 25022 net.cpp:399] lstm1_transform_1 -> W_hc_h_0
I0924 02:25:22.468720 25018 net.cpp:141] Setting up embedding
I0924 02:25:22.468771 25018 net.cpp:148] Top shape: 1 1 500 (500)
I0924 02:25:22.468777 25018 net.cpp:156] Memory required for data: 22408
I0924 02:25:22.468797 25018 layer_factory.hpp:77] Creating layer lstm1
I0924 02:25:22.468817 25018 net.cpp:91] Creating Layer lstm1
I0924 02:25:22.468825 25018 net.cpp:425] lstm1 <- embedded_input_frames
I0924 02:25:22.468834 25018 net.cpp:425] lstm1 <- cont_sentence_input_1_split_0
I0924 02:25:22.468844 25018 net.cpp:399] lstm1 -> lstm1
I0924 02:25:22.468863 25018 recurrent_layer.cpp:20] Initializing recurrent layer: assuming input batch contains 1 timesteps of 1 independent streams.
I0924 02:25:22.469143 25018 net.cpp:49] Initializing net from parameters: 
layer {
  name: "lstm1_"
  type: "Input"
  top: "x"
  top: "cont"
  input_param {
    shape {
      dim: 1
      dim: 1
      dim: 500
    }
    shape {
      dim: 1
      dim: 1
    }
  }
}
layer {
  name: "lstm1_"
  type: "Input"
  top: "c_0"
  top: "h_0"
  input_param {
    shape {
      dim: 1
      dim: 1
      dim: 1000
    }
    shape {
      dim: 1
      dim: 1
      dim: 1000
    }
  }
}
layer {
  name: "lstm1_cont_slice"
  type: "Slice"
  bottom: "cont"
  top: "cont_1"
  slice_param {
    axis: 0
  }
}
layer {
  name: "lstm1_x_transform"
  type: "InnerProduct"
  bottom: "x"
  top: "W_xc_x"
  param {
    name: "W_xc"
  }
  param {
    name: "b_c"
  }
  propagate_down: true
  inner_product_param {
    num_output: 4000
    bias_term: true
    weight_filler {
      type: "uniform"
      min: -0.08
      max: 0.08
    }
    bias_filler {
      type: "constant"
      value: 0
    }
    axis: 2
  }
}
layer {
  name: "lstm1_W_xc_x_slice"
  type: "Slice"
  bottom: "W_xc_x"
  top: "W_xc_x_1"
  slice_param {
    axis: 0
  }
}
layer {
  name: "lstm1_h_conted_0"
  type: "Scale"
  bottom: "h_0"
  bottom: "cont_1"
  top: "h_conted_0"
  scale_param {
    axis: 0
  }
}
layer {
  name: "lstm1_transform_1"
  type: "InnerProduct"
  bottom: "h_conted_0"
  top: "W_hc_h_0"
  param {
    name: "W_hc"
  }
  inner_product_param {
    num_output: 4000
    bias_term: false
    weight_filler {
      type: "uniform"
      min: -0.08
      max: 0.08
    }
    axis: 2
  }
}
layer {
  name: "lstm1_gate_input_1"
  type: "Eltwise"
  bottom: "W_hc_h_0"
  bottom: "W_xc_x_1"
  top: "gate_input_1"
  eltwise_param {
    operation: SUM
  }
}
layer {
  name: "lstm1_unit_1"
  type: "LSTMUnit"
  bottom: "c_0"
  bottom: "gate_input_1"
  bottom: "cont_1"
  top: "c_1"
  top: "h_1"
}
layer {
  name: "lstm1_"
  type: "Split"
  bottom: "c_1"
  top: "c_T"
}
layer {
  name: "lstm1_h_concat"
  type: "Concat"
  bottom: "h_1"
  top: "h"
  concat_param {
    axis: 0
  }
}
layer {
  name: "h_pseudoloss"
  type: "Reduction"
  bottom: "h"
  top: "h_pseudoloss"
  loss_weight: 1
}
I0924 02:25:22.469233 25018 layer_factory.hpp:77] Creating layer lstm1_
I0924 02:25:22.469245 25018 net.cpp:91] Creating Layer lstm1_
I0924 02:25:22.469252 25018 net.cpp:399] lstm1_ -> x
I0924 02:25:22.469264 25018 net.cpp:399] lstm1_ -> cont
I0924 02:25:22.471153 25018 net.cpp:141] Setting up lstm1_
I0924 02:25:22.471189 25018 net.cpp:148] Top shape: 1 1 500 (500)
I0924 02:25:22.471196 25018 net.cpp:148] Top shape: 1 1 (1)
I0924 02:25:22.471200 25018 net.cpp:156] Memory required for data: 2004
I0924 02:25:22.471209 25018 layer_factory.hpp:77] Creating layer lstm1_
I0924 02:25:22.471235 25018 net.cpp:91] Creating Layer lstm1_
I0924 02:25:22.471245 25018 net.cpp:399] lstm1_ -> c_0
I0924 02:25:22.471261 25018 net.cpp:399] lstm1_ -> h_0
I0924 02:25:22.474690 25018 net.cpp:141] Setting up lstm1_
I0924 02:25:22.474715 25018 net.cpp:148] Top shape: 1 1 1000 (1000)
I0924 02:25:22.474721 25018 net.cpp:148] Top shape: 1 1 1000 (1000)
I0924 02:25:22.474726 25018 net.cpp:156] Memory required for data: 10004
I0924 02:25:22.474732 25018 layer_factory.hpp:77] Creating layer lstm1_cont_slice
I0924 02:25:22.474746 25018 net.cpp:91] Creating Layer lstm1_cont_slice
I0924 02:25:22.474751 25018 net.cpp:425] lstm1_cont_slice <- cont
I0924 02:25:22.474763 25018 net.cpp:399] lstm1_cont_slice -> cont_1
I0924 02:25:22.476902 25018 net.cpp:141] Setting up lstm1_cont_slice
I0924 02:25:22.476956 25018 net.cpp:148] Top shape: 1 1 (1)
I0924 02:25:22.476963 25018 net.cpp:156] Memory required for data: 10008
I0924 02:25:22.476970 25018 layer_factory.hpp:77] Creating layer cont_1_lstm1_cont_slice_0_split
I0924 02:25:22.476982 25018 net.cpp:91] Creating Layer cont_1_lstm1_cont_slice_0_split
I0924 02:25:22.476989 25018 net.cpp:425] cont_1_lstm1_cont_slice_0_split <- cont_1
I0924 02:25:22.476997 25018 net.cpp:399] cont_1_lstm1_cont_slice_0_split -> cont_1_lstm1_cont_slice_0_split_0
I0924 02:25:22.477007 25018 net.cpp:399] cont_1_lstm1_cont_slice_0_split -> cont_1_lstm1_cont_slice_0_split_1
I0924 02:25:22.481721 25018 net.cpp:141] Setting up cont_1_lstm1_cont_slice_0_split
I0924 02:25:22.481766 25018 net.cpp:148] Top shape: 1 1 (1)
I0924 02:25:22.481773 25018 net.cpp:148] Top shape: 1 1 (1)
I0924 02:25:22.481777 25018 net.cpp:156] Memory required for data: 10016
I0924 02:25:22.481786 25018 layer_factory.hpp:77] Creating layer lstm1_x_transform
I0924 02:25:22.481812 25018 net.cpp:91] Creating Layer lstm1_x_transform
I0924 02:25:22.481820 25018 net.cpp:425] lstm1_x_transform <- x
I0924 02:25:22.481832 25018 net.cpp:399] lstm1_x_transform -> W_xc_x
I0924 02:25:22.489539 25036 net.cpp:141] Setting up lstm1_transform_1
I0924 02:25:22.489588 25036 net.cpp:148] Top shape: 1 1 4000 (4000)
I0924 02:25:22.489598 25036 net.cpp:156] Memory required for data: 62016
I0924 02:25:22.489627 25036 layer_factory.hpp:77] Creating layer lstm1_gate_input_1
I0924 02:25:22.489660 25036 net.cpp:91] Creating Layer lstm1_gate_input_1
I0924 02:25:22.489672 25036 net.cpp:425] lstm1_gate_input_1 <- W_hc_h_0
I0924 02:25:22.489684 25036 net.cpp:425] lstm1_gate_input_1 <- W_xc_x_1
I0924 02:25:22.489698 25036 net.cpp:399] lstm1_gate_input_1 -> gate_input_1
I0924 02:25:22.494833 25036 net.cpp:141] Setting up lstm1_gate_input_1
I0924 02:25:22.494885 25036 net.cpp:148] Top shape: 1 1 4000 (4000)
I0924 02:25:22.494896 25036 net.cpp:156] Memory required for data: 78016
I0924 02:25:22.494910 25036 layer_factory.hpp:77] Creating layer lstm1_unit_1
I0924 02:25:22.494951 25036 net.cpp:91] Creating Layer lstm1_unit_1
I0924 02:25:22.494962 25036 net.cpp:425] lstm1_unit_1 <- c_0
I0924 02:25:22.494976 25036 net.cpp:425] lstm1_unit_1 <- gate_input_1
I0924 02:25:22.494987 25036 net.cpp:425] lstm1_unit_1 <- cont_1_lstm1_cont_slice_0_split_1
I0924 02:25:22.495002 25036 net.cpp:399] lstm1_unit_1 -> c_1
I0924 02:25:22.495023 25036 net.cpp:399] lstm1_unit_1 -> h_1
I0924 02:25:22.499431 25036 net.cpp:141] Setting up lstm1_unit_1
I0924 02:25:22.499493 25036 net.cpp:148] Top shape: 1 1 1000 (1000)
I0924 02:25:22.499508 25036 net.cpp:148] Top shape: 1 1 1000 (1000)
I0924 02:25:22.499498 25042 net.cpp:141] Setting up embedding
I0924 02:25:22.499524 25036 net.cpp:156] Memory required for data: 86016
I0924 02:25:22.499557 25036 layer_factory.hpp:77] Creating layer lstm1_
I0924 02:25:22.499560 25042 net.cpp:148] Top shape: 1 1 500 (500)
I0924 02:25:22.499578 25042 net.cpp:156] Memory required for data: 22408
I0924 02:25:22.499595 25042 layer_factory.hpp:77] Creating layer lstm1
I0924 02:25:22.499613 25042 net.cpp:91] Creating Layer lstm1
I0924 02:25:22.499615 25036 net.cpp:91] Creating Layer lstm1_
I0924 02:25:22.499620 25042 net.cpp:425] lstm1 <- embedded_input_frames
I0924 02:25:22.499634 25036 net.cpp:425] lstm1_ <- c_1
I0924 02:25:22.499642 25042 net.cpp:425] lstm1 <- cont_sentence_input_1_split_0
I0924 02:25:22.499653 25042 net.cpp:399] lstm1 -> lstm1
I0924 02:25:22.499655 25036 net.cpp:399] lstm1_ -> c_T
I0924 02:25:22.499670 25042 recurrent_layer.cpp:20] Initializing recurrent layer: assuming input batch contains 1 timesteps of 1 independent streams.
I0924 02:25:22.500000 25042 net.cpp:49] Initializing net from parameters: 
layer {
  name: "lstm1_"
  type: "Input"
  top: "x"
  top: "cont"
  input_param {
    shape {
      dim: 1
      dim: 1
      dim: 500
    }
    shape {
      dim: 1
      dim: 1
    }
  }
}
layer {
  name: "lstm1_"
  type: "Input"
  top: "c_0"
  top: "h_0"
  input_param {
    shape {
      dim: 1
      dim: 1
      dim: 1000
    }
    shape {
      dim: 1
      dim: 1
      dim: 1000
    }
  }
}
layer {
  name: "lstm1_cont_slice"
  type: "Slice"
  bottom: "cont"
  top: "cont_1"
  slice_param {
    axis: 0
  }
}
layer {
  name: "lstm1_x_transform"
  type: "InnerProduct"
  bottom: "x"
  top: "W_xc_x"
  param {
    name: "W_xc"
  }
  param {
    name: "b_c"
  }
  propagate_down: true
  inner_product_param {
    num_output: 4000
    bias_term: true
    weight_filler {
      type: "uniform"
      min: -0.08
      max: 0.08
    }
    bias_filler {
      type: "constant"
      value: 0
    }
    axis: 2
  }
}
layer {
  name: "lstm1_W_xc_x_slice"
  type: "Slice"
  bottom: "W_xc_x"
  top: "W_xc_x_1"
  slice_param {
    axis: 0
  }
}
layer {
  name: "lstm1_h_conted_0"
  type: "Scale"
  bottom: "h_0"
  bottom: "cont_1"
  top: "h_conted_0"
  scale_param {
    axis: 0
  }
}
layer {
  name: "lstm1_transform_1"
  type: "InnerProduct"
  bottom: "h_conted_0"
  top: "W_hc_h_0"
  param {
    name: "W_hc"
  }
  inner_product_param {
    num_output: 4000
    bias_term: false
    weight_filler {
      type: "uniform"
      min: -0.08
      max: 0.08
    }
    axis: 2
  }
}
layer {
  name: "lstm1_gate_input_1"
  type: "Eltwise"
  bottom: "W_hc_h_0"
  bottom: "W_xc_x_1"
  top: "gate_input_1"
  eltwise_param {
    operation: SUM
  }
}
layer {
  name: "lstm1_unit_1"
  type: "LSTMUnit"
  bottom: "c_0"
  bottom: "gate_input_1"
  bottom: "cont_1"
  top: "c_1"
  top: "h_1"
}
layer {
  name: "lstm1_"
  type: "Split"
  bottom: "c_1"
  top: "c_T"
}
layer {
  name: "lstm1_h_concat"
  type: "Concat"
  bottom: "h_1"
  top: "h"
  concat_param {
    axis: 0
  }
}
layer {
  name: "h_pseudoloss"
  type: "Reduction"
  bottom: "h"
  top: "h_pseudoloss"
  loss_weight: 1
}
I0924 02:25:22.500092 25042 layer_factory.hpp:77] Creating layer lstm1_
I0924 02:25:22.500107 25042 net.cpp:91] Creating Layer lstm1_
I0924 02:25:22.500113 25042 net.cpp:399] lstm1_ -> x
I0924 02:25:22.500124 25042 net.cpp:399] lstm1_ -> cont
I0924 02:25:22.504952 25036 net.cpp:141] Setting up lstm1_
I0924 02:25:22.505003 25036 net.cpp:148] Top shape: 1 1 1000 (1000)
I0924 02:25:22.505014 25036 net.cpp:156] Memory required for data: 90016
I0924 02:25:22.505028 25036 layer_factory.hpp:77] Creating layer lstm1_h_concat
I0924 02:25:22.505054 25036 net.cpp:91] Creating Layer lstm1_h_concat
I0924 02:25:22.505066 25036 net.cpp:425] lstm1_h_concat <- h_1
I0924 02:25:22.505087 25042 net.cpp:141] Setting up lstm1_
I0924 02:25:22.505120 25042 net.cpp:148] Top shape: 1 1 500 (500)
I0924 02:25:22.505128 25042 net.cpp:148] Top shape: 1 1 (1)
I0924 02:25:22.505133 25042 net.cpp:156] Memory required for data: 2004
I0924 02:25:22.505131 25036 net.cpp:399] lstm1_h_concat -> h
I0924 02:25:22.505142 25042 layer_factory.hpp:77] Creating layer lstm1_
I0924 02:25:22.505162 25042 net.cpp:91] Creating Layer lstm1_
I0924 02:25:22.505175 25042 net.cpp:399] lstm1_ -> c_0
I0924 02:25:22.505193 25042 net.cpp:399] lstm1_ -> h_0
I0924 02:25:22.505246 25036 net.cpp:141] Setting up lstm1_h_concat
I0924 02:25:22.505264 25036 net.cpp:148] Top shape: 1 1 1000 (1000)
I0924 02:25:22.505272 25036 net.cpp:156] Memory required for data: 94016
I0924 02:25:22.505282 25036 layer_factory.hpp:77] Creating layer h_pseudoloss
I0924 02:25:22.505306 25036 net.cpp:91] Creating Layer h_pseudoloss
I0924 02:25:22.505316 25036 net.cpp:425] h_pseudoloss <- h
I0924 02:25:22.505329 25036 net.cpp:399] h_pseudoloss -> h_pseudoloss
I0924 02:25:22.506556 25036 net.cpp:141] Setting up h_pseudoloss
I0924 02:25:22.506574 25036 net.cpp:148] Top shape: (1)
I0924 02:25:22.506579 25036 net.cpp:151]     with loss weight 1
I0924 02:25:22.506634 25036 net.cpp:156] Memory required for data: 94020
I0924 02:25:22.506641 25036 net.cpp:217] h_pseudoloss needs backward computation.
I0924 02:25:22.506657 25036 net.cpp:217] lstm1_h_concat needs backward computation.
I0924 02:25:22.506667 25036 net.cpp:219] lstm1_ does not need backward computation.
I0924 02:25:22.506636 25042 net.cpp:141] Setting up lstm1_
I0924 02:25:22.506675 25036 net.cpp:217] lstm1_unit_1 needs backward computation.
I0924 02:25:22.506695 25042 net.cpp:148] Top shape: 1 1 1000 (1000)
I0924 02:25:22.506700 25036 net.cpp:217] lstm1_gate_input_1 needs backward computation.
I0924 02:25:22.506705 25042 net.cpp:148] Top shape: 1 1 1000 (1000)
I0924 02:25:22.506707 25036 net.cpp:217] lstm1_transform_1 needs backward computation.
I0924 02:25:22.506709 25042 net.cpp:156] Memory required for data: 10004
I0924 02:25:22.506713 25036 net.cpp:219] lstm1_h_conted_0 does not need backward computation.
I0924 02:25:22.506716 25042 layer_factory.hpp:77] Creating layer lstm1_cont_slice
I0924 02:25:22.506721 25036 net.cpp:217] lstm1_W_xc_x_slice needs backward computation.
…
I0924 02:25:22.506754 25036 net.cpp:219] lstm1_ does not need backward computation.
I0924 02:25:22.506759 25036 net.cpp:261] This network produces output c_T
I0924 02:25:22.506764 25036 net.cpp:261] This network produces output h_pseudoloss
I0924 02:25:22.506783 25036 net.cpp:274] Network initialization done.
I0924 02:25:22.506846 25036 recurrent_layer.cpp:150] Adding parameter 0: W_xc
I0924 02:25:22.506853 25036 recurrent_layer.cpp:150] Adding parameter 1: b_c
I0924 02:25:22.506858 25036 recurrent_layer.cpp:150] Adding parameter 2: W_hc
I0924 02:25:22.513324 25042 net.cpp:141] Setting up lstm1_cont_slice
I0924 02:25:22.513360 25042 net.cpp:148] Top shape: 1 1 (1)
I0924 02:25:22.513365 25042 net.cpp:156] Memory required for data: 10008
I0924 02:25:22.513372 25042 layer_factory.hpp:77] Creating layer cont_1_lstm1_cont_slice_0_split
I0924 02:25:22.513386 25042 net.cpp:91] Creating Layer cont_1_lstm1_cont_slice_0_split
I0924 02:25:22.513393 25042 net.cpp:425] cont_1_lstm1_cont_slice_0_split <- cont_1
I0924 02:25:22.513406 25042 net.cpp:399] cont_1_lstm1_cont_slice_0_split -> cont_1_lstm1_cont_slice_0_split_0
I0924 02:25:22.513418 25042 net.cpp:399] cont_1_lstm1_cont_slice_0_split -> cont_1_lstm1_cont_slice_0_split_1
I0924 02:25:22.513496 25042 net.cpp:141] Setting up cont_1_lstm1_cont_slice_0_split
I0924 02:25:22.513506 25042 net.cpp:148] Top shape: 1 1 (1)
I0924 02:25:22.513512 25042 net.cpp:148] Top shape: 1 1 (1)
I0924 02:25:22.513517 25042 net.cpp:156] Memory required for data: 10016
I0924 02:25:22.513522 25042 layer_factory.hpp:77] Creating layer lstm1_x_transform
I0924 02:25:22.513540 25042 net.cpp:91] Creating Layer lstm1_x_transform
I0924 02:25:22.513546 25042 net.cpp:425] lstm1_x_transform <- x
I0924 02:25:22.513556 25042 net.cpp:399] lstm1_x_transform -> W_xc_x
I0924 02:25:22.513736 25018 net.cpp:141] Setting up lstm1_x_transform
I0924 02:25:22.513753 25018 net.cpp:148] Top shape: 1 1 4000 (4000)
I0924 02:25:22.513758 25018 net.cpp:156] Memory required for data: 26016
I0924 02:25:22.513773 25018 layer_factory.hpp:77] Creating layer lstm1_W_xc_x_slice
I0924 02:25:22.513783 25018 net.cpp:91] Creating Layer lstm1_W_xc_x_slice
I0924 02:25:22.513790 25018 net.cpp:425] lstm1_W_xc_x_slice <- W_xc_x
I0924 02:25:22.513803 25018 net.cpp:399] lstm1_W_xc_x_slice -> W_xc_x_1
I0924 02:25:22.517673 25036 net.cpp:141] Setting up lstm1
I0924 02:25:22.517712 25036 net.cpp:148] Top shape: 1 1 1000 (1000)
I0924 02:25:22.517719 25036 net.cpp:156] Memory required for data: 26408
I0924 02:25:22.517738 25036 layer_factory.hpp:77] Creating layer concat
I0924 02:25:22.517755 25036 net.cpp:91] Creating Layer concat
I0924 02:25:22.517762 25036 net.cpp:425] concat <- lstm1
I0924 02:25:22.517758 25018 net.cpp:141] Setting up lstm1_W_xc_x_slice
I0924 02:25:22.517772 25036 net.cpp:425] concat <- embedded_input_sentence
I0924 02:25:22.517794 25018 net.cpp:148] Top shape: 1 1 4000 (4000)
I0924 02:25:22.517797 25036 net.cpp:425] concat <- reshaped_stage_indicator
I0924 02:25:22.517801 25018 net.cpp:156] Memory required for data: 42016
I0924 02:25:22.517807 25018 layer_factory.hpp:77] Creating layer lstm1_h_conted_0
I0924 02:25:22.517809 25036 net.cpp:399] concat -> lstm1_video_sequence
I0924 02:25:22.517819 25022 net.cpp:141] Setting up lstm1_transform_1
I0924 02:25:22.517864 25022 net.cpp:148] Top shape: 1 1 4000 (4000)
I0924 02:25:22.517874 25022 net.cpp:156] Memory required for data: 62016
I0924 02:25:22.517820 25018 net.cpp:91] Creating Layer lstm1_h_conted_0
I0924 02:25:22.517886 25036 net.cpp:141] Setting up concat
I0924 02:25:22.517890 25022 layer_factory.hpp:77] Creating layer lstm1_gate_input_1
I0924 02:25:22.517900 25036 net.cpp:148] Top shape: 1 1 1501 (1501)
I0924 02:25:22.517892 25018 net.cpp:425] lstm1_h_conted_0 <- h_0
I0924 02:25:22.517910 25036 net.cpp:156] Memory required for data: 32412
I0924 02:25:22.517920 25018 net.cpp:425] lstm1_h_conted_0 <- cont_1_lstm1_cont_slice_0_split_0
I0924 02:25:22.517920 25036 layer_factory.hpp:77] Creating layer lstm2
I0924 02:25:22.517930 25022 net.cpp:91] Creating Layer lstm1_gate_input_1
I0924 02:25:22.517936 25018 net.cpp:399] lstm1_h_conted_0 -> h_conted_0
I0924 02:25:22.517940 25036 net.cpp:91] Creating Layer lstm2
I0924 02:25:22.517942 25022 net.cpp:425] lstm1_gate_input_1 <- W_hc_h_0
I0924 02:25:22.517946 25036 net.cpp:425] lstm2 <- lstm1_video_sequence
I0924 02:25:22.517954 25036 net.cpp:425] lstm2 <- cont_sentence_input_1_split_1
I0924 02:25:22.517954 25022 net.cpp:425] lstm1_gate_input_1 <- W_xc_x_1
I0924 02:25:22.517963 25036 net.cpp:399] lstm2 -> lstm2
I0924 02:25:22.517969 25022 net.cpp:399] lstm1_gate_input_1 -> gate_input_1
I0924 02:25:22.517979 25036 recurrent_layer.cpp:20] Initializing recurrent layer: assuming input batch contains 1 timesteps of 1 independent streams.
I0924 02:25:22.518304 25018 net.cpp:141] Setting up lstm1_h_conted_0
I0924 02:25:22.518318 25018 net.cpp:148] Top shape: 1 1 1000 (1000)
I0924 02:25:22.518316 25036 net.cpp:49] Initializing net from parameters: 
layer {
  name: "lstm2_"
  type: "Input"
  top: "x"
  top: "cont"
  input_param {
    shape {
      dim: 1
      dim: 1
      dim: 1501
    }
    shape {
      dim: 1
      dim: 1
    }
  }
}
layer {
  name: "lstm2_"
  type: "Input"
  top: "c_0"
  top: "h_0"
  input_param {
    shape {
      dim: 1
      dim: 1
      dim: 1000
    }
    shape {
      dim: 1
      dim: 1
      dim: 1000
    }
  }
}
layer {
  name: "lstm2_cont_slice"
  type: "Slice"
  bottom: "cont"
  top: "cont_1"
  slice_param {
    axis: 0
  }
}
layer {
  name: "lstm2_x_transform"
  type: "InnerProduct"
  bottom: "x"
  top: "W_xc_x"
  param {
    name: "W_xc"
  }
  param {
    name: "b_c"
  }
  propagate_down: true
  inner_product_param {
    num_output: 4000
    bias_term: true
    weight_filler {
      type: "uniform"
      min: -0.08
      max: 0.08
    }
    bias_filler {
      type: "constant"
      value: 0
    }
    axis: 2
  }
}
layer {
  name: "lstm2_W_xc_x_slice"
  type: "Slice"
  bottom: "W_xc_x"
  top: "W_xc_x_1"
  slice_param {
    axis: 0
  }
}
layer {
  name: "lstm2_h_conted_0"
  type: "Scale"
  bottom: "h_0"
  bottom: "cont_1"
  top: "h_conted_0"
  scale_param {
    axis: 0
  }
}
layer {
  name: "lstm2_transform_1"
  type: "InnerProduct"
  bottom: "h_conted_0"
  top: "W_hc_h_0"
  param {
    name: "W_hc"
  }
  inner_product_param {
    num_output: 4000
    bias_term: false
    weight_filler {
      type: "uniform"
      min: -0.08
      max: 0.08
    }
    axis: 2
  }
}
layer {
  name: "lstm2_gate_input_1"
  type: "Eltwise"
  bottom: "W_hc_h_0"
  bottom: "W_xc_x_1"
  top: "gate_input_1"
  eltwise_param {
    operation: SUM
  }
}
layer {
  name: "lstm2_unit_1"
  type: "LSTMUnit"
  bottom: "c_0"
  bottom: "gate_input_1"
  bottom: "cont_1"
  top: "c_1"
  top: "h_1"
}
layer {
  name: "lstm2_"
  type: "Split"
  bottom: "c_1"
  top: "c_T"
}
layer {
  name: "lstm2_h_concat"
  type: "Concat"
  bottom: "h_1"
  top: "h"
  concat_param {
    axis: 0
  }
}
layer {
  name: "h_pseudoloss"
  type: "Reduction"
  bottom: "h"
  top: "h_pseudoloss"
  loss_weight: 1
}
I0924 02:25:22.518323 25018 net.cpp:156] Memory required for data: 46016
I0924 02:25:22.518345 25018 layer_factory.hpp:77] Creating layer lstm1_transform_1
I0924 02:25:22.518357 25018 net.cpp:91] Creating Layer lstm1_transform_1
I0924 02:25:22.518363 25018 net.cpp:425] lstm1_transform_1 <- h_conted_0
I0924 02:25:22.518360 25022 net.cpp:141] Setting up lstm1_gate_input_1
I0924 02:25:22.518386 25018 net.cpp:399] lstm1_transform_1 -> W_hc_h_0
I0924 02:25:22.518393 25022 net.cpp:148] Top shape: 1 1 4000 (4000)
I0924 02:25:22.518401 25022 net.cpp:156] Memory required for data: 78016
I0924 02:25:22.518409 25022 layer_factory.hpp:77] Creating layer lstm1_unit_1
I0924 02:25:22.518422 25022 net.cpp:91] Creating Layer lstm1_unit_1
I0924 02:25:22.518430 25022 net.cpp:425] lstm1_unit_1 <- c_0
I0924 02:25:22.518434 25036 layer_factory.hpp:77] Creating layer lstm2_
I0924 02:25:22.518440 25022 net.cpp:425] lstm1_unit_1 <- gate_input_1
I0924 02:25:22.518447 25036 net.cpp:91] Creating Layer lstm2_
I0924 02:25:22.518450 25022 net.cpp:425] lstm1_unit_1 <- cont_1_lstm1_cont_slice_0_split_1
I0924 02:25:22.518455 25036 net.cpp:399] lstm2_ -> x
I0924 02:25:22.518463 25022 net.cpp:399] lstm1_unit_1 -> c_1
I0924 02:25:22.518467 25036 net.cpp:399] lstm2_ -> cont
I0924 02:25:22.518479 25022 net.cpp:399] lstm1_unit_1 -> h_1
I0924 02:25:22.529953 25036 net.cpp:141] Setting up lstm2_
I0924 02:25:22.530006 25036 net.cpp:148] Top shape: 1 1 1501 (1501)
I0924 02:25:22.530020 25036 net.cpp:148] Top shape: 1 1 (1)
I0924 02:25:22.530028 25036 net.cpp:156] Memory required for data: 6008
I0924 02:25:22.530045 25036 layer_factory.hpp:77] Creating layer lstm2_
I0924 02:25:22.530078 25036 net.cpp:91] Creating Layer lstm2_
I0924 02:25:22.530097 25036 net.cpp:399] lstm2_ -> c_0
I0924 02:25:22.530128 25036 net.cpp:399] lstm2_ -> h_0
I0924 02:25:22.537418 25022 net.cpp:141] Setting up lstm1_unit_1
I0924 02:25:22.537466 25022 net.cpp:148] Top shape: 1 1 1000 (1000)
I0924 02:25:22.537478 25022 net.cpp:148] Top shape: 1 1 1000 (1000)
I0924 02:25:22.537487 25022 net.cpp:156] Memory required for data: 86016
I0924 02:25:22.537498 25022 layer_factory.hpp:77] Creating layer lstm1_
I0924 02:25:22.537530 25022 net.cpp:91] Creating Layer lstm1_
I0924 02:25:22.537542 25022 net.cpp:425] lstm1_ <- c_1
I0924 02:25:22.537559 25022 net.cpp:399] lstm1_ -> c_T
I0924 02:25:22.537631 25036 net.cpp:141] Setting up lstm2_
I0924 02:25:22.537657 25036 net.cpp:148] Top shape: 1 1 1000 (1000)
I0924 02:25:22.537663 25036 net.cpp:148] Top shape: 1 1 1000 (1000)
I0924 02:25:22.537667 25036 net.cpp:156] Memory required for data: 14008
I0924 02:25:22.537674 25036 layer_factory.hpp:77] Creating layer lstm2_cont_slice
I0924 02:25:22.537690 25036 net.cpp:91] Creating Layer lstm2_cont_slice
I0924 02:25:22.537698 25036 net.cpp:425] lstm2_cont_slice <- cont
I0924 02:25:22.537708 25036 net.cpp:399] lstm2_cont_slice -> cont_1
I0924 02:25:22.537705 25042 net.cpp:141] Setting up lstm1_x_transform
I0924 02:25:22.537725 25042 net.cpp:148] Top shape: 1 1 4000 (4000)
I0924 02:25:22.537731 25042 net.cpp:156] Memory required for data: 26016
I0924 02:25:22.537747 25042 layer_factory.hpp:77] Creating layer lstm1_W_xc_x_slice
I0924 02:25:22.537744 25022 net.cpp:141] Setting up lstm1_
I0924 02:25:22.537766 25042 net.cpp:91] Creating Layer lstm1_W_xc_x_slice
I0924 02:25:22.537770 25022 net.cpp:148] Top shape: 1 1 1000 (1000)
I0924 02:25:22.537775 25042 net.cpp:425] lstm1_W_xc_x_slice <- W_xc_x
I0924 02:25:22.537778 25022 net.cpp:156] Memory required for data: 90016
I0924 02:25:22.537783 25042 net.cpp:399] lstm1_W_xc_x_slice -> W_xc_x_1
I0924 02:25:22.537787 25022 layer_factory.hpp:77] Creating layer lstm1_h_concat
I0924 02:25:22.537802 25022 net.cpp:91] Creating Layer lstm1_h_concat
I0924 02:25:22.537811 25022 net.cpp:425] lstm1_h_concat <- h_1
I0924 02:25:22.537817 25036 net.cpp:141] Setting up lstm2_cont_slice
I0924 02:25:22.537829 25036 net.cpp:148] Top shape: 1 1 (1)
I0924 02:25:22.537830 25022 net.cpp:399] lstm1_h_concat -> h
I0924 02:25:22.537840 25042 net.cpp:141] Setting up lstm1_W_xc_x_slice
I0924 02:25:22.537834 25036 net.cpp:156] Memory required for data: 14012
I0924 02:25:22.537850 25042 net.cpp:148] Top shape: 1 1 4000 (4000)
I0924 02:25:22.537853 25036 layer_factory.hpp:77] Creating layer cont_1_lstm2_cont_slice_0_split
I0924 02:25:22.537856 25042 net.cpp:156] Memory required for data: 42016
I0924 02:25:22.537863 25042 layer_factory.hpp:77] Creating layer lstm1_h_conted_0
I0924 02:25:22.537865 25036 net.cpp:91] Creating Layer cont_1_lstm2_cont_slice_0_split
I0924 02:25:22.537871 25036 net.cpp:425] cont_1_lstm2_cont_slice_0_split <- cont_1
I0924 02:25:22.537876 25042 net.cpp:91] Creating Layer lstm1_h_conted_0
I0924 02:25:22.537879 25036 net.cpp:399] cont_1_lstm2_cont_slice_0_split -> cont_1_lstm2_cont_slice_0_split_0
I0924 02:25:22.537883 25042 net.cpp:425] lstm1_h_conted_0 <- h_0
I0924 02:25:22.537889 25036 net.cpp:399] cont_1_lstm2_cont_slice_0_split -> cont_1_lstm2_cont_slice_0_split_1
I0924 02:25:22.537891 25042 net.cpp:425] lstm1_h_conted_0 <- cont_1_lstm1_cont_slice_0_split_0
I0924 02:25:22.537899 25042 net.cpp:399] lstm1_h_conted_0 -> h_conted_0
I0924 02:25:22.537904 25022 net.cpp:141] Setting up lstm1_h_concat
I0924 02:25:22.537919 25022 net.cpp:148] Top shape: 1 1 1000 (1000)
I0924 02:25:22.537926 25022 net.cpp:156] Memory required for data: 94016
I0924 02:25:22.537935 25022 layer_factory.hpp:77] Creating layer h_pseudoloss
I0924 02:25:22.537948 25022 net.cpp:91] Creating Layer h_pseudoloss
I0924 02:25:22.537957 25022 net.cpp:425] h_pseudoloss <- h
I0924 02:25:22.537971 25022 net.cpp:399] h_pseudoloss -> h_pseudoloss
I0924 02:25:22.537972 25036 net.cpp:141] Setting up cont_1_lstm2_cont_slice_0_split
I0924 02:25:22.537984 25036 net.cpp:148] Top shape: 1 1 (1)
I0924 02:25:22.537991 25036 net.cpp:148] Top shape: 1 1 (1)
I0924 02:25:22.537994 25036 net.cpp:156] Memory required for data: 14020
I0924 02:25:22.538000 25036 layer_factory.hpp:77] Creating layer lstm2_x_transform
I0924 02:25:22.538017 25036 net.cpp:91] Creating Layer lstm2_x_transform
I0924 02:25:22.538022 25036 net.cpp:425] lstm2_x_transform <- x
I0924 02:25:22.538046 25036 net.cpp:399] lstm2_x_transform -> W_xc_x
I0924 02:25:22.538084 25042 net.cpp:141] Setting up lstm1_h_conted_0
I0924 02:25:22.538095 25042 net.cpp:148] Top shape: 1 1 1000 (1000)
I0924 02:25:22.538100 25042 net.cpp:156] Memory required for data: 46016
I0924 02:25:22.538105 25042 layer_factory.hpp:77] Creating layer lstm1_transform_1
I0924 02:25:22.538122 25042 net.cpp:91] Creating Layer lstm1_transform_1
I0924 02:25:22.538128 25042 net.cpp:425] lstm1_transform_1 <- h_conted_0
I0924 02:25:22.538137 25042 net.cpp:399] lstm1_transform_1 -> W_hc_h_0
I0924 02:25:22.538215 25022 net.cpp:141] Setting up h_pseudoloss
…
I0924 02:25:22.538388 25022 net.cpp:219] lstm1_ does not need backward computation.
I0924 02:25:22.538394 25022 net.cpp:261] This network produces output c_T
I0924 02:25:22.538403 25022 net.cpp:261] This network produces output h_pseudoloss
I0924 02:25:22.538424 25022 net.cpp:274] Network initialization done.
I0924 02:25:22.538486 25022 recurrent_layer.cpp:150] Adding parameter 0: W_xc
I0924 02:25:22.538496 25022 recurrent_layer.cpp:150] Adding parameter 1: b_c
I0924 02:25:22.538503 25022 recurrent_layer.cpp:150] Adding parameter 2: W_hc
I0924 02:25:22.568938 25022 net.cpp:141] Setting up lstm1
I0924 02:25:22.568984 25022 net.cpp:148] Top shape: 1 1 1000 (1000)
I0924 02:25:22.568994 25022 net.cpp:156] Memory required for data: 26408
I0924 02:25:22.569022 25022 layer_factory.hpp:77] Creating layer concat
I0924 02:25:22.569046 25022 net.cpp:91] Creating Layer concat
I0924 02:25:22.569056 25022 net.cpp:425] concat <- lstm1
I0924 02:25:22.569068 25022 net.cpp:425] concat <- embedded_input_sentence
I0924 02:25:22.569078 25022 net.cpp:425] concat <- reshaped_stage_indicator
I0924 02:25:22.569090 25022 net.cpp:399] concat -> lstm1_video_sequence
I0924 02:25:22.569591 25022 net.cpp:141] Setting up concat
I0924 02:25:22.569607 25022 net.cpp:148] Top shape: 1 1 1501 (1501)
I0924 02:25:22.569615 25022 net.cpp:156] Memory required for data: 32412
I0924 02:25:22.569623 25022 layer_factory.hpp:77] Creating layer lstm2
I0924 02:25:22.569643 25022 net.cpp:91] Creating Layer lstm2
I0924 02:25:22.569651 25022 net.cpp:425] lstm2 <- lstm1_video_sequence
I0924 02:25:22.569661 25022 net.cpp:425] lstm2 <- cont_sentence_input_1_split_1
I0924 02:25:22.569674 25022 net.cpp:399] lstm2 -> lstm2
I0924 02:25:22.569690 25022 recurrent_layer.cpp:20] Initializing recurrent layer: assuming input batch contains 1 timesteps of 1 independent streams.
I0924 02:25:22.570071 25022 net.cpp:49] Initializing net from parameters: 
layer {
  name: "lstm2_"
  type: "Input"
  top: "x"
  top: "cont"
  input_param {
    shape {
      dim: 1
      dim: 1
      dim: 1501
    }
    shape {
      dim: 1
      dim: 1
    }
  }
}
layer {
  name: "lstm2_"
  type: "Input"
  top: "c_0"
  top: "h_0"
  input_param {
    shape {
      dim: 1
      dim: 1
      dim: 1000
    }
    shape {
      dim: 1
      dim: 1
      dim: 1000
    }
  }
}
layer {
  name: "lstm2_cont_slice"
  type: "Slice"
  bottom: "cont"
  top: "cont_1"
  slice_param {
    axis: 0
  }
}
layer {
  name: "lstm2_x_transform"
  type: "InnerProduct"
  bottom: "x"
  top: "W_xc_x"
  param {
    name: "W_xc"
  }
  param {
    name: "b_c"
  }
  propagate_down: true
  inner_product_param {
    num_output: 4000
    bias_term: true
    weight_filler {
      type: "uniform"
      min: -0.08
      max: 0.08
    }
    bias_filler {
      type: "constant"
      value: 0
    }
    axis: 2
  }
}
layer {
  name: "lstm2_W_xc_x_slice"
  type: "Slice"
  bottom: "W_xc_x"
  top: "W_xc_x_1"
  slice_param {
    axis: 0
  }
}
layer {
  name: "lstm2_h_conted_0"
  type: "Scale"
  bottom: "h_0"
  bottom: "cont_1"
  top: "h_conted_0"
  scale_param {
    axis: 0
  }
}
layer {
  name: "lstm2_transform_1"
  type: "InnerProduct"
  bottom: "h_conted_0"
  top: "W_hc_h_0"
  param {
    name: "W_hc"
  }
  inner_product_param {
    num_output: 4000
    bias_term: false
    weight_filler {
      type: "uniform"
      min: -0.08
      max: 0.08
    }
    axis: 2
  }
}
layer {
  name: "lstm2_gate_input_1"
  type: "Eltwise"
  bottom: "W_hc_h_0"
  bottom: "W_xc_x_1"
  top: "gate_input_1"
  eltwise_param {
    operation: SUM
  }
}
layer {
  name: "lstm2_unit_1"
  type: "LSTMUnit"
  bottom: "c_0"
  bottom: "gate_input_1"
  bottom: "cont_1"
  top: "c_1"
  top: "h_1"
}
layer {
  name: "lstm2_"
  type: "Split"
  bottom: "c_1"
  top: "c_T"
}
layer {
  name: "lstm2_h_concat"
  type: "Concat"
  bottom: "h_1"
  top: "h"
  concat_param {
    axis: 0
  }
}
layer {
  name: "h_pseudoloss"
  type: "Reduction"
  bottom: "h"
  top: "h_pseudoloss"
  loss_weight: 1
}
I0924 02:25:22.570207 25022 layer_factory.hpp:77] Creating layer lstm2_
I0924 02:25:22.570226 25022 net.cpp:91] Creating Layer lstm2_
I0924 02:25:22.570236 25022 net.cpp:399] lstm2_ -> x
I0924 02:25:22.570255 25022 net.cpp:399] lstm2_ -> cont
I0924 02:25:22.572749 25018 net.cpp:141] Setting up lstm1_transform_1
I0924 02:25:22.572769 25018 net.cpp:148] Top shape: 1 1 4000 (4000)
I0924 02:25:22.572774 25018 net.cpp:156] Memory required for data: 62016
I0924 02:25:22.572787 25018 layer_factory.hpp:77] Creating layer lstm1_gate_input_1
I0924 02:25:22.572801 25018 net.cpp:91] Creating Layer lstm1_gate_input_1
I0924 02:25:22.572808 25018 net.cpp:425] lstm1_gate_input_1 <- W_hc_h_0
I0924 02:25:22.572815 25018 net.cpp:425] lstm1_gate_input_1 <- W_xc_x_1
I0924 02:25:22.572824 25018 net.cpp:399] lstm1_gate_input_1 -> gate_input_1
I0924 02:25:22.572836 25022 net.cpp:141] Setting up lstm2_
I0924 02:25:22.572854 25022 net.cpp:148] Top shape: 1 1 1501 (1501)
I0924 02:25:22.572865 25022 net.cpp:148] Top shape: 1 1 (1)
I0924 02:25:22.572872 25018 net.cpp:141] Setting up lstm1_gate_input_1
I0924 02:25:22.572873 25022 net.cpp:156] Memory required for data: 6008
I0924 02:25:22.572896 25018 net.cpp:148] Top shape: 1 1 4000 (4000)
I0924 02:25:22.572901 25018 net.cpp:156] Memory required for data: 78016
I0924 02:25:22.572902 25022 layer_factory.hpp:77] Creating layer lstm2_
I0924 02:25:22.572906 25018 layer_factory.hpp:77] Creating layer lstm1_unit_1
I0924 02:25:22.572932 25018 net.cpp:91] Creating Layer lstm1_unit_1
I0924 02:25:22.572933 25022 net.cpp:91] Creating Layer lstm2_
I0924 02:25:22.572937 25018 net.cpp:425] lstm1_unit_1 <- c_0
I0924 02:25:22.572944 25018 net.cpp:425] lstm1_unit_1 <- gate_input_1
I0924 02:25:22.572950 25018 net.cpp:425] lstm1_unit_1 <- cont_1_lstm1_cont_slice_0_split_1
I0924 02:25:22.572949 25022 net.cpp:399] lstm2_ -> c_0
I0924 02:25:22.572960 25018 net.cpp:399] lstm1_unit_1 -> c_1
I0924 02:25:22.572968 25022 net.cpp:399] lstm2_ -> h_0
I0924 02:25:22.572970 25018 net.cpp:399] lstm1_unit_1 -> h_1
I0924 02:25:22.575222 25022 net.cpp:141] Setting up lstm2_
I0924 02:25:22.575240 25022 net.cpp:148] Top shape: 1 1 1000 (1000)
I0924 02:25:22.575250 25022 net.cpp:148] Top shape: 1 1 1000 (1000)
I0924 02:25:22.575258 25022 net.cpp:156] Memory required for data: 14008
I0924 02:25:22.575264 25022 layer_factory.hpp:77] Creating layer lstm2_cont_slice
I0924 02:25:22.575279 25022 net.cpp:91] Creating Layer lstm2_cont_slice
I0924 02:25:22.575287 25022 net.cpp:425] lstm2_cont_slice <- cont
I0924 02:25:22.575299 25022 net.cpp:399] lstm2_cont_slice -> cont_1
I0924 02:25:22.575302 25018 net.cpp:141] Setting up lstm1_unit_1
I0924 02:25:22.575320 25018 net.cpp:148] Top shape: 1 1 1000 (1000)
I0924 02:25:22.575327 25018 net.cpp:148] Top shape: 1 1 1000 (1000)
I0924 02:25:22.575331 25018 net.cpp:156] Memory required for data: 86016
I0924 02:25:22.575337 25018 layer_factory.hpp:77] Creating layer lstm1_
I0924 02:25:22.575346 25018 net.cpp:91] Creating Layer lstm1_
I0924 02:25:22.575351 25018 net.cpp:425] lstm1_ <- c_1
I0924 02:25:22.575359 25018 net.cpp:399] lstm1_ -> c_T
I0924 02:25:22.575366 25022 net.cpp:141] Setting up lstm2_cont_slice
I0924 02:25:22.575382 25022 net.cpp:148] Top shape: 1 1 (1)
I0924 02:25:22.575392 25022 net.cpp:156] Memory required for data: 14012
I0924 02:25:22.575398 25022 layer_factory.hpp:77] Creating layer cont_1_lstm2_cont_slice_0_split
I0924 02:25:22.575413 25022 net.cpp:91] Creating Layer cont_1_lstm2_cont_slice_0_split
I0924 02:25:22.575423 25022 net.cpp:425] cont_1_lstm2_cont_slice_0_split <- cont_1
I0924 02:25:22.575433 25022 net.cpp:399] cont_1_lstm2_cont_slice_0_split -> cont_1_lstm2_cont_slice_0_split_0
I0924 02:25:22.575446 25022 net.cpp:399] cont_1_lstm2_cont_slice_0_split -> cont_1_lstm2_cont_slice_0_split_1
I0924 02:25:22.580314 25018 net.cpp:141] Setting up lstm1_
I0924 02:25:22.580339 25018 net.cpp:148] Top shape: 1 1 1000 (1000)
I0924 02:25:22.580344 25018 net.cpp:156] Memory required for data: 90016
I0924 02:25:22.580350 25018 layer_factory.hpp:77] Creating layer lstm1_h_concat
I0924 02:25:22.580363 25018 net.cpp:91] Creating Layer lstm1_h_concat
I0924 02:25:22.580368 25018 net.cpp:425] lstm1_h_concat <- h_1
I0924 02:25:22.580376 25018 net.cpp:399] lstm1_h_concat -> h
I0924 02:25:22.580399 25022 net.cpp:141] Setting up cont_1_lstm2_cont_slice_0_split
I0924 02:25:22.580415 25022 net.cpp:148] Top shape: 1 1 (1)
I0924 02:25:22.580425 25022 net.cpp:148] Top shape: 1 1 (1)
I0924 02:25:22.580428 25018 net.cpp:141] Setting up lstm1_h_concat
I0924 02:25:22.580432 25022 net.cpp:156] Memory required for data: 14020
I0924 02:25:22.580438 25018 net.cpp:148] Top shape: 1 1 1000 (1000)
I0924 02:25:22.580441 25022 layer_factory.hpp:77] Creating layer lstm2_x_transform
I0924 02:25:22.580443 25018 net.cpp:156] Memory required for data: 94016
I0924 02:25:22.580467 25018 layer_factory.hpp:77] Creating layer h_pseudoloss
I0924 02:25:22.580474 25022 net.cpp:91] Creating Layer lstm2_x_transform
I0924 02:25:22.580477 25018 net.cpp:91] Creating Layer h_pseudoloss
I0924 02:25:22.580490 25022 net.cpp:425] lstm2_x_transform <- x
I0924 02:25:22.580494 25018 net.cpp:425] h_pseudoloss <- h
I0924 02:25:22.580502 25018 net.cpp:399] h_pseudoloss -> h_pseudoloss
I0924 02:25:22.580528 25022 net.cpp:399] lstm2_x_transform -> W_xc_x
I0924 02:25:22.586618 25042 net.cpp:141] Setting up lstm1_transform_1
I0924 02:25:22.586657 25042 net.cpp:148] Top shape: 1 1 4000 (4000)
I0924 02:25:22.586665 25042 net.cpp:156] Memory required for data: 62016
I0924 02:25:22.586681 25042 layer_factory.hpp:77] Creating layer lstm1_gate_input_1
I0924 02:25:22.586701 25042 net.cpp:91] Creating Layer lstm1_gate_input_1
I0924 02:25:22.586709 25042 net.cpp:425] lstm1_gate_input_1 <- W_hc_h_0
I0924 02:25:22.586716 25042 net.cpp:425] lstm1_gate_input_1 <- W_xc_x_1
I0924 02:25:22.586724 25042 net.cpp:399] lstm1_gate_input_1 -> gate_input_1
I0924 02:25:22.600361 25018 net.cpp:141] Setting up h_pseudoloss
I0924 02:25:22.600396 25042 net.cpp:141] Setting up lstm1_gate_input_1
I0924 02:25:22.600415 25042 net.cpp:148] Top shape: 1 1 4000 (4000)
I0924 02:25:22.600417 25018 net.cpp:148] Top shape: (1)
I0924 02:25:22.600421 25042 net.cpp:156] Memory required for data: 78016
I0924 02:25:22.600431 25042 layer_factory.hpp:77] Creating layer lstm1_unit_1
I0924 02:25:22.600427 25018 net.cpp:151]     with loss weight 1
I0924 02:25:22.600455 25018 net.cpp:156] Memory required for data: 94020
I0924 02:25:22.600456 25042 net.cpp:91] Creating Layer lstm1_unit_1
…
I0924 02:25:22.600607 25018 net.cpp:219] lstm1_ does not need backward computation.
I0924 02:25:22.600613 25018 net.cpp:261] This network produces output c_T
I0924 02:25:22.600622 25018 net.cpp:261] This network produces output h_pseudoloss
I0924 02:25:22.600644 25018 net.cpp:274] Network initialization done.
I0924 02:25:22.600716 25018 recurrent_layer.cpp:150] Adding parameter 0: W_xc
I0924 02:25:22.600728 25018 recurrent_layer.cpp:150] Adding parameter 1: b_c
I0924 02:25:22.600735 25018 recurrent_layer.cpp:150] Adding parameter 2: W_hc
I0924 02:25:22.600754 25042 net.cpp:141] Setting up lstm1_unit_1
I0924 02:25:22.600765 25042 net.cpp:148] Top shape: 1 1 1000 (1000)
I0924 02:25:22.600771 25042 net.cpp:148] Top shape: 1 1 1000 (1000)
I0924 02:25:22.600775 25042 net.cpp:156] Memory required for data: 86016
I0924 02:25:22.600780 25042 layer_factory.hpp:77] Creating layer lstm1_
I0924 02:25:22.600795 25042 net.cpp:91] Creating Layer lstm1_
I0924 02:25:22.600800 25042 net.cpp:425] lstm1_ <- c_1
I0924 02:25:22.600808 25042 net.cpp:399] lstm1_ -> c_T
I0924 02:25:22.601440 25042 net.cpp:141] Setting up lstm1_
I0924 02:25:22.601459 25042 net.cpp:148] Top shape: 1 1 1000 (1000)
I0924 02:25:22.601464 25042 net.cpp:156] Memory required for data: 90016
I0924 02:25:22.601470 25042 layer_factory.hpp:77] Creating layer lstm1_h_concat
I0924 02:25:22.601481 25042 net.cpp:91] Creating Layer lstm1_h_concat
I0924 02:25:22.601486 25042 net.cpp:425] lstm1_h_concat <- h_1
I0924 02:25:22.601500 25042 net.cpp:399] lstm1_h_concat -> h
I0924 02:25:22.601496 25018 net.cpp:141] Setting up lstm1
I0924 02:25:22.601518 25018 net.cpp:148] Top shape: 1 1 1000 (1000)
I0924 02:25:22.601529 25018 net.cpp:156] Memory required for data: 26408
I0924 02:25:22.601557 25018 layer_factory.hpp:77] Creating layer concat
I0924 02:25:22.601577 25018 net.cpp:91] Creating Layer concat
I0924 02:25:22.601588 25018 net.cpp:425] concat <- lstm1
I0924 02:25:22.601603 25018 net.cpp:425] concat <- embedded_input_sentence
I0924 02:25:22.601614 25018 net.cpp:425] concat <- reshaped_stage_indicator
I0924 02:25:22.601629 25018 net.cpp:399] concat -> lstm1_video_sequence
I0924 02:25:22.603307 25042 net.cpp:141] Setting up lstm1_h_concat
I0924 02:25:22.603340 25042 net.cpp:148] Top shape: 1 1 1000 (1000)
I0924 02:25:22.603346 25042 net.cpp:156] Memory required for data: 94016
I0924 02:25:22.603354 25042 layer_factory.hpp:77] Creating layer h_pseudoloss
I0924 02:25:22.603354 25018 net.cpp:141] Setting up concat
I0924 02:25:22.603369 25042 net.cpp:91] Creating Layer h_pseudoloss
I0924 02:25:22.603376 25042 net.cpp:425] h_pseudoloss <- h
I0924 02:25:22.603375 25018 net.cpp:148] Top shape: 1 1 1501 (1501)
I0924 02:25:22.603387 25042 net.cpp:399] h_pseudoloss -> h_pseudoloss
I0924 02:25:22.603387 25018 net.cpp:156] Memory required for data: 32412
I0924 02:25:22.603410 25018 layer_factory.hpp:77] Creating layer lstm2
I0924 02:25:22.603435 25018 net.cpp:91] Creating Layer lstm2
I0924 02:25:22.603448 25018 net.cpp:425] lstm2 <- lstm1_video_sequence
I0924 02:25:22.603461 25018 net.cpp:425] lstm2 <- cont_sentence_input_1_split_1
I0924 02:25:22.603479 25018 net.cpp:399] lstm2 -> lstm2
I0924 02:25:22.603502 25018 recurrent_layer.cpp:20] Initializing recurrent layer: assuming input batch contains 1 timesteps of 1 independent streams.
I0924 02:25:22.603935 25018 net.cpp:49] Initializing net from parameters: 
layer {
  name: "lstm2_"
  type: "Input"
  top: "x"
  top: "cont"
  input_param {
    shape {
      dim: 1
      dim: 1
      dim: 1501
    }
    shape {
      dim: 1
      dim: 1
    }
  }
}
layer {
  name: "lstm2_"
  type: "Input"
  top: "c_0"
  top: "h_0"
  input_param {
    shape {
      dim: 1
      dim: 1
      dim: 1000
    }
    shape {
      dim: 1
      dim: 1
      dim: 1000
    }
  }
}
layer {
  name: "lstm2_cont_slice"
  type: "Slice"
  bottom: "cont"
  top: "cont_1"
  slice_param {
    axis: 0
  }
}
layer {
  name: "lstm2_x_transform"
  type: "InnerProduct"
  bottom: "x"
  top: "W_xc_x"
  param {
    name: "W_xc"
  }
  param {
    name: "b_c"
  }
  propagate_down: true
  inner_product_param {
    num_output: 4000
    bias_term: true
    weight_filler {
      type: "uniform"
      min: -0.08
      max: 0.08
    }
    bias_filler {
      type: "constant"
      value: 0
    }
    axis: 2
  }
}
layer {
  name: "lstm2_W_xc_x_slice"
  type: "Slice"
  bottom: "W_xc_x"
  top: "W_xc_x_1"
  slice_param {
    axis: 0
  }
}
layer {
  name: "lstm2_h_conted_0"
  type: "Scale"
  bottom: "h_0"
  bottom: "cont_1"
  top: "h_conted_0"
  scale_param {
    axis: 0
  }
}
layer {
  name: "lstm2_transform_1"
  type: "InnerProduct"
  bottom: "h_conted_0"
  top: "W_hc_h_0"
  param {
    name: "W_hc"
  }
  inner_product_param {
    num_output: 4000
    bias_term: false
    weight_filler {
      type: "uniform"
      min: -0.08
      max: 0.08
    }
    axis: 2
  }
}
layer {
  name: "lstm2_gate_input_1"
  type: "Eltwise"
  bottom: "W_hc_h_0"
  bottom: "W_xc_x_1"
  top: "gate_input_1"
  eltwise_param {
    operation: SUM
  }
}
layer {
  name: "lstm2_unit_1"
  type: "LSTMUnit"
  bottom: "c_0"
  bottom: "gate_input_1"
  bottom: "cont_1"
  top: "c_1"
  top: "h_1"
}
layer {
  name: "lstm2_"
  type: "Split"
  bottom: "c_1"
  top: "c_T"
}
layer {
  name: "lstm2_h_concat"
  type: "Concat"
  bottom: "h_1"
  top: "h"
  concat_param {
    axis: 0
  }
}
layer {
  name: "h_pseudoloss"
  type: "Reduction"
  bottom: "h"
  top: "h_pseudoloss"
  loss_weight: 1
}
I0924 02:25:22.604084 25018 layer_factory.hpp:77] Creating layer lstm2_
I0924 02:25:22.604106 25018 net.cpp:91] Creating Layer lstm2_
I0924 02:25:22.604121 25018 net.cpp:399] lstm2_ -> x
I0924 02:25:22.604142 25018 net.cpp:399] lstm2_ -> cont
I0924 02:25:22.608687 25018 net.cpp:141] Setting up lstm2_
I0924 02:25:22.608737 25018 net.cpp:148] Top shape: 1 1 1501 (1501)
I0924 02:25:22.608755 25018 net.cpp:148] Top shape: 1 1 (1)
I0924 02:25:22.608765 25018 net.cpp:156] Memory required for data: 6008
I0924 02:25:22.608778 25018 layer_factory.hpp:77] Creating layer lstm2_
I0924 02:25:22.608794 25042 net.cpp:141] Setting up h_pseudoloss
I0924 02:25:22.608808 25018 net.cpp:91] Creating Layer lstm2_
I0924 02:25:22.608814 25042 net.cpp:148] Top shape: (1)
I0924 02:25:22.608819 25042 net.cpp:151]     with loss weight 1
I0924 02:25:22.608832 25018 net.cpp:399] lstm2_ -> c_0
…
I0924 02:25:22.608923 25042 net.cpp:219] lstm1_ does not need backward computation.
I0924 02:25:22.608927 25042 net.cpp:261] This network produces output c_T
I0924 02:25:22.608932 25042 net.cpp:261] This network produces output h_pseudoloss
I0924 02:25:22.608952 25042 net.cpp:274] Network initialization done.
I0924 02:25:22.609000 25042 recurrent_layer.cpp:150] Adding parameter 0: W_xc
I0924 02:25:22.609007 25042 recurrent_layer.cpp:150] Adding parameter 1: b_c
I0924 02:25:22.609011 25042 recurrent_layer.cpp:150] Adding parameter 2: W_hc
I0924 02:25:22.611608 25018 net.cpp:141] Setting up lstm2_
I0924 02:25:22.611630 25018 net.cpp:148] Top shape: 1 1 1000 (1000)
I0924 02:25:22.611639 25042 net.cpp:141] Setting up lstm1
I0924 02:25:22.611680 25042 net.cpp:148] Top shape: 1 1 1000 (1000)
I0924 02:25:22.611685 25042 net.cpp:156] Memory required for data: 26408
I0924 02:25:22.611701 25042 layer_factory.hpp:77] Creating layer concat
I0924 02:25:22.611644 25018 net.cpp:148] Top shape: 1 1 1000 (1000)
I0924 02:25:22.611712 25042 net.cpp:91] Creating Layer concat
I0924 02:25:22.611719 25042 net.cpp:425] concat <- lstm1
I0924 02:25:22.611727 25042 net.cpp:425] concat <- embedded_input_sentence
I0924 02:25:22.611721 25018 net.cpp:156] Memory required for data: 14008
I0924 02:25:22.611749 25042 net.cpp:425] concat <- reshaped_stage_indicator
I0924 02:25:22.611757 25042 net.cpp:399] concat -> lstm1_video_sequence
I0924 02:25:22.611755 25018 layer_factory.hpp:77] Creating layer lstm2_cont_slice
I0924 02:25:22.611783 25018 net.cpp:91] Creating Layer lstm2_cont_slice
I0924 02:25:22.611789 25018 net.cpp:425] lstm2_cont_slice <- cont
I0924 02:25:22.611799 25018 net.cpp:399] lstm2_cont_slice -> cont_1
I0924 02:25:22.611914 25042 net.cpp:141] Setting up concat
I0924 02:25:22.611927 25042 net.cpp:148] Top shape: 1 1 1501 (1501)
I0924 02:25:22.611930 25042 net.cpp:156] Memory required for data: 32412
I0924 02:25:22.611937 25042 layer_factory.hpp:77] Creating layer lstm2
I0924 02:25:22.611949 25042 net.cpp:91] Creating Layer lstm2
I0924 02:25:22.611954 25042 net.cpp:425] lstm2 <- lstm1_video_sequence
I0924 02:25:22.611953 25018 net.cpp:141] Setting up lstm2_cont_slice
I0924 02:25:22.611961 25042 net.cpp:425] lstm2 <- cont_sentence_input_1_split_1
I0924 02:25:22.611966 25018 net.cpp:148] Top shape: 1 1 (1)
I0924 02:25:22.611969 25042 net.cpp:399] lstm2 -> lstm2
I0924 02:25:22.611973 25018 net.cpp:156] Memory required for data: 14012
I0924 02:25:22.611977 25018 layer_factory.hpp:77] Creating layer cont_1_lstm2_cont_slice_0_split
I0924 02:25:22.611981 25042 recurrent_layer.cpp:20] Initializing recurrent layer: assuming input batch contains 1 timesteps of 1 independent streams.
I0924 02:25:22.611991 25018 net.cpp:91] Creating Layer cont_1_lstm2_cont_slice_0_split
I0924 02:25:22.611997 25018 net.cpp:425] cont_1_lstm2_cont_slice_0_split <- cont_1
I0924 02:25:22.612005 25018 net.cpp:399] cont_1_lstm2_cont_slice_0_split -> cont_1_lstm2_cont_slice_0_split_0
I0924 02:25:22.612015 25018 net.cpp:399] cont_1_lstm2_cont_slice_0_split -> cont_1_lstm2_cont_slice_0_split_1
I0924 02:25:22.612077 25018 net.cpp:141] Setting up cont_1_lstm2_cont_slice_0_split
I0924 02:25:22.612087 25018 net.cpp:148] Top shape: 1 1 (1)
I0924 02:25:22.612093 25018 net.cpp:148] Top shape: 1 1 (1)
I0924 02:25:22.612098 25018 net.cpp:156] Memory required for data: 14020
I0924 02:25:22.612103 25018 layer_factory.hpp:77] Creating layer lstm2_x_transform
I0924 02:25:22.612118 25018 net.cpp:91] Creating Layer lstm2_x_transform
I0924 02:25:22.612123 25018 net.cpp:425] lstm2_x_transform <- x
I0924 02:25:22.612130 25018 net.cpp:399] lstm2_x_transform -> W_xc_x
I0924 02:25:22.612232 25042 net.cpp:49] Initializing net from parameters: 
layer {
  name: "lstm2_"
  type: "Input"
  top: "x"
  top: "cont"
  input_param {
    shape {
      dim: 1
      dim: 1
      dim: 1501
    }
    shape {
      dim: 1
      dim: 1
    }
  }
}
layer {
  name: "lstm2_"
  type: "Input"
  top: "c_0"
  top: "h_0"
  input_param {
    shape {
      dim: 1
      dim: 1
      dim: 1000
    }
    shape {
      dim: 1
      dim: 1
      dim: 1000
    }
  }
}
layer {
  name: "lstm2_cont_slice"
  type: "Slice"
  bottom: "cont"
  top: "cont_1"
  slice_param {
    axis: 0
  }
}
layer {
  name: "lstm2_x_transform"
  type: "InnerProduct"
  bottom: "x"
  top: "W_xc_x"
  param {
    name: "W_xc"
  }
  param {
    name: "b_c"
  }
  propagate_down: true
  inner_product_param {
    num_output: 4000
    bias_term: true
    weight_filler {
      type: "uniform"
      min: -0.08
      max: 0.08
    }
    bias_filler {
      type: "constant"
      value: 0
    }
    axis: 2
  }
}
layer {
  name: "lstm2_W_xc_x_slice"
  type: "Slice"
  bottom: "W_xc_x"
  top: "W_xc_x_1"
  slice_param {
    axis: 0
  }
}
layer {
  name: "lstm2_h_conted_0"
  type: "Scale"
  bottom: "h_0"
  bottom: "cont_1"
  top: "h_conted_0"
  scale_param {
    axis: 0
  }
}
layer {
  name: "lstm2_transform_1"
  type: "InnerProduct"
  bottom: "h_conted_0"
  top: "W_hc_h_0"
  param {
    name: "W_hc"
  }
  inner_product_param {
    num_output: 4000
    bias_term: false
    weight_filler {
      type: "uniform"
      min: -0.08
      max: 0.08
    }
    axis: 2
  }
}
layer {
  name: "lstm2_gate_input_1"
  type: "Eltwise"
  bottom: "W_hc_h_0"
  bottom: "W_xc_x_1"
  top: "gate_input_1"
  eltwise_param {
    operation: SUM
  }
}
layer {
  name: "lstm2_unit_1"
  type: "LSTMUnit"
  bottom: "c_0"
  bottom: "gate_input_1"
  bottom: "cont_1"
  top: "c_1"
  top: "h_1"
}
layer {
  name: "lstm2_"
  type: "Split"
  bottom: "c_1"
  top: "c_T"
}
layer {
  name: "lstm2_h_concat"
  type: "Concat"
  bottom: "h_1"
  top: "h"
  concat_param {
    axis: 0
  }
}
layer {
  name: "h_pseudoloss"
  type: "Reduction"
  bottom: "h"
  top: "h_pseudoloss"
  loss_weight: 1
}
I0924 02:25:22.612320 25042 layer_factory.hpp:77] Creating layer lstm2_
I0924 02:25:22.612331 25042 net.cpp:91] Creating Layer lstm2_
I0924 02:25:22.612339 25042 net.cpp:399] lstm2_ -> x
I0924 02:25:22.612349 25042 net.cpp:399] lstm2_ -> cont
I0924 02:25:22.626874 25036 net.cpp:141] Setting up lstm2_x_transform
I0924 02:25:22.626927 25036 net.cpp:148] Top shape: 1 1 4000 (4000)
I0924 02:25:22.626938 25036 net.cpp:156] Memory required for data: 30020
I0924 02:25:22.626971 25036 layer_factory.hpp:77] Creating layer lstm2_W_xc_x_slice
I0924 02:25:22.626983 25042 net.cpp:141] Setting up lstm2_
I0924 02:25:22.627027 25042 net.cpp:148] Top shape: 1 1 1501 (1501)
I0924 02:25:22.627035 25042 net.cpp:148] Top shape: 1 1 (1)
I0924 02:25:22.626996 25036 net.cpp:91] Creating Layer lstm2_W_xc_x_slice
I0924 02:25:22.627040 25042 net.cpp:156] Memory required for data: 6008
I0924 02:25:22.627066 25042 layer_factory.hpp:77] Creating layer lstm2_
I0924 02:25:22.627063 25036 net.cpp:425] lstm2_W_xc_x_slice <- W_xc_x
I0924 02:25:22.627113 25042 net.cpp:91] Creating Layer lstm2_
I0924 02:25:22.627115 25036 net.cpp:399] lstm2_W_xc_x_slice -> W_xc_x_1
I0924 02:25:22.627125 25042 net.cpp:399] lstm2_ -> c_0
I0924 02:25:22.627143 25042 net.cpp:399] lstm2_ -> h_0
I0924 02:25:22.627382 25036 net.cpp:141] Setting up lstm2_W_xc_x_slice
I0924 02:25:22.627400 25036 net.cpp:148] Top shape: 1 1 4000 (4000)
I0924 02:25:22.627408 25036 net.cpp:156] Memory required for data: 46020
I0924 02:25:22.627414 25036 layer_factory.hpp:77] Creating layer lstm2_h_conted_0
I0924 02:25:22.627426 25036 net.cpp:91] Creating Layer lstm2_h_conted_0
I0924 02:25:22.627431 25036 net.cpp:425] lstm2_h_conted_0 <- h_0
I0924 02:25:22.627439 25036 net.cpp:425] lstm2_h_conted_0 <- cont_1_lstm2_cont_slice_0_split_0
I0924 02:25:22.627446 25036 net.cpp:399] lstm2_h_conted_0 -> h_conted_0
I0924 02:25:22.627444 25042 net.cpp:141] Setting up lstm2_
I0924 02:25:22.627468 25042 net.cpp:148] Top shape: 1 1 1000 (1000)
I0924 02:25:22.627475 25042 net.cpp:148] Top shape: 1 1 1000 (1000)
I0924 02:25:22.627478 25042 net.cpp:156] Memory required for data: 14008
I0924 02:25:22.627483 25042 layer_factory.hpp:77] Creating layer lstm2_cont_slice
I0924 02:25:22.627496 25042 net.cpp:91] Creating Layer lstm2_cont_slice
I0924 02:25:22.627501 25042 net.cpp:425] lstm2_cont_slice <- cont
I0924 02:25:22.627509 25042 net.cpp:399] lstm2_cont_slice -> cont_1
I0924 02:25:22.627629 25036 net.cpp:141] Setting up lstm2_h_conted_0
I0924 02:25:22.627640 25036 net.cpp:148] Top shape: 1 1 1000 (1000)
I0924 02:25:22.627645 25036 net.cpp:156] Memory required for data: 50020
I0924 02:25:22.627650 25036 layer_factory.hpp:77] Creating layer lstm2_transform_1
I0924 02:25:22.627665 25036 net.cpp:91] Creating Layer lstm2_transform_1
I0924 02:25:22.627671 25036 net.cpp:425] lstm2_transform_1 <- h_conted_0
I0924 02:25:22.627670 25042 net.cpp:141] Setting up lstm2_cont_slice
I0924 02:25:22.627681 25042 net.cpp:148] Top shape: 1 1 (1)
I0924 02:25:22.627684 25036 net.cpp:399] lstm2_transform_1 -> W_hc_h_0
I0924 02:25:22.627686 25042 net.cpp:156] Memory required for data: 14012
I0924 02:25:22.627692 25042 layer_factory.hpp:77] Creating layer cont_1_lstm2_cont_slice_0_split
I0924 02:25:22.627701 25042 net.cpp:91] Creating Layer cont_1_lstm2_cont_slice_0_split
I0924 02:25:22.627707 25042 net.cpp:425] cont_1_lstm2_cont_slice_0_split <- cont_1
I0924 02:25:22.627717 25042 net.cpp:399] cont_1_lstm2_cont_slice_0_split -> cont_1_lstm2_cont_slice_0_split_0
I0924 02:25:22.627725 25042 net.cpp:399] cont_1_lstm2_cont_slice_0_split -> cont_1_lstm2_cont_slice_0_split_1
I0924 02:25:22.627795 25042 net.cpp:141] Setting up cont_1_lstm2_cont_slice_0_split
I0924 02:25:22.627805 25042 net.cpp:148] Top shape: 1 1 (1)
I0924 02:25:22.627811 25042 net.cpp:148] Top shape: 1 1 (1)
I0924 02:25:22.627816 25042 net.cpp:156] Memory required for data: 14020
I0924 02:25:22.627821 25042 layer_factory.hpp:77] Creating layer lstm2_x_transform
I0924 02:25:22.627835 25042 net.cpp:91] Creating Layer lstm2_x_transform
I0924 02:25:22.627840 25042 net.cpp:425] lstm2_x_transform <- x
I0924 02:25:22.627851 25042 net.cpp:399] lstm2_x_transform -> W_xc_x
I0924 02:25:22.649132 25044 net.cpp:141] Setting up conv1
I0924 02:25:22.649185 25044 net.cpp:148] Top shape: 10 96 55 55 (2904000)
I0924 02:25:22.649193 25044 net.cpp:156] Memory required for data: 17799480
I0924 02:25:22.649217 25044 layer_factory.hpp:77] Creating layer relu1
I0924 02:25:22.649236 25044 net.cpp:91] Creating Layer relu1
I0924 02:25:22.649245 25044 net.cpp:425] relu1 <- conv1
I0924 02:25:22.649252 25044 net.cpp:386] relu1 -> conv1 (in-place)
I0924 02:25:22.649735 25044 net.cpp:141] Setting up relu1
I0924 02:25:22.649749 25044 net.cpp:148] Top shape: 10 96 55 55 (2904000)
I0924 02:25:22.649755 25044 net.cpp:156] Memory required for data: 29415480
I0924 02:25:22.649760 25044 layer_factory.hpp:77] Creating layer pool1
I0924 02:25:22.649775 25044 net.cpp:91] Creating Layer pool1
I0924 02:25:22.649780 25044 net.cpp:425] pool1 <- conv1
I0924 02:25:22.649788 25044 net.cpp:399] pool1 -> pool1
I0924 02:25:22.649871 25044 net.cpp:141] Setting up pool1
I0924 02:25:22.649883 25044 net.cpp:148] Top shape: 10 96 27 27 (699840)
I0924 02:25:22.649888 25044 net.cpp:156] Memory required for data: 32214840
I0924 02:25:22.649893 25044 layer_factory.hpp:77] Creating layer norm1
I0924 02:25:22.649910 25044 net.cpp:91] Creating Layer norm1
I0924 02:25:22.649916 25044 net.cpp:425] norm1 <- pool1
I0924 02:25:22.649924 25044 net.cpp:399] norm1 -> norm1
I0924 02:25:22.650192 25044 net.cpp:141] Setting up norm1
I0924 02:25:22.650204 25044 net.cpp:148] Top shape: 10 96 27 27 (699840)
I0924 02:25:22.650209 25044 net.cpp:156] Memory required for data: 35014200
I0924 02:25:22.650214 25044 layer_factory.hpp:77] Creating layer conv2
I0924 02:25:22.650229 25044 net.cpp:91] Creating Layer conv2
I0924 02:25:22.650235 25044 net.cpp:425] conv2 <- norm1
I0924 02:25:22.650243 25044 net.cpp:399] conv2 -> conv2
I0924 02:25:22.653655 25044 net.cpp:141] Setting up conv2
I0924 02:25:22.653697 25044 net.cpp:148] Top shape: 10 256 27 27 (1866240)
I0924 02:25:22.653704 25044 net.cpp:156] Memory required for data: 42479160
I0924 02:25:22.653723 25044 layer_factory.hpp:77] Creating layer relu2
I0924 02:25:22.653738 25044 net.cpp:91] Creating Layer relu2
I0924 02:25:22.653744 25044 net.cpp:425] relu2 <- conv2
I0924 02:25:22.653756 25044 net.cpp:386] relu2 -> conv2 (in-place)
I0924 02:25:22.654163 25044 net.cpp:141] Setting up relu2
I0924 02:25:22.654176 25044 net.cpp:148] Top shape: 10 256 27 27 (1866240)
I0924 02:25:22.654181 25044 net.cpp:156] Memory required for data: 49944120
I0924 02:25:22.654186 25044 layer_factory.hpp:77] Creating layer pool2
I0924 02:25:22.654201 25044 net.cpp:91] Creating Layer pool2
I0924 02:25:22.654207 25044 net.cpp:425] pool2 <- conv2
I0924 02:25:22.654216 25044 net.cpp:399] pool2 -> pool2
I0924 02:25:22.654281 25044 net.cpp:141] Setting up pool2
I0924 02:25:22.654292 25044 net.cpp:148] Top shape: 10 256 13 13 (432640)
I0924 02:25:22.654296 25044 net.cpp:156] Memory required for data: 51674680
I0924 02:25:22.654301 25044 layer_factory.hpp:77] Creating layer norm2
I0924 02:25:22.654316 25044 net.cpp:91] Creating Layer norm2
I0924 02:25:22.654321 25044 net.cpp:425] norm2 <- pool2
I0924 02:25:22.654330 25044 net.cpp:399] norm2 -> norm2
I0924 02:25:22.654630 25044 net.cpp:141] Setting up norm2
I0924 02:25:22.654644 25044 net.cpp:148] Top shape: 10 256 13 13 (432640)
I0924 02:25:22.654649 25044 net.cpp:156] Memory required for data: 53405240
I0924 02:25:22.654654 25044 layer_factory.hpp:77] Creating layer conv3
I0924 02:25:22.654670 25044 net.cpp:91] Creating Layer conv3
I0924 02:25:22.654678 25044 net.cpp:425] conv3 <- norm2
I0924 02:25:22.654686 25044 net.cpp:399] conv3 -> conv3
I0924 02:25:22.658341 25044 net.cpp:141] Setting up conv3
I0924 02:25:22.658370 25044 net.cpp:148] Top shape: 10 384 13 13 (648960)
I0924 02:25:22.658376 25044 net.cpp:156] Memory required for data: 56001080
I0924 02:25:22.658391 25044 layer_factory.hpp:77] Creating layer relu3
I0924 02:25:22.658402 25044 net.cpp:91] Creating Layer relu3
I0924 02:25:22.658408 25044 net.cpp:425] relu3 <- conv3
I0924 02:25:22.658418 25044 net.cpp:386] relu3 -> conv3 (in-place)
I0924 02:25:22.658691 25044 net.cpp:141] Setting up relu3
I0924 02:25:22.658710 25044 net.cpp:148] Top shape: 10 384 13 13 (648960)
I0924 02:25:22.658717 25044 net.cpp:156] Memory required for data: 58596920
I0924 02:25:22.658726 25044 layer_factory.hpp:77] Creating layer conv4
I0924 02:25:22.658747 25044 net.cpp:91] Creating Layer conv4
I0924 02:25:22.658758 25044 net.cpp:425] conv4 <- conv3
I0924 02:25:22.658776 25044 net.cpp:399] conv4 -> conv4
I0924 02:25:22.664554 25044 net.cpp:141] Setting up conv4
I0924 02:25:22.664604 25044 net.cpp:148] Top shape: 10 384 13 13 (648960)
I0924 02:25:22.664611 25044 net.cpp:156] Memory required for data: 61192760
I0924 02:25:22.664625 25044 layer_factory.hpp:77] Creating layer relu4
I0924 02:25:22.664643 25044 net.cpp:91] Creating Layer relu4
I0924 02:25:22.664649 25044 net.cpp:425] relu4 <- conv4
I0924 02:25:22.664657 25044 net.cpp:386] relu4 -> conv4 (in-place)
I0924 02:25:22.665082 25044 net.cpp:141] Setting up relu4
I0924 02:25:22.665096 25044 net.cpp:148] Top shape: 10 384 13 13 (648960)
I0924 02:25:22.665102 25044 net.cpp:156] Memory required for data: 63788600
I0924 02:25:22.665107 25044 layer_factory.hpp:77] Creating layer conv5
I0924 02:25:22.665124 25044 net.cpp:91] Creating Layer conv5
I0924 02:25:22.665130 25044 net.cpp:425] conv5 <- conv4
I0924 02:25:22.665138 25044 net.cpp:399] conv5 -> conv5
I0924 02:25:22.669064 25044 net.cpp:141] Setting up conv5
I0924 02:25:22.669106 25044 net.cpp:148] Top shape: 10 256 13 13 (432640)
I0924 02:25:22.669111 25044 net.cpp:156] Memory required for data: 65519160
I0924 02:25:22.669129 25044 layer_factory.hpp:77] Creating layer relu5
I0924 02:25:22.669144 25044 net.cpp:91] Creating Layer relu5
I0924 02:25:22.669150 25044 net.cpp:425] relu5 <- conv5
I0924 02:25:22.669162 25044 net.cpp:386] relu5 -> conv5 (in-place)
I0924 02:25:22.669239 25022 net.cpp:141] Setting up lstm2_x_transform
I0924 02:25:22.669260 25022 net.cpp:148] Top shape: 1 1 4000 (4000)
I0924 02:25:22.669267 25022 net.cpp:156] Memory required for data: 30020
I0924 02:25:22.669286 25022 layer_factory.hpp:77] Creating layer lstm2_W_xc_x_slice
I0924 02:25:22.669301 25022 net.cpp:91] Creating Layer lstm2_W_xc_x_slice
I0924 02:25:22.669309 25022 net.cpp:425] lstm2_W_xc_x_slice <- W_xc_x
I0924 02:25:22.669328 25022 net.cpp:399] lstm2_W_xc_x_slice -> W_xc_x_1
I0924 02:25:22.669649 25022 net.cpp:141] Setting up lstm2_W_xc_x_slice
I0924 02:25:22.669666 25022 net.cpp:148] Top shape: 1 1 4000 (4000)
I0924 02:25:22.669672 25022 net.cpp:156] Memory required for data: 46020
I0924 02:25:22.669679 25022 layer_factory.hpp:77] Creating layer lstm2_h_conted_0
I0924 02:25:22.669693 25022 net.cpp:91] Creating Layer lstm2_h_conted_0
I0924 02:25:22.669701 25022 net.cpp:425] lstm2_h_conted_0 <- h_0
I0924 02:25:22.669710 25022 net.cpp:425] lstm2_h_conted_0 <- cont_1_lstm2_cont_slice_0_split_0
I0924 02:25:22.669721 25022 net.cpp:399] lstm2_h_conted_0 -> h_conted_0
I0924 02:25:22.669880 25022 net.cpp:141] Setting up lstm2_h_conted_0
I0924 02:25:22.669896 25022 net.cpp:148] Top shape: 1 1 1000 (1000)
I0924 02:25:22.669904 25022 net.cpp:156] Memory required for data: 50020
I0924 02:25:22.669911 25022 layer_factory.hpp:77] Creating layer lstm2_transform_1
I0924 02:25:22.669929 25022 net.cpp:91] Creating Layer lstm2_transform_1
I0924 02:25:22.669936 25022 net.cpp:425] lstm2_transform_1 <- h_conted_0
I0924 02:25:22.669961 25022 net.cpp:399] lstm2_transform_1 -> W_hc_h_0
I0924 02:25:22.669975 25044 net.cpp:141] Setting up relu5
I0924 02:25:22.670009 25044 net.cpp:148] Top shape: 10 256 13 13 (432640)
I0924 02:25:22.670027 25044 net.cpp:156] Memory required for data: 67249720
I0924 02:25:22.670042 25044 layer_factory.hpp:77] Creating layer pool5
I0924 02:25:22.670066 25044 net.cpp:91] Creating Layer pool5
I0924 02:25:22.670084 25044 net.cpp:425] pool5 <- conv5
I0924 02:25:22.676656 25044 net.cpp:399] pool5 -> pool5
I0924 02:25:22.677587 25044 net.cpp:141] Setting up pool5
I0924 02:25:22.677613 25044 net.cpp:148] Top shape: 10 256 6 6 (92160)
I0924 02:25:22.677623 25044 net.cpp:156] Memory required for data: 67618360
I0924 02:25:22.677635 25044 layer_factory.hpp:77] Creating layer fc6
I0924 02:25:22.677662 25018 net.cpp:141] Setting up lstm2_x_transform
I0924 02:25:22.677680 25018 net.cpp:148] Top shape: 1 1 4000 (4000)
I0924 02:25:22.677678 25044 net.cpp:91] Creating Layer fc6
I0924 02:25:22.677686 25018 net.cpp:156] Memory required for data: 30020
I0924 02:25:22.677691 25044 net.cpp:425] fc6 <- pool5
I0924 02:25:22.677702 25018 layer_factory.hpp:77] Creating layer lstm2_W_xc_x_slice
I0924 02:25:22.677714 25018 net.cpp:91] Creating Layer lstm2_W_xc_x_slice
I0924 02:25:22.677712 25044 net.cpp:399] fc6 -> fc6
I0924 02:25:22.677721 25018 net.cpp:425] lstm2_W_xc_x_slice <- W_xc_x
I0924 02:25:22.677731 25018 net.cpp:399] lstm2_W_xc_x_slice -> W_xc_x_1
I0924 02:25:22.677822 25018 net.cpp:141] Setting up lstm2_W_xc_x_slice
I0924 02:25:22.677834 25018 net.cpp:148] Top shape: 1 1 4000 (4000)
I0924 02:25:22.677839 25018 net.cpp:156] Memory required for data: 46020
I0924 02:25:22.677845 25018 layer_factory.hpp:77] Creating layer lstm2_h_conted_0
I0924 02:25:22.677855 25018 net.cpp:91] Creating Layer lstm2_h_conted_0
I0924 02:25:22.677861 25018 net.cpp:425] lstm2_h_conted_0 <- h_0
I0924 02:25:22.677871 25018 net.cpp:425] lstm2_h_conted_0 <- cont_1_lstm2_cont_slice_0_split_0
I0924 02:25:22.677883 25018 net.cpp:399] lstm2_h_conted_0 -> h_conted_0
I0924 02:25:22.745069 25022 net.cpp:141] Setting up lstm2_transform_1
I0924 02:25:22.745121 25022 net.cpp:148] Top shape: 1 1 4000 (4000)
I0924 02:25:22.745127 25022 net.cpp:156] Memory required for data: 66020
I0924 02:25:22.745151 25022 layer_factory.hpp:77] Creating layer lstm2_gate_input_1
I0924 02:25:22.745178 25022 net.cpp:91] Creating Layer lstm2_gate_input_1
I0924 02:25:22.745174 25036 net.cpp:141] Setting up lstm2_transform_1
I0924 02:25:22.745193 25022 net.cpp:425] lstm2_gate_input_1 <- W_hc_h_0
I0924 02:25:22.745218 25036 net.cpp:148] Top shape: 1 1 4000 (4000)
I0924 02:25:22.745221 25022 net.cpp:425] lstm2_gate_input_1 <- W_xc_x_1
I0924 02:25:22.745223 25036 net.cpp:156] Memory required for data: 66020
I0924 02:25:22.745250 25022 net.cpp:399] lstm2_gate_input_1 -> gate_input_1
I0924 02:25:22.745267 25036 layer_factory.hpp:77] Creating layer lstm2_gate_input_1
I0924 02:25:22.745296 25036 net.cpp:91] Creating Layer lstm2_gate_input_1
I0924 02:25:22.745304 25036 net.cpp:425] lstm2_gate_input_1 <- W_hc_h_0
I0924 02:25:22.745303 25018 net.cpp:141] Setting up lstm2_h_conted_0
I0924 02:25:22.745314 25036 net.cpp:425] lstm2_gate_input_1 <- W_xc_x_1
I0924 02:25:22.745324 25036 net.cpp:399] lstm2_gate_input_1 -> gate_input_1
I0924 02:25:22.745327 25018 net.cpp:148] Top shape: 1 1 1000 (1000)
I0924 02:25:22.745337 25018 net.cpp:156] Memory required for data: 50020
I0924 02:25:22.745347 25018 layer_factory.hpp:77] Creating layer lstm2_transform_1
I0924 02:25:22.745367 25018 net.cpp:91] Creating Layer lstm2_transform_1
I0924 02:25:22.745376 25018 net.cpp:425] lstm2_transform_1 <- h_conted_0
I0924 02:25:22.745376 25022 net.cpp:141] Setting up lstm2_gate_input_1
I0924 02:25:22.745391 25018 net.cpp:399] lstm2_transform_1 -> W_hc_h_0
I0924 02:25:22.745394 25022 net.cpp:148] Top shape: 1 1 4000 (4000)
I0924 02:25:22.745404 25022 net.cpp:156] Memory required for data: 82020
I0924 02:25:22.745411 25022 layer_factory.hpp:77] Creating layer lstm2_unit_1
I0924 02:25:22.745425 25022 net.cpp:91] Creating Layer lstm2_unit_1
I0924 02:25:22.745434 25022 net.cpp:425] lstm2_unit_1 <- c_0
I0924 02:25:22.745445 25022 net.cpp:425] lstm2_unit_1 <- gate_input_1
I0924 02:25:22.745455 25022 net.cpp:425] lstm2_unit_1 <- cont_1_lstm2_cont_slice_0_split_1
I0924 02:25:22.745466 25022 net.cpp:399] lstm2_unit_1 -> c_1
I0924 02:25:22.745488 25022 net.cpp:399] lstm2_unit_1 -> h_1
I0924 02:25:22.745488 25042 net.cpp:141] Setting up lstm2_x_transform
I0924 02:25:22.745520 25042 net.cpp:148] Top shape: 1 1 4000 (4000)
I0924 02:25:22.745529 25042 net.cpp:156] Memory required for data: 30020
I0924 02:25:22.745546 25042 layer_factory.hpp:77] Creating layer lstm2_W_xc_x_slice
I0924 02:25:22.745558 25042 net.cpp:91] Creating Layer lstm2_W_xc_x_slice
I0924 02:25:22.745563 25042 net.cpp:425] lstm2_W_xc_x_slice <- W_xc_x
I0924 02:25:22.745571 25042 net.cpp:399] lstm2_W_xc_x_slice -> W_xc_x_1
I0924 02:25:22.745630 25036 net.cpp:141] Setting up lstm2_gate_input_1
I0924 02:25:22.745643 25036 net.cpp:148] Top shape: 1 1 4000 (4000)
I0924 02:25:22.745647 25036 net.cpp:156] Memory required for data: 82020
I0924 02:25:22.745652 25036 layer_factory.hpp:77] Creating layer lstm2_unit_1
I0924 02:25:22.745662 25036 net.cpp:91] Creating Layer lstm2_unit_1
I0924 02:25:22.745667 25036 net.cpp:425] lstm2_unit_1 <- c_0
I0924 02:25:22.745673 25036 net.cpp:425] lstm2_unit_1 <- gate_input_1
I0924 02:25:22.745679 25036 net.cpp:425] lstm2_unit_1 <- cont_1_lstm2_cont_slice_0_split_1
I0924 02:25:22.745692 25036 net.cpp:399] lstm2_unit_1 -> c_1
I0924 02:25:22.745702 25036 net.cpp:399] lstm2_unit_1 -> h_1
I0924 02:25:22.745717 25022 net.cpp:141] Setting up lstm2_unit_1
I0924 02:25:22.745730 25022 net.cpp:148] Top shape: 1 1 1000 (1000)
I0924 02:25:22.745736 25022 net.cpp:148] Top shape: 1 1 1000 (1000)
I0924 02:25:22.745741 25022 net.cpp:156] Memory required for data: 90020
I0924 02:25:22.745746 25022 layer_factory.hpp:77] Creating layer lstm2_
I0924 02:25:22.745755 25022 net.cpp:91] Creating Layer lstm2_
I0924 02:25:22.745759 25022 net.cpp:425] lstm2_ <- c_1
I0924 02:25:22.745767 25022 net.cpp:399] lstm2_ -> c_T
I0924 02:25:22.745791 25036 net.cpp:141] Setting up lstm2_unit_1
I0924 02:25:22.745802 25036 net.cpp:148] Top shape: 1 1 1000 (1000)
I0924 02:25:22.745808 25036 net.cpp:148] Top shape: 1 1 1000 (1000)
I0924 02:25:22.745813 25036 net.cpp:156] Memory required for data: 90020
I0924 02:25:22.745818 25036 layer_factory.hpp:77] Creating layer lstm2_
I0924 02:25:22.745826 25036 net.cpp:91] Creating Layer lstm2_
I0924 02:25:22.745831 25036 net.cpp:425] lstm2_ <- c_1
I0924 02:25:22.745838 25036 net.cpp:399] lstm2_ -> c_T
I0924 02:25:22.745848 25042 net.cpp:141] Setting up lstm2_W_xc_x_slice
I0924 02:25:22.745867 25042 net.cpp:148] Top shape: 1 1 4000 (4000)
I0924 02:25:22.745875 25042 net.cpp:156] Memory required for data: 46020
I0924 02:25:22.745880 25022 net.cpp:141] Setting up lstm2_
I0924 02:25:22.745884 25042 layer_factory.hpp:77] Creating layer lstm2_h_conted_0
I0924 02:25:22.745894 25022 net.cpp:148] Top shape: 1 1 1000 (1000)
I0924 02:25:22.745899 25042 net.cpp:91] Creating Layer lstm2_h_conted_0
I0924 02:25:22.745903 25022 net.cpp:156] Memory required for data: 94020
I0924 02:25:22.745908 25042 net.cpp:425] lstm2_h_conted_0 <- h_0
I0924 02:25:22.745910 25022 layer_factory.hpp:77] Creating layer lstm2_h_concat
I0924 02:25:22.745918 25042 net.cpp:425] lstm2_h_conted_0 <- cont_1_lstm2_cont_slice_0_split_0
I0924 02:25:22.745921 25036 net.cpp:141] Setting up lstm2_
I0924 02:25:22.745930 25042 net.cpp:399] lstm2_h_conted_0 -> h_conted_0
I0924 02:25:22.745923 25022 net.cpp:91] Creating Layer lstm2_h_concat
I0924 02:25:22.745945 25036 net.cpp:148] Top shape: 1 1 1000 (1000)
I0924 02:25:22.745959 25022 net.cpp:425] lstm2_h_concat <- h_1
I0924 02:25:22.745962 25036 net.cpp:156] Memory required for data: 94020
I0924 02:25:22.745977 25036 layer_factory.hpp:77] Creating layer lstm2_h_concat
I0924 02:25:22.745982 25022 net.cpp:399] lstm2_h_concat -> h
I0924 02:25:22.745990 25036 net.cpp:91] Creating Layer lstm2_h_concat
I0924 02:25:22.745997 25036 net.cpp:425] lstm2_h_concat <- h_1
I0924 02:25:22.746006 25036 net.cpp:399] lstm2_h_concat -> h
I0924 02:25:22.746038 25022 net.cpp:141] Setting up lstm2_h_concat
I0924 02:25:22.746049 25022 net.cpp:148] Top shape: 1 1 1000 (1000)
I0924 02:25:22.746054 25022 net.cpp:156] Memory required for data: 98020
I0924 02:25:22.746059 25022 layer_factory.hpp:77] Creating layer h_pseudoloss
I0924 02:25:22.746073 25022 net.cpp:91] Creating Layer h_pseudoloss
I0924 02:25:22.746079 25022 net.cpp:425] h_pseudoloss <- h
I0924 02:25:22.746088 25022 net.cpp:399] h_pseudoloss -> h_pseudoloss
I0924 02:25:22.756332 25036 net.cpp:141] Setting up lstm2_h_concat
I0924 02:25:22.756378 25036 net.cpp:148] Top shape: 1 1 1000 (1000)
I0924 02:25:22.756386 25036 net.cpp:156] Memory required for data: 98020
I0924 02:25:22.756395 25036 layer_factory.hpp:77] Creating layer h_pseudoloss
I0924 02:25:22.756427 25036 net.cpp:91] Creating Layer h_pseudoloss
I0924 02:25:22.756435 25036 net.cpp:425] h_pseudoloss <- h
I0924 02:25:22.756449 25036 net.cpp:399] h_pseudoloss -> h_pseudoloss
I0924 02:25:22.756527 25042 net.cpp:141] Setting up lstm2_h_conted_0
I0924 02:25:22.756554 25022 net.cpp:141] Setting up h_pseudoloss
I0924 02:25:22.756577 25042 net.cpp:148] Top shape: 1 1 1000 (1000)
I0924 02:25:22.756577 25022 net.cpp:148] Top shape: (1)
I0924 02:25:22.756597 25042 net.cpp:156] Memory required for data: 50020
I0924 02:25:22.756609 25042 layer_factory.hpp:77] Creating layer lstm2_transform_1
I0924 02:25:22.756600 25022 net.cpp:151]     with loss weight 1
I0924 02:25:22.756628 25022 net.cpp:156] Memory required for data: 98024
I0924 02:25:22.756635 25042 net.cpp:91] Creating Layer lstm2_transform_1
…
I0924 02:25:22.756954 25036 net.cpp:274] Network initialization done.
I0924 02:25:22.757037 25036 recurrent_layer.cpp:150] Adding parameter 0: W_xc
I0924 02:25:22.757050 25036 recurrent_layer.cpp:150] Adding parameter 1: b_c
I0924 02:25:22.757073 25036 recurrent_layer.cpp:150] Adding parameter 2: W_hc
I0924 02:25:22.757046 25022 recurrent_layer.cpp:150] Adding parameter 0: W_xc
I0924 02:25:22.757102 25022 recurrent_layer.cpp:150] Adding parameter 1: b_c
I0924 02:25:22.757112 25022 recurrent_layer.cpp:150] Adding parameter 2: W_hc
I0924 02:25:22.766216 25036 net.cpp:141] Setting up lstm2
I0924 02:25:22.766268 25036 net.cpp:148] Top shape: 1 1 1000 (1000)
I0924 02:25:22.766278 25036 net.cpp:156] Memory required for data: 36412
I0924 02:25:22.766309 25036 layer_factory.hpp:77] Creating layer predict
I0924 02:25:22.766340 25036 net.cpp:91] Creating Layer predict
I0924 02:25:22.766355 25036 net.cpp:425] predict <- lstm2
I0924 02:25:22.766371 25036 net.cpp:399] predict -> predict
I0924 02:25:22.766374 25022 net.cpp:141] Setting up lstm2
I0924 02:25:22.766417 25022 net.cpp:148] Top shape: 1 1 1000 (1000)
I0924 02:25:22.766423 25022 net.cpp:156] Memory required for data: 36412
I0924 02:25:22.766446 25022 layer_factory.hpp:77] Creating layer predict
I0924 02:25:22.766465 25022 net.cpp:91] Creating Layer predict
I0924 02:25:22.766474 25022 net.cpp:425] predict <- lstm2
I0924 02:25:22.766484 25022 net.cpp:399] predict -> predict
I0924 02:25:22.867707 25044 net.cpp:141] Setting up fc6
I0924 02:25:22.867763 25044 net.cpp:148] Top shape: 10 4096 (40960)
I0924 02:25:22.867774 25044 net.cpp:156] Memory required for data: 67782200
I0924 02:25:22.867779 25042 net.cpp:141] Setting up lstm2_transform_1
I0924 02:25:22.867794 25044 layer_factory.hpp:77] Creating layer relu6
I0924 02:25:22.867806 25042 net.cpp:148] Top shape: 1 1 4000 (4000)
I0924 02:25:22.867818 25042 net.cpp:156] Memory required for data: 66020
I0924 02:25:22.867820 25044 net.cpp:91] Creating Layer relu6
I0924 02:25:22.867833 25044 net.cpp:425] relu6 <- fc6
I0924 02:25:22.867843 25042 layer_factory.hpp:77] Creating layer lstm2_gate_input_1
I0924 02:25:22.867846 25044 net.cpp:386] relu6 -> fc6 (in-place)
I0924 02:25:22.867875 25042 net.cpp:91] Creating Layer lstm2_gate_input_1
I0924 02:25:22.867890 25042 net.cpp:425] lstm2_gate_input_1 <- W_hc_h_0
I0924 02:25:22.867904 25042 net.cpp:425] lstm2_gate_input_1 <- W_xc_x_1
I0924 02:25:22.867928 25042 net.cpp:399] lstm2_gate_input_1 -> gate_input_1
I0924 02:25:22.946496 25018 net.cpp:141] Setting up lstm2_transform_1
I0924 02:25:22.946555 25018 net.cpp:148] Top shape: 1 1 4000 (4000)
I0924 02:25:22.946565 25018 net.cpp:156] Memory required for data: 66020
I0924 02:25:22.946593 25018 layer_factory.hpp:77] Creating layer lstm2_gate_input_1
I0924 02:25:22.946642 25018 net.cpp:91] Creating Layer lstm2_gate_input_1
I0924 02:25:22.946653 25018 net.cpp:425] lstm2_gate_input_1 <- W_hc_h_0
I0924 02:25:22.946667 25018 net.cpp:425] lstm2_gate_input_1 <- W_xc_x_1
I0924 02:25:22.946682 25018 net.cpp:399] lstm2_gate_input_1 -> gate_input_1
I0924 02:25:22.946797 25042 net.cpp:141] Setting up lstm2_gate_input_1
I0924 02:25:22.946815 25042 net.cpp:148] Top shape: 1 1 4000 (4000)
I0924 02:25:22.946872 25018 net.cpp:141] Setting up lstm2_gate_input_1
I0924 02:25:22.946887 25018 net.cpp:148] Top shape: 1 1 4000 (4000)
I0924 02:25:22.946894 25018 net.cpp:156] Memory required for data: 82020
I0924 02:25:22.946903 25018 layer_factory.hpp:77] Creating layer lstm2_unit_1
I0924 02:25:22.946916 25018 net.cpp:91] Creating Layer lstm2_unit_1
I0924 02:25:22.946925 25018 net.cpp:425] lstm2_unit_1 <- c_0
I0924 02:25:22.946935 25018 net.cpp:425] lstm2_unit_1 <- gate_input_1
I0924 02:25:22.946944 25018 net.cpp:425] lstm2_unit_1 <- cont_1_lstm2_cont_slice_0_split_1
I0924 02:25:22.946961 25018 net.cpp:399] lstm2_unit_1 -> c_1
I0924 02:25:22.946977 25018 net.cpp:399] lstm2_unit_1 -> h_1
I0924 02:25:22.946822 25042 net.cpp:156] Memory required for data: 82020
I0924 02:25:22.947010 25042 layer_factory.hpp:77] Creating layer lstm2_unit_1
I0924 02:25:22.947037 25042 net.cpp:91] Creating Layer lstm2_unit_1
I0924 02:25:22.947188 25018 net.cpp:141] Setting up lstm2_unit_1
I0924 02:25:22.947203 25018 net.cpp:148] Top shape: 1 1 1000 (1000)
I0924 02:25:22.947212 25018 net.cpp:148] Top shape: 1 1 1000 (1000)
I0924 02:25:22.947221 25018 net.cpp:156] Memory required for data: 90020
I0924 02:25:22.947218 25044 net.cpp:141] Setting up relu6
I0924 02:25:22.947229 25018 layer_factory.hpp:77] Creating layer lstm2_
I0924 02:25:22.947240 25044 net.cpp:148] Top shape: 10 4096 (40960)
I0924 02:25:22.947248 25018 net.cpp:91] Creating Layer lstm2_
I0924 02:25:22.947248 25044 net.cpp:156] Memory required for data: 67946040
I0924 02:25:22.947271 25018 net.cpp:425] lstm2_ <- c_1
I0924 02:25:22.947275 25044 layer_factory.hpp:77] Creating layer drop6
I0924 02:25:22.947288 25018 net.cpp:399] lstm2_ -> c_T
I0924 02:25:22.947300 25044 net.cpp:91] Creating Layer drop6
I0924 02:25:22.947309 25044 net.cpp:425] drop6 <- fc6
I0924 02:25:22.947320 25044 net.cpp:386] drop6 -> fc6 (in-place)
I0924 02:25:22.947346 25018 net.cpp:141] Setting up lstm2_
I0924 02:25:22.947365 25018 net.cpp:148] Top shape: 1 1 1000 (1000)
I0924 02:25:22.947373 25018 net.cpp:156] Memory required for data: 94020
I0924 02:25:22.947382 25018 layer_factory.hpp:77] Creating layer lstm2_h_concat
I0924 02:25:22.947394 25044 net.cpp:141] Setting up drop6
I0924 02:25:22.947398 25018 net.cpp:91] Creating Layer lstm2_h_concat
I0924 02:25:22.947408 25044 net.cpp:148] Top shape: 10 4096 (40960)
I0924 02:25:22.947409 25018 net.cpp:425] lstm2_h_concat <- h_1
I0924 02:25:22.947417 25044 net.cpp:156] Memory required for data: 68109880
I0924 02:25:22.947424 25044 layer_factory.hpp:77] Creating layer fc7
I0924 02:25:22.947430 25018 net.cpp:399] lstm2_h_concat -> h
I0924 02:25:22.947440 25044 net.cpp:91] Creating Layer fc7
I0924 02:25:22.947449 25044 net.cpp:425] fc7 <- fc6
I0924 02:25:22.947459 25044 net.cpp:399] fc7 -> fc7
I0924 02:25:22.947510 25018 net.cpp:141] Setting up lstm2_h_concat
I0924 02:25:22.947528 25018 net.cpp:148] Top shape: 1 1 1000 (1000)
I0924 02:25:22.947537 25018 net.cpp:156] Memory required for data: 98020
I0924 02:25:22.947546 25018 layer_factory.hpp:77] Creating layer h_pseudoloss
I0924 02:25:22.947561 25018 net.cpp:91] Creating Layer h_pseudoloss
I0924 02:25:22.947572 25018 net.cpp:425] h_pseudoloss <- h
I0924 02:25:22.947587 25018 net.cpp:399] h_pseudoloss -> h_pseudoloss
I0924 02:25:22.947135 25042 net.cpp:425] lstm2_unit_1 <- c_0
I0924 02:25:22.947631 25042 net.cpp:425] lstm2_unit_1 <- gate_input_1
I0924 02:25:22.947644 25042 net.cpp:425] lstm2_unit_1 <- cont_1_lstm2_cont_slice_0_split_1
I0924 02:25:22.947664 25042 net.cpp:399] lstm2_unit_1 -> c_1
I0924 02:25:22.947684 25042 net.cpp:399] lstm2_unit_1 -> h_1
I0924 02:25:22.981789 25018 net.cpp:141] Setting up h_pseudoloss
I0924 02:25:22.981808 25042 net.cpp:141] Setting up lstm2_unit_1
I0924 02:25:22.981847 25018 net.cpp:148] Top shape: (1)
I0924 02:25:22.981848 25042 net.cpp:148] Top shape: 1 1 1000 (1000)
I0924 02:25:22.981865 25042 net.cpp:148] Top shape: 1 1 1000 (1000)
I0924 02:25:22.981871 25042 net.cpp:156] Memory required for data: 90020
I0924 02:25:22.981861 25018 net.cpp:151]     with loss weight 1
I0924 02:25:22.981879 25042 layer_factory.hpp:77] Creating layer lstm2_
I0924 02:25:22.981894 25018 net.cpp:156] Memory required for data: 98024
I0924 02:25:22.981904 25018 net.cpp:217] h_pseudoloss needs backward computation.
I0924 02:25:22.981909 25042 net.cpp:91] Creating Layer lstm2_
I0924 02:25:22.981914 25018 net.cpp:217] lstm2_h_concat needs backward computation.
I0924 02:25:22.981916 25042 net.cpp:425] lstm2_ <- c_1
I0924 02:25:22.981928 25018 net.cpp:219] lstm2_ does not need backward computation.
I0924 02:25:22.981937 25042 net.cpp:399] lstm2_ -> c_T
I0924 02:25:22.981940 25018 net.cpp:217] lstm2_unit_1 needs backward computation.
I0924 02:25:22.981952 25018 net.cpp:217] lstm2_gate_input_1 needs backward computation.
I0924 02:25:22.981963 25018 net.cpp:217] lstm2_transform_1 needs backward computation.
I0924 02:25:22.981972 25018 net.cpp:219] lstm2_h_conted_0 does not need backward computation.
I0924 02:25:22.981982 25018 net.cpp:217] lstm2_W_xc_x_slice needs backward computation.
I0924 02:25:22.981987 25042 net.cpp:141] Setting up lstm2_
I0924 02:25:22.981990 25018 net.cpp:217] lstm2_x_transform needs backward computation.
I0924 02:25:22.981997 25042 net.cpp:148] Top shape: 1 1 1000 (1000)
I0924 02:25:22.982002 25042 net.cpp:156] Memory required for data: 94020
I0924 02:25:22.981999 25018 net.cpp:219] cont_1_lstm2_cont_slice_0_split does not need backward computation.
I0924 02:25:22.982007 25042 layer_factory.hpp:77] Creating layer lstm2_h_concat
I0924 02:25:22.982017 25018 net.cpp:219] lstm2_cont_slice does not need backward computation.
I0924 02:25:22.982018 25042 net.cpp:91] Creating Layer lstm2_h_concat
I0924 02:25:22.982033 25042 net.cpp:425] lstm2_h_concat <- h_1
I0924 02:25:22.982033 25018 net.cpp:219] lstm2_ does not need backward computation.
I0924 02:25:22.982043 25018 net.cpp:219] lstm2_ does not need backward computation.
I0924 02:25:22.982044 25042 net.cpp:399] lstm2_h_concat -> h
I0924 02:25:22.982049 25018 net.cpp:261] This network produces output c_T
I0924 02:25:22.982059 25018 net.cpp:261] This network produces output h_pseudoloss
I0924 02:25:22.982081 25018 net.cpp:274] Network initialization done.
I0924 02:25:22.982084 25042 net.cpp:141] Setting up lstm2_h_concat
I0924 02:25:22.982095 25042 net.cpp:148] Top shape: 1 1 1000 (1000)
I0924 02:25:22.982098 25042 net.cpp:156] Memory required for data: 98020
I0924 02:25:22.982103 25042 layer_factory.hpp:77] Creating layer h_pseudoloss
I0924 02:25:22.982116 25042 net.cpp:91] Creating Layer h_pseudoloss
I0924 02:25:22.982122 25042 net.cpp:425] h_pseudoloss <- h
I0924 02:25:22.982130 25042 net.cpp:399] h_pseudoloss -> h_pseudoloss
I0924 02:25:22.982152 25018 recurrent_layer.cpp:150] Adding parameter 0: W_xc
…
I0924 02:25:22.982352 25042 net.cpp:219] cont_1_lstm2_cont_slice_0_split does not need backward computation.
I0924 02:25:22.982357 25042 net.cpp:219] lstm2_cont_slice does not need backward computation.
I0924 02:25:22.982362 25042 net.cpp:219] lstm2_ does not need backward computation.
I0924 02:25:22.982367 25042 net.cpp:219] lstm2_ does not need backward computation.
I0924 02:25:22.982369 25042 net.cpp:261] This network produces output c_T
I0924 02:25:22.982374 25042 net.cpp:261] This network produces output h_pseudoloss
I0924 02:25:22.982394 25042 net.cpp:274] Network initialization done.
I0924 02:25:22.982396 25018 net.cpp:141] Setting up lstm2
I0924 02:25:22.982415 25018 net.cpp:148] Top shape: 1 1 1000 (1000)
I0924 02:25:22.982424 25018 net.cpp:156] Memory required for data: 36412
I0924 02:25:22.982437 25042 recurrent_layer.cpp:150] Adding parameter 0: W_xc
I0924 02:25:22.982447 25042 recurrent_layer.cpp:150] Adding parameter 1: b_c
I0924 02:25:22.982450 25018 layer_factory.hpp:77] Creating layer predict
I0924 02:25:22.982452 25042 recurrent_layer.cpp:150] Adding parameter 2: W_hc
I0924 02:25:22.982482 25018 net.cpp:91] Creating Layer predict
I0924 02:25:22.982494 25018 net.cpp:425] predict <- lstm2
I0924 02:25:22.982506 25018 net.cpp:399] predict -> predict
I0924 02:25:22.982640 25042 net.cpp:141] Setting up lstm2
I0924 02:25:22.982655 25042 net.cpp:148] Top shape: 1 1 1000 (1000)
I0924 02:25:22.982659 25042 net.cpp:156] Memory required for data: 36412
I0924 02:25:22.982674 25042 layer_factory.hpp:77] Creating layer predict
I0924 02:25:22.982686 25042 net.cpp:91] Creating Layer predict
I0924 02:25:22.982692 25042 net.cpp:425] predict <- lstm2
I0924 02:25:22.982699 25042 net.cpp:399] predict -> predict
I0924 02:25:23.157737 25044 net.cpp:141] Setting up fc7
I0924 02:25:23.158232 25044 net.cpp:148] Top shape: 10 4096 (40960)
I0924 02:25:23.158437 25044 net.cpp:156] Memory required for data: 68273720
I0924 02:25:23.158586 25044 layer_factory.hpp:77] Creating layer relu7
I0924 02:25:23.158782 25044 net.cpp:91] Creating Layer relu7
I0924 02:25:23.158798 25044 net.cpp:425] relu7 <- fc7
I0924 02:25:23.158815 25044 net.cpp:386] relu7 -> fc7 (in-place)
I0924 02:25:23.159603 25044 net.cpp:141] Setting up relu7
I0924 02:25:23.159628 25044 net.cpp:148] Top shape: 10 4096 (40960)
I0924 02:25:23.159639 25044 net.cpp:156] Memory required for data: 68437560
I0924 02:25:23.159651 25044 layer_factory.hpp:77] Creating layer drop7
I0924 02:25:23.159673 25044 net.cpp:91] Creating Layer drop7
I0924 02:25:23.159687 25044 net.cpp:425] drop7 <- fc7
I0924 02:25:23.159699 25044 net.cpp:386] drop7 -> fc7 (in-place)
I0924 02:25:23.159797 25044 net.cpp:141] Setting up drop7
I0924 02:25:23.159816 25044 net.cpp:148] Top shape: 10 4096 (40960)
I0924 02:25:23.159826 25044 net.cpp:156] Memory required for data: 68601400
I0924 02:25:23.159834 25044 layer_factory.hpp:77] Creating layer fc8
I0924 02:25:23.159852 25044 net.cpp:91] Creating Layer fc8
I0924 02:25:23.159862 25044 net.cpp:425] fc8 <- fc7
I0924 02:25:23.159883 25044 net.cpp:399] fc8 -> fc8
I0924 02:25:23.172987 25044 net.cpp:141] Setting up fc8
I0924 02:25:23.173048 25044 net.cpp:148] Top shape: 10 1000 (10000)
I0924 02:25:23.173058 25044 net.cpp:156] Memory required for data: 68641400
I0924 02:25:23.173079 25044 layer_factory.hpp:77] Creating layer prob
I0924 02:25:23.173100 25044 net.cpp:91] Creating Layer prob
I0924 02:25:23.173111 25044 net.cpp:425] prob <- fc8
I0924 02:25:23.173125 25044 net.cpp:399] prob -> prob
I0924 02:25:23.173809 25044 net.cpp:141] Setting up prob
I0924 02:25:23.173830 25044 net.cpp:148] Top shape: 10 1000 (10000)
I0924 02:25:23.173840 25044 net.cpp:156] Memory required for data: 68681400
I0924 02:25:23.173849 25044 net.cpp:219] prob does not need backward computation.
I0924 02:25:23.173859 25044 net.cpp:219] fc8 does not need backward computation.
I0924 02:25:23.173869 25044 net.cpp:219] drop7 does not need backward computation.
I0924 02:25:23.173878 25044 net.cpp:219] relu7 does not need backward computation.
…
