…
It's highly recommended that you fix the library with 'execstack -c <libfile>', or link it with '-z noexecstack'.
WARNING: cuda not found in compile time, setting current GPU will not work.
WARNING: cuda not found in compile time, setting current GPU will not work.
WARNING: Logging before InitGoogleLogging() is written to STDERR
I0707 12:21:50.423173  5062 net.cpp:49] Initializing net from parameters: 
name: "GoogleNet"
state {
  phase: TEST
}
layer {
  name: "data"
  type: "Input"
  top: "data"
  input_param {
    shape {
      dim: 10
      dim: 3
      dim: 224
      dim: 224
    }
  }
}
layer {
  name: "conv1/7x7_s2"
  type: "Convolution"
  bottom: "data"
  top: "conv1/7x7_s2"
  param {
    lr_mult: 1
    decay_mult: 1
  }
  param {
    lr_mult: 2
    decay_mult: 0
  }
  convolution_param {
    num_output: 64
    pad: 3
    kernel_size: 7
    stride: 2
    weight_filler {
      type: "xavier"
      std: 0.1
    }
    bias_filler {
      type: "constant"
      value: 0.2
    }
  }
}
layer {
  name: "conv1/relu_7x7"
  type: "ReLU"
  bottom: "conv1/7x7_s2"
  top: "conv1/7x7_s2"
}
layer {
  name: "pool1/3x3_s2"
  type: "Pooling"
  bottom: "conv1/7x7_s2"
  top: "pool1/3x3_s2"
  pooling_param {
    pool: MAX
    kernel_size: 3
    stride: 2
  }
}
layer {
  name: "pool1/norm1"
  type: "LRN"
  bottom: "pool1/3x3_s2"
  top: "pool1/norm1"
  lrn_param {
    local_size: 5
    alpha: 0.0001
    beta: 0.75
  }
}
layer {
  name: "conv2/3x3_reduce"
  type: "Convolution"
  bottom: "pool1/norm1"
  top: "conv2/3x3_reduce"
  param {
    lr_mult: 1
    decay_mult: 1
  }
  param {
    lr_mult: 2
    decay_mult: 0
  }
  convolution_param {
    num_output: 64
    kernel_size: 1
    weight_filler {
      type: "xavier"
      std: 0.1
    }
    bias_filler {
      type: "constant"
      value: 0.2
    }
  }
}
layer {
  name: "conv2/relu_3x3_reduce"
  type: "ReLU"
  bottom: "conv2/3x3_reduce"
  top: "conv2/3x3_reduce"
}
layer {
  name: "conv2/3x3"
  type: "Convolution"
  bottom: "conv2/3x3_reduce"
  top: "conv2/3x3"
  param {
    lr_mult: 1
    decay_mult: 1
  }
  param {
    lr_mult: 2
    decay_mult: 0
  }
  convolution_param {
    num_output: 192
    pad: 1
    kernel_size: 3
    weight_filler {
      type: "xavier"
      std: 0.03
    }
    bias_filler {
      type: "constant"
      value: 0.2
    }
  }
}
layer {
  name: "conv2/relu_3x3"
  type: "ReLU"
  bottom: "conv2/3x3"
  top: "conv2/3x3"
}
layer {
  name: "conv2/norm2"
  type: "LRN"
  bottom: "conv2/3x3"
  top: "conv2/norm2"
  lrn_param {
    local_size: 5
    alpha: 0.0001
    beta: 0.75
  }
}
layer {
  name: "pool2/3x3_s2"
  type: "Pooling"
  bottom: "conv2/norm2"
  top: "pool2/3x3_s2"
  pooling_param {
    pool: MAX
    kernel_size: 3
    stride: 2
  }
}
layer {
  name: "inception_3a/1x1"
  type: "Convolution"
  bottom: "pool2/3x3_s2"
  top: "inception_3a/1x1"
  param {
    lr_mult: 1
    decay_mult: 1
  }
  param {
    lr_mult: 2
    decay_mult: 0
  }
  convolution_param {
    num_output: 64
    kernel_size: 1
    weight_filler {
      type: "xavier"
      std: 0.03
    }
    bias_filler {
      type: "constant"
      value: 0.2
    }
  }
}
layer {
  name: "inception_3a/relu_1x1"
  type: "ReLU"
  bottom: "inception_3a/1x1"
  top: "inception_3a/1x1"
}
layer {
  name: "inception_3a/3x3_reduce"
  type: "Convolution"
  bottom: "pool2/3x3_s2"
  top: "inception_3a/3x3_reduce"
  param {
    lr_mult: 1
    decay_mult: 1
  }
  param {
    lr_mult: 2
    decay_mult: 0
  }
  convolution_param {
    num_output: 96
    kernel_size: 1
    weight_filler {
      type: "xavier"
      std: 0.09
    }
    bias_filler {
      type: "constant"
      value: 0.2
    }
  }
}
layer {
  name: "inception_3a/relu_3x3_reduce"
  type: "ReLU"
  bottom: "inception_3a/3x3_reduce"
  top: "inception_3a/3x3_reduce"
}
layer {
  name: "inception_3a/3x3"
  type: "Convolution"
  bottom: "inception_3a/3x3_reduce"
  top: "inception_3a/3x3"
  param {
    lr_mult: 1
    decay_mult: 1
  }
  param {
    lr_mult: 2
    decay_mult: 0
  }
  convolution_param {
    num_output: 128
    pad: 1
    kernel_size: 3
    weight_filler {
      type: "xavier"
      std: 0.03
    }
    bias_filler {
      type: "constant"
      value: 0.2
    }
  }
}
layer {
  name: "inception_3a/relu_3x3"
  type: "ReLU"
  bottom: "inception_3a/3x3"
  top: "inception_3a/3x3"
}
layer {
  name: "inception_3a/5x5_reduce"
  type: "Convolution"
  bottom: "pool2/3x3_s2"
  top: "inception_3a/5x5_reduce"
  param {
    lr_mult: 1
    decay_mult: 1
  }
  param {
    lr_mult: 2
    decay_mult: 0
  }
  convolution_param {
    num_output: 16
    kernel_size: 1
    weight_filler {
      type: "xavier"
      std: 0.2
    }
    bias_filler {
      type: "constant"
      value: 0.2
    }
  }
}
layer {
  name: "inception_3a/relu_5x5_reduce"
  type: "ReLU"
  bottom: "inception_3a/5x5_reduce"
  top: "inception_3a/5x5_reduce"
}
layer {
  name: "inception_3a/5x5"
  type: "Convolution"
  bottom: "inception_3a/5x5_reduce"
  top: "inception_3a/5x5"
  param {
    lr_mult: 1
    decay_mult: 1
  }
  param {
    lr_mult: 2
    decay_mult: 0
  }
  convolution_param {
    num_output: 32
    pad: 2
    kernel_size: 5
    weight_filler {
      type: "xavier"
      std: 0.03
    }
    bias_filler {
      type: "constant"
      value: 0.2
    }
  }
}
layer {
  name: "inception_3a/relu_5x5"
  type: "ReLU"
  bottom: "inception_3a/5x5"
  top: "inception_3a/5x5"
}
layer {
  name: "inception_3a/pool"
  type: "Pooling"
  bottom: "pool2/3x3_s2"
  top: "inception_3a/pool"
  pooling_param {
    pool: MAX
    kernel_size: 3
    stride: 1
    pad: 1
  }
}
layer {
  name: "inception_3a/pool_proj"
  type: "Convolution"
  bottom: "inception_3a/pool"
  top: "inception_3a/pool_proj"
  param {
    lr_mult: 1
    decay_mult: 1
  }
  param {
    lr_mult: 2
    decay_mult: 0
  }
  convolution_param {
    num_output: 32
    kernel_size: 1
    weight_filler {
      type: "xavier"
      std: 0.1
    }
    bias_filler {
      type: "constant"
      value: 0.2
    }
  }
}
layer {
  name: "inception_3a/relu_pool_proj"
  type: "ReLU"
  bottom: "inception_3a/pool_proj"
  top: "inception_3a/pool_proj"
}
layer {
  name: "inception_3a/output"
  type: "Concat"
  bottom: "inception_3a/1x1"
  bottom: "inception_3a/3x3"
  bottom: "inception_3a/5x5"
  bottom: "inception_3a/pool_proj"
  top: "inception_3a/output"
}
layer {
  name: "inception_3b/1x1"
  type: "Convolution"
  bottom: "inception_3a/output"
  top: "inception_3b/1x1"
  param {
    lr_mult: 1
    decay_mult: 1
  }
  param {
    lr_mult: 2
    decay_mult: 0
  }
  convolution_param {
    num_output: 128
    kernel_size: 1
    weight_filler {
      type: "xavier"
      std: 0.03
    }
    bias_filler {
      type: "constant"
      value: 0.2
    }
  }
}
layer {
  name: "inception_3b/relu_1x1"
  type: "ReLU"
  bottom: "inception_3b/1x1"
  top: "inception_3b/1x1"
}
layer {
  name: "inception_3b/3x3_reduce"
  type: "Convolution"
  bottom: "inception_3a/output"
  top: "inception_3b/3x3_reduce"
  param {
    lr_mult: 1
    decay_mult: 1
  }
  param {
    lr_mult: 2
    decay_mult: 0
  }
  convolution_param {
    num_output: 128
    kernel_size: 1
    weight_filler {
      type: "xavier"
      std: 0.09
    }
    bias_filler {
      type: "constant"
      value: 0.2
    }
  }
}
layer {
  name: "inception_3b/relu_3x3_reduce"
  type: "ReLU"
  bottom: "inception_3b/3x3_reduce"
  top: "inception_3b/3x3_reduce"
}
layer {
  name: "inception_3b/3x3"
  type: "Convolution"
  bottom: "inception_3b/3x3_reduce"
  top: "inception_3b/3x3"
  param {
    lr_mult: 1
    decay_mult: 1
  }
  param {
    lr_mult: 2
    decay_mult: 0
  }
  convolution_param {
    num_output: 192
    pad: 1
    kernel_size: 3
    weight_filler {
      type: "xavier"
      std: 0.03
    }
    bias_filler {
      type: "constant"
      value: 0.2
    }
  }
}
layer {
  name: "inception_3b/relu_3x3"
  type: "ReLU"
  bottom: "inception_3b/3x3"
  top: "inception_3b/3x3"
}
layer {
  name: "inception_3b/5x5_reduce"
  type: "Convolution"
  bottom: "inception_3a/output"
  top: "inception_3b/5x5_reduce"
  param {
    lr_mult: 1
    decay_mult: 1
  }
  param {
    lr_mult: 2
    decay_mult: 0
  }
  convolution_param {
    num_output: 32
    kernel_size: 1
    weight_filler {
      type: "xavier"
      std: 0.2
    }
    bias_filler {
      type: "constant"
      value: 0.2
    }
  }
}
layer {
  name: "inception_3b/relu_5x5_reduce"
  type: "ReLU"
  bottom: "inception_3b/5x5_reduce"
  top: "inception_3b/5x5_reduce"
}
layer {
  name: "inception_3b/5x5"
  type: "Convolution"
  bottom: "inception_3b/5x5_reduce"
  top: "inception_3b/5x5"
  param {
    lr_mult: 1
    decay_mult: 1
  }
  param {
    lr_mult: 2
    decay_mult: 0
  }
  convolution_param {
    num_output: 96
    pad: 2
    kernel_size: 5
    weight_filler {
      type: "xavier"
      std: 0.03
    }
    bias_filler {
      type: "constant"
      value: 0.2
    }
  }
}
layer {
  name: "inception_3b/relu_5x5"
  type: "ReLU"
  bottom: "inception_3b/5x5"
  top: "inception_3b/5x5"
}
layer {
  name: "inception_3b/pool"
  type: "Pooling"
  bottom: "inception_3a/output"
  top: "inception_3b/pool"
  pooling_param {
    pool: MAX
    kernel_size: 3
    stride: 1
    pad: 1
  }
}
layer {
  name: "inception_3b/pool_proj"
  type: "Convolution"
  bottom: "inception_3b/pool"
  top: "inception_3b/pool_proj"
  param {
    lr_mult: 1
    decay_mult: 1
  }
  param {
    lr_mult: 2
    decay_mult: 0
  }
  convolution_param {
    num_output: 64
    kernel_size: 1
    weight_filler {
      type: "xavier"
      std: 0.1
    }
    bias_filler {
      type: "constant"
      value: 0.2
    }
  }
}
layer {
  name: "inception_3b/relu_pool_proj"
  type: "ReLU"
  bottom: "inception_3b/pool_proj"
  top: "inception_3b/pool_proj"
}
layer {
  name: "inception_3b/output"
  type: "Concat"
  bottom: "inception_3b/1x1"
  bottom: "inception_3b/3x3"
  bottom: "inception_3b/5x5"
  bottom: "inception_3b/pool_proj"
  top: "inception_3b/output"
}
layer {
  name: "pool3/3x3_s2"
  type: "Pooling"
  bottom: "inception_3b/output"
  top: "pool3/3x3_s2"
  pooling_param {
    pool: MAX
    kernel_size: 3
    stride: 2
  }
}
layer {
  name: "inception_4a/1x1"
  type: "Convolution"
  bottom: "pool3/3x3_s2"
  top: "inception_4a/1x1"
  param {
    lr_mult: 1
    decay_mult: 1
  }
  param {
    lr_mult: 2
    decay_mult: 0
  }
  convolution_param {
    num_output: 192
    kernel_size: 1
    weight_filler {
      type: "xavier"
      std: 0.03
    }
    bias_filler {
      type: "constant"
      value: 0.2
    }
  }
}
layer {
  name: "inception_4a/relu_1x1"
  type: "ReLU"
  bottom: "inception_4a/1x1"
  top: "inception_4a/1x1"
}
layer {
  name: "inception_4a/3x3_reduce"
  type: "Convolution"
  bottom: "pool3/3x3_s2"
  top: "inception_4a/3x3_reduce"
  param {
    lr_mult: 1
    decay_mult: 1
  }
  param {
    lr_mult: 2
    decay_mult: 0
  }
  convolution_param {
    num_output: 96
    kernel_size: 1
    weight_filler {
      type: "xavier"
      std: 0.09
    }
    bias_filler {
      type: "constant"
      value: 0.2
    }
  }
}
layer {
  name: "inception_4a/relu_3x3_reduce"
  type: "ReLU"
  bottom: "inception_4a/3x3_reduce"
  top: "inception_4a/3x3_reduce"
}
layer {
  name: "inception_4a/3x3"
  type: "Convolution"
  bottom: "inception_4a/3x3_reduce"
  top: "inception_4a/3x3"
  param {
    lr_mult: 1
    decay_mult: 1
  }
  param {
    lr_mult: 2
    decay_mult: 0
  }
  convolution_param {
    num_output: 208
    pad: 1
    kernel_size: 3
    weight_filler {
      type: "xavier"
      std: 0.03
    }
    bias_filler {
      type: "constant"
      value: 0.2
    }
  }
}
layer {
  name: "inception_4a/relu_3x3"
  type: "ReLU"
  bottom: "inception_4a/3x3"
  top: "inception_4a/3x3"
}
layer {
  name: "inception_4a/5x5_reduce"
  type: "Convolution"
  bottom: "pool3/3x3_s2"
  top: "inception_4a/5x5_reduce"
  param {
    lr_mult: 1
    decay_mult: 1
  }
  param {
    lr_mult: 2
    decay_mult: 0
  }
  convolution_param {
    num_output: 16
    kernel_size: 1
    weight_filler {
      type: "xavier"
      std: 0.2
    }
    bias_filler {
      type: "constant"
      value: 0.2
    }
  }
}
layer {
  name: "inception_4a/relu_5x5_reduce"
  type: "ReLU"
  bottom: "inception_4a/5x5_reduce"
  top: "inception_4a/5x5_reduce"
}
layer {
  name: "inception_4a/5x5"
  type: "Convolution"
  bottom: "inception_4a/5x5_reduce"
  top: "inception_4a/5x5"
  param {
    lr_mult: 1
    decay_mult: 1
  }
  param {
    lr_mult: 2
    decay_mult: 0
  }
  convolution_param {
    num_output: 48
    pad: 2
    kernel_size: 5
    weight_filler {
      type: "xavier"
      std: 0.03
    }
    bias_filler {
      type: "constant"
      value: 0.2
    }
  }
}
layer {
  name: "inception_4a/relu_5x5"
  type: "ReLU"
  bottom: "inception_4a/5x5"
  top: "inception_4a/5x5"
}
layer {
  name: "inception_4a/pool"
  type: "Pooling"
  bottom: "pool3/3x3_s2"
  top: "inception_4a/pool"
  pooling_param {
    pool: MAX
    kernel_size: 3
    stride: 1
    pad: 1
  }
}
layer {
  name: "inception_4a/pool_proj"
  type: "Convolution"
  bottom: "inception_4a/pool"
  top: "inception_4a/pool_proj"
  param {
    lr_mult: 1
    decay_mult: 1
  }
  param {
    lr_mult: 2
    decay_mult: 0
  }
  convolution_param {
    num_output: 64
    kernel_size: 1
    weight_filler {
      type: "xavier"
      std: 0.1
    }
    bias_filler {
      type: "constant"
      value: 0.2
    }
  }
}
layer {
  name: "inception_4a/relu_pool_proj"
  type: "ReLU"
  bottom: "inception_4a/pool_proj"
  top: "inception_4a/pool_proj"
}
layer {
  name: "inception_4a/output"
  type: "Concat"
  bottom: "inception_4a/1x1"
  bottom: "inception_4a/3x3"
  bottom: "inception_4a/5x5"
  bottom: "inception_4a/pool_proj"
  top: "inception_4a/output"
}
layer {
  name: "inception_4b/1x1"
  type: "Convolution"
  bottom: "inception_4a/output"
  top: "inception_4b/1x1"
  param {
    lr_mult: 1
    decay_mult: 1
  }
  param {
    lr_mult: 2
    decay_mult: 0
  }
  convolution_param {
    num_output: 160
    kernel_size: 1
    weight_filler {
      type: "xavier"
      std: 0.03
    }
    bias_filler {
      type: "constant"
      value: 0.2
    }
  }
}
layer {
  name: "inception_4b/relu_1x1"
  type: "ReLU"
  bottom: "inception_4b/1x1"
  top: "inception_4b/1x1"
}
layer {
  name: "inception_4b/3x3_reduce"
  type: "Convolution"
  bottom: "inception_4a/output"
  top: "inception_4b/3x3_reduce"
  param {
    lr_mult: 1
    decay_mult: 1
  }
  param {
    lr_mult: 2
    decay_mult: 0
  }
  convolution_param {
    num_output: 112
    kernel_size: 1
    weight_filler {
      type: "xavier"
      std: 0.09
    }
    bias_filler {
      type: "constant"
      value: 0.2
    }
  }
}
layer {
  name: "inception_4b/relu_3x3_reduce"
  type: "ReLU"
  bottom: "inception_4b/3x3_reduce"
  top: "inception_4b/3x3_reduce"
}
layer {
  name: "inception_4b/3x3"
  type: "Convolution"
  bottom: "inception_4b/3x3_reduce"
  top: "inception_4b/3x3"
  param {
    lr_mult: 1
    decay_mult: 1
  }
  param {
    lr_mult: 2
    decay_mult: 0
  }
  convolution_param {
    num_output: 224
    pad: 1
    kernel_size: 3
    weight_filler {
      type: "xavier"
      std: 0.03
    }
    bias_filler {
      type: "constant"
      value: 0.2
    }
  }
}
layer {
  name: "inception_4b/relu_3x3"
  type: "ReLU"
  bottom: "inception_4b/3x3"
  top: "inception_4b/3x3"
}
layer {
  name: "inception_4b/5x5_reduce"
  type: "Convolution"
  bottom: "inception_4a/output"
  top: "inception_4b/5x5_reduce"
  param {
    lr_mult: 1
    decay_mult: 1
  }
  param {
    lr_mult: 2
    decay_mult: 0
  }
  convolution_param {
    num_output: 24
    kernel_size: 1
    weight_filler {
      type: "xavier"
      std: 0.2
    }
    bias_filler {
      type: "constant"
      value: 0.2
    }
  }
}
layer {
  name: "inception_4b/relu_5x5_reduce"
  type: "ReLU"
  bottom: "inception_4b/5x5_reduce"
  top: "inception_4b/5x5_reduce"
}
layer {
  name: "inception_4b/5x5"
  type: "Convolution"
  bottom: "inception_4b/5x5_reduce"
  top: "inception_4b/5x5"
  param {
    lr_mult: 1
    decay_mult: 1
  }
  param {
    lr_mult: 2
    decay_mult: 0
  }
  convolution_param {
    num_output: 64
    pad: 2
    kernel_size: 5
    weight_filler {
      type: "xavier"
      std: 0.03
    }
    bias_filler {
      type: "constant"
      value: 0.2
    }
  }
}
layer {
  name: "inception_4b/relu_5x5"
  type: "ReLU"
  bottom: "inception_4b/5x5"
  top: "inception_4b/5x5"
}
layer {
  name: "inception_4b/pool"
  type: "Pooling"
  bottom: "inception_4a/output"
  top: "inception_4b/pool"
  pooling_param {
    pool: MAX
    kernel_size: 3
    stride: 1
    pad: 1
  }
}
layer {
  name: "inception_4b/pool_proj"
  type: "Convolution"
  bottom: "inception_4b/pool"
  top: "inception_4b/pool_proj"
  param {
    lr_mult: 1
    decay_mult: 1
  }
  param {
    lr_mult: 2
    decay_mult: 0
  }
  convolution_param {
    num_output: 64
    kernel_size: 1
    weight_filler {
      type: "xavier"
      std: 0.1
    }
    bias_filler {
      type: "constant"
      value: 0.2
    }
  }
}
layer {
  name: "inception_4b/relu_pool_proj"
  type: "ReLU"
  bottom: "inception_4b/pool_proj"
  top: "inception_4b/pool_proj"
}
layer {
  name: "inception_4b/output"
  type: "Concat"
  bottom: "inception_4b/1x1"
  bottom: "inception_4b/3x3"
  bottom: "inception_4b/5x5"
  bottom: "inception_4b/pool_proj"
  top: "inception_4b/output"
}
layer {
  name: "inception_4c/1x1"
  type: "Convolution"
  bottom: "inception_4b/output"
  top: "inception_4c/1x1"
  param {
    lr_mult: 1
    decay_mult: 1
  }
  param {
    lr_mult: 2
    decay_mult: 0
  }
  convolution_param {
    num_output: 128
    kernel_size: 1
    weight_filler {
      type: "xavier"
      std: 0.03
    }
    bias_filler {
      type: "constant"
      value: 0.2
    }
  }
}
layer {
  name: "inception_4c/relu_1x1"
  type: "ReLU"
  bottom: "inception_4c/1x1"
  top: "inception_4c/1x1"
}
layer {
  name: "inception_4c/3x3_reduce"
  type: "Convolution"
  bottom: "inception_4b/output"
  top: "inception_4c/3x3_reduce"
  param {
    lr_mult: 1
    decay_mult: 1
  }
  param {
    lr_mult: 2
    decay_mult: 0
  }
  convolution_param {
    num_output: 128
    kernel_size: 1
    weight_filler {
      type: "xavier"
      std: 0.09
    }
    bias_filler {
      type: "constant"
      value: 0.2
    }
  }
}
layer {
  name: "inception_4c/relu_3x3_reduce"
  type: "ReLU"
  bottom: "inception_4c/3x3_reduce"
  top: "inception_4c/3x3_reduce"
}
layer {
  name: "inception_4c/3x3"
  type: "Convolution"
  bottom: "inception_4c/3x3_reduce"
  top: "inception_4c/3x3"
  param {
    lr_mult: 1
    decay_mult: 1
  }
  param {
    lr_mult: 2
    decay_mult: 0
  }
  convolution_param {
    num_output: 256
    pad: 1
    kernel_size: 3
    weight_filler {
      type: "xavier"
      std: 0.03
    }
    bias_filler {
      type: "constant"
      value: 0.2
    }
  }
}
layer {
  name: "inception_4c/relu_3x3"
  type: "ReLU"
  bottom: "inception_4c/3x3"
  top: "inception_4c/3x3"
}
layer {
  name: "inception_4c/5x5_reduce"
  type: "Convolution"
  bottom: "inception_4b/output"
  top: "inception_4c/5x5_reduce"
  param {
    lr_mult: 1
    decay_mult: 1
  }
  param {
    lr_mult: 2
    decay_mult: 0
  }
  convolution_param {
    num_output: 24
    kernel_size: 1
    weight_filler {
      type: "xavier"
      std: 0.2
    }
    bias_filler {
      type: "constant"
      value: 0.2
    }
  }
}
layer {
  name: "inception_4c/relu_5x5_reduce"
  type: "ReLU"
  bottom: "inception_4c/5x5_reduce"
  top: "inception_4c/5x5_reduce"
}
layer {
  name: "inception_4c/5x5"
  type: "Convolution"
  bottom: "inception_4c/5x5_reduce"
  top: "inception_4c/5x5"
  param {
    lr_mult: 1
    decay_mult: 1
  }
  param {
    lr_mult: 2
    decay_mult: 0
  }
  convolution_param {
    num_output: 64
    pad: 2
    kernel_size: 5
    weight_filler {
      type: "xavier"
      std: 0.03
    }
    bias_filler {
      type: "constant"
      value: 0.2
    }
  }
}
layer {
  name: "inception_4c/relu_5x5"
  type: "ReLU"
  bottom: "inception_4c/5x5"
  top: "inception_4c/5x5"
}
layer {
  name: "inception_4c/pool"
  type: "Pooling"
  bottom: "inception_4b/output"
  top: "inception_4c/pool"
  pooling_param {
    pool: MAX
    kernel_size: 3
    stride: 1
    pad: 1
  }
}
layer {
  name: "inception_4c/pool_proj"
  type: "Convolution"
  bottom: "inception_4c/pool"
  top: "inception_4c/pool_proj"
  param {
    lr_mult: 1
    decay_mult: 1
  }
  param {
    lr_mult: 2
    decay_mult: 0
  }
  convolution_param {
    num_output: 64
    kernel_size: 1
    weight_filler {
      type: "xavier"
      std: 0.1
    }
    bias_filler {
      type: "constant"
      value: 0.2
    }
  }
}
layer {
  name: "inception_4c/relu_pool_proj"
  type: "ReLU"
  bottom: "inception_4c/pool_proj"
  top: "inception_4c/pool_proj"
}
layer {
  name: "inception_4c/output"
  type: "Concat"
  bottom: "inception_4c/1x1"
  bottom: "inception_4c/3x3"
  bottom: "inception_4c/5x5"
  bottom: "inception_4c/pool_proj"
  top: "inception_4c/output"
}
layer {
  name: "inception_4d/1x1"
  type: "Convolution"
  bottom: "inception_4c/output"
  top: "inception_4d/1x1"
  param {
    lr_mult: 1
    decay_mult: 1
  }
  param {
    lr_mult: 2
    decay_mult: 0
  }
  convolution_param {
    num_output: 112
    kernel_size: 1
    weight_filler {
      type: "xavier"
      std: 0.03
    }
    bias_filler {
      type: "constant"
      value: 0.2
    }
  }
}
layer {
  name: "inception_4d/relu_1x1"
  type: "ReLU"
  bottom: "inception_4d/1x1"
  top: "inception_4d/1x1"
}
layer {
  name: "inception_4d/3x3_reduce"
  type: "Convolution"
  bottom: "inception_4c/output"
  top: "inception_4d/3x3_reduce"
  param {
    lr_mult: 1
    decay_mult: 1
  }
  param {
    lr_mult: 2
    decay_mult: 0
  }
  convolution_param {
    num_output: 144
    kernel_size: 1
    weight_filler {
      type: "xavier"
      std: 0.09
    }
    bias_filler {
      type: "constant"
      value: 0.2
    }
  }
}
layer {
  name: "inception_4d/relu_3x3_reduce"
  type: "ReLU"
  bottom: "inception_4d/3x3_reduce"
  top: "inception_4d/3x3_reduce"
}
layer {
  name: "inception_4d/3x3"
  type: "Convolution"
  bottom: "inception_4d/3x3_reduce"
  top: "inception_4d/3x3"
  param {
    lr_mult: 1
    decay_mult: 1
  }
  param {
    lr_mult: 2
    decay_mult: 0
  }
  convolution_param {
    num_output: 288
    pad: 1
    kernel_size: 3
    weight_filler {
      type: "xavier"
      std: 0.03
    }
    bias_filler {
      type: "constant"
      value: 0.2
    }
  }
}
layer {
  name: "inception_4d/relu_3x3"
  type: "ReLU"
  bottom: "inception_4d/3x3"
  top: "inception_4d/3x3"
}
layer {
  name: "inception_4d/5x5_reduce"
  type: "Convolution"
  bottom: "inception_4c/output"
  top: "inception_4d/5x5_reduce"
  param {
    lr_mult: 1
    decay_mult: 1
  }
  param {
    lr_mult: 2
    decay_mult: 0
  }
  convolution_param {
    num_output: 32
    kernel_size: 1
    weight_filler {
      type: "xavier"
      std: 0.2
    }
    bias_filler {
      type: "constant"
      value: 0.2
    }
  }
}
layer {
  name: "inception_4d/relu_5x5_reduce"
  type: "ReLU"
  bottom: "inception_4d/5x5_reduce"
  top: "inception_4d/5x5_reduce"
}
layer {
  name: "inception_4d/5x5"
  type: "Convolution"
  bottom: "inception_4d/5x5_reduce"
  top: "inception_4d/5x5"
  param {
    lr_mult: 1
    decay_mult: 1
  }
  param {
    lr_mult: 2
    decay_mult: 0
  }
  convolution_param {
    num_output: 64
    pad: 2
    kernel_size: 5
    weight_filler {
      type: "xavier"
      std: 0.03
    }
    bias_filler {
      type: "constant"
      value: 0.2
    }
  }
}
layer {
  name: "inception_4d/relu_5x5"
  type: "ReLU"
  bottom: "inception_4d/5x5"
  top: "inception_4d/5x5"
}
layer {
  name: "inception_4d/pool"
  type: "Pooling"
  bottom: "inception_4c/output"
  top: "inception_4d/pool"
  pooling_param {
    pool: MAX
    kernel_size: 3
    stride: 1
    pad: 1
  }
}
layer {
  name: "inception_4d/pool_proj"
  type: "Convolution"
  bottom: "inception_4d/pool"
  top: "inception_4d/pool_proj"
  param {
    lr_mult: 1
    decay_mult: 1
  }
  param {
    lr_mult: 2
    decay_mult: 0
  }
  convolution_param {
    num_output: 64
    kernel_size: 1
    weight_filler {
      type: "xavier"
      std: 0.1
    }
    bias_filler {
      type: "constant"
      value: 0.2
    }
  }
}
layer {
  name: "inception_4d/relu_pool_proj"
  type: "ReLU"
  bottom: "inception_4d/pool_proj"
  top: "inception_4d/pool_proj"
}
layer {
  name: "inception_4d/output"
  type: "Concat"
  bottom: "inception_4d/1x1"
  bottom: "inception_4d/3x3"
  bottom: "inception_4d/5x5"
  bottom: "inception_4d/pool_proj"
  top: "inception_4d/output"
}
layer {
  name: "inception_4e/1x1"
  type: "Convolution"
  bottom: "inception_4d/output"
  top: "inception_4e/1x1"
  param {
    lr_mult: 1
    decay_mult: 1
  }
  param {
    lr_mult: 2
    decay_mult: 0
  }
  convolution_param {
    num_output: 256
    kernel_size: 1
    weight_filler {
      type: "xavier"
      std: 0.03
    }
    bias_filler {
      type: "constant"
      value: 0.2
    }
  }
}
layer {
  name: "inception_4e/relu_1x1"
  type: "ReLU"
  bottom: "inception_4e/1x1"
  top: "inception_4e/1x1"
}
layer {
  name: "inception_4e/3x3_reduce"
  type: "Convolution"
  bottom: "inception_4d/output"
  top: "inception_4e/3x3_reduce"
  param {
    lr_mult: 1
    decay_mult: 1
  }
  param {
    lr_mult: 2
    decay_mult: 0
  }
  convolution_param {
    num_output: 160
    kernel_size: 1
    weight_filler {
      type: "xavier"
      std: 0.09
    }
    bias_filler {
      type: "constant"
      value: 0.2
    }
  }
}
layer {
  name: "inception_4e/relu_3x3_reduce"
  type: "ReLU"
  bottom: "inception_4e/3x3_reduce"
  top: "inception_4e/3x3_reduce"
}
layer {
  name: "inception_4e/3x3"
  type: "Convolution"
  bottom: "inception_4e/3x3_reduce"
  top: "inception_4e/3x3"
  param {
    lr_mult: 1
    decay_mult: 1
  }
  param {
    lr_mult: 2
    decay_mult: 0
  }
  convolution_param {
    num_output: 320
    pad: 1
    kernel_size: 3
    weight_filler {
      type: "xavier"
      std: 0.03
    }
    bias_filler {
      type: "constant"
      value: 0.2
    }
  }
}
layer {
  name: "inception_4e/relu_3x3"
  type: "ReLU"
  bottom: "inception_4e/3x3"
  top: "inception_4e/3x3"
}
layer {
  name: "inception_4e/5x5_reduce"
  type: "Convolution"
  bottom: "inception_4d/output"
  top: "inception_4e/5x5_reduce"
  param {
    lr_mult: 1
    decay_mult: 1
  }
  param {
    lr_mult: 2
    decay_mult: 0
  }
  convolution_param {
    num_output: 32
    kernel_size: 1
    weight_filler {
      type: "xavier"
      std: 0.2
    }
    bias_filler {
      type: "constant"
      value: 0.2
    }
  }
}
layer {
  name: "inception_4e/relu_5x5_reduce"
  type: "ReLU"
  bottom: "inception_4e/5x5_reduce"
  top: "inception_4e/5x5_reduce"
}
layer {
  name: "inception_4e/5x5"
  type: "Convolution"
  bottom: "inception_4e/5x5_reduce"
  top: "inception_4e/5x5"
  param {
    lr_mult: 1
    decay_mult: 1
  }
  param {
    lr_mult: 2
    decay_mult: 0
  }
  convolution_param {
    num_output: 128
    pad: 2
    kernel_size: 5
    weight_filler {
      type: "xavier"
      std: 0.03
    }
    bias_filler {
      type: "constant"
      value: 0.2
    }
  }
}
layer {
  name: "inception_4e/relu_5x5"
  type: "ReLU"
  bottom: "inception_4e/5x5"
  top: "inception_4e/5x5"
}
layer {
  name: "inception_4e/pool"
  type: "Pooling"
  bottom: "inception_4d/output"
  top: "inception_4e/pool"
  pooling_param {
    pool: MAX
    kernel_size: 3
    stride: 1
    pad: 1
  }
}
layer {
  name: "inception_4e/pool_proj"
  type: "Convolution"
  bottom: "inception_4e/pool"
  top: "inception_4e/pool_proj"
  param {
    lr_mult: 1
    decay_mult: 1
  }
  param {
    lr_mult: 2
    decay_mult: 0
  }
  convolution_param {
    num_output: 128
    kernel_size: 1
    weight_filler {
      type: "xavier"
      std: 0.1
    }
    bias_filler {
      type: "constant"
      value: 0.2
    }
  }
}
layer {
  name: "inception_4e/relu_pool_proj"
  type: "ReLU"
  bottom: "inception_4e/pool_proj"
  top: "inception_4e/pool_proj"
}
layer {
  name: "inception_4e/output"
  type: "Concat"
  bottom: "inception_4e/1x1"
  bottom: "inception_4e/3x3"
  bottom: "inception_4e/5x5"
  bottom: "inception_4e/pool_proj"
  top: "inception_4e/output"
}
layer {
  name: "pool4/3x3_s2"
  type: "Pooling"
  bottom: "inception_4e/output"
  top: "pool4/3x3_s2"
  pooling_param {
    pool: MAX
    kernel_size: 3
    stride: 2
  }
}
layer {
  name: "inception_5a/1x1"
  type: "Convolution"
  bottom: "pool4/3x3_s2"
  top: "inception_5a/1x1"
  param {
    lr_mult: 1
    decay_mult: 1
  }
  param {
    lr_mult: 2
    decay_mult: 0
  }
  convolution_param {
    num_output: 256
    kernel_size: 1
    weight_filler {
      type: "xavier"
      std: 0.03
    }
    bias_filler {
      type: "constant"
      value: 0.2
    }
  }
}
layer {
  name: "inception_5a/relu_1x1"
  type: "ReLU"
  bottom: "inception_5a/1x1"
  top: "inception_5a/1x1"
}
layer {
  name: "inception_5a/3x3_reduce"
  type: "Convolution"
  bottom: "pool4/3x3_s2"
  top: "inception_5a/3x3_reduce"
  param {
    lr_mult: 1
    decay_mult: 1
  }
  param {
    lr_mult: 2
    decay_mult: 0
  }
  convolution_param {
    num_output: 160
    kernel_size: 1
    weight_filler {
      type: "xavier"
      std: 0.09
    }
    bias_filler {
      type: "constant"
      value: 0.2
    }
  }
}
layer {
  name: "inception_5a/relu_3x3_reduce"
  type: "ReLU"
  bottom: "inception_5a/3x3_reduce"
  top: "inception_5a/3x3_reduce"
}
layer {
  name: "inception_5a/3x3"
  type: "Convolution"
  bottom: "inception_5a/3x3_reduce"
  top: "inception_5a/3x3"
  param {
    lr_mult: 1
    decay_mult: 1
  }
  param {
    lr_mult: 2
    decay_mult: 0
  }
  convolution_param {
    num_output: 320
    pad: 1
    kernel_size: 3
    weight_filler {
      type: "xavier"
      std: 0.03
    }
    bias_filler {
      type: "constant"
      value: 0.2
    }
  }
}
layer {
  name: "inception_5a/relu_3x3"
  type: "ReLU"
  bottom: "inception_5a/3x3"
  top: "inception_5a/3x3"
}
layer {
  name: "inception_5a/5x5_reduce"
  type: "Convolution"
  bottom: "pool4/3x3_s2"
  top: "inception_5a/5x5_reduce"
  param {
    lr_mult: 1
    decay_mult: 1
  }
  param {
    lr_mult: 2
    decay_mult: 0
  }
  convolution_param {
    num_output: 32
    kernel_size: 1
    weight_filler {
      type: "xavier"
      std: 0.2
    }
    bias_filler {
      type: "constant"
      value: 0.2
    }
I0707 12:21:50.423657  5066 net.cpp:49] Initializing net from parameters: 
name: "GoogleNet"
state {
  phase: TEST
}
layer {
  name: "data"
  type: "Input"
  top: "data"
  input_param {
    shape {
      dim: 10
      dim: 3
      dim: 224
      dim: 224
    }
  }
}
layer {
  name: "conv1/7x7_s2"
  type: "Convolution"
  bottom: "data"
  top: "conv1/7x7_s2"
  param {
    lr_mult: 1
    decay_mult: 1
  }
  param {
    lr_mult: 2
    decay_mult: 0
  }
  convolution_param {
    num_output: 64
    pad: 3
    kernel_size: 7
    stride: 2
    weight_filler {
      type: "xavier"
      std: 0.1
    }
    bias_filler {
      type: "constant"
      value: 0.2
    }
  }
}
layer {
  name: "conv1/relu_7x7"
  type: "ReLU"
  bottom: "conv1/7x7_s2"
  top: "conv1/7x7_s2"
}
layer {
  name: "pool1/3x3_s2"
  type: "Pooling"
  bottom: "conv1/7x7_s2"
  top: "pool1/3x3_s2"
  pooling_param {
    pool: MAX
    kernel_size: 3
    stride: 2
  }
}
layer {
  name: "pool1/norm1"
  type: "LRN"
  bottom: "pool1/3x3_s2"
  top: "pool1/norm1"
  lrn_param {
    local_size: 5
    alpha: 0.0001
    beta: 0.75
  }
}
layer {
  name: "conv2/3x3_reduce"
  type: "Convolution"
  bottom: "pool1/norm1"
  top: "conv2/3x3_reduce"
  param {
    lr_mult: 1
    decay_mult: 1
  }
  param {
    lr_mult: 2
    decay_mult: 0
  }
  convolution_param {
    num_output: 64
    kernel_size: 1
    weight_filler {
      type: "xavier"
      std: 0.1
    }
    bias_filler {
      type: "constant"
      value: 0.2
    }
  }
}
layer {
  name: "conv2/relu_3x3_reduce"
  type: "ReLU"
  bottom: "conv2/3x3_reduce"
  top: "conv2/3x3_reduce"
}
layer {
  name: "conv2/3x3"
  type: "Convolution"
  bottom: "conv2/3x3_reduce"
  top: "conv2/3x3"
  param {
    lr_mult: 1
    decay_mult: 1
  }
  param {
    lr_mult: 2
    decay_mult: 0
  }
  convolution_param {
    num_output: 192
    pad: 1
    kernel_size: 3
    weight_filler {
      type: "xavier"
      std: 0.03
    }
    bias_filler {
      type: "constant"
      value: 0.2
    }
  }
}
layer {
  name: "conv2/relu_3x3"
  type: "ReLU"
  bottom: "conv2/3x3"
  top: "conv2/3x3"
}
layer {
  name: "conv2/norm2"
  type: "LRN"
  bottom: "conv2/3x3"
  top: "conv2/norm2"
  lrn_param {
    local_size: 5
    alpha: 0.0001
    beta: 0.75
  }
}
layer {
  name: "pool2/3x3_s2"
  type: "Pooling"
  bottom: "conv2/norm2"
  top: "pool2/3x3_s2"
  pooling_param {
    pool: MAX
    kernel_size: 3
    stride: 2
  }
}
layer {
  name: "inception_3a/1x1"
  type: "Convolution"
  bottom: "pool2/3x3_s2"
  top: "inception_3a/1x1"
  param {
    lr_mult: 1
    decay_mult: 1
  }
  param {
    lr_mult: 2
    decay_mult: 0
  }
  convolution_param {
    num_output: 64
    kernel_size: 1
    weight_filler {
      type: "xavier"
      std: 0.03
    }
    bias_filler {
      type: "constant"
      value: 0.2
    }
  }
}
layer {
  name: "inception_3a/relu_1x1"
  type: "ReLU"
  bottom: "inception_3a/1x1"
  top: "inception_3a/1x1"
}
layer {
  name: "inception_3a/3x3_reduce"
  type: "Convolution"
  bottom: "pool2/3x3_s2"
  top: "inception_3a/3x3_reduce"
  param {
    lr_mult: 1
    decay_mult: 1
  }
  param {
    lr_mult: 2
    decay_mult: 0
  }
  convolution_param {
    num_output: 96
    kernel_size: 1
    weight_filler {
      type: "xavier"
      std: 0.09
    }
    bias_filler {
      type: "constant"
      value: 0.2
    }
  }
}
layer {
  name: "inception_3a/relu_3x3_reduce"
  type: "ReLU"
  bottom: "inception_3a/3x3_reduce"
  top: "inception_3a/3x3_reduce"
}
layer {
  name: "inception_3a/3x3"
  type: "Convolution"
  bottom: "inception_3a/3x3_reduce"
  top: "inception_3a/3x3"
  param {
    lr_mult: 1
    decay_mult: 1
  }
  param {
    lr_mult: 2
    decay_mult: 0
  }
  convolution_param {
    num_output: 128
    pad: 1
    kernel_size: 3
    weight_filler {
      type: "xavier"
      std: 0.03
    }
    bias_filler {
      type: "constant"
      value: 0.2
    }
  }
}
layer {
  name: "inception_3a/relu_3x3"
  type: "ReLU"
  bottom: "inception_3a/3x3"
  top: "inception_3a/3x3"
}
layer {
  name: "inception_3a/5x5_reduce"
  type: "Convolution"
  bottom: "pool2/3x3_s2"
  top: "inception_3a/5x5_reduce"
  param {
    lr_mult: 1
    decay_mult: 1
  }
  param {
    lr_mult: 2
    decay_mult: 0
  }
  convolution_param {
    num_output: 16
    kernel_size: 1
    weight_filler {
      type: "xavier"
      std: 0.2
    }
    bias_filler {
      type: "constant"
      value: 0.2
    }
  }
}
layer {
  name: "inception_3a/relu_5x5_reduce"
  type: "ReLU"
  bottom: "inception_3a/5x5_reduce"
  top: "inception_3a/5x5_reduce"
}
layer {
  name: "inception_3a/5x5"
  type: "Convolution"
  bottom: "inception_3a/5x5_reduce"
  top: "inception_3a/5x5"
  param {
    lr_mult: 1
    decay_mult: 1
  }
  param {
    lr_mult: 2
    decay_mult: 0
  }
  convolution_param {
    num_output: 32
    pad: 2
    kernel_size: 5
    weight_filler {
      type: "xavier"
      std: 0.03
    }
    bias_filler {
      type: "constant"
      value: 0.2
    }
  }
}
layer {
  name: "inception_3a/relu_5x5"
  type: "ReLU"
  bottom: "inception_3a/5x5"
  top: "inception_3a/5x5"
}
layer {
  name: "inception_3a/pool"
  type: "Pooling"
  bottom: "pool2/3x3_s2"
  top: "inception_3a/pool"
  pooling_param {
    pool: MAX
    kernel_size: 3
    stride: 1
    pad: 1
  }
}
layer {
  name: "inception_3a/pool_proj"
  type: "Convolution"
  bottom: "inception_3a/pool"
  top: "inception_3a/pool_proj"
  param {
    lr_mult: 1
    decay_mult: 1
  }
  param {
    lr_mult: 2
    decay_mult: 0
  }
  convolution_param {
    num_output: 32
    kernel_size: 1
    weight_filler {
      type: "xavier"
      std: 0.1
    }
    bias_filler {
      type: "constant"
      value: 0.2
    }
  }
}
layer {
  name: "inception_3a/relu_pool_proj"
  type: "ReLU"
  bottom: "inception_3a/pool_proj"
  top: "inception_3a/pool_proj"
}
layer {
  name: "inception_3a/output"
  type: "Concat"
  bottom: "inception_3a/1x1"
  bottom: "inception_3a/3x3"
  bottom: "inception_3a/5x5"
  bottom: "inception_3a/pool_proj"
  top: "inception_3a/output"
}
layer {
  name: "inception_3b/1x1"
  type: "Convolution"
  bottom: "inception_3a/output"
  top: "inception_3b/1x1"
  param {
    lr_mult: 1
    decay_mult: 1
  }
  param {
    lr_mult: 2
    decay_mult: 0
  }
  convolution_param {
    num_output: 128
    kernel_size: 1
    weight_filler {
      type: "xavier"
      std: 0.03
    }
    bias_filler {
      type: "constant"
      value: 0.2
    }
  }
}
layer {
  name: "inception_3b/relu_1x1"
  type: "ReLU"
  bottom: "inception_3b/1x1"
  top: "inception_3b/1x1"
}
layer {
  name: "inception_3b/3x3_reduce"
  type: "Convolution"
  bottom: "inception_3a/output"
  top: "inception_3b/3x3_reduce"
  param {
    lr_mult: 1
    decay_mult: 1
  }
  param {
    lr_mult: 2
    decay_mult: 0
  }
  convolution_param {
    num_output: 128
    kernel_size: 1
    weight_filler {
      type: "xavier"
      std: 0.09
    }
    bias_filler {
      type: "constant"
      value: 0.2
    }
  }
}
layer {
  name: "inception_3b/relu_3x3_reduce"
  type: "ReLU"
  bottom: "inception_3b/3x3_reduce"
  top: "inception_3b/3x3_reduce"
}
layer {
  name: "inception_3b/3x3"
  type: "Convolution"
  bottom: "inception_3b/3x3_reduce"
  top: "inception_3b/3x3"
  param {
    lr_mult: 1
    decay_mult: 1
  }
  param {
    lr_mult: 2
    decay_mult: 0
  }
  convolution_param {
    num_output: 192
    pad: 1
    kernel_size: 3
    weight_filler {
      type: "xavier"
      std: 0.03
    }
    bias_filler {
      type: "constant"
      value: 0.2
    }
  }
}
layer {
  name: "inception_3b/relu_3x3"
  type: "ReLU"
  bottom: "inception_3b/3x3"
  top: "inception_3b/3x3"
}
layer {
  name: "inception_3b/5x5_reduce"
  type: "Convolution"
  bottom: "inception_3a/output"
  top: "inception_3b/5x5_reduce"
  param {
    lr_mult: 1
    decay_mult: 1
  }
  param {
    lr_mult: 2
    decay_mult: 0
  }
  convolution_param {
    num_output: 32
    kernel_size: 1
    weight_filler {
      type: "xavier"
      std: 0.2
    }
    bias_filler {
      type: "constant"
      value: 0.2
    }
  }
}
layer {
  name: "inception_3b/relu_5x5_reduce"
  type: "ReLU"
  bottom: "inception_3b/5x5_reduce"
  top: "inception_3b/5x5_reduce"
}
layer {
  name: "inception_3b/5x5"
  type: "Convolution"
  bottom: "inception_3b/5x5_reduce"
  top: "inception_3b/5x5"
  param {
    lr_mult: 1
    decay_mult: 1
  }
  param {
    lr_mult: 2
    decay_mult: 0
  }
  convolution_param {
    num_output: 96
    pad: 2
    kernel_size: 5
    weight_filler {
      type: "xavier"
      std: 0.03
    }
    bias_filler {
      type: "constant"
      value: 0.2
    }
  }
}
layer {
  name: "inception_3b/relu_5x5"
  type: "ReLU"
  bottom: "inception_3b/5x5"
  top: "inception_3b/5x5"
}
layer {
  name: "inception_3b/pool"
  type: "Pooling"
  bottom: "inception_3a/output"
  top: "inception_3b/pool"
  pooling_param {
    pool: MAX
    kernel_size: 3
    stride: 1
    pad: 1
  }
}
layer {
  name: "inception_3b/pool_proj"
  type: "Convolution"
  bottom: "inception_3b/pool"
  top: "inception_3b/pool_proj"
  param {
    lr_mult: 1
    decay_mult: 1
  }
  param {
    lr_mult: 2
    decay_mult: 0
  }
  convolution_param {
    num_output: 64
    kernel_size: 1
    weight_filler {
      type: "xavier"
      std: 0.1
    }
    bias_filler {
      type: "constant"
      value: 0.2
    }
  }
}
layer {
  name: "inception_3b/relu_pool_proj"
  type: "ReLU"
  bottom: "inception_3b/pool_proj"
  top: "inception_3b/pool_proj"
}
layer {
  name: "inception_3b/output"
  type: "Concat"
  bottom: "inception_3b/1x1"
  bottom: "inception_3b/3x3"
  bottom: "inception_3b/5x5"
  bottom: "inception_3b/pool_proj"
  top: "inception_3b/output"
}
layer {
  name: "pool3/3x3_s2"
  type: "Pooling"
  bottom: "inception_3b/output"
  top: "pool3/3x3_s2"
  pooling_param {
    pool: MAX
    kernel_size: 3
    stride: 2
  }
}
layer {
  name: "inception_4a/1x1"
  type: "Convolution"
  bottom: "pool3/3x3_s2"
  top: "inception_4a/1x1"
  param {
    lr_mult: 1
    decay_mult: 1
  }
  param {
    lr_mult: 2
    decay_mult: 0
  }
  convolution_param {
    num_output: 192
    kernel_size: 1
    weight_filler {
      type: "xavier"
      std: 0.03
    }
    bias_filler {
      type: "constant"
      value: 0.2
    }
  }
}
layer {
  name: "inception_4a/relu_1x1"
  type: "ReLU"
  bottom: "inception_4a/1x1"
  top: "inception_4a/1x1"
}
layer {
  name: "inception_4a/3x3_reduce"
  type: "Convolution"
  bottom: "pool3/3x3_s2"
  top: "inception_4a/3x3_reduce"
  param {
    lr_mult: 1
    decay_mult: 1
  }
  param {
    lr_mult: 2
    decay_mult: 0
  }
  convolution_param {
    num_output: 96
    kernel_size: 1
    weight_filler {
      type: "xavier"
      std: 0.09
    }
    bias_filler {
      type: "constant"
      value: 0.2
    }
  }
}
layer {
  name: "inception_4a/relu_3x3_reduce"
  type: "ReLU"
  bottom: "inception_4a/3x3_reduce"
  top: "inception_4a/3x3_reduce"
}
layer {
  name: "inception_4a/3x3"
  type: "Convolution"
  bottom: "inception_4a/3x3_reduce"
  top: "inception_4a/3x3"
  param {
    lr_mult: 1
    decay_mult: 1
  }
  param {
    lr_mult: 2
    decay_mult: 0
  }
  convolution_param {
    num_output: 208
    pad: 1
    kernel_size: 3
    weight_filler {
      type: "xavier"
      std: 0.03
    }
    bias_filler {
      type: "constant"
      value: 0.2
    }
  }
}
layer {
  name: "inception_4a/relu_3x3"
  type: "ReLU"
  bottom: "inception_4a/3x3"
  top: "inception_4a/3x3"
}
layer {
  name: "inception_4a/5x5_reduce"
  type: "Convolution"
  bottom: "pool3/3x3_s2"
  top: "inception_4a/5x5_reduce"
  param {
    lr_mult: 1
    decay_mult: 1
  }
  param {
    lr_mult: 2
    decay_mult: 0
  }
  convolution_param {
    num_output: 16
    kernel_size: 1
    weight_filler {
      type: "xavier"
      std: 0.2
    }
    bias_filler {
      type: "constant"
      value: 0.2
    }
  }
}
layer {
  name: "inception_4a/relu_5x5_reduce"
  type: "ReLU"
  bottom: "inception_4a/5x5_reduce"
  top: "inception_4a/5x5_reduce"
}
layer {
  name: "inception_4a/5x5"
  type: "Convolution"
  bottom: "inception_4a/5x5_reduce"
  top: "inception_4a/5x5"
  param {
    lr_mult: 1
    decay_mult: 1
  }
  param {
    lr_mult: 2
    decay_mult: 0
  }
  convolution_param {
    num_output: 48
    pad: 2
    kernel_size: 5
    weight_filler {
      type: "xavier"
      std: 0.03
    }
    bias_filler {
      type: "constant"
      value: 0.2
    }
  }
}
layer {
  name: "inception_4a/relu_5x5"
  type: "ReLU"
  bottom: "inception_4a/5x5"
  top: "inception_4a/5x5"
}
layer {
  name: "inception_4a/pool"
  type: "Pooling"
  bottom: "pool3/3x3_s2"
  top: "inception_4a/pool"
  pooling_param {
    pool: MAX
    kernel_size: 3
    stride: 1
    pad: 1
  }
}
layer {
  name: "inception_4a/pool_proj"
  type: "Convolution"
  bottom: "inception_4a/pool"
  top: "inception_4a/pool_proj"
  param {
    lr_mult: 1
    decay_mult: 1
  }
  param {
    lr_mult: 2
    decay_mult: 0
  }
  convolution_param {
    num_output: 64
    kernel_size: 1
    weight_filler {
      type: "xavier"
      std: 0.1
    }
    bias_filler {
      type: "constant"
      value: 0.2
    }
  }
}
layer {
  name: "inception_4a/relu_pool_proj"
  type: "ReLU"
  bottom: "inception_4a/pool_proj"
  top: "inception_4a/pool_proj"
}
layer {
  name: "inception_4a/output"
  type: "Concat"
  bottom: "inception_4a/1x1"
  bottom: "inception_4a/3x3"
  bottom: "inception_4a/5x5"
  bottom: "inception_4a/pool_proj"
  top: "inception_4a/output"
}
layer {
  name: "inception_4b/1x1"
  type: "Convolution"
  bottom: "inception_4a/output"
  top: "inception_4b/1x1"
  param {
    lr_mult: 1
    decay_mult: 1
  }
  param {
    lr_mult: 2
    decay_mult: 0
  }
  convolution_param {
    num_output: 160
    kernel_size: 1
    weight_filler {
      type: "xavier"
      std: 0.03
    }
    bias_filler {
      type: "constant"
      value: 0.2
    }
  }
}
layer {
  name: "inception_4b/relu_1x1"
  type: "ReLU"
  bottom: "inception_4b/1x1"
  top: "inception_4b/1x1"
}
layer {
  name: "inception_4b/3x3_reduce"
  type: "Convolution"
  bottom: "inception_4a/output"
  top: "inception_4b/3x3_reduce"
  param {
    lr_mult: 1
    decay_mult: 1
  }
  param {
    lr_mult: 2
    decay_mult: 0
  }
  convolution_param {
    num_output: 112
    kernel_size: 1
    weight_filler {
      type: "xavier"
      std: 0.09
    }
    bias_filler {
      type: "constant"
      value: 0.2
    }
  }
}
layer {
  name: "inception_4b/relu_3x3_reduce"
  type: "ReLU"
  bottom: "inception_4b/3x3_reduce"
  top: "inception_4b/3x3_reduce"
}
layer {
  name: "inception_4b/3x3"
  type: "Convolution"
  bottom: "inception_4b/3x3_reduce"
  top: "inception_4b/3x3"
  param {
    lr_mult: 1
    decay_mult: 1
  }
  param {
    lr_mult: 2
    decay_mult: 0
  }
  convolution_param {
    num_output: 224
    pad: 1
    kernel_size: 3
    weight_filler {
      type: "xavier"
      std: 0.03
    }
    bias_filler {
      type: "constant"
      value: 0.2
    }
  }
}
layer {
  name: "inception_4b/relu_3x3"
  type: "ReLU"
  bottom: "inception_4b/3x3"
  top: "inception_4b/3x3"
}
layer {
  name: "inception_4b/5x5_reduce"
  type: "Convolution"
  bottom: "inception_4a/output"
  top: "inception_4b/5x5_reduce"
  param {
    lr_mult: 1
    decay_mult: 1
  }
  param {
    lr_mult: 2
    decay_mult: 0
  }
  convolution_param {
    num_output: 24
    kernel_size: 1
    weight_filler {
      type: "xavier"
      std: 0.2
    }
    bias_filler {
      type: "constant"
      value: 0.2
    }
  }
}
layer {
  name: "inception_4b/relu_5x5_reduce"
  type: "ReLU"
  bottom: "inception_4b/5x5_reduce"
  top: "inception_4b/5x5_reduce"
}
layer {
  name: "inception_4b/5x5"
  type: "Convolution"
  bottom: "inception_4b/5x5_reduce"
  top: "inception_4b/5x5"
  param {
    lr_mult: 1
    decay_mult: 1
  }
  param {
    lr_mult: 2
    decay_mult: 0
  }
  convolution_param {
    num_output: 64
    pad: 2
    kernel_size: 5
    weight_filler {
      type: "xavier"
      std: 0.03
    }
    bias_filler {
      type: "constant"
      value: 0.2
    }
  }
}
layer {
  name: "inception_4b/relu_5x5"
  type: "ReLU"
  bottom: "inception_4b/5x5"
  top: "inception_4b/5x5"
}
layer {
  name: "inception_4b/pool"
  type: "Pooling"
  bottom: "inception_4a/output"
  top: "inception_4b/pool"
  pooling_param {
    pool: MAX
    kernel_size: 3
    stride: 1
    pad: 1
  }
}
layer {
  name: "inception_4b/pool_proj"
  type: "Convolution"
  bottom: "inception_4b/pool"
  top: "inception_4b/pool_proj"
  param {
    lr_mult: 1
    decay_mult: 1
  }
  param {
    lr_mult: 2
    decay_mult: 0
  }
  convolution_param {
    num_output: 64
    kernel_size: 1
    weight_filler {
      type: "xavier"
      std: 0.1
    }
    bias_filler {
      type: "constant"
      value: 0.2
    }
  }
}
layer {
  name: "inception_4b/relu_pool_proj"
  type: "ReLU"
  bottom: "inception_4b/pool_proj"
  top: "inception_4b/pool_proj"
}
layer {
  name: "inception_4b/output"
  type: "Concat"
  bottom: "inception_4b/1x1"
  bottom: "inception_4b/3x3"
  bottom: "inception_4b/5x5"
  bottom: "inception_4b/pool_proj"
  top: "inception_4b/output"
}
layer {
  name: "inception_4c/1x1"
  type: "Convolution"
  bottom: "inception_4b/output"
  top: "inception_4c/1x1"
  param {
    lr_mult: 1
    decay_mult: 1
  }
  param {
    lr_mult: 2
    decay_mult: 0
  }
  convolution_param {
    num_output: 128
    kernel_size: 1
    weight_filler {
      type: "xavier"
      std: 0.03
    }
    bias_filler {
      type: "constant"
      value: 0.2
    }
  }
}
layer {
  name: "inception_4c/relu_1x1"
  type: "ReLU"
  bottom: "inception_4c/1x1"
  top: "inception_4c/1x1"
}
layer {
  name: "inception_4c/3x3_reduce"
  type: "Convolution"
  bottom: "inception_4b/output"
  top: "inception_4c/3x3_reduce"
  param {
    lr_mult: 1
    decay_mult: 1
  }
  param {
    lr_mult: 2
    decay_mult: 0
  }
  convolution_param {
    num_output: 128
    kernel_size: 1
    weight_filler {
      type: "xavier"
      std: 0.09
    }
    bias_filler {
      type: "constant"
      value: 0.2
    }
  }
}
layer {
  name: "inception_4c/relu_3x3_reduce"
  type: "ReLU"
  bottom: "inception_4c/3x3_reduce"
  top: "inception_4c/3x3_reduce"
}
layer {
  name: "inception_4c/3x3"
  type: "Convolution"
  bottom: "inception_4c/3x3_reduce"
  top: "inception_4c/3x3"
  param {
    lr_mult: 1
    decay_mult: 1
  }
  param {
    lr_mult: 2
    decay_mult: 0
  }
  convolution_param {
    num_output: 256
    pad: 1
    kernel_size: 3
    weight_filler {
      type: "xavier"
      std: 0.03
    }
    bias_filler {
      type: "constant"
      value: 0.2
    }
  }
}
layer {
  name: "inception_4c/relu_3x3"
  type: "ReLU"
  bottom: "inception_4c/3x3"
  top: "inception_4c/3x3"
}
layer {
  name: "inception_4c/5x5_reduce"
  type: "Convolution"
  bottom: "inception_4b/output"
  top: "inception_4c/5x5_reduce"
  param {
    lr_mult: 1
    decay_mult: 1
  }
  param {
    lr_mult: 2
    decay_mult: 0
  }
  convolution_param {
    num_output: 24
    kernel_size: 1
    weight_filler {
      type: "xavier"
      std: 0.2
    }
    bias_filler {
      type: "constant"
      value: 0.2
    }
  }
}
layer {
  name: "inception_4c/relu_5x5_reduce"
  type: "ReLU"
  bottom: "inception_4c/5x5_reduce"
  top: "inception_4c/5x5_reduce"
}
layer {
  name: "inception_4c/5x5"
  type: "Convolution"
  bottom: "inception_4c/5x5_reduce"
  top: "inception_4c/5x5"
  param {
    lr_mult: 1
    decay_mult: 1
  }
  param {
    lr_mult: 2
    decay_mult: 0
  }
  convolution_param {
    num_output: 64
    pad: 2
    kernel_size: 5
    weight_filler {
      type: "xavier"
      std: 0.03
    }
    bias_filler {
      type: "constant"
      value: 0.2
    }
  }
}
layer {
  name: "inception_4c/relu_5x5"
  type: "ReLU"
  bottom: "inception_4c/5x5"
  top: "inception_4c/5x5"
}
layer {
  name: "inception_4c/pool"
  type: "Pooling"
  bottom: "inception_4b/output"
  top: "inception_4c/pool"
  pooling_param {
    pool: MAX
    kernel_size: 3
    stride: 1
    pad: 1
  }
}
layer {
  name: "inception_4c/pool_proj"
  type: "Convolution"
  bottom: "inception_4c/pool"
  top: "inception_4c/pool_proj"
  param {
    lr_mult: 1
    decay_mult: 1
  }
  param {
    lr_mult: 2
    decay_mult: 0
  }
  convolution_param {
    num_output: 64
    kernel_size: 1
    weight_filler {
      type: "xavier"
      std: 0.1
    }
    bias_filler {
      type: "constant"
      value: 0.2
    }
  }
}
layer {
  name: "inception_4c/relu_pool_proj"
  type: "ReLU"
  bottom: "inception_4c/pool_proj"
  top: "inception_4c/pool_proj"
}
layer {
  name: "inception_4c/output"
  type: "Concat"
  bottom: "inception_4c/1x1"
  bottom: "inception_4c/3x3"
  bottom: "inception_4c/5x5"
  bottom: "inception_4c/pool_proj"
  top: "inception_4c/output"
}
layer {
  name: "inception_4d/1x1"
  type: "Convolution"
  bottom: "inception_4c/output"
  top: "inception_4d/1x1"
  param {
    lr_mult: 1
    decay_mult: 1
  }
  param {
    lr_mult: 2
    decay_mult: 0
  }
  convolution_param {
    num_output: 112
    kernel_size: 1
    weight_filler {
      type: "xavier"
      std: 0.03
    }
    bias_filler {
      type: "constant"
      value: 0.2
    }
  }
}
layer {
  name: "inception_4d/relu_1x1"
  type: "ReLU"
  bottom: "inception_4d/1x1"
  top: "inception_4d/1x1"
}
layer {
  name: "inception_4d/3x3_reduce"
  type: "Convolution"
  bottom: "inception_4c/output"
  top: "inception_4d/3x3_reduce"
  param {
    lr_mult: 1
    decay_mult: 1
  }
  param {
    lr_mult: 2
    decay_mult: 0
  }
  convolution_param {
    num_output: 144
    kernel_size: 1
    weight_filler {
      type: "xavier"
      std: 0.09
    }
    bias_filler {
      type: "constant"
      value: 0.2
    }
  }
}
layer {
  name: "inception_4d/relu_3x3_reduce"
  type: "ReLU"
  bottom: "inception_4d/3x3_reduce"
  top: "inception_4d/3x3_reduce"
}
layer {
  name: "inception_4d/3x3"
  type: "Convolution"
  bottom: "inception_4d/3x3_reduce"
  top: "inception_4d/3x3"
  param {
    lr_mult: 1
    decay_mult: 1
  }
  param {
    lr_mult: 2
    decay_mult: 0
  }
  convolution_param {
    num_output: 288
    pad: 1
    kernel_size: 3
    weight_filler {
      type: "xavier"
      std: 0.03
    }
    bias_filler {
      type: "constant"
      value: 0.2
    }
  }
}
layer {
  name: "inception_4d/relu_3x3"
  type: "ReLU"
  bottom: "inception_4d/3x3"
  top: "inception_4d/3x3"
}
layer {
  name: "inception_4d/5x5_reduce"
  type: "Convolution"
  bottom: "inception_4c/output"
  top: "inception_4d/5x5_reduce"
  param {
    lr_mult: 1
    decay_mult: 1
  }
  param {
    lr_mult: 2
    decay_mult: 0
  }
  convolution_param {
    num_output: 32
    kernel_size: 1
    weight_filler {
      type: "xavier"
      std: 0.2
    }
    bias_filler {
      type: "constant"
      value: 0.2
    }
  }
}
layer {
  name: "inception_4d/relu_5x5_reduce"
  type: "ReLU"
  bottom: "inception_4d/5x5_reduce"
  top: "inception_4d/5x5_reduce"
}
layer {
  name: "inception_4d/5x5"
  type: "Convolution"
  bottom: "inception_4d/5x5_reduce"
  top: "inception_4d/5x5"
  param {
    lr_mult: 1
    decay_mult: 1
  }
  param {
    lr_mult: 2
    decay_mult: 0
  }
  convolution_param {
    num_output: 64
    pad: 2
    kernel_size: 5
    weight_filler {
      type: "xavier"
      std: 0.03
    }
    bias_filler {
      type: "constant"
      value: 0.2
    }
  }
}
layer {
  name: "inception_4d/relu_5x5"
  type: "ReLU"
  bottom: "inception_4d/5x5"
  top: "inception_4d/5x5"
}
layer {
  name: "inception_4d/pool"
  type: "Pooling"
  bottom: "inception_4c/output"
  top: "inception_4d/pool"
  pooling_param {
    pool: MAX
    kernel_size: 3
    stride: 1
    pad: 1
  }
}
layer {
  name: "inception_4d/pool_proj"
  type: "Convolution"
  bottom: "inception_4d/pool"
  top: "inception_4d/pool_proj"
  param {
    lr_mult: 1
    decay_mult: 1
  }
  param {
    lr_mult: 2
    decay_mult: 0
  }
  convolution_param {
    num_output: 64
    kernel_size: 1
    weight_filler {
      type: "xavier"
      std: 0.1
    }
    bias_filler {
      type: "constant"
      value: 0.2
    }
  }
}
layer {
  name: "inception_4d/relu_pool_proj"
  type: "ReLU"
  bottom: "inception_4d/pool_proj"
  top: "inception_4d/pool_proj"
}
layer {
  name: "inception_4d/output"
  type: "Concat"
  bottom: "inception_4d/1x1"
  bottom: "inception_4d/3x3"
  bottom: "inception_4d/5x5"
  bottom: "inception_4d/pool_proj"
  top: "inception_4d/output"
}
layer {
  name: "inception_4e/1x1"
  type: "Convolution"
  bottom: "inception_4d/output"
  top: "inception_4e/1x1"
  param {
    lr_mult: 1
    decay_mult: 1
  }
  param {
    lr_mult: 2
    decay_mult: 0
  }
  convolution_param {
    num_output: 256
    kernel_size: 1
    weight_filler {
      type: "xavier"
      std: 0.03
    }
    bias_filler {
      type: "constant"
      value: 0.2
    }
  }
}
layer {
  name: "inception_4e/relu_1x1"
  type: "ReLU"
  bottom: "inception_4e/1x1"
  top: "inception_4e/1x1"
}
layer {
  name: "inception_4e/3x3_reduce"
  type: "Convolution"
  bottom: "inception_4d/output"
  top: "inception_4e/3x3_reduce"
  param {
    lr_mult: 1
    decay_mult: 1
  }
  param {
    lr_mult: 2
    decay_mult: 0
  }
  convolution_param {
    num_output: 160
    kernel_size: 1
    weight_filler {
      type: "xavier"
      std: 0.09
    }
    bias_filler {
      type: "constant"
      value: 0.2
    }
  }
}
layer {
  name: "inception_4e/relu_3x3_reduce"
  type: "ReLU"
  bottom: "inception_4e/3x3_reduce"
  top: "inception_4e/3x3_reduce"
}
layer {
  name: "inception_4e/3x3"
  type: "Convolution"
  bottom: "inception_4e/3x3_reduce"
  top: "inception_4e/3x3"
  param {
    lr_mult: 1
    decay_mult: 1
  }
  param {
    lr_mult: 2
    decay_mult: 0
  }
  convolution_param {
    num_output: 320
    pad: 1
    kernel_size: 3
    weight_filler {
      type: "xavier"
      std: 0.03
    }
    bias_filler {
      type: "constant"
      value: 0.2
    }
  }
}
layer {
  name: "inception_4e/relu_3x3"
  type: "ReLU"
  bottom: "inception_4e/3x3"
  top: "inception_4e/3x3"
}
layer {
  name: "inception_4e/5x5_reduce"
  type: "Convolution"
  bottom: "inception_4d/output"
  top: "inception_4e/5x5_reduce"
  param {
    lr_mult: 1
    decay_mult: 1
  }
  param {
    lr_mult: 2
    decay_mult: 0
  }
  convolution_param {
    num_output: 32
    kernel_size: 1
    weight_filler {
      type: "xavier"
      std: 0.2
    }
    bias_filler {
      type: "constant"
      value: 0.2
    }
  }
}
layer {
  name: "inception_4e/relu_5x5_reduce"
  type: "ReLU"
  bottom: "inception_4e/5x5_reduce"
  top: "inception_4e/5x5_reduce"
}
layer {
  name: "inception_4e/5x5"
  type: "Convolution"
  bottom: "inception_4e/5x5_reduce"
  top: "inception_4e/5x5"
  param {
    lr_mult: 1
    decay_mult: 1
  }
  param {
    lr_mult: 2
    decay_mult: 0
  }
  convolution_param {
    num_output: 128
    pad: 2
    kernel_size: 5
    weight_filler {
      type: "xavier"
      std: 0.03
    }
    bias_filler {
      type: "constant"
      value: 0.2
    }
  }
}
layer {
  name: "inception_4e/relu_5x5"
  type: "ReLU"
  bottom: "inception_4e/5x5"
  top: "inception_4e/5x5"
}
layer {
  name: "inception_4e/pool"
  type: "Pooling"
  bottom: "inception_4d/output"
  top: "inception_4e/pool"
  pooling_param {
    pool: MAX
    kernel_size: 3
    stride: 1
    pad: 1
  }
}
layer {
  name: "inception_4e/pool_proj"
  type: "Convolution"
  bottom: "inception_4e/pool"
  top: "inception_4e/pool_proj"
  param {
    lr_mult: 1
    decay_mult: 1
  }
  param {
    lr_mult: 2
    decay_mult: 0
  }
  convolution_param {
    num_output: 128
    kernel_size: 1
    weight_filler {
      type: "xavier"
      std: 0.1
    }
    bias_filler {
      type: "constant"
      value: 0.2
    }
  }
}
layer {
  name: "inception_4e/relu_pool_proj"
  type: "ReLU"
  bottom: "inception_4e/pool_proj"
  top: "inception_4e/pool_proj"
}
layer {
  name: "inception_4e/output"
  type: "Concat"
  bottom: "inception_4e/1x1"
  bottom: "inception_4e/3x3"
  bottom: "inception_4e/5x5"
  bottom: "inception_4e/pool_proj"
  top: "inception_4e/output"
}
layer {
  name: "pool4/3x3_s2"
  type: "Pooling"
  bottom: "inception_4e/output"
  top: "pool4/3x3_s2"
  pooling_param {
    pool: MAX
    kernel_size: 3
    stride: 2
  }
}
layer {
  name: "inception_5a/1x1"
  type: "Convolution"
  bottom: "pool4/3x3_s2"
  top: "inception_5a/1x1"
  param {
    lr_mult: 1
    decay_mult: 1
  }
  param {
    lr_mult: 2
    decay_mult: 0
  }
  convolution_param {
    num_output: 256
    kernel_size: 1
    weight_filler {
      type: "xavier"
      std: 0.03
    }
    bias_filler {
      type: "constant"
      value: 0.2
    }
  }
}
layer {
  name: "inception_5a/relu_1x1"
  type: "ReLU"
  bottom: "inception_5a/1x1"
  top: "inception_5a/1x1"
}
layer {
  name: "inception_5a/3x3_reduce"
  type: "Convolution"
  bottom: "pool4/3x3_s2"
  top: "inception_5a/3x3_reduce"
  param {
    lr_mult: 1
    decay_mult: 1
  }
  param {
    lr_mult: 2
    decay_mult: 0
  }
  convolution_param {
    num_output: 160
    kernel_size: 1
    weight_filler {
      type: "xavier"
      std: 0.09
    }
    bias_filler {
      type: "constant"
      value: 0.2
    }
  }
}
layer {
  name: "inception_5a/relu_3x3_reduce"
  type: "ReLU"
  bottom: "inception_5a/3x3_reduce"
  top: "inception_5a/3x3_reduce"
}
layer {
  name: "inception_5a/3x3"
  type: "Convolution"
  bottom: "inception_5a/3x3_reduce"
  top: "inception_5a/3x3"
  param {
    lr_mult: 1
    decay_mult: 1
  }
  param {
    lr_mult: 2
    decay_mult: 0
  }
  convolution_param {
    num_output: 320
    pad: 1
    kernel_size: 3
    weight_filler {
      type: "xavier"
      std: 0.03
    }
    bias_filler {
      type: "constant"
      value: 0.2
    }
  }
}
layer {
  name: "inception_5a/relu_3x3"
  type: "ReLU"
  bottom: "inception_5a/3x3"
  top: "inception_5a/3x3"
}
layer {
  name: "inception_5a/5x5_reduce"
  type: "Convolution"
  bottom: "pool4/3x3_s2"
  top: "inception_5a/5x5_reduce"
  param {
    lr_mult: 1
    decay_mult: 1
  }
  param {
    lr_mult: 2
    decay_mult: 0
  }
  convolution_param {
    num_output: 32
    kernel_size: 1
    weight_filler {
      type: "xavier"
      std: 0.2
    }
    bias_filler {
      type: "constant"
      value: 0.2
    }
I0707 12:21:50.424074  5062 layer_factory.hpp:77] Creating layer data
I0707 12:21:50.424100  5062 net.cpp:91] Creating Layer data
I0707 12:21:50.424110  5062 net.cpp:399] data -> data
I0707 12:21:50.424511  5066 layer_factory.hpp:77] Creating layer data
I0707 12:21:50.424531  5066 net.cpp:91] Creating Layer data
I0707 12:21:50.424540  5066 net.cpp:399] data -> data
I0707 12:21:51.053395  5062 net.cpp:141] Setting up data
I0707 12:21:51.053472  5062 net.cpp:148] Top shape: 10 3 224 224 (1505280)
I0707 12:21:51.053479  5062 net.cpp:156] Memory required for data: 6021120
I0707 12:21:51.053498  5062 layer_factory.hpp:77] Creating layer conv1/7x7_s2
I0707 12:21:51.053509  5066 net.cpp:141] Setting up data
I0707 12:21:51.053532  5062 net.cpp:91] Creating Layer conv1/7x7_s2
I0707 12:21:51.053557  5066 net.cpp:148] Top shape: 10 3 224 224 (1505280)
I0707 12:21:51.053560  5062 net.cpp:425] conv1/7x7_s2 <- data
I0707 12:21:51.053568  5066 net.cpp:156] Memory required for data: 6021120
I0707 12:21:51.053578  5066 layer_factory.hpp:77] Creating layer conv1/7x7_s2
I0707 12:21:51.053581  5062 net.cpp:399] conv1/7x7_s2 -> conv1/7x7_s2
I0707 12:21:51.053614  5066 net.cpp:91] Creating Layer conv1/7x7_s2
I0707 12:21:51.053622  5066 net.cpp:425] conv1/7x7_s2 <- data
I0707 12:21:51.053634  5066 net.cpp:399] conv1/7x7_s2 -> conv1/7x7_s2
I0707 12:21:51.310778  5062 net.cpp:141] Setting up conv1/7x7_s2
I0707 12:21:51.310825  5062 net.cpp:148] Top shape: 10 64 112 112 (8028160)
I0707 12:21:51.310832  5062 net.cpp:156] Memory required for data: 38133760
I0707 12:21:51.310855  5062 layer_factory.hpp:77] Creating layer conv1/relu_7x7
I0707 12:21:51.310863  5066 net.cpp:141] Setting up conv1/7x7_s2
I0707 12:21:51.310878  5062 net.cpp:91] Creating Layer conv1/relu_7x7
I0707 12:21:51.310906  5062 net.cpp:425] conv1/relu_7x7 <- conv1/7x7_s2
I0707 12:21:51.310907  5066 net.cpp:148] Top shape: 10 64 112 112 (8028160)
I0707 12:21:51.310920  5062 net.cpp:386] conv1/relu_7x7 -> conv1/7x7_s2 (in-place)
I0707 12:21:51.310930  5066 net.cpp:156] Memory required for data: 38133760
I0707 12:21:51.310951  5066 layer_factory.hpp:77] Creating layer conv1/relu_7x7
I0707 12:21:51.310969  5066 net.cpp:91] Creating Layer conv1/relu_7x7
I0707 12:21:51.310976  5066 net.cpp:425] conv1/relu_7x7 <- conv1/7x7_s2
I0707 12:21:51.310984  5066 net.cpp:386] conv1/relu_7x7 -> conv1/7x7_s2 (in-place)
I0707 12:21:51.312039  5066 net.cpp:141] Setting up conv1/relu_7x7
I0707 12:21:51.312039  5062 net.cpp:141] Setting up conv1/relu_7x7
I0707 12:21:51.312059  5066 net.cpp:148] Top shape: 10 64 112 112 (8028160)
I0707 12:21:51.312067  5066 net.cpp:156] Memory required for data: 70246400
I0707 12:21:51.312072  5062 net.cpp:148] Top shape: 10 64 112 112 (8028160)
I0707 12:21:51.312072  5066 layer_factory.hpp:77] Creating layer pool1/3x3_s2
I0707 12:21:51.312083  5062 net.cpp:156] Memory required for data: 70246400
I0707 12:21:51.312096  5062 layer_factory.hpp:77] Creating layer pool1/3x3_s2
I0707 12:21:51.312100  5066 net.cpp:91] Creating Layer pool1/3x3_s2
I0707 12:21:51.312108  5066 net.cpp:425] pool1/3x3_s2 <- conv1/7x7_s2
I0707 12:21:51.312108  5062 net.cpp:91] Creating Layer pool1/3x3_s2
I0707 12:21:51.312119  5066 net.cpp:399] pool1/3x3_s2 -> pool1/3x3_s2
I0707 12:21:51.312121  5062 net.cpp:425] pool1/3x3_s2 <- conv1/7x7_s2
I0707 12:21:51.312130  5062 net.cpp:399] pool1/3x3_s2 -> pool1/3x3_s2
I0707 12:21:51.312263  5066 net.cpp:141] Setting up pool1/3x3_s2
I0707 12:21:51.312275  5066 net.cpp:148] Top shape: 10 64 56 56 (2007040)
I0707 12:21:51.312280  5066 net.cpp:156] Memory required for data: 78274560
I0707 12:21:51.312285  5066 layer_factory.hpp:77] Creating layer pool1/norm1
I0707 12:21:51.312301  5062 net.cpp:141] Setting up pool1/3x3_s2
I0707 12:21:51.312304  5066 net.cpp:91] Creating Layer pool1/norm1
I0707 12:21:51.312316  5062 net.cpp:148] Top shape: 10 64 56 56 (2007040)
I0707 12:21:51.312319  5066 net.cpp:425] pool1/norm1 <- pool1/3x3_s2
I0707 12:21:51.312322  5062 net.cpp:156] Memory required for data: 78274560
I0707 12:21:51.312333  5066 net.cpp:399] pool1/norm1 -> pool1/norm1
I0707 12:21:51.312336  5062 layer_factory.hpp:77] Creating layer pool1/norm1
I0707 12:21:51.312363  5062 net.cpp:91] Creating Layer pool1/norm1
I0707 12:21:51.312371  5062 net.cpp:425] pool1/norm1 <- pool1/3x3_s2
I0707 12:21:51.312377  5062 net.cpp:399] pool1/norm1 -> pool1/norm1
I0707 12:21:51.313542  5066 net.cpp:141] Setting up pool1/norm1
I0707 12:21:51.313557  5066 net.cpp:148] Top shape: 10 64 56 56 (2007040)
I0707 12:21:51.313562  5066 net.cpp:156] Memory required for data: 86302720
I0707 12:21:51.313568  5066 layer_factory.hpp:77] Creating layer conv2/3x3_reduce
I0707 12:21:51.313570  5062 net.cpp:141] Setting up pool1/norm1
I0707 12:21:51.313585  5062 net.cpp:148] Top shape: 10 64 56 56 (2007040)
I0707 12:21:51.313590  5062 net.cpp:156] Memory required for data: 86302720
I0707 12:21:51.313591  5066 net.cpp:91] Creating Layer conv2/3x3_reduce
I0707 12:21:51.313594  5062 layer_factory.hpp:77] Creating layer conv2/3x3_reduce
I0707 12:21:51.313597  5066 net.cpp:425] conv2/3x3_reduce <- pool1/norm1
I0707 12:21:51.313606  5066 net.cpp:399] conv2/3x3_reduce -> conv2/3x3_reduce
I0707 12:21:51.313617  5062 net.cpp:91] Creating Layer conv2/3x3_reduce
I0707 12:21:51.313623  5062 net.cpp:425] conv2/3x3_reduce <- pool1/norm1
I0707 12:21:51.313632  5062 net.cpp:399] conv2/3x3_reduce -> conv2/3x3_reduce
I0707 12:21:51.319684  5066 net.cpp:141] Setting up conv2/3x3_reduce
I0707 12:21:51.319706  5066 net.cpp:148] Top shape: 10 64 56 56 (2007040)
I0707 12:21:51.319712  5066 net.cpp:156] Memory required for data: 94330880
I0707 12:21:51.319726  5066 layer_factory.hpp:77] Creating layer conv2/relu_3x3_reduce
I0707 12:21:51.319736  5066 net.cpp:91] Creating Layer conv2/relu_3x3_reduce
I0707 12:21:51.319741  5066 net.cpp:425] conv2/relu_3x3_reduce <- conv2/3x3_reduce
I0707 12:21:51.319749  5066 net.cpp:386] conv2/relu_3x3_reduce -> conv2/3x3_reduce (in-place)
I0707 12:21:51.320523  5062 net.cpp:141] Setting up conv2/3x3_reduce
I0707 12:21:51.320544  5062 net.cpp:148] Top shape: 10 64 56 56 (2007040)
I0707 12:21:51.320549  5062 net.cpp:156] Memory required for data: 94330880
I0707 12:21:51.320561  5062 layer_factory.hpp:77] Creating layer conv2/relu_3x3_reduce
I0707 12:21:51.320579  5062 net.cpp:91] Creating Layer conv2/relu_3x3_reduce
I0707 12:21:51.320585  5062 net.cpp:425] conv2/relu_3x3_reduce <- conv2/3x3_reduce
I0707 12:21:51.320591  5062 net.cpp:386] conv2/relu_3x3_reduce -> conv2/3x3_reduce (in-place)
I0707 12:21:51.320629  5066 net.cpp:141] Setting up conv2/relu_3x3_reduce
I0707 12:21:51.320644  5066 net.cpp:148] Top shape: 10 64 56 56 (2007040)
I0707 12:21:51.320649  5066 net.cpp:156] Memory required for data: 102359040
I0707 12:21:51.320655  5066 layer_factory.hpp:77] Creating layer conv2/3x3
I0707 12:21:51.320673  5066 net.cpp:91] Creating Layer conv2/3x3
I0707 12:21:51.320679  5066 net.cpp:425] conv2/3x3 <- conv2/3x3_reduce
I0707 12:21:51.320690  5066 net.cpp:399] conv2/3x3 -> conv2/3x3
I0707 12:21:51.322216  5062 net.cpp:141] Setting up conv2/relu_3x3_reduce
I0707 12:21:51.322230  5062 net.cpp:148] Top shape: 10 64 56 56 (2007040)
I0707 12:21:51.322234  5062 net.cpp:156] Memory required for data: 102359040
I0707 12:21:51.322239  5062 layer_factory.hpp:77] Creating layer conv2/3x3
I0707 12:21:51.322255  5062 net.cpp:91] Creating Layer conv2/3x3
I0707 12:21:51.322260  5062 net.cpp:425] conv2/3x3 <- conv2/3x3_reduce
I0707 12:21:51.322270  5062 net.cpp:399] conv2/3x3 -> conv2/3x3
I0707 12:21:51.328191  5066 net.cpp:141] Setting up conv2/3x3
I0707 12:21:51.328214  5066 net.cpp:148] Top shape: 10 192 56 56 (6021120)
I0707 12:21:51.328220  5066 net.cpp:156] Memory required for data: 126443520
I0707 12:21:51.328234  5066 layer_factory.hpp:77] Creating layer conv2/relu_3x3
I0707 12:21:51.328249  5066 net.cpp:91] Creating Layer conv2/relu_3x3
I0707 12:21:51.328256  5066 net.cpp:425] conv2/relu_3x3 <- conv2/3x3
I0707 12:21:51.328263  5066 net.cpp:386] conv2/relu_3x3 -> conv2/3x3 (in-place)
I0707 12:21:51.328531  5062 net.cpp:141] Setting up conv2/3x3
I0707 12:21:51.328557  5062 net.cpp:148] Top shape: 10 192 56 56 (6021120)
I0707 12:21:51.328563  5062 net.cpp:156] Memory required for data: 126443520
I0707 12:21:51.328578  5062 layer_factory.hpp:77] Creating layer conv2/relu_3x3
I0707 12:21:51.328593  5062 net.cpp:91] Creating Layer conv2/relu_3x3
I0707 12:21:51.328599  5062 net.cpp:425] conv2/relu_3x3 <- conv2/3x3
I0707 12:21:51.328606  5062 net.cpp:386] conv2/relu_3x3 -> conv2/3x3 (in-place)
I0707 12:21:51.328626  5066 net.cpp:141] Setting up conv2/relu_3x3
I0707 12:21:51.328640  5066 net.cpp:148] Top shape: 10 192 56 56 (6021120)
I0707 12:21:51.328645  5066 net.cpp:156] Memory required for data: 150528000
I0707 12:21:51.328650  5066 layer_factory.hpp:77] Creating layer conv2/norm2
I0707 12:21:51.328665  5066 net.cpp:91] Creating Layer conv2/norm2
I0707 12:21:51.328670  5066 net.cpp:425] conv2/norm2 <- conv2/3x3
I0707 12:21:51.328677  5066 net.cpp:399] conv2/norm2 -> conv2/norm2
I0707 12:21:51.330003  5062 net.cpp:141] Setting up conv2/relu_3x3
I0707 12:21:51.330020  5062 net.cpp:148] Top shape: 10 192 56 56 (6021120)
I0707 12:21:51.330025  5062 net.cpp:156] Memory required for data: 150528000
I0707 12:21:51.330030  5062 layer_factory.hpp:77] Creating layer conv2/norm2
I0707 12:21:51.330044  5062 net.cpp:91] Creating Layer conv2/norm2
I0707 12:21:51.330049  5062 net.cpp:425] conv2/norm2 <- conv2/3x3
I0707 12:21:51.330055  5062 net.cpp:399] conv2/norm2 -> conv2/norm2
I0707 12:21:51.330056  5066 net.cpp:141] Setting up conv2/norm2
I0707 12:21:51.330070  5066 net.cpp:148] Top shape: 10 192 56 56 (6021120)
I0707 12:21:51.330075  5066 net.cpp:156] Memory required for data: 174612480
I0707 12:21:51.330080  5066 layer_factory.hpp:77] Creating layer pool2/3x3_s2
I0707 12:21:51.330090  5066 net.cpp:91] Creating Layer pool2/3x3_s2
I0707 12:21:51.330096  5066 net.cpp:425] pool2/3x3_s2 <- conv2/norm2
I0707 12:21:51.330108  5066 net.cpp:399] pool2/3x3_s2 -> pool2/3x3_s2
I0707 12:21:51.330790  5066 net.cpp:141] Setting up pool2/3x3_s2
I0707 12:21:51.330802  5066 net.cpp:148] Top shape: 10 192 28 28 (1505280)
I0707 12:21:51.330806  5066 net.cpp:156] Memory required for data: 180633600
I0707 12:21:51.330812  5066 layer_factory.hpp:77] Creating layer pool2/3x3_s2_pool2/3x3_s2_0_split
I0707 12:21:51.330835  5066 net.cpp:91] Creating Layer pool2/3x3_s2_pool2/3x3_s2_0_split
I0707 12:21:51.330842  5066 net.cpp:425] pool2/3x3_s2_pool2/3x3_s2_0_split <- pool2/3x3_s2
I0707 12:21:51.330849  5066 net.cpp:399] pool2/3x3_s2_pool2/3x3_s2_0_split -> pool2/3x3_s2_pool2/3x3_s2_0_split_0
I0707 12:21:51.330865  5066 net.cpp:399] pool2/3x3_s2_pool2/3x3_s2_0_split -> pool2/3x3_s2_pool2/3x3_s2_0_split_1
I0707 12:21:51.330874  5066 net.cpp:399] pool2/3x3_s2_pool2/3x3_s2_0_split -> pool2/3x3_s2_pool2/3x3_s2_0_split_2
I0707 12:21:51.330883  5066 net.cpp:399] pool2/3x3_s2_pool2/3x3_s2_0_split -> pool2/3x3_s2_pool2/3x3_s2_0_split_3
I0707 12:21:51.330983  5066 net.cpp:141] Setting up pool2/3x3_s2_pool2/3x3_s2_0_split
I0707 12:21:51.330994  5066 net.cpp:148] Top shape: 10 192 28 28 (1505280)
I0707 12:21:51.331001  5066 net.cpp:148] Top shape: 10 192 28 28 (1505280)
I0707 12:21:51.331007  5066 net.cpp:148] Top shape: 10 192 28 28 (1505280)
I0707 12:21:51.331012  5066 net.cpp:148] Top shape: 10 192 28 28 (1505280)
I0707 12:21:51.331017  5066 net.cpp:156] Memory required for data: 204718080
I0707 12:21:51.331022  5066 layer_factory.hpp:77] Creating layer inception_3a/1x1
I0707 12:21:51.331038  5066 net.cpp:91] Creating Layer inception_3a/1x1
I0707 12:21:51.331044  5066 net.cpp:425] inception_3a/1x1 <- pool2/3x3_s2_pool2/3x3_s2_0_split_0
I0707 12:21:51.331048  5062 net.cpp:141] Setting up conv2/norm2
I0707 12:21:51.331063  5062 net.cpp:148] Top shape: 10 192 56 56 (6021120)
I0707 12:21:51.331066  5062 net.cpp:156] Memory required for data: 174612480
I0707 12:21:51.331071  5062 layer_factory.hpp:77] Creating layer pool2/3x3_s2
I0707 12:21:51.331074  5066 net.cpp:399] inception_3a/1x1 -> inception_3a/1x1
I0707 12:21:51.331081  5062 net.cpp:91] Creating Layer pool2/3x3_s2
I0707 12:21:51.331086  5062 net.cpp:425] pool2/3x3_s2 <- conv2/norm2
I0707 12:21:51.331097  5062 net.cpp:399] pool2/3x3_s2 -> pool2/3x3_s2
I0707 12:21:51.331362  5062 net.cpp:141] Setting up pool2/3x3_s2
I0707 12:21:51.331372  5062 net.cpp:148] Top shape: 10 192 28 28 (1505280)
I0707 12:21:51.331377  5062 net.cpp:156] Memory required for data: 180633600
I0707 12:21:51.331382  5062 layer_factory.hpp:77] Creating layer pool2/3x3_s2_pool2/3x3_s2_0_split
I0707 12:21:51.331393  5062 net.cpp:91] Creating Layer pool2/3x3_s2_pool2/3x3_s2_0_split
I0707 12:21:51.331398  5062 net.cpp:425] pool2/3x3_s2_pool2/3x3_s2_0_split <- pool2/3x3_s2
I0707 12:21:51.331405  5062 net.cpp:399] pool2/3x3_s2_pool2/3x3_s2_0_split -> pool2/3x3_s2_pool2/3x3_s2_0_split_0
I0707 12:21:51.331416  5062 net.cpp:399] pool2/3x3_s2_pool2/3x3_s2_0_split -> pool2/3x3_s2_pool2/3x3_s2_0_split_1
I0707 12:21:51.331424  5062 net.cpp:399] pool2/3x3_s2_pool2/3x3_s2_0_split -> pool2/3x3_s2_pool2/3x3_s2_0_split_2
I0707 12:21:51.331432  5062 net.cpp:399] pool2/3x3_s2_pool2/3x3_s2_0_split -> pool2/3x3_s2_pool2/3x3_s2_0_split_3
I0707 12:21:51.331609  5062 net.cpp:141] Setting up pool2/3x3_s2_pool2/3x3_s2_0_split
I0707 12:21:51.331619  5062 net.cpp:148] Top shape: 10 192 28 28 (1505280)
I0707 12:21:51.331625  5062 net.cpp:148] Top shape: 10 192 28 28 (1505280)
I0707 12:21:51.331630  5062 net.cpp:148] Top shape: 10 192 28 28 (1505280)
I0707 12:21:51.331635  5062 net.cpp:148] Top shape: 10 192 28 28 (1505280)
I0707 12:21:51.331640  5062 net.cpp:156] Memory required for data: 204718080
I0707 12:21:51.331645  5062 layer_factory.hpp:77] Creating layer inception_3a/1x1
I0707 12:21:51.331661  5062 net.cpp:91] Creating Layer inception_3a/1x1
I0707 12:21:51.331666  5062 net.cpp:425] inception_3a/1x1 <- pool2/3x3_s2_pool2/3x3_s2_0_split_0
I0707 12:21:51.331678  5062 net.cpp:399] inception_3a/1x1 -> inception_3a/1x1
I0707 12:21:51.337775  5066 net.cpp:141] Setting up inception_3a/1x1
I0707 12:21:51.337798  5066 net.cpp:148] Top shape: 10 64 28 28 (501760)
I0707 12:21:51.337805  5066 net.cpp:156] Memory required for data: 206725120
I0707 12:21:51.337815  5066 layer_factory.hpp:77] Creating layer inception_3a/relu_1x1
I0707 12:21:51.337826  5066 net.cpp:91] Creating Layer inception_3a/relu_1x1
I0707 12:21:51.337831  5066 net.cpp:425] inception_3a/relu_1x1 <- inception_3a/1x1
I0707 12:21:51.337844  5066 net.cpp:386] inception_3a/relu_1x1 -> inception_3a/1x1 (in-place)
I0707 12:21:51.338845  5066 net.cpp:141] Setting up inception_3a/relu_1x1
I0707 12:21:51.338862  5066 net.cpp:148] Top shape: 10 64 28 28 (501760)
I0707 12:21:51.338867  5066 net.cpp:156] Memory required for data: 208732160
I0707 12:21:51.338873  5066 layer_factory.hpp:77] Creating layer inception_3a/3x3_reduce
I0707 12:21:51.338892  5066 net.cpp:91] Creating Layer inception_3a/3x3_reduce
I0707 12:21:51.338899  5066 net.cpp:425] inception_3a/3x3_reduce <- pool2/3x3_s2_pool2/3x3_s2_0_split_1
I0707 12:21:51.338909  5066 net.cpp:399] inception_3a/3x3_reduce -> inception_3a/3x3_reduce
I0707 12:21:51.338954  5062 net.cpp:141] Setting up inception_3a/1x1
I0707 12:21:51.338979  5062 net.cpp:148] Top shape: 10 64 28 28 (501760)
I0707 12:21:51.338984  5062 net.cpp:156] Memory required for data: 206725120
I0707 12:21:51.338994  5062 layer_factory.hpp:77] Creating layer inception_3a/relu_1x1
I0707 12:21:51.339010  5062 net.cpp:91] Creating Layer inception_3a/relu_1x1
I0707 12:21:51.339016  5062 net.cpp:425] inception_3a/relu_1x1 <- inception_3a/1x1
I0707 12:21:51.339025  5062 net.cpp:386] inception_3a/relu_1x1 -> inception_3a/1x1 (in-place)
I0707 12:21:51.340540  5062 net.cpp:141] Setting up inception_3a/relu_1x1
I0707 12:21:51.340555  5062 net.cpp:148] Top shape: 10 64 28 28 (501760)
I0707 12:21:51.340560  5062 net.cpp:156] Memory required for data: 208732160
I0707 12:21:51.340565  5062 layer_factory.hpp:77] Creating layer inception_3a/3x3_reduce
I0707 12:21:51.340584  5062 net.cpp:91] Creating Layer inception_3a/3x3_reduce
I0707 12:21:51.340590  5062 net.cpp:425] inception_3a/3x3_reduce <- pool2/3x3_s2_pool2/3x3_s2_0_split_1
I0707 12:21:51.340600  5062 net.cpp:399] inception_3a/3x3_reduce -> inception_3a/3x3_reduce
I0707 12:21:51.344542  5066 net.cpp:141] Setting up inception_3a/3x3_reduce
I0707 12:21:51.344563  5066 net.cpp:148] Top shape: 10 96 28 28 (752640)
I0707 12:21:51.344569  5066 net.cpp:156] Memory required for data: 211742720
I0707 12:21:51.344583  5066 layer_factory.hpp:77] Creating layer inception_3a/relu_3x3_reduce
I0707 12:21:51.344593  5066 net.cpp:91] Creating Layer inception_3a/relu_3x3_reduce
I0707 12:21:51.344599  5066 net.cpp:425] inception_3a/relu_3x3_reduce <- inception_3a/3x3_reduce
I0707 12:21:51.344610  5066 net.cpp:386] inception_3a/relu_3x3_reduce -> inception_3a/3x3_reduce (in-place)
I0707 12:21:51.346236  5066 net.cpp:141] Setting up inception_3a/relu_3x3_reduce
I0707 12:21:51.346253  5066 net.cpp:148] Top shape: 10 96 28 28 (752640)
I0707 12:21:51.346258  5066 net.cpp:156] Memory required for data: 214753280
I0707 12:21:51.346264  5066 layer_factory.hpp:77] Creating layer inception_3a/3x3
I0707 12:21:51.346285  5066 net.cpp:91] Creating Layer inception_3a/3x3
I0707 12:21:51.346292  5066 net.cpp:425] inception_3a/3x3 <- inception_3a/3x3_reduce
I0707 12:21:51.346302  5066 net.cpp:399] inception_3a/3x3 -> inception_3a/3x3
I0707 12:21:51.346487  5062 net.cpp:141] Setting up inception_3a/3x3_reduce
I0707 12:21:51.346511  5062 net.cpp:148] Top shape: 10 96 28 28 (752640)
I0707 12:21:51.346516  5062 net.cpp:156] Memory required for data: 211742720
I0707 12:21:51.346531  5062 layer_factory.hpp:77] Creating layer inception_3a/relu_3x3_reduce
I0707 12:21:51.346541  5062 net.cpp:91] Creating Layer inception_3a/relu_3x3_reduce
I0707 12:21:51.346546  5062 net.cpp:425] inception_3a/relu_3x3_reduce <- inception_3a/3x3_reduce
I0707 12:21:51.346554  5062 net.cpp:386] inception_3a/relu_3x3_reduce -> inception_3a/3x3_reduce (in-place)
I0707 12:21:51.348049  5062 net.cpp:141] Setting up inception_3a/relu_3x3_reduce
I0707 12:21:51.348065  5062 net.cpp:148] Top shape: 10 96 28 28 (752640)
I0707 12:21:51.348070  5062 net.cpp:156] Memory required for data: 214753280
I0707 12:21:51.348075  5062 layer_factory.hpp:77] Creating layer inception_3a/3x3
I0707 12:21:51.348096  5062 net.cpp:91] Creating Layer inception_3a/3x3
I0707 12:21:51.348103  5062 net.cpp:425] inception_3a/3x3 <- inception_3a/3x3_reduce
I0707 12:21:51.348111  5062 net.cpp:399] inception_3a/3x3 -> inception_3a/3x3
I0707 12:21:51.353425  5062 net.cpp:141] Setting up inception_3a/3x3
I0707 12:21:51.353444  5062 net.cpp:148] Top shape: 10 128 28 28 (1003520)
I0707 12:21:51.353449  5062 net.cpp:156] Memory required for data: 218767360
I0707 12:21:51.353459  5062 layer_factory.hpp:77] Creating layer inception_3a/relu_3x3
I0707 12:21:51.353467  5062 net.cpp:91] Creating Layer inception_3a/relu_3x3
I0707 12:21:51.353473  5062 net.cpp:425] inception_3a/relu_3x3 <- inception_3a/3x3
I0707 12:21:51.353479  5062 net.cpp:386] inception_3a/relu_3x3 -> inception_3a/3x3 (in-place)
I0707 12:21:51.353796  5066 net.cpp:141] Setting up inception_3a/3x3
I0707 12:21:51.353816  5066 net.cpp:148] Top shape: 10 128 28 28 (1003520)
I0707 12:21:51.353822  5066 net.cpp:156] Memory required for data: 218767360
I0707 12:21:51.353833  5066 layer_factory.hpp:77] Creating layer inception_3a/relu_3x3
I0707 12:21:51.353843  5066 net.cpp:91] Creating Layer inception_3a/relu_3x3
I0707 12:21:51.353849  5066 net.cpp:425] inception_3a/relu_3x3 <- inception_3a/3x3
I0707 12:21:51.353859  5066 net.cpp:386] inception_3a/relu_3x3 -> inception_3a/3x3 (in-place)
I0707 12:21:51.353864  5062 net.cpp:141] Setting up inception_3a/relu_3x3
I0707 12:21:51.353876  5062 net.cpp:148] Top shape: 10 128 28 28 (1003520)
I0707 12:21:51.353881  5062 net.cpp:156] Memory required for data: 222781440
I0707 12:21:51.353886  5062 layer_factory.hpp:77] Creating layer inception_3a/5x5_reduce
I0707 12:21:51.353900  5062 net.cpp:91] Creating Layer inception_3a/5x5_reduce
I0707 12:21:51.353906  5062 net.cpp:425] inception_3a/5x5_reduce <- pool2/3x3_s2_pool2/3x3_s2_0_split_2
I0707 12:21:51.353919  5062 net.cpp:399] inception_3a/5x5_reduce -> inception_3a/5x5_reduce
I0707 12:21:51.355057  5066 net.cpp:141] Setting up inception_3a/relu_3x3
I0707 12:21:51.355077  5066 net.cpp:148] Top shape: 10 128 28 28 (1003520)
I0707 12:21:51.355083  5066 net.cpp:156] Memory required for data: 222781440
I0707 12:21:51.355088  5066 layer_factory.hpp:77] Creating layer inception_3a/5x5_reduce
I0707 12:21:51.355106  5066 net.cpp:91] Creating Layer inception_3a/5x5_reduce
I0707 12:21:51.355113  5066 net.cpp:425] inception_3a/5x5_reduce <- pool2/3x3_s2_pool2/3x3_s2_0_split_2
I0707 12:21:51.355126  5066 net.cpp:399] inception_3a/5x5_reduce -> inception_3a/5x5_reduce
I0707 12:21:51.359004  5066 net.cpp:141] Setting up inception_3a/5x5_reduce
I0707 12:21:51.359024  5066 net.cpp:148] Top shape: 10 16 28 28 (125440)
I0707 12:21:51.359030  5066 net.cpp:156] Memory required for data: 223283200
I0707 12:21:51.359040  5066 layer_factory.hpp:77] Creating layer inception_3a/relu_5x5_reduce
I0707 12:21:51.359048  5066 net.cpp:91] Creating Layer inception_3a/relu_5x5_reduce
I0707 12:21:51.359055  5066 net.cpp:425] inception_3a/relu_5x5_reduce <- inception_3a/5x5_reduce
I0707 12:21:51.359066  5066 net.cpp:386] inception_3a/relu_5x5_reduce -> inception_3a/5x5_reduce (in-place)
I0707 12:21:51.359936  5062 net.cpp:141] Setting up inception_3a/5x5_reduce
I0707 12:21:51.359956  5062 net.cpp:148] Top shape: 10 16 28 28 (125440)
I0707 12:21:51.359961  5062 net.cpp:156] Memory required for data: 223283200
I0707 12:21:51.359971  5062 layer_factory.hpp:77] Creating layer inception_3a/relu_5x5_reduce
I0707 12:21:51.359979  5062 net.cpp:91] Creating Layer inception_3a/relu_5x5_reduce
I0707 12:21:51.359985  5062 net.cpp:425] inception_3a/relu_5x5_reduce <- inception_3a/5x5_reduce
I0707 12:21:51.359992  5062 net.cpp:386] inception_3a/relu_5x5_reduce -> inception_3a/5x5_reduce (in-place)
I0707 12:21:51.360317  5066 net.cpp:141] Setting up inception_3a/relu_5x5_reduce
I0707 12:21:51.360332  5066 net.cpp:148] Top shape: 10 16 28 28 (125440)
I0707 12:21:51.360337  5066 net.cpp:156] Memory required for data: 223784960
I0707 12:21:51.360343  5066 layer_factory.hpp:77] Creating layer inception_3a/5x5
I0707 12:21:51.360345  5062 net.cpp:141] Setting up inception_3a/relu_5x5_reduce
I0707 12:21:51.360357  5062 net.cpp:148] Top shape: 10 16 28 28 (125440)
I0707 12:21:51.360360  5066 net.cpp:91] Creating Layer inception_3a/5x5
I0707 12:21:51.360363  5062 net.cpp:156] Memory required for data: 223784960
I0707 12:21:51.360368  5066 net.cpp:425] inception_3a/5x5 <- inception_3a/5x5_reduce
I0707 12:21:51.360369  5062 layer_factory.hpp:77] Creating layer inception_3a/5x5
I0707 12:21:51.360385  5066 net.cpp:399] inception_3a/5x5 -> inception_3a/5x5
I0707 12:21:51.360394  5062 net.cpp:91] Creating Layer inception_3a/5x5
I0707 12:21:51.360400  5062 net.cpp:425] inception_3a/5x5 <- inception_3a/5x5_reduce
I0707 12:21:51.360412  5062 net.cpp:399] inception_3a/5x5 -> inception_3a/5x5
I0707 12:21:51.366888  5062 net.cpp:141] Setting up inception_3a/5x5
I0707 12:21:51.366914  5062 net.cpp:148] Top shape: 10 32 28 28 (250880)
I0707 12:21:51.366919  5062 net.cpp:156] Memory required for data: 224788480
I0707 12:21:51.366930  5062 layer_factory.hpp:77] Creating layer inception_3a/relu_5x5
I0707 12:21:51.366940  5062 net.cpp:91] Creating Layer inception_3a/relu_5x5
I0707 12:21:51.366945  5062 net.cpp:425] inception_3a/relu_5x5 <- inception_3a/5x5
I0707 12:21:51.366955  5062 net.cpp:386] inception_3a/relu_5x5 -> inception_3a/5x5 (in-place)
I0707 12:21:51.367985  5062 net.cpp:141] Setting up inception_3a/relu_5x5
I0707 12:21:51.368000  5062 net.cpp:148] Top shape: 10 32 28 28 (250880)
I0707 12:21:51.368005  5062 net.cpp:156] Memory required for data: 225792000
I0707 12:21:51.368010  5062 layer_factory.hpp:77] Creating layer inception_3a/pool
I0707 12:21:51.368022  5062 net.cpp:91] Creating Layer inception_3a/pool
I0707 12:21:51.368028  5062 net.cpp:425] inception_3a/pool <- pool2/3x3_s2_pool2/3x3_s2_0_split_3
I0707 12:21:51.368036  5062 net.cpp:399] inception_3a/pool -> inception_3a/pool
I0707 12:21:51.368767  5066 net.cpp:141] Setting up inception_3a/5x5
I0707 12:21:51.368788  5066 net.cpp:148] Top shape: 10 32 28 28 (250880)
I0707 12:21:51.368794  5066 net.cpp:156] Memory required for data: 224788480
I0707 12:21:51.368805  5066 layer_factory.hpp:77] Creating layer inception_3a/relu_5x5
I0707 12:21:51.368814  5066 net.cpp:91] Creating Layer inception_3a/relu_5x5
I0707 12:21:51.368820  5066 net.cpp:425] inception_3a/relu_5x5 <- inception_3a/5x5
I0707 12:21:51.368831  5066 net.cpp:386] inception_3a/relu_5x5 -> inception_3a/5x5 (in-place)
I0707 12:21:51.368841  5062 net.cpp:141] Setting up inception_3a/pool
I0707 12:21:51.368855  5062 net.cpp:148] Top shape: 10 192 28 28 (1505280)
I0707 12:21:51.368860  5062 net.cpp:156] Memory required for data: 231813120
I0707 12:21:51.368865  5062 layer_factory.hpp:77] Creating layer inception_3a/pool_proj
I0707 12:21:51.368882  5062 net.cpp:91] Creating Layer inception_3a/pool_proj
I0707 12:21:51.368888  5062 net.cpp:425] inception_3a/pool_proj <- inception_3a/pool
I0707 12:21:51.368899  5062 net.cpp:399] inception_3a/pool_proj -> inception_3a/pool_proj
I0707 12:21:51.369395  5066 net.cpp:141] Setting up inception_3a/relu_5x5
I0707 12:21:51.369410  5066 net.cpp:148] Top shape: 10 32 28 28 (250880)
I0707 12:21:51.369415  5066 net.cpp:156] Memory required for data: 225792000
I0707 12:21:51.369421  5066 layer_factory.hpp:77] Creating layer inception_3a/pool
I0707 12:21:51.369437  5066 net.cpp:91] Creating Layer inception_3a/pool
I0707 12:21:51.369443  5066 net.cpp:425] inception_3a/pool <- pool2/3x3_s2_pool2/3x3_s2_0_split_3
I0707 12:21:51.369452  5066 net.cpp:399] inception_3a/pool -> inception_3a/pool
I0707 12:21:51.370585  5066 net.cpp:141] Setting up inception_3a/pool
I0707 12:21:51.370611  5066 net.cpp:148] Top shape: 10 192 28 28 (1505280)
I0707 12:21:51.370620  5066 net.cpp:156] Memory required for data: 231813120
I0707 12:21:51.370628  5066 layer_factory.hpp:77] Creating layer inception_3a/pool_proj
I0707 12:21:51.370663  5066 net.cpp:91] Creating Layer inception_3a/pool_proj
I0707 12:21:51.370671  5066 net.cpp:425] inception_3a/pool_proj <- inception_3a/pool
I0707 12:21:51.370683  5066 net.cpp:399] inception_3a/pool_proj -> inception_3a/pool_proj
I0707 12:21:51.372421  5062 net.cpp:141] Setting up inception_3a/pool_proj
I0707 12:21:51.372449  5062 net.cpp:148] Top shape: 10 32 28 28 (250880)
I0707 12:21:51.372455  5062 net.cpp:156] Memory required for data: 232816640
I0707 12:21:51.372476  5062 layer_factory.hpp:77] Creating layer inception_3a/relu_pool_proj
I0707 12:21:51.372488  5062 net.cpp:91] Creating Layer inception_3a/relu_pool_proj
I0707 12:21:51.372495  5062 net.cpp:425] inception_3a/relu_pool_proj <- inception_3a/pool_proj
I0707 12:21:51.372505  5062 net.cpp:386] inception_3a/relu_pool_proj -> inception_3a/pool_proj (in-place)
I0707 12:21:51.372846  5062 net.cpp:141] Setting up inception_3a/relu_pool_proj
I0707 12:21:51.372859  5062 net.cpp:148] Top shape: 10 32 28 28 (250880)
I0707 12:21:51.372864  5062 net.cpp:156] Memory required for data: 233820160
I0707 12:21:51.372869  5062 layer_factory.hpp:77] Creating layer inception_3a/output
I0707 12:21:51.372895  5062 net.cpp:91] Creating Layer inception_3a/output
I0707 12:21:51.372901  5062 net.cpp:425] inception_3a/output <- inception_3a/1x1
I0707 12:21:51.372907  5062 net.cpp:425] inception_3a/output <- inception_3a/3x3
I0707 12:21:51.372912  5062 net.cpp:425] inception_3a/output <- inception_3a/5x5
I0707 12:21:51.372917  5062 net.cpp:425] inception_3a/output <- inception_3a/pool_proj
I0707 12:21:51.372927  5062 net.cpp:399] inception_3a/output -> inception_3a/output
I0707 12:21:51.373684  5062 net.cpp:141] Setting up inception_3a/output
I0707 12:21:51.373697  5062 net.cpp:148] Top shape: 10 256 28 28 (2007040)
I0707 12:21:51.373702  5062 net.cpp:156] Memory required for data: 241848320
I0707 12:21:51.373706  5062 layer_factory.hpp:77] Creating layer inception_3a/output_inception_3a/output_0_split
I0707 12:21:51.373714  5062 net.cpp:91] Creating Layer inception_3a/output_inception_3a/output_0_split
I0707 12:21:51.373719  5062 net.cpp:425] inception_3a/output_inception_3a/output_0_split <- inception_3a/output
I0707 12:21:51.373726  5062 net.cpp:399] inception_3a/output_inception_3a/output_0_split -> inception_3a/output_inception_3a/output_0_split_0
I0707 12:21:51.373739  5062 net.cpp:399] inception_3a/output_inception_3a/output_0_split -> inception_3a/output_inception_3a/output_0_split_1
I0707 12:21:51.373749  5062 net.cpp:399] inception_3a/output_inception_3a/output_0_split -> inception_3a/output_inception_3a/output_0_split_2
I0707 12:21:51.373756  5062 net.cpp:399] inception_3a/output_inception_3a/output_0_split -> inception_3a/output_inception_3a/output_0_split_3
I0707 12:21:51.374119  5062 net.cpp:141] Setting up inception_3a/output_inception_3a/output_0_split
I0707 12:21:51.374128  5062 net.cpp:148] Top shape: 10 256 28 28 (2007040)
I0707 12:21:51.374135  5062 net.cpp:148] Top shape: 10 256 28 28 (2007040)
I0707 12:21:51.374140  5062 net.cpp:148] Top shape: 10 256 28 28 (2007040)
I0707 12:21:51.374145  5062 net.cpp:148] Top shape: 10 256 28 28 (2007040)
I0707 12:21:51.374148  5062 net.cpp:156] Memory required for data: 273960960
I0707 12:21:51.374152  5062 layer_factory.hpp:77] Creating layer inception_3b/1x1
I0707 12:21:51.374173  5062 net.cpp:91] Creating Layer inception_3b/1x1
I0707 12:21:51.374179  5062 net.cpp:425] inception_3b/1x1 <- inception_3a/output_inception_3a/output_0_split_0
I0707 12:21:51.374187  5062 net.cpp:399] inception_3b/1x1 -> inception_3b/1x1
I0707 12:21:51.378211  5066 net.cpp:141] Setting up inception_3a/pool_proj
I0707 12:21:51.378238  5066 net.cpp:148] Top shape: 10 32 28 28 (250880)
I0707 12:21:51.378245  5066 net.cpp:156] Memory required for data: 232816640
I0707 12:21:51.378262  5066 layer_factory.hpp:77] Creating layer inception_3a/relu_pool_proj
I0707 12:21:51.378271  5066 net.cpp:91] Creating Layer inception_3a/relu_pool_proj
I0707 12:21:51.378278  5066 net.cpp:425] inception_3a/relu_pool_proj <- inception_3a/pool_proj
I0707 12:21:51.378301  5066 net.cpp:386] inception_3a/relu_pool_proj -> inception_3a/pool_proj (in-place)
I0707 12:21:51.378742  5062 net.cpp:141] Setting up inception_3b/1x1
I0707 12:21:51.378764  5062 net.cpp:148] Top shape: 10 128 28 28 (1003520)
I0707 12:21:51.378769  5062 net.cpp:156] Memory required for data: 277975040
I0707 12:21:51.378779  5062 layer_factory.hpp:77] Creating layer inception_3b/relu_1x1
I0707 12:21:51.378793  5062 net.cpp:91] Creating Layer inception_3b/relu_1x1
I0707 12:21:51.378798  5062 net.cpp:425] inception_3b/relu_1x1 <- inception_3b/1x1
I0707 12:21:51.378805  5062 net.cpp:386] inception_3b/relu_1x1 -> inception_3b/1x1 (in-place)
I0707 12:21:51.379897  5062 net.cpp:141] Setting up inception_3b/relu_1x1
I0707 12:21:51.379914  5062 net.cpp:148] Top shape: 10 128 28 28 (1003520)
I0707 12:21:51.379920  5062 net.cpp:156] Memory required for data: 281989120
I0707 12:21:51.379925  5062 layer_factory.hpp:77] Creating layer inception_3b/3x3_reduce
I0707 12:21:51.379943  5062 net.cpp:91] Creating Layer inception_3b/3x3_reduce
I0707 12:21:51.379950  5062 net.cpp:425] inception_3b/3x3_reduce <- inception_3a/output_inception_3a/output_0_split_1
I0707 12:21:51.379958  5062 net.cpp:399] inception_3b/3x3_reduce -> inception_3b/3x3_reduce
I0707 12:21:51.380336  5066 net.cpp:141] Setting up inception_3a/relu_pool_proj
I0707 12:21:51.380363  5066 net.cpp:148] Top shape: 10 32 28 28 (250880)
I0707 12:21:51.380373  5066 net.cpp:156] Memory required for data: 233820160
I0707 12:21:51.380383  5066 layer_factory.hpp:77] Creating layer inception_3a/output
I0707 12:21:51.380406  5066 net.cpp:91] Creating Layer inception_3a/output
I0707 12:21:51.380416  5066 net.cpp:425] inception_3a/output <- inception_3a/1x1
I0707 12:21:51.380429  5066 net.cpp:425] inception_3a/output <- inception_3a/3x3
I0707 12:21:51.380439  5066 net.cpp:425] inception_3a/output <- inception_3a/5x5
I0707 12:21:51.380448  5066 net.cpp:425] inception_3a/output <- inception_3a/pool_proj
I0707 12:21:51.380461  5066 net.cpp:399] inception_3a/output -> inception_3a/output
I0707 12:21:51.380573  5066 net.cpp:141] Setting up inception_3a/output
I0707 12:21:51.380592  5066 net.cpp:148] Top shape: 10 256 28 28 (2007040)
I0707 12:21:51.380601  5066 net.cpp:156] Memory required for data: 241848320
I0707 12:21:51.380610  5066 layer_factory.hpp:77] Creating layer inception_3a/output_inception_3a/output_0_split
I0707 12:21:51.380625  5066 net.cpp:91] Creating Layer inception_3a/output_inception_3a/output_0_split
I0707 12:21:51.380635  5066 net.cpp:425] inception_3a/output_inception_3a/output_0_split <- inception_3a/output
I0707 12:21:51.380656  5066 net.cpp:399] inception_3a/output_inception_3a/output_0_split -> inception_3a/output_inception_3a/output_0_split_0
I0707 12:21:51.380676  5066 net.cpp:399] inception_3a/output_inception_3a/output_0_split -> inception_3a/output_inception_3a/output_0_split_1
I0707 12:21:51.380692  5066 net.cpp:399] inception_3a/output_inception_3a/output_0_split -> inception_3a/output_inception_3a/output_0_split_2
I0707 12:21:51.380707  5066 net.cpp:399] inception_3a/output_inception_3a/output_0_split -> inception_3a/output_inception_3a/output_0_split_3
I0707 12:21:51.382074  5066 net.cpp:141] Setting up inception_3a/output_inception_3a/output_0_split
I0707 12:21:51.382102  5066 net.cpp:148] Top shape: 10 256 28 28 (2007040)
I0707 12:21:51.382112  5066 net.cpp:148] Top shape: 10 256 28 28 (2007040)
I0707 12:21:51.382122  5066 net.cpp:148] Top shape: 10 256 28 28 (2007040)
I0707 12:21:51.382133  5066 net.cpp:148] Top shape: 10 256 28 28 (2007040)
I0707 12:21:51.382140  5066 net.cpp:156] Memory required for data: 273960960
I0707 12:21:51.382148  5066 layer_factory.hpp:77] Creating layer inception_3b/1x1
I0707 12:21:51.382180  5066 net.cpp:91] Creating Layer inception_3b/1x1
I0707 12:21:51.382191  5066 net.cpp:425] inception_3b/1x1 <- inception_3a/output_inception_3a/output_0_split_0
I0707 12:21:51.382208  5066 net.cpp:399] inception_3b/1x1 -> inception_3b/1x1
I0707 12:21:51.383877  5062 net.cpp:141] Setting up inception_3b/3x3_reduce
I0707 12:21:51.383908  5062 net.cpp:148] Top shape: 10 128 28 28 (1003520)
I0707 12:21:51.383914  5062 net.cpp:156] Memory required for data: 286003200
I0707 12:21:51.383925  5062 layer_factory.hpp:77] Creating layer inception_3b/relu_3x3_reduce
I0707 12:21:51.383936  5062 net.cpp:91] Creating Layer inception_3b/relu_3x3_reduce
I0707 12:21:51.383942  5062 net.cpp:425] inception_3b/relu_3x3_reduce <- inception_3b/3x3_reduce
I0707 12:21:51.383952  5062 net.cpp:386] inception_3b/relu_3x3_reduce -> inception_3b/3x3_reduce (in-place)
I0707 12:21:51.385390  5062 net.cpp:141] Setting up inception_3b/relu_3x3_reduce
I0707 12:21:51.385404  5062 net.cpp:148] Top shape: 10 128 28 28 (1003520)
I0707 12:21:51.385409  5062 net.cpp:156] Memory required for data: 290017280
I0707 12:21:51.385414  5062 layer_factory.hpp:77] Creating layer inception_3b/3x3
I0707 12:21:51.385433  5062 net.cpp:91] Creating Layer inception_3b/3x3
I0707 12:21:51.385439  5062 net.cpp:425] inception_3b/3x3 <- inception_3b/3x3_reduce
I0707 12:21:51.385448  5062 net.cpp:399] inception_3b/3x3 -> inception_3b/3x3
I0707 12:21:51.391571  5062 net.cpp:141] Setting up inception_3b/3x3
I0707 12:21:51.391599  5062 net.cpp:148] Top shape: 10 192 28 28 (1505280)
I0707 12:21:51.391604  5062 net.cpp:156] Memory required for data: 296038400
I0707 12:21:51.391615  5062 layer_factory.hpp:77] Creating layer inception_3b/relu_3x3
I0707 12:21:51.391634  5062 net.cpp:91] Creating Layer inception_3b/relu_3x3
I0707 12:21:51.391641  5062 net.cpp:425] inception_3b/relu_3x3 <- inception_3b/3x3
I0707 12:21:51.391649  5062 net.cpp:386] inception_3b/relu_3x3 -> inception_3b/3x3 (in-place)
I0707 12:21:51.392489  5062 net.cpp:141] Setting up inception_3b/relu_3x3
I0707 12:21:51.392504  5062 net.cpp:148] Top shape: 10 192 28 28 (1505280)
I0707 12:21:51.392509  5062 net.cpp:156] Memory required for data: 302059520
I0707 12:21:51.392514  5062 layer_factory.hpp:77] Creating layer inception_3b/5x5_reduce
I0707 12:21:51.392532  5062 net.cpp:91] Creating Layer inception_3b/5x5_reduce
I0707 12:21:51.392539  5062 net.cpp:425] inception_3b/5x5_reduce <- inception_3a/output_inception_3a/output_0_split_2
I0707 12:21:51.392549  5062 net.cpp:399] inception_3b/5x5_reduce -> inception_3b/5x5_reduce
I0707 12:21:51.392609  5066 net.cpp:141] Setting up inception_3b/1x1
I0707 12:21:51.392639  5066 net.cpp:148] Top shape: 10 128 28 28 (1003520)
I0707 12:21:51.392649  5066 net.cpp:156] Memory required for data: 277975040
I0707 12:21:51.392668  5066 layer_factory.hpp:77] Creating layer inception_3b/relu_1x1
I0707 12:21:51.392688  5066 net.cpp:91] Creating Layer inception_3b/relu_1x1
I0707 12:21:51.392699  5066 net.cpp:425] inception_3b/relu_1x1 <- inception_3b/1x1
I0707 12:21:51.392712  5066 net.cpp:386] inception_3b/relu_1x1 -> inception_3b/1x1 (in-place)
I0707 12:21:51.395236  5066 net.cpp:141] Setting up inception_3b/relu_1x1
I0707 12:21:51.395267  5066 net.cpp:148] Top shape: 10 128 28 28 (1003520)
I0707 12:21:51.395277  5066 net.cpp:156] Memory required for data: 281989120
I0707 12:21:51.395287  5066 layer_factory.hpp:77] Creating layer inception_3b/3x3_reduce
I0707 12:21:51.395318  5066 net.cpp:91] Creating Layer inception_3b/3x3_reduce
I0707 12:21:51.395334  5066 net.cpp:425] inception_3b/3x3_reduce <- inception_3a/output_inception_3a/output_0_split_1
I0707 12:21:51.395351  5066 net.cpp:399] inception_3b/3x3_reduce -> inception_3b/3x3_reduce
I0707 12:21:51.396258  5062 net.cpp:141] Setting up inception_3b/5x5_reduce
I0707 12:21:51.396281  5062 net.cpp:148] Top shape: 10 32 28 28 (250880)
I0707 12:21:51.396286  5062 net.cpp:156] Memory required for data: 303063040
I0707 12:21:51.396294  5062 layer_factory.hpp:77] Creating layer inception_3b/relu_5x5_reduce
I0707 12:21:51.396303  5062 net.cpp:91] Creating Layer inception_3b/relu_5x5_reduce
I0707 12:21:51.396309  5062 net.cpp:425] inception_3b/relu_5x5_reduce <- inception_3b/5x5_reduce
I0707 12:21:51.396320  5062 net.cpp:386] inception_3b/relu_5x5_reduce -> inception_3b/5x5_reduce (in-place)
I0707 12:21:51.396829  5062 net.cpp:141] Setting up inception_3b/relu_5x5_reduce
I0707 12:21:51.396843  5062 net.cpp:148] Top shape: 10 32 28 28 (250880)
I0707 12:21:51.396848  5062 net.cpp:156] Memory required for data: 304066560
I0707 12:21:51.396853  5062 layer_factory.hpp:77] Creating layer inception_3b/5x5
I0707 12:21:51.396867  5062 net.cpp:91] Creating Layer inception_3b/5x5
I0707 12:21:51.396873  5062 net.cpp:425] inception_3b/5x5 <- inception_3b/5x5_reduce
I0707 12:21:51.396885  5062 net.cpp:399] inception_3b/5x5 -> inception_3b/5x5
I0707 12:21:51.402477  5066 net.cpp:141] Setting up inception_3b/3x3_reduce
I0707 12:21:51.402500  5066 net.cpp:148] Top shape: 10 128 28 28 (1003520)
I0707 12:21:51.402506  5066 net.cpp:156] Memory required for data: 286003200
I0707 12:21:51.402516  5066 layer_factory.hpp:77] Creating layer inception_3b/relu_3x3_reduce
I0707 12:21:51.402530  5066 net.cpp:91] Creating Layer inception_3b/relu_3x3_reduce
I0707 12:21:51.402537  5066 net.cpp:425] inception_3b/relu_3x3_reduce <- inception_3b/3x3_reduce
I0707 12:21:51.402545  5066 net.cpp:386] inception_3b/relu_3x3_reduce -> inception_3b/3x3_reduce (in-place)
I0707 12:21:51.403584  5062 net.cpp:141] Setting up inception_3b/5x5
I0707 12:21:51.403609  5062 net.cpp:148] Top shape: 10 96 28 28 (752640)
I0707 12:21:51.403614  5062 net.cpp:156] Memory required for data: 307077120
I0707 12:21:51.403625  5062 layer_factory.hpp:77] Creating layer inception_3b/relu_5x5
I0707 12:21:51.403635  5062 net.cpp:91] Creating Layer inception_3b/relu_5x5
I0707 12:21:51.403640  5062 net.cpp:425] inception_3b/relu_5x5 <- inception_3b/5x5
I0707 12:21:51.403650  5062 net.cpp:386] inception_3b/relu_5x5 -> inception_3b/5x5 (in-place)
I0707 12:21:51.403650  5066 net.cpp:141] Setting up inception_3b/relu_3x3_reduce
I0707 12:21:51.403666  5066 net.cpp:148] Top shape: 10 128 28 28 (1003520)
I0707 12:21:51.403671  5066 net.cpp:156] Memory required for data: 290017280
I0707 12:21:51.403676  5066 layer_factory.hpp:77] Creating layer inception_3b/3x3
I0707 12:21:51.403697  5066 net.cpp:91] Creating Layer inception_3b/3x3
I0707 12:21:51.403703  5066 net.cpp:425] inception_3b/3x3 <- inception_3b/3x3_reduce
I0707 12:21:51.403713  5066 net.cpp:399] inception_3b/3x3 -> inception_3b/3x3
I0707 12:21:51.405751  5062 net.cpp:141] Setting up inception_3b/relu_5x5
I0707 12:21:51.405766  5062 net.cpp:148] Top shape: 10 96 28 28 (752640)
I0707 12:21:51.405771  5062 net.cpp:156] Memory required for data: 310087680
I0707 12:21:51.405776  5062 layer_factory.hpp:77] Creating layer inception_3b/pool
I0707 12:21:51.405787  5062 net.cpp:91] Creating Layer inception_3b/pool
I0707 12:21:51.405794  5062 net.cpp:425] inception_3b/pool <- inception_3a/output_inception_3a/output_0_split_3
I0707 12:21:51.405802  5062 net.cpp:399] inception_3b/pool -> inception_3b/pool
I0707 12:21:51.405879  5062 net.cpp:141] Setting up inception_3b/pool
I0707 12:21:51.405887  5062 net.cpp:148] Top shape: 10 256 28 28 (2007040)
I0707 12:21:51.405891  5062 net.cpp:156] Memory required for data: 318115840
I0707 12:21:51.405896  5062 layer_factory.hpp:77] Creating layer inception_3b/pool_proj
I0707 12:21:51.405911  5062 net.cpp:91] Creating Layer inception_3b/pool_proj
I0707 12:21:51.405916  5062 net.cpp:425] inception_3b/pool_proj <- inception_3b/pool
I0707 12:21:51.405928  5062 net.cpp:399] inception_3b/pool_proj -> inception_3b/pool_proj
I0707 12:21:51.409298  5062 net.cpp:141] Setting up inception_3b/pool_proj
I0707 12:21:51.409317  5062 net.cpp:148] Top shape: 10 64 28 28 (501760)
I0707 12:21:51.409322  5062 net.cpp:156] Memory required for data: 320122880
I0707 12:21:51.409332  5062 layer_factory.hpp:77] Creating layer inception_3b/relu_pool_proj
I0707 12:21:51.409340  5062 net.cpp:91] Creating Layer inception_3b/relu_pool_proj
I0707 12:21:51.409346  5062 net.cpp:425] inception_3b/relu_pool_proj <- inception_3b/pool_proj
I0707 12:21:51.409353  5062 net.cpp:386] inception_3b/relu_pool_proj -> inception_3b/pool_proj (in-place)
I0707 12:21:51.410428  5062 net.cpp:141] Setting up inception_3b/relu_pool_proj
I0707 12:21:51.410442  5062 net.cpp:148] Top shape: 10 64 28 28 (501760)
I0707 12:21:51.410446  5062 net.cpp:156] Memory required for data: 322129920
I0707 12:21:51.410451  5062 layer_factory.hpp:77] Creating layer inception_3b/output
I0707 12:21:51.410462  5062 net.cpp:91] Creating Layer inception_3b/output
I0707 12:21:51.410467  5062 net.cpp:425] inception_3b/output <- inception_3b/1x1
I0707 12:21:51.410473  5062 net.cpp:425] inception_3b/output <- inception_3b/3x3
I0707 12:21:51.410478  5062 net.cpp:425] inception_3b/output <- inception_3b/5x5
I0707 12:21:51.410483  5062 net.cpp:425] inception_3b/output <- inception_3b/pool_proj
I0707 12:21:51.410490  5062 net.cpp:399] inception_3b/output -> inception_3b/output
I0707 12:21:51.410590  5062 net.cpp:141] Setting up inception_3b/output
I0707 12:21:51.410601  5062 net.cpp:148] Top shape: 10 480 28 28 (3763200)
I0707 12:21:51.410605  5062 net.cpp:156] Memory required for data: 337182720
I0707 12:21:51.410610  5062 layer_factory.hpp:77] Creating layer pool3/3x3_s2
I0707 12:21:51.410619  5062 net.cpp:91] Creating Layer pool3/3x3_s2
I0707 12:21:51.410624  5062 net.cpp:425] pool3/3x3_s2 <- inception_3b/output
I0707 12:21:51.410632  5062 net.cpp:399] pool3/3x3_s2 -> pool3/3x3_s2
I0707 12:21:51.411007  5062 net.cpp:141] Setting up pool3/3x3_s2
I0707 12:21:51.411020  5062 net.cpp:148] Top shape: 10 480 14 14 (940800)
I0707 12:21:51.411023  5062 net.cpp:156] Memory required for data: 340945920
I0707 12:21:51.411027  5062 layer_factory.hpp:77] Creating layer pool3/3x3_s2_pool3/3x3_s2_0_split
I0707 12:21:51.411036  5062 net.cpp:91] Creating Layer pool3/3x3_s2_pool3/3x3_s2_0_split
I0707 12:21:51.411041  5062 net.cpp:425] pool3/3x3_s2_pool3/3x3_s2_0_split <- pool3/3x3_s2
I0707 12:21:51.411051  5062 net.cpp:399] pool3/3x3_s2_pool3/3x3_s2_0_split -> pool3/3x3_s2_pool3/3x3_s2_0_split_0
I0707 12:21:51.411059  5062 net.cpp:399] pool3/3x3_s2_pool3/3x3_s2_0_split -> pool3/3x3_s2_pool3/3x3_s2_0_split_1
I0707 12:21:51.411067  5062 net.cpp:399] pool3/3x3_s2_pool3/3x3_s2_0_split -> pool3/3x3_s2_pool3/3x3_s2_0_split_2
I0707 12:21:51.411074  5062 net.cpp:399] pool3/3x3_s2_pool3/3x3_s2_0_split -> pool3/3x3_s2_pool3/3x3_s2_0_split_3
I0707 12:21:51.411301  5062 net.cpp:141] Setting up pool3/3x3_s2_pool3/3x3_s2_0_split
I0707 12:21:51.411314  5062 net.cpp:148] Top shape: 10 480 14 14 (940800)
I0707 12:21:51.411324  5062 net.cpp:148] Top shape: 10 480 14 14 (940800)
I0707 12:21:51.411335  5062 net.cpp:148] Top shape: 10 480 14 14 (940800)
I0707 12:21:51.411340  5062 net.cpp:148] Top shape: 10 480 14 14 (940800)
I0707 12:21:51.411345  5062 net.cpp:156] Memory required for data: 355998720
I0707 12:21:51.411350  5062 layer_factory.hpp:77] Creating layer inception_4a/1x1
I0707 12:21:51.411367  5062 net.cpp:91] Creating Layer inception_4a/1x1
I0707 12:21:51.411363  5066 net.cpp:141] Setting up inception_3b/3x3
I0707 12:21:51.411373  5062 net.cpp:425] inception_4a/1x1 <- pool3/3x3_s2_pool3/3x3_s2_0_split_0
I0707 12:21:51.411391  5066 net.cpp:148] Top shape: 10 192 28 28 (1505280)
I0707 12:21:51.411396  5062 net.cpp:399] inception_4a/1x1 -> inception_4a/1x1
I0707 12:21:51.411396  5066 net.cpp:156] Memory required for data: 296038400
I0707 12:21:51.411419  5066 layer_factory.hpp:77] Creating layer inception_3b/relu_3x3
I0707 12:21:51.411438  5066 net.cpp:91] Creating Layer inception_3b/relu_3x3
I0707 12:21:51.411445  5066 net.cpp:425] inception_3b/relu_3x3 <- inception_3b/3x3
I0707 12:21:51.411456  5066 net.cpp:386] inception_3b/relu_3x3 -> inception_3b/3x3 (in-place)
I0707 12:21:51.412799  5066 net.cpp:141] Setting up inception_3b/relu_3x3
I0707 12:21:51.412814  5066 net.cpp:148] Top shape: 10 192 28 28 (1505280)
I0707 12:21:51.412819  5066 net.cpp:156] Memory required for data: 302059520
I0707 12:21:51.412825  5066 layer_factory.hpp:77] Creating layer inception_3b/5x5_reduce
I0707 12:21:51.412842  5066 net.cpp:91] Creating Layer inception_3b/5x5_reduce
I0707 12:21:51.412848  5066 net.cpp:425] inception_3b/5x5_reduce <- inception_3a/output_inception_3a/output_0_split_2
I0707 12:21:51.412859  5066 net.cpp:399] inception_3b/5x5_reduce -> inception_3b/5x5_reduce
I0707 12:21:51.418016  5062 net.cpp:141] Setting up inception_4a/1x1
I0707 12:21:51.418040  5066 net.cpp:141] Setting up inception_3b/5x5_reduce
I0707 12:21:51.418054  5062 net.cpp:148] Top shape: 10 192 14 14 (376320)
I0707 12:21:51.418059  5066 net.cpp:148] Top shape: 10 32 28 28 (250880)
I0707 12:21:51.418061  5062 net.cpp:156] Memory required for data: 357504000
I0707 12:21:51.418066  5066 net.cpp:156] Memory required for data: 303063040
I0707 12:21:51.418077  5062 layer_factory.hpp:77] Creating layer inception_4a/relu_1x1
I0707 12:21:51.418078  5066 layer_factory.hpp:77] Creating layer inception_3b/relu_5x5_reduce
I0707 12:21:51.418097  5062 net.cpp:91] Creating Layer inception_4a/relu_1x1
I0707 12:21:51.418098  5066 net.cpp:91] Creating Layer inception_3b/relu_5x5_reduce
I0707 12:21:51.418109  5062 net.cpp:425] inception_4a/relu_1x1 <- inception_4a/1x1
I0707 12:21:51.418114  5066 net.cpp:425] inception_3b/relu_5x5_reduce <- inception_3b/5x5_reduce
I0707 12:21:51.418124  5062 net.cpp:386] inception_4a/relu_1x1 -> inception_4a/1x1 (in-place)
I0707 12:21:51.418126  5066 net.cpp:386] inception_3b/relu_5x5_reduce -> inception_3b/5x5_reduce (in-place)
I0707 12:21:51.419317  5062 net.cpp:141] Setting up inception_4a/relu_1x1
I0707 12:21:51.419322  5066 net.cpp:141] Setting up inception_3b/relu_5x5_reduce
I0707 12:21:51.419334  5062 net.cpp:148] Top shape: 10 192 14 14 (376320)
I0707 12:21:51.419338  5066 net.cpp:148] Top shape: 10 32 28 28 (250880)
I0707 12:21:51.419340  5062 net.cpp:156] Memory required for data: 359009280
I0707 12:21:51.419348  5066 net.cpp:156] Memory required for data: 304066560
I0707 12:21:51.419358  5062 layer_factory.hpp:77] Creating layer inception_4a/3x3_reduce
I0707 12:21:51.419366  5066 layer_factory.hpp:77] Creating layer inception_3b/5x5
I0707 12:21:51.419386  5066 net.cpp:91] Creating Layer inception_3b/5x5
I0707 12:21:51.419394  5066 net.cpp:425] inception_3b/5x5 <- inception_3b/5x5_reduce
I0707 12:21:51.419394  5062 net.cpp:91] Creating Layer inception_4a/3x3_reduce
I0707 12:21:51.419407  5062 net.cpp:425] inception_4a/3x3_reduce <- pool3/3x3_s2_pool3/3x3_s2_0_split_1
I0707 12:21:51.419409  5066 net.cpp:399] inception_3b/5x5 -> inception_3b/5x5
I0707 12:21:51.419419  5062 net.cpp:399] inception_4a/3x3_reduce -> inception_4a/3x3_reduce
I0707 12:21:51.424497  5062 net.cpp:141] Setting up inception_4a/3x3_reduce
I0707 12:21:51.424525  5062 net.cpp:148] Top shape: 10 96 14 14 (188160)
I0707 12:21:51.424530  5062 net.cpp:156] Memory required for data: 359761920
I0707 12:21:51.424554  5062 layer_factory.hpp:77] Creating layer inception_4a/relu_3x3_reduce
I0707 12:21:51.424566  5062 net.cpp:91] Creating Layer inception_4a/relu_3x3_reduce
I0707 12:21:51.424572  5062 net.cpp:425] inception_4a/relu_3x3_reduce <- inception_4a/3x3_reduce
I0707 12:21:51.424581  5062 net.cpp:386] inception_4a/relu_3x3_reduce -> inception_4a/3x3_reduce (in-place)
I0707 12:21:51.425626  5062 net.cpp:141] Setting up inception_4a/relu_3x3_reduce
I0707 12:21:51.425642  5062 net.cpp:148] Top shape: 10 96 14 14 (188160)
I0707 12:21:51.425647  5062 net.cpp:156] Memory required for data: 360514560
I0707 12:21:51.425652  5062 layer_factory.hpp:77] Creating layer inception_4a/3x3
I0707 12:21:51.425673  5062 net.cpp:91] Creating Layer inception_4a/3x3
I0707 12:21:51.425679  5062 net.cpp:425] inception_4a/3x3 <- inception_4a/3x3_reduce
I0707 12:21:51.425689  5062 net.cpp:399] inception_4a/3x3 -> inception_4a/3x3
I0707 12:21:51.429055  5066 net.cpp:141] Setting up inception_3b/5x5
I0707 12:21:51.429078  5066 net.cpp:148] Top shape: 10 96 28 28 (752640)
I0707 12:21:51.429085  5066 net.cpp:156] Memory required for data: 307077120
I0707 12:21:51.429095  5066 layer_factory.hpp:77] Creating layer inception_3b/relu_5x5
I0707 12:21:51.429108  5066 net.cpp:91] Creating Layer inception_3b/relu_5x5
I0707 12:21:51.429116  5066 net.cpp:425] inception_3b/relu_5x5 <- inception_3b/5x5
I0707 12:21:51.429126  5066 net.cpp:386] inception_3b/relu_5x5 -> inception_3b/5x5 (in-place)
I0707 12:21:51.431546  5066 net.cpp:141] Setting up inception_3b/relu_5x5
I0707 12:21:51.431565  5066 net.cpp:148] Top shape: 10 96 28 28 (752640)
I0707 12:21:51.431571  5066 net.cpp:156] Memory required for data: 310087680
I0707 12:21:51.431576  5066 layer_factory.hpp:77] Creating layer inception_3b/pool
I0707 12:21:51.431586  5066 net.cpp:91] Creating Layer inception_3b/pool
I0707 12:21:51.431592  5066 net.cpp:425] inception_3b/pool <- inception_3a/output_inception_3a/output_0_split_3
I0707 12:21:51.431604  5066 net.cpp:399] inception_3b/pool -> inception_3b/pool
I0707 12:21:51.431819  5062 net.cpp:141] Setting up inception_4a/3x3
I0707 12:21:51.431844  5062 net.cpp:148] Top shape: 10 208 14 14 (407680)
I0707 12:21:51.431849  5062 net.cpp:156] Memory required for data: 362145280
I0707 12:21:51.431851  5066 net.cpp:141] Setting up inception_3b/pool
I0707 12:21:51.431861  5062 layer_factory.hpp:77] Creating layer inception_4a/relu_3x3
I0707 12:21:51.431867  5066 net.cpp:148] Top shape: 10 256 28 28 (2007040)
I0707 12:21:51.431872  5066 net.cpp:156] Memory required for data: 318115840
I0707 12:21:51.431874  5062 net.cpp:91] Creating Layer inception_4a/relu_3x3
I0707 12:21:51.431879  5066 layer_factory.hpp:77] Creating layer inception_3b/pool_proj
I0707 12:21:51.431882  5062 net.cpp:425] inception_4a/relu_3x3 <- inception_4a/3x3
I0707 12:21:51.431893  5062 net.cpp:386] inception_4a/relu_3x3 -> inception_4a/3x3 (in-place)
I0707 12:21:51.431897  5066 net.cpp:91] Creating Layer inception_3b/pool_proj
I0707 12:21:51.431905  5066 net.cpp:425] inception_3b/pool_proj <- inception_3b/pool
I0707 12:21:51.431915  5066 net.cpp:399] inception_3b/pool_proj -> inception_3b/pool_proj
I0707 12:21:51.432482  5062 net.cpp:141] Setting up inception_4a/relu_3x3
I0707 12:21:51.432495  5062 net.cpp:148] Top shape: 10 208 14 14 (407680)
I0707 12:21:51.432499  5062 net.cpp:156] Memory required for data: 363776000
I0707 12:21:51.432504  5062 layer_factory.hpp:77] Creating layer inception_4a/5x5_reduce
I0707 12:21:51.432523  5062 net.cpp:91] Creating Layer inception_4a/5x5_reduce
I0707 12:21:51.432529  5062 net.cpp:425] inception_4a/5x5_reduce <- pool3/3x3_s2_pool3/3x3_s2_0_split_2
I0707 12:21:51.432539  5062 net.cpp:399] inception_4a/5x5_reduce -> inception_4a/5x5_reduce
I0707 12:21:51.436749  5062 net.cpp:141] Setting up inception_4a/5x5_reduce
I0707 12:21:51.436779  5062 net.cpp:148] Top shape: 10 16 14 14 (31360)
I0707 12:21:51.436784  5062 net.cpp:156] Memory required for data: 363901440
I0707 12:21:51.436794  5062 layer_factory.hpp:77] Creating layer inception_4a/relu_5x5_reduce
I0707 12:21:51.436805  5062 net.cpp:91] Creating Layer inception_4a/relu_5x5_reduce
I0707 12:21:51.436811  5062 net.cpp:425] inception_4a/relu_5x5_reduce <- inception_4a/5x5_reduce
I0707 12:21:51.436820  5062 net.cpp:386] inception_4a/relu_5x5_reduce -> inception_4a/5x5_reduce (in-place)
I0707 12:21:51.439249  5062 net.cpp:141] Setting up inception_4a/relu_5x5_reduce
I0707 12:21:51.439263  5062 net.cpp:148] Top shape: 10 16 14 14 (31360)
I0707 12:21:51.439268  5062 net.cpp:156] Memory required for data: 364026880
I0707 12:21:51.439273  5062 layer_factory.hpp:77] Creating layer inception_4a/5x5
I0707 12:21:51.439292  5062 net.cpp:91] Creating Layer inception_4a/5x5
I0707 12:21:51.439298  5062 net.cpp:425] inception_4a/5x5 <- inception_4a/5x5_reduce
I0707 12:21:51.439307  5062 net.cpp:399] inception_4a/5x5 -> inception_4a/5x5
I0707 12:21:51.439713  5066 net.cpp:141] Setting up inception_3b/pool_proj
I0707 12:21:51.439736  5066 net.cpp:148] Top shape: 10 64 28 28 (501760)
I0707 12:21:51.439741  5066 net.cpp:156] Memory required for data: 320122880
I0707 12:21:51.439752  5066 layer_factory.hpp:77] Creating layer inception_3b/relu_pool_proj
I0707 12:21:51.439761  5066 net.cpp:91] Creating Layer inception_3b/relu_pool_proj
I0707 12:21:51.439767  5066 net.cpp:425] inception_3b/relu_pool_proj <- inception_3b/pool_proj
I0707 12:21:51.439779  5066 net.cpp:386] inception_3b/relu_pool_proj -> inception_3b/pool_proj (in-place)
I0707 12:21:51.441246  5066 net.cpp:141] Setting up inception_3b/relu_pool_proj
I0707 12:21:51.441262  5066 net.cpp:148] Top shape: 10 64 28 28 (501760)
I0707 12:21:51.441267  5066 net.cpp:156] Memory required for data: 322129920
I0707 12:21:51.441272  5066 layer_factory.hpp:77] Creating layer inception_3b/output
I0707 12:21:51.441287  5066 net.cpp:91] Creating Layer inception_3b/output
I0707 12:21:51.441293  5066 net.cpp:425] inception_3b/output <- inception_3b/1x1
I0707 12:21:51.441299  5066 net.cpp:425] inception_3b/output <- inception_3b/3x3
I0707 12:21:51.441305  5066 net.cpp:425] inception_3b/output <- inception_3b/5x5
I0707 12:21:51.441311  5066 net.cpp:425] inception_3b/output <- inception_3b/pool_proj
I0707 12:21:51.441319  5066 net.cpp:399] inception_3b/output -> inception_3b/output
I0707 12:21:51.441604  5066 net.cpp:141] Setting up inception_3b/output
I0707 12:21:51.441617  5066 net.cpp:148] Top shape: 10 480 28 28 (3763200)
I0707 12:21:51.441622  5066 net.cpp:156] Memory required for data: 337182720
I0707 12:21:51.441627  5066 layer_factory.hpp:77] Creating layer pool3/3x3_s2
I0707 12:21:51.441635  5066 net.cpp:91] Creating Layer pool3/3x3_s2
I0707 12:21:51.441642  5066 net.cpp:425] pool3/3x3_s2 <- inception_3b/output
I0707 12:21:51.441654  5066 net.cpp:399] pool3/3x3_s2 -> pool3/3x3_s2
I0707 12:21:51.442327  5066 net.cpp:141] Setting up pool3/3x3_s2
I0707 12:21:51.442342  5066 net.cpp:148] Top shape: 10 480 14 14 (940800)
I0707 12:21:51.442348  5066 net.cpp:156] Memory required for data: 340945920
I0707 12:21:51.442353  5066 layer_factory.hpp:77] Creating layer pool3/3x3_s2_pool3/3x3_s2_0_split
I0707 12:21:51.442363  5066 net.cpp:91] Creating Layer pool3/3x3_s2_pool3/3x3_s2_0_split
I0707 12:21:51.442370  5066 net.cpp:425] pool3/3x3_s2_pool3/3x3_s2_0_split <- pool3/3x3_s2
I0707 12:21:51.442378  5066 net.cpp:399] pool3/3x3_s2_pool3/3x3_s2_0_split -> pool3/3x3_s2_pool3/3x3_s2_0_split_0
I0707 12:21:51.442387  5066 net.cpp:399] pool3/3x3_s2_pool3/3x3_s2_0_split -> pool3/3x3_s2_pool3/3x3_s2_0_split_1
I0707 12:21:51.442396  5066 net.cpp:399] pool3/3x3_s2_pool3/3x3_s2_0_split -> pool3/3x3_s2_pool3/3x3_s2_0_split_2
I0707 12:21:51.442404  5066 net.cpp:399] pool3/3x3_s2_pool3/3x3_s2_0_split -> pool3/3x3_s2_pool3/3x3_s2_0_split_3
I0707 12:21:51.442539  5066 net.cpp:141] Setting up pool3/3x3_s2_pool3/3x3_s2_0_split
I0707 12:21:51.442551  5066 net.cpp:148] Top shape: 10 480 14 14 (940800)
I0707 12:21:51.442558  5066 net.cpp:148] Top shape: 10 480 14 14 (940800)
I0707 12:21:51.442564  5066 net.cpp:148] Top shape: 10 480 14 14 (940800)
I0707 12:21:51.442569  5066 net.cpp:148] Top shape: 10 480 14 14 (940800)
I0707 12:21:51.442574  5066 net.cpp:156] Memory required for data: 355998720
I0707 12:21:51.442579  5066 layer_factory.hpp:77] Creating layer inception_4a/1x1
I0707 12:21:51.442598  5066 net.cpp:91] Creating Layer inception_4a/1x1
I0707 12:21:51.442605  5066 net.cpp:425] inception_4a/1x1 <- pool3/3x3_s2_pool3/3x3_s2_0_split_0
I0707 12:21:51.442617  5066 net.cpp:399] inception_4a/1x1 -> inception_4a/1x1
I0707 12:21:51.442965  5062 net.cpp:141] Setting up inception_4a/5x5
I0707 12:21:51.442983  5062 net.cpp:148] Top shape: 10 48 14 14 (94080)
I0707 12:21:51.442988  5062 net.cpp:156] Memory required for data: 364403200
I0707 12:21:51.442998  5062 layer_factory.hpp:77] Creating layer inception_4a/relu_5x5
I0707 12:21:51.443012  5062 net.cpp:91] Creating Layer inception_4a/relu_5x5
I0707 12:21:51.443018  5062 net.cpp:425] inception_4a/relu_5x5 <- inception_4a/5x5
I0707 12:21:51.443027  5062 net.cpp:386] inception_4a/relu_5x5 -> inception_4a/5x5 (in-place)
I0707 12:21:51.444566  5062 net.cpp:141] Setting up inception_4a/relu_5x5
I0707 12:21:51.444593  5062 net.cpp:148] Top shape: 10 48 14 14 (94080)
I0707 12:21:51.444603  5062 net.cpp:156] Memory required for data: 364779520
I0707 12:21:51.444612  5062 layer_factory.hpp:77] Creating layer inception_4a/pool
I0707 12:21:51.444628  5062 net.cpp:91] Creating Layer inception_4a/pool
I0707 12:21:51.444639  5062 net.cpp:425] inception_4a/pool <- pool3/3x3_s2_pool3/3x3_s2_0_split_3
I0707 12:21:51.444660  5062 net.cpp:399] inception_4a/pool -> inception_4a/pool
I0707 12:21:51.444784  5062 net.cpp:141] Setting up inception_4a/pool
I0707 12:21:51.444802  5062 net.cpp:148] Top shape: 10 480 14 14 (940800)
I0707 12:21:51.444810  5062 net.cpp:156] Memory required for data: 368542720
I0707 12:21:51.444819  5062 layer_factory.hpp:77] Creating layer inception_4a/pool_proj
I0707 12:21:51.444849  5062 net.cpp:91] Creating Layer inception_4a/pool_proj
I0707 12:21:51.444860  5062 net.cpp:425] inception_4a/pool_proj <- inception_4a/pool
I0707 12:21:51.444875  5062 net.cpp:399] inception_4a/pool_proj -> inception_4a/pool_proj
I0707 12:21:51.451575  5066 net.cpp:141] Setting up inception_4a/1x1
I0707 12:21:51.451599  5066 net.cpp:148] Top shape: 10 192 14 14 (376320)
I0707 12:21:51.451606  5066 net.cpp:156] Memory required for data: 357504000
I0707 12:21:51.451616  5066 layer_factory.hpp:77] Creating layer inception_4a/relu_1x1
I0707 12:21:51.451625  5066 net.cpp:91] Creating Layer inception_4a/relu_1x1
I0707 12:21:51.451632  5066 net.cpp:425] inception_4a/relu_1x1 <- inception_4a/1x1
I0707 12:21:51.451644  5066 net.cpp:386] inception_4a/relu_1x1 -> inception_4a/1x1 (in-place)
I0707 12:21:51.452719  5062 net.cpp:141] Setting up inception_4a/pool_proj
I0707 12:21:51.452755  5062 net.cpp:148] Top shape: 10 64 14 14 (125440)
I0707 12:21:51.452761  5062 net.cpp:156] Memory required for data: 369044480
I0707 12:21:51.452772  5062 layer_factory.hpp:77] Creating layer inception_4a/relu_pool_proj
I0707 12:21:51.452785  5062 net.cpp:91] Creating Layer inception_4a/relu_pool_proj
I0707 12:21:51.452792  5062 net.cpp:425] inception_4a/relu_pool_proj <- inception_4a/pool_proj
I0707 12:21:51.452798  5066 net.cpp:141] Setting up inception_4a/relu_1x1
I0707 12:21:51.452805  5062 net.cpp:386] inception_4a/relu_pool_proj -> inception_4a/pool_proj (in-place)
I0707 12:21:51.452816  5066 net.cpp:148] Top shape: 10 192 14 14 (376320)
I0707 12:21:51.452821  5066 net.cpp:156] Memory required for data: 359009280
I0707 12:21:51.452827  5066 layer_factory.hpp:77] Creating layer inception_4a/3x3_reduce
I0707 12:21:51.452846  5066 net.cpp:91] Creating Layer inception_4a/3x3_reduce
I0707 12:21:51.452852  5066 net.cpp:425] inception_4a/3x3_reduce <- pool3/3x3_s2_pool3/3x3_s2_0_split_1
I0707 12:21:51.452865  5066 net.cpp:399] inception_4a/3x3_reduce -> inception_4a/3x3_reduce
I0707 12:21:51.453414  5062 net.cpp:141] Setting up inception_4a/relu_pool_proj
I0707 12:21:51.453428  5062 net.cpp:148] Top shape: 10 64 14 14 (125440)
I0707 12:21:51.453434  5062 net.cpp:156] Memory required for data: 369546240
I0707 12:21:51.453439  5062 layer_factory.hpp:77] Creating layer inception_4a/output
I0707 12:21:51.453449  5062 net.cpp:91] Creating Layer inception_4a/output
I0707 12:21:51.453454  5062 net.cpp:425] inception_4a/output <- inception_4a/1x1
I0707 12:21:51.453460  5062 net.cpp:425] inception_4a/output <- inception_4a/3x3
I0707 12:21:51.453465  5062 net.cpp:425] inception_4a/output <- inception_4a/5x5
I0707 12:21:51.453470  5062 net.cpp:425] inception_4a/output <- inception_4a/pool_proj
I0707 12:21:51.453477  5062 net.cpp:399] inception_4a/output -> inception_4a/output
I0707 12:21:51.453534  5062 net.cpp:141] Setting up inception_4a/output
I0707 12:21:51.453544  5062 net.cpp:148] Top shape: 10 512 14 14 (1003520)
I0707 12:21:51.453548  5062 net.cpp:156] Memory required for data: 373560320
I0707 12:21:51.453553  5062 layer_factory.hpp:77] Creating layer inception_4a/output_inception_4a/output_0_split
I0707 12:21:51.453562  5062 net.cpp:91] Creating Layer inception_4a/output_inception_4a/output_0_split
I0707 12:21:51.453567  5062 net.cpp:425] inception_4a/output_inception_4a/output_0_split <- inception_4a/output
I0707 12:21:51.453574  5062 net.cpp:399] inception_4a/output_inception_4a/output_0_split -> inception_4a/output_inception_4a/output_0_split_0
I0707 12:21:51.453583  5062 net.cpp:399] inception_4a/output_inception_4a/output_0_split -> inception_4a/output_inception_4a/output_0_split_1
I0707 12:21:51.453591  5062 net.cpp:399] inception_4a/output_inception_4a/output_0_split -> inception_4a/output_inception_4a/output_0_split_2
I0707 12:21:51.453599  5062 net.cpp:399] inception_4a/output_inception_4a/output_0_split -> inception_4a/output_inception_4a/output_0_split_3
I0707 12:21:51.453692  5062 net.cpp:141] Setting up inception_4a/output_inception_4a/output_0_split
I0707 12:21:51.453701  5062 net.cpp:148] Top shape: 10 512 14 14 (1003520)
I0707 12:21:51.453707  5062 net.cpp:148] Top shape: 10 512 14 14 (1003520)
I0707 12:21:51.453711  5062 net.cpp:148] Top shape: 10 512 14 14 (1003520)
I0707 12:21:51.453716  5062 net.cpp:148] Top shape: 10 512 14 14 (1003520)
I0707 12:21:51.453721  5062 net.cpp:156] Memory required for data: 389616640
I0707 12:21:51.453724  5062 layer_factory.hpp:77] Creating layer inception_4b/1x1
I0707 12:21:51.453740  5062 net.cpp:91] Creating Layer inception_4b/1x1
I0707 12:21:51.453747  5062 net.cpp:425] inception_4b/1x1 <- inception_4a/output_inception_4a/output_0_split_0
I0707 12:21:51.453754  5062 net.cpp:399] inception_4b/1x1 -> inception_4b/1x1
I0707 12:21:51.457886  5066 net.cpp:141] Setting up inception_4a/3x3_reduce
I0707 12:21:51.457908  5066 net.cpp:148] Top shape: 10 96 14 14 (188160)
I0707 12:21:51.457914  5066 net.cpp:156] Memory required for data: 359761920
I0707 12:21:51.457936  5066 layer_factory.hpp:77] Creating layer inception_4a/relu_3x3_reduce
I0707 12:21:51.457945  5066 net.cpp:91] Creating Layer inception_4a/relu_3x3_reduce
I0707 12:21:51.457952  5066 net.cpp:425] inception_4a/relu_3x3_reduce <- inception_4a/3x3_reduce
I0707 12:21:51.457959  5066 net.cpp:386] inception_4a/relu_3x3_reduce -> inception_4a/3x3_reduce (in-place)
I0707 12:21:51.459286  5066 net.cpp:141] Setting up inception_4a/relu_3x3_reduce
I0707 12:21:51.459306  5066 net.cpp:148] Top shape: 10 96 14 14 (188160)
I0707 12:21:51.459311  5066 net.cpp:156] Memory required for data: 360514560
I0707 12:21:51.459316  5066 layer_factory.hpp:77] Creating layer inception_4a/3x3
I0707 12:21:51.459334  5066 net.cpp:91] Creating Layer inception_4a/3x3
I0707 12:21:51.459342  5066 net.cpp:425] inception_4a/3x3 <- inception_4a/3x3_reduce
I0707 12:21:51.459353  5066 net.cpp:399] inception_4a/3x3 -> inception_4a/3x3
I0707 12:21:51.461679  5062 net.cpp:141] Setting up inception_4b/1x1
I0707 12:21:51.461714  5062 net.cpp:148] Top shape: 10 160 14 14 (313600)
I0707 12:21:51.461719  5062 net.cpp:156] Memory required for data: 390871040
I0707 12:21:51.461730  5062 layer_factory.hpp:77] Creating layer inception_4b/relu_1x1
I0707 12:21:51.461746  5062 net.cpp:91] Creating Layer inception_4b/relu_1x1
I0707 12:21:51.461755  5062 net.cpp:425] inception_4b/relu_1x1 <- inception_4b/1x1
I0707 12:21:51.461762  5062 net.cpp:386] inception_4b/relu_1x1 -> inception_4b/1x1 (in-place)
I0707 12:21:51.462594  5062 net.cpp:141] Setting up inception_4b/relu_1x1
I0707 12:21:51.462609  5062 net.cpp:148] Top shape: 10 160 14 14 (313600)
I0707 12:21:51.462613  5062 net.cpp:156] Memory required for data: 392125440
I0707 12:21:51.462618  5062 layer_factory.hpp:77] Creating layer inception_4b/3x3_reduce
I0707 12:21:51.462640  5062 net.cpp:91] Creating Layer inception_4b/3x3_reduce
I0707 12:21:51.462646  5062 net.cpp:425] inception_4b/3x3_reduce <- inception_4a/output_inception_4a/output_0_split_1
I0707 12:21:51.462656  5062 net.cpp:399] inception_4b/3x3_reduce -> inception_4b/3x3_reduce
I0707 12:21:51.467094  5066 net.cpp:141] Setting up inception_4a/3x3
I0707 12:21:51.467118  5066 net.cpp:148] Top shape: 10 208 14 14 (407680)
I0707 12:21:51.467124  5066 net.cpp:156] Memory required for data: 362145280
I0707 12:21:51.467135  5066 layer_factory.hpp:77] Creating layer inception_4a/relu_3x3
I0707 12:21:51.467151  5066 net.cpp:91] Creating Layer inception_4a/relu_3x3
I0707 12:21:51.467159  5066 net.cpp:425] inception_4a/relu_3x3 <- inception_4a/3x3
I0707 12:21:51.467169  5066 net.cpp:386] inception_4a/relu_3x3 -> inception_4a/3x3 (in-place)
I0707 12:21:51.468104  5062 net.cpp:141] Setting up inception_4b/3x3_reduce
I0707 12:21:51.468132  5062 net.cpp:148] Top shape: 10 112 14 14 (219520)
I0707 12:21:51.468137  5062 net.cpp:156] Memory required for data: 393003520
I0707 12:21:51.468148  5062 layer_factory.hpp:77] Creating layer inception_4b/relu_3x3_reduce
I0707 12:21:51.468158  5062 net.cpp:91] Creating Layer inception_4b/relu_3x3_reduce
I0707 12:21:51.468168  5062 net.cpp:425] inception_4b/relu_3x3_reduce <- inception_4b/3x3_reduce
I0707 12:21:51.468178  5062 net.cpp:386] inception_4b/relu_3x3_reduce -> inception_4b/3x3_reduce (in-place)
I0707 12:21:51.468230  5066 net.cpp:141] Setting up inception_4a/relu_3x3
I0707 12:21:51.468246  5066 net.cpp:148] Top shape: 10 208 14 14 (407680)
I0707 12:21:51.468251  5066 net.cpp:156] Memory required for data: 363776000
I0707 12:21:51.468257  5066 layer_factory.hpp:77] Creating layer inception_4a/5x5_reduce
I0707 12:21:51.468273  5066 net.cpp:91] Creating Layer inception_4a/5x5_reduce
I0707 12:21:51.468281  5066 net.cpp:425] inception_4a/5x5_reduce <- pool3/3x3_s2_pool3/3x3_s2_0_split_2
I0707 12:21:51.468291  5066 net.cpp:399] inception_4a/5x5_reduce -> inception_4a/5x5_reduce
I0707 12:21:51.468812  5062 net.cpp:141] Setting up inception_4b/relu_3x3_reduce
I0707 12:21:51.468825  5062 net.cpp:148] Top shape: 10 112 14 14 (219520)
I0707 12:21:51.468830  5062 net.cpp:156] Memory required for data: 393881600
I0707 12:21:51.468835  5062 layer_factory.hpp:77] Creating layer inception_4b/3x3
I0707 12:21:51.468855  5062 net.cpp:91] Creating Layer inception_4b/3x3
I0707 12:21:51.468861  5062 net.cpp:425] inception_4b/3x3 <- inception_4b/3x3_reduce
I0707 12:21:51.468870  5062 net.cpp:399] inception_4b/3x3 -> inception_4b/3x3
I0707 12:21:51.474222  5066 net.cpp:141] Setting up inception_4a/5x5_reduce
I0707 12:21:51.474251  5066 net.cpp:148] Top shape: 10 16 14 14 (31360)
I0707 12:21:51.474257  5066 net.cpp:156] Memory required for data: 363901440
I0707 12:21:51.474267  5066 layer_factory.hpp:77] Creating layer inception_4a/relu_5x5_reduce
I0707 12:21:51.474277  5066 net.cpp:91] Creating Layer inception_4a/relu_5x5_reduce
I0707 12:21:51.474282  5066 net.cpp:425] inception_4a/relu_5x5_reduce <- inception_4a/5x5_reduce
I0707 12:21:51.474290  5066 net.cpp:386] inception_4a/relu_5x5_reduce -> inception_4a/5x5_reduce (in-place)
I0707 12:21:51.476483  5062 net.cpp:141] Setting up inception_4b/3x3
I0707 12:21:51.476490  5066 net.cpp:141] Setting up inception_4a/relu_5x5_reduce
I0707 12:21:51.476517  5062 net.cpp:148] Top shape: 10 224 14 14 (439040)
I0707 12:21:51.476523  5062 net.cpp:156] Memory required for data: 395637760
I0707 12:21:51.476526  5066 net.cpp:148] Top shape: 10 16 14 14 (31360)
I0707 12:21:51.476532  5066 net.cpp:156] Memory required for data: 364026880
I0707 12:21:51.476536  5062 layer_factory.hpp:77] Creating layer inception_4b/relu_3x3
I0707 12:21:51.476538  5066 layer_factory.hpp:77] Creating layer inception_4a/5x5
I0707 12:21:51.476552  5062 net.cpp:91] Creating Layer inception_4b/relu_3x3
I0707 12:21:51.476557  5066 net.cpp:91] Creating Layer inception_4a/5x5
I0707 12:21:51.476560  5062 net.cpp:425] inception_4b/relu_3x3 <- inception_4b/3x3
I0707 12:21:51.476565  5066 net.cpp:425] inception_4a/5x5 <- inception_4a/5x5_reduce
I0707 12:21:51.476570  5062 net.cpp:386] inception_4b/relu_3x3 -> inception_4b/3x3 (in-place)
I0707 12:21:51.476578  5066 net.cpp:399] inception_4a/5x5 -> inception_4a/5x5
I0707 12:21:51.477174  5062 net.cpp:141] Setting up inception_4b/relu_3x3
I0707 12:21:51.477186  5062 net.cpp:148] Top shape: 10 224 14 14 (439040)
I0707 12:21:51.477190  5062 net.cpp:156] Memory required for data: 397393920
I0707 12:21:51.477195  5062 layer_factory.hpp:77] Creating layer inception_4b/5x5_reduce
I0707 12:21:51.477224  5062 net.cpp:91] Creating Layer inception_4b/5x5_reduce
I0707 12:21:51.477231  5062 net.cpp:425] inception_4b/5x5_reduce <- inception_4a/output_inception_4a/output_0_split_2
I0707 12:21:51.477241  5062 net.cpp:399] inception_4b/5x5_reduce -> inception_4b/5x5_reduce
I0707 12:21:51.482455  5066 net.cpp:141] Setting up inception_4a/5x5
I0707 12:21:51.482477  5066 net.cpp:148] Top shape: 10 48 14 14 (94080)
I0707 12:21:51.482482  5066 net.cpp:156] Memory required for data: 364403200
I0707 12:21:51.482492  5066 layer_factory.hpp:77] Creating layer inception_4a/relu_5x5
I0707 12:21:51.482502  5066 net.cpp:91] Creating Layer inception_4a/relu_5x5
I0707 12:21:51.482508  5066 net.cpp:425] inception_4a/relu_5x5 <- inception_4a/5x5
I0707 12:21:51.482522  5066 net.cpp:386] inception_4a/relu_5x5 -> inception_4a/5x5 (in-place)
I0707 12:21:51.482921  5062 net.cpp:141] Setting up inception_4b/5x5_reduce
I0707 12:21:51.482944  5062 net.cpp:148] Top shape: 10 24 14 14 (47040)
I0707 12:21:51.482949  5062 net.cpp:156] Memory required for data: 397582080
I0707 12:21:51.482959  5062 layer_factory.hpp:77] Creating layer inception_4b/relu_5x5_reduce
I0707 12:21:51.482970  5062 net.cpp:91] Creating Layer inception_4b/relu_5x5_reduce
I0707 12:21:51.482976  5062 net.cpp:425] inception_4b/relu_5x5_reduce <- inception_4b/5x5_reduce
I0707 12:21:51.482985  5062 net.cpp:386] inception_4b/relu_5x5_reduce -> inception_4b/5x5_reduce (in-place)
I0707 12:21:51.483743  5066 net.cpp:141] Setting up inception_4a/relu_5x5
I0707 12:21:51.483762  5066 net.cpp:148] Top shape: 10 48 14 14 (94080)
I0707 12:21:51.483767  5066 net.cpp:156] Memory required for data: 364779520
I0707 12:21:51.483773  5066 layer_factory.hpp:77] Creating layer inception_4a/pool
I0707 12:21:51.483783  5066 net.cpp:91] Creating Layer inception_4a/pool
I0707 12:21:51.483790  5066 net.cpp:425] inception_4a/pool <- pool3/3x3_s2_pool3/3x3_s2_0_split_3
I0707 12:21:51.483798  5066 net.cpp:399] inception_4a/pool -> inception_4a/pool
I0707 12:21:51.483908  5066 net.cpp:141] Setting up inception_4a/pool
I0707 12:21:51.483919  5066 net.cpp:148] Top shape: 10 480 14 14 (940800)
I0707 12:21:51.483924  5066 net.cpp:156] Memory required for data: 368542720
I0707 12:21:51.483929  5066 layer_factory.hpp:77] Creating layer inception_4a/pool_proj
I0707 12:21:51.483945  5066 net.cpp:91] Creating Layer inception_4a/pool_proj
I0707 12:21:51.483943  5062 net.cpp:141] Setting up inception_4b/relu_5x5_reduce
I0707 12:21:51.483955  5066 net.cpp:425] inception_4a/pool_proj <- inception_4a/pool
I0707 12:21:51.483968  5062 net.cpp:148] Top shape: 10 24 14 14 (47040)
I0707 12:21:51.483973  5062 net.cpp:156] Memory required for data: 397770240
I0707 12:21:51.483978  5062 layer_factory.hpp:77] Creating layer inception_4b/5x5
I0707 12:21:51.483978  5066 net.cpp:399] inception_4a/pool_proj -> inception_4a/pool_proj
I0707 12:21:51.483994  5062 net.cpp:91] Creating Layer inception_4b/5x5
I0707 12:21:51.484000  5062 net.cpp:425] inception_4b/5x5 <- inception_4b/5x5_reduce
I0707 12:21:51.484012  5062 net.cpp:399] inception_4b/5x5 -> inception_4b/5x5
I0707 12:21:51.488623  5062 net.cpp:141] Setting up inception_4b/5x5
I0707 12:21:51.488651  5062 net.cpp:148] Top shape: 10 64 14 14 (125440)
I0707 12:21:51.488656  5062 net.cpp:156] Memory required for data: 398272000
I0707 12:21:51.488667  5062 layer_factory.hpp:77] Creating layer inception_4b/relu_5x5
I0707 12:21:51.488677  5062 net.cpp:91] Creating Layer inception_4b/relu_5x5
I0707 12:21:51.488683  5062 net.cpp:425] inception_4b/relu_5x5 <- inception_4b/5x5
I0707 12:21:51.488698  5062 net.cpp:386] inception_4b/relu_5x5 -> inception_4b/5x5 (in-place)
I0707 12:21:51.490344  5062 net.cpp:141] Setting up inception_4b/relu_5x5
I0707 12:21:51.490360  5062 net.cpp:148] Top shape: 10 64 14 14 (125440)
I0707 12:21:51.490365  5062 net.cpp:156] Memory required for data: 398773760
I0707 12:21:51.490370  5062 layer_factory.hpp:77] Creating layer inception_4b/pool
I0707 12:21:51.490382  5062 net.cpp:91] Creating Layer inception_4b/pool
I0707 12:21:51.490388  5062 net.cpp:425] inception_4b/pool <- inception_4a/output_inception_4a/output_0_split_3
I0707 12:21:51.490396  5062 net.cpp:399] inception_4b/pool -> inception_4b/pool
I0707 12:21:51.490609  5062 net.cpp:141] Setting up inception_4b/pool
I0707 12:21:51.490620  5062 net.cpp:148] Top shape: 10 512 14 14 (1003520)
I0707 12:21:51.490624  5062 net.cpp:156] Memory required for data: 402787840
I0707 12:21:51.490629  5062 layer_factory.hpp:77] Creating layer inception_4b/pool_proj
I0707 12:21:51.490646  5062 net.cpp:91] Creating Layer inception_4b/pool_proj
I0707 12:21:51.490651  5062 net.cpp:425] inception_4b/pool_proj <- inception_4b/pool
I0707 12:21:51.490664  5062 net.cpp:399] inception_4b/pool_proj -> inception_4b/pool_proj
I0707 12:21:51.490962  5066 net.cpp:141] Setting up inception_4a/pool_proj
I0707 12:21:51.490978  5066 net.cpp:148] Top shape: 10 64 14 14 (125440)
I0707 12:21:51.490984  5066 net.cpp:156] Memory required for data: 369044480
I0707 12:21:51.490995  5066 layer_factory.hpp:77] Creating layer inception_4a/relu_pool_proj
I0707 12:21:51.491006  5066 net.cpp:91] Creating Layer inception_4a/relu_pool_proj
I0707 12:21:51.491014  5066 net.cpp:425] inception_4a/relu_pool_proj <- inception_4a/pool_proj
I0707 12:21:51.491026  5066 net.cpp:386] inception_4a/relu_pool_proj -> inception_4a/pool_proj (in-place)
I0707 12:21:51.492194  5066 net.cpp:141] Setting up inception_4a/relu_pool_proj
I0707 12:21:51.492213  5066 net.cpp:148] Top shape: 10 64 14 14 (125440)
I0707 12:21:51.492218  5066 net.cpp:156] Memory required for data: 369546240
I0707 12:21:51.492223  5066 layer_factory.hpp:77] Creating layer inception_4a/output
I0707 12:21:51.492231  5066 net.cpp:91] Creating Layer inception_4a/output
I0707 12:21:51.492238  5066 net.cpp:425] inception_4a/output <- inception_4a/1x1
I0707 12:21:51.492249  5066 net.cpp:425] inception_4a/output <- inception_4a/3x3
I0707 12:21:51.492255  5066 net.cpp:425] inception_4a/output <- inception_4a/5x5
I0707 12:21:51.492261  5066 net.cpp:425] inception_4a/output <- inception_4a/pool_proj
I0707 12:21:51.492269  5066 net.cpp:399] inception_4a/output -> inception_4a/output
I0707 12:21:51.492343  5066 net.cpp:141] Setting up inception_4a/output
I0707 12:21:51.492354  5066 net.cpp:148] Top shape: 10 512 14 14 (1003520)
I0707 12:21:51.492358  5066 net.cpp:156] Memory required for data: 373560320
I0707 12:21:51.492363  5066 layer_factory.hpp:77] Creating layer inception_4a/output_inception_4a/output_0_split
I0707 12:21:51.492372  5066 net.cpp:91] Creating Layer inception_4a/output_inception_4a/output_0_split
I0707 12:21:51.492378  5066 net.cpp:425] inception_4a/output_inception_4a/output_0_split <- inception_4a/output
I0707 12:21:51.492389  5066 net.cpp:399] inception_4a/output_inception_4a/output_0_split -> inception_4a/output_inception_4a/output_0_split_0
I0707 12:21:51.492400  5066 net.cpp:399] inception_4a/output_inception_4a/output_0_split -> inception_4a/output_inception_4a/output_0_split_1
I0707 12:21:51.492409  5066 net.cpp:399] inception_4a/output_inception_4a/output_0_split -> inception_4a/output_inception_4a/output_0_split_2
I0707 12:21:51.492419  5066 net.cpp:399] inception_4a/output_inception_4a/output_0_split -> inception_4a/output_inception_4a/output_0_split_3
I0707 12:21:51.493249  5066 net.cpp:141] Setting up inception_4a/output_inception_4a/output_0_split
I0707 12:21:51.493262  5066 net.cpp:148] Top shape: 10 512 14 14 (1003520)
I0707 12:21:51.493268  5066 net.cpp:148] Top shape: 10 512 14 14 (1003520)
I0707 12:21:51.493274  5066 net.cpp:148] Top shape: 10 512 14 14 (1003520)
I0707 12:21:51.493279  5066 net.cpp:148] Top shape: 10 512 14 14 (1003520)
I0707 12:21:51.493284  5066 net.cpp:156] Memory required for data: 389616640
I0707 12:21:51.493289  5066 layer_factory.hpp:77] Creating layer inception_4b/1x1
I0707 12:21:51.493309  5066 net.cpp:91] Creating Layer inception_4b/1x1
I0707 12:21:51.493314  5066 net.cpp:425] inception_4b/1x1 <- inception_4a/output_inception_4a/output_0_split_0
I0707 12:21:51.493324  5066 net.cpp:399] inception_4b/1x1 -> inception_4b/1x1
I0707 12:21:51.494092  5062 net.cpp:141] Setting up inception_4b/pool_proj
I0707 12:21:51.494115  5062 net.cpp:148] Top shape: 10 64 14 14 (125440)
I0707 12:21:51.494120  5062 net.cpp:156] Memory required for data: 403289600
I0707 12:21:51.494133  5062 layer_factory.hpp:77] Creating layer inception_4b/relu_pool_proj
I0707 12:21:51.494143  5062 net.cpp:91] Creating Layer inception_4b/relu_pool_proj
I0707 12:21:51.494149  5062 net.cpp:425] inception_4b/relu_pool_proj <- inception_4b/pool_proj
I0707 12:21:51.494158  5062 net.cpp:386] inception_4b/relu_pool_proj -> inception_4b/pool_proj (in-place)
I0707 12:21:51.495368  5062 net.cpp:141] Setting up inception_4b/relu_pool_proj
I0707 12:21:51.495384  5062 net.cpp:148] Top shape: 10 64 14 14 (125440)
I0707 12:21:51.495388  5062 net.cpp:156] Memory required for data: 403791360
I0707 12:21:51.495394  5062 layer_factory.hpp:77] Creating layer inception_4b/output
I0707 12:21:51.495403  5062 net.cpp:91] Creating Layer inception_4b/output
I0707 12:21:51.495409  5062 net.cpp:425] inception_4b/output <- inception_4b/1x1
I0707 12:21:51.495414  5062 net.cpp:425] inception_4b/output <- inception_4b/3x3
I0707 12:21:51.495420  5062 net.cpp:425] inception_4b/output <- inception_4b/5x5
I0707 12:21:51.495424  5062 net.cpp:425] inception_4b/output <- inception_4b/pool_proj
I0707 12:21:51.495434  5062 net.cpp:399] inception_4b/output -> inception_4b/output
I0707 12:21:51.495501  5062 net.cpp:141] Setting up inception_4b/output
I0707 12:21:51.495510  5062 net.cpp:148] Top shape: 10 512 14 14 (1003520)
I0707 12:21:51.495514  5062 net.cpp:156] Memory required for data: 407805440
I0707 12:21:51.495518  5062 layer_factory.hpp:77] Creating layer inception_4b/output_inception_4b/output_0_split
I0707 12:21:51.495532  5062 net.cpp:91] Creating Layer inception_4b/output_inception_4b/output_0_split
I0707 12:21:51.495537  5062 net.cpp:425] inception_4b/output_inception_4b/output_0_split <- inception_4b/output
I0707 12:21:51.495543  5062 net.cpp:399] inception_4b/output_inception_4b/output_0_split -> inception_4b/output_inception_4b/output_0_split_0
I0707 12:21:51.495554  5062 net.cpp:399] inception_4b/output_inception_4b/output_0_split -> inception_4b/output_inception_4b/output_0_split_1
I0707 12:21:51.495563  5062 net.cpp:399] inception_4b/output_inception_4b/output_0_split -> inception_4b/output_inception_4b/output_0_split_2
I0707 12:21:51.495570  5062 net.cpp:399] inception_4b/output_inception_4b/output_0_split -> inception_4b/output_inception_4b/output_0_split_3
I0707 12:21:51.496439  5062 net.cpp:141] Setting up inception_4b/output_inception_4b/output_0_split
I0707 12:21:51.496451  5062 net.cpp:148] Top shape: 10 512 14 14 (1003520)
I0707 12:21:51.496457  5062 net.cpp:148] Top shape: 10 512 14 14 (1003520)
I0707 12:21:51.496462  5062 net.cpp:148] Top shape: 10 512 14 14 (1003520)
I0707 12:21:51.496467  5062 net.cpp:148] Top shape: 10 512 14 14 (1003520)
I0707 12:21:51.496471  5062 net.cpp:156] Memory required for data: 423861760
I0707 12:21:51.496475  5062 layer_factory.hpp:77] Creating layer inception_4c/1x1
I0707 12:21:51.496490  5062 net.cpp:91] Creating Layer inception_4c/1x1
I0707 12:21:51.496496  5062 net.cpp:425] inception_4c/1x1 <- inception_4b/output_inception_4b/output_0_split_0
I0707 12:21:51.496507  5062 net.cpp:399] inception_4c/1x1 -> inception_4c/1x1
I0707 12:21:51.499481  5066 net.cpp:141] Setting up inception_4b/1x1
I0707 12:21:51.499505  5066 net.cpp:148] Top shape: 10 160 14 14 (313600)
I0707 12:21:51.499511  5066 net.cpp:156] Memory required for data: 390871040
I0707 12:21:51.499521  5066 layer_factory.hpp:77] Creating layer inception_4b/relu_1x1
I0707 12:21:51.499536  5066 net.cpp:91] Creating Layer inception_4b/relu_1x1
I0707 12:21:51.499542  5066 net.cpp:425] inception_4b/relu_1x1 <- inception_4b/1x1
I0707 12:21:51.499550  5066 net.cpp:386] inception_4b/relu_1x1 -> inception_4b/1x1 (in-place)
I0707 12:21:51.501773  5066 net.cpp:141] Setting up inception_4b/relu_1x1
I0707 12:21:51.501790  5066 net.cpp:148] Top shape: 10 160 14 14 (313600)
I0707 12:21:51.501794  5066 net.cpp:156] Memory required for data: 392125440
I0707 12:21:51.501801  5066 layer_factory.hpp:77] Creating layer inception_4b/3x3_reduce
I0707 12:21:51.501816  5066 net.cpp:91] Creating Layer inception_4b/3x3_reduce
I0707 12:21:51.501823  5066 net.cpp:425] inception_4b/3x3_reduce <- inception_4a/output_inception_4a/output_0_split_1
I0707 12:21:51.501837  5066 net.cpp:399] inception_4b/3x3_reduce -> inception_4b/3x3_reduce
I0707 12:21:51.502446  5062 net.cpp:141] Setting up inception_4c/1x1
I0707 12:21:51.502478  5062 net.cpp:148] Top shape: 10 128 14 14 (250880)
I0707 12:21:51.502485  5062 net.cpp:156] Memory required for data: 424865280
I0707 12:21:51.502496  5062 layer_factory.hpp:77] Creating layer inception_4c/relu_1x1
I0707 12:21:51.502511  5062 net.cpp:91] Creating Layer inception_4c/relu_1x1
I0707 12:21:51.502518  5062 net.cpp:425] inception_4c/relu_1x1 <- inception_4c/1x1
I0707 12:21:51.502531  5062 net.cpp:386] inception_4c/relu_1x1 -> inception_4c/1x1 (in-place)
I0707 12:21:51.502812  5062 net.cpp:141] Setting up inception_4c/relu_1x1
I0707 12:21:51.502825  5062 net.cpp:148] Top shape: 10 128 14 14 (250880)
I0707 12:21:51.502830  5062 net.cpp:156] Memory required for data: 425868800
I0707 12:21:51.502835  5062 layer_factory.hpp:77] Creating layer inception_4c/3x3_reduce
I0707 12:21:51.502853  5062 net.cpp:91] Creating Layer inception_4c/3x3_reduce
I0707 12:21:51.502859  5062 net.cpp:425] inception_4c/3x3_reduce <- inception_4b/output_inception_4b/output_0_split_1
I0707 12:21:51.502869  5062 net.cpp:399] inception_4c/3x3_reduce -> inception_4c/3x3_reduce
I0707 12:21:51.507966  5066 net.cpp:141] Setting up inception_4b/3x3_reduce
I0707 12:21:51.507987  5066 net.cpp:148] Top shape: 10 112 14 14 (219520)
I0707 12:21:51.507992  5066 net.cpp:156] Memory required for data: 393003520
I0707 12:21:51.508002  5066 layer_factory.hpp:77] Creating layer inception_4b/relu_3x3_reduce
I0707 12:21:51.508021  5066 net.cpp:91] Creating Layer inception_4b/relu_3x3_reduce
I0707 12:21:51.508028  5066 net.cpp:425] inception_4b/relu_3x3_reduce <- inception_4b/3x3_reduce
I0707 12:21:51.508036  5066 net.cpp:386] inception_4b/relu_3x3_reduce -> inception_4b/3x3_reduce (in-place)
I0707 12:21:51.509183  5066 net.cpp:141] Setting up inception_4b/relu_3x3_reduce
I0707 12:21:51.509201  5066 net.cpp:148] Top shape: 10 112 14 14 (219520)
I0707 12:21:51.509207  5066 net.cpp:156] Memory required for data: 393881600
I0707 12:21:51.509212  5066 layer_factory.hpp:77] Creating layer inception_4b/3x3
I0707 12:21:51.509219  5062 net.cpp:141] Setting up inception_4c/3x3_reduce
I0707 12:21:51.509232  5066 net.cpp:91] Creating Layer inception_4b/3x3
I0707 12:21:51.509245  5062 net.cpp:148] Top shape: 10 128 14 14 (250880)
I0707 12:21:51.509248  5066 net.cpp:425] inception_4b/3x3 <- inception_4b/3x3_reduce
I0707 12:21:51.509251  5062 net.cpp:156] Memory required for data: 426872320
I0707 12:21:51.509259  5066 net.cpp:399] inception_4b/3x3 -> inception_4b/3x3
I0707 12:21:51.509263  5062 layer_factory.hpp:77] Creating layer inception_4c/relu_3x3_reduce
I0707 12:21:51.509274  5062 net.cpp:91] Creating Layer inception_4c/relu_3x3_reduce
I0707 12:21:51.509279  5062 net.cpp:425] inception_4c/relu_3x3_reduce <- inception_4c/3x3_reduce
I0707 12:21:51.509289  5062 net.cpp:386] inception_4c/relu_3x3_reduce -> inception_4c/3x3_reduce (in-place)
I0707 12:21:51.511056  5062 net.cpp:141] Setting up inception_4c/relu_3x3_reduce
I0707 12:21:51.511075  5062 net.cpp:148] Top shape: 10 128 14 14 (250880)
I0707 12:21:51.511080  5062 net.cpp:156] Memory required for data: 427875840
I0707 12:21:51.511085  5062 layer_factory.hpp:77] Creating layer inception_4c/3x3
I0707 12:21:51.511104  5062 net.cpp:91] Creating Layer inception_4c/3x3
I0707 12:21:51.511111  5062 net.cpp:425] inception_4c/3x3 <- inception_4c/3x3_reduce
I0707 12:21:51.511121  5062 net.cpp:399] inception_4c/3x3 -> inception_4c/3x3
I0707 12:21:51.516266  5066 net.cpp:141] Setting up inception_4b/3x3
I0707 12:21:51.516289  5066 net.cpp:148] Top shape: 10 224 14 14 (439040)
I0707 12:21:51.516295  5066 net.cpp:156] Memory required for data: 395637760
I0707 12:21:51.516305  5066 layer_factory.hpp:77] Creating layer inception_4b/relu_3x3
I0707 12:21:51.516314  5066 net.cpp:91] Creating Layer inception_4b/relu_3x3
I0707 12:21:51.516320  5066 net.cpp:425] inception_4b/relu_3x3 <- inception_4b/3x3
I0707 12:21:51.516329  5066 net.cpp:386] inception_4b/relu_3x3 -> inception_4b/3x3 (in-place)
I0707 12:21:51.517899  5066 net.cpp:141] Setting up inception_4b/relu_3x3
I0707 12:21:51.517915  5066 net.cpp:148] Top shape: 10 224 14 14 (439040)
I0707 12:21:51.517920  5066 net.cpp:156] Memory required for data: 397393920
I0707 12:21:51.517925  5066 layer_factory.hpp:77] Creating layer inception_4b/5x5_reduce
I0707 12:21:51.517956  5066 net.cpp:91] Creating Layer inception_4b/5x5_reduce
I0707 12:21:51.517963  5066 net.cpp:425] inception_4b/5x5_reduce <- inception_4a/output_inception_4a/output_0_split_2
I0707 12:21:51.517976  5066 net.cpp:399] inception_4b/5x5_reduce -> inception_4b/5x5_reduce
I0707 12:21:51.518481  5062 net.cpp:141] Setting up inception_4c/3x3
I0707 12:21:51.518512  5062 net.cpp:148] Top shape: 10 256 14 14 (501760)
I0707 12:21:51.518517  5062 net.cpp:156] Memory required for data: 429882880
I0707 12:21:51.518528  5062 layer_factory.hpp:77] Creating layer inception_4c/relu_3x3
I0707 12:21:51.518540  5062 net.cpp:91] Creating Layer inception_4c/relu_3x3
I0707 12:21:51.518546  5062 net.cpp:425] inception_4c/relu_3x3 <- inception_4c/3x3
I0707 12:21:51.518558  5062 net.cpp:386] inception_4c/relu_3x3 -> inception_4c/3x3 (in-place)
I0707 12:21:51.519939  5062 net.cpp:141] Setting up inception_4c/relu_3x3
I0707 12:21:51.519956  5062 net.cpp:148] Top shape: 10 256 14 14 (501760)
I0707 12:21:51.519961  5062 net.cpp:156] Memory required for data: 431889920
I0707 12:21:51.519966  5062 layer_factory.hpp:77] Creating layer inception_4c/5x5_reduce
I0707 12:21:51.519984  5062 net.cpp:91] Creating Layer inception_4c/5x5_reduce
I0707 12:21:51.519994  5062 net.cpp:425] inception_4c/5x5_reduce <- inception_4b/output_inception_4b/output_0_split_2
I0707 12:21:51.520002  5062 net.cpp:399] inception_4c/5x5_reduce -> inception_4c/5x5_reduce
I0707 12:21:51.523452  5066 net.cpp:141] Setting up inception_4b/5x5_reduce
I0707 12:21:51.523473  5066 net.cpp:148] Top shape: 10 24 14 14 (47040)
I0707 12:21:51.523479  5066 net.cpp:156] Memory required for data: 397582080
I0707 12:21:51.523490  5066 layer_factory.hpp:77] Creating layer inception_4b/relu_5x5_reduce
…
I0707 12:21:51.664002  5062 net.cpp:148] Top shape: 10 160 7 7 (78400)
I0707 12:21:51.664006  5062 net.cpp:156] Memory required for data: 530611200
I0707 12:21:51.664011  5062 layer_factory.hpp:77] Creating layer inception_5a/3x3
I0707 12:21:51.664032  5062 net.cpp:91] Creating Layer inception_5a/3x3
I0707 12:21:51.664038  5062 net.cpp:425] inception_5a/3x3 <- inception_5a/3x3_reduce
I0707 12:21:51.664047  5062 net.cpp:399] inception_5a/3x3 -> inception_5a/3x3
I0707 12:21:51.664048  5066 net.cpp:141] Setting up inception_4d/output
I0707 12:21:51.664065  5066 net.cpp:148] Top shape: 10 528 14 14 (1034880)
I0707 12:21:51.664070  5066 net.cpp:156] Memory required for data: 477550080
I0707 12:21:51.664075  5066 layer_factory.hpp:77] Creating layer inception_4d/output_inception_4d/output_0_split
I0707 12:21:51.664085  5066 net.cpp:91] Creating Layer inception_4d/output_inception_4d/output_0_split
I0707 12:21:51.664091  5066 net.cpp:425] inception_4d/output_inception_4d/output_0_split <- inception_4d/output
I0707 12:21:51.664098  5066 net.cpp:399] inception_4d/output_inception_4d/output_0_split -> inception_4d/output_inception_4d/output_0_split_0
I0707 12:21:51.664109  5066 net.cpp:399] inception_4d/output_inception_4d/output_0_split -> inception_4d/output_inception_4d/output_0_split_1
I0707 12:21:51.664122  5066 net.cpp:399] inception_4d/output_inception_4d/output_0_split -> inception_4d/output_inception_4d/output_0_split_2
I0707 12:21:51.664132  5066 net.cpp:399] inception_4d/output_inception_4d/output_0_split -> inception_4d/output_inception_4d/output_0_split_3
I0707 12:21:51.666326  5066 net.cpp:141] Setting up inception_4d/output_inception_4d/output_0_split
I0707 12:21:51.666344  5066 net.cpp:148] Top shape: 10 528 14 14 (1034880)
I0707 12:21:51.666352  5066 net.cpp:148] Top shape: 10 528 14 14 (1034880)
I0707 12:21:51.666357  5066 net.cpp:148] Top shape: 10 528 14 14 (1034880)
I0707 12:21:51.666363  5066 net.cpp:148] Top shape: 10 528 14 14 (1034880)
I0707 12:21:51.666368  5066 net.cpp:156] Memory required for data: 494108160
I0707 12:21:51.666373  5066 layer_factory.hpp:77] Creating layer inception_4e/1x1
I0707 12:21:51.666393  5066 net.cpp:91] Creating Layer inception_4e/1x1
I0707 12:21:51.666399  5066 net.cpp:425] inception_4e/1x1 <- inception_4d/output_inception_4d/output_0_split_0
I0707 12:21:51.666411  5066 net.cpp:399] inception_4e/1x1 -> inception_4e/1x1
I0707 12:21:51.676110  5062 net.cpp:141] Setting up inception_5a/3x3
I0707 12:21:51.676147  5062 net.cpp:148] Top shape: 10 320 7 7 (156800)
I0707 12:21:51.676153  5062 net.cpp:156] Memory required for data: 531238400
I0707 12:21:51.676167  5062 layer_factory.hpp:77] Creating layer inception_5a/relu_3x3
I0707 12:21:51.676180  5062 net.cpp:91] Creating Layer inception_5a/relu_3x3
I0707 12:21:51.676188  5062 net.cpp:425] inception_5a/relu_3x3 <- inception_5a/3x3
I0707 12:21:51.676210  5062 net.cpp:386] inception_5a/relu_3x3 -> inception_5a/3x3 (in-place)
I0707 12:21:51.678033  5062 net.cpp:141] Setting up inception_5a/relu_3x3
I0707 12:21:51.678050  5062 net.cpp:148] Top shape: 10 320 7 7 (156800)
I0707 12:21:51.678056  5062 net.cpp:156] Memory required for data: 531865600
I0707 12:21:51.678061  5062 layer_factory.hpp:77] Creating layer inception_5a/5x5_reduce
I0707 12:21:51.678079  5062 net.cpp:91] Creating Layer inception_5a/5x5_reduce
I0707 12:21:51.678086  5062 net.cpp:425] inception_5a/5x5_reduce <- pool4/3x3_s2_pool4/3x3_s2_0_split_2
I0707 12:21:51.678100  5062 net.cpp:399] inception_5a/5x5_reduce -> inception_5a/5x5_reduce
I0707 12:21:51.679003  5066 net.cpp:141] Setting up inception_4e/1x1
I0707 12:21:51.679030  5066 net.cpp:148] Top shape: 10 256 14 14 (501760)
I0707 12:21:51.679039  5066 net.cpp:156] Memory required for data: 496115200
I0707 12:21:51.679050  5066 layer_factory.hpp:77] Creating layer inception_4e/relu_1x1
I0707 12:21:51.679062  5066 net.cpp:91] Creating Layer inception_4e/relu_1x1
I0707 12:21:51.679069  5066 net.cpp:425] inception_4e/relu_1x1 <- inception_4e/1x1
I0707 12:21:51.679085  5066 net.cpp:386] inception_4e/relu_1x1 -> inception_4e/1x1 (in-place)
I0707 12:21:51.680505  5066 net.cpp:141] Setting up inception_4e/relu_1x1
I0707 12:21:51.680524  5066 net.cpp:148] Top shape: 10 256 14 14 (501760)
I0707 12:21:51.680531  5066 net.cpp:156] Memory required for data: 498122240
I0707 12:21:51.680536  5066 layer_factory.hpp:77] Creating layer inception_4e/3x3_reduce
I0707 12:21:51.680553  5066 net.cpp:91] Creating Layer inception_4e/3x3_reduce
I0707 12:21:51.680559  5066 net.cpp:425] inception_4e/3x3_reduce <- inception_4d/output_inception_4d/output_0_split_1
I0707 12:21:51.680583  5066 net.cpp:399] inception_4e/3x3_reduce -> inception_4e/3x3_reduce
I0707 12:21:51.683517  5062 net.cpp:141] Setting up inception_5a/5x5_reduce
I0707 12:21:51.683542  5062 net.cpp:148] Top shape: 10 32 7 7 (15680)
I0707 12:21:51.683547  5062 net.cpp:156] Memory required for data: 531928320
I0707 12:21:51.683557  5062 layer_factory.hpp:77] Creating layer inception_5a/relu_5x5_reduce
I0707 12:21:51.683567  5062 net.cpp:91] Creating Layer inception_5a/relu_5x5_reduce
I0707 12:21:51.683573  5062 net.cpp:425] inception_5a/relu_5x5_reduce <- inception_5a/5x5_reduce
I0707 12:21:51.683579  5062 net.cpp:386] inception_5a/relu_5x5_reduce -> inception_5a/5x5_reduce (in-place)
I0707 12:21:51.685024  5062 net.cpp:141] Setting up inception_5a/relu_5x5_reduce
I0707 12:21:51.685039  5062 net.cpp:148] Top shape: 10 32 7 7 (15680)
I0707 12:21:51.685044  5062 net.cpp:156] Memory required for data: 531991040
I0707 12:21:51.685048  5062 layer_factory.hpp:77] Creating layer inception_5a/5x5
I0707 12:21:51.685063  5062 net.cpp:91] Creating Layer inception_5a/5x5
I0707 12:21:51.685070  5062 net.cpp:425] inception_5a/5x5 <- inception_5a/5x5_reduce
I0707 12:21:51.685081  5062 net.cpp:399] inception_5a/5x5 -> inception_5a/5x5
I0707 12:21:51.685986  5066 net.cpp:141] Setting up inception_4e/3x3_reduce
I0707 12:21:51.686007  5066 net.cpp:148] Top shape: 10 160 14 14 (313600)
I0707 12:21:51.686013  5066 net.cpp:156] Memory required for data: 499376640
I0707 12:21:51.686023  5066 layer_factory.hpp:77] Creating layer inception_4e/relu_3x3_reduce
I0707 12:21:51.686038  5066 net.cpp:91] Creating Layer inception_4e/relu_3x3_reduce
I0707 12:21:51.686045  5066 net.cpp:425] inception_4e/relu_3x3_reduce <- inception_4e/3x3_reduce
I0707 12:21:51.686053  5066 net.cpp:386] inception_4e/relu_3x3_reduce -> inception_4e/3x3_reduce (in-place)
I0707 12:21:51.687371  5066 net.cpp:141] Setting up inception_4e/relu_3x3_reduce
I0707 12:21:51.687391  5066 net.cpp:148] Top shape: 10 160 14 14 (313600)
I0707 12:21:51.687397  5066 net.cpp:156] Memory required for data: 500631040
I0707 12:21:51.687402  5066 layer_factory.hpp:77] Creating layer inception_4e/3x3
I0707 12:21:51.687423  5066 net.cpp:91] Creating Layer inception_4e/3x3
I0707 12:21:51.687432  5066 net.cpp:425] inception_4e/3x3 <- inception_4e/3x3_reduce
I0707 12:21:51.687441  5066 net.cpp:399] inception_4e/3x3 -> inception_4e/3x3
I0707 12:21:51.691797  5062 net.cpp:141] Setting up inception_5a/5x5
I0707 12:21:51.691824  5062 net.cpp:148] Top shape: 10 128 7 7 (62720)
I0707 12:21:51.691829  5062 net.cpp:156] Memory required for data: 532241920
I0707 12:21:51.691839  5062 layer_factory.hpp:77] Creating layer inception_5a/relu_5x5
I0707 12:21:51.691875  5062 net.cpp:91] Creating Layer inception_5a/relu_5x5
I0707 12:21:51.691882  5062 net.cpp:425] inception_5a/relu_5x5 <- inception_5a/5x5
I0707 12:21:51.691890  5062 net.cpp:386] inception_5a/relu_5x5 -> inception_5a/5x5 (in-place)
I0707 12:21:51.692164  5062 net.cpp:141] Setting up inception_5a/relu_5x5
I0707 12:21:51.692176  5062 net.cpp:148] Top shape: 10 128 7 7 (62720)
I0707 12:21:51.692180  5062 net.cpp:156] Memory required for data: 532492800
I0707 12:21:51.692185  5062 layer_factory.hpp:77] Creating layer inception_5a/pool
I0707 12:21:51.692198  5062 net.cpp:91] Creating Layer inception_5a/pool
I0707 12:21:51.692204  5062 net.cpp:425] inception_5a/pool <- pool4/3x3_s2_pool4/3x3_s2_0_split_3
I0707 12:21:51.692211  5062 net.cpp:399] inception_5a/pool -> inception_5a/pool
I0707 12:21:51.692311  5062 net.cpp:141] Setting up inception_5a/pool
I0707 12:21:51.692320  5062 net.cpp:148] Top shape: 10 832 7 7 (407680)
I0707 12:21:51.692324  5062 net.cpp:156] Memory required for data: 534123520
I0707 12:21:51.692328  5062 layer_factory.hpp:77] Creating layer inception_5a/pool_proj
I0707 12:21:51.692343  5062 net.cpp:91] Creating Layer inception_5a/pool_proj
I0707 12:21:51.692348  5062 net.cpp:425] inception_5a/pool_proj <- inception_5a/pool
I0707 12:21:51.692360  5062 net.cpp:399] inception_5a/pool_proj -> inception_5a/pool_proj
I0707 12:21:51.699062  5062 net.cpp:141] Setting up inception_5a/pool_proj
I0707 12:21:51.699106  5062 net.cpp:148] Top shape: 10 128 7 7 (62720)
I0707 12:21:51.699112  5062 net.cpp:156] Memory required for data: 534374400
I0707 12:21:51.699126  5062 layer_factory.hpp:77] Creating layer inception_5a/relu_pool_proj
I0707 12:21:51.699141  5062 net.cpp:91] Creating Layer inception_5a/relu_pool_proj
I0707 12:21:51.699149  5062 net.cpp:425] inception_5a/relu_pool_proj <- inception_5a/pool_proj
I0707 12:21:51.699161  5062 net.cpp:386] inception_5a/relu_pool_proj -> inception_5a/pool_proj (in-place)
I0707 12:21:51.700669  5062 net.cpp:141] Setting up inception_5a/relu_pool_proj
I0707 12:21:51.700685  5062 net.cpp:148] Top shape: 10 128 7 7 (62720)
I0707 12:21:51.700690  5062 net.cpp:156] Memory required for data: 534625280
I0707 12:21:51.700695  5062 layer_factory.hpp:77] Creating layer inception_5a/output
I0707 12:21:51.700709  5062 net.cpp:91] Creating Layer inception_5a/output
I0707 12:21:51.700716  5062 net.cpp:425] inception_5a/output <- inception_5a/1x1
I0707 12:21:51.700723  5062 net.cpp:425] inception_5a/output <- inception_5a/3x3
I0707 12:21:51.700729  5062 net.cpp:425] inception_5a/output <- inception_5a/5x5
I0707 12:21:51.700734  5062 net.cpp:425] inception_5a/output <- inception_5a/pool_proj
I0707 12:21:51.700741  5062 net.cpp:399] inception_5a/output -> inception_5a/output
I0707 12:21:51.701035  5062 net.cpp:141] Setting up inception_5a/output
I0707 12:21:51.701046  5062 net.cpp:148] Top shape: 10 832 7 7 (407680)
I0707 12:21:51.701050  5062 net.cpp:156] Memory required for data: 536256000
I0707 12:21:51.701056  5062 layer_factory.hpp:77] Creating layer inception_5a/output_inception_5a/output_0_split
I0707 12:21:51.701063  5062 net.cpp:91] Creating Layer inception_5a/output_inception_5a/output_0_split
I0707 12:21:51.701067  5062 net.cpp:425] inception_5a/output_inception_5a/output_0_split <- inception_5a/output
I0707 12:21:51.701079  5062 net.cpp:399] inception_5a/output_inception_5a/output_0_split -> inception_5a/output_inception_5a/output_0_split_0
I0707 12:21:51.701076  5066 net.cpp:141] Setting up inception_4e/3x3
I0707 12:21:51.701089  5062 net.cpp:399] inception_5a/output_inception_5a/output_0_split -> inception_5a/output_inception_5a/output_0_split_1
I0707 12:21:51.701110  5066 net.cpp:148] Top shape: 10 320 14 14 (627200)
I0707 12:21:51.701115  5062 net.cpp:399] inception_5a/output_inception_5a/output_0_split -> inception_5a/output_inception_5a/output_0_split_2
I0707 12:21:51.701117  5066 net.cpp:156] Memory required for data: 503139840
I0707 12:21:51.701129  5062 net.cpp:399] inception_5a/output_inception_5a/output_0_split -> inception_5a/output_inception_5a/output_0_split_3
I0707 12:21:51.701140  5066 layer_factory.hpp:77] Creating layer inception_4e/relu_3x3
I0707 12:21:51.701155  5066 net.cpp:91] Creating Layer inception_4e/relu_3x3
I0707 12:21:51.701164  5066 net.cpp:425] inception_4e/relu_3x3 <- inception_4e/3x3
I0707 12:21:51.701172  5066 net.cpp:386] inception_4e/relu_3x3 -> inception_4e/3x3 (in-place)
I0707 12:21:51.701297  5062 net.cpp:141] Setting up inception_5a/output_inception_5a/output_0_split
I0707 12:21:51.701308  5062 net.cpp:148] Top shape: 10 832 7 7 (407680)
I0707 12:21:51.701313  5062 net.cpp:148] Top shape: 10 832 7 7 (407680)
I0707 12:21:51.701318  5062 net.cpp:148] Top shape: 10 832 7 7 (407680)
I0707 12:21:51.701323  5062 net.cpp:148] Top shape: 10 832 7 7 (407680)
I0707 12:21:51.701326  5062 net.cpp:156] Memory required for data: 542778880
I0707 12:21:51.701331  5062 layer_factory.hpp:77] Creating layer inception_5b/1x1
I0707 12:21:51.701352  5062 net.cpp:91] Creating Layer inception_5b/1x1
I0707 12:21:51.701357  5062 net.cpp:425] inception_5b/1x1 <- inception_5a/output_inception_5a/output_0_split_0
I0707 12:21:51.701366  5062 net.cpp:399] inception_5b/1x1 -> inception_5b/1x1
I0707 12:21:51.704269  5066 net.cpp:141] Setting up inception_4e/relu_3x3
I0707 12:21:51.704294  5066 net.cpp:148] Top shape: 10 320 14 14 (627200)
I0707 12:21:51.704300  5066 net.cpp:156] Memory required for data: 505648640
I0707 12:21:51.704308  5066 layer_factory.hpp:77] Creating layer inception_4e/5x5_reduce
I0707 12:21:51.704327  5066 net.cpp:91] Creating Layer inception_4e/5x5_reduce
I0707 12:21:51.704335  5066 net.cpp:425] inception_4e/5x5_reduce <- inception_4d/output_inception_4d/output_0_split_2
I0707 12:21:51.704346  5066 net.cpp:399] inception_4e/5x5_reduce -> inception_4e/5x5_reduce
I0707 12:21:51.709108  5066 net.cpp:141] Setting up inception_4e/5x5_reduce
I0707 12:21:51.709128  5066 net.cpp:148] Top shape: 10 32 14 14 (62720)
I0707 12:21:51.709134  5066 net.cpp:156] Memory required for data: 505899520
I0707 12:21:51.709144  5066 layer_factory.hpp:77] Creating layer inception_4e/relu_5x5_reduce
I0707 12:21:51.709158  5066 net.cpp:91] Creating Layer inception_4e/relu_5x5_reduce
I0707 12:21:51.709166  5066 net.cpp:425] inception_4e/relu_5x5_reduce <- inception_4e/5x5_reduce
I0707 12:21:51.709173  5066 net.cpp:386] inception_4e/relu_5x5_reduce -> inception_4e/5x5_reduce (in-place)
I0707 12:21:51.711036  5066 net.cpp:141] Setting up inception_4e/relu_5x5_reduce
I0707 12:21:51.711053  5066 net.cpp:148] Top shape: 10 32 14 14 (62720)
I0707 12:21:51.711058  5066 net.cpp:156] Memory required for data: 506150400
I0707 12:21:51.711063  5066 layer_factory.hpp:77] Creating layer inception_4e/5x5
I0707 12:21:51.711081  5066 net.cpp:91] Creating Layer inception_4e/5x5
I0707 12:21:51.711088  5066 net.cpp:425] inception_4e/5x5 <- inception_4e/5x5_reduce
I0707 12:21:51.711100  5066 net.cpp:399] inception_4e/5x5 -> inception_4e/5x5
I0707 12:21:51.711469  5062 net.cpp:141] Setting up inception_5b/1x1
I0707 12:21:51.711508  5062 net.cpp:148] Top shape: 10 384 7 7 (188160)
I0707 12:21:51.711513  5062 net.cpp:156] Memory required for data: 543531520
I0707 12:21:51.711525  5062 layer_factory.hpp:77] Creating layer inception_5b/relu_1x1
I0707 12:21:51.711539  5062 net.cpp:91] Creating Layer inception_5b/relu_1x1
I0707 12:21:51.711546  5062 net.cpp:425] inception_5b/relu_1x1 <- inception_5b/1x1
I0707 12:21:51.711557  5062 net.cpp:386] inception_5b/relu_1x1 -> inception_5b/1x1 (in-place)
I0707 12:21:51.712131  5062 net.cpp:141] Setting up inception_5b/relu_1x1
I0707 12:21:51.712144  5062 net.cpp:148] Top shape: 10 384 7 7 (188160)
I0707 12:21:51.712149  5062 net.cpp:156] Memory required for data: 544284160
I0707 12:21:51.712154  5062 layer_factory.hpp:77] Creating layer inception_5b/3x3_reduce
I0707 12:21:51.712172  5062 net.cpp:91] Creating Layer inception_5b/3x3_reduce
I0707 12:21:51.712180  5062 net.cpp:425] inception_5b/3x3_reduce <- inception_5a/output_inception_5a/output_0_split_1
I0707 12:21:51.712190  5062 net.cpp:399] inception_5b/3x3_reduce -> inception_5b/3x3_reduce
I0707 12:21:51.718786  5066 net.cpp:141] Setting up inception_4e/5x5
I0707 12:21:51.718808  5066 net.cpp:148] Top shape: 10 128 14 14 (250880)
I0707 12:21:51.718814  5066 net.cpp:156] Memory required for data: 507153920
I0707 12:21:51.718824  5066 layer_factory.hpp:77] Creating layer inception_4e/relu_5x5
I0707 12:21:51.718834  5066 net.cpp:91] Creating Layer inception_4e/relu_5x5
I0707 12:21:51.718842  5066 net.cpp:425] inception_4e/relu_5x5 <- inception_4e/5x5
I0707 12:21:51.718852  5066 net.cpp:386] inception_4e/relu_5x5 -> inception_4e/5x5 (in-place)
I0707 12:21:51.719888  5062 net.cpp:141] Setting up inception_5b/3x3_reduce
I0707 12:21:51.719913  5062 net.cpp:148] Top shape: 10 192 7 7 (94080)
I0707 12:21:51.719918  5062 net.cpp:156] Memory required for data: 544660480
I0707 12:21:51.719930  5062 layer_factory.hpp:77] Creating layer inception_5b/relu_3x3_reduce
I0707 12:21:51.719940  5062 net.cpp:91] Creating Layer inception_5b/relu_3x3_reduce
I0707 12:21:51.719946  5062 net.cpp:425] inception_5b/relu_3x3_reduce <- inception_5b/3x3_reduce
I0707 12:21:51.719956  5062 net.cpp:386] inception_5b/relu_3x3_reduce -> inception_5b/3x3_reduce (in-place)
I0707 12:21:51.720252  5066 net.cpp:141] Setting up inception_4e/relu_5x5
I0707 12:21:51.720268  5066 net.cpp:148] Top shape: 10 128 14 14 (250880)
I0707 12:21:51.720273  5066 net.cpp:156] Memory required for data: 508157440
I0707 12:21:51.720279  5066 layer_factory.hpp:77] Creating layer inception_4e/pool
I0707 12:21:51.720294  5066 net.cpp:91] Creating Layer inception_4e/pool
I0707 12:21:51.720301  5066 net.cpp:425] inception_4e/pool <- inception_4d/output_inception_4d/output_0_split_3
I0707 12:21:51.720310  5066 net.cpp:399] inception_4e/pool -> inception_4e/pool
I0707 12:21:51.720474  5066 net.cpp:141] Setting up inception_4e/pool
I0707 12:21:51.720486  5066 net.cpp:148] Top shape: 10 528 14 14 (1034880)
I0707 12:21:51.720494  5066 net.cpp:156] Memory required for data: 512296960
I0707 12:21:51.720504  5062 net.cpp:141] Setting up inception_5b/relu_3x3_reduce
I0707 12:21:51.720504  5066 layer_factory.hpp:77] Creating layer inception_4e/pool_proj
I0707 12:21:51.720520  5062 net.cpp:148] Top shape: 10 192 7 7 (94080)
I0707 12:21:51.720525  5062 net.cpp:156] Memory required for data: 545036800
I0707 12:21:51.720528  5062 layer_factory.hpp:77] Creating layer inception_5b/3x3
I0707 12:21:51.720538  5066 net.cpp:91] Creating Layer inception_4e/pool_proj
I0707 12:21:51.720547  5066 net.cpp:425] inception_4e/pool_proj <- inception_4e/pool
I0707 12:21:51.720546  5062 net.cpp:91] Creating Layer inception_5b/3x3
I0707 12:21:51.720564  5062 net.cpp:425] inception_5b/3x3 <- inception_5b/3x3_reduce
I0707 12:21:51.720564  5066 net.cpp:399] inception_4e/pool_proj -> inception_4e/pool_proj
I0707 12:21:51.720577  5062 net.cpp:399] inception_5b/3x3 -> inception_5b/3x3
I0707 12:21:51.725905  5066 net.cpp:141] Setting up inception_4e/pool_proj
I0707 12:21:51.725930  5066 net.cpp:148] Top shape: 10 128 14 14 (250880)
I0707 12:21:51.725935  5066 net.cpp:156] Memory required for data: 513300480
I0707 12:21:51.725946  5066 layer_factory.hpp:77] Creating layer inception_4e/relu_pool_proj
I0707 12:21:51.725960  5066 net.cpp:91] Creating Layer inception_4e/relu_pool_proj
I0707 12:21:51.725967  5066 net.cpp:425] inception_4e/relu_pool_proj <- inception_4e/pool_proj
I0707 12:21:51.725975  5066 net.cpp:386] inception_4e/relu_pool_proj -> inception_4e/pool_proj (in-place)
I0707 12:21:51.726286  5066 net.cpp:141] Setting up inception_4e/relu_pool_proj
I0707 12:21:51.726300  5066 net.cpp:148] Top shape: 10 128 14 14 (250880)
I0707 12:21:51.726305  5066 net.cpp:156] Memory required for data: 514304000
I0707 12:21:51.726310  5066 layer_factory.hpp:77] Creating layer inception_4e/output
I0707 12:21:51.726320  5066 net.cpp:91] Creating Layer inception_4e/output
I0707 12:21:51.726325  5066 net.cpp:425] inception_4e/output <- inception_4e/1x1
I0707 12:21:51.726332  5066 net.cpp:425] inception_4e/output <- inception_4e/3x3
I0707 12:21:51.726338  5066 net.cpp:425] inception_4e/output <- inception_4e/5x5
I0707 12:21:51.726344  5066 net.cpp:425] inception_4e/output <- inception_4e/pool_proj
I0707 12:21:51.726356  5066 net.cpp:399] inception_4e/output -> inception_4e/output
I0707 12:21:51.726433  5066 net.cpp:141] Setting up inception_4e/output
I0707 12:21:51.726446  5066 net.cpp:148] Top shape: 10 832 14 14 (1630720)
I0707 12:21:51.726451  5066 net.cpp:156] Memory required for data: 520826880
I0707 12:21:51.726456  5066 layer_factory.hpp:77] Creating layer pool4/3x3_s2
I0707 12:21:51.726465  5066 net.cpp:91] Creating Layer pool4/3x3_s2
I0707 12:21:51.726470  5066 net.cpp:425] pool4/3x3_s2 <- inception_4e/output
I0707 12:21:51.726478  5066 net.cpp:399] pool4/3x3_s2 -> pool4/3x3_s2
I0707 12:21:51.726583  5066 net.cpp:141] Setting up pool4/3x3_s2
I0707 12:21:51.726593  5066 net.cpp:148] Top shape: 10 832 7 7 (407680)
I0707 12:21:51.726598  5066 net.cpp:156] Memory required for data: 522457600
I0707 12:21:51.726603  5066 layer_factory.hpp:77] Creating layer pool4/3x3_s2_pool4/3x3_s2_0_split
I0707 12:21:51.726613  5066 net.cpp:91] Creating Layer pool4/3x3_s2_pool4/3x3_s2_0_split
I0707 12:21:51.726618  5066 net.cpp:425] pool4/3x3_s2_pool4/3x3_s2_0_split <- pool4/3x3_s2
I0707 12:21:51.726629  5066 net.cpp:399] pool4/3x3_s2_pool4/3x3_s2_0_split -> pool4/3x3_s2_pool4/3x3_s2_0_split_0
I0707 12:21:51.726639  5066 net.cpp:399] pool4/3x3_s2_pool4/3x3_s2_0_split -> pool4/3x3_s2_pool4/3x3_s2_0_split_1
I0707 12:21:51.726647  5066 net.cpp:399] pool4/3x3_s2_pool4/3x3_s2_0_split -> pool4/3x3_s2_pool4/3x3_s2_0_split_2
I0707 12:21:51.726656  5066 net.cpp:399] pool4/3x3_s2_pool4/3x3_s2_0_split -> pool4/3x3_s2_pool4/3x3_s2_0_split_3
I0707 12:21:51.726840  5066 net.cpp:141] Setting up pool4/3x3_s2_pool4/3x3_s2_0_split
I0707 12:21:51.726851  5066 net.cpp:148] Top shape: 10 832 7 7 (407680)
I0707 12:21:51.726858  5066 net.cpp:148] Top shape: 10 832 7 7 (407680)
I0707 12:21:51.726863  5066 net.cpp:148] Top shape: 10 832 7 7 (407680)
I0707 12:21:51.726869  5066 net.cpp:148] Top shape: 10 832 7 7 (407680)
I0707 12:21:51.726873  5066 net.cpp:156] Memory required for data: 528980480
I0707 12:21:51.726878  5066 layer_factory.hpp:77] Creating layer inception_5a/1x1
I0707 12:21:51.726894  5066 net.cpp:91] Creating Layer inception_5a/1x1
I0707 12:21:51.726900  5066 net.cpp:425] inception_5a/1x1 <- pool4/3x3_s2_pool4/3x3_s2_0_split_0
I0707 12:21:51.726910  5066 net.cpp:399] inception_5a/1x1 -> inception_5a/1x1
I0707 12:21:51.732684  5062 net.cpp:141] Setting up inception_5b/3x3
I0707 12:21:51.732722  5062 net.cpp:148] Top shape: 10 384 7 7 (188160)
I0707 12:21:51.732728  5062 net.cpp:156] Memory required for data: 545789440
I0707 12:21:51.732740  5062 layer_factory.hpp:77] Creating layer inception_5b/relu_3x3
I0707 12:21:51.732753  5062 net.cpp:91] Creating Layer inception_5b/relu_3x3
I0707 12:21:51.732761  5062 net.cpp:425] inception_5b/relu_3x3 <- inception_5b/3x3
I0707 12:21:51.732782  5062 net.cpp:386] inception_5b/relu_3x3 -> inception_5b/3x3 (in-place)
I0707 12:21:51.734827  5062 net.cpp:141] Setting up inception_5b/relu_3x3
I0707 12:21:51.734843  5062 net.cpp:148] Top shape: 10 384 7 7 (188160)
I0707 12:21:51.734848  5062 net.cpp:156] Memory required for data: 546542080
I0707 12:21:51.734853  5062 layer_factory.hpp:77] Creating layer inception_5b/5x5_reduce
I0707 12:21:51.734877  5062 net.cpp:91] Creating Layer inception_5b/5x5_reduce
I0707 12:21:51.734884  5062 net.cpp:425] inception_5b/5x5_reduce <- inception_5a/output_inception_5a/output_0_split_2
I0707 12:21:51.734894  5062 net.cpp:399] inception_5b/5x5_reduce -> inception_5b/5x5_reduce
I0707 12:21:51.735805  5066 net.cpp:141] Setting up inception_5a/1x1
I0707 12:21:51.735833  5066 net.cpp:148] Top shape: 10 256 7 7 (125440)
I0707 12:21:51.735839  5066 net.cpp:156] Memory required for data: 529482240
I0707 12:21:51.735851  5066 layer_factory.hpp:77] Creating layer inception_5a/relu_1x1
I0707 12:21:51.735860  5066 net.cpp:91] Creating Layer inception_5a/relu_1x1
I0707 12:21:51.735867  5066 net.cpp:425] inception_5a/relu_1x1 <- inception_5a/1x1
I0707 12:21:51.735875  5066 net.cpp:386] inception_5a/relu_1x1 -> inception_5a/1x1 (in-place)
I0707 12:21:51.737555  5066 net.cpp:141] Setting up inception_5a/relu_1x1
I0707 12:21:51.737571  5066 net.cpp:148] Top shape: 10 256 7 7 (125440)
I0707 12:21:51.737576  5066 net.cpp:156] Memory required for data: 529984000
I0707 12:21:51.737582  5066 layer_factory.hpp:77] Creating layer inception_5a/3x3_reduce
I0707 12:21:51.737599  5066 net.cpp:91] Creating Layer inception_5a/3x3_reduce
I0707 12:21:51.737607  5066 net.cpp:425] inception_5a/3x3_reduce <- pool4/3x3_s2_pool4/3x3_s2_0_split_1
I0707 12:21:51.737620  5066 net.cpp:399] inception_5a/3x3_reduce -> inception_5a/3x3_reduce
I0707 12:21:51.740439  5062 net.cpp:141] Setting up inception_5b/5x5_reduce
I0707 12:21:51.740466  5062 net.cpp:148] Top shape: 10 48 7 7 (23520)
I0707 12:21:51.740475  5062 net.cpp:156] Memory required for data: 546636160
I0707 12:21:51.740492  5062 layer_factory.hpp:77] Creating layer inception_5b/relu_5x5_reduce
I0707 12:21:51.740512  5062 net.cpp:91] Creating Layer inception_5b/relu_5x5_reduce
I0707 12:21:51.740523  5062 net.cpp:425] inception_5b/relu_5x5_reduce <- inception_5b/5x5_reduce
I0707 12:21:51.740536  5062 net.cpp:386] inception_5b/relu_5x5_reduce -> inception_5b/5x5_reduce (in-place)
I0707 12:21:51.740983  5062 net.cpp:141] Setting up inception_5b/relu_5x5_reduce
I0707 12:21:51.741003  5062 net.cpp:148] Top shape: 10 48 7 7 (23520)
I0707 12:21:51.741011  5062 net.cpp:156] Memory required for data: 546730240
I0707 12:21:51.741021  5062 layer_factory.hpp:77] Creating layer inception_5b/5x5
I0707 12:21:51.741051  5062 net.cpp:91] Creating Layer inception_5b/5x5
I0707 12:21:51.741065  5062 net.cpp:425] inception_5b/5x5 <- inception_5b/5x5_reduce
I0707 12:21:51.741083  5062 net.cpp:399] inception_5b/5x5 -> inception_5b/5x5
I0707 12:21:51.749399  5066 net.cpp:141] Setting up inception_5a/3x3_reduce
I0707 12:21:51.749428  5066 net.cpp:148] Top shape: 10 160 7 7 (78400)
I0707 12:21:51.749433  5066 net.cpp:156] Memory required for data: 530297600
I0707 12:21:51.749445  5066 layer_factory.hpp:77] Creating layer inception_5a/relu_3x3_reduce
I0707 12:21:51.749460  5066 net.cpp:91] Creating Layer inception_5a/relu_3x3_reduce
I0707 12:21:51.749469  5066 net.cpp:425] inception_5a/relu_3x3_reduce <- inception_5a/3x3_reduce
I0707 12:21:51.749476  5066 net.cpp:386] inception_5a/relu_3x3_reduce -> inception_5a/3x3_reduce (in-place)
I0707 12:21:51.749785  5062 net.cpp:141] Setting up inception_5b/5x5
I0707 12:21:51.749819  5062 net.cpp:148] Top shape: 10 128 7 7 (62720)
I0707 12:21:51.749825  5062 net.cpp:156] Memory required for data: 546981120
I0707 12:21:51.749837  5062 layer_factory.hpp:77] Creating layer inception_5b/relu_5x5
I0707 12:21:51.749850  5062 net.cpp:91] Creating Layer inception_5b/relu_5x5
I0707 12:21:51.749858  5062 net.cpp:425] inception_5b/relu_5x5 <- inception_5b/5x5
I0707 12:21:51.749871  5062 net.cpp:386] inception_5b/relu_5x5 -> inception_5b/5x5 (in-place)
I0707 12:21:51.751066  5062 net.cpp:141] Setting up inception_5b/relu_5x5
I0707 12:21:51.751070  5066 net.cpp:141] Setting up inception_5a/relu_3x3_reduce
I0707 12:21:51.751086  5062 net.cpp:148] Top shape: 10 128 7 7 (62720)
I0707 12:21:51.751091  5062 net.cpp:156] Memory required for data: 547232000
I0707 12:21:51.751094  5066 net.cpp:148] Top shape: 10 160 7 7 (78400)
I0707 12:21:51.751096  5062 layer_factory.hpp:77] Creating layer inception_5b/pool
I0707 12:21:51.751101  5066 net.cpp:156] Memory required for data: 530611200
I0707 12:21:51.751107  5066 layer_factory.hpp:77] Creating layer inception_5a/3x3
I0707 12:21:51.751108  5062 net.cpp:91] Creating Layer inception_5b/pool
I0707 12:21:51.751123  5062 net.cpp:425] inception_5b/pool <- inception_5a/output_inception_5a/output_0_split_3
I0707 12:21:51.751133  5062 net.cpp:399] inception_5b/pool -> inception_5b/pool
I0707 12:21:51.751133  5066 net.cpp:91] Creating Layer inception_5a/3x3
I0707 12:21:51.751142  5066 net.cpp:425] inception_5a/3x3 <- inception_5a/3x3_reduce
I0707 12:21:51.751152  5066 net.cpp:399] inception_5a/3x3 -> inception_5a/3x3
I0707 12:21:51.751250  5062 net.cpp:141] Setting up inception_5b/pool
I0707 12:21:51.751260  5062 net.cpp:148] Top shape: 10 832 7 7 (407680)
I0707 12:21:51.751266  5062 net.cpp:156] Memory required for data: 548862720
I0707 12:21:51.751269  5062 layer_factory.hpp:77] Creating layer inception_5b/pool_proj
I0707 12:21:51.751287  5062 net.cpp:91] Creating Layer inception_5b/pool_proj
I0707 12:21:51.751296  5062 net.cpp:425] inception_5b/pool_proj <- inception_5b/pool
I0707 12:21:51.751304  5062 net.cpp:399] inception_5b/pool_proj -> inception_5b/pool_proj
I0707 12:21:51.756330  5062 net.cpp:141] Setting up inception_5b/pool_proj
I0707 12:21:51.756361  5062 net.cpp:148] Top shape: 10 128 7 7 (62720)
I0707 12:21:51.756367  5062 net.cpp:156] Memory required for data: 549113600
I0707 12:21:51.756378  5062 layer_factory.hpp:77] Creating layer inception_5b/relu_pool_proj
I0707 12:21:51.756391  5062 net.cpp:91] Creating Layer inception_5b/relu_pool_proj
I0707 12:21:51.756397  5062 net.cpp:425] inception_5b/relu_pool_proj <- inception_5b/pool_proj
I0707 12:21:51.756407  5062 net.cpp:386] inception_5b/relu_pool_proj -> inception_5b/pool_proj (in-place)
I0707 12:21:51.756688  5062 net.cpp:141] Setting up inception_5b/relu_pool_proj
I0707 12:21:51.756700  5062 net.cpp:148] Top shape: 10 128 7 7 (62720)
I0707 12:21:51.756703  5062 net.cpp:156] Memory required for data: 549364480
I0707 12:21:51.756708  5062 layer_factory.hpp:77] Creating layer inception_5b/output
I0707 12:21:51.756719  5062 net.cpp:91] Creating Layer inception_5b/output
I0707 12:21:51.756726  5062 net.cpp:425] inception_5b/output <- inception_5b/1x1
I0707 12:21:51.756731  5062 net.cpp:425] inception_5b/output <- inception_5b/3x3
I0707 12:21:51.756737  5062 net.cpp:425] inception_5b/output <- inception_5b/5x5
I0707 12:21:51.756742  5062 net.cpp:425] inception_5b/output <- inception_5b/pool_proj
I0707 12:21:51.756748  5062 net.cpp:399] inception_5b/output -> inception_5b/output
I0707 12:21:51.756819  5062 net.cpp:141] Setting up inception_5b/output
I0707 12:21:51.756829  5062 net.cpp:148] Top shape: 10 1024 7 7 (501760)
I0707 12:21:51.756832  5062 net.cpp:156] Memory required for data: 551371520
I0707 12:21:51.756836  5062 layer_factory.hpp:77] Creating layer pool5/7x7_s1
I0707 12:21:51.756845  5062 net.cpp:91] Creating Layer pool5/7x7_s1
I0707 12:21:51.756850  5062 net.cpp:425] pool5/7x7_s1 <- inception_5b/output
I0707 12:21:51.756861  5062 net.cpp:399] pool5/7x7_s1 -> pool5/7x7_s1
I0707 12:21:51.758911  5062 net.cpp:141] Setting up pool5/7x7_s1
I0707 12:21:51.758930  5062 net.cpp:148] Top shape: 10 1024 1 1 (10240)
I0707 12:21:51.758935  5062 net.cpp:156] Memory required for data: 551412480
I0707 12:21:51.758940  5062 layer_factory.hpp:77] Creating layer pool5/drop_7x7_s1
I0707 12:21:51.758952  5062 net.cpp:91] Creating Layer pool5/drop_7x7_s1
I0707 12:21:51.758958  5062 net.cpp:425] pool5/drop_7x7_s1 <- pool5/7x7_s1
I0707 12:21:51.758965  5062 net.cpp:386] pool5/drop_7x7_s1 -> pool5/7x7_s1 (in-place)
I0707 12:21:51.759075  5062 net.cpp:141] Setting up pool5/drop_7x7_s1
I0707 12:21:51.759086  5062 net.cpp:148] Top shape: 10 1024 1 1 (10240)
I0707 12:21:51.759090  5062 net.cpp:156] Memory required for data: 551453440
I0707 12:21:51.759095  5062 layer_factory.hpp:77] Creating layer loss3/classifier
I0707 12:21:51.759114  5062 net.cpp:91] Creating Layer loss3/classifier
I0707 12:21:51.759119  5062 net.cpp:425] loss3/classifier <- pool5/7x7_s1
I0707 12:21:51.759126  5062 net.cpp:399] loss3/classifier -> loss3/classifier
I0707 12:21:51.763977  5066 net.cpp:141] Setting up inception_5a/3x3
I0707 12:21:51.764000  5066 net.cpp:148] Top shape: 10 320 7 7 (156800)
I0707 12:21:51.764006  5066 net.cpp:156] Memory required for data: 531238400
I0707 12:21:51.764017  5066 layer_factory.hpp:77] Creating layer inception_5a/relu_3x3
I0707 12:21:51.764031  5066 net.cpp:91] Creating Layer inception_5a/relu_3x3
I0707 12:21:51.764039  5066 net.cpp:425] inception_5a/relu_3x3 <- inception_5a/3x3
I0707 12:21:51.764047  5066 net.cpp:386] inception_5a/relu_3x3 -> inception_5a/3x3 (in-place)
I0707 12:21:51.764384  5066 net.cpp:141] Setting up inception_5a/relu_3x3
I0707 12:21:51.764397  5066 net.cpp:148] Top shape: 10 320 7 7 (156800)
I0707 12:21:51.764402  5066 net.cpp:156] Memory required for data: 531865600
I0707 12:21:51.764408  5066 layer_factory.hpp:77] Creating layer inception_5a/5x5_reduce
I0707 12:21:51.764425  5066 net.cpp:91] Creating Layer inception_5a/5x5_reduce
I0707 12:21:51.764432  5066 net.cpp:425] inception_5a/5x5_reduce <- pool4/3x3_s2_pool4/3x3_s2_0_split_2
I0707 12:21:51.764446  5066 net.cpp:399] inception_5a/5x5_reduce -> inception_5a/5x5_reduce
I0707 12:21:51.767565  5066 net.cpp:141] Setting up inception_5a/5x5_reduce
I0707 12:21:51.767588  5066 net.cpp:148] Top shape: 10 32 7 7 (15680)
I0707 12:21:51.767595  5066 net.cpp:156] Memory required for data: 531928320
I0707 12:21:51.767606  5066 layer_factory.hpp:77] Creating layer inception_5a/relu_5x5_reduce
I0707 12:21:51.767614  5066 net.cpp:91] Creating Layer inception_5a/relu_5x5_reduce
I0707 12:21:51.767621  5066 net.cpp:425] inception_5a/relu_5x5_reduce <- inception_5a/5x5_reduce
I0707 12:21:51.767632  5066 net.cpp:386] inception_5a/relu_5x5_reduce -> inception_5a/5x5_reduce (in-place)
I0707 12:21:51.768504  5066 net.cpp:141] Setting up inception_5a/relu_5x5_reduce
I0707 12:21:51.768522  5066 net.cpp:148] Top shape: 10 32 7 7 (15680)
I0707 12:21:51.768527  5066 net.cpp:156] Memory required for data: 531991040
I0707 12:21:51.768532  5066 layer_factory.hpp:77] Creating layer inception_5a/5x5
I0707 12:21:51.768548  5066 net.cpp:91] Creating Layer inception_5a/5x5
I0707 12:21:51.768555  5066 net.cpp:425] inception_5a/5x5 <- inception_5a/5x5_reduce
I0707 12:21:51.768573  5066 net.cpp:399] inception_5a/5x5 -> inception_5a/5x5
I0707 12:21:51.769911  5062 net.cpp:141] Setting up loss3/classifier
I0707 12:21:51.769947  5062 net.cpp:148] Top shape: 10 1000 (10000)
I0707 12:21:51.769951  5062 net.cpp:156] Memory required for data: 551493440
I0707 12:21:51.769964  5062 layer_factory.hpp:77] Creating layer prob
I0707 12:21:51.769981  5062 net.cpp:91] Creating Layer prob
I0707 12:21:51.769989  5062 net.cpp:425] prob <- loss3/classifier
I0707 12:21:51.770000  5062 net.cpp:399] prob -> prob
I0707 12:21:51.773377  5062 net.cpp:141] Setting up prob
I0707 12:21:51.773401  5062 net.cpp:148] Top shape: 10 1000 (10000)
I0707 12:21:51.773407  5062 net.cpp:156] Memory required for data: 551533440
I0707 12:21:51.773413  5062 net.cpp:219] prob does not need backward computation.
I0707 12:21:51.773419  5062 net.cpp:219] loss3/classifier does not need backward computation.
I0707 12:21:51.773423  5062 net.cpp:219] pool5/drop_7x7_s1 does not need backward computation.
I0707 12:21:51.773428  5062 net.cpp:219] pool5/7x7_s1 does not need backward computation.
…
I0707 12:21:51.774124  5062 net.cpp:219] pool1/3x3_s2 does not need backward computation.
I0707 12:21:51.774128  5062 net.cpp:219] conv1/relu_7x7 does not need backward computation.
I0707 12:21:51.774132  5062 net.cpp:219] conv1/7x7_s2 does not need backward computation.
I0707 12:21:51.774137  5062 net.cpp:219] data does not need backward computation.
I0707 12:21:51.774140  5062 net.cpp:261] This network produces output prob
I0707 12:21:51.774271  5062 net.cpp:274] Network initialization done.
I0707 12:21:51.774747  5066 net.cpp:141] Setting up inception_5a/relu_5x5
I0707 12:21:51.774762  5066 net.cpp:148] Top shape: 10 128 7 7 (62720)
I0707 12:21:51.774768  5066 net.cpp:156] Memory required for data: 532492800
I0707 12:21:51.774775  5066 layer_factory.hpp:77] Creating layer inception_5a/pool
I0707 12:21:51.774788  5066 net.cpp:91] Creating Layer inception_5a/pool
I0707 12:21:51.774796  5066 net.cpp:425] inception_5a/pool <- pool4/3x3_s2_pool4/3x3_s2_0_split_3
I0707 12:21:51.774804  5066 net.cpp:399] inception_5a/pool -> inception_5a/pool
I0707 12:21:51.774940  5066 net.cpp:141] Setting up inception_5a/pool
I0707 12:21:51.774952  5066 net.cpp:148] Top shape: 10 832 7 7 (407680)
I0707 12:21:51.774957  5066 net.cpp:156] Memory required for data: 534123520
I0707 12:21:51.774962  5066 layer_factory.hpp:77] Creating layer inception_5a/pool_proj
I0707 12:21:51.774978  5066 net.cpp:91] Creating Layer inception_5a/pool_proj
I0707 12:21:51.774986  5066 net.cpp:425] inception_5a/pool_proj <- inception_5a/pool
I0707 12:21:51.775009  5066 net.cpp:399] inception_5a/pool_proj -> inception_5a/pool_proj
I0707 12:21:51.779480  5066 net.cpp:141] Setting up inception_5a/pool_proj
I0707 12:21:51.779497  5066 net.cpp:148] Top shape: 10 128 7 7 (62720)
I0707 12:21:51.779503  5066 net.cpp:156] Memory required for data: 534374400
I0707 12:21:51.779513  5066 layer_factory.hpp:77] Creating layer inception_5a/relu_pool_proj
I0707 12:21:51.779525  5066 net.cpp:91] Creating Layer inception_5a/relu_pool_proj
I0707 12:21:51.779532  5066 net.cpp:425] inception_5a/relu_pool_proj <- inception_5a/pool_proj
I0707 12:21:51.779541  5066 net.cpp:386] inception_5a/relu_pool_proj -> inception_5a/pool_proj (in-place)
I0707 12:21:51.780622  5066 net.cpp:141] Setting up inception_5a/relu_pool_proj
I0707 12:21:51.780644  5066 net.cpp:148] Top shape: 10 128 7 7 (62720)
I0707 12:21:51.780650  5066 net.cpp:156] Memory required for data: 534625280
I0707 12:21:51.780656  5066 layer_factory.hpp:77] Creating layer inception_5a/output
I0707 12:21:51.780666  5066 net.cpp:91] Creating Layer inception_5a/output
I0707 12:21:51.780673  5066 net.cpp:425] inception_5a/output <- inception_5a/1x1
I0707 12:21:51.780679  5066 net.cpp:425] inception_5a/output <- inception_5a/3x3
I0707 12:21:51.780685  5066 net.cpp:425] inception_5a/output <- inception_5a/5x5
I0707 12:21:51.780692  5066 net.cpp:425] inception_5a/output <- inception_5a/pool_proj
I0707 12:21:51.780699  5066 net.cpp:399] inception_5a/output -> inception_5a/output
I0707 12:21:51.780776  5066 net.cpp:141] Setting up inception_5a/output
I0707 12:21:51.780786  5066 net.cpp:148] Top shape: 10 832 7 7 (407680)
I0707 12:21:51.780791  5066 net.cpp:156] Memory required for data: 536256000
I0707 12:21:51.780797  5066 layer_factory.hpp:77] Creating layer inception_5a/output_inception_5a/output_0_split
I0707 12:21:51.780807  5066 net.cpp:91] Creating Layer inception_5a/output_inception_5a/output_0_split
I0707 12:21:51.780814  5066 net.cpp:425] inception_5a/output_inception_5a/output_0_split <- inception_5a/output
I0707 12:21:51.780822  5066 net.cpp:399] inception_5a/output_inception_5a/output_0_split -> inception_5a/output_inception_5a/output_0_split_0
I0707 12:21:51.780833  5066 net.cpp:399] inception_5a/output_inception_5a/output_0_split -> inception_5a/output_inception_5a/output_0_split_1
I0707 12:21:51.780843  5066 net.cpp:399] inception_5a/output_inception_5a/output_0_split -> inception_5a/output_inception_5a/output_0_split_2
I0707 12:21:51.780851  5066 net.cpp:399] inception_5a/output_inception_5a/output_0_split -> inception_5a/output_inception_5a/output_0_split_3
I0707 12:21:51.781496  5066 net.cpp:141] Setting up inception_5a/output_inception_5a/output_0_split
I0707 12:21:51.781508  5066 net.cpp:148] Top shape: 10 832 7 7 (407680)
I0707 12:21:51.781514  5066 net.cpp:148] Top shape: 10 832 7 7 (407680)
I0707 12:21:51.781520  5066 net.cpp:148] Top shape: 10 832 7 7 (407680)
I0707 12:21:51.781525  5066 net.cpp:148] Top shape: 10 832 7 7 (407680)
I0707 12:21:51.781530  5066 net.cpp:156] Memory required for data: 542778880
I0707 12:21:51.781535  5066 layer_factory.hpp:77] Creating layer inception_5b/1x1
I0707 12:21:51.781551  5066 net.cpp:91] Creating Layer inception_5b/1x1
I0707 12:21:51.781558  5066 net.cpp:425] inception_5b/1x1 <- inception_5a/output_inception_5a/output_0_split_0
I0707 12:21:51.781570  5066 net.cpp:399] inception_5b/1x1 -> inception_5b/1x1
I0707 12:21:51.789841  5066 net.cpp:141] Setting up inception_5b/1x1
I0707 12:21:51.789865  5066 net.cpp:148] Top shape: 10 384 7 7 (188160)
I0707 12:21:51.789871  5066 net.cpp:156] Memory required for data: 543531520
I0707 12:21:51.789882  5066 layer_factory.hpp:77] Creating layer inception_5b/relu_1x1
I0707 12:21:51.789892  5066 net.cpp:91] Creating Layer inception_5b/relu_1x1
I0707 12:21:51.789898  5066 net.cpp:425] inception_5b/relu_1x1 <- inception_5b/1x1
I0707 12:21:51.789911  5066 net.cpp:386] inception_5b/relu_1x1 -> inception_5b/1x1 (in-place)
I0707 12:21:51.790235  5066 net.cpp:141] Setting up inception_5b/relu_1x1
I0707 12:21:51.790248  5066 net.cpp:148] Top shape: 10 384 7 7 (188160)
I0707 12:21:51.790253  5066 net.cpp:156] Memory required for data: 544284160
I0707 12:21:51.790258  5066 layer_factory.hpp:77] Creating layer inception_5b/3x3_reduce
I0707 12:21:51.790276  5066 net.cpp:91] Creating Layer inception_5b/3x3_reduce
I0707 12:21:51.790282  5066 net.cpp:425] inception_5b/3x3_reduce <- inception_5a/output_inception_5a/output_0_split_1
I0707 12:21:51.790292  5066 net.cpp:399] inception_5b/3x3_reduce -> inception_5b/3x3_reduce
I0707 12:21:51.796037  5066 net.cpp:141] Setting up inception_5b/3x3_reduce
I0707 12:21:51.796057  5066 net.cpp:148] Top shape: 10 192 7 7 (94080)
I0707 12:21:51.796063  5066 net.cpp:156] Memory required for data: 544660480
I0707 12:21:51.796073  5066 layer_factory.hpp:77] Creating layer inception_5b/relu_3x3_reduce
I0707 12:21:51.796083  5066 net.cpp:91] Creating Layer inception_5b/relu_3x3_reduce
I0707 12:21:51.796089  5066 net.cpp:425] inception_5b/relu_3x3_reduce <- inception_5b/3x3_reduce
I0707 12:21:51.796104  5066 net.cpp:386] inception_5b/relu_3x3_reduce -> inception_5b/3x3_reduce (in-place)
I0707 12:21:51.797001  5066 net.cpp:141] Setting up inception_5b/relu_3x3_reduce
I0707 12:21:51.797019  5066 net.cpp:148] Top shape: 10 192 7 7 (94080)
I0707 12:21:51.797024  5066 net.cpp:156] Memory required for data: 545036800
I0707 12:21:51.797029  5066 layer_factory.hpp:77] Creating layer inception_5b/3x3
I0707 12:21:51.797047  5066 net.cpp:91] Creating Layer inception_5b/3x3
I0707 12:21:51.797056  5066 net.cpp:425] inception_5b/3x3 <- inception_5b/3x3_reduce
I0707 12:21:51.797066  5066 net.cpp:399] inception_5b/3x3 -> inception_5b/3x3
I0707 12:21:51.807169  5066 net.cpp:141] Setting up inception_5b/3x3
I0707 12:21:51.807190  5066 net.cpp:148] Top shape: 10 384 7 7 (188160)
I0707 12:21:51.807196  5066 net.cpp:156] Memory required for data: 545789440
I0707 12:21:51.807207  5066 layer_factory.hpp:77] Creating layer inception_5b/relu_3x3
I0707 12:21:51.807224  5066 net.cpp:91] Creating Layer inception_5b/relu_3x3
I0707 12:21:51.807231  5066 net.cpp:425] inception_5b/relu_3x3 <- inception_5b/3x3
I0707 12:21:51.807245  5066 net.cpp:386] inception_5b/relu_3x3 -> inception_5b/3x3 (in-place)
I0707 12:21:51.808133  5066 net.cpp:141] Setting up inception_5b/relu_3x3
I0707 12:21:51.808151  5066 net.cpp:148] Top shape: 10 384 7 7 (188160)
I0707 12:21:51.808156  5066 net.cpp:156] Memory required for data: 546542080
I0707 12:21:51.808161  5066 layer_factory.hpp:77] Creating layer inception_5b/5x5_reduce
I0707 12:21:51.808178  5066 net.cpp:91] Creating Layer inception_5b/5x5_reduce
I0707 12:21:51.808185  5066 net.cpp:425] inception_5b/5x5_reduce <- inception_5a/output_inception_5a/output_0_split_2
I0707 12:21:51.808195  5066 net.cpp:399] inception_5b/5x5_reduce -> inception_5b/5x5_reduce
I0707 12:21:51.812361  5066 net.cpp:141] Setting up inception_5b/5x5_reduce
I0707 12:21:51.812381  5066 net.cpp:148] Top shape: 10 48 7 7 (23520)
I0707 12:21:51.812387  5066 net.cpp:156] Memory required for data: 546636160
I0707 12:21:51.812398  5066 layer_factory.hpp:77] Creating layer inception_5b/relu_5x5_reduce
I0707 12:21:51.812412  5066 net.cpp:91] Creating Layer inception_5b/relu_5x5_reduce
I0707 12:21:51.812419  5066 net.cpp:425] inception_5b/relu_5x5_reduce <- inception_5b/5x5_reduce
I0707 12:21:51.812430  5066 net.cpp:386] inception_5b/relu_5x5_reduce -> inception_5b/5x5_reduce (in-place)
I0707 12:21:51.812749  5066 net.cpp:141] Setting up inception_5b/relu_5x5_reduce
I0707 12:21:51.812762  5066 net.cpp:148] Top shape: 10 48 7 7 (23520)
I0707 12:21:51.812767  5066 net.cpp:156] Memory required for data: 546730240
I0707 12:21:51.812772  5066 layer_factory.hpp:77] Creating layer inception_5b/5x5
I0707 12:21:51.812794  5066 net.cpp:91] Creating Layer inception_5b/5x5
I0707 12:21:51.812801  5066 net.cpp:425] inception_5b/5x5 <- inception_5b/5x5_reduce
I0707 12:21:51.812813  5066 net.cpp:399] inception_5b/5x5 -> inception_5b/5x5
I0707 12:21:51.816699  5066 net.cpp:141] Setting up inception_5b/5x5
I0707 12:21:51.816720  5066 net.cpp:148] Top shape: 10 128 7 7 (62720)
I0707 12:21:51.816725  5066 net.cpp:156] Memory required for data: 546981120
I0707 12:21:51.816735  5066 layer_factory.hpp:77] Creating layer inception_5b/relu_5x5
I0707 12:21:51.816745  5066 net.cpp:91] Creating Layer inception_5b/relu_5x5
I0707 12:21:51.816751  5066 net.cpp:425] inception_5b/relu_5x5 <- inception_5b/5x5
I0707 12:21:51.816758  5066 net.cpp:386] inception_5b/relu_5x5 -> inception_5b/5x5 (in-place)
I0707 12:21:51.817653  5066 net.cpp:141] Setting up inception_5b/relu_5x5
I0707 12:21:51.817672  5066 net.cpp:148] Top shape: 10 128 7 7 (62720)
I0707 12:21:51.817677  5066 net.cpp:156] Memory required for data: 547232000
I0707 12:21:51.817682  5066 layer_factory.hpp:77] Creating layer inception_5b/pool
I0707 12:21:51.817693  5066 net.cpp:91] Creating Layer inception_5b/pool
I0707 12:21:51.817699  5066 net.cpp:425] inception_5b/pool <- inception_5a/output_inception_5a/output_0_split_3
I0707 12:21:51.817724  5066 net.cpp:399] inception_5b/pool -> inception_5b/pool
I0707 12:21:51.817792  5066 net.cpp:141] Setting up inception_5b/pool
I0707 12:21:51.817803  5066 net.cpp:148] Top shape: 10 832 7 7 (407680)
I0707 12:21:51.817807  5066 net.cpp:156] Memory required for data: 548862720
I0707 12:21:51.817813  5066 layer_factory.hpp:77] Creating layer inception_5b/pool_proj
I0707 12:21:51.817832  5066 net.cpp:91] Creating Layer inception_5b/pool_proj
I0707 12:21:51.817839  5066 net.cpp:425] inception_5b/pool_proj <- inception_5b/pool
I0707 12:21:51.817848  5066 net.cpp:399] inception_5b/pool_proj -> inception_5b/pool_proj
I0707 12:21:51.827294  5062 upgrade_proto.cpp:52] Attempting to upgrade input file specified using deprecated V1LayerParameter: /tmp/cvld4670911419067660760/bvlc_googlenet.caffemodel
I0707 12:21:51.831311  5066 net.cpp:141] Setting up inception_5b/pool_proj
I0707 12:21:51.831393  5066 net.cpp:148] Top shape: 10 128 7 7 (62720)
I0707 12:21:51.831408  5066 net.cpp:156] Memory required for data: 549113600
I0707 12:21:51.831439  5066 layer_factory.hpp:77] Creating layer inception_5b/relu_pool_proj
I0707 12:21:51.831470  5066 net.cpp:91] Creating Layer inception_5b/relu_pool_proj
I0707 12:21:51.831488  5066 net.cpp:425] inception_5b/relu_pool_proj <- inception_5b/pool_proj
I0707 12:21:51.831507  5066 net.cpp:386] inception_5b/relu_pool_proj -> inception_5b/pool_proj (in-place)
I0707 12:21:51.835026  5066 net.cpp:141] Setting up inception_5b/relu_pool_proj
I0707 12:21:51.835057  5066 net.cpp:148] Top shape: 10 128 7 7 (62720)
I0707 12:21:51.835063  5066 net.cpp:156] Memory required for data: 549364480
I0707 12:21:51.835070  5066 layer_factory.hpp:77] Creating layer inception_5b/output
I0707 12:21:51.835083  5066 net.cpp:91] Creating Layer inception_5b/output
I0707 12:21:51.835088  5066 net.cpp:425] inception_5b/output <- inception_5b/1x1
I0707 12:21:51.835098  5066 net.cpp:425] inception_5b/output <- inception_5b/3x3
I0707 12:21:51.835103  5066 net.cpp:425] inception_5b/output <- inception_5b/5x5
I0707 12:21:51.835109  5066 net.cpp:425] inception_5b/output <- inception_5b/pool_proj
I0707 12:21:51.835117  5066 net.cpp:399] inception_5b/output -> inception_5b/output
I0707 12:21:51.835188  5066 net.cpp:141] Setting up inception_5b/output
I0707 12:21:51.835199  5066 net.cpp:148] Top shape: 10 1024 7 7 (501760)
I0707 12:21:51.835204  5066 net.cpp:156] Memory required for data: 551371520
I0707 12:21:51.835209  5066 layer_factory.hpp:77] Creating layer pool5/7x7_s1
I0707 12:21:51.835223  5066 net.cpp:91] Creating Layer pool5/7x7_s1
I0707 12:21:51.835229  5066 net.cpp:425] pool5/7x7_s1 <- inception_5b/output
I0707 12:21:51.835237  5066 net.cpp:399] pool5/7x7_s1 -> pool5/7x7_s1
I0707 12:21:51.835608  5066 net.cpp:141] Setting up pool5/7x7_s1
I0707 12:21:51.835621  5066 net.cpp:148] Top shape: 10 1024 1 1 (10240)
I0707 12:21:51.835626  5066 net.cpp:156] Memory required for data: 551412480
I0707 12:21:51.835633  5066 layer_factory.hpp:77] Creating layer pool5/drop_7x7_s1
I0707 12:21:51.835644  5066 net.cpp:91] Creating Layer pool5/drop_7x7_s1
I0707 12:21:51.835649  5066 net.cpp:425] pool5/drop_7x7_s1 <- pool5/7x7_s1
I0707 12:21:51.835659  5066 net.cpp:386] pool5/drop_7x7_s1 -> pool5/7x7_s1 (in-place)
I0707 12:21:51.835697  5066 net.cpp:141] Setting up pool5/drop_7x7_s1
I0707 12:21:51.835710  5066 net.cpp:148] Top shape: 10 1024 1 1 (10240)
I0707 12:21:51.835714  5066 net.cpp:156] Memory required for data: 551453440
I0707 12:21:51.835719  5066 layer_factory.hpp:77] Creating layer loss3/classifier
I0707 12:21:51.835733  5066 net.cpp:91] Creating Layer loss3/classifier
I0707 12:21:51.835738  5066 net.cpp:425] loss3/classifier <- pool5/7x7_s1
I0707 12:21:51.835750  5066 net.cpp:399] loss3/classifier -> loss3/classifier
I0707 12:21:51.849185  5066 net.cpp:141] Setting up loss3/classifier
I0707 12:21:51.849212  5066 net.cpp:148] Top shape: 10 1000 (10000)
I0707 12:21:51.849220  5066 net.cpp:156] Memory required for data: 551493440
I0707 12:21:51.849232  5066 layer_factory.hpp:77] Creating layer prob
I0707 12:21:51.849246  5066 net.cpp:91] Creating Layer prob
I0707 12:21:51.849251  5066 net.cpp:425] prob <- loss3/classifier
I0707 12:21:51.849262  5066 net.cpp:399] prob -> prob
I0707 12:21:51.850646  5066 net.cpp:141] Setting up prob
I0707 12:21:51.850666  5066 net.cpp:148] Top shape: 10 1000 (10000)
I0707 12:21:51.850672  5066 net.cpp:156] Memory required for data: 551533440
I0707 12:21:51.850678  5066 net.cpp:219] prob does not need backward computation.
I0707 12:21:51.850684  5066 net.cpp:219] loss3/classifier does not need backward computation.
I0707 12:21:51.850698  5066 net.cpp:219] pool5/drop_7x7_s1 does not need backward computation.
I0707 12:21:51.850703  5066 net.cpp:219] pool5/7x7_s1 does not need backward computation.
…
