…
2016-07-30 10:37:26.802 STDERR [INFO] }
2016-07-30 10:37:26.802 STDERR [INFO] I0730 10:37:26.775671  9497 layer_factory.hpp:77] Creating layer data
2016-07-30 10:37:26.802 STDERR [INFO] I0730 10:37:26.775688  9497 net.cpp:91] Creating Layer data
2016-07-30 10:37:26.802 STDERR [INFO] I0730 10:37:26.775697  9497 net.cpp:399] data -> data
2016-07-30 10:37:26.884 STDERR [INFO] I0730 10:37:26.884410  9497 net.cpp:141] Setting up data
2016-07-30 10:37:26.885 STDERR [INFO] I0730 10:37:26.884445  9485 net.cpp:141] Setting up input
2016-07-30 10:37:26.885 STDERR [INFO] I0730 10:37:26.884485  9497 net.cpp:148] Top shape: 10 3 227 227 (1545870)
2016-07-30 10:37:26.885 STDERR [INFO] I0730 10:37:26.884485  9485 net.cpp:148] Top shape: 1 4096 (4096)
2016-07-30 10:37:26.885 STDERR [INFO] I0730 10:37:26.884497  9497 net.cpp:156] Memory required for data: 6183480
2016-07-30 10:37:26.885 STDERR [INFO] I0730 10:37:26.884505  9485 net.cpp:148] Top shape: 1 1 (1)
2016-07-30 10:37:26.885 STDERR [INFO] I0730 10:37:26.884516  9485 net.cpp:148] Top shape: 1 1 (1)
2016-07-30 10:37:26.885 STDERR [INFO] I0730 10:37:26.884521  9497 layer_factory.hpp:77] Creating layer conv1
2016-07-30 10:37:26.885 STDERR [INFO] I0730 10:37:26.884522  9485 net.cpp:148] Top shape: 1 1 (1)
2016-07-30 10:37:26.885 STDERR [INFO] I0730 10:37:26.884534  9485 net.cpp:156] Memory required for data: 16396
2016-07-30 10:37:26.886 STDERR [INFO] I0730 10:37:26.884541  9485 layer_factory.hpp:77] Creating layer cont_sentence_input_1_split
2016-07-30 10:37:26.886 STDERR [INFO] I0730 10:37:26.884554  9497 net.cpp:91] Creating Layer conv1
2016-07-30 10:37:26.886 STDERR [INFO] I0730 10:37:26.884564  9497 net.cpp:425] conv1 <- data
2016-07-30 10:37:26.886 STDERR [INFO] I0730 10:37:26.884564  9485 net.cpp:91] Creating Layer cont_sentence_input_1_split
2016-07-30 10:37:26.886 STDERR [INFO] I0730 10:37:26.884573  9485 net.cpp:425] cont_sentence_input_1_split <- cont_sentence
2016-07-30 10:37:26.886 STDERR [INFO] I0730 10:37:26.884580  9497 net.cpp:399] conv1 -> conv1
2016-07-30 10:37:26.886 STDERR [INFO] I0730 10:37:26.884593  9485 net.cpp:399] cont_sentence_input_1_split -> cont_sentence_input_1_split_0
2016-07-30 10:37:26.886 STDERR [INFO] I0730 10:37:26.884606  9485 net.cpp:399] cont_sentence_input_1_split -> cont_sentence_input_1_split_1
2016-07-30 10:37:26.886 STDERR [INFO] I0730 10:37:26.884729  9485 net.cpp:141] Setting up cont_sentence_input_1_split
2016-07-30 10:37:26.886 STDERR [INFO] I0730 10:37:26.884742  9485 net.cpp:148] Top shape: 1 1 (1)
2016-07-30 10:37:26.887 STDERR [INFO] I0730 10:37:26.884749  9485 net.cpp:148] Top shape: 1 1 (1)
2016-07-30 10:37:26.887 STDERR [INFO] I0730 10:37:26.884753  9485 net.cpp:156] Memory required for data: 16404
2016-07-30 10:37:26.887 STDERR [INFO] I0730 10:37:26.884759  9485 layer_factory.hpp:77] Creating layer embed_encoder
2016-07-30 10:37:26.887 STDERR [INFO] I0730 10:37:26.884780  9485 net.cpp:91] Creating Layer embed_encoder
2016-07-30 10:37:26.887 STDERR [INFO] I0730 10:37:26.884788  9485 net.cpp:425] embed_encoder <- frames_fc7
2016-07-30 10:37:26.887 STDERR [INFO] I0730 10:37:26.884795  9485 net.cpp:399] embed_encoder -> embedded_in_frames
2016-07-30 10:37:26.909 STDERR [INFO] I0730 10:37:26.909185  9485 net.cpp:141] Setting up embed_encoder
2016-07-30 10:37:26.909 STDERR [INFO] I0730 10:37:26.909232  9485 net.cpp:148] Top shape: 1 500 (500)
2016-07-30 10:37:26.910 STDERR [INFO] I0730 10:37:26.909238  9485 net.cpp:156] Memory required for data: 18404
2016-07-30 10:37:26.910 STDERR [INFO] I0730 10:37:26.909265  9485 layer_factory.hpp:77] Creating layer reshape_frames
2016-07-30 10:37:26.910 STDERR [INFO] I0730 10:37:26.909297  9485 net.cpp:91] Creating Layer reshape_frames
2016-07-30 10:37:26.910 STDERR [INFO] I0730 10:37:26.909307  9485 net.cpp:425] reshape_frames <- embedded_in_frames
2016-07-30 10:37:26.910 STDERR [INFO] I0730 10:37:26.909317  9485 net.cpp:399] reshape_frames -> embedded_input_frames
2016-07-30 10:37:26.910 STDERR [INFO] I0730 10:37:26.909448  9485 net.cpp:141] Setting up reshape_frames
2016-07-30 10:37:26.910 STDERR [INFO] I0730 10:37:26.909461  9485 net.cpp:148] Top shape: 1 1 500 (500)
2016-07-30 10:37:26.910 STDERR [INFO] I0730 10:37:26.909466  9485 net.cpp:156] Memory required for data: 20404
2016-07-30 10:37:26.910 STDERR [INFO] I0730 10:37:26.909471  9485 layer_factory.hpp:77] Creating layer reshape_stage_indicator
2016-07-30 10:37:26.910 STDERR [INFO] I0730 10:37:26.909482  9485 net.cpp:91] Creating Layer reshape_stage_indicator
2016-07-30 10:37:26.911 STDERR [INFO] I0730 10:37:26.909487  9485 net.cpp:425] reshape_stage_indicator <- stage_indicator
2016-07-30 10:37:26.911 STDERR [INFO] I0730 10:37:26.909502  9485 net.cpp:399] reshape_stage_indicator -> reshaped_stage_indicator
2016-07-30 10:37:26.911 STDERR [INFO] I0730 10:37:26.911062  9485 net.cpp:141] Setting up reshape_stage_indicator
2016-07-30 10:37:26.911 STDERR [INFO] I0730 10:37:26.911075  9485 net.cpp:148] Top shape: 1 1 1 (1)
2016-07-30 10:37:26.912 STDERR [INFO] I0730 10:37:26.911080  9485 net.cpp:156] Memory required for data: 20408
2016-07-30 10:37:26.912 STDERR [INFO] I0730 10:37:26.911085  9485 layer_factory.hpp:77] Creating layer embedding
2016-07-30 10:37:26.912 STDERR [INFO] I0730 10:37:26.911098  9485 net.cpp:91] Creating Layer embedding
2016-07-30 10:37:26.912 STDERR [INFO] I0730 10:37:26.911103  9485 net.cpp:425] embedding <- input_sentence
2016-07-30 10:37:26.912 STDERR [INFO] I0730 10:37:26.911115  9485 net.cpp:399] embedding -> embedded_input_sentence
2016-07-30 10:37:27.158 STDERR [INFO] I0730 10:37:27.158767  9485 net.cpp:141] Setting up embedding
2016-07-30 10:37:27.159 STDERR [INFO] I0730 10:37:27.158813  9485 net.cpp:148] Top shape: 1 1 500 (500)
2016-07-30 10:37:27.159 STDERR [INFO] I0730 10:37:27.158819  9485 net.cpp:156] Memory required for data: 22408
2016-07-30 10:37:27.159 STDERR [INFO] I0730 10:37:27.158838  9485 layer_factory.hpp:77] Creating layer lstm1
2016-07-30 10:37:27.159 STDERR [INFO] I0730 10:37:27.158859  9485 net.cpp:91] Creating Layer lstm1
2016-07-30 10:37:27.159 STDERR [INFO] I0730 10:37:27.158867  9485 net.cpp:425] lstm1 <- embedded_input_frames
…
2016-07-30 10:37:27.172 STDERR [INFO] }
2016-07-30 10:37:27.172 STDERR [INFO] I0730 10:37:27.159375  9485 layer_factory.hpp:77] Creating layer lstm1_
2016-07-30 10:37:27.173 STDERR [INFO] I0730 10:37:27.159389  9485 net.cpp:91] Creating Layer lstm1_
2016-07-30 10:37:27.173 STDERR [INFO] I0730 10:37:27.159396  9485 net.cpp:399] lstm1_ -> x
2016-07-30 10:37:27.173 STDERR [INFO] I0730 10:37:27.159409  9485 net.cpp:399] lstm1_ -> cont
2016-07-30 10:37:27.173 STDERR [INFO] I0730 10:37:27.162389  9485 net.cpp:141] Setting up lstm1_
2016-07-30 10:37:27.173 STDERR [INFO] I0730 10:37:27.162410  9485 net.cpp:148] Top shape: 1 1 500 (500)
2016-07-30 10:37:27.173 STDERR [INFO] I0730 10:37:27.162416  9485 net.cpp:148] Top shape: 1 1 (1)
2016-07-30 10:37:27.173 STDERR [INFO] I0730 10:37:27.162421  9485 net.cpp:156] Memory required for data: 2004
2016-07-30 10:37:27.173 STDERR [INFO] I0730 10:37:27.162427  9485 layer_factory.hpp:77] Creating layer lstm1_
2016-07-30 10:37:27.173 STDERR [INFO] I0730 10:37:27.162448  9485 net.cpp:91] Creating Layer lstm1_
2016-07-30 10:37:27.173 STDERR [INFO] I0730 10:37:27.162457  9485 net.cpp:399] lstm1_ -> c_0
2016-07-30 10:37:27.174 STDERR [INFO] I0730 10:37:27.162470  9485 net.cpp:399] lstm1_ -> h_0
2016-07-30 10:37:27.174 STDERR [INFO] I0730 10:37:27.165980  9485 net.cpp:141] Setting up lstm1_
2016-07-30 10:37:27.174 STDERR [INFO] I0730 10:37:27.166002  9485 net.cpp:148] Top shape: 1 1 1000 (1000)
2016-07-30 10:37:27.174 STDERR [INFO] I0730 10:37:27.166009  9485 net.cpp:148] Top shape: 1 1 1000 (1000)
2016-07-30 10:37:27.174 STDERR [INFO] I0730 10:37:27.166013  9485 net.cpp:156] Memory required for data: 10004
2016-07-30 10:37:27.174 STDERR [INFO] I0730 10:37:27.166019  9485 layer_factory.hpp:77] Creating layer lstm1_cont_slice
2016-07-30 10:37:27.174 STDERR [INFO] I0730 10:37:27.166031  9485 net.cpp:91] Creating Layer lstm1_cont_slice
2016-07-30 10:37:27.174 STDERR [INFO] I0730 10:37:27.166038  9485 net.cpp:425] lstm1_cont_slice <- cont
2016-07-30 10:37:27.174 STDERR [INFO] I0730 10:37:27.166046  9485 net.cpp:399] lstm1_cont_slice -> cont_1
2016-07-30 10:37:27.174 STDERR [INFO] I0730 10:37:27.166182  9485 net.cpp:141] Setting up lstm1_cont_slice
2016-07-30 10:37:27.174 STDERR [INFO] I0730 10:37:27.166194  9485 net.cpp:148] Top shape: 1 1 (1)
2016-07-30 10:37:27.174 STDERR [INFO] I0730 10:37:27.166199  9485 net.cpp:156] Memory required for data: 10008
2016-07-30 10:37:27.175 STDERR [INFO] I0730 10:37:27.166204  9485 layer_factory.hpp:77] Creating layer cont_1_lstm1_cont_slice_0_split
2016-07-30 10:37:27.175 STDERR [INFO] I0730 10:37:27.166213  9485 net.cpp:91] Creating Layer cont_1_lstm1_cont_slice_0_split
2016-07-30 10:37:27.175 STDERR [INFO] I0730 10:37:27.166218  9485 net.cpp:425] cont_1_lstm1_cont_slice_0_split <- cont_1
2016-07-30 10:37:27.175 STDERR [INFO] I0730 10:37:27.166226  9485 net.cpp:399] cont_1_lstm1_cont_slice_0_split -> cont_1_lstm1_cont_slice_0_split_0
2016-07-30 10:37:27.175 STDERR [INFO] I0730 10:37:27.166235  9485 net.cpp:399] cont_1_lstm1_cont_slice_0_split -> cont_1_lstm1_cont_slice_0_split_1
2016-07-30 10:37:27.175 STDERR [INFO] I0730 10:37:27.171490  9485 net.cpp:141] Setting up cont_1_lstm1_cont_slice_0_split
2016-07-30 10:37:27.175 STDERR [INFO] I0730 10:37:27.171512  9485 net.cpp:148] Top shape: 1 1 (1)
2016-07-30 10:37:27.175 STDERR [INFO] I0730 10:37:27.171519  9485 net.cpp:148] Top shape: 1 1 (1)
2016-07-30 10:37:27.175 STDERR [INFO] I0730 10:37:27.171525  9485 net.cpp:156] Memory required for data: 10016
2016-07-30 10:37:27.175 STDERR [INFO] I0730 10:37:27.171530  9485 layer_factory.hpp:77] Creating layer lstm1_x_transform
2016-07-30 10:37:27.175 STDERR [INFO] I0730 10:37:27.171545  9485 net.cpp:91] Creating Layer lstm1_x_transform
2016-07-30 10:37:27.175 STDERR [INFO] I0730 10:37:27.171551  9485 net.cpp:425] lstm1_x_transform <- x
2016-07-30 10:37:27.176 STDERR [INFO] I0730 10:37:27.171561  9485 net.cpp:399] lstm1_x_transform -> W_xc_x
2016-07-30 10:37:27.189 STDERR [INFO] I0730 10:37:27.189379  9497 net.cpp:141] Setting up conv1
2016-07-30 10:37:27.190 STDERR [INFO] I0730 10:37:27.189430  9497 net.cpp:148] Top shape: 10 96 55 55 (2904000)
2016-07-30 10:37:27.190 STDERR [INFO] I0730 10:37:27.189437  9497 net.cpp:156] Memory required for data: 17799480
2016-07-30 10:37:27.190 STDERR [INFO] I0730 10:37:27.189460  9497 layer_factory.hpp:77] Creating layer relu1
2016-07-30 10:37:27.190 STDERR [INFO] I0730 10:37:27.189478  9497 net.cpp:91] Creating Layer relu1
2016-07-30 10:37:27.190 STDERR [INFO] I0730 10:37:27.189486  9497 net.cpp:425] relu1 <- conv1
2016-07-30 10:37:27.190 STDERR [INFO] I0730 10:37:27.189493  9497 net.cpp:386] relu1 -> conv1 (in-place)
2016-07-30 10:37:27.190 STDERR [INFO] I0730 10:37:27.190248  9497 net.cpp:141] Setting up relu1
2016-07-30 10:37:27.190 STDERR [INFO] I0730 10:37:27.190263  9497 net.cpp:148] Top shape: 10 96 55 55 (2904000)
2016-07-30 10:37:27.190 STDERR [INFO] I0730 10:37:27.190268  9497 net.cpp:156] Memory required for data: 29415480
2016-07-30 10:37:27.190 STDERR [INFO] I0730 10:37:27.190274  9497 layer_factory.hpp:77] Creating layer pool1
2016-07-30 10:37:27.191 STDERR [INFO] I0730 10:37:27.190285  9497 net.cpp:91] Creating Layer pool1
2016-07-30 10:37:27.191 STDERR [INFO] I0730 10:37:27.190291  9497 net.cpp:425] pool1 <- conv1
2016-07-30 10:37:27.191 STDERR [INFO] I0730 10:37:27.190299  9497 net.cpp:399] pool1 -> pool1
2016-07-30 10:37:27.191 STDERR [INFO] I0730 10:37:27.190371  9497 net.cpp:141] Setting up pool1
2016-07-30 10:37:27.191 STDERR [INFO] I0730 10:37:27.190382  9497 net.cpp:148] Top shape: 10 96 27 27 (699840)
2016-07-30 10:37:27.191 STDERR [INFO] I0730 10:37:27.190387  9497 net.cpp:156] Memory required for data: 32214840
2016-07-30 10:37:27.191 STDERR [INFO] I0730 10:37:27.190392  9497 layer_factory.hpp:77] Creating layer norm1
2016-07-30 10:37:27.191 STDERR [INFO] I0730 10:37:27.190408  9497 net.cpp:91] Creating Layer norm1
2016-07-30 10:37:27.191 STDERR [INFO] I0730 10:37:27.190414  9497 net.cpp:425] norm1 <- pool1
2016-07-30 10:37:27.191 STDERR [INFO] I0730 10:37:27.190421  9497 net.cpp:399] norm1 -> norm1
2016-07-30 10:37:27.191 STDERR [INFO] I0730 10:37:27.191244  9497 net.cpp:141] Setting up norm1
2016-07-30 10:37:27.192 STDERR [INFO] I0730 10:37:27.191260  9497 net.cpp:148] Top shape: 10 96 27 27 (699840)
2016-07-30 10:37:27.192 STDERR [INFO] I0730 10:37:27.191267  9497 net.cpp:156] Memory required for data: 35014200
2016-07-30 10:37:27.192 STDERR [INFO] I0730 10:37:27.191272  9497 layer_factory.hpp:77] Creating layer conv2
2016-07-30 10:37:27.192 STDERR [INFO] I0730 10:37:27.191287  9497 net.cpp:91] Creating Layer conv2
2016-07-30 10:37:27.192 STDERR [INFO] I0730 10:37:27.191293  9497 net.cpp:425] conv2 <- norm1
2016-07-30 10:37:27.192 STDERR [INFO] I0730 10:37:27.191301  9497 net.cpp:399] conv2 -> conv2
2016-07-30 10:37:27.194 STDERR [INFO] I0730 10:37:27.194041  9485 net.cpp:141] Setting up lstm1_x_transform
2016-07-30 10:37:27.194 STDERR [INFO] I0730 10:37:27.194067  9485 net.cpp:148] Top shape: 1 1 4000 (4000)
2016-07-30 10:37:27.194 STDERR [INFO] I0730 10:37:27.194072  9485 net.cpp:156] Memory required for data: 26016
2016-07-30 10:37:27.194 STDERR [INFO] I0730 10:37:27.194087  9485 layer_factory.hpp:77] Creating layer lstm1_W_xc_x_slice
2016-07-30 10:37:27.194 STDERR [INFO] I0730 10:37:27.194104  9485 net.cpp:91] Creating Layer lstm1_W_xc_x_slice
2016-07-30 10:37:27.194 STDERR [INFO] I0730 10:37:27.194113  9485 net.cpp:425] lstm1_W_xc_x_slice <- W_xc_x
2016-07-30 10:37:27.194 STDERR [INFO] I0730 10:37:27.194121  9485 net.cpp:399] lstm1_W_xc_x_slice -> W_xc_x_1
2016-07-30 10:37:27.194 STDERR [INFO] I0730 10:37:27.194239  9485 net.cpp:141] Setting up lstm1_W_xc_x_slice
2016-07-30 10:37:27.195 STDERR [INFO] I0730 10:37:27.194252  9485 net.cpp:148] Top shape: 1 1 4000 (4000)
2016-07-30 10:37:27.195 STDERR [INFO] I0730 10:37:27.194257  9485 net.cpp:156] Memory required for data: 42016
2016-07-30 10:37:27.195 STDERR [INFO] I0730 10:37:27.194262  9485 layer_factory.hpp:77] Creating layer lstm1_h_conted_0
2016-07-30 10:37:27.195 STDERR [INFO] I0730 10:37:27.194278  9485 net.cpp:91] Creating Layer lstm1_h_conted_0
2016-07-30 10:37:27.195 STDERR [INFO] I0730 10:37:27.194284  9485 net.cpp:425] lstm1_h_conted_0 <- h_0
2016-07-30 10:37:27.195 STDERR [INFO] I0730 10:37:27.194291  9485 net.cpp:425] lstm1_h_conted_0 <- cont_1_lstm1_cont_slice_0_split_0
2016-07-30 10:37:27.195 STDERR [INFO] I0730 10:37:27.194298  9485 net.cpp:399] lstm1_h_conted_0 -> h_conted_0
2016-07-30 10:37:27.195 STDERR [INFO] I0730 10:37:27.195173  9485 net.cpp:141] Setting up lstm1_h_conted_0
2016-07-30 10:37:27.195 STDERR [INFO] I0730 10:37:27.195185  9485 net.cpp:148] Top shape: 1 1 1000 (1000)
2016-07-30 10:37:27.195 STDERR [INFO] I0730 10:37:27.195190  9485 net.cpp:156] Memory required for data: 46016
2016-07-30 10:37:27.195 STDERR [INFO] I0730 10:37:27.195195  9485 layer_factory.hpp:77] Creating layer lstm1_transform_1
2016-07-30 10:37:27.196 STDERR [INFO] I0730 10:37:27.195211  9485 net.cpp:91] Creating Layer lstm1_transform_1
2016-07-30 10:37:27.196 STDERR [INFO] I0730 10:37:27.195219  9485 net.cpp:425] lstm1_transform_1 <- h_conted_0
2016-07-30 10:37:27.196 STDERR [INFO] I0730 10:37:27.195227  9485 net.cpp:399] lstm1_transform_1 -> W_hc_h_0
2016-07-30 10:37:27.205 STDERR [INFO] I0730 10:37:27.205006  9497 net.cpp:141] Setting up conv2
2016-07-30 10:37:27.205 STDERR [INFO] I0730 10:37:27.205056  9497 net.cpp:148] Top shape: 10 256 27 27 (1866240)
2016-07-30 10:37:27.205 STDERR [INFO] I0730 10:37:27.205063  9497 net.cpp:156] Memory required for data: 42479160
2016-07-30 10:37:27.205 STDERR [INFO] I0730 10:37:27.205087  9497 layer_factory.hpp:77] Creating layer relu2
2016-07-30 10:37:27.205 STDERR [INFO] I0730 10:37:27.205106  9497 net.cpp:91] Creating Layer relu2
2016-07-30 10:37:27.205 STDERR [INFO] I0730 10:37:27.205112  9497 net.cpp:425] relu2 <- conv2
2016-07-30 10:37:27.206 STDERR [INFO] I0730 10:37:27.205121  9497 net.cpp:386] relu2 -> conv2 (in-place)
2016-07-30 10:37:27.206 STDERR [INFO] I0730 10:37:27.206295  9497 net.cpp:141] Setting up relu2
2016-07-30 10:37:27.206 STDERR [INFO] I0730 10:37:27.206321  9497 net.cpp:148] Top shape: 10 256 27 27 (1866240)
2016-07-30 10:37:27.206 STDERR [INFO] I0730 10:37:27.206326  9497 net.cpp:156] Memory required for data: 49944120
2016-07-30 10:37:27.206 STDERR [INFO] I0730 10:37:27.206333  9497 layer_factory.hpp:77] Creating layer pool2
2016-07-30 10:37:27.206 STDERR [INFO] I0730 10:37:27.206346  9497 net.cpp:91] Creating Layer pool2
2016-07-30 10:37:27.206 STDERR [INFO] I0730 10:37:27.206351  9497 net.cpp:425] pool2 <- conv2
2016-07-30 10:37:27.206 STDERR [INFO] I0730 10:37:27.206360  9497 net.cpp:399] pool2 -> pool2
2016-07-30 10:37:27.207 STDERR [INFO] I0730 10:37:27.206439  9497 net.cpp:141] Setting up pool2
2016-07-30 10:37:27.207 STDERR [INFO] I0730 10:37:27.206449  9497 net.cpp:148] Top shape: 10 256 13 13 (432640)
2016-07-30 10:37:27.207 STDERR [INFO] I0730 10:37:27.206454  9497 net.cpp:156] Memory required for data: 51674680
2016-07-30 10:37:27.207 STDERR [INFO] I0730 10:37:27.206459  9497 layer_factory.hpp:77] Creating layer norm2
2016-07-30 10:37:27.207 STDERR [INFO] I0730 10:37:27.206476  9497 net.cpp:91] Creating Layer norm2
2016-07-30 10:37:27.207 STDERR [INFO] I0730 10:37:27.206482  9497 net.cpp:425] norm2 <- pool2
2016-07-30 10:37:27.207 STDERR [INFO] I0730 10:37:27.206492  9497 net.cpp:399] norm2 -> norm2
2016-07-30 10:37:27.207 STDERR [INFO] I0730 10:37:27.206810  9497 net.cpp:141] Setting up norm2
2016-07-30 10:37:27.207 STDERR [INFO] I0730 10:37:27.206823  9497 net.cpp:148] Top shape: 10 256 13 13 (432640)
2016-07-30 10:37:27.207 STDERR [INFO] I0730 10:37:27.206830  9497 net.cpp:156] Memory required for data: 53405240
2016-07-30 10:37:27.207 STDERR [INFO] I0730 10:37:27.206835  9497 layer_factory.hpp:77] Creating layer conv3
2016-07-30 10:37:27.207 STDERR [INFO] I0730 10:37:27.206852  9497 net.cpp:91] Creating Layer conv3
2016-07-30 10:37:27.208 STDERR [INFO] I0730 10:37:27.206858  9497 net.cpp:425] conv3 <- norm2
2016-07-30 10:37:27.208 STDERR [INFO] I0730 10:37:27.206868  9497 net.cpp:399] conv3 -> conv3
2016-07-30 10:37:27.212 STDERR [INFO] I0730 10:37:27.212321  9497 net.cpp:141] Setting up conv3
2016-07-30 10:37:27.212 STDERR [INFO] I0730 10:37:27.212347  9497 net.cpp:148] Top shape: 10 384 13 13 (648960)
2016-07-30 10:37:27.212 STDERR [INFO] I0730 10:37:27.212352  9497 net.cpp:156] Memory required for data: 56001080
2016-07-30 10:37:27.212 STDERR [INFO] I0730 10:37:27.212371  9497 layer_factory.hpp:77] Creating layer relu3
2016-07-30 10:37:27.213 STDERR [INFO] I0730 10:37:27.212383  9497 net.cpp:91] Creating Layer relu3
2016-07-30 10:37:27.213 STDERR [INFO] I0730 10:37:27.212389  9497 net.cpp:425] relu3 <- conv3
2016-07-30 10:37:27.213 STDERR [INFO] I0730 10:37:27.212396  9497 net.cpp:386] relu3 -> conv3 (in-place)
2016-07-30 10:37:27.213 STDERR [INFO] I0730 10:37:27.213177  9497 net.cpp:141] Setting up relu3
2016-07-30 10:37:27.213 STDERR [INFO] I0730 10:37:27.213192  9497 net.cpp:148] Top shape: 10 384 13 13 (648960)
2016-07-30 10:37:27.214 STDERR [INFO] I0730 10:37:27.213201  9497 net.cpp:156] Memory required for data: 58596920
2016-07-30 10:37:27.214 STDERR [INFO] I0730 10:37:27.213205  9497 layer_factory.hpp:77] Creating layer conv4
2016-07-30 10:37:27.214 STDERR [INFO] I0730 10:37:27.213218  9497 net.cpp:91] Creating Layer conv4
2016-07-30 10:37:27.214 STDERR [INFO] I0730 10:37:27.213223  9497 net.cpp:425] conv4 <- conv3
2016-07-30 10:37:27.214 STDERR [INFO] I0730 10:37:27.213235  9497 net.cpp:399] conv4 -> conv4
2016-07-30 10:37:27.219 STDERR [INFO] I0730 10:37:27.219339  9497 net.cpp:141] Setting up conv4
2016-07-30 10:37:27.220 STDERR [INFO] I0730 10:37:27.219379  9497 net.cpp:148] Top shape: 10 384 13 13 (648960)
2016-07-30 10:37:27.220 STDERR [INFO] I0730 10:37:27.219385  9497 net.cpp:156] Memory required for data: 61192760
2016-07-30 10:37:27.220 STDERR [INFO] I0730 10:37:27.219398  9497 layer_factory.hpp:77] Creating layer relu4
2016-07-30 10:37:27.220 STDERR [INFO] I0730 10:37:27.219416  9497 net.cpp:91] Creating Layer relu4
2016-07-30 10:37:27.220 STDERR [INFO] I0730 10:37:27.219424  9497 net.cpp:425] relu4 <- conv4
2016-07-30 10:37:27.220 STDERR [INFO] I0730 10:37:27.219432  9497 net.cpp:386] relu4 -> conv4 (in-place)
2016-07-30 10:37:27.220 STDERR [INFO] I0730 10:37:27.220226  9497 net.cpp:141] Setting up relu4
2016-07-30 10:37:27.220 STDERR [INFO] I0730 10:37:27.220240  9497 net.cpp:148] Top shape: 10 384 13 13 (648960)
2016-07-30 10:37:27.220 STDERR [INFO] I0730 10:37:27.220245  9497 net.cpp:156] Memory required for data: 63788600
2016-07-30 10:37:27.220 STDERR [INFO] I0730 10:37:27.220250  9497 layer_factory.hpp:77] Creating layer conv5
2016-07-30 10:37:27.220 STDERR [INFO] I0730 10:37:27.220270  9497 net.cpp:91] Creating Layer conv5
2016-07-30 10:37:27.220 STDERR [INFO] I0730 10:37:27.220278  9497 net.cpp:425] conv5 <- conv4
2016-07-30 10:37:27.221 STDERR [INFO] I0730 10:37:27.220285  9497 net.cpp:399] conv5 -> conv5
2016-07-30 10:37:27.226 STDERR [INFO] I0730 10:37:27.226290  9497 net.cpp:141] Setting up conv5
2016-07-30 10:37:27.226 STDERR [INFO] I0730 10:37:27.226321  9497 net.cpp:148] Top shape: 10 256 13 13 (432640)
2016-07-30 10:37:27.226 STDERR [INFO] I0730 10:37:27.226327  9497 net.cpp:156] Memory required for data: 65519160
2016-07-30 10:37:27.226 STDERR [INFO] I0730 10:37:27.226349  9497 layer_factory.hpp:77] Creating layer relu5
2016-07-30 10:37:27.226 STDERR [INFO] I0730 10:37:27.226362  9497 net.cpp:91] Creating Layer relu5
2016-07-30 10:37:27.227 STDERR [INFO] I0730 10:37:27.226368  9497 net.cpp:425] relu5 <- conv5
2016-07-30 10:37:27.227 STDERR [INFO] I0730 10:37:27.226375  9497 net.cpp:386] relu5 -> conv5 (in-place)
2016-07-30 10:37:27.227 STDERR [INFO] I0730 10:37:27.227202  9497 net.cpp:141] Setting up relu5
2016-07-30 10:37:27.227 STDERR [INFO] I0730 10:37:27.227218  9497 net.cpp:148] Top shape: 10 256 13 13 (432640)
2016-07-30 10:37:27.227 STDERR [INFO] I0730 10:37:27.227224  9497 net.cpp:156] Memory required for data: 67249720
2016-07-30 10:37:27.227 STDERR [INFO] I0730 10:37:27.227229  9497 layer_factory.hpp:77] Creating layer pool5
2016-07-30 10:37:27.227 STDERR [INFO] I0730 10:37:27.227241  9497 net.cpp:91] Creating Layer pool5
2016-07-30 10:37:27.227 STDERR [INFO] I0730 10:37:27.227246  9497 net.cpp:425] pool5 <- conv5
2016-07-30 10:37:27.227 STDERR [INFO] I0730 10:37:27.227257  9497 net.cpp:399] pool5 -> pool5
2016-07-30 10:37:27.227 STDERR [INFO] I0730 10:37:27.227325  9497 net.cpp:141] Setting up pool5
2016-07-30 10:37:27.228 STDERR [INFO] I0730 10:37:27.227339  9497 net.cpp:148] Top shape: 10 256 6 6 (92160)
2016-07-30 10:37:27.228 STDERR [INFO] I0730 10:37:27.227344  9497 net.cpp:156] Memory required for data: 67618360
2016-07-30 10:37:27.228 STDERR [INFO] I0730 10:37:27.227349  9497 layer_factory.hpp:77] Creating layer fc6
2016-07-30 10:37:27.228 STDERR [INFO] I0730 10:37:27.227362  9497 net.cpp:91] Creating Layer fc6
2016-07-30 10:37:27.228 STDERR [INFO] I0730 10:37:27.227367  9497 net.cpp:425] fc6 <- pool5
2016-07-30 10:37:27.228 STDERR [INFO] I0730 10:37:27.227375  9497 net.cpp:399] fc6 -> fc6
2016-07-30 10:37:27.297 STDERR [INFO] I0730 10:37:27.297533  9485 net.cpp:141] Setting up lstm1_transform_1
2016-07-30 10:37:27.298 STDERR [INFO] I0730 10:37:27.297585  9485 net.cpp:148] Top shape: 1 1 4000 (4000)
2016-07-30 10:37:27.298 STDERR [INFO] I0730 10:37:27.297591  9485 net.cpp:156] Memory required for data: 62016
2016-07-30 10:37:27.298 STDERR [INFO] I0730 10:37:27.297613  9485 layer_factory.hpp:77] Creating layer lstm1_gate_input_1
2016-07-30 10:37:27.298 STDERR [INFO] I0730 10:37:27.297646  9485 net.cpp:91] Creating Layer lstm1_gate_input_1
2016-07-30 10:37:27.299 STDERR [INFO] I0730 10:37:27.297654  9485 net.cpp:425] lstm1_gate_input_1 <- W_hc_h_0
2016-07-30 10:37:27.299 STDERR [INFO] I0730 10:37:27.297663  9485 net.cpp:425] lstm1_gate_input_1 <- W_xc_x_1
2016-07-30 10:37:27.299 STDERR [INFO] I0730 10:37:27.297672  9485 net.cpp:399] lstm1_gate_input_1 -> gate_input_1
2016-07-30 10:37:27.299 STDERR [INFO] I0730 10:37:27.297747  9485 net.cpp:141] Setting up lstm1_gate_input_1
2016-07-30 10:37:27.299 STDERR [INFO] I0730 10:37:27.297758  9485 net.cpp:148] Top shape: 1 1 4000 (4000)
2016-07-30 10:37:27.300 STDERR [INFO] I0730 10:37:27.297762  9485 net.cpp:156] Memory required for data: 78016
2016-07-30 10:37:27.300 STDERR [INFO] I0730 10:37:27.297767  9485 layer_factory.hpp:77] Creating layer lstm1_unit_1
2016-07-30 10:37:27.300 STDERR [INFO] I0730 10:37:27.297777  9485 net.cpp:91] Creating Layer lstm1_unit_1
2016-07-30 10:37:27.300 STDERR [INFO] I0730 10:37:27.297783  9485 net.cpp:425] lstm1_unit_1 <- c_0
2016-07-30 10:37:27.300 STDERR [INFO] I0730 10:37:27.297790  9485 net.cpp:425] lstm1_unit_1 <- gate_input_1
2016-07-30 10:37:27.300 STDERR [INFO] I0730 10:37:27.297796  9485 net.cpp:425] lstm1_unit_1 <- cont_1_lstm1_cont_slice_0_split_1
2016-07-30 10:37:27.300 STDERR [INFO] I0730 10:37:27.297803  9485 net.cpp:399] lstm1_unit_1 -> c_1
2016-07-30 10:37:27.300 STDERR [INFO] I0730 10:37:27.297813  9485 net.cpp:399] lstm1_unit_1 -> h_1
2016-07-30 10:37:27.300 STDERR [INFO] I0730 10:37:27.297886  9485 net.cpp:141] Setting up lstm1_unit_1
2016-07-30 10:37:27.301 STDERR [INFO] I0730 10:37:27.297896  9485 net.cpp:148] Top shape: 1 1 1000 (1000)
2016-07-30 10:37:27.301 STDERR [INFO] I0730 10:37:27.297904  9485 net.cpp:148] Top shape: 1 1 1000 (1000)
2016-07-30 10:37:27.301 STDERR [INFO] I0730 10:37:27.297909  9485 net.cpp:156] Memory required for data: 86016
2016-07-30 10:37:27.301 STDERR [INFO] I0730 10:37:27.297912  9485 layer_factory.hpp:77] Creating layer lstm1_
2016-07-30 10:37:27.301 STDERR [INFO] I0730 10:37:27.297925  9485 net.cpp:91] Creating Layer lstm1_
2016-07-30 10:37:27.301 STDERR [INFO] I0730 10:37:27.297931  9485 net.cpp:425] lstm1_ <- c_1
2016-07-30 10:37:27.301 STDERR [INFO] I0730 10:37:27.297938  9485 net.cpp:399] lstm1_ -> c_T
2016-07-30 10:37:27.301 STDERR [INFO] I0730 10:37:27.297972  9485 net.cpp:141] Setting up lstm1_
2016-07-30 10:37:27.302 STDERR [INFO] I0730 10:37:27.297981  9485 net.cpp:148] Top shape: 1 1 1000 (1000)
2016-07-30 10:37:27.302 STDERR [INFO] I0730 10:37:27.297986  9485 net.cpp:156] Memory required for data: 90016
2016-07-30 10:37:27.302 STDERR [INFO] I0730 10:37:27.297991  9485 layer_factory.hpp:77] Creating layer lstm1_h_concat
2016-07-30 10:37:27.302 STDERR [INFO] I0730 10:37:27.298002  9485 net.cpp:91] Creating Layer lstm1_h_concat
2016-07-30 10:37:27.302 STDERR [INFO] I0730 10:37:27.298007  9485 net.cpp:425] lstm1_h_concat <- h_1
2016-07-30 10:37:27.302 STDERR [INFO] I0730 10:37:27.298018  9485 net.cpp:399] lstm1_h_concat -> h
2016-07-30 10:37:27.302 STDERR [INFO] I0730 10:37:27.298058  9485 net.cpp:141] Setting up lstm1_h_concat
2016-07-30 10:37:27.302 STDERR [INFO] I0730 10:37:27.298068  9485 net.cpp:148] Top shape: 1 1 1000 (1000)
2016-07-30 10:37:27.303 STDERR [INFO] I0730 10:37:27.298071  9485 net.cpp:156] Memory required for data: 94016
2016-07-30 10:37:27.303 STDERR [INFO] I0730 10:37:27.298076  9485 layer_factory.hpp:77] Creating layer h_pseudoloss
2016-07-30 10:37:27.303 STDERR [INFO] I0730 10:37:27.298092  9485 net.cpp:91] Creating Layer h_pseudoloss
2016-07-30 10:37:27.303 STDERR [INFO] I0730 10:37:27.298099  9485 net.cpp:425] h_pseudoloss <- h
…
2016-07-30 10:37:27.321 STDERR [INFO] }
2016-07-30 10:37:27.321 STDERR [INFO] I0730 10:37:27.299136  9485 layer_factory.hpp:77] Creating layer lstm2_
2016-07-30 10:37:27.321 STDERR [INFO] I0730 10:37:27.299149  9485 net.cpp:91] Creating Layer lstm2_
2016-07-30 10:37:27.321 STDERR [INFO] I0730 10:37:27.299156  9485 net.cpp:399] lstm2_ -> x
2016-07-30 10:37:27.321 STDERR [INFO] I0730 10:37:27.299167  9485 net.cpp:399] lstm2_ -> cont
2016-07-30 10:37:27.321 STDERR [INFO] I0730 10:37:27.299228  9485 net.cpp:141] Setting up lstm2_
2016-07-30 10:37:27.321 STDERR [INFO] I0730 10:37:27.299238  9485 net.cpp:148] Top shape: 1 1 1501 (1501)
2016-07-30 10:37:27.321 STDERR [INFO] I0730 10:37:27.299245  9485 net.cpp:148] Top shape: 1 1 (1)
2016-07-30 10:37:27.321 STDERR [INFO] I0730 10:37:27.299250  9485 net.cpp:156] Memory required for data: 6008
2016-07-30 10:37:27.322 STDERR [INFO] I0730 10:37:27.299255  9485 layer_factory.hpp:77] Creating layer lstm2_
2016-07-30 10:37:27.322 STDERR [INFO] I0730 10:37:27.299270  9485 net.cpp:91] Creating Layer lstm2_
2016-07-30 10:37:27.322 STDERR [INFO] I0730 10:37:27.299278  9485 net.cpp:399] lstm2_ -> c_0
2016-07-30 10:37:27.323 STDERR [INFO] I0730 10:37:27.299289  9485 net.cpp:399] lstm2_ -> h_0
2016-07-30 10:37:27.323 STDERR [INFO] I0730 10:37:27.299347  9485 net.cpp:141] Setting up lstm2_
2016-07-30 10:37:27.323 STDERR [INFO] I0730 10:37:27.299358  9485 net.cpp:148] Top shape: 1 1 1000 (1000)
2016-07-30 10:37:27.323 STDERR [INFO] I0730 10:37:27.299365  9485 net.cpp:148] Top shape: 1 1 1000 (1000)
2016-07-30 10:37:27.323 STDERR [INFO] I0730 10:37:27.299368  9485 net.cpp:156] Memory required for data: 14008
2016-07-30 10:37:27.323 STDERR [INFO] I0730 10:37:27.299373  9485 layer_factory.hpp:77] Creating layer lstm2_cont_slice
2016-07-30 10:37:27.323 STDERR [INFO] I0730 10:37:27.299383  9485 net.cpp:91] Creating Layer lstm2_cont_slice
2016-07-30 10:37:27.323 STDERR [INFO] I0730 10:37:27.299388  9485 net.cpp:425] lstm2_cont_slice <- cont
2016-07-30 10:37:27.324 STDERR [INFO] I0730 10:37:27.299396  9485 net.cpp:399] lstm2_cont_slice -> cont_1
2016-07-30 10:37:27.324 STDERR [INFO] I0730 10:37:27.299437  9485 net.cpp:141] Setting up lstm2_cont_slice
2016-07-30 10:37:27.324 STDERR [INFO] I0730 10:37:27.299448  9485 net.cpp:148] Top shape: 1 1 (1)
2016-07-30 10:37:27.324 STDERR [INFO] I0730 10:37:27.299453  9485 net.cpp:156] Memory required for data: 14012
2016-07-30 10:37:27.324 STDERR [INFO] I0730 10:37:27.299458  9485 layer_factory.hpp:77] Creating layer cont_1_lstm2_cont_slice_0_split
2016-07-30 10:37:27.324 STDERR [INFO] I0730 10:37:27.299466  9485 net.cpp:91] Creating Layer cont_1_lstm2_cont_slice_0_split
2016-07-30 10:37:27.324 STDERR [INFO] I0730 10:37:27.299471  9485 net.cpp:425] cont_1_lstm2_cont_slice_0_split <- cont_1
2016-07-30 10:37:27.324 STDERR [INFO] I0730 10:37:27.299485  9485 net.cpp:399] cont_1_lstm2_cont_slice_0_split -> cont_1_lstm2_cont_slice_0_split_0
2016-07-30 10:37:27.324 STDERR [INFO] I0730 10:37:27.299494  9485 net.cpp:399] cont_1_lstm2_cont_slice_0_split -> cont_1_lstm2_cont_slice_0_split_1
2016-07-30 10:37:27.324 STDERR [INFO] I0730 10:37:27.299547  9485 net.cpp:141] Setting up cont_1_lstm2_cont_slice_0_split
2016-07-30 10:37:27.324 STDERR [INFO] I0730 10:37:27.299561  9485 net.cpp:148] Top shape: 1 1 (1)
2016-07-30 10:37:27.324 STDERR [INFO] I0730 10:37:27.299566  9485 net.cpp:148] Top shape: 1 1 (1)
2016-07-30 10:37:27.325 STDERR [INFO] I0730 10:37:27.299571  9485 net.cpp:156] Memory required for data: 14020
2016-07-30 10:37:27.325 STDERR [INFO] I0730 10:37:27.299576  9485 layer_factory.hpp:77] Creating layer lstm2_x_transform
2016-07-30 10:37:27.325 STDERR [INFO] I0730 10:37:27.299587  9485 net.cpp:91] Creating Layer lstm2_x_transform
2016-07-30 10:37:27.325 STDERR [INFO] I0730 10:37:27.299592  9485 net.cpp:425] lstm2_x_transform <- x
2016-07-30 10:37:27.325 STDERR [INFO] I0730 10:37:27.299603  9485 net.cpp:399] lstm2_x_transform -> W_xc_x
2016-07-30 10:37:27.339 STDERR [INFO] I0730 10:37:27.339757  9497 net.cpp:141] Setting up fc6
2016-07-30 10:37:27.340 STDERR [INFO] I0730 10:37:27.339807  9497 net.cpp:148] Top shape: 10 4096 (40960)
2016-07-30 10:37:27.340 STDERR [INFO] I0730 10:37:27.339812  9497 net.cpp:156] Memory required for data: 67782200
2016-07-30 10:37:27.340 STDERR [INFO] I0730 10:37:27.339828  9497 layer_factory.hpp:77] Creating layer relu6
2016-07-30 10:37:27.340 STDERR [INFO] I0730 10:37:27.339846  9497 net.cpp:91] Creating Layer relu6
2016-07-30 10:37:27.340 STDERR [INFO] I0730 10:37:27.339854  9497 net.cpp:425] relu6 <- fc6
2016-07-30 10:37:27.340 STDERR [INFO] I0730 10:37:27.339862  9497 net.cpp:386] relu6 -> fc6 (in-place)
2016-07-30 10:37:27.341 STDERR [INFO] I0730 10:37:27.340214  9497 net.cpp:141] Setting up relu6
2016-07-30 10:37:27.341 STDERR [INFO] I0730 10:37:27.340225  9497 net.cpp:148] Top shape: 10 4096 (40960)
2016-07-30 10:37:27.341 STDERR [INFO] I0730 10:37:27.340230  9497 net.cpp:156] Memory required for data: 67946040
2016-07-30 10:37:27.341 STDERR [INFO] I0730 10:37:27.340235  9497 layer_factory.hpp:77] Creating layer drop6
2016-07-30 10:37:27.341 STDERR [INFO] I0730 10:37:27.340260  9497 net.cpp:91] Creating Layer drop6
2016-07-30 10:37:27.341 STDERR [INFO] I0730 10:37:27.340266  9497 net.cpp:425] drop6 <- fc6
2016-07-30 10:37:27.341 STDERR [INFO] I0730 10:37:27.340276  9497 net.cpp:386] drop6 -> fc6 (in-place)
2016-07-30 10:37:27.341 STDERR [INFO] I0730 10:37:27.340329  9497 net.cpp:141] Setting up drop6
2016-07-30 10:37:27.341 STDERR [INFO] I0730 10:37:27.340338  9497 net.cpp:148] Top shape: 10 4096 (40960)
2016-07-30 10:37:27.341 STDERR [INFO] I0730 10:37:27.340343  9497 net.cpp:156] Memory required for data: 68109880
2016-07-30 10:37:27.342 STDERR [INFO] I0730 10:37:27.340348  9497 layer_factory.hpp:77] Creating layer fc7
2016-07-30 10:37:27.342 STDERR [INFO] I0730 10:37:27.340363  9497 net.cpp:91] Creating Layer fc7
2016-07-30 10:37:27.342 STDERR [INFO] I0730 10:37:27.340369  9497 net.cpp:425] fc7 <- fc6
2016-07-30 10:37:27.342 STDERR [INFO] I0730 10:37:27.340376  9497 net.cpp:399] fc7 -> fc7
2016-07-30 10:37:27.373 STDERR [INFO] I0730 10:37:27.373158  9485 net.cpp:141] Setting up lstm2_x_transform
2016-07-30 10:37:27.373 STDERR [INFO] I0730 10:37:27.373208  9485 net.cpp:148] Top shape: 1 1 4000 (4000)
2016-07-30 10:37:27.374 STDERR [INFO] I0730 10:37:27.373214  9485 net.cpp:156] Memory required for data: 30020
2016-07-30 10:37:27.374 STDERR [INFO] I0730 10:37:27.373237  9485 layer_factory.hpp:77] Creating layer lstm2_W_xc_x_slice
2016-07-30 10:37:27.374 STDERR [INFO] I0730 10:37:27.373255  9485 net.cpp:91] Creating Layer lstm2_W_xc_x_slice
2016-07-30 10:37:27.374 STDERR [INFO] I0730 10:37:27.373261  9485 net.cpp:425] lstm2_W_xc_x_slice <- W_xc_x
2016-07-30 10:37:27.374 STDERR [INFO] I0730 10:37:27.373272  9485 net.cpp:399] lstm2_W_xc_x_slice -> W_xc_x_1
2016-07-30 10:37:27.374 STDERR [INFO] I0730 10:37:27.373330  9485 net.cpp:141] Setting up lstm2_W_xc_x_slice
2016-07-30 10:37:27.374 STDERR [INFO] I0730 10:37:27.373342  9485 net.cpp:148] Top shape: 1 1 4000 (4000)
2016-07-30 10:37:27.374 STDERR [INFO] I0730 10:37:27.373347  9485 net.cpp:156] Memory required for data: 46020
2016-07-30 10:37:27.374 STDERR [INFO] I0730 10:37:27.373353  9485 layer_factory.hpp:77] Creating layer lstm2_h_conted_0
2016-07-30 10:37:27.374 STDERR [INFO] I0730 10:37:27.373364  9485 net.cpp:91] Creating Layer lstm2_h_conted_0
2016-07-30 10:37:27.374 STDERR [INFO] I0730 10:37:27.373369  9485 net.cpp:425] lstm2_h_conted_0 <- h_0
2016-07-30 10:37:27.374 STDERR [INFO] I0730 10:37:27.373376  9485 net.cpp:425] lstm2_h_conted_0 <- cont_1_lstm2_cont_slice_0_split_0
2016-07-30 10:37:27.375 STDERR [INFO] I0730 10:37:27.373384  9485 net.cpp:399] lstm2_h_conted_0 -> h_conted_0
2016-07-30 10:37:27.375 STDERR [INFO] I0730 10:37:27.373491  9485 net.cpp:141] Setting up lstm2_h_conted_0
2016-07-30 10:37:27.375 STDERR [INFO] I0730 10:37:27.373502  9485 net.cpp:148] Top shape: 1 1 1000 (1000)
2016-07-30 10:37:27.375 STDERR [INFO] I0730 10:37:27.373507  9485 net.cpp:156] Memory required for data: 50020
2016-07-30 10:37:27.375 STDERR [INFO] I0730 10:37:27.373510  9485 layer_factory.hpp:77] Creating layer lstm2_transform_1
2016-07-30 10:37:27.375 STDERR [INFO] I0730 10:37:27.373523  9485 net.cpp:91] Creating Layer lstm2_transform_1
2016-07-30 10:37:27.375 STDERR [INFO] I0730 10:37:27.373529  9485 net.cpp:425] lstm2_transform_1 <- h_conted_0
2016-07-30 10:37:27.375 STDERR [INFO] I0730 10:37:27.373538  9485 net.cpp:399] lstm2_transform_1 -> W_hc_h_0
2016-07-30 10:37:27.392 STDERR [INFO] I0730 10:37:27.392335  9497 net.cpp:141] Setting up fc7
2016-07-30 10:37:27.393 STDERR [INFO] I0730 10:37:27.392382  9497 net.cpp:148] Top shape: 10 4096 (40960)
2016-07-30 10:37:27.393 STDERR [INFO] I0730 10:37:27.392388  9497 net.cpp:156] Memory required for data: 68273720
2016-07-30 10:37:27.393 STDERR [INFO] I0730 10:37:27.392403  9497 layer_factory.hpp:77] Creating layer relu7
2016-07-30 10:37:27.393 STDERR [INFO] I0730 10:37:27.392419  9497 net.cpp:91] Creating Layer relu7
2016-07-30 10:37:27.393 STDERR [INFO] I0730 10:37:27.392426  9497 net.cpp:425] relu7 <- fc7
2016-07-30 10:37:27.393 STDERR [INFO] I0730 10:37:27.392434  9497 net.cpp:386] relu7 -> fc7 (in-place)
2016-07-30 10:37:27.394 STDERR [INFO] I0730 10:37:27.393981  9497 net.cpp:141] Setting up relu7
2016-07-30 10:37:27.394 STDERR [INFO] I0730 10:37:27.393999  9497 net.cpp:148] Top shape: 10 4096 (40960)
2016-07-30 10:37:27.394 STDERR [INFO] I0730 10:37:27.394004  9497 net.cpp:156] Memory required for data: 68437560
2016-07-30 10:37:27.394 STDERR [INFO] I0730 10:37:27.394011  9497 layer_factory.hpp:77] Creating layer drop7
2016-07-30 10:37:27.394 STDERR [INFO] I0730 10:37:27.394021  9497 net.cpp:91] Creating Layer drop7
2016-07-30 10:37:27.394 STDERR [INFO] I0730 10:37:27.394026  9497 net.cpp:425] drop7 <- fc7
2016-07-30 10:37:27.394 STDERR [INFO] I0730 10:37:27.394039  9497 net.cpp:386] drop7 -> fc7 (in-place)
2016-07-30 10:37:27.394 STDERR [INFO] I0730 10:37:27.394083  9497 net.cpp:141] Setting up drop7
2016-07-30 10:37:27.394 STDERR [INFO] I0730 10:37:27.394095  9497 net.cpp:148] Top shape: 10 4096 (40960)
2016-07-30 10:37:27.394 STDERR [INFO] I0730 10:37:27.394100  9497 net.cpp:156] Memory required for data: 68601400
2016-07-30 10:37:27.394 STDERR [INFO] I0730 10:37:27.394105  9497 layer_factory.hpp:77] Creating layer fc8
2016-07-30 10:37:27.395 STDERR [INFO] I0730 10:37:27.394115  9497 net.cpp:91] Creating Layer fc8
2016-07-30 10:37:27.395 STDERR [INFO] I0730 10:37:27.394120  9497 net.cpp:425] fc8 <- fc7
2016-07-30 10:37:27.395 STDERR [INFO] I0730 10:37:27.394129  9497 net.cpp:399] fc8 -> fc8
2016-07-30 10:37:27.407 STDERR [INFO] I0730 10:37:27.407554  9497 net.cpp:141] Setting up fc8
2016-07-30 10:37:27.408 STDERR [INFO] I0730 10:37:27.407605  9497 net.cpp:148] Top shape: 10 1000 (10000)
2016-07-30 10:37:27.408 STDERR [INFO] I0730 10:37:27.407613  9497 net.cpp:156] Memory required for data: 68641400
2016-07-30 10:37:27.408 STDERR [INFO] I0730 10:37:27.407626  9497 layer_factory.hpp:77] Creating layer prob
2016-07-30 10:37:27.408 STDERR [INFO] I0730 10:37:27.407644  9497 net.cpp:91] Creating Layer prob
2016-07-30 10:37:27.408 STDERR [INFO] I0730 10:37:27.407654  9497 net.cpp:425] prob <- fc8
2016-07-30 10:37:27.408 STDERR [INFO] I0730 10:37:27.407665  9497 net.cpp:399] prob -> prob
2016-07-30 10:37:27.408 STDERR [INFO] I0730 10:37:27.408124  9497 net.cpp:141] Setting up prob
2016-07-30 10:37:27.408 STDERR [INFO] I0730 10:37:27.408138  9497 net.cpp:148] Top shape: 10 1000 (10000)
2016-07-30 10:37:27.408 STDERR [INFO] I0730 10:37:27.408143  9497 net.cpp:156] Memory required for data: 68681400
2016-07-30 10:37:27.409 STDERR [INFO] I0730 10:37:27.408149  9497 net.cpp:219] prob does not need backward computation.
2016-07-30 10:37:27.409 STDERR [INFO] I0730 10:37:27.408154  9497 net.cpp:219] fc8 does not need backward computation.
2016-07-30 10:37:27.409 STDERR [INFO] I0730 10:37:27.408159  9497 net.cpp:219] drop7 does not need backward computation.
…
2016-07-30 10:37:27.410 STDERR [INFO] I0730 10:37:27.408253  9497 net.cpp:219] conv1 does not need backward computation.
2016-07-30 10:37:27.410 STDERR [INFO] I0730 10:37:27.408257  9497 net.cpp:219] data does not need backward computation.
2016-07-30 10:37:27.411 STDERR [INFO] I0730 10:37:27.408262  9497 net.cpp:261] This network produces output prob
2016-07-30 10:37:27.411 STDERR [INFO] I0730 10:37:27.408285  9497 net.cpp:274] Network initialization done.
2016-07-30 10:37:27.418 STDERR [INFO] I0730 10:37:27.418542  9485 net.cpp:141] Setting up lstm2_transform_1
2016-07-30 10:37:27.419 STDERR [INFO] I0730 10:37:27.418586  9485 net.cpp:148] Top shape: 1 1 4000 (4000)
2016-07-30 10:37:27.419 STDERR [INFO] I0730 10:37:27.418592  9485 net.cpp:156] Memory required for data: 66020
2016-07-30 10:37:27.419 STDERR [INFO] I0730 10:37:27.418612  9485 layer_factory.hpp:77] Creating layer lstm2_gate_input_1
2016-07-30 10:37:27.419 STDERR [INFO] I0730 10:37:27.418632  9485 net.cpp:91] Creating Layer lstm2_gate_input_1
2016-07-30 10:37:27.419 STDERR [INFO] I0730 10:37:27.418639  9485 net.cpp:425] lstm2_gate_input_1 <- W_hc_h_0
2016-07-30 10:37:27.419 STDERR [INFO] I0730 10:37:27.418648  9485 net.cpp:425] lstm2_gate_input_1 <- W_xc_x_1
2016-07-30 10:37:27.419 STDERR [INFO] I0730 10:37:27.418656  9485 net.cpp:399] lstm2_gate_input_1 -> gate_input_1
2016-07-30 10:37:27.419 STDERR [INFO] I0730 10:37:27.418730  9485 net.cpp:141] Setting up lstm2_gate_input_1
2016-07-30 10:37:27.419 STDERR [INFO] I0730 10:37:27.418742  9485 net.cpp:148] Top shape: 1 1 4000 (4000)
2016-07-30 10:37:27.420 STDERR [INFO] I0730 10:37:27.418746  9485 net.cpp:156] Memory required for data: 82020
2016-07-30 10:37:27.420 STDERR [INFO] I0730 10:37:27.418752  9485 layer_factory.hpp:77] Creating layer lstm2_unit_1
2016-07-30 10:37:27.420 STDERR [INFO] I0730 10:37:27.418762  9485 net.cpp:91] Creating Layer lstm2_unit_1
2016-07-30 10:37:27.420 STDERR [INFO] I0730 10:37:27.418767  9485 net.cpp:425] lstm2_unit_1 <- c_0
2016-07-30 10:37:27.420 STDERR [INFO] I0730 10:37:27.418774  9485 net.cpp:425] lstm2_unit_1 <- gate_input_1
2016-07-30 10:37:27.420 STDERR [INFO] I0730 10:37:27.418781  9485 net.cpp:425] lstm2_unit_1 <- cont_1_lstm2_cont_slice_0_split_1
2016-07-30 10:37:27.420 STDERR [INFO] I0730 10:37:27.418790  9485 net.cpp:399] lstm2_unit_1 -> c_1
2016-07-30 10:37:27.420 STDERR [INFO] I0730 10:37:27.418800  9485 net.cpp:399] lstm2_unit_1 -> h_1
2016-07-30 10:37:27.420 STDERR [INFO] I0730 10:37:27.418880  9485 net.cpp:141] Setting up lstm2_unit_1
2016-07-30 10:37:27.420 STDERR [INFO] I0730 10:37:27.418890  9485 net.cpp:148] Top shape: 1 1 1000 (1000)
2016-07-30 10:37:27.420 STDERR [INFO] I0730 10:37:27.418897  9485 net.cpp:148] Top shape: 1 1 1000 (1000)
2016-07-30 10:37:27.421 STDERR [INFO] I0730 10:37:27.418901  9485 net.cpp:156] Memory required for data: 90020
2016-07-30 10:37:27.421 STDERR [INFO] I0730 10:37:27.418906  9485 layer_factory.hpp:77] Creating layer lstm2_
2016-07-30 10:37:27.421 STDERR [INFO] I0730 10:37:27.418920  9485 net.cpp:91] Creating Layer lstm2_
2016-07-30 10:37:27.421 STDERR [INFO] I0730 10:37:27.418925  9485 net.cpp:425] lstm2_ <- c_1
2016-07-30 10:37:27.421 STDERR [INFO] I0730 10:37:27.418932  9485 net.cpp:399] lstm2_ -> c_T
2016-07-30 10:37:27.421 STDERR [INFO] I0730 10:37:27.418965  9485 net.cpp:141] Setting up lstm2_
2016-07-30 10:37:27.421 STDERR [INFO] I0730 10:37:27.418974  9485 net.cpp:148] Top shape: 1 1 1000 (1000)
2016-07-30 10:37:27.421 STDERR [INFO] I0730 10:37:27.418979  9485 net.cpp:156] Memory required for data: 94020
2016-07-30 10:37:27.421 STDERR [INFO] I0730 10:37:27.418984  9485 layer_factory.hpp:77] Creating layer lstm2_h_concat
2016-07-30 10:37:27.421 STDERR [INFO] I0730 10:37:27.418994  9485 net.cpp:91] Creating Layer lstm2_h_concat
2016-07-30 10:37:27.421 STDERR [INFO] I0730 10:37:27.418999  9485 net.cpp:425] lstm2_h_concat <- h_1
2016-07-30 10:37:27.421 STDERR [INFO] I0730 10:37:27.419526  9485 net.cpp:399] lstm2_h_concat -> h
2016-07-30 10:37:27.421 STDERR [INFO] I0730 10:37:27.419600  9485 net.cpp:141] Setting up lstm2_h_concat
2016-07-30 10:37:27.422 STDERR [INFO] I0730 10:37:27.419612  9485 net.cpp:148] Top shape: 1 1 1000 (1000)
2016-07-30 10:37:27.422 STDERR [INFO] I0730 10:37:27.419617  9485 net.cpp:156] Memory required for data: 98020
2016-07-30 10:37:27.422 STDERR [INFO] I0730 10:37:27.419622  9485 layer_factory.hpp:77] Creating layer h_pseudoloss
2016-07-30 10:37:27.422 STDERR [INFO] I0730 10:37:27.419633  9485 net.cpp:91] Creating Layer h_pseudoloss
2016-07-30 10:37:27.422 STDERR [INFO] I0730 10:37:27.419638  9485 net.cpp:425] h_pseudoloss <- h
…
