…
Java HotSpot(TM) 64-Bit Server VM warning: You have loaded library /tmp/cvld5010595576719537676/libopencv_java310.xine1.so which might have disabled stack guard. The VM will try to fix the stack guard now.
It's highly recommended that you fix the library with 'execstack -c <libfile>', or link it with '-z noexecstack'.
WARNING: Logging before InitGoogleLogging() is written to STDERR
I0802 07:35:01.381157 15114 net.cpp:49] Initializing net from parameters: 
name: "CaffeNet"
state {
  phase: TEST
}
layer {
  name: "data"
  type: "Input"
  top: "data"
  input_param {
    shape {
      dim: 10
      dim: 3
      dim: 227
      dim: 227
    }
  }
}
layer {
  name: "conv1"
  type: "Convolution"
  bottom: "data"
  top: "conv1"
  convolution_param {
    num_output: 96
    kernel_size: 11
    stride: 4
  }
}
layer {
  name: "relu1"
  type: "ReLU"
  bottom: "conv1"
  top: "conv1"
}
layer {
  name: "pool1"
  type: "Pooling"
  bottom: "conv1"
  top: "pool1"
  pooling_param {
    pool: MAX
    kernel_size: 3
    stride: 2
  }
}
layer {
  name: "norm1"
  type: "LRN"
  bottom: "pool1"
  top: "norm1"
  lrn_param {
    local_size: 5
    alpha: 0.0001
    beta: 0.75
  }
}
layer {
  name: "conv2"
  type: "Convolution"
  bottom: "norm1"
  top: "conv2"
  convolution_param {
    num_output: 256
    pad: 2
    kernel_size: 5
    group: 2
  }
}
layer {
  name: "relu2"
  type: "ReLU"
  bottom: "conv2"
  top: "conv2"
}
layer {
  name: "pool2"
  type: "Pooling"
  bottom: "conv2"
  top: "pool2"
  pooling_param {
    pool: MAX
    kernel_size: 3
    stride: 2
  }
}
layer {
  name: "norm2"
  type: "LRN"
  bottom: "pool2"
  top: "norm2"
  lrn_param {
    local_size: 5
    alpha: 0.0001
    beta: 0.75
  }
}
layer {
  name: "conv3"
  type: "Convolution"
  bottom: "norm2"
  top: "conv3"
  convolution_param {
    num_output: 384
    pad: 1
    kernel_size: 3
  }
}
layer {
  name: "relu3"
  type: "ReLU"
  bottom: "conv3"
  top: "conv3"
}
layer {
  name: "conv4"
  type: "Convolution"
  bottom: "conv3"
  top: "conv4"
  convolution_param {
    num_output: 384
    pad: 1
    kernel_size: 3
    group: 2
  }
}
layer {
  name: "relu4"
  type: "ReLU"
  bottom: "conv4"
  top: "conv4"
}
layer {
  name: "conv5"
  type: "Convolution"
  bottom: "conv4"
  top: "conv5"
  convolution_param {
    num_output: 256
    pad: 1
    kernel_size: 3
    group: 2
  }
}
layer {
  name: "relu5"
  type: "ReLU"
  bottom: "conv5"
  top: "conv5"
}
layer {
  name: "pool5"
  type: "Pooling"
  bottom: "conv5"
  top: "pool5"
  pooling_param {
    pool: MAX
    kernel_size: 3
    stride: 2
  }
}
layer {
  name: "fc6"
  type: "InnerProduct"
  bottom: "pool5"
  top: "fc6"
  inner_product_param {
    num_output: 4096
  }
}
layer {
  name: "relu6"
  type: "ReLU"
  bottom: "fc6"
  top: "fc6"
}
layer {
  name: "drop6"
  type: "Dropout"
  bottom: "fc6"
  top: "fc6"
  dropout_param {
    dropout_ratio: 0.5
  }
}
layer {
  name: "fc7"
  type: "InnerProduct"
  bottom: "fc6"
  top: "fc7"
  inner_product_param {
    num_output: 4096
  }
}
layer {
  name: "relu7"
  type: "ReLU"
  bottom: "fc7"
  top: "fc7"
}
layer {
  name: "drop7"
  type: "Dropout"
  bottom: "fc7"
  top: "fc7"
  dropout_param {
    dropout_ratio: 0.5
  }
}
layer {
  name: "fc8"
  type: "InnerProduct"
  bottom: "fc7"
  top: "fc8"
  inner_product_param {
    num_output: 1000
  }
}
layer {
  name: "prob"
  type: "Softmax"
  bottom: "fc8"
  top: "prob"
}
I0802 07:35:01.381366 15114 layer_factory.hpp:77] Creating layer data
I0802 07:35:01.381394 15114 net.cpp:91] Creating Layer data
I0802 07:35:01.381413 15114 net.cpp:399] data -> data
I0802 07:35:01.854678 15104 upgrade_proto.cpp:66] Attempting to upgrade input file specified using deprecated input fields: /tmp/cvld5010595576719537676/s2vt.words_to_preds.prototxt
I0802 07:35:01.854732 15104 upgrade_proto.cpp:69] Successfully upgraded file specified using deprecated input fields.
W0802 07:35:01.854740 15104 upgrade_proto.cpp:71] Note that future Caffe releases will only support input layers and not input fields.
I0802 07:35:01.855044 15104 net.cpp:49] Initializing net from parameters: 
name: "s2vt:features_to_lstm"
state {
  phase: TEST
}
layer {
  name: "input"
  type: "Input"
  top: "frames_fc7"
  top: "cont_sentence"
  top: "input_sentence"
  top: "stage_indicator"
  input_param {
    shape {
      dim: 1
      dim: 4096
    }
    shape {
      dim: 1
      dim: 1
    }
    shape {
      dim: 1
      dim: 1
    }
    shape {
      dim: 1
      dim: 1
    }
  }
}
layer {
  name: "embed_encoder"
  type: "InnerProduct"
  bottom: "frames_fc7"
  top: "embedded_in_frames"
  param {
    lr_mult: 1
    decay_mult: 1
  }
  param {
    lr_mult: 2
    decay_mult: 0
  }
  inner_product_param {
    num_output: 500
    weight_filler {
      type: "xavier"
    }
    bias_filler {
      type: "constant"
      value: 0.2
    }
  }
}
layer {
  name: "reshape_frames"
  type: "Reshape"
  bottom: "embedded_in_frames"
  top: "embedded_input_frames"
  reshape_param {
    shape {
      dim: 1
      dim: 1
      dim: 500
    }
  }
}
layer {
  name: "reshape_stage_indicator"
  type: "Reshape"
  bottom: "stage_indicator"
  top: "reshaped_stage_indicator"
  reshape_param {
    shape {
      dim: 1
      dim: 1
      dim: 1
    }
  }
}
layer {
  name: "embedding"
  type: "Embed"
  bottom: "input_sentence"
  top: "embedded_input_sentence"
  param {
    lr_mult: 1
  }
  embed_param {
    num_output: 500
    input_dim: 46168
    bias_term: false
    weight_filler {
      type: "uniform"
      min: -0.08
      max: 0.08
    }
  }
}
layer {
  name: "lstm1"
  type: "LSTM"
  bottom: "embedded_input_frames"
  bottom: "cont_sentence"
  top: "lstm1"
  recurrent_param {
    num_output: 1000
    weight_filler {
      type: "uniform"
      min: -0.08
      max: 0.08
    }
    bias_filler {
      type: "constant"
      value: 0
    }
  }
}
layer {
  name: "concat"
  type: "Concat"
  bottom: "lstm1"
  bottom: "embedded_input_sentence"
  bottom: "reshaped_stage_indicator"
  top: "lstm1_video_sequence"
  concat_param {
    concat_dim: 2
  }
}
layer {
  name: "lstm2"
  type: "LSTM"
  bottom: "lstm1_video_sequence"
  bottom: "cont_sentence"
  top: "lstm2"
  recurrent_param {
    num_output: 1000
    weight_filler {
      type: "uniform"
      min: -0.08
      max: 0.08
    }
    bias_filler {
      type: "constant"
      value: 0
    }
  }
}
layer {
  name: "predict"
  type: "InnerProduct"
  bottom: "lstm2"
  top: "predict"
  param {
    lr_mult: 1
    decay_mult: 1
  }
  param {
    lr_mult: 2
    decay_mult: 0
  }
  inner_product_param {
    num_output: 46168
    weight_filler {
      type: "uniform"
      min: -0.08
      max: 0.08
    }
    bias_filler {
      type: "constant"
      value: 0
    }
    axis: 2
  }
}
layer {
  name: "probs"
  type: "Softmax"
  bottom: "predict"
  top: "probs"
  softmax_param {
    axis: 2
  }
}
I0802 07:35:01.855196 15104 layer_factory.hpp:77] Creating layer input
I0802 07:35:01.855213 15104 net.cpp:91] Creating Layer input
I0802 07:35:01.855221 15104 net.cpp:399] input -> frames_fc7
I0802 07:35:01.855237 15104 net.cpp:399] input -> cont_sentence
I0802 07:35:01.855250 15104 net.cpp:399] input -> input_sentence
I0802 07:35:01.855259 15104 net.cpp:399] input -> stage_indicator
I0802 07:35:01.875691 15114 net.cpp:141] Setting up data
I0802 07:35:01.875753 15114 net.cpp:148] Top shape: 10 3 227 227 (1545870)
I0802 07:35:01.875759 15114 net.cpp:156] Memory required for data: 6183480
I0802 07:35:01.875780 15114 layer_factory.hpp:77] Creating layer conv1
I0802 07:35:01.875782 15104 net.cpp:141] Setting up input
I0802 07:35:01.875808 15104 net.cpp:148] Top shape: 1 4096 (4096)
I0802 07:35:01.875809 15114 net.cpp:91] Creating Layer conv1
I0802 07:35:01.875818 15104 net.cpp:148] Top shape: 1 1 (1)
I0802 07:35:01.875819 15114 net.cpp:425] conv1 <- data
I0802 07:35:01.875823 15104 net.cpp:148] Top shape: 1 1 (1)
I0802 07:35:01.875828 15104 net.cpp:148] Top shape: 1 1 (1)
I0802 07:35:01.875833 15104 net.cpp:156] Memory required for data: 16396
I0802 07:35:01.875833 15114 net.cpp:399] conv1 -> conv1
I0802 07:35:01.875838 15104 layer_factory.hpp:77] Creating layer cont_sentence_input_1_split
I0802 07:35:01.875857 15104 net.cpp:91] Creating Layer cont_sentence_input_1_split
I0802 07:35:01.875864 15104 net.cpp:425] cont_sentence_input_1_split <- cont_sentence
I0802 07:35:01.875885 15104 net.cpp:399] cont_sentence_input_1_split -> cont_sentence_input_1_split_0
I0802 07:35:01.875896 15104 net.cpp:399] cont_sentence_input_1_split -> cont_sentence_input_1_split_1
I0802 07:35:01.876081 15104 net.cpp:141] Setting up cont_sentence_input_1_split
I0802 07:35:01.876093 15104 net.cpp:148] Top shape: 1 1 (1)
I0802 07:35:01.876099 15104 net.cpp:148] Top shape: 1 1 (1)
I0802 07:35:01.876103 15104 net.cpp:156] Memory required for data: 16404
I0802 07:35:01.876108 15104 layer_factory.hpp:77] Creating layer embed_encoder
I0802 07:35:01.876132 15104 net.cpp:91] Creating Layer embed_encoder
I0802 07:35:01.876138 15104 net.cpp:425] embed_encoder <- frames_fc7
I0802 07:35:01.876145 15104 net.cpp:399] embed_encoder -> embedded_in_frames
I0802 07:35:01.898877 15104 net.cpp:141] Setting up embed_encoder
I0802 07:35:01.898922 15104 net.cpp:148] Top shape: 1 500 (500)
I0802 07:35:01.898928 15104 net.cpp:156] Memory required for data: 18404
I0802 07:35:01.898952 15104 layer_factory.hpp:77] Creating layer reshape_frames
I0802 07:35:01.898975 15104 net.cpp:91] Creating Layer reshape_frames
I0802 07:35:01.898983 15104 net.cpp:425] reshape_frames <- embedded_in_frames
I0802 07:35:01.899000 15104 net.cpp:399] reshape_frames -> embedded_input_frames
I0802 07:35:01.899307 15104 net.cpp:141] Setting up reshape_frames
I0802 07:35:01.899318 15104 net.cpp:148] Top shape: 1 1 500 (500)
I0802 07:35:01.899322 15104 net.cpp:156] Memory required for data: 20404
I0802 07:35:01.899327 15104 layer_factory.hpp:77] Creating layer reshape_stage_indicator
I0802 07:35:01.899338 15104 net.cpp:91] Creating Layer reshape_stage_indicator
I0802 07:35:01.899343 15104 net.cpp:425] reshape_stage_indicator <- stage_indicator
I0802 07:35:01.899354 15104 net.cpp:399] reshape_stage_indicator -> reshaped_stage_indicator
I0802 07:35:01.899457 15104 net.cpp:141] Setting up reshape_stage_indicator
I0802 07:35:01.899467 15104 net.cpp:148] Top shape: 1 1 1 (1)
I0802 07:35:01.899471 15104 net.cpp:156] Memory required for data: 20408
I0802 07:35:01.899477 15104 layer_factory.hpp:77] Creating layer embedding
I0802 07:35:01.899487 15104 net.cpp:91] Creating Layer embedding
I0802 07:35:01.899492 15104 net.cpp:425] embedding <- input_sentence
I0802 07:35:01.899500 15104 net.cpp:399] embedding -> embedded_input_sentence
I0802 07:35:02.125279 15114 net.cpp:141] Setting up conv1
I0802 07:35:02.125342 15114 net.cpp:148] Top shape: 10 96 55 55 (2904000)
I0802 07:35:02.125349 15114 net.cpp:156] Memory required for data: 17799480
I0802 07:35:02.125370 15114 layer_factory.hpp:77] Creating layer relu1
I0802 07:35:02.125387 15114 net.cpp:91] Creating Layer relu1
I0802 07:35:02.125393 15114 net.cpp:425] relu1 <- conv1
I0802 07:35:02.125401 15114 net.cpp:386] relu1 -> conv1 (in-place)
I0802 07:35:02.125823 15114 net.cpp:141] Setting up relu1
I0802 07:35:02.125835 15114 net.cpp:148] Top shape: 10 96 55 55 (2904000)
I0802 07:35:02.125840 15114 net.cpp:156] Memory required for data: 29415480
I0802 07:35:02.125846 15114 layer_factory.hpp:77] Creating layer pool1
I0802 07:35:02.125859 15114 net.cpp:91] Creating Layer pool1
I0802 07:35:02.125864 15114 net.cpp:425] pool1 <- conv1
I0802 07:35:02.125870 15114 net.cpp:399] pool1 -> pool1
I0802 07:35:02.125931 15114 net.cpp:141] Setting up pool1
I0802 07:35:02.125941 15114 net.cpp:148] Top shape: 10 96 27 27 (699840)
I0802 07:35:02.125946 15114 net.cpp:156] Memory required for data: 32214840
I0802 07:35:02.125951 15114 layer_factory.hpp:77] Creating layer norm1
I0802 07:35:02.125967 15114 net.cpp:91] Creating Layer norm1
I0802 07:35:02.125972 15114 net.cpp:425] norm1 <- pool1
I0802 07:35:02.125978 15114 net.cpp:399] norm1 -> norm1
I0802 07:35:02.126430 15114 net.cpp:141] Setting up norm1
I0802 07:35:02.126444 15114 net.cpp:148] Top shape: 10 96 27 27 (699840)
I0802 07:35:02.126448 15114 net.cpp:156] Memory required for data: 35014200
I0802 07:35:02.126454 15114 layer_factory.hpp:77] Creating layer conv2
I0802 07:35:02.126469 15114 net.cpp:91] Creating Layer conv2
I0802 07:35:02.126474 15114 net.cpp:425] conv2 <- norm1
I0802 07:35:02.126482 15114 net.cpp:399] conv2 -> conv2
I0802 07:35:02.129698 15114 net.cpp:141] Setting up conv2
I0802 07:35:02.129716 15114 net.cpp:148] Top shape: 10 256 27 27 (1866240)
I0802 07:35:02.129721 15114 net.cpp:156] Memory required for data: 42479160
I0802 07:35:02.129734 15114 layer_factory.hpp:77] Creating layer relu2
I0802 07:35:02.129742 15114 net.cpp:91] Creating Layer relu2
I0802 07:35:02.129747 15114 net.cpp:425] relu2 <- conv2
I0802 07:35:02.129758 15114 net.cpp:386] relu2 -> conv2 (in-place)
I0802 07:35:02.130198 15114 net.cpp:141] Setting up relu2
I0802 07:35:02.130211 15114 net.cpp:148] Top shape: 10 256 27 27 (1866240)
I0802 07:35:02.130215 15114 net.cpp:156] Memory required for data: 49944120
I0802 07:35:02.130220 15114 layer_factory.hpp:77] Creating layer pool2
I0802 07:35:02.130233 15114 net.cpp:91] Creating Layer pool2
I0802 07:35:02.130239 15114 net.cpp:425] pool2 <- conv2
I0802 07:35:02.130245 15114 net.cpp:399] pool2 -> pool2
I0802 07:35:02.130300 15114 net.cpp:141] Setting up pool2
I0802 07:35:02.130309 15114 net.cpp:148] Top shape: 10 256 13 13 (432640)
I0802 07:35:02.130313 15114 net.cpp:156] Memory required for data: 51674680
I0802 07:35:02.130318 15114 layer_factory.hpp:77] Creating layer norm2
I0802 07:35:02.130329 15114 net.cpp:91] Creating Layer norm2
I0802 07:35:02.130334 15114 net.cpp:425] norm2 <- pool2
I0802 07:35:02.130342 15114 net.cpp:399] norm2 -> norm2
I0802 07:35:02.130590 15114 net.cpp:141] Setting up norm2
I0802 07:35:02.130601 15114 net.cpp:148] Top shape: 10 256 13 13 (432640)
I0802 07:35:02.130605 15114 net.cpp:156] Memory required for data: 53405240
I0802 07:35:02.130610 15114 layer_factory.hpp:77] Creating layer conv3
I0802 07:35:02.130623 15114 net.cpp:91] Creating Layer conv3
I0802 07:35:02.130628 15114 net.cpp:425] conv3 <- norm2
I0802 07:35:02.130635 15114 net.cpp:399] conv3 -> conv3
I0802 07:35:02.134325 15114 net.cpp:141] Setting up conv3
I0802 07:35:02.134343 15114 net.cpp:148] Top shape: 10 384 13 13 (648960)
I0802 07:35:02.134348 15114 net.cpp:156] Memory required for data: 56001080
I0802 07:35:02.134374 15114 layer_factory.hpp:77] Creating layer relu3
I0802 07:35:02.134383 15114 net.cpp:91] Creating Layer relu3
I0802 07:35:02.134388 15114 net.cpp:425] relu3 <- conv3
I0802 07:35:02.134399 15114 net.cpp:386] relu3 -> conv3 (in-place)
I0802 07:35:02.134831 15114 net.cpp:141] Setting up relu3
I0802 07:35:02.134845 15114 net.cpp:148] Top shape: 10 384 13 13 (648960)
I0802 07:35:02.134848 15114 net.cpp:156] Memory required for data: 58596920
I0802 07:35:02.134853 15114 layer_factory.hpp:77] Creating layer conv4
I0802 07:35:02.134868 15114 net.cpp:91] Creating Layer conv4
I0802 07:35:02.134873 15114 net.cpp:425] conv4 <- conv3
I0802 07:35:02.134883 15114 net.cpp:399] conv4 -> conv4
I0802 07:35:02.138877 15114 net.cpp:141] Setting up conv4
I0802 07:35:02.138908 15114 net.cpp:148] Top shape: 10 384 13 13 (648960)
I0802 07:35:02.138914 15114 net.cpp:156] Memory required for data: 61192760
I0802 07:35:02.138923 15114 layer_factory.hpp:77] Creating layer relu4
I0802 07:35:02.138936 15114 net.cpp:91] Creating Layer relu4
I0802 07:35:02.138941 15114 net.cpp:425] relu4 <- conv4
I0802 07:35:02.138947 15114 net.cpp:386] relu4 -> conv4 (in-place)
I0802 07:35:02.139381 15114 net.cpp:141] Setting up relu4
I0802 07:35:02.139394 15114 net.cpp:148] Top shape: 10 384 13 13 (648960)
I0802 07:35:02.139400 15114 net.cpp:156] Memory required for data: 63788600
I0802 07:35:02.139405 15114 layer_factory.hpp:77] Creating layer conv5
I0802 07:35:02.139416 15114 net.cpp:91] Creating Layer conv5
I0802 07:35:02.139421 15114 net.cpp:425] conv5 <- conv4
I0802 07:35:02.139432 15114 net.cpp:399] conv5 -> conv5
I0802 07:35:02.143270 15114 net.cpp:141] Setting up conv5
I0802 07:35:02.143301 15114 net.cpp:148] Top shape: 10 256 13 13 (432640)
I0802 07:35:02.143306 15114 net.cpp:156] Memory required for data: 65519160
I0802 07:35:02.143321 15114 layer_factory.hpp:77] Creating layer relu5
I0802 07:35:02.143331 15114 net.cpp:91] Creating Layer relu5
I0802 07:35:02.143335 15114 net.cpp:425] relu5 <- conv5
I0802 07:35:02.143342 15114 net.cpp:386] relu5 -> conv5 (in-place)
I0802 07:35:02.143788 15114 net.cpp:141] Setting up relu5
I0802 07:35:02.143803 15114 net.cpp:148] Top shape: 10 256 13 13 (432640)
I0802 07:35:02.143808 15114 net.cpp:156] Memory required for data: 67249720
I0802 07:35:02.143813 15114 layer_factory.hpp:77] Creating layer pool5
I0802 07:35:02.143824 15114 net.cpp:91] Creating Layer pool5
I0802 07:35:02.143828 15114 net.cpp:425] pool5 <- conv5
I0802 07:35:02.143836 15114 net.cpp:399] pool5 -> pool5
I0802 07:35:02.143896 15114 net.cpp:141] Setting up pool5
I0802 07:35:02.143906 15114 net.cpp:148] Top shape: 10 256 6 6 (92160)
I0802 07:35:02.143910 15114 net.cpp:156] Memory required for data: 67618360
I0802 07:35:02.143914 15114 layer_factory.hpp:77] Creating layer fc6
I0802 07:35:02.143929 15114 net.cpp:91] Creating Layer fc6
I0802 07:35:02.143934 15114 net.cpp:425] fc6 <- pool5
I0802 07:35:02.143941 15114 net.cpp:399] fc6 -> fc6
I0802 07:35:02.206019 15104 net.cpp:141] Setting up embedding
I0802 07:35:02.206068 15104 net.cpp:148] Top shape: 1 1 500 (500)
I0802 07:35:02.206073 15104 net.cpp:156] Memory required for data: 22408
I0802 07:35:02.206092 15104 layer_factory.hpp:77] Creating layer lstm1
I0802 07:35:02.206111 15104 net.cpp:91] Creating Layer lstm1
I0802 07:35:02.206120 15104 net.cpp:425] lstm1 <- embedded_input_frames
I0802 07:35:02.206127 15104 net.cpp:425] lstm1 <- cont_sentence_input_1_split_0
I0802 07:35:02.206138 15104 net.cpp:399] lstm1 -> lstm1
I0802 07:35:02.206172 15104 recurrent_layer.cpp:20] Initializing recurrent layer: assuming input batch contains 1 timesteps of 1 independent streams.
I0802 07:35:02.206540 15104 net.cpp:49] Initializing net from parameters: 
layer {
  name: "lstm1_"
  type: "Input"
  top: "x"
  top: "cont"
  input_param {
    shape {
      dim: 1
      dim: 1
      dim: 500
    }
    shape {
      dim: 1
      dim: 1
    }
  }
}
layer {
  name: "lstm1_"
  type: "Input"
  top: "c_0"
  top: "h_0"
  input_param {
    shape {
      dim: 1
      dim: 1
      dim: 1000
    }
    shape {
      dim: 1
      dim: 1
      dim: 1000
    }
  }
}
layer {
  name: "lstm1_cont_slice"
  type: "Slice"
  bottom: "cont"
  top: "cont_1"
  slice_param {
    axis: 0
  }
}
layer {
  name: "lstm1_x_transform"
  type: "InnerProduct"
  bottom: "x"
  top: "W_xc_x"
  param {
    name: "W_xc"
  }
  param {
    name: "b_c"
  }
  propagate_down: true
  inner_product_param {
    num_output: 4000
    bias_term: true
    weight_filler {
      type: "uniform"
      min: -0.08
      max: 0.08
    }
    bias_filler {
      type: "constant"
      value: 0
    }
    axis: 2
  }
}
layer {
  name: "lstm1_W_xc_x_slice"
  type: "Slice"
  bottom: "W_xc_x"
  top: "W_xc_x_1"
  slice_param {
    axis: 0
  }
}
layer {
  name: "lstm1_h_conted_0"
  type: "Scale"
  bottom: "h_0"
  bottom: "cont_1"
  top: "h_conted_0"
  scale_param {
    axis: 0
  }
}
layer {
  name: "lstm1_transform_1"
  type: "InnerProduct"
  bottom: "h_conted_0"
  top: "W_hc_h_0"
  param {
    name: "W_hc"
  }
  inner_product_param {
    num_output: 4000
    bias_term: false
    weight_filler {
      type: "uniform"
      min: -0.08
      max: 0.08
    }
    axis: 2
  }
}
layer {
  name: "lstm1_gate_input_1"
  type: "Eltwise"
  bottom: "W_hc_h_0"
  bottom: "W_xc_x_1"
  top: "gate_input_1"
  eltwise_param {
    operation: SUM
  }
}
layer {
  name: "lstm1_unit_1"
  type: "LSTMUnit"
  bottom: "c_0"
  bottom: "gate_input_1"
  bottom: "cont_1"
  top: "c_1"
  top: "h_1"
}
layer {
  name: "lstm1_"
  type: "Split"
  bottom: "c_1"
  top: "c_T"
}
layer {
  name: "lstm1_h_concat"
  type: "Concat"
  bottom: "h_1"
  top: "h"
  concat_param {
    axis: 0
  }
}
layer {
  name: "h_pseudoloss"
  type: "Reduction"
  bottom: "h"
  top: "h_pseudoloss"
  loss_weight: 1
}
I0802 07:35:02.206630 15104 layer_factory.hpp:77] Creating layer lstm1_
I0802 07:35:02.206642 15104 net.cpp:91] Creating Layer lstm1_
I0802 07:35:02.206648 15104 net.cpp:399] lstm1_ -> x
I0802 07:35:02.206660 15104 net.cpp:399] lstm1_ -> cont
I0802 07:35:02.206730 15104 net.cpp:141] Setting up lstm1_
I0802 07:35:02.206740 15104 net.cpp:148] Top shape: 1 1 500 (500)
I0802 07:35:02.206746 15104 net.cpp:148] Top shape: 1 1 (1)
I0802 07:35:02.206750 15104 net.cpp:156] Memory required for data: 2004
I0802 07:35:02.206755 15104 layer_factory.hpp:77] Creating layer lstm1_
I0802 07:35:02.206766 15104 net.cpp:91] Creating Layer lstm1_
I0802 07:35:02.206781 15104 net.cpp:399] lstm1_ -> c_0
I0802 07:35:02.206799 15104 net.cpp:399] lstm1_ -> h_0
I0802 07:35:02.206868 15104 net.cpp:141] Setting up lstm1_
I0802 07:35:02.206881 15104 net.cpp:148] Top shape: 1 1 1000 (1000)
I0802 07:35:02.206887 15104 net.cpp:148] Top shape: 1 1 1000 (1000)
I0802 07:35:02.206890 15104 net.cpp:156] Memory required for data: 10004
I0802 07:35:02.206895 15104 layer_factory.hpp:77] Creating layer lstm1_cont_slice
I0802 07:35:02.206907 15104 net.cpp:91] Creating Layer lstm1_cont_slice
I0802 07:35:02.206912 15104 net.cpp:425] lstm1_cont_slice <- cont
I0802 07:35:02.206919 15104 net.cpp:399] lstm1_cont_slice -> cont_1
I0802 07:35:02.206955 15104 net.cpp:141] Setting up lstm1_cont_slice
I0802 07:35:02.206964 15104 net.cpp:148] Top shape: 1 1 (1)
I0802 07:35:02.206969 15104 net.cpp:156] Memory required for data: 10008
I0802 07:35:02.206972 15104 layer_factory.hpp:77] Creating layer cont_1_lstm1_cont_slice_0_split
I0802 07:35:02.206980 15104 net.cpp:91] Creating Layer cont_1_lstm1_cont_slice_0_split
I0802 07:35:02.206984 15104 net.cpp:425] cont_1_lstm1_cont_slice_0_split <- cont_1
I0802 07:35:02.206995 15104 net.cpp:399] cont_1_lstm1_cont_slice_0_split -> cont_1_lstm1_cont_slice_0_split_0
I0802 07:35:02.207002 15104 net.cpp:399] cont_1_lstm1_cont_slice_0_split -> cont_1_lstm1_cont_slice_0_split_1
I0802 07:35:02.207049 15104 net.cpp:141] Setting up cont_1_lstm1_cont_slice_0_split
I0802 07:35:02.207057 15104 net.cpp:148] Top shape: 1 1 (1)
I0802 07:35:02.207063 15104 net.cpp:148] Top shape: 1 1 (1)
I0802 07:35:02.207067 15104 net.cpp:156] Memory required for data: 10016
I0802 07:35:02.207072 15104 layer_factory.hpp:77] Creating layer lstm1_x_transform
I0802 07:35:02.207082 15104 net.cpp:91] Creating Layer lstm1_x_transform
I0802 07:35:02.207087 15104 net.cpp:425] lstm1_x_transform <- x
I0802 07:35:02.207093 15104 net.cpp:399] lstm1_x_transform -> W_xc_x
I0802 07:35:02.229307 15104 net.cpp:141] Setting up lstm1_x_transform
I0802 07:35:02.229362 15104 net.cpp:148] Top shape: 1 1 4000 (4000)
I0802 07:35:02.229367 15104 net.cpp:156] Memory required for data: 26016
I0802 07:35:02.229388 15104 layer_factory.hpp:77] Creating layer lstm1_W_xc_x_slice
I0802 07:35:02.229406 15104 net.cpp:91] Creating Layer lstm1_W_xc_x_slice
I0802 07:35:02.229413 15104 net.cpp:425] lstm1_W_xc_x_slice <- W_xc_x
I0802 07:35:02.229424 15104 net.cpp:399] lstm1_W_xc_x_slice -> W_xc_x_1
I0802 07:35:02.229467 15104 net.cpp:141] Setting up lstm1_W_xc_x_slice
I0802 07:35:02.229477 15104 net.cpp:148] Top shape: 1 1 4000 (4000)
I0802 07:35:02.229481 15104 net.cpp:156] Memory required for data: 42016
I0802 07:35:02.229486 15104 layer_factory.hpp:77] Creating layer lstm1_h_conted_0
I0802 07:35:02.229499 15104 net.cpp:91] Creating Layer lstm1_h_conted_0
I0802 07:35:02.229504 15104 net.cpp:425] lstm1_h_conted_0 <- h_0
I0802 07:35:02.229511 15104 net.cpp:425] lstm1_h_conted_0 <- cont_1_lstm1_cont_slice_0_split_0
I0802 07:35:02.229517 15104 net.cpp:399] lstm1_h_conted_0 -> h_conted_0
I0802 07:35:02.229604 15104 net.cpp:141] Setting up lstm1_h_conted_0
I0802 07:35:02.229614 15104 net.cpp:148] Top shape: 1 1 1000 (1000)
I0802 07:35:02.229617 15104 net.cpp:156] Memory required for data: 46016
I0802 07:35:02.229622 15104 layer_factory.hpp:77] Creating layer lstm1_transform_1
I0802 07:35:02.229640 15104 net.cpp:91] Creating Layer lstm1_transform_1
I0802 07:35:02.229645 15104 net.cpp:425] lstm1_transform_1 <- h_conted_0
I0802 07:35:02.229653 15104 net.cpp:399] lstm1_transform_1 -> W_hc_h_0
I0802 07:35:02.247781 15114 net.cpp:141] Setting up fc6
I0802 07:35:02.247840 15114 net.cpp:148] Top shape: 10 4096 (40960)
I0802 07:35:02.247851 15114 net.cpp:156] Memory required for data: 67782200
I0802 07:35:02.247872 15114 layer_factory.hpp:77] Creating layer relu6
I0802 07:35:02.247892 15114 net.cpp:91] Creating Layer relu6
I0802 07:35:02.247902 15114 net.cpp:425] relu6 <- fc6
I0802 07:35:02.247921 15114 net.cpp:386] relu6 -> fc6 (in-place)
I0802 07:35:02.248388 15114 net.cpp:141] Setting up relu6
I0802 07:35:02.248404 15114 net.cpp:148] Top shape: 10 4096 (40960)
I0802 07:35:02.248411 15114 net.cpp:156] Memory required for data: 67946040
I0802 07:35:02.248420 15114 layer_factory.hpp:77] Creating layer drop6
I0802 07:35:02.248438 15114 net.cpp:91] Creating Layer drop6
I0802 07:35:02.248447 15114 net.cpp:425] drop6 <- fc6
I0802 07:35:02.248459 15114 net.cpp:386] drop6 -> fc6 (in-place)
I0802 07:35:02.248528 15114 net.cpp:141] Setting up drop6
I0802 07:35:02.248541 15114 net.cpp:148] Top shape: 10 4096 (40960)
I0802 07:35:02.248548 15114 net.cpp:156] Memory required for data: 68109880
I0802 07:35:02.248556 15114 layer_factory.hpp:77] Creating layer fc7
I0802 07:35:02.248571 15114 net.cpp:91] Creating Layer fc7
I0802 07:35:02.248579 15114 net.cpp:425] fc7 <- fc6
I0802 07:35:02.248594 15114 net.cpp:399] fc7 -> fc7
I0802 07:35:02.279469 15104 net.cpp:141] Setting up lstm1_transform_1
I0802 07:35:02.279525 15104 net.cpp:148] Top shape: 1 1 4000 (4000)
I0802 07:35:02.279531 15104 net.cpp:156] Memory required for data: 62016
I0802 07:35:02.279562 15104 layer_factory.hpp:77] Creating layer lstm1_gate_input_1
I0802 07:35:02.279582 15104 net.cpp:91] Creating Layer lstm1_gate_input_1
I0802 07:35:02.279590 15104 net.cpp:425] lstm1_gate_input_1 <- W_hc_h_0
I0802 07:35:02.279598 15104 net.cpp:425] lstm1_gate_input_1 <- W_xc_x_1
I0802 07:35:02.279609 15104 net.cpp:399] lstm1_gate_input_1 -> gate_input_1
I0802 07:35:02.279675 15104 net.cpp:141] Setting up lstm1_gate_input_1
I0802 07:35:02.279685 15104 net.cpp:148] Top shape: 1 1 4000 (4000)
I0802 07:35:02.279688 15104 net.cpp:156] Memory required for data: 78016
I0802 07:35:02.279693 15104 layer_factory.hpp:77] Creating layer lstm1_unit_1
I0802 07:35:02.279706 15104 net.cpp:91] Creating Layer lstm1_unit_1
I0802 07:35:02.279711 15104 net.cpp:425] lstm1_unit_1 <- c_0
I0802 07:35:02.279716 15104 net.cpp:425] lstm1_unit_1 <- gate_input_1
I0802 07:35:02.279721 15104 net.cpp:425] lstm1_unit_1 <- cont_1_lstm1_cont_slice_0_split_1
I0802 07:35:02.279728 15104 net.cpp:399] lstm1_unit_1 -> c_1
I0802 07:35:02.279736 15104 net.cpp:399] lstm1_unit_1 -> h_1
I0802 07:35:02.279798 15104 net.cpp:141] Setting up lstm1_unit_1
I0802 07:35:02.279808 15104 net.cpp:148] Top shape: 1 1 1000 (1000)
I0802 07:35:02.279814 15104 net.cpp:148] Top shape: 1 1 1000 (1000)
I0802 07:35:02.279817 15104 net.cpp:156] Memory required for data: 86016
I0802 07:35:02.279822 15104 layer_factory.hpp:77] Creating layer lstm1_
I0802 07:35:02.279830 15104 net.cpp:91] Creating Layer lstm1_
I0802 07:35:02.279835 15104 net.cpp:425] lstm1_ <- c_1
I0802 07:35:02.279844 15104 net.cpp:399] lstm1_ -> c_T
I0802 07:35:02.279873 15104 net.cpp:141] Setting up lstm1_
I0802 07:35:02.279881 15104 net.cpp:148] Top shape: 1 1 1000 (1000)
I0802 07:35:02.279886 15104 net.cpp:156] Memory required for data: 90016
I0802 07:35:02.279891 15104 layer_factory.hpp:77] Creating layer lstm1_h_concat
I0802 07:35:02.279899 15104 net.cpp:91] Creating Layer lstm1_h_concat
I0802 07:35:02.279904 15104 net.cpp:425] lstm1_h_concat <- h_1
I0802 07:35:02.279911 15104 net.cpp:399] lstm1_h_concat -> h
I0802 07:35:02.279955 15104 net.cpp:141] Setting up lstm1_h_concat
I0802 07:35:02.279964 15104 net.cpp:148] Top shape: 1 1 1000 (1000)
I0802 07:35:02.279968 15104 net.cpp:156] Memory required for data: 94016
I0802 07:35:02.279973 15104 layer_factory.hpp:77] Creating layer h_pseudoloss
I0802 07:35:02.279986 15104 net.cpp:91] Creating Layer h_pseudoloss
I0802 07:35:02.279991 15104 net.cpp:425] h_pseudoloss <- h
I0802 07:35:02.279999 15104 net.cpp:399] h_pseudoloss -> h_pseudoloss
I0802 07:35:02.280115 15104 net.cpp:141] Setting up h_pseudoloss
…
I0802 07:35:02.280242 15104 net.cpp:219] lstm1_ does not need backward computation.
I0802 07:35:02.280246 15104 net.cpp:261] This network produces output c_T
I0802 07:35:02.280257 15104 net.cpp:261] This network produces output h_pseudoloss
I0802 07:35:02.280273 15104 net.cpp:274] Network initialization done.
I0802 07:35:02.280333 15104 recurrent_layer.cpp:150] Adding parameter 0: W_xc
I0802 07:35:02.280339 15104 recurrent_layer.cpp:150] Adding parameter 1: b_c
I0802 07:35:02.280344 15104 recurrent_layer.cpp:150] Adding parameter 2: W_hc
I0802 07:35:02.280457 15104 net.cpp:141] Setting up lstm1
I0802 07:35:02.280468 15104 net.cpp:148] Top shape: 1 1 1000 (1000)
I0802 07:35:02.280472 15104 net.cpp:156] Memory required for data: 26408
I0802 07:35:02.280485 15104 layer_factory.hpp:77] Creating layer concat
I0802 07:35:02.280493 15104 net.cpp:91] Creating Layer concat
I0802 07:35:02.280499 15104 net.cpp:425] concat <- lstm1
I0802 07:35:02.280505 15104 net.cpp:425] concat <- embedded_input_sentence
I0802 07:35:02.280510 15104 net.cpp:425] concat <- reshaped_stage_indicator
I0802 07:35:02.280516 15104 net.cpp:399] concat -> lstm1_video_sequence
I0802 07:35:02.280550 15104 net.cpp:141] Setting up concat
I0802 07:35:02.280557 15104 net.cpp:148] Top shape: 1 1 1501 (1501)
I0802 07:35:02.280561 15104 net.cpp:156] Memory required for data: 32412
I0802 07:35:02.280566 15104 layer_factory.hpp:77] Creating layer lstm2
I0802 07:35:02.280577 15104 net.cpp:91] Creating Layer lstm2
I0802 07:35:02.280583 15104 net.cpp:425] lstm2 <- lstm1_video_sequence
I0802 07:35:02.280589 15104 net.cpp:425] lstm2 <- cont_sentence_input_1_split_1
I0802 07:35:02.280596 15104 net.cpp:399] lstm2 -> lstm2
I0802 07:35:02.280606 15104 recurrent_layer.cpp:20] Initializing recurrent layer: assuming input batch contains 1 timesteps of 1 independent streams.
I0802 07:35:02.280855 15104 net.cpp:49] Initializing net from parameters: 
layer {
  name: "lstm2_"
  type: "Input"
  top: "x"
  top: "cont"
  input_param {
    shape {
      dim: 1
      dim: 1
      dim: 1501
    }
    shape {
      dim: 1
      dim: 1
    }
  }
}
layer {
  name: "lstm2_"
  type: "Input"
  top: "c_0"
  top: "h_0"
  input_param {
    shape {
      dim: 1
      dim: 1
      dim: 1000
    }
    shape {
      dim: 1
      dim: 1
      dim: 1000
    }
  }
}
layer {
  name: "lstm2_cont_slice"
  type: "Slice"
  bottom: "cont"
  top: "cont_1"
  slice_param {
    axis: 0
  }
}
layer {
  name: "lstm2_x_transform"
  type: "InnerProduct"
  bottom: "x"
  top: "W_xc_x"
  param {
    name: "W_xc"
  }
  param {
    name: "b_c"
  }
  propagate_down: true
  inner_product_param {
    num_output: 4000
    bias_term: true
    weight_filler {
      type: "uniform"
      min: -0.08
      max: 0.08
    }
    bias_filler {
      type: "constant"
      value: 0
    }
    axis: 2
  }
}
layer {
  name: "lstm2_W_xc_x_slice"
  type: "Slice"
  bottom: "W_xc_x"
  top: "W_xc_x_1"
  slice_param {
    axis: 0
  }
}
layer {
  name: "lstm2_h_conted_0"
  type: "Scale"
  bottom: "h_0"
  bottom: "cont_1"
  top: "h_conted_0"
  scale_param {
    axis: 0
  }
}
layer {
  name: "lstm2_transform_1"
  type: "InnerProduct"
  bottom: "h_conted_0"
  top: "W_hc_h_0"
  param {
    name: "W_hc"
  }
  inner_product_param {
    num_output: 4000
    bias_term: false
    weight_filler {
      type: "uniform"
      min: -0.08
      max: 0.08
    }
    axis: 2
  }
}
layer {
  name: "lstm2_gate_input_1"
  type: "Eltwise"
  bottom: "W_hc_h_0"
  bottom: "W_xc_x_1"
  top: "gate_input_1"
  eltwise_param {
    operation: SUM
  }
}
layer {
  name: "lstm2_unit_1"
  type: "LSTMUnit"
  bottom: "c_0"
  bottom: "gate_input_1"
  bottom: "cont_1"
  top: "c_1"
  top: "h_1"
}
layer {
  name: "lstm2_"
  type: "Split"
  bottom: "c_1"
  top: "c_T"
}
layer {
  name: "lstm2_h_concat"
  type: "Concat"
  bottom: "h_1"
  top: "h"
  concat_param {
    axis: 0
  }
}
layer {
  name: "h_pseudoloss"
  type: "Reduction"
  bottom: "h"
  top: "h_pseudoloss"
  loss_weight: 1
}
I0802 07:35:02.280937 15104 layer_factory.hpp:77] Creating layer lstm2_
I0802 07:35:02.280949 15104 net.cpp:91] Creating Layer lstm2_
I0802 07:35:02.280956 15104 net.cpp:399] lstm2_ -> x
I0802 07:35:02.280966 15104 net.cpp:399] lstm2_ -> cont
I0802 07:35:02.281018 15104 net.cpp:141] Setting up lstm2_
I0802 07:35:02.281028 15104 net.cpp:148] Top shape: 1 1 1501 (1501)
I0802 07:35:02.281033 15104 net.cpp:148] Top shape: 1 1 (1)
I0802 07:35:02.281038 15104 net.cpp:156] Memory required for data: 6008
I0802 07:35:02.281043 15104 layer_factory.hpp:77] Creating layer lstm2_
I0802 07:35:02.281054 15104 net.cpp:91] Creating Layer lstm2_
I0802 07:35:02.281059 15104 net.cpp:399] lstm2_ -> c_0
I0802 07:35:02.281069 15104 net.cpp:399] lstm2_ -> h_0
I0802 07:35:02.281119 15104 net.cpp:141] Setting up lstm2_
I0802 07:35:02.281128 15104 net.cpp:148] Top shape: 1 1 1000 (1000)
I0802 07:35:02.281133 15104 net.cpp:148] Top shape: 1 1 1000 (1000)
I0802 07:35:02.281137 15104 net.cpp:156] Memory required for data: 14008
I0802 07:35:02.281143 15104 layer_factory.hpp:77] Creating layer lstm2_cont_slice
I0802 07:35:02.281153 15104 net.cpp:91] Creating Layer lstm2_cont_slice
I0802 07:35:02.281158 15104 net.cpp:425] lstm2_cont_slice <- cont
I0802 07:35:02.281167 15104 net.cpp:399] lstm2_cont_slice -> cont_1
I0802 07:35:02.281203 15104 net.cpp:141] Setting up lstm2_cont_slice
I0802 07:35:02.281213 15104 net.cpp:148] Top shape: 1 1 (1)
I0802 07:35:02.281216 15104 net.cpp:156] Memory required for data: 14012
I0802 07:35:02.281221 15104 layer_factory.hpp:77] Creating layer cont_1_lstm2_cont_slice_0_split
I0802 07:35:02.281227 15104 net.cpp:91] Creating Layer cont_1_lstm2_cont_slice_0_split
I0802 07:35:02.281232 15104 net.cpp:425] cont_1_lstm2_cont_slice_0_split <- cont_1
I0802 07:35:02.281240 15104 net.cpp:399] cont_1_lstm2_cont_slice_0_split -> cont_1_lstm2_cont_slice_0_split_0
I0802 07:35:02.281250 15104 net.cpp:399] cont_1_lstm2_cont_slice_0_split -> cont_1_lstm2_cont_slice_0_split_1
I0802 07:35:02.281293 15104 net.cpp:141] Setting up cont_1_lstm2_cont_slice_0_split
I0802 07:35:02.281304 15104 net.cpp:148] Top shape: 1 1 (1)
I0802 07:35:02.281309 15104 net.cpp:148] Top shape: 1 1 (1)
I0802 07:35:02.281313 15104 net.cpp:156] Memory required for data: 14020
I0802 07:35:02.281317 15104 layer_factory.hpp:77] Creating layer lstm2_x_transform
I0802 07:35:02.281327 15104 net.cpp:91] Creating Layer lstm2_x_transform
I0802 07:35:02.281332 15104 net.cpp:425] lstm2_x_transform <- x
I0802 07:35:02.281342 15104 net.cpp:399] lstm2_x_transform -> W_xc_x
I0802 07:35:02.297029 15114 net.cpp:141] Setting up fc7
I0802 07:35:02.297072 15114 net.cpp:148] Top shape: 10 4096 (40960)
I0802 07:35:02.297077 15114 net.cpp:156] Memory required for data: 68273720
I0802 07:35:02.297092 15114 layer_factory.hpp:77] Creating layer relu7
I0802 07:35:02.297108 15114 net.cpp:91] Creating Layer relu7
I0802 07:35:02.297114 15114 net.cpp:425] relu7 <- fc7
I0802 07:35:02.297127 15114 net.cpp:386] relu7 -> fc7 (in-place)
I0802 07:35:02.297899 15114 net.cpp:141] Setting up relu7
I0802 07:35:02.297912 15114 net.cpp:148] Top shape: 10 4096 (40960)
I0802 07:35:02.297917 15114 net.cpp:156] Memory required for data: 68437560
I0802 07:35:02.297922 15114 layer_factory.hpp:77] Creating layer drop7
I0802 07:35:02.297936 15114 net.cpp:91] Creating Layer drop7
I0802 07:35:02.297941 15114 net.cpp:425] drop7 <- fc7
I0802 07:35:02.297948 15114 net.cpp:386] drop7 -> fc7 (in-place)
I0802 07:35:02.297988 15114 net.cpp:141] Setting up drop7
I0802 07:35:02.297997 15114 net.cpp:148] Top shape: 10 4096 (40960)
I0802 07:35:02.298002 15114 net.cpp:156] Memory required for data: 68601400
I0802 07:35:02.298005 15114 layer_factory.hpp:77] Creating layer fc8
I0802 07:35:02.298017 15114 net.cpp:91] Creating Layer fc8
I0802 07:35:02.298020 15114 net.cpp:425] fc8 <- fc7
I0802 07:35:02.298032 15114 net.cpp:399] fc8 -> fc8
I0802 07:35:02.309984 15114 net.cpp:141] Setting up fc8
I0802 07:35:02.310037 15114 net.cpp:148] Top shape: 10 1000 (10000)
I0802 07:35:02.310044 15114 net.cpp:156] Memory required for data: 68641400
I0802 07:35:02.310060 15114 layer_factory.hpp:77] Creating layer prob
I0802 07:35:02.310076 15114 net.cpp:91] Creating Layer prob
I0802 07:35:02.310083 15114 net.cpp:425] prob <- fc8
I0802 07:35:02.310093 15114 net.cpp:399] prob -> prob
I0802 07:35:02.310504 15114 net.cpp:141] Setting up prob
I0802 07:35:02.310516 15114 net.cpp:148] Top shape: 10 1000 (10000)
I0802 07:35:02.310521 15114 net.cpp:156] Memory required for data: 68681400
I0802 07:35:02.310526 15114 net.cpp:219] prob does not need backward computation.
I0802 07:35:02.310531 15114 net.cpp:219] fc8 does not need backward computation.
I0802 07:35:02.310535 15114 net.cpp:219] drop7 does not need backward computation.
I0802 07:35:02.310540 15114 net.cpp:219] relu7 does not need backward computation.
…
I0802 07:35:02.310618 15114 net.cpp:219] norm1 does not need backward computation.
I0802 07:35:02.310623 15114 net.cpp:219] pool1 does not need backward computation.
I0802 07:35:02.310628 15114 net.cpp:219] relu1 does not need backward computation.
I0802 07:35:02.310632 15114 net.cpp:219] conv1 does not need backward computation.
I0802 07:35:02.310637 15114 net.cpp:219] data does not need backward computation.
I0802 07:35:02.310641 15114 net.cpp:261] This network produces output prob
I0802 07:35:02.310658 15114 net.cpp:274] Network initialization done.
I0802 07:35:02.339258 15104 net.cpp:141] Setting up lstm2_x_transform
I0802 07:35:02.339311 15104 net.cpp:148] Top shape: 1 1 4000 (4000)
I0802 07:35:02.339318 15104 net.cpp:156] Memory required for data: 30020
I0802 07:35:02.339337 15104 layer_factory.hpp:77] Creating layer lstm2_W_xc_x_slice
I0802 07:35:02.339354 15104 net.cpp:91] Creating Layer lstm2_W_xc_x_slice
I0802 07:35:02.339360 15104 net.cpp:425] lstm2_W_xc_x_slice <- W_xc_x
I0802 07:35:02.339370 15104 net.cpp:399] lstm2_W_xc_x_slice -> W_xc_x_1
I0802 07:35:02.339421 15104 net.cpp:141] Setting up lstm2_W_xc_x_slice
I0802 07:35:02.339431 15104 net.cpp:148] Top shape: 1 1 4000 (4000)
I0802 07:35:02.339434 15104 net.cpp:156] Memory required for data: 46020
I0802 07:35:02.339439 15104 layer_factory.hpp:77] Creating layer lstm2_h_conted_0
I0802 07:35:02.339449 15104 net.cpp:91] Creating Layer lstm2_h_conted_0
I0802 07:35:02.339453 15104 net.cpp:425] lstm2_h_conted_0 <- h_0
I0802 07:35:02.339459 15104 net.cpp:425] lstm2_h_conted_0 <- cont_1_lstm2_cont_slice_0_split_0
I0802 07:35:02.339467 15104 net.cpp:399] lstm2_h_conted_0 -> h_conted_0
I0802 07:35:02.339557 15104 net.cpp:141] Setting up lstm2_h_conted_0
I0802 07:35:02.339566 15104 net.cpp:148] Top shape: 1 1 1000 (1000)
I0802 07:35:02.339570 15104 net.cpp:156] Memory required for data: 50020
I0802 07:35:02.339575 15104 layer_factory.hpp:77] Creating layer lstm2_transform_1
I0802 07:35:02.339586 15104 net.cpp:91] Creating Layer lstm2_transform_1
I0802 07:35:02.339591 15104 net.cpp:425] lstm2_transform_1 <- h_conted_0
I0802 07:35:02.339599 15104 net.cpp:399] lstm2_transform_1 -> W_hc_h_0
I0802 07:35:02.377893 15104 net.cpp:141] Setting up lstm2_transform_1
I0802 07:35:02.377944 15104 net.cpp:148] Top shape: 1 1 4000 (4000)
I0802 07:35:02.377949 15104 net.cpp:156] Memory required for data: 66020
I0802 07:35:02.377967 15104 layer_factory.hpp:77] Creating layer lstm2_gate_input_1
I0802 07:35:02.377988 15104 net.cpp:91] Creating Layer lstm2_gate_input_1
I0802 07:35:02.377995 15104 net.cpp:425] lstm2_gate_input_1 <- W_hc_h_0
I0802 07:35:02.378005 15104 net.cpp:425] lstm2_gate_input_1 <- W_xc_x_1
I0802 07:35:02.378011 15104 net.cpp:399] lstm2_gate_input_1 -> gate_input_1
I0802 07:35:02.378058 15104 net.cpp:141] Setting up lstm2_gate_input_1
I0802 07:35:02.378067 15104 net.cpp:148] Top shape: 1 1 4000 (4000)
I0802 07:35:02.378072 15104 net.cpp:156] Memory required for data: 82020
I0802 07:35:02.378077 15104 layer_factory.hpp:77] Creating layer lstm2_unit_1
I0802 07:35:02.378084 15104 net.cpp:91] Creating Layer lstm2_unit_1
I0802 07:35:02.378098 15104 net.cpp:425] lstm2_unit_1 <- c_0
I0802 07:35:02.378103 15104 net.cpp:425] lstm2_unit_1 <- gate_input_1
I0802 07:35:02.378108 15104 net.cpp:425] lstm2_unit_1 <- cont_1_lstm2_cont_slice_0_split_1
I0802 07:35:02.378114 15104 net.cpp:399] lstm2_unit_1 -> c_1
I0802 07:35:02.378123 15104 net.cpp:399] lstm2_unit_1 -> h_1
I0802 07:35:02.378182 15104 net.cpp:141] Setting up lstm2_unit_1
I0802 07:35:02.378191 15104 net.cpp:148] Top shape: 1 1 1000 (1000)
I0802 07:35:02.378197 15104 net.cpp:148] Top shape: 1 1 1000 (1000)
I0802 07:35:02.378201 15104 net.cpp:156] Memory required for data: 90020
I0802 07:35:02.378206 15104 layer_factory.hpp:77] Creating layer lstm2_
I0802 07:35:02.378216 15104 net.cpp:91] Creating Layer lstm2_
I0802 07:35:02.378221 15104 net.cpp:425] lstm2_ <- c_1
I0802 07:35:02.378227 15104 net.cpp:399] lstm2_ -> c_T
I0802 07:35:02.378257 15104 net.cpp:141] Setting up lstm2_
I0802 07:35:02.378264 15104 net.cpp:148] Top shape: 1 1 1000 (1000)
I0802 07:35:02.378268 15104 net.cpp:156] Memory required for data: 94020
I0802 07:35:02.378273 15104 layer_factory.hpp:77] Creating layer lstm2_h_concat
I0802 07:35:02.378283 15104 net.cpp:91] Creating Layer lstm2_h_concat
I0802 07:35:02.378288 15104 net.cpp:425] lstm2_h_concat <- h_1
I0802 07:35:02.378296 15104 net.cpp:399] lstm2_h_concat -> h
I0802 07:35:02.378332 15104 net.cpp:141] Setting up lstm2_h_concat
I0802 07:35:02.378340 15104 net.cpp:148] Top shape: 1 1 1000 (1000)
I0802 07:35:02.378345 15104 net.cpp:156] Memory required for data: 98020
I0802 07:35:02.378350 15104 layer_factory.hpp:77] Creating layer h_pseudoloss
I0802 07:35:02.378357 15104 net.cpp:91] Creating Layer h_pseudoloss
I0802 07:35:02.378362 15104 net.cpp:425] h_pseudoloss <- h
I0802 07:35:02.378368 15104 net.cpp:399] h_pseudoloss -> h_pseudoloss
I0802 07:35:02.378453 15104 net.cpp:141] Setting up h_pseudoloss
…
