…
I0924 04:27:13.271836   444 upgrade_proto.cpp:66] Attempting to upgrade input file specified using deprecated input fields: /home/peifeng/work/run/storm102/data/workers/b18c3c26-bc4a-4f59-9a25-1f4c469ca1eb/tmp/cvld6678736598822519603/s2vt.words_to_preds.prototxt
I0924 04:27:13.271981   444 upgrade_proto.cpp:69] Successfully upgraded file specified using deprecated input fields.
W0924 04:27:13.271992   444 upgrade_proto.cpp:71] Note that future Caffe releases will only support input layers and not input fields.
I0924 04:27:13.272224   450 net.cpp:49] Initializing net from parameters: 
name: "CaffeNet"
state {
  phase: TEST
}
layer {
  name: "data"
  type: "Input"
  top: "data"
  input_param {
    shape {
      dim: 10
      dim: 3
      dim: 227
      dim: 227
    }
  }
}
layer {
  name: "conv1"
  type: "Convolution"
  bottom: "data"
  top: "conv1"
  convolution_param {
    num_output: 96
    kernel_size: 11
    stride: 4
  }
}
layer {
  name: "relu1"
  type: "ReLU"
  bottom: "conv1"
  top: "conv1"
}
layer {
  name: "pool1"
  type: "Pooling"
  bottom: "conv1"
  top: "pool1"
  pooling_param {
    pool: MAX
    kernel_size: 3
    stride: 2
  }
}
layer {
  name: "norm1"
  type: "LRN"
  bottom: "pool1"
  top: "norm1"
  lrn_param {
    local_size: 5
    alpha: 0.0001
    beta: 0.75
  }
}
layer {
  name: "conv2"
  type: "Convolution"
  bottom: "norm1"
  top: "conv2"
  convolution_param {
    num_output: 256
    pad: 2
    kernel_size: 5
    group: 2
  }
}
layer {
  name: "relu2"
  type: "ReLU"
  bottom: "conv2"
  top: "conv2"
}
layer {
  name: "pool2"
  type: "Pooling"
  bottom: "conv2"
  top: "pool2"
  pooling_param {
    pool: MAX
    kernel_size: 3
    stride: 2
  }
}
layer {
  name: "norm2"
  type: "LRN"
  bottom: "pool2"
  top: "norm2"
  lrn_param {
    local_size: 5
    alpha: 0.0001
    beta: 0.75
  }
}
layer {
  name: "conv3"
  type: "Convolution"
  bottom: "norm2"
  top: "conv3"
  convolution_param {
    num_output: 384
    pad: 1
    kernel_size: 3
  }
}
layer {
  name: "relu3"
  type: "ReLU"
  bottom: "conv3"
  top: "conv3"
}
layer {
  name: "conv4"
  type: "Convolution"
  bottom: "conv3"
  top: "conv4"
  convolution_param {
    num_output: 384
    pad: 1
    kernel_size: 3
    group: 2
  }
}
layer {
  name: "relu4"
  type: "ReLU"
  bottom: "conv4"
  top: "conv4"
}
layer {
  name: "conv5"
  type: "Convolution"
  bottom: "conv4"
  top: "conv5"
  convolution_param {
    num_output: 256
    pad: 1
    kernel_size: 3
    group: 2
  }
}
layer {
  name: "relu5"
  type: "ReLU"
  bottom: "conv5"
  top: "conv5"
}
layer {
  name: "pool5"
  type: "Pooling"
  bottom: "conv5"
  top: "pool5"
  pooling_param {
    pool: MAX
    kernel_size: 3
    stride: 2
  }
}
layer {
  name: "fc6"
  type: "InnerProduct"
  bottom: "pool5"
  top: "fc6"
  inner_product_param {
    num_output: 4096
  }
}
layer {
  name: "relu6"
  type: "ReLU"
  bottom: "fc6"
  top: "fc6"
}
layer {
  name: "drop6"
  type: "Dropout"
  bottom: "fc6"
  top: "fc6"
  dropout_param {
    dropout_ratio: 0.5
  }
}
layer {
  name: "fc7"
  type: "InnerProduct"
  bottom: "fc6"
  top: "fc7"
  inner_product_param {
    num_output: 4096
  }
}
layer {
  name: "relu7"
  type: "ReLU"
  bottom: "fc7"
  top: "fc7"
}
layer {
  name: "drop7"
  type: "Dropout"
  bottom: "fc7"
  top: "fc7"
  dropout_param {
    dropout_ratio: 0.5
  }
}
layer {
  name: "fc8"
  type: "InnerProduct"
  bottom: "fc7"
  top: "fc8"
  inner_product_param {
    num_output: 1000
  }
}
layer {
  name: "prob"
  type: "Softmax"
  bottom: "fc8"
  top: "prob"
}
I0924 04:27:13.272367   444 net.cpp:49] Initializing net from parameters: 
name: "s2vt:features_to_lstm"
state {
  phase: TEST
}
layer {
  name: "input"
  type: "Input"
  top: "frames_fc7"
  top: "cont_sentence"
  top: "input_sentence"
  top: "stage_indicator"
  input_param {
    shape {
      dim: 1
      dim: 4096
    }
    shape {
      dim: 1
      dim: 1
    }
    shape {
      dim: 1
      dim: 1
    }
    shape {
      dim: 1
      dim: 1
    }
  }
}
layer {
  name: "embed_encoder"
  type: "InnerProduct"
  bottom: "frames_fc7"
  top: "embedded_in_frames"
  param {
    lr_mult: 1
    decay_mult: 1
  }
  param {
    lr_mult: 2
    decay_mult: 0
  }
  inner_product_param {
    num_output: 500
    weight_filler {
      type: "xavier"
    }
    bias_filler {
      type: "constant"
      value: 0.2
    }
  }
}
layer {
  name: "reshape_frames"
  type: "Reshape"
  bottom: "embedded_in_frames"
  top: "embedded_input_frames"
  reshape_param {
    shape {
      dim: 1
      dim: 1
      dim: 500
    }
  }
}
layer {
  name: "reshape_stage_indicator"
  type: "Reshape"
  bottom: "stage_indicator"
  top: "reshaped_stage_indicator"
  reshape_param {
    shape {
      dim: 1
      dim: 1
      dim: 1
    }
  }
}
layer {
  name: "embedding"
  type: "Embed"
  bottom: "input_sentence"
  top: "embedded_input_sentence"
  param {
    lr_mult: 1
  }
  embed_param {
    num_output: 500
    input_dim: 46168
    bias_term: false
    weight_filler {
      type: "uniform"
      min: -0.08
      max: 0.08
    }
  }
}
layer {
  name: "lstm1"
  type: "LSTM"
  bottom: "embedded_input_frames"
  bottom: "cont_sentence"
  top: "lstm1"
  recurrent_param {
    num_output: 1000
    weight_filler {
      type: "uniform"
      min: -0.08
      max: 0.08
    }
    bias_filler {
      type: "constant"
      value: 0
    }
  }
}
layer {
  name: "concat"
  type: "Concat"
  bottom: "lstm1"
  bottom: "embedded_input_sentence"
  bottom: "reshaped_stage_indicator"
  top: "lstm1_video_sequence"
  concat_param {
    concat_dim: 2
  }
}
layer {
  name: "lstm2"
  type: "LSTM"
  bottom: "lstm1_video_sequence"
  bottom: "cont_sentence"
  top: "lstm2"
  recurrent_param {
    num_output: 1000
    weight_filler {
      type: "uniform"
      min: -0.08
      max: 0.08
    }
    bias_filler {
      type: "constant"
      value: 0
    }
  }
}
layer {
  name: "predict"
  type: "InnerProduct"
  bottom: "lstm2"
  top: "predict"
  param {
    lr_mult: 1
    decay_mult: 1
  }
  param {
    lr_mult: 2
    decay_mult: 0
  }
  inner_product_param {
    num_output: 46168
    weight_filler {
      type: "uniform"
      min: -0.08
      max: 0.08
    }
    bias_filler {
      type: "constant"
      value: 0
    }
    axis: 2
  }
}
layer {
  name: "probs"
  type: "Softmax"
  bottom: "predict"
  top: "probs"
  softmax_param {
    axis: 2
  }
}
I0924 04:27:13.272378   450 layer_factory.hpp:77] Creating layer data
I0924 04:27:13.272462   450 net.cpp:91] Creating Layer data
I0924 04:27:13.272474   450 net.cpp:399] data -> data
I0924 04:27:13.272541   444 layer_factory.hpp:77] Creating layer input
I0924 04:27:13.272567   444 net.cpp:91] Creating Layer input
I0924 04:27:13.272583   444 net.cpp:399] input -> frames_fc7
…
I0924 04:27:13.272994   440 upgrade_proto.cpp:69] Successfully upgraded file specified using deprecated input fields.
I0924 04:27:13.272995   448 net.cpp:49] Initializing net from parameters: 
name: "s2vt:features_to_lstm"
state {
  phase: TEST
}
layer {
  name: "input"
  type: "Input"
  top: "frames_fc7"
  top: "cont_sentence"
  top: "input_sentence"
  top: "stage_indicator"
  input_param {
    shape {
      dim: 1
      dim: 4096
    }
    shape {
      dim: 1
      dim: 1
    }
    shape {
      dim: 1
      dim: 1
    }
    shape {
      dim: 1
      dim: 1
    }
  }
}
layer {
  name: "embed_encoder"
  type: "InnerProduct"
  bottom: "frames_fc7"
  top: "embedded_in_frames"
  param {
    lr_mult: 1
    decay_mult: 1
  }
  param {
    lr_mult: 2
    decay_mult: 0
  }
  inner_product_param {
    num_output: 500
    weight_filler {
      type: "xavier"
    }
    bias_filler {
      type: "constant"
      value: 0.2
    }
  }
}
layer {
  name: "reshape_frames"
  type: "Reshape"
  bottom: "embedded_in_frames"
  top: "embedded_input_frames"
  reshape_param {
    shape {
      dim: 1
      dim: 1
      dim: 500
    }
  }
}
layer {
  name: "reshape_stage_indicator"
  type: "Reshape"
  bottom: "stage_indicator"
  top: "reshaped_stage_indicator"
  reshape_param {
    shape {
      dim: 1
      dim: 1
      dim: 1
    }
  }
}
layer {
  name: "embedding"
  type: "Embed"
  bottom: "input_sentence"
  top: "embedded_input_sentence"
  param {
    lr_mult: 1
  }
  embed_param {
    num_output: 500
    input_dim: 46168
    bias_term: false
    weight_filler {
      type: "uniform"
      min: -0.08
      max: 0.08
    }
  }
}
layer {
  name: "lstm1"
  type: "LSTM"
  bottom: "embedded_input_frames"
  bottom: "cont_sentence"
  top: "lstm1"
  recurrent_param {
    num_output: 1000
    weight_filler {
      type: "uniform"
      min: -0.08
      max: 0.08
    }
    bias_filler {
      type: "constant"
      value: 0
    }
  }
}
layer {
  name: "concat"
  type: "Concat"
  bottom: "lstm1"
  bottom: "embedded_input_sentence"
  bottom: "reshaped_stage_indicator"
  top: "lstm1_video_sequence"
  concat_param {
    concat_dim: 2
  }
}
layer {
  name: "lstm2"
  type: "LSTM"
  bottom: "lstm1_video_sequence"
  bottom: "cont_sentence"
  top: "lstm2"
  recurrent_param {
    num_output: 1000
    weight_filler {
      type: "uniform"
      min: -0.08
      max: 0.08
    }
    bias_filler {
      type: "constant"
      value: 0
    }
  }
}
layer {
  name: "predict"
  type: "InnerProduct"
  bottom: "lstm2"
  top: "predict"
  param {
    lr_mult: 1
    decay_mult: 1
  }
  param {
    lr_mult: 2
    decay_mult: 0
  }
  inner_product_param {
    num_output: 46168
    weight_filler {
      type: "uniform"
      min: -0.08
      max: 0.08
    }
    bias_filler {
      type: "constant"
      value: 0
    }
    axis: 2
  }
}
layer {
  name: "probs"
  type: "Softmax"
  bottom: "predict"
  top: "probs"
  softmax_param {
    axis: 2
  }
}
W0924 04:27:13.273002   440 upgrade_proto.cpp:71] Note that future Caffe releases will only support input layers and not input fields.
I0924 04:27:13.273075   448 layer_factory.hpp:77] Creating layer input
I0924 04:27:13.273087   448 net.cpp:91] Creating Layer input
I0924 04:27:13.273095   448 net.cpp:399] input -> frames_fc7
I0924 04:27:13.273108   448 net.cpp:399] input -> cont_sentence
I0924 04:27:13.273119   448 net.cpp:399] input -> input_sentence
I0924 04:27:13.273130   448 net.cpp:399] input -> stage_indicator
I0924 04:27:13.273310   440 net.cpp:49] Initializing net from parameters: 
name: "s2vt:features_to_lstm"
state {
  phase: TEST
}
layer {
  name: "input"
  type: "Input"
  top: "frames_fc7"
  top: "cont_sentence"
  top: "input_sentence"
  top: "stage_indicator"
  input_param {
    shape {
      dim: 1
      dim: 4096
    }
    shape {
      dim: 1
      dim: 1
    }
    shape {
      dim: 1
      dim: 1
    }
    shape {
      dim: 1
      dim: 1
    }
  }
}
layer {
  name: "embed_encoder"
  type: "InnerProduct"
  bottom: "frames_fc7"
  top: "embedded_in_frames"
  param {
    lr_mult: 1
    decay_mult: 1
  }
  param {
    lr_mult: 2
    decay_mult: 0
  }
  inner_product_param {
    num_output: 500
    weight_filler {
      type: "xavier"
    }
    bias_filler {
      type: "constant"
      value: 0.2
    }
  }
}
layer {
  name: "reshape_frames"
  type: "Reshape"
  bottom: "embedded_in_frames"
  top: "embedded_input_frames"
  reshape_param {
    shape {
      dim: 1
      dim: 1
      dim: 500
    }
  }
}
layer {
  name: "reshape_stage_indicator"
  type: "Reshape"
  bottom: "stage_indicator"
  top: "reshaped_stage_indicator"
  reshape_param {
    shape {
      dim: 1
      dim: 1
      dim: 1
    }
  }
}
layer {
  name: "embedding"
  type: "Embed"
  bottom: "input_sentence"
  top: "embedded_input_sentence"
  param {
    lr_mult: 1
  }
  embed_param {
    num_output: 500
    input_dim: 46168
    bias_term: false
    weight_filler {
      type: "uniform"
      min: -0.08
      max: 0.08
    }
  }
}
layer {
  name: "lstm1"
  type: "LSTM"
  bottom: "embedded_input_frames"
  bottom: "cont_sentence"
  top: "lstm1"
  recurrent_param {
    num_output: 1000
    weight_filler {
      type: "uniform"
      min: -0.08
      max: 0.08
    }
    bias_filler {
      type: "constant"
      value: 0
    }
  }
}
layer {
  name: "concat"
  type: "Concat"
  bottom: "lstm1"
  bottom: "embedded_input_sentence"
  bottom: "reshaped_stage_indicator"
  top: "lstm1_video_sequence"
  concat_param {
    concat_dim: 2
  }
}
layer {
  name: "lstm2"
  type: "LSTM"
  bottom: "lstm1_video_sequence"
  bottom: "cont_sentence"
  top: "lstm2"
  recurrent_param {
    num_output: 1000
    weight_filler {
      type: "uniform"
      min: -0.08
      max: 0.08
    }
    bias_filler {
      type: "constant"
      value: 0
    }
  }
}
layer {
  name: "predict"
  type: "InnerProduct"
  bottom: "lstm2"
  top: "predict"
  param {
    lr_mult: 1
    decay_mult: 1
  }
  param {
    lr_mult: 2
    decay_mult: 0
  }
  inner_product_param {
    num_output: 46168
    weight_filler {
      type: "uniform"
      min: -0.08
      max: 0.08
    }
    bias_filler {
      type: "constant"
      value: 0
    }
    axis: 2
  }
}
layer {
  name: "probs"
  type: "Softmax"
  bottom: "predict"
  top: "probs"
  softmax_param {
    axis: 2
  }
}
I0924 04:27:13.273433   440 layer_factory.hpp:77] Creating layer input
I0924 04:27:13.273450   440 net.cpp:91] Creating Layer input
I0924 04:27:13.273461   440 net.cpp:399] input -> frames_fc7
I0924 04:27:13.273480   440 net.cpp:399] input -> cont_sentence
I0924 04:27:13.273499   440 net.cpp:399] input -> input_sentence
I0924 04:27:13.273516   440 net.cpp:399] input -> stage_indicator
…
W0924 04:27:13.276782   458 upgrade_proto.cpp:71] Note that future Caffe releases will only support input layers and not input fields.
I0924 04:27:13.276798   470 net.cpp:49] Initializing net from parameters: 
name: "s2vt:features_to_lstm"
state {
  phase: TEST
}
layer {
  name: "input"
  type: "Input"
  top: "frames_fc7"
  top: "cont_sentence"
  top: "input_sentence"
  top: "stage_indicator"
  input_param {
    shape {
      dim: 1
      dim: 4096
    }
    shape {
      dim: 1
      dim: 1
    }
    shape {
      dim: 1
      dim: 1
    }
    shape {
      dim: 1
      dim: 1
    }
  }
}
layer {
  name: "embed_encoder"
  type: "InnerProduct"
  bottom: "frames_fc7"
  top: "embedded_in_frames"
  param {
    lr_mult: 1
    decay_mult: 1
  }
  param {
    lr_mult: 2
    decay_mult: 0
  }
  inner_product_param {
    num_output: 500
    weight_filler {
      type: "xavier"
    }
    bias_filler {
      type: "constant"
      value: 0.2
    }
  }
}
layer {
  name: "reshape_frames"
  type: "Reshape"
  bottom: "embedded_in_frames"
  top: "embedded_input_frames"
  reshape_param {
    shape {
      dim: 1
      dim: 1
      dim: 500
    }
  }
}
layer {
  name: "reshape_stage_indicator"
  type: "Reshape"
  bottom: "stage_indicator"
  top: "reshaped_stage_indicator"
  reshape_param {
    shape {
      dim: 1
      dim: 1
      dim: 1
    }
  }
}
layer {
  name: "embedding"
  type: "Embed"
  bottom: "input_sentence"
  top: "embedded_input_sentence"
  param {
    lr_mult: 1
  }
  embed_param {
    num_output: 500
    input_dim: 46168
    bias_term: false
    weight_filler {
      type: "uniform"
      min: -0.08
      max: 0.08
    }
  }
}
layer {
  name: "lstm1"
  type: "LSTM"
  bottom: "embedded_input_frames"
  bottom: "cont_sentence"
  top: "lstm1"
  recurrent_param {
    num_output: 1000
    weight_filler {
      type: "uniform"
      min: -0.08
      max: 0.08
    }
    bias_filler {
      type: "constant"
      value: 0
    }
  }
}
layer {
  name: "concat"
  type: "Concat"
  bottom: "lstm1"
  bottom: "embedded_input_sentence"
  bottom: "reshaped_stage_indicator"
  top: "lstm1_video_sequence"
  concat_param {
    concat_dim: 2
  }
}
layer {
  name: "lstm2"
  type: "LSTM"
  bottom: "lstm1_video_sequence"
  bottom: "cont_sentence"
  top: "lstm2"
  recurrent_param {
    num_output: 1000
    weight_filler {
      type: "uniform"
      min: -0.08
      max: 0.08
    }
    bias_filler {
      type: "constant"
      value: 0
    }
  }
}
layer {
  name: "predict"
  type: "InnerProduct"
  bottom: "lstm2"
  top: "predict"
  param {
    lr_mult: 1
    decay_mult: 1
  }
  param {
    lr_mult: 2
    decay_mult: 0
  }
  inner_product_param {
    num_output: 46168
    weight_filler {
      type: "uniform"
      min: -0.08
      max: 0.08
    }
    bias_filler {
      type: "constant"
      value: 0
    }
    axis: 2
  }
}
layer {
  name: "probs"
  type: "Softmax"
  bottom: "predict"
  top: "probs"
  softmax_param {
    axis: 2
  }
}
I0924 04:27:13.276934   470 layer_factory.hpp:77] Creating layer input
I0924 04:27:13.276957   470 net.cpp:91] Creating Layer input
I0924 04:27:13.276971   470 net.cpp:399] input -> frames_fc7
I0924 04:27:13.276998   470 net.cpp:399] input -> cont_sentence
I0924 04:27:13.277017   470 net.cpp:399] input -> input_sentence
I0924 04:27:13.277036   470 net.cpp:399] input -> stage_indicator
I0924 04:27:13.277088   458 net.cpp:49] Initializing net from parameters: 
name: "s2vt:features_to_lstm"
state {
  phase: TEST
}
layer {
  name: "input"
  type: "Input"
  top: "frames_fc7"
  top: "cont_sentence"
  top: "input_sentence"
  top: "stage_indicator"
  input_param {
    shape {
      dim: 1
      dim: 4096
    }
    shape {
      dim: 1
      dim: 1
    }
    shape {
      dim: 1
      dim: 1
    }
    shape {
      dim: 1
      dim: 1
    }
  }
}
layer {
  name: "embed_encoder"
  type: "InnerProduct"
  bottom: "frames_fc7"
  top: "embedded_in_frames"
  param {
    lr_mult: 1
    decay_mult: 1
  }
  param {
    lr_mult: 2
    decay_mult: 0
  }
  inner_product_param {
    num_output: 500
    weight_filler {
      type: "xavier"
    }
    bias_filler {
      type: "constant"
      value: 0.2
    }
  }
}
layer {
  name: "reshape_frames"
  type: "Reshape"
  bottom: "embedded_in_frames"
  top: "embedded_input_frames"
  reshape_param {
    shape {
      dim: 1
      dim: 1
      dim: 500
    }
  }
}
layer {
  name: "reshape_stage_indicator"
  type: "Reshape"
  bottom: "stage_indicator"
  top: "reshaped_stage_indicator"
  reshape_param {
    shape {
      dim: 1
      dim: 1
      dim: 1
    }
  }
}
layer {
  name: "embedding"
  type: "Embed"
  bottom: "input_sentence"
  top: "embedded_input_sentence"
  param {
    lr_mult: 1
  }
  embed_param {
    num_output: 500
    input_dim: 46168
    bias_term: false
    weight_filler {
      type: "uniform"
      min: -0.08
      max: 0.08
    }
  }
}
layer {
  name: "lstm1"
  type: "LSTM"
  bottom: "embedded_input_frames"
  bottom: "cont_sentence"
  top: "lstm1"
  recurrent_param {
    num_output: 1000
    weight_filler {
      type: "uniform"
      min: -0.08
      max: 0.08
    }
    bias_filler {
      type: "constant"
      value: 0
    }
  }
}
layer {
  name: "concat"
  type: "Concat"
  bottom: "lstm1"
  bottom: "embedded_input_sentence"
  bottom: "reshaped_stage_indicator"
  top: "lstm1_video_sequence"
  concat_param {
    concat_dim: 2
  }
}
layer {
  name: "lstm2"
  type: "LSTM"
  bottom: "lstm1_video_sequence"
  bottom: "cont_sentence"
  top: "lstm2"
  recurrent_param {
    num_output: 1000
    weight_filler {
      type: "uniform"
      min: -0.08
      max: 0.08
    }
    bias_filler {
      type: "constant"
      value: 0
    }
  }
}
layer {
  name: "predict"
  type: "InnerProduct"
  bottom: "lstm2"
  top: "predict"
  param {
    lr_mult: 1
    decay_mult: 1
  }
  param {
    lr_mult: 2
    decay_mult: 0
  }
  inner_product_param {
    num_output: 46168
    weight_filler {
      type: "uniform"
      min: -0.08
      max: 0.08
    }
    bias_filler {
      type: "constant"
      value: 0
    }
    axis: 2
  }
}
layer {
  name: "probs"
  type: "Softmax"
  bottom: "predict"
  top: "probs"
  softmax_param {
    axis: 2
  }
}
I0924 04:27:13.277171   458 layer_factory.hpp:77] Creating layer input
I0924 04:27:13.277184   458 net.cpp:91] Creating Layer input
I0924 04:27:13.277191   458 net.cpp:399] input -> frames_fc7
I0924 04:27:13.277204   458 net.cpp:399] input -> cont_sentence
I0924 04:27:13.277214   458 net.cpp:399] input -> input_sentence
I0924 04:27:13.277225   458 net.cpp:399] input -> stage_indicator
I0924 04:27:13.279513   464 upgrade_proto.cpp:66] Attempting to upgrade input file specified using deprecated input fields: /home/peifeng/work/run/storm102/data/workers/b18c3c26-bc4a-4f59-9a25-1f4c469ca1eb/tmp/cvld6678736598822519603/s2vt.words_to_preds.prototxt
I0924 04:27:13.279539   464 upgrade_proto.cpp:69] Successfully upgraded file specified using deprecated input fields.
W0924 04:27:13.279547   464 upgrade_proto.cpp:71] Note that future Caffe releases will only support input layers and not input fields.
I0924 04:27:13.279886   464 net.cpp:49] Initializing net from parameters: 
name: "s2vt:features_to_lstm"
state {
  phase: TEST
}
layer {
  name: "input"
  type: "Input"
  top: "frames_fc7"
  top: "cont_sentence"
  top: "input_sentence"
  top: "stage_indicator"
  input_param {
    shape {
      dim: 1
      dim: 4096
    }
    shape {
      dim: 1
      dim: 1
    }
    shape {
      dim: 1
      dim: 1
    }
    shape {
      dim: 1
      dim: 1
    }
  }
}
layer {
  name: "embed_encoder"
  type: "InnerProduct"
  bottom: "frames_fc7"
  top: "embedded_in_frames"
  param {
    lr_mult: 1
    decay_mult: 1
  }
  param {
    lr_mult: 2
    decay_mult: 0
  }
  inner_product_param {
    num_output: 500
    weight_filler {
      type: "xavier"
    }
    bias_filler {
      type: "constant"
      value: 0.2
    }
  }
}
layer {
  name: "reshape_frames"
  type: "Reshape"
  bottom: "embedded_in_frames"
  top: "embedded_input_frames"
  reshape_param {
    shape {
      dim: 1
      dim: 1
      dim: 500
    }
  }
}
layer {
  name: "reshape_stage_indicator"
  type: "Reshape"
  bottom: "stage_indicator"
  top: "reshaped_stage_indicator"
  reshape_param {
    shape {
      dim: 1
      dim: 1
      dim: 1
    }
  }
}
layer {
  name: "embedding"
  type: "Embed"
  bottom: "input_sentence"
  top: "embedded_input_sentence"
  param {
    lr_mult: 1
  }
  embed_param {
    num_output: 500
    input_dim: 46168
    bias_term: false
    weight_filler {
      type: "uniform"
      min: -0.08
      max: 0.08
    }
  }
}
layer {
  name: "lstm1"
  type: "LSTM"
  bottom: "embedded_input_frames"
  bottom: "cont_sentence"
  top: "lstm1"
  recurrent_param {
    num_output: 1000
    weight_filler {
      type: "uniform"
      min: -0.08
      max: 0.08
    }
    bias_filler {
      type: "constant"
      value: 0
    }
  }
}
layer {
  name: "concat"
  type: "Concat"
  bottom: "lstm1"
  bottom: "embedded_input_sentence"
  bottom: "reshaped_stage_indicator"
  top: "lstm1_video_sequence"
  concat_param {
    concat_dim: 2
  }
}
layer {
  name: "lstm2"
  type: "LSTM"
  bottom: "lstm1_video_sequence"
  bottom: "cont_sentence"
  top: "lstm2"
  recurrent_param {
    num_output: 1000
    weight_filler {
      type: "uniform"
      min: -0.08
      max: 0.08
    }
    bias_filler {
      type: "constant"
      value: 0
    }
  }
}
layer {
  name: "predict"
  type: "InnerProduct"
  bottom: "lstm2"
  top: "predict"
  param {
    lr_mult: 1
    decay_mult: 1
  }
  param {
    lr_mult: 2
    decay_mult: 0
  }
  inner_product_param {
    num_output: 46168
    weight_filler {
      type: "uniform"
      min: -0.08
      max: 0.08
    }
    bias_filler {
      type: "constant"
      value: 0
    }
    axis: 2
  }
}
layer {
  name: "probs"
  type: "Softmax"
  bottom: "predict"
  top: "probs"
  softmax_param {
    axis: 2
  }
}
I0924 04:27:13.279943   436 upgrade_proto.cpp:66] Attempting to upgrade input file specified using deprecated input fields: /home/peifeng/work/run/storm102/data/workers/b18c3c26-bc4a-4f59-9a25-1f4c469ca1eb/tmp/cvld6678736598822519603/s2vt.words_to_preds.prototxt
I0924 04:27:13.279968   436 upgrade_proto.cpp:69] Successfully upgraded file specified using deprecated input fields.
…
W0924 04:27:13.280203   492 upgrade_proto.cpp:71] Note that future Caffe releases will only support input layers and not input fields.
I0924 04:27:13.280259   484 net.cpp:49] Initializing net from parameters: 
name: "s2vt:features_to_lstm"
state {
  phase: TEST
}
layer {
  name: "input"
  type: "Input"
  top: "frames_fc7"
  top: "cont_sentence"
  top: "input_sentence"
  top: "stage_indicator"
  input_param {
    shape {
      dim: 1
      dim: 4096
    }
    shape {
      dim: 1
      dim: 1
    }
    shape {
      dim: 1
      dim: 1
    }
    shape {
      dim: 1
      dim: 1
    }
  }
}
layer {
  name: "embed_encoder"
  type: "InnerProduct"
  bottom: "frames_fc7"
  top: "embedded_in_frames"
  param {
    lr_mult: 1
    decay_mult: 1
  }
  param {
    lr_mult: 2
    decay_mult: 0
  }
  inner_product_param {
    num_output: 500
    weight_filler {
      type: "xavier"
    }
    bias_filler {
      type: "constant"
      value: 0.2
    }
  }
}
layer {
  name: "reshape_frames"
  type: "Reshape"
  bottom: "embedded_in_frames"
  top: "embedded_input_frames"
  reshape_param {
    shape {
      dim: 1
      dim: 1
      dim: 500
    }
  }
}
layer {
  name: "reshape_stage_indicator"
  type: "Reshape"
  bottom: "stage_indicator"
  top: "reshaped_stage_indicator"
  reshape_param {
    shape {
      dim: 1
      dim: 1
      dim: 1
    }
  }
}
layer {
  name: "embedding"
  type: "Embed"
  bottom: "input_sentence"
  top: "embedded_input_sentence"
  param {
    lr_mult: 1
  }
  embed_param {
    num_output: 500
    input_dim: 46168
    bias_term: false
    weight_filler {
      type: "uniform"
      min: -0.08
      max: 0.08
    }
  }
}
layer {
  name: "lstm1"
  type: "LSTM"
  bottom: "embedded_input_frames"
  bottom: "cont_sentence"
  top: "lstm1"
  recurrent_param {
    num_output: 1000
    weight_filler {
      type: "uniform"
      min: -0.08
      max: 0.08
    }
    bias_filler {
      type: "constant"
      value: 0
    }
  }
}
layer {
  name: "concat"
  type: "Concat"
  bottom: "lstm1"
  bottom: "embedded_input_sentence"
  bottom: "reshaped_stage_indicator"
  top: "lstm1_video_sequence"
  concat_param {
    concat_dim: 2
  }
}
layer {
  name: "lstm2"
  type: "LSTM"
  bottom: "lstm1_video_sequence"
  bottom: "cont_sentence"
  top: "lstm2"
  recurrent_param {
    num_output: 1000
    weight_filler {
      type: "uniform"
      min: -0.08
      max: 0.08
    }
    bias_filler {
      type: "constant"
      value: 0
    }
  }
}
layer {
  name: "predict"
  type: "InnerProduct"
  bottom: "lstm2"
  top: "predict"
  param {
    lr_mult: 1
    decay_mult: 1
  }
  param {
    lr_mult: 2
    decay_mult: 0
  }
  inner_product_param {
    num_output: 46168
    weight_filler {
      type: "uniform"
      min: -0.08
      max: 0.08
    }
    bias_filler {
      type: "constant"
      value: 0
    }
    axis: 2
  }
}
layer {
  name: "probs"
  type: "Softmax"
  bottom: "predict"
  top: "probs"
  softmax_param {
    axis: 2
  }
}
I0924 04:27:13.280292   436 net.cpp:49] Initializing net from parameters: 
name: "s2vt:features_to_lstm"
state {
  phase: TEST
}
layer {
  name: "input"
  type: "Input"
  top: "frames_fc7"
  top: "cont_sentence"
  top: "input_sentence"
  top: "stage_indicator"
  input_param {
    shape {
      dim: 1
      dim: 4096
    }
    shape {
      dim: 1
      dim: 1
    }
    shape {
      dim: 1
      dim: 1
    }
    shape {
      dim: 1
      dim: 1
    }
  }
}
layer {
  name: "embed_encoder"
  type: "InnerProduct"
  bottom: "frames_fc7"
  top: "embedded_in_frames"
  param {
    lr_mult: 1
    decay_mult: 1
  }
  param {
    lr_mult: 2
    decay_mult: 0
  }
  inner_product_param {
    num_output: 500
    weight_filler {
      type: "xavier"
    }
    bias_filler {
      type: "constant"
      value: 0.2
    }
  }
}
layer {
  name: "reshape_frames"
  type: "Reshape"
  bottom: "embedded_in_frames"
  top: "embedded_input_frames"
  reshape_param {
    shape {
      dim: 1
      dim: 1
      dim: 500
    }
  }
}
layer {
  name: "reshape_stage_indicator"
  type: "Reshape"
  bottom: "stage_indicator"
  top: "reshaped_stage_indicator"
  reshape_param {
    shape {
      dim: 1
      dim: 1
      dim: 1
    }
  }
}
layer {
  name: "embedding"
  type: "Embed"
  bottom: "input_sentence"
  top: "embedded_input_sentence"
  param {
    lr_mult: 1
  }
  embed_param {
    num_output: 500
    input_dim: 46168
    bias_term: false
    weight_filler {
      type: "uniform"
      min: -0.08
      max: 0.08
    }
  }
}
layer {
  name: "lstm1"
  type: "LSTM"
  bottom: "embedded_input_frames"
  bottom: "cont_sentence"
  top: "lstm1"
  recurrent_param {
    num_output: 1000
    weight_filler {
      type: "uniform"
      min: -0.08
      max: 0.08
    }
    bias_filler {
      type: "constant"
      value: 0
    }
  }
}
layer {
  name: "concat"
  type: "Concat"
  bottom: "lstm1"
  bottom: "embedded_input_sentence"
  bottom: "reshaped_stage_indicator"
  top: "lstm1_video_sequence"
  concat_param {
    concat_dim: 2
  }
}
layer {
  name: "lstm2"
  type: "LSTM"
  bottom: "lstm1_video_sequence"
  bottom: "cont_sentence"
  top: "lstm2"
  recurrent_param {
    num_output: 1000
    weight_filler {
      type: "uniform"
      min: -0.08
      max: 0.08
    }
    bias_filler {
      type: "constant"
      value: 0
    }
  }
}
layer {
  name: "predict"
  type: "InnerProduct"
  bottom: "lstm2"
  top: "predict"
  param {
    lr_mult: 1
    decay_mult: 1
  }
  param {
    lr_mult: 2
    decay_mult: 0
  }
  inner_product_param {
    num_output: 46168
    weight_filler {
      type: "uniform"
      min: -0.08
      max: 0.08
    }
    bias_filler {
      type: "constant"
      value: 0
    }
    axis: 2
  }
}
layer {
  name: "probs"
  type: "Softmax"
  bottom: "predict"
  top: "probs"
  softmax_param {
    axis: 2
  }
}
I0924 04:27:13.280359   484 layer_factory.hpp:77] Creating layer input
I0924 04:27:13.280374   484 net.cpp:91] Creating Layer input
I0924 04:27:13.280381   484 net.cpp:399] input -> frames_fc7
I0924 04:27:13.280400   484 net.cpp:399] input -> cont_sentence
I0924 04:27:13.280414   484 net.cpp:399] input -> input_sentence
I0924 04:27:13.280417   436 layer_factory.hpp:77] Creating layer input
I0924 04:27:13.280424   484 net.cpp:399] input -> stage_indicator
I0924 04:27:13.280437   436 net.cpp:91] Creating Layer input
I0924 04:27:13.280452   436 net.cpp:399] input -> frames_fc7
I0924 04:27:13.280472   436 net.cpp:399] input -> cont_sentence
I0924 04:27:13.280489   436 net.cpp:399] input -> input_sentence
I0924 04:27:13.280508   436 net.cpp:399] input -> stage_indicator
I0924 04:27:13.280514   492 net.cpp:49] Initializing net from parameters: 
name: "s2vt:features_to_lstm"
state {
  phase: TEST
}
layer {
  name: "input"
  type: "Input"
  top: "frames_fc7"
  top: "cont_sentence"
  top: "input_sentence"
  top: "stage_indicator"
  input_param {
    shape {
      dim: 1
      dim: 4096
    }
    shape {
      dim: 1
      dim: 1
    }
    shape {
      dim: 1
      dim: 1
    }
    shape {
      dim: 1
      dim: 1
    }
  }
}
layer {
  name: "embed_encoder"
  type: "InnerProduct"
  bottom: "frames_fc7"
  top: "embedded_in_frames"
  param {
    lr_mult: 1
    decay_mult: 1
  }
  param {
    lr_mult: 2
    decay_mult: 0
  }
  inner_product_param {
    num_output: 500
    weight_filler {
      type: "xavier"
    }
    bias_filler {
      type: "constant"
      value: 0.2
    }
  }
}
layer {
  name: "reshape_frames"
  type: "Reshape"
  bottom: "embedded_in_frames"
  top: "embedded_input_frames"
  reshape_param {
    shape {
      dim: 1
      dim: 1
      dim: 500
    }
  }
}
layer {
  name: "reshape_stage_indicator"
  type: "Reshape"
  bottom: "stage_indicator"
  top: "reshaped_stage_indicator"
  reshape_param {
    shape {
      dim: 1
      dim: 1
      dim: 1
    }
  }
}
layer {
  name: "embedding"
  type: "Embed"
  bottom: "input_sentence"
  top: "embedded_input_sentence"
  param {
    lr_mult: 1
  }
  embed_param {
    num_output: 500
    input_dim: 46168
    bias_term: false
    weight_filler {
      type: "uniform"
      min: -0.08
      max: 0.08
    }
  }
}
layer {
  name: "lstm1"
  type: "LSTM"
  bottom: "embedded_input_frames"
  bottom: "cont_sentence"
  top: "lstm1"
  recurrent_param {
    num_output: 1000
    weight_filler {
      type: "uniform"
      min: -0.08
      max: 0.08
    }
    bias_filler {
      type: "constant"
      value: 0
    }
  }
}
layer {
  name: "concat"
  type: "Concat"
  bottom: "lstm1"
  bottom: "embedded_input_sentence"
  bottom: "reshaped_stage_indicator"
  top: "lstm1_video_sequence"
  concat_param {
    concat_dim: 2
  }
}
layer {
  name: "lstm2"
  type: "LSTM"
  bottom: "lstm1_video_sequence"
  bottom: "cont_sentence"
  top: "lstm2"
  recurrent_param {
    num_output: 1000
    weight_filler {
      type: "uniform"
      min: -0.08
      max: 0.08
    }
    bias_filler {
      type: "constant"
      value: 0
    }
  }
}
layer {
  name: "predict"
  type: "InnerProduct"
  bottom: "lstm2"
  top: "predict"
  param {
    lr_mult: 1
    decay_mult: 1
  }
  param {
    lr_mult: 2
    decay_mult: 0
  }
  inner_product_param {
    num_output: 46168
    weight_filler {
      type: "uniform"
      min: -0.08
      max: 0.08
    }
    bias_filler {
      type: "constant"
      value: 0
    }
    axis: 2
  }
}
layer {
  name: "probs"
  type: "Softmax"
  bottom: "predict"
  top: "probs"
  softmax_param {
    axis: 2
  }
}
I0924 04:27:13.280640   492 layer_factory.hpp:77] Creating layer input
I0924 04:27:13.280659   492 net.cpp:91] Creating Layer input
I0924 04:27:13.280670   492 net.cpp:399] input -> frames_fc7
I0924 04:27:13.280689   492 net.cpp:399] input -> cont_sentence
I0924 04:27:13.280707   492 net.cpp:399] input -> input_sentence
I0924 04:27:13.280725   492 net.cpp:399] input -> stage_indicator
I0924 04:27:13.279889   496 upgrade_proto.cpp:66] Attempting to upgrade input file specified using deprecated input fields: /home/peifeng/work/run/storm102/data/workers/b18c3c26-bc4a-4f59-9a25-1f4c469ca1eb/tmp/cvld6678736598822519603/s2vt.words_to_preds.prototxt
I0924 04:27:13.280875   496 upgrade_proto.cpp:69] Successfully upgraded file specified using deprecated input fields.
W0924 04:27:13.280889   496 upgrade_proto.cpp:71] Note that future Caffe releases will only support input layers and not input fields.
I0924 04:27:13.281213   496 net.cpp:49] Initializing net from parameters: 
name: "s2vt:features_to_lstm"
state {
  phase: TEST
}
layer {
  name: "input"
  type: "Input"
  top: "frames_fc7"
  top: "cont_sentence"
  top: "input_sentence"
  top: "stage_indicator"
  input_param {
    shape {
      dim: 1
      dim: 4096
    }
    shape {
      dim: 1
      dim: 1
    }
    shape {
      dim: 1
      dim: 1
    }
    shape {
      dim: 1
      dim: 1
    }
  }
}
layer {
  name: "embed_encoder"
  type: "InnerProduct"
  bottom: "frames_fc7"
  top: "embedded_in_frames"
  param {
    lr_mult: 1
    decay_mult: 1
  }
  param {
    lr_mult: 2
    decay_mult: 0
  }
  inner_product_param {
    num_output: 500
    weight_filler {
      type: "xavier"
    }
    bias_filler {
      type: "constant"
      value: 0.2
    }
  }
}
layer {
  name: "reshape_frames"
  type: "Reshape"
  bottom: "embedded_in_frames"
  top: "embedded_input_frames"
  reshape_param {
    shape {
      dim: 1
      dim: 1
      dim: 500
    }
  }
}
layer {
  name: "reshape_stage_indicator"
  type: "Reshape"
  bottom: "stage_indicator"
  top: "reshaped_stage_indicator"
  reshape_param {
    shape {
      dim: 1
      dim: 1
      dim: 1
    }
  }
}
layer {
  name: "embedding"
  type: "Embed"
  bottom: "input_sentence"
  top: "embedded_input_sentence"
  param {
    lr_mult: 1
  }
  embed_param {
    num_output: 500
    input_dim: 46168
    bias_term: false
    weight_filler {
      type: "uniform"
      min: -0.08
      max: 0.08
    }
  }
}
layer {
  name: "lstm1"
  type: "LSTM"
  bottom: "embedded_input_frames"
  bottom: "cont_sentence"
  top: "lstm1"
  recurrent_param {
    num_output: 1000
    weight_filler {
      type: "uniform"
      min: -0.08
      max: 0.08
    }
    bias_filler {
      type: "constant"
      value: 0
    }
  }
}
layer {
  name: "concat"
  type: "Concat"
  bottom: "lstm1"
  bottom: "embedded_input_sentence"
  bottom: "reshaped_stage_indicator"
  top: "lstm1_video_sequence"
  concat_param {
    concat_dim: 2
  }
}
layer {
  name: "lstm2"
  type: "LSTM"
  bottom: "lstm1_video_sequence"
  bottom: "cont_sentence"
  top: "lstm2"
  recurrent_param {
    num_output: 1000
    weight_filler {
      type: "uniform"
      min: -0.08
      max: 0.08
    }
    bias_filler {
      type: "constant"
      value: 0
    }
  }
}
layer {
  name: "predict"
  type: "InnerProduct"
  bottom: "lstm2"
  top: "predict"
  param {
    lr_mult: 1
    decay_mult: 1
  }
  param {
    lr_mult: 2
    decay_mult: 0
  }
  inner_product_param {
    num_output: 46168
    weight_filler {
      type: "uniform"
      min: -0.08
      max: 0.08
    }
    bias_filler {
      type: "constant"
      value: 0
    }
    axis: 2
  }
}
layer {
  name: "probs"
  type: "Softmax"
  bottom: "predict"
  top: "probs"
  softmax_param {
    axis: 2
  }
}
I0924 04:27:13.281384   496 layer_factory.hpp:77] Creating layer input
I0924 04:27:13.281406   496 net.cpp:91] Creating Layer input
I0924 04:27:13.281420   496 net.cpp:399] input -> frames_fc7
I0924 04:27:13.281442   496 net.cpp:399] input -> cont_sentence
I0924 04:27:13.281463   496 net.cpp:399] input -> input_sentence
I0924 04:27:13.281483   496 net.cpp:399] input -> stage_indicator
I0924 04:27:14.196337   450 net.cpp:141] Setting up data
I0924 04:27:14.196472   450 net.cpp:148] Top shape: 10 3 227 227 (1545870)
I0924 04:27:14.196485   450 net.cpp:156] Memory required for data: 6183480
I0924 04:27:14.196516   450 layer_factory.hpp:77] Creating layer conv1
I0924 04:27:14.196557   450 net.cpp:91] Creating Layer conv1
I0924 04:27:14.196571   450 net.cpp:425] conv1 <- data
I0924 04:27:14.196593   450 net.cpp:399] conv1 -> conv1
I0924 04:27:14.196763   496 net.cpp:141] Setting up input
I0924 04:27:14.196784   496 net.cpp:148] Top shape: 1 4096 (4096)
I0924 04:27:14.196796   496 net.cpp:148] Top shape: 1 1 (1)
I0924 04:27:14.196806   496 net.cpp:148] Top shape: 1 1 (1)
I0924 04:27:14.196815   496 net.cpp:148] Top shape: 1 1 (1)
I0924 04:27:14.196822   496 net.cpp:156] Memory required for data: 16396
I0924 04:27:14.196832   496 layer_factory.hpp:77] Creating layer cont_sentence_input_1_split
I0924 04:27:14.196859   496 net.cpp:91] Creating Layer cont_sentence_input_1_split
I0924 04:27:14.196869   496 net.cpp:425] cont_sentence_input_1_split <- cont_sentence
I0924 04:27:14.196900   496 net.cpp:399] cont_sentence_input_1_split -> cont_sentence_input_1_split_0
I0924 04:27:14.196920   496 net.cpp:399] cont_sentence_input_1_split -> cont_sentence_input_1_split_1
I0924 04:27:14.196983   496 net.cpp:141] Setting up cont_sentence_input_1_split
I0924 04:27:14.197000   496 net.cpp:148] Top shape: 1 1 (1)
I0924 04:27:14.197010   496 net.cpp:148] Top shape: 1 1 (1)
I0924 04:27:14.197018   496 net.cpp:156] Memory required for data: 16404
I0924 04:27:14.197028   496 layer_factory.hpp:77] Creating layer embed_encoder
I0924 04:27:14.197062   496 net.cpp:91] Creating Layer embed_encoder
I0924 04:27:14.197074   496 net.cpp:425] embed_encoder <- frames_fc7
I0924 04:27:14.197089   496 net.cpp:399] embed_encoder -> embedded_in_frames
I0924 04:27:14.201891   470 net.cpp:141] Setting up input
I0924 04:27:14.201949   470 net.cpp:148] Top shape: 1 4096 (4096)
I0924 04:27:14.201966   470 net.cpp:148] Top shape: 1 1 (1)
I0924 04:27:14.201977   470 net.cpp:148] Top shape: 1 1 (1)
I0924 04:27:14.201988   470 net.cpp:148] Top shape: 1 1 (1)
I0924 04:27:14.201997   470 net.cpp:156] Memory required for data: 16396
I0924 04:27:14.202013   470 layer_factory.hpp:77] Creating layer cont_sentence_input_1_split
I0924 04:27:14.202042   470 net.cpp:91] Creating Layer cont_sentence_input_1_split
I0924 04:27:14.202054   470 net.cpp:425] cont_sentence_input_1_split <- cont_sentence
I0924 04:27:14.202075   470 net.cpp:399] cont_sentence_input_1_split -> cont_sentence_input_1_split_0
I0924 04:27:14.202100   470 net.cpp:399] cont_sentence_input_1_split -> cont_sentence_input_1_split_1
I0924 04:27:14.202172   470 net.cpp:141] Setting up cont_sentence_input_1_split
I0924 04:27:14.202189   470 net.cpp:148] Top shape: 1 1 (1)
I0924 04:27:14.202201   470 net.cpp:148] Top shape: 1 1 (1)
I0924 04:27:14.202209   470 net.cpp:156] Memory required for data: 16404
I0924 04:27:14.202219   470 layer_factory.hpp:77] Creating layer embed_encoder
I0924 04:27:14.202242   470 net.cpp:91] Creating Layer embed_encoder
I0924 04:27:14.202252   470 net.cpp:425] embed_encoder <- frames_fc7
I0924 04:27:14.202267   470 net.cpp:399] embed_encoder -> embedded_in_frames
I0924 04:27:14.215873   464 net.cpp:141] Setting up input
I0924 04:27:14.215939   464 net.cpp:148] Top shape: 1 4096 (4096)
I0924 04:27:14.215952   464 net.cpp:148] Top shape: 1 1 (1)
I0924 04:27:14.215963   464 net.cpp:148] Top shape: 1 1 (1)
I0924 04:27:14.215975   464 net.cpp:148] Top shape: 1 1 (1)
I0924 04:27:14.215983   464 net.cpp:156] Memory required for data: 16396
I0924 04:27:14.215999   464 layer_factory.hpp:77] Creating layer cont_sentence_input_1_split
I0924 04:27:14.216028   464 net.cpp:91] Creating Layer cont_sentence_input_1_split
I0924 04:27:14.216040   464 net.cpp:425] cont_sentence_input_1_split <- cont_sentence
I0924 04:27:14.216060   464 net.cpp:399] cont_sentence_input_1_split -> cont_sentence_input_1_split_0
I0924 04:27:14.216086   464 net.cpp:399] cont_sentence_input_1_split -> cont_sentence_input_1_split_1
I0924 04:27:14.216163   464 net.cpp:141] Setting up cont_sentence_input_1_split
I0924 04:27:14.216181   464 net.cpp:148] Top shape: 1 1 (1)
I0924 04:27:14.216195   464 net.cpp:148] Top shape: 1 1 (1)
I0924 04:27:14.216203   464 net.cpp:156] Memory required for data: 16404
I0924 04:27:14.216212   464 layer_factory.hpp:77] Creating layer embed_encoder
I0924 04:27:14.216233   464 net.cpp:91] Creating Layer embed_encoder
I0924 04:27:14.216241   464 net.cpp:425] embed_encoder <- frames_fc7
I0924 04:27:14.216259   464 net.cpp:399] embed_encoder -> embedded_in_frames
I0924 04:27:14.222280   436 net.cpp:141] Setting up input
I0924 04:27:14.222339   436 net.cpp:148] Top shape: 1 4096 (4096)
I0924 04:27:14.222353   436 net.cpp:148] Top shape: 1 1 (1)
I0924 04:27:14.222367   436 net.cpp:148] Top shape: 1 1 (1)
I0924 04:27:14.222375   436 net.cpp:148] Top shape: 1 1 (1)
I0924 04:27:14.222383   436 net.cpp:156] Memory required for data: 16396
I0924 04:27:14.222398   436 layer_factory.hpp:77] Creating layer cont_sentence_input_1_split
I0924 04:27:14.222426   436 net.cpp:91] Creating Layer cont_sentence_input_1_split
I0924 04:27:14.222439   436 net.cpp:425] cont_sentence_input_1_split <- cont_sentence
I0924 04:27:14.222456   436 net.cpp:399] cont_sentence_input_1_split -> cont_sentence_input_1_split_0
I0924 04:27:14.222479   436 net.cpp:399] cont_sentence_input_1_split -> cont_sentence_input_1_split_1
I0924 04:27:14.222553   436 net.cpp:141] Setting up cont_sentence_input_1_split
I0924 04:27:14.222568   436 net.cpp:148] Top shape: 1 1 (1)
I0924 04:27:14.222579   436 net.cpp:148] Top shape: 1 1 (1)
I0924 04:27:14.222585   436 net.cpp:156] Memory required for data: 16404
I0924 04:27:14.222594   436 layer_factory.hpp:77] Creating layer embed_encoder
I0924 04:27:14.222630   436 net.cpp:91] Creating Layer embed_encoder
I0924 04:27:14.222640   436 net.cpp:425] embed_encoder <- frames_fc7
I0924 04:27:14.222654   436 net.cpp:399] embed_encoder -> embedded_in_frames
I0924 04:27:14.231835   440 net.cpp:141] Setting up input
I0924 04:27:14.231899   440 net.cpp:148] Top shape: 1 4096 (4096)
I0924 04:27:14.231914   440 net.cpp:148] Top shape: 1 1 (1)
I0924 04:27:14.231925   440 net.cpp:148] Top shape: 1 1 (1)
I0924 04:27:14.231935   440 net.cpp:148] Top shape: 1 1 (1)
I0924 04:27:14.231941   440 net.cpp:156] Memory required for data: 16396
I0924 04:27:14.231938   484 net.cpp:141] Setting up input
I0924 04:27:14.231955   440 layer_factory.hpp:77] Creating layer cont_sentence_input_1_split
I0924 04:27:14.231966   484 net.cpp:148] Top shape: 1 4096 (4096)
I0924 04:27:14.231981   440 net.cpp:91] Creating Layer cont_sentence_input_1_split
I0924 04:27:14.231981   484 net.cpp:148] Top shape: 1 1 (1)
I0924 04:27:14.232002   440 net.cpp:425] cont_sentence_input_1_split <- cont_sentence
I0924 04:27:14.232009   484 net.cpp:148] Top shape: 1 1 (1)
I0924 04:27:14.232022   440 net.cpp:399] cont_sentence_input_1_split -> cont_sentence_input_1_split_0
I0924 04:27:14.232023   484 net.cpp:148] Top shape: 1 1 (1)
I0924 04:27:14.232041   484 net.cpp:156] Memory required for data: 16396
I0924 04:27:14.232049   440 net.cpp:399] cont_sentence_input_1_split -> cont_sentence_input_1_split_1
I0924 04:27:14.232053   484 layer_factory.hpp:77] Creating layer cont_sentence_input_1_split
I0924 04:27:14.232072   484 net.cpp:91] Creating Layer cont_sentence_input_1_split
I0924 04:27:14.232084   484 net.cpp:425] cont_sentence_input_1_split <- cont_sentence
I0924 04:27:14.232098   484 net.cpp:399] cont_sentence_input_1_split -> cont_sentence_input_1_split_0
I0924 04:27:14.232118   484 net.cpp:399] cont_sentence_input_1_split -> cont_sentence_input_1_split_1
I0924 04:27:14.232267   444 net.cpp:141] Setting up input
I0924 04:27:14.232288   444 net.cpp:148] Top shape: 1 4096 (4096)
I0924 04:27:14.232300   444 net.cpp:148] Top shape: 1 1 (1)
I0924 04:27:14.232311   444 net.cpp:148] Top shape: 1 1 (1)
I0924 04:27:14.232306   448 net.cpp:141] Setting up input
I0924 04:27:14.232336   444 net.cpp:148] Top shape: 1 1 (1)
I0924 04:27:14.232343   444 net.cpp:156] Memory required for data: 16396
I0924 04:27:14.232345   448 net.cpp:148] Top shape: 1 4096 (4096)
I0924 04:27:14.232352   444 layer_factory.hpp:77] Creating layer cont_sentence_input_1_split
I0924 04:27:14.232357   448 net.cpp:148] Top shape: 1 1 (1)
I0924 04:27:14.232367   444 net.cpp:91] Creating Layer cont_sentence_input_1_split
I0924 04:27:14.232367   448 net.cpp:148] Top shape: 1 1 (1)
I0924 04:27:14.232383   444 net.cpp:425] cont_sentence_input_1_split <- cont_sentence
I0924 04:27:14.232388   448 net.cpp:148] Top shape: 1 1 (1)
I0924 04:27:14.232396   448 net.cpp:156] Memory required for data: 16396
I0924 04:27:14.232404   458 net.cpp:141] Setting up input
I0924 04:27:14.232396   444 net.cpp:399] cont_sentence_input_1_split -> cont_sentence_input_1_split_0
I0924 04:27:14.232424   448 layer_factory.hpp:77] Creating layer cont_sentence_input_1_split
I0924 04:27:14.232439   444 net.cpp:399] cont_sentence_input_1_split -> cont_sentence_input_1_split_1
I0924 04:27:14.232424   458 net.cpp:148] Top shape: 1 4096 (4096)
I0924 04:27:14.232453   448 net.cpp:91] Creating Layer cont_sentence_input_1_split
I0924 04:27:14.232456   458 net.cpp:148] Top shape: 1 1 (1)
I0924 04:27:14.232463   448 net.cpp:425] cont_sentence_input_1_split <- cont_sentence
I0924 04:27:14.232468   458 net.cpp:148] Top shape: 1 1 (1)
I0924 04:27:14.232476   448 net.cpp:399] cont_sentence_input_1_split -> cont_sentence_input_1_split_0
I0924 04:27:14.232480   458 net.cpp:148] Top shape: 1 1 (1)
I0924 04:27:14.232488   458 net.cpp:156] Memory required for data: 16396
I0924 04:27:14.232496   448 net.cpp:399] cont_sentence_input_1_split -> cont_sentence_input_1_split_1
I0924 04:27:14.232498   458 layer_factory.hpp:77] Creating layer cont_sentence_input_1_split
I0924 04:27:14.232509   444 net.cpp:141] Setting up cont_sentence_input_1_split
I0924 04:27:14.232517   458 net.cpp:91] Creating Layer cont_sentence_input_1_split
I0924 04:27:14.232525   444 net.cpp:148] Top shape: 1 1 (1)
I0924 04:27:14.232527   458 net.cpp:425] cont_sentence_input_1_split <- cont_sentence
I0924 04:27:14.232549   444 net.cpp:148] Top shape: 1 1 (1)
I0924 04:27:14.232558   444 net.cpp:156] Memory required for data: 16404
I0924 04:27:14.232561   448 net.cpp:141] Setting up cont_sentence_input_1_split
I0924 04:27:14.232566   444 layer_factory.hpp:77] Creating layer embed_encoder
I0924 04:27:14.232560   458 net.cpp:399] cont_sentence_input_1_split -> cont_sentence_input_1_split_0
I0924 04:27:14.232586   448 net.cpp:148] Top shape: 1 1 (1)
I0924 04:27:14.232589   444 net.cpp:91] Creating Layer embed_encoder
I0924 04:27:14.232596   448 net.cpp:148] Top shape: 1 1 (1)
I0924 04:27:14.232599   444 net.cpp:425] embed_encoder <- frames_fc7
I0924 04:27:14.232599   458 net.cpp:399] cont_sentence_input_1_split -> cont_sentence_input_1_split_1
I0924 04:27:14.232604   448 net.cpp:156] Memory required for data: 16404
I0924 04:27:14.232612   448 layer_factory.hpp:77] Creating layer embed_encoder
I0924 04:27:14.232612   444 net.cpp:399] embed_encoder -> embedded_in_frames
I0924 04:27:14.232630   448 net.cpp:91] Creating Layer embed_encoder
I0924 04:27:14.232637   448 net.cpp:425] embed_encoder <- frames_fc7
I0924 04:27:14.232650   448 net.cpp:399] embed_encoder -> embedded_in_frames
I0924 04:27:14.232684   458 net.cpp:141] Setting up cont_sentence_input_1_split
I0924 04:27:14.232698   458 net.cpp:148] Top shape: 1 1 (1)
I0924 04:27:14.232704   458 net.cpp:148] Top shape: 1 1 (1)
I0924 04:27:14.232709   458 net.cpp:156] Memory required for data: 16404
I0924 04:27:14.232714   458 layer_factory.hpp:77] Creating layer embed_encoder
I0924 04:27:14.232727   458 net.cpp:91] Creating Layer embed_encoder
I0924 04:27:14.232733   458 net.cpp:425] embed_encoder <- frames_fc7
I0924 04:27:14.232741   458 net.cpp:399] embed_encoder -> embedded_in_frames
I0924 04:27:14.232759   492 net.cpp:141] Setting up input
I0924 04:27:14.232785   492 net.cpp:148] Top shape: 1 4096 (4096)
I0924 04:27:14.232797   492 net.cpp:148] Top shape: 1 1 (1)
I0924 04:27:14.232808   492 net.cpp:148] Top shape: 1 1 (1)
I0924 04:27:14.232820   492 net.cpp:148] Top shape: 1 1 (1)
I0924 04:27:14.232827   492 net.cpp:156] Memory required for data: 16396
I0924 04:27:14.232836   492 layer_factory.hpp:77] Creating layer cont_sentence_input_1_split
I0924 04:27:14.232852   492 net.cpp:91] Creating Layer cont_sentence_input_1_split
I0924 04:27:14.232862   492 net.cpp:425] cont_sentence_input_1_split <- cont_sentence
I0924 04:27:14.232879   492 net.cpp:399] cont_sentence_input_1_split -> cont_sentence_input_1_split_0
I0924 04:27:14.232897   492 net.cpp:399] cont_sentence_input_1_split -> cont_sentence_input_1_split_1
I0924 04:27:14.242265   484 net.cpp:141] Setting up cont_sentence_input_1_split
I0924 04:27:14.242329   484 net.cpp:148] Top shape: 1 1 (1)
I0924 04:27:14.242346   484 net.cpp:148] Top shape: 1 1 (1)
I0924 04:27:14.242354   484 net.cpp:156] Memory required for data: 16404
I0924 04:27:14.242369   484 layer_factory.hpp:77] Creating layer embed_encoder
I0924 04:27:14.242408   484 net.cpp:91] Creating Layer embed_encoder
I0924 04:27:14.242421   484 net.cpp:425] embed_encoder <- frames_fc7
I0924 04:27:14.242442   484 net.cpp:399] embed_encoder -> embedded_in_frames
I0924 04:27:14.246762   440 net.cpp:141] Setting up cont_sentence_input_1_split
I0924 04:27:14.246826   440 net.cpp:148] Top shape: 1 1 (1)
I0924 04:27:14.246840   440 net.cpp:148] Top shape: 1 1 (1)
I0924 04:27:14.246847   440 net.cpp:156] Memory required for data: 16404
I0924 04:27:14.246860   440 layer_factory.hpp:77] Creating layer embed_encoder
I0924 04:27:14.246878   492 net.cpp:141] Setting up cont_sentence_input_1_split
I0924 04:27:14.246891   440 net.cpp:91] Creating Layer embed_encoder
I0924 04:27:14.246928   440 net.cpp:425] embed_encoder <- frames_fc7
I0924 04:27:14.246932   492 net.cpp:148] Top shape: 1 1 (1)
I0924 04:27:14.246945   492 net.cpp:148] Top shape: 1 1 (1)
I0924 04:27:14.246951   440 net.cpp:399] embed_encoder -> embedded_in_frames
I0924 04:27:14.246953   492 net.cpp:156] Memory required for data: 16404
I0924 04:27:14.246989   492 layer_factory.hpp:77] Creating layer embed_encoder
I0924 04:27:14.247015   492 net.cpp:91] Creating Layer embed_encoder
I0924 04:27:14.247027   492 net.cpp:425] embed_encoder <- frames_fc7
I0924 04:27:14.247051   492 net.cpp:399] embed_encoder -> embedded_in_frames
I0924 04:27:14.247934   470 net.cpp:141] Setting up embed_encoder
I0924 04:27:14.247953   470 net.cpp:148] Top shape: 1 500 (500)
I0924 04:27:14.247959   470 net.cpp:156] Memory required for data: 18404
I0924 04:27:14.247983   470 layer_factory.hpp:77] Creating layer reshape_frames
I0924 04:27:14.248009   470 net.cpp:91] Creating Layer reshape_frames
I0924 04:27:14.248018   470 net.cpp:425] reshape_frames <- embedded_in_frames
I0924 04:27:14.248028   470 net.cpp:399] reshape_frames -> embedded_input_frames
I0924 04:27:14.248076   470 net.cpp:141] Setting up reshape_frames
I0924 04:27:14.248086   470 net.cpp:148] Top shape: 1 1 500 (500)
I0924 04:27:14.248091   470 net.cpp:156] Memory required for data: 20404
I0924 04:27:14.248096   470 layer_factory.hpp:77] Creating layer reshape_stage_indicator
I0924 04:27:14.248108   470 net.cpp:91] Creating Layer reshape_stage_indicator
I0924 04:27:14.248114   470 net.cpp:425] reshape_stage_indicator <- stage_indicator
I0924 04:27:14.248126   470 net.cpp:399] reshape_stage_indicator -> reshaped_stage_indicator
I0924 04:27:14.248164   470 net.cpp:141] Setting up reshape_stage_indicator
I0924 04:27:14.248174   470 net.cpp:148] Top shape: 1 1 1 (1)
I0924 04:27:14.248179   470 net.cpp:156] Memory required for data: 20408
I0924 04:27:14.248184   470 layer_factory.hpp:77] Creating layer embedding
I0924 04:27:14.248196   470 net.cpp:91] Creating Layer embedding
I0924 04:27:14.248201   470 net.cpp:425] embedding <- input_sentence
I0924 04:27:14.248212   470 net.cpp:399] embedding -> embedded_input_sentence
I0924 04:27:14.296072   496 net.cpp:141] Setting up embed_encoder
I0924 04:27:14.296136   496 net.cpp:148] Top shape: 1 500 (500)
I0924 04:27:14.296145   496 net.cpp:156] Memory required for data: 18404
I0924 04:27:14.296174   496 layer_factory.hpp:77] Creating layer reshape_frames
I0924 04:27:14.296197   496 net.cpp:91] Creating Layer reshape_frames
I0924 04:27:14.296206   496 net.cpp:425] reshape_frames <- embedded_in_frames
I0924 04:27:14.296218   496 net.cpp:399] reshape_frames -> embedded_input_frames
I0924 04:27:14.296275   496 net.cpp:141] Setting up reshape_frames
I0924 04:27:14.296290   496 net.cpp:148] Top shape: 1 1 500 (500)
I0924 04:27:14.296298   496 net.cpp:156] Memory required for data: 20404
I0924 04:27:14.296308   496 layer_factory.hpp:77] Creating layer reshape_stage_indicator
I0924 04:27:14.296327   496 net.cpp:91] Creating Layer reshape_stage_indicator
I0924 04:27:14.296336   496 net.cpp:425] reshape_stage_indicator <- stage_indicator
I0924 04:27:14.296350   496 net.cpp:399] reshape_stage_indicator -> reshaped_stage_indicator
I0924 04:27:14.314889   496 net.cpp:141] Setting up reshape_stage_indicator
I0924 04:27:14.314944   496 net.cpp:148] Top shape: 1 1 1 (1)
I0924 04:27:14.314954   496 net.cpp:156] Memory required for data: 20408
I0924 04:27:14.314965   496 layer_factory.hpp:77] Creating layer embedding
I0924 04:27:14.314998   496 net.cpp:91] Creating Layer embedding
I0924 04:27:14.315012   496 net.cpp:425] embedding <- input_sentence
I0924 04:27:14.315035   496 net.cpp:399] embedding -> embedded_input_sentence
I0924 04:27:14.323016   458 net.cpp:141] Setting up embed_encoder
I0924 04:27:14.323093   458 net.cpp:148] Top shape: 1 500 (500)
I0924 04:27:14.323103   458 net.cpp:156] Memory required for data: 18404
I0924 04:27:14.323132   458 layer_factory.hpp:77] Creating layer reshape_frames
I0924 04:27:14.327735   458 net.cpp:91] Creating Layer reshape_frames
I0924 04:27:14.328306   458 net.cpp:425] reshape_frames <- embedded_in_frames
I0924 04:27:14.328351   458 net.cpp:399] reshape_frames -> embedded_input_frames
I0924 04:27:14.368929   448 net.cpp:141] Setting up embed_encoder
I0924 04:27:14.368988   448 net.cpp:148] Top shape: 1 500 (500)
I0924 04:27:14.368993   448 net.cpp:156] Memory required for data: 18404
I0924 04:27:14.368999   458 net.cpp:141] Setting up reshape_frames
I0924 04:27:14.369016   448 layer_factory.hpp:77] Creating layer reshape_frames
I0924 04:27:14.369019   458 net.cpp:148] Top shape: 1 1 500 (500)
I0924 04:27:14.369024   458 net.cpp:156] Memory required for data: 20404
I0924 04:27:14.369029   458 layer_factory.hpp:77] Creating layer reshape_stage_indicator
I0924 04:27:14.369040   448 net.cpp:91] Creating Layer reshape_frames
I0924 04:27:14.369043   458 net.cpp:91] Creating Layer reshape_stage_indicator
I0924 04:27:14.369047   448 net.cpp:425] reshape_frames <- embedded_in_frames
I0924 04:27:14.369050   458 net.cpp:425] reshape_stage_indicator <- stage_indicator
I0924 04:27:14.369060   448 net.cpp:399] reshape_frames -> embedded_input_frames
I0924 04:27:14.369063   458 net.cpp:399] reshape_stage_indicator -> reshaped_stage_indicator
I0924 04:27:14.369149   436 net.cpp:141] Setting up embed_encoder
I0924 04:27:14.369168   436 net.cpp:148] Top shape: 1 500 (500)
I0924 04:27:14.369174   436 net.cpp:156] Memory required for data: 18404
I0924 04:27:14.369189   436 layer_factory.hpp:77] Creating layer reshape_frames
I0924 04:27:14.369201   436 net.cpp:91] Creating Layer reshape_frames
I0924 04:27:14.369207   436 net.cpp:425] reshape_frames <- embedded_in_frames
I0924 04:27:14.369217   436 net.cpp:399] reshape_frames -> embedded_input_frames
I0924 04:27:14.369328   448 net.cpp:141] Setting up reshape_frames
I0924 04:27:14.369340   448 net.cpp:148] Top shape: 1 1 500 (500)
I0924 04:27:14.369344   448 net.cpp:156] Memory required for data: 20404
I0924 04:27:14.369349   448 layer_factory.hpp:77] Creating layer reshape_stage_indicator
I0924 04:27:14.369360   448 net.cpp:91] Creating Layer reshape_stage_indicator
I0924 04:27:14.369360   458 net.cpp:141] Setting up reshape_stage_indicator
I0924 04:27:14.369365   448 net.cpp:425] reshape_stage_indicator <- stage_indicator
I0924 04:27:14.369372   458 net.cpp:148] Top shape: 1 1 1 (1)
I0924 04:27:14.369376   448 net.cpp:399] reshape_stage_indicator -> reshaped_stage_indicator
I0924 04:27:14.369377   458 net.cpp:156] Memory required for data: 20408
I0924 04:27:14.369390   458 layer_factory.hpp:77] Creating layer embedding
I0924 04:27:14.369402   458 net.cpp:91] Creating Layer embedding
I0924 04:27:14.369408   458 net.cpp:425] embedding <- input_sentence
I0924 04:27:14.369420   458 net.cpp:399] embedding -> embedded_input_sentence
I0924 04:27:14.369421   448 net.cpp:141] Setting up reshape_stage_indicator
I0924 04:27:14.369431   448 net.cpp:148] Top shape: 1 1 1 (1)
I0924 04:27:14.369436   448 net.cpp:156] Memory required for data: 20408
I0924 04:27:14.369441   448 layer_factory.hpp:77] Creating layer embedding
I0924 04:27:14.369451   448 net.cpp:91] Creating Layer embedding
I0924 04:27:14.369455   448 net.cpp:425] embedding <- input_sentence
I0924 04:27:14.369465   448 net.cpp:399] embedding -> embedded_input_sentence
I0924 04:27:14.370363   436 net.cpp:141] Setting up reshape_frames
I0924 04:27:14.370388   436 net.cpp:148] Top shape: 1 1 500 (500)
I0924 04:27:14.370393   436 net.cpp:156] Memory required for data: 20404
I0924 04:27:14.370400   436 layer_factory.hpp:77] Creating layer reshape_stage_indicator
I0924 04:27:14.370419   436 net.cpp:91] Creating Layer reshape_stage_indicator
I0924 04:27:14.370426   436 net.cpp:425] reshape_stage_indicator <- stage_indicator
I0924 04:27:14.370443   436 net.cpp:399] reshape_stage_indicator -> reshaped_stage_indicator
I0924 04:27:14.370494   436 net.cpp:141] Setting up reshape_stage_indicator
I0924 04:27:14.370510   436 net.cpp:148] Top shape: 1 1 1 (1)
I0924 04:27:14.370517   436 net.cpp:156] Memory required for data: 20408
I0924 04:27:14.370525   436 layer_factory.hpp:77] Creating layer embedding
I0924 04:27:14.370543   436 net.cpp:91] Creating Layer embedding
I0924 04:27:14.370553   436 net.cpp:425] embedding <- input_sentence
I0924 04:27:14.370569   436 net.cpp:399] embedding -> embedded_input_sentence
I0924 04:27:14.416563   464 net.cpp:141] Setting up embed_encoder
I0924 04:27:14.416625   464 net.cpp:148] Top shape: 1 500 (500)
I0924 04:27:14.416635   464 net.cpp:156] Memory required for data: 18404
I0924 04:27:14.416666   464 layer_factory.hpp:77] Creating layer reshape_frames
I0924 04:27:14.419580   464 net.cpp:91] Creating Layer reshape_frames
I0924 04:27:14.419641   464 net.cpp:425] reshape_frames <- embedded_in_frames
I0924 04:27:14.419678   464 net.cpp:399] reshape_frames -> embedded_input_frames
I0924 04:27:14.424196   444 net.cpp:141] Setting up embed_encoder
I0924 04:27:14.424265   444 net.cpp:148] Top shape: 1 500 (500)
I0924 04:27:14.424276   444 net.cpp:156] Memory required for data: 18404
I0924 04:27:14.424310   444 layer_factory.hpp:77] Creating layer reshape_frames
I0924 04:27:14.424340   444 net.cpp:91] Creating Layer reshape_frames
I0924 04:27:14.424352   444 net.cpp:425] reshape_frames <- embedded_in_frames
I0924 04:27:14.424368   444 net.cpp:399] reshape_frames -> embedded_input_frames
I0924 04:27:14.424443   444 net.cpp:141] Setting up reshape_frames
I0924 04:27:14.424458   444 net.cpp:148] Top shape: 1 1 500 (500)
I0924 04:27:14.424466   444 net.cpp:156] Memory required for data: 20404
I0924 04:27:14.424474   444 layer_factory.hpp:77] Creating layer reshape_stage_indicator
I0924 04:27:14.424492   444 net.cpp:91] Creating Layer reshape_stage_indicator
I0924 04:27:14.424500   444 net.cpp:425] reshape_stage_indicator <- stage_indicator
I0924 04:27:14.424515   444 net.cpp:399] reshape_stage_indicator -> reshaped_stage_indicator
I0924 04:27:14.510687   484 net.cpp:141] Setting up embed_encoder
I0924 04:27:14.510747   484 net.cpp:148] Top shape: 1 500 (500)
I0924 04:27:14.510761   484 net.cpp:156] Memory required for data: 18404
I0924 04:27:14.510756   464 net.cpp:141] Setting up reshape_frames
I0924 04:27:14.510794   484 layer_factory.hpp:77] Creating layer reshape_frames
I0924 04:27:14.510795   464 net.cpp:148] Top shape: 1 1 500 (500)
I0924 04:27:14.510812   464 net.cpp:156] Memory required for data: 20404
I0924 04:27:14.510828   484 net.cpp:91] Creating Layer reshape_frames
I0924 04:27:14.510830   464 layer_factory.hpp:77] Creating layer reshape_stage_indicator
I0924 04:27:14.510843   484 net.cpp:425] reshape_frames <- embedded_in_frames
I0924 04:27:14.510849   470 net.cpp:141] Setting up embedding
I0924 04:27:14.510864   484 net.cpp:399] reshape_frames -> embedded_input_frames
I0924 04:27:14.510875   470 net.cpp:148] Top shape: 1 1 500 (500)
I0924 04:27:14.510880   464 net.cpp:91] Creating Layer reshape_stage_indicator
I0924 04:27:14.510885   470 net.cpp:156] Memory required for data: 22408
I0924 04:27:14.510917   464 net.cpp:425] reshape_stage_indicator <- stage_indicator
I0924 04:27:14.510926   470 layer_factory.hpp:77] Creating layer lstm1
I0924 04:27:14.510933   484 net.cpp:141] Setting up reshape_frames
I0924 04:27:14.510949   484 net.cpp:148] Top shape: 1 1 500 (500)
I0924 04:27:14.510949   464 net.cpp:399] reshape_stage_indicator -> reshaped_stage_indicator
I0924 04:27:14.510962   484 net.cpp:156] Memory required for data: 20404
I0924 04:27:14.510964   470 net.cpp:91] Creating Layer lstm1
I0924 04:27:14.510972   484 layer_factory.hpp:77] Creating layer reshape_stage_indicator
I0924 04:27:14.510978   470 net.cpp:425] lstm1 <- embedded_input_frames
I0924 04:27:14.510989   484 net.cpp:91] Creating Layer reshape_stage_indicator
I0924 04:27:14.510992   470 net.cpp:425] lstm1 <- cont_sentence_input_1_split_0
I0924 04:27:14.511000   484 net.cpp:425] reshape_stage_indicator <- stage_indicator
I0924 04:27:14.511013   470 net.cpp:399] lstm1 -> lstm1
I0924 04:27:14.511020   484 net.cpp:399] reshape_stage_indicator -> reshaped_stage_indicator
I0924 04:27:14.511049   470 recurrent_layer.cpp:20] Initializing recurrent layer: assuming input batch contains 1 timesteps of 1 independent streams.
I0924 04:27:14.511075   464 net.cpp:141] Setting up reshape_stage_indicator
I0924 04:27:14.511106   464 net.cpp:148] Top shape: 1 1 1 (1)
I0924 04:27:14.511123   464 net.cpp:156] Memory required for data: 20408
I0924 04:27:14.511142   464 layer_factory.hpp:77] Creating layer embedding
I0924 04:27:14.511174   464 net.cpp:91] Creating Layer embedding
I0924 04:27:14.511196   464 net.cpp:425] embedding <- input_sentence
I0924 04:27:14.511229   464 net.cpp:399] embedding -> embedded_input_sentence
I0924 04:27:14.511675   470 net.cpp:49] Initializing net from parameters: 
layer {
  name: "lstm1_"
  type: "Input"
  top: "x"
  top: "cont"
  input_param {
    shape {
      dim: 1
      dim: 1
      dim: 500
    }
    shape {
      dim: 1
      dim: 1
    }
  }
}
layer {
  name: "lstm1_"
  type: "Input"
  top: "c_0"
  top: "h_0"
  input_param {
    shape {
      dim: 1
      dim: 1
      dim: 1000
    }
    shape {
      dim: 1
      dim: 1
      dim: 1000
    }
  }
}
layer {
  name: "lstm1_cont_slice"
  type: "Slice"
  bottom: "cont"
  top: "cont_1"
  slice_param {
    axis: 0
  }
}
layer {
  name: "lstm1_x_transform"
  type: "InnerProduct"
  bottom: "x"
  top: "W_xc_x"
  param {
    name: "W_xc"
  }
  param {
    name: "b_c"
  }
  propagate_down: true
  inner_product_param {
    num_output: 4000
    bias_term: true
    weight_filler {
      type: "uniform"
      min: -0.08
      max: 0.08
    }
    bias_filler {
      type: "constant"
      value: 0
    }
    axis: 2
  }
}
layer {
  name: "lstm1_W_xc_x_slice"
  type: "Slice"
  bottom: "W_xc_x"
  top: "W_xc_x_1"
  slice_param {
    axis: 0
  }
}
layer {
  name: "lstm1_h_conted_0"
  type: "Scale"
  bottom: "h_0"
  bottom: "cont_1"
  top: "h_conted_0"
  scale_param {
    axis: 0
  }
}
layer {
  name: "lstm1_transform_1"
  type: "InnerProduct"
  bottom: "h_conted_0"
  top: "W_hc_h_0"
  param {
    name: "W_hc"
  }
  inner_product_param {
    num_output: 4000
    bias_term: false
    weight_filler {
      type: "uniform"
      min: -0.08
      max: 0.08
    }
    axis: 2
  }
}
layer {
  name: "lstm1_gate_input_1"
  type: "Eltwise"
  bottom: "W_hc_h_0"
  bottom: "W_xc_x_1"
  top: "gate_input_1"
  eltwise_param {
    operation: SUM
  }
}
layer {
  name: "lstm1_unit_1"
  type: "LSTMUnit"
  bottom: "c_0"
  bottom: "gate_input_1"
  bottom: "cont_1"
  top: "c_1"
  top: "h_1"
}
layer {
  name: "lstm1_"
  type: "Split"
  bottom: "c_1"
  top: "c_T"
}
layer {
  name: "lstm1_h_concat"
  type: "Concat"
  bottom: "h_1"
  top: "h"
  concat_param {
    axis: 0
  }
}
layer {
  name: "h_pseudoloss"
  type: "Reduction"
  bottom: "h"
  top: "h_pseudoloss"
  loss_weight: 1
}
I0924 04:27:14.511826   470 layer_factory.hpp:77] Creating layer lstm1_
I0924 04:27:14.511847   470 net.cpp:91] Creating Layer lstm1_
I0924 04:27:14.511860   470 net.cpp:399] lstm1_ -> x
I0924 04:27:14.511880   470 net.cpp:399] lstm1_ -> cont
I0924 04:27:14.511917   444 net.cpp:141] Setting up reshape_stage_indicator
I0924 04:27:14.511936   444 net.cpp:148] Top shape: 1 1 1 (1)
I0924 04:27:14.511945   444 net.cpp:156] Memory required for data: 20408
I0924 04:27:14.511955   444 layer_factory.hpp:77] Creating layer embedding
I0924 04:27:14.511972   444 net.cpp:91] Creating Layer embedding
I0924 04:27:14.511982   444 net.cpp:425] embedding <- input_sentence
I0924 04:27:14.511998   444 net.cpp:399] embedding -> embedded_input_sentence
I0924 04:27:14.579135   492 net.cpp:141] Setting up embed_encoder
I0924 04:27:14.579180   484 net.cpp:141] Setting up reshape_stage_indicator
I0924 04:27:14.579211   484 net.cpp:148] Top shape: 1 1 1 (1)
I0924 04:27:14.579210   492 net.cpp:148] Top shape: 1 500 (500)
I0924 04:27:14.579226   484 net.cpp:156] Memory required for data: 20408
I0924 04:27:14.579226   492 net.cpp:156] Memory required for data: 18404
I0924 04:27:14.579246   484 layer_factory.hpp:77] Creating layer embedding
I0924 04:27:14.579272   492 layer_factory.hpp:77] Creating layer reshape_frames
I0924 04:27:14.579282   484 net.cpp:91] Creating Layer embedding
I0924 04:27:14.579299   484 net.cpp:425] embedding <- input_sentence
I0924 04:27:14.579303   492 net.cpp:91] Creating Layer reshape_frames
I0924 04:27:14.579316   492 net.cpp:425] reshape_frames <- embedded_in_frames
I0924 04:27:14.579327   484 net.cpp:399] embedding -> embedded_input_sentence
I0924 04:27:14.579334   492 net.cpp:399] reshape_frames -> embedded_input_frames
I0924 04:27:14.579421   492 net.cpp:141] Setting up reshape_frames
I0924 04:27:14.579439   492 net.cpp:148] Top shape: 1 1 500 (500)
I0924 04:27:14.579457   492 net.cpp:156] Memory required for data: 20404
I0924 04:27:14.579469   492 layer_factory.hpp:77] Creating layer reshape_stage_indicator
I0924 04:27:14.579495   492 net.cpp:91] Creating Layer reshape_stage_indicator
I0924 04:27:14.579505   492 net.cpp:425] reshape_stage_indicator <- stage_indicator
I0924 04:27:14.579517   470 net.cpp:141] Setting up lstm1_
I0924 04:27:14.579524   492 net.cpp:399] reshape_stage_indicator -> reshaped_stage_indicator
I0924 04:27:14.579538   470 net.cpp:148] Top shape: 1 1 500 (500)
I0924 04:27:14.579550   470 net.cpp:148] Top shape: 1 1 (1)
I0924 04:27:14.579558   470 net.cpp:156] Memory required for data: 2004
I0924 04:27:14.579567   470 layer_factory.hpp:77] Creating layer lstm1_
I0924 04:27:14.579577   492 net.cpp:141] Setting up reshape_stage_indicator
I0924 04:27:14.579587   470 net.cpp:91] Creating Layer lstm1_
I0924 04:27:14.579591   492 net.cpp:148] Top shape: 1 1 1 (1)
I0924 04:27:14.579598   492 net.cpp:156] Memory required for data: 20408
I0924 04:27:14.579601   470 net.cpp:399] lstm1_ -> c_0
I0924 04:27:14.579608   492 layer_factory.hpp:77] Creating layer embedding
I0924 04:27:14.579622   470 net.cpp:399] lstm1_ -> h_0
I0924 04:27:14.579627   492 net.cpp:91] Creating Layer embedding
I0924 04:27:14.579639   492 net.cpp:425] embedding <- input_sentence
I0924 04:27:14.579661   492 net.cpp:399] embedding -> embedded_input_sentence
I0924 04:27:14.579707   470 net.cpp:141] Setting up lstm1_
I0924 04:27:14.579723   470 net.cpp:148] Top shape: 1 1 1000 (1000)
I0924 04:27:14.579733   470 net.cpp:148] Top shape: 1 1 1000 (1000)
I0924 04:27:14.579741   470 net.cpp:156] Memory required for data: 10004
I0924 04:27:14.579748   470 layer_factory.hpp:77] Creating layer lstm1_cont_slice
I0924 04:27:14.579766   470 net.cpp:91] Creating Layer lstm1_cont_slice
I0924 04:27:14.579774   470 net.cpp:425] lstm1_cont_slice <- cont
I0924 04:27:14.579787   470 net.cpp:399] lstm1_cont_slice -> cont_1
I0924 04:27:14.580113   496 net.cpp:141] Setting up embedding
I0924 04:27:14.580139   496 net.cpp:148] Top shape: 1 1 500 (500)
I0924 04:27:14.580150   496 net.cpp:156] Memory required for data: 22408
I0924 04:27:14.580170   496 layer_factory.hpp:77] Creating layer lstm1
I0924 04:27:14.584735   496 net.cpp:91] Creating Layer lstm1
I0924 04:27:14.584789   496 net.cpp:425] lstm1 <- embedded_input_frames
I0924 04:27:14.584803   496 net.cpp:425] lstm1 <- cont_sentence_input_1_split_0
I0924 04:27:14.618798   496 net.cpp:399] lstm1 -> lstm1
I0924 04:27:14.618880   496 recurrent_layer.cpp:20] Initializing recurrent layer: assuming input batch contains 1 timesteps of 1 independent streams.
I0924 04:27:14.619334   496 net.cpp:49] Initializing net from parameters: 
layer {
  name: "lstm1_"
  type: "Input"
  top: "x"
  top: "cont"
  input_param {
    shape {
      dim: 1
      dim: 1
      dim: 500
    }
    shape {
      dim: 1
      dim: 1
    }
  }
}
layer {
  name: "lstm1_"
  type: "Input"
  top: "c_0"
  top: "h_0"
  input_param {
    shape {
      dim: 1
      dim: 1
      dim: 1000
    }
    shape {
      dim: 1
      dim: 1
      dim: 1000
    }
  }
}
layer {
  name: "lstm1_cont_slice"
  type: "Slice"
  bottom: "cont"
  top: "cont_1"
  slice_param {
    axis: 0
  }
}
layer {
  name: "lstm1_x_transform"
  type: "InnerProduct"
  bottom: "x"
  top: "W_xc_x"
  param {
    name: "W_xc"
  }
  param {
    name: "b_c"
  }
  propagate_down: true
  inner_product_param {
    num_output: 4000
    bias_term: true
    weight_filler {
      type: "uniform"
      min: -0.08
      max: 0.08
    }
    bias_filler {
      type: "constant"
      value: 0
    }
    axis: 2
  }
}
layer {
  name: "lstm1_W_xc_x_slice"
  type: "Slice"
  bottom: "W_xc_x"
  top: "W_xc_x_1"
  slice_param {
    axis: 0
  }
}
layer {
  name: "lstm1_h_conted_0"
  type: "Scale"
  bottom: "h_0"
  bottom: "cont_1"
  top: "h_conted_0"
  scale_param {
    axis: 0
  }
}
layer {
  name: "lstm1_transform_1"
  type: "InnerProduct"
  bottom: "h_conted_0"
  top: "W_hc_h_0"
  param {
    name: "W_hc"
  }
  inner_product_param {
    num_output: 4000
    bias_term: false
    weight_filler {
      type: "uniform"
      min: -0.08
      max: 0.08
    }
    axis: 2
  }
}
layer {
  name: "lstm1_gate_input_1"
  type: "Eltwise"
  bottom: "W_hc_h_0"
  bottom: "W_xc_x_1"
  top: "gate_input_1"
  eltwise_param {
    operation: SUM
  }
}
layer {
  name: "lstm1_unit_1"
  type: "LSTMUnit"
  bottom: "c_0"
  bottom: "gate_input_1"
  bottom: "cont_1"
  top: "c_1"
  top: "h_1"
}
layer {
  name: "lstm1_"
  type: "Split"
  bottom: "c_1"
  top: "c_T"
}
layer {
  name: "lstm1_h_concat"
  type: "Concat"
  bottom: "h_1"
  top: "h"
  concat_param {
    axis: 0
  }
}
layer {
  name: "h_pseudoloss"
  type: "Reduction"
  bottom: "h"
  top: "h_pseudoloss"
  loss_weight: 1
}
I0924 04:27:14.619498   496 layer_factory.hpp:77] Creating layer lstm1_
I0924 04:27:14.619524   496 net.cpp:91] Creating Layer lstm1_
I0924 04:27:14.619536   496 net.cpp:399] lstm1_ -> x
I0924 04:27:14.619556   496 net.cpp:399] lstm1_ -> cont
I0924 04:27:14.622258   470 net.cpp:141] Setting up lstm1_cont_slice
I0924 04:27:14.622319   470 net.cpp:148] Top shape: 1 1 (1)
I0924 04:27:14.622329   470 net.cpp:156] Memory required for data: 10008
I0924 04:27:14.622345   470 layer_factory.hpp:77] Creating layer cont_1_lstm1_cont_slice_0_split
I0924 04:27:14.622372   470 net.cpp:91] Creating Layer cont_1_lstm1_cont_slice_0_split
I0924 04:27:14.622385   470 net.cpp:425] cont_1_lstm1_cont_slice_0_split <- cont_1
I0924 04:27:14.622402   470 net.cpp:399] cont_1_lstm1_cont_slice_0_split -> cont_1_lstm1_cont_slice_0_split_0
I0924 04:27:14.622424   470 net.cpp:399] cont_1_lstm1_cont_slice_0_split -> cont_1_lstm1_cont_slice_0_split_1
I0924 04:27:14.622516   470 net.cpp:141] Setting up cont_1_lstm1_cont_slice_0_split
I0924 04:27:14.622531   470 net.cpp:148] Top shape: 1 1 (1)
I0924 04:27:14.622541   470 net.cpp:148] Top shape: 1 1 (1)
I0924 04:27:14.622550   470 net.cpp:156] Memory required for data: 10016
I0924 04:27:14.622557   470 layer_factory.hpp:77] Creating layer lstm1_x_transform
I0924 04:27:14.622584   470 net.cpp:91] Creating Layer lstm1_x_transform
I0924 04:27:14.622593   470 net.cpp:425] lstm1_x_transform <- x
I0924 04:27:14.622625   470 net.cpp:399] lstm1_x_transform -> W_xc_x
I0924 04:27:14.623021   440 net.cpp:141] Setting up embed_encoder
I0924 04:27:14.623070   440 net.cpp:148] Top shape: 1 500 (500)
I0924 04:27:14.623088   440 net.cpp:156] Memory required for data: 18404
I0924 04:27:14.623138   440 layer_factory.hpp:77] Creating layer reshape_frames
I0924 04:27:14.623177   440 net.cpp:91] Creating Layer reshape_frames
I0924 04:27:14.623198   440 net.cpp:425] reshape_frames <- embedded_in_frames
I0924 04:27:14.623226   440 net.cpp:399] reshape_frames -> embedded_input_frames
I0924 04:27:14.623323   440 net.cpp:141] Setting up reshape_frames
I0924 04:27:14.623350   440 net.cpp:148] Top shape: 1 1 500 (500)
I0924 04:27:14.623363   440 net.cpp:156] Memory required for data: 20404
I0924 04:27:14.623378   440 layer_factory.hpp:77] Creating layer reshape_stage_indicator
I0924 04:27:14.623414   440 net.cpp:91] Creating Layer reshape_stage_indicator
I0924 04:27:14.623433   440 net.cpp:425] reshape_stage_indicator <- stage_indicator
I0924 04:27:14.623456   440 net.cpp:399] reshape_stage_indicator -> reshaped_stage_indicator
I0924 04:27:14.623572   440 net.cpp:141] Setting up reshape_stage_indicator
I0924 04:27:14.623600   440 net.cpp:148] Top shape: 1 1 1 (1)
I0924 04:27:14.623612   440 net.cpp:156] Memory required for data: 20408
I0924 04:27:14.623626   440 layer_factory.hpp:77] Creating layer embedding
I0924 04:27:14.623654   440 net.cpp:91] Creating Layer embedding
I0924 04:27:14.623672   440 net.cpp:425] embedding <- input_sentence
I0924 04:27:14.623704   440 net.cpp:399] embedding -> embedded_input_sentence
I0924 04:27:14.680531   436 net.cpp:141] Setting up embedding
I0924 04:27:14.680588   436 net.cpp:148] Top shape: 1 1 500 (500)
I0924 04:27:14.680598   436 net.cpp:156] Memory required for data: 22408
I0924 04:27:14.680625   436 layer_factory.hpp:77] Creating layer lstm1
I0924 04:27:14.680654   436 net.cpp:91] Creating Layer lstm1
I0924 04:27:14.680665   436 net.cpp:425] lstm1 <- embedded_input_frames
I0924 04:27:14.680680   436 net.cpp:425] lstm1 <- cont_sentence_input_1_split_0
I0924 04:27:14.680699   436 net.cpp:399] lstm1 -> lstm1
I0924 04:27:14.680729   436 recurrent_layer.cpp:20] Initializing recurrent layer: assuming input batch contains 1 timesteps of 1 independent streams.
I0924 04:27:14.681186   436 net.cpp:49] Initializing net from parameters: 
layer {
  name: "lstm1_"
  type: "Input"
  top: "x"
  top: "cont"
  input_param {
    shape {
      dim: 1
      dim: 1
      dim: 500
    }
    shape {
      dim: 1
      dim: 1
    }
  }
}
layer {
  name: "lstm1_"
  type: "Input"
  top: "c_0"
  top: "h_0"
  input_param {
    shape {
      dim: 1
      dim: 1
      dim: 1000
    }
    shape {
      dim: 1
      dim: 1
      dim: 1000
    }
  }
}
layer {
  name: "lstm1_cont_slice"
  type: "Slice"
  bottom: "cont"
  top: "cont_1"
  slice_param {
    axis: 0
  }
}
layer {
  name: "lstm1_x_transform"
  type: "InnerProduct"
  bottom: "x"
  top: "W_xc_x"
  param {
    name: "W_xc"
  }
  param {
    name: "b_c"
  }
  propagate_down: true
  inner_product_param {
    num_output: 4000
    bias_term: true
    weight_filler {
      type: "uniform"
      min: -0.08
      max: 0.08
    }
    bias_filler {
      type: "constant"
      value: 0
    }
    axis: 2
  }
}
layer {
  name: "lstm1_W_xc_x_slice"
  type: "Slice"
  bottom: "W_xc_x"
  top: "W_xc_x_1"
  slice_param {
    axis: 0
  }
}
layer {
  name: "lstm1_h_conted_0"
  type: "Scale"
  bottom: "h_0"
  bottom: "cont_1"
  top: "h_conted_0"
  scale_param {
    axis: 0
  }
}
layer {
  name: "lstm1_transform_1"
  type: "InnerProduct"
  bottom: "h_conted_0"
  top: "W_hc_h_0"
  param {
    name: "W_hc"
  }
  inner_product_param {
    num_output: 4000
    bias_term: false
    weight_filler {
      type: "uniform"
      min: -0.08
      max: 0.08
    }
    axis: 2
  }
}
layer {
  name: "lstm1_gate_input_1"
  type: "Eltwise"
  bottom: "W_hc_h_0"
  bottom: "W_xc_x_1"
  top: "gate_input_1"
  eltwise_param {
    operation: SUM
  }
}
layer {
  name: "lstm1_unit_1"
  type: "LSTMUnit"
  bottom: "c_0"
  bottom: "gate_input_1"
  bottom: "cont_1"
  top: "c_1"
  top: "h_1"
}
layer {
  name: "lstm1_"
  type: "Split"
  bottom: "c_1"
  top: "c_T"
}
layer {
  name: "lstm1_h_concat"
  type: "Concat"
  bottom: "h_1"
  top: "h"
  concat_param {
    axis: 0
  }
}
layer {
  name: "h_pseudoloss"
  type: "Reduction"
  bottom: "h"
  top: "h_pseudoloss"
  loss_weight: 1
}
I0924 04:27:14.681344   436 layer_factory.hpp:77] Creating layer lstm1_
I0924 04:27:14.681368   436 net.cpp:91] Creating Layer lstm1_
I0924 04:27:14.681383   436 net.cpp:399] lstm1_ -> x
I0924 04:27:14.681406   436 net.cpp:399] lstm1_ -> cont
I0924 04:27:14.684989   496 net.cpp:141] Setting up lstm1_
I0924 04:27:14.685052   496 net.cpp:148] Top shape: 1 1 500 (500)
I0924 04:27:14.685070   496 net.cpp:148] Top shape: 1 1 (1)
I0924 04:27:14.685080   496 net.cpp:156] Memory required for data: 2004
I0924 04:27:14.685094   496 layer_factory.hpp:77] Creating layer lstm1_
I0924 04:27:14.685137   496 net.cpp:91] Creating Layer lstm1_
I0924 04:27:14.685158   496 net.cpp:399] lstm1_ -> c_0
I0924 04:27:14.685190   496 net.cpp:399] lstm1_ -> h_0
I0924 04:27:14.801261   436 net.cpp:141] Setting up lstm1_
I0924 04:27:14.801328   436 net.cpp:148] Top shape: 1 1 500 (500)
I0924 04:27:14.801345   436 net.cpp:148] Top shape: 1 1 (1)
I0924 04:27:14.801354   436 net.cpp:156] Memory required for data: 2004
I0924 04:27:14.801370   436 layer_factory.hpp:77] Creating layer lstm1_
I0924 04:27:14.801403   436 net.cpp:91] Creating Layer lstm1_
I0924 04:27:14.801426   436 net.cpp:399] lstm1_ -> c_0
I0924 04:27:14.801458   436 net.cpp:399] lstm1_ -> h_0
I0924 04:27:14.801548   436 net.cpp:141] Setting up lstm1_
I0924 04:27:14.801565   436 net.cpp:148] Top shape: 1 1 1000 (1000)
I0924 04:27:14.801578   436 net.cpp:148] Top shape: 1 1 1000 (1000)
I0924 04:27:14.801585   436 net.cpp:156] Memory required for data: 10004
I0924 04:27:14.801594   436 layer_factory.hpp:77] Creating layer lstm1_cont_slice
I0924 04:27:14.801611   436 net.cpp:91] Creating Layer lstm1_cont_slice
I0924 04:27:14.801622   436 net.cpp:425] lstm1_cont_slice <- cont
I0924 04:27:14.801641   436 net.cpp:399] lstm1_cont_slice -> cont_1
I0924 04:27:14.801697   436 net.cpp:141] Setting up lstm1_cont_slice
I0924 04:27:14.801713   436 net.cpp:148] Top shape: 1 1 (1)
I0924 04:27:14.801723   436 net.cpp:156] Memory required for data: 10008
I0924 04:27:14.801730   436 layer_factory.hpp:77] Creating layer cont_1_lstm1_cont_slice_0_split
I0924 04:27:14.801750   436 net.cpp:91] Creating Layer cont_1_lstm1_cont_slice_0_split
I0924 04:27:14.801760   436 net.cpp:425] cont_1_lstm1_cont_slice_0_split <- cont_1
I0924 04:27:14.801774   436 net.cpp:399] cont_1_lstm1_cont_slice_0_split -> cont_1_lstm1_cont_slice_0_split_0
I0924 04:27:14.801789   436 net.cpp:399] cont_1_lstm1_cont_slice_0_split -> cont_1_lstm1_cont_slice_0_split_1
I0924 04:27:14.801867   436 net.cpp:141] Setting up cont_1_lstm1_cont_slice_0_split
I0924 04:27:14.801884   436 net.cpp:148] Top shape: 1 1 (1)
I0924 04:27:14.801895   436 net.cpp:148] Top shape: 1 1 (1)
I0924 04:27:14.801903   436 net.cpp:156] Memory required for data: 10016
I0924 04:27:14.801913   436 layer_factory.hpp:77] Creating layer lstm1_x_transform
I0924 04:27:14.801934   436 net.cpp:91] Creating Layer lstm1_x_transform
I0924 04:27:14.801944   436 net.cpp:425] lstm1_x_transform <- x
I0924 04:27:14.801959   436 net.cpp:399] lstm1_x_transform -> W_xc_x
I0924 04:27:14.807852   458 net.cpp:141] Setting up embedding
I0924 04:27:14.807903   458 net.cpp:148] Top shape: 1 1 500 (500)
I0924 04:27:14.807909   458 net.cpp:156] Memory required for data: 22408
I0924 04:27:14.807931   458 layer_factory.hpp:77] Creating layer lstm1
I0924 04:27:14.807952   458 net.cpp:91] Creating Layer lstm1
I0924 04:27:14.807960   458 net.cpp:425] lstm1 <- embedded_input_frames
I0924 04:27:14.807971   458 net.cpp:425] lstm1 <- cont_sentence_input_1_split_0
I0924 04:27:14.807981   458 net.cpp:399] lstm1 -> lstm1
I0924 04:27:14.808003   458 recurrent_layer.cpp:20] Initializing recurrent layer: assuming input batch contains 1 timesteps of 1 independent streams.
I0924 04:27:14.808017   448 net.cpp:141] Setting up embedding
I0924 04:27:14.808038   448 net.cpp:148] Top shape: 1 1 500 (500)
I0924 04:27:14.808045   448 net.cpp:156] Memory required for data: 22408
I0924 04:27:14.808063   448 layer_factory.hpp:77] Creating layer lstm1
I0924 04:27:14.808079   448 net.cpp:91] Creating Layer lstm1
I0924 04:27:14.808087   448 net.cpp:425] lstm1 <- embedded_input_frames
I0924 04:27:14.808099   448 net.cpp:425] lstm1 <- cont_sentence_input_1_split_0
I0924 04:27:14.808112   448 net.cpp:399] lstm1 -> lstm1
I0924 04:27:14.808128   448 recurrent_layer.cpp:20] Initializing recurrent layer: assuming input batch contains 1 timesteps of 1 independent streams.
I0924 04:27:14.808308   458 net.cpp:49] Initializing net from parameters: 
layer {
  name: "lstm1_"
  type: "Input"
  top: "x"
  top: "cont"
  input_param {
    shape {
      dim: 1
      dim: 1
      dim: 500
    }
    shape {
      dim: 1
      dim: 1
    }
  }
}
layer {
  name: "lstm1_"
  type: "Input"
  top: "c_0"
  top: "h_0"
  input_param {
    shape {
      dim: 1
      dim: 1
      dim: 1000
    }
    shape {
      dim: 1
      dim: 1
      dim: 1000
    }
  }
}
layer {
  name: "lstm1_cont_slice"
  type: "Slice"
  bottom: "cont"
  top: "cont_1"
  slice_param {
    axis: 0
  }
}
layer {
  name: "lstm1_x_transform"
  type: "InnerProduct"
  bottom: "x"
  top: "W_xc_x"
  param {
    name: "W_xc"
  }
  param {
    name: "b_c"
  }
  propagate_down: true
  inner_product_param {
    num_output: 4000
    bias_term: true
    weight_filler {
      type: "uniform"
      min: -0.08
      max: 0.08
    }
    bias_filler {
      type: "constant"
      value: 0
    }
    axis: 2
  }
}
layer {
  name: "lstm1_W_xc_x_slice"
  type: "Slice"
  bottom: "W_xc_x"
  top: "W_xc_x_1"
  slice_param {
    axis: 0
  }
}
layer {
  name: "lstm1_h_conted_0"
  type: "Scale"
  bottom: "h_0"
  bottom: "cont_1"
  top: "h_conted_0"
  scale_param {
    axis: 0
  }
}
layer {
  name: "lstm1_transform_1"
  type: "InnerProduct"
  bottom: "h_conted_0"
  top: "W_hc_h_0"
  param {
    name: "W_hc"
  }
  inner_product_param {
    num_output: 4000
    bias_term: false
    weight_filler {
      type: "uniform"
      min: -0.08
      max: 0.08
    }
    axis: 2
  }
}
layer {
  name: "lstm1_gate_input_1"
  type: "Eltwise"
  bottom: "W_hc_h_0"
  bottom: "W_xc_x_1"
  top: "gate_input_1"
  eltwise_param {
    operation: SUM
  }
}
layer {
  name: "lstm1_unit_1"
  type: "LSTMUnit"
  bottom: "c_0"
  bottom: "gate_input_1"
  bottom: "cont_1"
  top: "c_1"
  top: "h_1"
}
layer {
  name: "lstm1_"
  type: "Split"
  bottom: "c_1"
  top: "c_T"
}
layer {
  name: "lstm1_h_concat"
  type: "Concat"
  bottom: "h_1"
  top: "h"
  concat_param {
    axis: 0
  }
}
layer {
  name: "h_pseudoloss"
  type: "Reduction"
  bottom: "h"
  top: "h_pseudoloss"
  loss_weight: 1
}
I0924 04:27:14.808405   458 layer_factory.hpp:77] Creating layer lstm1_
I0924 04:27:14.808419   458 net.cpp:91] Creating Layer lstm1_
I0924 04:27:14.808425   458 net.cpp:399] lstm1_ -> x
I0924 04:27:14.808439   458 net.cpp:399] lstm1_ -> cont
I0924 04:27:14.808450   448 net.cpp:49] Initializing net from parameters: 
layer {
  name: "lstm1_"
  type: "Input"
  top: "x"
  top: "cont"
  input_param {
    shape {
      dim: 1
      dim: 1
      dim: 500
    }
    shape {
      dim: 1
      dim: 1
    }
  }
}
layer {
  name: "lstm1_"
  type: "Input"
  top: "c_0"
  top: "h_0"
  input_param {
    shape {
      dim: 1
      dim: 1
      dim: 1000
    }
    shape {
      dim: 1
      dim: 1
      dim: 1000
    }
  }
}
layer {
  name: "lstm1_cont_slice"
  type: "Slice"
  bottom: "cont"
  top: "cont_1"
  slice_param {
    axis: 0
  }
}
layer {
  name: "lstm1_x_transform"
  type: "InnerProduct"
  bottom: "x"
  top: "W_xc_x"
  param {
    name: "W_xc"
  }
  param {
    name: "b_c"
  }
  propagate_down: true
  inner_product_param {
    num_output: 4000
    bias_term: true
    weight_filler {
      type: "uniform"
      min: -0.08
      max: 0.08
    }
    bias_filler {
      type: "constant"
      value: 0
    }
    axis: 2
  }
}
layer {
  name: "lstm1_W_xc_x_slice"
  type: "Slice"
  bottom: "W_xc_x"
  top: "W_xc_x_1"
  slice_param {
    axis: 0
  }
}
layer {
  name: "lstm1_h_conted_0"
  type: "Scale"
  bottom: "h_0"
  bottom: "cont_1"
  top: "h_conted_0"
  scale_param {
    axis: 0
  }
}
layer {
  name: "lstm1_transform_1"
  type: "InnerProduct"
  bottom: "h_conted_0"
  top: "W_hc_h_0"
  param {
    name: "W_hc"
  }
  inner_product_param {
    num_output: 4000
    bias_term: false
    weight_filler {
      type: "uniform"
      min: -0.08
      max: 0.08
    }
    axis: 2
  }
}
layer {
  name: "lstm1_gate_input_1"
  type: "Eltwise"
  bottom: "W_hc_h_0"
  bottom: "W_xc_x_1"
  top: "gate_input_1"
  eltwise_param {
    operation: SUM
  }
}
layer {
  name: "lstm1_unit_1"
  type: "LSTMUnit"
  bottom: "c_0"
  bottom: "gate_input_1"
  bottom: "cont_1"
  top: "c_1"
  top: "h_1"
}
layer {
  name: "lstm1_"
  type: "Split"
  bottom: "c_1"
  top: "c_T"
}
layer {
  name: "lstm1_h_concat"
  type: "Concat"
  bottom: "h_1"
  top: "h"
  concat_param {
    axis: 0
  }
}
layer {
  name: "h_pseudoloss"
  type: "Reduction"
  bottom: "h"
  top: "h_pseudoloss"
  loss_weight: 1
}
I0924 04:27:14.808498   458 net.cpp:141] Setting up lstm1_
I0924 04:27:14.808508   458 net.cpp:148] Top shape: 1 1 500 (500)
I0924 04:27:14.808516   458 net.cpp:148] Top shape: 1 1 (1)
I0924 04:27:14.808519   458 net.cpp:156] Memory required for data: 2004
I0924 04:27:14.808524   458 layer_factory.hpp:77] Creating layer lstm1_
I0924 04:27:14.808537   458 net.cpp:91] Creating Layer lstm1_
I0924 04:27:14.808543   458 net.cpp:399] lstm1_ -> c_0
I0924 04:27:14.808554   458 net.cpp:399] lstm1_ -> h_0
I0924 04:27:14.808573   448 layer_factory.hpp:77] Creating layer lstm1_
I0924 04:27:14.808589   448 net.cpp:91] Creating Layer lstm1_
I0924 04:27:14.808599   448 net.cpp:399] lstm1_ -> x
I0924 04:27:14.808607   458 net.cpp:141] Setting up lstm1_
I0924 04:27:14.808616   448 net.cpp:399] lstm1_ -> cont
I0924 04:27:14.808619   458 net.cpp:148] Top shape: 1 1 1000 (1000)
I0924 04:27:14.808648   458 net.cpp:148] Top shape: 1 1 1000 (1000)
I0924 04:27:14.808653   458 net.cpp:156] Memory required for data: 10004
I0924 04:27:14.808658   458 layer_factory.hpp:77] Creating layer lstm1_cont_slice
I0924 04:27:14.808667   458 net.cpp:91] Creating Layer lstm1_cont_slice
I0924 04:27:14.808673   458 net.cpp:425] lstm1_cont_slice <- cont
I0924 04:27:14.808683   458 net.cpp:399] lstm1_cont_slice -> cont_1
I0924 04:27:14.808714   448 net.cpp:141] Setting up lstm1_
I0924 04:27:14.808728   448 net.cpp:148] Top shape: 1 1 500 (500)
I0924 04:27:14.808738   448 net.cpp:148] Top shape: 1 1 (1)
I0924 04:27:14.808744   448 net.cpp:156] Memory required for data: 2004
I0924 04:27:14.808753   448 layer_factory.hpp:77] Creating layer lstm1_
I0924 04:27:14.808769   448 net.cpp:91] Creating Layer lstm1_
I0924 04:27:14.808779   448 net.cpp:399] lstm1_ -> c_0
I0924 04:27:14.808794   448 net.cpp:399] lstm1_ -> h_0
I0924 04:27:14.810129   458 net.cpp:141] Setting up lstm1_cont_slice
I0924 04:27:14.810161   458 net.cpp:148] Top shape: 1 1 (1)
I0924 04:27:14.810168   458 net.cpp:156] Memory required for data: 10008
I0924 04:27:14.810178   458 layer_factory.hpp:77] Creating layer cont_1_lstm1_cont_slice_0_split
I0924 04:27:14.810204   448 net.cpp:141] Setting up lstm1_
I0924 04:27:14.810204   458 net.cpp:91] Creating Layer cont_1_lstm1_cont_slice_0_split
I0924 04:27:14.810230   448 net.cpp:148] Top shape: 1 1 1000 (1000)
I0924 04:27:14.810233   458 net.cpp:425] cont_1_lstm1_cont_slice_0_split <- cont_1
I0924 04:27:14.810240   448 net.cpp:148] Top shape: 1 1 1000 (1000)
I0924 04:27:14.810247   448 net.cpp:156] Memory required for data: 10004
I0924 04:27:14.810248   458 net.cpp:399] cont_1_lstm1_cont_slice_0_split -> cont_1_lstm1_cont_slice_0_split_0
I0924 04:27:14.810262   448 layer_factory.hpp:77] Creating layer lstm1_cont_slice
I0924 04:27:14.810277   458 net.cpp:399] cont_1_lstm1_cont_slice_0_split -> cont_1_lstm1_cont_slice_0_split_1
I0924 04:27:14.810277   448 net.cpp:91] Creating Layer lstm1_cont_slice
I0924 04:27:14.810286   448 net.cpp:425] lstm1_cont_slice <- cont
I0924 04:27:14.810302   448 net.cpp:399] lstm1_cont_slice -> cont_1
I0924 04:27:14.810355   448 net.cpp:141] Setting up lstm1_cont_slice
I0924 04:27:14.810369   448 net.cpp:148] Top shape: 1 1 (1)
I0924 04:27:14.810375   448 net.cpp:156] Memory required for data: 10008
I0924 04:27:14.810382   448 layer_factory.hpp:77] Creating layer cont_1_lstm1_cont_slice_0_split
I0924 04:27:14.810396   448 net.cpp:91] Creating Layer cont_1_lstm1_cont_slice_0_split
I0924 04:27:14.810405   448 net.cpp:425] cont_1_lstm1_cont_slice_0_split <- cont_1
I0924 04:27:14.810415   448 net.cpp:399] cont_1_lstm1_cont_slice_0_split -> cont_1_lstm1_cont_slice_0_split_0
I0924 04:27:14.810430   448 net.cpp:399] cont_1_lstm1_cont_slice_0_split -> cont_1_lstm1_cont_slice_0_split_1
I0924 04:27:14.810463   458 net.cpp:141] Setting up cont_1_lstm1_cont_slice_0_split
I0924 04:27:14.810479   458 net.cpp:148] Top shape: 1 1 (1)
I0924 04:27:14.810487   458 net.cpp:148] Top shape: 1 1 (1)
I0924 04:27:14.810492   458 net.cpp:156] Memory required for data: 10016
I0924 04:27:14.810497   458 layer_factory.hpp:77] Creating layer lstm1_x_transform
I0924 04:27:14.810513   458 net.cpp:91] Creating Layer lstm1_x_transform
I0924 04:27:14.810518   458 net.cpp:425] lstm1_x_transform <- x
I0924 04:27:14.810528   458 net.cpp:399] lstm1_x_transform -> W_xc_x
I0924 04:27:14.810542   470 net.cpp:141] Setting up lstm1_x_transform
I0924 04:27:14.810577   470 net.cpp:148] Top shape: 1 1 4000 (4000)
I0924 04:27:14.810613   470 net.cpp:156] Memory required for data: 26016
I0924 04:27:14.810614   448 net.cpp:141] Setting up cont_1_lstm1_cont_slice_0_split
I0924 04:27:14.810662   448 net.cpp:148] Top shape: 1 1 (1)
I0924 04:27:14.810672   448 net.cpp:148] Top shape: 1 1 (1)
I0924 04:27:14.810673   470 layer_factory.hpp:77] Creating layer lstm1_W_xc_x_slice
I0924 04:27:14.810678   448 net.cpp:156] Memory required for data: 10016
I0924 04:27:14.810703   448 layer_factory.hpp:77] Creating layer lstm1_x_transform
I0924 04:27:14.810720   448 net.cpp:91] Creating Layer lstm1_x_transform
I0924 04:27:14.810729   448 net.cpp:425] lstm1_x_transform <- x
I0924 04:27:14.810741   448 net.cpp:399] lstm1_x_transform -> W_xc_x
I0924 04:27:14.810745   470 net.cpp:91] Creating Layer lstm1_W_xc_x_slice
I0924 04:27:14.810765   470 net.cpp:425] lstm1_W_xc_x_slice <- W_xc_x
I0924 04:27:14.810791   470 net.cpp:399] lstm1_W_xc_x_slice -> W_xc_x_1
I0924 04:27:14.814832   470 net.cpp:141] Setting up lstm1_W_xc_x_slice
I0924 04:27:14.814880   470 net.cpp:148] Top shape: 1 1 4000 (4000)
I0924 04:27:14.814889   470 net.cpp:156] Memory required for data: 42016
I0924 04:27:14.814888   496 net.cpp:141] Setting up lstm1_
I0924 04:27:14.814903   470 layer_factory.hpp:77] Creating layer lstm1_h_conted_0
I0924 04:27:14.814911   496 net.cpp:148] Top shape: 1 1 1000 (1000)
I0924 04:27:14.814923   496 net.cpp:148] Top shape: 1 1 1000 (1000)
I0924 04:27:14.814930   496 net.cpp:156] Memory required for data: 10004
I0924 04:27:14.814940   496 layer_factory.hpp:77] Creating layer lstm1_cont_slice
I0924 04:27:14.814937   470 net.cpp:91] Creating Layer lstm1_h_conted_0
I0924 04:27:14.814988   470 net.cpp:425] lstm1_h_conted_0 <- h_0
I0924 04:27:14.814995   496 net.cpp:91] Creating Layer lstm1_cont_slice
I0924 04:27:14.815002   470 net.cpp:425] lstm1_h_conted_0 <- cont_1_lstm1_cont_slice_0_split_0
I0924 04:27:14.815007   496 net.cpp:425] lstm1_cont_slice <- cont
I0924 04:27:14.815016   470 net.cpp:399] lstm1_h_conted_0 -> h_conted_0
I0924 04:27:14.815021   496 net.cpp:399] lstm1_cont_slice -> cont_1
I0924 04:27:14.820293   496 net.cpp:141] Setting up lstm1_cont_slice
I0924 04:27:14.820364   496 net.cpp:148] Top shape: 1 1 (1)
I0924 04:27:14.820379   496 net.cpp:156] Memory required for data: 10008
I0924 04:27:14.820395   496 layer_factory.hpp:77] Creating layer cont_1_lstm1_cont_slice_0_split
I0924 04:27:14.820430   496 net.cpp:91] Creating Layer cont_1_lstm1_cont_slice_0_split
I0924 04:27:14.820444   496 net.cpp:425] cont_1_lstm1_cont_slice_0_split <- cont_1
I0924 04:27:14.820472   496 net.cpp:399] cont_1_lstm1_cont_slice_0_split -> cont_1_lstm1_cont_slice_0_split_0
I0924 04:27:14.820498   496 net.cpp:399] cont_1_lstm1_cont_slice_0_split -> cont_1_lstm1_cont_slice_0_split_1
I0924 04:27:14.820500   470 net.cpp:141] Setting up lstm1_h_conted_0
I0924 04:27:14.820520   470 net.cpp:148] Top shape: 1 1 1000 (1000)
I0924 04:27:14.820528   470 net.cpp:156] Memory required for data: 46016
I0924 04:27:14.820538   470 layer_factory.hpp:77] Creating layer lstm1_transform_1
I0924 04:27:14.820564   470 net.cpp:91] Creating Layer lstm1_transform_1
I0924 04:27:14.820574   470 net.cpp:425] lstm1_transform_1 <- h_conted_0
I0924 04:27:14.820591   470 net.cpp:399] lstm1_transform_1 -> W_hc_h_0
I0924 04:27:14.826020   484 net.cpp:141] Setting up embedding
I0924 04:27:14.826052   496 net.cpp:141] Setting up cont_1_lstm1_cont_slice_0_split
I0924 04:27:14.826074   496 net.cpp:148] Top shape: 1 1 (1)
I0924 04:27:14.826074   484 net.cpp:148] Top shape: 1 1 500 (500)
I0924 04:27:14.826097   496 net.cpp:148] Top shape: 1 1 (1)
I0924 04:27:14.826097   484 net.cpp:156] Memory required for data: 22408
I0924 04:27:14.826114   496 net.cpp:156] Memory required for data: 10016
I0924 04:27:14.826125   496 layer_factory.hpp:77] Creating layer lstm1_x_transform
I0924 04:27:14.826131   484 layer_factory.hpp:77] Creating layer lstm1
I0924 04:27:14.826150   484 net.cpp:91] Creating Layer lstm1
I0924 04:27:14.826153   496 net.cpp:91] Creating Layer lstm1_x_transform
I0924 04:27:14.826162   496 net.cpp:425] lstm1_x_transform <- x
I0924 04:27:14.826162   484 net.cpp:425] lstm1 <- embedded_input_frames
I0924 04:27:14.826186   484 net.cpp:425] lstm1 <- cont_sentence_input_1_split_0
I0924 04:27:14.826195   496 net.cpp:399] lstm1_x_transform -> W_xc_x
I0924 04:27:14.826203   484 net.cpp:399] lstm1 -> lstm1
I0924 04:27:14.826221   484 recurrent_layer.cpp:20] Initializing recurrent layer: assuming input batch contains 1 timesteps of 1 independent streams.
I0924 04:27:14.826511   484 net.cpp:49] Initializing net from parameters: 
layer {
  name: "lstm1_"
  type: "Input"
  top: "x"
  top: "cont"
  input_param {
    shape {
      dim: 1
      dim: 1
      dim: 500
    }
    shape {
      dim: 1
      dim: 1
    }
  }
}
layer {
  name: "lstm1_"
  type: "Input"
  top: "c_0"
  top: "h_0"
  input_param {
    shape {
      dim: 1
      dim: 1
      dim: 1000
    }
    shape {
      dim: 1
      dim: 1
      dim: 1000
    }
  }
}
layer {
  name: "lstm1_cont_slice"
  type: "Slice"
  bottom: "cont"
  top: "cont_1"
  slice_param {
    axis: 0
  }
}
layer {
  name: "lstm1_x_transform"
  type: "InnerProduct"
  bottom: "x"
  top: "W_xc_x"
  param {
    name: "W_xc"
  }
  param {
    name: "b_c"
  }
  propagate_down: true
  inner_product_param {
    num_output: 4000
    bias_term: true
    weight_filler {
      type: "uniform"
      min: -0.08
      max: 0.08
    }
    bias_filler {
      type: "constant"
      value: 0
    }
    axis: 2
  }
}
layer {
  name: "lstm1_W_xc_x_slice"
  type: "Slice"
  bottom: "W_xc_x"
  top: "W_xc_x_1"
  slice_param {
    axis: 0
  }
}
layer {
  name: "lstm1_h_conted_0"
  type: "Scale"
  bottom: "h_0"
  bottom: "cont_1"
  top: "h_conted_0"
  scale_param {
    axis: 0
  }
}
layer {
  name: "lstm1_transform_1"
  type: "InnerProduct"
  bottom: "h_conted_0"
  top: "W_hc_h_0"
  param {
    name: "W_hc"
  }
  inner_product_param {
    num_output: 4000
    bias_term: false
    weight_filler {
      type: "uniform"
      min: -0.08
      max: 0.08
    }
    axis: 2
  }
}
layer {
  name: "lstm1_gate_input_1"
  type: "Eltwise"
  bottom: "W_hc_h_0"
  bottom: "W_xc_x_1"
  top: "gate_input_1"
  eltwise_param {
    operation: SUM
  }
}
layer {
  name: "lstm1_unit_1"
  type: "LSTMUnit"
  bottom: "c_0"
  bottom: "gate_input_1"
  bottom: "cont_1"
  top: "c_1"
  top: "h_1"
}
layer {
  name: "lstm1_"
  type: "Split"
  bottom: "c_1"
  top: "c_T"
}
layer {
  name: "lstm1_h_concat"
  type: "Concat"
  bottom: "h_1"
  top: "h"
  concat_param {
    axis: 0
  }
}
layer {
  name: "h_pseudoloss"
  type: "Reduction"
  bottom: "h"
  top: "h_pseudoloss"
  loss_weight: 1
}
I0924 04:27:14.826627   484 layer_factory.hpp:77] Creating layer lstm1_
I0924 04:27:14.826639   484 net.cpp:91] Creating Layer lstm1_
I0924 04:27:14.826647   484 net.cpp:399] lstm1_ -> x
I0924 04:27:14.826659   484 net.cpp:399] lstm1_ -> cont
I0924 04:27:14.842939   458 net.cpp:141] Setting up lstm1_x_transform
I0924 04:27:14.842995   458 net.cpp:148] Top shape: 1 1 4000 (4000)
I0924 04:27:14.843005   458 net.cpp:156] Memory required for data: 26016
I0924 04:27:14.843039   458 layer_factory.hpp:77] Creating layer lstm1_W_xc_x_slice
I0924 04:27:14.843063   458 net.cpp:91] Creating Layer lstm1_W_xc_x_slice
I0924 04:27:14.843075   458 net.cpp:425] lstm1_W_xc_x_slice <- W_xc_x
I0924 04:27:14.843091   458 net.cpp:399] lstm1_W_xc_x_slice -> W_xc_x_1
I0924 04:27:14.863348   458 net.cpp:141] Setting up lstm1_W_xc_x_slice
I0924 04:27:14.863406   458 net.cpp:148] Top shape: 1 1 4000 (4000)
I0924 04:27:14.863416   458 net.cpp:156] Memory required for data: 42016
I0924 04:27:14.863428   458 layer_factory.hpp:77] Creating layer lstm1_h_conted_0
I0924 04:27:14.863453   458 net.cpp:91] Creating Layer lstm1_h_conted_0
I0924 04:27:14.863471   458 net.cpp:425] lstm1_h_conted_0 <- h_0
I0924 04:27:14.863484   458 net.cpp:425] lstm1_h_conted_0 <- cont_1_lstm1_cont_slice_0_split_0
I0924 04:27:14.863498   458 net.cpp:399] lstm1_h_conted_0 -> h_conted_0
I0924 04:27:14.863451   484 net.cpp:141] Setting up lstm1_
I0924 04:27:14.863580   484 net.cpp:148] Top shape: 1 1 500 (500)
I0924 04:27:14.863593   484 net.cpp:148] Top shape: 1 1 (1)
I0924 04:27:14.863600   484 net.cpp:156] Memory required for data: 2004
I0924 04:27:14.863608   484 layer_factory.hpp:77] Creating layer lstm1_
I0924 04:27:14.863628   484 net.cpp:91] Creating Layer lstm1_
I0924 04:27:14.863646   484 net.cpp:399] lstm1_ -> c_0
I0924 04:27:14.863667   484 net.cpp:399] lstm1_ -> h_0
I0924 04:27:14.863685   458 net.cpp:141] Setting up lstm1_h_conted_0
I0924 04:27:14.863701   458 net.cpp:148] Top shape: 1 1 1000 (1000)
I0924 04:27:14.863708   458 net.cpp:156] Memory required for data: 46016
I0924 04:27:14.863715   458 layer_factory.hpp:77] Creating layer lstm1_transform_1
I0924 04:27:14.863731   458 net.cpp:91] Creating Layer lstm1_transform_1
I0924 04:27:14.863740   458 net.cpp:425] lstm1_transform_1 <- h_conted_0
I0924 04:27:14.863744   484 net.cpp:141] Setting up lstm1_
I0924 04:27:14.863752   458 net.cpp:399] lstm1_transform_1 -> W_hc_h_0
I0924 04:27:14.863757   484 net.cpp:148] Top shape: 1 1 1000 (1000)
I0924 04:27:14.863767   484 net.cpp:148] Top shape: 1 1 1000 (1000)
I0924 04:27:14.863775   484 net.cpp:156] Memory required for data: 10004
I0924 04:27:14.863781   484 layer_factory.hpp:77] Creating layer lstm1_cont_slice
I0924 04:27:14.863800   484 net.cpp:91] Creating Layer lstm1_cont_slice
I0924 04:27:14.863807   484 net.cpp:425] lstm1_cont_slice <- cont
I0924 04:27:14.863821   484 net.cpp:399] lstm1_cont_slice -> cont_1
I0924 04:27:14.872221   484 net.cpp:141] Setting up lstm1_cont_slice
I0924 04:27:14.872283   484 net.cpp:148] Top shape: 1 1 (1)
I0924 04:27:14.872292   484 net.cpp:156] Memory required for data: 10008
I0924 04:27:14.872305   484 layer_factory.hpp:77] Creating layer cont_1_lstm1_cont_slice_0_split
I0924 04:27:14.872334   484 net.cpp:91] Creating Layer cont_1_lstm1_cont_slice_0_split
I0924 04:27:14.872345   484 net.cpp:425] cont_1_lstm1_cont_slice_0_split <- cont_1
I0924 04:27:14.872347   436 net.cpp:141] Setting up lstm1_x_transform
I0924 04:27:14.872364   484 net.cpp:399] cont_1_lstm1_cont_slice_0_split -> cont_1_lstm1_cont_slice_0_split_0
I0924 04:27:14.872373   436 net.cpp:148] Top shape: 1 1 4000 (4000)
I0924 04:27:14.872383   436 net.cpp:156] Memory required for data: 26016
I0924 04:27:14.872428   436 layer_factory.hpp:77] Creating layer lstm1_W_xc_x_slice
I0924 04:27:14.872448   436 net.cpp:91] Creating Layer lstm1_W_xc_x_slice
I0924 04:27:14.872454   464 net.cpp:141] Setting up embedding
I0924 04:27:14.872383   484 net.cpp:399] cont_1_lstm1_cont_slice_0_split -> cont_1_lstm1_cont_slice_0_split_1
I0924 04:27:14.872478   464 net.cpp:148] Top shape: 1 1 500 (500)
I0924 04:27:14.872484   464 net.cpp:156] Memory required for data: 22408
I0924 04:27:14.872458   436 net.cpp:425] lstm1_W_xc_x_slice <- W_xc_x
I0924 04:27:14.872501   464 layer_factory.hpp:77] Creating layer lstm1
I0924 04:27:14.872505   436 net.cpp:399] lstm1_W_xc_x_slice -> W_xc_x_1
I0924 04:27:14.872521   464 net.cpp:91] Creating Layer lstm1
I0924 04:27:14.872531   464 net.cpp:425] lstm1 <- embedded_input_frames
I0924 04:27:14.872541   464 net.cpp:425] lstm1 <- cont_sentence_input_1_split_0
I0924 04:27:14.872553   464 net.cpp:399] lstm1 -> lstm1
I0924 04:27:14.872570   464 recurrent_layer.cpp:20] Initializing recurrent layer: assuming input batch contains 1 timesteps of 1 independent streams.
I0924 04:27:14.872637   484 net.cpp:141] Setting up cont_1_lstm1_cont_slice_0_split
I0924 04:27:14.872656   484 net.cpp:148] Top shape: 1 1 (1)
I0924 04:27:14.872666   484 net.cpp:148] Top shape: 1 1 (1)
I0924 04:27:14.872673   484 net.cpp:156] Memory required for data: 10016
I0924 04:27:14.872683   484 layer_factory.hpp:77] Creating layer lstm1_x_transform
I0924 04:27:14.872704   484 net.cpp:91] Creating Layer lstm1_x_transform
I0924 04:27:14.872712   484 net.cpp:425] lstm1_x_transform <- x
I0924 04:27:14.872727   484 net.cpp:399] lstm1_x_transform -> W_xc_x
I0924 04:27:14.872731   496 net.cpp:141] Setting up lstm1_x_transform
I0924 04:27:14.873170   464 net.cpp:49] Initializing net from parameters: 
layer {
  name: "lstm1_"
  type: "Input"
  top: "x"
  top: "cont"
  input_param {
    shape {
      dim: 1
      dim: 1
      dim: 500
    }
    shape {
      dim: 1
      dim: 1
    }
  }
}
layer {
  name: "lstm1_"
  type: "Input"
  top: "c_0"
  top: "h_0"
  input_param {
    shape {
      dim: 1
      dim: 1
      dim: 1000
    }
    shape {
      dim: 1
      dim: 1
      dim: 1000
    }
  }
}
layer {
  name: "lstm1_cont_slice"
  type: "Slice"
  bottom: "cont"
  top: "cont_1"
  slice_param {
    axis: 0
  }
}
layer {
  name: "lstm1_x_transform"
  type: "InnerProduct"
  bottom: "x"
  top: "W_xc_x"
  param {
    name: "W_xc"
  }
  param {
    name: "b_c"
  }
  propagate_down: true
  inner_product_param {
    num_output: 4000
    bias_term: true
    weight_filler {
      type: "uniform"
      min: -0.08
      max: 0.08
    }
    bias_filler {
      type: "constant"
      value: 0
    }
    axis: 2
  }
}
layer {
  name: "lstm1_W_xc_x_slice"
  type: "Slice"
  bottom: "W_xc_x"
  top: "W_xc_x_1"
  slice_param {
    axis: 0
  }
}
layer {
  name: "lstm1_h_conted_0"
  type: "Scale"
  bottom: "h_0"
  bottom: "cont_1"
  top: "h_conted_0"
  scale_param {
    axis: 0
  }
}
layer {
  name: "lstm1_transform_1"
  type: "InnerProduct"
  bottom: "h_conted_0"
  top: "W_hc_h_0"
  param {
    name: "W_hc"
  }
  inner_product_param {
    num_output: 4000
    bias_term: false
    weight_filler {
      type: "uniform"
      min: -0.08
      max: 0.08
    }
    axis: 2
  }
}
layer {
  name: "lstm1_gate_input_1"
  type: "Eltwise"
  bottom: "W_hc_h_0"
  bottom: "W_xc_x_1"
  top: "gate_input_1"
  eltwise_param {
    operation: SUM
  }
}
layer {
  name: "lstm1_unit_1"
  type: "LSTMUnit"
  bottom: "c_0"
  bottom: "gate_input_1"
  bottom: "cont_1"
  top: "c_1"
  top: "h_1"
}
layer {
  name: "lstm1_"
  type: "Split"
  bottom: "c_1"
  top: "c_T"
}
layer {
  name: "lstm1_h_concat"
  type: "Concat"
  bottom: "h_1"
  top: "h"
  concat_param {
    axis: 0
  }
}
layer {
  name: "h_pseudoloss"
  type: "Reduction"
  bottom: "h"
  top: "h_pseudoloss"
  loss_weight: 1
}
I0924 04:27:14.873309   464 layer_factory.hpp:77] Creating layer lstm1_
I0924 04:27:14.873327   464 net.cpp:91] Creating Layer lstm1_
I0924 04:27:14.873337   464 net.cpp:399] lstm1_ -> x
I0924 04:27:14.873347   496 net.cpp:148] Top shape: 1 1 4000 (4000)
I0924 04:27:14.873353   464 net.cpp:399] lstm1_ -> cont
I0924 04:27:14.873378   496 net.cpp:156] Memory required for data: 26016
I0924 04:27:14.873399   496 layer_factory.hpp:77] Creating layer lstm1_W_xc_x_slice
I0924 04:27:14.873414   496 net.cpp:91] Creating Layer lstm1_W_xc_x_slice
I0924 04:27:14.873422   496 net.cpp:425] lstm1_W_xc_x_slice <- W_xc_x
I0924 04:27:14.873435   496 net.cpp:399] lstm1_W_xc_x_slice -> W_xc_x_1
I0924 04:27:14.878711   436 net.cpp:141] Setting up lstm1_W_xc_x_slice
I0924 04:27:14.878767   436 net.cpp:148] Top shape: 1 1 4000 (4000)
I0924 04:27:14.878779   436 net.cpp:156] Memory required for data: 42016
I0924 04:27:14.878794   436 layer_factory.hpp:77] Creating layer lstm1_h_conted_0
I0924 04:27:14.878823   436 net.cpp:91] Creating Layer lstm1_h_conted_0
I0924 04:27:14.878837   436 net.cpp:425] lstm1_h_conted_0 <- h_0
I0924 04:27:14.878854   436 net.cpp:425] lstm1_h_conted_0 <- cont_1_lstm1_cont_slice_0_split_0
I0924 04:27:14.878872   436 net.cpp:399] lstm1_h_conted_0 -> h_conted_0
I0924 04:27:14.878893   496 net.cpp:141] Setting up lstm1_W_xc_x_slice
I0924 04:27:14.878913   496 net.cpp:148] Top shape: 1 1 4000 (4000)
I0924 04:27:14.878921   496 net.cpp:156] Memory required for data: 42016
I0924 04:27:14.878929   496 layer_factory.hpp:77] Creating layer lstm1_h_conted_0
I0924 04:27:14.878942   496 net.cpp:91] Creating Layer lstm1_h_conted_0
I0924 04:27:14.878952   496 net.cpp:425] lstm1_h_conted_0 <- h_0
I0924 04:27:14.878962   496 net.cpp:425] lstm1_h_conted_0 <- cont_1_lstm1_cont_slice_0_split_0
I0924 04:27:14.878973   496 net.cpp:399] lstm1_h_conted_0 -> h_conted_0
I0924 04:27:14.879045   448 net.cpp:141] Setting up lstm1_x_transform
I0924 04:27:14.879083   448 net.cpp:148] Top shape: 1 1 4000 (4000)
I0924 04:27:14.879091   448 net.cpp:156] Memory required for data: 26016
I0924 04:27:14.879117   448 layer_factory.hpp:77] Creating layer lstm1_W_xc_x_slice
I0924 04:27:14.879137   448 net.cpp:91] Creating Layer lstm1_W_xc_x_slice
I0924 04:27:14.879134   464 net.cpp:141] Setting up lstm1_
I0924 04:27:14.879158   448 net.cpp:425] lstm1_W_xc_x_slice <- W_xc_x
I0924 04:27:14.879175   464 net.cpp:148] Top shape: 1 1 500 (500)
I0924 04:27:14.879187   464 net.cpp:148] Top shape: 1 1 (1)
I0924 04:27:14.879186   448 net.cpp:399] lstm1_W_xc_x_slice -> W_xc_x_1
I0924 04:27:14.879199   464 net.cpp:156] Memory required for data: 2004
I0924 04:27:14.879227   464 layer_factory.hpp:77] Creating layer lstm1_
I0924 04:27:14.879253   464 net.cpp:91] Creating Layer lstm1_
I0924 04:27:14.879266   464 net.cpp:399] lstm1_ -> c_0
I0924 04:27:14.879284   464 net.cpp:399] lstm1_ -> h_0
I0924 04:27:14.879616   496 net.cpp:141] Setting up lstm1_h_conted_0
I0924 04:27:14.879632   496 net.cpp:148] Top shape: 1 1 1000 (1000)
I0924 04:27:14.879640   496 net.cpp:156] Memory required for data: 46016
I0924 04:27:14.879648   496 layer_factory.hpp:77] Creating layer lstm1_transform_1
I0924 04:27:14.879665   496 net.cpp:91] Creating Layer lstm1_transform_1
I0924 04:27:14.879673   496 net.cpp:425] lstm1_transform_1 <- h_conted_0
I0924 04:27:14.879686   496 net.cpp:399] lstm1_transform_1 -> W_hc_h_0
I0924 04:27:14.879734   464 net.cpp:141] Setting up lstm1_
I0924 04:27:14.879750   464 net.cpp:148] Top shape: 1 1 1000 (1000)
I0924 04:27:14.879760   464 net.cpp:148] Top shape: 1 1 1000 (1000)
I0924 04:27:14.879765   464 net.cpp:156] Memory required for data: 10004
I0924 04:27:14.879773   464 layer_factory.hpp:77] Creating layer lstm1_cont_slice
I0924 04:27:14.879781   436 net.cpp:141] Setting up lstm1_h_conted_0
I0924 04:27:14.879786   464 net.cpp:91] Creating Layer lstm1_cont_slice
I0924 04:27:14.879797   464 net.cpp:425] lstm1_cont_slice <- cont
I0924 04:27:14.879801   436 net.cpp:148] Top shape: 1 1 1000 (1000)
I0924 04:27:14.879809   464 net.cpp:399] lstm1_cont_slice -> cont_1
I0924 04:27:14.879812   436 net.cpp:156] Memory required for data: 46016
I0924 04:27:14.879822   436 layer_factory.hpp:77] Creating layer lstm1_transform_1
I0924 04:27:14.879838   436 net.cpp:91] Creating Layer lstm1_transform_1
I0924 04:27:14.879850   436 net.cpp:425] lstm1_transform_1 <- h_conted_0
I0924 04:27:14.879868   436 net.cpp:399] lstm1_transform_1 -> W_hc_h_0
I0924 04:27:14.895083   464 net.cpp:141] Setting up lstm1_cont_slice
I0924 04:27:14.895108   470 net.cpp:141] Setting up lstm1_transform_1
I0924 04:27:14.898691   470 net.cpp:148] Top shape: 1 1 4000 (4000)
I0924 04:27:14.898732   470 net.cpp:156] Memory required for data: 62016
I0924 04:27:14.898689   464 net.cpp:148] Top shape: 1 1 (1)
I0924 04:27:14.898758   470 layer_factory.hpp:77] Creating layer lstm1_gate_input_1
I0924 04:27:14.898787   464 net.cpp:156] Memory required for data: 10008
I0924 04:27:14.898797   464 layer_factory.hpp:77] Creating layer cont_1_lstm1_cont_slice_0_split
I0924 04:27:14.898803   470 net.cpp:91] Creating Layer lstm1_gate_input_1
I0924 04:27:14.898815   470 net.cpp:425] lstm1_gate_input_1 <- W_hc_h_0
I0924 04:27:14.898818   464 net.cpp:91] Creating Layer cont_1_lstm1_cont_slice_0_split
I0924 04:27:14.898824   464 net.cpp:425] cont_1_lstm1_cont_slice_0_split <- cont_1
I0924 04:27:14.898826   470 net.cpp:425] lstm1_gate_input_1 <- W_xc_x_1
I0924 04:27:14.898834   464 net.cpp:399] cont_1_lstm1_cont_slice_0_split -> cont_1_lstm1_cont_slice_0_split_0
I0924 04:27:14.898839   470 net.cpp:399] lstm1_gate_input_1 -> gate_input_1
I0924 04:27:14.898850   464 net.cpp:399] cont_1_lstm1_cont_slice_0_split -> cont_1_lstm1_cont_slice_0_split_1
I0924 04:27:14.904884   448 net.cpp:141] Setting up lstm1_W_xc_x_slice
I0924 04:27:14.904937   448 net.cpp:148] Top shape: 1 1 4000 (4000)
I0924 04:27:14.904937   440 net.cpp:141] Setting up embedding
I0924 04:27:14.904944   448 net.cpp:156] Memory required for data: 42016
I0924 04:27:14.904978   440 net.cpp:148] Top shape: 1 1 500 (500)
I0924 04:27:14.904984   448 layer_factory.hpp:77] Creating layer lstm1_h_conted_0
I0924 04:27:14.904988   440 net.cpp:156] Memory required for data: 22408
I0924 04:27:14.905009   448 net.cpp:91] Creating Layer lstm1_h_conted_0
I0924 04:27:14.905012   440 layer_factory.hpp:77] Creating layer lstm1
I0924 04:27:14.905019   448 net.cpp:425] lstm1_h_conted_0 <- h_0
I0924 04:27:14.905021   464 net.cpp:141] Setting up cont_1_lstm1_cont_slice_0_split
I0924 04:27:14.905031   448 net.cpp:425] lstm1_h_conted_0 <- cont_1_lstm1_cont_slice_0_split_0
I0924 04:27:14.905038   464 net.cpp:148] Top shape: 1 1 (1)
I0924 04:27:14.905045   448 net.cpp:399] lstm1_h_conted_0 -> h_conted_0
I0924 04:27:14.905074   464 net.cpp:148] Top shape: 1 1 (1)
I0924 04:27:14.905084   464 net.cpp:156] Memory required for data: 10016
I0924 04:27:14.905094   464 layer_factory.hpp:77] Creating layer lstm1_x_transform
I0924 04:27:14.905115   470 net.cpp:141] Setting up lstm1_gate_input_1
I0924 04:27:14.905122   464 net.cpp:91] Creating Layer lstm1_x_transform
I0924 04:27:14.905133   464 net.cpp:425] lstm1_x_transform <- x
I0924 04:27:14.905038   440 net.cpp:91] Creating Layer lstm1
I0924 04:27:14.905148   440 net.cpp:425] lstm1 <- embedded_input_frames
I0924 04:27:14.905159   440 net.cpp:425] lstm1 <- cont_sentence_input_1_split_0
I0924 04:27:14.905159   464 net.cpp:399] lstm1_x_transform -> W_xc_x
I0924 04:27:14.905189   440 net.cpp:399] lstm1 -> lstm1
I0924 04:27:14.905207   440 recurrent_layer.cpp:20] Initializing recurrent layer: assuming input batch contains 1 timesteps of 1 independent streams.
I0924 04:27:14.905642   440 net.cpp:49] Initializing net from parameters: 
layer {
  name: "lstm1_"
  type: "Input"
  top: "x"
  top: "cont"
  input_param {
    shape {
      dim: 1
      dim: 1
      dim: 500
    }
    shape {
      dim: 1
      dim: 1
    }
  }
}
layer {
  name: "lstm1_"
  type: "Input"
  top: "c_0"
  top: "h_0"
  input_param {
    shape {
      dim: 1
      dim: 1
      dim: 1000
    }
    shape {
      dim: 1
      dim: 1
      dim: 1000
    }
  }
}
layer {
  name: "lstm1_cont_slice"
  type: "Slice"
  bottom: "cont"
  top: "cont_1"
  slice_param {
    axis: 0
  }
}
layer {
  name: "lstm1_x_transform"
  type: "InnerProduct"
  bottom: "x"
  top: "W_xc_x"
  param {
    name: "W_xc"
  }
  param {
    name: "b_c"
  }
  propagate_down: true
  inner_product_param {
    num_output: 4000
    bias_term: true
    weight_filler {
      type: "uniform"
      min: -0.08
      max: 0.08
    }
    bias_filler {
      type: "constant"
      value: 0
    }
    axis: 2
  }
}
layer {
  name: "lstm1_W_xc_x_slice"
  type: "Slice"
  bottom: "W_xc_x"
  top: "W_xc_x_1"
  slice_param {
    axis: 0
  }
}
layer {
  name: "lstm1_h_conted_0"
  type: "Scale"
  bottom: "h_0"
  bottom: "cont_1"
  top: "h_conted_0"
  scale_param {
    axis: 0
  }
}
layer {
  name: "lstm1_transform_1"
  type: "InnerProduct"
  bottom: "h_conted_0"
  top: "W_hc_h_0"
  param {
    name: "W_hc"
  }
  inner_product_param {
    num_output: 4000
    bias_term: false
    weight_filler {
      type: "uniform"
      min: -0.08
      max: 0.08
    }
    axis: 2
  }
}
layer {
  name: "lstm1_gate_input_1"
  type: "Eltwise"
  bottom: "W_hc_h_0"
  bottom: "W_xc_x_1"
  top: "gate_input_1"
  eltwise_param {
    operation: SUM
  }
}
layer {
  name: "lstm1_unit_1"
  type: "LSTMUnit"
  bottom: "c_0"
  bottom: "gate_input_1"
  bottom: "cont_1"
  top: "c_1"
  top: "h_1"
}
layer {
  name: "lstm1_"
  type: "Split"
  bottom: "c_1"
  top: "c_T"
}
layer {
  name: "lstm1_h_concat"
  type: "Concat"
  bottom: "h_1"
  top: "h"
  concat_param {
    axis: 0
  }
}
layer {
  name: "h_pseudoloss"
  type: "Reduction"
  bottom: "h"
  top: "h_pseudoloss"
  loss_weight: 1
}
I0924 04:27:14.905798   440 layer_factory.hpp:77] Creating layer lstm1_
I0924 04:27:14.905819   440 net.cpp:91] Creating Layer lstm1_
I0924 04:27:14.905833   440 net.cpp:399] lstm1_ -> x
I0924 04:27:14.905855   440 net.cpp:399] lstm1_ -> cont
I0924 04:27:14.905131   470 net.cpp:148] Top shape: 1 1 4000 (4000)
I0924 04:27:14.905894   470 net.cpp:156] Memory required for data: 78016
I0924 04:27:14.905906   470 layer_factory.hpp:77] Creating layer lstm1_unit_1
I0924 04:27:14.905927   470 net.cpp:91] Creating Layer lstm1_unit_1
I0924 04:27:14.905938   470 net.cpp:425] lstm1_unit_1 <- c_0
I0924 04:27:14.905952   470 net.cpp:425] lstm1_unit_1 <- gate_input_1
I0924 04:27:14.905963   470 net.cpp:425] lstm1_unit_1 <- cont_1_lstm1_cont_slice_0_split_1
I0924 04:27:14.905978   470 net.cpp:399] lstm1_unit_1 -> c_1
I0924 04:27:14.905997   470 net.cpp:399] lstm1_unit_1 -> h_1
I0924 04:27:14.909746   458 net.cpp:141] Setting up lstm1_transform_1
I0924 04:27:14.909795   458 net.cpp:148] Top shape: 1 1 4000 (4000)
I0924 04:27:14.909803   458 net.cpp:156] Memory required for data: 62016
I0924 04:27:14.909829   458 layer_factory.hpp:77] Creating layer lstm1_gate_input_1
I0924 04:27:14.909854   458 net.cpp:91] Creating Layer lstm1_gate_input_1
I0924 04:27:14.909864   458 net.cpp:425] lstm1_gate_input_1 <- W_hc_h_0
I0924 04:27:14.909876   458 net.cpp:425] lstm1_gate_input_1 <- W_xc_x_1
I0924 04:27:14.909888   458 net.cpp:399] lstm1_gate_input_1 -> gate_input_1
I0924 04:27:14.909886   440 net.cpp:141] Setting up lstm1_
I0924 04:27:14.909920   440 net.cpp:148] Top shape: 1 1 500 (500)
I0924 04:27:14.909942   440 net.cpp:148] Top shape: 1 1 (1)
I0924 04:27:14.909952   458 net.cpp:141] Setting up lstm1_gate_input_1
I0924 04:27:14.909957   440 net.cpp:156] Memory required for data: 2004
I0924 04:27:14.909966   458 net.cpp:148] Top shape: 1 1 4000 (4000)
I0924 04:27:14.909972   458 net.cpp:156] Memory required for data: 78016
I0924 04:27:14.909972   440 layer_factory.hpp:77] Creating layer lstm1_
I0924 04:27:14.909981   458 layer_factory.hpp:77] Creating layer lstm1_unit_1
I0924 04:27:14.909996   458 net.cpp:91] Creating Layer lstm1_unit_1
I0924 04:27:14.910003   458 net.cpp:425] lstm1_unit_1 <- c_0
I0924 04:27:14.910012   458 net.cpp:425] lstm1_unit_1 <- gate_input_1
I0924 04:27:14.910032   458 net.cpp:425] lstm1_unit_1 <- cont_1_lstm1_cont_slice_0_split_1
I0924 04:27:14.910043   458 net.cpp:399] lstm1_unit_1 -> c_1
I0924 04:27:14.910058   458 net.cpp:399] lstm1_unit_1 -> h_1
I0924 04:27:14.910012   440 net.cpp:91] Creating Layer lstm1_
I0924 04:27:14.910126   440 net.cpp:399] lstm1_ -> c_0
I0924 04:27:14.910161   448 net.cpp:141] Setting up lstm1_h_conted_0
I0924 04:27:14.910177   448 net.cpp:148] Top shape: 1 1 1000 (1000)
I0924 04:27:14.910173   440 net.cpp:399] lstm1_ -> h_0
I0924 04:27:14.910184   448 net.cpp:156] Memory required for data: 46016
I0924 04:27:14.910192   448 layer_factory.hpp:77] Creating layer lstm1_transform_1
I0924 04:27:14.910209   448 net.cpp:91] Creating Layer lstm1_transform_1
I0924 04:27:14.910218   448 net.cpp:425] lstm1_transform_1 <- h_conted_0
I0924 04:27:14.910230   448 net.cpp:399] lstm1_transform_1 -> W_hc_h_0
I0924 04:27:14.910410   484 net.cpp:141] Setting up lstm1_x_transform
I0924 04:27:14.910426   484 net.cpp:148] Top shape: 1 1 4000 (4000)
I0924 04:27:14.910434   484 net.cpp:156] Memory required for data: 26016
I0924 04:27:14.910452   484 layer_factory.hpp:77] Creating layer lstm1_W_xc_x_slice
I0924 04:27:14.910467   484 net.cpp:91] Creating Layer lstm1_W_xc_x_slice
I0924 04:27:14.910475   484 net.cpp:425] lstm1_W_xc_x_slice <- W_xc_x
I0924 04:27:14.910488   484 net.cpp:399] lstm1_W_xc_x_slice -> W_xc_x_1
I0924 04:27:14.910540   484 net.cpp:141] Setting up lstm1_W_xc_x_slice
I0924 04:27:14.910554   484 net.cpp:148] Top shape: 1 1 4000 (4000)
I0924 04:27:14.910562   484 net.cpp:156] Memory required for data: 42016
I0924 04:27:14.910568   484 layer_factory.hpp:77] Creating layer lstm1_h_conted_0
I0924 04:27:14.910586   484 net.cpp:91] Creating Layer lstm1_h_conted_0
I0924 04:27:14.910610   484 net.cpp:425] lstm1_h_conted_0 <- h_0
I0924 04:27:14.910622   484 net.cpp:425] lstm1_h_conted_0 <- cont_1_lstm1_cont_slice_0_split_0
I0924 04:27:14.910634   484 net.cpp:399] lstm1_h_conted_0 -> h_conted_0
I0924 04:27:14.910753   484 net.cpp:141] Setting up lstm1_h_conted_0
I0924 04:27:14.910768   484 net.cpp:148] Top shape: 1 1 1000 (1000)
I0924 04:27:14.910775   484 net.cpp:156] Memory required for data: 46016
I0924 04:27:14.910783   484 layer_factory.hpp:77] Creating layer lstm1_transform_1
I0924 04:27:14.910796   484 net.cpp:91] Creating Layer lstm1_transform_1
I0924 04:27:14.910804   484 net.cpp:425] lstm1_transform_1 <- h_conted_0
I0924 04:27:14.910816   484 net.cpp:399] lstm1_transform_1 -> W_hc_h_0
I0924 04:27:14.923308   470 net.cpp:141] Setting up lstm1_unit_1
I0924 04:27:14.923359   470 net.cpp:148] Top shape: 1 1 1000 (1000)
I0924 04:27:14.923373   470 net.cpp:148] Top shape: 1 1 1000 (1000)
I0924 04:27:14.923383   470 net.cpp:156] Memory required for data: 86016
I0924 04:27:14.923399   470 layer_factory.hpp:77] Creating layer lstm1_
I0924 04:27:14.923421   470 net.cpp:91] Creating Layer lstm1_
I0924 04:27:14.923434   470 net.cpp:425] lstm1_ <- c_1
I0924 04:27:14.923452   470 net.cpp:399] lstm1_ -> c_T
I0924 04:27:14.923521   470 net.cpp:141] Setting up lstm1_
I0924 04:27:14.923537   470 net.cpp:148] Top shape: 1 1 1000 (1000)
I0924 04:27:14.923544   470 net.cpp:156] Memory required for data: 90016
I0924 04:27:14.923552   470 layer_factory.hpp:77] Creating layer lstm1_h_concat
I0924 04:27:14.923568   470 net.cpp:91] Creating Layer lstm1_h_concat
I0924 04:27:14.923580   470 net.cpp:425] lstm1_h_concat <- h_1
I0924 04:27:14.923595   470 net.cpp:399] lstm1_h_concat -> h
I0924 04:27:14.923651   470 net.cpp:141] Setting up lstm1_h_concat
I0924 04:27:14.923666   470 net.cpp:148] Top shape: 1 1 1000 (1000)
I0924 04:27:14.923677   470 net.cpp:156] Memory required for data: 94016
I0924 04:27:14.923686   470 layer_factory.hpp:77] Creating layer h_pseudoloss
I0924 04:27:14.923718   470 net.cpp:91] Creating Layer h_pseudoloss
I0924 04:27:14.923727   470 net.cpp:425] h_pseudoloss <- h
I0924 04:27:14.923739   470 net.cpp:399] h_pseudoloss -> h_pseudoloss
I0924 04:27:14.923871   470 net.cpp:141] Setting up h_pseudoloss
…
I0924 04:27:14.924094   470 net.cpp:219] lstm1_ does not need backward computation.
I0924 04:27:14.924100   470 net.cpp:261] This network produces output c_T
I0924 04:27:14.924108   470 net.cpp:261] This network produces output h_pseudoloss
I0924 04:27:14.924141   470 net.cpp:274] Network initialization done.
I0924 04:27:14.924226   470 recurrent_layer.cpp:150] Adding parameter 0: W_xc
I0924 04:27:14.924239   470 recurrent_layer.cpp:150] Adding parameter 1: b_c
I0924 04:27:14.924249   470 recurrent_layer.cpp:150] Adding parameter 2: W_hc
I0924 04:27:14.924396   470 net.cpp:141] Setting up lstm1
I0924 04:27:14.924412   470 net.cpp:148] Top shape: 1 1 1000 (1000)
I0924 04:27:14.924422   470 net.cpp:156] Memory required for data: 26408
I0924 04:27:14.924443   470 layer_factory.hpp:77] Creating layer concat
I0924 04:27:14.924458   470 net.cpp:91] Creating Layer concat
I0924 04:27:14.924468   470 net.cpp:425] concat <- lstm1
I0924 04:27:14.924481   470 net.cpp:425] concat <- embedded_input_sentence
I0924 04:27:14.924492   470 net.cpp:425] concat <- reshaped_stage_indicator
I0924 04:27:14.924506   470 net.cpp:399] concat -> lstm1_video_sequence
I0924 04:27:14.924553   470 net.cpp:141] Setting up concat
I0924 04:27:14.924566   470 net.cpp:148] Top shape: 1 1 1501 (1501)
I0924 04:27:14.924576   470 net.cpp:156] Memory required for data: 32412
I0924 04:27:14.924582   470 layer_factory.hpp:77] Creating layer lstm2
I0924 04:27:14.924605   470 net.cpp:91] Creating Layer lstm2
I0924 04:27:14.924617   470 net.cpp:425] lstm2 <- lstm1_video_sequence
I0924 04:27:14.924630   470 net.cpp:425] lstm2 <- cont_sentence_input_1_split_1
I0924 04:27:14.924645   470 net.cpp:399] lstm2 -> lstm2
I0924 04:27:14.924661   470 recurrent_layer.cpp:20] Initializing recurrent layer: assuming input batch contains 1 timesteps of 1 independent streams.
I0924 04:27:14.925030   470 net.cpp:49] Initializing net from parameters: 
layer {
  name: "lstm2_"
  type: "Input"
  top: "x"
  top: "cont"
  input_param {
    shape {
      dim: 1
      dim: 1
      dim: 1501
    }
    shape {
      dim: 1
      dim: 1
    }
  }
}
layer {
  name: "lstm2_"
  type: "Input"
  top: "c_0"
  top: "h_0"
  input_param {
    shape {
      dim: 1
      dim: 1
      dim: 1000
    }
    shape {
      dim: 1
      dim: 1
      dim: 1000
    }
  }
}
layer {
  name: "lstm2_cont_slice"
  type: "Slice"
  bottom: "cont"
  top: "cont_1"
  slice_param {
    axis: 0
  }
}
layer {
  name: "lstm2_x_transform"
  type: "InnerProduct"
  bottom: "x"
  top: "W_xc_x"
  param {
    name: "W_xc"
  }
  param {
    name: "b_c"
  }
  propagate_down: true
  inner_product_param {
    num_output: 4000
    bias_term: true
    weight_filler {
      type: "uniform"
      min: -0.08
      max: 0.08
    }
    bias_filler {
      type: "constant"
      value: 0
    }
    axis: 2
  }
}
layer {
  name: "lstm2_W_xc_x_slice"
  type: "Slice"
  bottom: "W_xc_x"
  top: "W_xc_x_1"
  slice_param {
    axis: 0
  }
}
layer {
  name: "lstm2_h_conted_0"
  type: "Scale"
  bottom: "h_0"
  bottom: "cont_1"
  top: "h_conted_0"
  scale_param {
    axis: 0
  }
}
layer {
  name: "lstm2_transform_1"
  type: "InnerProduct"
  bottom: "h_conted_0"
  top: "W_hc_h_0"
  param {
    name: "W_hc"
  }
  inner_product_param {
    num_output: 4000
    bias_term: false
    weight_filler {
      type: "uniform"
      min: -0.08
      max: 0.08
    }
    axis: 2
  }
}
layer {
  name: "lstm2_gate_input_1"
  type: "Eltwise"
  bottom: "W_hc_h_0"
  bottom: "W_xc_x_1"
  top: "gate_input_1"
  eltwise_param {
    operation: SUM
  }
}
layer {
  name: "lstm2_unit_1"
  type: "LSTMUnit"
  bottom: "c_0"
  bottom: "gate_input_1"
  bottom: "cont_1"
  top: "c_1"
  top: "h_1"
}
layer {
  name: "lstm2_"
  type: "Split"
  bottom: "c_1"
  top: "c_T"
}
layer {
  name: "lstm2_h_concat"
  type: "Concat"
  bottom: "h_1"
  top: "h"
  concat_param {
    axis: 0
  }
}
layer {
  name: "h_pseudoloss"
  type: "Reduction"
  bottom: "h"
  top: "h_pseudoloss"
  loss_weight: 1
}
I0924 04:27:14.925155   470 layer_factory.hpp:77] Creating layer lstm2_
I0924 04:27:14.925175   470 net.cpp:91] Creating Layer lstm2_
I0924 04:27:14.925189   470 net.cpp:399] lstm2_ -> x
I0924 04:27:14.925209   470 net.cpp:399] lstm2_ -> cont
I0924 04:27:14.925283   470 net.cpp:141] Setting up lstm2_
I0924 04:27:14.925302   470 net.cpp:148] Top shape: 1 1 1501 (1501)
I0924 04:27:14.925312   470 net.cpp:148] Top shape: 1 1 (1)
I0924 04:27:14.925323   470 net.cpp:156] Memory required for data: 6008
I0924 04:27:14.925329   470 layer_factory.hpp:77] Creating layer lstm2_
I0924 04:27:14.925346   470 net.cpp:91] Creating Layer lstm2_
I0924 04:27:14.925356   470 net.cpp:399] lstm2_ -> c_0
I0924 04:27:14.925374   470 net.cpp:399] lstm2_ -> h_0
I0924 04:27:14.925446   470 net.cpp:141] Setting up lstm2_
I0924 04:27:14.925462   470 net.cpp:148] Top shape: 1 1 1000 (1000)
I0924 04:27:14.925474   470 net.cpp:148] Top shape: 1 1 1000 (1000)
I0924 04:27:14.925485   470 net.cpp:156] Memory required for data: 14008
I0924 04:27:14.925493   470 layer_factory.hpp:77] Creating layer lstm2_cont_slice
I0924 04:27:14.925511   470 net.cpp:91] Creating Layer lstm2_cont_slice
I0924 04:27:14.925518   470 net.cpp:425] lstm2_cont_slice <- cont
I0924 04:27:14.925534   470 net.cpp:399] lstm2_cont_slice -> cont_1
I0924 04:27:14.925585   470 net.cpp:141] Setting up lstm2_cont_slice
I0924 04:27:14.925601   470 net.cpp:148] Top shape: 1 1 (1)
I0924 04:27:14.925609   470 net.cpp:156] Memory required for data: 14012
I0924 04:27:14.925617   470 layer_factory.hpp:77] Creating layer cont_1_lstm2_cont_slice_0_split
I0924 04:27:14.925629   470 net.cpp:91] Creating Layer cont_1_lstm2_cont_slice_0_split
I0924 04:27:14.925638   470 net.cpp:425] cont_1_lstm2_cont_slice_0_split <- cont_1
I0924 04:27:14.925652   470 net.cpp:399] cont_1_lstm2_cont_slice_0_split -> cont_1_lstm2_cont_slice_0_split_0
I0924 04:27:14.925664   470 net.cpp:399] cont_1_lstm2_cont_slice_0_split -> cont_1_lstm2_cont_slice_0_split_1
I0924 04:27:14.925729   470 net.cpp:141] Setting up cont_1_lstm2_cont_slice_0_split
I0924 04:27:14.925743   470 net.cpp:148] Top shape: 1 1 (1)
I0924 04:27:14.925753   470 net.cpp:148] Top shape: 1 1 (1)
I0924 04:27:14.925763   470 net.cpp:156] Memory required for data: 14020
I0924 04:27:14.925770   470 layer_factory.hpp:77] Creating layer lstm2_x_transform
I0924 04:27:14.925791   470 net.cpp:91] Creating Layer lstm2_x_transform
I0924 04:27:14.925801   470 net.cpp:425] lstm2_x_transform <- x
I0924 04:27:14.925822   470 net.cpp:399] lstm2_x_transform -> W_xc_x
I0924 04:27:14.952028   458 net.cpp:141] Setting up lstm1_unit_1
I0924 04:27:14.952080   458 net.cpp:148] Top shape: 1 1 1000 (1000)
I0924 04:27:14.952087   458 net.cpp:148] Top shape: 1 1 1000 (1000)
I0924 04:27:14.952092   458 net.cpp:156] Memory required for data: 86016
I0924 04:27:14.952101   458 layer_factory.hpp:77] Creating layer lstm1_
I0924 04:27:14.952118   458 net.cpp:91] Creating Layer lstm1_
I0924 04:27:14.952126   458 net.cpp:425] lstm1_ <- c_1
I0924 04:27:14.952137   458 net.cpp:399] lstm1_ -> c_T
I0924 04:27:14.952177   496 net.cpp:141] Setting up lstm1_transform_1
I0924 04:27:14.952191   458 net.cpp:141] Setting up lstm1_
I0924 04:27:14.952198   496 net.cpp:148] Top shape: 1 1 4000 (4000)
I0924 04:27:14.952201   458 net.cpp:148] Top shape: 1 1 1000 (1000)
I0924 04:27:14.952208   458 net.cpp:156] Memory required for data: 90016
I0924 04:27:14.952208   496 net.cpp:156] Memory required for data: 62016
I0924 04:27:14.952213   458 layer_factory.hpp:77] Creating layer lstm1_h_concat
I0924 04:27:14.952227   458 net.cpp:91] Creating Layer lstm1_h_concat
I0924 04:27:14.952229   496 layer_factory.hpp:77] Creating layer lstm1_gate_input_1
I0924 04:27:14.952232   458 net.cpp:425] lstm1_h_concat <- h_1
I0924 04:27:14.952241   458 net.cpp:399] lstm1_h_concat -> h
I0924 04:27:14.952250   496 net.cpp:91] Creating Layer lstm1_gate_input_1
I0924 04:27:14.952260   496 net.cpp:425] lstm1_gate_input_1 <- W_hc_h_0
I0924 04:27:14.952270   496 net.cpp:425] lstm1_gate_input_1 <- W_xc_x_1
I0924 04:27:14.952285   496 net.cpp:399] lstm1_gate_input_1 -> gate_input_1
I0924 04:27:14.952352   440 net.cpp:141] Setting up lstm1_
I0924 04:27:14.952370   440 net.cpp:148] Top shape: 1 1 1000 (1000)
I0924 04:27:14.952378   440 net.cpp:148] Top shape: 1 1 1000 (1000)
I0924 04:27:14.952383   440 net.cpp:156] Memory required for data: 10004
I0924 04:27:14.952384   458 net.cpp:141] Setting up lstm1_h_concat
I0924 04:27:14.952389   440 layer_factory.hpp:77] Creating layer lstm1_cont_slice
I0924 04:27:14.952396   458 net.cpp:148] Top shape: 1 1 1000 (1000)
I0924 04:27:14.952400   458 net.cpp:156] Memory required for data: 94016
I0924 04:27:14.952405   458 layer_factory.hpp:77] Creating layer h_pseudoloss
I0924 04:27:14.952409   440 net.cpp:91] Creating Layer lstm1_cont_slice
I0924 04:27:14.952415   458 net.cpp:91] Creating Layer h_pseudoloss
I0924 04:27:14.952419   440 net.cpp:425] lstm1_cont_slice <- cont
I0924 04:27:14.952438   440 net.cpp:399] lstm1_cont_slice -> cont_1
I0924 04:27:14.952420   458 net.cpp:425] h_pseudoloss <- h
I0924 04:27:14.952479   458 net.cpp:399] h_pseudoloss -> h_pseudoloss
I0924 04:27:14.952498   496 net.cpp:141] Setting up lstm1_gate_input_1
I0924 04:27:14.952517   496 net.cpp:148] Top shape: 1 1 4000 (4000)
I0924 04:27:14.952523   496 net.cpp:156] Memory required for data: 78016
I0924 04:27:14.952531   496 layer_factory.hpp:77] Creating layer lstm1_unit_1
I0924 04:27:14.952546   496 net.cpp:91] Creating Layer lstm1_unit_1
I0924 04:27:14.952554   496 net.cpp:425] lstm1_unit_1 <- c_0
I0924 04:27:14.952564   496 net.cpp:425] lstm1_unit_1 <- gate_input_1
I0924 04:27:14.952572   496 net.cpp:425] lstm1_unit_1 <- cont_1_lstm1_cont_slice_0_split_1
I0924 04:27:14.952584   496 net.cpp:399] lstm1_unit_1 -> c_1
I0924 04:27:14.952596   458 net.cpp:141] Setting up h_pseudoloss
I0924 04:27:14.952600   496 net.cpp:399] lstm1_unit_1 -> h_1
I0924 04:27:14.952611   458 net.cpp:148] Top shape: (1)
I0924 04:27:14.952620   458 net.cpp:151]     with loss weight 1
I0924 04:27:14.952646   440 net.cpp:141] Setting up lstm1_cont_slice
I0924 04:27:14.952664   458 net.cpp:156] Memory required for data: 94020
I0924 04:27:14.952674   440 net.cpp:148] Top shape: 1 1 (1)
I0924 04:27:14.952675   458 net.cpp:217] h_pseudoloss needs backward computation.
I0924 04:27:14.952699   440 net.cpp:156] Memory required for data: 10008
I0924 04:27:14.952705   458 net.cpp:217] lstm1_h_concat needs backward computation.
I0924 04:27:14.952708   440 layer_factory.hpp:77] Creating layer cont_1_lstm1_cont_slice_0_split
I0924 04:27:14.952723   458 net.cpp:219] lstm1_ does not need backward computation.
…
I0924 04:27:14.952829   440 net.cpp:399] cont_1_lstm1_cont_slice_0_split -> cont_1_lstm1_cont_slice_0_split_1
I0924 04:27:14.952834   458 net.cpp:217] lstm1_x_transform needs backward computation.
I0924 04:27:14.952843   458 net.cpp:219] cont_1_lstm1_cont_slice_0_split does not need backward computation.
I0924 04:27:14.952852   458 net.cpp:219] lstm1_cont_slice does not need backward computation.
I0924 04:27:14.952853   496 net.cpp:141] Setting up lstm1_unit_1
I0924 04:27:14.952862   458 net.cpp:219] lstm1_ does not need backward computation.
I0924 04:27:14.952869   458 net.cpp:219] lstm1_ does not need backward computation.
I0924 04:27:14.952872   496 net.cpp:148] Top shape: 1 1 1000 (1000)
I0924 04:27:14.952895   458 net.cpp:261] This network produces output c_T
I0924 04:27:14.952904   496 net.cpp:148] Top shape: 1 1 1000 (1000)
I0924 04:27:14.952904   458 net.cpp:261] This network produces output h_pseudoloss
I0924 04:27:14.952919   496 net.cpp:156] Memory required for data: 86016
I0924 04:27:14.952932   440 net.cpp:141] Setting up cont_1_lstm1_cont_slice_0_split
I0924 04:27:14.952937   496 layer_factory.hpp:77] Creating layer lstm1_
I0924 04:27:14.952953   440 net.cpp:148] Top shape: 1 1 (1)
I0924 04:27:14.952957   458 net.cpp:274] Network initialization done.
I0924 04:27:14.952965   440 net.cpp:148] Top shape: 1 1 (1)
I0924 04:27:14.952960   496 net.cpp:91] Creating Layer lstm1_
I0924 04:27:14.952973   440 net.cpp:156] Memory required for data: 10016
I0924 04:27:14.952975   496 net.cpp:425] lstm1_ <- c_1
I0924 04:27:14.952982   440 layer_factory.hpp:77] Creating layer lstm1_x_transform
I0924 04:27:14.952988   496 net.cpp:399] lstm1_ -> c_T
I0924 04:27:14.953008   440 net.cpp:91] Creating Layer lstm1_x_transform
I0924 04:27:14.953017   440 net.cpp:425] lstm1_x_transform <- x
I0924 04:27:14.953032   458 recurrent_layer.cpp:150] Adding parameter 0: W_xc
I0924 04:27:14.953034   440 net.cpp:399] lstm1_x_transform -> W_xc_x
I0924 04:27:14.953042   458 recurrent_layer.cpp:150] Adding parameter 1: b_c
I0924 04:27:14.953047   458 recurrent_layer.cpp:150] Adding parameter 2: W_hc
I0924 04:27:14.955104   464 net.cpp:141] Setting up lstm1_x_transform
I0924 04:27:14.955133   496 net.cpp:141] Setting up lstm1_
I0924 04:27:14.955171   464 net.cpp:148] Top shape: 1 1 4000 (4000)
I0924 04:27:14.955171   496 net.cpp:148] Top shape: 1 1 1000 (1000)
I0924 04:27:14.955199   464 net.cpp:156] Memory required for data: 26016
I0924 04:27:14.955209   496 net.cpp:156] Memory required for data: 90016
I0924 04:27:14.955221   496 layer_factory.hpp:77] Creating layer lstm1_h_concat
I0924 04:27:14.955234   464 layer_factory.hpp:77] Creating layer lstm1_W_xc_x_slice
I0924 04:27:14.955248   496 net.cpp:91] Creating Layer lstm1_h_concat
I0924 04:27:14.955256   496 net.cpp:425] lstm1_h_concat <- h_1
I0924 04:27:14.955255   464 net.cpp:91] Creating Layer lstm1_W_xc_x_slice
I0924 04:27:14.955266   464 net.cpp:425] lstm1_W_xc_x_slice <- W_xc_x
I0924 04:27:14.955270   496 net.cpp:399] lstm1_h_concat -> h
I0924 04:27:14.955278   464 net.cpp:399] lstm1_W_xc_x_slice -> W_xc_x_1
I0924 04:27:14.961787   496 net.cpp:141] Setting up lstm1_h_concat
I0924 04:27:14.961839   496 net.cpp:148] Top shape: 1 1 1000 (1000)
I0924 04:27:14.961838   464 net.cpp:141] Setting up lstm1_W_xc_x_slice
I0924 04:27:14.961848   496 net.cpp:156] Memory required for data: 94016
I0924 04:27:14.961859   496 layer_factory.hpp:77] Creating layer h_pseudoloss
I0924 04:27:14.961861   464 net.cpp:148] Top shape: 1 1 4000 (4000)
I0924 04:27:14.961874   464 net.cpp:156] Memory required for data: 42016
I0924 04:27:14.961880   496 net.cpp:91] Creating Layer h_pseudoloss
I0924 04:27:14.961881   464 layer_factory.hpp:77] Creating layer lstm1_h_conted_0
I0924 04:27:14.961891   496 net.cpp:425] h_pseudoloss <- h
I0924 04:27:14.961889   436 net.cpp:141] Setting up lstm1_transform_1
I0924 04:27:14.961901   464 net.cpp:91] Creating Layer lstm1_h_conted_0
I0924 04:27:14.961912   436 net.cpp:148] Top shape: 1 1 4000 (4000)
I0924 04:27:14.961915   496 net.cpp:399] h_pseudoloss -> h_pseudoloss
I0924 04:27:14.961916   464 net.cpp:425] lstm1_h_conted_0 <- h_0
I0924 04:27:14.961944   464 net.cpp:425] lstm1_h_conted_0 <- cont_1_lstm1_cont_slice_0_split_0
I0924 04:27:14.961957   464 net.cpp:399] lstm1_h_conted_0 -> h_conted_0
I0924 04:27:14.961976   444 net.cpp:141] Setting up embedding
I0924 04:27:14.961989   444 net.cpp:148] Top shape: 1 1 500 (500)
I0924 04:27:14.961997   444 net.cpp:156] Memory required for data: 22408
I0924 04:27:14.962016   444 layer_factory.hpp:77] Creating layer lstm1
I0924 04:27:14.962035   444 net.cpp:91] Creating Layer lstm1
I0924 04:27:14.962045   444 net.cpp:425] lstm1 <- embedded_input_frames
I0924 04:27:14.962056   444 net.cpp:425] lstm1 <- cont_sentence_input_1_split_0
I0924 04:27:14.962069   444 net.cpp:399] lstm1 -> lstm1
I0924 04:27:14.962087   444 recurrent_layer.cpp:20] Initializing recurrent layer: assuming input batch contains 1 timesteps of 1 independent streams.
I0924 04:27:14.962098   464 net.cpp:141] Setting up lstm1_h_conted_0
I0924 04:27:14.962115   464 net.cpp:148] Top shape: 1 1 1000 (1000)
I0924 04:27:14.962122   464 net.cpp:156] Memory required for data: 46016
I0924 04:27:14.962131   464 layer_factory.hpp:77] Creating layer lstm1_transform_1
I0924 04:27:14.962152   464 net.cpp:91] Creating Layer lstm1_transform_1
I0924 04:27:14.962165   464 net.cpp:425] lstm1_transform_1 <- h_conted_0
I0924 04:27:14.962182   464 net.cpp:399] lstm1_transform_1 -> W_hc_h_0
I0924 04:27:14.962471   444 net.cpp:49] Initializing net from parameters: 
layer {
  name: "lstm1_"
  type: "Input"
  top: "x"
  top: "cont"
  input_param {
    shape {
      dim: 1
      dim: 1
      dim: 500
    }
    shape {
      dim: 1
      dim: 1
    }
  }
}
layer {
  name: "lstm1_"
  type: "Input"
  top: "c_0"
  top: "h_0"
  input_param {
    shape {
      dim: 1
      dim: 1
      dim: 1000
    }
    shape {
      dim: 1
      dim: 1
      dim: 1000
    }
  }
}
layer {
  name: "lstm1_cont_slice"
  type: "Slice"
  bottom: "cont"
  top: "cont_1"
  slice_param {
    axis: 0
  }
}
layer {
  name: "lstm1_x_transform"
  type: "InnerProduct"
  bottom: "x"
  top: "W_xc_x"
  param {
    name: "W_xc"
  }
  param {
    name: "b_c"
  }
  propagate_down: true
  inner_product_param {
    num_output: 4000
    bias_term: true
    weight_filler {
      type: "uniform"
      min: -0.08
      max: 0.08
    }
    bias_filler {
      type: "constant"
      value: 0
    }
    axis: 2
  }
}
layer {
  name: "lstm1_W_xc_x_slice"
  type: "Slice"
  bottom: "W_xc_x"
  top: "W_xc_x_1"
  slice_param {
    axis: 0
  }
}
layer {
  name: "lstm1_h_conted_0"
  type: "Scale"
  bottom: "h_0"
  bottom: "cont_1"
  top: "h_conted_0"
  scale_param {
    axis: 0
  }
}
layer {
  name: "lstm1_transform_1"
  type: "InnerProduct"
  bottom: "h_conted_0"
  top: "W_hc_h_0"
  param {
    name: "W_hc"
  }
  inner_product_param {
    num_output: 4000
    bias_term: false
    weight_filler {
      type: "uniform"
      min: -0.08
      max: 0.08
    }
    axis: 2
  }
}
layer {
  name: "lstm1_gate_input_1"
  type: "Eltwise"
  bottom: "W_hc_h_0"
  bottom: "W_xc_x_1"
  top: "gate_input_1"
  eltwise_param {
    operation: SUM
  }
}
layer {
  name: "lstm1_unit_1"
  type: "LSTMUnit"
  bottom: "c_0"
  bottom: "gate_input_1"
  bottom: "cont_1"
  top: "c_1"
  top: "h_1"
}
layer {
  name: "lstm1_"
  type: "Split"
  bottom: "c_1"
  top: "c_T"
}
layer {
  name: "lstm1_h_concat"
  type: "Concat"
  bottom: "h_1"
  top: "h"
  concat_param {
    axis: 0
  }
}
layer {
  name: "h_pseudoloss"
  type: "Reduction"
  bottom: "h"
  top: "h_pseudoloss"
  loss_weight: 1
}
I0924 04:27:14.962612   444 layer_factory.hpp:77] Creating layer lstm1_
I0924 04:27:14.962631   444 net.cpp:91] Creating Layer lstm1_
I0924 04:27:14.962641   444 net.cpp:399] lstm1_ -> x
I0924 04:27:14.962658   444 net.cpp:399] lstm1_ -> cont
I0924 04:27:14.961920   436 net.cpp:156] Memory required for data: 62016
I0924 04:27:14.962693   436 layer_factory.hpp:77] Creating layer lstm1_gate_input_1
I0924 04:27:14.962713   436 net.cpp:91] Creating Layer lstm1_gate_input_1
I0924 04:27:14.962723   436 net.cpp:425] lstm1_gate_input_1 <- W_hc_h_0
I0924 04:27:14.962733   436 net.cpp:425] lstm1_gate_input_1 <- W_xc_x_1
I0924 04:27:14.962743   436 net.cpp:399] lstm1_gate_input_1 -> gate_input_1
I0924 04:27:14.965054   436 net.cpp:141] Setting up lstm1_gate_input_1
I0924 04:27:14.965088   436 net.cpp:148] Top shape: 1 1 4000 (4000)
I0924 04:27:14.965097   436 net.cpp:156] Memory required for data: 78016
I0924 04:27:14.965107   436 layer_factory.hpp:77] Creating layer lstm1_unit_1
I0924 04:27:14.965123   436 net.cpp:91] Creating Layer lstm1_unit_1
I0924 04:27:14.965133   436 net.cpp:425] lstm1_unit_1 <- c_0
I0924 04:27:14.965144   436 net.cpp:425] lstm1_unit_1 <- gate_input_1
I0924 04:27:14.965155   436 net.cpp:425] lstm1_unit_1 <- cont_1_lstm1_cont_slice_0_split_1
…
I0924 04:27:14.965250   496 net.cpp:217] lstm1_unit_1 needs backward computation.
I0924 04:27:14.965267   496 net.cpp:217] lstm1_gate_input_1 needs backward computation.
I0924 04:27:14.965278   496 net.cpp:217] lstm1_transform_1 needs backward computation.
I0924 04:27:14.965288   496 net.cpp:219] lstm1_h_conted_0 does not need backward computation.
I0924 04:27:14.965301   496 net.cpp:217] lstm1_W_xc_x_slice needs backward computation.
I0924 04:27:14.965306   436 net.cpp:141] Setting up lstm1_unit_1
I0924 04:27:14.965312   496 net.cpp:217] lstm1_x_transform needs backward computation.
I0924 04:27:14.965319   436 net.cpp:148] Top shape: 1 1 1000 (1000)
I0924 04:27:14.965322   496 net.cpp:219] cont_1_lstm1_cont_slice_0_split does not need backward computation.
I0924 04:27:14.965330   436 net.cpp:148] Top shape: 1 1 1000 (1000)
I0924 04:27:14.965332   496 net.cpp:219] lstm1_cont_slice does not need backward computation.
I0924 04:27:14.965348   436 net.cpp:156] Memory required for data: 86016
I0924 04:27:14.965358   436 layer_factory.hpp:77] Creating layer lstm1_
I0924 04:27:14.965361   496 net.cpp:219] lstm1_ does not need backward computation.
I0924 04:27:14.965370   496 net.cpp:219] lstm1_ does not need backward computation.
I0924 04:27:14.965374   496 net.cpp:261] This network produces output c_T
I0924 04:27:14.965376   436 net.cpp:91] Creating Layer lstm1_
I0924 04:27:14.965381   496 net.cpp:261] This network produces output h_pseudoloss
I0924 04:27:14.965385   436 net.cpp:425] lstm1_ <- c_1
I0924 04:27:14.965397   436 net.cpp:399] lstm1_ -> c_T
I0924 04:27:14.965405   496 net.cpp:274] Network initialization done.
I0924 04:27:14.965463   496 recurrent_layer.cpp:150] Adding parameter 0: W_xc
I0924 04:27:14.965471   496 recurrent_layer.cpp:150] Adding parameter 1: b_c
I0924 04:27:14.965476   496 recurrent_layer.cpp:150] Adding parameter 2: W_hc
I0924 04:27:14.965664   484 net.cpp:141] Setting up lstm1_transform_1
I0924 04:27:14.965677   484 net.cpp:148] Top shape: 1 1 4000 (4000)
I0924 04:27:14.965682   484 net.cpp:156] Memory required for data: 62016
I0924 04:27:14.965698   484 layer_factory.hpp:77] Creating layer lstm1_gate_input_1
I0924 04:27:14.965746   484 net.cpp:91] Creating Layer lstm1_gate_input_1
I0924 04:27:14.965756   484 net.cpp:425] lstm1_gate_input_1 <- W_hc_h_0
I0924 04:27:14.965764   484 net.cpp:425] lstm1_gate_input_1 <- W_xc_x_1
I0924 04:27:14.965772   484 net.cpp:399] lstm1_gate_input_1 -> gate_input_1
I0924 04:27:14.975522   436 net.cpp:141] Setting up lstm1_
I0924 04:27:14.975574   436 net.cpp:148] Top shape: 1 1 1000 (1000)
I0924 04:27:14.975584   436 net.cpp:156] Memory required for data: 90016
I0924 04:27:14.975596   436 layer_factory.hpp:77] Creating layer lstm1_h_concat
I0924 04:27:14.975618   436 net.cpp:91] Creating Layer lstm1_h_concat
I0924 04:27:14.975630   436 net.cpp:425] lstm1_h_concat <- h_1
I0924 04:27:14.975654   436 net.cpp:399] lstm1_h_concat -> h
I0924 04:27:14.975733   436 net.cpp:141] Setting up lstm1_h_concat
I0924 04:27:14.975746   436 net.cpp:148] Top shape: 1 1 1000 (1000)
I0924 04:27:14.975754   436 net.cpp:156] Memory required for data: 94016
I0924 04:27:14.975761   436 layer_factory.hpp:77] Creating layer h_pseudoloss
I0924 04:27:14.975775   436 net.cpp:91] Creating Layer h_pseudoloss
I0924 04:27:14.975783   436 net.cpp:425] h_pseudoloss <- h
I0924 04:27:14.975795   436 net.cpp:399] h_pseudoloss -> h_pseudoloss
I0924 04:27:14.975920   436 net.cpp:141] Setting up h_pseudoloss
…
I0924 04:27:14.976078   436 net.cpp:219] lstm1_ does not need backward computation.
I0924 04:27:14.976084   436 net.cpp:261] This network produces output c_T
I0924 04:27:14.976092   436 net.cpp:261] This network produces output h_pseudoloss
I0924 04:27:14.976119   436 net.cpp:274] Network initialization done.
I0924 04:27:14.976191   436 recurrent_layer.cpp:150] Adding parameter 0: W_xc
I0924 04:27:14.976202   436 recurrent_layer.cpp:150] Adding parameter 1: b_c
I0924 04:27:14.976210   436 recurrent_layer.cpp:150] Adding parameter 2: W_hc
I0924 04:27:14.976357   436 net.cpp:141] Setting up lstm1
I0924 04:27:14.976373   436 net.cpp:148] Top shape: 1 1 1000 (1000)
I0924 04:27:14.976380   436 net.cpp:156] Memory required for data: 26408
I0924 04:27:14.976404   436 layer_factory.hpp:77] Creating layer concat
I0924 04:27:14.976418   436 net.cpp:91] Creating Layer concat
I0924 04:27:14.976428   436 net.cpp:425] concat <- lstm1
I0924 04:27:14.976438   436 net.cpp:425] concat <- embedded_input_sentence
I0924 04:27:14.976446   436 net.cpp:425] concat <- reshaped_stage_indicator
I0924 04:27:14.976457   436 net.cpp:399] concat -> lstm1_video_sequence
I0924 04:27:14.976506   436 net.cpp:141] Setting up concat
I0924 04:27:14.976521   436 net.cpp:148] Top shape: 1 1 1501 (1501)
I0924 04:27:14.976526   436 net.cpp:156] Memory required for data: 32412
I0924 04:27:14.976536   436 layer_factory.hpp:77] Creating layer lstm2
I0924 04:27:14.976554   436 net.cpp:91] Creating Layer lstm2
I0924 04:27:14.976562   436 net.cpp:425] lstm2 <- lstm1_video_sequence
I0924 04:27:14.976572   436 net.cpp:425] lstm2 <- cont_sentence_input_1_split_1
I0924 04:27:14.976585   436 net.cpp:399] lstm2 -> lstm2
I0924 04:27:14.976600   436 recurrent_layer.cpp:20] Initializing recurrent layer: assuming input batch contains 1 timesteps of 1 independent streams.
I0924 04:27:14.976984   436 net.cpp:49] Initializing net from parameters: 
layer {
  name: "lstm2_"
  type: "Input"
  top: "x"
  top: "cont"
  input_param {
    shape {
      dim: 1
      dim: 1
      dim: 1501
    }
    shape {
      dim: 1
      dim: 1
    }
  }
}
layer {
  name: "lstm2_"
  type: "Input"
  top: "c_0"
  top: "h_0"
  input_param {
    shape {
      dim: 1
      dim: 1
      dim: 1000
    }
    shape {
      dim: 1
      dim: 1
      dim: 1000
    }
  }
}
layer {
  name: "lstm2_cont_slice"
  type: "Slice"
  bottom: "cont"
  top: "cont_1"
  slice_param {
    axis: 0
  }
}
layer {
  name: "lstm2_x_transform"
  type: "InnerProduct"
  bottom: "x"
  top: "W_xc_x"
  param {
    name: "W_xc"
  }
  param {
    name: "b_c"
  }
  propagate_down: true
  inner_product_param {
    num_output: 4000
    bias_term: true
    weight_filler {
      type: "uniform"
      min: -0.08
      max: 0.08
    }
    bias_filler {
      type: "constant"
      value: 0
    }
    axis: 2
  }
}
layer {
  name: "lstm2_W_xc_x_slice"
  type: "Slice"
  bottom: "W_xc_x"
  top: "W_xc_x_1"
  slice_param {
    axis: 0
  }
}
layer {
  name: "lstm2_h_conted_0"
  type: "Scale"
  bottom: "h_0"
  bottom: "cont_1"
  top: "h_conted_0"
  scale_param {
    axis: 0
  }
}
layer {
  name: "lstm2_transform_1"
  type: "InnerProduct"
  bottom: "h_conted_0"
  top: "W_hc_h_0"
  param {
    name: "W_hc"
  }
  inner_product_param {
    num_output: 4000
    bias_term: false
    weight_filler {
      type: "uniform"
      min: -0.08
      max: 0.08
    }
    axis: 2
  }
}
layer {
  name: "lstm2_gate_input_1"
  type: "Eltwise"
  bottom: "W_hc_h_0"
  bottom: "W_xc_x_1"
  top: "gate_input_1"
  eltwise_param {
    operation: SUM
  }
}
layer {
  name: "lstm2_unit_1"
  type: "LSTMUnit"
  bottom: "c_0"
  bottom: "gate_input_1"
  bottom: "cont_1"
  top: "c_1"
  top: "h_1"
}
layer {
  name: "lstm2_"
  type: "Split"
  bottom: "c_1"
  top: "c_T"
}
layer {
  name: "lstm2_h_concat"
  type: "Concat"
  bottom: "h_1"
  top: "h"
  concat_param {
    axis: 0
  }
}
layer {
  name: "h_pseudoloss"
  type: "Reduction"
  bottom: "h"
  top: "h_pseudoloss"
  loss_weight: 1
}
I0924 04:27:14.977113   436 layer_factory.hpp:77] Creating layer lstm2_
I0924 04:27:14.977130   436 net.cpp:91] Creating Layer lstm2_
I0924 04:27:14.977140   436 net.cpp:399] lstm2_ -> x
I0924 04:27:14.977157   436 net.cpp:399] lstm2_ -> cont
I0924 04:27:14.977243   436 net.cpp:141] Setting up lstm2_
I0924 04:27:14.977257   436 net.cpp:148] Top shape: 1 1 1501 (1501)
…
I0924 04:28:31.089257   878 net.cpp:399] lstm2_gate_input_1 -> gate_input_1
I0924 04:28:31.089279   887 net.cpp:141] Setting up concat
I0924 04:28:31.089257   834 net.cpp:399] lstm2_ -> c_T
I0924 04:28:31.089299   887 net.cpp:148] Top shape: 1 1 1501 (1501)
I0924 04:28:31.089305   887 net.cpp:156] Memory required for data: 32412
I0924 04:28:31.089311   887 layer_factory.hpp:77] Creating layer lstm2
I0924 04:28:31.089328   887 net.cpp:91] Creating Layer lstm2
I0924 04:28:31.089334   887 net.cpp:425] lstm2 <- lstm1_video_sequence
I0924 04:28:31.089336   878 net.cpp:141] Setting up lstm2_gate_input_1
I0924 04:28:31.089347   878 net.cpp:148] Top shape: 1 1 4000 (4000)
I0924 04:28:31.089347   887 net.cpp:425] lstm2 <- cont_sentence_input_1_split_1
I0924 04:28:31.089354   878 net.cpp:156] Memory required for data: 82020
I0924 04:28:31.089359   878 layer_factory.hpp:77] Creating layer lstm2_unit_1
I0924 04:28:31.089365   887 net.cpp:399] lstm2 -> lstm2
I0924 04:28:31.089375   878 net.cpp:91] Creating Layer lstm2_unit_1
I0924 04:28:31.089380   878 net.cpp:425] lstm2_unit_1 <- c_0
I0924 04:28:31.089387   878 net.cpp:425] lstm2_unit_1 <- gate_input_1
I0924 04:28:31.089387   887 recurrent_layer.cpp:20] Initializing recurrent layer: assuming input batch contains 1 timesteps of 1 independent streams.
I0924 04:28:31.089392   878 net.cpp:425] lstm2_unit_1 <- cont_1_lstm2_cont_slice_0_split_1
I0924 04:28:31.089401   878 net.cpp:399] lstm2_unit_1 -> c_1
I0924 04:28:31.089411   878 net.cpp:399] lstm2_unit_1 -> h_1
I0924 04:28:31.089910   887 net.cpp:49] Initializing net from parameters: 
layer {
  name: "lstm2_"
  type: "Input"
  top: "x"
  top: "cont"
  input_param {
    shape {
      dim: 1
      dim: 1
      dim: 1501
    }
    shape {
      dim: 1
      dim: 1
    }
  }
}
layer {
  name: "lstm2_"
  type: "Input"
  top: "c_0"
  top: "h_0"
  input_param {
    shape {
      dim: 1
      dim: 1
      dim: 1000
    }
    shape {
      dim: 1
      dim: 1
      dim: 1000
    }
  }
}
layer {
  name: "lstm2_cont_slice"
  type: "Slice"
  bottom: "cont"
  top: "cont_1"
  slice_param {
    axis: 0
  }
}
layer {
  name: "lstm2_x_transform"
  type: "InnerProduct"
  bottom: "x"
  top: "W_xc_x"
  param {
    name: "W_xc"
  }
  param {
    name: "b_c"
  }
  propagate_down: true
  inner_product_param {
    num_output: 4000
    bias_term: true
    weight_filler {
      type: "uniform"
      min: -0.08
      max: 0.08
    }
    bias_filler {
      type: "constant"
      value: 0
    }
    axis: 2
  }
}
layer {
  name: "lstm2_W_xc_x_slice"
  type: "Slice"
  bottom: "W_xc_x"
  top: "W_xc_x_1"
  slice_param {
    axis: 0
  }
}
layer {
  name: "lstm2_h_conted_0"
  type: "Scale"
  bottom: "h_0"
  bottom: "cont_1"
  top: "h_conted_0"
  scale_param {
    axis: 0
  }
}
layer {
  name: "lstm2_transform_1"
  type: "InnerProduct"
  bottom: "h_conted_0"
  top: "W_hc_h_0"
  param {
    name: "W_hc"
  }
  inner_product_param {
    num_output: 4000
    bias_term: false
    weight_filler {
      type: "uniform"
      min: -0.08
      max: 0.08
    }
    axis: 2
  }
}
layer {
  name: "lstm2_gate_input_1"
  type: "Eltwise"
  bottom: "W_hc_h_0"
  bottom: "W_xc_x_1"
  top: "gate_input_1"
  eltwise_param {
    operation: SUM
  }
}
layer {
  name: "lstm2_unit_1"
  type: "LSTMUnit"
  bottom: "c_0"
  bottom: "gate_input_1"
  bottom: "cont_1"
  top: "c_1"
  top: "h_1"
}
layer {
  name: "lstm2_"
  type: "Split"
  bottom: "c_1"
  top: "c_T"
}
layer {
  name: "lstm2_h_concat"
  type: "Concat"
  bottom: "h_1"
  top: "h"
  concat_param {
    axis: 0
  }
}
layer {
  name: "h_pseudoloss"
  type: "Reduction"
  bottom: "h"
  top: "h_pseudoloss"
  loss_weight: 1
}
I0924 04:28:31.090041   887 layer_factory.hpp:77] Creating layer lstm2_
I0924 04:28:31.090055   887 net.cpp:91] Creating Layer lstm2_
I0924 04:28:31.090062   887 net.cpp:399] lstm2_ -> x
I0924 04:28:31.090075   887 net.cpp:399] lstm2_ -> cont
I0924 04:28:31.100311   858 net.cpp:141] Setting up lstm2_x_transform
I0924 04:28:31.100369   858 net.cpp:148] Top shape: 1 1 4000 (4000)
I0924 04:28:31.100383   858 net.cpp:156] Memory required for data: 30020
I0924 04:28:31.100417   858 layer_factory.hpp:77] Creating layer lstm2_W_xc_x_slice
I0924 04:28:31.100469   858 net.cpp:91] Creating Layer lstm2_W_xc_x_slice
I0924 04:28:31.100482   858 net.cpp:425] lstm2_W_xc_x_slice <- W_xc_x
I0924 04:28:31.100498   858 net.cpp:399] lstm2_W_xc_x_slice -> W_xc_x_1
I0924 04:28:31.102743   858 net.cpp:141] Setting up lstm2_W_xc_x_slice
I0924 04:28:31.102792   858 net.cpp:148] Top shape: 1 1 4000 (4000)
I0924 04:28:31.102802   858 net.cpp:156] Memory required for data: 46020
I0924 04:28:31.102813   858 layer_factory.hpp:77] Creating layer lstm2_h_conted_0
I0924 04:28:31.102867   858 net.cpp:91] Creating Layer lstm2_h_conted_0
I0924 04:28:31.102880   858 net.cpp:425] lstm2_h_conted_0 <- h_0
I0924 04:28:31.102895   858 net.cpp:425] lstm2_h_conted_0 <- cont_1_lstm2_cont_slice_0_split_0
I0924 04:28:31.102910   858 net.cpp:399] lstm2_h_conted_0 -> h_conted_0
I0924 04:28:31.102910   887 net.cpp:141] Setting up lstm2_
I0924 04:28:31.102953   887 net.cpp:148] Top shape: 1 1 1501 (1501)
I0924 04:28:31.102968   887 net.cpp:148] Top shape: 1 1 (1)
I0924 04:28:31.102969   834 net.cpp:141] Setting up lstm2_
I0924 04:28:31.102978   887 net.cpp:156] Memory required for data: 6008
I0924 04:28:31.102999   834 net.cpp:148] Top shape: 1 1 1000 (1000)
I0924 04:28:31.103003   887 layer_factory.hpp:77] Creating layer lstm2_
I0924 04:28:31.103008   834 net.cpp:156] Memory required for data: 94020
I0924 04:28:31.103019   834 layer_factory.hpp:77] Creating layer lstm2_h_concat
I0924 04:28:31.103036   834 net.cpp:91] Creating Layer lstm2_h_concat
I0924 04:28:31.103036   887 net.cpp:91] Creating Layer lstm2_
I0924 04:28:31.103052   834 net.cpp:425] lstm2_h_concat <- h_1
I0924 04:28:31.103061   887 net.cpp:399] lstm2_ -> c_0
I0924 04:28:31.103070   834 net.cpp:399] lstm2_h_concat -> h
I0924 04:28:31.103085   887 net.cpp:399] lstm2_ -> h_0
I0924 04:28:31.103163   834 net.cpp:141] Setting up lstm2_h_concat
I0924 04:28:31.103178   834 net.cpp:148] Top shape: 1 1 1000 (1000)
I0924 04:28:31.103186   834 net.cpp:156] Memory required for data: 98020
I0924 04:28:31.103194   834 layer_factory.hpp:77] Creating layer h_pseudoloss
I0924 04:28:31.103209   834 net.cpp:91] Creating Layer h_pseudoloss
I0924 04:28:31.103216   834 net.cpp:425] h_pseudoloss <- h
I0924 04:28:31.103229   834 net.cpp:399] h_pseudoloss -> h_pseudoloss
I0924 04:28:31.103243   878 net.cpp:141] Setting up lstm2_unit_1
I0924 04:28:31.103269   878 net.cpp:148] Top shape: 1 1 1000 (1000)
I0924 04:28:31.103282   878 net.cpp:148] Top shape: 1 1 1000 (1000)
I0924 04:28:31.103291   878 net.cpp:156] Memory required for data: 90020
I0924 04:28:31.103309   878 layer_factory.hpp:77] Creating layer lstm2_
I0924 04:28:31.103324   878 net.cpp:91] Creating Layer lstm2_
I0924 04:28:31.103335   878 net.cpp:425] lstm2_ <- c_1
I0924 04:28:31.103334   830 net.cpp:141] Setting up predict
I0924 04:28:31.103360   830 net.cpp:148] Top shape: 1 1 46168 (46168)
I0924 04:28:31.103363   878 net.cpp:399] lstm2_ -> c_T
I0924 04:28:31.103370   830 net.cpp:156] Memory required for data: 221084
I0924 04:28:31.103389   830 layer_factory.hpp:77] Creating layer probs
I0924 04:28:31.103407   830 net.cpp:91] Creating Layer probs
I0924 04:28:31.103417   830 net.cpp:425] probs <- predict
I0924 04:28:31.103431   830 net.cpp:399] probs -> probs
I0924 04:28:31.103446   878 net.cpp:141] Setting up lstm2_
I0924 04:28:31.103464   878 net.cpp:148] Top shape: 1 1 1000 (1000)
I0924 04:28:31.103472   878 net.cpp:156] Memory required for data: 94020
I0924 04:28:31.103482   878 layer_factory.hpp:77] Creating layer lstm2_h_concat
I0924 04:28:31.103495   878 net.cpp:91] Creating Layer lstm2_h_concat
I0924 04:28:31.103505   878 net.cpp:425] lstm2_h_concat <- h_1
I0924 04:28:31.103520   878 net.cpp:399] lstm2_h_concat -> h
I0924 04:28:31.103607   878 net.cpp:141] Setting up lstm2_h_concat
I0924 04:28:31.103626   878 net.cpp:148] Top shape: 1 1 1000 (1000)
I0924 04:28:31.103636   878 net.cpp:156] Memory required for data: 98020
I0924 04:28:31.103646   878 layer_factory.hpp:77] Creating layer h_pseudoloss
I0924 04:28:31.103644   887 net.cpp:141] Setting up lstm2_
I0924 04:28:31.103677   878 net.cpp:91] Creating Layer h_pseudoloss
I0924 04:28:31.103684   887 net.cpp:148] Top shape: 1 1 1000 (1000)
I0924 04:28:31.103688   878 net.cpp:425] h_pseudoloss <- h
I0924 04:28:31.103706   887 net.cpp:148] Top shape: 1 1 1000 (1000)
I0924 04:28:31.103715   878 net.cpp:399] h_pseudoloss -> h_pseudoloss
I0924 04:28:31.103716   887 net.cpp:156] Memory required for data: 14008
I0924 04:28:31.103735   887 layer_factory.hpp:77] Creating layer lstm2_cont_slice
I0924 04:28:31.103750   887 net.cpp:91] Creating Layer lstm2_cont_slice
I0924 04:28:31.103760   887 net.cpp:425] lstm2_cont_slice <- cont
I0924 04:28:31.103771   887 net.cpp:399] lstm2_cont_slice -> cont_1
…
I0924 04:28:31.104558   878 net.cpp:219] lstm2_ does not need backward computation.
I0924 04:28:31.104564   878 net.cpp:261] This network produces output c_T
I0924 04:28:31.104573   878 net.cpp:261] This network produces output h_pseudoloss
I0924 04:28:31.104598   878 net.cpp:274] Network initialization done.
I0924 04:28:31.104660   878 recurrent_layer.cpp:150] Adding parameter 0: W_xc
I0924 04:28:31.104670   878 recurrent_layer.cpp:150] Adding parameter 1: b_c
I0924 04:28:31.104677   878 recurrent_layer.cpp:150] Adding parameter 2: W_hc
I0924 04:28:31.114677   887 net.cpp:141] Setting up cont_1_lstm2_cont_slice_0_split
I0924 04:28:31.114737   887 net.cpp:148] Top shape: 1 1 (1)
I0924 04:28:31.114751   887 net.cpp:148] Top shape: 1 1 (1)
I0924 04:28:31.114760   887 net.cpp:156] Memory required for data: 14020
I0924 04:28:31.114773   887 layer_factory.hpp:77] Creating layer lstm2_x_transform
I0924 04:28:31.114806   887 net.cpp:91] Creating Layer lstm2_x_transform
I0924 04:28:31.114817   887 net.cpp:425] lstm2_x_transform <- x
I0924 04:28:31.114837   887 net.cpp:399] lstm2_x_transform -> W_xc_x
I0924 04:28:31.133908   834 net.cpp:141] Setting up lstm2
I0924 04:28:31.133963   834 net.cpp:148] Top shape: 1 1 1000 (1000)
I0924 04:28:31.133973   834 net.cpp:156] Memory required for data: 36412
I0924 04:28:31.134002   834 layer_factory.hpp:77] Creating layer predict
I0924 04:28:31.134026   834 net.cpp:91] Creating Layer predict
I0924 04:28:31.134037   834 net.cpp:425] predict <- lstm2
I0924 04:28:31.134052   834 net.cpp:399] predict -> predict
I0924 04:28:31.134198   878 net.cpp:141] Setting up lstm2
I0924 04:28:31.134219   878 net.cpp:148] Top shape: 1 1 1000 (1000)
I0924 04:28:31.134228   878 net.cpp:156] Memory required for data: 36412
I0924 04:28:31.134250   878 layer_factory.hpp:77] Creating layer predict
I0924 04:28:31.134268   878 net.cpp:91] Creating Layer predict
I0924 04:28:31.134277   878 net.cpp:425] predict <- lstm2
I0924 04:28:31.134290   878 net.cpp:399] predict -> predict
I0924 04:28:31.305357   858 net.cpp:141] Setting up lstm2_transform_1
I0924 04:28:31.305418   858 net.cpp:148] Top shape: 1 1 4000 (4000)
I0924 04:28:31.305428   858 net.cpp:156] Memory required for data: 66020
I0924 04:28:31.305461   858 layer_factory.hpp:77] Creating layer lstm2_gate_input_1
I0924 04:28:31.305510   858 net.cpp:91] Creating Layer lstm2_gate_input_1
I0924 04:28:31.305524   858 net.cpp:425] lstm2_gate_input_1 <- W_hc_h_0
I0924 04:28:31.305537   858 net.cpp:425] lstm2_gate_input_1 <- W_xc_x_1
I0924 04:28:31.305551   858 net.cpp:399] lstm2_gate_input_1 -> gate_input_1
I0924 04:28:31.305642   858 net.cpp:141] Setting up lstm2_gate_input_1
I0924 04:28:31.305673   858 net.cpp:148] Top shape: 1 1 4000 (4000)
I0924 04:28:31.305683   858 net.cpp:156] Memory required for data: 82020
I0924 04:28:31.305692   858 layer_factory.hpp:77] Creating layer lstm2_unit_1
I0924 04:28:31.305706   858 net.cpp:91] Creating Layer lstm2_unit_1
I0924 04:28:31.305716   858 net.cpp:425] lstm2_unit_1 <- c_0
I0924 04:28:31.305727   858 net.cpp:425] lstm2_unit_1 <- gate_input_1
I0924 04:28:31.305735   858 net.cpp:425] lstm2_unit_1 <- cont_1_lstm2_cont_slice_0_split_1
I0924 04:28:31.305747   858 net.cpp:399] lstm2_unit_1 -> c_1
I0924 04:28:31.305761   858 net.cpp:399] lstm2_unit_1 -> h_1
I0924 04:28:31.305892   858 net.cpp:141] Setting up lstm2_unit_1
I0924 04:28:31.305908   858 net.cpp:148] Top shape: 1 1 1000 (1000)
I0924 04:28:31.305919   858 net.cpp:148] Top shape: 1 1 1000 (1000)
I0924 04:28:31.305927   858 net.cpp:156] Memory required for data: 90020
I0924 04:28:31.305934   858 layer_factory.hpp:77] Creating layer lstm2_
I0924 04:28:31.305948   858 net.cpp:91] Creating Layer lstm2_
I0924 04:28:31.305955   858 net.cpp:425] lstm2_ <- c_1
I0924 04:28:31.305982   858 net.cpp:399] lstm2_ -> c_T
I0924 04:28:31.306037   858 net.cpp:141] Setting up lstm2_
I0924 04:28:31.306052   858 net.cpp:148] Top shape: 1 1 1000 (1000)
I0924 04:28:31.306061   858 net.cpp:156] Memory required for data: 94020
I0924 04:28:31.306068   858 layer_factory.hpp:77] Creating layer lstm2_h_concat
I0924 04:28:31.306082   858 net.cpp:91] Creating Layer lstm2_h_concat
I0924 04:28:31.306092   858 net.cpp:425] lstm2_h_concat <- h_1
I0924 04:28:31.306133   858 net.cpp:399] lstm2_h_concat -> h
I0924 04:28:31.306195   858 net.cpp:141] Setting up lstm2_h_concat
I0924 04:28:31.306210   858 net.cpp:148] Top shape: 1 1 1000 (1000)
I0924 04:28:31.306217   858 net.cpp:156] Memory required for data: 98020
I0924 04:28:31.306226   858 layer_factory.hpp:77] Creating layer h_pseudoloss
I0924 04:28:31.306239   858 net.cpp:91] Creating Layer h_pseudoloss
I0924 04:28:31.306248   858 net.cpp:425] h_pseudoloss <- h
I0924 04:28:31.306259   858 net.cpp:399] h_pseudoloss -> h_pseudoloss
I0924 04:28:31.306444   858 net.cpp:141] Setting up h_pseudoloss
…
I0924 04:28:31.306624   858 net.cpp:219] lstm2_ does not need backward computation.
I0924 04:28:31.306632   858 net.cpp:261] This network produces output c_T
I0924 04:28:31.306640   858 net.cpp:261] This network produces output h_pseudoloss
I0924 04:28:31.306681   858 net.cpp:274] Network initialization done.
I0924 04:28:31.306753   858 recurrent_layer.cpp:150] Adding parameter 0: W_xc
I0924 04:28:31.306764   858 recurrent_layer.cpp:150] Adding parameter 1: b_c
I0924 04:28:31.306771   858 recurrent_layer.cpp:150] Adding parameter 2: W_hc
I0924 04:28:31.306938   858 net.cpp:141] Setting up lstm2
I0924 04:28:31.306954   858 net.cpp:148] Top shape: 1 1 1000 (1000)
I0924 04:28:31.306962   858 net.cpp:156] Memory required for data: 36412
I0924 04:28:31.306982   858 layer_factory.hpp:77] Creating layer predict
I0924 04:28:31.307003   858 net.cpp:91] Creating Layer predict
I0924 04:28:31.307013   858 net.cpp:425] predict <- lstm2
I0924 04:28:31.307024   858 net.cpp:399] predict -> predict
I0924 04:28:31.402110   864 net.cpp:141] Setting up lstm2_transform_1
I0924 04:28:31.402173   864 net.cpp:148] Top shape: 1 1 4000 (4000)
I0924 04:28:31.402184   864 net.cpp:156] Memory required for data: 66020
I0924 04:28:31.402214   864 layer_factory.hpp:77] Creating layer lstm2_gate_input_1
I0924 04:28:31.402243   864 net.cpp:91] Creating Layer lstm2_gate_input_1
I0924 04:28:31.402253   864 net.cpp:425] lstm2_gate_input_1 <- W_hc_h_0
I0924 04:28:31.402266   864 net.cpp:425] lstm2_gate_input_1 <- W_xc_x_1
I0924 04:28:31.402278   864 net.cpp:399] lstm2_gate_input_1 -> gate_input_1
I0924 04:28:31.402436   887 net.cpp:141] Setting up lstm2_x_transform
I0924 04:28:31.402477   887 net.cpp:148] Top shape: 1 1 4000 (4000)
I0924 04:28:31.402483   887 net.cpp:156] Memory required for data: 30020
I0924 04:28:31.402505   887 layer_factory.hpp:77] Creating layer lstm2_W_xc_x_slice
I0924 04:28:31.402520   887 net.cpp:91] Creating Layer lstm2_W_xc_x_slice
I0924 04:28:31.402528   887 net.cpp:425] lstm2_W_xc_x_slice <- W_xc_x
I0924 04:28:31.402537   887 net.cpp:399] lstm2_W_xc_x_slice -> W_xc_x_1
I0924 04:28:31.402537   864 net.cpp:141] Setting up lstm2_gate_input_1
I0924 04:28:31.402554   864 net.cpp:148] Top shape: 1 1 4000 (4000)
I0924 04:28:31.402562   864 net.cpp:156] Memory required for data: 82020
I0924 04:28:31.402570   864 layer_factory.hpp:77] Creating layer lstm2_unit_1
I0924 04:28:31.402583   864 net.cpp:91] Creating Layer lstm2_unit_1
I0924 04:28:31.402591   864 net.cpp:425] lstm2_unit_1 <- c_0
I0924 04:28:31.402614   864 net.cpp:425] lstm2_unit_1 <- gate_input_1
I0924 04:28:31.402624   864 net.cpp:425] lstm2_unit_1 <- cont_1_lstm2_cont_slice_0_split_1
I0924 04:28:31.402637   864 net.cpp:399] lstm2_unit_1 -> c_1
I0924 04:28:31.402652   864 net.cpp:399] lstm2_unit_1 -> h_1
I0924 04:28:31.402756   838 net.cpp:141] Setting up predict
I0924 04:28:31.402776   838 net.cpp:148] Top shape: 1 1 46168 (46168)
I0924 04:28:31.402781   838 net.cpp:156] Memory required for data: 221084
I0924 04:28:31.402792   838 layer_factory.hpp:77] Creating layer probs
I0924 04:28:31.402804   838 net.cpp:91] Creating Layer probs
I0924 04:28:31.402811   838 net.cpp:425] probs <- predict
I0924 04:28:31.402819   838 net.cpp:399] probs -> probs
I0924 04:28:31.402915   852 net.cpp:141] Setting up predict
I0924 04:28:31.402935   852 net.cpp:148] Top shape: 1 1 46168 (46168)
I0924 04:28:31.402940   852 net.cpp:156] Memory required for data: 221084
I0924 04:28:31.402952   852 layer_factory.hpp:77] Creating layer probs
I0924 04:28:31.402963   852 net.cpp:91] Creating Layer probs
I0924 04:28:31.402969   852 net.cpp:425] probs <- predict
I0924 04:28:31.402978   852 net.cpp:399] probs -> probs
I0924 04:28:31.403066   887 net.cpp:141] Setting up lstm2_W_xc_x_slice
I0924 04:28:31.403080   887 net.cpp:148] Top shape: 1 1 4000 (4000)
I0924 04:28:31.403085   887 net.cpp:156] Memory required for data: 46020
I0924 04:28:31.403090   887 layer_factory.hpp:77] Creating layer lstm2_h_conted_0
I0924 04:28:31.403101   887 net.cpp:91] Creating Layer lstm2_h_conted_0
I0924 04:28:31.403107   887 net.cpp:425] lstm2_h_conted_0 <- h_0
I0924 04:28:31.403115   887 net.cpp:425] lstm2_h_conted_0 <- cont_1_lstm2_cont_slice_0_split_0
I0924 04:28:31.403115   842 net.cpp:141] Setting up predict
I0924 04:28:31.403121   887 net.cpp:399] lstm2_h_conted_0 -> h_conted_0
I0924 04:28:31.403136   842 net.cpp:148] Top shape: 1 1 46168 (46168)
I0924 04:28:31.403141   842 net.cpp:156] Memory required for data: 221084
I0924 04:28:31.403153   842 layer_factory.hpp:77] Creating layer probs
I0924 04:28:31.403163   842 net.cpp:91] Creating Layer probs
I0924 04:28:31.403169   842 net.cpp:425] probs <- predict
I0924 04:28:31.403178   842 net.cpp:399] probs -> probs
I0924 04:28:31.403175   864 net.cpp:141] Setting up lstm2_unit_1
I0924 04:28:31.403205   864 net.cpp:148] Top shape: 1 1 1000 (1000)
I0924 04:28:31.403215   864 net.cpp:148] Top shape: 1 1 1000 (1000)
I0924 04:28:31.403223   864 net.cpp:156] Memory required for data: 90020
I0924 04:28:31.403230   864 layer_factory.hpp:77] Creating layer lstm2_
I0924 04:28:31.403244   864 net.cpp:91] Creating Layer lstm2_
I0924 04:28:31.403251   864 net.cpp:425] lstm2_ <- c_1
I0924 04:28:31.403262   864 net.cpp:399] lstm2_ -> c_T
I0924 04:28:31.403345   887 net.cpp:141] Setting up lstm2_h_conted_0
I0924 04:28:31.403358   887 net.cpp:148] Top shape: 1 1 1000 (1000)
I0924 04:28:31.403363   887 net.cpp:156] Memory required for data: 50020
I0924 04:28:31.403368   887 layer_factory.hpp:77] Creating layer lstm2_transform_1
I0924 04:28:31.403381   887 net.cpp:91] Creating Layer lstm2_transform_1
I0924 04:28:31.403386   887 net.cpp:425] lstm2_transform_1 <- h_conted_0
I0924 04:28:31.403395   887 net.cpp:399] lstm2_transform_1 -> W_hc_h_0
I0924 04:28:31.406076   864 net.cpp:141] Setting up lstm2_
I0924 04:28:31.406116   864 net.cpp:148] Top shape: 1 1 1000 (1000)
I0924 04:28:31.406124   864 net.cpp:156] Memory required for data: 94020
I0924 04:28:31.406136   864 layer_factory.hpp:77] Creating layer lstm2_h_concat
I0924 04:28:31.406157   864 net.cpp:91] Creating Layer lstm2_h_concat
I0924 04:28:31.406165   864 net.cpp:425] lstm2_h_concat <- h_1
I0924 04:28:31.406185   864 net.cpp:399] lstm2_h_concat -> h
I0924 04:28:31.414860   864 net.cpp:141] Setting up lstm2_h_concat
I0924 04:28:31.414919   864 net.cpp:148] Top shape: 1 1 1000 (1000)
I0924 04:28:31.414929   864 net.cpp:156] Memory required for data: 98020
I0924 04:28:31.414943   864 layer_factory.hpp:77] Creating layer h_pseudoloss
I0924 04:28:31.414975   864 net.cpp:91] Creating Layer h_pseudoloss
I0924 04:28:31.414986   864 net.cpp:425] h_pseudoloss <- h
I0924 04:28:31.415004   864 net.cpp:399] h_pseudoloss -> h_pseudoloss
I0924 04:28:31.415866   864 net.cpp:141] Setting up h_pseudoloss
…
I0924 04:28:31.416031   864 net.cpp:219] lstm2_ does not need backward computation.
I0924 04:28:31.416038   864 net.cpp:261] This network produces output c_T
I0924 04:28:31.416048   864 net.cpp:261] This network produces output h_pseudoloss
I0924 04:28:31.416072   864 net.cpp:274] Network initialization done.
I0924 04:28:31.416151   864 recurrent_layer.cpp:150] Adding parameter 0: W_xc
I0924 04:28:31.416159   864 recurrent_layer.cpp:150] Adding parameter 1: b_c
I0924 04:28:31.416167   864 recurrent_layer.cpp:150] Adding parameter 2: W_hc
I0924 04:28:31.434419   864 net.cpp:141] Setting up lstm2
I0924 04:28:31.434470   864 net.cpp:148] Top shape: 1 1 1000 (1000)
I0924 04:28:31.434479   864 net.cpp:156] Memory required for data: 36412
I0924 04:28:31.434509   864 layer_factory.hpp:77] Creating layer predict
I0924 04:28:31.434535   864 net.cpp:91] Creating Layer predict
I0924 04:28:31.434545   864 net.cpp:425] predict <- lstm2
I0924 04:28:31.434559   864 net.cpp:399] predict -> predict
I0924 04:28:31.523536   887 net.cpp:141] Setting up lstm2_transform_1
I0924 04:28:31.523602   887 net.cpp:148] Top shape: 1 1 4000 (4000)
I0924 04:28:31.523612   887 net.cpp:156] Memory required for data: 66020
I0924 04:28:31.523634   887 layer_factory.hpp:77] Creating layer lstm2_gate_input_1
I0924 04:28:31.523653   887 net.cpp:91] Creating Layer lstm2_gate_input_1
I0924 04:28:31.523660   887 net.cpp:425] lstm2_gate_input_1 <- W_hc_h_0
I0924 04:28:31.523669   887 net.cpp:425] lstm2_gate_input_1 <- W_xc_x_1
I0924 04:28:31.523690   887 net.cpp:399] lstm2_gate_input_1 -> gate_input_1
I0924 04:28:31.524821   887 net.cpp:141] Setting up lstm2_gate_input_1
I0924 04:28:31.524847   887 net.cpp:148] Top shape: 1 1 4000 (4000)
I0924 04:28:31.524853   887 net.cpp:156] Memory required for data: 82020
I0924 04:28:31.524859   887 layer_factory.hpp:77] Creating layer lstm2_unit_1
I0924 04:28:31.524873   887 net.cpp:91] Creating Layer lstm2_unit_1
I0924 04:28:31.524883   887 net.cpp:425] lstm2_unit_1 <- c_0
I0924 04:28:31.524893   887 net.cpp:425] lstm2_unit_1 <- gate_input_1
I0924 04:28:31.524899   887 net.cpp:425] lstm2_unit_1 <- cont_1_lstm2_cont_slice_0_split_1
I0924 04:28:31.524911   887 net.cpp:399] lstm2_unit_1 -> c_1
I0924 04:28:31.524927   887 net.cpp:399] lstm2_unit_1 -> h_1
I0924 04:28:31.524941   891 net.cpp:141] Setting up predict
I0924 04:28:31.524958   891 net.cpp:148] Top shape: 1 1 46168 (46168)
I0924 04:28:31.524963   891 net.cpp:156] Memory required for data: 221084
I0924 04:28:31.524976   891 layer_factory.hpp:77] Creating layer probs
I0924 04:28:31.524986   891 net.cpp:91] Creating Layer probs
I0924 04:28:31.524993   891 net.cpp:425] probs <- predict
I0924 04:28:31.525002   891 net.cpp:399] probs -> probs
I0924 04:28:31.525094   887 net.cpp:141] Setting up lstm2_unit_1
I0924 04:28:31.525110   887 net.cpp:148] Top shape: 1 1 1000 (1000)
I0924 04:28:31.525121   887 net.cpp:148] Top shape: 1 1 1000 (1000)
I0924 04:28:31.525128   887 net.cpp:156] Memory required for data: 90020
I0924 04:28:31.525136   887 layer_factory.hpp:77] Creating layer lstm2_
I0924 04:28:31.525151   887 net.cpp:91] Creating Layer lstm2_
I0924 04:28:31.525159   887 net.cpp:425] lstm2_ <- c_1
I0924 04:28:31.525171   887 net.cpp:399] lstm2_ -> c_T
I0924 04:28:31.568094   887 net.cpp:141] Setting up lstm2_
I0924 04:28:31.568146   887 net.cpp:148] Top shape: 1 1 1000 (1000)
I0924 04:28:31.568152   887 net.cpp:156] Memory required for data: 94020
I0924 04:28:31.568162   887 layer_factory.hpp:77] Creating layer lstm2_h_concat
I0924 04:28:31.568184   887 net.cpp:91] Creating Layer lstm2_h_concat
I0924 04:28:31.568192   887 net.cpp:425] lstm2_h_concat <- h_1
I0924 04:28:31.568204   887 net.cpp:399] lstm2_h_concat -> h
I0924 04:28:31.571112   887 net.cpp:141] Setting up lstm2_h_concat
I0924 04:28:31.571146   887 net.cpp:148] Top shape: 1 1 1000 (1000)
I0924 04:28:31.571151   887 net.cpp:156] Memory required for data: 98020
I0924 04:28:31.571158   887 layer_factory.hpp:77] Creating layer h_pseudoloss
I0924 04:28:31.571171   887 net.cpp:91] Creating Layer h_pseudoloss
I0924 04:28:31.571177   887 net.cpp:425] h_pseudoloss <- h
I0924 04:28:31.571192   887 net.cpp:399] h_pseudoloss -> h_pseudoloss
I0924 04:28:31.572479   887 net.cpp:141] Setting up h_pseudoloss
…
I0924 04:28:31.572643   887 net.cpp:219] lstm2_ does not need backward computation.
I0924 04:28:31.572649   887 net.cpp:261] This network produces output c_T
I0924 04:28:31.572659   887 net.cpp:261] This network produces output h_pseudoloss
I0924 04:28:31.572685   887 net.cpp:274] Network initialization done.
I0924 04:28:31.572758   887 recurrent_layer.cpp:150] Adding parameter 0: W_xc
I0924 04:28:31.572769   887 recurrent_layer.cpp:150] Adding parameter 1: b_c
I0924 04:28:31.572777   887 recurrent_layer.cpp:150] Adding parameter 2: W_hc
I0924 04:28:31.579560   887 net.cpp:141] Setting up lstm2
I0924 04:28:31.579623   887 net.cpp:148] Top shape: 1 1 1000 (1000)
I0924 04:28:31.579634   887 net.cpp:156] Memory required for data: 36412
I0924 04:28:31.579664   887 layer_factory.hpp:77] Creating layer predict
I0924 04:28:31.579691   887 net.cpp:91] Creating Layer predict
I0924 04:28:31.579704   887 net.cpp:425] predict <- lstm2
I0924 04:28:31.579720   887 net.cpp:399] predict -> predict
I0924 04:28:31.660117   834 net.cpp:141] Setting up predict
I0924 04:28:31.660171   834 net.cpp:148] Top shape: 1 1 46168 (46168)
I0924 04:28:31.660181   834 net.cpp:156] Memory required for data: 221084
I0924 04:28:31.660202   834 layer_factory.hpp:77] Creating layer probs
I0924 04:28:31.660225   834 net.cpp:91] Creating Layer probs
I0924 04:28:31.660236   834 net.cpp:425] probs <- predict
I0924 04:28:31.660253   834 net.cpp:399] probs -> probs
I0924 04:28:31.712455   878 net.cpp:141] Setting up predict
I0924 04:28:31.712512   878 net.cpp:148] Top shape: 1 1 46168 (46168)
I0924 04:28:31.712522   878 net.cpp:156] Memory required for data: 221084
I0924 04:28:31.712539   878 layer_factory.hpp:77] Creating layer probs
I0924 04:28:31.712558   878 net.cpp:91] Creating Layer probs
I0924 04:28:31.712568   878 net.cpp:425] probs <- predict
I0924 04:28:31.712582   878 net.cpp:399] probs -> probs
I0924 04:28:31.792700   858 net.cpp:141] Setting up predict
I0924 04:28:31.792793   858 net.cpp:148] Top shape: 1 1 46168 (46168)
I0924 04:28:31.792809   858 net.cpp:156] Memory required for data: 221084
I0924 04:28:31.792842   858 layer_factory.hpp:77] Creating layer probs
I0924 04:28:31.792876   858 net.cpp:91] Creating Layer probs
I0924 04:28:31.792893   858 net.cpp:425] probs <- predict
I0924 04:28:31.792917   858 net.cpp:399] probs -> probs
I0924 04:28:31.824336   838 net.cpp:141] Setting up probs
I0924 04:28:31.824394   838 net.cpp:148] Top shape: 1 1 46168 (46168)
I0924 04:28:31.824404   838 net.cpp:156] Memory required for data: 405756
I0924 04:28:31.824416   838 net.cpp:219] probs does not need backward computation.
I0924 04:28:31.824429   838 net.cpp:219] predict does not need backward computation.
I0924 04:28:31.824437   838 net.cpp:219] lstm2 does not need backward computation.
I0924 04:28:31.824447   838 net.cpp:219] concat does not need backward computation.
I0924 04:28:31.824457   838 net.cpp:219] lstm1 does not need backward computation.
I0924 04:28:31.824466   838 net.cpp:219] embedding does not need backward computation.
I0924 04:28:31.824476   838 net.cpp:219] reshape_stage_indicator does not need backward computation.
I0924 04:28:31.824484   838 net.cpp:219] reshape_frames does not need backward computation.
I0924 04:28:31.824492   838 net.cpp:219] embed_encoder does not need backward computation.
I0924 04:28:31.824501   838 net.cpp:219] cont_sentence_input_1_split does not need backward computation.
I0924 04:28:31.824511   838 net.cpp:219] input does not need backward computation.
I0924 04:28:31.824517   838 net.cpp:261] This network produces output probs
I0924 04:28:31.824544   838 net.cpp:274] Network initialization done.
I0924 04:28:31.830118   878 net.cpp:141] Setting up probs
I0924 04:28:31.830169   878 net.cpp:148] Top shape: 1 1 46168 (46168)
I0924 04:28:31.830180   878 net.cpp:156] Memory required for data: 405756
I0924 04:28:31.830194   878 net.cpp:219] probs does not need backward computation.
I0924 04:28:31.830206   878 net.cpp:219] predict does not need backward computation.
I0924 04:28:31.830217   878 net.cpp:219] lstm2 does not need backward computation.
I0924 04:28:31.830229   878 net.cpp:219] concat does not need backward computation.
I0924 04:28:31.830240   878 net.cpp:219] lstm1 does not need backward computation.
I0924 04:28:31.830252   878 net.cpp:219] embedding does not need backward computation.
I0924 04:28:31.830262   878 net.cpp:219] reshape_stage_indicator does not need backward computation.
I0924 04:28:31.830271   878 net.cpp:219] reshape_frames does not need backward computation.
I0924 04:28:31.830282   878 net.cpp:219] embed_encoder does not need backward computation.
I0924 04:28:31.830292   878 net.cpp:219] cont_sentence_input_1_split does not need backward computation.
I0924 04:28:31.830303   878 net.cpp:219] input does not need backward computation.
I0924 04:28:31.830312   878 net.cpp:261] This network produces output probs
I0924 04:28:31.830343   878 net.cpp:274] Network initialization done.
I0924 04:28:31.831629   891 net.cpp:141] Setting up probs
I0924 04:28:31.831655   891 net.cpp:148] Top shape: 1 1 46168 (46168)
I0924 04:28:31.831662   891 net.cpp:156] Memory required for data: 405756
I0924 04:28:31.831671   891 net.cpp:219] probs does not need backward computation.
I0924 04:28:31.831681   891 net.cpp:219] predict does not need backward computation.
I0924 04:28:31.831688   891 net.cpp:219] lstm2 does not need backward computation.
I0924 04:28:31.831697   891 net.cpp:219] concat does not need backward computation.
I0924 04:28:31.831707   891 net.cpp:219] lstm1 does not need backward computation.
I0924 04:28:31.831715   891 net.cpp:219] embedding does not need backward computation.
I0924 04:28:31.831723   891 net.cpp:219] reshape_stage_indicator does not need backward computation.
I0924 04:28:31.831732   891 net.cpp:219] reshape_frames does not need backward computation.
I0924 04:28:31.831740   891 net.cpp:219] embed_encoder does not need backward computation.
I0924 04:28:31.831748   891 net.cpp:219] cont_sentence_input_1_split does not need backward computation.
I0924 04:28:31.831756   891 net.cpp:219] input does not need backward computation.
I0924 04:28:31.831763   891 net.cpp:261] This network produces output probs
I0924 04:28:31.831800   842 net.cpp:141] Setting up probs
I0924 04:28:31.831821   842 net.cpp:148] Top shape: 1 1 46168 (46168)
I0924 04:28:31.831830   842 net.cpp:156] Memory required for data: 405756
I0924 04:28:31.831840   842 net.cpp:219] probs does not need backward computation.
I0924 04:28:31.831848   842 net.cpp:219] predict does not need backward computation.
I0924 04:28:31.831856   842 net.cpp:219] lstm2 does not need backward computation.
I0924 04:28:31.831866   842 net.cpp:219] concat does not need backward computation.
I0924 04:28:31.831876   842 net.cpp:219] lstm1 does not need backward computation.
I0924 04:28:31.831884   842 net.cpp:219] embedding does not need backward computation.
I0924 04:28:31.831892   842 net.cpp:219] reshape_stage_indicator does not need backward computation.
I0924 04:28:31.831902   842 net.cpp:219] reshape_frames does not need backward computation.
I0924 04:28:31.831909   842 net.cpp:219] embed_encoder does not need backward computation.
I0924 04:28:31.831918   842 net.cpp:219] cont_sentence_input_1_split does not need backward computation.
I0924 04:28:31.831926   842 net.cpp:219] input does not need backward computation.
I0924 04:28:31.831933   842 net.cpp:261] This network produces output probs
I0924 04:28:31.834010   891 net.cpp:274] Network initialization done.
I0924 04:28:31.834015   834 net.cpp:141] Setting up probs
I0924 04:28:31.834079   834 net.cpp:148] Top shape: 1 1 46168 (46168)
I0924 04:28:31.834087   834 net.cpp:156] Memory required for data: 405756
I0924 04:28:31.834086   858 net.cpp:141] Setting up probs
I0924 04:28:31.834110   834 net.cpp:219] probs does not need backward computation.
I0924 04:28:31.834133   834 net.cpp:219] predict does not need backward computation.
I0924 04:28:31.834138   858 net.cpp:148] Top shape: 1 1 46168 (46168)
I0924 04:28:31.834142   834 net.cpp:219] lstm2 does not need backward computation.
I0924 04:28:31.834151   858 net.cpp:156] Memory required for data: 405756
I0924 04:28:31.834156   834 net.cpp:219] concat does not need backward computation.
I0924 04:28:31.834166   858 net.cpp:219] probs does not need backward computation.
I0924 04:28:31.834167   834 net.cpp:219] lstm1 does not need backward computation.
…
I0924 04:28:31.834257   858 net.cpp:219] embed_encoder does not need backward computation.
I0924 04:28:31.834267   858 net.cpp:219] cont_sentence_input_1_split does not need backward computation.
I0924 04:28:31.834276   858 net.cpp:219] input does not need backward computation.
I0924 04:28:31.834278   834 net.cpp:274] Network initialization done.
I0924 04:28:31.834283   858 net.cpp:261] This network produces output probs
I0924 04:28:31.834316   858 net.cpp:274] Network initialization done.
I0924 04:28:31.834466   842 net.cpp:274] Network initialization done.
I0924 04:28:31.835512   830 net.cpp:141] Setting up probs
I0924 04:28:31.835537   830 net.cpp:148] Top shape: 1 1 46168 (46168)
I0924 04:28:31.835551   830 net.cpp:156] Memory required for data: 405756
I0924 04:28:31.835561   830 net.cpp:219] probs does not need backward computation.
I0924 04:28:31.835572   830 net.cpp:219] predict does not need backward computation.
I0924 04:28:31.835577   830 net.cpp:219] lstm2 does not need backward computation.
I0924 04:28:31.835584   830 net.cpp:219] concat does not need backward computation.
I0924 04:28:31.835590   830 net.cpp:219] lstm1 does not need backward computation.
I0924 04:28:31.835599   830 net.cpp:219] embedding does not need backward computation.
I0924 04:28:31.835609   830 net.cpp:219] reshape_stage_indicator does not need backward computation.
I0924 04:28:31.835618   830 net.cpp:219] reshape_frames does not need backward computation.
I0924 04:28:31.835628   830 net.cpp:219] embed_encoder does not need backward computation.
I0924 04:28:31.835636   830 net.cpp:219] cont_sentence_input_1_split does not need backward computation.
I0924 04:28:31.835646   830 net.cpp:219] input does not need backward computation.
I0924 04:28:31.835654   830 net.cpp:261] This network produces output probs
I0924 04:28:31.835654   852 net.cpp:141] Setting up probs
I0924 04:28:31.835671   852 net.cpp:148] Top shape: 1 1 46168 (46168)
I0924 04:28:31.835680   852 net.cpp:156] Memory required for data: 405756
I0924 04:28:31.835681   830 net.cpp:274] Network initialization done.
I0924 04:28:31.835688   852 net.cpp:219] probs does not need backward computation.
I0924 04:28:31.835697   852 net.cpp:219] predict does not need backward computation.
I0924 04:28:31.835705   852 net.cpp:219] lstm2 does not need backward computation.
I0924 04:28:31.835716   852 net.cpp:219] concat does not need backward computation.
I0924 04:28:31.835726   852 net.cpp:219] lstm1 does not need backward computation.
I0924 04:28:31.835736   852 net.cpp:219] embedding does not need backward computation.
I0924 04:28:31.835741   852 net.cpp:219] reshape_stage_indicator does not need backward computation.
I0924 04:28:31.835746   852 net.cpp:219] reshape_frames does not need backward computation.
I0924 04:28:31.835750   852 net.cpp:219] embed_encoder does not need backward computation.
I0924 04:28:31.835755   852 net.cpp:219] cont_sentence_input_1_split does not need backward computation.
I0924 04:28:31.835760   852 net.cpp:219] input does not need backward computation.
I0924 04:28:31.835764   852 net.cpp:261] This network produces output probs
I0924 04:28:31.835778   852 net.cpp:274] Network initialization done.
I0924 04:28:31.836843   844 net.cpp:141] Setting up conv1
I0924 04:28:31.836879   844 net.cpp:148] Top shape: 10 96 55 55 (2904000)
I0924 04:28:31.836886   844 net.cpp:156] Memory required for data: 17799480
I0924 04:28:31.836908   844 layer_factory.hpp:77] Creating layer relu1
I0924 04:28:31.836928   844 net.cpp:91] Creating Layer relu1
I0924 04:28:31.836935   844 net.cpp:425] relu1 <- conv1
I0924 04:28:31.836944   844 net.cpp:386] relu1 -> conv1 (in-place)
I0924 04:28:31.837368   844 net.cpp:141] Setting up relu1
I0924 04:28:31.837389   844 net.cpp:148] Top shape: 10 96 55 55 (2904000)
I0924 04:28:31.837394   844 net.cpp:156] Memory required for data: 29415480
I0924 04:28:31.837400   844 layer_factory.hpp:77] Creating layer pool1
I0924 04:28:31.837415   844 net.cpp:91] Creating Layer pool1
I0924 04:28:31.837421   844 net.cpp:425] pool1 <- conv1
I0924 04:28:31.837430   844 net.cpp:399] pool1 -> pool1
I0924 04:28:31.837561   844 net.cpp:141] Setting up pool1
I0924 04:28:31.837574   844 net.cpp:148] Top shape: 10 96 27 27 (699840)
I0924 04:28:31.837579   844 net.cpp:156] Memory required for data: 32214840
I0924 04:28:31.837590   844 layer_factory.hpp:77] Creating layer norm1
I0924 04:28:31.837610   844 net.cpp:91] Creating Layer norm1
I0924 04:28:31.837615   844 net.cpp:425] norm1 <- pool1
I0924 04:28:31.837623   844 net.cpp:399] norm1 -> norm1
I0924 04:28:31.838276   844 net.cpp:141] Setting up norm1
I0924 04:28:31.838299   844 net.cpp:148] Top shape: 10 96 27 27 (699840)
I0924 04:28:31.838304   844 net.cpp:156] Memory required for data: 35014200
I0924 04:28:31.838310   844 layer_factory.hpp:77] Creating layer conv2
I0924 04:28:31.838325   844 net.cpp:91] Creating Layer conv2
I0924 04:28:31.838331   844 net.cpp:425] conv2 <- norm1
I0924 04:28:31.838340   844 net.cpp:399] conv2 -> conv2
I0924 04:28:31.842571   844 net.cpp:141] Setting up conv2
I0924 04:28:31.842640   844 net.cpp:148] Top shape: 10 256 27 27 (1866240)
I0924 04:28:31.842651   844 net.cpp:156] Memory required for data: 42479160
I0924 04:28:31.842679   844 layer_factory.hpp:77] Creating layer relu2
I0924 04:28:31.846710   844 net.cpp:91] Creating Layer relu2
I0924 04:28:31.846757   844 net.cpp:425] relu2 <- conv2
I0924 04:28:31.846772   844 net.cpp:386] relu2 -> conv2 (in-place)
I0924 04:28:31.847630   844 net.cpp:141] Setting up relu2
I0924 04:28:31.847666   844 net.cpp:148] Top shape: 10 256 27 27 (1866240)
I0924 04:28:31.847673   844 net.cpp:156] Memory required for data: 49944120
I0924 04:28:31.847684   844 layer_factory.hpp:77] Creating layer pool2
I0924 04:28:31.847700   844 net.cpp:91] Creating Layer pool2
I0924 04:28:31.847709   844 net.cpp:425] pool2 <- conv2
I0924 04:28:31.847721   844 net.cpp:399] pool2 -> pool2
I0924 04:28:31.847864   844 net.cpp:141] Setting up pool2
I0924 04:28:31.847879   844 net.cpp:148] Top shape: 10 256 13 13 (432640)
I0924 04:28:31.847887   844 net.cpp:156] Memory required for data: 51674680
I0924 04:28:31.848148   844 layer_factory.hpp:77] Creating layer norm2
I0924 04:28:31.848168   844 net.cpp:91] Creating Layer norm2
I0924 04:28:31.848175   844 net.cpp:425] norm2 <- pool2
I0924 04:28:31.848182   844 net.cpp:399] norm2 -> norm2
I0924 04:28:31.848819   844 net.cpp:141] Setting up norm2
I0924 04:28:31.848841   844 net.cpp:148] Top shape: 10 256 13 13 (432640)
I0924 04:28:31.848847   844 net.cpp:156] Memory required for data: 53405240
I0924 04:28:31.848853   844 layer_factory.hpp:77] Creating layer conv3
I0924 04:28:31.848870   844 net.cpp:91] Creating Layer conv3
I0924 04:28:31.848875   844 net.cpp:425] conv3 <- norm2
I0924 04:28:31.848883   844 net.cpp:399] conv3 -> conv3
I0924 04:28:31.853893   844 net.cpp:141] Setting up conv3
I0924 04:28:31.853951   844 net.cpp:148] Top shape: 10 384 13 13 (648960)
I0924 04:28:31.853958   844 net.cpp:156] Memory required for data: 56001080
I0924 04:28:31.853979   844 layer_factory.hpp:77] Creating layer relu3
I0924 04:28:31.854004   844 net.cpp:91] Creating Layer relu3
I0924 04:28:31.854012   844 net.cpp:425] relu3 <- conv3
I0924 04:28:31.854020   844 net.cpp:386] relu3 -> conv3 (in-place)
I0924 04:28:31.855101   844 net.cpp:141] Setting up relu3
I0924 04:28:31.855145   844 net.cpp:148] Top shape: 10 384 13 13 (648960)
I0924 04:28:31.855159   844 net.cpp:156] Memory required for data: 58596920
I0924 04:28:31.855171   844 layer_factory.hpp:77] Creating layer conv4
I0924 04:28:31.859742   844 net.cpp:91] Creating Layer conv4
I0924 04:28:31.859797   844 net.cpp:425] conv4 <- conv3
I0924 04:28:31.859833   844 net.cpp:399] conv4 -> conv4
I0924 04:28:31.908766   864 net.cpp:141] Setting up predict
I0924 04:28:31.908835   864 net.cpp:148] Top shape: 1 1 46168 (46168)
I0924 04:28:31.908846   864 net.cpp:156] Memory required for data: 221084
I0924 04:28:31.908871   864 layer_factory.hpp:77] Creating layer probs
I0924 04:28:31.908898   864 net.cpp:91] Creating Layer probs
I0924 04:28:31.908910   864 net.cpp:425] probs <- predict
I0924 04:28:31.908929   864 net.cpp:399] probs -> probs
I0924 04:28:31.919565   844 net.cpp:141] Setting up conv4
I0924 04:28:31.919668   844 net.cpp:148] Top shape: 10 384 13 13 (648960)
I0924 04:28:31.919675   844 net.cpp:156] Memory required for data: 61192760
I0924 04:28:31.919697   844 layer_factory.hpp:77] Creating layer relu4
I0924 04:28:31.920092   844 net.cpp:91] Creating Layer relu4
I0924 04:28:31.920104   844 net.cpp:425] relu4 <- conv4
I0924 04:28:31.920115   844 net.cpp:386] relu4 -> conv4 (in-place)
I0924 04:28:31.922356   864 net.cpp:141] Setting up probs
I0924 04:28:31.923027   864 net.cpp:148] Top shape: 1 1 46168 (46168)
I0924 04:28:31.923106   844 net.cpp:141] Setting up relu4
I0924 04:28:31.923279   844 net.cpp:148] Top shape: 10 384 13 13 (648960)
I0924 04:28:31.923286   844 net.cpp:156] Memory required for data: 63788600
I0924 04:28:31.923298   844 layer_factory.hpp:77] Creating layer conv5
I0924 04:28:31.923362   844 net.cpp:91] Creating Layer conv5
I0924 04:28:31.923374   844 net.cpp:425] conv5 <- conv4
I0924 04:28:31.923388   844 net.cpp:399] conv5 -> conv5
I0924 04:28:31.923245   864 net.cpp:156] Memory required for data: 405756
…
I0924 04:28:31.924134   864 net.cpp:219] reshape_frames does not need backward computation.
I0924 04:28:31.924147   864 net.cpp:219] embed_encoder does not need backward computation.
I0924 04:28:31.924160   864 net.cpp:219] cont_sentence_input_1_split does not need backward computation.
I0924 04:28:31.924176   864 net.cpp:219] input does not need backward computation.
I0924 04:28:31.924186   864 net.cpp:261] This network produces output probs
I0924 04:28:31.924242   864 net.cpp:274] Network initialization done.
I0924 04:28:31.935256   844 net.cpp:141] Setting up conv5
I0924 04:28:31.935339   844 net.cpp:148] Top shape: 10 256 13 13 (432640)
I0924 04:28:31.935350   844 net.cpp:156] Memory required for data: 65519160
I0924 04:28:31.935417   844 layer_factory.hpp:77] Creating layer relu5
I0924 04:28:31.935451   844 net.cpp:91] Creating Layer relu5
I0924 04:28:31.935464   844 net.cpp:425] relu5 <- conv5
I0924 04:28:31.935478   844 net.cpp:386] relu5 -> conv5 (in-place)
I0924 04:28:31.938989   844 net.cpp:141] Setting up relu5
I0924 04:28:31.939113   844 net.cpp:148] Top shape: 10 256 13 13 (432640)
I0924 04:28:31.939142   844 net.cpp:156] Memory required for data: 67249720
I0924 04:28:31.939178   844 layer_factory.hpp:77] Creating layer pool5
I0924 04:28:31.939254   844 net.cpp:91] Creating Layer pool5
I0924 04:28:31.939293   844 net.cpp:425] pool5 <- conv5
I0924 04:28:31.939342   844 net.cpp:399] pool5 -> pool5
I0924 04:28:31.939966   844 net.cpp:141] Setting up pool5
I0924 04:28:31.940007   844 net.cpp:148] Top shape: 10 256 6 6 (92160)
I0924 04:28:31.940029   844 net.cpp:156] Memory required for data: 67618360
I0924 04:28:31.940052   844 layer_factory.hpp:77] Creating layer fc6
I0924 04:28:31.940109   844 net.cpp:91] Creating Layer fc6
I0924 04:28:31.940135   844 net.cpp:425] fc6 <- pool5
I0924 04:28:31.940172   844 net.cpp:399] fc6 -> fc6
I0924 04:28:32.090523   887 net.cpp:141] Setting up predict
I0924 04:28:32.090593   887 net.cpp:148] Top shape: 1 1 46168 (46168)
I0924 04:28:32.090625   887 net.cpp:156] Memory required for data: 221084
I0924 04:28:32.090651   887 layer_factory.hpp:77] Creating layer probs
I0924 04:28:32.090679   887 net.cpp:91] Creating Layer probs
I0924 04:28:32.090694   887 net.cpp:425] probs <- predict
I0924 04:28:32.090714   887 net.cpp:399] probs -> probs
I0924 04:28:32.093924   887 net.cpp:141] Setting up probs
I0924 04:28:32.093986   887 net.cpp:148] Top shape: 1 1 46168 (46168)
I0924 04:28:32.093998   887 net.cpp:156] Memory required for data: 405756
I0924 04:28:32.094010   887 net.cpp:219] probs does not need backward computation.
I0924 04:28:32.094017   887 net.cpp:219] predict does not need backward computation.
I0924 04:28:32.094023   887 net.cpp:219] lstm2 does not need backward computation.
I0924 04:28:32.094032   887 net.cpp:219] concat does not need backward computation.
I0924 04:28:32.094038   887 net.cpp:219] lstm1 does not need backward computation.
I0924 04:28:32.094044   887 net.cpp:219] embedding does not need backward computation.
I0924 04:28:32.094050   887 net.cpp:219] reshape_stage_indicator does not need backward computation.
I0924 04:28:32.094058   887 net.cpp:219] reshape_frames does not need backward computation.
I0924 04:28:32.094063   887 net.cpp:219] embed_encoder does not need backward computation.
I0924 04:28:32.094069   887 net.cpp:219] cont_sentence_input_1_split does not need backward computation.
I0924 04:28:32.094074   887 net.cpp:219] input does not need backward computation.
I0924 04:28:32.094079   887 net.cpp:261] This network produces output probs
I0924 04:28:32.094097   887 net.cpp:274] Network initialization done.
I0924 04:28:32.094682   844 net.cpp:141] Setting up fc6
I0924 04:28:32.094707   844 net.cpp:148] Top shape: 10 4096 (40960)
I0924 04:28:32.094715   844 net.cpp:156] Memory required for data: 67782200
I0924 04:28:32.094733   844 layer_factory.hpp:77] Creating layer relu6
I0924 04:28:32.094754   844 net.cpp:91] Creating Layer relu6
I0924 04:28:32.094764   844 net.cpp:425] relu6 <- fc6
I0924 04:28:32.094780   844 net.cpp:386] relu6 -> fc6 (in-place)
I0924 04:28:32.097193   844 net.cpp:141] Setting up relu6
I0924 04:28:32.097247   844 net.cpp:148] Top shape: 10 4096 (40960)
I0924 04:28:32.097257   844 net.cpp:156] Memory required for data: 67946040
I0924 04:28:32.097270   844 layer_factory.hpp:77] Creating layer drop6
I0924 04:28:32.097292   844 net.cpp:91] Creating Layer drop6
I0924 04:28:32.097302   844 net.cpp:425] drop6 <- fc6
I0924 04:28:32.097319   844 net.cpp:386] drop6 -> fc6 (in-place)
I0924 04:28:32.097501   844 net.cpp:141] Setting up drop6
I0924 04:28:32.097517   844 net.cpp:148] Top shape: 10 4096 (40960)
I0924 04:28:32.097524   844 net.cpp:156] Memory required for data: 68109880
I0924 04:28:32.097532   844 layer_factory.hpp:77] Creating layer fc7
I0924 04:28:32.098700   844 net.cpp:91] Creating Layer fc7
I0924 04:28:32.098728   844 net.cpp:425] fc7 <- fc6
I0924 04:28:32.098743   844 net.cpp:399] fc7 -> fc7
I0924 04:28:32.165820   844 net.cpp:141] Setting up fc7
I0924 04:28:32.165884   844 net.cpp:148] Top shape: 10 4096 (40960)
I0924 04:28:32.165895   844 net.cpp:156] Memory required for data: 68273720
I0924 04:28:32.165920   844 layer_factory.hpp:77] Creating layer relu7
I0924 04:28:32.165951   844 net.cpp:91] Creating Layer relu7
I0924 04:28:32.165962   844 net.cpp:425] relu7 <- fc7
I0924 04:28:32.165978   844 net.cpp:386] relu7 -> fc7 (in-place)
I0924 04:28:32.168105   844 net.cpp:141] Setting up relu7
I0924 04:28:32.168179   844 net.cpp:148] Top shape: 10 4096 (40960)
I0924 04:28:32.168205   844 net.cpp:156] Memory required for data: 68437560
I0924 04:28:32.168223   844 layer_factory.hpp:77] Creating layer drop7
I0924 04:28:32.168248   844 net.cpp:91] Creating Layer drop7
I0924 04:28:32.168279   844 net.cpp:425] drop7 <- fc7
I0924 04:28:32.168295   844 net.cpp:386] drop7 -> fc7 (in-place)
I0924 04:28:32.168552   844 net.cpp:141] Setting up drop7
I0924 04:28:32.168570   844 net.cpp:148] Top shape: 10 4096 (40960)
I0924 04:28:32.168579   844 net.cpp:156] Memory required for data: 68601400
I0924 04:28:32.168588   844 layer_factory.hpp:77] Creating layer fc8
I0924 04:28:32.171317   844 net.cpp:91] Creating Layer fc8
I0924 04:28:32.171376   844 net.cpp:425] fc8 <- fc7
I0924 04:28:32.171406   844 net.cpp:399] fc8 -> fc8
I0924 04:28:32.193590   844 net.cpp:141] Setting up fc8
I0924 04:28:32.193663   844 net.cpp:148] Top shape: 10 1000 (10000)
I0924 04:28:32.193675   844 net.cpp:156] Memory required for data: 68641400
I0924 04:28:32.193699   844 layer_factory.hpp:77] Creating layer prob
I0924 04:28:32.193722   844 net.cpp:91] Creating Layer prob
I0924 04:28:32.193734   844 net.cpp:425] prob <- fc8
I0924 04:28:32.193779   844 net.cpp:399] prob -> prob
I0924 04:28:32.199542   844 net.cpp:141] Setting up prob
I0924 04:28:32.199589   844 net.cpp:148] Top shape: 10 1000 (10000)
I0924 04:28:32.199596   844 net.cpp:156] Memory required for data: 68681400
I0924 04:28:32.199607   844 net.cpp:219] prob does not need backward computation.
I0924 04:28:32.199615   844 net.cpp:219] fc8 does not need backward computation.
I0924 04:28:32.199621   844 net.cpp:219] drop7 does not need backward computation.
I0924 04:28:32.199626   844 net.cpp:219] relu7 does not need backward computation.
…
