…
Java HotSpot(TM) 64-Bit Server VM warning: You have loaded library /tmp/cvld7306518519814546054/libopencv_java310.so which might have disabled stack guard. The VM will try to fix the stack guard now.
It's highly recommended that you fix the library with 'execstack -c <libfile>', or link it with '-z noexecstack'.
WARNING: cuda not found in compile time, setting current GPU will not work.
WARNING: Logging before InitGoogleLogging() is written to STDERR
I0706 22:28:46.040040  6757 net.cpp:49] Initializing net from parameters: 
name: "GoogleNet"
state {
  phase: TEST
}
layer {
  name: "data"
  type: "Input"
  top: "data"
  input_param {
    shape {
      dim: 10
      dim: 3
      dim: 224
      dim: 224
    }
  }
}
layer {
  name: "conv1/7x7_s2"
  type: "Convolution"
  bottom: "data"
  top: "conv1/7x7_s2"
  param {
    lr_mult: 1
    decay_mult: 1
  }
  param {
    lr_mult: 2
    decay_mult: 0
  }
  convolution_param {
    num_output: 64
    pad: 3
    kernel_size: 7
    stride: 2
    weight_filler {
      type: "xavier"
      std: 0.1
    }
    bias_filler {
      type: "constant"
      value: 0.2
    }
  }
}
layer {
  name: "conv1/relu_7x7"
  type: "ReLU"
  bottom: "conv1/7x7_s2"
  top: "conv1/7x7_s2"
}
layer {
  name: "pool1/3x3_s2"
  type: "Pooling"
  bottom: "conv1/7x7_s2"
  top: "pool1/3x3_s2"
  pooling_param {
    pool: MAX
    kernel_size: 3
    stride: 2
  }
}
layer {
  name: "pool1/norm1"
  type: "LRN"
  bottom: "pool1/3x3_s2"
  top: "pool1/norm1"
  lrn_param {
    local_size: 5
    alpha: 0.0001
    beta: 0.75
  }
}
layer {
  name: "conv2/3x3_reduce"
  type: "Convolution"
  bottom: "pool1/norm1"
  top: "conv2/3x3_reduce"
  param {
    lr_mult: 1
    decay_mult: 1
  }
  param {
    lr_mult: 2
    decay_mult: 0
  }
  convolution_param {
    num_output: 64
    kernel_size: 1
    weight_filler {
      type: "xavier"
      std: 0.1
    }
    bias_filler {
      type: "constant"
      value: 0.2
    }
  }
}
layer {
  name: "conv2/relu_3x3_reduce"
  type: "ReLU"
  bottom: "conv2/3x3_reduce"
  top: "conv2/3x3_reduce"
}
layer {
  name: "conv2/3x3"
  type: "Convolution"
  bottom: "conv2/3x3_reduce"
  top: "conv2/3x3"
  param {
    lr_mult: 1
    decay_mult: 1
  }
  param {
    lr_mult: 2
    decay_mult: 0
  }
  convolution_param {
    num_output: 192
    pad: 1
    kernel_size: 3
    weight_filler {
      type: "xavier"
      std: 0.03
    }
    bias_filler {
      type: "constant"
      value: 0.2
    }
  }
}
layer {
  name: "conv2/relu_3x3"
  type: "ReLU"
  bottom: "conv2/3x3"
  top: "conv2/3x3"
}
layer {
  name: "conv2/norm2"
  type: "LRN"
  bottom: "conv2/3x3"
  top: "conv2/norm2"
  lrn_param {
    local_size: 5
    alpha: 0.0001
    beta: 0.75
  }
}
layer {
  name: "pool2/3x3_s2"
  type: "Pooling"
  bottom: "conv2/norm2"
  top: "pool2/3x3_s2"
  pooling_param {
    pool: MAX
    kernel_size: 3
    stride: 2
  }
}
layer {
  name: "inception_3a/1x1"
  type: "Convolution"
  bottom: "pool2/3x3_s2"
  top: "inception_3a/1x1"
  param {
    lr_mult: 1
    decay_mult: 1
  }
  param {
    lr_mult: 2
    decay_mult: 0
  }
  convolution_param {
    num_output: 64
    kernel_size: 1
    weight_filler {
      type: "xavier"
      std: 0.03
    }
    bias_filler {
      type: "constant"
      value: 0.2
    }
  }
}
layer {
  name: "inception_3a/relu_1x1"
  type: "ReLU"
  bottom: "inception_3a/1x1"
  top: "inception_3a/1x1"
}
layer {
  name: "inception_3a/3x3_reduce"
  type: "Convolution"
  bottom: "pool2/3x3_s2"
  top: "inception_3a/3x3_reduce"
  param {
    lr_mult: 1
    decay_mult: 1
  }
  param {
    lr_mult: 2
    decay_mult: 0
  }
  convolution_param {
    num_output: 96
    kernel_size: 1
    weight_filler {
      type: "xavier"
      std: 0.09
    }
    bias_filler {
      type: "constant"
      value: 0.2
    }
  }
}
layer {
  name: "inception_3a/relu_3x3_reduce"
  type: "ReLU"
  bottom: "inception_3a/3x3_reduce"
  top: "inception_3a/3x3_reduce"
}
layer {
  name: "inception_3a/3x3"
  type: "Convolution"
  bottom: "inception_3a/3x3_reduce"
  top: "inception_3a/3x3"
  param {
    lr_mult: 1
    decay_mult: 1
  }
  param {
    lr_mult: 2
    decay_mult: 0
  }
  convolution_param {
    num_output: 128
    pad: 1
    kernel_size: 3
    weight_filler {
      type: "xavier"
      std: 0.03
    }
    bias_filler {
      type: "constant"
      value: 0.2
    }
  }
}
layer {
  name: "inception_3a/relu_3x3"
  type: "ReLU"
  bottom: "inception_3a/3x3"
  top: "inception_3a/3x3"
}
layer {
  name: "inception_3a/5x5_reduce"
  type: "Convolution"
  bottom: "pool2/3x3_s2"
  top: "inception_3a/5x5_reduce"
  param {
    lr_mult: 1
    decay_mult: 1
  }
  param {
    lr_mult: 2
    decay_mult: 0
  }
  convolution_param {
    num_output: 16
    kernel_size: 1
    weight_filler {
      type: "xavier"
      std: 0.2
    }
    bias_filler {
      type: "constant"
      value: 0.2
    }
  }
}
layer {
  name: "inception_3a/relu_5x5_reduce"
  type: "ReLU"
  bottom: "inception_3a/5x5_reduce"
  top: "inception_3a/5x5_reduce"
}
layer {
  name: "inception_3a/5x5"
  type: "Convolution"
  bottom: "inception_3a/5x5_reduce"
  top: "inception_3a/5x5"
  param {
    lr_mult: 1
    decay_mult: 1
  }
  param {
    lr_mult: 2
    decay_mult: 0
  }
  convolution_param {
    num_output: 32
    pad: 2
    kernel_size: 5
    weight_filler {
      type: "xavier"
      std: 0.03
    }
    bias_filler {
      type: "constant"
      value: 0.2
    }
  }
}
layer {
  name: "inception_3a/relu_5x5"
  type: "ReLU"
  bottom: "inception_3a/5x5"
  top: "inception_3a/5x5"
}
layer {
  name: "inception_3a/pool"
  type: "Pooling"
  bottom: "pool2/3x3_s2"
  top: "inception_3a/pool"
  pooling_param {
    pool: MAX
    kernel_size: 3
    stride: 1
    pad: 1
  }
}
layer {
  name: "inception_3a/pool_proj"
  type: "Convolution"
  bottom: "inception_3a/pool"
  top: "inception_3a/pool_proj"
  param {
    lr_mult: 1
    decay_mult: 1
  }
  param {
    lr_mult: 2
    decay_mult: 0
  }
  convolution_param {
    num_output: 32
    kernel_size: 1
    weight_filler {
      type: "xavier"
      std: 0.1
    }
    bias_filler {
      type: "constant"
      value: 0.2
    }
  }
}
layer {
  name: "inception_3a/relu_pool_proj"
  type: "ReLU"
  bottom: "inception_3a/pool_proj"
  top: "inception_3a/pool_proj"
}
layer {
  name: "inception_3a/output"
  type: "Concat"
  bottom: "inception_3a/1x1"
  bottom: "inception_3a/3x3"
  bottom: "inception_3a/5x5"
  bottom: "inception_3a/pool_proj"
  top: "inception_3a/output"
}
layer {
  name: "inception_3b/1x1"
  type: "Convolution"
  bottom: "inception_3a/output"
  top: "inception_3b/1x1"
  param {
    lr_mult: 1
    decay_mult: 1
  }
  param {
    lr_mult: 2
    decay_mult: 0
  }
  convolution_param {
    num_output: 128
    kernel_size: 1
    weight_filler {
      type: "xavier"
      std: 0.03
    }
    bias_filler {
      type: "constant"
      value: 0.2
    }
  }
}
layer {
  name: "inception_3b/relu_1x1"
  type: "ReLU"
  bottom: "inception_3b/1x1"
  top: "inception_3b/1x1"
}
layer {
  name: "inception_3b/3x3_reduce"
  type: "Convolution"
  bottom: "inception_3a/output"
  top: "inception_3b/3x3_reduce"
  param {
    lr_mult: 1
    decay_mult: 1
  }
  param {
    lr_mult: 2
    decay_mult: 0
  }
  convolution_param {
    num_output: 128
    kernel_size: 1
    weight_filler {
      type: "xavier"
      std: 0.09
    }
    bias_filler {
      type: "constant"
      value: 0.2
    }
  }
}
layer {
  name: "inception_3b/relu_3x3_reduce"
  type: "ReLU"
  bottom: "inception_3b/3x3_reduce"
  top: "inception_3b/3x3_reduce"
}
layer {
  name: "inception_3b/3x3"
  type: "Convolution"
  bottom: "inception_3b/3x3_reduce"
  top: "inception_3b/3x3"
  param {
    lr_mult: 1
    decay_mult: 1
  }
  param {
    lr_mult: 2
    decay_mult: 0
  }
  convolution_param {
    num_output: 192
    pad: 1
    kernel_size: 3
    weight_filler {
      type: "xavier"
      std: 0.03
    }
    bias_filler {
      type: "constant"
      value: 0.2
    }
  }
}
layer {
  name: "inception_3b/relu_3x3"
  type: "ReLU"
  bottom: "inception_3b/3x3"
  top: "inception_3b/3x3"
}
layer {
  name: "inception_3b/5x5_reduce"
  type: "Convolution"
  bottom: "inception_3a/output"
  top: "inception_3b/5x5_reduce"
  param {
    lr_mult: 1
    decay_mult: 1
  }
  param {
    lr_mult: 2
    decay_mult: 0
  }
  convolution_param {
    num_output: 32
    kernel_size: 1
    weight_filler {
      type: "xavier"
      std: 0.2
    }
    bias_filler {
      type: "constant"
      value: 0.2
    }
  }
}
layer {
  name: "inception_3b/relu_5x5_reduce"
  type: "ReLU"
  bottom: "inception_3b/5x5_reduce"
  top: "inception_3b/5x5_reduce"
}
layer {
  name: "inception_3b/5x5"
  type: "Convolution"
  bottom: "inception_3b/5x5_reduce"
  top: "inception_3b/5x5"
  param {
    lr_mult: 1
    decay_mult: 1
  }
  param {
    lr_mult: 2
    decay_mult: 0
  }
  convolution_param {
    num_output: 96
    pad: 2
    kernel_size: 5
    weight_filler {
      type: "xavier"
      std: 0.03
    }
    bias_filler {
      type: "constant"
      value: 0.2
    }
  }
}
layer {
  name: "inception_3b/relu_5x5"
  type: "ReLU"
  bottom: "inception_3b/5x5"
  top: "inception_3b/5x5"
}
layer {
  name: "inception_3b/pool"
  type: "Pooling"
  bottom: "inception_3a/output"
  top: "inception_3b/pool"
  pooling_param {
    pool: MAX
    kernel_size: 3
    stride: 1
    pad: 1
  }
}
layer {
  name: "inception_3b/pool_proj"
  type: "Convolution"
  bottom: "inception_3b/pool"
  top: "inception_3b/pool_proj"
  param {
    lr_mult: 1
    decay_mult: 1
  }
  param {
    lr_mult: 2
    decay_mult: 0
  }
  convolution_param {
    num_output: 64
    kernel_size: 1
    weight_filler {
      type: "xavier"
      std: 0.1
    }
    bias_filler {
      type: "constant"
      value: 0.2
    }
  }
}
layer {
  name: "inception_3b/relu_pool_proj"
  type: "ReLU"
  bottom: "inception_3b/pool_proj"
  top: "inception_3b/pool_proj"
}
layer {
  name: "inception_3b/output"
  type: "Concat"
  bottom: "inception_3b/1x1"
  bottom: "inception_3b/3x3"
  bottom: "inception_3b/5x5"
  bottom: "inception_3b/pool_proj"
  top: "inception_3b/output"
}
layer {
  name: "pool3/3x3_s2"
  type: "Pooling"
  bottom: "inception_3b/output"
  top: "pool3/3x3_s2"
  pooling_param {
    pool: MAX
    kernel_size: 3
    stride: 2
  }
}
layer {
  name: "inception_4a/1x1"
  type: "Convolution"
  bottom: "pool3/3x3_s2"
  top: "inception_4a/1x1"
  param {
    lr_mult: 1
    decay_mult: 1
  }
  param {
    lr_mult: 2
    decay_mult: 0
  }
  convolution_param {
    num_output: 192
    kernel_size: 1
    weight_filler {
      type: "xavier"
      std: 0.03
    }
    bias_filler {
      type: "constant"
      value: 0.2
    }
  }
}
layer {
  name: "inception_4a/relu_1x1"
  type: "ReLU"
  bottom: "inception_4a/1x1"
  top: "inception_4a/1x1"
}
layer {
  name: "inception_4a/3x3_reduce"
  type: "Convolution"
  bottom: "pool3/3x3_s2"
  top: "inception_4a/3x3_reduce"
  param {
    lr_mult: 1
    decay_mult: 1
  }
  param {
    lr_mult: 2
    decay_mult: 0
  }
  convolution_param {
    num_output: 96
    kernel_size: 1
    weight_filler {
      type: "xavier"
      std: 0.09
    }
    bias_filler {
      type: "constant"
      value: 0.2
    }
  }
}
layer {
  name: "inception_4a/relu_3x3_reduce"
  type: "ReLU"
  bottom: "inception_4a/3x3_reduce"
  top: "inception_4a/3x3_reduce"
}
layer {
  name: "inception_4a/3x3"
  type: "Convolution"
  bottom: "inception_4a/3x3_reduce"
  top: "inception_4a/3x3"
  param {
    lr_mult: 1
    decay_mult: 1
  }
  param {
    lr_mult: 2
    decay_mult: 0
  }
  convolution_param {
    num_output: 208
    pad: 1
    kernel_size: 3
    weight_filler {
      type: "xavier"
      std: 0.03
    }
    bias_filler {
      type: "constant"
      value: 0.2
    }
  }
}
layer {
  name: "inception_4a/relu_3x3"
  type: "ReLU"
  bottom: "inception_4a/3x3"
  top: "inception_4a/3x3"
}
layer {
  name: "inception_4a/5x5_reduce"
  type: "Convolution"
  bottom: "pool3/3x3_s2"
  top: "inception_4a/5x5_reduce"
  param {
    lr_mult: 1
    decay_mult: 1
  }
  param {
    lr_mult: 2
    decay_mult: 0
  }
  convolution_param {
    num_output: 16
    kernel_size: 1
    weight_filler {
      type: "xavier"
      std: 0.2
    }
    bias_filler {
      type: "constant"
      value: 0.2
    }
  }
}
layer {
  name: "inception_4a/relu_5x5_reduce"
  type: "ReLU"
  bottom: "inception_4a/5x5_reduce"
  top: "inception_4a/5x5_reduce"
}
layer {
  name: "inception_4a/5x5"
  type: "Convolution"
  bottom: "inception_4a/5x5_reduce"
  top: "inception_4a/5x5"
  param {
    lr_mult: 1
    decay_mult: 1
  }
  param {
    lr_mult: 2
    decay_mult: 0
  }
  convolution_param {
    num_output: 48
    pad: 2
    kernel_size: 5
    weight_filler {
      type: "xavier"
      std: 0.03
    }
    bias_filler {
      type: "constant"
      value: 0.2
    }
  }
}
layer {
  name: "inception_4a/relu_5x5"
  type: "ReLU"
  bottom: "inception_4a/5x5"
  top: "inception_4a/5x5"
}
layer {
  name: "inception_4a/pool"
  type: "Pooling"
  bottom: "pool3/3x3_s2"
  top: "inception_4a/pool"
  pooling_param {
    pool: MAX
    kernel_size: 3
    stride: 1
    pad: 1
  }
}
layer {
  name: "inception_4a/pool_proj"
  type: "Convolution"
  bottom: "inception_4a/pool"
  top: "inception_4a/pool_proj"
  param {
    lr_mult: 1
    decay_mult: 1
  }
  param {
    lr_mult: 2
    decay_mult: 0
  }
  convolution_param {
    num_output: 64
    kernel_size: 1
    weight_filler {
      type: "xavier"
      std: 0.1
    }
    bias_filler {
      type: "constant"
      value: 0.2
    }
  }
}
layer {
  name: "inception_4a/relu_pool_proj"
  type: "ReLU"
  bottom: "inception_4a/pool_proj"
  top: "inception_4a/pool_proj"
}
layer {
  name: "inception_4a/output"
  type: "Concat"
  bottom: "inception_4a/1x1"
  bottom: "inception_4a/3x3"
  bottom: "inception_4a/5x5"
  bottom: "inception_4a/pool_proj"
  top: "inception_4a/output"
}
layer {
  name: "inception_4b/1x1"
  type: "Convolution"
  bottom: "inception_4a/output"
  top: "inception_4b/1x1"
  param {
    lr_mult: 1
    decay_mult: 1
  }
  param {
    lr_mult: 2
    decay_mult: 0
  }
  convolution_param {
    num_output: 160
    kernel_size: 1
    weight_filler {
      type: "xavier"
      std: 0.03
    }
    bias_filler {
      type: "constant"
      value: 0.2
    }
  }
}
layer {
  name: "inception_4b/relu_1x1"
  type: "ReLU"
  bottom: "inception_4b/1x1"
  top: "inception_4b/1x1"
}
layer {
  name: "inception_4b/3x3_reduce"
  type: "Convolution"
  bottom: "inception_4a/output"
  top: "inception_4b/3x3_reduce"
  param {
    lr_mult: 1
    decay_mult: 1
  }
  param {
    lr_mult: 2
    decay_mult: 0
  }
  convolution_param {
    num_output: 112
    kernel_size: 1
    weight_filler {
      type: "xavier"
      std: 0.09
    }
    bias_filler {
      type: "constant"
      value: 0.2
    }
  }
}
layer {
  name: "inception_4b/relu_3x3_reduce"
  type: "ReLU"
  bottom: "inception_4b/3x3_reduce"
  top: "inception_4b/3x3_reduce"
}
layer {
  name: "inception_4b/3x3"
  type: "Convolution"
  bottom: "inception_4b/3x3_reduce"
  top: "inception_4b/3x3"
  param {
    lr_mult: 1
    decay_mult: 1
  }
  param {
    lr_mult: 2
    decay_mult: 0
  }
  convolution_param {
    num_output: 224
    pad: 1
    kernel_size: 3
    weight_filler {
      type: "xavier"
      std: 0.03
    }
    bias_filler {
      type: "constant"
      value: 0.2
    }
  }
}
layer {
  name: "inception_4b/relu_3x3"
  type: "ReLU"
  bottom: "inception_4b/3x3"
  top: "inception_4b/3x3"
}
layer {
  name: "inception_4b/5x5_reduce"
  type: "Convolution"
  bottom: "inception_4a/output"
  top: "inception_4b/5x5_reduce"
  param {
    lr_mult: 1
    decay_mult: 1
  }
  param {
    lr_mult: 2
    decay_mult: 0
  }
  convolution_param {
    num_output: 24
    kernel_size: 1
    weight_filler {
      type: "xavier"
      std: 0.2
    }
    bias_filler {
      type: "constant"
      value: 0.2
    }
  }
}
layer {
  name: "inception_4b/relu_5x5_reduce"
  type: "ReLU"
  bottom: "inception_4b/5x5_reduce"
  top: "inception_4b/5x5_reduce"
}
layer {
  name: "inception_4b/5x5"
  type: "Convolution"
  bottom: "inception_4b/5x5_reduce"
  top: "inception_4b/5x5"
  param {
    lr_mult: 1
    decay_mult: 1
  }
  param {
    lr_mult: 2
    decay_mult: 0
  }
  convolution_param {
    num_output: 64
    pad: 2
    kernel_size: 5
    weight_filler {
      type: "xavier"
      std: 0.03
    }
    bias_filler {
      type: "constant"
      value: 0.2
    }
  }
}
layer {
  name: "inception_4b/relu_5x5"
  type: "ReLU"
  bottom: "inception_4b/5x5"
  top: "inception_4b/5x5"
}
layer {
  name: "inception_4b/pool"
  type: "Pooling"
  bottom: "inception_4a/output"
  top: "inception_4b/pool"
  pooling_param {
    pool: MAX
    kernel_size: 3
    stride: 1
    pad: 1
  }
}
layer {
  name: "inception_4b/pool_proj"
  type: "Convolution"
  bottom: "inception_4b/pool"
  top: "inception_4b/pool_proj"
  param {
    lr_mult: 1
    decay_mult: 1
  }
  param {
    lr_mult: 2
    decay_mult: 0
  }
  convolution_param {
    num_output: 64
    kernel_size: 1
    weight_filler {
      type: "xavier"
      std: 0.1
    }
    bias_filler {
      type: "constant"
      value: 0.2
    }
  }
}
layer {
  name: "inception_4b/relu_pool_proj"
  type: "ReLU"
  bottom: "inception_4b/pool_proj"
  top: "inception_4b/pool_proj"
}
layer {
  name: "inception_4b/output"
  type: "Concat"
  bottom: "inception_4b/1x1"
  bottom: "inception_4b/3x3"
  bottom: "inception_4b/5x5"
  bottom: "inception_4b/pool_proj"
  top: "inception_4b/output"
}
layer {
  name: "inception_4c/1x1"
  type: "Convolution"
  bottom: "inception_4b/output"
  top: "inception_4c/1x1"
  param {
    lr_mult: 1
    decay_mult: 1
  }
  param {
    lr_mult: 2
    decay_mult: 0
  }
  convolution_param {
    num_output: 128
    kernel_size: 1
    weight_filler {
      type: "xavier"
      std: 0.03
    }
    bias_filler {
      type: "constant"
      value: 0.2
    }
  }
}
layer {
  name: "inception_4c/relu_1x1"
  type: "ReLU"
  bottom: "inception_4c/1x1"
  top: "inception_4c/1x1"
}
layer {
  name: "inception_4c/3x3_reduce"
  type: "Convolution"
  bottom: "inception_4b/output"
  top: "inception_4c/3x3_reduce"
  param {
    lr_mult: 1
    decay_mult: 1
  }
  param {
    lr_mult: 2
    decay_mult: 0
  }
  convolution_param {
    num_output: 128
    kernel_size: 1
    weight_filler {
      type: "xavier"
      std: 0.09
    }
    bias_filler {
      type: "constant"
      value: 0.2
    }
  }
}
layer {
  name: "inception_4c/relu_3x3_reduce"
  type: "ReLU"
  bottom: "inception_4c/3x3_reduce"
  top: "inception_4c/3x3_reduce"
}
layer {
  name: "inception_4c/3x3"
  type: "Convolution"
  bottom: "inception_4c/3x3_reduce"
  top: "inception_4c/3x3"
  param {
    lr_mult: 1
    decay_mult: 1
  }
  param {
    lr_mult: 2
    decay_mult: 0
  }
  convolution_param {
    num_output: 256
    pad: 1
    kernel_size: 3
    weight_filler {
      type: "xavier"
      std: 0.03
    }
    bias_filler {
      type: "constant"
      value: 0.2
    }
  }
}
layer {
  name: "inception_4c/relu_3x3"
  type: "ReLU"
  bottom: "inception_4c/3x3"
  top: "inception_4c/3x3"
}
layer {
  name: "inception_4c/5x5_reduce"
  type: "Convolution"
  bottom: "inception_4b/output"
  top: "inception_4c/5x5_reduce"
  param {
    lr_mult: 1
    decay_mult: 1
  }
  param {
    lr_mult: 2
    decay_mult: 0
  }
  convolution_param {
    num_output: 24
    kernel_size: 1
    weight_filler {
      type: "xavier"
      std: 0.2
    }
    bias_filler {
      type: "constant"
      value: 0.2
    }
  }
}
layer {
  name: "inception_4c/relu_5x5_reduce"
  type: "ReLU"
  bottom: "inception_4c/5x5_reduce"
  top: "inception_4c/5x5_reduce"
}
layer {
  name: "inception_4c/5x5"
  type: "Convolution"
  bottom: "inception_4c/5x5_reduce"
  top: "inception_4c/5x5"
  param {
    lr_mult: 1
    decay_mult: 1
  }
  param {
    lr_mult: 2
    decay_mult: 0
  }
  convolution_param {
    num_output: 64
    pad: 2
    kernel_size: 5
    weight_filler {
      type: "xavier"
      std: 0.03
    }
    bias_filler {
      type: "constant"
      value: 0.2
    }
  }
}
layer {
  name: "inception_4c/relu_5x5"
  type: "ReLU"
  bottom: "inception_4c/5x5"
  top: "inception_4c/5x5"
}
layer {
  name: "inception_4c/pool"
  type: "Pooling"
  bottom: "inception_4b/output"
  top: "inception_4c/pool"
  pooling_param {
    pool: MAX
    kernel_size: 3
    stride: 1
    pad: 1
  }
}
layer {
  name: "inception_4c/pool_proj"
  type: "Convolution"
  bottom: "inception_4c/pool"
  top: "inception_4c/pool_proj"
  param {
    lr_mult: 1
    decay_mult: 1
  }
  param {
    lr_mult: 2
    decay_mult: 0
  }
  convolution_param {
    num_output: 64
    kernel_size: 1
    weight_filler {
      type: "xavier"
      std: 0.1
    }
    bias_filler {
      type: "constant"
      value: 0.2
    }
  }
}
layer {
  name: "inception_4c/relu_pool_proj"
  type: "ReLU"
  bottom: "inception_4c/pool_proj"
  top: "inception_4c/pool_proj"
}
layer {
  name: "inception_4c/output"
  type: "Concat"
  bottom: "inception_4c/1x1"
  bottom: "inception_4c/3x3"
  bottom: "inception_4c/5x5"
  bottom: "inception_4c/pool_proj"
  top: "inception_4c/output"
}
layer {
  name: "inception_4d/1x1"
  type: "Convolution"
  bottom: "inception_4c/output"
  top: "inception_4d/1x1"
  param {
    lr_mult: 1
    decay_mult: 1
  }
  param {
    lr_mult: 2
    decay_mult: 0
  }
  convolution_param {
    num_output: 112
    kernel_size: 1
    weight_filler {
      type: "xavier"
      std: 0.03
    }
    bias_filler {
      type: "constant"
      value: 0.2
    }
  }
}
layer {
  name: "inception_4d/relu_1x1"
  type: "ReLU"
  bottom: "inception_4d/1x1"
  top: "inception_4d/1x1"
}
layer {
  name: "inception_4d/3x3_reduce"
  type: "Convolution"
  bottom: "inception_4c/output"
  top: "inception_4d/3x3_reduce"
  param {
    lr_mult: 1
    decay_mult: 1
  }
  param {
    lr_mult: 2
    decay_mult: 0
  }
  convolution_param {
    num_output: 144
    kernel_size: 1
    weight_filler {
      type: "xavier"
      std: 0.09
    }
    bias_filler {
      type: "constant"
      value: 0.2
    }
  }
}
layer {
  name: "inception_4d/relu_3x3_reduce"
  type: "ReLU"
  bottom: "inception_4d/3x3_reduce"
  top: "inception_4d/3x3_reduce"
}
layer {
  name: "inception_4d/3x3"
  type: "Convolution"
  bottom: "inception_4d/3x3_reduce"
  top: "inception_4d/3x3"
  param {
    lr_mult: 1
    decay_mult: 1
  }
  param {
    lr_mult: 2
    decay_mult: 0
  }
  convolution_param {
    num_output: 288
    pad: 1
    kernel_size: 3
    weight_filler {
      type: "xavier"
      std: 0.03
    }
    bias_filler {
      type: "constant"
      value: 0.2
    }
  }
}
layer {
  name: "inception_4d/relu_3x3"
  type: "ReLU"
  bottom: "inception_4d/3x3"
  top: "inception_4d/3x3"
}
layer {
  name: "inception_4d/5x5_reduce"
  type: "Convolution"
  bottom: "inception_4c/output"
  top: "inception_4d/5x5_reduce"
  param {
    lr_mult: 1
    decay_mult: 1
  }
  param {
    lr_mult: 2
    decay_mult: 0
  }
  convolution_param {
    num_output: 32
    kernel_size: 1
    weight_filler {
      type: "xavier"
      std: 0.2
    }
    bias_filler {
      type: "constant"
      value: 0.2
    }
  }
}
layer {
  name: "inception_4d/relu_5x5_reduce"
  type: "ReLU"
  bottom: "inception_4d/5x5_reduce"
  top: "inception_4d/5x5_reduce"
}
layer {
  name: "inception_4d/5x5"
  type: "Convolution"
  bottom: "inception_4d/5x5_reduce"
  top: "inception_4d/5x5"
  param {
    lr_mult: 1
    decay_mult: 1
  }
  param {
    lr_mult: 2
    decay_mult: 0
  }
  convolution_param {
    num_output: 64
    pad: 2
    kernel_size: 5
    weight_filler {
      type: "xavier"
      std: 0.03
    }
    bias_filler {
      type: "constant"
      value: 0.2
    }
  }
}
layer {
  name: "inception_4d/relu_5x5"
  type: "ReLU"
  bottom: "inception_4d/5x5"
  top: "inception_4d/5x5"
}
layer {
  name: "inception_4d/pool"
  type: "Pooling"
  bottom: "inception_4c/output"
  top: "inception_4d/pool"
  pooling_param {
    pool: MAX
    kernel_size: 3
    stride: 1
    pad: 1
  }
}
layer {
  name: "inception_4d/pool_proj"
  type: "Convolution"
  bottom: "inception_4d/pool"
  top: "inception_4d/pool_proj"
  param {
    lr_mult: 1
    decay_mult: 1
  }
  param {
    lr_mult: 2
    decay_mult: 0
  }
  convolution_param {
    num_output: 64
    kernel_size: 1
    weight_filler {
      type: "xavier"
      std: 0.1
    }
    bias_filler {
      type: "constant"
      value: 0.2
    }
  }
}
layer {
  name: "inception_4d/relu_pool_proj"
  type: "ReLU"
  bottom: "inception_4d/pool_proj"
  top: "inception_4d/pool_proj"
}
layer {
  name: "inception_4d/output"
  type: "Concat"
  bottom: "inception_4d/1x1"
  bottom: "inception_4d/3x3"
  bottom: "inception_4d/5x5"
  bottom: "inception_4d/pool_proj"
  top: "inception_4d/output"
}
layer {
  name: "inception_4e/1x1"
  type: "Convolution"
  bottom: "inception_4d/output"
  top: "inception_4e/1x1"
  param {
    lr_mult: 1
    decay_mult: 1
  }
  param {
    lr_mult: 2
    decay_mult: 0
  }
  convolution_param {
    num_output: 256
    kernel_size: 1
    weight_filler {
      type: "xavier"
      std: 0.03
    }
    bias_filler {
      type: "constant"
      value: 0.2
    }
  }
}
layer {
  name: "inception_4e/relu_1x1"
  type: "ReLU"
  bottom: "inception_4e/1x1"
  top: "inception_4e/1x1"
}
layer {
  name: "inception_4e/3x3_reduce"
  type: "Convolution"
  bottom: "inception_4d/output"
  top: "inception_4e/3x3_reduce"
  param {
    lr_mult: 1
    decay_mult: 1
  }
  param {
    lr_mult: 2
    decay_mult: 0
  }
  convolution_param {
    num_output: 160
    kernel_size: 1
    weight_filler {
      type: "xavier"
      std: 0.09
    }
    bias_filler {
      type: "constant"
      value: 0.2
    }
  }
}
layer {
  name: "inception_4e/relu_3x3_reduce"
  type: "ReLU"
  bottom: "inception_4e/3x3_reduce"
  top: "inception_4e/3x3_reduce"
}
layer {
  name: "inception_4e/3x3"
  type: "Convolution"
  bottom: "inception_4e/3x3_reduce"
  top: "inception_4e/3x3"
  param {
    lr_mult: 1
    decay_mult: 1
  }
  param {
    lr_mult: 2
    decay_mult: 0
  }
  convolution_param {
    num_output: 320
    pad: 1
    kernel_size: 3
    weight_filler {
      type: "xavier"
      std: 0.03
    }
    bias_filler {
      type: "constant"
      value: 0.2
    }
  }
}
layer {
  name: "inception_4e/relu_3x3"
  type: "ReLU"
  bottom: "inception_4e/3x3"
  top: "inception_4e/3x3"
}
layer {
  name: "inception_4e/5x5_reduce"
  type: "Convolution"
  bottom: "inception_4d/output"
  top: "inception_4e/5x5_reduce"
  param {
    lr_mult: 1
    decay_mult: 1
  }
  param {
    lr_mult: 2
    decay_mult: 0
  }
  convolution_param {
    num_output: 32
    kernel_size: 1
    weight_filler {
      type: "xavier"
      std: 0.2
    }
    bias_filler {
      type: "constant"
      value: 0.2
    }
  }
}
layer {
  name: "inception_4e/relu_5x5_reduce"
  type: "ReLU"
  bottom: "inception_4e/5x5_reduce"
  top: "inception_4e/5x5_reduce"
}
layer {
  name: "inception_4e/5x5"
  type: "Convolution"
  bottom: "inception_4e/5x5_reduce"
  top: "inception_4e/5x5"
  param {
    lr_mult: 1
    decay_mult: 1
  }
  param {
    lr_mult: 2
    decay_mult: 0
  }
  convolution_param {
    num_output: 128
    pad: 2
    kernel_size: 5
    weight_filler {
      type: "xavier"
      std: 0.03
    }
    bias_filler {
      type: "constant"
      value: 0.2
    }
  }
}
layer {
  name: "inception_4e/relu_5x5"
  type: "ReLU"
  bottom: "inception_4e/5x5"
  top: "inception_4e/5x5"
}
layer {
  name: "inception_4e/pool"
  type: "Pooling"
  bottom: "inception_4d/output"
  top: "inception_4e/pool"
  pooling_param {
    pool: MAX
    kernel_size: 3
    stride: 1
    pad: 1
  }
}
layer {
  name: "inception_4e/pool_proj"
  type: "Convolution"
  bottom: "inception_4e/pool"
  top: "inception_4e/pool_proj"
  param {
    lr_mult: 1
    decay_mult: 1
  }
  param {
    lr_mult: 2
    decay_mult: 0
  }
  convolution_param {
    num_output: 128
    kernel_size: 1
    weight_filler {
      type: "xavier"
      std: 0.1
    }
    bias_filler {
      type: "constant"
      value: 0.2
    }
  }
}
layer {
  name: "inception_4e/relu_pool_proj"
  type: "ReLU"
  bottom: "inception_4e/pool_proj"
  top: "inception_4e/pool_proj"
}
layer {
  name: "inception_4e/output"
  type: "Concat"
  bottom: "inception_4e/1x1"
  bottom: "inception_4e/3x3"
  bottom: "inception_4e/5x5"
  bottom: "inception_4e/pool_proj"
  top: "inception_4e/output"
}
layer {
  name: "pool4/3x3_s2"
  type: "Pooling"
  bottom: "inception_4e/output"
  top: "pool4/3x3_s2"
  pooling_param {
    pool: MAX
    kernel_size: 3
    stride: 2
  }
}
layer {
  name: "inception_5a/1x1"
  type: "Convolution"
  bottom: "pool4/3x3_s2"
  top: "inception_5a/1x1"
  param {
    lr_mult: 1
    decay_mult: 1
  }
  param {
    lr_mult: 2
    decay_mult: 0
  }
  convolution_param {
    num_output: 256
    kernel_size: 1
    weight_filler {
      type: "xavier"
      std: 0.03
    }
    bias_filler {
      type: "constant"
      value: 0.2
    }
  }
}
layer {
  name: "inception_5a/relu_1x1"
  type: "ReLU"
  bottom: "inception_5a/1x1"
  top: "inception_5a/1x1"
}
layer {
  name: "inception_5a/3x3_reduce"
  type: "Convolution"
  bottom: "pool4/3x3_s2"
  top: "inception_5a/3x3_reduce"
  param {
    lr_mult: 1
    decay_mult: 1
  }
  param {
    lr_mult: 2
    decay_mult: 0
  }
  convolution_param {
    num_output: 160
    kernel_size: 1
    weight_filler {
      type: "xavier"
      std: 0.09
    }
    bias_filler {
      type: "constant"
      value: 0.2
    }
  }
}
layer {
  name: "inception_5a/relu_3x3_reduce"
  type: "ReLU"
  bottom: "inception_5a/3x3_reduce"
  top: "inception_5a/3x3_reduce"
}
layer {
  name: "inception_5a/3x3"
  type: "Convolution"
  bottom: "inception_5a/3x3_reduce"
  top: "inception_5a/3x3"
  param {
    lr_mult: 1
    decay_mult: 1
  }
  param {
    lr_mult: 2
    decay_mult: 0
  }
  convolution_param {
    num_output: 320
    pad: 1
    kernel_size: 3
    weight_filler {
      type: "xavier"
      std: 0.03
    }
    bias_filler {
      type: "constant"
      value: 0.2
    }
  }
}
layer {
  name: "inception_5a/relu_3x3"
  type: "ReLU"
  bottom: "inception_5a/3x3"
  top: "inception_5a/3x3"
}
layer {
  name: "inception_5a/5x5_reduce"
  type: "Convolution"
  bottom: "pool4/3x3_s2"
  top: "inception_5a/5x5_reduce"
  param {
    lr_mult: 1
    decay_mult: 1
  }
  param {
    lr_mult: 2
    decay_mult: 0
  }
  convolution_param {
    num_output: 32
    kernel_size: 1
    weight_filler {
      type: "xavier"
      std: 0.2
    }
    bias_filler {
      type: "constant"
      value: 0.2
    }
I0706 22:28:46.041005  6757 layer_factory.hpp:77] Creating layer data
I0706 22:28:46.041039  6757 net.cpp:91] Creating Layer data
I0706 22:28:46.041051  6757 net.cpp:399] data -> data
I0706 22:28:46.684763  6757 net.cpp:141] Setting up data
I0706 22:28:46.684864  6757 net.cpp:148] Top shape: 10 3 224 224 (1505280)
I0706 22:28:46.684872  6757 net.cpp:156] Memory required for data: 6021120
I0706 22:28:46.684896  6757 layer_factory.hpp:77] Creating layer conv1/7x7_s2
I0706 22:28:46.684939  6757 net.cpp:91] Creating Layer conv1/7x7_s2
I0706 22:28:46.684950  6757 net.cpp:425] conv1/7x7_s2 <- data
I0706 22:28:46.684967  6757 net.cpp:399] conv1/7x7_s2 -> conv1/7x7_s2
I0706 22:28:47.017537  6757 net.cpp:141] Setting up conv1/7x7_s2
I0706 22:28:47.017587  6757 net.cpp:148] Top shape: 10 64 112 112 (8028160)
I0706 22:28:47.017596  6757 net.cpp:156] Memory required for data: 38133760
I0706 22:28:47.017627  6757 layer_factory.hpp:77] Creating layer conv1/relu_7x7
I0706 22:28:47.017648  6757 net.cpp:91] Creating Layer conv1/relu_7x7
I0706 22:28:47.017657  6757 net.cpp:425] conv1/relu_7x7 <- conv1/7x7_s2
I0706 22:28:47.017665  6757 net.cpp:386] conv1/relu_7x7 -> conv1/7x7_s2 (in-place)
I0706 22:28:47.018435  6757 net.cpp:141] Setting up conv1/relu_7x7
I0706 22:28:47.018450  6757 net.cpp:148] Top shape: 10 64 112 112 (8028160)
I0706 22:28:47.018456  6757 net.cpp:156] Memory required for data: 70246400
I0706 22:28:47.018462  6757 layer_factory.hpp:77] Creating layer pool1/3x3_s2
I0706 22:28:47.018476  6757 net.cpp:91] Creating Layer pool1/3x3_s2
I0706 22:28:47.018482  6757 net.cpp:425] pool1/3x3_s2 <- conv1/7x7_s2
I0706 22:28:47.018491  6757 net.cpp:399] pool1/3x3_s2 -> pool1/3x3_s2
I0706 22:28:47.018573  6757 net.cpp:141] Setting up pool1/3x3_s2
I0706 22:28:47.018584  6757 net.cpp:148] Top shape: 10 64 56 56 (2007040)
I0706 22:28:47.018589  6757 net.cpp:156] Memory required for data: 78274560
I0706 22:28:47.018595  6757 layer_factory.hpp:77] Creating layer pool1/norm1
I0706 22:28:47.018613  6757 net.cpp:91] Creating Layer pool1/norm1
I0706 22:28:47.018620  6757 net.cpp:425] pool1/norm1 <- pool1/3x3_s2
I0706 22:28:47.018627  6757 net.cpp:399] pool1/norm1 -> pool1/norm1
I0706 22:28:47.019459  6757 net.cpp:141] Setting up pool1/norm1
I0706 22:28:47.019476  6757 net.cpp:148] Top shape: 10 64 56 56 (2007040)
I0706 22:28:47.019482  6757 net.cpp:156] Memory required for data: 86302720
I0706 22:28:47.019489  6757 layer_factory.hpp:77] Creating layer conv2/3x3_reduce
I0706 22:28:47.019510  6757 net.cpp:91] Creating Layer conv2/3x3_reduce
I0706 22:28:47.019515  6757 net.cpp:425] conv2/3x3_reduce <- pool1/norm1
I0706 22:28:47.019528  6757 net.cpp:399] conv2/3x3_reduce -> conv2/3x3_reduce
I0706 22:28:47.022403  6757 net.cpp:141] Setting up conv2/3x3_reduce
I0706 22:28:47.022423  6757 net.cpp:148] Top shape: 10 64 56 56 (2007040)
I0706 22:28:47.022428  6757 net.cpp:156] Memory required for data: 94330880
I0706 22:28:47.022446  6757 layer_factory.hpp:77] Creating layer conv2/relu_3x3_reduce
I0706 22:28:47.022457  6757 net.cpp:91] Creating Layer conv2/relu_3x3_reduce
I0706 22:28:47.022464  6757 net.cpp:425] conv2/relu_3x3_reduce <- conv2/3x3_reduce
I0706 22:28:47.022474  6757 net.cpp:386] conv2/relu_3x3_reduce -> conv2/3x3_reduce (in-place)
I0706 22:28:47.023257  6757 net.cpp:141] Setting up conv2/relu_3x3_reduce
I0706 22:28:47.023275  6757 net.cpp:148] Top shape: 10 64 56 56 (2007040)
I0706 22:28:47.023282  6757 net.cpp:156] Memory required for data: 102359040
I0706 22:28:47.023288  6757 layer_factory.hpp:77] Creating layer conv2/3x3
I0706 22:28:47.023304  6757 net.cpp:91] Creating Layer conv2/3x3
I0706 22:28:47.023310  6757 net.cpp:425] conv2/3x3 <- conv2/3x3_reduce
I0706 22:28:47.023324  6757 net.cpp:399] conv2/3x3 -> conv2/3x3
I0706 22:28:47.028275  6757 net.cpp:141] Setting up conv2/3x3
I0706 22:28:47.028296  6757 net.cpp:148] Top shape: 10 192 56 56 (6021120)
I0706 22:28:47.028302  6757 net.cpp:156] Memory required for data: 126443520
I0706 22:28:47.028322  6757 layer_factory.hpp:77] Creating layer conv2/relu_3x3
I0706 22:28:47.028336  6757 net.cpp:91] Creating Layer conv2/relu_3x3
I0706 22:28:47.028342  6757 net.cpp:425] conv2/relu_3x3 <- conv2/3x3
I0706 22:28:47.028348  6757 net.cpp:386] conv2/relu_3x3 -> conv2/3x3 (in-place)
I0706 22:28:47.028609  6757 net.cpp:141] Setting up conv2/relu_3x3
I0706 22:28:47.028621  6757 net.cpp:148] Top shape: 10 192 56 56 (6021120)
I0706 22:28:47.028626  6757 net.cpp:156] Memory required for data: 150528000
I0706 22:28:47.028632  6757 layer_factory.hpp:77] Creating layer conv2/norm2
I0706 22:28:47.028645  6757 net.cpp:91] Creating Layer conv2/norm2
I0706 22:28:47.028650  6757 net.cpp:425] conv2/norm2 <- conv2/3x3
I0706 22:28:47.028657  6757 net.cpp:399] conv2/norm2 -> conv2/norm2
I0706 22:28:47.029487  6757 net.cpp:141] Setting up conv2/norm2
I0706 22:28:47.029507  6757 net.cpp:148] Top shape: 10 192 56 56 (6021120)
I0706 22:28:47.029513  6757 net.cpp:156] Memory required for data: 174612480
I0706 22:28:47.029520  6757 layer_factory.hpp:77] Creating layer pool2/3x3_s2
I0706 22:28:47.029528  6757 net.cpp:91] Creating Layer pool2/3x3_s2
I0706 22:28:47.029534  6757 net.cpp:425] pool2/3x3_s2 <- conv2/norm2
I0706 22:28:47.029542  6757 net.cpp:399] pool2/3x3_s2 -> pool2/3x3_s2
I0706 22:28:47.029600  6757 net.cpp:141] Setting up pool2/3x3_s2
I0706 22:28:47.029610  6757 net.cpp:148] Top shape: 10 192 28 28 (1505280)
I0706 22:28:47.029615  6757 net.cpp:156] Memory required for data: 180633600
I0706 22:28:47.029620  6757 layer_factory.hpp:77] Creating layer pool2/3x3_s2_pool2/3x3_s2_0_split
I0706 22:28:47.029630  6757 net.cpp:91] Creating Layer pool2/3x3_s2_pool2/3x3_s2_0_split
I0706 22:28:47.029635  6757 net.cpp:425] pool2/3x3_s2_pool2/3x3_s2_0_split <- pool2/3x3_s2
I0706 22:28:47.029647  6757 net.cpp:399] pool2/3x3_s2_pool2/3x3_s2_0_split -> pool2/3x3_s2_pool2/3x3_s2_0_split_0
I0706 22:28:47.029659  6757 net.cpp:399] pool2/3x3_s2_pool2/3x3_s2_0_split -> pool2/3x3_s2_pool2/3x3_s2_0_split_1
I0706 22:28:47.029669  6757 net.cpp:399] pool2/3x3_s2_pool2/3x3_s2_0_split -> pool2/3x3_s2_pool2/3x3_s2_0_split_2
I0706 22:28:47.029680  6757 net.cpp:399] pool2/3x3_s2_pool2/3x3_s2_0_split -> pool2/3x3_s2_pool2/3x3_s2_0_split_3
I0706 22:28:47.029763  6757 net.cpp:141] Setting up pool2/3x3_s2_pool2/3x3_s2_0_split
I0706 22:28:47.029774  6757 net.cpp:148] Top shape: 10 192 28 28 (1505280)
I0706 22:28:47.029780  6757 net.cpp:148] Top shape: 10 192 28 28 (1505280)
I0706 22:28:47.029786  6757 net.cpp:148] Top shape: 10 192 28 28 (1505280)
I0706 22:28:47.029793  6757 net.cpp:148] Top shape: 10 192 28 28 (1505280)
I0706 22:28:47.029798  6757 net.cpp:156] Memory required for data: 204718080
I0706 22:28:47.029803  6757 layer_factory.hpp:77] Creating layer inception_3a/1x1
I0706 22:28:47.029817  6757 net.cpp:91] Creating Layer inception_3a/1x1
I0706 22:28:47.029824  6757 net.cpp:425] inception_3a/1x1 <- pool2/3x3_s2_pool2/3x3_s2_0_split_0
I0706 22:28:47.029850  6757 net.cpp:399] inception_3a/1x1 -> inception_3a/1x1
I0706 22:28:47.034114  6757 net.cpp:141] Setting up inception_3a/1x1
I0706 22:28:47.034137  6757 net.cpp:148] Top shape: 10 64 28 28 (501760)
I0706 22:28:47.034143  6757 net.cpp:156] Memory required for data: 206725120
I0706 22:28:47.034154  6757 layer_factory.hpp:77] Creating layer inception_3a/relu_1x1
I0706 22:28:47.034164  6757 net.cpp:91] Creating Layer inception_3a/relu_1x1
I0706 22:28:47.034171  6757 net.cpp:425] inception_3a/relu_1x1 <- inception_3a/1x1
I0706 22:28:47.034183  6757 net.cpp:386] inception_3a/relu_1x1 -> inception_3a/1x1 (in-place)
I0706 22:28:47.034446  6757 net.cpp:141] Setting up inception_3a/relu_1x1
I0706 22:28:47.034459  6757 net.cpp:148] Top shape: 10 64 28 28 (501760)
I0706 22:28:47.034464  6757 net.cpp:156] Memory required for data: 208732160
I0706 22:28:47.034471  6757 layer_factory.hpp:77] Creating layer inception_3a/3x3_reduce
I0706 22:28:47.034489  6757 net.cpp:91] Creating Layer inception_3a/3x3_reduce
I0706 22:28:47.034495  6757 net.cpp:425] inception_3a/3x3_reduce <- pool2/3x3_s2_pool2/3x3_s2_0_split_1
I0706 22:28:47.034505  6757 net.cpp:399] inception_3a/3x3_reduce -> inception_3a/3x3_reduce
I0706 22:28:47.037974  6757 net.cpp:141] Setting up inception_3a/3x3_reduce
I0706 22:28:47.037994  6757 net.cpp:148] Top shape: 10 96 28 28 (752640)
I0706 22:28:47.038000  6757 net.cpp:156] Memory required for data: 211742720
I0706 22:28:47.038014  6757 layer_factory.hpp:77] Creating layer inception_3a/relu_3x3_reduce
I0706 22:28:47.038033  6757 net.cpp:91] Creating Layer inception_3a/relu_3x3_reduce
I0706 22:28:47.038040  6757 net.cpp:425] inception_3a/relu_3x3_reduce <- inception_3a/3x3_reduce
I0706 22:28:47.038048  6757 net.cpp:386] inception_3a/relu_3x3_reduce -> inception_3a/3x3_reduce (in-place)
I0706 22:28:47.038318  6757 net.cpp:141] Setting up inception_3a/relu_3x3_reduce
I0706 22:28:47.038332  6757 net.cpp:148] Top shape: 10 96 28 28 (752640)
I0706 22:28:47.038337  6757 net.cpp:156] Memory required for data: 214753280
I0706 22:28:47.038343  6757 layer_factory.hpp:77] Creating layer inception_3a/3x3
I0706 22:28:47.038364  6757 net.cpp:91] Creating Layer inception_3a/3x3
I0706 22:28:47.038370  6757 net.cpp:425] inception_3a/3x3 <- inception_3a/3x3_reduce
I0706 22:28:47.038383  6757 net.cpp:399] inception_3a/3x3 -> inception_3a/3x3
I0706 22:28:47.041532  6757 net.cpp:141] Setting up inception_3a/3x3
I0706 22:28:47.041553  6757 net.cpp:148] Top shape: 10 128 28 28 (1003520)
I0706 22:28:47.041559  6757 net.cpp:156] Memory required for data: 218767360
I0706 22:28:47.041573  6757 layer_factory.hpp:77] Creating layer inception_3a/relu_3x3
I0706 22:28:47.041584  6757 net.cpp:91] Creating Layer inception_3a/relu_3x3
I0706 22:28:47.041589  6757 net.cpp:425] inception_3a/relu_3x3 <- inception_3a/3x3
I0706 22:28:47.041600  6757 net.cpp:386] inception_3a/relu_3x3 -> inception_3a/3x3 (in-place)
I0706 22:28:47.042376  6757 net.cpp:141] Setting up inception_3a/relu_3x3
I0706 22:28:47.042394  6757 net.cpp:148] Top shape: 10 128 28 28 (1003520)
I0706 22:28:47.042399  6757 net.cpp:156] Memory required for data: 222781440
I0706 22:28:47.042405  6757 layer_factory.hpp:77] Creating layer inception_3a/5x5_reduce
I0706 22:28:47.042423  6757 net.cpp:91] Creating Layer inception_3a/5x5_reduce
I0706 22:28:47.042428  6757 net.cpp:425] inception_3a/5x5_reduce <- pool2/3x3_s2_pool2/3x3_s2_0_split_2
I0706 22:28:47.042443  6757 net.cpp:399] inception_3a/5x5_reduce -> inception_3a/5x5_reduce
I0706 22:28:47.044718  6757 net.cpp:141] Setting up inception_3a/5x5_reduce
I0706 22:28:47.044739  6757 net.cpp:148] Top shape: 10 16 28 28 (125440)
I0706 22:28:47.044744  6757 net.cpp:156] Memory required for data: 223283200
I0706 22:28:47.044754  6757 layer_factory.hpp:77] Creating layer inception_3a/relu_5x5_reduce
I0706 22:28:47.044764  6757 net.cpp:91] Creating Layer inception_3a/relu_5x5_reduce
I0706 22:28:47.044770  6757 net.cpp:425] inception_3a/relu_5x5_reduce <- inception_3a/5x5_reduce
I0706 22:28:47.044778  6757 net.cpp:386] inception_3a/relu_5x5_reduce -> inception_3a/5x5_reduce (in-place)
I0706 22:28:47.045042  6757 net.cpp:141] Setting up inception_3a/relu_5x5_reduce
I0706 22:28:47.045055  6757 net.cpp:148] Top shape: 10 16 28 28 (125440)
I0706 22:28:47.045060  6757 net.cpp:156] Memory required for data: 223784960
I0706 22:28:47.045066  6757 layer_factory.hpp:77] Creating layer inception_3a/5x5
I0706 22:28:47.045081  6757 net.cpp:91] Creating Layer inception_3a/5x5
I0706 22:28:47.045089  6757 net.cpp:425] inception_3a/5x5 <- inception_3a/5x5_reduce
I0706 22:28:47.045101  6757 net.cpp:399] inception_3a/5x5 -> inception_3a/5x5
I0706 22:28:47.048630  6757 net.cpp:141] Setting up inception_3a/5x5
I0706 22:28:47.048655  6757 net.cpp:148] Top shape: 10 32 28 28 (250880)
I0706 22:28:47.048660  6757 net.cpp:156] Memory required for data: 224788480
I0706 22:28:47.048671  6757 layer_factory.hpp:77] Creating layer inception_3a/relu_5x5
I0706 22:28:47.048679  6757 net.cpp:91] Creating Layer inception_3a/relu_5x5
I0706 22:28:47.048686  6757 net.cpp:425] inception_3a/relu_5x5 <- inception_3a/5x5
I0706 22:28:47.048694  6757 net.cpp:386] inception_3a/relu_5x5 -> inception_3a/5x5 (in-place)
I0706 22:28:47.048956  6757 net.cpp:141] Setting up inception_3a/relu_5x5
I0706 22:28:47.048969  6757 net.cpp:148] Top shape: 10 32 28 28 (250880)
I0706 22:28:47.048974  6757 net.cpp:156] Memory required for data: 225792000
I0706 22:28:47.048980  6757 layer_factory.hpp:77] Creating layer inception_3a/pool
I0706 22:28:47.048990  6757 net.cpp:91] Creating Layer inception_3a/pool
I0706 22:28:47.048998  6757 net.cpp:425] inception_3a/pool <- pool2/3x3_s2_pool2/3x3_s2_0_split_3
I0706 22:28:47.049007  6757 net.cpp:399] inception_3a/pool -> inception_3a/pool
I0706 22:28:47.049074  6757 net.cpp:141] Setting up inception_3a/pool
I0706 22:28:47.049085  6757 net.cpp:148] Top shape: 10 192 28 28 (1505280)
I0706 22:28:47.049090  6757 net.cpp:156] Memory required for data: 231813120
I0706 22:28:47.049095  6757 layer_factory.hpp:77] Creating layer inception_3a/pool_proj
I0706 22:28:47.049111  6757 net.cpp:91] Creating Layer inception_3a/pool_proj
I0706 22:28:47.049118  6757 net.cpp:425] inception_3a/pool_proj <- inception_3a/pool
I0706 22:28:47.049129  6757 net.cpp:399] inception_3a/pool_proj -> inception_3a/pool_proj
I0706 22:28:47.051398  6757 net.cpp:141] Setting up inception_3a/pool_proj
I0706 22:28:47.051419  6757 net.cpp:148] Top shape: 10 32 28 28 (250880)
I0706 22:28:47.051424  6757 net.cpp:156] Memory required for data: 232816640
I0706 22:28:47.051439  6757 layer_factory.hpp:77] Creating layer inception_3a/relu_pool_proj
I0706 22:28:47.051453  6757 net.cpp:91] Creating Layer inception_3a/relu_pool_proj
I0706 22:28:47.051460  6757 net.cpp:425] inception_3a/relu_pool_proj <- inception_3a/pool_proj
I0706 22:28:47.051468  6757 net.cpp:386] inception_3a/relu_pool_proj -> inception_3a/pool_proj (in-place)
I0706 22:28:47.052248  6757 net.cpp:141] Setting up inception_3a/relu_pool_proj
I0706 22:28:47.052264  6757 net.cpp:148] Top shape: 10 32 28 28 (250880)
I0706 22:28:47.052270  6757 net.cpp:156] Memory required for data: 233820160
I0706 22:28:47.052276  6757 layer_factory.hpp:77] Creating layer inception_3a/output
I0706 22:28:47.052300  6757 net.cpp:91] Creating Layer inception_3a/output
I0706 22:28:47.052306  6757 net.cpp:425] inception_3a/output <- inception_3a/1x1
I0706 22:28:47.052314  6757 net.cpp:425] inception_3a/output <- inception_3a/3x3
I0706 22:28:47.052320  6757 net.cpp:425] inception_3a/output <- inception_3a/5x5
I0706 22:28:47.052327  6757 net.cpp:425] inception_3a/output <- inception_3a/pool_proj
I0706 22:28:47.052337  6757 net.cpp:399] inception_3a/output -> inception_3a/output
I0706 22:28:47.052381  6757 net.cpp:141] Setting up inception_3a/output
I0706 22:28:47.052392  6757 net.cpp:148] Top shape: 10 256 28 28 (2007040)
I0706 22:28:47.052397  6757 net.cpp:156] Memory required for data: 241848320
I0706 22:28:47.052402  6757 layer_factory.hpp:77] Creating layer inception_3a/output_inception_3a/output_0_split
I0706 22:28:47.052417  6757 net.cpp:91] Creating Layer inception_3a/output_inception_3a/output_0_split
I0706 22:28:47.052423  6757 net.cpp:425] inception_3a/output_inception_3a/output_0_split <- inception_3a/output
I0706 22:28:47.052431  6757 net.cpp:399] inception_3a/output_inception_3a/output_0_split -> inception_3a/output_inception_3a/output_0_split_0
I0706 22:28:47.052441  6757 net.cpp:399] inception_3a/output_inception_3a/output_0_split -> inception_3a/output_inception_3a/output_0_split_1
I0706 22:28:47.052451  6757 net.cpp:399] inception_3a/output_inception_3a/output_0_split -> inception_3a/output_inception_3a/output_0_split_2
I0706 22:28:47.052464  6757 net.cpp:399] inception_3a/output_inception_3a/output_0_split -> inception_3a/output_inception_3a/output_0_split_3
I0706 22:28:47.052551  6757 net.cpp:141] Setting up inception_3a/output_inception_3a/output_0_split
I0706 22:28:47.052561  6757 net.cpp:148] Top shape: 10 256 28 28 (2007040)
I0706 22:28:47.052567  6757 net.cpp:148] Top shape: 10 256 28 28 (2007040)
I0706 22:28:47.052573  6757 net.cpp:148] Top shape: 10 256 28 28 (2007040)
I0706 22:28:47.052579  6757 net.cpp:148] Top shape: 10 256 28 28 (2007040)
I0706 22:28:47.052584  6757 net.cpp:156] Memory required for data: 273960960
I0706 22:28:47.052589  6757 layer_factory.hpp:77] Creating layer inception_3b/1x1
I0706 22:28:47.052603  6757 net.cpp:91] Creating Layer inception_3b/1x1
I0706 22:28:47.052610  6757 net.cpp:425] inception_3b/1x1 <- inception_3a/output_inception_3a/output_0_split_0
I0706 22:28:47.052624  6757 net.cpp:399] inception_3b/1x1 -> inception_3b/1x1
I0706 22:28:47.055275  6757 net.cpp:141] Setting up inception_3b/1x1
I0706 22:28:47.055299  6757 net.cpp:148] Top shape: 10 128 28 28 (1003520)
I0706 22:28:47.055305  6757 net.cpp:156] Memory required for data: 277975040
I0706 22:28:47.055316  6757 layer_factory.hpp:77] Creating layer inception_3b/relu_1x1
I0706 22:28:47.055326  6757 net.cpp:91] Creating Layer inception_3b/relu_1x1
I0706 22:28:47.055332  6757 net.cpp:425] inception_3b/relu_1x1 <- inception_3b/1x1
I0706 22:28:47.055341  6757 net.cpp:386] inception_3b/relu_1x1 -> inception_3b/1x1 (in-place)
I0706 22:28:47.055593  6757 net.cpp:141] Setting up inception_3b/relu_1x1
I0706 22:28:47.055608  6757 net.cpp:148] Top shape: 10 128 28 28 (1003520)
I0706 22:28:47.055613  6757 net.cpp:156] Memory required for data: 281989120
I0706 22:28:47.055618  6757 layer_factory.hpp:77] Creating layer inception_3b/3x3_reduce
I0706 22:28:47.055634  6757 net.cpp:91] Creating Layer inception_3b/3x3_reduce
I0706 22:28:47.055640  6757 net.cpp:425] inception_3b/3x3_reduce <- inception_3a/output_inception_3a/output_0_split_1
I0706 22:28:47.055655  6757 net.cpp:399] inception_3b/3x3_reduce -> inception_3b/3x3_reduce
I0706 22:28:47.059284  6757 net.cpp:141] Setting up inception_3b/3x3_reduce
I0706 22:28:47.059317  6757 net.cpp:148] Top shape: 10 128 28 28 (1003520)
I0706 22:28:47.059330  6757 net.cpp:156] Memory required for data: 286003200
I0706 22:28:47.059350  6757 layer_factory.hpp:77] Creating layer inception_3b/relu_3x3_reduce
I0706 22:28:47.059365  6757 net.cpp:91] Creating Layer inception_3b/relu_3x3_reduce
I0706 22:28:47.059377  6757 net.cpp:425] inception_3b/relu_3x3_reduce <- inception_3b/3x3_reduce
I0706 22:28:47.059393  6757 net.cpp:386] inception_3b/relu_3x3_reduce -> inception_3b/3x3_reduce (in-place)
I0706 22:28:47.059799  6757 net.cpp:141] Setting up inception_3b/relu_3x3_reduce
I0706 22:28:47.059819  6757 net.cpp:148] Top shape: 10 128 28 28 (1003520)
I0706 22:28:47.059828  6757 net.cpp:156] Memory required for data: 290017280
I0706 22:28:47.059839  6757 layer_factory.hpp:77] Creating layer inception_3b/3x3
I0706 22:28:47.059861  6757 net.cpp:91] Creating Layer inception_3b/3x3
I0706 22:28:47.059873  6757 net.cpp:425] inception_3b/3x3 <- inception_3b/3x3_reduce
I0706 22:28:47.059895  6757 net.cpp:399] inception_3b/3x3 -> inception_3b/3x3
I0706 22:28:47.067278  6757 net.cpp:141] Setting up inception_3b/3x3
I0706 22:28:47.067301  6757 net.cpp:148] Top shape: 10 192 28 28 (1505280)
I0706 22:28:47.067307  6757 net.cpp:156] Memory required for data: 296038400
I0706 22:28:47.067318  6757 layer_factory.hpp:77] Creating layer inception_3b/relu_3x3
I0706 22:28:47.067337  6757 net.cpp:91] Creating Layer inception_3b/relu_3x3
I0706 22:28:47.067344  6757 net.cpp:425] inception_3b/relu_3x3 <- inception_3b/3x3
I0706 22:28:47.067355  6757 net.cpp:386] inception_3b/relu_3x3 -> inception_3b/3x3 (in-place)
I0706 22:28:47.068151  6757 net.cpp:141] Setting up inception_3b/relu_3x3
I0706 22:28:47.068171  6757 net.cpp:148] Top shape: 10 192 28 28 (1505280)
I0706 22:28:47.068176  6757 net.cpp:156] Memory required for data: 302059520
I0706 22:28:47.068181  6757 layer_factory.hpp:77] Creating layer inception_3b/5x5_reduce
I0706 22:28:47.068198  6757 net.cpp:91] Creating Layer inception_3b/5x5_reduce
I0706 22:28:47.068204  6757 net.cpp:425] inception_3b/5x5_reduce <- inception_3a/output_inception_3a/output_0_split_2
I0706 22:28:47.068218  6757 net.cpp:399] inception_3b/5x5_reduce -> inception_3b/5x5_reduce
I0706 22:28:47.070528  6757 net.cpp:141] Setting up inception_3b/5x5_reduce
I0706 22:28:47.070547  6757 net.cpp:148] Top shape: 10 32 28 28 (250880)
I0706 22:28:47.070554  6757 net.cpp:156] Memory required for data: 303063040
I0706 22:28:47.070564  6757 layer_factory.hpp:77] Creating layer inception_3b/relu_5x5_reduce
I0706 22:28:47.070574  6757 net.cpp:91] Creating Layer inception_3b/relu_5x5_reduce
I0706 22:28:47.070580  6757 net.cpp:425] inception_3b/relu_5x5_reduce <- inception_3b/5x5_reduce
I0706 22:28:47.070587  6757 net.cpp:386] inception_3b/relu_5x5_reduce -> inception_3b/5x5_reduce (in-place)
I0706 22:28:47.070876  6757 net.cpp:141] Setting up inception_3b/relu_5x5_reduce
I0706 22:28:47.070890  6757 net.cpp:148] Top shape: 10 32 28 28 (250880)
I0706 22:28:47.070896  6757 net.cpp:156] Memory required for data: 304066560
I0706 22:28:47.070901  6757 layer_factory.hpp:77] Creating layer inception_3b/5x5
I0706 22:28:47.070917  6757 net.cpp:91] Creating Layer inception_3b/5x5
I0706 22:28:47.070924  6757 net.cpp:425] inception_3b/5x5 <- inception_3b/5x5_reduce
I0706 22:28:47.070937  6757 net.cpp:399] inception_3b/5x5 -> inception_3b/5x5
I0706 22:28:47.075096  6757 net.cpp:141] Setting up inception_3b/5x5
I0706 22:28:47.075119  6757 net.cpp:148] Top shape: 10 96 28 28 (752640)
I0706 22:28:47.075124  6757 net.cpp:156] Memory required for data: 307077120
I0706 22:28:47.075134  6757 layer_factory.hpp:77] Creating layer inception_3b/relu_5x5
I0706 22:28:47.075145  6757 net.cpp:91] Creating Layer inception_3b/relu_5x5
I0706 22:28:47.075151  6757 net.cpp:425] inception_3b/relu_5x5 <- inception_3b/5x5
I0706 22:28:47.075163  6757 net.cpp:386] inception_3b/relu_5x5 -> inception_3b/5x5 (in-place)
I0706 22:28:47.075418  6757 net.cpp:141] Setting up inception_3b/relu_5x5
I0706 22:28:47.075431  6757 net.cpp:148] Top shape: 10 96 28 28 (752640)
I0706 22:28:47.075436  6757 net.cpp:156] Memory required for data: 310087680
I0706 22:28:47.075443  6757 layer_factory.hpp:77] Creating layer inception_3b/pool
I0706 22:28:47.075455  6757 net.cpp:91] Creating Layer inception_3b/pool
I0706 22:28:47.075462  6757 net.cpp:425] inception_3b/pool <- inception_3a/output_inception_3a/output_0_split_3
I0706 22:28:47.075471  6757 net.cpp:399] inception_3b/pool -> inception_3b/pool
I0706 22:28:47.075544  6757 net.cpp:141] Setting up inception_3b/pool
I0706 22:28:47.075554  6757 net.cpp:148] Top shape: 10 256 28 28 (2007040)
I0706 22:28:47.075561  6757 net.cpp:156] Memory required for data: 318115840
I0706 22:28:47.075565  6757 layer_factory.hpp:77] Creating layer inception_3b/pool_proj
I0706 22:28:47.075582  6757 net.cpp:91] Creating Layer inception_3b/pool_proj
I0706 22:28:47.075587  6757 net.cpp:425] inception_3b/pool_proj <- inception_3b/pool
I0706 22:28:47.075601  6757 net.cpp:399] inception_3b/pool_proj -> inception_3b/pool_proj
I0706 22:28:47.077962  6757 net.cpp:141] Setting up inception_3b/pool_proj
I0706 22:28:47.077981  6757 net.cpp:148] Top shape: 10 64 28 28 (501760)
I0706 22:28:47.077987  6757 net.cpp:156] Memory required for data: 320122880
I0706 22:28:47.077997  6757 layer_factory.hpp:77] Creating layer inception_3b/relu_pool_proj
I0706 22:28:47.078009  6757 net.cpp:91] Creating Layer inception_3b/relu_pool_proj
I0706 22:28:47.078016  6757 net.cpp:425] inception_3b/relu_pool_proj <- inception_3b/pool_proj
I0706 22:28:47.078024  6757 net.cpp:386] inception_3b/relu_pool_proj -> inception_3b/pool_proj (in-place)
I0706 22:28:47.078819  6757 net.cpp:141] Setting up inception_3b/relu_pool_proj
I0706 22:28:47.078837  6757 net.cpp:148] Top shape: 10 64 28 28 (501760)
I0706 22:28:47.078842  6757 net.cpp:156] Memory required for data: 322129920
I0706 22:28:47.078848  6757 layer_factory.hpp:77] Creating layer inception_3b/output
I0706 22:28:47.078860  6757 net.cpp:91] Creating Layer inception_3b/output
I0706 22:28:47.078866  6757 net.cpp:425] inception_3b/output <- inception_3b/1x1
I0706 22:28:47.078873  6757 net.cpp:425] inception_3b/output <- inception_3b/3x3
I0706 22:28:47.078881  6757 net.cpp:425] inception_3b/output <- inception_3b/5x5
I0706 22:28:47.078887  6757 net.cpp:425] inception_3b/output <- inception_3b/pool_proj
I0706 22:28:47.078894  6757 net.cpp:399] inception_3b/output -> inception_3b/output
I0706 22:28:47.078945  6757 net.cpp:141] Setting up inception_3b/output
I0706 22:28:47.078956  6757 net.cpp:148] Top shape: 10 480 28 28 (3763200)
I0706 22:28:47.078961  6757 net.cpp:156] Memory required for data: 337182720
I0706 22:28:47.078966  6757 layer_factory.hpp:77] Creating layer pool3/3x3_s2
I0706 22:28:47.078975  6757 net.cpp:91] Creating Layer pool3/3x3_s2
I0706 22:28:47.078980  6757 net.cpp:425] pool3/3x3_s2 <- inception_3b/output
I0706 22:28:47.078994  6757 net.cpp:399] pool3/3x3_s2 -> pool3/3x3_s2
I0706 22:28:47.079063  6757 net.cpp:141] Setting up pool3/3x3_s2
I0706 22:28:47.079076  6757 net.cpp:148] Top shape: 10 480 14 14 (940800)
I0706 22:28:47.079080  6757 net.cpp:156] Memory required for data: 340945920
I0706 22:28:47.079085  6757 layer_factory.hpp:77] Creating layer pool3/3x3_s2_pool3/3x3_s2_0_split
I0706 22:28:47.079094  6757 net.cpp:91] Creating Layer pool3/3x3_s2_pool3/3x3_s2_0_split
I0706 22:28:47.079103  6757 net.cpp:425] pool3/3x3_s2_pool3/3x3_s2_0_split <- pool3/3x3_s2
I0706 22:28:47.079123  6757 net.cpp:399] pool3/3x3_s2_pool3/3x3_s2_0_split -> pool3/3x3_s2_pool3/3x3_s2_0_split_0
I0706 22:28:47.079136  6757 net.cpp:399] pool3/3x3_s2_pool3/3x3_s2_0_split -> pool3/3x3_s2_pool3/3x3_s2_0_split_1
I0706 22:28:47.079145  6757 net.cpp:399] pool3/3x3_s2_pool3/3x3_s2_0_split -> pool3/3x3_s2_pool3/3x3_s2_0_split_2
I0706 22:28:47.079155  6757 net.cpp:399] pool3/3x3_s2_pool3/3x3_s2_0_split -> pool3/3x3_s2_pool3/3x3_s2_0_split_3
I0706 22:28:47.079251  6757 net.cpp:141] Setting up pool3/3x3_s2_pool3/3x3_s2_0_split
I0706 22:28:47.079260  6757 net.cpp:148] Top shape: 10 480 14 14 (940800)
I0706 22:28:47.079267  6757 net.cpp:148] Top shape: 10 480 14 14 (940800)
I0706 22:28:47.079273  6757 net.cpp:148] Top shape: 10 480 14 14 (940800)
I0706 22:28:47.079279  6757 net.cpp:148] Top shape: 10 480 14 14 (940800)
I0706 22:28:47.079283  6757 net.cpp:156] Memory required for data: 355998720
I0706 22:28:47.079288  6757 layer_factory.hpp:77] Creating layer inception_4a/1x1
I0706 22:28:47.079306  6757 net.cpp:91] Creating Layer inception_4a/1x1
I0706 22:28:47.079313  6757 net.cpp:425] inception_4a/1x1 <- pool3/3x3_s2_pool3/3x3_s2_0_split_0
I0706 22:28:47.079324  6757 net.cpp:399] inception_4a/1x1 -> inception_4a/1x1
I0706 22:28:47.082983  6757 net.cpp:141] Setting up inception_4a/1x1
I0706 22:28:47.083010  6757 net.cpp:148] Top shape: 10 192 14 14 (376320)
I0706 22:28:47.083016  6757 net.cpp:156] Memory required for data: 357504000
I0706 22:28:47.083027  6757 layer_factory.hpp:77] Creating layer inception_4a/relu_1x1
I0706 22:28:47.083040  6757 net.cpp:91] Creating Layer inception_4a/relu_1x1
I0706 22:28:47.083047  6757 net.cpp:425] inception_4a/relu_1x1 <- inception_4a/1x1
I0706 22:28:47.083055  6757 net.cpp:386] inception_4a/relu_1x1 -> inception_4a/1x1 (in-place)
I0706 22:28:47.083317  6757 net.cpp:141] Setting up inception_4a/relu_1x1
I0706 22:28:47.083329  6757 net.cpp:148] Top shape: 10 192 14 14 (376320)
I0706 22:28:47.083335  6757 net.cpp:156] Memory required for data: 359009280
I0706 22:28:47.083340  6757 layer_factory.hpp:77] Creating layer inception_4a/3x3_reduce
I0706 22:28:47.083358  6757 net.cpp:91] Creating Layer inception_4a/3x3_reduce
I0706 22:28:47.083364  6757 net.cpp:425] inception_4a/3x3_reduce <- pool3/3x3_s2_pool3/3x3_s2_0_split_1
I0706 22:28:47.083376  6757 net.cpp:399] inception_4a/3x3_reduce -> inception_4a/3x3_reduce
I0706 22:28:47.086006  6757 net.cpp:141] Setting up inception_4a/3x3_reduce
I0706 22:28:47.086025  6757 net.cpp:148] Top shape: 10 96 14 14 (188160)
I0706 22:28:47.086031  6757 net.cpp:156] Memory required for data: 359761920
I0706 22:28:47.086053  6757 layer_factory.hpp:77] Creating layer inception_4a/relu_3x3_reduce
I0706 22:28:47.086066  6757 net.cpp:91] Creating Layer inception_4a/relu_3x3_reduce
I0706 22:28:47.086073  6757 net.cpp:425] inception_4a/relu_3x3_reduce <- inception_4a/3x3_reduce
I0706 22:28:47.086081  6757 net.cpp:386] inception_4a/relu_3x3_reduce -> inception_4a/3x3_reduce (in-place)
I0706 22:28:47.086338  6757 net.cpp:141] Setting up inception_4a/relu_3x3_reduce
I0706 22:28:47.086350  6757 net.cpp:148] Top shape: 10 96 14 14 (188160)
I0706 22:28:47.086356  6757 net.cpp:156] Memory required for data: 360514560
I0706 22:28:47.086361  6757 layer_factory.hpp:77] Creating layer inception_4a/3x3
I0706 22:28:47.086380  6757 net.cpp:91] Creating Layer inception_4a/3x3
I0706 22:28:47.086386  6757 net.cpp:425] inception_4a/3x3 <- inception_4a/3x3_reduce
I0706 22:28:47.086396  6757 net.cpp:399] inception_4a/3x3 -> inception_4a/3x3
I0706 22:28:47.091272  6757 net.cpp:141] Setting up inception_4a/3x3
I0706 22:28:47.091294  6757 net.cpp:148] Top shape: 10 208 14 14 (407680)
I0706 22:28:47.091300  6757 net.cpp:156] Memory required for data: 362145280
I0706 22:28:47.091310  6757 layer_factory.hpp:77] Creating layer inception_4a/relu_3x3
I0706 22:28:47.091322  6757 net.cpp:91] Creating Layer inception_4a/relu_3x3
I0706 22:28:47.091330  6757 net.cpp:425] inception_4a/relu_3x3 <- inception_4a/3x3
I0706 22:28:47.091338  6757 net.cpp:386] inception_4a/relu_3x3 -> inception_4a/3x3 (in-place)
I0706 22:28:47.092125  6757 net.cpp:141] Setting up inception_4a/relu_3x3
I0706 22:28:47.092142  6757 net.cpp:148] Top shape: 10 208 14 14 (407680)
I0706 22:28:47.092149  6757 net.cpp:156] Memory required for data: 363776000
I0706 22:28:47.092154  6757 layer_factory.hpp:77] Creating layer inception_4a/5x5_reduce
I0706 22:28:47.092173  6757 net.cpp:91] Creating Layer inception_4a/5x5_reduce
I0706 22:28:47.092180  6757 net.cpp:425] inception_4a/5x5_reduce <- pool3/3x3_s2_pool3/3x3_s2_0_split_2
I0706 22:28:47.092191  6757 net.cpp:399] inception_4a/5x5_reduce -> inception_4a/5x5_reduce
I0706 22:28:47.094502  6757 net.cpp:141] Setting up inception_4a/5x5_reduce
I0706 22:28:47.094523  6757 net.cpp:148] Top shape: 10 16 14 14 (31360)
I0706 22:28:47.094530  6757 net.cpp:156] Memory required for data: 363901440
I0706 22:28:47.094539  6757 layer_factory.hpp:77] Creating layer inception_4a/relu_5x5_reduce
I0706 22:28:47.094549  6757 net.cpp:91] Creating Layer inception_4a/relu_5x5_reduce
I0706 22:28:47.094555  6757 net.cpp:425] inception_4a/relu_5x5_reduce <- inception_4a/5x5_reduce
I0706 22:28:47.094563  6757 net.cpp:386] inception_4a/relu_5x5_reduce -> inception_4a/5x5_reduce (in-place)
I0706 22:28:47.094835  6757 net.cpp:141] Setting up inception_4a/relu_5x5_reduce
I0706 22:28:47.094848  6757 net.cpp:148] Top shape: 10 16 14 14 (31360)
I0706 22:28:47.094853  6757 net.cpp:156] Memory required for data: 364026880
I0706 22:28:47.094858  6757 layer_factory.hpp:77] Creating layer inception_4a/5x5
I0706 22:28:47.094876  6757 net.cpp:91] Creating Layer inception_4a/5x5
I0706 22:28:47.094882  6757 net.cpp:425] inception_4a/5x5 <- inception_4a/5x5_reduce
I0706 22:28:47.094895  6757 net.cpp:399] inception_4a/5x5 -> inception_4a/5x5
I0706 22:28:47.097278  6757 net.cpp:141] Setting up inception_4a/5x5
I0706 22:28:47.097297  6757 net.cpp:148] Top shape: 10 48 14 14 (94080)
I0706 22:28:47.097302  6757 net.cpp:156] Memory required for data: 364403200
I0706 22:28:47.097312  6757 layer_factory.hpp:77] Creating layer inception_4a/relu_5x5
I0706 22:28:47.097321  6757 net.cpp:91] Creating Layer inception_4a/relu_5x5
I0706 22:28:47.097328  6757 net.cpp:425] inception_4a/relu_5x5 <- inception_4a/5x5
I0706 22:28:47.097339  6757 net.cpp:386] inception_4a/relu_5x5 -> inception_4a/5x5 (in-place)
I0706 22:28:47.097589  6757 net.cpp:141] Setting up inception_4a/relu_5x5
I0706 22:28:47.097602  6757 net.cpp:148] Top shape: 10 48 14 14 (94080)
I0706 22:28:47.097607  6757 net.cpp:156] Memory required for data: 364779520
I0706 22:28:47.097612  6757 layer_factory.hpp:77] Creating layer inception_4a/pool
I0706 22:28:47.097625  6757 net.cpp:91] Creating Layer inception_4a/pool
I0706 22:28:47.097631  6757 net.cpp:425] inception_4a/pool <- pool3/3x3_s2_pool3/3x3_s2_0_split_3
I0706 22:28:47.097640  6757 net.cpp:399] inception_4a/pool -> inception_4a/pool
I0706 22:28:47.097712  6757 net.cpp:141] Setting up inception_4a/pool
I0706 22:28:47.097723  6757 net.cpp:148] Top shape: 10 480 14 14 (940800)
I0706 22:28:47.097728  6757 net.cpp:156] Memory required for data: 368542720
I0706 22:28:47.097733  6757 layer_factory.hpp:77] Creating layer inception_4a/pool_proj
I0706 22:28:47.097748  6757 net.cpp:91] Creating Layer inception_4a/pool_proj
I0706 22:28:47.097754  6757 net.cpp:425] inception_4a/pool_proj <- inception_4a/pool
I0706 22:28:47.097766  6757 net.cpp:399] inception_4a/pool_proj -> inception_4a/pool_proj
I0706 22:28:47.100280  6757 net.cpp:141] Setting up inception_4a/pool_proj
I0706 22:28:47.100298  6757 net.cpp:148] Top shape: 10 64 14 14 (125440)
I0706 22:28:47.100304  6757 net.cpp:156] Memory required for data: 369044480
I0706 22:28:47.100314  6757 layer_factory.hpp:77] Creating layer inception_4a/relu_pool_proj
I0706 22:28:47.100323  6757 net.cpp:91] Creating Layer inception_4a/relu_pool_proj
I0706 22:28:47.100329  6757 net.cpp:425] inception_4a/relu_pool_proj <- inception_4a/pool_proj
I0706 22:28:47.100342  6757 net.cpp:386] inception_4a/relu_pool_proj -> inception_4a/pool_proj (in-place)
I0706 22:28:47.101135  6757 net.cpp:141] Setting up inception_4a/relu_pool_proj
I0706 22:28:47.101152  6757 net.cpp:148] Top shape: 10 64 14 14 (125440)
I0706 22:28:47.101158  6757 net.cpp:156] Memory required for data: 369546240
I0706 22:28:47.101163  6757 layer_factory.hpp:77] Creating layer inception_4a/output
I0706 22:28:47.101172  6757 net.cpp:91] Creating Layer inception_4a/output
I0706 22:28:47.101178  6757 net.cpp:425] inception_4a/output <- inception_4a/1x1
I0706 22:28:47.101186  6757 net.cpp:425] inception_4a/output <- inception_4a/3x3
I0706 22:28:47.101192  6757 net.cpp:425] inception_4a/output <- inception_4a/5x5
I0706 22:28:47.101199  6757 net.cpp:425] inception_4a/output <- inception_4a/pool_proj
I0706 22:28:47.101212  6757 net.cpp:399] inception_4a/output -> inception_4a/output
I0706 22:28:47.101261  6757 net.cpp:141] Setting up inception_4a/output
I0706 22:28:47.101272  6757 net.cpp:148] Top shape: 10 512 14 14 (1003520)
I0706 22:28:47.101277  6757 net.cpp:156] Memory required for data: 373560320
I0706 22:28:47.101282  6757 layer_factory.hpp:77] Creating layer inception_4a/output_inception_4a/output_0_split
I0706 22:28:47.101291  6757 net.cpp:91] Creating Layer inception_4a/output_inception_4a/output_0_split
I0706 22:28:47.101296  6757 net.cpp:425] inception_4a/output_inception_4a/output_0_split <- inception_4a/output
I0706 22:28:47.101305  6757 net.cpp:399] inception_4a/output_inception_4a/output_0_split -> inception_4a/output_inception_4a/output_0_split_0
I0706 22:28:47.101318  6757 net.cpp:399] inception_4a/output_inception_4a/output_0_split -> inception_4a/output_inception_4a/output_0_split_1
I0706 22:28:47.101330  6757 net.cpp:399] inception_4a/output_inception_4a/output_0_split -> inception_4a/output_inception_4a/output_0_split_2
I0706 22:28:47.101338  6757 net.cpp:399] inception_4a/output_inception_4a/output_0_split -> inception_4a/output_inception_4a/output_0_split_3
I0706 22:28:47.101434  6757 net.cpp:141] Setting up inception_4a/output_inception_4a/output_0_split
I0706 22:28:47.101445  6757 net.cpp:148] Top shape: 10 512 14 14 (1003520)
I0706 22:28:47.101451  6757 net.cpp:148] Top shape: 10 512 14 14 (1003520)
I0706 22:28:47.101457  6757 net.cpp:148] Top shape: 10 512 14 14 (1003520)
I0706 22:28:47.101464  6757 net.cpp:148] Top shape: 10 512 14 14 (1003520)
I0706 22:28:47.101467  6757 net.cpp:156] Memory required for data: 389616640
I0706 22:28:47.101474  6757 layer_factory.hpp:77] Creating layer inception_4b/1x1
I0706 22:28:47.101491  6757 net.cpp:91] Creating Layer inception_4b/1x1
I0706 22:28:47.101497  6757 net.cpp:425] inception_4b/1x1 <- inception_4a/output_inception_4a/output_0_split_0
I0706 22:28:47.101507  6757 net.cpp:399] inception_4b/1x1 -> inception_4b/1x1
I0706 22:28:47.104475  6757 net.cpp:141] Setting up inception_4b/1x1
I0706 22:28:47.104495  6757 net.cpp:148] Top shape: 10 160 14 14 (313600)
I0706 22:28:47.104501  6757 net.cpp:156] Memory required for data: 390871040
I0706 22:28:47.104511  6757 layer_factory.hpp:77] Creating layer inception_4b/relu_1x1
I0706 22:28:47.104522  6757 net.cpp:91] Creating Layer inception_4b/relu_1x1
I0706 22:28:47.104529  6757 net.cpp:425] inception_4b/relu_1x1 <- inception_4b/1x1
I0706 22:28:47.104537  6757 net.cpp:386] inception_4b/relu_1x1 -> inception_4b/1x1 (in-place)
I0706 22:28:47.104799  6757 net.cpp:141] Setting up inception_4b/relu_1x1
I0706 22:28:47.104812  6757 net.cpp:148] Top shape: 10 160 14 14 (313600)
I0706 22:28:47.104817  6757 net.cpp:156] Memory required for data: 392125440
I0706 22:28:47.104822  6757 layer_factory.hpp:77] Creating layer inception_4b/3x3_reduce
I0706 22:28:47.104841  6757 net.cpp:91] Creating Layer inception_4b/3x3_reduce
I0706 22:28:47.104848  6757 net.cpp:425] inception_4b/3x3_reduce <- inception_4a/output_inception_4a/output_0_split_1
I0706 22:28:47.104858  6757 net.cpp:399] inception_4b/3x3_reduce -> inception_4b/3x3_reduce
I0706 22:28:47.107625  6757 net.cpp:141] Setting up inception_4b/3x3_reduce
I0706 22:28:47.107645  6757 net.cpp:148] Top shape: 10 112 14 14 (219520)
I0706 22:28:47.107650  6757 net.cpp:156] Memory required for data: 393003520
I0706 22:28:47.107661  6757 layer_factory.hpp:77] Creating layer inception_4b/relu_3x3_reduce
I0706 22:28:47.107669  6757 net.cpp:91] Creating Layer inception_4b/relu_3x3_reduce
I0706 22:28:47.107684  6757 net.cpp:425] inception_4b/relu_3x3_reduce <- inception_4b/3x3_reduce
I0706 22:28:47.107692  6757 net.cpp:386] inception_4b/relu_3x3_reduce -> inception_4b/3x3_reduce (in-place)
I0706 22:28:47.107954  6757 net.cpp:141] Setting up inception_4b/relu_3x3_reduce
I0706 22:28:47.107967  6757 net.cpp:148] Top shape: 10 112 14 14 (219520)
I0706 22:28:47.107972  6757 net.cpp:156] Memory required for data: 393881600
I0706 22:28:47.107977  6757 layer_factory.hpp:77] Creating layer inception_4b/3x3
I0706 22:28:47.107996  6757 net.cpp:91] Creating Layer inception_4b/3x3
I0706 22:28:47.108003  6757 net.cpp:425] inception_4b/3x3 <- inception_4b/3x3_reduce
I0706 22:28:47.108013  6757 net.cpp:399] inception_4b/3x3 -> inception_4b/3x3
I0706 22:28:47.114131  6757 net.cpp:141] Setting up inception_4b/3x3
I0706 22:28:47.114156  6757 net.cpp:148] Top shape: 10 224 14 14 (439040)
I0706 22:28:47.114161  6757 net.cpp:156] Memory required for data: 395637760
I0706 22:28:47.114171  6757 layer_factory.hpp:77] Creating layer inception_4b/relu_3x3
I0706 22:28:47.114186  6757 net.cpp:91] Creating Layer inception_4b/relu_3x3
I0706 22:28:47.114192  6757 net.cpp:425] inception_4b/relu_3x3 <- inception_4b/3x3
I0706 22:28:47.114203  6757 net.cpp:386] inception_4b/relu_3x3 -> inception_4b/3x3 (in-place)
I0706 22:28:47.115025  6757 net.cpp:141] Setting up inception_4b/relu_3x3
I0706 22:28:47.115043  6757 net.cpp:148] Top shape: 10 224 14 14 (439040)
I0706 22:28:47.115048  6757 net.cpp:156] Memory required for data: 397393920
I0706 22:28:47.115054  6757 layer_factory.hpp:77] Creating layer inception_4b/5x5_reduce
I0706 22:28:47.115085  6757 net.cpp:91] Creating Layer inception_4b/5x5_reduce
I0706 22:28:47.115092  6757 net.cpp:425] inception_4b/5x5_reduce <- inception_4a/output_inception_4a/output_0_split_2
I0706 22:28:47.115103  6757 net.cpp:399] inception_4b/5x5_reduce -> inception_4b/5x5_reduce
I0706 22:28:47.117517  6757 net.cpp:141] Setting up inception_4b/5x5_reduce
I0706 22:28:47.117537  6757 net.cpp:148] Top shape: 10 24 14 14 (47040)
I0706 22:28:47.117542  6757 net.cpp:156] Memory required for data: 397582080
I0706 22:28:47.117552  6757 layer_factory.hpp:77] Creating layer inception_4b/relu_5x5_reduce
I0706 22:28:47.117563  6757 net.cpp:91] Creating Layer inception_4b/relu_5x5_reduce
I0706 22:28:47.117569  6757 net.cpp:425] inception_4b/relu_5x5_reduce <- inception_4b/5x5_reduce
I0706 22:28:47.117581  6757 net.cpp:386] inception_4b/relu_5x5_reduce -> inception_4b/5x5_reduce (in-place)
I0706 22:28:47.117846  6757 net.cpp:141] Setting up inception_4b/relu_5x5_reduce
I0706 22:28:47.117861  6757 net.cpp:148] Top shape: 10 24 14 14 (47040)
I0706 22:28:47.117866  6757 net.cpp:156] Memory required for data: 397770240
I0706 22:28:47.117871  6757 layer_factory.hpp:77] Creating layer inception_4b/5x5
I0706 22:28:47.117888  6757 net.cpp:91] Creating Layer inception_4b/5x5
I0706 22:28:47.117895  6757 net.cpp:425] inception_4b/5x5 <- inception_4b/5x5_reduce
I0706 22:28:47.117905  6757 net.cpp:399] inception_4b/5x5 -> inception_4b/5x5
I0706 22:28:47.121630  6757 net.cpp:141] Setting up inception_4b/5x5
I0706 22:28:47.121650  6757 net.cpp:148] Top shape: 10 64 14 14 (125440)
I0706 22:28:47.121656  6757 net.cpp:156] Memory required for data: 398272000
I0706 22:28:47.121666  6757 layer_factory.hpp:77] Creating layer inception_4b/relu_5x5
I0706 22:28:47.121676  6757 net.cpp:91] Creating Layer inception_4b/relu_5x5
I0706 22:28:47.121682  6757 net.cpp:425] inception_4b/relu_5x5 <- inception_4b/5x5
I0706 22:28:47.121697  6757 net.cpp:386] inception_4b/relu_5x5 -> inception_4b/5x5 (in-place)
I0706 22:28:47.121961  6757 net.cpp:141] Setting up inception_4b/relu_5x5
I0706 22:28:47.121974  6757 net.cpp:148] Top shape: 10 64 14 14 (125440)
I0706 22:28:47.121979  6757 net.cpp:156] Memory required for data: 398773760
I0706 22:28:47.121985  6757 layer_factory.hpp:77] Creating layer inception_4b/pool
I0706 22:28:47.121999  6757 net.cpp:91] Creating Layer inception_4b/pool
I0706 22:28:47.122005  6757 net.cpp:425] inception_4b/pool <- inception_4a/output_inception_4a/output_0_split_3
I0706 22:28:47.122014  6757 net.cpp:399] inception_4b/pool -> inception_4b/pool
I0706 22:28:47.122090  6757 net.cpp:141] Setting up inception_4b/pool
I0706 22:28:47.122102  6757 net.cpp:148] Top shape: 10 512 14 14 (1003520)
I0706 22:28:47.122107  6757 net.cpp:156] Memory required for data: 402787840
I0706 22:28:47.122112  6757 layer_factory.hpp:77] Creating layer inception_4b/pool_proj
I0706 22:28:47.122126  6757 net.cpp:91] Creating Layer inception_4b/pool_proj
I0706 22:28:47.122133  6757 net.cpp:425] inception_4b/pool_proj <- inception_4b/pool
I0706 22:28:47.122146  6757 net.cpp:399] inception_4b/pool_proj -> inception_4b/pool_proj
I0706 22:28:47.124712  6757 net.cpp:141] Setting up inception_4b/pool_proj
I0706 22:28:47.124732  6757 net.cpp:148] Top shape: 10 64 14 14 (125440)
I0706 22:28:47.124737  6757 net.cpp:156] Memory required for data: 403289600
I0706 22:28:47.124747  6757 layer_factory.hpp:77] Creating layer inception_4b/relu_pool_proj
I0706 22:28:47.124757  6757 net.cpp:91] Creating Layer inception_4b/relu_pool_proj
I0706 22:28:47.124763  6757 net.cpp:425] inception_4b/relu_pool_proj <- inception_4b/pool_proj
I0706 22:28:47.124771  6757 net.cpp:386] inception_4b/relu_pool_proj -> inception_4b/pool_proj (in-place)
I0706 22:28:47.125627  6757 net.cpp:141] Setting up inception_4b/relu_pool_proj
I0706 22:28:47.125658  6757 net.cpp:148] Top shape: 10 64 14 14 (125440)
I0706 22:28:47.125669  6757 net.cpp:156] Memory required for data: 403791360
I0706 22:28:47.125679  6757 layer_factory.hpp:77] Creating layer inception_4b/output
I0706 22:28:47.125694  6757 net.cpp:91] Creating Layer inception_4b/output
I0706 22:28:47.125700  6757 net.cpp:425] inception_4b/output <- inception_4b/1x1
I0706 22:28:47.125708  6757 net.cpp:425] inception_4b/output <- inception_4b/3x3
I0706 22:28:47.125715  6757 net.cpp:425] inception_4b/output <- inception_4b/5x5
I0706 22:28:47.125722  6757 net.cpp:425] inception_4b/output <- inception_4b/pool_proj
I0706 22:28:47.125730  6757 net.cpp:399] inception_4b/output -> inception_4b/output
I0706 22:28:47.125780  6757 net.cpp:141] Setting up inception_4b/output
I0706 22:28:47.125792  6757 net.cpp:148] Top shape: 10 512 14 14 (1003520)
I0706 22:28:47.125797  6757 net.cpp:156] Memory required for data: 407805440
I0706 22:28:47.125802  6757 layer_factory.hpp:77] Creating layer inception_4b/output_inception_4b/output_0_split
I0706 22:28:47.125811  6757 net.cpp:91] Creating Layer inception_4b/output_inception_4b/output_0_split
I0706 22:28:47.125816  6757 net.cpp:425] inception_4b/output_inception_4b/output_0_split <- inception_4b/output
I0706 22:28:47.125825  6757 net.cpp:399] inception_4b/output_inception_4b/output_0_split -> inception_4b/output_inception_4b/output_0_split_0
I0706 22:28:47.125835  6757 net.cpp:399] inception_4b/output_inception_4b/output_0_split -> inception_4b/output_inception_4b/output_0_split_1
I0706 22:28:47.125845  6757 net.cpp:399] inception_4b/output_inception_4b/output_0_split -> inception_4b/output_inception_4b/output_0_split_2
I0706 22:28:47.125859  6757 net.cpp:399] inception_4b/output_inception_4b/output_0_split -> inception_4b/output_inception_4b/output_0_split_3
I0706 22:28:47.125958  6757 net.cpp:141] Setting up inception_4b/output_inception_4b/output_0_split
I0706 22:28:47.125968  6757 net.cpp:148] Top shape: 10 512 14 14 (1003520)
I0706 22:28:47.125975  6757 net.cpp:148] Top shape: 10 512 14 14 (1003520)
I0706 22:28:47.125982  6757 net.cpp:148] Top shape: 10 512 14 14 (1003520)
I0706 22:28:47.125988  6757 net.cpp:148] Top shape: 10 512 14 14 (1003520)
I0706 22:28:47.125991  6757 net.cpp:156] Memory required for data: 423861760
I0706 22:28:47.125996  6757 layer_factory.hpp:77] Creating layer inception_4c/1x1
I0706 22:28:47.126011  6757 net.cpp:91] Creating Layer inception_4c/1x1
I0706 22:28:47.126019  6757 net.cpp:425] inception_4c/1x1 <- inception_4b/output_inception_4b/output_0_split_0
I0706 22:28:47.126030  6757 net.cpp:399] inception_4c/1x1 -> inception_4c/1x1
I0706 22:28:47.128871  6757 net.cpp:141] Setting up inception_4c/1x1
I0706 22:28:47.128891  6757 net.cpp:148] Top shape: 10 128 14 14 (250880)
I0706 22:28:47.128897  6757 net.cpp:156] Memory required for data: 424865280
I0706 22:28:47.128907  6757 layer_factory.hpp:77] Creating layer inception_4c/relu_1x1
I0706 22:28:47.128916  6757 net.cpp:91] Creating Layer inception_4c/relu_1x1
I0706 22:28:47.128923  6757 net.cpp:425] inception_4c/relu_1x1 <- inception_4c/1x1
I0706 22:28:47.128936  6757 net.cpp:386] inception_4c/relu_1x1 -> inception_4c/1x1 (in-place)
I0706 22:28:47.129199  6757 net.cpp:141] Setting up inception_4c/relu_1x1
I0706 22:28:47.129212  6757 net.cpp:148] Top shape: 10 128 14 14 (250880)
I0706 22:28:47.129217  6757 net.cpp:156] Memory required for data: 425868800
I0706 22:28:47.129222  6757 layer_factory.hpp:77] Creating layer inception_4c/3x3_reduce
I0706 22:28:47.129240  6757 net.cpp:91] Creating Layer inception_4c/3x3_reduce
I0706 22:28:47.129245  6757 net.cpp:425] inception_4c/3x3_reduce <- inception_4b/output_inception_4b/output_0_split_1
I0706 22:28:47.129256  6757 net.cpp:399] inception_4c/3x3_reduce -> inception_4c/3x3_reduce
I0706 22:28:47.132120  6757 net.cpp:141] Setting up inception_4c/3x3_reduce
I0706 22:28:47.132140  6757 net.cpp:148] Top shape: 10 128 14 14 (250880)
I0706 22:28:47.132146  6757 net.cpp:156] Memory required for data: 426872320
I0706 22:28:47.132156  6757 layer_factory.hpp:77] Creating layer inception_4c/relu_3x3_reduce
I0706 22:28:47.132165  6757 net.cpp:91] Creating Layer inception_4c/relu_3x3_reduce
I0706 22:28:47.132172  6757 net.cpp:425] inception_4c/relu_3x3_reduce <- inception_4c/3x3_reduce
I0706 22:28:47.132184  6757 net.cpp:386] inception_4c/relu_3x3_reduce -> inception_4c/3x3_reduce (in-place)
I0706 22:28:47.132449  6757 net.cpp:141] Setting up inception_4c/relu_3x3_reduce
I0706 22:28:47.132464  6757 net.cpp:148] Top shape: 10 128 14 14 (250880)
I0706 22:28:47.132470  6757 net.cpp:156] Memory required for data: 427875840
I0706 22:28:47.132477  6757 layer_factory.hpp:77] Creating layer inception_4c/3x3
I0706 22:28:47.132493  6757 net.cpp:91] Creating Layer inception_4c/3x3
I0706 22:28:47.132498  6757 net.cpp:425] inception_4c/3x3 <- inception_4c/3x3_reduce
I0706 22:28:47.132508  6757 net.cpp:399] inception_4c/3x3 -> inception_4c/3x3
I0706 22:28:47.138458  6757 net.cpp:141] Setting up inception_4c/3x3
I0706 22:28:47.138479  6757 net.cpp:148] Top shape: 10 256 14 14 (501760)
I0706 22:28:47.138485  6757 net.cpp:156] Memory required for data: 429882880
I0706 22:28:47.138495  6757 layer_factory.hpp:77] Creating layer inception_4c/relu_3x3
I0706 22:28:47.138505  6757 net.cpp:91] Creating Layer inception_4c/relu_3x3
I0706 22:28:47.138511  6757 net.cpp:425] inception_4c/relu_3x3 <- inception_4c/3x3
I0706 22:28:47.138522  6757 net.cpp:386] inception_4c/relu_3x3 -> inception_4c/3x3 (in-place)
I0706 22:28:47.139325  6757 net.cpp:141] Setting up inception_4c/relu_3x3
I0706 22:28:47.139343  6757 net.cpp:148] Top shape: 10 256 14 14 (501760)
I0706 22:28:47.139349  6757 net.cpp:156] Memory required for data: 431889920
I0706 22:28:47.139355  6757 layer_factory.hpp:77] Creating layer inception_4c/5x5_reduce
I0706 22:28:47.139371  6757 net.cpp:91] Creating Layer inception_4c/5x5_reduce
I0706 22:28:47.139379  6757 net.cpp:425] inception_4c/5x5_reduce <- inception_4b/output_inception_4b/output_0_split_2
I0706 22:28:47.139392  6757 net.cpp:399] inception_4c/5x5_reduce -> inception_4c/5x5_reduce
I0706 22:28:47.141813  6757 net.cpp:141] Setting up inception_4c/5x5_reduce
I0706 22:28:47.141834  6757 net.cpp:148] Top shape: 10 24 14 14 (47040)
I0706 22:28:47.141839  6757 net.cpp:156] Memory required for data: 432078080
I0706 22:28:47.141849  6757 layer_factory.hpp:77] Creating layer inception_4c/relu_5x5_reduce
I0706 22:28:47.141858  6757 net.cpp:91] Creating Layer inception_4c/relu_5x5_reduce
I0706 22:28:47.141865  6757 net.cpp:425] inception_4c/relu_5x5_reduce <- inception_4c/5x5_reduce
I0706 22:28:47.141877  6757 net.cpp:386] inception_4c/relu_5x5_reduce -> inception_4c/5x5_reduce (in-place)
I0706 22:28:47.142146  6757 net.cpp:141] Setting up inception_4c/relu_5x5_reduce
I0706 22:28:47.142160  6757 net.cpp:148] Top shape: 10 24 14 14 (47040)
I0706 22:28:47.142165  6757 net.cpp:156] Memory required for data: 432266240
I0706 22:28:47.142170  6757 layer_factory.hpp:77] Creating layer inception_4c/5x5
I0706 22:28:47.142187  6757 net.cpp:91] Creating Layer inception_4c/5x5
I0706 22:28:47.142194  6757 net.cpp:425] inception_4c/5x5 <- inception_4c/5x5_reduce
I0706 22:28:47.142204  6757 net.cpp:399] inception_4c/5x5 -> inception_4c/5x5
I0706 22:28:47.145516  6757 net.cpp:141] Setting up inception_4c/5x5
I0706 22:28:47.145537  6757 net.cpp:148] Top shape: 10 64 14 14 (125440)
I0706 22:28:47.145544  6757 net.cpp:156] Memory required for data: 432768000
I0706 22:28:47.145553  6757 layer_factory.hpp:77] Creating layer inception_4c/relu_5x5
I0706 22:28:47.145566  6757 net.cpp:91] Creating Layer inception_4c/relu_5x5
I0706 22:28:47.145573  6757 net.cpp:425] inception_4c/relu_5x5 <- inception_4c/5x5
I0706 22:28:47.145581  6757 net.cpp:386] inception_4c/relu_5x5 -> inception_4c/5x5 (in-place)
I0706 22:28:47.145848  6757 net.cpp:141] Setting up inception_4c/relu_5x5
I0706 22:28:47.145861  6757 net.cpp:148] Top shape: 10 64 14 14 (125440)
I0706 22:28:47.145866  6757 net.cpp:156] Memory required for data: 433269760
I0706 22:28:47.145872  6757 layer_factory.hpp:77] Creating layer inception_4c/pool
I0706 22:28:47.145881  6757 net.cpp:91] Creating Layer inception_4c/pool
I0706 22:28:47.145887  6757 net.cpp:425] inception_4c/pool <- inception_4b/output_inception_4b/output_0_split_3
I0706 22:28:47.145901  6757 net.cpp:399] inception_4c/pool -> inception_4c/pool
I0706 22:28:47.145975  6757 net.cpp:141] Setting up inception_4c/pool
I0706 22:28:47.145987  6757 net.cpp:148] Top shape: 10 512 14 14 (1003520)
I0706 22:28:47.145992  6757 net.cpp:156] Memory required for data: 437283840
I0706 22:28:47.145997  6757 layer_factory.hpp:77] Creating layer inception_4c/pool_proj
I0706 22:28:47.146016  6757 net.cpp:91] Creating Layer inception_4c/pool_proj
I0706 22:28:47.146023  6757 net.cpp:425] inception_4c/pool_proj <- inception_4c/pool
I0706 22:28:47.146033  6757 net.cpp:399] inception_4c/pool_proj -> inception_4c/pool_proj
I0706 22:28:47.149878  6757 net.cpp:141] Setting up inception_4c/pool_proj
I0706 22:28:47.149902  6757 net.cpp:148] Top shape: 10 64 14 14 (125440)
I0706 22:28:47.149909  6757 net.cpp:156] Memory required for data: 437785600
I0706 22:28:47.149940  6757 layer_factory.hpp:77] Creating layer inception_4c/relu_pool_proj
I0706 22:28:47.149951  6757 net.cpp:91] Creating Layer inception_4c/relu_pool_proj
I0706 22:28:47.149958  6757 net.cpp:425] inception_4c/relu_pool_proj <- inception_4c/pool_proj
I0706 22:28:47.149966  6757 net.cpp:386] inception_4c/relu_pool_proj -> inception_4c/pool_proj (in-place)
I0706 22:28:47.150975  6757 net.cpp:141] Setting up inception_4c/relu_pool_proj
I0706 22:28:47.151008  6757 net.cpp:148] Top shape: 10 64 14 14 (125440)
I0706 22:28:47.151015  6757 net.cpp:156] Memory required for data: 438287360
I0706 22:28:47.151021  6757 layer_factory.hpp:77] Creating layer inception_4c/output
I0706 22:28:47.151029  6757 net.cpp:91] Creating Layer inception_4c/output
I0706 22:28:47.151036  6757 net.cpp:425] inception_4c/output <- inception_4c/1x1
I0706 22:28:47.151043  6757 net.cpp:425] inception_4c/output <- inception_4c/3x3
I0706 22:28:47.151051  6757 net.cpp:425] inception_4c/output <- inception_4c/5x5
I0706 22:28:47.151057  6757 net.cpp:425] inception_4c/output <- inception_4c/pool_proj
I0706 22:28:47.151065  6757 net.cpp:399] inception_4c/output -> inception_4c/output
I0706 22:28:47.151124  6757 net.cpp:141] Setting up inception_4c/output
I0706 22:28:47.151134  6757 net.cpp:148] Top shape: 10 512 14 14 (1003520)
I0706 22:28:47.151139  6757 net.cpp:156] Memory required for data: 442301440
I0706 22:28:47.151145  6757 layer_factory.hpp:77] Creating layer inception_4c/output_inception_4c/output_0_split
I0706 22:28:47.151154  6757 net.cpp:91] Creating Layer inception_4c/output_inception_4c/output_0_split
I0706 22:28:47.151162  6757 net.cpp:425] inception_4c/output_inception_4c/output_0_split <- inception_4c/output
I0706 22:28:47.151170  6757 net.cpp:399] inception_4c/output_inception_4c/output_0_split -> inception_4c/output_inception_4c/output_0_split_0
I0706 22:28:47.151181  6757 net.cpp:399] inception_4c/output_inception_4c/output_0_split -> inception_4c/output_inception_4c/output_0_split_1
I0706 22:28:47.151191  6757 net.cpp:399] inception_4c/output_inception_4c/output_0_split -> inception_4c/output_inception_4c/output_0_split_2
I0706 22:28:47.151201  6757 net.cpp:399] inception_4c/output_inception_4c/output_0_split -> inception_4c/output_inception_4c/output_0_split_3
I0706 22:28:47.151386  6757 net.cpp:141] Setting up inception_4c/output_inception_4c/output_0_split
I0706 22:28:47.151407  6757 net.cpp:148] Top shape: 10 512 14 14 (1003520)
I0706 22:28:47.151420  6757 net.cpp:148] Top shape: 10 512 14 14 (1003520)
I0706 22:28:47.151432  6757 net.cpp:148] Top shape: 10 512 14 14 (1003520)
I0706 22:28:47.151443  6757 net.cpp:148] Top shape: 10 512 14 14 (1003520)
I0706 22:28:47.151450  6757 net.cpp:156] Memory required for data: 458357760
I0706 22:28:47.151460  6757 layer_factory.hpp:77] Creating layer inception_4d/1x1
I0706 22:28:47.151489  6757 net.cpp:91] Creating Layer inception_4d/1x1
I0706 22:28:47.151502  6757 net.cpp:425] inception_4d/1x1 <- inception_4c/output_inception_4c/output_0_split_0
I0706 22:28:47.151525  6757 net.cpp:399] inception_4d/1x1 -> inception_4d/1x1
I0706 22:28:47.154821  6757 net.cpp:141] Setting up inception_4d/1x1
I0706 22:28:47.154844  6757 net.cpp:148] Top shape: 10 112 14 14 (219520)
I0706 22:28:47.154850  6757 net.cpp:156] Memory required for data: 459235840
I0706 22:28:47.154860  6757 layer_factory.hpp:77] Creating layer inception_4d/relu_1x1
I0706 22:28:47.154875  6757 net.cpp:91] Creating Layer inception_4d/relu_1x1
I0706 22:28:47.154883  6757 net.cpp:425] inception_4d/relu_1x1 <- inception_4d/1x1
I0706 22:28:47.154891  6757 net.cpp:386] inception_4d/relu_1x1 -> inception_4d/1x1 (in-place)
I0706 22:28:47.155171  6757 net.cpp:141] Setting up inception_4d/relu_1x1
I0706 22:28:47.155184  6757 net.cpp:148] Top shape: 10 112 14 14 (219520)
I0706 22:28:47.155189  6757 net.cpp:156] Memory required for data: 460113920
I0706 22:28:47.155195  6757 layer_factory.hpp:77] Creating layer inception_4d/3x3_reduce
I0706 22:28:47.155211  6757 net.cpp:91] Creating Layer inception_4d/3x3_reduce
I0706 22:28:47.155218  6757 net.cpp:425] inception_4d/3x3_reduce <- inception_4c/output_inception_4c/output_0_split_1
I0706 22:28:47.155233  6757 net.cpp:399] inception_4d/3x3_reduce -> inception_4d/3x3_reduce
I0706 22:28:47.158501  6757 net.cpp:141] Setting up inception_4d/3x3_reduce
I0706 22:28:47.158522  6757 net.cpp:148] Top shape: 10 144 14 14 (282240)
I0706 22:28:47.158529  6757 net.cpp:156] Memory required for data: 461242880
I0706 22:28:47.158540  6757 layer_factory.hpp:77] Creating layer inception_4d/relu_3x3_reduce
I0706 22:28:47.158552  6757 net.cpp:91] Creating Layer inception_4d/relu_3x3_reduce
I0706 22:28:47.158560  6757 net.cpp:425] inception_4d/relu_3x3_reduce <- inception_4d/3x3_reduce
I0706 22:28:47.158571  6757 net.cpp:386] inception_4d/relu_3x3_reduce -> inception_4d/3x3_reduce (in-place)
I0706 22:28:47.158938  6757 net.cpp:141] Setting up inception_4d/relu_3x3_reduce
I0706 22:28:47.158959  6757 net.cpp:148] Top shape: 10 144 14 14 (282240)
I0706 22:28:47.158969  6757 net.cpp:156] Memory required for data: 462371840
I0706 22:28:47.158979  6757 layer_factory.hpp:77] Creating layer inception_4d/3x3
I0706 22:28:47.159006  6757 net.cpp:91] Creating Layer inception_4d/3x3
I0706 22:28:47.159018  6757 net.cpp:425] inception_4d/3x3 <- inception_4d/3x3_reduce
I0706 22:28:47.159037  6757 net.cpp:399] inception_4d/3x3 -> inception_4d/3x3
I0706 22:28:47.166190  6757 net.cpp:141] Setting up inception_4d/3x3
I0706 22:28:47.166213  6757 net.cpp:148] Top shape: 10 288 14 14 (564480)
I0706 22:28:47.166223  6757 net.cpp:156] Memory required for data: 464629760
I0706 22:28:47.166234  6757 layer_factory.hpp:77] Creating layer inception_4d/relu_3x3
I0706 22:28:47.166244  6757 net.cpp:91] Creating Layer inception_4d/relu_3x3
I0706 22:28:47.166249  6757 net.cpp:425] inception_4d/relu_3x3 <- inception_4d/3x3
I0706 22:28:47.166259  6757 net.cpp:386] inception_4d/relu_3x3 -> inception_4d/3x3 (in-place)
I0706 22:28:47.167246  6757 net.cpp:141] Setting up inception_4d/relu_3x3
I0706 22:28:47.167278  6757 net.cpp:148] Top shape: 10 288 14 14 (564480)
I0706 22:28:47.167289  6757 net.cpp:156] Memory required for data: 466887680
I0706 22:28:47.167299  6757 layer_factory.hpp:77] Creating layer inception_4d/5x5_reduce
I0706 22:28:47.167328  6757 net.cpp:91] Creating Layer inception_4d/5x5_reduce
I0706 22:28:47.167341  6757 net.cpp:425] inception_4d/5x5_reduce <- inception_4c/output_inception_4c/output_0_split_2
I0706 22:28:47.167356  6757 net.cpp:399] inception_4d/5x5_reduce -> inception_4d/5x5_reduce
I0706 22:28:47.170332  6757 net.cpp:141] Setting up inception_4d/5x5_reduce
I0706 22:28:47.170356  6757 net.cpp:148] Top shape: 10 32 14 14 (62720)
I0706 22:28:47.170361  6757 net.cpp:156] Memory required for data: 467138560
I0706 22:28:47.170372  6757 layer_factory.hpp:77] Creating layer inception_4d/relu_5x5_reduce
I0706 22:28:47.170385  6757 net.cpp:91] Creating Layer inception_4d/relu_5x5_reduce
I0706 22:28:47.170393  6757 net.cpp:425] inception_4d/relu_5x5_reduce <- inception_4d/5x5_reduce
I0706 22:28:47.170403  6757 net.cpp:386] inception_4d/relu_5x5_reduce -> inception_4d/5x5_reduce (in-place)
I0706 22:28:47.170712  6757 net.cpp:141] Setting up inception_4d/relu_5x5_reduce
I0706 22:28:47.170734  6757 net.cpp:148] Top shape: 10 32 14 14 (62720)
I0706 22:28:47.170744  6757 net.cpp:156] Memory required for data: 467389440
I0706 22:28:47.170754  6757 layer_factory.hpp:77] Creating layer inception_4d/5x5
I0706 22:28:47.170783  6757 net.cpp:91] Creating Layer inception_4d/5x5
I0706 22:28:47.170796  6757 net.cpp:425] inception_4d/5x5 <- inception_4d/5x5_reduce
I0706 22:28:47.170820  6757 net.cpp:399] inception_4d/5x5 -> inception_4d/5x5
I0706 22:28:47.174042  6757 net.cpp:141] Setting up inception_4d/5x5
I0706 22:28:47.174065  6757 net.cpp:148] Top shape: 10 64 14 14 (125440)
I0706 22:28:47.174072  6757 net.cpp:156] Memory required for data: 467891200
I0706 22:28:47.174082  6757 layer_factory.hpp:77] Creating layer inception_4d/relu_5x5
I0706 22:28:47.174095  6757 net.cpp:91] Creating Layer inception_4d/relu_5x5
I0706 22:28:47.174103  6757 net.cpp:425] inception_4d/relu_5x5 <- inception_4d/5x5
I0706 22:28:47.174111  6757 net.cpp:386] inception_4d/relu_5x5 -> inception_4d/5x5 (in-place)
I0706 22:28:47.174384  6757 net.cpp:141] Setting up inception_4d/relu_5x5
I0706 22:28:47.174397  6757 net.cpp:148] Top shape: 10 64 14 14 (125440)
I0706 22:28:47.174403  6757 net.cpp:156] Memory required for data: 468392960
I0706 22:28:47.174408  6757 layer_factory.hpp:77] Creating layer inception_4d/pool
I0706 22:28:47.174419  6757 net.cpp:91] Creating Layer inception_4d/pool
I0706 22:28:47.174427  6757 net.cpp:425] inception_4d/pool <- inception_4c/output_inception_4c/output_0_split_3
I0706 22:28:47.174438  6757 net.cpp:399] inception_4d/pool -> inception_4d/pool
I0706 22:28:47.174518  6757 net.cpp:141] Setting up inception_4d/pool
I0706 22:28:47.174530  6757 net.cpp:148] Top shape: 10 512 14 14 (1003520)
I0706 22:28:47.174535  6757 net.cpp:156] Memory required for data: 472407040
I0706 22:28:47.174540  6757 layer_factory.hpp:77] Creating layer inception_4d/pool_proj
I0706 22:28:47.174559  6757 net.cpp:91] Creating Layer inception_4d/pool_proj
I0706 22:28:47.174566  6757 net.cpp:425] inception_4d/pool_proj <- inception_4d/pool
I0706 22:28:47.174576  6757 net.cpp:399] inception_4d/pool_proj -> inception_4d/pool_proj
I0706 22:28:47.178226  6757 net.cpp:141] Setting up inception_4d/pool_proj
I0706 22:28:47.178251  6757 net.cpp:148] Top shape: 10 64 14 14 (125440)
I0706 22:28:47.178257  6757 net.cpp:156] Memory required for data: 472908800
I0706 22:28:47.178267  6757 layer_factory.hpp:77] Creating layer inception_4d/relu_pool_proj
I0706 22:28:47.178282  6757 net.cpp:91] Creating Layer inception_4d/relu_pool_proj
I0706 22:28:47.178290  6757 net.cpp:425] inception_4d/relu_pool_proj <- inception_4d/pool_proj
I0706 22:28:47.178302  6757 net.cpp:386] inception_4d/relu_pool_proj -> inception_4d/pool_proj (in-place)
I0706 22:28:47.179163  6757 net.cpp:141] Setting up inception_4d/relu_pool_proj
I0706 22:28:47.179182  6757 net.cpp:148] Top shape: 10 64 14 14 (125440)
I0706 22:28:47.179188  6757 net.cpp:156] Memory required for data: 473410560
I0706 22:28:47.179193  6757 layer_factory.hpp:77] Creating layer inception_4d/output
I0706 22:28:47.179203  6757 net.cpp:91] Creating Layer inception_4d/output
I0706 22:28:47.179209  6757 net.cpp:425] inception_4d/output <- inception_4d/1x1
I0706 22:28:47.179217  6757 net.cpp:425] inception_4d/output <- inception_4d/3x3
I0706 22:28:47.179224  6757 net.cpp:425] inception_4d/output <- inception_4d/5x5
I0706 22:28:47.179231  6757 net.cpp:425] inception_4d/output <- inception_4d/pool_proj
I0706 22:28:47.179242  6757 net.cpp:399] inception_4d/output -> inception_4d/output
I0706 22:28:47.179296  6757 net.cpp:141] Setting up inception_4d/output
I0706 22:28:47.179306  6757 net.cpp:148] Top shape: 10 528 14 14 (1034880)
I0706 22:28:47.179311  6757 net.cpp:156] Memory required for data: 477550080
I0706 22:28:47.179316  6757 layer_factory.hpp:77] Creating layer inception_4d/output_inception_4d/output_0_split
I0706 22:28:47.179330  6757 net.cpp:91] Creating Layer inception_4d/output_inception_4d/output_0_split
I0706 22:28:47.179337  6757 net.cpp:425] inception_4d/output_inception_4d/output_0_split <- inception_4d/output
I0706 22:28:47.179344  6757 net.cpp:399] inception_4d/output_inception_4d/output_0_split -> inception_4d/output_inception_4d/output_0_split_0
I0706 22:28:47.179354  6757 net.cpp:399] inception_4d/output_inception_4d/output_0_split -> inception_4d/output_inception_4d/output_0_split_1
I0706 22:28:47.179368  6757 net.cpp:399] inception_4d/output_inception_4d/output_0_split -> inception_4d/output_inception_4d/output_0_split_2
I0706 22:28:47.179378  6757 net.cpp:399] inception_4d/output_inception_4d/output_0_split -> inception_4d/output_inception_4d/output_0_split_3
I0706 22:28:47.179486  6757 net.cpp:141] Setting up inception_4d/output_inception_4d/output_0_split
I0706 22:28:47.179497  6757 net.cpp:148] Top shape: 10 528 14 14 (1034880)
I0706 22:28:47.179505  6757 net.cpp:148] Top shape: 10 528 14 14 (1034880)
I0706 22:28:47.179517  6757 net.cpp:148] Top shape: 10 528 14 14 (1034880)
I0706 22:28:47.179528  6757 net.cpp:148] Top shape: 10 528 14 14 (1034880)
I0706 22:28:47.179534  6757 net.cpp:156] Memory required for data: 494108160
I0706 22:28:47.179539  6757 layer_factory.hpp:77] Creating layer inception_4e/1x1
I0706 22:28:47.179558  6757 net.cpp:91] Creating Layer inception_4e/1x1
I0706 22:28:47.179564  6757 net.cpp:425] inception_4e/1x1 <- inception_4d/output_inception_4d/output_0_split_0
I0706 22:28:47.179577  6757 net.cpp:399] inception_4e/1x1 -> inception_4e/1x1
I0706 22:28:47.184891  6757 net.cpp:141] Setting up inception_4e/1x1
I0706 22:28:47.184912  6757 net.cpp:148] Top shape: 10 256 14 14 (501760)
I0706 22:28:47.184918  6757 net.cpp:156] Memory required for data: 496115200
I0706 22:28:47.184928  6757 layer_factory.hpp:77] Creating layer inception_4e/relu_1x1
I0706 22:28:47.184942  6757 net.cpp:91] Creating Layer inception_4e/relu_1x1
I0706 22:28:47.184948  6757 net.cpp:425] inception_4e/relu_1x1 <- inception_4e/1x1
I0706 22:28:47.184957  6757 net.cpp:386] inception_4e/relu_1x1 -> inception_4e/1x1 (in-place)
I0706 22:28:47.185238  6757 net.cpp:141] Setting up inception_4e/relu_1x1
I0706 22:28:47.185251  6757 net.cpp:148] Top shape: 10 256 14 14 (501760)
I0706 22:28:47.185256  6757 net.cpp:156] Memory required for data: 498122240
I0706 22:28:47.185262  6757 layer_factory.hpp:77] Creating layer inception_4e/3x3_reduce
I0706 22:28:47.185282  6757 net.cpp:91] Creating Layer inception_4e/3x3_reduce
I0706 22:28:47.185289  6757 net.cpp:425] inception_4e/3x3_reduce <- inception_4d/output_inception_4d/output_0_split_1
I0706 22:28:47.185299  6757 net.cpp:399] inception_4e/3x3_reduce -> inception_4e/3x3_reduce
I0706 22:28:47.188392  6757 net.cpp:141] Setting up inception_4e/3x3_reduce
I0706 22:28:47.188412  6757 net.cpp:148] Top shape: 10 160 14 14 (313600)
I0706 22:28:47.188418  6757 net.cpp:156] Memory required for data: 499376640
I0706 22:28:47.188428  6757 layer_factory.hpp:77] Creating layer inception_4e/relu_3x3_reduce
I0706 22:28:47.188437  6757 net.cpp:91] Creating Layer inception_4e/relu_3x3_reduce
I0706 22:28:47.188446  6757 net.cpp:425] inception_4e/relu_3x3_reduce <- inception_4e/3x3_reduce
I0706 22:28:47.188454  6757 net.cpp:386] inception_4e/relu_3x3_reduce -> inception_4e/3x3_reduce (in-place)
I0706 22:28:47.188746  6757 net.cpp:141] Setting up inception_4e/relu_3x3_reduce
I0706 22:28:47.188760  6757 net.cpp:148] Top shape: 10 160 14 14 (313600)
I0706 22:28:47.188766  6757 net.cpp:156] Memory required for data: 500631040
I0706 22:28:47.188771  6757 layer_factory.hpp:77] Creating layer inception_4e/3x3
I0706 22:28:47.188789  6757 net.cpp:91] Creating Layer inception_4e/3x3
I0706 22:28:47.188796  6757 net.cpp:425] inception_4e/3x3 <- inception_4e/3x3_reduce
I0706 22:28:47.188807  6757 net.cpp:399] inception_4e/3x3 -> inception_4e/3x3
I0706 22:28:47.196641  6757 net.cpp:141] Setting up inception_4e/3x3
I0706 22:28:47.196666  6757 net.cpp:148] Top shape: 10 320 14 14 (627200)
I0706 22:28:47.196671  6757 net.cpp:156] Memory required for data: 503139840
I0706 22:28:47.196681  6757 layer_factory.hpp:77] Creating layer inception_4e/relu_3x3
I0706 22:28:47.196691  6757 net.cpp:91] Creating Layer inception_4e/relu_3x3
I0706 22:28:47.196698  6757 net.cpp:425] inception_4e/relu_3x3 <- inception_4e/3x3
I0706 22:28:47.196712  6757 net.cpp:386] inception_4e/relu_3x3 -> inception_4e/3x3 (in-place)
I0706 22:28:47.197548  6757 net.cpp:141] Setting up inception_4e/relu_3x3
I0706 22:28:47.197566  6757 net.cpp:148] Top shape: 10 320 14 14 (627200)
I0706 22:28:47.197571  6757 net.cpp:156] Memory required for data: 505648640
I0706 22:28:47.197577  6757 layer_factory.hpp:77] Creating layer inception_4e/5x5_reduce
I0706 22:28:47.197598  6757 net.cpp:91] Creating Layer inception_4e/5x5_reduce
I0706 22:28:47.197607  6757 net.cpp:425] inception_4e/5x5_reduce <- inception_4d/output_inception_4d/output_0_split_2
I0706 22:28:47.197616  6757 net.cpp:399] inception_4e/5x5_reduce -> inception_4e/5x5_reduce
I0706 22:28:47.200163  6757 net.cpp:141] Setting up inception_4e/5x5_reduce
I0706 22:28:47.200183  6757 net.cpp:148] Top shape: 10 32 14 14 (62720)
I0706 22:28:47.200189  6757 net.cpp:156] Memory required for data: 505899520
I0706 22:28:47.200198  6757 layer_factory.hpp:77] Creating layer inception_4e/relu_5x5_reduce
I0706 22:28:47.200212  6757 net.cpp:91] Creating Layer inception_4e/relu_5x5_reduce
I0706 22:28:47.200219  6757 net.cpp:425] inception_4e/relu_5x5_reduce <- inception_4e/5x5_reduce
I0706 22:28:47.200227  6757 net.cpp:386] inception_4e/relu_5x5_reduce -> inception_4e/5x5_reduce (in-place)
I0706 22:28:47.200510  6757 net.cpp:141] Setting up inception_4e/relu_5x5_reduce
I0706 22:28:47.200523  6757 net.cpp:148] Top shape: 10 32 14 14 (62720)
I0706 22:28:47.200528  6757 net.cpp:156] Memory required for data: 506150400
I0706 22:28:47.200534  6757 layer_factory.hpp:77] Creating layer inception_4e/5x5
I0706 22:28:47.200549  6757 net.cpp:91] Creating Layer inception_4e/5x5
I0706 22:28:47.200556  6757 net.cpp:425] inception_4e/5x5 <- inception_4e/5x5_reduce
I0706 22:28:47.200569  6757 net.cpp:399] inception_4e/5x5 -> inception_4e/5x5
I0706 22:28:47.204974  6757 net.cpp:141] Setting up inception_4e/5x5
I0706 22:28:47.204996  6757 net.cpp:148] Top shape: 10 128 14 14 (250880)
I0706 22:28:47.205003  6757 net.cpp:156] Memory required for data: 507153920
I0706 22:28:47.205011  6757 layer_factory.hpp:77] Creating layer inception_4e/relu_5x5
I0706 22:28:47.205025  6757 net.cpp:91] Creating Layer inception_4e/relu_5x5
I0706 22:28:47.205031  6757 net.cpp:425] inception_4e/relu_5x5 <- inception_4e/5x5
I0706 22:28:47.205040  6757 net.cpp:386] inception_4e/relu_5x5 -> inception_4e/5x5 (in-place)
I0706 22:28:47.205319  6757 net.cpp:141] Setting up inception_4e/relu_5x5
I0706 22:28:47.205332  6757 net.cpp:148] Top shape: 10 128 14 14 (250880)
I0706 22:28:47.205338  6757 net.cpp:156] Memory required for data: 508157440
I0706 22:28:47.205343  6757 layer_factory.hpp:77] Creating layer inception_4e/pool
I0706 22:28:47.205353  6757 net.cpp:91] Creating Layer inception_4e/pool
I0706 22:28:47.205360  6757 net.cpp:425] inception_4e/pool <- inception_4d/output_inception_4d/output_0_split_3
I0706 22:28:47.205371  6757 net.cpp:399] inception_4e/pool -> inception_4e/pool
I0706 22:28:47.205453  6757 net.cpp:141] Setting up inception_4e/pool
I0706 22:28:47.205466  6757 net.cpp:148] Top shape: 10 528 14 14 (1034880)
I0706 22:28:47.205471  6757 net.cpp:156] Memory required for data: 512296960
I0706 22:28:47.205476  6757 layer_factory.hpp:77] Creating layer inception_4e/pool_proj
I0706 22:28:47.205493  6757 net.cpp:91] Creating Layer inception_4e/pool_proj
I0706 22:28:47.205500  6757 net.cpp:425] inception_4e/pool_proj <- inception_4e/pool
I0706 22:28:47.205509  6757 net.cpp:399] inception_4e/pool_proj -> inception_4e/pool_proj
I0706 22:28:47.208539  6757 net.cpp:141] Setting up inception_4e/pool_proj
I0706 22:28:47.208560  6757 net.cpp:148] Top shape: 10 128 14 14 (250880)
I0706 22:28:47.208566  6757 net.cpp:156] Memory required for data: 513300480
I0706 22:28:47.208575  6757 layer_factory.hpp:77] Creating layer inception_4e/relu_pool_proj
I0706 22:28:47.208585  6757 net.cpp:91] Creating Layer inception_4e/relu_pool_proj
I0706 22:28:47.208592  6757 net.cpp:425] inception_4e/relu_pool_proj <- inception_4e/pool_proj
I0706 22:28:47.208605  6757 net.cpp:386] inception_4e/relu_pool_proj -> inception_4e/pool_proj (in-place)
I0706 22:28:47.209431  6757 net.cpp:141] Setting up inception_4e/relu_pool_proj
I0706 22:28:47.209450  6757 net.cpp:148] Top shape: 10 128 14 14 (250880)
I0706 22:28:47.209455  6757 net.cpp:156] Memory required for data: 514304000
I0706 22:28:47.209460  6757 layer_factory.hpp:77] Creating layer inception_4e/output
I0706 22:28:47.209475  6757 net.cpp:91] Creating Layer inception_4e/output
I0706 22:28:47.209481  6757 net.cpp:425] inception_4e/output <- inception_4e/1x1
I0706 22:28:47.209488  6757 net.cpp:425] inception_4e/output <- inception_4e/3x3
I0706 22:28:47.209496  6757 net.cpp:425] inception_4e/output <- inception_4e/5x5
I0706 22:28:47.209502  6757 net.cpp:425] inception_4e/output <- inception_4e/pool_proj
I0706 22:28:47.209511  6757 net.cpp:399] inception_4e/output -> inception_4e/output
I0706 22:28:47.209568  6757 net.cpp:141] Setting up inception_4e/output
I0706 22:28:47.209578  6757 net.cpp:148] Top shape: 10 832 14 14 (1630720)
I0706 22:28:47.209583  6757 net.cpp:156] Memory required for data: 520826880
I0706 22:28:47.209589  6757 layer_factory.hpp:77] Creating layer pool4/3x3_s2
I0706 22:28:47.209597  6757 net.cpp:91] Creating Layer pool4/3x3_s2
I0706 22:28:47.209602  6757 net.cpp:425] pool4/3x3_s2 <- inception_4e/output
I0706 22:28:47.209615  6757 net.cpp:399] pool4/3x3_s2 -> pool4/3x3_s2
I0706 22:28:47.209688  6757 net.cpp:141] Setting up pool4/3x3_s2
I0706 22:28:47.209699  6757 net.cpp:148] Top shape: 10 832 7 7 (407680)
I0706 22:28:47.209704  6757 net.cpp:156] Memory required for data: 522457600
I0706 22:28:47.209709  6757 layer_factory.hpp:77] Creating layer pool4/3x3_s2_pool4/3x3_s2_0_split
I0706 22:28:47.209722  6757 net.cpp:91] Creating Layer pool4/3x3_s2_pool4/3x3_s2_0_split
I0706 22:28:47.209728  6757 net.cpp:425] pool4/3x3_s2_pool4/3x3_s2_0_split <- pool4/3x3_s2
I0706 22:28:47.209736  6757 net.cpp:399] pool4/3x3_s2_pool4/3x3_s2_0_split -> pool4/3x3_s2_pool4/3x3_s2_0_split_0
I0706 22:28:47.209748  6757 net.cpp:399] pool4/3x3_s2_pool4/3x3_s2_0_split -> pool4/3x3_s2_pool4/3x3_s2_0_split_1
I0706 22:28:47.209758  6757 net.cpp:399] pool4/3x3_s2_pool4/3x3_s2_0_split -> pool4/3x3_s2_pool4/3x3_s2_0_split_2
I0706 22:28:47.209769  6757 net.cpp:399] pool4/3x3_s2_pool4/3x3_s2_0_split -> pool4/3x3_s2_pool4/3x3_s2_0_split_3
I0706 22:28:47.209877  6757 net.cpp:141] Setting up pool4/3x3_s2_pool4/3x3_s2_0_split
I0706 22:28:47.209888  6757 net.cpp:148] Top shape: 10 832 7 7 (407680)
I0706 22:28:47.209894  6757 net.cpp:148] Top shape: 10 832 7 7 (407680)
I0706 22:28:47.209900  6757 net.cpp:148] Top shape: 10 832 7 7 (407680)
I0706 22:28:47.209906  6757 net.cpp:148] Top shape: 10 832 7 7 (407680)
I0706 22:28:47.209910  6757 net.cpp:156] Memory required for data: 528980480
I0706 22:28:47.209915  6757 layer_factory.hpp:77] Creating layer inception_5a/1x1
I0706 22:28:47.209931  6757 net.cpp:91] Creating Layer inception_5a/1x1
I0706 22:28:47.209939  6757 net.cpp:425] inception_5a/1x1 <- pool4/3x3_s2_pool4/3x3_s2_0_split_0
I0706 22:28:47.209951  6757 net.cpp:399] inception_5a/1x1 -> inception_5a/1x1
I0706 22:28:47.215338  6757 net.cpp:141] Setting up inception_5a/1x1
I0706 22:28:47.215363  6757 net.cpp:148] Top shape: 10 256 7 7 (125440)
I0706 22:28:47.215370  6757 net.cpp:156] Memory required for data: 529482240
I0706 22:28:47.215380  6757 layer_factory.hpp:77] Creating layer inception_5a/relu_1x1
I0706 22:28:47.215390  6757 net.cpp:91] Creating Layer inception_5a/relu_1x1
I0706 22:28:47.215397  6757 net.cpp:425] inception_5a/relu_1x1 <- inception_5a/1x1
I0706 22:28:47.215409  6757 net.cpp:386] inception_5a/relu_1x1 -> inception_5a/1x1 (in-place)
I0706 22:28:47.215687  6757 net.cpp:141] Setting up inception_5a/relu_1x1
I0706 22:28:47.215699  6757 net.cpp:148] Top shape: 10 256 7 7 (125440)
I0706 22:28:47.215704  6757 net.cpp:156] Memory required for data: 529984000
I0706 22:28:47.215710  6757 layer_factory.hpp:77] Creating layer inception_5a/3x3_reduce
I0706 22:28:47.215726  6757 net.cpp:91] Creating Layer inception_5a/3x3_reduce
I0706 22:28:47.215736  6757 net.cpp:425] inception_5a/3x3_reduce <- pool4/3x3_s2_pool4/3x3_s2_0_split_1
I0706 22:28:47.215746  6757 net.cpp:399] inception_5a/3x3_reduce -> inception_5a/3x3_reduce
I0706 22:28:47.220420  6757 net.cpp:141] Setting up inception_5a/3x3_reduce
I0706 22:28:47.220441  6757 net.cpp:148] Top shape: 10 160 7 7 (78400)
I0706 22:28:47.220448  6757 net.cpp:156] Memory required for data: 530297600
I0706 22:28:47.220458  6757 layer_factory.hpp:77] Creating layer inception_5a/relu_3x3_reduce
I0706 22:28:47.220468  6757 net.cpp:91] Creating Layer inception_5a/relu_3x3_reduce
I0706 22:28:47.220474  6757 net.cpp:425] inception_5a/relu_3x3_reduce <- inception_5a/3x3_reduce
I0706 22:28:47.220481  6757 net.cpp:386] inception_5a/relu_3x3_reduce -> inception_5a/3x3_reduce (in-place)
I0706 22:28:47.220785  6757 net.cpp:141] Setting up inception_5a/relu_3x3_reduce
I0706 22:28:47.220799  6757 net.cpp:148] Top shape: 10 160 7 7 (78400)
I0706 22:28:47.220804  6757 net.cpp:156] Memory required for data: 530611200
I0706 22:28:47.220810  6757 layer_factory.hpp:77] Creating layer inception_5a/3x3
I0706 22:28:47.220826  6757 net.cpp:91] Creating Layer inception_5a/3x3
I0706 22:28:47.220834  6757 net.cpp:425] inception_5a/3x3 <- inception_5a/3x3_reduce
I0706 22:28:47.220851  6757 net.cpp:399] inception_5a/3x3 -> inception_5a/3x3
I0706 22:28:47.229864  6757 net.cpp:141] Setting up inception_5a/3x3
I0706 22:28:47.229885  6757 net.cpp:148] Top shape: 10 320 7 7 (156800)
I0706 22:28:47.229892  6757 net.cpp:156] Memory required for data: 531238400
I0706 22:28:47.229902  6757 layer_factory.hpp:77] Creating layer inception_5a/relu_3x3
I0706 22:28:47.229917  6757 net.cpp:91] Creating Layer inception_5a/relu_3x3
I0706 22:28:47.229923  6757 net.cpp:425] inception_5a/relu_3x3 <- inception_5a/3x3
I0706 22:28:47.229933  6757 net.cpp:386] inception_5a/relu_3x3 -> inception_5a/3x3 (in-place)
I0706 22:28:47.230775  6757 net.cpp:141] Setting up inception_5a/relu_3x3
I0706 22:28:47.230794  6757 net.cpp:148] Top shape: 10 320 7 7 (156800)
I0706 22:28:47.230800  6757 net.cpp:156] Memory required for data: 531865600
I0706 22:28:47.230805  6757 layer_factory.hpp:77] Creating layer inception_5a/5x5_reduce
I0706 22:28:47.230829  6757 net.cpp:91] Creating Layer inception_5a/5x5_reduce
I0706 22:28:47.230836  6757 net.cpp:425] inception_5a/5x5_reduce <- pool4/3x3_s2_pool4/3x3_s2_0_split_2
I0706 22:28:47.230847  6757 net.cpp:399] inception_5a/5x5_reduce -> inception_5a/5x5_reduce
I0706 22:28:47.233516  6757 net.cpp:141] Setting up inception_5a/5x5_reduce
I0706 22:28:47.233536  6757 net.cpp:148] Top shape: 10 32 7 7 (15680)
I0706 22:28:47.233542  6757 net.cpp:156] Memory required for data: 531928320
I0706 22:28:47.233552  6757 layer_factory.hpp:77] Creating layer inception_5a/relu_5x5_reduce
I0706 22:28:47.233564  6757 net.cpp:91] Creating Layer inception_5a/relu_5x5_reduce
I0706 22:28:47.233572  6757 net.cpp:425] inception_5a/relu_5x5_reduce <- inception_5a/5x5_reduce
I0706 22:28:47.233579  6757 net.cpp:386] inception_5a/relu_5x5_reduce -> inception_5a/5x5_reduce (in-place)
I0706 22:28:47.233857  6757 net.cpp:141] Setting up inception_5a/relu_5x5_reduce
I0706 22:28:47.233871  6757 net.cpp:148] Top shape: 10 32 7 7 (15680)
I0706 22:28:47.233876  6757 net.cpp:156] Memory required for data: 531991040
I0706 22:28:47.233881  6757 layer_factory.hpp:77] Creating layer inception_5a/5x5
I0706 22:28:47.233901  6757 net.cpp:91] Creating Layer inception_5a/5x5
I0706 22:28:47.233907  6757 net.cpp:425] inception_5a/5x5 <- inception_5a/5x5_reduce
I0706 22:28:47.233917  6757 net.cpp:399] inception_5a/5x5 -> inception_5a/5x5
I0706 22:28:47.237215  6757 net.cpp:141] Setting up inception_5a/5x5
I0706 22:28:47.237234  6757 net.cpp:148] Top shape: 10 128 7 7 (62720)
I0706 22:28:47.237241  6757 net.cpp:156] Memory required for data: 532241920
I0706 22:28:47.237251  6757 layer_factory.hpp:77] Creating layer inception_5a/relu_5x5
I0706 22:28:47.237287  6757 net.cpp:91] Creating Layer inception_5a/relu_5x5
I0706 22:28:47.237295  6757 net.cpp:425] inception_5a/relu_5x5 <- inception_5a/5x5
I0706 22:28:47.237303  6757 net.cpp:386] inception_5a/relu_5x5 -> inception_5a/5x5 (in-place)
I0706 22:28:47.237579  6757 net.cpp:141] Setting up inception_5a/relu_5x5
I0706 22:28:47.237596  6757 net.cpp:148] Top shape: 10 128 7 7 (62720)
I0706 22:28:47.237601  6757 net.cpp:156] Memory required for data: 532492800
I0706 22:28:47.237607  6757 layer_factory.hpp:77] Creating layer inception_5a/pool
I0706 22:28:47.237617  6757 net.cpp:91] Creating Layer inception_5a/pool
I0706 22:28:47.237623  6757 net.cpp:425] inception_5a/pool <- pool4/3x3_s2_pool4/3x3_s2_0_split_3
I0706 22:28:47.237632  6757 net.cpp:399] inception_5a/pool -> inception_5a/pool
I0706 22:28:47.237722  6757 net.cpp:141] Setting up inception_5a/pool
I0706 22:28:47.237735  6757 net.cpp:148] Top shape: 10 832 7 7 (407680)
I0706 22:28:47.237740  6757 net.cpp:156] Memory required for data: 534123520
I0706 22:28:47.237746  6757 layer_factory.hpp:77] Creating layer inception_5a/pool_proj
I0706 22:28:47.237761  6757 net.cpp:91] Creating Layer inception_5a/pool_proj
I0706 22:28:47.237768  6757 net.cpp:425] inception_5a/pool_proj <- inception_5a/pool
I0706 22:28:47.237781  6757 net.cpp:399] inception_5a/pool_proj -> inception_5a/pool_proj
I0706 22:28:47.242310  6757 net.cpp:141] Setting up inception_5a/pool_proj
I0706 22:28:47.242331  6757 net.cpp:148] Top shape: 10 128 7 7 (62720)
I0706 22:28:47.242337  6757 net.cpp:156] Memory required for data: 534374400
I0706 22:28:47.242348  6757 layer_factory.hpp:77] Creating layer inception_5a/relu_pool_proj
I0706 22:28:47.242358  6757 net.cpp:91] Creating Layer inception_5a/relu_pool_proj
I0706 22:28:47.242365  6757 net.cpp:425] inception_5a/relu_pool_proj <- inception_5a/pool_proj
I0706 22:28:47.242373  6757 net.cpp:386] inception_5a/relu_pool_proj -> inception_5a/pool_proj (in-place)
I0706 22:28:47.243235  6757 net.cpp:141] Setting up inception_5a/relu_pool_proj
I0706 22:28:47.243253  6757 net.cpp:148] Top shape: 10 128 7 7 (62720)
I0706 22:28:47.243259  6757 net.cpp:156] Memory required for data: 534625280
I0706 22:28:47.243265  6757 layer_factory.hpp:77] Creating layer inception_5a/output
I0706 22:28:47.243274  6757 net.cpp:91] Creating Layer inception_5a/output
I0706 22:28:47.243281  6757 net.cpp:425] inception_5a/output <- inception_5a/1x1
I0706 22:28:47.243288  6757 net.cpp:425] inception_5a/output <- inception_5a/3x3
I0706 22:28:47.243295  6757 net.cpp:425] inception_5a/output <- inception_5a/5x5
I0706 22:28:47.243302  6757 net.cpp:425] inception_5a/output <- inception_5a/pool_proj
I0706 22:28:47.243314  6757 net.cpp:399] inception_5a/output -> inception_5a/output
I0706 22:28:47.243371  6757 net.cpp:141] Setting up inception_5a/output
I0706 22:28:47.243386  6757 net.cpp:148] Top shape: 10 832 7 7 (407680)
I0706 22:28:47.243391  6757 net.cpp:156] Memory required for data: 536256000
I0706 22:28:47.243396  6757 layer_factory.hpp:77] Creating layer inception_5a/output_inception_5a/output_0_split
I0706 22:28:47.243405  6757 net.cpp:91] Creating Layer inception_5a/output_inception_5a/output_0_split
I0706 22:28:47.243410  6757 net.cpp:425] inception_5a/output_inception_5a/output_0_split <- inception_5a/output
I0706 22:28:47.243418  6757 net.cpp:399] inception_5a/output_inception_5a/output_0_split -> inception_5a/output_inception_5a/output_0_split_0
I0706 22:28:47.243429  6757 net.cpp:399] inception_5a/output_inception_5a/output_0_split -> inception_5a/output_inception_5a/output_0_split_1
I0706 22:28:47.243443  6757 net.cpp:399] inception_5a/output_inception_5a/output_0_split -> inception_5a/output_inception_5a/output_0_split_2
I0706 22:28:47.243453  6757 net.cpp:399] inception_5a/output_inception_5a/output_0_split -> inception_5a/output_inception_5a/output_0_split_3
I0706 22:28:47.243574  6757 net.cpp:141] Setting up inception_5a/output_inception_5a/output_0_split
I0706 22:28:47.243585  6757 net.cpp:148] Top shape: 10 832 7 7 (407680)
I0706 22:28:47.243592  6757 net.cpp:148] Top shape: 10 832 7 7 (407680)
I0706 22:28:47.243598  6757 net.cpp:148] Top shape: 10 832 7 7 (407680)
I0706 22:28:47.243604  6757 net.cpp:148] Top shape: 10 832 7 7 (407680)
I0706 22:28:47.243608  6757 net.cpp:156] Memory required for data: 542778880
I0706 22:28:47.243613  6757 layer_factory.hpp:77] Creating layer inception_5b/1x1
I0706 22:28:47.243633  6757 net.cpp:91] Creating Layer inception_5b/1x1
I0706 22:28:47.243645  6757 net.cpp:425] inception_5b/1x1 <- inception_5a/output_inception_5a/output_0_split_0
I0706 22:28:47.243664  6757 net.cpp:399] inception_5b/1x1 -> inception_5b/1x1
I0706 22:28:47.250928  6757 net.cpp:141] Setting up inception_5b/1x1
I0706 22:28:47.250965  6757 net.cpp:148] Top shape: 10 384 7 7 (188160)
I0706 22:28:47.250972  6757 net.cpp:156] Memory required for data: 543531520
I0706 22:28:47.250985  6757 layer_factory.hpp:77] Creating layer inception_5b/relu_1x1
I0706 22:28:47.250998  6757 net.cpp:91] Creating Layer inception_5b/relu_1x1
I0706 22:28:47.251006  6757 net.cpp:425] inception_5b/relu_1x1 <- inception_5b/1x1
I0706 22:28:47.251016  6757 net.cpp:386] inception_5b/relu_1x1 -> inception_5b/1x1 (in-place)
I0706 22:28:47.251302  6757 net.cpp:141] Setting up inception_5b/relu_1x1
I0706 22:28:47.251314  6757 net.cpp:148] Top shape: 10 384 7 7 (188160)
I0706 22:28:47.251319  6757 net.cpp:156] Memory required for data: 544284160
I0706 22:28:47.251325  6757 layer_factory.hpp:77] Creating layer inception_5b/3x3_reduce
I0706 22:28:47.251343  6757 net.cpp:91] Creating Layer inception_5b/3x3_reduce
I0706 22:28:47.251350  6757 net.cpp:425] inception_5b/3x3_reduce <- inception_5a/output_inception_5a/output_0_split_1
I0706 22:28:47.251364  6757 net.cpp:399] inception_5b/3x3_reduce -> inception_5b/3x3_reduce
I0706 22:28:47.256786  6757 net.cpp:141] Setting up inception_5b/3x3_reduce
I0706 22:28:47.256814  6757 net.cpp:148] Top shape: 10 192 7 7 (94080)
I0706 22:28:47.256820  6757 net.cpp:156] Memory required for data: 544660480
I0706 22:28:47.256832  6757 layer_factory.hpp:77] Creating layer inception_5b/relu_3x3_reduce
I0706 22:28:47.256844  6757 net.cpp:91] Creating Layer inception_5b/relu_3x3_reduce
I0706 22:28:47.256852  6757 net.cpp:425] inception_5b/relu_3x3_reduce <- inception_5b/3x3_reduce
I0706 22:28:47.256865  6757 net.cpp:386] inception_5b/relu_3x3_reduce -> inception_5b/3x3_reduce (in-place)
I0706 22:28:47.257182  6757 net.cpp:141] Setting up inception_5b/relu_3x3_reduce
I0706 22:28:47.257196  6757 net.cpp:148] Top shape: 10 192 7 7 (94080)
I0706 22:28:47.257201  6757 net.cpp:156] Memory required for data: 545036800
I0706 22:28:47.257207  6757 layer_factory.hpp:77] Creating layer inception_5b/3x3
I0706 22:28:47.257228  6757 net.cpp:91] Creating Layer inception_5b/3x3
I0706 22:28:47.257236  6757 net.cpp:425] inception_5b/3x3 <- inception_5b/3x3_reduce
I0706 22:28:47.257246  6757 net.cpp:399] inception_5b/3x3 -> inception_5b/3x3
I0706 22:28:47.267843  6757 net.cpp:141] Setting up inception_5b/3x3
I0706 22:28:47.267874  6757 net.cpp:148] Top shape: 10 384 7 7 (188160)
I0706 22:28:47.267881  6757 net.cpp:156] Memory required for data: 545789440
I0706 22:28:47.267894  6757 layer_factory.hpp:77] Creating layer inception_5b/relu_3x3
I0706 22:28:47.267905  6757 net.cpp:91] Creating Layer inception_5b/relu_3x3
I0706 22:28:47.267912  6757 net.cpp:425] inception_5b/relu_3x3 <- inception_5b/3x3
I0706 22:28:47.267925  6757 net.cpp:386] inception_5b/relu_3x3 -> inception_5b/3x3 (in-place)
I0706 22:28:47.268797  6757 net.cpp:141] Setting up inception_5b/relu_3x3
I0706 22:28:47.268812  6757 net.cpp:148] Top shape: 10 384 7 7 (188160)
I0706 22:28:47.268817  6757 net.cpp:156] Memory required for data: 546542080
I0706 22:28:47.268823  6757 layer_factory.hpp:77] Creating layer inception_5b/5x5_reduce
I0706 22:28:47.268843  6757 net.cpp:91] Creating Layer inception_5b/5x5_reduce
I0706 22:28:47.268851  6757 net.cpp:425] inception_5b/5x5_reduce <- inception_5a/output_inception_5a/output_0_split_2
I0706 22:28:47.268865  6757 net.cpp:399] inception_5b/5x5_reduce -> inception_5b/5x5_reduce
I0706 22:28:47.271874  6757 net.cpp:141] Setting up inception_5b/5x5_reduce
I0706 22:28:47.271896  6757 net.cpp:148] Top shape: 10 48 7 7 (23520)
I0706 22:28:47.271903  6757 net.cpp:156] Memory required for data: 546636160
I0706 22:28:47.271913  6757 layer_factory.hpp:77] Creating layer inception_5b/relu_5x5_reduce
I0706 22:28:47.271926  6757 net.cpp:91] Creating Layer inception_5b/relu_5x5_reduce
I0706 22:28:47.271934  6757 net.cpp:425] inception_5b/relu_5x5_reduce <- inception_5b/5x5_reduce
I0706 22:28:47.271942  6757 net.cpp:386] inception_5b/relu_5x5_reduce -> inception_5b/5x5_reduce (in-place)
I0706 22:28:47.272222  6757 net.cpp:141] Setting up inception_5b/relu_5x5_reduce
I0706 22:28:47.272234  6757 net.cpp:148] Top shape: 10 48 7 7 (23520)
I0706 22:28:47.272239  6757 net.cpp:156] Memory required for data: 546730240
I0706 22:28:47.272244  6757 layer_factory.hpp:77] Creating layer inception_5b/5x5
I0706 22:28:47.272266  6757 net.cpp:91] Creating Layer inception_5b/5x5
I0706 22:28:47.272274  6757 net.cpp:425] inception_5b/5x5 <- inception_5b/5x5_reduce
I0706 22:28:47.272285  6757 net.cpp:399] inception_5b/5x5 -> inception_5b/5x5
I0706 22:28:47.276926  6757 net.cpp:141] Setting up inception_5b/5x5
I0706 22:28:47.276949  6757 net.cpp:148] Top shape: 10 128 7 7 (62720)
I0706 22:28:47.276955  6757 net.cpp:156] Memory required for data: 546981120
I0706 22:28:47.276967  6757 layer_factory.hpp:77] Creating layer inception_5b/relu_5x5
I0706 22:28:47.276981  6757 net.cpp:91] Creating Layer inception_5b/relu_5x5
I0706 22:28:47.276988  6757 net.cpp:425] inception_5b/relu_5x5 <- inception_5b/5x5
I0706 22:28:47.276999  6757 net.cpp:386] inception_5b/relu_5x5 -> inception_5b/5x5 (in-place)
I0706 22:28:47.277282  6757 net.cpp:141] Setting up inception_5b/relu_5x5
I0706 22:28:47.277295  6757 net.cpp:148] Top shape: 10 128 7 7 (62720)
I0706 22:28:47.277300  6757 net.cpp:156] Memory required for data: 547232000
I0706 22:28:47.277305  6757 layer_factory.hpp:77] Creating layer inception_5b/pool
I0706 22:28:47.277317  6757 net.cpp:91] Creating Layer inception_5b/pool
I0706 22:28:47.277323  6757 net.cpp:425] inception_5b/pool <- inception_5a/output_inception_5a/output_0_split_3
I0706 22:28:47.277335  6757 net.cpp:399] inception_5b/pool -> inception_5b/pool
I0706 22:28:47.277431  6757 net.cpp:141] Setting up inception_5b/pool
I0706 22:28:47.277441  6757 net.cpp:148] Top shape: 10 832 7 7 (407680)
I0706 22:28:47.277446  6757 net.cpp:156] Memory required for data: 548862720
I0706 22:28:47.277451  6757 layer_factory.hpp:77] Creating layer inception_5b/pool_proj
I0706 22:28:47.277467  6757 net.cpp:91] Creating Layer inception_5b/pool_proj
I0706 22:28:47.277474  6757 net.cpp:425] inception_5b/pool_proj <- inception_5b/pool
I0706 22:28:47.277484  6757 net.cpp:399] inception_5b/pool_proj -> inception_5b/pool_proj
I0706 22:28:47.282212  6757 net.cpp:141] Setting up inception_5b/pool_proj
I0706 22:28:47.282235  6757 net.cpp:148] Top shape: 10 128 7 7 (62720)
I0706 22:28:47.282241  6757 net.cpp:156] Memory required for data: 549113600
I0706 22:28:47.282253  6757 layer_factory.hpp:77] Creating layer inception_5b/relu_pool_proj
I0706 22:28:47.282263  6757 net.cpp:91] Creating Layer inception_5b/relu_pool_proj
I0706 22:28:47.282269  6757 net.cpp:425] inception_5b/relu_pool_proj <- inception_5b/pool_proj
I0706 22:28:47.282281  6757 net.cpp:386] inception_5b/relu_pool_proj -> inception_5b/pool_proj (in-place)
I0706 22:28:47.283165  6757 net.cpp:141] Setting up inception_5b/relu_pool_proj
I0706 22:28:47.283184  6757 net.cpp:148] Top shape: 10 128 7 7 (62720)
I0706 22:28:47.283190  6757 net.cpp:156] Memory required for data: 549364480
I0706 22:28:47.283195  6757 layer_factory.hpp:77] Creating layer inception_5b/output
I0706 22:28:47.283205  6757 net.cpp:91] Creating Layer inception_5b/output
I0706 22:28:47.283210  6757 net.cpp:425] inception_5b/output <- inception_5b/1x1
I0706 22:28:47.283218  6757 net.cpp:425] inception_5b/output <- inception_5b/3x3
I0706 22:28:47.283224  6757 net.cpp:425] inception_5b/output <- inception_5b/5x5
I0706 22:28:47.283231  6757 net.cpp:425] inception_5b/output <- inception_5b/pool_proj
I0706 22:28:47.283243  6757 net.cpp:399] inception_5b/output -> inception_5b/output
I0706 22:28:47.283305  6757 net.cpp:141] Setting up inception_5b/output
I0706 22:28:47.283318  6757 net.cpp:148] Top shape: 10 1024 7 7 (501760)
I0706 22:28:47.283323  6757 net.cpp:156] Memory required for data: 551371520
I0706 22:28:47.283327  6757 layer_factory.hpp:77] Creating layer pool5/7x7_s1
I0706 22:28:47.283336  6757 net.cpp:91] Creating Layer pool5/7x7_s1
I0706 22:28:47.283342  6757 net.cpp:425] pool5/7x7_s1 <- inception_5b/output
I0706 22:28:47.283350  6757 net.cpp:399] pool5/7x7_s1 -> pool5/7x7_s1
I0706 22:28:47.283881  6757 net.cpp:141] Setting up pool5/7x7_s1
I0706 22:28:47.283903  6757 net.cpp:148] Top shape: 10 1024 1 1 (10240)
I0706 22:28:47.283915  6757 net.cpp:156] Memory required for data: 551412480
I0706 22:28:47.283924  6757 layer_factory.hpp:77] Creating layer pool5/drop_7x7_s1
I0706 22:28:47.283957  6757 net.cpp:91] Creating Layer pool5/drop_7x7_s1
I0706 22:28:47.283969  6757 net.cpp:425] pool5/drop_7x7_s1 <- pool5/7x7_s1
I0706 22:28:47.283984  6757 net.cpp:386] pool5/drop_7x7_s1 -> pool5/7x7_s1 (in-place)
I0706 22:28:47.284076  6757 net.cpp:141] Setting up pool5/drop_7x7_s1
I0706 22:28:47.284096  6757 net.cpp:148] Top shape: 10 1024 1 1 (10240)
I0706 22:28:47.284106  6757 net.cpp:156] Memory required for data: 551453440
I0706 22:28:47.284116  6757 layer_factory.hpp:77] Creating layer loss3/classifier
I0706 22:28:47.284134  6757 net.cpp:91] Creating Layer loss3/classifier
I0706 22:28:47.284147  6757 net.cpp:425] loss3/classifier <- pool5/7x7_s1
I0706 22:28:47.284170  6757 net.cpp:399] loss3/classifier -> loss3/classifier
I0706 22:28:47.296887  6757 net.cpp:141] Setting up loss3/classifier
I0706 22:28:47.296932  6757 net.cpp:148] Top shape: 10 1000 (10000)
I0706 22:28:47.296939  6757 net.cpp:156] Memory required for data: 551493440
I0706 22:28:47.296953  6757 layer_factory.hpp:77] Creating layer prob
I0706 22:28:47.296968  6757 net.cpp:91] Creating Layer prob
I0706 22:28:47.296977  6757 net.cpp:425] prob <- loss3/classifier
I0706 22:28:47.296989  6757 net.cpp:399] prob -> prob
I0706 22:28:47.298820  6757 net.cpp:141] Setting up prob
I0706 22:28:47.298840  6757 net.cpp:148] Top shape: 10 1000 (10000)
I0706 22:28:47.298846  6757 net.cpp:156] Memory required for data: 551533440
I0706 22:28:47.298853  6757 net.cpp:219] prob does not need backward computation.
I0706 22:28:47.298859  6757 net.cpp:219] loss3/classifier does not need backward computation.
I0706 22:28:47.298864  6757 net.cpp:219] pool5/drop_7x7_s1 does not need backward computation.
I0706 22:28:47.298871  6757 net.cpp:219] pool5/7x7_s1 does not need backward computation.
…
