…
Java HotSpot(TM) 64-Bit Server VM warning: You have loaded library /tmp/cvld938035317976168371/libopencv_java310.xine1.so which might have disabled stack guard. The VM will try to fix the stack guard now.
It's highly recommended that you fix the library with 'execstack -c <libfile>', or link it with '-z noexecstack'.
WARNING: Logging before InitGoogleLogging() is written to STDERR
I0714 21:15:38.333078 21302 net.cpp:49] Initializing net from parameters: 
name: "GoogleNet"
state {
  phase: TEST
}
layer {
  name: "data"
  type: "Input"
  top: "data"
  input_param {
    shape {
      dim: 10
      dim: 3
      dim: 224
      dim: 224
    }
  }
}
layer {
  name: "conv1/7x7_s2"
  type: "Convolution"
  bottom: "data"
  top: "conv1/7x7_s2"
  param {
    lr_mult: 1
    decay_mult: 1
  }
  param {
    lr_mult: 2
    decay_mult: 0
  }
  convolution_param {
    num_output: 64
    pad: 3
    kernel_size: 7
    stride: 2
    weight_filler {
      type: "xavier"
      std: 0.1
    }
    bias_filler {
      type: "constant"
      value: 0.2
    }
  }
}
layer {
  name: "conv1/relu_7x7"
  type: "ReLU"
  bottom: "conv1/7x7_s2"
  top: "conv1/7x7_s2"
}
layer {
  name: "pool1/3x3_s2"
  type: "Pooling"
  bottom: "conv1/7x7_s2"
  top: "pool1/3x3_s2"
  pooling_param {
    pool: MAX
    kernel_size: 3
    stride: 2
  }
}
layer {
  name: "pool1/norm1"
  type: "LRN"
  bottom: "pool1/3x3_s2"
  top: "pool1/norm1"
  lrn_param {
    local_size: 5
    alpha: 0.0001
    beta: 0.75
  }
}
layer {
  name: "conv2/3x3_reduce"
  type: "Convolution"
  bottom: "pool1/norm1"
  top: "conv2/3x3_reduce"
  param {
    lr_mult: 1
    decay_mult: 1
  }
  param {
    lr_mult: 2
    decay_mult: 0
  }
  convolution_param {
    num_output: 64
    kernel_size: 1
    weight_filler {
      type: "xavier"
      std: 0.1
    }
    bias_filler {
      type: "constant"
      value: 0.2
    }
  }
}
layer {
  name: "conv2/relu_3x3_reduce"
  type: "ReLU"
  bottom: "conv2/3x3_reduce"
  top: "conv2/3x3_reduce"
}
layer {
  name: "conv2/3x3"
  type: "Convolution"
  bottom: "conv2/3x3_reduce"
  top: "conv2/3x3"
  param {
    lr_mult: 1
    decay_mult: 1
  }
  param {
    lr_mult: 2
    decay_mult: 0
  }
  convolution_param {
    num_output: 192
    pad: 1
    kernel_size: 3
    weight_filler {
      type: "xavier"
      std: 0.03
    }
    bias_filler {
      type: "constant"
      value: 0.2
    }
  }
}
layer {
  name: "conv2/relu_3x3"
  type: "ReLU"
  bottom: "conv2/3x3"
  top: "conv2/3x3"
}
layer {
  name: "conv2/norm2"
  type: "LRN"
  bottom: "conv2/3x3"
  top: "conv2/norm2"
  lrn_param {
    local_size: 5
    alpha: 0.0001
    beta: 0.75
  }
}
layer {
  name: "pool2/3x3_s2"
  type: "Pooling"
  bottom: "conv2/norm2"
  top: "pool2/3x3_s2"
  pooling_param {
    pool: MAX
    kernel_size: 3
    stride: 2
  }
}
layer {
  name: "inception_3a/1x1"
  type: "Convolution"
  bottom: "pool2/3x3_s2"
  top: "inception_3a/1x1"
  param {
    lr_mult: 1
    decay_mult: 1
  }
  param {
    lr_mult: 2
    decay_mult: 0
  }
  convolution_param {
    num_output: 64
    kernel_size: 1
    weight_filler {
      type: "xavier"
      std: 0.03
    }
    bias_filler {
      type: "constant"
      value: 0.2
    }
  }
}
layer {
  name: "inception_3a/relu_1x1"
  type: "ReLU"
  bottom: "inception_3a/1x1"
  top: "inception_3a/1x1"
}
layer {
  name: "inception_3a/3x3_reduce"
  type: "Convolution"
  bottom: "pool2/3x3_s2"
  top: "inception_3a/3x3_reduce"
  param {
    lr_mult: 1
    decay_mult: 1
  }
  param {
    lr_mult: 2
    decay_mult: 0
  }
  convolution_param {
    num_output: 96
    kernel_size: 1
    weight_filler {
      type: "xavier"
      std: 0.09
    }
    bias_filler {
      type: "constant"
      value: 0.2
    }
  }
}
layer {
  name: "inception_3a/relu_3x3_reduce"
  type: "ReLU"
  bottom: "inception_3a/3x3_reduce"
  top: "inception_3a/3x3_reduce"
}
layer {
  name: "inception_3a/3x3"
  type: "Convolution"
  bottom: "inception_3a/3x3_reduce"
  top: "inception_3a/3x3"
  param {
    lr_mult: 1
    decay_mult: 1
  }
  param {
    lr_mult: 2
    decay_mult: 0
  }
  convolution_param {
    num_output: 128
    pad: 1
    kernel_size: 3
    weight_filler {
      type: "xavier"
      std: 0.03
    }
    bias_filler {
      type: "constant"
      value: 0.2
    }
  }
}
layer {
  name: "inception_3a/relu_3x3"
  type: "ReLU"
  bottom: "inception_3a/3x3"
  top: "inception_3a/3x3"
}
layer {
  name: "inception_3a/5x5_reduce"
  type: "Convolution"
  bottom: "pool2/3x3_s2"
  top: "inception_3a/5x5_reduce"
  param {
    lr_mult: 1
    decay_mult: 1
  }
  param {
    lr_mult: 2
    decay_mult: 0
  }
  convolution_param {
    num_output: 16
    kernel_size: 1
    weight_filler {
      type: "xavier"
      std: 0.2
    }
    bias_filler {
      type: "constant"
      value: 0.2
    }
  }
}
layer {
  name: "inception_3a/relu_5x5_reduce"
  type: "ReLU"
  bottom: "inception_3a/5x5_reduce"
  top: "inception_3a/5x5_reduce"
}
layer {
  name: "inception_3a/5x5"
  type: "Convolution"
  bottom: "inception_3a/5x5_reduce"
  top: "inception_3a/5x5"
  param {
    lr_mult: 1
    decay_mult: 1
  }
  param {
    lr_mult: 2
    decay_mult: 0
  }
  convolution_param {
    num_output: 32
    pad: 2
    kernel_size: 5
    weight_filler {
      type: "xavier"
      std: 0.03
    }
    bias_filler {
      type: "constant"
      value: 0.2
    }
  }
}
layer {
  name: "inception_3a/relu_5x5"
  type: "ReLU"
  bottom: "inception_3a/5x5"
  top: "inception_3a/5x5"
}
layer {
  name: "inception_3a/pool"
  type: "Pooling"
  bottom: "pool2/3x3_s2"
  top: "inception_3a/pool"
  pooling_param {
    pool: MAX
    kernel_size: 3
    stride: 1
    pad: 1
  }
}
layer {
  name: "inception_3a/pool_proj"
  type: "Convolution"
  bottom: "inception_3a/pool"
  top: "inception_3a/pool_proj"
  param {
    lr_mult: 1
    decay_mult: 1
  }
  param {
    lr_mult: 2
    decay_mult: 0
  }
  convolution_param {
    num_output: 32
    kernel_size: 1
    weight_filler {
      type: "xavier"
      std: 0.1
    }
    bias_filler {
      type: "constant"
      value: 0.2
    }
  }
}
layer {
  name: "inception_3a/relu_pool_proj"
  type: "ReLU"
  bottom: "inception_3a/pool_proj"
  top: "inception_3a/pool_proj"
}
layer {
  name: "inception_3a/output"
  type: "Concat"
  bottom: "inception_3a/1x1"
  bottom: "inception_3a/3x3"
  bottom: "inception_3a/5x5"
  bottom: "inception_3a/pool_proj"
  top: "inception_3a/output"
}
layer {
  name: "inception_3b/1x1"
  type: "Convolution"
  bottom: "inception_3a/output"
  top: "inception_3b/1x1"
  param {
    lr_mult: 1
    decay_mult: 1
  }
  param {
    lr_mult: 2
    decay_mult: 0
  }
  convolution_param {
    num_output: 128
    kernel_size: 1
    weight_filler {
      type: "xavier"
      std: 0.03
    }
    bias_filler {
      type: "constant"
      value: 0.2
    }
  }
}
layer {
  name: "inception_3b/relu_1x1"
  type: "ReLU"
  bottom: "inception_3b/1x1"
  top: "inception_3b/1x1"
}
layer {
  name: "inception_3b/3x3_reduce"
  type: "Convolution"
  bottom: "inception_3a/output"
  top: "inception_3b/3x3_reduce"
  param {
    lr_mult: 1
    decay_mult: 1
  }
  param {
    lr_mult: 2
    decay_mult: 0
  }
  convolution_param {
    num_output: 128
    kernel_size: 1
    weight_filler {
      type: "xavier"
      std: 0.09
    }
    bias_filler {
      type: "constant"
      value: 0.2
    }
  }
}
layer {
  name: "inception_3b/relu_3x3_reduce"
  type: "ReLU"
  bottom: "inception_3b/3x3_reduce"
  top: "inception_3b/3x3_reduce"
}
layer {
  name: "inception_3b/3x3"
  type: "Convolution"
  bottom: "inception_3b/3x3_reduce"
  top: "inception_3b/3x3"
  param {
    lr_mult: 1
    decay_mult: 1
  }
  param {
    lr_mult: 2
    decay_mult: 0
  }
  convolution_param {
    num_output: 192
    pad: 1
    kernel_size: 3
    weight_filler {
      type: "xavier"
      std: 0.03
    }
    bias_filler {
      type: "constant"
      value: 0.2
    }
  }
}
layer {
  name: "inception_3b/relu_3x3"
  type: "ReLU"
  bottom: "inception_3b/3x3"
  top: "inception_3b/3x3"
}
layer {
  name: "inception_3b/5x5_reduce"
  type: "Convolution"
  bottom: "inception_3a/output"
  top: "inception_3b/5x5_reduce"
  param {
    lr_mult: 1
    decay_mult: 1
  }
  param {
    lr_mult: 2
    decay_mult: 0
  }
  convolution_param {
    num_output: 32
    kernel_size: 1
    weight_filler {
      type: "xavier"
      std: 0.2
    }
    bias_filler {
      type: "constant"
      value: 0.2
    }
  }
}
layer {
  name: "inception_3b/relu_5x5_reduce"
  type: "ReLU"
  bottom: "inception_3b/5x5_reduce"
  top: "inception_3b/5x5_reduce"
}
layer {
  name: "inception_3b/5x5"
  type: "Convolution"
  bottom: "inception_3b/5x5_reduce"
  top: "inception_3b/5x5"
  param {
    lr_mult: 1
    decay_mult: 1
  }
  param {
    lr_mult: 2
    decay_mult: 0
  }
  convolution_param {
    num_output: 96
    pad: 2
    kernel_size: 5
    weight_filler {
      type: "xavier"
      std: 0.03
    }
    bias_filler {
      type: "constant"
      value: 0.2
    }
  }
}
layer {
  name: "inception_3b/relu_5x5"
  type: "ReLU"
  bottom: "inception_3b/5x5"
  top: "inception_3b/5x5"
}
layer {
  name: "inception_3b/pool"
  type: "Pooling"
  bottom: "inception_3a/output"
  top: "inception_3b/pool"
  pooling_param {
    pool: MAX
    kernel_size: 3
    stride: 1
    pad: 1
  }
}
layer {
  name: "inception_3b/pool_proj"
  type: "Convolution"
  bottom: "inception_3b/pool"
  top: "inception_3b/pool_proj"
  param {
    lr_mult: 1
    decay_mult: 1
  }
  param {
    lr_mult: 2
    decay_mult: 0
  }
  convolution_param {
    num_output: 64
    kernel_size: 1
    weight_filler {
      type: "xavier"
      std: 0.1
    }
    bias_filler {
      type: "constant"
      value: 0.2
    }
  }
}
layer {
  name: "inception_3b/relu_pool_proj"
  type: "ReLU"
  bottom: "inception_3b/pool_proj"
  top: "inception_3b/pool_proj"
}
layer {
  name: "inception_3b/output"
  type: "Concat"
  bottom: "inception_3b/1x1"
  bottom: "inception_3b/3x3"
  bottom: "inception_3b/5x5"
  bottom: "inception_3b/pool_proj"
  top: "inception_3b/output"
}
layer {
  name: "pool3/3x3_s2"
  type: "Pooling"
  bottom: "inception_3b/output"
  top: "pool3/3x3_s2"
  pooling_param {
    pool: MAX
    kernel_size: 3
    stride: 2
  }
}
layer {
  name: "inception_4a/1x1"
  type: "Convolution"
  bottom: "pool3/3x3_s2"
  top: "inception_4a/1x1"
  param {
    lr_mult: 1
    decay_mult: 1
  }
  param {
    lr_mult: 2
    decay_mult: 0
  }
  convolution_param {
    num_output: 192
    kernel_size: 1
    weight_filler {
      type: "xavier"
      std: 0.03
    }
    bias_filler {
      type: "constant"
      value: 0.2
    }
  }
}
layer {
  name: "inception_4a/relu_1x1"
  type: "ReLU"
  bottom: "inception_4a/1x1"
  top: "inception_4a/1x1"
}
layer {
  name: "inception_4a/3x3_reduce"
  type: "Convolution"
  bottom: "pool3/3x3_s2"
  top: "inception_4a/3x3_reduce"
  param {
    lr_mult: 1
    decay_mult: 1
  }
  param {
    lr_mult: 2
    decay_mult: 0
  }
  convolution_param {
    num_output: 96
    kernel_size: 1
    weight_filler {
      type: "xavier"
      std: 0.09
    }
    bias_filler {
      type: "constant"
      value: 0.2
    }
  }
}
layer {
  name: "inception_4a/relu_3x3_reduce"
  type: "ReLU"
  bottom: "inception_4a/3x3_reduce"
  top: "inception_4a/3x3_reduce"
}
layer {
  name: "inception_4a/3x3"
  type: "Convolution"
  bottom: "inception_4a/3x3_reduce"
  top: "inception_4a/3x3"
  param {
    lr_mult: 1
    decay_mult: 1
  }
  param {
    lr_mult: 2
    decay_mult: 0
  }
  convolution_param {
    num_output: 208
    pad: 1
    kernel_size: 3
    weight_filler {
      type: "xavier"
      std: 0.03
    }
    bias_filler {
      type: "constant"
      value: 0.2
    }
  }
}
layer {
  name: "inception_4a/relu_3x3"
  type: "ReLU"
  bottom: "inception_4a/3x3"
  top: "inception_4a/3x3"
}
layer {
  name: "inception_4a/5x5_reduce"
  type: "Convolution"
  bottom: "pool3/3x3_s2"
  top: "inception_4a/5x5_reduce"
  param {
    lr_mult: 1
    decay_mult: 1
  }
  param {
    lr_mult: 2
    decay_mult: 0
  }
  convolution_param {
    num_output: 16
    kernel_size: 1
    weight_filler {
      type: "xavier"
      std: 0.2
    }
    bias_filler {
      type: "constant"
      value: 0.2
    }
  }
}
layer {
  name: "inception_4a/relu_5x5_reduce"
  type: "ReLU"
  bottom: "inception_4a/5x5_reduce"
  top: "inception_4a/5x5_reduce"
}
layer {
  name: "inception_4a/5x5"
  type: "Convolution"
  bottom: "inception_4a/5x5_reduce"
  top: "inception_4a/5x5"
  param {
    lr_mult: 1
    decay_mult: 1
  }
  param {
    lr_mult: 2
    decay_mult: 0
  }
  convolution_param {
    num_output: 48
    pad: 2
    kernel_size: 5
    weight_filler {
      type: "xavier"
      std: 0.03
    }
    bias_filler {
      type: "constant"
      value: 0.2
    }
  }
}
layer {
  name: "inception_4a/relu_5x5"
  type: "ReLU"
  bottom: "inception_4a/5x5"
  top: "inception_4a/5x5"
}
layer {
  name: "inception_4a/pool"
  type: "Pooling"
  bottom: "pool3/3x3_s2"
  top: "inception_4a/pool"
  pooling_param {
    pool: MAX
    kernel_size: 3
    stride: 1
    pad: 1
  }
}
layer {
  name: "inception_4a/pool_proj"
  type: "Convolution"
  bottom: "inception_4a/pool"
  top: "inception_4a/pool_proj"
  param {
    lr_mult: 1
    decay_mult: 1
  }
  param {
    lr_mult: 2
    decay_mult: 0
  }
  convolution_param {
    num_output: 64
    kernel_size: 1
    weight_filler {
      type: "xavier"
      std: 0.1
    }
    bias_filler {
      type: "constant"
      value: 0.2
    }
  }
}
layer {
  name: "inception_4a/relu_pool_proj"
  type: "ReLU"
  bottom: "inception_4a/pool_proj"
  top: "inception_4a/pool_proj"
}
layer {
  name: "inception_4a/output"
  type: "Concat"
  bottom: "inception_4a/1x1"
  bottom: "inception_4a/3x3"
  bottom: "inception_4a/5x5"
  bottom: "inception_4a/pool_proj"
  top: "inception_4a/output"
}
layer {
  name: "inception_4b/1x1"
  type: "Convolution"
  bottom: "inception_4a/output"
  top: "inception_4b/1x1"
  param {
    lr_mult: 1
    decay_mult: 1
  }
  param {
    lr_mult: 2
    decay_mult: 0
  }
  convolution_param {
    num_output: 160
    kernel_size: 1
    weight_filler {
      type: "xavier"
      std: 0.03
    }
    bias_filler {
      type: "constant"
      value: 0.2
    }
  }
}
layer {
  name: "inception_4b/relu_1x1"
  type: "ReLU"
  bottom: "inception_4b/1x1"
  top: "inception_4b/1x1"
}
layer {
  name: "inception_4b/3x3_reduce"
  type: "Convolution"
  bottom: "inception_4a/output"
  top: "inception_4b/3x3_reduce"
  param {
    lr_mult: 1
    decay_mult: 1
  }
  param {
    lr_mult: 2
    decay_mult: 0
  }
  convolution_param {
    num_output: 112
    kernel_size: 1
    weight_filler {
      type: "xavier"
      std: 0.09
    }
    bias_filler {
      type: "constant"
      value: 0.2
    }
  }
}
layer {
  name: "inception_4b/relu_3x3_reduce"
  type: "ReLU"
  bottom: "inception_4b/3x3_reduce"
  top: "inception_4b/3x3_reduce"
}
layer {
  name: "inception_4b/3x3"
  type: "Convolution"
  bottom: "inception_4b/3x3_reduce"
  top: "inception_4b/3x3"
  param {
    lr_mult: 1
    decay_mult: 1
  }
  param {
    lr_mult: 2
    decay_mult: 0
  }
  convolution_param {
    num_output: 224
    pad: 1
    kernel_size: 3
    weight_filler {
      type: "xavier"
      std: 0.03
    }
    bias_filler {
      type: "constant"
      value: 0.2
    }
  }
}
layer {
  name: "inception_4b/relu_3x3"
  type: "ReLU"
  bottom: "inception_4b/3x3"
  top: "inception_4b/3x3"
}
layer {
  name: "inception_4b/5x5_reduce"
  type: "Convolution"
  bottom: "inception_4a/output"
  top: "inception_4b/5x5_reduce"
  param {
    lr_mult: 1
    decay_mult: 1
  }
  param {
    lr_mult: 2
    decay_mult: 0
  }
  convolution_param {
    num_output: 24
    kernel_size: 1
    weight_filler {
      type: "xavier"
      std: 0.2
    }
    bias_filler {
      type: "constant"
      value: 0.2
    }
  }
}
layer {
  name: "inception_4b/relu_5x5_reduce"
  type: "ReLU"
  bottom: "inception_4b/5x5_reduce"
  top: "inception_4b/5x5_reduce"
}
layer {
  name: "inception_4b/5x5"
  type: "Convolution"
  bottom: "inception_4b/5x5_reduce"
  top: "inception_4b/5x5"
  param {
    lr_mult: 1
    decay_mult: 1
  }
  param {
    lr_mult: 2
    decay_mult: 0
  }
  convolution_param {
    num_output: 64
    pad: 2
    kernel_size: 5
    weight_filler {
      type: "xavier"
      std: 0.03
    }
    bias_filler {
      type: "constant"
      value: 0.2
    }
  }
}
layer {
  name: "inception_4b/relu_5x5"
  type: "ReLU"
  bottom: "inception_4b/5x5"
  top: "inception_4b/5x5"
}
layer {
  name: "inception_4b/pool"
  type: "Pooling"
  bottom: "inception_4a/output"
  top: "inception_4b/pool"
  pooling_param {
    pool: MAX
    kernel_size: 3
    stride: 1
    pad: 1
  }
}
layer {
  name: "inception_4b/pool_proj"
  type: "Convolution"
  bottom: "inception_4b/pool"
  top: "inception_4b/pool_proj"
  param {
    lr_mult: 1
    decay_mult: 1
  }
  param {
    lr_mult: 2
    decay_mult: 0
  }
  convolution_param {
    num_output: 64
    kernel_size: 1
    weight_filler {
      type: "xavier"
      std: 0.1
    }
    bias_filler {
      type: "constant"
      value: 0.2
    }
  }
}
layer {
  name: "inception_4b/relu_pool_proj"
  type: "ReLU"
  bottom: "inception_4b/pool_proj"
  top: "inception_4b/pool_proj"
}
layer {
  name: "inception_4b/output"
  type: "Concat"
  bottom: "inception_4b/1x1"
  bottom: "inception_4b/3x3"
  bottom: "inception_4b/5x5"
  bottom: "inception_4b/pool_proj"
  top: "inception_4b/output"
}
layer {
  name: "inception_4c/1x1"
  type: "Convolution"
  bottom: "inception_4b/output"
  top: "inception_4c/1x1"
  param {
    lr_mult: 1
    decay_mult: 1
  }
  param {
    lr_mult: 2
    decay_mult: 0
  }
  convolution_param {
    num_output: 128
    kernel_size: 1
    weight_filler {
      type: "xavier"
      std: 0.03
    }
    bias_filler {
      type: "constant"
      value: 0.2
    }
  }
}
layer {
  name: "inception_4c/relu_1x1"
  type: "ReLU"
  bottom: "inception_4c/1x1"
  top: "inception_4c/1x1"
}
layer {
  name: "inception_4c/3x3_reduce"
  type: "Convolution"
  bottom: "inception_4b/output"
  top: "inception_4c/3x3_reduce"
  param {
    lr_mult: 1
    decay_mult: 1
  }
  param {
    lr_mult: 2
    decay_mult: 0
  }
  convolution_param {
    num_output: 128
    kernel_size: 1
    weight_filler {
      type: "xavier"
      std: 0.09
    }
    bias_filler {
      type: "constant"
      value: 0.2
    }
  }
}
layer {
  name: "inception_4c/relu_3x3_reduce"
  type: "ReLU"
  bottom: "inception_4c/3x3_reduce"
  top: "inception_4c/3x3_reduce"
}
layer {
  name: "inception_4c/3x3"
  type: "Convolution"
  bottom: "inception_4c/3x3_reduce"
  top: "inception_4c/3x3"
  param {
    lr_mult: 1
    decay_mult: 1
  }
  param {
    lr_mult: 2
    decay_mult: 0
  }
  convolution_param {
    num_output: 256
    pad: 1
    kernel_size: 3
    weight_filler {
      type: "xavier"
      std: 0.03
    }
    bias_filler {
      type: "constant"
      value: 0.2
    }
  }
}
layer {
  name: "inception_4c/relu_3x3"
  type: "ReLU"
  bottom: "inception_4c/3x3"
  top: "inception_4c/3x3"
}
layer {
  name: "inception_4c/5x5_reduce"
  type: "Convolution"
  bottom: "inception_4b/output"
  top: "inception_4c/5x5_reduce"
  param {
    lr_mult: 1
    decay_mult: 1
  }
  param {
    lr_mult: 2
    decay_mult: 0
  }
  convolution_param {
    num_output: 24
    kernel_size: 1
    weight_filler {
      type: "xavier"
      std: 0.2
    }
    bias_filler {
      type: "constant"
      value: 0.2
    }
  }
}
layer {
  name: "inception_4c/relu_5x5_reduce"
  type: "ReLU"
  bottom: "inception_4c/5x5_reduce"
  top: "inception_4c/5x5_reduce"
}
layer {
  name: "inception_4c/5x5"
  type: "Convolution"
  bottom: "inception_4c/5x5_reduce"
  top: "inception_4c/5x5"
  param {
    lr_mult: 1
    decay_mult: 1
  }
  param {
    lr_mult: 2
    decay_mult: 0
  }
  convolution_param {
    num_output: 64
    pad: 2
    kernel_size: 5
    weight_filler {
      type: "xavier"
      std: 0.03
    }
    bias_filler {
      type: "constant"
      value: 0.2
    }
  }
}
layer {
  name: "inception_4c/relu_5x5"
  type: "ReLU"
  bottom: "inception_4c/5x5"
  top: "inception_4c/5x5"
}
layer {
  name: "inception_4c/pool"
  type: "Pooling"
  bottom: "inception_4b/output"
  top: "inception_4c/pool"
  pooling_param {
    pool: MAX
    kernel_size: 3
    stride: 1
    pad: 1
  }
}
layer {
  name: "inception_4c/pool_proj"
  type: "Convolution"
  bottom: "inception_4c/pool"
  top: "inception_4c/pool_proj"
  param {
    lr_mult: 1
    decay_mult: 1
  }
  param {
    lr_mult: 2
    decay_mult: 0
  }
  convolution_param {
    num_output: 64
    kernel_size: 1
    weight_filler {
      type: "xavier"
      std: 0.1
    }
    bias_filler {
      type: "constant"
      value: 0.2
    }
  }
}
layer {
  name: "inception_4c/relu_pool_proj"
  type: "ReLU"
  bottom: "inception_4c/pool_proj"
  top: "inception_4c/pool_proj"
}
layer {
  name: "inception_4c/output"
  type: "Concat"
  bottom: "inception_4c/1x1"
  bottom: "inception_4c/3x3"
  bottom: "inception_4c/5x5"
  bottom: "inception_4c/pool_proj"
  top: "inception_4c/output"
}
layer {
  name: "inception_4d/1x1"
  type: "Convolution"
  bottom: "inception_4c/output"
  top: "inception_4d/1x1"
  param {
    lr_mult: 1
    decay_mult: 1
  }
  param {
    lr_mult: 2
    decay_mult: 0
  }
  convolution_param {
    num_output: 112
    kernel_size: 1
    weight_filler {
      type: "xavier"
      std: 0.03
    }
    bias_filler {
      type: "constant"
      value: 0.2
    }
  }
}
layer {
  name: "inception_4d/relu_1x1"
  type: "ReLU"
  bottom: "inception_4d/1x1"
  top: "inception_4d/1x1"
}
layer {
  name: "inception_4d/3x3_reduce"
  type: "Convolution"
  bottom: "inception_4c/output"
  top: "inception_4d/3x3_reduce"
  param {
    lr_mult: 1
    decay_mult: 1
  }
  param {
    lr_mult: 2
    decay_mult: 0
  }
  convolution_param {
    num_output: 144
    kernel_size: 1
    weight_filler {
      type: "xavier"
      std: 0.09
    }
    bias_filler {
      type: "constant"
      value: 0.2
    }
  }
}
layer {
  name: "inception_4d/relu_3x3_reduce"
  type: "ReLU"
  bottom: "inception_4d/3x3_reduce"
  top: "inception_4d/3x3_reduce"
}
layer {
  name: "inception_4d/3x3"
  type: "Convolution"
  bottom: "inception_4d/3x3_reduce"
  top: "inception_4d/3x3"
  param {
    lr_mult: 1
    decay_mult: 1
  }
  param {
    lr_mult: 2
    decay_mult: 0
  }
  convolution_param {
    num_output: 288
    pad: 1
    kernel_size: 3
    weight_filler {
      type: "xavier"
      std: 0.03
    }
    bias_filler {
      type: "constant"
      value: 0.2
    }
  }
}
layer {
  name: "inception_4d/relu_3x3"
  type: "ReLU"
  bottom: "inception_4d/3x3"
  top: "inception_4d/3x3"
}
layer {
  name: "inception_4d/5x5_reduce"
  type: "Convolution"
  bottom: "inception_4c/output"
  top: "inception_4d/5x5_reduce"
  param {
    lr_mult: 1
    decay_mult: 1
  }
  param {
    lr_mult: 2
    decay_mult: 0
  }
  convolution_param {
    num_output: 32
    kernel_size: 1
    weight_filler {
      type: "xavier"
      std: 0.2
    }
    bias_filler {
      type: "constant"
      value: 0.2
    }
  }
}
layer {
  name: "inception_4d/relu_5x5_reduce"
  type: "ReLU"
  bottom: "inception_4d/5x5_reduce"
  top: "inception_4d/5x5_reduce"
}
layer {
  name: "inception_4d/5x5"
  type: "Convolution"
  bottom: "inception_4d/5x5_reduce"
  top: "inception_4d/5x5"
  param {
    lr_mult: 1
    decay_mult: 1
  }
  param {
    lr_mult: 2
    decay_mult: 0
  }
  convolution_param {
    num_output: 64
    pad: 2
    kernel_size: 5
    weight_filler {
      type: "xavier"
      std: 0.03
    }
    bias_filler {
      type: "constant"
      value: 0.2
    }
  }
}
layer {
  name: "inception_4d/relu_5x5"
  type: "ReLU"
  bottom: "inception_4d/5x5"
  top: "inception_4d/5x5"
}
layer {
  name: "inception_4d/pool"
  type: "Pooling"
  bottom: "inception_4c/output"
  top: "inception_4d/pool"
  pooling_param {
    pool: MAX
    kernel_size: 3
    stride: 1
    pad: 1
  }
}
layer {
  name: "inception_4d/pool_proj"
  type: "Convolution"
  bottom: "inception_4d/pool"
  top: "inception_4d/pool_proj"
  param {
    lr_mult: 1
    decay_mult: 1
  }
  param {
    lr_mult: 2
    decay_mult: 0
  }
  convolution_param {
    num_output: 64
    kernel_size: 1
    weight_filler {
      type: "xavier"
      std: 0.1
    }
    bias_filler {
      type: "constant"
      value: 0.2
    }
  }
}
layer {
  name: "inception_4d/relu_pool_proj"
  type: "ReLU"
  bottom: "inception_4d/pool_proj"
  top: "inception_4d/pool_proj"
}
layer {
  name: "inception_4d/output"
  type: "Concat"
  bottom: "inception_4d/1x1"
  bottom: "inception_4d/3x3"
  bottom: "inception_4d/5x5"
  bottom: "inception_4d/pool_proj"
  top: "inception_4d/output"
}
layer {
  name: "inception_4e/1x1"
  type: "Convolution"
  bottom: "inception_4d/output"
  top: "inception_4e/1x1"
  param {
    lr_mult: 1
    decay_mult: 1
  }
  param {
    lr_mult: 2
    decay_mult: 0
  }
  convolution_param {
    num_output: 256
    kernel_size: 1
    weight_filler {
      type: "xavier"
      std: 0.03
    }
    bias_filler {
      type: "constant"
      value: 0.2
    }
  }
}
layer {
  name: "inception_4e/relu_1x1"
  type: "ReLU"
  bottom: "inception_4e/1x1"
  top: "inception_4e/1x1"
}
layer {
  name: "inception_4e/3x3_reduce"
  type: "Convolution"
  bottom: "inception_4d/output"
  top: "inception_4e/3x3_reduce"
  param {
    lr_mult: 1
    decay_mult: 1
  }
  param {
    lr_mult: 2
    decay_mult: 0
  }
  convolution_param {
    num_output: 160
    kernel_size: 1
    weight_filler {
      type: "xavier"
      std: 0.09
    }
    bias_filler {
      type: "constant"
      value: 0.2
    }
  }
}
layer {
  name: "inception_4e/relu_3x3_reduce"
  type: "ReLU"
  bottom: "inception_4e/3x3_reduce"
  top: "inception_4e/3x3_reduce"
}
layer {
  name: "inception_4e/3x3"
  type: "Convolution"
  bottom: "inception_4e/3x3_reduce"
  top: "inception_4e/3x3"
  param {
    lr_mult: 1
    decay_mult: 1
  }
  param {
    lr_mult: 2
    decay_mult: 0
  }
  convolution_param {
    num_output: 320
    pad: 1
    kernel_size: 3
    weight_filler {
      type: "xavier"
      std: 0.03
    }
    bias_filler {
      type: "constant"
      value: 0.2
    }
  }
}
layer {
  name: "inception_4e/relu_3x3"
  type: "ReLU"
  bottom: "inception_4e/3x3"
  top: "inception_4e/3x3"
}
layer {
  name: "inception_4e/5x5_reduce"
  type: "Convolution"
  bottom: "inception_4d/output"
  top: "inception_4e/5x5_reduce"
  param {
    lr_mult: 1
    decay_mult: 1
  }
  param {
    lr_mult: 2
    decay_mult: 0
  }
  convolution_param {
    num_output: 32
    kernel_size: 1
    weight_filler {
      type: "xavier"
      std: 0.2
    }
    bias_filler {
      type: "constant"
      value: 0.2
    }
  }
}
layer {
  name: "inception_4e/relu_5x5_reduce"
  type: "ReLU"
  bottom: "inception_4e/5x5_reduce"
  top: "inception_4e/5x5_reduce"
}
layer {
  name: "inception_4e/5x5"
  type: "Convolution"
  bottom: "inception_4e/5x5_reduce"
  top: "inception_4e/5x5"
  param {
    lr_mult: 1
    decay_mult: 1
  }
  param {
    lr_mult: 2
    decay_mult: 0
  }
  convolution_param {
    num_output: 128
    pad: 2
    kernel_size: 5
    weight_filler {
      type: "xavier"
      std: 0.03
    }
    bias_filler {
      type: "constant"
      value: 0.2
    }
  }
}
layer {
  name: "inception_4e/relu_5x5"
  type: "ReLU"
  bottom: "inception_4e/5x5"
  top: "inception_4e/5x5"
}
layer {
  name: "inception_4e/pool"
  type: "Pooling"
  bottom: "inception_4d/output"
  top: "inception_4e/pool"
  pooling_param {
    pool: MAX
    kernel_size: 3
    stride: 1
    pad: 1
  }
}
layer {
  name: "inception_4e/pool_proj"
  type: "Convolution"
  bottom: "inception_4e/pool"
  top: "inception_4e/pool_proj"
  param {
    lr_mult: 1
    decay_mult: 1
  }
  param {
    lr_mult: 2
    decay_mult: 0
  }
  convolution_param {
    num_output: 128
    kernel_size: 1
    weight_filler {
      type: "xavier"
      std: 0.1
    }
    bias_filler {
      type: "constant"
      value: 0.2
    }
  }
}
layer {
  name: "inception_4e/relu_pool_proj"
  type: "ReLU"
  bottom: "inception_4e/pool_proj"
  top: "inception_4e/pool_proj"
}
layer {
  name: "inception_4e/output"
  type: "Concat"
  bottom: "inception_4e/1x1"
  bottom: "inception_4e/3x3"
  bottom: "inception_4e/5x5"
  bottom: "inception_4e/pool_proj"
  top: "inception_4e/output"
}
layer {
  name: "pool4/3x3_s2"
  type: "Pooling"
  bottom: "inception_4e/output"
  top: "pool4/3x3_s2"
  pooling_param {
    pool: MAX
    kernel_size: 3
    stride: 2
  }
}
layer {
  name: "inception_5a/1x1"
  type: "Convolution"
  bottom: "pool4/3x3_s2"
  top: "inception_5a/1x1"
  param {
    lr_mult: 1
    decay_mult: 1
  }
  param {
    lr_mult: 2
    decay_mult: 0
  }
  convolution_param {
    num_output: 256
    kernel_size: 1
    weight_filler {
      type: "xavier"
      std: 0.03
    }
    bias_filler {
      type: "constant"
      value: 0.2
    }
  }
}
layer {
  name: "inception_5a/relu_1x1"
  type: "ReLU"
  bottom: "inception_5a/1x1"
  top: "inception_5a/1x1"
}
layer {
  name: "inception_5a/3x3_reduce"
  type: "Convolution"
  bottom: "pool4/3x3_s2"
  top: "inception_5a/3x3_reduce"
  param {
    lr_mult: 1
    decay_mult: 1
  }
  param {
    lr_mult: 2
    decay_mult: 0
  }
  convolution_param {
    num_output: 160
    kernel_size: 1
    weight_filler {
      type: "xavier"
      std: 0.09
    }
    bias_filler {
      type: "constant"
      value: 0.2
    }
  }
}
layer {
  name: "inception_5a/relu_3x3_reduce"
  type: "ReLU"
  bottom: "inception_5a/3x3_reduce"
  top: "inception_5a/3x3_reduce"
}
layer {
  name: "inception_5a/3x3"
  type: "Convolution"
  bottom: "inception_5a/3x3_reduce"
  top: "inception_5a/3x3"
  param {
    lr_mult: 1
    decay_mult: 1
  }
  param {
    lr_mult: 2
    decay_mult: 0
  }
  convolution_param {
    num_output: 320
    pad: 1
    kernel_size: 3
    weight_filler {
      type: "xavier"
      std: 0.03
    }
    bias_filler {
      type: "constant"
      value: 0.2
    }
  }
}
layer {
  name: "inception_5a/relu_3x3"
  type: "ReLU"
  bottom: "inception_5a/3x3"
  top: "inception_5a/3x3"
}
layer {
  name: "inception_5a/5x5_reduce"
  type: "Convolution"
  bottom: "pool4/3x3_s2"
  top: "inception_5a/5x5_reduce"
  param {
    lr_mult: 1
    decay_mult: 1
  }
  param {
    lr_mult: 2
    decay_mult: 0
  }
  convolution_param {
    num_output: 32
    kernel_size: 1
    weight_filler {
      type: "xavier"
      std: 0.2
    }
    bias_filler {
      type: "constant"
      value: 0.2
    }
I0714 21:15:38.334177 21302 layer_factory.hpp:77] Creating layer data
I0714 21:15:38.334209 21302 net.cpp:91] Creating Layer data
I0714 21:15:38.334223 21302 net.cpp:399] data -> data
I0714 21:15:38.341548 21298 net.cpp:49] Initializing net from parameters: 
name: "GoogleNet"
state {
  phase: TEST
}
layer {
  name: "data"
  type: "Input"
  top: "data"
  input_param {
    shape {
      dim: 10
      dim: 3
      dim: 224
      dim: 224
    }
  }
}
layer {
  name: "conv1/7x7_s2"
  type: "Convolution"
  bottom: "data"
  top: "conv1/7x7_s2"
  param {
    lr_mult: 1
    decay_mult: 1
  }
  param {
    lr_mult: 2
    decay_mult: 0
  }
  convolution_param {
    num_output: 64
    pad: 3
    kernel_size: 7
    stride: 2
    weight_filler {
      type: "xavier"
      std: 0.1
    }
    bias_filler {
      type: "constant"
      value: 0.2
    }
  }
}
layer {
  name: "conv1/relu_7x7"
  type: "ReLU"
  bottom: "conv1/7x7_s2"
  top: "conv1/7x7_s2"
}
layer {
  name: "pool1/3x3_s2"
  type: "Pooling"
  bottom: "conv1/7x7_s2"
  top: "pool1/3x3_s2"
  pooling_param {
    pool: MAX
    kernel_size: 3
    stride: 2
  }
}
layer {
  name: "pool1/norm1"
  type: "LRN"
  bottom: "pool1/3x3_s2"
  top: "pool1/norm1"
  lrn_param {
    local_size: 5
    alpha: 0.0001
    beta: 0.75
  }
}
layer {
  name: "conv2/3x3_reduce"
  type: "Convolution"
  bottom: "pool1/norm1"
  top: "conv2/3x3_reduce"
  param {
    lr_mult: 1
    decay_mult: 1
  }
  param {
    lr_mult: 2
    decay_mult: 0
  }
  convolution_param {
    num_output: 64
    kernel_size: 1
    weight_filler {
      type: "xavier"
      std: 0.1
    }
    bias_filler {
      type: "constant"
      value: 0.2
    }
  }
}
layer {
  name: "conv2/relu_3x3_reduce"
  type: "ReLU"
  bottom: "conv2/3x3_reduce"
  top: "conv2/3x3_reduce"
}
layer {
  name: "conv2/3x3"
  type: "Convolution"
  bottom: "conv2/3x3_reduce"
  top: "conv2/3x3"
  param {
    lr_mult: 1
    decay_mult: 1
  }
  param {
    lr_mult: 2
    decay_mult: 0
  }
  convolution_param {
    num_output: 192
    pad: 1
    kernel_size: 3
    weight_filler {
      type: "xavier"
      std: 0.03
    }
    bias_filler {
      type: "constant"
      value: 0.2
    }
  }
}
layer {
  name: "conv2/relu_3x3"
  type: "ReLU"
  bottom: "conv2/3x3"
  top: "conv2/3x3"
}
layer {
  name: "conv2/norm2"
  type: "LRN"
  bottom: "conv2/3x3"
  top: "conv2/norm2"
  lrn_param {
    local_size: 5
    alpha: 0.0001
    beta: 0.75
  }
}
layer {
  name: "pool2/3x3_s2"
  type: "Pooling"
  bottom: "conv2/norm2"
  top: "pool2/3x3_s2"
  pooling_param {
    pool: MAX
    kernel_size: 3
    stride: 2
  }
}
layer {
  name: "inception_3a/1x1"
  type: "Convolution"
  bottom: "pool2/3x3_s2"
  top: "inception_3a/1x1"
  param {
    lr_mult: 1
    decay_mult: 1
  }
  param {
    lr_mult: 2
    decay_mult: 0
  }
  convolution_param {
    num_output: 64
    kernel_size: 1
    weight_filler {
      type: "xavier"
      std: 0.03
    }
    bias_filler {
      type: "constant"
      value: 0.2
    }
  }
}
layer {
  name: "inception_3a/relu_1x1"
  type: "ReLU"
  bottom: "inception_3a/1x1"
  top: "inception_3a/1x1"
}
layer {
  name: "inception_3a/3x3_reduce"
  type: "Convolution"
  bottom: "pool2/3x3_s2"
  top: "inception_3a/3x3_reduce"
  param {
    lr_mult: 1
    decay_mult: 1
  }
  param {
    lr_mult: 2
    decay_mult: 0
  }
  convolution_param {
    num_output: 96
    kernel_size: 1
    weight_filler {
      type: "xavier"
      std: 0.09
    }
    bias_filler {
      type: "constant"
      value: 0.2
    }
  }
}
layer {
  name: "inception_3a/relu_3x3_reduce"
  type: "ReLU"
  bottom: "inception_3a/3x3_reduce"
  top: "inception_3a/3x3_reduce"
}
layer {
  name: "inception_3a/3x3"
  type: "Convolution"
  bottom: "inception_3a/3x3_reduce"
  top: "inception_3a/3x3"
  param {
    lr_mult: 1
    decay_mult: 1
  }
  param {
    lr_mult: 2
    decay_mult: 0
  }
  convolution_param {
    num_output: 128
    pad: 1
    kernel_size: 3
    weight_filler {
      type: "xavier"
      std: 0.03
    }
    bias_filler {
      type: "constant"
      value: 0.2
    }
  }
}
layer {
  name: "inception_3a/relu_3x3"
  type: "ReLU"
  bottom: "inception_3a/3x3"
  top: "inception_3a/3x3"
}
layer {
  name: "inception_3a/5x5_reduce"
  type: "Convolution"
  bottom: "pool2/3x3_s2"
  top: "inception_3a/5x5_reduce"
  param {
    lr_mult: 1
    decay_mult: 1
  }
  param {
    lr_mult: 2
    decay_mult: 0
  }
  convolution_param {
    num_output: 16
    kernel_size: 1
    weight_filler {
      type: "xavier"
      std: 0.2
    }
    bias_filler {
      type: "constant"
      value: 0.2
    }
  }
}
layer {
  name: "inception_3a/relu_5x5_reduce"
  type: "ReLU"
  bottom: "inception_3a/5x5_reduce"
  top: "inception_3a/5x5_reduce"
}
layer {
  name: "inception_3a/5x5"
  type: "Convolution"
  bottom: "inception_3a/5x5_reduce"
  top: "inception_3a/5x5"
  param {
    lr_mult: 1
    decay_mult: 1
  }
  param {
    lr_mult: 2
    decay_mult: 0
  }
  convolution_param {
    num_output: 32
    pad: 2
    kernel_size: 5
    weight_filler {
      type: "xavier"
      std: 0.03
    }
    bias_filler {
      type: "constant"
      value: 0.2
    }
  }
}
layer {
  name: "inception_3a/relu_5x5"
  type: "ReLU"
  bottom: "inception_3a/5x5"
  top: "inception_3a/5x5"
}
layer {
  name: "inception_3a/pool"
  type: "Pooling"
  bottom: "pool2/3x3_s2"
  top: "inception_3a/pool"
  pooling_param {
    pool: MAX
    kernel_size: 3
    stride: 1
    pad: 1
  }
}
layer {
  name: "inception_3a/pool_proj"
  type: "Convolution"
  bottom: "inception_3a/pool"
  top: "inception_3a/pool_proj"
  param {
    lr_mult: 1
    decay_mult: 1
  }
  param {
    lr_mult: 2
    decay_mult: 0
  }
  convolution_param {
    num_output: 32
    kernel_size: 1
    weight_filler {
      type: "xavier"
      std: 0.1
    }
    bias_filler {
      type: "constant"
      value: 0.2
    }
  }
}
layer {
  name: "inception_3a/relu_pool_proj"
  type: "ReLU"
  bottom: "inception_3a/pool_proj"
  top: "inception_3a/pool_proj"
}
layer {
  name: "inception_3a/output"
  type: "Concat"
  bottom: "inception_3a/1x1"
  bottom: "inception_3a/3x3"
  bottom: "inception_3a/5x5"
  bottom: "inception_3a/pool_proj"
  top: "inception_3a/output"
}
layer {
  name: "inception_3b/1x1"
  type: "Convolution"
  bottom: "inception_3a/output"
  top: "inception_3b/1x1"
  param {
    lr_mult: 1
    decay_mult: 1
  }
  param {
    lr_mult: 2
    decay_mult: 0
  }
  convolution_param {
    num_output: 128
    kernel_size: 1
    weight_filler {
      type: "xavier"
      std: 0.03
    }
    bias_filler {
      type: "constant"
      value: 0.2
    }
  }
}
layer {
  name: "inception_3b/relu_1x1"
  type: "ReLU"
  bottom: "inception_3b/1x1"
  top: "inception_3b/1x1"
}
layer {
  name: "inception_3b/3x3_reduce"
  type: "Convolution"
  bottom: "inception_3a/output"
  top: "inception_3b/3x3_reduce"
  param {
    lr_mult: 1
    decay_mult: 1
  }
  param {
    lr_mult: 2
    decay_mult: 0
  }
  convolution_param {
    num_output: 128
    kernel_size: 1
    weight_filler {
      type: "xavier"
      std: 0.09
    }
    bias_filler {
      type: "constant"
      value: 0.2
    }
  }
}
layer {
  name: "inception_3b/relu_3x3_reduce"
  type: "ReLU"
  bottom: "inception_3b/3x3_reduce"
  top: "inception_3b/3x3_reduce"
}
layer {
  name: "inception_3b/3x3"
  type: "Convolution"
  bottom: "inception_3b/3x3_reduce"
  top: "inception_3b/3x3"
  param {
    lr_mult: 1
    decay_mult: 1
  }
  param {
    lr_mult: 2
    decay_mult: 0
  }
  convolution_param {
    num_output: 192
    pad: 1
    kernel_size: 3
    weight_filler {
      type: "xavier"
      std: 0.03
    }
    bias_filler {
      type: "constant"
      value: 0.2
    }
  }
}
layer {
  name: "inception_3b/relu_3x3"
  type: "ReLU"
  bottom: "inception_3b/3x3"
  top: "inception_3b/3x3"
}
layer {
  name: "inception_3b/5x5_reduce"
  type: "Convolution"
  bottom: "inception_3a/output"
  top: "inception_3b/5x5_reduce"
  param {
    lr_mult: 1
    decay_mult: 1
  }
  param {
    lr_mult: 2
    decay_mult: 0
  }
  convolution_param {
    num_output: 32
    kernel_size: 1
    weight_filler {
      type: "xavier"
      std: 0.2
    }
    bias_filler {
      type: "constant"
      value: 0.2
    }
  }
}
layer {
  name: "inception_3b/relu_5x5_reduce"
  type: "ReLU"
  bottom: "inception_3b/5x5_reduce"
  top: "inception_3b/5x5_reduce"
}
layer {
  name: "inception_3b/5x5"
  type: "Convolution"
  bottom: "inception_3b/5x5_reduce"
  top: "inception_3b/5x5"
  param {
    lr_mult: 1
    decay_mult: 1
  }
  param {
    lr_mult: 2
    decay_mult: 0
  }
  convolution_param {
    num_output: 96
    pad: 2
    kernel_size: 5
    weight_filler {
      type: "xavier"
      std: 0.03
    }
    bias_filler {
      type: "constant"
      value: 0.2
    }
  }
}
layer {
  name: "inception_3b/relu_5x5"
  type: "ReLU"
  bottom: "inception_3b/5x5"
  top: "inception_3b/5x5"
}
layer {
  name: "inception_3b/pool"
  type: "Pooling"
  bottom: "inception_3a/output"
  top: "inception_3b/pool"
  pooling_param {
    pool: MAX
    kernel_size: 3
    stride: 1
    pad: 1
  }
}
layer {
  name: "inception_3b/pool_proj"
  type: "Convolution"
  bottom: "inception_3b/pool"
  top: "inception_3b/pool_proj"
  param {
    lr_mult: 1
    decay_mult: 1
  }
  param {
    lr_mult: 2
    decay_mult: 0
  }
  convolution_param {
    num_output: 64
    kernel_size: 1
    weight_filler {
      type: "xavier"
      std: 0.1
    }
    bias_filler {
      type: "constant"
      value: 0.2
    }
  }
}
layer {
  name: "inception_3b/relu_pool_proj"
  type: "ReLU"
  bottom: "inception_3b/pool_proj"
  top: "inception_3b/pool_proj"
}
layer {
  name: "inception_3b/output"
  type: "Concat"
  bottom: "inception_3b/1x1"
  bottom: "inception_3b/3x3"
  bottom: "inception_3b/5x5"
  bottom: "inception_3b/pool_proj"
  top: "inception_3b/output"
}
layer {
  name: "pool3/3x3_s2"
  type: "Pooling"
  bottom: "inception_3b/output"
  top: "pool3/3x3_s2"
  pooling_param {
    pool: MAX
    kernel_size: 3
    stride: 2
  }
}
layer {
  name: "inception_4a/1x1"
  type: "Convolution"
  bottom: "pool3/3x3_s2"
  top: "inception_4a/1x1"
  param {
    lr_mult: 1
    decay_mult: 1
  }
  param {
    lr_mult: 2
    decay_mult: 0
  }
  convolution_param {
    num_output: 192
    kernel_size: 1
    weight_filler {
      type: "xavier"
      std: 0.03
    }
    bias_filler {
      type: "constant"
      value: 0.2
    }
  }
}
layer {
  name: "inception_4a/relu_1x1"
  type: "ReLU"
  bottom: "inception_4a/1x1"
  top: "inception_4a/1x1"
}
layer {
  name: "inception_4a/3x3_reduce"
  type: "Convolution"
  bottom: "pool3/3x3_s2"
  top: "inception_4a/3x3_reduce"
  param {
    lr_mult: 1
    decay_mult: 1
  }
  param {
    lr_mult: 2
    decay_mult: 0
  }
  convolution_param {
    num_output: 96
    kernel_size: 1
    weight_filler {
      type: "xavier"
      std: 0.09
    }
    bias_filler {
      type: "constant"
      value: 0.2
    }
  }
}
layer {
  name: "inception_4a/relu_3x3_reduce"
  type: "ReLU"
  bottom: "inception_4a/3x3_reduce"
  top: "inception_4a/3x3_reduce"
}
layer {
  name: "inception_4a/3x3"
  type: "Convolution"
  bottom: "inception_4a/3x3_reduce"
  top: "inception_4a/3x3"
  param {
    lr_mult: 1
    decay_mult: 1
  }
  param {
    lr_mult: 2
    decay_mult: 0
  }
  convolution_param {
    num_output: 208
    pad: 1
    kernel_size: 3
    weight_filler {
      type: "xavier"
      std: 0.03
    }
    bias_filler {
      type: "constant"
      value: 0.2
    }
  }
}
layer {
  name: "inception_4a/relu_3x3"
  type: "ReLU"
  bottom: "inception_4a/3x3"
  top: "inception_4a/3x3"
}
layer {
  name: "inception_4a/5x5_reduce"
  type: "Convolution"
  bottom: "pool3/3x3_s2"
  top: "inception_4a/5x5_reduce"
  param {
    lr_mult: 1
    decay_mult: 1
  }
  param {
    lr_mult: 2
    decay_mult: 0
  }
  convolution_param {
    num_output: 16
    kernel_size: 1
    weight_filler {
      type: "xavier"
      std: 0.2
    }
    bias_filler {
      type: "constant"
      value: 0.2
    }
  }
}
layer {
  name: "inception_4a/relu_5x5_reduce"
  type: "ReLU"
  bottom: "inception_4a/5x5_reduce"
  top: "inception_4a/5x5_reduce"
}
layer {
  name: "inception_4a/5x5"
  type: "Convolution"
  bottom: "inception_4a/5x5_reduce"
  top: "inception_4a/5x5"
  param {
    lr_mult: 1
    decay_mult: 1
  }
  param {
    lr_mult: 2
    decay_mult: 0
  }
  convolution_param {
    num_output: 48
    pad: 2
    kernel_size: 5
    weight_filler {
      type: "xavier"
      std: 0.03
    }
    bias_filler {
      type: "constant"
      value: 0.2
    }
  }
}
layer {
  name: "inception_4a/relu_5x5"
  type: "ReLU"
  bottom: "inception_4a/5x5"
  top: "inception_4a/5x5"
}
layer {
  name: "inception_4a/pool"
  type: "Pooling"
  bottom: "pool3/3x3_s2"
  top: "inception_4a/pool"
  pooling_param {
    pool: MAX
    kernel_size: 3
    stride: 1
    pad: 1
  }
}
layer {
  name: "inception_4a/pool_proj"
  type: "Convolution"
  bottom: "inception_4a/pool"
  top: "inception_4a/pool_proj"
  param {
    lr_mult: 1
    decay_mult: 1
  }
  param {
    lr_mult: 2
    decay_mult: 0
  }
  convolution_param {
    num_output: 64
    kernel_size: 1
    weight_filler {
      type: "xavier"
      std: 0.1
    }
    bias_filler {
      type: "constant"
      value: 0.2
    }
  }
}
layer {
  name: "inception_4a/relu_pool_proj"
  type: "ReLU"
  bottom: "inception_4a/pool_proj"
  top: "inception_4a/pool_proj"
}
layer {
  name: "inception_4a/output"
  type: "Concat"
  bottom: "inception_4a/1x1"
  bottom: "inception_4a/3x3"
  bottom: "inception_4a/5x5"
  bottom: "inception_4a/pool_proj"
  top: "inception_4a/output"
}
layer {
  name: "inception_4b/1x1"
  type: "Convolution"
  bottom: "inception_4a/output"
  top: "inception_4b/1x1"
  param {
    lr_mult: 1
    decay_mult: 1
  }
  param {
    lr_mult: 2
    decay_mult: 0
  }
  convolution_param {
    num_output: 160
    kernel_size: 1
    weight_filler {
      type: "xavier"
      std: 0.03
    }
    bias_filler {
      type: "constant"
      value: 0.2
    }
  }
}
layer {
  name: "inception_4b/relu_1x1"
  type: "ReLU"
  bottom: "inception_4b/1x1"
  top: "inception_4b/1x1"
}
layer {
  name: "inception_4b/3x3_reduce"
  type: "Convolution"
  bottom: "inception_4a/output"
  top: "inception_4b/3x3_reduce"
  param {
    lr_mult: 1
    decay_mult: 1
  }
  param {
    lr_mult: 2
    decay_mult: 0
  }
  convolution_param {
    num_output: 112
    kernel_size: 1
    weight_filler {
      type: "xavier"
      std: 0.09
    }
    bias_filler {
      type: "constant"
      value: 0.2
    }
  }
}
layer {
  name: "inception_4b/relu_3x3_reduce"
  type: "ReLU"
  bottom: "inception_4b/3x3_reduce"
  top: "inception_4b/3x3_reduce"
}
layer {
  name: "inception_4b/3x3"
  type: "Convolution"
  bottom: "inception_4b/3x3_reduce"
  top: "inception_4b/3x3"
  param {
    lr_mult: 1
    decay_mult: 1
  }
  param {
    lr_mult: 2
    decay_mult: 0
  }
  convolution_param {
    num_output: 224
    pad: 1
    kernel_size: 3
    weight_filler {
      type: "xavier"
      std: 0.03
    }
    bias_filler {
      type: "constant"
      value: 0.2
    }
  }
}
layer {
  name: "inception_4b/relu_3x3"
  type: "ReLU"
  bottom: "inception_4b/3x3"
  top: "inception_4b/3x3"
}
layer {
  name: "inception_4b/5x5_reduce"
  type: "Convolution"
  bottom: "inception_4a/output"
  top: "inception_4b/5x5_reduce"
  param {
    lr_mult: 1
    decay_mult: 1
  }
  param {
    lr_mult: 2
    decay_mult: 0
  }
  convolution_param {
    num_output: 24
    kernel_size: 1
    weight_filler {
      type: "xavier"
      std: 0.2
    }
    bias_filler {
      type: "constant"
      value: 0.2
    }
  }
}
layer {
  name: "inception_4b/relu_5x5_reduce"
  type: "ReLU"
  bottom: "inception_4b/5x5_reduce"
  top: "inception_4b/5x5_reduce"
}
layer {
  name: "inception_4b/5x5"
  type: "Convolution"
  bottom: "inception_4b/5x5_reduce"
  top: "inception_4b/5x5"
  param {
    lr_mult: 1
    decay_mult: 1
  }
  param {
    lr_mult: 2
    decay_mult: 0
  }
  convolution_param {
    num_output: 64
    pad: 2
    kernel_size: 5
    weight_filler {
      type: "xavier"
      std: 0.03
    }
    bias_filler {
      type: "constant"
      value: 0.2
    }
  }
}
layer {
  name: "inception_4b/relu_5x5"
  type: "ReLU"
  bottom: "inception_4b/5x5"
  top: "inception_4b/5x5"
}
layer {
  name: "inception_4b/pool"
  type: "Pooling"
  bottom: "inception_4a/output"
  top: "inception_4b/pool"
  pooling_param {
    pool: MAX
    kernel_size: 3
    stride: 1
    pad: 1
  }
}
layer {
  name: "inception_4b/pool_proj"
  type: "Convolution"
  bottom: "inception_4b/pool"
  top: "inception_4b/pool_proj"
  param {
    lr_mult: 1
    decay_mult: 1
  }
  param {
    lr_mult: 2
    decay_mult: 0
  }
  convolution_param {
    num_output: 64
    kernel_size: 1
    weight_filler {
      type: "xavier"
      std: 0.1
    }
    bias_filler {
      type: "constant"
      value: 0.2
    }
  }
}
layer {
  name: "inception_4b/relu_pool_proj"
  type: "ReLU"
  bottom: "inception_4b/pool_proj"
  top: "inception_4b/pool_proj"
}
layer {
  name: "inception_4b/output"
  type: "Concat"
  bottom: "inception_4b/1x1"
  bottom: "inception_4b/3x3"
  bottom: "inception_4b/5x5"
  bottom: "inception_4b/pool_proj"
  top: "inception_4b/output"
}
layer {
  name: "inception_4c/1x1"
  type: "Convolution"
  bottom: "inception_4b/output"
  top: "inception_4c/1x1"
  param {
    lr_mult: 1
    decay_mult: 1
  }
  param {
    lr_mult: 2
    decay_mult: 0
  }
  convolution_param {
    num_output: 128
    kernel_size: 1
    weight_filler {
      type: "xavier"
      std: 0.03
    }
    bias_filler {
      type: "constant"
      value: 0.2
    }
  }
}
layer {
  name: "inception_4c/relu_1x1"
  type: "ReLU"
  bottom: "inception_4c/1x1"
  top: "inception_4c/1x1"
}
layer {
  name: "inception_4c/3x3_reduce"
  type: "Convolution"
  bottom: "inception_4b/output"
  top: "inception_4c/3x3_reduce"
  param {
    lr_mult: 1
    decay_mult: 1
  }
  param {
    lr_mult: 2
    decay_mult: 0
  }
  convolution_param {
    num_output: 128
    kernel_size: 1
    weight_filler {
      type: "xavier"
      std: 0.09
    }
    bias_filler {
      type: "constant"
      value: 0.2
    }
  }
}
layer {
  name: "inception_4c/relu_3x3_reduce"
  type: "ReLU"
  bottom: "inception_4c/3x3_reduce"
  top: "inception_4c/3x3_reduce"
}
layer {
  name: "inception_4c/3x3"
  type: "Convolution"
  bottom: "inception_4c/3x3_reduce"
  top: "inception_4c/3x3"
  param {
    lr_mult: 1
    decay_mult: 1
  }
  param {
    lr_mult: 2
    decay_mult: 0
  }
  convolution_param {
    num_output: 256
    pad: 1
    kernel_size: 3
    weight_filler {
      type: "xavier"
      std: 0.03
    }
    bias_filler {
      type: "constant"
      value: 0.2
    }
  }
}
layer {
  name: "inception_4c/relu_3x3"
  type: "ReLU"
  bottom: "inception_4c/3x3"
  top: "inception_4c/3x3"
}
layer {
  name: "inception_4c/5x5_reduce"
  type: "Convolution"
  bottom: "inception_4b/output"
  top: "inception_4c/5x5_reduce"
  param {
    lr_mult: 1
    decay_mult: 1
  }
  param {
    lr_mult: 2
    decay_mult: 0
  }
  convolution_param {
    num_output: 24
    kernel_size: 1
    weight_filler {
      type: "xavier"
      std: 0.2
    }
    bias_filler {
      type: "constant"
      value: 0.2
    }
  }
}
layer {
  name: "inception_4c/relu_5x5_reduce"
  type: "ReLU"
  bottom: "inception_4c/5x5_reduce"
  top: "inception_4c/5x5_reduce"
}
layer {
  name: "inception_4c/5x5"
  type: "Convolution"
  bottom: "inception_4c/5x5_reduce"
  top: "inception_4c/5x5"
  param {
    lr_mult: 1
    decay_mult: 1
  }
  param {
    lr_mult: 2
    decay_mult: 0
  }
  convolution_param {
    num_output: 64
    pad: 2
    kernel_size: 5
    weight_filler {
      type: "xavier"
      std: 0.03
    }
    bias_filler {
      type: "constant"
      value: 0.2
    }
  }
}
layer {
  name: "inception_4c/relu_5x5"
  type: "ReLU"
  bottom: "inception_4c/5x5"
  top: "inception_4c/5x5"
}
layer {
  name: "inception_4c/pool"
  type: "Pooling"
  bottom: "inception_4b/output"
  top: "inception_4c/pool"
  pooling_param {
    pool: MAX
    kernel_size: 3
    stride: 1
    pad: 1
  }
}
layer {
  name: "inception_4c/pool_proj"
  type: "Convolution"
  bottom: "inception_4c/pool"
  top: "inception_4c/pool_proj"
  param {
    lr_mult: 1
    decay_mult: 1
  }
  param {
    lr_mult: 2
    decay_mult: 0
  }
  convolution_param {
    num_output: 64
    kernel_size: 1
    weight_filler {
      type: "xavier"
      std: 0.1
    }
    bias_filler {
      type: "constant"
      value: 0.2
    }
  }
}
layer {
  name: "inception_4c/relu_pool_proj"
  type: "ReLU"
  bottom: "inception_4c/pool_proj"
  top: "inception_4c/pool_proj"
}
layer {
  name: "inception_4c/output"
  type: "Concat"
  bottom: "inception_4c/1x1"
  bottom: "inception_4c/3x3"
  bottom: "inception_4c/5x5"
  bottom: "inception_4c/pool_proj"
  top: "inception_4c/output"
}
layer {
  name: "inception_4d/1x1"
  type: "Convolution"
  bottom: "inception_4c/output"
  top: "inception_4d/1x1"
  param {
    lr_mult: 1
    decay_mult: 1
  }
  param {
    lr_mult: 2
    decay_mult: 0
  }
  convolution_param {
    num_output: 112
    kernel_size: 1
    weight_filler {
      type: "xavier"
      std: 0.03
    }
    bias_filler {
      type: "constant"
      value: 0.2
    }
  }
}
layer {
  name: "inception_4d/relu_1x1"
  type: "ReLU"
  bottom: "inception_4d/1x1"
  top: "inception_4d/1x1"
}
layer {
  name: "inception_4d/3x3_reduce"
  type: "Convolution"
  bottom: "inception_4c/output"
  top: "inception_4d/3x3_reduce"
  param {
    lr_mult: 1
    decay_mult: 1
  }
  param {
    lr_mult: 2
    decay_mult: 0
  }
  convolution_param {
    num_output: 144
    kernel_size: 1
    weight_filler {
      type: "xavier"
      std: 0.09
    }
    bias_filler {
      type: "constant"
      value: 0.2
    }
  }
}
layer {
  name: "inception_4d/relu_3x3_reduce"
  type: "ReLU"
  bottom: "inception_4d/3x3_reduce"
  top: "inception_4d/3x3_reduce"
}
layer {
  name: "inception_4d/3x3"
  type: "Convolution"
  bottom: "inception_4d/3x3_reduce"
  top: "inception_4d/3x3"
  param {
    lr_mult: 1
    decay_mult: 1
  }
  param {
    lr_mult: 2
    decay_mult: 0
  }
  convolution_param {
    num_output: 288
    pad: 1
    kernel_size: 3
    weight_filler {
      type: "xavier"
      std: 0.03
    }
    bias_filler {
      type: "constant"
      value: 0.2
    }
  }
}
layer {
  name: "inception_4d/relu_3x3"
  type: "ReLU"
  bottom: "inception_4d/3x3"
  top: "inception_4d/3x3"
}
layer {
  name: "inception_4d/5x5_reduce"
  type: "Convolution"
  bottom: "inception_4c/output"
  top: "inception_4d/5x5_reduce"
  param {
    lr_mult: 1
    decay_mult: 1
  }
  param {
    lr_mult: 2
    decay_mult: 0
  }
  convolution_param {
    num_output: 32
    kernel_size: 1
    weight_filler {
      type: "xavier"
      std: 0.2
    }
    bias_filler {
      type: "constant"
      value: 0.2
    }
  }
}
layer {
  name: "inception_4d/relu_5x5_reduce"
  type: "ReLU"
  bottom: "inception_4d/5x5_reduce"
  top: "inception_4d/5x5_reduce"
}
layer {
  name: "inception_4d/5x5"
  type: "Convolution"
  bottom: "inception_4d/5x5_reduce"
  top: "inception_4d/5x5"
  param {
    lr_mult: 1
    decay_mult: 1
  }
  param {
    lr_mult: 2
    decay_mult: 0
  }
  convolution_param {
    num_output: 64
    pad: 2
    kernel_size: 5
    weight_filler {
      type: "xavier"
      std: 0.03
    }
    bias_filler {
      type: "constant"
      value: 0.2
    }
  }
}
layer {
  name: "inception_4d/relu_5x5"
  type: "ReLU"
  bottom: "inception_4d/5x5"
  top: "inception_4d/5x5"
}
layer {
  name: "inception_4d/pool"
  type: "Pooling"
  bottom: "inception_4c/output"
  top: "inception_4d/pool"
  pooling_param {
    pool: MAX
    kernel_size: 3
    stride: 1
    pad: 1
  }
}
layer {
  name: "inception_4d/pool_proj"
  type: "Convolution"
  bottom: "inception_4d/pool"
  top: "inception_4d/pool_proj"
  param {
    lr_mult: 1
    decay_mult: 1
  }
  param {
    lr_mult: 2
    decay_mult: 0
  }
  convolution_param {
    num_output: 64
    kernel_size: 1
    weight_filler {
      type: "xavier"
      std: 0.1
    }
    bias_filler {
      type: "constant"
      value: 0.2
    }
  }
}
layer {
  name: "inception_4d/relu_pool_proj"
  type: "ReLU"
  bottom: "inception_4d/pool_proj"
  top: "inception_4d/pool_proj"
}
layer {
  name: "inception_4d/output"
  type: "Concat"
  bottom: "inception_4d/1x1"
  bottom: "inception_4d/3x3"
  bottom: "inception_4d/5x5"
  bottom: "inception_4d/pool_proj"
  top: "inception_4d/output"
}
layer {
  name: "inception_4e/1x1"
  type: "Convolution"
  bottom: "inception_4d/output"
  top: "inception_4e/1x1"
  param {
    lr_mult: 1
    decay_mult: 1
  }
  param {
    lr_mult: 2
    decay_mult: 0
  }
  convolution_param {
    num_output: 256
    kernel_size: 1
    weight_filler {
      type: "xavier"
      std: 0.03
    }
    bias_filler {
      type: "constant"
      value: 0.2
    }
  }
}
layer {
  name: "inception_4e/relu_1x1"
  type: "ReLU"
  bottom: "inception_4e/1x1"
  top: "inception_4e/1x1"
}
layer {
  name: "inception_4e/3x3_reduce"
  type: "Convolution"
  bottom: "inception_4d/output"
  top: "inception_4e/3x3_reduce"
  param {
    lr_mult: 1
    decay_mult: 1
  }
  param {
    lr_mult: 2
    decay_mult: 0
  }
  convolution_param {
    num_output: 160
    kernel_size: 1
    weight_filler {
      type: "xavier"
      std: 0.09
    }
    bias_filler {
      type: "constant"
      value: 0.2
    }
  }
}
layer {
  name: "inception_4e/relu_3x3_reduce"
  type: "ReLU"
  bottom: "inception_4e/3x3_reduce"
  top: "inception_4e/3x3_reduce"
}
layer {
  name: "inception_4e/3x3"
  type: "Convolution"
  bottom: "inception_4e/3x3_reduce"
  top: "inception_4e/3x3"
  param {
    lr_mult: 1
    decay_mult: 1
  }
  param {
    lr_mult: 2
    decay_mult: 0
  }
  convolution_param {
    num_output: 320
    pad: 1
    kernel_size: 3
    weight_filler {
      type: "xavier"
      std: 0.03
    }
    bias_filler {
      type: "constant"
      value: 0.2
    }
  }
}
layer {
  name: "inception_4e/relu_3x3"
  type: "ReLU"
  bottom: "inception_4e/3x3"
  top: "inception_4e/3x3"
}
layer {
  name: "inception_4e/5x5_reduce"
  type: "Convolution"
  bottom: "inception_4d/output"
  top: "inception_4e/5x5_reduce"
  param {
    lr_mult: 1
    decay_mult: 1
  }
  param {
    lr_mult: 2
    decay_mult: 0
  }
  convolution_param {
    num_output: 32
    kernel_size: 1
    weight_filler {
      type: "xavier"
      std: 0.2
    }
    bias_filler {
      type: "constant"
      value: 0.2
    }
  }
}
layer {
  name: "inception_4e/relu_5x5_reduce"
  type: "ReLU"
  bottom: "inception_4e/5x5_reduce"
  top: "inception_4e/5x5_reduce"
}
layer {
  name: "inception_4e/5x5"
  type: "Convolution"
  bottom: "inception_4e/5x5_reduce"
  top: "inception_4e/5x5"
  param {
    lr_mult: 1
    decay_mult: 1
  }
  param {
    lr_mult: 2
    decay_mult: 0
  }
  convolution_param {
    num_output: 128
    pad: 2
    kernel_size: 5
    weight_filler {
      type: "xavier"
      std: 0.03
    }
    bias_filler {
      type: "constant"
      value: 0.2
    }
  }
}
layer {
  name: "inception_4e/relu_5x5"
  type: "ReLU"
  bottom: "inception_4e/5x5"
  top: "inception_4e/5x5"
}
layer {
  name: "inception_4e/pool"
  type: "Pooling"
  bottom: "inception_4d/output"
  top: "inception_4e/pool"
  pooling_param {
    pool: MAX
    kernel_size: 3
    stride: 1
    pad: 1
  }
}
layer {
  name: "inception_4e/pool_proj"
  type: "Convolution"
  bottom: "inception_4e/pool"
  top: "inception_4e/pool_proj"
  param {
    lr_mult: 1
    decay_mult: 1
  }
  param {
    lr_mult: 2
    decay_mult: 0
  }
  convolution_param {
    num_output: 128
    kernel_size: 1
    weight_filler {
      type: "xavier"
      std: 0.1
    }
    bias_filler {
      type: "constant"
      value: 0.2
    }
  }
}
layer {
  name: "inception_4e/relu_pool_proj"
  type: "ReLU"
  bottom: "inception_4e/pool_proj"
  top: "inception_4e/pool_proj"
}
layer {
  name: "inception_4e/output"
  type: "Concat"
  bottom: "inception_4e/1x1"
  bottom: "inception_4e/3x3"
  bottom: "inception_4e/5x5"
  bottom: "inception_4e/pool_proj"
  top: "inception_4e/output"
}
layer {
  name: "pool4/3x3_s2"
  type: "Pooling"
  bottom: "inception_4e/output"
  top: "pool4/3x3_s2"
  pooling_param {
    pool: MAX
    kernel_size: 3
    stride: 2
  }
}
layer {
  name: "inception_5a/1x1"
  type: "Convolution"
  bottom: "pool4/3x3_s2"
  top: "inception_5a/1x1"
  param {
    lr_mult: 1
    decay_mult: 1
  }
  param {
    lr_mult: 2
    decay_mult: 0
  }
  convolution_param {
    num_output: 256
    kernel_size: 1
    weight_filler {
      type: "xavier"
      std: 0.03
    }
    bias_filler {
      type: "constant"
      value: 0.2
    }
  }
}
layer {
  name: "inception_5a/relu_1x1"
  type: "ReLU"
  bottom: "inception_5a/1x1"
  top: "inception_5a/1x1"
}
layer {
  name: "inception_5a/3x3_reduce"
  type: "Convolution"
  bottom: "pool4/3x3_s2"
  top: "inception_5a/3x3_reduce"
  param {
    lr_mult: 1
    decay_mult: 1
  }
  param {
    lr_mult: 2
    decay_mult: 0
  }
  convolution_param {
    num_output: 160
    kernel_size: 1
    weight_filler {
      type: "xavier"
      std: 0.09
    }
    bias_filler {
      type: "constant"
      value: 0.2
    }
  }
}
layer {
  name: "inception_5a/relu_3x3_reduce"
  type: "ReLU"
  bottom: "inception_5a/3x3_reduce"
  top: "inception_5a/3x3_reduce"
}
layer {
  name: "inception_5a/3x3"
  type: "Convolution"
  bottom: "inception_5a/3x3_reduce"
  top: "inception_5a/3x3"
  param {
    lr_mult: 1
    decay_mult: 1
  }
  param {
    lr_mult: 2
    decay_mult: 0
  }
  convolution_param {
    num_output: 320
    pad: 1
    kernel_size: 3
    weight_filler {
      type: "xavier"
      std: 0.03
    }
    bias_filler {
      type: "constant"
      value: 0.2
    }
  }
}
layer {
  name: "inception_5a/relu_3x3"
  type: "ReLU"
  bottom: "inception_5a/3x3"
  top: "inception_5a/3x3"
}
layer {
  name: "inception_5a/5x5_reduce"
  type: "Convolution"
  bottom: "pool4/3x3_s2"
  top: "inception_5a/5x5_reduce"
  param {
    lr_mult: 1
    decay_mult: 1
  }
  param {
    lr_mult: 2
    decay_mult: 0
  }
  convolution_param {
    num_output: 32
    kernel_size: 1
    weight_filler {
      type: "xavier"
      std: 0.2
    }
    bias_filler {
      type: "constant"
      value: 0.2
    }
I0714 21:15:38.342474 21298 layer_factory.hpp:77] Creating layer data
I0714 21:15:38.342496 21298 net.cpp:91] Creating Layer data
I0714 21:15:38.342504 21298 net.cpp:399] data -> data
I0714 21:15:39.528350 21302 net.cpp:141] Setting up data
I0714 21:15:39.528465 21302 net.cpp:148] Top shape: 10 3 224 224 (1505280)
I0714 21:15:39.528475 21302 net.cpp:156] Memory required for data: 6021120
I0714 21:15:39.528501 21302 layer_factory.hpp:77] Creating layer conv1/7x7_s2
I0714 21:15:39.528558 21302 net.cpp:91] Creating Layer conv1/7x7_s2
I0714 21:15:39.528569 21302 net.cpp:425] conv1/7x7_s2 <- data
I0714 21:15:39.528590 21302 net.cpp:399] conv1/7x7_s2 -> conv1/7x7_s2
I0714 21:15:39.539075 21298 net.cpp:141] Setting up data
I0714 21:15:39.539108 21298 net.cpp:148] Top shape: 10 3 224 224 (1505280)
I0714 21:15:39.539114 21298 net.cpp:156] Memory required for data: 6021120
I0714 21:15:39.539122 21298 layer_factory.hpp:77] Creating layer conv1/7x7_s2
I0714 21:15:39.539149 21298 net.cpp:91] Creating Layer conv1/7x7_s2
I0714 21:15:39.539155 21298 net.cpp:425] conv1/7x7_s2 <- data
I0714 21:15:39.539165 21298 net.cpp:399] conv1/7x7_s2 -> conv1/7x7_s2
I0714 21:15:40.030664 21302 net.cpp:141] Setting up conv1/7x7_s2
I0714 21:15:40.030748 21302 net.cpp:148] Top shape: 10 64 112 112 (8028160)
I0714 21:15:40.030761 21302 net.cpp:156] Memory required for data: 38133760
I0714 21:15:40.030803 21302 layer_factory.hpp:77] Creating layer conv1/relu_7x7
I0714 21:15:40.030832 21302 net.cpp:91] Creating Layer conv1/relu_7x7
I0714 21:15:40.030846 21302 net.cpp:425] conv1/relu_7x7 <- conv1/7x7_s2
I0714 21:15:40.030864 21302 net.cpp:386] conv1/relu_7x7 -> conv1/7x7_s2 (in-place)
I0714 21:15:40.032683 21302 net.cpp:141] Setting up conv1/relu_7x7
I0714 21:15:40.032693 21298 net.cpp:141] Setting up conv1/7x7_s2
I0714 21:15:40.032709 21302 net.cpp:148] Top shape: 10 64 112 112 (8028160)
I0714 21:15:40.032721 21302 net.cpp:156] Memory required for data: 70246400
I0714 21:15:40.032721 21298 net.cpp:148] Top shape: 10 64 112 112 (8028160)
I0714 21:15:40.032732 21302 layer_factory.hpp:77] Creating layer pool1/3x3_s2
I0714 21:15:40.032735 21298 net.cpp:156] Memory required for data: 38133760
I0714 21:15:40.032754 21302 net.cpp:91] Creating Layer pool1/3x3_s2
I0714 21:15:40.032765 21302 net.cpp:425] pool1/3x3_s2 <- conv1/7x7_s2
I0714 21:15:40.032763 21298 layer_factory.hpp:77] Creating layer conv1/relu_7x7
I0714 21:15:40.032785 21302 net.cpp:399] pool1/3x3_s2 -> pool1/3x3_s2
I0714 21:15:40.032799 21298 net.cpp:91] Creating Layer conv1/relu_7x7
I0714 21:15:40.032814 21298 net.cpp:425] conv1/relu_7x7 <- conv1/7x7_s2
I0714 21:15:40.032829 21298 net.cpp:386] conv1/relu_7x7 -> conv1/7x7_s2 (in-place)
I0714 21:15:40.034116 21302 net.cpp:141] Setting up pool1/3x3_s2
I0714 21:15:40.034143 21302 net.cpp:148] Top shape: 10 64 56 56 (2007040)
I0714 21:15:40.034152 21302 net.cpp:156] Memory required for data: 78274560
I0714 21:15:40.034163 21302 layer_factory.hpp:77] Creating layer pool1/norm1
I0714 21:15:40.034160 21298 net.cpp:141] Setting up conv1/relu_7x7
I0714 21:15:40.034185 21298 net.cpp:148] Top shape: 10 64 112 112 (8028160)
I0714 21:15:40.034198 21298 net.cpp:156] Memory required for data: 70246400
I0714 21:15:40.034204 21302 net.cpp:91] Creating Layer pool1/norm1
I0714 21:15:40.034209 21298 layer_factory.hpp:77] Creating layer pool1/3x3_s2
I0714 21:15:40.034215 21302 net.cpp:425] pool1/norm1 <- pool1/3x3_s2
I0714 21:15:40.034226 21298 net.cpp:91] Creating Layer pool1/3x3_s2
I0714 21:15:40.034234 21302 net.cpp:399] pool1/norm1 -> pool1/norm1
I0714 21:15:40.034240 21298 net.cpp:425] pool1/3x3_s2 <- conv1/7x7_s2
I0714 21:15:40.034256 21298 net.cpp:399] pool1/3x3_s2 -> pool1/3x3_s2
I0714 21:15:40.035420 21298 net.cpp:141] Setting up pool1/3x3_s2
I0714 21:15:40.035444 21298 net.cpp:148] Top shape: 10 64 56 56 (2007040)
I0714 21:15:40.035454 21298 net.cpp:156] Memory required for data: 78274560
I0714 21:15:40.035466 21298 layer_factory.hpp:77] Creating layer pool1/norm1
I0714 21:15:40.035498 21298 net.cpp:91] Creating Layer pool1/norm1
I0714 21:15:40.035511 21298 net.cpp:425] pool1/norm1 <- pool1/3x3_s2
I0714 21:15:40.035529 21298 net.cpp:399] pool1/norm1 -> pool1/norm1
I0714 21:15:40.036741 21302 net.cpp:141] Setting up pool1/norm1
I0714 21:15:40.036761 21302 net.cpp:148] Top shape: 10 64 56 56 (2007040)
I0714 21:15:40.036768 21302 net.cpp:156] Memory required for data: 86302720
I0714 21:15:40.036774 21302 layer_factory.hpp:77] Creating layer conv2/3x3_reduce
I0714 21:15:40.036804 21302 net.cpp:91] Creating Layer conv2/3x3_reduce
I0714 21:15:40.036811 21302 net.cpp:425] conv2/3x3_reduce <- pool1/norm1
I0714 21:15:40.036821 21302 net.cpp:399] conv2/3x3_reduce -> conv2/3x3_reduce
I0714 21:15:40.037144 21298 net.cpp:141] Setting up pool1/norm1
I0714 21:15:40.037168 21298 net.cpp:148] Top shape: 10 64 56 56 (2007040)
I0714 21:15:40.037179 21298 net.cpp:156] Memory required for data: 86302720
I0714 21:15:40.037190 21298 layer_factory.hpp:77] Creating layer conv2/3x3_reduce
I0714 21:15:40.037225 21298 net.cpp:91] Creating Layer conv2/3x3_reduce
I0714 21:15:40.037238 21298 net.cpp:425] conv2/3x3_reduce <- pool1/norm1
I0714 21:15:40.037257 21298 net.cpp:399] conv2/3x3_reduce -> conv2/3x3_reduce
I0714 21:15:40.044144 21302 net.cpp:141] Setting up conv2/3x3_reduce
I0714 21:15:40.044168 21302 net.cpp:148] Top shape: 10 64 56 56 (2007040)
I0714 21:15:40.044174 21302 net.cpp:156] Memory required for data: 94330880
I0714 21:15:40.044188 21302 layer_factory.hpp:77] Creating layer conv2/relu_3x3_reduce
I0714 21:15:40.044203 21302 net.cpp:91] Creating Layer conv2/relu_3x3_reduce
I0714 21:15:40.044209 21302 net.cpp:425] conv2/relu_3x3_reduce <- conv2/3x3_reduce
I0714 21:15:40.044219 21302 net.cpp:386] conv2/relu_3x3_reduce -> conv2/3x3_reduce (in-place)
I0714 21:15:40.045202 21302 net.cpp:141] Setting up conv2/relu_3x3_reduce
I0714 21:15:40.045220 21302 net.cpp:148] Top shape: 10 64 56 56 (2007040)
I0714 21:15:40.045225 21302 net.cpp:156] Memory required for data: 102359040
I0714 21:15:40.045231 21302 layer_factory.hpp:77] Creating layer conv2/3x3
I0714 21:15:40.045253 21302 net.cpp:91] Creating Layer conv2/3x3
I0714 21:15:40.045260 21302 net.cpp:425] conv2/3x3 <- conv2/3x3_reduce
I0714 21:15:40.045271 21302 net.cpp:399] conv2/3x3 -> conv2/3x3
I0714 21:15:40.045281 21298 net.cpp:141] Setting up conv2/3x3_reduce
I0714 21:15:40.045306 21298 net.cpp:148] Top shape: 10 64 56 56 (2007040)
I0714 21:15:40.045318 21298 net.cpp:156] Memory required for data: 94330880
I0714 21:15:40.045342 21298 layer_factory.hpp:77] Creating layer conv2/relu_3x3_reduce
I0714 21:15:40.045368 21298 net.cpp:91] Creating Layer conv2/relu_3x3_reduce
I0714 21:15:40.045382 21298 net.cpp:425] conv2/relu_3x3_reduce <- conv2/3x3_reduce
I0714 21:15:40.045398 21298 net.cpp:386] conv2/relu_3x3_reduce -> conv2/3x3_reduce (in-place)
I0714 21:15:40.047170 21298 net.cpp:141] Setting up conv2/relu_3x3_reduce
I0714 21:15:40.047194 21298 net.cpp:148] Top shape: 10 64 56 56 (2007040)
I0714 21:15:40.047205 21298 net.cpp:156] Memory required for data: 102359040
I0714 21:15:40.047216 21298 layer_factory.hpp:77] Creating layer conv2/3x3
I0714 21:15:40.047250 21298 net.cpp:91] Creating Layer conv2/3x3
I0714 21:15:40.047264 21298 net.cpp:425] conv2/3x3 <- conv2/3x3_reduce
I0714 21:15:40.047283 21298 net.cpp:399] conv2/3x3 -> conv2/3x3
I0714 21:15:40.054630 21302 net.cpp:141] Setting up conv2/3x3
I0714 21:15:40.054651 21302 net.cpp:148] Top shape: 10 192 56 56 (6021120)
I0714 21:15:40.054657 21302 net.cpp:156] Memory required for data: 126443520
I0714 21:15:40.054674 21302 layer_factory.hpp:77] Creating layer conv2/relu_3x3
I0714 21:15:40.054695 21302 net.cpp:91] Creating Layer conv2/relu_3x3
I0714 21:15:40.054703 21302 net.cpp:425] conv2/relu_3x3 <- conv2/3x3
I0714 21:15:40.054711 21302 net.cpp:386] conv2/relu_3x3 -> conv2/3x3 (in-place)
I0714 21:15:40.055114 21302 net.cpp:141] Setting up conv2/relu_3x3
I0714 21:15:40.055129 21302 net.cpp:148] Top shape: 10 192 56 56 (6021120)
I0714 21:15:40.055133 21302 net.cpp:156] Memory required for data: 150528000
I0714 21:15:40.055140 21302 layer_factory.hpp:77] Creating layer conv2/norm2
I0714 21:15:40.055153 21302 net.cpp:91] Creating Layer conv2/norm2
I0714 21:15:40.055158 21302 net.cpp:425] conv2/norm2 <- conv2/3x3
I0714 21:15:40.055166 21302 net.cpp:399] conv2/norm2 -> conv2/norm2
I0714 21:15:40.056741 21298 net.cpp:141] Setting up conv2/3x3
I0714 21:15:40.056766 21298 net.cpp:148] Top shape: 10 192 56 56 (6021120)
I0714 21:15:40.056776 21302 net.cpp:141] Setting up conv2/norm2
I0714 21:15:40.056778 21298 net.cpp:156] Memory required for data: 126443520
I0714 21:15:40.056794 21302 net.cpp:148] Top shape: 10 192 56 56 (6021120)
I0714 21:15:40.056800 21302 net.cpp:156] Memory required for data: 174612480
I0714 21:15:40.056807 21302 layer_factory.hpp:77] Creating layer pool2/3x3_s2
I0714 21:15:40.056820 21302 net.cpp:91] Creating Layer pool2/3x3_s2
I0714 21:15:40.056819 21298 layer_factory.hpp:77] Creating layer conv2/relu_3x3
I0714 21:15:40.056828 21302 net.cpp:425] pool2/3x3_s2 <- conv2/norm2
I0714 21:15:40.056838 21302 net.cpp:399] pool2/3x3_s2 -> pool2/3x3_s2
I0714 21:15:40.056840 21298 net.cpp:91] Creating Layer conv2/relu_3x3
I0714 21:15:40.056852 21298 net.cpp:425] conv2/relu_3x3 <- conv2/3x3
I0714 21:15:40.056867 21298 net.cpp:386] conv2/relu_3x3 -> conv2/3x3 (in-place)
I0714 21:15:40.057268 21302 net.cpp:141] Setting up pool2/3x3_s2
I0714 21:15:40.057281 21302 net.cpp:148] Top shape: 10 192 28 28 (1505280)
I0714 21:15:40.057286 21302 net.cpp:156] Memory required for data: 180633600
I0714 21:15:40.057291 21302 layer_factory.hpp:77] Creating layer pool2/3x3_s2_pool2/3x3_s2_0_split
I0714 21:15:40.057317 21302 net.cpp:91] Creating Layer pool2/3x3_s2_pool2/3x3_s2_0_split
I0714 21:15:40.057323 21302 net.cpp:425] pool2/3x3_s2_pool2/3x3_s2_0_split <- pool2/3x3_s2
I0714 21:15:40.057332 21302 net.cpp:399] pool2/3x3_s2_pool2/3x3_s2_0_split -> pool2/3x3_s2_pool2/3x3_s2_0_split_0
I0714 21:15:40.057344 21302 net.cpp:399] pool2/3x3_s2_pool2/3x3_s2_0_split -> pool2/3x3_s2_pool2/3x3_s2_0_split_1
I0714 21:15:40.057354 21302 net.cpp:399] pool2/3x3_s2_pool2/3x3_s2_0_split -> pool2/3x3_s2_pool2/3x3_s2_0_split_2
I0714 21:15:40.057363 21302 net.cpp:399] pool2/3x3_s2_pool2/3x3_s2_0_split -> pool2/3x3_s2_pool2/3x3_s2_0_split_3
I0714 21:15:40.057518 21298 net.cpp:141] Setting up conv2/relu_3x3
I0714 21:15:40.057540 21298 net.cpp:148] Top shape: 10 192 56 56 (6021120)
I0714 21:15:40.057551 21298 net.cpp:156] Memory required for data: 150528000
I0714 21:15:40.057561 21298 layer_factory.hpp:77] Creating layer conv2/norm2
I0714 21:15:40.057561 21302 net.cpp:141] Setting up pool2/3x3_s2_pool2/3x3_s2_0_split
I0714 21:15:40.057585 21302 net.cpp:148] Top shape: 10 192 28 28 (1505280)
I0714 21:15:40.057591 21302 net.cpp:148] Top shape: 10 192 28 28 (1505280)
I0714 21:15:40.057588 21298 net.cpp:91] Creating Layer conv2/norm2
I0714 21:15:40.057598 21302 net.cpp:148] Top shape: 10 192 28 28 (1505280)
I0714 21:15:40.057605 21302 net.cpp:148] Top shape: 10 192 28 28 (1505280)
I0714 21:15:40.057603 21298 net.cpp:425] conv2/norm2 <- conv2/3x3
I0714 21:15:40.057610 21302 net.cpp:156] Memory required for data: 204718080
I0714 21:15:40.057615 21302 layer_factory.hpp:77] Creating layer inception_3a/1x1
I0714 21:15:40.057620 21298 net.cpp:399] conv2/norm2 -> conv2/norm2
I0714 21:15:40.057634 21302 net.cpp:91] Creating Layer inception_3a/1x1
I0714 21:15:40.057641 21302 net.cpp:425] inception_3a/1x1 <- pool2/3x3_s2_pool2/3x3_s2_0_split_0
I0714 21:15:40.057672 21302 net.cpp:399] inception_3a/1x1 -> inception_3a/1x1
I0714 21:15:40.059327 21298 net.cpp:141] Setting up conv2/norm2
I0714 21:15:40.059351 21298 net.cpp:148] Top shape: 10 192 56 56 (6021120)
I0714 21:15:40.059362 21298 net.cpp:156] Memory required for data: 174612480
I0714 21:15:40.059373 21298 layer_factory.hpp:77] Creating layer pool2/3x3_s2
I0714 21:15:40.059397 21298 net.cpp:91] Creating Layer pool2/3x3_s2
I0714 21:15:40.059412 21298 net.cpp:425] pool2/3x3_s2 <- conv2/norm2
I0714 21:15:40.059432 21298 net.cpp:399] pool2/3x3_s2 -> pool2/3x3_s2
I0714 21:15:40.059823 21298 net.cpp:141] Setting up pool2/3x3_s2
I0714 21:15:40.059844 21298 net.cpp:148] Top shape: 10 192 28 28 (1505280)
I0714 21:15:40.059852 21298 net.cpp:156] Memory required for data: 180633600
I0714 21:15:40.059862 21298 layer_factory.hpp:77] Creating layer pool2/3x3_s2_pool2/3x3_s2_0_split
I0714 21:15:40.059880 21298 net.cpp:91] Creating Layer pool2/3x3_s2_pool2/3x3_s2_0_split
I0714 21:15:40.059890 21298 net.cpp:425] pool2/3x3_s2_pool2/3x3_s2_0_split <- pool2/3x3_s2
I0714 21:15:40.059905 21298 net.cpp:399] pool2/3x3_s2_pool2/3x3_s2_0_split -> pool2/3x3_s2_pool2/3x3_s2_0_split_0
I0714 21:15:40.059926 21298 net.cpp:399] pool2/3x3_s2_pool2/3x3_s2_0_split -> pool2/3x3_s2_pool2/3x3_s2_0_split_1
I0714 21:15:40.059944 21298 net.cpp:399] pool2/3x3_s2_pool2/3x3_s2_0_split -> pool2/3x3_s2_pool2/3x3_s2_0_split_2
I0714 21:15:40.059963 21298 net.cpp:399] pool2/3x3_s2_pool2/3x3_s2_0_split -> pool2/3x3_s2_pool2/3x3_s2_0_split_3
I0714 21:15:40.061678 21298 net.cpp:141] Setting up pool2/3x3_s2_pool2/3x3_s2_0_split
I0714 21:15:40.061700 21298 net.cpp:148] Top shape: 10 192 28 28 (1505280)
I0714 21:15:40.061715 21298 net.cpp:148] Top shape: 10 192 28 28 (1505280)
I0714 21:15:40.061728 21298 net.cpp:148] Top shape: 10 192 28 28 (1505280)
I0714 21:15:40.061741 21298 net.cpp:148] Top shape: 10 192 28 28 (1505280)
I0714 21:15:40.061751 21298 net.cpp:156] Memory required for data: 204718080
I0714 21:15:40.061764 21298 layer_factory.hpp:77] Creating layer inception_3a/1x1
I0714 21:15:40.061792 21298 net.cpp:91] Creating Layer inception_3a/1x1
I0714 21:15:40.061807 21298 net.cpp:425] inception_3a/1x1 <- pool2/3x3_s2_pool2/3x3_s2_0_split_0
I0714 21:15:40.061831 21298 net.cpp:399] inception_3a/1x1 -> inception_3a/1x1
I0714 21:15:40.064554 21302 net.cpp:141] Setting up inception_3a/1x1
I0714 21:15:40.064577 21302 net.cpp:148] Top shape: 10 64 28 28 (501760)
I0714 21:15:40.064584 21302 net.cpp:156] Memory required for data: 206725120
I0714 21:15:40.064594 21302 layer_factory.hpp:77] Creating layer inception_3a/relu_1x1
I0714 21:15:40.064604 21302 net.cpp:91] Creating Layer inception_3a/relu_1x1
I0714 21:15:40.064610 21302 net.cpp:425] inception_3a/relu_1x1 <- inception_3a/1x1
I0714 21:15:40.064618 21302 net.cpp:386] inception_3a/relu_1x1 -> inception_3a/1x1 (in-place)
I0714 21:15:40.065068 21302 net.cpp:141] Setting up inception_3a/relu_1x1
I0714 21:15:40.065083 21302 net.cpp:148] Top shape: 10 64 28 28 (501760)
I0714 21:15:40.065088 21302 net.cpp:156] Memory required for data: 208732160
I0714 21:15:40.065093 21302 layer_factory.hpp:77] Creating layer inception_3a/3x3_reduce
I0714 21:15:40.065109 21302 net.cpp:91] Creating Layer inception_3a/3x3_reduce
I0714 21:15:40.065116 21302 net.cpp:425] inception_3a/3x3_reduce <- pool2/3x3_s2_pool2/3x3_s2_0_split_1
I0714 21:15:40.065130 21302 net.cpp:399] inception_3a/3x3_reduce -> inception_3a/3x3_reduce
I0714 21:15:40.073343 21298 net.cpp:141] Setting up inception_3a/1x1
I0714 21:15:40.073374 21298 net.cpp:148] Top shape: 10 64 28 28 (501760)
I0714 21:15:40.073386 21298 net.cpp:156] Memory required for data: 206725120
I0714 21:15:40.073407 21298 layer_factory.hpp:77] Creating layer inception_3a/relu_1x1
I0714 21:15:40.073424 21298 net.cpp:91] Creating Layer inception_3a/relu_1x1
I0714 21:15:40.073436 21298 net.cpp:425] inception_3a/relu_1x1 <- inception_3a/1x1
I0714 21:15:40.073453 21298 net.cpp:386] inception_3a/relu_1x1 -> inception_3a/1x1 (in-place)
I0714 21:15:40.073907 21302 net.cpp:141] Setting up inception_3a/3x3_reduce
I0714 21:15:40.073927 21302 net.cpp:148] Top shape: 10 96 28 28 (752640)
I0714 21:15:40.073933 21302 net.cpp:156] Memory required for data: 211742720
I0714 21:15:40.073950 21302 layer_factory.hpp:77] Creating layer inception_3a/relu_3x3_reduce
I0714 21:15:40.073959 21302 net.cpp:91] Creating Layer inception_3a/relu_3x3_reduce
I0714 21:15:40.073968 21302 net.cpp:425] inception_3a/relu_3x3_reduce <- inception_3a/3x3_reduce
I0714 21:15:40.073976 21302 net.cpp:386] inception_3a/relu_3x3_reduce -> inception_3a/3x3_reduce (in-place)
I0714 21:15:40.074074 21298 net.cpp:141] Setting up inception_3a/relu_1x1
I0714 21:15:40.074097 21298 net.cpp:148] Top shape: 10 64 28 28 (501760)
I0714 21:15:40.074108 21298 net.cpp:156] Memory required for data: 208732160
I0714 21:15:40.074120 21298 layer_factory.hpp:77] Creating layer inception_3a/3x3_reduce
I0714 21:15:40.074147 21298 net.cpp:91] Creating Layer inception_3a/3x3_reduce
I0714 21:15:40.074162 21298 net.cpp:425] inception_3a/3x3_reduce <- pool2/3x3_s2_pool2/3x3_s2_0_split_1
I0714 21:15:40.074188 21298 net.cpp:399] inception_3a/3x3_reduce -> inception_3a/3x3_reduce
I0714 21:15:40.074332 21302 net.cpp:141] Setting up inception_3a/relu_3x3_reduce
I0714 21:15:40.074347 21302 net.cpp:148] Top shape: 10 96 28 28 (752640)
I0714 21:15:40.074352 21302 net.cpp:156] Memory required for data: 214753280
I0714 21:15:40.074357 21302 layer_factory.hpp:77] Creating layer inception_3a/3x3
I0714 21:15:40.074388 21302 net.cpp:91] Creating Layer inception_3a/3x3
I0714 21:15:40.074396 21302 net.cpp:425] inception_3a/3x3 <- inception_3a/3x3_reduce
I0714 21:15:40.074406 21302 net.cpp:399] inception_3a/3x3 -> inception_3a/3x3
I0714 21:15:40.081099 21302 net.cpp:141] Setting up inception_3a/3x3
I0714 21:15:40.081126 21302 net.cpp:148] Top shape: 10 128 28 28 (1003520)
I0714 21:15:40.081132 21302 net.cpp:156] Memory required for data: 218767360
I0714 21:15:40.081143 21302 layer_factory.hpp:77] Creating layer inception_3a/relu_3x3
I0714 21:15:40.081157 21302 net.cpp:91] Creating Layer inception_3a/relu_3x3
I0714 21:15:40.081164 21302 net.cpp:425] inception_3a/relu_3x3 <- inception_3a/3x3
I0714 21:15:40.081173 21302 net.cpp:386] inception_3a/relu_3x3 -> inception_3a/3x3 (in-place)
I0714 21:15:40.082051 21298 net.cpp:141] Setting up inception_3a/3x3_reduce
I0714 21:15:40.082077 21298 net.cpp:148] Top shape: 10 96 28 28 (752640)
I0714 21:15:40.082088 21298 net.cpp:156] Memory required for data: 211742720
I0714 21:15:40.082090 21302 net.cpp:141] Setting up inception_3a/relu_3x3
I0714 21:15:40.082105 21302 net.cpp:148] Top shape: 10 128 28 28 (1003520)
I0714 21:15:40.082110 21302 net.cpp:156] Memory required for data: 222781440
I0714 21:15:40.082116 21302 layer_factory.hpp:77] Creating layer inception_3a/5x5_reduce
I0714 21:15:40.082116 21298 layer_factory.hpp:77] Creating layer inception_3a/relu_3x3_reduce
I0714 21:15:40.082139 21302 net.cpp:91] Creating Layer inception_3a/5x5_reduce
I0714 21:15:40.082135 21298 net.cpp:91] Creating Layer inception_3a/relu_3x3_reduce
I0714 21:15:40.082146 21302 net.cpp:425] inception_3a/5x5_reduce <- pool2/3x3_s2_pool2/3x3_s2_0_split_2
I0714 21:15:40.082154 21298 net.cpp:425] inception_3a/relu_3x3_reduce <- inception_3a/3x3_reduce
I0714 21:15:40.082157 21302 net.cpp:399] inception_3a/5x5_reduce -> inception_3a/5x5_reduce
I0714 21:15:40.082176 21298 net.cpp:386] inception_3a/relu_3x3_reduce -> inception_3a/3x3_reduce (in-place)
I0714 21:15:40.082975 21298 net.cpp:141] Setting up inception_3a/relu_3x3_reduce
I0714 21:15:40.082998 21298 net.cpp:148] Top shape: 10 96 28 28 (752640)
I0714 21:15:40.083010 21298 net.cpp:156] Memory required for data: 214753280
I0714 21:15:40.083021 21298 layer_factory.hpp:77] Creating layer inception_3a/3x3
I0714 21:15:40.083060 21298 net.cpp:91] Creating Layer inception_3a/3x3
I0714 21:15:40.083075 21298 net.cpp:425] inception_3a/3x3 <- inception_3a/3x3_reduce
I0714 21:15:40.083094 21298 net.cpp:399] inception_3a/3x3 -> inception_3a/3x3
I0714 21:15:40.085909 21302 net.cpp:141] Setting up inception_3a/5x5_reduce
I0714 21:15:40.085929 21302 net.cpp:148] Top shape: 10 16 28 28 (125440)
I0714 21:15:40.085935 21302 net.cpp:156] Memory required for data: 223283200
I0714 21:15:40.085945 21302 layer_factory.hpp:77] Creating layer inception_3a/relu_5x5_reduce
I0714 21:15:40.085960 21302 net.cpp:91] Creating Layer inception_3a/relu_5x5_reduce
I0714 21:15:40.085968 21302 net.cpp:425] inception_3a/relu_5x5_reduce <- inception_3a/5x5_reduce
I0714 21:15:40.085978 21302 net.cpp:386] inception_3a/relu_5x5_reduce -> inception_3a/5x5_reduce (in-place)
I0714 21:15:40.086262 21302 net.cpp:141] Setting up inception_3a/relu_5x5_reduce
I0714 21:15:40.086275 21302 net.cpp:148] Top shape: 10 16 28 28 (125440)
I0714 21:15:40.086280 21302 net.cpp:156] Memory required for data: 223784960
I0714 21:15:40.086287 21302 layer_factory.hpp:77] Creating layer inception_3a/5x5
I0714 21:15:40.086304 21302 net.cpp:91] Creating Layer inception_3a/5x5
I0714 21:15:40.086311 21302 net.cpp:425] inception_3a/5x5 <- inception_3a/5x5_reduce
I0714 21:15:40.086323 21302 net.cpp:399] inception_3a/5x5 -> inception_3a/5x5
I0714 21:15:40.089650 21298 net.cpp:141] Setting up inception_3a/3x3
I0714 21:15:40.089675 21298 net.cpp:148] Top shape: 10 128 28 28 (1003520)
I0714 21:15:40.089686 21298 net.cpp:156] Memory required for data: 218767360
I0714 21:15:40.089705 21298 layer_factory.hpp:77] Creating layer inception_3a/relu_3x3
I0714 21:15:40.089730 21298 net.cpp:91] Creating Layer inception_3a/relu_3x3
I0714 21:15:40.089745 21298 net.cpp:425] inception_3a/relu_3x3 <- inception_3a/3x3
I0714 21:15:40.089758 21298 net.cpp:386] inception_3a/relu_3x3 -> inception_3a/3x3 (in-place)
I0714 21:15:40.091074 21298 net.cpp:141] Setting up inception_3a/relu_3x3
I0714 21:15:40.091097 21298 net.cpp:148] Top shape: 10 128 28 28 (1003520)
I0714 21:15:40.091109 21298 net.cpp:156] Memory required for data: 222781440
I0714 21:15:40.091120 21298 layer_factory.hpp:77] Creating layer inception_3a/5x5_reduce
I0714 21:15:40.091152 21298 net.cpp:91] Creating Layer inception_3a/5x5_reduce
I0714 21:15:40.091166 21298 net.cpp:425] inception_3a/5x5_reduce <- pool2/3x3_s2_pool2/3x3_s2_0_split_2
I0714 21:15:40.091186 21298 net.cpp:399] inception_3a/5x5_reduce -> inception_3a/5x5_reduce
I0714 21:15:40.093611 21302 net.cpp:141] Setting up inception_3a/5x5
I0714 21:15:40.093641 21302 net.cpp:148] Top shape: 10 32 28 28 (250880)
I0714 21:15:40.093652 21302 net.cpp:156] Memory required for data: 224788480
I0714 21:15:40.093670 21302 layer_factory.hpp:77] Creating layer inception_3a/relu_5x5
I0714 21:15:40.093686 21302 net.cpp:91] Creating Layer inception_3a/relu_5x5
I0714 21:15:40.093698 21302 net.cpp:425] inception_3a/relu_5x5 <- inception_3a/5x5
I0714 21:15:40.093720 21302 net.cpp:386] inception_3a/relu_5x5 -> inception_3a/5x5 (in-place)
I0714 21:15:40.094167 21302 net.cpp:141] Setting up inception_3a/relu_5x5
I0714 21:15:40.094188 21302 net.cpp:148] Top shape: 10 32 28 28 (250880)
I0714 21:15:40.094197 21302 net.cpp:156] Memory required for data: 225792000
I0714 21:15:40.094208 21302 layer_factory.hpp:77] Creating layer inception_3a/pool
I0714 21:15:40.094228 21302 net.cpp:91] Creating Layer inception_3a/pool
I0714 21:15:40.094240 21302 net.cpp:425] inception_3a/pool <- pool2/3x3_s2_pool2/3x3_s2_0_split_3
I0714 21:15:40.094255 21302 net.cpp:399] inception_3a/pool -> inception_3a/pool
I0714 21:15:40.094573 21302 net.cpp:141] Setting up inception_3a/pool
I0714 21:15:40.094593 21302 net.cpp:148] Top shape: 10 192 28 28 (1505280)
I0714 21:15:40.094600 21302 net.cpp:156] Memory required for data: 231813120
I0714 21:15:40.094610 21302 layer_factory.hpp:77] Creating layer inception_3a/pool_proj
I0714 21:15:40.094635 21302 net.cpp:91] Creating Layer inception_3a/pool_proj
I0714 21:15:40.094646 21302 net.cpp:425] inception_3a/pool_proj <- inception_3a/pool
I0714 21:15:40.094666 21302 net.cpp:399] inception_3a/pool_proj -> inception_3a/pool_proj
I0714 21:15:40.096539 21298 net.cpp:141] Setting up inception_3a/5x5_reduce
I0714 21:15:40.096565 21298 net.cpp:148] Top shape: 10 16 28 28 (125440)
I0714 21:15:40.096576 21298 net.cpp:156] Memory required for data: 223283200
I0714 21:15:40.096596 21298 layer_factory.hpp:77] Creating layer inception_3a/relu_5x5_reduce
I0714 21:15:40.096621 21298 net.cpp:91] Creating Layer inception_3a/relu_5x5_reduce
I0714 21:15:40.096642 21298 net.cpp:425] inception_3a/relu_5x5_reduce <- inception_3a/5x5_reduce
I0714 21:15:40.096662 21298 net.cpp:386] inception_3a/relu_5x5_reduce -> inception_3a/5x5_reduce (in-place)
I0714 21:15:40.097275 21298 net.cpp:141] Setting up inception_3a/relu_5x5_reduce
I0714 21:15:40.097297 21298 net.cpp:148] Top shape: 10 16 28 28 (125440)
I0714 21:15:40.097308 21298 net.cpp:156] Memory required for data: 223784960
I0714 21:15:40.097319 21298 layer_factory.hpp:77] Creating layer inception_3a/5x5
I0714 21:15:40.097354 21298 net.cpp:91] Creating Layer inception_3a/5x5
I0714 21:15:40.097369 21298 net.cpp:425] inception_3a/5x5 <- inception_3a/5x5_reduce
I0714 21:15:40.097393 21298 net.cpp:399] inception_3a/5x5 -> inception_3a/5x5
I0714 21:15:40.102581 21302 net.cpp:141] Setting up inception_3a/pool_proj
I0714 21:15:40.102613 21302 net.cpp:148] Top shape: 10 32 28 28 (250880)
I0714 21:15:40.102623 21302 net.cpp:156] Memory required for data: 232816640
I0714 21:15:40.102655 21302 layer_factory.hpp:77] Creating layer inception_3a/relu_pool_proj
I0714 21:15:40.102674 21302 net.cpp:91] Creating Layer inception_3a/relu_pool_proj
I0714 21:15:40.102684 21302 net.cpp:425] inception_3a/relu_pool_proj <- inception_3a/pool_proj
I0714 21:15:40.102711 21302 net.cpp:386] inception_3a/relu_pool_proj -> inception_3a/pool_proj (in-place)
I0714 21:15:40.104650 21302 net.cpp:141] Setting up inception_3a/relu_pool_proj
I0714 21:15:40.104683 21302 net.cpp:148] Top shape: 10 32 28 28 (250880)
I0714 21:15:40.104694 21302 net.cpp:156] Memory required for data: 233820160
I0714 21:15:40.104704 21302 layer_factory.hpp:77] Creating layer inception_3a/output
I0714 21:15:40.104738 21302 net.cpp:91] Creating Layer inception_3a/output
I0714 21:15:40.104749 21302 net.cpp:425] inception_3a/output <- inception_3a/1x1
I0714 21:15:40.104761 21302 net.cpp:425] inception_3a/output <- inception_3a/3x3
I0714 21:15:40.104773 21302 net.cpp:425] inception_3a/output <- inception_3a/5x5
I0714 21:15:40.104784 21302 net.cpp:425] inception_3a/output <- inception_3a/pool_proj
I0714 21:15:40.104799 21302 net.cpp:399] inception_3a/output -> inception_3a/output
I0714 21:15:40.105633 21302 net.cpp:141] Setting up inception_3a/output
I0714 21:15:40.105648 21298 net.cpp:141] Setting up inception_3a/5x5
I0714 21:15:40.105654 21302 net.cpp:148] Top shape: 10 256 28 28 (2007040)
I0714 21:15:40.105675 21302 net.cpp:156] Memory required for data: 241848320
I0714 21:15:40.105679 21298 net.cpp:148] Top shape: 10 32 28 28 (250880)
I0714 21:15:40.105685 21302 layer_factory.hpp:77] Creating layer inception_3a/output_inception_3a/output_0_split
I0714 21:15:40.105691 21298 net.cpp:156] Memory required for data: 224788480
I0714 21:15:40.105701 21302 net.cpp:91] Creating Layer inception_3a/output_inception_3a/output_0_split
I0714 21:15:40.105712 21302 net.cpp:425] inception_3a/output_inception_3a/output_0_split <- inception_3a/output
I0714 21:15:40.105712 21298 layer_factory.hpp:77] Creating layer inception_3a/relu_5x5
I0714 21:15:40.105726 21302 net.cpp:399] inception_3a/output_inception_3a/output_0_split -> inception_3a/output_inception_3a/output_0_split_0
I0714 21:15:40.105731 21298 net.cpp:91] Creating Layer inception_3a/relu_5x5
I0714 21:15:40.105746 21298 net.cpp:425] inception_3a/relu_5x5 <- inception_3a/5x5
I0714 21:15:40.105753 21302 net.cpp:399] inception_3a/output_inception_3a/output_0_split -> inception_3a/output_inception_3a/output_0_split_1
I0714 21:15:40.105761 21298 net.cpp:386] inception_3a/relu_5x5 -> inception_3a/5x5 (in-place)
I0714 21:15:40.105788 21302 net.cpp:399] inception_3a/output_inception_3a/output_0_split -> inception_3a/output_inception_3a/output_0_split_2
I0714 21:15:40.105805 21302 net.cpp:399] inception_3a/output_inception_3a/output_0_split -> inception_3a/output_inception_3a/output_0_split_3
I0714 21:15:40.106406 21302 net.cpp:141] Setting up inception_3a/output_inception_3a/output_0_split
I0714 21:15:40.106421 21302 net.cpp:148] Top shape: 10 256 28 28 (2007040)
I0714 21:15:40.106428 21302 net.cpp:148] Top shape: 10 256 28 28 (2007040)
I0714 21:15:40.106436 21302 net.cpp:148] Top shape: 10 256 28 28 (2007040)
I0714 21:15:40.106441 21302 net.cpp:148] Top shape: 10 256 28 28 (2007040)
I0714 21:15:40.106446 21302 net.cpp:156] Memory required for data: 273960960
I0714 21:15:40.106451 21302 layer_factory.hpp:77] Creating layer inception_3b/1x1
I0714 21:15:40.106462 21298 net.cpp:141] Setting up inception_3a/relu_5x5
I0714 21:15:40.106469 21302 net.cpp:91] Creating Layer inception_3b/1x1
I0714 21:15:40.106485 21302 net.cpp:425] inception_3b/1x1 <- inception_3a/output_inception_3a/output_0_split_0
I0714 21:15:40.106488 21298 net.cpp:148] Top shape: 10 32 28 28 (250880)
I0714 21:15:40.106501 21302 net.cpp:399] inception_3b/1x1 -> inception_3b/1x1
I0714 21:15:40.106500 21298 net.cpp:156] Memory required for data: 225792000
I0714 21:15:40.106524 21298 layer_factory.hpp:77] Creating layer inception_3a/pool
I0714 21:15:40.106559 21298 net.cpp:91] Creating Layer inception_3a/pool
I0714 21:15:40.106572 21298 net.cpp:425] inception_3a/pool <- pool2/3x3_s2_pool2/3x3_s2_0_split_3
I0714 21:15:40.106590 21298 net.cpp:399] inception_3a/pool -> inception_3a/pool
I0714 21:15:40.106855 21298 net.cpp:141] Setting up inception_3a/pool
I0714 21:15:40.106878 21298 net.cpp:148] Top shape: 10 192 28 28 (1505280)
I0714 21:15:40.106887 21298 net.cpp:156] Memory required for data: 231813120
I0714 21:15:40.106899 21298 layer_factory.hpp:77] Creating layer inception_3a/pool_proj
I0714 21:15:40.106925 21298 net.cpp:91] Creating Layer inception_3a/pool_proj
I0714 21:15:40.106940 21298 net.cpp:425] inception_3a/pool_proj <- inception_3a/pool
I0714 21:15:40.106969 21298 net.cpp:399] inception_3a/pool_proj -> inception_3a/pool_proj
I0714 21:15:40.111492 21302 net.cpp:141] Setting up inception_3b/1x1
I0714 21:15:40.111515 21302 net.cpp:148] Top shape: 10 128 28 28 (1003520)
I0714 21:15:40.111521 21302 net.cpp:156] Memory required for data: 277975040
I0714 21:15:40.111539 21302 layer_factory.hpp:77] Creating layer inception_3b/relu_1x1
I0714 21:15:40.111554 21302 net.cpp:91] Creating Layer inception_3b/relu_1x1
I0714 21:15:40.111562 21302 net.cpp:425] inception_3b/relu_1x1 <- inception_3b/1x1
I0714 21:15:40.111570 21302 net.cpp:386] inception_3b/relu_1x1 -> inception_3b/1x1 (in-place)
I0714 21:15:40.111999 21302 net.cpp:141] Setting up inception_3b/relu_1x1
I0714 21:15:40.112012 21302 net.cpp:148] Top shape: 10 128 28 28 (1003520)
I0714 21:15:40.112018 21302 net.cpp:156] Memory required for data: 281989120
I0714 21:15:40.112025 21302 layer_factory.hpp:77] Creating layer inception_3b/3x3_reduce
I0714 21:15:40.112043 21302 net.cpp:91] Creating Layer inception_3b/3x3_reduce
I0714 21:15:40.112051 21302 net.cpp:425] inception_3b/3x3_reduce <- inception_3a/output_inception_3a/output_0_split_1
I0714 21:15:40.112063 21302 net.cpp:399] inception_3b/3x3_reduce -> inception_3b/3x3_reduce
I0714 21:15:40.112200 21298 net.cpp:141] Setting up inception_3a/pool_proj
I0714 21:15:40.112224 21298 net.cpp:148] Top shape: 10 32 28 28 (250880)
I0714 21:15:40.112236 21298 net.cpp:156] Memory required for data: 232816640
I0714 21:15:40.112269 21298 layer_factory.hpp:77] Creating layer inception_3a/relu_pool_proj
I0714 21:15:40.112287 21298 net.cpp:91] Creating Layer inception_3a/relu_pool_proj
I0714 21:15:40.112301 21298 net.cpp:425] inception_3a/relu_pool_proj <- inception_3a/pool_proj
I0714 21:15:40.112328 21298 net.cpp:386] inception_3a/relu_pool_proj -> inception_3a/pool_proj (in-place)
I0714 21:15:40.113745 21298 net.cpp:141] Setting up inception_3a/relu_pool_proj
I0714 21:15:40.113780 21298 net.cpp:148] Top shape: 10 32 28 28 (250880)
I0714 21:15:40.113790 21298 net.cpp:156] Memory required for data: 233820160
I0714 21:15:40.113802 21298 layer_factory.hpp:77] Creating layer inception_3a/output
I0714 21:15:40.113819 21298 net.cpp:91] Creating Layer inception_3a/output
I0714 21:15:40.113831 21298 net.cpp:425] inception_3a/output <- inception_3a/1x1
I0714 21:15:40.113845 21298 net.cpp:425] inception_3a/output <- inception_3a/3x3
I0714 21:15:40.113858 21298 net.cpp:425] inception_3a/output <- inception_3a/5x5
I0714 21:15:40.113870 21298 net.cpp:425] inception_3a/output <- inception_3a/pool_proj
I0714 21:15:40.113885 21298 net.cpp:399] inception_3a/output -> inception_3a/output
I0714 21:15:40.113994 21298 net.cpp:141] Setting up inception_3a/output
I0714 21:15:40.114018 21298 net.cpp:148] Top shape: 10 256 28 28 (2007040)
I0714 21:15:40.114028 21298 net.cpp:156] Memory required for data: 241848320
I0714 21:15:40.114039 21298 layer_factory.hpp:77] Creating layer inception_3a/output_inception_3a/output_0_split
I0714 21:15:40.114054 21298 net.cpp:91] Creating Layer inception_3a/output_inception_3a/output_0_split
I0714 21:15:40.114066 21298 net.cpp:425] inception_3a/output_inception_3a/output_0_split <- inception_3a/output
I0714 21:15:40.114083 21298 net.cpp:399] inception_3a/output_inception_3a/output_0_split -> inception_3a/output_inception_3a/output_0_split_0
I0714 21:15:40.114110 21298 net.cpp:399] inception_3a/output_inception_3a/output_0_split -> inception_3a/output_inception_3a/output_0_split_1
I0714 21:15:40.114131 21298 net.cpp:399] inception_3a/output_inception_3a/output_0_split -> inception_3a/output_inception_3a/output_0_split_2
I0714 21:15:40.114151 21298 net.cpp:399] inception_3a/output_inception_3a/output_0_split -> inception_3a/output_inception_3a/output_0_split_3
I0714 21:15:40.115594 21298 net.cpp:141] Setting up inception_3a/output_inception_3a/output_0_split
I0714 21:15:40.115617 21298 net.cpp:148] Top shape: 10 256 28 28 (2007040)
I0714 21:15:40.115633 21298 net.cpp:148] Top shape: 10 256 28 28 (2007040)
I0714 21:15:40.115645 21298 net.cpp:148] Top shape: 10 256 28 28 (2007040)
I0714 21:15:40.115658 21298 net.cpp:148] Top shape: 10 256 28 28 (2007040)
I0714 21:15:40.115667 21298 net.cpp:156] Memory required for data: 273960960
I0714 21:15:40.115679 21298 layer_factory.hpp:77] Creating layer inception_3b/1x1
I0714 21:15:40.115707 21298 net.cpp:91] Creating Layer inception_3b/1x1
I0714 21:15:40.115722 21298 net.cpp:425] inception_3b/1x1 <- inception_3a/output_inception_3a/output_0_split_0
I0714 21:15:40.115751 21298 net.cpp:399] inception_3b/1x1 -> inception_3b/1x1
I0714 21:15:40.117588 21302 net.cpp:141] Setting up inception_3b/3x3_reduce
I0714 21:15:40.117612 21302 net.cpp:148] Top shape: 10 128 28 28 (1003520)
I0714 21:15:40.117619 21302 net.cpp:156] Memory required for data: 286003200
I0714 21:15:40.117630 21302 layer_factory.hpp:77] Creating layer inception_3b/relu_3x3_reduce
I0714 21:15:40.117641 21302 net.cpp:91] Creating Layer inception_3b/relu_3x3_reduce
I0714 21:15:40.117647 21302 net.cpp:425] inception_3b/relu_3x3_reduce <- inception_3b/3x3_reduce
I0714 21:15:40.117656 21302 net.cpp:386] inception_3b/relu_3x3_reduce -> inception_3b/3x3_reduce (in-place)
I0714 21:15:40.118057 21302 net.cpp:141] Setting up inception_3b/relu_3x3_reduce
I0714 21:15:40.118070 21302 net.cpp:148] Top shape: 10 128 28 28 (1003520)
I0714 21:15:40.118075 21302 net.cpp:156] Memory required for data: 290017280
I0714 21:15:40.118082 21302 layer_factory.hpp:77] Creating layer inception_3b/3x3
I0714 21:15:40.118104 21302 net.cpp:91] Creating Layer inception_3b/3x3
I0714 21:15:40.118113 21302 net.cpp:425] inception_3b/3x3 <- inception_3b/3x3_reduce
I0714 21:15:40.118125 21302 net.cpp:399] inception_3b/3x3 -> inception_3b/3x3
I0714 21:15:40.122484 21298 net.cpp:141] Setting up inception_3b/1x1
I0714 21:15:40.122510 21298 net.cpp:148] Top shape: 10 128 28 28 (1003520)
I0714 21:15:40.122521 21298 net.cpp:156] Memory required for data: 277975040
I0714 21:15:40.122541 21298 layer_factory.hpp:77] Creating layer inception_3b/relu_1x1
I0714 21:15:40.122565 21298 net.cpp:91] Creating Layer inception_3b/relu_1x1
I0714 21:15:40.122581 21298 net.cpp:425] inception_3b/relu_1x1 <- inception_3b/1x1
I0714 21:15:40.122596 21298 net.cpp:386] inception_3b/relu_1x1 -> inception_3b/1x1 (in-place)
I0714 21:15:40.123095 21298 net.cpp:141] Setting up inception_3b/relu_1x1
I0714 21:15:40.123116 21298 net.cpp:148] Top shape: 10 128 28 28 (1003520)
I0714 21:15:40.123126 21298 net.cpp:156] Memory required for data: 281989120
I0714 21:15:40.123138 21298 layer_factory.hpp:77] Creating layer inception_3b/3x3_reduce
I0714 21:15:40.123169 21298 net.cpp:91] Creating Layer inception_3b/3x3_reduce
I0714 21:15:40.123184 21298 net.cpp:425] inception_3b/3x3_reduce <- inception_3a/output_inception_3a/output_0_split_1
I0714 21:15:40.123213 21298 net.cpp:399] inception_3b/3x3_reduce -> inception_3b/3x3_reduce
I0714 21:15:40.127471 21302 net.cpp:141] Setting up inception_3b/3x3
I0714 21:15:40.127492 21302 net.cpp:148] Top shape: 10 192 28 28 (1505280)
I0714 21:15:40.127498 21302 net.cpp:156] Memory required for data: 296038400
I0714 21:15:40.127508 21302 layer_factory.hpp:77] Creating layer inception_3b/relu_3x3
I0714 21:15:40.127529 21302 net.cpp:91] Creating Layer inception_3b/relu_3x3
I0714 21:15:40.127537 21302 net.cpp:425] inception_3b/relu_3x3 <- inception_3b/3x3
I0714 21:15:40.127547 21302 net.cpp:386] inception_3b/relu_3x3 -> inception_3b/3x3 (in-place)
I0714 21:15:40.128427 21298 net.cpp:141] Setting up inception_3b/3x3_reduce
I0714 21:15:40.128449 21298 net.cpp:148] Top shape: 10 128 28 28 (1003520)
I0714 21:15:40.128460 21298 net.cpp:156] Memory required for data: 286003200
I0714 21:15:40.128463 21302 net.cpp:141] Setting up inception_3b/relu_3x3
I0714 21:15:40.128479 21302 net.cpp:148] Top shape: 10 192 28 28 (1505280)
I0714 21:15:40.128484 21302 net.cpp:156] Memory required for data: 302059520
I0714 21:15:40.128481 21298 layer_factory.hpp:77] Creating layer inception_3b/relu_3x3_reduce
I0714 21:15:40.128490 21302 layer_factory.hpp:77] Creating layer inception_3b/5x5_reduce
I0714 21:15:40.128509 21298 net.cpp:91] Creating Layer inception_3b/relu_3x3_reduce
I0714 21:15:40.128520 21302 net.cpp:91] Creating Layer inception_3b/5x5_reduce
I0714 21:15:40.128522 21298 net.cpp:425] inception_3b/relu_3x3_reduce <- inception_3b/3x3_reduce
I0714 21:15:40.128528 21302 net.cpp:425] inception_3b/5x5_reduce <- inception_3a/output_inception_3a/output_0_split_2
I0714 21:15:40.128540 21298 net.cpp:386] inception_3b/relu_3x3_reduce -> inception_3b/3x3_reduce (in-place)
I0714 21:15:40.128543 21302 net.cpp:399] inception_3b/5x5_reduce -> inception_3b/5x5_reduce
I0714 21:15:40.129387 21298 net.cpp:141] Setting up inception_3b/relu_3x3_reduce
I0714 21:15:40.129411 21298 net.cpp:148] Top shape: 10 128 28 28 (1003520)
I0714 21:15:40.129422 21298 net.cpp:156] Memory required for data: 290017280
I0714 21:15:40.129433 21298 layer_factory.hpp:77] Creating layer inception_3b/3x3
I0714 21:15:40.129462 21298 net.cpp:91] Creating Layer inception_3b/3x3
I0714 21:15:40.129477 21298 net.cpp:425] inception_3b/3x3 <- inception_3b/3x3_reduce
I0714 21:15:40.129503 21298 net.cpp:399] inception_3b/3x3 -> inception_3b/3x3
I0714 21:15:40.133852 21302 net.cpp:141] Setting up inception_3b/5x5_reduce
I0714 21:15:40.133874 21302 net.cpp:148] Top shape: 10 32 28 28 (250880)
I0714 21:15:40.133880 21302 net.cpp:156] Memory required for data: 303063040
I0714 21:15:40.133891 21302 layer_factory.hpp:77] Creating layer inception_3b/relu_5x5_reduce
I0714 21:15:40.133900 21302 net.cpp:91] Creating Layer inception_3b/relu_5x5_reduce
I0714 21:15:40.133908 21302 net.cpp:425] inception_3b/relu_5x5_reduce <- inception_3b/5x5_reduce
I0714 21:15:40.133919 21302 net.cpp:386] inception_3b/relu_5x5_reduce -> inception_3b/5x5_reduce (in-place)
I0714 21:15:40.134189 21302 net.cpp:141] Setting up inception_3b/relu_5x5_reduce
I0714 21:15:40.134202 21302 net.cpp:148] Top shape: 10 32 28 28 (250880)
I0714 21:15:40.134207 21302 net.cpp:156] Memory required for data: 304066560
I0714 21:15:40.134213 21302 layer_factory.hpp:77] Creating layer inception_3b/5x5
I0714 21:15:40.134238 21302 net.cpp:91] Creating Layer inception_3b/5x5
I0714 21:15:40.134245 21302 net.cpp:425] inception_3b/5x5 <- inception_3b/5x5_reduce
I0714 21:15:40.134255 21302 net.cpp:399] inception_3b/5x5 -> inception_3b/5x5
I0714 21:15:40.139922 21298 net.cpp:141] Setting up inception_3b/3x3
I0714 21:15:40.139948 21298 net.cpp:148] Top shape: 10 192 28 28 (1505280)
I0714 21:15:40.139960 21298 net.cpp:156] Memory required for data: 296038400
I0714 21:15:40.139979 21298 layer_factory.hpp:77] Creating layer inception_3b/relu_3x3
I0714 21:15:40.140012 21298 net.cpp:91] Creating Layer inception_3b/relu_3x3
I0714 21:15:40.140027 21298 net.cpp:425] inception_3b/relu_3x3 <- inception_3b/3x3
I0714 21:15:40.140048 21298 net.cpp:386] inception_3b/relu_3x3 -> inception_3b/3x3 (in-place)
I0714 21:15:40.140130 21302 net.cpp:141] Setting up inception_3b/5x5
I0714 21:15:40.140146 21302 net.cpp:148] Top shape: 10 96 28 28 (752640)
I0714 21:15:40.140152 21302 net.cpp:156] Memory required for data: 307077120
I0714 21:15:40.140162 21302 layer_factory.hpp:77] Creating layer inception_3b/relu_5x5
I0714 21:15:40.140172 21302 net.cpp:91] Creating Layer inception_3b/relu_5x5
I0714 21:15:40.140178 21302 net.cpp:425] inception_3b/relu_5x5 <- inception_3b/5x5
I0714 21:15:40.140190 21302 net.cpp:386] inception_3b/relu_5x5 -> inception_3b/5x5 (in-place)
I0714 21:15:40.140485 21302 net.cpp:141] Setting up inception_3b/relu_5x5
I0714 21:15:40.140501 21302 net.cpp:148] Top shape: 10 96 28 28 (752640)
I0714 21:15:40.140506 21302 net.cpp:156] Memory required for data: 310087680
I0714 21:15:40.140512 21302 layer_factory.hpp:77] Creating layer inception_3b/pool
I0714 21:15:40.140522 21302 net.cpp:91] Creating Layer inception_3b/pool
I0714 21:15:40.140529 21302 net.cpp:425] inception_3b/pool <- inception_3a/output_inception_3a/output_0_split_3
I0714 21:15:40.140538 21302 net.cpp:399] inception_3b/pool -> inception_3b/pool
I0714 21:15:40.141145 21302 net.cpp:141] Setting up inception_3b/pool
I0714 21:15:40.141158 21302 net.cpp:148] Top shape: 10 256 28 28 (2007040)
I0714 21:15:40.141163 21302 net.cpp:156] Memory required for data: 318115840
I0714 21:15:40.141168 21302 layer_factory.hpp:77] Creating layer inception_3b/pool_proj
I0714 21:15:40.141185 21302 net.cpp:91] Creating Layer inception_3b/pool_proj
I0714 21:15:40.141192 21302 net.cpp:425] inception_3b/pool_proj <- inception_3b/pool
I0714 21:15:40.141206 21302 net.cpp:399] inception_3b/pool_proj -> inception_3b/pool_proj
I0714 21:15:40.141530 21298 net.cpp:141] Setting up inception_3b/relu_3x3
I0714 21:15:40.141553 21298 net.cpp:148] Top shape: 10 192 28 28 (1505280)
I0714 21:15:40.141564 21298 net.cpp:156] Memory required for data: 302059520
I0714 21:15:40.141577 21298 layer_factory.hpp:77] Creating layer inception_3b/5x5_reduce
I0714 21:15:40.141604 21298 net.cpp:91] Creating Layer inception_3b/5x5_reduce
I0714 21:15:40.141619 21298 net.cpp:425] inception_3b/5x5_reduce <- inception_3a/output_inception_3a/output_0_split_2
I0714 21:15:40.141639 21298 net.cpp:399] inception_3b/5x5_reduce -> inception_3b/5x5_reduce
I0714 21:15:40.146215 21302 net.cpp:141] Setting up inception_3b/pool_proj
I0714 21:15:40.146234 21302 net.cpp:148] Top shape: 10 64 28 28 (501760)
I0714 21:15:40.146240 21302 net.cpp:156] Memory required for data: 320122880
I0714 21:15:40.146256 21302 layer_factory.hpp:77] Creating layer inception_3b/relu_pool_proj
I0714 21:15:40.146266 21302 net.cpp:91] Creating Layer inception_3b/relu_pool_proj
I0714 21:15:40.146272 21302 net.cpp:425] inception_3b/relu_pool_proj <- inception_3b/pool_proj
I0714 21:15:40.146288 21302 net.cpp:386] inception_3b/relu_pool_proj -> inception_3b/pool_proj (in-place)
I0714 21:15:40.147308 21302 net.cpp:141] Setting up inception_3b/relu_pool_proj
I0714 21:15:40.147326 21302 net.cpp:148] Top shape: 10 64 28 28 (501760)
I0714 21:15:40.147332 21302 net.cpp:156] Memory required for data: 322129920
I0714 21:15:40.147338 21302 layer_factory.hpp:77] Creating layer inception_3b/output
I0714 21:15:40.147348 21302 net.cpp:91] Creating Layer inception_3b/output
I0714 21:15:40.147356 21302 net.cpp:425] inception_3b/output <- inception_3b/1x1
I0714 21:15:40.147362 21302 net.cpp:425] inception_3b/output <- inception_3b/3x3
I0714 21:15:40.147368 21302 net.cpp:425] inception_3b/output <- inception_3b/5x5
I0714 21:15:40.147374 21302 net.cpp:425] inception_3b/output <- inception_3b/pool_proj
I0714 21:15:40.147384 21302 net.cpp:399] inception_3b/output -> inception_3b/output
I0714 21:15:40.147518 21302 net.cpp:141] Setting up inception_3b/output
I0714 21:15:40.147531 21302 net.cpp:148] Top shape: 10 480 28 28 (3763200)
I0714 21:15:40.147536 21302 net.cpp:156] Memory required for data: 337182720
I0714 21:15:40.147541 21302 layer_factory.hpp:77] Creating layer pool3/3x3_s2
I0714 21:15:40.147553 21302 net.cpp:91] Creating Layer pool3/3x3_s2
I0714 21:15:40.147552 21298 net.cpp:141] Setting up inception_3b/5x5_reduce
I0714 21:15:40.147559 21302 net.cpp:425] pool3/3x3_s2 <- inception_3b/output
I0714 21:15:40.147581 21302 net.cpp:399] pool3/3x3_s2 -> pool3/3x3_s2
I0714 21:15:40.147580 21298 net.cpp:148] Top shape: 10 32 28 28 (250880)
I0714 21:15:40.147605 21298 net.cpp:156] Memory required for data: 303063040
I0714 21:15:40.147626 21298 layer_factory.hpp:77] Creating layer inception_3b/relu_5x5_reduce
I0714 21:15:40.147651 21298 net.cpp:91] Creating Layer inception_3b/relu_5x5_reduce
I0714 21:15:40.147666 21298 net.cpp:425] inception_3b/relu_5x5_reduce <- inception_3b/5x5_reduce
I0714 21:15:40.147686 21298 net.cpp:386] inception_3b/relu_5x5_reduce -> inception_3b/5x5_reduce (in-place)
I0714 21:15:40.147701 21302 net.cpp:141] Setting up pool3/3x3_s2
I0714 21:15:40.147716 21302 net.cpp:148] Top shape: 10 480 14 14 (940800)
I0714 21:15:40.147722 21302 net.cpp:156] Memory required for data: 340945920
I0714 21:15:40.147727 21302 layer_factory.hpp:77] Creating layer pool3/3x3_s2_pool3/3x3_s2_0_split
I0714 21:15:40.147737 21302 net.cpp:91] Creating Layer pool3/3x3_s2_pool3/3x3_s2_0_split
I0714 21:15:40.147743 21302 net.cpp:425] pool3/3x3_s2_pool3/3x3_s2_0_split <- pool3/3x3_s2
I0714 21:15:40.147750 21302 net.cpp:399] pool3/3x3_s2_pool3/3x3_s2_0_split -> pool3/3x3_s2_pool3/3x3_s2_0_split_0
I0714 21:15:40.147759 21302 net.cpp:399] pool3/3x3_s2_pool3/3x3_s2_0_split -> pool3/3x3_s2_pool3/3x3_s2_0_split_1
I0714 21:15:40.147773 21302 net.cpp:399] pool3/3x3_s2_pool3/3x3_s2_0_split -> pool3/3x3_s2_pool3/3x3_s2_0_split_2
I0714 21:15:40.147781 21302 net.cpp:399] pool3/3x3_s2_pool3/3x3_s2_0_split -> pool3/3x3_s2_pool3/3x3_s2_0_split_3
I0714 21:15:40.148274 21302 net.cpp:141] Setting up pool3/3x3_s2_pool3/3x3_s2_0_split
I0714 21:15:40.148290 21302 net.cpp:148] Top shape: 10 480 14 14 (940800)
I0714 21:15:40.148298 21302 net.cpp:148] Top shape: 10 480 14 14 (940800)
I0714 21:15:40.148303 21302 net.cpp:148] Top shape: 10 480 14 14 (940800)
I0714 21:15:40.148309 21302 net.cpp:148] Top shape: 10 480 14 14 (940800)
I0714 21:15:40.148313 21302 net.cpp:156] Memory required for data: 355998720
I0714 21:15:40.148319 21302 layer_factory.hpp:77] Creating layer inception_4a/1x1
I0714 21:15:40.148332 21302 net.cpp:91] Creating Layer inception_4a/1x1
I0714 21:15:40.148329 21298 net.cpp:141] Setting up inception_3b/relu_5x5_reduce
I0714 21:15:40.148339 21302 net.cpp:425] inception_4a/1x1 <- pool3/3x3_s2_pool3/3x3_s2_0_split_0
I0714 21:15:40.148360 21298 net.cpp:148] Top shape: 10 32 28 28 (250880)
I0714 21:15:40.148365 21302 net.cpp:399] inception_4a/1x1 -> inception_4a/1x1
I0714 21:15:40.148370 21298 net.cpp:156] Memory required for data: 304066560
I0714 21:15:40.148380 21298 layer_factory.hpp:77] Creating layer inception_3b/5x5
I0714 21:15:40.148407 21298 net.cpp:91] Creating Layer inception_3b/5x5
I0714 21:15:40.148421 21298 net.cpp:425] inception_3b/5x5 <- inception_3b/5x5_reduce
I0714 21:15:40.148440 21298 net.cpp:399] inception_3b/5x5 -> inception_3b/5x5
I0714 21:15:40.156225 21302 net.cpp:141] Setting up inception_4a/1x1
I0714 21:15:40.156255 21302 net.cpp:148] Top shape: 10 192 14 14 (376320)
I0714 21:15:40.156261 21302 net.cpp:156] Memory required for data: 357504000
I0714 21:15:40.156275 21302 layer_factory.hpp:77] Creating layer inception_4a/relu_1x1
I0714 21:15:40.156293 21302 net.cpp:91] Creating Layer inception_4a/relu_1x1
I0714 21:15:40.156301 21302 net.cpp:425] inception_4a/relu_1x1 <- inception_4a/1x1
I0714 21:15:40.156309 21302 net.cpp:386] inception_4a/relu_1x1 -> inception_4a/1x1 (in-place)
I0714 21:15:40.156616 21298 net.cpp:141] Setting up inception_3b/5x5
I0714 21:15:40.156641 21298 net.cpp:148] Top shape: 10 96 28 28 (752640)
I0714 21:15:40.156651 21298 net.cpp:156] Memory required for data: 307077120
I0714 21:15:40.156663 21302 net.cpp:141] Setting up inception_4a/relu_1x1
I0714 21:15:40.156672 21298 layer_factory.hpp:77] Creating layer inception_3b/relu_5x5
I0714 21:15:40.156677 21302 net.cpp:148] Top shape: 10 192 14 14 (376320)
I0714 21:15:40.156682 21302 net.cpp:156] Memory required for data: 359009280
I0714 21:15:40.156688 21302 layer_factory.hpp:77] Creating layer inception_4a/3x3_reduce
I0714 21:15:40.156689 21298 net.cpp:91] Creating Layer inception_3b/relu_5x5
I0714 21:15:40.156703 21298 net.cpp:425] inception_3b/relu_5x5 <- inception_3b/5x5
I0714 21:15:40.156707 21302 net.cpp:91] Creating Layer inception_4a/3x3_reduce
I0714 21:15:40.156715 21302 net.cpp:425] inception_4a/3x3_reduce <- pool3/3x3_s2_pool3/3x3_s2_0_split_1
I0714 21:15:40.156734 21298 net.cpp:386] inception_3b/relu_5x5 -> inception_3b/5x5 (in-place)
I0714 21:15:40.156739 21302 net.cpp:399] inception_4a/3x3_reduce -> inception_4a/3x3_reduce
I0714 21:15:40.157624 21298 net.cpp:141] Setting up inception_3b/relu_5x5
I0714 21:15:40.157645 21298 net.cpp:148] Top shape: 10 96 28 28 (752640)
I0714 21:15:40.157656 21298 net.cpp:156] Memory required for data: 310087680
I0714 21:15:40.157667 21298 layer_factory.hpp:77] Creating layer inception_3b/pool
I0714 21:15:40.157688 21298 net.cpp:91] Creating Layer inception_3b/pool
I0714 21:15:40.157702 21298 net.cpp:425] inception_3b/pool <- inception_3a/output_inception_3a/output_0_split_3
I0714 21:15:40.157721 21298 net.cpp:399] inception_3b/pool -> inception_3b/pool
I0714 21:15:40.157902 21298 net.cpp:141] Setting up inception_3b/pool
I0714 21:15:40.157922 21298 net.cpp:148] Top shape: 10 256 28 28 (2007040)
I0714 21:15:40.157932 21298 net.cpp:156] Memory required for data: 318115840
I0714 21:15:40.157943 21298 layer_factory.hpp:77] Creating layer inception_3b/pool_proj
I0714 21:15:40.157970 21298 net.cpp:91] Creating Layer inception_3b/pool_proj
I0714 21:15:40.157984 21298 net.cpp:425] inception_3b/pool_proj <- inception_3b/pool
I0714 21:15:40.158010 21298 net.cpp:399] inception_3b/pool_proj -> inception_3b/pool_proj
I0714 21:15:40.162417 21302 net.cpp:141] Setting up inception_4a/3x3_reduce
I0714 21:15:40.162437 21302 net.cpp:148] Top shape: 10 96 14 14 (188160)
I0714 21:15:40.162443 21302 net.cpp:156] Memory required for data: 359761920
I0714 21:15:40.162469 21302 layer_factory.hpp:77] Creating layer inception_4a/relu_3x3_reduce
I0714 21:15:40.162480 21302 net.cpp:91] Creating Layer inception_4a/relu_3x3_reduce
I0714 21:15:40.162487 21302 net.cpp:425] inception_4a/relu_3x3_reduce <- inception_4a/3x3_reduce
I0714 21:15:40.162495 21302 net.cpp:386] inception_4a/relu_3x3_reduce -> inception_4a/3x3_reduce (in-place)
I0714 21:15:40.162897 21302 net.cpp:141] Setting up inception_4a/relu_3x3_reduce
I0714 21:15:40.162911 21302 net.cpp:148] Top shape: 10 96 14 14 (188160)
I0714 21:15:40.162917 21302 net.cpp:156] Memory required for data: 360514560
I0714 21:15:40.162924 21302 layer_factory.hpp:77] Creating layer inception_4a/3x3
I0714 21:15:40.162941 21302 net.cpp:91] Creating Layer inception_4a/3x3
I0714 21:15:40.162948 21302 net.cpp:425] inception_4a/3x3 <- inception_4a/3x3_reduce
I0714 21:15:40.162961 21302 net.cpp:399] inception_4a/3x3 -> inception_4a/3x3
I0714 21:15:40.165628 21298 net.cpp:141] Setting up inception_3b/pool_proj
I0714 21:15:40.165653 21298 net.cpp:148] Top shape: 10 64 28 28 (501760)
I0714 21:15:40.165664 21298 net.cpp:156] Memory required for data: 320122880
I0714 21:15:40.165683 21298 layer_factory.hpp:77] Creating layer inception_3b/relu_pool_proj
I0714 21:15:40.165709 21298 net.cpp:91] Creating Layer inception_3b/relu_pool_proj
I0714 21:15:40.165724 21298 net.cpp:425] inception_3b/relu_pool_proj <- inception_3b/pool_proj
I0714 21:15:40.165746 21298 net.cpp:386] inception_3b/relu_pool_proj -> inception_3b/pool_proj (in-place)
I0714 21:15:40.167013 21298 net.cpp:141] Setting up inception_3b/relu_pool_proj
I0714 21:15:40.167035 21298 net.cpp:148] Top shape: 10 64 28 28 (501760)
I0714 21:15:40.167047 21298 net.cpp:156] Memory required for data: 322129920
I0714 21:15:40.167057 21298 layer_factory.hpp:77] Creating layer inception_3b/output
I0714 21:15:40.167073 21298 net.cpp:91] Creating Layer inception_3b/output
I0714 21:15:40.167084 21298 net.cpp:425] inception_3b/output <- inception_3b/1x1
I0714 21:15:40.167096 21298 net.cpp:425] inception_3b/output <- inception_3b/3x3
I0714 21:15:40.167107 21298 net.cpp:425] inception_3b/output <- inception_3b/5x5
I0714 21:15:40.167117 21298 net.cpp:425] inception_3b/output <- inception_3b/pool_proj
I0714 21:15:40.167135 21298 net.cpp:399] inception_3b/output -> inception_3b/output
I0714 21:15:40.167897 21298 net.cpp:141] Setting up inception_3b/output
I0714 21:15:40.167918 21298 net.cpp:148] Top shape: 10 480 28 28 (3763200)
I0714 21:15:40.167929 21298 net.cpp:156] Memory required for data: 337182720
I0714 21:15:40.167942 21298 layer_factory.hpp:77] Creating layer pool3/3x3_s2
I0714 21:15:40.167963 21298 net.cpp:91] Creating Layer pool3/3x3_s2
I0714 21:15:40.167976 21298 net.cpp:425] pool3/3x3_s2 <- inception_3b/output
I0714 21:15:40.167994 21298 net.cpp:399] pool3/3x3_s2 -> pool3/3x3_s2
I0714 21:15:40.168858 21298 net.cpp:141] Setting up pool3/3x3_s2
I0714 21:15:40.168890 21298 net.cpp:148] Top shape: 10 480 14 14 (940800)
I0714 21:15:40.168902 21298 net.cpp:156] Memory required for data: 340945920
I0714 21:15:40.168913 21298 layer_factory.hpp:77] Creating layer pool3/3x3_s2_pool3/3x3_s2_0_split
I0714 21:15:40.168931 21298 net.cpp:91] Creating Layer pool3/3x3_s2_pool3/3x3_s2_0_split
I0714 21:15:40.168944 21298 net.cpp:425] pool3/3x3_s2_pool3/3x3_s2_0_split <- pool3/3x3_s2
I0714 21:15:40.168959 21298 net.cpp:399] pool3/3x3_s2_pool3/3x3_s2_0_split -> pool3/3x3_s2_pool3/3x3_s2_0_split_0
I0714 21:15:40.168979 21298 net.cpp:399] pool3/3x3_s2_pool3/3x3_s2_0_split -> pool3/3x3_s2_pool3/3x3_s2_0_split_1
I0714 21:15:40.168998 21298 net.cpp:399] pool3/3x3_s2_pool3/3x3_s2_0_split -> pool3/3x3_s2_pool3/3x3_s2_0_split_2
I0714 21:15:40.169024 21298 net.cpp:399] pool3/3x3_s2_pool3/3x3_s2_0_split -> pool3/3x3_s2_pool3/3x3_s2_0_split_3
I0714 21:15:40.169606 21298 net.cpp:141] Setting up pool3/3x3_s2_pool3/3x3_s2_0_split
I0714 21:15:40.169628 21298 net.cpp:148] Top shape: 10 480 14 14 (940800)
I0714 21:15:40.169643 21298 net.cpp:148] Top shape: 10 480 14 14 (940800)
I0714 21:15:40.169656 21298 net.cpp:148] Top shape: 10 480 14 14 (940800)
I0714 21:15:40.169668 21298 net.cpp:148] Top shape: 10 480 14 14 (940800)
I0714 21:15:40.169677 21298 net.cpp:156] Memory required for data: 355998720
I0714 21:15:40.169688 21298 layer_factory.hpp:77] Creating layer inception_4a/1x1
I0714 21:15:40.169721 21298 net.cpp:91] Creating Layer inception_4a/1x1
I0714 21:15:40.169736 21298 net.cpp:425] inception_4a/1x1 <- pool3/3x3_s2_pool3/3x3_s2_0_split_0
I0714 21:15:40.169756 21298 net.cpp:399] inception_4a/1x1 -> inception_4a/1x1
I0714 21:15:40.169790 21302 net.cpp:141] Setting up inception_4a/3x3
I0714 21:15:40.169808 21302 net.cpp:148] Top shape: 10 208 14 14 (407680)
I0714 21:15:40.169813 21302 net.cpp:156] Memory required for data: 362145280
I0714 21:15:40.169824 21302 layer_factory.hpp:77] Creating layer inception_4a/relu_3x3
I0714 21:15:40.169833 21302 net.cpp:91] Creating Layer inception_4a/relu_3x3
I0714 21:15:40.169843 21302 net.cpp:425] inception_4a/relu_3x3 <- inception_4a/3x3
I0714 21:15:40.169852 21302 net.cpp:386] inception_4a/relu_3x3 -> inception_4a/3x3 (in-place)
I0714 21:15:40.170828 21302 net.cpp:141] Setting up inception_4a/relu_3x3
I0714 21:15:40.170847 21302 net.cpp:148] Top shape: 10 208 14 14 (407680)
I0714 21:15:40.170853 21302 net.cpp:156] Memory required for data: 363776000
I0714 21:15:40.170860 21302 layer_factory.hpp:77] Creating layer inception_4a/5x5_reduce
I0714 21:15:40.170876 21302 net.cpp:91] Creating Layer inception_4a/5x5_reduce
I0714 21:15:40.170884 21302 net.cpp:425] inception_4a/5x5_reduce <- pool3/3x3_s2_pool3/3x3_s2_0_split_2
I0714 21:15:40.170898 21302 net.cpp:399] inception_4a/5x5_reduce -> inception_4a/5x5_reduce
I0714 21:15:40.176226 21302 net.cpp:141] Setting up inception_4a/5x5_reduce
I0714 21:15:40.176246 21302 net.cpp:148] Top shape: 10 16 14 14 (31360)
I0714 21:15:40.176252 21302 net.cpp:156] Memory required for data: 363901440
I0714 21:15:40.176262 21302 layer_factory.hpp:77] Creating layer inception_4a/relu_5x5_reduce
I0714 21:15:40.176275 21302 net.cpp:91] Creating Layer inception_4a/relu_5x5_reduce
I0714 21:15:40.176281 21302 net.cpp:425] inception_4a/relu_5x5_reduce <- inception_4a/5x5_reduce
I0714 21:15:40.176290 21302 net.cpp:386] inception_4a/relu_5x5_reduce -> inception_4a/5x5_reduce (in-place)
I0714 21:15:40.176683 21302 net.cpp:141] Setting up inception_4a/relu_5x5_reduce
I0714 21:15:40.176699 21302 net.cpp:148] Top shape: 10 16 14 14 (31360)
I0714 21:15:40.176704 21302 net.cpp:156] Memory required for data: 364026880
I0714 21:15:40.176710 21302 layer_factory.hpp:77] Creating layer inception_4a/5x5
I0714 21:15:40.176729 21302 net.cpp:91] Creating Layer inception_4a/5x5
I0714 21:15:40.176736 21302 net.cpp:425] inception_4a/5x5 <- inception_4a/5x5_reduce
I0714 21:15:40.176745 21302 net.cpp:399] inception_4a/5x5 -> inception_4a/5x5
I0714 21:15:40.177302 21298 net.cpp:141] Setting up inception_4a/1x1
I0714 21:15:40.177326 21298 net.cpp:148] Top shape: 10 192 14 14 (376320)
I0714 21:15:40.177338 21298 net.cpp:156] Memory required for data: 357504000
I0714 21:15:40.177357 21298 layer_factory.hpp:77] Creating layer inception_4a/relu_1x1
I0714 21:15:40.177381 21298 net.cpp:91] Creating Layer inception_4a/relu_1x1
I0714 21:15:40.177393 21298 net.cpp:425] inception_4a/relu_1x1 <- inception_4a/1x1
I0714 21:15:40.177409 21298 net.cpp:386] inception_4a/relu_1x1 -> inception_4a/1x1 (in-place)
I0714 21:15:40.178045 21298 net.cpp:141] Setting up inception_4a/relu_1x1
I0714 21:15:40.178066 21298 net.cpp:148] Top shape: 10 192 14 14 (376320)
I0714 21:15:40.178077 21298 net.cpp:156] Memory required for data: 359009280
I0714 21:15:40.178088 21298 layer_factory.hpp:77] Creating layer inception_4a/3x3_reduce
I0714 21:15:40.178117 21298 net.cpp:91] Creating Layer inception_4a/3x3_reduce
I0714 21:15:40.178131 21298 net.cpp:425] inception_4a/3x3_reduce <- pool3/3x3_s2_pool3/3x3_s2_0_split_1
I0714 21:15:40.178151 21298 net.cpp:399] inception_4a/3x3_reduce -> inception_4a/3x3_reduce
I0714 21:15:40.181430 21302 net.cpp:141] Setting up inception_4a/5x5
I0714 21:15:40.181449 21302 net.cpp:148] Top shape: 10 48 14 14 (94080)
I0714 21:15:40.181455 21302 net.cpp:156] Memory required for data: 364403200
I0714 21:15:40.181465 21302 layer_factory.hpp:77] Creating layer inception_4a/relu_5x5
I0714 21:15:40.181475 21302 net.cpp:91] Creating Layer inception_4a/relu_5x5
I0714 21:15:40.181481 21302 net.cpp:425] inception_4a/relu_5x5 <- inception_4a/5x5
I0714 21:15:40.181493 21302 net.cpp:386] inception_4a/relu_5x5 -> inception_4a/5x5 (in-place)
I0714 21:15:40.181877 21302 net.cpp:141] Setting up inception_4a/relu_5x5
I0714 21:15:40.181891 21302 net.cpp:148] Top shape: 10 48 14 14 (94080)
I0714 21:15:40.181896 21302 net.cpp:156] Memory required for data: 364779520
I0714 21:15:40.181901 21302 layer_factory.hpp:77] Creating layer inception_4a/pool
I0714 21:15:40.181915 21302 net.cpp:91] Creating Layer inception_4a/pool
I0714 21:15:40.181921 21302 net.cpp:425] inception_4a/pool <- pool3/3x3_s2_pool3/3x3_s2_0_split_3
I0714 21:15:40.181929 21302 net.cpp:399] inception_4a/pool -> inception_4a/pool
I0714 21:15:40.182121 21302 net.cpp:141] Setting up inception_4a/pool
I0714 21:15:40.182133 21302 net.cpp:148] Top shape: 10 480 14 14 (940800)
I0714 21:15:40.182138 21302 net.cpp:156] Memory required for data: 368542720
I0714 21:15:40.182143 21302 layer_factory.hpp:77] Creating layer inception_4a/pool_proj
I0714 21:15:40.182160 21302 net.cpp:91] Creating Layer inception_4a/pool_proj
I0714 21:15:40.182166 21302 net.cpp:425] inception_4a/pool_proj <- inception_4a/pool
I0714 21:15:40.182181 21302 net.cpp:399] inception_4a/pool_proj -> inception_4a/pool_proj
I0714 21:15:40.183892 21298 net.cpp:141] Setting up inception_4a/3x3_reduce
I0714 21:15:40.183915 21298 net.cpp:148] Top shape: 10 96 14 14 (188160)
I0714 21:15:40.183928 21298 net.cpp:156] Memory required for data: 359761920
I0714 21:15:40.183969 21298 layer_factory.hpp:77] Creating layer inception_4a/relu_3x3_reduce
I0714 21:15:40.183990 21298 net.cpp:91] Creating Layer inception_4a/relu_3x3_reduce
I0714 21:15:40.184003 21298 net.cpp:425] inception_4a/relu_3x3_reduce <- inception_4a/3x3_reduce
I0714 21:15:40.184020 21298 net.cpp:386] inception_4a/relu_3x3_reduce -> inception_4a/3x3_reduce (in-place)
I0714 21:15:40.184501 21298 net.cpp:141] Setting up inception_4a/relu_3x3_reduce
I0714 21:15:40.184525 21298 net.cpp:148] Top shape: 10 96 14 14 (188160)
I0714 21:15:40.184535 21298 net.cpp:156] Memory required for data: 360514560
I0714 21:15:40.184545 21298 layer_factory.hpp:77] Creating layer inception_4a/3x3
I0714 21:15:40.184574 21298 net.cpp:91] Creating Layer inception_4a/3x3
I0714 21:15:40.184589 21298 net.cpp:425] inception_4a/3x3 <- inception_4a/3x3_reduce
I0714 21:15:40.184614 21298 net.cpp:399] inception_4a/3x3 -> inception_4a/3x3
I0714 21:15:40.188419 21302 net.cpp:141] Setting up inception_4a/pool_proj
I0714 21:15:40.188439 21302 net.cpp:148] Top shape: 10 64 14 14 (125440)
I0714 21:15:40.188446 21302 net.cpp:156] Memory required for data: 369044480
I0714 21:15:40.188457 21302 layer_factory.hpp:77] Creating layer inception_4a/relu_pool_proj
I0714 21:15:40.188468 21302 net.cpp:91] Creating Layer inception_4a/relu_pool_proj
I0714 21:15:40.188475 21302 net.cpp:425] inception_4a/relu_pool_proj <- inception_4a/pool_proj
I0714 21:15:40.188484 21302 net.cpp:386] inception_4a/relu_pool_proj -> inception_4a/pool_proj (in-place)
I0714 21:15:40.189313 21302 net.cpp:141] Setting up inception_4a/relu_pool_proj
I0714 21:15:40.189334 21302 net.cpp:148] Top shape: 10 64 14 14 (125440)
I0714 21:15:40.189340 21302 net.cpp:156] Memory required for data: 369546240
I0714 21:15:40.189347 21302 layer_factory.hpp:77] Creating layer inception_4a/output
I0714 21:15:40.189357 21302 net.cpp:91] Creating Layer inception_4a/output
I0714 21:15:40.189363 21302 net.cpp:425] inception_4a/output <- inception_4a/1x1
I0714 21:15:40.189369 21302 net.cpp:425] inception_4a/output <- inception_4a/3x3
I0714 21:15:40.189376 21302 net.cpp:425] inception_4a/output <- inception_4a/5x5
I0714 21:15:40.189381 21302 net.cpp:425] inception_4a/output <- inception_4a/pool_proj
I0714 21:15:40.189388 21302 net.cpp:399] inception_4a/output -> inception_4a/output
I0714 21:15:40.189479 21302 net.cpp:141] Setting up inception_4a/output
I0714 21:15:40.189498 21302 net.cpp:148] Top shape: 10 512 14 14 (1003520)
I0714 21:15:40.189504 21302 net.cpp:156] Memory required for data: 373560320
I0714 21:15:40.189509 21302 layer_factory.hpp:77] Creating layer inception_4a/output_inception_4a/output_0_split
I0714 21:15:40.189519 21302 net.cpp:91] Creating Layer inception_4a/output_inception_4a/output_0_split
I0714 21:15:40.189524 21302 net.cpp:425] inception_4a/output_inception_4a/output_0_split <- inception_4a/output
I0714 21:15:40.189532 21302 net.cpp:399] inception_4a/output_inception_4a/output_0_split -> inception_4a/output_inception_4a/output_0_split_0
I0714 21:15:40.189543 21302 net.cpp:399] inception_4a/output_inception_4a/output_0_split -> inception_4a/output_inception_4a/output_0_split_1
I0714 21:15:40.189553 21302 net.cpp:399] inception_4a/output_inception_4a/output_0_split -> inception_4a/output_inception_4a/output_0_split_2
I0714 21:15:40.189563 21302 net.cpp:399] inception_4a/output_inception_4a/output_0_split -> inception_4a/output_inception_4a/output_0_split_3
I0714 21:15:40.189738 21302 net.cpp:141] Setting up inception_4a/output_inception_4a/output_0_split
I0714 21:15:40.189750 21302 net.cpp:148] Top shape: 10 512 14 14 (1003520)
I0714 21:15:40.189756 21302 net.cpp:148] Top shape: 10 512 14 14 (1003520)
I0714 21:15:40.189762 21302 net.cpp:148] Top shape: 10 512 14 14 (1003520)
I0714 21:15:40.189769 21302 net.cpp:148] Top shape: 10 512 14 14 (1003520)
I0714 21:15:40.189774 21302 net.cpp:156] Memory required for data: 389616640
I0714 21:15:40.189779 21302 layer_factory.hpp:77] Creating layer inception_4b/1x1
I0714 21:15:40.189795 21302 net.cpp:91] Creating Layer inception_4b/1x1
I0714 21:15:40.189802 21302 net.cpp:425] inception_4b/1x1 <- inception_4a/output_inception_4a/output_0_split_0
I0714 21:15:40.189812 21302 net.cpp:399] inception_4b/1x1 -> inception_4b/1x1
I0714 21:15:40.193938 21298 net.cpp:141] Setting up inception_4a/3x3
I0714 21:15:40.193963 21298 net.cpp:148] Top shape: 10 208 14 14 (407680)
I0714 21:15:40.193974 21298 net.cpp:156] Memory required for data: 362145280
I0714 21:15:40.194006 21298 layer_factory.hpp:77] Creating layer inception_4a/relu_3x3
I0714 21:15:40.194026 21298 net.cpp:91] Creating Layer inception_4a/relu_3x3
I0714 21:15:40.194041 21298 net.cpp:425] inception_4a/relu_3x3 <- inception_4a/3x3
I0714 21:15:40.194061 21298 net.cpp:386] inception_4a/relu_3x3 -> inception_4a/3x3 (in-place)
I0714 21:15:40.194154 21302 net.cpp:141] Setting up inception_4b/1x1
I0714 21:15:40.194171 21302 net.cpp:148] Top shape: 10 160 14 14 (313600)
I0714 21:15:40.194176 21302 net.cpp:156] Memory required for data: 390871040
I0714 21:15:40.194186 21302 layer_factory.hpp:77] Creating layer inception_4b/relu_1x1
I0714 21:15:40.194198 21302 net.cpp:91] Creating Layer inception_4b/relu_1x1
I0714 21:15:40.194205 21302 net.cpp:425] inception_4b/relu_1x1 <- inception_4b/1x1
I0714 21:15:40.194213 21302 net.cpp:386] inception_4b/relu_1x1 -> inception_4b/1x1 (in-place)
I0714 21:15:40.194533 21302 net.cpp:141] Setting up inception_4b/relu_1x1
I0714 21:15:40.194547 21302 net.cpp:148] Top shape: 10 160 14 14 (313600)
I0714 21:15:40.194552 21302 net.cpp:156] Memory required for data: 392125440
I0714 21:15:40.194557 21302 layer_factory.hpp:77] Creating layer inception_4b/3x3_reduce
I0714 21:15:40.194578 21302 net.cpp:91] Creating Layer inception_4b/3x3_reduce
I0714 21:15:40.194586 21302 net.cpp:425] inception_4b/3x3_reduce <- inception_4a/output_inception_4a/output_0_split_1
I0714 21:15:40.194596 21302 net.cpp:399] inception_4b/3x3_reduce -> inception_4b/3x3_reduce
I0714 21:15:40.195629 21298 net.cpp:141] Setting up inception_4a/relu_3x3
I0714 21:15:40.195653 21298 net.cpp:148] Top shape: 10 208 14 14 (407680)
I0714 21:15:40.195664 21298 net.cpp:156] Memory required for data: 363776000
I0714 21:15:40.195675 21298 layer_factory.hpp:77] Creating layer inception_4a/5x5_reduce
I0714 21:15:40.195703 21298 net.cpp:91] Creating Layer inception_4a/5x5_reduce
I0714 21:15:40.195718 21298 net.cpp:425] inception_4a/5x5_reduce <- pool3/3x3_s2_pool3/3x3_s2_0_split_2
I0714 21:15:40.195745 21298 net.cpp:399] inception_4a/5x5_reduce -> inception_4a/5x5_reduce
I0714 21:15:40.200268 21302 net.cpp:141] Setting up inception_4b/3x3_reduce
I0714 21:15:40.200289 21302 net.cpp:148] Top shape: 10 112 14 14 (219520)
I0714 21:15:40.200294 21302 net.cpp:156] Memory required for data: 393003520
I0714 21:15:40.200305 21302 layer_factory.hpp:77] Creating layer inception_4b/relu_3x3_reduce
I0714 21:15:40.200315 21302 net.cpp:91] Creating Layer inception_4b/relu_3x3_reduce
I0714 21:15:40.200322 21302 net.cpp:425] inception_4b/relu_3x3_reduce <- inception_4b/3x3_reduce
I0714 21:15:40.200335 21302 net.cpp:386] inception_4b/relu_3x3_reduce -> inception_4b/3x3_reduce (in-place)
I0714 21:15:40.200747 21302 net.cpp:141] Setting up inception_4b/relu_3x3_reduce
I0714 21:15:40.200763 21302 net.cpp:148] Top shape: 10 112 14 14 (219520)
I0714 21:15:40.200768 21302 net.cpp:156] Memory required for data: 393881600
I0714 21:15:40.200774 21302 layer_factory.hpp:77] Creating layer inception_4b/3x3
I0714 21:15:40.200791 21302 net.cpp:91] Creating Layer inception_4b/3x3
I0714 21:15:40.200799 21302 net.cpp:425] inception_4b/3x3 <- inception_4b/3x3_reduce
I0714 21:15:40.200809 21302 net.cpp:399] inception_4b/3x3 -> inception_4b/3x3
I0714 21:15:40.201390 21298 net.cpp:141] Setting up inception_4a/5x5_reduce
I0714 21:15:40.201413 21298 net.cpp:148] Top shape: 10 16 14 14 (31360)
I0714 21:15:40.201426 21298 net.cpp:156] Memory required for data: 363901440
I0714 21:15:40.201452 21298 layer_factory.hpp:77] Creating layer inception_4a/relu_5x5_reduce
I0714 21:15:40.201469 21298 net.cpp:91] Creating Layer inception_4a/relu_5x5_reduce
I0714 21:15:40.201488 21298 net.cpp:425] inception_4a/relu_5x5_reduce <- inception_4a/5x5_reduce
I0714 21:15:40.201505 21298 net.cpp:386] inception_4a/relu_5x5_reduce -> inception_4a/5x5_reduce (in-place)
I0714 21:15:40.202064 21298 net.cpp:141] Setting up inception_4a/relu_5x5_reduce
I0714 21:15:40.202086 21298 net.cpp:148] Top shape: 10 16 14 14 (31360)
I0714 21:15:40.202097 21298 net.cpp:156] Memory required for data: 364026880
I0714 21:15:40.202108 21298 layer_factory.hpp:77] Creating layer inception_4a/5x5
I0714 21:15:40.202142 21298 net.cpp:91] Creating Layer inception_4a/5x5
I0714 21:15:40.202157 21298 net.cpp:425] inception_4a/5x5 <- inception_4a/5x5_reduce
I0714 21:15:40.202177 21298 net.cpp:399] inception_4a/5x5 -> inception_4a/5x5
I0714 21:15:40.207742 21298 net.cpp:141] Setting up inception_4a/5x5
I0714 21:15:40.207772 21298 net.cpp:148] Top shape: 10 48 14 14 (94080)
I0714 21:15:40.207783 21298 net.cpp:156] Memory required for data: 364403200
I0714 21:15:40.207803 21298 layer_factory.hpp:77] Creating layer inception_4a/relu_5x5
I0714 21:15:40.207818 21298 net.cpp:91] Creating Layer inception_4a/relu_5x5
I0714 21:15:40.207831 21298 net.cpp:425] inception_4a/relu_5x5 <- inception_4a/5x5
I0714 21:15:40.207847 21298 net.cpp:386] inception_4a/relu_5x5 -> inception_4a/5x5 (in-place)
I0714 21:15:40.208385 21298 net.cpp:141] Setting up inception_4a/relu_5x5
I0714 21:15:40.208411 21298 net.cpp:148] Top shape: 10 48 14 14 (94080)
I0714 21:15:40.208421 21298 net.cpp:156] Memory required for data: 364779520
I0714 21:15:40.208433 21298 layer_factory.hpp:77] Creating layer inception_4a/pool
I0714 21:15:40.208457 21298 net.cpp:91] Creating Layer inception_4a/pool
I0714 21:15:40.208472 21298 net.cpp:425] inception_4a/pool <- pool3/3x3_s2_pool3/3x3_s2_0_split_3
I0714 21:15:40.208490 21298 net.cpp:399] inception_4a/pool -> inception_4a/pool
I0714 21:15:40.208832 21298 net.cpp:141] Setting up inception_4a/pool
I0714 21:15:40.208853 21298 net.cpp:148] Top shape: 10 480 14 14 (940800)
I0714 21:15:40.208863 21298 net.cpp:156] Memory required for data: 368542720
I0714 21:15:40.208873 21298 layer_factory.hpp:77] Creating layer inception_4a/pool_proj
I0714 21:15:40.208902 21298 net.cpp:91] Creating Layer inception_4a/pool_proj
I0714 21:15:40.208917 21298 net.cpp:425] inception_4a/pool_proj <- inception_4a/pool
I0714 21:15:40.208945 21298 net.cpp:399] inception_4a/pool_proj -> inception_4a/pool_proj
I0714 21:15:40.209389 21302 net.cpp:141] Setting up inception_4b/3x3
I0714 21:15:40.209406 21302 net.cpp:148] Top shape: 10 224 14 14 (439040)
I0714 21:15:40.209413 21302 net.cpp:156] Memory required for data: 395637760
I0714 21:15:40.209422 21302 layer_factory.hpp:77] Creating layer inception_4b/relu_3x3
I0714 21:15:40.209439 21302 net.cpp:91] Creating Layer inception_4b/relu_3x3
I0714 21:15:40.209444 21302 net.cpp:425] inception_4b/relu_3x3 <- inception_4b/3x3
I0714 21:15:40.209466 21302 net.cpp:386] inception_4b/relu_3x3 -> inception_4b/3x3 (in-place)
I0714 21:15:40.210881 21302 net.cpp:141] Setting up inception_4b/relu_3x3
I0714 21:15:40.210908 21302 net.cpp:148] Top shape: 10 224 14 14 (439040)
I0714 21:15:40.210918 21302 net.cpp:156] Memory required for data: 397393920
I0714 21:15:40.210928 21302 layer_factory.hpp:77] Creating layer inception_4b/5x5_reduce
I0714 21:15:40.210970 21302 net.cpp:91] Creating Layer inception_4b/5x5_reduce
I0714 21:15:40.210983 21302 net.cpp:425] inception_4b/5x5_reduce <- inception_4a/output_inception_4a/output_0_split_2
I0714 21:15:40.211004 21302 net.cpp:399] inception_4b/5x5_reduce -> inception_4b/5x5_reduce
I0714 21:15:40.215553 21298 net.cpp:141] Setting up inception_4a/pool_proj
I0714 21:15:40.215579 21298 net.cpp:148] Top shape: 10 64 14 14 (125440)
I0714 21:15:40.215590 21298 net.cpp:156] Memory required for data: 369044480
I0714 21:15:40.215610 21298 layer_factory.hpp:77] Creating layer inception_4a/relu_pool_proj
I0714 21:15:40.215638 21298 net.cpp:91] Creating Layer inception_4a/relu_pool_proj
I0714 21:15:40.215653 21298 net.cpp:425] inception_4a/relu_pool_proj <- inception_4a/pool_proj
I0714 21:15:40.215668 21298 net.cpp:386] inception_4a/relu_pool_proj -> inception_4a/pool_proj (in-place)
I0714 21:15:40.216833 21298 net.cpp:141] Setting up inception_4a/relu_pool_proj
I0714 21:15:40.216856 21298 net.cpp:148] Top shape: 10 64 14 14 (125440)
I0714 21:15:40.216866 21298 net.cpp:156] Memory required for data: 369546240
I0714 21:15:40.216877 21298 layer_factory.hpp:77] Creating layer inception_4a/output
I0714 21:15:40.216902 21298 net.cpp:91] Creating Layer inception_4a/output
I0714 21:15:40.216914 21298 net.cpp:425] inception_4a/output <- inception_4a/1x1
I0714 21:15:40.216929 21298 net.cpp:425] inception_4a/output <- inception_4a/3x3
I0714 21:15:40.216941 21298 net.cpp:425] inception_4a/output <- inception_4a/5x5
I0714 21:15:40.216953 21298 net.cpp:425] inception_4a/output <- inception_4a/pool_proj
I0714 21:15:40.216965 21298 net.cpp:399] inception_4a/output -> inception_4a/output
I0714 21:15:40.217353 21298 net.cpp:141] Setting up inception_4a/output
I0714 21:15:40.217378 21298 net.cpp:148] Top shape: 10 512 14 14 (1003520)
I0714 21:15:40.217388 21298 net.cpp:156] Memory required for data: 373560320
I0714 21:15:40.217396 21298 layer_factory.hpp:77] Creating layer inception_4a/output_inception_4a/output_0_split
I0714 21:15:40.217406 21298 net.cpp:91] Creating Layer inception_4a/output_inception_4a/output_0_split
I0714 21:15:40.217412 21298 net.cpp:425] inception_4a/output_inception_4a/output_0_split <- inception_4a/output
I0714 21:15:40.217420 21298 net.cpp:399] inception_4a/output_inception_4a/output_0_split -> inception_4a/output_inception_4a/output_0_split_0
I0714 21:15:40.217432 21298 net.cpp:399] inception_4a/output_inception_4a/output_0_split -> inception_4a/output_inception_4a/output_0_split_1
I0714 21:15:40.217442 21298 net.cpp:399] inception_4a/output_inception_4a/output_0_split -> inception_4a/output_inception_4a/output_0_split_2
I0714 21:15:40.217455 21298 net.cpp:399] inception_4a/output_inception_4a/output_0_split -> inception_4a/output_inception_4a/output_0_split_3
I0714 21:15:40.217810 21298 net.cpp:141] Setting up inception_4a/output_inception_4a/output_0_split
I0714 21:15:40.217823 21298 net.cpp:148] Top shape: 10 512 14 14 (1003520)
I0714 21:15:40.217830 21298 net.cpp:148] Top shape: 10 512 14 14 (1003520)
I0714 21:15:40.217836 21298 net.cpp:148] Top shape: 10 512 14 14 (1003520)
I0714 21:15:40.217842 21298 net.cpp:148] Top shape: 10 512 14 14 (1003520)
I0714 21:15:40.217847 21298 net.cpp:156] Memory required for data: 389616640
I0714 21:15:40.217852 21298 layer_factory.hpp:77] Creating layer inception_4b/1x1
I0714 21:15:40.217877 21298 net.cpp:91] Creating Layer inception_4b/1x1
I0714 21:15:40.217885 21298 net.cpp:425] inception_4b/1x1 <- inception_4a/output_inception_4a/output_0_split_0
I0714 21:15:40.217895 21298 net.cpp:399] inception_4b/1x1 -> inception_4b/1x1
I0714 21:15:40.218595 21302 net.cpp:141] Setting up inception_4b/5x5_reduce
I0714 21:15:40.218617 21302 net.cpp:148] Top shape: 10 24 14 14 (47040)
I0714 21:15:40.218627 21302 net.cpp:156] Memory required for data: 397582080
I0714 21:15:40.218644 21302 layer_factory.hpp:77] Creating layer inception_4b/relu_5x5_reduce
I0714 21:15:40.218664 21302 net.cpp:91] Creating Layer inception_4b/relu_5x5_reduce
I0714 21:15:40.218677 21302 net.cpp:425] inception_4b/relu_5x5_reduce <- inception_4b/5x5_reduce
I0714 21:15:40.218706 21302 net.cpp:386] inception_4b/relu_5x5_reduce -> inception_4b/5x5_reduce (in-place)
I0714 21:15:40.219139 21302 net.cpp:141] Setting up inception_4b/relu_5x5_reduce
I0714 21:15:40.219158 21302 net.cpp:148] Top shape: 10 24 14 14 (47040)
I0714 21:15:40.219167 21302 net.cpp:156] Memory required for data: 397770240
I0714 21:15:40.219177 21302 layer_factory.hpp:77] Creating layer inception_4b/5x5
I0714 21:15:40.219202 21302 net.cpp:91] Creating Layer inception_4b/5x5
I0714 21:15:40.219213 21302 net.cpp:425] inception_4b/5x5 <- inception_4b/5x5_reduce
I0714 21:15:40.219233 21302 net.cpp:399] inception_4b/5x5 -> inception_4b/5x5
I0714 21:15:40.225055 21298 net.cpp:141] Setting up inception_4b/1x1
I0714 21:15:40.225090 21298 net.cpp:148] Top shape: 10 160 14 14 (313600)
I0714 21:15:40.225096 21298 net.cpp:156] Memory required for data: 390871040
I0714 21:15:40.225108 21298 layer_factory.hpp:77] Creating layer inception_4b/relu_1x1
I0714 21:15:40.225121 21298 net.cpp:91] Creating Layer inception_4b/relu_1x1
I0714 21:15:40.225128 21298 net.cpp:425] inception_4b/relu_1x1 <- inception_4b/1x1
I0714 21:15:40.225141 21298 net.cpp:386] inception_4b/relu_1x1 -> inception_4b/1x1 (in-place)
I0714 21:15:40.225486 21298 net.cpp:141] Setting up inception_4b/relu_1x1
I0714 21:15:40.225498 21298 net.cpp:148] Top shape: 10 160 14 14 (313600)
I0714 21:15:40.225503 21298 net.cpp:156] Memory required for data: 392125440
I0714 21:15:40.225509 21298 layer_factory.hpp:77] Creating layer inception_4b/3x3_reduce
I0714 21:15:40.225528 21298 net.cpp:91] Creating Layer inception_4b/3x3_reduce
I0714 21:15:40.225538 21298 net.cpp:425] inception_4b/3x3_reduce <- inception_4a/output_inception_4a/output_0_split_1
I0714 21:15:40.225548 21298 net.cpp:399] inception_4b/3x3_reduce -> inception_4b/3x3_reduce
I0714 21:15:40.229220 21302 net.cpp:141] Setting up inception_4b/5x5
I0714 21:15:40.229249 21302 net.cpp:148] Top shape: 10 64 14 14 (125440)
I0714 21:15:40.229259 21302 net.cpp:156] Memory required for data: 398272000
I0714 21:15:40.229275 21302 layer_factory.hpp:77] Creating layer inception_4b/relu_5x5
I0714 21:15:40.229295 21302 net.cpp:91] Creating Layer inception_4b/relu_5x5
I0714 21:15:40.229306 21302 net.cpp:425] inception_4b/relu_5x5 <- inception_4b/5x5
I0714 21:15:40.229321 21302 net.cpp:386] inception_4b/relu_5x5 -> inception_4b/5x5 (in-place)
I0714 21:15:40.229809 21302 net.cpp:141] Setting up inception_4b/relu_5x5
I0714 21:15:40.229832 21302 net.cpp:148] Top shape: 10 64 14 14 (125440)
I0714 21:15:40.229841 21302 net.cpp:156] Memory required for data: 398773760
I0714 21:15:40.229851 21302 layer_factory.hpp:77] Creating layer inception_4b/pool
I0714 21:15:40.229872 21302 net.cpp:91] Creating Layer inception_4b/pool
I0714 21:15:40.229883 21302 net.cpp:425] inception_4b/pool <- inception_4a/output_inception_4a/output_0_split_3
I0714 21:15:40.229902 21302 net.cpp:399] inception_4b/pool -> inception_4b/pool
I0714 21:15:40.230520 21302 net.cpp:141] Setting up inception_4b/pool
I0714 21:15:40.230541 21302 net.cpp:148] Top shape: 10 512 14 14 (1003520)
I0714 21:15:40.230551 21302 net.cpp:156] Memory required for data: 402787840
I0714 21:15:40.230561 21302 layer_factory.hpp:77] Creating layer inception_4b/pool_proj
I0714 21:15:40.230597 21302 net.cpp:91] Creating Layer inception_4b/pool_proj
I0714 21:15:40.230608 21302 net.cpp:425] inception_4b/pool_proj <- inception_4b/pool
I0714 21:15:40.230625 21302 net.cpp:399] inception_4b/pool_proj -> inception_4b/pool_proj
I0714 21:15:40.231124 21298 net.cpp:141] Setting up inception_4b/3x3_reduce
I0714 21:15:40.231144 21298 net.cpp:148] Top shape: 10 112 14 14 (219520)
I0714 21:15:40.231150 21298 net.cpp:156] Memory required for data: 393003520
I0714 21:15:40.231161 21298 layer_factory.hpp:77] Creating layer inception_4b/relu_3x3_reduce
I0714 21:15:40.231170 21298 net.cpp:91] Creating Layer inception_4b/relu_3x3_reduce
I0714 21:15:40.231178 21298 net.cpp:425] inception_4b/relu_3x3_reduce <- inception_4b/3x3_reduce
I0714 21:15:40.231185 21298 net.cpp:386] inception_4b/relu_3x3_reduce -> inception_4b/3x3_reduce (in-place)
I0714 21:15:40.231647 21298 net.cpp:141] Setting up inception_4b/relu_3x3_reduce
I0714 21:15:40.231662 21298 net.cpp:148] Top shape: 10 112 14 14 (219520)
I0714 21:15:40.231667 21298 net.cpp:156] Memory required for data: 393881600
I0714 21:15:40.231673 21298 layer_factory.hpp:77] Creating layer inception_4b/3x3
I0714 21:15:40.231690 21298 net.cpp:91] Creating Layer inception_4b/3x3
I0714 21:15:40.231698 21298 net.cpp:425] inception_4b/3x3 <- inception_4b/3x3_reduce
I0714 21:15:40.231711 21298 net.cpp:399] inception_4b/3x3 -> inception_4b/3x3
I0714 21:15:40.238245 21302 net.cpp:141] Setting up inception_4b/pool_proj
I0714 21:15:40.238270 21302 net.cpp:148] Top shape: 10 64 14 14 (125440)
I0714 21:15:40.238276 21302 net.cpp:156] Memory required for data: 403289600
I0714 21:15:40.238294 21302 layer_factory.hpp:77] Creating layer inception_4b/relu_pool_proj
I0714 21:15:40.238309 21302 net.cpp:91] Creating Layer inception_4b/relu_pool_proj
I0714 21:15:40.238317 21302 net.cpp:425] inception_4b/relu_pool_proj <- inception_4b/pool_proj
I0714 21:15:40.238327 21302 net.cpp:386] inception_4b/relu_pool_proj -> inception_4b/pool_proj (in-place)
I0714 21:15:40.239838 21302 net.cpp:141] Setting up inception_4b/relu_pool_proj
I0714 21:15:40.239856 21302 net.cpp:148] Top shape: 10 64 14 14 (125440)
I0714 21:15:40.239862 21302 net.cpp:156] Memory required for data: 403791360
I0714 21:15:40.239868 21302 layer_factory.hpp:77] Creating layer inception_4b/output
I0714 21:15:40.239882 21302 net.cpp:91] Creating Layer inception_4b/output
I0714 21:15:40.239891 21302 net.cpp:425] inception_4b/output <- inception_4b/1x1
I0714 21:15:40.239898 21302 net.cpp:425] inception_4b/output <- inception_4b/3x3
I0714 21:15:40.239904 21302 net.cpp:425] inception_4b/output <- inception_4b/5x5
I0714 21:15:40.239910 21302 net.cpp:425] inception_4b/output <- inception_4b/pool_proj
I0714 21:15:40.239917 21302 net.cpp:399] inception_4b/output -> inception_4b/output
I0714 21:15:40.239945 21298 net.cpp:141] Setting up inception_4b/3x3
I0714 21:15:40.239965 21298 net.cpp:148] Top shape: 10 224 14 14 (439040)
I0714 21:15:40.239971 21298 net.cpp:156] Memory required for data: 395637760
I0714 21:15:40.239982 21298 layer_factory.hpp:77] Creating layer inception_4b/relu_3x3
I0714 21:15:40.239992 21298 net.cpp:91] Creating Layer inception_4b/relu_3x3
I0714 21:15:40.239998 21298 net.cpp:425] inception_4b/relu_3x3 <- inception_4b/3x3
I0714 21:15:40.240006 21298 net.cpp:386] inception_4b/relu_3x3 -> inception_4b/3x3 (in-place)
I0714 21:15:40.240013 21302 net.cpp:141] Setting up inception_4b/output
I0714 21:15:40.240025 21302 net.cpp:148] Top shape: 10 512 14 14 (1003520)
I0714 21:15:40.240031 21302 net.cpp:156] Memory required for data: 407805440
I0714 21:15:40.240036 21302 layer_factory.hpp:77] Creating layer inception_4b/output_inception_4b/output_0_split
I0714 21:15:40.240046 21302 net.cpp:91] Creating Layer inception_4b/output_inception_4b/output_0_split
I0714 21:15:40.240052 21302 net.cpp:425] inception_4b/output_inception_4b/output_0_split <- inception_4b/output
I0714 21:15:40.240062 21302 net.cpp:399] inception_4b/output_inception_4b/output_0_split -> inception_4b/output_inception_4b/output_0_split_0
I0714 21:15:40.240073 21302 net.cpp:399] inception_4b/output_inception_4b/output_0_split -> inception_4b/output_inception_4b/output_0_split_1
I0714 21:15:40.240083 21302 net.cpp:399] inception_4b/output_inception_4b/output_0_split -> inception_4b/output_inception_4b/output_0_split_2
I0714 21:15:40.240092 21302 net.cpp:399] inception_4b/output_inception_4b/output_0_split -> inception_4b/output_inception_4b/output_0_split_3
I0714 21:15:40.240972 21298 net.cpp:141] Setting up inception_4b/relu_3x3
I0714 21:15:40.240989 21298 net.cpp:148] Top shape: 10 224 14 14 (439040)
I0714 21:15:40.240994 21298 net.cpp:156] Memory required for data: 397393920
I0714 21:15:40.241000 21298 layer_factory.hpp:77] Creating layer inception_4b/5x5_reduce
I0714 21:15:40.241039 21298 net.cpp:91] Creating Layer inception_4b/5x5_reduce
I0714 21:15:40.241041 21302 net.cpp:141] Setting up inception_4b/output_inception_4b/output_0_split
I0714 21:15:40.241049 21298 net.cpp:425] inception_4b/5x5_reduce <- inception_4a/output_inception_4a/output_0_split_2
I0714 21:15:40.241065 21302 net.cpp:148] Top shape: 10 512 14 14 (1003520)
I0714 21:15:40.241070 21298 net.cpp:399] inception_4b/5x5_reduce -> inception_4b/5x5_reduce
I0714 21:15:40.241072 21302 net.cpp:148] Top shape: 10 512 14 14 (1003520)
I0714 21:15:40.241078 21302 net.cpp:148] Top shape: 10 512 14 14 (1003520)
I0714 21:15:40.241085 21302 net.cpp:148] Top shape: 10 512 14 14 (1003520)
I0714 21:15:40.241089 21302 net.cpp:156] Memory required for data: 423861760
I0714 21:15:40.241096 21302 layer_factory.hpp:77] Creating layer inception_4c/1x1
I0714 21:15:40.241114 21302 net.cpp:91] Creating Layer inception_4c/1x1
I0714 21:15:40.241122 21302 net.cpp:425] inception_4c/1x1 <- inception_4b/output_inception_4b/output_0_split_0
I0714 21:15:40.241135 21302 net.cpp:399] inception_4c/1x1 -> inception_4c/1x1
I0714 21:15:40.246076 21298 net.cpp:141] Setting up inception_4b/5x5_reduce
I0714 21:15:40.246096 21298 net.cpp:148] Top shape: 10 24 14 14 (47040)
I0714 21:15:40.246103 21298 net.cpp:156] Memory required for data: 397582080
I0714 21:15:40.246112 21298 layer_factory.hpp:77] Creating layer inception_4b/relu_5x5_reduce
I0714 21:15:40.246122 21298 net.cpp:91] Creating Layer inception_4b/relu_5x5_reduce
I0714 21:15:40.246129 21298 net.cpp:425] inception_4b/relu_5x5_reduce <- inception_4b/5x5_reduce
I0714 21:15:40.246141 21298 net.cpp:386] inception_4b/relu_5x5_reduce -> inception_4b/5x5_reduce (in-place)
I0714 21:15:40.246553 21298 net.cpp:141] Setting up inception_4b/relu_5x5_reduce
I0714 21:15:40.246570 21298 net.cpp:148] Top shape: 10 24 14 14 (47040)
I0714 21:15:40.246575 21298 net.cpp:156] Memory required for data: 397770240
I0714 21:15:40.246582 21298 layer_factory.hpp:77] Creating layer inception_4b/5x5
I0714 21:15:40.246598 21298 net.cpp:91] Creating Layer inception_4b/5x5
I0714 21:15:40.246606 21298 net.cpp:425] inception_4b/5x5 <- inception_4b/5x5_reduce
I0714 21:15:40.246616 21298 net.cpp:399] inception_4b/5x5 -> inception_4b/5x5
I0714 21:15:40.246656 21302 net.cpp:141] Setting up inception_4c/1x1
I0714 21:15:40.246675 21302 net.cpp:148] Top shape: 10 128 14 14 (250880)
I0714 21:15:40.246680 21302 net.cpp:156] Memory required for data: 424865280
I0714 21:15:40.246703 21302 layer_factory.hpp:77] Creating layer inception_4c/relu_1x1
I0714 21:15:40.246717 21302 net.cpp:91] Creating Layer inception_4c/relu_1x1
I0714 21:15:40.246724 21302 net.cpp:425] inception_4c/relu_1x1 <- inception_4c/1x1
I0714 21:15:40.246732 21302 net.cpp:386] inception_4c/relu_1x1 -> inception_4c/1x1 (in-place)
I0714 21:15:40.247164 21302 net.cpp:141] Setting up inception_4c/relu_1x1
I0714 21:15:40.247179 21302 net.cpp:148] Top shape: 10 128 14 14 (250880)
I0714 21:15:40.247184 21302 net.cpp:156] Memory required for data: 425868800
I0714 21:15:40.247189 21302 layer_factory.hpp:77] Creating layer inception_4c/3x3_reduce
I0714 21:15:40.247210 21302 net.cpp:91] Creating Layer inception_4c/3x3_reduce
I0714 21:15:40.247217 21302 net.cpp:425] inception_4c/3x3_reduce <- inception_4b/output_inception_4b/output_0_split_1
I0714 21:15:40.247227 21302 net.cpp:399] inception_4c/3x3_reduce -> inception_4c/3x3_reduce
I0714 21:15:40.252909 21298 net.cpp:141] Setting up inception_4b/5x5
I0714 21:15:40.252938 21298 net.cpp:148] Top shape: 10 64 14 14 (125440)
I0714 21:15:40.252944 21298 net.cpp:156] Memory required for data: 398272000
I0714 21:15:40.252955 21298 layer_factory.hpp:77] Creating layer inception_4b/relu_5x5
I0714 21:15:40.252965 21298 net.cpp:91] Creating Layer inception_4b/relu_5x5
I0714 21:15:40.252972 21298 net.cpp:425] inception_4b/relu_5x5 <- inception_4b/5x5
I0714 21:15:40.252984 21298 net.cpp:386] inception_4b/relu_5x5 -> inception_4b/5x5 (in-place)
I0714 21:15:40.253417 21298 net.cpp:141] Setting up inception_4b/relu_5x5
I0714 21:15:40.253422 21302 net.cpp:141] Setting up inception_4c/3x3_reduce
I0714 21:15:40.253430 21298 net.cpp:148] Top shape: 10 64 14 14 (125440)
I0714 21:15:40.253435 21298 net.cpp:156] Memory required for data: 398773760
I0714 21:15:40.253438 21302 net.cpp:148] Top shape: 10 128 14 14 (250880)
I0714 21:15:40.253442 21298 layer_factory.hpp:77] Creating layer inception_4b/pool
I0714 21:15:40.253444 21302 net.cpp:156] Memory required for data: 426872320
I0714 21:15:40.253455 21302 layer_factory.hpp:77] Creating layer inception_4c/relu_3x3_reduce
I0714 21:15:40.253456 21298 net.cpp:91] Creating Layer inception_4b/pool
I0714 21:15:40.253463 21298 net.cpp:425] inception_4b/pool <- inception_4a/output_inception_4a/output_0_split_3
I0714 21:15:40.253464 21302 net.cpp:91] Creating Layer inception_4c/relu_3x3_reduce
…
I0714 21:15:40.374912 21302 net.cpp:399] inception_4e/5x5 -> inception_4e/5x5
I0714 21:15:40.375421 21298 net.cpp:141] Setting up inception_4e/relu_3x3_reduce
I0714 21:15:40.375442 21298 net.cpp:148] Top shape: 10 160 14 14 (313600)
I0714 21:15:40.375448 21298 net.cpp:156] Memory required for data: 500631040
I0714 21:15:40.375471 21298 layer_factory.hpp:77] Creating layer inception_4e/3x3
I0714 21:15:40.375494 21298 net.cpp:91] Creating Layer inception_4e/3x3
I0714 21:15:40.375502 21298 net.cpp:425] inception_4e/3x3 <- inception_4e/3x3_reduce
I0714 21:15:40.375516 21298 net.cpp:399] inception_4e/3x3 -> inception_4e/3x3
I0714 21:15:40.385156 21302 net.cpp:141] Setting up inception_4e/5x5
I0714 21:15:40.385188 21302 net.cpp:148] Top shape: 10 128 14 14 (250880)
I0714 21:15:40.385197 21302 net.cpp:156] Memory required for data: 507153920
I0714 21:15:40.385213 21302 layer_factory.hpp:77] Creating layer inception_4e/relu_5x5
I0714 21:15:40.385228 21302 net.cpp:91] Creating Layer inception_4e/relu_5x5
I0714 21:15:40.385238 21302 net.cpp:425] inception_4e/relu_5x5 <- inception_4e/5x5
I0714 21:15:40.385257 21302 net.cpp:386] inception_4e/relu_5x5 -> inception_4e/5x5 (in-place)
I0714 21:15:40.385664 21302 net.cpp:141] Setting up inception_4e/relu_5x5
I0714 21:15:40.385684 21302 net.cpp:148] Top shape: 10 128 14 14 (250880)
I0714 21:15:40.385694 21302 net.cpp:156] Memory required for data: 508157440
I0714 21:15:40.385701 21302 layer_factory.hpp:77] Creating layer inception_4e/pool
I0714 21:15:40.385717 21302 net.cpp:91] Creating Layer inception_4e/pool
I0714 21:15:40.385727 21302 net.cpp:425] inception_4e/pool <- inception_4d/output_inception_4d/output_0_split_3
I0714 21:15:40.385740 21302 net.cpp:399] inception_4e/pool -> inception_4e/pool
I0714 21:15:40.385947 21302 net.cpp:141] Setting up inception_4e/pool
I0714 21:15:40.385964 21302 net.cpp:148] Top shape: 10 528 14 14 (1034880)
I0714 21:15:40.385972 21302 net.cpp:156] Memory required for data: 512296960
I0714 21:15:40.385979 21302 layer_factory.hpp:77] Creating layer inception_4e/pool_proj
I0714 21:15:40.386003 21302 net.cpp:91] Creating Layer inception_4e/pool_proj
I0714 21:15:40.386013 21302 net.cpp:425] inception_4e/pool_proj <- inception_4e/pool
I0714 21:15:40.386032 21302 net.cpp:399] inception_4e/pool_proj -> inception_4e/pool_proj
I0714 21:15:40.391541 21298 net.cpp:141] Setting up inception_4e/3x3
I0714 21:15:40.391573 21298 net.cpp:148] Top shape: 10 320 14 14 (627200)
I0714 21:15:40.391582 21298 net.cpp:156] Memory required for data: 503139840
I0714 21:15:40.391595 21298 layer_factory.hpp:77] Creating layer inception_4e/relu_3x3
I0714 21:15:40.391609 21298 net.cpp:91] Creating Layer inception_4e/relu_3x3
I0714 21:15:40.391619 21298 net.cpp:425] inception_4e/relu_3x3 <- inception_4e/3x3
I0714 21:15:40.391630 21298 net.cpp:386] inception_4e/relu_3x3 -> inception_4e/3x3 (in-place)
I0714 21:15:40.393144 21298 net.cpp:141] Setting up inception_4e/relu_3x3
I0714 21:15:40.393165 21298 net.cpp:148] Top shape: 10 320 14 14 (627200)
I0714 21:15:40.393172 21298 net.cpp:156] Memory required for data: 505648640
I0714 21:15:40.393179 21298 layer_factory.hpp:77] Creating layer inception_4e/5x5_reduce
I0714 21:15:40.393188 21302 net.cpp:141] Setting up inception_4e/pool_proj
I0714 21:15:40.393204 21298 net.cpp:91] Creating Layer inception_4e/5x5_reduce
I0714 21:15:40.393209 21302 net.cpp:148] Top shape: 10 128 14 14 (250880)
I0714 21:15:40.393229 21298 net.cpp:425] inception_4e/5x5_reduce <- inception_4d/output_inception_4d/output_0_split_2
I0714 21:15:40.393234 21302 net.cpp:156] Memory required for data: 513300480
I0714 21:15:40.393249 21298 net.cpp:399] inception_4e/5x5_reduce -> inception_4e/5x5_reduce
I0714 21:15:40.393249 21302 layer_factory.hpp:77] Creating layer inception_4e/relu_pool_proj
I0714 21:15:40.393273 21302 net.cpp:91] Creating Layer inception_4e/relu_pool_proj
I0714 21:15:40.393282 21302 net.cpp:425] inception_4e/relu_pool_proj <- inception_4e/pool_proj
I0714 21:15:40.393297 21302 net.cpp:386] inception_4e/relu_pool_proj -> inception_4e/pool_proj (in-place)
I0714 21:15:40.394659 21302 net.cpp:141] Setting up inception_4e/relu_pool_proj
I0714 21:15:40.394682 21302 net.cpp:148] Top shape: 10 128 14 14 (250880)
I0714 21:15:40.394701 21302 net.cpp:156] Memory required for data: 514304000
I0714 21:15:40.394712 21302 layer_factory.hpp:77] Creating layer inception_4e/output
I0714 21:15:40.394726 21302 net.cpp:91] Creating Layer inception_4e/output
I0714 21:15:40.394743 21302 net.cpp:425] inception_4e/output <- inception_4e/1x1
I0714 21:15:40.394752 21302 net.cpp:425] inception_4e/output <- inception_4e/3x3
I0714 21:15:40.394760 21302 net.cpp:425] inception_4e/output <- inception_4e/5x5
I0714 21:15:40.394768 21302 net.cpp:425] inception_4e/output <- inception_4e/pool_proj
I0714 21:15:40.394778 21302 net.cpp:399] inception_4e/output -> inception_4e/output
I0714 21:15:40.395009 21302 net.cpp:141] Setting up inception_4e/output
I0714 21:15:40.395025 21302 net.cpp:148] Top shape: 10 832 14 14 (1630720)
I0714 21:15:40.395032 21302 net.cpp:156] Memory required for data: 520826880
I0714 21:15:40.395040 21302 layer_factory.hpp:77] Creating layer pool4/3x3_s2
I0714 21:15:40.395056 21302 net.cpp:91] Creating Layer pool4/3x3_s2
I0714 21:15:40.395064 21302 net.cpp:425] pool4/3x3_s2 <- inception_4e/output
I0714 21:15:40.395076 21302 net.cpp:399] pool4/3x3_s2 -> pool4/3x3_s2
I0714 21:15:40.395325 21302 net.cpp:141] Setting up pool4/3x3_s2
I0714 21:15:40.395342 21302 net.cpp:148] Top shape: 10 832 7 7 (407680)
I0714 21:15:40.395349 21302 net.cpp:156] Memory required for data: 522457600
I0714 21:15:40.395355 21302 layer_factory.hpp:77] Creating layer pool4/3x3_s2_pool4/3x3_s2_0_split
I0714 21:15:40.395371 21302 net.cpp:91] Creating Layer pool4/3x3_s2_pool4/3x3_s2_0_split
I0714 21:15:40.395378 21302 net.cpp:425] pool4/3x3_s2_pool4/3x3_s2_0_split <- pool4/3x3_s2
I0714 21:15:40.395388 21302 net.cpp:399] pool4/3x3_s2_pool4/3x3_s2_0_split -> pool4/3x3_s2_pool4/3x3_s2_0_split_0
I0714 21:15:40.395401 21302 net.cpp:399] pool4/3x3_s2_pool4/3x3_s2_0_split -> pool4/3x3_s2_pool4/3x3_s2_0_split_1
I0714 21:15:40.395426 21302 net.cpp:399] pool4/3x3_s2_pool4/3x3_s2_0_split -> pool4/3x3_s2_pool4/3x3_s2_0_split_2
I0714 21:15:40.395439 21302 net.cpp:399] pool4/3x3_s2_pool4/3x3_s2_0_split -> pool4/3x3_s2_pool4/3x3_s2_0_split_3
I0714 21:15:40.396158 21302 net.cpp:141] Setting up pool4/3x3_s2_pool4/3x3_s2_0_split
I0714 21:15:40.396175 21302 net.cpp:148] Top shape: 10 832 7 7 (407680)
I0714 21:15:40.396184 21302 net.cpp:148] Top shape: 10 832 7 7 (407680)
I0714 21:15:40.396191 21302 net.cpp:148] Top shape: 10 832 7 7 (407680)
I0714 21:15:40.396199 21302 net.cpp:148] Top shape: 10 832 7 7 (407680)
I0714 21:15:40.396204 21302 net.cpp:156] Memory required for data: 528980480
I0714 21:15:40.396212 21302 layer_factory.hpp:77] Creating layer inception_5a/1x1
I0714 21:15:40.396235 21302 net.cpp:91] Creating Layer inception_5a/1x1
I0714 21:15:40.396260 21302 net.cpp:425] inception_5a/1x1 <- pool4/3x3_s2_pool4/3x3_s2_0_split_0
I0714 21:15:40.396272 21302 net.cpp:399] inception_5a/1x1 -> inception_5a/1x1
I0714 21:15:40.401769 21298 net.cpp:141] Setting up inception_4e/5x5_reduce
I0714 21:15:40.401809 21298 net.cpp:148] Top shape: 10 32 14 14 (62720)
I0714 21:15:40.401824 21298 net.cpp:156] Memory required for data: 505899520
I0714 21:15:40.401849 21298 layer_factory.hpp:77] Creating layer inception_4e/relu_5x5_reduce
I0714 21:15:40.401872 21298 net.cpp:91] Creating Layer inception_4e/relu_5x5_reduce
I0714 21:15:40.401890 21298 net.cpp:425] inception_4e/relu_5x5_reduce <- inception_4e/5x5_reduce
I0714 21:15:40.401919 21298 net.cpp:386] inception_4e/relu_5x5_reduce -> inception_4e/5x5_reduce (in-place)
I0714 21:15:40.402547 21298 net.cpp:141] Setting up inception_4e/relu_5x5_reduce
I0714 21:15:40.402570 21298 net.cpp:148] Top shape: 10 32 14 14 (62720)
I0714 21:15:40.402580 21298 net.cpp:156] Memory required for data: 506150400
I0714 21:15:40.402587 21298 layer_factory.hpp:77] Creating layer inception_4e/5x5
I0714 21:15:40.402606 21298 net.cpp:91] Creating Layer inception_4e/5x5
I0714 21:15:40.402616 21298 net.cpp:425] inception_4e/5x5 <- inception_4e/5x5_reduce
I0714 21:15:40.402632 21298 net.cpp:399] inception_4e/5x5 -> inception_4e/5x5
I0714 21:15:40.410060 21302 net.cpp:141] Setting up inception_5a/1x1
I0714 21:15:40.410085 21302 net.cpp:148] Top shape: 10 256 7 7 (125440)
I0714 21:15:40.410091 21302 net.cpp:156] Memory required for data: 529482240
I0714 21:15:40.410104 21302 layer_factory.hpp:77] Creating layer inception_5a/relu_1x1
I0714 21:15:40.410115 21302 net.cpp:91] Creating Layer inception_5a/relu_1x1
I0714 21:15:40.410122 21302 net.cpp:425] inception_5a/relu_1x1 <- inception_5a/1x1
I0714 21:15:40.410136 21302 net.cpp:386] inception_5a/relu_1x1 -> inception_5a/1x1 (in-place)
I0714 21:15:40.410183 21298 net.cpp:141] Setting up inception_4e/5x5
I0714 21:15:40.410202 21298 net.cpp:148] Top shape: 10 128 14 14 (250880)
I0714 21:15:40.410207 21298 net.cpp:156] Memory required for data: 507153920
I0714 21:15:40.410218 21298 layer_factory.hpp:77] Creating layer inception_4e/relu_5x5
I0714 21:15:40.410228 21298 net.cpp:91] Creating Layer inception_4e/relu_5x5
I0714 21:15:40.410235 21298 net.cpp:425] inception_4e/relu_5x5 <- inception_4e/5x5
I0714 21:15:40.410243 21298 net.cpp:386] inception_4e/relu_5x5 -> inception_4e/5x5 (in-place)
I0714 21:15:40.410537 21302 net.cpp:141] Setting up inception_5a/relu_1x1
I0714 21:15:40.410552 21302 net.cpp:148] Top shape: 10 256 7 7 (125440)
I0714 21:15:40.410557 21302 net.cpp:156] Memory required for data: 529984000
I0714 21:15:40.410562 21302 layer_factory.hpp:77] Creating layer inception_5a/3x3_reduce
I0714 21:15:40.410580 21302 net.cpp:91] Creating Layer inception_5a/3x3_reduce
I0714 21:15:40.410588 21302 net.cpp:425] inception_5a/3x3_reduce <- pool4/3x3_s2_pool4/3x3_s2_0_split_1
I0714 21:15:40.410603 21302 net.cpp:399] inception_5a/3x3_reduce -> inception_5a/3x3_reduce
I0714 21:15:40.410615 21298 net.cpp:141] Setting up inception_4e/relu_5x5
I0714 21:15:40.410629 21298 net.cpp:148] Top shape: 10 128 14 14 (250880)
I0714 21:15:40.410634 21298 net.cpp:156] Memory required for data: 508157440
I0714 21:15:40.410640 21298 layer_factory.hpp:77] Creating layer inception_4e/pool
I0714 21:15:40.410655 21298 net.cpp:91] Creating Layer inception_4e/pool
I0714 21:15:40.410661 21298 net.cpp:425] inception_4e/pool <- inception_4d/output_inception_4d/output_0_split_3
I0714 21:15:40.410670 21298 net.cpp:399] inception_4e/pool -> inception_4e/pool
I0714 21:15:40.411015 21298 net.cpp:141] Setting up inception_4e/pool
I0714 21:15:40.411036 21298 net.cpp:148] Top shape: 10 528 14 14 (1034880)
I0714 21:15:40.411041 21298 net.cpp:156] Memory required for data: 512296960
I0714 21:15:40.411047 21298 layer_factory.hpp:77] Creating layer inception_4e/pool_proj
I0714 21:15:40.411067 21298 net.cpp:91] Creating Layer inception_4e/pool_proj
I0714 21:15:40.411078 21298 net.cpp:425] inception_4e/pool_proj <- inception_4e/pool
I0714 21:15:40.411100 21298 net.cpp:399] inception_4e/pool_proj -> inception_4e/pool_proj
I0714 21:15:40.421080 21298 net.cpp:141] Setting up inception_4e/pool_proj
I0714 21:15:40.421119 21298 net.cpp:148] Top shape: 10 128 14 14 (250880)
I0714 21:15:40.421126 21298 net.cpp:156] Memory required for data: 513300480
I0714 21:15:40.421140 21298 layer_factory.hpp:77] Creating layer inception_4e/relu_pool_proj
I0714 21:15:40.421159 21298 net.cpp:91] Creating Layer inception_4e/relu_pool_proj
I0714 21:15:40.421169 21298 net.cpp:425] inception_4e/relu_pool_proj <- inception_4e/pool_proj
I0714 21:15:40.421181 21298 net.cpp:386] inception_4e/relu_pool_proj -> inception_4e/pool_proj (in-place)
I0714 21:15:40.422539 21298 net.cpp:141] Setting up inception_4e/relu_pool_proj
I0714 21:15:40.422560 21298 net.cpp:148] Top shape: 10 128 14 14 (250880)
I0714 21:15:40.422566 21298 net.cpp:156] Memory required for data: 514304000
I0714 21:15:40.422564 21302 net.cpp:141] Setting up inception_5a/3x3_reduce
I0714 21:15:40.422583 21298 layer_factory.hpp:77] Creating layer inception_4e/output
I0714 21:15:40.422605 21302 net.cpp:148] Top shape: 10 160 7 7 (78400)
I0714 21:15:40.422610 21298 net.cpp:91] Creating Layer inception_4e/output
I0714 21:15:40.422611 21302 net.cpp:156] Memory required for data: 530297600
I0714 21:15:40.422623 21298 net.cpp:425] inception_4e/output <- inception_4e/1x1
I0714 21:15:40.422641 21298 net.cpp:425] inception_4e/output <- inception_4e/3x3
I0714 21:15:40.422642 21302 layer_factory.hpp:77] Creating layer inception_5a/relu_3x3_reduce
I0714 21:15:40.422647 21298 net.cpp:425] inception_4e/output <- inception_4e/5x5
I0714 21:15:40.422654 21298 net.cpp:425] inception_4e/output <- inception_4e/pool_proj
I0714 21:15:40.422663 21302 net.cpp:91] Creating Layer inception_5a/relu_3x3_reduce
I0714 21:15:40.422674 21302 net.cpp:425] inception_5a/relu_3x3_reduce <- inception_5a/3x3_reduce
I0714 21:15:40.422679 21298 net.cpp:399] inception_4e/output -> inception_4e/output
I0714 21:15:40.422698 21302 net.cpp:386] inception_5a/relu_3x3_reduce -> inception_5a/3x3_reduce (in-place)
I0714 21:15:40.423001 21298 net.cpp:141] Setting up inception_4e/output
I0714 21:15:40.423014 21298 net.cpp:148] Top shape: 10 832 14 14 (1630720)
I0714 21:15:40.423019 21298 net.cpp:156] Memory required for data: 520826880
I0714 21:15:40.423025 21298 layer_factory.hpp:77] Creating layer pool4/3x3_s2
I0714 21:15:40.423038 21298 net.cpp:91] Creating Layer pool4/3x3_s2
I0714 21:15:40.423045 21298 net.cpp:425] pool4/3x3_s2 <- inception_4e/output
I0714 21:15:40.423054 21298 net.cpp:399] pool4/3x3_s2 -> pool4/3x3_s2
I0714 21:15:40.423123 21302 net.cpp:141] Setting up inception_5a/relu_3x3_reduce
I0714 21:15:40.423138 21302 net.cpp:148] Top shape: 10 160 7 7 (78400)
I0714 21:15:40.423144 21302 net.cpp:156] Memory required for data: 530611200
I0714 21:15:40.423151 21302 layer_factory.hpp:77] Creating layer inception_5a/3x3
I0714 21:15:40.423179 21302 net.cpp:91] Creating Layer inception_5a/3x3
I0714 21:15:40.423187 21302 net.cpp:425] inception_5a/3x3 <- inception_5a/3x3_reduce
I0714 21:15:40.423200 21302 net.cpp:399] inception_5a/3x3 -> inception_5a/3x3
I0714 21:15:40.423208 21298 net.cpp:141] Setting up pool4/3x3_s2
I0714 21:15:40.423221 21298 net.cpp:148] Top shape: 10 832 7 7 (407680)
I0714 21:15:40.423226 21298 net.cpp:156] Memory required for data: 522457600
I0714 21:15:40.423231 21298 layer_factory.hpp:77] Creating layer pool4/3x3_s2_pool4/3x3_s2_0_split
I0714 21:15:40.423243 21298 net.cpp:91] Creating Layer pool4/3x3_s2_pool4/3x3_s2_0_split
I0714 21:15:40.423249 21298 net.cpp:425] pool4/3x3_s2_pool4/3x3_s2_0_split <- pool4/3x3_s2
I0714 21:15:40.423259 21298 net.cpp:399] pool4/3x3_s2_pool4/3x3_s2_0_split -> pool4/3x3_s2_pool4/3x3_s2_0_split_0
I0714 21:15:40.423269 21298 net.cpp:399] pool4/3x3_s2_pool4/3x3_s2_0_split -> pool4/3x3_s2_pool4/3x3_s2_0_split_1
I0714 21:15:40.423277 21298 net.cpp:399] pool4/3x3_s2_pool4/3x3_s2_0_split -> pool4/3x3_s2_pool4/3x3_s2_0_split_2
I0714 21:15:40.423286 21298 net.cpp:399] pool4/3x3_s2_pool4/3x3_s2_0_split -> pool4/3x3_s2_pool4/3x3_s2_0_split_3
I0714 21:15:40.424011 21298 net.cpp:141] Setting up pool4/3x3_s2_pool4/3x3_s2_0_split
I0714 21:15:40.424024 21298 net.cpp:148] Top shape: 10 832 7 7 (407680)
I0714 21:15:40.424031 21298 net.cpp:148] Top shape: 10 832 7 7 (407680)
I0714 21:15:40.424037 21298 net.cpp:148] Top shape: 10 832 7 7 (407680)
I0714 21:15:40.424042 21298 net.cpp:148] Top shape: 10 832 7 7 (407680)
I0714 21:15:40.424047 21298 net.cpp:156] Memory required for data: 528980480
I0714 21:15:40.424052 21298 layer_factory.hpp:77] Creating layer inception_5a/1x1
I0714 21:15:40.424075 21298 net.cpp:91] Creating Layer inception_5a/1x1
I0714 21:15:40.424082 21298 net.cpp:425] inception_5a/1x1 <- pool4/3x3_s2_pool4/3x3_s2_0_split_0
I0714 21:15:40.424093 21298 net.cpp:399] inception_5a/1x1 -> inception_5a/1x1
I0714 21:15:40.436861 21298 net.cpp:141] Setting up inception_5a/1x1
I0714 21:15:40.436904 21298 net.cpp:148] Top shape: 10 256 7 7 (125440)
I0714 21:15:40.436918 21298 net.cpp:156] Memory required for data: 529482240
I0714 21:15:40.436939 21298 layer_factory.hpp:77] Creating layer inception_5a/relu_1x1
I0714 21:15:40.436959 21298 net.cpp:91] Creating Layer inception_5a/relu_1x1
I0714 21:15:40.436971 21298 net.cpp:425] inception_5a/relu_1x1 <- inception_5a/1x1
I0714 21:15:40.436988 21298 net.cpp:386] inception_5a/relu_1x1 -> inception_5a/1x1 (in-place)
I0714 21:15:40.437445 21298 net.cpp:141] Setting up inception_5a/relu_1x1
I0714 21:15:40.437470 21298 net.cpp:148] Top shape: 10 256 7 7 (125440)
I0714 21:15:40.437480 21298 net.cpp:156] Memory required for data: 529984000
I0714 21:15:40.437490 21298 layer_factory.hpp:77] Creating layer inception_5a/3x3_reduce
I0714 21:15:40.437518 21298 net.cpp:91] Creating Layer inception_5a/3x3_reduce
I0714 21:15:40.437532 21298 net.cpp:425] inception_5a/3x3_reduce <- pool4/3x3_s2_pool4/3x3_s2_0_split_1
I0714 21:15:40.437556 21298 net.cpp:399] inception_5a/3x3_reduce -> inception_5a/3x3_reduce
I0714 21:15:40.442095 21302 net.cpp:141] Setting up inception_5a/3x3
I0714 21:15:40.442124 21302 net.cpp:148] Top shape: 10 320 7 7 (156800)
I0714 21:15:40.442134 21302 net.cpp:156] Memory required for data: 531238400
I0714 21:15:40.442157 21302 layer_factory.hpp:77] Creating layer inception_5a/relu_3x3
I0714 21:15:40.442173 21302 net.cpp:91] Creating Layer inception_5a/relu_3x3
I0714 21:15:40.442188 21302 net.cpp:425] inception_5a/relu_3x3 <- inception_5a/3x3
I0714 21:15:40.442199 21302 net.cpp:386] inception_5a/relu_3x3 -> inception_5a/3x3 (in-place)
I0714 21:15:40.443382 21302 net.cpp:141] Setting up inception_5a/relu_3x3
I0714 21:15:40.443413 21302 net.cpp:148] Top shape: 10 320 7 7 (156800)
I0714 21:15:40.443424 21302 net.cpp:156] Memory required for data: 531865600
I0714 21:15:40.443435 21302 layer_factory.hpp:77] Creating layer inception_5a/5x5_reduce
I0714 21:15:40.443464 21302 net.cpp:91] Creating Layer inception_5a/5x5_reduce
I0714 21:15:40.443480 21302 net.cpp:425] inception_5a/5x5_reduce <- pool4/3x3_s2_pool4/3x3_s2_0_split_2
I0714 21:15:40.443500 21302 net.cpp:399] inception_5a/5x5_reduce -> inception_5a/5x5_reduce
I0714 21:15:40.446946 21298 net.cpp:141] Setting up inception_5a/3x3_reduce
I0714 21:15:40.446975 21298 net.cpp:148] Top shape: 10 160 7 7 (78400)
I0714 21:15:40.446987 21298 net.cpp:156] Memory required for data: 530297600
I0714 21:15:40.447005 21298 layer_factory.hpp:77] Creating layer inception_5a/relu_3x3_reduce
I0714 21:15:40.447027 21298 net.cpp:91] Creating Layer inception_5a/relu_3x3_reduce
I0714 21:15:40.447041 21298 net.cpp:425] inception_5a/relu_3x3_reduce <- inception_5a/3x3_reduce
I0714 21:15:40.447054 21298 net.cpp:386] inception_5a/relu_3x3_reduce -> inception_5a/3x3_reduce (in-place)
I0714 21:15:40.447597 21298 net.cpp:141] Setting up inception_5a/relu_3x3_reduce
I0714 21:15:40.447620 21298 net.cpp:148] Top shape: 10 160 7 7 (78400)
I0714 21:15:40.447629 21298 net.cpp:156] Memory required for data: 530611200
I0714 21:15:40.447640 21298 layer_factory.hpp:77] Creating layer inception_5a/3x3
I0714 21:15:40.447666 21298 net.cpp:91] Creating Layer inception_5a/3x3
I0714 21:15:40.447679 21298 net.cpp:425] inception_5a/3x3 <- inception_5a/3x3_reduce
I0714 21:15:40.447701 21298 net.cpp:399] inception_5a/3x3 -> inception_5a/3x3
I0714 21:15:40.452689 21302 net.cpp:141] Setting up inception_5a/5x5_reduce
I0714 21:15:40.452718 21302 net.cpp:148] Top shape: 10 32 7 7 (15680)
I0714 21:15:40.452726 21302 net.cpp:156] Memory required for data: 531928320
I0714 21:15:40.452744 21302 layer_factory.hpp:77] Creating layer inception_5a/relu_5x5_reduce
I0714 21:15:40.452761 21302 net.cpp:91] Creating Layer inception_5a/relu_5x5_reduce
I0714 21:15:40.452772 21302 net.cpp:425] inception_5a/relu_5x5_reduce <- inception_5a/5x5_reduce
I0714 21:15:40.452785 21302 net.cpp:386] inception_5a/relu_5x5_reduce -> inception_5a/5x5_reduce (in-place)
I0714 21:15:40.453204 21302 net.cpp:141] Setting up inception_5a/relu_5x5_reduce
I0714 21:15:40.453222 21302 net.cpp:148] Top shape: 10 32 7 7 (15680)
I0714 21:15:40.453229 21302 net.cpp:156] Memory required for data: 531991040
I0714 21:15:40.453238 21302 layer_factory.hpp:77] Creating layer inception_5a/5x5
I0714 21:15:40.453266 21302 net.cpp:91] Creating Layer inception_5a/5x5
I0714 21:15:40.453277 21302 net.cpp:425] inception_5a/5x5 <- inception_5a/5x5_reduce
I0714 21:15:40.453292 21302 net.cpp:399] inception_5a/5x5 -> inception_5a/5x5
I0714 21:15:40.461431 21302 net.cpp:141] Setting up inception_5a/5x5
I0714 21:15:40.461465 21302 net.cpp:148] Top shape: 10 128 7 7 (62720)
I0714 21:15:40.461478 21302 net.cpp:156] Memory required for data: 532241920
I0714 21:15:40.461498 21302 layer_factory.hpp:77] Creating layer inception_5a/relu_5x5
I0714 21:15:40.461566 21302 net.cpp:91] Creating Layer inception_5a/relu_5x5
I0714 21:15:40.461581 21302 net.cpp:425] inception_5a/relu_5x5 <- inception_5a/5x5
I0714 21:15:40.461598 21302 net.cpp:386] inception_5a/relu_5x5 -> inception_5a/5x5 (in-place)
I0714 21:15:40.462189 21302 net.cpp:141] Setting up inception_5a/relu_5x5
I0714 21:15:40.462213 21302 net.cpp:148] Top shape: 10 128 7 7 (62720)
I0714 21:15:40.462224 21302 net.cpp:156] Memory required for data: 532492800
I0714 21:15:40.462234 21302 layer_factory.hpp:77] Creating layer inception_5a/pool
I0714 21:15:40.462260 21302 net.cpp:91] Creating Layer inception_5a/pool
I0714 21:15:40.462275 21302 net.cpp:425] inception_5a/pool <- pool4/3x3_s2_pool4/3x3_s2_0_split_3
I0714 21:15:40.462293 21302 net.cpp:399] inception_5a/pool -> inception_5a/pool
I0714 21:15:40.462597 21302 net.cpp:141] Setting up inception_5a/pool
I0714 21:15:40.462621 21302 net.cpp:148] Top shape: 10 832 7 7 (407680)
I0714 21:15:40.462631 21302 net.cpp:156] Memory required for data: 534123520
I0714 21:15:40.462641 21302 layer_factory.hpp:77] Creating layer inception_5a/pool_proj
I0714 21:15:40.462674 21302 net.cpp:91] Creating Layer inception_5a/pool_proj
I0714 21:15:40.462698 21302 net.cpp:425] inception_5a/pool_proj <- inception_5a/pool
I0714 21:15:40.462720 21302 net.cpp:399] inception_5a/pool_proj -> inception_5a/pool_proj
I0714 21:15:40.463773 21298 net.cpp:141] Setting up inception_5a/3x3
I0714 21:15:40.463798 21298 net.cpp:148] Top shape: 10 320 7 7 (156800)
I0714 21:15:40.463809 21298 net.cpp:156] Memory required for data: 531238400
I0714 21:15:40.463827 21298 layer_factory.hpp:77] Creating layer inception_5a/relu_3x3
I0714 21:15:40.463848 21298 net.cpp:91] Creating Layer inception_5a/relu_3x3
I0714 21:15:40.463863 21298 net.cpp:425] inception_5a/relu_3x3 <- inception_5a/3x3
I0714 21:15:40.463878 21298 net.cpp:386] inception_5a/relu_3x3 -> inception_5a/3x3 (in-place)
I0714 21:15:40.465013 21298 net.cpp:141] Setting up inception_5a/relu_3x3
I0714 21:15:40.465036 21298 net.cpp:148] Top shape: 10 320 7 7 (156800)
I0714 21:15:40.465046 21298 net.cpp:156] Memory required for data: 531865600
I0714 21:15:40.465056 21298 layer_factory.hpp:77] Creating layer inception_5a/5x5_reduce
I0714 21:15:40.465083 21298 net.cpp:91] Creating Layer inception_5a/5x5_reduce
I0714 21:15:40.465098 21298 net.cpp:425] inception_5a/5x5_reduce <- pool4/3x3_s2_pool4/3x3_s2_0_split_2
I0714 21:15:40.465122 21298 net.cpp:399] inception_5a/5x5_reduce -> inception_5a/5x5_reduce
I0714 21:15:40.472648 21302 net.cpp:141] Setting up inception_5a/pool_proj
I0714 21:15:40.472679 21302 net.cpp:148] Top shape: 10 128 7 7 (62720)
I0714 21:15:40.472692 21302 net.cpp:156] Memory required for data: 534374400
I0714 21:15:40.472709 21302 layer_factory.hpp:77] Creating layer inception_5a/relu_pool_proj
I0714 21:15:40.472725 21302 net.cpp:91] Creating Layer inception_5a/relu_pool_proj
I0714 21:15:40.472738 21302 net.cpp:425] inception_5a/relu_pool_proj <- inception_5a/pool_proj
I0714 21:15:40.472759 21302 net.cpp:386] inception_5a/relu_pool_proj -> inception_5a/pool_proj (in-place)
I0714 21:15:40.472849 21298 net.cpp:141] Setting up inception_5a/5x5_reduce
I0714 21:15:40.472872 21298 net.cpp:148] Top shape: 10 32 7 7 (15680)
I0714 21:15:40.472882 21298 net.cpp:156] Memory required for data: 531928320
I0714 21:15:40.472898 21298 layer_factory.hpp:77] Creating layer inception_5a/relu_5x5_reduce
I0714 21:15:40.472915 21298 net.cpp:91] Creating Layer inception_5a/relu_5x5_reduce
I0714 21:15:40.472931 21298 net.cpp:425] inception_5a/relu_5x5_reduce <- inception_5a/5x5_reduce
I0714 21:15:40.472946 21298 net.cpp:386] inception_5a/relu_5x5_reduce -> inception_5a/5x5_reduce (in-place)
I0714 21:15:40.473405 21298 net.cpp:141] Setting up inception_5a/relu_5x5_reduce
I0714 21:15:40.473425 21298 net.cpp:148] Top shape: 10 32 7 7 (15680)
I0714 21:15:40.473435 21298 net.cpp:156] Memory required for data: 531991040
I0714 21:15:40.473444 21298 layer_factory.hpp:77] Creating layer inception_5a/5x5
I0714 21:15:40.473476 21298 net.cpp:91] Creating Layer inception_5a/5x5
I0714 21:15:40.473489 21298 net.cpp:425] inception_5a/5x5 <- inception_5a/5x5_reduce
I0714 21:15:40.473506 21298 net.cpp:399] inception_5a/5x5 -> inception_5a/5x5
I0714 21:15:40.474131 21302 net.cpp:141] Setting up inception_5a/relu_pool_proj
I0714 21:15:40.474153 21302 net.cpp:148] Top shape: 10 128 7 7 (62720)
I0714 21:15:40.474162 21302 net.cpp:156] Memory required for data: 534625280
I0714 21:15:40.474174 21302 layer_factory.hpp:77] Creating layer inception_5a/output
I0714 21:15:40.474190 21302 net.cpp:91] Creating Layer inception_5a/output
I0714 21:15:40.474202 21302 net.cpp:425] inception_5a/output <- inception_5a/1x1
I0714 21:15:40.474215 21302 net.cpp:425] inception_5a/output <- inception_5a/3x3
I0714 21:15:40.474227 21302 net.cpp:425] inception_5a/output <- inception_5a/5x5
I0714 21:15:40.474238 21302 net.cpp:425] inception_5a/output <- inception_5a/pool_proj
I0714 21:15:40.474259 21302 net.cpp:399] inception_5a/output -> inception_5a/output
I0714 21:15:40.474416 21302 net.cpp:141] Setting up inception_5a/output
I0714 21:15:40.474436 21302 net.cpp:148] Top shape: 10 832 7 7 (407680)
I0714 21:15:40.474445 21302 net.cpp:156] Memory required for data: 536256000
I0714 21:15:40.474454 21302 layer_factory.hpp:77] Creating layer inception_5a/output_inception_5a/output_0_split
I0714 21:15:40.474478 21302 net.cpp:91] Creating Layer inception_5a/output_inception_5a/output_0_split
I0714 21:15:40.474489 21302 net.cpp:425] inception_5a/output_inception_5a/output_0_split <- inception_5a/output
I0714 21:15:40.474503 21302 net.cpp:399] inception_5a/output_inception_5a/output_0_split -> inception_5a/output_inception_5a/output_0_split_0
I0714 21:15:40.474522 21302 net.cpp:399] inception_5a/output_inception_5a/output_0_split -> inception_5a/output_inception_5a/output_0_split_1
I0714 21:15:40.474545 21302 net.cpp:399] inception_5a/output_inception_5a/output_0_split -> inception_5a/output_inception_5a/output_0_split_2
I0714 21:15:40.474562 21302 net.cpp:399] inception_5a/output_inception_5a/output_0_split -> inception_5a/output_inception_5a/output_0_split_3
I0714 21:15:40.475028 21302 net.cpp:141] Setting up inception_5a/output_inception_5a/output_0_split
I0714 21:15:40.475050 21302 net.cpp:148] Top shape: 10 832 7 7 (407680)
I0714 21:15:40.475061 21302 net.cpp:148] Top shape: 10 832 7 7 (407680)
I0714 21:15:40.475071 21302 net.cpp:148] Top shape: 10 832 7 7 (407680)
I0714 21:15:40.475080 21302 net.cpp:148] Top shape: 10 832 7 7 (407680)
I0714 21:15:40.475088 21302 net.cpp:156] Memory required for data: 542778880
I0714 21:15:40.475096 21302 layer_factory.hpp:77] Creating layer inception_5b/1x1
I0714 21:15:40.475121 21302 net.cpp:91] Creating Layer inception_5b/1x1
I0714 21:15:40.475132 21302 net.cpp:425] inception_5b/1x1 <- inception_5a/output_inception_5a/output_0_split_0
I0714 21:15:40.475147 21302 net.cpp:399] inception_5b/1x1 -> inception_5b/1x1
I0714 21:15:40.481148 21298 net.cpp:141] Setting up inception_5a/5x5
I0714 21:15:40.481179 21298 net.cpp:148] Top shape: 10 128 7 7 (62720)
I0714 21:15:40.481189 21298 net.cpp:156] Memory required for data: 532241920
I0714 21:15:40.481204 21298 layer_factory.hpp:77] Creating layer inception_5a/relu_5x5
I0714 21:15:40.481258 21298 net.cpp:91] Creating Layer inception_5a/relu_5x5
I0714 21:15:40.481271 21298 net.cpp:425] inception_5a/relu_5x5 <- inception_5a/5x5
I0714 21:15:40.481283 21298 net.cpp:386] inception_5a/relu_5x5 -> inception_5a/5x5 (in-place)
I0714 21:15:40.481686 21298 net.cpp:141] Setting up inception_5a/relu_5x5
I0714 21:15:40.481709 21298 net.cpp:148] Top shape: 10 128 7 7 (62720)
I0714 21:15:40.481716 21298 net.cpp:156] Memory required for data: 532492800
I0714 21:15:40.481726 21298 layer_factory.hpp:77] Creating layer inception_5a/pool
I0714 21:15:40.481745 21298 net.cpp:91] Creating Layer inception_5a/pool
I0714 21:15:40.481755 21298 net.cpp:425] inception_5a/pool <- pool4/3x3_s2_pool4/3x3_s2_0_split_3
I0714 21:15:40.481770 21298 net.cpp:399] inception_5a/pool -> inception_5a/pool
I0714 21:15:40.482009 21298 net.cpp:141] Setting up inception_5a/pool
I0714 21:15:40.482033 21298 net.cpp:148] Top shape: 10 832 7 7 (407680)
I0714 21:15:40.482041 21298 net.cpp:156] Memory required for data: 534123520
I0714 21:15:40.482051 21298 layer_factory.hpp:77] Creating layer inception_5a/pool_proj
I0714 21:15:40.482084 21298 net.cpp:91] Creating Layer inception_5a/pool_proj
I0714 21:15:40.482096 21298 net.cpp:425] inception_5a/pool_proj <- inception_5a/pool
I0714 21:15:40.482113 21298 net.cpp:399] inception_5a/pool_proj -> inception_5a/pool_proj
I0714 21:15:40.487166 21302 net.cpp:141] Setting up inception_5b/1x1
I0714 21:15:40.487192 21302 net.cpp:148] Top shape: 10 384 7 7 (188160)
I0714 21:15:40.487201 21302 net.cpp:156] Memory required for data: 543531520
I0714 21:15:40.487218 21302 layer_factory.hpp:77] Creating layer inception_5b/relu_1x1
I0714 21:15:40.487232 21302 net.cpp:91] Creating Layer inception_5b/relu_1x1
I0714 21:15:40.487242 21302 net.cpp:425] inception_5b/relu_1x1 <- inception_5b/1x1
I0714 21:15:40.487257 21302 net.cpp:386] inception_5b/relu_1x1 -> inception_5b/1x1 (in-place)
I0714 21:15:40.487673 21302 net.cpp:141] Setting up inception_5b/relu_1x1
I0714 21:15:40.487696 21302 net.cpp:148] Top shape: 10 384 7 7 (188160)
I0714 21:15:40.487704 21302 net.cpp:156] Memory required for data: 544284160
I0714 21:15:40.487714 21302 layer_factory.hpp:77] Creating layer inception_5b/3x3_reduce
I0714 21:15:40.487740 21302 net.cpp:91] Creating Layer inception_5b/3x3_reduce
I0714 21:15:40.487751 21302 net.cpp:425] inception_5b/3x3_reduce <- inception_5a/output_inception_5a/output_0_split_1
I0714 21:15:40.487766 21302 net.cpp:399] inception_5b/3x3_reduce -> inception_5b/3x3_reduce
I0714 21:15:40.492763 21298 net.cpp:141] Setting up inception_5a/pool_proj
I0714 21:15:40.492789 21298 net.cpp:148] Top shape: 10 128 7 7 (62720)
I0714 21:15:40.492799 21298 net.cpp:156] Memory required for data: 534374400
I0714 21:15:40.492815 21298 layer_factory.hpp:77] Creating layer inception_5a/relu_pool_proj
I0714 21:15:40.492830 21298 net.cpp:91] Creating Layer inception_5a/relu_pool_proj
I0714 21:15:40.492840 21298 net.cpp:425] inception_5a/relu_pool_proj <- inception_5a/pool_proj
I0714 21:15:40.492851 21298 net.cpp:386] inception_5a/relu_pool_proj -> inception_5a/pool_proj (in-place)
I0714 21:15:40.493970 21298 net.cpp:141] Setting up inception_5a/relu_pool_proj
I0714 21:15:40.493993 21298 net.cpp:148] Top shape: 10 128 7 7 (62720)
I0714 21:15:40.494001 21298 net.cpp:156] Memory required for data: 534625280
I0714 21:15:40.494010 21298 layer_factory.hpp:77] Creating layer inception_5a/output
I0714 21:15:40.494024 21298 net.cpp:91] Creating Layer inception_5a/output
I0714 21:15:40.494034 21298 net.cpp:425] inception_5a/output <- inception_5a/1x1
I0714 21:15:40.494045 21298 net.cpp:425] inception_5a/output <- inception_5a/3x3
I0714 21:15:40.494055 21298 net.cpp:425] inception_5a/output <- inception_5a/5x5
I0714 21:15:40.494065 21298 net.cpp:425] inception_5a/output <- inception_5a/pool_proj
I0714 21:15:40.494081 21298 net.cpp:399] inception_5a/output -> inception_5a/output
I0714 21:15:40.494194 21298 net.cpp:141] Setting up inception_5a/output
I0714 21:15:40.494210 21298 net.cpp:148] Top shape: 10 832 7 7 (407680)
I0714 21:15:40.494217 21298 net.cpp:156] Memory required for data: 536256000
I0714 21:15:40.494226 21298 layer_factory.hpp:77] Creating layer inception_5a/output_inception_5a/output_0_split
I0714 21:15:40.494240 21298 net.cpp:91] Creating Layer inception_5a/output_inception_5a/output_0_split
I0714 21:15:40.494248 21298 net.cpp:425] inception_5a/output_inception_5a/output_0_split <- inception_5a/output
I0714 21:15:40.494266 21298 net.cpp:399] inception_5a/output_inception_5a/output_0_split -> inception_5a/output_inception_5a/output_0_split_0
I0714 21:15:40.494282 21298 net.cpp:399] inception_5a/output_inception_5a/output_0_split -> inception_5a/output_inception_5a/output_0_split_1
I0714 21:15:40.494299 21298 net.cpp:399] inception_5a/output_inception_5a/output_0_split -> inception_5a/output_inception_5a/output_0_split_2
I0714 21:15:40.494316 21298 net.cpp:399] inception_5a/output_inception_5a/output_0_split -> inception_5a/output_inception_5a/output_0_split_3
I0714 21:15:40.495615 21298 net.cpp:141] Setting up inception_5a/output_inception_5a/output_0_split
I0714 21:15:40.495641 21298 net.cpp:148] Top shape: 10 832 7 7 (407680)
I0714 21:15:40.495661 21298 net.cpp:148] Top shape: 10 832 7 7 (407680)
I0714 21:15:40.495672 21298 net.cpp:148] Top shape: 10 832 7 7 (407680)
I0714 21:15:40.495683 21298 net.cpp:148] Top shape: 10 832 7 7 (407680)
I0714 21:15:40.495692 21298 net.cpp:156] Memory required for data: 542778880
I0714 21:15:40.495703 21298 layer_factory.hpp:77] Creating layer inception_5b/1x1
I0714 21:15:40.495725 21298 net.cpp:91] Creating Layer inception_5b/1x1
I0714 21:15:40.495738 21298 net.cpp:425] inception_5b/1x1 <- inception_5a/output_inception_5a/output_0_split_0
I0714 21:15:40.495762 21298 net.cpp:399] inception_5b/1x1 -> inception_5b/1x1
I0714 21:15:40.500103 21302 net.cpp:141] Setting up inception_5b/3x3_reduce
I0714 21:15:40.500129 21302 net.cpp:148] Top shape: 10 192 7 7 (94080)
I0714 21:15:40.500138 21302 net.cpp:156] Memory required for data: 544660480
I0714 21:15:40.500154 21302 layer_factory.hpp:77] Creating layer inception_5b/relu_3x3_reduce
I0714 21:15:40.500174 21302 net.cpp:91] Creating Layer inception_5b/relu_3x3_reduce
I0714 21:15:40.500185 21302 net.cpp:425] inception_5b/relu_3x3_reduce <- inception_5b/3x3_reduce
I0714 21:15:40.500197 21302 net.cpp:386] inception_5b/relu_3x3_reduce -> inception_5b/3x3_reduce (in-place)
I0714 21:15:40.500619 21302 net.cpp:141] Setting up inception_5b/relu_3x3_reduce
I0714 21:15:40.500640 21302 net.cpp:148] Top shape: 10 192 7 7 (94080)
I0714 21:15:40.500648 21302 net.cpp:156] Memory required for data: 545036800
I0714 21:15:40.500658 21302 layer_factory.hpp:77] Creating layer inception_5b/3x3
I0714 21:15:40.500684 21302 net.cpp:91] Creating Layer inception_5b/3x3
I0714 21:15:40.500694 21302 net.cpp:425] inception_5b/3x3 <- inception_5b/3x3_reduce
I0714 21:15:40.500712 21302 net.cpp:399] inception_5b/3x3 -> inception_5b/3x3
I0714 21:15:40.507987 21298 net.cpp:141] Setting up inception_5b/1x1
I0714 21:15:40.508015 21298 net.cpp:148] Top shape: 10 384 7 7 (188160)
I0714 21:15:40.508024 21298 net.cpp:156] Memory required for data: 543531520
I0714 21:15:40.508040 21298 layer_factory.hpp:77] Creating layer inception_5b/relu_1x1
I0714 21:15:40.508060 21298 net.cpp:91] Creating Layer inception_5b/relu_1x1
I0714 21:15:40.508070 21298 net.cpp:425] inception_5b/relu_1x1 <- inception_5b/1x1
I0714 21:15:40.508086 21298 net.cpp:386] inception_5b/relu_1x1 -> inception_5b/1x1 (in-place)
I0714 21:15:40.508492 21298 net.cpp:141] Setting up inception_5b/relu_1x1
I0714 21:15:40.508513 21298 net.cpp:148] Top shape: 10 384 7 7 (188160)
I0714 21:15:40.508522 21298 net.cpp:156] Memory required for data: 544284160
I0714 21:15:40.508532 21298 layer_factory.hpp:77] Creating layer inception_5b/3x3_reduce
I0714 21:15:40.508556 21298 net.cpp:91] Creating Layer inception_5b/3x3_reduce
I0714 21:15:40.508569 21298 net.cpp:425] inception_5b/3x3_reduce <- inception_5a/output_inception_5a/output_0_split_1
I0714 21:15:40.508586 21298 net.cpp:399] inception_5b/3x3_reduce -> inception_5b/3x3_reduce
I0714 21:15:40.517698 21302 net.cpp:141] Setting up inception_5b/3x3
I0714 21:15:40.517729 21302 net.cpp:148] Top shape: 10 384 7 7 (188160)
I0714 21:15:40.517740 21302 net.cpp:156] Memory required for data: 545789440
I0714 21:15:40.517758 21302 layer_factory.hpp:77] Creating layer inception_5b/relu_3x3
I0714 21:15:40.517776 21302 net.cpp:91] Creating Layer inception_5b/relu_3x3
I0714 21:15:40.517789 21302 net.cpp:425] inception_5b/relu_3x3 <- inception_5b/3x3
I0714 21:15:40.517807 21302 net.cpp:386] inception_5b/relu_3x3 -> inception_5b/3x3 (in-place)
I0714 21:15:40.518884 21298 net.cpp:141] Setting up inception_5b/3x3_reduce
I0714 21:15:40.518910 21298 net.cpp:148] Top shape: 10 192 7 7 (94080)
I0714 21:15:40.518921 21298 net.cpp:156] Memory required for data: 544660480
I0714 21:15:40.518939 21298 layer_factory.hpp:77] Creating layer inception_5b/relu_3x3_reduce
I0714 21:15:40.518942 21302 net.cpp:141] Setting up inception_5b/relu_3x3
I0714 21:15:40.518956 21302 net.cpp:148] Top shape: 10 384 7 7 (188160)
I0714 21:15:40.518955 21298 net.cpp:91] Creating Layer inception_5b/relu_3x3_reduce
I0714 21:15:40.518970 21302 net.cpp:156] Memory required for data: 546542080
I0714 21:15:40.518977 21298 net.cpp:425] inception_5b/relu_3x3_reduce <- inception_5b/3x3_reduce
I0714 21:15:40.518980 21302 layer_factory.hpp:77] Creating layer inception_5b/5x5_reduce
I0714 21:15:40.519003 21298 net.cpp:386] inception_5b/relu_3x3_reduce -> inception_5b/3x3_reduce (in-place)
I0714 21:15:40.519011 21302 net.cpp:91] Creating Layer inception_5b/5x5_reduce
I0714 21:15:40.519023 21302 net.cpp:425] inception_5b/5x5_reduce <- inception_5a/output_inception_5a/output_0_split_2
I0714 21:15:40.519047 21302 net.cpp:399] inception_5b/5x5_reduce -> inception_5b/5x5_reduce
I0714 21:15:40.519611 21298 net.cpp:141] Setting up inception_5b/relu_3x3_reduce
I0714 21:15:40.519639 21298 net.cpp:148] Top shape: 10 192 7 7 (94080)
I0714 21:15:40.519649 21298 net.cpp:156] Memory required for data: 545036800
I0714 21:15:40.519659 21298 layer_factory.hpp:77] Creating layer inception_5b/3x3
I0714 21:15:40.519688 21298 net.cpp:91] Creating Layer inception_5b/3x3
I0714 21:15:40.519701 21298 net.cpp:425] inception_5b/3x3 <- inception_5b/3x3_reduce
I0714 21:15:40.519719 21298 net.cpp:399] inception_5b/3x3 -> inception_5b/3x3
I0714 21:15:40.526918 21302 net.cpp:141] Setting up inception_5b/5x5_reduce
I0714 21:15:40.526947 21302 net.cpp:148] Top shape: 10 48 7 7 (23520)
I0714 21:15:40.526953 21302 net.cpp:156] Memory required for data: 546636160
I0714 21:15:40.526968 21302 layer_factory.hpp:77] Creating layer inception_5b/relu_5x5_reduce
I0714 21:15:40.526979 21302 net.cpp:91] Creating Layer inception_5b/relu_5x5_reduce
I0714 21:15:40.526988 21302 net.cpp:425] inception_5b/relu_5x5_reduce <- inception_5b/5x5_reduce
I0714 21:15:40.526998 21302 net.cpp:386] inception_5b/relu_5x5_reduce -> inception_5b/5x5_reduce (in-place)
I0714 21:15:40.527313 21302 net.cpp:141] Setting up inception_5b/relu_5x5_reduce
I0714 21:15:40.527328 21302 net.cpp:148] Top shape: 10 48 7 7 (23520)
I0714 21:15:40.527333 21302 net.cpp:156] Memory required for data: 546730240
I0714 21:15:40.527338 21302 layer_factory.hpp:77] Creating layer inception_5b/5x5
I0714 21:15:40.527357 21302 net.cpp:91] Creating Layer inception_5b/5x5
I0714 21:15:40.527365 21302 net.cpp:425] inception_5b/5x5 <- inception_5b/5x5_reduce
I0714 21:15:40.527377 21302 net.cpp:399] inception_5b/5x5 -> inception_5b/5x5
I0714 21:15:40.533468 21298 net.cpp:141] Setting up inception_5b/3x3
I0714 21:15:40.533491 21298 net.cpp:148] Top shape: 10 384 7 7 (188160)
I0714 21:15:40.533498 21298 net.cpp:156] Memory required for data: 545789440
I0714 21:15:40.533509 21298 layer_factory.hpp:77] Creating layer inception_5b/relu_3x3
I0714 21:15:40.533524 21298 net.cpp:91] Creating Layer inception_5b/relu_3x3
I0714 21:15:40.533530 21298 net.cpp:425] inception_5b/relu_3x3 <- inception_5b/3x3
I0714 21:15:40.533541 21298 net.cpp:386] inception_5b/relu_3x3 -> inception_5b/3x3 (in-place)
I0714 21:15:40.534456 21302 net.cpp:141] Setting up inception_5b/5x5
I0714 21:15:40.534478 21302 net.cpp:148] Top shape: 10 128 7 7 (62720)
I0714 21:15:40.534484 21302 net.cpp:156] Memory required for data: 546981120
I0714 21:15:40.534497 21302 layer_factory.hpp:77] Creating layer inception_5b/relu_5x5
I0714 21:15:40.534507 21302 net.cpp:91] Creating Layer inception_5b/relu_5x5
I0714 21:15:40.534513 21302 net.cpp:425] inception_5b/relu_5x5 <- inception_5b/5x5
I0714 21:15:40.534535 21302 net.cpp:386] inception_5b/relu_5x5 -> inception_5b/5x5 (in-place)
I0714 21:15:40.534543 21298 net.cpp:141] Setting up inception_5b/relu_3x3
I0714 21:15:40.534559 21298 net.cpp:148] Top shape: 10 384 7 7 (188160)
I0714 21:15:40.534564 21298 net.cpp:156] Memory required for data: 546542080
I0714 21:15:40.534569 21298 layer_factory.hpp:77] Creating layer inception_5b/5x5_reduce
I0714 21:15:40.534589 21298 net.cpp:91] Creating Layer inception_5b/5x5_reduce
I0714 21:15:40.534596 21298 net.cpp:425] inception_5b/5x5_reduce <- inception_5a/output_inception_5a/output_0_split_2
I0714 21:15:40.534610 21298 net.cpp:399] inception_5b/5x5_reduce -> inception_5b/5x5_reduce
I0714 21:15:40.535032 21302 net.cpp:141] Setting up inception_5b/relu_5x5
I0714 21:15:40.535046 21302 net.cpp:148] Top shape: 10 128 7 7 (62720)
I0714 21:15:40.535053 21302 net.cpp:156] Memory required for data: 547232000
I0714 21:15:40.535058 21302 layer_factory.hpp:77] Creating layer inception_5b/pool
I0714 21:15:40.535073 21302 net.cpp:91] Creating Layer inception_5b/pool
I0714 21:15:40.535080 21302 net.cpp:425] inception_5b/pool <- inception_5a/output_inception_5a/output_0_split_3
I0714 21:15:40.535089 21302 net.cpp:399] inception_5b/pool -> inception_5b/pool
I0714 21:15:40.535398 21302 net.cpp:141] Setting up inception_5b/pool
I0714 21:15:40.535410 21302 net.cpp:148] Top shape: 10 832 7 7 (407680)
I0714 21:15:40.535415 21302 net.cpp:156] Memory required for data: 548862720
I0714 21:15:40.535420 21302 layer_factory.hpp:77] Creating layer inception_5b/pool_proj
I0714 21:15:40.535439 21302 net.cpp:91] Creating Layer inception_5b/pool_proj
I0714 21:15:40.535445 21302 net.cpp:425] inception_5b/pool_proj <- inception_5b/pool
I0714 21:15:40.535459 21302 net.cpp:399] inception_5b/pool_proj -> inception_5b/pool_proj
I0714 21:15:40.541755 21298 net.cpp:141] Setting up inception_5b/5x5_reduce
I0714 21:15:40.541779 21298 net.cpp:148] Top shape: 10 48 7 7 (23520)
I0714 21:15:40.541785 21298 net.cpp:156] Memory required for data: 546636160
I0714 21:15:40.541795 21298 layer_factory.hpp:77] Creating layer inception_5b/relu_5x5_reduce
I0714 21:15:40.541810 21298 net.cpp:91] Creating Layer inception_5b/relu_5x5_reduce
I0714 21:15:40.541817 21298 net.cpp:425] inception_5b/relu_5x5_reduce <- inception_5b/5x5_reduce
I0714 21:15:40.541826 21298 net.cpp:386] inception_5b/relu_5x5_reduce -> inception_5b/5x5_reduce (in-place)
I0714 21:15:40.542196 21298 net.cpp:141] Setting up inception_5b/relu_5x5_reduce
I0714 21:15:40.542209 21298 net.cpp:148] Top shape: 10 48 7 7 (23520)
I0714 21:15:40.542214 21298 net.cpp:156] Memory required for data: 546730240
I0714 21:15:40.542220 21298 layer_factory.hpp:77] Creating layer inception_5b/5x5
I0714 21:15:40.542240 21298 net.cpp:91] Creating Layer inception_5b/5x5
I0714 21:15:40.542248 21298 net.cpp:425] inception_5b/5x5 <- inception_5b/5x5_reduce
I0714 21:15:40.542260 21298 net.cpp:399] inception_5b/5x5 -> inception_5b/5x5
I0714 21:15:40.542884 21302 net.cpp:141] Setting up inception_5b/pool_proj
I0714 21:15:40.542904 21302 net.cpp:148] Top shape: 10 128 7 7 (62720)
I0714 21:15:40.542911 21302 net.cpp:156] Memory required for data: 549113600
I0714 21:15:40.542922 21302 layer_factory.hpp:77] Creating layer inception_5b/relu_pool_proj
I0714 21:15:40.542932 21302 net.cpp:91] Creating Layer inception_5b/relu_pool_proj
I0714 21:15:40.542939 21302 net.cpp:425] inception_5b/relu_pool_proj <- inception_5b/pool_proj
I0714 21:15:40.542951 21302 net.cpp:386] inception_5b/relu_pool_proj -> inception_5b/pool_proj (in-place)
I0714 21:15:40.544011 21302 net.cpp:141] Setting up inception_5b/relu_pool_proj
I0714 21:15:40.544029 21302 net.cpp:148] Top shape: 10 128 7 7 (62720)
I0714 21:15:40.544034 21302 net.cpp:156] Memory required for data: 549364480
I0714 21:15:40.544040 21302 layer_factory.hpp:77] Creating layer inception_5b/output
I0714 21:15:40.544054 21302 net.cpp:91] Creating Layer inception_5b/output
I0714 21:15:40.544062 21302 net.cpp:425] inception_5b/output <- inception_5b/1x1
I0714 21:15:40.544070 21302 net.cpp:425] inception_5b/output <- inception_5b/3x3
I0714 21:15:40.544076 21302 net.cpp:425] inception_5b/output <- inception_5b/5x5
I0714 21:15:40.544081 21302 net.cpp:425] inception_5b/output <- inception_5b/pool_proj
I0714 21:15:40.544090 21302 net.cpp:399] inception_5b/output -> inception_5b/output
I0714 21:15:40.544184 21302 net.cpp:141] Setting up inception_5b/output
I0714 21:15:40.544198 21302 net.cpp:148] Top shape: 10 1024 7 7 (501760)
I0714 21:15:40.544203 21302 net.cpp:156] Memory required for data: 551371520
I0714 21:15:40.544208 21302 layer_factory.hpp:77] Creating layer pool5/7x7_s1
I0714 21:15:40.544224 21302 net.cpp:91] Creating Layer pool5/7x7_s1
I0714 21:15:40.544229 21302 net.cpp:425] pool5/7x7_s1 <- inception_5b/output
I0714 21:15:40.544240 21302 net.cpp:399] pool5/7x7_s1 -> pool5/7x7_s1
I0714 21:15:40.544659 21302 net.cpp:141] Setting up pool5/7x7_s1
I0714 21:15:40.544673 21302 net.cpp:148] Top shape: 10 1024 1 1 (10240)
I0714 21:15:40.544678 21302 net.cpp:156] Memory required for data: 551412480
I0714 21:15:40.544684 21302 layer_factory.hpp:77] Creating layer pool5/drop_7x7_s1
I0714 21:15:40.544701 21302 net.cpp:91] Creating Layer pool5/drop_7x7_s1
I0714 21:15:40.544708 21302 net.cpp:425] pool5/drop_7x7_s1 <- pool5/7x7_s1
I0714 21:15:40.544718 21302 net.cpp:386] pool5/drop_7x7_s1 -> pool5/7x7_s1 (in-place)
I0714 21:15:40.544811 21302 net.cpp:141] Setting up pool5/drop_7x7_s1
I0714 21:15:40.544823 21302 net.cpp:148] Top shape: 10 1024 1 1 (10240)
I0714 21:15:40.544828 21302 net.cpp:156] Memory required for data: 551453440
I0714 21:15:40.544833 21302 layer_factory.hpp:77] Creating layer loss3/classifier
I0714 21:15:40.544857 21302 net.cpp:91] Creating Layer loss3/classifier
I0714 21:15:40.544864 21302 net.cpp:425] loss3/classifier <- pool5/7x7_s1
I0714 21:15:40.544873 21302 net.cpp:399] loss3/classifier -> loss3/classifier
I0714 21:15:40.551573 21298 net.cpp:141] Setting up inception_5b/5x5
I0714 21:15:40.551601 21298 net.cpp:148] Top shape: 10 128 7 7 (62720)
I0714 21:15:40.551607 21298 net.cpp:156] Memory required for data: 546981120
I0714 21:15:40.551618 21298 layer_factory.hpp:77] Creating layer inception_5b/relu_5x5
I0714 21:15:40.551630 21298 net.cpp:91] Creating Layer inception_5b/relu_5x5
I0714 21:15:40.551636 21298 net.cpp:425] inception_5b/relu_5x5 <- inception_5b/5x5
I0714 21:15:40.551645 21298 net.cpp:386] inception_5b/relu_5x5 -> inception_5b/5x5 (in-place)
I0714 21:15:40.551954 21298 net.cpp:141] Setting up inception_5b/relu_5x5
I0714 21:15:40.551966 21298 net.cpp:148] Top shape: 10 128 7 7 (62720)
I0714 21:15:40.551971 21298 net.cpp:156] Memory required for data: 547232000
I0714 21:15:40.551977 21298 layer_factory.hpp:77] Creating layer inception_5b/pool
I0714 21:15:40.551990 21298 net.cpp:91] Creating Layer inception_5b/pool
I0714 21:15:40.552000 21298 net.cpp:425] inception_5b/pool <- inception_5a/output_inception_5a/output_0_split_3
I0714 21:15:40.552008 21298 net.cpp:399] inception_5b/pool -> inception_5b/pool
I0714 21:15:40.552165 21298 net.cpp:141] Setting up inception_5b/pool
I0714 21:15:40.552177 21298 net.cpp:148] Top shape: 10 832 7 7 (407680)
I0714 21:15:40.552181 21298 net.cpp:156] Memory required for data: 548862720
I0714 21:15:40.552187 21298 layer_factory.hpp:77] Creating layer inception_5b/pool_proj
I0714 21:15:40.552206 21298 net.cpp:91] Creating Layer inception_5b/pool_proj
I0714 21:15:40.552213 21298 net.cpp:425] inception_5b/pool_proj <- inception_5b/pool
I0714 21:15:40.552227 21298 net.cpp:399] inception_5b/pool_proj -> inception_5b/pool_proj
I0714 21:15:40.557744 21302 net.cpp:141] Setting up loss3/classifier
I0714 21:15:40.557765 21302 net.cpp:148] Top shape: 10 1000 (10000)
I0714 21:15:40.557771 21302 net.cpp:156] Memory required for data: 551493440
I0714 21:15:40.557782 21302 layer_factory.hpp:77] Creating layer prob
I0714 21:15:40.557797 21302 net.cpp:91] Creating Layer prob
I0714 21:15:40.557804 21302 net.cpp:425] prob <- loss3/classifier
I0714 21:15:40.557812 21302 net.cpp:399] prob -> prob
I0714 21:15:40.559247 21298 net.cpp:141] Setting up inception_5b/pool_proj
I0714 21:15:40.559267 21298 net.cpp:148] Top shape: 10 128 7 7 (62720)
I0714 21:15:40.559273 21298 net.cpp:156] Memory required for data: 549113600
I0714 21:15:40.559283 21298 layer_factory.hpp:77] Creating layer inception_5b/relu_pool_proj
I0714 21:15:40.559293 21298 net.cpp:91] Creating Layer inception_5b/relu_pool_proj
I0714 21:15:40.559300 21298 net.cpp:425] inception_5b/relu_pool_proj <- inception_5b/pool_proj
I0714 21:15:40.559316 21298 net.cpp:386] inception_5b/relu_pool_proj -> inception_5b/pool_proj (in-place)
I0714 21:15:40.560055 21302 net.cpp:141] Setting up prob
I0714 21:15:40.560071 21302 net.cpp:148] Top shape: 10 1000 (10000)
I0714 21:15:40.560077 21302 net.cpp:156] Memory required for data: 551533440
I0714 21:15:40.560083 21302 net.cpp:219] prob does not need backward computation.
I0714 21:15:40.560088 21302 net.cpp:219] loss3/classifier does not need backward computation.
I0714 21:15:40.560093 21302 net.cpp:219] pool5/drop_7x7_s1 does not need backward computation.
I0714 21:15:40.560098 21302 net.cpp:219] pool5/7x7_s1 does not need backward computation.
…
