…
W0925 22:52:18.132217 13464 upgrade_proto.cpp:71] Note that future Caffe releases will only support input layers and not input fields.
W0925 22:52:18.132217 13442 upgrade_proto.cpp:71] Note that future Caffe releases will only support input layers and not input fields.
W0925 22:52:18.132225 13460 upgrade_proto.cpp:71] Note that future Caffe releases will only support input layers and not input fields.
I0925 22:52:18.132321 13482 net.cpp:49] Initializing net from parameters: 
name: "CaffeNet"
state {
  phase: TEST
}
layer {
  name: "data"
  type: "Input"
  top: "data"
  input_param {
    shape {
      dim: 10
      dim: 3
      dim: 227
      dim: 227
    }
  }
}
layer {
  name: "conv1"
  type: "Convolution"
  bottom: "data"
  top: "conv1"
  convolution_param {
    num_output: 96
    kernel_size: 11
    stride: 4
  }
}
layer {
  name: "relu1"
  type: "ReLU"
  bottom: "conv1"
  top: "conv1"
}
layer {
  name: "pool1"
  type: "Pooling"
  bottom: "conv1"
  top: "pool1"
  pooling_param {
    pool: MAX
    kernel_size: 3
    stride: 2
  }
}
layer {
  name: "norm1"
  type: "LRN"
  bottom: "pool1"
  top: "norm1"
  lrn_param {
    local_size: 5
    alpha: 0.0001
    beta: 0.75
  }
}
layer {
  name: "conv2"
  type: "Convolution"
  bottom: "norm1"
  top: "conv2"
  convolution_param {
    num_output: 256
    pad: 2
    kernel_size: 5
    group: 2
  }
}
layer {
  name: "relu2"
  type: "ReLU"
  bottom: "conv2"
  top: "conv2"
}
layer {
  name: "pool2"
  type: "Pooling"
  bottom: "conv2"
  top: "pool2"
  pooling_param {
    pool: MAX
    kernel_size: 3
    stride: 2
  }
}
layer {
  name: "norm2"
  type: "LRN"
  bottom: "pool2"
  top: "norm2"
  lrn_param {
    local_size: 5
    alpha: 0.0001
    beta: 0.75
  }
}
layer {
  name: "conv3"
  type: "Convolution"
  bottom: "norm2"
  top: "conv3"
  convolution_param {
    num_output: 384
    pad: 1
    kernel_size: 3
  }
}
layer {
  name: "relu3"
  type: "ReLU"
  bottom: "conv3"
  top: "conv3"
}
layer {
  name: "conv4"
  type: "Convolution"
  bottom: "conv3"
  top: "conv4"
  convolution_param {
    num_output: 384
    pad: 1
    kernel_size: 3
    group: 2
  }
}
layer {
  name: "relu4"
  type: "ReLU"
  bottom: "conv4"
  top: "conv4"
}
layer {
  name: "conv5"
  type: "Convolution"
  bottom: "conv4"
  top: "conv5"
  convolution_param {
    num_output: 256
    pad: 1
    kernel_size: 3
    group: 2
  }
}
layer {
  name: "relu5"
  type: "ReLU"
  bottom: "conv5"
  top: "conv5"
}
layer {
  name: "pool5"
  type: "Pooling"
  bottom: "conv5"
  top: "pool5"
  pooling_param {
    pool: MAX
    kernel_size: 3
    stride: 2
  }
}
layer {
  name: "fc6"
  type: "InnerProduct"
  bottom: "pool5"
  top: "fc6"
  inner_product_param {
    num_output: 4096
  }
}
layer {
  name: "relu6"
  type: "ReLU"
  bottom: "fc6"
  top: "fc6"
}
layer {
  name: "drop6"
  type: "Dropout"
  bottom: "fc6"
  top: "fc6"
  dropout_param {
    dropout_ratio: 0.5
  }
}
layer {
  name: "fc7"
  type: "InnerProduct"
  bottom: "fc6"
  top: "fc7"
  inner_product_param {
    num_output: 4096
  }
}
layer {
  name: "relu7"
  type: "ReLU"
  bottom: "fc7"
  top: "fc7"
}
layer {
  name: "drop7"
  type: "Dropout"
  bottom: "fc7"
  top: "fc7"
  dropout_param {
    dropout_ratio: 0.5
  }
}
layer {
  name: "fc8"
  type: "InnerProduct"
  bottom: "fc7"
  top: "fc8"
  inner_product_param {
    num_output: 1000
  }
}
layer {
  name: "prob"
  type: "Softmax"
  bottom: "fc8"
  top: "prob"
}
I0925 22:52:18.132359 13446 net.cpp:49] Initializing net from parameters: 
name: "s2vt:features_to_lstm"
state {
  phase: TEST
}
layer {
  name: "input"
  type: "Input"
  top: "frames_fc7"
  top: "cont_sentence"
  top: "input_sentence"
  top: "stage_indicator"
  input_param {
    shape {
      dim: 1
      dim: 4096
    }
    shape {
      dim: 1
      dim: 1
    }
    shape {
      dim: 1
      dim: 1
    }
    shape {
      dim: 1
      dim: 1
    }
  }
}
layer {
  name: "embed_encoder"
  type: "InnerProduct"
  bottom: "frames_fc7"
  top: "embedded_in_frames"
  param {
    lr_mult: 1
    decay_mult: 1
  }
  param {
    lr_mult: 2
    decay_mult: 0
  }
  inner_product_param {
    num_output: 500
    weight_filler {
      type: "xavier"
    }
    bias_filler {
      type: "constant"
      value: 0.2
    }
  }
}
layer {
  name: "reshape_frames"
  type: "Reshape"
  bottom: "embedded_in_frames"
  top: "embedded_input_frames"
  reshape_param {
    shape {
      dim: 1
      dim: 1
      dim: 500
    }
  }
}
layer {
  name: "reshape_stage_indicator"
  type: "Reshape"
  bottom: "stage_indicator"
  top: "reshaped_stage_indicator"
  reshape_param {
    shape {
      dim: 1
      dim: 1
      dim: 1
    }
  }
}
layer {
  name: "embedding"
  type: "Embed"
  bottom: "input_sentence"
  top: "embedded_input_sentence"
  param {
    lr_mult: 1
  }
  embed_param {
    num_output: 500
    input_dim: 46168
    bias_term: false
    weight_filler {
      type: "uniform"
      min: -0.08
      max: 0.08
    }
  }
}
layer {
  name: "lstm1"
  type: "LSTM"
  bottom: "embedded_input_frames"
  bottom: "cont_sentence"
  top: "lstm1"
  recurrent_param {
    num_output: 1000
    weight_filler {
      type: "uniform"
      min: -0.08
      max: 0.08
    }
    bias_filler {
      type: "constant"
      value: 0
    }
  }
}
layer {
  name: "concat"
  type: "Concat"
  bottom: "lstm1"
  bottom: "embedded_input_sentence"
  bottom: "reshaped_stage_indicator"
  top: "lstm1_video_sequence"
  concat_param {
    concat_dim: 2
  }
}
layer {
  name: "lstm2"
  type: "LSTM"
  bottom: "lstm1_video_sequence"
  bottom: "cont_sentence"
  top: "lstm2"
  recurrent_param {
    num_output: 1000
    weight_filler {
      type: "uniform"
      min: -0.08
      max: 0.08
    }
    bias_filler {
      type: "constant"
      value: 0
    }
  }
}
layer {
  name: "predict"
  type: "InnerProduct"
  bottom: "lstm2"
  top: "predict"
  param {
    lr_mult: 1
    decay_mult: 1
  }
  param {
    lr_mult: 2
    decay_mult: 0
  }
  inner_product_param {
    num_output: 46168
    weight_filler {
      type: "uniform"
      min: -0.08
      max: 0.08
    }
    bias_filler {
      type: "constant"
      value: 0
    }
    axis: 2
  }
}
layer {
  name: "probs"
  type: "Softmax"
  bottom: "predict"
  top: "probs"
  softmax_param {
    axis: 2
  }
}
I0925 22:52:18.132480 13482 layer_factory.hpp:77] Creating layer data
I0925 22:52:18.132483 13446 layer_factory.hpp:77] Creating layer input
I0925 22:52:18.132546 13482 net.cpp:91] Creating Layer data
I0925 22:52:18.132547 13446 net.cpp:91] Creating Layer input
I0925 22:52:18.132557 13452 net.cpp:49] Initializing net from parameters: 
name: "s2vt:features_to_lstm"
state {
  phase: TEST
}
layer {
  name: "input"
  type: "Input"
  top: "frames_fc7"
  top: "cont_sentence"
  top: "input_sentence"
  top: "stage_indicator"
  input_param {
    shape {
      dim: 1
      dim: 4096
    }
    shape {
      dim: 1
      dim: 1
    }
    shape {
      dim: 1
      dim: 1
    }
    shape {
      dim: 1
      dim: 1
    }
  }
}
layer {
  name: "embed_encoder"
  type: "InnerProduct"
  bottom: "frames_fc7"
  top: "embedded_in_frames"
  param {
    lr_mult: 1
    decay_mult: 1
  }
  param {
    lr_mult: 2
    decay_mult: 0
  }
  inner_product_param {
    num_output: 500
    weight_filler {
      type: "xavier"
    }
    bias_filler {
      type: "constant"
      value: 0.2
    }
  }
}
layer {
  name: "reshape_frames"
  type: "Reshape"
  bottom: "embedded_in_frames"
  top: "embedded_input_frames"
  reshape_param {
    shape {
      dim: 1
      dim: 1
      dim: 500
    }
  }
}
layer {
  name: "reshape_stage_indicator"
  type: "Reshape"
  bottom: "stage_indicator"
  top: "reshaped_stage_indicator"
  reshape_param {
    shape {
      dim: 1
      dim: 1
      dim: 1
    }
  }
}
layer {
  name: "embedding"
  type: "Embed"
  bottom: "input_sentence"
  top: "embedded_input_sentence"
  param {
    lr_mult: 1
  }
  embed_param {
    num_output: 500
    input_dim: 46168
    bias_term: false
    weight_filler {
      type: "uniform"
      min: -0.08
      max: 0.08
    }
  }
}
layer {
  name: "lstm1"
  type: "LSTM"
  bottom: "embedded_input_frames"
  bottom: "cont_sentence"
  top: "lstm1"
  recurrent_param {
    num_output: 1000
    weight_filler {
      type: "uniform"
      min: -0.08
      max: 0.08
    }
    bias_filler {
      type: "constant"
      value: 0
    }
  }
}
layer {
  name: "concat"
  type: "Concat"
  bottom: "lstm1"
  bottom: "embedded_input_sentence"
  bottom: "reshaped_stage_indicator"
  top: "lstm1_video_sequence"
  concat_param {
    concat_dim: 2
  }
}
layer {
  name: "lstm2"
  type: "LSTM"
  bottom: "lstm1_video_sequence"
  bottom: "cont_sentence"
  top: "lstm2"
  recurrent_param {
    num_output: 1000
    weight_filler {
      type: "uniform"
      min: -0.08
      max: 0.08
    }
    bias_filler {
      type: "constant"
      value: 0
    }
  }
}
layer {
  name: "predict"
  type: "InnerProduct"
  bottom: "lstm2"
  top: "predict"
  param {
    lr_mult: 1
    decay_mult: 1
  }
  param {
    lr_mult: 2
    decay_mult: 0
  }
  inner_product_param {
    num_output: 46168
    weight_filler {
      type: "uniform"
      min: -0.08
      max: 0.08
    }
    bias_filler {
      type: "constant"
      value: 0
    }
    axis: 2
  }
}
layer {
  name: "probs"
  type: "Softmax"
  bottom: "predict"
  top: "probs"
  softmax_param {
    axis: 2
  }
}
I0925 22:52:18.132555 13490 net.cpp:49] Initializing net from parameters: 
name: "s2vt:features_to_lstm"
state {
  phase: TEST
}
layer {
  name: "input"
  type: "Input"
  top: "frames_fc7"
  top: "cont_sentence"
  top: "input_sentence"
  top: "stage_indicator"
  input_param {
    shape {
      dim: 1
      dim: 4096
    }
    shape {
      dim: 1
      dim: 1
    }
    shape {
      dim: 1
      dim: 1
    }
    shape {
      dim: 1
      dim: 1
    }
  }
}
layer {
  name: "embed_encoder"
  type: "InnerProduct"
  bottom: "frames_fc7"
  top: "embedded_in_frames"
  param {
    lr_mult: 1
    decay_mult: 1
  }
  param {
    lr_mult: 2
    decay_mult: 0
  }
  inner_product_param {
    num_output: 500
    weight_filler {
      type: "xavier"
    }
    bias_filler {
      type: "constant"
      value: 0.2
    }
  }
}
layer {
  name: "reshape_frames"
  type: "Reshape"
  bottom: "embedded_in_frames"
  top: "embedded_input_frames"
  reshape_param {
    shape {
      dim: 1
      dim: 1
      dim: 500
    }
  }
}
layer {
  name: "reshape_stage_indicator"
  type: "Reshape"
  bottom: "stage_indicator"
  top: "reshaped_stage_indicator"
  reshape_param {
    shape {
      dim: 1
      dim: 1
      dim: 1
    }
  }
}
layer {
  name: "embedding"
  type: "Embed"
  bottom: "input_sentence"
  top: "embedded_input_sentence"
  param {
    lr_mult: 1
  }
  embed_param {
    num_output: 500
    input_dim: 46168
    bias_term: false
    weight_filler {
      type: "uniform"
      min: -0.08
      max: 0.08
    }
  }
}
layer {
  name: "lstm1"
  type: "LSTM"
  bottom: "embedded_input_frames"
  bottom: "cont_sentence"
  top: "lstm1"
  recurrent_param {
    num_output: 1000
    weight_filler {
      type: "uniform"
      min: -0.08
      max: 0.08
    }
    bias_filler {
      type: "constant"
      value: 0
    }
  }
}
layer {
  name: "concat"
  type: "Concat"
  bottom: "lstm1"
  bottom: "embedded_input_sentence"
  bottom: "reshaped_stage_indicator"
  top: "lstm1_video_sequence"
  concat_param {
    concat_dim: 2
  }
}
layer {
  name: "lstm2"
  type: "LSTM"
  bottom: "lstm1_video_sequence"
  bottom: "cont_sentence"
  top: "lstm2"
  recurrent_param {
    num_output: 1000
    weight_filler {
      type: "uniform"
      min: -0.08
      max: 0.08
    }
    bias_filler {
      type: "constant"
      value: 0
    }
  }
}
layer {
  name: "predict"
  type: "InnerProduct"
  bottom: "lstm2"
  top: "predict"
  param {
    lr_mult: 1
    decay_mult: 1
  }
  param {
    lr_mult: 2
    decay_mult: 0
  }
  inner_product_param {
    num_output: 46168
    weight_filler {
      type: "uniform"
      min: -0.08
      max: 0.08
    }
    bias_filler {
      type: "constant"
      value: 0
    }
    axis: 2
  }
}
layer {
  name: "probs"
  type: "Softmax"
  bottom: "predict"
  top: "probs"
  softmax_param {
    axis: 2
  }
}
I0925 22:52:18.132576 13448 net.cpp:49] Initializing net from parameters: 
name: "s2vt:features_to_lstm"
state {
  phase: TEST
}
layer {
  name: "input"
  type: "Input"
  top: "frames_fc7"
  top: "cont_sentence"
  top: "input_sentence"
  top: "stage_indicator"
  input_param {
    shape {
      dim: 1
      dim: 4096
    }
    shape {
      dim: 1
      dim: 1
    }
    shape {
      dim: 1
      dim: 1
    }
    shape {
      dim: 1
      dim: 1
    }
  }
}
layer {
  name: "embed_encoder"
  type: "InnerProduct"
  bottom: "frames_fc7"
  top: "embedded_in_frames"
  param {
    lr_mult: 1
    decay_mult: 1
  }
  param {
    lr_mult: 2
    decay_mult: 0
  }
  inner_product_param {
    num_output: 500
    weight_filler {
      type: "xavier"
    }
    bias_filler {
      type: "constant"
      value: 0.2
    }
  }
}
layer {
  name: "reshape_frames"
  type: "Reshape"
  bottom: "embedded_in_frames"
  top: "embedded_input_frames"
  reshape_param {
    shape {
      dim: 1
      dim: 1
      dim: 500
    }
  }
}
layer {
  name: "reshape_stage_indicator"
  type: "Reshape"
  bottom: "stage_indicator"
  top: "reshaped_stage_indicator"
  reshape_param {
    shape {
      dim: 1
      dim: 1
      dim: 1
    }
  }
}
layer {
  name: "embedding"
  type: "Embed"
  bottom: "input_sentence"
  top: "embedded_input_sentence"
  param {
    lr_mult: 1
  }
  embed_param {
    num_output: 500
    input_dim: 46168
    bias_term: false
    weight_filler {
      type: "uniform"
      min: -0.08
      max: 0.08
    }
  }
}
layer {
  name: "lstm1"
  type: "LSTM"
  bottom: "embedded_input_frames"
  bottom: "cont_sentence"
  top: "lstm1"
  recurrent_param {
    num_output: 1000
    weight_filler {
      type: "uniform"
      min: -0.08
      max: 0.08
    }
    bias_filler {
      type: "constant"
      value: 0
    }
  }
}
layer {
  name: "concat"
  type: "Concat"
  bottom: "lstm1"
  bottom: "embedded_input_sentence"
  bottom: "reshaped_stage_indicator"
  top: "lstm1_video_sequence"
  concat_param {
    concat_dim: 2
  }
}
layer {
  name: "lstm2"
  type: "LSTM"
  bottom: "lstm1_video_sequence"
  bottom: "cont_sentence"
  top: "lstm2"
  recurrent_param {
    num_output: 1000
    weight_filler {
      type: "uniform"
      min: -0.08
      max: 0.08
    }
    bias_filler {
      type: "constant"
      value: 0
    }
  }
}
layer {
  name: "predict"
  type: "InnerProduct"
  bottom: "lstm2"
  top: "predict"
  param {
    lr_mult: 1
    decay_mult: 1
  }
  param {
    lr_mult: 2
    decay_mult: 0
  }
  inner_product_param {
    num_output: 46168
    weight_filler {
      type: "uniform"
      min: -0.08
      max: 0.08
    }
    bias_filler {
      type: "constant"
      value: 0
    }
    axis: 2
  }
}
layer {
  name: "probs"
  type: "Softmax"
  bottom: "predict"
  top: "probs"
  softmax_param {
    axis: 2
  }
}
I0925 22:52:18.132565 13446 net.cpp:399] input -> frames_fc7
I0925 22:52:18.132596 13442 net.cpp:49] Initializing net from parameters: 
name: "s2vt:features_to_lstm"
state {
  phase: TEST
}
layer {
  name: "input"
  type: "Input"
  top: "frames_fc7"
  top: "cont_sentence"
  top: "input_sentence"
  top: "stage_indicator"
  input_param {
    shape {
      dim: 1
      dim: 4096
    }
    shape {
      dim: 1
      dim: 1
    }
    shape {
      dim: 1
      dim: 1
    }
    shape {
      dim: 1
      dim: 1
    }
  }
}
layer {
  name: "embed_encoder"
  type: "InnerProduct"
  bottom: "frames_fc7"
  top: "embedded_in_frames"
  param {
    lr_mult: 1
    decay_mult: 1
  }
  param {
    lr_mult: 2
    decay_mult: 0
  }
  inner_product_param {
    num_output: 500
    weight_filler {
      type: "xavier"
    }
    bias_filler {
      type: "constant"
      value: 0.2
    }
  }
}
layer {
  name: "reshape_frames"
  type: "Reshape"
  bottom: "embedded_in_frames"
  top: "embedded_input_frames"
  reshape_param {
    shape {
      dim: 1
      dim: 1
      dim: 500
    }
  }
}
layer {
  name: "reshape_stage_indicator"
  type: "Reshape"
  bottom: "stage_indicator"
  top: "reshaped_stage_indicator"
  reshape_param {
    shape {
      dim: 1
      dim: 1
      dim: 1
    }
  }
}
layer {
  name: "embedding"
  type: "Embed"
  bottom: "input_sentence"
  top: "embedded_input_sentence"
  param {
    lr_mult: 1
  }
  embed_param {
    num_output: 500
    input_dim: 46168
    bias_term: false
    weight_filler {
      type: "uniform"
      min: -0.08
      max: 0.08
    }
  }
}
layer {
  name: "lstm1"
  type: "LSTM"
  bottom: "embedded_input_frames"
  bottom: "cont_sentence"
  top: "lstm1"
  recurrent_param {
    num_output: 1000
    weight_filler {
      type: "uniform"
      min: -0.08
      max: 0.08
    }
    bias_filler {
      type: "constant"
      value: 0
    }
  }
}
layer {
  name: "concat"
  type: "Concat"
  bottom: "lstm1"
  bottom: "embedded_input_sentence"
  bottom: "reshaped_stage_indicator"
  top: "lstm1_video_sequence"
  concat_param {
    concat_dim: 2
  }
}
layer {
  name: "lstm2"
  type: "LSTM"
  bottom: "lstm1_video_sequence"
  bottom: "cont_sentence"
  top: "lstm2"
  recurrent_param {
    num_output: 1000
    weight_filler {
      type: "uniform"
      min: -0.08
      max: 0.08
    }
    bias_filler {
      type: "constant"
      value: 0
    }
  }
}
layer {
  name: "predict"
  type: "InnerProduct"
  bottom: "lstm2"
  top: "predict"
  param {
    lr_mult: 1
    decay_mult: 1
  }
  param {
    lr_mult: 2
    decay_mult: 0
  }
  inner_product_param {
    num_output: 46168
    weight_filler {
      type: "uniform"
      min: -0.08
      max: 0.08
    }
    bias_filler {
      type: "constant"
      value: 0
    }
    axis: 2
  }
}
layer {
  name: "probs"
  type: "Softmax"
  bottom: "predict"
  top: "probs"
  softmax_param {
    axis: 2
  }
}
I0925 22:52:18.132570 13480 net.cpp:49] Initializing net from parameters: 
name: "s2vt:features_to_lstm"
state {
  phase: TEST
}
layer {
  name: "input"
  type: "Input"
  top: "frames_fc7"
  top: "cont_sentence"
  top: "input_sentence"
  top: "stage_indicator"
  input_param {
    shape {
      dim: 1
      dim: 4096
    }
    shape {
      dim: 1
      dim: 1
    }
    shape {
      dim: 1
      dim: 1
    }
    shape {
      dim: 1
      dim: 1
    }
  }
}
layer {
  name: "embed_encoder"
  type: "InnerProduct"
  bottom: "frames_fc7"
  top: "embedded_in_frames"
  param {
    lr_mult: 1
    decay_mult: 1
  }
  param {
    lr_mult: 2
    decay_mult: 0
  }
  inner_product_param {
    num_output: 500
    weight_filler {
      type: "xavier"
    }
    bias_filler {
      type: "constant"
      value: 0.2
    }
  }
}
layer {
  name: "reshape_frames"
  type: "Reshape"
  bottom: "embedded_in_frames"
  top: "embedded_input_frames"
  reshape_param {
    shape {
      dim: 1
      dim: 1
      dim: 500
    }
  }
}
layer {
  name: "reshape_stage_indicator"
  type: "Reshape"
  bottom: "stage_indicator"
  top: "reshaped_stage_indicator"
  reshape_param {
    shape {
      dim: 1
      dim: 1
      dim: 1
    }
  }
}
layer {
  name: "embedding"
  type: "Embed"
  bottom: "input_sentence"
  top: "embedded_input_sentence"
  param {
    lr_mult: 1
  }
  embed_param {
    num_output: 500
    input_dim: 46168
    bias_term: false
    weight_filler {
      type: "uniform"
      min: -0.08
      max: 0.08
    }
  }
}
layer {
  name: "lstm1"
  type: "LSTM"
  bottom: "embedded_input_frames"
  bottom: "cont_sentence"
  top: "lstm1"
  recurrent_param {
    num_output: 1000
    weight_filler {
      type: "uniform"
      min: -0.08
      max: 0.08
    }
    bias_filler {
      type: "constant"
      value: 0
    }
  }
}
layer {
  name: "concat"
  type: "Concat"
  bottom: "lstm1"
  bottom: "embedded_input_sentence"
  bottom: "reshaped_stage_indicator"
  top: "lstm1_video_sequence"
  concat_param {
    concat_dim: 2
  }
}
layer {
  name: "lstm2"
  type: "LSTM"
  bottom: "lstm1_video_sequence"
  bottom: "cont_sentence"
  top: "lstm2"
  recurrent_param {
    num_output: 1000
    weight_filler {
      type: "uniform"
      min: -0.08
      max: 0.08
    }
    bias_filler {
      type: "constant"
      value: 0
    }
  }
}
layer {
  name: "predict"
  type: "InnerProduct"
  bottom: "lstm2"
  top: "predict"
  param {
    lr_mult: 1
    decay_mult: 1
  }
  param {
    lr_mult: 2
    decay_mult: 0
  }
  inner_product_param {
    num_output: 46168
    weight_filler {
      type: "uniform"
      min: -0.08
      max: 0.08
    }
    bias_filler {
      type: "constant"
      value: 0
    }
    axis: 2
  }
}
layer {
  name: "probs"
  type: "Softmax"
  bottom: "predict"
  top: "probs"
  softmax_param {
    axis: 2
  }
}
I0925 22:52:18.132563 13482 net.cpp:399] data -> data
I0925 22:52:18.132596 13464 net.cpp:49] Initializing net from parameters: 
name: "s2vt:features_to_lstm"
state {
  phase: TEST
}
layer {
  name: "input"
  type: "Input"
  top: "frames_fc7"
  top: "cont_sentence"
  top: "input_sentence"
  top: "stage_indicator"
  input_param {
    shape {
      dim: 1
      dim: 4096
    }
    shape {
      dim: 1
      dim: 1
    }
    shape {
      dim: 1
      dim: 1
    }
    shape {
      dim: 1
      dim: 1
    }
  }
}
layer {
  name: "embed_encoder"
  type: "InnerProduct"
  bottom: "frames_fc7"
  top: "embedded_in_frames"
  param {
    lr_mult: 1
    decay_mult: 1
  }
  param {
    lr_mult: 2
    decay_mult: 0
  }
  inner_product_param {
    num_output: 500
    weight_filler {
      type: "xavier"
    }
    bias_filler {
      type: "constant"
      value: 0.2
    }
  }
}
layer {
  name: "reshape_frames"
  type: "Reshape"
  bottom: "embedded_in_frames"
  top: "embedded_input_frames"
  reshape_param {
    shape {
      dim: 1
      dim: 1
      dim: 500
    }
  }
}
layer {
  name: "reshape_stage_indicator"
  type: "Reshape"
  bottom: "stage_indicator"
  top: "reshaped_stage_indicator"
  reshape_param {
    shape {
      dim: 1
      dim: 1
      dim: 1
    }
  }
}
layer {
  name: "embedding"
  type: "Embed"
  bottom: "input_sentence"
  top: "embedded_input_sentence"
  param {
    lr_mult: 1
  }
  embed_param {
    num_output: 500
    input_dim: 46168
    bias_term: false
    weight_filler {
      type: "uniform"
      min: -0.08
      max: 0.08
    }
  }
}
layer {
  name: "lstm1"
  type: "LSTM"
  bottom: "embedded_input_frames"
  bottom: "cont_sentence"
  top: "lstm1"
  recurrent_param {
    num_output: 1000
    weight_filler {
      type: "uniform"
      min: -0.08
      max: 0.08
    }
    bias_filler {
      type: "constant"
      value: 0
    }
  }
}
layer {
  name: "concat"
  type: "Concat"
  bottom: "lstm1"
  bottom: "embedded_input_sentence"
  bottom: "reshaped_stage_indicator"
  top: "lstm1_video_sequence"
  concat_param {
    concat_dim: 2
  }
}
layer {
  name: "lstm2"
  type: "LSTM"
  bottom: "lstm1_video_sequence"
  bottom: "cont_sentence"
  top: "lstm2"
  recurrent_param {
    num_output: 1000
    weight_filler {
      type: "uniform"
      min: -0.08
      max: 0.08
    }
    bias_filler {
      type: "constant"
      value: 0
    }
  }
}
layer {
  name: "predict"
  type: "InnerProduct"
  bottom: "lstm2"
  top: "predict"
  param {
    lr_mult: 1
    decay_mult: 1
  }
  param {
    lr_mult: 2
    decay_mult: 0
  }
  inner_product_param {
    num_output: 46168
    weight_filler {
      type: "uniform"
      min: -0.08
      max: 0.08
    }
    bias_filler {
      type: "constant"
      value: 0
    }
    axis: 2
  }
}
layer {
  name: "probs"
  type: "Softmax"
  bottom: "predict"
  top: "probs"
  softmax_param {
    axis: 2
  }
}
I0925 22:52:18.132570 13460 net.cpp:49] Initializing net from parameters: 
name: "s2vt:features_to_lstm"
state {
  phase: TEST
}
layer {
  name: "input"
  type: "Input"
  top: "frames_fc7"
  top: "cont_sentence"
  top: "input_sentence"
  top: "stage_indicator"
  input_param {
    shape {
      dim: 1
      dim: 4096
    }
    shape {
      dim: 1
      dim: 1
    }
    shape {
      dim: 1
      dim: 1
    }
    shape {
      dim: 1
      dim: 1
    }
  }
}
layer {
  name: "embed_encoder"
  type: "InnerProduct"
  bottom: "frames_fc7"
  top: "embedded_in_frames"
  param {
    lr_mult: 1
    decay_mult: 1
  }
  param {
    lr_mult: 2
    decay_mult: 0
  }
  inner_product_param {
    num_output: 500
    weight_filler {
      type: "xavier"
    }
    bias_filler {
      type: "constant"
      value: 0.2
    }
  }
}
layer {
  name: "reshape_frames"
  type: "Reshape"
  bottom: "embedded_in_frames"
  top: "embedded_input_frames"
  reshape_param {
    shape {
      dim: 1
      dim: 1
      dim: 500
    }
  }
}
layer {
  name: "reshape_stage_indicator"
  type: "Reshape"
  bottom: "stage_indicator"
  top: "reshaped_stage_indicator"
  reshape_param {
    shape {
      dim: 1
      dim: 1
      dim: 1
    }
  }
}
layer {
  name: "embedding"
  type: "Embed"
  bottom: "input_sentence"
  top: "embedded_input_sentence"
  param {
    lr_mult: 1
  }
  embed_param {
    num_output: 500
    input_dim: 46168
    bias_term: false
    weight_filler {
      type: "uniform"
      min: -0.08
      max: 0.08
    }
  }
}
layer {
  name: "lstm1"
  type: "LSTM"
  bottom: "embedded_input_frames"
  bottom: "cont_sentence"
  top: "lstm1"
  recurrent_param {
    num_output: 1000
    weight_filler {
      type: "uniform"
      min: -0.08
      max: 0.08
    }
    bias_filler {
      type: "constant"
      value: 0
    }
  }
}
layer {
  name: "concat"
  type: "Concat"
  bottom: "lstm1"
  bottom: "embedded_input_sentence"
  bottom: "reshaped_stage_indicator"
  top: "lstm1_video_sequence"
  concat_param {
    concat_dim: 2
  }
}
layer {
  name: "lstm2"
  type: "LSTM"
  bottom: "lstm1_video_sequence"
  bottom: "cont_sentence"
  top: "lstm2"
  recurrent_param {
    num_output: 1000
    weight_filler {
      type: "uniform"
      min: -0.08
      max: 0.08
    }
    bias_filler {
      type: "constant"
      value: 0
    }
  }
}
layer {
  name: "predict"
  type: "InnerProduct"
  bottom: "lstm2"
  top: "predict"
  param {
    lr_mult: 1
    decay_mult: 1
  }
  param {
    lr_mult: 2
    decay_mult: 0
  }
  inner_product_param {
    num_output: 46168
    weight_filler {
      type: "uniform"
      min: -0.08
      max: 0.08
    }
    bias_filler {
      type: "constant"
      value: 0
    }
    axis: 2
  }
}
layer {
  name: "probs"
  type: "Softmax"
  bottom: "predict"
  top: "probs"
  softmax_param {
    axis: 2
  }
}
I0925 22:52:18.132663 13446 net.cpp:399] input -> cont_sentence
I0925 22:52:18.132693 13446 net.cpp:399] input -> input_sentence
I0925 22:52:18.132694 13452 layer_factory.hpp:77] Creating layer input
I0925 22:52:18.132694 13490 layer_factory.hpp:77] Creating layer input
I0925 22:52:18.132716 13446 net.cpp:399] input -> stage_indicator
I0925 22:52:18.132735 13448 layer_factory.hpp:77] Creating layer input
…
I0925 22:52:18.132974 13464 net.cpp:399] input -> input_sentence
I0925 22:52:18.132997 13460 net.cpp:399] input -> stage_indicator
I0925 22:52:18.133016 13464 net.cpp:399] input -> stage_indicator
I0925 22:52:18.132771 13448 net.cpp:91] Creating Layer input
I0925 22:52:18.134683 13448 net.cpp:399] input -> frames_fc7
I0925 22:52:18.134717 13448 net.cpp:399] input -> cont_sentence
I0925 22:52:18.134742 13448 net.cpp:399] input -> input_sentence
I0925 22:52:18.134766 13448 net.cpp:399] input -> stage_indicator
I0925 22:52:19.058126 13482 net.cpp:141] Setting up data
I0925 22:52:19.058254 13482 net.cpp:148] Top shape: 10 3 227 227 (1545870)
I0925 22:52:19.058261 13482 net.cpp:156] Memory required for data: 6183480
I0925 22:52:19.058281 13482 layer_factory.hpp:77] Creating layer conv1
I0925 22:52:19.058327 13482 net.cpp:91] Creating Layer conv1
I0925 22:52:19.058326 13452 net.cpp:141] Setting up input
I0925 22:52:19.058351 13482 net.cpp:425] conv1 <- data
I0925 22:52:19.058384 13452 net.cpp:148] Top shape: 1 4096 (4096)
I0925 22:52:19.058390 13482 net.cpp:399] conv1 -> conv1
I0925 22:52:19.058399 13452 net.cpp:148] Top shape: 1 1 (1)
I0925 22:52:19.058410 13452 net.cpp:148] Top shape: 1 1 (1)
I0925 22:52:19.058419 13452 net.cpp:148] Top shape: 1 1 (1)
I0925 22:52:19.058426 13452 net.cpp:156] Memory required for data: 16396
I0925 22:52:19.058439 13452 layer_factory.hpp:77] Creating layer cont_sentence_input_1_split
I0925 22:52:19.058477 13452 net.cpp:91] Creating Layer cont_sentence_input_1_split
I0925 22:52:19.058490 13452 net.cpp:425] cont_sentence_input_1_split <- cont_sentence
I0925 22:52:19.058500 13464 net.cpp:141] Setting up input
I0925 22:52:19.058524 13464 net.cpp:148] Top shape: 1 4096 (4096)
I0925 22:52:19.058533 13452 net.cpp:399] cont_sentence_input_1_split -> cont_sentence_input_1_split_0
I0925 22:52:19.058538 13464 net.cpp:148] Top shape: 1 1 (1)
I0925 22:52:19.058550 13464 net.cpp:148] Top shape: 1 1 (1)
I0925 22:52:19.058557 13464 net.cpp:148] Top shape: 1 1 (1)
I0925 22:52:19.058568 13464 net.cpp:156] Memory required for data: 16396
I0925 22:52:19.058554 13452 net.cpp:399] cont_sentence_input_1_split -> cont_sentence_input_1_split_1
I0925 22:52:19.058575 13464 layer_factory.hpp:77] Creating layer cont_sentence_input_1_split
I0925 22:52:19.058588 13464 net.cpp:91] Creating Layer cont_sentence_input_1_split
I0925 22:52:19.058604 13464 net.cpp:425] cont_sentence_input_1_split <- cont_sentence
I0925 22:52:19.058614 13464 net.cpp:399] cont_sentence_input_1_split -> cont_sentence_input_1_split_0
I0925 22:52:19.058627 13464 net.cpp:399] cont_sentence_input_1_split -> cont_sentence_input_1_split_1
I0925 22:52:19.058704 13464 net.cpp:141] Setting up cont_sentence_input_1_split
I0925 22:52:19.058715 13464 net.cpp:148] Top shape: 1 1 (1)
I0925 22:52:19.058722 13464 net.cpp:148] Top shape: 1 1 (1)
I0925 22:52:19.058725 13464 net.cpp:156] Memory required for data: 16404
I0925 22:52:19.058732 13464 layer_factory.hpp:77] Creating layer embed_encoder
I0925 22:52:19.058765 13464 net.cpp:91] Creating Layer embed_encoder
I0925 22:52:19.058780 13464 net.cpp:425] embed_encoder <- frames_fc7
I0925 22:52:19.058794 13464 net.cpp:399] embed_encoder -> embedded_in_frames
I0925 22:52:19.058907 13452 net.cpp:141] Setting up cont_sentence_input_1_split
I0925 22:52:19.058925 13452 net.cpp:148] Top shape: 1 1 (1)
I0925 22:52:19.058935 13452 net.cpp:148] Top shape: 1 1 (1)
I0925 22:52:19.058943 13452 net.cpp:156] Memory required for data: 16404
I0925 22:52:19.058951 13452 layer_factory.hpp:77] Creating layer embed_encoder
I0925 22:52:19.058974 13452 net.cpp:91] Creating Layer embed_encoder
I0925 22:52:19.058984 13452 net.cpp:425] embed_encoder <- frames_fc7
I0925 22:52:19.058995 13452 net.cpp:399] embed_encoder -> embedded_in_frames
I0925 22:52:19.059113 13490 net.cpp:141] Setting up input
I0925 22:52:19.059131 13490 net.cpp:148] Top shape: 1 4096 (4096)
I0925 22:52:19.059139 13490 net.cpp:148] Top shape: 1 1 (1)
I0925 22:52:19.059144 13490 net.cpp:148] Top shape: 1 1 (1)
I0925 22:52:19.059149 13490 net.cpp:148] Top shape: 1 1 (1)
I0925 22:52:19.059154 13490 net.cpp:156] Memory required for data: 16396
I0925 22:52:19.059160 13490 layer_factory.hpp:77] Creating layer cont_sentence_input_1_split
I0925 22:52:19.059171 13490 net.cpp:91] Creating Layer cont_sentence_input_1_split
I0925 22:52:19.059177 13490 net.cpp:425] cont_sentence_input_1_split <- cont_sentence
I0925 22:52:19.059185 13490 net.cpp:399] cont_sentence_input_1_split -> cont_sentence_input_1_split_0
I0925 22:52:19.059197 13490 net.cpp:399] cont_sentence_input_1_split -> cont_sentence_input_1_split_1
I0925 22:52:19.063474 13446 net.cpp:141] Setting up input
I0925 22:52:19.063509 13446 net.cpp:148] Top shape: 1 4096 (4096)
I0925 22:52:19.063519 13446 net.cpp:148] Top shape: 1 1 (1)
I0925 22:52:19.063524 13446 net.cpp:148] Top shape: 1 1 (1)
I0925 22:52:19.063530 13446 net.cpp:148] Top shape: 1 1 (1)
I0925 22:52:19.063534 13446 net.cpp:156] Memory required for data: 16396
I0925 22:52:19.063544 13446 layer_factory.hpp:77] Creating layer cont_sentence_input_1_split
I0925 22:52:19.063556 13446 net.cpp:91] Creating Layer cont_sentence_input_1_split
I0925 22:52:19.063562 13446 net.cpp:425] cont_sentence_input_1_split <- cont_sentence
I0925 22:52:19.063565 13490 net.cpp:141] Setting up cont_sentence_input_1_split
I0925 22:52:19.063573 13446 net.cpp:399] cont_sentence_input_1_split -> cont_sentence_input_1_split_0
I0925 22:52:19.063590 13490 net.cpp:148] Top shape: 1 1 (1)
I0925 22:52:19.063597 13490 net.cpp:148] Top shape: 1 1 (1)
I0925 22:52:19.063602 13490 net.cpp:156] Memory required for data: 16404
I0925 22:52:19.063602 13446 net.cpp:399] cont_sentence_input_1_split -> cont_sentence_input_1_split_1
I0925 22:52:19.063612 13490 layer_factory.hpp:77] Creating layer embed_encoder
I0925 22:52:19.063637 13490 net.cpp:91] Creating Layer embed_encoder
I0925 22:52:19.063644 13490 net.cpp:425] embed_encoder <- frames_fc7
I0925 22:52:19.063653 13490 net.cpp:399] embed_encoder -> embedded_in_frames
I0925 22:52:19.063653 13480 net.cpp:141] Setting up input
I0925 22:52:19.063679 13480 net.cpp:148] Top shape: 1 4096 (4096)
I0925 22:52:19.063693 13480 net.cpp:148] Top shape: 1 1 (1)
I0925 22:52:19.063702 13480 net.cpp:148] Top shape: 1 1 (1)
I0925 22:52:19.063714 13480 net.cpp:148] Top shape: 1 1 (1)
I0925 22:52:19.063720 13480 net.cpp:156] Memory required for data: 16396
I0925 22:52:19.063720 13460 net.cpp:141] Setting up input
I0925 22:52:19.063730 13480 layer_factory.hpp:77] Creating layer cont_sentence_input_1_split
I0925 22:52:19.063738 13460 net.cpp:148] Top shape: 1 4096 (4096)
I0925 22:52:19.063748 13460 net.cpp:148] Top shape: 1 1 (1)
I0925 22:52:19.063748 13480 net.cpp:91] Creating Layer cont_sentence_input_1_split
I0925 22:52:19.063766 13460 net.cpp:148] Top shape: 1 1 (1)
I0925 22:52:19.063769 13480 net.cpp:425] cont_sentence_input_1_split <- cont_sentence
I0925 22:52:19.063776 13460 net.cpp:148] Top shape: 1 1 (1)
I0925 22:52:19.063782 13460 net.cpp:156] Memory required for data: 16396
I0925 22:52:19.063784 13480 net.cpp:399] cont_sentence_input_1_split -> cont_sentence_input_1_split_0
I0925 22:52:19.063791 13460 layer_factory.hpp:77] Creating layer cont_sentence_input_1_split
I0925 22:52:19.063802 13480 net.cpp:399] cont_sentence_input_1_split -> cont_sentence_input_1_split_1
I0925 22:52:19.063808 13460 net.cpp:91] Creating Layer cont_sentence_input_1_split
I0925 22:52:19.063817 13460 net.cpp:425] cont_sentence_input_1_split <- cont_sentence
I0925 22:52:19.063833 13460 net.cpp:399] cont_sentence_input_1_split -> cont_sentence_input_1_split_0
I0925 22:52:19.063844 13460 net.cpp:399] cont_sentence_input_1_split -> cont_sentence_input_1_split_1
I0925 22:52:19.064908 13448 net.cpp:141] Setting up input
I0925 22:52:19.064924 13448 net.cpp:148] Top shape: 1 4096 (4096)
I0925 22:52:19.064929 13448 net.cpp:148] Top shape: 1 1 (1)
I0925 22:52:19.064935 13448 net.cpp:148] Top shape: 1 1 (1)
I0925 22:52:19.064940 13448 net.cpp:148] Top shape: 1 1 (1)
I0925 22:52:19.064944 13448 net.cpp:156] Memory required for data: 16396
I0925 22:52:19.064950 13448 layer_factory.hpp:77] Creating layer cont_sentence_input_1_split
I0925 22:52:19.064960 13448 net.cpp:91] Creating Layer cont_sentence_input_1_split
I0925 22:52:19.064957 13442 net.cpp:141] Setting up input
I0925 22:52:19.064966 13448 net.cpp:425] cont_sentence_input_1_split <- cont_sentence
I0925 22:52:19.064982 13442 net.cpp:148] Top shape: 1 4096 (4096)
I0925 22:52:19.064983 13448 net.cpp:399] cont_sentence_input_1_split -> cont_sentence_input_1_split_0
I0925 22:52:19.064996 13442 net.cpp:148] Top shape: 1 1 (1)
I0925 22:52:19.065001 13448 net.cpp:399] cont_sentence_input_1_split -> cont_sentence_input_1_split_1
I0925 22:52:19.065006 13442 net.cpp:148] Top shape: 1 1 (1)
I0925 22:52:19.065021 13442 net.cpp:148] Top shape: 1 1 (1)
I0925 22:52:19.065028 13442 net.cpp:156] Memory required for data: 16396
I0925 22:52:19.065037 13442 layer_factory.hpp:77] Creating layer cont_sentence_input_1_split
I0925 22:52:19.065042 13446 net.cpp:141] Setting up cont_sentence_input_1_split
I0925 22:52:19.065052 13442 net.cpp:91] Creating Layer cont_sentence_input_1_split
I0925 22:52:19.065060 13442 net.cpp:425] cont_sentence_input_1_split <- cont_sentence
I0925 22:52:19.065062 13446 net.cpp:148] Top shape: 1 1 (1)
I0925 22:52:19.065079 13446 net.cpp:148] Top shape: 1 1 (1)
I0925 22:52:19.065078 13442 net.cpp:399] cont_sentence_input_1_split -> cont_sentence_input_1_split_0
I0925 22:52:19.065091 13446 net.cpp:156] Memory required for data: 16404
I0925 22:52:19.065101 13446 layer_factory.hpp:77] Creating layer embed_encoder
I0925 22:52:19.065109 13442 net.cpp:399] cont_sentence_input_1_split -> cont_sentence_input_1_split_1
I0925 22:52:19.065126 13446 net.cpp:91] Creating Layer embed_encoder
I0925 22:52:19.065135 13446 net.cpp:425] embed_encoder <- frames_fc7
I0925 22:52:19.065153 13446 net.cpp:399] embed_encoder -> embedded_in_frames
I0925 22:52:19.065189 13442 net.cpp:141] Setting up cont_sentence_input_1_split
I0925 22:52:19.065204 13442 net.cpp:148] Top shape: 1 1 (1)
I0925 22:52:19.065213 13442 net.cpp:148] Top shape: 1 1 (1)
I0925 22:52:19.065220 13442 net.cpp:156] Memory required for data: 16404
I0925 22:52:19.065229 13442 layer_factory.hpp:77] Creating layer embed_encoder
I0925 22:52:19.065246 13442 net.cpp:91] Creating Layer embed_encoder
I0925 22:52:19.065254 13442 net.cpp:425] embed_encoder <- frames_fc7
I0925 22:52:19.065263 13448 net.cpp:141] Setting up cont_sentence_input_1_split
I0925 22:52:19.065268 13442 net.cpp:399] embed_encoder -> embedded_in_frames
I0925 22:52:19.065289 13448 net.cpp:148] Top shape: 1 1 (1)
I0925 22:52:19.065301 13448 net.cpp:148] Top shape: 1 1 (1)
I0925 22:52:19.065310 13448 net.cpp:156] Memory required for data: 16404
I0925 22:52:19.065318 13448 layer_factory.hpp:77] Creating layer embed_encoder
I0925 22:52:19.065346 13448 net.cpp:91] Creating Layer embed_encoder
I0925 22:52:19.065356 13448 net.cpp:425] embed_encoder <- frames_fc7
I0925 22:52:19.065369 13448 net.cpp:399] embed_encoder -> embedded_in_frames
I0925 22:52:19.069599 13480 net.cpp:141] Setting up cont_sentence_input_1_split
I0925 22:52:19.069619 13480 net.cpp:148] Top shape: 1 1 (1)
I0925 22:52:19.069627 13480 net.cpp:148] Top shape: 1 1 (1)
I0925 22:52:19.069630 13480 net.cpp:156] Memory required for data: 16404
I0925 22:52:19.069636 13480 layer_factory.hpp:77] Creating layer embed_encoder
I0925 22:52:19.069649 13480 net.cpp:91] Creating Layer embed_encoder
I0925 22:52:19.069655 13480 net.cpp:425] embed_encoder <- frames_fc7
I0925 22:52:19.069674 13480 net.cpp:399] embed_encoder -> embedded_in_frames
I0925 22:52:19.079401 13460 net.cpp:141] Setting up cont_sentence_input_1_split
I0925 22:52:19.079454 13460 net.cpp:148] Top shape: 1 1 (1)
I0925 22:52:19.079468 13460 net.cpp:148] Top shape: 1 1 (1)
I0925 22:52:19.079474 13460 net.cpp:156] Memory required for data: 16404
I0925 22:52:19.079485 13460 layer_factory.hpp:77] Creating layer embed_encoder
I0925 22:52:19.079514 13460 net.cpp:91] Creating Layer embed_encoder
I0925 22:52:19.079525 13460 net.cpp:425] embed_encoder <- frames_fc7
I0925 22:52:19.079538 13460 net.cpp:399] embed_encoder -> embedded_in_frames
I0925 22:52:19.096696 13464 net.cpp:141] Setting up embed_encoder
I0925 22:52:19.096747 13464 net.cpp:148] Top shape: 1 500 (500)
I0925 22:52:19.096756 13464 net.cpp:156] Memory required for data: 18404
I0925 22:52:19.096794 13464 layer_factory.hpp:77] Creating layer reshape_frames
I0925 22:52:19.096829 13464 net.cpp:91] Creating Layer reshape_frames
I0925 22:52:19.096842 13464 net.cpp:425] reshape_frames <- embedded_in_frames
I0925 22:52:19.096858 13464 net.cpp:399] reshape_frames -> embedded_input_frames
I0925 22:52:19.096894 13490 net.cpp:141] Setting up embed_encoder
I0925 22:52:19.096932 13490 net.cpp:148] Top shape: 1 500 (500)
I0925 22:52:19.096938 13490 net.cpp:156] Memory required for data: 18404
I0925 22:52:19.096957 13490 layer_factory.hpp:77] Creating layer reshape_frames
I0925 22:52:19.096966 13452 net.cpp:141] Setting up embed_encoder
I0925 22:52:19.096977 13490 net.cpp:91] Creating Layer reshape_frames
I0925 22:52:19.096984 13490 net.cpp:425] reshape_frames <- embedded_in_frames
I0925 22:52:19.096987 13452 net.cpp:148] Top shape: 1 500 (500)
I0925 22:52:19.096995 13490 net.cpp:399] reshape_frames -> embedded_input_frames
I0925 22:52:19.096997 13452 net.cpp:156] Memory required for data: 18404
I0925 22:52:19.097019 13452 layer_factory.hpp:77] Creating layer reshape_frames
I0925 22:52:19.097038 13464 net.cpp:141] Setting up reshape_frames
I0925 22:52:19.097043 13452 net.cpp:91] Creating Layer reshape_frames
I0925 22:52:19.097053 13464 net.cpp:148] Top shape: 1 1 500 (500)
I0925 22:52:19.097056 13452 net.cpp:425] reshape_frames <- embedded_in_frames
I0925 22:52:19.097060 13464 net.cpp:156] Memory required for data: 20404
I0925 22:52:19.097069 13464 layer_factory.hpp:77] Creating layer reshape_stage_indicator
I0925 22:52:19.097071 13452 net.cpp:399] reshape_frames -> embedded_input_frames
I0925 22:52:19.097121 13464 net.cpp:91] Creating Layer reshape_stage_indicator
I0925 22:52:19.097132 13464 net.cpp:425] reshape_stage_indicator <- stage_indicator
I0925 22:52:19.097151 13464 net.cpp:399] reshape_stage_indicator -> reshaped_stage_indicator
I0925 22:52:19.101265 13490 net.cpp:141] Setting up reshape_frames
I0925 22:52:19.101303 13490 net.cpp:148] Top shape: 1 1 500 (500)
I0925 22:52:19.101310 13490 net.cpp:156] Memory required for data: 20404
I0925 22:52:19.101318 13490 layer_factory.hpp:77] Creating layer reshape_stage_indicator
I0925 22:52:19.101332 13490 net.cpp:91] Creating Layer reshape_stage_indicator
I0925 22:52:19.101338 13490 net.cpp:425] reshape_stage_indicator <- stage_indicator
I0925 22:52:19.101348 13490 net.cpp:399] reshape_stage_indicator -> reshaped_stage_indicator
I0925 22:52:19.101363 13452 net.cpp:141] Setting up reshape_frames
I0925 22:52:19.101380 13452 net.cpp:148] Top shape: 1 1 500 (500)
I0925 22:52:19.101388 13452 net.cpp:156] Memory required for data: 20404
I0925 22:52:19.101394 13490 net.cpp:141] Setting up reshape_stage_indicator
I0925 22:52:19.101397 13452 layer_factory.hpp:77] Creating layer reshape_stage_indicator
I0925 22:52:19.101404 13490 net.cpp:148] Top shape: 1 1 1 (1)
I0925 22:52:19.101408 13490 net.cpp:156] Memory required for data: 20408
I0925 22:52:19.101413 13490 layer_factory.hpp:77] Creating layer embedding
I0925 22:52:19.101415 13452 net.cpp:91] Creating Layer reshape_stage_indicator
I0925 22:52:19.101424 13452 net.cpp:425] reshape_stage_indicator <- stage_indicator
I0925 22:52:19.101430 13490 net.cpp:91] Creating Layer embedding
I0925 22:52:19.101435 13490 net.cpp:425] embedding <- input_sentence
I0925 22:52:19.101440 13452 net.cpp:399] reshape_stage_indicator -> reshaped_stage_indicator
I0925 22:52:19.101445 13490 net.cpp:399] embedding -> embedded_input_sentence
I0925 22:52:19.101470 13464 net.cpp:141] Setting up reshape_stage_indicator
I0925 22:52:19.101513 13464 net.cpp:148] Top shape: 1 1 1 (1)
I0925 22:52:19.101524 13464 net.cpp:156] Memory required for data: 20408
I0925 22:52:19.101533 13464 layer_factory.hpp:77] Creating layer embedding
I0925 22:52:19.101550 13464 net.cpp:91] Creating Layer embedding
I0925 22:52:19.101557 13464 net.cpp:425] embedding <- input_sentence
I0925 22:52:19.101562 13452 net.cpp:141] Setting up reshape_stage_indicator
I0925 22:52:19.101577 13452 net.cpp:148] Top shape: 1 1 1 (1)
I0925 22:52:19.101584 13464 net.cpp:399] embedding -> embedded_input_sentence
I0925 22:52:19.101585 13452 net.cpp:156] Memory required for data: 20408
I0925 22:52:19.101605 13452 layer_factory.hpp:77] Creating layer embedding
I0925 22:52:19.101621 13452 net.cpp:91] Creating Layer embedding
I0925 22:52:19.101629 13452 net.cpp:425] embedding <- input_sentence
I0925 22:52:19.101641 13452 net.cpp:399] embedding -> embedded_input_sentence
I0925 22:52:19.141669 13480 net.cpp:141] Setting up embed_encoder
I0925 22:52:19.141718 13480 net.cpp:148] Top shape: 1 500 (500)
I0925 22:52:19.141726 13480 net.cpp:156] Memory required for data: 18404
I0925 22:52:19.141743 13480 layer_factory.hpp:77] Creating layer reshape_frames
I0925 22:52:19.141753 13460 net.cpp:141] Setting up embed_encoder
I0925 22:52:19.141760 13480 net.cpp:91] Creating Layer reshape_frames
I0925 22:52:19.141774 13460 net.cpp:148] Top shape: 1 500 (500)
I0925 22:52:19.141777 13480 net.cpp:425] reshape_frames <- embedded_in_frames
I0925 22:52:19.141779 13460 net.cpp:156] Memory required for data: 18404
I0925 22:52:19.141789 13480 net.cpp:399] reshape_frames -> embedded_input_frames
I0925 22:52:19.141794 13460 layer_factory.hpp:77] Creating layer reshape_frames
I0925 22:52:19.141804 13460 net.cpp:91] Creating Layer reshape_frames
I0925 22:52:19.141811 13460 net.cpp:425] reshape_frames <- embedded_in_frames
I0925 22:52:19.141821 13460 net.cpp:399] reshape_frames -> embedded_input_frames
I0925 22:52:19.188258 13480 net.cpp:141] Setting up reshape_frames
I0925 22:52:19.188285 13460 net.cpp:141] Setting up reshape_frames
I0925 22:52:19.188324 13480 net.cpp:148] Top shape: 1 1 500 (500)
I0925 22:52:19.188333 13460 net.cpp:148] Top shape: 1 1 500 (500)
I0925 22:52:19.188334 13480 net.cpp:156] Memory required for data: 20404
I0925 22:52:19.188357 13460 net.cpp:156] Memory required for data: 20404
I0925 22:52:19.188366 13480 layer_factory.hpp:77] Creating layer reshape_stage_indicator
I0925 22:52:19.188369 13460 layer_factory.hpp:77] Creating layer reshape_stage_indicator
I0925 22:52:19.188408 13460 net.cpp:91] Creating Layer reshape_stage_indicator
I0925 22:52:19.188408 13480 net.cpp:91] Creating Layer reshape_stage_indicator
I0925 22:52:19.188428 13460 net.cpp:425] reshape_stage_indicator <- stage_indicator
I0925 22:52:19.188434 13480 net.cpp:425] reshape_stage_indicator <- stage_indicator
I0925 22:52:19.188439 13460 net.cpp:399] reshape_stage_indicator -> reshaped_stage_indicator
I0925 22:52:19.188448 13480 net.cpp:399] reshape_stage_indicator -> reshaped_stage_indicator
I0925 22:52:19.236475 13442 net.cpp:141] Setting up embed_encoder
I0925 22:52:19.236528 13442 net.cpp:148] Top shape: 1 500 (500)
I0925 22:52:19.236538 13442 net.cpp:156] Memory required for data: 18404
I0925 22:52:19.236564 13442 layer_factory.hpp:77] Creating layer reshape_frames
I0925 22:52:19.236572 13448 net.cpp:141] Setting up embed_encoder
I0925 22:52:19.236590 13448 net.cpp:148] Top shape: 1 500 (500)
I0925 22:52:19.236601 13448 net.cpp:156] Memory required for data: 18404
I0925 22:52:19.236589 13442 net.cpp:91] Creating Layer reshape_frames
I0925 22:52:19.236618 13442 net.cpp:425] reshape_frames <- embedded_in_frames
I0925 22:52:19.236624 13480 net.cpp:141] Setting up reshape_stage_indicator
I0925 22:52:19.236619 13448 layer_factory.hpp:77] Creating layer reshape_frames
I0925 22:52:19.236641 13442 net.cpp:399] reshape_frames -> embedded_input_frames
I0925 22:52:19.236647 13480 net.cpp:148] Top shape: 1 1 1 (1)
I0925 22:52:19.236652 13480 net.cpp:156] Memory required for data: 20408
I0925 22:52:19.236656 13448 net.cpp:91] Creating Layer reshape_frames
I0925 22:52:19.236660 13480 layer_factory.hpp:77] Creating layer embedding
I0925 22:52:19.236665 13448 net.cpp:425] reshape_frames <- embedded_in_frames
I0925 22:52:19.236673 13480 net.cpp:91] Creating Layer embedding
I0925 22:52:19.236673 13448 net.cpp:399] reshape_frames -> embedded_input_frames
I0925 22:52:19.236683 13480 net.cpp:425] embedding <- input_sentence
I0925 22:52:19.236695 13480 net.cpp:399] embedding -> embedded_input_sentence
I0925 22:52:19.236716 13460 net.cpp:141] Setting up reshape_stage_indicator
I0925 22:52:19.236731 13448 net.cpp:141] Setting up reshape_frames
I0925 22:52:19.236740 13448 net.cpp:148] Top shape: 1 1 500 (500)
I0925 22:52:19.236739 13460 net.cpp:148] Top shape: 1 1 1 (1)
I0925 22:52:19.236745 13448 net.cpp:156] Memory required for data: 20404
I0925 22:52:19.236750 13448 layer_factory.hpp:77] Creating layer reshape_stage_indicator
I0925 22:52:19.236749 13460 net.cpp:156] Memory required for data: 20408
I0925 22:52:19.236762 13448 net.cpp:91] Creating Layer reshape_stage_indicator
I0925 22:52:19.236763 13460 layer_factory.hpp:77] Creating layer embedding
I0925 22:52:19.236766 13448 net.cpp:425] reshape_stage_indicator <- stage_indicator
I0925 22:52:19.236786 13448 net.cpp:399] reshape_stage_indicator -> reshaped_stage_indicator
I0925 22:52:19.236786 13460 net.cpp:91] Creating Layer embedding
I0925 22:52:19.236798 13460 net.cpp:425] embedding <- input_sentence
I0925 22:52:19.236809 13442 net.cpp:141] Setting up reshape_frames
I0925 22:52:19.236814 13460 net.cpp:399] embedding -> embedded_input_sentence
I0925 22:52:19.236829 13448 net.cpp:141] Setting up reshape_stage_indicator
I0925 22:52:19.236830 13442 net.cpp:148] Top shape: 1 1 500 (500)
I0925 22:52:19.236840 13448 net.cpp:148] Top shape: 1 1 1 (1)
I0925 22:52:19.236840 13442 net.cpp:156] Memory required for data: 20404
I0925 22:52:19.236843 13448 net.cpp:156] Memory required for data: 20408
I0925 22:52:19.236850 13448 layer_factory.hpp:77] Creating layer embedding
I0925 22:52:19.236848 13442 layer_factory.hpp:77] Creating layer reshape_stage_indicator
I0925 22:52:19.236861 13448 net.cpp:91] Creating Layer embedding
I0925 22:52:19.236865 13442 net.cpp:91] Creating Layer reshape_stage_indicator
I0925 22:52:19.236868 13448 net.cpp:425] embedding <- input_sentence
I0925 22:52:19.236874 13442 net.cpp:425] reshape_stage_indicator <- stage_indicator
I0925 22:52:19.236888 13442 net.cpp:399] reshape_stage_indicator -> reshaped_stage_indicator
I0925 22:52:19.236888 13448 net.cpp:399] embedding -> embedded_input_sentence
I0925 22:52:19.236901 13446 net.cpp:141] Setting up embed_encoder
I0925 22:52:19.236914 13446 net.cpp:148] Top shape: 1 500 (500)
I0925 22:52:19.236919 13446 net.cpp:156] Memory required for data: 18404
I0925 22:52:19.236935 13446 layer_factory.hpp:77] Creating layer reshape_frames
I0925 22:52:19.236946 13442 net.cpp:141] Setting up reshape_stage_indicator
I0925 22:52:19.236946 13446 net.cpp:91] Creating Layer reshape_frames
I0925 22:52:19.236976 13442 net.cpp:148] Top shape: 1 1 1 (1)
I0925 22:52:19.236979 13446 net.cpp:425] reshape_frames <- embedded_in_frames
I0925 22:52:19.236984 13442 net.cpp:156] Memory required for data: 20408
I0925 22:52:19.236989 13446 net.cpp:399] reshape_frames -> embedded_input_frames
I0925 22:52:19.236992 13442 layer_factory.hpp:77] Creating layer embedding
I0925 22:52:19.237007 13442 net.cpp:91] Creating Layer embedding
I0925 22:52:19.237015 13442 net.cpp:425] embedding <- input_sentence
I0925 22:52:19.237027 13442 net.cpp:399] embedding -> embedded_input_sentence
I0925 22:52:19.281353 13446 net.cpp:141] Setting up reshape_frames
I0925 22:52:19.281404 13446 net.cpp:148] Top shape: 1 1 500 (500)
I0925 22:52:19.281410 13446 net.cpp:156] Memory required for data: 20404
I0925 22:52:19.281419 13446 layer_factory.hpp:77] Creating layer reshape_stage_indicator
I0925 22:52:19.281441 13446 net.cpp:91] Creating Layer reshape_stage_indicator
I0925 22:52:19.281448 13446 net.cpp:425] reshape_stage_indicator <- stage_indicator
I0925 22:52:19.281462 13446 net.cpp:399] reshape_stage_indicator -> reshaped_stage_indicator
I0925 22:52:19.421847 13446 net.cpp:141] Setting up reshape_stage_indicator
I0925 22:52:19.421911 13446 net.cpp:148] Top shape: 1 1 1 (1)
I0925 22:52:19.421916 13446 net.cpp:156] Memory required for data: 20408
I0925 22:52:19.421926 13446 layer_factory.hpp:77] Creating layer embedding
I0925 22:52:19.421960 13446 net.cpp:91] Creating Layer embedding
I0925 22:52:19.421967 13446 net.cpp:425] embedding <- input_sentence
I0925 22:52:19.421980 13446 net.cpp:399] embedding -> embedded_input_sentence
I0925 22:52:19.421988 13490 net.cpp:141] Setting up embedding
I0925 22:52:19.422029 13490 net.cpp:148] Top shape: 1 1 500 (500)
I0925 22:52:19.422034 13490 net.cpp:156] Memory required for data: 22408
I0925 22:52:19.422052 13490 layer_factory.hpp:77] Creating layer lstm1
I0925 22:52:19.422049 13452 net.cpp:141] Setting up embedding
I0925 22:52:19.422068 13452 net.cpp:148] Top shape: 1 1 500 (500)
I0925 22:52:19.422073 13452 net.cpp:156] Memory required for data: 22408
I0925 22:52:19.422075 13490 net.cpp:91] Creating Layer lstm1
I0925 22:52:19.422082 13490 net.cpp:425] lstm1 <- embedded_input_frames
I0925 22:52:19.422085 13452 layer_factory.hpp:77] Creating layer lstm1
I0925 22:52:19.422091 13490 net.cpp:425] lstm1 <- cont_sentence_input_1_split_0
I0925 22:52:19.422096 13452 net.cpp:91] Creating Layer lstm1
I0925 22:52:19.422101 13490 net.cpp:399] lstm1 -> lstm1
I0925 22:52:19.422101 13452 net.cpp:425] lstm1 <- embedded_input_frames
I0925 22:52:19.422118 13452 net.cpp:425] lstm1 <- cont_sentence_input_1_split_0
I0925 22:52:19.422113 13464 net.cpp:141] Setting up embedding
I0925 22:52:19.422135 13452 net.cpp:399] lstm1 -> lstm1
I0925 22:52:19.422144 13464 net.cpp:148] Top shape: 1 1 500 (500)
I0925 22:52:19.422147 13490 recurrent_layer.cpp:20] Initializing recurrent layer: assuming input batch contains 1 timesteps of 1 independent streams.
I0925 22:52:19.422150 13464 net.cpp:156] Memory required for data: 22408
I0925 22:52:19.422147 13452 recurrent_layer.cpp:20] Initializing recurrent layer: assuming input batch contains 1 timesteps of 1 independent streams.
I0925 22:52:19.422166 13464 layer_factory.hpp:77] Creating layer lstm1
I0925 22:52:19.422184 13464 net.cpp:91] Creating Layer lstm1
I0925 22:52:19.422191 13464 net.cpp:425] lstm1 <- embedded_input_frames
I0925 22:52:19.422199 13464 net.cpp:425] lstm1 <- cont_sentence_input_1_split_0
I0925 22:52:19.422207 13464 net.cpp:399] lstm1 -> lstm1
I0925 22:52:19.422219 13464 recurrent_layer.cpp:20] Initializing recurrent layer: assuming input batch contains 1 timesteps of 1 independent streams.
I0925 22:52:19.460151 13490 net.cpp:49] Initializing net from parameters: 
layer {
  name: "lstm1_"
  type: "Input"
  top: "x"
  top: "cont"
  input_param {
    shape {
      dim: 1
      dim: 1
      dim: 500
    }
    shape {
      dim: 1
      dim: 1
    }
  }
}
layer {
  name: "lstm1_"
  type: "Input"
  top: "c_0"
  top: "h_0"
  input_param {
    shape {
      dim: 1
      dim: 1
      dim: 1000
    }
    shape {
      dim: 1
      dim: 1
      dim: 1000
    }
  }
}
layer {
  name: "lstm1_cont_slice"
  type: "Slice"
  bottom: "cont"
  top: "cont_1"
  slice_param {
    axis: 0
  }
}
layer {
  name: "lstm1_x_transform"
  type: "InnerProduct"
  bottom: "x"
  top: "W_xc_x"
  param {
    name: "W_xc"
  }
  param {
    name: "b_c"
  }
  propagate_down: true
  inner_product_param {
    num_output: 4000
    bias_term: true
    weight_filler {
      type: "uniform"
      min: -0.08
      max: 0.08
    }
    bias_filler {
      type: "constant"
      value: 0
    }
    axis: 2
  }
}
layer {
  name: "lstm1_W_xc_x_slice"
  type: "Slice"
  bottom: "W_xc_x"
  top: "W_xc_x_1"
  slice_param {
    axis: 0
  }
}
layer {
  name: "lstm1_h_conted_0"
  type: "Scale"
  bottom: "h_0"
  bottom: "cont_1"
  top: "h_conted_0"
  scale_param {
    axis: 0
  }
}
layer {
  name: "lstm1_transform_1"
  type: "InnerProduct"
  bottom: "h_conted_0"
  top: "W_hc_h_0"
  param {
    name: "W_hc"
  }
  inner_product_param {
    num_output: 4000
    bias_term: false
    weight_filler {
      type: "uniform"
      min: -0.08
      max: 0.08
    }
    axis: 2
  }
}
layer {
  name: "lstm1_gate_input_1"
  type: "Eltwise"
  bottom: "W_hc_h_0"
  bottom: "W_xc_x_1"
  top: "gate_input_1"
  eltwise_param {
    operation: SUM
  }
}
layer {
  name: "lstm1_unit_1"
  type: "LSTMUnit"
  bottom: "c_0"
  bottom: "gate_input_1"
  bottom: "cont_1"
  top: "c_1"
  top: "h_1"
}
layer {
  name: "lstm1_"
  type: "Split"
  bottom: "c_1"
  top: "c_T"
}
layer {
  name: "lstm1_h_concat"
  type: "Concat"
  bottom: "h_1"
  top: "h"
  concat_param {
    axis: 0
  }
}
layer {
  name: "h_pseudoloss"
  type: "Reduction"
  bottom: "h"
  top: "h_pseudoloss"
  loss_weight: 1
}
I0925 22:52:19.460165 13464 net.cpp:49] Initializing net from parameters: 
layer {
  name: "lstm1_"
  type: "Input"
  top: "x"
  top: "cont"
  input_param {
    shape {
      dim: 1
      dim: 1
      dim: 500
    }
    shape {
      dim: 1
      dim: 1
    }
  }
}
layer {
  name: "lstm1_"
  type: "Input"
  top: "c_0"
  top: "h_0"
  input_param {
    shape {
      dim: 1
      dim: 1
      dim: 1000
    }
    shape {
      dim: 1
      dim: 1
      dim: 1000
    }
  }
}
layer {
  name: "lstm1_cont_slice"
  type: "Slice"
  bottom: "cont"
  top: "cont_1"
  slice_param {
    axis: 0
  }
}
layer {
  name: "lstm1_x_transform"
  type: "InnerProduct"
  bottom: "x"
  top: "W_xc_x"
  param {
    name: "W_xc"
  }
  param {
    name: "b_c"
  }
  propagate_down: true
  inner_product_param {
    num_output: 4000
    bias_term: true
    weight_filler {
      type: "uniform"
      min: -0.08
      max: 0.08
    }
    bias_filler {
      type: "constant"
      value: 0
    }
    axis: 2
  }
}
layer {
  name: "lstm1_W_xc_x_slice"
  type: "Slice"
  bottom: "W_xc_x"
  top: "W_xc_x_1"
  slice_param {
    axis: 0
  }
}
layer {
  name: "lstm1_h_conted_0"
  type: "Scale"
  bottom: "h_0"
  bottom: "cont_1"
  top: "h_conted_0"
  scale_param {
    axis: 0
  }
}
layer {
  name: "lstm1_transform_1"
  type: "InnerProduct"
  bottom: "h_conted_0"
  top: "W_hc_h_0"
  param {
    name: "W_hc"
  }
  inner_product_param {
    num_output: 4000
    bias_term: false
    weight_filler {
      type: "uniform"
      min: -0.08
      max: 0.08
    }
    axis: 2
  }
}
layer {
  name: "lstm1_gate_input_1"
  type: "Eltwise"
  bottom: "W_hc_h_0"
  bottom: "W_xc_x_1"
  top: "gate_input_1"
  eltwise_param {
    operation: SUM
  }
}
layer {
  name: "lstm1_unit_1"
  type: "LSTMUnit"
  bottom: "c_0"
  bottom: "gate_input_1"
  bottom: "cont_1"
  top: "c_1"
  top: "h_1"
}
layer {
  name: "lstm1_"
  type: "Split"
  bottom: "c_1"
  top: "c_T"
}
layer {
  name: "lstm1_h_concat"
  type: "Concat"
  bottom: "h_1"
  top: "h"
  concat_param {
    axis: 0
  }
}
layer {
  name: "h_pseudoloss"
  type: "Reduction"
  bottom: "h"
  top: "h_pseudoloss"
  loss_weight: 1
}
I0925 22:52:19.460170 13452 net.cpp:49] Initializing net from parameters: 
layer {
  name: "lstm1_"
  type: "Input"
  top: "x"
  top: "cont"
  input_param {
    shape {
      dim: 1
      dim: 1
      dim: 500
    }
    shape {
      dim: 1
      dim: 1
    }
  }
}
layer {
  name: "lstm1_"
  type: "Input"
  top: "c_0"
  top: "h_0"
  input_param {
    shape {
      dim: 1
      dim: 1
      dim: 1000
    }
    shape {
      dim: 1
      dim: 1
      dim: 1000
    }
  }
}
layer {
  name: "lstm1_cont_slice"
  type: "Slice"
  bottom: "cont"
  top: "cont_1"
  slice_param {
    axis: 0
  }
}
layer {
  name: "lstm1_x_transform"
  type: "InnerProduct"
  bottom: "x"
  top: "W_xc_x"
  param {
    name: "W_xc"
  }
  param {
    name: "b_c"
  }
  propagate_down: true
  inner_product_param {
    num_output: 4000
    bias_term: true
    weight_filler {
      type: "uniform"
      min: -0.08
      max: 0.08
    }
    bias_filler {
      type: "constant"
      value: 0
    }
    axis: 2
  }
}
layer {
  name: "lstm1_W_xc_x_slice"
  type: "Slice"
  bottom: "W_xc_x"
  top: "W_xc_x_1"
  slice_param {
    axis: 0
  }
}
layer {
  name: "lstm1_h_conted_0"
  type: "Scale"
  bottom: "h_0"
  bottom: "cont_1"
  top: "h_conted_0"
  scale_param {
    axis: 0
  }
}
layer {
  name: "lstm1_transform_1"
  type: "InnerProduct"
  bottom: "h_conted_0"
  top: "W_hc_h_0"
  param {
    name: "W_hc"
  }
  inner_product_param {
    num_output: 4000
    bias_term: false
    weight_filler {
      type: "uniform"
      min: -0.08
      max: 0.08
    }
    axis: 2
  }
}
layer {
  name: "lstm1_gate_input_1"
  type: "Eltwise"
  bottom: "W_hc_h_0"
  bottom: "W_xc_x_1"
  top: "gate_input_1"
  eltwise_param {
    operation: SUM
  }
}
layer {
  name: "lstm1_unit_1"
  type: "LSTMUnit"
  bottom: "c_0"
  bottom: "gate_input_1"
  bottom: "cont_1"
  top: "c_1"
  top: "h_1"
}
layer {
  name: "lstm1_"
  type: "Split"
  bottom: "c_1"
  top: "c_T"
}
layer {
  name: "lstm1_h_concat"
  type: "Concat"
  bottom: "h_1"
  top: "h"
  concat_param {
    axis: 0
  }
}
layer {
  name: "h_pseudoloss"
  type: "Reduction"
  bottom: "h"
  top: "h_pseudoloss"
  loss_weight: 1
}
I0925 22:52:19.460317 13490 layer_factory.hpp:77] Creating layer lstm1_
I0925 22:52:19.460322 13464 layer_factory.hpp:77] Creating layer lstm1_
I0925 22:52:19.460335 13490 net.cpp:91] Creating Layer lstm1_
I0925 22:52:19.460336 13464 net.cpp:91] Creating Layer lstm1_
I0925 22:52:19.460342 13490 net.cpp:399] lstm1_ -> x
I0925 22:52:19.460343 13464 net.cpp:399] lstm1_ -> x
I0925 22:52:19.460345 13452 layer_factory.hpp:77] Creating layer lstm1_
I0925 22:52:19.460361 13464 net.cpp:399] lstm1_ -> cont
I0925 22:52:19.460364 13452 net.cpp:91] Creating Layer lstm1_
I0925 22:52:19.460361 13490 net.cpp:399] lstm1_ -> cont
I0925 22:52:19.460376 13452 net.cpp:399] lstm1_ -> x
I0925 22:52:19.460392 13452 net.cpp:399] lstm1_ -> cont
I0925 22:52:19.469115 13464 net.cpp:141] Setting up lstm1_
I0925 22:52:19.469135 13464 net.cpp:148] Top shape: 1 1 500 (500)
I0925 22:52:19.469141 13464 net.cpp:148] Top shape: 1 1 (1)
I0925 22:52:19.469146 13464 net.cpp:156] Memory required for data: 2004
I0925 22:52:19.469151 13464 layer_factory.hpp:77] Creating layer lstm1_
I0925 22:52:19.469182 13464 net.cpp:91] Creating Layer lstm1_
I0925 22:52:19.469190 13464 net.cpp:399] lstm1_ -> c_0
I0925 22:52:19.469204 13464 net.cpp:399] lstm1_ -> h_0
I0925 22:52:19.469265 13464 net.cpp:141] Setting up lstm1_
I0925 22:52:19.469275 13464 net.cpp:148] Top shape: 1 1 1000 (1000)
I0925 22:52:19.469281 13464 net.cpp:148] Top shape: 1 1 1000 (1000)
I0925 22:52:19.469285 13464 net.cpp:156] Memory required for data: 10004
I0925 22:52:19.469290 13464 layer_factory.hpp:77] Creating layer lstm1_cont_slice
I0925 22:52:19.469303 13464 net.cpp:91] Creating Layer lstm1_cont_slice
I0925 22:52:19.469308 13464 net.cpp:425] lstm1_cont_slice <- cont
I0925 22:52:19.469316 13464 net.cpp:399] lstm1_cont_slice -> cont_1
I0925 22:52:19.469331 13452 net.cpp:141] Setting up lstm1_
I0925 22:52:19.469347 13452 net.cpp:148] Top shape: 1 1 500 (500)
I0925 22:52:19.469354 13452 net.cpp:148] Top shape: 1 1 (1)
I0925 22:52:19.469360 13452 net.cpp:156] Memory required for data: 2004
I0925 22:52:19.469365 13452 layer_factory.hpp:77] Creating layer lstm1_
I0925 22:52:19.469375 13452 net.cpp:91] Creating Layer lstm1_
I0925 22:52:19.469416 13490 net.cpp:141] Setting up lstm1_
I0925 22:52:19.469434 13490 net.cpp:148] Top shape: 1 1 500 (500)
I0925 22:52:19.469440 13490 net.cpp:148] Top shape: 1 1 (1)
I0925 22:52:19.469427 13452 net.cpp:399] lstm1_ -> c_0
I0925 22:52:19.469445 13490 net.cpp:156] Memory required for data: 2004
I0925 22:52:19.469424 13480 net.cpp:141] Setting up embedding
I0925 22:52:19.469451 13490 layer_factory.hpp:77] Creating layer lstm1_
I0925 22:52:19.469450 13464 net.cpp:141] Setting up lstm1_cont_slice
I0925 22:52:19.469460 13452 net.cpp:399] lstm1_ -> h_0
I0925 22:52:19.469490 13490 net.cpp:91] Creating Layer lstm1_
I0925 22:52:19.469494 13464 net.cpp:148] Top shape: 1 1 (1)
I0925 22:52:19.469501 13464 net.cpp:156] Memory required for data: 10008
I0925 22:52:19.469506 13464 layer_factory.hpp:77] Creating layer cont_1_lstm1_cont_slice_0_split
I0925 22:52:19.469491 13480 net.cpp:148] Top shape: 1 1 500 (500)
I0925 22:52:19.469511 13490 net.cpp:399] lstm1_ -> c_0
I0925 22:52:19.469513 13464 net.cpp:91] Creating Layer cont_1_lstm1_cont_slice_0_split
I0925 22:52:19.469516 13480 net.cpp:156] Memory required for data: 22408
I0925 22:52:19.469519 13464 net.cpp:425] cont_1_lstm1_cont_slice_0_split <- cont_1
I0925 22:52:19.469524 13490 net.cpp:399] lstm1_ -> h_0
I0925 22:52:19.469529 13464 net.cpp:399] cont_1_lstm1_cont_slice_0_split -> cont_1_lstm1_cont_slice_0_split_0
I0925 22:52:19.469537 13480 layer_factory.hpp:77] Creating layer lstm1
I0925 22:52:19.469539 13464 net.cpp:399] cont_1_lstm1_cont_slice_0_split -> cont_1_lstm1_cont_slice_0_split_1
I0925 22:52:19.469563 13480 net.cpp:91] Creating Layer lstm1
I0925 22:52:19.469571 13480 net.cpp:425] lstm1 <- embedded_input_frames
I0925 22:52:19.469579 13480 net.cpp:425] lstm1 <- cont_sentence_input_1_split_0
I0925 22:52:19.469590 13480 net.cpp:399] lstm1 -> lstm1
I0925 22:52:19.469594 13452 net.cpp:141] Setting up lstm1_
I0925 22:52:19.469605 13452 net.cpp:148] Top shape: 1 1 1000 (1000)
I0925 22:52:19.469609 13480 recurrent_layer.cpp:20] Initializing recurrent layer: assuming input batch contains 1 timesteps of 1 independent streams.
I0925 22:52:19.469612 13452 net.cpp:148] Top shape: 1 1 1000 (1000)
I0925 22:52:19.469617 13452 net.cpp:156] Memory required for data: 10004
I0925 22:52:19.469622 13452 layer_factory.hpp:77] Creating layer lstm1_cont_slice
I0925 22:52:19.469635 13452 net.cpp:91] Creating Layer lstm1_cont_slice
I0925 22:52:19.469641 13452 net.cpp:425] lstm1_cont_slice <- cont
I0925 22:52:19.469643 13490 net.cpp:141] Setting up lstm1_
I0925 22:52:19.469651 13452 net.cpp:399] lstm1_cont_slice -> cont_1
I0925 22:52:19.469655 13490 net.cpp:148] Top shape: 1 1 1000 (1000)
I0925 22:52:19.469661 13490 net.cpp:148] Top shape: 1 1 1000 (1000)
I0925 22:52:19.469666 13490 net.cpp:156] Memory required for data: 10004
I0925 22:52:19.469671 13490 layer_factory.hpp:77] Creating layer lstm1_cont_slice
I0925 22:52:19.469678 13490 net.cpp:91] Creating Layer lstm1_cont_slice
I0925 22:52:19.469683 13490 net.cpp:425] lstm1_cont_slice <- cont
I0925 22:52:19.469693 13490 net.cpp:399] lstm1_cont_slice -> cont_1
I0925 22:52:19.469692 13452 net.cpp:141] Setting up lstm1_cont_slice
I0925 22:52:19.469710 13452 net.cpp:148] Top shape: 1 1 (1)
I0925 22:52:19.469715 13452 net.cpp:156] Memory required for data: 10008
I0925 22:52:19.469719 13452 layer_factory.hpp:77] Creating layer cont_1_lstm1_cont_slice_0_split
I0925 22:52:19.469722 13464 net.cpp:141] Setting up cont_1_lstm1_cont_slice_0_split
I0925 22:52:19.469732 13452 net.cpp:91] Creating Layer cont_1_lstm1_cont_slice_0_split
I0925 22:52:19.469733 13464 net.cpp:148] Top shape: 1 1 (1)
I0925 22:52:19.469738 13452 net.cpp:425] cont_1_lstm1_cont_slice_0_split <- cont_1
I0925 22:52:19.469739 13464 net.cpp:148] Top shape: 1 1 (1)
I0925 22:52:19.469744 13452 net.cpp:399] cont_1_lstm1_cont_slice_0_split -> cont_1_lstm1_cont_slice_0_split_0
I0925 22:52:19.469744 13464 net.cpp:156] Memory required for data: 10016
I0925 22:52:19.469756 13464 layer_factory.hpp:77] Creating layer lstm1_x_transform
I0925 22:52:19.469758 13490 net.cpp:141] Setting up lstm1_cont_slice
I0925 22:52:19.469758 13452 net.cpp:399] cont_1_lstm1_cont_slice_0_split -> cont_1_lstm1_cont_slice_0_split_1
I0925 22:52:19.469769 13490 net.cpp:148] Top shape: 1 1 (1)
I0925 22:52:19.469774 13490 net.cpp:156] Memory required for data: 10008
I0925 22:52:19.469774 13464 net.cpp:91] Creating Layer lstm1_x_transform
I0925 22:52:19.469779 13490 layer_factory.hpp:77] Creating layer cont_1_lstm1_cont_slice_0_split
I0925 22:52:19.469780 13464 net.cpp:425] lstm1_x_transform <- x
I0925 22:52:19.469789 13490 net.cpp:91] Creating Layer cont_1_lstm1_cont_slice_0_split
I0925 22:52:19.469792 13464 net.cpp:399] lstm1_x_transform -> W_xc_x
I0925 22:52:19.469794 13490 net.cpp:425] cont_1_lstm1_cont_slice_0_split <- cont_1
I0925 22:52:19.469801 13490 net.cpp:399] cont_1_lstm1_cont_slice_0_split -> cont_1_lstm1_cont_slice_0_split_0
I0925 22:52:19.469813 13490 net.cpp:399] cont_1_lstm1_cont_slice_0_split -> cont_1_lstm1_cont_slice_0_split_1
I0925 22:52:19.469820 13452 net.cpp:141] Setting up cont_1_lstm1_cont_slice_0_split
I0925 22:52:19.469830 13452 net.cpp:148] Top shape: 1 1 (1)
I0925 22:52:19.469835 13452 net.cpp:148] Top shape: 1 1 (1)
I0925 22:52:19.469840 13452 net.cpp:156] Memory required for data: 10016
I0925 22:52:19.469844 13452 layer_factory.hpp:77] Creating layer lstm1_x_transform
I0925 22:52:19.469854 13452 net.cpp:91] Creating Layer lstm1_x_transform
I0925 22:52:19.469858 13452 net.cpp:425] lstm1_x_transform <- x
I0925 22:52:19.469866 13452 net.cpp:399] lstm1_x_transform -> W_xc_x
I0925 22:52:19.469869 13490 net.cpp:141] Setting up cont_1_lstm1_cont_slice_0_split
I0925 22:52:19.469878 13490 net.cpp:148] Top shape: 1 1 (1)
I0925 22:52:19.469884 13490 net.cpp:148] Top shape: 1 1 (1)
I0925 22:52:19.469889 13490 net.cpp:156] Memory required for data: 10016
I0925 22:52:19.469893 13490 layer_factory.hpp:77] Creating layer lstm1_x_transform
I0925 22:52:19.469895 13480 net.cpp:49] Initializing net from parameters: 
layer {
  name: "lstm1_"
  type: "Input"
  top: "x"
  top: "cont"
  input_param {
    shape {
      dim: 1
      dim: 1
      dim: 500
    }
    shape {
      dim: 1
      dim: 1
    }
  }
}
layer {
  name: "lstm1_"
  type: "Input"
  top: "c_0"
  top: "h_0"
  input_param {
    shape {
      dim: 1
      dim: 1
      dim: 1000
    }
    shape {
      dim: 1
      dim: 1
      dim: 1000
    }
  }
}
layer {
  name: "lstm1_cont_slice"
  type: "Slice"
  bottom: "cont"
  top: "cont_1"
  slice_param {
    axis: 0
  }
}
layer {
  name: "lstm1_x_transform"
  type: "InnerProduct"
  bottom: "x"
  top: "W_xc_x"
  param {
    name: "W_xc"
  }
  param {
    name: "b_c"
  }
  propagate_down: true
  inner_product_param {
    num_output: 4000
    bias_term: true
    weight_filler {
      type: "uniform"
      min: -0.08
      max: 0.08
    }
    bias_filler {
      type: "constant"
      value: 0
    }
    axis: 2
  }
}
layer {
  name: "lstm1_W_xc_x_slice"
  type: "Slice"
  bottom: "W_xc_x"
  top: "W_xc_x_1"
  slice_param {
    axis: 0
  }
}
layer {
  name: "lstm1_h_conted_0"
  type: "Scale"
  bottom: "h_0"
  bottom: "cont_1"
  top: "h_conted_0"
  scale_param {
    axis: 0
  }
}
layer {
  name: "lstm1_transform_1"
  type: "InnerProduct"
  bottom: "h_conted_0"
  top: "W_hc_h_0"
  param {
    name: "W_hc"
  }
  inner_product_param {
    num_output: 4000
    bias_term: false
    weight_filler {
      type: "uniform"
      min: -0.08
      max: 0.08
    }
    axis: 2
  }
}
layer {
  name: "lstm1_gate_input_1"
  type: "Eltwise"
  bottom: "W_hc_h_0"
  bottom: "W_xc_x_1"
  top: "gate_input_1"
  eltwise_param {
    operation: SUM
  }
}
layer {
  name: "lstm1_unit_1"
  type: "LSTMUnit"
  bottom: "c_0"
  bottom: "gate_input_1"
  bottom: "cont_1"
  top: "c_1"
  top: "h_1"
}
layer {
  name: "lstm1_"
  type: "Split"
  bottom: "c_1"
  top: "c_T"
}
layer {
  name: "lstm1_h_concat"
  type: "Concat"
  bottom: "h_1"
  top: "h"
  concat_param {
    axis: 0
  }
}
layer {
  name: "h_pseudoloss"
  type: "Reduction"
  bottom: "h"
  top: "h_pseudoloss"
  loss_weight: 1
}
I0925 22:52:19.469903 13490 net.cpp:91] Creating Layer lstm1_x_transform
I0925 22:52:19.469928 13490 net.cpp:425] lstm1_x_transform <- x
I0925 22:52:19.469938 13490 net.cpp:399] lstm1_x_transform -> W_xc_x
I0925 22:52:19.469998 13480 layer_factory.hpp:77] Creating layer lstm1_
I0925 22:52:19.470041 13480 net.cpp:91] Creating Layer lstm1_
I0925 22:52:19.470047 13480 net.cpp:399] lstm1_ -> x
I0925 22:52:19.470059 13480 net.cpp:399] lstm1_ -> cont
I0925 22:52:19.478495 13480 net.cpp:141] Setting up lstm1_
I0925 22:52:19.478519 13480 net.cpp:148] Top shape: 1 1 500 (500)
I0925 22:52:19.478528 13480 net.cpp:148] Top shape: 1 1 (1)
I0925 22:52:19.478531 13480 net.cpp:156] Memory required for data: 2004
I0925 22:52:19.478536 13480 layer_factory.hpp:77] Creating layer lstm1_
I0925 22:52:19.478549 13480 net.cpp:91] Creating Layer lstm1_
I0925 22:52:19.478564 13480 net.cpp:399] lstm1_ -> c_0
I0925 22:52:19.478576 13480 net.cpp:399] lstm1_ -> h_0
I0925 22:52:19.482728 13480 net.cpp:141] Setting up lstm1_
I0925 22:52:19.482745 13480 net.cpp:148] Top shape: 1 1 1000 (1000)
I0925 22:52:19.482751 13480 net.cpp:148] Top shape: 1 1 1000 (1000)
I0925 22:52:19.482756 13480 net.cpp:156] Memory required for data: 10004
I0925 22:52:19.482761 13480 layer_factory.hpp:77] Creating layer lstm1_cont_slice
I0925 22:52:19.482777 13480 net.cpp:91] Creating Layer lstm1_cont_slice
I0925 22:52:19.482784 13480 net.cpp:425] lstm1_cont_slice <- cont
I0925 22:52:19.482791 13480 net.cpp:399] lstm1_cont_slice -> cont_1
I0925 22:52:19.482836 13480 net.cpp:141] Setting up lstm1_cont_slice
I0925 22:52:19.482844 13480 net.cpp:148] Top shape: 1 1 (1)
I0925 22:52:19.482848 13480 net.cpp:156] Memory required for data: 10008
I0925 22:52:19.482853 13480 layer_factory.hpp:77] Creating layer cont_1_lstm1_cont_slice_0_split
I0925 22:52:19.482861 13480 net.cpp:91] Creating Layer cont_1_lstm1_cont_slice_0_split
I0925 22:52:19.482866 13480 net.cpp:425] cont_1_lstm1_cont_slice_0_split <- cont_1
I0925 22:52:19.482877 13480 net.cpp:399] cont_1_lstm1_cont_slice_0_split -> cont_1_lstm1_cont_slice_0_split_0
I0925 22:52:19.482885 13480 net.cpp:399] cont_1_lstm1_cont_slice_0_split -> cont_1_lstm1_cont_slice_0_split_1
I0925 22:52:19.482939 13480 net.cpp:141] Setting up cont_1_lstm1_cont_slice_0_split
I0925 22:52:19.482947 13480 net.cpp:148] Top shape: 1 1 (1)
I0925 22:52:19.482952 13480 net.cpp:148] Top shape: 1 1 (1)
I0925 22:52:19.482957 13480 net.cpp:156] Memory required for data: 10016
I0925 22:52:19.482961 13480 layer_factory.hpp:77] Creating layer lstm1_x_transform
I0925 22:52:19.482977 13480 net.cpp:91] Creating Layer lstm1_x_transform
I0925 22:52:19.482982 13480 net.cpp:425] lstm1_x_transform <- x
I0925 22:52:19.482990 13480 net.cpp:399] lstm1_x_transform -> W_xc_x
I0925 22:52:19.496831 13452 net.cpp:141] Setting up lstm1_x_transform
I0925 22:52:19.496876 13452 net.cpp:148] Top shape: 1 1 4000 (4000)
I0925 22:52:19.496882 13452 net.cpp:156] Memory required for data: 26016
I0925 22:52:19.496906 13452 layer_factory.hpp:77] Creating layer lstm1_W_xc_x_slice
I0925 22:52:19.496923 13452 net.cpp:91] Creating Layer lstm1_W_xc_x_slice
I0925 22:52:19.496929 13452 net.cpp:425] lstm1_W_xc_x_slice <- W_xc_x
I0925 22:52:19.496939 13452 net.cpp:399] lstm1_W_xc_x_slice -> W_xc_x_1
I0925 22:52:19.496939 13464 net.cpp:141] Setting up lstm1_x_transform
I0925 22:52:19.496970 13464 net.cpp:148] Top shape: 1 1 4000 (4000)
I0925 22:52:19.496975 13464 net.cpp:156] Memory required for data: 26016
I0925 22:52:19.496989 13464 layer_factory.hpp:77] Creating layer lstm1_W_xc_x_slice
I0925 22:52:19.496999 13464 net.cpp:91] Creating Layer lstm1_W_xc_x_slice
I0925 22:52:19.497005 13464 net.cpp:425] lstm1_W_xc_x_slice <- W_xc_x
I0925 22:52:19.497014 13464 net.cpp:399] lstm1_W_xc_x_slice -> W_xc_x_1
I0925 22:52:19.497866 13452 net.cpp:141] Setting up lstm1_W_xc_x_slice
I0925 22:52:19.497877 13452 net.cpp:148] Top shape: 1 1 4000 (4000)
I0925 22:52:19.497882 13452 net.cpp:156] Memory required for data: 42016
I0925 22:52:19.497887 13452 layer_factory.hpp:77] Creating layer lstm1_h_conted_0
I0925 22:52:19.497907 13452 net.cpp:91] Creating Layer lstm1_h_conted_0
I0925 22:52:19.497913 13452 net.cpp:425] lstm1_h_conted_0 <- h_0
I0925 22:52:19.497920 13452 net.cpp:425] lstm1_h_conted_0 <- cont_1_lstm1_cont_slice_0_split_0
I0925 22:52:19.497927 13452 net.cpp:399] lstm1_h_conted_0 -> h_conted_0
I0925 22:52:19.497925 13464 net.cpp:141] Setting up lstm1_W_xc_x_slice
I0925 22:52:19.497944 13464 net.cpp:148] Top shape: 1 1 4000 (4000)
I0925 22:52:19.497949 13464 net.cpp:156] Memory required for data: 42016
I0925 22:52:19.497954 13464 layer_factory.hpp:77] Creating layer lstm1_h_conted_0
I0925 22:52:19.497964 13464 net.cpp:91] Creating Layer lstm1_h_conted_0
I0925 22:52:19.497969 13464 net.cpp:425] lstm1_h_conted_0 <- h_0
I0925 22:52:19.497977 13464 net.cpp:425] lstm1_h_conted_0 <- cont_1_lstm1_cont_slice_0_split_0
I0925 22:52:19.497983 13464 net.cpp:399] lstm1_h_conted_0 -> h_conted_0
I0925 22:52:19.498076 13490 net.cpp:141] Setting up lstm1_x_transform
I0925 22:52:19.498095 13490 net.cpp:148] Top shape: 1 1 4000 (4000)
I0925 22:52:19.498100 13490 net.cpp:156] Memory required for data: 26016
I0925 22:52:19.498112 13490 layer_factory.hpp:77] Creating layer lstm1_W_xc_x_slice
I0925 22:52:19.498121 13490 net.cpp:91] Creating Layer lstm1_W_xc_x_slice
I0925 22:52:19.498127 13490 net.cpp:425] lstm1_W_xc_x_slice <- W_xc_x
I0925 22:52:19.498136 13490 net.cpp:399] lstm1_W_xc_x_slice -> W_xc_x_1
I0925 22:52:19.498183 13490 net.cpp:141] Setting up lstm1_W_xc_x_slice
I0925 22:52:19.498193 13490 net.cpp:148] Top shape: 1 1 4000 (4000)
I0925 22:52:19.498196 13490 net.cpp:156] Memory required for data: 42016
I0925 22:52:19.498201 13490 layer_factory.hpp:77] Creating layer lstm1_h_conted_0
I0925 22:52:19.498209 13490 net.cpp:91] Creating Layer lstm1_h_conted_0
I0925 22:52:19.498214 13490 net.cpp:425] lstm1_h_conted_0 <- h_0
I0925 22:52:19.498220 13490 net.cpp:425] lstm1_h_conted_0 <- cont_1_lstm1_cont_slice_0_split_0
I0925 22:52:19.498230 13490 net.cpp:399] lstm1_h_conted_0 -> h_conted_0
I0925 22:52:19.498293 13452 net.cpp:141] Setting up lstm1_h_conted_0
I0925 22:52:19.498304 13452 net.cpp:148] Top shape: 1 1 1000 (1000)
I0925 22:52:19.498308 13452 net.cpp:156] Memory required for data: 46016
I0925 22:52:19.498313 13452 layer_factory.hpp:77] Creating layer lstm1_transform_1
I0925 22:52:19.498327 13452 net.cpp:91] Creating Layer lstm1_transform_1
I0925 22:52:19.498332 13452 net.cpp:425] lstm1_transform_1 <- h_conted_0
I0925 22:52:19.498343 13452 net.cpp:399] lstm1_transform_1 -> W_hc_h_0
I0925 22:52:19.498366 13464 net.cpp:141] Setting up lstm1_h_conted_0
I0925 22:52:19.498378 13464 net.cpp:148] Top shape: 1 1 1000 (1000)
I0925 22:52:19.498383 13464 net.cpp:156] Memory required for data: 46016
I0925 22:52:19.498389 13464 layer_factory.hpp:77] Creating layer lstm1_transform_1
I0925 22:52:19.498399 13464 net.cpp:91] Creating Layer lstm1_transform_1
I0925 22:52:19.498404 13464 net.cpp:425] lstm1_transform_1 <- h_conted_0
I0925 22:52:19.498412 13464 net.cpp:399] lstm1_transform_1 -> W_hc_h_0
I0925 22:52:19.498459 13490 net.cpp:141] Setting up lstm1_h_conted_0
I0925 22:52:19.498471 13490 net.cpp:148] Top shape: 1 1 1000 (1000)
I0925 22:52:19.498476 13490 net.cpp:156] Memory required for data: 46016
I0925 22:52:19.498481 13490 layer_factory.hpp:77] Creating layer lstm1_transform_1
I0925 22:52:19.498491 13490 net.cpp:91] Creating Layer lstm1_transform_1
I0925 22:52:19.498495 13490 net.cpp:425] lstm1_transform_1 <- h_conted_0
I0925 22:52:19.498503 13490 net.cpp:399] lstm1_transform_1 -> W_hc_h_0
I0925 22:52:19.505839 13448 net.cpp:141] Setting up embedding
I0925 22:52:19.505889 13448 net.cpp:148] Top shape: 1 1 500 (500)
I0925 22:52:19.505895 13448 net.cpp:156] Memory required for data: 22408
I0925 22:52:19.505913 13448 layer_factory.hpp:77] Creating layer lstm1
I0925 22:52:19.505933 13448 net.cpp:91] Creating Layer lstm1
I0925 22:52:19.505940 13448 net.cpp:425] lstm1 <- embedded_input_frames
I0925 22:52:19.505949 13448 net.cpp:425] lstm1 <- cont_sentence_input_1_split_0
I0925 22:52:19.505991 13448 net.cpp:399] lstm1 -> lstm1
I0925 22:52:19.506009 13448 recurrent_layer.cpp:20] Initializing recurrent layer: assuming input batch contains 1 timesteps of 1 independent streams.
I0925 22:52:19.506285 13448 net.cpp:49] Initializing net from parameters: 
layer {
  name: "lstm1_"
  type: "Input"
  top: "x"
  top: "cont"
  input_param {
    shape {
      dim: 1
      dim: 1
      dim: 500
    }
    shape {
      dim: 1
      dim: 1
    }
  }
}
layer {
  name: "lstm1_"
  type: "Input"
  top: "c_0"
  top: "h_0"
  input_param {
    shape {
      dim: 1
      dim: 1
      dim: 1000
    }
    shape {
      dim: 1
      dim: 1
      dim: 1000
    }
  }
}
layer {
  name: "lstm1_cont_slice"
  type: "Slice"
  bottom: "cont"
  top: "cont_1"
  slice_param {
    axis: 0
  }
}
layer {
  name: "lstm1_x_transform"
  type: "InnerProduct"
  bottom: "x"
  top: "W_xc_x"
  param {
    name: "W_xc"
  }
  param {
    name: "b_c"
  }
  propagate_down: true
  inner_product_param {
    num_output: 4000
    bias_term: true
    weight_filler {
      type: "uniform"
      min: -0.08
      max: 0.08
    }
    bias_filler {
      type: "constant"
      value: 0
    }
    axis: 2
  }
}
layer {
  name: "lstm1_W_xc_x_slice"
  type: "Slice"
  bottom: "W_xc_x"
  top: "W_xc_x_1"
  slice_param {
    axis: 0
  }
}
layer {
  name: "lstm1_h_conted_0"
  type: "Scale"
  bottom: "h_0"
  bottom: "cont_1"
  top: "h_conted_0"
  scale_param {
    axis: 0
  }
}
layer {
  name: "lstm1_transform_1"
  type: "InnerProduct"
  bottom: "h_conted_0"
  top: "W_hc_h_0"
  param {
    name: "W_hc"
  }
  inner_product_param {
    num_output: 4000
    bias_term: false
    weight_filler {
      type: "uniform"
      min: -0.08
      max: 0.08
    }
    axis: 2
  }
}
layer {
  name: "lstm1_gate_input_1"
  type: "Eltwise"
  bottom: "W_hc_h_0"
  bottom: "W_xc_x_1"
  top: "gate_input_1"
  eltwise_param {
    operation: SUM
  }
}
layer {
  name: "lstm1_unit_1"
  type: "LSTMUnit"
  bottom: "c_0"
  bottom: "gate_input_1"
  bottom: "cont_1"
  top: "c_1"
  top: "h_1"
}
layer {
  name: "lstm1_"
  type: "Split"
  bottom: "c_1"
  top: "c_T"
}
layer {
  name: "lstm1_h_concat"
  type: "Concat"
  bottom: "h_1"
  top: "h"
  concat_param {
    axis: 0
  }
}
layer {
  name: "h_pseudoloss"
  type: "Reduction"
  bottom: "h"
  top: "h_pseudoloss"
  loss_weight: 1
}
I0925 22:52:19.506378 13448 layer_factory.hpp:77] Creating layer lstm1_
I0925 22:52:19.506391 13448 net.cpp:91] Creating Layer lstm1_
I0925 22:52:19.506397 13448 net.cpp:399] lstm1_ -> x
I0925 22:52:19.506408 13448 net.cpp:399] lstm1_ -> cont
I0925 22:52:19.515851 13448 net.cpp:141] Setting up lstm1_
I0925 22:52:19.515879 13448 net.cpp:148] Top shape: 1 1 500 (500)
I0925 22:52:19.515887 13448 net.cpp:148] Top shape: 1 1 (1)
I0925 22:52:19.515890 13448 net.cpp:156] Memory required for data: 2004
I0925 22:52:19.515897 13448 layer_factory.hpp:77] Creating layer lstm1_
I0925 22:52:19.515911 13448 net.cpp:91] Creating Layer lstm1_
I0925 22:52:19.515923 13448 net.cpp:399] lstm1_ -> c_0
I0925 22:52:19.515936 13448 net.cpp:399] lstm1_ -> h_0
I0925 22:52:19.523543 13448 net.cpp:141] Setting up lstm1_
I0925 22:52:19.523571 13448 net.cpp:148] Top shape: 1 1 1000 (1000)
I0925 22:52:19.523583 13448 net.cpp:148] Top shape: 1 1 1000 (1000)
I0925 22:52:19.523591 13448 net.cpp:156] Memory required for data: 10004
I0925 22:52:19.523599 13448 layer_factory.hpp:77] Creating layer lstm1_cont_slice
I0925 22:52:19.523614 13448 net.cpp:91] Creating Layer lstm1_cont_slice
I0925 22:52:19.523620 13448 net.cpp:425] lstm1_cont_slice <- cont
I0925 22:52:19.523633 13448 net.cpp:399] lstm1_cont_slice -> cont_1
I0925 22:52:19.523717 13480 net.cpp:141] Setting up lstm1_x_transform
I0925 22:52:19.523736 13480 net.cpp:148] Top shape: 1 1 4000 (4000)
I0925 22:52:19.523741 13480 net.cpp:156] Memory required for data: 26016
I0925 22:52:19.523747 13448 net.cpp:141] Setting up lstm1_cont_slice
I0925 22:52:19.523756 13480 layer_factory.hpp:77] Creating layer lstm1_W_xc_x_slice
I0925 22:52:19.523758 13448 net.cpp:148] Top shape: 1 1 (1)
I0925 22:52:19.523762 13448 net.cpp:156] Memory required for data: 10008
I0925 22:52:19.523767 13448 layer_factory.hpp:77] Creating layer cont_1_lstm1_cont_slice_0_split
I0925 22:52:19.523767 13480 net.cpp:91] Creating Layer lstm1_W_xc_x_slice
I0925 22:52:19.523777 13480 net.cpp:425] lstm1_W_xc_x_slice <- W_xc_x
I0925 22:52:19.523779 13448 net.cpp:91] Creating Layer cont_1_lstm1_cont_slice_0_split
I0925 22:52:19.523784 13480 net.cpp:399] lstm1_W_xc_x_slice -> W_xc_x_1
I0925 22:52:19.523785 13448 net.cpp:425] cont_1_lstm1_cont_slice_0_split <- cont_1
I0925 22:52:19.523802 13448 net.cpp:399] cont_1_lstm1_cont_slice_0_split -> cont_1_lstm1_cont_slice_0_split_0
I0925 22:52:19.523810 13448 net.cpp:399] cont_1_lstm1_cont_slice_0_split -> cont_1_lstm1_cont_slice_0_split_1
I0925 22:52:19.523879 13480 net.cpp:141] Setting up lstm1_W_xc_x_slice
I0925 22:52:19.523890 13480 net.cpp:148] Top shape: 1 1 4000 (4000)
I0925 22:52:19.523895 13480 net.cpp:156] Memory required for data: 42016
I0925 22:52:19.523900 13480 layer_factory.hpp:77] Creating layer lstm1_h_conted_0
I0925 22:52:19.523912 13480 net.cpp:91] Creating Layer lstm1_h_conted_0
I0925 22:52:19.523917 13480 net.cpp:425] lstm1_h_conted_0 <- h_0
I0925 22:52:19.523924 13480 net.cpp:425] lstm1_h_conted_0 <- cont_1_lstm1_cont_slice_0_split_0
I0925 22:52:19.523931 13480 net.cpp:399] lstm1_h_conted_0 -> h_conted_0
I0925 22:52:19.523931 13448 net.cpp:141] Setting up cont_1_lstm1_cont_slice_0_split
I0925 22:52:19.523948 13448 net.cpp:148] Top shape: 1 1 (1)
I0925 22:52:19.523954 13448 net.cpp:148] Top shape: 1 1 (1)
I0925 22:52:19.523958 13448 net.cpp:156] Memory required for data: 10016
I0925 22:52:19.523963 13448 layer_factory.hpp:77] Creating layer lstm1_x_transform
I0925 22:52:19.523977 13448 net.cpp:91] Creating Layer lstm1_x_transform
I0925 22:52:19.523983 13448 net.cpp:425] lstm1_x_transform <- x
I0925 22:52:19.523991 13448 net.cpp:399] lstm1_x_transform -> W_xc_x
I0925 22:52:19.534548 13480 net.cpp:141] Setting up lstm1_h_conted_0
I0925 22:52:19.534610 13480 net.cpp:148] Top shape: 1 1 1000 (1000)
I0925 22:52:19.534616 13480 net.cpp:156] Memory required for data: 46016
I0925 22:52:19.534626 13480 layer_factory.hpp:77] Creating layer lstm1_transform_1
I0925 22:52:19.534647 13480 net.cpp:91] Creating Layer lstm1_transform_1
I0925 22:52:19.534654 13480 net.cpp:425] lstm1_transform_1 <- h_conted_0
I0925 22:52:19.534667 13480 net.cpp:399] lstm1_transform_1 -> W_hc_h_0
I0925 22:52:19.536376 13452 net.cpp:141] Setting up lstm1_transform_1
I0925 22:52:19.536413 13452 net.cpp:148] Top shape: 1 1 4000 (4000)
I0925 22:52:19.536419 13452 net.cpp:156] Memory required for data: 62016
I0925 22:52:19.536437 13452 layer_factory.hpp:77] Creating layer lstm1_gate_input_1
I0925 22:52:19.536455 13452 net.cpp:91] Creating Layer lstm1_gate_input_1
I0925 22:52:19.536463 13452 net.cpp:425] lstm1_gate_input_1 <- W_hc_h_0
I0925 22:52:19.536469 13452 net.cpp:425] lstm1_gate_input_1 <- W_xc_x_1
I0925 22:52:19.542790 13452 net.cpp:399] lstm1_gate_input_1 -> gate_input_1
I0925 22:52:19.543786 13452 net.cpp:141] Setting up lstm1_gate_input_1
I0925 22:52:19.543800 13452 net.cpp:148] Top shape: 1 1 4000 (4000)
I0925 22:52:19.543805 13452 net.cpp:156] Memory required for data: 78016
I0925 22:52:19.543810 13452 layer_factory.hpp:77] Creating layer lstm1_unit_1
I0925 22:52:19.543833 13452 net.cpp:91] Creating Layer lstm1_unit_1
I0925 22:52:19.543839 13452 net.cpp:425] lstm1_unit_1 <- c_0
I0925 22:52:19.543846 13452 net.cpp:425] lstm1_unit_1 <- gate_input_1
I0925 22:52:19.543845 13464 net.cpp:141] Setting up lstm1_transform_1
I0925 22:52:19.543853 13452 net.cpp:425] lstm1_unit_1 <- cont_1_lstm1_cont_slice_0_split_1
I0925 22:52:19.543866 13464 net.cpp:148] Top shape: 1 1 4000 (4000)
I0925 22:52:19.543869 13452 net.cpp:399] lstm1_unit_1 -> c_1
I0925 22:52:19.543872 13464 net.cpp:156] Memory required for data: 62016
I0925 22:52:19.543885 13464 layer_factory.hpp:77] Creating layer lstm1_gate_input_1
I0925 22:52:19.543889 13452 net.cpp:399] lstm1_unit_1 -> h_1
I0925 22:52:19.543898 13464 net.cpp:91] Creating Layer lstm1_gate_input_1
I0925 22:52:19.543905 13464 net.cpp:425] lstm1_gate_input_1 <- W_hc_h_0
I0925 22:52:19.543911 13464 net.cpp:425] lstm1_gate_input_1 <- W_xc_x_1
I0925 22:52:19.543922 13464 net.cpp:399] lstm1_gate_input_1 -> gate_input_1
I0925 22:52:19.544154 13464 net.cpp:141] Setting up lstm1_gate_input_1
I0925 22:52:19.544168 13464 net.cpp:148] Top shape: 1 1 4000 (4000)
I0925 22:52:19.544173 13464 net.cpp:156] Memory required for data: 78016
I0925 22:52:19.544178 13464 layer_factory.hpp:77] Creating layer lstm1_unit_1
I0925 22:52:19.544186 13464 net.cpp:91] Creating Layer lstm1_unit_1
I0925 22:52:19.544191 13464 net.cpp:425] lstm1_unit_1 <- c_0
I0925 22:52:19.544196 13464 net.cpp:425] lstm1_unit_1 <- gate_input_1
I0925 22:52:19.544203 13464 net.cpp:425] lstm1_unit_1 <- cont_1_lstm1_cont_slice_0_split_1
I0925 22:52:19.544209 13464 net.cpp:399] lstm1_unit_1 -> c_1
I0925 22:52:19.544212 13452 net.cpp:141] Setting up lstm1_unit_1
I0925 22:52:19.544217 13464 net.cpp:399] lstm1_unit_1 -> h_1
I0925 22:52:19.544224 13452 net.cpp:148] Top shape: 1 1 1000 (1000)
I0925 22:52:19.544229 13452 net.cpp:148] Top shape: 1 1 1000 (1000)
I0925 22:52:19.544234 13452 net.cpp:156] Memory required for data: 86016
I0925 22:52:19.544239 13452 layer_factory.hpp:77] Creating layer lstm1_
I0925 22:52:19.544247 13452 net.cpp:91] Creating Layer lstm1_
I0925 22:52:19.544252 13452 net.cpp:425] lstm1_ <- c_1
I0925 22:52:19.544260 13452 net.cpp:399] lstm1_ -> c_T
I0925 22:52:19.544488 13452 net.cpp:141] Setting up lstm1_
I0925 22:52:19.544499 13452 net.cpp:148] Top shape: 1 1 1000 (1000)
I0925 22:52:19.544503 13452 net.cpp:156] Memory required for data: 90016
I0925 22:52:19.544508 13452 layer_factory.hpp:77] Creating layer lstm1_h_concat
I0925 22:52:19.544518 13452 net.cpp:91] Creating Layer lstm1_h_concat
I0925 22:52:19.544523 13452 net.cpp:425] lstm1_h_concat <- h_1
I0925 22:52:19.544533 13452 net.cpp:399] lstm1_h_concat -> h
I0925 22:52:19.545686 13464 net.cpp:141] Setting up lstm1_unit_1
I0925 22:52:19.545696 13464 net.cpp:148] Top shape: 1 1 1000 (1000)
I0925 22:52:19.545702 13464 net.cpp:148] Top shape: 1 1 1000 (1000)
I0925 22:52:19.545706 13464 net.cpp:156] Memory required for data: 86016
I0925 22:52:19.545711 13464 layer_factory.hpp:77] Creating layer lstm1_
I0925 22:52:19.545719 13464 net.cpp:91] Creating Layer lstm1_
I0925 22:52:19.545723 13464 net.cpp:425] lstm1_ <- c_1
I0925 22:52:19.545730 13464 net.cpp:399] lstm1_ -> c_T
I0925 22:52:19.545733 13452 net.cpp:141] Setting up lstm1_h_concat
I0925 22:52:19.545750 13452 net.cpp:148] Top shape: 1 1 1000 (1000)
I0925 22:52:19.545755 13452 net.cpp:156] Memory required for data: 94016
I0925 22:52:19.545760 13452 layer_factory.hpp:77] Creating layer h_pseudoloss
I0925 22:52:19.545768 13464 net.cpp:141] Setting up lstm1_
I0925 22:52:19.545775 13464 net.cpp:148] Top shape: 1 1 1000 (1000)
I0925 22:52:19.545779 13464 net.cpp:156] Memory required for data: 90016
I0925 22:52:19.545784 13464 layer_factory.hpp:77] Creating layer lstm1_h_concat
I0925 22:52:19.545784 13452 net.cpp:91] Creating Layer h_pseudoloss
I0925 22:52:19.545791 13452 net.cpp:425] h_pseudoloss <- h
I0925 22:52:19.545796 13464 net.cpp:91] Creating Layer lstm1_h_concat
I0925 22:52:19.545799 13452 net.cpp:399] h_pseudoloss -> h_pseudoloss
I0925 22:52:19.545802 13464 net.cpp:425] lstm1_h_concat <- h_1
I0925 22:52:19.545809 13464 net.cpp:399] lstm1_h_concat -> h
I0925 22:52:19.549840 13464 net.cpp:141] Setting up lstm1_h_concat
I0925 22:52:19.549854 13464 net.cpp:148] Top shape: 1 1 1000 (1000)
I0925 22:52:19.549860 13464 net.cpp:156] Memory required for data: 94016
I0925 22:52:19.549865 13464 layer_factory.hpp:77] Creating layer h_pseudoloss
I0925 22:52:19.549873 13464 net.cpp:91] Creating Layer h_pseudoloss
I0925 22:52:19.549878 13464 net.cpp:425] h_pseudoloss <- h
I0925 22:52:19.549890 13464 net.cpp:399] h_pseudoloss -> h_pseudoloss
I0925 22:52:19.550179 13448 net.cpp:141] Setting up lstm1_x_transform
I0925 22:52:19.550220 13448 net.cpp:148] Top shape: 1 1 4000 (4000)
I0925 22:52:19.550230 13448 net.cpp:156] Memory required for data: 26016
I0925 22:52:19.550217 13452 net.cpp:141] Setting up h_pseudoloss
I0925 22:52:19.550253 13448 layer_factory.hpp:77] Creating layer lstm1_W_xc_x_slice
I0925 22:52:19.550254 13452 net.cpp:148] Top shape: (1)
I0925 22:52:19.550266 13464 net.cpp:141] Setting up h_pseudoloss
I0925 22:52:19.550272 13448 net.cpp:91] Creating Layer lstm1_W_xc_x_slice
…
I0925 22:52:19.550470 13448 net.cpp:399] lstm1_h_conted_0 -> h_conted_0
I0925 22:52:19.550528 13464 recurrent_layer.cpp:150] Adding parameter 0: W_xc
I0925 22:52:19.550528 13452 recurrent_layer.cpp:150] Adding parameter 0: W_xc
I0925 22:52:19.550539 13464 recurrent_layer.cpp:150] Adding parameter 1: b_c
I0925 22:52:19.550547 13452 recurrent_layer.cpp:150] Adding parameter 1: b_c
I0925 22:52:19.550550 13464 recurrent_layer.cpp:150] Adding parameter 2: W_hc
I0925 22:52:19.550552 13452 recurrent_layer.cpp:150] Adding parameter 2: W_hc
I0925 22:52:19.551141 13464 net.cpp:141] Setting up lstm1
I0925 22:52:19.551153 13464 net.cpp:148] Top shape: 1 1 1000 (1000)
I0925 22:52:19.551158 13464 net.cpp:156] Memory required for data: 26408
I0925 22:52:19.551172 13464 layer_factory.hpp:77] Creating layer concat
I0925 22:52:19.551182 13464 net.cpp:91] Creating Layer concat
I0925 22:52:19.551189 13464 net.cpp:425] concat <- lstm1
I0925 22:52:19.551197 13464 net.cpp:425] concat <- embedded_input_sentence
I0925 22:52:19.551203 13464 net.cpp:425] concat <- reshaped_stage_indicator
I0925 22:52:19.551209 13464 net.cpp:399] concat -> lstm1_video_sequence
I0925 22:52:19.551245 13448 net.cpp:141] Setting up lstm1_h_conted_0
I0925 22:52:19.551264 13448 net.cpp:148] Top shape: 1 1 1000 (1000)
I0925 22:52:19.551268 13448 net.cpp:156] Memory required for data: 46016
I0925 22:52:19.551273 13448 layer_factory.hpp:77] Creating layer lstm1_transform_1
I0925 22:52:19.551286 13448 net.cpp:91] Creating Layer lstm1_transform_1
I0925 22:52:19.551291 13448 net.cpp:425] lstm1_transform_1 <- h_conted_0
I0925 22:52:19.551301 13448 net.cpp:399] lstm1_transform_1 -> W_hc_h_0
I0925 22:52:19.551324 13464 net.cpp:141] Setting up concat
I0925 22:52:19.551336 13464 net.cpp:148] Top shape: 1 1 1501 (1501)
I0925 22:52:19.551340 13464 net.cpp:156] Memory required for data: 32412
I0925 22:52:19.551345 13464 layer_factory.hpp:77] Creating layer lstm2
I0925 22:52:19.551359 13464 net.cpp:91] Creating Layer lstm2
I0925 22:52:19.551364 13464 net.cpp:425] lstm2 <- lstm1_video_sequence
I0925 22:52:19.551370 13464 net.cpp:425] lstm2 <- cont_sentence_input_1_split_1
I0925 22:52:19.551378 13464 net.cpp:399] lstm2 -> lstm2
I0925 22:52:19.551389 13464 recurrent_layer.cpp:20] Initializing recurrent layer: assuming input batch contains 1 timesteps of 1 independent streams.
I0925 22:52:19.551663 13464 net.cpp:49] Initializing net from parameters: 
layer {
  name: "lstm2_"
  type: "Input"
  top: "x"
  top: "cont"
  input_param {
    shape {
      dim: 1
      dim: 1
      dim: 1501
    }
    shape {
      dim: 1
      dim: 1
    }
  }
}
layer {
  name: "lstm2_"
  type: "Input"
  top: "c_0"
  top: "h_0"
  input_param {
    shape {
      dim: 1
      dim: 1
      dim: 1000
    }
    shape {
      dim: 1
      dim: 1
      dim: 1000
    }
  }
}
layer {
  name: "lstm2_cont_slice"
  type: "Slice"
  bottom: "cont"
  top: "cont_1"
  slice_param {
    axis: 0
  }
}
layer {
  name: "lstm2_x_transform"
  type: "InnerProduct"
  bottom: "x"
  top: "W_xc_x"
  param {
    name: "W_xc"
  }
  param {
    name: "b_c"
  }
  propagate_down: true
  inner_product_param {
    num_output: 4000
    bias_term: true
    weight_filler {
      type: "uniform"
      min: -0.08
      max: 0.08
    }
    bias_filler {
      type: "constant"
      value: 0
    }
    axis: 2
  }
}
layer {
  name: "lstm2_W_xc_x_slice"
  type: "Slice"
  bottom: "W_xc_x"
  top: "W_xc_x_1"
  slice_param {
    axis: 0
  }
}
layer {
  name: "lstm2_h_conted_0"
  type: "Scale"
  bottom: "h_0"
  bottom: "cont_1"
  top: "h_conted_0"
  scale_param {
    axis: 0
  }
}
layer {
  name: "lstm2_transform_1"
  type: "InnerProduct"
  bottom: "h_conted_0"
  top: "W_hc_h_0"
  param {
    name: "W_hc"
  }
  inner_product_param {
    num_output: 4000
    bias_term: false
    weight_filler {
      type: "uniform"
      min: -0.08
      max: 0.08
    }
    axis: 2
  }
}
layer {
  name: "lstm2_gate_input_1"
  type: "Eltwise"
  bottom: "W_hc_h_0"
  bottom: "W_xc_x_1"
  top: "gate_input_1"
  eltwise_param {
    operation: SUM
  }
}
layer {
  name: "lstm2_unit_1"
  type: "LSTMUnit"
  bottom: "c_0"
  bottom: "gate_input_1"
  bottom: "cont_1"
  top: "c_1"
  top: "h_1"
}
layer {
  name: "lstm2_"
  type: "Split"
  bottom: "c_1"
  top: "c_T"
}
layer {
  name: "lstm2_h_concat"
  type: "Concat"
  bottom: "h_1"
  top: "h"
  concat_param {
    axis: 0
  }
}
layer {
  name: "h_pseudoloss"
  type: "Reduction"
  bottom: "h"
  top: "h_pseudoloss"
  loss_weight: 1
}
I0925 22:52:19.551755 13464 layer_factory.hpp:77] Creating layer lstm2_
I0925 22:52:19.551769 13464 net.cpp:91] Creating Layer lstm2_
I0925 22:52:19.551774 13464 net.cpp:399] lstm2_ -> x
I0925 22:52:19.551785 13464 net.cpp:399] lstm2_ -> cont
I0925 22:52:19.553884 13452 net.cpp:141] Setting up lstm1
I0925 22:52:19.553901 13452 net.cpp:148] Top shape: 1 1 1000 (1000)
I0925 22:52:19.553906 13452 net.cpp:156] Memory required for data: 26408
I0925 22:52:19.553920 13452 layer_factory.hpp:77] Creating layer concat
I0925 22:52:19.553932 13452 net.cpp:91] Creating Layer concat
I0925 22:52:19.553939 13452 net.cpp:425] concat <- lstm1
I0925 22:52:19.553946 13452 net.cpp:425] concat <- embedded_input_sentence
I0925 22:52:19.553952 13452 net.cpp:425] concat <- reshaped_stage_indicator
I0925 22:52:19.553959 13452 net.cpp:399] concat -> lstm1_video_sequence
I0925 22:52:19.554023 13490 net.cpp:141] Setting up lstm1_transform_1
I0925 22:52:19.554044 13490 net.cpp:148] Top shape: 1 1 4000 (4000)
I0925 22:52:19.554049 13490 net.cpp:156] Memory required for data: 62016
I0925 22:52:19.554061 13490 layer_factory.hpp:77] Creating layer lstm1_gate_input_1
I0925 22:52:19.554072 13490 net.cpp:91] Creating Layer lstm1_gate_input_1
I0925 22:52:19.554080 13490 net.cpp:425] lstm1_gate_input_1 <- W_hc_h_0
I0925 22:52:19.554085 13490 net.cpp:425] lstm1_gate_input_1 <- W_xc_x_1
I0925 22:52:19.554092 13490 net.cpp:399] lstm1_gate_input_1 -> gate_input_1
I0925 22:52:19.561388 13452 net.cpp:141] Setting up concat
I0925 22:52:19.561404 13452 net.cpp:148] Top shape: 1 1 1501 (1501)
I0925 22:52:19.561409 13452 net.cpp:156] Memory required for data: 32412
I0925 22:52:19.561410 13464 net.cpp:141] Setting up lstm2_
I0925 22:52:19.561415 13452 layer_factory.hpp:77] Creating layer lstm2
I0925 22:52:19.561424 13464 net.cpp:148] Top shape: 1 1 1501 (1501)
I0925 22:52:19.561429 13452 net.cpp:91] Creating Layer lstm2
I0925 22:52:19.561429 13464 net.cpp:148] Top shape: 1 1 (1)
I0925 22:52:19.561439 13452 net.cpp:425] lstm2 <- lstm1_video_sequence
I0925 22:52:19.561441 13464 net.cpp:156] Memory required for data: 6008
I0925 22:52:19.561445 13452 net.cpp:425] lstm2 <- cont_sentence_input_1_split_1
I0925 22:52:19.561447 13464 layer_factory.hpp:77] Creating layer lstm2_
I0925 22:52:19.561455 13452 net.cpp:399] lstm2 -> lstm2
I0925 22:52:19.561457 13464 net.cpp:91] Creating Layer lstm2_
I0925 22:52:19.561465 13464 net.cpp:399] lstm2_ -> c_0
I0925 22:52:19.561465 13452 recurrent_layer.cpp:20] Initializing recurrent layer: assuming input batch contains 1 timesteps of 1 independent streams.
I0925 22:52:19.561475 13464 net.cpp:399] lstm2_ -> h_0
I0925 22:52:19.561673 13452 net.cpp:49] Initializing net from parameters: 
layer {
  name: "lstm2_"
  type: "Input"
  top: "x"
  top: "cont"
  input_param {
    shape {
      dim: 1
      dim: 1
      dim: 1501
    }
    shape {
      dim: 1
      dim: 1
    }
  }
}
layer {
  name: "lstm2_"
  type: "Input"
  top: "c_0"
  top: "h_0"
  input_param {
    shape {
      dim: 1
      dim: 1
      dim: 1000
    }
    shape {
      dim: 1
      dim: 1
      dim: 1000
    }
  }
}
layer {
  name: "lstm2_cont_slice"
  type: "Slice"
  bottom: "cont"
  top: "cont_1"
  slice_param {
    axis: 0
  }
}
layer {
  name: "lstm2_x_transform"
  type: "InnerProduct"
  bottom: "x"
  top: "W_xc_x"
  param {
    name: "W_xc"
  }
  param {
    name: "b_c"
  }
  propagate_down: true
  inner_product_param {
    num_output: 4000
    bias_term: true
    weight_filler {
      type: "uniform"
      min: -0.08
      max: 0.08
    }
    bias_filler {
      type: "constant"
      value: 0
    }
    axis: 2
  }
}
layer {
  name: "lstm2_W_xc_x_slice"
  type: "Slice"
  bottom: "W_xc_x"
  top: "W_xc_x_1"
  slice_param {
    axis: 0
  }
}
layer {
  name: "lstm2_h_conted_0"
  type: "Scale"
  bottom: "h_0"
  bottom: "cont_1"
  top: "h_conted_0"
  scale_param {
    axis: 0
  }
}
layer {
  name: "lstm2_transform_1"
  type: "InnerProduct"
  bottom: "h_conted_0"
  top: "W_hc_h_0"
  param {
    name: "W_hc"
  }
  inner_product_param {
    num_output: 4000
    bias_term: false
    weight_filler {
      type: "uniform"
      min: -0.08
      max: 0.08
    }
    axis: 2
  }
}
layer {
  name: "lstm2_gate_input_1"
  type: "Eltwise"
  bottom: "W_hc_h_0"
  bottom: "W_xc_x_1"
  top: "gate_input_1"
  eltwise_param {
    operation: SUM
  }
}
layer {
  name: "lstm2_unit_1"
  type: "LSTMUnit"
  bottom: "c_0"
  bottom: "gate_input_1"
  bottom: "cont_1"
  top: "c_1"
  top: "h_1"
}
layer {
  name: "lstm2_"
  type: "Split"
  bottom: "c_1"
  top: "c_T"
}
layer {
  name: "lstm2_h_concat"
  type: "Concat"
  bottom: "h_1"
  top: "h"
  concat_param {
    axis: 0
  }
}
layer {
  name: "h_pseudoloss"
  type: "Reduction"
  bottom: "h"
  top: "h_pseudoloss"
  loss_weight: 1
}
I0925 22:52:19.561758 13452 layer_factory.hpp:77] Creating layer lstm2_
I0925 22:52:19.561767 13452 net.cpp:91] Creating Layer lstm2_
I0925 22:52:19.561774 13452 net.cpp:399] lstm2_ -> x
I0925 22:52:19.561784 13452 net.cpp:399] lstm2_ -> cont
I0925 22:52:19.563501 13490 net.cpp:141] Setting up lstm1_gate_input_1
I0925 22:52:19.563519 13490 net.cpp:148] Top shape: 1 1 4000 (4000)
I0925 22:52:19.563524 13490 net.cpp:156] Memory required for data: 78016
I0925 22:52:19.563529 13490 layer_factory.hpp:77] Creating layer lstm1_unit_1
I0925 22:52:19.563545 13490 net.cpp:91] Creating Layer lstm1_unit_1
I0925 22:52:19.563551 13490 net.cpp:425] lstm1_unit_1 <- c_0
I0925 22:52:19.563550 13464 net.cpp:141] Setting up lstm2_
I0925 22:52:19.563558 13490 net.cpp:425] lstm1_unit_1 <- gate_input_1
I0925 22:52:19.563562 13464 net.cpp:148] Top shape: 1 1 1000 (1000)
I0925 22:52:19.563565 13490 net.cpp:425] lstm1_unit_1 <- cont_1_lstm1_cont_slice_0_split_1
I0925 22:52:19.563567 13464 net.cpp:148] Top shape: 1 1 1000 (1000)
I0925 22:52:19.563571 13490 net.cpp:399] lstm1_unit_1 -> c_1
I0925 22:52:19.563572 13464 net.cpp:156] Memory required for data: 14008
I0925 22:52:19.563583 13464 layer_factory.hpp:77] Creating layer lstm2_cont_slice
I0925 22:52:19.563585 13490 net.cpp:399] lstm1_unit_1 -> h_1
I0925 22:52:19.563609 13452 net.cpp:141] Setting up lstm2_
I0925 22:52:19.580199 13480 net.cpp:141] Setting up lstm1_transform_1
I0925 22:52:19.596698 13448 net.cpp:141] Setting up lstm1_transform_1
I0925 22:52:20.199249 13480 net.cpp:148] Top shape: 1 1 4000 (4000)
I0925 22:52:19.599988 13442 net.cpp:141] Setting up embedding
I0925 22:52:19.609371 13460 net.cpp:141] Setting up embedding
I0925 22:52:19.645995 13446 net.cpp:141] Setting up embedding
I0925 22:52:20.199283 13442 net.cpp:148] Top shape: 1 1 500 (500)
I0925 22:52:20.199242 13452 net.cpp:148] Top shape: 1 1 1501 (1501)
I0925 22:52:20.199296 13460 net.cpp:148] Top shape: 1 1 500 (500)
I0925 22:52:19.696648 13482 net.cpp:141] Setting up conv1
I0925 22:52:20.199229 13464 net.cpp:91] Creating Layer lstm2_cont_slice
I0925 22:52:20.199296 13442 net.cpp:156] Memory required for data: 22408
I0925 22:52:20.199332 13482 net.cpp:148] Top shape: 10 96 55 55 (2904000)
I0925 22:52:20.199334 13464 net.cpp:425] lstm2_cont_slice <- cont
I0925 22:52:20.199306 13446 net.cpp:148] Top shape: 1 1 500 (500)
I0925 22:52:20.199309 13460 net.cpp:156] Memory required for data: 22408
I0925 22:52:20.199311 13452 net.cpp:148] Top shape: 1 1 (1)
I0925 22:52:20.199354 13442 layer_factory.hpp:77] Creating layer lstm1
I0925 22:52:20.199261 13480 net.cpp:156] Memory required for data: 62016
I0925 22:52:20.199345 13482 net.cpp:156] Memory required for data: 17799480
I0925 22:52:20.199275 13448 net.cpp:148] Top shape: 1 1 4000 (4000)
I0925 22:52:20.199368 13452 net.cpp:156] Memory required for data: 6008
I0925 22:52:20.199368 13460 layer_factory.hpp:77] Creating layer lstm1
I0925 22:52:20.199353 13446 net.cpp:156] Memory required for data: 22408
I0925 22:52:20.199389 13480 layer_factory.hpp:77] Creating layer lstm1_gate_input_1
I0925 22:52:20.199395 13448 net.cpp:156] Memory required for data: 62016
I0925 22:52:20.199398 13464 net.cpp:399] lstm2_cont_slice -> cont_1
I0925 22:52:20.199401 13490 net.cpp:141] Setting up lstm1_unit_1
I0925 22:52:20.199409 13460 net.cpp:91] Creating Layer lstm1
I0925 22:52:20.199414 13448 layer_factory.hpp:77] Creating layer lstm1_gate_input_1
I0925 22:52:20.199409 13442 net.cpp:91] Creating Layer lstm1
I0925 22:52:20.199390 13482 layer_factory.hpp:77] Creating layer relu1
I0925 22:52:20.199429 13442 net.cpp:425] lstm1 <- embedded_input_frames
I0925 22:52:20.199429 13460 net.cpp:425] lstm1 <- embedded_input_frames
I0925 22:52:20.199430 13480 net.cpp:91] Creating Layer lstm1_gate_input_1
I0925 22:52:20.199409 13446 layer_factory.hpp:77] Creating layer lstm1
I0925 22:52:20.199440 13448 net.cpp:91] Creating Layer lstm1_gate_input_1
I0925 22:52:20.199445 13460 net.cpp:425] lstm1 <- cont_sentence_input_1_split_0
I0925 22:52:20.199426 13490 net.cpp:148] Top shape: 1 1 1000 (1000)
I0925 22:52:20.199448 13482 net.cpp:91] Creating Layer relu1
I0925 22:52:20.199437 13442 net.cpp:425] lstm1 <- cont_sentence_input_1_split_0
I0925 22:52:20.199460 13460 net.cpp:399] lstm1 -> lstm1
I0925 22:52:20.199460 13482 net.cpp:425] relu1 <- conv1
I0925 22:52:20.199455 13480 net.cpp:425] lstm1_gate_input_1 <- W_hc_h_0
I0925 22:52:20.199456 13490 net.cpp:148] Top shape: 1 1 1000 (1000)
I0925 22:52:20.199484 13480 net.cpp:425] lstm1_gate_input_1 <- W_xc_x_1
I0925 22:52:20.199489 13460 recurrent_layer.cpp:20] Initializing recurrent layer: assuming input batch contains 1 timesteps of 1 independent streams.
I0925 22:52:20.199478 13446 net.cpp:91] Creating Layer lstm1
I0925 22:52:20.199497 13490 net.cpp:156] Memory required for data: 86016
I0925 22:52:20.199484 13482 net.cpp:386] relu1 -> conv1 (in-place)
I0925 22:52:20.199479 13442 net.cpp:399] lstm1 -> lstm1
I0925 22:52:20.199512 13490 layer_factory.hpp:77] Creating layer lstm1_
I0925 22:52:20.199508 13446 net.cpp:425] lstm1 <- embedded_input_frames
I0925 22:52:20.199501 13464 net.cpp:141] Setting up lstm2_cont_slice
I0925 22:52:20.199528 13446 net.cpp:425] lstm1 <- cont_sentence_input_1_split_0
I0925 22:52:20.199534 13490 net.cpp:91] Creating Layer lstm1_
I0925 22:52:20.199502 13480 net.cpp:399] lstm1_gate_input_1 -> gate_input_1
I0925 22:52:20.199554 13490 net.cpp:425] lstm1_ <- c_1
I0925 22:52:20.199537 13442 recurrent_layer.cpp:20] Initializing recurrent layer: assuming input batch contains 1 timesteps of 1 independent streams.
I0925 22:52:20.199539 13446 net.cpp:399] lstm1 -> lstm1
I0925 22:52:20.199548 13464 net.cpp:148] Top shape: 1 1 (1)
I0925 22:52:20.199571 13490 net.cpp:399] lstm1_ -> c_T
I0925 22:52:20.199578 13446 recurrent_layer.cpp:20] Initializing recurrent layer: assuming input batch contains 1 timesteps of 1 independent streams.
I0925 22:52:20.199579 13464 net.cpp:156] Memory required for data: 14012
I0925 22:52:20.199590 13464 layer_factory.hpp:77] Creating layer cont_1_lstm2_cont_slice_0_split
I0925 22:52:20.199455 13448 net.cpp:425] lstm1_gate_input_1 <- W_hc_h_0
…
I0925 22:52:20.199661 13464 net.cpp:399] cont_1_lstm2_cont_slice_0_split -> cont_1_lstm2_cont_slice_0_split_1
I0925 22:52:20.199810 13442 net.cpp:49] Initializing net from parameters: 
layer {
  name: "lstm1_"
  type: "Input"
  top: "x"
  top: "cont"
  input_param {
    shape {
      dim: 1
      dim: 1
      dim: 500
    }
    shape {
      dim: 1
      dim: 1
    }
  }
}
layer {
  name: "lstm1_"
  type: "Input"
  top: "c_0"
  top: "h_0"
  input_param {
    shape {
      dim: 1
      dim: 1
      dim: 1000
    }
    shape {
      dim: 1
      dim: 1
      dim: 1000
    }
  }
}
layer {
  name: "lstm1_cont_slice"
  type: "Slice"
  bottom: "cont"
  top: "cont_1"
  slice_param {
    axis: 0
  }
}
layer {
  name: "lstm1_x_transform"
  type: "InnerProduct"
  bottom: "x"
  top: "W_xc_x"
  param {
    name: "W_xc"
  }
  param {
    name: "b_c"
  }
  propagate_down: true
  inner_product_param {
    num_output: 4000
    bias_term: true
    weight_filler {
      type: "uniform"
      min: -0.08
      max: 0.08
    }
    bias_filler {
      type: "constant"
      value: 0
    }
    axis: 2
  }
}
layer {
  name: "lstm1_W_xc_x_slice"
  type: "Slice"
  bottom: "W_xc_x"
  top: "W_xc_x_1"
  slice_param {
    axis: 0
  }
}
layer {
  name: "lstm1_h_conted_0"
  type: "Scale"
  bottom: "h_0"
  bottom: "cont_1"
  top: "h_conted_0"
  scale_param {
    axis: 0
  }
}
layer {
  name: "lstm1_transform_1"
  type: "InnerProduct"
  bottom: "h_conted_0"
  top: "W_hc_h_0"
  param {
    name: "W_hc"
  }
  inner_product_param {
    num_output: 4000
    bias_term: false
    weight_filler {
      type: "uniform"
      min: -0.08
      max: 0.08
    }
    axis: 2
  }
}
layer {
  name: "lstm1_gate_input_1"
  type: "Eltwise"
  bottom: "W_hc_h_0"
  bottom: "W_xc_x_1"
  top: "gate_input_1"
  eltwise_param {
    operation: SUM
  }
}
layer {
  name: "lstm1_unit_1"
  type: "LSTMUnit"
  bottom: "c_0"
  bottom: "gate_input_1"
  bottom: "cont_1"
  top: "c_1"
  top: "h_1"
}
layer {
  name: "lstm1_"
  type: "Split"
  bottom: "c_1"
  top: "c_T"
}
layer {
  name: "lstm1_h_concat"
  type: "Concat"
  bottom: "h_1"
  top: "h"
  concat_param {
    axis: 0
  }
}
layer {
  name: "h_pseudoloss"
  type: "Reduction"
  bottom: "h"
  top: "h_pseudoloss"
  loss_weight: 1
}
I0925 22:52:20.199817 13460 net.cpp:49] Initializing net from parameters: 
layer {
  name: "lstm1_"
  type: "Input"
  top: "x"
  top: "cont"
  input_param {
    shape {
      dim: 1
      dim: 1
      dim: 500
    }
    shape {
      dim: 1
      dim: 1
    }
  }
}
layer {
  name: "lstm1_"
  type: "Input"
  top: "c_0"
  top: "h_0"
  input_param {
    shape {
      dim: 1
      dim: 1
      dim: 1000
    }
    shape {
      dim: 1
      dim: 1
      dim: 1000
    }
  }
}
layer {
  name: "lstm1_cont_slice"
  type: "Slice"
  bottom: "cont"
  top: "cont_1"
  slice_param {
    axis: 0
  }
}
layer {
  name: "lstm1_x_transform"
  type: "InnerProduct"
  bottom: "x"
  top: "W_xc_x"
  param {
    name: "W_xc"
  }
  param {
    name: "b_c"
  }
  propagate_down: true
  inner_product_param {
    num_output: 4000
    bias_term: true
    weight_filler {
      type: "uniform"
      min: -0.08
      max: 0.08
    }
    bias_filler {
      type: "constant"
      value: 0
    }
    axis: 2
  }
}
layer {
  name: "lstm1_W_xc_x_slice"
  type: "Slice"
  bottom: "W_xc_x"
  top: "W_xc_x_1"
  slice_param {
    axis: 0
  }
}
layer {
  name: "lstm1_h_conted_0"
  type: "Scale"
  bottom: "h_0"
  bottom: "cont_1"
  top: "h_conted_0"
  scale_param {
    axis: 0
  }
}
layer {
  name: "lstm1_transform_1"
  type: "InnerProduct"
  bottom: "h_conted_0"
  top: "W_hc_h_0"
  param {
    name: "W_hc"
  }
  inner_product_param {
    num_output: 4000
    bias_term: false
    weight_filler {
      type: "uniform"
      min: -0.08
      max: 0.08
    }
    axis: 2
  }
}
layer {
  name: "lstm1_gate_input_1"
  type: "Eltwise"
  bottom: "W_hc_h_0"
  bottom: "W_xc_x_1"
  top: "gate_input_1"
  eltwise_param {
    operation: SUM
  }
}
layer {
  name: "lstm1_unit_1"
  type: "LSTMUnit"
  bottom: "c_0"
  bottom: "gate_input_1"
  bottom: "cont_1"
  top: "c_1"
  top: "h_1"
}
layer {
  name: "lstm1_"
  type: "Split"
  bottom: "c_1"
  top: "c_T"
}
layer {
  name: "lstm1_h_concat"
  type: "Concat"
  bottom: "h_1"
  top: "h"
  concat_param {
    axis: 0
  }
}
layer {
  name: "h_pseudoloss"
  type: "Reduction"
  bottom: "h"
  top: "h_pseudoloss"
  loss_weight: 1
}
I0925 22:52:20.199811 13446 net.cpp:49] Initializing net from parameters: 
layer {
  name: "lstm1_"
  type: "Input"
  top: "x"
  top: "cont"
  input_param {
    shape {
      dim: 1
      dim: 1
      dim: 500
    }
    shape {
      dim: 1
      dim: 1
    }
  }
}
layer {
  name: "lstm1_"
  type: "Input"
  top: "c_0"
  top: "h_0"
  input_param {
    shape {
      dim: 1
      dim: 1
      dim: 1000
    }
    shape {
      dim: 1
      dim: 1
      dim: 1000
    }
  }
}
layer {
  name: "lstm1_cont_slice"
  type: "Slice"
  bottom: "cont"
  top: "cont_1"
  slice_param {
    axis: 0
  }
}
layer {
  name: "lstm1_x_transform"
  type: "InnerProduct"
  bottom: "x"
  top: "W_xc_x"
  param {
    name: "W_xc"
  }
  param {
    name: "b_c"
  }
  propagate_down: true
  inner_product_param {
    num_output: 4000
    bias_term: true
    weight_filler {
      type: "uniform"
      min: -0.08
      max: 0.08
    }
    bias_filler {
      type: "constant"
      value: 0
    }
    axis: 2
  }
}
layer {
  name: "lstm1_W_xc_x_slice"
  type: "Slice"
  bottom: "W_xc_x"
  top: "W_xc_x_1"
  slice_param {
    axis: 0
  }
}
layer {
  name: "lstm1_h_conted_0"
  type: "Scale"
  bottom: "h_0"
  bottom: "cont_1"
  top: "h_conted_0"
  scale_param {
    axis: 0
  }
}
layer {
  name: "lstm1_transform_1"
  type: "InnerProduct"
  bottom: "h_conted_0"
  top: "W_hc_h_0"
  param {
    name: "W_hc"
  }
  inner_product_param {
    num_output: 4000
    bias_term: false
    weight_filler {
      type: "uniform"
      min: -0.08
      max: 0.08
    }
    axis: 2
  }
}
layer {
  name: "lstm1_gate_input_1"
  type: "Eltwise"
  bottom: "W_hc_h_0"
  bottom: "W_xc_x_1"
  top: "gate_input_1"
  eltwise_param {
    operation: SUM
  }
}
layer {
  name: "lstm1_unit_1"
  type: "LSTMUnit"
  bottom: "c_0"
  bottom: "gate_input_1"
  bottom: "cont_1"
  top: "c_1"
  top: "h_1"
}
layer {
  name: "lstm1_"
  type: "Split"
  bottom: "c_1"
  top: "c_T"
}
layer {
  name: "lstm1_h_concat"
  type: "Concat"
  bottom: "h_1"
  top: "h"
  concat_param {
    axis: 0
  }
}
layer {
  name: "h_pseudoloss"
  type: "Reduction"
  bottom: "h"
  top: "h_pseudoloss"
  loss_weight: 1
}
I0925 22:52:20.199904 13442 layer_factory.hpp:77] Creating layer lstm1_
I0925 22:52:20.199916 13460 layer_factory.hpp:77] Creating layer lstm1_
I0925 22:52:20.199388 13452 layer_factory.hpp:77] Creating layer lstm2_
I0925 22:52:20.232904 13442 net.cpp:91] Creating Layer lstm1_
I0925 22:52:20.232918 13460 net.cpp:91] Creating Layer lstm1_
I0925 22:52:20.200052 13480 net.cpp:141] Setting up lstm1_gate_input_1
I0925 22:52:20.200175 13464 net.cpp:141] Setting up cont_1_lstm2_cont_slice_0_split
I0925 22:52:20.200011 13490 net.cpp:141] Setting up lstm1_
I0925 22:52:20.232914 13452 net.cpp:91] Creating Layer lstm2_
I0925 22:52:20.232996 13464 net.cpp:148] Top shape: 1 1 (1)
I0925 22:52:20.232951 13442 net.cpp:399] lstm1_ -> x
I0925 22:52:20.232983 13480 net.cpp:148] Top shape: 1 1 4000 (4000)
I0925 22:52:20.233011 13490 net.cpp:148] Top shape: 1 1 1000 (1000)
I0925 22:52:20.233019 13464 net.cpp:148] Top shape: 1 1 (1)
I0925 22:52:20.233019 13452 net.cpp:399] lstm2_ -> c_0
I0925 22:52:20.233029 13464 net.cpp:156] Memory required for data: 14020
I0925 22:52:20.233036 13442 net.cpp:399] lstm1_ -> cont
I0925 22:52:20.233043 13464 layer_factory.hpp:77] Creating layer lstm2_x_transform
I0925 22:52:20.233062 13452 net.cpp:399] lstm2_ -> h_0
I0925 22:52:20.233021 13480 net.cpp:156] Memory required for data: 78016
…
I0925 22:52:20.233167 13446 net.cpp:399] lstm1_ -> x
I0925 22:52:20.233172 13464 net.cpp:425] lstm2_x_transform <- x
I0925 22:52:20.233168 13480 net.cpp:425] lstm1_unit_1 <- cont_1_lstm1_cont_slice_0_split_1
I0925 22:52:20.233192 13446 net.cpp:399] lstm1_ -> cont
I0925 22:52:20.233193 13480 net.cpp:399] lstm1_unit_1 -> c_1
I0925 22:52:20.233193 13464 net.cpp:399] lstm2_x_transform -> W_xc_x
I0925 22:52:20.233211 13480 net.cpp:399] lstm1_unit_1 -> h_1
I0925 22:52:20.233023 13490 net.cpp:156] Memory required for data: 90016
I0925 22:52:20.233230 13490 layer_factory.hpp:77] Creating layer lstm1_h_concat
I0925 22:52:20.233238 13482 net.cpp:148] Top shape: 10 96 55 55 (2904000)
I0925 22:52:20.233252 13482 net.cpp:156] Memory required for data: 29415480
I0925 22:52:20.233258 13490 net.cpp:91] Creating Layer lstm1_h_concat
I0925 22:52:20.233260 13482 layer_factory.hpp:77] Creating layer pool1
I0925 22:52:20.233266 13442 net.cpp:141] Setting up lstm1_
I0925 22:52:20.233288 13482 net.cpp:91] Creating Layer pool1
I0925 22:52:20.233299 13482 net.cpp:425] pool1 <- conv1
I0925 22:52:20.233304 13442 net.cpp:148] Top shape: 1 1 500 (500)
I0925 22:52:20.233314 13482 net.cpp:399] pool1 -> pool1
I0925 22:52:20.233316 13442 net.cpp:148] Top shape: 1 1 (1)
I0925 22:52:20.233325 13442 net.cpp:156] Memory required for data: 2004
I0925 22:52:20.233269 13490 net.cpp:425] lstm1_h_concat <- h_1
I0925 22:52:20.233332 13442 layer_factory.hpp:77] Creating layer lstm1_
I0925 22:52:20.233350 13490 net.cpp:399] lstm1_h_concat -> h
I0925 22:52:20.233360 13442 net.cpp:91] Creating Layer lstm1_
I0925 22:52:20.233371 13442 net.cpp:399] lstm1_ -> c_0
I0925 22:52:20.233387 13442 net.cpp:399] lstm1_ -> h_0
I0925 22:52:20.233511 13480 net.cpp:141] Setting up lstm1_unit_1
I0925 22:52:20.233531 13480 net.cpp:148] Top shape: 1 1 1000 (1000)
I0925 22:52:20.233544 13480 net.cpp:148] Top shape: 1 1 1000 (1000)
I0925 22:52:20.233552 13480 net.cpp:156] Memory required for data: 86016
I0925 22:52:20.233562 13480 layer_factory.hpp:77] Creating layer lstm1_
I0925 22:52:20.233582 13480 net.cpp:91] Creating Layer lstm1_
I0925 22:52:20.233592 13480 net.cpp:425] lstm1_ <- c_1
I0925 22:52:20.233606 13480 net.cpp:399] lstm1_ -> c_T
I0925 22:52:20.233662 13480 net.cpp:141] Setting up lstm1_
I0925 22:52:20.233680 13480 net.cpp:148] Top shape: 1 1 1000 (1000)
I0925 22:52:20.233690 13480 net.cpp:156] Memory required for data: 90016
I0925 22:52:20.233700 13480 layer_factory.hpp:77] Creating layer lstm1_h_concat
I0925 22:52:20.233713 13480 net.cpp:91] Creating Layer lstm1_h_concat
I0925 22:52:20.233723 13480 net.cpp:425] lstm1_h_concat <- h_1
I0925 22:52:20.233741 13480 net.cpp:399] lstm1_h_concat -> h
I0925 22:52:20.233798 13480 net.cpp:141] Setting up lstm1_h_concat
I0925 22:52:20.233815 13480 net.cpp:148] Top shape: 1 1 1000 (1000)
I0925 22:52:20.233824 13480 net.cpp:156] Memory required for data: 94016
I0925 22:52:20.233834 13480 layer_factory.hpp:77] Creating layer h_pseudoloss
I0925 22:52:20.233849 13480 net.cpp:91] Creating Layer h_pseudoloss
I0925 22:52:20.233858 13480 net.cpp:425] h_pseudoloss <- h
I0925 22:52:20.233872 13480 net.cpp:399] h_pseudoloss -> h_pseudoloss
I0925 22:52:20.234028 13480 net.cpp:141] Setting up h_pseudoloss
…
I0925 22:52:20.234132 13480 net.cpp:217] lstm1_gate_input_1 needs backward computation.
I0925 22:52:20.234141 13480 net.cpp:217] lstm1_transform_1 needs backward computation.
I0925 22:52:20.234151 13480 net.cpp:219] lstm1_h_conted_0 does not need backward computation.
I0925 22:52:20.234163 13480 net.cpp:217] lstm1_W_xc_x_slice needs backward computation.
I0925 22:52:20.234171 13480 net.cpp:217] lstm1_x_transform needs backward computation.
I0925 22:52:20.252588 13480 net.cpp:219] cont_1_lstm1_cont_slice_0_split does not need backward computation.
I0925 22:52:20.234321 13490 net.cpp:141] Setting up lstm1_h_concat
I0925 22:52:20.252656 13490 net.cpp:148] Top shape: 1 1 1000 (1000)
I0925 22:52:20.252671 13490 net.cpp:156] Memory required for data: 94016
I0925 22:52:20.252687 13490 layer_factory.hpp:77] Creating layer h_pseudoloss
I0925 22:52:20.234405 13460 net.cpp:399] lstm1_ -> x
I0925 22:52:20.252712 13490 net.cpp:91] Creating Layer h_pseudoloss
I0925 22:52:20.252622 13480 net.cpp:219] lstm1_cont_slice does not need backward computation.
I0925 22:52:20.252727 13490 net.cpp:425] h_pseudoloss <- h
I0925 22:52:20.252734 13480 net.cpp:219] lstm1_ does not need backward computation.
I0925 22:52:20.252743 13480 net.cpp:219] lstm1_ does not need backward computation.
I0925 22:52:20.252743 13460 net.cpp:399] lstm1_ -> cont
I0925 22:52:20.252753 13490 net.cpp:399] h_pseudoloss -> h_pseudoloss
I0925 22:52:20.252749 13480 net.cpp:261] This network produces output c_T
I0925 22:52:20.252768 13480 net.cpp:261] This network produces output h_pseudoloss
I0925 22:52:20.245697 13452 net.cpp:141] Setting up lstm2_
I0925 22:52:20.252797 13480 net.cpp:274] Network initialization done.
I0925 22:52:20.252800 13452 net.cpp:148] Top shape: 1 1 1000 (1000)
I0925 22:52:20.252811 13452 net.cpp:148] Top shape: 1 1 1000 (1000)
I0925 22:52:20.252817 13452 net.cpp:156] Memory required for data: 14008
I0925 22:52:20.252825 13452 layer_factory.hpp:77] Creating layer lstm2_cont_slice
I0925 22:52:20.234277 13446 net.cpp:141] Setting up lstm1_
I0925 22:52:20.252859 13452 net.cpp:91] Creating Layer lstm2_cont_slice
I0925 22:52:20.252869 13452 net.cpp:425] lstm2_cont_slice <- cont
I0925 22:52:20.252861 13446 net.cpp:148] Top shape: 1 1 500 (500)
I0925 22:52:20.252861 13480 recurrent_layer.cpp:150] Adding parameter 0: W_xc
I0925 22:52:20.252882 13452 net.cpp:399] lstm2_cont_slice -> cont_1
I0925 22:52:20.252883 13446 net.cpp:148] Top shape: 1 1 (1)
I0925 22:52:20.252883 13480 recurrent_layer.cpp:150] Adding parameter 1: b_c
I0925 22:52:20.252895 13446 net.cpp:156] Memory required for data: 2004
I0925 22:52:20.252900 13480 recurrent_layer.cpp:150] Adding parameter 2: W_hc
I0925 22:52:20.252904 13446 layer_factory.hpp:77] Creating layer lstm1_
I0925 22:52:20.252933 13446 net.cpp:91] Creating Layer lstm1_
I0925 22:52:20.252945 13446 net.cpp:399] lstm1_ -> c_0
I0925 22:52:20.252962 13446 net.cpp:399] lstm1_ -> h_0
I0925 22:52:20.252971 13490 net.cpp:141] Setting up h_pseudoloss
I0925 22:52:20.252990 13490 net.cpp:148] Top shape: (1)
I0925 22:52:20.252997 13490 net.cpp:151]     with loss weight 1
I0925 22:52:20.253020 13490 net.cpp:156] Memory required for data: 94020
I0925 22:52:20.253026 13490 net.cpp:217] h_pseudoloss needs backward computation.
I0925 22:52:20.253034 13490 net.cpp:217] lstm1_h_concat needs backward computation.
I0925 22:52:20.199973 13448 net.cpp:141] Setting up lstm1_gate_input_1
I0925 22:52:20.253042 13490 net.cpp:219] lstm1_ does not need backward computation.
I0925 22:52:20.253051 13490 net.cpp:217] lstm1_unit_1 needs backward computation.
I0925 22:52:20.253060 13490 net.cpp:217] lstm1_gate_input_1 needs backward computation.
I0925 22:52:20.253063 13446 net.cpp:141] Setting up lstm1_
I0925 22:52:20.253069 13490 net.cpp:217] lstm1_transform_1 needs backward computation.
I0925 22:52:20.253077 13446 net.cpp:148] Top shape: 1 1 1000 (1000)
I0925 22:52:20.245801 13482 net.cpp:141] Setting up pool1
I0925 22:52:20.253095 13446 net.cpp:148] Top shape: 1 1 1000 (1000)
I0925 22:52:20.253101 13482 net.cpp:148] Top shape: 10 96 27 27 (699840)
I0925 22:52:20.253052 13448 net.cpp:148] Top shape: 1 1 4000 (4000)
I0925 22:52:20.253116 13482 net.cpp:156] Memory required for data: 32214840
I0925 22:52:20.245726 13442 net.cpp:141] Setting up lstm1_
I0925 22:52:20.253129 13482 layer_factory.hpp:77] Creating layer norm1
I0925 22:52:20.253149 13442 net.cpp:148] Top shape: 1 1 1000 (1000)
I0925 22:52:20.253160 13482 net.cpp:91] Creating Layer norm1
I0925 22:52:20.253165 13442 net.cpp:148] Top shape: 1 1 1000 (1000)
I0925 22:52:20.253171 13482 net.cpp:425] norm1 <- pool1
I0925 22:52:20.253173 13442 net.cpp:156] Memory required for data: 10004
I0925 22:52:20.253182 13442 layer_factory.hpp:77] Creating layer lstm1_cont_slice
I0925 22:52:20.253078 13490 net.cpp:219] lstm1_h_conted_0 does not need backward computation.
I0925 22:52:20.253199 13490 net.cpp:217] lstm1_W_xc_x_slice needs backward computation.
I0925 22:52:20.253207 13442 net.cpp:91] Creating Layer lstm1_cont_slice
I0925 22:52:20.253183 13482 net.cpp:399] norm1 -> norm1
I0925 22:52:20.253221 13442 net.cpp:425] lstm1_cont_slice <- cont
I0925 22:52:20.253208 13490 net.cpp:217] lstm1_x_transform needs backward computation.
I0925 22:52:20.253243 13442 net.cpp:399] lstm1_cont_slice -> cont_1
I0925 22:52:20.253250 13490 net.cpp:219] cont_1_lstm1_cont_slice_0_split does not need backward computation.
I0925 22:52:20.253262 13490 net.cpp:219] lstm1_cont_slice does not need backward computation.
I0925 22:52:20.253263 13480 net.cpp:141] Setting up lstm1
I0925 22:52:20.253271 13490 net.cpp:219] lstm1_ does not need backward computation.
I0925 22:52:20.253278 13490 net.cpp:219] lstm1_ does not need backward computation.
I0925 22:52:20.253281 13480 net.cpp:148] Top shape: 1 1 1000 (1000)
I0925 22:52:20.253285 13490 net.cpp:261] This network produces output c_T
I0925 22:52:20.253289 13480 net.cpp:156] Memory required for data: 26408
I0925 22:52:20.253293 13452 net.cpp:141] Setting up lstm2_cont_slice
I0925 22:52:20.253311 13452 net.cpp:148] Top shape: 1 1 (1)
I0925 22:52:20.253311 13480 layer_factory.hpp:77] Creating layer concat
I0925 22:52:20.253319 13452 net.cpp:156] Memory required for data: 14012
I0925 22:52:20.253327 13452 layer_factory.hpp:77] Creating layer cont_1_lstm2_cont_slice_0_split
I0925 22:52:20.253330 13480 net.cpp:91] Creating Layer concat
I0925 22:52:20.253340 13452 net.cpp:91] Creating Layer cont_1_lstm2_cont_slice_0_split
I0925 22:52:20.253340 13480 net.cpp:425] concat <- lstm1
I0925 22:52:20.253353 13452 net.cpp:425] cont_1_lstm2_cont_slice_0_split <- cont_1
I0925 22:52:20.253103 13446 net.cpp:156] Memory required for data: 10004
I0925 22:52:20.253362 13480 net.cpp:425] concat <- embedded_input_sentence
I0925 22:52:20.253368 13446 layer_factory.hpp:77] Creating layer lstm1_cont_slice
I0925 22:52:20.253371 13452 net.cpp:399] cont_1_lstm2_cont_slice_0_split -> cont_1_lstm2_cont_slice_0_split_0
I0925 22:52:20.253371 13480 net.cpp:425] concat <- reshaped_stage_indicator
I0925 22:52:20.253391 13452 net.cpp:399] cont_1_lstm2_cont_slice_0_split -> cont_1_lstm2_cont_slice_0_split_1
I0925 22:52:20.253398 13480 net.cpp:399] concat -> lstm1_video_sequence
I0925 22:52:20.253118 13448 net.cpp:156] Memory required for data: 78016
I0925 22:52:20.253293 13490 net.cpp:261] This network produces output h_pseudoloss
I0925 22:52:20.253475 13490 net.cpp:274] Network initialization done.
I0925 22:52:20.253484 13452 net.cpp:141] Setting up cont_1_lstm2_cont_slice_0_split
I0925 22:52:20.253497 13452 net.cpp:148] Top shape: 1 1 (1)
I0925 22:52:20.253506 13452 net.cpp:148] Top shape: 1 1 (1)
I0925 22:52:20.253381 13446 net.cpp:91] Creating Layer lstm1_cont_slice
I0925 22:52:20.253526 13446 net.cpp:425] lstm1_cont_slice <- cont
I0925 22:52:20.253540 13490 recurrent_layer.cpp:150] Adding parameter 0: W_xc
I0925 22:52:20.253551 13490 recurrent_layer.cpp:150] Adding parameter 1: b_c
I0925 22:52:20.253557 13490 recurrent_layer.cpp:150] Adding parameter 2: W_hc
I0925 22:52:20.253562 13446 net.cpp:399] lstm1_cont_slice -> cont_1
I0925 22:52:20.253566 13442 net.cpp:141] Setting up lstm1_cont_slice
I0925 22:52:20.253582 13442 net.cpp:148] Top shape: 1 1 (1)
I0925 22:52:20.253590 13442 net.cpp:156] Memory required for data: 10008
I0925 22:52:20.253597 13442 layer_factory.hpp:77] Creating layer cont_1_lstm1_cont_slice_0_split
I0925 22:52:20.253608 13442 net.cpp:91] Creating Layer cont_1_lstm1_cont_slice_0_split
I0925 22:52:20.253609 13480 net.cpp:141] Setting up concat
I0925 22:52:20.253617 13442 net.cpp:425] cont_1_lstm1_cont_slice_0_split <- cont_1
I0925 22:52:20.253626 13480 net.cpp:148] Top shape: 1 1 1501 (1501)
I0925 22:52:20.253512 13452 net.cpp:156] Memory required for data: 14020
I0925 22:52:20.255069 13448 layer_factory.hpp:77] Creating layer lstm1_unit_1
I0925 22:52:20.270905 13446 net.cpp:141] Setting up lstm1_cont_slice
I0925 22:52:20.271260 13452 layer_factory.hpp:77] Creating layer lstm2_x_transform
I0925 22:52:20.271281 13446 net.cpp:148] Top shape: 1 1 (1)
I0925 22:52:20.271282 13448 net.cpp:91] Creating Layer lstm1_unit_1
I0925 22:52:20.271103 13490 net.cpp:141] Setting up lstm1
I0925 22:52:20.271296 13448 net.cpp:425] lstm1_unit_1 <- c_0
I0925 22:52:20.271235 13480 net.cpp:156] Memory required for data: 32412
I0925 22:52:20.271306 13452 net.cpp:91] Creating Layer lstm2_x_transform
I0925 22:52:20.271311 13448 net.cpp:425] lstm1_unit_1 <- gate_input_1
I0925 22:52:20.271311 13490 net.cpp:148] Top shape: 1 1 1000 (1000)
I0925 22:52:20.271232 13442 net.cpp:399] cont_1_lstm1_cont_slice_0_split -> cont_1_lstm1_cont_slice_0_split_0
I0925 22:52:20.271291 13446 net.cpp:156] Memory required for data: 10008
I0925 22:52:20.271324 13452 net.cpp:425] lstm2_x_transform <- x
I0925 22:52:20.271325 13490 net.cpp:156] Memory required for data: 26408
I0925 22:52:20.270936 13460 net.cpp:141] Setting up lstm1_
I0925 22:52:20.271312 13480 layer_factory.hpp:77] Creating layer lstm2
I0925 22:52:20.271073 13482 net.cpp:141] Setting up norm1
I0925 22:52:20.271332 13448 net.cpp:425] lstm1_unit_1 <- cont_1_lstm1_cont_slice_0_split_1
I0925 22:52:20.271347 13452 net.cpp:399] lstm2_x_transform -> W_xc_x
I0925 22:52:20.271358 13480 net.cpp:91] Creating Layer lstm2
I0925 22:52:20.271347 13442 net.cpp:399] cont_1_lstm1_cont_slice_0_split -> cont_1_lstm1_cont_slice_0_split_1
I0925 22:52:20.271347 13460 net.cpp:148] Top shape: 1 1 500 (500)
I0925 22:52:20.271368 13446 layer_factory.hpp:77] Creating layer cont_1_lstm1_cont_slice_0_split
I0925 22:52:20.271399 13480 net.cpp:425] lstm2 <- lstm1_video_sequence
I0925 22:52:20.271419 13446 net.cpp:91] Creating Layer cont_1_lstm1_cont_slice_0_split
I0925 22:52:20.271423 13460 net.cpp:148] Top shape: 1 1 (1)
I0925 22:52:20.271426 13480 net.cpp:425] lstm2 <- cont_sentence_input_1_split_1
I0925 22:52:20.271431 13460 net.cpp:156] Memory required for data: 2004
I0925 22:52:20.271360 13490 layer_factory.hpp:77] Creating layer concat
I0925 22:52:20.271440 13460 layer_factory.hpp:77] Creating layer lstm1_
I0925 22:52:20.271447 13490 net.cpp:91] Creating Layer concat
I0925 22:52:20.271462 13460 net.cpp:91] Creating Layer lstm1_
I0925 22:52:20.271366 13482 net.cpp:148] Top shape: 10 96 27 27 (699840)
I0925 22:52:20.271428 13446 net.cpp:425] cont_1_lstm1_cont_slice_0_split <- cont_1
I0925 22:52:20.271446 13480 net.cpp:399] lstm2 -> lstm2
I0925 22:52:20.271489 13482 net.cpp:156] Memory required for data: 35014200
I0925 22:52:20.271471 13490 net.cpp:425] concat <- lstm1
I0925 22:52:20.271498 13480 recurrent_layer.cpp:20] Initializing recurrent layer: assuming input batch contains 1 timesteps of 1 independent streams.
…
I0925 22:52:20.271524 13490 net.cpp:425] concat <- reshaped_stage_indicator
I0925 22:52:20.271574 13490 net.cpp:399] concat -> lstm1_video_sequence
I0925 22:52:20.271803 13480 net.cpp:49] Initializing net from parameters: 
layer {
  name: "lstm2_"
  type: "Input"
  top: "x"
  top: "cont"
  input_param {
    shape {
      dim: 1
      dim: 1
      dim: 1501
    }
    shape {
      dim: 1
      dim: 1
    }
  }
}
layer {
  name: "lstm2_"
  type: "Input"
  top: "c_0"
  top: "h_0"
  input_param {
    shape {
      dim: 1
      dim: 1
      dim: 1000
    }
    shape {
      dim: 1
      dim: 1
      dim: 1000
    }
  }
}
layer {
  name: "lstm2_cont_slice"
  type: "Slice"
  bottom: "cont"
  top: "cont_1"
  slice_param {
    axis: 0
  }
}
layer {
  name: "lstm2_x_transform"
  type: "InnerProduct"
  bottom: "x"
  top: "W_xc_x"
  param {
    name: "W_xc"
  }
  param {
    name: "b_c"
  }
  propagate_down: true
  inner_product_param {
    num_output: 4000
    bias_term: true
    weight_filler {
      type: "uniform"
      min: -0.08
      max: 0.08
    }
    bias_filler {
      type: "constant"
      value: 0
    }
    axis: 2
  }
}
layer {
  name: "lstm2_W_xc_x_slice"
  type: "Slice"
  bottom: "W_xc_x"
  top: "W_xc_x_1"
  slice_param {
    axis: 0
  }
}
layer {
  name: "lstm2_h_conted_0"
  type: "Scale"
  bottom: "h_0"
  bottom: "cont_1"
  top: "h_conted_0"
  scale_param {
    axis: 0
  }
}
layer {
  name: "lstm2_transform_1"
  type: "InnerProduct"
  bottom: "h_conted_0"
  top: "W_hc_h_0"
  param {
    name: "W_hc"
  }
  inner_product_param {
    num_output: 4000
    bias_term: false
    weight_filler {
      type: "uniform"
      min: -0.08
      max: 0.08
    }
    axis: 2
  }
}
layer {
  name: "lstm2_gate_input_1"
  type: "Eltwise"
  bottom: "W_hc_h_0"
  bottom: "W_xc_x_1"
  top: "gate_input_1"
  eltwise_param {
    operation: SUM
  }
}
layer {
  name: "lstm2_unit_1"
  type: "LSTMUnit"
  bottom: "c_0"
  bottom: "gate_input_1"
  bottom: "cont_1"
  top: "c_1"
  top: "h_1"
}
layer {
  name: "lstm2_"
  type: "Split"
  bottom: "c_1"
  top: "c_T"
}
layer {
  name: "lstm2_h_concat"
  type: "Concat"
  bottom: "h_1"
  top: "h"
  concat_param {
    axis: 0
  }
}
layer {
  name: "h_pseudoloss"
  type: "Reduction"
  bottom: "h"
  top: "h_pseudoloss"
  loss_weight: 1
}
I0925 22:52:20.271894 13480 layer_factory.hpp:77] Creating layer lstm2_
I0925 22:52:20.271905 13480 net.cpp:91] Creating Layer lstm2_
I0925 22:52:20.271913 13480 net.cpp:399] lstm2_ -> x
I0925 22:52:20.271924 13480 net.cpp:399] lstm2_ -> cont
I0925 22:52:20.279222 13482 layer_factory.hpp:77] Creating layer conv2
I0925 22:52:20.285567 13482 net.cpp:91] Creating Layer conv2
I0925 22:52:20.285593 13482 net.cpp:425] conv2 <- norm1
I0925 22:52:20.285615 13482 net.cpp:399] conv2 -> conv2
I0925 22:52:20.286891 13442 net.cpp:141] Setting up cont_1_lstm1_cont_slice_0_split
I0925 22:52:20.286917 13442 net.cpp:148] Top shape: 1 1 (1)
I0925 22:52:20.286926 13442 net.cpp:148] Top shape: 1 1 (1)
I0925 22:52:20.286931 13442 net.cpp:156] Memory required for data: 10016
I0925 22:52:20.286939 13442 layer_factory.hpp:77] Creating layer lstm1_x_transform
I0925 22:52:20.286968 13442 net.cpp:91] Creating Layer lstm1_x_transform
I0925 22:52:20.286979 13442 net.cpp:425] lstm1_x_transform <- x
I0925 22:52:20.286995 13442 net.cpp:399] lstm1_x_transform -> W_xc_x
I0925 22:52:20.287099 13490 net.cpp:141] Setting up concat
I0925 22:52:20.287119 13490 net.cpp:148] Top shape: 1 1 1501 (1501)
I0925 22:52:20.287127 13490 net.cpp:156] Memory required for data: 32412
I0925 22:52:20.287138 13490 layer_factory.hpp:77] Creating layer lstm2
I0925 22:52:20.287160 13490 net.cpp:91] Creating Layer lstm2
I0925 22:52:20.287169 13490 net.cpp:425] lstm2 <- lstm1_video_sequence
I0925 22:52:20.287178 13490 net.cpp:425] lstm2 <- cont_sentence_input_1_split_1
I0925 22:52:20.287187 13490 net.cpp:399] lstm2 -> lstm2
I0925 22:52:20.287202 13490 recurrent_layer.cpp:20] Initializing recurrent layer: assuming input batch contains 1 timesteps of 1 independent streams.
I0925 22:52:20.287247 13460 net.cpp:141] Setting up lstm1_
I0925 22:52:20.287268 13460 net.cpp:148] Top shape: 1 1 1000 (1000)
I0925 22:52:20.287279 13460 net.cpp:148] Top shape: 1 1 1000 (1000)
I0925 22:52:20.287286 13460 net.cpp:156] Memory required for data: 10004
I0925 22:52:20.287295 13460 layer_factory.hpp:77] Creating layer lstm1_cont_slice
I0925 22:52:20.287313 13460 net.cpp:91] Creating Layer lstm1_cont_slice
I0925 22:52:20.287322 13460 net.cpp:425] lstm1_cont_slice <- cont
I0925 22:52:20.287334 13460 net.cpp:399] lstm1_cont_slice -> cont_1
I0925 22:52:20.287403 13480 net.cpp:141] Setting up lstm2_
I0925 22:52:20.287422 13480 net.cpp:148] Top shape: 1 1 1501 (1501)
I0925 22:52:20.287434 13480 net.cpp:148] Top shape: 1 1 (1)
I0925 22:52:20.287442 13480 net.cpp:156] Memory required for data: 6008
I0925 22:52:20.287451 13480 layer_factory.hpp:77] Creating layer lstm2_
I0925 22:52:20.287467 13480 net.cpp:91] Creating Layer lstm2_
I0925 22:52:20.287482 13480 net.cpp:399] lstm2_ -> c_0
I0925 22:52:20.287502 13480 net.cpp:399] lstm2_ -> h_0
I0925 22:52:20.287585 13480 net.cpp:141] Setting up lstm2_
I0925 22:52:20.287600 13480 net.cpp:148] Top shape: 1 1 1000 (1000)
I0925 22:52:20.287611 13480 net.cpp:148] Top shape: 1 1 1000 (1000)
I0925 22:52:20.287619 13480 net.cpp:156] Memory required for data: 14008
I0925 22:52:20.287627 13480 layer_factory.hpp:77] Creating layer lstm2_cont_slice
I0925 22:52:20.287642 13480 net.cpp:91] Creating Layer lstm2_cont_slice
I0925 22:52:20.287659 13480 net.cpp:425] lstm2_cont_slice <- cont
I0925 22:52:20.287675 13480 net.cpp:399] lstm2_cont_slice -> cont_1
I0925 22:52:20.287719 13448 net.cpp:141] Setting up lstm1_unit_1
I0925 22:52:20.287724 13446 net.cpp:141] Setting up cont_1_lstm1_cont_slice_0_split
I0925 22:52:20.287736 13448 net.cpp:148] Top shape: 1 1 1000 (1000)
I0925 22:52:20.287639 13490 net.cpp:49] Initializing net from parameters: 
layer {
  name: "lstm2_"
  type: "Input"
  top: "x"
  top: "cont"
  input_param {
    shape {
      dim: 1
      dim: 1
      dim: 1501
    }
    shape {
      dim: 1
      dim: 1
    }
  }
}
layer {
  name: "lstm2_"
  type: "Input"
  top: "c_0"
  top: "h_0"
  input_param {
    shape {
      dim: 1
      dim: 1
      dim: 1000
    }
    shape {
      dim: 1
      dim: 1
      dim: 1000
    }
  }
}
layer {
  name: "lstm2_cont_slice"
  type: "Slice"
  bottom: "cont"
  top: "cont_1"
  slice_param {
    axis: 0
  }
}
layer {
  name: "lstm2_x_transform"
  type: "InnerProduct"
  bottom: "x"
  top: "W_xc_x"
  param {
    name: "W_xc"
  }
  param {
    name: "b_c"
  }
  propagate_down: true
  inner_product_param {
    num_output: 4000
    bias_term: true
    weight_filler {
      type: "uniform"
      min: -0.08
      max: 0.08
    }
    bias_filler {
      type: "constant"
      value: 0
    }
    axis: 2
  }
}
layer {
  name: "lstm2_W_xc_x_slice"
  type: "Slice"
  bottom: "W_xc_x"
  top: "W_xc_x_1"
  slice_param {
    axis: 0
  }
}
layer {
  name: "lstm2_h_conted_0"
  type: "Scale"
  bottom: "h_0"
  bottom: "cont_1"
  top: "h_conted_0"
  scale_param {
    axis: 0
  }
}
layer {
  name: "lstm2_transform_1"
  type: "InnerProduct"
  bottom: "h_conted_0"
  top: "W_hc_h_0"
  param {
    name: "W_hc"
  }
  inner_product_param {
    num_output: 4000
    bias_term: false
    weight_filler {
      type: "uniform"
      min: -0.08
      max: 0.08
    }
    axis: 2
  }
}
layer {
  name: "lstm2_gate_input_1"
  type: "Eltwise"
  bottom: "W_hc_h_0"
  bottom: "W_xc_x_1"
  top: "gate_input_1"
  eltwise_param {
    operation: SUM
  }
}
layer {
  name: "lstm2_unit_1"
  type: "LSTMUnit"
  bottom: "c_0"
  bottom: "gate_input_1"
  bottom: "cont_1"
  top: "c_1"
  top: "h_1"
}
layer {
  name: "lstm2_"
  type: "Split"
  bottom: "c_1"
  top: "c_T"
}
layer {
  name: "lstm2_h_concat"
  type: "Concat"
  bottom: "h_1"
  top: "h"
  concat_param {
    axis: 0
  }
}
layer {
  name: "h_pseudoloss"
  type: "Reduction"
  bottom: "h"
  top: "h_pseudoloss"
  loss_weight: 1
}
I0925 22:52:20.287752 13448 net.cpp:148] Top shape: 1 1 1000 (1000)
I0925 22:52:20.287766 13448 net.cpp:156] Memory required for data: 86016
I0925 22:52:20.287770 13460 net.cpp:141] Setting up lstm1_cont_slice
I0925 22:52:20.287775 13448 layer_factory.hpp:77] Creating layer lstm1_
I0925 22:52:20.287787 13460 net.cpp:148] Top shape: 1 1 (1)
I0925 22:52:20.287792 13448 net.cpp:91] Creating Layer lstm1_
I0925 22:52:20.287796 13460 net.cpp:156] Memory required for data: 10008
I0925 22:52:20.287803 13448 net.cpp:425] lstm1_ <- c_1
I0925 22:52:20.287804 13460 layer_factory.hpp:77] Creating layer cont_1_lstm1_cont_slice_0_split
I0925 22:52:20.287827 13460 net.cpp:91] Creating Layer cont_1_lstm1_cont_slice_0_split
I0925 22:52:20.287837 13460 net.cpp:425] cont_1_lstm1_cont_slice_0_split <- cont_1
I0925 22:52:20.287853 13460 net.cpp:399] cont_1_lstm1_cont_slice_0_split -> cont_1_lstm1_cont_slice_0_split_0
I0925 22:52:20.287868 13460 net.cpp:399] cont_1_lstm1_cont_slice_0_split -> cont_1_lstm1_cont_slice_0_split_1
I0925 22:52:20.287874 13490 layer_factory.hpp:77] Creating layer lstm2_
I0925 22:52:20.287890 13490 net.cpp:91] Creating Layer lstm2_
I0925 22:52:20.287904 13490 net.cpp:399] lstm2_ -> x
I0925 22:52:20.287921 13490 net.cpp:399] lstm2_ -> cont
I0925 22:52:20.287737 13446 net.cpp:148] Top shape: 1 1 (1)
I0925 22:52:20.287955 13446 net.cpp:148] Top shape: 1 1 (1)
I0925 22:52:20.287964 13446 net.cpp:156] Memory required for data: 10016
I0925 22:52:20.287979 13446 layer_factory.hpp:77] Creating layer lstm1_x_transform
I0925 22:52:20.287964 13460 net.cpp:141] Setting up cont_1_lstm1_cont_slice_0_split
I0925 22:52:20.288027 13460 net.cpp:148] Top shape: 1 1 (1)
I0925 22:52:20.288039 13460 net.cpp:148] Top shape: 1 1 (1)
I0925 22:52:20.288046 13460 net.cpp:156] Memory required for data: 10016
I0925 22:52:20.288054 13460 layer_factory.hpp:77] Creating layer lstm1_x_transform
I0925 22:52:20.288074 13460 net.cpp:91] Creating Layer lstm1_x_transform
I0925 22:52:20.288084 13460 net.cpp:425] lstm1_x_transform <- x
I0925 22:52:20.288097 13460 net.cpp:399] lstm1_x_transform -> W_xc_x
I0925 22:52:20.288151 13448 net.cpp:399] lstm1_ -> c_T
I0925 22:52:20.288002 13446 net.cpp:91] Creating Layer lstm1_x_transform
I0925 22:52:20.288183 13446 net.cpp:425] lstm1_x_transform <- x
I0925 22:52:20.288221 13446 net.cpp:399] lstm1_x_transform -> W_xc_x
I0925 22:52:20.298445 13480 net.cpp:141] Setting up lstm2_cont_slice
I0925 22:52:20.298491 13480 net.cpp:148] Top shape: 1 1 (1)
I0925 22:52:20.298498 13480 net.cpp:156] Memory required for data: 14012
I0925 22:52:20.298509 13480 layer_factory.hpp:77] Creating layer cont_1_lstm2_cont_slice_0_split
I0925 22:52:20.298529 13480 net.cpp:91] Creating Layer cont_1_lstm2_cont_slice_0_split
I0925 22:52:20.298542 13480 net.cpp:425] cont_1_lstm2_cont_slice_0_split <- cont_1
I0925 22:52:20.298554 13480 net.cpp:399] cont_1_lstm2_cont_slice_0_split -> cont_1_lstm2_cont_slice_0_split_0
I0925 22:52:20.298571 13480 net.cpp:399] cont_1_lstm2_cont_slice_0_split -> cont_1_lstm2_cont_slice_0_split_1
I0925 22:52:20.298811 13480 net.cpp:141] Setting up cont_1_lstm2_cont_slice_0_split
I0925 22:52:20.298827 13480 net.cpp:148] Top shape: 1 1 (1)
I0925 22:52:20.298837 13480 net.cpp:148] Top shape: 1 1 (1)
I0925 22:52:20.298843 13480 net.cpp:156] Memory required for data: 14020
I0925 22:52:20.298851 13480 layer_factory.hpp:77] Creating layer lstm2_x_transform
I0925 22:52:20.298872 13480 net.cpp:91] Creating Layer lstm2_x_transform
I0925 22:52:20.298879 13480 net.cpp:425] lstm2_x_transform <- x
I0925 22:52:20.298895 13480 net.cpp:399] lstm2_x_transform -> W_xc_x
I0925 22:52:20.314646 13490 net.cpp:141] Setting up lstm2_
I0925 22:52:20.314702 13490 net.cpp:148] Top shape: 1 1 1501 (1501)
I0925 22:52:20.314716 13490 net.cpp:148] Top shape: 1 1 (1)
I0925 22:52:20.314724 13490 net.cpp:156] Memory required for data: 6008
I0925 22:52:20.314740 13490 layer_factory.hpp:77] Creating layer lstm2_
I0925 22:52:20.314776 13490 net.cpp:91] Creating Layer lstm2_
I0925 22:52:20.314792 13490 net.cpp:399] lstm2_ -> c_0
I0925 22:52:20.314826 13490 net.cpp:399] lstm2_ -> h_0
I0925 22:52:20.314868 13448 net.cpp:141] Setting up lstm1_
I0925 22:52:20.314908 13448 net.cpp:148] Top shape: 1 1 1000 (1000)
I0925 22:52:20.314916 13448 net.cpp:156] Memory required for data: 90016
I0925 22:52:20.314927 13448 layer_factory.hpp:77] Creating layer lstm1_h_concat
I0925 22:52:20.314949 13448 net.cpp:91] Creating Layer lstm1_h_concat
I0925 22:52:20.314959 13448 net.cpp:425] lstm1_h_concat <- h_1
I0925 22:52:20.314985 13448 net.cpp:399] lstm1_h_concat -> h
I0925 22:52:20.315004 13490 net.cpp:141] Setting up lstm2_
I0925 22:52:20.315023 13490 net.cpp:148] Top shape: 1 1 1000 (1000)
I0925 22:52:20.315034 13490 net.cpp:148] Top shape: 1 1 1000 (1000)
I0925 22:52:20.315042 13490 net.cpp:156] Memory required for data: 14008
I0925 22:52:20.315052 13490 layer_factory.hpp:77] Creating layer lstm2_cont_slice
I0925 22:52:20.315073 13490 net.cpp:91] Creating Layer lstm2_cont_slice
I0925 22:52:20.315081 13490 net.cpp:425] lstm2_cont_slice <- cont
I0925 22:52:20.315100 13490 net.cpp:399] lstm2_cont_slice -> cont_1
I0925 22:52:20.320690 13448 net.cpp:141] Setting up lstm1_h_concat
I0925 22:52:20.320730 13448 net.cpp:148] Top shape: 1 1 1000 (1000)
I0925 22:52:20.320735 13448 net.cpp:156] Memory required for data: 94016
I0925 22:52:20.320744 13448 layer_factory.hpp:77] Creating layer h_pseudoloss
I0925 22:52:20.320765 13448 net.cpp:91] Creating Layer h_pseudoloss
I0925 22:52:20.320776 13448 net.cpp:425] h_pseudoloss <- h
I0925 22:52:20.320793 13448 net.cpp:399] h_pseudoloss -> h_pseudoloss
I0925 22:52:20.320813 13490 net.cpp:141] Setting up lstm2_cont_slice
I0925 22:52:20.320854 13490 net.cpp:148] Top shape: 1 1 (1)
I0925 22:52:20.320863 13490 net.cpp:156] Memory required for data: 14012
I0925 22:52:20.320875 13490 layer_factory.hpp:77] Creating layer cont_1_lstm2_cont_slice_0_split
I0925 22:52:20.320899 13490 net.cpp:91] Creating Layer cont_1_lstm2_cont_slice_0_split
I0925 22:52:20.320910 13490 net.cpp:425] cont_1_lstm2_cont_slice_0_split <- cont_1
I0925 22:52:20.320927 13490 net.cpp:399] cont_1_lstm2_cont_slice_0_split -> cont_1_lstm2_cont_slice_0_split_0
I0925 22:52:20.320948 13490 net.cpp:399] cont_1_lstm2_cont_slice_0_split -> cont_1_lstm2_cont_slice_0_split_1
I0925 22:52:20.321646 13490 net.cpp:141] Setting up cont_1_lstm2_cont_slice_0_split
I0925 22:52:20.321662 13490 net.cpp:148] Top shape: 1 1 (1)
I0925 22:52:20.321672 13490 net.cpp:148] Top shape: 1 1 (1)
I0925 22:52:20.321679 13490 net.cpp:156] Memory required for data: 14020
I0925 22:52:20.321687 13490 layer_factory.hpp:77] Creating layer lstm2_x_transform
I0925 22:52:20.321718 13490 net.cpp:91] Creating Layer lstm2_x_transform
I0925 22:52:20.321728 13490 net.cpp:425] lstm2_x_transform <- x
I0925 22:52:20.321743 13490 net.cpp:399] lstm2_x_transform -> W_xc_x
I0925 22:52:20.321800 13448 net.cpp:141] Setting up h_pseudoloss
I0925 22:52:20.321820 13448 net.cpp:148] Top shape: (1)
I0925 22:52:20.321826 13448 net.cpp:151]     with loss weight 1
I0925 22:52:20.321852 13448 net.cpp:156] Memory required for data: 94020
I0925 22:52:20.321862 13448 net.cpp:217] h_pseudoloss needs backward computation.
I0925 22:52:20.321871 13448 net.cpp:217] lstm1_h_concat needs backward computation.
I0925 22:52:20.321879 13448 net.cpp:219] lstm1_ does not need backward computation.
I0925 22:52:20.321888 13448 net.cpp:217] lstm1_unit_1 needs backward computation.
I0925 22:52:20.321899 13448 net.cpp:217] lstm1_gate_input_1 needs backward computation.
I0925 22:52:20.321902 13442 net.cpp:141] Setting up lstm1_x_transform
I0925 22:52:20.321908 13448 net.cpp:217] lstm1_transform_1 needs backward computation.
I0925 22:52:20.321921 13448 net.cpp:219] lstm1_h_conted_0 does not need backward computation.
I0925 22:52:20.321931 13442 net.cpp:148] Top shape: 1 1 4000 (4000)
I0925 22:52:20.321931 13448 net.cpp:217] lstm1_W_xc_x_slice needs backward computation.
I0925 22:52:20.321945 13442 net.cpp:156] Memory required for data: 26016
I0925 22:52:20.321951 13448 net.cpp:217] lstm1_x_transform needs backward computation.
I0925 22:52:20.321960 13448 net.cpp:219] cont_1_lstm1_cont_slice_0_split does not need backward computation.
I0925 22:52:20.321966 13442 layer_factory.hpp:77] Creating layer lstm1_W_xc_x_slice
…
I0925 22:52:20.322021 13448 net.cpp:261] This network produces output c_T
I0925 22:52:20.322036 13448 net.cpp:261] This network produces output h_pseudoloss
I0925 22:52:20.322048 13442 net.cpp:399] lstm1_W_xc_x_slice -> W_xc_x_1
I0925 22:52:20.322059 13448 net.cpp:274] Network initialization done.
I0925 22:52:20.322127 13448 recurrent_layer.cpp:150] Adding parameter 0: W_xc
I0925 22:52:20.322140 13448 recurrent_layer.cpp:150] Adding parameter 1: b_c
I0925 22:52:20.322149 13448 recurrent_layer.cpp:150] Adding parameter 2: W_hc
I0925 22:52:20.322166 13460 net.cpp:141] Setting up lstm1_x_transform
I0925 22:52:20.322180 13460 net.cpp:148] Top shape: 1 1 4000 (4000)
I0925 22:52:20.322185 13460 net.cpp:156] Memory required for data: 26016
I0925 22:52:20.322196 13460 layer_factory.hpp:77] Creating layer lstm1_W_xc_x_slice
I0925 22:52:20.322226 13460 net.cpp:91] Creating Layer lstm1_W_xc_x_slice
I0925 22:52:20.322235 13460 net.cpp:425] lstm1_W_xc_x_slice <- W_xc_x
I0925 22:52:20.322244 13460 net.cpp:399] lstm1_W_xc_x_slice -> W_xc_x_1
I0925 22:52:20.323525 13442 net.cpp:141] Setting up lstm1_W_xc_x_slice
I0925 22:52:20.323542 13442 net.cpp:148] Top shape: 1 1 4000 (4000)
I0925 22:52:20.323551 13442 net.cpp:156] Memory required for data: 42016
I0925 22:52:20.323557 13442 layer_factory.hpp:77] Creating layer lstm1_h_conted_0
I0925 22:52:20.323567 13442 net.cpp:91] Creating Layer lstm1_h_conted_0
I0925 22:52:20.323577 13442 net.cpp:425] lstm1_h_conted_0 <- h_0
I0925 22:52:20.323621 13442 net.cpp:425] lstm1_h_conted_0 <- cont_1_lstm1_cont_slice_0_split_0
I0925 22:52:20.323626 13464 net.cpp:141] Setting up lstm2_x_transform
I0925 22:52:20.323639 13442 net.cpp:399] lstm1_h_conted_0 -> h_conted_0
I0925 22:52:20.323647 13464 net.cpp:148] Top shape: 1 1 4000 (4000)
I0925 22:52:20.323657 13464 net.cpp:156] Memory required for data: 30020
I0925 22:52:20.323674 13464 layer_factory.hpp:77] Creating layer lstm2_W_xc_x_slice
I0925 22:52:20.323695 13464 net.cpp:91] Creating Layer lstm2_W_xc_x_slice
I0925 22:52:20.323705 13464 net.cpp:425] lstm2_W_xc_x_slice <- W_xc_x
I0925 22:52:20.323719 13464 net.cpp:399] lstm2_W_xc_x_slice -> W_xc_x_1
I0925 22:52:20.345027 13482 net.cpp:141] Setting up conv2
I0925 22:52:20.345080 13482 net.cpp:148] Top shape: 10 256 27 27 (1866240)
I0925 22:52:20.345089 13482 net.cpp:156] Memory required for data: 42479160
I0925 22:52:20.345126 13482 layer_factory.hpp:77] Creating layer relu2
I0925 22:52:20.345155 13482 net.cpp:91] Creating Layer relu2
I0925 22:52:20.345165 13482 net.cpp:425] relu2 <- conv2
I0925 22:52:20.345176 13482 net.cpp:386] relu2 -> conv2 (in-place)
I0925 22:52:20.345918 13482 net.cpp:141] Setting up relu2
I0925 22:52:20.345948 13482 net.cpp:148] Top shape: 10 256 27 27 (1866240)
I0925 22:52:20.345957 13482 net.cpp:156] Memory required for data: 49944120
I0925 22:52:20.345966 13482 layer_factory.hpp:77] Creating layer pool2
I0925 22:52:20.345983 13482 net.cpp:91] Creating Layer pool2
I0925 22:52:20.345991 13482 net.cpp:425] pool2 <- conv2
I0925 22:52:20.346011 13482 net.cpp:399] pool2 -> pool2
I0925 22:52:20.346154 13482 net.cpp:141] Setting up pool2
I0925 22:52:20.346174 13482 net.cpp:148] Top shape: 10 256 13 13 (432640)
I0925 22:52:20.346184 13482 net.cpp:156] Memory required for data: 51674680
I0925 22:52:20.346192 13482 layer_factory.hpp:77] Creating layer norm2
I0925 22:52:20.346215 13482 net.cpp:91] Creating Layer norm2
I0925 22:52:20.346225 13482 net.cpp:425] norm2 <- pool2
I0925 22:52:20.346242 13482 net.cpp:399] norm2 -> norm2
I0925 22:52:20.346745 13482 net.cpp:141] Setting up norm2
I0925 22:52:20.346765 13482 net.cpp:148] Top shape: 10 256 13 13 (432640)
I0925 22:52:20.346774 13482 net.cpp:156] Memory required for data: 53405240
I0925 22:52:20.346784 13482 layer_factory.hpp:77] Creating layer conv3
I0925 22:52:20.346808 13482 net.cpp:91] Creating Layer conv3
I0925 22:52:20.346818 13482 net.cpp:425] conv3 <- norm2
I0925 22:52:20.346835 13482 net.cpp:399] conv3 -> conv3
I0925 22:52:20.347023 13448 net.cpp:141] Setting up lstm1
I0925 22:52:20.347031 13460 net.cpp:141] Setting up lstm1_W_xc_x_slice
I0925 22:52:20.347079 13448 net.cpp:148] Top shape: 1 1 1000 (1000)
I0925 22:52:20.347084 13460 net.cpp:148] Top shape: 1 1 4000 (4000)
I0925 22:52:20.347090 13448 net.cpp:156] Memory required for data: 26408
I0925 22:52:20.347091 13464 net.cpp:141] Setting up lstm2_W_xc_x_slice
…
    shape {
      dim: 1
      dim: 1
      dim: 1000
    }
  }
}
layer {
  name: "lstm2_cont_slice"
  type: "Slice"
  bottom: "cont"
  top: "cont_1"
  slice_param {
    axis: 0
  }
}
layer {
  name: "lstm2_x_transform"
  type: "InnerProduct"
  bottom: "x"
  top: "W_xc_x"
  param {
    name: "W_xc"
  }
  param {
    name: "b_c"
  }
  propagate_down: true
  inner_product_param {
    num_output: 4000
    bias_term: true
    weight_filler {
      type: "uniform"
      min: -0.08
      max: 0.08
    }
    bias_filler {
      type: "constant"
      value: 0
    }
    axis: 2
  }
}
layer {
  name: "lstm2_W_xc_x_slice"
  type: "Slice"
  bottom: "W_xc_x"
  top: "W_xc_x_1"
  slice_param {
    axis: 0
  }
}
layer {
  name: "lstm2_h_conted_0"
  type: "Scale"
  bottom: "h_0"
  bottom: "cont_1"
  top: "h_conted_0"
  scale_param {
    axis: 0
  }
}
layer {
  name: "lstm2_transform_1"
  type: "InnerProduct"
  bottom: "h_conted_0"
  top: "W_hc_h_0"
  param {
    name: "W_hc"
  }
  inner_product_param {
    num_output: 4000
    bias_term: false
    weight_filler {
      type: "uniform"
      min: -0.08
      max: 0.08
    }
    axis: 2
  }
}
layer {
  name: "lstm2_gate_input_1"
  type: "Eltwise"
  bottom: "W_hc_h_0"
  bottom: "W_xc_x_1"
  top: "gate_input_1"
  eltwise_param {
    operation: SUM
  }
}
layer {
  name: "lstm2_unit_1"
  type: "LSTMUnit"
  bottom: "c_0"
  bottom: "gate_input_1"
  bottom: "cont_1"
  top: "c_1"
  top: "h_1"
}
layer {
  name: "lstm2_"
  type: "Split"
  bottom: "c_1"
  top: "c_T"
}
layer {
  name: "lstm2_h_concat"
  type: "Concat"
  bottom: "h_1"
  top: "h"
  concat_param {
    axis: 0
  }
}
layer {
  name: "h_pseudoloss"
  type: "Reduction"
  bottom: "h"
  top: "h_pseudoloss"
  loss_weight: 1
}
I0925 22:52:20.639492 13442 layer_factory.hpp:77] Creating layer lstm2_
I0925 22:52:20.639519 13442 net.cpp:91] Creating Layer lstm2_
I0925 22:52:20.639534 13442 net.cpp:399] lstm2_ -> x
I0925 22:52:20.639561 13442 net.cpp:399] lstm2_ -> cont
I0925 22:52:20.651661 13446 net.cpp:141] Setting up concat
I0925 22:52:20.651707 13446 net.cpp:148] Top shape: 1 1 1501 (1501)
I0925 22:52:20.651715 13446 net.cpp:156] Memory required for data: 32412
I0925 22:52:20.651727 13446 layer_factory.hpp:77] Creating layer lstm2
I0925 22:52:20.651756 13446 net.cpp:91] Creating Layer lstm2
I0925 22:52:20.651767 13446 net.cpp:425] lstm2 <- lstm1_video_sequence
I0925 22:52:20.651778 13446 net.cpp:425] lstm2 <- cont_sentence_input_1_split_1
I0925 22:52:20.651793 13446 net.cpp:399] lstm2 -> lstm2
I0925 22:52:20.651815 13446 recurrent_layer.cpp:20] Initializing recurrent layer: assuming input batch contains 1 timesteps of 1 independent streams.
I0925 22:52:20.652212 13446 net.cpp:49] Initializing net from parameters: 
layer {
  name: "lstm2_"
  type: "Input"
  top: "x"
  top: "cont"
  input_param {
    shape {
      dim: 1
      dim: 1
      dim: 1501
    }
    shape {
      dim: 1
      dim: 1
    }
  }
}
layer {
  name: "lstm2_"
  type: "Input"
  top: "c_0"
  top: "h_0"
  input_param {
    shape {
      dim: 1
      dim: 1
      dim: 1000
    }
    shape {
      dim: 1
      dim: 1
      dim: 1000
    }
  }
}
layer {
  name: "lstm2_cont_slice"
  type: "Slice"
  bottom: "cont"
  top: "cont_1"
  slice_param {
    axis: 0
  }
}
layer {
  name: "lstm2_x_transform"
  type: "InnerProduct"
  bottom: "x"
  top: "W_xc_x"
  param {
    name: "W_xc"
  }
  param {
    name: "b_c"
  }
  propagate_down: true
  inner_product_param {
    num_output: 4000
    bias_term: true
    weight_filler {
      type: "uniform"
      min: -0.08
      max: 0.08
    }
    bias_filler {
      type: "constant"
      value: 0
    }
    axis: 2
  }
}
layer {
  name: "lstm2_W_xc_x_slice"
  type: "Slice"
  bottom: "W_xc_x"
  top: "W_xc_x_1"
  slice_param {
    axis: 0
  }
}
layer {
  name: "lstm2_h_conted_0"
  type: "Scale"
  bottom: "h_0"
  bottom: "cont_1"
  top: "h_conted_0"
  scale_param {
    axis: 0
  }
}
layer {
  name: "lstm2_transform_1"
  type: "InnerProduct"
  bottom: "h_conted_0"
  top: "W_hc_h_0"
  param {
    name: "W_hc"
  }
  inner_product_param {
    num_output: 4000
    bias_term: false
    weight_filler {
      type: "uniform"
      min: -0.08
      max: 0.08
    }
    axis: 2
  }
}
layer {
  name: "lstm2_gate_input_1"
  type: "Eltwise"
  bottom: "W_hc_h_0"
  bottom: "W_xc_x_1"
  top: "gate_input_1"
  eltwise_param {
    operation: SUM
  }
}
layer {
  name: "lstm2_unit_1"
  type: "LSTMUnit"
  bottom: "c_0"
  bottom: "gate_input_1"
  bottom: "cont_1"
  top: "c_1"
  top: "h_1"
}
layer {
  name: "lstm2_"
  type: "Split"
  bottom: "c_1"
  top: "c_T"
}
layer {
  name: "lstm2_h_concat"
  type: "Concat"
  bottom: "h_1"
  top: "h"
  concat_param {
    axis: 0
  }
}
layer {
  name: "h_pseudoloss"
  type: "Reduction"
  bottom: "h"
  top: "h_pseudoloss"
  loss_weight: 1
}
I0925 22:52:20.652338 13446 layer_factory.hpp:77] Creating layer lstm2_
I0925 22:52:20.652354 13446 net.cpp:91] Creating Layer lstm2_
I0925 22:52:20.652365 13446 net.cpp:399] lstm2_ -> x
I0925 22:52:20.652381 13446 net.cpp:399] lstm2_ -> cont
I0925 22:52:20.652482 13446 net.cpp:141] Setting up lstm2_
I0925 22:52:20.652496 13446 net.cpp:148] Top shape: 1 1 1501 (1501)
I0925 22:52:20.652506 13446 net.cpp:148] Top shape: 1 1 (1)
I0925 22:52:20.652513 13446 net.cpp:156] Memory required for data: 6008
I0925 22:52:20.652520 13446 layer_factory.hpp:77] Creating layer lstm2_
I0925 22:52:20.652534 13446 net.cpp:91] Creating Layer lstm2_
I0925 22:52:20.652547 13446 net.cpp:399] lstm2_ -> c_0
I0925 22:52:20.652564 13446 net.cpp:399] lstm2_ -> h_0
I0925 22:52:20.652652 13446 net.cpp:141] Setting up lstm2_
I0925 22:52:20.652667 13446 net.cpp:148] Top shape: 1 1 1000 (1000)
I0925 22:52:20.652675 13446 net.cpp:148] Top shape: 1 1 1000 (1000)
I0925 22:52:20.652681 13446 net.cpp:156] Memory required for data: 14008
I0925 22:52:20.652689 13446 layer_factory.hpp:77] Creating layer lstm2_cont_slice
I0925 22:52:20.652701 13446 net.cpp:91] Creating Layer lstm2_cont_slice
I0925 22:52:20.652709 13446 net.cpp:425] lstm2_cont_slice <- cont
I0925 22:52:20.652720 13446 net.cpp:399] lstm2_cont_slice -> cont_1
I0925 22:52:20.652776 13446 net.cpp:141] Setting up lstm2_cont_slice
I0925 22:52:20.652789 13446 net.cpp:148] Top shape: 1 1 (1)
I0925 22:52:20.652796 13446 net.cpp:156] Memory required for data: 14012
I0925 22:52:20.652803 13446 layer_factory.hpp:77] Creating layer cont_1_lstm2_cont_slice_0_split
I0925 22:52:20.652820 13446 net.cpp:91] Creating Layer cont_1_lstm2_cont_slice_0_split
I0925 22:52:20.652828 13446 net.cpp:425] cont_1_lstm2_cont_slice_0_split <- cont_1
I0925 22:52:20.652838 13446 net.cpp:399] cont_1_lstm2_cont_slice_0_split -> cont_1_lstm2_cont_slice_0_split_0
I0925 22:52:20.652850 13446 net.cpp:399] cont_1_lstm2_cont_slice_0_split -> cont_1_lstm2_cont_slice_0_split_1
I0925 22:52:20.652930 13446 net.cpp:141] Setting up cont_1_lstm2_cont_slice_0_split
I0925 22:52:20.652943 13446 net.cpp:148] Top shape: 1 1 (1)
I0925 22:52:20.652952 13446 net.cpp:148] Top shape: 1 1 (1)
I0925 22:52:20.652959 13446 net.cpp:156] Memory required for data: 14020
I0925 22:52:20.652966 13446 layer_factory.hpp:77] Creating layer lstm2_x_transform
I0925 22:52:20.652983 13446 net.cpp:91] Creating Layer lstm2_x_transform
I0925 22:52:20.652992 13446 net.cpp:425] lstm2_x_transform <- x
I0925 22:52:20.653007 13446 net.cpp:399] lstm2_x_transform -> W_xc_x
I0925 22:52:20.653007 13490 net.cpp:141] Setting up lstm2_
I0925 22:52:20.653031 13490 net.cpp:148] Top shape: 1 1 1000 (1000)
I0925 22:52:20.653043 13490 net.cpp:156] Memory required for data: 94020
I0925 22:52:20.653053 13490 layer_factory.hpp:77] Creating layer lstm2_h_concat
I0925 22:52:20.653070 13490 net.cpp:91] Creating Layer lstm2_h_concat
I0925 22:52:20.653082 13490 net.cpp:425] lstm2_h_concat <- h_1
I0925 22:52:20.653098 13490 net.cpp:399] lstm2_h_concat -> h
I0925 22:52:20.653368 13490 net.cpp:141] Setting up lstm2_h_concat
I0925 22:52:20.653388 13490 net.cpp:148] Top shape: 1 1 1000 (1000)
I0925 22:52:20.653396 13490 net.cpp:156] Memory required for data: 98020
I0925 22:52:20.653405 13490 layer_factory.hpp:77] Creating layer h_pseudoloss
I0925 22:52:20.653406 13480 net.cpp:141] Setting up lstm2
I0925 22:52:20.653424 13490 net.cpp:91] Creating Layer h_pseudoloss
I0925 22:52:20.653429 13480 net.cpp:148] Top shape: 1 1 1000 (1000)
I0925 22:52:20.653434 13490 net.cpp:425] h_pseudoloss <- h
I0925 22:52:20.653437 13480 net.cpp:156] Memory required for data: 36412
I0925 22:52:20.653448 13490 net.cpp:399] h_pseudoloss -> h_pseudoloss
I0925 22:52:20.653460 13480 layer_factory.hpp:77] Creating layer predict
I0925 22:52:20.653477 13480 net.cpp:91] Creating Layer predict
I0925 22:52:20.653486 13480 net.cpp:425] predict <- lstm2
I0925 22:52:20.653499 13480 net.cpp:399] predict -> predict
I0925 22:52:20.761781 13442 net.cpp:141] Setting up lstm2_
I0925 22:52:20.761842 13442 net.cpp:148] Top shape: 1 1 1501 (1501)
I0925 22:52:20.761855 13442 net.cpp:148] Top shape: 1 1 (1)
I0925 22:52:20.761864 13442 net.cpp:156] Memory required for data: 6008
I0925 22:52:20.761878 13442 layer_factory.hpp:77] Creating layer lstm2_
I0925 22:52:20.761904 13448 net.cpp:141] Setting up lstm2_transform_1
I0925 22:52:20.761917 13442 net.cpp:91] Creating Layer lstm2_
I0925 22:52:20.761921 13448 net.cpp:148] Top shape: 1 1 4000 (4000)
I0925 22:52:20.761929 13448 net.cpp:156] Memory required for data: 66020
I0925 22:52:20.761932 13442 net.cpp:399] lstm2_ -> c_0
I0925 22:52:20.761950 13448 layer_factory.hpp:77] Creating layer lstm2_gate_input_1
I0925 22:52:20.761957 13442 net.cpp:399] lstm2_ -> h_0
I0925 22:52:20.761973 13448 net.cpp:91] Creating Layer lstm2_gate_input_1
I0925 22:52:20.761986 13448 net.cpp:425] lstm2_gate_input_1 <- W_hc_h_0
I0925 22:52:20.761997 13448 net.cpp:425] lstm2_gate_input_1 <- W_xc_x_1
I0925 22:52:20.762006 13448 net.cpp:399] lstm2_gate_input_1 -> gate_input_1
I0925 22:52:20.762225 13448 net.cpp:141] Setting up lstm2_gate_input_1
I0925 22:52:20.762243 13448 net.cpp:148] Top shape: 1 1 4000 (4000)
I0925 22:52:20.762250 13448 net.cpp:156] Memory required for data: 82020
I0925 22:52:20.762259 13448 layer_factory.hpp:77] Creating layer lstm2_unit_1
I0925 22:52:20.762341 13448 net.cpp:91] Creating Layer lstm2_unit_1
I0925 22:52:20.762352 13448 net.cpp:425] lstm2_unit_1 <- c_0
I0925 22:52:20.762363 13448 net.cpp:425] lstm2_unit_1 <- gate_input_1
I0925 22:52:20.762372 13448 net.cpp:425] lstm2_unit_1 <- cont_1_lstm2_cont_slice_0_split_1
I0925 22:52:20.762395 13448 net.cpp:399] lstm2_unit_1 -> c_1
I0925 22:52:20.762394 13490 net.cpp:141] Setting up h_pseudoloss
I0925 22:52:20.762413 13448 net.cpp:399] lstm2_unit_1 -> h_1
I0925 22:52:20.762423 13490 net.cpp:148] Top shape: (1)
I0925 22:52:20.762433 13490 net.cpp:151]     with loss weight 1
I0925 22:52:20.762459 13490 net.cpp:156] Memory required for data: 98024
I0925 22:52:20.762465 13490 net.cpp:217] h_pseudoloss needs backward computation.
I0925 22:52:20.762471 13490 net.cpp:217] lstm2_h_concat needs backward computation.
I0925 22:52:20.762477 13490 net.cpp:219] lstm2_ does not need backward computation.
I0925 22:52:20.762482 13490 net.cpp:217] lstm2_unit_1 needs backward computation.
I0925 22:52:20.762491 13490 net.cpp:217] lstm2_gate_input_1 needs backward computation.
I0925 22:52:20.762490 13442 net.cpp:141] Setting up lstm2_
I0925 22:52:20.762516 13490 net.cpp:217] lstm2_transform_1 needs backward computation.
I0925 22:52:20.762521 13442 net.cpp:148] Top shape: 1 1 1000 (1000)
I0925 22:52:20.762528 13490 net.cpp:219] lstm2_h_conted_0 does not need backward computation.
I0925 22:52:20.762534 13442 net.cpp:148] Top shape: 1 1 1000 (1000)
I0925 22:52:20.762539 13490 net.cpp:217] lstm2_W_xc_x_slice needs backward computation.
I0925 22:52:20.762542 13442 net.cpp:156] Memory required for data: 14008
I0925 22:52:20.762550 13490 net.cpp:217] lstm2_x_transform needs backward computation.
I0925 22:52:20.762552 13442 layer_factory.hpp:77] Creating layer lstm2_cont_slice
I0925 22:52:20.762562 13490 net.cpp:219] cont_1_lstm2_cont_slice_0_split does not need backward computation.
I0925 22:52:20.762573 13442 net.cpp:91] Creating Layer lstm2_cont_slice
I0925 22:52:20.762573 13490 net.cpp:219] lstm2_cont_slice does not need backward computation.
I0925 22:52:20.762614 13442 net.cpp:425] lstm2_cont_slice <- cont
I0925 22:52:20.762620 13490 net.cpp:219] lstm2_ does not need backward computation.
I0925 22:52:20.762631 13490 net.cpp:219] lstm2_ does not need backward computation.
I0925 22:52:20.762631 13442 net.cpp:399] lstm2_cont_slice -> cont_1
I0925 22:52:20.762647 13490 net.cpp:261] This network produces output c_T
I0925 22:52:20.762658 13490 net.cpp:261] This network produces output h_pseudoloss
I0925 22:52:20.762686 13490 net.cpp:274] Network initialization done.
I0925 22:52:20.762702 13460 net.cpp:141] Setting up lstm2_x_transform
I0925 22:52:20.762719 13460 net.cpp:148] Top shape: 1 1 4000 (4000)
I0925 22:52:20.762727 13460 net.cpp:156] Memory required for data: 30020
I0925 22:52:20.762744 13460 layer_factory.hpp:77] Creating layer lstm2_W_xc_x_slice
I0925 22:52:20.762759 13460 net.cpp:91] Creating Layer lstm2_W_xc_x_slice
I0925 22:52:20.762769 13460 net.cpp:425] lstm2_W_xc_x_slice <- W_xc_x
I0925 22:52:20.762773 13490 recurrent_layer.cpp:150] Adding parameter 0: W_xc
I0925 22:52:20.762783 13460 net.cpp:399] lstm2_W_xc_x_slice -> W_xc_x_1
I0925 22:52:20.762784 13490 recurrent_layer.cpp:150] Adding parameter 1: b_c
I0925 22:52:20.762811 13490 recurrent_layer.cpp:150] Adding parameter 2: W_hc
I0925 22:52:20.762841 13442 net.cpp:141] Setting up lstm2_cont_slice
I0925 22:52:20.762861 13442 net.cpp:148] Top shape: 1 1 (1)
I0925 22:52:20.762869 13442 net.cpp:156] Memory required for data: 14012
I0925 22:52:20.762878 13442 layer_factory.hpp:77] Creating layer cont_1_lstm2_cont_slice_0_split
I0925 22:52:20.762894 13442 net.cpp:91] Creating Layer cont_1_lstm2_cont_slice_0_split
I0925 22:52:20.762905 13442 net.cpp:425] cont_1_lstm2_cont_slice_0_split <- cont_1
I0925 22:52:20.762926 13442 net.cpp:399] cont_1_lstm2_cont_slice_0_split -> cont_1_lstm2_cont_slice_0_split_0
I0925 22:52:20.762926 13460 net.cpp:141] Setting up lstm2_W_xc_x_slice
I0925 22:52:20.762950 13442 net.cpp:399] cont_1_lstm2_cont_slice_0_split -> cont_1_lstm2_cont_slice_0_split_1
I0925 22:52:20.762954 13460 net.cpp:148] Top shape: 1 1 4000 (4000)
I0925 22:52:20.762971 13460 net.cpp:156] Memory required for data: 46020
I0925 22:52:20.762980 13460 layer_factory.hpp:77] Creating layer lstm2_h_conted_0
I0925 22:52:20.762997 13460 net.cpp:91] Creating Layer lstm2_h_conted_0
I0925 22:52:20.763007 13460 net.cpp:425] lstm2_h_conted_0 <- h_0
I0925 22:52:20.763018 13460 net.cpp:425] lstm2_h_conted_0 <- cont_1_lstm2_cont_slice_0_split_0
I0925 22:52:20.763031 13460 net.cpp:399] lstm2_h_conted_0 -> h_conted_0
I0925 22:52:20.763263 13448 net.cpp:141] Setting up lstm2_unit_1
I0925 22:52:20.763283 13448 net.cpp:148] Top shape: 1 1 1000 (1000)
I0925 22:52:20.763350 13442 net.cpp:141] Setting up cont_1_lstm2_cont_slice_0_split
I0925 22:52:20.763378 13442 net.cpp:148] Top shape: 1 1 (1)
I0925 22:52:20.763396 13442 net.cpp:148] Top shape: 1 1 (1)
I0925 22:52:20.763401 13490 net.cpp:141] Setting up lstm2
I0925 22:52:20.763406 13442 net.cpp:156] Memory required for data: 14020
I0925 22:52:20.763427 13490 net.cpp:148] Top shape: 1 1 1000 (1000)
I0925 22:52:20.763428 13442 layer_factory.hpp:77] Creating layer lstm2_x_transform
I0925 22:52:20.763444 13490 net.cpp:156] Memory required for data: 36412
I0925 22:52:20.763465 13442 net.cpp:91] Creating Layer lstm2_x_transform
I0925 22:52:20.763473 13490 layer_factory.hpp:77] Creating layer predict
I0925 22:52:20.763478 13442 net.cpp:425] lstm2_x_transform <- x
I0925 22:52:20.763486 13460 net.cpp:141] Setting up lstm2_h_conted_0
I0925 22:52:20.763491 13490 net.cpp:91] Creating Layer predict
I0925 22:52:20.763499 13442 net.cpp:399] lstm2_x_transform -> W_xc_x
I0925 22:52:20.763501 13490 net.cpp:425] predict <- lstm2
I0925 22:52:20.763502 13460 net.cpp:148] Top shape: 1 1 1000 (1000)
I0925 22:52:20.763531 13490 net.cpp:399] predict -> predict
I0925 22:52:20.763536 13448 net.cpp:148] Top shape: 1 1 1000 (1000)
I0925 22:52:20.763530 13460 net.cpp:156] Memory required for data: 50020
I0925 22:52:20.763555 13448 net.cpp:156] Memory required for data: 90020
I0925 22:52:20.763561 13460 layer_factory.hpp:77] Creating layer lstm2_transform_1
I0925 22:52:20.763566 13448 layer_factory.hpp:77] Creating layer lstm2_
I0925 22:52:20.763586 13460 net.cpp:91] Creating Layer lstm2_transform_1
I0925 22:52:20.763594 13460 net.cpp:425] lstm2_transform_1 <- h_conted_0
I0925 22:52:20.763592 13448 net.cpp:91] Creating Layer lstm2_
I0925 22:52:20.763605 13448 net.cpp:425] lstm2_ <- c_1
I0925 22:52:20.763607 13460 net.cpp:399] lstm2_transform_1 -> W_hc_h_0
I0925 22:52:20.763625 13448 net.cpp:399] lstm2_ -> c_T
I0925 22:52:20.764228 13448 net.cpp:141] Setting up lstm2_
I0925 22:52:20.764252 13448 net.cpp:148] Top shape: 1 1 1000 (1000)
I0925 22:52:20.764262 13448 net.cpp:156] Memory required for data: 94020
I0925 22:52:20.764273 13448 layer_factory.hpp:77] Creating layer lstm2_h_concat
I0925 22:52:20.764291 13448 net.cpp:91] Creating Layer lstm2_h_concat
I0925 22:52:20.764302 13448 net.cpp:425] lstm2_h_concat <- h_1
I0925 22:52:20.764317 13448 net.cpp:399] lstm2_h_concat -> h
I0925 22:52:20.870282 13448 net.cpp:141] Setting up lstm2_h_concat
I0925 22:52:20.870344 13448 net.cpp:148] Top shape: 1 1 1000 (1000)
I0925 22:52:20.870355 13448 net.cpp:156] Memory required for data: 98020
I0925 22:52:20.870368 13448 layer_factory.hpp:77] Creating layer h_pseudoloss
I0925 22:52:20.870424 13448 net.cpp:91] Creating Layer h_pseudoloss
I0925 22:52:20.870457 13448 net.cpp:425] h_pseudoloss <- h
I0925 22:52:20.870476 13448 net.cpp:399] h_pseudoloss -> h_pseudoloss
I0925 22:52:20.871193 13446 net.cpp:141] Setting up lstm2_x_transform
I0925 22:52:20.871219 13446 net.cpp:148] Top shape: 1 1 4000 (4000)
I0925 22:52:20.871227 13446 net.cpp:156] Memory required for data: 30020
I0925 22:52:20.871249 13446 layer_factory.hpp:77] Creating layer lstm2_W_xc_x_slice
I0925 22:52:20.871268 13446 net.cpp:91] Creating Layer lstm2_W_xc_x_slice
I0925 22:52:20.871278 13446 net.cpp:425] lstm2_W_xc_x_slice <- W_xc_x
I0925 22:52:20.871290 13446 net.cpp:399] lstm2_W_xc_x_slice -> W_xc_x_1
I0925 22:52:20.871367 13446 net.cpp:141] Setting up lstm2_W_xc_x_slice
I0925 22:52:20.871382 13446 net.cpp:148] Top shape: 1 1 4000 (4000)
I0925 22:52:20.871389 13446 net.cpp:156] Memory required for data: 46020
I0925 22:52:20.871397 13446 layer_factory.hpp:77] Creating layer lstm2_h_conted_0
I0925 22:52:20.871413 13446 net.cpp:91] Creating Layer lstm2_h_conted_0
I0925 22:52:20.871422 13446 net.cpp:425] lstm2_h_conted_0 <- h_0
I0925 22:52:20.871431 13446 net.cpp:425] lstm2_h_conted_0 <- cont_1_lstm2_cont_slice_0_split_0
…
I0925 22:52:20.871866 13448 net.cpp:217] lstm2_transform_1 needs backward computation.
I0925 22:52:20.871876 13448 net.cpp:219] lstm2_h_conted_0 does not need backward computation.
I0925 22:52:20.871886 13448 net.cpp:217] lstm2_W_xc_x_slice needs backward computation.
I0925 22:52:20.871896 13448 net.cpp:217] lstm2_x_transform needs backward computation.
I0925 22:52:20.871911 13448 net.cpp:219] cont_1_lstm2_cont_slice_0_split does not need backward computation.
I0925 22:52:20.871908 13446 net.cpp:141] Setting up lstm2_h_conted_0
I0925 22:52:20.871922 13448 net.cpp:219] lstm2_cont_slice does not need backward computation.
I0925 22:52:20.871925 13446 net.cpp:148] Top shape: 1 1 1000 (1000)
I0925 22:52:20.871930 13448 net.cpp:219] lstm2_ does not need backward computation.
I0925 22:52:20.871933 13446 net.cpp:156] Memory required for data: 50020
I0925 22:52:20.871938 13448 net.cpp:219] lstm2_ does not need backward computation.
I0925 22:52:20.871940 13446 layer_factory.hpp:77] Creating layer lstm2_transform_1
I0925 22:52:20.871945 13448 net.cpp:261] This network produces output c_T
I0925 22:52:20.871955 13448 net.cpp:261] This network produces output h_pseudoloss
I0925 22:52:20.871960 13446 net.cpp:91] Creating Layer lstm2_transform_1
I0925 22:52:20.871968 13446 net.cpp:425] lstm2_transform_1 <- h_conted_0
I0925 22:52:20.871979 13448 net.cpp:274] Network initialization done.
I0925 22:52:20.871980 13446 net.cpp:399] lstm2_transform_1 -> W_hc_h_0
I0925 22:52:20.872071 13448 recurrent_layer.cpp:150] Adding parameter 0: W_xc
I0925 22:52:20.872084 13448 recurrent_layer.cpp:150] Adding parameter 1: b_c
I0925 22:52:20.872092 13448 recurrent_layer.cpp:150] Adding parameter 2: W_hc
I0925 22:52:20.882967 13448 net.cpp:141] Setting up lstm2
I0925 22:52:20.883026 13448 net.cpp:148] Top shape: 1 1 1000 (1000)
I0925 22:52:20.883035 13448 net.cpp:156] Memory required for data: 36412
I0925 22:52:20.883074 13448 layer_factory.hpp:77] Creating layer predict
I0925 22:52:20.883103 13448 net.cpp:91] Creating Layer predict
I0925 22:52:20.883114 13448 net.cpp:425] predict <- lstm2
I0925 22:52:20.883131 13448 net.cpp:399] predict -> predict
I0925 22:52:20.977183 13460 net.cpp:141] Setting up lstm2_transform_1
I0925 22:52:20.977260 13460 net.cpp:148] Top shape: 1 1 4000 (4000)
I0925 22:52:20.977269 13460 net.cpp:156] Memory required for data: 66020
I0925 22:52:20.977303 13460 layer_factory.hpp:77] Creating layer lstm2_gate_input_1
I0925 22:52:20.977339 13460 net.cpp:91] Creating Layer lstm2_gate_input_1
I0925 22:52:20.977351 13460 net.cpp:425] lstm2_gate_input_1 <- W_hc_h_0
I0925 22:52:20.977365 13460 net.cpp:425] lstm2_gate_input_1 <- W_xc_x_1
I0925 22:52:20.977385 13460 net.cpp:399] lstm2_gate_input_1 -> gate_input_1
I0925 22:52:20.977428 13446 net.cpp:141] Setting up lstm2_transform_1
I0925 22:52:20.977454 13446 net.cpp:148] Top shape: 1 1 4000 (4000)
I0925 22:52:20.977463 13446 net.cpp:156] Memory required for data: 66020
I0925 22:52:20.977479 13460 net.cpp:141] Setting up lstm2_gate_input_1
I0925 22:52:20.977481 13446 layer_factory.hpp:77] Creating layer lstm2_gate_input_1
I0925 22:52:20.977510 13460 net.cpp:148] Top shape: 1 1 4000 (4000)
I0925 22:52:20.977519 13460 net.cpp:156] Memory required for data: 82020
I0925 22:52:20.977521 13446 net.cpp:91] Creating Layer lstm2_gate_input_1
I0925 22:52:20.977527 13460 layer_factory.hpp:77] Creating layer lstm2_unit_1
I0925 22:52:20.977532 13446 net.cpp:425] lstm2_gate_input_1 <- W_hc_h_0
I0925 22:52:20.977542 13446 net.cpp:425] lstm2_gate_input_1 <- W_xc_x_1
I0925 22:52:20.977543 13460 net.cpp:91] Creating Layer lstm2_unit_1
I0925 22:52:20.977553 13460 net.cpp:425] lstm2_unit_1 <- c_0
I0925 22:52:20.977557 13446 net.cpp:399] lstm2_gate_input_1 -> gate_input_1
I0925 22:52:20.977563 13460 net.cpp:425] lstm2_unit_1 <- gate_input_1
I0925 22:52:20.977572 13460 net.cpp:425] lstm2_unit_1 <- cont_1_lstm2_cont_slice_0_split_1
I0925 22:52:20.977587 13460 net.cpp:399] lstm2_unit_1 -> c_1
I0925 22:52:20.977602 13460 net.cpp:399] lstm2_unit_1 -> h_1
I0925 22:52:20.977897 13452 net.cpp:141] Setting up predict
I0925 22:52:20.977948 13452 net.cpp:148] Top shape: 1 1 46168 (46168)
I0925 22:52:20.977954 13452 net.cpp:156] Memory required for data: 221084
I0925 22:52:20.977968 13452 layer_factory.hpp:77] Creating layer probs
I0925 22:52:20.977990 13452 net.cpp:91] Creating Layer probs
I0925 22:52:20.977998 13452 net.cpp:425] probs <- predict
I0925 22:52:20.978009 13452 net.cpp:399] probs -> probs
I0925 22:52:20.978101 13446 net.cpp:141] Setting up lstm2_gate_input_1
I0925 22:52:20.978116 13446 net.cpp:148] Top shape: 1 1 4000 (4000)
I0925 22:52:20.978123 13446 net.cpp:156] Memory required for data: 82020
I0925 22:52:20.978130 13446 layer_factory.hpp:77] Creating layer lstm2_unit_1
I0925 22:52:20.978147 13446 net.cpp:91] Creating Layer lstm2_unit_1
I0925 22:52:20.978155 13446 net.cpp:425] lstm2_unit_1 <- c_0
I0925 22:52:20.978164 13446 net.cpp:425] lstm2_unit_1 <- gate_input_1
I0925 22:52:20.978173 13446 net.cpp:425] lstm2_unit_1 <- cont_1_lstm2_cont_slice_0_split_1
I0925 22:52:20.978183 13446 net.cpp:399] lstm2_unit_1 -> c_1
I0925 22:52:20.978195 13446 net.cpp:399] lstm2_unit_1 -> h_1
I0925 22:52:20.979552 13452 net.cpp:141] Setting up probs
I0925 22:52:20.979588 13452 net.cpp:148] Top shape: 1 1 46168 (46168)
I0925 22:52:20.979596 13452 net.cpp:156] Memory required for data: 405756
I0925 22:52:20.979605 13452 net.cpp:219] probs does not need backward computation.
I0925 22:52:20.979615 13452 net.cpp:219] predict does not need backward computation.
I0925 22:52:20.979622 13452 net.cpp:219] lstm2 does not need backward computation.
I0925 22:52:20.979631 13452 net.cpp:219] concat does not need backward computation.
I0925 22:52:20.979640 13452 net.cpp:219] lstm1 does not need backward computation.
I0925 22:52:20.979648 13452 net.cpp:219] embedding does not need backward computation.
I0925 22:52:20.979655 13452 net.cpp:219] reshape_stage_indicator does not need backward computation.
I0925 22:52:20.979662 13452 net.cpp:219] reshape_frames does not need backward computation.
I0925 22:52:20.979670 13452 net.cpp:219] embed_encoder does not need backward computation.
I0925 22:52:20.979676 13452 net.cpp:219] cont_sentence_input_1_split does not need backward computation.
I0925 22:52:20.979684 13452 net.cpp:219] input does not need backward computation.
I0925 22:52:20.979691 13452 net.cpp:261] This network produces output probs
I0925 22:52:20.979718 13452 net.cpp:274] Network initialization done.
I0925 22:52:20.980509 13482 net.cpp:141] Setting up conv4
I0925 22:52:20.980561 13482 net.cpp:148] Top shape: 10 384 13 13 (648960)
I0925 22:52:20.980569 13482 net.cpp:156] Memory required for data: 61192760
I0925 22:52:20.980589 13482 layer_factory.hpp:77] Creating layer relu4
I0925 22:52:20.980612 13482 net.cpp:91] Creating Layer relu4
I0925 22:52:20.980620 13482 net.cpp:425] relu4 <- conv4
I0925 22:52:20.980633 13482 net.cpp:386] relu4 -> conv4 (in-place)
I0925 22:52:20.981504 13482 net.cpp:141] Setting up relu4
I0925 22:52:20.981523 13482 net.cpp:148] Top shape: 10 384 13 13 (648960)
I0925 22:52:20.981531 13482 net.cpp:156] Memory required for data: 63788600
I0925 22:52:20.981539 13482 layer_factory.hpp:77] Creating layer conv5
I0925 22:52:20.981567 13482 net.cpp:91] Creating Layer conv5
I0925 22:52:20.981575 13482 net.cpp:425] conv5 <- conv4
I0925 22:52:20.981586 13482 net.cpp:399] conv5 -> conv5
I0925 22:52:20.983707 13442 net.cpp:141] Setting up lstm2_x_transform
I0925 22:52:20.983752 13446 net.cpp:141] Setting up lstm2_unit_1
I0925 22:52:20.983764 13442 net.cpp:148] Top shape: 1 1 4000 (4000)
I0925 22:52:20.983772 13446 net.cpp:148] Top shape: 1 1 1000 (1000)
I0925 22:52:20.983773 13442 net.cpp:156] Memory required for data: 30020
I0925 22:52:20.983783 13446 net.cpp:148] Top shape: 1 1 1000 (1000)
I0925 22:52:20.983791 13446 net.cpp:156] Memory required for data: 90020
I0925 22:52:20.983800 13446 layer_factory.hpp:77] Creating layer lstm2_
I0925 22:52:20.983808 13442 layer_factory.hpp:77] Creating layer lstm2_W_xc_x_slice
I0925 22:52:20.983819 13446 net.cpp:91] Creating Layer lstm2_
I0925 22:52:20.983827 13446 net.cpp:425] lstm2_ <- c_1
I0925 22:52:20.983825 13442 net.cpp:91] Creating Layer lstm2_W_xc_x_slice
I0925 22:52:20.983831 13460 net.cpp:141] Setting up lstm2_unit_1
I0925 22:52:20.983842 13442 net.cpp:425] lstm2_W_xc_x_slice <- W_xc_x
I0925 22:52:20.983856 13442 net.cpp:399] lstm2_W_xc_x_slice -> W_xc_x_1
I0925 22:52:20.983839 13446 net.cpp:399] lstm2_ -> c_T
I0925 22:52:20.983927 13446 net.cpp:141] Setting up lstm2_
I0925 22:52:20.983942 13446 net.cpp:148] Top shape: 1 1 1000 (1000)
I0925 22:52:20.983948 13446 net.cpp:156] Memory required for data: 94020
I0925 22:52:20.983955 13446 layer_factory.hpp:77] Creating layer lstm2_h_concat
I0925 22:52:20.983973 13446 net.cpp:91] Creating Layer lstm2_h_concat
I0925 22:52:20.983980 13446 net.cpp:425] lstm2_h_concat <- h_1
I0925 22:52:20.983986 13442 net.cpp:141] Setting up lstm2_W_xc_x_slice
I0925 22:52:20.983991 13446 net.cpp:399] lstm2_h_concat -> h
I0925 22:52:20.984019 13442 net.cpp:148] Top shape: 1 1 4000 (4000)
I0925 22:52:20.984028 13442 net.cpp:156] Memory required for data: 46020
I0925 22:52:20.984036 13442 layer_factory.hpp:77] Creating layer lstm2_h_conted_0
I0925 22:52:20.984051 13442 net.cpp:91] Creating Layer lstm2_h_conted_0
I0925 22:52:20.984062 13442 net.cpp:425] lstm2_h_conted_0 <- h_0
I0925 22:52:20.984071 13446 net.cpp:141] Setting up lstm2_h_concat
I0925 22:52:20.984074 13442 net.cpp:425] lstm2_h_conted_0 <- cont_1_lstm2_cont_slice_0_split_0
I0925 22:52:20.984086 13446 net.cpp:148] Top shape: 1 1 1000 (1000)
I0925 22:52:20.984091 13442 net.cpp:399] lstm2_h_conted_0 -> h_conted_0
I0925 22:52:20.984092 13446 net.cpp:156] Memory required for data: 98020
I0925 22:52:20.984118 13446 layer_factory.hpp:77] Creating layer h_pseudoloss
I0925 22:52:20.984132 13446 net.cpp:91] Creating Layer h_pseudoloss
I0925 22:52:20.984138 13446 net.cpp:425] h_pseudoloss <- h
I0925 22:52:20.984153 13446 net.cpp:399] h_pseudoloss -> h_pseudoloss
I0925 22:52:20.984181 13460 net.cpp:148] Top shape: 1 1 1000 (1000)
I0925 22:52:20.984200 13460 net.cpp:148] Top shape: 1 1 1000 (1000)
I0925 22:52:20.984208 13460 net.cpp:156] Memory required for data: 90020
I0925 22:52:20.984218 13460 layer_factory.hpp:77] Creating layer lstm2_
I0925 22:52:20.984232 13460 net.cpp:91] Creating Layer lstm2_
I0925 22:52:20.984242 13460 net.cpp:425] lstm2_ <- c_1
I0925 22:52:20.984256 13460 net.cpp:399] lstm2_ -> c_T
I0925 22:52:20.984421 13460 net.cpp:141] Setting up lstm2_
I0925 22:52:20.984441 13460 net.cpp:148] Top shape: 1 1 1000 (1000)
I0925 22:52:20.984449 13460 net.cpp:156] Memory required for data: 94020
I0925 22:52:20.984458 13460 layer_factory.hpp:77] Creating layer lstm2_h_concat
I0925 22:52:20.984472 13460 net.cpp:91] Creating Layer lstm2_h_concat
I0925 22:52:20.984479 13460 net.cpp:425] lstm2_h_concat <- h_1
I0925 22:52:20.984483 13442 net.cpp:141] Setting up lstm2_h_conted_0
I0925 22:52:20.984495 13460 net.cpp:399] lstm2_h_concat -> h
I0925 22:52:20.984503 13442 net.cpp:148] Top shape: 1 1 1000 (1000)
I0925 22:52:20.984513 13442 net.cpp:156] Memory required for data: 50020
I0925 22:52:20.984514 13446 net.cpp:141] Setting up h_pseudoloss
I0925 22:52:20.984524 13442 layer_factory.hpp:77] Creating layer lstm2_transform_1
I0925 22:52:20.984532 13446 net.cpp:148] Top shape: (1)
I0925 22:52:20.984545 13442 net.cpp:91] Creating Layer lstm2_transform_1
I0925 22:52:20.984540 13446 net.cpp:151]     with loss weight 1
I0925 22:52:20.984557 13442 net.cpp:425] lstm2_transform_1 <- h_conted_0
I0925 22:52:20.984561 13446 net.cpp:156] Memory required for data: 98024
I0925 22:52:20.984561 13460 net.cpp:141] Setting up lstm2_h_concat
I0925 22:52:20.984578 13446 net.cpp:217] h_pseudoloss needs backward computation.
I0925 22:52:20.984586 13446 net.cpp:217] lstm2_h_concat needs backward computation.
I0925 22:52:20.984573 13442 net.cpp:399] lstm2_transform_1 -> W_hc_h_0
I0925 22:52:20.984601 13460 net.cpp:148] Top shape: 1 1 1000 (1000)
I0925 22:52:20.984593 13446 net.cpp:219] lstm2_ does not need backward computation.
I0925 22:52:20.984614 13460 net.cpp:156] Memory required for data: 98020
I0925 22:52:20.984619 13446 net.cpp:217] lstm2_unit_1 needs backward computation.
I0925 22:52:20.984623 13460 layer_factory.hpp:77] Creating layer h_pseudoloss
I0925 22:52:20.984629 13446 net.cpp:217] lstm2_gate_input_1 needs backward computation.
…
I0925 22:52:20.996422 13460 net.cpp:219] lstm2_ does not need backward computation.
I0925 22:52:20.996428 13460 net.cpp:261] This network produces output c_T
I0925 22:52:20.996436 13460 net.cpp:261] This network produces output h_pseudoloss
I0925 22:52:20.996465 13460 net.cpp:274] Network initialization done.
I0925 22:52:20.996536 13460 recurrent_layer.cpp:150] Adding parameter 0: W_xc
I0925 22:52:20.996546 13460 recurrent_layer.cpp:150] Adding parameter 1: b_c
I0925 22:52:20.996553 13460 recurrent_layer.cpp:150] Adding parameter 2: W_hc
I0925 22:52:21.102866 13460 net.cpp:141] Setting up lstm2
I0925 22:52:21.102951 13460 net.cpp:148] Top shape: 1 1 1000 (1000)
I0925 22:52:21.102968 13460 net.cpp:156] Memory required for data: 36412
I0925 22:52:21.103014 13460 layer_factory.hpp:77] Creating layer predict
I0925 22:52:21.103054 13460 net.cpp:91] Creating Layer predict
I0925 22:52:21.103073 13460 net.cpp:425] predict <- lstm2
I0925 22:52:21.103099 13460 net.cpp:399] predict -> predict
I0925 22:52:21.200083 13442 net.cpp:141] Setting up lstm2_transform_1
I0925 22:52:21.200165 13442 net.cpp:148] Top shape: 1 1 4000 (4000)
I0925 22:52:21.200186 13442 net.cpp:156] Memory required for data: 66020
I0925 22:52:21.200227 13442 layer_factory.hpp:77] Creating layer lstm2_gate_input_1
I0925 22:52:21.200284 13442 net.cpp:91] Creating Layer lstm2_gate_input_1
I0925 22:52:21.200309 13442 net.cpp:425] lstm2_gate_input_1 <- W_hc_h_0
I0925 22:52:21.200330 13442 net.cpp:425] lstm2_gate_input_1 <- W_xc_x_1
I0925 22:52:21.200362 13442 net.cpp:399] lstm2_gate_input_1 -> gate_input_1
I0925 22:52:21.202322 13442 net.cpp:141] Setting up lstm2_gate_input_1
I0925 22:52:21.202915 13442 net.cpp:148] Top shape: 1 1 4000 (4000)
I0925 22:52:21.202946 13442 net.cpp:156] Memory required for data: 82020
I0925 22:52:21.202967 13442 layer_factory.hpp:77] Creating layer lstm2_unit_1
I0925 22:52:21.203029 13442 net.cpp:91] Creating Layer lstm2_unit_1
I0925 22:52:21.203050 13442 net.cpp:425] lstm2_unit_1 <- c_0
I0925 22:52:21.203073 13442 net.cpp:425] lstm2_unit_1 <- gate_input_1
I0925 22:52:21.203089 13442 net.cpp:425] lstm2_unit_1 <- cont_1_lstm2_cont_slice_0_split_1
I0925 22:52:21.203111 13442 net.cpp:399] lstm2_unit_1 -> c_1
I0925 22:52:21.203142 13442 net.cpp:399] lstm2_unit_1 -> h_1
I0925 22:52:21.203197 13480 net.cpp:141] Setting up predict
I0925 22:52:21.203224 13480 net.cpp:148] Top shape: 1 1 46168 (46168)
I0925 22:52:21.203233 13480 net.cpp:156] Memory required for data: 221084
I0925 22:52:21.203275 13480 layer_factory.hpp:77] Creating layer probs
I0925 22:52:21.203295 13480 net.cpp:91] Creating Layer probs
I0925 22:52:21.203307 13480 net.cpp:425] probs <- predict
I0925 22:52:21.203321 13480 net.cpp:399] probs -> probs
I0925 22:52:21.203892 13442 net.cpp:141] Setting up lstm2_unit_1
I0925 22:52:21.203922 13442 net.cpp:148] Top shape: 1 1 1000 (1000)
I0925 22:52:21.203940 13442 net.cpp:148] Top shape: 1 1 1000 (1000)
I0925 22:52:21.203953 13442 net.cpp:156] Memory required for data: 90020
I0925 22:52:21.203969 13442 layer_factory.hpp:77] Creating layer lstm2_
I0925 22:52:21.203989 13442 net.cpp:91] Creating Layer lstm2_
I0925 22:52:21.204005 13442 net.cpp:425] lstm2_ <- c_1
I0925 22:52:21.204025 13442 net.cpp:399] lstm2_ -> c_T
I0925 22:52:21.204121 13464 net.cpp:141] Setting up predict
I0925 22:52:21.204162 13464 net.cpp:148] Top shape: 1 1 46168 (46168)
I0925 22:52:21.204175 13464 net.cpp:156] Memory required for data: 221084
I0925 22:52:21.204196 13464 layer_factory.hpp:77] Creating layer probs
I0925 22:52:21.204236 13464 net.cpp:91] Creating Layer probs
I0925 22:52:21.204257 13464 net.cpp:425] probs <- predict
I0925 22:52:21.204293 13464 net.cpp:399] probs -> probs
I0925 22:52:21.204313 13442 net.cpp:141] Setting up lstm2_
I0925 22:52:21.204340 13442 net.cpp:148] Top shape: 1 1 1000 (1000)
I0925 22:52:21.204355 13442 net.cpp:156] Memory required for data: 94020
I0925 22:52:21.204370 13442 layer_factory.hpp:77] Creating layer lstm2_h_concat
I0925 22:52:21.204399 13442 net.cpp:91] Creating Layer lstm2_h_concat
I0925 22:52:21.204417 13442 net.cpp:425] lstm2_h_concat <- h_1
I0925 22:52:21.204443 13442 net.cpp:399] lstm2_h_concat -> h
I0925 22:52:21.205387 13442 net.cpp:141] Setting up lstm2_h_concat
I0925 22:52:21.205415 13442 net.cpp:148] Top shape: 1 1 1000 (1000)
I0925 22:52:21.205428 13442 net.cpp:156] Memory required for data: 98020
I0925 22:52:21.205443 13442 layer_factory.hpp:77] Creating layer h_pseudoloss
I0925 22:52:21.205471 13442 net.cpp:91] Creating Layer h_pseudoloss
I0925 22:52:21.205487 13442 net.cpp:425] h_pseudoloss <- h
I0925 22:52:21.205514 13442 net.cpp:399] h_pseudoloss -> h_pseudoloss
I0925 22:52:21.205878 13442 net.cpp:141] Setting up h_pseudoloss
…
I0925 22:52:21.206154 13442 net.cpp:219] lstm2_ does not need backward computation.
I0925 22:52:21.206166 13442 net.cpp:261] This network produces output c_T
I0925 22:52:21.206178 13442 net.cpp:261] This network produces output h_pseudoloss
I0925 22:52:21.206228 13442 net.cpp:274] Network initialization done.
I0925 22:52:21.206336 13442 recurrent_layer.cpp:150] Adding parameter 0: W_xc
I0925 22:52:21.206354 13442 recurrent_layer.cpp:150] Adding parameter 1: b_c
I0925 22:52:21.206367 13442 recurrent_layer.cpp:150] Adding parameter 2: W_hc
I0925 22:52:21.208499 13480 net.cpp:141] Setting up probs
I0925 22:52:21.208549 13480 net.cpp:148] Top shape: 1 1 46168 (46168)
I0925 22:52:21.208559 13480 net.cpp:156] Memory required for data: 405756
I0925 22:52:21.208570 13480 net.cpp:219] probs does not need backward computation.
I0925 22:52:21.208580 13480 net.cpp:219] predict does not need backward computation.
I0925 22:52:21.208592 13480 net.cpp:219] lstm2 does not need backward computation.
I0925 22:52:21.208601 13480 net.cpp:219] concat does not need backward computation.
I0925 22:52:21.208611 13480 net.cpp:219] lstm1 does not need backward computation.
I0925 22:52:21.208621 13480 net.cpp:219] embedding does not need backward computation.
I0925 22:52:21.208631 13480 net.cpp:219] reshape_stage_indicator does not need backward computation.
I0925 22:52:21.208639 13480 net.cpp:219] reshape_frames does not need backward computation.
I0925 22:52:21.208647 13480 net.cpp:219] embed_encoder does not need backward computation.
I0925 22:52:21.208657 13480 net.cpp:219] cont_sentence_input_1_split does not need backward computation.
I0925 22:52:21.208665 13480 net.cpp:219] input does not need backward computation.
I0925 22:52:21.208673 13480 net.cpp:261] This network produces output probs
I0925 22:52:21.208698 13480 net.cpp:274] Network initialization done.
I0925 22:52:21.208931 13442 net.cpp:141] Setting up lstm2
I0925 22:52:21.208961 13442 net.cpp:148] Top shape: 1 1 1000 (1000)
I0925 22:52:21.208974 13442 net.cpp:156] Memory required for data: 36412
I0925 22:52:21.209014 13442 layer_factory.hpp:77] Creating layer predict
I0925 22:52:21.209048 13442 net.cpp:91] Creating Layer predict
I0925 22:52:21.209067 13442 net.cpp:425] predict <- lstm2
I0925 22:52:21.209091 13442 net.cpp:399] predict -> predict
I0925 22:52:21.210706 13464 net.cpp:141] Setting up probs
I0925 22:52:21.210741 13464 net.cpp:148] Top shape: 1 1 46168 (46168)
I0925 22:52:21.210753 13464 net.cpp:156] Memory required for data: 405756
I0925 22:52:21.210765 13464 net.cpp:219] probs does not need backward computation.
I0925 22:52:21.210777 13464 net.cpp:219] predict does not need backward computation.
I0925 22:52:21.210789 13464 net.cpp:219] lstm2 does not need backward computation.
I0925 22:52:21.210801 13464 net.cpp:219] concat does not need backward computation.
I0925 22:52:21.210813 13464 net.cpp:219] lstm1 does not need backward computation.
I0925 22:52:21.210825 13464 net.cpp:219] embedding does not need backward computation.
I0925 22:52:21.210837 13464 net.cpp:219] reshape_stage_indicator does not need backward computation.
I0925 22:52:21.210847 13464 net.cpp:219] reshape_frames does not need backward computation.
I0925 22:52:21.210857 13464 net.cpp:219] embed_encoder does not need backward computation.
I0925 22:52:21.210868 13464 net.cpp:219] cont_sentence_input_1_split does not need backward computation.
I0925 22:52:21.211801 13464 net.cpp:219] input does not need backward computation.
I0925 22:52:21.211817 13464 net.cpp:261] This network produces output probs
I0925 22:52:21.211845 13464 net.cpp:274] Network initialization done.
I0925 22:52:21.342068 13482 net.cpp:141] Setting up conv5
I0925 22:52:21.342135 13482 net.cpp:148] Top shape: 10 256 13 13 (432640)
I0925 22:52:21.342146 13482 net.cpp:156] Memory required for data: 65519160
I0925 22:52:21.342187 13482 layer_factory.hpp:77] Creating layer relu5
I0925 22:52:21.342219 13482 net.cpp:91] Creating Layer relu5
I0925 22:52:21.342233 13482 net.cpp:425] relu5 <- conv5
I0925 22:52:21.342247 13482 net.cpp:386] relu5 -> conv5 (in-place)
I0925 22:52:21.342989 13482 net.cpp:141] Setting up relu5
I0925 22:52:21.343010 13482 net.cpp:148] Top shape: 10 256 13 13 (432640)
I0925 22:52:21.343019 13482 net.cpp:156] Memory required for data: 67249720
I0925 22:52:21.343029 13482 layer_factory.hpp:77] Creating layer pool5
I0925 22:52:21.343050 13482 net.cpp:91] Creating Layer pool5
I0925 22:52:21.343058 13482 net.cpp:425] pool5 <- conv5
I0925 22:52:21.343075 13482 net.cpp:399] pool5 -> pool5
I0925 22:52:21.343240 13482 net.cpp:141] Setting up pool5
I0925 22:52:21.343257 13482 net.cpp:148] Top shape: 10 256 6 6 (92160)
I0925 22:52:21.343266 13482 net.cpp:156] Memory required for data: 67618360
I0925 22:52:21.343274 13482 layer_factory.hpp:77] Creating layer fc6
I0925 22:52:21.343298 13482 net.cpp:91] Creating Layer fc6
I0925 22:52:21.343307 13482 net.cpp:425] fc6 <- pool5
I0925 22:52:21.343339 13482 net.cpp:399] fc6 -> fc6
I0925 22:52:21.412746 13448 net.cpp:141] Setting up predict
I0925 22:52:21.412806 13448 net.cpp:148] Top shape: 1 1 46168 (46168)
I0925 22:52:21.412812 13448 net.cpp:156] Memory required for data: 221084
I0925 22:52:21.412840 13448 layer_factory.hpp:77] Creating layer probs
I0925 22:52:21.412859 13448 net.cpp:91] Creating Layer probs
I0925 22:52:21.412868 13448 net.cpp:425] probs <- predict
I0925 22:52:21.412890 13448 net.cpp:399] probs -> probs
I0925 22:52:21.413905 13448 net.cpp:141] Setting up probs
I0925 22:52:21.413940 13448 net.cpp:148] Top shape: 1 1 46168 (46168)
I0925 22:52:21.413949 13448 net.cpp:156] Memory required for data: 405756
I0925 22:52:21.413959 13448 net.cpp:219] probs does not need backward computation.
I0925 22:52:21.413969 13448 net.cpp:219] predict does not need backward computation.
I0925 22:52:21.413980 13448 net.cpp:219] lstm2 does not need backward computation.
I0925 22:52:21.413988 13448 net.cpp:219] concat does not need backward computation.
I0925 22:52:21.413998 13448 net.cpp:219] lstm1 does not need backward computation.
I0925 22:52:21.414008 13448 net.cpp:219] embedding does not need backward computation.
I0925 22:52:21.414016 13448 net.cpp:219] reshape_stage_indicator does not need backward computation.
I0925 22:52:21.414024 13448 net.cpp:219] reshape_frames does not need backward computation.
I0925 22:52:21.414034 13448 net.cpp:219] embed_encoder does not need backward computation.
I0925 22:52:21.414042 13448 net.cpp:219] cont_sentence_input_1_split does not need backward computation.
I0925 22:52:21.414052 13448 net.cpp:219] input does not need backward computation.
I0925 22:52:21.414060 13448 net.cpp:261] This network produces output probs
I0925 22:52:21.414083 13448 net.cpp:274] Network initialization done.
I0925 22:52:21.419186 13490 net.cpp:141] Setting up predict
I0925 22:52:21.419258 13490 net.cpp:148] Top shape: 1 1 46168 (46168)
I0925 22:52:21.419270 13490 net.cpp:156] Memory required for data: 221084
I0925 22:52:21.419296 13490 layer_factory.hpp:77] Creating layer probs
I0925 22:52:21.419327 13490 net.cpp:91] Creating Layer probs
I0925 22:52:21.419340 13490 net.cpp:425] probs <- predict
I0925 22:52:21.419358 13490 net.cpp:399] probs -> probs
I0925 22:52:21.421444 13490 net.cpp:141] Setting up probs
I0925 22:52:21.421489 13490 net.cpp:148] Top shape: 1 1 46168 (46168)
I0925 22:52:21.421499 13490 net.cpp:156] Memory required for data: 405756
I0925 22:52:21.421510 13490 net.cpp:219] probs does not need backward computation.
I0925 22:52:21.421520 13490 net.cpp:219] predict does not need backward computation.
I0925 22:52:21.421530 13490 net.cpp:219] lstm2 does not need backward computation.
I0925 22:52:21.421540 13490 net.cpp:219] concat does not need backward computation.
I0925 22:52:21.421550 13490 net.cpp:219] lstm1 does not need backward computation.
I0925 22:52:21.421586 13490 net.cpp:219] embedding does not need backward computation.
I0925 22:52:21.421596 13490 net.cpp:219] reshape_stage_indicator does not need backward computation.
I0925 22:52:21.421604 13490 net.cpp:219] reshape_frames does not need backward computation.
I0925 22:52:21.421613 13490 net.cpp:219] embed_encoder does not need backward computation.
I0925 22:52:21.421622 13490 net.cpp:219] cont_sentence_input_1_split does not need backward computation.
I0925 22:52:21.421632 13490 net.cpp:219] input does not need backward computation.
I0925 22:52:21.421640 13490 net.cpp:261] This network produces output probs
I0925 22:52:21.421666 13490 net.cpp:274] Network initialization done.
I0925 22:52:21.481765 13482 net.cpp:141] Setting up fc6
I0925 22:52:21.481863 13482 net.cpp:148] Top shape: 10 4096 (40960)
I0925 22:52:21.481876 13482 net.cpp:156] Memory required for data: 67782200
I0925 22:52:21.481912 13482 layer_factory.hpp:77] Creating layer relu6
I0925 22:52:21.481952 13482 net.cpp:91] Creating Layer relu6
I0925 22:52:21.481966 13482 net.cpp:425] relu6 <- fc6
I0925 22:52:21.481986 13482 net.cpp:386] relu6 -> fc6 (in-place)
I0925 22:52:21.483453 13482 net.cpp:141] Setting up relu6
I0925 22:52:21.483496 13482 net.cpp:148] Top shape: 10 4096 (40960)
I0925 22:52:21.483506 13482 net.cpp:156] Memory required for data: 67946040
I0925 22:52:21.483526 13482 layer_factory.hpp:77] Creating layer drop6
I0925 22:52:21.483556 13482 net.cpp:91] Creating Layer drop6
I0925 22:52:21.483567 13482 net.cpp:425] drop6 <- fc6
I0925 22:52:21.483580 13482 net.cpp:386] drop6 -> fc6 (in-place)
I0925 22:52:21.484503 13482 net.cpp:141] Setting up drop6
I0925 22:52:21.484540 13482 net.cpp:148] Top shape: 10 4096 (40960)
I0925 22:52:21.484552 13482 net.cpp:156] Memory required for data: 68109880
I0925 22:52:21.484565 13482 layer_factory.hpp:77] Creating layer fc7
I0925 22:52:21.484589 13482 net.cpp:91] Creating Layer fc7
I0925 22:52:21.484601 13482 net.cpp:425] fc7 <- fc6
I0925 22:52:21.484622 13482 net.cpp:399] fc7 -> fc7
I0925 22:52:21.519837 13446 net.cpp:141] Setting up predict
I0925 22:52:21.520782 13446 net.cpp:148] Top shape: 1 1 46168 (46168)
I0925 22:52:21.521134 13446 net.cpp:156] Memory required for data: 221084
I0925 22:52:21.521667 13446 layer_factory.hpp:77] Creating layer probs
I0925 22:52:21.521967 13446 net.cpp:91] Creating Layer probs
I0925 22:52:21.522445 13446 net.cpp:425] probs <- predict
I0925 22:52:21.522836 13446 net.cpp:399] probs -> probs
I0925 22:52:21.525346 13446 net.cpp:141] Setting up probs
I0925 22:52:21.525979 13446 net.cpp:148] Top shape: 1 1 46168 (46168)
I0925 22:52:21.526351 13446 net.cpp:156] Memory required for data: 405756
I0925 22:52:21.526520 13446 net.cpp:219] probs does not need backward computation.
I0925 22:52:21.526669 13446 net.cpp:219] predict does not need backward computation.
I0925 22:52:21.526816 13446 net.cpp:219] lstm2 does not need backward computation.
I0925 22:52:21.526958 13446 net.cpp:219] concat does not need backward computation.
I0925 22:52:21.527104 13446 net.cpp:219] lstm1 does not need backward computation.
I0925 22:52:21.527312 13446 net.cpp:219] embedding does not need backward computation.
I0925 22:52:21.527477 13446 net.cpp:219] reshape_stage_indicator does not need backward computation.
I0925 22:52:21.527613 13446 net.cpp:219] reshape_frames does not need backward computation.
I0925 22:52:21.527746 13446 net.cpp:219] embed_encoder does not need backward computation.
I0925 22:52:21.527880 13446 net.cpp:219] cont_sentence_input_1_split does not need backward computation.
I0925 22:52:21.528014 13446 net.cpp:219] input does not need backward computation.
I0925 22:52:21.528188 13446 net.cpp:261] This network produces output probs
I0925 22:52:21.528359 13446 net.cpp:274] Network initialization done.
I0925 22:52:21.551054 13482 net.cpp:141] Setting up fc7
I0925 22:52:21.551115 13482 net.cpp:148] Top shape: 10 4096 (40960)
I0925 22:52:21.551126 13482 net.cpp:156] Memory required for data: 68273720
I0925 22:52:21.551146 13482 layer_factory.hpp:77] Creating layer relu7
I0925 22:52:21.551168 13482 net.cpp:91] Creating Layer relu7
I0925 22:52:21.551178 13482 net.cpp:425] relu7 <- fc7
I0925 22:52:21.551197 13482 net.cpp:386] relu7 -> fc7 (in-place)
I0925 22:52:21.552222 13482 net.cpp:141] Setting up relu7
I0925 22:52:21.552273 13482 net.cpp:148] Top shape: 10 4096 (40960)
I0925 22:52:21.552284 13482 net.cpp:156] Memory required for data: 68437560
I0925 22:52:21.552296 13482 layer_factory.hpp:77] Creating layer drop7
I0925 22:52:21.552320 13482 net.cpp:91] Creating Layer drop7
I0925 22:52:21.552332 13482 net.cpp:425] drop7 <- fc7
I0925 22:52:21.552827 13482 net.cpp:386] drop7 -> fc7 (in-place)
I0925 22:52:21.552978 13482 net.cpp:141] Setting up drop7
I0925 22:52:21.553004 13482 net.cpp:148] Top shape: 10 4096 (40960)
I0925 22:52:21.553014 13482 net.cpp:156] Memory required for data: 68601400
I0925 22:52:21.553025 13482 layer_factory.hpp:77] Creating layer fc8
I0925 22:52:21.553050 13482 net.cpp:91] Creating Layer fc8
I0925 22:52:21.553061 13482 net.cpp:425] fc8 <- fc7
I0925 22:52:21.553076 13482 net.cpp:399] fc8 -> fc8
I0925 22:52:21.572363 13482 net.cpp:141] Setting up fc8
I0925 22:52:21.572438 13482 net.cpp:148] Top shape: 10 1000 (10000)
I0925 22:52:21.572448 13482 net.cpp:156] Memory required for data: 68641400
I0925 22:52:21.572473 13482 layer_factory.hpp:77] Creating layer prob
I0925 22:52:21.572505 13482 net.cpp:91] Creating Layer prob
I0925 22:52:21.572517 13482 net.cpp:425] prob <- fc8
I0925 22:52:21.572537 13482 net.cpp:399] prob -> prob
I0925 22:52:21.576192 13482 net.cpp:141] Setting up prob
I0925 22:52:21.576267 13482 net.cpp:148] Top shape: 10 1000 (10000)
I0925 22:52:21.576277 13482 net.cpp:156] Memory required for data: 68681400
I0925 22:52:21.576292 13482 net.cpp:219] prob does not need backward computation.
I0925 22:52:21.576304 13482 net.cpp:219] fc8 does not need backward computation.
I0925 22:52:21.576313 13482 net.cpp:219] drop7 does not need backward computation.
I0925 22:52:21.576320 13482 net.cpp:219] relu7 does not need backward computation.
…
