…
Java HotSpot(TM) 64-Bit Server VM warning: You have loaded library /home/peifeng/work/run/storm102/data/workers/044f5b3e-59aa-4370-a8be-f41b2439e3e8/tmp/cvld6405363937034107316/libopencv_java310.xine1.so which might have disabled stack guard. The VM will try to fix the stack guard now.
It's highly recommended that you fix the library with 'execstack -c <libfile>', or link it with '-z noexecstack'.
WARNING: Logging before InitGoogleLogging() is written to STDERR
I0924 02:40:04.233048   310 net.cpp:49] Initializing net from parameters: 
name: "CaffeNet"
state {
  phase: TEST
}
layer {
  name: "data"
  type: "Input"
  top: "data"
  input_param {
    shape {
      dim: 10
      dim: 3
      dim: 227
      dim: 227
    }
  }
}
layer {
  name: "conv1"
  type: "Convolution"
  bottom: "data"
  top: "conv1"
  convolution_param {
    num_output: 96
    kernel_size: 11
    stride: 4
  }
}
layer {
  name: "relu1"
  type: "ReLU"
  bottom: "conv1"
  top: "conv1"
}
layer {
  name: "pool1"
  type: "Pooling"
  bottom: "conv1"
  top: "pool1"
  pooling_param {
    pool: MAX
    kernel_size: 3
    stride: 2
  }
}
layer {
  name: "norm1"
  type: "LRN"
  bottom: "pool1"
  top: "norm1"
  lrn_param {
    local_size: 5
    alpha: 0.0001
    beta: 0.75
  }
}
layer {
  name: "conv2"
  type: "Convolution"
  bottom: "norm1"
  top: "conv2"
  convolution_param {
    num_output: 256
    pad: 2
    kernel_size: 5
    group: 2
  }
}
layer {
  name: "relu2"
  type: "ReLU"
  bottom: "conv2"
  top: "conv2"
}
layer {
  name: "pool2"
  type: "Pooling"
  bottom: "conv2"
  top: "pool2"
  pooling_param {
    pool: MAX
    kernel_size: 3
    stride: 2
  }
}
layer {
  name: "norm2"
  type: "LRN"
  bottom: "pool2"
  top: "norm2"
  lrn_param {
    local_size: 5
    alpha: 0.0001
    beta: 0.75
  }
}
layer {
  name: "conv3"
  type: "Convolution"
  bottom: "norm2"
  top: "conv3"
  convolution_param {
    num_output: 384
    pad: 1
    kernel_size: 3
  }
}
layer {
  name: "relu3"
  type: "ReLU"
  bottom: "conv3"
  top: "conv3"
}
layer {
  name: "conv4"
  type: "Convolution"
  bottom: "conv3"
  top: "conv4"
  convolution_param {
    num_output: 384
    pad: 1
    kernel_size: 3
    group: 2
  }
}
layer {
  name: "relu4"
  type: "ReLU"
  bottom: "conv4"
  top: "conv4"
}
layer {
  name: "conv5"
  type: "Convolution"
  bottom: "conv4"
  top: "conv5"
  convolution_param {
    num_output: 256
    pad: 1
    kernel_size: 3
    group: 2
  }
}
layer {
  name: "relu5"
  type: "ReLU"
  bottom: "conv5"
  top: "conv5"
}
layer {
  name: "pool5"
  type: "Pooling"
  bottom: "conv5"
  top: "pool5"
  pooling_param {
    pool: MAX
    kernel_size: 3
    stride: 2
  }
}
layer {
  name: "fc6"
  type: "InnerProduct"
  bottom: "pool5"
  top: "fc6"
  inner_product_param {
    num_output: 4096
  }
}
layer {
  name: "relu6"
  type: "ReLU"
  bottom: "fc6"
  top: "fc6"
}
layer {
  name: "drop6"
  type: "Dropout"
  bottom: "fc6"
  top: "fc6"
  dropout_param {
    dropout_ratio: 0.5
  }
}
layer {
  name: "fc7"
  type: "InnerProduct"
  bottom: "fc6"
  top: "fc7"
  inner_product_param {
    num_output: 4096
  }
}
layer {
  name: "relu7"
  type: "ReLU"
  bottom: "fc7"
  top: "fc7"
}
layer {
  name: "drop7"
  type: "Dropout"
  bottom: "fc7"
  top: "fc7"
  dropout_param {
    dropout_ratio: 0.5
  }
}
layer {
  name: "fc8"
  type: "InnerProduct"
  bottom: "fc7"
  top: "fc8"
  inner_product_param {
    num_output: 1000
  }
}
layer {
  name: "prob"
  type: "Softmax"
  bottom: "fc8"
  top: "prob"
}
I0924 02:40:04.233247   310 layer_factory.hpp:77] Creating layer data
I0924 02:40:04.233278   310 net.cpp:91] Creating Layer data
I0924 02:40:04.233289   310 net.cpp:399] data -> data
I0924 02:40:04.240070   306 upgrade_proto.cpp:66] Attempting to upgrade input file specified using deprecated input fields: /home/peifeng/work/run/storm102/data/workers/044f5b3e-59aa-4370-a8be-f41b2439e3e8/tmp/cvld6405363937034107316/s2vt.words_to_preds.prototxt
…
I0924 02:40:04.240612   312 upgrade_proto.cpp:66] Attempting to upgrade input file specified using deprecated input fields: /home/peifeng/work/run/storm102/data/workers/044f5b3e-59aa-4370-a8be-f41b2439e3e8/tmp/cvld6405363937034107316/s2vt.words_to_preds.prototxt
I0924 02:40:04.240618   302 net.cpp:49] Initializing net from parameters: 
name: "s2vt:features_to_lstm"
state {
  phase: TEST
}
layer {
  name: "input"
  type: "Input"
  top: "frames_fc7"
  top: "cont_sentence"
  top: "input_sentence"
  top: "stage_indicator"
  input_param {
    shape {
      dim: 1
      dim: 4096
    }
    shape {
      dim: 1
      dim: 1
    }
    shape {
      dim: 1
      dim: 1
    }
    shape {
      dim: 1
      dim: 1
    }
  }
}
layer {
  name: "embed_encoder"
  type: "InnerProduct"
  bottom: "frames_fc7"
  top: "embedded_in_frames"
  param {
    lr_mult: 1
    decay_mult: 1
  }
  param {
    lr_mult: 2
    decay_mult: 0
  }
  inner_product_param {
    num_output: 500
    weight_filler {
      type: "xavier"
    }
    bias_filler {
      type: "constant"
      value: 0.2
    }
  }
}
layer {
  name: "reshape_frames"
  type: "Reshape"
  bottom: "embedded_in_frames"
  top: "embedded_input_frames"
  reshape_param {
    shape {
      dim: 1
      dim: 1
      dim: 500
    }
  }
}
layer {
  name: "reshape_stage_indicator"
  type: "Reshape"
  bottom: "stage_indicator"
  top: "reshaped_stage_indicator"
  reshape_param {
    shape {
      dim: 1
      dim: 1
      dim: 1
    }
  }
}
layer {
  name: "embedding"
  type: "Embed"
  bottom: "input_sentence"
  top: "embedded_input_sentence"
  param {
    lr_mult: 1
  }
  embed_param {
    num_output: 500
    input_dim: 46168
    bias_term: false
    weight_filler {
      type: "uniform"
      min: -0.08
      max: 0.08
    }
  }
}
layer {
  name: "lstm1"
  type: "LSTM"
  bottom: "embedded_input_frames"
  bottom: "cont_sentence"
  top: "lstm1"
  recurrent_param {
    num_output: 1000
    weight_filler {
      type: "uniform"
      min: -0.08
      max: 0.08
    }
    bias_filler {
      type: "constant"
      value: 0
    }
  }
}
layer {
  name: "concat"
  type: "Concat"
  bottom: "lstm1"
  bottom: "embedded_input_sentence"
  bottom: "reshaped_stage_indicator"
  top: "lstm1_video_sequence"
  concat_param {
    concat_dim: 2
  }
}
layer {
  name: "lstm2"
  type: "LSTM"
  bottom: "lstm1_video_sequence"
  bottom: "cont_sentence"
  top: "lstm2"
  recurrent_param {
    num_output: 1000
    weight_filler {
      type: "uniform"
      min: -0.08
      max: 0.08
    }
    bias_filler {
      type: "constant"
      value: 0
    }
  }
}
layer {
  name: "predict"
  type: "InnerProduct"
  bottom: "lstm2"
  top: "predict"
  param {
    lr_mult: 1
    decay_mult: 1
  }
  param {
    lr_mult: 2
    decay_mult: 0
  }
  inner_product_param {
    num_output: 46168
    weight_filler {
      type: "uniform"
      min: -0.08
      max: 0.08
    }
    bias_filler {
      type: "constant"
      value: 0
    }
    axis: 2
  }
}
layer {
  name: "probs"
  type: "Softmax"
  bottom: "predict"
  top: "probs"
  softmax_param {
    axis: 2
  }
}
I0924 02:40:04.240634   330 net.cpp:49] Initializing net from parameters: 
name: "s2vt:features_to_lstm"
state {
  phase: TEST
}
layer {
  name: "input"
  type: "Input"
  top: "frames_fc7"
  top: "cont_sentence"
  top: "input_sentence"
  top: "stage_indicator"
  input_param {
    shape {
      dim: 1
      dim: 4096
    }
    shape {
      dim: 1
      dim: 1
    }
    shape {
      dim: 1
      dim: 1
    }
    shape {
      dim: 1
      dim: 1
    }
  }
}
layer {
  name: "embed_encoder"
  type: "InnerProduct"
  bottom: "frames_fc7"
  top: "embedded_in_frames"
  param {
    lr_mult: 1
    decay_mult: 1
  }
  param {
    lr_mult: 2
    decay_mult: 0
  }
  inner_product_param {
    num_output: 500
    weight_filler {
      type: "xavier"
    }
    bias_filler {
      type: "constant"
      value: 0.2
    }
  }
}
layer {
  name: "reshape_frames"
  type: "Reshape"
  bottom: "embedded_in_frames"
  top: "embedded_input_frames"
  reshape_param {
    shape {
      dim: 1
      dim: 1
      dim: 500
    }
  }
}
layer {
  name: "reshape_stage_indicator"
  type: "Reshape"
  bottom: "stage_indicator"
  top: "reshaped_stage_indicator"
  reshape_param {
    shape {
      dim: 1
      dim: 1
      dim: 1
    }
  }
}
layer {
  name: "embedding"
  type: "Embed"
  bottom: "input_sentence"
  top: "embedded_input_sentence"
  param {
    lr_mult: 1
  }
  embed_param {
    num_output: 500
    input_dim: 46168
    bias_term: false
    weight_filler {
      type: "uniform"
      min: -0.08
      max: 0.08
    }
  }
}
layer {
  name: "lstm1"
  type: "LSTM"
  bottom: "embedded_input_frames"
  bottom: "cont_sentence"
  top: "lstm1"
  recurrent_param {
    num_output: 1000
    weight_filler {
      type: "uniform"
      min: -0.08
      max: 0.08
    }
    bias_filler {
      type: "constant"
      value: 0
    }
  }
}
layer {
  name: "concat"
  type: "Concat"
  bottom: "lstm1"
  bottom: "embedded_input_sentence"
  bottom: "reshaped_stage_indicator"
  top: "lstm1_video_sequence"
  concat_param {
    concat_dim: 2
  }
}
layer {
  name: "lstm2"
  type: "LSTM"
  bottom: "lstm1_video_sequence"
  bottom: "cont_sentence"
  top: "lstm2"
  recurrent_param {
    num_output: 1000
    weight_filler {
      type: "uniform"
      min: -0.08
      max: 0.08
    }
    bias_filler {
      type: "constant"
      value: 0
    }
  }
}
layer {
  name: "predict"
  type: "InnerProduct"
  bottom: "lstm2"
  top: "predict"
  param {
    lr_mult: 1
    decay_mult: 1
  }
  param {
    lr_mult: 2
    decay_mult: 0
  }
  inner_product_param {
    num_output: 46168
    weight_filler {
      type: "uniform"
      min: -0.08
      max: 0.08
    }
    bias_filler {
      type: "constant"
      value: 0
    }
    axis: 2
  }
}
layer {
  name: "probs"
  type: "Softmax"
  bottom: "predict"
  top: "probs"
  softmax_param {
    axis: 2
  }
}
I0924 02:40:04.240617   306 net.cpp:49] Initializing net from parameters: 
name: "s2vt:features_to_lstm"
state {
  phase: TEST
}
layer {
  name: "input"
  type: "Input"
  top: "frames_fc7"
  top: "cont_sentence"
  top: "input_sentence"
  top: "stage_indicator"
  input_param {
    shape {
      dim: 1
      dim: 4096
    }
    shape {
      dim: 1
      dim: 1
    }
    shape {
      dim: 1
      dim: 1
    }
    shape {
      dim: 1
      dim: 1
    }
  }
}
layer {
  name: "embed_encoder"
  type: "InnerProduct"
  bottom: "frames_fc7"
  top: "embedded_in_frames"
  param {
    lr_mult: 1
    decay_mult: 1
  }
  param {
    lr_mult: 2
    decay_mult: 0
  }
  inner_product_param {
    num_output: 500
    weight_filler {
      type: "xavier"
    }
    bias_filler {
      type: "constant"
      value: 0.2
    }
  }
}
layer {
  name: "reshape_frames"
  type: "Reshape"
  bottom: "embedded_in_frames"
  top: "embedded_input_frames"
  reshape_param {
    shape {
      dim: 1
      dim: 1
      dim: 500
    }
  }
}
layer {
  name: "reshape_stage_indicator"
  type: "Reshape"
  bottom: "stage_indicator"
  top: "reshaped_stage_indicator"
  reshape_param {
    shape {
      dim: 1
      dim: 1
      dim: 1
    }
  }
}
layer {
  name: "embedding"
  type: "Embed"
  bottom: "input_sentence"
  top: "embedded_input_sentence"
  param {
    lr_mult: 1
  }
  embed_param {
    num_output: 500
    input_dim: 46168
    bias_term: false
    weight_filler {
      type: "uniform"
      min: -0.08
      max: 0.08
    }
  }
}
layer {
  name: "lstm1"
  type: "LSTM"
  bottom: "embedded_input_frames"
  bottom: "cont_sentence"
  top: "lstm1"
  recurrent_param {
    num_output: 1000
    weight_filler {
      type: "uniform"
      min: -0.08
      max: 0.08
    }
    bias_filler {
      type: "constant"
      value: 0
    }
  }
}
layer {
  name: "concat"
  type: "Concat"
  bottom: "lstm1"
  bottom: "embedded_input_sentence"
  bottom: "reshaped_stage_indicator"
  top: "lstm1_video_sequence"
  concat_param {
    concat_dim: 2
  }
}
layer {
  name: "lstm2"
  type: "LSTM"
  bottom: "lstm1_video_sequence"
  bottom: "cont_sentence"
  top: "lstm2"
  recurrent_param {
    num_output: 1000
    weight_filler {
      type: "uniform"
      min: -0.08
      max: 0.08
    }
    bias_filler {
      type: "constant"
      value: 0
    }
  }
}
layer {
  name: "predict"
  type: "InnerProduct"
  bottom: "lstm2"
  top: "predict"
  param {
    lr_mult: 1
    decay_mult: 1
  }
  param {
    lr_mult: 2
    decay_mult: 0
  }
  inner_product_param {
    num_output: 46168
    weight_filler {
      type: "uniform"
      min: -0.08
      max: 0.08
    }
    bias_filler {
      type: "constant"
      value: 0
    }
    axis: 2
  }
}
layer {
  name: "probs"
  type: "Softmax"
  bottom: "predict"
  top: "probs"
  softmax_param {
    axis: 2
  }
}
I0924 02:40:04.240641   312 upgrade_proto.cpp:69] Successfully upgraded file specified using deprecated input fields.
W0924 02:40:04.240782   312 upgrade_proto.cpp:71] Note that future Caffe releases will only support input layers and not input fields.
I0924 02:40:04.240993   306 layer_factory.hpp:77] Creating layer input
I0924 02:40:04.240995   330 layer_factory.hpp:77] Creating layer input
…
I0924 02:40:04.241178   330 net.cpp:399] input -> stage_indicator
I0924 02:40:04.241190   302 net.cpp:399] input -> stage_indicator
I0924 02:40:04.241417   312 net.cpp:49] Initializing net from parameters: 
name: "s2vt:features_to_lstm"
state {
  phase: TEST
}
layer {
  name: "input"
  type: "Input"
  top: "frames_fc7"
  top: "cont_sentence"
  top: "input_sentence"
  top: "stage_indicator"
  input_param {
    shape {
      dim: 1
      dim: 4096
    }
    shape {
      dim: 1
      dim: 1
    }
    shape {
      dim: 1
      dim: 1
    }
    shape {
      dim: 1
      dim: 1
    }
  }
}
layer {
  name: "embed_encoder"
  type: "InnerProduct"
  bottom: "frames_fc7"
  top: "embedded_in_frames"
  param {
    lr_mult: 1
    decay_mult: 1
  }
  param {
    lr_mult: 2
    decay_mult: 0
  }
  inner_product_param {
    num_output: 500
    weight_filler {
      type: "xavier"
    }
    bias_filler {
      type: "constant"
      value: 0.2
    }
  }
}
layer {
  name: "reshape_frames"
  type: "Reshape"
  bottom: "embedded_in_frames"
  top: "embedded_input_frames"
  reshape_param {
    shape {
      dim: 1
      dim: 1
      dim: 500
    }
  }
}
layer {
  name: "reshape_stage_indicator"
  type: "Reshape"
  bottom: "stage_indicator"
  top: "reshaped_stage_indicator"
  reshape_param {
    shape {
      dim: 1
      dim: 1
      dim: 1
    }
  }
}
layer {
  name: "embedding"
  type: "Embed"
  bottom: "input_sentence"
  top: "embedded_input_sentence"
  param {
    lr_mult: 1
  }
  embed_param {
    num_output: 500
    input_dim: 46168
    bias_term: false
    weight_filler {
      type: "uniform"
      min: -0.08
      max: 0.08
    }
  }
}
layer {
  name: "lstm1"
  type: "LSTM"
  bottom: "embedded_input_frames"
  bottom: "cont_sentence"
  top: "lstm1"
  recurrent_param {
    num_output: 1000
    weight_filler {
      type: "uniform"
      min: -0.08
      max: 0.08
    }
    bias_filler {
      type: "constant"
      value: 0
    }
  }
}
layer {
  name: "concat"
  type: "Concat"
  bottom: "lstm1"
  bottom: "embedded_input_sentence"
  bottom: "reshaped_stage_indicator"
  top: "lstm1_video_sequence"
  concat_param {
    concat_dim: 2
  }
}
layer {
  name: "lstm2"
  type: "LSTM"
  bottom: "lstm1_video_sequence"
  bottom: "cont_sentence"
  top: "lstm2"
  recurrent_param {
    num_output: 1000
    weight_filler {
      type: "uniform"
      min: -0.08
      max: 0.08
    }
    bias_filler {
      type: "constant"
      value: 0
    }
  }
}
layer {
  name: "predict"
  type: "InnerProduct"
  bottom: "lstm2"
  top: "predict"
  param {
    lr_mult: 1
    decay_mult: 1
  }
  param {
    lr_mult: 2
    decay_mult: 0
  }
  inner_product_param {
    num_output: 46168
    weight_filler {
      type: "uniform"
      min: -0.08
      max: 0.08
    }
    bias_filler {
      type: "constant"
      value: 0
    }
    axis: 2
  }
}
layer {
  name: "probs"
  type: "Softmax"
  bottom: "predict"
  top: "probs"
  softmax_param {
    axis: 2
  }
}
I0924 02:40:04.241528   312 layer_factory.hpp:77] Creating layer input
I0924 02:40:04.241544   312 net.cpp:91] Creating Layer input
I0924 02:40:04.241554   312 net.cpp:399] input -> frames_fc7
I0924 02:40:04.241570   312 net.cpp:399] input -> cont_sentence
I0924 02:40:04.241585   312 net.cpp:399] input -> input_sentence
I0924 02:40:04.241600   312 net.cpp:399] input -> stage_indicator
W0924 02:40:04.241137   324 upgrade_proto.cpp:71] Note that future Caffe releases will only support input layers and not input fields.
I0924 02:40:04.241902   324 net.cpp:49] Initializing net from parameters: 
name: "s2vt:features_to_lstm"
state {
  phase: TEST
}
layer {
  name: "input"
  type: "Input"
  top: "frames_fc7"
  top: "cont_sentence"
  top: "input_sentence"
  top: "stage_indicator"
  input_param {
    shape {
      dim: 1
      dim: 4096
    }
    shape {
      dim: 1
      dim: 1
    }
    shape {
      dim: 1
      dim: 1
    }
    shape {
      dim: 1
      dim: 1
    }
  }
}
layer {
  name: "embed_encoder"
  type: "InnerProduct"
  bottom: "frames_fc7"
  top: "embedded_in_frames"
  param {
    lr_mult: 1
    decay_mult: 1
  }
  param {
    lr_mult: 2
    decay_mult: 0
  }
  inner_product_param {
    num_output: 500
    weight_filler {
      type: "xavier"
    }
    bias_filler {
      type: "constant"
      value: 0.2
    }
  }
}
layer {
  name: "reshape_frames"
  type: "Reshape"
  bottom: "embedded_in_frames"
  top: "embedded_input_frames"
  reshape_param {
    shape {
      dim: 1
      dim: 1
      dim: 500
    }
  }
}
layer {
  name: "reshape_stage_indicator"
  type: "Reshape"
  bottom: "stage_indicator"
  top: "reshaped_stage_indicator"
  reshape_param {
    shape {
      dim: 1
      dim: 1
      dim: 1
    }
  }
}
layer {
  name: "embedding"
  type: "Embed"
  bottom: "input_sentence"
  top: "embedded_input_sentence"
  param {
    lr_mult: 1
  }
  embed_param {
    num_output: 500
    input_dim: 46168
    bias_term: false
    weight_filler {
      type: "uniform"
      min: -0.08
      max: 0.08
    }
  }
}
layer {
  name: "lstm1"
  type: "LSTM"
  bottom: "embedded_input_frames"
  bottom: "cont_sentence"
  top: "lstm1"
  recurrent_param {
    num_output: 1000
    weight_filler {
      type: "uniform"
      min: -0.08
      max: 0.08
    }
    bias_filler {
      type: "constant"
      value: 0
    }
  }
}
layer {
  name: "concat"
  type: "Concat"
  bottom: "lstm1"
  bottom: "embedded_input_sentence"
  bottom: "reshaped_stage_indicator"
  top: "lstm1_video_sequence"
  concat_param {
    concat_dim: 2
  }
}
layer {
  name: "lstm2"
  type: "LSTM"
  bottom: "lstm1_video_sequence"
  bottom: "cont_sentence"
  top: "lstm2"
  recurrent_param {
    num_output: 1000
    weight_filler {
      type: "uniform"
      min: -0.08
      max: 0.08
    }
    bias_filler {
      type: "constant"
      value: 0
    }
  }
}
layer {
  name: "predict"
  type: "InnerProduct"
  bottom: "lstm2"
  top: "predict"
  param {
    lr_mult: 1
    decay_mult: 1
  }
  param {
    lr_mult: 2
    decay_mult: 0
  }
  inner_product_param {
    num_output: 46168
    weight_filler {
      type: "uniform"
      min: -0.08
      max: 0.08
    }
    bias_filler {
      type: "constant"
      value: 0
    }
    axis: 2
  }
}
layer {
  name: "probs"
  type: "Softmax"
  bottom: "predict"
  top: "probs"
  softmax_param {
    axis: 2
  }
}
I0924 02:40:04.242015   324 layer_factory.hpp:77] Creating layer input
I0924 02:40:04.242030   324 net.cpp:91] Creating Layer input
I0924 02:40:04.242040   324 net.cpp:399] input -> frames_fc7
I0924 02:40:04.242056   324 net.cpp:399] input -> cont_sentence
I0924 02:40:04.242070   324 net.cpp:399] input -> input_sentence
I0924 02:40:04.242085   324 net.cpp:399] input -> stage_indicator
I0924 02:40:04.859551   310 net.cpp:141] Setting up data
I0924 02:40:04.859642   310 net.cpp:148] Top shape: 10 3 227 227 (1545870)
I0924 02:40:04.859653   310 net.cpp:156] Memory required for data: 6183480
I0924 02:40:04.859683   310 layer_factory.hpp:77] Creating layer conv1
I0924 02:40:04.859733   310 net.cpp:91] Creating Layer conv1
I0924 02:40:04.859750   310 net.cpp:425] conv1 <- data
I0924 02:40:04.859771   310 net.cpp:399] conv1 -> conv1
I0924 02:40:04.859788   306 net.cpp:141] Setting up input
I0924 02:40:04.859810   306 net.cpp:148] Top shape: 1 4096 (4096)
I0924 02:40:04.859820   306 net.cpp:148] Top shape: 1 1 (1)
I0924 02:40:04.859830   306 net.cpp:148] Top shape: 1 1 (1)
I0924 02:40:04.859839   306 net.cpp:148] Top shape: 1 1 (1)
I0924 02:40:04.859845   306 net.cpp:156] Memory required for data: 16396
I0924 02:40:04.859854   306 layer_factory.hpp:77] Creating layer cont_sentence_input_1_split
I0924 02:40:04.859879   306 net.cpp:91] Creating Layer cont_sentence_input_1_split
I0924 02:40:04.859889   306 net.cpp:425] cont_sentence_input_1_split <- cont_sentence
I0924 02:40:04.859917   306 net.cpp:399] cont_sentence_input_1_split -> cont_sentence_input_1_split_0
I0924 02:40:04.859936   306 net.cpp:399] cont_sentence_input_1_split -> cont_sentence_input_1_split_1
I0924 02:40:04.860055   312 net.cpp:141] Setting up input
I0924 02:40:04.860079   312 net.cpp:148] Top shape: 1 4096 (4096)
I0924 02:40:04.860091   312 net.cpp:148] Top shape: 1 1 (1)
I0924 02:40:04.860103   330 net.cpp:141] Setting up input
I0924 02:40:04.860101   312 net.cpp:148] Top shape: 1 1 (1)
I0924 02:40:04.860119   330 net.cpp:148] Top shape: 1 4096 (4096)
I0924 02:40:04.860142   330 net.cpp:148] Top shape: 1 1 (1)
I0924 02:40:04.860152   330 net.cpp:148] Top shape: 1 1 (1)
I0924 02:40:04.860162   330 net.cpp:148] Top shape: 1 1 (1)
I0924 02:40:04.860119   312 net.cpp:148] Top shape: 1 1 (1)
I0924 02:40:04.860175   330 net.cpp:156] Memory required for data: 16396
I0924 02:40:04.860179   312 net.cpp:156] Memory required for data: 16396
I0924 02:40:04.860185   330 layer_factory.hpp:77] Creating layer cont_sentence_input_1_split
I0924 02:40:04.860188   312 layer_factory.hpp:77] Creating layer cont_sentence_input_1_split
I0924 02:40:04.860200   312 net.cpp:91] Creating Layer cont_sentence_input_1_split
I0924 02:40:04.860218   312 net.cpp:425] cont_sentence_input_1_split <- cont_sentence
I0924 02:40:04.860200   330 net.cpp:91] Creating Layer cont_sentence_input_1_split
I0924 02:40:04.860234   312 net.cpp:399] cont_sentence_input_1_split -> cont_sentence_input_1_split_0
I0924 02:40:04.860237   330 net.cpp:425] cont_sentence_input_1_split <- cont_sentence
I0924 02:40:04.860231   306 net.cpp:141] Setting up cont_sentence_input_1_split
I0924 02:40:04.860263   312 net.cpp:399] cont_sentence_input_1_split -> cont_sentence_input_1_split_1
I0924 02:40:04.860250   330 net.cpp:399] cont_sentence_input_1_split -> cont_sentence_input_1_split_0
I0924 02:40:04.860273   302 net.cpp:141] Setting up input
I0924 02:40:04.860288   330 net.cpp:399] cont_sentence_input_1_split -> cont_sentence_input_1_split_1
I0924 02:40:04.860280   306 net.cpp:148] Top shape: 1 1 (1)
I0924 02:40:04.860162   324 net.cpp:141] Setting up input
I0924 02:40:04.860304   302 net.cpp:148] Top shape: 1 4096 (4096)
I0924 02:40:04.860314   324 net.cpp:148] Top shape: 1 4096 (4096)
I0924 02:40:04.860306   306 net.cpp:148] Top shape: 1 1 (1)
I0924 02:40:04.860332   302 net.cpp:148] Top shape: 1 1 (1)
I0924 02:40:04.860327   324 net.cpp:148] Top shape: 1 1 (1)
I0924 02:40:04.860340   306 net.cpp:156] Memory required for data: 16404
I0924 02:40:04.860342   302 net.cpp:148] Top shape: 1 1 (1)
I0924 02:40:04.860348   324 net.cpp:148] Top shape: 1 1 (1)
I0924 02:40:04.860350   306 layer_factory.hpp:77] Creating layer embed_encoder
I0924 02:40:04.860353   302 net.cpp:148] Top shape: 1 1 (1)
I0924 02:40:04.860359   324 net.cpp:148] Top shape: 1 1 (1)
I0924 02:40:04.860361   302 net.cpp:156] Memory required for data: 16396
I0924 02:40:04.860366   324 net.cpp:156] Memory required for data: 16396
I0924 02:40:04.860369   302 layer_factory.hpp:77] Creating layer cont_sentence_input_1_split
I0924 02:40:04.860373   324 layer_factory.hpp:77] Creating layer cont_sentence_input_1_split
I0924 02:40:04.860380   306 net.cpp:91] Creating Layer embed_encoder
I0924 02:40:04.860386   302 net.cpp:91] Creating Layer cont_sentence_input_1_split
I0924 02:40:04.860388   324 net.cpp:91] Creating Layer cont_sentence_input_1_split
I0924 02:40:04.860402   302 net.cpp:425] cont_sentence_input_1_split <- cont_sentence
I0924 02:40:04.860390   306 net.cpp:425] embed_encoder <- frames_fc7
I0924 02:40:04.860409   324 net.cpp:425] cont_sentence_input_1_split <- cont_sentence
I0924 02:40:04.860416   302 net.cpp:399] cont_sentence_input_1_split -> cont_sentence_input_1_split_0
I0924 02:40:04.860420   324 net.cpp:399] cont_sentence_input_1_split -> cont_sentence_input_1_split_0
I0924 02:40:04.860424   306 net.cpp:399] embed_encoder -> embedded_in_frames
I0924 02:40:04.860433   302 net.cpp:399] cont_sentence_input_1_split -> cont_sentence_input_1_split_1
I0924 02:40:04.860436   324 net.cpp:399] cont_sentence_input_1_split -> cont_sentence_input_1_split_1
I0924 02:40:04.860509   302 net.cpp:141] Setting up cont_sentence_input_1_split
I0924 02:40:04.860524   302 net.cpp:148] Top shape: 1 1 (1)
I0924 02:40:04.860534   302 net.cpp:148] Top shape: 1 1 (1)
I0924 02:40:04.860541   302 net.cpp:156] Memory required for data: 16404
I0924 02:40:04.860548   302 layer_factory.hpp:77] Creating layer embed_encoder
I0924 02:40:04.860561   312 net.cpp:141] Setting up cont_sentence_input_1_split
I0924 02:40:04.860566   302 net.cpp:91] Creating Layer embed_encoder
I0924 02:40:04.860574   312 net.cpp:148] Top shape: 1 1 (1)
I0924 02:40:04.860574   302 net.cpp:425] embed_encoder <- frames_fc7
I0924 02:40:04.860581   312 net.cpp:148] Top shape: 1 1 (1)
I0924 02:40:04.860586   312 net.cpp:156] Memory required for data: 16404
I0924 02:40:04.860589   302 net.cpp:399] embed_encoder -> embedded_in_frames
I0924 02:40:04.860594   312 layer_factory.hpp:77] Creating layer embed_encoder
I0924 02:40:04.860612   312 net.cpp:91] Creating Layer embed_encoder
I0924 02:40:04.860621   312 net.cpp:425] embed_encoder <- frames_fc7
I0924 02:40:04.860641   312 net.cpp:399] embed_encoder -> embedded_in_frames
I0924 02:40:04.865846   330 net.cpp:141] Setting up cont_sentence_input_1_split
I0924 02:40:04.865860   324 net.cpp:141] Setting up cont_sentence_input_1_split
I0924 02:40:04.865890   330 net.cpp:148] Top shape: 1 1 (1)
I0924 02:40:04.865890   324 net.cpp:148] Top shape: 1 1 (1)
I0924 02:40:04.865907   330 net.cpp:148] Top shape: 1 1 (1)
I0924 02:40:04.865907   324 net.cpp:148] Top shape: 1 1 (1)
I0924 02:40:04.865918   330 net.cpp:156] Memory required for data: 16404
I0924 02:40:04.865921   324 net.cpp:156] Memory required for data: 16404
I0924 02:40:04.865929   324 layer_factory.hpp:77] Creating layer embed_encoder
I0924 02:40:04.865929   330 layer_factory.hpp:77] Creating layer embed_encoder
I0924 02:40:04.865957   324 net.cpp:91] Creating Layer embed_encoder
I0924 02:40:04.865960   330 net.cpp:91] Creating Layer embed_encoder
I0924 02:40:04.865972   324 net.cpp:425] embed_encoder <- frames_fc7
I0924 02:40:04.865974   330 net.cpp:425] embed_encoder <- frames_fc7
I0924 02:40:04.865993   330 net.cpp:399] embed_encoder -> embedded_in_frames
I0924 02:40:04.865994   324 net.cpp:399] embed_encoder -> embedded_in_frames
I0924 02:40:04.897936   306 net.cpp:141] Setting up embed_encoder
I0924 02:40:04.898000   306 net.cpp:148] Top shape: 1 500 (500)
I0924 02:40:04.898013   306 net.cpp:156] Memory required for data: 18404
I0924 02:40:04.898062   306 layer_factory.hpp:77] Creating layer reshape_frames
I0924 02:40:04.898077   312 net.cpp:141] Setting up embed_encoder
I0924 02:40:04.898099   312 net.cpp:148] Top shape: 1 500 (500)
I0924 02:40:04.898107   306 net.cpp:91] Creating Layer reshape_frames
I0924 02:40:04.898108   312 net.cpp:156] Memory required for data: 18404
I0924 02:40:04.898128   306 net.cpp:425] reshape_frames <- embedded_in_frames
I0924 02:40:04.898141   312 layer_factory.hpp:77] Creating layer reshape_frames
I0924 02:40:04.898149   306 net.cpp:399] reshape_frames -> embedded_input_frames
I0924 02:40:04.898161   312 net.cpp:91] Creating Layer reshape_frames
I0924 02:40:04.898171   312 net.cpp:425] reshape_frames <- embedded_in_frames
I0924 02:40:04.898185   312 net.cpp:399] reshape_frames -> embedded_input_frames
I0924 02:40:04.898242   306 net.cpp:141] Setting up reshape_frames
I0924 02:40:04.898259   306 net.cpp:148] Top shape: 1 1 500 (500)
I0924 02:40:04.898268   306 net.cpp:156] Memory required for data: 20404
I0924 02:40:04.898277   306 layer_factory.hpp:77] Creating layer reshape_stage_indicator
I0924 02:40:04.898275   312 net.cpp:141] Setting up reshape_frames
I0924 02:40:04.898300   312 net.cpp:148] Top shape: 1 1 500 (500)
I0924 02:40:04.898300   306 net.cpp:91] Creating Layer reshape_stage_indicator
I0924 02:40:04.898308   312 net.cpp:156] Memory required for data: 20404
I0924 02:40:04.898313   306 net.cpp:425] reshape_stage_indicator <- stage_indicator
I0924 02:40:04.898318   312 layer_factory.hpp:77] Creating layer reshape_stage_indicator
I0924 02:40:04.898332   312 net.cpp:91] Creating Layer reshape_stage_indicator
I0924 02:40:04.898331   306 net.cpp:399] reshape_stage_indicator -> reshaped_stage_indicator
I0924 02:40:04.898349   312 net.cpp:425] reshape_stage_indicator <- stage_indicator
I0924 02:40:04.898365   312 net.cpp:399] reshape_stage_indicator -> reshaped_stage_indicator
I0924 02:40:04.898417   306 net.cpp:141] Setting up reshape_stage_indicator
I0924 02:40:04.898434   306 net.cpp:148] Top shape: 1 1 1 (1)
I0924 02:40:04.898442   306 net.cpp:156] Memory required for data: 20408
I0924 02:40:04.898450   306 layer_factory.hpp:77] Creating layer embedding
I0924 02:40:04.898455   312 net.cpp:141] Setting up reshape_stage_indicator
I0924 02:40:04.898470   312 net.cpp:148] Top shape: 1 1 1 (1)
I0924 02:40:04.898468   306 net.cpp:91] Creating Layer embedding
I0924 02:40:04.898484   312 net.cpp:156] Memory required for data: 20408
I0924 02:40:04.898499   306 net.cpp:425] embedding <- input_sentence
I0924 02:40:04.898501   312 layer_factory.hpp:77] Creating layer embedding
I0924 02:40:04.898521   306 net.cpp:399] embedding -> embedded_input_sentence
I0924 02:40:04.898524   312 net.cpp:91] Creating Layer embedding
I0924 02:40:04.898533   312 net.cpp:425] embedding <- input_sentence
I0924 02:40:04.898550   312 net.cpp:399] embedding -> embedded_input_sentence
I0924 02:40:04.985906   324 net.cpp:141] Setting up embed_encoder
I0924 02:40:04.985970   324 net.cpp:148] Top shape: 1 500 (500)
I0924 02:40:04.985981   324 net.cpp:156] Memory required for data: 18404
I0924 02:40:04.986012   324 layer_factory.hpp:77] Creating layer reshape_frames
I0924 02:40:04.986030   330 net.cpp:141] Setting up embed_encoder
I0924 02:40:04.986047   324 net.cpp:91] Creating Layer reshape_frames
I0924 02:40:04.986052   330 net.cpp:148] Top shape: 1 500 (500)
I0924 02:40:04.986060   330 net.cpp:156] Memory required for data: 18404
I0924 02:40:04.986062   324 net.cpp:425] reshape_frames <- embedded_in_frames
I0924 02:40:04.986081   330 layer_factory.hpp:77] Creating layer reshape_frames
I0924 02:40:04.986081   324 net.cpp:399] reshape_frames -> embedded_input_frames
I0924 02:40:04.986096   330 net.cpp:91] Creating Layer reshape_frames
I0924 02:40:04.986106   330 net.cpp:425] reshape_frames <- embedded_in_frames
I0924 02:40:04.986121   330 net.cpp:399] reshape_frames -> embedded_input_frames
I0924 02:40:04.986158   324 net.cpp:141] Setting up reshape_frames
I0924 02:40:04.986174   324 net.cpp:148] Top shape: 1 1 500 (500)
I0924 02:40:04.986181   324 net.cpp:156] Memory required for data: 20404
I0924 02:40:04.986187   324 layer_factory.hpp:77] Creating layer reshape_stage_indicator
I0924 02:40:04.986202   324 net.cpp:91] Creating Layer reshape_stage_indicator
I0924 02:40:04.986198   302 net.cpp:141] Setting up embed_encoder
I0924 02:40:04.986210   324 net.cpp:425] reshape_stage_indicator <- stage_indicator
I0924 02:40:04.986222   302 net.cpp:148] Top shape: 1 500 (500)
I0924 02:40:04.986223   324 net.cpp:399] reshape_stage_indicator -> reshaped_stage_indicator
I0924 02:40:04.986227   330 net.cpp:141] Setting up reshape_frames
I0924 02:40:04.986230   302 net.cpp:156] Memory required for data: 18404
I0924 02:40:04.986241   330 net.cpp:148] Top shape: 1 1 500 (500)
I0924 02:40:04.986248   330 net.cpp:156] Memory required for data: 20404
I0924 02:40:04.986253   302 layer_factory.hpp:77] Creating layer reshape_frames
I0924 02:40:04.986256   330 layer_factory.hpp:77] Creating layer reshape_stage_indicator
I0924 02:40:04.986271   330 net.cpp:91] Creating Layer reshape_stage_indicator
I0924 02:40:04.986277   324 net.cpp:141] Setting up reshape_stage_indicator
I0924 02:40:04.986271   302 net.cpp:91] Creating Layer reshape_frames
I0924 02:40:04.986294   324 net.cpp:148] Top shape: 1 1 1 (1)
I0924 02:40:04.986299   302 net.cpp:425] reshape_frames <- embedded_in_frames
I0924 02:40:04.986294   330 net.cpp:425] reshape_stage_indicator <- stage_indicator
I0924 02:40:04.986313   324 net.cpp:156] Memory required for data: 20408
I0924 02:40:04.986315   302 net.cpp:399] reshape_frames -> embedded_input_frames
I0924 02:40:04.986323   324 layer_factory.hpp:77] Creating layer embedding
I0924 02:40:04.986325   330 net.cpp:399] reshape_stage_indicator -> reshaped_stage_indicator
I0924 02:40:04.986346   324 net.cpp:91] Creating Layer embedding
I0924 02:40:04.986356   324 net.cpp:425] embedding <- input_sentence
I0924 02:40:04.986369   302 net.cpp:141] Setting up reshape_frames
I0924 02:40:04.986372   324 net.cpp:399] embedding -> embedded_input_sentence
I0924 02:40:04.986397   302 net.cpp:148] Top shape: 1 1 500 (500)
I0924 02:40:04.986405   302 net.cpp:156] Memory required for data: 20404
I0924 02:40:04.986407   330 net.cpp:141] Setting up reshape_stage_indicator
I0924 02:40:04.986413   302 layer_factory.hpp:77] Creating layer reshape_stage_indicator
I0924 02:40:04.986421   330 net.cpp:148] Top shape: 1 1 1 (1)
I0924 02:40:04.986429   330 net.cpp:156] Memory required for data: 20408
I0924 02:40:04.986429   302 net.cpp:91] Creating Layer reshape_stage_indicator
I0924 02:40:04.986436   330 layer_factory.hpp:77] Creating layer embedding
I0924 02:40:04.986438   302 net.cpp:425] reshape_stage_indicator <- stage_indicator
I0924 02:40:04.986451   330 net.cpp:91] Creating Layer embedding
I0924 02:40:04.986454   302 net.cpp:399] reshape_stage_indicator -> reshaped_stage_indicator
I0924 02:40:04.986460   330 net.cpp:425] embedding <- input_sentence
I0924 02:40:04.986474   330 net.cpp:399] embedding -> embedded_input_sentence
I0924 02:40:05.036085   302 net.cpp:141] Setting up reshape_stage_indicator
I0924 02:40:05.036142   302 net.cpp:148] Top shape: 1 1 1 (1)
I0924 02:40:05.036152   302 net.cpp:156] Memory required for data: 20408
I0924 02:40:05.036165   302 layer_factory.hpp:77] Creating layer embedding
I0924 02:40:05.036190   302 net.cpp:91] Creating Layer embedding
I0924 02:40:05.036201   302 net.cpp:425] embedding <- input_sentence
I0924 02:40:05.036226   302 net.cpp:399] embedding -> embedded_input_sentence
I0924 02:40:05.124351   312 net.cpp:141] Setting up embedding
I0924 02:40:05.124408   312 net.cpp:148] Top shape: 1 1 500 (500)
I0924 02:40:05.124416   312 net.cpp:156] Memory required for data: 22408
I0924 02:40:05.124442   312 layer_factory.hpp:77] Creating layer lstm1
I0924 02:40:05.124488   312 net.cpp:91] Creating Layer lstm1
I0924 02:40:05.124501   312 net.cpp:425] lstm1 <- embedded_input_frames
I0924 02:40:05.124514   312 net.cpp:425] lstm1 <- cont_sentence_input_1_split_0
I0924 02:40:05.124531   312 net.cpp:399] lstm1 -> lstm1
I0924 02:40:05.124570   312 recurrent_layer.cpp:20] Initializing recurrent layer: assuming input batch contains 1 timesteps of 1 independent streams.
I0924 02:40:05.125201   312 net.cpp:49] Initializing net from parameters: 
layer {
  name: "lstm1_"
  type: "Input"
  top: "x"
  top: "cont"
  input_param {
    shape {
      dim: 1
      dim: 1
      dim: 500
    }
    shape {
      dim: 1
      dim: 1
    }
  }
}
layer {
  name: "lstm1_"
  type: "Input"
  top: "c_0"
  top: "h_0"
  input_param {
    shape {
      dim: 1
      dim: 1
      dim: 1000
    }
    shape {
      dim: 1
      dim: 1
      dim: 1000
    }
  }
}
layer {
  name: "lstm1_cont_slice"
  type: "Slice"
  bottom: "cont"
  top: "cont_1"
  slice_param {
    axis: 0
  }
}
layer {
  name: "lstm1_x_transform"
  type: "InnerProduct"
  bottom: "x"
  top: "W_xc_x"
  param {
    name: "W_xc"
  }
  param {
    name: "b_c"
  }
  propagate_down: true
  inner_product_param {
    num_output: 4000
    bias_term: true
    weight_filler {
      type: "uniform"
      min: -0.08
      max: 0.08
    }
    bias_filler {
      type: "constant"
      value: 0
    }
    axis: 2
  }
}
layer {
  name: "lstm1_W_xc_x_slice"
  type: "Slice"
  bottom: "W_xc_x"
  top: "W_xc_x_1"
  slice_param {
    axis: 0
  }
}
layer {
  name: "lstm1_h_conted_0"
  type: "Scale"
  bottom: "h_0"
  bottom: "cont_1"
  top: "h_conted_0"
  scale_param {
    axis: 0
  }
}
layer {
  name: "lstm1_transform_1"
  type: "InnerProduct"
  bottom: "h_conted_0"
  top: "W_hc_h_0"
  param {
    name: "W_hc"
  }
  inner_product_param {
    num_output: 4000
    bias_term: false
    weight_filler {
      type: "uniform"
      min: -0.08
      max: 0.08
    }
    axis: 2
  }
}
layer {
  name: "lstm1_gate_input_1"
  type: "Eltwise"
  bottom: "W_hc_h_0"
  bottom: "W_xc_x_1"
  top: "gate_input_1"
  eltwise_param {
    operation: SUM
  }
}
layer {
  name: "lstm1_unit_1"
  type: "LSTMUnit"
  bottom: "c_0"
  bottom: "gate_input_1"
  bottom: "cont_1"
  top: "c_1"
  top: "h_1"
}
layer {
  name: "lstm1_"
  type: "Split"
  bottom: "c_1"
  top: "c_T"
}
layer {
  name: "lstm1_h_concat"
  type: "Concat"
  bottom: "h_1"
  top: "h"
  concat_param {
    axis: 0
  }
}
layer {
  name: "h_pseudoloss"
  type: "Reduction"
  bottom: "h"
  top: "h_pseudoloss"
  loss_weight: 1
}
I0924 02:40:05.125361   312 layer_factory.hpp:77] Creating layer lstm1_
I0924 02:40:05.125388   312 net.cpp:91] Creating Layer lstm1_
I0924 02:40:05.125402   312 net.cpp:399] lstm1_ -> x
I0924 02:40:05.125425   312 net.cpp:399] lstm1_ -> cont
I0924 02:40:05.126148   312 net.cpp:141] Setting up lstm1_
I0924 02:40:05.126173   312 net.cpp:148] Top shape: 1 1 500 (500)
I0924 02:40:05.126186   312 net.cpp:148] Top shape: 1 1 (1)
I0924 02:40:05.126196   312 net.cpp:156] Memory required for data: 2004
I0924 02:40:05.126205   312 layer_factory.hpp:77] Creating layer lstm1_
I0924 02:40:05.126231   312 net.cpp:91] Creating Layer lstm1_
I0924 02:40:05.126248   312 net.cpp:399] lstm1_ -> c_0
I0924 02:40:05.126269   312 net.cpp:399] lstm1_ -> h_0
I0924 02:40:05.131239   312 net.cpp:141] Setting up lstm1_
I0924 02:40:05.131299   312 net.cpp:148] Top shape: 1 1 1000 (1000)
I0924 02:40:05.131316   312 net.cpp:148] Top shape: 1 1 1000 (1000)
I0924 02:40:05.131325   312 net.cpp:156] Memory required for data: 10004
I0924 02:40:05.131340   312 layer_factory.hpp:77] Creating layer lstm1_cont_slice
I0924 02:40:05.131371   312 net.cpp:91] Creating Layer lstm1_cont_slice
I0924 02:40:05.131384   312 net.cpp:425] lstm1_cont_slice <- cont
I0924 02:40:05.131464   312 net.cpp:399] lstm1_cont_slice -> cont_1
I0924 02:40:05.145064   312 net.cpp:141] Setting up lstm1_cont_slice
I0924 02:40:05.145128   312 net.cpp:148] Top shape: 1 1 (1)
I0924 02:40:05.145140   312 net.cpp:156] Memory required for data: 10008
I0924 02:40:05.145155   312 layer_factory.hpp:77] Creating layer cont_1_lstm1_cont_slice_0_split
I0924 02:40:05.145190   312 net.cpp:91] Creating Layer cont_1_lstm1_cont_slice_0_split
I0924 02:40:05.145202   312 net.cpp:425] cont_1_lstm1_cont_slice_0_split <- cont_1
I0924 02:40:05.145221   312 net.cpp:399] cont_1_lstm1_cont_slice_0_split -> cont_1_lstm1_cont_slice_0_split_0
I0924 02:40:05.145248   312 net.cpp:399] cont_1_lstm1_cont_slice_0_split -> cont_1_lstm1_cont_slice_0_split_1
I0924 02:40:05.156100   312 net.cpp:141] Setting up cont_1_lstm1_cont_slice_0_split
I0924 02:40:05.156155   312 net.cpp:148] Top shape: 1 1 (1)
I0924 02:40:05.156167   312 net.cpp:148] Top shape: 1 1 (1)
I0924 02:40:05.156175   312 net.cpp:156] Memory required for data: 10016
I0924 02:40:05.156188   312 layer_factory.hpp:77] Creating layer lstm1_x_transform
I0924 02:40:05.156224   312 net.cpp:91] Creating Layer lstm1_x_transform
I0924 02:40:05.156236   312 net.cpp:425] lstm1_x_transform <- x
I0924 02:40:05.156262   312 net.cpp:399] lstm1_x_transform -> W_xc_x
I0924 02:40:05.184842   306 net.cpp:141] Setting up embedding
I0924 02:40:05.184891   306 net.cpp:148] Top shape: 1 1 500 (500)
I0924 02:40:05.184897   306 net.cpp:156] Memory required for data: 22408
I0924 02:40:05.184921   306 layer_factory.hpp:77] Creating layer lstm1
I0924 02:40:05.184947   306 net.cpp:91] Creating Layer lstm1
I0924 02:40:05.184957   306 net.cpp:425] lstm1 <- embedded_input_frames
I0924 02:40:05.184965   306 net.cpp:425] lstm1 <- cont_sentence_input_1_split_0
I0924 02:40:05.184978   306 net.cpp:399] lstm1 -> lstm1
I0924 02:40:05.185000   306 recurrent_layer.cpp:20] Initializing recurrent layer: assuming input batch contains 1 timesteps of 1 independent streams.
I0924 02:40:05.185349   306 net.cpp:49] Initializing net from parameters: 
layer {
  name: "lstm1_"
  type: "Input"
  top: "x"
  top: "cont"
  input_param {
    shape {
      dim: 1
      dim: 1
      dim: 500
    }
    shape {
      dim: 1
      dim: 1
    }
  }
}
layer {
  name: "lstm1_"
  type: "Input"
  top: "c_0"
  top: "h_0"
  input_param {
    shape {
      dim: 1
      dim: 1
      dim: 1000
    }
    shape {
      dim: 1
      dim: 1
      dim: 1000
    }
  }
}
layer {
  name: "lstm1_cont_slice"
  type: "Slice"
  bottom: "cont"
  top: "cont_1"
  slice_param {
    axis: 0
  }
}
layer {
  name: "lstm1_x_transform"
  type: "InnerProduct"
  bottom: "x"
  top: "W_xc_x"
  param {
    name: "W_xc"
  }
  param {
    name: "b_c"
  }
  propagate_down: true
  inner_product_param {
    num_output: 4000
    bias_term: true
    weight_filler {
      type: "uniform"
      min: -0.08
      max: 0.08
    }
    bias_filler {
      type: "constant"
      value: 0
    }
    axis: 2
  }
}
layer {
  name: "lstm1_W_xc_x_slice"
  type: "Slice"
  bottom: "W_xc_x"
  top: "W_xc_x_1"
  slice_param {
    axis: 0
  }
}
layer {
  name: "lstm1_h_conted_0"
  type: "Scale"
  bottom: "h_0"
  bottom: "cont_1"
  top: "h_conted_0"
  scale_param {
    axis: 0
  }
}
layer {
  name: "lstm1_transform_1"
  type: "InnerProduct"
  bottom: "h_conted_0"
  top: "W_hc_h_0"
  param {
    name: "W_hc"
  }
  inner_product_param {
    num_output: 4000
    bias_term: false
    weight_filler {
      type: "uniform"
      min: -0.08
      max: 0.08
    }
    axis: 2
  }
}
layer {
  name: "lstm1_gate_input_1"
  type: "Eltwise"
  bottom: "W_hc_h_0"
  bottom: "W_xc_x_1"
  top: "gate_input_1"
  eltwise_param {
    operation: SUM
  }
}
layer {
  name: "lstm1_unit_1"
  type: "LSTMUnit"
  bottom: "c_0"
  bottom: "gate_input_1"
  bottom: "cont_1"
  top: "c_1"
  top: "h_1"
}
layer {
  name: "lstm1_"
  type: "Split"
  bottom: "c_1"
  top: "c_T"
}
layer {
  name: "lstm1_h_concat"
  type: "Concat"
  bottom: "h_1"
  top: "h"
  concat_param {
    axis: 0
  }
}
layer {
  name: "h_pseudoloss"
  type: "Reduction"
  bottom: "h"
  top: "h_pseudoloss"
  loss_weight: 1
}
I0924 02:40:05.185446   306 layer_factory.hpp:77] Creating layer lstm1_
I0924 02:40:05.185458   306 net.cpp:91] Creating Layer lstm1_
I0924 02:40:05.185466   306 net.cpp:399] lstm1_ -> x
I0924 02:40:05.185477   306 net.cpp:399] lstm1_ -> cont
I0924 02:40:05.188115   312 net.cpp:141] Setting up lstm1_x_transform
I0924 02:40:05.188143   312 net.cpp:148] Top shape: 1 1 4000 (4000)
I0924 02:40:05.188153   312 net.cpp:156] Memory required for data: 26016
I0924 02:40:05.188176   312 layer_factory.hpp:77] Creating layer lstm1_W_xc_x_slice
I0924 02:40:05.188182   306 net.cpp:141] Setting up lstm1_
I0924 02:40:05.188200   306 net.cpp:148] Top shape: 1 1 500 (500)
I0924 02:40:05.188199   312 net.cpp:91] Creating Layer lstm1_W_xc_x_slice
I0924 02:40:05.188207   306 net.cpp:148] Top shape: 1 1 (1)
I0924 02:40:05.188212   306 net.cpp:156] Memory required for data: 2004
I0924 02:40:05.188212   312 net.cpp:425] lstm1_W_xc_x_slice <- W_xc_x
I0924 02:40:05.188220   306 layer_factory.hpp:77] Creating layer lstm1_
I0924 02:40:05.188230   306 net.cpp:91] Creating Layer lstm1_
I0924 02:40:05.188236   312 net.cpp:399] lstm1_W_xc_x_slice -> W_xc_x_1
I0924 02:40:05.188241   306 net.cpp:399] lstm1_ -> c_0
I0924 02:40:05.188266   306 net.cpp:399] lstm1_ -> h_0
I0924 02:40:05.188845   312 net.cpp:141] Setting up lstm1_W_xc_x_slice
I0924 02:40:05.188865   312 net.cpp:148] Top shape: 1 1 4000 (4000)
I0924 02:40:05.188875   312 net.cpp:156] Memory required for data: 42016
I0924 02:40:05.188884   312 layer_factory.hpp:77] Creating layer lstm1_h_conted_0
I0924 02:40:05.188910   306 net.cpp:141] Setting up lstm1_
I0924 02:40:05.188915   312 net.cpp:91] Creating Layer lstm1_h_conted_0
I0924 02:40:05.188933   306 net.cpp:148] Top shape: 1 1 1000 (1000)
I0924 02:40:05.188940   312 net.cpp:425] lstm1_h_conted_0 <- h_0
I0924 02:40:05.188941   306 net.cpp:148] Top shape: 1 1 1000 (1000)
I0924 02:40:05.188964   312 net.cpp:425] lstm1_h_conted_0 <- cont_1_lstm1_cont_slice_0_split_0
I0924 02:40:05.188964   306 net.cpp:156] Memory required for data: 10004
I0924 02:40:05.188989   306 layer_factory.hpp:77] Creating layer lstm1_cont_slice
I0924 02:40:05.188992   312 net.cpp:399] lstm1_h_conted_0 -> h_conted_0
I0924 02:40:05.189003   306 net.cpp:91] Creating Layer lstm1_cont_slice
I0924 02:40:05.189009   306 net.cpp:425] lstm1_cont_slice <- cont
I0924 02:40:05.189019   306 net.cpp:399] lstm1_cont_slice -> cont_1
I0924 02:40:05.189149   306 net.cpp:141] Setting up lstm1_cont_slice
I0924 02:40:05.189160   306 net.cpp:148] Top shape: 1 1 (1)
I0924 02:40:05.189164   306 net.cpp:156] Memory required for data: 10008
I0924 02:40:05.189169   306 layer_factory.hpp:77] Creating layer cont_1_lstm1_cont_slice_0_split
I0924 02:40:05.189182   306 net.cpp:91] Creating Layer cont_1_lstm1_cont_slice_0_split
I0924 02:40:05.189187   306 net.cpp:425] cont_1_lstm1_cont_slice_0_split <- cont_1
I0924 02:40:05.189193   306 net.cpp:399] cont_1_lstm1_cont_slice_0_split -> cont_1_lstm1_cont_slice_0_split_0
I0924 02:40:05.189203   306 net.cpp:399] cont_1_lstm1_cont_slice_0_split -> cont_1_lstm1_cont_slice_0_split_1
I0924 02:40:05.189817   312 net.cpp:141] Setting up lstm1_h_conted_0
I0924 02:40:05.189834   306 net.cpp:141] Setting up cont_1_lstm1_cont_slice_0_split
I0924 02:40:05.189838   312 net.cpp:148] Top shape: 1 1 1000 (1000)
I0924 02:40:05.189847   306 net.cpp:148] Top shape: 1 1 (1)
I0924 02:40:05.189849   312 net.cpp:156] Memory required for data: 46016
I0924 02:40:05.189853   306 net.cpp:148] Top shape: 1 1 (1)
I0924 02:40:05.189858   306 net.cpp:156] Memory required for data: 10016
I0924 02:40:05.189860   312 layer_factory.hpp:77] Creating layer lstm1_transform_1
I0924 02:40:05.189863   306 layer_factory.hpp:77] Creating layer lstm1_x_transform
I0924 02:40:05.189885   306 net.cpp:91] Creating Layer lstm1_x_transform
I0924 02:40:05.189887   312 net.cpp:91] Creating Layer lstm1_transform_1
I0924 02:40:05.189891   306 net.cpp:425] lstm1_x_transform <- x
I0924 02:40:05.189903   312 net.cpp:425] lstm1_transform_1 <- h_conted_0
I0924 02:40:05.189911   306 net.cpp:399] lstm1_x_transform -> W_xc_x
I0924 02:40:05.189929   312 net.cpp:399] lstm1_transform_1 -> W_hc_h_0
I0924 02:40:05.230314   324 net.cpp:141] Setting up embedding
I0924 02:40:05.230427   306 net.cpp:141] Setting up lstm1_x_transform
I0924 02:40:05.231096   324 net.cpp:148] Top shape: 1 1 500 (500)
I0924 02:40:05.231384   306 net.cpp:148] Top shape: 1 1 4000 (4000)
I0924 02:40:05.231564   324 net.cpp:156] Memory required for data: 22408
I0924 02:40:05.231744   306 net.cpp:156] Memory required for data: 26016
I0924 02:40:05.231940   324 layer_factory.hpp:77] Creating layer lstm1
I0924 02:40:05.232082   306 layer_factory.hpp:77] Creating layer lstm1_W_xc_x_slice
I0924 02:40:05.232342   324 net.cpp:91] Creating Layer lstm1
I0924 02:40:05.232590   324 net.cpp:425] lstm1 <- embedded_input_frames
I0924 02:40:05.232607   324 net.cpp:425] lstm1 <- cont_sentence_input_1_split_0
I0924 02:40:05.232632   324 net.cpp:399] lstm1 -> lstm1
I0924 02:40:05.232661   324 recurrent_layer.cpp:20] Initializing recurrent layer: assuming input batch contains 1 timesteps of 1 independent streams.
I0924 02:40:05.233204   324 net.cpp:49] Initializing net from parameters: 
layer {
  name: "lstm1_"
  type: "Input"
  top: "x"
  top: "cont"
  input_param {
    shape {
      dim: 1
      dim: 1
      dim: 500
    }
    shape {
      dim: 1
      dim: 1
    }
  }
}
layer {
  name: "lstm1_"
  type: "Input"
  top: "c_0"
  top: "h_0"
  input_param {
    shape {
      dim: 1
      dim: 1
      dim: 1000
    }
    shape {
      dim: 1
      dim: 1
      dim: 1000
    }
  }
}
layer {
  name: "lstm1_cont_slice"
  type: "Slice"
  bottom: "cont"
  top: "cont_1"
  slice_param {
    axis: 0
  }
}
layer {
  name: "lstm1_x_transform"
  type: "InnerProduct"
  bottom: "x"
  top: "W_xc_x"
  param {
    name: "W_xc"
  }
  param {
    name: "b_c"
  }
  propagate_down: true
  inner_product_param {
    num_output: 4000
    bias_term: true
    weight_filler {
      type: "uniform"
      min: -0.08
      max: 0.08
    }
    bias_filler {
      type: "constant"
      value: 0
    }
    axis: 2
  }
}
layer {
  name: "lstm1_W_xc_x_slice"
  type: "Slice"
  bottom: "W_xc_x"
  top: "W_xc_x_1"
  slice_param {
    axis: 0
  }
}
layer {
  name: "lstm1_h_conted_0"
  type: "Scale"
  bottom: "h_0"
  bottom: "cont_1"
  top: "h_conted_0"
  scale_param {
    axis: 0
  }
}
layer {
  name: "lstm1_transform_1"
  type: "InnerProduct"
  bottom: "h_conted_0"
  top: "W_hc_h_0"
  param {
    name: "W_hc"
  }
  inner_product_param {
    num_output: 4000
    bias_term: false
    weight_filler {
      type: "uniform"
      min: -0.08
      max: 0.08
    }
    axis: 2
  }
}
layer {
  name: "lstm1_gate_input_1"
  type: "Eltwise"
  bottom: "W_hc_h_0"
  bottom: "W_xc_x_1"
  top: "gate_input_1"
  eltwise_param {
    operation: SUM
  }
}
layer {
  name: "lstm1_unit_1"
  type: "LSTMUnit"
  bottom: "c_0"
  bottom: "gate_input_1"
  bottom: "cont_1"
  top: "c_1"
  top: "h_1"
}
layer {
  name: "lstm1_"
  type: "Split"
  bottom: "c_1"
  top: "c_T"
}
layer {
  name: "lstm1_h_concat"
  type: "Concat"
  bottom: "h_1"
  top: "h"
  concat_param {
    axis: 0
  }
}
layer {
  name: "h_pseudoloss"
  type: "Reduction"
  bottom: "h"
  top: "h_pseudoloss"
  loss_weight: 1
}
I0924 02:40:05.233337   324 layer_factory.hpp:77] Creating layer lstm1_
I0924 02:40:05.233357   324 net.cpp:91] Creating Layer lstm1_
I0924 02:40:05.233367   324 net.cpp:399] lstm1_ -> x
I0924 02:40:05.233386   324 net.cpp:399] lstm1_ -> cont
I0924 02:40:05.234011   324 net.cpp:141] Setting up lstm1_
I0924 02:40:05.234066   324 net.cpp:148] Top shape: 1 1 500 (500)
I0924 02:40:05.234081   324 net.cpp:148] Top shape: 1 1 (1)
I0924 02:40:05.234088   324 net.cpp:156] Memory required for data: 2004
I0924 02:40:05.234097   324 layer_factory.hpp:77] Creating layer lstm1_
I0924 02:40:05.234112   324 net.cpp:91] Creating Layer lstm1_
I0924 02:40:05.234127   324 net.cpp:399] lstm1_ -> c_0
I0924 02:40:05.234144   324 net.cpp:399] lstm1_ -> h_0
I0924 02:40:05.235162   306 net.cpp:91] Creating Layer lstm1_W_xc_x_slice
I0924 02:40:05.235180   306 net.cpp:425] lstm1_W_xc_x_slice <- W_xc_x
I0924 02:40:05.235198   306 net.cpp:399] lstm1_W_xc_x_slice -> W_xc_x_1
I0924 02:40:05.235676   324 net.cpp:141] Setting up lstm1_
I0924 02:40:05.235692   324 net.cpp:148] Top shape: 1 1 1000 (1000)
I0924 02:40:05.235698   324 net.cpp:148] Top shape: 1 1 1000 (1000)
I0924 02:40:05.235702   324 net.cpp:156] Memory required for data: 10004
I0924 02:40:05.235709   324 layer_factory.hpp:77] Creating layer lstm1_cont_slice
I0924 02:40:05.235718   306 net.cpp:141] Setting up lstm1_W_xc_x_slice
I0924 02:40:05.235723   324 net.cpp:91] Creating Layer lstm1_cont_slice
I0924 02:40:05.235739   306 net.cpp:148] Top shape: 1 1 4000 (4000)
I0924 02:40:05.235743   324 net.cpp:425] lstm1_cont_slice <- cont
I0924 02:40:05.235745   306 net.cpp:156] Memory required for data: 42016
I0924 02:40:05.235760   306 layer_factory.hpp:77] Creating layer lstm1_h_conted_0
I0924 02:40:05.235762   324 net.cpp:399] lstm1_cont_slice -> cont_1
I0924 02:40:05.235776   306 net.cpp:91] Creating Layer lstm1_h_conted_0
I0924 02:40:05.235783   306 net.cpp:425] lstm1_h_conted_0 <- h_0
I0924 02:40:05.235790   306 net.cpp:425] lstm1_h_conted_0 <- cont_1_lstm1_cont_slice_0_split_0
I0924 02:40:05.235798   306 net.cpp:399] lstm1_h_conted_0 -> h_conted_0
I0924 02:40:05.236410   324 net.cpp:141] Setting up lstm1_cont_slice
I0924 02:40:05.236424   324 net.cpp:148] Top shape: 1 1 (1)
I0924 02:40:05.236429   324 net.cpp:156] Memory required for data: 10008
I0924 02:40:05.236434   324 layer_factory.hpp:77] Creating layer cont_1_lstm1_cont_slice_0_split
I0924 02:40:05.236445   324 net.cpp:91] Creating Layer cont_1_lstm1_cont_slice_0_split
I0924 02:40:05.236451   324 net.cpp:425] cont_1_lstm1_cont_slice_0_split <- cont_1
I0924 02:40:05.236459   324 net.cpp:399] cont_1_lstm1_cont_slice_0_split -> cont_1_lstm1_cont_slice_0_split_0
I0924 02:40:05.236471   324 net.cpp:399] cont_1_lstm1_cont_slice_0_split -> cont_1_lstm1_cont_slice_0_split_1
I0924 02:40:05.236590   324 net.cpp:141] Setting up cont_1_lstm1_cont_slice_0_split
I0924 02:40:05.236604   324 net.cpp:148] Top shape: 1 1 (1)
I0924 02:40:05.236610   324 net.cpp:148] Top shape: 1 1 (1)
I0924 02:40:05.236615   324 net.cpp:156] Memory required for data: 10016
I0924 02:40:05.236621   324 layer_factory.hpp:77] Creating layer lstm1_x_transform
I0924 02:40:05.236631   306 net.cpp:141] Setting up lstm1_h_conted_0
I0924 02:40:05.236640   324 net.cpp:91] Creating Layer lstm1_x_transform
I0924 02:40:05.236649   306 net.cpp:148] Top shape: 1 1 1000 (1000)
I0924 02:40:05.236649   324 net.cpp:425] lstm1_x_transform <- x
I0924 02:40:05.236654   306 net.cpp:156] Memory required for data: 46016
I0924 02:40:05.236660   306 layer_factory.hpp:77] Creating layer lstm1_transform_1
I0924 02:40:05.236670   306 net.cpp:91] Creating Layer lstm1_transform_1
I0924 02:40:05.236670   324 net.cpp:399] lstm1_x_transform -> W_xc_x
I0924 02:40:05.236683   306 net.cpp:425] lstm1_transform_1 <- h_conted_0
I0924 02:40:05.236701   306 net.cpp:399] lstm1_transform_1 -> W_hc_h_0
I0924 02:40:05.252095   312 net.cpp:141] Setting up lstm1_transform_1
I0924 02:40:05.252145   312 net.cpp:148] Top shape: 1 1 4000 (4000)
I0924 02:40:05.252151   312 net.cpp:156] Memory required for data: 62016
I0924 02:40:05.252176   312 layer_factory.hpp:77] Creating layer lstm1_gate_input_1
I0924 02:40:05.252202   312 net.cpp:91] Creating Layer lstm1_gate_input_1
I0924 02:40:05.252208   312 net.cpp:425] lstm1_gate_input_1 <- W_hc_h_0
I0924 02:40:05.252218   312 net.cpp:425] lstm1_gate_input_1 <- W_xc_x_1
I0924 02:40:05.252225   312 net.cpp:399] lstm1_gate_input_1 -> gate_input_1
I0924 02:40:05.262236   312 net.cpp:141] Setting up lstm1_gate_input_1
I0924 02:40:05.262295   312 net.cpp:148] Top shape: 1 1 4000 (4000)
I0924 02:40:05.262306   312 net.cpp:156] Memory required for data: 78016
I0924 02:40:05.262318   312 layer_factory.hpp:77] Creating layer lstm1_unit_1
I0924 02:40:05.262434   324 net.cpp:141] Setting up lstm1_x_transform
I0924 02:40:05.262454   324 net.cpp:148] Top shape: 1 1 4000 (4000)
I0924 02:40:05.262462   324 net.cpp:156] Memory required for data: 26016
I0924 02:40:05.262491   324 layer_factory.hpp:77] Creating layer lstm1_W_xc_x_slice
I0924 02:40:05.262517   324 net.cpp:91] Creating Layer lstm1_W_xc_x_slice
I0924 02:40:05.262529   324 net.cpp:425] lstm1_W_xc_x_slice <- W_xc_x
I0924 02:40:05.262552   324 net.cpp:399] lstm1_W_xc_x_slice -> W_xc_x_1
I0924 02:40:05.262715   312 net.cpp:91] Creating Layer lstm1_unit_1
I0924 02:40:05.262734   312 net.cpp:425] lstm1_unit_1 <- c_0
I0924 02:40:05.262748   312 net.cpp:425] lstm1_unit_1 <- gate_input_1
I0924 02:40:05.262754   312 net.cpp:425] lstm1_unit_1 <- cont_1_lstm1_cont_slice_0_split_1
I0924 02:40:05.262769   312 net.cpp:399] lstm1_unit_1 -> c_1
I0924 02:40:05.262794   312 net.cpp:399] lstm1_unit_1 -> h_1
I0924 02:40:05.265714   324 net.cpp:141] Setting up lstm1_W_xc_x_slice
I0924 02:40:05.265748   324 net.cpp:148] Top shape: 1 1 4000 (4000)
I0924 02:40:05.265758   324 net.cpp:156] Memory required for data: 42016
I0924 02:40:05.265766   324 layer_factory.hpp:77] Creating layer lstm1_h_conted_0
I0924 02:40:05.265786   324 net.cpp:91] Creating Layer lstm1_h_conted_0
I0924 02:40:05.265797   324 net.cpp:425] lstm1_h_conted_0 <- h_0
I0924 02:40:05.265810   324 net.cpp:425] lstm1_h_conted_0 <- cont_1_lstm1_cont_slice_0_split_0
I0924 02:40:05.265818   312 net.cpp:141] Setting up lstm1_unit_1
I0924 02:40:05.265823   324 net.cpp:399] lstm1_h_conted_0 -> h_conted_0
I0924 02:40:05.265835   312 net.cpp:148] Top shape: 1 1 1000 (1000)
I0924 02:40:05.265846   312 net.cpp:148] Top shape: 1 1 1000 (1000)
I0924 02:40:05.265853   312 net.cpp:156] Memory required for data: 86016
I0924 02:40:05.265861   312 layer_factory.hpp:77] Creating layer lstm1_
I0924 02:40:05.265877   312 net.cpp:91] Creating Layer lstm1_
I0924 02:40:05.265885   312 net.cpp:425] lstm1_ <- c_1
I0924 02:40:05.265898   312 net.cpp:399] lstm1_ -> c_T
I0924 02:40:05.269564   312 net.cpp:141] Setting up lstm1_
I0924 02:40:05.269616   312 net.cpp:148] Top shape: 1 1 1000 (1000)
I0924 02:40:05.269629   312 net.cpp:156] Memory required for data: 90016
I0924 02:40:05.269640   312 layer_factory.hpp:77] Creating layer lstm1_h_concat
I0924 02:40:05.269661   324 net.cpp:141] Setting up lstm1_h_conted_0
I0924 02:40:05.269667   312 net.cpp:91] Creating Layer lstm1_h_concat
I0924 02:40:05.269677   312 net.cpp:425] lstm1_h_concat <- h_1
I0924 02:40:05.269678   324 net.cpp:148] Top shape: 1 1 1000 (1000)
I0924 02:40:05.269686   324 net.cpp:156] Memory required for data: 46016
I0924 02:40:05.269693   312 net.cpp:399] lstm1_h_concat -> h
I0924 02:40:05.269695   324 layer_factory.hpp:77] Creating layer lstm1_transform_1
I0924 02:40:05.269729   324 net.cpp:91] Creating Layer lstm1_transform_1
I0924 02:40:05.269742   324 net.cpp:425] lstm1_transform_1 <- h_conted_0
I0924 02:40:05.269762   324 net.cpp:399] lstm1_transform_1 -> W_hc_h_0
I0924 02:40:05.269764   312 net.cpp:141] Setting up lstm1_h_concat
I0924 02:40:05.269778   312 net.cpp:148] Top shape: 1 1 1000 (1000)
I0924 02:40:05.269784   312 net.cpp:156] Memory required for data: 94016
I0924 02:40:05.269793   312 layer_factory.hpp:77] Creating layer h_pseudoloss
I0924 02:40:05.269817   312 net.cpp:91] Creating Layer h_pseudoloss
I0924 02:40:05.269824   312 net.cpp:425] h_pseudoloss <- h
I0924 02:40:05.269831   312 net.cpp:399] h_pseudoloss -> h_pseudoloss
I0924 02:40:05.285500   306 net.cpp:141] Setting up lstm1_transform_1
I0924 02:40:05.285549   306 net.cpp:148] Top shape: 1 1 4000 (4000)
I0924 02:40:05.285557   306 net.cpp:156] Memory required for data: 62016
I0924 02:40:05.285581   306 layer_factory.hpp:77] Creating layer lstm1_gate_input_1
I0924 02:40:05.285572   312 net.cpp:141] Setting up h_pseudoloss
I0924 02:40:05.285609   306 net.cpp:91] Creating Layer lstm1_gate_input_1
I0924 02:40:05.285616   312 net.cpp:148] Top shape: (1)
I0924 02:40:05.285617   306 net.cpp:425] lstm1_gate_input_1 <- W_hc_h_0
…
I0924 02:40:05.285850   312 net.cpp:219] lstm1_ does not need backward computation.
I0924 02:40:05.285856   312 net.cpp:261] This network produces output c_T
I0924 02:40:05.285868   312 net.cpp:261] This network produces output h_pseudoloss
I0924 02:40:05.285905   312 net.cpp:274] Network initialization done.
I0924 02:40:05.286020   312 recurrent_layer.cpp:150] Adding parameter 0: W_xc
I0924 02:40:05.286031   312 recurrent_layer.cpp:150] Adding parameter 1: b_c
I0924 02:40:05.286036   312 recurrent_layer.cpp:150] Adding parameter 2: W_hc
I0924 02:40:05.291235   306 net.cpp:141] Setting up lstm1_gate_input_1
I0924 02:40:05.291287   306 net.cpp:148] Top shape: 1 1 4000 (4000)
I0924 02:40:05.291295   306 net.cpp:156] Memory required for data: 78016
I0924 02:40:05.291304   306 layer_factory.hpp:77] Creating layer lstm1_unit_1
I0924 02:40:05.291324   306 net.cpp:91] Creating Layer lstm1_unit_1
I0924 02:40:05.291332   306 net.cpp:425] lstm1_unit_1 <- c_0
I0924 02:40:05.291342   306 net.cpp:425] lstm1_unit_1 <- gate_input_1
I0924 02:40:05.291348   306 net.cpp:425] lstm1_unit_1 <- cont_1_lstm1_cont_slice_0_split_1
I0924 02:40:05.291357   306 net.cpp:399] lstm1_unit_1 -> c_1
I0924 02:40:05.291371   306 net.cpp:399] lstm1_unit_1 -> h_1
I0924 02:40:05.291497   306 net.cpp:141] Setting up lstm1_unit_1
I0924 02:40:05.291508   306 net.cpp:148] Top shape: 1 1 1000 (1000)
I0924 02:40:05.291514   306 net.cpp:148] Top shape: 1 1 1000 (1000)
I0924 02:40:05.291518   306 net.cpp:156] Memory required for data: 86016
I0924 02:40:05.291523   306 layer_factory.hpp:77] Creating layer lstm1_
I0924 02:40:05.291535   306 net.cpp:91] Creating Layer lstm1_
I0924 02:40:05.291540   306 net.cpp:425] lstm1_ <- c_1
I0924 02:40:05.291548   306 net.cpp:399] lstm1_ -> c_T
I0924 02:40:05.291574   312 net.cpp:141] Setting up lstm1
I0924 02:40:05.291607   306 net.cpp:141] Setting up lstm1_
I0924 02:40:05.291615   312 net.cpp:148] Top shape: 1 1 1000 (1000)
I0924 02:40:05.291618   306 net.cpp:148] Top shape: 1 1 1000 (1000)
I0924 02:40:05.291621   312 net.cpp:156] Memory required for data: 26408
I0924 02:40:05.291625   306 net.cpp:156] Memory required for data: 90016
I0924 02:40:05.291630   306 layer_factory.hpp:77] Creating layer lstm1_h_concat
I0924 02:40:05.291641   306 net.cpp:91] Creating Layer lstm1_h_concat
I0924 02:40:05.291642   312 layer_factory.hpp:77] Creating layer concat
I0924 02:40:05.291647   306 net.cpp:425] lstm1_h_concat <- h_1
I0924 02:40:05.291658   306 net.cpp:399] lstm1_h_concat -> h
I0924 02:40:05.291659   312 net.cpp:91] Creating Layer concat
I0924 02:40:05.291682   312 net.cpp:425] concat <- lstm1
I0924 02:40:05.291690   312 net.cpp:425] concat <- embedded_input_sentence
I0924 02:40:05.291697   312 net.cpp:425] concat <- reshaped_stage_indicator
I0924 02:40:05.291707   312 net.cpp:399] concat -> lstm1_video_sequence
I0924 02:40:05.291707   306 net.cpp:141] Setting up lstm1_h_concat
I0924 02:40:05.291718   306 net.cpp:148] Top shape: 1 1 1000 (1000)
I0924 02:40:05.291721   306 net.cpp:156] Memory required for data: 94016
I0924 02:40:05.291726   306 layer_factory.hpp:77] Creating layer h_pseudoloss
I0924 02:40:05.291735   306 net.cpp:91] Creating Layer h_pseudoloss
I0924 02:40:05.291740   306 net.cpp:425] h_pseudoloss <- h
I0924 02:40:05.291748   306 net.cpp:399] h_pseudoloss -> h_pseudoloss
I0924 02:40:05.291774   312 net.cpp:141] Setting up concat
I0924 02:40:05.291785   312 net.cpp:148] Top shape: 1 1 1501 (1501)
I0924 02:40:05.291790   312 net.cpp:156] Memory required for data: 32412
I0924 02:40:05.291795   312 layer_factory.hpp:77] Creating layer lstm2
I0924 02:40:05.291810   312 net.cpp:91] Creating Layer lstm2
I0924 02:40:05.291815   312 net.cpp:425] lstm2 <- lstm1_video_sequence
I0924 02:40:05.291822   312 net.cpp:425] lstm2 <- cont_sentence_input_1_split_1
I0924 02:40:05.291831   312 net.cpp:399] lstm2 -> lstm2
…
I0924 02:40:05.292089   306 recurrent_layer.cpp:150] Adding parameter 2: W_hc
I0924 02:40:05.292142   312 net.cpp:49] Initializing net from parameters: 
layer {
  name: "lstm2_"
  type: "Input"
  top: "x"
  top: "cont"
  input_param {
    shape {
      dim: 1
      dim: 1
      dim: 1501
    }
    shape {
      dim: 1
      dim: 1
    }
  }
}
layer {
  name: "lstm2_"
  type: "Input"
  top: "c_0"
  top: "h_0"
  input_param {
    shape {
      dim: 1
      dim: 1
      dim: 1000
    }
    shape {
      dim: 1
      dim: 1
      dim: 1000
    }
  }
}
layer {
  name: "lstm2_cont_slice"
  type: "Slice"
  bottom: "cont"
  top: "cont_1"
  slice_param {
    axis: 0
  }
}
layer {
  name: "lstm2_x_transform"
  type: "InnerProduct"
  bottom: "x"
  top: "W_xc_x"
  param {
    name: "W_xc"
  }
  param {
    name: "b_c"
  }
  propagate_down: true
  inner_product_param {
    num_output: 4000
    bias_term: true
    weight_filler {
      type: "uniform"
      min: -0.08
      max: 0.08
    }
    bias_filler {
      type: "constant"
      value: 0
    }
    axis: 2
  }
}
layer {
  name: "lstm2_W_xc_x_slice"
  type: "Slice"
  bottom: "W_xc_x"
  top: "W_xc_x_1"
  slice_param {
    axis: 0
  }
}
layer {
  name: "lstm2_h_conted_0"
  type: "Scale"
  bottom: "h_0"
  bottom: "cont_1"
  top: "h_conted_0"
  scale_param {
    axis: 0
  }
}
layer {
  name: "lstm2_transform_1"
  type: "InnerProduct"
  bottom: "h_conted_0"
  top: "W_hc_h_0"
  param {
    name: "W_hc"
  }
  inner_product_param {
    num_output: 4000
    bias_term: false
    weight_filler {
      type: "uniform"
      min: -0.08
      max: 0.08
    }
    axis: 2
  }
}
layer {
  name: "lstm2_gate_input_1"
  type: "Eltwise"
  bottom: "W_hc_h_0"
  bottom: "W_xc_x_1"
  top: "gate_input_1"
  eltwise_param {
    operation: SUM
  }
}
layer {
  name: "lstm2_unit_1"
  type: "LSTMUnit"
  bottom: "c_0"
  bottom: "gate_input_1"
  bottom: "cont_1"
  top: "c_1"
  top: "h_1"
}
layer {
  name: "lstm2_"
  type: "Split"
  bottom: "c_1"
  top: "c_T"
}
layer {
  name: "lstm2_h_concat"
  type: "Concat"
  bottom: "h_1"
  top: "h"
  concat_param {
    axis: 0
  }
}
layer {
  name: "h_pseudoloss"
  type: "Reduction"
  bottom: "h"
  top: "h_pseudoloss"
  loss_weight: 1
}
I0924 02:40:05.292256   312 layer_factory.hpp:77] Creating layer lstm2_
I0924 02:40:05.292273   312 net.cpp:91] Creating Layer lstm2_
I0924 02:40:05.292279   312 net.cpp:399] lstm2_ -> x
I0924 02:40:05.292290   312 net.cpp:399] lstm2_ -> cont
I0924 02:40:05.292528   306 net.cpp:141] Setting up lstm1
I0924 02:40:05.292547   306 net.cpp:148] Top shape: 1 1 1000 (1000)
I0924 02:40:05.292552   306 net.cpp:156] Memory required for data: 26408
I0924 02:40:05.292569   306 layer_factory.hpp:77] Creating layer concat
I0924 02:40:05.292579   306 net.cpp:91] Creating Layer concat
I0924 02:40:05.292587   306 net.cpp:425] concat <- lstm1
I0924 02:40:05.292594   306 net.cpp:425] concat <- embedded_input_sentence
I0924 02:40:05.292600   306 net.cpp:425] concat <- reshaped_stage_indicator
I0924 02:40:05.292608   306 net.cpp:399] concat -> lstm1_video_sequence
I0924 02:40:05.300680   312 net.cpp:141] Setting up lstm2_
I0924 02:40:05.300714   306 net.cpp:141] Setting up concat
I0924 02:40:05.300731   306 net.cpp:148] Top shape: 1 1 1501 (1501)
I0924 02:40:05.300731   312 net.cpp:148] Top shape: 1 1 1501 (1501)
I0924 02:40:05.300750   306 net.cpp:156] Memory required for data: 32412
I0924 02:40:05.300755   312 net.cpp:148] Top shape: 1 1 (1)
I0924 02:40:05.300762   312 net.cpp:156] Memory required for data: 6008
I0924 02:40:05.300762   306 layer_factory.hpp:77] Creating layer lstm2
I0924 02:40:05.300773   312 layer_factory.hpp:77] Creating layer lstm2_
I0924 02:40:05.300793   312 net.cpp:91] Creating Layer lstm2_
I0924 02:40:05.300794   306 net.cpp:91] Creating Layer lstm2
I0924 02:40:05.300815   306 net.cpp:425] lstm2 <- lstm1_video_sequence
I0924 02:40:05.300822   312 net.cpp:399] lstm2_ -> c_0
I0924 02:40:05.300830   306 net.cpp:425] lstm2 <- cont_sentence_input_1_split_1
I0924 02:40:05.300845   306 net.cpp:399] lstm2 -> lstm2
I0924 02:40:05.300846   312 net.cpp:399] lstm2_ -> h_0
I0924 02:40:05.300871   306 recurrent_layer.cpp:20] Initializing recurrent layer: assuming input batch contains 1 timesteps of 1 independent streams.
I0924 02:40:05.301210   306 net.cpp:49] Initializing net from parameters: 
layer {
  name: "lstm2_"
  type: "Input"
  top: "x"
  top: "cont"
  input_param {
    shape {
      dim: 1
      dim: 1
      dim: 1501
    }
    shape {
      dim: 1
      dim: 1
    }
  }
}
layer {
  name: "lstm2_"
  type: "Input"
  top: "c_0"
  top: "h_0"
  input_param {
    shape {
      dim: 1
      dim: 1
      dim: 1000
    }
    shape {
      dim: 1
      dim: 1
      dim: 1000
    }
  }
}
layer {
  name: "lstm2_cont_slice"
  type: "Slice"
  bottom: "cont"
  top: "cont_1"
  slice_param {
    axis: 0
  }
}
layer {
  name: "lstm2_x_transform"
  type: "InnerProduct"
  bottom: "x"
  top: "W_xc_x"
  param {
    name: "W_xc"
  }
  param {
    name: "b_c"
  }
  propagate_down: true
  inner_product_param {
    num_output: 4000
    bias_term: true
    weight_filler {
      type: "uniform"
      min: -0.08
      max: 0.08
    }
    bias_filler {
      type: "constant"
      value: 0
    }
    axis: 2
  }
}
layer {
  name: "lstm2_W_xc_x_slice"
  type: "Slice"
  bottom: "W_xc_x"
  top: "W_xc_x_1"
  slice_param {
    axis: 0
  }
}
layer {
  name: "lstm2_h_conted_0"
  type: "Scale"
  bottom: "h_0"
  bottom: "cont_1"
  top: "h_conted_0"
  scale_param {
    axis: 0
  }
}
layer {
  name: "lstm2_transform_1"
  type: "InnerProduct"
  bottom: "h_conted_0"
  top: "W_hc_h_0"
  param {
    name: "W_hc"
  }
  inner_product_param {
    num_output: 4000
    bias_term: false
    weight_filler {
      type: "uniform"
      min: -0.08
      max: 0.08
    }
    axis: 2
  }
}
layer {
  name: "lstm2_gate_input_1"
  type: "Eltwise"
  bottom: "W_hc_h_0"
  bottom: "W_xc_x_1"
  top: "gate_input_1"
  eltwise_param {
    operation: SUM
  }
}
layer {
  name: "lstm2_unit_1"
  type: "LSTMUnit"
  bottom: "c_0"
  bottom: "gate_input_1"
  bottom: "cont_1"
  top: "c_1"
  top: "h_1"
}
layer {
  name: "lstm2_"
  type: "Split"
  bottom: "c_1"
  top: "c_T"
}
layer {
  name: "lstm2_h_concat"
  type: "Concat"
  bottom: "h_1"
  top: "h"
  concat_param {
    axis: 0
  }
}
layer {
  name: "h_pseudoloss"
  type: "Reduction"
  bottom: "h"
  top: "h_pseudoloss"
  loss_weight: 1
}
I0924 02:40:05.301301   306 layer_factory.hpp:77] Creating layer lstm2_
I0924 02:40:05.301311   306 net.cpp:91] Creating Layer lstm2_
I0924 02:40:05.301317   306 net.cpp:399] lstm2_ -> x
I0924 02:40:05.301329   306 net.cpp:399] lstm2_ -> cont
I0924 02:40:05.303027   306 net.cpp:141] Setting up lstm2_
I0924 02:40:05.303051   306 net.cpp:148] Top shape: 1 1 1501 (1501)
I0924 02:40:05.303059   312 net.cpp:141] Setting up lstm2_
I0924 02:40:05.303088   312 net.cpp:148] Top shape: 1 1 1000 (1000)
I0924 02:40:05.303063   306 net.cpp:148] Top shape: 1 1 (1)
I0924 02:40:05.303112   312 net.cpp:148] Top shape: 1 1 1000 (1000)
I0924 02:40:05.303114   306 net.cpp:156] Memory required for data: 6008
I0924 02:40:05.303119   312 net.cpp:156] Memory required for data: 14008
I0924 02:40:05.303124   306 layer_factory.hpp:77] Creating layer lstm2_
I0924 02:40:05.303128   312 layer_factory.hpp:77] Creating layer lstm2_cont_slice
I0924 02:40:05.303140   306 net.cpp:91] Creating Layer lstm2_
I0924 02:40:05.303146   312 net.cpp:91] Creating Layer lstm2_cont_slice
I0924 02:40:05.303155   312 net.cpp:425] lstm2_cont_slice <- cont
I0924 02:40:05.303155   306 net.cpp:399] lstm2_ -> c_0
I0924 02:40:05.303189   306 net.cpp:399] lstm2_ -> h_0
I0924 02:40:05.303205   312 net.cpp:399] lstm2_cont_slice -> cont_1
I0924 02:40:05.305003   306 net.cpp:141] Setting up lstm2_
I0924 02:40:05.305022   306 net.cpp:148] Top shape: 1 1 1000 (1000)
I0924 02:40:05.305027   306 net.cpp:148] Top shape: 1 1 1000 (1000)
I0924 02:40:05.305032   306 net.cpp:156] Memory required for data: 14008
I0924 02:40:05.305037   306 layer_factory.hpp:77] Creating layer lstm2_cont_slice
I0924 02:40:05.305047   306 net.cpp:91] Creating Layer lstm2_cont_slice
I0924 02:40:05.305053   306 net.cpp:425] lstm2_cont_slice <- cont
I0924 02:40:05.305061   306 net.cpp:399] lstm2_cont_slice -> cont_1
I0924 02:40:05.305425   312 net.cpp:141] Setting up lstm2_cont_slice
I0924 02:40:05.305445   312 net.cpp:148] Top shape: 1 1 (1)
I0924 02:40:05.305454   312 net.cpp:156] Memory required for data: 14012
I0924 02:40:05.305461   312 layer_factory.hpp:77] Creating layer cont_1_lstm2_cont_slice_0_split
I0924 02:40:05.305461   306 net.cpp:141] Setting up lstm2_cont_slice
I0924 02:40:05.305492   306 net.cpp:148] Top shape: 1 1 (1)
I0924 02:40:05.305502   306 net.cpp:156] Memory required for data: 14012
I0924 02:40:05.305503   312 net.cpp:91] Creating Layer cont_1_lstm2_cont_slice_0_split
I0924 02:40:05.305510   306 layer_factory.hpp:77] Creating layer cont_1_lstm2_cont_slice_0_split
I0924 02:40:05.305512   312 net.cpp:425] cont_1_lstm2_cont_slice_0_split <- cont_1
I0924 02:40:05.305531   306 net.cpp:91] Creating Layer cont_1_lstm2_cont_slice_0_split
I0924 02:40:05.305531   312 net.cpp:399] cont_1_lstm2_cont_slice_0_split -> cont_1_lstm2_cont_slice_0_split_0
I0924 02:40:05.305546   306 net.cpp:425] cont_1_lstm2_cont_slice_0_split <- cont_1
I0924 02:40:05.305557   312 net.cpp:399] cont_1_lstm2_cont_slice_0_split -> cont_1_lstm2_cont_slice_0_split_1
I0924 02:40:05.305557   306 net.cpp:399] cont_1_lstm2_cont_slice_0_split -> cont_1_lstm2_cont_slice_0_split_0
I0924 02:40:05.305588   306 net.cpp:399] cont_1_lstm2_cont_slice_0_split -> cont_1_lstm2_cont_slice_0_split_1
I0924 02:40:05.307658   306 net.cpp:141] Setting up cont_1_lstm2_cont_slice_0_split
I0924 02:40:05.307672   306 net.cpp:148] Top shape: 1 1 (1)
I0924 02:40:05.307678   306 net.cpp:148] Top shape: 1 1 (1)
I0924 02:40:05.307683   306 net.cpp:156] Memory required for data: 14020
I0924 02:40:05.307688   306 layer_factory.hpp:77] Creating layer lstm2_x_transform
I0924 02:40:05.307704   306 net.cpp:91] Creating Layer lstm2_x_transform
I0924 02:40:05.307709   306 net.cpp:425] lstm2_x_transform <- x
I0924 02:40:05.307718   306 net.cpp:399] lstm2_x_transform -> W_xc_x
I0924 02:40:05.307751   302 net.cpp:141] Setting up embedding
I0924 02:40:05.307788   302 net.cpp:148] Top shape: 1 1 500 (500)
I0924 02:40:05.307795   302 net.cpp:156] Memory required for data: 22408
I0924 02:40:05.307811   302 layer_factory.hpp:77] Creating layer lstm1
I0924 02:40:05.307808   312 net.cpp:141] Setting up cont_1_lstm2_cont_slice_0_split
I0924 02:40:05.307827   312 net.cpp:148] Top shape: 1 1 (1)
I0924 02:40:05.307831   302 net.cpp:91] Creating Layer lstm1
I0924 02:40:05.307838   312 net.cpp:148] Top shape: 1 1 (1)
I0924 02:40:05.307840   302 net.cpp:425] lstm1 <- embedded_input_frames
I0924 02:40:05.307860   312 net.cpp:156] Memory required for data: 14020
I0924 02:40:05.307868   312 layer_factory.hpp:77] Creating layer lstm2_x_transform
I0924 02:40:05.307869   302 net.cpp:425] lstm1 <- cont_sentence_input_1_split_0
I0924 02:40:05.307921   302 net.cpp:399] lstm1 -> lstm1
I0924 02:40:05.307929   312 net.cpp:91] Creating Layer lstm2_x_transform
I0924 02:40:05.307940   312 net.cpp:425] lstm2_x_transform <- x
I0924 02:40:05.307942   302 recurrent_layer.cpp:20] Initializing recurrent layer: assuming input batch contains 1 timesteps of 1 independent streams.
I0924 02:40:05.307957   312 net.cpp:399] lstm2_x_transform -> W_xc_x
I0924 02:40:05.308254   302 net.cpp:49] Initializing net from parameters: 
layer {
  name: "lstm1_"
  type: "Input"
  top: "x"
  top: "cont"
  input_param {
    shape {
      dim: 1
      dim: 1
      dim: 500
    }
    shape {
      dim: 1
      dim: 1
    }
  }
}
layer {
  name: "lstm1_"
  type: "Input"
  top: "c_0"
  top: "h_0"
  input_param {
    shape {
      dim: 1
      dim: 1
      dim: 1000
    }
    shape {
      dim: 1
      dim: 1
      dim: 1000
    }
  }
}
layer {
  name: "lstm1_cont_slice"
  type: "Slice"
  bottom: "cont"
  top: "cont_1"
  slice_param {
    axis: 0
  }
}
layer {
  name: "lstm1_x_transform"
  type: "InnerProduct"
  bottom: "x"
  top: "W_xc_x"
  param {
    name: "W_xc"
  }
  param {
    name: "b_c"
  }
  propagate_down: true
  inner_product_param {
    num_output: 4000
    bias_term: true
    weight_filler {
      type: "uniform"
      min: -0.08
      max: 0.08
    }
    bias_filler {
      type: "constant"
      value: 0
    }
    axis: 2
  }
}
layer {
  name: "lstm1_W_xc_x_slice"
  type: "Slice"
  bottom: "W_xc_x"
  top: "W_xc_x_1"
  slice_param {
    axis: 0
  }
}
layer {
  name: "lstm1_h_conted_0"
  type: "Scale"
  bottom: "h_0"
  bottom: "cont_1"
  top: "h_conted_0"
  scale_param {
    axis: 0
  }
}
layer {
  name: "lstm1_transform_1"
  type: "InnerProduct"
  bottom: "h_conted_0"
  top: "W_hc_h_0"
  param {
    name: "W_hc"
  }
  inner_product_param {
    num_output: 4000
    bias_term: false
    weight_filler {
      type: "uniform"
      min: -0.08
      max: 0.08
    }
    axis: 2
  }
}
layer {
  name: "lstm1_gate_input_1"
  type: "Eltwise"
  bottom: "W_hc_h_0"
  bottom: "W_xc_x_1"
  top: "gate_input_1"
  eltwise_param {
    operation: SUM
  }
}
layer {
  name: "lstm1_unit_1"
  type: "LSTMUnit"
  bottom: "c_0"
  bottom: "gate_input_1"
  bottom: "cont_1"
  top: "c_1"
  top: "h_1"
}
layer {
  name: "lstm1_"
  type: "Split"
  bottom: "c_1"
  top: "c_T"
}
layer {
  name: "lstm1_h_concat"
  type: "Concat"
  bottom: "h_1"
  top: "h"
  concat_param {
    axis: 0
  }
}
layer {
  name: "h_pseudoloss"
  type: "Reduction"
  bottom: "h"
  top: "h_pseudoloss"
  loss_weight: 1
}
I0924 02:40:05.308351   302 layer_factory.hpp:77] Creating layer lstm1_
I0924 02:40:05.308364   302 net.cpp:91] Creating Layer lstm1_
I0924 02:40:05.308370   302 net.cpp:399] lstm1_ -> x
I0924 02:40:05.308382   302 net.cpp:399] lstm1_ -> cont
I0924 02:40:05.336057   302 net.cpp:141] Setting up lstm1_
I0924 02:40:05.336112   302 net.cpp:148] Top shape: 1 1 500 (500)
I0924 02:40:05.336109   324 net.cpp:141] Setting up lstm1_transform_1
I0924 02:40:05.336125   302 net.cpp:148] Top shape: 1 1 (1)
I0924 02:40:05.336133   324 net.cpp:148] Top shape: 1 1 4000 (4000)
I0924 02:40:05.336133   302 net.cpp:156] Memory required for data: 2004
I0924 02:40:05.336141   324 net.cpp:156] Memory required for data: 62016
I0924 02:40:05.336149   302 layer_factory.hpp:77] Creating layer lstm1_
I0924 02:40:05.336166   324 layer_factory.hpp:77] Creating layer lstm1_gate_input_1
I0924 02:40:05.336182   302 net.cpp:91] Creating Layer lstm1_
I0924 02:40:05.336189   324 net.cpp:91] Creating Layer lstm1_gate_input_1
I0924 02:40:05.336200   324 net.cpp:425] lstm1_gate_input_1 <- W_hc_h_0
I0924 02:40:05.336204   302 net.cpp:399] lstm1_ -> c_0
I0924 02:40:05.336212   324 net.cpp:425] lstm1_gate_input_1 <- W_xc_x_1
I0924 02:40:05.336225   324 net.cpp:399] lstm1_gate_input_1 -> gate_input_1
I0924 02:40:05.336230   302 net.cpp:399] lstm1_ -> h_0
I0924 02:40:05.336519   324 net.cpp:141] Setting up lstm1_gate_input_1
I0924 02:40:05.336534   324 net.cpp:148] Top shape: 1 1 4000 (4000)
I0924 02:40:05.336541   324 net.cpp:156] Memory required for data: 78016
I0924 02:40:05.336549   324 layer_factory.hpp:77] Creating layer lstm1_unit_1
I0924 02:40:05.336563   324 net.cpp:91] Creating Layer lstm1_unit_1
I0924 02:40:05.336572   324 net.cpp:425] lstm1_unit_1 <- c_0
I0924 02:40:05.336581   324 net.cpp:425] lstm1_unit_1 <- gate_input_1
I0924 02:40:05.336591   324 net.cpp:425] lstm1_unit_1 <- cont_1_lstm1_cont_slice_0_split_1
I0924 02:40:05.336601   302 net.cpp:141] Setting up lstm1_
I0924 02:40:05.336606   324 net.cpp:399] lstm1_unit_1 -> c_1
I0924 02:40:05.336623   302 net.cpp:148] Top shape: 1 1 1000 (1000)
I0924 02:40:05.336632   324 net.cpp:399] lstm1_unit_1 -> h_1
I0924 02:40:05.336634   302 net.cpp:148] Top shape: 1 1 1000 (1000)
I0924 02:40:05.336652   302 net.cpp:156] Memory required for data: 10004
I0924 02:40:05.336661   302 layer_factory.hpp:77] Creating layer lstm1_cont_slice
I0924 02:40:05.336678   302 net.cpp:91] Creating Layer lstm1_cont_slice
I0924 02:40:05.336685   302 net.cpp:425] lstm1_cont_slice <- cont
I0924 02:40:05.336706   302 net.cpp:399] lstm1_cont_slice -> cont_1
I0924 02:40:05.340023   302 net.cpp:141] Setting up lstm1_cont_slice
I0924 02:40:05.340065   302 net.cpp:148] Top shape: 1 1 (1)
I0924 02:40:05.340075   302 net.cpp:156] Memory required for data: 10008
I0924 02:40:05.340085   302 layer_factory.hpp:77] Creating layer cont_1_lstm1_cont_slice_0_split
I0924 02:40:05.340096   324 net.cpp:141] Setting up lstm1_unit_1
I0924 02:40:05.340116   324 net.cpp:148] Top shape: 1 1 1000 (1000)
I0924 02:40:05.340117   302 net.cpp:91] Creating Layer cont_1_lstm1_cont_slice_0_split
I0924 02:40:05.340127   324 net.cpp:148] Top shape: 1 1 1000 (1000)
I0924 02:40:05.340129   302 net.cpp:425] cont_1_lstm1_cont_slice_0_split <- cont_1
I0924 02:40:05.340136   324 net.cpp:156] Memory required for data: 86016
I0924 02:40:05.340143   324 layer_factory.hpp:77] Creating layer lstm1_
I0924 02:40:05.340163   324 net.cpp:91] Creating Layer lstm1_
I0924 02:40:05.340173   324 net.cpp:425] lstm1_ <- c_1
I0924 02:40:05.340186   324 net.cpp:399] lstm1_ -> c_T
I0924 02:40:05.340970   324 net.cpp:141] Setting up lstm1_
I0924 02:40:05.340987   324 net.cpp:148] Top shape: 1 1 1000 (1000)
I0924 02:40:05.340996   324 net.cpp:156] Memory required for data: 90016
I0924 02:40:05.341003   324 layer_factory.hpp:77] Creating layer lstm1_h_concat
I0924 02:40:05.341018   324 net.cpp:91] Creating Layer lstm1_h_concat
I0924 02:40:05.341032   324 net.cpp:425] lstm1_h_concat <- h_1
I0924 02:40:05.341042   324 net.cpp:399] lstm1_h_concat -> h
I0924 02:40:05.340143   302 net.cpp:399] cont_1_lstm1_cont_slice_0_split -> cont_1_lstm1_cont_slice_0_split_0
I0924 02:40:05.344472   302 net.cpp:399] cont_1_lstm1_cont_slice_0_split -> cont_1_lstm1_cont_slice_0_split_1
I0924 02:40:05.354214   330 net.cpp:141] Setting up embedding
I0924 02:40:05.354233   324 net.cpp:141] Setting up lstm1_h_concat
I0924 02:40:05.354270   324 net.cpp:148] Top shape: 1 1 1000 (1000)
I0924 02:40:05.354270   330 net.cpp:148] Top shape: 1 1 500 (500)
I0924 02:40:05.354277   324 net.cpp:156] Memory required for data: 94016
I0924 02:40:05.354280   330 net.cpp:156] Memory required for data: 22408
I0924 02:40:05.354291   324 layer_factory.hpp:77] Creating layer h_pseudoloss
I0924 02:40:05.354303   330 layer_factory.hpp:77] Creating layer lstm1
I0924 02:40:05.354322   324 net.cpp:91] Creating Layer h_pseudoloss
I0924 02:40:05.354331   302 net.cpp:141] Setting up cont_1_lstm1_cont_slice_0_split
I0924 02:40:05.354324   330 net.cpp:91] Creating Layer lstm1
I0924 02:40:05.354351   324 net.cpp:425] h_pseudoloss <- h
I0924 02:40:05.354354   302 net.cpp:148] Top shape: 1 1 (1)
I0924 02:40:05.354357   330 net.cpp:425] lstm1 <- embedded_input_frames
I0924 02:40:05.354365   302 net.cpp:148] Top shape: 1 1 (1)
I0924 02:40:05.354368   324 net.cpp:399] h_pseudoloss -> h_pseudoloss
I0924 02:40:05.354373   302 net.cpp:156] Memory required for data: 10016
I0924 02:40:05.354382   302 layer_factory.hpp:77] Creating layer lstm1_x_transform
I0924 02:40:05.354369   330 net.cpp:425] lstm1 <- cont_sentence_input_1_split_0
I0924 02:40:05.354413   302 net.cpp:91] Creating Layer lstm1_x_transform
I0924 02:40:05.354413   330 net.cpp:399] lstm1 -> lstm1
I0924 02:40:05.354434   302 net.cpp:425] lstm1_x_transform <- x
I0924 02:40:05.354449   302 net.cpp:399] lstm1_x_transform -> W_xc_x
I0924 02:40:05.354451   330 recurrent_layer.cpp:20] Initializing recurrent layer: assuming input batch contains 1 timesteps of 1 independent streams.
I0924 02:40:05.354910   330 net.cpp:49] Initializing net from parameters: 
layer {
  name: "lstm1_"
  type: "Input"
  top: "x"
  top: "cont"
  input_param {
    shape {
      dim: 1
      dim: 1
      dim: 500
    }
    shape {
      dim: 1
      dim: 1
    }
  }
}
layer {
  name: "lstm1_"
  type: "Input"
  top: "c_0"
  top: "h_0"
  input_param {
    shape {
      dim: 1
      dim: 1
      dim: 1000
    }
    shape {
      dim: 1
      dim: 1
      dim: 1000
    }
  }
}
layer {
  name: "lstm1_cont_slice"
  type: "Slice"
  bottom: "cont"
  top: "cont_1"
  slice_param {
    axis: 0
  }
}
layer {
  name: "lstm1_x_transform"
  type: "InnerProduct"
  bottom: "x"
  top: "W_xc_x"
  param {
    name: "W_xc"
  }
  param {
    name: "b_c"
  }
  propagate_down: true
  inner_product_param {
    num_output: 4000
    bias_term: true
    weight_filler {
      type: "uniform"
      min: -0.08
      max: 0.08
    }
    bias_filler {
      type: "constant"
      value: 0
    }
    axis: 2
  }
}
layer {
  name: "lstm1_W_xc_x_slice"
  type: "Slice"
  bottom: "W_xc_x"
  top: "W_xc_x_1"
  slice_param {
    axis: 0
  }
}
layer {
  name: "lstm1_h_conted_0"
  type: "Scale"
  bottom: "h_0"
  bottom: "cont_1"
  top: "h_conted_0"
  scale_param {
    axis: 0
  }
}
layer {
  name: "lstm1_transform_1"
  type: "InnerProduct"
  bottom: "h_conted_0"
  top: "W_hc_h_0"
  param {
    name: "W_hc"
  }
  inner_product_param {
    num_output: 4000
    bias_term: false
    weight_filler {
      type: "uniform"
      min: -0.08
      max: 0.08
    }
    axis: 2
  }
}
layer {
  name: "lstm1_gate_input_1"
  type: "Eltwise"
  bottom: "W_hc_h_0"
  bottom: "W_xc_x_1"
  top: "gate_input_1"
  eltwise_param {
    operation: SUM
  }
}
layer {
  name: "lstm1_unit_1"
  type: "LSTMUnit"
  bottom: "c_0"
  bottom: "gate_input_1"
  bottom: "cont_1"
  top: "c_1"
  top: "h_1"
}
layer {
  name: "lstm1_"
  type: "Split"
  bottom: "c_1"
  top: "c_T"
}
layer {
  name: "lstm1_h_concat"
  type: "Concat"
  bottom: "h_1"
  top: "h"
  concat_param {
    axis: 0
  }
}
layer {
  name: "h_pseudoloss"
  type: "Reduction"
  bottom: "h"
  top: "h_pseudoloss"
  loss_weight: 1
}
I0924 02:40:05.355054   330 layer_factory.hpp:77] Creating layer lstm1_
I0924 02:40:05.355072   330 net.cpp:91] Creating Layer lstm1_
I0924 02:40:05.355083   330 net.cpp:399] lstm1_ -> x
I0924 02:40:05.355100   330 net.cpp:399] lstm1_ -> cont
I0924 02:40:05.357897   330 net.cpp:141] Setting up lstm1_
I0924 02:40:05.357914   330 net.cpp:148] Top shape: 1 1 500 (500)
I0924 02:40:05.357925   330 net.cpp:148] Top shape: 1 1 (1)
I0924 02:40:05.357933   330 net.cpp:156] Memory required for data: 2004
I0924 02:40:05.357941   330 layer_factory.hpp:77] Creating layer lstm1_
I0924 02:40:05.357954   330 net.cpp:91] Creating Layer lstm1_
I0924 02:40:05.357971   330 net.cpp:399] lstm1_ -> c_0
I0924 02:40:05.357988   330 net.cpp:399] lstm1_ -> h_0
I0924 02:40:05.361897   324 net.cpp:141] Setting up h_pseudoloss
I0924 02:40:05.361963   324 net.cpp:148] Top shape: (1)
I0924 02:40:05.361981   324 net.cpp:151]     with loss weight 1
I0924 02:40:05.362017   324 net.cpp:156] Memory required for data: 94020
I0924 02:40:05.362038   324 net.cpp:217] h_pseudoloss needs backward computation.
I0924 02:40:05.362035   330 net.cpp:141] Setting up lstm1_
I0924 02:40:05.362069   324 net.cpp:217] lstm1_h_concat needs backward computation.
I0924 02:40:05.362079   330 net.cpp:148] Top shape: 1 1 1000 (1000)
I0924 02:40:05.362087   324 net.cpp:219] lstm1_ does not need backward computation.
I0924 02:40:05.362093   330 net.cpp:148] Top shape: 1 1 1000 (1000)
I0924 02:40:05.362102   330 net.cpp:156] Memory required for data: 10004
I0924 02:40:05.362125   330 layer_factory.hpp:77] Creating layer lstm1_cont_slice
I0924 02:40:05.362102   324 net.cpp:217] lstm1_unit_1 needs backward computation.
I0924 02:40:05.362156   324 net.cpp:217] lstm1_gate_input_1 needs backward computation.
I0924 02:40:05.362160   330 net.cpp:91] Creating Layer lstm1_cont_slice
I0924 02:40:05.362187   324 net.cpp:217] lstm1_transform_1 needs backward computation.
I0924 02:40:05.362190   330 net.cpp:425] lstm1_cont_slice <- cont
I0924 02:40:05.362216   324 net.cpp:219] lstm1_h_conted_0 does not need backward computation.
I0924 02:40:05.362229   330 net.cpp:399] lstm1_cont_slice -> cont_1
I0924 02:40:05.362236   324 net.cpp:217] lstm1_W_xc_x_slice needs backward computation.
I0924 02:40:05.362251   324 net.cpp:217] lstm1_x_transform needs backward computation.
I0924 02:40:05.362267   324 net.cpp:219] cont_1_lstm1_cont_slice_0_split does not need backward computation.
I0924 02:40:05.362282   324 net.cpp:219] lstm1_cont_slice does not need backward computation.
I0924 02:40:05.362298   324 net.cpp:219] lstm1_ does not need backward computation.
I0924 02:40:05.362305   330 net.cpp:141] Setting up lstm1_cont_slice
I0924 02:40:05.362310   324 net.cpp:219] lstm1_ does not need backward computation.
I0924 02:40:05.362323   330 net.cpp:148] Top shape: 1 1 (1)
I0924 02:40:05.362324   324 net.cpp:261] This network produces output c_T
I0924 02:40:05.362330   330 net.cpp:156] Memory required for data: 10008
I0924 02:40:05.362339   330 layer_factory.hpp:77] Creating layer cont_1_lstm1_cont_slice_0_split
I0924 02:40:05.362339   324 net.cpp:261] This network produces output h_pseudoloss
I0924 02:40:05.362354   330 net.cpp:91] Creating Layer cont_1_lstm1_cont_slice_0_split
I0924 02:40:05.362362   330 net.cpp:425] cont_1_lstm1_cont_slice_0_split <- cont_1
I0924 02:40:05.362378   330 net.cpp:399] cont_1_lstm1_cont_slice_0_split -> cont_1_lstm1_cont_slice_0_split_0
I0924 02:40:05.362383   324 net.cpp:274] Network initialization done.
I0924 02:40:05.362392   330 net.cpp:399] cont_1_lstm1_cont_slice_0_split -> cont_1_lstm1_cont_slice_0_split_1
I0924 02:40:05.362498   324 recurrent_layer.cpp:150] Adding parameter 0: W_xc
I0924 02:40:05.362516   324 recurrent_layer.cpp:150] Adding parameter 1: b_c
I0924 02:40:05.362529   324 recurrent_layer.cpp:150] Adding parameter 2: W_hc
I0924 02:40:05.363394   330 net.cpp:141] Setting up cont_1_lstm1_cont_slice_0_split
I0924 02:40:05.363415   330 net.cpp:148] Top shape: 1 1 (1)
I0924 02:40:05.363425   330 net.cpp:148] Top shape: 1 1 (1)
I0924 02:40:05.363432   330 net.cpp:156] Memory required for data: 10016
I0924 02:40:05.363440   330 layer_factory.hpp:77] Creating layer lstm1_x_transform
I0924 02:40:05.363456   324 net.cpp:141] Setting up lstm1
I0924 02:40:05.363467   330 net.cpp:91] Creating Layer lstm1_x_transform
I0924 02:40:05.363473   324 net.cpp:148] Top shape: 1 1 1000 (1000)
I0924 02:40:05.363489   330 net.cpp:425] lstm1_x_transform <- x
I0924 02:40:05.363493   324 net.cpp:156] Memory required for data: 26408
I0924 02:40:05.363507   330 net.cpp:399] lstm1_x_transform -> W_xc_x
I0924 02:40:05.363517   324 layer_factory.hpp:77] Creating layer concat
I0924 02:40:05.363533   324 net.cpp:91] Creating Layer concat
I0924 02:40:05.363543   324 net.cpp:425] concat <- lstm1
I0924 02:40:05.363551   324 net.cpp:425] concat <- embedded_input_sentence
I0924 02:40:05.363561   324 net.cpp:425] concat <- reshaped_stage_indicator
I0924 02:40:05.363571   324 net.cpp:399] concat -> lstm1_video_sequence
I0924 02:40:05.367558   324 net.cpp:141] Setting up concat
I0924 02:40:05.367604   324 net.cpp:148] Top shape: 1 1 1501 (1501)
I0924 02:40:05.367611   324 net.cpp:156] Memory required for data: 32412
I0924 02:40:05.367624   324 layer_factory.hpp:77] Creating layer lstm2
I0924 02:40:05.367653   324 net.cpp:91] Creating Layer lstm2
I0924 02:40:05.367666   324 net.cpp:425] lstm2 <- lstm1_video_sequence
I0924 02:40:05.367678   324 net.cpp:425] lstm2 <- cont_sentence_input_1_split_1
I0924 02:40:05.367692   324 net.cpp:399] lstm2 -> lstm2
I0924 02:40:05.367717   324 recurrent_layer.cpp:20] Initializing recurrent layer: assuming input batch contains 1 timesteps of 1 independent streams.
I0924 02:40:05.368135   324 net.cpp:49] Initializing net from parameters: 
layer {
  name: "lstm2_"
  type: "Input"
  top: "x"
  top: "cont"
  input_param {
    shape {
      dim: 1
      dim: 1
      dim: 1501
    }
    shape {
      dim: 1
      dim: 1
    }
  }
}
layer {
  name: "lstm2_"
  type: "Input"
  top: "c_0"
  top: "h_0"
  input_param {
    shape {
      dim: 1
      dim: 1
      dim: 1000
    }
    shape {
      dim: 1
      dim: 1
      dim: 1000
    }
  }
}
layer {
  name: "lstm2_cont_slice"
  type: "Slice"
  bottom: "cont"
  top: "cont_1"
  slice_param {
    axis: 0
  }
}
layer {
  name: "lstm2_x_transform"
  type: "InnerProduct"
  bottom: "x"
  top: "W_xc_x"
  param {
    name: "W_xc"
  }
  param {
    name: "b_c"
  }
  propagate_down: true
  inner_product_param {
    num_output: 4000
    bias_term: true
    weight_filler {
      type: "uniform"
      min: -0.08
      max: 0.08
    }
    bias_filler {
      type: "constant"
      value: 0
    }
    axis: 2
  }
}
layer {
  name: "lstm2_W_xc_x_slice"
  type: "Slice"
  bottom: "W_xc_x"
  top: "W_xc_x_1"
  slice_param {
    axis: 0
  }
}
layer {
  name: "lstm2_h_conted_0"
  type: "Scale"
  bottom: "h_0"
  bottom: "cont_1"
  top: "h_conted_0"
  scale_param {
    axis: 0
  }
}
layer {
  name: "lstm2_transform_1"
  type: "InnerProduct"
  bottom: "h_conted_0"
  top: "W_hc_h_0"
  param {
    name: "W_hc"
  }
  inner_product_param {
    num_output: 4000
    bias_term: false
    weight_filler {
      type: "uniform"
      min: -0.08
      max: 0.08
    }
    axis: 2
  }
}
layer {
  name: "lstm2_gate_input_1"
  type: "Eltwise"
  bottom: "W_hc_h_0"
  bottom: "W_xc_x_1"
  top: "gate_input_1"
  eltwise_param {
    operation: SUM
  }
}
layer {
  name: "lstm2_unit_1"
  type: "LSTMUnit"
  bottom: "c_0"
  bottom: "gate_input_1"
  bottom: "cont_1"
  top: "c_1"
  top: "h_1"
}
layer {
  name: "lstm2_"
  type: "Split"
  bottom: "c_1"
  top: "c_T"
}
layer {
  name: "lstm2_h_concat"
  type: "Concat"
  bottom: "h_1"
  top: "h"
  concat_param {
    axis: 0
  }
}
layer {
  name: "h_pseudoloss"
  type: "Reduction"
  bottom: "h"
  top: "h_pseudoloss"
  loss_weight: 1
}
I0924 02:40:05.368264   324 layer_factory.hpp:77] Creating layer lstm2_
I0924 02:40:05.368281   324 net.cpp:91] Creating Layer lstm2_
I0924 02:40:05.368291   324 net.cpp:399] lstm2_ -> x
I0924 02:40:05.368309   324 net.cpp:399] lstm2_ -> cont
I0924 02:40:05.369251   324 net.cpp:141] Setting up lstm2_
I0924 02:40:05.369269   324 net.cpp:148] Top shape: 1 1 1501 (1501)
I0924 02:40:05.369280   324 net.cpp:148] Top shape: 1 1 (1)
I0924 02:40:05.369287   324 net.cpp:156] Memory required for data: 6008
I0924 02:40:05.369295   324 layer_factory.hpp:77] Creating layer lstm2_
I0924 02:40:05.369309   324 net.cpp:91] Creating Layer lstm2_
I0924 02:40:05.369323   324 net.cpp:399] lstm2_ -> c_0
I0924 02:40:05.369339   324 net.cpp:399] lstm2_ -> h_0
I0924 02:40:05.371767   324 net.cpp:141] Setting up lstm2_
I0924 02:40:05.371812   324 net.cpp:148] Top shape: 1 1 1000 (1000)
I0924 02:40:05.371822   324 net.cpp:148] Top shape: 1 1 1000 (1000)
I0924 02:40:05.371829   324 net.cpp:156] Memory required for data: 14008
I0924 02:40:05.371840   324 layer_factory.hpp:77] Creating layer lstm2_cont_slice
I0924 02:40:05.371871   324 net.cpp:91] Creating Layer lstm2_cont_slice
I0924 02:40:05.371881   324 net.cpp:425] lstm2_cont_slice <- cont
I0924 02:40:05.371896   324 net.cpp:399] lstm2_cont_slice -> cont_1
I0924 02:40:05.381491   324 net.cpp:141] Setting up lstm2_cont_slice
I0924 02:40:05.381536   324 net.cpp:148] Top shape: 1 1 (1)
I0924 02:40:05.381544   324 net.cpp:156] Memory required for data: 14012
I0924 02:40:05.381556   324 layer_factory.hpp:77] Creating layer cont_1_lstm2_cont_slice_0_split
I0924 02:40:05.381577   324 net.cpp:91] Creating Layer cont_1_lstm2_cont_slice_0_split
I0924 02:40:05.381587   324 net.cpp:425] cont_1_lstm2_cont_slice_0_split <- cont_1
I0924 02:40:05.381606   324 net.cpp:399] cont_1_lstm2_cont_slice_0_split -> cont_1_lstm2_cont_slice_0_split_0
I0924 02:40:05.381624   324 net.cpp:399] cont_1_lstm2_cont_slice_0_split -> cont_1_lstm2_cont_slice_0_split_1
I0924 02:40:05.381742   324 net.cpp:141] Setting up cont_1_lstm2_cont_slice_0_split
I0924 02:40:05.381757   324 net.cpp:148] Top shape: 1 1 (1)
I0924 02:40:05.381767   324 net.cpp:148] Top shape: 1 1 (1)
I0924 02:40:05.381774   324 net.cpp:156] Memory required for data: 14020
I0924 02:40:05.381783   324 layer_factory.hpp:77] Creating layer lstm2_x_transform
I0924 02:40:05.381806   324 net.cpp:91] Creating Layer lstm2_x_transform
I0924 02:40:05.381811   324 net.cpp:425] lstm2_x_transform <- x
I0924 02:40:05.381820   324 net.cpp:399] lstm2_x_transform -> W_xc_x
I0924 02:40:05.381849   302 net.cpp:141] Setting up lstm1_x_transform
I0924 02:40:05.381870   302 net.cpp:148] Top shape: 1 1 4000 (4000)
I0924 02:40:05.381877   302 net.cpp:156] Memory required for data: 26016
I0924 02:40:05.381897   302 layer_factory.hpp:77] Creating layer lstm1_W_xc_x_slice
I0924 02:40:05.381909   302 net.cpp:91] Creating Layer lstm1_W_xc_x_slice
I0924 02:40:05.381916   302 net.cpp:425] lstm1_W_xc_x_slice <- W_xc_x
I0924 02:40:05.381923   302 net.cpp:399] lstm1_W_xc_x_slice -> W_xc_x_1
I0924 02:40:05.392572   302 net.cpp:141] Setting up lstm1_W_xc_x_slice
I0924 02:40:05.392627   302 net.cpp:148] Top shape: 1 1 4000 (4000)
I0924 02:40:05.392637   302 net.cpp:156] Memory required for data: 42016
I0924 02:40:05.392648   302 layer_factory.hpp:77] Creating layer lstm1_h_conted_0
I0924 02:40:05.392673   302 net.cpp:91] Creating Layer lstm1_h_conted_0
I0924 02:40:05.392683   302 net.cpp:425] lstm1_h_conted_0 <- h_0
I0924 02:40:05.392704   302 net.cpp:425] lstm1_h_conted_0 <- cont_1_lstm1_cont_slice_0_split_0
I0924 02:40:05.392717   302 net.cpp:399] lstm1_h_conted_0 -> h_conted_0
I0924 02:40:05.392711   306 net.cpp:141] Setting up lstm2_x_transform
I0924 02:40:05.392750   306 net.cpp:148] Top shape: 1 1 4000 (4000)
I0924 02:40:05.392755   306 net.cpp:156] Memory required for data: 30020
I0924 02:40:05.392776   306 layer_factory.hpp:77] Creating layer lstm2_W_xc_x_slice
I0924 02:40:05.392792   306 net.cpp:91] Creating Layer lstm2_W_xc_x_slice
I0924 02:40:05.392799   306 net.cpp:425] lstm2_W_xc_x_slice <- W_xc_x
I0924 02:40:05.392812   306 net.cpp:399] lstm2_W_xc_x_slice -> W_xc_x_1
I0924 02:40:05.392956   302 net.cpp:141] Setting up lstm1_h_conted_0
I0924 02:40:05.392974   302 net.cpp:148] Top shape: 1 1 1000 (1000)
I0924 02:40:05.392982   302 net.cpp:156] Memory required for data: 46016
I0924 02:40:05.392988   302 layer_factory.hpp:77] Creating layer lstm1_transform_1
I0924 02:40:05.393000   306 net.cpp:141] Setting up lstm2_W_xc_x_slice
I0924 02:40:05.393007   302 net.cpp:91] Creating Layer lstm1_transform_1
I0924 02:40:05.393013   306 net.cpp:148] Top shape: 1 1 4000 (4000)
I0924 02:40:05.393018   302 net.cpp:425] lstm1_transform_1 <- h_conted_0
I0924 02:40:05.393019   306 net.cpp:156] Memory required for data: 46020
I0924 02:40:05.393038   306 layer_factory.hpp:77] Creating layer lstm2_h_conted_0
I0924 02:40:05.393038   302 net.cpp:399] lstm1_transform_1 -> W_hc_h_0
I0924 02:40:05.393064   306 net.cpp:91] Creating Layer lstm2_h_conted_0
I0924 02:40:05.393070   306 net.cpp:425] lstm2_h_conted_0 <- h_0
I0924 02:40:05.393077   306 net.cpp:425] lstm2_h_conted_0 <- cont_1_lstm2_cont_slice_0_split_0
I0924 02:40:05.393085   306 net.cpp:399] lstm2_h_conted_0 -> h_conted_0
I0924 02:40:05.393087   330 net.cpp:141] Setting up lstm1_x_transform
I0924 02:40:05.393110   330 net.cpp:148] Top shape: 1 1 4000 (4000)
I0924 02:40:05.393115   330 net.cpp:156] Memory required for data: 26016
I0924 02:40:05.393139   330 layer_factory.hpp:77] Creating layer lstm1_W_xc_x_slice
I0924 02:40:05.393152   330 net.cpp:91] Creating Layer lstm1_W_xc_x_slice
I0924 02:40:05.393159   330 net.cpp:425] lstm1_W_xc_x_slice <- W_xc_x
I0924 02:40:05.393167   330 net.cpp:399] lstm1_W_xc_x_slice -> W_xc_x_1
I0924 02:40:05.403067   330 net.cpp:141] Setting up lstm1_W_xc_x_slice
I0924 02:40:05.403126   330 net.cpp:148] Top shape: 1 1 4000 (4000)
I0924 02:40:05.403136   330 net.cpp:156] Memory required for data: 42016
I0924 02:40:05.403149   330 layer_factory.hpp:77] Creating layer lstm1_h_conted_0
I0924 02:40:05.403182   330 net.cpp:91] Creating Layer lstm1_h_conted_0
I0924 02:40:05.403193   330 net.cpp:425] lstm1_h_conted_0 <- h_0
I0924 02:40:05.403208   330 net.cpp:425] lstm1_h_conted_0 <- cont_1_lstm1_cont_slice_0_split_0
I0924 02:40:05.403223   330 net.cpp:399] lstm1_h_conted_0 -> h_conted_0
I0924 02:40:05.403383   330 net.cpp:141] Setting up lstm1_h_conted_0
I0924 02:40:05.403398   330 net.cpp:148] Top shape: 1 1 1000 (1000)
I0924 02:40:05.403405   330 net.cpp:156] Memory required for data: 46016
I0924 02:40:05.403414   330 layer_factory.hpp:77] Creating layer lstm1_transform_1
I0924 02:40:05.403432   330 net.cpp:91] Creating Layer lstm1_transform_1
I0924 02:40:05.403440   330 net.cpp:425] lstm1_transform_1 <- h_conted_0
I0924 02:40:05.403453   330 net.cpp:399] lstm1_transform_1 -> W_hc_h_0
I0924 02:40:05.413537   306 net.cpp:141] Setting up lstm2_h_conted_0
I0924 02:40:05.413592   306 net.cpp:148] Top shape: 1 1 1000 (1000)
I0924 02:40:05.413600   306 net.cpp:156] Memory required for data: 50020
I0924 02:40:05.413614   306 layer_factory.hpp:77] Creating layer lstm2_transform_1
I0924 02:40:05.413637   306 net.cpp:91] Creating Layer lstm2_transform_1
I0924 02:40:05.413650   306 net.cpp:425] lstm2_transform_1 <- h_conted_0
I0924 02:40:05.413677   306 net.cpp:399] lstm2_transform_1 -> W_hc_h_0
I0924 02:40:05.413724   312 net.cpp:141] Setting up lstm2_x_transform
I0924 02:40:05.413743   312 net.cpp:148] Top shape: 1 1 4000 (4000)
I0924 02:40:05.413748   312 net.cpp:156] Memory required for data: 30020
I0924 02:40:05.413763   312 layer_factory.hpp:77] Creating layer lstm2_W_xc_x_slice
I0924 02:40:05.413776   312 net.cpp:91] Creating Layer lstm2_W_xc_x_slice
I0924 02:40:05.413782   312 net.cpp:425] lstm2_W_xc_x_slice <- W_xc_x
I0924 02:40:05.413791   312 net.cpp:399] lstm2_W_xc_x_slice -> W_xc_x_1
I0924 02:40:05.421710   312 net.cpp:141] Setting up lstm2_W_xc_x_slice
I0924 02:40:05.421772   312 net.cpp:148] Top shape: 1 1 4000 (4000)
I0924 02:40:05.421782   312 net.cpp:156] Memory required for data: 46020
I0924 02:40:05.421795   312 layer_factory.hpp:77] Creating layer lstm2_h_conted_0
I0924 02:40:05.421833   312 net.cpp:91] Creating Layer lstm2_h_conted_0
I0924 02:40:05.421843   312 net.cpp:425] lstm2_h_conted_0 <- h_0
I0924 02:40:05.421852   312 net.cpp:425] lstm2_h_conted_0 <- cont_1_lstm2_cont_slice_0_split_0
I0924 02:40:05.421862   312 net.cpp:399] lstm2_h_conted_0 -> h_conted_0
I0924 02:40:05.422018   312 net.cpp:141] Setting up lstm2_h_conted_0
I0924 02:40:05.422029   312 net.cpp:148] Top shape: 1 1 1000 (1000)
I0924 02:40:05.422034   312 net.cpp:156] Memory required for data: 50020
I0924 02:40:05.422039   312 layer_factory.hpp:77] Creating layer lstm2_transform_1
I0924 02:40:05.422054   312 net.cpp:91] Creating Layer lstm2_transform_1
I0924 02:40:05.422058   312 net.cpp:425] lstm2_transform_1 <- h_conted_0
I0924 02:40:05.422066   312 net.cpp:399] lstm2_transform_1 -> W_hc_h_0
I0924 02:40:05.451099   302 net.cpp:141] Setting up lstm1_transform_1
I0924 02:40:05.451155   302 net.cpp:148] Top shape: 1 1 4000 (4000)
I0924 02:40:05.451165   302 net.cpp:156] Memory required for data: 62016
I0924 02:40:05.451192   302 layer_factory.hpp:77] Creating layer lstm1_gate_input_1
I0924 02:40:05.451223   302 net.cpp:91] Creating Layer lstm1_gate_input_1
I0924 02:40:05.451234   302 net.cpp:425] lstm1_gate_input_1 <- W_hc_h_0
I0924 02:40:05.451246   302 net.cpp:425] lstm1_gate_input_1 <- W_xc_x_1
I0924 02:40:05.451259   302 net.cpp:399] lstm1_gate_input_1 -> gate_input_1
I0924 02:40:05.456455   324 net.cpp:141] Setting up lstm2_x_transform
I0924 02:40:05.456486   302 net.cpp:141] Setting up lstm1_gate_input_1
I0924 02:40:05.456511   302 net.cpp:148] Top shape: 1 1 4000 (4000)
I0924 02:40:05.456532   302 net.cpp:156] Memory required for data: 78016
I0924 02:40:05.456547   302 layer_factory.hpp:77] Creating layer lstm1_unit_1
I0924 02:40:05.456569   302 net.cpp:91] Creating Layer lstm1_unit_1
I0924 02:40:05.456579   302 net.cpp:425] lstm1_unit_1 <- c_0
I0924 02:40:05.456593   302 net.cpp:425] lstm1_unit_1 <- gate_input_1
I0924 02:40:05.456604   302 net.cpp:425] lstm1_unit_1 <- cont_1_lstm1_cont_slice_0_split_1
I0924 02:40:05.456616   302 net.cpp:399] lstm1_unit_1 -> c_1
I0924 02:40:05.456635   302 net.cpp:399] lstm1_unit_1 -> h_1
I0924 02:40:05.456626   306 net.cpp:141] Setting up lstm2_transform_1
I0924 02:40:05.456665   306 net.cpp:148] Top shape: 1 1 4000 (4000)
I0924 02:40:05.456671   306 net.cpp:156] Memory required for data: 66020
I0924 02:40:05.456691   306 layer_factory.hpp:77] Creating layer lstm2_gate_input_1
I0924 02:40:05.456712   306 net.cpp:91] Creating Layer lstm2_gate_input_1
I0924 02:40:05.456720   306 net.cpp:425] lstm2_gate_input_1 <- W_hc_h_0
I0924 02:40:05.456729   306 net.cpp:425] lstm2_gate_input_1 <- W_xc_x_1
I0924 02:40:05.456737   306 net.cpp:399] lstm2_gate_input_1 -> gate_input_1
I0924 02:40:05.456804   302 net.cpp:141] Setting up lstm1_unit_1
I0924 02:40:05.456821   302 net.cpp:148] Top shape: 1 1 1000 (1000)
I0924 02:40:05.456832   302 net.cpp:148] Top shape: 1 1 1000 (1000)
I0924 02:40:05.456840   302 net.cpp:156] Memory required for data: 86016
I0924 02:40:05.456847   302 layer_factory.hpp:77] Creating layer lstm1_
I0924 02:40:05.456852   306 net.cpp:141] Setting up lstm2_gate_input_1
I0924 02:40:05.456864   306 net.cpp:148] Top shape: 1 1 4000 (4000)
I0924 02:40:05.456866   302 net.cpp:91] Creating Layer lstm1_
I0924 02:40:05.456869   306 net.cpp:156] Memory required for data: 82020
I0924 02:40:05.456881   302 net.cpp:425] lstm1_ <- c_1
I0924 02:40:05.456887   306 layer_factory.hpp:77] Creating layer lstm2_unit_1
I0924 02:40:05.456894   302 net.cpp:399] lstm1_ -> c_T
I0924 02:40:05.456899   306 net.cpp:91] Creating Layer lstm2_unit_1
I0924 02:40:05.456905   306 net.cpp:425] lstm2_unit_1 <- c_0
I0924 02:40:05.456912   306 net.cpp:425] lstm2_unit_1 <- gate_input_1
I0924 02:40:05.456918   306 net.cpp:425] lstm2_unit_1 <- cont_1_lstm2_cont_slice_0_split_1
I0924 02:40:05.456928   306 net.cpp:399] lstm2_unit_1 -> c_1
I0924 02:40:05.456938   306 net.cpp:399] lstm2_unit_1 -> h_1
I0924 02:40:05.457041   302 net.cpp:141] Setting up lstm1_
I0924 02:40:05.457057   302 net.cpp:148] Top shape: 1 1 1000 (1000)
I0924 02:40:05.457065   302 net.cpp:156] Memory required for data: 90016
I0924 02:40:05.457073   302 layer_factory.hpp:77] Creating layer lstm1_h_concat
I0924 02:40:05.457087   302 net.cpp:91] Creating Layer lstm1_h_concat
I0924 02:40:05.457096   302 net.cpp:425] lstm1_h_concat <- h_1
I0924 02:40:05.457113   302 net.cpp:399] lstm1_h_concat -> h
I0924 02:40:05.457126   306 net.cpp:141] Setting up lstm2_unit_1
I0924 02:40:05.457139   306 net.cpp:148] Top shape: 1 1 1000 (1000)
I0924 02:40:05.457145   306 net.cpp:148] Top shape: 1 1 1000 (1000)
I0924 02:40:05.457149   306 net.cpp:156] Memory required for data: 90020
I0924 02:40:05.457154   306 layer_factory.hpp:77] Creating layer lstm2_
I0924 02:40:05.457165   306 net.cpp:91] Creating Layer lstm2_
I0924 02:40:05.457170   306 net.cpp:425] lstm2_ <- c_1
I0924 02:40:05.457176   306 net.cpp:399] lstm2_ -> c_T
I0924 02:40:05.457188   302 net.cpp:141] Setting up lstm1_h_concat
I0924 02:40:05.457204   302 net.cpp:148] Top shape: 1 1 1000 (1000)
I0924 02:40:05.457211   302 net.cpp:156] Memory required for data: 94016
I0924 02:40:05.457219   302 layer_factory.hpp:77] Creating layer h_pseudoloss
I0924 02:40:05.457231   306 net.cpp:141] Setting up lstm2_
I0924 02:40:05.457232   302 net.cpp:91] Creating Layer h_pseudoloss
I0924 02:40:05.457254   306 net.cpp:148] Top shape: 1 1 1000 (1000)
I0924 02:40:05.457265   302 net.cpp:425] h_pseudoloss <- h
I0924 02:40:05.457270   306 net.cpp:156] Memory required for data: 94020
I0924 02:40:05.457276   306 layer_factory.hpp:77] Creating layer lstm2_h_concat
I0924 02:40:05.457279   302 net.cpp:399] h_pseudoloss -> h_pseudoloss
I0924 02:40:05.457288   306 net.cpp:91] Creating Layer lstm2_h_concat
I0924 02:40:05.457294   306 net.cpp:425] lstm2_h_concat <- h_1
I0924 02:40:05.457303   306 net.cpp:399] lstm2_h_concat -> h
I0924 02:40:05.458984   306 net.cpp:141] Setting up lstm2_h_concat
I0924 02:40:05.459003   306 net.cpp:148] Top shape: 1 1 1000 (1000)
I0924 02:40:05.459008   306 net.cpp:156] Memory required for data: 98020
I0924 02:40:05.459014   306 layer_factory.hpp:77] Creating layer h_pseudoloss
I0924 02:40:05.459025   306 net.cpp:91] Creating Layer h_pseudoloss
I0924 02:40:05.459031   306 net.cpp:425] h_pseudoloss <- h
I0924 02:40:05.459039   306 net.cpp:399] h_pseudoloss -> h_pseudoloss
I0924 02:40:05.459085   302 net.cpp:141] Setting up h_pseudoloss
…
I0924 02:40:05.459348   306 net.cpp:261] This network produces output h_pseudoloss
I0924 02:40:05.459364   306 net.cpp:274] Network initialization done.
I0924 02:40:05.459395   302 recurrent_layer.cpp:150] Adding parameter 0: W_xc
I0924 02:40:05.459408   302 recurrent_layer.cpp:150] Adding parameter 1: b_c
I0924 02:40:05.459414   302 recurrent_layer.cpp:150] Adding parameter 2: W_hc
I0924 02:40:05.459420   306 recurrent_layer.cpp:150] Adding parameter 0: W_xc
I0924 02:40:05.459427   306 recurrent_layer.cpp:150] Adding parameter 1: b_c
I0924 02:40:05.459434   306 recurrent_layer.cpp:150] Adding parameter 2: W_hc
I0924 02:40:05.456512   324 net.cpp:148] Top shape: 1 1 4000 (4000)
I0924 02:40:05.462532   324 net.cpp:156] Memory required for data: 30020
I0924 02:40:05.462559   324 layer_factory.hpp:77] Creating layer lstm2_W_xc_x_slice
I0924 02:40:05.462579   324 net.cpp:91] Creating Layer lstm2_W_xc_x_slice
I0924 02:40:05.462589   324 net.cpp:425] lstm2_W_xc_x_slice <- W_xc_x
I0924 02:40:05.462617   324 net.cpp:399] lstm2_W_xc_x_slice -> W_xc_x_1
I0924 02:40:05.467108   324 net.cpp:141] Setting up lstm2_W_xc_x_slice
I0924 02:40:05.467144   324 net.cpp:148] Top shape: 1 1 4000 (4000)
I0924 02:40:05.467152   324 net.cpp:156] Memory required for data: 46020
I0924 02:40:05.467162   324 layer_factory.hpp:77] Creating layer lstm2_h_conted_0
I0924 02:40:05.467187   330 net.cpp:141] Setting up lstm1_transform_1
I0924 02:40:05.467188   324 net.cpp:91] Creating Layer lstm2_h_conted_0
I0924 02:40:05.467239   330 net.cpp:148] Top shape: 1 1 4000 (4000)
I0924 02:40:05.467242   324 net.cpp:425] lstm2_h_conted_0 <- h_0
I0924 02:40:05.467250   330 net.cpp:156] Memory required for data: 62016
I0924 02:40:05.467257   324 net.cpp:425] lstm2_h_conted_0 <- cont_1_lstm2_cont_slice_0_split_0
I0924 02:40:05.467270   324 net.cpp:399] lstm2_h_conted_0 -> h_conted_0
I0924 02:40:05.467272   330 layer_factory.hpp:77] Creating layer lstm1_gate_input_1
I0924 02:40:05.467300   330 net.cpp:91] Creating Layer lstm1_gate_input_1
I0924 02:40:05.467311   330 net.cpp:425] lstm1_gate_input_1 <- W_hc_h_0
I0924 02:40:05.467321   330 net.cpp:425] lstm1_gate_input_1 <- W_xc_x_1
I0924 02:40:05.467322   302 net.cpp:141] Setting up lstm1
I0924 02:40:05.467334   330 net.cpp:399] lstm1_gate_input_1 -> gate_input_1
I0924 02:40:05.467342   302 net.cpp:148] Top shape: 1 1 1000 (1000)
I0924 02:40:05.467351   302 net.cpp:156] Memory required for data: 26408
I0924 02:40:05.467371   302 layer_factory.hpp:77] Creating layer concat
I0924 02:40:05.467387   302 net.cpp:91] Creating Layer concat
I0924 02:40:05.467396   302 net.cpp:425] concat <- lstm1
I0924 02:40:05.467406   302 net.cpp:425] concat <- embedded_input_sentence
I0924 02:40:05.467417   302 net.cpp:425] concat <- reshaped_stage_indicator
I0924 02:40:05.467427   302 net.cpp:399] concat -> lstm1_video_sequence
I0924 02:40:05.467499   302 net.cpp:141] Setting up concat
I0924 02:40:05.467512   302 net.cpp:148] Top shape: 1 1 1501 (1501)
I0924 02:40:05.467519   302 net.cpp:156] Memory required for data: 32412
I0924 02:40:05.467527   302 layer_factory.hpp:77] Creating layer lstm2
I0924 02:40:05.467547   302 net.cpp:91] Creating Layer lstm2
I0924 02:40:05.467545   306 net.cpp:141] Setting up lstm2
I0924 02:40:05.467566   302 net.cpp:425] lstm2 <- lstm1_video_sequence
I0924 02:40:05.467591   306 net.cpp:148] Top shape: 1 1 1000 (1000)
I0924 02:40:05.467597   306 net.cpp:156] Memory required for data: 36412
I0924 02:40:05.467600   302 net.cpp:425] lstm2 <- cont_sentence_input_1_split_1
I0924 02:40:05.467612   330 net.cpp:141] Setting up lstm1_gate_input_1
I0924 02:40:05.467617   306 layer_factory.hpp:77] Creating layer predict
I0924 02:40:05.467635   330 net.cpp:148] Top shape: 1 1 4000 (4000)
I0924 02:40:05.467615   302 net.cpp:399] lstm2 -> lstm2
I0924 02:40:05.467644   330 net.cpp:156] Memory required for data: 78016
I0924 02:40:05.467648   306 net.cpp:91] Creating Layer predict
I0924 02:40:05.467653   330 layer_factory.hpp:77] Creating layer lstm1_unit_1
I0924 02:40:05.467658   306 net.cpp:425] predict <- lstm2
I0924 02:40:05.467660   302 recurrent_layer.cpp:20] Initializing recurrent layer: assuming input batch contains 1 timesteps of 1 independent streams.
I0924 02:40:05.467667   306 net.cpp:399] predict -> predict
I0924 02:40:05.467666   330 net.cpp:91] Creating Layer lstm1_unit_1
I0924 02:40:05.467695   330 net.cpp:425] lstm1_unit_1 <- c_0
I0924 02:40:05.467706   330 net.cpp:425] lstm1_unit_1 <- gate_input_1
I0924 02:40:05.467715   330 net.cpp:425] lstm1_unit_1 <- cont_1_lstm1_cont_slice_0_split_1
I0924 02:40:05.467727   330 net.cpp:399] lstm1_unit_1 -> c_1
I0924 02:40:05.467741   330 net.cpp:399] lstm1_unit_1 -> h_1
I0924 02:40:05.467772   324 net.cpp:141] Setting up lstm2_h_conted_0
I0924 02:40:05.467788   324 net.cpp:148] Top shape: 1 1 1000 (1000)
I0924 02:40:05.467795   324 net.cpp:156] Memory required for data: 50020
I0924 02:40:05.467803   324 layer_factory.hpp:77] Creating layer lstm2_transform_1
I0924 02:40:05.467820   324 net.cpp:91] Creating Layer lstm2_transform_1
I0924 02:40:05.467829   324 net.cpp:425] lstm2_transform_1 <- h_conted_0
I0924 02:40:05.467844   324 net.cpp:399] lstm2_transform_1 -> W_hc_h_0
I0924 02:40:05.467874   330 net.cpp:141] Setting up lstm1_unit_1
I0924 02:40:05.467888   330 net.cpp:148] Top shape: 1 1 1000 (1000)
I0924 02:40:05.467898   330 net.cpp:148] Top shape: 1 1 1000 (1000)
I0924 02:40:05.467905   330 net.cpp:156] Memory required for data: 86016
I0924 02:40:05.467913   330 layer_factory.hpp:77] Creating layer lstm1_
I0924 02:40:05.467929   330 net.cpp:91] Creating Layer lstm1_
I0924 02:40:05.467937   330 net.cpp:425] lstm1_ <- c_1
I0924 02:40:05.467948   330 net.cpp:399] lstm1_ -> c_T
I0924 02:40:05.468065   302 net.cpp:49] Initializing net from parameters: 
layer {
  name: "lstm2_"
  type: "Input"
  top: "x"
  top: "cont"
  input_param {
    shape {
      dim: 1
      dim: 1
      dim: 1501
    }
    shape {
      dim: 1
      dim: 1
    }
  }
}
layer {
  name: "lstm2_"
  type: "Input"
  top: "c_0"
  top: "h_0"
  input_param {
    shape {
      dim: 1
      dim: 1
      dim: 1000
    }
    shape {
      dim: 1
      dim: 1
      dim: 1000
    }
  }
}
layer {
  name: "lstm2_cont_slice"
  type: "Slice"
  bottom: "cont"
  top: "cont_1"
  slice_param {
    axis: 0
  }
}
layer {
  name: "lstm2_x_transform"
  type: "InnerProduct"
  bottom: "x"
  top: "W_xc_x"
  param {
    name: "W_xc"
  }
  param {
    name: "b_c"
  }
  propagate_down: true
  inner_product_param {
    num_output: 4000
    bias_term: true
    weight_filler {
      type: "uniform"
      min: -0.08
      max: 0.08
    }
    bias_filler {
      type: "constant"
      value: 0
    }
    axis: 2
  }
}
layer {
  name: "lstm2_W_xc_x_slice"
  type: "Slice"
  bottom: "W_xc_x"
  top: "W_xc_x_1"
  slice_param {
    axis: 0
  }
}
layer {
  name: "lstm2_h_conted_0"
  type: "Scale"
  bottom: "h_0"
  bottom: "cont_1"
  top: "h_conted_0"
  scale_param {
    axis: 0
  }
}
layer {
  name: "lstm2_transform_1"
  type: "InnerProduct"
  bottom: "h_conted_0"
  top: "W_hc_h_0"
  param {
    name: "W_hc"
  }
  inner_product_param {
    num_output: 4000
    bias_term: false
    weight_filler {
      type: "uniform"
      min: -0.08
      max: 0.08
    }
    axis: 2
  }
}
layer {
  name: "lstm2_gate_input_1"
  type: "Eltwise"
  bottom: "W_hc_h_0"
  bottom: "W_xc_x_1"
  top: "gate_input_1"
  eltwise_param {
    operation: SUM
  }
}
layer {
  name: "lstm2_unit_1"
  type: "LSTMUnit"
  bottom: "c_0"
  bottom: "gate_input_1"
  bottom: "cont_1"
  top: "c_1"
  top: "h_1"
}
layer {
  name: "lstm2_"
  type: "Split"
  bottom: "c_1"
  top: "c_T"
}
layer {
  name: "lstm2_h_concat"
  type: "Concat"
  bottom: "h_1"
  top: "h"
  concat_param {
    axis: 0
  }
}
layer {
  name: "h_pseudoloss"
  type: "Reduction"
  bottom: "h"
  top: "h_pseudoloss"
  loss_weight: 1
}
I0924 02:40:05.468195   302 layer_factory.hpp:77] Creating layer lstm2_
I0924 02:40:05.468214   302 net.cpp:91] Creating Layer lstm2_
I0924 02:40:05.468224   302 net.cpp:399] lstm2_ -> x
I0924 02:40:05.468240   302 net.cpp:399] lstm2_ -> cont
I0924 02:40:05.563334   312 net.cpp:141] Setting up lstm2_transform_1
I0924 02:40:05.563370   330 net.cpp:141] Setting up lstm1_
I0924 02:40:05.563391   330 net.cpp:148] Top shape: 1 1 1000 (1000)
I0924 02:40:05.563391   312 net.cpp:148] Top shape: 1 1 4000 (4000)
I0924 02:40:05.563398   330 net.cpp:156] Memory required for data: 90016
I0924 02:40:05.563402   312 net.cpp:156] Memory required for data: 66020
I0924 02:40:05.563407   330 layer_factory.hpp:77] Creating layer lstm1_h_concat
I0924 02:40:05.563426   330 net.cpp:91] Creating Layer lstm1_h_concat
I0924 02:40:05.563428   312 layer_factory.hpp:77] Creating layer lstm2_gate_input_1
I0924 02:40:05.563434   330 net.cpp:425] lstm1_h_concat <- h_1
I0924 02:40:05.563454   330 net.cpp:399] lstm1_h_concat -> h
I0924 02:40:05.563454   302 net.cpp:141] Setting up lstm2_
I0924 02:40:05.563457   312 net.cpp:91] Creating Layer lstm2_gate_input_1
I0924 02:40:05.563513   302 net.cpp:148] Top shape: 1 1 1501 (1501)
I0924 02:40:05.563518   312 net.cpp:425] lstm2_gate_input_1 <- W_hc_h_0
I0924 02:40:05.563526   302 net.cpp:148] Top shape: 1 1 (1)
I0924 02:40:05.563531   312 net.cpp:425] lstm2_gate_input_1 <- W_xc_x_1
I0924 02:40:05.563535   302 net.cpp:156] Memory required for data: 6008
I0924 02:40:05.563549   312 net.cpp:399] lstm2_gate_input_1 -> gate_input_1
I0924 02:40:05.563549   302 layer_factory.hpp:77] Creating layer lstm2_
I0924 02:40:05.563591   302 net.cpp:91] Creating Layer lstm2_
I0924 02:40:05.563604   302 net.cpp:399] lstm2_ -> c_0
I0924 02:40:05.563619   302 net.cpp:399] lstm2_ -> h_0
I0924 02:40:05.568770   330 net.cpp:141] Setting up lstm1_h_concat
I0924 02:40:05.568820   330 net.cpp:148] Top shape: 1 1 1000 (1000)
I0924 02:40:05.568828   330 net.cpp:156] Memory required for data: 94016
I0924 02:40:05.568841   330 layer_factory.hpp:77] Creating layer h_pseudoloss
I0924 02:40:05.568866   330 net.cpp:91] Creating Layer h_pseudoloss
I0924 02:40:05.568879   330 net.cpp:425] h_pseudoloss <- h
I0924 02:40:05.568897   330 net.cpp:399] h_pseudoloss -> h_pseudoloss
I0924 02:40:05.568943   312 net.cpp:141] Setting up lstm2_gate_input_1
I0924 02:40:05.568965   312 net.cpp:148] Top shape: 1 1 4000 (4000)
I0924 02:40:05.568974   312 net.cpp:156] Memory required for data: 82020
I0924 02:40:05.568984   312 layer_factory.hpp:77] Creating layer lstm2_unit_1
I0924 02:40:05.568999   312 net.cpp:91] Creating Layer lstm2_unit_1
I0924 02:40:05.569010   312 net.cpp:425] lstm2_unit_1 <- c_0
I0924 02:40:05.569021   312 net.cpp:425] lstm2_unit_1 <- gate_input_1
I0924 02:40:05.569032   312 net.cpp:425] lstm2_unit_1 <- cont_1_lstm2_cont_slice_0_split_1
I0924 02:40:05.569046   312 net.cpp:399] lstm2_unit_1 -> c_1
I0924 02:40:05.569047   302 net.cpp:141] Setting up lstm2_
I0924 02:40:05.569062   312 net.cpp:399] lstm2_unit_1 -> h_1
I0924 02:40:05.569070   302 net.cpp:148] Top shape: 1 1 1000 (1000)
I0924 02:40:05.569082   302 net.cpp:148] Top shape: 1 1 1000 (1000)
I0924 02:40:05.569089   302 net.cpp:156] Memory required for data: 14008
I0924 02:40:05.569099   302 layer_factory.hpp:77] Creating layer lstm2_cont_slice
I0924 02:40:05.569118   302 net.cpp:91] Creating Layer lstm2_cont_slice
I0924 02:40:05.569128   302 net.cpp:425] lstm2_cont_slice <- cont
I0924 02:40:05.569144   302 net.cpp:399] lstm2_cont_slice -> cont_1
I0924 02:40:05.569185   312 net.cpp:141] Setting up lstm2_unit_1
I0924 02:40:05.569200   312 net.cpp:148] Top shape: 1 1 1000 (1000)
I0924 02:40:05.569211   312 net.cpp:148] Top shape: 1 1 1000 (1000)
I0924 02:40:05.569217   312 net.cpp:156] Memory required for data: 90020
I0924 02:40:05.569226   312 layer_factory.hpp:77] Creating layer lstm2_
I0924 02:40:05.569242   312 net.cpp:91] Creating Layer lstm2_
I0924 02:40:05.569249   312 net.cpp:425] lstm2_ <- c_1
I0924 02:40:05.569259   312 net.cpp:399] lstm2_ -> c_T
I0924 02:40:05.569275   302 net.cpp:141] Setting up lstm2_cont_slice
I0924 02:40:05.569303   302 net.cpp:148] Top shape: 1 1 (1)
I0924 02:40:05.569314   302 net.cpp:156] Memory required for data: 14012
I0924 02:40:05.569319   312 net.cpp:141] Setting up lstm2_
I0924 02:40:05.569322   302 layer_factory.hpp:77] Creating layer cont_1_lstm2_cont_slice_0_split
I0924 02:40:05.569334   312 net.cpp:148] Top shape: 1 1 1000 (1000)
I0924 02:40:05.569341   312 net.cpp:156] Memory required for data: 94020
I0924 02:40:05.569360   312 layer_factory.hpp:77] Creating layer lstm2_h_concat
I0924 02:40:05.569375   312 net.cpp:91] Creating Layer lstm2_h_concat
I0924 02:40:05.569385   312 net.cpp:425] lstm2_h_concat <- h_1
I0924 02:40:05.569341   302 net.cpp:91] Creating Layer cont_1_lstm2_cont_slice_0_split
I0924 02:40:05.569399   312 net.cpp:399] lstm2_h_concat -> h
I0924 02:40:05.569418   302 net.cpp:425] cont_1_lstm2_cont_slice_0_split <- cont_1
I0924 02:40:05.569435   302 net.cpp:399] cont_1_lstm2_cont_slice_0_split -> cont_1_lstm2_cont_slice_0_split_0
I0924 02:40:05.569452   302 net.cpp:399] cont_1_lstm2_cont_slice_0_split -> cont_1_lstm2_cont_slice_0_split_1
I0924 02:40:05.570787   312 net.cpp:141] Setting up lstm2_h_concat
I0924 02:40:05.570825   312 net.cpp:148] Top shape: 1 1 1000 (1000)
I0924 02:40:05.570833   312 net.cpp:156] Memory required for data: 98020
I0924 02:40:05.570844   312 layer_factory.hpp:77] Creating layer h_pseudoloss
I0924 02:40:05.570865   312 net.cpp:91] Creating Layer h_pseudoloss
I0924 02:40:05.570874   312 net.cpp:425] h_pseudoloss <- h
I0924 02:40:05.570889   312 net.cpp:399] h_pseudoloss -> h_pseudoloss
I0924 02:40:05.570911   302 net.cpp:141] Setting up cont_1_lstm2_cont_slice_0_split
I0924 02:40:05.570935   302 net.cpp:148] Top shape: 1 1 (1)
I0924 02:40:05.570947   302 net.cpp:148] Top shape: 1 1 (1)
I0924 02:40:05.570955   302 net.cpp:156] Memory required for data: 14020
I0924 02:40:05.570965   302 layer_factory.hpp:77] Creating layer lstm2_x_transform
I0924 02:40:05.570994   302 net.cpp:91] Creating Layer lstm2_x_transform
I0924 02:40:05.571005   302 net.cpp:425] lstm2_x_transform <- x
I0924 02:40:05.571022   302 net.cpp:399] lstm2_x_transform -> W_xc_x
I0924 02:40:05.571038   312 net.cpp:141] Setting up h_pseudoloss
…
I0924 02:40:05.584275   330 net.cpp:219] lstm1_ does not need backward computation.
I0924 02:40:05.584285   330 net.cpp:217] lstm1_unit_1 needs backward computation.
I0924 02:40:05.584323   330 net.cpp:217] lstm1_gate_input_1 needs backward computation.
I0924 02:40:05.584339   330 net.cpp:217] lstm1_transform_1 needs backward computation.
I0924 02:40:05.584349   330 net.cpp:219] lstm1_h_conted_0 does not need backward computation.
I0924 02:40:05.584352   312 net.cpp:141] Setting up lstm2
I0924 02:40:05.584360   330 net.cpp:217] lstm1_W_xc_x_slice needs backward computation.
I0924 02:40:05.584372   312 net.cpp:148] Top shape: 1 1 1000 (1000)
I0924 02:40:05.584370   330 net.cpp:217] lstm1_x_transform needs backward computation.
I0924 02:40:05.584383   312 net.cpp:156] Memory required for data: 36412
I0924 02:40:05.584398   330 net.cpp:219] cont_1_lstm1_cont_slice_0_split does not need backward computation.
I0924 02:40:05.584409   330 net.cpp:219] lstm1_cont_slice does not need backward computation.
I0924 02:40:05.584414   312 layer_factory.hpp:77] Creating layer predict
I0924 02:40:05.584434   312 net.cpp:91] Creating Layer predict
I0924 02:40:05.584442   312 net.cpp:425] predict <- lstm2
I0924 02:40:05.584419   330 net.cpp:219] lstm1_ does not need backward computation.
I0924 02:40:05.584471   312 net.cpp:399] predict -> predict
I0924 02:40:05.584471   330 net.cpp:219] lstm1_ does not need backward computation.
I0924 02:40:05.584482   330 net.cpp:261] This network produces output c_T
I0924 02:40:05.584491   330 net.cpp:261] This network produces output h_pseudoloss
I0924 02:40:05.584516   330 net.cpp:274] Network initialization done.
I0924 02:40:05.584602   330 recurrent_layer.cpp:150] Adding parameter 0: W_xc
I0924 02:40:05.584617   330 recurrent_layer.cpp:150] Adding parameter 1: b_c
I0924 02:40:05.584626   330 recurrent_layer.cpp:150] Adding parameter 2: W_hc
I0924 02:40:05.665961   330 net.cpp:141] Setting up lstm1
I0924 02:40:05.665999   324 net.cpp:141] Setting up lstm2_transform_1
I0924 02:40:05.666023   330 net.cpp:148] Top shape: 1 1 1000 (1000)
I0924 02:40:05.666033   330 net.cpp:156] Memory required for data: 26408
I0924 02:40:05.666039   324 net.cpp:148] Top shape: 1 1 4000 (4000)
I0924 02:40:05.666049   324 net.cpp:156] Memory required for data: 66020
I0924 02:40:05.666065   330 layer_factory.hpp:77] Creating layer concat
I0924 02:40:05.666075   324 layer_factory.hpp:77] Creating layer lstm2_gate_input_1
I0924 02:40:05.666092   330 net.cpp:91] Creating Layer concat
I0924 02:40:05.666106   330 net.cpp:425] concat <- lstm1
I0924 02:40:05.666120   330 net.cpp:425] concat <- embedded_input_sentence
I0924 02:40:05.666131   330 net.cpp:425] concat <- reshaped_stage_indicator
I0924 02:40:05.666147   330 net.cpp:399] concat -> lstm1_video_sequence
I0924 02:40:05.666162   324 net.cpp:91] Creating Layer lstm2_gate_input_1
I0924 02:40:05.666179   324 net.cpp:425] lstm2_gate_input_1 <- W_hc_h_0
I0924 02:40:05.666193   324 net.cpp:425] lstm2_gate_input_1 <- W_xc_x_1
I0924 02:40:05.666208   324 net.cpp:399] lstm2_gate_input_1 -> gate_input_1
I0924 02:40:05.667146   302 net.cpp:141] Setting up lstm2_x_transform
I0924 02:40:05.667176   302 net.cpp:148] Top shape: 1 1 4000 (4000)
I0924 02:40:05.667186   302 net.cpp:156] Memory required for data: 30020
I0924 02:40:05.667219   302 layer_factory.hpp:77] Creating layer lstm2_W_xc_x_slice
I0924 02:40:05.667246   330 net.cpp:141] Setting up concat
I0924 02:40:05.667276   330 net.cpp:148] Top shape: 1 1 1501 (1501)
I0924 02:40:05.667285   330 net.cpp:156] Memory required for data: 32412
I0924 02:40:05.667297   330 layer_factory.hpp:77] Creating layer lstm2
I0924 02:40:05.667316   302 net.cpp:91] Creating Layer lstm2_W_xc_x_slice
I0924 02:40:05.667325   330 net.cpp:91] Creating Layer lstm2
I0924 02:40:05.667351   302 net.cpp:425] lstm2_W_xc_x_slice <- W_xc_x
I0924 02:40:05.667361   330 net.cpp:425] lstm2 <- lstm1_video_sequence
I0924 02:40:05.667377   330 net.cpp:425] lstm2 <- cont_sentence_input_1_split_1
I0924 02:40:05.667397   330 net.cpp:399] lstm2 -> lstm2
I0924 02:40:05.667389   302 net.cpp:399] lstm2_W_xc_x_slice -> W_xc_x_1
I0924 02:40:05.667389   324 net.cpp:141] Setting up lstm2_gate_input_1
I0924 02:40:05.667423   330 recurrent_layer.cpp:20] Initializing recurrent layer: assuming input batch contains 1 timesteps of 1 independent streams.
I0924 02:40:05.667434   324 net.cpp:148] Top shape: 1 1 4000 (4000)
I0924 02:40:05.667453   324 net.cpp:156] Memory required for data: 82020
I0924 02:40:05.667469   324 layer_factory.hpp:77] Creating layer lstm2_unit_1
I0924 02:40:05.667497   324 net.cpp:91] Creating Layer lstm2_unit_1
I0924 02:40:05.667515   324 net.cpp:425] lstm2_unit_1 <- c_0
I0924 02:40:05.667536   324 net.cpp:425] lstm2_unit_1 <- gate_input_1
I0924 02:40:05.667557   324 net.cpp:425] lstm2_unit_1 <- cont_1_lstm2_cont_slice_0_split_1
I0924 02:40:05.667573   302 net.cpp:141] Setting up lstm2_W_xc_x_slice
I0924 02:40:05.667580   324 net.cpp:399] lstm2_unit_1 -> c_1
I0924 02:40:05.667603   302 net.cpp:148] Top shape: 1 1 4000 (4000)
I0924 02:40:05.667611   324 net.cpp:399] lstm2_unit_1 -> h_1
I0924 02:40:05.667620   302 net.cpp:156] Memory required for data: 46020
I0924 02:40:05.667636   302 layer_factory.hpp:77] Creating layer lstm2_h_conted_0
I0924 02:40:05.667666   302 net.cpp:91] Creating Layer lstm2_h_conted_0
I0924 02:40:05.667687   302 net.cpp:425] lstm2_h_conted_0 <- h_0
I0924 02:40:05.667708   302 net.cpp:425] lstm2_h_conted_0 <- cont_1_lstm2_cont_slice_0_split_0
I0924 02:40:05.667743   302 net.cpp:399] lstm2_h_conted_0 -> h_conted_0
I0924 02:40:05.667901   324 net.cpp:141] Setting up lstm2_unit_1
I0924 02:40:05.667932   324 net.cpp:148] Top shape: 1 1 1000 (1000)
I0924 02:40:05.667944   324 net.cpp:148] Top shape: 1 1 1000 (1000)
I0924 02:40:05.667953   330 net.cpp:49] Initializing net from parameters: 
layer {
  name: "lstm2_"
  type: "Input"
  top: "x"
  top: "cont"
  input_param {
    shape {
      dim: 1
      dim: 1
      dim: 1501
    }
    shape {
      dim: 1
      dim: 1
    }
  }
}
layer {
  name: "lstm2_"
  type: "Input"
  top: "c_0"
  top: "h_0"
  input_param {
    shape {
      dim: 1
      dim: 1
      dim: 1000
    }
    shape {
      dim: 1
      dim: 1
      dim: 1000
    }
  }
}
layer {
  name: "lstm2_cont_slice"
  type: "Slice"
  bottom: "cont"
  top: "cont_1"
  slice_param {
    axis: 0
  }
}
layer {
  name: "lstm2_x_transform"
  type: "InnerProduct"
  bottom: "x"
  top: "W_xc_x"
  param {
    name: "W_xc"
  }
  param {
    name: "b_c"
  }
  propagate_down: true
  inner_product_param {
    num_output: 4000
    bias_term: true
    weight_filler {
      type: "uniform"
      min: -0.08
      max: 0.08
    }
    bias_filler {
      type: "constant"
      value: 0
    }
    axis: 2
  }
}
layer {
  name: "lstm2_W_xc_x_slice"
  type: "Slice"
  bottom: "W_xc_x"
  top: "W_xc_x_1"
  slice_param {
    axis: 0
  }
}
layer {
  name: "lstm2_h_conted_0"
  type: "Scale"
  bottom: "h_0"
  bottom: "cont_1"
  top: "h_conted_0"
  scale_param {
    axis: 0
  }
}
layer {
  name: "lstm2_transform_1"
  type: "InnerProduct"
  bottom: "h_conted_0"
  top: "W_hc_h_0"
  param {
    name: "W_hc"
  }
  inner_product_param {
    num_output: 4000
    bias_term: false
    weight_filler {
      type: "uniform"
      min: -0.08
      max: 0.08
    }
    axis: 2
  }
}
layer {
  name: "lstm2_gate_input_1"
  type: "Eltwise"
  bottom: "W_hc_h_0"
  bottom: "W_xc_x_1"
  top: "gate_input_1"
  eltwise_param {
    operation: SUM
  }
}
layer {
  name: "lstm2_unit_1"
  type: "LSTMUnit"
  bottom: "c_0"
  bottom: "gate_input_1"
  bottom: "cont_1"
  top: "c_1"
  top: "h_1"
}
layer {
  name: "lstm2_"
  type: "Split"
  bottom: "c_1"
  top: "c_T"
}
layer {
  name: "lstm2_h_concat"
  type: "Concat"
  bottom: "h_1"
  top: "h"
  concat_param {
    axis: 0
  }
}
layer {
  name: "h_pseudoloss"
  type: "Reduction"
  bottom: "h"
  top: "h_pseudoloss"
  loss_weight: 1
}
I0924 02:40:05.667956   324 net.cpp:156] Memory required for data: 90020
I0924 02:40:05.668000   324 layer_factory.hpp:77] Creating layer lstm2_
I0924 02:40:05.668036   324 net.cpp:91] Creating Layer lstm2_
I0924 02:40:05.668056   324 net.cpp:425] lstm2_ <- c_1
I0924 02:40:05.668083   324 net.cpp:399] lstm2_ -> c_T
I0924 02:40:05.668129   330 layer_factory.hpp:77] Creating layer lstm2_
I0924 02:40:05.668154   330 net.cpp:91] Creating Layer lstm2_
I0924 02:40:05.668169   330 net.cpp:399] lstm2_ -> x
I0924 02:40:05.668190   330 net.cpp:399] lstm2_ -> cont
I0924 02:40:05.668279   324 net.cpp:141] Setting up lstm2_
I0924 02:40:05.668313   324 net.cpp:148] Top shape: 1 1 1000 (1000)
I0924 02:40:05.668404   324 net.cpp:156] Memory required for data: 94020
I0924 02:40:05.668419   324 layer_factory.hpp:77] Creating layer lstm2_h_concat
I0924 02:40:05.668439   324 net.cpp:91] Creating Layer lstm2_h_concat
I0924 02:40:05.668450   324 net.cpp:425] lstm2_h_concat <- h_1
I0924 02:40:05.668478   324 net.cpp:399] lstm2_h_concat -> h
I0924 02:40:05.668848   324 net.cpp:141] Setting up lstm2_h_concat
I0924 02:40:05.668879   324 net.cpp:148] Top shape: 1 1 1000 (1000)
I0924 02:40:05.668895   324 net.cpp:156] Memory required for data: 98020
I0924 02:40:05.668910   324 layer_factory.hpp:77] Creating layer h_pseudoloss
I0924 02:40:05.668939   324 net.cpp:91] Creating Layer h_pseudoloss
I0924 02:40:05.668949   302 net.cpp:141] Setting up lstm2_h_conted_0
I0924 02:40:05.668957   324 net.cpp:425] h_pseudoloss <- h
I0924 02:40:05.668978   302 net.cpp:148] Top shape: 1 1 1000 (1000)
I0924 02:40:05.668982   324 net.cpp:399] h_pseudoloss -> h_pseudoloss
I0924 02:40:05.668995   302 net.cpp:156] Memory required for data: 50020
I0924 02:40:05.669011   302 layer_factory.hpp:77] Creating layer lstm2_transform_1
I0924 02:40:05.669045   302 net.cpp:91] Creating Layer lstm2_transform_1
I0924 02:40:05.669060   302 net.cpp:425] lstm2_transform_1 <- h_conted_0
I0924 02:40:05.669085   302 net.cpp:399] lstm2_transform_1 -> W_hc_h_0
I0924 02:40:05.669140   330 net.cpp:141] Setting up lstm2_
I0924 02:40:05.669167   330 net.cpp:148] Top shape: 1 1 1501 (1501)
I0924 02:40:05.669179   330 net.cpp:148] Top shape: 1 1 (1)
I0924 02:40:05.669188   330 net.cpp:156] Memory required for data: 6008
I0924 02:40:05.669198   330 layer_factory.hpp:77] Creating layer lstm2_
I0924 02:40:05.669217   330 net.cpp:91] Creating Layer lstm2_
I0924 02:40:05.669237   330 net.cpp:399] lstm2_ -> c_0
I0924 02:40:05.669260   330 net.cpp:399] lstm2_ -> h_0
I0924 02:40:05.669656   330 net.cpp:141] Setting up lstm2_
I0924 02:40:05.669677   330 net.cpp:148] Top shape: 1 1 1000 (1000)
I0924 02:40:05.669690   330 net.cpp:148] Top shape: 1 1 1000 (1000)
I0924 02:40:05.669699   330 net.cpp:156] Memory required for data: 14008
I0924 02:40:05.669708   330 layer_factory.hpp:77] Creating layer lstm2_cont_slice
I0924 02:40:05.669726   330 net.cpp:91] Creating Layer lstm2_cont_slice
I0924 02:40:05.669764   330 net.cpp:425] lstm2_cont_slice <- cont
I0924 02:40:05.669782   330 net.cpp:399] lstm2_cont_slice -> cont_1
I0924 02:40:05.669879   330 net.cpp:141] Setting up lstm2_cont_slice
I0924 02:40:05.669898   330 net.cpp:148] Top shape: 1 1 (1)
I0924 02:40:05.669909   330 net.cpp:156] Memory required for data: 14012
I0924 02:40:05.669917   330 layer_factory.hpp:77] Creating layer cont_1_lstm2_cont_slice_0_split
I0924 02:40:05.669939   330 net.cpp:91] Creating Layer cont_1_lstm2_cont_slice_0_split
I0924 02:40:05.669951   330 net.cpp:425] cont_1_lstm2_cont_slice_0_split <- cont_1
I0924 02:40:05.669965   330 net.cpp:399] cont_1_lstm2_cont_slice_0_split -> cont_1_lstm2_cont_slice_0_split_0
…
I0924 02:40:05.670310   324 net.cpp:219] lstm2_ does not need backward computation.
I0924 02:40:05.670325   324 net.cpp:261] This network produces output c_T
I0924 02:40:05.670341   324 net.cpp:261] This network produces output h_pseudoloss
I0924 02:40:05.670388   324 net.cpp:274] Network initialization done.
I0924 02:40:05.670516   324 recurrent_layer.cpp:150] Adding parameter 0: W_xc
I0924 02:40:05.670536   324 recurrent_layer.cpp:150] Adding parameter 1: b_c
I0924 02:40:05.670552   324 recurrent_layer.cpp:150] Adding parameter 2: W_hc
I0924 02:40:05.678030   330 net.cpp:141] Setting up cont_1_lstm2_cont_slice_0_split
I0924 02:40:05.678083   330 net.cpp:148] Top shape: 1 1 (1)
I0924 02:40:05.678099   330 net.cpp:148] Top shape: 1 1 (1)
I0924 02:40:05.678108   330 net.cpp:156] Memory required for data: 14020
I0924 02:40:05.678122   330 layer_factory.hpp:77] Creating layer lstm2_x_transform
I0924 02:40:05.678158   330 net.cpp:91] Creating Layer lstm2_x_transform
I0924 02:40:05.678171   330 net.cpp:425] lstm2_x_transform <- x
I0924 02:40:05.678198   330 net.cpp:399] lstm2_x_transform -> W_xc_x
I0924 02:40:05.691989   310 net.cpp:141] Setting up conv1
I0924 02:40:05.692042   310 net.cpp:148] Top shape: 10 96 55 55 (2904000)
I0924 02:40:05.692052   310 net.cpp:156] Memory required for data: 17799480
I0924 02:40:05.692081   310 layer_factory.hpp:77] Creating layer relu1
I0924 02:40:05.692111   310 net.cpp:91] Creating Layer relu1
I0924 02:40:05.692122   310 net.cpp:425] relu1 <- conv1
I0924 02:40:05.692134   310 net.cpp:386] relu1 -> conv1 (in-place)
I0924 02:40:05.692745   310 net.cpp:141] Setting up relu1
I0924 02:40:05.692762   310 net.cpp:148] Top shape: 10 96 55 55 (2904000)
I0924 02:40:05.692770   310 net.cpp:156] Memory required for data: 29415480
I0924 02:40:05.692778   310 layer_factory.hpp:77] Creating layer pool1
I0924 02:40:05.692798   310 net.cpp:91] Creating Layer pool1
I0924 02:40:05.692806   310 net.cpp:425] pool1 <- conv1
I0924 02:40:05.692818   310 net.cpp:399] pool1 -> pool1
I0924 02:40:05.692929   310 net.cpp:141] Setting up pool1
I0924 02:40:05.692944   310 net.cpp:148] Top shape: 10 96 27 27 (699840)
I0924 02:40:05.692950   310 net.cpp:156] Memory required for data: 32214840
I0924 02:40:05.692957   310 layer_factory.hpp:77] Creating layer norm1
I0924 02:40:05.692981   310 net.cpp:91] Creating Layer norm1
I0924 02:40:05.692989   310 net.cpp:425] norm1 <- pool1
I0924 02:40:05.693004   310 net.cpp:399] norm1 -> norm1
I0924 02:40:05.693389   310 net.cpp:141] Setting up norm1
I0924 02:40:05.693408   310 net.cpp:148] Top shape: 10 96 27 27 (699840)
I0924 02:40:05.693415   310 net.cpp:156] Memory required for data: 35014200
I0924 02:40:05.693425   310 layer_factory.hpp:77] Creating layer conv2
I0924 02:40:05.693444   310 net.cpp:91] Creating Layer conv2
I0924 02:40:05.693452   310 net.cpp:425] conv2 <- norm1
I0924 02:40:05.693469   310 net.cpp:399] conv2 -> conv2
I0924 02:40:05.696952   324 net.cpp:141] Setting up lstm2
I0924 02:40:05.697002   324 net.cpp:148] Top shape: 1 1 1000 (1000)
I0924 02:40:05.697015   324 net.cpp:156] Memory required for data: 36412
I0924 02:40:05.697046   324 layer_factory.hpp:77] Creating layer predict
I0924 02:40:05.697072   324 net.cpp:91] Creating Layer predict
I0924 02:40:05.697084   324 net.cpp:425] predict <- lstm2
I0924 02:40:05.697101   324 net.cpp:399] predict -> predict
I0924 02:40:05.787113   302 net.cpp:141] Setting up lstm2_transform_1
I0924 02:40:05.787168   302 net.cpp:148] Top shape: 1 1 4000 (4000)
I0924 02:40:05.787174   302 net.cpp:156] Memory required for data: 66020
I0924 02:40:05.787200   302 layer_factory.hpp:77] Creating layer lstm2_gate_input_1
I0924 02:40:05.787226   302 net.cpp:91] Creating Layer lstm2_gate_input_1
I0924 02:40:05.787235   302 net.cpp:425] lstm2_gate_input_1 <- W_hc_h_0
I0924 02:40:05.787243   302 net.cpp:425] lstm2_gate_input_1 <- W_xc_x_1
I0924 02:40:05.787252   302 net.cpp:399] lstm2_gate_input_1 -> gate_input_1
I0924 02:40:05.787562   330 net.cpp:141] Setting up lstm2_x_transform
I0924 02:40:05.787606   302 net.cpp:141] Setting up lstm2_gate_input_1
I0924 02:40:05.787613   330 net.cpp:148] Top shape: 1 1 4000 (4000)
I0924 02:40:05.787631   302 net.cpp:148] Top shape: 1 1 4000 (4000)
I0924 02:40:05.787643   330 net.cpp:156] Memory required for data: 30020
I0924 02:40:05.787647   302 net.cpp:156] Memory required for data: 82020
I0924 02:40:05.787663   302 layer_factory.hpp:77] Creating layer lstm2_unit_1
I0924 02:40:05.787675   302 net.cpp:91] Creating Layer lstm2_unit_1
I0924 02:40:05.787678   330 layer_factory.hpp:77] Creating layer lstm2_W_xc_x_slice
I0924 02:40:05.787680   302 net.cpp:425] lstm2_unit_1 <- c_0
I0924 02:40:05.787698   302 net.cpp:425] lstm2_unit_1 <- gate_input_1
I0924 02:40:05.787703   330 net.cpp:91] Creating Layer lstm2_W_xc_x_slice
I0924 02:40:05.787705   302 net.cpp:425] lstm2_unit_1 <- cont_1_lstm2_cont_slice_0_split_1
I0924 02:40:05.787719   330 net.cpp:425] lstm2_W_xc_x_slice <- W_xc_x
I0924 02:40:05.787730   302 net.cpp:399] lstm2_unit_1 -> c_1
I0924 02:40:05.787740   330 net.cpp:399] lstm2_W_xc_x_slice -> W_xc_x_1
I0924 02:40:05.787742   302 net.cpp:399] lstm2_unit_1 -> h_1
I0924 02:40:05.787993   302 net.cpp:141] Setting up lstm2_unit_1
I0924 02:40:05.788004   302 net.cpp:148] Top shape: 1 1 1000 (1000)
I0924 02:40:05.788010   302 net.cpp:148] Top shape: 1 1 1000 (1000)
I0924 02:40:05.788015   302 net.cpp:156] Memory required for data: 90020
I0924 02:40:05.788020   302 layer_factory.hpp:77] Creating layer lstm2_
I0924 02:40:05.788029   302 net.cpp:91] Creating Layer lstm2_
I0924 02:40:05.788034   302 net.cpp:425] lstm2_ <- c_1
I0924 02:40:05.788041   302 net.cpp:399] lstm2_ -> c_T
I0924 02:40:05.788048   330 net.cpp:141] Setting up lstm2_W_xc_x_slice
I0924 02:40:05.788063   330 net.cpp:148] Top shape: 1 1 4000 (4000)
I0924 02:40:05.788066   330 net.cpp:156] Memory required for data: 46020
I0924 02:40:05.788072   330 layer_factory.hpp:77] Creating layer lstm2_h_conted_0
I0924 02:40:05.788084   330 net.cpp:91] Creating Layer lstm2_h_conted_0
I0924 02:40:05.788089   330 net.cpp:425] lstm2_h_conted_0 <- h_0
I0924 02:40:05.788095   330 net.cpp:425] lstm2_h_conted_0 <- cont_1_lstm2_cont_slice_0_split_0
I0924 02:40:05.788103   330 net.cpp:399] lstm2_h_conted_0 -> h_conted_0
I0924 02:40:05.788770   310 net.cpp:141] Setting up conv2
I0924 02:40:05.788801   310 net.cpp:148] Top shape: 10 256 27 27 (1866240)
I0924 02:40:05.788810   310 net.cpp:156] Memory required for data: 42479160
I0924 02:40:05.788835   310 layer_factory.hpp:77] Creating layer relu2
I0924 02:40:05.788851   310 net.cpp:91] Creating Layer relu2
I0924 02:40:05.788862   310 net.cpp:425] relu2 <- conv2
I0924 02:40:05.788880   310 net.cpp:386] relu2 -> conv2 (in-place)
I0924 02:40:05.789710   310 net.cpp:141] Setting up relu2
I0924 02:40:05.789737   310 net.cpp:148] Top shape: 10 256 27 27 (1866240)
I0924 02:40:05.789746   310 net.cpp:156] Memory required for data: 49944120
I0924 02:40:05.789755   310 layer_factory.hpp:77] Creating layer pool2
I0924 02:40:05.789778   310 net.cpp:91] Creating Layer pool2
I0924 02:40:05.789788   310 net.cpp:425] pool2 <- conv2
I0924 02:40:05.789800   310 net.cpp:399] pool2 -> pool2
I0924 02:40:05.789928   310 net.cpp:141] Setting up pool2
I0924 02:40:05.789943   310 net.cpp:148] Top shape: 10 256 13 13 (432640)
I0924 02:40:05.789952   310 net.cpp:156] Memory required for data: 51674680
I0924 02:40:05.789958   310 layer_factory.hpp:77] Creating layer norm2
I0924 02:40:05.789983   310 net.cpp:91] Creating Layer norm2
I0924 02:40:05.789994   310 net.cpp:425] norm2 <- pool2
I0924 02:40:05.790005   310 net.cpp:399] norm2 -> norm2
I0924 02:40:05.790408   310 net.cpp:141] Setting up norm2
I0924 02:40:05.790424   310 net.cpp:148] Top shape: 10 256 13 13 (432640)
I0924 02:40:05.790432   310 net.cpp:156] Memory required for data: 53405240
I0924 02:40:05.790441   310 layer_factory.hpp:77] Creating layer conv3
I0924 02:40:05.790465   310 net.cpp:91] Creating Layer conv3
I0924 02:40:05.790474   310 net.cpp:425] conv3 <- norm2
I0924 02:40:05.790487   310 net.cpp:399] conv3 -> conv3
I0924 02:40:05.790843   302 net.cpp:141] Setting up lstm2_
I0924 02:40:05.790865   302 net.cpp:148] Top shape: 1 1 1000 (1000)
I0924 02:40:05.790871   302 net.cpp:156] Memory required for data: 94020
I0924 02:40:05.790877   302 layer_factory.hpp:77] Creating layer lstm2_h_concat
I0924 02:40:05.790889   302 net.cpp:91] Creating Layer lstm2_h_concat
I0924 02:40:05.790894   302 net.cpp:425] lstm2_h_concat <- h_1
I0924 02:40:05.790902   302 net.cpp:399] lstm2_h_concat -> h
I0924 02:40:05.790933   330 net.cpp:141] Setting up lstm2_h_conted_0
I0924 02:40:05.790956   330 net.cpp:148] Top shape: 1 1 1000 (1000)
I0924 02:40:05.790963   330 net.cpp:156] Memory required for data: 50020
I0924 02:40:05.790971   302 net.cpp:141] Setting up lstm2_h_concat
I0924 02:40:05.790972   330 layer_factory.hpp:77] Creating layer lstm2_transform_1
I0924 02:40:05.790987   302 net.cpp:148] Top shape: 1 1 1000 (1000)
I0924 02:40:05.791010   302 net.cpp:156] Memory required for data: 98020
I0924 02:40:05.791016   302 layer_factory.hpp:77] Creating layer h_pseudoloss
I0924 02:40:05.791015   330 net.cpp:91] Creating Layer lstm2_transform_1
I0924 02:40:05.791029   302 net.cpp:91] Creating Layer h_pseudoloss
I0924 02:40:05.791030   330 net.cpp:425] lstm2_transform_1 <- h_conted_0
I0924 02:40:05.791034   302 net.cpp:425] h_pseudoloss <- h
…
I0924 02:40:05.791257   302 net.cpp:219] lstm2_ does not need backward computation.
I0924 02:40:05.791261   302 net.cpp:261] This network produces output c_T
I0924 02:40:05.791266   302 net.cpp:261] This network produces output h_pseudoloss
I0924 02:40:05.791281   302 net.cpp:274] Network initialization done.
I0924 02:40:05.791335   302 recurrent_layer.cpp:150] Adding parameter 0: W_xc
I0924 02:40:05.791342   302 recurrent_layer.cpp:150] Adding parameter 1: b_c
I0924 02:40:05.791345   302 recurrent_layer.cpp:150] Adding parameter 2: W_hc
I0924 02:40:05.805232   302 net.cpp:141] Setting up lstm2
I0924 02:40:05.805289   302 net.cpp:148] Top shape: 1 1 1000 (1000)
I0924 02:40:05.805295   302 net.cpp:156] Memory required for data: 36412
I0924 02:40:05.805318   302 layer_factory.hpp:77] Creating layer predict
I0924 02:40:05.805343   302 net.cpp:91] Creating Layer predict
I0924 02:40:05.805351   302 net.cpp:425] predict <- lstm2
I0924 02:40:05.805362   302 net.cpp:399] predict -> predict
I0924 02:40:05.886085   330 net.cpp:141] Setting up lstm2_transform_1
I0924 02:40:05.886147   330 net.cpp:148] Top shape: 1 1 4000 (4000)
I0924 02:40:05.886157   330 net.cpp:156] Memory required for data: 66020
I0924 02:40:05.886183   330 layer_factory.hpp:77] Creating layer lstm2_gate_input_1
I0924 02:40:05.886210   330 net.cpp:91] Creating Layer lstm2_gate_input_1
I0924 02:40:05.886219   330 net.cpp:425] lstm2_gate_input_1 <- W_hc_h_0
I0924 02:40:05.886227   330 net.cpp:425] lstm2_gate_input_1 <- W_xc_x_1
I0924 02:40:05.886236   330 net.cpp:399] lstm2_gate_input_1 -> gate_input_1
I0924 02:40:05.886565   330 net.cpp:141] Setting up lstm2_gate_input_1
I0924 02:40:05.886577   330 net.cpp:148] Top shape: 1 1 4000 (4000)
I0924 02:40:05.886581   330 net.cpp:156] Memory required for data: 82020
I0924 02:40:05.886586   330 layer_factory.hpp:77] Creating layer lstm2_unit_1
I0924 02:40:05.886615   330 net.cpp:91] Creating Layer lstm2_unit_1
I0924 02:40:05.886620   330 net.cpp:425] lstm2_unit_1 <- c_0
I0924 02:40:05.886626   330 net.cpp:425] lstm2_unit_1 <- gate_input_1
I0924 02:40:05.886632   330 net.cpp:425] lstm2_unit_1 <- cont_1_lstm2_cont_slice_0_split_1
I0924 02:40:05.886642   330 net.cpp:399] lstm2_unit_1 -> c_1
I0924 02:40:05.886652   330 net.cpp:399] lstm2_unit_1 -> h_1
I0924 02:40:05.886768   330 net.cpp:141] Setting up lstm2_unit_1
I0924 02:40:05.886780   330 net.cpp:148] Top shape: 1 1 1000 (1000)
I0924 02:40:05.886785   330 net.cpp:148] Top shape: 1 1 1000 (1000)
I0924 02:40:05.886790   330 net.cpp:156] Memory required for data: 90020
I0924 02:40:05.886795   330 layer_factory.hpp:77] Creating layer lstm2_
I0924 02:40:05.886804   330 net.cpp:91] Creating Layer lstm2_
I0924 02:40:05.886809   330 net.cpp:425] lstm2_ <- c_1
I0924 02:40:05.886816   330 net.cpp:399] lstm2_ -> c_T
I0924 02:40:05.886983   330 net.cpp:141] Setting up lstm2_
I0924 02:40:05.886994   330 net.cpp:148] Top shape: 1 1 1000 (1000)
I0924 02:40:05.886998   330 net.cpp:156] Memory required for data: 94020
I0924 02:40:05.887003   330 layer_factory.hpp:77] Creating layer lstm2_h_concat
I0924 02:40:05.887013   330 net.cpp:91] Creating Layer lstm2_h_concat
I0924 02:40:05.887018   330 net.cpp:425] lstm2_h_concat <- h_1
I0924 02:40:05.887028   330 net.cpp:399] lstm2_h_concat -> h
I0924 02:40:05.887079   310 net.cpp:141] Setting up conv3
I0924 02:40:05.887104   330 net.cpp:141] Setting up lstm2_h_concat
I0924 02:40:05.887116   330 net.cpp:148] Top shape: 1 1 1000 (1000)
I0924 02:40:05.887120   310 net.cpp:148] Top shape: 10 384 13 13 (648960)
I0924 02:40:05.887120   330 net.cpp:156] Memory required for data: 98020
I0924 02:40:05.887130   310 net.cpp:156] Memory required for data: 56001080
I0924 02:40:05.887135   330 layer_factory.hpp:77] Creating layer h_pseudoloss
I0924 02:40:05.887150   330 net.cpp:91] Creating Layer h_pseudoloss
I0924 02:40:05.887152   310 layer_factory.hpp:77] Creating layer relu3
I0924 02:40:05.887156   330 net.cpp:425] h_pseudoloss <- h
…
I0924 02:40:05.887370   330 net.cpp:219] lstm2_ does not need backward computation.
I0924 02:40:05.887373   330 net.cpp:261] This network produces output c_T
I0924 02:40:05.887378   330 net.cpp:261] This network produces output h_pseudoloss
I0924 02:40:05.887398   330 net.cpp:274] Network initialization done.
I0924 02:40:05.887452   330 recurrent_layer.cpp:150] Adding parameter 0: W_xc
I0924 02:40:05.887459   330 recurrent_layer.cpp:150] Adding parameter 1: b_c
I0924 02:40:05.887464   330 recurrent_layer.cpp:150] Adding parameter 2: W_hc
I0924 02:40:05.887503   310 net.cpp:141] Setting up relu3
I0924 02:40:05.887516   310 net.cpp:148] Top shape: 10 384 13 13 (648960)
I0924 02:40:05.887521   310 net.cpp:156] Memory required for data: 58596920
I0924 02:40:05.887527   310 layer_factory.hpp:77] Creating layer conv4
I0924 02:40:05.887544   310 net.cpp:91] Creating Layer conv4
I0924 02:40:05.887550   310 net.cpp:425] conv4 <- conv3
I0924 02:40:05.887562   310 net.cpp:399] conv4 -> conv4
I0924 02:40:05.887810   330 net.cpp:141] Setting up lstm2
I0924 02:40:05.887822   330 net.cpp:148] Top shape: 1 1 1000 (1000)
I0924 02:40:05.887827   330 net.cpp:156] Memory required for data: 36412
I0924 02:40:05.887842   330 layer_factory.hpp:77] Creating layer predict
I0924 02:40:05.887856   330 net.cpp:91] Creating Layer predict
I0924 02:40:05.887863   330 net.cpp:425] predict <- lstm2
I0924 02:40:05.887871   330 net.cpp:399] predict -> predict
I0924 02:40:05.987565   306 net.cpp:141] Setting up predict
I0924 02:40:05.987627   306 net.cpp:148] Top shape: 1 1 46168 (46168)
I0924 02:40:05.987637   306 net.cpp:156] Memory required for data: 221084
I0924 02:40:05.987658   306 layer_factory.hpp:77] Creating layer probs
I0924 02:40:05.987682   306 net.cpp:91] Creating Layer probs
I0924 02:40:05.987694   306 net.cpp:425] probs <- predict
I0924 02:40:05.987709   306 net.cpp:399] probs -> probs
I0924 02:40:05.990473   306 net.cpp:141] Setting up probs
I0924 02:40:05.990530   306 net.cpp:148] Top shape: 1 1 46168 (46168)
I0924 02:40:05.990538   306 net.cpp:156] Memory required for data: 405756
I0924 02:40:05.990550   306 net.cpp:219] probs does not need backward computation.
I0924 02:40:05.990561   306 net.cpp:219] predict does not need backward computation.
I0924 02:40:05.990569   306 net.cpp:219] lstm2 does not need backward computation.
I0924 02:40:05.990578   306 net.cpp:219] concat does not need backward computation.
I0924 02:40:05.990588   306 net.cpp:219] lstm1 does not need backward computation.
I0924 02:40:05.990610   306 net.cpp:219] embedding does not need backward computation.
I0924 02:40:05.990620   306 net.cpp:219] reshape_stage_indicator does not need backward computation.
I0924 02:40:05.990628   306 net.cpp:219] reshape_frames does not need backward computation.
I0924 02:40:05.990635   306 net.cpp:219] embed_encoder does not need backward computation.
I0924 02:40:05.990643   306 net.cpp:219] cont_sentence_input_1_split does not need backward computation.
I0924 02:40:05.990651   306 net.cpp:219] input does not need backward computation.
I0924 02:40:05.990658   306 net.cpp:261] This network produces output probs
I0924 02:40:05.990681   306 net.cpp:274] Network initialization done.
I0924 02:40:05.992682   310 net.cpp:141] Setting up conv4
I0924 02:40:05.992733   310 net.cpp:148] Top shape: 10 384 13 13 (648960)
I0924 02:40:05.992739   310 net.cpp:156] Memory required for data: 61192760
I0924 02:40:05.992753   310 layer_factory.hpp:77] Creating layer relu4
I0924 02:40:05.992769   310 net.cpp:91] Creating Layer relu4
I0924 02:40:05.992776   310 net.cpp:425] relu4 <- conv4
I0924 02:40:05.992785   310 net.cpp:386] relu4 -> conv4 (in-place)
I0924 02:40:05.993113   310 net.cpp:141] Setting up relu4
I0924 02:40:05.993127   310 net.cpp:148] Top shape: 10 384 13 13 (648960)
I0924 02:40:05.993132   310 net.cpp:156] Memory required for data: 63788600
I0924 02:40:05.993137   310 layer_factory.hpp:77] Creating layer conv5
I0924 02:40:05.993154   310 net.cpp:91] Creating Layer conv5
I0924 02:40:05.993160   310 net.cpp:425] conv5 <- conv4
I0924 02:40:05.993167   310 net.cpp:399] conv5 -> conv5
I0924 02:40:05.997936   310 net.cpp:141] Setting up conv5
I0924 02:40:05.997989   310 net.cpp:148] Top shape: 10 256 13 13 (432640)
I0924 02:40:05.997999   310 net.cpp:156] Memory required for data: 65519160
I0924 02:40:05.998031   310 layer_factory.hpp:77] Creating layer relu5
I0924 02:40:05.998054   310 net.cpp:91] Creating Layer relu5
I0924 02:40:05.998065   310 net.cpp:425] relu5 <- conv5
I0924 02:40:05.998078   310 net.cpp:386] relu5 -> conv5 (in-place)
I0924 02:40:05.998518   310 net.cpp:141] Setting up relu5
I0924 02:40:05.998538   310 net.cpp:148] Top shape: 10 256 13 13 (432640)
I0924 02:40:05.998546   310 net.cpp:156] Memory required for data: 67249720
I0924 02:40:05.998556   310 layer_factory.hpp:77] Creating layer pool5
I0924 02:40:05.998572   310 net.cpp:91] Creating Layer pool5
I0924 02:40:05.998581   310 net.cpp:425] pool5 <- conv5
I0924 02:40:05.998615   310 net.cpp:399] pool5 -> pool5
I0924 02:40:05.998754   310 net.cpp:141] Setting up pool5
I0924 02:40:05.998772   310 net.cpp:148] Top shape: 10 256 6 6 (92160)
I0924 02:40:05.998781   310 net.cpp:156] Memory required for data: 67618360
I0924 02:40:05.998790   310 layer_factory.hpp:77] Creating layer fc6
I0924 02:40:05.998811   310 net.cpp:91] Creating Layer fc6
I0924 02:40:05.998821   310 net.cpp:425] fc6 <- pool5
I0924 02:40:05.998842   310 net.cpp:399] fc6 -> fc6
I0924 02:40:06.065074   312 net.cpp:141] Setting up predict
I0924 02:40:06.065141   312 net.cpp:148] Top shape: 1 1 46168 (46168)
I0924 02:40:06.065155   312 net.cpp:156] Memory required for data: 221084
I0924 02:40:06.065179   312 layer_factory.hpp:77] Creating layer probs
I0924 02:40:06.065206   312 net.cpp:91] Creating Layer probs
I0924 02:40:06.065218   312 net.cpp:425] probs <- predict
I0924 02:40:06.065237   312 net.cpp:399] probs -> probs
I0924 02:40:06.066352   312 net.cpp:141] Setting up probs
I0924 02:40:06.066392   312 net.cpp:148] Top shape: 1 1 46168 (46168)
I0924 02:40:06.066398   312 net.cpp:156] Memory required for data: 405756
I0924 02:40:06.066406   312 net.cpp:219] probs does not need backward computation.
I0924 02:40:06.066413   312 net.cpp:219] predict does not need backward computation.
I0924 02:40:06.066419   312 net.cpp:219] lstm2 does not need backward computation.
I0924 02:40:06.066426   312 net.cpp:219] concat does not need backward computation.
I0924 02:40:06.066433   312 net.cpp:219] lstm1 does not need backward computation.
I0924 02:40:06.066439   312 net.cpp:219] embedding does not need backward computation.
I0924 02:40:06.066444   312 net.cpp:219] reshape_stage_indicator does not need backward computation.
I0924 02:40:06.066450   312 net.cpp:219] reshape_frames does not need backward computation.
I0924 02:40:06.066458   312 net.cpp:219] embed_encoder does not need backward computation.
I0924 02:40:06.066463   312 net.cpp:219] cont_sentence_input_1_split does not need backward computation.
I0924 02:40:06.066469   312 net.cpp:219] input does not need backward computation.
I0924 02:40:06.066473   312 net.cpp:261] This network produces output probs
I0924 02:40:06.066490   312 net.cpp:274] Network initialization done.
I0924 02:40:06.104719   310 net.cpp:141] Setting up fc6
I0924 02:40:06.104766   310 net.cpp:148] Top shape: 10 4096 (40960)
I0924 02:40:06.104773   310 net.cpp:156] Memory required for data: 67782200
I0924 02:40:06.104786   310 layer_factory.hpp:77] Creating layer relu6
I0924 02:40:06.104805   310 net.cpp:91] Creating Layer relu6
I0924 02:40:06.104813   310 net.cpp:425] relu6 <- fc6
I0924 02:40:06.104825   310 net.cpp:386] relu6 -> fc6 (in-place)
I0924 02:40:06.105180   310 net.cpp:141] Setting up relu6
I0924 02:40:06.105191   310 net.cpp:148] Top shape: 10 4096 (40960)
I0924 02:40:06.105196   310 net.cpp:156] Memory required for data: 67946040
I0924 02:40:06.105201   310 layer_factory.hpp:77] Creating layer drop6
I0924 02:40:06.105226   310 net.cpp:91] Creating Layer drop6
I0924 02:40:06.105232   310 net.cpp:425] drop6 <- fc6
I0924 02:40:06.105239   310 net.cpp:386] drop6 -> fc6 (in-place)
I0924 02:40:06.105294   310 net.cpp:141] Setting up drop6
I0924 02:40:06.105304   310 net.cpp:148] Top shape: 10 4096 (40960)
I0924 02:40:06.105309   310 net.cpp:156] Memory required for data: 68109880
I0924 02:40:06.105314   310 layer_factory.hpp:77] Creating layer fc7
I0924 02:40:06.105324   310 net.cpp:91] Creating Layer fc7
I0924 02:40:06.105329   310 net.cpp:425] fc7 <- fc6
I0924 02:40:06.105340   310 net.cpp:399] fc7 -> fc7
I0924 02:40:06.154784   310 net.cpp:141] Setting up fc7
I0924 02:40:06.154830   310 net.cpp:148] Top shape: 10 4096 (40960)
I0924 02:40:06.154836   310 net.cpp:156] Memory required for data: 68273720
I0924 02:40:06.154850   310 layer_factory.hpp:77] Creating layer relu7
I0924 02:40:06.154867   310 net.cpp:91] Creating Layer relu7
I0924 02:40:06.154875   310 net.cpp:425] relu7 <- fc7
I0924 02:40:06.154886   310 net.cpp:386] relu7 -> fc7 (in-place)
I0924 02:40:06.157615   310 net.cpp:141] Setting up relu7
I0924 02:40:06.157636   310 net.cpp:148] Top shape: 10 4096 (40960)
I0924 02:40:06.157642   310 net.cpp:156] Memory required for data: 68437560
I0924 02:40:06.157649   310 layer_factory.hpp:77] Creating layer drop7
I0924 02:40:06.157660   310 net.cpp:91] Creating Layer drop7
I0924 02:40:06.157667   310 net.cpp:425] drop7 <- fc7
I0924 02:40:06.157675   310 net.cpp:386] drop7 -> fc7 (in-place)
I0924 02:40:06.157726   310 net.cpp:141] Setting up drop7
I0924 02:40:06.157734   310 net.cpp:148] Top shape: 10 4096 (40960)
I0924 02:40:06.157739   310 net.cpp:156] Memory required for data: 68601400
I0924 02:40:06.157744   310 layer_factory.hpp:77] Creating layer fc8
I0924 02:40:06.157765   310 net.cpp:91] Creating Layer fc8
I0924 02:40:06.157770   310 net.cpp:425] fc8 <- fc7
I0924 02:40:06.157780   310 net.cpp:399] fc8 -> fc8
I0924 02:40:06.170042   310 net.cpp:141] Setting up fc8
I0924 02:40:06.170092   310 net.cpp:148] Top shape: 10 1000 (10000)
I0924 02:40:06.170099   310 net.cpp:156] Memory required for data: 68641400
I0924 02:40:06.170114   310 layer_factory.hpp:77] Creating layer prob
I0924 02:40:06.170130   310 net.cpp:91] Creating Layer prob
I0924 02:40:06.170137   310 net.cpp:425] prob <- fc8
I0924 02:40:06.170146   310 net.cpp:399] prob -> prob
I0924 02:40:06.171049   310 net.cpp:141] Setting up prob
I0924 02:40:06.171066   310 net.cpp:148] Top shape: 10 1000 (10000)
I0924 02:40:06.171072   310 net.cpp:156] Memory required for data: 68681400
I0924 02:40:06.171078   310 net.cpp:219] prob does not need backward computation.
I0924 02:40:06.171084   310 net.cpp:219] fc8 does not need backward computation.
I0924 02:40:06.171088   310 net.cpp:219] drop7 does not need backward computation.
I0924 02:40:06.171093   310 net.cpp:219] relu7 does not need backward computation.
…
I0924 02:40:06.171171   310 net.cpp:219] norm1 does not need backward computation.
I0924 02:40:06.171177   310 net.cpp:219] pool1 does not need backward computation.
I0924 02:40:06.171182   310 net.cpp:219] relu1 does not need backward computation.
I0924 02:40:06.171186   310 net.cpp:219] conv1 does not need backward computation.
I0924 02:40:06.171191   310 net.cpp:219] data does not need backward computation.
I0924 02:40:06.171196   310 net.cpp:261] This network produces output prob
I0924 02:40:06.171214   310 net.cpp:274] Network initialization done.
I0924 02:40:06.198060   324 net.cpp:141] Setting up predict
I0924 02:40:06.198134   324 net.cpp:148] Top shape: 1 1 46168 (46168)
I0924 02:40:06.198145   324 net.cpp:156] Memory required for data: 221084
I0924 02:40:06.198184   324 layer_factory.hpp:77] Creating layer probs
I0924 02:40:06.198288   324 net.cpp:91] Creating Layer probs
I0924 02:40:06.198308   324 net.cpp:425] probs <- predict
I0924 02:40:06.198328   324 net.cpp:399] probs -> probs
I0924 02:40:06.199746   324 net.cpp:141] Setting up probs
I0924 02:40:06.199789   324 net.cpp:148] Top shape: 1 1 46168 (46168)
I0924 02:40:06.199800   324 net.cpp:156] Memory required for data: 405756
I0924 02:40:06.199812   324 net.cpp:219] probs does not need backward computation.
I0924 02:40:06.199823   324 net.cpp:219] predict does not need backward computation.
I0924 02:40:06.199837   324 net.cpp:219] lstm2 does not need backward computation.
I0924 02:40:06.199849   324 net.cpp:219] concat does not need backward computation.
I0924 02:40:06.199861   324 net.cpp:219] lstm1 does not need backward computation.
I0924 02:40:06.199878   324 net.cpp:219] embedding does not need backward computation.
I0924 02:40:06.199890   324 net.cpp:219] reshape_stage_indicator does not need backward computation.
I0924 02:40:06.199900   324 net.cpp:219] reshape_frames does not need backward computation.
I0924 02:40:06.199911   324 net.cpp:219] embed_encoder does not need backward computation.
I0924 02:40:06.199923   324 net.cpp:219] cont_sentence_input_1_split does not need backward computation.
I0924 02:40:06.199934   324 net.cpp:219] input does not need backward computation.
I0924 02:40:06.199942   324 net.cpp:261] This network produces output probs
I0924 02:40:06.199970   324 net.cpp:274] Network initialization done.
I0924 02:40:06.273057   302 net.cpp:141] Setting up predict
I0924 02:40:06.273123   302 net.cpp:148] Top shape: 1 1 46168 (46168)
I0924 02:40:06.273129   302 net.cpp:156] Memory required for data: 221084
I0924 02:40:06.273161   302 layer_factory.hpp:77] Creating layer probs
I0924 02:40:06.273185   302 net.cpp:91] Creating Layer probs
I0924 02:40:06.273195   302 net.cpp:425] probs <- predict
I0924 02:40:06.273208   302 net.cpp:399] probs -> probs
I0924 02:40:06.273766   302 net.cpp:141] Setting up probs
I0924 02:40:06.273793   302 net.cpp:148] Top shape: 1 1 46168 (46168)
I0924 02:40:06.273798   302 net.cpp:156] Memory required for data: 405756
I0924 02:40:06.273805   302 net.cpp:219] probs does not need backward computation.
I0924 02:40:06.273811   302 net.cpp:219] predict does not need backward computation.
I0924 02:40:06.273818   302 net.cpp:219] lstm2 does not need backward computation.
I0924 02:40:06.273824   302 net.cpp:219] concat does not need backward computation.
I0924 02:40:06.273833   302 net.cpp:219] lstm1 does not need backward computation.
I0924 02:40:06.273839   302 net.cpp:219] embedding does not need backward computation.
I0924 02:40:06.273845   302 net.cpp:219] reshape_stage_indicator does not need backward computation.
I0924 02:40:06.273850   302 net.cpp:219] reshape_frames does not need backward computation.
I0924 02:40:06.273856   302 net.cpp:219] embed_encoder does not need backward computation.
I0924 02:40:06.273862   302 net.cpp:219] cont_sentence_input_1_split does not need backward computation.
I0924 02:40:06.273867   302 net.cpp:219] input does not need backward computation.
I0924 02:40:06.273871   302 net.cpp:261] This network produces output probs
I0924 02:40:06.273890   302 net.cpp:274] Network initialization done.
I0924 02:40:06.411260   330 net.cpp:141] Setting up predict
I0924 02:40:06.411362   330 net.cpp:148] Top shape: 1 1 46168 (46168)
I0924 02:40:06.411375   330 net.cpp:156] Memory required for data: 221084
I0924 02:40:06.411403   330 layer_factory.hpp:77] Creating layer probs
I0924 02:40:06.411439   330 net.cpp:91] Creating Layer probs
I0924 02:40:06.411456   330 net.cpp:425] probs <- predict
I0924 02:40:06.411479   330 net.cpp:399] probs -> probs
I0924 02:40:06.414645   330 net.cpp:141] Setting up probs
I0924 02:40:06.415251   330 net.cpp:148] Top shape: 1 1 46168 (46168)
I0924 02:40:06.415444   330 net.cpp:156] Memory required for data: 405756
I0924 02:40:06.415585   330 net.cpp:219] probs does not need backward computation.
I0924 02:40:06.415725   330 net.cpp:219] predict does not need backward computation.
I0924 02:40:06.415873   330 net.cpp:219] lstm2 does not need backward computation.
I0924 02:40:06.416024   330 net.cpp:219] concat does not need backward computation.
…
