…
Java HotSpot(TM) 64-Bit Server VM warning: You have loaded library /tmp/cvld3687501317090569683/libopencv_java310.xine1.so which might have disabled stack guard. The VM will try to fix the stack guard now.
It's highly recommended that you fix the library with 'execstack -c <libfile>', or link it with '-z noexecstack'.
WARNING: Logging before InitGoogleLogging() is written to STDERR
I0802 07:24:56.620623  9822 net.cpp:49] Initializing net from parameters: 
name: "CaffeNet"
state {
  phase: TEST
}
layer {
  name: "data"
  type: "Input"
  top: "data"
  input_param {
    shape {
      dim: 10
      dim: 3
      dim: 227
      dim: 227
    }
  }
}
layer {
  name: "conv1"
  type: "Convolution"
  bottom: "data"
  top: "conv1"
  convolution_param {
    num_output: 96
    kernel_size: 11
    stride: 4
  }
}
layer {
  name: "relu1"
  type: "ReLU"
  bottom: "conv1"
  top: "conv1"
}
layer {
  name: "pool1"
  type: "Pooling"
  bottom: "conv1"
  top: "pool1"
  pooling_param {
    pool: MAX
    kernel_size: 3
    stride: 2
  }
}
layer {
  name: "norm1"
  type: "LRN"
  bottom: "pool1"
  top: "norm1"
  lrn_param {
    local_size: 5
    alpha: 0.0001
    beta: 0.75
  }
}
layer {
  name: "conv2"
  type: "Convolution"
  bottom: "norm1"
  top: "conv2"
  convolution_param {
    num_output: 256
    pad: 2
    kernel_size: 5
    group: 2
  }
}
layer {
  name: "relu2"
  type: "ReLU"
  bottom: "conv2"
  top: "conv2"
}
layer {
  name: "pool2"
  type: "Pooling"
  bottom: "conv2"
  top: "pool2"
  pooling_param {
    pool: MAX
    kernel_size: 3
    stride: 2
  }
}
layer {
  name: "norm2"
  type: "LRN"
  bottom: "pool2"
  top: "norm2"
  lrn_param {
    local_size: 5
    alpha: 0.0001
    beta: 0.75
  }
}
layer {
  name: "conv3"
  type: "Convolution"
  bottom: "norm2"
  top: "conv3"
  convolution_param {
    num_output: 384
    pad: 1
    kernel_size: 3
  }
}
layer {
  name: "relu3"
  type: "ReLU"
  bottom: "conv3"
  top: "conv3"
}
layer {
  name: "conv4"
  type: "Convolution"
  bottom: "conv3"
  top: "conv4"
  convolution_param {
    num_output: 384
    pad: 1
    kernel_size: 3
    group: 2
  }
}
layer {
  name: "relu4"
  type: "ReLU"
  bottom: "conv4"
  top: "conv4"
}
layer {
  name: "conv5"
  type: "Convolution"
  bottom: "conv4"
  top: "conv5"
  convolution_param {
    num_output: 256
    pad: 1
    kernel_size: 3
    group: 2
  }
}
layer {
  name: "relu5"
  type: "ReLU"
  bottom: "conv5"
  top: "conv5"
}
layer {
  name: "pool5"
  type: "Pooling"
  bottom: "conv5"
  top: "pool5"
  pooling_param {
    pool: MAX
    kernel_size: 3
    stride: 2
  }
}
layer {
  name: "fc6"
  type: "InnerProduct"
  bottom: "pool5"
  top: "fc6"
  inner_product_param {
    num_output: 4096
  }
}
layer {
  name: "relu6"
  type: "ReLU"
  bottom: "fc6"
  top: "fc6"
}
layer {
  name: "drop6"
  type: "Dropout"
  bottom: "fc6"
  top: "fc6"
  dropout_param {
    dropout_ratio: 0.5
  }
}
layer {
  name: "fc7"
  type: "InnerProduct"
  bottom: "fc6"
  top: "fc7"
  inner_product_param {
    num_output: 4096
  }
}
layer {
  name: "relu7"
  type: "ReLU"
  bottom: "fc7"
  top: "fc7"
}
layer {
  name: "drop7"
  type: "Dropout"
  bottom: "fc7"
  top: "fc7"
  dropout_param {
    dropout_ratio: 0.5
  }
}
layer {
  name: "fc8"
  type: "InnerProduct"
  bottom: "fc7"
  top: "fc8"
  inner_product_param {
    num_output: 1000
  }
}
layer {
  name: "prob"
  type: "Softmax"
  bottom: "fc8"
  top: "prob"
}
I0802 07:24:56.620813  9822 layer_factory.hpp:77] Creating layer data
I0802 07:24:56.620838  9822 net.cpp:91] Creating Layer data
I0802 07:24:56.620848  9822 net.cpp:399] data -> data
I0802 07:24:57.091712  9822 net.cpp:141] Setting up data
I0802 07:24:57.091804  9822 net.cpp:148] Top shape: 10 3 227 227 (1545870)
I0802 07:24:57.091810  9822 net.cpp:156] Memory required for data: 6183480
I0802 07:24:57.091828  9822 layer_factory.hpp:77] Creating layer conv1
I0802 07:24:57.091855  9822 net.cpp:91] Creating Layer conv1
I0802 07:24:57.091864  9822 net.cpp:425] conv1 <- data
I0802 07:24:57.091877  9822 net.cpp:399] conv1 -> conv1
I0802 07:24:57.288866  9822 net.cpp:141] Setting up conv1
I0802 07:24:57.288930  9822 net.cpp:148] Top shape: 10 96 55 55 (2904000)
I0802 07:24:57.288936  9822 net.cpp:156] Memory required for data: 17799480
I0802 07:24:57.288964  9822 layer_factory.hpp:77] Creating layer relu1
I0802 07:24:57.288980  9822 net.cpp:91] Creating Layer relu1
I0802 07:24:57.288986  9822 net.cpp:425] relu1 <- conv1
I0802 07:24:57.288995  9822 net.cpp:386] relu1 -> conv1 (in-place)
I0802 07:24:57.289413  9822 net.cpp:141] Setting up relu1
I0802 07:24:57.289427  9822 net.cpp:148] Top shape: 10 96 55 55 (2904000)
I0802 07:24:57.289432  9822 net.cpp:156] Memory required for data: 29415480
I0802 07:24:57.289438  9822 layer_factory.hpp:77] Creating layer pool1
I0802 07:24:57.289448  9822 net.cpp:91] Creating Layer pool1
I0802 07:24:57.289453  9822 net.cpp:425] pool1 <- conv1
I0802 07:24:57.289460  9822 net.cpp:399] pool1 -> pool1
I0802 07:24:57.289530  9822 net.cpp:141] Setting up pool1
I0802 07:24:57.289541  9822 net.cpp:148] Top shape: 10 96 27 27 (699840)
I0802 07:24:57.289546  9822 net.cpp:156] Memory required for data: 32214840
I0802 07:24:57.289551  9822 layer_factory.hpp:77] Creating layer norm1
I0802 07:24:57.289566  9822 net.cpp:91] Creating Layer norm1
I0802 07:24:57.289572  9822 net.cpp:425] norm1 <- pool1
I0802 07:24:57.289578  9822 net.cpp:399] norm1 -> norm1
I0802 07:24:57.290031  9822 net.cpp:141] Setting up norm1
I0802 07:24:57.290045  9822 net.cpp:148] Top shape: 10 96 27 27 (699840)
I0802 07:24:57.290050  9822 net.cpp:156] Memory required for data: 35014200
I0802 07:24:57.290056  9822 layer_factory.hpp:77] Creating layer conv2
I0802 07:24:57.290071  9822 net.cpp:91] Creating Layer conv2
I0802 07:24:57.290076  9822 net.cpp:425] conv2 <- norm1
I0802 07:24:57.290082  9822 net.cpp:399] conv2 -> conv2
I0802 07:24:57.293786  9822 net.cpp:141] Setting up conv2
I0802 07:24:57.293818  9822 net.cpp:148] Top shape: 10 256 27 27 (1866240)
I0802 07:24:57.293824  9822 net.cpp:156] Memory required for data: 42479160
I0802 07:24:57.293836  9822 layer_factory.hpp:77] Creating layer relu2
I0802 07:24:57.293845  9822 net.cpp:91] Creating Layer relu2
I0802 07:24:57.293850  9822 net.cpp:425] relu2 <- conv2
I0802 07:24:57.293861  9822 net.cpp:386] relu2 -> conv2 (in-place)
I0802 07:24:57.294304  9822 net.cpp:141] Setting up relu2
I0802 07:24:57.294317  9822 net.cpp:148] Top shape: 10 256 27 27 (1866240)
I0802 07:24:57.294322  9822 net.cpp:156] Memory required for data: 49944120
I0802 07:24:57.294327  9822 layer_factory.hpp:77] Creating layer pool2
I0802 07:24:57.294339  9822 net.cpp:91] Creating Layer pool2
I0802 07:24:57.294344  9822 net.cpp:425] pool2 <- conv2
I0802 07:24:57.294351  9822 net.cpp:399] pool2 -> pool2
I0802 07:24:57.294406  9822 net.cpp:141] Setting up pool2
I0802 07:24:57.294415  9822 net.cpp:148] Top shape: 10 256 13 13 (432640)
I0802 07:24:57.294420  9822 net.cpp:156] Memory required for data: 51674680
I0802 07:24:57.294425  9822 layer_factory.hpp:77] Creating layer norm2
I0802 07:24:57.294435  9822 net.cpp:91] Creating Layer norm2
I0802 07:24:57.294440  9822 net.cpp:425] norm2 <- pool2
I0802 07:24:57.294447  9822 net.cpp:399] norm2 -> norm2
I0802 07:24:57.294699  9822 net.cpp:141] Setting up norm2
I0802 07:24:57.294711  9822 net.cpp:148] Top shape: 10 256 13 13 (432640)
I0802 07:24:57.294715  9822 net.cpp:156] Memory required for data: 53405240
I0802 07:24:57.294720  9822 layer_factory.hpp:77] Creating layer conv3
I0802 07:24:57.294733  9822 net.cpp:91] Creating Layer conv3
I0802 07:24:57.294739  9822 net.cpp:425] conv3 <- norm2
I0802 07:24:57.294745  9822 net.cpp:399] conv3 -> conv3
I0802 07:24:57.298354  9822 net.cpp:141] Setting up conv3
I0802 07:24:57.298385  9822 net.cpp:148] Top shape: 10 384 13 13 (648960)
I0802 07:24:57.298391  9822 net.cpp:156] Memory required for data: 56001080
I0802 07:24:57.298404  9822 layer_factory.hpp:77] Creating layer relu3
I0802 07:24:57.298413  9822 net.cpp:91] Creating Layer relu3
I0802 07:24:57.298418  9822 net.cpp:425] relu3 <- conv3
I0802 07:24:57.298429  9822 net.cpp:386] relu3 -> conv3 (in-place)
I0802 07:24:57.298858  9822 net.cpp:141] Setting up relu3
I0802 07:24:57.298872  9822 net.cpp:148] Top shape: 10 384 13 13 (648960)
I0802 07:24:57.298877  9822 net.cpp:156] Memory required for data: 58596920
I0802 07:24:57.298882  9822 layer_factory.hpp:77] Creating layer conv4
I0802 07:24:57.298895  9822 net.cpp:91] Creating Layer conv4
I0802 07:24:57.298900  9822 net.cpp:425] conv4 <- conv3
I0802 07:24:57.298910  9822 net.cpp:399] conv4 -> conv4
I0802 07:24:57.302829  9822 net.cpp:141] Setting up conv4
I0802 07:24:57.302860  9822 net.cpp:148] Top shape: 10 384 13 13 (648960)
I0802 07:24:57.302868  9822 net.cpp:156] Memory required for data: 61192760
I0802 07:24:57.302877  9822 layer_factory.hpp:77] Creating layer relu4
I0802 07:24:57.302886  9822 net.cpp:91] Creating Layer relu4
I0802 07:24:57.302891  9822 net.cpp:425] relu4 <- conv4
I0802 07:24:57.302897  9822 net.cpp:386] relu4 -> conv4 (in-place)
I0802 07:24:57.303333  9822 net.cpp:141] Setting up relu4
I0802 07:24:57.303349  9822 net.cpp:148] Top shape: 10 384 13 13 (648960)
I0802 07:24:57.303354  9822 net.cpp:156] Memory required for data: 63788600
I0802 07:24:57.303359  9822 layer_factory.hpp:77] Creating layer conv5
I0802 07:24:57.303369  9822 net.cpp:91] Creating Layer conv5
I0802 07:24:57.303374  9822 net.cpp:425] conv5 <- conv4
I0802 07:24:57.303385  9822 net.cpp:399] conv5 -> conv5
I0802 07:24:57.307134  9822 net.cpp:141] Setting up conv5
I0802 07:24:57.307163  9822 net.cpp:148] Top shape: 10 256 13 13 (432640)
I0802 07:24:57.307169  9822 net.cpp:156] Memory required for data: 65519160
I0802 07:24:57.307184  9822 layer_factory.hpp:77] Creating layer relu5
I0802 07:24:57.307193  9822 net.cpp:91] Creating Layer relu5
I0802 07:24:57.307199  9822 net.cpp:425] relu5 <- conv5
I0802 07:24:57.307204  9822 net.cpp:386] relu5 -> conv5 (in-place)
I0802 07:24:57.307653  9822 net.cpp:141] Setting up relu5
I0802 07:24:57.307667  9822 net.cpp:148] Top shape: 10 256 13 13 (432640)
I0802 07:24:57.307672  9822 net.cpp:156] Memory required for data: 67249720
I0802 07:24:57.307677  9822 layer_factory.hpp:77] Creating layer pool5
I0802 07:24:57.307685  9822 net.cpp:91] Creating Layer pool5
I0802 07:24:57.307689  9822 net.cpp:425] pool5 <- conv5
I0802 07:24:57.307696  9822 net.cpp:399] pool5 -> pool5
I0802 07:24:57.307757  9822 net.cpp:141] Setting up pool5
I0802 07:24:57.307767  9822 net.cpp:148] Top shape: 10 256 6 6 (92160)
I0802 07:24:57.307771  9822 net.cpp:156] Memory required for data: 67618360
I0802 07:24:57.307776  9822 layer_factory.hpp:77] Creating layer fc6
I0802 07:24:57.307796  9822 net.cpp:91] Creating Layer fc6
I0802 07:24:57.307802  9822 net.cpp:425] fc6 <- pool5
I0802 07:24:57.307809  9822 net.cpp:399] fc6 -> fc6
I0802 07:24:57.405107  9822 net.cpp:141] Setting up fc6
I0802 07:24:57.405146  9822 net.cpp:148] Top shape: 10 4096 (40960)
I0802 07:24:57.405153  9822 net.cpp:156] Memory required for data: 67782200
I0802 07:24:57.405164  9822 layer_factory.hpp:77] Creating layer relu6
I0802 07:24:57.405179  9822 net.cpp:91] Creating Layer relu6
I0802 07:24:57.405185  9822 net.cpp:425] relu6 <- fc6
I0802 07:24:57.405197  9822 net.cpp:386] relu6 -> fc6 (in-place)
I0802 07:24:57.405457  9822 net.cpp:141] Setting up relu6
I0802 07:24:57.405470  9822 net.cpp:148] Top shape: 10 4096 (40960)
I0802 07:24:57.405475  9822 net.cpp:156] Memory required for data: 67946040
I0802 07:24:57.405479  9822 layer_factory.hpp:77] Creating layer drop6
I0802 07:24:57.405496  9822 net.cpp:91] Creating Layer drop6
I0802 07:24:57.405501  9822 net.cpp:425] drop6 <- fc6
I0802 07:24:57.405508  9822 net.cpp:386] drop6 -> fc6 (in-place)
I0802 07:24:57.405555  9822 net.cpp:141] Setting up drop6
I0802 07:24:57.405563  9822 net.cpp:148] Top shape: 10 4096 (40960)
I0802 07:24:57.405568  9822 net.cpp:156] Memory required for data: 68109880
I0802 07:24:57.405572  9822 layer_factory.hpp:77] Creating layer fc7
I0802 07:24:57.405582  9822 net.cpp:91] Creating Layer fc7
I0802 07:24:57.405587  9822 net.cpp:425] fc7 <- fc6
I0802 07:24:57.405596  9822 net.cpp:399] fc7 -> fc7
I0802 07:24:57.432385  9812 upgrade_proto.cpp:66] Attempting to upgrade input file specified using deprecated input fields: /tmp/cvld3687501317090569683/s2vt.words_to_preds.prototxt
I0802 07:24:57.432447  9812 upgrade_proto.cpp:69] Successfully upgraded file specified using deprecated input fields.
W0802 07:24:57.432459  9812 upgrade_proto.cpp:71] Note that future Caffe releases will only support input layers and not input fields.
I0802 07:24:57.432828  9812 net.cpp:49] Initializing net from parameters: 
name: "s2vt:features_to_lstm"
state {
  phase: TEST
}
layer {
  name: "input"
  type: "Input"
  top: "frames_fc7"
  top: "cont_sentence"
  top: "input_sentence"
  top: "stage_indicator"
  input_param {
    shape {
      dim: 1
      dim: 4096
    }
    shape {
      dim: 1
      dim: 1
    }
    shape {
      dim: 1
      dim: 1
    }
    shape {
      dim: 1
      dim: 1
    }
  }
}
layer {
  name: "embed_encoder"
  type: "InnerProduct"
  bottom: "frames_fc7"
  top: "embedded_in_frames"
  param {
    lr_mult: 1
    decay_mult: 1
  }
  param {
    lr_mult: 2
    decay_mult: 0
  }
  inner_product_param {
    num_output: 500
    weight_filler {
      type: "xavier"
    }
    bias_filler {
      type: "constant"
      value: 0.2
    }
  }
}
layer {
  name: "reshape_frames"
  type: "Reshape"
  bottom: "embedded_in_frames"
  top: "embedded_input_frames"
  reshape_param {
    shape {
      dim: 1
      dim: 1
      dim: 500
    }
  }
}
layer {
  name: "reshape_stage_indicator"
  type: "Reshape"
  bottom: "stage_indicator"
  top: "reshaped_stage_indicator"
  reshape_param {
    shape {
      dim: 1
      dim: 1
      dim: 1
    }
  }
}
layer {
  name: "embedding"
  type: "Embed"
  bottom: "input_sentence"
  top: "embedded_input_sentence"
  param {
    lr_mult: 1
  }
  embed_param {
    num_output: 500
    input_dim: 46168
    bias_term: false
    weight_filler {
      type: "uniform"
      min: -0.08
      max: 0.08
    }
  }
}
layer {
  name: "lstm1"
  type: "LSTM"
  bottom: "embedded_input_frames"
  bottom: "cont_sentence"
  top: "lstm1"
  recurrent_param {
    num_output: 1000
    weight_filler {
      type: "uniform"
      min: -0.08
      max: 0.08
    }
    bias_filler {
      type: "constant"
      value: 0
    }
  }
}
layer {
  name: "concat"
  type: "Concat"
  bottom: "lstm1"
  bottom: "embedded_input_sentence"
  bottom: "reshaped_stage_indicator"
  top: "lstm1_video_sequence"
  concat_param {
    concat_dim: 2
  }
}
layer {
  name: "lstm2"
  type: "LSTM"
  bottom: "lstm1_video_sequence"
  bottom: "cont_sentence"
  top: "lstm2"
  recurrent_param {
    num_output: 1000
    weight_filler {
      type: "uniform"
      min: -0.08
      max: 0.08
    }
    bias_filler {
      type: "constant"
      value: 0
    }
  }
}
layer {
  name: "predict"
  type: "InnerProduct"
  bottom: "lstm2"
  top: "predict"
  param {
    lr_mult: 1
    decay_mult: 1
  }
  param {
    lr_mult: 2
    decay_mult: 0
  }
  inner_product_param {
    num_output: 46168
    weight_filler {
      type: "uniform"
      min: -0.08
      max: 0.08
    }
    bias_filler {
      type: "constant"
      value: 0
    }
    axis: 2
  }
}
layer {
  name: "probs"
  type: "Softmax"
  bottom: "predict"
  top: "probs"
  softmax_param {
    axis: 2
  }
}
I0802 07:24:57.432970  9812 layer_factory.hpp:77] Creating layer input
I0802 07:24:57.432991  9812 net.cpp:91] Creating Layer input
I0802 07:24:57.433003  9812 net.cpp:399] input -> frames_fc7
I0802 07:24:57.433025  9812 net.cpp:399] input -> cont_sentence
I0802 07:24:57.433043  9812 net.cpp:399] input -> input_sentence
I0802 07:24:57.433058  9812 net.cpp:399] input -> stage_indicator
I0802 07:24:57.434949  9812 net.cpp:141] Setting up input
I0802 07:24:57.434967  9812 net.cpp:148] Top shape: 1 4096 (4096)
I0802 07:24:57.434974  9812 net.cpp:148] Top shape: 1 1 (1)
I0802 07:24:57.434980  9812 net.cpp:148] Top shape: 1 1 (1)
I0802 07:24:57.434986  9812 net.cpp:148] Top shape: 1 1 (1)
I0802 07:24:57.434990  9812 net.cpp:156] Memory required for data: 16396
I0802 07:24:57.434996  9812 layer_factory.hpp:77] Creating layer cont_sentence_input_1_split
I0802 07:24:57.435015  9812 net.cpp:91] Creating Layer cont_sentence_input_1_split
I0802 07:24:57.435021  9812 net.cpp:425] cont_sentence_input_1_split <- cont_sentence
I0802 07:24:57.435047  9812 net.cpp:399] cont_sentence_input_1_split -> cont_sentence_input_1_split_0
I0802 07:24:57.435058  9812 net.cpp:399] cont_sentence_input_1_split -> cont_sentence_input_1_split_1
I0802 07:24:57.435111  9812 net.cpp:141] Setting up cont_sentence_input_1_split
I0802 07:24:57.435119  9812 net.cpp:148] Top shape: 1 1 (1)
I0802 07:24:57.435125  9812 net.cpp:148] Top shape: 1 1 (1)
I0802 07:24:57.435130  9812 net.cpp:156] Memory required for data: 16404
I0802 07:24:57.435134  9812 layer_factory.hpp:77] Creating layer embed_encoder
I0802 07:24:57.435147  9812 net.cpp:91] Creating Layer embed_encoder
I0802 07:24:57.435151  9812 net.cpp:425] embed_encoder <- frames_fc7
I0802 07:24:57.435159  9812 net.cpp:399] embed_encoder -> embedded_in_frames
I0802 07:24:57.452342  9822 net.cpp:141] Setting up fc7
I0802 07:24:57.452379  9822 net.cpp:148] Top shape: 10 4096 (40960)
I0802 07:24:57.452386  9822 net.cpp:156] Memory required for data: 68273720
I0802 07:24:57.452399  9822 layer_factory.hpp:77] Creating layer relu7
I0802 07:24:57.452414  9822 net.cpp:91] Creating Layer relu7
I0802 07:24:57.452419  9822 net.cpp:425] relu7 <- fc7
I0802 07:24:57.452432  9822 net.cpp:386] relu7 -> fc7 (in-place)
I0802 07:24:57.453208  9822 net.cpp:141] Setting up relu7
I0802 07:24:57.453222  9822 net.cpp:148] Top shape: 10 4096 (40960)
I0802 07:24:57.453227  9822 net.cpp:156] Memory required for data: 68437560
I0802 07:24:57.453232  9822 layer_factory.hpp:77] Creating layer drop7
I0802 07:24:57.453241  9822 net.cpp:91] Creating Layer drop7
I0802 07:24:57.453246  9822 net.cpp:425] drop7 <- fc7
I0802 07:24:57.453256  9822 net.cpp:386] drop7 -> fc7 (in-place)
I0802 07:24:57.453297  9822 net.cpp:141] Setting up drop7
I0802 07:24:57.453306  9822 net.cpp:148] Top shape: 10 4096 (40960)
I0802 07:24:57.453310  9822 net.cpp:156] Memory required for data: 68601400
I0802 07:24:57.453315  9822 layer_factory.hpp:77] Creating layer fc8
I0802 07:24:57.453325  9822 net.cpp:91] Creating Layer fc8
I0802 07:24:57.453328  9822 net.cpp:425] fc8 <- fc7
I0802 07:24:57.453336  9822 net.cpp:399] fc8 -> fc8
I0802 07:24:57.460826  9812 net.cpp:141] Setting up embed_encoder
I0802 07:24:57.460867  9812 net.cpp:148] Top shape: 1 500 (500)
I0802 07:24:57.460873  9812 net.cpp:156] Memory required for data: 18404
I0802 07:24:57.460893  9812 layer_factory.hpp:77] Creating layer reshape_frames
I0802 07:24:57.460911  9812 net.cpp:91] Creating Layer reshape_frames
I0802 07:24:57.460917  9812 net.cpp:425] reshape_frames <- embedded_in_frames
I0802 07:24:57.460928  9812 net.cpp:399] reshape_frames -> embedded_input_frames
I0802 07:24:57.460984  9812 net.cpp:141] Setting up reshape_frames
I0802 07:24:57.460994  9812 net.cpp:148] Top shape: 1 1 500 (500)
I0802 07:24:57.460999  9812 net.cpp:156] Memory required for data: 20404
I0802 07:24:57.461004  9812 layer_factory.hpp:77] Creating layer reshape_stage_indicator
I0802 07:24:57.461015  9812 net.cpp:91] Creating Layer reshape_stage_indicator
I0802 07:24:57.461020  9812 net.cpp:425] reshape_stage_indicator <- stage_indicator
I0802 07:24:57.461030  9812 net.cpp:399] reshape_stage_indicator -> reshaped_stage_indicator
I0802 07:24:57.461067  9812 net.cpp:141] Setting up reshape_stage_indicator
I0802 07:24:57.461077  9812 net.cpp:148] Top shape: 1 1 1 (1)
I0802 07:24:57.461081  9812 net.cpp:156] Memory required for data: 20408
I0802 07:24:57.461086  9812 layer_factory.hpp:77] Creating layer embedding
I0802 07:24:57.461102  9812 net.cpp:91] Creating Layer embedding
I0802 07:24:57.461107  9812 net.cpp:425] embedding <- input_sentence
I0802 07:24:57.461115  9812 net.cpp:399] embedding -> embedded_input_sentence
I0802 07:24:57.499547  9822 net.cpp:141] Setting up fc8
I0802 07:24:57.499598  9822 net.cpp:148] Top shape: 10 1000 (10000)
I0802 07:24:57.499605  9822 net.cpp:156] Memory required for data: 68641400
I0802 07:24:57.499619  9822 layer_factory.hpp:77] Creating layer prob
I0802 07:24:57.499637  9822 net.cpp:91] Creating Layer prob
I0802 07:24:57.499644  9822 net.cpp:425] prob <- fc8
I0802 07:24:57.499655  9822 net.cpp:399] prob -> prob
I0802 07:24:57.500085  9822 net.cpp:141] Setting up prob
I0802 07:24:57.500098  9822 net.cpp:148] Top shape: 10 1000 (10000)
I0802 07:24:57.500103  9822 net.cpp:156] Memory required for data: 68681400
I0802 07:24:57.500109  9822 net.cpp:219] prob does not need backward computation.
I0802 07:24:57.500114  9822 net.cpp:219] fc8 does not need backward computation.
I0802 07:24:57.500118  9822 net.cpp:219] drop7 does not need backward computation.
I0802 07:24:57.500123  9822 net.cpp:219] relu7 does not need backward computation.
…
I0802 07:24:57.500192  9822 net.cpp:219] norm1 does not need backward computation.
I0802 07:24:57.500197  9822 net.cpp:219] pool1 does not need backward computation.
I0802 07:24:57.500201  9822 net.cpp:219] relu1 does not need backward computation.
I0802 07:24:57.500205  9822 net.cpp:219] conv1 does not need backward computation.
I0802 07:24:57.500211  9822 net.cpp:219] data does not need backward computation.
I0802 07:24:57.500213  9822 net.cpp:261] This network produces output prob
I0802 07:24:57.500238  9822 net.cpp:274] Network initialization done.
I0802 07:24:57.681638  9812 net.cpp:141] Setting up embedding
I0802 07:24:57.681689  9812 net.cpp:148] Top shape: 1 1 500 (500)
I0802 07:24:57.681694  9812 net.cpp:156] Memory required for data: 22408
I0802 07:24:57.681710  9812 layer_factory.hpp:77] Creating layer lstm1
I0802 07:24:57.681740  9812 net.cpp:91] Creating Layer lstm1
I0802 07:24:57.681748  9812 net.cpp:425] lstm1 <- embedded_input_frames
I0802 07:24:57.681758  9812 net.cpp:425] lstm1 <- cont_sentence_input_1_split_0
I0802 07:24:57.681766  9812 net.cpp:399] lstm1 -> lstm1
I0802 07:24:57.681790  9812 recurrent_layer.cpp:20] Initializing recurrent layer: assuming input batch contains 1 timesteps of 1 independent streams.
I0802 07:24:57.682148  9812 net.cpp:49] Initializing net from parameters: 
layer {
  name: "lstm1_"
  type: "Input"
  top: "x"
  top: "cont"
  input_param {
    shape {
      dim: 1
      dim: 1
      dim: 500
    }
    shape {
      dim: 1
      dim: 1
    }
  }
}
layer {
  name: "lstm1_"
  type: "Input"
  top: "c_0"
  top: "h_0"
  input_param {
    shape {
      dim: 1
      dim: 1
      dim: 1000
    }
    shape {
      dim: 1
      dim: 1
      dim: 1000
    }
  }
}
layer {
  name: "lstm1_cont_slice"
  type: "Slice"
  bottom: "cont"
  top: "cont_1"
  slice_param {
    axis: 0
  }
}
layer {
  name: "lstm1_x_transform"
  type: "InnerProduct"
  bottom: "x"
  top: "W_xc_x"
  param {
    name: "W_xc"
  }
  param {
    name: "b_c"
  }
  propagate_down: true
  inner_product_param {
    num_output: 4000
    bias_term: true
    weight_filler {
      type: "uniform"
      min: -0.08
      max: 0.08
    }
    bias_filler {
      type: "constant"
      value: 0
    }
    axis: 2
  }
}
layer {
  name: "lstm1_W_xc_x_slice"
  type: "Slice"
  bottom: "W_xc_x"
  top: "W_xc_x_1"
  slice_param {
    axis: 0
  }
}
layer {
  name: "lstm1_h_conted_0"
  type: "Scale"
  bottom: "h_0"
  bottom: "cont_1"
  top: "h_conted_0"
  scale_param {
    axis: 0
  }
}
layer {
  name: "lstm1_transform_1"
  type: "InnerProduct"
  bottom: "h_conted_0"
  top: "W_hc_h_0"
  param {
    name: "W_hc"
  }
  inner_product_param {
    num_output: 4000
    bias_term: false
    weight_filler {
      type: "uniform"
      min: -0.08
      max: 0.08
    }
    axis: 2
  }
}
layer {
  name: "lstm1_gate_input_1"
  type: "Eltwise"
  bottom: "W_hc_h_0"
  bottom: "W_xc_x_1"
  top: "gate_input_1"
  eltwise_param {
    operation: SUM
  }
}
layer {
  name: "lstm1_unit_1"
  type: "LSTMUnit"
  bottom: "c_0"
  bottom: "gate_input_1"
  bottom: "cont_1"
  top: "c_1"
  top: "h_1"
}
layer {
  name: "lstm1_"
  type: "Split"
  bottom: "c_1"
  top: "c_T"
}
layer {
  name: "lstm1_h_concat"
  type: "Concat"
  bottom: "h_1"
  top: "h"
  concat_param {
    axis: 0
  }
}
layer {
  name: "h_pseudoloss"
  type: "Reduction"
  bottom: "h"
  top: "h_pseudoloss"
  loss_weight: 1
}
I0802 07:24:57.682238  9812 layer_factory.hpp:77] Creating layer lstm1_
I0802 07:24:57.682251  9812 net.cpp:91] Creating Layer lstm1_
I0802 07:24:57.682257  9812 net.cpp:399] lstm1_ -> x
I0802 07:24:57.682270  9812 net.cpp:399] lstm1_ -> cont
I0802 07:24:57.682332  9812 net.cpp:141] Setting up lstm1_
I0802 07:24:57.682343  9812 net.cpp:148] Top shape: 1 1 500 (500)
I0802 07:24:57.682348  9812 net.cpp:148] Top shape: 1 1 (1)
I0802 07:24:57.682353  9812 net.cpp:156] Memory required for data: 2004
I0802 07:24:57.682358  9812 layer_factory.hpp:77] Creating layer lstm1_
I0802 07:24:57.682369  9812 net.cpp:91] Creating Layer lstm1_
I0802 07:24:57.682376  9812 net.cpp:399] lstm1_ -> c_0
I0802 07:24:57.682389  9812 net.cpp:399] lstm1_ -> h_0
I0802 07:24:57.682440  9812 net.cpp:141] Setting up lstm1_
I0802 07:24:57.682449  9812 net.cpp:148] Top shape: 1 1 1000 (1000)
I0802 07:24:57.682456  9812 net.cpp:148] Top shape: 1 1 1000 (1000)
I0802 07:24:57.682459  9812 net.cpp:156] Memory required for data: 10004
I0802 07:24:57.682463  9812 layer_factory.hpp:77] Creating layer lstm1_cont_slice
I0802 07:24:57.682474  9812 net.cpp:91] Creating Layer lstm1_cont_slice
I0802 07:24:57.682479  9812 net.cpp:425] lstm1_cont_slice <- cont
I0802 07:24:57.682487  9812 net.cpp:399] lstm1_cont_slice -> cont_1
I0802 07:24:57.682526  9812 net.cpp:141] Setting up lstm1_cont_slice
I0802 07:24:57.682535  9812 net.cpp:148] Top shape: 1 1 (1)
I0802 07:24:57.682540  9812 net.cpp:156] Memory required for data: 10008
I0802 07:24:57.682545  9812 layer_factory.hpp:77] Creating layer cont_1_lstm1_cont_slice_0_split
I0802 07:24:57.682552  9812 net.cpp:91] Creating Layer cont_1_lstm1_cont_slice_0_split
I0802 07:24:57.682557  9812 net.cpp:425] cont_1_lstm1_cont_slice_0_split <- cont_1
I0802 07:24:57.682566  9812 net.cpp:399] cont_1_lstm1_cont_slice_0_split -> cont_1_lstm1_cont_slice_0_split_0
I0802 07:24:57.682574  9812 net.cpp:399] cont_1_lstm1_cont_slice_0_split -> cont_1_lstm1_cont_slice_0_split_1
I0802 07:24:57.682621  9812 net.cpp:141] Setting up cont_1_lstm1_cont_slice_0_split
I0802 07:24:57.682631  9812 net.cpp:148] Top shape: 1 1 (1)
I0802 07:24:57.682636  9812 net.cpp:148] Top shape: 1 1 (1)
I0802 07:24:57.682641  9812 net.cpp:156] Memory required for data: 10016
I0802 07:24:57.682644  9812 layer_factory.hpp:77] Creating layer lstm1_x_transform
I0802 07:24:57.682657  9812 net.cpp:91] Creating Layer lstm1_x_transform
I0802 07:24:57.682662  9812 net.cpp:425] lstm1_x_transform <- x
I0802 07:24:57.682672  9812 net.cpp:399] lstm1_x_transform -> W_xc_x
I0802 07:24:57.702340  9812 net.cpp:141] Setting up lstm1_x_transform
I0802 07:24:57.702388  9812 net.cpp:148] Top shape: 1 1 4000 (4000)
I0802 07:24:57.702394  9812 net.cpp:156] Memory required for data: 26016
I0802 07:24:57.702412  9812 layer_factory.hpp:77] Creating layer lstm1_W_xc_x_slice
I0802 07:24:57.702427  9812 net.cpp:91] Creating Layer lstm1_W_xc_x_slice
I0802 07:24:57.702433  9812 net.cpp:425] lstm1_W_xc_x_slice <- W_xc_x
I0802 07:24:57.702443  9812 net.cpp:399] lstm1_W_xc_x_slice -> W_xc_x_1
I0802 07:24:57.702491  9812 net.cpp:141] Setting up lstm1_W_xc_x_slice
I0802 07:24:57.702500  9812 net.cpp:148] Top shape: 1 1 4000 (4000)
I0802 07:24:57.702504  9812 net.cpp:156] Memory required for data: 42016
I0802 07:24:57.702509  9812 layer_factory.hpp:77] Creating layer lstm1_h_conted_0
I0802 07:24:57.702518  9812 net.cpp:91] Creating Layer lstm1_h_conted_0
I0802 07:24:57.702523  9812 net.cpp:425] lstm1_h_conted_0 <- h_0
I0802 07:24:57.702529  9812 net.cpp:425] lstm1_h_conted_0 <- cont_1_lstm1_cont_slice_0_split_0
I0802 07:24:57.702536  9812 net.cpp:399] lstm1_h_conted_0 -> h_conted_0
I0802 07:24:57.702632  9812 net.cpp:141] Setting up lstm1_h_conted_0
I0802 07:24:57.702642  9812 net.cpp:148] Top shape: 1 1 1000 (1000)
I0802 07:24:57.702647  9812 net.cpp:156] Memory required for data: 46016
I0802 07:24:57.702651  9812 layer_factory.hpp:77] Creating layer lstm1_transform_1
I0802 07:24:57.702663  9812 net.cpp:91] Creating Layer lstm1_transform_1
I0802 07:24:57.702668  9812 net.cpp:425] lstm1_transform_1 <- h_conted_0
I0802 07:24:57.702677  9812 net.cpp:399] lstm1_transform_1 -> W_hc_h_0
I0802 07:24:57.724164  9822 upgrade_proto.cpp:43] Attempting to upgrade input file specified using deprecated transformation parameters: /tmp/cvld3687501317090569683/bvlc_reference_caffenet.caffemodel
I0802 07:24:57.724202  9822 upgrade_proto.cpp:46] Successfully upgraded file specified using deprecated data transformation parameters.
W0802 07:24:57.724207  9822 upgrade_proto.cpp:48] Note that future Caffe releases will only support transform_param messages for transformation fields.
I0802 07:24:57.724212  9822 upgrade_proto.cpp:52] Attempting to upgrade input file specified using deprecated V1LayerParameter: /tmp/cvld3687501317090569683/bvlc_reference_caffenet.caffemodel
I0802 07:24:57.740936  9812 net.cpp:141] Setting up lstm1_transform_1
I0802 07:24:57.740985  9812 net.cpp:148] Top shape: 1 1 4000 (4000)
I0802 07:24:57.740991  9812 net.cpp:156] Memory required for data: 62016
I0802 07:24:57.741009  9812 layer_factory.hpp:77] Creating layer lstm1_gate_input_1
I0802 07:24:57.741026  9812 net.cpp:91] Creating Layer lstm1_gate_input_1
I0802 07:24:57.741034  9812 net.cpp:425] lstm1_gate_input_1 <- W_hc_h_0
I0802 07:24:57.741041  9812 net.cpp:425] lstm1_gate_input_1 <- W_xc_x_1
I0802 07:24:57.741050  9812 net.cpp:399] lstm1_gate_input_1 -> gate_input_1
I0802 07:24:57.741111  9812 net.cpp:141] Setting up lstm1_gate_input_1
I0802 07:24:57.741122  9812 net.cpp:148] Top shape: 1 1 4000 (4000)
I0802 07:24:57.741125  9812 net.cpp:156] Memory required for data: 78016
I0802 07:24:57.741130  9812 layer_factory.hpp:77] Creating layer lstm1_unit_1
I0802 07:24:57.741142  9812 net.cpp:91] Creating Layer lstm1_unit_1
I0802 07:24:57.741147  9812 net.cpp:425] lstm1_unit_1 <- c_0
I0802 07:24:57.741153  9812 net.cpp:425] lstm1_unit_1 <- gate_input_1
I0802 07:24:57.741158  9812 net.cpp:425] lstm1_unit_1 <- cont_1_lstm1_cont_slice_0_split_1
I0802 07:24:57.741165  9812 net.cpp:399] lstm1_unit_1 -> c_1
I0802 07:24:57.741173  9812 net.cpp:399] lstm1_unit_1 -> h_1
I0802 07:24:57.741236  9812 net.cpp:141] Setting up lstm1_unit_1
I0802 07:24:57.741246  9812 net.cpp:148] Top shape: 1 1 1000 (1000)
I0802 07:24:57.741252  9812 net.cpp:148] Top shape: 1 1 1000 (1000)
I0802 07:24:57.741256  9812 net.cpp:156] Memory required for data: 86016
I0802 07:24:57.741261  9812 layer_factory.hpp:77] Creating layer lstm1_
I0802 07:24:57.741269  9812 net.cpp:91] Creating Layer lstm1_
I0802 07:24:57.741274  9812 net.cpp:425] lstm1_ <- c_1
I0802 07:24:57.741281  9812 net.cpp:399] lstm1_ -> c_T
I0802 07:24:57.741310  9812 net.cpp:141] Setting up lstm1_
I0802 07:24:57.741319  9812 net.cpp:148] Top shape: 1 1 1000 (1000)
I0802 07:24:57.741323  9812 net.cpp:156] Memory required for data: 90016
I0802 07:24:57.741328  9812 layer_factory.hpp:77] Creating layer lstm1_h_concat
I0802 07:24:57.741340  9812 net.cpp:91] Creating Layer lstm1_h_concat
I0802 07:24:57.741345  9812 net.cpp:425] lstm1_h_concat <- h_1
I0802 07:24:57.741351  9812 net.cpp:399] lstm1_h_concat -> h
I0802 07:24:57.741387  9812 net.cpp:141] Setting up lstm1_h_concat
I0802 07:24:57.741396  9812 net.cpp:148] Top shape: 1 1 1000 (1000)
I0802 07:24:57.741400  9812 net.cpp:156] Memory required for data: 94016
I0802 07:24:57.741405  9812 layer_factory.hpp:77] Creating layer h_pseudoloss
I0802 07:24:57.741417  9812 net.cpp:91] Creating Layer h_pseudoloss
I0802 07:24:57.741422  9812 net.cpp:425] h_pseudoloss <- h
I0802 07:24:57.741431  9812 net.cpp:399] h_pseudoloss -> h_pseudoloss
I0802 07:24:57.741518  9812 net.cpp:141] Setting up h_pseudoloss
…
I0802 07:24:57.741647  9812 net.cpp:219] lstm1_ does not need backward computation.
I0802 07:24:57.741652  9812 net.cpp:261] This network produces output c_T
I0802 07:24:57.741655  9812 net.cpp:261] This network produces output h_pseudoloss
I0802 07:24:57.741673  9812 net.cpp:274] Network initialization done.
I0802 07:24:57.741724  9812 recurrent_layer.cpp:150] Adding parameter 0: W_xc
I0802 07:24:57.741729  9812 recurrent_layer.cpp:150] Adding parameter 1: b_c
I0802 07:24:57.741734  9812 recurrent_layer.cpp:150] Adding parameter 2: W_hc
I0802 07:24:57.741837  9812 net.cpp:141] Setting up lstm1
I0802 07:24:57.741849  9812 net.cpp:148] Top shape: 1 1 1000 (1000)
I0802 07:24:57.741854  9812 net.cpp:156] Memory required for data: 26408
I0802 07:24:57.741866  9812 layer_factory.hpp:77] Creating layer concat
I0802 07:24:57.741875  9812 net.cpp:91] Creating Layer concat
I0802 07:24:57.741883  9812 net.cpp:425] concat <- lstm1
I0802 07:24:57.741888  9812 net.cpp:425] concat <- embedded_input_sentence
I0802 07:24:57.741894  9812 net.cpp:425] concat <- reshaped_stage_indicator
I0802 07:24:57.741901  9812 net.cpp:399] concat -> lstm1_video_sequence
I0802 07:24:57.741935  9812 net.cpp:141] Setting up concat
I0802 07:24:57.741945  9812 net.cpp:148] Top shape: 1 1 1501 (1501)
I0802 07:24:57.741948  9812 net.cpp:156] Memory required for data: 32412
I0802 07:24:57.741953  9812 layer_factory.hpp:77] Creating layer lstm2
I0802 07:24:57.741964  9812 net.cpp:91] Creating Layer lstm2
I0802 07:24:57.741969  9812 net.cpp:425] lstm2 <- lstm1_video_sequence
I0802 07:24:57.741976  9812 net.cpp:425] lstm2 <- cont_sentence_input_1_split_1
I0802 07:24:57.741982  9812 net.cpp:399] lstm2 -> lstm2
I0802 07:24:57.741992  9812 recurrent_layer.cpp:20] Initializing recurrent layer: assuming input batch contains 1 timesteps of 1 independent streams.
I0802 07:24:57.742223  9812 net.cpp:49] Initializing net from parameters: 
layer {
  name: "lstm2_"
  type: "Input"
  top: "x"
  top: "cont"
  input_param {
    shape {
      dim: 1
      dim: 1
      dim: 1501
    }
    shape {
      dim: 1
      dim: 1
    }
  }
}
layer {
  name: "lstm2_"
  type: "Input"
  top: "c_0"
  top: "h_0"
  input_param {
    shape {
      dim: 1
      dim: 1
      dim: 1000
    }
    shape {
      dim: 1
      dim: 1
      dim: 1000
    }
  }
}
layer {
  name: "lstm2_cont_slice"
  type: "Slice"
  bottom: "cont"
  top: "cont_1"
  slice_param {
    axis: 0
  }
}
layer {
  name: "lstm2_x_transform"
  type: "InnerProduct"
  bottom: "x"
  top: "W_xc_x"
  param {
    name: "W_xc"
  }
  param {
    name: "b_c"
  }
  propagate_down: true
  inner_product_param {
    num_output: 4000
    bias_term: true
    weight_filler {
      type: "uniform"
      min: -0.08
      max: 0.08
    }
    bias_filler {
      type: "constant"
      value: 0
    }
    axis: 2
  }
}
layer {
  name: "lstm2_W_xc_x_slice"
  type: "Slice"
  bottom: "W_xc_x"
  top: "W_xc_x_1"
  slice_param {
    axis: 0
  }
}
layer {
  name: "lstm2_h_conted_0"
  type: "Scale"
  bottom: "h_0"
  bottom: "cont_1"
  top: "h_conted_0"
  scale_param {
    axis: 0
  }
}
layer {
  name: "lstm2_transform_1"
  type: "InnerProduct"
  bottom: "h_conted_0"
  top: "W_hc_h_0"
  param {
    name: "W_hc"
  }
  inner_product_param {
    num_output: 4000
    bias_term: false
    weight_filler {
      type: "uniform"
      min: -0.08
      max: 0.08
    }
    axis: 2
  }
}
layer {
  name: "lstm2_gate_input_1"
  type: "Eltwise"
  bottom: "W_hc_h_0"
  bottom: "W_xc_x_1"
  top: "gate_input_1"
  eltwise_param {
    operation: SUM
  }
}
layer {
  name: "lstm2_unit_1"
  type: "LSTMUnit"
  bottom: "c_0"
  bottom: "gate_input_1"
  bottom: "cont_1"
  top: "c_1"
  top: "h_1"
}
layer {
  name: "lstm2_"
  type: "Split"
  bottom: "c_1"
  top: "c_T"
}
layer {
  name: "lstm2_h_concat"
  type: "Concat"
  bottom: "h_1"
  top: "h"
  concat_param {
    axis: 0
  }
}
layer {
  name: "h_pseudoloss"
  type: "Reduction"
  bottom: "h"
  top: "h_pseudoloss"
  loss_weight: 1
}
I0802 07:24:57.742305  9812 layer_factory.hpp:77] Creating layer lstm2_
I0802 07:24:57.742318  9812 net.cpp:91] Creating Layer lstm2_
I0802 07:24:57.742324  9812 net.cpp:399] lstm2_ -> x
I0802 07:24:57.742336  9812 net.cpp:399] lstm2_ -> cont
I0802 07:24:57.742388  9812 net.cpp:141] Setting up lstm2_
I0802 07:24:57.742398  9812 net.cpp:148] Top shape: 1 1 1501 (1501)
I0802 07:24:57.742404  9812 net.cpp:148] Top shape: 1 1 (1)
I0802 07:24:57.742408  9812 net.cpp:156] Memory required for data: 6008
I0802 07:24:57.742413  9812 layer_factory.hpp:77] Creating layer lstm2_
I0802 07:24:57.742422  9812 net.cpp:91] Creating Layer lstm2_
I0802 07:24:57.742429  9812 net.cpp:399] lstm2_ -> c_0
I0802 07:24:57.742437  9812 net.cpp:399] lstm2_ -> h_0
I0802 07:24:57.742486  9812 net.cpp:141] Setting up lstm2_
I0802 07:24:57.742496  9812 net.cpp:148] Top shape: 1 1 1000 (1000)
I0802 07:24:57.742501  9812 net.cpp:148] Top shape: 1 1 1000 (1000)
I0802 07:24:57.742506  9812 net.cpp:156] Memory required for data: 14008
I0802 07:24:57.742509  9812 layer_factory.hpp:77] Creating layer lstm2_cont_slice
I0802 07:24:57.742517  9812 net.cpp:91] Creating Layer lstm2_cont_slice
I0802 07:24:57.742522  9812 net.cpp:425] lstm2_cont_slice <- cont
I0802 07:24:57.742532  9812 net.cpp:399] lstm2_cont_slice -> cont_1
I0802 07:24:57.742565  9812 net.cpp:141] Setting up lstm2_cont_slice
I0802 07:24:57.742574  9812 net.cpp:148] Top shape: 1 1 (1)
I0802 07:24:57.742579  9812 net.cpp:156] Memory required for data: 14012
I0802 07:24:57.742583  9812 layer_factory.hpp:77] Creating layer cont_1_lstm2_cont_slice_0_split
I0802 07:24:57.742590  9812 net.cpp:91] Creating Layer cont_1_lstm2_cont_slice_0_split
I0802 07:24:57.742594  9812 net.cpp:425] cont_1_lstm2_cont_slice_0_split <- cont_1
I0802 07:24:57.742600  9812 net.cpp:399] cont_1_lstm2_cont_slice_0_split -> cont_1_lstm2_cont_slice_0_split_0
I0802 07:24:57.742611  9812 net.cpp:399] cont_1_lstm2_cont_slice_0_split -> cont_1_lstm2_cont_slice_0_split_1
I0802 07:24:57.742673  9812 net.cpp:141] Setting up cont_1_lstm2_cont_slice_0_split
I0802 07:24:57.742684  9812 net.cpp:148] Top shape: 1 1 (1)
I0802 07:24:57.742689  9812 net.cpp:148] Top shape: 1 1 (1)
I0802 07:24:57.742694  9812 net.cpp:156] Memory required for data: 14020
I0802 07:24:57.742698  9812 layer_factory.hpp:77] Creating layer lstm2_x_transform
I0802 07:24:57.742712  9812 net.cpp:91] Creating Layer lstm2_x_transform
I0802 07:24:57.742717  9812 net.cpp:425] lstm2_x_transform <- x
I0802 07:24:57.742724  9812 net.cpp:399] lstm2_x_transform -> W_xc_x
I0802 07:24:57.800884  9812 net.cpp:141] Setting up lstm2_x_transform
I0802 07:24:57.800936  9812 net.cpp:148] Top shape: 1 1 4000 (4000)
I0802 07:24:57.800945  9812 net.cpp:156] Memory required for data: 30020
I0802 07:24:57.800967  9812 layer_factory.hpp:77] Creating layer lstm2_W_xc_x_slice
I0802 07:24:57.800987  9812 net.cpp:91] Creating Layer lstm2_W_xc_x_slice
I0802 07:24:57.800992  9812 net.cpp:425] lstm2_W_xc_x_slice <- W_xc_x
I0802 07:24:57.801002  9812 net.cpp:399] lstm2_W_xc_x_slice -> W_xc_x_1
I0802 07:24:57.801048  9812 net.cpp:141] Setting up lstm2_W_xc_x_slice
I0802 07:24:57.801059  9812 net.cpp:148] Top shape: 1 1 4000 (4000)
I0802 07:24:57.801062  9812 net.cpp:156] Memory required for data: 46020
I0802 07:24:57.801067  9812 layer_factory.hpp:77] Creating layer lstm2_h_conted_0
I0802 07:24:57.801080  9812 net.cpp:91] Creating Layer lstm2_h_conted_0
I0802 07:24:57.801086  9812 net.cpp:425] lstm2_h_conted_0 <- h_0
I0802 07:24:57.801092  9812 net.cpp:425] lstm2_h_conted_0 <- cont_1_lstm2_cont_slice_0_split_0
I0802 07:24:57.801100  9812 net.cpp:399] lstm2_h_conted_0 -> h_conted_0
I0802 07:24:57.801192  9812 net.cpp:141] Setting up lstm2_h_conted_0
I0802 07:24:57.801208  9812 net.cpp:148] Top shape: 1 1 1000 (1000)
I0802 07:24:57.801215  9812 net.cpp:156] Memory required for data: 50020
I0802 07:24:57.801223  9812 layer_factory.hpp:77] Creating layer lstm2_transform_1
I0802 07:24:57.801245  9812 net.cpp:91] Creating Layer lstm2_transform_1
I0802 07:24:57.801254  9812 net.cpp:425] lstm2_transform_1 <- h_conted_0
I0802 07:24:57.801267  9812 net.cpp:399] lstm2_transform_1 -> W_hc_h_0
I0802 07:24:57.844954  9812 net.cpp:141] Setting up lstm2_transform_1
I0802 07:24:57.845005  9812 net.cpp:148] Top shape: 1 1 4000 (4000)
I0802 07:24:57.845011  9812 net.cpp:156] Memory required for data: 66020
I0802 07:24:57.845029  9812 layer_factory.hpp:77] Creating layer lstm2_gate_input_1
I0802 07:24:57.845047  9812 net.cpp:91] Creating Layer lstm2_gate_input_1
I0802 07:24:57.845054  9812 net.cpp:425] lstm2_gate_input_1 <- W_hc_h_0
I0802 07:24:57.845063  9812 net.cpp:425] lstm2_gate_input_1 <- W_xc_x_1
I0802 07:24:57.845074  9812 net.cpp:399] lstm2_gate_input_1 -> gate_input_1
I0802 07:24:57.845120  9812 net.cpp:141] Setting up lstm2_gate_input_1
I0802 07:24:57.845130  9812 net.cpp:148] Top shape: 1 1 4000 (4000)
I0802 07:24:57.845134  9812 net.cpp:156] Memory required for data: 82020
I0802 07:24:57.845139  9812 layer_factory.hpp:77] Creating layer lstm2_unit_1
I0802 07:24:57.845150  9812 net.cpp:91] Creating Layer lstm2_unit_1
I0802 07:24:57.845155  9812 net.cpp:425] lstm2_unit_1 <- c_0
I0802 07:24:57.845161  9812 net.cpp:425] lstm2_unit_1 <- gate_input_1
I0802 07:24:57.845167  9812 net.cpp:425] lstm2_unit_1 <- cont_1_lstm2_cont_slice_0_split_1
I0802 07:24:57.845175  9812 net.cpp:399] lstm2_unit_1 -> c_1
I0802 07:24:57.845183  9812 net.cpp:399] lstm2_unit_1 -> h_1
I0802 07:24:57.845247  9812 net.cpp:141] Setting up lstm2_unit_1
I0802 07:24:57.845257  9812 net.cpp:148] Top shape: 1 1 1000 (1000)
I0802 07:24:57.845262  9812 net.cpp:148] Top shape: 1 1 1000 (1000)
I0802 07:24:57.845266  9812 net.cpp:156] Memory required for data: 90020
I0802 07:24:57.845270  9812 layer_factory.hpp:77] Creating layer lstm2_
I0802 07:24:57.845278  9812 net.cpp:91] Creating Layer lstm2_
I0802 07:24:57.845283  9812 net.cpp:425] lstm2_ <- c_1
I0802 07:24:57.845293  9812 net.cpp:399] lstm2_ -> c_T
I0802 07:24:57.845322  9812 net.cpp:141] Setting up lstm2_
I0802 07:24:57.845331  9812 net.cpp:148] Top shape: 1 1 1000 (1000)
I0802 07:24:57.845335  9812 net.cpp:156] Memory required for data: 94020
I0802 07:24:57.845340  9812 layer_factory.hpp:77] Creating layer lstm2_h_concat
I0802 07:24:57.845350  9812 net.cpp:91] Creating Layer lstm2_h_concat
I0802 07:24:57.845353  9812 net.cpp:425] lstm2_h_concat <- h_1
I0802 07:24:57.845365  9812 net.cpp:399] lstm2_h_concat -> h
I0802 07:24:57.845412  9812 net.cpp:141] Setting up lstm2_h_concat
I0802 07:24:57.845422  9812 net.cpp:148] Top shape: 1 1 1000 (1000)
I0802 07:24:57.845427  9812 net.cpp:156] Memory required for data: 98020
I0802 07:24:57.845432  9812 layer_factory.hpp:77] Creating layer h_pseudoloss
I0802 07:24:57.845440  9812 net.cpp:91] Creating Layer h_pseudoloss
I0802 07:24:57.845445  9812 net.cpp:425] h_pseudoloss <- h
I0802 07:24:57.845453  9812 net.cpp:399] h_pseudoloss -> h_pseudoloss
I0802 07:24:57.845541  9812 net.cpp:141] Setting up h_pseudoloss
…
