…
Java HotSpot(TM) 64-Bit Server VM warning: You have loaded library /tmp/cvld3101562609208565933/libopencv_java310.xine1.so which might have disabled stack guard. The VM will try to fix the stack guard now.
It's highly recommended that you fix the library with 'execstack -c <libfile>', or link it with '-z noexecstack'.
WARNING: Logging before InitGoogleLogging() is written to STDERR
I0714 20:39:20.167533  2658 net.cpp:49] Initializing net from parameters: 
name: "GoogleNet"
state {
  phase: TEST
}
layer {
  name: "data"
  type: "Input"
  top: "data"
  input_param {
    shape {
      dim: 10
      dim: 3
      dim: 224
      dim: 224
    }
  }
}
layer {
  name: "conv1/7x7_s2"
  type: "Convolution"
  bottom: "data"
  top: "conv1/7x7_s2"
  param {
    lr_mult: 1
    decay_mult: 1
  }
  param {
    lr_mult: 2
    decay_mult: 0
  }
  convolution_param {
    num_output: 64
    pad: 3
    kernel_size: 7
    stride: 2
    weight_filler {
      type: "xavier"
      std: 0.1
    }
    bias_filler {
      type: "constant"
      value: 0.2
    }
  }
}
layer {
  name: "conv1/relu_7x7"
  type: "ReLU"
  bottom: "conv1/7x7_s2"
  top: "conv1/7x7_s2"
}
layer {
  name: "pool1/3x3_s2"
  type: "Pooling"
  bottom: "conv1/7x7_s2"
  top: "pool1/3x3_s2"
  pooling_param {
    pool: MAX
    kernel_size: 3
    stride: 2
  }
}
layer {
  name: "pool1/norm1"
  type: "LRN"
  bottom: "pool1/3x3_s2"
  top: "pool1/norm1"
  lrn_param {
    local_size: 5
    alpha: 0.0001
    beta: 0.75
  }
}
layer {
  name: "conv2/3x3_reduce"
  type: "Convolution"
  bottom: "pool1/norm1"
  top: "conv2/3x3_reduce"
  param {
    lr_mult: 1
    decay_mult: 1
  }
  param {
    lr_mult: 2
    decay_mult: 0
  }
  convolution_param {
    num_output: 64
    kernel_size: 1
    weight_filler {
      type: "xavier"
      std: 0.1
    }
    bias_filler {
      type: "constant"
      value: 0.2
    }
  }
}
layer {
  name: "conv2/relu_3x3_reduce"
  type: "ReLU"
  bottom: "conv2/3x3_reduce"
  top: "conv2/3x3_reduce"
}
layer {
  name: "conv2/3x3"
  type: "Convolution"
  bottom: "conv2/3x3_reduce"
  top: "conv2/3x3"
  param {
    lr_mult: 1
    decay_mult: 1
  }
  param {
    lr_mult: 2
    decay_mult: 0
  }
  convolution_param {
    num_output: 192
    pad: 1
    kernel_size: 3
    weight_filler {
      type: "xavier"
      std: 0.03
    }
    bias_filler {
      type: "constant"
      value: 0.2
    }
  }
}
layer {
  name: "conv2/relu_3x3"
  type: "ReLU"
  bottom: "conv2/3x3"
  top: "conv2/3x3"
}
layer {
  name: "conv2/norm2"
  type: "LRN"
  bottom: "conv2/3x3"
  top: "conv2/norm2"
  lrn_param {
    local_size: 5
    alpha: 0.0001
    beta: 0.75
  }
}
layer {
  name: "pool2/3x3_s2"
  type: "Pooling"
  bottom: "conv2/norm2"
  top: "pool2/3x3_s2"
  pooling_param {
    pool: MAX
    kernel_size: 3
    stride: 2
  }
}
layer {
  name: "inception_3a/1x1"
  type: "Convolution"
  bottom: "pool2/3x3_s2"
  top: "inception_3a/1x1"
  param {
    lr_mult: 1
    decay_mult: 1
  }
  param {
    lr_mult: 2
    decay_mult: 0
  }
  convolution_param {
    num_output: 64
    kernel_size: 1
    weight_filler {
      type: "xavier"
      std: 0.03
    }
    bias_filler {
      type: "constant"
      value: 0.2
    }
  }
}
layer {
  name: "inception_3a/relu_1x1"
  type: "ReLU"
  bottom: "inception_3a/1x1"
  top: "inception_3a/1x1"
}
layer {
  name: "inception_3a/3x3_reduce"
  type: "Convolution"
  bottom: "pool2/3x3_s2"
  top: "inception_3a/3x3_reduce"
  param {
    lr_mult: 1
    decay_mult: 1
  }
  param {
    lr_mult: 2
    decay_mult: 0
  }
  convolution_param {
    num_output: 96
    kernel_size: 1
    weight_filler {
      type: "xavier"
      std: 0.09
    }
    bias_filler {
      type: "constant"
      value: 0.2
    }
  }
}
layer {
  name: "inception_3a/relu_3x3_reduce"
  type: "ReLU"
  bottom: "inception_3a/3x3_reduce"
  top: "inception_3a/3x3_reduce"
}
layer {
  name: "inception_3a/3x3"
  type: "Convolution"
  bottom: "inception_3a/3x3_reduce"
  top: "inception_3a/3x3"
  param {
    lr_mult: 1
    decay_mult: 1
  }
  param {
    lr_mult: 2
    decay_mult: 0
  }
  convolution_param {
    num_output: 128
    pad: 1
    kernel_size: 3
    weight_filler {
      type: "xavier"
      std: 0.03
    }
    bias_filler {
      type: "constant"
      value: 0.2
    }
  }
}
layer {
  name: "inception_3a/relu_3x3"
  type: "ReLU"
  bottom: "inception_3a/3x3"
  top: "inception_3a/3x3"
}
layer {
  name: "inception_3a/5x5_reduce"
  type: "Convolution"
  bottom: "pool2/3x3_s2"
  top: "inception_3a/5x5_reduce"
  param {
    lr_mult: 1
    decay_mult: 1
  }
  param {
    lr_mult: 2
    decay_mult: 0
  }
  convolution_param {
    num_output: 16
    kernel_size: 1
    weight_filler {
      type: "xavier"
      std: 0.2
    }
    bias_filler {
      type: "constant"
      value: 0.2
    }
  }
}
layer {
  name: "inception_3a/relu_5x5_reduce"
  type: "ReLU"
  bottom: "inception_3a/5x5_reduce"
  top: "inception_3a/5x5_reduce"
}
layer {
  name: "inception_3a/5x5"
  type: "Convolution"
  bottom: "inception_3a/5x5_reduce"
  top: "inception_3a/5x5"
  param {
    lr_mult: 1
    decay_mult: 1
  }
  param {
    lr_mult: 2
    decay_mult: 0
  }
  convolution_param {
    num_output: 32
    pad: 2
    kernel_size: 5
    weight_filler {
      type: "xavier"
      std: 0.03
    }
    bias_filler {
      type: "constant"
      value: 0.2
    }
  }
}
layer {
  name: "inception_3a/relu_5x5"
  type: "ReLU"
  bottom: "inception_3a/5x5"
  top: "inception_3a/5x5"
}
layer {
  name: "inception_3a/pool"
  type: "Pooling"
  bottom: "pool2/3x3_s2"
  top: "inception_3a/pool"
  pooling_param {
    pool: MAX
    kernel_size: 3
    stride: 1
    pad: 1
  }
}
layer {
  name: "inception_3a/pool_proj"
  type: "Convolution"
  bottom: "inception_3a/pool"
  top: "inception_3a/pool_proj"
  param {
    lr_mult: 1
    decay_mult: 1
  }
  param {
    lr_mult: 2
    decay_mult: 0
  }
  convolution_param {
    num_output: 32
    kernel_size: 1
    weight_filler {
      type: "xavier"
      std: 0.1
    }
    bias_filler {
      type: "constant"
      value: 0.2
    }
  }
}
layer {
  name: "inception_3a/relu_pool_proj"
  type: "ReLU"
  bottom: "inception_3a/pool_proj"
  top: "inception_3a/pool_proj"
}
layer {
  name: "inception_3a/output"
  type: "Concat"
  bottom: "inception_3a/1x1"
  bottom: "inception_3a/3x3"
  bottom: "inception_3a/5x5"
  bottom: "inception_3a/pool_proj"
  top: "inception_3a/output"
}
layer {
  name: "inception_3b/1x1"
  type: "Convolution"
  bottom: "inception_3a/output"
  top: "inception_3b/1x1"
  param {
    lr_mult: 1
    decay_mult: 1
  }
  param {
    lr_mult: 2
    decay_mult: 0
  }
  convolution_param {
    num_output: 128
    kernel_size: 1
    weight_filler {
      type: "xavier"
      std: 0.03
    }
    bias_filler {
      type: "constant"
      value: 0.2
    }
  }
}
layer {
  name: "inception_3b/relu_1x1"
  type: "ReLU"
  bottom: "inception_3b/1x1"
  top: "inception_3b/1x1"
}
layer {
  name: "inception_3b/3x3_reduce"
  type: "Convolution"
  bottom: "inception_3a/output"
  top: "inception_3b/3x3_reduce"
  param {
    lr_mult: 1
    decay_mult: 1
  }
  param {
    lr_mult: 2
    decay_mult: 0
  }
  convolution_param {
    num_output: 128
    kernel_size: 1
    weight_filler {
      type: "xavier"
      std: 0.09
    }
    bias_filler {
      type: "constant"
      value: 0.2
    }
  }
}
layer {
  name: "inception_3b/relu_3x3_reduce"
  type: "ReLU"
  bottom: "inception_3b/3x3_reduce"
  top: "inception_3b/3x3_reduce"
}
layer {
  name: "inception_3b/3x3"
  type: "Convolution"
  bottom: "inception_3b/3x3_reduce"
  top: "inception_3b/3x3"
  param {
    lr_mult: 1
    decay_mult: 1
  }
  param {
    lr_mult: 2
    decay_mult: 0
  }
  convolution_param {
    num_output: 192
    pad: 1
    kernel_size: 3
    weight_filler {
      type: "xavier"
      std: 0.03
    }
    bias_filler {
      type: "constant"
      value: 0.2
    }
  }
}
layer {
  name: "inception_3b/relu_3x3"
  type: "ReLU"
  bottom: "inception_3b/3x3"
  top: "inception_3b/3x3"
}
layer {
  name: "inception_3b/5x5_reduce"
  type: "Convolution"
  bottom: "inception_3a/output"
  top: "inception_3b/5x5_reduce"
  param {
    lr_mult: 1
    decay_mult: 1
  }
  param {
    lr_mult: 2
    decay_mult: 0
  }
  convolution_param {
    num_output: 32
    kernel_size: 1
    weight_filler {
      type: "xavier"
      std: 0.2
    }
    bias_filler {
      type: "constant"
      value: 0.2
    }
  }
}
layer {
  name: "inception_3b/relu_5x5_reduce"
  type: "ReLU"
  bottom: "inception_3b/5x5_reduce"
  top: "inception_3b/5x5_reduce"
}
layer {
  name: "inception_3b/5x5"
  type: "Convolution"
  bottom: "inception_3b/5x5_reduce"
  top: "inception_3b/5x5"
  param {
    lr_mult: 1
    decay_mult: 1
  }
  param {
    lr_mult: 2
    decay_mult: 0
  }
  convolution_param {
    num_output: 96
    pad: 2
    kernel_size: 5
    weight_filler {
      type: "xavier"
      std: 0.03
    }
    bias_filler {
      type: "constant"
      value: 0.2
    }
  }
}
layer {
  name: "inception_3b/relu_5x5"
  type: "ReLU"
  bottom: "inception_3b/5x5"
  top: "inception_3b/5x5"
}
layer {
  name: "inception_3b/pool"
  type: "Pooling"
  bottom: "inception_3a/output"
  top: "inception_3b/pool"
  pooling_param {
    pool: MAX
    kernel_size: 3
    stride: 1
    pad: 1
  }
}
layer {
  name: "inception_3b/pool_proj"
  type: "Convolution"
  bottom: "inception_3b/pool"
  top: "inception_3b/pool_proj"
  param {
    lr_mult: 1
    decay_mult: 1
  }
  param {
    lr_mult: 2
    decay_mult: 0
  }
  convolution_param {
    num_output: 64
    kernel_size: 1
    weight_filler {
      type: "xavier"
      std: 0.1
    }
    bias_filler {
      type: "constant"
      value: 0.2
    }
  }
}
layer {
  name: "inception_3b/relu_pool_proj"
  type: "ReLU"
  bottom: "inception_3b/pool_proj"
  top: "inception_3b/pool_proj"
}
layer {
  name: "inception_3b/output"
  type: "Concat"
  bottom: "inception_3b/1x1"
  bottom: "inception_3b/3x3"
  bottom: "inception_3b/5x5"
  bottom: "inception_3b/pool_proj"
  top: "inception_3b/output"
}
layer {
  name: "pool3/3x3_s2"
  type: "Pooling"
  bottom: "inception_3b/output"
  top: "pool3/3x3_s2"
  pooling_param {
    pool: MAX
    kernel_size: 3
    stride: 2
  }
}
layer {
  name: "inception_4a/1x1"
  type: "Convolution"
  bottom: "pool3/3x3_s2"
  top: "inception_4a/1x1"
  param {
    lr_mult: 1
    decay_mult: 1
  }
  param {
    lr_mult: 2
    decay_mult: 0
  }
  convolution_param {
    num_output: 192
    kernel_size: 1
    weight_filler {
      type: "xavier"
      std: 0.03
    }
    bias_filler {
      type: "constant"
      value: 0.2
    }
  }
}
layer {
  name: "inception_4a/relu_1x1"
  type: "ReLU"
  bottom: "inception_4a/1x1"
  top: "inception_4a/1x1"
}
layer {
  name: "inception_4a/3x3_reduce"
  type: "Convolution"
  bottom: "pool3/3x3_s2"
  top: "inception_4a/3x3_reduce"
  param {
    lr_mult: 1
    decay_mult: 1
  }
  param {
    lr_mult: 2
    decay_mult: 0
  }
  convolution_param {
    num_output: 96
    kernel_size: 1
    weight_filler {
      type: "xavier"
      std: 0.09
    }
    bias_filler {
      type: "constant"
      value: 0.2
    }
  }
}
layer {
  name: "inception_4a/relu_3x3_reduce"
  type: "ReLU"
  bottom: "inception_4a/3x3_reduce"
  top: "inception_4a/3x3_reduce"
}
layer {
  name: "inception_4a/3x3"
  type: "Convolution"
  bottom: "inception_4a/3x3_reduce"
  top: "inception_4a/3x3"
  param {
    lr_mult: 1
    decay_mult: 1
  }
  param {
    lr_mult: 2
    decay_mult: 0
  }
  convolution_param {
    num_output: 208
    pad: 1
    kernel_size: 3
    weight_filler {
      type: "xavier"
      std: 0.03
    }
    bias_filler {
      type: "constant"
      value: 0.2
    }
  }
}
layer {
  name: "inception_4a/relu_3x3"
  type: "ReLU"
  bottom: "inception_4a/3x3"
  top: "inception_4a/3x3"
}
layer {
  name: "inception_4a/5x5_reduce"
  type: "Convolution"
  bottom: "pool3/3x3_s2"
  top: "inception_4a/5x5_reduce"
  param {
    lr_mult: 1
    decay_mult: 1
  }
  param {
    lr_mult: 2
    decay_mult: 0
  }
  convolution_param {
    num_output: 16
    kernel_size: 1
    weight_filler {
      type: "xavier"
      std: 0.2
    }
    bias_filler {
      type: "constant"
      value: 0.2
    }
  }
}
layer {
  name: "inception_4a/relu_5x5_reduce"
  type: "ReLU"
  bottom: "inception_4a/5x5_reduce"
  top: "inception_4a/5x5_reduce"
}
layer {
  name: "inception_4a/5x5"
  type: "Convolution"
  bottom: "inception_4a/5x5_reduce"
  top: "inception_4a/5x5"
  param {
    lr_mult: 1
    decay_mult: 1
  }
  param {
    lr_mult: 2
    decay_mult: 0
  }
  convolution_param {
    num_output: 48
    pad: 2
    kernel_size: 5
    weight_filler {
      type: "xavier"
      std: 0.03
    }
    bias_filler {
      type: "constant"
      value: 0.2
    }
  }
}
layer {
  name: "inception_4a/relu_5x5"
  type: "ReLU"
  bottom: "inception_4a/5x5"
  top: "inception_4a/5x5"
}
layer {
  name: "inception_4a/pool"
  type: "Pooling"
  bottom: "pool3/3x3_s2"
  top: "inception_4a/pool"
  pooling_param {
    pool: MAX
    kernel_size: 3
    stride: 1
    pad: 1
  }
}
layer {
  name: "inception_4a/pool_proj"
  type: "Convolution"
  bottom: "inception_4a/pool"
  top: "inception_4a/pool_proj"
  param {
    lr_mult: 1
    decay_mult: 1
  }
  param {
    lr_mult: 2
    decay_mult: 0
  }
  convolution_param {
    num_output: 64
    kernel_size: 1
    weight_filler {
      type: "xavier"
      std: 0.1
    }
    bias_filler {
      type: "constant"
      value: 0.2
    }
  }
}
layer {
  name: "inception_4a/relu_pool_proj"
  type: "ReLU"
  bottom: "inception_4a/pool_proj"
  top: "inception_4a/pool_proj"
}
layer {
  name: "inception_4a/output"
  type: "Concat"
  bottom: "inception_4a/1x1"
  bottom: "inception_4a/3x3"
  bottom: "inception_4a/5x5"
  bottom: "inception_4a/pool_proj"
  top: "inception_4a/output"
}
layer {
  name: "inception_4b/1x1"
  type: "Convolution"
  bottom: "inception_4a/output"
  top: "inception_4b/1x1"
  param {
    lr_mult: 1
    decay_mult: 1
  }
  param {
    lr_mult: 2
    decay_mult: 0
  }
  convolution_param {
    num_output: 160
    kernel_size: 1
    weight_filler {
      type: "xavier"
      std: 0.03
    }
    bias_filler {
      type: "constant"
      value: 0.2
    }
  }
}
layer {
  name: "inception_4b/relu_1x1"
  type: "ReLU"
  bottom: "inception_4b/1x1"
  top: "inception_4b/1x1"
}
layer {
  name: "inception_4b/3x3_reduce"
  type: "Convolution"
  bottom: "inception_4a/output"
  top: "inception_4b/3x3_reduce"
  param {
    lr_mult: 1
    decay_mult: 1
  }
  param {
    lr_mult: 2
    decay_mult: 0
  }
  convolution_param {
    num_output: 112
    kernel_size: 1
    weight_filler {
      type: "xavier"
      std: 0.09
    }
    bias_filler {
      type: "constant"
      value: 0.2
    }
  }
}
layer {
  name: "inception_4b/relu_3x3_reduce"
  type: "ReLU"
  bottom: "inception_4b/3x3_reduce"
  top: "inception_4b/3x3_reduce"
}
layer {
  name: "inception_4b/3x3"
  type: "Convolution"
  bottom: "inception_4b/3x3_reduce"
  top: "inception_4b/3x3"
  param {
    lr_mult: 1
    decay_mult: 1
  }
  param {
    lr_mult: 2
    decay_mult: 0
  }
  convolution_param {
    num_output: 224
    pad: 1
    kernel_size: 3
    weight_filler {
      type: "xavier"
      std: 0.03
    }
    bias_filler {
      type: "constant"
      value: 0.2
    }
  }
}
layer {
  name: "inception_4b/relu_3x3"
  type: "ReLU"
  bottom: "inception_4b/3x3"
  top: "inception_4b/3x3"
}
layer {
  name: "inception_4b/5x5_reduce"
  type: "Convolution"
  bottom: "inception_4a/output"
  top: "inception_4b/5x5_reduce"
  param {
    lr_mult: 1
    decay_mult: 1
  }
  param {
    lr_mult: 2
    decay_mult: 0
  }
  convolution_param {
    num_output: 24
    kernel_size: 1
    weight_filler {
      type: "xavier"
      std: 0.2
    }
    bias_filler {
      type: "constant"
      value: 0.2
    }
  }
}
layer {
  name: "inception_4b/relu_5x5_reduce"
  type: "ReLU"
  bottom: "inception_4b/5x5_reduce"
  top: "inception_4b/5x5_reduce"
}
layer {
  name: "inception_4b/5x5"
  type: "Convolution"
  bottom: "inception_4b/5x5_reduce"
  top: "inception_4b/5x5"
  param {
    lr_mult: 1
    decay_mult: 1
  }
  param {
    lr_mult: 2
    decay_mult: 0
  }
  convolution_param {
    num_output: 64
    pad: 2
    kernel_size: 5
    weight_filler {
      type: "xavier"
      std: 0.03
    }
    bias_filler {
      type: "constant"
      value: 0.2
    }
  }
}
layer {
  name: "inception_4b/relu_5x5"
  type: "ReLU"
  bottom: "inception_4b/5x5"
  top: "inception_4b/5x5"
}
layer {
  name: "inception_4b/pool"
  type: "Pooling"
  bottom: "inception_4a/output"
  top: "inception_4b/pool"
  pooling_param {
    pool: MAX
    kernel_size: 3
    stride: 1
    pad: 1
  }
}
layer {
  name: "inception_4b/pool_proj"
  type: "Convolution"
  bottom: "inception_4b/pool"
  top: "inception_4b/pool_proj"
  param {
    lr_mult: 1
    decay_mult: 1
  }
  param {
    lr_mult: 2
    decay_mult: 0
  }
  convolution_param {
    num_output: 64
    kernel_size: 1
    weight_filler {
      type: "xavier"
      std: 0.1
    }
    bias_filler {
      type: "constant"
      value: 0.2
    }
  }
}
layer {
  name: "inception_4b/relu_pool_proj"
  type: "ReLU"
  bottom: "inception_4b/pool_proj"
  top: "inception_4b/pool_proj"
}
layer {
  name: "inception_4b/output"
  type: "Concat"
  bottom: "inception_4b/1x1"
  bottom: "inception_4b/3x3"
  bottom: "inception_4b/5x5"
  bottom: "inception_4b/pool_proj"
  top: "inception_4b/output"
}
layer {
  name: "inception_4c/1x1"
  type: "Convolution"
  bottom: "inception_4b/output"
  top: "inception_4c/1x1"
  param {
    lr_mult: 1
    decay_mult: 1
  }
  param {
    lr_mult: 2
    decay_mult: 0
  }
  convolution_param {
    num_output: 128
    kernel_size: 1
    weight_filler {
      type: "xavier"
      std: 0.03
    }
    bias_filler {
      type: "constant"
      value: 0.2
    }
  }
}
layer {
  name: "inception_4c/relu_1x1"
  type: "ReLU"
  bottom: "inception_4c/1x1"
  top: "inception_4c/1x1"
}
layer {
  name: "inception_4c/3x3_reduce"
  type: "Convolution"
  bottom: "inception_4b/output"
  top: "inception_4c/3x3_reduce"
  param {
    lr_mult: 1
    decay_mult: 1
  }
  param {
    lr_mult: 2
    decay_mult: 0
  }
  convolution_param {
    num_output: 128
    kernel_size: 1
    weight_filler {
      type: "xavier"
      std: 0.09
    }
    bias_filler {
      type: "constant"
      value: 0.2
    }
  }
}
layer {
  name: "inception_4c/relu_3x3_reduce"
  type: "ReLU"
  bottom: "inception_4c/3x3_reduce"
  top: "inception_4c/3x3_reduce"
}
layer {
  name: "inception_4c/3x3"
  type: "Convolution"
  bottom: "inception_4c/3x3_reduce"
  top: "inception_4c/3x3"
  param {
    lr_mult: 1
    decay_mult: 1
  }
  param {
    lr_mult: 2
    decay_mult: 0
  }
  convolution_param {
    num_output: 256
    pad: 1
    kernel_size: 3
    weight_filler {
      type: "xavier"
      std: 0.03
    }
    bias_filler {
      type: "constant"
      value: 0.2
    }
  }
}
layer {
  name: "inception_4c/relu_3x3"
  type: "ReLU"
  bottom: "inception_4c/3x3"
  top: "inception_4c/3x3"
}
layer {
  name: "inception_4c/5x5_reduce"
  type: "Convolution"
  bottom: "inception_4b/output"
  top: "inception_4c/5x5_reduce"
  param {
    lr_mult: 1
    decay_mult: 1
  }
  param {
    lr_mult: 2
    decay_mult: 0
  }
  convolution_param {
    num_output: 24
    kernel_size: 1
    weight_filler {
      type: "xavier"
      std: 0.2
    }
    bias_filler {
      type: "constant"
      value: 0.2
    }
  }
}
layer {
  name: "inception_4c/relu_5x5_reduce"
  type: "ReLU"
  bottom: "inception_4c/5x5_reduce"
  top: "inception_4c/5x5_reduce"
}
layer {
  name: "inception_4c/5x5"
  type: "Convolution"
  bottom: "inception_4c/5x5_reduce"
  top: "inception_4c/5x5"
  param {
    lr_mult: 1
    decay_mult: 1
  }
  param {
    lr_mult: 2
    decay_mult: 0
  }
  convolution_param {
    num_output: 64
    pad: 2
    kernel_size: 5
    weight_filler {
      type: "xavier"
      std: 0.03
    }
    bias_filler {
      type: "constant"
      value: 0.2
    }
  }
}
layer {
  name: "inception_4c/relu_5x5"
  type: "ReLU"
  bottom: "inception_4c/5x5"
  top: "inception_4c/5x5"
}
layer {
  name: "inception_4c/pool"
  type: "Pooling"
  bottom: "inception_4b/output"
  top: "inception_4c/pool"
  pooling_param {
    pool: MAX
    kernel_size: 3
    stride: 1
    pad: 1
  }
}
layer {
  name: "inception_4c/pool_proj"
  type: "Convolution"
  bottom: "inception_4c/pool"
  top: "inception_4c/pool_proj"
  param {
    lr_mult: 1
    decay_mult: 1
  }
  param {
    lr_mult: 2
    decay_mult: 0
  }
  convolution_param {
    num_output: 64
    kernel_size: 1
    weight_filler {
      type: "xavier"
      std: 0.1
    }
    bias_filler {
      type: "constant"
      value: 0.2
    }
  }
}
layer {
  name: "inception_4c/relu_pool_proj"
  type: "ReLU"
  bottom: "inception_4c/pool_proj"
  top: "inception_4c/pool_proj"
}
layer {
  name: "inception_4c/output"
  type: "Concat"
  bottom: "inception_4c/1x1"
  bottom: "inception_4c/3x3"
  bottom: "inception_4c/5x5"
  bottom: "inception_4c/pool_proj"
  top: "inception_4c/output"
}
layer {
  name: "inception_4d/1x1"
  type: "Convolution"
  bottom: "inception_4c/output"
  top: "inception_4d/1x1"
  param {
    lr_mult: 1
    decay_mult: 1
  }
  param {
    lr_mult: 2
    decay_mult: 0
  }
  convolution_param {
    num_output: 112
    kernel_size: 1
    weight_filler {
      type: "xavier"
      std: 0.03
    }
    bias_filler {
      type: "constant"
      value: 0.2
    }
  }
}
layer {
  name: "inception_4d/relu_1x1"
  type: "ReLU"
  bottom: "inception_4d/1x1"
  top: "inception_4d/1x1"
}
layer {
  name: "inception_4d/3x3_reduce"
  type: "Convolution"
  bottom: "inception_4c/output"
  top: "inception_4d/3x3_reduce"
  param {
    lr_mult: 1
    decay_mult: 1
  }
  param {
    lr_mult: 2
    decay_mult: 0
  }
  convolution_param {
    num_output: 144
    kernel_size: 1
    weight_filler {
      type: "xavier"
      std: 0.09
    }
    bias_filler {
      type: "constant"
      value: 0.2
    }
  }
}
layer {
  name: "inception_4d/relu_3x3_reduce"
  type: "ReLU"
  bottom: "inception_4d/3x3_reduce"
  top: "inception_4d/3x3_reduce"
}
layer {
  name: "inception_4d/3x3"
  type: "Convolution"
  bottom: "inception_4d/3x3_reduce"
  top: "inception_4d/3x3"
  param {
    lr_mult: 1
    decay_mult: 1
  }
  param {
    lr_mult: 2
    decay_mult: 0
  }
  convolution_param {
    num_output: 288
    pad: 1
    kernel_size: 3
    weight_filler {
      type: "xavier"
      std: 0.03
    }
    bias_filler {
      type: "constant"
      value: 0.2
    }
  }
}
layer {
  name: "inception_4d/relu_3x3"
  type: "ReLU"
  bottom: "inception_4d/3x3"
  top: "inception_4d/3x3"
}
layer {
  name: "inception_4d/5x5_reduce"
  type: "Convolution"
  bottom: "inception_4c/output"
  top: "inception_4d/5x5_reduce"
  param {
    lr_mult: 1
    decay_mult: 1
  }
  param {
    lr_mult: 2
    decay_mult: 0
  }
  convolution_param {
    num_output: 32
    kernel_size: 1
    weight_filler {
      type: "xavier"
      std: 0.2
    }
    bias_filler {
      type: "constant"
      value: 0.2
    }
  }
}
layer {
  name: "inception_4d/relu_5x5_reduce"
  type: "ReLU"
  bottom: "inception_4d/5x5_reduce"
  top: "inception_4d/5x5_reduce"
}
layer {
  name: "inception_4d/5x5"
  type: "Convolution"
  bottom: "inception_4d/5x5_reduce"
  top: "inception_4d/5x5"
  param {
    lr_mult: 1
    decay_mult: 1
  }
  param {
    lr_mult: 2
    decay_mult: 0
  }
  convolution_param {
    num_output: 64
    pad: 2
    kernel_size: 5
    weight_filler {
      type: "xavier"
      std: 0.03
    }
    bias_filler {
      type: "constant"
      value: 0.2
    }
  }
}
layer {
  name: "inception_4d/relu_5x5"
  type: "ReLU"
  bottom: "inception_4d/5x5"
  top: "inception_4d/5x5"
}
layer {
  name: "inception_4d/pool"
  type: "Pooling"
  bottom: "inception_4c/output"
  top: "inception_4d/pool"
  pooling_param {
    pool: MAX
    kernel_size: 3
    stride: 1
    pad: 1
  }
}
layer {
  name: "inception_4d/pool_proj"
  type: "Convolution"
  bottom: "inception_4d/pool"
  top: "inception_4d/pool_proj"
  param {
    lr_mult: 1
    decay_mult: 1
  }
  param {
    lr_mult: 2
    decay_mult: 0
  }
  convolution_param {
    num_output: 64
    kernel_size: 1
    weight_filler {
      type: "xavier"
      std: 0.1
    }
    bias_filler {
      type: "constant"
      value: 0.2
    }
  }
}
layer {
  name: "inception_4d/relu_pool_proj"
  type: "ReLU"
  bottom: "inception_4d/pool_proj"
  top: "inception_4d/pool_proj"
}
layer {
  name: "inception_4d/output"
  type: "Concat"
  bottom: "inception_4d/1x1"
  bottom: "inception_4d/3x3"
  bottom: "inception_4d/5x5"
  bottom: "inception_4d/pool_proj"
  top: "inception_4d/output"
}
layer {
  name: "inception_4e/1x1"
  type: "Convolution"
  bottom: "inception_4d/output"
  top: "inception_4e/1x1"
  param {
    lr_mult: 1
    decay_mult: 1
  }
  param {
    lr_mult: 2
    decay_mult: 0
  }
  convolution_param {
    num_output: 256
    kernel_size: 1
    weight_filler {
      type: "xavier"
      std: 0.03
    }
    bias_filler {
      type: "constant"
      value: 0.2
    }
  }
}
layer {
  name: "inception_4e/relu_1x1"
  type: "ReLU"
  bottom: "inception_4e/1x1"
  top: "inception_4e/1x1"
}
layer {
  name: "inception_4e/3x3_reduce"
  type: "Convolution"
  bottom: "inception_4d/output"
  top: "inception_4e/3x3_reduce"
  param {
    lr_mult: 1
    decay_mult: 1
  }
  param {
    lr_mult: 2
    decay_mult: 0
  }
  convolution_param {
    num_output: 160
    kernel_size: 1
    weight_filler {
      type: "xavier"
      std: 0.09
    }
    bias_filler {
      type: "constant"
      value: 0.2
    }
  }
}
layer {
  name: "inception_4e/relu_3x3_reduce"
  type: "ReLU"
  bottom: "inception_4e/3x3_reduce"
  top: "inception_4e/3x3_reduce"
}
layer {
  name: "inception_4e/3x3"
  type: "Convolution"
  bottom: "inception_4e/3x3_reduce"
  top: "inception_4e/3x3"
  param {
    lr_mult: 1
    decay_mult: 1
  }
  param {
    lr_mult: 2
    decay_mult: 0
  }
  convolution_param {
    num_output: 320
    pad: 1
    kernel_size: 3
    weight_filler {
      type: "xavier"
      std: 0.03
    }
    bias_filler {
      type: "constant"
      value: 0.2
    }
  }
}
layer {
  name: "inception_4e/relu_3x3"
  type: "ReLU"
  bottom: "inception_4e/3x3"
  top: "inception_4e/3x3"
}
layer {
  name: "inception_4e/5x5_reduce"
  type: "Convolution"
  bottom: "inception_4d/output"
  top: "inception_4e/5x5_reduce"
  param {
    lr_mult: 1
    decay_mult: 1
  }
  param {
    lr_mult: 2
    decay_mult: 0
  }
  convolution_param {
    num_output: 32
    kernel_size: 1
    weight_filler {
      type: "xavier"
      std: 0.2
    }
    bias_filler {
      type: "constant"
      value: 0.2
    }
  }
}
layer {
  name: "inception_4e/relu_5x5_reduce"
  type: "ReLU"
  bottom: "inception_4e/5x5_reduce"
  top: "inception_4e/5x5_reduce"
}
layer {
  name: "inception_4e/5x5"
  type: "Convolution"
  bottom: "inception_4e/5x5_reduce"
  top: "inception_4e/5x5"
  param {
    lr_mult: 1
    decay_mult: 1
  }
  param {
    lr_mult: 2
    decay_mult: 0
  }
  convolution_param {
    num_output: 128
    pad: 2
    kernel_size: 5
    weight_filler {
      type: "xavier"
      std: 0.03
    }
    bias_filler {
      type: "constant"
      value: 0.2
    }
  }
}
layer {
  name: "inception_4e/relu_5x5"
  type: "ReLU"
  bottom: "inception_4e/5x5"
  top: "inception_4e/5x5"
}
layer {
  name: "inception_4e/pool"
  type: "Pooling"
  bottom: "inception_4d/output"
  top: "inception_4e/pool"
  pooling_param {
    pool: MAX
    kernel_size: 3
    stride: 1
    pad: 1
  }
}
layer {
  name: "inception_4e/pool_proj"
  type: "Convolution"
  bottom: "inception_4e/pool"
  top: "inception_4e/pool_proj"
  param {
    lr_mult: 1
    decay_mult: 1
  }
  param {
    lr_mult: 2
    decay_mult: 0
  }
  convolution_param {
    num_output: 128
    kernel_size: 1
    weight_filler {
      type: "xavier"
      std: 0.1
    }
    bias_filler {
      type: "constant"
      value: 0.2
    }
  }
}
layer {
  name: "inception_4e/relu_pool_proj"
  type: "ReLU"
  bottom: "inception_4e/pool_proj"
  top: "inception_4e/pool_proj"
}
layer {
  name: "inception_4e/output"
  type: "Concat"
  bottom: "inception_4e/1x1"
  bottom: "inception_4e/3x3"
  bottom: "inception_4e/5x5"
  bottom: "inception_4e/pool_proj"
  top: "inception_4e/output"
}
layer {
  name: "pool4/3x3_s2"
  type: "Pooling"
  bottom: "inception_4e/output"
  top: "pool4/3x3_s2"
  pooling_param {
    pool: MAX
    kernel_size: 3
    stride: 2
  }
}
layer {
  name: "inception_5a/1x1"
  type: "Convolution"
  bottom: "pool4/3x3_s2"
  top: "inception_5a/1x1"
  param {
    lr_mult: 1
    decay_mult: 1
  }
  param {
    lr_mult: 2
    decay_mult: 0
  }
  convolution_param {
    num_output: 256
    kernel_size: 1
    weight_filler {
      type: "xavier"
      std: 0.03
    }
    bias_filler {
      type: "constant"
      value: 0.2
    }
  }
}
layer {
  name: "inception_5a/relu_1x1"
  type: "ReLU"
  bottom: "inception_5a/1x1"
  top: "inception_5a/1x1"
}
layer {
  name: "inception_5a/3x3_reduce"
  type: "Convolution"
  bottom: "pool4/3x3_s2"
  top: "inception_5a/3x3_reduce"
  param {
    lr_mult: 1
    decay_mult: 1
  }
  param {
    lr_mult: 2
    decay_mult: 0
  }
  convolution_param {
    num_output: 160
    kernel_size: 1
    weight_filler {
      type: "xavier"
      std: 0.09
    }
    bias_filler {
      type: "constant"
      value: 0.2
    }
  }
}
layer {
  name: "inception_5a/relu_3x3_reduce"
  type: "ReLU"
  bottom: "inception_5a/3x3_reduce"
  top: "inception_5a/3x3_reduce"
}
layer {
  name: "inception_5a/3x3"
  type: "Convolution"
  bottom: "inception_5a/3x3_reduce"
  top: "inception_5a/3x3"
  param {
    lr_mult: 1
    decay_mult: 1
  }
  param {
    lr_mult: 2
    decay_mult: 0
  }
  convolution_param {
    num_output: 320
    pad: 1
    kernel_size: 3
    weight_filler {
      type: "xavier"
      std: 0.03
    }
    bias_filler {
      type: "constant"
      value: 0.2
    }
  }
}
layer {
  name: "inception_5a/relu_3x3"
  type: "ReLU"
  bottom: "inception_5a/3x3"
  top: "inception_5a/3x3"
}
layer {
  name: "inception_5a/5x5_reduce"
  type: "Convolution"
  bottom: "pool4/3x3_s2"
  top: "inception_5a/5x5_reduce"
  param {
    lr_mult: 1
    decay_mult: 1
  }
  param {
    lr_mult: 2
    decay_mult: 0
  }
  convolution_param {
    num_output: 32
    kernel_size: 1
    weight_filler {
      type: "xavier"
      std: 0.2
    }
    bias_filler {
      type: "constant"
      value: 0.2
    }
I0714 20:39:20.168619  2658 layer_factory.hpp:77] Creating layer data
I0714 20:39:20.168669  2658 net.cpp:91] Creating Layer data
I0714 20:39:20.168683  2658 net.cpp:399] data -> data
I0714 20:39:20.177749  2662 net.cpp:49] Initializing net from parameters: 
name: "GoogleNet"
state {
  phase: TEST
}
layer {
  name: "data"
  type: "Input"
  top: "data"
  input_param {
    shape {
      dim: 10
      dim: 3
      dim: 224
      dim: 224
    }
  }
}
layer {
  name: "conv1/7x7_s2"
  type: "Convolution"
  bottom: "data"
  top: "conv1/7x7_s2"
  param {
    lr_mult: 1
    decay_mult: 1
  }
  param {
    lr_mult: 2
    decay_mult: 0
  }
  convolution_param {
    num_output: 64
    pad: 3
    kernel_size: 7
    stride: 2
    weight_filler {
      type: "xavier"
      std: 0.1
    }
    bias_filler {
      type: "constant"
      value: 0.2
    }
  }
}
layer {
  name: "conv1/relu_7x7"
  type: "ReLU"
  bottom: "conv1/7x7_s2"
  top: "conv1/7x7_s2"
}
layer {
  name: "pool1/3x3_s2"
  type: "Pooling"
  bottom: "conv1/7x7_s2"
  top: "pool1/3x3_s2"
  pooling_param {
    pool: MAX
    kernel_size: 3
    stride: 2
  }
}
layer {
  name: "pool1/norm1"
  type: "LRN"
  bottom: "pool1/3x3_s2"
  top: "pool1/norm1"
  lrn_param {
    local_size: 5
    alpha: 0.0001
    beta: 0.75
  }
}
layer {
  name: "conv2/3x3_reduce"
  type: "Convolution"
  bottom: "pool1/norm1"
  top: "conv2/3x3_reduce"
  param {
    lr_mult: 1
    decay_mult: 1
  }
  param {
    lr_mult: 2
    decay_mult: 0
  }
  convolution_param {
    num_output: 64
    kernel_size: 1
    weight_filler {
      type: "xavier"
      std: 0.1
    }
    bias_filler {
      type: "constant"
      value: 0.2
    }
  }
}
layer {
  name: "conv2/relu_3x3_reduce"
  type: "ReLU"
  bottom: "conv2/3x3_reduce"
  top: "conv2/3x3_reduce"
}
layer {
  name: "conv2/3x3"
  type: "Convolution"
  bottom: "conv2/3x3_reduce"
  top: "conv2/3x3"
  param {
    lr_mult: 1
    decay_mult: 1
  }
  param {
    lr_mult: 2
    decay_mult: 0
  }
  convolution_param {
    num_output: 192
    pad: 1
    kernel_size: 3
    weight_filler {
      type: "xavier"
      std: 0.03
    }
    bias_filler {
      type: "constant"
      value: 0.2
    }
  }
}
layer {
  name: "conv2/relu_3x3"
  type: "ReLU"
  bottom: "conv2/3x3"
  top: "conv2/3x3"
}
layer {
  name: "conv2/norm2"
  type: "LRN"
  bottom: "conv2/3x3"
  top: "conv2/norm2"
  lrn_param {
    local_size: 5
    alpha: 0.0001
    beta: 0.75
  }
}
layer {
  name: "pool2/3x3_s2"
  type: "Pooling"
  bottom: "conv2/norm2"
  top: "pool2/3x3_s2"
  pooling_param {
    pool: MAX
    kernel_size: 3
    stride: 2
  }
}
layer {
  name: "inception_3a/1x1"
  type: "Convolution"
  bottom: "pool2/3x3_s2"
  top: "inception_3a/1x1"
  param {
    lr_mult: 1
    decay_mult: 1
  }
  param {
    lr_mult: 2
    decay_mult: 0
  }
  convolution_param {
    num_output: 64
    kernel_size: 1
    weight_filler {
      type: "xavier"
      std: 0.03
    }
    bias_filler {
      type: "constant"
      value: 0.2
    }
  }
}
layer {
  name: "inception_3a/relu_1x1"
  type: "ReLU"
  bottom: "inception_3a/1x1"
  top: "inception_3a/1x1"
}
layer {
  name: "inception_3a/3x3_reduce"
  type: "Convolution"
  bottom: "pool2/3x3_s2"
  top: "inception_3a/3x3_reduce"
  param {
    lr_mult: 1
    decay_mult: 1
  }
  param {
    lr_mult: 2
    decay_mult: 0
  }
  convolution_param {
    num_output: 96
    kernel_size: 1
    weight_filler {
      type: "xavier"
      std: 0.09
    }
    bias_filler {
      type: "constant"
      value: 0.2
    }
  }
}
layer {
  name: "inception_3a/relu_3x3_reduce"
  type: "ReLU"
  bottom: "inception_3a/3x3_reduce"
  top: "inception_3a/3x3_reduce"
}
layer {
  name: "inception_3a/3x3"
  type: "Convolution"
  bottom: "inception_3a/3x3_reduce"
  top: "inception_3a/3x3"
  param {
    lr_mult: 1
    decay_mult: 1
  }
  param {
    lr_mult: 2
    decay_mult: 0
  }
  convolution_param {
    num_output: 128
    pad: 1
    kernel_size: 3
    weight_filler {
      type: "xavier"
      std: 0.03
    }
    bias_filler {
      type: "constant"
      value: 0.2
    }
  }
}
layer {
  name: "inception_3a/relu_3x3"
  type: "ReLU"
  bottom: "inception_3a/3x3"
  top: "inception_3a/3x3"
}
layer {
  name: "inception_3a/5x5_reduce"
  type: "Convolution"
  bottom: "pool2/3x3_s2"
  top: "inception_3a/5x5_reduce"
  param {
    lr_mult: 1
    decay_mult: 1
  }
  param {
    lr_mult: 2
    decay_mult: 0
  }
  convolution_param {
    num_output: 16
    kernel_size: 1
    weight_filler {
      type: "xavier"
      std: 0.2
    }
    bias_filler {
      type: "constant"
      value: 0.2
    }
  }
}
layer {
  name: "inception_3a/relu_5x5_reduce"
  type: "ReLU"
  bottom: "inception_3a/5x5_reduce"
  top: "inception_3a/5x5_reduce"
}
layer {
  name: "inception_3a/5x5"
  type: "Convolution"
  bottom: "inception_3a/5x5_reduce"
  top: "inception_3a/5x5"
  param {
    lr_mult: 1
    decay_mult: 1
  }
  param {
    lr_mult: 2
    decay_mult: 0
  }
  convolution_param {
    num_output: 32
    pad: 2
    kernel_size: 5
    weight_filler {
      type: "xavier"
      std: 0.03
    }
    bias_filler {
      type: "constant"
      value: 0.2
    }
  }
}
layer {
  name: "inception_3a/relu_5x5"
  type: "ReLU"
  bottom: "inception_3a/5x5"
  top: "inception_3a/5x5"
}
layer {
  name: "inception_3a/pool"
  type: "Pooling"
  bottom: "pool2/3x3_s2"
  top: "inception_3a/pool"
  pooling_param {
    pool: MAX
    kernel_size: 3
    stride: 1
    pad: 1
  }
}
layer {
  name: "inception_3a/pool_proj"
  type: "Convolution"
  bottom: "inception_3a/pool"
  top: "inception_3a/pool_proj"
  param {
    lr_mult: 1
    decay_mult: 1
  }
  param {
    lr_mult: 2
    decay_mult: 0
  }
  convolution_param {
    num_output: 32
    kernel_size: 1
    weight_filler {
      type: "xavier"
      std: 0.1
    }
    bias_filler {
      type: "constant"
      value: 0.2
    }
  }
}
layer {
  name: "inception_3a/relu_pool_proj"
  type: "ReLU"
  bottom: "inception_3a/pool_proj"
  top: "inception_3a/pool_proj"
}
layer {
  name: "inception_3a/output"
  type: "Concat"
  bottom: "inception_3a/1x1"
  bottom: "inception_3a/3x3"
  bottom: "inception_3a/5x5"
  bottom: "inception_3a/pool_proj"
  top: "inception_3a/output"
}
layer {
  name: "inception_3b/1x1"
  type: "Convolution"
  bottom: "inception_3a/output"
  top: "inception_3b/1x1"
  param {
    lr_mult: 1
    decay_mult: 1
  }
  param {
    lr_mult: 2
    decay_mult: 0
  }
  convolution_param {
    num_output: 128
    kernel_size: 1
    weight_filler {
      type: "xavier"
      std: 0.03
    }
    bias_filler {
      type: "constant"
      value: 0.2
    }
  }
}
layer {
  name: "inception_3b/relu_1x1"
  type: "ReLU"
  bottom: "inception_3b/1x1"
  top: "inception_3b/1x1"
}
layer {
  name: "inception_3b/3x3_reduce"
  type: "Convolution"
  bottom: "inception_3a/output"
  top: "inception_3b/3x3_reduce"
  param {
    lr_mult: 1
    decay_mult: 1
  }
  param {
    lr_mult: 2
    decay_mult: 0
  }
  convolution_param {
    num_output: 128
    kernel_size: 1
    weight_filler {
      type: "xavier"
      std: 0.09
    }
    bias_filler {
      type: "constant"
      value: 0.2
    }
  }
}
layer {
  name: "inception_3b/relu_3x3_reduce"
  type: "ReLU"
  bottom: "inception_3b/3x3_reduce"
  top: "inception_3b/3x3_reduce"
}
layer {
  name: "inception_3b/3x3"
  type: "Convolution"
  bottom: "inception_3b/3x3_reduce"
  top: "inception_3b/3x3"
  param {
    lr_mult: 1
    decay_mult: 1
  }
  param {
    lr_mult: 2
    decay_mult: 0
  }
  convolution_param {
    num_output: 192
    pad: 1
    kernel_size: 3
    weight_filler {
      type: "xavier"
      std: 0.03
    }
    bias_filler {
      type: "constant"
      value: 0.2
    }
  }
}
layer {
  name: "inception_3b/relu_3x3"
  type: "ReLU"
  bottom: "inception_3b/3x3"
  top: "inception_3b/3x3"
}
layer {
  name: "inception_3b/5x5_reduce"
  type: "Convolution"
  bottom: "inception_3a/output"
  top: "inception_3b/5x5_reduce"
  param {
    lr_mult: 1
    decay_mult: 1
  }
  param {
    lr_mult: 2
    decay_mult: 0
  }
  convolution_param {
    num_output: 32
    kernel_size: 1
    weight_filler {
      type: "xavier"
      std: 0.2
    }
    bias_filler {
      type: "constant"
      value: 0.2
    }
  }
}
layer {
  name: "inception_3b/relu_5x5_reduce"
  type: "ReLU"
  bottom: "inception_3b/5x5_reduce"
  top: "inception_3b/5x5_reduce"
}
layer {
  name: "inception_3b/5x5"
  type: "Convolution"
  bottom: "inception_3b/5x5_reduce"
  top: "inception_3b/5x5"
  param {
    lr_mult: 1
    decay_mult: 1
  }
  param {
    lr_mult: 2
    decay_mult: 0
  }
  convolution_param {
    num_output: 96
    pad: 2
    kernel_size: 5
    weight_filler {
      type: "xavier"
      std: 0.03
    }
    bias_filler {
      type: "constant"
      value: 0.2
    }
  }
}
layer {
  name: "inception_3b/relu_5x5"
  type: "ReLU"
  bottom: "inception_3b/5x5"
  top: "inception_3b/5x5"
}
layer {
  name: "inception_3b/pool"
  type: "Pooling"
  bottom: "inception_3a/output"
  top: "inception_3b/pool"
  pooling_param {
    pool: MAX
    kernel_size: 3
    stride: 1
    pad: 1
  }
}
layer {
  name: "inception_3b/pool_proj"
  type: "Convolution"
  bottom: "inception_3b/pool"
  top: "inception_3b/pool_proj"
  param {
    lr_mult: 1
    decay_mult: 1
  }
  param {
    lr_mult: 2
    decay_mult: 0
  }
  convolution_param {
    num_output: 64
    kernel_size: 1
    weight_filler {
      type: "xavier"
      std: 0.1
    }
    bias_filler {
      type: "constant"
      value: 0.2
    }
  }
}
layer {
  name: "inception_3b/relu_pool_proj"
  type: "ReLU"
  bottom: "inception_3b/pool_proj"
  top: "inception_3b/pool_proj"
}
layer {
  name: "inception_3b/output"
  type: "Concat"
  bottom: "inception_3b/1x1"
  bottom: "inception_3b/3x3"
  bottom: "inception_3b/5x5"
  bottom: "inception_3b/pool_proj"
  top: "inception_3b/output"
}
layer {
  name: "pool3/3x3_s2"
  type: "Pooling"
  bottom: "inception_3b/output"
  top: "pool3/3x3_s2"
  pooling_param {
    pool: MAX
    kernel_size: 3
    stride: 2
  }
}
layer {
  name: "inception_4a/1x1"
  type: "Convolution"
  bottom: "pool3/3x3_s2"
  top: "inception_4a/1x1"
  param {
    lr_mult: 1
    decay_mult: 1
  }
  param {
    lr_mult: 2
    decay_mult: 0
  }
  convolution_param {
    num_output: 192
    kernel_size: 1
    weight_filler {
      type: "xavier"
      std: 0.03
    }
    bias_filler {
      type: "constant"
      value: 0.2
    }
  }
}
layer {
  name: "inception_4a/relu_1x1"
  type: "ReLU"
  bottom: "inception_4a/1x1"
  top: "inception_4a/1x1"
}
layer {
  name: "inception_4a/3x3_reduce"
  type: "Convolution"
  bottom: "pool3/3x3_s2"
  top: "inception_4a/3x3_reduce"
  param {
    lr_mult: 1
    decay_mult: 1
  }
  param {
    lr_mult: 2
    decay_mult: 0
  }
  convolution_param {
    num_output: 96
    kernel_size: 1
    weight_filler {
      type: "xavier"
      std: 0.09
    }
    bias_filler {
      type: "constant"
      value: 0.2
    }
  }
}
layer {
  name: "inception_4a/relu_3x3_reduce"
  type: "ReLU"
  bottom: "inception_4a/3x3_reduce"
  top: "inception_4a/3x3_reduce"
}
layer {
  name: "inception_4a/3x3"
  type: "Convolution"
  bottom: "inception_4a/3x3_reduce"
  top: "inception_4a/3x3"
  param {
    lr_mult: 1
    decay_mult: 1
  }
  param {
    lr_mult: 2
    decay_mult: 0
  }
  convolution_param {
    num_output: 208
    pad: 1
    kernel_size: 3
    weight_filler {
      type: "xavier"
      std: 0.03
    }
    bias_filler {
      type: "constant"
      value: 0.2
    }
  }
}
layer {
  name: "inception_4a/relu_3x3"
  type: "ReLU"
  bottom: "inception_4a/3x3"
  top: "inception_4a/3x3"
}
layer {
  name: "inception_4a/5x5_reduce"
  type: "Convolution"
  bottom: "pool3/3x3_s2"
  top: "inception_4a/5x5_reduce"
  param {
    lr_mult: 1
    decay_mult: 1
  }
  param {
    lr_mult: 2
    decay_mult: 0
  }
  convolution_param {
    num_output: 16
    kernel_size: 1
    weight_filler {
      type: "xavier"
      std: 0.2
    }
    bias_filler {
      type: "constant"
      value: 0.2
    }
  }
}
layer {
  name: "inception_4a/relu_5x5_reduce"
  type: "ReLU"
  bottom: "inception_4a/5x5_reduce"
  top: "inception_4a/5x5_reduce"
}
layer {
  name: "inception_4a/5x5"
  type: "Convolution"
  bottom: "inception_4a/5x5_reduce"
  top: "inception_4a/5x5"
  param {
    lr_mult: 1
    decay_mult: 1
  }
  param {
    lr_mult: 2
    decay_mult: 0
  }
  convolution_param {
    num_output: 48
    pad: 2
    kernel_size: 5
    weight_filler {
      type: "xavier"
      std: 0.03
    }
    bias_filler {
      type: "constant"
      value: 0.2
    }
  }
}
layer {
  name: "inception_4a/relu_5x5"
  type: "ReLU"
  bottom: "inception_4a/5x5"
  top: "inception_4a/5x5"
}
layer {
  name: "inception_4a/pool"
  type: "Pooling"
  bottom: "pool3/3x3_s2"
  top: "inception_4a/pool"
  pooling_param {
    pool: MAX
    kernel_size: 3
    stride: 1
    pad: 1
  }
}
layer {
  name: "inception_4a/pool_proj"
  type: "Convolution"
  bottom: "inception_4a/pool"
  top: "inception_4a/pool_proj"
  param {
    lr_mult: 1
    decay_mult: 1
  }
  param {
    lr_mult: 2
    decay_mult: 0
  }
  convolution_param {
    num_output: 64
    kernel_size: 1
    weight_filler {
      type: "xavier"
      std: 0.1
    }
    bias_filler {
      type: "constant"
      value: 0.2
    }
  }
}
layer {
  name: "inception_4a/relu_pool_proj"
  type: "ReLU"
  bottom: "inception_4a/pool_proj"
  top: "inception_4a/pool_proj"
}
layer {
  name: "inception_4a/output"
  type: "Concat"
  bottom: "inception_4a/1x1"
  bottom: "inception_4a/3x3"
  bottom: "inception_4a/5x5"
  bottom: "inception_4a/pool_proj"
  top: "inception_4a/output"
}
layer {
  name: "inception_4b/1x1"
  type: "Convolution"
  bottom: "inception_4a/output"
  top: "inception_4b/1x1"
  param {
    lr_mult: 1
    decay_mult: 1
  }
  param {
    lr_mult: 2
    decay_mult: 0
  }
  convolution_param {
    num_output: 160
    kernel_size: 1
    weight_filler {
      type: "xavier"
      std: 0.03
    }
    bias_filler {
      type: "constant"
      value: 0.2
    }
  }
}
layer {
  name: "inception_4b/relu_1x1"
  type: "ReLU"
  bottom: "inception_4b/1x1"
  top: "inception_4b/1x1"
}
layer {
  name: "inception_4b/3x3_reduce"
  type: "Convolution"
  bottom: "inception_4a/output"
  top: "inception_4b/3x3_reduce"
  param {
    lr_mult: 1
    decay_mult: 1
  }
  param {
    lr_mult: 2
    decay_mult: 0
  }
  convolution_param {
    num_output: 112
    kernel_size: 1
    weight_filler {
      type: "xavier"
      std: 0.09
    }
    bias_filler {
      type: "constant"
      value: 0.2
    }
  }
}
layer {
  name: "inception_4b/relu_3x3_reduce"
  type: "ReLU"
  bottom: "inception_4b/3x3_reduce"
  top: "inception_4b/3x3_reduce"
}
layer {
  name: "inception_4b/3x3"
  type: "Convolution"
  bottom: "inception_4b/3x3_reduce"
  top: "inception_4b/3x3"
  param {
    lr_mult: 1
    decay_mult: 1
  }
  param {
    lr_mult: 2
    decay_mult: 0
  }
  convolution_param {
    num_output: 224
    pad: 1
    kernel_size: 3
    weight_filler {
      type: "xavier"
      std: 0.03
    }
    bias_filler {
      type: "constant"
      value: 0.2
    }
  }
}
layer {
  name: "inception_4b/relu_3x3"
  type: "ReLU"
  bottom: "inception_4b/3x3"
  top: "inception_4b/3x3"
}
layer {
  name: "inception_4b/5x5_reduce"
  type: "Convolution"
  bottom: "inception_4a/output"
  top: "inception_4b/5x5_reduce"
  param {
    lr_mult: 1
    decay_mult: 1
  }
  param {
    lr_mult: 2
    decay_mult: 0
  }
  convolution_param {
    num_output: 24
    kernel_size: 1
    weight_filler {
      type: "xavier"
      std: 0.2
    }
    bias_filler {
      type: "constant"
      value: 0.2
    }
  }
}
layer {
  name: "inception_4b/relu_5x5_reduce"
  type: "ReLU"
  bottom: "inception_4b/5x5_reduce"
  top: "inception_4b/5x5_reduce"
}
layer {
  name: "inception_4b/5x5"
  type: "Convolution"
  bottom: "inception_4b/5x5_reduce"
  top: "inception_4b/5x5"
  param {
    lr_mult: 1
    decay_mult: 1
  }
  param {
    lr_mult: 2
    decay_mult: 0
  }
  convolution_param {
    num_output: 64
    pad: 2
    kernel_size: 5
    weight_filler {
      type: "xavier"
      std: 0.03
    }
    bias_filler {
      type: "constant"
      value: 0.2
    }
  }
}
layer {
  name: "inception_4b/relu_5x5"
  type: "ReLU"
  bottom: "inception_4b/5x5"
  top: "inception_4b/5x5"
}
layer {
  name: "inception_4b/pool"
  type: "Pooling"
  bottom: "inception_4a/output"
  top: "inception_4b/pool"
  pooling_param {
    pool: MAX
    kernel_size: 3
    stride: 1
    pad: 1
  }
}
layer {
  name: "inception_4b/pool_proj"
  type: "Convolution"
  bottom: "inception_4b/pool"
  top: "inception_4b/pool_proj"
  param {
    lr_mult: 1
    decay_mult: 1
  }
  param {
    lr_mult: 2
    decay_mult: 0
  }
  convolution_param {
    num_output: 64
    kernel_size: 1
    weight_filler {
      type: "xavier"
      std: 0.1
    }
    bias_filler {
      type: "constant"
      value: 0.2
    }
  }
}
layer {
  name: "inception_4b/relu_pool_proj"
  type: "ReLU"
  bottom: "inception_4b/pool_proj"
  top: "inception_4b/pool_proj"
}
layer {
  name: "inception_4b/output"
  type: "Concat"
  bottom: "inception_4b/1x1"
  bottom: "inception_4b/3x3"
  bottom: "inception_4b/5x5"
  bottom: "inception_4b/pool_proj"
  top: "inception_4b/output"
}
layer {
  name: "inception_4c/1x1"
  type: "Convolution"
  bottom: "inception_4b/output"
  top: "inception_4c/1x1"
  param {
    lr_mult: 1
    decay_mult: 1
  }
  param {
    lr_mult: 2
    decay_mult: 0
  }
  convolution_param {
    num_output: 128
    kernel_size: 1
    weight_filler {
      type: "xavier"
      std: 0.03
    }
    bias_filler {
      type: "constant"
      value: 0.2
    }
  }
}
layer {
  name: "inception_4c/relu_1x1"
  type: "ReLU"
  bottom: "inception_4c/1x1"
  top: "inception_4c/1x1"
}
layer {
  name: "inception_4c/3x3_reduce"
  type: "Convolution"
  bottom: "inception_4b/output"
  top: "inception_4c/3x3_reduce"
  param {
    lr_mult: 1
    decay_mult: 1
  }
  param {
    lr_mult: 2
    decay_mult: 0
  }
  convolution_param {
    num_output: 128
    kernel_size: 1
    weight_filler {
      type: "xavier"
      std: 0.09
    }
    bias_filler {
      type: "constant"
      value: 0.2
    }
  }
}
layer {
  name: "inception_4c/relu_3x3_reduce"
  type: "ReLU"
  bottom: "inception_4c/3x3_reduce"
  top: "inception_4c/3x3_reduce"
}
layer {
  name: "inception_4c/3x3"
  type: "Convolution"
  bottom: "inception_4c/3x3_reduce"
  top: "inception_4c/3x3"
  param {
    lr_mult: 1
    decay_mult: 1
  }
  param {
    lr_mult: 2
    decay_mult: 0
  }
  convolution_param {
    num_output: 256
    pad: 1
    kernel_size: 3
    weight_filler {
      type: "xavier"
      std: 0.03
    }
    bias_filler {
      type: "constant"
      value: 0.2
    }
  }
}
layer {
  name: "inception_4c/relu_3x3"
  type: "ReLU"
  bottom: "inception_4c/3x3"
  top: "inception_4c/3x3"
}
layer {
  name: "inception_4c/5x5_reduce"
  type: "Convolution"
  bottom: "inception_4b/output"
  top: "inception_4c/5x5_reduce"
  param {
    lr_mult: 1
    decay_mult: 1
  }
  param {
    lr_mult: 2
    decay_mult: 0
  }
  convolution_param {
    num_output: 24
    kernel_size: 1
    weight_filler {
      type: "xavier"
      std: 0.2
    }
    bias_filler {
      type: "constant"
      value: 0.2
    }
  }
}
layer {
  name: "inception_4c/relu_5x5_reduce"
  type: "ReLU"
  bottom: "inception_4c/5x5_reduce"
  top: "inception_4c/5x5_reduce"
}
layer {
  name: "inception_4c/5x5"
  type: "Convolution"
  bottom: "inception_4c/5x5_reduce"
  top: "inception_4c/5x5"
  param {
    lr_mult: 1
    decay_mult: 1
  }
  param {
    lr_mult: 2
    decay_mult: 0
  }
  convolution_param {
    num_output: 64
    pad: 2
    kernel_size: 5
    weight_filler {
      type: "xavier"
      std: 0.03
    }
    bias_filler {
      type: "constant"
      value: 0.2
    }
  }
}
layer {
  name: "inception_4c/relu_5x5"
  type: "ReLU"
  bottom: "inception_4c/5x5"
  top: "inception_4c/5x5"
}
layer {
  name: "inception_4c/pool"
  type: "Pooling"
  bottom: "inception_4b/output"
  top: "inception_4c/pool"
  pooling_param {
    pool: MAX
    kernel_size: 3
    stride: 1
    pad: 1
  }
}
layer {
  name: "inception_4c/pool_proj"
  type: "Convolution"
  bottom: "inception_4c/pool"
  top: "inception_4c/pool_proj"
  param {
    lr_mult: 1
    decay_mult: 1
  }
  param {
    lr_mult: 2
    decay_mult: 0
  }
  convolution_param {
    num_output: 64
    kernel_size: 1
    weight_filler {
      type: "xavier"
      std: 0.1
    }
    bias_filler {
      type: "constant"
      value: 0.2
    }
  }
}
layer {
  name: "inception_4c/relu_pool_proj"
  type: "ReLU"
  bottom: "inception_4c/pool_proj"
  top: "inception_4c/pool_proj"
}
layer {
  name: "inception_4c/output"
  type: "Concat"
  bottom: "inception_4c/1x1"
  bottom: "inception_4c/3x3"
  bottom: "inception_4c/5x5"
  bottom: "inception_4c/pool_proj"
  top: "inception_4c/output"
}
layer {
  name: "inception_4d/1x1"
  type: "Convolution"
  bottom: "inception_4c/output"
  top: "inception_4d/1x1"
  param {
    lr_mult: 1
    decay_mult: 1
  }
  param {
    lr_mult: 2
    decay_mult: 0
  }
  convolution_param {
    num_output: 112
    kernel_size: 1
    weight_filler {
      type: "xavier"
      std: 0.03
    }
    bias_filler {
      type: "constant"
      value: 0.2
    }
  }
}
layer {
  name: "inception_4d/relu_1x1"
  type: "ReLU"
  bottom: "inception_4d/1x1"
  top: "inception_4d/1x1"
}
layer {
  name: "inception_4d/3x3_reduce"
  type: "Convolution"
  bottom: "inception_4c/output"
  top: "inception_4d/3x3_reduce"
  param {
    lr_mult: 1
    decay_mult: 1
  }
  param {
    lr_mult: 2
    decay_mult: 0
  }
  convolution_param {
    num_output: 144
    kernel_size: 1
    weight_filler {
      type: "xavier"
      std: 0.09
    }
    bias_filler {
      type: "constant"
      value: 0.2
    }
  }
}
layer {
  name: "inception_4d/relu_3x3_reduce"
  type: "ReLU"
  bottom: "inception_4d/3x3_reduce"
  top: "inception_4d/3x3_reduce"
}
layer {
  name: "inception_4d/3x3"
  type: "Convolution"
  bottom: "inception_4d/3x3_reduce"
  top: "inception_4d/3x3"
  param {
    lr_mult: 1
    decay_mult: 1
  }
  param {
    lr_mult: 2
    decay_mult: 0
  }
  convolution_param {
    num_output: 288
    pad: 1
    kernel_size: 3
    weight_filler {
      type: "xavier"
      std: 0.03
    }
    bias_filler {
      type: "constant"
      value: 0.2
    }
  }
}
layer {
  name: "inception_4d/relu_3x3"
  type: "ReLU"
  bottom: "inception_4d/3x3"
  top: "inception_4d/3x3"
}
layer {
  name: "inception_4d/5x5_reduce"
  type: "Convolution"
  bottom: "inception_4c/output"
  top: "inception_4d/5x5_reduce"
  param {
    lr_mult: 1
    decay_mult: 1
  }
  param {
    lr_mult: 2
    decay_mult: 0
  }
  convolution_param {
    num_output: 32
    kernel_size: 1
    weight_filler {
      type: "xavier"
      std: 0.2
    }
    bias_filler {
      type: "constant"
      value: 0.2
    }
  }
}
layer {
  name: "inception_4d/relu_5x5_reduce"
  type: "ReLU"
  bottom: "inception_4d/5x5_reduce"
  top: "inception_4d/5x5_reduce"
}
layer {
  name: "inception_4d/5x5"
  type: "Convolution"
  bottom: "inception_4d/5x5_reduce"
  top: "inception_4d/5x5"
  param {
    lr_mult: 1
    decay_mult: 1
  }
  param {
    lr_mult: 2
    decay_mult: 0
  }
  convolution_param {
    num_output: 64
    pad: 2
    kernel_size: 5
    weight_filler {
      type: "xavier"
      std: 0.03
    }
    bias_filler {
      type: "constant"
      value: 0.2
    }
  }
}
layer {
  name: "inception_4d/relu_5x5"
  type: "ReLU"
  bottom: "inception_4d/5x5"
  top: "inception_4d/5x5"
}
layer {
  name: "inception_4d/pool"
  type: "Pooling"
  bottom: "inception_4c/output"
  top: "inception_4d/pool"
  pooling_param {
    pool: MAX
    kernel_size: 3
    stride: 1
    pad: 1
  }
}
layer {
  name: "inception_4d/pool_proj"
  type: "Convolution"
  bottom: "inception_4d/pool"
  top: "inception_4d/pool_proj"
  param {
    lr_mult: 1
    decay_mult: 1
  }
  param {
    lr_mult: 2
    decay_mult: 0
  }
  convolution_param {
    num_output: 64
    kernel_size: 1
    weight_filler {
      type: "xavier"
      std: 0.1
    }
    bias_filler {
      type: "constant"
      value: 0.2
    }
  }
}
layer {
  name: "inception_4d/relu_pool_proj"
  type: "ReLU"
  bottom: "inception_4d/pool_proj"
  top: "inception_4d/pool_proj"
}
layer {
  name: "inception_4d/output"
  type: "Concat"
  bottom: "inception_4d/1x1"
  bottom: "inception_4d/3x3"
  bottom: "inception_4d/5x5"
  bottom: "inception_4d/pool_proj"
  top: "inception_4d/output"
}
layer {
  name: "inception_4e/1x1"
  type: "Convolution"
  bottom: "inception_4d/output"
  top: "inception_4e/1x1"
  param {
    lr_mult: 1
    decay_mult: 1
  }
  param {
    lr_mult: 2
    decay_mult: 0
  }
  convolution_param {
    num_output: 256
    kernel_size: 1
    weight_filler {
      type: "xavier"
      std: 0.03
    }
    bias_filler {
      type: "constant"
      value: 0.2
    }
  }
}
layer {
  name: "inception_4e/relu_1x1"
  type: "ReLU"
  bottom: "inception_4e/1x1"
  top: "inception_4e/1x1"
}
layer {
  name: "inception_4e/3x3_reduce"
  type: "Convolution"
  bottom: "inception_4d/output"
  top: "inception_4e/3x3_reduce"
  param {
    lr_mult: 1
    decay_mult: 1
  }
  param {
    lr_mult: 2
    decay_mult: 0
  }
  convolution_param {
    num_output: 160
    kernel_size: 1
    weight_filler {
      type: "xavier"
      std: 0.09
    }
    bias_filler {
      type: "constant"
      value: 0.2
    }
  }
}
layer {
  name: "inception_4e/relu_3x3_reduce"
  type: "ReLU"
  bottom: "inception_4e/3x3_reduce"
  top: "inception_4e/3x3_reduce"
}
layer {
  name: "inception_4e/3x3"
  type: "Convolution"
  bottom: "inception_4e/3x3_reduce"
  top: "inception_4e/3x3"
  param {
    lr_mult: 1
    decay_mult: 1
  }
  param {
    lr_mult: 2
    decay_mult: 0
  }
  convolution_param {
    num_output: 320
    pad: 1
    kernel_size: 3
    weight_filler {
      type: "xavier"
      std: 0.03
    }
    bias_filler {
      type: "constant"
      value: 0.2
    }
  }
}
layer {
  name: "inception_4e/relu_3x3"
  type: "ReLU"
  bottom: "inception_4e/3x3"
  top: "inception_4e/3x3"
}
layer {
  name: "inception_4e/5x5_reduce"
  type: "Convolution"
  bottom: "inception_4d/output"
  top: "inception_4e/5x5_reduce"
  param {
    lr_mult: 1
    decay_mult: 1
  }
  param {
    lr_mult: 2
    decay_mult: 0
  }
  convolution_param {
    num_output: 32
    kernel_size: 1
    weight_filler {
      type: "xavier"
      std: 0.2
    }
    bias_filler {
      type: "constant"
      value: 0.2
    }
  }
}
layer {
  name: "inception_4e/relu_5x5_reduce"
  type: "ReLU"
  bottom: "inception_4e/5x5_reduce"
  top: "inception_4e/5x5_reduce"
}
layer {
  name: "inception_4e/5x5"
  type: "Convolution"
  bottom: "inception_4e/5x5_reduce"
  top: "inception_4e/5x5"
  param {
    lr_mult: 1
    decay_mult: 1
  }
  param {
    lr_mult: 2
    decay_mult: 0
  }
  convolution_param {
    num_output: 128
    pad: 2
    kernel_size: 5
    weight_filler {
      type: "xavier"
      std: 0.03
    }
    bias_filler {
      type: "constant"
      value: 0.2
    }
  }
}
layer {
  name: "inception_4e/relu_5x5"
  type: "ReLU"
  bottom: "inception_4e/5x5"
  top: "inception_4e/5x5"
}
layer {
  name: "inception_4e/pool"
  type: "Pooling"
  bottom: "inception_4d/output"
  top: "inception_4e/pool"
  pooling_param {
    pool: MAX
    kernel_size: 3
    stride: 1
    pad: 1
  }
}
layer {
  name: "inception_4e/pool_proj"
  type: "Convolution"
  bottom: "inception_4e/pool"
  top: "inception_4e/pool_proj"
  param {
    lr_mult: 1
    decay_mult: 1
  }
  param {
    lr_mult: 2
    decay_mult: 0
  }
  convolution_param {
    num_output: 128
    kernel_size: 1
    weight_filler {
      type: "xavier"
      std: 0.1
    }
    bias_filler {
      type: "constant"
      value: 0.2
    }
  }
}
layer {
  name: "inception_4e/relu_pool_proj"
  type: "ReLU"
  bottom: "inception_4e/pool_proj"
  top: "inception_4e/pool_proj"
}
layer {
  name: "inception_4e/output"
  type: "Concat"
  bottom: "inception_4e/1x1"
  bottom: "inception_4e/3x3"
  bottom: "inception_4e/5x5"
  bottom: "inception_4e/pool_proj"
  top: "inception_4e/output"
}
layer {
  name: "pool4/3x3_s2"
  type: "Pooling"
  bottom: "inception_4e/output"
  top: "pool4/3x3_s2"
  pooling_param {
    pool: MAX
    kernel_size: 3
    stride: 2
  }
}
layer {
  name: "inception_5a/1x1"
  type: "Convolution"
  bottom: "pool4/3x3_s2"
  top: "inception_5a/1x1"
  param {
    lr_mult: 1
    decay_mult: 1
  }
  param {
    lr_mult: 2
    decay_mult: 0
  }
  convolution_param {
    num_output: 256
    kernel_size: 1
    weight_filler {
      type: "xavier"
      std: 0.03
    }
    bias_filler {
      type: "constant"
      value: 0.2
    }
  }
}
layer {
  name: "inception_5a/relu_1x1"
  type: "ReLU"
  bottom: "inception_5a/1x1"
  top: "inception_5a/1x1"
}
layer {
  name: "inception_5a/3x3_reduce"
  type: "Convolution"
  bottom: "pool4/3x3_s2"
  top: "inception_5a/3x3_reduce"
  param {
    lr_mult: 1
    decay_mult: 1
  }
  param {
    lr_mult: 2
    decay_mult: 0
  }
  convolution_param {
    num_output: 160
    kernel_size: 1
    weight_filler {
      type: "xavier"
      std: 0.09
    }
    bias_filler {
      type: "constant"
      value: 0.2
    }
  }
}
layer {
  name: "inception_5a/relu_3x3_reduce"
  type: "ReLU"
  bottom: "inception_5a/3x3_reduce"
  top: "inception_5a/3x3_reduce"
}
layer {
  name: "inception_5a/3x3"
  type: "Convolution"
  bottom: "inception_5a/3x3_reduce"
  top: "inception_5a/3x3"
  param {
    lr_mult: 1
    decay_mult: 1
  }
  param {
    lr_mult: 2
    decay_mult: 0
  }
  convolution_param {
    num_output: 320
    pad: 1
    kernel_size: 3
    weight_filler {
      type: "xavier"
      std: 0.03
    }
    bias_filler {
      type: "constant"
      value: 0.2
    }
  }
}
layer {
  name: "inception_5a/relu_3x3"
  type: "ReLU"
  bottom: "inception_5a/3x3"
  top: "inception_5a/3x3"
}
layer {
  name: "inception_5a/5x5_reduce"
  type: "Convolution"
  bottom: "pool4/3x3_s2"
  top: "inception_5a/5x5_reduce"
  param {
    lr_mult: 1
    decay_mult: 1
  }
  param {
    lr_mult: 2
    decay_mult: 0
  }
  convolution_param {
    num_output: 32
    kernel_size: 1
    weight_filler {
      type: "xavier"
      std: 0.2
    }
    bias_filler {
      type: "constant"
      value: 0.2
    }
I0714 20:39:20.179028  2662 layer_factory.hpp:77] Creating layer data
I0714 20:39:20.179055  2662 net.cpp:91] Creating Layer data
I0714 20:39:20.179067  2662 net.cpp:399] data -> data
I0714 20:39:21.274932  2658 net.cpp:141] Setting up data
I0714 20:39:21.275027  2658 net.cpp:148] Top shape: 10 3 224 224 (1505280)
I0714 20:39:21.275037  2658 net.cpp:156] Memory required for data: 6021120
I0714 20:39:21.275066  2658 layer_factory.hpp:77] Creating layer conv1/7x7_s2
I0714 20:39:21.275122  2658 net.cpp:91] Creating Layer conv1/7x7_s2
I0714 20:39:21.275135  2658 net.cpp:425] conv1/7x7_s2 <- data
I0714 20:39:21.275153  2658 net.cpp:399] conv1/7x7_s2 -> conv1/7x7_s2
I0714 20:39:21.289038  2662 net.cpp:141] Setting up data
I0714 20:39:21.289083  2662 net.cpp:148] Top shape: 10 3 224 224 (1505280)
I0714 20:39:21.289091  2662 net.cpp:156] Memory required for data: 6021120
I0714 20:39:21.289103  2662 layer_factory.hpp:77] Creating layer conv1/7x7_s2
I0714 20:39:21.289137  2662 net.cpp:91] Creating Layer conv1/7x7_s2
I0714 20:39:21.289146  2662 net.cpp:425] conv1/7x7_s2 <- data
I0714 20:39:21.289160  2662 net.cpp:399] conv1/7x7_s2 -> conv1/7x7_s2
I0714 20:39:21.707576  2658 net.cpp:141] Setting up conv1/7x7_s2
I0714 20:39:21.707645  2658 net.cpp:148] Top shape: 10 64 112 112 (8028160)
I0714 20:39:21.707653  2658 net.cpp:156] Memory required for data: 38133760
I0714 20:39:21.707689  2658 layer_factory.hpp:77] Creating layer conv1/relu_7x7
I0714 20:39:21.707712  2658 net.cpp:91] Creating Layer conv1/relu_7x7
I0714 20:39:21.707721  2658 net.cpp:425] conv1/relu_7x7 <- conv1/7x7_s2
I0714 20:39:21.707732  2658 net.cpp:386] conv1/relu_7x7 -> conv1/7x7_s2 (in-place)
I0714 20:39:21.708570  2658 net.cpp:141] Setting up conv1/relu_7x7
I0714 20:39:21.708591  2658 net.cpp:148] Top shape: 10 64 112 112 (8028160)
I0714 20:39:21.708597  2658 net.cpp:156] Memory required for data: 70246400
I0714 20:39:21.708605  2658 layer_factory.hpp:77] Creating layer pool1/3x3_s2
I0714 20:39:21.708621  2658 net.cpp:91] Creating Layer pool1/3x3_s2
I0714 20:39:21.708628  2658 net.cpp:425] pool1/3x3_s2 <- conv1/7x7_s2
I0714 20:39:21.708638  2658 net.cpp:399] pool1/3x3_s2 -> pool1/3x3_s2
I0714 20:39:21.709281  2658 net.cpp:141] Setting up pool1/3x3_s2
I0714 20:39:21.709306  2658 net.cpp:148] Top shape: 10 64 56 56 (2007040)
I0714 20:39:21.709314  2658 net.cpp:156] Memory required for data: 78274560
I0714 20:39:21.709321  2658 layer_factory.hpp:77] Creating layer pool1/norm1
I0714 20:39:21.709344  2658 net.cpp:91] Creating Layer pool1/norm1
I0714 20:39:21.709352  2658 net.cpp:425] pool1/norm1 <- pool1/3x3_s2
I0714 20:39:21.709362  2658 net.cpp:399] pool1/norm1 -> pool1/norm1
I0714 20:39:21.714854  2658 net.cpp:141] Setting up pool1/norm1
I0714 20:39:21.714879  2658 net.cpp:148] Top shape: 10 64 56 56 (2007040)
I0714 20:39:21.714885  2658 net.cpp:156] Memory required for data: 86302720
I0714 20:39:21.714893  2658 layer_factory.hpp:77] Creating layer conv2/3x3_reduce
I0714 20:39:21.714920  2658 net.cpp:91] Creating Layer conv2/3x3_reduce
I0714 20:39:21.714927  2658 net.cpp:425] conv2/3x3_reduce <- pool1/norm1
I0714 20:39:21.714938  2658 net.cpp:399] conv2/3x3_reduce -> conv2/3x3_reduce
I0714 20:39:21.718756  2662 net.cpp:141] Setting up conv1/7x7_s2
I0714 20:39:21.718806  2662 net.cpp:148] Top shape: 10 64 112 112 (8028160)
I0714 20:39:21.718814  2662 net.cpp:156] Memory required for data: 38133760
I0714 20:39:21.718837  2662 layer_factory.hpp:77] Creating layer conv1/relu_7x7
I0714 20:39:21.718857  2662 net.cpp:91] Creating Layer conv1/relu_7x7
I0714 20:39:21.718865  2662 net.cpp:425] conv1/relu_7x7 <- conv1/7x7_s2
I0714 20:39:21.718875  2662 net.cpp:386] conv1/relu_7x7 -> conv1/7x7_s2 (in-place)
I0714 20:39:21.719681  2662 net.cpp:141] Setting up conv1/relu_7x7
I0714 20:39:21.719701  2662 net.cpp:148] Top shape: 10 64 112 112 (8028160)
I0714 20:39:21.719707  2662 net.cpp:156] Memory required for data: 70246400
I0714 20:39:21.719714  2662 layer_factory.hpp:77] Creating layer pool1/3x3_s2
I0714 20:39:21.719727  2662 net.cpp:91] Creating Layer pool1/3x3_s2
I0714 20:39:21.719734  2662 net.cpp:425] pool1/3x3_s2 <- conv1/7x7_s2
I0714 20:39:21.719744  2662 net.cpp:399] pool1/3x3_s2 -> pool1/3x3_s2
I0714 20:39:21.720124  2662 net.cpp:141] Setting up pool1/3x3_s2
I0714 20:39:21.720141  2662 net.cpp:148] Top shape: 10 64 56 56 (2007040)
I0714 20:39:21.720147  2662 net.cpp:156] Memory required for data: 78274560
I0714 20:39:21.720155  2662 layer_factory.hpp:77] Creating layer pool1/norm1
I0714 20:39:21.720170  2662 net.cpp:91] Creating Layer pool1/norm1
I0714 20:39:21.720176  2662 net.cpp:425] pool1/norm1 <- pool1/3x3_s2
I0714 20:39:21.720185  2662 net.cpp:399] pool1/norm1 -> pool1/norm1
I0714 20:39:21.721493  2662 net.cpp:141] Setting up pool1/norm1
I0714 20:39:21.721496  2658 net.cpp:141] Setting up conv2/3x3_reduce
I0714 20:39:21.721513  2662 net.cpp:148] Top shape: 10 64 56 56 (2007040)
I0714 20:39:21.721519  2658 net.cpp:148] Top shape: 10 64 56 56 (2007040)
I0714 20:39:21.721519  2662 net.cpp:156] Memory required for data: 86302720
I0714 20:39:21.721530  2658 net.cpp:156] Memory required for data: 94330880
I0714 20:39:21.721536  2662 layer_factory.hpp:77] Creating layer conv2/3x3_reduce
I0714 20:39:21.721546  2658 layer_factory.hpp:77] Creating layer conv2/relu_3x3_reduce
I0714 20:39:21.721560  2662 net.cpp:91] Creating Layer conv2/3x3_reduce
I0714 20:39:21.721560  2658 net.cpp:91] Creating Layer conv2/relu_3x3_reduce
I0714 20:39:21.721570  2662 net.cpp:425] conv2/3x3_reduce <- pool1/norm1
I0714 20:39:21.721581  2658 net.cpp:425] conv2/relu_3x3_reduce <- conv2/3x3_reduce
I0714 20:39:21.721592  2662 net.cpp:399] conv2/3x3_reduce -> conv2/3x3_reduce
I0714 20:39:21.721592  2658 net.cpp:386] conv2/relu_3x3_reduce -> conv2/3x3_reduce (in-place)
I0714 20:39:21.722615  2658 net.cpp:141] Setting up conv2/relu_3x3_reduce
I0714 20:39:21.722635  2658 net.cpp:148] Top shape: 10 64 56 56 (2007040)
I0714 20:39:21.722642  2658 net.cpp:156] Memory required for data: 102359040
I0714 20:39:21.722650  2658 layer_factory.hpp:77] Creating layer conv2/3x3
I0714 20:39:21.722666  2658 net.cpp:91] Creating Layer conv2/3x3
I0714 20:39:21.722673  2658 net.cpp:425] conv2/3x3 <- conv2/3x3_reduce
I0714 20:39:21.722683  2658 net.cpp:399] conv2/3x3 -> conv2/3x3
I0714 20:39:21.727561  2662 net.cpp:141] Setting up conv2/3x3_reduce
I0714 20:39:21.727586  2662 net.cpp:148] Top shape: 10 64 56 56 (2007040)
I0714 20:39:21.727593  2662 net.cpp:156] Memory required for data: 94330880
I0714 20:39:21.727608  2662 layer_factory.hpp:77] Creating layer conv2/relu_3x3_reduce
I0714 20:39:21.727620  2662 net.cpp:91] Creating Layer conv2/relu_3x3_reduce
I0714 20:39:21.727627  2662 net.cpp:425] conv2/relu_3x3_reduce <- conv2/3x3_reduce
I0714 20:39:21.727635  2662 net.cpp:386] conv2/relu_3x3_reduce -> conv2/3x3_reduce (in-place)
I0714 20:39:21.728550  2662 net.cpp:141] Setting up conv2/relu_3x3_reduce
I0714 20:39:21.728569  2662 net.cpp:148] Top shape: 10 64 56 56 (2007040)
I0714 20:39:21.728575  2662 net.cpp:156] Memory required for data: 102359040
I0714 20:39:21.728582  2662 layer_factory.hpp:77] Creating layer conv2/3x3
I0714 20:39:21.728598  2662 net.cpp:91] Creating Layer conv2/3x3
I0714 20:39:21.728605  2662 net.cpp:425] conv2/3x3 <- conv2/3x3_reduce
I0714 20:39:21.728616  2662 net.cpp:399] conv2/3x3 -> conv2/3x3
I0714 20:39:21.732733  2658 net.cpp:141] Setting up conv2/3x3
I0714 20:39:21.732758  2658 net.cpp:148] Top shape: 10 192 56 56 (6021120)
I0714 20:39:21.732764  2658 net.cpp:156] Memory required for data: 126443520
I0714 20:39:21.732782  2658 layer_factory.hpp:77] Creating layer conv2/relu_3x3
I0714 20:39:21.732795  2658 net.cpp:91] Creating Layer conv2/relu_3x3
I0714 20:39:21.732802  2658 net.cpp:425] conv2/relu_3x3 <- conv2/3x3
I0714 20:39:21.732813  2658 net.cpp:386] conv2/relu_3x3 -> conv2/3x3 (in-place)
I0714 20:39:21.733214  2658 net.cpp:141] Setting up conv2/relu_3x3
I0714 20:39:21.733229  2658 net.cpp:148] Top shape: 10 192 56 56 (6021120)
I0714 20:39:21.733235  2658 net.cpp:156] Memory required for data: 150528000
I0714 20:39:21.733242  2658 layer_factory.hpp:77] Creating layer conv2/norm2
I0714 20:39:21.733255  2658 net.cpp:91] Creating Layer conv2/norm2
I0714 20:39:21.733263  2658 net.cpp:425] conv2/norm2 <- conv2/3x3
I0714 20:39:21.733281  2658 net.cpp:399] conv2/norm2 -> conv2/norm2
I0714 20:39:21.735443  2658 net.cpp:141] Setting up conv2/norm2
I0714 20:39:21.735468  2658 net.cpp:148] Top shape: 10 192 56 56 (6021120)
I0714 20:39:21.735476  2658 net.cpp:156] Memory required for data: 174612480
I0714 20:39:21.735482  2658 layer_factory.hpp:77] Creating layer pool2/3x3_s2
I0714 20:39:21.735493  2658 net.cpp:91] Creating Layer pool2/3x3_s2
I0714 20:39:21.735501  2658 net.cpp:425] pool2/3x3_s2 <- conv2/norm2
I0714 20:39:21.735514  2658 net.cpp:399] pool2/3x3_s2 -> pool2/3x3_s2
I0714 20:39:21.735806  2658 net.cpp:141] Setting up pool2/3x3_s2
I0714 20:39:21.735821  2658 net.cpp:148] Top shape: 10 192 28 28 (1505280)
I0714 20:39:21.735826  2658 net.cpp:156] Memory required for data: 180633600
I0714 20:39:21.735832  2658 layer_factory.hpp:77] Creating layer pool2/3x3_s2_pool2/3x3_s2_0_split
I0714 20:39:21.735844  2658 net.cpp:91] Creating Layer pool2/3x3_s2_pool2/3x3_s2_0_split
I0714 20:39:21.735851  2658 net.cpp:425] pool2/3x3_s2_pool2/3x3_s2_0_split <- pool2/3x3_s2
I0714 20:39:21.735858  2658 net.cpp:399] pool2/3x3_s2_pool2/3x3_s2_0_split -> pool2/3x3_s2_pool2/3x3_s2_0_split_0
I0714 20:39:21.735919  2658 net.cpp:399] pool2/3x3_s2_pool2/3x3_s2_0_split -> pool2/3x3_s2_pool2/3x3_s2_0_split_1
I0714 20:39:21.735934  2658 net.cpp:399] pool2/3x3_s2_pool2/3x3_s2_0_split -> pool2/3x3_s2_pool2/3x3_s2_0_split_2
I0714 20:39:21.735944  2658 net.cpp:399] pool2/3x3_s2_pool2/3x3_s2_0_split -> pool2/3x3_s2_pool2/3x3_s2_0_split_3
I0714 20:39:21.736591  2662 net.cpp:141] Setting up conv2/3x3
I0714 20:39:21.736616  2662 net.cpp:148] Top shape: 10 192 56 56 (6021120)
I0714 20:39:21.736624  2662 net.cpp:156] Memory required for data: 126443520
I0714 20:39:21.736640  2662 layer_factory.hpp:77] Creating layer conv2/relu_3x3
I0714 20:39:21.736654  2662 net.cpp:91] Creating Layer conv2/relu_3x3
I0714 20:39:21.736661  2662 net.cpp:425] conv2/relu_3x3 <- conv2/3x3
I0714 20:39:21.736671  2662 net.cpp:386] conv2/relu_3x3 -> conv2/3x3 (in-place)
I0714 20:39:21.736673  2658 net.cpp:141] Setting up pool2/3x3_s2_pool2/3x3_s2_0_split
I0714 20:39:21.736688  2658 net.cpp:148] Top shape: 10 192 28 28 (1505280)
I0714 20:39:21.736697  2658 net.cpp:148] Top shape: 10 192 28 28 (1505280)
I0714 20:39:21.736704  2658 net.cpp:148] Top shape: 10 192 28 28 (1505280)
I0714 20:39:21.736711  2658 net.cpp:148] Top shape: 10 192 28 28 (1505280)
I0714 20:39:21.736717  2658 net.cpp:156] Memory required for data: 204718080
I0714 20:39:21.736724  2658 layer_factory.hpp:77] Creating layer inception_3a/1x1
I0714 20:39:21.736743  2658 net.cpp:91] Creating Layer inception_3a/1x1
I0714 20:39:21.736752  2658 net.cpp:425] inception_3a/1x1 <- pool2/3x3_s2_pool2/3x3_s2_0_split_0
I0714 20:39:21.736785  2658 net.cpp:399] inception_3a/1x1 -> inception_3a/1x1
I0714 20:39:21.737107  2662 net.cpp:141] Setting up conv2/relu_3x3
I0714 20:39:21.737123  2662 net.cpp:148] Top shape: 10 192 56 56 (6021120)
I0714 20:39:21.737129  2662 net.cpp:156] Memory required for data: 150528000
I0714 20:39:21.737136  2662 layer_factory.hpp:77] Creating layer conv2/norm2
I0714 20:39:21.737149  2662 net.cpp:91] Creating Layer conv2/norm2
I0714 20:39:21.737155  2662 net.cpp:425] conv2/norm2 <- conv2/3x3
I0714 20:39:21.737164  2662 net.cpp:399] conv2/norm2 -> conv2/norm2
I0714 20:39:21.738284  2662 net.cpp:141] Setting up conv2/norm2
I0714 20:39:21.738302  2662 net.cpp:148] Top shape: 10 192 56 56 (6021120)
I0714 20:39:21.738309  2662 net.cpp:156] Memory required for data: 174612480
I0714 20:39:21.738317  2662 layer_factory.hpp:77] Creating layer pool2/3x3_s2
I0714 20:39:21.738332  2662 net.cpp:91] Creating Layer pool2/3x3_s2
I0714 20:39:21.738338  2662 net.cpp:425] pool2/3x3_s2 <- conv2/norm2
I0714 20:39:21.738349  2662 net.cpp:399] pool2/3x3_s2 -> pool2/3x3_s2
I0714 20:39:21.738724  2662 net.cpp:141] Setting up pool2/3x3_s2
I0714 20:39:21.738739  2662 net.cpp:148] Top shape: 10 192 28 28 (1505280)
I0714 20:39:21.738744  2662 net.cpp:156] Memory required for data: 180633600
I0714 20:39:21.738751  2662 layer_factory.hpp:77] Creating layer pool2/3x3_s2_pool2/3x3_s2_0_split
I0714 20:39:21.738767  2662 net.cpp:91] Creating Layer pool2/3x3_s2_pool2/3x3_s2_0_split
I0714 20:39:21.738773  2662 net.cpp:425] pool2/3x3_s2_pool2/3x3_s2_0_split <- pool2/3x3_s2
I0714 20:39:21.738781  2662 net.cpp:399] pool2/3x3_s2_pool2/3x3_s2_0_split -> pool2/3x3_s2_pool2/3x3_s2_0_split_0
I0714 20:39:21.738797  2662 net.cpp:399] pool2/3x3_s2_pool2/3x3_s2_0_split -> pool2/3x3_s2_pool2/3x3_s2_0_split_1
I0714 20:39:21.738807  2662 net.cpp:399] pool2/3x3_s2_pool2/3x3_s2_0_split -> pool2/3x3_s2_pool2/3x3_s2_0_split_2
I0714 20:39:21.738817  2662 net.cpp:399] pool2/3x3_s2_pool2/3x3_s2_0_split -> pool2/3x3_s2_pool2/3x3_s2_0_split_3
I0714 20:39:21.739930  2662 net.cpp:141] Setting up pool2/3x3_s2_pool2/3x3_s2_0_split
I0714 20:39:21.739948  2662 net.cpp:148] Top shape: 10 192 28 28 (1505280)
I0714 20:39:21.739955  2662 net.cpp:148] Top shape: 10 192 28 28 (1505280)
I0714 20:39:21.739962  2662 net.cpp:148] Top shape: 10 192 28 28 (1505280)
I0714 20:39:21.739969  2662 net.cpp:148] Top shape: 10 192 28 28 (1505280)
I0714 20:39:21.739975  2662 net.cpp:156] Memory required for data: 204718080
I0714 20:39:21.739981  2662 layer_factory.hpp:77] Creating layer inception_3a/1x1
I0714 20:39:21.740005  2662 net.cpp:91] Creating Layer inception_3a/1x1
I0714 20:39:21.740012  2662 net.cpp:425] inception_3a/1x1 <- pool2/3x3_s2_pool2/3x3_s2_0_split_0
I0714 20:39:21.740025  2662 net.cpp:399] inception_3a/1x1 -> inception_3a/1x1
I0714 20:39:21.744246  2658 net.cpp:141] Setting up inception_3a/1x1
I0714 20:39:21.744272  2658 net.cpp:148] Top shape: 10 64 28 28 (501760)
I0714 20:39:21.744282  2658 net.cpp:156] Memory required for data: 206725120
I0714 20:39:21.744304  2658 layer_factory.hpp:77] Creating layer inception_3a/relu_1x1
I0714 20:39:21.744318  2658 net.cpp:91] Creating Layer inception_3a/relu_1x1
I0714 20:39:21.744323  2658 net.cpp:425] inception_3a/relu_1x1 <- inception_3a/1x1
I0714 20:39:21.744338  2658 net.cpp:386] inception_3a/relu_1x1 -> inception_3a/1x1 (in-place)
I0714 20:39:21.744642  2658 net.cpp:141] Setting up inception_3a/relu_1x1
I0714 20:39:21.744655  2658 net.cpp:148] Top shape: 10 64 28 28 (501760)
I0714 20:39:21.744662  2658 net.cpp:156] Memory required for data: 208732160
I0714 20:39:21.744668  2658 layer_factory.hpp:77] Creating layer inception_3a/3x3_reduce
I0714 20:39:21.744688  2658 net.cpp:91] Creating Layer inception_3a/3x3_reduce
I0714 20:39:21.744696  2658 net.cpp:425] inception_3a/3x3_reduce <- pool2/3x3_s2_pool2/3x3_s2_0_split_1
I0714 20:39:21.744710  2658 net.cpp:399] inception_3a/3x3_reduce -> inception_3a/3x3_reduce
I0714 20:39:21.753276  2662 net.cpp:141] Setting up inception_3a/1x1
I0714 20:39:21.753309  2662 net.cpp:148] Top shape: 10 64 28 28 (501760)
I0714 20:39:21.753316  2662 net.cpp:156] Memory required for data: 206725120
I0714 20:39:21.753331  2662 layer_factory.hpp:77] Creating layer inception_3a/relu_1x1
I0714 20:39:21.753345  2662 net.cpp:91] Creating Layer inception_3a/relu_1x1
I0714 20:39:21.753353  2662 net.cpp:425] inception_3a/relu_1x1 <- inception_3a/1x1
I0714 20:39:21.753365  2662 net.cpp:386] inception_3a/relu_1x1 -> inception_3a/1x1 (in-place)
I0714 20:39:21.753754  2658 net.cpp:141] Setting up inception_3a/3x3_reduce
I0714 20:39:21.753777  2658 net.cpp:148] Top shape: 10 96 28 28 (752640)
I0714 20:39:21.753782  2658 net.cpp:156] Memory required for data: 211742720
I0714 20:39:21.753799  2658 layer_factory.hpp:77] Creating layer inception_3a/relu_3x3_reduce
I0714 20:39:21.753804  2662 net.cpp:141] Setting up inception_3a/relu_1x1
I0714 20:39:21.753811  2658 net.cpp:91] Creating Layer inception_3a/relu_3x3_reduce
I0714 20:39:21.753820  2658 net.cpp:425] inception_3a/relu_3x3_reduce <- inception_3a/3x3_reduce
I0714 20:39:21.753823  2662 net.cpp:148] Top shape: 10 64 28 28 (501760)
I0714 20:39:21.753829  2662 net.cpp:156] Memory required for data: 208732160
I0714 20:39:21.753834  2658 net.cpp:386] inception_3a/relu_3x3_reduce -> inception_3a/3x3_reduce (in-place)
I0714 20:39:21.753837  2662 layer_factory.hpp:77] Creating layer inception_3a/3x3_reduce
I0714 20:39:21.753859  2662 net.cpp:91] Creating Layer inception_3a/3x3_reduce
I0714 20:39:21.753866  2662 net.cpp:425] inception_3a/3x3_reduce <- pool2/3x3_s2_pool2/3x3_s2_0_split_1
I0714 20:39:21.753881  2662 net.cpp:399] inception_3a/3x3_reduce -> inception_3a/3x3_reduce
I0714 20:39:21.754354  2658 net.cpp:141] Setting up inception_3a/relu_3x3_reduce
I0714 20:39:21.754369  2658 net.cpp:148] Top shape: 10 96 28 28 (752640)
I0714 20:39:21.754374  2658 net.cpp:156] Memory required for data: 214753280
I0714 20:39:21.754381  2658 layer_factory.hpp:77] Creating layer inception_3a/3x3
I0714 20:39:21.754407  2658 net.cpp:91] Creating Layer inception_3a/3x3
I0714 20:39:21.754415  2658 net.cpp:425] inception_3a/3x3 <- inception_3a/3x3_reduce
I0714 20:39:21.754429  2658 net.cpp:399] inception_3a/3x3 -> inception_3a/3x3
I0714 20:39:21.761118  2662 net.cpp:141] Setting up inception_3a/3x3_reduce
I0714 20:39:21.761143  2662 net.cpp:148] Top shape: 10 96 28 28 (752640)
I0714 20:39:21.761150  2662 net.cpp:156] Memory required for data: 211742720
I0714 20:39:21.761168  2662 layer_factory.hpp:77] Creating layer inception_3a/relu_3x3_reduce
I0714 20:39:21.761194  2662 net.cpp:91] Creating Layer inception_3a/relu_3x3_reduce
I0714 20:39:21.761204  2662 net.cpp:425] inception_3a/relu_3x3_reduce <- inception_3a/3x3_reduce
I0714 20:39:21.761214  2662 net.cpp:386] inception_3a/relu_3x3_reduce -> inception_3a/3x3_reduce (in-place)
I0714 20:39:21.761668  2662 net.cpp:141] Setting up inception_3a/relu_3x3_reduce
I0714 20:39:21.761672  2658 net.cpp:141] Setting up inception_3a/3x3
I0714 20:39:21.761688  2662 net.cpp:148] Top shape: 10 96 28 28 (752640)
I0714 20:39:21.761694  2662 net.cpp:156] Memory required for data: 214753280
I0714 20:39:21.761700  2658 net.cpp:148] Top shape: 10 128 28 28 (1003520)
I0714 20:39:21.761701  2662 layer_factory.hpp:77] Creating layer inception_3a/3x3
I0714 20:39:21.761711  2658 net.cpp:156] Memory required for data: 218767360
I0714 20:39:21.761731  2658 layer_factory.hpp:77] Creating layer inception_3a/relu_3x3
I0714 20:39:21.761740  2662 net.cpp:91] Creating Layer inception_3a/3x3
I0714 20:39:21.761744  2658 net.cpp:91] Creating Layer inception_3a/relu_3x3
I0714 20:39:21.761750  2662 net.cpp:425] inception_3a/3x3 <- inception_3a/3x3_reduce
I0714 20:39:21.761752  2658 net.cpp:425] inception_3a/relu_3x3 <- inception_3a/3x3
I0714 20:39:21.761765  2662 net.cpp:399] inception_3a/3x3 -> inception_3a/3x3
I0714 20:39:21.761770  2658 net.cpp:386] inception_3a/relu_3x3 -> inception_3a/3x3 (in-place)
I0714 20:39:21.762862  2658 net.cpp:141] Setting up inception_3a/relu_3x3
I0714 20:39:21.762882  2658 net.cpp:148] Top shape: 10 128 28 28 (1003520)
I0714 20:39:21.762889  2658 net.cpp:156] Memory required for data: 222781440
I0714 20:39:21.762895  2658 layer_factory.hpp:77] Creating layer inception_3a/5x5_reduce
I0714 20:39:21.762918  2658 net.cpp:91] Creating Layer inception_3a/5x5_reduce
I0714 20:39:21.762926  2658 net.cpp:425] inception_3a/5x5_reduce <- pool2/3x3_s2_pool2/3x3_s2_0_split_2
I0714 20:39:21.762940  2658 net.cpp:399] inception_3a/5x5_reduce -> inception_3a/5x5_reduce
I0714 20:39:21.767033  2658 net.cpp:141] Setting up inception_3a/5x5_reduce
I0714 20:39:21.767055  2658 net.cpp:148] Top shape: 10 16 28 28 (125440)
I0714 20:39:21.767060  2658 net.cpp:156] Memory required for data: 223283200
I0714 20:39:21.767071  2658 layer_factory.hpp:77] Creating layer inception_3a/relu_5x5_reduce
I0714 20:39:21.767082  2658 net.cpp:91] Creating Layer inception_3a/relu_5x5_reduce
I0714 20:39:21.767089  2658 net.cpp:425] inception_3a/relu_5x5_reduce <- inception_3a/5x5_reduce
I0714 20:39:21.767103  2658 net.cpp:386] inception_3a/relu_5x5_reduce -> inception_3a/5x5_reduce (in-place)
I0714 20:39:21.767602  2658 net.cpp:141] Setting up inception_3a/relu_5x5_reduce
I0714 20:39:21.767618  2658 net.cpp:148] Top shape: 10 16 28 28 (125440)
I0714 20:39:21.767624  2658 net.cpp:156] Memory required for data: 223784960
I0714 20:39:21.767632  2658 layer_factory.hpp:77] Creating layer inception_3a/5x5
I0714 20:39:21.767649  2658 net.cpp:91] Creating Layer inception_3a/5x5
I0714 20:39:21.767657  2658 net.cpp:425] inception_3a/5x5 <- inception_3a/5x5_reduce
I0714 20:39:21.767683  2658 net.cpp:399] inception_3a/5x5 -> inception_3a/5x5
I0714 20:39:21.767681  2662 net.cpp:141] Setting up inception_3a/3x3
I0714 20:39:21.767701  2662 net.cpp:148] Top shape: 10 128 28 28 (1003520)
I0714 20:39:21.767709  2662 net.cpp:156] Memory required for data: 218767360
I0714 20:39:21.767719  2662 layer_factory.hpp:77] Creating layer inception_3a/relu_3x3
I0714 20:39:21.767735  2662 net.cpp:91] Creating Layer inception_3a/relu_3x3
I0714 20:39:21.767741  2662 net.cpp:425] inception_3a/relu_3x3 <- inception_3a/3x3
I0714 20:39:21.767751  2662 net.cpp:386] inception_3a/relu_3x3 -> inception_3a/3x3 (in-place)
I0714 20:39:21.768759  2662 net.cpp:141] Setting up inception_3a/relu_3x3
I0714 20:39:21.768779  2662 net.cpp:148] Top shape: 10 128 28 28 (1003520)
I0714 20:39:21.768785  2662 net.cpp:156] Memory required for data: 222781440
I0714 20:39:21.768792  2662 layer_factory.hpp:77] Creating layer inception_3a/5x5_reduce
I0714 20:39:21.768815  2662 net.cpp:91] Creating Layer inception_3a/5x5_reduce
I0714 20:39:21.768822  2662 net.cpp:425] inception_3a/5x5_reduce <- pool2/3x3_s2_pool2/3x3_s2_0_split_2
I0714 20:39:21.768834  2662 net.cpp:399] inception_3a/5x5_reduce -> inception_3a/5x5_reduce
I0714 20:39:21.774339  2658 net.cpp:141] Setting up inception_3a/5x5
I0714 20:39:21.774363  2658 net.cpp:148] Top shape: 10 32 28 28 (250880)
I0714 20:39:21.774370  2658 net.cpp:156] Memory required for data: 224788480
I0714 20:39:21.774381  2658 layer_factory.hpp:77] Creating layer inception_3a/relu_5x5
I0714 20:39:21.774392  2658 net.cpp:91] Creating Layer inception_3a/relu_5x5
I0714 20:39:21.774404  2658 net.cpp:425] inception_3a/relu_5x5 <- inception_3a/5x5
I0714 20:39:21.774412  2658 net.cpp:386] inception_3a/relu_5x5 -> inception_3a/5x5 (in-place)
I0714 20:39:21.774730  2662 net.cpp:141] Setting up inception_3a/5x5_reduce
I0714 20:39:21.774749  2662 net.cpp:148] Top shape: 10 16 28 28 (125440)
I0714 20:39:21.774755  2662 net.cpp:156] Memory required for data: 223283200
I0714 20:39:21.774766  2662 layer_factory.hpp:77] Creating layer inception_3a/relu_5x5_reduce
I0714 20:39:21.774781  2662 net.cpp:91] Creating Layer inception_3a/relu_5x5_reduce
I0714 20:39:21.774788  2662 net.cpp:425] inception_3a/relu_5x5_reduce <- inception_3a/5x5_reduce
I0714 20:39:21.774801  2662 net.cpp:386] inception_3a/relu_5x5_reduce -> inception_3a/5x5_reduce (in-place)
I0714 20:39:21.774811  2658 net.cpp:141] Setting up inception_3a/relu_5x5
I0714 20:39:21.774827  2658 net.cpp:148] Top shape: 10 32 28 28 (250880)
I0714 20:39:21.774832  2658 net.cpp:156] Memory required for data: 225792000
I0714 20:39:21.774838  2658 layer_factory.hpp:77] Creating layer inception_3a/pool
I0714 20:39:21.774853  2658 net.cpp:91] Creating Layer inception_3a/pool
I0714 20:39:21.774862  2658 net.cpp:425] inception_3a/pool <- pool2/3x3_s2_pool2/3x3_s2_0_split_3
I0714 20:39:21.774871  2658 net.cpp:399] inception_3a/pool -> inception_3a/pool
I0714 20:39:21.775136  2658 net.cpp:141] Setting up inception_3a/pool
I0714 20:39:21.775151  2658 net.cpp:148] Top shape: 10 192 28 28 (1505280)
I0714 20:39:21.775156  2658 net.cpp:156] Memory required for data: 231813120
I0714 20:39:21.775162  2658 layer_factory.hpp:77] Creating layer inception_3a/pool_proj
I0714 20:39:21.775184  2658 net.cpp:91] Creating Layer inception_3a/pool_proj
I0714 20:39:21.775192  2658 net.cpp:425] inception_3a/pool_proj <- inception_3a/pool
I0714 20:39:21.775202  2658 net.cpp:399] inception_3a/pool_proj -> inception_3a/pool_proj
I0714 20:39:21.775212  2662 net.cpp:141] Setting up inception_3a/relu_5x5_reduce
I0714 20:39:21.775226  2662 net.cpp:148] Top shape: 10 16 28 28 (125440)
I0714 20:39:21.775233  2662 net.cpp:156] Memory required for data: 223784960
I0714 20:39:21.775239  2662 layer_factory.hpp:77] Creating layer inception_3a/5x5
I0714 20:39:21.775259  2662 net.cpp:91] Creating Layer inception_3a/5x5
I0714 20:39:21.775266  2662 net.cpp:425] inception_3a/5x5 <- inception_3a/5x5_reduce
I0714 20:39:21.775279  2662 net.cpp:399] inception_3a/5x5 -> inception_3a/5x5
I0714 20:39:21.780586  2658 net.cpp:141] Setting up inception_3a/pool_proj
I0714 20:39:21.780607  2658 net.cpp:148] Top shape: 10 32 28 28 (250880)
I0714 20:39:21.780613  2658 net.cpp:156] Memory required for data: 232816640
I0714 20:39:21.780629  2658 layer_factory.hpp:77] Creating layer inception_3a/relu_pool_proj
I0714 20:39:21.780647  2658 net.cpp:91] Creating Layer inception_3a/relu_pool_proj
I0714 20:39:21.780654  2658 net.cpp:425] inception_3a/relu_pool_proj <- inception_3a/pool_proj
I0714 20:39:21.780663  2658 net.cpp:386] inception_3a/relu_pool_proj -> inception_3a/pool_proj (in-place)
I0714 20:39:21.781623  2658 net.cpp:141] Setting up inception_3a/relu_pool_proj
I0714 20:39:21.781642  2658 net.cpp:148] Top shape: 10 32 28 28 (250880)
I0714 20:39:21.781648  2658 net.cpp:156] Memory required for data: 233820160
I0714 20:39:21.781656  2658 layer_factory.hpp:77] Creating layer inception_3a/output
I0714 20:39:21.781682  2658 net.cpp:91] Creating Layer inception_3a/output
I0714 20:39:21.781690  2658 net.cpp:425] inception_3a/output <- inception_3a/1x1
I0714 20:39:21.781698  2658 net.cpp:425] inception_3a/output <- inception_3a/3x3
I0714 20:39:21.781705  2658 net.cpp:425] inception_3a/output <- inception_3a/5x5
I0714 20:39:21.781711  2658 net.cpp:425] inception_3a/output <- inception_3a/pool_proj
I0714 20:39:21.781723  2658 net.cpp:399] inception_3a/output -> inception_3a/output
I0714 20:39:21.782238  2658 net.cpp:141] Setting up inception_3a/output
I0714 20:39:21.782244  2662 net.cpp:141] Setting up inception_3a/5x5
I0714 20:39:21.782253  2658 net.cpp:148] Top shape: 10 256 28 28 (2007040)
I0714 20:39:21.782261  2658 net.cpp:156] Memory required for data: 241848320
I0714 20:39:21.782266  2662 net.cpp:148] Top shape: 10 32 28 28 (250880)
I0714 20:39:21.782269  2658 layer_factory.hpp:77] Creating layer inception_3a/output_inception_3a/output_0_split
I0714 20:39:21.782274  2662 net.cpp:156] Memory required for data: 224788480
I0714 20:39:21.782280  2658 net.cpp:91] Creating Layer inception_3a/output_inception_3a/output_0_split
I0714 20:39:21.782286  2662 layer_factory.hpp:77] Creating layer inception_3a/relu_5x5
I0714 20:39:21.782287  2658 net.cpp:425] inception_3a/output_inception_3a/output_0_split <- inception_3a/output
I0714 20:39:21.782301  2662 net.cpp:91] Creating Layer inception_3a/relu_5x5
I0714 20:39:21.782310  2662 net.cpp:425] inception_3a/relu_5x5 <- inception_3a/5x5
I0714 20:39:21.782310  2658 net.cpp:399] inception_3a/output_inception_3a/output_0_split -> inception_3a/output_inception_3a/output_0_split_0
I0714 20:39:21.782323  2662 net.cpp:386] inception_3a/relu_5x5 -> inception_3a/5x5 (in-place)
I0714 20:39:21.782323  2658 net.cpp:399] inception_3a/output_inception_3a/output_0_split -> inception_3a/output_inception_3a/output_0_split_1
I0714 20:39:21.782343  2658 net.cpp:399] inception_3a/output_inception_3a/output_0_split -> inception_3a/output_inception_3a/output_0_split_2
I0714 20:39:21.782354  2658 net.cpp:399] inception_3a/output_inception_3a/output_0_split -> inception_3a/output_inception_3a/output_0_split_3
I0714 20:39:21.782819  2658 net.cpp:141] Setting up inception_3a/output_inception_3a/output_0_split
I0714 20:39:21.782835  2658 net.cpp:148] Top shape: 10 256 28 28 (2007040)
I0714 20:39:21.782833  2662 net.cpp:141] Setting up inception_3a/relu_5x5
I0714 20:39:21.782848  2658 net.cpp:148] Top shape: 10 256 28 28 (2007040)
I0714 20:39:21.782861  2662 net.cpp:148] Top shape: 10 32 28 28 (250880)
I0714 20:39:21.782867  2658 net.cpp:148] Top shape: 10 256 28 28 (2007040)
I0714 20:39:21.782868  2662 net.cpp:156] Memory required for data: 225792000
I0714 20:39:21.782878  2658 net.cpp:148] Top shape: 10 256 28 28 (2007040)
I0714 20:39:21.782882  2662 layer_factory.hpp:77] Creating layer inception_3a/pool
I0714 20:39:21.782884  2658 net.cpp:156] Memory required for data: 273960960
I0714 20:39:21.782892  2658 layer_factory.hpp:77] Creating layer inception_3b/1x1
I0714 20:39:21.782899  2662 net.cpp:91] Creating Layer inception_3a/pool
I0714 20:39:21.782907  2662 net.cpp:425] inception_3a/pool <- pool2/3x3_s2_pool2/3x3_s2_0_split_3
I0714 20:39:21.782912  2658 net.cpp:91] Creating Layer inception_3b/1x1
I0714 20:39:21.782917  2662 net.cpp:399] inception_3a/pool -> inception_3a/pool
I0714 20:39:21.782920  2658 net.cpp:425] inception_3b/1x1 <- inception_3a/output_inception_3a/output_0_split_0
I0714 20:39:21.782934  2658 net.cpp:399] inception_3b/1x1 -> inception_3b/1x1
I0714 20:39:21.783154  2662 net.cpp:141] Setting up inception_3a/pool
I0714 20:39:21.783169  2662 net.cpp:148] Top shape: 10 192 28 28 (1505280)
I0714 20:39:21.783174  2662 net.cpp:156] Memory required for data: 231813120
I0714 20:39:21.783181  2662 layer_factory.hpp:77] Creating layer inception_3a/pool_proj
I0714 20:39:21.783200  2662 net.cpp:91] Creating Layer inception_3a/pool_proj
I0714 20:39:21.783207  2662 net.cpp:425] inception_3a/pool_proj <- inception_3a/pool
I0714 20:39:21.783221  2662 net.cpp:399] inception_3a/pool_proj -> inception_3a/pool_proj
I0714 20:39:21.788034  2662 net.cpp:141] Setting up inception_3a/pool_proj
I0714 20:39:21.788056  2662 net.cpp:148] Top shape: 10 32 28 28 (250880)
I0714 20:39:21.788064  2662 net.cpp:156] Memory required for data: 232816640
I0714 20:39:21.788082  2662 layer_factory.hpp:77] Creating layer inception_3a/relu_pool_proj
I0714 20:39:21.788094  2662 net.cpp:91] Creating Layer inception_3a/relu_pool_proj
I0714 20:39:21.788100  2662 net.cpp:425] inception_3a/relu_pool_proj <- inception_3a/pool_proj
I0714 20:39:21.788110  2662 net.cpp:386] inception_3a/relu_pool_proj -> inception_3a/pool_proj (in-place)
I0714 20:39:21.789152  2662 net.cpp:141] Setting up inception_3a/relu_pool_proj
I0714 20:39:21.789173  2662 net.cpp:148] Top shape: 10 32 28 28 (250880)
I0714 20:39:21.789180  2662 net.cpp:156] Memory required for data: 233820160
I0714 20:39:21.789186  2662 layer_factory.hpp:77] Creating layer inception_3a/output
I0714 20:39:21.789198  2662 net.cpp:91] Creating Layer inception_3a/output
I0714 20:39:21.789204  2662 net.cpp:425] inception_3a/output <- inception_3a/1x1
I0714 20:39:21.789213  2662 net.cpp:425] inception_3a/output <- inception_3a/3x3
I0714 20:39:21.789221  2662 net.cpp:425] inception_3a/output <- inception_3a/5x5
I0714 20:39:21.789227  2662 net.cpp:425] inception_3a/output <- inception_3a/pool_proj
I0714 20:39:21.789235  2662 net.cpp:399] inception_3a/output -> inception_3a/output
I0714 20:39:21.789232  2658 net.cpp:141] Setting up inception_3b/1x1
I0714 20:39:21.789260  2658 net.cpp:148] Top shape: 10 128 28 28 (1003520)
I0714 20:39:21.789268  2658 net.cpp:156] Memory required for data: 277975040
I0714 20:39:21.789278  2658 layer_factory.hpp:77] Creating layer inception_3b/relu_1x1
I0714 20:39:21.789289  2658 net.cpp:91] Creating Layer inception_3b/relu_1x1
I0714 20:39:21.789296  2658 net.cpp:425] inception_3b/relu_1x1 <- inception_3b/1x1
I0714 20:39:21.789305  2658 net.cpp:386] inception_3b/relu_1x1 -> inception_3b/1x1 (in-place)
I0714 20:39:21.789336  2662 net.cpp:141] Setting up inception_3a/output
I0714 20:39:21.789350  2662 net.cpp:148] Top shape: 10 256 28 28 (2007040)
I0714 20:39:21.789355  2662 net.cpp:156] Memory required for data: 241848320
I0714 20:39:21.789362  2662 layer_factory.hpp:77] Creating layer inception_3a/output_inception_3a/output_0_split
I0714 20:39:21.789372  2662 net.cpp:91] Creating Layer inception_3a/output_inception_3a/output_0_split
I0714 20:39:21.789378  2662 net.cpp:425] inception_3a/output_inception_3a/output_0_split <- inception_3a/output
I0714 20:39:21.789387  2662 net.cpp:399] inception_3a/output_inception_3a/output_0_split -> inception_3a/output_inception_3a/output_0_split_0
I0714 20:39:21.789402  2662 net.cpp:399] inception_3a/output_inception_3a/output_0_split -> inception_3a/output_inception_3a/output_0_split_1
I0714 20:39:21.789413  2662 net.cpp:399] inception_3a/output_inception_3a/output_0_split -> inception_3a/output_inception_3a/output_0_split_2
I0714 20:39:21.789423  2662 net.cpp:399] inception_3a/output_inception_3a/output_0_split -> inception_3a/output_inception_3a/output_0_split_3
I0714 20:39:21.789799  2662 net.cpp:141] Setting up inception_3a/output_inception_3a/output_0_split
I0714 20:39:21.789813  2662 net.cpp:148] Top shape: 10 256 28 28 (2007040)
I0714 20:39:21.789813  2658 net.cpp:141] Setting up inception_3b/relu_1x1
I0714 20:39:21.789827  2662 net.cpp:148] Top shape: 10 256 28 28 (2007040)
I0714 20:39:21.789839  2662 net.cpp:148] Top shape: 10 256 28 28 (2007040)
I0714 20:39:21.789839  2658 net.cpp:148] Top shape: 10 128 28 28 (1003520)
I0714 20:39:21.789849  2662 net.cpp:148] Top shape: 10 256 28 28 (2007040)
I0714 20:39:21.789854  2658 net.cpp:156] Memory required for data: 281989120
I0714 20:39:21.789856  2662 net.cpp:156] Memory required for data: 273960960
I0714 20:39:21.789861  2658 layer_factory.hpp:77] Creating layer inception_3b/3x3_reduce
I0714 20:39:21.789863  2662 layer_factory.hpp:77] Creating layer inception_3b/1x1
I0714 20:39:21.789881  2658 net.cpp:91] Creating Layer inception_3b/3x3_reduce
I0714 20:39:21.789883  2662 net.cpp:91] Creating Layer inception_3b/1x1
I0714 20:39:21.789890  2658 net.cpp:425] inception_3b/3x3_reduce <- inception_3a/output_inception_3a/output_0_split_1
I0714 20:39:21.789892  2662 net.cpp:425] inception_3b/1x1 <- inception_3a/output_inception_3a/output_0_split_0
I0714 20:39:21.789908  2658 net.cpp:399] inception_3b/3x3_reduce -> inception_3b/3x3_reduce
I0714 20:39:21.789917  2662 net.cpp:399] inception_3b/1x1 -> inception_3b/1x1
I0714 20:39:21.794572  2658 net.cpp:141] Setting up inception_3b/3x3_reduce
I0714 20:39:21.794595  2658 net.cpp:148] Top shape: 10 128 28 28 (1003520)
I0714 20:39:21.794602  2658 net.cpp:156] Memory required for data: 286003200
I0714 20:39:21.794613  2658 layer_factory.hpp:77] Creating layer inception_3b/relu_3x3_reduce
I0714 20:39:21.794628  2658 net.cpp:91] Creating Layer inception_3b/relu_3x3_reduce
I0714 20:39:21.794636  2658 net.cpp:425] inception_3b/relu_3x3_reduce <- inception_3b/3x3_reduce
I0714 20:39:21.794652  2658 net.cpp:386] inception_3b/relu_3x3_reduce -> inception_3b/3x3_reduce (in-place)
I0714 20:39:21.794996  2662 net.cpp:141] Setting up inception_3b/1x1
I0714 20:39:21.795016  2662 net.cpp:148] Top shape: 10 128 28 28 (1003520)
I0714 20:39:21.795022  2662 net.cpp:156] Memory required for data: 277975040
I0714 20:39:21.795033  2662 layer_factory.hpp:77] Creating layer inception_3b/relu_1x1
I0714 20:39:21.795047  2662 net.cpp:91] Creating Layer inception_3b/relu_1x1
I0714 20:39:21.795056  2662 net.cpp:425] inception_3b/relu_1x1 <- inception_3b/1x1
I0714 20:39:21.795066  2662 net.cpp:386] inception_3b/relu_1x1 -> inception_3b/1x1 (in-place)
I0714 20:39:21.795084  2658 net.cpp:141] Setting up inception_3b/relu_3x3_reduce
I0714 20:39:21.795100  2658 net.cpp:148] Top shape: 10 128 28 28 (1003520)
I0714 20:39:21.795105  2658 net.cpp:156] Memory required for data: 290017280
I0714 20:39:21.795112  2658 layer_factory.hpp:77] Creating layer inception_3b/3x3
I0714 20:39:21.795132  2658 net.cpp:91] Creating Layer inception_3b/3x3
I0714 20:39:21.795140  2658 net.cpp:425] inception_3b/3x3 <- inception_3b/3x3_reduce
I0714 20:39:21.795153  2658 net.cpp:399] inception_3b/3x3 -> inception_3b/3x3
I0714 20:39:21.795562  2662 net.cpp:141] Setting up inception_3b/relu_1x1
I0714 20:39:21.795577  2662 net.cpp:148] Top shape: 10 128 28 28 (1003520)
I0714 20:39:21.795583  2662 net.cpp:156] Memory required for data: 281989120
I0714 20:39:21.795589  2662 layer_factory.hpp:77] Creating layer inception_3b/3x3_reduce
I0714 20:39:21.795609  2662 net.cpp:91] Creating Layer inception_3b/3x3_reduce
I0714 20:39:21.795616  2662 net.cpp:425] inception_3b/3x3_reduce <- inception_3a/output_inception_3a/output_0_split_1
I0714 20:39:21.795630  2662 net.cpp:399] inception_3b/3x3_reduce -> inception_3b/3x3_reduce
I0714 20:39:21.802415  2662 net.cpp:141] Setting up inception_3b/3x3_reduce
I0714 20:39:21.802449  2662 net.cpp:148] Top shape: 10 128 28 28 (1003520)
I0714 20:39:21.802458  2662 net.cpp:156] Memory required for data: 286003200
I0714 20:39:21.802469  2662 layer_factory.hpp:77] Creating layer inception_3b/relu_3x3_reduce
I0714 20:39:21.802479  2662 net.cpp:91] Creating Layer inception_3b/relu_3x3_reduce
I0714 20:39:21.802486  2662 net.cpp:425] inception_3b/relu_3x3_reduce <- inception_3b/3x3_reduce
I0714 20:39:21.802496  2662 net.cpp:386] inception_3b/relu_3x3_reduce -> inception_3b/3x3_reduce (in-place)
I0714 20:39:21.802960  2662 net.cpp:141] Setting up inception_3b/relu_3x3_reduce
I0714 20:39:21.802975  2662 net.cpp:148] Top shape: 10 128 28 28 (1003520)
I0714 20:39:21.802981  2662 net.cpp:156] Memory required for data: 290017280
I0714 20:39:21.802989  2662 layer_factory.hpp:77] Creating layer inception_3b/3x3
I0714 20:39:21.803011  2662 net.cpp:91] Creating Layer inception_3b/3x3
I0714 20:39:21.803020  2662 net.cpp:425] inception_3b/3x3 <- inception_3b/3x3_reduce
I0714 20:39:21.803033  2662 net.cpp:399] inception_3b/3x3 -> inception_3b/3x3
I0714 20:39:21.803489  2658 net.cpp:141] Setting up inception_3b/3x3
I0714 20:39:21.803515  2658 net.cpp:148] Top shape: 10 192 28 28 (1505280)
I0714 20:39:21.803521  2658 net.cpp:156] Memory required for data: 296038400
I0714 20:39:21.803534  2658 layer_factory.hpp:77] Creating layer inception_3b/relu_3x3
I0714 20:39:21.803549  2658 net.cpp:91] Creating Layer inception_3b/relu_3x3
I0714 20:39:21.803556  2658 net.cpp:425] inception_3b/relu_3x3 <- inception_3b/3x3
I0714 20:39:21.803570  2658 net.cpp:386] inception_3b/relu_3x3 -> inception_3b/3x3 (in-place)
I0714 20:39:21.805063  2658 net.cpp:141] Setting up inception_3b/relu_3x3
I0714 20:39:21.805083  2658 net.cpp:148] Top shape: 10 192 28 28 (1505280)
I0714 20:39:21.805088  2658 net.cpp:156] Memory required for data: 302059520
I0714 20:39:21.805095  2658 layer_factory.hpp:77] Creating layer inception_3b/5x5_reduce
I0714 20:39:21.805116  2658 net.cpp:91] Creating Layer inception_3b/5x5_reduce
I0714 20:39:21.805124  2658 net.cpp:425] inception_3b/5x5_reduce <- inception_3a/output_inception_3a/output_0_split_2
I0714 20:39:21.805138  2658 net.cpp:399] inception_3b/5x5_reduce -> inception_3b/5x5_reduce
I0714 20:39:21.811262  2658 net.cpp:141] Setting up inception_3b/5x5_reduce
I0714 20:39:21.811290  2658 net.cpp:148] Top shape: 10 32 28 28 (250880)
I0714 20:39:21.811297  2658 net.cpp:156] Memory required for data: 303063040
I0714 20:39:21.811309  2658 layer_factory.hpp:77] Creating layer inception_3b/relu_5x5_reduce
I0714 20:39:21.811321  2658 net.cpp:91] Creating Layer inception_3b/relu_5x5_reduce
I0714 20:39:21.811328  2658 net.cpp:425] inception_3b/relu_5x5_reduce <- inception_3b/5x5_reduce
I0714 20:39:21.811343  2658 net.cpp:386] inception_3b/relu_5x5_reduce -> inception_3b/5x5_reduce (in-place)
I0714 20:39:21.812227  2658 net.cpp:141] Setting up inception_3b/relu_5x5_reduce
I0714 20:39:21.812247  2658 net.cpp:148] Top shape: 10 32 28 28 (250880)
I0714 20:39:21.812253  2658 net.cpp:156] Memory required for data: 304066560
I0714 20:39:21.812260  2658 layer_factory.hpp:77] Creating layer inception_3b/5x5
I0714 20:39:21.812280  2658 net.cpp:91] Creating Layer inception_3b/5x5
I0714 20:39:21.812288  2658 net.cpp:425] inception_3b/5x5 <- inception_3b/5x5_reduce
I0714 20:39:21.812299  2658 net.cpp:399] inception_3b/5x5 -> inception_3b/5x5
I0714 20:39:21.813076  2662 net.cpp:141] Setting up inception_3b/3x3
I0714 20:39:21.813107  2662 net.cpp:148] Top shape: 10 192 28 28 (1505280)
I0714 20:39:21.813113  2662 net.cpp:156] Memory required for data: 296038400
I0714 20:39:21.813127  2662 layer_factory.hpp:77] Creating layer inception_3b/relu_3x3
I0714 20:39:21.813153  2662 net.cpp:91] Creating Layer inception_3b/relu_3x3
I0714 20:39:21.813161  2662 net.cpp:425] inception_3b/relu_3x3 <- inception_3b/3x3
I0714 20:39:21.813175  2662 net.cpp:386] inception_3b/relu_3x3 -> inception_3b/3x3 (in-place)
I0714 20:39:21.814188  2662 net.cpp:141] Setting up inception_3b/relu_3x3
I0714 20:39:21.814209  2662 net.cpp:148] Top shape: 10 192 28 28 (1505280)
I0714 20:39:21.814215  2662 net.cpp:156] Memory required for data: 302059520
I0714 20:39:21.814223  2662 layer_factory.hpp:77] Creating layer inception_3b/5x5_reduce
I0714 20:39:21.814247  2662 net.cpp:91] Creating Layer inception_3b/5x5_reduce
I0714 20:39:21.814255  2662 net.cpp:425] inception_3b/5x5_reduce <- inception_3a/output_inception_3a/output_0_split_2
I0714 20:39:21.814271  2662 net.cpp:399] inception_3b/5x5_reduce -> inception_3b/5x5_reduce
I0714 20:39:21.819449  2662 net.cpp:141] Setting up inception_3b/5x5_reduce
I0714 20:39:21.819473  2662 net.cpp:148] Top shape: 10 32 28 28 (250880)
I0714 20:39:21.819479  2662 net.cpp:156] Memory required for data: 303063040
I0714 20:39:21.819490  2662 layer_factory.hpp:77] Creating layer inception_3b/relu_5x5_reduce
I0714 20:39:21.819502  2662 net.cpp:91] Creating Layer inception_3b/relu_5x5_reduce
I0714 20:39:21.819509  2662 net.cpp:425] inception_3b/relu_5x5_reduce <- inception_3b/5x5_reduce
I0714 20:39:21.819522  2662 net.cpp:386] inception_3b/relu_5x5_reduce -> inception_3b/5x5_reduce (in-place)
I0714 20:39:21.819846  2658 net.cpp:141] Setting up inception_3b/5x5
I0714 20:39:21.819869  2658 net.cpp:148] Top shape: 10 96 28 28 (752640)
I0714 20:39:21.819875  2658 net.cpp:156] Memory required for data: 307077120
I0714 20:39:21.819886  2658 layer_factory.hpp:77] Creating layer inception_3b/relu_5x5
I0714 20:39:21.819901  2658 net.cpp:91] Creating Layer inception_3b/relu_5x5
I0714 20:39:21.819910  2658 net.cpp:425] inception_3b/relu_5x5 <- inception_3b/5x5
I0714 20:39:21.819919  2658 net.cpp:386] inception_3b/relu_5x5 -> inception_3b/5x5 (in-place)
I0714 20:39:21.819926  2662 net.cpp:141] Setting up inception_3b/relu_5x5_reduce
I0714 20:39:21.819941  2662 net.cpp:148] Top shape: 10 32 28 28 (250880)
I0714 20:39:21.819947  2662 net.cpp:156] Memory required for data: 304066560
I0714 20:39:21.819954  2662 layer_factory.hpp:77] Creating layer inception_3b/5x5
I0714 20:39:21.819977  2662 net.cpp:91] Creating Layer inception_3b/5x5
I0714 20:39:21.819985  2662 net.cpp:425] inception_3b/5x5 <- inception_3b/5x5_reduce
I0714 20:39:21.819996  2662 net.cpp:399] inception_3b/5x5 -> inception_3b/5x5
I0714 20:39:21.820428  2658 net.cpp:141] Setting up inception_3b/relu_5x5
I0714 20:39:21.820443  2658 net.cpp:148] Top shape: 10 96 28 28 (752640)
I0714 20:39:21.820449  2658 net.cpp:156] Memory required for data: 310087680
I0714 20:39:21.820456  2658 layer_factory.hpp:77] Creating layer inception_3b/pool
I0714 20:39:21.820472  2658 net.cpp:91] Creating Layer inception_3b/pool
I0714 20:39:21.820479  2658 net.cpp:425] inception_3b/pool <- inception_3a/output_inception_3a/output_0_split_3
I0714 20:39:21.820492  2658 net.cpp:399] inception_3b/pool -> inception_3b/pool
I0714 20:39:21.821997  2658 net.cpp:141] Setting up inception_3b/pool
I0714 20:39:21.822015  2658 net.cpp:148] Top shape: 10 256 28 28 (2007040)
I0714 20:39:21.822021  2658 net.cpp:156] Memory required for data: 318115840
I0714 20:39:21.822027  2658 layer_factory.hpp:77] Creating layer inception_3b/pool_proj
I0714 20:39:21.822051  2658 net.cpp:91] Creating Layer inception_3b/pool_proj
I0714 20:39:21.822057  2658 net.cpp:425] inception_3b/pool_proj <- inception_3b/pool
I0714 20:39:21.822068  2658 net.cpp:399] inception_3b/pool_proj -> inception_3b/pool_proj
I0714 20:39:21.826912  2658 net.cpp:141] Setting up inception_3b/pool_proj
I0714 20:39:21.826933  2658 net.cpp:148] Top shape: 10 64 28 28 (501760)
I0714 20:39:21.826941  2658 net.cpp:156] Memory required for data: 320122880
I0714 20:39:21.826951  2658 layer_factory.hpp:77] Creating layer inception_3b/relu_pool_proj
I0714 20:39:21.826962  2658 net.cpp:91] Creating Layer inception_3b/relu_pool_proj
I0714 20:39:21.826970  2658 net.cpp:425] inception_3b/relu_pool_proj <- inception_3b/pool_proj
I0714 20:39:21.826984  2658 net.cpp:386] inception_3b/relu_pool_proj -> inception_3b/pool_proj (in-place)
I0714 20:39:21.827078  2662 net.cpp:141] Setting up inception_3b/5x5
I0714 20:39:21.827098  2662 net.cpp:148] Top shape: 10 96 28 28 (752640)
I0714 20:39:21.827105  2662 net.cpp:156] Memory required for data: 307077120
I0714 20:39:21.827116  2662 layer_factory.hpp:77] Creating layer inception_3b/relu_5x5
I0714 20:39:21.827127  2662 net.cpp:91] Creating Layer inception_3b/relu_5x5
I0714 20:39:21.827134  2662 net.cpp:425] inception_3b/relu_5x5 <- inception_3b/5x5
I0714 20:39:21.827150  2662 net.cpp:386] inception_3b/relu_5x5 -> inception_3b/5x5 (in-place)
I0714 20:39:21.827440  2662 net.cpp:141] Setting up inception_3b/relu_5x5
I0714 20:39:21.827456  2662 net.cpp:148] Top shape: 10 96 28 28 (752640)
I0714 20:39:21.827462  2662 net.cpp:156] Memory required for data: 310087680
I0714 20:39:21.827468  2662 layer_factory.hpp:77] Creating layer inception_3b/pool
I0714 20:39:21.827481  2662 net.cpp:91] Creating Layer inception_3b/pool
I0714 20:39:21.827488  2662 net.cpp:425] inception_3b/pool <- inception_3a/output_inception_3a/output_0_split_3
I0714 20:39:21.827497  2662 net.cpp:399] inception_3b/pool -> inception_3b/pool
I0714 20:39:21.827890  2662 net.cpp:141] Setting up inception_3b/pool
I0714 20:39:21.827904  2662 net.cpp:148] Top shape: 10 256 28 28 (2007040)
I0714 20:39:21.827910  2662 net.cpp:156] Memory required for data: 318115840
I0714 20:39:21.827916  2662 layer_factory.hpp:77] Creating layer inception_3b/pool_proj
I0714 20:39:21.827936  2662 net.cpp:91] Creating Layer inception_3b/pool_proj
I0714 20:39:21.827944  2662 net.cpp:425] inception_3b/pool_proj <- inception_3b/pool
I0714 20:39:21.827962  2662 net.cpp:399] inception_3b/pool_proj -> inception_3b/pool_proj
I0714 20:39:21.827980  2658 net.cpp:141] Setting up inception_3b/relu_pool_proj
I0714 20:39:21.827996  2658 net.cpp:148] Top shape: 10 64 28 28 (501760)
I0714 20:39:21.828001  2658 net.cpp:156] Memory required for data: 322129920
I0714 20:39:21.828008  2658 layer_factory.hpp:77] Creating layer inception_3b/output
I0714 20:39:21.828019  2658 net.cpp:91] Creating Layer inception_3b/output
I0714 20:39:21.828027  2658 net.cpp:425] inception_3b/output <- inception_3b/1x1
I0714 20:39:21.828037  2658 net.cpp:425] inception_3b/output <- inception_3b/3x3
I0714 20:39:21.828043  2658 net.cpp:425] inception_3b/output <- inception_3b/5x5
I0714 20:39:21.828050  2658 net.cpp:425] inception_3b/output <- inception_3b/pool_proj
I0714 20:39:21.828061  2658 net.cpp:399] inception_3b/output -> inception_3b/output
I0714 20:39:21.828225  2658 net.cpp:141] Setting up inception_3b/output
I0714 20:39:21.828239  2658 net.cpp:148] Top shape: 10 480 28 28 (3763200)
I0714 20:39:21.828245  2658 net.cpp:156] Memory required for data: 337182720
I0714 20:39:21.828251  2658 layer_factory.hpp:77] Creating layer pool3/3x3_s2
I0714 20:39:21.828268  2658 net.cpp:91] Creating Layer pool3/3x3_s2
I0714 20:39:21.828274  2658 net.cpp:425] pool3/3x3_s2 <- inception_3b/output
I0714 20:39:21.828284  2658 net.cpp:399] pool3/3x3_s2 -> pool3/3x3_s2
I0714 20:39:21.828590  2658 net.cpp:141] Setting up pool3/3x3_s2
I0714 20:39:21.828609  2658 net.cpp:148] Top shape: 10 480 14 14 (940800)
I0714 20:39:21.828615  2658 net.cpp:156] Memory required for data: 340945920
I0714 20:39:21.828621  2658 layer_factory.hpp:77] Creating layer pool3/3x3_s2_pool3/3x3_s2_0_split
I0714 20:39:21.828634  2658 net.cpp:91] Creating Layer pool3/3x3_s2_pool3/3x3_s2_0_split
I0714 20:39:21.828640  2658 net.cpp:425] pool3/3x3_s2_pool3/3x3_s2_0_split <- pool3/3x3_s2
I0714 20:39:21.828651  2658 net.cpp:399] pool3/3x3_s2_pool3/3x3_s2_0_split -> pool3/3x3_s2_pool3/3x3_s2_0_split_0
I0714 20:39:21.828661  2658 net.cpp:399] pool3/3x3_s2_pool3/3x3_s2_0_split -> pool3/3x3_s2_pool3/3x3_s2_0_split_1
I0714 20:39:21.828671  2658 net.cpp:399] pool3/3x3_s2_pool3/3x3_s2_0_split -> pool3/3x3_s2_pool3/3x3_s2_0_split_2
I0714 20:39:21.828681  2658 net.cpp:399] pool3/3x3_s2_pool3/3x3_s2_0_split -> pool3/3x3_s2_pool3/3x3_s2_0_split_3
I0714 20:39:21.828902  2658 net.cpp:141] Setting up pool3/3x3_s2_pool3/3x3_s2_0_split
I0714 20:39:21.828917  2658 net.cpp:148] Top shape: 10 480 14 14 (940800)
I0714 20:39:21.828924  2658 net.cpp:148] Top shape: 10 480 14 14 (940800)
I0714 20:39:21.828932  2658 net.cpp:148] Top shape: 10 480 14 14 (940800)
I0714 20:39:21.828938  2658 net.cpp:148] Top shape: 10 480 14 14 (940800)
I0714 20:39:21.828943  2658 net.cpp:156] Memory required for data: 355998720
I0714 20:39:21.828949  2658 layer_factory.hpp:77] Creating layer inception_4a/1x1
I0714 20:39:21.828969  2658 net.cpp:91] Creating Layer inception_4a/1x1
I0714 20:39:21.828975  2658 net.cpp:425] inception_4a/1x1 <- pool3/3x3_s2_pool3/3x3_s2_0_split_0
I0714 20:39:21.828986  2658 net.cpp:399] inception_4a/1x1 -> inception_4a/1x1
I0714 20:39:21.831719  2662 net.cpp:141] Setting up inception_3b/pool_proj
I0714 20:39:21.831743  2662 net.cpp:148] Top shape: 10 64 28 28 (501760)
I0714 20:39:21.831749  2662 net.cpp:156] Memory required for data: 320122880
I0714 20:39:21.831760  2662 layer_factory.hpp:77] Creating layer inception_3b/relu_pool_proj
I0714 20:39:21.831771  2662 net.cpp:91] Creating Layer inception_3b/relu_pool_proj
I0714 20:39:21.831779  2662 net.cpp:425] inception_3b/relu_pool_proj <- inception_3b/pool_proj
I0714 20:39:21.831790  2662 net.cpp:386] inception_3b/relu_pool_proj -> inception_3b/pool_proj (in-place)
I0714 20:39:21.832729  2662 net.cpp:141] Setting up inception_3b/relu_pool_proj
I0714 20:39:21.832747  2662 net.cpp:148] Top shape: 10 64 28 28 (501760)
I0714 20:39:21.832754  2662 net.cpp:156] Memory required for data: 322129920
I0714 20:39:21.832761  2662 layer_factory.hpp:77] Creating layer inception_3b/output
I0714 20:39:21.832772  2662 net.cpp:91] Creating Layer inception_3b/output
I0714 20:39:21.832779  2662 net.cpp:425] inception_3b/output <- inception_3b/1x1
I0714 20:39:21.832788  2662 net.cpp:425] inception_3b/output <- inception_3b/3x3
I0714 20:39:21.832798  2662 net.cpp:425] inception_3b/output <- inception_3b/5x5
I0714 20:39:21.832805  2662 net.cpp:425] inception_3b/output <- inception_3b/pool_proj
I0714 20:39:21.832813  2662 net.cpp:399] inception_3b/output -> inception_3b/output
I0714 20:39:21.832936  2662 net.cpp:141] Setting up inception_3b/output
I0714 20:39:21.832949  2662 net.cpp:148] Top shape: 10 480 28 28 (3763200)
I0714 20:39:21.832954  2662 net.cpp:156] Memory required for data: 337182720
I0714 20:39:21.832962  2662 layer_factory.hpp:77] Creating layer pool3/3x3_s2
I0714 20:39:21.832975  2662 net.cpp:91] Creating Layer pool3/3x3_s2
I0714 20:39:21.832983  2662 net.cpp:425] pool3/3x3_s2 <- inception_3b/output
I0714 20:39:21.832990  2662 net.cpp:399] pool3/3x3_s2 -> pool3/3x3_s2
I0714 20:39:21.833959  2662 net.cpp:141] Setting up pool3/3x3_s2
I0714 20:39:21.833978  2662 net.cpp:148] Top shape: 10 480 14 14 (940800)
I0714 20:39:21.833984  2662 net.cpp:156] Memory required for data: 340945920
I0714 20:39:21.833991  2662 layer_factory.hpp:77] Creating layer pool3/3x3_s2_pool3/3x3_s2_0_split
I0714 20:39:21.834002  2662 net.cpp:91] Creating Layer pool3/3x3_s2_pool3/3x3_s2_0_split
I0714 20:39:21.834008  2662 net.cpp:425] pool3/3x3_s2_pool3/3x3_s2_0_split <- pool3/3x3_s2
I0714 20:39:21.834017  2662 net.cpp:399] pool3/3x3_s2_pool3/3x3_s2_0_split -> pool3/3x3_s2_pool3/3x3_s2_0_split_0
I0714 20:39:21.834028  2662 net.cpp:399] pool3/3x3_s2_pool3/3x3_s2_0_split -> pool3/3x3_s2_pool3/3x3_s2_0_split_1
I0714 20:39:21.834041  2662 net.cpp:399] pool3/3x3_s2_pool3/3x3_s2_0_split -> pool3/3x3_s2_pool3/3x3_s2_0_split_2
I0714 20:39:21.834051  2662 net.cpp:399] pool3/3x3_s2_pool3/3x3_s2_0_split -> pool3/3x3_s2_pool3/3x3_s2_0_split_3
I0714 20:39:21.835692  2662 net.cpp:141] Setting up pool3/3x3_s2_pool3/3x3_s2_0_split
I0714 20:39:21.835708  2662 net.cpp:148] Top shape: 10 480 14 14 (940800)
I0714 20:39:21.835717  2662 net.cpp:148] Top shape: 10 480 14 14 (940800)
I0714 20:39:21.835724  2662 net.cpp:148] Top shape: 10 480 14 14 (940800)
I0714 20:39:21.835732  2662 net.cpp:148] Top shape: 10 480 14 14 (940800)
I0714 20:39:21.835737  2662 net.cpp:156] Memory required for data: 355998720
I0714 20:39:21.835744  2662 layer_factory.hpp:77] Creating layer inception_4a/1x1
I0714 20:39:21.835760  2662 net.cpp:91] Creating Layer inception_4a/1x1
I0714 20:39:21.835767  2662 net.cpp:425] inception_4a/1x1 <- pool3/3x3_s2_pool3/3x3_s2_0_split_0
I0714 20:39:21.835777  2662 net.cpp:399] inception_4a/1x1 -> inception_4a/1x1
I0714 20:39:21.836516  2658 net.cpp:141] Setting up inception_4a/1x1
I0714 20:39:21.836540  2658 net.cpp:148] Top shape: 10 192 14 14 (376320)
I0714 20:39:21.836546  2658 net.cpp:156] Memory required for data: 357504000
I0714 20:39:21.836558  2658 layer_factory.hpp:77] Creating layer inception_4a/relu_1x1
I0714 20:39:21.836568  2658 net.cpp:91] Creating Layer inception_4a/relu_1x1
I0714 20:39:21.836576  2658 net.cpp:425] inception_4a/relu_1x1 <- inception_4a/1x1
I0714 20:39:21.836588  2658 net.cpp:386] inception_4a/relu_1x1 -> inception_4a/1x1 (in-place)
I0714 20:39:21.836935  2658 net.cpp:141] Setting up inception_4a/relu_1x1
I0714 20:39:21.836949  2658 net.cpp:148] Top shape: 10 192 14 14 (376320)
I0714 20:39:21.836956  2658 net.cpp:156] Memory required for data: 359009280
I0714 20:39:21.836962  2658 layer_factory.hpp:77] Creating layer inception_4a/3x3_reduce
I0714 20:39:21.836985  2658 net.cpp:91] Creating Layer inception_4a/3x3_reduce
I0714 20:39:21.836994  2658 net.cpp:425] inception_4a/3x3_reduce <- pool3/3x3_s2_pool3/3x3_s2_0_split_1
I0714 20:39:21.837004  2658 net.cpp:399] inception_4a/3x3_reduce -> inception_4a/3x3_reduce
I0714 20:39:21.841696  2658 net.cpp:141] Setting up inception_4a/3x3_reduce
I0714 20:39:21.841717  2658 net.cpp:148] Top shape: 10 96 14 14 (188160)
I0714 20:39:21.841723  2658 net.cpp:156] Memory required for data: 359761920
I0714 20:39:21.841747  2658 layer_factory.hpp:77] Creating layer inception_4a/relu_3x3_reduce
I0714 20:39:21.841758  2658 net.cpp:91] Creating Layer inception_4a/relu_3x3_reduce
I0714 20:39:21.841766  2658 net.cpp:425] inception_4a/relu_3x3_reduce <- inception_4a/3x3_reduce
I0714 20:39:21.841780  2658 net.cpp:386] inception_4a/relu_3x3_reduce -> inception_4a/3x3_reduce (in-place)
I0714 20:39:21.842085  2662 net.cpp:141] Setting up inception_4a/1x1
I0714 20:39:21.842106  2662 net.cpp:148] Top shape: 10 192 14 14 (376320)
I0714 20:39:21.842113  2662 net.cpp:156] Memory required for data: 357504000
I0714 20:39:21.842123  2662 layer_factory.hpp:77] Creating layer inception_4a/relu_1x1
I0714 20:39:21.842135  2662 net.cpp:91] Creating Layer inception_4a/relu_1x1
I0714 20:39:21.842142  2662 net.cpp:425] inception_4a/relu_1x1 <- inception_4a/1x1
I0714 20:39:21.842152  2662 net.cpp:386] inception_4a/relu_1x1 -> inception_4a/1x1 (in-place)
I0714 20:39:21.842156  2658 net.cpp:141] Setting up inception_4a/relu_3x3_reduce
I0714 20:39:21.842171  2658 net.cpp:148] Top shape: 10 96 14 14 (188160)
I0714 20:39:21.842177  2658 net.cpp:156] Memory required for data: 360514560
I0714 20:39:21.842185  2658 layer_factory.hpp:77] Creating layer inception_4a/3x3
I0714 20:39:21.842206  2658 net.cpp:91] Creating Layer inception_4a/3x3
I0714 20:39:21.842213  2658 net.cpp:425] inception_4a/3x3 <- inception_4a/3x3_reduce
I0714 20:39:21.842224  2658 net.cpp:399] inception_4a/3x3 -> inception_4a/3x3
I0714 20:39:21.842667  2662 net.cpp:141] Setting up inception_4a/relu_1x1
I0714 20:39:21.842682  2662 net.cpp:148] Top shape: 10 192 14 14 (376320)
I0714 20:39:21.842697  2662 net.cpp:156] Memory required for data: 359009280
I0714 20:39:21.842705  2662 layer_factory.hpp:77] Creating layer inception_4a/3x3_reduce
I0714 20:39:21.842722  2662 net.cpp:91] Creating Layer inception_4a/3x3_reduce
I0714 20:39:21.842730  2662 net.cpp:425] inception_4a/3x3_reduce <- pool3/3x3_s2_pool3/3x3_s2_0_split_1
I0714 20:39:21.842746  2662 net.cpp:399] inception_4a/3x3_reduce -> inception_4a/3x3_reduce
I0714 20:39:21.849294  2662 net.cpp:141] Setting up inception_4a/3x3_reduce
I0714 20:39:21.849316  2662 net.cpp:148] Top shape: 10 96 14 14 (188160)
I0714 20:39:21.849323  2662 net.cpp:156] Memory required for data: 359761920
I0714 20:39:21.849349  2662 layer_factory.hpp:77] Creating layer inception_4a/relu_3x3_reduce
I0714 20:39:21.849361  2662 net.cpp:91] Creating Layer inception_4a/relu_3x3_reduce
I0714 20:39:21.849369  2662 net.cpp:425] inception_4a/relu_3x3_reduce <- inception_4a/3x3_reduce
I0714 20:39:21.849377  2662 net.cpp:386] inception_4a/relu_3x3_reduce -> inception_4a/3x3_reduce (in-place)
I0714 20:39:21.849846  2662 net.cpp:141] Setting up inception_4a/relu_3x3_reduce
I0714 20:39:21.849861  2662 net.cpp:148] Top shape: 10 96 14 14 (188160)
I0714 20:39:21.849867  2662 net.cpp:156] Memory required for data: 360514560
I0714 20:39:21.849874  2662 layer_factory.hpp:77] Creating layer inception_4a/3x3
I0714 20:39:21.849891  2662 net.cpp:91] Creating Layer inception_4a/3x3
I0714 20:39:21.849900  2662 net.cpp:425] inception_4a/3x3 <- inception_4a/3x3_reduce
I0714 20:39:21.849915  2662 net.cpp:399] inception_4a/3x3 -> inception_4a/3x3
I0714 20:39:21.849925  2658 net.cpp:141] Setting up inception_4a/3x3
I0714 20:39:21.849944  2658 net.cpp:148] Top shape: 10 208 14 14 (407680)
I0714 20:39:21.849951  2658 net.cpp:156] Memory required for data: 362145280
I0714 20:39:21.849962  2658 layer_factory.hpp:77] Creating layer inception_4a/relu_3x3
I0714 20:39:21.849977  2658 net.cpp:91] Creating Layer inception_4a/relu_3x3
I0714 20:39:21.849985  2658 net.cpp:425] inception_4a/relu_3x3 <- inception_4a/3x3
I0714 20:39:21.849994  2658 net.cpp:386] inception_4a/relu_3x3 -> inception_4a/3x3 (in-place)
I0714 20:39:21.850970  2658 net.cpp:141] Setting up inception_4a/relu_3x3
I0714 20:39:21.850991  2658 net.cpp:148] Top shape: 10 208 14 14 (407680)
I0714 20:39:21.850997  2658 net.cpp:156] Memory required for data: 363776000
I0714 20:39:21.851004  2658 layer_factory.hpp:77] Creating layer inception_4a/5x5_reduce
I0714 20:39:21.851027  2658 net.cpp:91] Creating Layer inception_4a/5x5_reduce
I0714 20:39:21.851035  2658 net.cpp:425] inception_4a/5x5_reduce <- pool3/3x3_s2_pool3/3x3_s2_0_split_2
I0714 20:39:21.851047  2658 net.cpp:399] inception_4a/5x5_reduce -> inception_4a/5x5_reduce
I0714 20:39:21.857383  2658 net.cpp:141] Setting up inception_4a/5x5_reduce
I0714 20:39:21.857406  2658 net.cpp:148] Top shape: 10 16 14 14 (31360)
I0714 20:39:21.857414  2658 net.cpp:156] Memory required for data: 363901440
I0714 20:39:21.857425  2658 layer_factory.hpp:77] Creating layer inception_4a/relu_5x5_reduce
I0714 20:39:21.857441  2658 net.cpp:91] Creating Layer inception_4a/relu_5x5_reduce
I0714 20:39:21.857450  2658 net.cpp:425] inception_4a/relu_5x5_reduce <- inception_4a/5x5_reduce
I0714 20:39:21.857460  2658 net.cpp:386] inception_4a/relu_5x5_reduce -> inception_4a/5x5_reduce (in-place)
I0714 20:39:21.857986  2658 net.cpp:141] Setting up inception_4a/relu_5x5_reduce
I0714 20:39:21.858003  2658 net.cpp:148] Top shape: 10 16 14 14 (31360)
I0714 20:39:21.858009  2658 net.cpp:156] Memory required for data: 364026880
I0714 20:39:21.858011  2662 net.cpp:141] Setting up inception_4a/3x3
I0714 20:39:21.858016  2658 layer_factory.hpp:77] Creating layer inception_4a/5x5
I0714 20:39:21.858034  2662 net.cpp:148] Top shape: 10 208 14 14 (407680)
I0714 20:39:21.858042  2662 net.cpp:156] Memory required for data: 362145280
I0714 20:39:21.858052  2658 net.cpp:91] Creating Layer inception_4a/5x5
I0714 20:39:21.858052  2662 layer_factory.hpp:77] Creating layer inception_4a/relu_3x3
I0714 20:39:21.858064  2658 net.cpp:425] inception_4a/5x5 <- inception_4a/5x5_reduce
I0714 20:39:21.858074  2662 net.cpp:91] Creating Layer inception_4a/relu_3x3
I0714 20:39:21.858078  2658 net.cpp:399] inception_4a/5x5 -> inception_4a/5x5
I0714 20:39:21.858083  2662 net.cpp:425] inception_4a/relu_3x3 <- inception_4a/3x3
I0714 20:39:21.858098  2662 net.cpp:386] inception_4a/relu_3x3 -> inception_4a/3x3 (in-place)
I0714 20:39:21.859165  2662 net.cpp:141] Setting up inception_4a/relu_3x3
I0714 20:39:21.859185  2662 net.cpp:148] Top shape: 10 208 14 14 (407680)
I0714 20:39:21.859191  2662 net.cpp:156] Memory required for data: 363776000
I0714 20:39:21.859199  2662 layer_factory.hpp:77] Creating layer inception_4a/5x5_reduce
I0714 20:39:21.859217  2662 net.cpp:91] Creating Layer inception_4a/5x5_reduce
I0714 20:39:21.859225  2662 net.cpp:425] inception_4a/5x5_reduce <- pool3/3x3_s2_pool3/3x3_s2_0_split_2
I0714 20:39:21.859241  2662 net.cpp:399] inception_4a/5x5_reduce -> inception_4a/5x5_reduce
I0714 20:39:21.863661  2658 net.cpp:141] Setting up inception_4a/5x5
I0714 20:39:21.863683  2658 net.cpp:148] Top shape: 10 48 14 14 (94080)
I0714 20:39:21.863690  2658 net.cpp:156] Memory required for data: 364403200
I0714 20:39:21.863701  2658 layer_factory.hpp:77] Creating layer inception_4a/relu_5x5
I0714 20:39:21.863715  2658 net.cpp:91] Creating Layer inception_4a/relu_5x5
I0714 20:39:21.863723  2658 net.cpp:425] inception_4a/relu_5x5 <- inception_4a/5x5
I0714 20:39:21.863732  2658 net.cpp:386] inception_4a/relu_5x5 -> inception_4a/5x5 (in-place)
I0714 20:39:21.864151  2662 net.cpp:141] Setting up inception_4a/5x5_reduce
I0714 20:39:21.864167  2662 net.cpp:148] Top shape: 10 16 14 14 (31360)
I0714 20:39:21.864174  2662 net.cpp:156] Memory required for data: 363901440
I0714 20:39:21.864186  2662 layer_factory.hpp:77] Creating layer inception_4a/relu_5x5_reduce
I0714 20:39:21.864198  2662 net.cpp:91] Creating Layer inception_4a/relu_5x5_reduce
I0714 20:39:21.864198  2658 net.cpp:141] Setting up inception_4a/relu_5x5
I0714 20:39:21.864213  2662 net.cpp:425] inception_4a/relu_5x5_reduce <- inception_4a/5x5_reduce
I0714 20:39:21.864226  2658 net.cpp:148] Top shape: 10 48 14 14 (94080)
I0714 20:39:21.864233  2658 net.cpp:156] Memory required for data: 364779520
I0714 20:39:21.864234  2662 net.cpp:386] inception_4a/relu_5x5_reduce -> inception_4a/5x5_reduce (in-place)
I0714 20:39:21.864240  2658 layer_factory.hpp:77] Creating layer inception_4a/pool
I0714 20:39:21.864256  2658 net.cpp:91] Creating Layer inception_4a/pool
I0714 20:39:21.864264  2658 net.cpp:425] inception_4a/pool <- pool3/3x3_s2_pool3/3x3_s2_0_split_3
I0714 20:39:21.864276  2658 net.cpp:399] inception_4a/pool -> inception_4a/pool
I0714 20:39:21.864576  2658 net.cpp:141] Setting up inception_4a/pool
I0714 20:39:21.864590  2658 net.cpp:148] Top shape: 10 480 14 14 (940800)
I0714 20:39:21.864596  2658 net.cpp:156] Memory required for data: 368542720
I0714 20:39:21.864603  2658 layer_factory.hpp:77] Creating layer inception_4a/pool_proj
I0714 20:39:21.864624  2658 net.cpp:91] Creating Layer inception_4a/pool_proj
I0714 20:39:21.864631  2658 net.cpp:425] inception_4a/pool_proj <- inception_4a/pool
I0714 20:39:21.864642  2658 net.cpp:399] inception_4a/pool_proj -> inception_4a/pool_proj
I0714 20:39:21.864652  2662 net.cpp:141] Setting up inception_4a/relu_5x5_reduce
I0714 20:39:21.864668  2662 net.cpp:148] Top shape: 10 16 14 14 (31360)
I0714 20:39:21.864673  2662 net.cpp:156] Memory required for data: 364026880
I0714 20:39:21.864681  2662 layer_factory.hpp:77] Creating layer inception_4a/5x5
I0714 20:39:21.864702  2662 net.cpp:91] Creating Layer inception_4a/5x5
I0714 20:39:21.864711  2662 net.cpp:425] inception_4a/5x5 <- inception_4a/5x5_reduce
I0714 20:39:21.864722  2662 net.cpp:399] inception_4a/5x5 -> inception_4a/5x5
I0714 20:39:21.869176  2658 net.cpp:141] Setting up inception_4a/pool_proj
I0714 20:39:21.869197  2658 net.cpp:148] Top shape: 10 64 14 14 (125440)
I0714 20:39:21.869204  2658 net.cpp:156] Memory required for data: 369044480
I0714 20:39:21.869215  2658 layer_factory.hpp:77] Creating layer inception_4a/relu_pool_proj
I0714 20:39:21.869230  2658 net.cpp:91] Creating Layer inception_4a/relu_pool_proj
I0714 20:39:21.869238  2658 net.cpp:425] inception_4a/relu_pool_proj <- inception_4a/pool_proj
I0714 20:39:21.869247  2658 net.cpp:386] inception_4a/relu_pool_proj -> inception_4a/pool_proj (in-place)
I0714 20:39:21.870085  2662 net.cpp:141] Setting up inception_4a/5x5
I0714 20:39:21.870107  2662 net.cpp:148] Top shape: 10 48 14 14 (94080)
I0714 20:39:21.870115  2662 net.cpp:156] Memory required for data: 364403200
I0714 20:39:21.870126  2662 layer_factory.hpp:77] Creating layer inception_4a/relu_5x5
I0714 20:39:21.870136  2662 net.cpp:91] Creating Layer inception_4a/relu_5x5
I0714 20:39:21.870143  2662 net.cpp:425] inception_4a/relu_5x5 <- inception_4a/5x5
I0714 20:39:21.870152  2662 net.cpp:386] inception_4a/relu_5x5 -> inception_4a/5x5 (in-place)
I0714 20:39:21.870182  2658 net.cpp:141] Setting up inception_4a/relu_pool_proj
I0714 20:39:21.870198  2658 net.cpp:148] Top shape: 10 64 14 14 (125440)
I0714 20:39:21.870203  2658 net.cpp:156] Memory required for data: 369546240
I0714 20:39:21.870210  2658 layer_factory.hpp:77] Creating layer inception_4a/output
I0714 20:39:21.870225  2658 net.cpp:91] Creating Layer inception_4a/output
I0714 20:39:21.870232  2658 net.cpp:425] inception_4a/output <- inception_4a/1x1
I0714 20:39:21.870241  2658 net.cpp:425] inception_4a/output <- inception_4a/3x3
I0714 20:39:21.870249  2658 net.cpp:425] inception_4a/output <- inception_4a/5x5
I0714 20:39:21.870255  2658 net.cpp:425] inception_4a/output <- inception_4a/pool_proj
I0714 20:39:21.870265  2658 net.cpp:399] inception_4a/output -> inception_4a/output
I0714 20:39:21.870403  2658 net.cpp:141] Setting up inception_4a/output
I0714 20:39:21.870416  2658 net.cpp:148] Top shape: 10 512 14 14 (1003520)
I0714 20:39:21.870422  2658 net.cpp:156] Memory required for data: 373560320
I0714 20:39:21.870429  2658 layer_factory.hpp:77] Creating layer inception_4a/output_inception_4a/output_0_split
I0714 20:39:21.870440  2658 net.cpp:91] Creating Layer inception_4a/output_inception_4a/output_0_split
I0714 20:39:21.870446  2658 net.cpp:425] inception_4a/output_inception_4a/output_0_split <- inception_4a/output
I0714 20:39:21.870457  2658 net.cpp:399] inception_4a/output_inception_4a/output_0_split -> inception_4a/output_inception_4a/output_0_split_0
I0714 20:39:21.870468  2658 net.cpp:399] inception_4a/output_inception_4a/output_0_split -> inception_4a/output_inception_4a/output_0_split_1
I0714 20:39:21.870478  2658 net.cpp:399] inception_4a/output_inception_4a/output_0_split -> inception_4a/output_inception_4a/output_0_split_2
I0714 20:39:21.870489  2658 net.cpp:399] inception_4a/output_inception_4a/output_0_split -> inception_4a/output_inception_4a/output_0_split_3
I0714 20:39:21.870510  2662 net.cpp:141] Setting up inception_4a/relu_5x5
I0714 20:39:21.870524  2662 net.cpp:148] Top shape: 10 48 14 14 (94080)
I0714 20:39:21.870530  2662 net.cpp:156] Memory required for data: 364779520
I0714 20:39:21.870537  2662 layer_factory.hpp:77] Creating layer inception_4a/pool
I0714 20:39:21.870550  2662 net.cpp:91] Creating Layer inception_4a/pool
I0714 20:39:21.870558  2662 net.cpp:425] inception_4a/pool <- pool3/3x3_s2_pool3/3x3_s2_0_split_3
I0714 20:39:21.870568  2662 net.cpp:399] inception_4a/pool -> inception_4a/pool
I0714 20:39:21.870894  2662 net.cpp:141] Setting up inception_4a/pool
I0714 20:39:21.870909  2662 net.cpp:148] Top shape: 10 480 14 14 (940800)
I0714 20:39:21.870914  2662 net.cpp:156] Memory required for data: 368542720
I0714 20:39:21.870921  2662 layer_factory.hpp:77] Creating layer inception_4a/pool_proj
I0714 20:39:21.870921  2658 net.cpp:141] Setting up inception_4a/output_inception_4a/output_0_split
I0714 20:39:21.870937  2658 net.cpp:148] Top shape: 10 512 14 14 (1003520)
I0714 20:39:21.870940  2662 net.cpp:91] Creating Layer inception_4a/pool_proj
I0714 20:39:21.870946  2658 net.cpp:148] Top shape: 10 512 14 14 (1003520)
I0714 20:39:21.870949  2662 net.cpp:425] inception_4a/pool_proj <- inception_4a/pool
I0714 20:39:21.870955  2658 net.cpp:148] Top shape: 10 512 14 14 (1003520)
I0714 20:39:21.870962  2658 net.cpp:148] Top shape: 10 512 14 14 (1003520)
I0714 20:39:21.870966  2662 net.cpp:399] inception_4a/pool_proj -> inception_4a/pool_proj
I0714 20:39:21.870968  2658 net.cpp:156] Memory required for data: 389616640
I0714 20:39:21.870976  2658 layer_factory.hpp:77] Creating layer inception_4b/1x1
I0714 20:39:21.871000  2658 net.cpp:91] Creating Layer inception_4b/1x1
I0714 20:39:21.871006  2658 net.cpp:425] inception_4b/1x1 <- inception_4a/output_inception_4a/output_0_split_0
I0714 20:39:21.871019  2658 net.cpp:399] inception_4b/1x1 -> inception_4b/1x1
I0714 20:39:21.876341  2662 net.cpp:141] Setting up inception_4a/pool_proj
I0714 20:39:21.876363  2662 net.cpp:148] Top shape: 10 64 14 14 (125440)
I0714 20:39:21.876369  2662 net.cpp:156] Memory required for data: 369044480
I0714 20:39:21.876379  2662 layer_factory.hpp:77] Creating layer inception_4a/relu_pool_proj
I0714 20:39:21.876394  2662 net.cpp:91] Creating Layer inception_4a/relu_pool_proj
I0714 20:39:21.876401  2662 net.cpp:425] inception_4a/relu_pool_proj <- inception_4a/pool_proj
I0714 20:39:21.876410  2662 net.cpp:386] inception_4a/relu_pool_proj -> inception_4a/pool_proj (in-place)
I0714 20:39:21.877529  2662 net.cpp:141] Setting up inception_4a/relu_pool_proj
I0714 20:39:21.877548  2662 net.cpp:148] Top shape: 10 64 14 14 (125440)
I0714 20:39:21.877554  2662 net.cpp:156] Memory required for data: 369546240
I0714 20:39:21.877562  2662 layer_factory.hpp:77] Creating layer inception_4a/output
I0714 20:39:21.877578  2662 net.cpp:91] Creating Layer inception_4a/output
I0714 20:39:21.877586  2662 net.cpp:425] inception_4a/output <- inception_4a/1x1
I0714 20:39:21.877594  2662 net.cpp:425] inception_4a/output <- inception_4a/3x3
I0714 20:39:21.877601  2662 net.cpp:425] inception_4a/output <- inception_4a/5x5
I0714 20:39:21.877609  2662 net.cpp:425] inception_4a/output <- inception_4a/pool_proj
I0714 20:39:21.877617  2662 net.cpp:399] inception_4a/output -> inception_4a/output
I0714 20:39:21.877614  2658 net.cpp:141] Setting up inception_4b/1x1
I0714 20:39:21.877637  2658 net.cpp:148] Top shape: 10 160 14 14 (313600)
I0714 20:39:21.877645  2658 net.cpp:156] Memory required for data: 390871040
I0714 20:39:21.877656  2658 layer_factory.hpp:77] Creating layer inception_4b/relu_1x1
I0714 20:39:21.877671  2658 net.cpp:91] Creating Layer inception_4b/relu_1x1
I0714 20:39:21.877679  2658 net.cpp:425] inception_4b/relu_1x1 <- inception_4b/1x1
I0714 20:39:21.877688  2658 net.cpp:386] inception_4b/relu_1x1 -> inception_4b/1x1 (in-place)
I0714 20:39:21.877708  2662 net.cpp:141] Setting up inception_4a/output
I0714 20:39:21.877724  2662 net.cpp:148] Top shape: 10 512 14 14 (1003520)
I0714 20:39:21.877729  2662 net.cpp:156] Memory required for data: 373560320
I0714 20:39:21.877737  2662 layer_factory.hpp:77] Creating layer inception_4a/output_inception_4a/output_0_split
I0714 20:39:21.877746  2662 net.cpp:91] Creating Layer inception_4a/output_inception_4a/output_0_split
I0714 20:39:21.877753  2662 net.cpp:425] inception_4a/output_inception_4a/output_0_split <- inception_4a/output
I0714 20:39:21.877761  2662 net.cpp:399] inception_4a/output_inception_4a/output_0_split -> inception_4a/output_inception_4a/output_0_split_0
I0714 20:39:21.877773  2662 net.cpp:399] inception_4a/output_inception_4a/output_0_split -> inception_4a/output_inception_4a/output_0_split_1
I0714 20:39:21.877786  2662 net.cpp:399] inception_4a/output_inception_4a/output_0_split -> inception_4a/output_inception_4a/output_0_split_2
I0714 20:39:21.877796  2662 net.cpp:399] inception_4a/output_inception_4a/output_0_split -> inception_4a/output_inception_4a/output_0_split_3
I0714 20:39:21.878142  2658 net.cpp:141] Setting up inception_4b/relu_1x1
I0714 20:39:21.878159  2658 net.cpp:148] Top shape: 10 160 14 14 (313600)
I0714 20:39:21.878165  2658 net.cpp:156] Memory required for data: 392125440
I0714 20:39:21.878165  2662 net.cpp:141] Setting up inception_4a/output_inception_4a/output_0_split
I0714 20:39:21.878171  2658 layer_factory.hpp:77] Creating layer inception_4b/3x3_reduce
I0714 20:39:21.878180  2662 net.cpp:148] Top shape: 10 512 14 14 (1003520)
I0714 20:39:21.878187  2662 net.cpp:148] Top shape: 10 512 14 14 (1003520)
I0714 20:39:21.878191  2658 net.cpp:91] Creating Layer inception_4b/3x3_reduce
I0714 20:39:21.878196  2662 net.cpp:148] Top shape: 10 512 14 14 (1003520)
I0714 20:39:21.878201  2658 net.cpp:425] inception_4b/3x3_reduce <- inception_4a/output_inception_4a/output_0_split_1
I0714 20:39:21.878203  2662 net.cpp:148] Top shape: 10 512 14 14 (1003520)
I0714 20:39:21.878209  2662 net.cpp:156] Memory required for data: 389616640
I0714 20:39:21.878214  2658 net.cpp:399] inception_4b/3x3_reduce -> inception_4b/3x3_reduce
I0714 20:39:21.878216  2662 layer_factory.hpp:77] Creating layer inception_4b/1x1
I0714 20:39:21.878244  2662 net.cpp:91] Creating Layer inception_4b/1x1
I0714 20:39:21.878252  2662 net.cpp:425] inception_4b/1x1 <- inception_4a/output_inception_4a/output_0_split_0
I0714 20:39:21.878263  2662 net.cpp:399] inception_4b/1x1 -> inception_4b/1x1
I0714 20:39:21.883795  2658 net.cpp:141] Setting up inception_4b/3x3_reduce
I0714 20:39:21.883817  2658 net.cpp:148] Top shape: 10 112 14 14 (219520)
I0714 20:39:21.883823  2658 net.cpp:156] Memory required for data: 393003520
I0714 20:39:21.883836  2658 layer_factory.hpp:77] Creating layer inception_4b/relu_3x3_reduce
I0714 20:39:21.883849  2658 net.cpp:91] Creating Layer inception_4b/relu_3x3_reduce
I0714 20:39:21.883857  2658 net.cpp:425] inception_4b/relu_3x3_reduce <- inception_4b/3x3_reduce
I0714 20:39:21.883865  2658 net.cpp:386] inception_4b/relu_3x3_reduce -> inception_4b/3x3_reduce (in-place)
I0714 20:39:21.884243  2662 net.cpp:141] Setting up inception_4b/1x1
I0714 20:39:21.884261  2662 net.cpp:148] Top shape: 10 160 14 14 (313600)
I0714 20:39:21.884268  2662 net.cpp:156] Memory required for data: 390871040
I0714 20:39:21.884279  2662 layer_factory.hpp:77] Creating layer inception_4b/relu_1x1
I0714 20:39:21.884282  2658 net.cpp:141] Setting up inception_4b/relu_3x3_reduce
I0714 20:39:21.884290  2662 net.cpp:91] Creating Layer inception_4b/relu_1x1
I0714 20:39:21.884297  2658 net.cpp:148] Top shape: 10 112 14 14 (219520)
I0714 20:39:21.884299  2662 net.cpp:425] inception_4b/relu_1x1 <- inception_4b/1x1
I0714 20:39:21.884305  2658 net.cpp:156] Memory required for data: 393881600
I0714 20:39:21.884312  2658 layer_factory.hpp:77] Creating layer inception_4b/3x3
I0714 20:39:21.884312  2662 net.cpp:386] inception_4b/relu_1x1 -> inception_4b/1x1 (in-place)
I0714 20:39:21.884341  2658 net.cpp:91] Creating Layer inception_4b/3x3
I0714 20:39:21.884349  2658 net.cpp:425] inception_4b/3x3 <- inception_4b/3x3_reduce
I0714 20:39:21.884361  2658 net.cpp:399] inception_4b/3x3 -> inception_4b/3x3
I0714 20:39:21.884842  2662 net.cpp:141] Setting up inception_4b/relu_1x1
I0714 20:39:21.884857  2662 net.cpp:148] Top shape: 10 160 14 14 (313600)
I0714 20:39:21.884863  2662 net.cpp:156] Memory required for data: 392125440
I0714 20:39:21.884870  2662 layer_factory.hpp:77] Creating layer inception_4b/3x3_reduce
I0714 20:39:21.884891  2662 net.cpp:91] Creating Layer inception_4b/3x3_reduce
I0714 20:39:21.884898  2662 net.cpp:425] inception_4b/3x3_reduce <- inception_4a/output_inception_4a/output_0_split_1
I0714 20:39:21.884910  2662 net.cpp:399] inception_4b/3x3_reduce -> inception_4b/3x3_reduce
I0714 20:39:21.892124  2662 net.cpp:141] Setting up inception_4b/3x3_reduce
I0714 20:39:21.892146  2662 net.cpp:148] Top shape: 10 112 14 14 (219520)
I0714 20:39:21.892153  2662 net.cpp:156] Memory required for data: 393003520
I0714 20:39:21.892164  2662 layer_factory.hpp:77] Creating layer inception_4b/relu_3x3_reduce
I0714 20:39:21.892175  2662 net.cpp:91] Creating Layer inception_4b/relu_3x3_reduce
I0714 20:39:21.892182  2662 net.cpp:425] inception_4b/relu_3x3_reduce <- inception_4b/3x3_reduce
I0714 20:39:21.892196  2662 net.cpp:386] inception_4b/relu_3x3_reduce -> inception_4b/3x3_reduce (in-place)
I0714 20:39:21.892699  2662 net.cpp:141] Setting up inception_4b/relu_3x3_reduce
I0714 20:39:21.892715  2662 net.cpp:148] Top shape: 10 112 14 14 (219520)
I0714 20:39:21.892721  2662 net.cpp:156] Memory required for data: 393881600
I0714 20:39:21.892727  2662 layer_factory.hpp:77] Creating layer inception_4b/3x3
I0714 20:39:21.892746  2662 net.cpp:91] Creating Layer inception_4b/3x3
I0714 20:39:21.892755  2662 net.cpp:425] inception_4b/3x3 <- inception_4b/3x3_reduce
I0714 20:39:21.892770  2662 net.cpp:399] inception_4b/3x3 -> inception_4b/3x3
I0714 20:39:21.892792  2658 net.cpp:141] Setting up inception_4b/3x3
I0714 20:39:21.892812  2658 net.cpp:148] Top shape: 10 224 14 14 (439040)
I0714 20:39:21.892817  2658 net.cpp:156] Memory required for data: 395637760
I0714 20:39:21.892828  2658 layer_factory.hpp:77] Creating layer inception_4b/relu_3x3
I0714 20:39:21.892839  2658 net.cpp:91] Creating Layer inception_4b/relu_3x3
I0714 20:39:21.892850  2658 net.cpp:425] inception_4b/relu_3x3 <- inception_4b/3x3
I0714 20:39:21.892859  2658 net.cpp:386] inception_4b/relu_3x3 -> inception_4b/3x3 (in-place)
I0714 20:39:21.893889  2658 net.cpp:141] Setting up inception_4b/relu_3x3
I0714 20:39:21.893910  2658 net.cpp:148] Top shape: 10 224 14 14 (439040)
I0714 20:39:21.893916  2658 net.cpp:156] Memory required for data: 397393920
I0714 20:39:21.893923  2658 layer_factory.hpp:77] Creating layer inception_4b/5x5_reduce
I0714 20:39:21.893960  2658 net.cpp:91] Creating Layer inception_4b/5x5_reduce
I0714 20:39:21.893970  2658 net.cpp:425] inception_4b/5x5_reduce <- inception_4a/output_inception_4a/output_0_split_2
I0714 20:39:21.893983  2658 net.cpp:399] inception_4b/5x5_reduce -> inception_4b/5x5_reduce
I0714 20:39:21.900696  2658 net.cpp:141] Setting up inception_4b/5x5_reduce
I0714 20:39:21.900719  2658 net.cpp:148] Top shape: 10 24 14 14 (47040)
I0714 20:39:21.900727  2658 net.cpp:156] Memory required for data: 397582080
I0714 20:39:21.900738  2658 layer_factory.hpp:77] Creating layer inception_4b/relu_5x5_reduce
I0714 20:39:21.900748  2658 net.cpp:91] Creating Layer inception_4b/relu_5x5_reduce
I0714 20:39:21.900756  2658 net.cpp:425] inception_4b/relu_5x5_reduce <- inception_4b/5x5_reduce
I0714 20:39:21.900765  2658 net.cpp:386] inception_4b/relu_5x5_reduce -> inception_4b/5x5_reduce (in-place)
I0714 20:39:21.901067  2658 net.cpp:141] Setting up inception_4b/relu_5x5_reduce
I0714 20:39:21.901080  2658 net.cpp:148] Top shape: 10 24 14 14 (47040)
I0714 20:39:21.901087  2658 net.cpp:156] Memory required for data: 397770240
I0714 20:39:21.901093  2658 layer_factory.hpp:77] Creating layer inception_4b/5x5
I0714 20:39:21.901111  2658 net.cpp:91] Creating Layer inception_4b/5x5
I0714 20:39:21.901118  2658 net.cpp:425] inception_4b/5x5 <- inception_4b/5x5_reduce
I0714 20:39:21.901134  2658 net.cpp:399] inception_4b/5x5 -> inception_4b/5x5
I0714 20:39:21.904348  2662 net.cpp:141] Setting up inception_4b/3x3
I0714 20:39:21.904372  2662 net.cpp:148] Top shape: 10 224 14 14 (439040)
I0714 20:39:21.904378  2662 net.cpp:156] Memory required for data: 395637760
I0714 20:39:21.904389  2662 layer_factory.hpp:77] Creating layer inception_4b/relu_3x3
I0714 20:39:21.904400  2662 net.cpp:91] Creating Layer inception_4b/relu_3x3
I0714 20:39:21.904408  2662 net.cpp:425] inception_4b/relu_3x3 <- inception_4b/3x3
I0714 20:39:21.904417  2662 net.cpp:386] inception_4b/relu_3x3 -> inception_4b/3x3 (in-place)
I0714 20:39:21.905396  2662 net.cpp:141] Setting up inception_4b/relu_3x3
I0714 20:39:21.905416  2662 net.cpp:148] Top shape: 10 224 14 14 (439040)
I0714 20:39:21.905421  2662 net.cpp:156] Memory required for data: 397393920
I0714 20:39:21.905428  2662 layer_factory.hpp:77] Creating layer inception_4b/5x5_reduce
I0714 20:39:21.905460  2662 net.cpp:91] Creating Layer inception_4b/5x5_reduce
I0714 20:39:21.905468  2662 net.cpp:425] inception_4b/5x5_reduce <- inception_4a/output_inception_4a/output_0_split_2
I0714 20:39:21.905480  2662 net.cpp:399] inception_4b/5x5_reduce -> inception_4b/5x5_reduce
I0714 20:39:21.908823  2658 net.cpp:141] Setting up inception_4b/5x5
I0714 20:39:21.908845  2658 net.cpp:148] Top shape: 10 64 14 14 (125440)
I0714 20:39:21.908852  2658 net.cpp:156] Memory required for data: 398272000
I0714 20:39:21.908864  2658 layer_factory.hpp:77] Creating layer inception_4b/relu_5x5
I0714 20:39:21.908879  2658 net.cpp:91] Creating Layer inception_4b/relu_5x5
I0714 20:39:21.908887  2658 net.cpp:425] inception_4b/relu_5x5 <- inception_4b/5x5
I0714 20:39:21.908897  2658 net.cpp:386] inception_4b/relu_5x5 -> inception_4b/5x5 (in-place)
I0714 20:39:21.909216  2658 net.cpp:141] Setting up inception_4b/relu_5x5
I0714 20:39:21.909231  2658 net.cpp:148] Top shape: 10 64 14 14 (125440)
I0714 20:39:21.909237  2658 net.cpp:156] Memory required for data: 398773760
I0714 20:39:21.909243  2658 layer_factory.hpp:77] Creating layer inception_4b/pool
I0714 20:39:21.909255  2658 net.cpp:91] Creating Layer inception_4b/pool
I0714 20:39:21.909262  2658 net.cpp:425] inception_4b/pool <- inception_4a/output_inception_4a/output_0_split_3
I0714 20:39:21.909276  2658 net.cpp:399] inception_4b/pool -> inception_4b/pool
I0714 20:39:21.909800  2658 net.cpp:141] Setting up inception_4b/pool
I0714 20:39:21.909822  2658 net.cpp:148] Top shape: 10 512 14 14 (1003520)
I0714 20:39:21.909829  2658 net.cpp:156] Memory required for data: 402787840
I0714 20:39:21.909837  2658 layer_factory.hpp:77] Creating layer inception_4b/pool_proj
I0714 20:39:21.909858  2658 net.cpp:91] Creating Layer inception_4b/pool_proj
I0714 20:39:21.909868  2658 net.cpp:425] inception_4b/pool_proj <- inception_4b/pool
I0714 20:39:21.909881  2658 net.cpp:399] inception_4b/pool_proj -> inception_4b/pool_proj
I0714 20:39:21.911619  2662 net.cpp:141] Setting up inception_4b/5x5_reduce
I0714 20:39:21.911643  2662 net.cpp:148] Top shape: 10 24 14 14 (47040)
I0714 20:39:21.911649  2662 net.cpp:156] Memory required for data: 397582080
I0714 20:39:21.911661  2662 layer_factory.hpp:77] Creating layer inception_4b/relu_5x5_reduce
I0714 20:39:21.911676  2662 net.cpp:91] Creating Layer inception_4b/relu_5x5_reduce
I0714 20:39:21.911684  2662 net.cpp:425] inception_4b/relu_5x5_reduce <- inception_4b/5x5_reduce
I0714 20:39:21.911694  2662 net.cpp:386] inception_4b/relu_5x5_reduce -> inception_4b/5x5_reduce (in-place)
I0714 20:39:21.912129  2662 net.cpp:141] Setting up inception_4b/relu_5x5_reduce
I0714 20:39:21.912144  2662 net.cpp:148] Top shape: 10 24 14 14 (47040)
I0714 20:39:21.912149  2662 net.cpp:156] Memory required for data: 397770240
I0714 20:39:21.912158  2662 layer_factory.hpp:77] Creating layer inception_4b/5x5
I0714 20:39:21.912176  2662 net.cpp:91] Creating Layer inception_4b/5x5
I0714 20:39:21.912184  2662 net.cpp:425] inception_4b/5x5 <- inception_4b/5x5_reduce
I0714 20:39:21.912197  2662 net.cpp:399] inception_4b/5x5 -> inception_4b/5x5
I0714 20:39:21.916642  2658 net.cpp:141] Setting up inception_4b/pool_proj
I0714 20:39:21.916667  2658 net.cpp:148] Top shape: 10 64 14 14 (125440)
I0714 20:39:21.916674  2658 net.cpp:156] Memory required for data: 403289600
I0714 20:39:21.916687  2658 layer_factory.hpp:77] Creating layer inception_4b/relu_pool_proj
I0714 20:39:21.916697  2658 net.cpp:91] Creating Layer inception_4b/relu_pool_proj
I0714 20:39:21.916704  2658 net.cpp:425] inception_4b/relu_pool_proj <- inception_4b/pool_proj
I0714 20:39:21.916714  2658 net.cpp:386] inception_4b/relu_pool_proj -> inception_4b/pool_proj (in-place)
I0714 20:39:21.917709  2658 net.cpp:141] Setting up inception_4b/relu_pool_proj
I0714 20:39:21.917727  2658 net.cpp:148] Top shape: 10 64 14 14 (125440)
I0714 20:39:21.917733  2658 net.cpp:156] Memory required for data: 403791360
I0714 20:39:21.917739  2658 layer_factory.hpp:77] Creating layer inception_4b/output
I0714 20:39:21.917752  2658 net.cpp:91] Creating Layer inception_4b/output
I0714 20:39:21.917758  2658 net.cpp:425] inception_4b/output <- inception_4b/1x1
I0714 20:39:21.917767  2658 net.cpp:425] inception_4b/output <- inception_4b/3x3
I0714 20:39:21.917773  2658 net.cpp:425] inception_4b/output <- inception_4b/5x5
I0714 20:39:21.917780  2658 net.cpp:425] inception_4b/output <- inception_4b/pool_proj
I0714 20:39:21.917788  2658 net.cpp:399] inception_4b/output -> inception_4b/output
I0714 20:39:21.918416  2658 net.cpp:141] Setting up inception_4b/output
I0714 20:39:21.918431  2658 net.cpp:148] Top shape: 10 512 14 14 (1003520)
I0714 20:39:21.918437  2658 net.cpp:156] Memory required for data: 407805440
I0714 20:39:21.918443  2658 layer_factory.hpp:77] Creating layer inception_4b/output_inception_4b/output_0_split
I0714 20:39:21.918453  2658 net.cpp:91] Creating Layer inception_4b/output_inception_4b/output_0_split
I0714 20:39:21.918460  2658 net.cpp:425] inception_4b/output_inception_4b/output_0_split <- inception_4b/output
I0714 20:39:21.918473  2658 net.cpp:399] inception_4b/output_inception_4b/output_0_split -> inception_4b/output_inception_4b/output_0_split_0
I0714 20:39:21.918485  2658 net.cpp:399] inception_4b/output_inception_4b/output_0_split -> inception_4b/output_inception_4b/output_0_split_1
I0714 20:39:21.918495  2658 net.cpp:399] inception_4b/output_inception_4b/output_0_split -> inception_4b/output_inception_4b/output_0_split_2
I0714 20:39:21.918505  2658 net.cpp:399] inception_4b/output_inception_4b/output_0_split -> inception_4b/output_inception_4b/output_0_split_3
I0714 20:39:21.919818  2658 net.cpp:141] Setting up inception_4b/output_inception_4b/output_0_split
I0714 20:39:21.919836  2658 net.cpp:148] Top shape: 10 512 14 14 (1003520)
I0714 20:39:21.919843  2658 net.cpp:148] Top shape: 10 512 14 14 (1003520)
I0714 20:39:21.919850  2658 net.cpp:148] Top shape: 10 512 14 14 (1003520)
I0714 20:39:21.919858  2658 net.cpp:148] Top shape: 10 512 14 14 (1003520)
I0714 20:39:21.919863  2658 net.cpp:156] Memory required for data: 423861760
I0714 20:39:21.919870  2658 layer_factory.hpp:77] Creating layer inception_4c/1x1
I0714 20:39:21.919888  2658 net.cpp:91] Creating Layer inception_4c/1x1
I0714 20:39:21.919895  2658 net.cpp:425] inception_4c/1x1 <- inception_4b/output_inception_4b/output_0_split_0
I0714 20:39:21.919910  2658 net.cpp:399] inception_4c/1x1 -> inception_4c/1x1
I0714 20:39:21.920810  2662 net.cpp:141] Setting up inception_4b/5x5
I0714 20:39:21.920832  2662 net.cpp:148] Top shape: 10 64 14 14 (125440)
I0714 20:39:21.920840  2662 net.cpp:156] Memory required for data: 398272000
I0714 20:39:21.920850  2662 layer_factory.hpp:77] Creating layer inception_4b/relu_5x5
I0714 20:39:21.920864  2662 net.cpp:91] Creating Layer inception_4b/relu_5x5
I0714 20:39:21.920871  2662 net.cpp:425] inception_4b/relu_5x5 <- inception_4b/5x5
I0714 20:39:21.920881  2662 net.cpp:386] inception_4b/relu_5x5 -> inception_4b/5x5 (in-place)
I0714 20:39:21.921298  2662 net.cpp:141] Setting up inception_4b/relu_5x5
I0714 20:39:21.921317  2662 net.cpp:148] Top shape: 10 64 14 14 (125440)
I0714 20:39:21.921324  2662 net.cpp:156] Memory required for data: 398773760
I0714 20:39:21.921329  2662 layer_factory.hpp:77] Creating layer inception_4b/pool
I0714 20:39:21.921345  2662 net.cpp:91] Creating Layer inception_4b/pool
I0714 20:39:21.921352  2662 net.cpp:425] inception_4b/pool <- inception_4a/output_inception_4a/output_0_split_3
I0714 20:39:21.921365  2662 net.cpp:399] inception_4b/pool -> inception_4b/pool
I0714 20:39:21.921504  2662 net.cpp:141] Setting up inception_4b/pool
I0714 20:39:21.921516  2662 net.cpp:148] Top shape: 10 512 14 14 (1003520)
I0714 20:39:21.921522  2662 net.cpp:156] Memory required for data: 402787840
I0714 20:39:21.921528  2662 layer_factory.hpp:77] Creating layer inception_4b/pool_proj
I0714 20:39:21.921550  2662 net.cpp:91] Creating Layer inception_4b/pool_proj
I0714 20:39:21.921557  2662 net.cpp:425] inception_4b/pool_proj <- inception_4b/pool
I0714 20:39:21.921568  2662 net.cpp:399] inception_4b/pool_proj -> inception_4b/pool_proj
I0714 20:39:21.925871  2658 net.cpp:141] Setting up inception_4c/1x1
I0714 20:39:21.925895  2658 net.cpp:148] Top shape: 10 128 14 14 (250880)
I0714 20:39:21.925902  2658 net.cpp:156] Memory required for data: 424865280
I0714 20:39:21.925914  2658 layer_factory.hpp:77] Creating layer inception_4c/relu_1x1
I0714 20:39:21.925925  2658 net.cpp:91] Creating Layer inception_4c/relu_1x1
I0714 20:39:21.925933  2658 net.cpp:425] inception_4c/relu_1x1 <- inception_4c/1x1
I0714 20:39:21.925945  2658 net.cpp:386] inception_4c/relu_1x1 -> inception_4c/1x1 (in-place)
I0714 20:39:21.926481  2658 net.cpp:141] Setting up inception_4c/relu_1x1
I0714 20:39:21.926496  2658 net.cpp:148] Top shape: 10 128 14 14 (250880)
I0714 20:39:21.926503  2658 net.cpp:156] Memory required for data: 425868800
I0714 20:39:21.926509  2658 layer_factory.hpp:77] Creating layer inception_4c/3x3_reduce
I0714 20:39:21.926529  2658 net.cpp:91] Creating Layer inception_4c/3x3_reduce
…
I0714 20:39:22.068928  2662 net.cpp:141] Setting up inception_4e/relu_5x5_reduce
I0714 20:39:22.068930  2658 net.cpp:386] inception_4e/relu_5x5 -> inception_4e/5x5 (in-place)
I0714 20:39:22.068948  2662 net.cpp:148] Top shape: 10 32 14 14 (62720)
I0714 20:39:22.068954  2662 net.cpp:156] Memory required for data: 506150400
I0714 20:39:22.068960  2662 layer_factory.hpp:77] Creating layer inception_4e/5x5
I0714 20:39:22.068981  2662 net.cpp:91] Creating Layer inception_4e/5x5
I0714 20:39:22.068990  2662 net.cpp:425] inception_4e/5x5 <- inception_4e/5x5_reduce
I0714 20:39:22.069000  2662 net.cpp:399] inception_4e/5x5 -> inception_4e/5x5
I0714 20:39:22.069382  2658 net.cpp:141] Setting up inception_4e/relu_5x5
I0714 20:39:22.069397  2658 net.cpp:148] Top shape: 10 128 14 14 (250880)
I0714 20:39:22.069403  2658 net.cpp:156] Memory required for data: 508157440
I0714 20:39:22.069409  2658 layer_factory.hpp:77] Creating layer inception_4e/pool
I0714 20:39:22.069428  2658 net.cpp:91] Creating Layer inception_4e/pool
I0714 20:39:22.069437  2658 net.cpp:425] inception_4e/pool <- inception_4d/output_inception_4d/output_0_split_3
I0714 20:39:22.069447  2658 net.cpp:399] inception_4e/pool -> inception_4e/pool
I0714 20:39:22.069705  2658 net.cpp:141] Setting up inception_4e/pool
I0714 20:39:22.069718  2658 net.cpp:148] Top shape: 10 528 14 14 (1034880)
I0714 20:39:22.069725  2658 net.cpp:156] Memory required for data: 512296960
I0714 20:39:22.069730  2658 layer_factory.hpp:77] Creating layer inception_4e/pool_proj
I0714 20:39:22.069751  2658 net.cpp:91] Creating Layer inception_4e/pool_proj
I0714 20:39:22.069758  2658 net.cpp:425] inception_4e/pool_proj <- inception_4e/pool
I0714 20:39:22.069769  2658 net.cpp:399] inception_4e/pool_proj -> inception_4e/pool_proj
I0714 20:39:22.075793  2662 net.cpp:141] Setting up inception_4e/5x5
I0714 20:39:22.075812  2662 net.cpp:148] Top shape: 10 128 14 14 (250880)
I0714 20:39:22.075819  2662 net.cpp:156] Memory required for data: 507153920
I0714 20:39:22.075831  2662 layer_factory.hpp:77] Creating layer inception_4e/relu_5x5
I0714 20:39:22.075842  2662 net.cpp:91] Creating Layer inception_4e/relu_5x5
I0714 20:39:22.075850  2662 net.cpp:425] inception_4e/relu_5x5 <- inception_4e/5x5
I0714 20:39:22.075863  2662 net.cpp:386] inception_4e/relu_5x5 -> inception_4e/5x5 (in-place)
I0714 20:39:22.076328  2662 net.cpp:141] Setting up inception_4e/relu_5x5
I0714 20:39:22.076345  2662 net.cpp:148] Top shape: 10 128 14 14 (250880)
I0714 20:39:22.076351  2662 net.cpp:156] Memory required for data: 508157440
I0714 20:39:22.076359  2662 layer_factory.hpp:77] Creating layer inception_4e/pool
I0714 20:39:22.076372  2662 net.cpp:91] Creating Layer inception_4e/pool
I0714 20:39:22.076380  2662 net.cpp:425] inception_4e/pool <- inception_4d/output_inception_4d/output_0_split_3
I0714 20:39:22.076390  2662 net.cpp:399] inception_4e/pool -> inception_4e/pool
I0714 20:39:22.076576  2658 net.cpp:141] Setting up inception_4e/pool_proj
I0714 20:39:22.076593  2658 net.cpp:148] Top shape: 10 128 14 14 (250880)
I0714 20:39:22.076599  2658 net.cpp:156] Memory required for data: 513300480
I0714 20:39:22.076607  2662 net.cpp:141] Setting up inception_4e/pool
I0714 20:39:22.076611  2658 layer_factory.hpp:77] Creating layer inception_4e/relu_pool_proj
I0714 20:39:22.076624  2662 net.cpp:148] Top shape: 10 528 14 14 (1034880)
I0714 20:39:22.076629  2658 net.cpp:91] Creating Layer inception_4e/relu_pool_proj
I0714 20:39:22.076630  2662 net.cpp:156] Memory required for data: 512296960
I0714 20:39:22.076637  2658 net.cpp:425] inception_4e/relu_pool_proj <- inception_4e/pool_proj
I0714 20:39:22.076638  2662 layer_factory.hpp:77] Creating layer inception_4e/pool_proj
I0714 20:39:22.076654  2658 net.cpp:386] inception_4e/relu_pool_proj -> inception_4e/pool_proj (in-place)
I0714 20:39:22.076663  2662 net.cpp:91] Creating Layer inception_4e/pool_proj
I0714 20:39:22.076673  2662 net.cpp:425] inception_4e/pool_proj <- inception_4e/pool
I0714 20:39:22.076686  2662 net.cpp:399] inception_4e/pool_proj -> inception_4e/pool_proj
I0714 20:39:22.077739  2658 net.cpp:141] Setting up inception_4e/relu_pool_proj
I0714 20:39:22.077755  2658 net.cpp:148] Top shape: 10 128 14 14 (250880)
I0714 20:39:22.077761  2658 net.cpp:156] Memory required for data: 514304000
I0714 20:39:22.077769  2658 layer_factory.hpp:77] Creating layer inception_4e/output
I0714 20:39:22.077778  2658 net.cpp:91] Creating Layer inception_4e/output
I0714 20:39:22.077786  2658 net.cpp:425] inception_4e/output <- inception_4e/1x1
I0714 20:39:22.077796  2658 net.cpp:425] inception_4e/output <- inception_4e/3x3
I0714 20:39:22.077805  2658 net.cpp:425] inception_4e/output <- inception_4e/5x5
I0714 20:39:22.077811  2658 net.cpp:425] inception_4e/output <- inception_4e/pool_proj
I0714 20:39:22.077822  2658 net.cpp:399] inception_4e/output -> inception_4e/output
I0714 20:39:22.077965  2658 net.cpp:141] Setting up inception_4e/output
I0714 20:39:22.077980  2658 net.cpp:148] Top shape: 10 832 14 14 (1630720)
I0714 20:39:22.077986  2658 net.cpp:156] Memory required for data: 520826880
I0714 20:39:22.077992  2658 layer_factory.hpp:77] Creating layer pool4/3x3_s2
I0714 20:39:22.078008  2658 net.cpp:91] Creating Layer pool4/3x3_s2
I0714 20:39:22.078016  2658 net.cpp:425] pool4/3x3_s2 <- inception_4e/output
I0714 20:39:22.078027  2658 net.cpp:399] pool4/3x3_s2 -> pool4/3x3_s2
I0714 20:39:22.078188  2658 net.cpp:141] Setting up pool4/3x3_s2
I0714 20:39:22.078202  2658 net.cpp:148] Top shape: 10 832 7 7 (407680)
I0714 20:39:22.078207  2658 net.cpp:156] Memory required for data: 522457600
I0714 20:39:22.078214  2658 layer_factory.hpp:77] Creating layer pool4/3x3_s2_pool4/3x3_s2_0_split
I0714 20:39:22.078228  2658 net.cpp:91] Creating Layer pool4/3x3_s2_pool4/3x3_s2_0_split
I0714 20:39:22.078235  2658 net.cpp:425] pool4/3x3_s2_pool4/3x3_s2_0_split <- pool4/3x3_s2
I0714 20:39:22.078244  2658 net.cpp:399] pool4/3x3_s2_pool4/3x3_s2_0_split -> pool4/3x3_s2_pool4/3x3_s2_0_split_0
I0714 20:39:22.078255  2658 net.cpp:399] pool4/3x3_s2_pool4/3x3_s2_0_split -> pool4/3x3_s2_pool4/3x3_s2_0_split_1
I0714 20:39:22.078265  2658 net.cpp:399] pool4/3x3_s2_pool4/3x3_s2_0_split -> pool4/3x3_s2_pool4/3x3_s2_0_split_2
I0714 20:39:22.078277  2658 net.cpp:399] pool4/3x3_s2_pool4/3x3_s2_0_split -> pool4/3x3_s2_pool4/3x3_s2_0_split_3
I0714 20:39:22.078500  2658 net.cpp:141] Setting up pool4/3x3_s2_pool4/3x3_s2_0_split
I0714 20:39:22.078513  2658 net.cpp:148] Top shape: 10 832 7 7 (407680)
I0714 20:39:22.078521  2658 net.cpp:148] Top shape: 10 832 7 7 (407680)
I0714 20:39:22.078529  2658 net.cpp:148] Top shape: 10 832 7 7 (407680)
I0714 20:39:22.078536  2658 net.cpp:148] Top shape: 10 832 7 7 (407680)
I0714 20:39:22.078541  2658 net.cpp:156] Memory required for data: 528980480
I0714 20:39:22.078547  2658 layer_factory.hpp:77] Creating layer inception_5a/1x1
I0714 20:39:22.078565  2658 net.cpp:91] Creating Layer inception_5a/1x1
I0714 20:39:22.078572  2658 net.cpp:425] inception_5a/1x1 <- pool4/3x3_s2_pool4/3x3_s2_0_split_0
I0714 20:39:22.078583  2658 net.cpp:399] inception_5a/1x1 -> inception_5a/1x1
I0714 20:39:22.082988  2662 net.cpp:141] Setting up inception_4e/pool_proj
I0714 20:39:22.083009  2662 net.cpp:148] Top shape: 10 128 14 14 (250880)
I0714 20:39:22.083015  2662 net.cpp:156] Memory required for data: 513300480
I0714 20:39:22.083026  2662 layer_factory.hpp:77] Creating layer inception_4e/relu_pool_proj
I0714 20:39:22.083037  2662 net.cpp:91] Creating Layer inception_4e/relu_pool_proj
I0714 20:39:22.083045  2662 net.cpp:425] inception_4e/relu_pool_proj <- inception_4e/pool_proj
I0714 20:39:22.083057  2662 net.cpp:386] inception_4e/relu_pool_proj -> inception_4e/pool_proj (in-place)
I0714 20:39:22.083927  2662 net.cpp:141] Setting up inception_4e/relu_pool_proj
I0714 20:39:22.083946  2662 net.cpp:148] Top shape: 10 128 14 14 (250880)
I0714 20:39:22.083952  2662 net.cpp:156] Memory required for data: 514304000
I0714 20:39:22.083959  2662 layer_factory.hpp:77] Creating layer inception_4e/output
I0714 20:39:22.083971  2662 net.cpp:91] Creating Layer inception_4e/output
I0714 20:39:22.083977  2662 net.cpp:425] inception_4e/output <- inception_4e/1x1
I0714 20:39:22.083986  2662 net.cpp:425] inception_4e/output <- inception_4e/3x3
I0714 20:39:22.083993  2662 net.cpp:425] inception_4e/output <- inception_4e/5x5
I0714 20:39:22.084000  2662 net.cpp:425] inception_4e/output <- inception_4e/pool_proj
I0714 20:39:22.084012  2662 net.cpp:399] inception_4e/output -> inception_4e/output
I0714 20:39:22.084100  2662 net.cpp:141] Setting up inception_4e/output
I0714 20:39:22.084113  2662 net.cpp:148] Top shape: 10 832 14 14 (1630720)
I0714 20:39:22.084118  2662 net.cpp:156] Memory required for data: 520826880
I0714 20:39:22.084125  2662 layer_factory.hpp:77] Creating layer pool4/3x3_s2
I0714 20:39:22.084138  2662 net.cpp:91] Creating Layer pool4/3x3_s2
I0714 20:39:22.084146  2662 net.cpp:425] pool4/3x3_s2 <- inception_4e/output
I0714 20:39:22.084154  2662 net.cpp:399] pool4/3x3_s2 -> pool4/3x3_s2
I0714 20:39:22.084287  2662 net.cpp:141] Setting up pool4/3x3_s2
I0714 20:39:22.084301  2662 net.cpp:148] Top shape: 10 832 7 7 (407680)
I0714 20:39:22.084306  2662 net.cpp:156] Memory required for data: 522457600
I0714 20:39:22.084312  2662 layer_factory.hpp:77] Creating layer pool4/3x3_s2_pool4/3x3_s2_0_split
I0714 20:39:22.084326  2662 net.cpp:91] Creating Layer pool4/3x3_s2_pool4/3x3_s2_0_split
I0714 20:39:22.084332  2662 net.cpp:425] pool4/3x3_s2_pool4/3x3_s2_0_split <- pool4/3x3_s2
I0714 20:39:22.084342  2662 net.cpp:399] pool4/3x3_s2_pool4/3x3_s2_0_split -> pool4/3x3_s2_pool4/3x3_s2_0_split_0
I0714 20:39:22.084352  2662 net.cpp:399] pool4/3x3_s2_pool4/3x3_s2_0_split -> pool4/3x3_s2_pool4/3x3_s2_0_split_1
I0714 20:39:22.084362  2662 net.cpp:399] pool4/3x3_s2_pool4/3x3_s2_0_split -> pool4/3x3_s2_pool4/3x3_s2_0_split_2
I0714 20:39:22.084370  2662 net.cpp:399] pool4/3x3_s2_pool4/3x3_s2_0_split -> pool4/3x3_s2_pool4/3x3_s2_0_split_3
I0714 20:39:22.084982  2662 net.cpp:141] Setting up pool4/3x3_s2_pool4/3x3_s2_0_split
I0714 20:39:22.084996  2662 net.cpp:148] Top shape: 10 832 7 7 (407680)
I0714 20:39:22.085005  2662 net.cpp:148] Top shape: 10 832 7 7 (407680)
I0714 20:39:22.085011  2662 net.cpp:148] Top shape: 10 832 7 7 (407680)
I0714 20:39:22.085018  2662 net.cpp:148] Top shape: 10 832 7 7 (407680)
I0714 20:39:22.085023  2662 net.cpp:156] Memory required for data: 528980480
I0714 20:39:22.085029  2662 layer_factory.hpp:77] Creating layer inception_5a/1x1
I0714 20:39:22.085048  2662 net.cpp:91] Creating Layer inception_5a/1x1
I0714 20:39:22.085057  2662 net.cpp:425] inception_5a/1x1 <- pool4/3x3_s2_pool4/3x3_s2_0_split_0
I0714 20:39:22.085067  2662 net.cpp:399] inception_5a/1x1 -> inception_5a/1x1
I0714 20:39:22.089377  2658 net.cpp:141] Setting up inception_5a/1x1
I0714 20:39:22.089399  2658 net.cpp:148] Top shape: 10 256 7 7 (125440)
I0714 20:39:22.089406  2658 net.cpp:156] Memory required for data: 529482240
I0714 20:39:22.089418  2658 layer_factory.hpp:77] Creating layer inception_5a/relu_1x1
I0714 20:39:22.089428  2658 net.cpp:91] Creating Layer inception_5a/relu_1x1
I0714 20:39:22.089437  2658 net.cpp:425] inception_5a/relu_1x1 <- inception_5a/1x1
I0714 20:39:22.089448  2658 net.cpp:386] inception_5a/relu_1x1 -> inception_5a/1x1 (in-place)
I0714 20:39:22.089761  2658 net.cpp:141] Setting up inception_5a/relu_1x1
I0714 20:39:22.089781  2658 net.cpp:148] Top shape: 10 256 7 7 (125440)
I0714 20:39:22.089787  2658 net.cpp:156] Memory required for data: 529984000
I0714 20:39:22.089793  2658 layer_factory.hpp:77] Creating layer inception_5a/3x3_reduce
I0714 20:39:22.089814  2658 net.cpp:91] Creating Layer inception_5a/3x3_reduce
I0714 20:39:22.089823  2658 net.cpp:425] inception_5a/3x3_reduce <- pool4/3x3_s2_pool4/3x3_s2_0_split_1
I0714 20:39:22.089835  2658 net.cpp:399] inception_5a/3x3_reduce -> inception_5a/3x3_reduce
I0714 20:39:22.096117  2662 net.cpp:141] Setting up inception_5a/1x1
I0714 20:39:22.096138  2662 net.cpp:148] Top shape: 10 256 7 7 (125440)
I0714 20:39:22.096144  2662 net.cpp:156] Memory required for data: 529482240
I0714 20:39:22.096156  2662 layer_factory.hpp:77] Creating layer inception_5a/relu_1x1
I0714 20:39:22.096168  2662 net.cpp:91] Creating Layer inception_5a/relu_1x1
I0714 20:39:22.096175  2662 net.cpp:425] inception_5a/relu_1x1 <- inception_5a/1x1
I0714 20:39:22.096185  2662 net.cpp:386] inception_5a/relu_1x1 -> inception_5a/1x1 (in-place)
I0714 20:39:22.096595  2658 net.cpp:141] Setting up inception_5a/3x3_reduce
I0714 20:39:22.096611  2658 net.cpp:148] Top shape: 10 160 7 7 (78400)
I0714 20:39:22.096618  2658 net.cpp:156] Memory required for data: 530297600
I0714 20:39:22.096629  2658 layer_factory.hpp:77] Creating layer inception_5a/relu_3x3_reduce
I0714 20:39:22.096634  2662 net.cpp:141] Setting up inception_5a/relu_1x1
I0714 20:39:22.096639  2658 net.cpp:91] Creating Layer inception_5a/relu_3x3_reduce
I0714 20:39:22.096655  2658 net.cpp:425] inception_5a/relu_3x3_reduce <- inception_5a/3x3_reduce
I0714 20:39:22.096657  2662 net.cpp:148] Top shape: 10 256 7 7 (125440)
I0714 20:39:22.096668  2662 net.cpp:156] Memory required for data: 529984000
I0714 20:39:22.096669  2658 net.cpp:386] inception_5a/relu_3x3_reduce -> inception_5a/3x3_reduce (in-place)
I0714 20:39:22.096681  2662 layer_factory.hpp:77] Creating layer inception_5a/3x3_reduce
I0714 20:39:22.096706  2662 net.cpp:91] Creating Layer inception_5a/3x3_reduce
I0714 20:39:22.096715  2662 net.cpp:425] inception_5a/3x3_reduce <- pool4/3x3_s2_pool4/3x3_s2_0_split_1
I0714 20:39:22.096730  2662 net.cpp:399] inception_5a/3x3_reduce -> inception_5a/3x3_reduce
I0714 20:39:22.097139  2658 net.cpp:141] Setting up inception_5a/relu_3x3_reduce
I0714 20:39:22.097153  2658 net.cpp:148] Top shape: 10 160 7 7 (78400)
I0714 20:39:22.097159  2658 net.cpp:156] Memory required for data: 530611200
I0714 20:39:22.097165  2658 layer_factory.hpp:77] Creating layer inception_5a/3x3
I0714 20:39:22.097183  2658 net.cpp:91] Creating Layer inception_5a/3x3
I0714 20:39:22.097192  2658 net.cpp:425] inception_5a/3x3 <- inception_5a/3x3_reduce
I0714 20:39:22.097205  2658 net.cpp:399] inception_5a/3x3 -> inception_5a/3x3
I0714 20:39:22.104410  2662 net.cpp:141] Setting up inception_5a/3x3_reduce
I0714 20:39:22.104434  2662 net.cpp:148] Top shape: 10 160 7 7 (78400)
I0714 20:39:22.104441  2662 net.cpp:156] Memory required for data: 530297600
I0714 20:39:22.104452  2662 layer_factory.hpp:77] Creating layer inception_5a/relu_3x3_reduce
I0714 20:39:22.104468  2662 net.cpp:91] Creating Layer inception_5a/relu_3x3_reduce
I0714 20:39:22.104477  2662 net.cpp:425] inception_5a/relu_3x3_reduce <- inception_5a/3x3_reduce
I0714 20:39:22.104486  2662 net.cpp:386] inception_5a/relu_3x3_reduce -> inception_5a/3x3_reduce (in-place)
I0714 20:39:22.104797  2662 net.cpp:141] Setting up inception_5a/relu_3x3_reduce
I0714 20:39:22.104811  2662 net.cpp:148] Top shape: 10 160 7 7 (78400)
I0714 20:39:22.104817  2662 net.cpp:156] Memory required for data: 530611200
I0714 20:39:22.104823  2662 layer_factory.hpp:77] Creating layer inception_5a/3x3
I0714 20:39:22.104843  2662 net.cpp:91] Creating Layer inception_5a/3x3
I0714 20:39:22.104851  2662 net.cpp:425] inception_5a/3x3 <- inception_5a/3x3_reduce
I0714 20:39:22.104864  2662 net.cpp:399] inception_5a/3x3 -> inception_5a/3x3
I0714 20:39:22.111557  2658 net.cpp:141] Setting up inception_5a/3x3
I0714 20:39:22.111583  2658 net.cpp:148] Top shape: 10 320 7 7 (156800)
I0714 20:39:22.111590  2658 net.cpp:156] Memory required for data: 531238400
I0714 20:39:22.111603  2658 layer_factory.hpp:77] Creating layer inception_5a/relu_3x3
I0714 20:39:22.111618  2658 net.cpp:91] Creating Layer inception_5a/relu_3x3
I0714 20:39:22.111626  2658 net.cpp:425] inception_5a/relu_3x3 <- inception_5a/3x3
I0714 20:39:22.111636  2658 net.cpp:386] inception_5a/relu_3x3 -> inception_5a/3x3 (in-place)
I0714 20:39:22.112614  2658 net.cpp:141] Setting up inception_5a/relu_3x3
I0714 20:39:22.112633  2658 net.cpp:148] Top shape: 10 320 7 7 (156800)
I0714 20:39:22.112639  2658 net.cpp:156] Memory required for data: 531865600
I0714 20:39:22.112646  2658 layer_factory.hpp:77] Creating layer inception_5a/5x5_reduce
I0714 20:39:22.112668  2658 net.cpp:91] Creating Layer inception_5a/5x5_reduce
I0714 20:39:22.112676  2658 net.cpp:425] inception_5a/5x5_reduce <- pool4/3x3_s2_pool4/3x3_s2_0_split_2
I0714 20:39:22.112689  2658 net.cpp:399] inception_5a/5x5_reduce -> inception_5a/5x5_reduce
I0714 20:39:22.117128  2662 net.cpp:141] Setting up inception_5a/3x3
I0714 20:39:22.117149  2662 net.cpp:148] Top shape: 10 320 7 7 (156800)
I0714 20:39:22.117156  2662 net.cpp:156] Memory required for data: 531238400
I0714 20:39:22.117172  2662 layer_factory.hpp:77] Creating layer inception_5a/relu_3x3
I0714 20:39:22.117182  2662 net.cpp:91] Creating Layer inception_5a/relu_3x3
I0714 20:39:22.117190  2662 net.cpp:425] inception_5a/relu_3x3 <- inception_5a/3x3
I0714 20:39:22.117199  2662 net.cpp:386] inception_5a/relu_3x3 -> inception_5a/3x3 (in-place)
I0714 20:39:22.118245  2662 net.cpp:141] Setting up inception_5a/relu_3x3
I0714 20:39:22.118268  2662 net.cpp:148] Top shape: 10 320 7 7 (156800)
I0714 20:39:22.118273  2662 net.cpp:156] Memory required for data: 531865600
I0714 20:39:22.118279  2662 layer_factory.hpp:77] Creating layer inception_5a/5x5_reduce
I0714 20:39:22.118299  2662 net.cpp:91] Creating Layer inception_5a/5x5_reduce
I0714 20:39:22.118307  2662 net.cpp:425] inception_5a/5x5_reduce <- pool4/3x3_s2_pool4/3x3_s2_0_split_2
I0714 20:39:22.118320  2662 net.cpp:399] inception_5a/5x5_reduce -> inception_5a/5x5_reduce
I0714 20:39:22.119575  2658 net.cpp:141] Setting up inception_5a/5x5_reduce
I0714 20:39:22.119597  2658 net.cpp:148] Top shape: 10 32 7 7 (15680)
I0714 20:39:22.119604  2658 net.cpp:156] Memory required for data: 531928320
I0714 20:39:22.119616  2658 layer_factory.hpp:77] Creating layer inception_5a/relu_5x5_reduce
I0714 20:39:22.119634  2658 net.cpp:91] Creating Layer inception_5a/relu_5x5_reduce
I0714 20:39:22.119648  2658 net.cpp:425] inception_5a/relu_5x5_reduce <- inception_5a/5x5_reduce
I0714 20:39:22.119663  2658 net.cpp:386] inception_5a/relu_5x5_reduce -> inception_5a/5x5_reduce (in-place)
I0714 20:39:22.120093  2658 net.cpp:141] Setting up inception_5a/relu_5x5_reduce
I0714 20:39:22.120110  2658 net.cpp:148] Top shape: 10 32 7 7 (15680)
I0714 20:39:22.120116  2658 net.cpp:156] Memory required for data: 531991040
I0714 20:39:22.120123  2658 layer_factory.hpp:77] Creating layer inception_5a/5x5
I0714 20:39:22.120142  2658 net.cpp:91] Creating Layer inception_5a/5x5
I0714 20:39:22.120151  2658 net.cpp:425] inception_5a/5x5 <- inception_5a/5x5_reduce
I0714 20:39:22.120164  2658 net.cpp:399] inception_5a/5x5 -> inception_5a/5x5
I0714 20:39:22.122938  2662 net.cpp:141] Setting up inception_5a/5x5_reduce
I0714 20:39:22.122959  2662 net.cpp:148] Top shape: 10 32 7 7 (15680)
I0714 20:39:22.122966  2662 net.cpp:156] Memory required for data: 531928320
I0714 20:39:22.122977  2662 layer_factory.hpp:77] Creating layer inception_5a/relu_5x5_reduce
I0714 20:39:22.122990  2662 net.cpp:91] Creating Layer inception_5a/relu_5x5_reduce
I0714 20:39:22.122998  2662 net.cpp:425] inception_5a/relu_5x5_reduce <- inception_5a/5x5_reduce
I0714 20:39:22.123008  2662 net.cpp:386] inception_5a/relu_5x5_reduce -> inception_5a/5x5_reduce (in-place)
I0714 20:39:22.123317  2662 net.cpp:141] Setting up inception_5a/relu_5x5_reduce
I0714 20:39:22.123332  2662 net.cpp:148] Top shape: 10 32 7 7 (15680)
I0714 20:39:22.123337  2662 net.cpp:156] Memory required for data: 531991040
I0714 20:39:22.123343  2662 layer_factory.hpp:77] Creating layer inception_5a/5x5
I0714 20:39:22.123364  2662 net.cpp:91] Creating Layer inception_5a/5x5
I0714 20:39:22.123373  2662 net.cpp:425] inception_5a/5x5 <- inception_5a/5x5_reduce
I0714 20:39:22.123383  2662 net.cpp:399] inception_5a/5x5 -> inception_5a/5x5
I0714 20:39:22.127297  2658 net.cpp:141] Setting up inception_5a/5x5
I0714 20:39:22.127318  2658 net.cpp:148] Top shape: 10 128 7 7 (62720)
I0714 20:39:22.127324  2658 net.cpp:156] Memory required for data: 532241920
I0714 20:39:22.127336  2658 layer_factory.hpp:77] Creating layer inception_5a/relu_5x5
I0714 20:39:22.127382  2658 net.cpp:91] Creating Layer inception_5a/relu_5x5
I0714 20:39:22.127393  2658 net.cpp:425] inception_5a/relu_5x5 <- inception_5a/5x5
I0714 20:39:22.127403  2658 net.cpp:386] inception_5a/relu_5x5 -> inception_5a/5x5 (in-place)
I0714 20:39:22.127765  2658 net.cpp:141] Setting up inception_5a/relu_5x5
I0714 20:39:22.127779  2658 net.cpp:148] Top shape: 10 128 7 7 (62720)
I0714 20:39:22.127785  2658 net.cpp:156] Memory required for data: 532492800
I0714 20:39:22.127792  2658 layer_factory.hpp:77] Creating layer inception_5a/pool
I0714 20:39:22.127804  2658 net.cpp:91] Creating Layer inception_5a/pool
I0714 20:39:22.127811  2658 net.cpp:425] inception_5a/pool <- pool4/3x3_s2_pool4/3x3_s2_0_split_3
I0714 20:39:22.127825  2658 net.cpp:399] inception_5a/pool -> inception_5a/pool
I0714 20:39:22.128588  2658 net.cpp:141] Setting up inception_5a/pool
I0714 20:39:22.128605  2658 net.cpp:148] Top shape: 10 832 7 7 (407680)
I0714 20:39:22.128612  2658 net.cpp:156] Memory required for data: 534123520
I0714 20:39:22.128618  2658 layer_factory.hpp:77] Creating layer inception_5a/pool_proj
I0714 20:39:22.128638  2658 net.cpp:91] Creating Layer inception_5a/pool_proj
I0714 20:39:22.128646  2658 net.cpp:425] inception_5a/pool_proj <- inception_5a/pool
I0714 20:39:22.128659  2658 net.cpp:399] inception_5a/pool_proj -> inception_5a/pool_proj
I0714 20:39:22.129338  2662 net.cpp:141] Setting up inception_5a/5x5
I0714 20:39:22.129359  2662 net.cpp:148] Top shape: 10 128 7 7 (62720)
I0714 20:39:22.129365  2662 net.cpp:156] Memory required for data: 532241920
I0714 20:39:22.129377  2662 layer_factory.hpp:77] Creating layer inception_5a/relu_5x5
I0714 20:39:22.129416  2662 net.cpp:91] Creating Layer inception_5a/relu_5x5
I0714 20:39:22.129425  2662 net.cpp:425] inception_5a/relu_5x5 <- inception_5a/5x5
I0714 20:39:22.129434  2662 net.cpp:386] inception_5a/relu_5x5 -> inception_5a/5x5 (in-place)
I0714 20:39:22.130317  2662 net.cpp:141] Setting up inception_5a/relu_5x5
I0714 20:39:22.130334  2662 net.cpp:148] Top shape: 10 128 7 7 (62720)
I0714 20:39:22.130340  2662 net.cpp:156] Memory required for data: 532492800
I0714 20:39:22.130348  2662 layer_factory.hpp:77] Creating layer inception_5a/pool
I0714 20:39:22.130363  2662 net.cpp:91] Creating Layer inception_5a/pool
I0714 20:39:22.130372  2662 net.cpp:425] inception_5a/pool <- pool4/3x3_s2_pool4/3x3_s2_0_split_3
I0714 20:39:22.130383  2662 net.cpp:399] inception_5a/pool -> inception_5a/pool
I0714 20:39:22.131690  2662 net.cpp:141] Setting up inception_5a/pool
I0714 20:39:22.131708  2662 net.cpp:148] Top shape: 10 832 7 7 (407680)
I0714 20:39:22.131714  2662 net.cpp:156] Memory required for data: 534123520
I0714 20:39:22.131721  2662 layer_factory.hpp:77] Creating layer inception_5a/pool_proj
I0714 20:39:22.131743  2662 net.cpp:91] Creating Layer inception_5a/pool_proj
I0714 20:39:22.131752  2662 net.cpp:425] inception_5a/pool_proj <- inception_5a/pool
I0714 20:39:22.131763  2662 net.cpp:399] inception_5a/pool_proj -> inception_5a/pool_proj
I0714 20:39:22.137511  2658 net.cpp:141] Setting up inception_5a/pool_proj
I0714 20:39:22.137532  2658 net.cpp:148] Top shape: 10 128 7 7 (62720)
I0714 20:39:22.137539  2658 net.cpp:156] Memory required for data: 534374400
I0714 20:39:22.137552  2658 layer_factory.hpp:77] Creating layer inception_5a/relu_pool_proj
I0714 20:39:22.137567  2658 net.cpp:91] Creating Layer inception_5a/relu_pool_proj
I0714 20:39:22.137574  2658 net.cpp:425] inception_5a/relu_pool_proj <- inception_5a/pool_proj
I0714 20:39:22.137583  2658 net.cpp:386] inception_5a/relu_pool_proj -> inception_5a/pool_proj (in-place)
I0714 20:39:22.138659  2658 net.cpp:141] Setting up inception_5a/relu_pool_proj
I0714 20:39:22.138677  2658 net.cpp:148] Top shape: 10 128 7 7 (62720)
I0714 20:39:22.138684  2658 net.cpp:156] Memory required for data: 534625280
I0714 20:39:22.138698  2658 layer_factory.hpp:77] Creating layer inception_5a/output
I0714 20:39:22.138712  2658 net.cpp:91] Creating Layer inception_5a/output
I0714 20:39:22.138720  2658 net.cpp:425] inception_5a/output <- inception_5a/1x1
I0714 20:39:22.138728  2658 net.cpp:425] inception_5a/output <- inception_5a/3x3
I0714 20:39:22.138736  2658 net.cpp:425] inception_5a/output <- inception_5a/5x5
I0714 20:39:22.138743  2658 net.cpp:425] inception_5a/output <- inception_5a/pool_proj
I0714 20:39:22.138746  2662 net.cpp:141] Setting up inception_5a/pool_proj
I0714 20:39:22.138751  2658 net.cpp:399] inception_5a/output -> inception_5a/output
I0714 20:39:22.138767  2662 net.cpp:148] Top shape: 10 128 7 7 (62720)
I0714 20:39:22.138773  2662 net.cpp:156] Memory required for data: 534374400
I0714 20:39:22.138784  2662 layer_factory.hpp:77] Creating layer inception_5a/relu_pool_proj
I0714 20:39:22.138795  2662 net.cpp:91] Creating Layer inception_5a/relu_pool_proj
I0714 20:39:22.138803  2662 net.cpp:425] inception_5a/relu_pool_proj <- inception_5a/pool_proj
I0714 20:39:22.138816  2662 net.cpp:386] inception_5a/relu_pool_proj -> inception_5a/pool_proj (in-place)
I0714 20:39:22.138870  2658 net.cpp:141] Setting up inception_5a/output
I0714 20:39:22.138885  2658 net.cpp:148] Top shape: 10 832 7 7 (407680)
I0714 20:39:22.138891  2658 net.cpp:156] Memory required for data: 536256000
I0714 20:39:22.138898  2658 layer_factory.hpp:77] Creating layer inception_5a/output_inception_5a/output_0_split
I0714 20:39:22.138908  2658 net.cpp:91] Creating Layer inception_5a/output_inception_5a/output_0_split
I0714 20:39:22.138916  2658 net.cpp:425] inception_5a/output_inception_5a/output_0_split <- inception_5a/output
I0714 20:39:22.138924  2658 net.cpp:399] inception_5a/output_inception_5a/output_0_split -> inception_5a/output_inception_5a/output_0_split_0
I0714 20:39:22.138936  2658 net.cpp:399] inception_5a/output_inception_5a/output_0_split -> inception_5a/output_inception_5a/output_0_split_1
I0714 20:39:22.138947  2658 net.cpp:399] inception_5a/output_inception_5a/output_0_split -> inception_5a/output_inception_5a/output_0_split_2
I0714 20:39:22.138960  2658 net.cpp:399] inception_5a/output_inception_5a/output_0_split -> inception_5a/output_inception_5a/output_0_split_3
I0714 20:39:22.139871  2662 net.cpp:141] Setting up inception_5a/relu_pool_proj
I0714 20:39:22.139889  2662 net.cpp:148] Top shape: 10 128 7 7 (62720)
I0714 20:39:22.139896  2662 net.cpp:156] Memory required for data: 534625280
I0714 20:39:22.139902  2662 layer_factory.hpp:77] Creating layer inception_5a/output
I0714 20:39:22.139909  2658 net.cpp:141] Setting up inception_5a/output_inception_5a/output_0_split
I0714 20:39:22.139914  2662 net.cpp:91] Creating Layer inception_5a/output
I0714 20:39:22.139922  2662 net.cpp:425] inception_5a/output <- inception_5a/1x1
I0714 20:39:22.139924  2658 net.cpp:148] Top shape: 10 832 7 7 (407680)
I0714 20:39:22.139930  2662 net.cpp:425] inception_5a/output <- inception_5a/3x3
I0714 20:39:22.139931  2658 net.cpp:148] Top shape: 10 832 7 7 (407680)
I0714 20:39:22.139938  2662 net.cpp:425] inception_5a/output <- inception_5a/5x5
I0714 20:39:22.139940  2658 net.cpp:148] Top shape: 10 832 7 7 (407680)
I0714 20:39:22.139950  2662 net.cpp:425] inception_5a/output <- inception_5a/pool_proj
I0714 20:39:22.139955  2658 net.cpp:148] Top shape: 10 832 7 7 (407680)
I0714 20:39:22.139961  2658 net.cpp:156] Memory required for data: 542778880
I0714 20:39:22.139963  2662 net.cpp:399] inception_5a/output -> inception_5a/output
I0714 20:39:22.139967  2658 layer_factory.hpp:77] Creating layer inception_5b/1x1
I0714 20:39:22.139991  2658 net.cpp:91] Creating Layer inception_5b/1x1
I0714 20:39:22.139998  2658 net.cpp:425] inception_5b/1x1 <- inception_5a/output_inception_5a/output_0_split_0
I0714 20:39:22.140008  2658 net.cpp:399] inception_5b/1x1 -> inception_5b/1x1
I0714 20:39:22.140059  2662 net.cpp:141] Setting up inception_5a/output
I0714 20:39:22.140074  2662 net.cpp:148] Top shape: 10 832 7 7 (407680)
I0714 20:39:22.140079  2662 net.cpp:156] Memory required for data: 536256000
I0714 20:39:22.140085  2662 layer_factory.hpp:77] Creating layer inception_5a/output_inception_5a/output_0_split
I0714 20:39:22.140097  2662 net.cpp:91] Creating Layer inception_5a/output_inception_5a/output_0_split
I0714 20:39:22.140105  2662 net.cpp:425] inception_5a/output_inception_5a/output_0_split <- inception_5a/output
I0714 20:39:22.140115  2662 net.cpp:399] inception_5a/output_inception_5a/output_0_split -> inception_5a/output_inception_5a/output_0_split_0
I0714 20:39:22.140127  2662 net.cpp:399] inception_5a/output_inception_5a/output_0_split -> inception_5a/output_inception_5a/output_0_split_1
I0714 20:39:22.140137  2662 net.cpp:399] inception_5a/output_inception_5a/output_0_split -> inception_5a/output_inception_5a/output_0_split_2
I0714 20:39:22.140149  2662 net.cpp:399] inception_5a/output_inception_5a/output_0_split -> inception_5a/output_inception_5a/output_0_split_3
I0714 20:39:22.140621  2662 net.cpp:141] Setting up inception_5a/output_inception_5a/output_0_split
I0714 20:39:22.140640  2662 net.cpp:148] Top shape: 10 832 7 7 (407680)
I0714 20:39:22.140647  2662 net.cpp:148] Top shape: 10 832 7 7 (407680)
I0714 20:39:22.140655  2662 net.cpp:148] Top shape: 10 832 7 7 (407680)
I0714 20:39:22.140661  2662 net.cpp:148] Top shape: 10 832 7 7 (407680)
I0714 20:39:22.140666  2662 net.cpp:156] Memory required for data: 542778880
I0714 20:39:22.140672  2662 layer_factory.hpp:77] Creating layer inception_5b/1x1
I0714 20:39:22.140691  2662 net.cpp:91] Creating Layer inception_5b/1x1
I0714 20:39:22.140699  2662 net.cpp:425] inception_5b/1x1 <- inception_5a/output_inception_5a/output_0_split_0
I0714 20:39:22.140710  2662 net.cpp:399] inception_5b/1x1 -> inception_5b/1x1
I0714 20:39:22.149489  2658 net.cpp:141] Setting up inception_5b/1x1
I0714 20:39:22.149513  2658 net.cpp:148] Top shape: 10 384 7 7 (188160)
I0714 20:39:22.149520  2658 net.cpp:156] Memory required for data: 543531520
I0714 20:39:22.149531  2658 layer_factory.hpp:77] Creating layer inception_5b/relu_1x1
I0714 20:39:22.149543  2658 net.cpp:91] Creating Layer inception_5b/relu_1x1
I0714 20:39:22.149550  2658 net.cpp:425] inception_5b/relu_1x1 <- inception_5b/1x1
I0714 20:39:22.149564  2658 net.cpp:386] inception_5b/relu_1x1 -> inception_5b/1x1 (in-place)
I0714 20:39:22.149935  2658 net.cpp:141] Setting up inception_5b/relu_1x1
I0714 20:39:22.149955  2658 net.cpp:148] Top shape: 10 384 7 7 (188160)
I0714 20:39:22.149960  2658 net.cpp:156] Memory required for data: 544284160
I0714 20:39:22.149966  2658 layer_factory.hpp:77] Creating layer inception_5b/3x3_reduce
I0714 20:39:22.149986  2658 net.cpp:91] Creating Layer inception_5b/3x3_reduce
I0714 20:39:22.149993  2658 net.cpp:425] inception_5b/3x3_reduce <- inception_5a/output_inception_5a/output_0_split_1
I0714 20:39:22.150005  2658 net.cpp:399] inception_5b/3x3_reduce -> inception_5b/3x3_reduce
I0714 20:39:22.151350  2662 net.cpp:141] Setting up inception_5b/1x1
I0714 20:39:22.151866  2662 net.cpp:148] Top shape: 10 384 7 7 (188160)
I0714 20:39:22.151876  2662 net.cpp:156] Memory required for data: 543531520
I0714 20:39:22.151890  2662 layer_factory.hpp:77] Creating layer inception_5b/relu_1x1
I0714 20:39:22.151899  2662 net.cpp:91] Creating Layer inception_5b/relu_1x1
I0714 20:39:22.151907  2662 net.cpp:425] inception_5b/relu_1x1 <- inception_5b/1x1
I0714 20:39:22.151919  2662 net.cpp:386] inception_5b/relu_1x1 -> inception_5b/1x1 (in-place)
I0714 20:39:22.152237  2662 net.cpp:141] Setting up inception_5b/relu_1x1
I0714 20:39:22.152251  2662 net.cpp:148] Top shape: 10 384 7 7 (188160)
I0714 20:39:22.152258  2662 net.cpp:156] Memory required for data: 544284160
I0714 20:39:22.152264  2662 layer_factory.hpp:77] Creating layer inception_5b/3x3_reduce
I0714 20:39:22.152283  2662 net.cpp:91] Creating Layer inception_5b/3x3_reduce
I0714 20:39:22.152293  2662 net.cpp:425] inception_5b/3x3_reduce <- inception_5a/output_inception_5a/output_0_split_1
I0714 20:39:22.152304  2662 net.cpp:399] inception_5b/3x3_reduce -> inception_5b/3x3_reduce
I0714 20:39:22.158957  2658 net.cpp:141] Setting up inception_5b/3x3_reduce
I0714 20:39:22.158979  2658 net.cpp:148] Top shape: 10 192 7 7 (94080)
I0714 20:39:22.158987  2658 net.cpp:156] Memory required for data: 544660480
I0714 20:39:22.158998  2658 layer_factory.hpp:77] Creating layer inception_5b/relu_3x3_reduce
I0714 20:39:22.159011  2658 net.cpp:91] Creating Layer inception_5b/relu_3x3_reduce
I0714 20:39:22.159019  2658 net.cpp:425] inception_5b/relu_3x3_reduce <- inception_5b/3x3_reduce
I0714 20:39:22.159029  2658 net.cpp:386] inception_5b/relu_3x3_reduce -> inception_5b/3x3_reduce (in-place)
I0714 20:39:22.159385  2658 net.cpp:141] Setting up inception_5b/relu_3x3_reduce
I0714 20:39:22.159404  2658 net.cpp:148] Top shape: 10 192 7 7 (94080)
I0714 20:39:22.159411  2658 net.cpp:156] Memory required for data: 545036800
I0714 20:39:22.159417  2658 layer_factory.hpp:77] Creating layer inception_5b/3x3
I0714 20:39:22.159435  2658 net.cpp:91] Creating Layer inception_5b/3x3
I0714 20:39:22.159443  2658 net.cpp:425] inception_5b/3x3 <- inception_5b/3x3_reduce
I0714 20:39:22.159456  2658 net.cpp:399] inception_5b/3x3 -> inception_5b/3x3
I0714 20:39:22.163506  2662 net.cpp:141] Setting up inception_5b/3x3_reduce
I0714 20:39:22.163530  2662 net.cpp:148] Top shape: 10 192 7 7 (94080)
I0714 20:39:22.163537  2662 net.cpp:156] Memory required for data: 544660480
I0714 20:39:22.163552  2662 layer_factory.hpp:77] Creating layer inception_5b/relu_3x3_reduce
I0714 20:39:22.163564  2662 net.cpp:91] Creating Layer inception_5b/relu_3x3_reduce
I0714 20:39:22.163573  2662 net.cpp:425] inception_5b/relu_3x3_reduce <- inception_5b/3x3_reduce
I0714 20:39:22.163586  2662 net.cpp:386] inception_5b/relu_3x3_reduce -> inception_5b/3x3_reduce (in-place)
I0714 20:39:22.163911  2662 net.cpp:141] Setting up inception_5b/relu_3x3_reduce
I0714 20:39:22.163928  2662 net.cpp:148] Top shape: 10 192 7 7 (94080)
I0714 20:39:22.163934  2662 net.cpp:156] Memory required for data: 545036800
I0714 20:39:22.163943  2662 layer_factory.hpp:77] Creating layer inception_5b/3x3
I0714 20:39:22.163964  2662 net.cpp:91] Creating Layer inception_5b/3x3
I0714 20:39:22.163972  2662 net.cpp:425] inception_5b/3x3 <- inception_5b/3x3_reduce
I0714 20:39:22.163982  2662 net.cpp:399] inception_5b/3x3 -> inception_5b/3x3
I0714 20:39:22.171929  2658 net.cpp:141] Setting up inception_5b/3x3
I0714 20:39:22.171955  2658 net.cpp:148] Top shape: 10 384 7 7 (188160)
I0714 20:39:22.171962  2658 net.cpp:156] Memory required for data: 545789440
I0714 20:39:22.171974  2658 layer_factory.hpp:77] Creating layer inception_5b/relu_3x3
I0714 20:39:22.171985  2658 net.cpp:91] Creating Layer inception_5b/relu_3x3
I0714 20:39:22.171994  2658 net.cpp:425] inception_5b/relu_3x3 <- inception_5b/3x3
I0714 20:39:22.172008  2658 net.cpp:386] inception_5b/relu_3x3 -> inception_5b/3x3 (in-place)
I0714 20:39:22.172891  2658 net.cpp:141] Setting up inception_5b/relu_3x3
I0714 20:39:22.172910  2658 net.cpp:148] Top shape: 10 384 7 7 (188160)
I0714 20:39:22.172917  2658 net.cpp:156] Memory required for data: 546542080
I0714 20:39:22.172924  2658 layer_factory.hpp:77] Creating layer inception_5b/5x5_reduce
I0714 20:39:22.172948  2658 net.cpp:91] Creating Layer inception_5b/5x5_reduce
I0714 20:39:22.172962  2658 net.cpp:425] inception_5b/5x5_reduce <- inception_5a/output_inception_5a/output_0_split_2
I0714 20:39:22.172978  2658 net.cpp:399] inception_5b/5x5_reduce -> inception_5b/5x5_reduce
I0714 20:39:22.176298  2662 net.cpp:141] Setting up inception_5b/3x3
I0714 20:39:22.176319  2662 net.cpp:148] Top shape: 10 384 7 7 (188160)
I0714 20:39:22.176326  2662 net.cpp:156] Memory required for data: 545789440
I0714 20:39:22.176338  2662 layer_factory.hpp:77] Creating layer inception_5b/relu_3x3
I0714 20:39:22.176349  2662 net.cpp:91] Creating Layer inception_5b/relu_3x3
I0714 20:39:22.176357  2662 net.cpp:425] inception_5b/relu_3x3 <- inception_5b/3x3
I0714 20:39:22.176369  2662 net.cpp:386] inception_5b/relu_3x3 -> inception_5b/3x3 (in-place)
I0714 20:39:22.177317  2662 net.cpp:141] Setting up inception_5b/relu_3x3
I0714 20:39:22.177336  2662 net.cpp:148] Top shape: 10 384 7 7 (188160)
I0714 20:39:22.177342  2662 net.cpp:156] Memory required for data: 546542080
I0714 20:39:22.177350  2662 layer_factory.hpp:77] Creating layer inception_5b/5x5_reduce
I0714 20:39:22.177371  2662 net.cpp:91] Creating Layer inception_5b/5x5_reduce
I0714 20:39:22.177379  2662 net.cpp:425] inception_5b/5x5_reduce <- inception_5a/output_inception_5a/output_0_split_2
I0714 20:39:22.177397  2662 net.cpp:399] inception_5b/5x5_reduce -> inception_5b/5x5_reduce
I0714 20:39:22.179690  2658 net.cpp:141] Setting up inception_5b/5x5_reduce
I0714 20:39:22.179711  2658 net.cpp:148] Top shape: 10 48 7 7 (23520)
I0714 20:39:22.179718  2658 net.cpp:156] Memory required for data: 546636160
I0714 20:39:22.179731  2658 layer_factory.hpp:77] Creating layer inception_5b/relu_5x5_reduce
I0714 20:39:22.179743  2658 net.cpp:91] Creating Layer inception_5b/relu_5x5_reduce
I0714 20:39:22.179749  2658 net.cpp:425] inception_5b/relu_5x5_reduce <- inception_5b/5x5_reduce
I0714 20:39:22.179765  2658 net.cpp:386] inception_5b/relu_5x5_reduce -> inception_5b/5x5_reduce (in-place)
I0714 20:39:22.180157  2658 net.cpp:141] Setting up inception_5b/relu_5x5_reduce
I0714 20:39:22.180171  2658 net.cpp:148] Top shape: 10 48 7 7 (23520)
I0714 20:39:22.180177  2658 net.cpp:156] Memory required for data: 546730240
I0714 20:39:22.180183  2658 layer_factory.hpp:77] Creating layer inception_5b/5x5
I0714 20:39:22.180202  2658 net.cpp:91] Creating Layer inception_5b/5x5
I0714 20:39:22.180209  2658 net.cpp:425] inception_5b/5x5 <- inception_5b/5x5_reduce
I0714 20:39:22.180223  2658 net.cpp:399] inception_5b/5x5 -> inception_5b/5x5
I0714 20:39:22.183069  2662 net.cpp:141] Setting up inception_5b/5x5_reduce
I0714 20:39:22.183090  2662 net.cpp:148] Top shape: 10 48 7 7 (23520)
I0714 20:39:22.183096  2662 net.cpp:156] Memory required for data: 546636160
I0714 20:39:22.183109  2662 layer_factory.hpp:77] Creating layer inception_5b/relu_5x5_reduce
I0714 20:39:22.183125  2662 net.cpp:91] Creating Layer inception_5b/relu_5x5_reduce
I0714 20:39:22.183135  2662 net.cpp:425] inception_5b/relu_5x5_reduce <- inception_5b/5x5_reduce
I0714 20:39:22.183145  2662 net.cpp:386] inception_5b/relu_5x5_reduce -> inception_5b/5x5_reduce (in-place)
I0714 20:39:22.183451  2662 net.cpp:141] Setting up inception_5b/relu_5x5_reduce
I0714 20:39:22.183466  2662 net.cpp:148] Top shape: 10 48 7 7 (23520)
I0714 20:39:22.183471  2662 net.cpp:156] Memory required for data: 546730240
I0714 20:39:22.183478  2662 layer_factory.hpp:77] Creating layer inception_5b/5x5
I0714 20:39:22.183500  2662 net.cpp:91] Creating Layer inception_5b/5x5
I0714 20:39:22.183507  2662 net.cpp:425] inception_5b/5x5 <- inception_5b/5x5_reduce
I0714 20:39:22.183521  2662 net.cpp:399] inception_5b/5x5 -> inception_5b/5x5
I0714 20:39:22.189216  2658 net.cpp:141] Setting up inception_5b/5x5
I0714 20:39:22.189242  2658 net.cpp:148] Top shape: 10 128 7 7 (62720)
I0714 20:39:22.189249  2658 net.cpp:156] Memory required for data: 546981120
I0714 20:39:22.189260  2658 layer_factory.hpp:77] Creating layer inception_5b/relu_5x5
I0714 20:39:22.189270  2658 net.cpp:91] Creating Layer inception_5b/relu_5x5
I0714 20:39:22.189278  2658 net.cpp:425] inception_5b/relu_5x5 <- inception_5b/5x5
I0714 20:39:22.189291  2658 net.cpp:386] inception_5b/relu_5x5 -> inception_5b/5x5 (in-place)
I0714 20:39:22.189649  2658 net.cpp:141] Setting up inception_5b/relu_5x5
I0714 20:39:22.189666  2658 net.cpp:148] Top shape: 10 128 7 7 (62720)
I0714 20:39:22.189672  2658 net.cpp:156] Memory required for data: 547232000
I0714 20:39:22.189678  2658 layer_factory.hpp:77] Creating layer inception_5b/pool
I0714 20:39:22.189693  2658 net.cpp:91] Creating Layer inception_5b/pool
I0714 20:39:22.189702  2658 net.cpp:425] inception_5b/pool <- inception_5a/output_inception_5a/output_0_split_3
I0714 20:39:22.189712  2658 net.cpp:399] inception_5b/pool -> inception_5b/pool
I0714 20:39:22.190279  2658 net.cpp:141] Setting up inception_5b/pool
I0714 20:39:22.190294  2658 net.cpp:148] Top shape: 10 832 7 7 (407680)
I0714 20:39:22.190300  2658 net.cpp:156] Memory required for data: 548862720
I0714 20:39:22.190307  2658 layer_factory.hpp:77] Creating layer inception_5b/pool_proj
I0714 20:39:22.190328  2658 net.cpp:91] Creating Layer inception_5b/pool_proj
I0714 20:39:22.190336  2658 net.cpp:425] inception_5b/pool_proj <- inception_5b/pool
I0714 20:39:22.190347  2658 net.cpp:399] inception_5b/pool_proj -> inception_5b/pool_proj
I0714 20:39:22.191118  2662 net.cpp:141] Setting up inception_5b/5x5
I0714 20:39:22.191136  2662 net.cpp:148] Top shape: 10 128 7 7 (62720)
I0714 20:39:22.191143  2662 net.cpp:156] Memory required for data: 546981120
I0714 20:39:22.191156  2662 layer_factory.hpp:77] Creating layer inception_5b/relu_5x5
I0714 20:39:22.191171  2662 net.cpp:91] Creating Layer inception_5b/relu_5x5
I0714 20:39:22.191180  2662 net.cpp:425] inception_5b/relu_5x5 <- inception_5b/5x5
I0714 20:39:22.191190  2662 net.cpp:386] inception_5b/relu_5x5 -> inception_5b/5x5 (in-place)
I0714 20:39:22.192070  2662 net.cpp:141] Setting up inception_5b/relu_5x5
I0714 20:39:22.192087  2662 net.cpp:148] Top shape: 10 128 7 7 (62720)
I0714 20:39:22.192093  2662 net.cpp:156] Memory required for data: 547232000
I0714 20:39:22.192101  2662 layer_factory.hpp:77] Creating layer inception_5b/pool
I0714 20:39:22.192114  2662 net.cpp:91] Creating Layer inception_5b/pool
I0714 20:39:22.192122  2662 net.cpp:425] inception_5b/pool <- inception_5a/output_inception_5a/output_0_split_3
I0714 20:39:22.192132  2662 net.cpp:399] inception_5b/pool -> inception_5b/pool
I0714 20:39:22.193470  2662 net.cpp:141] Setting up inception_5b/pool
I0714 20:39:22.193487  2662 net.cpp:148] Top shape: 10 832 7 7 (407680)
I0714 20:39:22.193493  2662 net.cpp:156] Memory required for data: 548862720
I0714 20:39:22.193501  2662 layer_factory.hpp:77] Creating layer inception_5b/pool_proj
I0714 20:39:22.193521  2662 net.cpp:91] Creating Layer inception_5b/pool_proj
I0714 20:39:22.193528  2662 net.cpp:425] inception_5b/pool_proj <- inception_5b/pool
I0714 20:39:22.193544  2662 net.cpp:399] inception_5b/pool_proj -> inception_5b/pool_proj
I0714 20:39:22.199463  2658 net.cpp:141] Setting up inception_5b/pool_proj
I0714 20:39:22.199484  2658 net.cpp:148] Top shape: 10 128 7 7 (62720)
I0714 20:39:22.199491  2658 net.cpp:156] Memory required for data: 549113600
I0714 20:39:22.199502  2658 layer_factory.hpp:77] Creating layer inception_5b/relu_pool_proj
I0714 20:39:22.199517  2658 net.cpp:91] Creating Layer inception_5b/relu_pool_proj
I0714 20:39:22.199524  2658 net.cpp:425] inception_5b/relu_pool_proj <- inception_5b/pool_proj
I0714 20:39:22.199533  2658 net.cpp:386] inception_5b/relu_pool_proj -> inception_5b/pool_proj (in-place)
I0714 20:39:22.200681  2658 net.cpp:141] Setting up inception_5b/relu_pool_proj
I0714 20:39:22.200709  2658 net.cpp:148] Top shape: 10 128 7 7 (62720)
I0714 20:39:22.200718  2658 net.cpp:156] Memory required for data: 549364480
I0714 20:39:22.200728  2658 layer_factory.hpp:77] Creating layer inception_5b/output
I0714 20:39:22.200744  2658 net.cpp:91] Creating Layer inception_5b/output
I0714 20:39:22.200755  2658 net.cpp:425] inception_5b/output <- inception_5b/1x1
I0714 20:39:22.200753  2662 net.cpp:141] Setting up inception_5b/pool_proj
I0714 20:39:22.200768  2658 net.cpp:425] inception_5b/output <- inception_5b/3x3
I0714 20:39:22.200773  2662 net.cpp:148] Top shape: 10 128 7 7 (62720)
I0714 20:39:22.200779  2662 net.cpp:156] Memory required for data: 549113600
I0714 20:39:22.200779  2658 net.cpp:425] inception_5b/output <- inception_5b/5x5
I0714 20:39:22.200790  2662 layer_factory.hpp:77] Creating layer inception_5b/relu_pool_proj
I0714 20:39:22.200790  2658 net.cpp:425] inception_5b/output <- inception_5b/pool_proj
I0714 20:39:22.200803  2662 net.cpp:91] Creating Layer inception_5b/relu_pool_proj
I0714 20:39:22.200804  2658 net.cpp:399] inception_5b/output -> inception_5b/output
I0714 20:39:22.200810  2662 net.cpp:425] inception_5b/relu_pool_proj <- inception_5b/pool_proj
I0714 20:39:22.200824  2662 net.cpp:386] inception_5b/relu_pool_proj -> inception_5b/pool_proj (in-place)
I0714 20:39:22.201696  2658 net.cpp:141] Setting up inception_5b/output
I0714 20:39:22.201721  2658 net.cpp:148] Top shape: 10 1024 7 7 (501760)
I0714 20:39:22.201728  2658 net.cpp:156] Memory required for data: 551371520
I0714 20:39:22.201735  2658 layer_factory.hpp:77] Creating layer pool5/7x7_s1
I0714 20:39:22.201747  2658 net.cpp:91] Creating Layer pool5/7x7_s1
I0714 20:39:22.201756  2658 net.cpp:425] pool5/7x7_s1 <- inception_5b/output
I0714 20:39:22.201768  2658 net.cpp:399] pool5/7x7_s1 -> pool5/7x7_s1
I0714 20:39:22.201813  2662 net.cpp:141] Setting up inception_5b/relu_pool_proj
I0714 20:39:22.201829  2662 net.cpp:148] Top shape: 10 128 7 7 (62720)
I0714 20:39:22.201835  2662 net.cpp:156] Memory required for data: 549364480
I0714 20:39:22.201843  2662 layer_factory.hpp:77] Creating layer inception_5b/output
I0714 20:39:22.201854  2662 net.cpp:91] Creating Layer inception_5b/output
I0714 20:39:22.201861  2662 net.cpp:425] inception_5b/output <- inception_5b/1x1
I0714 20:39:22.201884  2662 net.cpp:425] inception_5b/output <- inception_5b/3x3
I0714 20:39:22.201892  2662 net.cpp:425] inception_5b/output <- inception_5b/5x5
I0714 20:39:22.201900  2662 net.cpp:425] inception_5b/output <- inception_5b/pool_proj
I0714 20:39:22.201908  2662 net.cpp:399] inception_5b/output -> inception_5b/output
I0714 20:39:22.202064  2662 net.cpp:141] Setting up inception_5b/output
I0714 20:39:22.202078  2662 net.cpp:148] Top shape: 10 1024 7 7 (501760)
I0714 20:39:22.202085  2662 net.cpp:156] Memory required for data: 551371520
I0714 20:39:22.202090  2662 layer_factory.hpp:77] Creating layer pool5/7x7_s1
I0714 20:39:22.202106  2662 net.cpp:91] Creating Layer pool5/7x7_s1
I0714 20:39:22.202114  2662 net.cpp:425] pool5/7x7_s1 <- inception_5b/output
I0714 20:39:22.202123  2662 net.cpp:399] pool5/7x7_s1 -> pool5/7x7_s1
I0714 20:39:22.202379  2658 net.cpp:141] Setting up pool5/7x7_s1
I0714 20:39:22.202395  2658 net.cpp:148] Top shape: 10 1024 1 1 (10240)
I0714 20:39:22.202401  2658 net.cpp:156] Memory required for data: 551412480
I0714 20:39:22.202407  2658 layer_factory.hpp:77] Creating layer pool5/drop_7x7_s1
I0714 20:39:22.202420  2658 net.cpp:91] Creating Layer pool5/drop_7x7_s1
I0714 20:39:22.202426  2658 net.cpp:425] pool5/drop_7x7_s1 <- pool5/7x7_s1
I0714 20:39:22.202438  2658 net.cpp:386] pool5/drop_7x7_s1 -> pool5/7x7_s1 (in-place)
I0714 20:39:22.202581  2658 net.cpp:141] Setting up pool5/drop_7x7_s1
I0714 20:39:22.202595  2658 net.cpp:148] Top shape: 10 1024 1 1 (10240)
I0714 20:39:22.202601  2658 net.cpp:156] Memory required for data: 551453440
I0714 20:39:22.202607  2658 layer_factory.hpp:77] Creating layer loss3/classifier
I0714 20:39:22.202617  2662 net.cpp:141] Setting up pool5/7x7_s1
I0714 20:39:22.202623  2658 net.cpp:91] Creating Layer loss3/classifier
I0714 20:39:22.202631  2658 net.cpp:425] loss3/classifier <- pool5/7x7_s1
I0714 20:39:22.202632  2662 net.cpp:148] Top shape: 10 1024 1 1 (10240)
I0714 20:39:22.202638  2662 net.cpp:156] Memory required for data: 551412480
I0714 20:39:22.202641  2658 net.cpp:399] loss3/classifier -> loss3/classifier
I0714 20:39:22.202644  2662 layer_factory.hpp:77] Creating layer pool5/drop_7x7_s1
I0714 20:39:22.202656  2662 net.cpp:91] Creating Layer pool5/drop_7x7_s1
I0714 20:39:22.202662  2662 net.cpp:425] pool5/drop_7x7_s1 <- pool5/7x7_s1
I0714 20:39:22.202671  2662 net.cpp:386] pool5/drop_7x7_s1 -> pool5/7x7_s1 (in-place)
I0714 20:39:22.202831  2662 net.cpp:141] Setting up pool5/drop_7x7_s1
I0714 20:39:22.202844  2662 net.cpp:148] Top shape: 10 1024 1 1 (10240)
I0714 20:39:22.202850  2662 net.cpp:156] Memory required for data: 551453440
I0714 20:39:22.202857  2662 layer_factory.hpp:77] Creating layer loss3/classifier
I0714 20:39:22.202870  2662 net.cpp:91] Creating Layer loss3/classifier
I0714 20:39:22.202877  2662 net.cpp:425] loss3/classifier <- pool5/7x7_s1
I0714 20:39:22.202891  2662 net.cpp:399] loss3/classifier -> loss3/classifier
I0714 20:39:22.218977  2658 net.cpp:141] Setting up loss3/classifier
I0714 20:39:22.219041  2658 net.cpp:148] Top shape: 10 1000 (10000)
I0714 20:39:22.219051  2658 net.cpp:156] Memory required for data: 551493440
I0714 20:39:22.219072  2658 layer_factory.hpp:77] Creating layer prob
I0714 20:39:22.219092  2658 net.cpp:91] Creating Layer prob
I0714 20:39:22.219104  2658 net.cpp:425] prob <- loss3/classifier
I0714 20:39:22.219117  2658 net.cpp:399] prob -> prob
I0714 20:39:22.221922  2662 net.cpp:141] Setting up loss3/classifier
I0714 20:39:22.221966  2662 net.cpp:148] Top shape: 10 1000 (10000)
I0714 20:39:22.221974  2662 net.cpp:156] Memory required for data: 551493440
I0714 20:39:22.221992  2662 layer_factory.hpp:77] Creating layer prob
I0714 20:39:22.222010  2662 net.cpp:91] Creating Layer prob
I0714 20:39:22.222021  2662 net.cpp:425] prob <- loss3/classifier
I0714 20:39:22.222038  2662 net.cpp:399] prob -> prob
I0714 20:39:22.223922  2658 net.cpp:141] Setting up prob
I0714 20:39:22.223945  2658 net.cpp:148] Top shape: 10 1000 (10000)
I0714 20:39:22.223951  2658 net.cpp:156] Memory required for data: 551533440
I0714 20:39:22.223958  2658 net.cpp:219] prob does not need backward computation.
I0714 20:39:22.223966  2658 net.cpp:219] loss3/classifier does not need backward computation.
I0714 20:39:22.223973  2658 net.cpp:219] pool5/drop_7x7_s1 does not need backward computation.
I0714 20:39:22.223978  2658 net.cpp:219] pool5/7x7_s1 does not need backward computation.
…
