…
I0925 22:48:36.459708 11275 upgrade_proto.cpp:69] Successfully upgraded file specified using deprecated input fields.
I0925 22:48:36.459697 11245 net.cpp:49] Initializing net from parameters: 
name: "s2vt:features_to_lstm"
state {
  phase: TEST
}
layer {
  name: "input"
  type: "Input"
  top: "frames_fc7"
  top: "cont_sentence"
  top: "input_sentence"
  top: "stage_indicator"
  input_param {
    shape {
      dim: 1
      dim: 4096
    }
    shape {
      dim: 1
      dim: 1
    }
    shape {
      dim: 1
      dim: 1
    }
    shape {
      dim: 1
      dim: 1
    }
  }
}
layer {
  name: "embed_encoder"
  type: "InnerProduct"
  bottom: "frames_fc7"
  top: "embedded_in_frames"
  param {
    lr_mult: 1
    decay_mult: 1
  }
  param {
    lr_mult: 2
    decay_mult: 0
  }
  inner_product_param {
    num_output: 500
    weight_filler {
      type: "xavier"
    }
    bias_filler {
      type: "constant"
      value: 0.2
    }
  }
}
layer {
  name: "reshape_frames"
  type: "Reshape"
  bottom: "embedded_in_frames"
  top: "embedded_input_frames"
  reshape_param {
    shape {
      dim: 1
      dim: 1
      dim: 500
    }
  }
}
layer {
  name: "reshape_stage_indicator"
  type: "Reshape"
  bottom: "stage_indicator"
  top: "reshaped_stage_indicator"
  reshape_param {
    shape {
      dim: 1
      dim: 1
      dim: 1
    }
  }
}
layer {
  name: "embedding"
  type: "Embed"
  bottom: "input_sentence"
  top: "embedded_input_sentence"
  param {
    lr_mult: 1
  }
  embed_param {
    num_output: 500
    input_dim: 46168
    bias_term: false
    weight_filler {
      type: "uniform"
      min: -0.08
      max: 0.08
    }
  }
}
layer {
  name: "lstm1"
  type: "LSTM"
  bottom: "embedded_input_frames"
  bottom: "cont_sentence"
  top: "lstm1"
  recurrent_param {
    num_output: 1000
    weight_filler {
      type: "uniform"
      min: -0.08
      max: 0.08
    }
    bias_filler {
      type: "constant"
      value: 0
    }
  }
}
layer {
  name: "concat"
  type: "Concat"
  bottom: "lstm1"
  bottom: "embedded_input_sentence"
  bottom: "reshaped_stage_indicator"
  top: "lstm1_video_sequence"
  concat_param {
    concat_dim: 2
  }
}
layer {
  name: "lstm2"
  type: "LSTM"
  bottom: "lstm1_video_sequence"
  bottom: "cont_sentence"
  top: "lstm2"
  recurrent_param {
    num_output: 1000
    weight_filler {
      type: "uniform"
      min: -0.08
      max: 0.08
    }
    bias_filler {
      type: "constant"
      value: 0
    }
  }
}
layer {
  name: "predict"
  type: "InnerProduct"
  bottom: "lstm2"
  top: "predict"
  param {
    lr_mult: 1
    decay_mult: 1
  }
  param {
    lr_mult: 2
    decay_mult: 0
  }
  inner_product_param {
    num_output: 46168
    weight_filler {
      type: "uniform"
      min: -0.08
      max: 0.08
    }
    bias_filler {
      type: "constant"
      value: 0
    }
    axis: 2
  }
}
layer {
  name: "probs"
  type: "Softmax"
  bottom: "predict"
  top: "probs"
  softmax_param {
    axis: 2
  }
}
W0925 22:48:36.459717 11275 upgrade_proto.cpp:71] Note that future Caffe releases will only support input layers and not input fields.
I0925 22:48:36.459698 11227 net.cpp:49] Initializing net from parameters: 
name: "s2vt:features_to_lstm"
state {
  phase: TEST
}
layer {
  name: "input"
  type: "Input"
  top: "frames_fc7"
  top: "cont_sentence"
  top: "input_sentence"
  top: "stage_indicator"
  input_param {
    shape {
      dim: 1
      dim: 4096
    }
    shape {
      dim: 1
      dim: 1
    }
    shape {
      dim: 1
      dim: 1
    }
    shape {
      dim: 1
      dim: 1
    }
  }
}
layer {
  name: "embed_encoder"
  type: "InnerProduct"
  bottom: "frames_fc7"
  top: "embedded_in_frames"
  param {
    lr_mult: 1
    decay_mult: 1
  }
  param {
    lr_mult: 2
    decay_mult: 0
  }
  inner_product_param {
    num_output: 500
    weight_filler {
      type: "xavier"
    }
    bias_filler {
      type: "constant"
      value: 0.2
    }
  }
}
layer {
  name: "reshape_frames"
  type: "Reshape"
  bottom: "embedded_in_frames"
  top: "embedded_input_frames"
  reshape_param {
    shape {
      dim: 1
      dim: 1
      dim: 500
    }
  }
}
layer {
  name: "reshape_stage_indicator"
  type: "Reshape"
  bottom: "stage_indicator"
  top: "reshaped_stage_indicator"
  reshape_param {
    shape {
      dim: 1
      dim: 1
      dim: 1
    }
  }
}
layer {
  name: "embedding"
  type: "Embed"
  bottom: "input_sentence"
  top: "embedded_input_sentence"
  param {
    lr_mult: 1
  }
  embed_param {
    num_output: 500
    input_dim: 46168
    bias_term: false
    weight_filler {
      type: "uniform"
      min: -0.08
      max: 0.08
    }
  }
}
layer {
  name: "lstm1"
  type: "LSTM"
  bottom: "embedded_input_frames"
  bottom: "cont_sentence"
  top: "lstm1"
  recurrent_param {
    num_output: 1000
    weight_filler {
      type: "uniform"
      min: -0.08
      max: 0.08
    }
    bias_filler {
      type: "constant"
      value: 0
    }
  }
}
layer {
  name: "concat"
  type: "Concat"
  bottom: "lstm1"
  bottom: "embedded_input_sentence"
  bottom: "reshaped_stage_indicator"
  top: "lstm1_video_sequence"
  concat_param {
    concat_dim: 2
  }
}
layer {
  name: "lstm2"
  type: "LSTM"
  bottom: "lstm1_video_sequence"
  bottom: "cont_sentence"
  top: "lstm2"
  recurrent_param {
    num_output: 1000
    weight_filler {
      type: "uniform"
      min: -0.08
      max: 0.08
    }
    bias_filler {
      type: "constant"
      value: 0
    }
  }
}
layer {
  name: "predict"
  type: "InnerProduct"
  bottom: "lstm2"
  top: "predict"
  param {
    lr_mult: 1
    decay_mult: 1
  }
  param {
    lr_mult: 2
    decay_mult: 0
  }
  inner_product_param {
    num_output: 46168
    weight_filler {
      type: "uniform"
      min: -0.08
      max: 0.08
    }
    bias_filler {
      type: "constant"
      value: 0
    }
    axis: 2
  }
}
layer {
  name: "probs"
  type: "Softmax"
  bottom: "predict"
  top: "probs"
  softmax_param {
    axis: 2
  }
}
I0925 22:48:36.459697 11249 net.cpp:49] Initializing net from parameters: 
name: "s2vt:features_to_lstm"
state {
  phase: TEST
}
layer {
  name: "input"
  type: "Input"
  top: "frames_fc7"
  top: "cont_sentence"
  top: "input_sentence"
  top: "stage_indicator"
  input_param {
    shape {
      dim: 1
      dim: 4096
    }
    shape {
      dim: 1
      dim: 1
    }
    shape {
      dim: 1
      dim: 1
    }
    shape {
      dim: 1
      dim: 1
    }
  }
}
layer {
  name: "embed_encoder"
  type: "InnerProduct"
  bottom: "frames_fc7"
  top: "embedded_in_frames"
  param {
    lr_mult: 1
    decay_mult: 1
  }
  param {
    lr_mult: 2
    decay_mult: 0
  }
  inner_product_param {
    num_output: 500
    weight_filler {
      type: "xavier"
    }
    bias_filler {
      type: "constant"
      value: 0.2
    }
  }
}
layer {
  name: "reshape_frames"
  type: "Reshape"
  bottom: "embedded_in_frames"
  top: "embedded_input_frames"
  reshape_param {
    shape {
      dim: 1
      dim: 1
      dim: 500
    }
  }
}
layer {
  name: "reshape_stage_indicator"
  type: "Reshape"
  bottom: "stage_indicator"
  top: "reshaped_stage_indicator"
  reshape_param {
    shape {
      dim: 1
      dim: 1
      dim: 1
    }
  }
}
layer {
  name: "embedding"
  type: "Embed"
  bottom: "input_sentence"
  top: "embedded_input_sentence"
  param {
    lr_mult: 1
  }
  embed_param {
    num_output: 500
    input_dim: 46168
    bias_term: false
    weight_filler {
      type: "uniform"
      min: -0.08
      max: 0.08
    }
  }
}
layer {
  name: "lstm1"
  type: "LSTM"
  bottom: "embedded_input_frames"
  bottom: "cont_sentence"
  top: "lstm1"
  recurrent_param {
    num_output: 1000
    weight_filler {
      type: "uniform"
      min: -0.08
      max: 0.08
    }
    bias_filler {
      type: "constant"
      value: 0
    }
  }
}
layer {
  name: "concat"
  type: "Concat"
  bottom: "lstm1"
  bottom: "embedded_input_sentence"
  bottom: "reshaped_stage_indicator"
  top: "lstm1_video_sequence"
  concat_param {
    concat_dim: 2
  }
}
layer {
  name: "lstm2"
  type: "LSTM"
  bottom: "lstm1_video_sequence"
  bottom: "cont_sentence"
  top: "lstm2"
  recurrent_param {
    num_output: 1000
    weight_filler {
      type: "uniform"
      min: -0.08
      max: 0.08
    }
    bias_filler {
      type: "constant"
      value: 0
    }
  }
}
layer {
  name: "predict"
  type: "InnerProduct"
  bottom: "lstm2"
  top: "predict"
  param {
    lr_mult: 1
    decay_mult: 1
  }
  param {
    lr_mult: 2
    decay_mult: 0
  }
  inner_product_param {
    num_output: 46168
    weight_filler {
      type: "uniform"
      min: -0.08
      max: 0.08
    }
    bias_filler {
      type: "constant"
      value: 0
    }
    axis: 2
  }
}
layer {
  name: "probs"
  type: "Softmax"
  bottom: "predict"
  top: "probs"
  softmax_param {
    axis: 2
  }
}
I0925 22:48:36.459897 11227 layer_factory.hpp:77] Creating layer input
I0925 22:48:36.459897 11245 layer_factory.hpp:77] Creating layer input
W0925 22:48:36.459170 11231 upgrade_proto.cpp:71] Note that future Caffe releases will only support input layers and not input fields.
I0925 22:48:36.459938 11227 net.cpp:91] Creating Layer input
I0925 22:48:36.459942 11245 net.cpp:91] Creating Layer input
I0925 22:48:36.459954 11227 net.cpp:399] input -> frames_fc7
I0925 22:48:36.459959 11245 net.cpp:399] input -> frames_fc7
I0925 22:48:36.460000 11227 net.cpp:399] input -> cont_sentence
I0925 22:48:36.460001 11245 net.cpp:399] input -> cont_sentence
I0925 22:48:36.460021 11227 net.cpp:399] input -> input_sentence
I0925 22:48:36.460023 11245 net.cpp:399] input -> input_sentence
I0925 22:48:36.460031 11275 net.cpp:49] Initializing net from parameters: 
name: "s2vt:features_to_lstm"
state {
  phase: TEST
}
layer {
  name: "input"
  type: "Input"
  top: "frames_fc7"
  top: "cont_sentence"
  top: "input_sentence"
  top: "stage_indicator"
  input_param {
    shape {
      dim: 1
      dim: 4096
    }
    shape {
      dim: 1
      dim: 1
    }
    shape {
      dim: 1
      dim: 1
    }
    shape {
      dim: 1
      dim: 1
    }
  }
}
layer {
  name: "embed_encoder"
  type: "InnerProduct"
  bottom: "frames_fc7"
  top: "embedded_in_frames"
  param {
    lr_mult: 1
    decay_mult: 1
  }
  param {
    lr_mult: 2
    decay_mult: 0
  }
  inner_product_param {
    num_output: 500
    weight_filler {
      type: "xavier"
    }
    bias_filler {
      type: "constant"
      value: 0.2
    }
  }
}
layer {
  name: "reshape_frames"
  type: "Reshape"
  bottom: "embedded_in_frames"
  top: "embedded_input_frames"
  reshape_param {
    shape {
      dim: 1
      dim: 1
      dim: 500
    }
  }
}
layer {
  name: "reshape_stage_indicator"
  type: "Reshape"
  bottom: "stage_indicator"
  top: "reshaped_stage_indicator"
  reshape_param {
    shape {
      dim: 1
      dim: 1
      dim: 1
    }
  }
}
layer {
  name: "embedding"
  type: "Embed"
  bottom: "input_sentence"
  top: "embedded_input_sentence"
  param {
    lr_mult: 1
  }
  embed_param {
    num_output: 500
    input_dim: 46168
    bias_term: false
    weight_filler {
      type: "uniform"
      min: -0.08
      max: 0.08
    }
  }
}
layer {
  name: "lstm1"
  type: "LSTM"
  bottom: "embedded_input_frames"
  bottom: "cont_sentence"
  top: "lstm1"
  recurrent_param {
    num_output: 1000
    weight_filler {
      type: "uniform"
      min: -0.08
      max: 0.08
    }
    bias_filler {
      type: "constant"
      value: 0
    }
  }
}
layer {
  name: "concat"
  type: "Concat"
  bottom: "lstm1"
  bottom: "embedded_input_sentence"
  bottom: "reshaped_stage_indicator"
  top: "lstm1_video_sequence"
  concat_param {
    concat_dim: 2
  }
}
layer {
  name: "lstm2"
  type: "LSTM"
  bottom: "lstm1_video_sequence"
  bottom: "cont_sentence"
  top: "lstm2"
  recurrent_param {
    num_output: 1000
    weight_filler {
      type: "uniform"
      min: -0.08
      max: 0.08
    }
    bias_filler {
      type: "constant"
      value: 0
    }
  }
}
layer {
  name: "predict"
  type: "InnerProduct"
  bottom: "lstm2"
  top: "predict"
  param {
    lr_mult: 1
    decay_mult: 1
  }
  param {
    lr_mult: 2
    decay_mult: 0
  }
  inner_product_param {
    num_output: 46168
    weight_filler {
      type: "uniform"
      min: -0.08
      max: 0.08
    }
    bias_filler {
      type: "constant"
      value: 0
    }
    axis: 2
  }
}
layer {
  name: "probs"
  type: "Softmax"
  bottom: "predict"
  top: "probs"
  softmax_param {
    axis: 2
  }
}
I0925 22:48:36.460036 11227 net.cpp:399] input -> stage_indicator
I0925 22:48:36.460042 11245 net.cpp:399] input -> stage_indicator
I0925 22:48:36.460155 11275 layer_factory.hpp:77] Creating layer input
I0925 22:48:36.460162 11231 net.cpp:49] Initializing net from parameters: 
name: "s2vt:features_to_lstm"
state {
  phase: TEST
}
layer {
  name: "input"
  type: "Input"
  top: "frames_fc7"
  top: "cont_sentence"
  top: "input_sentence"
  top: "stage_indicator"
  input_param {
    shape {
      dim: 1
      dim: 4096
    }
    shape {
      dim: 1
      dim: 1
    }
    shape {
      dim: 1
      dim: 1
    }
    shape {
      dim: 1
      dim: 1
    }
  }
}
layer {
  name: "embed_encoder"
  type: "InnerProduct"
  bottom: "frames_fc7"
  top: "embedded_in_frames"
  param {
    lr_mult: 1
    decay_mult: 1
  }
  param {
    lr_mult: 2
    decay_mult: 0
  }
  inner_product_param {
    num_output: 500
    weight_filler {
      type: "xavier"
    }
    bias_filler {
      type: "constant"
      value: 0.2
    }
  }
}
layer {
  name: "reshape_frames"
  type: "Reshape"
  bottom: "embedded_in_frames"
  top: "embedded_input_frames"
  reshape_param {
    shape {
      dim: 1
      dim: 1
      dim: 500
    }
  }
}
layer {
  name: "reshape_stage_indicator"
  type: "Reshape"
  bottom: "stage_indicator"
  top: "reshaped_stage_indicator"
  reshape_param {
    shape {
      dim: 1
      dim: 1
      dim: 1
    }
  }
}
layer {
  name: "embedding"
  type: "Embed"
  bottom: "input_sentence"
  top: "embedded_input_sentence"
  param {
    lr_mult: 1
  }
  embed_param {
    num_output: 500
    input_dim: 46168
    bias_term: false
    weight_filler {
      type: "uniform"
      min: -0.08
      max: 0.08
    }
  }
}
layer {
  name: "lstm1"
  type: "LSTM"
  bottom: "embedded_input_frames"
  bottom: "cont_sentence"
  top: "lstm1"
  recurrent_param {
    num_output: 1000
    weight_filler {
      type: "uniform"
      min: -0.08
      max: 0.08
    }
    bias_filler {
      type: "constant"
      value: 0
    }
  }
}
layer {
  name: "concat"
  type: "Concat"
  bottom: "lstm1"
  bottom: "embedded_input_sentence"
  bottom: "reshaped_stage_indicator"
  top: "lstm1_video_sequence"
  concat_param {
    concat_dim: 2
  }
}
layer {
  name: "lstm2"
  type: "LSTM"
  bottom: "lstm1_video_sequence"
  bottom: "cont_sentence"
  top: "lstm2"
  recurrent_param {
    num_output: 1000
    weight_filler {
      type: "uniform"
      min: -0.08
      max: 0.08
    }
    bias_filler {
      type: "constant"
      value: 0
    }
  }
}
layer {
  name: "predict"
  type: "InnerProduct"
  bottom: "lstm2"
  top: "predict"
  param {
    lr_mult: 1
    decay_mult: 1
  }
  param {
    lr_mult: 2
    decay_mult: 0
  }
  inner_product_param {
    num_output: 46168
    weight_filler {
      type: "uniform"
      min: -0.08
      max: 0.08
    }
    bias_filler {
      type: "constant"
      value: 0
    }
    axis: 2
  }
}
layer {
  name: "probs"
  type: "Softmax"
  bottom: "predict"
  top: "probs"
  softmax_param {
    axis: 2
  }
}
I0925 22:48:36.460176 11275 net.cpp:91] Creating Layer input
I0925 22:48:36.460191 11275 net.cpp:399] input -> frames_fc7
I0925 22:48:36.460211 11275 net.cpp:399] input -> cont_sentence
I0925 22:48:36.460228 11275 net.cpp:399] input -> input_sentence
I0925 22:48:36.460244 11275 net.cpp:399] input -> stage_indicator
I0925 22:48:36.460261 11231 layer_factory.hpp:77] Creating layer input
…
I0925 22:48:36.460779 11233 upgrade_proto.cpp:66] Attempting to upgrade input file specified using deprecated input fields: /home/peifeng/work/run/storm102/data/workers/5e3bbecf-cc21-4d5b-89de-ff421a292682/tmp/cvld1555259143110733153/s2vt.words_to_preds.prototxt
I0925 22:48:36.460798 11265 net.cpp:49] Initializing net from parameters: 
name: "s2vt:features_to_lstm"
state {
  phase: TEST
}
layer {
  name: "input"
  type: "Input"
  top: "frames_fc7"
  top: "cont_sentence"
  top: "input_sentence"
  top: "stage_indicator"
  input_param {
    shape {
      dim: 1
      dim: 4096
    }
    shape {
      dim: 1
      dim: 1
    }
    shape {
      dim: 1
      dim: 1
    }
    shape {
      dim: 1
      dim: 1
    }
  }
}
layer {
  name: "embed_encoder"
  type: "InnerProduct"
  bottom: "frames_fc7"
  top: "embedded_in_frames"
  param {
    lr_mult: 1
    decay_mult: 1
  }
  param {
    lr_mult: 2
    decay_mult: 0
  }
  inner_product_param {
    num_output: 500
    weight_filler {
      type: "xavier"
    }
    bias_filler {
      type: "constant"
      value: 0.2
    }
  }
}
layer {
  name: "reshape_frames"
  type: "Reshape"
  bottom: "embedded_in_frames"
  top: "embedded_input_frames"
  reshape_param {
    shape {
      dim: 1
      dim: 1
      dim: 500
    }
  }
}
layer {
  name: "reshape_stage_indicator"
  type: "Reshape"
  bottom: "stage_indicator"
  top: "reshaped_stage_indicator"
  reshape_param {
    shape {
      dim: 1
      dim: 1
      dim: 1
    }
  }
}
layer {
  name: "embedding"
  type: "Embed"
  bottom: "input_sentence"
  top: "embedded_input_sentence"
  param {
    lr_mult: 1
  }
  embed_param {
    num_output: 500
    input_dim: 46168
    bias_term: false
    weight_filler {
      type: "uniform"
      min: -0.08
      max: 0.08
    }
  }
}
layer {
  name: "lstm1"
  type: "LSTM"
  bottom: "embedded_input_frames"
  bottom: "cont_sentence"
  top: "lstm1"
  recurrent_param {
    num_output: 1000
    weight_filler {
      type: "uniform"
      min: -0.08
      max: 0.08
    }
    bias_filler {
      type: "constant"
      value: 0
    }
  }
}
layer {
  name: "concat"
  type: "Concat"
  bottom: "lstm1"
  bottom: "embedded_input_sentence"
  bottom: "reshaped_stage_indicator"
  top: "lstm1_video_sequence"
  concat_param {
    concat_dim: 2
  }
}
layer {
  name: "lstm2"
  type: "LSTM"
  bottom: "lstm1_video_sequence"
  bottom: "cont_sentence"
  top: "lstm2"
  recurrent_param {
    num_output: 1000
    weight_filler {
      type: "uniform"
      min: -0.08
      max: 0.08
    }
    bias_filler {
      type: "constant"
      value: 0
    }
  }
}
layer {
  name: "predict"
  type: "InnerProduct"
  bottom: "lstm2"
  top: "predict"
  param {
    lr_mult: 1
    decay_mult: 1
  }
  param {
    lr_mult: 2
    decay_mult: 0
  }
  inner_product_param {
    num_output: 46168
    weight_filler {
      type: "uniform"
      min: -0.08
      max: 0.08
    }
    bias_filler {
      type: "constant"
      value: 0
    }
    axis: 2
  }
}
layer {
  name: "probs"
  type: "Softmax"
  bottom: "predict"
  top: "probs"
  softmax_param {
    axis: 2
  }
}
I0925 22:48:36.460803 11233 upgrade_proto.cpp:69] Successfully upgraded file specified using deprecated input fields.
W0925 22:48:36.460829 11233 upgrade_proto.cpp:71] Note that future Caffe releases will only support input layers and not input fields.
I0925 22:48:36.460927 11265 layer_factory.hpp:77] Creating layer input
I0925 22:48:36.460947 11265 net.cpp:91] Creating Layer input
…
I0925 22:48:36.461103 11249 net.cpp:399] input -> input_sentence
I0925 22:48:36.461122 11249 net.cpp:399] input -> stage_indicator
I0925 22:48:36.461136 11233 net.cpp:49] Initializing net from parameters: 
name: "s2vt:features_to_lstm"
state {
  phase: TEST
}
layer {
  name: "input"
  type: "Input"
  top: "frames_fc7"
  top: "cont_sentence"
  top: "input_sentence"
  top: "stage_indicator"
  input_param {
    shape {
      dim: 1
      dim: 4096
    }
    shape {
      dim: 1
      dim: 1
    }
    shape {
      dim: 1
      dim: 1
    }
    shape {
      dim: 1
      dim: 1
    }
  }
}
layer {
  name: "embed_encoder"
  type: "InnerProduct"
  bottom: "frames_fc7"
  top: "embedded_in_frames"
  param {
    lr_mult: 1
    decay_mult: 1
  }
  param {
    lr_mult: 2
    decay_mult: 0
  }
  inner_product_param {
    num_output: 500
    weight_filler {
      type: "xavier"
    }
    bias_filler {
      type: "constant"
      value: 0.2
    }
  }
}
layer {
  name: "reshape_frames"
  type: "Reshape"
  bottom: "embedded_in_frames"
  top: "embedded_input_frames"
  reshape_param {
    shape {
      dim: 1
      dim: 1
      dim: 500
    }
  }
}
layer {
  name: "reshape_stage_indicator"
  type: "Reshape"
  bottom: "stage_indicator"
  top: "reshaped_stage_indicator"
  reshape_param {
    shape {
      dim: 1
      dim: 1
      dim: 1
    }
  }
}
layer {
  name: "embedding"
  type: "Embed"
  bottom: "input_sentence"
  top: "embedded_input_sentence"
  param {
    lr_mult: 1
  }
  embed_param {
    num_output: 500
    input_dim: 46168
    bias_term: false
    weight_filler {
      type: "uniform"
      min: -0.08
      max: 0.08
    }
  }
}
layer {
  name: "lstm1"
  type: "LSTM"
  bottom: "embedded_input_frames"
  bottom: "cont_sentence"
  top: "lstm1"
  recurrent_param {
    num_output: 1000
    weight_filler {
      type: "uniform"
      min: -0.08
      max: 0.08
    }
    bias_filler {
      type: "constant"
      value: 0
    }
  }
}
layer {
  name: "concat"
  type: "Concat"
  bottom: "lstm1"
  bottom: "embedded_input_sentence"
  bottom: "reshaped_stage_indicator"
  top: "lstm1_video_sequence"
  concat_param {
    concat_dim: 2
  }
}
layer {
  name: "lstm2"
  type: "LSTM"
  bottom: "lstm1_video_sequence"
  bottom: "cont_sentence"
  top: "lstm2"
  recurrent_param {
    num_output: 1000
    weight_filler {
      type: "uniform"
      min: -0.08
      max: 0.08
    }
    bias_filler {
      type: "constant"
      value: 0
    }
  }
}
layer {
  name: "predict"
  type: "InnerProduct"
  bottom: "lstm2"
  top: "predict"
  param {
    lr_mult: 1
    decay_mult: 1
  }
  param {
    lr_mult: 2
    decay_mult: 0
  }
  inner_product_param {
    num_output: 46168
    weight_filler {
      type: "uniform"
      min: -0.08
      max: 0.08
    }
    bias_filler {
      type: "constant"
      value: 0
    }
    axis: 2
  }
}
layer {
  name: "probs"
  type: "Softmax"
  bottom: "predict"
  top: "probs"
  softmax_param {
    axis: 2
  }
}
I0925 22:48:36.461267 11233 layer_factory.hpp:77] Creating layer input
I0925 22:48:36.461288 11233 net.cpp:91] Creating Layer input
I0925 22:48:36.461302 11233 net.cpp:399] input -> frames_fc7
I0925 22:48:36.461321 11233 net.cpp:399] input -> cont_sentence
I0925 22:48:36.461343 11233 net.cpp:399] input -> input_sentence
I0925 22:48:36.461361 11233 net.cpp:399] input -> stage_indicator
I0925 22:48:36.459167 11237 upgrade_proto.cpp:66] Attempting to upgrade input file specified using deprecated input fields: /home/peifeng/work/run/storm102/data/workers/5e3bbecf-cc21-4d5b-89de-ff421a292682/tmp/cvld1555259143110733153/s2vt.words_to_preds.prototxt
I0925 22:48:36.461406 11237 upgrade_proto.cpp:69] Successfully upgraded file specified using deprecated input fields.
W0925 22:48:36.461416 11237 upgrade_proto.cpp:71] Note that future Caffe releases will only support input layers and not input fields.
I0925 22:48:36.461720 11237 net.cpp:49] Initializing net from parameters: 
name: "s2vt:features_to_lstm"
state {
  phase: TEST
}
layer {
  name: "input"
  type: "Input"
  top: "frames_fc7"
  top: "cont_sentence"
  top: "input_sentence"
  top: "stage_indicator"
  input_param {
    shape {
      dim: 1
      dim: 4096
    }
    shape {
      dim: 1
      dim: 1
    }
    shape {
      dim: 1
      dim: 1
    }
    shape {
      dim: 1
      dim: 1
    }
  }
}
layer {
  name: "embed_encoder"
  type: "InnerProduct"
  bottom: "frames_fc7"
  top: "embedded_in_frames"
  param {
    lr_mult: 1
    decay_mult: 1
  }
  param {
    lr_mult: 2
    decay_mult: 0
  }
  inner_product_param {
    num_output: 500
    weight_filler {
      type: "xavier"
    }
    bias_filler {
      type: "constant"
      value: 0.2
    }
  }
}
layer {
  name: "reshape_frames"
  type: "Reshape"
  bottom: "embedded_in_frames"
  top: "embedded_input_frames"
  reshape_param {
    shape {
      dim: 1
      dim: 1
      dim: 500
    }
  }
}
layer {
  name: "reshape_stage_indicator"
  type: "Reshape"
  bottom: "stage_indicator"
  top: "reshaped_stage_indicator"
  reshape_param {
    shape {
      dim: 1
      dim: 1
      dim: 1
    }
  }
}
layer {
  name: "embedding"
  type: "Embed"
  bottom: "input_sentence"
  top: "embedded_input_sentence"
  param {
    lr_mult: 1
  }
  embed_param {
    num_output: 500
    input_dim: 46168
    bias_term: false
    weight_filler {
      type: "uniform"
      min: -0.08
      max: 0.08
    }
  }
}
layer {
  name: "lstm1"
  type: "LSTM"
  bottom: "embedded_input_frames"
  bottom: "cont_sentence"
  top: "lstm1"
  recurrent_param {
    num_output: 1000
    weight_filler {
      type: "uniform"
      min: -0.08
      max: 0.08
    }
    bias_filler {
      type: "constant"
      value: 0
    }
  }
}
layer {
  name: "concat"
  type: "Concat"
  bottom: "lstm1"
  bottom: "embedded_input_sentence"
  bottom: "reshaped_stage_indicator"
  top: "lstm1_video_sequence"
  concat_param {
    concat_dim: 2
  }
}
layer {
  name: "lstm2"
  type: "LSTM"
  bottom: "lstm1_video_sequence"
  bottom: "cont_sentence"
  top: "lstm2"
  recurrent_param {
    num_output: 1000
    weight_filler {
      type: "uniform"
      min: -0.08
      max: 0.08
    }
    bias_filler {
      type: "constant"
      value: 0
    }
  }
}
layer {
  name: "predict"
  type: "InnerProduct"
  bottom: "lstm2"
  top: "predict"
  param {
    lr_mult: 1
    decay_mult: 1
  }
  param {
    lr_mult: 2
    decay_mult: 0
  }
  inner_product_param {
    num_output: 46168
    weight_filler {
      type: "uniform"
      min: -0.08
      max: 0.08
    }
    bias_filler {
      type: "constant"
      value: 0
    }
    axis: 2
  }
}
layer {
  name: "probs"
  type: "Softmax"
  bottom: "predict"
  top: "probs"
  softmax_param {
    axis: 2
  }
}
I0925 22:48:36.461832 11237 layer_factory.hpp:77] Creating layer input
I0925 22:48:36.461850 11237 net.cpp:91] Creating Layer input
I0925 22:48:36.461864 11237 net.cpp:399] input -> frames_fc7
I0925 22:48:36.461884 11237 net.cpp:399] input -> cont_sentence
I0925 22:48:36.461902 11237 net.cpp:399] input -> input_sentence
I0925 22:48:36.461920 11237 net.cpp:399] input -> stage_indicator
I0925 22:48:36.463029 11267 net.cpp:49] Initializing net from parameters: 
name: "CaffeNet"
state {
  phase: TEST
}
layer {
  name: "data"
  type: "Input"
  top: "data"
  input_param {
    shape {
      dim: 10
      dim: 3
      dim: 227
      dim: 227
    }
  }
}
layer {
  name: "conv1"
  type: "Convolution"
  bottom: "data"
  top: "conv1"
  convolution_param {
    num_output: 96
    kernel_size: 11
    stride: 4
  }
}
layer {
  name: "relu1"
  type: "ReLU"
  bottom: "conv1"
  top: "conv1"
}
layer {
  name: "pool1"
  type: "Pooling"
  bottom: "conv1"
  top: "pool1"
  pooling_param {
    pool: MAX
    kernel_size: 3
    stride: 2
  }
}
layer {
  name: "norm1"
  type: "LRN"
  bottom: "pool1"
  top: "norm1"
  lrn_param {
    local_size: 5
    alpha: 0.0001
    beta: 0.75
  }
}
layer {
  name: "conv2"
  type: "Convolution"
  bottom: "norm1"
  top: "conv2"
  convolution_param {
    num_output: 256
    pad: 2
    kernel_size: 5
    group: 2
  }
}
layer {
  name: "relu2"
  type: "ReLU"
  bottom: "conv2"
  top: "conv2"
}
layer {
  name: "pool2"
  type: "Pooling"
  bottom: "conv2"
  top: "pool2"
  pooling_param {
    pool: MAX
    kernel_size: 3
    stride: 2
  }
}
layer {
  name: "norm2"
  type: "LRN"
  bottom: "pool2"
  top: "norm2"
  lrn_param {
    local_size: 5
    alpha: 0.0001
    beta: 0.75
  }
}
layer {
  name: "conv3"
  type: "Convolution"
  bottom: "norm2"
  top: "conv3"
  convolution_param {
    num_output: 384
    pad: 1
    kernel_size: 3
  }
}
layer {
  name: "relu3"
  type: "ReLU"
  bottom: "conv3"
  top: "conv3"
}
layer {
  name: "conv4"
  type: "Convolution"
  bottom: "conv3"
  top: "conv4"
  convolution_param {
    num_output: 384
    pad: 1
    kernel_size: 3
    group: 2
  }
}
layer {
  name: "relu4"
  type: "ReLU"
  bottom: "conv4"
  top: "conv4"
}
layer {
  name: "conv5"
  type: "Convolution"
  bottom: "conv4"
  top: "conv5"
  convolution_param {
    num_output: 256
    pad: 1
    kernel_size: 3
    group: 2
  }
}
layer {
  name: "relu5"
  type: "ReLU"
  bottom: "conv5"
  top: "conv5"
}
layer {
  name: "pool5"
  type: "Pooling"
  bottom: "conv5"
  top: "pool5"
  pooling_param {
    pool: MAX
    kernel_size: 3
    stride: 2
  }
}
layer {
  name: "fc6"
  type: "InnerProduct"
  bottom: "pool5"
  top: "fc6"
  inner_product_param {
    num_output: 4096
  }
}
layer {
  name: "relu6"
  type: "ReLU"
  bottom: "fc6"
  top: "fc6"
}
layer {
  name: "drop6"
  type: "Dropout"
  bottom: "fc6"
  top: "fc6"
  dropout_param {
    dropout_ratio: 0.5
  }
}
layer {
  name: "fc7"
  type: "InnerProduct"
  bottom: "fc6"
  top: "fc7"
  inner_product_param {
    num_output: 4096
  }
}
layer {
  name: "relu7"
  type: "ReLU"
  bottom: "fc7"
  top: "fc7"
}
layer {
  name: "drop7"
  type: "Dropout"
  bottom: "fc7"
  top: "fc7"
  dropout_param {
    dropout_ratio: 0.5
  }
}
layer {
  name: "fc8"
  type: "InnerProduct"
  bottom: "fc7"
  top: "fc8"
  inner_product_param {
    num_output: 1000
  }
}
layer {
  name: "prob"
  type: "Softmax"
  bottom: "fc8"
  top: "prob"
}
I0925 22:48:36.463178 11267 layer_factory.hpp:77] Creating layer data
I0925 22:48:36.463196 11267 net.cpp:91] Creating Layer data
I0925 22:48:36.463207 11267 net.cpp:399] data -> data
I0925 22:48:39.086946 11237 net.cpp:141] Setting up input
I0925 22:48:39.087124 11237 net.cpp:148] Top shape: 1 4096 (4096)
I0925 22:48:39.087124 11233 net.cpp:141] Setting up input
I0925 22:48:39.087146 11237 net.cpp:148] Top shape: 1 1 (1)
I0925 22:48:39.087157 11233 net.cpp:148] Top shape: 1 4096 (4096)
I0925 22:48:39.087160 11237 net.cpp:148] Top shape: 1 1 (1)
I0925 22:48:39.087169 11233 net.cpp:148] Top shape: 1 1 (1)
I0925 22:48:39.087173 11237 net.cpp:148] Top shape: 1 1 (1)
I0925 22:48:39.087177 11233 net.cpp:148] Top shape: 1 1 (1)
I0925 22:48:39.087185 11233 net.cpp:148] Top shape: 1 1 (1)
I0925 22:48:39.087184 11237 net.cpp:156] Memory required for data: 16396
I0925 22:48:39.087190 11233 net.cpp:156] Memory required for data: 16396
I0925 22:48:39.087254 11233 layer_factory.hpp:77] Creating layer cont_sentence_input_1_split
I0925 22:48:39.087257 11237 layer_factory.hpp:77] Creating layer cont_sentence_input_1_split
I0925 22:48:39.087296 11233 net.cpp:91] Creating Layer cont_sentence_input_1_split
I0925 22:48:39.086976 11275 net.cpp:141] Setting up input
I0925 22:48:39.087298 11237 net.cpp:91] Creating Layer cont_sentence_input_1_split
I0925 22:48:39.087319 11275 net.cpp:148] Top shape: 1 4096 (4096)
I0925 22:48:39.087328 11237 net.cpp:425] cont_sentence_input_1_split <- cont_sentence
I0925 22:48:39.087332 11275 net.cpp:148] Top shape: 1 1 (1)
I0925 22:48:39.087344 11233 net.cpp:425] cont_sentence_input_1_split <- cont_sentence
I0925 22:48:39.087355 11275 net.cpp:148] Top shape: 1 1 (1)
I0925 22:48:39.087368 11275 net.cpp:148] Top shape: 1 1 (1)
I0925 22:48:39.087370 11233 net.cpp:399] cont_sentence_input_1_split -> cont_sentence_input_1_split_0
I0925 22:48:39.087373 11237 net.cpp:399] cont_sentence_input_1_split -> cont_sentence_input_1_split_0
I0925 22:48:39.087378 11275 net.cpp:156] Memory required for data: 16396
I0925 22:48:39.087395 11233 net.cpp:399] cont_sentence_input_1_split -> cont_sentence_input_1_split_1
I0925 22:48:39.087398 11275 layer_factory.hpp:77] Creating layer cont_sentence_input_1_split
I0925 22:48:39.087400 11237 net.cpp:399] cont_sentence_input_1_split -> cont_sentence_input_1_split_1
I0925 22:48:39.087419 11267 net.cpp:141] Setting up data
I0925 22:48:39.087431 11275 net.cpp:91] Creating Layer cont_sentence_input_1_split
I0925 22:48:39.087465 11275 net.cpp:425] cont_sentence_input_1_split <- cont_sentence
I0925 22:48:39.087469 11267 net.cpp:148] Top shape: 10 3 227 227 (1545870)
I0925 22:48:39.087476 11275 net.cpp:399] cont_sentence_input_1_split -> cont_sentence_input_1_split_0
I0925 22:48:39.087482 11267 net.cpp:156] Memory required for data: 6183480
I0925 22:48:39.087488 11275 net.cpp:399] cont_sentence_input_1_split -> cont_sentence_input_1_split_1
I0925 22:48:39.087501 11267 layer_factory.hpp:77] Creating layer conv1
I0925 22:48:39.087513 11227 net.cpp:141] Setting up input
I0925 22:48:39.087532 11227 net.cpp:148] Top shape: 1 4096 (4096)
I0925 22:48:39.087543 11227 net.cpp:148] Top shape: 1 1 (1)
I0925 22:48:39.087554 11227 net.cpp:148] Top shape: 1 1 (1)
I0925 22:48:39.087558 11267 net.cpp:91] Creating Layer conv1
I0925 22:48:39.087571 11267 net.cpp:425] conv1 <- data
I0925 22:48:39.087566 11227 net.cpp:148] Top shape: 1 1 (1)
I0925 22:48:39.087566 11275 net.cpp:141] Setting up cont_sentence_input_1_split
I0925 22:48:39.087584 11227 net.cpp:156] Memory required for data: 16396
I0925 22:48:39.087590 11275 net.cpp:148] Top shape: 1 1 (1)
I0925 22:48:39.087594 11267 net.cpp:399] conv1 -> conv1
I0925 22:48:39.087599 11227 layer_factory.hpp:77] Creating layer cont_sentence_input_1_split
I0925 22:48:39.087601 11275 net.cpp:148] Top shape: 1 1 (1)
I0925 22:48:39.087621 11275 net.cpp:156] Memory required for data: 16404
I0925 22:48:39.087626 11227 net.cpp:91] Creating Layer cont_sentence_input_1_split
I0925 22:48:39.087630 11275 layer_factory.hpp:77] Creating layer embed_encoder
I0925 22:48:39.087635 11227 net.cpp:425] cont_sentence_input_1_split <- cont_sentence
I0925 22:48:39.087644 11227 net.cpp:399] cont_sentence_input_1_split -> cont_sentence_input_1_split_0
I0925 22:48:39.087659 11227 net.cpp:399] cont_sentence_input_1_split -> cont_sentence_input_1_split_1
I0925 22:48:39.087666 11275 net.cpp:91] Creating Layer embed_encoder
I0925 22:48:39.087676 11275 net.cpp:425] embed_encoder <- frames_fc7
I0925 22:48:39.087688 11275 net.cpp:399] embed_encoder -> embedded_in_frames
I0925 22:48:39.087841 11249 net.cpp:141] Setting up input
I0925 22:48:39.087857 11249 net.cpp:148] Top shape: 1 4096 (4096)
I0925 22:48:39.087864 11249 net.cpp:148] Top shape: 1 1 (1)
I0925 22:48:39.087867 11233 net.cpp:141] Setting up cont_sentence_input_1_split
I0925 22:48:39.087872 11249 net.cpp:148] Top shape: 1 1 (1)
I0925 22:48:39.087887 11233 net.cpp:148] Top shape: 1 1 (1)
I0925 22:48:39.087889 11249 net.cpp:148] Top shape: 1 1 (1)
I0925 22:48:39.087894 11233 net.cpp:148] Top shape: 1 1 (1)
I0925 22:48:39.087895 11249 net.cpp:156] Memory required for data: 16396
I0925 22:48:39.087903 11233 net.cpp:156] Memory required for data: 16404
I0925 22:48:39.087910 11249 layer_factory.hpp:77] Creating layer cont_sentence_input_1_split
I0925 22:48:39.087913 11233 layer_factory.hpp:77] Creating layer embed_encoder
I0925 22:48:39.087929 11249 net.cpp:91] Creating Layer cont_sentence_input_1_split
I0925 22:48:39.087935 11249 net.cpp:425] cont_sentence_input_1_split <- cont_sentence
I0925 22:48:39.087935 11233 net.cpp:91] Creating Layer embed_encoder
I0925 22:48:39.087950 11249 net.cpp:399] cont_sentence_input_1_split -> cont_sentence_input_1_split_0
I0925 22:48:39.087950 11233 net.cpp:425] embed_encoder <- frames_fc7
I0925 22:48:39.087962 11249 net.cpp:399] cont_sentence_input_1_split -> cont_sentence_input_1_split_1
I0925 22:48:39.087970 11233 net.cpp:399] embed_encoder -> embedded_in_frames
I0925 22:48:39.088011 11237 net.cpp:141] Setting up cont_sentence_input_1_split
I0925 22:48:39.088027 11237 net.cpp:148] Top shape: 1 1 (1)
I0925 22:48:39.088034 11237 net.cpp:148] Top shape: 1 1 (1)
I0925 22:48:39.088039 11237 net.cpp:156] Memory required for data: 16404
I0925 22:48:39.088045 11237 layer_factory.hpp:77] Creating layer embed_encoder
I0925 22:48:39.088059 11237 net.cpp:91] Creating Layer embed_encoder
I0925 22:48:39.088069 11237 net.cpp:425] embed_encoder <- frames_fc7
I0925 22:48:39.088070 11227 net.cpp:141] Setting up cont_sentence_input_1_split
I0925 22:48:39.088085 11227 net.cpp:148] Top shape: 1 1 (1)
I0925 22:48:39.088088 11237 net.cpp:399] embed_encoder -> embedded_in_frames
I0925 22:48:39.088093 11227 net.cpp:148] Top shape: 1 1 (1)
I0925 22:48:39.088107 11227 net.cpp:156] Memory required for data: 16404
I0925 22:48:39.088114 11227 layer_factory.hpp:77] Creating layer embed_encoder
I0925 22:48:39.088129 11227 net.cpp:91] Creating Layer embed_encoder
I0925 22:48:39.088136 11227 net.cpp:425] embed_encoder <- frames_fc7
I0925 22:48:39.088145 11227 net.cpp:399] embed_encoder -> embedded_in_frames
I0925 22:48:39.088183 11231 net.cpp:141] Setting up input
I0925 22:48:39.088212 11231 net.cpp:148] Top shape: 1 4096 (4096)
I0925 22:48:39.088227 11231 net.cpp:148] Top shape: 1 1 (1)
I0925 22:48:39.088225 11265 net.cpp:141] Setting up input
I0925 22:48:39.088240 11231 net.cpp:148] Top shape: 1 1 (1)
I0925 22:48:39.088255 11265 net.cpp:148] Top shape: 1 4096 (4096)
I0925 22:48:39.088280 11265 net.cpp:148] Top shape: 1 1 (1)
I0925 22:48:39.088292 11265 net.cpp:148] Top shape: 1 1 (1)
I0925 22:48:39.088304 11265 net.cpp:148] Top shape: 1 1 (1)
I0925 22:48:39.088312 11265 net.cpp:156] Memory required for data: 16396
I0925 22:48:39.088325 11265 layer_factory.hpp:77] Creating layer cont_sentence_input_1_split
I0925 22:48:39.088343 11265 net.cpp:91] Creating Layer cont_sentence_input_1_split
I0925 22:48:39.088354 11265 net.cpp:425] cont_sentence_input_1_split <- cont_sentence
I0925 22:48:39.088364 11265 net.cpp:399] cont_sentence_input_1_split -> cont_sentence_input_1_split_0
I0925 22:48:39.088376 11265 net.cpp:399] cont_sentence_input_1_split -> cont_sentence_input_1_split_1
I0925 22:48:39.088255 11231 net.cpp:148] Top shape: 1 1 (1)
I0925 22:48:39.088408 11231 net.cpp:156] Memory required for data: 16396
I0925 22:48:39.088416 11245 net.cpp:141] Setting up input
I0925 22:48:39.088454 11245 net.cpp:148] Top shape: 1 4096 (4096)
I0925 22:48:39.088428 11231 layer_factory.hpp:77] Creating layer cont_sentence_input_1_split
I0925 22:48:39.088472 11245 net.cpp:148] Top shape: 1 1 (1)
I0925 22:48:39.088487 11245 net.cpp:148] Top shape: 1 1 (1)
I0925 22:48:39.088491 11231 net.cpp:91] Creating Layer cont_sentence_input_1_split
I0925 22:48:39.088502 11245 net.cpp:148] Top shape: 1 1 (1)
I0925 22:48:39.088507 11231 net.cpp:425] cont_sentence_input_1_split <- cont_sentence
I0925 22:48:39.088515 11245 net.cpp:156] Memory required for data: 16396
I0925 22:48:39.088524 11231 net.cpp:399] cont_sentence_input_1_split -> cont_sentence_input_1_split_0
I0925 22:48:39.088526 11245 layer_factory.hpp:77] Creating layer cont_sentence_input_1_split
I0925 22:48:39.088548 11231 net.cpp:399] cont_sentence_input_1_split -> cont_sentence_input_1_split_1
I0925 22:48:39.088557 11245 net.cpp:91] Creating Layer cont_sentence_input_1_split
I0925 22:48:39.088572 11245 net.cpp:425] cont_sentence_input_1_split <- cont_sentence
I0925 22:48:39.088589 11245 net.cpp:399] cont_sentence_input_1_split -> cont_sentence_input_1_split_0
I0925 22:48:39.088613 11245 net.cpp:399] cont_sentence_input_1_split -> cont_sentence_input_1_split_1
I0925 22:48:39.097105 11249 net.cpp:141] Setting up cont_sentence_input_1_split
I0925 22:48:39.097228 11249 net.cpp:148] Top shape: 1 1 (1)
I0925 22:48:39.097249 11249 net.cpp:148] Top shape: 1 1 (1)
I0925 22:48:39.097259 11249 net.cpp:156] Memory required for data: 16404
I0925 22:48:39.097275 11249 layer_factory.hpp:77] Creating layer embed_encoder
I0925 22:48:39.097308 11249 net.cpp:91] Creating Layer embed_encoder
I0925 22:48:39.097323 11249 net.cpp:425] embed_encoder <- frames_fc7
I0925 22:48:39.100961 11249 net.cpp:399] embed_encoder -> embedded_in_frames
I0925 22:48:39.101866 11231 net.cpp:141] Setting up cont_sentence_input_1_split
I0925 22:48:39.101915 11231 net.cpp:148] Top shape: 1 1 (1)
I0925 22:48:39.101925 11231 net.cpp:148] Top shape: 1 1 (1)
I0925 22:48:39.101932 11231 net.cpp:156] Memory required for data: 16404
I0925 22:48:39.101940 11231 layer_factory.hpp:77] Creating layer embed_encoder
I0925 22:48:39.101970 11231 net.cpp:91] Creating Layer embed_encoder
I0925 22:48:39.101979 11231 net.cpp:425] embed_encoder <- frames_fc7
I0925 22:48:39.101992 11231 net.cpp:399] embed_encoder -> embedded_in_frames
I0925 22:48:39.112292 11265 net.cpp:141] Setting up cont_sentence_input_1_split
I0925 22:48:39.112349 11265 net.cpp:148] Top shape: 1 1 (1)
I0925 22:48:39.112362 11265 net.cpp:148] Top shape: 1 1 (1)
I0925 22:48:39.112370 11265 net.cpp:156] Memory required for data: 16404
I0925 22:48:39.112368 11245 net.cpp:141] Setting up cont_sentence_input_1_split
I0925 22:48:39.112385 11265 layer_factory.hpp:77] Creating layer embed_encoder
I0925 22:48:39.112397 11245 net.cpp:148] Top shape: 1 1 (1)
I0925 22:48:39.112408 11245 net.cpp:148] Top shape: 1 1 (1)
I0925 22:48:39.112414 11265 net.cpp:91] Creating Layer embed_encoder
I0925 22:48:39.112416 11245 net.cpp:156] Memory required for data: 16404
I0925 22:48:39.112444 11265 net.cpp:425] embed_encoder <- frames_fc7
I0925 22:48:39.112454 11245 layer_factory.hpp:77] Creating layer embed_encoder
I0925 22:48:39.112468 11265 net.cpp:399] embed_encoder -> embedded_in_frames
I0925 22:48:39.112481 11245 net.cpp:91] Creating Layer embed_encoder
I0925 22:48:39.114698 11245 net.cpp:425] embed_encoder <- frames_fc7
I0925 22:48:39.114729 11245 net.cpp:399] embed_encoder -> embedded_in_frames
I0925 22:48:39.150140 11233 net.cpp:141] Setting up embed_encoder
I0925 22:48:39.150954 11233 net.cpp:148] Top shape: 1 500 (500)
I0925 22:48:39.151243 11233 net.cpp:156] Memory required for data: 18404
I0925 22:48:39.151473 11233 layer_factory.hpp:77] Creating layer reshape_frames
I0925 22:48:39.151690 11233 net.cpp:91] Creating Layer reshape_frames
I0925 22:48:39.151733 11275 net.cpp:141] Setting up embed_encoder
I0925 22:48:39.152016 11233 net.cpp:425] reshape_frames <- embedded_in_frames
I0925 22:48:39.152179 11227 net.cpp:141] Setting up embed_encoder
I0925 22:48:39.152242 11237 net.cpp:141] Setting up embed_encoder
I0925 22:48:39.152359 11227 net.cpp:148] Top shape: 1 500 (500)
I0925 22:48:39.152284 11249 net.cpp:141] Setting up embed_encoder
I0925 22:48:39.152333 11275 net.cpp:148] Top shape: 1 500 (500)
I0925 22:48:39.152374 11227 net.cpp:156] Memory required for data: 18404
I0925 22:48:39.152379 11237 net.cpp:148] Top shape: 1 500 (500)
I0925 22:48:39.152351 11233 net.cpp:399] reshape_frames -> embedded_input_frames
I0925 22:48:39.152390 11249 net.cpp:148] Top shape: 1 500 (500)
I0925 22:48:39.152384 11275 net.cpp:156] Memory required for data: 18404
I0925 22:48:39.152405 11249 net.cpp:156] Memory required for data: 18404
I0925 22:48:39.152401 11227 layer_factory.hpp:77] Creating layer reshape_frames
I0925 22:48:39.152405 11237 net.cpp:156] Memory required for data: 18404
I0925 22:48:39.152426 11275 layer_factory.hpp:77] Creating layer reshape_frames
I0925 22:48:39.152429 11227 net.cpp:91] Creating Layer reshape_frames
…
I0925 22:48:39.152493 11227 net.cpp:399] reshape_frames -> embedded_input_frames
I0925 22:48:39.152503 11275 net.cpp:399] reshape_frames -> embedded_input_frames
I0925 22:48:39.152493 11249 net.cpp:425] reshape_frames <- embedded_in_frames
I0925 22:48:39.152513 11237 net.cpp:91] Creating Layer reshape_frames
I0925 22:48:39.152523 11249 net.cpp:399] reshape_frames -> embedded_input_frames
I0925 22:48:39.152528 11237 net.cpp:425] reshape_frames <- embedded_in_frames
I0925 22:48:39.152546 11237 net.cpp:399] reshape_frames -> embedded_input_frames
I0925 22:48:39.157711 11275 net.cpp:141] Setting up reshape_frames
I0925 22:48:39.157745 11275 net.cpp:148] Top shape: 1 1 500 (500)
I0925 22:48:39.157753 11275 net.cpp:156] Memory required for data: 20404
I0925 22:48:39.157759 11249 net.cpp:141] Setting up reshape_frames
I0925 22:48:39.157764 11275 layer_factory.hpp:77] Creating layer reshape_stage_indicator
I0925 22:48:39.157796 11249 net.cpp:148] Top shape: 1 1 500 (500)
I0925 22:48:39.157806 11249 net.cpp:156] Memory required for data: 20404
I0925 22:48:39.157819 11249 layer_factory.hpp:77] Creating layer reshape_stage_indicator
I0925 22:48:39.157819 11275 net.cpp:91] Creating Layer reshape_stage_indicator
I0925 22:48:39.157835 11275 net.cpp:425] reshape_stage_indicator <- stage_indicator
I0925 22:48:39.157817 11233 net.cpp:141] Setting up reshape_frames
I0925 22:48:39.157855 11249 net.cpp:91] Creating Layer reshape_stage_indicator
I0925 22:48:39.157868 11249 net.cpp:425] reshape_stage_indicator <- stage_indicator
I0925 22:48:39.157855 11275 net.cpp:399] reshape_stage_indicator -> reshaped_stage_indicator
I0925 22:48:39.157877 11237 net.cpp:141] Setting up reshape_frames
I0925 22:48:39.157887 11249 net.cpp:399] reshape_stage_indicator -> reshaped_stage_indicator
I0925 22:48:39.157912 11237 net.cpp:148] Top shape: 1 1 500 (500)
I0925 22:48:39.157922 11227 net.cpp:141] Setting up reshape_frames
I0925 22:48:39.157927 11237 net.cpp:156] Memory required for data: 20404
I0925 22:48:39.157948 11227 net.cpp:148] Top shape: 1 1 500 (500)
I0925 22:48:39.157951 11237 layer_factory.hpp:77] Creating layer reshape_stage_indicator
I0925 22:48:39.157959 11227 net.cpp:156] Memory required for data: 20404
I0925 22:48:39.157973 11227 layer_factory.hpp:77] Creating layer reshape_stage_indicator
I0925 22:48:39.157977 11237 net.cpp:91] Creating Layer reshape_stage_indicator
I0925 22:48:39.157990 11227 net.cpp:91] Creating Layer reshape_stage_indicator
I0925 22:48:39.157991 11237 net.cpp:425] reshape_stage_indicator <- stage_indicator
I0925 22:48:39.158010 11227 net.cpp:425] reshape_stage_indicator <- stage_indicator
I0925 22:48:39.158022 11237 net.cpp:399] reshape_stage_indicator -> reshaped_stage_indicator
I0925 22:48:39.158028 11227 net.cpp:399] reshape_stage_indicator -> reshaped_stage_indicator
I0925 22:48:39.157855 11233 net.cpp:148] Top shape: 1 1 500 (500)
I0925 22:48:39.158077 11233 net.cpp:156] Memory required for data: 20404
I0925 22:48:39.158087 11233 layer_factory.hpp:77] Creating layer reshape_stage_indicator
I0925 22:48:39.158107 11233 net.cpp:91] Creating Layer reshape_stage_indicator
I0925 22:48:39.158116 11237 net.cpp:141] Setting up reshape_stage_indicator
I0925 22:48:39.158123 11233 net.cpp:425] reshape_stage_indicator <- stage_indicator
I0925 22:48:39.158138 11237 net.cpp:148] Top shape: 1 1 1 (1)
I0925 22:48:39.158140 11233 net.cpp:399] reshape_stage_indicator -> reshaped_stage_indicator
I0925 22:48:39.158149 11237 net.cpp:156] Memory required for data: 20408
I0925 22:48:39.158160 11237 layer_factory.hpp:77] Creating layer embedding
I0925 22:48:39.158185 11237 net.cpp:91] Creating Layer embedding
I0925 22:48:39.158196 11237 net.cpp:425] embedding <- input_sentence
I0925 22:48:39.158215 11237 net.cpp:399] embedding -> embedded_input_sentence
I0925 22:48:39.158329 11249 net.cpp:141] Setting up reshape_stage_indicator
I0925 22:48:39.158349 11249 net.cpp:148] Top shape: 1 1 1 (1)
I0925 22:48:39.158356 11249 net.cpp:156] Memory required for data: 20408
I0925 22:48:39.158366 11249 layer_factory.hpp:77] Creating layer embedding
I0925 22:48:39.158382 11249 net.cpp:91] Creating Layer embedding
I0925 22:48:39.158391 11249 net.cpp:425] embedding <- input_sentence
I0925 22:48:39.158409 11249 net.cpp:399] embedding -> embedded_input_sentence
I0925 22:48:39.158473 11231 net.cpp:141] Setting up embed_encoder
I0925 22:48:39.158519 11231 net.cpp:148] Top shape: 1 500 (500)
I0925 22:48:39.158530 11231 net.cpp:156] Memory required for data: 18404
I0925 22:48:39.158561 11231 layer_factory.hpp:77] Creating layer reshape_frames
I0925 22:48:39.158609 11231 net.cpp:91] Creating Layer reshape_frames
I0925 22:48:39.158625 11231 net.cpp:425] reshape_frames <- embedded_in_frames
I0925 22:48:39.158644 11231 net.cpp:399] reshape_frames -> embedded_input_frames
I0925 22:48:39.209426 11275 net.cpp:141] Setting up reshape_stage_indicator
I0925 22:48:39.209444 11227 net.cpp:141] Setting up reshape_stage_indicator
I0925 22:48:39.209509 11275 net.cpp:148] Top shape: 1 1 1 (1)
I0925 22:48:39.209509 11227 net.cpp:148] Top shape: 1 1 1 (1)
I0925 22:48:39.209537 11275 net.cpp:156] Memory required for data: 20408
I0925 22:48:39.209540 11227 net.cpp:156] Memory required for data: 20408
I0925 22:48:39.209553 11275 layer_factory.hpp:77] Creating layer embedding
I0925 22:48:39.209558 11231 net.cpp:141] Setting up reshape_frames
I0925 22:48:39.209553 11227 layer_factory.hpp:77] Creating layer embedding
I0925 22:48:39.209616 11231 net.cpp:148] Top shape: 1 1 500 (500)
I0925 22:48:39.209627 11231 net.cpp:156] Memory required for data: 20404
I0925 22:48:39.209632 11275 net.cpp:91] Creating Layer embedding
I0925 22:48:39.209635 11227 net.cpp:91] Creating Layer embedding
I0925 22:48:39.209640 11231 layer_factory.hpp:77] Creating layer reshape_stage_indicator
I0925 22:48:39.209646 11233 net.cpp:141] Setting up reshape_stage_indicator
I0925 22:48:39.209658 11227 net.cpp:425] embedding <- input_sentence
I0925 22:48:39.209655 11275 net.cpp:425] embedding <- input_sentence
I0925 22:48:39.209683 11233 net.cpp:148] Top shape: 1 1 1 (1)
I0925 22:48:39.209684 11227 net.cpp:399] embedding -> embedded_input_sentence
I0925 22:48:39.209692 11233 net.cpp:156] Memory required for data: 20408
I0925 22:48:39.209697 11275 net.cpp:399] embedding -> embedded_input_sentence
I0925 22:48:39.209691 11231 net.cpp:91] Creating Layer reshape_stage_indicator
I0925 22:48:39.209723 11233 layer_factory.hpp:77] Creating layer embedding
I0925 22:48:39.209756 11231 net.cpp:425] reshape_stage_indicator <- stage_indicator
I0925 22:48:39.209771 11233 net.cpp:91] Creating Layer embedding
I0925 22:48:39.209781 11233 net.cpp:425] embedding <- input_sentence
I0925 22:48:39.209787 11231 net.cpp:399] reshape_stage_indicator -> reshaped_stage_indicator
I0925 22:48:39.209794 11233 net.cpp:399] embedding -> embedded_input_sentence
I0925 22:48:39.261986 11231 net.cpp:141] Setting up reshape_stage_indicator
I0925 22:48:39.262079 11231 net.cpp:148] Top shape: 1 1 1 (1)
I0925 22:48:39.262100 11231 net.cpp:156] Memory required for data: 20408
I0925 22:48:39.262122 11231 layer_factory.hpp:77] Creating layer embedding
I0925 22:48:39.262168 11231 net.cpp:91] Creating Layer embedding
I0925 22:48:39.262190 11231 net.cpp:425] embedding <- input_sentence
I0925 22:48:39.262239 11231 net.cpp:399] embedding -> embedded_input_sentence
I0925 22:48:39.414952 11245 net.cpp:141] Setting up embed_encoder
I0925 22:48:39.415005 11245 net.cpp:148] Top shape: 1 500 (500)
I0925 22:48:39.415014 11245 net.cpp:156] Memory required for data: 18404
I0925 22:48:39.415038 11245 layer_factory.hpp:77] Creating layer reshape_frames
I0925 22:48:39.415035 11265 net.cpp:141] Setting up embed_encoder
I0925 22:48:39.415060 11265 net.cpp:148] Top shape: 1 500 (500)
I0925 22:48:39.415071 11265 net.cpp:156] Memory required for data: 18404
I0925 22:48:39.415082 11245 net.cpp:91] Creating Layer reshape_frames
I0925 22:48:39.415092 11245 net.cpp:425] reshape_frames <- embedded_in_frames
I0925 22:48:39.415096 11265 layer_factory.hpp:77] Creating layer reshape_frames
I0925 22:48:39.415104 11245 net.cpp:399] reshape_frames -> embedded_input_frames
I0925 22:48:39.415117 11265 net.cpp:91] Creating Layer reshape_frames
I0925 22:48:39.415128 11265 net.cpp:425] reshape_frames <- embedded_in_frames
I0925 22:48:39.415144 11265 net.cpp:399] reshape_frames -> embedded_input_frames
I0925 22:48:39.415159 11245 net.cpp:141] Setting up reshape_frames
I0925 22:48:39.415170 11245 net.cpp:148] Top shape: 1 1 500 (500)
I0925 22:48:39.415175 11245 net.cpp:156] Memory required for data: 20404
I0925 22:48:39.415180 11245 layer_factory.hpp:77] Creating layer reshape_stage_indicator
I0925 22:48:39.415192 11245 net.cpp:91] Creating Layer reshape_stage_indicator
I0925 22:48:39.415197 11245 net.cpp:425] reshape_stage_indicator <- stage_indicator
I0925 22:48:39.415211 11245 net.cpp:399] reshape_stage_indicator -> reshaped_stage_indicator
I0925 22:48:39.415215 11265 net.cpp:141] Setting up reshape_frames
I0925 22:48:39.415230 11265 net.cpp:148] Top shape: 1 1 500 (500)
I0925 22:48:39.415237 11265 net.cpp:156] Memory required for data: 20404
I0925 22:48:39.415246 11265 layer_factory.hpp:77] Creating layer reshape_stage_indicator
I0925 22:48:39.415252 11245 net.cpp:141] Setting up reshape_stage_indicator
I0925 22:48:39.415262 11245 net.cpp:148] Top shape: 1 1 1 (1)
I0925 22:48:39.415264 11265 net.cpp:91] Creating Layer reshape_stage_indicator
I0925 22:48:39.415267 11245 net.cpp:156] Memory required for data: 20408
I0925 22:48:39.415276 11245 layer_factory.hpp:77] Creating layer embedding
I0925 22:48:39.415276 11265 net.cpp:425] reshape_stage_indicator <- stage_indicator
I0925 22:48:39.415290 11265 net.cpp:399] reshape_stage_indicator -> reshaped_stage_indicator
I0925 22:48:39.415295 11245 net.cpp:91] Creating Layer embedding
I0925 22:48:39.415302 11245 net.cpp:425] embedding <- input_sentence
I0925 22:48:39.415318 11245 net.cpp:399] embedding -> embedded_input_sentence
I0925 22:48:39.415347 11265 net.cpp:141] Setting up reshape_stage_indicator
I0925 22:48:39.415362 11265 net.cpp:148] Top shape: 1 1 1 (1)
I0925 22:48:39.415370 11265 net.cpp:156] Memory required for data: 20408
I0925 22:48:39.415380 11265 layer_factory.hpp:77] Creating layer embedding
I0925 22:48:39.415398 11265 net.cpp:91] Creating Layer embedding
I0925 22:48:39.415408 11265 net.cpp:425] embedding <- input_sentence
I0925 22:48:39.415423 11265 net.cpp:399] embedding -> embedded_input_sentence
I0925 22:48:39.468555 11237 net.cpp:141] Setting up embedding
I0925 22:48:39.469287 11237 net.cpp:148] Top shape: 1 1 500 (500)
I0925 22:48:39.469548 11237 net.cpp:156] Memory required for data: 22408
I0925 22:48:39.469589 11237 layer_factory.hpp:77] Creating layer lstm1
I0925 22:48:39.469621 11237 net.cpp:91] Creating Layer lstm1
I0925 22:48:39.469635 11237 net.cpp:425] lstm1 <- embedded_input_frames
I0925 22:48:39.469648 11237 net.cpp:425] lstm1 <- cont_sentence_input_1_split_0
I0925 22:48:39.469666 11237 net.cpp:399] lstm1 -> lstm1
I0925 22:48:39.469751 11237 recurrent_layer.cpp:20] Initializing recurrent layer: assuming input batch contains 1 timesteps of 1 independent streams.
I0925 22:48:39.470664 11237 net.cpp:49] Initializing net from parameters: 
layer {
  name: "lstm1_"
  type: "Input"
  top: "x"
  top: "cont"
  input_param {
    shape {
      dim: 1
      dim: 1
      dim: 500
    }
    shape {
      dim: 1
      dim: 1
    }
  }
}
layer {
  name: "lstm1_"
  type: "Input"
  top: "c_0"
  top: "h_0"
  input_param {
    shape {
      dim: 1
      dim: 1
      dim: 1000
    }
    shape {
      dim: 1
      dim: 1
      dim: 1000
    }
  }
}
layer {
  name: "lstm1_cont_slice"
  type: "Slice"
  bottom: "cont"
  top: "cont_1"
  slice_param {
    axis: 0
  }
}
layer {
  name: "lstm1_x_transform"
  type: "InnerProduct"
  bottom: "x"
  top: "W_xc_x"
  param {
    name: "W_xc"
  }
  param {
    name: "b_c"
  }
  propagate_down: true
  inner_product_param {
    num_output: 4000
    bias_term: true
    weight_filler {
      type: "uniform"
      min: -0.08
      max: 0.08
    }
    bias_filler {
      type: "constant"
      value: 0
    }
    axis: 2
  }
}
layer {
  name: "lstm1_W_xc_x_slice"
  type: "Slice"
  bottom: "W_xc_x"
  top: "W_xc_x_1"
  slice_param {
    axis: 0
  }
}
layer {
  name: "lstm1_h_conted_0"
  type: "Scale"
  bottom: "h_0"
  bottom: "cont_1"
  top: "h_conted_0"
  scale_param {
    axis: 0
  }
}
layer {
  name: "lstm1_transform_1"
  type: "InnerProduct"
  bottom: "h_conted_0"
  top: "W_hc_h_0"
  param {
    name: "W_hc"
  }
  inner_product_param {
    num_output: 4000
    bias_term: false
    weight_filler {
      type: "uniform"
      min: -0.08
      max: 0.08
    }
    axis: 2
  }
}
layer {
  name: "lstm1_gate_input_1"
  type: "Eltwise"
  bottom: "W_hc_h_0"
  bottom: "W_xc_x_1"
  top: "gate_input_1"
  eltwise_param {
    operation: SUM
  }
}
layer {
  name: "lstm1_unit_1"
  type: "LSTMUnit"
  bottom: "c_0"
  bottom: "gate_input_1"
  bottom: "cont_1"
  top: "c_1"
  top: "h_1"
}
layer {
  name: "lstm1_"
  type: "Split"
  bottom: "c_1"
  top: "c_T"
}
layer {
  name: "lstm1_h_concat"
  type: "Concat"
  bottom: "h_1"
  top: "h"
  concat_param {
    axis: 0
  }
}
layer {
  name: "h_pseudoloss"
  type: "Reduction"
  bottom: "h"
  top: "h_pseudoloss"
  loss_weight: 1
}
I0925 22:48:39.470819 11237 layer_factory.hpp:77] Creating layer lstm1_
I0925 22:48:39.470841 11237 net.cpp:91] Creating Layer lstm1_
I0925 22:48:39.470852 11237 net.cpp:399] lstm1_ -> x
I0925 22:48:39.470872 11237 net.cpp:399] lstm1_ -> cont
I0925 22:48:39.589964 11249 net.cpp:141] Setting up embedding
I0925 22:48:39.589932 11237 net.cpp:141] Setting up lstm1_
I0925 22:48:39.590019 11227 net.cpp:141] Setting up embedding
I0925 22:48:39.590065 11249 net.cpp:148] Top shape: 1 1 500 (500)
I0925 22:48:39.590068 11237 net.cpp:148] Top shape: 1 1 500 (500)
I0925 22:48:39.590073 11227 net.cpp:148] Top shape: 1 1 500 (500)
I0925 22:48:39.590075 11249 net.cpp:156] Memory required for data: 22408
I0925 22:48:39.590085 11237 net.cpp:148] Top shape: 1 1 (1)
I0925 22:48:39.590106 11237 net.cpp:156] Memory required for data: 2004
I0925 22:48:39.590123 11237 layer_factory.hpp:77] Creating layer lstm1_
I0925 22:48:39.590136 11249 layer_factory.hpp:77] Creating layer lstm1
I0925 22:48:39.590131 11275 net.cpp:141] Setting up embedding
I0925 22:48:39.590085 11227 net.cpp:156] Memory required for data: 22408
I0925 22:48:39.590173 11249 net.cpp:91] Creating Layer lstm1
I0925 22:48:39.590178 11275 net.cpp:148] Top shape: 1 1 500 (500)
I0925 22:48:39.590193 11249 net.cpp:425] lstm1 <- embedded_input_frames
I0925 22:48:39.590193 11227 layer_factory.hpp:77] Creating layer lstm1
I0925 22:48:39.590179 11237 net.cpp:91] Creating Layer lstm1_
I0925 22:48:39.590214 11249 net.cpp:425] lstm1 <- cont_sentence_input_1_split_0
I0925 22:48:39.590224 11237 net.cpp:399] lstm1_ -> c_0
I0925 22:48:39.590230 11227 net.cpp:91] Creating Layer lstm1
I0925 22:48:39.590243 11227 net.cpp:425] lstm1 <- embedded_input_frames
I0925 22:48:39.590212 11275 net.cpp:156] Memory required for data: 22408
I0925 22:48:39.590256 11227 net.cpp:425] lstm1 <- cont_sentence_input_1_split_0
I0925 22:48:39.590261 11249 net.cpp:399] lstm1 -> lstm1
I0925 22:48:39.590261 11237 net.cpp:399] lstm1_ -> h_0
I0925 22:48:39.590278 11227 net.cpp:399] lstm1 -> lstm1
I0925 22:48:39.590286 11275 layer_factory.hpp:77] Creating layer lstm1
I0925 22:48:39.590297 11227 recurrent_layer.cpp:20] Initializing recurrent layer: assuming input batch contains 1 timesteps of 1 independent streams.
I0925 22:48:39.590289 11249 recurrent_layer.cpp:20] Initializing recurrent layer: assuming input batch contains 1 timesteps of 1 independent streams.
I0925 22:48:39.590353 11275 net.cpp:91] Creating Layer lstm1
I0925 22:48:39.590380 11275 net.cpp:425] lstm1 <- embedded_input_frames
I0925 22:48:39.590395 11237 net.cpp:141] Setting up lstm1_
I0925 22:48:39.590404 11275 net.cpp:425] lstm1 <- cont_sentence_input_1_split_0
I0925 22:48:39.590416 11237 net.cpp:148] Top shape: 1 1 1000 (1000)
I0925 22:48:39.590428 11237 net.cpp:148] Top shape: 1 1 1000 (1000)
I0925 22:48:39.590437 11237 net.cpp:156] Memory required for data: 10004
I0925 22:48:39.590440 11275 net.cpp:399] lstm1 -> lstm1
I0925 22:48:39.590446 11237 layer_factory.hpp:77] Creating layer lstm1_cont_slice
I0925 22:48:39.590488 11237 net.cpp:91] Creating Layer lstm1_cont_slice
I0925 22:48:39.590492 11275 recurrent_layer.cpp:20] Initializing recurrent layer: assuming input batch contains 1 timesteps of 1 independent streams.
I0925 22:48:39.590502 11237 net.cpp:425] lstm1_cont_slice <- cont
I0925 22:48:39.590545 11237 net.cpp:399] lstm1_cont_slice -> cont_1
I0925 22:48:39.590946 11227 net.cpp:49] Initializing net from parameters: 
layer {
  name: "lstm1_"
  type: "Input"
  top: "x"
  top: "cont"
  input_param {
    shape {
      dim: 1
      dim: 1
      dim: 500
    }
    shape {
      dim: 1
      dim: 1
    }
  }
}
layer {
  name: "lstm1_"
  type: "Input"
  top: "c_0"
  top: "h_0"
  input_param {
    shape {
      dim: 1
      dim: 1
      dim: 1000
    }
    shape {
      dim: 1
      dim: 1
      dim: 1000
    }
  }
}
layer {
  name: "lstm1_cont_slice"
  type: "Slice"
  bottom: "cont"
  top: "cont_1"
  slice_param {
    axis: 0
  }
}
layer {
  name: "lstm1_x_transform"
  type: "InnerProduct"
  bottom: "x"
  top: "W_xc_x"
  param {
    name: "W_xc"
  }
  param {
    name: "b_c"
  }
  propagate_down: true
  inner_product_param {
    num_output: 4000
    bias_term: true
    weight_filler {
      type: "uniform"
      min: -0.08
      max: 0.08
    }
    bias_filler {
      type: "constant"
      value: 0
    }
    axis: 2
  }
}
layer {
  name: "lstm1_W_xc_x_slice"
  type: "Slice"
  bottom: "W_xc_x"
  top: "W_xc_x_1"
  slice_param {
    axis: 0
  }
}
layer {
  name: "lstm1_h_conted_0"
  type: "Scale"
  bottom: "h_0"
  bottom: "cont_1"
  top: "h_conted_0"
  scale_param {
    axis: 0
  }
}
layer {
  name: "lstm1_transform_1"
  type: "InnerProduct"
  bottom: "h_conted_0"
  top: "W_hc_h_0"
  param {
    name: "W_hc"
  }
  inner_product_param {
    num_output: 4000
    bias_term: false
    weight_filler {
      type: "uniform"
      min: -0.08
      max: 0.08
    }
    axis: 2
  }
}
layer {
  name: "lstm1_gate_input_1"
  type: "Eltwise"
  bottom: "W_hc_h_0"
  bottom: "W_xc_x_1"
  top: "gate_input_1"
  eltwise_param {
    operation: SUM
  }
}
layer {
  name: "lstm1_unit_1"
  type: "LSTMUnit"
  bottom: "c_0"
  bottom: "gate_input_1"
  bottom: "cont_1"
  top: "c_1"
  top: "h_1"
}
layer {
  name: "lstm1_"
  type: "Split"
  bottom: "c_1"
  top: "c_T"
}
layer {
  name: "lstm1_h_concat"
  type: "Concat"
  bottom: "h_1"
  top: "h"
  concat_param {
    axis: 0
  }
}
layer {
  name: "h_pseudoloss"
  type: "Reduction"
  bottom: "h"
  top: "h_pseudoloss"
  loss_weight: 1
}
I0925 22:48:39.590979 11249 net.cpp:49] Initializing net from parameters: 
layer {
  name: "lstm1_"
  type: "Input"
  top: "x"
  top: "cont"
  input_param {
    shape {
      dim: 1
      dim: 1
      dim: 500
    }
    shape {
      dim: 1
      dim: 1
    }
  }
}
layer {
  name: "lstm1_"
  type: "Input"
  top: "c_0"
  top: "h_0"
  input_param {
    shape {
      dim: 1
      dim: 1
      dim: 1000
    }
    shape {
      dim: 1
      dim: 1
      dim: 1000
    }
  }
}
layer {
  name: "lstm1_cont_slice"
  type: "Slice"
  bottom: "cont"
  top: "cont_1"
  slice_param {
    axis: 0
  }
}
layer {
  name: "lstm1_x_transform"
  type: "InnerProduct"
  bottom: "x"
  top: "W_xc_x"
  param {
    name: "W_xc"
  }
  param {
    name: "b_c"
  }
  propagate_down: true
  inner_product_param {
    num_output: 4000
    bias_term: true
    weight_filler {
      type: "uniform"
      min: -0.08
      max: 0.08
    }
    bias_filler {
      type: "constant"
      value: 0
    }
    axis: 2
  }
}
layer {
  name: "lstm1_W_xc_x_slice"
  type: "Slice"
  bottom: "W_xc_x"
  top: "W_xc_x_1"
  slice_param {
    axis: 0
  }
}
layer {
  name: "lstm1_h_conted_0"
  type: "Scale"
  bottom: "h_0"
  bottom: "cont_1"
  top: "h_conted_0"
  scale_param {
    axis: 0
  }
}
layer {
  name: "lstm1_transform_1"
  type: "InnerProduct"
  bottom: "h_conted_0"
  top: "W_hc_h_0"
  param {
    name: "W_hc"
  }
  inner_product_param {
    num_output: 4000
    bias_term: false
    weight_filler {
      type: "uniform"
      min: -0.08
      max: 0.08
    }
    axis: 2
  }
}
layer {
  name: "lstm1_gate_input_1"
  type: "Eltwise"
  bottom: "W_hc_h_0"
  bottom: "W_xc_x_1"
  top: "gate_input_1"
  eltwise_param {
    operation: SUM
  }
}
layer {
  name: "lstm1_unit_1"
  type: "LSTMUnit"
  bottom: "c_0"
  bottom: "gate_input_1"
  bottom: "cont_1"
  top: "c_1"
  top: "h_1"
}
layer {
  name: "lstm1_"
  type: "Split"
  bottom: "c_1"
  top: "c_T"
}
layer {
  name: "lstm1_h_concat"
  type: "Concat"
  bottom: "h_1"
  top: "h"
  concat_param {
    axis: 0
  }
}
layer {
  name: "h_pseudoloss"
  type: "Reduction"
  bottom: "h"
  top: "h_pseudoloss"
  loss_weight: 1
}
I0925 22:48:39.595428 11249 layer_factory.hpp:77] Creating layer lstm1_
I0925 22:48:39.595417 11227 layer_factory.hpp:77] Creating layer lstm1_
I0925 22:48:39.595422 11275 net.cpp:49] Initializing net from parameters: 
layer {
  name: "lstm1_"
  type: "Input"
  top: "x"
  top: "cont"
  input_param {
    shape {
      dim: 1
      dim: 1
      dim: 500
    }
    shape {
      dim: 1
      dim: 1
    }
  }
}
layer {
  name: "lstm1_"
  type: "Input"
  top: "c_0"
  top: "h_0"
  input_param {
    shape {
      dim: 1
      dim: 1
      dim: 1000
    }
    shape {
      dim: 1
      dim: 1
      dim: 1000
    }
  }
}
layer {
  name: "lstm1_cont_slice"
  type: "Slice"
  bottom: "cont"
  top: "cont_1"
  slice_param {
    axis: 0
  }
}
layer {
  name: "lstm1_x_transform"
  type: "InnerProduct"
  bottom: "x"
  top: "W_xc_x"
  param {
    name: "W_xc"
  }
  param {
    name: "b_c"
  }
  propagate_down: true
  inner_product_param {
    num_output: 4000
    bias_term: true
    weight_filler {
      type: "uniform"
      min: -0.08
      max: 0.08
    }
    bias_filler {
      type: "constant"
      value: 0
    }
    axis: 2
  }
}
layer {
  name: "lstm1_W_xc_x_slice"
  type: "Slice"
  bottom: "W_xc_x"
  top: "W_xc_x_1"
  slice_param {
    axis: 0
  }
}
layer {
  name: "lstm1_h_conted_0"
  type: "Scale"
  bottom: "h_0"
  bottom: "cont_1"
  top: "h_conted_0"
  scale_param {
    axis: 0
  }
}
layer {
  name: "lstm1_transform_1"
  type: "InnerProduct"
  bottom: "h_conted_0"
  top: "W_hc_h_0"
  param {
    name: "W_hc"
  }
  inner_product_param {
    num_output: 4000
    bias_term: false
    weight_filler {
      type: "uniform"
      min: -0.08
      max: 0.08
    }
    axis: 2
  }
}
layer {
  name: "lstm1_gate_input_1"
  type: "Eltwise"
  bottom: "W_hc_h_0"
  bottom: "W_xc_x_1"
  top: "gate_input_1"
  eltwise_param {
    operation: SUM
  }
}
layer {
  name: "lstm1_unit_1"
  type: "LSTMUnit"
  bottom: "c_0"
  bottom: "gate_input_1"
  bottom: "cont_1"
  top: "c_1"
  top: "h_1"
}
layer {
  name: "lstm1_"
  type: "Split"
  bottom: "c_1"
  top: "c_T"
}
layer {
  name: "lstm1_h_concat"
  type: "Concat"
  bottom: "h_1"
  top: "h"
  concat_param {
    axis: 0
  }
}
layer {
  name: "h_pseudoloss"
  type: "Reduction"
  bottom: "h"
  top: "h_pseudoloss"
  loss_weight: 1
}
I0925 22:48:39.595485 11227 net.cpp:91] Creating Layer lstm1_
I0925 22:48:39.595496 11227 net.cpp:399] lstm1_ -> x
I0925 22:48:39.595480 11249 net.cpp:91] Creating Layer lstm1_
I0925 22:48:39.595517 11249 net.cpp:399] lstm1_ -> x
I0925 22:48:39.595518 11227 net.cpp:399] lstm1_ -> cont
I0925 22:48:39.595546 11249 net.cpp:399] lstm1_ -> cont
I0925 22:48:39.595712 11275 layer_factory.hpp:77] Creating layer lstm1_
I0925 22:48:39.595747 11275 net.cpp:91] Creating Layer lstm1_
I0925 22:48:39.595772 11275 net.cpp:399] lstm1_ -> x
I0925 22:48:39.595804 11275 net.cpp:399] lstm1_ -> cont
I0925 22:48:39.599901 11237 net.cpp:141] Setting up lstm1_cont_slice
I0925 22:48:39.599969 11237 net.cpp:148] Top shape: 1 1 (1)
I0925 22:48:39.599980 11237 net.cpp:156] Memory required for data: 10008
I0925 22:48:39.599993 11237 layer_factory.hpp:77] Creating layer cont_1_lstm1_cont_slice_0_split
I0925 22:48:39.600023 11249 net.cpp:141] Setting up lstm1_
I0925 22:48:39.600030 11237 net.cpp:91] Creating Layer cont_1_lstm1_cont_slice_0_split
I0925 22:48:39.600044 11249 net.cpp:148] Top shape: 1 1 500 (500)
I0925 22:48:39.600044 11237 net.cpp:425] cont_1_lstm1_cont_slice_0_split <- cont_1
I0925 22:48:39.600055 11249 net.cpp:148] Top shape: 1 1 (1)
I0925 22:48:39.600064 11249 net.cpp:156] Memory required for data: 2004
I0925 22:48:39.600064 11237 net.cpp:399] cont_1_lstm1_cont_slice_0_split -> cont_1_lstm1_cont_slice_0_split_0
I0925 22:48:39.600073 11249 layer_factory.hpp:77] Creating layer lstm1_
I0925 22:48:39.600095 11227 net.cpp:141] Setting up lstm1_
I0925 22:48:39.600111 11237 net.cpp:399] cont_1_lstm1_cont_slice_0_split -> cont_1_lstm1_cont_slice_0_split_1
I0925 22:48:39.600116 11227 net.cpp:148] Top shape: 1 1 500 (500)
I0925 22:48:39.600123 11249 net.cpp:91] Creating Layer lstm1_
I0925 22:48:39.600126 11227 net.cpp:148] Top shape: 1 1 (1)
I0925 22:48:39.600138 11249 net.cpp:399] lstm1_ -> c_0
I0925 22:48:39.600145 11227 net.cpp:156] Memory required for data: 2004
I0925 22:48:39.600155 11227 layer_factory.hpp:77] Creating layer lstm1_
I0925 22:48:39.600162 11249 net.cpp:399] lstm1_ -> h_0
I0925 22:48:39.600172 11227 net.cpp:91] Creating Layer lstm1_
I0925 22:48:39.600183 11227 net.cpp:399] lstm1_ -> c_0
I0925 22:48:39.600198 11227 net.cpp:399] lstm1_ -> h_0
I0925 22:48:39.600342 11237 net.cpp:141] Setting up cont_1_lstm1_cont_slice_0_split
I0925 22:48:39.600359 11237 net.cpp:148] Top shape: 1 1 (1)
I0925 22:48:39.600370 11237 net.cpp:148] Top shape: 1 1 (1)
I0925 22:48:39.600378 11237 net.cpp:156] Memory required for data: 10016
I0925 22:48:39.600388 11237 layer_factory.hpp:77] Creating layer lstm1_x_transform
I0925 22:48:39.600415 11237 net.cpp:91] Creating Layer lstm1_x_transform
I0925 22:48:39.600427 11237 net.cpp:425] lstm1_x_transform <- x
I0925 22:48:39.600447 11237 net.cpp:399] lstm1_x_transform -> W_xc_x
I0925 22:48:39.600469 11227 net.cpp:141] Setting up lstm1_
I0925 22:48:39.600487 11227 net.cpp:148] Top shape: 1 1 1000 (1000)
I0925 22:48:39.600499 11227 net.cpp:148] Top shape: 1 1 1000 (1000)
I0925 22:48:39.600505 11227 net.cpp:156] Memory required for data: 10004
I0925 22:48:39.600512 11227 layer_factory.hpp:77] Creating layer lstm1_cont_slice
I0925 22:48:39.600524 11227 net.cpp:91] Creating Layer lstm1_cont_slice
I0925 22:48:39.600530 11227 net.cpp:425] lstm1_cont_slice <- cont
I0925 22:48:39.600538 11227 net.cpp:399] lstm1_cont_slice -> cont_1
I0925 22:48:39.600544 11275 net.cpp:141] Setting up lstm1_
I0925 22:48:39.600576 11275 net.cpp:148] Top shape: 1 1 500 (500)
I0925 22:48:39.600577 11249 net.cpp:141] Setting up lstm1_
I0925 22:48:39.600622 11249 net.cpp:148] Top shape: 1 1 1000 (1000)
I0925 22:48:39.600622 11275 net.cpp:148] Top shape: 1 1 (1)
I0925 22:48:39.600633 11249 net.cpp:148] Top shape: 1 1 1000 (1000)
I0925 22:48:39.600641 11249 net.cpp:156] Memory required for data: 10004
I0925 22:48:39.600643 11275 net.cpp:156] Memory required for data: 2004
I0925 22:48:39.600649 11249 layer_factory.hpp:77] Creating layer lstm1_cont_slice
I0925 22:48:39.600656 11227 net.cpp:141] Setting up lstm1_cont_slice
I0925 22:48:39.600661 11275 layer_factory.hpp:77] Creating layer lstm1_
I0925 22:48:39.600668 11249 net.cpp:91] Creating Layer lstm1_cont_slice
I0925 22:48:39.600672 11227 net.cpp:148] Top shape: 1 1 (1)
I0925 22:48:39.600687 11249 net.cpp:425] lstm1_cont_slice <- cont
I0925 22:48:39.600694 11227 net.cpp:156] Memory required for data: 10008
I0925 22:48:39.600705 11227 layer_factory.hpp:77] Creating layer cont_1_lstm1_cont_slice_0_split
I0925 22:48:39.600700 11249 net.cpp:399] lstm1_cont_slice -> cont_1
I0925 22:48:39.600723 11227 net.cpp:91] Creating Layer cont_1_lstm1_cont_slice_0_split
I0925 22:48:39.600731 11227 net.cpp:425] cont_1_lstm1_cont_slice_0_split <- cont_1
I0925 22:48:39.600699 11275 net.cpp:91] Creating Layer lstm1_
I0925 22:48:39.600744 11227 net.cpp:399] cont_1_lstm1_cont_slice_0_split -> cont_1_lstm1_cont_slice_0_split_0
I0925 22:48:39.600780 11227 net.cpp:399] cont_1_lstm1_cont_slice_0_split -> cont_1_lstm1_cont_slice_0_split_1
I0925 22:48:39.600788 11275 net.cpp:399] lstm1_ -> c_0
I0925 22:48:39.600828 11275 net.cpp:399] lstm1_ -> h_0
I0925 22:48:39.603795 11275 net.cpp:141] Setting up lstm1_
I0925 22:48:39.603847 11275 net.cpp:148] Top shape: 1 1 1000 (1000)
I0925 22:48:39.603843 11249 net.cpp:141] Setting up lstm1_cont_slice
I0925 22:48:39.603858 11275 net.cpp:148] Top shape: 1 1 1000 (1000)
I0925 22:48:39.603866 11275 net.cpp:156] Memory required for data: 10004
I0925 22:48:39.603873 11249 net.cpp:148] Top shape: 1 1 (1)
I0925 22:48:39.603878 11275 layer_factory.hpp:77] Creating layer lstm1_cont_slice
I0925 22:48:39.603881 11249 net.cpp:156] Memory required for data: 10008
I0925 22:48:39.603891 11249 layer_factory.hpp:77] Creating layer cont_1_lstm1_cont_slice_0_split
I0925 22:48:39.603902 11275 net.cpp:91] Creating Layer lstm1_cont_slice
I0925 22:48:39.603909 11249 net.cpp:91] Creating Layer cont_1_lstm1_cont_slice_0_split
I0925 22:48:39.603914 11275 net.cpp:425] lstm1_cont_slice <- cont
I0925 22:48:39.603921 11249 net.cpp:425] cont_1_lstm1_cont_slice_0_split <- cont_1
I0925 22:48:39.603929 11275 net.cpp:399] lstm1_cont_slice -> cont_1
I0925 22:48:39.603940 11249 net.cpp:399] cont_1_lstm1_cont_slice_0_split -> cont_1_lstm1_cont_slice_0_split_0
I0925 22:48:39.603958 11249 net.cpp:399] cont_1_lstm1_cont_slice_0_split -> cont_1_lstm1_cont_slice_0_split_1
I0925 22:48:39.605842 11227 net.cpp:141] Setting up cont_1_lstm1_cont_slice_0_split
I0925 22:48:39.605862 11227 net.cpp:148] Top shape: 1 1 (1)
I0925 22:48:39.605875 11227 net.cpp:148] Top shape: 1 1 (1)
I0925 22:48:39.605882 11227 net.cpp:156] Memory required for data: 10016
I0925 22:48:39.605893 11227 layer_factory.hpp:77] Creating layer lstm1_x_transform
I0925 22:48:39.605918 11227 net.cpp:91] Creating Layer lstm1_x_transform
I0925 22:48:39.605928 11227 net.cpp:425] lstm1_x_transform <- x
I0925 22:48:39.605952 11227 net.cpp:399] lstm1_x_transform -> W_xc_x
I0925 22:48:39.611773 11275 net.cpp:141] Setting up lstm1_cont_slice
I0925 22:48:39.611821 11275 net.cpp:148] Top shape: 1 1 (1)
I0925 22:48:39.611829 11275 net.cpp:156] Memory required for data: 10008
I0925 22:48:39.611841 11275 layer_factory.hpp:77] Creating layer cont_1_lstm1_cont_slice_0_split
I0925 22:48:39.611857 11249 net.cpp:141] Setting up cont_1_lstm1_cont_slice_0_split
I0925 22:48:39.611863 11275 net.cpp:91] Creating Layer cont_1_lstm1_cont_slice_0_split
I0925 22:48:39.611892 11249 net.cpp:148] Top shape: 1 1 (1)
I0925 22:48:39.611896 11275 net.cpp:425] cont_1_lstm1_cont_slice_0_split <- cont_1
I0925 22:48:39.611907 11249 net.cpp:148] Top shape: 1 1 (1)
I0925 22:48:39.611914 11249 net.cpp:156] Memory required for data: 10016
I0925 22:48:39.611917 11275 net.cpp:399] cont_1_lstm1_cont_slice_0_split -> cont_1_lstm1_cont_slice_0_split_0
I0925 22:48:39.611924 11249 layer_factory.hpp:77] Creating layer lstm1_x_transform
I0925 22:48:39.611937 11275 net.cpp:399] cont_1_lstm1_cont_slice_0_split -> cont_1_lstm1_cont_slice_0_split_1
I0925 22:48:39.611954 11249 net.cpp:91] Creating Layer lstm1_x_transform
I0925 22:48:39.611968 11249 net.cpp:425] lstm1_x_transform <- x
I0925 22:48:39.611986 11249 net.cpp:399] lstm1_x_transform -> W_xc_x
I0925 22:48:39.626036 11233 net.cpp:141] Setting up embedding
I0925 22:48:39.626096 11233 net.cpp:148] Top shape: 1 1 500 (500)
I0925 22:48:39.626106 11233 net.cpp:156] Memory required for data: 22408
I0925 22:48:39.626139 11233 layer_factory.hpp:77] Creating layer lstm1
I0925 22:48:39.626142 11275 net.cpp:141] Setting up cont_1_lstm1_cont_slice_0_split
I0925 22:48:39.626163 11275 net.cpp:148] Top shape: 1 1 (1)
I0925 22:48:39.626174 11275 net.cpp:148] Top shape: 1 1 (1)
I0925 22:48:39.626173 11233 net.cpp:91] Creating Layer lstm1
I0925 22:48:39.626204 11275 net.cpp:156] Memory required for data: 10016
I0925 22:48:39.626214 11275 layer_factory.hpp:77] Creating layer lstm1_x_transform
I0925 22:48:39.626216 11233 net.cpp:425] lstm1 <- embedded_input_frames
I0925 22:48:39.626232 11233 net.cpp:425] lstm1 <- cont_sentence_input_1_split_0
I0925 22:48:39.626236 11275 net.cpp:91] Creating Layer lstm1_x_transform
I0925 22:48:39.626246 11275 net.cpp:425] lstm1_x_transform <- x
I0925 22:48:39.626251 11233 net.cpp:399] lstm1 -> lstm1
I0925 22:48:39.626266 11275 net.cpp:399] lstm1_x_transform -> W_xc_x
I0925 22:48:39.626279 11233 recurrent_layer.cpp:20] Initializing recurrent layer: assuming input batch contains 1 timesteps of 1 independent streams.
I0925 22:48:39.630875 11233 net.cpp:49] Initializing net from parameters: 
layer {
  name: "lstm1_"
  type: "Input"
  top: "x"
  top: "cont"
  input_param {
    shape {
      dim: 1
      dim: 1
      dim: 500
    }
    shape {
      dim: 1
      dim: 1
    }
  }
}
layer {
  name: "lstm1_"
  type: "Input"
  top: "c_0"
  top: "h_0"
  input_param {
    shape {
      dim: 1
      dim: 1
      dim: 1000
    }
    shape {
      dim: 1
      dim: 1
      dim: 1000
    }
  }
}
layer {
  name: "lstm1_cont_slice"
  type: "Slice"
  bottom: "cont"
  top: "cont_1"
  slice_param {
    axis: 0
  }
}
layer {
  name: "lstm1_x_transform"
  type: "InnerProduct"
  bottom: "x"
  top: "W_xc_x"
  param {
    name: "W_xc"
  }
  param {
    name: "b_c"
  }
  propagate_down: true
  inner_product_param {
    num_output: 4000
    bias_term: true
    weight_filler {
      type: "uniform"
      min: -0.08
      max: 0.08
    }
    bias_filler {
      type: "constant"
      value: 0
    }
    axis: 2
  }
}
layer {
  name: "lstm1_W_xc_x_slice"
  type: "Slice"
  bottom: "W_xc_x"
  top: "W_xc_x_1"
  slice_param {
    axis: 0
  }
}
layer {
  name: "lstm1_h_conted_0"
  type: "Scale"
  bottom: "h_0"
  bottom: "cont_1"
  top: "h_conted_0"
  scale_param {
    axis: 0
  }
}
layer {
  name: "lstm1_transform_1"
  type: "InnerProduct"
  bottom: "h_conted_0"
  top: "W_hc_h_0"
  param {
    name: "W_hc"
  }
  inner_product_param {
    num_output: 4000
    bias_term: false
    weight_filler {
      type: "uniform"
      min: -0.08
      max: 0.08
    }
    axis: 2
  }
}
layer {
  name: "lstm1_gate_input_1"
  type: "Eltwise"
  bottom: "W_hc_h_0"
  bottom: "W_xc_x_1"
  top: "gate_input_1"
  eltwise_param {
    operation: SUM
  }
}
layer {
  name: "lstm1_unit_1"
  type: "LSTMUnit"
  bottom: "c_0"
  bottom: "gate_input_1"
  bottom: "cont_1"
  top: "c_1"
  top: "h_1"
}
layer {
  name: "lstm1_"
  type: "Split"
  bottom: "c_1"
  top: "c_T"
}
layer {
  name: "lstm1_h_concat"
  type: "Concat"
  bottom: "h_1"
  top: "h"
  concat_param {
    axis: 0
  }
}
layer {
  name: "h_pseudoloss"
  type: "Reduction"
  bottom: "h"
  top: "h_pseudoloss"
  loss_weight: 1
}
I0925 22:48:39.631088 11233 layer_factory.hpp:77] Creating layer lstm1_
I0925 22:48:39.631113 11233 net.cpp:91] Creating Layer lstm1_
I0925 22:48:39.631124 11233 net.cpp:399] lstm1_ -> x
I0925 22:48:39.631148 11233 net.cpp:399] lstm1_ -> cont
I0925 22:48:39.633564 11233 net.cpp:141] Setting up lstm1_
I0925 22:48:39.633612 11233 net.cpp:148] Top shape: 1 1 500 (500)
I0925 22:48:39.633625 11233 net.cpp:148] Top shape: 1 1 (1)
I0925 22:48:39.633633 11233 net.cpp:156] Memory required for data: 2004
I0925 22:48:39.633646 11233 layer_factory.hpp:77] Creating layer lstm1_
I0925 22:48:39.633683 11233 net.cpp:91] Creating Layer lstm1_
I0925 22:48:39.633697 11233 net.cpp:399] lstm1_ -> c_0
I0925 22:48:39.633720 11233 net.cpp:399] lstm1_ -> h_0
I0925 22:48:39.633802 11233 net.cpp:141] Setting up lstm1_
I0925 22:48:39.633818 11233 net.cpp:148] Top shape: 1 1 1000 (1000)
I0925 22:48:39.633831 11233 net.cpp:148] Top shape: 1 1 1000 (1000)
I0925 22:48:39.633838 11233 net.cpp:156] Memory required for data: 10004
I0925 22:48:39.633846 11233 layer_factory.hpp:77] Creating layer lstm1_cont_slice
I0925 22:48:39.633865 11233 net.cpp:91] Creating Layer lstm1_cont_slice
I0925 22:48:39.633877 11233 net.cpp:425] lstm1_cont_slice <- cont
I0925 22:48:39.633898 11233 net.cpp:399] lstm1_cont_slice -> cont_1
I0925 22:48:39.633956 11233 net.cpp:141] Setting up lstm1_cont_slice
I0925 22:48:39.633971 11233 net.cpp:148] Top shape: 1 1 (1)
I0925 22:48:39.633980 11233 net.cpp:156] Memory required for data: 10008
I0925 22:48:39.633987 11233 layer_factory.hpp:77] Creating layer cont_1_lstm1_cont_slice_0_split
I0925 22:48:39.634001 11233 net.cpp:91] Creating Layer cont_1_lstm1_cont_slice_0_split
I0925 22:48:39.634008 11233 net.cpp:425] cont_1_lstm1_cont_slice_0_split <- cont_1
I0925 22:48:39.634021 11233 net.cpp:399] cont_1_lstm1_cont_slice_0_split -> cont_1_lstm1_cont_slice_0_split_0
I0925 22:48:39.634034 11233 net.cpp:399] cont_1_lstm1_cont_slice_0_split -> cont_1_lstm1_cont_slice_0_split_1
I0925 22:48:39.634111 11233 net.cpp:141] Setting up cont_1_lstm1_cont_slice_0_split
I0925 22:48:39.634126 11233 net.cpp:148] Top shape: 1 1 (1)
I0925 22:48:39.634136 11233 net.cpp:148] Top shape: 1 1 (1)
I0925 22:48:39.634145 11233 net.cpp:156] Memory required for data: 10016
I0925 22:48:39.634152 11233 layer_factory.hpp:77] Creating layer lstm1_x_transform
I0925 22:48:39.634179 11233 net.cpp:91] Creating Layer lstm1_x_transform
I0925 22:48:39.634187 11233 net.cpp:425] lstm1_x_transform <- x
I0925 22:48:39.634202 11233 net.cpp:399] lstm1_x_transform -> W_xc_x
I0925 22:48:39.662099 11275 net.cpp:141] Setting up lstm1_x_transform
I0925 22:48:39.662148 11275 net.cpp:148] Top shape: 1 1 4000 (4000)
I0925 22:48:39.662158 11275 net.cpp:156] Memory required for data: 26016
I0925 22:48:39.662185 11275 layer_factory.hpp:77] Creating layer lstm1_W_xc_x_slice
I0925 22:48:39.662207 11275 net.cpp:91] Creating Layer lstm1_W_xc_x_slice
I0925 22:48:39.662217 11275 net.cpp:425] lstm1_W_xc_x_slice <- W_xc_x
I0925 22:48:39.662231 11275 net.cpp:399] lstm1_W_xc_x_slice -> W_xc_x_1
I0925 22:48:39.662286 11249 net.cpp:141] Setting up lstm1_x_transform
I0925 22:48:39.662308 11249 net.cpp:148] Top shape: 1 1 4000 (4000)
I0925 22:48:39.662317 11249 net.cpp:156] Memory required for data: 26016
I0925 22:48:39.662338 11249 layer_factory.hpp:77] Creating layer lstm1_W_xc_x_slice
I0925 22:48:39.662353 11249 net.cpp:91] Creating Layer lstm1_W_xc_x_slice
I0925 22:48:39.662364 11249 net.cpp:425] lstm1_W_xc_x_slice <- W_xc_x
I0925 22:48:39.662376 11249 net.cpp:399] lstm1_W_xc_x_slice -> W_xc_x_1
I0925 22:48:39.662386 11237 net.cpp:141] Setting up lstm1_x_transform
I0925 22:48:39.662412 11237 net.cpp:148] Top shape: 1 1 4000 (4000)
I0925 22:48:39.662422 11237 net.cpp:156] Memory required for data: 26016
I0925 22:48:39.662436 11275 net.cpp:141] Setting up lstm1_W_xc_x_slice
I0925 22:48:39.662446 11237 layer_factory.hpp:77] Creating layer lstm1_W_xc_x_slice
I0925 22:48:39.662453 11275 net.cpp:148] Top shape: 1 1 4000 (4000)
I0925 22:48:39.662461 11275 net.cpp:156] Memory required for data: 42016
I0925 22:48:39.662462 11237 net.cpp:91] Creating Layer lstm1_W_xc_x_slice
I0925 22:48:39.662472 11275 layer_factory.hpp:77] Creating layer lstm1_h_conted_0
I0925 22:48:39.662477 11237 net.cpp:425] lstm1_W_xc_x_slice <- W_xc_x
I0925 22:48:39.662492 11227 net.cpp:141] Setting up lstm1_x_transform
I0925 22:48:39.662497 11237 net.cpp:399] lstm1_W_xc_x_slice -> W_xc_x_1
I0925 22:48:39.662500 11275 net.cpp:91] Creating Layer lstm1_h_conted_0
I0925 22:48:39.662530 11227 net.cpp:148] Top shape: 1 1 4000 (4000)
I0925 22:48:39.662539 11275 net.cpp:425] lstm1_h_conted_0 <- h_0
I0925 22:48:39.662531 11249 net.cpp:141] Setting up lstm1_W_xc_x_slice
I0925 22:48:39.662550 11227 net.cpp:156] Memory required for data: 26016
I0925 22:48:39.662559 11249 net.cpp:148] Top shape: 1 1 4000 (4000)
I0925 22:48:39.662552 11275 net.cpp:425] lstm1_h_conted_0 <- cont_1_lstm1_cont_slice_0_split_0
I0925 22:48:39.662569 11249 net.cpp:156] Memory required for data: 42016
I0925 22:48:39.662576 11275 net.cpp:399] lstm1_h_conted_0 -> h_conted_0
I0925 22:48:39.662581 11227 layer_factory.hpp:77] Creating layer lstm1_W_xc_x_slice
I0925 22:48:39.662578 11249 layer_factory.hpp:77] Creating layer lstm1_h_conted_0
I0925 22:48:39.662606 11237 net.cpp:141] Setting up lstm1_W_xc_x_slice
I0925 22:48:39.662624 11227 net.cpp:91] Creating Layer lstm1_W_xc_x_slice
I0925 22:48:39.662632 11249 net.cpp:91] Creating Layer lstm1_h_conted_0
I0925 22:48:39.662642 11227 net.cpp:425] lstm1_W_xc_x_slice <- W_xc_x
I0925 22:48:39.662644 11249 net.cpp:425] lstm1_h_conted_0 <- h_0
I0925 22:48:39.662642 11237 net.cpp:148] Top shape: 1 1 4000 (4000)
I0925 22:48:39.662657 11249 net.cpp:425] lstm1_h_conted_0 <- cont_1_lstm1_cont_slice_0_split_0
I0925 22:48:39.662672 11237 net.cpp:156] Memory required for data: 42016
I0925 22:48:39.662677 11227 net.cpp:399] lstm1_W_xc_x_slice -> W_xc_x_1
I0925 22:48:39.662683 11237 layer_factory.hpp:77] Creating layer lstm1_h_conted_0
I0925 22:48:39.662680 11249 net.cpp:399] lstm1_h_conted_0 -> h_conted_0
I0925 22:48:39.662699 11237 net.cpp:91] Creating Layer lstm1_h_conted_0
I0925 22:48:39.662709 11237 net.cpp:425] lstm1_h_conted_0 <- h_0
I0925 22:48:39.662720 11237 net.cpp:425] lstm1_h_conted_0 <- cont_1_lstm1_cont_slice_0_split_0
I0925 22:48:39.662734 11237 net.cpp:399] lstm1_h_conted_0 -> h_conted_0
I0925 22:48:39.662969 11249 net.cpp:141] Setting up lstm1_h_conted_0
I0925 22:48:39.662986 11249 net.cpp:148] Top shape: 1 1 1000 (1000)
I0925 22:48:39.662994 11249 net.cpp:156] Memory required for data: 46016
I0925 22:48:39.663002 11249 layer_factory.hpp:77] Creating layer lstm1_transform_1
I0925 22:48:39.663020 11249 net.cpp:91] Creating Layer lstm1_transform_1
I0925 22:48:39.663029 11249 net.cpp:425] lstm1_transform_1 <- h_conted_0
I0925 22:48:39.663043 11249 net.cpp:399] lstm1_transform_1 -> W_hc_h_0
I0925 22:48:39.673739 11275 net.cpp:141] Setting up lstm1_h_conted_0
I0925 22:48:39.673787 11275 net.cpp:148] Top shape: 1 1 1000 (1000)
I0925 22:48:39.673796 11275 net.cpp:156] Memory required for data: 46016
I0925 22:48:39.673800 11237 net.cpp:141] Setting up lstm1_h_conted_0
I0925 22:48:39.673840 11237 net.cpp:148] Top shape: 1 1 1000 (1000)
I0925 22:48:39.673846 11237 net.cpp:156] Memory required for data: 46016
I0925 22:48:39.673853 11237 layer_factory.hpp:77] Creating layer lstm1_transform_1
I0925 22:48:39.673892 11237 net.cpp:91] Creating Layer lstm1_transform_1
I0925 22:48:39.673898 11227 net.cpp:141] Setting up lstm1_W_xc_x_slice
I0925 22:48:39.673908 11237 net.cpp:425] lstm1_transform_1 <- h_conted_0
I0925 22:48:39.673916 11227 net.cpp:148] Top shape: 1 1 4000 (4000)
I0925 22:48:39.673924 11227 net.cpp:156] Memory required for data: 42016
I0925 22:48:39.673933 11237 net.cpp:399] lstm1_transform_1 -> W_hc_h_0
I0925 22:48:39.673809 11275 layer_factory.hpp:77] Creating layer lstm1_transform_1
I0925 22:48:39.673956 11275 net.cpp:91] Creating Layer lstm1_transform_1
I0925 22:48:39.673967 11275 net.cpp:425] lstm1_transform_1 <- h_conted_0
I0925 22:48:39.673986 11275 net.cpp:399] lstm1_transform_1 -> W_hc_h_0
I0925 22:48:39.673934 11227 layer_factory.hpp:77] Creating layer lstm1_h_conted_0
I0925 22:48:39.674655 11227 net.cpp:91] Creating Layer lstm1_h_conted_0
I0925 22:48:39.674669 11227 net.cpp:425] lstm1_h_conted_0 <- h_0
I0925 22:48:39.674677 11227 net.cpp:425] lstm1_h_conted_0 <- cont_1_lstm1_cont_slice_0_split_0
I0925 22:48:39.674690 11227 net.cpp:399] lstm1_h_conted_0 -> h_conted_0
I0925 22:48:39.699388 11227 net.cpp:141] Setting up lstm1_h_conted_0
I0925 22:48:39.699447 11227 net.cpp:148] Top shape: 1 1 1000 (1000)
I0925 22:48:39.699460 11227 net.cpp:156] Memory required for data: 46016
I0925 22:48:39.699475 11227 layer_factory.hpp:77] Creating layer lstm1_transform_1
I0925 22:48:39.699504 11227 net.cpp:91] Creating Layer lstm1_transform_1
I0925 22:48:39.699515 11227 net.cpp:425] lstm1_transform_1 <- h_conted_0
I0925 22:48:39.699542 11227 net.cpp:399] lstm1_transform_1 -> W_hc_h_0
I0925 22:48:39.712646 11233 net.cpp:141] Setting up lstm1_x_transform
I0925 22:48:39.712707 11233 net.cpp:148] Top shape: 1 1 4000 (4000)
I0925 22:48:39.712718 11233 net.cpp:156] Memory required for data: 26016
I0925 22:48:39.712748 11233 layer_factory.hpp:77] Creating layer lstm1_W_xc_x_slice
I0925 22:48:39.712774 11233 net.cpp:91] Creating Layer lstm1_W_xc_x_slice
I0925 22:48:39.712786 11233 net.cpp:425] lstm1_W_xc_x_slice <- W_xc_x
I0925 22:48:39.712801 11233 net.cpp:399] lstm1_W_xc_x_slice -> W_xc_x_1
I0925 22:48:39.715798 11233 net.cpp:141] Setting up lstm1_W_xc_x_slice
I0925 22:48:39.715842 11233 net.cpp:148] Top shape: 1 1 4000 (4000)
I0925 22:48:39.715852 11233 net.cpp:156] Memory required for data: 42016
I0925 22:48:39.715862 11233 layer_factory.hpp:77] Creating layer lstm1_h_conted_0
I0925 22:48:39.715883 11233 net.cpp:91] Creating Layer lstm1_h_conted_0
I0925 22:48:39.715891 11233 net.cpp:425] lstm1_h_conted_0 <- h_0
I0925 22:48:39.715903 11233 net.cpp:425] lstm1_h_conted_0 <- cont_1_lstm1_cont_slice_0_split_0
I0925 22:48:39.715922 11233 net.cpp:399] lstm1_h_conted_0 -> h_conted_0
I0925 22:48:39.720854 11233 net.cpp:141] Setting up lstm1_h_conted_0
I0925 22:48:39.720907 11233 net.cpp:148] Top shape: 1 1 1000 (1000)
I0925 22:48:39.720917 11233 net.cpp:156] Memory required for data: 46016
I0925 22:48:39.720929 11233 layer_factory.hpp:77] Creating layer lstm1_transform_1
I0925 22:48:39.720963 11233 net.cpp:91] Creating Layer lstm1_transform_1
I0925 22:48:39.720978 11233 net.cpp:425] lstm1_transform_1 <- h_conted_0
I0925 22:48:39.721000 11233 net.cpp:399] lstm1_transform_1 -> W_hc_h_0
I0925 22:48:39.734760 11245 net.cpp:141] Setting up embedding
I0925 22:48:39.734817 11245 net.cpp:148] Top shape: 1 1 500 (500)
I0925 22:48:39.734827 11245 net.cpp:156] Memory required for data: 22408
I0925 22:48:39.734851 11245 layer_factory.hpp:77] Creating layer lstm1
I0925 22:48:39.734877 11245 net.cpp:91] Creating Layer lstm1
I0925 22:48:39.734890 11245 net.cpp:425] lstm1 <- embedded_input_frames
I0925 22:48:39.734927 11245 net.cpp:425] lstm1 <- cont_sentence_input_1_split_0
I0925 22:48:39.734946 11245 net.cpp:399] lstm1 -> lstm1
I0925 22:48:39.734968 11245 recurrent_layer.cpp:20] Initializing recurrent layer: assuming input batch contains 1 timesteps of 1 independent streams.
I0925 22:48:39.735421 11245 net.cpp:49] Initializing net from parameters: 
layer {
  name: "lstm1_"
  type: "Input"
  top: "x"
  top: "cont"
  input_param {
    shape {
      dim: 1
      dim: 1
      dim: 500
    }
    shape {
      dim: 1
      dim: 1
    }
  }
}
layer {
  name: "lstm1_"
  type: "Input"
  top: "c_0"
  top: "h_0"
  input_param {
    shape {
      dim: 1
      dim: 1
      dim: 1000
    }
    shape {
      dim: 1
      dim: 1
      dim: 1000
    }
  }
}
layer {
  name: "lstm1_cont_slice"
  type: "Slice"
  bottom: "cont"
  top: "cont_1"
  slice_param {
    axis: 0
  }
}
layer {
  name: "lstm1_x_transform"
  type: "InnerProduct"
  bottom: "x"
  top: "W_xc_x"
  param {
    name: "W_xc"
  }
  param {
    name: "b_c"
  }
  propagate_down: true
  inner_product_param {
    num_output: 4000
    bias_term: true
    weight_filler {
      type: "uniform"
      min: -0.08
      max: 0.08
    }
    bias_filler {
      type: "constant"
      value: 0
    }
    axis: 2
  }
}
layer {
  name: "lstm1_W_xc_x_slice"
  type: "Slice"
  bottom: "W_xc_x"
  top: "W_xc_x_1"
  slice_param {
    axis: 0
  }
}
layer {
  name: "lstm1_h_conted_0"
  type: "Scale"
  bottom: "h_0"
  bottom: "cont_1"
  top: "h_conted_0"
  scale_param {
    axis: 0
  }
}
layer {
  name: "lstm1_transform_1"
  type: "InnerProduct"
  bottom: "h_conted_0"
  top: "W_hc_h_0"
  param {
    name: "W_hc"
  }
  inner_product_param {
    num_output: 4000
    bias_term: false
    weight_filler {
      type: "uniform"
      min: -0.08
      max: 0.08
    }
    axis: 2
  }
}
layer {
  name: "lstm1_gate_input_1"
  type: "Eltwise"
  bottom: "W_hc_h_0"
  bottom: "W_xc_x_1"
  top: "gate_input_1"
  eltwise_param {
    operation: SUM
  }
}
layer {
  name: "lstm1_unit_1"
  type: "LSTMUnit"
  bottom: "c_0"
  bottom: "gate_input_1"
  bottom: "cont_1"
  top: "c_1"
  top: "h_1"
}
layer {
  name: "lstm1_"
  type: "Split"
  bottom: "c_1"
  top: "c_T"
}
layer {
  name: "lstm1_h_concat"
  type: "Concat"
  bottom: "h_1"
  top: "h"
  concat_param {
    axis: 0
  }
}
layer {
  name: "h_pseudoloss"
  type: "Reduction"
  bottom: "h"
  top: "h_pseudoloss"
  loss_weight: 1
}
I0925 22:48:39.735579 11245 layer_factory.hpp:77] Creating layer lstm1_
I0925 22:48:39.735599 11245 net.cpp:91] Creating Layer lstm1_
I0925 22:48:39.735610 11245 net.cpp:399] lstm1_ -> x
I0925 22:48:39.735627 11245 net.cpp:399] lstm1_ -> cont
I0925 22:48:39.737123 11245 net.cpp:141] Setting up lstm1_
I0925 22:48:39.737143 11245 net.cpp:148] Top shape: 1 1 500 (500)
I0925 22:48:39.737155 11245 net.cpp:148] Top shape: 1 1 (1)
I0925 22:48:39.737162 11245 net.cpp:156] Memory required for data: 2004
I0925 22:48:39.737171 11245 layer_factory.hpp:77] Creating layer lstm1_
I0925 22:48:39.737221 11245 net.cpp:91] Creating Layer lstm1_
I0925 22:48:39.737233 11245 net.cpp:399] lstm1_ -> c_0
I0925 22:48:39.737251 11245 net.cpp:399] lstm1_ -> h_0
I0925 22:48:39.743261 11245 net.cpp:141] Setting up lstm1_
I0925 22:48:39.743319 11245 net.cpp:148] Top shape: 1 1 1000 (1000)
I0925 22:48:39.743331 11245 net.cpp:148] Top shape: 1 1 1000 (1000)
I0925 22:48:39.743340 11245 net.cpp:156] Memory required for data: 10004
I0925 22:48:39.743352 11245 layer_factory.hpp:77] Creating layer lstm1_cont_slice
I0925 22:48:39.743341 11275 net.cpp:141] Setting up lstm1_transform_1
I0925 22:48:39.743396 11245 net.cpp:91] Creating Layer lstm1_cont_slice
I0925 22:48:39.743402 11275 net.cpp:148] Top shape: 1 1 4000 (4000)
I0925 22:48:39.743409 11245 net.cpp:425] lstm1_cont_slice <- cont
I0925 22:48:39.743412 11275 net.cpp:156] Memory required for data: 62016
I0925 22:48:39.743437 11275 layer_factory.hpp:77] Creating layer lstm1_gate_input_1
I0925 22:48:39.743439 11245 net.cpp:399] lstm1_cont_slice -> cont_1
I0925 22:48:39.743460 11275 net.cpp:91] Creating Layer lstm1_gate_input_1
I0925 22:48:39.743471 11275 net.cpp:425] lstm1_gate_input_1 <- W_hc_h_0
I0925 22:48:39.743482 11275 net.cpp:425] lstm1_gate_input_1 <- W_xc_x_1
I0925 22:48:39.743502 11275 net.cpp:399] lstm1_gate_input_1 -> gate_input_1
I0925 22:48:39.743523 11245 net.cpp:141] Setting up lstm1_cont_slice
I0925 22:48:39.743541 11245 net.cpp:148] Top shape: 1 1 (1)
I0925 22:48:39.743547 11245 net.cpp:156] Memory required for data: 10008
I0925 22:48:39.743556 11245 layer_factory.hpp:77] Creating layer cont_1_lstm1_cont_slice_0_split
I0925 22:48:39.743645 11245 net.cpp:91] Creating Layer cont_1_lstm1_cont_slice_0_split
I0925 22:48:39.743654 11275 net.cpp:141] Setting up lstm1_gate_input_1
I0925 22:48:39.743659 11245 net.cpp:425] cont_1_lstm1_cont_slice_0_split <- cont_1
I0925 22:48:39.743669 11275 net.cpp:148] Top shape: 1 1 4000 (4000)
I0925 22:48:39.743674 11245 net.cpp:399] cont_1_lstm1_cont_slice_0_split -> cont_1_lstm1_cont_slice_0_split_0
I0925 22:48:39.743679 11275 net.cpp:156] Memory required for data: 78016
I0925 22:48:39.743687 11275 layer_factory.hpp:77] Creating layer lstm1_unit_1
I0925 22:48:39.743695 11245 net.cpp:399] cont_1_lstm1_cont_slice_0_split -> cont_1_lstm1_cont_slice_0_split_1
I0925 22:48:39.743712 11275 net.cpp:91] Creating Layer lstm1_unit_1
I0925 22:48:39.743721 11275 net.cpp:425] lstm1_unit_1 <- c_0
I0925 22:48:39.743731 11275 net.cpp:425] lstm1_unit_1 <- gate_input_1
I0925 22:48:39.743739 11275 net.cpp:425] lstm1_unit_1 <- cont_1_lstm1_cont_slice_0_split_1
I0925 22:48:39.743749 11275 net.cpp:399] lstm1_unit_1 -> c_1
I0925 22:48:39.743767 11275 net.cpp:399] lstm1_unit_1 -> h_1
I0925 22:48:39.743891 11275 net.cpp:141] Setting up lstm1_unit_1
I0925 22:48:39.743906 11275 net.cpp:148] Top shape: 1 1 1000 (1000)
I0925 22:48:39.743916 11275 net.cpp:148] Top shape: 1 1 1000 (1000)
I0925 22:48:39.743922 11275 net.cpp:156] Memory required for data: 86016
I0925 22:48:39.743930 11275 layer_factory.hpp:77] Creating layer lstm1_
I0925 22:48:39.743943 11275 net.cpp:91] Creating Layer lstm1_
I0925 22:48:39.743952 11275 net.cpp:425] lstm1_ <- c_1
I0925 22:48:39.743962 11275 net.cpp:399] lstm1_ -> c_T
I0925 22:48:39.744119 11249 net.cpp:141] Setting up lstm1_transform_1
I0925 22:48:39.744141 11249 net.cpp:148] Top shape: 1 1 4000 (4000)
I0925 22:48:39.744149 11249 net.cpp:156] Memory required for data: 62016
I0925 22:48:39.744166 11249 layer_factory.hpp:77] Creating layer lstm1_gate_input_1
I0925 22:48:39.744184 11249 net.cpp:91] Creating Layer lstm1_gate_input_1
I0925 22:48:39.744194 11249 net.cpp:425] lstm1_gate_input_1 <- W_hc_h_0
I0925 22:48:39.744204 11249 net.cpp:425] lstm1_gate_input_1 <- W_xc_x_1
I0925 22:48:39.744220 11249 net.cpp:399] lstm1_gate_input_1 -> gate_input_1
I0925 22:48:39.758535 11249 net.cpp:141] Setting up lstm1_gate_input_1
I0925 22:48:39.758605 11249 net.cpp:148] Top shape: 1 1 4000 (4000)
I0925 22:48:39.758616 11249 net.cpp:156] Memory required for data: 78016
I0925 22:48:39.758627 11249 layer_factory.hpp:77] Creating layer lstm1_unit_1
I0925 22:48:39.758649 11249 net.cpp:91] Creating Layer lstm1_unit_1
I0925 22:48:39.758661 11249 net.cpp:425] lstm1_unit_1 <- c_0
I0925 22:48:39.758658 11245 net.cpp:141] Setting up cont_1_lstm1_cont_slice_0_split
I0925 22:48:39.758692 11249 net.cpp:425] lstm1_unit_1 <- gate_input_1
I0925 22:48:39.758703 11249 net.cpp:425] lstm1_unit_1 <- cont_1_lstm1_cont_slice_0_split_1
I0925 22:48:39.758704 11275 net.cpp:141] Setting up lstm1_
I0925 22:48:39.758714 11245 net.cpp:148] Top shape: 1 1 (1)
I0925 22:48:39.758715 11249 net.cpp:399] lstm1_unit_1 -> c_1
I0925 22:48:39.758730 11275 net.cpp:148] Top shape: 1 1 1000 (1000)
I0925 22:48:39.758735 11245 net.cpp:148] Top shape: 1 1 (1)
I0925 22:48:39.758741 11275 net.cpp:156] Memory required for data: 90016
I0925 22:48:39.758747 11245 net.cpp:156] Memory required for data: 10016
I0925 22:48:39.758754 11275 layer_factory.hpp:77] Creating layer lstm1_h_concat
I0925 22:48:39.758749 11249 net.cpp:399] lstm1_unit_1 -> h_1
I0925 22:48:39.758765 11245 layer_factory.hpp:77] Creating layer lstm1_x_transform
I0925 22:48:39.758766 11237 net.cpp:141] Setting up lstm1_transform_1
I0925 22:48:39.758771 11275 net.cpp:91] Creating Layer lstm1_h_concat
I0925 22:48:39.758797 11237 net.cpp:148] Top shape: 1 1 4000 (4000)
I0925 22:48:39.758806 11245 net.cpp:91] Creating Layer lstm1_x_transform
I0925 22:48:39.758812 11237 net.cpp:156] Memory required for data: 62016
I0925 22:48:39.758800 11275 net.cpp:425] lstm1_h_concat <- h_1
I0925 22:48:39.758824 11245 net.cpp:425] lstm1_x_transform <- x
I0925 22:48:39.758836 11237 layer_factory.hpp:77] Creating layer lstm1_gate_input_1
I0925 22:48:39.758842 11275 net.cpp:399] lstm1_h_concat -> h
I0925 22:48:39.758851 11245 net.cpp:399] lstm1_x_transform -> W_xc_x
I0925 22:48:39.758863 11237 net.cpp:91] Creating Layer lstm1_gate_input_1
I0925 22:48:39.758875 11237 net.cpp:425] lstm1_gate_input_1 <- W_hc_h_0
I0925 22:48:39.758874 11249 net.cpp:141] Setting up lstm1_unit_1
I0925 22:48:39.758893 11237 net.cpp:425] lstm1_gate_input_1 <- W_xc_x_1
I0925 22:48:39.758901 11249 net.cpp:148] Top shape: 1 1 1000 (1000)
I0925 22:48:39.758908 11237 net.cpp:399] lstm1_gate_input_1 -> gate_input_1
I0925 22:48:39.758911 11249 net.cpp:148] Top shape: 1 1 1000 (1000)
I0925 22:48:39.758929 11249 net.cpp:156] Memory required for data: 86016
I0925 22:48:39.758934 11275 net.cpp:141] Setting up lstm1_h_concat
I0925 22:48:39.758939 11249 layer_factory.hpp:77] Creating layer lstm1_
I0925 22:48:39.758955 11275 net.cpp:148] Top shape: 1 1 1000 (1000)
I0925 22:48:39.758960 11249 net.cpp:91] Creating Layer lstm1_
I0925 22:48:39.758965 11275 net.cpp:156] Memory required for data: 94016
I0925 22:48:39.758968 11249 net.cpp:425] lstm1_ <- c_1
I0925 22:48:39.758975 11275 layer_factory.hpp:77] Creating layer h_pseudoloss
I0925 22:48:39.758980 11249 net.cpp:399] lstm1_ -> c_T
I0925 22:48:39.758992 11237 net.cpp:141] Setting up lstm1_gate_input_1
I0925 22:48:39.759002 11275 net.cpp:91] Creating Layer h_pseudoloss
I0925 22:48:39.759011 11237 net.cpp:148] Top shape: 1 1 4000 (4000)
I0925 22:48:39.759012 11275 net.cpp:425] h_pseudoloss <- h
I0925 22:48:39.759019 11237 net.cpp:156] Memory required for data: 78016
I0925 22:48:39.759027 11275 net.cpp:399] h_pseudoloss -> h_pseudoloss
I0925 22:48:39.759032 11237 layer_factory.hpp:77] Creating layer lstm1_unit_1
I0925 22:48:39.759047 11237 net.cpp:91] Creating Layer lstm1_unit_1
I0925 22:48:39.759057 11237 net.cpp:425] lstm1_unit_1 <- c_0
I0925 22:48:39.759068 11237 net.cpp:425] lstm1_unit_1 <- gate_input_1
I0925 22:48:39.759078 11237 net.cpp:425] lstm1_unit_1 <- cont_1_lstm1_cont_slice_0_split_1
I0925 22:48:39.759096 11237 net.cpp:399] lstm1_unit_1 -> c_1
I0925 22:48:39.759119 11237 net.cpp:399] lstm1_unit_1 -> h_1
I0925 22:48:39.759153 11249 net.cpp:141] Setting up lstm1_
I0925 22:48:39.759168 11249 net.cpp:148] Top shape: 1 1 1000 (1000)
I0925 22:48:39.759176 11249 net.cpp:156] Memory required for data: 90016
I0925 22:48:39.759184 11249 layer_factory.hpp:77] Creating layer lstm1_h_concat
I0925 22:48:39.759201 11249 net.cpp:91] Creating Layer lstm1_h_concat
I0925 22:48:39.759208 11249 net.cpp:425] lstm1_h_concat <- h_1
I0925 22:48:39.759219 11249 net.cpp:399] lstm1_h_concat -> h
I0925 22:48:39.764231 11275 net.cpp:141] Setting up h_pseudoloss
I0925 22:48:39.764272 11275 net.cpp:148] Top shape: (1)
I0925 22:48:39.764356 11227 net.cpp:141] Setting up lstm1_transform_1
I0925 22:48:39.764365 11249 net.cpp:141] Setting up lstm1_h_concat
I0925 22:48:39.764376 11227 net.cpp:148] Top shape: 1 1 4000 (4000)
I0925 22:48:39.764384 11227 net.cpp:156] Memory required for data: 62016
I0925 22:48:39.764384 11249 net.cpp:148] Top shape: 1 1 1000 (1000)
I0925 22:48:39.764390 11249 net.cpp:156] Memory required for data: 94016
I0925 22:48:39.764399 11227 layer_factory.hpp:77] Creating layer lstm1_gate_input_1
I0925 22:48:39.764281 11275 net.cpp:151]     with loss weight 1
I0925 22:48:39.764400 11249 layer_factory.hpp:77] Creating layer h_pseudoloss
I0925 22:48:39.764436 11275 net.cpp:156] Memory required for data: 94020
I0925 22:48:39.764443 11249 net.cpp:91] Creating Layer h_pseudoloss
…
I0925 22:48:39.773947 11249 net.cpp:217] lstm1_x_transform needs backward computation.
I0925 22:48:39.773962 11249 net.cpp:219] cont_1_lstm1_cont_slice_0_split does not need backward computation.
I0925 22:48:39.773967 11227 net.cpp:399] lstm1_unit_1 -> h_1
I0925 22:48:39.773972 11249 net.cpp:219] lstm1_cont_slice does not need backward computation.
I0925 22:48:39.773974 11237 net.cpp:141] Setting up lstm1_
I0925 22:48:39.773983 11249 net.cpp:219] lstm1_ does not need backward computation.
I0925 22:48:39.773989 11249 net.cpp:219] lstm1_ does not need backward computation.
I0925 22:48:39.773993 11237 net.cpp:148] Top shape: 1 1 1000 (1000)
I0925 22:48:39.773995 11249 net.cpp:261] This network produces output c_T
I0925 22:48:39.774001 11237 net.cpp:156] Memory required for data: 90016
I0925 22:48:39.774004 11249 net.cpp:261] This network produces output h_pseudoloss
I0925 22:48:39.774010 11237 layer_factory.hpp:77] Creating layer lstm1_h_concat
I0925 22:48:39.774029 11237 net.cpp:91] Creating Layer lstm1_h_concat
I0925 22:48:39.774030 11249 net.cpp:274] Network initialization done.
I0925 22:48:39.774039 11237 net.cpp:425] lstm1_h_concat <- h_1
I0925 22:48:39.774039 11275 net.cpp:141] Setting up lstm1
I0925 22:48:39.774051 11237 net.cpp:399] lstm1_h_concat -> h
I0925 22:48:39.774061 11275 net.cpp:148] Top shape: 1 1 1000 (1000)
I0925 22:48:39.774070 11275 net.cpp:156] Memory required for data: 26408
I0925 22:48:39.774096 11275 layer_factory.hpp:77] Creating layer concat
I0925 22:48:39.774096 11249 recurrent_layer.cpp:150] Adding parameter 0: W_xc
I0925 22:48:39.774109 11249 recurrent_layer.cpp:150] Adding parameter 1: b_c
I0925 22:48:39.774111 11275 net.cpp:91] Creating Layer concat
I0925 22:48:39.774116 11249 recurrent_layer.cpp:150] Adding parameter 2: W_hc
I0925 22:48:39.774122 11275 net.cpp:425] concat <- lstm1
I0925 22:48:39.774121 11237 net.cpp:141] Setting up lstm1_h_concat
I0925 22:48:39.774133 11275 net.cpp:425] concat <- embedded_input_sentence
I0925 22:48:39.774142 11275 net.cpp:425] concat <- reshaped_stage_indicator
I0925 22:48:39.774150 11237 net.cpp:148] Top shape: 1 1 1000 (1000)
I0925 22:48:39.774154 11275 net.cpp:399] concat -> lstm1_video_sequence
I0925 22:48:39.774188 11237 net.cpp:156] Memory required for data: 94016
I0925 22:48:39.774206 11237 layer_factory.hpp:77] Creating layer h_pseudoloss
I0925 22:48:39.774230 11237 net.cpp:91] Creating Layer h_pseudoloss
I0925 22:48:39.774248 11275 net.cpp:141] Setting up concat
I0925 22:48:39.774233 11233 net.cpp:148] Top shape: 1 1 4000 (4000)
I0925 22:48:39.774269 11233 net.cpp:156] Memory required for data: 62016
I0925 22:48:39.774266 11237 net.cpp:425] h_pseudoloss <- h
I0925 22:48:39.774266 11275 net.cpp:148] Top shape: 1 1 1501 (1501)
I0925 22:48:39.774303 11237 net.cpp:399] h_pseudoloss -> h_pseudoloss
I0925 22:48:39.774341 11249 net.cpp:141] Setting up lstm1
I0925 22:48:39.774325 11275 net.cpp:156] Memory required for data: 32412
I0925 22:48:39.774368 11249 net.cpp:148] Top shape: 1 1 1000 (1000)
I0925 22:48:39.774370 11275 layer_factory.hpp:77] Creating layer lstm2
I0925 22:48:39.774379 11249 net.cpp:156] Memory required for data: 26408
I0925 22:48:39.774391 11275 net.cpp:91] Creating Layer lstm2
I0925 22:48:39.774401 11275 net.cpp:425] lstm2 <- lstm1_video_sequence
I0925 22:48:39.774402 11249 layer_factory.hpp:77] Creating layer concat
I0925 22:48:39.774412 11275 net.cpp:425] lstm2 <- cont_sentence_input_1_split_1
I0925 22:48:39.774420 11249 net.cpp:91] Creating Layer concat
I0925 22:48:39.774425 11275 net.cpp:399] lstm2 -> lstm2
I0925 22:48:39.774433 11249 net.cpp:425] concat <- lstm1
I0925 22:48:39.774443 11275 recurrent_layer.cpp:20] Initializing recurrent layer: assuming input batch contains 1 timesteps of 1 independent streams.
I0925 22:48:39.774287 11233 layer_factory.hpp:77] Creating layer lstm1_gate_input_1
I0925 22:48:39.774446 11249 net.cpp:425] concat <- embedded_input_sentence
I0925 22:48:39.774483 11249 net.cpp:425] concat <- reshaped_stage_indicator
I0925 22:48:39.774500 11249 net.cpp:399] concat -> lstm1_video_sequence
I0925 22:48:39.774564 11237 net.cpp:141] Setting up h_pseudoloss
I0925 22:48:39.774590 11237 net.cpp:148] Top shape: (1)
I0925 22:48:39.774610 11249 net.cpp:141] Setting up concat
I0925 22:48:39.774617 11237 net.cpp:151]     with loss weight 1
I0925 22:48:39.774628 11249 net.cpp:148] Top shape: 1 1 1501 (1501)
I0925 22:48:39.774636 11237 net.cpp:156] Memory required for data: 94020
I0925 22:48:39.774638 11249 net.cpp:156] Memory required for data: 32412
I0925 22:48:39.774657 11237 net.cpp:217] h_pseudoloss needs backward computation.
I0925 22:48:39.774663 11249 layer_factory.hpp:77] Creating layer lstm2
I0925 22:48:39.774669 11237 net.cpp:217] lstm1_h_concat needs backward computation.
I0925 22:48:39.774679 11237 net.cpp:219] lstm1_ does not need backward computation.
…
I0925 22:48:39.774823 11237 net.cpp:261] This network produces output h_pseudoloss
I0925 22:48:39.774853 11237 net.cpp:274] Network initialization done.
I0925 22:48:39.774866 11275 net.cpp:49] Initializing net from parameters: 
layer {
  name: "lstm2_"
  type: "Input"
  top: "x"
  top: "cont"
  input_param {
    shape {
      dim: 1
      dim: 1
      dim: 1501
    }
    shape {
      dim: 1
      dim: 1
    }
  }
}
layer {
  name: "lstm2_"
  type: "Input"
  top: "c_0"
  top: "h_0"
  input_param {
    shape {
      dim: 1
      dim: 1
      dim: 1000
    }
    shape {
      dim: 1
      dim: 1
      dim: 1000
    }
  }
}
layer {
  name: "lstm2_cont_slice"
  type: "Slice"
  bottom: "cont"
  top: "cont_1"
  slice_param {
    axis: 0
  }
}
layer {
  name: "lstm2_x_transform"
  type: "InnerProduct"
  bottom: "x"
  top: "W_xc_x"
  param {
    name: "W_xc"
  }
  param {
    name: "b_c"
  }
  propagate_down: true
  inner_product_param {
    num_output: 4000
    bias_term: true
    weight_filler {
      type: "uniform"
      min: -0.08
      max: 0.08
    }
    bias_filler {
      type: "constant"
      value: 0
    }
    axis: 2
  }
}
layer {
  name: "lstm2_W_xc_x_slice"
  type: "Slice"
  bottom: "W_xc_x"
  top: "W_xc_x_1"
  slice_param {
    axis: 0
  }
}
layer {
  name: "lstm2_h_conted_0"
  type: "Scale"
  bottom: "h_0"
  bottom: "cont_1"
  top: "h_conted_0"
  scale_param {
    axis: 0
  }
}
layer {
  name: "lstm2_transform_1"
  type: "InnerProduct"
  bottom: "h_conted_0"
  top: "W_hc_h_0"
  param {
    name: "W_hc"
  }
  inner_product_param {
    num_output: 4000
    bias_term: false
    weight_filler {
      type: "uniform"
      min: -0.08
      max: 0.08
    }
    axis: 2
  }
}
layer {
  name: "lstm2_gate_input_1"
  type: "Eltwise"
  bottom: "W_hc_h_0"
  bottom: "W_xc_x_1"
  top: "gate_input_1"
  eltwise_param {
    operation: SUM
  }
}
layer {
  name: "lstm2_unit_1"
  type: "LSTMUnit"
  bottom: "c_0"
  bottom: "gate_input_1"
  bottom: "cont_1"
  top: "c_1"
  top: "h_1"
}
layer {
  name: "lstm2_"
  type: "Split"
  bottom: "c_1"
  top: "c_T"
}
layer {
  name: "lstm2_h_concat"
  type: "Concat"
  bottom: "h_1"
  top: "h"
  concat_param {
    axis: 0
  }
}
layer {
  name: "h_pseudoloss"
  type: "Reduction"
  bottom: "h"
  top: "h_pseudoloss"
  loss_weight: 1
}
I0925 22:48:39.774922 11237 recurrent_layer.cpp:150] Adding parameter 0: W_xc
I0925 22:48:39.774935 11237 recurrent_layer.cpp:150] Adding parameter 1: b_c
I0925 22:48:39.774943 11237 recurrent_layer.cpp:150] Adding parameter 2: W_hc
I0925 22:48:39.775003 11275 layer_factory.hpp:77] Creating layer lstm2_
I0925 22:48:39.775023 11275 net.cpp:91] Creating Layer lstm2_
I0925 22:48:39.775035 11275 net.cpp:399] lstm2_ -> x
I0925 22:48:39.775051 11275 net.cpp:399] lstm2_ -> cont
I0925 22:48:39.775094 11249 net.cpp:49] Initializing net from parameters: 
layer {
  name: "lstm2_"
  type: "Input"
  top: "x"
  top: "cont"
  input_param {
    shape {
      dim: 1
      dim: 1
      dim: 1501
    }
    shape {
      dim: 1
      dim: 1
    }
  }
}
layer {
  name: "lstm2_"
  type: "Input"
  top: "c_0"
  top: "h_0"
  input_param {
    shape {
      dim: 1
      dim: 1
      dim: 1000
    }
    shape {
      dim: 1
      dim: 1
      dim: 1000
    }
  }
}
layer {
  name: "lstm2_cont_slice"
  type: "Slice"
  bottom: "cont"
  top: "cont_1"
  slice_param {
    axis: 0
  }
}
layer {
  name: "lstm2_x_transform"
  type: "InnerProduct"
  bottom: "x"
  top: "W_xc_x"
  param {
    name: "W_xc"
  }
  param {
    name: "b_c"
  }
  propagate_down: true
  inner_product_param {
    num_output: 4000
    bias_term: true
    weight_filler {
      type: "uniform"
      min: -0.08
      max: 0.08
    }
    bias_filler {
      type: "constant"
      value: 0
    }
    axis: 2
  }
}
layer {
  name: "lstm2_W_xc_x_slice"
  type: "Slice"
  bottom: "W_xc_x"
  top: "W_xc_x_1"
  slice_param {
    axis: 0
  }
}
layer {
  name: "lstm2_h_conted_0"
  type: "Scale"
  bottom: "h_0"
  bottom: "cont_1"
  top: "h_conted_0"
  scale_param {
    axis: 0
  }
}
layer {
  name: "lstm2_transform_1"
  type: "InnerProduct"
  bottom: "h_conted_0"
  top: "W_hc_h_0"
  param {
    name: "W_hc"
  }
  inner_product_param {
    num_output: 4000
    bias_term: false
    weight_filler {
      type: "uniform"
      min: -0.08
      max: 0.08
    }
    axis: 2
  }
}
layer {
  name: "lstm2_gate_input_1"
  type: "Eltwise"
  bottom: "W_hc_h_0"
  bottom: "W_xc_x_1"
  top: "gate_input_1"
  eltwise_param {
    operation: SUM
  }
}
layer {
  name: "lstm2_unit_1"
  type: "LSTMUnit"
  bottom: "c_0"
  bottom: "gate_input_1"
  bottom: "cont_1"
  top: "c_1"
  top: "h_1"
}
layer {
  name: "lstm2_"
  type: "Split"
  bottom: "c_1"
  top: "c_T"
}
layer {
  name: "lstm2_h_concat"
  type: "Concat"
  bottom: "h_1"
  top: "h"
  concat_param {
    axis: 0
  }
}
layer {
  name: "h_pseudoloss"
  type: "Reduction"
  bottom: "h"
  top: "h_pseudoloss"
  loss_weight: 1
}
I0925 22:48:39.775233 11249 layer_factory.hpp:77] Creating layer lstm2_
I0925 22:48:39.775254 11249 net.cpp:91] Creating Layer lstm2_
I0925 22:48:39.775269 11249 net.cpp:399] lstm2_ -> x
I0925 22:48:39.775288 11249 net.cpp:399] lstm2_ -> cont
I0925 22:48:39.775362 11233 net.cpp:91] Creating Layer lstm1_gate_input_1
I0925 22:48:39.775382 11233 net.cpp:425] lstm1_gate_input_1 <- W_hc_h_0
I0925 22:48:39.775394 11233 net.cpp:425] lstm1_gate_input_1 <- W_xc_x_1
I0925 22:48:39.775416 11233 net.cpp:399] lstm1_gate_input_1 -> gate_input_1
I0925 22:48:39.775431 11275 net.cpp:141] Setting up lstm2_
I0925 22:48:39.775449 11275 net.cpp:148] Top shape: 1 1 1501 (1501)
I0925 22:48:39.775460 11275 net.cpp:148] Top shape: 1 1 (1)
I0925 22:48:39.775466 11275 net.cpp:156] Memory required for data: 6008
I0925 22:48:39.775475 11275 layer_factory.hpp:77] Creating layer lstm2_
I0925 22:48:39.775483 11233 net.cpp:141] Setting up lstm1_gate_input_1
I0925 22:48:39.775490 11275 net.cpp:91] Creating Layer lstm2_
I0925 22:48:39.775501 11233 net.cpp:148] Top shape: 1 1 4000 (4000)
I0925 22:48:39.775506 11275 net.cpp:399] lstm2_ -> c_0
I0925 22:48:39.775511 11233 net.cpp:156] Memory required for data: 78016
I0925 22:48:39.775521 11233 layer_factory.hpp:77] Creating layer lstm1_unit_1
I0925 22:48:39.775526 11275 net.cpp:399] lstm2_ -> h_0
I0925 22:48:39.775540 11233 net.cpp:91] Creating Layer lstm1_unit_1
I0925 22:48:39.775552 11233 net.cpp:425] lstm1_unit_1 <- c_0
I0925 22:48:39.775564 11233 net.cpp:425] lstm1_unit_1 <- gate_input_1
I0925 22:48:39.775574 11233 net.cpp:425] lstm1_unit_1 <- cont_1_lstm1_cont_slice_0_split_1
I0925 22:48:39.775588 11233 net.cpp:399] lstm1_unit_1 -> c_1
I0925 22:48:39.775605 11233 net.cpp:399] lstm1_unit_1 -> h_1
I0925 22:48:39.775604 11275 net.cpp:141] Setting up lstm2_
I0925 22:48:39.775640 11275 net.cpp:148] Top shape: 1 1 1000 (1000)
I0925 22:48:39.775650 11275 net.cpp:148] Top shape: 1 1 1000 (1000)
I0925 22:48:39.775657 11275 net.cpp:156] Memory required for data: 14008
I0925 22:48:39.775665 11275 layer_factory.hpp:77] Creating layer lstm2_cont_slice
I0925 22:48:39.775684 11275 net.cpp:91] Creating Layer lstm2_cont_slice
I0925 22:48:39.775693 11275 net.cpp:425] lstm2_cont_slice <- cont
I0925 22:48:39.775707 11275 net.cpp:399] lstm2_cont_slice -> cont_1
I0925 22:48:39.775748 11233 net.cpp:141] Setting up lstm1_unit_1
I0925 22:48:39.775768 11233 net.cpp:148] Top shape: 1 1 1000 (1000)
I0925 22:48:39.775779 11233 net.cpp:148] Top shape: 1 1 1000 (1000)
I0925 22:48:39.775789 11233 net.cpp:156] Memory required for data: 86016
I0925 22:48:39.775799 11233 layer_factory.hpp:77] Creating layer lstm1_
I0925 22:48:39.775812 11233 net.cpp:91] Creating Layer lstm1_
I0925 22:48:39.775822 11233 net.cpp:425] lstm1_ <- c_1
I0925 22:48:39.775841 11233 net.cpp:399] lstm1_ -> c_T
I0925 22:48:39.775888 11237 net.cpp:141] Setting up lstm1
I0925 22:48:39.775907 11237 net.cpp:148] Top shape: 1 1 1000 (1000)
I0925 22:48:39.775914 11237 net.cpp:156] Memory required for data: 26408
I0925 22:48:39.775935 11237 layer_factory.hpp:77] Creating layer concat
I0925 22:48:39.775951 11237 net.cpp:91] Creating Layer concat
I0925 22:48:39.775961 11237 net.cpp:425] concat <- lstm1
I0925 22:48:39.775971 11237 net.cpp:425] concat <- embedded_input_sentence
I0925 22:48:39.775980 11237 net.cpp:425] concat <- reshaped_stage_indicator
I0925 22:48:39.775991 11237 net.cpp:399] concat -> lstm1_video_sequence
I0925 22:48:39.776039 11237 net.cpp:141] Setting up concat
I0925 22:48:39.776053 11237 net.cpp:148] Top shape: 1 1 1501 (1501)
I0925 22:48:39.776060 11237 net.cpp:156] Memory required for data: 32412
I0925 22:48:39.776068 11237 layer_factory.hpp:77] Creating layer lstm2
I0925 22:48:39.776090 11237 net.cpp:91] Creating Layer lstm2
I0925 22:48:39.776099 11237 net.cpp:425] lstm2 <- lstm1_video_sequence
I0925 22:48:39.776108 11237 net.cpp:425] lstm2 <- cont_sentence_input_1_split_1
I0925 22:48:39.776124 11237 net.cpp:399] lstm2 -> lstm2
I0925 22:48:39.776139 11237 recurrent_layer.cpp:20] Initializing recurrent layer: assuming input batch contains 1 timesteps of 1 independent streams.
I0925 22:48:39.776443 11237 net.cpp:49] Initializing net from parameters: 
layer {
  name: "lstm2_"
  type: "Input"
  top: "x"
  top: "cont"
  input_param {
    shape {
      dim: 1
      dim: 1
      dim: 1501
    }
    shape {
      dim: 1
      dim: 1
    }
  }
}
layer {
  name: "lstm2_"
  type: "Input"
  top: "c_0"
  top: "h_0"
  input_param {
    shape {
      dim: 1
      dim: 1
      dim: 1000
    }
    shape {
      dim: 1
      dim: 1
      dim: 1000
    }
  }
}
layer {
  name: "lstm2_cont_slice"
  type: "Slice"
  bottom: "cont"
  top: "cont_1"
  slice_param {
    axis: 0
  }
}
layer {
  name: "lstm2_x_transform"
  type: "InnerProduct"
  bottom: "x"
  top: "W_xc_x"
  param {
    name: "W_xc"
  }
  param {
    name: "b_c"
  }
  propagate_down: true
  inner_product_param {
    num_output: 4000
    bias_term: true
    weight_filler {
      type: "uniform"
      min: -0.08
      max: 0.08
    }
    bias_filler {
      type: "constant"
      value: 0
    }
    axis: 2
  }
}
layer {
  name: "lstm2_W_xc_x_slice"
  type: "Slice"
  bottom: "W_xc_x"
  top: "W_xc_x_1"
  slice_param {
    axis: 0
  }
}
layer {
  name: "lstm2_h_conted_0"
  type: "Scale"
  bottom: "h_0"
  bottom: "cont_1"
  top: "h_conted_0"
  scale_param {
    axis: 0
  }
}
layer {
  name: "lstm2_transform_1"
  type: "InnerProduct"
  bottom: "h_conted_0"
  top: "W_hc_h_0"
  param {
    name: "W_hc"
  }
  inner_product_param {
    num_output: 4000
    bias_term: false
    weight_filler {
      type: "uniform"
      min: -0.08
      max: 0.08
    }
    axis: 2
  }
}
layer {
  name: "lstm2_gate_input_1"
  type: "Eltwise"
  bottom: "W_hc_h_0"
  bottom: "W_xc_x_1"
  top: "gate_input_1"
  eltwise_param {
    operation: SUM
  }
}
layer {
  name: "lstm2_unit_1"
  type: "LSTMUnit"
  bottom: "c_0"
  bottom: "gate_input_1"
  bottom: "cont_1"
  top: "c_1"
  top: "h_1"
}
layer {
  name: "lstm2_"
  type: "Split"
  bottom: "c_1"
  top: "c_T"
}
layer {
  name: "lstm2_h_concat"
  type: "Concat"
  bottom: "h_1"
  top: "h"
  concat_param {
    axis: 0
  }
}
layer {
  name: "h_pseudoloss"
  type: "Reduction"
  bottom: "h"
  top: "h_pseudoloss"
  loss_weight: 1
}
I0925 22:48:39.776568 11237 layer_factory.hpp:77] Creating layer lstm2_
I0925 22:48:39.776587 11237 net.cpp:91] Creating Layer lstm2_
I0925 22:48:39.776597 11237 net.cpp:399] lstm2_ -> x
I0925 22:48:39.776612 11237 net.cpp:399] lstm2_ -> cont
I0925 22:48:39.776685 11237 net.cpp:141] Setting up lstm2_
I0925 22:48:39.776700 11237 net.cpp:148] Top shape: 1 1 1501 (1501)
I0925 22:48:39.776708 11237 net.cpp:148] Top shape: 1 1 (1)
I0925 22:48:39.776716 11237 net.cpp:156] Memory required for data: 6008
I0925 22:48:39.776724 11237 layer_factory.hpp:77] Creating layer lstm2_
I0925 22:48:39.776737 11237 net.cpp:91] Creating Layer lstm2_
I0925 22:48:39.776756 11237 net.cpp:399] lstm2_ -> c_0
I0925 22:48:39.776770 11237 net.cpp:399] lstm2_ -> h_0
I0925 22:48:39.776844 11237 net.cpp:141] Setting up lstm2_
I0925 22:48:39.776860 11237 net.cpp:148] Top shape: 1 1 1000 (1000)
I0925 22:48:39.776870 11237 net.cpp:148] Top shape: 1 1 1000 (1000)
I0925 22:48:39.776876 11237 net.cpp:156] Memory required for data: 14008
I0925 22:48:39.776885 11237 layer_factory.hpp:77] Creating layer lstm2_cont_slice
I0925 22:48:39.776896 11237 net.cpp:91] Creating Layer lstm2_cont_slice
I0925 22:48:39.776903 11237 net.cpp:425] lstm2_cont_slice <- cont
I0925 22:48:39.776918 11237 net.cpp:399] lstm2_cont_slice -> cont_1
I0925 22:48:39.776965 11237 net.cpp:141] Setting up lstm2_cont_slice
I0925 22:48:39.776978 11237 net.cpp:148] Top shape: 1 1 (1)
I0925 22:48:39.776986 11237 net.cpp:156] Memory required for data: 14012
I0925 22:48:39.776993 11237 layer_factory.hpp:77] Creating layer cont_1_lstm2_cont_slice_0_split
I0925 22:48:39.777014 11237 net.cpp:91] Creating Layer cont_1_lstm2_cont_slice_0_split
I0925 22:48:39.777022 11237 net.cpp:425] cont_1_lstm2_cont_slice_0_split <- cont_1
I0925 22:48:39.777032 11237 net.cpp:399] cont_1_lstm2_cont_slice_0_split -> cont_1_lstm2_cont_slice_0_split_0
I0925 22:48:39.777046 11237 net.cpp:399] cont_1_lstm2_cont_slice_0_split -> cont_1_lstm2_cont_slice_0_split_1
I0925 22:48:39.777120 11237 net.cpp:141] Setting up cont_1_lstm2_cont_slice_0_split
I0925 22:48:39.777134 11237 net.cpp:148] Top shape: 1 1 (1)
I0925 22:48:39.777144 11237 net.cpp:148] Top shape: 1 1 (1)
I0925 22:48:39.777151 11237 net.cpp:156] Memory required for data: 14020
I0925 22:48:39.777158 11237 layer_factory.hpp:77] Creating layer lstm2_x_transform
I0925 22:48:39.777184 11237 net.cpp:91] Creating Layer lstm2_x_transform
I0925 22:48:39.777192 11237 net.cpp:425] lstm2_x_transform <- x
I0925 22:48:39.777206 11237 net.cpp:399] lstm2_x_transform -> W_xc_x
I0925 22:48:39.795225 11275 net.cpp:141] Setting up lstm2_cont_slice
I0925 22:48:39.795284 11275 net.cpp:148] Top shape: 1 1 (1)
I0925 22:48:39.795295 11275 net.cpp:156] Memory required for data: 14012
I0925 22:48:39.795308 11275 layer_factory.hpp:77] Creating layer cont_1_lstm2_cont_slice_0_split
I0925 22:48:39.795333 11275 net.cpp:91] Creating Layer cont_1_lstm2_cont_slice_0_split
I0925 22:48:39.795346 11275 net.cpp:425] cont_1_lstm2_cont_slice_0_split <- cont_1
I0925 22:48:39.795377 11275 net.cpp:399] cont_1_lstm2_cont_slice_0_split -> cont_1_lstm2_cont_slice_0_split_0
I0925 22:48:39.795382 11249 net.cpp:141] Setting up lstm2_
I0925 22:48:39.795398 11275 net.cpp:399] cont_1_lstm2_cont_slice_0_split -> cont_1_lstm2_cont_slice_0_split_1
I0925 22:48:39.795405 11249 net.cpp:148] Top shape: 1 1 1501 (1501)
I0925 22:48:39.795421 11249 net.cpp:148] Top shape: 1 1 (1)
I0925 22:48:39.795430 11249 net.cpp:156] Memory required for data: 6008
I0925 22:48:39.795441 11249 layer_factory.hpp:77] Creating layer lstm2_
I0925 22:48:39.795466 11249 net.cpp:91] Creating Layer lstm2_
I0925 22:48:39.795482 11249 net.cpp:399] lstm2_ -> c_0
I0925 22:48:39.795485 11275 net.cpp:141] Setting up cont_1_lstm2_cont_slice_0_split
I0925 22:48:39.795501 11275 net.cpp:148] Top shape: 1 1 (1)
I0925 22:48:39.795507 11249 net.cpp:399] lstm2_ -> h_0
I0925 22:48:39.795511 11275 net.cpp:148] Top shape: 1 1 (1)
I0925 22:48:39.795545 11275 net.cpp:156] Memory required for data: 14020
I0925 22:48:39.795555 11275 layer_factory.hpp:77] Creating layer lstm2_x_transform
I0925 22:48:39.795581 11275 net.cpp:91] Creating Layer lstm2_x_transform
I0925 22:48:39.795591 11275 net.cpp:425] lstm2_x_transform <- x
I0925 22:48:39.795605 11275 net.cpp:399] lstm2_x_transform -> W_xc_x
I0925 22:48:39.795629 11249 net.cpp:141] Setting up lstm2_
I0925 22:48:39.795650 11249 net.cpp:148] Top shape: 1 1 1000 (1000)
I0925 22:48:39.795661 11249 net.cpp:148] Top shape: 1 1 1000 (1000)
I0925 22:48:39.795670 11249 net.cpp:156] Memory required for data: 14008
I0925 22:48:39.795678 11249 layer_factory.hpp:77] Creating layer lstm2_cont_slice
I0925 22:48:39.795696 11249 net.cpp:91] Creating Layer lstm2_cont_slice
I0925 22:48:39.795707 11249 net.cpp:425] lstm2_cont_slice <- cont
I0925 22:48:39.795742 11249 net.cpp:399] lstm2_cont_slice -> cont_1
I0925 22:48:39.795786 11233 net.cpp:141] Setting up lstm1_
I0925 22:48:39.795805 11233 net.cpp:148] Top shape: 1 1 1000 (1000)
I0925 22:48:39.795815 11233 net.cpp:156] Memory required for data: 90016
I0925 22:48:39.795825 11233 layer_factory.hpp:77] Creating layer lstm1_h_concat
I0925 22:48:39.795842 11233 net.cpp:91] Creating Layer lstm1_h_concat
I0925 22:48:39.795855 11233 net.cpp:425] lstm1_h_concat <- h_1
I0925 22:48:39.795869 11233 net.cpp:399] lstm1_h_concat -> h
I0925 22:48:39.810672 11265 net.cpp:141] Setting up embedding
I0925 22:48:39.810736 11265 net.cpp:148] Top shape: 1 1 500 (500)
I0925 22:48:39.810744 11265 net.cpp:156] Memory required for data: 22408
I0925 22:48:39.810763 11265 layer_factory.hpp:77] Creating layer lstm1
I0925 22:48:39.810786 11265 net.cpp:91] Creating Layer lstm1
I0925 22:48:39.810793 11265 net.cpp:425] lstm1 <- embedded_input_frames
I0925 22:48:39.810802 11265 net.cpp:425] lstm1 <- cont_sentence_input_1_split_0
I0925 22:48:39.810817 11265 net.cpp:399] lstm1 -> lstm1
I0925 22:48:39.810835 11265 recurrent_layer.cpp:20] Initializing recurrent layer: assuming input batch contains 1 timesteps of 1 independent streams.
I0925 22:48:39.811122 11265 net.cpp:49] Initializing net from parameters: 
layer {
  name: "lstm1_"
  type: "Input"
  top: "x"
  top: "cont"
  input_param {
    shape {
      dim: 1
      dim: 1
      dim: 500
    }
    shape {
      dim: 1
      dim: 1
    }
  }
}
layer {
  name: "lstm1_"
  type: "Input"
  top: "c_0"
  top: "h_0"
  input_param {
    shape {
      dim: 1
      dim: 1
      dim: 1000
    }
    shape {
      dim: 1
      dim: 1
      dim: 1000
    }
  }
}
layer {
  name: "lstm1_cont_slice"
  type: "Slice"
  bottom: "cont"
  top: "cont_1"
  slice_param {
    axis: 0
  }
}
layer {
  name: "lstm1_x_transform"
  type: "InnerProduct"
  bottom: "x"
  top: "W_xc_x"
  param {
    name: "W_xc"
  }
  param {
    name: "b_c"
  }
  propagate_down: true
  inner_product_param {
    num_output: 4000
    bias_term: true
    weight_filler {
      type: "uniform"
      min: -0.08
      max: 0.08
    }
    bias_filler {
      type: "constant"
      value: 0
    }
    axis: 2
  }
}
layer {
  name: "lstm1_W_xc_x_slice"
  type: "Slice"
  bottom: "W_xc_x"
  top: "W_xc_x_1"
  slice_param {
    axis: 0
  }
}
layer {
  name: "lstm1_h_conted_0"
  type: "Scale"
  bottom: "h_0"
  bottom: "cont_1"
  top: "h_conted_0"
  scale_param {
    axis: 0
  }
}
layer {
  name: "lstm1_transform_1"
  type: "InnerProduct"
  bottom: "h_conted_0"
  top: "W_hc_h_0"
  param {
    name: "W_hc"
  }
  inner_product_param {
    num_output: 4000
    bias_term: false
    weight_filler {
      type: "uniform"
      min: -0.08
      max: 0.08
    }
    axis: 2
  }
}
layer {
  name: "lstm1_gate_input_1"
  type: "Eltwise"
  bottom: "W_hc_h_0"
  bottom: "W_xc_x_1"
  top: "gate_input_1"
  eltwise_param {
    operation: SUM
  }
}
layer {
  name: "lstm1_unit_1"
  type: "LSTMUnit"
  bottom: "c_0"
  bottom: "gate_input_1"
  bottom: "cont_1"
  top: "c_1"
  top: "h_1"
}
layer {
  name: "lstm1_"
  type: "Split"
  bottom: "c_1"
  top: "c_T"
}
layer {
  name: "lstm1_h_concat"
  type: "Concat"
  bottom: "h_1"
  top: "h"
  concat_param {
    axis: 0
  }
}
layer {
  name: "h_pseudoloss"
  type: "Reduction"
  bottom: "h"
  top: "h_pseudoloss"
  loss_weight: 1
}
I0925 22:48:39.811242 11265 layer_factory.hpp:77] Creating layer lstm1_
I0925 22:48:39.811259 11265 net.cpp:91] Creating Layer lstm1_
I0925 22:48:39.811265 11265 net.cpp:399] lstm1_ -> x
I0925 22:48:39.811277 11265 net.cpp:399] lstm1_ -> cont
I0925 22:48:39.810699 11249 net.cpp:141] Setting up lstm2_cont_slice
I0925 22:48:39.814702 11249 net.cpp:148] Top shape: 1 1 (1)
I0925 22:48:39.814723 11249 net.cpp:156] Memory required for data: 14012
I0925 22:48:39.814734 11249 layer_factory.hpp:77] Creating layer cont_1_lstm2_cont_slice_0_split
I0925 22:48:39.814755 11249 net.cpp:91] Creating Layer cont_1_lstm2_cont_slice_0_split
I0925 22:48:39.814765 11249 net.cpp:425] cont_1_lstm2_cont_slice_0_split <- cont_1
I0925 22:48:39.814779 11249 net.cpp:399] cont_1_lstm2_cont_slice_0_split -> cont_1_lstm2_cont_slice_0_split_0
I0925 22:48:39.814802 11249 net.cpp:399] cont_1_lstm2_cont_slice_0_split -> cont_1_lstm2_cont_slice_0_split_1
I0925 22:48:39.817718 11233 net.cpp:141] Setting up lstm1_h_concat
I0925 22:48:39.817742 11233 net.cpp:148] Top shape: 1 1 1000 (1000)
I0925 22:48:39.817751 11233 net.cpp:156] Memory required for data: 94016
I0925 22:48:39.817761 11233 layer_factory.hpp:77] Creating layer h_pseudoloss
I0925 22:48:39.817792 11227 net.cpp:141] Setting up lstm1_unit_1
I0925 22:48:39.817811 11227 net.cpp:148] Top shape: 1 1 1000 (1000)
I0925 22:48:39.817816 11233 net.cpp:91] Creating Layer h_pseudoloss
I0925 22:48:39.817821 11227 net.cpp:148] Top shape: 1 1 1000 (1000)
I0925 22:48:39.817827 11233 net.cpp:425] h_pseudoloss <- h
I0925 22:48:39.817849 11233 net.cpp:399] h_pseudoloss -> h_pseudoloss
I0925 22:48:39.817941 11245 net.cpp:141] Setting up lstm1_x_transform
I0925 22:48:39.817961 11245 net.cpp:148] Top shape: 1 1 4000 (4000)
I0925 22:48:39.817970 11245 net.cpp:156] Memory required for data: 26016
I0925 22:48:39.817991 11245 layer_factory.hpp:77] Creating layer lstm1_W_xc_x_slice
I0925 22:48:39.818007 11245 net.cpp:91] Creating Layer lstm1_W_xc_x_slice
I0925 22:48:39.818014 11245 net.cpp:425] lstm1_W_xc_x_slice <- W_xc_x
I0925 22:48:39.818023 11245 net.cpp:399] lstm1_W_xc_x_slice -> W_xc_x_1
I0925 22:48:39.818030 11249 net.cpp:141] Setting up cont_1_lstm2_cont_slice_0_split
I0925 22:48:39.818048 11249 net.cpp:148] Top shape: 1 1 (1)
I0925 22:48:39.818058 11249 net.cpp:148] Top shape: 1 1 (1)
I0925 22:48:39.818064 11249 net.cpp:156] Memory required for data: 14020
I0925 22:48:39.818073 11249 layer_factory.hpp:77] Creating layer lstm2_x_transform
I0925 22:48:39.818083 11245 net.cpp:141] Setting up lstm1_W_xc_x_slice
I0925 22:48:39.818095 11249 net.cpp:91] Creating Layer lstm2_x_transform
I0925 22:48:39.818099 11245 net.cpp:148] Top shape: 1 1 4000 (4000)
I0925 22:48:39.818104 11249 net.cpp:425] lstm2_x_transform <- x
I0925 22:48:39.818109 11245 net.cpp:156] Memory required for data: 42016
I0925 22:48:39.818110 11265 net.cpp:141] Setting up lstm1_
I0925 22:48:39.818119 11245 layer_factory.hpp:77] Creating layer lstm1_h_conted_0
I0925 22:48:39.818117 11249 net.cpp:399] lstm2_x_transform -> W_xc_x
I0925 22:48:39.817828 11227 net.cpp:156] Memory required for data: 86016
I0925 22:48:39.818140 11265 net.cpp:148] Top shape: 1 1 500 (500)
I0925 22:48:39.818148 11227 layer_factory.hpp:77] Creating layer lstm1_
I0925 22:48:39.818151 11265 net.cpp:148] Top shape: 1 1 (1)
I0925 22:48:39.818159 11227 net.cpp:91] Creating Layer lstm1_
I0925 22:48:39.818173 11227 net.cpp:425] lstm1_ <- c_1
I0925 22:48:39.818184 11227 net.cpp:399] lstm1_ -> c_T
I0925 22:48:39.818238 11227 net.cpp:141] Setting up lstm1_
I0925 22:48:39.818253 11227 net.cpp:148] Top shape: 1 1 1000 (1000)
I0925 22:48:39.818260 11227 net.cpp:156] Memory required for data: 90016
I0925 22:48:39.818269 11227 layer_factory.hpp:77] Creating layer lstm1_h_concat
I0925 22:48:39.818289 11227 net.cpp:91] Creating Layer lstm1_h_concat
I0925 22:48:39.818296 11227 net.cpp:425] lstm1_h_concat <- h_1
I0925 22:48:39.818305 11227 net.cpp:399] lstm1_h_concat -> h
I0925 22:48:39.818133 11245 net.cpp:91] Creating Layer lstm1_h_conted_0
I0925 22:48:39.818325 11245 net.cpp:425] lstm1_h_conted_0 <- h_0
I0925 22:48:39.818333 11245 net.cpp:425] lstm1_h_conted_0 <- cont_1_lstm1_cont_slice_0_split_0
I0925 22:48:39.818341 11245 net.cpp:399] lstm1_h_conted_0 -> h_conted_0
I0925 22:48:39.818159 11265 net.cpp:156] Memory required for data: 2004
I0925 22:48:39.818359 11265 layer_factory.hpp:77] Creating layer lstm1_
I0925 22:48:39.818378 11265 net.cpp:91] Creating Layer lstm1_
I0925 22:48:39.818389 11265 net.cpp:399] lstm1_ -> c_0
I0925 22:48:39.818400 11265 net.cpp:399] lstm1_ -> h_0
I0925 22:48:39.833050 11233 net.cpp:141] Setting up h_pseudoloss
I0925 22:48:39.833083 11227 net.cpp:141] Setting up lstm1_h_concat
I0925 22:48:39.833114 11227 net.cpp:148] Top shape: 1 1 1000 (1000)
I0925 22:48:39.833114 11233 net.cpp:148] Top shape: (1)
I0925 22:48:39.833129 11227 net.cpp:156] Memory required for data: 94016
I0925 22:48:39.833143 11227 layer_factory.hpp:77] Creating layer h_pseudoloss
I0925 22:48:39.833133 11233 net.cpp:151]     with loss weight 1
I0925 22:48:39.833159 11233 net.cpp:156] Memory required for data: 94020
I0925 22:48:39.833170 11233 net.cpp:217] h_pseudoloss needs backward computation.
…
I0925 22:48:39.840883 11227 recurrent_layer.cpp:150] Adding parameter 2: W_hc
I0925 22:48:39.841064 11231 net.cpp:49] Initializing net from parameters: 
layer {
  name: "lstm1_"
  type: "Input"
  top: "x"
  top: "cont"
  input_param {
    shape {
      dim: 1
      dim: 1
      dim: 500
    }
    shape {
      dim: 1
      dim: 1
    }
  }
}
layer {
  name: "lstm1_"
  type: "Input"
  top: "c_0"
  top: "h_0"
  input_param {
    shape {
      dim: 1
      dim: 1
      dim: 1000
    }
    shape {
      dim: 1
      dim: 1
      dim: 1000
    }
  }
}
layer {
  name: "lstm1_cont_slice"
  type: "Slice"
  bottom: "cont"
  top: "cont_1"
  slice_param {
    axis: 0
  }
}
layer {
  name: "lstm1_x_transform"
  type: "InnerProduct"
  bottom: "x"
  top: "W_xc_x"
  param {
    name: "W_xc"
  }
  param {
    name: "b_c"
  }
  propagate_down: true
  inner_product_param {
    num_output: 4000
    bias_term: true
    weight_filler {
      type: "uniform"
      min: -0.08
      max: 0.08
    }
    bias_filler {
      type: "constant"
      value: 0
    }
    axis: 2
  }
}
layer {
  name: "lstm1_W_xc_x_slice"
  type: "Slice"
  bottom: "W_xc_x"
  top: "W_xc_x_1"
  slice_param {
    axis: 0
  }
}
layer {
  name: "lstm1_h_conted_0"
  type: "Scale"
  bottom: "h_0"
  bottom: "cont_1"
  top: "h_conted_0"
  scale_param {
    axis: 0
  }
}
layer {
  name: "lstm1_transform_1"
  type: "InnerProduct"
  bottom: "h_conted_0"
  top: "W_hc_h_0"
  param {
    name: "W_hc"
  }
  inner_product_param {
    num_output: 4000
    bias_term: false
    weight_filler {
      type: "uniform"
      min: -0.08
      max: 0.08
    }
    axis: 2
  }
}
layer {
  name: "lstm1_gate_input_1"
  type: "Eltwise"
  bottom: "W_hc_h_0"
  bottom: "W_xc_x_1"
  top: "gate_input_1"
  eltwise_param {
    operation: SUM
  }
}
layer {
  name: "lstm1_unit_1"
  type: "LSTMUnit"
  bottom: "c_0"
  bottom: "gate_input_1"
  bottom: "cont_1"
  top: "c_1"
  top: "h_1"
}
layer {
  name: "lstm1_"
  type: "Split"
  bottom: "c_1"
  top: "c_T"
}
layer {
  name: "lstm1_h_concat"
  type: "Concat"
  bottom: "h_1"
  top: "h"
  concat_param {
    axis: 0
  }
}
layer {
  name: "h_pseudoloss"
  type: "Reduction"
  bottom: "h"
  top: "h_pseudoloss"
  loss_weight: 1
}
I0925 22:48:39.841238 11231 layer_factory.hpp:77] Creating layer lstm1_
I0925 22:48:39.841264 11231 net.cpp:91] Creating Layer lstm1_
I0925 22:48:39.841274 11231 net.cpp:399] lstm1_ -> x
I0925 22:48:39.841295 11231 net.cpp:399] lstm1_ -> cont
I0925 22:48:39.841794 11265 net.cpp:141] Setting up lstm1_cont_slice
I0925 22:48:39.841828 11265 net.cpp:148] Top shape: 1 1 (1)
I0925 22:48:39.841833 11265 net.cpp:156] Memory required for data: 10008
I0925 22:48:39.841842 11265 layer_factory.hpp:77] Creating layer cont_1_lstm1_cont_slice_0_split
I0925 22:48:39.841866 11265 net.cpp:91] Creating Layer cont_1_lstm1_cont_slice_0_split
I0925 22:48:39.841879 11265 net.cpp:425] cont_1_lstm1_cont_slice_0_split <- cont_1
I0925 22:48:39.841881 11233 net.cpp:141] Setting up lstm1
I0925 22:48:39.841893 11265 net.cpp:399] cont_1_lstm1_cont_slice_0_split -> cont_1_lstm1_cont_slice_0_split_0
I0925 22:48:39.841923 11233 net.cpp:148] Top shape: 1 1 1000 (1000)
I0925 22:48:39.841929 11265 net.cpp:399] cont_1_lstm1_cont_slice_0_split -> cont_1_lstm1_cont_slice_0_split_1
I0925 22:48:39.841933 11233 net.cpp:156] Memory required for data: 26408
I0925 22:48:39.841964 11233 layer_factory.hpp:77] Creating layer concat
I0925 22:48:39.841984 11233 net.cpp:91] Creating Layer concat
I0925 22:48:39.841997 11233 net.cpp:425] concat <- lstm1
I0925 22:48:39.842010 11233 net.cpp:425] concat <- embedded_input_sentence
I0925 22:48:39.842020 11233 net.cpp:425] concat <- reshaped_stage_indicator
I0925 22:48:39.842020 11265 net.cpp:141] Setting up cont_1_lstm1_cont_slice_0_split
I0925 22:48:39.842044 11265 net.cpp:148] Top shape: 1 1 (1)
I0925 22:48:39.842043 11233 net.cpp:399] concat -> lstm1_video_sequence
I0925 22:48:39.842052 11265 net.cpp:148] Top shape: 1 1 (1)
I0925 22:48:39.842057 11265 net.cpp:156] Memory required for data: 10016
I0925 22:48:39.842062 11265 layer_factory.hpp:77] Creating layer lstm1_x_transform
I0925 22:48:39.842064 11227 net.cpp:141] Setting up lstm1
I0925 22:48:39.842084 11265 net.cpp:91] Creating Layer lstm1_x_transform
I0925 22:48:39.842083 11227 net.cpp:148] Top shape: 1 1 1000 (1000)
I0925 22:48:39.842102 11265 net.cpp:425] lstm1_x_transform <- x
I0925 22:48:39.842108 11227 net.cpp:156] Memory required for data: 26408
I0925 22:48:39.842113 11265 net.cpp:399] lstm1_x_transform -> W_xc_x
I0925 22:48:39.842123 11227 layer_factory.hpp:77] Creating layer concat
I0925 22:48:39.842139 11227 net.cpp:91] Creating Layer concat
I0925 22:48:39.842149 11227 net.cpp:425] concat <- lstm1
I0925 22:48:39.842156 11227 net.cpp:425] concat <- embedded_input_sentence
I0925 22:48:39.842162 11227 net.cpp:425] concat <- reshaped_stage_indicator
I0925 22:48:39.842170 11227 net.cpp:399] concat -> lstm1_video_sequence
I0925 22:48:39.842236 11231 net.cpp:141] Setting up lstm1_
I0925 22:48:39.842274 11231 net.cpp:148] Top shape: 1 1 500 (500)
I0925 22:48:39.842290 11231 net.cpp:148] Top shape: 1 1 (1)
I0925 22:48:39.842300 11231 net.cpp:156] Memory required for data: 2004
I0925 22:48:39.842314 11231 layer_factory.hpp:77] Creating layer lstm1_
I0925 22:48:39.842321 11227 net.cpp:141] Setting up concat
I0925 22:48:39.842337 11227 net.cpp:148] Top shape: 1 1 1501 (1501)
I0925 22:48:39.842336 11231 net.cpp:91] Creating Layer lstm1_
I0925 22:48:39.842347 11227 net.cpp:156] Memory required for data: 32412
I0925 22:48:39.842356 11227 layer_factory.hpp:77] Creating layer lstm2
I0925 22:48:39.842365 11231 net.cpp:399] lstm1_ -> c_0
I0925 22:48:39.842377 11227 net.cpp:91] Creating Layer lstm2
I0925 22:48:39.842381 11233 net.cpp:141] Setting up concat
I0925 22:48:39.842389 11227 net.cpp:425] lstm2 <- lstm1_video_sequence
I0925 22:48:39.842396 11233 net.cpp:148] Top shape: 1 1 1501 (1501)
I0925 22:48:39.842396 11231 net.cpp:399] lstm1_ -> h_0
I0925 22:48:39.842406 11233 net.cpp:156] Memory required for data: 32412
I0925 22:48:39.842417 11233 layer_factory.hpp:77] Creating layer lstm2
I0925 22:48:39.842401 11227 net.cpp:425] lstm2 <- cont_sentence_input_1_split_1
I0925 22:48:39.842435 11233 net.cpp:91] Creating Layer lstm2
I0925 22:48:39.842440 11227 net.cpp:399] lstm2 -> lstm2
I0925 22:48:39.842444 11233 net.cpp:425] lstm2 <- lstm1_video_sequence
I0925 22:48:39.842456 11233 net.cpp:425] lstm2 <- cont_sentence_input_1_split_1
I0925 22:48:39.842459 11227 recurrent_layer.cpp:20] Initializing recurrent layer: assuming input batch contains 1 timesteps of 1 independent streams.
I0925 22:48:39.842470 11233 net.cpp:399] lstm2 -> lstm2
I0925 22:48:39.842484 11233 recurrent_layer.cpp:20] Initializing recurrent layer: assuming input batch contains 1 timesteps of 1 independent streams.
I0925 22:48:39.845700 11227 net.cpp:49] Initializing net from parameters: 
layer {
  name: "lstm2_"
  type: "Input"
  top: "x"
  top: "cont"
  input_param {
    shape {
      dim: 1
      dim: 1
      dim: 1501
    }
    shape {
      dim: 1
      dim: 1
    }
  }
}
layer {
  name: "lstm2_"
  type: "Input"
  top: "c_0"
  top: "h_0"
  input_param {
    shape {
      dim: 1
      dim: 1
      dim: 1000
    }
    shape {
      dim: 1
      dim: 1
      dim: 1000
    }
  }
}
layer {
  name: "lstm2_cont_slice"
  type: "Slice"
  bottom: "cont"
  top: "cont_1"
  slice_param {
    axis: 0
  }
}
layer {
  name: "lstm2_x_transform"
  type: "InnerProduct"
  bottom: "x"
  top: "W_xc_x"
  param {
    name: "W_xc"
  }
  param {
    name: "b_c"
  }
  propagate_down: true
  inner_product_param {
    num_output: 4000
    bias_term: true
    weight_filler {
      type: "uniform"
      min: -0.08
      max: 0.08
    }
    bias_filler {
      type: "constant"
      value: 0
    }
    axis: 2
  }
}
layer {
  name: "lstm2_W_xc_x_slice"
  type: "Slice"
  bottom: "W_xc_x"
  top: "W_xc_x_1"
  slice_param {
    axis: 0
  }
}
layer {
  name: "lstm2_h_conted_0"
  type: "Scale"
  bottom: "h_0"
  bottom: "cont_1"
  top: "h_conted_0"
  scale_param {
    axis: 0
  }
}
layer {
  name: "lstm2_transform_1"
  type: "InnerProduct"
  bottom: "h_conted_0"
  top: "W_hc_h_0"
  param {
    name: "W_hc"
  }
  inner_product_param {
    num_output: 4000
    bias_term: false
    weight_filler {
      type: "uniform"
      min: -0.08
      max: 0.08
    }
    axis: 2
  }
}
layer {
  name: "lstm2_gate_input_1"
  type: "Eltwise"
  bottom: "W_hc_h_0"
  bottom: "W_xc_x_1"
  top: "gate_input_1"
  eltwise_param {
    operation: SUM
  }
}
layer {
  name: "lstm2_unit_1"
  type: "LSTMUnit"
  bottom: "c_0"
  bottom: "gate_input_1"
  bottom: "cont_1"
  top: "c_1"
  top: "h_1"
}
layer {
  name: "lstm2_"
  type: "Split"
  bottom: "c_1"
  top: "c_T"
}
layer {
  name: "lstm2_h_concat"
  type: "Concat"
  bottom: "h_1"
  top: "h"
  concat_param {
    axis: 0
  }
}
layer {
  name: "h_pseudoloss"
  type: "Reduction"
  bottom: "h"
  top: "h_pseudoloss"
  loss_weight: 1
}
I0925 22:48:39.845686 11233 net.cpp:49] Initializing net from parameters: 
layer {
  name: "lstm2_"
  type: "Input"
  top: "x"
  top: "cont"
  input_param {
    shape {
      dim: 1
      dim: 1
      dim: 1501
    }
    shape {
      dim: 1
      dim: 1
    }
  }
}
layer {
  name: "lstm2_"
  type: "Input"
  top: "c_0"
  top: "h_0"
  input_param {
    shape {
      dim: 1
      dim: 1
      dim: 1000
    }
    shape {
      dim: 1
      dim: 1
      dim: 1000
    }
  }
}
layer {
  name: "lstm2_cont_slice"
  type: "Slice"
  bottom: "cont"
  top: "cont_1"
  slice_param {
    axis: 0
  }
}
layer {
  name: "lstm2_x_transform"
  type: "InnerProduct"
  bottom: "x"
  top: "W_xc_x"
  param {
    name: "W_xc"
  }
  param {
    name: "b_c"
  }
  propagate_down: true
  inner_product_param {
    num_output: 4000
    bias_term: true
    weight_filler {
      type: "uniform"
      min: -0.08
      max: 0.08
    }
    bias_filler {
      type: "constant"
      value: 0
    }
    axis: 2
  }
}
layer {
  name: "lstm2_W_xc_x_slice"
  type: "Slice"
  bottom: "W_xc_x"
  top: "W_xc_x_1"
  slice_param {
    axis: 0
  }
}
layer {
  name: "lstm2_h_conted_0"
  type: "Scale"
  bottom: "h_0"
  bottom: "cont_1"
  top: "h_conted_0"
  scale_param {
    axis: 0
  }
}
layer {
  name: "lstm2_transform_1"
  type: "InnerProduct"
  bottom: "h_conted_0"
  top: "W_hc_h_0"
  param {
    name: "W_hc"
  }
  inner_product_param {
    num_output: 4000
    bias_term: false
    weight_filler {
      type: "uniform"
      min: -0.08
      max: 0.08
    }
    axis: 2
  }
}
layer {
  name: "lstm2_gate_input_1"
  type: "Eltwise"
  bottom: "W_hc_h_0"
  bottom: "W_xc_x_1"
  top: "gate_input_1"
  eltwise_param {
    operation: SUM
  }
}
layer {
  name: "lstm2_unit_1"
  type: "LSTMUnit"
  bottom: "c_0"
  bottom: "gate_input_1"
  bottom: "cont_1"
  top: "c_1"
  top: "h_1"
}
layer {
  name: "lstm2_"
  type: "Split"
  bottom: "c_1"
  top: "c_T"
}
layer {
  name: "lstm2_h_concat"
  type: "Concat"
  bottom: "h_1"
  top: "h"
  concat_param {
    axis: 0
  }
}
layer {
  name: "h_pseudoloss"
  type: "Reduction"
  bottom: "h"
  top: "h_pseudoloss"
  loss_weight: 1
}
I0925 22:48:39.849423 11227 layer_factory.hpp:77] Creating layer lstm2_
I0925 22:48:39.849457 11227 net.cpp:91] Creating Layer lstm2_
I0925 22:48:39.849468 11227 net.cpp:399] lstm2_ -> x
I0925 22:48:39.849491 11227 net.cpp:399] lstm2_ -> cont
I0925 22:48:39.849537 11233 layer_factory.hpp:77] Creating layer lstm2_
I0925 22:48:39.849551 11233 net.cpp:91] Creating Layer lstm2_
I0925 22:48:39.849560 11233 net.cpp:399] lstm2_ -> x
I0925 22:48:39.849573 11233 net.cpp:399] lstm2_ -> cont
I0925 22:48:39.852692 11231 net.cpp:141] Setting up lstm1_
I0925 22:48:39.852728 11227 net.cpp:141] Setting up lstm2_
I0925 22:48:39.852749 11231 net.cpp:148] Top shape: 1 1 1000 (1000)
I0925 22:48:39.852780 11227 net.cpp:148] Top shape: 1 1 1501 (1501)
I0925 22:48:39.852783 11231 net.cpp:148] Top shape: 1 1 1000 (1000)
I0925 22:48:39.852790 11227 net.cpp:148] Top shape: 1 1 (1)
I0925 22:48:39.852797 11227 net.cpp:156] Memory required for data: 6008
I0925 22:48:39.852795 11231 net.cpp:156] Memory required for data: 10004
I0925 22:48:39.852807 11227 layer_factory.hpp:77] Creating layer lstm2_
I0925 22:48:39.852810 11231 layer_factory.hpp:77] Creating layer lstm1_cont_slice
I0925 22:48:39.852828 11227 net.cpp:91] Creating Layer lstm2_
I0925 22:48:39.852833 11231 net.cpp:91] Creating Layer lstm1_cont_slice
I0925 22:48:39.852841 11231 net.cpp:425] lstm1_cont_slice <- cont
I0925 22:48:39.852847 11227 net.cpp:399] lstm2_ -> c_0
I0925 22:48:39.852857 11231 net.cpp:399] lstm1_cont_slice -> cont_1
I0925 22:48:39.852864 11227 net.cpp:399] lstm2_ -> h_0
I0925 22:48:39.852934 11227 net.cpp:141] Setting up lstm2_
I0925 22:48:39.852944 11227 net.cpp:148] Top shape: 1 1 1000 (1000)
I0925 22:48:39.852951 11227 net.cpp:148] Top shape: 1 1 1000 (1000)
I0925 22:48:39.852954 11227 net.cpp:156] Memory required for data: 14008
I0925 22:48:39.852959 11227 layer_factory.hpp:77] Creating layer lstm2_cont_slice
I0925 22:48:39.852975 11227 net.cpp:91] Creating Layer lstm2_cont_slice
I0925 22:48:39.852982 11227 net.cpp:425] lstm2_cont_slice <- cont
I0925 22:48:39.852991 11227 net.cpp:399] lstm2_cont_slice -> cont_1
I0925 22:48:39.852991 11231 net.cpp:141] Setting up lstm1_cont_slice
I0925 22:48:39.853005 11231 net.cpp:148] Top shape: 1 1 (1)
I0925 22:48:39.853010 11231 net.cpp:156] Memory required for data: 10008
I0925 22:48:39.853016 11231 layer_factory.hpp:77] Creating layer cont_1_lstm1_cont_slice_0_split
I0925 22:48:39.853030 11231 net.cpp:91] Creating Layer cont_1_lstm1_cont_slice_0_split
I0925 22:48:39.853036 11231 net.cpp:425] cont_1_lstm1_cont_slice_0_split <- cont_1
I0925 22:48:39.853045 11231 net.cpp:399] cont_1_lstm1_cont_slice_0_split -> cont_1_lstm1_cont_slice_0_split_0
I0925 22:48:39.853047 11227 net.cpp:141] Setting up lstm2_cont_slice
I0925 22:48:39.853058 11227 net.cpp:148] Top shape: 1 1 (1)
I0925 22:48:39.853056 11231 net.cpp:399] cont_1_lstm1_cont_slice_0_split -> cont_1_lstm1_cont_slice_0_split_1
I0925 22:48:39.853063 11227 net.cpp:156] Memory required for data: 14012
I0925 22:48:39.853070 11227 layer_factory.hpp:77] Creating layer cont_1_lstm2_cont_slice_0_split
I0925 22:48:39.853082 11227 net.cpp:91] Creating Layer cont_1_lstm2_cont_slice_0_split
I0925 22:48:39.853087 11227 net.cpp:425] cont_1_lstm2_cont_slice_0_split <- cont_1
I0925 22:48:39.853096 11227 net.cpp:399] cont_1_lstm2_cont_slice_0_split -> cont_1_lstm2_cont_slice_0_split_0
I0925 22:48:39.853104 11227 net.cpp:399] cont_1_lstm2_cont_slice_0_split -> cont_1_lstm2_cont_slice_0_split_1
I0925 22:48:39.853179 11227 net.cpp:141] Setting up cont_1_lstm2_cont_slice_0_split
I0925 22:48:39.853189 11227 net.cpp:148] Top shape: 1 1 (1)
I0925 22:48:39.853195 11227 net.cpp:148] Top shape: 1 1 (1)
I0925 22:48:39.853199 11227 net.cpp:156] Memory required for data: 14020
I0925 22:48:39.853204 11227 layer_factory.hpp:77] Creating layer lstm2_x_transform
I0925 22:48:39.853220 11227 net.cpp:91] Creating Layer lstm2_x_transform
I0925 22:48:39.853225 11227 net.cpp:425] lstm2_x_transform <- x
I0925 22:48:39.853235 11227 net.cpp:399] lstm2_x_transform -> W_xc_x
I0925 22:48:39.853232 11231 net.cpp:141] Setting up cont_1_lstm1_cont_slice_0_split
I0925 22:48:39.853246 11231 net.cpp:148] Top shape: 1 1 (1)
I0925 22:48:39.853253 11231 net.cpp:148] Top shape: 1 1 (1)
I0925 22:48:39.853258 11231 net.cpp:156] Memory required for data: 10016
I0925 22:48:39.853265 11231 layer_factory.hpp:77] Creating layer lstm1_x_transform
I0925 22:48:39.853281 11231 net.cpp:91] Creating Layer lstm1_x_transform
I0925 22:48:39.853287 11231 net.cpp:425] lstm1_x_transform <- x
I0925 22:48:39.853297 11231 net.cpp:399] lstm1_x_transform -> W_xc_x
I0925 22:48:39.873947 11233 net.cpp:141] Setting up lstm2_
I0925 22:48:39.874011 11233 net.cpp:148] Top shape: 1 1 1501 (1501)
I0925 22:48:39.874025 11233 net.cpp:148] Top shape: 1 1 (1)
I0925 22:48:39.874034 11233 net.cpp:156] Memory required for data: 6008
I0925 22:48:39.874048 11233 layer_factory.hpp:77] Creating layer lstm2_
I0925 22:48:39.874091 11233 net.cpp:91] Creating Layer lstm2_
I0925 22:48:39.874107 11233 net.cpp:399] lstm2_ -> c_0
I0925 22:48:39.874137 11233 net.cpp:399] lstm2_ -> h_0
I0925 22:48:39.874220 11265 net.cpp:141] Setting up lstm1_x_transform
I0925 22:48:39.874258 11265 net.cpp:148] Top shape: 1 1 4000 (4000)
I0925 22:48:39.874263 11265 net.cpp:156] Memory required for data: 26016
I0925 22:48:39.874282 11265 layer_factory.hpp:77] Creating layer lstm1_W_xc_x_slice
I0925 22:48:39.874299 11265 net.cpp:91] Creating Layer lstm1_W_xc_x_slice
I0925 22:48:39.874305 11265 net.cpp:425] lstm1_W_xc_x_slice <- W_xc_x
I0925 22:48:39.874315 11265 net.cpp:399] lstm1_W_xc_x_slice -> W_xc_x_1
I0925 22:48:39.874377 11265 net.cpp:141] Setting up lstm1_W_xc_x_slice
I0925 22:48:39.874388 11265 net.cpp:148] Top shape: 1 1 4000 (4000)
I0925 22:48:39.874393 11265 net.cpp:156] Memory required for data: 42016
I0925 22:48:39.874398 11265 layer_factory.hpp:77] Creating layer lstm1_h_conted_0
I0925 22:48:39.874409 11265 net.cpp:91] Creating Layer lstm1_h_conted_0
I0925 22:48:39.874414 11265 net.cpp:425] lstm1_h_conted_0 <- h_0
I0925 22:48:39.874421 11265 net.cpp:425] lstm1_h_conted_0 <- cont_1_lstm1_cont_slice_0_split_0
I0925 22:48:39.874429 11265 net.cpp:399] lstm1_h_conted_0 -> h_conted_0
I0925 22:48:39.874487 11245 net.cpp:141] Setting up lstm1_transform_1
I0925 22:48:39.874510 11245 net.cpp:148] Top shape: 1 1 4000 (4000)
I0925 22:48:39.874514 11245 net.cpp:156] Memory required for data: 62016
I0925 22:48:39.874527 11245 layer_factory.hpp:77] Creating layer lstm1_gate_input_1
I0925 22:48:39.874541 11245 net.cpp:91] Creating Layer lstm1_gate_input_1
I0925 22:48:39.874548 11245 net.cpp:425] lstm1_gate_input_1 <- W_hc_h_0
I0925 22:48:39.874546 11233 net.cpp:141] Setting up lstm2_
I0925 22:48:39.874555 11245 net.cpp:425] lstm1_gate_input_1 <- W_xc_x_1
I0925 22:48:39.874564 11245 net.cpp:399] lstm1_gate_input_1 -> gate_input_1
I0925 22:48:39.874567 11233 net.cpp:148] Top shape: 1 1 1000 (1000)
I0925 22:48:39.874578 11233 net.cpp:148] Top shape: 1 1 1000 (1000)
I0925 22:48:39.874586 11233 net.cpp:156] Memory required for data: 14008
I0925 22:48:39.874606 11233 layer_factory.hpp:77] Creating layer lstm2_cont_slice
I0925 22:48:39.874626 11233 net.cpp:91] Creating Layer lstm2_cont_slice
I0925 22:48:39.874635 11233 net.cpp:425] lstm2_cont_slice <- cont
I0925 22:48:39.874650 11233 net.cpp:399] lstm2_cont_slice -> cont_1
I0925 22:48:39.874729 11233 net.cpp:141] Setting up lstm2_cont_slice
I0925 22:48:39.874747 11233 net.cpp:148] Top shape: 1 1 (1)
I0925 22:48:39.874754 11233 net.cpp:156] Memory required for data: 14012
I0925 22:48:39.874763 11233 layer_factory.hpp:77] Creating layer cont_1_lstm2_cont_slice_0_split
I0925 22:48:39.874783 11233 net.cpp:91] Creating Layer cont_1_lstm2_cont_slice_0_split
I0925 22:48:39.874792 11233 net.cpp:425] cont_1_lstm2_cont_slice_0_split <- cont_1
I0925 22:48:39.874794 11237 net.cpp:141] Setting up lstm2_x_transform
I0925 22:48:39.874805 11233 net.cpp:399] cont_1_lstm2_cont_slice_0_split -> cont_1_lstm2_cont_slice_0_split_0
I0925 22:48:39.874814 11237 net.cpp:148] Top shape: 1 1 4000 (4000)
I0925 22:48:39.874824 11237 net.cpp:156] Memory required for data: 30020
I0925 22:48:39.874825 11233 net.cpp:399] cont_1_lstm2_cont_slice_0_split -> cont_1_lstm2_cont_slice_0_split_1
I0925 22:48:39.874841 11237 layer_factory.hpp:77] Creating layer lstm2_W_xc_x_slice
I0925 22:48:39.874855 11237 net.cpp:91] Creating Layer lstm2_W_xc_x_slice
I0925 22:48:39.874864 11237 net.cpp:425] lstm2_W_xc_x_slice <- W_xc_x
…
I0925 22:48:40.190786 11249 net.cpp:217] lstm2_h_concat needs backward computation.
I0925 22:48:40.190814 11249 net.cpp:219] lstm2_ does not need backward computation.
I0925 22:48:40.190785 11231 layer_factory.hpp:77] Creating layer h_pseudoloss
I0925 22:48:40.190830 11265 net.cpp:141] Setting up lstm2_W_xc_x_slice
I0925 22:48:40.190820 11249 net.cpp:217] lstm2_unit_1 needs backward computation.
I0925 22:48:40.190855 11265 net.cpp:148] Top shape: 1 1 4000 (4000)
I0925 22:48:40.190853 11231 net.cpp:91] Creating Layer h_pseudoloss
I0925 22:48:40.190858 11249 net.cpp:217] lstm2_gate_input_1 needs backward computation.
I0925 22:48:40.190866 11231 net.cpp:425] h_pseudoloss <- h
I0925 22:48:40.190861 11265 net.cpp:156] Memory required for data: 46020
I0925 22:48:40.190881 11249 net.cpp:217] lstm2_transform_1 needs backward computation.
I0925 22:48:40.190886 11265 layer_factory.hpp:77] Creating layer lstm2_h_conted_0
…
I0925 22:48:40.273129 11245 net.cpp:91] Creating Layer lstm2_W_xc_x_slice
I0925 22:48:40.273180 11245 net.cpp:425] lstm2_W_xc_x_slice <- W_xc_x
I0925 22:48:40.273202 11245 net.cpp:399] lstm2_W_xc_x_slice -> W_xc_x_1
I0925 22:48:40.275715 11231 net.cpp:274] Network initialization done.
I0925 22:48:40.275826 11231 recurrent_layer.cpp:150] Adding parameter 0: W_xc
I0925 22:48:40.275838 11231 recurrent_layer.cpp:150] Adding parameter 1: b_c
I0925 22:48:40.275846 11231 recurrent_layer.cpp:150] Adding parameter 2: W_hc
I0925 22:48:40.279779 11233 net.cpp:141] Setting up lstm2_unit_1
I0925 22:48:40.279820 11233 net.cpp:148] Top shape: 1 1 1000 (1000)
I0925 22:48:40.279831 11233 net.cpp:148] Top shape: 1 1 1000 (1000)
I0925 22:48:40.279839 11233 net.cpp:156] Memory required for data: 90020
I0925 22:48:40.279850 11233 layer_factory.hpp:77] Creating layer lstm2_
I0925 22:48:40.279868 11233 net.cpp:91] Creating Layer lstm2_
I0925 22:48:40.279877 11233 net.cpp:425] lstm2_ <- c_1
I0925 22:48:40.279891 11233 net.cpp:399] lstm2_ -> c_T
I0925 22:48:40.279942 11265 net.cpp:141] Setting up lstm2_h_conted_0
I0925 22:48:40.279963 11265 net.cpp:148] Top shape: 1 1 1000 (1000)
I0925 22:48:40.279970 11265 net.cpp:156] Memory required for data: 50020
I0925 22:48:40.279978 11265 layer_factory.hpp:77] Creating layer lstm2_transform_1
I0925 22:48:40.279997 11265 net.cpp:91] Creating Layer lstm2_transform_1
I0925 22:48:40.280006 11265 net.cpp:425] lstm2_transform_1 <- h_conted_0
I0925 22:48:40.280019 11265 net.cpp:399] lstm2_transform_1 -> W_hc_h_0
I0925 22:48:40.280055 11249 net.cpp:141] Setting up lstm2
I0925 22:48:40.280089 11249 net.cpp:148] Top shape: 1 1 1000 (1000)
I0925 22:48:40.280093 11245 net.cpp:141] Setting up lstm2_W_xc_x_slice
I0925 22:48:40.280107 11249 net.cpp:156] Memory required for data: 36412
I0925 22:48:40.280119 11245 net.cpp:148] Top shape: 1 1 4000 (4000)
I0925 22:48:40.280128 11233 net.cpp:141] Setting up lstm2_
I0925 22:48:40.280130 11245 net.cpp:156] Memory required for data: 46020
I0925 22:48:40.280156 11233 net.cpp:148] Top shape: 1 1 1000 (1000)
I0925 22:48:40.280164 11233 net.cpp:156] Memory required for data: 94020
I0925 22:48:40.280172 11233 layer_factory.hpp:77] Creating layer lstm2_h_concat
I0925 22:48:40.280149 11249 layer_factory.hpp:77] Creating layer predict
I0925 22:48:40.280184 11245 layer_factory.hpp:77] Creating layer lstm2_h_conted_0
I0925 22:48:40.280191 11233 net.cpp:91] Creating Layer lstm2_h_concat
I0925 22:48:40.280200 11233 net.cpp:425] lstm2_h_concat <- h_1
I0925 22:48:40.280207 11245 net.cpp:91] Creating Layer lstm2_h_conted_0
I0925 22:48:40.280211 11233 net.cpp:399] lstm2_h_concat -> h
I0925 22:48:40.280208 11249 net.cpp:91] Creating Layer predict
I0925 22:48:40.280220 11245 net.cpp:425] lstm2_h_conted_0 <- h_0
I0925 22:48:40.280232 11245 net.cpp:425] lstm2_h_conted_0 <- cont_1_lstm2_cont_slice_0_split_0
I0925 22:48:40.280231 11249 net.cpp:425] predict <- lstm2
I0925 22:48:40.280282 11249 net.cpp:399] predict -> predict
I0925 22:48:40.289047 11245 net.cpp:399] lstm2_h_conted_0 -> h_conted_0
I0925 22:48:40.289118 11233 net.cpp:141] Setting up lstm2_h_concat
I0925 22:48:40.289139 11233 net.cpp:148] Top shape: 1 1 1000 (1000)
I0925 22:48:40.289147 11233 net.cpp:156] Memory required for data: 98020
I0925 22:48:40.289156 11233 layer_factory.hpp:77] Creating layer h_pseudoloss
I0925 22:48:40.289175 11233 net.cpp:91] Creating Layer h_pseudoloss
I0925 22:48:40.289183 11233 net.cpp:425] h_pseudoloss <- h
I0925 22:48:40.289201 11233 net.cpp:399] h_pseudoloss -> h_pseudoloss
I0925 22:48:40.299391 11231 net.cpp:141] Setting up lstm1
I0925 22:48:40.299424 11231 net.cpp:148] Top shape: 1 1 1000 (1000)
I0925 22:48:40.299433 11231 net.cpp:156] Memory required for data: 26408
I0925 22:48:40.299463 11231 layer_factory.hpp:77] Creating layer concat
I0925 22:48:40.299487 11231 net.cpp:91] Creating Layer concat
I0925 22:48:40.299499 11231 net.cpp:425] concat <- lstm1
I0925 22:48:40.299512 11231 net.cpp:425] concat <- embedded_input_sentence
I0925 22:48:40.299522 11231 net.cpp:425] concat <- reshaped_stage_indicator
…
I0925 22:48:40.304967 11233 net.cpp:219] lstm2_ does not need backward computation.
I0925 22:48:40.304973 11233 net.cpp:261] This network produces output c_T
I0925 22:48:40.304982 11233 net.cpp:261] This network produces output h_pseudoloss
I0925 22:48:40.305009 11233 net.cpp:274] Network initialization done.
I0925 22:48:40.305081 11233 recurrent_layer.cpp:150] Adding parameter 0: W_xc
I0925 22:48:40.305093 11233 recurrent_layer.cpp:150] Adding parameter 1: b_c
I0925 22:48:40.305099 11233 recurrent_layer.cpp:150] Adding parameter 2: W_hc
I0925 22:48:40.408510 11231 net.cpp:141] Setting up concat
I0925 22:48:40.408577 11231 net.cpp:148] Top shape: 1 1 1501 (1501)
I0925 22:48:40.408589 11231 net.cpp:156] Memory required for data: 32412
I0925 22:48:40.408604 11231 layer_factory.hpp:77] Creating layer lstm2
I0925 22:48:40.408641 11231 net.cpp:91] Creating Layer lstm2
I0925 22:48:40.408655 11231 net.cpp:425] lstm2 <- lstm1_video_sequence
I0925 22:48:40.408671 11231 net.cpp:425] lstm2 <- cont_sentence_input_1_split_1
I0925 22:48:40.408689 11231 net.cpp:399] lstm2 -> lstm2
I0925 22:48:40.408720 11231 recurrent_layer.cpp:20] Initializing recurrent layer: assuming input batch contains 1 timesteps of 1 independent streams.
I0925 22:48:40.408768 11265 net.cpp:141] Setting up lstm2_transform_1
I0925 22:48:40.408810 11265 net.cpp:148] Top shape: 1 1 4000 (4000)
I0925 22:48:40.408821 11265 net.cpp:156] Memory required for data: 66020
I0925 22:48:40.408844 11265 layer_factory.hpp:77] Creating layer lstm2_gate_input_1
I0925 22:48:40.408880 11265 net.cpp:91] Creating Layer lstm2_gate_input_1
I0925 22:48:40.408890 11265 net.cpp:425] lstm2_gate_input_1 <- W_hc_h_0
I0925 22:48:40.408900 11265 net.cpp:425] lstm2_gate_input_1 <- W_xc_x_1
I0925 22:48:40.408908 11265 net.cpp:399] lstm2_gate_input_1 -> gate_input_1
I0925 22:48:40.408921 11245 net.cpp:141] Setting up lstm2_h_conted_0
I0925 22:48:40.408946 11245 net.cpp:148] Top shape: 1 1 1000 (1000)
I0925 22:48:40.408957 11245 net.cpp:156] Memory required for data: 50020
I0925 22:48:40.408967 11245 layer_factory.hpp:77] Creating layer lstm2_transform_1
I0925 22:48:40.408984 11265 net.cpp:141] Setting up lstm2_gate_input_1
I0925 22:48:40.409003 11265 net.cpp:148] Top shape: 1 1 4000 (4000)
I0925 22:48:40.409010 11265 net.cpp:156] Memory required for data: 82020
I0925 22:48:40.409015 11265 layer_factory.hpp:77] Creating layer lstm2_unit_1
I0925 22:48:40.409019 11245 net.cpp:91] Creating Layer lstm2_transform_1
I0925 22:48:40.409025 11265 net.cpp:91] Creating Layer lstm2_unit_1
I0925 22:48:40.409042 11245 net.cpp:425] lstm2_transform_1 <- h_conted_0
I0925 22:48:40.409044 11233 net.cpp:141] Setting up lstm2
I0925 22:48:40.409049 11265 net.cpp:425] lstm2_unit_1 <- c_0
I0925 22:48:40.409065 11245 net.cpp:399] lstm2_transform_1 -> W_hc_h_0
I0925 22:48:40.409070 11233 net.cpp:148] Top shape: 1 1 1000 (1000)
I0925 22:48:40.409072 11265 net.cpp:425] lstm2_unit_1 <- gate_input_1
I0925 22:48:40.409078 11233 net.cpp:156] Memory required for data: 36412
I0925 22:48:40.409082 11265 net.cpp:425] lstm2_unit_1 <- cont_1_lstm2_cont_slice_0_split_1
I0925 22:48:40.409096 11265 net.cpp:399] lstm2_unit_1 -> c_1
I0925 22:48:40.409102 11233 layer_factory.hpp:77] Creating layer predict
I0925 22:48:40.409111 11265 net.cpp:399] lstm2_unit_1 -> h_1
I0925 22:48:40.409121 11233 net.cpp:91] Creating Layer predict
I0925 22:48:40.409131 11233 net.cpp:425] predict <- lstm2
I0925 22:48:40.409142 11233 net.cpp:399] predict -> predict
I0925 22:48:40.409186 11231 net.cpp:49] Initializing net from parameters: 
layer {
  name: "lstm2_"
  type: "Input"
  top: "x"
  top: "cont"
  input_param {
    shape {
      dim: 1
      dim: 1
      dim: 1501
    }
    shape {
      dim: 1
      dim: 1
    }
  }
}
layer {
  name: "lstm2_"
  type: "Input"
  top: "c_0"
  top: "h_0"
  input_param {
    shape {
      dim: 1
      dim: 1
      dim: 1000
    }
    shape {
      dim: 1
      dim: 1
      dim: 1000
    }
  }
}
layer {
  name: "lstm2_cont_slice"
  type: "Slice"
  bottom: "cont"
  top: "cont_1"
  slice_param {
    axis: 0
  }
}
layer {
  name: "lstm2_x_transform"
  type: "InnerProduct"
  bottom: "x"
  top: "W_xc_x"
  param {
    name: "W_xc"
  }
  param {
    name: "b_c"
  }
  propagate_down: true
  inner_product_param {
    num_output: 4000
    bias_term: true
    weight_filler {
      type: "uniform"
      min: -0.08
      max: 0.08
    }
    bias_filler {
      type: "constant"
      value: 0
    }
    axis: 2
  }
}
layer {
  name: "lstm2_W_xc_x_slice"
  type: "Slice"
  bottom: "W_xc_x"
  top: "W_xc_x_1"
  slice_param {
    axis: 0
  }
}
layer {
  name: "lstm2_h_conted_0"
  type: "Scale"
  bottom: "h_0"
  bottom: "cont_1"
  top: "h_conted_0"
  scale_param {
    axis: 0
  }
}
layer {
  name: "lstm2_transform_1"
  type: "InnerProduct"
  bottom: "h_conted_0"
  top: "W_hc_h_0"
  param {
    name: "W_hc"
  }
  inner_product_param {
    num_output: 4000
    bias_term: false
    weight_filler {
      type: "uniform"
      min: -0.08
      max: 0.08
    }
    axis: 2
  }
}
layer {
  name: "lstm2_gate_input_1"
  type: "Eltwise"
  bottom: "W_hc_h_0"
  bottom: "W_xc_x_1"
  top: "gate_input_1"
  eltwise_param {
    operation: SUM
  }
}
layer {
  name: "lstm2_unit_1"
  type: "LSTMUnit"
  bottom: "c_0"
  bottom: "gate_input_1"
  bottom: "cont_1"
  top: "c_1"
  top: "h_1"
}
layer {
  name: "lstm2_"
  type: "Split"
  bottom: "c_1"
  top: "c_T"
}
layer {
  name: "lstm2_h_concat"
  type: "Concat"
  bottom: "h_1"
  top: "h"
  concat_param {
    axis: 0
  }
}
layer {
  name: "h_pseudoloss"
  type: "Reduction"
  bottom: "h"
  top: "h_pseudoloss"
  loss_weight: 1
}
I0925 22:48:40.409339 11231 layer_factory.hpp:77] Creating layer lstm2_
I0925 22:48:40.409360 11231 net.cpp:91] Creating Layer lstm2_
I0925 22:48:40.409373 11231 net.cpp:399] lstm2_ -> x
I0925 22:48:40.409391 11231 net.cpp:399] lstm2_ -> cont
I0925 22:48:40.420516 11231 net.cpp:141] Setting up lstm2_
I0925 22:48:40.420578 11231 net.cpp:148] Top shape: 1 1 1501 (1501)
I0925 22:48:40.420591 11231 net.cpp:148] Top shape: 1 1 (1)
I0925 22:48:40.420599 11231 net.cpp:156] Memory required for data: 6008
I0925 22:48:40.420617 11231 layer_factory.hpp:77] Creating layer lstm2_
I0925 22:48:40.420655 11231 net.cpp:91] Creating Layer lstm2_
I0925 22:48:40.420670 11231 net.cpp:399] lstm2_ -> c_0
I0925 22:48:40.420701 11231 net.cpp:399] lstm2_ -> h_0
I0925 22:48:40.534466 11265 net.cpp:141] Setting up lstm2_unit_1
I0925 22:48:40.534546 11265 net.cpp:148] Top shape: 1 1 1000 (1000)
I0925 22:48:40.534561 11265 net.cpp:148] Top shape: 1 1 1000 (1000)
I0925 22:48:40.534569 11265 net.cpp:156] Memory required for data: 90020
I0925 22:48:40.534580 11265 layer_factory.hpp:77] Creating layer lstm2_
I0925 22:48:40.534622 11265 net.cpp:91] Creating Layer lstm2_
I0925 22:48:40.534636 11265 net.cpp:425] lstm2_ <- c_1
I0925 22:48:40.534654 11265 net.cpp:399] lstm2_ -> c_T
I0925 22:48:40.534672 11237 net.cpp:141] Setting up predict
I0925 22:48:40.534692 11237 net.cpp:148] Top shape: 1 1 46168 (46168)
I0925 22:48:40.534699 11237 net.cpp:156] Memory required for data: 221084
I0925 22:48:40.534714 11265 net.cpp:141] Setting up lstm2_
I0925 22:48:40.534719 11237 layer_factory.hpp:77] Creating layer probs
I0925 22:48:40.534729 11265 net.cpp:148] Top shape: 1 1 1000 (1000)
I0925 22:48:40.534735 11265 net.cpp:156] Memory required for data: 94020
I0925 22:48:40.534739 11237 net.cpp:91] Creating Layer probs
I0925 22:48:40.534744 11265 layer_factory.hpp:77] Creating layer lstm2_h_concat
I0925 22:48:40.534749 11237 net.cpp:425] probs <- predict
I0925 22:48:40.534759 11237 net.cpp:399] probs -> probs
I0925 22:48:40.534759 11265 net.cpp:91] Creating Layer lstm2_h_concat
I0925 22:48:40.534785 11265 net.cpp:425] lstm2_h_concat <- h_1
I0925 22:48:40.534803 11265 net.cpp:399] lstm2_h_concat -> h
I0925 22:48:40.534903 11245 net.cpp:141] Setting up lstm2_transform_1
I0925 22:48:40.534924 11245 net.cpp:148] Top shape: 1 1 4000 (4000)
I0925 22:48:40.534931 11245 net.cpp:156] Memory required for data: 66020
I0925 22:48:40.534950 11245 layer_factory.hpp:77] Creating layer lstm2_gate_input_1
I0925 22:48:40.534977 11245 net.cpp:91] Creating Layer lstm2_gate_input_1
I0925 22:48:40.534989 11245 net.cpp:425] lstm2_gate_input_1 <- W_hc_h_0
I0925 22:48:40.535001 11245 net.cpp:425] lstm2_gate_input_1 <- W_xc_x_1
I0925 22:48:40.535089 11265 net.cpp:141] Setting up lstm2_h_concat
I0925 22:48:40.535105 11265 net.cpp:148] Top shape: 1 1 1000 (1000)
I0925 22:48:40.535114 11265 net.cpp:156] Memory required for data: 98020
I0925 22:48:40.535121 11265 layer_factory.hpp:77] Creating layer h_pseudoloss
I0925 22:48:40.535136 11265 net.cpp:91] Creating Layer h_pseudoloss
I0925 22:48:40.535143 11265 net.cpp:425] h_pseudoloss <- h
I0925 22:48:40.535156 11265 net.cpp:399] h_pseudoloss -> h_pseudoloss
I0925 22:48:40.535176 11231 net.cpp:141] Setting up lstm2_
I0925 22:48:40.535224 11231 net.cpp:148] Top shape: 1 1 1000 (1000)
I0925 22:48:40.535233 11231 net.cpp:148] Top shape: 1 1 1000 (1000)
I0925 22:48:40.535238 11231 net.cpp:156] Memory required for data: 14008
I0925 22:48:40.535246 11231 layer_factory.hpp:77] Creating layer lstm2_cont_slice
I0925 22:48:40.535269 11231 net.cpp:91] Creating Layer lstm2_cont_slice
I0925 22:48:40.535275 11231 net.cpp:425] lstm2_cont_slice <- cont
I0925 22:48:40.535291 11231 net.cpp:399] lstm2_cont_slice -> cont_1
I0925 22:48:40.535356 11265 net.cpp:141] Setting up h_pseudoloss
I0925 22:48:40.535375 11265 net.cpp:148] Top shape: (1)
I0925 22:48:40.535383 11265 net.cpp:151]     with loss weight 1
I0925 22:48:40.535414 11265 net.cpp:156] Memory required for data: 98024
I0925 22:48:40.535423 11265 net.cpp:217] h_pseudoloss needs backward computation.
I0925 22:48:40.535431 11265 net.cpp:217] lstm2_h_concat needs backward computation.
I0925 22:48:40.535439 11265 net.cpp:219] lstm2_ does not need backward computation.
I0925 22:48:40.535437 11231 net.cpp:141] Setting up lstm2_cont_slice
I0925 22:48:40.535454 11265 net.cpp:217] lstm2_unit_1 needs backward computation.
I0925 22:48:40.535470 11231 net.cpp:148] Top shape: 1 1 (1)
I0925 22:48:40.535485 11265 net.cpp:217] lstm2_gate_input_1 needs backward computation.
I0925 22:48:40.535486 11231 net.cpp:156] Memory required for data: 14012
I0925 22:48:40.535500 11265 net.cpp:217] lstm2_transform_1 needs backward computation.
I0925 22:48:40.535504 11231 layer_factory.hpp:77] Creating layer cont_1_lstm2_cont_slice_0_split
I0925 22:48:40.535511 11265 net.cpp:219] lstm2_h_conted_0 does not need backward computation.
…
I0925 22:48:40.535588 11265 net.cpp:261] This network produces output c_T
I0925 22:48:40.535598 11265 net.cpp:261] This network produces output h_pseudoloss
I0925 22:48:40.535620 11265 net.cpp:274] Network initialization done.
I0925 22:48:40.535709 11265 recurrent_layer.cpp:150] Adding parameter 0: W_xc
I0925 22:48:40.535720 11265 recurrent_layer.cpp:150] Adding parameter 1: b_c
I0925 22:48:40.535728 11265 recurrent_layer.cpp:150] Adding parameter 2: W_hc
I0925 22:48:40.535764 11245 net.cpp:399] lstm2_gate_input_1 -> gate_input_1
I0925 22:48:40.538578 11265 net.cpp:141] Setting up lstm2
I0925 22:48:40.538645 11265 net.cpp:148] Top shape: 1 1 1000 (1000)
I0925 22:48:40.538653 11265 net.cpp:156] Memory required for data: 36412
I0925 22:48:40.538681 11265 layer_factory.hpp:77] Creating layer predict
I0925 22:48:40.538709 11265 net.cpp:91] Creating Layer predict
I0925 22:48:40.538722 11265 net.cpp:425] predict <- lstm2
I0925 22:48:40.538738 11265 net.cpp:399] predict -> predict
I0925 22:48:40.625466 11231 net.cpp:141] Setting up cont_1_lstm2_cont_slice_0_split
I0925 22:48:40.625535 11231 net.cpp:148] Top shape: 1 1 (1)
I0925 22:48:40.625551 11231 net.cpp:148] Top shape: 1 1 (1)
I0925 22:48:40.625561 11231 net.cpp:156] Memory required for data: 14020
I0925 22:48:40.625577 11231 layer_factory.hpp:77] Creating layer lstm2_x_transform
I0925 22:48:40.625604 11245 net.cpp:141] Setting up lstm2_gate_input_1
I0925 22:48:40.625620 11231 net.cpp:91] Creating Layer lstm2_x_transform
I0925 22:48:40.625656 11231 net.cpp:425] lstm2_x_transform <- x
I0925 22:48:40.625659 11245 net.cpp:148] Top shape: 1 1 4000 (4000)
I0925 22:48:40.625670 11245 net.cpp:156] Memory required for data: 82020
I0925 22:48:40.625684 11231 net.cpp:399] lstm2_x_transform -> W_xc_x
I0925 22:48:40.625692 11245 layer_factory.hpp:77] Creating layer lstm2_unit_1
I0925 22:48:40.625767 11245 net.cpp:91] Creating Layer lstm2_unit_1
I0925 22:48:40.625782 11245 net.cpp:425] lstm2_unit_1 <- c_0
I0925 22:48:40.625795 11245 net.cpp:425] lstm2_unit_1 <- gate_input_1
I0925 22:48:40.625802 11245 net.cpp:425] lstm2_unit_1 <- cont_1_lstm2_cont_slice_0_split_1
I0925 22:48:40.625811 11245 net.cpp:399] lstm2_unit_1 -> c_1
I0925 22:48:40.625825 11245 net.cpp:399] lstm2_unit_1 -> h_1
I0925 22:48:40.626134 11245 net.cpp:141] Setting up lstm2_unit_1
I0925 22:48:40.626152 11245 net.cpp:148] Top shape: 1 1 1000 (1000)
I0925 22:48:40.626163 11245 net.cpp:148] Top shape: 1 1 1000 (1000)
I0925 22:48:40.626171 11245 net.cpp:156] Memory required for data: 90020
I0925 22:48:40.626179 11245 layer_factory.hpp:77] Creating layer lstm2_
I0925 22:48:40.626180 11275 net.cpp:141] Setting up predict
I0925 22:48:40.626193 11245 net.cpp:91] Creating Layer lstm2_
I0925 22:48:40.626195 11275 net.cpp:148] Top shape: 1 1 46168 (46168)
I0925 22:48:40.626202 11275 net.cpp:156] Memory required for data: 221084
I0925 22:48:40.626207 11245 net.cpp:425] lstm2_ <- c_1
I0925 22:48:40.626220 11275 layer_factory.hpp:77] Creating layer probs
I0925 22:48:40.626237 11275 net.cpp:91] Creating Layer probs
I0925 22:48:40.626238 11245 net.cpp:399] lstm2_ -> c_T
I0925 22:48:40.626247 11275 net.cpp:425] probs <- predict
I0925 22:48:40.626261 11275 net.cpp:399] probs -> probs
I0925 22:48:40.644335 11245 net.cpp:141] Setting up lstm2_
I0925 22:48:40.644392 11245 net.cpp:148] Top shape: 1 1 1000 (1000)
I0925 22:48:40.644402 11245 net.cpp:156] Memory required for data: 94020
I0925 22:48:40.644414 11245 layer_factory.hpp:77] Creating layer lstm2_h_concat
I0925 22:48:40.644438 11245 net.cpp:91] Creating Layer lstm2_h_concat
I0925 22:48:40.644448 11245 net.cpp:425] lstm2_h_concat <- h_1
I0925 22:48:40.644536 11245 net.cpp:399] lstm2_h_concat -> h
I0925 22:48:40.644920 11245 net.cpp:141] Setting up lstm2_h_concat
I0925 22:48:40.644937 11245 net.cpp:148] Top shape: 1 1 1000 (1000)
I0925 22:48:40.644943 11245 net.cpp:156] Memory required for data: 98020
I0925 22:48:40.644953 11245 layer_factory.hpp:77] Creating layer h_pseudoloss
I0925 22:48:40.644968 11245 net.cpp:91] Creating Layer h_pseudoloss
I0925 22:48:40.644976 11245 net.cpp:425] h_pseudoloss <- h
I0925 22:48:40.644989 11245 net.cpp:399] h_pseudoloss -> h_pseudoloss
I0925 22:48:40.672978 11245 net.cpp:141] Setting up h_pseudoloss
…
I0925 22:48:40.673277 11245 net.cpp:219] lstm2_ does not need backward computation.
I0925 22:48:40.673285 11245 net.cpp:261] This network produces output c_T
I0925 22:48:40.673293 11245 net.cpp:261] This network produces output h_pseudoloss
I0925 22:48:40.673319 11245 net.cpp:274] Network initialization done.
I0925 22:48:40.673410 11245 recurrent_layer.cpp:150] Adding parameter 0: W_xc
I0925 22:48:40.673424 11245 recurrent_layer.cpp:150] Adding parameter 1: b_c
I0925 22:48:40.673432 11245 recurrent_layer.cpp:150] Adding parameter 2: W_hc
I0925 22:48:40.677423 11227 net.cpp:141] Setting up predict
I0925 22:48:40.677466 11227 net.cpp:148] Top shape: 1 1 46168 (46168)
I0925 22:48:40.677472 11227 net.cpp:156] Memory required for data: 221084
I0925 22:48:40.677489 11227 layer_factory.hpp:77] Creating layer probs
I0925 22:48:40.677515 11227 net.cpp:91] Creating Layer probs
I0925 22:48:40.677523 11227 net.cpp:425] probs <- predict
I0925 22:48:40.677533 11227 net.cpp:399] probs -> probs
I0925 22:48:40.678139 11245 net.cpp:141] Setting up lstm2
I0925 22:48:40.678184 11245 net.cpp:148] Top shape: 1 1 1000 (1000)
I0925 22:48:40.678191 11245 net.cpp:156] Memory required for data: 36412
I0925 22:48:40.678220 11245 layer_factory.hpp:77] Creating layer predict
I0925 22:48:40.678246 11245 net.cpp:91] Creating Layer predict
I0925 22:48:40.678261 11245 net.cpp:425] predict <- lstm2
I0925 22:48:40.678280 11245 net.cpp:399] predict -> predict
I0925 22:48:40.800550 11231 net.cpp:141] Setting up lstm2_x_transform
I0925 22:48:40.800611 11231 net.cpp:148] Top shape: 1 1 4000 (4000)
I0925 22:48:40.800622 11231 net.cpp:156] Memory required for data: 30020
I0925 22:48:40.800659 11231 layer_factory.hpp:77] Creating layer lstm2_W_xc_x_slice
I0925 22:48:40.800689 11231 net.cpp:91] Creating Layer lstm2_W_xc_x_slice
I0925 22:48:40.800703 11231 net.cpp:425] lstm2_W_xc_x_slice <- W_xc_x
I0925 22:48:40.800724 11231 net.cpp:399] lstm2_W_xc_x_slice -> W_xc_x_1
I0925 22:48:40.816208 11231 net.cpp:141] Setting up lstm2_W_xc_x_slice
I0925 22:48:40.816675 11231 net.cpp:148] Top shape: 1 1 4000 (4000)
I0925 22:48:40.816819 11231 net.cpp:156] Memory required for data: 46020
I0925 22:48:40.816961 11231 layer_factory.hpp:77] Creating layer lstm2_h_conted_0
I0925 22:48:40.817117 11231 net.cpp:91] Creating Layer lstm2_h_conted_0
I0925 22:48:40.817296 11231 net.cpp:425] lstm2_h_conted_0 <- h_0
I0925 22:48:40.817442 11231 net.cpp:425] lstm2_h_conted_0 <- cont_1_lstm2_cont_slice_0_split_0
I0925 22:48:40.817595 11231 net.cpp:399] lstm2_h_conted_0 -> h_conted_0
I0925 22:48:40.817750 11249 net.cpp:141] Setting up predict
I0925 22:48:40.817800 11249 net.cpp:148] Top shape: 1 1 46168 (46168)
I0925 22:48:40.817811 11249 net.cpp:156] Memory required for data: 221084
I0925 22:48:40.817836 11249 layer_factory.hpp:77] Creating layer probs
I0925 22:48:40.817857 11249 net.cpp:91] Creating Layer probs
I0925 22:48:40.817870 11249 net.cpp:425] probs <- predict
I0925 22:48:40.817886 11249 net.cpp:399] probs -> probs
I0925 22:48:40.821511 11231 net.cpp:141] Setting up lstm2_h_conted_0
I0925 22:48:40.821944 11231 net.cpp:148] Top shape: 1 1 1000 (1000)
I0925 22:48:40.822090 11231 net.cpp:156] Memory required for data: 50020
I0925 22:48:40.822278 11231 layer_factory.hpp:77] Creating layer lstm2_transform_1
I0925 22:48:40.822419 11231 net.cpp:91] Creating Layer lstm2_transform_1
I0925 22:48:40.822438 11231 net.cpp:425] lstm2_transform_1 <- h_conted_0
I0925 22:48:40.822458 11231 net.cpp:399] lstm2_transform_1 -> W_hc_h_0
I0925 22:48:40.895438 11231 net.cpp:141] Setting up lstm2_transform_1
I0925 22:48:40.895835 11231 net.cpp:148] Top shape: 1 1 4000 (4000)
I0925 22:48:40.895853 11231 net.cpp:156] Memory required for data: 66020
I0925 22:48:40.895889 11231 layer_factory.hpp:77] Creating layer lstm2_gate_input_1
I0925 22:48:40.895939 11231 net.cpp:91] Creating Layer lstm2_gate_input_1
I0925 22:48:40.895956 11231 net.cpp:425] lstm2_gate_input_1 <- W_hc_h_0
I0925 22:48:40.895973 11231 net.cpp:425] lstm2_gate_input_1 <- W_xc_x_1
I0925 22:48:40.895998 11231 net.cpp:399] lstm2_gate_input_1 -> gate_input_1
I0925 22:48:40.896581 11231 net.cpp:141] Setting up lstm2_gate_input_1
I0925 22:48:40.896602 11231 net.cpp:148] Top shape: 1 1 4000 (4000)
I0925 22:48:40.896613 11231 net.cpp:156] Memory required for data: 82020
I0925 22:48:40.896625 11231 layer_factory.hpp:77] Creating layer lstm2_unit_1
I0925 22:48:40.896661 11231 net.cpp:91] Creating Layer lstm2_unit_1
I0925 22:48:40.896677 11231 net.cpp:425] lstm2_unit_1 <- c_0
I0925 22:48:40.896690 11231 net.cpp:425] lstm2_unit_1 <- gate_input_1
I0925 22:48:40.896703 11231 net.cpp:425] lstm2_unit_1 <- cont_1_lstm2_cont_slice_0_split_1
I0925 22:48:40.896719 11231 net.cpp:399] lstm2_unit_1 -> c_1
I0925 22:48:40.896744 11231 net.cpp:399] lstm2_unit_1 -> h_1
I0925 22:48:40.896744 11233 net.cpp:141] Setting up predict
I0925 22:48:40.896781 11233 net.cpp:148] Top shape: 1 1 46168 (46168)
I0925 22:48:40.896787 11233 net.cpp:156] Memory required for data: 221084
I0925 22:48:40.896803 11233 layer_factory.hpp:77] Creating layer probs
I0925 22:48:40.896823 11233 net.cpp:91] Creating Layer probs
I0925 22:48:40.896834 11233 net.cpp:425] probs <- predict
I0925 22:48:40.896844 11233 net.cpp:399] probs -> probs
I0925 22:48:40.896983 11231 net.cpp:141] Setting up lstm2_unit_1
I0925 22:48:40.897006 11231 net.cpp:148] Top shape: 1 1 1000 (1000)
I0925 22:48:40.897020 11231 net.cpp:148] Top shape: 1 1 1000 (1000)
I0925 22:48:40.897030 11231 net.cpp:156] Memory required for data: 90020
I0925 22:48:40.897042 11231 layer_factory.hpp:77] Creating layer lstm2_
I0925 22:48:40.897058 11231 net.cpp:91] Creating Layer lstm2_
I0925 22:48:40.897071 11231 net.cpp:425] lstm2_ <- c_1
I0925 22:48:40.897086 11231 net.cpp:399] lstm2_ -> c_T
I0925 22:48:40.897277 11231 net.cpp:141] Setting up lstm2_
I0925 22:48:40.897299 11231 net.cpp:148] Top shape: 1 1 1000 (1000)
I0925 22:48:40.897308 11231 net.cpp:156] Memory required for data: 94020
I0925 22:48:40.897320 11231 layer_factory.hpp:77] Creating layer lstm2_h_concat
I0925 22:48:40.897338 11231 net.cpp:91] Creating Layer lstm2_h_concat
I0925 22:48:40.897351 11231 net.cpp:425] lstm2_h_concat <- h_1
I0925 22:48:40.897367 11231 net.cpp:399] lstm2_h_concat -> h
I0925 22:48:40.899938 11231 net.cpp:141] Setting up lstm2_h_concat
I0925 22:48:40.900125 11231 net.cpp:148] Top shape: 1 1 1000 (1000)
I0925 22:48:40.900310 11231 net.cpp:156] Memory required for data: 98020
I0925 22:48:40.900454 11231 layer_factory.hpp:77] Creating layer h_pseudoloss
I0925 22:48:40.900630 11231 net.cpp:91] Creating Layer h_pseudoloss
I0925 22:48:40.900651 11231 net.cpp:425] h_pseudoloss <- h
I0925 22:48:40.900671 11231 net.cpp:399] h_pseudoloss -> h_pseudoloss
I0925 22:48:40.901873 11231 net.cpp:141] Setting up h_pseudoloss
…
I0925 22:48:40.902200 11231 net.cpp:219] lstm2_ does not need backward computation.
I0925 22:48:40.902207 11231 net.cpp:261] This network produces output c_T
I0925 22:48:40.902217 11231 net.cpp:261] This network produces output h_pseudoloss
I0925 22:48:40.902243 11231 net.cpp:274] Network initialization done.
I0925 22:48:40.902339 11231 recurrent_layer.cpp:150] Adding parameter 0: W_xc
I0925 22:48:40.902354 11231 recurrent_layer.cpp:150] Adding parameter 1: b_c
I0925 22:48:40.902362 11231 recurrent_layer.cpp:150] Adding parameter 2: W_hc
I0925 22:48:40.907101 11231 net.cpp:141] Setting up lstm2
I0925 22:48:40.907150 11231 net.cpp:148] Top shape: 1 1 1000 (1000)
I0925 22:48:40.907160 11231 net.cpp:156] Memory required for data: 36412
I0925 22:48:40.907229 11231 layer_factory.hpp:77] Creating layer predict
I0925 22:48:40.907316 11231 net.cpp:91] Creating Layer predict
I0925 22:48:40.907332 11231 net.cpp:425] predict <- lstm2
I0925 22:48:40.907351 11231 net.cpp:399] predict -> predict
I0925 22:48:41.004303 11265 net.cpp:141] Setting up predict
I0925 22:48:41.004370 11265 net.cpp:148] Top shape: 1 1 46168 (46168)
I0925 22:48:41.004379 11265 net.cpp:156] Memory required for data: 221084
I0925 22:48:41.004418 11265 layer_factory.hpp:77] Creating layer probs
I0925 22:48:41.004438 11265 net.cpp:91] Creating Layer probs
I0925 22:48:41.004448 11265 net.cpp:425] probs <- predict
I0925 22:48:41.004461 11265 net.cpp:399] probs -> probs
I0925 22:48:41.105068 11237 net.cpp:141] Setting up probs
I0925 22:48:41.105124 11237 net.cpp:148] Top shape: 1 1 46168 (46168)
I0925 22:48:41.105134 11237 net.cpp:156] Memory required for data: 405756
I0925 22:48:41.105149 11237 net.cpp:219] probs does not need backward computation.
I0925 22:48:41.105161 11237 net.cpp:219] predict does not need backward computation.
I0925 22:48:41.105173 11237 net.cpp:219] lstm2 does not need backward computation.
I0925 22:48:41.105185 11237 net.cpp:219] concat does not need backward computation.
I0925 22:48:41.105195 11237 net.cpp:219] lstm1 does not need backward computation.
I0925 22:48:41.105208 11237 net.cpp:219] embedding does not need backward computation.
I0925 22:48:41.105217 11237 net.cpp:219] reshape_stage_indicator does not need backward computation.
I0925 22:48:41.105227 11237 net.cpp:219] reshape_frames does not need backward computation.
I0925 22:48:41.105237 11237 net.cpp:219] embed_encoder does not need backward computation.
I0925 22:48:41.105247 11237 net.cpp:219] cont_sentence_input_1_split does not need backward computation.
I0925 22:48:41.105257 11237 net.cpp:219] input does not need backward computation.
I0925 22:48:41.105263 11237 net.cpp:261] This network produces output probs
I0925 22:48:41.105293 11237 net.cpp:274] Network initialization done.
I0925 22:48:41.108518 11275 net.cpp:141] Setting up probs
I0925 22:48:41.108552 11275 net.cpp:148] Top shape: 1 1 46168 (46168)
I0925 22:48:41.108561 11275 net.cpp:156] Memory required for data: 405756
I0925 22:48:41.108570 11275 net.cpp:219] probs does not need backward computation.
I0925 22:48:41.108582 11275 net.cpp:219] predict does not need backward computation.
I0925 22:48:41.108594 11275 net.cpp:219] lstm2 does not need backward computation.
I0925 22:48:41.108603 11275 net.cpp:219] concat does not need backward computation.
I0925 22:48:41.108624 11275 net.cpp:219] lstm1 does not need backward computation.
I0925 22:48:41.108638 11275 net.cpp:219] embedding does not need backward computation.
I0925 22:48:41.108646 11275 net.cpp:219] reshape_stage_indicator does not need backward computation.
I0925 22:48:41.108655 11275 net.cpp:219] reshape_frames does not need backward computation.
I0925 22:48:41.108664 11275 net.cpp:219] embed_encoder does not need backward computation.
I0925 22:48:41.108672 11275 net.cpp:219] cont_sentence_input_1_split does not need backward computation.
I0925 22:48:41.108682 11275 net.cpp:219] input does not need backward computation.
I0925 22:48:41.108690 11275 net.cpp:261] This network produces output probs
I0925 22:48:41.108717 11275 net.cpp:274] Network initialization done.
I0925 22:48:41.115461 11265 net.cpp:141] Setting up probs
I0925 22:48:41.115516 11265 net.cpp:148] Top shape: 1 1 46168 (46168)
I0925 22:48:41.115527 11265 net.cpp:156] Memory required for data: 405756
I0925 22:48:41.115540 11265 net.cpp:219] probs does not need backward computation.
I0925 22:48:41.115550 11265 net.cpp:219] predict does not need backward computation.
I0925 22:48:41.115562 11265 net.cpp:219] lstm2 does not need backward computation.
I0925 22:48:41.115573 11265 net.cpp:219] concat does not need backward computation.
I0925 22:48:41.115584 11265 net.cpp:219] lstm1 does not need backward computation.
I0925 22:48:41.115594 11265 net.cpp:219] embedding does not need backward computation.
I0925 22:48:41.115603 11265 net.cpp:219] reshape_stage_indicator does not need backward computation.
I0925 22:48:41.115612 11265 net.cpp:219] reshape_frames does not need backward computation.
I0925 22:48:41.115620 11265 net.cpp:219] embed_encoder does not need backward computation.
I0925 22:48:41.115630 11265 net.cpp:219] cont_sentence_input_1_split does not need backward computation.
I0925 22:48:41.115640 11265 net.cpp:219] input does not need backward computation.
I0925 22:48:41.115648 11265 net.cpp:261] This network produces output probs
I0925 22:48:41.115674 11265 net.cpp:274] Network initialization done.
I0925 22:48:41.118794 11227 net.cpp:141] Setting up probs
I0925 22:48:41.118845 11227 net.cpp:148] Top shape: 1 1 46168 (46168)
I0925 22:48:41.118854 11227 net.cpp:156] Memory required for data: 405756
I0925 22:48:41.118866 11227 net.cpp:219] probs does not need backward computation.
I0925 22:48:41.118876 11227 net.cpp:219] predict does not need backward computation.
I0925 22:48:41.118887 11227 net.cpp:219] lstm2 does not need backward computation.
I0925 22:48:41.118897 11227 net.cpp:219] concat does not need backward computation.
I0925 22:48:41.118906 11227 net.cpp:219] lstm1 does not need backward computation.
I0925 22:48:41.118916 11227 net.cpp:219] embedding does not need backward computation.
I0925 22:48:41.118923 11227 net.cpp:219] reshape_stage_indicator does not need backward computation.
I0925 22:48:41.119951 11227 net.cpp:219] reshape_frames does not need backward computation.
I0925 22:48:41.119982 11227 net.cpp:219] embed_encoder does not need backward computation.
I0925 22:48:41.119992 11227 net.cpp:219] cont_sentence_input_1_split does not need backward computation.
I0925 22:48:41.120002 11227 net.cpp:219] input does not need backward computation.
I0925 22:48:41.120008 11227 net.cpp:261] This network produces output probs
I0925 22:48:41.120034 11227 net.cpp:274] Network initialization done.
I0925 22:48:41.121088 11233 net.cpp:141] Setting up probs
I0925 22:48:41.121122 11233 net.cpp:148] Top shape: 1 1 46168 (46168)
I0925 22:48:41.121131 11233 net.cpp:156] Memory required for data: 405756
I0925 22:48:41.121140 11233 net.cpp:219] probs does not need backward computation.
I0925 22:48:41.121150 11233 net.cpp:219] predict does not need backward computation.
I0925 22:48:41.121160 11233 net.cpp:219] lstm2 does not need backward computation.
I0925 22:48:41.121170 11233 net.cpp:219] concat does not need backward computation.
I0925 22:48:41.121179 11233 net.cpp:219] lstm1 does not need backward computation.
I0925 22:48:41.121188 11233 net.cpp:219] embedding does not need backward computation.
I0925 22:48:41.121197 11233 net.cpp:219] reshape_stage_indicator does not need backward computation.
I0925 22:48:41.121206 11233 net.cpp:219] reshape_frames does not need backward computation.
I0925 22:48:41.121214 11233 net.cpp:219] embed_encoder does not need backward computation.
I0925 22:48:41.121224 11233 net.cpp:219] cont_sentence_input_1_split does not need backward computation.
I0925 22:48:41.121233 11233 net.cpp:219] input does not need backward computation.
I0925 22:48:41.121239 11233 net.cpp:261] This network produces output probs
I0925 22:48:41.121266 11233 net.cpp:274] Network initialization done.
I0925 22:48:41.121815 11249 net.cpp:141] Setting up probs
I0925 22:48:41.121842 11249 net.cpp:148] Top shape: 1 1 46168 (46168)
I0925 22:48:41.121851 11249 net.cpp:156] Memory required for data: 405756
I0925 22:48:41.121861 11249 net.cpp:219] probs does not need backward computation.
I0925 22:48:41.121871 11249 net.cpp:219] predict does not need backward computation.
I0925 22:48:41.121881 11249 net.cpp:219] lstm2 does not need backward computation.
I0925 22:48:41.121891 11249 net.cpp:219] concat does not need backward computation.
I0925 22:48:41.121901 11249 net.cpp:219] lstm1 does not need backward computation.
I0925 22:48:41.121912 11249 net.cpp:219] embedding does not need backward computation.
I0925 22:48:41.121920 11249 net.cpp:219] reshape_stage_indicator does not need backward computation.
I0925 22:48:41.121930 11249 net.cpp:219] reshape_frames does not need backward computation.
I0925 22:48:41.121939 11249 net.cpp:219] embed_encoder does not need backward computation.
I0925 22:48:41.121950 11249 net.cpp:219] cont_sentence_input_1_split does not need backward computation.
I0925 22:48:41.121960 11249 net.cpp:219] input does not need backward computation.
I0925 22:48:41.121968 11249 net.cpp:261] This network produces output probs
I0925 22:48:41.121991 11249 net.cpp:274] Network initialization done.
I0925 22:48:41.128782 11267 net.cpp:141] Setting up conv1
I0925 22:48:41.128852 11267 net.cpp:148] Top shape: 10 96 55 55 (2904000)
I0925 22:48:41.128866 11267 net.cpp:156] Memory required for data: 17799480
I0925 22:48:41.128932 11267 layer_factory.hpp:77] Creating layer relu1
I0925 22:48:41.128969 11267 net.cpp:91] Creating Layer relu1
I0925 22:48:41.128984 11267 net.cpp:425] relu1 <- conv1
I0925 22:48:41.129004 11267 net.cpp:386] relu1 -> conv1 (in-place)
I0925 22:48:41.129546 11267 net.cpp:141] Setting up relu1
I0925 22:48:41.129568 11267 net.cpp:148] Top shape: 10 96 55 55 (2904000)
I0925 22:48:41.129578 11267 net.cpp:156] Memory required for data: 29415480
I0925 22:48:41.129590 11267 layer_factory.hpp:77] Creating layer pool1
I0925 22:48:41.129616 11267 net.cpp:91] Creating Layer pool1
I0925 22:48:41.129628 11267 net.cpp:425] pool1 <- conv1
I0925 22:48:41.129647 11267 net.cpp:399] pool1 -> pool1
I0925 22:48:41.129801 11267 net.cpp:141] Setting up pool1
I0925 22:48:41.129824 11267 net.cpp:148] Top shape: 10 96 27 27 (699840)
I0925 22:48:41.129837 11267 net.cpp:156] Memory required for data: 32214840
I0925 22:48:41.129847 11267 layer_factory.hpp:77] Creating layer norm1
I0925 22:48:41.129879 11267 net.cpp:91] Creating Layer norm1
I0925 22:48:41.129891 11267 net.cpp:425] norm1 <- pool1
I0925 22:48:41.129909 11267 net.cpp:399] norm1 -> norm1
I0925 22:48:41.130810 11267 net.cpp:141] Setting up norm1
I0925 22:48:41.130853 11267 net.cpp:148] Top shape: 10 96 27 27 (699840)
I0925 22:48:41.130877 11267 net.cpp:156] Memory required for data: 35014200
I0925 22:48:41.130897 11267 layer_factory.hpp:77] Creating layer conv2
I0925 22:48:41.130946 11267 net.cpp:91] Creating Layer conv2
I0925 22:48:41.130971 11267 net.cpp:425] conv2 <- norm1
I0925 22:48:41.130990 11267 net.cpp:399] conv2 -> conv2
I0925 22:48:41.172350 11267 net.cpp:141] Setting up conv2
I0925 22:48:41.172413 11267 net.cpp:148] Top shape: 10 256 27 27 (1866240)
I0925 22:48:41.172421 11267 net.cpp:156] Memory required for data: 42479160
I0925 22:48:41.172448 11267 layer_factory.hpp:77] Creating layer relu2
I0925 22:48:41.172957 11267 net.cpp:91] Creating Layer relu2
I0925 22:48:41.172978 11267 net.cpp:425] relu2 <- conv2
I0925 22:48:41.172993 11267 net.cpp:386] relu2 -> conv2 (in-place)
I0925 22:48:41.175789 11267 net.cpp:141] Setting up relu2
I0925 22:48:41.175813 11267 net.cpp:148] Top shape: 10 256 27 27 (1866240)
I0925 22:48:41.175820 11267 net.cpp:156] Memory required for data: 49944120
I0925 22:48:41.175830 11267 layer_factory.hpp:77] Creating layer pool2
I0925 22:48:41.176601 11267 net.cpp:91] Creating Layer pool2
I0925 22:48:41.176621 11267 net.cpp:425] pool2 <- conv2
I0925 22:48:41.176637 11267 net.cpp:399] pool2 -> pool2
I0925 22:48:41.177163 11267 net.cpp:141] Setting up pool2
I0925 22:48:41.177187 11267 net.cpp:148] Top shape: 10 256 13 13 (432640)
I0925 22:48:41.177194 11267 net.cpp:156] Memory required for data: 51674680
I0925 22:48:41.177201 11267 layer_factory.hpp:77] Creating layer norm2
I0925 22:48:41.177222 11267 net.cpp:91] Creating Layer norm2
I0925 22:48:41.177229 11267 net.cpp:425] norm2 <- pool2
I0925 22:48:41.177762 11267 net.cpp:399] norm2 -> norm2
I0925 22:48:41.179164 11267 net.cpp:141] Setting up norm2
I0925 22:48:41.179188 11267 net.cpp:148] Top shape: 10 256 13 13 (432640)
I0925 22:48:41.179194 11267 net.cpp:156] Memory required for data: 53405240
I0925 22:48:41.179201 11267 layer_factory.hpp:77] Creating layer conv3
I0925 22:48:41.179222 11267 net.cpp:91] Creating Layer conv3
I0925 22:48:41.179229 11267 net.cpp:425] conv3 <- norm2
I0925 22:48:41.179239 11267 net.cpp:399] conv3 -> conv3
I0925 22:48:41.218935 11245 net.cpp:141] Setting up predict
I0925 22:48:41.219000 11245 net.cpp:148] Top shape: 1 1 46168 (46168)
I0925 22:48:41.219012 11245 net.cpp:156] Memory required for data: 221084
I0925 22:48:41.219038 11245 layer_factory.hpp:77] Creating layer probs
I0925 22:48:41.219069 11245 net.cpp:91] Creating Layer probs
I0925 22:48:41.219082 11245 net.cpp:425] probs <- predict
I0925 22:48:41.219099 11245 net.cpp:399] probs -> probs
I0925 22:48:41.220595 11267 net.cpp:141] Setting up conv3
I0925 22:48:41.220710 11267 net.cpp:148] Top shape: 10 384 13 13 (648960)
I0925 22:48:41.220732 11267 net.cpp:156] Memory required for data: 56001080
I0925 22:48:41.220794 11267 layer_factory.hpp:77] Creating layer relu3
I0925 22:48:41.221004 11267 net.cpp:91] Creating Layer relu3
I0925 22:48:41.221047 11267 net.cpp:425] relu3 <- conv3
I0925 22:48:41.221076 11267 net.cpp:386] relu3 -> conv3 (in-place)
I0925 22:48:41.222543 11267 net.cpp:141] Setting up relu3
I0925 22:48:41.222589 11267 net.cpp:148] Top shape: 10 384 13 13 (648960)
I0925 22:48:41.222615 11267 net.cpp:156] Memory required for data: 58596920
I0925 22:48:41.222635 11267 layer_factory.hpp:77] Creating layer conv4
I0925 22:48:41.222702 11267 net.cpp:91] Creating Layer conv4
I0925 22:48:41.222715 11267 net.cpp:425] conv4 <- conv3
I0925 22:48:41.222738 11267 net.cpp:399] conv4 -> conv4
I0925 22:48:41.230298 11245 net.cpp:141] Setting up probs
I0925 22:48:41.230460 11245 net.cpp:148] Top shape: 1 1 46168 (46168)
I0925 22:48:41.230494 11245 net.cpp:156] Memory required for data: 405756
I0925 22:48:41.230527 11245 net.cpp:219] probs does not need backward computation.
I0925 22:48:41.230562 11245 net.cpp:219] predict does not need backward computation.
I0925 22:48:41.230592 11245 net.cpp:219] lstm2 does not need backward computation.
I0925 22:48:41.230649 11245 net.cpp:219] concat does not need backward computation.
I0925 22:48:41.230680 11245 net.cpp:219] lstm1 does not need backward computation.
I0925 22:48:41.230726 11245 net.cpp:219] embedding does not need backward computation.
I0925 22:48:41.230751 11245 net.cpp:219] reshape_stage_indicator does not need backward computation.
I0925 22:48:41.230785 11245 net.cpp:219] reshape_frames does not need backward computation.
I0925 22:48:41.230811 11245 net.cpp:219] embed_encoder does not need backward computation.
I0925 22:48:41.230834 11245 net.cpp:219] cont_sentence_input_1_split does not need backward computation.
I0925 22:48:41.230870 11245 net.cpp:219] input does not need backward computation.
I0925 22:48:41.230890 11245 net.cpp:261] This network produces output probs
I0925 22:48:41.230943 11245 net.cpp:274] Network initialization done.
I0925 22:48:41.259270 11267 net.cpp:141] Setting up conv4
I0925 22:48:41.259335 11267 net.cpp:148] Top shape: 10 384 13 13 (648960)
I0925 22:48:41.259346 11267 net.cpp:156] Memory required for data: 61192760
I0925 22:48:41.259371 11267 layer_factory.hpp:77] Creating layer relu4
I0925 22:48:41.259400 11267 net.cpp:91] Creating Layer relu4
I0925 22:48:41.259413 11267 net.cpp:425] relu4 <- conv4
I0925 22:48:41.259428 11267 net.cpp:386] relu4 -> conv4 (in-place)
I0925 22:48:41.260131 11267 net.cpp:141] Setting up relu4
I0925 22:48:41.260149 11267 net.cpp:148] Top shape: 10 384 13 13 (648960)
I0925 22:48:41.260159 11267 net.cpp:156] Memory required for data: 63788600
I0925 22:48:41.260167 11267 layer_factory.hpp:77] Creating layer conv5
I0925 22:48:41.260200 11267 net.cpp:91] Creating Layer conv5
I0925 22:48:41.260210 11267 net.cpp:425] conv5 <- conv4
I0925 22:48:41.260222 11267 net.cpp:399] conv5 -> conv5
I0925 22:48:41.276738 11267 net.cpp:141] Setting up conv5
I0925 22:48:41.276801 11267 net.cpp:148] Top shape: 10 256 13 13 (432640)
I0925 22:48:41.276813 11267 net.cpp:156] Memory required for data: 65519160
I0925 22:48:41.276854 11267 layer_factory.hpp:77] Creating layer relu5
I0925 22:48:41.276885 11267 net.cpp:91] Creating Layer relu5
I0925 22:48:41.276897 11267 net.cpp:425] relu5 <- conv5
I0925 22:48:41.276912 11267 net.cpp:386] relu5 -> conv5 (in-place)
I0925 22:48:41.277453 11267 net.cpp:141] Setting up relu5
I0925 22:48:41.277472 11267 net.cpp:148] Top shape: 10 256 13 13 (432640)
I0925 22:48:41.277482 11267 net.cpp:156] Memory required for data: 67249720
I0925 22:48:41.277490 11267 layer_factory.hpp:77] Creating layer pool5
I0925 22:48:41.277513 11267 net.cpp:91] Creating Layer pool5
I0925 22:48:41.277521 11267 net.cpp:425] pool5 <- conv5
I0925 22:48:41.277537 11267 net.cpp:399] pool5 -> pool5
I0925 22:48:41.277658 11267 net.cpp:141] Setting up pool5
I0925 22:48:41.277678 11267 net.cpp:148] Top shape: 10 256 6 6 (92160)
I0925 22:48:41.277685 11267 net.cpp:156] Memory required for data: 67618360
I0925 22:48:41.277694 11267 layer_factory.hpp:77] Creating layer fc6
I0925 22:48:41.277716 11267 net.cpp:91] Creating Layer fc6
I0925 22:48:41.277725 11267 net.cpp:425] fc6 <- pool5
I0925 22:48:41.277737 11267 net.cpp:399] fc6 -> fc6
I0925 22:48:41.416169 11267 net.cpp:141] Setting up fc6
I0925 22:48:41.416235 11267 net.cpp:148] Top shape: 10 4096 (40960)
I0925 22:48:41.416246 11267 net.cpp:156] Memory required for data: 67782200
I0925 22:48:41.416275 11267 layer_factory.hpp:77] Creating layer relu6
I0925 22:48:41.416312 11267 net.cpp:91] Creating Layer relu6
I0925 22:48:41.416326 11267 net.cpp:425] relu6 <- fc6
I0925 22:48:41.416343 11267 net.cpp:386] relu6 -> fc6 (in-place)
I0925 22:48:41.417299 11267 net.cpp:141] Setting up relu6
I0925 22:48:41.417325 11267 net.cpp:148] Top shape: 10 4096 (40960)
I0925 22:48:41.417335 11267 net.cpp:156] Memory required for data: 67946040
I0925 22:48:41.417346 11267 layer_factory.hpp:77] Creating layer drop6
I0925 22:48:41.417369 11267 net.cpp:91] Creating Layer drop6
I0925 22:48:41.417378 11267 net.cpp:425] drop6 <- fc6
I0925 22:48:41.417392 11267 net.cpp:386] drop6 -> fc6 (in-place)
I0925 22:48:41.417477 11267 net.cpp:141] Setting up drop6
I0925 22:48:41.417493 11267 net.cpp:148] Top shape: 10 4096 (40960)
I0925 22:48:41.417502 11267 net.cpp:156] Memory required for data: 68109880
I0925 22:48:41.417511 11267 layer_factory.hpp:77] Creating layer fc7
I0925 22:48:41.417536 11267 net.cpp:91] Creating Layer fc7
I0925 22:48:41.417544 11267 net.cpp:425] fc7 <- fc6
I0925 22:48:41.417560 11267 net.cpp:399] fc7 -> fc7
I0925 22:48:41.464408 11231 net.cpp:141] Setting up predict
I0925 22:48:41.464488 11231 net.cpp:148] Top shape: 1 1 46168 (46168)
I0925 22:48:41.464503 11231 net.cpp:156] Memory required for data: 221084
I0925 22:48:41.464531 11231 layer_factory.hpp:77] Creating layer probs
I0925 22:48:41.464565 11231 net.cpp:91] Creating Layer probs
I0925 22:48:41.464579 11231 net.cpp:425] probs <- predict
I0925 22:48:41.464601 11231 net.cpp:399] probs -> probs
I0925 22:48:41.465875 11231 net.cpp:141] Setting up probs
I0925 22:48:41.465936 11231 net.cpp:148] Top shape: 1 1 46168 (46168)
I0925 22:48:41.465950 11231 net.cpp:156] Memory required for data: 405756
I0925 22:48:41.465967 11231 net.cpp:219] probs does not need backward computation.
I0925 22:48:41.465981 11231 net.cpp:219] predict does not need backward computation.
I0925 22:48:41.465991 11231 net.cpp:219] lstm2 does not need backward computation.
I0925 22:48:41.466003 11231 net.cpp:219] concat does not need backward computation.
I0925 22:48:41.466014 11231 net.cpp:219] lstm1 does not need backward computation.
I0925 22:48:41.466027 11231 net.cpp:219] embedding does not need backward computation.
I0925 22:48:41.466038 11231 net.cpp:219] reshape_stage_indicator does not need backward computation.
I0925 22:48:41.466048 11231 net.cpp:219] reshape_frames does not need backward computation.
I0925 22:48:41.466058 11231 net.cpp:219] embed_encoder does not need backward computation.
I0925 22:48:41.466073 11231 net.cpp:219] cont_sentence_input_1_split does not need backward computation.
I0925 22:48:41.466087 11231 net.cpp:219] input does not need backward computation.
I0925 22:48:41.466096 11231 net.cpp:261] This network produces output probs
I0925 22:48:41.466136 11231 net.cpp:274] Network initialization done.
I0925 22:48:41.483763 11267 net.cpp:141] Setting up fc7
I0925 22:48:41.483836 11267 net.cpp:148] Top shape: 10 4096 (40960)
I0925 22:48:41.483851 11267 net.cpp:156] Memory required for data: 68273720
I0925 22:48:41.483911 11267 layer_factory.hpp:77] Creating layer relu7
I0925 22:48:41.483943 11267 net.cpp:91] Creating Layer relu7
I0925 22:48:41.483958 11267 net.cpp:425] relu7 <- fc7
I0925 22:48:41.483973 11267 net.cpp:386] relu7 -> fc7 (in-place)
I0925 22:48:41.489168 11267 net.cpp:141] Setting up relu7
I0925 22:48:41.489214 11267 net.cpp:148] Top shape: 10 4096 (40960)
I0925 22:48:41.489226 11267 net.cpp:156] Memory required for data: 68437560
I0925 22:48:41.489239 11267 layer_factory.hpp:77] Creating layer drop7
I0925 22:48:41.489266 11267 net.cpp:91] Creating Layer drop7
I0925 22:48:41.489279 11267 net.cpp:425] drop7 <- fc7
I0925 22:48:41.489301 11267 net.cpp:386] drop7 -> fc7 (in-place)
I0925 22:48:41.489431 11267 net.cpp:141] Setting up drop7
I0925 22:48:41.489449 11267 net.cpp:148] Top shape: 10 4096 (40960)
I0925 22:48:41.489459 11267 net.cpp:156] Memory required for data: 68601400
I0925 22:48:41.489469 11267 layer_factory.hpp:77] Creating layer fc8
I0925 22:48:41.490032 11267 net.cpp:91] Creating Layer fc8
I0925 22:48:41.490053 11267 net.cpp:425] fc8 <- fc7
I0925 22:48:41.490069 11267 net.cpp:399] fc8 -> fc8
I0925 22:48:41.509276 11267 net.cpp:141] Setting up fc8
I0925 22:48:41.509336 11267 net.cpp:148] Top shape: 10 1000 (10000)
I0925 22:48:41.509348 11267 net.cpp:156] Memory required for data: 68641400
I0925 22:48:41.509377 11267 layer_factory.hpp:77] Creating layer prob
I0925 22:48:41.509407 11267 net.cpp:91] Creating Layer prob
I0925 22:48:41.509420 11267 net.cpp:425] prob <- fc8
I0925 22:48:41.509438 11267 net.cpp:399] prob -> prob
I0925 22:48:41.513634 11267 net.cpp:141] Setting up prob
I0925 22:48:41.513664 11267 net.cpp:148] Top shape: 10 1000 (10000)
I0925 22:48:41.513675 11267 net.cpp:156] Memory required for data: 68681400
I0925 22:48:41.513685 11267 net.cpp:219] prob does not need backward computation.
I0925 22:48:41.513695 11267 net.cpp:219] fc8 does not need backward computation.
I0925 22:48:41.513705 11267 net.cpp:219] drop7 does not need backward computation.
I0925 22:48:41.513713 11267 net.cpp:219] relu7 does not need backward computation.
…
