…
2016-07-30 11:36:35.160 STDERR [INFO] I0730 11:36:35.139636 16798 net.cpp:399] input -> frames_fc7
2016-07-30 11:36:35.160 STDERR [INFO] I0730 11:36:35.139657 16798 net.cpp:399] input -> cont_sentence
2016-07-30 11:36:35.160 STDERR [INFO] I0730 11:36:35.139672 16798 net.cpp:399] input -> input_sentence
2016-07-30 11:36:35.160 STDERR [INFO] I0730 11:36:35.139683 16798 net.cpp:399] input -> stage_indicator
2016-07-30 11:36:35.221 STDERR [INFO] I0730 11:36:35.221551 16808 net.cpp:141] Setting up data
2016-07-30 11:36:35.222 STDERR [INFO] I0730 11:36:35.221612 16798 net.cpp:141] Setting up input
2016-07-30 11:36:35.222 STDERR [INFO] I0730 11:36:35.221635 16808 net.cpp:148] Top shape: 10 3 227 227 (1545870)
2016-07-30 11:36:35.222 STDERR [INFO] I0730 11:36:35.221637 16798 net.cpp:148] Top shape: 1 4096 (4096)
2016-07-30 11:36:35.222 STDERR [INFO] I0730 11:36:35.221654 16798 net.cpp:148] Top shape: 1 1 (1)
2016-07-30 11:36:35.222 STDERR [INFO] I0730 11:36:35.221647 16808 net.cpp:156] Memory required for data: 6183480
2016-07-30 11:36:35.222 STDERR [INFO] I0730 11:36:35.221668 16798 net.cpp:148] Top shape: 1 1 (1)
2016-07-30 11:36:35.222 STDERR [INFO] I0730 11:36:35.221673 16798 net.cpp:148] Top shape: 1 1 (1)
2016-07-30 11:36:35.222 STDERR [INFO] I0730 11:36:35.221678 16798 net.cpp:156] Memory required for data: 16396
2016-07-30 11:36:35.223 STDERR [INFO] I0730 11:36:35.221683 16798 layer_factory.hpp:77] Creating layer cont_sentence_input_1_split
2016-07-30 11:36:35.223 STDERR [INFO] I0730 11:36:35.221684 16808 layer_factory.hpp:77] Creating layer conv1
2016-07-30 11:36:35.223 STDERR [INFO] I0730 11:36:35.221715 16798 net.cpp:91] Creating Layer cont_sentence_input_1_split
2016-07-30 11:36:35.223 STDERR [INFO] I0730 11:36:35.221717 16808 net.cpp:91] Creating Layer conv1
2016-07-30 11:36:35.223 STDERR [INFO] I0730 11:36:35.221727 16798 net.cpp:425] cont_sentence_input_1_split <- cont_sentence
2016-07-30 11:36:35.223 STDERR [INFO] I0730 11:36:35.221727 16808 net.cpp:425] conv1 <- data
2016-07-30 11:36:35.223 STDERR [INFO] I0730 11:36:35.221751 16808 net.cpp:399] conv1 -> conv1
2016-07-30 11:36:35.223 STDERR [INFO] I0730 11:36:35.221766 16798 net.cpp:399] cont_sentence_input_1_split -> cont_sentence_input_1_split_0
2016-07-30 11:36:35.223 STDERR [INFO] I0730 11:36:35.221786 16798 net.cpp:399] cont_sentence_input_1_split -> cont_sentence_input_1_split_1
2016-07-30 11:36:35.223 STDERR [INFO] I0730 11:36:35.221918 16798 net.cpp:141] Setting up cont_sentence_input_1_split
2016-07-30 11:36:35.224 STDERR [INFO] I0730 11:36:35.221930 16798 net.cpp:148] Top shape: 1 1 (1)
2016-07-30 11:36:35.224 STDERR [INFO] I0730 11:36:35.221937 16798 net.cpp:148] Top shape: 1 1 (1)
2016-07-30 11:36:35.224 STDERR [INFO] I0730 11:36:35.221941 16798 net.cpp:156] Memory required for data: 16404
2016-07-30 11:36:35.224 STDERR [INFO] I0730 11:36:35.221946 16798 layer_factory.hpp:77] Creating layer embed_encoder
2016-07-30 11:36:35.224 STDERR [INFO] I0730 11:36:35.221967 16798 net.cpp:91] Creating Layer embed_encoder
2016-07-30 11:36:35.224 STDERR [INFO] I0730 11:36:35.221972 16798 net.cpp:425] embed_encoder <- frames_fc7
2016-07-30 11:36:35.224 STDERR [INFO] I0730 11:36:35.221982 16798 net.cpp:399] embed_encoder -> embedded_in_frames
2016-07-30 11:36:35.249 STDERR [INFO] I0730 11:36:35.249130 16798 net.cpp:141] Setting up embed_encoder
2016-07-30 11:36:35.250 STDERR [INFO] I0730 11:36:35.249193 16798 net.cpp:148] Top shape: 1 500 (500)
2016-07-30 11:36:35.250 STDERR [INFO] I0730 11:36:35.249200 16798 net.cpp:156] Memory required for data: 18404
2016-07-30 11:36:35.250 STDERR [INFO] I0730 11:36:35.249234 16798 layer_factory.hpp:77] Creating layer reshape_frames
2016-07-30 11:36:35.250 STDERR [INFO] I0730 11:36:35.249270 16798 net.cpp:91] Creating Layer reshape_frames
2016-07-30 11:36:35.250 STDERR [INFO] I0730 11:36:35.249279 16798 net.cpp:425] reshape_frames <- embedded_in_frames
2016-07-30 11:36:35.250 STDERR [INFO] I0730 11:36:35.249294 16798 net.cpp:399] reshape_frames -> embedded_input_frames
2016-07-30 11:36:35.252 STDERR [INFO] I0730 11:36:35.252746 16798 net.cpp:141] Setting up reshape_frames
2016-07-30 11:36:35.253 STDERR [INFO] I0730 11:36:35.252770 16798 net.cpp:148] Top shape: 1 1 500 (500)
2016-07-30 11:36:35.253 STDERR [INFO] I0730 11:36:35.252776 16798 net.cpp:156] Memory required for data: 20404
2016-07-30 11:36:35.253 STDERR [INFO] I0730 11:36:35.252782 16798 layer_factory.hpp:77] Creating layer reshape_stage_indicator
2016-07-30 11:36:35.253 STDERR [INFO] I0730 11:36:35.252796 16798 net.cpp:91] Creating Layer reshape_stage_indicator
2016-07-30 11:36:35.253 STDERR [INFO] I0730 11:36:35.252802 16798 net.cpp:425] reshape_stage_indicator <- stage_indicator
2016-07-30 11:36:35.253 STDERR [INFO] I0730 11:36:35.252812 16798 net.cpp:399] reshape_stage_indicator -> reshaped_stage_indicator
2016-07-30 11:36:35.256 STDERR [INFO] I0730 11:36:35.256590 16798 net.cpp:141] Setting up reshape_stage_indicator
2016-07-30 11:36:35.256 STDERR [INFO] I0730 11:36:35.256618 16798 net.cpp:148] Top shape: 1 1 1 (1)
2016-07-30 11:36:35.257 STDERR [INFO] I0730 11:36:35.256624 16798 net.cpp:156] Memory required for data: 20408
2016-07-30 11:36:35.257 STDERR [INFO] I0730 11:36:35.256630 16798 layer_factory.hpp:77] Creating layer embedding
2016-07-30 11:36:35.257 STDERR [INFO] I0730 11:36:35.256646 16798 net.cpp:91] Creating Layer embedding
2016-07-30 11:36:35.258 STDERR [INFO] I0730 11:36:35.256652 16798 net.cpp:425] embedding <- input_sentence
2016-07-30 11:36:35.258 STDERR [INFO] I0730 11:36:35.256662 16798 net.cpp:399] embedding -> embedded_input_sentence
2016-07-30 11:36:35.519 STDERR [INFO] I0730 11:36:35.518941 16798 net.cpp:141] Setting up embedding
2016-07-30 11:36:35.519 STDERR [INFO] I0730 11:36:35.519001 16798 net.cpp:148] Top shape: 1 1 500 (500)
2016-07-30 11:36:35.519 STDERR [INFO] I0730 11:36:35.519007 16798 net.cpp:156] Memory required for data: 22408
2016-07-30 11:36:35.519 STDERR [INFO] I0730 11:36:35.519031 16798 layer_factory.hpp:77] Creating layer lstm1
2016-07-30 11:36:35.519 STDERR [INFO] I0730 11:36:35.519054 16798 net.cpp:91] Creating Layer lstm1
2016-07-30 11:36:35.519 STDERR [INFO] I0730 11:36:35.519063 16798 net.cpp:425] lstm1 <- embedded_input_frames
…
2016-07-30 11:36:35.533 STDERR [INFO] }
2016-07-30 11:36:35.533 STDERR [INFO] I0730 11:36:35.519659 16798 layer_factory.hpp:77] Creating layer lstm1_
2016-07-30 11:36:35.533 STDERR [INFO] I0730 11:36:35.519673 16798 net.cpp:91] Creating Layer lstm1_
2016-07-30 11:36:35.533 STDERR [INFO] I0730 11:36:35.519680 16798 net.cpp:399] lstm1_ -> x
2016-07-30 11:36:35.533 STDERR [INFO] I0730 11:36:35.519693 16798 net.cpp:399] lstm1_ -> cont
2016-07-30 11:36:35.533 STDERR [INFO] I0730 11:36:35.519853 16798 net.cpp:141] Setting up lstm1_
2016-07-30 11:36:35.533 STDERR [INFO] I0730 11:36:35.519868 16798 net.cpp:148] Top shape: 1 1 500 (500)
2016-07-30 11:36:35.533 STDERR [INFO] I0730 11:36:35.519876 16798 net.cpp:148] Top shape: 1 1 (1)
2016-07-30 11:36:35.533 STDERR [INFO] I0730 11:36:35.519879 16798 net.cpp:156] Memory required for data: 2004
2016-07-30 11:36:35.533 STDERR [INFO] I0730 11:36:35.519886 16798 layer_factory.hpp:77] Creating layer lstm1_
2016-07-30 11:36:35.533 STDERR [INFO] I0730 11:36:35.519894 16798 net.cpp:91] Creating Layer lstm1_
2016-07-30 11:36:35.534 STDERR [INFO] I0730 11:36:35.519901 16798 net.cpp:399] lstm1_ -> c_0
2016-07-30 11:36:35.534 STDERR [INFO] I0730 11:36:35.519914 16798 net.cpp:399] lstm1_ -> h_0
2016-07-30 11:36:35.534 STDERR [INFO] I0730 11:36:35.523854 16798 net.cpp:141] Setting up lstm1_
2016-07-30 11:36:35.534 STDERR [INFO] I0730 11:36:35.523874 16798 net.cpp:148] Top shape: 1 1 1000 (1000)
2016-07-30 11:36:35.534 STDERR [INFO] I0730 11:36:35.523881 16798 net.cpp:148] Top shape: 1 1 1000 (1000)
2016-07-30 11:36:35.534 STDERR [INFO] I0730 11:36:35.523885 16798 net.cpp:156] Memory required for data: 10004
2016-07-30 11:36:35.534 STDERR [INFO] I0730 11:36:35.523891 16798 layer_factory.hpp:77] Creating layer lstm1_cont_slice
2016-07-30 11:36:35.534 STDERR [INFO] I0730 11:36:35.523906 16798 net.cpp:91] Creating Layer lstm1_cont_slice
2016-07-30 11:36:35.534 STDERR [INFO] I0730 11:36:35.523912 16798 net.cpp:425] lstm1_cont_slice <- cont
2016-07-30 11:36:35.534 STDERR [INFO] I0730 11:36:35.523921 16798 net.cpp:399] lstm1_cont_slice -> cont_1
2016-07-30 11:36:35.535 STDERR [INFO] I0730 11:36:35.524127 16798 net.cpp:141] Setting up lstm1_cont_slice
2016-07-30 11:36:35.535 STDERR [INFO] I0730 11:36:35.524138 16798 net.cpp:148] Top shape: 1 1 (1)
2016-07-30 11:36:35.535 STDERR [INFO] I0730 11:36:35.524142 16798 net.cpp:156] Memory required for data: 10008
2016-07-30 11:36:35.535 STDERR [INFO] I0730 11:36:35.524147 16798 layer_factory.hpp:77] Creating layer cont_1_lstm1_cont_slice_0_split
2016-07-30 11:36:35.535 STDERR [INFO] I0730 11:36:35.524155 16798 net.cpp:91] Creating Layer cont_1_lstm1_cont_slice_0_split
2016-07-30 11:36:35.535 STDERR [INFO] I0730 11:36:35.524160 16798 net.cpp:425] cont_1_lstm1_cont_slice_0_split <- cont_1
2016-07-30 11:36:35.535 STDERR [INFO] I0730 11:36:35.524170 16798 net.cpp:399] cont_1_lstm1_cont_slice_0_split -> cont_1_lstm1_cont_slice_0_split_0
2016-07-30 11:36:35.535 STDERR [INFO] I0730 11:36:35.524179 16798 net.cpp:399] cont_1_lstm1_cont_slice_0_split -> cont_1_lstm1_cont_slice_0_split_1
2016-07-30 11:36:35.535 STDERR [INFO] I0730 11:36:35.528081 16798 net.cpp:141] Setting up cont_1_lstm1_cont_slice_0_split
2016-07-30 11:36:35.535 STDERR [INFO] I0730 11:36:35.528100 16798 net.cpp:148] Top shape: 1 1 (1)
2016-07-30 11:36:35.535 STDERR [INFO] I0730 11:36:35.528107 16798 net.cpp:148] Top shape: 1 1 (1)
2016-07-30 11:36:35.535 STDERR [INFO] I0730 11:36:35.528112 16798 net.cpp:156] Memory required for data: 10016
2016-07-30 11:36:35.536 STDERR [INFO] I0730 11:36:35.528117 16798 layer_factory.hpp:77] Creating layer lstm1_x_transform
2016-07-30 11:36:35.536 STDERR [INFO] I0730 11:36:35.528136 16798 net.cpp:91] Creating Layer lstm1_x_transform
2016-07-30 11:36:35.536 STDERR [INFO] I0730 11:36:35.528141 16798 net.cpp:425] lstm1_x_transform <- x
2016-07-30 11:36:35.536 STDERR [INFO] I0730 11:36:35.528151 16798 net.cpp:399] lstm1_x_transform -> W_xc_x
2016-07-30 11:36:35.555 STDERR [INFO] I0730 11:36:35.555410 16808 net.cpp:141] Setting up conv1
2016-07-30 11:36:35.556 STDERR [INFO] I0730 11:36:35.555470 16808 net.cpp:148] Top shape: 10 96 55 55 (2904000)
2016-07-30 11:36:35.556 STDERR [INFO] I0730 11:36:35.555477 16808 net.cpp:156] Memory required for data: 17799480
2016-07-30 11:36:35.556 STDERR [INFO] I0730 11:36:35.555505 16808 layer_factory.hpp:77] Creating layer relu1
2016-07-30 11:36:35.556 STDERR [INFO] I0730 11:36:35.555526 16808 net.cpp:91] Creating Layer relu1
2016-07-30 11:36:35.556 STDERR [INFO] I0730 11:36:35.555533 16808 net.cpp:425] relu1 <- conv1
2016-07-30 11:36:35.556 STDERR [INFO] I0730 11:36:35.555542 16808 net.cpp:386] relu1 -> conv1 (in-place)
2016-07-30 11:36:35.556 STDERR [INFO] I0730 11:36:35.556310 16808 net.cpp:141] Setting up relu1
2016-07-30 11:36:35.556 STDERR [INFO] I0730 11:36:35.556324 16808 net.cpp:148] Top shape: 10 96 55 55 (2904000)
2016-07-30 11:36:35.557 STDERR [INFO] I0730 11:36:35.556330 16808 net.cpp:156] Memory required for data: 29415480
2016-07-30 11:36:35.557 STDERR [INFO] I0730 11:36:35.556336 16808 layer_factory.hpp:77] Creating layer pool1
2016-07-30 11:36:35.557 STDERR [INFO] I0730 11:36:35.556350 16808 net.cpp:91] Creating Layer pool1
2016-07-30 11:36:35.557 STDERR [INFO] I0730 11:36:35.556356 16808 net.cpp:425] pool1 <- conv1
2016-07-30 11:36:35.557 STDERR [INFO] I0730 11:36:35.556365 16808 net.cpp:399] pool1 -> pool1
2016-07-30 11:36:35.557 STDERR [INFO] I0730 11:36:35.556439 16808 net.cpp:141] Setting up pool1
2016-07-30 11:36:35.557 STDERR [INFO] I0730 11:36:35.556450 16808 net.cpp:148] Top shape: 10 96 27 27 (699840)
2016-07-30 11:36:35.557 STDERR [INFO] I0730 11:36:35.556455 16808 net.cpp:156] Memory required for data: 32214840
2016-07-30 11:36:35.557 STDERR [INFO] I0730 11:36:35.556460 16808 layer_factory.hpp:77] Creating layer norm1
2016-07-30 11:36:35.557 STDERR [INFO] I0730 11:36:35.556479 16808 net.cpp:91] Creating Layer norm1
2016-07-30 11:36:35.557 STDERR [INFO] I0730 11:36:35.556485 16808 net.cpp:425] norm1 <- pool1
2016-07-30 11:36:35.557 STDERR [INFO] I0730 11:36:35.556493 16808 net.cpp:399] norm1 -> norm1
2016-07-30 11:36:35.558 STDERR [INFO] I0730 11:36:35.557344 16808 net.cpp:141] Setting up norm1
2016-07-30 11:36:35.558 STDERR [INFO] I0730 11:36:35.557360 16808 net.cpp:148] Top shape: 10 96 27 27 (699840)
2016-07-30 11:36:35.558 STDERR [INFO] I0730 11:36:35.557365 16808 net.cpp:156] Memory required for data: 35014200
2016-07-30 11:36:35.558 STDERR [INFO] I0730 11:36:35.557371 16808 layer_factory.hpp:77] Creating layer conv2
2016-07-30 11:36:35.558 STDERR [INFO] I0730 11:36:35.557389 16808 net.cpp:91] Creating Layer conv2
2016-07-30 11:36:35.558 STDERR [INFO] I0730 11:36:35.557395 16808 net.cpp:425] conv2 <- norm1
2016-07-30 11:36:35.558 STDERR [INFO] I0730 11:36:35.557404 16808 net.cpp:399] conv2 -> conv2
2016-07-30 11:36:35.559 STDERR [INFO] I0730 11:36:35.558995 16798 net.cpp:141] Setting up lstm1_x_transform
2016-07-30 11:36:35.559 STDERR [INFO] I0730 11:36:35.559029 16798 net.cpp:148] Top shape: 1 1 4000 (4000)
2016-07-30 11:36:35.559 STDERR [INFO] I0730 11:36:35.559036 16798 net.cpp:156] Memory required for data: 26016
2016-07-30 11:36:35.559 STDERR [INFO] I0730 11:36:35.559049 16798 layer_factory.hpp:77] Creating layer lstm1_W_xc_x_slice
2016-07-30 11:36:35.559 STDERR [INFO] I0730 11:36:35.559065 16798 net.cpp:91] Creating Layer lstm1_W_xc_x_slice
2016-07-30 11:36:35.559 STDERR [INFO] I0730 11:36:35.559072 16798 net.cpp:425] lstm1_W_xc_x_slice <- W_xc_x
2016-07-30 11:36:35.559 STDERR [INFO] I0730 11:36:35.559082 16798 net.cpp:399] lstm1_W_xc_x_slice -> W_xc_x_1
2016-07-30 11:36:35.559 STDERR [INFO] I0730 11:36:35.559134 16798 net.cpp:141] Setting up lstm1_W_xc_x_slice
2016-07-30 11:36:35.559 STDERR [INFO] I0730 11:36:35.559146 16798 net.cpp:148] Top shape: 1 1 4000 (4000)
2016-07-30 11:36:35.560 STDERR [INFO] I0730 11:36:35.559150 16798 net.cpp:156] Memory required for data: 42016
2016-07-30 11:36:35.560 STDERR [INFO] I0730 11:36:35.559155 16798 layer_factory.hpp:77] Creating layer lstm1_h_conted_0
2016-07-30 11:36:35.560 STDERR [INFO] I0730 11:36:35.559168 16798 net.cpp:91] Creating Layer lstm1_h_conted_0
2016-07-30 11:36:35.560 STDERR [INFO] I0730 11:36:35.559178 16798 net.cpp:425] lstm1_h_conted_0 <- h_0
2016-07-30 11:36:35.560 STDERR [INFO] I0730 11:36:35.559195 16798 net.cpp:425] lstm1_h_conted_0 <- cont_1_lstm1_cont_slice_0_split_0
2016-07-30 11:36:35.560 STDERR [INFO] I0730 11:36:35.559204 16798 net.cpp:399] lstm1_h_conted_0 -> h_conted_0
2016-07-30 11:36:35.560 STDERR [INFO] I0730 11:36:35.559418 16798 net.cpp:141] Setting up lstm1_h_conted_0
2016-07-30 11:36:35.560 STDERR [INFO] I0730 11:36:35.559429 16798 net.cpp:148] Top shape: 1 1 1000 (1000)
2016-07-30 11:36:35.560 STDERR [INFO] I0730 11:36:35.559434 16798 net.cpp:156] Memory required for data: 46016
2016-07-30 11:36:35.560 STDERR [INFO] I0730 11:36:35.559439 16798 layer_factory.hpp:77] Creating layer lstm1_transform_1
2016-07-30 11:36:35.560 STDERR [INFO] I0730 11:36:35.559458 16798 net.cpp:91] Creating Layer lstm1_transform_1
2016-07-30 11:36:35.561 STDERR [INFO] I0730 11:36:35.559463 16798 net.cpp:425] lstm1_transform_1 <- h_conted_0
2016-07-30 11:36:35.561 STDERR [INFO] I0730 11:36:35.559471 16798 net.cpp:399] lstm1_transform_1 -> W_hc_h_0
2016-07-30 11:36:35.572 STDERR [INFO] I0730 11:36:35.572319 16808 net.cpp:141] Setting up conv2
2016-07-30 11:36:35.573 STDERR [INFO] I0730 11:36:35.572379 16808 net.cpp:148] Top shape: 10 256 27 27 (1866240)
2016-07-30 11:36:35.573 STDERR [INFO] I0730 11:36:35.572387 16808 net.cpp:156] Memory required for data: 42479160
2016-07-30 11:36:35.573 STDERR [INFO] I0730 11:36:35.572415 16808 layer_factory.hpp:77] Creating layer relu2
2016-07-30 11:36:35.573 STDERR [INFO] I0730 11:36:35.572435 16808 net.cpp:91] Creating Layer relu2
2016-07-30 11:36:35.573 STDERR [INFO] I0730 11:36:35.572443 16808 net.cpp:425] relu2 <- conv2
2016-07-30 11:36:35.573 STDERR [INFO] I0730 11:36:35.572451 16808 net.cpp:386] relu2 -> conv2 (in-place)
2016-07-30 11:36:35.573 STDERR [INFO] I0730 11:36:35.573261 16808 net.cpp:141] Setting up relu2
2016-07-30 11:36:35.573 STDERR [INFO] I0730 11:36:35.573276 16808 net.cpp:148] Top shape: 10 256 27 27 (1866240)
2016-07-30 11:36:35.573 STDERR [INFO] I0730 11:36:35.573282 16808 net.cpp:156] Memory required for data: 49944120
2016-07-30 11:36:35.573 STDERR [INFO] I0730 11:36:35.573287 16808 layer_factory.hpp:77] Creating layer pool2
2016-07-30 11:36:35.574 STDERR [INFO] I0730 11:36:35.573299 16808 net.cpp:91] Creating Layer pool2
2016-07-30 11:36:35.574 STDERR [INFO] I0730 11:36:35.573304 16808 net.cpp:425] pool2 <- conv2
2016-07-30 11:36:35.574 STDERR [INFO] I0730 11:36:35.573312 16808 net.cpp:399] pool2 -> pool2
2016-07-30 11:36:35.574 STDERR [INFO] I0730 11:36:35.573379 16808 net.cpp:141] Setting up pool2
2016-07-30 11:36:35.574 STDERR [INFO] I0730 11:36:35.573388 16808 net.cpp:148] Top shape: 10 256 13 13 (432640)
2016-07-30 11:36:35.574 STDERR [INFO] I0730 11:36:35.573393 16808 net.cpp:156] Memory required for data: 51674680
2016-07-30 11:36:35.574 STDERR [INFO] I0730 11:36:35.573398 16808 layer_factory.hpp:77] Creating layer norm2
2016-07-30 11:36:35.574 STDERR [INFO] I0730 11:36:35.573415 16808 net.cpp:91] Creating Layer norm2
2016-07-30 11:36:35.574 STDERR [INFO] I0730 11:36:35.573421 16808 net.cpp:425] norm2 <- pool2
2016-07-30 11:36:35.574 STDERR [INFO] I0730 11:36:35.573431 16808 net.cpp:399] norm2 -> norm2
2016-07-30 11:36:35.574 STDERR [INFO] I0730 11:36:35.573716 16808 net.cpp:141] Setting up norm2
2016-07-30 11:36:35.574 STDERR [INFO] I0730 11:36:35.573729 16808 net.cpp:148] Top shape: 10 256 13 13 (432640)
2016-07-30 11:36:35.575 STDERR [INFO] I0730 11:36:35.573734 16808 net.cpp:156] Memory required for data: 53405240
2016-07-30 11:36:35.575 STDERR [INFO] I0730 11:36:35.573739 16808 layer_factory.hpp:77] Creating layer conv3
2016-07-30 11:36:35.575 STDERR [INFO] I0730 11:36:35.573758 16808 net.cpp:91] Creating Layer conv3
2016-07-30 11:36:35.575 STDERR [INFO] I0730 11:36:35.573763 16808 net.cpp:425] conv3 <- norm2
2016-07-30 11:36:35.575 STDERR [INFO] I0730 11:36:35.573773 16808 net.cpp:399] conv3 -> conv3
2016-07-30 11:36:35.579 STDERR [INFO] I0730 11:36:35.579111 16808 net.cpp:141] Setting up conv3
2016-07-30 11:36:35.579 STDERR [INFO] I0730 11:36:35.579136 16808 net.cpp:148] Top shape: 10 384 13 13 (648960)
2016-07-30 11:36:35.579 STDERR [INFO] I0730 11:36:35.579143 16808 net.cpp:156] Memory required for data: 56001080
2016-07-30 11:36:35.579 STDERR [INFO] I0730 11:36:35.579157 16808 layer_factory.hpp:77] Creating layer relu3
2016-07-30 11:36:35.579 STDERR [INFO] I0730 11:36:35.579171 16808 net.cpp:91] Creating Layer relu3
2016-07-30 11:36:35.579 STDERR [INFO] I0730 11:36:35.579177 16808 net.cpp:425] relu3 <- conv3
2016-07-30 11:36:35.580 STDERR [INFO] I0730 11:36:35.579185 16808 net.cpp:386] relu3 -> conv3 (in-place)
2016-07-30 11:36:35.580 STDERR [INFO] I0730 11:36:35.579965 16808 net.cpp:141] Setting up relu3
2016-07-30 11:36:35.580 STDERR [INFO] I0730 11:36:35.579979 16808 net.cpp:148] Top shape: 10 384 13 13 (648960)
2016-07-30 11:36:35.580 STDERR [INFO] I0730 11:36:35.579984 16808 net.cpp:156] Memory required for data: 58596920
2016-07-30 11:36:35.580 STDERR [INFO] I0730 11:36:35.579989 16808 layer_factory.hpp:77] Creating layer conv4
2016-07-30 11:36:35.580 STDERR [INFO] I0730 11:36:35.580004 16808 net.cpp:91] Creating Layer conv4
2016-07-30 11:36:35.580 STDERR [INFO] I0730 11:36:35.580010 16808 net.cpp:425] conv4 <- conv3
2016-07-30 11:36:35.581 STDERR [INFO] I0730 11:36:35.580021 16808 net.cpp:399] conv4 -> conv4
2016-07-30 11:36:35.586 STDERR [INFO] I0730 11:36:35.586028 16808 net.cpp:141] Setting up conv4
2016-07-30 11:36:35.586 STDERR [INFO] I0730 11:36:35.586058 16808 net.cpp:148] Top shape: 10 384 13 13 (648960)
2016-07-30 11:36:35.586 STDERR [INFO] I0730 11:36:35.586064 16808 net.cpp:156] Memory required for data: 61192760
2016-07-30 11:36:35.586 STDERR [INFO] I0730 11:36:35.586076 16808 layer_factory.hpp:77] Creating layer relu4
2016-07-30 11:36:35.586 STDERR [INFO] I0730 11:36:35.586092 16808 net.cpp:91] Creating Layer relu4
2016-07-30 11:36:35.586 STDERR [INFO] I0730 11:36:35.586098 16808 net.cpp:425] relu4 <- conv4
2016-07-30 11:36:35.586 STDERR [INFO] I0730 11:36:35.586107 16808 net.cpp:386] relu4 -> conv4 (in-place)
2016-07-30 11:36:35.586 STDERR [INFO] I0730 11:36:35.586906 16808 net.cpp:141] Setting up relu4
2016-07-30 11:36:35.587 STDERR [INFO] I0730 11:36:35.586925 16808 net.cpp:148] Top shape: 10 384 13 13 (648960)
2016-07-30 11:36:35.587 STDERR [INFO] I0730 11:36:35.586930 16808 net.cpp:156] Memory required for data: 63788600
2016-07-30 11:36:35.587 STDERR [INFO] I0730 11:36:35.586935 16808 layer_factory.hpp:77] Creating layer conv5
2016-07-30 11:36:35.587 STDERR [INFO] I0730 11:36:35.586954 16808 net.cpp:91] Creating Layer conv5
2016-07-30 11:36:35.587 STDERR [INFO] I0730 11:36:35.586961 16808 net.cpp:425] conv5 <- conv4
2016-07-30 11:36:35.587 STDERR [INFO] I0730 11:36:35.586968 16808 net.cpp:399] conv5 -> conv5
2016-07-30 11:36:35.593 STDERR [INFO] I0730 11:36:35.592896 16808 net.cpp:141] Setting up conv5
2016-07-30 11:36:35.593 STDERR [INFO] I0730 11:36:35.592922 16808 net.cpp:148] Top shape: 10 256 13 13 (432640)
2016-07-30 11:36:35.593 STDERR [INFO] I0730 11:36:35.592928 16808 net.cpp:156] Memory required for data: 65519160
2016-07-30 11:36:35.593 STDERR [INFO] I0730 11:36:35.592944 16808 layer_factory.hpp:77] Creating layer relu5
2016-07-30 11:36:35.593 STDERR [INFO] I0730 11:36:35.592959 16808 net.cpp:91] Creating Layer relu5
2016-07-30 11:36:35.593 STDERR [INFO] I0730 11:36:35.592965 16808 net.cpp:425] relu5 <- conv5
2016-07-30 11:36:35.593 STDERR [INFO] I0730 11:36:35.592972 16808 net.cpp:386] relu5 -> conv5 (in-place)
2016-07-30 11:36:35.593 STDERR [INFO] I0730 11:36:35.593788 16808 net.cpp:141] Setting up relu5
2016-07-30 11:36:35.593 STDERR [INFO] I0730 11:36:35.593806 16808 net.cpp:148] Top shape: 10 256 13 13 (432640)
2016-07-30 11:36:35.594 STDERR [INFO] I0730 11:36:35.593812 16808 net.cpp:156] Memory required for data: 67249720
2016-07-30 11:36:35.594 STDERR [INFO] I0730 11:36:35.593817 16808 layer_factory.hpp:77] Creating layer pool5
2016-07-30 11:36:35.594 STDERR [INFO] I0730 11:36:35.593833 16808 net.cpp:91] Creating Layer pool5
2016-07-30 11:36:35.594 STDERR [INFO] I0730 11:36:35.593843 16808 net.cpp:425] pool5 <- conv5
2016-07-30 11:36:35.594 STDERR [INFO] I0730 11:36:35.593864 16808 net.cpp:399] pool5 -> pool5
2016-07-30 11:36:35.594 STDERR [INFO] I0730 11:36:35.593935 16808 net.cpp:141] Setting up pool5
2016-07-30 11:36:35.594 STDERR [INFO] I0730 11:36:35.593946 16808 net.cpp:148] Top shape: 10 256 6 6 (92160)
2016-07-30 11:36:35.594 STDERR [INFO] I0730 11:36:35.593950 16808 net.cpp:156] Memory required for data: 67618360
2016-07-30 11:36:35.594 STDERR [INFO] I0730 11:36:35.593955 16808 layer_factory.hpp:77] Creating layer fc6
2016-07-30 11:36:35.594 STDERR [INFO] I0730 11:36:35.593972 16808 net.cpp:91] Creating Layer fc6
2016-07-30 11:36:35.594 STDERR [INFO] I0730 11:36:35.593978 16808 net.cpp:425] fc6 <- pool5
2016-07-30 11:36:35.595 STDERR [INFO] I0730 11:36:35.593986 16808 net.cpp:399] fc6 -> fc6
2016-07-30 11:36:35.665 STDERR [INFO] I0730 11:36:35.664752 16798 net.cpp:141] Setting up lstm1_transform_1
2016-07-30 11:36:35.665 STDERR [INFO] I0730 11:36:35.664819 16798 net.cpp:148] Top shape: 1 1 4000 (4000)
2016-07-30 11:36:35.665 STDERR [INFO] I0730 11:36:35.664826 16798 net.cpp:156] Memory required for data: 62016
2016-07-30 11:36:35.665 STDERR [INFO] I0730 11:36:35.664856 16798 layer_factory.hpp:77] Creating layer lstm1_gate_input_1
2016-07-30 11:36:35.666 STDERR [INFO] I0730 11:36:35.664880 16798 net.cpp:91] Creating Layer lstm1_gate_input_1
2016-07-30 11:36:35.666 STDERR [INFO] I0730 11:36:35.664888 16798 net.cpp:425] lstm1_gate_input_1 <- W_hc_h_0
2016-07-30 11:36:35.666 STDERR [INFO] I0730 11:36:35.664898 16798 net.cpp:425] lstm1_gate_input_1 <- W_xc_x_1
2016-07-30 11:36:35.666 STDERR [INFO] I0730 11:36:35.664911 16798 net.cpp:399] lstm1_gate_input_1 -> gate_input_1
2016-07-30 11:36:35.667 STDERR [INFO] I0730 11:36:35.664991 16798 net.cpp:141] Setting up lstm1_gate_input_1
2016-07-30 11:36:35.667 STDERR [INFO] I0730 11:36:35.665001 16798 net.cpp:148] Top shape: 1 1 4000 (4000)
2016-07-30 11:36:35.667 STDERR [INFO] I0730 11:36:35.665005 16798 net.cpp:156] Memory required for data: 78016
2016-07-30 11:36:35.667 STDERR [INFO] I0730 11:36:35.665010 16798 layer_factory.hpp:77] Creating layer lstm1_unit_1
2016-07-30 11:36:35.667 STDERR [INFO] I0730 11:36:35.665024 16798 net.cpp:91] Creating Layer lstm1_unit_1
2016-07-30 11:36:35.667 STDERR [INFO] I0730 11:36:35.665029 16798 net.cpp:425] lstm1_unit_1 <- c_0
2016-07-30 11:36:35.667 STDERR [INFO] I0730 11:36:35.665035 16798 net.cpp:425] lstm1_unit_1 <- gate_input_1
2016-07-30 11:36:35.667 STDERR [INFO] I0730 11:36:35.665040 16798 net.cpp:425] lstm1_unit_1 <- cont_1_lstm1_cont_slice_0_split_1
2016-07-30 11:36:35.668 STDERR [INFO] I0730 11:36:35.665046 16798 net.cpp:399] lstm1_unit_1 -> c_1
2016-07-30 11:36:35.668 STDERR [INFO] I0730 11:36:35.665055 16798 net.cpp:399] lstm1_unit_1 -> h_1
2016-07-30 11:36:35.668 STDERR [INFO] I0730 11:36:35.665127 16798 net.cpp:141] Setting up lstm1_unit_1
2016-07-30 11:36:35.668 STDERR [INFO] I0730 11:36:35.665137 16798 net.cpp:148] Top shape: 1 1 1000 (1000)
2016-07-30 11:36:35.668 STDERR [INFO] I0730 11:36:35.665143 16798 net.cpp:148] Top shape: 1 1 1000 (1000)
2016-07-30 11:36:35.668 STDERR [INFO] I0730 11:36:35.665146 16798 net.cpp:156] Memory required for data: 86016
2016-07-30 11:36:35.668 STDERR [INFO] I0730 11:36:35.665151 16798 layer_factory.hpp:77] Creating layer lstm1_
2016-07-30 11:36:35.668 STDERR [INFO] I0730 11:36:35.665159 16798 net.cpp:91] Creating Layer lstm1_
2016-07-30 11:36:35.669 STDERR [INFO] I0730 11:36:35.665164 16798 net.cpp:425] lstm1_ <- c_1
2016-07-30 11:36:35.669 STDERR [INFO] I0730 11:36:35.665174 16798 net.cpp:399] lstm1_ -> c_T
2016-07-30 11:36:35.669 STDERR [INFO] I0730 11:36:35.665206 16798 net.cpp:141] Setting up lstm1_
2016-07-30 11:36:35.669 STDERR [INFO] I0730 11:36:35.665215 16798 net.cpp:148] Top shape: 1 1 1000 (1000)
2016-07-30 11:36:35.669 STDERR [INFO] I0730 11:36:35.665220 16798 net.cpp:156] Memory required for data: 90016
2016-07-30 11:36:35.669 STDERR [INFO] I0730 11:36:35.665223 16798 layer_factory.hpp:77] Creating layer lstm1_h_concat
2016-07-30 11:36:35.669 STDERR [INFO] I0730 11:36:35.665235 16798 net.cpp:91] Creating Layer lstm1_h_concat
2016-07-30 11:36:35.669 STDERR [INFO] I0730 11:36:35.665238 16798 net.cpp:425] lstm1_h_concat <- h_1
2016-07-30 11:36:35.669 STDERR [INFO] I0730 11:36:35.665246 16798 net.cpp:399] lstm1_h_concat -> h
2016-07-30 11:36:35.670 STDERR [INFO] I0730 11:36:35.665299 16798 net.cpp:141] Setting up lstm1_h_concat
2016-07-30 11:36:35.670 STDERR [INFO] I0730 11:36:35.665308 16798 net.cpp:148] Top shape: 1 1 1000 (1000)
2016-07-30 11:36:35.670 STDERR [INFO] I0730 11:36:35.665313 16798 net.cpp:156] Memory required for data: 94016
2016-07-30 11:36:35.670 STDERR [INFO] I0730 11:36:35.665316 16798 layer_factory.hpp:77] Creating layer h_pseudoloss
2016-07-30 11:36:35.670 STDERR [INFO] I0730 11:36:35.665334 16798 net.cpp:91] Creating Layer h_pseudoloss
2016-07-30 11:36:35.670 STDERR [INFO] I0730 11:36:35.665339 16798 net.cpp:425] h_pseudoloss <- h
…
2016-07-30 11:36:35.691 STDERR [INFO] }
2016-07-30 11:36:35.692 STDERR [INFO] I0730 11:36:35.666424 16798 layer_factory.hpp:77] Creating layer lstm2_
2016-07-30 11:36:35.692 STDERR [INFO] I0730 11:36:35.666436 16798 net.cpp:91] Creating Layer lstm2_
2016-07-30 11:36:35.692 STDERR [INFO] I0730 11:36:35.666443 16798 net.cpp:399] lstm2_ -> x
2016-07-30 11:36:35.692 STDERR [INFO] I0730 11:36:35.666455 16798 net.cpp:399] lstm2_ -> cont
2016-07-30 11:36:35.692 STDERR [INFO] I0730 11:36:35.666515 16798 net.cpp:141] Setting up lstm2_
2016-07-30 11:36:35.692 STDERR [INFO] I0730 11:36:35.666527 16798 net.cpp:148] Top shape: 1 1 1501 (1501)
2016-07-30 11:36:35.692 STDERR [INFO] I0730 11:36:35.666532 16798 net.cpp:148] Top shape: 1 1 (1)
2016-07-30 11:36:35.692 STDERR [INFO] I0730 11:36:35.666537 16798 net.cpp:156] Memory required for data: 6008
2016-07-30 11:36:35.692 STDERR [INFO] I0730 11:36:35.666543 16798 layer_factory.hpp:77] Creating layer lstm2_
2016-07-30 11:36:35.693 STDERR [INFO] I0730 11:36:35.666554 16798 net.cpp:91] Creating Layer lstm2_
2016-07-30 11:36:35.693 STDERR [INFO] I0730 11:36:35.666561 16798 net.cpp:399] lstm2_ -> c_0
2016-07-30 11:36:35.694 STDERR [INFO] I0730 11:36:35.666573 16798 net.cpp:399] lstm2_ -> h_0
2016-07-30 11:36:35.694 STDERR [INFO] I0730 11:36:35.666635 16798 net.cpp:141] Setting up lstm2_
2016-07-30 11:36:35.694 STDERR [INFO] I0730 11:36:35.666645 16798 net.cpp:148] Top shape: 1 1 1000 (1000)
2016-07-30 11:36:35.694 STDERR [INFO] I0730 11:36:35.666651 16798 net.cpp:148] Top shape: 1 1 1000 (1000)
2016-07-30 11:36:35.695 STDERR [INFO] I0730 11:36:35.666654 16798 net.cpp:156] Memory required for data: 14008
2016-07-30 11:36:35.695 STDERR [INFO] I0730 11:36:35.666659 16798 layer_factory.hpp:77] Creating layer lstm2_cont_slice
2016-07-30 11:36:35.695 STDERR [INFO] I0730 11:36:35.666668 16798 net.cpp:91] Creating Layer lstm2_cont_slice
2016-07-30 11:36:35.695 STDERR [INFO] I0730 11:36:35.666673 16798 net.cpp:425] lstm2_cont_slice <- cont
2016-07-30 11:36:35.695 STDERR [INFO] I0730 11:36:35.666681 16798 net.cpp:399] lstm2_cont_slice -> cont_1
2016-07-30 11:36:35.695 STDERR [INFO] I0730 11:36:35.666749 16798 net.cpp:141] Setting up lstm2_cont_slice
2016-07-30 11:36:35.695 STDERR [INFO] I0730 11:36:35.666760 16798 net.cpp:148] Top shape: 1 1 (1)
2016-07-30 11:36:35.695 STDERR [INFO] I0730 11:36:35.666765 16798 net.cpp:156] Memory required for data: 14012
2016-07-30 11:36:35.695 STDERR [INFO] I0730 11:36:35.666769 16798 layer_factory.hpp:77] Creating layer cont_1_lstm2_cont_slice_0_split
2016-07-30 11:36:35.696 STDERR [INFO] I0730 11:36:35.666777 16798 net.cpp:91] Creating Layer cont_1_lstm2_cont_slice_0_split
2016-07-30 11:36:35.696 STDERR [INFO] I0730 11:36:35.666782 16798 net.cpp:425] cont_1_lstm2_cont_slice_0_split <- cont_1
2016-07-30 11:36:35.696 STDERR [INFO] I0730 11:36:35.666791 16798 net.cpp:399] cont_1_lstm2_cont_slice_0_split -> cont_1_lstm2_cont_slice_0_split_0
2016-07-30 11:36:35.696 STDERR [INFO] I0730 11:36:35.666800 16798 net.cpp:399] cont_1_lstm2_cont_slice_0_split -> cont_1_lstm2_cont_slice_0_split_1
2016-07-30 11:36:35.696 STDERR [INFO] I0730 11:36:35.666851 16798 net.cpp:141] Setting up cont_1_lstm2_cont_slice_0_split
2016-07-30 11:36:35.696 STDERR [INFO] I0730 11:36:35.666860 16798 net.cpp:148] Top shape: 1 1 (1)
2016-07-30 11:36:35.696 STDERR [INFO] I0730 11:36:35.666867 16798 net.cpp:148] Top shape: 1 1 (1)
2016-07-30 11:36:35.696 STDERR [INFO] I0730 11:36:35.666873 16798 net.cpp:156] Memory required for data: 14020
2016-07-30 11:36:35.697 STDERR [INFO] I0730 11:36:35.666878 16798 layer_factory.hpp:77] Creating layer lstm2_x_transform
2016-07-30 11:36:35.697 STDERR [INFO] I0730 11:36:35.666890 16798 net.cpp:91] Creating Layer lstm2_x_transform
2016-07-30 11:36:35.697 STDERR [INFO] I0730 11:36:35.666896 16798 net.cpp:425] lstm2_x_transform <- x
2016-07-30 11:36:35.697 STDERR [INFO] I0730 11:36:35.666906 16798 net.cpp:399] lstm2_x_transform -> W_xc_x
2016-07-30 11:36:35.710 STDERR [INFO] I0730 11:36:35.709938 16808 net.cpp:141] Setting up fc6
2016-07-30 11:36:35.710 STDERR [INFO] I0730 11:36:35.710000 16808 net.cpp:148] Top shape: 10 4096 (40960)
2016-07-30 11:36:35.710 STDERR [INFO] I0730 11:36:35.710006 16808 net.cpp:156] Memory required for data: 67782200
2016-07-30 11:36:35.710 STDERR [INFO] I0730 11:36:35.710027 16808 layer_factory.hpp:77] Creating layer relu6
2016-07-30 11:36:35.711 STDERR [INFO] I0730 11:36:35.710054 16808 net.cpp:91] Creating Layer relu6
2016-07-30 11:36:35.711 STDERR [INFO] I0730 11:36:35.710065 16808 net.cpp:425] relu6 <- fc6
2016-07-30 11:36:35.711 STDERR [INFO] I0730 11:36:35.710078 16808 net.cpp:386] relu6 -> fc6 (in-place)
2016-07-30 11:36:35.711 STDERR [INFO] I0730 11:36:35.710537 16808 net.cpp:141] Setting up relu6
2016-07-30 11:36:35.711 STDERR [INFO] I0730 11:36:35.710549 16808 net.cpp:148] Top shape: 10 4096 (40960)
2016-07-30 11:36:35.711 STDERR [INFO] I0730 11:36:35.710554 16808 net.cpp:156] Memory required for data: 67946040
2016-07-30 11:36:35.711 STDERR [INFO] I0730 11:36:35.710559 16808 layer_factory.hpp:77] Creating layer drop6
2016-07-30 11:36:35.711 STDERR [INFO] I0730 11:36:35.710592 16808 net.cpp:91] Creating Layer drop6
2016-07-30 11:36:35.712 STDERR [INFO] I0730 11:36:35.710597 16808 net.cpp:425] drop6 <- fc6
2016-07-30 11:36:35.712 STDERR [INFO] I0730 11:36:35.710604 16808 net.cpp:386] drop6 -> fc6 (in-place)
2016-07-30 11:36:35.712 STDERR [INFO] I0730 11:36:35.710737 16808 net.cpp:141] Setting up drop6
2016-07-30 11:36:35.712 STDERR [INFO] I0730 11:36:35.710753 16808 net.cpp:148] Top shape: 10 4096 (40960)
2016-07-30 11:36:35.712 STDERR [INFO] I0730 11:36:35.710757 16808 net.cpp:156] Memory required for data: 68109880
2016-07-30 11:36:35.712 STDERR [INFO] I0730 11:36:35.710764 16808 layer_factory.hpp:77] Creating layer fc7
2016-07-30 11:36:35.712 STDERR [INFO] I0730 11:36:35.710777 16808 net.cpp:91] Creating Layer fc7
2016-07-30 11:36:35.712 STDERR [INFO] I0730 11:36:35.710783 16808 net.cpp:425] fc7 <- fc6
2016-07-30 11:36:35.712 STDERR [INFO] I0730 11:36:35.710795 16808 net.cpp:399] fc7 -> fc7
2016-07-30 11:36:35.745 STDERR [INFO] I0730 11:36:35.744879 16798 net.cpp:141] Setting up lstm2_x_transform
2016-07-30 11:36:35.745 STDERR [INFO] I0730 11:36:35.744945 16798 net.cpp:148] Top shape: 1 1 4000 (4000)
2016-07-30 11:36:35.745 STDERR [INFO] I0730 11:36:35.744951 16798 net.cpp:156] Memory required for data: 30020
2016-07-30 11:36:35.745 STDERR [INFO] I0730 11:36:35.744982 16798 layer_factory.hpp:77] Creating layer lstm2_W_xc_x_slice
2016-07-30 11:36:35.745 STDERR [INFO] I0730 11:36:35.745003 16798 net.cpp:91] Creating Layer lstm2_W_xc_x_slice
2016-07-30 11:36:35.746 STDERR [INFO] I0730 11:36:35.745010 16798 net.cpp:425] lstm2_W_xc_x_slice <- W_xc_x
2016-07-30 11:36:35.746 STDERR [INFO] I0730 11:36:35.745023 16798 net.cpp:399] lstm2_W_xc_x_slice -> W_xc_x_1
2016-07-30 11:36:35.746 STDERR [INFO] I0730 11:36:35.745074 16798 net.cpp:141] Setting up lstm2_W_xc_x_slice
2016-07-30 11:36:35.746 STDERR [INFO] I0730 11:36:35.745085 16798 net.cpp:148] Top shape: 1 1 4000 (4000)
2016-07-30 11:36:35.746 STDERR [INFO] I0730 11:36:35.745090 16798 net.cpp:156] Memory required for data: 46020
2016-07-30 11:36:35.746 STDERR [INFO] I0730 11:36:35.745095 16798 layer_factory.hpp:77] Creating layer lstm2_h_conted_0
2016-07-30 11:36:35.746 STDERR [INFO] I0730 11:36:35.745110 16798 net.cpp:91] Creating Layer lstm2_h_conted_0
2016-07-30 11:36:35.746 STDERR [INFO] I0730 11:36:35.745115 16798 net.cpp:425] lstm2_h_conted_0 <- h_0
2016-07-30 11:36:35.747 STDERR [INFO] I0730 11:36:35.745122 16798 net.cpp:425] lstm2_h_conted_0 <- cont_1_lstm2_cont_slice_0_split_0
2016-07-30 11:36:35.747 STDERR [INFO] I0730 11:36:35.745131 16798 net.cpp:399] lstm2_h_conted_0 -> h_conted_0
2016-07-30 11:36:35.747 STDERR [INFO] I0730 11:36:35.745246 16798 net.cpp:141] Setting up lstm2_h_conted_0
2016-07-30 11:36:35.747 STDERR [INFO] I0730 11:36:35.745256 16798 net.cpp:148] Top shape: 1 1 1000 (1000)
2016-07-30 11:36:35.747 STDERR [INFO] I0730 11:36:35.745260 16798 net.cpp:156] Memory required for data: 50020
2016-07-30 11:36:35.747 STDERR [INFO] I0730 11:36:35.745265 16798 layer_factory.hpp:77] Creating layer lstm2_transform_1
2016-07-30 11:36:35.747 STDERR [INFO] I0730 11:36:35.745281 16798 net.cpp:91] Creating Layer lstm2_transform_1
2016-07-30 11:36:35.747 STDERR [INFO] I0730 11:36:35.745287 16798 net.cpp:425] lstm2_transform_1 <- h_conted_0
2016-07-30 11:36:35.747 STDERR [INFO] I0730 11:36:35.745296 16798 net.cpp:399] lstm2_transform_1 -> W_hc_h_0
2016-07-30 11:36:35.765 STDERR [INFO] I0730 11:36:35.765027 16808 net.cpp:141] Setting up fc7
2016-07-30 11:36:35.765 STDERR [INFO] I0730 11:36:35.765080 16808 net.cpp:148] Top shape: 10 4096 (40960)
2016-07-30 11:36:35.765 STDERR [INFO] I0730 11:36:35.765086 16808 net.cpp:156] Memory required for data: 68273720
2016-07-30 11:36:35.765 STDERR [INFO] I0730 11:36:35.765105 16808 layer_factory.hpp:77] Creating layer relu7
2016-07-30 11:36:35.765 STDERR [INFO] I0730 11:36:35.765125 16808 net.cpp:91] Creating Layer relu7
2016-07-30 11:36:35.765 STDERR [INFO] I0730 11:36:35.765133 16808 net.cpp:425] relu7 <- fc7
2016-07-30 11:36:35.766 STDERR [INFO] I0730 11:36:35.765144 16808 net.cpp:386] relu7 -> fc7 (in-place)
2016-07-30 11:36:35.767 STDERR [INFO] I0730 11:36:35.767122 16808 net.cpp:141] Setting up relu7
2016-07-30 11:36:35.767 STDERR [INFO] I0730 11:36:35.767141 16808 net.cpp:148] Top shape: 10 4096 (40960)
2016-07-30 11:36:35.767 STDERR [INFO] I0730 11:36:35.767146 16808 net.cpp:156] Memory required for data: 68437560
2016-07-30 11:36:35.767 STDERR [INFO] I0730 11:36:35.767153 16808 layer_factory.hpp:77] Creating layer drop7
2016-07-30 11:36:35.767 STDERR [INFO] I0730 11:36:35.767163 16808 net.cpp:91] Creating Layer drop7
2016-07-30 11:36:35.767 STDERR [INFO] I0730 11:36:35.767169 16808 net.cpp:425] drop7 <- fc7
2016-07-30 11:36:35.767 STDERR [INFO] I0730 11:36:35.767181 16808 net.cpp:386] drop7 -> fc7 (in-place)
2016-07-30 11:36:35.767 STDERR [INFO] I0730 11:36:35.767225 16808 net.cpp:141] Setting up drop7
2016-07-30 11:36:35.768 STDERR [INFO] I0730 11:36:35.767233 16808 net.cpp:148] Top shape: 10 4096 (40960)
2016-07-30 11:36:35.768 STDERR [INFO] I0730 11:36:35.767237 16808 net.cpp:156] Memory required for data: 68601400
2016-07-30 11:36:35.768 STDERR [INFO] I0730 11:36:35.767242 16808 layer_factory.hpp:77] Creating layer fc8
2016-07-30 11:36:35.768 STDERR [INFO] I0730 11:36:35.767256 16808 net.cpp:91] Creating Layer fc8
2016-07-30 11:36:35.768 STDERR [INFO] I0730 11:36:35.767261 16808 net.cpp:425] fc8 <- fc7
2016-07-30 11:36:35.768 STDERR [INFO] I0730 11:36:35.767268 16808 net.cpp:399] fc8 -> fc8
2016-07-30 11:36:35.781 STDERR [INFO] I0730 11:36:35.781675 16808 net.cpp:141] Setting up fc8
2016-07-30 11:36:35.782 STDERR [INFO] I0730 11:36:35.781731 16808 net.cpp:148] Top shape: 10 1000 (10000)
2016-07-30 11:36:35.782 STDERR [INFO] I0730 11:36:35.781738 16808 net.cpp:156] Memory required for data: 68641400
2016-07-30 11:36:35.782 STDERR [INFO] I0730 11:36:35.781755 16808 layer_factory.hpp:77] Creating layer prob
2016-07-30 11:36:35.782 STDERR [INFO] I0730 11:36:35.781780 16808 net.cpp:91] Creating Layer prob
2016-07-30 11:36:35.782 STDERR [INFO] I0730 11:36:35.781788 16808 net.cpp:425] prob <- fc8
2016-07-30 11:36:35.782 STDERR [INFO] I0730 11:36:35.781807 16808 net.cpp:399] prob -> prob
2016-07-30 11:36:35.782 STDERR [INFO] I0730 11:36:35.782299 16808 net.cpp:141] Setting up prob
2016-07-30 11:36:35.783 STDERR [INFO] I0730 11:36:35.782311 16808 net.cpp:148] Top shape: 10 1000 (10000)
2016-07-30 11:36:35.783 STDERR [INFO] I0730 11:36:35.782316 16808 net.cpp:156] Memory required for data: 68681400
2016-07-30 11:36:35.783 STDERR [INFO] I0730 11:36:35.782321 16808 net.cpp:219] prob does not need backward computation.
2016-07-30 11:36:35.783 STDERR [INFO] I0730 11:36:35.782327 16808 net.cpp:219] fc8 does not need backward computation.
2016-07-30 11:36:35.783 STDERR [INFO] I0730 11:36:35.782331 16808 net.cpp:219] drop7 does not need backward computation.
…
2016-07-30 11:36:35.785 STDERR [INFO] I0730 11:36:35.782428 16808 net.cpp:219] conv1 does not need backward computation.
2016-07-30 11:36:35.785 STDERR [INFO] I0730 11:36:35.782431 16808 net.cpp:219] data does not need backward computation.
2016-07-30 11:36:35.785 STDERR [INFO] I0730 11:36:35.782435 16808 net.cpp:261] This network produces output prob
2016-07-30 11:36:35.785 STDERR [INFO] I0730 11:36:35.782456 16808 net.cpp:274] Network initialization done.
2016-07-30 11:36:35.792 STDERR [INFO] I0730 11:36:35.791899 16798 net.cpp:141] Setting up lstm2_transform_1
2016-07-30 11:36:35.792 STDERR [INFO] I0730 11:36:35.791954 16798 net.cpp:148] Top shape: 1 1 4000 (4000)
2016-07-30 11:36:35.792 STDERR [INFO] I0730 11:36:35.791960 16798 net.cpp:156] Memory required for data: 66020
2016-07-30 11:36:35.792 STDERR [INFO] I0730 11:36:35.791982 16798 layer_factory.hpp:77] Creating layer lstm2_gate_input_1
2016-07-30 11:36:35.792 STDERR [INFO] I0730 11:36:35.792007 16798 net.cpp:91] Creating Layer lstm2_gate_input_1
2016-07-30 11:36:35.792 STDERR [INFO] I0730 11:36:35.792016 16798 net.cpp:425] lstm2_gate_input_1 <- W_hc_h_0
2016-07-30 11:36:35.792 STDERR [INFO] I0730 11:36:35.792026 16798 net.cpp:425] lstm2_gate_input_1 <- W_xc_x_1
2016-07-30 11:36:35.793 STDERR [INFO] I0730 11:36:35.792033 16798 net.cpp:399] lstm2_gate_input_1 -> gate_input_1
2016-07-30 11:36:35.793 STDERR [INFO] I0730 11:36:35.792088 16798 net.cpp:141] Setting up lstm2_gate_input_1
2016-07-30 11:36:35.793 STDERR [INFO] I0730 11:36:35.792096 16798 net.cpp:148] Top shape: 1 1 4000 (4000)
2016-07-30 11:36:35.793 STDERR [INFO] I0730 11:36:35.792100 16798 net.cpp:156] Memory required for data: 82020
2016-07-30 11:36:35.793 STDERR [INFO] I0730 11:36:35.792105 16798 layer_factory.hpp:77] Creating layer lstm2_unit_1
2016-07-30 11:36:35.793 STDERR [INFO] I0730 11:36:35.792117 16798 net.cpp:91] Creating Layer lstm2_unit_1
2016-07-30 11:36:35.793 STDERR [INFO] I0730 11:36:35.792122 16798 net.cpp:425] lstm2_unit_1 <- c_0
2016-07-30 11:36:35.793 STDERR [INFO] I0730 11:36:35.792129 16798 net.cpp:425] lstm2_unit_1 <- gate_input_1
2016-07-30 11:36:35.793 STDERR [INFO] I0730 11:36:35.792135 16798 net.cpp:425] lstm2_unit_1 <- cont_1_lstm2_cont_slice_0_split_1
2016-07-30 11:36:35.793 STDERR [INFO] I0730 11:36:35.792141 16798 net.cpp:399] lstm2_unit_1 -> c_1
2016-07-30 11:36:35.793 STDERR [INFO] I0730 11:36:35.792150 16798 net.cpp:399] lstm2_unit_1 -> h_1
2016-07-30 11:36:35.794 STDERR [INFO] I0730 11:36:35.792220 16798 net.cpp:141] Setting up lstm2_unit_1
2016-07-30 11:36:35.794 STDERR [INFO] I0730 11:36:35.792229 16798 net.cpp:148] Top shape: 1 1 1000 (1000)
2016-07-30 11:36:35.794 STDERR [INFO] I0730 11:36:35.792235 16798 net.cpp:148] Top shape: 1 1 1000 (1000)
2016-07-30 11:36:35.794 STDERR [INFO] I0730 11:36:35.792240 16798 net.cpp:156] Memory required for data: 90020
2016-07-30 11:36:35.794 STDERR [INFO] I0730 11:36:35.792244 16798 layer_factory.hpp:77] Creating layer lstm2_
2016-07-30 11:36:35.794 STDERR [INFO] I0730 11:36:35.792255 16798 net.cpp:91] Creating Layer lstm2_
2016-07-30 11:36:35.794 STDERR [INFO] I0730 11:36:35.792260 16798 net.cpp:425] lstm2_ <- c_1
2016-07-30 11:36:35.794 STDERR [INFO] I0730 11:36:35.792268 16798 net.cpp:399] lstm2_ -> c_T
2016-07-30 11:36:35.794 STDERR [INFO] I0730 11:36:35.792301 16798 net.cpp:141] Setting up lstm2_
2016-07-30 11:36:35.794 STDERR [INFO] I0730 11:36:35.792309 16798 net.cpp:148] Top shape: 1 1 1000 (1000)
2016-07-30 11:36:35.794 STDERR [INFO] I0730 11:36:35.792314 16798 net.cpp:156] Memory required for data: 94020
2016-07-30 11:36:35.794 STDERR [INFO] I0730 11:36:35.792318 16798 layer_factory.hpp:77] Creating layer lstm2_h_concat
2016-07-30 11:36:35.795 STDERR [INFO] I0730 11:36:35.792328 16798 net.cpp:91] Creating Layer lstm2_h_concat
2016-07-30 11:36:35.795 STDERR [INFO] I0730 11:36:35.792333 16798 net.cpp:425] lstm2_h_concat <- h_1
2016-07-30 11:36:35.795 STDERR [INFO] I0730 11:36:35.792343 16798 net.cpp:399] lstm2_h_concat -> h
2016-07-30 11:36:35.795 STDERR [INFO] I0730 11:36:35.792381 16798 net.cpp:141] Setting up lstm2_h_concat
2016-07-30 11:36:35.795 STDERR [INFO] I0730 11:36:35.792388 16798 net.cpp:148] Top shape: 1 1 1000 (1000)
2016-07-30 11:36:35.795 STDERR [INFO] I0730 11:36:35.792393 16798 net.cpp:156] Memory required for data: 98020
2016-07-30 11:36:35.795 STDERR [INFO] I0730 11:36:35.792397 16798 layer_factory.hpp:77] Creating layer h_pseudoloss
2016-07-30 11:36:35.795 STDERR [INFO] I0730 11:36:35.792410 16798 net.cpp:91] Creating Layer h_pseudoloss
2016-07-30 11:36:35.795 STDERR [INFO] I0730 11:36:35.792415 16798 net.cpp:425] h_pseudoloss <- h
…
