…
W0924 04:08:28.130234 20686 upgrade_proto.cpp:71] Note that future Caffe releases will only support input layers and not input fields.
I0924 04:08:28.130390 20678 net.cpp:49] Initializing net from parameters: 
name: "s2vt:features_to_lstm"
state {
  phase: TEST
}
layer {
  name: "input"
  type: "Input"
  top: "frames_fc7"
  top: "cont_sentence"
  top: "input_sentence"
  top: "stage_indicator"
  input_param {
    shape {
      dim: 1
      dim: 4096
    }
    shape {
      dim: 1
      dim: 1
    }
    shape {
      dim: 1
      dim: 1
    }
    shape {
      dim: 1
      dim: 1
    }
  }
}
layer {
  name: "embed_encoder"
  type: "InnerProduct"
  bottom: "frames_fc7"
  top: "embedded_in_frames"
  param {
    lr_mult: 1
    decay_mult: 1
  }
  param {
    lr_mult: 2
    decay_mult: 0
  }
  inner_product_param {
    num_output: 500
    weight_filler {
      type: "xavier"
    }
    bias_filler {
      type: "constant"
      value: 0.2
    }
  }
}
layer {
  name: "reshape_frames"
  type: "Reshape"
  bottom: "embedded_in_frames"
  top: "embedded_input_frames"
  reshape_param {
    shape {
      dim: 1
      dim: 1
      dim: 500
    }
  }
}
layer {
  name: "reshape_stage_indicator"
  type: "Reshape"
  bottom: "stage_indicator"
  top: "reshaped_stage_indicator"
  reshape_param {
    shape {
      dim: 1
      dim: 1
      dim: 1
    }
  }
}
layer {
  name: "embedding"
  type: "Embed"
  bottom: "input_sentence"
  top: "embedded_input_sentence"
  param {
    lr_mult: 1
  }
  embed_param {
    num_output: 500
    input_dim: 46168
    bias_term: false
    weight_filler {
      type: "uniform"
      min: -0.08
      max: 0.08
    }
  }
}
layer {
  name: "lstm1"
  type: "LSTM"
  bottom: "embedded_input_frames"
  bottom: "cont_sentence"
  top: "lstm1"
  recurrent_param {
    num_output: 1000
    weight_filler {
      type: "uniform"
      min: -0.08
      max: 0.08
    }
    bias_filler {
      type: "constant"
      value: 0
    }
  }
}
layer {
  name: "concat"
  type: "Concat"
  bottom: "lstm1"
  bottom: "embedded_input_sentence"
  bottom: "reshaped_stage_indicator"
  top: "lstm1_video_sequence"
  concat_param {
    concat_dim: 2
  }
}
layer {
  name: "lstm2"
  type: "LSTM"
  bottom: "lstm1_video_sequence"
  bottom: "cont_sentence"
  top: "lstm2"
  recurrent_param {
    num_output: 1000
    weight_filler {
      type: "uniform"
      min: -0.08
      max: 0.08
    }
    bias_filler {
      type: "constant"
      value: 0
    }
  }
}
layer {
  name: "predict"
  type: "InnerProduct"
  bottom: "lstm2"
  top: "predict"
  param {
    lr_mult: 1
    decay_mult: 1
  }
  param {
    lr_mult: 2
    decay_mult: 0
  }
  inner_product_param {
    num_output: 46168
    weight_filler {
      type: "uniform"
      min: -0.08
      max: 0.08
    }
    bias_filler {
      type: "constant"
      value: 0
    }
    axis: 2
  }
}
layer {
  name: "probs"
  type: "Softmax"
  bottom: "predict"
  top: "probs"
  softmax_param {
    axis: 2
  }
}
I0924 04:08:28.130444 20674 net.cpp:49] Initializing net from parameters: 
name: "s2vt:features_to_lstm"
state {
  phase: TEST
}
layer {
  name: "input"
  type: "Input"
  top: "frames_fc7"
  top: "cont_sentence"
  top: "input_sentence"
  top: "stage_indicator"
  input_param {
    shape {
      dim: 1
      dim: 4096
    }
    shape {
      dim: 1
      dim: 1
    }
    shape {
      dim: 1
      dim: 1
    }
    shape {
      dim: 1
      dim: 1
    }
  }
}
layer {
  name: "embed_encoder"
  type: "InnerProduct"
  bottom: "frames_fc7"
  top: "embedded_in_frames"
  param {
    lr_mult: 1
    decay_mult: 1
  }
  param {
    lr_mult: 2
    decay_mult: 0
  }
  inner_product_param {
    num_output: 500
    weight_filler {
      type: "xavier"
    }
    bias_filler {
      type: "constant"
      value: 0.2
    }
  }
}
layer {
  name: "reshape_frames"
  type: "Reshape"
  bottom: "embedded_in_frames"
  top: "embedded_input_frames"
  reshape_param {
    shape {
      dim: 1
      dim: 1
      dim: 500
    }
  }
}
layer {
  name: "reshape_stage_indicator"
  type: "Reshape"
  bottom: "stage_indicator"
  top: "reshaped_stage_indicator"
  reshape_param {
    shape {
      dim: 1
      dim: 1
      dim: 1
    }
  }
}
layer {
  name: "embedding"
  type: "Embed"
  bottom: "input_sentence"
  top: "embedded_input_sentence"
  param {
    lr_mult: 1
  }
  embed_param {
    num_output: 500
    input_dim: 46168
    bias_term: false
    weight_filler {
      type: "uniform"
      min: -0.08
      max: 0.08
    }
  }
}
layer {
  name: "lstm1"
  type: "LSTM"
  bottom: "embedded_input_frames"
  bottom: "cont_sentence"
  top: "lstm1"
  recurrent_param {
    num_output: 1000
    weight_filler {
      type: "uniform"
      min: -0.08
      max: 0.08
    }
    bias_filler {
      type: "constant"
      value: 0
    }
  }
}
layer {
  name: "concat"
  type: "Concat"
  bottom: "lstm1"
  bottom: "embedded_input_sentence"
  bottom: "reshaped_stage_indicator"
  top: "lstm1_video_sequence"
  concat_param {
    concat_dim: 2
  }
}
layer {
  name: "lstm2"
  type: "LSTM"
  bottom: "lstm1_video_sequence"
  bottom: "cont_sentence"
  top: "lstm2"
  recurrent_param {
    num_output: 1000
    weight_filler {
      type: "uniform"
      min: -0.08
      max: 0.08
    }
    bias_filler {
      type: "constant"
      value: 0
    }
  }
}
layer {
  name: "predict"
  type: "InnerProduct"
  bottom: "lstm2"
  top: "predict"
  param {
    lr_mult: 1
    decay_mult: 1
  }
  param {
    lr_mult: 2
    decay_mult: 0
  }
  inner_product_param {
    num_output: 46168
    weight_filler {
      type: "uniform"
      min: -0.08
      max: 0.08
    }
    bias_filler {
      type: "constant"
      value: 0
    }
    axis: 2
  }
}
layer {
  name: "probs"
  type: "Softmax"
  bottom: "predict"
  top: "probs"
  softmax_param {
    axis: 2
  }
}
I0924 04:08:28.130471 20672 net.cpp:49] Initializing net from parameters: 
name: "s2vt:features_to_lstm"
state {
  phase: TEST
}
layer {
  name: "input"
  type: "Input"
  top: "frames_fc7"
  top: "cont_sentence"
  top: "input_sentence"
  top: "stage_indicator"
  input_param {
    shape {
      dim: 1
      dim: 4096
    }
    shape {
      dim: 1
      dim: 1
    }
    shape {
      dim: 1
      dim: 1
    }
    shape {
      dim: 1
      dim: 1
    }
  }
}
layer {
  name: "embed_encoder"
  type: "InnerProduct"
  bottom: "frames_fc7"
  top: "embedded_in_frames"
  param {
    lr_mult: 1
    decay_mult: 1
  }
  param {
    lr_mult: 2
    decay_mult: 0
  }
  inner_product_param {
    num_output: 500
    weight_filler {
      type: "xavier"
    }
    bias_filler {
      type: "constant"
      value: 0.2
    }
  }
}
layer {
  name: "reshape_frames"
  type: "Reshape"
  bottom: "embedded_in_frames"
  top: "embedded_input_frames"
  reshape_param {
    shape {
      dim: 1
      dim: 1
      dim: 500
    }
  }
}
layer {
  name: "reshape_stage_indicator"
  type: "Reshape"
  bottom: "stage_indicator"
  top: "reshaped_stage_indicator"
  reshape_param {
    shape {
      dim: 1
      dim: 1
      dim: 1
    }
  }
}
layer {
  name: "embedding"
  type: "Embed"
  bottom: "input_sentence"
  top: "embedded_input_sentence"
  param {
    lr_mult: 1
  }
  embed_param {
    num_output: 500
    input_dim: 46168
    bias_term: false
    weight_filler {
      type: "uniform"
      min: -0.08
      max: 0.08
    }
  }
}
layer {
  name: "lstm1"
  type: "LSTM"
  bottom: "embedded_input_frames"
  bottom: "cont_sentence"
  top: "lstm1"
  recurrent_param {
    num_output: 1000
    weight_filler {
      type: "uniform"
      min: -0.08
      max: 0.08
    }
    bias_filler {
      type: "constant"
      value: 0
    }
  }
}
layer {
  name: "concat"
  type: "Concat"
  bottom: "lstm1"
  bottom: "embedded_input_sentence"
  bottom: "reshaped_stage_indicator"
  top: "lstm1_video_sequence"
  concat_param {
    concat_dim: 2
  }
}
layer {
  name: "lstm2"
  type: "LSTM"
  bottom: "lstm1_video_sequence"
  bottom: "cont_sentence"
  top: "lstm2"
  recurrent_param {
    num_output: 1000
    weight_filler {
      type: "uniform"
      min: -0.08
      max: 0.08
    }
    bias_filler {
      type: "constant"
      value: 0
    }
  }
}
layer {
  name: "predict"
  type: "InnerProduct"
  bottom: "lstm2"
  top: "predict"
  param {
    lr_mult: 1
    decay_mult: 1
  }
  param {
    lr_mult: 2
    decay_mult: 0
  }
  inner_product_param {
    num_output: 46168
    weight_filler {
      type: "uniform"
      min: -0.08
      max: 0.08
    }
    bias_filler {
      type: "constant"
      value: 0
    }
    axis: 2
  }
}
layer {
  name: "probs"
  type: "Softmax"
  bottom: "predict"
  top: "probs"
  softmax_param {
    axis: 2
  }
}
I0924 04:08:28.130554 20678 layer_factory.hpp:77] Creating layer input
I0924 04:08:28.130575 20686 net.cpp:49] Initializing net from parameters: 
name: "s2vt:features_to_lstm"
state {
  phase: TEST
}
layer {
  name: "input"
  type: "Input"
  top: "frames_fc7"
  top: "cont_sentence"
  top: "input_sentence"
  top: "stage_indicator"
  input_param {
    shape {
      dim: 1
      dim: 4096
    }
    shape {
      dim: 1
      dim: 1
    }
    shape {
      dim: 1
      dim: 1
    }
    shape {
      dim: 1
      dim: 1
    }
  }
}
layer {
  name: "embed_encoder"
  type: "InnerProduct"
  bottom: "frames_fc7"
  top: "embedded_in_frames"
  param {
    lr_mult: 1
    decay_mult: 1
  }
  param {
    lr_mult: 2
    decay_mult: 0
  }
  inner_product_param {
    num_output: 500
    weight_filler {
      type: "xavier"
    }
    bias_filler {
      type: "constant"
      value: 0.2
    }
  }
}
layer {
  name: "reshape_frames"
  type: "Reshape"
  bottom: "embedded_in_frames"
  top: "embedded_input_frames"
  reshape_param {
    shape {
      dim: 1
      dim: 1
      dim: 500
    }
  }
}
layer {
  name: "reshape_stage_indicator"
  type: "Reshape"
  bottom: "stage_indicator"
  top: "reshaped_stage_indicator"
  reshape_param {
    shape {
      dim: 1
      dim: 1
      dim: 1
    }
  }
}
layer {
  name: "embedding"
  type: "Embed"
  bottom: "input_sentence"
  top: "embedded_input_sentence"
  param {
    lr_mult: 1
  }
  embed_param {
    num_output: 500
    input_dim: 46168
    bias_term: false
    weight_filler {
      type: "uniform"
      min: -0.08
      max: 0.08
    }
  }
}
layer {
  name: "lstm1"
  type: "LSTM"
  bottom: "embedded_input_frames"
  bottom: "cont_sentence"
  top: "lstm1"
  recurrent_param {
    num_output: 1000
    weight_filler {
      type: "uniform"
      min: -0.08
      max: 0.08
    }
    bias_filler {
      type: "constant"
      value: 0
    }
  }
}
layer {
  name: "concat"
  type: "Concat"
  bottom: "lstm1"
  bottom: "embedded_input_sentence"
  bottom: "reshaped_stage_indicator"
  top: "lstm1_video_sequence"
  concat_param {
    concat_dim: 2
  }
}
layer {
  name: "lstm2"
  type: "LSTM"
  bottom: "lstm1_video_sequence"
  bottom: "cont_sentence"
  top: "lstm2"
  recurrent_param {
    num_output: 1000
    weight_filler {
      type: "uniform"
      min: -0.08
      max: 0.08
    }
    bias_filler {
      type: "constant"
      value: 0
    }
  }
}
layer {
  name: "predict"
  type: "InnerProduct"
  bottom: "lstm2"
  top: "predict"
  param {
    lr_mult: 1
    decay_mult: 1
  }
  param {
    lr_mult: 2
    decay_mult: 0
  }
  inner_product_param {
    num_output: 46168
    weight_filler {
      type: "uniform"
      min: -0.08
      max: 0.08
    }
    bias_filler {
      type: "constant"
      value: 0
    }
    axis: 2
  }
}
layer {
  name: "probs"
  type: "Softmax"
  bottom: "predict"
  top: "probs"
  softmax_param {
    axis: 2
  }
}
I0924 04:08:28.130589 20674 layer_factory.hpp:77] Creating layer input
I0924 04:08:28.130605 20718 net.cpp:49] Initializing net from parameters: 
name: "s2vt:features_to_lstm"
state {
  phase: TEST
}
layer {
  name: "input"
  type: "Input"
  top: "frames_fc7"
  top: "cont_sentence"
  top: "input_sentence"
  top: "stage_indicator"
  input_param {
    shape {
      dim: 1
      dim: 4096
    }
    shape {
      dim: 1
      dim: 1
    }
    shape {
      dim: 1
      dim: 1
    }
    shape {
      dim: 1
      dim: 1
    }
  }
}
layer {
  name: "embed_encoder"
  type: "InnerProduct"
  bottom: "frames_fc7"
  top: "embedded_in_frames"
  param {
    lr_mult: 1
    decay_mult: 1
  }
  param {
    lr_mult: 2
    decay_mult: 0
  }
  inner_product_param {
    num_output: 500
    weight_filler {
      type: "xavier"
    }
    bias_filler {
      type: "constant"
      value: 0.2
    }
  }
}
layer {
  name: "reshape_frames"
  type: "Reshape"
  bottom: "embedded_in_frames"
  top: "embedded_input_frames"
  reshape_param {
    shape {
      dim: 1
      dim: 1
      dim: 500
    }
  }
}
layer {
  name: "reshape_stage_indicator"
  type: "Reshape"
  bottom: "stage_indicator"
  top: "reshaped_stage_indicator"
  reshape_param {
    shape {
      dim: 1
      dim: 1
      dim: 1
    }
  }
}
layer {
  name: "embedding"
  type: "Embed"
  bottom: "input_sentence"
  top: "embedded_input_sentence"
  param {
    lr_mult: 1
  }
  embed_param {
    num_output: 500
    input_dim: 46168
    bias_term: false
    weight_filler {
      type: "uniform"
      min: -0.08
      max: 0.08
    }
  }
}
layer {
  name: "lstm1"
  type: "LSTM"
  bottom: "embedded_input_frames"
  bottom: "cont_sentence"
  top: "lstm1"
  recurrent_param {
    num_output: 1000
    weight_filler {
      type: "uniform"
      min: -0.08
      max: 0.08
    }
    bias_filler {
      type: "constant"
      value: 0
    }
  }
}
layer {
  name: "concat"
  type: "Concat"
  bottom: "lstm1"
  bottom: "embedded_input_sentence"
  bottom: "reshaped_stage_indicator"
  top: "lstm1_video_sequence"
  concat_param {
    concat_dim: 2
  }
}
layer {
  name: "lstm2"
  type: "LSTM"
  bottom: "lstm1_video_sequence"
  bottom: "cont_sentence"
  top: "lstm2"
  recurrent_param {
    num_output: 1000
    weight_filler {
      type: "uniform"
      min: -0.08
      max: 0.08
    }
    bias_filler {
      type: "constant"
      value: 0
    }
  }
}
layer {
  name: "predict"
  type: "InnerProduct"
  bottom: "lstm2"
  top: "predict"
  param {
    lr_mult: 1
    decay_mult: 1
  }
  param {
    lr_mult: 2
    decay_mult: 0
  }
  inner_product_param {
    num_output: 46168
    weight_filler {
      type: "uniform"
      min: -0.08
      max: 0.08
    }
    bias_filler {
      type: "constant"
      value: 0
    }
    axis: 2
  }
}
layer {
  name: "probs"
  type: "Softmax"
  bottom: "predict"
  top: "probs"
  softmax_param {
    axis: 2
  }
}
I0924 04:08:28.130607 20710 net.cpp:49] Initializing net from parameters: 
name: "s2vt:features_to_lstm"
state {
  phase: TEST
}
layer {
  name: "input"
  type: "Input"
  top: "frames_fc7"
  top: "cont_sentence"
  top: "input_sentence"
  top: "stage_indicator"
  input_param {
    shape {
      dim: 1
      dim: 4096
    }
    shape {
      dim: 1
      dim: 1
    }
    shape {
      dim: 1
      dim: 1
    }
    shape {
      dim: 1
      dim: 1
    }
  }
}
layer {
  name: "embed_encoder"
  type: "InnerProduct"
  bottom: "frames_fc7"
  top: "embedded_in_frames"
  param {
    lr_mult: 1
    decay_mult: 1
  }
  param {
    lr_mult: 2
    decay_mult: 0
  }
  inner_product_param {
    num_output: 500
    weight_filler {
      type: "xavier"
    }
    bias_filler {
      type: "constant"
      value: 0.2
    }
  }
}
layer {
  name: "reshape_frames"
  type: "Reshape"
  bottom: "embedded_in_frames"
  top: "embedded_input_frames"
  reshape_param {
    shape {
      dim: 1
      dim: 1
      dim: 500
    }
  }
}
layer {
  name: "reshape_stage_indicator"
  type: "Reshape"
  bottom: "stage_indicator"
  top: "reshaped_stage_indicator"
  reshape_param {
    shape {
      dim: 1
      dim: 1
      dim: 1
    }
  }
}
layer {
  name: "embedding"
  type: "Embed"
  bottom: "input_sentence"
  top: "embedded_input_sentence"
  param {
    lr_mult: 1
  }
  embed_param {
    num_output: 500
    input_dim: 46168
    bias_term: false
    weight_filler {
      type: "uniform"
      min: -0.08
      max: 0.08
    }
  }
}
layer {
  name: "lstm1"
  type: "LSTM"
  bottom: "embedded_input_frames"
  bottom: "cont_sentence"
  top: "lstm1"
  recurrent_param {
    num_output: 1000
    weight_filler {
      type: "uniform"
      min: -0.08
      max: 0.08
    }
    bias_filler {
      type: "constant"
      value: 0
    }
  }
}
layer {
  name: "concat"
  type: "Concat"
  bottom: "lstm1"
  bottom: "embedded_input_sentence"
  bottom: "reshaped_stage_indicator"
  top: "lstm1_video_sequence"
  concat_param {
    concat_dim: 2
  }
}
layer {
  name: "lstm2"
  type: "LSTM"
  bottom: "lstm1_video_sequence"
  bottom: "cont_sentence"
  top: "lstm2"
  recurrent_param {
    num_output: 1000
    weight_filler {
      type: "uniform"
      min: -0.08
      max: 0.08
    }
    bias_filler {
      type: "constant"
      value: 0
    }
  }
}
layer {
  name: "predict"
  type: "InnerProduct"
  bottom: "lstm2"
  top: "predict"
  param {
    lr_mult: 1
    decay_mult: 1
  }
  param {
    lr_mult: 2
    decay_mult: 0
  }
  inner_product_param {
    num_output: 46168
    weight_filler {
      type: "uniform"
      min: -0.08
      max: 0.08
    }
    bias_filler {
      type: "constant"
      value: 0
    }
    axis: 2
  }
}
layer {
  name: "probs"
  type: "Softmax"
  bottom: "predict"
  top: "probs"
  softmax_param {
    axis: 2
  }
}
I0924 04:08:28.130645 20674 net.cpp:91] Creating Layer input
I0924 04:08:28.130653 20672 layer_factory.hpp:77] Creating layer input
I0924 04:08:28.130633 20678 net.cpp:91] Creating Layer input
I0924 04:08:28.130584 20694 net.cpp:49] Initializing net from parameters: 
name: "CaffeNet"
state {
  phase: TEST
}
layer {
  name: "data"
  type: "Input"
  top: "data"
  input_param {
    shape {
      dim: 10
      dim: 3
      dim: 227
      dim: 227
    }
  }
}
layer {
  name: "conv1"
  type: "Convolution"
  bottom: "data"
  top: "conv1"
  convolution_param {
    num_output: 96
    kernel_size: 11
    stride: 4
  }
}
layer {
  name: "relu1"
  type: "ReLU"
  bottom: "conv1"
  top: "conv1"
}
layer {
  name: "pool1"
  type: "Pooling"
  bottom: "conv1"
  top: "pool1"
  pooling_param {
    pool: MAX
    kernel_size: 3
    stride: 2
  }
}
layer {
  name: "norm1"
  type: "LRN"
  bottom: "pool1"
  top: "norm1"
  lrn_param {
    local_size: 5
    alpha: 0.0001
    beta: 0.75
  }
}
layer {
  name: "conv2"
  type: "Convolution"
  bottom: "norm1"
  top: "conv2"
  convolution_param {
    num_output: 256
    pad: 2
    kernel_size: 5
    group: 2
  }
}
layer {
  name: "relu2"
  type: "ReLU"
  bottom: "conv2"
  top: "conv2"
}
layer {
  name: "pool2"
  type: "Pooling"
  bottom: "conv2"
  top: "pool2"
  pooling_param {
    pool: MAX
    kernel_size: 3
    stride: 2
  }
}
layer {
  name: "norm2"
  type: "LRN"
  bottom: "pool2"
  top: "norm2"
  lrn_param {
    local_size: 5
    alpha: 0.0001
    beta: 0.75
  }
}
layer {
  name: "conv3"
  type: "Convolution"
  bottom: "norm2"
  top: "conv3"
  convolution_param {
    num_output: 384
    pad: 1
    kernel_size: 3
  }
}
layer {
  name: "relu3"
  type: "ReLU"
  bottom: "conv3"
  top: "conv3"
}
layer {
  name: "conv4"
  type: "Convolution"
  bottom: "conv3"
  top: "conv4"
  convolution_param {
    num_output: 384
    pad: 1
    kernel_size: 3
    group: 2
  }
}
layer {
  name: "relu4"
  type: "ReLU"
  bottom: "conv4"
  top: "conv4"
}
layer {
  name: "conv5"
  type: "Convolution"
  bottom: "conv4"
  top: "conv5"
  convolution_param {
    num_output: 256
    pad: 1
    kernel_size: 3
    group: 2
  }
}
layer {
  name: "relu5"
  type: "ReLU"
  bottom: "conv5"
  top: "conv5"
}
layer {
  name: "pool5"
  type: "Pooling"
  bottom: "conv5"
  top: "pool5"
  pooling_param {
    pool: MAX
    kernel_size: 3
    stride: 2
  }
}
layer {
  name: "fc6"
  type: "InnerProduct"
  bottom: "pool5"
  top: "fc6"
  inner_product_param {
    num_output: 4096
  }
}
layer {
  name: "relu6"
  type: "ReLU"
  bottom: "fc6"
  top: "fc6"
}
layer {
  name: "drop6"
  type: "Dropout"
  bottom: "fc6"
  top: "fc6"
  dropout_param {
    dropout_ratio: 0.5
  }
}
layer {
  name: "fc7"
  type: "InnerProduct"
  bottom: "fc6"
  top: "fc7"
  inner_product_param {
    num_output: 4096
  }
}
layer {
  name: "relu7"
  type: "ReLU"
  bottom: "fc7"
  top: "fc7"
}
layer {
  name: "drop7"
  type: "Dropout"
  bottom: "fc7"
  top: "fc7"
  dropout_param {
    dropout_ratio: 0.5
  }
}
layer {
  name: "fc8"
  type: "InnerProduct"
  bottom: "fc7"
  top: "fc8"
  inner_product_param {
    num_output: 1000
  }
}
layer {
  name: "prob"
  type: "Softmax"
  bottom: "fc8"
  top: "prob"
}
I0924 04:08:28.130637 20692 net.cpp:49] Initializing net from parameters: 
name: "s2vt:features_to_lstm"
state {
  phase: TEST
}
layer {
  name: "input"
  type: "Input"
  top: "frames_fc7"
  top: "cont_sentence"
  top: "input_sentence"
  top: "stage_indicator"
  input_param {
    shape {
      dim: 1
      dim: 4096
    }
    shape {
      dim: 1
      dim: 1
    }
    shape {
      dim: 1
      dim: 1
    }
    shape {
      dim: 1
      dim: 1
    }
  }
}
layer {
  name: "embed_encoder"
  type: "InnerProduct"
  bottom: "frames_fc7"
  top: "embedded_in_frames"
  param {
    lr_mult: 1
    decay_mult: 1
  }
  param {
    lr_mult: 2
    decay_mult: 0
  }
  inner_product_param {
    num_output: 500
    weight_filler {
      type: "xavier"
    }
    bias_filler {
      type: "constant"
      value: 0.2
    }
  }
}
layer {
  name: "reshape_frames"
  type: "Reshape"
  bottom: "embedded_in_frames"
  top: "embedded_input_frames"
  reshape_param {
    shape {
      dim: 1
      dim: 1
      dim: 500
    }
  }
}
layer {
  name: "reshape_stage_indicator"
  type: "Reshape"
  bottom: "stage_indicator"
  top: "reshaped_stage_indicator"
  reshape_param {
    shape {
      dim: 1
      dim: 1
      dim: 1
    }
  }
}
layer {
  name: "embedding"
  type: "Embed"
  bottom: "input_sentence"
  top: "embedded_input_sentence"
  param {
    lr_mult: 1
  }
  embed_param {
    num_output: 500
    input_dim: 46168
    bias_term: false
    weight_filler {
      type: "uniform"
      min: -0.08
      max: 0.08
    }
  }
}
layer {
  name: "lstm1"
  type: "LSTM"
  bottom: "embedded_input_frames"
  bottom: "cont_sentence"
  top: "lstm1"
  recurrent_param {
    num_output: 1000
    weight_filler {
      type: "uniform"
      min: -0.08
      max: 0.08
    }
    bias_filler {
      type: "constant"
      value: 0
    }
  }
}
layer {
  name: "concat"
  type: "Concat"
  bottom: "lstm1"
  bottom: "embedded_input_sentence"
  bottom: "reshaped_stage_indicator"
  top: "lstm1_video_sequence"
  concat_param {
    concat_dim: 2
  }
}
layer {
  name: "lstm2"
  type: "LSTM"
  bottom: "lstm1_video_sequence"
  bottom: "cont_sentence"
  top: "lstm2"
  recurrent_param {
    num_output: 1000
    weight_filler {
      type: "uniform"
      min: -0.08
      max: 0.08
    }
    bias_filler {
      type: "constant"
      value: 0
    }
  }
}
layer {
  name: "predict"
  type: "InnerProduct"
  bottom: "lstm2"
  top: "predict"
  param {
    lr_mult: 1
    decay_mult: 1
  }
  param {
    lr_mult: 2
    decay_mult: 0
  }
  inner_product_param {
    num_output: 46168
    weight_filler {
      type: "uniform"
      min: -0.08
      max: 0.08
    }
    bias_filler {
      type: "constant"
      value: 0
    }
    axis: 2
  }
}
layer {
  name: "probs"
  type: "Softmax"
  bottom: "predict"
  top: "probs"
  softmax_param {
    axis: 2
  }
}
I0924 04:08:28.130676 20674 net.cpp:399] input -> frames_fc7
I0924 04:08:28.130678 20678 net.cpp:399] input -> frames_fc7
I0924 04:08:28.130679 20672 net.cpp:91] Creating Layer input
I0924 04:08:28.130751 20686 layer_factory.hpp:77] Creating layer input
I0924 04:08:28.130761 20674 net.cpp:399] input -> cont_sentence
I0924 04:08:28.130756 20672 net.cpp:399] input -> frames_fc7
…
W0924 04:08:28.131023 20668 upgrade_proto.cpp:71] Note that future Caffe releases will only support input layers and not input fields.
I0924 04:08:28.131172 20722 net.cpp:49] Initializing net from parameters: 
name: "s2vt:features_to_lstm"
state {
  phase: TEST
}
layer {
  name: "input"
  type: "Input"
  top: "frames_fc7"
  top: "cont_sentence"
  top: "input_sentence"
  top: "stage_indicator"
  input_param {
    shape {
      dim: 1
      dim: 4096
    }
    shape {
      dim: 1
      dim: 1
    }
    shape {
      dim: 1
      dim: 1
    }
    shape {
      dim: 1
      dim: 1
    }
  }
}
layer {
  name: "embed_encoder"
  type: "InnerProduct"
  bottom: "frames_fc7"
  top: "embedded_in_frames"
  param {
    lr_mult: 1
    decay_mult: 1
  }
  param {
    lr_mult: 2
    decay_mult: 0
  }
  inner_product_param {
    num_output: 500
    weight_filler {
      type: "xavier"
    }
    bias_filler {
      type: "constant"
      value: 0.2
    }
  }
}
layer {
  name: "reshape_frames"
  type: "Reshape"
  bottom: "embedded_in_frames"
  top: "embedded_input_frames"
  reshape_param {
    shape {
      dim: 1
      dim: 1
      dim: 500
    }
  }
}
layer {
  name: "reshape_stage_indicator"
  type: "Reshape"
  bottom: "stage_indicator"
  top: "reshaped_stage_indicator"
  reshape_param {
    shape {
      dim: 1
      dim: 1
      dim: 1
    }
  }
}
layer {
  name: "embedding"
  type: "Embed"
  bottom: "input_sentence"
  top: "embedded_input_sentence"
  param {
    lr_mult: 1
  }
  embed_param {
    num_output: 500
    input_dim: 46168
    bias_term: false
    weight_filler {
      type: "uniform"
      min: -0.08
      max: 0.08
    }
  }
}
layer {
  name: "lstm1"
  type: "LSTM"
  bottom: "embedded_input_frames"
  bottom: "cont_sentence"
  top: "lstm1"
  recurrent_param {
    num_output: 1000
    weight_filler {
      type: "uniform"
      min: -0.08
      max: 0.08
    }
    bias_filler {
      type: "constant"
      value: 0
    }
  }
}
layer {
  name: "concat"
  type: "Concat"
  bottom: "lstm1"
  bottom: "embedded_input_sentence"
  bottom: "reshaped_stage_indicator"
  top: "lstm1_video_sequence"
  concat_param {
    concat_dim: 2
  }
}
layer {
  name: "lstm2"
  type: "LSTM"
  bottom: "lstm1_video_sequence"
  bottom: "cont_sentence"
  top: "lstm2"
  recurrent_param {
    num_output: 1000
    weight_filler {
      type: "uniform"
      min: -0.08
      max: 0.08
    }
    bias_filler {
      type: "constant"
      value: 0
    }
  }
}
layer {
  name: "predict"
  type: "InnerProduct"
  bottom: "lstm2"
  top: "predict"
  param {
    lr_mult: 1
    decay_mult: 1
  }
  param {
    lr_mult: 2
    decay_mult: 0
  }
  inner_product_param {
    num_output: 46168
    weight_filler {
      type: "uniform"
      min: -0.08
      max: 0.08
    }
    bias_filler {
      type: "constant"
      value: 0
    }
    axis: 2
  }
}
layer {
  name: "probs"
  type: "Softmax"
  bottom: "predict"
  top: "probs"
  softmax_param {
    axis: 2
  }
}
I0924 04:08:28.131264 20722 layer_factory.hpp:77] Creating layer input
I0924 04:08:28.131278 20722 net.cpp:91] Creating Layer input
I0924 04:08:28.131285 20722 net.cpp:399] input -> frames_fc7
I0924 04:08:28.131279 20668 net.cpp:49] Initializing net from parameters: 
name: "s2vt:features_to_lstm"
state {
  phase: TEST
}
layer {
  name: "input"
  type: "Input"
  top: "frames_fc7"
  top: "cont_sentence"
  top: "input_sentence"
  top: "stage_indicator"
  input_param {
    shape {
      dim: 1
      dim: 4096
    }
    shape {
      dim: 1
      dim: 1
    }
    shape {
      dim: 1
      dim: 1
    }
    shape {
      dim: 1
      dim: 1
    }
  }
}
layer {
  name: "embed_encoder"
  type: "InnerProduct"
  bottom: "frames_fc7"
  top: "embedded_in_frames"
  param {
    lr_mult: 1
    decay_mult: 1
  }
  param {
    lr_mult: 2
    decay_mult: 0
  }
  inner_product_param {
    num_output: 500
    weight_filler {
      type: "xavier"
    }
    bias_filler {
      type: "constant"
      value: 0.2
    }
  }
}
layer {
  name: "reshape_frames"
  type: "Reshape"
  bottom: "embedded_in_frames"
  top: "embedded_input_frames"
  reshape_param {
    shape {
      dim: 1
      dim: 1
      dim: 500
    }
  }
}
layer {
  name: "reshape_stage_indicator"
  type: "Reshape"
  bottom: "stage_indicator"
  top: "reshaped_stage_indicator"
  reshape_param {
    shape {
      dim: 1
      dim: 1
      dim: 1
    }
  }
}
layer {
  name: "embedding"
  type: "Embed"
  bottom: "input_sentence"
  top: "embedded_input_sentence"
  param {
    lr_mult: 1
  }
  embed_param {
    num_output: 500
    input_dim: 46168
    bias_term: false
    weight_filler {
      type: "uniform"
      min: -0.08
      max: 0.08
    }
  }
}
layer {
  name: "lstm1"
  type: "LSTM"
  bottom: "embedded_input_frames"
  bottom: "cont_sentence"
  top: "lstm1"
  recurrent_param {
    num_output: 1000
    weight_filler {
      type: "uniform"
      min: -0.08
      max: 0.08
    }
    bias_filler {
      type: "constant"
      value: 0
    }
  }
}
layer {
  name: "concat"
  type: "Concat"
  bottom: "lstm1"
  bottom: "embedded_input_sentence"
  bottom: "reshaped_stage_indicator"
  top: "lstm1_video_sequence"
  concat_param {
    concat_dim: 2
  }
}
layer {
  name: "lstm2"
  type: "LSTM"
  bottom: "lstm1_video_sequence"
  bottom: "cont_sentence"
  top: "lstm2"
  recurrent_param {
    num_output: 1000
    weight_filler {
      type: "uniform"
      min: -0.08
      max: 0.08
    }
    bias_filler {
      type: "constant"
      value: 0
    }
  }
}
layer {
  name: "predict"
  type: "InnerProduct"
  bottom: "lstm2"
  top: "predict"
  param {
    lr_mult: 1
    decay_mult: 1
  }
  param {
    lr_mult: 2
    decay_mult: 0
  }
  inner_product_param {
    num_output: 46168
    weight_filler {
      type: "uniform"
      min: -0.08
      max: 0.08
    }
    bias_filler {
      type: "constant"
      value: 0
    }
    axis: 2
  }
}
layer {
  name: "probs"
  type: "Softmax"
  bottom: "predict"
  top: "probs"
  softmax_param {
    axis: 2
  }
}
I0924 04:08:28.131300 20722 net.cpp:399] input -> cont_sentence
I0924 04:08:28.131312 20722 net.cpp:399] input -> input_sentence
I0924 04:08:28.131322 20722 net.cpp:399] input -> stage_indicator
I0924 04:08:28.131388 20668 layer_factory.hpp:77] Creating layer input
I0924 04:08:28.131402 20668 net.cpp:91] Creating Layer input
I0924 04:08:28.131409 20668 net.cpp:399] input -> frames_fc7
I0924 04:08:28.131422 20668 net.cpp:399] input -> cont_sentence
I0924 04:08:28.131433 20668 net.cpp:399] input -> input_sentence
I0924 04:08:28.131453 20668 net.cpp:399] input -> stage_indicator
I0924 04:08:29.051542 20674 net.cpp:141] Setting up input
I0924 04:08:29.051617 20674 net.cpp:148] Top shape: 1 4096 (4096)
I0924 04:08:29.051627 20674 net.cpp:148] Top shape: 1 1 (1)
I0924 04:08:29.051635 20674 net.cpp:148] Top shape: 1 1 (1)
I0924 04:08:29.051640 20674 net.cpp:148] Top shape: 1 1 (1)
I0924 04:08:29.051645 20674 net.cpp:156] Memory required for data: 16396
I0924 04:08:29.051667 20674 layer_factory.hpp:77] Creating layer cont_sentence_input_1_split
I0924 04:08:29.051738 20674 net.cpp:91] Creating Layer cont_sentence_input_1_split
I0924 04:08:29.051753 20674 net.cpp:425] cont_sentence_input_1_split <- cont_sentence
I0924 04:08:29.051774 20674 net.cpp:399] cont_sentence_input_1_split -> cont_sentence_input_1_split_0
I0924 04:08:29.051790 20674 net.cpp:399] cont_sentence_input_1_split -> cont_sentence_input_1_split_1
I0924 04:08:29.051865 20674 net.cpp:141] Setting up cont_sentence_input_1_split
I0924 04:08:29.051878 20674 net.cpp:148] Top shape: 1 1 (1)
I0924 04:08:29.051884 20674 net.cpp:148] Top shape: 1 1 (1)
I0924 04:08:29.051888 20674 net.cpp:156] Memory required for data: 16404
I0924 04:08:29.051894 20674 layer_factory.hpp:77] Creating layer embed_encoder
I0924 04:08:29.051914 20674 net.cpp:91] Creating Layer embed_encoder
I0924 04:08:29.051920 20674 net.cpp:425] embed_encoder <- frames_fc7
I0924 04:08:29.051930 20674 net.cpp:399] embed_encoder -> embedded_in_frames
I0924 04:08:29.051980 20694 net.cpp:141] Setting up data
I0924 04:08:29.052045 20694 net.cpp:148] Top shape: 10 3 227 227 (1545870)
I0924 04:08:29.052057 20694 net.cpp:156] Memory required for data: 6183480
I0924 04:08:29.052074 20694 layer_factory.hpp:77] Creating layer conv1
I0924 04:08:29.052117 20672 net.cpp:141] Setting up input
I0924 04:08:29.052127 20694 net.cpp:91] Creating Layer conv1
I0924 04:08:29.052139 20672 net.cpp:148] Top shape: 1 4096 (4096)
I0924 04:08:29.052140 20694 net.cpp:425] conv1 <- data
I0924 04:08:29.052147 20672 net.cpp:148] Top shape: 1 1 (1)
I0924 04:08:29.052155 20672 net.cpp:148] Top shape: 1 1 (1)
I0924 04:08:29.052161 20672 net.cpp:148] Top shape: 1 1 (1)
I0924 04:08:29.052161 20694 net.cpp:399] conv1 -> conv1
I0924 04:08:29.052170 20672 net.cpp:156] Memory required for data: 16396
I0924 04:08:29.052177 20672 layer_factory.hpp:77] Creating layer cont_sentence_input_1_split
I0924 04:08:29.052191 20672 net.cpp:91] Creating Layer cont_sentence_input_1_split
I0924 04:08:29.052197 20672 net.cpp:425] cont_sentence_input_1_split <- cont_sentence
I0924 04:08:29.052211 20672 net.cpp:399] cont_sentence_input_1_split -> cont_sentence_input_1_split_0
I0924 04:08:29.052223 20672 net.cpp:399] cont_sentence_input_1_split -> cont_sentence_input_1_split_1
I0924 04:08:29.052464 20672 net.cpp:141] Setting up cont_sentence_input_1_split
I0924 04:08:29.052477 20672 net.cpp:148] Top shape: 1 1 (1)
I0924 04:08:29.052484 20672 net.cpp:148] Top shape: 1 1 (1)
I0924 04:08:29.052489 20672 net.cpp:156] Memory required for data: 16404
I0924 04:08:29.052495 20672 layer_factory.hpp:77] Creating layer embed_encoder
I0924 04:08:29.052506 20672 net.cpp:91] Creating Layer embed_encoder
I0924 04:08:29.052512 20672 net.cpp:425] embed_encoder <- frames_fc7
I0924 04:08:29.052522 20672 net.cpp:399] embed_encoder -> embedded_in_frames
I0924 04:08:29.052759 20722 net.cpp:141] Setting up input
I0924 04:08:29.052784 20722 net.cpp:148] Top shape: 1 4096 (4096)
I0924 04:08:29.052793 20722 net.cpp:148] Top shape: 1 1 (1)
I0924 04:08:29.052799 20722 net.cpp:148] Top shape: 1 1 (1)
I0924 04:08:29.052805 20722 net.cpp:148] Top shape: 1 1 (1)
I0924 04:08:29.052809 20722 net.cpp:156] Memory required for data: 16396
I0924 04:08:29.052816 20722 layer_factory.hpp:77] Creating layer cont_sentence_input_1_split
I0924 04:08:29.052829 20722 net.cpp:91] Creating Layer cont_sentence_input_1_split
I0924 04:08:29.052836 20722 net.cpp:425] cont_sentence_input_1_split <- cont_sentence
I0924 04:08:29.052845 20722 net.cpp:399] cont_sentence_input_1_split -> cont_sentence_input_1_split_0
I0924 04:08:29.052858 20722 net.cpp:399] cont_sentence_input_1_split -> cont_sentence_input_1_split_1
I0924 04:08:29.053112 20668 net.cpp:141] Setting up input
I0924 04:08:29.053150 20668 net.cpp:148] Top shape: 1 4096 (4096)
I0924 04:08:29.053169 20668 net.cpp:148] Top shape: 1 1 (1)
I0924 04:08:29.053181 20668 net.cpp:148] Top shape: 1 1 (1)
I0924 04:08:29.053194 20668 net.cpp:148] Top shape: 1 1 (1)
I0924 04:08:29.053205 20668 net.cpp:156] Memory required for data: 16396
I0924 04:08:29.053218 20668 layer_factory.hpp:77] Creating layer cont_sentence_input_1_split
I0924 04:08:29.053241 20668 net.cpp:91] Creating Layer cont_sentence_input_1_split
I0924 04:08:29.053256 20668 net.cpp:425] cont_sentence_input_1_split <- cont_sentence
I0924 04:08:29.053278 20668 net.cpp:399] cont_sentence_input_1_split -> cont_sentence_input_1_split_0
I0924 04:08:29.053304 20668 net.cpp:399] cont_sentence_input_1_split -> cont_sentence_input_1_split_1
I0924 04:08:29.058851 20692 net.cpp:141] Setting up input
I0924 04:08:29.058910 20692 net.cpp:148] Top shape: 1 4096 (4096)
I0924 04:08:29.058920 20692 net.cpp:148] Top shape: 1 1 (1)
I0924 04:08:29.058926 20692 net.cpp:148] Top shape: 1 1 (1)
I0924 04:08:29.058931 20692 net.cpp:148] Top shape: 1 1 (1)
I0924 04:08:29.058936 20692 net.cpp:156] Memory required for data: 16396
I0924 04:08:29.058945 20692 layer_factory.hpp:77] Creating layer cont_sentence_input_1_split
I0924 04:08:29.058974 20692 net.cpp:91] Creating Layer cont_sentence_input_1_split
I0924 04:08:29.058982 20692 net.cpp:425] cont_sentence_input_1_split <- cont_sentence
I0924 04:08:29.058995 20692 net.cpp:399] cont_sentence_input_1_split -> cont_sentence_input_1_split_0
I0924 04:08:29.059008 20692 net.cpp:399] cont_sentence_input_1_split -> cont_sentence_input_1_split_1
I0924 04:08:29.059054 20718 net.cpp:141] Setting up input
I0924 04:08:29.059077 20718 net.cpp:148] Top shape: 1 4096 (4096)
I0924 04:08:29.059088 20718 net.cpp:148] Top shape: 1 1 (1)
I0924 04:08:29.059101 20718 net.cpp:148] Top shape: 1 1 (1)
I0924 04:08:29.059106 20710 net.cpp:141] Setting up input
I0924 04:08:29.059111 20718 net.cpp:148] Top shape: 1 1 (1)
I0924 04:08:29.059128 20710 net.cpp:148] Top shape: 1 4096 (4096)
I0924 04:08:29.059130 20718 net.cpp:156] Memory required for data: 16396
I0924 04:08:29.059135 20710 net.cpp:148] Top shape: 1 1 (1)
I0924 04:08:29.059142 20710 net.cpp:148] Top shape: 1 1 (1)
I0924 04:08:29.059140 20718 layer_factory.hpp:77] Creating layer cont_sentence_input_1_split
I0924 04:08:29.059151 20710 net.cpp:148] Top shape: 1 1 (1)
I0924 04:08:29.059165 20710 net.cpp:156] Memory required for data: 16396
I0924 04:08:29.059162 20722 net.cpp:141] Setting up cont_sentence_input_1_split
I0924 04:08:29.059171 20710 layer_factory.hpp:77] Creating layer cont_sentence_input_1_split
I0924 04:08:29.059170 20718 net.cpp:91] Creating Layer cont_sentence_input_1_split
I0924 04:08:29.059187 20722 net.cpp:148] Top shape: 1 1 (1)
I0924 04:08:29.059203 20710 net.cpp:91] Creating Layer cont_sentence_input_1_split
I0924 04:08:29.059206 20718 net.cpp:425] cont_sentence_input_1_split <- cont_sentence
I0924 04:08:29.059211 20710 net.cpp:425] cont_sentence_input_1_split <- cont_sentence
I0924 04:08:29.059209 20722 net.cpp:148] Top shape: 1 1 (1)
I0924 04:08:29.059222 20722 net.cpp:156] Memory required for data: 16404
I0924 04:08:29.059224 20718 net.cpp:399] cont_sentence_input_1_split -> cont_sentence_input_1_split_0
I0924 04:08:29.059231 20722 layer_factory.hpp:77] Creating layer embed_encoder
I0924 04:08:29.059221 20710 net.cpp:399] cont_sentence_input_1_split -> cont_sentence_input_1_split_0
I0924 04:08:29.059249 20710 net.cpp:399] cont_sentence_input_1_split -> cont_sentence_input_1_split_1
I0924 04:08:29.059267 20722 net.cpp:91] Creating Layer embed_encoder
I0924 04:08:29.059278 20722 net.cpp:425] embed_encoder <- frames_fc7
I0924 04:08:29.059278 20718 net.cpp:399] cont_sentence_input_1_split -> cont_sentence_input_1_split_1
I0924 04:08:29.059291 20722 net.cpp:399] embed_encoder -> embedded_in_frames
I0924 04:08:29.063515 20668 net.cpp:141] Setting up cont_sentence_input_1_split
I0924 04:08:29.063503 20678 net.cpp:141] Setting up input
I0924 04:08:29.063573 20668 net.cpp:148] Top shape: 1 1 (1)
I0924 04:08:29.063587 20668 net.cpp:148] Top shape: 1 1 (1)
I0924 04:08:29.063594 20668 net.cpp:156] Memory required for data: 16404
I0924 04:08:29.063591 20678 net.cpp:148] Top shape: 1 4096 (4096)
I0924 04:08:29.063608 20668 layer_factory.hpp:77] Creating layer embed_encoder
I0924 04:08:29.063624 20678 net.cpp:148] Top shape: 1 1 (1)
I0924 04:08:29.063638 20668 net.cpp:91] Creating Layer embed_encoder
I0924 04:08:29.063647 20678 net.cpp:148] Top shape: 1 1 (1)
I0924 04:08:29.063650 20668 net.cpp:425] embed_encoder <- frames_fc7
I0924 04:08:29.063681 20678 net.cpp:148] Top shape: 1 1 (1)
I0924 04:08:29.063690 20668 net.cpp:399] embed_encoder -> embedded_in_frames
I0924 04:08:29.063697 20678 net.cpp:156] Memory required for data: 16396
I0924 04:08:29.063715 20678 layer_factory.hpp:77] Creating layer cont_sentence_input_1_split
I0924 04:08:29.063742 20678 net.cpp:91] Creating Layer cont_sentence_input_1_split
I0924 04:08:29.063760 20678 net.cpp:425] cont_sentence_input_1_split <- cont_sentence
I0924 04:08:29.063787 20678 net.cpp:399] cont_sentence_input_1_split -> cont_sentence_input_1_split_0
I0924 04:08:29.063822 20678 net.cpp:399] cont_sentence_input_1_split -> cont_sentence_input_1_split_1
I0924 04:08:29.064244 20692 net.cpp:141] Setting up cont_sentence_input_1_split
I0924 04:08:29.064277 20692 net.cpp:148] Top shape: 1 1 (1)
I0924 04:08:29.064290 20692 net.cpp:148] Top shape: 1 1 (1)
I0924 04:08:29.064298 20692 net.cpp:156] Memory required for data: 16404
I0924 04:08:29.064308 20692 layer_factory.hpp:77] Creating layer embed_encoder
I0924 04:08:29.064306 20710 net.cpp:141] Setting up cont_sentence_input_1_split
I0924 04:08:29.064338 20710 net.cpp:148] Top shape: 1 1 (1)
I0924 04:08:29.064347 20710 net.cpp:148] Top shape: 1 1 (1)
I0924 04:08:29.064352 20710 net.cpp:156] Memory required for data: 16404
I0924 04:08:29.064354 20692 net.cpp:91] Creating Layer embed_encoder
I0924 04:08:29.064357 20710 layer_factory.hpp:77] Creating layer embed_encoder
I0924 04:08:29.064370 20692 net.cpp:425] embed_encoder <- frames_fc7
I0924 04:08:29.064388 20692 net.cpp:399] embed_encoder -> embedded_in_frames
I0924 04:08:29.064393 20710 net.cpp:91] Creating Layer embed_encoder
I0924 04:08:29.064405 20710 net.cpp:425] embed_encoder <- frames_fc7
I0924 04:08:29.064425 20710 net.cpp:399] embed_encoder -> embedded_in_frames
I0924 04:08:29.064426 20678 net.cpp:141] Setting up cont_sentence_input_1_split
I0924 04:08:29.064445 20678 net.cpp:148] Top shape: 1 1 (1)
I0924 04:08:29.064455 20678 net.cpp:148] Top shape: 1 1 (1)
I0924 04:08:29.064463 20678 net.cpp:156] Memory required for data: 16404
I0924 04:08:29.064471 20678 layer_factory.hpp:77] Creating layer embed_encoder
I0924 04:08:29.064491 20678 net.cpp:91] Creating Layer embed_encoder
I0924 04:08:29.064498 20678 net.cpp:425] embed_encoder <- frames_fc7
I0924 04:08:29.064515 20678 net.cpp:399] embed_encoder -> embedded_in_frames
I0924 04:08:29.064527 20718 net.cpp:141] Setting up cont_sentence_input_1_split
I0924 04:08:29.064551 20718 net.cpp:148] Top shape: 1 1 (1)
I0924 04:08:29.064563 20718 net.cpp:148] Top shape: 1 1 (1)
I0924 04:08:29.064571 20718 net.cpp:156] Memory required for data: 16404
I0924 04:08:29.064580 20718 layer_factory.hpp:77] Creating layer embed_encoder
I0924 04:08:29.064638 20718 net.cpp:91] Creating Layer embed_encoder
I0924 04:08:29.064652 20718 net.cpp:425] embed_encoder <- frames_fc7
I0924 04:08:29.064682 20718 net.cpp:399] embed_encoder -> embedded_in_frames
I0924 04:08:29.097558 20686 net.cpp:141] Setting up input
I0924 04:08:29.097614 20686 net.cpp:148] Top shape: 1 4096 (4096)
I0924 04:08:29.097626 20686 net.cpp:148] Top shape: 1 1 (1)
I0924 04:08:29.097636 20686 net.cpp:148] Top shape: 1 1 (1)
I0924 04:08:29.097645 20686 net.cpp:148] Top shape: 1 1 (1)
I0924 04:08:29.097652 20686 net.cpp:156] Memory required for data: 16396
I0924 04:08:29.097666 20686 layer_factory.hpp:77] Creating layer cont_sentence_input_1_split
I0924 04:08:29.097689 20686 net.cpp:91] Creating Layer cont_sentence_input_1_split
I0924 04:08:29.097703 20686 net.cpp:425] cont_sentence_input_1_split <- cont_sentence
I0924 04:08:29.097719 20686 net.cpp:399] cont_sentence_input_1_split -> cont_sentence_input_1_split_0
I0924 04:08:29.097740 20686 net.cpp:399] cont_sentence_input_1_split -> cont_sentence_input_1_split_1
I0924 04:08:29.108232 20672 net.cpp:141] Setting up embed_encoder
I0924 04:08:29.108281 20672 net.cpp:148] Top shape: 1 500 (500)
I0924 04:08:29.108291 20672 net.cpp:156] Memory required for data: 18404
I0924 04:08:29.108338 20672 layer_factory.hpp:77] Creating layer reshape_frames
I0924 04:08:29.108383 20672 net.cpp:91] Creating Layer reshape_frames
I0924 04:08:29.108397 20672 net.cpp:425] reshape_frames <- embedded_in_frames
I0924 04:08:29.108429 20672 net.cpp:399] reshape_frames -> embedded_input_frames
I0924 04:08:29.108515 20672 net.cpp:141] Setting up reshape_frames
I0924 04:08:29.108531 20672 net.cpp:148] Top shape: 1 1 500 (500)
I0924 04:08:29.108538 20672 net.cpp:156] Memory required for data: 20404
I0924 04:08:29.108551 20672 layer_factory.hpp:77] Creating layer reshape_stage_indicator
I0924 04:08:29.108574 20672 net.cpp:91] Creating Layer reshape_stage_indicator
I0924 04:08:29.108583 20672 net.cpp:425] reshape_stage_indicator <- stage_indicator
I0924 04:08:29.108597 20672 net.cpp:399] reshape_stage_indicator -> reshaped_stage_indicator
I0924 04:08:29.108660 20672 net.cpp:141] Setting up reshape_stage_indicator
I0924 04:08:29.108678 20672 net.cpp:148] Top shape: 1 1 1 (1)
I0924 04:08:29.108687 20672 net.cpp:156] Memory required for data: 20408
I0924 04:08:29.108697 20672 layer_factory.hpp:77] Creating layer embedding
I0924 04:08:29.108721 20672 net.cpp:91] Creating Layer embedding
I0924 04:08:29.108729 20672 net.cpp:425] embedding <- input_sentence
I0924 04:08:29.108755 20672 net.cpp:399] embedding -> embedded_input_sentence
I0924 04:08:29.154667 20686 net.cpp:141] Setting up cont_sentence_input_1_split
I0924 04:08:29.154754 20686 net.cpp:148] Top shape: 1 1 (1)
I0924 04:08:29.154779 20686 net.cpp:148] Top shape: 1 1 (1)
I0924 04:08:29.154795 20686 net.cpp:156] Memory required for data: 16404
I0924 04:08:29.154817 20686 layer_factory.hpp:77] Creating layer embed_encoder
I0924 04:08:29.154861 20686 net.cpp:91] Creating Layer embed_encoder
I0924 04:08:29.154882 20722 net.cpp:141] Setting up embed_encoder
I0924 04:08:29.154884 20686 net.cpp:425] embed_encoder <- frames_fc7
I0924 04:08:29.154958 20722 net.cpp:148] Top shape: 1 500 (500)
I0924 04:08:29.154971 20722 net.cpp:156] Memory required for data: 18404
I0924 04:08:29.154968 20686 net.cpp:399] embed_encoder -> embedded_in_frames
I0924 04:08:29.155011 20722 layer_factory.hpp:77] Creating layer reshape_frames
I0924 04:08:29.155038 20722 net.cpp:91] Creating Layer reshape_frames
I0924 04:08:29.155052 20722 net.cpp:425] reshape_frames <- embedded_in_frames
I0924 04:08:29.155087 20722 net.cpp:399] reshape_frames -> embedded_input_frames
I0924 04:08:29.155160 20722 net.cpp:141] Setting up reshape_frames
I0924 04:08:29.155196 20722 net.cpp:148] Top shape: 1 1 500 (500)
I0924 04:08:29.155207 20722 net.cpp:156] Memory required for data: 20404
I0924 04:08:29.155216 20722 layer_factory.hpp:77] Creating layer reshape_stage_indicator
I0924 04:08:29.155235 20722 net.cpp:91] Creating Layer reshape_stage_indicator
I0924 04:08:29.155246 20722 net.cpp:425] reshape_stage_indicator <- stage_indicator
I0924 04:08:29.155259 20722 net.cpp:399] reshape_stage_indicator -> reshaped_stage_indicator
I0924 04:08:29.155340 20722 net.cpp:141] Setting up reshape_stage_indicator
I0924 04:08:29.155359 20722 net.cpp:148] Top shape: 1 1 1 (1)
I0924 04:08:29.155367 20722 net.cpp:156] Memory required for data: 20408
I0924 04:08:29.155377 20722 layer_factory.hpp:77] Creating layer embedding
I0924 04:08:29.155395 20722 net.cpp:91] Creating Layer embedding
I0924 04:08:29.155403 20722 net.cpp:425] embedding <- input_sentence
I0924 04:08:29.155418 20722 net.cpp:399] embedding -> embedded_input_sentence
I0924 04:08:29.201094 20678 net.cpp:141] Setting up embed_encoder
I0924 04:08:29.201230 20678 net.cpp:148] Top shape: 1 500 (500)
I0924 04:08:29.201244 20678 net.cpp:156] Memory required for data: 18404
I0924 04:08:29.201288 20678 layer_factory.hpp:77] Creating layer reshape_frames
I0924 04:08:29.201331 20678 net.cpp:91] Creating Layer reshape_frames
I0924 04:08:29.201352 20678 net.cpp:425] reshape_frames <- embedded_in_frames
I0924 04:08:29.201386 20678 net.cpp:399] reshape_frames -> embedded_input_frames
I0924 04:08:29.201491 20678 net.cpp:141] Setting up reshape_frames
I0924 04:08:29.201510 20678 net.cpp:148] Top shape: 1 1 500 (500)
I0924 04:08:29.201521 20678 net.cpp:156] Memory required for data: 20404
I0924 04:08:29.201531 20678 layer_factory.hpp:77] Creating layer reshape_stage_indicator
I0924 04:08:29.201556 20678 net.cpp:91] Creating Layer reshape_stage_indicator
I0924 04:08:29.201572 20678 net.cpp:425] reshape_stage_indicator <- stage_indicator
I0924 04:08:29.201591 20678 net.cpp:399] reshape_stage_indicator -> reshaped_stage_indicator
I0924 04:08:29.201678 20678 net.cpp:141] Setting up reshape_stage_indicator
I0924 04:08:29.201700 20678 net.cpp:148] Top shape: 1 1 1 (1)
I0924 04:08:29.201710 20678 net.cpp:156] Memory required for data: 20408
I0924 04:08:29.201722 20678 layer_factory.hpp:77] Creating layer embedding
I0924 04:08:29.201747 20678 net.cpp:91] Creating Layer embedding
I0924 04:08:29.201759 20678 net.cpp:425] embedding <- input_sentence
I0924 04:08:29.201778 20678 net.cpp:399] embedding -> embedded_input_sentence
I0924 04:08:29.249850 20710 net.cpp:141] Setting up embed_encoder
I0924 04:08:29.249904 20710 net.cpp:148] Top shape: 1 500 (500)
I0924 04:08:29.249913 20710 net.cpp:156] Memory required for data: 18404
I0924 04:08:29.249943 20710 layer_factory.hpp:77] Creating layer reshape_frames
I0924 04:08:29.249989 20710 net.cpp:91] Creating Layer reshape_frames
I0924 04:08:29.250001 20710 net.cpp:425] reshape_frames <- embedded_in_frames
I0924 04:08:29.250016 20710 net.cpp:399] reshape_frames -> embedded_input_frames
I0924 04:08:29.250092 20674 net.cpp:141] Setting up embed_encoder
I0924 04:08:29.250149 20674 net.cpp:148] Top shape: 1 500 (500)
I0924 04:08:29.250169 20674 net.cpp:156] Memory required for data: 18404
I0924 04:08:29.250200 20668 net.cpp:141] Setting up embed_encoder
I0924 04:08:29.250212 20674 layer_factory.hpp:77] Creating layer reshape_frames
I0924 04:08:29.250223 20668 net.cpp:148] Top shape: 1 500 (500)
I0924 04:08:29.250232 20668 net.cpp:156] Memory required for data: 18404
I0924 04:08:29.250254 20710 net.cpp:141] Setting up reshape_frames
I0924 04:08:29.250260 20674 net.cpp:91] Creating Layer reshape_frames
I0924 04:08:29.250257 20668 layer_factory.hpp:77] Creating layer reshape_frames
I0924 04:08:29.250279 20710 net.cpp:148] Top shape: 1 1 500 (500)
I0924 04:08:29.250284 20674 net.cpp:425] reshape_frames <- embedded_in_frames
I0924 04:08:29.250294 20668 net.cpp:91] Creating Layer reshape_frames
I0924 04:08:29.250288 20710 net.cpp:156] Memory required for data: 20404
I0924 04:08:29.250306 20668 net.cpp:425] reshape_frames <- embedded_in_frames
I0924 04:08:29.250313 20710 layer_factory.hpp:77] Creating layer reshape_stage_indicator
I0924 04:08:29.250324 20668 net.cpp:399] reshape_frames -> embedded_input_frames
I0924 04:08:29.250329 20710 net.cpp:91] Creating Layer reshape_stage_indicator
I0924 04:08:29.250339 20710 net.cpp:425] reshape_stage_indicator <- stage_indicator
I0924 04:08:29.250321 20674 net.cpp:399] reshape_frames -> embedded_input_frames
I0924 04:08:29.250375 20710 net.cpp:399] reshape_stage_indicator -> reshaped_stage_indicator
I0924 04:08:29.250437 20710 net.cpp:141] Setting up reshape_stage_indicator
I0924 04:08:29.250450 20710 net.cpp:148] Top shape: 1 1 1 (1)
I0924 04:08:29.250457 20710 net.cpp:156] Memory required for data: 20408
I0924 04:08:29.250464 20710 layer_factory.hpp:77] Creating layer embedding
I0924 04:08:29.250483 20710 net.cpp:91] Creating Layer embedding
I0924 04:08:29.250490 20710 net.cpp:425] embedding <- input_sentence
I0924 04:08:29.250493 20692 net.cpp:141] Setting up embed_encoder
I0924 04:08:29.250515 20692 net.cpp:148] Top shape: 1 500 (500)
I0924 04:08:29.250519 20710 net.cpp:399] embedding -> embedded_input_sentence
I0924 04:08:29.250524 20692 net.cpp:156] Memory required for data: 18404
I0924 04:08:29.250532 20668 net.cpp:141] Setting up reshape_frames
I0924 04:08:29.250548 20692 layer_factory.hpp:77] Creating layer reshape_frames
I0924 04:08:29.250550 20668 net.cpp:148] Top shape: 1 1 500 (500)
I0924 04:08:29.250581 20668 net.cpp:156] Memory required for data: 20404
I0924 04:08:29.250593 20668 layer_factory.hpp:77] Creating layer reshape_stage_indicator
I0924 04:08:29.250607 20692 net.cpp:91] Creating Layer reshape_frames
I0924 04:08:29.250627 20674 net.cpp:141] Setting up reshape_frames
I0924 04:08:29.250636 20668 net.cpp:91] Creating Layer reshape_stage_indicator
I0924 04:08:29.250635 20692 net.cpp:425] reshape_frames <- embedded_in_frames
I0924 04:08:29.250649 20668 net.cpp:425] reshape_stage_indicator <- stage_indicator
I0924 04:08:29.250663 20674 net.cpp:148] Top shape: 1 1 500 (500)
I0924 04:08:29.250671 20692 net.cpp:399] reshape_frames -> embedded_input_frames
I0924 04:08:29.250679 20668 net.cpp:399] reshape_stage_indicator -> reshaped_stage_indicator
I0924 04:08:29.250679 20674 net.cpp:156] Memory required for data: 20404
I0924 04:08:29.250699 20674 layer_factory.hpp:77] Creating layer reshape_stage_indicator
I0924 04:08:29.250727 20674 net.cpp:91] Creating Layer reshape_stage_indicator
I0924 04:08:29.250737 20692 net.cpp:141] Setting up reshape_frames
I0924 04:08:29.250746 20674 net.cpp:425] reshape_stage_indicator <- stage_indicator
I0924 04:08:29.250753 20692 net.cpp:148] Top shape: 1 1 500 (500)
I0924 04:08:29.250761 20692 net.cpp:156] Memory required for data: 20404
I0924 04:08:29.250771 20692 layer_factory.hpp:77] Creating layer reshape_stage_indicator
I0924 04:08:29.250773 20674 net.cpp:399] reshape_stage_indicator -> reshaped_stage_indicator
I0924 04:08:29.250785 20692 net.cpp:91] Creating Layer reshape_stage_indicator
I0924 04:08:29.250797 20692 net.cpp:425] reshape_stage_indicator <- stage_indicator
I0924 04:08:29.250828 20692 net.cpp:399] reshape_stage_indicator -> reshaped_stage_indicator
I0924 04:08:29.303179 20668 net.cpp:141] Setting up reshape_stage_indicator
I0924 04:08:29.303237 20668 net.cpp:148] Top shape: 1 1 1 (1)
I0924 04:08:29.303247 20668 net.cpp:156] Memory required for data: 20408
I0924 04:08:29.303261 20668 layer_factory.hpp:77] Creating layer embedding
I0924 04:08:29.303287 20668 net.cpp:91] Creating Layer embedding
I0924 04:08:29.303299 20668 net.cpp:425] embedding <- input_sentence
I0924 04:08:29.303326 20668 net.cpp:399] embedding -> embedded_input_sentence
I0924 04:08:29.303323 20718 net.cpp:141] Setting up embed_encoder
I0924 04:08:29.303359 20718 net.cpp:148] Top shape: 1 500 (500)
I0924 04:08:29.303360 20674 net.cpp:141] Setting up reshape_stage_indicator
I0924 04:08:29.303366 20718 net.cpp:156] Memory required for data: 18404
I0924 04:08:29.303390 20674 net.cpp:148] Top shape: 1 1 1 (1)
I0924 04:08:29.303400 20674 net.cpp:156] Memory required for data: 20408
I0924 04:08:29.303409 20674 layer_factory.hpp:77] Creating layer embedding
I0924 04:08:29.303426 20674 net.cpp:91] Creating Layer embedding
I0924 04:08:29.303434 20692 net.cpp:141] Setting up reshape_stage_indicator
I0924 04:08:29.303426 20718 layer_factory.hpp:77] Creating layer reshape_frames
I0924 04:08:29.303460 20692 net.cpp:148] Top shape: 1 1 1 (1)
I0924 04:08:29.303472 20692 net.cpp:156] Memory required for data: 20408
I0924 04:08:29.303448 20674 net.cpp:425] embedding <- input_sentence
I0924 04:08:29.303493 20692 layer_factory.hpp:77] Creating layer embedding
I0924 04:08:29.303489 20718 net.cpp:91] Creating Layer reshape_frames
I0924 04:08:29.303514 20692 net.cpp:91] Creating Layer embedding
I0924 04:08:29.303519 20674 net.cpp:399] embedding -> embedded_input_sentence
I0924 04:08:29.303524 20718 net.cpp:425] reshape_frames <- embedded_in_frames
I0924 04:08:29.303527 20692 net.cpp:425] embedding <- input_sentence
I0924 04:08:29.303545 20718 net.cpp:399] reshape_frames -> embedded_input_frames
I0924 04:08:29.303576 20692 net.cpp:399] embedding -> embedded_input_sentence
I0924 04:08:29.347084 20718 net.cpp:141] Setting up reshape_frames
I0924 04:08:29.347136 20718 net.cpp:148] Top shape: 1 1 500 (500)
I0924 04:08:29.347146 20718 net.cpp:156] Memory required for data: 20404
I0924 04:08:29.347160 20718 layer_factory.hpp:77] Creating layer reshape_stage_indicator
I0924 04:08:29.347193 20718 net.cpp:91] Creating Layer reshape_stage_indicator
I0924 04:08:29.347204 20718 net.cpp:425] reshape_stage_indicator <- stage_indicator
I0924 04:08:29.347221 20718 net.cpp:399] reshape_stage_indicator -> reshaped_stage_indicator
I0924 04:08:29.438745 20718 net.cpp:141] Setting up reshape_stage_indicator
I0924 04:08:29.438802 20672 net.cpp:141] Setting up embedding
I0924 04:08:29.438849 20672 net.cpp:148] Top shape: 1 1 500 (500)
I0924 04:08:29.438858 20672 net.cpp:156] Memory required for data: 22408
I0924 04:08:29.438875 20722 net.cpp:141] Setting up embedding
I0924 04:08:29.438886 20672 layer_factory.hpp:77] Creating layer lstm1
I0924 04:08:29.438899 20722 net.cpp:148] Top shape: 1 1 500 (500)
I0924 04:08:29.438910 20722 net.cpp:156] Memory required for data: 22408
I0924 04:08:29.438921 20672 net.cpp:91] Creating Layer lstm1
I0924 04:08:29.438927 20722 layer_factory.hpp:77] Creating layer lstm1
I0924 04:08:29.438933 20672 net.cpp:425] lstm1 <- embedded_input_frames
I0924 04:08:29.438943 20672 net.cpp:425] lstm1 <- cont_sentence_input_1_split_0
I0924 04:08:29.438956 20672 net.cpp:399] lstm1 -> lstm1
…
I0924 04:08:29.439014 20722 recurrent_layer.cpp:20] Initializing recurrent layer: assuming input batch contains 1 timesteps of 1 independent streams.
I0924 04:08:29.439405 20672 net.cpp:49] Initializing net from parameters: 
layer {
  name: "lstm1_"
  type: "Input"
  top: "x"
  top: "cont"
  input_param {
    shape {
      dim: 1
      dim: 1
      dim: 500
    }
    shape {
      dim: 1
      dim: 1
    }
  }
}
layer {
  name: "lstm1_"
  type: "Input"
  top: "c_0"
  top: "h_0"
  input_param {
    shape {
      dim: 1
      dim: 1
      dim: 1000
    }
    shape {
      dim: 1
      dim: 1
      dim: 1000
    }
  }
}
layer {
  name: "lstm1_cont_slice"
  type: "Slice"
  bottom: "cont"
  top: "cont_1"
  slice_param {
    axis: 0
  }
}
layer {
  name: "lstm1_x_transform"
  type: "InnerProduct"
  bottom: "x"
  top: "W_xc_x"
  param {
    name: "W_xc"
  }
  param {
    name: "b_c"
  }
  propagate_down: true
  inner_product_param {
    num_output: 4000
    bias_term: true
    weight_filler {
      type: "uniform"
      min: -0.08
      max: 0.08
    }
    bias_filler {
      type: "constant"
      value: 0
    }
    axis: 2
  }
}
layer {
  name: "lstm1_W_xc_x_slice"
  type: "Slice"
  bottom: "W_xc_x"
  top: "W_xc_x_1"
  slice_param {
    axis: 0
  }
}
layer {
  name: "lstm1_h_conted_0"
  type: "Scale"
  bottom: "h_0"
  bottom: "cont_1"
  top: "h_conted_0"
  scale_param {
    axis: 0
  }
}
layer {
  name: "lstm1_transform_1"
  type: "InnerProduct"
  bottom: "h_conted_0"
  top: "W_hc_h_0"
  param {
    name: "W_hc"
  }
  inner_product_param {
    num_output: 4000
    bias_term: false
    weight_filler {
      type: "uniform"
      min: -0.08
      max: 0.08
    }
    axis: 2
  }
}
layer {
  name: "lstm1_gate_input_1"
  type: "Eltwise"
  bottom: "W_hc_h_0"
  bottom: "W_xc_x_1"
  top: "gate_input_1"
  eltwise_param {
    operation: SUM
  }
}
layer {
  name: "lstm1_unit_1"
  type: "LSTMUnit"
  bottom: "c_0"
  bottom: "gate_input_1"
  bottom: "cont_1"
  top: "c_1"
  top: "h_1"
}
layer {
  name: "lstm1_"
  type: "Split"
  bottom: "c_1"
  top: "c_T"
}
layer {
  name: "lstm1_h_concat"
  type: "Concat"
  bottom: "h_1"
  top: "h"
  concat_param {
    axis: 0
  }
}
layer {
  name: "h_pseudoloss"
  type: "Reduction"
  bottom: "h"
  top: "h_pseudoloss"
  loss_weight: 1
}
I0924 04:08:29.439496 20722 net.cpp:49] Initializing net from parameters: 
layer {
  name: "lstm1_"
  type: "Input"
  top: "x"
  top: "cont"
  input_param {
    shape {
      dim: 1
      dim: 1
      dim: 500
    }
    shape {
      dim: 1
      dim: 1
    }
  }
}
layer {
  name: "lstm1_"
  type: "Input"
  top: "c_0"
  top: "h_0"
  input_param {
    shape {
      dim: 1
      dim: 1
      dim: 1000
    }
    shape {
      dim: 1
      dim: 1
      dim: 1000
    }
  }
}
layer {
  name: "lstm1_cont_slice"
  type: "Slice"
  bottom: "cont"
  top: "cont_1"
  slice_param {
    axis: 0
  }
}
layer {
  name: "lstm1_x_transform"
  type: "InnerProduct"
  bottom: "x"
  top: "W_xc_x"
  param {
    name: "W_xc"
  }
  param {
    name: "b_c"
  }
  propagate_down: true
  inner_product_param {
    num_output: 4000
    bias_term: true
    weight_filler {
      type: "uniform"
      min: -0.08
      max: 0.08
    }
    bias_filler {
      type: "constant"
      value: 0
    }
    axis: 2
  }
}
layer {
  name: "lstm1_W_xc_x_slice"
  type: "Slice"
  bottom: "W_xc_x"
  top: "W_xc_x_1"
  slice_param {
    axis: 0
  }
}
layer {
  name: "lstm1_h_conted_0"
  type: "Scale"
  bottom: "h_0"
  bottom: "cont_1"
  top: "h_conted_0"
  scale_param {
    axis: 0
  }
}
layer {
  name: "lstm1_transform_1"
  type: "InnerProduct"
  bottom: "h_conted_0"
  top: "W_hc_h_0"
  param {
    name: "W_hc"
  }
  inner_product_param {
    num_output: 4000
    bias_term: false
    weight_filler {
      type: "uniform"
      min: -0.08
      max: 0.08
    }
    axis: 2
  }
}
layer {
  name: "lstm1_gate_input_1"
  type: "Eltwise"
  bottom: "W_hc_h_0"
  bottom: "W_xc_x_1"
  top: "gate_input_1"
  eltwise_param {
    operation: SUM
  }
}
layer {
  name: "lstm1_unit_1"
  type: "LSTMUnit"
  bottom: "c_0"
  bottom: "gate_input_1"
  bottom: "cont_1"
  top: "c_1"
  top: "h_1"
}
layer {
  name: "lstm1_"
  type: "Split"
  bottom: "c_1"
  top: "c_T"
}
layer {
  name: "lstm1_h_concat"
  type: "Concat"
  bottom: "h_1"
  top: "h"
  concat_param {
    axis: 0
  }
}
layer {
  name: "h_pseudoloss"
  type: "Reduction"
  bottom: "h"
  top: "h_pseudoloss"
  loss_weight: 1
}
I0924 04:08:29.439504 20672 layer_factory.hpp:77] Creating layer lstm1_
I0924 04:08:29.439517 20672 net.cpp:91] Creating Layer lstm1_
I0924 04:08:29.439524 20672 net.cpp:399] lstm1_ -> x
I0924 04:08:29.439537 20672 net.cpp:399] lstm1_ -> cont
I0924 04:08:29.439600 20672 net.cpp:141] Setting up lstm1_
I0924 04:08:29.439610 20672 net.cpp:148] Top shape: 1 1 500 (500)
I0924 04:08:29.439618 20672 net.cpp:148] Top shape: 1 1 (1)
I0924 04:08:29.439622 20672 net.cpp:156] Memory required for data: 2004
I0924 04:08:29.439627 20672 layer_factory.hpp:77] Creating layer lstm1_
I0924 04:08:29.439640 20672 net.cpp:91] Creating Layer lstm1_
I0924 04:08:29.439646 20672 net.cpp:399] lstm1_ -> c_0
I0924 04:08:29.439661 20672 net.cpp:399] lstm1_ -> h_0
I0924 04:08:29.439656 20722 layer_factory.hpp:77] Creating layer lstm1_
I0924 04:08:29.439697 20722 net.cpp:91] Creating Layer lstm1_
I0924 04:08:29.439708 20722 net.cpp:399] lstm1_ -> x
I0924 04:08:29.439726 20672 net.cpp:141] Setting up lstm1_
I0924 04:08:29.439726 20722 net.cpp:399] lstm1_ -> cont
I0924 04:08:29.439749 20672 net.cpp:148] Top shape: 1 1 1000 (1000)
I0924 04:08:29.439754 20672 net.cpp:148] Top shape: 1 1 1000 (1000)
I0924 04:08:29.439759 20672 net.cpp:156] Memory required for data: 10004
I0924 04:08:29.439764 20672 layer_factory.hpp:77] Creating layer lstm1_cont_slice
I0924 04:08:29.439777 20672 net.cpp:91] Creating Layer lstm1_cont_slice
I0924 04:08:29.439784 20672 net.cpp:425] lstm1_cont_slice <- cont
I0924 04:08:29.439791 20672 net.cpp:399] lstm1_cont_slice -> cont_1
I0924 04:08:29.439831 20722 net.cpp:141] Setting up lstm1_
I0924 04:08:29.439867 20722 net.cpp:148] Top shape: 1 1 500 (500)
I0924 04:08:29.439879 20722 net.cpp:148] Top shape: 1 1 (1)
I0924 04:08:29.439884 20678 net.cpp:141] Setting up embedding
I0924 04:08:29.439888 20722 net.cpp:156] Memory required for data: 2004
I0924 04:08:29.439908 20678 net.cpp:148] Top shape: 1 1 500 (500)
I0924 04:08:29.439906 20722 layer_factory.hpp:77] Creating layer lstm1_
I0924 04:08:29.439918 20678 net.cpp:156] Memory required for data: 22408
I0924 04:08:29.439936 20722 net.cpp:91] Creating Layer lstm1_
I0924 04:08:29.439942 20678 layer_factory.hpp:77] Creating layer lstm1
I0924 04:08:29.439949 20722 net.cpp:399] lstm1_ -> c_0
I0924 04:08:29.439970 20678 net.cpp:91] Creating Layer lstm1
I0924 04:08:29.439977 20722 net.cpp:399] lstm1_ -> h_0
I0924 04:08:29.439983 20678 net.cpp:425] lstm1 <- embedded_input_frames
I0924 04:08:29.439996 20678 net.cpp:425] lstm1 <- cont_sentence_input_1_split_0
I0924 04:08:29.439999 20686 net.cpp:141] Setting up embed_encoder
I0924 04:08:29.440016 20678 net.cpp:399] lstm1 -> lstm1
I0924 04:08:29.440024 20686 net.cpp:148] Top shape: 1 500 (500)
I0924 04:08:29.440037 20678 recurrent_layer.cpp:20] Initializing recurrent layer: assuming input batch contains 1 timesteps of 1 independent streams.
I0924 04:08:29.440034 20686 net.cpp:156] Memory required for data: 18404
I0924 04:08:29.440037 20672 net.cpp:141] Setting up lstm1_cont_slice
I0924 04:08:29.440071 20672 net.cpp:148] Top shape: 1 1 (1)
I0924 04:08:29.440083 20672 net.cpp:156] Memory required for data: 10008
I0924 04:08:29.440099 20672 layer_factory.hpp:77] Creating layer cont_1_lstm1_cont_slice_0_split
I0924 04:08:29.440083 20686 layer_factory.hpp:77] Creating layer reshape_frames
I0924 04:08:29.440114 20672 net.cpp:91] Creating Layer cont_1_lstm1_cont_slice_0_split
I0924 04:08:29.440124 20672 net.cpp:425] cont_1_lstm1_cont_slice_0_split <- cont_1
I0924 04:08:29.440131 20722 net.cpp:141] Setting up lstm1_
I0924 04:08:29.440135 20686 net.cpp:91] Creating Layer reshape_frames
I0924 04:08:29.440140 20672 net.cpp:399] cont_1_lstm1_cont_slice_0_split -> cont_1_lstm1_cont_slice_0_split_0
I0924 04:08:29.440150 20722 net.cpp:148] Top shape: 1 1 1000 (1000)
I0924 04:08:29.440152 20686 net.cpp:425] reshape_frames <- embedded_in_frames
I0924 04:08:29.440158 20672 net.cpp:399] cont_1_lstm1_cont_slice_0_split -> cont_1_lstm1_cont_slice_0_split_1
I0924 04:08:29.440160 20722 net.cpp:148] Top shape: 1 1 1000 (1000)
I0924 04:08:29.440182 20686 net.cpp:399] reshape_frames -> embedded_input_frames
I0924 04:08:29.440197 20722 net.cpp:156] Memory required for data: 10004
I0924 04:08:29.440289 20722 layer_factory.hpp:77] Creating layer lstm1_cont_slice
I0924 04:08:29.440295 20686 net.cpp:141] Setting up reshape_frames
I0924 04:08:29.440305 20722 net.cpp:91] Creating Layer lstm1_cont_slice
I0924 04:08:29.440312 20686 net.cpp:148] Top shape: 1 1 500 (500)
I0924 04:08:29.440316 20722 net.cpp:425] lstm1_cont_slice <- cont
I0924 04:08:29.440325 20686 net.cpp:156] Memory required for data: 20404
I0924 04:08:29.440347 20722 net.cpp:399] lstm1_cont_slice -> cont_1
I0924 04:08:29.440357 20686 layer_factory.hpp:77] Creating layer reshape_stage_indicator
I0924 04:08:29.440403 20672 net.cpp:141] Setting up cont_1_lstm1_cont_slice_0_split
I0924 04:08:29.440403 20686 net.cpp:91] Creating Layer reshape_stage_indicator
I0924 04:08:29.440431 20672 net.cpp:148] Top shape: 1 1 (1)
I0924 04:08:29.440435 20686 net.cpp:425] reshape_stage_indicator <- stage_indicator
I0924 04:08:29.440448 20672 net.cpp:148] Top shape: 1 1 (1)
I0924 04:08:29.440456 20672 net.cpp:156] Memory required for data: 10016
I0924 04:08:29.440455 20678 net.cpp:49] Initializing net from parameters: 
layer {
  name: "lstm1_"
  type: "Input"
  top: "x"
  top: "cont"
  input_param {
    shape {
      dim: 1
      dim: 1
      dim: 500
    }
    shape {
      dim: 1
      dim: 1
    }
  }
}
layer {
  name: "lstm1_"
  type: "Input"
  top: "c_0"
  top: "h_0"
  input_param {
    shape {
      dim: 1
      dim: 1
      dim: 1000
    }
    shape {
      dim: 1
      dim: 1
      dim: 1000
    }
  }
}
layer {
  name: "lstm1_cont_slice"
  type: "Slice"
  bottom: "cont"
  top: "cont_1"
  slice_param {
    axis: 0
  }
}
layer {
  name: "lstm1_x_transform"
  type: "InnerProduct"
  bottom: "x"
  top: "W_xc_x"
  param {
    name: "W_xc"
  }
  param {
    name: "b_c"
  }
  propagate_down: true
  inner_product_param {
    num_output: 4000
    bias_term: true
    weight_filler {
      type: "uniform"
      min: -0.08
      max: 0.08
    }
    bias_filler {
      type: "constant"
      value: 0
    }
    axis: 2
  }
}
layer {
  name: "lstm1_W_xc_x_slice"
  type: "Slice"
  bottom: "W_xc_x"
  top: "W_xc_x_1"
  slice_param {
    axis: 0
  }
}
layer {
  name: "lstm1_h_conted_0"
  type: "Scale"
  bottom: "h_0"
  bottom: "cont_1"
  top: "h_conted_0"
  scale_param {
    axis: 0
  }
}
layer {
  name: "lstm1_transform_1"
  type: "InnerProduct"
  bottom: "h_conted_0"
  top: "W_hc_h_0"
  param {
    name: "W_hc"
  }
  inner_product_param {
    num_output: 4000
    bias_term: false
    weight_filler {
      type: "uniform"
      min: -0.08
      max: 0.08
    }
    axis: 2
  }
}
layer {
  name: "lstm1_gate_input_1"
  type: "Eltwise"
  bottom: "W_hc_h_0"
  bottom: "W_xc_x_1"
  top: "gate_input_1"
  eltwise_param {
    operation: SUM
  }
}
layer {
  name: "lstm1_unit_1"
  type: "LSTMUnit"
  bottom: "c_0"
  bottom: "gate_input_1"
  bottom: "cont_1"
  top: "c_1"
  top: "h_1"
}
layer {
  name: "lstm1_"
  type: "Split"
  bottom: "c_1"
  top: "c_T"
}
layer {
  name: "lstm1_h_concat"
  type: "Concat"
  bottom: "h_1"
  top: "h"
  concat_param {
    axis: 0
  }
}
layer {
  name: "h_pseudoloss"
  type: "Reduction"
  bottom: "h"
  top: "h_pseudoloss"
  loss_weight: 1
}
I0924 04:08:29.440472 20672 layer_factory.hpp:77] Creating layer lstm1_x_transform
I0924 04:08:29.440469 20722 net.cpp:141] Setting up lstm1_cont_slice
I0924 04:08:29.440469 20686 net.cpp:399] reshape_stage_indicator -> reshaped_stage_indicator
I0924 04:08:29.440491 20722 net.cpp:148] Top shape: 1 1 (1)
I0924 04:08:29.440492 20672 net.cpp:91] Creating Layer lstm1_x_transform
I0924 04:08:29.440500 20722 net.cpp:156] Memory required for data: 10008
I0924 04:08:29.440503 20672 net.cpp:425] lstm1_x_transform <- x
I0924 04:08:29.440508 20722 layer_factory.hpp:77] Creating layer cont_1_lstm1_cont_slice_0_split
I0924 04:08:29.440521 20722 net.cpp:91] Creating Layer cont_1_lstm1_cont_slice_0_split
I0924 04:08:29.440522 20672 net.cpp:399] lstm1_x_transform -> W_xc_x
I0924 04:08:29.440529 20722 net.cpp:425] cont_1_lstm1_cont_slice_0_split <- cont_1
I0924 04:08:29.440542 20722 net.cpp:399] cont_1_lstm1_cont_slice_0_split -> cont_1_lstm1_cont_slice_0_split_0
I0924 04:08:29.440577 20722 net.cpp:399] cont_1_lstm1_cont_slice_0_split -> cont_1_lstm1_cont_slice_0_split_1
I0924 04:08:29.440582 20686 net.cpp:141] Setting up reshape_stage_indicator
I0924 04:08:29.440603 20686 net.cpp:148] Top shape: 1 1 1 (1)
I0924 04:08:29.438805 20718 net.cpp:148] Top shape: 1 1 1 (1)
I0924 04:08:29.440613 20678 layer_factory.hpp:77] Creating layer lstm1_
I0924 04:08:29.440611 20686 net.cpp:156] Memory required for data: 20408
I0924 04:08:29.440636 20678 net.cpp:91] Creating Layer lstm1_
I0924 04:08:29.440631 20718 net.cpp:156] Memory required for data: 20408
I0924 04:08:29.440647 20678 net.cpp:399] lstm1_ -> x
I0924 04:08:29.440650 20686 layer_factory.hpp:77] Creating layer embedding
I0924 04:08:29.440654 20718 layer_factory.hpp:77] Creating layer embedding
I0924 04:08:29.440660 20678 net.cpp:399] lstm1_ -> cont
I0924 04:08:29.440682 20718 net.cpp:91] Creating Layer embedding
I0924 04:08:29.440695 20718 net.cpp:425] embedding <- input_sentence
I0924 04:08:29.440696 20686 net.cpp:91] Creating Layer embedding
I0924 04:08:29.440709 20718 net.cpp:399] embedding -> embedded_input_sentence
I0924 04:08:29.440712 20686 net.cpp:425] embedding <- input_sentence
I0924 04:08:29.440712 20722 net.cpp:141] Setting up cont_1_lstm1_cont_slice_0_split
I0924 04:08:29.440747 20722 net.cpp:148] Top shape: 1 1 (1)
I0924 04:08:29.440757 20722 net.cpp:148] Top shape: 1 1 (1)
I0924 04:08:29.440738 20686 net.cpp:399] embedding -> embedded_input_sentence
I0924 04:08:29.440767 20722 net.cpp:156] Memory required for data: 10016
I0924 04:08:29.440776 20722 layer_factory.hpp:77] Creating layer lstm1_x_transform
I0924 04:08:29.440839 20722 net.cpp:91] Creating Layer lstm1_x_transform
I0924 04:08:29.440851 20722 net.cpp:425] lstm1_x_transform <- x
I0924 04:08:29.440868 20722 net.cpp:399] lstm1_x_transform -> W_xc_x
I0924 04:08:29.507293 20678 net.cpp:141] Setting up lstm1_
I0924 04:08:29.507347 20678 net.cpp:148] Top shape: 1 1 500 (500)
I0924 04:08:29.507361 20678 net.cpp:148] Top shape: 1 1 (1)
I0924 04:08:29.507369 20678 net.cpp:156] Memory required for data: 2004
I0924 04:08:29.507382 20678 layer_factory.hpp:77] Creating layer lstm1_
I0924 04:08:29.507411 20678 net.cpp:91] Creating Layer lstm1_
I0924 04:08:29.507443 20678 net.cpp:399] lstm1_ -> c_0
I0924 04:08:29.507432 20710 net.cpp:141] Setting up embedding
I0924 04:08:29.507472 20678 net.cpp:399] lstm1_ -> h_0
I0924 04:08:29.507473 20710 net.cpp:148] Top shape: 1 1 500 (500)
I0924 04:08:29.507483 20710 net.cpp:156] Memory required for data: 22408
I0924 04:08:29.507506 20710 layer_factory.hpp:77] Creating layer lstm1
I0924 04:08:29.507529 20710 net.cpp:91] Creating Layer lstm1
I0924 04:08:29.507540 20710 net.cpp:425] lstm1 <- embedded_input_frames
I0924 04:08:29.507591 20710 net.cpp:425] lstm1 <- cont_sentence_input_1_split_0
I0924 04:08:29.507608 20710 net.cpp:399] lstm1 -> lstm1
I0924 04:08:29.507632 20710 recurrent_layer.cpp:20] Initializing recurrent layer: assuming input batch contains 1 timesteps of 1 independent streams.
I0924 04:08:29.508087 20710 net.cpp:49] Initializing net from parameters: 
layer {
  name: "lstm1_"
  type: "Input"
  top: "x"
  top: "cont"
  input_param {
    shape {
      dim: 1
      dim: 1
      dim: 500
    }
    shape {
      dim: 1
      dim: 1
    }
  }
}
layer {
  name: "lstm1_"
  type: "Input"
  top: "c_0"
  top: "h_0"
  input_param {
    shape {
      dim: 1
      dim: 1
      dim: 1000
    }
    shape {
      dim: 1
      dim: 1
      dim: 1000
    }
  }
}
layer {
  name: "lstm1_cont_slice"
  type: "Slice"
  bottom: "cont"
  top: "cont_1"
  slice_param {
    axis: 0
  }
}
layer {
  name: "lstm1_x_transform"
  type: "InnerProduct"
  bottom: "x"
  top: "W_xc_x"
  param {
    name: "W_xc"
  }
  param {
    name: "b_c"
  }
  propagate_down: true
  inner_product_param {
    num_output: 4000
    bias_term: true
    weight_filler {
      type: "uniform"
      min: -0.08
      max: 0.08
    }
    bias_filler {
      type: "constant"
      value: 0
    }
    axis: 2
  }
}
layer {
  name: "lstm1_W_xc_x_slice"
  type: "Slice"
  bottom: "W_xc_x"
  top: "W_xc_x_1"
  slice_param {
    axis: 0
  }
}
layer {
  name: "lstm1_h_conted_0"
  type: "Scale"
  bottom: "h_0"
  bottom: "cont_1"
  top: "h_conted_0"
  scale_param {
    axis: 0
  }
}
layer {
  name: "lstm1_transform_1"
  type: "InnerProduct"
  bottom: "h_conted_0"
  top: "W_hc_h_0"
  param {
    name: "W_hc"
  }
  inner_product_param {
    num_output: 4000
    bias_term: false
    weight_filler {
      type: "uniform"
      min: -0.08
      max: 0.08
    }
    axis: 2
  }
}
layer {
  name: "lstm1_gate_input_1"
  type: "Eltwise"
  bottom: "W_hc_h_0"
  bottom: "W_xc_x_1"
  top: "gate_input_1"
  eltwise_param {
    operation: SUM
  }
}
layer {
  name: "lstm1_unit_1"
  type: "LSTMUnit"
  bottom: "c_0"
  bottom: "gate_input_1"
  bottom: "cont_1"
  top: "c_1"
  top: "h_1"
}
layer {
  name: "lstm1_"
  type: "Split"
  bottom: "c_1"
  top: "c_T"
}
layer {
  name: "lstm1_h_concat"
  type: "Concat"
  bottom: "h_1"
  top: "h"
  concat_param {
    axis: 0
  }
}
layer {
  name: "h_pseudoloss"
  type: "Reduction"
  bottom: "h"
  top: "h_pseudoloss"
  loss_weight: 1
}
I0924 04:08:29.508225 20710 layer_factory.hpp:77] Creating layer lstm1_
I0924 04:08:29.508244 20710 net.cpp:91] Creating Layer lstm1_
I0924 04:08:29.508255 20710 net.cpp:399] lstm1_ -> x
I0924 04:08:29.508272 20710 net.cpp:399] lstm1_ -> cont
I0924 04:08:29.571949 20672 net.cpp:141] Setting up lstm1_x_transform
I0924 04:08:29.572579 20672 net.cpp:148] Top shape: 1 1 4000 (4000)
I0924 04:08:29.572713 20672 net.cpp:156] Memory required for data: 26016
I0924 04:08:29.572882 20672 layer_factory.hpp:77] Creating layer lstm1_W_xc_x_slice
I0924 04:08:29.573056 20672 net.cpp:91] Creating Layer lstm1_W_xc_x_slice
I0924 04:08:29.573288 20672 net.cpp:425] lstm1_W_xc_x_slice <- W_xc_x
I0924 04:08:29.573319 20672 net.cpp:399] lstm1_W_xc_x_slice -> W_xc_x_1
I0924 04:08:29.573379 20668 net.cpp:141] Setting up embedding
I0924 04:08:29.573400 20668 net.cpp:148] Top shape: 1 1 500 (500)
I0924 04:08:29.573406 20668 net.cpp:156] Memory required for data: 22408
I0924 04:08:29.573424 20668 layer_factory.hpp:77] Creating layer lstm1
I0924 04:08:29.573444 20668 net.cpp:91] Creating Layer lstm1
I0924 04:08:29.573456 20668 net.cpp:425] lstm1 <- embedded_input_frames
I0924 04:08:29.573467 20668 net.cpp:425] lstm1 <- cont_sentence_input_1_split_0
I0924 04:08:29.573480 20668 net.cpp:399] lstm1 -> lstm1
I0924 04:08:29.573498 20668 recurrent_layer.cpp:20] Initializing recurrent layer: assuming input batch contains 1 timesteps of 1 independent streams.
I0924 04:08:29.573506 20678 net.cpp:141] Setting up lstm1_
I0924 04:08:29.573529 20678 net.cpp:148] Top shape: 1 1 1000 (1000)
I0924 04:08:29.573542 20678 net.cpp:148] Top shape: 1 1 1000 (1000)
I0924 04:08:29.573554 20678 net.cpp:156] Memory required for data: 10004
I0924 04:08:29.573565 20678 layer_factory.hpp:77] Creating layer lstm1_cont_slice
I0924 04:08:29.573626 20678 net.cpp:91] Creating Layer lstm1_cont_slice
I0924 04:08:29.573640 20678 net.cpp:425] lstm1_cont_slice <- cont
I0924 04:08:29.573657 20678 net.cpp:399] lstm1_cont_slice -> cont_1
I0924 04:08:29.573668 20672 net.cpp:141] Setting up lstm1_W_xc_x_slice
I0924 04:08:29.573691 20672 net.cpp:148] Top shape: 1 1 4000 (4000)
I0924 04:08:29.573700 20672 net.cpp:156] Memory required for data: 42016
I0924 04:08:29.573707 20672 layer_factory.hpp:77] Creating layer lstm1_h_conted_0
I0924 04:08:29.573719 20672 net.cpp:91] Creating Layer lstm1_h_conted_0
I0924 04:08:29.573724 20672 net.cpp:425] lstm1_h_conted_0 <- h_0
I0924 04:08:29.573732 20672 net.cpp:425] lstm1_h_conted_0 <- cont_1_lstm1_cont_slice_0_split_0
I0924 04:08:29.573745 20672 net.cpp:399] lstm1_h_conted_0 -> h_conted_0
I0924 04:08:29.573864 20678 net.cpp:141] Setting up lstm1_cont_slice
I0924 04:08:29.573884 20678 net.cpp:148] Top shape: 1 1 (1)
I0924 04:08:29.573894 20678 net.cpp:156] Memory required for data: 10008
I0924 04:08:29.573889 20668 net.cpp:49] Initializing net from parameters: 
layer {
  name: "lstm1_"
  type: "Input"
  top: "x"
  top: "cont"
  input_param {
    shape {
      dim: 1
      dim: 1
      dim: 500
    }
    shape {
      dim: 1
      dim: 1
    }
  }
}
layer {
  name: "lstm1_"
  type: "Input"
  top: "c_0"
  top: "h_0"
  input_param {
    shape {
      dim: 1
      dim: 1
      dim: 1000
    }
    shape {
      dim: 1
      dim: 1
      dim: 1000
    }
  }
}
layer {
  name: "lstm1_cont_slice"
  type: "Slice"
  bottom: "cont"
  top: "cont_1"
  slice_param {
    axis: 0
  }
}
layer {
  name: "lstm1_x_transform"
  type: "InnerProduct"
  bottom: "x"
  top: "W_xc_x"
  param {
    name: "W_xc"
  }
  param {
    name: "b_c"
  }
  propagate_down: true
  inner_product_param {
    num_output: 4000
    bias_term: true
    weight_filler {
      type: "uniform"
      min: -0.08
      max: 0.08
    }
    bias_filler {
      type: "constant"
      value: 0
    }
    axis: 2
  }
}
layer {
  name: "lstm1_W_xc_x_slice"
  type: "Slice"
  bottom: "W_xc_x"
  top: "W_xc_x_1"
  slice_param {
    axis: 0
  }
}
layer {
  name: "lstm1_h_conted_0"
  type: "Scale"
  bottom: "h_0"
  bottom: "cont_1"
  top: "h_conted_0"
  scale_param {
    axis: 0
  }
}
layer {
  name: "lstm1_transform_1"
  type: "InnerProduct"
  bottom: "h_conted_0"
  top: "W_hc_h_0"
  param {
    name: "W_hc"
  }
  inner_product_param {
    num_output: 4000
    bias_term: false
    weight_filler {
      type: "uniform"
      min: -0.08
      max: 0.08
    }
    axis: 2
  }
}
layer {
  name: "lstm1_gate_input_1"
  type: "Eltwise"
  bottom: "W_hc_h_0"
  bottom: "W_xc_x_1"
  top: "gate_input_1"
  eltwise_param {
    operation: SUM
  }
}
layer {
  name: "lstm1_unit_1"
  type: "LSTMUnit"
  bottom: "c_0"
  bottom: "gate_input_1"
  bottom: "cont_1"
  top: "c_1"
  top: "h_1"
}
layer {
  name: "lstm1_"
  type: "Split"
  bottom: "c_1"
  top: "c_T"
}
layer {
  name: "lstm1_h_concat"
  type: "Concat"
  bottom: "h_1"
  top: "h"
  concat_param {
    axis: 0
  }
}
layer {
  name: "h_pseudoloss"
  type: "Reduction"
  bottom: "h"
  top: "h_pseudoloss"
  loss_weight: 1
}
I0924 04:08:29.573920 20678 layer_factory.hpp:77] Creating layer cont_1_lstm1_cont_slice_0_split
I0924 04:08:29.573937 20678 net.cpp:91] Creating Layer cont_1_lstm1_cont_slice_0_split
I0924 04:08:29.573948 20678 net.cpp:425] cont_1_lstm1_cont_slice_0_split <- cont_1
I0924 04:08:29.573971 20678 net.cpp:399] cont_1_lstm1_cont_slice_0_split -> cont_1_lstm1_cont_slice_0_split_0
I0924 04:08:29.573992 20678 net.cpp:399] cont_1_lstm1_cont_slice_0_split -> cont_1_lstm1_cont_slice_0_split_1
I0924 04:08:29.574036 20668 layer_factory.hpp:77] Creating layer lstm1_
I0924 04:08:29.574054 20668 net.cpp:91] Creating Layer lstm1_
I0924 04:08:29.574064 20668 net.cpp:399] lstm1_ -> x
I0924 04:08:29.574080 20668 net.cpp:399] lstm1_ -> cont
I0924 04:08:29.574093 20710 net.cpp:141] Setting up lstm1_
I0924 04:08:29.574122 20672 net.cpp:141] Setting up lstm1_h_conted_0
I0924 04:08:29.574162 20672 net.cpp:148] Top shape: 1 1 1000 (1000)
I0924 04:08:29.574164 20710 net.cpp:148] Top shape: 1 1 500 (500)
I0924 04:08:29.574169 20672 net.cpp:156] Memory required for data: 46016
I0924 04:08:29.574192 20672 layer_factory.hpp:77] Creating layer lstm1_transform_1
I0924 04:08:29.574194 20710 net.cpp:148] Top shape: 1 1 (1)
I0924 04:08:29.574208 20672 net.cpp:91] Creating Layer lstm1_transform_1
I0924 04:08:29.574213 20672 net.cpp:425] lstm1_transform_1 <- h_conted_0
I0924 04:08:29.574211 20710 net.cpp:156] Memory required for data: 2004
I0924 04:08:29.574223 20672 net.cpp:399] lstm1_transform_1 -> W_hc_h_0
I0924 04:08:29.574229 20668 net.cpp:141] Setting up lstm1_
I0924 04:08:29.574231 20710 layer_factory.hpp:77] Creating layer lstm1_
I0924 04:08:29.574245 20668 net.cpp:148] Top shape: 1 1 500 (500)
I0924 04:08:29.574256 20668 net.cpp:148] Top shape: 1 1 (1)
I0924 04:08:29.574265 20668 net.cpp:156] Memory required for data: 2004
I0924 04:08:29.574272 20668 layer_factory.hpp:77] Creating layer lstm1_
I0924 04:08:29.574290 20668 net.cpp:91] Creating Layer lstm1_
I0924 04:08:29.574290 20710 net.cpp:91] Creating Layer lstm1_
I0924 04:08:29.574301 20668 net.cpp:399] lstm1_ -> c_0
I0924 04:08:29.574336 20710 net.cpp:399] lstm1_ -> c_0
I0924 04:08:29.574344 20668 net.cpp:399] lstm1_ -> h_0
I0924 04:08:29.574376 20710 net.cpp:399] lstm1_ -> h_0
I0924 04:08:29.574378 20678 net.cpp:141] Setting up cont_1_lstm1_cont_slice_0_split
I0924 04:08:29.574415 20678 net.cpp:148] Top shape: 1 1 (1)
I0924 04:08:29.574430 20678 net.cpp:148] Top shape: 1 1 (1)
I0924 04:08:29.574440 20678 net.cpp:156] Memory required for data: 10016
I0924 04:08:29.574450 20678 layer_factory.hpp:77] Creating layer lstm1_x_transform
I0924 04:08:29.574476 20678 net.cpp:91] Creating Layer lstm1_x_transform
I0924 04:08:29.574489 20678 net.cpp:425] lstm1_x_transform <- x
I0924 04:08:29.574491 20722 net.cpp:141] Setting up lstm1_x_transform
I0924 04:08:29.574508 20678 net.cpp:399] lstm1_x_transform -> W_xc_x
I0924 04:08:29.574512 20722 net.cpp:148] Top shape: 1 1 4000 (4000)
I0924 04:08:29.574532 20722 net.cpp:156] Memory required for data: 26016
I0924 04:08:29.574550 20722 layer_factory.hpp:77] Creating layer lstm1_W_xc_x_slice
I0924 04:08:29.574565 20722 net.cpp:91] Creating Layer lstm1_W_xc_x_slice
I0924 04:08:29.574569 20668 net.cpp:141] Setting up lstm1_
I0924 04:08:29.574573 20722 net.cpp:425] lstm1_W_xc_x_slice <- W_xc_x
I0924 04:08:29.574589 20668 net.cpp:148] Top shape: 1 1 1000 (1000)
I0924 04:08:29.574610 20722 net.cpp:399] lstm1_W_xc_x_slice -> W_xc_x_1
I0924 04:08:29.574615 20668 net.cpp:148] Top shape: 1 1 1000 (1000)
I0924 04:08:29.574625 20668 net.cpp:156] Memory required for data: 10004
I0924 04:08:29.574631 20668 layer_factory.hpp:77] Creating layer lstm1_cont_slice
I0924 04:08:29.574677 20668 net.cpp:91] Creating Layer lstm1_cont_slice
I0924 04:08:29.574687 20668 net.cpp:425] lstm1_cont_slice <- cont
I0924 04:08:29.574700 20668 net.cpp:399] lstm1_cont_slice -> cont_1
I0924 04:08:29.588199 20722 net.cpp:141] Setting up lstm1_W_xc_x_slice
I0924 04:08:29.588258 20722 net.cpp:148] Top shape: 1 1 4000 (4000)
I0924 04:08:29.588271 20722 net.cpp:156] Memory required for data: 42016
I0924 04:08:29.588286 20722 layer_factory.hpp:77] Creating layer lstm1_h_conted_0
I0924 04:08:29.588315 20722 net.cpp:91] Creating Layer lstm1_h_conted_0
I0924 04:08:29.588330 20722 net.cpp:425] lstm1_h_conted_0 <- h_0
I0924 04:08:29.588347 20722 net.cpp:425] lstm1_h_conted_0 <- cont_1_lstm1_cont_slice_0_split_0
I0924 04:08:29.589004 20710 net.cpp:141] Setting up lstm1_
I0924 04:08:29.589046 20710 net.cpp:148] Top shape: 1 1 1000 (1000)
I0924 04:08:29.589056 20710 net.cpp:148] Top shape: 1 1 1000 (1000)
I0924 04:08:29.589062 20710 net.cpp:156] Memory required for data: 10004
I0924 04:08:29.589073 20710 layer_factory.hpp:77] Creating layer lstm1_cont_slice
I0924 04:08:29.589097 20710 net.cpp:91] Creating Layer lstm1_cont_slice
I0924 04:08:29.589107 20710 net.cpp:425] lstm1_cont_slice <- cont
I0924 04:08:29.589125 20710 net.cpp:399] lstm1_cont_slice -> cont_1
I0924 04:08:29.589121 20668 net.cpp:141] Setting up lstm1_cont_slice
I0924 04:08:29.589144 20668 net.cpp:148] Top shape: 1 1 (1)
I0924 04:08:29.589151 20668 net.cpp:156] Memory required for data: 10008
I0924 04:08:29.589160 20668 layer_factory.hpp:77] Creating layer cont_1_lstm1_cont_slice_0_split
I0924 04:08:29.589174 20668 net.cpp:91] Creating Layer cont_1_lstm1_cont_slice_0_split
I0924 04:08:29.589182 20668 net.cpp:425] cont_1_lstm1_cont_slice_0_split <- cont_1
I0924 04:08:29.589196 20668 net.cpp:399] cont_1_lstm1_cont_slice_0_split -> cont_1_lstm1_cont_slice_0_split_0
I0924 04:08:29.589213 20668 net.cpp:399] cont_1_lstm1_cont_slice_0_split -> cont_1_lstm1_cont_slice_0_split_1
I0924 04:08:29.589220 20710 net.cpp:141] Setting up lstm1_cont_slice
I0924 04:08:29.589233 20710 net.cpp:148] Top shape: 1 1 (1)
I0924 04:08:29.589241 20710 net.cpp:156] Memory required for data: 10008
I0924 04:08:29.589247 20710 layer_factory.hpp:77] Creating layer cont_1_lstm1_cont_slice_0_split
I0924 04:08:29.589263 20710 net.cpp:91] Creating Layer cont_1_lstm1_cont_slice_0_split
I0924 04:08:29.589272 20710 net.cpp:425] cont_1_lstm1_cont_slice_0_split <- cont_1
I0924 04:08:29.589282 20710 net.cpp:399] cont_1_lstm1_cont_slice_0_split -> cont_1_lstm1_cont_slice_0_split_0
I0924 04:08:29.589298 20710 net.cpp:399] cont_1_lstm1_cont_slice_0_split -> cont_1_lstm1_cont_slice_0_split_1
I0924 04:08:29.591171 20722 net.cpp:399] lstm1_h_conted_0 -> h_conted_0
I0924 04:08:29.592540 20668 net.cpp:141] Setting up cont_1_lstm1_cont_slice_0_split
I0924 04:08:29.592561 20668 net.cpp:148] Top shape: 1 1 (1)
I0924 04:08:29.592571 20668 net.cpp:148] Top shape: 1 1 (1)
I0924 04:08:29.592578 20668 net.cpp:156] Memory required for data: 10016
I0924 04:08:29.592587 20668 layer_factory.hpp:77] Creating layer lstm1_x_transform
I0924 04:08:29.592615 20668 net.cpp:91] Creating Layer lstm1_x_transform
I0924 04:08:29.592617 20710 net.cpp:141] Setting up cont_1_lstm1_cont_slice_0_split
I0924 04:08:29.592625 20668 net.cpp:425] lstm1_x_transform <- x
I0924 04:08:29.592656 20710 net.cpp:148] Top shape: 1 1 (1)
I0924 04:08:29.592666 20668 net.cpp:399] lstm1_x_transform -> W_xc_x
I0924 04:08:29.592669 20710 net.cpp:148] Top shape: 1 1 (1)
I0924 04:08:29.592679 20710 net.cpp:156] Memory required for data: 10016
I0924 04:08:29.592689 20710 layer_factory.hpp:77] Creating layer lstm1_x_transform
I0924 04:08:29.592712 20710 net.cpp:91] Creating Layer lstm1_x_transform
I0924 04:08:29.592723 20710 net.cpp:425] lstm1_x_transform <- x
I0924 04:08:29.592741 20710 net.cpp:399] lstm1_x_transform -> W_xc_x
I0924 04:08:29.618304 20692 net.cpp:141] Setting up embedding
I0924 04:08:29.618846 20692 net.cpp:148] Top shape: 1 1 500 (500)
I0924 04:08:29.618863 20692 net.cpp:156] Memory required for data: 22408
I0924 04:08:29.618887 20692 layer_factory.hpp:77] Creating layer lstm1
I0924 04:08:29.618911 20692 net.cpp:91] Creating Layer lstm1
I0924 04:08:29.618922 20692 net.cpp:425] lstm1 <- embedded_input_frames
I0924 04:08:29.618934 20692 net.cpp:425] lstm1 <- cont_sentence_input_1_split_0
I0924 04:08:29.618965 20692 net.cpp:399] lstm1 -> lstm1
I0924 04:08:29.618990 20692 recurrent_layer.cpp:20] Initializing recurrent layer: assuming input batch contains 1 timesteps of 1 independent streams.
I0924 04:08:29.619436 20692 net.cpp:49] Initializing net from parameters: 
layer {
  name: "lstm1_"
  type: "Input"
  top: "x"
  top: "cont"
  input_param {
    shape {
      dim: 1
      dim: 1
      dim: 500
    }
    shape {
      dim: 1
      dim: 1
    }
  }
}
layer {
  name: "lstm1_"
  type: "Input"
  top: "c_0"
  top: "h_0"
  input_param {
    shape {
      dim: 1
      dim: 1
      dim: 1000
    }
    shape {
      dim: 1
      dim: 1
      dim: 1000
    }
  }
}
layer {
  name: "lstm1_cont_slice"
  type: "Slice"
  bottom: "cont"
  top: "cont_1"
  slice_param {
    axis: 0
  }
}
layer {
  name: "lstm1_x_transform"
  type: "InnerProduct"
  bottom: "x"
  top: "W_xc_x"
  param {
    name: "W_xc"
  }
  param {
    name: "b_c"
  }
  propagate_down: true
  inner_product_param {
    num_output: 4000
    bias_term: true
    weight_filler {
      type: "uniform"
      min: -0.08
      max: 0.08
    }
    bias_filler {
      type: "constant"
      value: 0
    }
    axis: 2
  }
}
layer {
  name: "lstm1_W_xc_x_slice"
  type: "Slice"
  bottom: "W_xc_x"
  top: "W_xc_x_1"
  slice_param {
    axis: 0
  }
}
layer {
  name: "lstm1_h_conted_0"
  type: "Scale"
  bottom: "h_0"
  bottom: "cont_1"
  top: "h_conted_0"
  scale_param {
    axis: 0
  }
}
layer {
  name: "lstm1_transform_1"
  type: "InnerProduct"
  bottom: "h_conted_0"
  top: "W_hc_h_0"
  param {
    name: "W_hc"
  }
  inner_product_param {
    num_output: 4000
    bias_term: false
    weight_filler {
      type: "uniform"
      min: -0.08
      max: 0.08
    }
    axis: 2
  }
}
layer {
  name: "lstm1_gate_input_1"
  type: "Eltwise"
  bottom: "W_hc_h_0"
  bottom: "W_xc_x_1"
  top: "gate_input_1"
  eltwise_param {
    operation: SUM
  }
}
layer {
  name: "lstm1_unit_1"
  type: "LSTMUnit"
  bottom: "c_0"
  bottom: "gate_input_1"
  bottom: "cont_1"
  top: "c_1"
  top: "h_1"
}
layer {
  name: "lstm1_"
  type: "Split"
  bottom: "c_1"
  top: "c_T"
}
layer {
  name: "lstm1_h_concat"
  type: "Concat"
  bottom: "h_1"
  top: "h"
  concat_param {
    axis: 0
  }
}
layer {
  name: "h_pseudoloss"
  type: "Reduction"
  bottom: "h"
  top: "h_pseudoloss"
  loss_weight: 1
}
I0924 04:08:29.619575 20692 layer_factory.hpp:77] Creating layer lstm1_
I0924 04:08:29.619593 20692 net.cpp:91] Creating Layer lstm1_
I0924 04:08:29.619604 20692 net.cpp:399] lstm1_ -> x
I0924 04:08:29.619621 20692 net.cpp:399] lstm1_ -> cont
I0924 04:08:29.623862 20722 net.cpp:141] Setting up lstm1_h_conted_0
I0924 04:08:29.623914 20722 net.cpp:148] Top shape: 1 1 1000 (1000)
I0924 04:08:29.623924 20722 net.cpp:156] Memory required for data: 46016
I0924 04:08:29.623939 20722 layer_factory.hpp:77] Creating layer lstm1_transform_1
I0924 04:08:29.623980 20722 net.cpp:91] Creating Layer lstm1_transform_1
I0924 04:08:29.623994 20722 net.cpp:425] lstm1_transform_1 <- h_conted_0
I0924 04:08:29.624014 20722 net.cpp:399] lstm1_transform_1 -> W_hc_h_0
I0924 04:08:29.634486 20692 net.cpp:141] Setting up lstm1_
I0924 04:08:29.634546 20692 net.cpp:148] Top shape: 1 1 500 (500)
I0924 04:08:29.634562 20692 net.cpp:148] Top shape: 1 1 (1)
I0924 04:08:29.634568 20692 net.cpp:156] Memory required for data: 2004
I0924 04:08:29.634567 20672 net.cpp:141] Setting up lstm1_transform_1
I0924 04:08:29.634582 20692 layer_factory.hpp:77] Creating layer lstm1_
I0924 04:08:29.634587 20672 net.cpp:148] Top shape: 1 1 4000 (4000)
I0924 04:08:29.634593 20672 net.cpp:156] Memory required for data: 62016
I0924 04:08:29.634621 20692 net.cpp:91] Creating Layer lstm1_
I0924 04:08:29.634624 20672 layer_factory.hpp:77] Creating layer lstm1_gate_input_1
I0924 04:08:29.634646 20692 net.cpp:399] lstm1_ -> c_0
I0924 04:08:29.634650 20672 net.cpp:91] Creating Layer lstm1_gate_input_1
I0924 04:08:29.634663 20672 net.cpp:425] lstm1_gate_input_1 <- W_hc_h_0
I0924 04:08:29.634672 20672 net.cpp:425] lstm1_gate_input_1 <- W_xc_x_1
I0924 04:08:29.634670 20692 net.cpp:399] lstm1_ -> h_0
I0924 04:08:29.634681 20672 net.cpp:399] lstm1_gate_input_1 -> gate_input_1
I0924 04:08:29.634768 20692 net.cpp:141] Setting up lstm1_
I0924 04:08:29.634784 20692 net.cpp:148] Top shape: 1 1 1000 (1000)
I0924 04:08:29.634794 20692 net.cpp:148] Top shape: 1 1 1000 (1000)
I0924 04:08:29.634801 20692 net.cpp:156] Memory required for data: 10004
I0924 04:08:29.634809 20692 layer_factory.hpp:77] Creating layer lstm1_cont_slice
I0924 04:08:29.634824 20692 net.cpp:91] Creating Layer lstm1_cont_slice
I0924 04:08:29.634832 20692 net.cpp:425] lstm1_cont_slice <- cont
I0924 04:08:29.634843 20672 net.cpp:141] Setting up lstm1_gate_input_1
I0924 04:08:29.634857 20672 net.cpp:148] Top shape: 1 1 4000 (4000)
I0924 04:08:29.634862 20672 net.cpp:156] Memory required for data: 78016
I0924 04:08:29.634867 20672 layer_factory.hpp:77] Creating layer lstm1_unit_1
I0924 04:08:29.634865 20692 net.cpp:399] lstm1_cont_slice -> cont_1
I0924 04:08:29.634891 20672 net.cpp:91] Creating Layer lstm1_unit_1
I0924 04:08:29.634898 20672 net.cpp:425] lstm1_unit_1 <- c_0
I0924 04:08:29.634909 20672 net.cpp:425] lstm1_unit_1 <- gate_input_1
I0924 04:08:29.634919 20672 net.cpp:425] lstm1_unit_1 <- cont_1_lstm1_cont_slice_0_split_1
I0924 04:08:29.634932 20672 net.cpp:399] lstm1_unit_1 -> c_1
I0924 04:08:29.634946 20672 net.cpp:399] lstm1_unit_1 -> h_1
I0924 04:08:29.634997 20668 net.cpp:141] Setting up lstm1_x_transform
I0924 04:08:29.635023 20668 net.cpp:148] Top shape: 1 1 4000 (4000)
I0924 04:08:29.635031 20668 net.cpp:156] Memory required for data: 26016
I0924 04:08:29.635036 20692 net.cpp:141] Setting up lstm1_cont_slice
I0924 04:08:29.635051 20668 layer_factory.hpp:77] Creating layer lstm1_W_xc_x_slice
I0924 04:08:29.635052 20692 net.cpp:148] Top shape: 1 1 (1)
I0924 04:08:29.635068 20692 net.cpp:156] Memory required for data: 10008
I0924 04:08:29.635071 20668 net.cpp:91] Creating Layer lstm1_W_xc_x_slice
I0924 04:08:29.635074 20692 layer_factory.hpp:77] Creating layer cont_1_lstm1_cont_slice_0_split
I0924 04:08:29.635079 20668 net.cpp:425] lstm1_W_xc_x_slice <- W_xc_x
I0924 04:08:29.635092 20668 net.cpp:399] lstm1_W_xc_x_slice -> W_xc_x_1
I0924 04:08:29.635154 20692 net.cpp:91] Creating Layer cont_1_lstm1_cont_slice_0_split
I0924 04:08:29.635159 20678 net.cpp:141] Setting up lstm1_x_transform
I0924 04:08:29.635170 20692 net.cpp:425] cont_1_lstm1_cont_slice_0_split <- cont_1
I0924 04:08:29.635184 20678 net.cpp:148] Top shape: 1 1 4000 (4000)
I0924 04:08:29.635186 20692 net.cpp:399] cont_1_lstm1_cont_slice_0_split -> cont_1_lstm1_cont_slice_0_split_0
I0924 04:08:29.635192 20678 net.cpp:156] Memory required for data: 26016
I0924 04:08:29.635205 20692 net.cpp:399] cont_1_lstm1_cont_slice_0_split -> cont_1_lstm1_cont_slice_0_split_1
I0924 04:08:29.635213 20678 layer_factory.hpp:77] Creating layer lstm1_W_xc_x_slice
I0924 04:08:29.635262 20678 net.cpp:91] Creating Layer lstm1_W_xc_x_slice
I0924 04:08:29.635275 20678 net.cpp:425] lstm1_W_xc_x_slice <- W_xc_x
I0924 04:08:29.635289 20678 net.cpp:399] lstm1_W_xc_x_slice -> W_xc_x_1
I0924 04:08:29.635529 20668 net.cpp:141] Setting up lstm1_W_xc_x_slice
I0924 04:08:29.635545 20668 net.cpp:148] Top shape: 1 1 4000 (4000)
I0924 04:08:29.635552 20668 net.cpp:156] Memory required for data: 42016
I0924 04:08:29.635560 20668 layer_factory.hpp:77] Creating layer lstm1_h_conted_0
I0924 04:08:29.635573 20668 net.cpp:91] Creating Layer lstm1_h_conted_0
I0924 04:08:29.635582 20668 net.cpp:425] lstm1_h_conted_0 <- h_0
I0924 04:08:29.635592 20668 net.cpp:425] lstm1_h_conted_0 <- cont_1_lstm1_cont_slice_0_split_0
I0924 04:08:29.635603 20668 net.cpp:399] lstm1_h_conted_0 -> h_conted_0
I0924 04:08:29.635679 20678 net.cpp:141] Setting up lstm1_W_xc_x_slice
I0924 04:08:29.635718 20678 net.cpp:148] Top shape: 1 1 4000 (4000)
I0924 04:08:29.635727 20678 net.cpp:156] Memory required for data: 42016
I0924 04:08:29.635735 20678 layer_factory.hpp:77] Creating layer lstm1_h_conted_0
I0924 04:08:29.635752 20668 net.cpp:141] Setting up lstm1_h_conted_0
I0924 04:08:29.635766 20668 net.cpp:148] Top shape: 1 1 1000 (1000)
I0924 04:08:29.635771 20678 net.cpp:91] Creating Layer lstm1_h_conted_0
I0924 04:08:29.635773 20668 net.cpp:156] Memory required for data: 46016
I0924 04:08:29.635788 20678 net.cpp:425] lstm1_h_conted_0 <- h_0
I0924 04:08:29.635792 20668 layer_factory.hpp:77] Creating layer lstm1_transform_1
I0924 04:08:29.635794 20692 net.cpp:141] Setting up cont_1_lstm1_cont_slice_0_split
I0924 04:08:29.635800 20678 net.cpp:425] lstm1_h_conted_0 <- cont_1_lstm1_cont_slice_0_split_0
I0924 04:08:29.635809 20668 net.cpp:91] Creating Layer lstm1_transform_1
I0924 04:08:29.635813 20692 net.cpp:148] Top shape: 1 1 (1)
I0924 04:08:29.635815 20678 net.cpp:399] lstm1_h_conted_0 -> h_conted_0
I0924 04:08:29.635818 20668 net.cpp:425] lstm1_transform_1 <- h_conted_0
I0924 04:08:29.635825 20692 net.cpp:148] Top shape: 1 1 (1)
I0924 04:08:29.635830 20668 net.cpp:399] lstm1_transform_1 -> W_hc_h_0
I0924 04:08:29.635834 20692 net.cpp:156] Memory required for data: 10016
I0924 04:08:29.635844 20692 layer_factory.hpp:77] Creating layer lstm1_x_transform
I0924 04:08:29.635864 20692 net.cpp:91] Creating Layer lstm1_x_transform
I0924 04:08:29.635874 20692 net.cpp:425] lstm1_x_transform <- x
I0924 04:08:29.635890 20692 net.cpp:399] lstm1_x_transform -> W_xc_x
I0924 04:08:29.658752 20710 net.cpp:141] Setting up lstm1_x_transform
I0924 04:08:29.658820 20710 net.cpp:148] Top shape: 1 1 4000 (4000)
I0924 04:08:29.658833 20710 net.cpp:156] Memory required for data: 26016
I0924 04:08:29.658870 20710 layer_factory.hpp:77] Creating layer lstm1_W_xc_x_slice
I0924 04:08:29.658897 20710 net.cpp:91] Creating Layer lstm1_W_xc_x_slice
I0924 04:08:29.658910 20710 net.cpp:425] lstm1_W_xc_x_slice <- W_xc_x
I0924 04:08:29.658926 20710 net.cpp:399] lstm1_W_xc_x_slice -> W_xc_x_1
I0924 04:08:29.659008 20710 net.cpp:141] Setting up lstm1_W_xc_x_slice
I0924 04:08:29.659025 20710 net.cpp:148] Top shape: 1 1 4000 (4000)
I0924 04:08:29.659034 20710 net.cpp:156] Memory required for data: 42016
I0924 04:08:29.659044 20710 layer_factory.hpp:77] Creating layer lstm1_h_conted_0
I0924 04:08:29.659061 20710 net.cpp:91] Creating Layer lstm1_h_conted_0
I0924 04:08:29.659071 20710 net.cpp:425] lstm1_h_conted_0 <- h_0
I0924 04:08:29.659083 20710 net.cpp:425] lstm1_h_conted_0 <- cont_1_lstm1_cont_slice_0_split_0
I0924 04:08:29.659097 20710 net.cpp:399] lstm1_h_conted_0 -> h_conted_0
I0924 04:08:29.659263 20710 net.cpp:141] Setting up lstm1_h_conted_0
I0924 04:08:29.659281 20710 net.cpp:148] Top shape: 1 1 1000 (1000)
I0924 04:08:29.659289 20710 net.cpp:156] Memory required for data: 46016
I0924 04:08:29.659298 20710 layer_factory.hpp:77] Creating layer lstm1_transform_1
I0924 04:08:29.659319 20710 net.cpp:91] Creating Layer lstm1_transform_1
I0924 04:08:29.659329 20710 net.cpp:425] lstm1_transform_1 <- h_conted_0
I0924 04:08:29.659344 20710 net.cpp:399] lstm1_transform_1 -> W_hc_h_0
I0924 04:08:29.670164 20672 net.cpp:141] Setting up lstm1_unit_1
I0924 04:08:29.670217 20672 net.cpp:148] Top shape: 1 1 1000 (1000)
I0924 04:08:29.670229 20672 net.cpp:148] Top shape: 1 1 1000 (1000)
I0924 04:08:29.670236 20672 net.cpp:156] Memory required for data: 86016
I0924 04:08:29.670248 20672 layer_factory.hpp:77] Creating layer lstm1_
I0924 04:08:29.670265 20672 net.cpp:91] Creating Layer lstm1_
I0924 04:08:29.670275 20672 net.cpp:425] lstm1_ <- c_1
I0924 04:08:29.670290 20672 net.cpp:399] lstm1_ -> c_T
I0924 04:08:29.675421 20678 net.cpp:141] Setting up lstm1_h_conted_0
I0924 04:08:29.675462 20672 net.cpp:141] Setting up lstm1_
I0924 04:08:29.675469 20678 net.cpp:148] Top shape: 1 1 1000 (1000)
I0924 04:08:29.675484 20678 net.cpp:156] Memory required for data: 46016
I0924 04:08:29.675487 20672 net.cpp:148] Top shape: 1 1 1000 (1000)
I0924 04:08:29.675494 20678 layer_factory.hpp:77] Creating layer lstm1_transform_1
I0924 04:08:29.675496 20672 net.cpp:156] Memory required for data: 90016
I0924 04:08:29.675505 20672 layer_factory.hpp:77] Creating layer lstm1_h_concat
I0924 04:08:29.675521 20672 net.cpp:91] Creating Layer lstm1_h_concat
I0924 04:08:29.675531 20672 net.cpp:425] lstm1_h_concat <- h_1
I0924 04:08:29.675549 20672 net.cpp:399] lstm1_h_concat -> h
I0924 04:08:29.675568 20678 net.cpp:91] Creating Layer lstm1_transform_1
I0924 04:08:29.675596 20678 net.cpp:425] lstm1_transform_1 <- h_conted_0
I0924 04:08:29.675608 20678 net.cpp:399] lstm1_transform_1 -> W_hc_h_0
I0924 04:08:29.675632 20672 net.cpp:141] Setting up lstm1_h_concat
I0924 04:08:29.675647 20672 net.cpp:148] Top shape: 1 1 1000 (1000)
I0924 04:08:29.675655 20672 net.cpp:156] Memory required for data: 94016
I0924 04:08:29.675663 20672 layer_factory.hpp:77] Creating layer h_pseudoloss
I0924 04:08:29.675683 20672 net.cpp:91] Creating Layer h_pseudoloss
I0924 04:08:29.675690 20672 net.cpp:425] h_pseudoloss <- h
I0924 04:08:29.675701 20672 net.cpp:399] h_pseudoloss -> h_pseudoloss
I0924 04:08:29.675565 20722 net.cpp:141] Setting up lstm1_transform_1
I0924 04:08:29.677649 20722 net.cpp:148] Top shape: 1 1 4000 (4000)
I0924 04:08:29.677786 20722 net.cpp:156] Memory required for data: 62016
I0924 04:08:29.677923 20722 layer_factory.hpp:77] Creating layer lstm1_gate_input_1
I0924 04:08:29.678103 20722 net.cpp:91] Creating Layer lstm1_gate_input_1
I0924 04:08:29.678284 20722 net.cpp:425] lstm1_gate_input_1 <- W_hc_h_0
I0924 04:08:29.678416 20722 net.cpp:425] lstm1_gate_input_1 <- W_xc_x_1
I0924 04:08:29.678565 20722 net.cpp:399] lstm1_gate_input_1 -> gate_input_1
I0924 04:08:29.684257 20722 net.cpp:141] Setting up lstm1_gate_input_1
I0924 04:08:29.684311 20722 net.cpp:148] Top shape: 1 1 4000 (4000)
I0924 04:08:29.684320 20722 net.cpp:156] Memory required for data: 78016
I0924 04:08:29.684334 20722 layer_factory.hpp:77] Creating layer lstm1_unit_1
I0924 04:08:29.684407 20722 net.cpp:91] Creating Layer lstm1_unit_1
I0924 04:08:29.684422 20722 net.cpp:425] lstm1_unit_1 <- c_0
I0924 04:08:29.684437 20722 net.cpp:425] lstm1_unit_1 <- gate_input_1
I0924 04:08:29.684448 20722 net.cpp:425] lstm1_unit_1 <- cont_1_lstm1_cont_slice_0_split_1
I0924 04:08:29.684461 20722 net.cpp:399] lstm1_unit_1 -> c_1
I0924 04:08:29.684481 20722 net.cpp:399] lstm1_unit_1 -> h_1
I0924 04:08:29.684628 20722 net.cpp:141] Setting up lstm1_unit_1
I0924 04:08:29.684648 20722 net.cpp:148] Top shape: 1 1 1000 (1000)
I0924 04:08:29.684659 20722 net.cpp:148] Top shape: 1 1 1000 (1000)
I0924 04:08:29.684667 20722 net.cpp:156] Memory required for data: 86016
I0924 04:08:29.684676 20722 layer_factory.hpp:77] Creating layer lstm1_
I0924 04:08:29.684692 20722 net.cpp:91] Creating Layer lstm1_
I0924 04:08:29.684702 20722 net.cpp:425] lstm1_ <- c_1
I0924 04:08:29.684736 20722 net.cpp:399] lstm1_ -> c_T
I0924 04:08:29.684798 20722 net.cpp:141] Setting up lstm1_
I0924 04:08:29.684816 20722 net.cpp:148] Top shape: 1 1 1000 (1000)
I0924 04:08:29.684826 20722 net.cpp:156] Memory required for data: 90016
I0924 04:08:29.684836 20722 layer_factory.hpp:77] Creating layer lstm1_h_concat
I0924 04:08:29.684854 20722 net.cpp:91] Creating Layer lstm1_h_concat
I0924 04:08:29.684864 20722 net.cpp:425] lstm1_h_concat <- h_1
I0924 04:08:29.684880 20722 net.cpp:399] lstm1_h_concat -> h
I0924 04:08:29.684959 20722 net.cpp:141] Setting up lstm1_h_concat
I0924 04:08:29.684978 20722 net.cpp:148] Top shape: 1 1 1000 (1000)
I0924 04:08:29.684986 20722 net.cpp:156] Memory required for data: 94016
I0924 04:08:29.684994 20722 layer_factory.hpp:77] Creating layer h_pseudoloss
I0924 04:08:29.685009 20722 net.cpp:91] Creating Layer h_pseudoloss
I0924 04:08:29.685017 20722 net.cpp:425] h_pseudoloss <- h
I0924 04:08:29.685029 20722 net.cpp:399] h_pseudoloss -> h_pseudoloss
I0924 04:08:29.685184 20722 net.cpp:141] Setting up h_pseudoloss
…
I0924 04:08:29.685436 20722 net.cpp:219] lstm1_ does not need backward computation.
I0924 04:08:29.685443 20722 net.cpp:261] This network produces output c_T
I0924 04:08:29.685453 20722 net.cpp:261] This network produces output h_pseudoloss
I0924 04:08:29.685485 20722 net.cpp:274] Network initialization done.
I0924 04:08:29.685583 20722 recurrent_layer.cpp:150] Adding parameter 0: W_xc
I0924 04:08:29.685598 20722 recurrent_layer.cpp:150] Adding parameter 1: b_c
I0924 04:08:29.685608 20722 recurrent_layer.cpp:150] Adding parameter 2: W_hc
I0924 04:08:29.685806 20722 net.cpp:141] Setting up lstm1
I0924 04:08:29.685824 20722 net.cpp:148] Top shape: 1 1 1000 (1000)
I0924 04:08:29.685835 20722 net.cpp:156] Memory required for data: 26408
I0924 04:08:29.685863 20722 layer_factory.hpp:77] Creating layer concat
I0924 04:08:29.685883 20722 net.cpp:91] Creating Layer concat
I0924 04:08:29.685896 20722 net.cpp:425] concat <- lstm1
I0924 04:08:29.685909 20722 net.cpp:425] concat <- embedded_input_sentence
I0924 04:08:29.685922 20722 net.cpp:425] concat <- reshaped_stage_indicator
I0924 04:08:29.685937 20722 net.cpp:399] concat -> lstm1_video_sequence
I0924 04:08:29.685994 20722 net.cpp:141] Setting up concat
I0924 04:08:29.686012 20722 net.cpp:148] Top shape: 1 1 1501 (1501)
I0924 04:08:29.686022 20722 net.cpp:156] Memory required for data: 32412
I0924 04:08:29.686033 20722 layer_factory.hpp:77] Creating layer lstm2
I0924 04:08:29.686055 20722 net.cpp:91] Creating Layer lstm2
I0924 04:08:29.686069 20722 net.cpp:425] lstm2 <- lstm1_video_sequence
I0924 04:08:29.686080 20722 net.cpp:425] lstm2 <- cont_sentence_input_1_split_1
I0924 04:08:29.686096 20722 net.cpp:399] lstm2 -> lstm2
I0924 04:08:29.686117 20722 recurrent_layer.cpp:20] Initializing recurrent layer: assuming input batch contains 1 timesteps of 1 independent streams.
I0924 04:08:29.686578 20722 net.cpp:49] Initializing net from parameters: 
layer {
  name: "lstm2_"
  type: "Input"
  top: "x"
  top: "cont"
  input_param {
    shape {
      dim: 1
      dim: 1
      dim: 1501
    }
    shape {
      dim: 1
      dim: 1
    }
  }
}
layer {
  name: "lstm2_"
  type: "Input"
  top: "c_0"
  top: "h_0"
  input_param {
    shape {
      dim: 1
      dim: 1
      dim: 1000
    }
    shape {
      dim: 1
      dim: 1
      dim: 1000
    }
  }
}
layer {
  name: "lstm2_cont_slice"
  type: "Slice"
  bottom: "cont"
  top: "cont_1"
  slice_param {
    axis: 0
  }
}
layer {
  name: "lstm2_x_transform"
  type: "InnerProduct"
  bottom: "x"
  top: "W_xc_x"
  param {
    name: "W_xc"
  }
  param {
    name: "b_c"
  }
  propagate_down: true
  inner_product_param {
    num_output: 4000
    bias_term: true
    weight_filler {
      type: "uniform"
      min: -0.08
      max: 0.08
    }
    bias_filler {
      type: "constant"
      value: 0
    }
    axis: 2
  }
}
layer {
  name: "lstm2_W_xc_x_slice"
  type: "Slice"
  bottom: "W_xc_x"
  top: "W_xc_x_1"
  slice_param {
    axis: 0
  }
}
layer {
  name: "lstm2_h_conted_0"
  type: "Scale"
  bottom: "h_0"
  bottom: "cont_1"
  top: "h_conted_0"
  scale_param {
    axis: 0
  }
}
layer {
  name: "lstm2_transform_1"
  type: "InnerProduct"
  bottom: "h_conted_0"
  top: "W_hc_h_0"
  param {
    name: "W_hc"
  }
  inner_product_param {
    num_output: 4000
    bias_term: false
    weight_filler {
      type: "uniform"
      min: -0.08
      max: 0.08
    }
    axis: 2
  }
}
layer {
  name: "lstm2_gate_input_1"
  type: "Eltwise"
  bottom: "W_hc_h_0"
  bottom: "W_xc_x_1"
  top: "gate_input_1"
  eltwise_param {
    operation: SUM
  }
}
layer {
  name: "lstm2_unit_1"
  type: "LSTMUnit"
  bottom: "c_0"
  bottom: "gate_input_1"
  bottom: "cont_1"
  top: "c_1"
  top: "h_1"
}
layer {
  name: "lstm2_"
  type: "Split"
  bottom: "c_1"
  top: "c_T"
}
layer {
  name: "lstm2_h_concat"
  type: "Concat"
  bottom: "h_1"
  top: "h"
  concat_param {
    axis: 0
  }
}
layer {
  name: "h_pseudoloss"
  type: "Reduction"
  bottom: "h"
  top: "h_pseudoloss"
  loss_weight: 1
}
I0924 04:08:29.686772 20722 layer_factory.hpp:77] Creating layer lstm2_
I0924 04:08:29.686796 20722 net.cpp:91] Creating Layer lstm2_
I0924 04:08:29.686811 20722 net.cpp:399] lstm2_ -> x
I0924 04:08:29.686820 20674 net.cpp:141] Setting up embedding
I0924 04:08:29.686835 20722 net.cpp:399] lstm2_ -> cont
I0924 04:08:29.686872 20674 net.cpp:148] Top shape: 1 1 500 (500)
I0924 04:08:29.686878 20674 net.cpp:156] Memory required for data: 22408
I0924 04:08:29.686898 20674 layer_factory.hpp:77] Creating layer lstm1
I0924 04:08:29.686918 20674 net.cpp:91] Creating Layer lstm1
I0924 04:08:29.686926 20674 net.cpp:425] lstm1 <- embedded_input_frames
I0924 04:08:29.686935 20674 net.cpp:425] lstm1 <- cont_sentence_input_1_split_0
I0924 04:08:29.686945 20674 net.cpp:399] lstm1 -> lstm1
I0924 04:08:29.686964 20674 recurrent_layer.cpp:20] Initializing recurrent layer: assuming input batch contains 1 timesteps of 1 independent streams.
I0924 04:08:29.686978 20722 net.cpp:141] Setting up lstm2_
I0924 04:08:29.686998 20722 net.cpp:148] Top shape: 1 1 1501 (1501)
I0924 04:08:29.687011 20722 net.cpp:148] Top shape: 1 1 (1)
I0924 04:08:29.687019 20722 net.cpp:156] Memory required for data: 6008
I0924 04:08:29.687028 20722 layer_factory.hpp:77] Creating layer lstm2_
I0924 04:08:29.687049 20672 net.cpp:141] Setting up h_pseudoloss
I0924 04:08:29.687059 20722 net.cpp:91] Creating Layer lstm2_
I0924 04:08:29.687069 20672 net.cpp:148] Top shape: (1)
I0924 04:08:29.687072 20722 net.cpp:399] lstm2_ -> c_0
I0924 04:08:29.687079 20672 net.cpp:151]     with loss weight 1
…
I0924 04:08:29.687201 20672 net.cpp:261] This network produces output h_pseudoloss
I0924 04:08:29.687216 20672 net.cpp:274] Network initialization done.
I0924 04:08:29.687243 20674 net.cpp:49] Initializing net from parameters: 
layer {
  name: "lstm1_"
  type: "Input"
  top: "x"
  top: "cont"
  input_param {
    shape {
      dim: 1
      dim: 1
      dim: 500
    }
    shape {
      dim: 1
      dim: 1
    }
  }
}
layer {
  name: "lstm1_"
  type: "Input"
  top: "c_0"
  top: "h_0"
  input_param {
    shape {
      dim: 1
      dim: 1
      dim: 1000
    }
    shape {
      dim: 1
      dim: 1
      dim: 1000
    }
  }
}
layer {
  name: "lstm1_cont_slice"
  type: "Slice"
  bottom: "cont"
  top: "cont_1"
  slice_param {
    axis: 0
  }
}
layer {
  name: "lstm1_x_transform"
  type: "InnerProduct"
  bottom: "x"
  top: "W_xc_x"
  param {
    name: "W_xc"
  }
  param {
    name: "b_c"
  }
  propagate_down: true
  inner_product_param {
    num_output: 4000
    bias_term: true
    weight_filler {
      type: "uniform"
      min: -0.08
      max: 0.08
    }
    bias_filler {
      type: "constant"
      value: 0
    }
    axis: 2
  }
}
layer {
  name: "lstm1_W_xc_x_slice"
  type: "Slice"
  bottom: "W_xc_x"
  top: "W_xc_x_1"
  slice_param {
    axis: 0
  }
}
layer {
  name: "lstm1_h_conted_0"
  type: "Scale"
  bottom: "h_0"
  bottom: "cont_1"
  top: "h_conted_0"
  scale_param {
    axis: 0
  }
}
layer {
  name: "lstm1_transform_1"
  type: "InnerProduct"
  bottom: "h_conted_0"
  top: "W_hc_h_0"
  param {
    name: "W_hc"
  }
  inner_product_param {
    num_output: 4000
    bias_term: false
    weight_filler {
      type: "uniform"
      min: -0.08
      max: 0.08
    }
    axis: 2
  }
}
layer {
  name: "lstm1_gate_input_1"
  type: "Eltwise"
  bottom: "W_hc_h_0"
  bottom: "W_xc_x_1"
  top: "gate_input_1"
  eltwise_param {
    operation: SUM
  }
}
layer {
  name: "lstm1_unit_1"
  type: "LSTMUnit"
  bottom: "c_0"
  bottom: "gate_input_1"
  bottom: "cont_1"
  top: "c_1"
  top: "h_1"
}
layer {
  name: "lstm1_"
  type: "Split"
  bottom: "c_1"
  top: "c_T"
}
layer {
  name: "lstm1_h_concat"
  type: "Concat"
  bottom: "h_1"
  top: "h"
  concat_param {
    axis: 0
  }
}
layer {
  name: "h_pseudoloss"
  type: "Reduction"
  bottom: "h"
  top: "h_pseudoloss"
  loss_weight: 1
}
I0924 04:08:29.687273 20672 recurrent_layer.cpp:150] Adding parameter 0: W_xc
I0924 04:08:29.687283 20672 recurrent_layer.cpp:150] Adding parameter 1: b_c
I0924 04:08:29.687288 20672 recurrent_layer.cpp:150] Adding parameter 2: W_hc
I0924 04:08:29.687337 20674 layer_factory.hpp:77] Creating layer lstm1_
I0924 04:08:29.687350 20674 net.cpp:91] Creating Layer lstm1_
I0924 04:08:29.687356 20674 net.cpp:399] lstm1_ -> x
I0924 04:08:29.687368 20674 net.cpp:399] lstm1_ -> cont
I0924 04:08:29.687913 20674 net.cpp:141] Setting up lstm1_
I0924 04:08:29.687932 20674 net.cpp:148] Top shape: 1 1 500 (500)
I0924 04:08:29.687943 20674 net.cpp:148] Top shape: 1 1 (1)
I0924 04:08:29.687950 20674 net.cpp:156] Memory required for data: 2004
I0924 04:08:29.687960 20674 layer_factory.hpp:77] Creating layer lstm1_
I0924 04:08:29.687970 20672 net.cpp:141] Setting up lstm1
I0924 04:08:29.687978 20674 net.cpp:91] Creating Layer lstm1_
I0924 04:08:29.688005 20672 net.cpp:148] Top shape: 1 1 1000 (1000)
I0924 04:08:29.688016 20672 net.cpp:156] Memory required for data: 26408
I0924 04:08:29.688017 20674 net.cpp:399] lstm1_ -> c_0
I0924 04:08:29.688057 20672 layer_factory.hpp:77] Creating layer concat
I0924 04:08:29.688050 20674 net.cpp:399] lstm1_ -> h_0
I0924 04:08:29.688050 20722 net.cpp:141] Setting up lstm2_
I0924 04:08:29.688081 20672 net.cpp:91] Creating Layer concat
I0924 04:08:29.688093 20672 net.cpp:425] concat <- lstm1
I0924 04:08:29.688093 20722 net.cpp:148] Top shape: 1 1 1000 (1000)
I0924 04:08:29.688114 20672 net.cpp:425] concat <- embedded_input_sentence
I0924 04:08:29.688117 20722 net.cpp:148] Top shape: 1 1 1000 (1000)
I0924 04:08:29.688130 20722 net.cpp:156] Memory required for data: 14008
I0924 04:08:29.688129 20672 net.cpp:425] concat <- reshaped_stage_indicator
I0924 04:08:29.688145 20722 layer_factory.hpp:77] Creating layer lstm2_cont_slice
I0924 04:08:29.688158 20722 net.cpp:91] Creating Layer lstm2_cont_slice
I0924 04:08:29.688158 20672 net.cpp:399] concat -> lstm1_video_sequence
I0924 04:08:29.688165 20722 net.cpp:425] lstm2_cont_slice <- cont
I0924 04:08:29.688175 20722 net.cpp:399] lstm2_cont_slice -> cont_1
I0924 04:08:29.688415 20672 net.cpp:141] Setting up concat
I0924 04:08:29.688426 20672 net.cpp:148] Top shape: 1 1 1501 (1501)
I0924 04:08:29.688431 20672 net.cpp:156] Memory required for data: 32412
I0924 04:08:29.688436 20672 layer_factory.hpp:77] Creating layer lstm2
I0924 04:08:29.688449 20672 net.cpp:91] Creating Layer lstm2
I0924 04:08:29.688455 20672 net.cpp:425] lstm2 <- lstm1_video_sequence
I0924 04:08:29.688462 20672 net.cpp:425] lstm2 <- cont_sentence_input_1_split_1
I0924 04:08:29.688464 20722 net.cpp:141] Setting up lstm2_cont_slice
I0924 04:08:29.688470 20672 net.cpp:399] lstm2 -> lstm2
I0924 04:08:29.688477 20722 net.cpp:148] Top shape: 1 1 (1)
I0924 04:08:29.688482 20672 recurrent_layer.cpp:20] Initializing recurrent layer: assuming input batch contains 1 timesteps of 1 independent streams.
I0924 04:08:29.688483 20722 net.cpp:156] Memory required for data: 14012
I0924 04:08:29.688496 20722 layer_factory.hpp:77] Creating layer cont_1_lstm2_cont_slice_0_split
I0924 04:08:29.688505 20722 net.cpp:91] Creating Layer cont_1_lstm2_cont_slice_0_split
I0924 04:08:29.688511 20722 net.cpp:425] cont_1_lstm2_cont_slice_0_split <- cont_1
I0924 04:08:29.688513 20674 net.cpp:141] Setting up lstm1_
I0924 04:08:29.688529 20674 net.cpp:148] Top shape: 1 1 1000 (1000)
I0924 04:08:29.688534 20722 net.cpp:399] cont_1_lstm2_cont_slice_0_split -> cont_1_lstm2_cont_slice_0_split_0
I0924 04:08:29.688535 20674 net.cpp:148] Top shape: 1 1 1000 (1000)
I0924 04:08:29.688549 20722 net.cpp:399] cont_1_lstm2_cont_slice_0_split -> cont_1_lstm2_cont_slice_0_split_1
I0924 04:08:29.688550 20674 net.cpp:156] Memory required for data: 10004
I0924 04:08:29.688557 20674 layer_factory.hpp:77] Creating layer lstm1_cont_slice
I0924 04:08:29.688571 20674 net.cpp:91] Creating Layer lstm1_cont_slice
I0924 04:08:29.688577 20674 net.cpp:425] lstm1_cont_slice <- cont
I0924 04:08:29.688585 20674 net.cpp:399] lstm1_cont_slice -> cont_1
I0924 04:08:29.688765 20672 net.cpp:49] Initializing net from parameters: 
layer {
  name: "lstm2_"
  type: "Input"
  top: "x"
  top: "cont"
  input_param {
    shape {
      dim: 1
      dim: 1
      dim: 1501
    }
    shape {
      dim: 1
      dim: 1
    }
  }
}
layer {
  name: "lstm2_"
  type: "Input"
  top: "c_0"
  top: "h_0"
  input_param {
    shape {
      dim: 1
      dim: 1
      dim: 1000
    }
    shape {
      dim: 1
      dim: 1
      dim: 1000
    }
  }
}
layer {
  name: "lstm2_cont_slice"
  type: "Slice"
  bottom: "cont"
  top: "cont_1"
  slice_param {
    axis: 0
  }
}
layer {
  name: "lstm2_x_transform"
  type: "InnerProduct"
  bottom: "x"
  top: "W_xc_x"
  param {
    name: "W_xc"
  }
  param {
    name: "b_c"
  }
  propagate_down: true
  inner_product_param {
    num_output: 4000
    bias_term: true
    weight_filler {
      type: "uniform"
      min: -0.08
      max: 0.08
    }
    bias_filler {
      type: "constant"
      value: 0
    }
    axis: 2
  }
}
layer {
  name: "lstm2_W_xc_x_slice"
  type: "Slice"
  bottom: "W_xc_x"
  top: "W_xc_x_1"
  slice_param {
    axis: 0
  }
}
layer {
  name: "lstm2_h_conted_0"
  type: "Scale"
  bottom: "h_0"
  bottom: "cont_1"
  top: "h_conted_0"
  scale_param {
    axis: 0
  }
}
layer {
  name: "lstm2_transform_1"
  type: "InnerProduct"
  bottom: "h_conted_0"
  top: "W_hc_h_0"
  param {
    name: "W_hc"
  }
  inner_product_param {
    num_output: 4000
    bias_term: false
    weight_filler {
      type: "uniform"
      min: -0.08
      max: 0.08
    }
    axis: 2
  }
}
layer {
  name: "lstm2_gate_input_1"
  type: "Eltwise"
  bottom: "W_hc_h_0"
  bottom: "W_xc_x_1"
  top: "gate_input_1"
  eltwise_param {
    operation: SUM
  }
}
layer {
  name: "lstm2_unit_1"
  type: "LSTMUnit"
  bottom: "c_0"
  bottom: "gate_input_1"
  bottom: "cont_1"
  top: "c_1"
  top: "h_1"
}
layer {
  name: "lstm2_"
  type: "Split"
  bottom: "c_1"
  top: "c_T"
}
layer {
  name: "lstm2_h_concat"
  type: "Concat"
  bottom: "h_1"
  top: "h"
  concat_param {
    axis: 0
  }
}
layer {
  name: "h_pseudoloss"
  type: "Reduction"
  bottom: "h"
  top: "h_pseudoloss"
  loss_weight: 1
}
I0924 04:08:29.688889 20672 layer_factory.hpp:77] Creating layer lstm2_
I0924 04:08:29.688907 20672 net.cpp:91] Creating Layer lstm2_
I0924 04:08:29.688917 20672 net.cpp:399] lstm2_ -> x
I0924 04:08:29.688933 20672 net.cpp:399] lstm2_ -> cont
I0924 04:08:29.695019 20674 net.cpp:141] Setting up lstm1_cont_slice
I0924 04:08:29.695075 20674 net.cpp:148] Top shape: 1 1 (1)
I0924 04:08:29.695082 20674 net.cpp:156] Memory required for data: 10008
I0924 04:08:29.695092 20674 layer_factory.hpp:77] Creating layer cont_1_lstm1_cont_slice_0_split
I0924 04:08:29.695111 20674 net.cpp:91] Creating Layer cont_1_lstm1_cont_slice_0_split
I0924 04:08:29.695118 20674 net.cpp:425] cont_1_lstm1_cont_slice_0_split <- cont_1
I0924 04:08:29.695142 20674 net.cpp:399] cont_1_lstm1_cont_slice_0_split -> cont_1_lstm1_cont_slice_0_split_0
I0924 04:08:29.695160 20674 net.cpp:399] cont_1_lstm1_cont_slice_0_split -> cont_1_lstm1_cont_slice_0_split_1
I0924 04:08:29.695171 20722 net.cpp:141] Setting up cont_1_lstm2_cont_slice_0_split
I0924 04:08:29.695171 20672 net.cpp:141] Setting up lstm2_
I0924 04:08:29.695219 20722 net.cpp:148] Top shape: 1 1 (1)
I0924 04:08:29.695220 20672 net.cpp:148] Top shape: 1 1 1501 (1501)
I0924 04:08:29.695237 20722 net.cpp:148] Top shape: 1 1 (1)
I0924 04:08:29.695245 20722 net.cpp:156] Memory required for data: 14020
I0924 04:08:29.695248 20672 net.cpp:148] Top shape: 1 1 (1)
I0924 04:08:29.695252 20722 layer_factory.hpp:77] Creating layer lstm2_x_transform
I0924 04:08:29.695256 20672 net.cpp:156] Memory required for data: 6008
I0924 04:08:29.695266 20672 layer_factory.hpp:77] Creating layer lstm2_
I0924 04:08:29.695288 20722 net.cpp:91] Creating Layer lstm2_x_transform
I0924 04:08:29.695289 20672 net.cpp:91] Creating Layer lstm2_
I0924 04:08:29.695297 20722 net.cpp:425] lstm2_x_transform <- x
I0924 04:08:29.695318 20722 net.cpp:399] lstm2_x_transform -> W_xc_x
I0924 04:08:29.695327 20672 net.cpp:399] lstm2_ -> c_0
I0924 04:08:29.695348 20672 net.cpp:399] lstm2_ -> h_0
I0924 04:08:29.708010 20674 net.cpp:141] Setting up cont_1_lstm1_cont_slice_0_split
I0924 04:08:29.708065 20674 net.cpp:148] Top shape: 1 1 (1)
I0924 04:08:29.708076 20674 net.cpp:148] Top shape: 1 1 (1)
I0924 04:08:29.708084 20674 net.cpp:156] Memory required for data: 10016
I0924 04:08:29.708096 20674 layer_factory.hpp:77] Creating layer lstm1_x_transform
I0924 04:08:29.708147 20674 net.cpp:91] Creating Layer lstm1_x_transform
I0924 04:08:29.708159 20674 net.cpp:425] lstm1_x_transform <- x
I0924 04:08:29.708178 20674 net.cpp:399] lstm1_x_transform -> W_xc_x
I0924 04:08:29.713958 20668 net.cpp:141] Setting up lstm1_transform_1
I0924 04:08:29.714010 20668 net.cpp:148] Top shape: 1 1 4000 (4000)
I0924 04:08:29.714018 20668 net.cpp:156] Memory required for data: 62016
I0924 04:08:29.714043 20668 layer_factory.hpp:77] Creating layer lstm1_gate_input_1
I0924 04:08:29.714067 20668 net.cpp:91] Creating Layer lstm1_gate_input_1
I0924 04:08:29.714078 20668 net.cpp:425] lstm1_gate_input_1 <- W_hc_h_0
I0924 04:08:29.714090 20668 net.cpp:425] lstm1_gate_input_1 <- W_xc_x_1
I0924 04:08:29.714107 20668 net.cpp:399] lstm1_gate_input_1 -> gate_input_1
I0924 04:08:29.728649 20672 net.cpp:141] Setting up lstm2_
I0924 04:08:29.728704 20672 net.cpp:148] Top shape: 1 1 1000 (1000)
I0924 04:08:29.728716 20672 net.cpp:148] Top shape: 1 1 1000 (1000)
I0924 04:08:29.728724 20672 net.cpp:156] Memory required for data: 14008
I0924 04:08:29.728735 20672 layer_factory.hpp:77] Creating layer lstm2_cont_slice
I0924 04:08:29.728762 20672 net.cpp:91] Creating Layer lstm2_cont_slice
I0924 04:08:29.728772 20672 net.cpp:425] lstm2_cont_slice <- cont
I0924 04:08:29.728788 20672 net.cpp:399] lstm2_cont_slice -> cont_1
I0924 04:08:29.728827 20710 net.cpp:141] Setting up lstm1_transform_1
I0924 04:08:29.728862 20668 net.cpp:141] Setting up lstm1_gate_input_1
I0924 04:08:29.728875 20710 net.cpp:148] Top shape: 1 1 4000 (4000)
I0924 04:08:29.728888 20710 net.cpp:156] Memory required for data: 62016
I0924 04:08:29.728888 20668 net.cpp:148] Top shape: 1 1 4000 (4000)
I0924 04:08:29.728912 20668 net.cpp:156] Memory required for data: 78016
I0924 04:08:29.728921 20710 layer_factory.hpp:77] Creating layer lstm1_gate_input_1
I0924 04:08:29.728924 20668 layer_factory.hpp:77] Creating layer lstm1_unit_1
I0924 04:08:29.728950 20678 net.cpp:141] Setting up lstm1_transform_1
I0924 04:08:29.728955 20710 net.cpp:91] Creating Layer lstm1_gate_input_1
I0924 04:08:29.728955 20668 net.cpp:91] Creating Layer lstm1_unit_1
I0924 04:08:29.728970 20710 net.cpp:425] lstm1_gate_input_1 <- W_hc_h_0
I0924 04:08:29.728971 20668 net.cpp:425] lstm1_unit_1 <- c_0
I0924 04:08:29.728972 20678 net.cpp:148] Top shape: 1 1 4000 (4000)
I0924 04:08:29.728991 20668 net.cpp:425] lstm1_unit_1 <- gate_input_1
I0924 04:08:29.728982 20710 net.cpp:425] lstm1_gate_input_1 <- W_xc_x_1
I0924 04:08:29.728998 20678 net.cpp:156] Memory required for data: 62016
I0924 04:08:29.729001 20668 net.cpp:425] lstm1_unit_1 <- cont_1_lstm1_cont_slice_0_split_1
I0924 04:08:29.729012 20710 net.cpp:399] lstm1_gate_input_1 -> gate_input_1
I0924 04:08:29.729020 20668 net.cpp:399] lstm1_unit_1 -> c_1
I0924 04:08:29.729022 20672 net.cpp:141] Setting up lstm2_cont_slice
I0924 04:08:29.729020 20678 layer_factory.hpp:77] Creating layer lstm1_gate_input_1
I0924 04:08:29.729043 20668 net.cpp:399] lstm1_unit_1 -> h_1
I0924 04:08:29.729058 20678 net.cpp:91] Creating Layer lstm1_gate_input_1
I0924 04:08:29.729070 20678 net.cpp:425] lstm1_gate_input_1 <- W_hc_h_0
I0924 04:08:29.729043 20672 net.cpp:148] Top shape: 1 1 (1)
I0924 04:08:29.729082 20678 net.cpp:425] lstm1_gate_input_1 <- W_xc_x_1
I0924 04:08:29.729090 20672 net.cpp:156] Memory required for data: 14012
I0924 04:08:29.729097 20678 net.cpp:399] lstm1_gate_input_1 -> gate_input_1
I0924 04:08:29.729100 20672 layer_factory.hpp:77] Creating layer cont_1_lstm2_cont_slice_0_split
I0924 04:08:29.729120 20672 net.cpp:91] Creating Layer cont_1_lstm2_cont_slice_0_split
I0924 04:08:29.729128 20672 net.cpp:425] cont_1_lstm2_cont_slice_0_split <- cont_1
I0924 04:08:29.729140 20672 net.cpp:399] cont_1_lstm2_cont_slice_0_split -> cont_1_lstm2_cont_slice_0_split_0
I0924 04:08:29.729156 20672 net.cpp:399] cont_1_lstm2_cont_slice_0_split -> cont_1_lstm2_cont_slice_0_split_1
I0924 04:08:29.729168 20692 net.cpp:141] Setting up lstm1_x_transform
I0924 04:08:29.729188 20692 net.cpp:148] Top shape: 1 1 4000 (4000)
I0924 04:08:29.729197 20692 net.cpp:156] Memory required for data: 26016
I0924 04:08:29.729218 20692 layer_factory.hpp:77] Creating layer lstm1_W_xc_x_slice
I0924 04:08:29.729233 20692 net.cpp:91] Creating Layer lstm1_W_xc_x_slice
I0924 04:08:29.729243 20692 net.cpp:425] lstm1_W_xc_x_slice <- W_xc_x
I0924 04:08:29.729255 20692 net.cpp:399] lstm1_W_xc_x_slice -> W_xc_x_1
I0924 04:08:29.729280 20710 net.cpp:141] Setting up lstm1_gate_input_1
I0924 04:08:29.729297 20710 net.cpp:148] Top shape: 1 1 4000 (4000)
I0924 04:08:29.729305 20710 net.cpp:156] Memory required for data: 78016
I0924 04:08:29.729312 20710 layer_factory.hpp:77] Creating layer lstm1_unit_1
I0924 04:08:29.729331 20710 net.cpp:91] Creating Layer lstm1_unit_1
I0924 04:08:29.729342 20710 net.cpp:425] lstm1_unit_1 <- c_0
I0924 04:08:29.729352 20710 net.cpp:425] lstm1_unit_1 <- gate_input_1
I0924 04:08:29.729362 20710 net.cpp:425] lstm1_unit_1 <- cont_1_lstm1_cont_slice_0_split_1
I0924 04:08:29.729372 20668 net.cpp:141] Setting up lstm1_unit_1
I0924 04:08:29.729373 20710 net.cpp:399] lstm1_unit_1 -> c_1
I0924 04:08:29.729390 20668 net.cpp:148] Top shape: 1 1 1000 (1000)
I0924 04:08:29.729409 20668 net.cpp:148] Top shape: 1 1 1000 (1000)
I0924 04:08:29.729409 20710 net.cpp:399] lstm1_unit_1 -> h_1
I0924 04:08:29.729414 20692 net.cpp:141] Setting up lstm1_W_xc_x_slice
I0924 04:08:29.729418 20668 net.cpp:156] Memory required for data: 86016
I0924 04:08:29.729434 20692 net.cpp:148] Top shape: 1 1 4000 (4000)
I0924 04:08:29.729435 20668 layer_factory.hpp:77] Creating layer lstm1_
I0924 04:08:29.729441 20692 net.cpp:156] Memory required for data: 42016
I0924 04:08:29.729449 20668 net.cpp:91] Creating Layer lstm1_
I0924 04:08:29.729450 20692 layer_factory.hpp:77] Creating layer lstm1_h_conted_0
I0924 04:08:29.729465 20668 net.cpp:425] lstm1_ <- c_1
I0924 04:08:29.729476 20692 net.cpp:91] Creating Layer lstm1_h_conted_0
I0924 04:08:29.729480 20668 net.cpp:399] lstm1_ -> c_T
I0924 04:08:29.729485 20692 net.cpp:425] lstm1_h_conted_0 <- h_0
I0924 04:08:29.729490 20672 net.cpp:141] Setting up cont_1_lstm2_cont_slice_0_split
I0924 04:08:29.729496 20692 net.cpp:425] lstm1_h_conted_0 <- cont_1_lstm1_cont_slice_0_split_0
I0924 04:08:29.729508 20672 net.cpp:148] Top shape: 1 1 (1)
I0924 04:08:29.729508 20692 net.cpp:399] lstm1_h_conted_0 -> h_conted_0
I0924 04:08:29.729522 20672 net.cpp:148] Top shape: 1 1 (1)
I0924 04:08:29.729534 20672 net.cpp:156] Memory required for data: 14020
I0924 04:08:29.729544 20672 layer_factory.hpp:77] Creating layer lstm2_x_transform
I0924 04:08:29.729569 20672 net.cpp:91] Creating Layer lstm2_x_transform
I0924 04:08:29.729576 20672 net.cpp:425] lstm2_x_transform <- x
I0924 04:08:29.729585 20672 net.cpp:399] lstm2_x_transform -> W_xc_x
I0924 04:08:29.729612 20678 net.cpp:141] Setting up lstm1_gate_input_1
I0924 04:08:29.729621 20678 net.cpp:148] Top shape: 1 1 4000 (4000)
I0924 04:08:29.729625 20678 net.cpp:156] Memory required for data: 78016
I0924 04:08:29.729630 20678 layer_factory.hpp:77] Creating layer lstm1_unit_1
I0924 04:08:29.729631 20710 net.cpp:141] Setting up lstm1_unit_1
I0924 04:08:29.729638 20678 net.cpp:91] Creating Layer lstm1_unit_1
I0924 04:08:29.729655 20678 net.cpp:425] lstm1_unit_1 <- c_0
I0924 04:08:29.729653 20710 net.cpp:148] Top shape: 1 1 1000 (1000)
I0924 04:08:29.729667 20678 net.cpp:425] lstm1_unit_1 <- gate_input_1
I0924 04:08:29.729682 20710 net.cpp:148] Top shape: 1 1 1000 (1000)
I0924 04:08:29.729691 20678 net.cpp:425] lstm1_unit_1 <- cont_1_lstm1_cont_slice_0_split_1
I0924 04:08:29.729692 20710 net.cpp:156] Memory required for data: 86016
I0924 04:08:29.729709 20678 net.cpp:399] lstm1_unit_1 -> c_1
I0924 04:08:29.729714 20710 layer_factory.hpp:77] Creating layer lstm1_
I0924 04:08:29.729725 20668 net.cpp:141] Setting up lstm1_
I0924 04:08:29.729730 20710 net.cpp:91] Creating Layer lstm1_
I0924 04:08:29.729743 20710 net.cpp:425] lstm1_ <- c_1
I0924 04:08:29.729743 20668 net.cpp:148] Top shape: 1 1 1000 (1000)
I0924 04:08:29.729754 20668 net.cpp:156] Memory required for data: 90016
I0924 04:08:29.729755 20710 net.cpp:399] lstm1_ -> c_T
I0924 04:08:29.729763 20668 layer_factory.hpp:77] Creating layer lstm1_h_concat
I0924 04:08:29.729784 20668 net.cpp:91] Creating Layer lstm1_h_concat
I0924 04:08:29.729794 20668 net.cpp:425] lstm1_h_concat <- h_1
I0924 04:08:29.729807 20668 net.cpp:399] lstm1_h_concat -> h
I0924 04:08:29.729727 20678 net.cpp:399] lstm1_unit_1 -> h_1
I0924 04:08:29.741199 20710 net.cpp:141] Setting up lstm1_
I0924 04:08:29.741261 20710 net.cpp:148] Top shape: 1 1 1000 (1000)
I0924 04:08:29.741271 20710 net.cpp:156] Memory required for data: 90016
I0924 04:08:29.741284 20710 layer_factory.hpp:77] Creating layer lstm1_h_concat
I0924 04:08:29.741319 20710 net.cpp:91] Creating Layer lstm1_h_concat
I0924 04:08:29.741330 20710 net.cpp:425] lstm1_h_concat <- h_1
I0924 04:08:29.741348 20710 net.cpp:399] lstm1_h_concat -> h
I0924 04:08:29.741413 20692 net.cpp:141] Setting up lstm1_h_conted_0
I0924 04:08:29.741451 20692 net.cpp:148] Top shape: 1 1 1000 (1000)
I0924 04:08:29.741458 20692 net.cpp:156] Memory required for data: 46016
I0924 04:08:29.741469 20692 layer_factory.hpp:77] Creating layer lstm1_transform_1
I0924 04:08:29.741495 20692 net.cpp:91] Creating Layer lstm1_transform_1
I0924 04:08:29.741505 20692 net.cpp:425] lstm1_transform_1 <- h_conted_0
I0924 04:08:29.741521 20692 net.cpp:399] lstm1_transform_1 -> W_hc_h_0
I0924 04:08:29.752084 20668 net.cpp:141] Setting up lstm1_h_concat
I0924 04:08:29.752157 20668 net.cpp:148] Top shape: 1 1 1000 (1000)
I0924 04:08:29.752177 20668 net.cpp:156] Memory required for data: 94016
I0924 04:08:29.752197 20668 layer_factory.hpp:77] Creating layer h_pseudoloss
I0924 04:08:29.752230 20668 net.cpp:91] Creating Layer h_pseudoloss
I0924 04:08:29.752250 20668 net.cpp:425] h_pseudoloss <- h
I0924 04:08:29.752287 20668 net.cpp:399] h_pseudoloss -> h_pseudoloss
I0924 04:08:29.752568 20668 net.cpp:141] Setting up h_pseudoloss
…
I0924 04:08:29.752871 20668 net.cpp:219] lstm1_ does not need backward computation.
I0924 04:08:29.752884 20668 net.cpp:261] This network produces output c_T
I0924 04:08:29.752899 20668 net.cpp:261] This network produces output h_pseudoloss
I0924 04:08:29.752946 20668 net.cpp:274] Network initialization done.
I0924 04:08:29.753059 20668 recurrent_layer.cpp:150] Adding parameter 0: W_xc
I0924 04:08:29.753078 20668 recurrent_layer.cpp:150] Adding parameter 1: b_c
I0924 04:08:29.753093 20668 recurrent_layer.cpp:150] Adding parameter 2: W_hc
I0924 04:08:29.753360 20668 net.cpp:141] Setting up lstm1
I0924 04:08:29.753388 20668 net.cpp:148] Top shape: 1 1 1000 (1000)
I0924 04:08:29.753403 20668 net.cpp:156] Memory required for data: 26408
I0924 04:08:29.753443 20668 layer_factory.hpp:77] Creating layer concat
I0924 04:08:29.753473 20668 net.cpp:91] Creating Layer concat
I0924 04:08:29.753494 20668 net.cpp:425] concat <- lstm1
I0924 04:08:29.753512 20668 net.cpp:425] concat <- embedded_input_sentence
I0924 04:08:29.753531 20668 net.cpp:425] concat <- reshaped_stage_indicator
I0924 04:08:29.753554 20668 net.cpp:399] concat -> lstm1_video_sequence
I0924 04:08:29.753653 20668 net.cpp:141] Setting up concat
I0924 04:08:29.753677 20668 net.cpp:148] Top shape: 1 1 1501 (1501)
I0924 04:08:29.753692 20668 net.cpp:156] Memory required for data: 32412
I0924 04:08:29.753707 20668 layer_factory.hpp:77] Creating layer lstm2
I0924 04:08:29.753738 20668 net.cpp:91] Creating Layer lstm2
I0924 04:08:29.753757 20668 net.cpp:425] lstm2 <- lstm1_video_sequence
I0924 04:08:29.753777 20668 net.cpp:425] lstm2 <- cont_sentence_input_1_split_1
I0924 04:08:29.753800 20668 net.cpp:399] lstm2 -> lstm2
I0924 04:08:29.753829 20668 recurrent_layer.cpp:20] Initializing recurrent layer: assuming input batch contains 1 timesteps of 1 independent streams.
I0924 04:08:29.754335 20668 net.cpp:49] Initializing net from parameters: 
layer {
  name: "lstm2_"
  type: "Input"
  top: "x"
  top: "cont"
  input_param {
    shape {
      dim: 1
      dim: 1
      dim: 1501
    }
    shape {
      dim: 1
      dim: 1
    }
  }
}
layer {
  name: "lstm2_"
  type: "Input"
  top: "c_0"
  top: "h_0"
  input_param {
    shape {
      dim: 1
      dim: 1
      dim: 1000
    }
    shape {
      dim: 1
      dim: 1
      dim: 1000
    }
  }
}
layer {
  name: "lstm2_cont_slice"
  type: "Slice"
  bottom: "cont"
  top: "cont_1"
  slice_param {
    axis: 0
  }
}
layer {
  name: "lstm2_x_transform"
  type: "InnerProduct"
  bottom: "x"
  top: "W_xc_x"
  param {
    name: "W_xc"
  }
  param {
    name: "b_c"
  }
  propagate_down: true
  inner_product_param {
    num_output: 4000
    bias_term: true
    weight_filler {
      type: "uniform"
      min: -0.08
      max: 0.08
    }
    bias_filler {
      type: "constant"
      value: 0
    }
    axis: 2
  }
}
layer {
  name: "lstm2_W_xc_x_slice"
  type: "Slice"
  bottom: "W_xc_x"
  top: "W_xc_x_1"
  slice_param {
    axis: 0
  }
}
layer {
  name: "lstm2_h_conted_0"
  type: "Scale"
  bottom: "h_0"
  bottom: "cont_1"
  top: "h_conted_0"
  scale_param {
    axis: 0
  }
}
layer {
  name: "lstm2_transform_1"
  type: "InnerProduct"
  bottom: "h_conted_0"
  top: "W_hc_h_0"
  param {
    name: "W_hc"
  }
  inner_product_param {
    num_output: 4000
    bias_term: false
    weight_filler {
      type: "uniform"
      min: -0.08
      max: 0.08
    }
    axis: 2
  }
}
layer {
  name: "lstm2_gate_input_1"
  type: "Eltwise"
  bottom: "W_hc_h_0"
  bottom: "W_xc_x_1"
  top: "gate_input_1"
  eltwise_param {
    operation: SUM
  }
}
layer {
  name: "lstm2_unit_1"
  type: "LSTMUnit"
  bottom: "c_0"
  bottom: "gate_input_1"
  bottom: "cont_1"
  top: "c_1"
  top: "h_1"
}
layer {
  name: "lstm2_"
  type: "Split"
  bottom: "c_1"
  top: "c_T"
}
layer {
  name: "lstm2_h_concat"
  type: "Concat"
  bottom: "h_1"
  top: "h"
  concat_param {
    axis: 0
  }
}
layer {
  name: "h_pseudoloss"
  type: "Reduction"
  bottom: "h"
  top: "h_pseudoloss"
  loss_weight: 1
}
I0924 04:08:29.754472 20668 layer_factory.hpp:77] Creating layer lstm2_
I0924 04:08:29.754492 20668 net.cpp:91] Creating Layer lstm2_
I0924 04:08:29.754504 20668 net.cpp:399] lstm2_ -> x
I0924 04:08:29.754524 20668 net.cpp:399] lstm2_ -> cont
I0924 04:08:29.754619 20668 net.cpp:141] Setting up lstm2_
I0924 04:08:29.754637 20668 net.cpp:148] Top shape: 1 1 1501 (1501)
I0924 04:08:29.754647 20668 net.cpp:148] Top shape: 1 1 (1)
I0924 04:08:29.754657 20668 net.cpp:156] Memory required for data: 6008
I0924 04:08:29.754664 20668 layer_factory.hpp:77] Creating layer lstm2_
I0924 04:08:29.754679 20668 net.cpp:91] Creating Layer lstm2_
I0924 04:08:29.754691 20668 net.cpp:399] lstm2_ -> c_0
I0924 04:08:29.754710 20668 net.cpp:399] lstm2_ -> h_0
I0924 04:08:29.754762 20710 net.cpp:141] Setting up lstm1_h_concat
I0924 04:08:29.754786 20710 net.cpp:148] Top shape: 1 1 1000 (1000)
I0924 04:08:29.754793 20710 net.cpp:156] Memory required for data: 94016
I0924 04:08:29.754801 20710 layer_factory.hpp:77] Creating layer h_pseudoloss
I0924 04:08:29.754817 20710 net.cpp:91] Creating Layer h_pseudoloss
I0924 04:08:29.754830 20710 net.cpp:425] h_pseudoloss <- h
I0924 04:08:29.754847 20710 net.cpp:399] h_pseudoloss -> h_pseudoloss
I0924 04:08:29.754971 20710 net.cpp:141] Setting up h_pseudoloss
…
I0924 04:08:29.755125 20710 net.cpp:219] lstm1_ does not need backward computation.
I0924 04:08:29.755132 20710 net.cpp:261] This network produces output c_T
I0924 04:08:29.755141 20710 net.cpp:261] This network produces output h_pseudoloss
I0924 04:08:29.755172 20710 net.cpp:274] Network initialization done.
I0924 04:08:29.755242 20710 recurrent_layer.cpp:150] Adding parameter 0: W_xc
I0924 04:08:29.755252 20710 recurrent_layer.cpp:150] Adding parameter 1: b_c
I0924 04:08:29.755259 20710 recurrent_layer.cpp:150] Adding parameter 2: W_hc
I0924 04:08:29.755414 20710 net.cpp:141] Setting up lstm1
I0924 04:08:29.755429 20710 net.cpp:148] Top shape: 1 1 1000 (1000)
I0924 04:08:29.755439 20710 net.cpp:156] Memory required for data: 26408
I0924 04:08:29.755461 20710 layer_factory.hpp:77] Creating layer concat
I0924 04:08:29.755476 20710 net.cpp:91] Creating Layer concat
I0924 04:08:29.755487 20710 net.cpp:425] concat <- lstm1
I0924 04:08:29.755498 20710 net.cpp:425] concat <- embedded_input_sentence
I0924 04:08:29.755508 20710 net.cpp:425] concat <- reshaped_stage_indicator
I0924 04:08:29.755519 20710 net.cpp:399] concat -> lstm1_video_sequence
I0924 04:08:29.755568 20710 net.cpp:141] Setting up concat
I0924 04:08:29.755580 20710 net.cpp:148] Top shape: 1 1 1501 (1501)
I0924 04:08:29.755586 20710 net.cpp:156] Memory required for data: 32412
I0924 04:08:29.755594 20710 layer_factory.hpp:77] Creating layer lstm2
I0924 04:08:29.755610 20710 net.cpp:91] Creating Layer lstm2
I0924 04:08:29.755619 20710 net.cpp:425] lstm2 <- lstm1_video_sequence
I0924 04:08:29.755628 20710 net.cpp:425] lstm2 <- cont_sentence_input_1_split_1
I0924 04:08:29.755640 20710 net.cpp:399] lstm2 -> lstm2
I0924 04:08:29.755653 20710 recurrent_layer.cpp:20] Initializing recurrent layer: assuming input batch contains 1 timesteps of 1 independent streams.
I0924 04:08:29.755945 20710 net.cpp:49] Initializing net from parameters: 
layer {
  name: "lstm2_"
  type: "Input"
  top: "x"
  top: "cont"
  input_param {
    shape {
      dim: 1
      dim: 1
      dim: 1501
    }
    shape {
      dim: 1
      dim: 1
    }
  }
}
layer {
  name: "lstm2_"
  type: "Input"
  top: "c_0"
  top: "h_0"
  input_param {
    shape {
      dim: 1
      dim: 1
      dim: 1000
    }
    shape {
      dim: 1
      dim: 1
      dim: 1000
    }
  }
}
layer {
  name: "lstm2_cont_slice"
  type: "Slice"
  bottom: "cont"
  top: "cont_1"
  slice_param {
    axis: 0
  }
}
layer {
  name: "lstm2_x_transform"
  type: "InnerProduct"
  bottom: "x"
  top: "W_xc_x"
  param {
    name: "W_xc"
  }
  param {
    name: "b_c"
  }
  propagate_down: true
  inner_product_param {
    num_output: 4000
    bias_term: true
    weight_filler {
      type: "uniform"
      min: -0.08
      max: 0.08
    }
    bias_filler {
      type: "constant"
      value: 0
    }
    axis: 2
  }
}
layer {
  name: "lstm2_W_xc_x_slice"
  type: "Slice"
  bottom: "W_xc_x"
  top: "W_xc_x_1"
  slice_param {
    axis: 0
  }
}
layer {
  name: "lstm2_h_conted_0"
  type: "Scale"
  bottom: "h_0"
  bottom: "cont_1"
  top: "h_conted_0"
  scale_param {
    axis: 0
  }
}
layer {
  name: "lstm2_transform_1"
  type: "InnerProduct"
  bottom: "h_conted_0"
  top: "W_hc_h_0"
  param {
    name: "W_hc"
  }
  inner_product_param {
    num_output: 4000
    bias_term: false
    weight_filler {
      type: "uniform"
      min: -0.08
      max: 0.08
    }
    axis: 2
  }
}
layer {
  name: "lstm2_gate_input_1"
  type: "Eltwise"
  bottom: "W_hc_h_0"
  bottom: "W_xc_x_1"
  top: "gate_input_1"
  eltwise_param {
    operation: SUM
  }
}
layer {
  name: "lstm2_unit_1"
  type: "LSTMUnit"
  bottom: "c_0"
  bottom: "gate_input_1"
  bottom: "cont_1"
  top: "c_1"
  top: "h_1"
}
layer {
  name: "lstm2_"
  type: "Split"
  bottom: "c_1"
  top: "c_T"
}
layer {
  name: "lstm2_h_concat"
  type: "Concat"
  bottom: "h_1"
  top: "h"
  concat_param {
    axis: 0
  }
}
layer {
  name: "h_pseudoloss"
  type: "Reduction"
  bottom: "h"
  top: "h_pseudoloss"
  loss_weight: 1
}
I0924 04:08:29.756065 20710 layer_factory.hpp:77] Creating layer lstm2_
I0924 04:08:29.756081 20710 net.cpp:91] Creating Layer lstm2_
I0924 04:08:29.756090 20710 net.cpp:399] lstm2_ -> x
I0924 04:08:29.756109 20710 net.cpp:399] lstm2_ -> cont
I0924 04:08:29.756186 20710 net.cpp:141] Setting up lstm2_
I0924 04:08:29.756204 20710 net.cpp:148] Top shape: 1 1 1501 (1501)
I0924 04:08:29.756214 20710 net.cpp:148] Top shape: 1 1 (1)
I0924 04:08:29.756222 20710 net.cpp:156] Memory required for data: 6008
I0924 04:08:29.756230 20710 layer_factory.hpp:77] Creating layer lstm2_
I0924 04:08:29.756243 20710 net.cpp:91] Creating Layer lstm2_
I0924 04:08:29.756254 20710 net.cpp:399] lstm2_ -> c_0
I0924 04:08:29.756273 20710 net.cpp:399] lstm2_ -> h_0
I0924 04:08:29.756347 20710 net.cpp:141] Setting up lstm2_
I0924 04:08:29.756364 20710 net.cpp:148] Top shape: 1 1 1000 (1000)
I0924 04:08:29.756376 20710 net.cpp:148] Top shape: 1 1 1000 (1000)
I0924 04:08:29.756382 20710 net.cpp:156] Memory required for data: 14008
I0924 04:08:29.756392 20710 layer_factory.hpp:77] Creating layer lstm2_cont_slice
I0924 04:08:29.756404 20710 net.cpp:91] Creating Layer lstm2_cont_slice
I0924 04:08:29.756412 20710 net.cpp:425] lstm2_cont_slice <- cont
I0924 04:08:29.756429 20710 net.cpp:399] lstm2_cont_slice -> cont_1
I0924 04:08:29.756479 20710 net.cpp:141] Setting up lstm2_cont_slice
I0924 04:08:29.756492 20710 net.cpp:148] Top shape: 1 1 (1)
I0924 04:08:29.756500 20710 net.cpp:156] Memory required for data: 14012
I0924 04:08:29.756510 20710 layer_factory.hpp:77] Creating layer cont_1_lstm2_cont_slice_0_split
I0924 04:08:29.756520 20710 net.cpp:91] Creating Layer cont_1_lstm2_cont_slice_0_split
I0924 04:08:29.756530 20710 net.cpp:425] cont_1_lstm2_cont_slice_0_split <- cont_1
I0924 04:08:29.756541 20710 net.cpp:399] cont_1_lstm2_cont_slice_0_split -> cont_1_lstm2_cont_slice_0_split_0
I0924 04:08:29.756556 20710 net.cpp:399] cont_1_lstm2_cont_slice_0_split -> cont_1_lstm2_cont_slice_0_split_1
I0924 04:08:29.756641 20710 net.cpp:141] Setting up cont_1_lstm2_cont_slice_0_split
I0924 04:08:29.756655 20710 net.cpp:148] Top shape: 1 1 (1)
I0924 04:08:29.756666 20710 net.cpp:148] Top shape: 1 1 (1)
I0924 04:08:29.756675 20710 net.cpp:156] Memory required for data: 14020
I0924 04:08:29.756682 20710 layer_factory.hpp:77] Creating layer lstm2_x_transform
I0924 04:08:29.756705 20710 net.cpp:91] Creating Layer lstm2_x_transform
I0924 04:08:29.756712 20710 net.cpp:425] lstm2_x_transform <- x
I0924 04:08:29.756726 20710 net.cpp:399] lstm2_x_transform -> W_xc_x
I0924 04:08:29.771675 20718 net.cpp:141] Setting up embedding
I0924 04:08:29.771733 20718 net.cpp:148] Top shape: 1 1 500 (500)
I0924 04:08:29.771744 20718 net.cpp:156] Memory required for data: 22408
I0924 04:08:29.771776 20718 layer_factory.hpp:77] Creating layer lstm1
I0924 04:08:29.771836 20718 net.cpp:91] Creating Layer lstm1
I0924 04:08:29.771852 20718 net.cpp:425] lstm1 <- embedded_input_frames
I0924 04:08:29.771867 20718 net.cpp:425] lstm1 <- cont_sentence_input_1_split_0
I0924 04:08:29.771883 20718 net.cpp:399] lstm1 -> lstm1
I0924 04:08:29.771911 20718 recurrent_layer.cpp:20] Initializing recurrent layer: assuming input batch contains 1 timesteps of 1 independent streams.
I0924 04:08:29.771965 20668 net.cpp:141] Setting up lstm2_
I0924 04:08:29.772011 20668 net.cpp:148] Top shape: 1 1 1000 (1000)
I0924 04:08:29.772025 20668 net.cpp:148] Top shape: 1 1 1000 (1000)
I0924 04:08:29.772037 20668 net.cpp:156] Memory required for data: 14008
I0924 04:08:29.772049 20668 layer_factory.hpp:77] Creating layer lstm2_cont_slice
I0924 04:08:29.772069 20668 net.cpp:91] Creating Layer lstm2_cont_slice
I0924 04:08:29.772083 20668 net.cpp:425] lstm2_cont_slice <- cont
I0924 04:08:29.772101 20668 net.cpp:399] lstm2_cont_slice -> cont_1
I0924 04:08:29.772145 20674 net.cpp:141] Setting up lstm1_x_transform
I0924 04:08:29.772166 20674 net.cpp:148] Top shape: 1 1 4000 (4000)
I0924 04:08:29.772173 20674 net.cpp:156] Memory required for data: 26016
I0924 04:08:29.772234 20674 layer_factory.hpp:77] Creating layer lstm1_W_xc_x_slice
I0924 04:08:29.772231 20678 net.cpp:141] Setting up lstm1_unit_1
I0924 04:08:29.772258 20674 net.cpp:91] Creating Layer lstm1_W_xc_x_slice
I0924 04:08:29.772269 20674 net.cpp:425] lstm1_W_xc_x_slice <- W_xc_x
I0924 04:08:29.772269 20678 net.cpp:148] Top shape: 1 1 1000 (1000)
I0924 04:08:29.772281 20674 net.cpp:399] lstm1_W_xc_x_slice -> W_xc_x_1
I0924 04:08:29.772282 20678 net.cpp:148] Top shape: 1 1 1000 (1000)
I0924 04:08:29.772302 20678 net.cpp:156] Memory required for data: 86016
I0924 04:08:29.772313 20678 layer_factory.hpp:77] Creating layer lstm1_
I0924 04:08:29.772363 20674 net.cpp:141] Setting up lstm1_W_xc_x_slice
I0924 04:08:29.772378 20674 net.cpp:148] Top shape: 1 1 4000 (4000)
I0924 04:08:29.772385 20674 net.cpp:156] Memory required for data: 42016
I0924 04:08:29.772393 20674 layer_factory.hpp:77] Creating layer lstm1_h_conted_0
I0924 04:08:29.775301 20674 net.cpp:91] Creating Layer lstm1_h_conted_0
I0924 04:08:29.775327 20718 net.cpp:49] Initializing net from parameters: 
layer {
  name: "lstm1_"
  type: "Input"
  top: "x"
  top: "cont"
  input_param {
    shape {
      dim: 1
      dim: 1
      dim: 500
    }
    shape {
      dim: 1
      dim: 1
    }
  }
}
layer {
  name: "lstm1_"
  type: "Input"
  top: "c_0"
  top: "h_0"
  input_param {
    shape {
      dim: 1
      dim: 1
      dim: 1000
    }
    shape {
      dim: 1
      dim: 1
      dim: 1000
    }
  }
}
layer {
  name: "lstm1_cont_slice"
  type: "Slice"
  bottom: "cont"
  top: "cont_1"
  slice_param {
    axis: 0
  }
}
layer {
  name: "lstm1_x_transform"
  type: "InnerProduct"
  bottom: "x"
  top: "W_xc_x"
  param {
    name: "W_xc"
  }
  param {
    name: "b_c"
  }
  propagate_down: true
  inner_product_param {
    num_output: 4000
    bias_term: true
    weight_filler {
      type: "uniform"
      min: -0.08
      max: 0.08
    }
    bias_filler {
      type: "constant"
      value: 0
    }
    axis: 2
  }
}
layer {
  name: "lstm1_W_xc_x_slice"
  type: "Slice"
  bottom: "W_xc_x"
  top: "W_xc_x_1"
  slice_param {
    axis: 0
  }
}
layer {
  name: "lstm1_h_conted_0"
  type: "Scale"
  bottom: "h_0"
  bottom: "cont_1"
  top: "h_conted_0"
  scale_param {
    axis: 0
  }
}
layer {
  name: "lstm1_transform_1"
  type: "InnerProduct"
  bottom: "h_conted_0"
  top: "W_hc_h_0"
  param {
    name: "W_hc"
  }
  inner_product_param {
    num_output: 4000
    bias_term: false
    weight_filler {
      type: "uniform"
      min: -0.08
      max: 0.08
    }
    axis: 2
  }
}
layer {
  name: "lstm1_gate_input_1"
  type: "Eltwise"
  bottom: "W_hc_h_0"
  bottom: "W_xc_x_1"
  top: "gate_input_1"
  eltwise_param {
    operation: SUM
  }
}
layer {
  name: "lstm1_unit_1"
  type: "LSTMUnit"
  bottom: "c_0"
  bottom: "gate_input_1"
  bottom: "cont_1"
  top: "c_1"
  top: "h_1"
}
layer {
  name: "lstm1_"
  type: "Split"
  bottom: "c_1"
  top: "c_T"
}
layer {
  name: "lstm1_h_concat"
  type: "Concat"
  bottom: "h_1"
  top: "h"
  concat_param {
    axis: 0
  }
}
layer {
  name: "h_pseudoloss"
  type: "Reduction"
  bottom: "h"
  top: "h_pseudoloss"
  loss_weight: 1
}
I0924 04:08:29.775313 20678 net.cpp:91] Creating Layer lstm1_
I0924 04:08:29.775354 20674 net.cpp:425] lstm1_h_conted_0 <- h_0
I0924 04:08:29.775365 20678 net.cpp:425] lstm1_ <- c_1
I0924 04:08:29.775370 20674 net.cpp:425] lstm1_h_conted_0 <- cont_1_lstm1_cont_slice_0_split_0
I0924 04:08:29.775385 20678 net.cpp:399] lstm1_ -> c_T
I0924 04:08:29.775391 20674 net.cpp:399] lstm1_h_conted_0 -> h_conted_0
I0924 04:08:29.775519 20718 layer_factory.hpp:77] Creating layer lstm1_
I0924 04:08:29.775545 20718 net.cpp:91] Creating Layer lstm1_
I0924 04:08:29.775557 20718 net.cpp:399] lstm1_ -> x
I0924 04:08:29.775578 20718 net.cpp:399] lstm1_ -> cont
I0924 04:08:29.793829 20668 net.cpp:141] Setting up lstm2_cont_slice
I0924 04:08:29.793885 20668 net.cpp:148] Top shape: 1 1 (1)
I0924 04:08:29.793892 20668 net.cpp:156] Memory required for data: 14012
I0924 04:08:29.793901 20668 layer_factory.hpp:77] Creating layer cont_1_lstm2_cont_slice_0_split
I0924 04:08:29.793917 20668 net.cpp:91] Creating Layer cont_1_lstm2_cont_slice_0_split
I0924 04:08:29.793926 20668 net.cpp:425] cont_1_lstm2_cont_slice_0_split <- cont_1
I0924 04:08:29.793936 20668 net.cpp:399] cont_1_lstm2_cont_slice_0_split -> cont_1_lstm2_cont_slice_0_split_0
I0924 04:08:29.793927 20678 net.cpp:141] Setting up lstm1_
I0924 04:08:29.793957 20668 net.cpp:399] cont_1_lstm2_cont_slice_0_split -> cont_1_lstm2_cont_slice_0_split_1
I0924 04:08:29.793975 20678 net.cpp:148] Top shape: 1 1 1000 (1000)
I0924 04:08:29.793989 20678 net.cpp:156] Memory required for data: 90016
I0924 04:08:29.794004 20678 layer_factory.hpp:77] Creating layer lstm1_h_concat
I0924 04:08:29.794030 20678 net.cpp:91] Creating Layer lstm1_h_concat
I0924 04:08:29.794045 20678 net.cpp:425] lstm1_h_concat <- h_1
I0924 04:08:29.794102 20678 net.cpp:399] lstm1_h_concat -> h
I0924 04:08:29.794224 20722 net.cpp:141] Setting up lstm2_x_transform
I0924 04:08:29.794241 20668 net.cpp:141] Setting up cont_1_lstm2_cont_slice_0_split
I0924 04:08:29.794246 20722 net.cpp:148] Top shape: 1 1 4000 (4000)
I0924 04:08:29.794265 20668 net.cpp:148] Top shape: 1 1 (1)
I0924 04:08:29.794265 20722 net.cpp:156] Memory required for data: 30020
I0924 04:08:29.794280 20668 net.cpp:148] Top shape: 1 1 (1)
I0924 04:08:29.794288 20668 net.cpp:156] Memory required for data: 14020
I0924 04:08:29.794296 20722 layer_factory.hpp:77] Creating layer lstm2_W_xc_x_slice
I0924 04:08:29.794296 20668 layer_factory.hpp:77] Creating layer lstm2_x_transform
I0924 04:08:29.794315 20678 net.cpp:141] Setting up lstm1_h_concat
I0924 04:08:29.794335 20678 net.cpp:148] Top shape: 1 1 1000 (1000)
I0924 04:08:29.794337 20668 net.cpp:91] Creating Layer lstm2_x_transform
I0924 04:08:29.794368 20722 net.cpp:91] Creating Layer lstm2_W_xc_x_slice
I0924 04:08:29.794353 20678 net.cpp:156] Memory required for data: 94016
I0924 04:08:29.794380 20722 net.cpp:425] lstm2_W_xc_x_slice <- W_xc_x
I0924 04:08:29.794373 20668 net.cpp:425] lstm2_x_transform <- x
I0924 04:08:29.794389 20678 layer_factory.hpp:77] Creating layer h_pseudoloss
I0924 04:08:29.794396 20722 net.cpp:399] lstm2_W_xc_x_slice -> W_xc_x_1
I0924 04:08:29.794399 20668 net.cpp:399] lstm2_x_transform -> W_xc_x
I0924 04:08:29.794409 20678 net.cpp:91] Creating Layer h_pseudoloss
I0924 04:08:29.794421 20678 net.cpp:425] h_pseudoloss <- h
I0924 04:08:29.794437 20678 net.cpp:399] h_pseudoloss -> h_pseudoloss
I0924 04:08:29.794452 20674 net.cpp:141] Setting up lstm1_h_conted_0
I0924 04:08:29.794473 20674 net.cpp:148] Top shape: 1 1 1000 (1000)
I0924 04:08:29.794481 20674 net.cpp:156] Memory required for data: 46016
I0924 04:08:29.794489 20674 layer_factory.hpp:77] Creating layer lstm1_transform_1
I0924 04:08:29.794504 20674 net.cpp:91] Creating Layer lstm1_transform_1
I0924 04:08:29.794514 20674 net.cpp:425] lstm1_transform_1 <- h_conted_0
I0924 04:08:29.794528 20674 net.cpp:399] lstm1_transform_1 -> W_hc_h_0
I0924 04:08:29.794587 20722 net.cpp:141] Setting up lstm2_W_xc_x_slice
I0924 04:08:29.794631 20722 net.cpp:148] Top shape: 1 1 4000 (4000)
…
I0924 04:10:02.742748 21083 net.cpp:148] Top shape: 1 1 1000 (1000)
I0924 04:10:02.742758 21083 net.cpp:156] Memory required for data: 50020
I0924 04:10:02.742771 21083 layer_factory.hpp:77] Creating layer lstm2_transform_1
I0924 04:10:02.742800 21083 net.cpp:91] Creating Layer lstm2_transform_1
I0924 04:10:02.742812 21083 net.cpp:425] lstm2_transform_1 <- h_conted_0
I0924 04:10:02.742831 21083 net.cpp:399] lstm2_transform_1 -> W_hc_h_0
I0924 04:10:02.772598 21033 net.cpp:141] Setting up lstm2_transform_1
I0924 04:10:02.772651 21033 net.cpp:148] Top shape: 1 1 4000 (4000)
I0924 04:10:02.772660 21033 net.cpp:156] Memory required for data: 66020
I0924 04:10:02.772687 21033 layer_factory.hpp:77] Creating layer lstm2_gate_input_1
I0924 04:10:02.772717 21033 net.cpp:91] Creating Layer lstm2_gate_input_1
I0924 04:10:02.772728 21033 net.cpp:425] lstm2_gate_input_1 <- W_hc_h_0
I0924 04:10:02.772739 21033 net.cpp:425] lstm2_gate_input_1 <- W_xc_x_1
I0924 04:10:02.772752 21033 net.cpp:399] lstm2_gate_input_1 -> gate_input_1
I0924 04:10:02.772828 21033 net.cpp:141] Setting up lstm2_gate_input_1
I0924 04:10:02.772842 21033 net.cpp:148] Top shape: 1 1 4000 (4000)
I0924 04:10:02.772848 21033 net.cpp:156] Memory required for data: 82020
I0924 04:10:02.772856 21033 layer_factory.hpp:77] Creating layer lstm2_unit_1
I0924 04:10:02.772869 21033 net.cpp:91] Creating Layer lstm2_unit_1
I0924 04:10:02.772876 21033 net.cpp:425] lstm2_unit_1 <- c_0
I0924 04:10:02.772886 21033 net.cpp:425] lstm2_unit_1 <- gate_input_1
I0924 04:10:02.772893 21033 net.cpp:425] lstm2_unit_1 <- cont_1_lstm2_cont_slice_0_split_1
I0924 04:10:02.772907 21033 net.cpp:399] lstm2_unit_1 -> c_1
I0924 04:10:02.772922 21033 net.cpp:399] lstm2_unit_1 -> h_1
I0924 04:10:02.782124 21029 net.cpp:141] Setting up lstm2_transform_1
I0924 04:10:02.782279 21079 net.cpp:141] Setting up lstm2
I0924 04:10:02.782418 21053 net.cpp:141] Setting up lstm2_transform_1
I0924 04:10:02.782840 21053 net.cpp:148] Top shape: 1 1 4000 (4000)
I0924 04:10:02.782858 21053 net.cpp:156] Memory required for data: 66020
I0924 04:10:02.782798 21029 net.cpp:148] Top shape: 1 1 4000 (4000)
I0924 04:10:02.782896 21053 layer_factory.hpp:77] Creating layer lstm2_gate_input_1
I0924 04:10:02.782904 21029 net.cpp:156] Memory required for data: 66020
I0924 04:10:02.782928 21053 net.cpp:91] Creating Layer lstm2_gate_input_1
I0924 04:10:02.782943 21053 net.cpp:425] lstm2_gate_input_1 <- W_hc_h_0
I0924 04:10:02.782949 21029 layer_factory.hpp:77] Creating layer lstm2_gate_input_1
I0924 04:10:02.782958 21053 net.cpp:425] lstm2_gate_input_1 <- W_xc_x_1
I0924 04:10:02.782977 21053 net.cpp:399] lstm2_gate_input_1 -> gate_input_1
I0924 04:10:02.783000 21029 net.cpp:91] Creating Layer lstm2_gate_input_1
I0924 04:10:02.783023 21029 net.cpp:425] lstm2_gate_input_1 <- W_hc_h_0
I0924 04:10:02.783046 21029 net.cpp:425] lstm2_gate_input_1 <- W_xc_x_1
I0924 04:10:02.783071 21029 net.cpp:399] lstm2_gate_input_1 -> gate_input_1
I0924 04:10:02.783073 21047 net.cpp:141] Setting up lstm2_x_transform
I0924 04:10:02.783109 21047 net.cpp:148] Top shape: 1 1 4000 (4000)
I0924 04:10:02.783121 21047 net.cpp:156] Memory required for data: 30020
I0924 04:10:02.783149 21047 layer_factory.hpp:77] Creating layer lstm2_W_xc_x_slice
I0924 04:10:02.783174 21047 net.cpp:91] Creating Layer lstm2_W_xc_x_slice
I0924 04:10:02.783190 21047 net.cpp:425] lstm2_W_xc_x_slice <- W_xc_x
I0924 04:10:02.783222 21047 net.cpp:399] lstm2_W_xc_x_slice -> W_xc_x_1
I0924 04:10:02.785159 21053 net.cpp:141] Setting up lstm2_gate_input_1
I0924 04:10:02.785218 21053 net.cpp:148] Top shape: 1 1 4000 (4000)
I0924 04:10:02.785229 21053 net.cpp:156] Memory required for data: 82020
I0924 04:10:02.785245 21053 layer_factory.hpp:77] Creating layer lstm2_unit_1
I0924 04:10:02.785248 21029 net.cpp:141] Setting up lstm2_gate_input_1
I0924 04:10:02.785277 21053 net.cpp:91] Creating Layer lstm2_unit_1
I0924 04:10:02.785287 21029 net.cpp:148] Top shape: 1 1 4000 (4000)
I0924 04:10:02.785296 21053 net.cpp:425] lstm2_unit_1 <- c_0
I0924 04:10:02.785296 21029 net.cpp:156] Memory required for data: 82020
I0924 04:10:02.785325 21047 net.cpp:141] Setting up lstm2_W_xc_x_slice
I0924 04:10:02.785349 21029 layer_factory.hpp:77] Creating layer lstm2_unit_1
I0924 04:10:02.785369 21029 net.cpp:91] Creating Layer lstm2_unit_1
I0924 04:10:02.785379 21029 net.cpp:425] lstm2_unit_1 <- c_0
I0924 04:10:02.785392 21029 net.cpp:425] lstm2_unit_1 <- gate_input_1
I0924 04:10:02.785399 21047 net.cpp:148] Top shape: 1 1 4000 (4000)
I0924 04:10:02.785413 21047 net.cpp:156] Memory required for data: 46020
I0924 04:10:02.785418 21029 net.cpp:425] lstm2_unit_1 <- cont_1_lstm2_cont_slice_0_split_1
I0924 04:10:02.785343 21053 net.cpp:425] lstm2_unit_1 <- gate_input_1
I0924 04:10:02.785434 21029 net.cpp:399] lstm2_unit_1 -> c_1
I0924 04:10:02.785423 21047 layer_factory.hpp:77] Creating layer lstm2_h_conted_0
I0924 04:10:02.785445 21053 net.cpp:425] lstm2_unit_1 <- cont_1_lstm2_cont_slice_0_split_1
I0924 04:10:02.785454 21029 net.cpp:399] lstm2_unit_1 -> h_1
I0924 04:10:02.785460 21053 net.cpp:399] lstm2_unit_1 -> c_1
I0924 04:10:02.785468 21047 net.cpp:91] Creating Layer lstm2_h_conted_0
I0924 04:10:02.785480 21053 net.cpp:399] lstm2_unit_1 -> h_1
I0924 04:10:02.785483 21047 net.cpp:425] lstm2_h_conted_0 <- h_0
I0924 04:10:02.785501 21047 net.cpp:425] lstm2_h_conted_0 <- cont_1_lstm2_cont_slice_0_split_0
I0924 04:10:02.785517 21047 net.cpp:399] lstm2_h_conted_0 -> h_conted_0
I0924 04:10:02.782796 21079 net.cpp:148] Top shape: 1 1 1000 (1000)
I0924 04:10:02.790853 21079 net.cpp:156] Memory required for data: 36412
I0924 04:10:02.790910 21079 layer_factory.hpp:77] Creating layer predict
I0924 04:10:02.790940 21079 net.cpp:91] Creating Layer predict
I0924 04:10:02.790951 21079 net.cpp:425] predict <- lstm2
I0924 04:10:02.790967 21079 net.cpp:399] predict -> predict
I0924 04:10:02.782583 21033 net.cpp:141] Setting up lstm2_unit_1
I0924 04:10:02.794847 21033 net.cpp:148] Top shape: 1 1 1000 (1000)
I0924 04:10:02.794862 21033 net.cpp:148] Top shape: 1 1 1000 (1000)
I0924 04:10:02.794868 21033 net.cpp:156] Memory required for data: 90020
I0924 04:10:02.794878 21033 layer_factory.hpp:77] Creating layer lstm2_
I0924 04:10:02.794891 21033 net.cpp:91] Creating Layer lstm2_
I0924 04:10:02.794900 21033 net.cpp:425] lstm2_ <- c_1
I0924 04:10:02.794914 21033 net.cpp:399] lstm2_ -> c_T
I0924 04:10:02.802812 21033 net.cpp:141] Setting up lstm2_
I0924 04:10:02.802866 21033 net.cpp:148] Top shape: 1 1 1000 (1000)
I0924 04:10:02.802873 21029 net.cpp:141] Setting up lstm2_unit_1
I0924 04:10:02.802877 21033 net.cpp:156] Memory required for data: 94020
I0924 04:10:02.802896 21029 net.cpp:148] Top shape: 1 1 1000 (1000)
I0924 04:10:02.802903 21033 layer_factory.hpp:77] Creating layer lstm2_h_concat
I0924 04:10:02.802907 21029 net.cpp:148] Top shape: 1 1 1000 (1000)
I0924 04:10:02.802916 21029 net.cpp:156] Memory required for data: 90020
I0924 04:10:02.802925 21029 layer_factory.hpp:77] Creating layer lstm2_
I0924 04:10:02.802928 21033 net.cpp:91] Creating Layer lstm2_h_concat
I0924 04:10:02.802937 21029 net.cpp:91] Creating Layer lstm2_
I0924 04:10:02.802939 21033 net.cpp:425] lstm2_h_concat <- h_1
I0924 04:10:02.802942 21029 net.cpp:425] lstm2_ <- c_1
I0924 04:10:02.802953 21029 net.cpp:399] lstm2_ -> c_T
I0924 04:10:02.802953 21033 net.cpp:399] lstm2_h_concat -> h
I0924 04:10:02.886175 21047 net.cpp:141] Setting up lstm2_h_conted_0
I0924 04:10:02.886243 21047 net.cpp:148] Top shape: 1 1 1000 (1000)
I0924 04:10:02.886256 21047 net.cpp:156] Memory required for data: 50020
I0924 04:10:02.886272 21047 layer_factory.hpp:77] Creating layer lstm2_transform_1
I0924 04:10:02.886308 21047 net.cpp:91] Creating Layer lstm2_transform_1
I0924 04:10:02.886322 21047 net.cpp:425] lstm2_transform_1 <- h_conted_0
I0924 04:10:02.886353 21047 net.cpp:399] lstm2_transform_1 -> W_hc_h_0
I0924 04:10:02.906049 21033 net.cpp:141] Setting up lstm2_h_concat
I0924 04:10:02.906101 21083 net.cpp:141] Setting up lstm2_transform_1
I0924 04:10:02.906110 21033 net.cpp:148] Top shape: 1 1 1000 (1000)
I0924 04:10:02.906131 21083 net.cpp:148] Top shape: 1 1 4000 (4000)
I0924 04:10:02.906131 21033 net.cpp:156] Memory required for data: 98020
I0924 04:10:02.906147 21083 net.cpp:156] Memory required for data: 66020
I0924 04:10:02.906157 21033 layer_factory.hpp:77] Creating layer h_pseudoloss
I0924 04:10:02.906173 21083 layer_factory.hpp:77] Creating layer lstm2_gate_input_1
I0924 04:10:02.906182 21033 net.cpp:91] Creating Layer h_pseudoloss
I0924 04:10:02.906193 21033 net.cpp:425] h_pseudoloss <- h
I0924 04:10:02.906203 21083 net.cpp:91] Creating Layer lstm2_gate_input_1
I0924 04:10:02.906208 21033 net.cpp:399] h_pseudoloss -> h_pseudoloss
I0924 04:10:02.906215 21083 net.cpp:425] lstm2_gate_input_1 <- W_hc_h_0
I0924 04:10:02.906226 21083 net.cpp:425] lstm2_gate_input_1 <- W_xc_x_1
I0924 04:10:02.906240 21083 net.cpp:399] lstm2_gate_input_1 -> gate_input_1
I0924 04:10:02.906304 21053 net.cpp:141] Setting up lstm2_unit_1
I0924 04:10:02.906347 21053 net.cpp:148] Top shape: 1 1 1000 (1000)
I0924 04:10:02.906355 21053 net.cpp:148] Top shape: 1 1 1000 (1000)
I0924 04:10:02.906359 21053 net.cpp:156] Memory required for data: 90020
I0924 04:10:02.906368 21053 layer_factory.hpp:77] Creating layer lstm2_
I0924 04:10:02.906373 21029 net.cpp:141] Setting up lstm2_
I0924 04:10:02.906384 21053 net.cpp:91] Creating Layer lstm2_
I0924 04:10:02.906396 21053 net.cpp:425] lstm2_ <- c_1
I0924 04:10:02.906399 21029 net.cpp:148] Top shape: 1 1 1000 (1000)
I0924 04:10:02.906410 21053 net.cpp:399] lstm2_ -> c_T
I0924 04:10:02.906409 21029 net.cpp:156] Memory required for data: 94020
I0924 04:10:02.906438 21029 layer_factory.hpp:77] Creating layer lstm2_h_concat
I0924 04:10:02.906455 21029 net.cpp:91] Creating Layer lstm2_h_concat
I0924 04:10:02.906464 21029 net.cpp:425] lstm2_h_concat <- h_1
I0924 04:10:02.906477 21029 net.cpp:399] lstm2_h_concat -> h
I0924 04:10:02.906606 21083 net.cpp:141] Setting up lstm2_gate_input_1
I0924 04:10:02.906626 21083 net.cpp:148] Top shape: 1 1 4000 (4000)
I0924 04:10:02.906635 21083 net.cpp:156] Memory required for data: 82020
I0924 04:10:02.906646 21083 layer_factory.hpp:77] Creating layer lstm2_unit_1
I0924 04:10:02.906661 21083 net.cpp:91] Creating Layer lstm2_unit_1
I0924 04:10:02.906671 21083 net.cpp:425] lstm2_unit_1 <- c_0
I0924 04:10:02.906682 21083 net.cpp:425] lstm2_unit_1 <- gate_input_1
I0924 04:10:02.906692 21083 net.cpp:425] lstm2_unit_1 <- cont_1_lstm2_cont_slice_0_split_1
I0924 04:10:02.906704 21083 net.cpp:399] lstm2_unit_1 -> c_1
I0924 04:10:02.906719 21083 net.cpp:399] lstm2_unit_1 -> h_1
I0924 04:10:02.906738 21053 net.cpp:141] Setting up lstm2_
I0924 04:10:02.906752 21053 net.cpp:148] Top shape: 1 1 1000 (1000)
I0924 04:10:02.906757 21053 net.cpp:156] Memory required for data: 94020
I0924 04:10:02.906762 21053 layer_factory.hpp:77] Creating layer lstm2_h_concat
I0924 04:10:02.906775 21053 net.cpp:91] Creating Layer lstm2_h_concat
I0924 04:10:02.906781 21053 net.cpp:425] lstm2_h_concat <- h_1
I0924 04:10:02.906793 21053 net.cpp:399] lstm2_h_concat -> h
I0924 04:10:02.907008 21035 net.cpp:141] Setting up predict
I0924 04:10:02.907027 21035 net.cpp:148] Top shape: 1 1 46168 (46168)
I0924 04:10:02.907035 21035 net.cpp:156] Memory required for data: 221084
I0924 04:10:02.907052 21035 layer_factory.hpp:77] Creating layer probs
I0924 04:10:02.907068 21035 net.cpp:91] Creating Layer probs
I0924 04:10:02.907078 21035 net.cpp:425] probs <- predict
I0924 04:10:02.907091 21035 net.cpp:399] probs -> probs
I0924 04:10:02.907302 21029 net.cpp:141] Setting up lstm2_h_concat
I0924 04:10:02.907321 21029 net.cpp:148] Top shape: 1 1 1000 (1000)
I0924 04:10:02.907328 21029 net.cpp:156] Memory required for data: 98020
I0924 04:10:02.907337 21029 layer_factory.hpp:77] Creating layer h_pseudoloss
I0924 04:10:02.907352 21029 net.cpp:91] Creating Layer h_pseudoloss
I0924 04:10:02.907356 21083 net.cpp:141] Setting up lstm2_unit_1
I0924 04:10:02.907362 21029 net.cpp:425] h_pseudoloss <- h
I0924 04:10:02.907383 21083 net.cpp:148] Top shape: 1 1 1000 (1000)
I0924 04:10:02.907387 21029 net.cpp:399] h_pseudoloss -> h_pseudoloss
I0924 04:10:02.907397 21083 net.cpp:148] Top shape: 1 1 1000 (1000)
I0924 04:10:02.907405 21083 net.cpp:156] Memory required for data: 90020
I0924 04:10:02.907414 21083 layer_factory.hpp:77] Creating layer lstm2_
I0924 04:10:02.907421 21039 net.cpp:141] Setting up lstm2_x_transform
I0924 04:10:02.907428 21083 net.cpp:91] Creating Layer lstm2_
I0924 04:10:02.907449 21039 net.cpp:148] Top shape: 1 1 4000 (4000)
I0924 04:10:02.907457 21053 net.cpp:141] Setting up lstm2_h_concat
I0924 04:10:02.907466 21039 net.cpp:156] Memory required for data: 30020
I0924 04:10:02.907450 21083 net.cpp:425] lstm2_ <- c_1
I0924 04:10:02.907480 21053 net.cpp:148] Top shape: 1 1 1000 (1000)
I0924 04:10:02.907487 21053 net.cpp:156] Memory required for data: 98020
I0924 04:10:02.907491 21039 layer_factory.hpp:77] Creating layer lstm2_W_xc_x_slice
I0924 04:10:02.907496 21053 layer_factory.hpp:77] Creating layer h_pseudoloss
I0924 04:10:02.907496 21083 net.cpp:399] lstm2_ -> c_T
I0924 04:10:02.907510 21039 net.cpp:91] Creating Layer lstm2_W_xc_x_slice
I0924 04:10:02.907511 21053 net.cpp:91] Creating Layer h_pseudoloss
I0924 04:10:02.907527 21039 net.cpp:425] lstm2_W_xc_x_slice <- W_xc_x
I0924 04:10:02.907529 21033 net.cpp:141] Setting up h_pseudoloss
I0924 04:10:02.907537 21053 net.cpp:425] h_pseudoloss <- h
I0924 04:10:02.907543 21039 net.cpp:399] lstm2_W_xc_x_slice -> W_xc_x_1
I0924 04:10:02.907551 21033 net.cpp:148] Top shape: (1)
I0924 04:10:02.907562 21053 net.cpp:399] h_pseudoloss -> h_pseudoloss
I0924 04:10:02.907559 21033 net.cpp:151]     with loss weight 1
I0924 04:10:02.907583 21033 net.cpp:156] Memory required for data: 98024
I0924 04:10:02.907585 21083 net.cpp:141] Setting up lstm2_
I0924 04:10:02.907589 21033 net.cpp:217] h_pseudoloss needs backward computation.
I0924 04:10:02.907605 21083 net.cpp:148] Top shape: 1 1 1000 (1000)
I0924 04:10:02.907609 21033 net.cpp:217] lstm2_h_concat needs backward computation.
I0924 04:10:02.907613 21083 net.cpp:156] Memory required for data: 94020
I0924 04:10:02.907615 21033 net.cpp:219] lstm2_ does not need backward computation.
I0924 04:10:02.907618 21083 layer_factory.hpp:77] Creating layer lstm2_h_concat
I0924 04:10:02.907621 21033 net.cpp:217] lstm2_unit_1 needs backward computation.
…
I0924 04:10:02.923799 21053 net.cpp:219] lstm2_ does not need backward computation.
I0924 04:10:02.923806 21053 net.cpp:261] This network produces output c_T
I0924 04:10:02.923830 21053 net.cpp:261] This network produces output h_pseudoloss
I0924 04:10:02.923861 21053 net.cpp:274] Network initialization done.
I0924 04:10:02.923956 21053 recurrent_layer.cpp:150] Adding parameter 0: W_xc
I0924 04:10:02.923969 21053 recurrent_layer.cpp:150] Adding parameter 1: b_c
I0924 04:10:02.923979 21053 recurrent_layer.cpp:150] Adding parameter 2: W_hc
I0924 04:10:03.010998 21029 net.cpp:141] Setting up lstm2
I0924 04:10:03.011070 21029 net.cpp:148] Top shape: 1 1 1000 (1000)
I0924 04:10:03.011085 21029 net.cpp:156] Memory required for data: 36412
I0924 04:10:03.011126 21029 layer_factory.hpp:77] Creating layer predict
I0924 04:10:03.011162 21029 net.cpp:91] Creating Layer predict
I0924 04:10:03.011179 21029 net.cpp:425] predict <- lstm2
I0924 04:10:03.011203 21029 net.cpp:399] predict -> predict
I0924 04:10:03.090487 21083 net.cpp:141] Setting up lstm2
I0924 04:10:03.090566 21083 net.cpp:148] Top shape: 1 1 1000 (1000)
I0924 04:10:03.090584 21083 net.cpp:156] Memory required for data: 36412
I0924 04:10:03.090677 21083 layer_factory.hpp:77] Creating layer predict
I0924 04:10:03.090724 21083 net.cpp:91] Creating Layer predict
I0924 04:10:03.090745 21083 net.cpp:425] predict <- lstm2
I0924 04:10:03.090773 21083 net.cpp:399] predict -> predict
I0924 04:10:03.211807 21047 net.cpp:141] Setting up lstm2_transform_1
I0924 04:10:03.211874 21047 net.cpp:148] Top shape: 1 1 4000 (4000)
I0924 04:10:03.211882 21047 net.cpp:156] Memory required for data: 66020
I0924 04:10:03.211912 21047 layer_factory.hpp:77] Creating layer lstm2_gate_input_1
I0924 04:10:03.211951 21047 net.cpp:91] Creating Layer lstm2_gate_input_1
I0924 04:10:03.211961 21047 net.cpp:425] lstm2_gate_input_1 <- W_hc_h_0
I0924 04:10:03.211973 21047 net.cpp:425] lstm2_gate_input_1 <- W_xc_x_1
I0924 04:10:03.211987 21047 net.cpp:399] lstm2_gate_input_1 -> gate_input_1
I0924 04:10:03.212112 21047 net.cpp:141] Setting up lstm2_gate_input_1
I0924 04:10:03.212127 21047 net.cpp:148] Top shape: 1 1 4000 (4000)
I0924 04:10:03.212134 21047 net.cpp:156] Memory required for data: 82020
I0924 04:10:03.212141 21047 layer_factory.hpp:77] Creating layer lstm2_unit_1
I0924 04:10:03.212159 21047 net.cpp:91] Creating Layer lstm2_unit_1
I0924 04:10:03.212167 21047 net.cpp:425] lstm2_unit_1 <- c_0
I0924 04:10:03.212175 21047 net.cpp:425] lstm2_unit_1 <- gate_input_1
I0924 04:10:03.212183 21047 net.cpp:425] lstm2_unit_1 <- cont_1_lstm2_cont_slice_0_split_1
I0924 04:10:03.212198 21047 net.cpp:399] lstm2_unit_1 -> c_1
I0924 04:10:03.212213 21047 net.cpp:399] lstm2_unit_1 -> h_1
I0924 04:10:03.212316 21047 net.cpp:141] Setting up lstm2_unit_1
I0924 04:10:03.212329 21047 net.cpp:148] Top shape: 1 1 1000 (1000)
I0924 04:10:03.212339 21047 net.cpp:148] Top shape: 1 1 1000 (1000)
I0924 04:10:03.212345 21047 net.cpp:156] Memory required for data: 90020
I0924 04:10:03.212353 21047 layer_factory.hpp:77] Creating layer lstm2_
I0924 04:10:03.212366 21047 net.cpp:91] Creating Layer lstm2_
I0924 04:10:03.212374 21047 net.cpp:425] lstm2_ <- c_1
I0924 04:10:03.212384 21047 net.cpp:399] lstm2_ -> c_T
I0924 04:10:03.212440 21047 net.cpp:141] Setting up lstm2_
I0924 04:10:03.212453 21047 net.cpp:148] Top shape: 1 1 1000 (1000)
I0924 04:10:03.212460 21047 net.cpp:156] Memory required for data: 94020
I0924 04:10:03.212467 21047 layer_factory.hpp:77] Creating layer lstm2_h_concat
I0924 04:10:03.212481 21047 net.cpp:91] Creating Layer lstm2_h_concat
I0924 04:10:03.212488 21047 net.cpp:425] lstm2_h_concat <- h_1
I0924 04:10:03.212502 21047 net.cpp:399] lstm2_h_concat -> h
I0924 04:10:03.212551 21047 net.cpp:141] Setting up lstm2_h_concat
I0924 04:10:03.212563 21047 net.cpp:148] Top shape: 1 1 1000 (1000)
I0924 04:10:03.212570 21047 net.cpp:156] Memory required for data: 98020
I0924 04:10:03.212577 21047 layer_factory.hpp:77] Creating layer h_pseudoloss
I0924 04:10:03.212599 21047 net.cpp:91] Creating Layer h_pseudoloss
I0924 04:10:03.212606 21047 net.cpp:425] h_pseudoloss <- h
I0924 04:10:03.212616 21047 net.cpp:399] h_pseudoloss -> h_pseudoloss
I0924 04:10:03.212816 21047 net.cpp:141] Setting up h_pseudoloss
…
I0924 04:10:03.212959 21047 net.cpp:219] lstm2_ does not need backward computation.
I0924 04:10:03.212965 21047 net.cpp:261] This network produces output c_T
I0924 04:10:03.212975 21047 net.cpp:261] This network produces output h_pseudoloss
I0924 04:10:03.213001 21047 net.cpp:274] Network initialization done.
I0924 04:10:03.213075 21047 recurrent_layer.cpp:150] Adding parameter 0: W_xc
I0924 04:10:03.213084 21047 recurrent_layer.cpp:150] Adding parameter 1: b_c
I0924 04:10:03.213091 21047 recurrent_layer.cpp:150] Adding parameter 2: W_hc
I0924 04:10:03.215200 21039 net.cpp:141] Setting up lstm2_transform_1
I0924 04:10:03.215253 21039 net.cpp:148] Top shape: 1 1 4000 (4000)
I0924 04:10:03.215261 21039 net.cpp:156] Memory required for data: 66020
I0924 04:10:03.215286 21039 layer_factory.hpp:77] Creating layer lstm2_gate_input_1
I0924 04:10:03.215309 21039 net.cpp:91] Creating Layer lstm2_gate_input_1
I0924 04:10:03.215319 21039 net.cpp:425] lstm2_gate_input_1 <- W_hc_h_0
I0924 04:10:03.215330 21039 net.cpp:425] lstm2_gate_input_1 <- W_xc_x_1
I0924 04:10:03.215348 21039 net.cpp:399] lstm2_gate_input_1 -> gate_input_1
I0924 04:10:03.215416 21039 net.cpp:141] Setting up lstm2_gate_input_1
I0924 04:10:03.215433 21039 net.cpp:148] Top shape: 1 1 4000 (4000)
I0924 04:10:03.215440 21039 net.cpp:156] Memory required for data: 82020
I0924 04:10:03.215448 21039 layer_factory.hpp:77] Creating layer lstm2_unit_1
I0924 04:10:03.215461 21039 net.cpp:91] Creating Layer lstm2_unit_1
I0924 04:10:03.215468 21039 net.cpp:425] lstm2_unit_1 <- c_0
I0924 04:10:03.215478 21039 net.cpp:425] lstm2_unit_1 <- gate_input_1
I0924 04:10:03.215487 21039 net.cpp:425] lstm2_unit_1 <- cont_1_lstm2_cont_slice_0_split_1
I0924 04:10:03.215497 21039 net.cpp:399] lstm2_unit_1 -> c_1
I0924 04:10:03.215509 21039 net.cpp:399] lstm2_unit_1 -> h_1
I0924 04:10:03.215607 21039 net.cpp:141] Setting up lstm2_unit_1
I0924 04:10:03.215620 21039 net.cpp:148] Top shape: 1 1 1000 (1000)
I0924 04:10:03.215631 21039 net.cpp:148] Top shape: 1 1 1000 (1000)
I0924 04:10:03.215636 21039 net.cpp:156] Memory required for data: 90020
I0924 04:10:03.215644 21039 layer_factory.hpp:77] Creating layer lstm2_
I0924 04:10:03.215656 21039 net.cpp:91] Creating Layer lstm2_
I0924 04:10:03.215664 21039 net.cpp:425] lstm2_ <- c_1
I0924 04:10:03.215674 21039 net.cpp:399] lstm2_ -> c_T
I0924 04:10:03.215719 21039 net.cpp:141] Setting up lstm2_
I0924 04:10:03.215731 21039 net.cpp:148] Top shape: 1 1 1000 (1000)
I0924 04:10:03.215739 21039 net.cpp:156] Memory required for data: 94020
I0924 04:10:03.215746 21039 layer_factory.hpp:77] Creating layer lstm2_h_concat
I0924 04:10:03.215764 21039 net.cpp:91] Creating Layer lstm2_h_concat
I0924 04:10:03.215771 21039 net.cpp:425] lstm2_h_concat <- h_1
I0924 04:10:03.215782 21039 net.cpp:399] lstm2_h_concat -> h
I0924 04:10:03.215832 21039 net.cpp:141] Setting up lstm2_h_concat
I0924 04:10:03.215843 21039 net.cpp:148] Top shape: 1 1 1000 (1000)
I0924 04:10:03.215850 21039 net.cpp:156] Memory required for data: 98020
I0924 04:10:03.215857 21039 layer_factory.hpp:77] Creating layer h_pseudoloss
I0924 04:10:03.215870 21039 net.cpp:91] Creating Layer h_pseudoloss
I0924 04:10:03.215878 21039 net.cpp:425] h_pseudoloss <- h
I0924 04:10:03.215891 21039 net.cpp:399] h_pseudoloss -> h_pseudoloss
I0924 04:10:03.216009 21039 net.cpp:141] Setting up h_pseudoloss
…
I0924 04:10:03.216152 21039 net.cpp:219] lstm2_ does not need backward computation.
I0924 04:10:03.216157 21039 net.cpp:261] This network produces output c_T
I0924 04:10:03.216164 21039 net.cpp:261] This network produces output h_pseudoloss
I0924 04:10:03.216189 21039 net.cpp:274] Network initialization done.
I0924 04:10:03.216255 21039 recurrent_layer.cpp:150] Adding parameter 0: W_xc
I0924 04:10:03.216264 21039 recurrent_layer.cpp:150] Adding parameter 1: b_c
I0924 04:10:03.216271 21039 recurrent_layer.cpp:150] Adding parameter 2: W_hc
I0924 04:10:03.216418 21039 net.cpp:141] Setting up lstm2
I0924 04:10:03.216433 21039 net.cpp:148] Top shape: 1 1 1000 (1000)
I0924 04:10:03.216439 21039 net.cpp:156] Memory required for data: 36412
I0924 04:10:03.216460 21039 layer_factory.hpp:77] Creating layer predict
I0924 04:10:03.216477 21039 net.cpp:91] Creating Layer predict
I0924 04:10:03.216487 21039 net.cpp:425] predict <- lstm2
I0924 04:10:03.216497 21039 net.cpp:399] predict -> predict
I0924 04:10:03.313837 21053 net.cpp:141] Setting up lstm2
I0924 04:10:03.313926 21053 net.cpp:148] Top shape: 1 1 1000 (1000)
I0924 04:10:03.313937 21053 net.cpp:156] Memory required for data: 36412
I0924 04:10:03.314010 21053 layer_factory.hpp:77] Creating layer predict
I0924 04:10:03.314052 21053 net.cpp:91] Creating Layer predict
I0924 04:10:03.314105 21053 net.cpp:425] predict <- lstm2
I0924 04:10:03.314126 21053 net.cpp:399] predict -> predict
I0924 04:10:03.317263 21047 net.cpp:141] Setting up lstm2
I0924 04:10:03.317337 21047 net.cpp:148] Top shape: 1 1 1000 (1000)
I0924 04:10:03.317348 21047 net.cpp:156] Memory required for data: 36412
I0924 04:10:03.317378 21047 layer_factory.hpp:77] Creating layer predict
I0924 04:10:03.317406 21047 net.cpp:91] Creating Layer predict
I0924 04:10:03.317420 21047 net.cpp:425] predict <- lstm2
I0924 04:10:03.317435 21047 net.cpp:399] predict -> predict
I0924 04:10:03.408890 21079 net.cpp:141] Setting up predict
I0924 04:10:03.408967 21079 net.cpp:148] Top shape: 1 1 46168 (46168)
I0924 04:10:03.408979 21079 net.cpp:156] Memory required for data: 221084
I0924 04:10:03.409008 21079 layer_factory.hpp:77] Creating layer probs
I0924 04:10:03.409036 21079 net.cpp:91] Creating Layer probs
I0924 04:10:03.409086 21079 net.cpp:425] probs <- predict
I0924 04:10:03.409111 21079 net.cpp:399] probs -> probs
I0924 04:10:03.497443 21033 net.cpp:141] Setting up predict
I0924 04:10:03.497874 21033 net.cpp:148] Top shape: 1 1 46168 (46168)
I0924 04:10:03.497997 21033 net.cpp:156] Memory required for data: 221084
I0924 04:10:03.498212 21033 layer_factory.hpp:77] Creating layer probs
I0924 04:10:03.498276 21071 net.cpp:141] Setting up predict
I0924 04:10:03.498358 21033 net.cpp:91] Creating Layer probs
I0924 04:10:03.498376 21033 net.cpp:425] probs <- predict
I0924 04:10:03.498405 21033 net.cpp:399] probs -> probs
I0924 04:10:03.498376 21071 net.cpp:148] Top shape: 1 1 46168 (46168)
I0924 04:10:03.498852 21071 net.cpp:156] Memory required for data: 221084
I0924 04:10:03.498885 21071 layer_factory.hpp:77] Creating layer probs
I0924 04:10:03.498909 21071 net.cpp:91] Creating Layer probs
I0924 04:10:03.498924 21071 net.cpp:425] probs <- predict
I0924 04:10:03.498941 21071 net.cpp:399] probs -> probs
I0924 04:10:03.550084 21029 net.cpp:141] Setting up predict
I0924 04:10:03.550145 21029 net.cpp:148] Top shape: 1 1 46168 (46168)
I0924 04:10:03.550156 21029 net.cpp:156] Memory required for data: 221084
I0924 04:10:03.550175 21029 layer_factory.hpp:77] Creating layer probs
I0924 04:10:03.550194 21029 net.cpp:91] Creating Layer probs
I0924 04:10:03.550204 21029 net.cpp:425] probs <- predict
I0924 04:10:03.550215 21029 net.cpp:399] probs -> probs
I0924 04:10:03.754431 21039 net.cpp:141] Setting up predict
I0924 04:10:03.754487 21039 net.cpp:148] Top shape: 1 1 46168 (46168)
I0924 04:10:03.754497 21039 net.cpp:156] Memory required for data: 221084
I0924 04:10:03.754520 21039 layer_factory.hpp:77] Creating layer probs
I0924 04:10:03.754545 21039 net.cpp:91] Creating Layer probs
I0924 04:10:03.754559 21039 net.cpp:425] probs <- predict
I0924 04:10:03.754575 21039 net.cpp:399] probs -> probs
I0924 04:10:03.754657 21083 net.cpp:141] Setting up predict
I0924 04:10:03.754684 21083 net.cpp:148] Top shape: 1 1 46168 (46168)
I0924 04:10:03.754694 21083 net.cpp:156] Memory required for data: 221084
I0924 04:10:03.754734 21083 layer_factory.hpp:77] Creating layer probs
I0924 04:10:03.754765 21083 net.cpp:91] Creating Layer probs
I0924 04:10:03.754782 21083 net.cpp:425] probs <- predict
I0924 04:10:03.754797 21083 net.cpp:399] probs -> probs
I0924 04:10:03.792326 21053 net.cpp:141] Setting up predict
I0924 04:10:03.792384 21053 net.cpp:148] Top shape: 1 1 46168 (46168)
I0924 04:10:03.792395 21053 net.cpp:156] Memory required for data: 221084
I0924 04:10:03.792415 21053 layer_factory.hpp:77] Creating layer probs
I0924 04:10:03.792438 21053 net.cpp:91] Creating Layer probs
I0924 04:10:03.792449 21053 net.cpp:425] probs <- predict
I0924 04:10:03.792466 21053 net.cpp:399] probs -> probs
I0924 04:10:03.969090 21035 net.cpp:141] Setting up probs
I0924 04:10:03.969151 21035 net.cpp:148] Top shape: 1 1 46168 (46168)
I0924 04:10:03.969161 21035 net.cpp:156] Memory required for data: 405756
I0924 04:10:03.969175 21035 net.cpp:219] probs does not need backward computation.
I0924 04:10:03.969188 21035 net.cpp:219] predict does not need backward computation.
I0924 04:10:03.969200 21035 net.cpp:219] lstm2 does not need backward computation.
I0924 04:10:03.969210 21035 net.cpp:219] concat does not need backward computation.
I0924 04:10:03.969219 21035 net.cpp:219] lstm1 does not need backward computation.
I0924 04:10:03.969230 21035 net.cpp:219] embedding does not need backward computation.
I0924 04:10:03.969238 21035 net.cpp:219] reshape_stage_indicator does not need backward computation.
I0924 04:10:03.969249 21035 net.cpp:219] reshape_frames does not need backward computation.
I0924 04:10:03.969259 21035 net.cpp:219] embed_encoder does not need backward computation.
I0924 04:10:03.969269 21035 net.cpp:219] cont_sentence_input_1_split does not need backward computation.
I0924 04:10:03.969279 21035 net.cpp:219] input does not need backward computation.
I0924 04:10:03.969287 21035 net.cpp:261] This network produces output probs
I0924 04:10:03.969319 21035 net.cpp:274] Network initialization done.
I0924 04:10:03.978374 21079 net.cpp:141] Setting up probs
I0924 04:10:03.978437 21079 net.cpp:148] Top shape: 1 1 46168 (46168)
I0924 04:10:03.978447 21079 net.cpp:156] Memory required for data: 405756
I0924 04:10:03.978461 21079 net.cpp:219] probs does not need backward computation.
I0924 04:10:03.978471 21079 net.cpp:219] predict does not need backward computation.
I0924 04:10:03.978483 21079 net.cpp:219] lstm2 does not need backward computation.
I0924 04:10:03.978493 21079 net.cpp:219] concat does not need backward computation.
I0924 04:10:03.978503 21079 net.cpp:219] lstm1 does not need backward computation.
I0924 04:10:03.978513 21079 net.cpp:219] embedding does not need backward computation.
I0924 04:10:03.978520 21079 net.cpp:219] reshape_stage_indicator does not need backward computation.
I0924 04:10:03.978529 21079 net.cpp:219] reshape_frames does not need backward computation.
I0924 04:10:03.978538 21079 net.cpp:219] embed_encoder does not need backward computation.
I0924 04:10:03.978549 21079 net.cpp:219] cont_sentence_input_1_split does not need backward computation.
I0924 04:10:03.978559 21079 net.cpp:219] input does not need backward computation.
I0924 04:10:03.978566 21079 net.cpp:261] This network produces output probs
I0924 04:10:03.978613 21079 net.cpp:274] Network initialization done.
I0924 04:10:03.980973 21029 net.cpp:141] Setting up probs
I0924 04:10:03.981024 21029 net.cpp:148] Top shape: 1 1 46168 (46168)
I0924 04:10:03.981035 21029 net.cpp:156] Memory required for data: 405756
I0924 04:10:03.981050 21029 net.cpp:219] probs does not need backward computation.
I0924 04:10:03.981060 21029 net.cpp:219] predict does not need backward computation.
I0924 04:10:03.981072 21029 net.cpp:219] lstm2 does not need backward computation.
I0924 04:10:03.981082 21029 net.cpp:219] concat does not need backward computation.
I0924 04:10:03.981093 21029 net.cpp:219] lstm1 does not need backward computation.
I0924 04:10:03.981106 21029 net.cpp:219] embedding does not need backward computation.
I0924 04:10:03.981114 21029 net.cpp:219] reshape_stage_indicator does not need backward computation.
I0924 04:10:03.981123 21029 net.cpp:219] reshape_frames does not need backward computation.
I0924 04:10:03.981134 21029 net.cpp:219] embed_encoder does not need backward computation.
I0924 04:10:03.981144 21029 net.cpp:219] cont_sentence_input_1_split does not need backward computation.
I0924 04:10:03.981154 21029 net.cpp:219] input does not need backward computation.
I0924 04:10:03.981163 21029 net.cpp:261] This network produces output probs
I0924 04:10:03.981194 21029 net.cpp:274] Network initialization done.
I0924 04:10:03.989718 21053 net.cpp:141] Setting up probs
I0924 04:10:03.989776 21053 net.cpp:148] Top shape: 1 1 46168 (46168)
I0924 04:10:03.989786 21053 net.cpp:156] Memory required for data: 405756
I0924 04:10:03.989799 21053 net.cpp:219] probs does not need backward computation.
I0924 04:10:03.989809 21053 net.cpp:219] predict does not need backward computation.
I0924 04:10:03.989820 21053 net.cpp:219] lstm2 does not need backward computation.
I0924 04:10:03.989830 21053 net.cpp:219] concat does not need backward computation.
I0924 04:10:03.989838 21053 net.cpp:219] lstm1 does not need backward computation.
I0924 04:10:03.989850 21053 net.cpp:219] embedding does not need backward computation.
I0924 04:10:03.989882 21053 net.cpp:219] reshape_stage_indicator does not need backward computation.
I0924 04:10:03.989892 21053 net.cpp:219] reshape_frames does not need backward computation.
I0924 04:10:03.989900 21053 net.cpp:219] embed_encoder does not need backward computation.
I0924 04:10:03.989908 21053 net.cpp:219] cont_sentence_input_1_split does not need backward computation.
I0924 04:10:03.989917 21053 net.cpp:219] input does not need backward computation.
I0924 04:10:03.989924 21053 net.cpp:261] This network produces output probs
I0924 04:10:03.989950 21053 net.cpp:274] Network initialization done.
I0924 04:10:03.990440 21071 net.cpp:141] Setting up probs
I0924 04:10:03.990463 21071 net.cpp:148] Top shape: 1 1 46168 (46168)
I0924 04:10:03.990471 21071 net.cpp:156] Memory required for data: 405756
I0924 04:10:03.990480 21071 net.cpp:219] probs does not need backward computation.
I0924 04:10:03.990489 21071 net.cpp:219] predict does not need backward computation.
I0924 04:10:03.990501 21071 net.cpp:219] lstm2 does not need backward computation.
I0924 04:10:03.990511 21071 net.cpp:219] concat does not need backward computation.
I0924 04:10:03.990520 21071 net.cpp:219] lstm1 does not need backward computation.
I0924 04:10:03.990550 21071 net.cpp:219] embedding does not need backward computation.
I0924 04:10:03.990558 21071 net.cpp:219] reshape_stage_indicator does not need backward computation.
I0924 04:10:03.990566 21071 net.cpp:219] reshape_frames does not need backward computation.
I0924 04:10:03.990574 21071 net.cpp:219] embed_encoder does not need backward computation.
I0924 04:10:03.990583 21071 net.cpp:219] cont_sentence_input_1_split does not need backward computation.
I0924 04:10:03.990612 21071 net.cpp:219] input does not need backward computation.
I0924 04:10:03.990622 21071 net.cpp:261] This network produces output probs
I0924 04:10:03.990651 21071 net.cpp:274] Network initialization done.
I0924 04:10:03.993197 21033 net.cpp:141] Setting up probs
I0924 04:10:03.993257 21033 net.cpp:148] Top shape: 1 1 46168 (46168)
I0924 04:10:03.993270 21033 net.cpp:156] Memory required for data: 405756
I0924 04:10:03.993284 21033 net.cpp:219] probs does not need backward computation.
I0924 04:10:03.993297 21033 net.cpp:219] predict does not need backward computation.
I0924 04:10:03.993311 21033 net.cpp:219] lstm2 does not need backward computation.
I0924 04:10:03.993322 21033 net.cpp:219] concat does not need backward computation.
I0924 04:10:03.993335 21033 net.cpp:219] lstm1 does not need backward computation.
I0924 04:10:03.993345 21033 net.cpp:219] embedding does not need backward computation.
I0924 04:10:03.993355 21033 net.cpp:219] reshape_stage_indicator does not need backward computation.
I0924 04:10:03.993365 21033 net.cpp:219] reshape_frames does not need backward computation.
I0924 04:10:03.993377 21033 net.cpp:219] embed_encoder does not need backward computation.
I0924 04:10:03.993387 21033 net.cpp:219] cont_sentence_input_1_split does not need backward computation.
I0924 04:10:03.993398 21033 net.cpp:219] input does not need backward computation.
I0924 04:10:03.993407 21033 net.cpp:261] This network produces output probs
I0924 04:10:03.993432 21033 net.cpp:274] Network initialization done.
I0924 04:10:03.996016 21047 net.cpp:141] Setting up predict
I0924 04:10:03.996068 21047 net.cpp:148] Top shape: 1 1 46168 (46168)
I0924 04:10:03.996078 21047 net.cpp:156] Memory required for data: 221084
I0924 04:10:03.996101 21047 layer_factory.hpp:77] Creating layer probs
I0924 04:10:03.996126 21047 net.cpp:91] Creating Layer probs
I0924 04:10:03.996140 21047 net.cpp:425] probs <- predict
I0924 04:10:03.996155 21047 net.cpp:399] probs -> probs
I0924 04:10:03.997153 21039 net.cpp:141] Setting up probs
I0924 04:10:03.997200 21039 net.cpp:148] Top shape: 1 1 46168 (46168)
I0924 04:10:03.997208 21039 net.cpp:156] Memory required for data: 405756
I0924 04:10:03.997217 21039 net.cpp:219] probs does not need backward computation.
I0924 04:10:03.997225 21039 net.cpp:219] predict does not need backward computation.
I0924 04:10:03.997234 21039 net.cpp:219] lstm2 does not need backward computation.
I0924 04:10:03.997241 21039 net.cpp:219] concat does not need backward computation.
I0924 04:10:03.997249 21039 net.cpp:219] lstm1 does not need backward computation.
I0924 04:10:03.997262 21039 net.cpp:219] embedding does not need backward computation.
I0924 04:10:03.997273 21039 net.cpp:219] reshape_stage_indicator does not need backward computation.
I0924 04:10:03.997283 21039 net.cpp:219] reshape_frames does not need backward computation.
I0924 04:10:03.997288 21039 net.cpp:219] embed_encoder does not need backward computation.
I0924 04:10:03.997293 21039 net.cpp:219] cont_sentence_input_1_split does not need backward computation.
I0924 04:10:03.997300 21039 net.cpp:219] input does not need backward computation.
I0924 04:10:03.997305 21039 net.cpp:261] This network produces output probs
I0924 04:10:03.997339 21039 net.cpp:274] Network initialization done.
I0924 04:10:03.997334 21083 net.cpp:141] Setting up probs
I0924 04:10:03.997373 21083 net.cpp:148] Top shape: 1 1 46168 (46168)
I0924 04:10:03.997382 21083 net.cpp:156] Memory required for data: 405756
I0924 04:10:03.997391 21083 net.cpp:219] probs does not need backward computation.
I0924 04:10:03.997401 21083 net.cpp:219] predict does not need backward computation.
I0924 04:10:03.997413 21083 net.cpp:219] lstm2 does not need backward computation.
I0924 04:10:03.997427 21083 net.cpp:219] concat does not need backward computation.
I0924 04:10:03.997438 21083 net.cpp:219] lstm1 does not need backward computation.
I0924 04:10:03.997452 21083 net.cpp:219] embedding does not need backward computation.
I0924 04:10:03.997463 21083 net.cpp:219] reshape_stage_indicator does not need backward computation.
I0924 04:10:03.997474 21083 net.cpp:219] reshape_frames does not need backward computation.
I0924 04:10:03.997483 21083 net.cpp:219] embed_encoder does not need backward computation.
I0924 04:10:03.997495 21083 net.cpp:219] cont_sentence_input_1_split does not need backward computation.
I0924 04:10:03.997510 21083 net.cpp:219] input does not need backward computation.
I0924 04:10:03.997519 21083 net.cpp:261] This network produces output probs
I0924 04:10:03.997542 21083 net.cpp:274] Network initialization done.
I0924 04:10:04.007767 21055 net.cpp:141] Setting up conv1
I0924 04:10:04.007828 21055 net.cpp:148] Top shape: 10 96 55 55 (2904000)
I0924 04:10:04.007843 21055 net.cpp:156] Memory required for data: 17799480
I0924 04:10:04.007889 21055 layer_factory.hpp:77] Creating layer relu1
I0924 04:10:04.007920 21055 net.cpp:91] Creating Layer relu1
I0924 04:10:04.007936 21055 net.cpp:425] relu1 <- conv1
I0924 04:10:04.007953 21055 net.cpp:386] relu1 -> conv1 (in-place)
I0924 04:10:04.008827 21055 net.cpp:141] Setting up relu1
I0924 04:10:04.008868 21055 net.cpp:148] Top shape: 10 96 55 55 (2904000)
I0924 04:10:04.008878 21055 net.cpp:156] Memory required for data: 29415480
I0924 04:10:04.008893 21055 layer_factory.hpp:77] Creating layer pool1
I0924 04:10:04.008925 21055 net.cpp:91] Creating Layer pool1
I0924 04:10:04.008939 21055 net.cpp:425] pool1 <- conv1
I0924 04:10:04.008958 21055 net.cpp:399] pool1 -> pool1
I0924 04:10:04.009187 21055 net.cpp:141] Setting up pool1
I0924 04:10:04.009210 21055 net.cpp:148] Top shape: 10 96 27 27 (699840)
I0924 04:10:04.009220 21055 net.cpp:156] Memory required for data: 32214840
I0924 04:10:04.009232 21055 layer_factory.hpp:77] Creating layer norm1
I0924 04:10:04.009268 21055 net.cpp:91] Creating Layer norm1
I0924 04:10:04.009279 21055 net.cpp:425] norm1 <- pool1
I0924 04:10:04.009295 21055 net.cpp:399] norm1 -> norm1
I0924 04:10:04.009891 21047 net.cpp:141] Setting up probs
I0924 04:10:04.009925 21047 net.cpp:148] Top shape: 1 1 46168 (46168)
I0924 04:10:04.009934 21047 net.cpp:156] Memory required for data: 405756
I0924 04:10:04.009945 21047 net.cpp:219] probs does not need backward computation.
I0924 04:10:04.009956 21047 net.cpp:219] predict does not need backward computation.
I0924 04:10:04.009965 21047 net.cpp:219] lstm2 does not need backward computation.
I0924 04:10:04.009975 21047 net.cpp:219] concat does not need backward computation.
I0924 04:10:04.009985 21047 net.cpp:219] lstm1 does not need backward computation.
I0924 04:10:04.009992 21047 net.cpp:219] embedding does not need backward computation.
I0924 04:10:04.011976 21047 net.cpp:219] reshape_stage_indicator does not need backward computation.
I0924 04:10:04.012015 21047 net.cpp:219] reshape_frames does not need backward computation.
I0924 04:10:04.012022 21047 net.cpp:219] embed_encoder does not need backward computation.
I0924 04:10:04.012725 21047 net.cpp:219] cont_sentence_input_1_split does not need backward computation.
I0924 04:10:04.012756 21047 net.cpp:219] input does not need backward computation.
I0924 04:10:04.012766 21047 net.cpp:261] This network produces output probs
I0924 04:10:04.012800 21047 net.cpp:274] Network initialization done.
I0924 04:10:04.013344 21055 net.cpp:141] Setting up norm1
I0924 04:10:04.013386 21055 net.cpp:148] Top shape: 10 96 27 27 (699840)
I0924 04:10:04.013398 21055 net.cpp:156] Memory required for data: 35014200
I0924 04:10:04.013412 21055 layer_factory.hpp:77] Creating layer conv2
I0924 04:10:04.013962 21055 net.cpp:91] Creating Layer conv2
I0924 04:10:04.013988 21055 net.cpp:425] conv2 <- norm1
I0924 04:10:04.014008 21055 net.cpp:399] conv2 -> conv2
I0924 04:10:04.168530 21055 net.cpp:141] Setting up conv2
I0924 04:10:04.168609 21055 net.cpp:148] Top shape: 10 256 27 27 (1866240)
I0924 04:10:04.168622 21055 net.cpp:156] Memory required for data: 42479160
I0924 04:10:04.168666 21055 layer_factory.hpp:77] Creating layer relu2
I0924 04:10:04.168697 21055 net.cpp:91] Creating Layer relu2
I0924 04:10:04.168709 21055 net.cpp:425] relu2 <- conv2
I0924 04:10:04.168726 21055 net.cpp:386] relu2 -> conv2 (in-place)
I0924 04:10:04.171972 21055 net.cpp:141] Setting up relu2
I0924 04:10:04.172071 21055 net.cpp:148] Top shape: 10 256 27 27 (1866240)
I0924 04:10:04.172091 21055 net.cpp:156] Memory required for data: 49944120
I0924 04:10:04.172111 21055 layer_factory.hpp:77] Creating layer pool2
I0924 04:10:04.172194 21055 net.cpp:91] Creating Layer pool2
I0924 04:10:04.172219 21055 net.cpp:425] pool2 <- conv2
I0924 04:10:04.172260 21055 net.cpp:399] pool2 -> pool2
I0924 04:10:04.172735 21055 net.cpp:141] Setting up pool2
I0924 04:10:04.172768 21055 net.cpp:148] Top shape: 10 256 13 13 (432640)
I0924 04:10:04.172859 21055 net.cpp:156] Memory required for data: 51674680
I0924 04:10:04.172875 21055 layer_factory.hpp:77] Creating layer norm2
I0924 04:10:04.172912 21055 net.cpp:91] Creating Layer norm2
I0924 04:10:04.172926 21055 net.cpp:425] norm2 <- pool2
I0924 04:10:04.173215 21055 net.cpp:399] norm2 -> norm2
I0924 04:10:04.177938 21055 net.cpp:141] Setting up norm2
I0924 04:10:04.178014 21055 net.cpp:148] Top shape: 10 256 13 13 (432640)
I0924 04:10:04.178026 21055 net.cpp:156] Memory required for data: 53405240
I0924 04:10:04.178041 21055 layer_factory.hpp:77] Creating layer conv3
I0924 04:10:04.178084 21055 net.cpp:91] Creating Layer conv3
I0924 04:10:04.178098 21055 net.cpp:425] conv3 <- norm2
I0924 04:10:04.178119 21055 net.cpp:399] conv3 -> conv3
I0924 04:10:04.194257 21055 net.cpp:141] Setting up conv3
I0924 04:10:04.194325 21055 net.cpp:148] Top shape: 10 384 13 13 (648960)
I0924 04:10:04.194332 21055 net.cpp:156] Memory required for data: 56001080
I0924 04:10:04.194398 21055 layer_factory.hpp:77] Creating layer relu3
I0924 04:10:04.194423 21055 net.cpp:91] Creating Layer relu3
I0924 04:10:04.194434 21055 net.cpp:425] relu3 <- conv3
I0924 04:10:04.194444 21055 net.cpp:386] relu3 -> conv3 (in-place)
I0924 04:10:04.196566 21055 net.cpp:141] Setting up relu3
I0924 04:10:04.196651 21055 net.cpp:148] Top shape: 10 384 13 13 (648960)
I0924 04:10:04.196666 21055 net.cpp:156] Memory required for data: 58596920
I0924 04:10:04.196686 21055 layer_factory.hpp:77] Creating layer conv4
I0924 04:10:04.199779 21055 net.cpp:91] Creating Layer conv4
I0924 04:10:04.199870 21055 net.cpp:425] conv4 <- conv3
I0924 04:10:04.199926 21055 net.cpp:399] conv4 -> conv4
I0924 04:10:04.249997 21055 net.cpp:141] Setting up conv4
I0924 04:10:04.250077 21055 net.cpp:148] Top shape: 10 384 13 13 (648960)
I0924 04:10:04.250090 21055 net.cpp:156] Memory required for data: 61192760
I0924 04:10:04.250118 21055 layer_factory.hpp:77] Creating layer relu4
I0924 04:10:04.250145 21055 net.cpp:91] Creating Layer relu4
I0924 04:10:04.250159 21055 net.cpp:425] relu4 <- conv4
I0924 04:10:04.250176 21055 net.cpp:386] relu4 -> conv4 (in-place)
I0924 04:10:04.251170 21055 net.cpp:141] Setting up relu4
I0924 04:10:04.251207 21055 net.cpp:148] Top shape: 10 384 13 13 (648960)
I0924 04:10:04.251219 21055 net.cpp:156] Memory required for data: 63788600
I0924 04:10:04.251229 21055 layer_factory.hpp:77] Creating layer conv5
I0924 04:10:04.251260 21055 net.cpp:91] Creating Layer conv5
I0924 04:10:04.251272 21055 net.cpp:425] conv5 <- conv4
I0924 04:10:04.251288 21055 net.cpp:399] conv5 -> conv5
I0924 04:10:04.305089 21055 net.cpp:141] Setting up conv5
I0924 04:10:04.305157 21055 net.cpp:148] Top shape: 10 256 13 13 (432640)
I0924 04:10:04.305176 21055 net.cpp:156] Memory required for data: 65519160
I0924 04:10:04.305208 21055 layer_factory.hpp:77] Creating layer relu5
I0924 04:10:04.305240 21055 net.cpp:91] Creating Layer relu5
I0924 04:10:04.305253 21055 net.cpp:425] relu5 <- conv5
I0924 04:10:04.305266 21055 net.cpp:386] relu5 -> conv5 (in-place)
I0924 04:10:04.308172 21055 net.cpp:141] Setting up relu5
I0924 04:10:04.308266 21055 net.cpp:148] Top shape: 10 256 13 13 (432640)
I0924 04:10:04.308279 21055 net.cpp:156] Memory required for data: 67249720
I0924 04:10:04.308295 21055 layer_factory.hpp:77] Creating layer pool5
I0924 04:10:04.308326 21055 net.cpp:91] Creating Layer pool5
I0924 04:10:04.308341 21055 net.cpp:425] pool5 <- conv5
I0924 04:10:04.308360 21055 net.cpp:399] pool5 -> pool5
I0924 04:10:04.310890 21055 net.cpp:141] Setting up pool5
I0924 04:10:04.310971 21055 net.cpp:148] Top shape: 10 256 6 6 (92160)
I0924 04:10:04.310984 21055 net.cpp:156] Memory required for data: 67618360
I0924 04:10:04.311002 21055 layer_factory.hpp:77] Creating layer fc6
I0924 04:10:04.311933 21055 net.cpp:91] Creating Layer fc6
I0924 04:10:04.311965 21055 net.cpp:425] fc6 <- pool5
I0924 04:10:04.311995 21055 net.cpp:399] fc6 -> fc6
I0924 04:10:04.451135 21055 net.cpp:141] Setting up fc6
I0924 04:10:04.451187 21055 net.cpp:148] Top shape: 10 4096 (40960)
I0924 04:10:04.451195 21055 net.cpp:156] Memory required for data: 67782200
I0924 04:10:04.451213 21055 layer_factory.hpp:77] Creating layer relu6
I0924 04:10:04.451231 21055 net.cpp:91] Creating Layer relu6
I0924 04:10:04.451238 21055 net.cpp:425] relu6 <- fc6
I0924 04:10:04.451707 21055 net.cpp:386] relu6 -> fc6 (in-place)
I0924 04:10:04.452448 21055 net.cpp:141] Setting up relu6
I0924 04:10:04.452469 21055 net.cpp:148] Top shape: 10 4096 (40960)
I0924 04:10:04.452474 21055 net.cpp:156] Memory required for data: 67946040
I0924 04:10:04.452481 21055 layer_factory.hpp:77] Creating layer drop6
I0924 04:10:04.452500 21055 net.cpp:91] Creating Layer drop6
I0924 04:10:04.452507 21055 net.cpp:425] drop6 <- fc6
I0924 04:10:04.452514 21055 net.cpp:386] drop6 -> fc6 (in-place)
I0924 04:10:04.453017 21055 net.cpp:141] Setting up drop6
I0924 04:10:04.453032 21055 net.cpp:148] Top shape: 10 4096 (40960)
I0924 04:10:04.453037 21055 net.cpp:156] Memory required for data: 68109880
I0924 04:10:04.453042 21055 layer_factory.hpp:77] Creating layer fc7
I0924 04:10:04.453053 21055 net.cpp:91] Creating Layer fc7
I0924 04:10:04.453058 21055 net.cpp:425] fc7 <- fc6
I0924 04:10:04.453068 21055 net.cpp:399] fc7 -> fc7
I0924 04:10:04.502089 21055 net.cpp:141] Setting up fc7
I0924 04:10:04.502148 21055 net.cpp:148] Top shape: 10 4096 (40960)
I0924 04:10:04.502156 21055 net.cpp:156] Memory required for data: 68273720
I0924 04:10:04.502172 21055 layer_factory.hpp:77] Creating layer relu7
I0924 04:10:04.502192 21055 net.cpp:91] Creating Layer relu7
I0924 04:10:04.502199 21055 net.cpp:425] relu7 <- fc7
I0924 04:10:04.502208 21055 net.cpp:386] relu7 -> fc7 (in-place)
I0924 04:10:04.509246 21055 net.cpp:141] Setting up relu7
I0924 04:10:04.509366 21055 net.cpp:148] Top shape: 10 4096 (40960)
I0924 04:10:04.509384 21055 net.cpp:156] Memory required for data: 68437560
I0924 04:10:04.509409 21055 layer_factory.hpp:77] Creating layer drop7
I0924 04:10:04.509466 21055 net.cpp:91] Creating Layer drop7
I0924 04:10:04.509488 21055 net.cpp:425] drop7 <- fc7
I0924 04:10:04.509521 21055 net.cpp:386] drop7 -> fc7 (in-place)
I0924 04:10:04.511127 21055 net.cpp:141] Setting up drop7
I0924 04:10:04.511180 21055 net.cpp:148] Top shape: 10 4096 (40960)
I0924 04:10:04.511189 21055 net.cpp:156] Memory required for data: 68601400
I0924 04:10:04.511201 21055 layer_factory.hpp:77] Creating layer fc8
I0924 04:10:04.511226 21055 net.cpp:91] Creating Layer fc8
I0924 04:10:04.511236 21055 net.cpp:425] fc8 <- fc7
I0924 04:10:04.511251 21055 net.cpp:399] fc8 -> fc8
I0924 04:10:04.526660 21055 net.cpp:141] Setting up fc8
I0924 04:10:04.526726 21055 net.cpp:148] Top shape: 10 1000 (10000)
I0924 04:10:04.526732 21055 net.cpp:156] Memory required for data: 68641400
I0924 04:10:04.526748 21055 layer_factory.hpp:77] Creating layer prob
I0924 04:10:04.527511 21055 net.cpp:91] Creating Layer prob
I0924 04:10:04.527549 21055 net.cpp:425] prob <- fc8
I0924 04:10:04.527567 21055 net.cpp:399] prob -> prob
I0924 04:10:04.530201 21055 net.cpp:141] Setting up prob
I0924 04:10:04.530261 21055 net.cpp:148] Top shape: 10 1000 (10000)
I0924 04:10:04.530269 21055 net.cpp:156] Memory required for data: 68681400
I0924 04:10:04.530280 21055 net.cpp:219] prob does not need backward computation.
I0924 04:10:04.530288 21055 net.cpp:219] fc8 does not need backward computation.
I0924 04:10:04.530294 21055 net.cpp:219] drop7 does not need backward computation.
I0924 04:10:04.530298 21055 net.cpp:219] relu7 does not need backward computation.
…
