…
Java HotSpot(TM) 64-Bit Server VM warning: You have loaded library /tmp/cvld3621942075286521360/libopencv_java310.xine1.so which might have disabled stack guard. The VM will try to fix the stack guard now.
It's highly recommended that you fix the library with 'execstack -c <libfile>', or link it with '-z noexecstack'.
WARNING: Logging before InitGoogleLogging() is written to STDERR
I0803 21:22:18.137852 13867 net.cpp:49] Initializing net from parameters: 
name: "GoogleNet"
state {
  phase: TEST
}
layer {
  name: "data"
  type: "Input"
  top: "data"
  input_param {
    shape {
      dim: 10
      dim: 3
      dim: 224
      dim: 224
    }
  }
}
layer {
  name: "conv1/7x7_s2"
  type: "Convolution"
  bottom: "data"
  top: "conv1/7x7_s2"
  param {
    lr_mult: 1
    decay_mult: 1
  }
  param {
    lr_mult: 2
    decay_mult: 0
  }
  convolution_param {
    num_output: 64
    pad: 3
    kernel_size: 7
    stride: 2
    weight_filler {
      type: "xavier"
      std: 0.1
    }
    bias_filler {
      type: "constant"
      value: 0.2
    }
  }
}
layer {
  name: "conv1/relu_7x7"
  type: "ReLU"
  bottom: "conv1/7x7_s2"
  top: "conv1/7x7_s2"
}
layer {
  name: "pool1/3x3_s2"
  type: "Pooling"
  bottom: "conv1/7x7_s2"
  top: "pool1/3x3_s2"
  pooling_param {
    pool: MAX
    kernel_size: 3
    stride: 2
  }
}
layer {
  name: "pool1/norm1"
  type: "LRN"
  bottom: "pool1/3x3_s2"
  top: "pool1/norm1"
  lrn_param {
    local_size: 5
    alpha: 0.0001
    beta: 0.75
  }
}
layer {
  name: "conv2/3x3_reduce"
  type: "Convolution"
  bottom: "pool1/norm1"
  top: "conv2/3x3_reduce"
  param {
    lr_mult: 1
    decay_mult: 1
  }
  param {
    lr_mult: 2
    decay_mult: 0
  }
  convolution_param {
    num_output: 64
    kernel_size: 1
    weight_filler {
      type: "xavier"
      std: 0.1
    }
    bias_filler {
      type: "constant"
      value: 0.2
    }
  }
}
layer {
  name: "conv2/relu_3x3_reduce"
  type: "ReLU"
  bottom: "conv2/3x3_reduce"
  top: "conv2/3x3_reduce"
}
layer {
  name: "conv2/3x3"
  type: "Convolution"
  bottom: "conv2/3x3_reduce"
  top: "conv2/3x3"
  param {
    lr_mult: 1
    decay_mult: 1
  }
  param {
    lr_mult: 2
    decay_mult: 0
  }
  convolution_param {
    num_output: 192
    pad: 1
    kernel_size: 3
    weight_filler {
      type: "xavier"
      std: 0.03
    }
    bias_filler {
      type: "constant"
      value: 0.2
    }
  }
}
layer {
  name: "conv2/relu_3x3"
  type: "ReLU"
  bottom: "conv2/3x3"
  top: "conv2/3x3"
}
layer {
  name: "conv2/norm2"
  type: "LRN"
  bottom: "conv2/3x3"
  top: "conv2/norm2"
  lrn_param {
    local_size: 5
    alpha: 0.0001
    beta: 0.75
  }
}
layer {
  name: "pool2/3x3_s2"
  type: "Pooling"
  bottom: "conv2/norm2"
  top: "pool2/3x3_s2"
  pooling_param {
    pool: MAX
    kernel_size: 3
    stride: 2
  }
}
layer {
  name: "inception_3a/1x1"
  type: "Convolution"
  bottom: "pool2/3x3_s2"
  top: "inception_3a/1x1"
  param {
    lr_mult: 1
    decay_mult: 1
  }
  param {
    lr_mult: 2
    decay_mult: 0
  }
  convolution_param {
    num_output: 64
    kernel_size: 1
    weight_filler {
      type: "xavier"
      std: 0.03
    }
    bias_filler {
      type: "constant"
      value: 0.2
    }
  }
}
layer {
  name: "inception_3a/relu_1x1"
  type: "ReLU"
  bottom: "inception_3a/1x1"
  top: "inception_3a/1x1"
}
layer {
  name: "inception_3a/3x3_reduce"
  type: "Convolution"
  bottom: "pool2/3x3_s2"
  top: "inception_3a/3x3_reduce"
  param {
    lr_mult: 1
    decay_mult: 1
  }
  param {
    lr_mult: 2
    decay_mult: 0
  }
  convolution_param {
    num_output: 96
    kernel_size: 1
    weight_filler {
      type: "xavier"
      std: 0.09
    }
    bias_filler {
      type: "constant"
      value: 0.2
    }
  }
}
layer {
  name: "inception_3a/relu_3x3_reduce"
  type: "ReLU"
  bottom: "inception_3a/3x3_reduce"
  top: "inception_3a/3x3_reduce"
}
layer {
  name: "inception_3a/3x3"
  type: "Convolution"
  bottom: "inception_3a/3x3_reduce"
  top: "inception_3a/3x3"
  param {
    lr_mult: 1
    decay_mult: 1
  }
  param {
    lr_mult: 2
    decay_mult: 0
  }
  convolution_param {
    num_output: 128
    pad: 1
    kernel_size: 3
    weight_filler {
      type: "xavier"
      std: 0.03
    }
    bias_filler {
      type: "constant"
      value: 0.2
    }
  }
}
layer {
  name: "inception_3a/relu_3x3"
  type: "ReLU"
  bottom: "inception_3a/3x3"
  top: "inception_3a/3x3"
}
layer {
  name: "inception_3a/5x5_reduce"
  type: "Convolution"
  bottom: "pool2/3x3_s2"
  top: "inception_3a/5x5_reduce"
  param {
    lr_mult: 1
    decay_mult: 1
  }
  param {
    lr_mult: 2
    decay_mult: 0
  }
  convolution_param {
    num_output: 16
    kernel_size: 1
    weight_filler {
      type: "xavier"
      std: 0.2
    }
    bias_filler {
      type: "constant"
      value: 0.2
    }
  }
}
layer {
  name: "inception_3a/relu_5x5_reduce"
  type: "ReLU"
  bottom: "inception_3a/5x5_reduce"
  top: "inception_3a/5x5_reduce"
}
layer {
  name: "inception_3a/5x5"
  type: "Convolution"
  bottom: "inception_3a/5x5_reduce"
  top: "inception_3a/5x5"
  param {
    lr_mult: 1
    decay_mult: 1
  }
  param {
    lr_mult: 2
    decay_mult: 0
  }
  convolution_param {
    num_output: 32
    pad: 2
    kernel_size: 5
    weight_filler {
      type: "xavier"
      std: 0.03
    }
    bias_filler {
      type: "constant"
      value: 0.2
    }
  }
}
layer {
  name: "inception_3a/relu_5x5"
  type: "ReLU"
  bottom: "inception_3a/5x5"
  top: "inception_3a/5x5"
}
layer {
  name: "inception_3a/pool"
  type: "Pooling"
  bottom: "pool2/3x3_s2"
  top: "inception_3a/pool"
  pooling_param {
    pool: MAX
    kernel_size: 3
    stride: 1
    pad: 1
  }
}
layer {
  name: "inception_3a/pool_proj"
  type: "Convolution"
  bottom: "inception_3a/pool"
  top: "inception_3a/pool_proj"
  param {
    lr_mult: 1
    decay_mult: 1
  }
  param {
    lr_mult: 2
    decay_mult: 0
  }
  convolution_param {
    num_output: 32
    kernel_size: 1
    weight_filler {
      type: "xavier"
      std: 0.1
    }
    bias_filler {
      type: "constant"
      value: 0.2
    }
  }
}
layer {
  name: "inception_3a/relu_pool_proj"
  type: "ReLU"
  bottom: "inception_3a/pool_proj"
  top: "inception_3a/pool_proj"
}
layer {
  name: "inception_3a/output"
  type: "Concat"
  bottom: "inception_3a/1x1"
  bottom: "inception_3a/3x3"
  bottom: "inception_3a/5x5"
  bottom: "inception_3a/pool_proj"
  top: "inception_3a/output"
}
layer {
  name: "inception_3b/1x1"
  type: "Convolution"
  bottom: "inception_3a/output"
  top: "inception_3b/1x1"
  param {
    lr_mult: 1
    decay_mult: 1
  }
  param {
    lr_mult: 2
    decay_mult: 0
  }
  convolution_param {
    num_output: 128
    kernel_size: 1
    weight_filler {
      type: "xavier"
      std: 0.03
    }
    bias_filler {
      type: "constant"
      value: 0.2
    }
  }
}
layer {
  name: "inception_3b/relu_1x1"
  type: "ReLU"
  bottom: "inception_3b/1x1"
  top: "inception_3b/1x1"
}
layer {
  name: "inception_3b/3x3_reduce"
  type: "Convolution"
  bottom: "inception_3a/output"
  top: "inception_3b/3x3_reduce"
  param {
    lr_mult: 1
    decay_mult: 1
  }
  param {
    lr_mult: 2
    decay_mult: 0
  }
  convolution_param {
    num_output: 128
    kernel_size: 1
    weight_filler {
      type: "xavier"
      std: 0.09
    }
    bias_filler {
      type: "constant"
      value: 0.2
    }
  }
}
layer {
  name: "inception_3b/relu_3x3_reduce"
  type: "ReLU"
  bottom: "inception_3b/3x3_reduce"
  top: "inception_3b/3x3_reduce"
}
layer {
  name: "inception_3b/3x3"
  type: "Convolution"
  bottom: "inception_3b/3x3_reduce"
  top: "inception_3b/3x3"
  param {
    lr_mult: 1
    decay_mult: 1
  }
  param {
    lr_mult: 2
    decay_mult: 0
  }
  convolution_param {
    num_output: 192
    pad: 1
    kernel_size: 3
    weight_filler {
      type: "xavier"
      std: 0.03
    }
    bias_filler {
      type: "constant"
      value: 0.2
    }
  }
}
layer {
  name: "inception_3b/relu_3x3"
  type: "ReLU"
  bottom: "inception_3b/3x3"
  top: "inception_3b/3x3"
}
layer {
  name: "inception_3b/5x5_reduce"
  type: "Convolution"
  bottom: "inception_3a/output"
  top: "inception_3b/5x5_reduce"
  param {
    lr_mult: 1
    decay_mult: 1
  }
  param {
    lr_mult: 2
    decay_mult: 0
  }
  convolution_param {
    num_output: 32
    kernel_size: 1
    weight_filler {
      type: "xavier"
      std: 0.2
    }
    bias_filler {
      type: "constant"
      value: 0.2
    }
  }
}
layer {
  name: "inception_3b/relu_5x5_reduce"
  type: "ReLU"
  bottom: "inception_3b/5x5_reduce"
  top: "inception_3b/5x5_reduce"
}
layer {
  name: "inception_3b/5x5"
  type: "Convolution"
  bottom: "inception_3b/5x5_reduce"
  top: "inception_3b/5x5"
  param {
    lr_mult: 1
    decay_mult: 1
  }
  param {
    lr_mult: 2
    decay_mult: 0
  }
  convolution_param {
    num_output: 96
    pad: 2
    kernel_size: 5
    weight_filler {
      type: "xavier"
      std: 0.03
    }
    bias_filler {
      type: "constant"
      value: 0.2
    }
  }
}
layer {
  name: "inception_3b/relu_5x5"
  type: "ReLU"
  bottom: "inception_3b/5x5"
  top: "inception_3b/5x5"
}
layer {
  name: "inception_3b/pool"
  type: "Pooling"
  bottom: "inception_3a/output"
  top: "inception_3b/pool"
  pooling_param {
    pool: MAX
    kernel_size: 3
    stride: 1
    pad: 1
  }
}
layer {
  name: "inception_3b/pool_proj"
  type: "Convolution"
  bottom: "inception_3b/pool"
  top: "inception_3b/pool_proj"
  param {
    lr_mult: 1
    decay_mult: 1
  }
  param {
    lr_mult: 2
    decay_mult: 0
  }
  convolution_param {
    num_output: 64
    kernel_size: 1
    weight_filler {
      type: "xavier"
      std: 0.1
    }
    bias_filler {
      type: "constant"
      value: 0.2
    }
  }
}
layer {
  name: "inception_3b/relu_pool_proj"
  type: "ReLU"
  bottom: "inception_3b/pool_proj"
  top: "inception_3b/pool_proj"
}
layer {
  name: "inception_3b/output"
  type: "Concat"
  bottom: "inception_3b/1x1"
  bottom: "inception_3b/3x3"
  bottom: "inception_3b/5x5"
  bottom: "inception_3b/pool_proj"
  top: "inception_3b/output"
}
layer {
  name: "pool3/3x3_s2"
  type: "Pooling"
  bottom: "inception_3b/output"
  top: "pool3/3x3_s2"
  pooling_param {
    pool: MAX
    kernel_size: 3
    stride: 2
  }
}
layer {
  name: "inception_4a/1x1"
  type: "Convolution"
  bottom: "pool3/3x3_s2"
  top: "inception_4a/1x1"
  param {
    lr_mult: 1
    decay_mult: 1
  }
  param {
    lr_mult: 2
    decay_mult: 0
  }
  convolution_param {
    num_output: 192
    kernel_size: 1
    weight_filler {
      type: "xavier"
      std: 0.03
    }
    bias_filler {
      type: "constant"
      value: 0.2
    }
  }
}
layer {
  name: "inception_4a/relu_1x1"
  type: "ReLU"
  bottom: "inception_4a/1x1"
  top: "inception_4a/1x1"
}
layer {
  name: "inception_4a/3x3_reduce"
  type: "Convolution"
  bottom: "pool3/3x3_s2"
  top: "inception_4a/3x3_reduce"
  param {
    lr_mult: 1
    decay_mult: 1
  }
  param {
    lr_mult: 2
    decay_mult: 0
  }
  convolution_param {
    num_output: 96
    kernel_size: 1
    weight_filler {
      type: "xavier"
      std: 0.09
    }
    bias_filler {
      type: "constant"
      value: 0.2
    }
  }
}
layer {
  name: "inception_4a/relu_3x3_reduce"
  type: "ReLU"
  bottom: "inception_4a/3x3_reduce"
  top: "inception_4a/3x3_reduce"
}
layer {
  name: "inception_4a/3x3"
  type: "Convolution"
  bottom: "inception_4a/3x3_reduce"
  top: "inception_4a/3x3"
  param {
    lr_mult: 1
    decay_mult: 1
  }
  param {
    lr_mult: 2
    decay_mult: 0
  }
  convolution_param {
    num_output: 208
    pad: 1
    kernel_size: 3
    weight_filler {
      type: "xavier"
      std: 0.03
    }
    bias_filler {
      type: "constant"
      value: 0.2
    }
  }
}
layer {
  name: "inception_4a/relu_3x3"
  type: "ReLU"
  bottom: "inception_4a/3x3"
  top: "inception_4a/3x3"
}
layer {
  name: "inception_4a/5x5_reduce"
  type: "Convolution"
  bottom: "pool3/3x3_s2"
  top: "inception_4a/5x5_reduce"
  param {
    lr_mult: 1
    decay_mult: 1
  }
  param {
    lr_mult: 2
    decay_mult: 0
  }
  convolution_param {
    num_output: 16
    kernel_size: 1
    weight_filler {
      type: "xavier"
      std: 0.2
    }
    bias_filler {
      type: "constant"
      value: 0.2
    }
  }
}
layer {
  name: "inception_4a/relu_5x5_reduce"
  type: "ReLU"
  bottom: "inception_4a/5x5_reduce"
  top: "inception_4a/5x5_reduce"
}
layer {
  name: "inception_4a/5x5"
  type: "Convolution"
  bottom: "inception_4a/5x5_reduce"
  top: "inception_4a/5x5"
  param {
    lr_mult: 1
    decay_mult: 1
  }
  param {
    lr_mult: 2
    decay_mult: 0
  }
  convolution_param {
    num_output: 48
    pad: 2
    kernel_size: 5
    weight_filler {
      type: "xavier"
      std: 0.03
    }
    bias_filler {
      type: "constant"
      value: 0.2
    }
  }
}
layer {
  name: "inception_4a/relu_5x5"
  type: "ReLU"
  bottom: "inception_4a/5x5"
  top: "inception_4a/5x5"
}
layer {
  name: "inception_4a/pool"
  type: "Pooling"
  bottom: "pool3/3x3_s2"
  top: "inception_4a/pool"
  pooling_param {
    pool: MAX
    kernel_size: 3
    stride: 1
    pad: 1
  }
}
layer {
  name: "inception_4a/pool_proj"
  type: "Convolution"
  bottom: "inception_4a/pool"
  top: "inception_4a/pool_proj"
  param {
    lr_mult: 1
    decay_mult: 1
  }
  param {
    lr_mult: 2
    decay_mult: 0
  }
  convolution_param {
    num_output: 64
    kernel_size: 1
    weight_filler {
      type: "xavier"
      std: 0.1
    }
    bias_filler {
      type: "constant"
      value: 0.2
    }
  }
}
layer {
  name: "inception_4a/relu_pool_proj"
  type: "ReLU"
  bottom: "inception_4a/pool_proj"
  top: "inception_4a/pool_proj"
}
layer {
  name: "inception_4a/output"
  type: "Concat"
  bottom: "inception_4a/1x1"
  bottom: "inception_4a/3x3"
  bottom: "inception_4a/5x5"
  bottom: "inception_4a/pool_proj"
  top: "inception_4a/output"
}
layer {
  name: "inception_4b/1x1"
  type: "Convolution"
  bottom: "inception_4a/output"
  top: "inception_4b/1x1"
  param {
    lr_mult: 1
    decay_mult: 1
  }
  param {
    lr_mult: 2
    decay_mult: 0
  }
  convolution_param {
    num_output: 160
    kernel_size: 1
    weight_filler {
      type: "xavier"
      std: 0.03
    }
    bias_filler {
      type: "constant"
      value: 0.2
    }
  }
}
layer {
  name: "inception_4b/relu_1x1"
  type: "ReLU"
  bottom: "inception_4b/1x1"
  top: "inception_4b/1x1"
}
layer {
  name: "inception_4b/3x3_reduce"
  type: "Convolution"
  bottom: "inception_4a/output"
  top: "inception_4b/3x3_reduce"
  param {
    lr_mult: 1
    decay_mult: 1
  }
  param {
    lr_mult: 2
    decay_mult: 0
  }
  convolution_param {
    num_output: 112
    kernel_size: 1
    weight_filler {
      type: "xavier"
      std: 0.09
    }
    bias_filler {
      type: "constant"
      value: 0.2
    }
  }
}
layer {
  name: "inception_4b/relu_3x3_reduce"
  type: "ReLU"
  bottom: "inception_4b/3x3_reduce"
  top: "inception_4b/3x3_reduce"
}
layer {
  name: "inception_4b/3x3"
  type: "Convolution"
  bottom: "inception_4b/3x3_reduce"
  top: "inception_4b/3x3"
  param {
    lr_mult: 1
    decay_mult: 1
  }
  param {
    lr_mult: 2
    decay_mult: 0
  }
  convolution_param {
    num_output: 224
    pad: 1
    kernel_size: 3
    weight_filler {
      type: "xavier"
      std: 0.03
    }
    bias_filler {
      type: "constant"
      value: 0.2
    }
  }
}
layer {
  name: "inception_4b/relu_3x3"
  type: "ReLU"
  bottom: "inception_4b/3x3"
  top: "inception_4b/3x3"
}
layer {
  name: "inception_4b/5x5_reduce"
  type: "Convolution"
  bottom: "inception_4a/output"
  top: "inception_4b/5x5_reduce"
  param {
    lr_mult: 1
    decay_mult: 1
  }
  param {
    lr_mult: 2
    decay_mult: 0
  }
  convolution_param {
    num_output: 24
    kernel_size: 1
    weight_filler {
      type: "xavier"
      std: 0.2
    }
    bias_filler {
      type: "constant"
      value: 0.2
    }
  }
}
layer {
  name: "inception_4b/relu_5x5_reduce"
  type: "ReLU"
  bottom: "inception_4b/5x5_reduce"
  top: "inception_4b/5x5_reduce"
}
layer {
  name: "inception_4b/5x5"
  type: "Convolution"
  bottom: "inception_4b/5x5_reduce"
  top: "inception_4b/5x5"
  param {
    lr_mult: 1
    decay_mult: 1
  }
  param {
    lr_mult: 2
    decay_mult: 0
  }
  convolution_param {
    num_output: 64
    pad: 2
    kernel_size: 5
    weight_filler {
      type: "xavier"
      std: 0.03
    }
    bias_filler {
      type: "constant"
      value: 0.2
    }
  }
}
layer {
  name: "inception_4b/relu_5x5"
  type: "ReLU"
  bottom: "inception_4b/5x5"
  top: "inception_4b/5x5"
}
layer {
  name: "inception_4b/pool"
  type: "Pooling"
  bottom: "inception_4a/output"
  top: "inception_4b/pool"
  pooling_param {
    pool: MAX
    kernel_size: 3
    stride: 1
    pad: 1
  }
}
layer {
  name: "inception_4b/pool_proj"
  type: "Convolution"
  bottom: "inception_4b/pool"
  top: "inception_4b/pool_proj"
  param {
    lr_mult: 1
    decay_mult: 1
  }
  param {
    lr_mult: 2
    decay_mult: 0
  }
  convolution_param {
    num_output: 64
    kernel_size: 1
    weight_filler {
      type: "xavier"
      std: 0.1
    }
    bias_filler {
      type: "constant"
      value: 0.2
    }
  }
}
layer {
  name: "inception_4b/relu_pool_proj"
  type: "ReLU"
  bottom: "inception_4b/pool_proj"
  top: "inception_4b/pool_proj"
}
layer {
  name: "inception_4b/output"
  type: "Concat"
  bottom: "inception_4b/1x1"
  bottom: "inception_4b/3x3"
  bottom: "inception_4b/5x5"
  bottom: "inception_4b/pool_proj"
  top: "inception_4b/output"
}
layer {
  name: "inception_4c/1x1"
  type: "Convolution"
  bottom: "inception_4b/output"
  top: "inception_4c/1x1"
  param {
    lr_mult: 1
    decay_mult: 1
  }
  param {
    lr_mult: 2
    decay_mult: 0
  }
  convolution_param {
    num_output: 128
    kernel_size: 1
    weight_filler {
      type: "xavier"
      std: 0.03
    }
    bias_filler {
      type: "constant"
      value: 0.2
    }
  }
}
layer {
  name: "inception_4c/relu_1x1"
  type: "ReLU"
  bottom: "inception_4c/1x1"
  top: "inception_4c/1x1"
}
layer {
  name: "inception_4c/3x3_reduce"
  type: "Convolution"
  bottom: "inception_4b/output"
  top: "inception_4c/3x3_reduce"
  param {
    lr_mult: 1
    decay_mult: 1
  }
  param {
    lr_mult: 2
    decay_mult: 0
  }
  convolution_param {
    num_output: 128
    kernel_size: 1
    weight_filler {
      type: "xavier"
      std: 0.09
    }
    bias_filler {
      type: "constant"
      value: 0.2
    }
  }
}
layer {
  name: "inception_4c/relu_3x3_reduce"
  type: "ReLU"
  bottom: "inception_4c/3x3_reduce"
  top: "inception_4c/3x3_reduce"
}
layer {
  name: "inception_4c/3x3"
  type: "Convolution"
  bottom: "inception_4c/3x3_reduce"
  top: "inception_4c/3x3"
  param {
    lr_mult: 1
    decay_mult: 1
  }
  param {
    lr_mult: 2
    decay_mult: 0
  }
  convolution_param {
    num_output: 256
    pad: 1
    kernel_size: 3
    weight_filler {
      type: "xavier"
      std: 0.03
    }
    bias_filler {
      type: "constant"
      value: 0.2
    }
  }
}
layer {
  name: "inception_4c/relu_3x3"
  type: "ReLU"
  bottom: "inception_4c/3x3"
  top: "inception_4c/3x3"
}
layer {
  name: "inception_4c/5x5_reduce"
  type: "Convolution"
  bottom: "inception_4b/output"
  top: "inception_4c/5x5_reduce"
  param {
    lr_mult: 1
    decay_mult: 1
  }
  param {
    lr_mult: 2
    decay_mult: 0
  }
  convolution_param {
    num_output: 24
    kernel_size: 1
    weight_filler {
      type: "xavier"
      std: 0.2
    }
    bias_filler {
      type: "constant"
      value: 0.2
    }
  }
}
layer {
  name: "inception_4c/relu_5x5_reduce"
  type: "ReLU"
  bottom: "inception_4c/5x5_reduce"
  top: "inception_4c/5x5_reduce"
}
layer {
  name: "inception_4c/5x5"
  type: "Convolution"
  bottom: "inception_4c/5x5_reduce"
  top: "inception_4c/5x5"
  param {
    lr_mult: 1
    decay_mult: 1
  }
  param {
    lr_mult: 2
    decay_mult: 0
  }
  convolution_param {
    num_output: 64
    pad: 2
    kernel_size: 5
    weight_filler {
      type: "xavier"
      std: 0.03
    }
    bias_filler {
      type: "constant"
      value: 0.2
    }
  }
}
layer {
  name: "inception_4c/relu_5x5"
  type: "ReLU"
  bottom: "inception_4c/5x5"
  top: "inception_4c/5x5"
}
layer {
  name: "inception_4c/pool"
  type: "Pooling"
  bottom: "inception_4b/output"
  top: "inception_4c/pool"
  pooling_param {
    pool: MAX
    kernel_size: 3
    stride: 1
    pad: 1
  }
}
layer {
  name: "inception_4c/pool_proj"
  type: "Convolution"
  bottom: "inception_4c/pool"
  top: "inception_4c/pool_proj"
  param {
    lr_mult: 1
    decay_mult: 1
  }
  param {
    lr_mult: 2
    decay_mult: 0
  }
  convolution_param {
    num_output: 64
    kernel_size: 1
    weight_filler {
      type: "xavier"
      std: 0.1
    }
    bias_filler {
      type: "constant"
      value: 0.2
    }
  }
}
layer {
  name: "inception_4c/relu_pool_proj"
  type: "ReLU"
  bottom: "inception_4c/pool_proj"
  top: "inception_4c/pool_proj"
}
layer {
  name: "inception_4c/output"
  type: "Concat"
  bottom: "inception_4c/1x1"
  bottom: "inception_4c/3x3"
  bottom: "inception_4c/5x5"
  bottom: "inception_4c/pool_proj"
  top: "inception_4c/output"
}
layer {
  name: "inception_4d/1x1"
  type: "Convolution"
  bottom: "inception_4c/output"
  top: "inception_4d/1x1"
  param {
    lr_mult: 1
    decay_mult: 1
  }
  param {
    lr_mult: 2
    decay_mult: 0
  }
  convolution_param {
    num_output: 112
    kernel_size: 1
    weight_filler {
      type: "xavier"
      std: 0.03
    }
    bias_filler {
      type: "constant"
      value: 0.2
    }
  }
}
layer {
  name: "inception_4d/relu_1x1"
  type: "ReLU"
  bottom: "inception_4d/1x1"
  top: "inception_4d/1x1"
}
layer {
  name: "inception_4d/3x3_reduce"
  type: "Convolution"
  bottom: "inception_4c/output"
  top: "inception_4d/3x3_reduce"
  param {
    lr_mult: 1
    decay_mult: 1
  }
  param {
    lr_mult: 2
    decay_mult: 0
  }
  convolution_param {
    num_output: 144
    kernel_size: 1
    weight_filler {
      type: "xavier"
      std: 0.09
    }
    bias_filler {
      type: "constant"
      value: 0.2
    }
  }
}
layer {
  name: "inception_4d/relu_3x3_reduce"
  type: "ReLU"
  bottom: "inception_4d/3x3_reduce"
  top: "inception_4d/3x3_reduce"
}
layer {
  name: "inception_4d/3x3"
  type: "Convolution"
  bottom: "inception_4d/3x3_reduce"
  top: "inception_4d/3x3"
  param {
    lr_mult: 1
    decay_mult: 1
  }
  param {
    lr_mult: 2
    decay_mult: 0
  }
  convolution_param {
    num_output: 288
    pad: 1
    kernel_size: 3
    weight_filler {
      type: "xavier"
      std: 0.03
    }
    bias_filler {
      type: "constant"
      value: 0.2
    }
  }
}
layer {
  name: "inception_4d/relu_3x3"
  type: "ReLU"
  bottom: "inception_4d/3x3"
  top: "inception_4d/3x3"
}
layer {
  name: "inception_4d/5x5_reduce"
  type: "Convolution"
  bottom: "inception_4c/output"
  top: "inception_4d/5x5_reduce"
  param {
    lr_mult: 1
    decay_mult: 1
  }
  param {
    lr_mult: 2
    decay_mult: 0
  }
  convolution_param {
    num_output: 32
    kernel_size: 1
    weight_filler {
      type: "xavier"
      std: 0.2
    }
    bias_filler {
      type: "constant"
      value: 0.2
    }
  }
}
layer {
  name: "inception_4d/relu_5x5_reduce"
  type: "ReLU"
  bottom: "inception_4d/5x5_reduce"
  top: "inception_4d/5x5_reduce"
}
layer {
  name: "inception_4d/5x5"
  type: "Convolution"
  bottom: "inception_4d/5x5_reduce"
  top: "inception_4d/5x5"
  param {
    lr_mult: 1
    decay_mult: 1
  }
  param {
    lr_mult: 2
    decay_mult: 0
  }
  convolution_param {
    num_output: 64
    pad: 2
    kernel_size: 5
    weight_filler {
      type: "xavier"
      std: 0.03
    }
    bias_filler {
      type: "constant"
      value: 0.2
    }
  }
}
layer {
  name: "inception_4d/relu_5x5"
  type: "ReLU"
  bottom: "inception_4d/5x5"
  top: "inception_4d/5x5"
}
layer {
  name: "inception_4d/pool"
  type: "Pooling"
  bottom: "inception_4c/output"
  top: "inception_4d/pool"
  pooling_param {
    pool: MAX
    kernel_size: 3
    stride: 1
    pad: 1
  }
}
layer {
  name: "inception_4d/pool_proj"
  type: "Convolution"
  bottom: "inception_4d/pool"
  top: "inception_4d/pool_proj"
  param {
    lr_mult: 1
    decay_mult: 1
  }
  param {
    lr_mult: 2
    decay_mult: 0
  }
  convolution_param {
    num_output: 64
    kernel_size: 1
    weight_filler {
      type: "xavier"
      std: 0.1
    }
    bias_filler {
      type: "constant"
      value: 0.2
    }
  }
}
layer {
  name: "inception_4d/relu_pool_proj"
  type: "ReLU"
  bottom: "inception_4d/pool_proj"
  top: "inception_4d/pool_proj"
}
layer {
  name: "inception_4d/output"
  type: "Concat"
  bottom: "inception_4d/1x1"
  bottom: "inception_4d/3x3"
  bottom: "inception_4d/5x5"
  bottom: "inception_4d/pool_proj"
  top: "inception_4d/output"
}
layer {
  name: "inception_4e/1x1"
  type: "Convolution"
  bottom: "inception_4d/output"
  top: "inception_4e/1x1"
  param {
    lr_mult: 1
    decay_mult: 1
  }
  param {
    lr_mult: 2
    decay_mult: 0
  }
  convolution_param {
    num_output: 256
    kernel_size: 1
    weight_filler {
      type: "xavier"
      std: 0.03
    }
    bias_filler {
      type: "constant"
      value: 0.2
    }
  }
}
layer {
  name: "inception_4e/relu_1x1"
  type: "ReLU"
  bottom: "inception_4e/1x1"
  top: "inception_4e/1x1"
}
layer {
  name: "inception_4e/3x3_reduce"
  type: "Convolution"
  bottom: "inception_4d/output"
  top: "inception_4e/3x3_reduce"
  param {
    lr_mult: 1
    decay_mult: 1
  }
  param {
    lr_mult: 2
    decay_mult: 0
  }
  convolution_param {
    num_output: 160
    kernel_size: 1
    weight_filler {
      type: "xavier"
      std: 0.09
    }
    bias_filler {
      type: "constant"
      value: 0.2
    }
  }
}
layer {
  name: "inception_4e/relu_3x3_reduce"
  type: "ReLU"
  bottom: "inception_4e/3x3_reduce"
  top: "inception_4e/3x3_reduce"
}
layer {
  name: "inception_4e/3x3"
  type: "Convolution"
  bottom: "inception_4e/3x3_reduce"
  top: "inception_4e/3x3"
  param {
    lr_mult: 1
    decay_mult: 1
  }
  param {
    lr_mult: 2
    decay_mult: 0
  }
  convolution_param {
    num_output: 320
    pad: 1
    kernel_size: 3
    weight_filler {
      type: "xavier"
      std: 0.03
    }
    bias_filler {
      type: "constant"
      value: 0.2
    }
  }
}
layer {
  name: "inception_4e/relu_3x3"
  type: "ReLU"
  bottom: "inception_4e/3x3"
  top: "inception_4e/3x3"
}
layer {
  name: "inception_4e/5x5_reduce"
  type: "Convolution"
  bottom: "inception_4d/output"
  top: "inception_4e/5x5_reduce"
  param {
    lr_mult: 1
    decay_mult: 1
  }
  param {
    lr_mult: 2
    decay_mult: 0
  }
  convolution_param {
    num_output: 32
    kernel_size: 1
    weight_filler {
      type: "xavier"
      std: 0.2
    }
    bias_filler {
      type: "constant"
      value: 0.2
    }
  }
}
layer {
  name: "inception_4e/relu_5x5_reduce"
  type: "ReLU"
  bottom: "inception_4e/5x5_reduce"
  top: "inception_4e/5x5_reduce"
}
layer {
  name: "inception_4e/5x5"
  type: "Convolution"
  bottom: "inception_4e/5x5_reduce"
  top: "inception_4e/5x5"
  param {
    lr_mult: 1
    decay_mult: 1
  }
  param {
    lr_mult: 2
    decay_mult: 0
  }
  convolution_param {
    num_output: 128
    pad: 2
    kernel_size: 5
    weight_filler {
      type: "xavier"
      std: 0.03
    }
    bias_filler {
      type: "constant"
      value: 0.2
    }
  }
}
layer {
  name: "inception_4e/relu_5x5"
  type: "ReLU"
  bottom: "inception_4e/5x5"
  top: "inception_4e/5x5"
}
layer {
  name: "inception_4e/pool"
  type: "Pooling"
  bottom: "inception_4d/output"
  top: "inception_4e/pool"
  pooling_param {
    pool: MAX
    kernel_size: 3
    stride: 1
    pad: 1
  }
}
layer {
  name: "inception_4e/pool_proj"
  type: "Convolution"
  bottom: "inception_4e/pool"
  top: "inception_4e/pool_proj"
  param {
    lr_mult: 1
    decay_mult: 1
  }
  param {
    lr_mult: 2
    decay_mult: 0
  }
  convolution_param {
    num_output: 128
    kernel_size: 1
    weight_filler {
      type: "xavier"
      std: 0.1
    }
    bias_filler {
      type: "constant"
      value: 0.2
    }
  }
}
layer {
  name: "inception_4e/relu_pool_proj"
  type: "ReLU"
  bottom: "inception_4e/pool_proj"
  top: "inception_4e/pool_proj"
}
layer {
  name: "inception_4e/output"
  type: "Concat"
  bottom: "inception_4e/1x1"
  bottom: "inception_4e/3x3"
  bottom: "inception_4e/5x5"
  bottom: "inception_4e/pool_proj"
  top: "inception_4e/output"
}
layer {
  name: "pool4/3x3_s2"
  type: "Pooling"
  bottom: "inception_4e/output"
  top: "pool4/3x3_s2"
  pooling_param {
    pool: MAX
    kernel_size: 3
    stride: 2
  }
}
layer {
  name: "inception_5a/1x1"
  type: "Convolution"
  bottom: "pool4/3x3_s2"
  top: "inception_5a/1x1"
  param {
    lr_mult: 1
    decay_mult: 1
  }
  param {
    lr_mult: 2
    decay_mult: 0
  }
  convolution_param {
    num_output: 256
    kernel_size: 1
    weight_filler {
      type: "xavier"
      std: 0.03
    }
    bias_filler {
      type: "constant"
      value: 0.2
    }
  }
}
layer {
  name: "inception_5a/relu_1x1"
  type: "ReLU"
  bottom: "inception_5a/1x1"
  top: "inception_5a/1x1"
}
layer {
  name: "inception_5a/3x3_reduce"
  type: "Convolution"
  bottom: "pool4/3x3_s2"
  top: "inception_5a/3x3_reduce"
  param {
    lr_mult: 1
    decay_mult: 1
  }
  param {
    lr_mult: 2
    decay_mult: 0
  }
  convolution_param {
    num_output: 160
    kernel_size: 1
    weight_filler {
      type: "xavier"
      std: 0.09
    }
    bias_filler {
      type: "constant"
      value: 0.2
    }
  }
}
layer {
  name: "inception_5a/relu_3x3_reduce"
  type: "ReLU"
  bottom: "inception_5a/3x3_reduce"
  top: "inception_5a/3x3_reduce"
}
layer {
  name: "inception_5a/3x3"
  type: "Convolution"
  bottom: "inception_5a/3x3_reduce"
  top: "inception_5a/3x3"
  param {
    lr_mult: 1
    decay_mult: 1
  }
  param {
    lr_mult: 2
    decay_mult: 0
  }
  convolution_param {
    num_output: 320
    pad: 1
    kernel_size: 3
    weight_filler {
      type: "xavier"
      std: 0.03
    }
    bias_filler {
      type: "constant"
      value: 0.2
    }
  }
}
layer {
  name: "inception_5a/relu_3x3"
  type: "ReLU"
  bottom: "inception_5a/3x3"
  top: "inception_5a/3x3"
}
layer {
  name: "inception_5a/5x5_reduce"
  type: "Convolution"
  bottom: "pool4/3x3_s2"
  top: "inception_5a/5x5_reduce"
  param {
    lr_mult: 1
    decay_mult: 1
  }
  param {
    lr_mult: 2
    decay_mult: 0
  }
  convolution_param {
    num_output: 32
    kernel_size: 1
    weight_filler {
      type: "xavier"
      std: 0.2
    }
    bias_filler {
      type: "constant"
      value: 0.2
    }
I0803 21:22:18.138810 13867 layer_factory.hpp:77] Creating layer data
I0803 21:22:18.138840 13867 net.cpp:91] Creating Layer data
I0803 21:22:18.138852 13867 net.cpp:399] data -> data
I0803 21:22:18.144609 13871 net.cpp:49] Initializing net from parameters: 
name: "GoogleNet"
state {
  phase: TEST
}
layer {
  name: "data"
  type: "Input"
  top: "data"
  input_param {
    shape {
      dim: 10
      dim: 3
      dim: 224
      dim: 224
    }
  }
}
layer {
  name: "conv1/7x7_s2"
  type: "Convolution"
  bottom: "data"
  top: "conv1/7x7_s2"
  param {
    lr_mult: 1
    decay_mult: 1
  }
  param {
    lr_mult: 2
    decay_mult: 0
  }
  convolution_param {
    num_output: 64
    pad: 3
    kernel_size: 7
    stride: 2
    weight_filler {
      type: "xavier"
      std: 0.1
    }
    bias_filler {
      type: "constant"
      value: 0.2
    }
  }
}
layer {
  name: "conv1/relu_7x7"
  type: "ReLU"
  bottom: "conv1/7x7_s2"
  top: "conv1/7x7_s2"
}
layer {
  name: "pool1/3x3_s2"
  type: "Pooling"
  bottom: "conv1/7x7_s2"
  top: "pool1/3x3_s2"
  pooling_param {
    pool: MAX
    kernel_size: 3
    stride: 2
  }
}
layer {
  name: "pool1/norm1"
  type: "LRN"
  bottom: "pool1/3x3_s2"
  top: "pool1/norm1"
  lrn_param {
    local_size: 5
    alpha: 0.0001
    beta: 0.75
  }
}
layer {
  name: "conv2/3x3_reduce"
  type: "Convolution"
  bottom: "pool1/norm1"
  top: "conv2/3x3_reduce"
  param {
    lr_mult: 1
    decay_mult: 1
  }
  param {
    lr_mult: 2
    decay_mult: 0
  }
  convolution_param {
    num_output: 64
    kernel_size: 1
    weight_filler {
      type: "xavier"
      std: 0.1
    }
    bias_filler {
      type: "constant"
      value: 0.2
    }
  }
}
layer {
  name: "conv2/relu_3x3_reduce"
  type: "ReLU"
  bottom: "conv2/3x3_reduce"
  top: "conv2/3x3_reduce"
}
layer {
  name: "conv2/3x3"
  type: "Convolution"
  bottom: "conv2/3x3_reduce"
  top: "conv2/3x3"
  param {
    lr_mult: 1
    decay_mult: 1
  }
  param {
    lr_mult: 2
    decay_mult: 0
  }
  convolution_param {
    num_output: 192
    pad: 1
    kernel_size: 3
    weight_filler {
      type: "xavier"
      std: 0.03
    }
    bias_filler {
      type: "constant"
      value: 0.2
    }
  }
}
layer {
  name: "conv2/relu_3x3"
  type: "ReLU"
  bottom: "conv2/3x3"
  top: "conv2/3x3"
}
layer {
  name: "conv2/norm2"
  type: "LRN"
  bottom: "conv2/3x3"
  top: "conv2/norm2"
  lrn_param {
    local_size: 5
    alpha: 0.0001
    beta: 0.75
  }
}
layer {
  name: "pool2/3x3_s2"
  type: "Pooling"
  bottom: "conv2/norm2"
  top: "pool2/3x3_s2"
  pooling_param {
    pool: MAX
    kernel_size: 3
    stride: 2
  }
}
layer {
  name: "inception_3a/1x1"
  type: "Convolution"
  bottom: "pool2/3x3_s2"
  top: "inception_3a/1x1"
  param {
    lr_mult: 1
    decay_mult: 1
  }
  param {
    lr_mult: 2
    decay_mult: 0
  }
  convolution_param {
    num_output: 64
    kernel_size: 1
    weight_filler {
      type: "xavier"
      std: 0.03
    }
    bias_filler {
      type: "constant"
      value: 0.2
    }
  }
}
layer {
  name: "inception_3a/relu_1x1"
  type: "ReLU"
  bottom: "inception_3a/1x1"
  top: "inception_3a/1x1"
}
layer {
  name: "inception_3a/3x3_reduce"
  type: "Convolution"
  bottom: "pool2/3x3_s2"
  top: "inception_3a/3x3_reduce"
  param {
    lr_mult: 1
    decay_mult: 1
  }
  param {
    lr_mult: 2
    decay_mult: 0
  }
  convolution_param {
    num_output: 96
    kernel_size: 1
    weight_filler {
      type: "xavier"
      std: 0.09
    }
    bias_filler {
      type: "constant"
      value: 0.2
    }
  }
}
layer {
  name: "inception_3a/relu_3x3_reduce"
  type: "ReLU"
  bottom: "inception_3a/3x3_reduce"
  top: "inception_3a/3x3_reduce"
}
layer {
  name: "inception_3a/3x3"
  type: "Convolution"
  bottom: "inception_3a/3x3_reduce"
  top: "inception_3a/3x3"
  param {
    lr_mult: 1
    decay_mult: 1
  }
  param {
    lr_mult: 2
    decay_mult: 0
  }
  convolution_param {
    num_output: 128
    pad: 1
    kernel_size: 3
    weight_filler {
      type: "xavier"
      std: 0.03
    }
    bias_filler {
      type: "constant"
      value: 0.2
    }
  }
}
layer {
  name: "inception_3a/relu_3x3"
  type: "ReLU"
  bottom: "inception_3a/3x3"
  top: "inception_3a/3x3"
}
layer {
  name: "inception_3a/5x5_reduce"
  type: "Convolution"
  bottom: "pool2/3x3_s2"
  top: "inception_3a/5x5_reduce"
  param {
    lr_mult: 1
    decay_mult: 1
  }
  param {
    lr_mult: 2
    decay_mult: 0
  }
  convolution_param {
    num_output: 16
    kernel_size: 1
    weight_filler {
      type: "xavier"
      std: 0.2
    }
    bias_filler {
      type: "constant"
      value: 0.2
    }
  }
}
layer {
  name: "inception_3a/relu_5x5_reduce"
  type: "ReLU"
  bottom: "inception_3a/5x5_reduce"
  top: "inception_3a/5x5_reduce"
}
layer {
  name: "inception_3a/5x5"
  type: "Convolution"
  bottom: "inception_3a/5x5_reduce"
  top: "inception_3a/5x5"
  param {
    lr_mult: 1
    decay_mult: 1
  }
  param {
    lr_mult: 2
    decay_mult: 0
  }
  convolution_param {
    num_output: 32
    pad: 2
    kernel_size: 5
    weight_filler {
      type: "xavier"
      std: 0.03
    }
    bias_filler {
      type: "constant"
      value: 0.2
    }
  }
}
layer {
  name: "inception_3a/relu_5x5"
  type: "ReLU"
  bottom: "inception_3a/5x5"
  top: "inception_3a/5x5"
}
layer {
  name: "inception_3a/pool"
  type: "Pooling"
  bottom: "pool2/3x3_s2"
  top: "inception_3a/pool"
  pooling_param {
    pool: MAX
    kernel_size: 3
    stride: 1
    pad: 1
  }
}
layer {
  name: "inception_3a/pool_proj"
  type: "Convolution"
  bottom: "inception_3a/pool"
  top: "inception_3a/pool_proj"
  param {
    lr_mult: 1
    decay_mult: 1
  }
  param {
    lr_mult: 2
    decay_mult: 0
  }
  convolution_param {
    num_output: 32
    kernel_size: 1
    weight_filler {
      type: "xavier"
      std: 0.1
    }
    bias_filler {
      type: "constant"
      value: 0.2
    }
  }
}
layer {
  name: "inception_3a/relu_pool_proj"
  type: "ReLU"
  bottom: "inception_3a/pool_proj"
  top: "inception_3a/pool_proj"
}
layer {
  name: "inception_3a/output"
  type: "Concat"
  bottom: "inception_3a/1x1"
  bottom: "inception_3a/3x3"
  bottom: "inception_3a/5x5"
  bottom: "inception_3a/pool_proj"
  top: "inception_3a/output"
}
layer {
  name: "inception_3b/1x1"
  type: "Convolution"
  bottom: "inception_3a/output"
  top: "inception_3b/1x1"
  param {
    lr_mult: 1
    decay_mult: 1
  }
  param {
    lr_mult: 2
    decay_mult: 0
  }
  convolution_param {
    num_output: 128
    kernel_size: 1
    weight_filler {
      type: "xavier"
      std: 0.03
    }
    bias_filler {
      type: "constant"
      value: 0.2
    }
  }
}
layer {
  name: "inception_3b/relu_1x1"
  type: "ReLU"
  bottom: "inception_3b/1x1"
  top: "inception_3b/1x1"
}
layer {
  name: "inception_3b/3x3_reduce"
  type: "Convolution"
  bottom: "inception_3a/output"
  top: "inception_3b/3x3_reduce"
  param {
    lr_mult: 1
    decay_mult: 1
  }
  param {
    lr_mult: 2
    decay_mult: 0
  }
  convolution_param {
    num_output: 128
    kernel_size: 1
    weight_filler {
      type: "xavier"
      std: 0.09
    }
    bias_filler {
      type: "constant"
      value: 0.2
    }
  }
}
layer {
  name: "inception_3b/relu_3x3_reduce"
  type: "ReLU"
  bottom: "inception_3b/3x3_reduce"
  top: "inception_3b/3x3_reduce"
}
layer {
  name: "inception_3b/3x3"
  type: "Convolution"
  bottom: "inception_3b/3x3_reduce"
  top: "inception_3b/3x3"
  param {
    lr_mult: 1
    decay_mult: 1
  }
  param {
    lr_mult: 2
    decay_mult: 0
  }
  convolution_param {
    num_output: 192
    pad: 1
    kernel_size: 3
    weight_filler {
      type: "xavier"
      std: 0.03
    }
    bias_filler {
      type: "constant"
      value: 0.2
    }
  }
}
layer {
  name: "inception_3b/relu_3x3"
  type: "ReLU"
  bottom: "inception_3b/3x3"
  top: "inception_3b/3x3"
}
layer {
  name: "inception_3b/5x5_reduce"
  type: "Convolution"
  bottom: "inception_3a/output"
  top: "inception_3b/5x5_reduce"
  param {
    lr_mult: 1
    decay_mult: 1
  }
  param {
    lr_mult: 2
    decay_mult: 0
  }
  convolution_param {
    num_output: 32
    kernel_size: 1
    weight_filler {
      type: "xavier"
      std: 0.2
    }
    bias_filler {
      type: "constant"
      value: 0.2
    }
  }
}
layer {
  name: "inception_3b/relu_5x5_reduce"
  type: "ReLU"
  bottom: "inception_3b/5x5_reduce"
  top: "inception_3b/5x5_reduce"
}
layer {
  name: "inception_3b/5x5"
  type: "Convolution"
  bottom: "inception_3b/5x5_reduce"
  top: "inception_3b/5x5"
  param {
    lr_mult: 1
    decay_mult: 1
  }
  param {
    lr_mult: 2
    decay_mult: 0
  }
  convolution_param {
    num_output: 96
    pad: 2
    kernel_size: 5
    weight_filler {
      type: "xavier"
      std: 0.03
    }
    bias_filler {
      type: "constant"
      value: 0.2
    }
  }
}
layer {
  name: "inception_3b/relu_5x5"
  type: "ReLU"
  bottom: "inception_3b/5x5"
  top: "inception_3b/5x5"
}
layer {
  name: "inception_3b/pool"
  type: "Pooling"
  bottom: "inception_3a/output"
  top: "inception_3b/pool"
  pooling_param {
    pool: MAX
    kernel_size: 3
    stride: 1
    pad: 1
  }
}
layer {
  name: "inception_3b/pool_proj"
  type: "Convolution"
  bottom: "inception_3b/pool"
  top: "inception_3b/pool_proj"
  param {
    lr_mult: 1
    decay_mult: 1
  }
  param {
    lr_mult: 2
    decay_mult: 0
  }
  convolution_param {
    num_output: 64
    kernel_size: 1
    weight_filler {
      type: "xavier"
      std: 0.1
    }
    bias_filler {
      type: "constant"
      value: 0.2
    }
  }
}
layer {
  name: "inception_3b/relu_pool_proj"
  type: "ReLU"
  bottom: "inception_3b/pool_proj"
  top: "inception_3b/pool_proj"
}
layer {
  name: "inception_3b/output"
  type: "Concat"
  bottom: "inception_3b/1x1"
  bottom: "inception_3b/3x3"
  bottom: "inception_3b/5x5"
  bottom: "inception_3b/pool_proj"
  top: "inception_3b/output"
}
layer {
  name: "pool3/3x3_s2"
  type: "Pooling"
  bottom: "inception_3b/output"
  top: "pool3/3x3_s2"
  pooling_param {
    pool: MAX
    kernel_size: 3
    stride: 2
  }
}
layer {
  name: "inception_4a/1x1"
  type: "Convolution"
  bottom: "pool3/3x3_s2"
  top: "inception_4a/1x1"
  param {
    lr_mult: 1
    decay_mult: 1
  }
  param {
    lr_mult: 2
    decay_mult: 0
  }
  convolution_param {
    num_output: 192
    kernel_size: 1
    weight_filler {
      type: "xavier"
      std: 0.03
    }
    bias_filler {
      type: "constant"
      value: 0.2
    }
  }
}
layer {
  name: "inception_4a/relu_1x1"
  type: "ReLU"
  bottom: "inception_4a/1x1"
  top: "inception_4a/1x1"
}
layer {
  name: "inception_4a/3x3_reduce"
  type: "Convolution"
  bottom: "pool3/3x3_s2"
  top: "inception_4a/3x3_reduce"
  param {
    lr_mult: 1
    decay_mult: 1
  }
  param {
    lr_mult: 2
    decay_mult: 0
  }
  convolution_param {
    num_output: 96
    kernel_size: 1
    weight_filler {
      type: "xavier"
      std: 0.09
    }
    bias_filler {
      type: "constant"
      value: 0.2
    }
  }
}
layer {
  name: "inception_4a/relu_3x3_reduce"
  type: "ReLU"
  bottom: "inception_4a/3x3_reduce"
  top: "inception_4a/3x3_reduce"
}
layer {
  name: "inception_4a/3x3"
  type: "Convolution"
  bottom: "inception_4a/3x3_reduce"
  top: "inception_4a/3x3"
  param {
    lr_mult: 1
    decay_mult: 1
  }
  param {
    lr_mult: 2
    decay_mult: 0
  }
  convolution_param {
    num_output: 208
    pad: 1
    kernel_size: 3
    weight_filler {
      type: "xavier"
      std: 0.03
    }
    bias_filler {
      type: "constant"
      value: 0.2
    }
  }
}
layer {
  name: "inception_4a/relu_3x3"
  type: "ReLU"
  bottom: "inception_4a/3x3"
  top: "inception_4a/3x3"
}
layer {
  name: "inception_4a/5x5_reduce"
  type: "Convolution"
  bottom: "pool3/3x3_s2"
  top: "inception_4a/5x5_reduce"
  param {
    lr_mult: 1
    decay_mult: 1
  }
  param {
    lr_mult: 2
    decay_mult: 0
  }
  convolution_param {
    num_output: 16
    kernel_size: 1
    weight_filler {
      type: "xavier"
      std: 0.2
    }
    bias_filler {
      type: "constant"
      value: 0.2
    }
  }
}
layer {
  name: "inception_4a/relu_5x5_reduce"
  type: "ReLU"
  bottom: "inception_4a/5x5_reduce"
  top: "inception_4a/5x5_reduce"
}
layer {
  name: "inception_4a/5x5"
  type: "Convolution"
  bottom: "inception_4a/5x5_reduce"
  top: "inception_4a/5x5"
  param {
    lr_mult: 1
    decay_mult: 1
  }
  param {
    lr_mult: 2
    decay_mult: 0
  }
  convolution_param {
    num_output: 48
    pad: 2
    kernel_size: 5
    weight_filler {
      type: "xavier"
      std: 0.03
    }
    bias_filler {
      type: "constant"
      value: 0.2
    }
  }
}
layer {
  name: "inception_4a/relu_5x5"
  type: "ReLU"
  bottom: "inception_4a/5x5"
  top: "inception_4a/5x5"
}
layer {
  name: "inception_4a/pool"
  type: "Pooling"
  bottom: "pool3/3x3_s2"
  top: "inception_4a/pool"
  pooling_param {
    pool: MAX
    kernel_size: 3
    stride: 1
    pad: 1
  }
}
layer {
  name: "inception_4a/pool_proj"
  type: "Convolution"
  bottom: "inception_4a/pool"
  top: "inception_4a/pool_proj"
  param {
    lr_mult: 1
    decay_mult: 1
  }
  param {
    lr_mult: 2
    decay_mult: 0
  }
  convolution_param {
    num_output: 64
    kernel_size: 1
    weight_filler {
      type: "xavier"
      std: 0.1
    }
    bias_filler {
      type: "constant"
      value: 0.2
    }
  }
}
layer {
  name: "inception_4a/relu_pool_proj"
  type: "ReLU"
  bottom: "inception_4a/pool_proj"
  top: "inception_4a/pool_proj"
}
layer {
  name: "inception_4a/output"
  type: "Concat"
  bottom: "inception_4a/1x1"
  bottom: "inception_4a/3x3"
  bottom: "inception_4a/5x5"
  bottom: "inception_4a/pool_proj"
  top: "inception_4a/output"
}
layer {
  name: "inception_4b/1x1"
  type: "Convolution"
  bottom: "inception_4a/output"
  top: "inception_4b/1x1"
  param {
    lr_mult: 1
    decay_mult: 1
  }
  param {
    lr_mult: 2
    decay_mult: 0
  }
  convolution_param {
    num_output: 160
    kernel_size: 1
    weight_filler {
      type: "xavier"
      std: 0.03
    }
    bias_filler {
      type: "constant"
      value: 0.2
    }
  }
}
layer {
  name: "inception_4b/relu_1x1"
  type: "ReLU"
  bottom: "inception_4b/1x1"
  top: "inception_4b/1x1"
}
layer {
  name: "inception_4b/3x3_reduce"
  type: "Convolution"
  bottom: "inception_4a/output"
  top: "inception_4b/3x3_reduce"
  param {
    lr_mult: 1
    decay_mult: 1
  }
  param {
    lr_mult: 2
    decay_mult: 0
  }
  convolution_param {
    num_output: 112
    kernel_size: 1
    weight_filler {
      type: "xavier"
      std: 0.09
    }
    bias_filler {
      type: "constant"
      value: 0.2
    }
  }
}
layer {
  name: "inception_4b/relu_3x3_reduce"
  type: "ReLU"
  bottom: "inception_4b/3x3_reduce"
  top: "inception_4b/3x3_reduce"
}
layer {
  name: "inception_4b/3x3"
  type: "Convolution"
  bottom: "inception_4b/3x3_reduce"
  top: "inception_4b/3x3"
  param {
    lr_mult: 1
    decay_mult: 1
  }
  param {
    lr_mult: 2
    decay_mult: 0
  }
  convolution_param {
    num_output: 224
    pad: 1
    kernel_size: 3
    weight_filler {
      type: "xavier"
      std: 0.03
    }
    bias_filler {
      type: "constant"
      value: 0.2
    }
  }
}
layer {
  name: "inception_4b/relu_3x3"
  type: "ReLU"
  bottom: "inception_4b/3x3"
  top: "inception_4b/3x3"
}
layer {
  name: "inception_4b/5x5_reduce"
  type: "Convolution"
  bottom: "inception_4a/output"
  top: "inception_4b/5x5_reduce"
  param {
    lr_mult: 1
    decay_mult: 1
  }
  param {
    lr_mult: 2
    decay_mult: 0
  }
  convolution_param {
    num_output: 24
    kernel_size: 1
    weight_filler {
      type: "xavier"
      std: 0.2
    }
    bias_filler {
      type: "constant"
      value: 0.2
    }
  }
}
layer {
  name: "inception_4b/relu_5x5_reduce"
  type: "ReLU"
  bottom: "inception_4b/5x5_reduce"
  top: "inception_4b/5x5_reduce"
}
layer {
  name: "inception_4b/5x5"
  type: "Convolution"
  bottom: "inception_4b/5x5_reduce"
  top: "inception_4b/5x5"
  param {
    lr_mult: 1
    decay_mult: 1
  }
  param {
    lr_mult: 2
    decay_mult: 0
  }
  convolution_param {
    num_output: 64
    pad: 2
    kernel_size: 5
    weight_filler {
      type: "xavier"
      std: 0.03
    }
    bias_filler {
      type: "constant"
      value: 0.2
    }
  }
}
layer {
  name: "inception_4b/relu_5x5"
  type: "ReLU"
  bottom: "inception_4b/5x5"
  top: "inception_4b/5x5"
}
layer {
  name: "inception_4b/pool"
  type: "Pooling"
  bottom: "inception_4a/output"
  top: "inception_4b/pool"
  pooling_param {
    pool: MAX
    kernel_size: 3
    stride: 1
    pad: 1
  }
}
layer {
  name: "inception_4b/pool_proj"
  type: "Convolution"
  bottom: "inception_4b/pool"
  top: "inception_4b/pool_proj"
  param {
    lr_mult: 1
    decay_mult: 1
  }
  param {
    lr_mult: 2
    decay_mult: 0
  }
  convolution_param {
    num_output: 64
    kernel_size: 1
    weight_filler {
      type: "xavier"
      std: 0.1
    }
    bias_filler {
      type: "constant"
      value: 0.2
    }
  }
}
layer {
  name: "inception_4b/relu_pool_proj"
  type: "ReLU"
  bottom: "inception_4b/pool_proj"
  top: "inception_4b/pool_proj"
}
layer {
  name: "inception_4b/output"
  type: "Concat"
  bottom: "inception_4b/1x1"
  bottom: "inception_4b/3x3"
  bottom: "inception_4b/5x5"
  bottom: "inception_4b/pool_proj"
  top: "inception_4b/output"
}
layer {
  name: "inception_4c/1x1"
  type: "Convolution"
  bottom: "inception_4b/output"
  top: "inception_4c/1x1"
  param {
    lr_mult: 1
    decay_mult: 1
  }
  param {
    lr_mult: 2
    decay_mult: 0
  }
  convolution_param {
    num_output: 128
    kernel_size: 1
    weight_filler {
      type: "xavier"
      std: 0.03
    }
    bias_filler {
      type: "constant"
      value: 0.2
    }
  }
}
layer {
  name: "inception_4c/relu_1x1"
  type: "ReLU"
  bottom: "inception_4c/1x1"
  top: "inception_4c/1x1"
}
layer {
  name: "inception_4c/3x3_reduce"
  type: "Convolution"
  bottom: "inception_4b/output"
  top: "inception_4c/3x3_reduce"
  param {
    lr_mult: 1
    decay_mult: 1
  }
  param {
    lr_mult: 2
    decay_mult: 0
  }
  convolution_param {
    num_output: 128
    kernel_size: 1
    weight_filler {
      type: "xavier"
      std: 0.09
    }
    bias_filler {
      type: "constant"
      value: 0.2
    }
  }
}
layer {
  name: "inception_4c/relu_3x3_reduce"
  type: "ReLU"
  bottom: "inception_4c/3x3_reduce"
  top: "inception_4c/3x3_reduce"
}
layer {
  name: "inception_4c/3x3"
  type: "Convolution"
  bottom: "inception_4c/3x3_reduce"
  top: "inception_4c/3x3"
  param {
    lr_mult: 1
    decay_mult: 1
  }
  param {
    lr_mult: 2
    decay_mult: 0
  }
  convolution_param {
    num_output: 256
    pad: 1
    kernel_size: 3
    weight_filler {
      type: "xavier"
      std: 0.03
    }
    bias_filler {
      type: "constant"
      value: 0.2
    }
  }
}
layer {
  name: "inception_4c/relu_3x3"
  type: "ReLU"
  bottom: "inception_4c/3x3"
  top: "inception_4c/3x3"
}
layer {
  name: "inception_4c/5x5_reduce"
  type: "Convolution"
  bottom: "inception_4b/output"
  top: "inception_4c/5x5_reduce"
  param {
    lr_mult: 1
    decay_mult: 1
  }
  param {
    lr_mult: 2
    decay_mult: 0
  }
  convolution_param {
    num_output: 24
    kernel_size: 1
    weight_filler {
      type: "xavier"
      std: 0.2
    }
    bias_filler {
      type: "constant"
      value: 0.2
    }
  }
}
layer {
  name: "inception_4c/relu_5x5_reduce"
  type: "ReLU"
  bottom: "inception_4c/5x5_reduce"
  top: "inception_4c/5x5_reduce"
}
layer {
  name: "inception_4c/5x5"
  type: "Convolution"
  bottom: "inception_4c/5x5_reduce"
  top: "inception_4c/5x5"
  param {
    lr_mult: 1
    decay_mult: 1
  }
  param {
    lr_mult: 2
    decay_mult: 0
  }
  convolution_param {
    num_output: 64
    pad: 2
    kernel_size: 5
    weight_filler {
      type: "xavier"
      std: 0.03
    }
    bias_filler {
      type: "constant"
      value: 0.2
    }
  }
}
layer {
  name: "inception_4c/relu_5x5"
  type: "ReLU"
  bottom: "inception_4c/5x5"
  top: "inception_4c/5x5"
}
layer {
  name: "inception_4c/pool"
  type: "Pooling"
  bottom: "inception_4b/output"
  top: "inception_4c/pool"
  pooling_param {
    pool: MAX
    kernel_size: 3
    stride: 1
    pad: 1
  }
}
layer {
  name: "inception_4c/pool_proj"
  type: "Convolution"
  bottom: "inception_4c/pool"
  top: "inception_4c/pool_proj"
  param {
    lr_mult: 1
    decay_mult: 1
  }
  param {
    lr_mult: 2
    decay_mult: 0
  }
  convolution_param {
    num_output: 64
    kernel_size: 1
    weight_filler {
      type: "xavier"
      std: 0.1
    }
    bias_filler {
      type: "constant"
      value: 0.2
    }
  }
}
layer {
  name: "inception_4c/relu_pool_proj"
  type: "ReLU"
  bottom: "inception_4c/pool_proj"
  top: "inception_4c/pool_proj"
}
layer {
  name: "inception_4c/output"
  type: "Concat"
  bottom: "inception_4c/1x1"
  bottom: "inception_4c/3x3"
  bottom: "inception_4c/5x5"
  bottom: "inception_4c/pool_proj"
  top: "inception_4c/output"
}
layer {
  name: "inception_4d/1x1"
  type: "Convolution"
  bottom: "inception_4c/output"
  top: "inception_4d/1x1"
  param {
    lr_mult: 1
    decay_mult: 1
  }
  param {
    lr_mult: 2
    decay_mult: 0
  }
  convolution_param {
    num_output: 112
    kernel_size: 1
    weight_filler {
      type: "xavier"
      std: 0.03
    }
    bias_filler {
      type: "constant"
      value: 0.2
    }
  }
}
layer {
  name: "inception_4d/relu_1x1"
  type: "ReLU"
  bottom: "inception_4d/1x1"
  top: "inception_4d/1x1"
}
layer {
  name: "inception_4d/3x3_reduce"
  type: "Convolution"
  bottom: "inception_4c/output"
  top: "inception_4d/3x3_reduce"
  param {
    lr_mult: 1
    decay_mult: 1
  }
  param {
    lr_mult: 2
    decay_mult: 0
  }
  convolution_param {
    num_output: 144
    kernel_size: 1
    weight_filler {
      type: "xavier"
      std: 0.09
    }
    bias_filler {
      type: "constant"
      value: 0.2
    }
  }
}
layer {
  name: "inception_4d/relu_3x3_reduce"
  type: "ReLU"
  bottom: "inception_4d/3x3_reduce"
  top: "inception_4d/3x3_reduce"
}
layer {
  name: "inception_4d/3x3"
  type: "Convolution"
  bottom: "inception_4d/3x3_reduce"
  top: "inception_4d/3x3"
  param {
    lr_mult: 1
    decay_mult: 1
  }
  param {
    lr_mult: 2
    decay_mult: 0
  }
  convolution_param {
    num_output: 288
    pad: 1
    kernel_size: 3
    weight_filler {
      type: "xavier"
      std: 0.03
    }
    bias_filler {
      type: "constant"
      value: 0.2
    }
  }
}
layer {
  name: "inception_4d/relu_3x3"
  type: "ReLU"
  bottom: "inception_4d/3x3"
  top: "inception_4d/3x3"
}
layer {
  name: "inception_4d/5x5_reduce"
  type: "Convolution"
  bottom: "inception_4c/output"
  top: "inception_4d/5x5_reduce"
  param {
    lr_mult: 1
    decay_mult: 1
  }
  param {
    lr_mult: 2
    decay_mult: 0
  }
  convolution_param {
    num_output: 32
    kernel_size: 1
    weight_filler {
      type: "xavier"
      std: 0.2
    }
    bias_filler {
      type: "constant"
      value: 0.2
    }
  }
}
layer {
  name: "inception_4d/relu_5x5_reduce"
  type: "ReLU"
  bottom: "inception_4d/5x5_reduce"
  top: "inception_4d/5x5_reduce"
}
layer {
  name: "inception_4d/5x5"
  type: "Convolution"
  bottom: "inception_4d/5x5_reduce"
  top: "inception_4d/5x5"
  param {
    lr_mult: 1
    decay_mult: 1
  }
  param {
    lr_mult: 2
    decay_mult: 0
  }
  convolution_param {
    num_output: 64
    pad: 2
    kernel_size: 5
    weight_filler {
      type: "xavier"
      std: 0.03
    }
    bias_filler {
      type: "constant"
      value: 0.2
    }
  }
}
layer {
  name: "inception_4d/relu_5x5"
  type: "ReLU"
  bottom: "inception_4d/5x5"
  top: "inception_4d/5x5"
}
layer {
  name: "inception_4d/pool"
  type: "Pooling"
  bottom: "inception_4c/output"
  top: "inception_4d/pool"
  pooling_param {
    pool: MAX
    kernel_size: 3
    stride: 1
    pad: 1
  }
}
layer {
  name: "inception_4d/pool_proj"
  type: "Convolution"
  bottom: "inception_4d/pool"
  top: "inception_4d/pool_proj"
  param {
    lr_mult: 1
    decay_mult: 1
  }
  param {
    lr_mult: 2
    decay_mult: 0
  }
  convolution_param {
    num_output: 64
    kernel_size: 1
    weight_filler {
      type: "xavier"
      std: 0.1
    }
    bias_filler {
      type: "constant"
      value: 0.2
    }
  }
}
layer {
  name: "inception_4d/relu_pool_proj"
  type: "ReLU"
  bottom: "inception_4d/pool_proj"
  top: "inception_4d/pool_proj"
}
layer {
  name: "inception_4d/output"
  type: "Concat"
  bottom: "inception_4d/1x1"
  bottom: "inception_4d/3x3"
  bottom: "inception_4d/5x5"
  bottom: "inception_4d/pool_proj"
  top: "inception_4d/output"
}
layer {
  name: "inception_4e/1x1"
  type: "Convolution"
  bottom: "inception_4d/output"
  top: "inception_4e/1x1"
  param {
    lr_mult: 1
    decay_mult: 1
  }
  param {
    lr_mult: 2
    decay_mult: 0
  }
  convolution_param {
    num_output: 256
    kernel_size: 1
    weight_filler {
      type: "xavier"
      std: 0.03
    }
    bias_filler {
      type: "constant"
      value: 0.2
    }
  }
}
layer {
  name: "inception_4e/relu_1x1"
  type: "ReLU"
  bottom: "inception_4e/1x1"
  top: "inception_4e/1x1"
}
layer {
  name: "inception_4e/3x3_reduce"
  type: "Convolution"
  bottom: "inception_4d/output"
  top: "inception_4e/3x3_reduce"
  param {
    lr_mult: 1
    decay_mult: 1
  }
  param {
    lr_mult: 2
    decay_mult: 0
  }
  convolution_param {
    num_output: 160
    kernel_size: 1
    weight_filler {
      type: "xavier"
      std: 0.09
    }
    bias_filler {
      type: "constant"
      value: 0.2
    }
  }
}
layer {
  name: "inception_4e/relu_3x3_reduce"
  type: "ReLU"
  bottom: "inception_4e/3x3_reduce"
  top: "inception_4e/3x3_reduce"
}
layer {
  name: "inception_4e/3x3"
  type: "Convolution"
  bottom: "inception_4e/3x3_reduce"
  top: "inception_4e/3x3"
  param {
    lr_mult: 1
    decay_mult: 1
  }
  param {
    lr_mult: 2
    decay_mult: 0
  }
  convolution_param {
    num_output: 320
    pad: 1
    kernel_size: 3
    weight_filler {
      type: "xavier"
      std: 0.03
    }
    bias_filler {
      type: "constant"
      value: 0.2
    }
  }
}
layer {
  name: "inception_4e/relu_3x3"
  type: "ReLU"
  bottom: "inception_4e/3x3"
  top: "inception_4e/3x3"
}
layer {
  name: "inception_4e/5x5_reduce"
  type: "Convolution"
  bottom: "inception_4d/output"
  top: "inception_4e/5x5_reduce"
  param {
    lr_mult: 1
    decay_mult: 1
  }
  param {
    lr_mult: 2
    decay_mult: 0
  }
  convolution_param {
    num_output: 32
    kernel_size: 1
    weight_filler {
      type: "xavier"
      std: 0.2
    }
    bias_filler {
      type: "constant"
      value: 0.2
    }
  }
}
layer {
  name: "inception_4e/relu_5x5_reduce"
  type: "ReLU"
  bottom: "inception_4e/5x5_reduce"
  top: "inception_4e/5x5_reduce"
}
layer {
  name: "inception_4e/5x5"
  type: "Convolution"
  bottom: "inception_4e/5x5_reduce"
  top: "inception_4e/5x5"
  param {
    lr_mult: 1
    decay_mult: 1
  }
  param {
    lr_mult: 2
    decay_mult: 0
  }
  convolution_param {
    num_output: 128
    pad: 2
    kernel_size: 5
    weight_filler {
      type: "xavier"
      std: 0.03
    }
    bias_filler {
      type: "constant"
      value: 0.2
    }
  }
}
layer {
  name: "inception_4e/relu_5x5"
  type: "ReLU"
  bottom: "inception_4e/5x5"
  top: "inception_4e/5x5"
}
layer {
  name: "inception_4e/pool"
  type: "Pooling"
  bottom: "inception_4d/output"
  top: "inception_4e/pool"
  pooling_param {
    pool: MAX
    kernel_size: 3
    stride: 1
    pad: 1
  }
}
layer {
  name: "inception_4e/pool_proj"
  type: "Convolution"
  bottom: "inception_4e/pool"
  top: "inception_4e/pool_proj"
  param {
    lr_mult: 1
    decay_mult: 1
  }
  param {
    lr_mult: 2
    decay_mult: 0
  }
  convolution_param {
    num_output: 128
    kernel_size: 1
    weight_filler {
      type: "xavier"
      std: 0.1
    }
    bias_filler {
      type: "constant"
      value: 0.2
    }
  }
}
layer {
  name: "inception_4e/relu_pool_proj"
  type: "ReLU"
  bottom: "inception_4e/pool_proj"
  top: "inception_4e/pool_proj"
}
layer {
  name: "inception_4e/output"
  type: "Concat"
  bottom: "inception_4e/1x1"
  bottom: "inception_4e/3x3"
  bottom: "inception_4e/5x5"
  bottom: "inception_4e/pool_proj"
  top: "inception_4e/output"
}
layer {
  name: "pool4/3x3_s2"
  type: "Pooling"
  bottom: "inception_4e/output"
  top: "pool4/3x3_s2"
  pooling_param {
    pool: MAX
    kernel_size: 3
    stride: 2
  }
}
layer {
  name: "inception_5a/1x1"
  type: "Convolution"
  bottom: "pool4/3x3_s2"
  top: "inception_5a/1x1"
  param {
    lr_mult: 1
    decay_mult: 1
  }
  param {
    lr_mult: 2
    decay_mult: 0
  }
  convolution_param {
    num_output: 256
    kernel_size: 1
    weight_filler {
      type: "xavier"
      std: 0.03
    }
    bias_filler {
      type: "constant"
      value: 0.2
    }
  }
}
layer {
  name: "inception_5a/relu_1x1"
  type: "ReLU"
  bottom: "inception_5a/1x1"
  top: "inception_5a/1x1"
}
layer {
  name: "inception_5a/3x3_reduce"
  type: "Convolution"
  bottom: "pool4/3x3_s2"
  top: "inception_5a/3x3_reduce"
  param {
    lr_mult: 1
    decay_mult: 1
  }
  param {
    lr_mult: 2
    decay_mult: 0
  }
  convolution_param {
    num_output: 160
    kernel_size: 1
    weight_filler {
      type: "xavier"
      std: 0.09
    }
    bias_filler {
      type: "constant"
      value: 0.2
    }
  }
}
layer {
  name: "inception_5a/relu_3x3_reduce"
  type: "ReLU"
  bottom: "inception_5a/3x3_reduce"
  top: "inception_5a/3x3_reduce"
}
layer {
  name: "inception_5a/3x3"
  type: "Convolution"
  bottom: "inception_5a/3x3_reduce"
  top: "inception_5a/3x3"
  param {
    lr_mult: 1
    decay_mult: 1
  }
  param {
    lr_mult: 2
    decay_mult: 0
  }
  convolution_param {
    num_output: 320
    pad: 1
    kernel_size: 3
    weight_filler {
      type: "xavier"
      std: 0.03
    }
    bias_filler {
      type: "constant"
      value: 0.2
    }
  }
}
layer {
  name: "inception_5a/relu_3x3"
  type: "ReLU"
  bottom: "inception_5a/3x3"
  top: "inception_5a/3x3"
}
layer {
  name: "inception_5a/5x5_reduce"
  type: "Convolution"
  bottom: "pool4/3x3_s2"
  top: "inception_5a/5x5_reduce"
  param {
    lr_mult: 1
    decay_mult: 1
  }
  param {
    lr_mult: 2
    decay_mult: 0
  }
  convolution_param {
    num_output: 32
    kernel_size: 1
    weight_filler {
      type: "xavier"
      std: 0.2
    }
    bias_filler {
      type: "constant"
      value: 0.2
    }
I0803 21:22:18.145551 13871 layer_factory.hpp:77] Creating layer data
I0803 21:22:18.145571 13871 net.cpp:91] Creating Layer data
I0803 21:22:18.145578 13871 net.cpp:399] data -> data
I0803 21:22:19.095688 13867 net.cpp:141] Setting up data
I0803 21:22:19.095859 13867 net.cpp:148] Top shape: 10 3 224 224 (1505280)
I0803 21:22:19.095885 13867 net.cpp:156] Memory required for data: 6021120
I0803 21:22:19.095911 13867 layer_factory.hpp:77] Creating layer conv1/7x7_s2
I0803 21:22:19.095960 13867 net.cpp:91] Creating Layer conv1/7x7_s2
I0803 21:22:19.095971 13867 net.cpp:425] conv1/7x7_s2 <- data
I0803 21:22:19.095988 13867 net.cpp:399] conv1/7x7_s2 -> conv1/7x7_s2
I0803 21:22:19.097321 13871 net.cpp:141] Setting up data
I0803 21:22:19.097345 13871 net.cpp:148] Top shape: 10 3 224 224 (1505280)
I0803 21:22:19.097352 13871 net.cpp:156] Memory required for data: 6021120
I0803 21:22:19.097360 13871 layer_factory.hpp:77] Creating layer conv1/7x7_s2
I0803 21:22:19.097383 13871 net.cpp:91] Creating Layer conv1/7x7_s2
I0803 21:22:19.097389 13871 net.cpp:425] conv1/7x7_s2 <- data
I0803 21:22:19.097399 13871 net.cpp:399] conv1/7x7_s2 -> conv1/7x7_s2
I0803 21:22:19.483187 13867 net.cpp:141] Setting up conv1/7x7_s2
I0803 21:22:19.483250 13867 net.cpp:148] Top shape: 10 64 112 112 (8028160)
I0803 21:22:19.483256 13867 net.cpp:156] Memory required for data: 38133760
I0803 21:22:19.483283 13867 layer_factory.hpp:77] Creating layer conv1/relu_7x7
I0803 21:22:19.483301 13867 net.cpp:91] Creating Layer conv1/relu_7x7
I0803 21:22:19.483309 13867 net.cpp:425] conv1/relu_7x7 <- conv1/7x7_s2
I0803 21:22:19.483316 13867 net.cpp:386] conv1/relu_7x7 -> conv1/7x7_s2 (in-place)
I0803 21:22:19.483880 13867 net.cpp:141] Setting up conv1/relu_7x7
I0803 21:22:19.483896 13867 net.cpp:148] Top shape: 10 64 112 112 (8028160)
I0803 21:22:19.483901 13867 net.cpp:156] Memory required for data: 70246400
I0803 21:22:19.483906 13867 layer_factory.hpp:77] Creating layer pool1/3x3_s2
I0803 21:22:19.483921 13867 net.cpp:91] Creating Layer pool1/3x3_s2
I0803 21:22:19.483925 13867 net.cpp:425] pool1/3x3_s2 <- conv1/7x7_s2
I0803 21:22:19.483933 13867 net.cpp:399] pool1/3x3_s2 -> pool1/3x3_s2
I0803 21:22:19.484273 13867 net.cpp:141] Setting up pool1/3x3_s2
I0803 21:22:19.484288 13867 net.cpp:148] Top shape: 10 64 56 56 (2007040)
I0803 21:22:19.484293 13867 net.cpp:156] Memory required for data: 78274560
I0803 21:22:19.484298 13867 layer_factory.hpp:77] Creating layer pool1/norm1
I0803 21:22:19.484316 13867 net.cpp:91] Creating Layer pool1/norm1
I0803 21:22:19.484321 13867 net.cpp:425] pool1/norm1 <- pool1/3x3_s2
I0803 21:22:19.484328 13867 net.cpp:399] pool1/norm1 -> pool1/norm1
I0803 21:22:19.484722 13871 net.cpp:141] Setting up conv1/7x7_s2
I0803 21:22:19.484767 13871 net.cpp:148] Top shape: 10 64 112 112 (8028160)
I0803 21:22:19.484774 13871 net.cpp:156] Memory required for data: 38133760
I0803 21:22:19.484796 13871 layer_factory.hpp:77] Creating layer conv1/relu_7x7
I0803 21:22:19.484813 13871 net.cpp:91] Creating Layer conv1/relu_7x7
I0803 21:22:19.484822 13871 net.cpp:425] conv1/relu_7x7 <- conv1/7x7_s2
I0803 21:22:19.484829 13871 net.cpp:386] conv1/relu_7x7 -> conv1/7x7_s2 (in-place)
I0803 21:22:19.484848 13867 net.cpp:141] Setting up pool1/norm1
I0803 21:22:19.484861 13867 net.cpp:148] Top shape: 10 64 56 56 (2007040)
I0803 21:22:19.484866 13867 net.cpp:156] Memory required for data: 86302720
I0803 21:22:19.484872 13867 layer_factory.hpp:77] Creating layer conv2/3x3_reduce
I0803 21:22:19.484892 13867 net.cpp:91] Creating Layer conv2/3x3_reduce
I0803 21:22:19.484899 13867 net.cpp:425] conv2/3x3_reduce <- pool1/norm1
I0803 21:22:19.484918 13867 net.cpp:399] conv2/3x3_reduce -> conv2/3x3_reduce
I0803 21:22:19.485433 13871 net.cpp:141] Setting up conv1/relu_7x7
I0803 21:22:19.485450 13871 net.cpp:148] Top shape: 10 64 112 112 (8028160)
I0803 21:22:19.485455 13871 net.cpp:156] Memory required for data: 70246400
I0803 21:22:19.485461 13871 layer_factory.hpp:77] Creating layer pool1/3x3_s2
I0803 21:22:19.485473 13871 net.cpp:91] Creating Layer pool1/3x3_s2
I0803 21:22:19.485479 13871 net.cpp:425] pool1/3x3_s2 <- conv1/7x7_s2
I0803 21:22:19.485487 13871 net.cpp:399] pool1/3x3_s2 -> pool1/3x3_s2
I0803 21:22:19.486717 13871 net.cpp:141] Setting up pool1/3x3_s2
I0803 21:22:19.486732 13871 net.cpp:148] Top shape: 10 64 56 56 (2007040)
I0803 21:22:19.486738 13871 net.cpp:156] Memory required for data: 78274560
I0803 21:22:19.486744 13871 layer_factory.hpp:77] Creating layer pool1/norm1
I0803 21:22:19.486757 13871 net.cpp:91] Creating Layer pool1/norm1
I0803 21:22:19.486763 13871 net.cpp:425] pool1/norm1 <- pool1/3x3_s2
I0803 21:22:19.486771 13871 net.cpp:399] pool1/norm1 -> pool1/norm1
I0803 21:22:19.487467 13871 net.cpp:141] Setting up pool1/norm1
I0803 21:22:19.487483 13871 net.cpp:148] Top shape: 10 64 56 56 (2007040)
I0803 21:22:19.487489 13871 net.cpp:156] Memory required for data: 86302720
I0803 21:22:19.487495 13871 layer_factory.hpp:77] Creating layer conv2/3x3_reduce
I0803 21:22:19.487514 13871 net.cpp:91] Creating Layer conv2/3x3_reduce
I0803 21:22:19.487521 13871 net.cpp:425] conv2/3x3_reduce <- pool1/norm1
I0803 21:22:19.487530 13871 net.cpp:399] conv2/3x3_reduce -> conv2/3x3_reduce
I0803 21:22:19.490005 13867 net.cpp:141] Setting up conv2/3x3_reduce
I0803 21:22:19.490036 13867 net.cpp:148] Top shape: 10 64 56 56 (2007040)
I0803 21:22:19.490042 13867 net.cpp:156] Memory required for data: 94330880
I0803 21:22:19.490054 13867 layer_factory.hpp:77] Creating layer conv2/relu_3x3_reduce
I0803 21:22:19.490068 13867 net.cpp:91] Creating Layer conv2/relu_3x3_reduce
I0803 21:22:19.490073 13867 net.cpp:425] conv2/relu_3x3_reduce <- conv2/3x3_reduce
I0803 21:22:19.490082 13867 net.cpp:386] conv2/relu_3x3_reduce -> conv2/3x3_reduce (in-place)
I0803 21:22:19.490643 13867 net.cpp:141] Setting up conv2/relu_3x3_reduce
I0803 21:22:19.490659 13867 net.cpp:148] Top shape: 10 64 56 56 (2007040)
I0803 21:22:19.490664 13867 net.cpp:156] Memory required for data: 102359040
I0803 21:22:19.490670 13867 layer_factory.hpp:77] Creating layer conv2/3x3
I0803 21:22:19.490689 13867 net.cpp:91] Creating Layer conv2/3x3
I0803 21:22:19.490695 13867 net.cpp:425] conv2/3x3 <- conv2/3x3_reduce
I0803 21:22:19.490703 13867 net.cpp:399] conv2/3x3 -> conv2/3x3
I0803 21:22:19.492626 13871 net.cpp:141] Setting up conv2/3x3_reduce
I0803 21:22:19.492648 13871 net.cpp:148] Top shape: 10 64 56 56 (2007040)
I0803 21:22:19.492658 13871 net.cpp:156] Memory required for data: 94330880
I0803 21:22:19.492672 13871 layer_factory.hpp:77] Creating layer conv2/relu_3x3_reduce
I0803 21:22:19.492682 13871 net.cpp:91] Creating Layer conv2/relu_3x3_reduce
I0803 21:22:19.492688 13871 net.cpp:425] conv2/relu_3x3_reduce <- conv2/3x3_reduce
I0803 21:22:19.492696 13871 net.cpp:386] conv2/relu_3x3_reduce -> conv2/3x3_reduce (in-place)
I0803 21:22:19.493141 13871 net.cpp:141] Setting up conv2/relu_3x3_reduce
I0803 21:22:19.493161 13871 net.cpp:148] Top shape: 10 64 56 56 (2007040)
I0803 21:22:19.493167 13871 net.cpp:156] Memory required for data: 102359040
I0803 21:22:19.493173 13871 layer_factory.hpp:77] Creating layer conv2/3x3
I0803 21:22:19.493191 13871 net.cpp:91] Creating Layer conv2/3x3
I0803 21:22:19.493198 13871 net.cpp:425] conv2/3x3 <- conv2/3x3_reduce
I0803 21:22:19.493207 13871 net.cpp:399] conv2/3x3 -> conv2/3x3
I0803 21:22:19.496363 13867 net.cpp:141] Setting up conv2/3x3
I0803 21:22:19.496397 13867 net.cpp:148] Top shape: 10 192 56 56 (6021120)
I0803 21:22:19.496402 13867 net.cpp:156] Memory required for data: 126443520
I0803 21:22:19.496414 13867 layer_factory.hpp:77] Creating layer conv2/relu_3x3
I0803 21:22:19.496428 13867 net.cpp:91] Creating Layer conv2/relu_3x3
I0803 21:22:19.496434 13867 net.cpp:425] conv2/relu_3x3 <- conv2/3x3
I0803 21:22:19.496441 13867 net.cpp:386] conv2/relu_3x3 -> conv2/3x3 (in-place)
I0803 21:22:19.496681 13867 net.cpp:141] Setting up conv2/relu_3x3
I0803 21:22:19.496692 13867 net.cpp:148] Top shape: 10 192 56 56 (6021120)
I0803 21:22:19.496697 13867 net.cpp:156] Memory required for data: 150528000
I0803 21:22:19.496702 13867 layer_factory.hpp:77] Creating layer conv2/norm2
I0803 21:22:19.496711 13867 net.cpp:91] Creating Layer conv2/norm2
I0803 21:22:19.496716 13867 net.cpp:425] conv2/norm2 <- conv2/3x3
I0803 21:22:19.496726 13867 net.cpp:399] conv2/norm2 -> conv2/norm2
I0803 21:22:19.497514 13867 net.cpp:141] Setting up conv2/norm2
I0803 21:22:19.497529 13867 net.cpp:148] Top shape: 10 192 56 56 (6021120)
I0803 21:22:19.497534 13867 net.cpp:156] Memory required for data: 174612480
I0803 21:22:19.497539 13867 layer_factory.hpp:77] Creating layer pool2/3x3_s2
I0803 21:22:19.497550 13867 net.cpp:91] Creating Layer pool2/3x3_s2
I0803 21:22:19.497555 13867 net.cpp:425] pool2/3x3_s2 <- conv2/norm2
I0803 21:22:19.497562 13867 net.cpp:399] pool2/3x3_s2 -> pool2/3x3_s2
I0803 21:22:19.498044 13867 net.cpp:141] Setting up pool2/3x3_s2
I0803 21:22:19.498057 13867 net.cpp:148] Top shape: 10 192 28 28 (1505280)
I0803 21:22:19.498061 13867 net.cpp:156] Memory required for data: 180633600
I0803 21:22:19.498066 13867 layer_factory.hpp:77] Creating layer pool2/3x3_s2_pool2/3x3_s2_0_split
I0803 21:22:19.498085 13867 net.cpp:91] Creating Layer pool2/3x3_s2_pool2/3x3_s2_0_split
I0803 21:22:19.498091 13867 net.cpp:425] pool2/3x3_s2_pool2/3x3_s2_0_split <- pool2/3x3_s2
I0803 21:22:19.498097 13867 net.cpp:399] pool2/3x3_s2_pool2/3x3_s2_0_split -> pool2/3x3_s2_pool2/3x3_s2_0_split_0
I0803 21:22:19.498106 13867 net.cpp:399] pool2/3x3_s2_pool2/3x3_s2_0_split -> pool2/3x3_s2_pool2/3x3_s2_0_split_1
I0803 21:22:19.498114 13867 net.cpp:399] pool2/3x3_s2_pool2/3x3_s2_0_split -> pool2/3x3_s2_pool2/3x3_s2_0_split_2
I0803 21:22:19.498121 13867 net.cpp:399] pool2/3x3_s2_pool2/3x3_s2_0_split -> pool2/3x3_s2_pool2/3x3_s2_0_split_3
I0803 21:22:19.498689 13867 net.cpp:141] Setting up pool2/3x3_s2_pool2/3x3_s2_0_split
I0803 21:22:19.498703 13867 net.cpp:148] Top shape: 10 192 28 28 (1505280)
I0803 21:22:19.498709 13867 net.cpp:148] Top shape: 10 192 28 28 (1505280)
I0803 21:22:19.498714 13867 net.cpp:148] Top shape: 10 192 28 28 (1505280)
I0803 21:22:19.498720 13867 net.cpp:148] Top shape: 10 192 28 28 (1505280)
I0803 21:22:19.498724 13867 net.cpp:156] Memory required for data: 204718080
I0803 21:22:19.498729 13867 layer_factory.hpp:77] Creating layer inception_3a/1x1
I0803 21:22:19.498749 13867 net.cpp:91] Creating Layer inception_3a/1x1
I0803 21:22:19.498754 13867 net.cpp:425] inception_3a/1x1 <- pool2/3x3_s2_pool2/3x3_s2_0_split_0
I0803 21:22:19.498775 13867 net.cpp:399] inception_3a/1x1 -> inception_3a/1x1
I0803 21:22:19.499718 13871 net.cpp:141] Setting up conv2/3x3
I0803 21:22:19.499742 13871 net.cpp:148] Top shape: 10 192 56 56 (6021120)
I0803 21:22:19.499748 13871 net.cpp:156] Memory required for data: 126443520
I0803 21:22:19.499766 13871 layer_factory.hpp:77] Creating layer conv2/relu_3x3
I0803 21:22:19.499778 13871 net.cpp:91] Creating Layer conv2/relu_3x3
I0803 21:22:19.499784 13871 net.cpp:425] conv2/relu_3x3 <- conv2/3x3
I0803 21:22:19.499793 13871 net.cpp:386] conv2/relu_3x3 -> conv2/3x3 (in-place)
I0803 21:22:19.500128 13871 net.cpp:141] Setting up conv2/relu_3x3
I0803 21:22:19.500143 13871 net.cpp:148] Top shape: 10 192 56 56 (6021120)
I0803 21:22:19.500149 13871 net.cpp:156] Memory required for data: 150528000
I0803 21:22:19.500154 13871 layer_factory.hpp:77] Creating layer conv2/norm2
I0803 21:22:19.500172 13871 net.cpp:91] Creating Layer conv2/norm2
I0803 21:22:19.500179 13871 net.cpp:425] conv2/norm2 <- conv2/3x3
I0803 21:22:19.500186 13871 net.cpp:399] conv2/norm2 -> conv2/norm2
I0803 21:22:19.500990 13871 net.cpp:141] Setting up conv2/norm2
I0803 21:22:19.501011 13871 net.cpp:148] Top shape: 10 192 56 56 (6021120)
I0803 21:22:19.501018 13871 net.cpp:156] Memory required for data: 174612480
I0803 21:22:19.501024 13871 layer_factory.hpp:77] Creating layer pool2/3x3_s2
I0803 21:22:19.501035 13871 net.cpp:91] Creating Layer pool2/3x3_s2
I0803 21:22:19.501041 13871 net.cpp:425] pool2/3x3_s2 <- conv2/norm2
I0803 21:22:19.501049 13871 net.cpp:399] pool2/3x3_s2 -> pool2/3x3_s2
I0803 21:22:19.501543 13871 net.cpp:141] Setting up pool2/3x3_s2
I0803 21:22:19.501559 13871 net.cpp:148] Top shape: 10 192 28 28 (1505280)
I0803 21:22:19.501564 13871 net.cpp:156] Memory required for data: 180633600
I0803 21:22:19.501579 13871 layer_factory.hpp:77] Creating layer pool2/3x3_s2_pool2/3x3_s2_0_split
I0803 21:22:19.501587 13871 net.cpp:91] Creating Layer pool2/3x3_s2_pool2/3x3_s2_0_split
I0803 21:22:19.501593 13871 net.cpp:425] pool2/3x3_s2_pool2/3x3_s2_0_split <- pool2/3x3_s2
I0803 21:22:19.501605 13871 net.cpp:399] pool2/3x3_s2_pool2/3x3_s2_0_split -> pool2/3x3_s2_pool2/3x3_s2_0_split_0
I0803 21:22:19.501616 13871 net.cpp:399] pool2/3x3_s2_pool2/3x3_s2_0_split -> pool2/3x3_s2_pool2/3x3_s2_0_split_1
I0803 21:22:19.501624 13871 net.cpp:399] pool2/3x3_s2_pool2/3x3_s2_0_split -> pool2/3x3_s2_pool2/3x3_s2_0_split_2
I0803 21:22:19.501636 13871 net.cpp:399] pool2/3x3_s2_pool2/3x3_s2_0_split -> pool2/3x3_s2_pool2/3x3_s2_0_split_3
I0803 21:22:19.502177 13871 net.cpp:141] Setting up pool2/3x3_s2_pool2/3x3_s2_0_split
I0803 21:22:19.502195 13871 net.cpp:148] Top shape: 10 192 28 28 (1505280)
I0803 21:22:19.502203 13871 net.cpp:148] Top shape: 10 192 28 28 (1505280)
I0803 21:22:19.502210 13871 net.cpp:148] Top shape: 10 192 28 28 (1505280)
I0803 21:22:19.502216 13871 net.cpp:148] Top shape: 10 192 28 28 (1505280)
I0803 21:22:19.502220 13871 net.cpp:156] Memory required for data: 204718080
I0803 21:22:19.502226 13871 layer_factory.hpp:77] Creating layer inception_3a/1x1
I0803 21:22:19.502240 13871 net.cpp:91] Creating Layer inception_3a/1x1
I0803 21:22:19.502246 13871 net.cpp:425] inception_3a/1x1 <- pool2/3x3_s2_pool2/3x3_s2_0_split_0
I0803 21:22:19.502260 13871 net.cpp:399] inception_3a/1x1 -> inception_3a/1x1
I0803 21:22:19.503937 13867 net.cpp:141] Setting up inception_3a/1x1
I0803 21:22:19.503968 13867 net.cpp:148] Top shape: 10 64 28 28 (501760)
I0803 21:22:19.503973 13867 net.cpp:156] Memory required for data: 206725120
I0803 21:22:19.503986 13867 layer_factory.hpp:77] Creating layer inception_3a/relu_1x1
I0803 21:22:19.503995 13867 net.cpp:91] Creating Layer inception_3a/relu_1x1
I0803 21:22:19.504001 13867 net.cpp:425] inception_3a/relu_1x1 <- inception_3a/1x1
I0803 21:22:19.504009 13867 net.cpp:386] inception_3a/relu_1x1 -> inception_3a/1x1 (in-place)
I0803 21:22:19.504365 13867 net.cpp:141] Setting up inception_3a/relu_1x1
I0803 21:22:19.504377 13867 net.cpp:148] Top shape: 10 64 28 28 (501760)
I0803 21:22:19.504382 13867 net.cpp:156] Memory required for data: 208732160
I0803 21:22:19.504392 13867 layer_factory.hpp:77] Creating layer inception_3a/3x3_reduce
I0803 21:22:19.504420 13867 net.cpp:91] Creating Layer inception_3a/3x3_reduce
I0803 21:22:19.504427 13867 net.cpp:425] inception_3a/3x3_reduce <- pool2/3x3_s2_pool2/3x3_s2_0_split_1
I0803 21:22:19.504437 13867 net.cpp:399] inception_3a/3x3_reduce -> inception_3a/3x3_reduce
I0803 21:22:19.509338 13871 net.cpp:141] Setting up inception_3a/1x1
I0803 21:22:19.509361 13871 net.cpp:148] Top shape: 10 64 28 28 (501760)
I0803 21:22:19.509366 13871 net.cpp:156] Memory required for data: 206725120
I0803 21:22:19.509377 13871 layer_factory.hpp:77] Creating layer inception_3a/relu_1x1
I0803 21:22:19.509387 13871 net.cpp:91] Creating Layer inception_3a/relu_1x1
I0803 21:22:19.509393 13871 net.cpp:425] inception_3a/relu_1x1 <- inception_3a/1x1
I0803 21:22:19.509407 13871 net.cpp:386] inception_3a/relu_1x1 -> inception_3a/1x1 (in-place)
I0803 21:22:19.509755 13867 net.cpp:141] Setting up inception_3a/3x3_reduce
I0803 21:22:19.509776 13867 net.cpp:148] Top shape: 10 96 28 28 (752640)
I0803 21:22:19.509783 13867 net.cpp:156] Memory required for data: 211742720
I0803 21:22:19.509795 13867 layer_factory.hpp:77] Creating layer inception_3a/relu_3x3_reduce
I0803 21:22:19.509804 13867 net.cpp:91] Creating Layer inception_3a/relu_3x3_reduce
I0803 21:22:19.509804 13871 net.cpp:141] Setting up inception_3a/relu_1x1
I0803 21:22:19.509810 13867 net.cpp:425] inception_3a/relu_3x3_reduce <- inception_3a/3x3_reduce
I0803 21:22:19.509819 13871 net.cpp:148] Top shape: 10 64 28 28 (501760)
I0803 21:22:19.509822 13867 net.cpp:386] inception_3a/relu_3x3_reduce -> inception_3a/3x3_reduce (in-place)
I0803 21:22:19.509826 13871 net.cpp:156] Memory required for data: 208732160
I0803 21:22:19.509832 13871 layer_factory.hpp:77] Creating layer inception_3a/3x3_reduce
I0803 21:22:19.509850 13871 net.cpp:91] Creating Layer inception_3a/3x3_reduce
I0803 21:22:19.509856 13871 net.cpp:425] inception_3a/3x3_reduce <- pool2/3x3_s2_pool2/3x3_s2_0_split_1
I0803 21:22:19.509866 13871 net.cpp:399] inception_3a/3x3_reduce -> inception_3a/3x3_reduce
I0803 21:22:19.510267 13867 net.cpp:141] Setting up inception_3a/relu_3x3_reduce
I0803 21:22:19.510279 13867 net.cpp:148] Top shape: 10 96 28 28 (752640)
I0803 21:22:19.510283 13867 net.cpp:156] Memory required for data: 214753280
I0803 21:22:19.510288 13867 layer_factory.hpp:77] Creating layer inception_3a/3x3
I0803 21:22:19.510308 13867 net.cpp:91] Creating Layer inception_3a/3x3
I0803 21:22:19.510314 13867 net.cpp:425] inception_3a/3x3 <- inception_3a/3x3_reduce
I0803 21:22:19.510323 13867 net.cpp:399] inception_3a/3x3 -> inception_3a/3x3
I0803 21:22:19.514221 13871 net.cpp:141] Setting up inception_3a/3x3_reduce
I0803 21:22:19.514241 13871 net.cpp:148] Top shape: 10 96 28 28 (752640)
I0803 21:22:19.514247 13871 net.cpp:156] Memory required for data: 211742720
I0803 21:22:19.514266 13871 layer_factory.hpp:77] Creating layer inception_3a/relu_3x3_reduce
I0803 21:22:19.514276 13871 net.cpp:91] Creating Layer inception_3a/relu_3x3_reduce
I0803 21:22:19.514282 13871 net.cpp:425] inception_3a/relu_3x3_reduce <- inception_3a/3x3_reduce
I0803 21:22:19.514292 13871 net.cpp:386] inception_3a/relu_3x3_reduce -> inception_3a/3x3_reduce (in-place)
I0803 21:22:19.514724 13871 net.cpp:141] Setting up inception_3a/relu_3x3_reduce
I0803 21:22:19.514739 13871 net.cpp:148] Top shape: 10 96 28 28 (752640)
I0803 21:22:19.514745 13871 net.cpp:156] Memory required for data: 214753280
I0803 21:22:19.514750 13871 layer_factory.hpp:77] Creating layer inception_3a/3x3
I0803 21:22:19.514772 13871 net.cpp:91] Creating Layer inception_3a/3x3
I0803 21:22:19.514780 13871 net.cpp:425] inception_3a/3x3 <- inception_3a/3x3_reduce
I0803 21:22:19.514789 13871 net.cpp:399] inception_3a/3x3 -> inception_3a/3x3
I0803 21:22:19.514960 13867 net.cpp:141] Setting up inception_3a/3x3
I0803 21:22:19.514979 13867 net.cpp:148] Top shape: 10 128 28 28 (1003520)
I0803 21:22:19.514986 13867 net.cpp:156] Memory required for data: 218767360
I0803 21:22:19.514998 13867 layer_factory.hpp:77] Creating layer inception_3a/relu_3x3
I0803 21:22:19.515013 13867 net.cpp:91] Creating Layer inception_3a/relu_3x3
I0803 21:22:19.515022 13867 net.cpp:425] inception_3a/relu_3x3 <- inception_3a/3x3
I0803 21:22:19.515030 13867 net.cpp:386] inception_3a/relu_3x3 -> inception_3a/3x3 (in-place)
I0803 21:22:19.515664 13867 net.cpp:141] Setting up inception_3a/relu_3x3
I0803 21:22:19.515681 13867 net.cpp:148] Top shape: 10 128 28 28 (1003520)
I0803 21:22:19.515687 13867 net.cpp:156] Memory required for data: 222781440
I0803 21:22:19.515693 13867 layer_factory.hpp:77] Creating layer inception_3a/5x5_reduce
I0803 21:22:19.515712 13867 net.cpp:91] Creating Layer inception_3a/5x5_reduce
I0803 21:22:19.515719 13867 net.cpp:425] inception_3a/5x5_reduce <- pool2/3x3_s2_pool2/3x3_s2_0_split_2
I0803 21:22:19.515733 13867 net.cpp:399] inception_3a/5x5_reduce -> inception_3a/5x5_reduce
I0803 21:22:19.518386 13867 net.cpp:141] Setting up inception_3a/5x5_reduce
I0803 21:22:19.518409 13867 net.cpp:148] Top shape: 10 16 28 28 (125440)
I0803 21:22:19.518414 13867 net.cpp:156] Memory required for data: 223283200
I0803 21:22:19.518425 13867 layer_factory.hpp:77] Creating layer inception_3a/relu_5x5_reduce
I0803 21:22:19.518435 13867 net.cpp:91] Creating Layer inception_3a/relu_5x5_reduce
I0803 21:22:19.518441 13867 net.cpp:425] inception_3a/relu_5x5_reduce <- inception_3a/5x5_reduce
I0803 21:22:19.518450 13867 net.cpp:386] inception_3a/relu_5x5_reduce -> inception_3a/5x5_reduce (in-place)
I0803 21:22:19.518887 13867 net.cpp:141] Setting up inception_3a/relu_5x5_reduce
I0803 21:22:19.518903 13867 net.cpp:148] Top shape: 10 16 28 28 (125440)
I0803 21:22:19.518908 13867 net.cpp:156] Memory required for data: 223784960
I0803 21:22:19.518913 13867 layer_factory.hpp:77] Creating layer inception_3a/5x5
I0803 21:22:19.518930 13867 net.cpp:91] Creating Layer inception_3a/5x5
I0803 21:22:19.518937 13867 net.cpp:425] inception_3a/5x5 <- inception_3a/5x5_reduce
I0803 21:22:19.518950 13867 net.cpp:399] inception_3a/5x5 -> inception_3a/5x5
I0803 21:22:19.518975 13871 net.cpp:141] Setting up inception_3a/3x3
I0803 21:22:19.518991 13871 net.cpp:148] Top shape: 10 128 28 28 (1003520)
I0803 21:22:19.518997 13871 net.cpp:156] Memory required for data: 218767360
I0803 21:22:19.519007 13871 layer_factory.hpp:77] Creating layer inception_3a/relu_3x3
I0803 21:22:19.519021 13871 net.cpp:91] Creating Layer inception_3a/relu_3x3
I0803 21:22:19.519026 13871 net.cpp:425] inception_3a/relu_3x3 <- inception_3a/3x3
I0803 21:22:19.519034 13871 net.cpp:386] inception_3a/relu_3x3 -> inception_3a/3x3 (in-place)
I0803 21:22:19.519629 13871 net.cpp:141] Setting up inception_3a/relu_3x3
I0803 21:22:19.519645 13871 net.cpp:148] Top shape: 10 128 28 28 (1003520)
I0803 21:22:19.519651 13871 net.cpp:156] Memory required for data: 222781440
I0803 21:22:19.519657 13871 layer_factory.hpp:77] Creating layer inception_3a/5x5_reduce
I0803 21:22:19.519675 13871 net.cpp:91] Creating Layer inception_3a/5x5_reduce
I0803 21:22:19.519681 13871 net.cpp:425] inception_3a/5x5_reduce <- pool2/3x3_s2_pool2/3x3_s2_0_split_2
I0803 21:22:19.519695 13871 net.cpp:399] inception_3a/5x5_reduce -> inception_3a/5x5_reduce
I0803 21:22:19.522964 13867 net.cpp:141] Setting up inception_3a/5x5
I0803 21:22:19.522985 13867 net.cpp:148] Top shape: 10 32 28 28 (250880)
I0803 21:22:19.522991 13867 net.cpp:156] Memory required for data: 224788480
I0803 21:22:19.523002 13867 layer_factory.hpp:77] Creating layer inception_3a/relu_5x5
I0803 21:22:19.523011 13867 net.cpp:91] Creating Layer inception_3a/relu_5x5
I0803 21:22:19.523018 13867 net.cpp:425] inception_3a/relu_5x5 <- inception_3a/5x5
I0803 21:22:19.523030 13867 net.cpp:386] inception_3a/relu_5x5 -> inception_3a/5x5 (in-place)
I0803 21:22:19.523368 13871 net.cpp:141] Setting up inception_3a/5x5_reduce
I0803 21:22:19.523386 13871 net.cpp:148] Top shape: 10 16 28 28 (125440)
I0803 21:22:19.523391 13871 net.cpp:156] Memory required for data: 223283200
I0803 21:22:19.523401 13871 layer_factory.hpp:77] Creating layer inception_3a/relu_5x5_reduce
I0803 21:22:19.523414 13871 net.cpp:91] Creating Layer inception_3a/relu_5x5_reduce
I0803 21:22:19.523422 13871 net.cpp:425] inception_3a/relu_5x5_reduce <- inception_3a/5x5_reduce
I0803 21:22:19.523429 13871 net.cpp:386] inception_3a/relu_5x5_reduce -> inception_3a/5x5_reduce (in-place)
I0803 21:22:19.523439 13867 net.cpp:141] Setting up inception_3a/relu_5x5
I0803 21:22:19.523461 13867 net.cpp:148] Top shape: 10 32 28 28 (250880)
I0803 21:22:19.523473 13867 net.cpp:156] Memory required for data: 225792000
I0803 21:22:19.523483 13867 layer_factory.hpp:77] Creating layer inception_3a/pool
I0803 21:22:19.523505 13867 net.cpp:91] Creating Layer inception_3a/pool
I0803 21:22:19.523519 13867 net.cpp:425] inception_3a/pool <- pool2/3x3_s2_pool2/3x3_s2_0_split_3
I0803 21:22:19.523535 13867 net.cpp:399] inception_3a/pool -> inception_3a/pool
I0803 21:22:19.523762 13867 net.cpp:141] Setting up inception_3a/pool
I0803 21:22:19.523784 13867 net.cpp:148] Top shape: 10 192 28 28 (1505280)
I0803 21:22:19.523792 13871 net.cpp:141] Setting up inception_3a/relu_5x5_reduce
I0803 21:22:19.523795 13867 net.cpp:156] Memory required for data: 231813120
I0803 21:22:19.523810 13871 net.cpp:148] Top shape: 10 16 28 28 (125440)
I0803 21:22:19.523816 13871 net.cpp:156] Memory required for data: 223784960
I0803 21:22:19.523818 13867 layer_factory.hpp:77] Creating layer inception_3a/pool_proj
I0803 21:22:19.523823 13871 layer_factory.hpp:77] Creating layer inception_3a/5x5
I0803 21:22:19.523847 13871 net.cpp:91] Creating Layer inception_3a/5x5
I0803 21:22:19.523854 13871 net.cpp:425] inception_3a/5x5 <- inception_3a/5x5_reduce
I0803 21:22:19.523851 13867 net.cpp:91] Creating Layer inception_3a/pool_proj
I0803 21:22:19.523867 13871 net.cpp:399] inception_3a/5x5 -> inception_3a/5x5
I0803 21:22:19.523867 13867 net.cpp:425] inception_3a/pool_proj <- inception_3a/pool
I0803 21:22:19.523895 13867 net.cpp:399] inception_3a/pool_proj -> inception_3a/pool_proj
I0803 21:22:19.527598 13871 net.cpp:141] Setting up inception_3a/5x5
I0803 21:22:19.527623 13871 net.cpp:148] Top shape: 10 32 28 28 (250880)
I0803 21:22:19.527631 13871 net.cpp:156] Memory required for data: 224788480
I0803 21:22:19.527642 13871 layer_factory.hpp:77] Creating layer inception_3a/relu_5x5
I0803 21:22:19.527650 13871 net.cpp:91] Creating Layer inception_3a/relu_5x5
I0803 21:22:19.527657 13871 net.cpp:425] inception_3a/relu_5x5 <- inception_3a/5x5
I0803 21:22:19.527667 13871 net.cpp:386] inception_3a/relu_5x5 -> inception_3a/5x5 (in-place)
I0803 21:22:19.527969 13867 net.cpp:141] Setting up inception_3a/pool_proj
I0803 21:22:19.527987 13867 net.cpp:148] Top shape: 10 32 28 28 (250880)
I0803 21:22:19.527992 13867 net.cpp:156] Memory required for data: 232816640
I0803 21:22:19.528007 13867 layer_factory.hpp:77] Creating layer inception_3a/relu_pool_proj
I0803 21:22:19.528029 13867 net.cpp:91] Creating Layer inception_3a/relu_pool_proj
I0803 21:22:19.528036 13867 net.cpp:425] inception_3a/relu_pool_proj <- inception_3a/pool_proj
I0803 21:22:19.528038 13871 net.cpp:141] Setting up inception_3a/relu_5x5
I0803 21:22:19.528045 13867 net.cpp:386] inception_3a/relu_pool_proj -> inception_3a/pool_proj (in-place)
I0803 21:22:19.528051 13871 net.cpp:148] Top shape: 10 32 28 28 (250880)
I0803 21:22:19.528058 13871 net.cpp:156] Memory required for data: 225792000
I0803 21:22:19.528062 13871 layer_factory.hpp:77] Creating layer inception_3a/pool
I0803 21:22:19.528077 13871 net.cpp:91] Creating Layer inception_3a/pool
I0803 21:22:19.528084 13871 net.cpp:425] inception_3a/pool <- pool2/3x3_s2_pool2/3x3_s2_0_split_3
I0803 21:22:19.528092 13871 net.cpp:399] inception_3a/pool -> inception_3a/pool
I0803 21:22:19.528496 13871 net.cpp:141] Setting up inception_3a/pool
I0803 21:22:19.528508 13871 net.cpp:148] Top shape: 10 192 28 28 (1505280)
I0803 21:22:19.528514 13871 net.cpp:156] Memory required for data: 231813120
I0803 21:22:19.528519 13871 layer_factory.hpp:77] Creating layer inception_3a/pool_proj
I0803 21:22:19.528537 13871 net.cpp:91] Creating Layer inception_3a/pool_proj
I0803 21:22:19.528543 13871 net.cpp:425] inception_3a/pool_proj <- inception_3a/pool
I0803 21:22:19.528555 13871 net.cpp:399] inception_3a/pool_proj -> inception_3a/pool_proj
I0803 21:22:19.528589 13867 net.cpp:141] Setting up inception_3a/relu_pool_proj
I0803 21:22:19.528604 13867 net.cpp:148] Top shape: 10 32 28 28 (250880)
I0803 21:22:19.528609 13867 net.cpp:156] Memory required for data: 233820160
I0803 21:22:19.528614 13867 layer_factory.hpp:77] Creating layer inception_3a/output
I0803 21:22:19.528640 13867 net.cpp:91] Creating Layer inception_3a/output
I0803 21:22:19.528646 13867 net.cpp:425] inception_3a/output <- inception_3a/1x1
I0803 21:22:19.528653 13867 net.cpp:425] inception_3a/output <- inception_3a/3x3
I0803 21:22:19.528659 13867 net.cpp:425] inception_3a/output <- inception_3a/5x5
I0803 21:22:19.528666 13867 net.cpp:425] inception_3a/output <- inception_3a/pool_proj
I0803 21:22:19.528672 13867 net.cpp:399] inception_3a/output -> inception_3a/output
I0803 21:22:19.528807 13867 net.cpp:141] Setting up inception_3a/output
I0803 21:22:19.528820 13867 net.cpp:148] Top shape: 10 256 28 28 (2007040)
I0803 21:22:19.528825 13867 net.cpp:156] Memory required for data: 241848320
I0803 21:22:19.528831 13867 layer_factory.hpp:77] Creating layer inception_3a/output_inception_3a/output_0_split
I0803 21:22:19.528846 13867 net.cpp:91] Creating Layer inception_3a/output_inception_3a/output_0_split
I0803 21:22:19.528851 13867 net.cpp:425] inception_3a/output_inception_3a/output_0_split <- inception_3a/output
I0803 21:22:19.528861 13867 net.cpp:399] inception_3a/output_inception_3a/output_0_split -> inception_3a/output_inception_3a/output_0_split_0
I0803 21:22:19.528872 13867 net.cpp:399] inception_3a/output_inception_3a/output_0_split -> inception_3a/output_inception_3a/output_0_split_1
I0803 21:22:19.528882 13867 net.cpp:399] inception_3a/output_inception_3a/output_0_split -> inception_3a/output_inception_3a/output_0_split_2
I0803 21:22:19.528889 13867 net.cpp:399] inception_3a/output_inception_3a/output_0_split -> inception_3a/output_inception_3a/output_0_split_3
I0803 21:22:19.529155 13867 net.cpp:141] Setting up inception_3a/output_inception_3a/output_0_split
I0803 21:22:19.529167 13867 net.cpp:148] Top shape: 10 256 28 28 (2007040)
I0803 21:22:19.529175 13867 net.cpp:148] Top shape: 10 256 28 28 (2007040)
I0803 21:22:19.529181 13867 net.cpp:148] Top shape: 10 256 28 28 (2007040)
I0803 21:22:19.529186 13867 net.cpp:148] Top shape: 10 256 28 28 (2007040)
I0803 21:22:19.529191 13867 net.cpp:156] Memory required for data: 273960960
I0803 21:22:19.529197 13867 layer_factory.hpp:77] Creating layer inception_3b/1x1
I0803 21:22:19.529213 13867 net.cpp:91] Creating Layer inception_3b/1x1
I0803 21:22:19.529220 13867 net.cpp:425] inception_3b/1x1 <- inception_3a/output_inception_3a/output_0_split_0
I0803 21:22:19.529232 13867 net.cpp:399] inception_3b/1x1 -> inception_3b/1x1
I0803 21:22:19.531360 13871 net.cpp:141] Setting up inception_3a/pool_proj
I0803 21:22:19.531379 13871 net.cpp:148] Top shape: 10 32 28 28 (250880)
I0803 21:22:19.531386 13871 net.cpp:156] Memory required for data: 232816640
I0803 21:22:19.531404 13871 layer_factory.hpp:77] Creating layer inception_3a/relu_pool_proj
I0803 21:22:19.531414 13871 net.cpp:91] Creating Layer inception_3a/relu_pool_proj
I0803 21:22:19.531420 13871 net.cpp:425] inception_3a/relu_pool_proj <- inception_3a/pool_proj
I0803 21:22:19.531429 13871 net.cpp:386] inception_3a/relu_pool_proj -> inception_3a/pool_proj (in-place)
I0803 21:22:19.532003 13871 net.cpp:141] Setting up inception_3a/relu_pool_proj
I0803 21:22:19.532021 13871 net.cpp:148] Top shape: 10 32 28 28 (250880)
I0803 21:22:19.532027 13871 net.cpp:156] Memory required for data: 233820160
I0803 21:22:19.532032 13871 layer_factory.hpp:77] Creating layer inception_3a/output
I0803 21:22:19.532047 13871 net.cpp:91] Creating Layer inception_3a/output
I0803 21:22:19.532052 13871 net.cpp:425] inception_3a/output <- inception_3a/1x1
I0803 21:22:19.532059 13871 net.cpp:425] inception_3a/output <- inception_3a/3x3
I0803 21:22:19.532065 13871 net.cpp:425] inception_3a/output <- inception_3a/5x5
I0803 21:22:19.532071 13871 net.cpp:425] inception_3a/output <- inception_3a/pool_proj
I0803 21:22:19.532078 13871 net.cpp:399] inception_3a/output -> inception_3a/output
I0803 21:22:19.532310 13871 net.cpp:141] Setting up inception_3a/output
I0803 21:22:19.532325 13871 net.cpp:148] Top shape: 10 256 28 28 (2007040)
I0803 21:22:19.532330 13871 net.cpp:156] Memory required for data: 241848320
I0803 21:22:19.532335 13871 layer_factory.hpp:77] Creating layer inception_3a/output_inception_3a/output_0_split
I0803 21:22:19.532344 13871 net.cpp:91] Creating Layer inception_3a/output_inception_3a/output_0_split
I0803 21:22:19.532349 13871 net.cpp:425] inception_3a/output_inception_3a/output_0_split <- inception_3a/output
I0803 21:22:19.532357 13871 net.cpp:399] inception_3a/output_inception_3a/output_0_split -> inception_3a/output_inception_3a/output_0_split_0
I0803 21:22:19.532366 13871 net.cpp:399] inception_3a/output_inception_3a/output_0_split -> inception_3a/output_inception_3a/output_0_split_1
I0803 21:22:19.532382 13871 net.cpp:399] inception_3a/output_inception_3a/output_0_split -> inception_3a/output_inception_3a/output_0_split_2
I0803 21:22:19.532392 13871 net.cpp:399] inception_3a/output_inception_3a/output_0_split -> inception_3a/output_inception_3a/output_0_split_3
I0803 21:22:19.532721 13871 net.cpp:141] Setting up inception_3a/output_inception_3a/output_0_split
I0803 21:22:19.532733 13871 net.cpp:148] Top shape: 10 256 28 28 (2007040)
I0803 21:22:19.532739 13871 net.cpp:148] Top shape: 10 256 28 28 (2007040)
I0803 21:22:19.532747 13871 net.cpp:148] Top shape: 10 256 28 28 (2007040)
I0803 21:22:19.532752 13871 net.cpp:148] Top shape: 10 256 28 28 (2007040)
I0803 21:22:19.532757 13871 net.cpp:156] Memory required for data: 273960960
I0803 21:22:19.532763 13871 layer_factory.hpp:77] Creating layer inception_3b/1x1
I0803 21:22:19.532781 13871 net.cpp:91] Creating Layer inception_3b/1x1
I0803 21:22:19.532788 13871 net.cpp:425] inception_3b/1x1 <- inception_3a/output_inception_3a/output_0_split_0
I0803 21:22:19.532798 13871 net.cpp:399] inception_3b/1x1 -> inception_3b/1x1
I0803 21:22:19.532861 13867 net.cpp:141] Setting up inception_3b/1x1
I0803 21:22:19.532878 13867 net.cpp:148] Top shape: 10 128 28 28 (1003520)
I0803 21:22:19.532883 13867 net.cpp:156] Memory required for data: 277975040
I0803 21:22:19.532894 13867 layer_factory.hpp:77] Creating layer inception_3b/relu_1x1
I0803 21:22:19.532907 13867 net.cpp:91] Creating Layer inception_3b/relu_1x1
I0803 21:22:19.532914 13867 net.cpp:425] inception_3b/relu_1x1 <- inception_3b/1x1
I0803 21:22:19.532922 13867 net.cpp:386] inception_3b/relu_1x1 -> inception_3b/1x1 (in-place)
I0803 21:22:19.533329 13867 net.cpp:141] Setting up inception_3b/relu_1x1
I0803 21:22:19.533344 13867 net.cpp:148] Top shape: 10 128 28 28 (1003520)
I0803 21:22:19.533349 13867 net.cpp:156] Memory required for data: 281989120
I0803 21:22:19.533354 13867 layer_factory.hpp:77] Creating layer inception_3b/3x3_reduce
I0803 21:22:19.533371 13867 net.cpp:91] Creating Layer inception_3b/3x3_reduce
I0803 21:22:19.533378 13867 net.cpp:425] inception_3b/3x3_reduce <- inception_3a/output_inception_3a/output_0_split_1
I0803 21:22:19.533390 13867 net.cpp:399] inception_3b/3x3_reduce -> inception_3b/3x3_reduce
I0803 21:22:19.536005 13871 net.cpp:141] Setting up inception_3b/1x1
I0803 21:22:19.536026 13871 net.cpp:148] Top shape: 10 128 28 28 (1003520)
I0803 21:22:19.536032 13871 net.cpp:156] Memory required for data: 277975040
I0803 21:22:19.536042 13871 layer_factory.hpp:77] Creating layer inception_3b/relu_1x1
I0803 21:22:19.536052 13871 net.cpp:91] Creating Layer inception_3b/relu_1x1
I0803 21:22:19.536058 13871 net.cpp:425] inception_3b/relu_1x1 <- inception_3b/1x1
I0803 21:22:19.536067 13871 net.cpp:386] inception_3b/relu_1x1 -> inception_3b/1x1 (in-place)
I0803 21:22:19.536382 13867 net.cpp:141] Setting up inception_3b/3x3_reduce
I0803 21:22:19.536398 13867 net.cpp:148] Top shape: 10 128 28 28 (1003520)
I0803 21:22:19.536404 13867 net.cpp:156] Memory required for data: 286003200
I0803 21:22:19.536414 13867 layer_factory.hpp:77] Creating layer inception_3b/relu_3x3_reduce
I0803 21:22:19.536424 13871 net.cpp:141] Setting up inception_3b/relu_1x1
I0803 21:22:19.536427 13867 net.cpp:91] Creating Layer inception_3b/relu_3x3_reduce
I0803 21:22:19.536442 13871 net.cpp:148] Top shape: 10 128 28 28 (1003520)
I0803 21:22:19.536445 13867 net.cpp:425] inception_3b/relu_3x3_reduce <- inception_3b/3x3_reduce
I0803 21:22:19.536448 13871 net.cpp:156] Memory required for data: 281989120
I0803 21:22:19.536454 13871 layer_factory.hpp:77] Creating layer inception_3b/3x3_reduce
I0803 21:22:19.536454 13867 net.cpp:386] inception_3b/relu_3x3_reduce -> inception_3b/3x3_reduce (in-place)
I0803 21:22:19.536473 13871 net.cpp:91] Creating Layer inception_3b/3x3_reduce
I0803 21:22:19.536480 13871 net.cpp:425] inception_3b/3x3_reduce <- inception_3a/output_inception_3a/output_0_split_1
I0803 21:22:19.536494 13871 net.cpp:399] inception_3b/3x3_reduce -> inception_3b/3x3_reduce
I0803 21:22:19.536867 13867 net.cpp:141] Setting up inception_3b/relu_3x3_reduce
I0803 21:22:19.536881 13867 net.cpp:148] Top shape: 10 128 28 28 (1003520)
I0803 21:22:19.536887 13867 net.cpp:156] Memory required for data: 290017280
I0803 21:22:19.536892 13867 layer_factory.hpp:77] Creating layer inception_3b/3x3
I0803 21:22:19.536911 13867 net.cpp:91] Creating Layer inception_3b/3x3
I0803 21:22:19.536917 13867 net.cpp:425] inception_3b/3x3 <- inception_3b/3x3_reduce
I0803 21:22:19.536932 13867 net.cpp:399] inception_3b/3x3 -> inception_3b/3x3
I0803 21:22:19.540369 13871 net.cpp:141] Setting up inception_3b/3x3_reduce
I0803 21:22:19.540393 13871 net.cpp:148] Top shape: 10 128 28 28 (1003520)
I0803 21:22:19.540400 13871 net.cpp:156] Memory required for data: 286003200
I0803 21:22:19.540410 13871 layer_factory.hpp:77] Creating layer inception_3b/relu_3x3_reduce
I0803 21:22:19.540419 13871 net.cpp:91] Creating Layer inception_3b/relu_3x3_reduce
I0803 21:22:19.540426 13871 net.cpp:425] inception_3b/relu_3x3_reduce <- inception_3b/3x3_reduce
I0803 21:22:19.540434 13871 net.cpp:386] inception_3b/relu_3x3_reduce -> inception_3b/3x3_reduce (in-place)
I0803 21:22:19.540820 13871 net.cpp:141] Setting up inception_3b/relu_3x3_reduce
I0803 21:22:19.540835 13871 net.cpp:148] Top shape: 10 128 28 28 (1003520)
I0803 21:22:19.540841 13871 net.cpp:156] Memory required for data: 290017280
I0803 21:22:19.540848 13871 layer_factory.hpp:77] Creating layer inception_3b/3x3
I0803 21:22:19.540868 13871 net.cpp:91] Creating Layer inception_3b/3x3
I0803 21:22:19.540875 13871 net.cpp:425] inception_3b/3x3 <- inception_3b/3x3_reduce
I0803 21:22:19.540889 13871 net.cpp:399] inception_3b/3x3 -> inception_3b/3x3
I0803 21:22:19.543695 13867 net.cpp:141] Setting up inception_3b/3x3
I0803 21:22:19.543720 13867 net.cpp:148] Top shape: 10 192 28 28 (1505280)
I0803 21:22:19.543725 13867 net.cpp:156] Memory required for data: 296038400
I0803 21:22:19.543736 13867 layer_factory.hpp:77] Creating layer inception_3b/relu_3x3
I0803 21:22:19.543758 13867 net.cpp:91] Creating Layer inception_3b/relu_3x3
I0803 21:22:19.543766 13867 net.cpp:425] inception_3b/relu_3x3 <- inception_3b/3x3
I0803 21:22:19.543774 13867 net.cpp:386] inception_3b/relu_3x3 -> inception_3b/3x3 (in-place)
I0803 21:22:19.544181 13867 net.cpp:141] Setting up inception_3b/relu_3x3
I0803 21:22:19.544194 13867 net.cpp:148] Top shape: 10 192 28 28 (1505280)
I0803 21:22:19.544199 13867 net.cpp:156] Memory required for data: 302059520
I0803 21:22:19.544204 13867 layer_factory.hpp:77] Creating layer inception_3b/5x5_reduce
I0803 21:22:19.544220 13867 net.cpp:91] Creating Layer inception_3b/5x5_reduce
I0803 21:22:19.544226 13867 net.cpp:425] inception_3b/5x5_reduce <- inception_3a/output_inception_3a/output_0_split_2
I0803 21:22:19.544239 13867 net.cpp:399] inception_3b/5x5_reduce -> inception_3b/5x5_reduce
I0803 21:22:19.547031 13867 net.cpp:141] Setting up inception_3b/5x5_reduce
I0803 21:22:19.547049 13867 net.cpp:148] Top shape: 10 32 28 28 (250880)
I0803 21:22:19.547055 13867 net.cpp:156] Memory required for data: 303063040
I0803 21:22:19.547065 13867 layer_factory.hpp:77] Creating layer inception_3b/relu_5x5_reduce
I0803 21:22:19.547073 13867 net.cpp:91] Creating Layer inception_3b/relu_5x5_reduce
I0803 21:22:19.547080 13867 net.cpp:425] inception_3b/relu_5x5_reduce <- inception_3b/5x5_reduce
I0803 21:22:19.547091 13867 net.cpp:386] inception_3b/relu_5x5_reduce -> inception_3b/5x5_reduce (in-place)
I0803 21:22:19.547493 13867 net.cpp:141] Setting up inception_3b/relu_5x5_reduce
I0803 21:22:19.547508 13867 net.cpp:148] Top shape: 10 32 28 28 (250880)
I0803 21:22:19.547513 13867 net.cpp:156] Memory required for data: 304066560
I0803 21:22:19.547518 13867 layer_factory.hpp:77] Creating layer inception_3b/5x5
I0803 21:22:19.547533 13867 net.cpp:91] Creating Layer inception_3b/5x5
I0803 21:22:19.547539 13867 net.cpp:425] inception_3b/5x5 <- inception_3b/5x5_reduce
I0803 21:22:19.547552 13867 net.cpp:399] inception_3b/5x5 -> inception_3b/5x5
I0803 21:22:19.548265 13871 net.cpp:141] Setting up inception_3b/3x3
I0803 21:22:19.548290 13871 net.cpp:148] Top shape: 10 192 28 28 (1505280)
I0803 21:22:19.548297 13871 net.cpp:156] Memory required for data: 296038400
I0803 21:22:19.548307 13871 layer_factory.hpp:77] Creating layer inception_3b/relu_3x3
I0803 21:22:19.548322 13871 net.cpp:91] Creating Layer inception_3b/relu_3x3
I0803 21:22:19.548329 13871 net.cpp:425] inception_3b/relu_3x3 <- inception_3b/3x3
I0803 21:22:19.548341 13871 net.cpp:386] inception_3b/relu_3x3 -> inception_3b/3x3 (in-place)
I0803 21:22:19.548812 13871 net.cpp:141] Setting up inception_3b/relu_3x3
I0803 21:22:19.548830 13871 net.cpp:148] Top shape: 10 192 28 28 (1505280)
I0803 21:22:19.548835 13871 net.cpp:156] Memory required for data: 302059520
I0803 21:22:19.548841 13871 layer_factory.hpp:77] Creating layer inception_3b/5x5_reduce
I0803 21:22:19.548858 13871 net.cpp:91] Creating Layer inception_3b/5x5_reduce
I0803 21:22:19.548866 13871 net.cpp:425] inception_3b/5x5_reduce <- inception_3a/output_inception_3a/output_0_split_2
I0803 21:22:19.548879 13871 net.cpp:399] inception_3b/5x5_reduce -> inception_3b/5x5_reduce
I0803 21:22:19.552628 13867 net.cpp:141] Setting up inception_3b/5x5
I0803 21:22:19.552639 13871 net.cpp:141] Setting up inception_3b/5x5_reduce
I0803 21:22:19.552647 13867 net.cpp:148] Top shape: 10 96 28 28 (752640)
I0803 21:22:19.552659 13871 net.cpp:148] Top shape: 10 32 28 28 (250880)
I0803 21:22:19.552661 13867 net.cpp:156] Memory required for data: 307077120
I0803 21:22:19.552670 13871 net.cpp:156] Memory required for data: 303063040
I0803 21:22:19.552685 13867 layer_factory.hpp:77] Creating layer inception_3b/relu_5x5
I0803 21:22:19.552692 13871 layer_factory.hpp:77] Creating layer inception_3b/relu_5x5_reduce
I0803 21:22:19.552700 13867 net.cpp:91] Creating Layer inception_3b/relu_5x5
I0803 21:22:19.552703 13871 net.cpp:91] Creating Layer inception_3b/relu_5x5_reduce
I0803 21:22:19.552706 13867 net.cpp:425] inception_3b/relu_5x5 <- inception_3b/5x5
I0803 21:22:19.552711 13871 net.cpp:425] inception_3b/relu_5x5_reduce <- inception_3b/5x5_reduce
I0803 21:22:19.552714 13867 net.cpp:386] inception_3b/relu_5x5 -> inception_3b/5x5 (in-place)
I0803 21:22:19.552722 13871 net.cpp:386] inception_3b/relu_5x5_reduce -> inception_3b/5x5_reduce (in-place)
I0803 21:22:19.553129 13867 net.cpp:141] Setting up inception_3b/relu_5x5
I0803 21:22:19.553144 13867 net.cpp:148] Top shape: 10 96 28 28 (752640)
I0803 21:22:19.553149 13867 net.cpp:156] Memory required for data: 310087680
I0803 21:22:19.553154 13867 layer_factory.hpp:77] Creating layer inception_3b/pool
I0803 21:22:19.553164 13867 net.cpp:91] Creating Layer inception_3b/pool
I0803 21:22:19.553169 13867 net.cpp:425] inception_3b/pool <- inception_3a/output_inception_3a/output_0_split_3
I0803 21:22:19.553176 13867 net.cpp:399] inception_3b/pool -> inception_3b/pool
I0803 21:22:19.553182 13871 net.cpp:141] Setting up inception_3b/relu_5x5_reduce
I0803 21:22:19.553196 13871 net.cpp:148] Top shape: 10 32 28 28 (250880)
I0803 21:22:19.553201 13871 net.cpp:156] Memory required for data: 304066560
I0803 21:22:19.553207 13871 layer_factory.hpp:77] Creating layer inception_3b/5x5
I0803 21:22:19.553226 13871 net.cpp:91] Creating Layer inception_3b/5x5
I0803 21:22:19.553234 13871 net.cpp:425] inception_3b/5x5 <- inception_3b/5x5_reduce
I0803 21:22:19.553254 13871 net.cpp:399] inception_3b/5x5 -> inception_3b/5x5
I0803 21:22:19.553350 13867 net.cpp:141] Setting up inception_3b/pool
I0803 21:22:19.553364 13867 net.cpp:148] Top shape: 10 256 28 28 (2007040)
I0803 21:22:19.553369 13867 net.cpp:156] Memory required for data: 318115840
I0803 21:22:19.553375 13867 layer_factory.hpp:77] Creating layer inception_3b/pool_proj
I0803 21:22:19.553388 13867 net.cpp:91] Creating Layer inception_3b/pool_proj
I0803 21:22:19.553395 13867 net.cpp:425] inception_3b/pool_proj <- inception_3b/pool
I0803 21:22:19.553406 13867 net.cpp:399] inception_3b/pool_proj -> inception_3b/pool_proj
I0803 21:22:19.557724 13867 net.cpp:141] Setting up inception_3b/pool_proj
I0803 21:22:19.557742 13867 net.cpp:148] Top shape: 10 64 28 28 (501760)
I0803 21:22:19.557749 13867 net.cpp:156] Memory required for data: 320122880
I0803 21:22:19.557759 13867 layer_factory.hpp:77] Creating layer inception_3b/relu_pool_proj
I0803 21:22:19.557768 13867 net.cpp:91] Creating Layer inception_3b/relu_pool_proj
I0803 21:22:19.557775 13867 net.cpp:425] inception_3b/relu_pool_proj <- inception_3b/pool_proj
I0803 21:22:19.557781 13867 net.cpp:386] inception_3b/relu_pool_proj -> inception_3b/pool_proj (in-place)
I0803 21:22:19.558444 13867 net.cpp:141] Setting up inception_3b/relu_pool_proj
I0803 21:22:19.558459 13867 net.cpp:148] Top shape: 10 64 28 28 (501760)
I0803 21:22:19.558464 13867 net.cpp:156] Memory required for data: 322129920
I0803 21:22:19.558468 13867 layer_factory.hpp:77] Creating layer inception_3b/output
I0803 21:22:19.558478 13867 net.cpp:91] Creating Layer inception_3b/output
I0803 21:22:19.558483 13867 net.cpp:425] inception_3b/output <- inception_3b/1x1
I0803 21:22:19.558490 13867 net.cpp:425] inception_3b/output <- inception_3b/3x3
I0803 21:22:19.558495 13867 net.cpp:425] inception_3b/output <- inception_3b/5x5
I0803 21:22:19.558501 13867 net.cpp:425] inception_3b/output <- inception_3b/pool_proj
I0803 21:22:19.558511 13867 net.cpp:399] inception_3b/output -> inception_3b/output
I0803 21:22:19.558663 13867 net.cpp:141] Setting up inception_3b/output
I0803 21:22:19.558675 13867 net.cpp:148] Top shape: 10 480 28 28 (3763200)
I0803 21:22:19.558679 13867 net.cpp:156] Memory required for data: 337182720
I0803 21:22:19.558684 13867 layer_factory.hpp:77] Creating layer pool3/3x3_s2
I0803 21:22:19.558697 13867 net.cpp:91] Creating Layer pool3/3x3_s2
I0803 21:22:19.558702 13867 net.cpp:425] pool3/3x3_s2 <- inception_3b/output
I0803 21:22:19.558709 13867 net.cpp:399] pool3/3x3_s2 -> pool3/3x3_s2
I0803 21:22:19.558975 13867 net.cpp:141] Setting up pool3/3x3_s2
I0803 21:22:19.558987 13867 net.cpp:148] Top shape: 10 480 14 14 (940800)
I0803 21:22:19.558991 13867 net.cpp:156] Memory required for data: 340945920
I0803 21:22:19.558996 13867 layer_factory.hpp:77] Creating layer pool3/3x3_s2_pool3/3x3_s2_0_split
I0803 21:22:19.559001 13871 net.cpp:141] Setting up inception_3b/5x5
I0803 21:22:19.559008 13867 net.cpp:91] Creating Layer pool3/3x3_s2_pool3/3x3_s2_0_split
I0803 21:22:19.559021 13871 net.cpp:148] Top shape: 10 96 28 28 (752640)
I0803 21:22:19.559023 13867 net.cpp:425] pool3/3x3_s2_pool3/3x3_s2_0_split <- pool3/3x3_s2
I0803 21:22:19.559031 13871 net.cpp:156] Memory required for data: 307077120
I0803 21:22:19.559038 13867 net.cpp:399] pool3/3x3_s2_pool3/3x3_s2_0_split -> pool3/3x3_s2_pool3/3x3_s2_0_split_0
I0803 21:22:19.559043 13871 layer_factory.hpp:77] Creating layer inception_3b/relu_5x5
I0803 21:22:19.559051 13867 net.cpp:399] pool3/3x3_s2_pool3/3x3_s2_0_split -> pool3/3x3_s2_pool3/3x3_s2_0_split_1
I0803 21:22:19.559056 13871 net.cpp:91] Creating Layer inception_3b/relu_5x5
I0803 21:22:19.559058 13867 net.cpp:399] pool3/3x3_s2_pool3/3x3_s2_0_split -> pool3/3x3_s2_pool3/3x3_s2_0_split_2
I0803 21:22:19.559064 13871 net.cpp:425] inception_3b/relu_5x5 <- inception_3b/5x5
I0803 21:22:19.559067 13867 net.cpp:399] pool3/3x3_s2_pool3/3x3_s2_0_split -> pool3/3x3_s2_pool3/3x3_s2_0_split_3
I0803 21:22:19.559072 13871 net.cpp:386] inception_3b/relu_5x5 -> inception_3b/5x5 (in-place)
I0803 21:22:19.559559 13867 net.cpp:141] Setting up pool3/3x3_s2_pool3/3x3_s2_0_split
I0803 21:22:19.559576 13867 net.cpp:148] Top shape: 10 480 14 14 (940800)
I0803 21:22:19.559578 13871 net.cpp:141] Setting up inception_3b/relu_5x5
I0803 21:22:19.559584 13867 net.cpp:148] Top shape: 10 480 14 14 (940800)
I0803 21:22:19.559599 13871 net.cpp:148] Top shape: 10 96 28 28 (752640)
I0803 21:22:19.559602 13867 net.cpp:148] Top shape: 10 480 14 14 (940800)
I0803 21:22:19.559607 13871 net.cpp:156] Memory required for data: 310087680
I0803 21:22:19.559609 13867 net.cpp:148] Top shape: 10 480 14 14 (940800)
I0803 21:22:19.559613 13871 layer_factory.hpp:77] Creating layer inception_3b/pool
I0803 21:22:19.559614 13867 net.cpp:156] Memory required for data: 355998720
I0803 21:22:19.559625 13867 layer_factory.hpp:77] Creating layer inception_4a/1x1
I0803 21:22:19.559633 13871 net.cpp:91] Creating Layer inception_3b/pool
I0803 21:22:19.559640 13871 net.cpp:425] inception_3b/pool <- inception_3a/output_inception_3a/output_0_split_3
I0803 21:22:19.559644 13867 net.cpp:91] Creating Layer inception_4a/1x1
I0803 21:22:19.559650 13871 net.cpp:399] inception_3b/pool -> inception_3b/pool
I0803 21:22:19.559653 13867 net.cpp:425] inception_4a/1x1 <- pool3/3x3_s2_pool3/3x3_s2_0_split_0
I0803 21:22:19.559671 13867 net.cpp:399] inception_4a/1x1 -> inception_4a/1x1
I0803 21:22:19.559859 13871 net.cpp:141] Setting up inception_3b/pool
I0803 21:22:19.559871 13871 net.cpp:148] Top shape: 10 256 28 28 (2007040)
I0803 21:22:19.559877 13871 net.cpp:156] Memory required for data: 318115840
I0803 21:22:19.559883 13871 layer_factory.hpp:77] Creating layer inception_3b/pool_proj
I0803 21:22:19.559903 13871 net.cpp:91] Creating Layer inception_3b/pool_proj
I0803 21:22:19.559911 13871 net.cpp:425] inception_3b/pool_proj <- inception_3b/pool
I0803 21:22:19.559921 13871 net.cpp:399] inception_3b/pool_proj -> inception_3b/pool_proj
I0803 21:22:19.563402 13871 net.cpp:141] Setting up inception_3b/pool_proj
I0803 21:22:19.563424 13871 net.cpp:148] Top shape: 10 64 28 28 (501760)
I0803 21:22:19.563431 13871 net.cpp:156] Memory required for data: 320122880
I0803 21:22:19.563441 13871 layer_factory.hpp:77] Creating layer inception_3b/relu_pool_proj
I0803 21:22:19.563453 13871 net.cpp:91] Creating Layer inception_3b/relu_pool_proj
I0803 21:22:19.563460 13871 net.cpp:425] inception_3b/relu_pool_proj <- inception_3b/pool_proj
I0803 21:22:19.563468 13871 net.cpp:386] inception_3b/relu_pool_proj -> inception_3b/pool_proj (in-place)
I0803 21:22:19.564059 13871 net.cpp:141] Setting up inception_3b/relu_pool_proj
I0803 21:22:19.564076 13871 net.cpp:148] Top shape: 10 64 28 28 (501760)
I0803 21:22:19.564081 13871 net.cpp:156] Memory required for data: 322129920
I0803 21:22:19.564087 13871 layer_factory.hpp:77] Creating layer inception_3b/output
I0803 21:22:19.564096 13871 net.cpp:91] Creating Layer inception_3b/output
I0803 21:22:19.564105 13871 net.cpp:425] inception_3b/output <- inception_3b/1x1
I0803 21:22:19.564113 13871 net.cpp:425] inception_3b/output <- inception_3b/3x3
I0803 21:22:19.564119 13871 net.cpp:425] inception_3b/output <- inception_3b/5x5
I0803 21:22:19.564126 13871 net.cpp:425] inception_3b/output <- inception_3b/pool_proj
I0803 21:22:19.564126 13867 net.cpp:141] Setting up inception_4a/1x1
I0803 21:22:19.564133 13871 net.cpp:399] inception_3b/output -> inception_3b/output
I0803 21:22:19.564146 13867 net.cpp:148] Top shape: 10 192 14 14 (376320)
I0803 21:22:19.564153 13867 net.cpp:156] Memory required for data: 357504000
I0803 21:22:19.564163 13867 layer_factory.hpp:77] Creating layer inception_4a/relu_1x1
I0803 21:22:19.564173 13867 net.cpp:91] Creating Layer inception_4a/relu_1x1
I0803 21:22:19.564180 13867 net.cpp:425] inception_4a/relu_1x1 <- inception_4a/1x1
I0803 21:22:19.564193 13867 net.cpp:386] inception_4a/relu_1x1 -> inception_4a/1x1 (in-place)
I0803 21:22:19.564215 13871 net.cpp:141] Setting up inception_3b/output
I0803 21:22:19.564227 13871 net.cpp:148] Top shape: 10 480 28 28 (3763200)
I0803 21:22:19.564234 13871 net.cpp:156] Memory required for data: 337182720
I0803 21:22:19.564239 13871 layer_factory.hpp:77] Creating layer pool3/3x3_s2
I0803 21:22:19.564250 13871 net.cpp:91] Creating Layer pool3/3x3_s2
I0803 21:22:19.564256 13871 net.cpp:425] pool3/3x3_s2 <- inception_3b/output
I0803 21:22:19.564265 13871 net.cpp:399] pool3/3x3_s2 -> pool3/3x3_s2
I0803 21:22:19.564484 13871 net.cpp:141] Setting up pool3/3x3_s2
I0803 21:22:19.564501 13871 net.cpp:148] Top shape: 10 480 14 14 (940800)
I0803 21:22:19.564507 13871 net.cpp:156] Memory required for data: 340945920
I0803 21:22:19.564512 13871 layer_factory.hpp:77] Creating layer pool3/3x3_s2_pool3/3x3_s2_0_split
I0803 21:22:19.564520 13871 net.cpp:91] Creating Layer pool3/3x3_s2_pool3/3x3_s2_0_split
I0803 21:22:19.564527 13871 net.cpp:425] pool3/3x3_s2_pool3/3x3_s2_0_split <- pool3/3x3_s2
I0803 21:22:19.564533 13871 net.cpp:399] pool3/3x3_s2_pool3/3x3_s2_0_split -> pool3/3x3_s2_pool3/3x3_s2_0_split_0
I0803 21:22:19.564543 13871 net.cpp:399] pool3/3x3_s2_pool3/3x3_s2_0_split -> pool3/3x3_s2_pool3/3x3_s2_0_split_1
I0803 21:22:19.564550 13867 net.cpp:141] Setting up inception_4a/relu_1x1
I0803 21:22:19.564554 13871 net.cpp:399] pool3/3x3_s2_pool3/3x3_s2_0_split -> pool3/3x3_s2_pool3/3x3_s2_0_split_2
I0803 21:22:19.564568 13867 net.cpp:148] Top shape: 10 192 14 14 (376320)
I0803 21:22:19.564571 13871 net.cpp:399] pool3/3x3_s2_pool3/3x3_s2_0_split -> pool3/3x3_s2_pool3/3x3_s2_0_split_3
I0803 21:22:19.564573 13867 net.cpp:156] Memory required for data: 359009280
I0803 21:22:19.564579 13867 layer_factory.hpp:77] Creating layer inception_4a/3x3_reduce
I0803 21:22:19.564599 13867 net.cpp:91] Creating Layer inception_4a/3x3_reduce
I0803 21:22:19.564604 13867 net.cpp:425] inception_4a/3x3_reduce <- pool3/3x3_s2_pool3/3x3_s2_0_split_1
I0803 21:22:19.564622 13867 net.cpp:399] inception_4a/3x3_reduce -> inception_4a/3x3_reduce
I0803 21:22:19.564901 13871 net.cpp:141] Setting up pool3/3x3_s2_pool3/3x3_s2_0_split
I0803 21:22:19.564913 13871 net.cpp:148] Top shape: 10 480 14 14 (940800)
I0803 21:22:19.564920 13871 net.cpp:148] Top shape: 10 480 14 14 (940800)
I0803 21:22:19.564927 13871 net.cpp:148] Top shape: 10 480 14 14 (940800)
I0803 21:22:19.564934 13871 net.cpp:148] Top shape: 10 480 14 14 (940800)
I0803 21:22:19.564937 13871 net.cpp:156] Memory required for data: 355998720
I0803 21:22:19.564944 13871 layer_factory.hpp:77] Creating layer inception_4a/1x1
I0803 21:22:19.564960 13871 net.cpp:91] Creating Layer inception_4a/1x1
I0803 21:22:19.564967 13871 net.cpp:425] inception_4a/1x1 <- pool3/3x3_s2_pool3/3x3_s2_0_split_0
I0803 21:22:19.564977 13871 net.cpp:399] inception_4a/1x1 -> inception_4a/1x1
I0803 21:22:19.568384 13867 net.cpp:141] Setting up inception_4a/3x3_reduce
I0803 21:22:19.568403 13867 net.cpp:148] Top shape: 10 96 14 14 (188160)
I0803 21:22:19.568409 13867 net.cpp:156] Memory required for data: 359761920
I0803 21:22:19.568433 13867 layer_factory.hpp:77] Creating layer inception_4a/relu_3x3_reduce
I0803 21:22:19.568442 13867 net.cpp:91] Creating Layer inception_4a/relu_3x3_reduce
I0803 21:22:19.568451 13867 net.cpp:425] inception_4a/relu_3x3_reduce <- inception_4a/3x3_reduce
I0803 21:22:19.568460 13867 net.cpp:386] inception_4a/relu_3x3_reduce -> inception_4a/3x3_reduce (in-place)
I0803 21:22:19.568970 13867 net.cpp:141] Setting up inception_4a/relu_3x3_reduce
I0803 21:22:19.568986 13867 net.cpp:148] Top shape: 10 96 14 14 (188160)
I0803 21:22:19.568992 13867 net.cpp:156] Memory required for data: 360514560
I0803 21:22:19.568999 13867 layer_factory.hpp:77] Creating layer inception_4a/3x3
I0803 21:22:19.569018 13867 net.cpp:91] Creating Layer inception_4a/3x3
I0803 21:22:19.569026 13867 net.cpp:425] inception_4a/3x3 <- inception_4a/3x3_reduce
I0803 21:22:19.569036 13867 net.cpp:399] inception_4a/3x3 -> inception_4a/3x3
I0803 21:22:19.569147 13871 net.cpp:141] Setting up inception_4a/1x1
I0803 21:22:19.569164 13871 net.cpp:148] Top shape: 10 192 14 14 (376320)
I0803 21:22:19.569170 13871 net.cpp:156] Memory required for data: 357504000
I0803 21:22:19.569180 13871 layer_factory.hpp:77] Creating layer inception_4a/relu_1x1
I0803 21:22:19.569193 13871 net.cpp:91] Creating Layer inception_4a/relu_1x1
I0803 21:22:19.569200 13871 net.cpp:425] inception_4a/relu_1x1 <- inception_4a/1x1
I0803 21:22:19.569212 13871 net.cpp:386] inception_4a/relu_1x1 -> inception_4a/1x1 (in-place)
I0803 21:22:19.569751 13871 net.cpp:141] Setting up inception_4a/relu_1x1
I0803 21:22:19.569766 13871 net.cpp:148] Top shape: 10 192 14 14 (376320)
I0803 21:22:19.569771 13871 net.cpp:156] Memory required for data: 359009280
I0803 21:22:19.569777 13871 layer_factory.hpp:77] Creating layer inception_4a/3x3_reduce
I0803 21:22:19.569794 13871 net.cpp:91] Creating Layer inception_4a/3x3_reduce
I0803 21:22:19.569802 13871 net.cpp:425] inception_4a/3x3_reduce <- pool3/3x3_s2_pool3/3x3_s2_0_split_1
I0803 21:22:19.569814 13871 net.cpp:399] inception_4a/3x3_reduce -> inception_4a/3x3_reduce
I0803 21:22:19.574151 13871 net.cpp:141] Setting up inception_4a/3x3_reduce
I0803 21:22:19.574169 13871 net.cpp:148] Top shape: 10 96 14 14 (188160)
I0803 21:22:19.574175 13871 net.cpp:156] Memory required for data: 359761920
I0803 21:22:19.574195 13871 layer_factory.hpp:77] Creating layer inception_4a/relu_3x3_reduce
I0803 21:22:19.574206 13871 net.cpp:91] Creating Layer inception_4a/relu_3x3_reduce
I0803 21:22:19.574213 13871 net.cpp:425] inception_4a/relu_3x3_reduce <- inception_4a/3x3_reduce
I0803 21:22:19.574221 13871 net.cpp:386] inception_4a/relu_3x3_reduce -> inception_4a/3x3_reduce (in-place)
I0803 21:22:19.574623 13871 net.cpp:141] Setting up inception_4a/relu_3x3_reduce
I0803 21:22:19.574637 13871 net.cpp:148] Top shape: 10 96 14 14 (188160)
I0803 21:22:19.574642 13871 net.cpp:156] Memory required for data: 360514560
I0803 21:22:19.574648 13871 layer_factory.hpp:77] Creating layer inception_4a/3x3
I0803 21:22:19.574664 13871 net.cpp:91] Creating Layer inception_4a/3x3
I0803 21:22:19.574671 13871 net.cpp:425] inception_4a/3x3 <- inception_4a/3x3_reduce
I0803 21:22:19.574686 13871 net.cpp:399] inception_4a/3x3 -> inception_4a/3x3
I0803 21:22:19.575189 13867 net.cpp:141] Setting up inception_4a/3x3
I0803 21:22:19.575208 13867 net.cpp:148] Top shape: 10 208 14 14 (407680)
I0803 21:22:19.575215 13867 net.cpp:156] Memory required for data: 362145280
I0803 21:22:19.575225 13867 layer_factory.hpp:77] Creating layer inception_4a/relu_3x3
I0803 21:22:19.575238 13867 net.cpp:91] Creating Layer inception_4a/relu_3x3
I0803 21:22:19.575245 13867 net.cpp:425] inception_4a/relu_3x3 <- inception_4a/3x3
I0803 21:22:19.575253 13867 net.cpp:386] inception_4a/relu_3x3 -> inception_4a/3x3 (in-place)
I0803 21:22:19.576238 13867 net.cpp:141] Setting up inception_4a/relu_3x3
I0803 21:22:19.576256 13867 net.cpp:148] Top shape: 10 208 14 14 (407680)
I0803 21:22:19.576261 13867 net.cpp:156] Memory required for data: 363776000
I0803 21:22:19.576267 13867 layer_factory.hpp:77] Creating layer inception_4a/5x5_reduce
I0803 21:22:19.576284 13867 net.cpp:91] Creating Layer inception_4a/5x5_reduce
I0803 21:22:19.576292 13867 net.cpp:425] inception_4a/5x5_reduce <- pool3/3x3_s2_pool3/3x3_s2_0_split_2
I0803 21:22:19.576305 13867 net.cpp:399] inception_4a/5x5_reduce -> inception_4a/5x5_reduce
I0803 21:22:19.579641 13867 net.cpp:141] Setting up inception_4a/5x5_reduce
I0803 21:22:19.579661 13867 net.cpp:148] Top shape: 10 16 14 14 (31360)
I0803 21:22:19.579668 13867 net.cpp:156] Memory required for data: 363901440
I0803 21:22:19.579677 13867 layer_factory.hpp:77] Creating layer inception_4a/relu_5x5_reduce
I0803 21:22:19.579700 13867 net.cpp:91] Creating Layer inception_4a/relu_5x5_reduce
I0803 21:22:19.579710 13867 net.cpp:425] inception_4a/relu_5x5_reduce <- inception_4a/5x5_reduce
I0803 21:22:19.579720 13867 net.cpp:386] inception_4a/relu_5x5_reduce -> inception_4a/5x5_reduce (in-place)
I0803 21:22:19.580060 13867 net.cpp:141] Setting up inception_4a/relu_5x5_reduce
I0803 21:22:19.580073 13867 net.cpp:148] Top shape: 10 16 14 14 (31360)
I0803 21:22:19.580078 13867 net.cpp:156] Memory required for data: 364026880
I0803 21:22:19.580085 13867 layer_factory.hpp:77] Creating layer inception_4a/5x5
I0803 21:22:19.580101 13867 net.cpp:91] Creating Layer inception_4a/5x5
I0803 21:22:19.580108 13867 net.cpp:425] inception_4a/5x5 <- inception_4a/5x5_reduce
I0803 21:22:19.580121 13867 net.cpp:399] inception_4a/5x5 -> inception_4a/5x5
I0803 21:22:19.580566 13871 net.cpp:141] Setting up inception_4a/3x3
I0803 21:22:19.580585 13871 net.cpp:148] Top shape: 10 208 14 14 (407680)
I0803 21:22:19.580591 13871 net.cpp:156] Memory required for data: 362145280
I0803 21:22:19.580601 13871 layer_factory.hpp:77] Creating layer inception_4a/relu_3x3
I0803 21:22:19.580611 13871 net.cpp:91] Creating Layer inception_4a/relu_3x3
I0803 21:22:19.580618 13871 net.cpp:425] inception_4a/relu_3x3 <- inception_4a/3x3
I0803 21:22:19.580631 13871 net.cpp:386] inception_4a/relu_3x3 -> inception_4a/3x3 (in-place)
I0803 21:22:19.581204 13871 net.cpp:141] Setting up inception_4a/relu_3x3
I0803 21:22:19.581221 13871 net.cpp:148] Top shape: 10 208 14 14 (407680)
I0803 21:22:19.581226 13871 net.cpp:156] Memory required for data: 363776000
I0803 21:22:19.581233 13871 layer_factory.hpp:77] Creating layer inception_4a/5x5_reduce
I0803 21:22:19.581259 13871 net.cpp:91] Creating Layer inception_4a/5x5_reduce
I0803 21:22:19.581267 13871 net.cpp:425] inception_4a/5x5_reduce <- pool3/3x3_s2_pool3/3x3_s2_0_split_2
I0803 21:22:19.581280 13871 net.cpp:399] inception_4a/5x5_reduce -> inception_4a/5x5_reduce
I0803 21:22:19.583967 13867 net.cpp:141] Setting up inception_4a/5x5
I0803 21:22:19.583986 13867 net.cpp:148] Top shape: 10 48 14 14 (94080)
I0803 21:22:19.583992 13867 net.cpp:156] Memory required for data: 364403200
I0803 21:22:19.584000 13867 layer_factory.hpp:77] Creating layer inception_4a/relu_5x5
I0803 21:22:19.584014 13867 net.cpp:91] Creating Layer inception_4a/relu_5x5
I0803 21:22:19.584022 13867 net.cpp:425] inception_4a/relu_5x5 <- inception_4a/5x5
I0803 21:22:19.584030 13867 net.cpp:386] inception_4a/relu_5x5 -> inception_4a/5x5 (in-place)
I0803 21:22:19.584383 13867 net.cpp:141] Setting up inception_4a/relu_5x5
I0803 21:22:19.584398 13867 net.cpp:148] Top shape: 10 48 14 14 (94080)
I0803 21:22:19.584403 13867 net.cpp:156] Memory required for data: 364779520
I0803 21:22:19.584409 13867 layer_factory.hpp:77] Creating layer inception_4a/pool
I0803 21:22:19.584419 13867 net.cpp:91] Creating Layer inception_4a/pool
I0803 21:22:19.584425 13867 net.cpp:425] inception_4a/pool <- pool3/3x3_s2_pool3/3x3_s2_0_split_3
I0803 21:22:19.584434 13867 net.cpp:399] inception_4a/pool -> inception_4a/pool
I0803 21:22:19.584590 13867 net.cpp:141] Setting up inception_4a/pool
I0803 21:22:19.584605 13867 net.cpp:148] Top shape: 10 480 14 14 (940800)
I0803 21:22:19.584610 13867 net.cpp:156] Memory required for data: 368542720
I0803 21:22:19.584616 13867 layer_factory.hpp:77] Creating layer inception_4a/pool_proj
I0803 21:22:19.584633 13867 net.cpp:91] Creating Layer inception_4a/pool_proj
I0803 21:22:19.584640 13867 net.cpp:425] inception_4a/pool_proj <- inception_4a/pool
I0803 21:22:19.584650 13867 net.cpp:399] inception_4a/pool_proj -> inception_4a/pool_proj
I0803 21:22:19.585160 13871 net.cpp:141] Setting up inception_4a/5x5_reduce
I0803 21:22:19.585181 13871 net.cpp:148] Top shape: 10 16 14 14 (31360)
I0803 21:22:19.585187 13871 net.cpp:156] Memory required for data: 363901440
I0803 21:22:19.585198 13871 layer_factory.hpp:77] Creating layer inception_4a/relu_5x5_reduce
I0803 21:22:19.585207 13871 net.cpp:91] Creating Layer inception_4a/relu_5x5_reduce
I0803 21:22:19.585214 13871 net.cpp:425] inception_4a/relu_5x5_reduce <- inception_4a/5x5_reduce
I0803 21:22:19.585222 13871 net.cpp:386] inception_4a/relu_5x5_reduce -> inception_4a/5x5_reduce (in-place)
I0803 21:22:19.585655 13871 net.cpp:141] Setting up inception_4a/relu_5x5_reduce
I0803 21:22:19.585675 13871 net.cpp:148] Top shape: 10 16 14 14 (31360)
I0803 21:22:19.585681 13871 net.cpp:156] Memory required for data: 364026880
I0803 21:22:19.585688 13871 layer_factory.hpp:77] Creating layer inception_4a/5x5
I0803 21:22:19.585705 13871 net.cpp:91] Creating Layer inception_4a/5x5
I0803 21:22:19.585713 13871 net.cpp:425] inception_4a/5x5 <- inception_4a/5x5_reduce
I0803 21:22:19.585724 13871 net.cpp:399] inception_4a/5x5 -> inception_4a/5x5
I0803 21:22:19.588292 13867 net.cpp:141] Setting up inception_4a/pool_proj
I0803 21:22:19.588320 13867 net.cpp:148] Top shape: 10 64 14 14 (125440)
I0803 21:22:19.588326 13867 net.cpp:156] Memory required for data: 369044480
I0803 21:22:19.588337 13867 layer_factory.hpp:77] Creating layer inception_4a/relu_pool_proj
I0803 21:22:19.588347 13867 net.cpp:91] Creating Layer inception_4a/relu_pool_proj
I0803 21:22:19.588354 13867 net.cpp:425] inception_4a/relu_pool_proj <- inception_4a/pool_proj
I0803 21:22:19.588366 13867 net.cpp:386] inception_4a/relu_pool_proj -> inception_4a/pool_proj (in-place)
I0803 21:22:19.588953 13867 net.cpp:141] Setting up inception_4a/relu_pool_proj
I0803 21:22:19.588975 13867 net.cpp:148] Top shape: 10 64 14 14 (125440)
I0803 21:22:19.588981 13867 net.cpp:156] Memory required for data: 369546240
I0803 21:22:19.588989 13867 layer_factory.hpp:77] Creating layer inception_4a/output
I0803 21:22:19.588999 13867 net.cpp:91] Creating Layer inception_4a/output
I0803 21:22:19.589004 13867 net.cpp:425] inception_4a/output <- inception_4a/1x1
I0803 21:22:19.589012 13867 net.cpp:425] inception_4a/output <- inception_4a/3x3
I0803 21:22:19.589018 13867 net.cpp:425] inception_4a/output <- inception_4a/5x5
I0803 21:22:19.589025 13867 net.cpp:425] inception_4a/output <- inception_4a/pool_proj
I0803 21:22:19.589033 13867 net.cpp:399] inception_4a/output -> inception_4a/output
I0803 21:22:19.589149 13867 net.cpp:141] Setting up inception_4a/output
I0803 21:22:19.589162 13867 net.cpp:148] Top shape: 10 512 14 14 (1003520)
I0803 21:22:19.589167 13867 net.cpp:156] Memory required for data: 373560320
I0803 21:22:19.589174 13867 layer_factory.hpp:77] Creating layer inception_4a/output_inception_4a/output_0_split
I0803 21:22:19.589182 13867 net.cpp:91] Creating Layer inception_4a/output_inception_4a/output_0_split
I0803 21:22:19.589189 13867 net.cpp:425] inception_4a/output_inception_4a/output_0_split <- inception_4a/output
I0803 21:22:19.589200 13867 net.cpp:399] inception_4a/output_inception_4a/output_0_split -> inception_4a/output_inception_4a/output_0_split_0
I0803 21:22:19.589210 13867 net.cpp:399] inception_4a/output_inception_4a/output_0_split -> inception_4a/output_inception_4a/output_0_split_1
I0803 21:22:19.589218 13867 net.cpp:399] inception_4a/output_inception_4a/output_0_split -> inception_4a/output_inception_4a/output_0_split_2
I0803 21:22:19.589227 13867 net.cpp:399] inception_4a/output_inception_4a/output_0_split -> inception_4a/output_inception_4a/output_0_split_3
I0803 21:22:19.589437 13871 net.cpp:141] Setting up inception_4a/5x5
I0803 21:22:19.589452 13871 net.cpp:148] Top shape: 10 48 14 14 (94080)
I0803 21:22:19.589457 13871 net.cpp:156] Memory required for data: 364403200
I0803 21:22:19.589468 13871 layer_factory.hpp:77] Creating layer inception_4a/relu_5x5
I0803 21:22:19.589479 13871 net.cpp:91] Creating Layer inception_4a/relu_5x5
I0803 21:22:19.589486 13871 net.cpp:425] inception_4a/relu_5x5 <- inception_4a/5x5
I0803 21:22:19.589494 13871 net.cpp:386] inception_4a/relu_5x5 -> inception_4a/5x5 (in-place)
I0803 21:22:19.589525 13867 net.cpp:141] Setting up inception_4a/output_inception_4a/output_0_split
I0803 21:22:19.589539 13867 net.cpp:148] Top shape: 10 512 14 14 (1003520)
I0803 21:22:19.589545 13867 net.cpp:148] Top shape: 10 512 14 14 (1003520)
I0803 21:22:19.589552 13867 net.cpp:148] Top shape: 10 512 14 14 (1003520)
I0803 21:22:19.589560 13867 net.cpp:148] Top shape: 10 512 14 14 (1003520)
I0803 21:22:19.589563 13867 net.cpp:156] Memory required for data: 389616640
I0803 21:22:19.589570 13867 layer_factory.hpp:77] Creating layer inception_4b/1x1
I0803 21:22:19.589586 13867 net.cpp:91] Creating Layer inception_4b/1x1
I0803 21:22:19.589593 13867 net.cpp:425] inception_4b/1x1 <- inception_4a/output_inception_4a/output_0_split_0
I0803 21:22:19.589606 13867 net.cpp:399] inception_4b/1x1 -> inception_4b/1x1
I0803 21:22:19.589936 13871 net.cpp:141] Setting up inception_4a/relu_5x5
I0803 21:22:19.589948 13871 net.cpp:148] Top shape: 10 48 14 14 (94080)
I0803 21:22:19.589953 13871 net.cpp:156] Memory required for data: 364779520
I0803 21:22:19.589959 13871 layer_factory.hpp:77] Creating layer inception_4a/pool
I0803 21:22:19.589975 13871 net.cpp:91] Creating Layer inception_4a/pool
I0803 21:22:19.589983 13871 net.cpp:425] inception_4a/pool <- pool3/3x3_s2_pool3/3x3_s2_0_split_3
I0803 21:22:19.589992 13871 net.cpp:399] inception_4a/pool -> inception_4a/pool
I0803 21:22:19.590248 13871 net.cpp:141] Setting up inception_4a/pool
I0803 21:22:19.590260 13871 net.cpp:148] Top shape: 10 480 14 14 (940800)
I0803 21:22:19.590265 13871 net.cpp:156] Memory required for data: 368542720
I0803 21:22:19.590271 13871 layer_factory.hpp:77] Creating layer inception_4a/pool_proj
I0803 21:22:19.590291 13871 net.cpp:91] Creating Layer inception_4a/pool_proj
I0803 21:22:19.590297 13871 net.cpp:425] inception_4a/pool_proj <- inception_4a/pool
I0803 21:22:19.590306 13871 net.cpp:399] inception_4a/pool_proj -> inception_4a/pool_proj
I0803 21:22:19.593189 13867 net.cpp:141] Setting up inception_4b/1x1
I0803 21:22:19.593199 13871 net.cpp:141] Setting up inception_4a/pool_proj
I0803 21:22:19.593212 13867 net.cpp:148] Top shape: 10 160 14 14 (313600)
I0803 21:22:19.593216 13871 net.cpp:148] Top shape: 10 64 14 14 (125440)
I0803 21:22:19.593219 13867 net.cpp:156] Memory required for data: 390871040
I0803 21:22:19.593222 13871 net.cpp:156] Memory required for data: 369044480
I0803 21:22:19.593230 13867 layer_factory.hpp:77] Creating layer inception_4b/relu_1x1
I0803 21:22:19.593233 13871 layer_factory.hpp:77] Creating layer inception_4a/relu_pool_proj
I0803 21:22:19.593250 13867 net.cpp:91] Creating Layer inception_4b/relu_1x1
I0803 21:22:19.593255 13871 net.cpp:91] Creating Layer inception_4a/relu_pool_proj
I0803 21:22:19.593258 13867 net.cpp:425] inception_4b/relu_1x1 <- inception_4b/1x1
I0803 21:22:19.593261 13871 net.cpp:425] inception_4a/relu_pool_proj <- inception_4a/pool_proj
I0803 21:22:19.593266 13867 net.cpp:386] inception_4b/relu_1x1 -> inception_4b/1x1 (in-place)
I0803 21:22:19.593271 13871 net.cpp:386] inception_4a/relu_pool_proj -> inception_4a/pool_proj (in-place)
I0803 21:22:19.593618 13867 net.cpp:141] Setting up inception_4b/relu_1x1
I0803 21:22:19.593632 13867 net.cpp:148] Top shape: 10 160 14 14 (313600)
I0803 21:22:19.593637 13867 net.cpp:156] Memory required for data: 392125440
I0803 21:22:19.593643 13867 layer_factory.hpp:77] Creating layer inception_4b/3x3_reduce
I0803 21:22:19.593659 13867 net.cpp:91] Creating Layer inception_4b/3x3_reduce
I0803 21:22:19.593667 13867 net.cpp:425] inception_4b/3x3_reduce <- inception_4a/output_inception_4a/output_0_split_1
I0803 21:22:19.593677 13867 net.cpp:399] inception_4b/3x3_reduce -> inception_4b/3x3_reduce
I0803 21:22:19.593885 13871 net.cpp:141] Setting up inception_4a/relu_pool_proj
I0803 21:22:19.593900 13871 net.cpp:148] Top shape: 10 64 14 14 (125440)
I0803 21:22:19.593906 13871 net.cpp:156] Memory required for data: 369546240
I0803 21:22:19.593912 13871 layer_factory.hpp:77] Creating layer inception_4a/output
I0803 21:22:19.593921 13871 net.cpp:91] Creating Layer inception_4a/output
I0803 21:22:19.593927 13871 net.cpp:425] inception_4a/output <- inception_4a/1x1
I0803 21:22:19.593935 13871 net.cpp:425] inception_4a/output <- inception_4a/3x3
I0803 21:22:19.593941 13871 net.cpp:425] inception_4a/output <- inception_4a/5x5
I0803 21:22:19.593947 13871 net.cpp:425] inception_4a/output <- inception_4a/pool_proj
I0803 21:22:19.593955 13871 net.cpp:399] inception_4a/output -> inception_4a/output
I0803 21:22:19.594108 13871 net.cpp:141] Setting up inception_4a/output
I0803 21:22:19.594120 13871 net.cpp:148] Top shape: 10 512 14 14 (1003520)
I0803 21:22:19.594126 13871 net.cpp:156] Memory required for data: 373560320
I0803 21:22:19.594131 13871 layer_factory.hpp:77] Creating layer inception_4a/output_inception_4a/output_0_split
I0803 21:22:19.594141 13871 net.cpp:91] Creating Layer inception_4a/output_inception_4a/output_0_split
I0803 21:22:19.594146 13871 net.cpp:425] inception_4a/output_inception_4a/output_0_split <- inception_4a/output
I0803 21:22:19.594157 13871 net.cpp:399] inception_4a/output_inception_4a/output_0_split -> inception_4a/output_inception_4a/output_0_split_0
I0803 21:22:19.594167 13871 net.cpp:399] inception_4a/output_inception_4a/output_0_split -> inception_4a/output_inception_4a/output_0_split_1
I0803 21:22:19.594177 13871 net.cpp:399] inception_4a/output_inception_4a/output_0_split -> inception_4a/output_inception_4a/output_0_split_2
I0803 21:22:19.594187 13871 net.cpp:399] inception_4a/output_inception_4a/output_0_split -> inception_4a/output_inception_4a/output_0_split_3
I0803 21:22:19.594403 13871 net.cpp:141] Setting up inception_4a/output_inception_4a/output_0_split
I0803 21:22:19.594415 13871 net.cpp:148] Top shape: 10 512 14 14 (1003520)
I0803 21:22:19.594422 13871 net.cpp:148] Top shape: 10 512 14 14 (1003520)
I0803 21:22:19.594429 13871 net.cpp:148] Top shape: 10 512 14 14 (1003520)
I0803 21:22:19.594434 13871 net.cpp:148] Top shape: 10 512 14 14 (1003520)
I0803 21:22:19.594439 13871 net.cpp:156] Memory required for data: 389616640
I0803 21:22:19.594445 13871 layer_factory.hpp:77] Creating layer inception_4b/1x1
I0803 21:22:19.594461 13871 net.cpp:91] Creating Layer inception_4b/1x1
I0803 21:22:19.594468 13871 net.cpp:425] inception_4b/1x1 <- inception_4a/output_inception_4a/output_0_split_0
I0803 21:22:19.594481 13871 net.cpp:399] inception_4b/1x1 -> inception_4b/1x1
I0803 21:22:19.596710 13867 net.cpp:141] Setting up inception_4b/3x3_reduce
I0803 21:22:19.596732 13867 net.cpp:148] Top shape: 10 112 14 14 (219520)
I0803 21:22:19.596738 13867 net.cpp:156] Memory required for data: 393003520
I0803 21:22:19.596750 13867 layer_factory.hpp:77] Creating layer inception_4b/relu_3x3_reduce
I0803 21:22:19.596760 13867 net.cpp:91] Creating Layer inception_4b/relu_3x3_reduce
I0803 21:22:19.596765 13867 net.cpp:425] inception_4b/relu_3x3_reduce <- inception_4b/3x3_reduce
I0803 21:22:19.596773 13867 net.cpp:386] inception_4b/relu_3x3_reduce -> inception_4b/3x3_reduce (in-place)
I0803 21:22:19.597180 13867 net.cpp:141] Setting up inception_4b/relu_3x3_reduce
I0803 21:22:19.597194 13867 net.cpp:148] Top shape: 10 112 14 14 (219520)
I0803 21:22:19.597199 13867 net.cpp:156] Memory required for data: 393881600
I0803 21:22:19.597205 13867 layer_factory.hpp:77] Creating layer inception_4b/3x3
I0803 21:22:19.597229 13867 net.cpp:91] Creating Layer inception_4b/3x3
I0803 21:22:19.597246 13867 net.cpp:425] inception_4b/3x3 <- inception_4b/3x3_reduce
I0803 21:22:19.597262 13867 net.cpp:399] inception_4b/3x3 -> inception_4b/3x3
I0803 21:22:19.599885 13871 net.cpp:141] Setting up inception_4b/1x1
I0803 21:22:19.599906 13871 net.cpp:148] Top shape: 10 160 14 14 (313600)
I0803 21:22:19.599912 13871 net.cpp:156] Memory required for data: 390871040
I0803 21:22:19.599923 13871 layer_factory.hpp:77] Creating layer inception_4b/relu_1x1
I0803 21:22:19.599938 13871 net.cpp:91] Creating Layer inception_4b/relu_1x1
I0803 21:22:19.599946 13871 net.cpp:425] inception_4b/relu_1x1 <- inception_4b/1x1
I0803 21:22:19.599954 13871 net.cpp:386] inception_4b/relu_1x1 -> inception_4b/1x1 (in-place)
I0803 21:22:19.600237 13871 net.cpp:141] Setting up inception_4b/relu_1x1
I0803 21:22:19.600250 13871 net.cpp:148] Top shape: 10 160 14 14 (313600)
I0803 21:22:19.600255 13871 net.cpp:156] Memory required for data: 392125440
I0803 21:22:19.600260 13871 layer_factory.hpp:77] Creating layer inception_4b/3x3_reduce
I0803 21:22:19.600277 13871 net.cpp:91] Creating Layer inception_4b/3x3_reduce
I0803 21:22:19.600284 13871 net.cpp:425] inception_4b/3x3_reduce <- inception_4a/output_inception_4a/output_0_split_1
I0803 21:22:19.600294 13871 net.cpp:399] inception_4b/3x3_reduce -> inception_4b/3x3_reduce
I0803 21:22:19.603652 13871 net.cpp:141] Setting up inception_4b/3x3_reduce
I0803 21:22:19.603670 13871 net.cpp:148] Top shape: 10 112 14 14 (219520)
I0803 21:22:19.603677 13871 net.cpp:156] Memory required for data: 393003520
I0803 21:22:19.603687 13871 layer_factory.hpp:77] Creating layer inception_4b/relu_3x3_reduce
I0803 21:22:19.603700 13871 net.cpp:91] Creating Layer inception_4b/relu_3x3_reduce
I0803 21:22:19.603708 13871 net.cpp:425] inception_4b/relu_3x3_reduce <- inception_4b/3x3_reduce
I0803 21:22:19.603716 13871 net.cpp:386] inception_4b/relu_3x3_reduce -> inception_4b/3x3_reduce (in-place)
I0803 21:22:19.604154 13871 net.cpp:141] Setting up inception_4b/relu_3x3_reduce
I0803 21:22:19.604168 13871 net.cpp:148] Top shape: 10 112 14 14 (219520)
I0803 21:22:19.604173 13871 net.cpp:156] Memory required for data: 393881600
I0803 21:22:19.604179 13871 layer_factory.hpp:77] Creating layer inception_4b/3x3
I0803 21:22:19.604197 13871 net.cpp:91] Creating Layer inception_4b/3x3
I0803 21:22:19.604203 13871 net.cpp:425] inception_4b/3x3 <- inception_4b/3x3_reduce
I0803 21:22:19.604215 13871 net.cpp:399] inception_4b/3x3 -> inception_4b/3x3
I0803 21:22:19.604290 13867 net.cpp:141] Setting up inception_4b/3x3
I0803 21:22:19.604306 13867 net.cpp:148] Top shape: 10 224 14 14 (439040)
I0803 21:22:19.604312 13867 net.cpp:156] Memory required for data: 395637760
I0803 21:22:19.604322 13867 layer_factory.hpp:77] Creating layer inception_4b/relu_3x3
I0803 21:22:19.604336 13867 net.cpp:91] Creating Layer inception_4b/relu_3x3
I0803 21:22:19.604343 13867 net.cpp:425] inception_4b/relu_3x3 <- inception_4b/3x3
I0803 21:22:19.604351 13867 net.cpp:386] inception_4b/relu_3x3 -> inception_4b/3x3 (in-place)
I0803 21:22:19.604985 13867 net.cpp:141] Setting up inception_4b/relu_3x3
I0803 21:22:19.605001 13867 net.cpp:148] Top shape: 10 224 14 14 (439040)
I0803 21:22:19.605007 13867 net.cpp:156] Memory required for data: 397393920
I0803 21:22:19.605013 13867 layer_factory.hpp:77] Creating layer inception_4b/5x5_reduce
I0803 21:22:19.605044 13867 net.cpp:91] Creating Layer inception_4b/5x5_reduce
I0803 21:22:19.605052 13867 net.cpp:425] inception_4b/5x5_reduce <- inception_4a/output_inception_4a/output_0_split_2
I0803 21:22:19.605067 13867 net.cpp:399] inception_4b/5x5_reduce -> inception_4b/5x5_reduce
I0803 21:22:19.608450 13867 net.cpp:141] Setting up inception_4b/5x5_reduce
I0803 21:22:19.608470 13867 net.cpp:148] Top shape: 10 24 14 14 (47040)
I0803 21:22:19.608476 13867 net.cpp:156] Memory required for data: 397582080
I0803 21:22:19.608487 13867 layer_factory.hpp:77] Creating layer inception_4b/relu_5x5_reduce
I0803 21:22:19.608497 13867 net.cpp:91] Creating Layer inception_4b/relu_5x5_reduce
I0803 21:22:19.608505 13867 net.cpp:425] inception_4b/relu_5x5_reduce <- inception_4b/5x5_reduce
I0803 21:22:19.608516 13867 net.cpp:386] inception_4b/relu_5x5_reduce -> inception_4b/5x5_reduce (in-place)
I0803 21:22:19.608844 13867 net.cpp:141] Setting up inception_4b/relu_5x5_reduce
I0803 21:22:19.608856 13867 net.cpp:148] Top shape: 10 24 14 14 (47040)
I0803 21:22:19.608861 13867 net.cpp:156] Memory required for data: 397770240
I0803 21:22:19.608867 13867 layer_factory.hpp:77] Creating layer inception_4b/5x5
I0803 21:22:19.608885 13867 net.cpp:91] Creating Layer inception_4b/5x5
I0803 21:22:19.608891 13867 net.cpp:425] inception_4b/5x5 <- inception_4b/5x5_reduce
I0803 21:22:19.608904 13867 net.cpp:399] inception_4b/5x5 -> inception_4b/5x5
I0803 21:22:19.611670 13871 net.cpp:141] Setting up inception_4b/3x3
I0803 21:22:19.611692 13871 net.cpp:148] Top shape: 10 224 14 14 (439040)
I0803 21:22:19.611699 13871 net.cpp:156] Memory required for data: 395637760
I0803 21:22:19.611711 13871 layer_factory.hpp:77] Creating layer inception_4b/relu_3x3
I0803 21:22:19.611722 13871 net.cpp:91] Creating Layer inception_4b/relu_3x3
I0803 21:22:19.611731 13871 net.cpp:425] inception_4b/relu_3x3 <- inception_4b/3x3
I0803 21:22:19.611739 13871 net.cpp:386] inception_4b/relu_3x3 -> inception_4b/3x3 (in-place)
I0803 21:22:19.612336 13871 net.cpp:141] Setting up inception_4b/relu_3x3
I0803 21:22:19.612354 13871 net.cpp:148] Top shape: 10 224 14 14 (439040)
I0803 21:22:19.612360 13871 net.cpp:156] Memory required for data: 397393920
I0803 21:22:19.612365 13871 layer_factory.hpp:77] Creating layer inception_4b/5x5_reduce
I0803 21:22:19.612395 13871 net.cpp:91] Creating Layer inception_4b/5x5_reduce
I0803 21:22:19.612402 13871 net.cpp:425] inception_4b/5x5_reduce <- inception_4a/output_inception_4a/output_0_split_2
I0803 21:22:19.612416 13871 net.cpp:399] inception_4b/5x5_reduce -> inception_4b/5x5_reduce
I0803 21:22:19.614917 13867 net.cpp:141] Setting up inception_4b/5x5
I0803 21:22:19.614936 13867 net.cpp:148] Top shape: 10 64 14 14 (125440)
I0803 21:22:19.614943 13867 net.cpp:156] Memory required for data: 398272000
I0803 21:22:19.614953 13867 layer_factory.hpp:77] Creating layer inception_4b/relu_5x5
I0803 21:22:19.614964 13867 net.cpp:91] Creating Layer inception_4b/relu_5x5
I0803 21:22:19.614970 13867 net.cpp:425] inception_4b/relu_5x5 <- inception_4b/5x5
I0803 21:22:19.614979 13867 net.cpp:386] inception_4b/relu_5x5 -> inception_4b/5x5 (in-place)
I0803 21:22:19.615339 13867 net.cpp:141] Setting up inception_4b/relu_5x5
I0803 21:22:19.615352 13867 net.cpp:148] Top shape: 10 64 14 14 (125440)
I0803 21:22:19.615357 13867 net.cpp:156] Memory required for data: 398773760
I0803 21:22:19.615363 13867 layer_factory.hpp:77] Creating layer inception_4b/pool
I0803 21:22:19.615376 13867 net.cpp:91] Creating Layer inception_4b/pool
I0803 21:22:19.615382 13867 net.cpp:425] inception_4b/pool <- inception_4a/output_inception_4a/output_0_split_3
I0803 21:22:19.615391 13867 net.cpp:399] inception_4b/pool -> inception_4b/pool
I0803 21:22:19.615573 13867 net.cpp:141] Setting up inception_4b/pool
I0803 21:22:19.615586 13867 net.cpp:148] Top shape: 10 512 14 14 (1003520)
I0803 21:22:19.615592 13867 net.cpp:156] Memory required for data: 402787840
I0803 21:22:19.615597 13867 layer_factory.hpp:77] Creating layer inception_4b/pool_proj
I0803 21:22:19.615613 13867 net.cpp:91] Creating Layer inception_4b/pool_proj
I0803 21:22:19.615620 13867 net.cpp:425] inception_4b/pool_proj <- inception_4b/pool
I0803 21:22:19.615638 13867 net.cpp:399] inception_4b/pool_proj -> inception_4b/pool_proj
I0803 21:22:19.616364 13871 net.cpp:141] Setting up inception_4b/5x5_reduce
I0803 21:22:19.616382 13871 net.cpp:148] Top shape: 10 24 14 14 (47040)
I0803 21:22:19.616389 13871 net.cpp:156] Memory required for data: 397582080
I0803 21:22:19.616400 13871 layer_factory.hpp:77] Creating layer inception_4b/relu_5x5_reduce
I0803 21:22:19.616413 13871 net.cpp:91] Creating Layer inception_4b/relu_5x5_reduce
I0803 21:22:19.616420 13871 net.cpp:425] inception_4b/relu_5x5_reduce <- inception_4b/5x5_reduce
I0803 21:22:19.616431 13871 net.cpp:386] inception_4b/relu_5x5_reduce -> inception_4b/5x5_reduce (in-place)
I0803 21:22:19.616713 13871 net.cpp:141] Setting up inception_4b/relu_5x5_reduce
I0803 21:22:19.616725 13871 net.cpp:148] Top shape: 10 24 14 14 (47040)
I0803 21:22:19.616730 13871 net.cpp:156] Memory required for data: 397770240
I0803 21:22:19.616736 13871 layer_factory.hpp:77] Creating layer inception_4b/5x5
I0803 21:22:19.616753 13871 net.cpp:91] Creating Layer inception_4b/5x5
I0803 21:22:19.616760 13871 net.cpp:425] inception_4b/5x5 <- inception_4b/5x5_reduce
I0803 21:22:19.616773 13871 net.cpp:399] inception_4b/5x5 -> inception_4b/5x5
I0803 21:22:19.619467 13867 net.cpp:141] Setting up inception_4b/pool_proj
I0803 21:22:19.619487 13867 net.cpp:148] Top shape: 10 64 14 14 (125440)
I0803 21:22:19.619493 13867 net.cpp:156] Memory required for data: 403289600
I0803 21:22:19.619503 13867 layer_factory.hpp:77] Creating layer inception_4b/relu_pool_proj
I0803 21:22:19.619513 13867 net.cpp:91] Creating Layer inception_4b/relu_pool_proj
I0803 21:22:19.619519 13867 net.cpp:425] inception_4b/relu_pool_proj <- inception_4b/pool_proj
I0803 21:22:19.619531 13867 net.cpp:386] inception_4b/relu_pool_proj -> inception_4b/pool_proj (in-place)
I0803 21:22:19.620110 13867 net.cpp:141] Setting up inception_4b/relu_pool_proj
I0803 21:22:19.620124 13867 net.cpp:148] Top shape: 10 64 14 14 (125440)
I0803 21:22:19.620131 13867 net.cpp:156] Memory required for data: 403791360
I0803 21:22:19.620136 13867 layer_factory.hpp:77] Creating layer inception_4b/output
I0803 21:22:19.620146 13867 net.cpp:91] Creating Layer inception_4b/output
I0803 21:22:19.620152 13867 net.cpp:425] inception_4b/output <- inception_4b/1x1
I0803 21:22:19.620159 13867 net.cpp:425] inception_4b/output <- inception_4b/3x3
I0803 21:22:19.620165 13867 net.cpp:425] inception_4b/output <- inception_4b/5x5
I0803 21:22:19.620172 13867 net.cpp:425] inception_4b/output <- inception_4b/pool_proj
I0803 21:22:19.620183 13867 net.cpp:399] inception_4b/output -> inception_4b/output
I0803 21:22:19.620440 13867 net.cpp:141] Setting up inception_4b/output
I0803 21:22:19.620453 13867 net.cpp:148] Top shape: 10 512 14 14 (1003520)
I0803 21:22:19.620458 13867 net.cpp:156] Memory required for data: 407805440
I0803 21:22:19.620465 13867 layer_factory.hpp:77] Creating layer inception_4b/output_inception_4b/output_0_split
I0803 21:22:19.620473 13867 net.cpp:91] Creating Layer inception_4b/output_inception_4b/output_0_split
I0803 21:22:19.620479 13867 net.cpp:425] inception_4b/output_inception_4b/output_0_split <- inception_4b/output
I0803 21:22:19.620492 13867 net.cpp:399] inception_4b/output_inception_4b/output_0_split -> inception_4b/output_inception_4b/output_0_split_0
I0803 21:22:19.620502 13867 net.cpp:399] inception_4b/output_inception_4b/output_0_split -> inception_4b/output_inception_4b/output_0_split_1
I0803 21:22:19.620512 13867 net.cpp:399] inception_4b/output_inception_4b/output_0_split -> inception_4b/output_inception_4b/output_0_split_2
I0803 21:22:19.620523 13867 net.cpp:399] inception_4b/output_inception_4b/output_0_split -> inception_4b/output_inception_4b/output_0_split_3
I0803 21:22:19.620971 13867 net.cpp:141] Setting up inception_4b/output_inception_4b/output_0_split
I0803 21:22:19.620983 13867 net.cpp:148] Top shape: 10 512 14 14 (1003520)
I0803 21:22:19.620993 13867 net.cpp:148] Top shape: 10 512 14 14 (1003520)
I0803 21:22:19.621000 13867 net.cpp:148] Top shape: 10 512 14 14 (1003520)
I0803 21:22:19.621006 13867 net.cpp:148] Top shape: 10 512 14 14 (1003520)
I0803 21:22:19.621011 13867 net.cpp:156] Memory required for data: 423861760
I0803 21:22:19.621016 13867 layer_factory.hpp:77] Creating layer inception_4c/1x1
I0803 21:22:19.621031 13867 net.cpp:91] Creating Layer inception_4c/1x1
I0803 21:22:19.621037 13867 net.cpp:425] inception_4c/1x1 <- inception_4b/output_inception_4b/output_0_split_0
I0803 21:22:19.621049 13867 net.cpp:399] inception_4c/1x1 -> inception_4c/1x1
I0803 21:22:19.622192 13871 net.cpp:141] Setting up inception_4b/5x5
I0803 21:22:19.622215 13871 net.cpp:148] Top shape: 10 64 14 14 (125440)
I0803 21:22:19.622221 13871 net.cpp:156] Memory required for data: 398272000
I0803 21:22:19.622231 13871 layer_factory.hpp:77] Creating layer inception_4b/relu_5x5
I0803 21:22:19.622246 13871 net.cpp:91] Creating Layer inception_4b/relu_5x5
I0803 21:22:19.622253 13871 net.cpp:425] inception_4b/relu_5x5 <- inception_4b/5x5
I0803 21:22:19.622262 13871 net.cpp:386] inception_4b/relu_5x5 -> inception_4b/5x5 (in-place)
I0803 21:22:19.622545 13871 net.cpp:141] Setting up inception_4b/relu_5x5
I0803 21:22:19.622557 13871 net.cpp:148] Top shape: 10 64 14 14 (125440)
I0803 21:22:19.622562 13871 net.cpp:156] Memory required for data: 398773760
I0803 21:22:19.622568 13871 layer_factory.hpp:77] Creating layer inception_4b/pool
I0803 21:22:19.622577 13871 net.cpp:91] Creating Layer inception_4b/pool
I0803 21:22:19.622583 13871 net.cpp:425] inception_4b/pool <- inception_4a/output_inception_4a/output_0_split_3
I0803 21:22:19.622596 13871 net.cpp:399] inception_4b/pool -> inception_4b/pool
I0803 21:22:19.622820 13871 net.cpp:141] Setting up inception_4b/pool
I0803 21:22:19.622833 13871 net.cpp:148] Top shape: 10 512 14 14 (1003520)
I0803 21:22:19.622838 13871 net.cpp:156] Memory required for data: 402787840
I0803 21:22:19.622844 13871 layer_factory.hpp:77] Creating layer inception_4b/pool_proj
I0803 21:22:19.622861 13871 net.cpp:91] Creating Layer inception_4b/pool_proj
I0803 21:22:19.622869 13871 net.cpp:425] inception_4b/pool_proj <- inception_4b/pool
I0803 21:22:19.622880 13871 net.cpp:399] inception_4b/pool_proj -> inception_4b/pool_proj
I0803 21:22:19.625620 13867 net.cpp:141] Setting up inception_4c/1x1
I0803 21:22:19.625643 13867 net.cpp:148] Top shape: 10 128 14 14 (250880)
I0803 21:22:19.625648 13867 net.cpp:156] Memory required for data: 424865280
I0803 21:22:19.625659 13867 layer_factory.hpp:77] Creating layer inception_4c/relu_1x1
I0803 21:22:19.625669 13867 net.cpp:91] Creating Layer inception_4c/relu_1x1
I0803 21:22:19.625675 13867 net.cpp:425] inception_4c/relu_1x1 <- inception_4c/1x1
I0803 21:22:19.625684 13867 net.cpp:386] inception_4c/relu_1x1 -> inception_4c/1x1 (in-place)
I0803 21:22:19.626116 13867 net.cpp:141] Setting up inception_4c/relu_1x1
I0803 21:22:19.626132 13867 net.cpp:148] Top shape: 10 128 14 14 (250880)
I0803 21:22:19.626137 13867 net.cpp:156] Memory required for data: 425868800
I0803 21:22:19.626143 13867 layer_factory.hpp:77] Creating layer inception_4c/3x3_reduce
I0803 21:22:19.626159 13867 net.cpp:91] Creating Layer inception_4c/3x3_reduce
…
I0803 21:22:19.719259 13871 net.cpp:141] Setting up inception_4e/relu_5x5_reduce
I0803 21:22:19.719272 13871 net.cpp:148] Top shape: 10 32 14 14 (62720)
I0803 21:22:19.719277 13871 net.cpp:156] Memory required for data: 506150400
I0803 21:22:19.719283 13871 layer_factory.hpp:77] Creating layer inception_4e/5x5
I0803 21:22:19.719303 13871 net.cpp:91] Creating Layer inception_4e/5x5
I0803 21:22:19.719310 13871 net.cpp:425] inception_4e/5x5 <- inception_4e/5x5_reduce
I0803 21:22:19.719321 13871 net.cpp:399] inception_4e/5x5 -> inception_4e/5x5
I0803 21:22:19.721834 13867 net.cpp:141] Setting up inception_4e/5x5
I0803 21:22:19.721854 13867 net.cpp:148] Top shape: 10 128 14 14 (250880)
I0803 21:22:19.721860 13867 net.cpp:156] Memory required for data: 507153920
I0803 21:22:19.721871 13867 layer_factory.hpp:77] Creating layer inception_4e/relu_5x5
I0803 21:22:19.721881 13867 net.cpp:91] Creating Layer inception_4e/relu_5x5
I0803 21:22:19.721891 13867 net.cpp:425] inception_4e/relu_5x5 <- inception_4e/5x5
I0803 21:22:19.721899 13867 net.cpp:386] inception_4e/relu_5x5 -> inception_4e/5x5 (in-place)
I0803 21:22:19.722194 13867 net.cpp:141] Setting up inception_4e/relu_5x5
I0803 21:22:19.722208 13867 net.cpp:148] Top shape: 10 128 14 14 (250880)
I0803 21:22:19.722213 13867 net.cpp:156] Memory required for data: 508157440
I0803 21:22:19.722218 13867 layer_factory.hpp:77] Creating layer inception_4e/pool
I0803 21:22:19.722232 13867 net.cpp:91] Creating Layer inception_4e/pool
I0803 21:22:19.722239 13867 net.cpp:425] inception_4e/pool <- inception_4d/output_inception_4d/output_0_split_3
I0803 21:22:19.722249 13867 net.cpp:399] inception_4e/pool -> inception_4e/pool
I0803 21:22:19.722388 13867 net.cpp:141] Setting up inception_4e/pool
I0803 21:22:19.722400 13867 net.cpp:148] Top shape: 10 528 14 14 (1034880)
I0803 21:22:19.722405 13867 net.cpp:156] Memory required for data: 512296960
I0803 21:22:19.722411 13867 layer_factory.hpp:77] Creating layer inception_4e/pool_proj
I0803 21:22:19.722429 13867 net.cpp:91] Creating Layer inception_4e/pool_proj
I0803 21:22:19.722435 13867 net.cpp:425] inception_4e/pool_proj <- inception_4e/pool
I0803 21:22:19.722447 13867 net.cpp:399] inception_4e/pool_proj -> inception_4e/pool_proj
I0803 21:22:19.725114 13871 net.cpp:141] Setting up inception_4e/5x5
I0803 21:22:19.725132 13871 net.cpp:148] Top shape: 10 128 14 14 (250880)
I0803 21:22:19.725138 13871 net.cpp:156] Memory required for data: 507153920
I0803 21:22:19.725148 13871 layer_factory.hpp:77] Creating layer inception_4e/relu_5x5
I0803 21:22:19.725158 13871 net.cpp:91] Creating Layer inception_4e/relu_5x5
I0803 21:22:19.725165 13871 net.cpp:425] inception_4e/relu_5x5 <- inception_4e/5x5
I0803 21:22:19.725178 13871 net.cpp:386] inception_4e/relu_5x5 -> inception_4e/5x5 (in-place)
I0803 21:22:19.725550 13871 net.cpp:141] Setting up inception_4e/relu_5x5
I0803 21:22:19.725564 13871 net.cpp:148] Top shape: 10 128 14 14 (250880)
I0803 21:22:19.725569 13871 net.cpp:156] Memory required for data: 508157440
I0803 21:22:19.725575 13871 layer_factory.hpp:77] Creating layer inception_4e/pool
I0803 21:22:19.725587 13871 net.cpp:91] Creating Layer inception_4e/pool
I0803 21:22:19.725594 13871 net.cpp:425] inception_4e/pool <- inception_4d/output_inception_4d/output_0_split_3
I0803 21:22:19.725602 13871 net.cpp:399] inception_4e/pool -> inception_4e/pool
I0803 21:22:19.725810 13871 net.cpp:141] Setting up inception_4e/pool
I0803 21:22:19.725822 13871 net.cpp:148] Top shape: 10 528 14 14 (1034880)
I0803 21:22:19.725826 13871 net.cpp:156] Memory required for data: 512296960
I0803 21:22:19.725832 13871 layer_factory.hpp:77] Creating layer inception_4e/pool_proj
I0803 21:22:19.725848 13871 net.cpp:91] Creating Layer inception_4e/pool_proj
I0803 21:22:19.725855 13871 net.cpp:425] inception_4e/pool_proj <- inception_4e/pool
I0803 21:22:19.725875 13871 net.cpp:399] inception_4e/pool_proj -> inception_4e/pool_proj
I0803 21:22:19.726979 13867 net.cpp:141] Setting up inception_4e/pool_proj
I0803 21:22:19.726999 13867 net.cpp:148] Top shape: 10 128 14 14 (250880)
I0803 21:22:19.727005 13867 net.cpp:156] Memory required for data: 513300480
I0803 21:22:19.727015 13867 layer_factory.hpp:77] Creating layer inception_4e/relu_pool_proj
I0803 21:22:19.727028 13867 net.cpp:91] Creating Layer inception_4e/relu_pool_proj
I0803 21:22:19.727035 13867 net.cpp:425] inception_4e/relu_pool_proj <- inception_4e/pool_proj
I0803 21:22:19.727043 13867 net.cpp:386] inception_4e/relu_pool_proj -> inception_4e/pool_proj (in-place)
I0803 21:22:19.727586 13867 net.cpp:141] Setting up inception_4e/relu_pool_proj
I0803 21:22:19.727599 13867 net.cpp:148] Top shape: 10 128 14 14 (250880)
I0803 21:22:19.727605 13867 net.cpp:156] Memory required for data: 514304000
I0803 21:22:19.727612 13867 layer_factory.hpp:77] Creating layer inception_4e/output
I0803 21:22:19.727622 13867 net.cpp:91] Creating Layer inception_4e/output
I0803 21:22:19.727630 13867 net.cpp:425] inception_4e/output <- inception_4e/1x1
I0803 21:22:19.727638 13867 net.cpp:425] inception_4e/output <- inception_4e/3x3
I0803 21:22:19.727644 13867 net.cpp:425] inception_4e/output <- inception_4e/5x5
I0803 21:22:19.727650 13867 net.cpp:425] inception_4e/output <- inception_4e/pool_proj
I0803 21:22:19.727658 13867 net.cpp:399] inception_4e/output -> inception_4e/output
I0803 21:22:19.728075 13867 net.cpp:141] Setting up inception_4e/output
I0803 21:22:19.728088 13867 net.cpp:148] Top shape: 10 832 14 14 (1630720)
I0803 21:22:19.728093 13867 net.cpp:156] Memory required for data: 520826880
I0803 21:22:19.728099 13867 layer_factory.hpp:77] Creating layer pool4/3x3_s2
I0803 21:22:19.728111 13867 net.cpp:91] Creating Layer pool4/3x3_s2
I0803 21:22:19.728118 13867 net.cpp:425] pool4/3x3_s2 <- inception_4e/output
I0803 21:22:19.728127 13867 net.cpp:399] pool4/3x3_s2 -> pool4/3x3_s2
I0803 21:22:19.728673 13867 net.cpp:141] Setting up pool4/3x3_s2
I0803 21:22:19.728688 13867 net.cpp:148] Top shape: 10 832 7 7 (407680)
I0803 21:22:19.728694 13867 net.cpp:156] Memory required for data: 522457600
I0803 21:22:19.728700 13867 layer_factory.hpp:77] Creating layer pool4/3x3_s2_pool4/3x3_s2_0_split
I0803 21:22:19.728713 13867 net.cpp:91] Creating Layer pool4/3x3_s2_pool4/3x3_s2_0_split
I0803 21:22:19.728718 13867 net.cpp:425] pool4/3x3_s2_pool4/3x3_s2_0_split <- pool4/3x3_s2
I0803 21:22:19.728726 13867 net.cpp:399] pool4/3x3_s2_pool4/3x3_s2_0_split -> pool4/3x3_s2_pool4/3x3_s2_0_split_0
I0803 21:22:19.728735 13867 net.cpp:399] pool4/3x3_s2_pool4/3x3_s2_0_split -> pool4/3x3_s2_pool4/3x3_s2_0_split_1
I0803 21:22:19.728744 13867 net.cpp:399] pool4/3x3_s2_pool4/3x3_s2_0_split -> pool4/3x3_s2_pool4/3x3_s2_0_split_2
I0803 21:22:19.728752 13867 net.cpp:399] pool4/3x3_s2_pool4/3x3_s2_0_split -> pool4/3x3_s2_pool4/3x3_s2_0_split_3
I0803 21:22:19.729226 13867 net.cpp:141] Setting up pool4/3x3_s2_pool4/3x3_s2_0_split
I0803 21:22:19.729249 13867 net.cpp:148] Top shape: 10 832 7 7 (407680)
I0803 21:22:19.729257 13867 net.cpp:148] Top shape: 10 832 7 7 (407680)
I0803 21:22:19.729264 13867 net.cpp:148] Top shape: 10 832 7 7 (407680)
I0803 21:22:19.729269 13867 net.cpp:148] Top shape: 10 832 7 7 (407680)
I0803 21:22:19.729274 13867 net.cpp:156] Memory required for data: 528980480
I0803 21:22:19.729279 13867 layer_factory.hpp:77] Creating layer inception_5a/1x1
I0803 21:22:19.729297 13867 net.cpp:91] Creating Layer inception_5a/1x1
I0803 21:22:19.729305 13867 net.cpp:425] inception_5a/1x1 <- pool4/3x3_s2_pool4/3x3_s2_0_split_0
I0803 21:22:19.729315 13867 net.cpp:399] inception_5a/1x1 -> inception_5a/1x1
I0803 21:22:19.729918 13871 net.cpp:141] Setting up inception_4e/pool_proj
I0803 21:22:19.729936 13871 net.cpp:148] Top shape: 10 128 14 14 (250880)
I0803 21:22:19.729943 13871 net.cpp:156] Memory required for data: 513300480
I0803 21:22:19.729953 13871 layer_factory.hpp:77] Creating layer inception_4e/relu_pool_proj
I0803 21:22:19.729961 13871 net.cpp:91] Creating Layer inception_4e/relu_pool_proj
I0803 21:22:19.729969 13871 net.cpp:425] inception_4e/relu_pool_proj <- inception_4e/pool_proj
I0803 21:22:19.729980 13871 net.cpp:386] inception_4e/relu_pool_proj -> inception_4e/pool_proj (in-place)
I0803 21:22:19.731005 13871 net.cpp:141] Setting up inception_4e/relu_pool_proj
I0803 21:22:19.731022 13871 net.cpp:148] Top shape: 10 128 14 14 (250880)
I0803 21:22:19.731029 13871 net.cpp:156] Memory required for data: 514304000
I0803 21:22:19.731034 13871 layer_factory.hpp:77] Creating layer inception_4e/output
I0803 21:22:19.731043 13871 net.cpp:91] Creating Layer inception_4e/output
I0803 21:22:19.731050 13871 net.cpp:425] inception_4e/output <- inception_4e/1x1
I0803 21:22:19.731056 13871 net.cpp:425] inception_4e/output <- inception_4e/3x3
I0803 21:22:19.731062 13871 net.cpp:425] inception_4e/output <- inception_4e/5x5
I0803 21:22:19.731068 13871 net.cpp:425] inception_4e/output <- inception_4e/pool_proj
I0803 21:22:19.731081 13871 net.cpp:399] inception_4e/output -> inception_4e/output
I0803 21:22:19.731317 13871 net.cpp:141] Setting up inception_4e/output
I0803 21:22:19.731329 13871 net.cpp:148] Top shape: 10 832 14 14 (1630720)
I0803 21:22:19.731334 13871 net.cpp:156] Memory required for data: 520826880
I0803 21:22:19.731340 13871 layer_factory.hpp:77] Creating layer pool4/3x3_s2
I0803 21:22:19.731354 13871 net.cpp:91] Creating Layer pool4/3x3_s2
I0803 21:22:19.731361 13871 net.cpp:425] pool4/3x3_s2 <- inception_4e/output
I0803 21:22:19.731369 13871 net.cpp:399] pool4/3x3_s2 -> pool4/3x3_s2
I0803 21:22:19.731710 13871 net.cpp:141] Setting up pool4/3x3_s2
I0803 21:22:19.731724 13871 net.cpp:148] Top shape: 10 832 7 7 (407680)
I0803 21:22:19.731729 13871 net.cpp:156] Memory required for data: 522457600
I0803 21:22:19.731734 13871 layer_factory.hpp:77] Creating layer pool4/3x3_s2_pool4/3x3_s2_0_split
I0803 21:22:19.731742 13871 net.cpp:91] Creating Layer pool4/3x3_s2_pool4/3x3_s2_0_split
I0803 21:22:19.731748 13871 net.cpp:425] pool4/3x3_s2_pool4/3x3_s2_0_split <- pool4/3x3_s2
I0803 21:22:19.731760 13871 net.cpp:399] pool4/3x3_s2_pool4/3x3_s2_0_split -> pool4/3x3_s2_pool4/3x3_s2_0_split_0
I0803 21:22:19.731770 13871 net.cpp:399] pool4/3x3_s2_pool4/3x3_s2_0_split -> pool4/3x3_s2_pool4/3x3_s2_0_split_1
I0803 21:22:19.731778 13871 net.cpp:399] pool4/3x3_s2_pool4/3x3_s2_0_split -> pool4/3x3_s2_pool4/3x3_s2_0_split_2
I0803 21:22:19.731786 13871 net.cpp:399] pool4/3x3_s2_pool4/3x3_s2_0_split -> pool4/3x3_s2_pool4/3x3_s2_0_split_3
I0803 21:22:19.732002 13871 net.cpp:141] Setting up pool4/3x3_s2_pool4/3x3_s2_0_split
I0803 21:22:19.732013 13871 net.cpp:148] Top shape: 10 832 7 7 (407680)
I0803 21:22:19.732020 13871 net.cpp:148] Top shape: 10 832 7 7 (407680)
I0803 21:22:19.732026 13871 net.cpp:148] Top shape: 10 832 7 7 (407680)
I0803 21:22:19.732033 13871 net.cpp:148] Top shape: 10 832 7 7 (407680)
I0803 21:22:19.732038 13871 net.cpp:156] Memory required for data: 528980480
I0803 21:22:19.732043 13871 layer_factory.hpp:77] Creating layer inception_5a/1x1
I0803 21:22:19.732054 13871 net.cpp:91] Creating Layer inception_5a/1x1
I0803 21:22:19.732061 13871 net.cpp:425] inception_5a/1x1 <- pool4/3x3_s2_pool4/3x3_s2_0_split_0
I0803 21:22:19.732076 13871 net.cpp:399] inception_5a/1x1 -> inception_5a/1x1
I0803 21:22:19.735492 13867 net.cpp:141] Setting up inception_5a/1x1
I0803 21:22:19.735512 13867 net.cpp:148] Top shape: 10 256 7 7 (125440)
I0803 21:22:19.735518 13867 net.cpp:156] Memory required for data: 529482240
I0803 21:22:19.735528 13867 layer_factory.hpp:77] Creating layer inception_5a/relu_1x1
I0803 21:22:19.735538 13867 net.cpp:91] Creating Layer inception_5a/relu_1x1
I0803 21:22:19.735545 13867 net.cpp:425] inception_5a/relu_1x1 <- inception_5a/1x1
I0803 21:22:19.735556 13867 net.cpp:386] inception_5a/relu_1x1 -> inception_5a/1x1 (in-place)
I0803 21:22:19.735961 13867 net.cpp:141] Setting up inception_5a/relu_1x1
I0803 21:22:19.735977 13867 net.cpp:148] Top shape: 10 256 7 7 (125440)
I0803 21:22:19.735983 13867 net.cpp:156] Memory required for data: 529984000
I0803 21:22:19.735990 13867 layer_factory.hpp:77] Creating layer inception_5a/3x3_reduce
I0803 21:22:19.736006 13867 net.cpp:91] Creating Layer inception_5a/3x3_reduce
I0803 21:22:19.736013 13867 net.cpp:425] inception_5a/3x3_reduce <- pool4/3x3_s2_pool4/3x3_s2_0_split_1
I0803 21:22:19.736027 13867 net.cpp:399] inception_5a/3x3_reduce -> inception_5a/3x3_reduce
I0803 21:22:19.738762 13871 net.cpp:141] Setting up inception_5a/1x1
I0803 21:22:19.738782 13871 net.cpp:148] Top shape: 10 256 7 7 (125440)
I0803 21:22:19.738788 13871 net.cpp:156] Memory required for data: 529482240
I0803 21:22:19.738798 13871 layer_factory.hpp:77] Creating layer inception_5a/relu_1x1
I0803 21:22:19.738808 13871 net.cpp:91] Creating Layer inception_5a/relu_1x1
I0803 21:22:19.738816 13871 net.cpp:425] inception_5a/relu_1x1 <- inception_5a/1x1
I0803 21:22:19.738824 13871 net.cpp:386] inception_5a/relu_1x1 -> inception_5a/1x1 (in-place)
I0803 21:22:19.739117 13871 net.cpp:141] Setting up inception_5a/relu_1x1
I0803 21:22:19.739130 13871 net.cpp:148] Top shape: 10 256 7 7 (125440)
I0803 21:22:19.739135 13871 net.cpp:156] Memory required for data: 529984000
I0803 21:22:19.739141 13871 layer_factory.hpp:77] Creating layer inception_5a/3x3_reduce
I0803 21:22:19.739157 13871 net.cpp:91] Creating Layer inception_5a/3x3_reduce
I0803 21:22:19.739164 13871 net.cpp:425] inception_5a/3x3_reduce <- pool4/3x3_s2_pool4/3x3_s2_0_split_1
I0803 21:22:19.739177 13871 net.cpp:399] inception_5a/3x3_reduce -> inception_5a/3x3_reduce
I0803 21:22:19.743230 13867 net.cpp:141] Setting up inception_5a/3x3_reduce
I0803 21:22:19.743250 13867 net.cpp:148] Top shape: 10 160 7 7 (78400)
I0803 21:22:19.743257 13867 net.cpp:156] Memory required for data: 530297600
I0803 21:22:19.743268 13867 layer_factory.hpp:77] Creating layer inception_5a/relu_3x3_reduce
I0803 21:22:19.743278 13867 net.cpp:91] Creating Layer inception_5a/relu_3x3_reduce
I0803 21:22:19.743286 13867 net.cpp:425] inception_5a/relu_3x3_reduce <- inception_5a/3x3_reduce
I0803 21:22:19.743297 13867 net.cpp:386] inception_5a/relu_3x3_reduce -> inception_5a/3x3_reduce (in-place)
I0803 21:22:19.743638 13867 net.cpp:141] Setting up inception_5a/relu_3x3_reduce
I0803 21:22:19.743650 13867 net.cpp:148] Top shape: 10 160 7 7 (78400)
I0803 21:22:19.743656 13867 net.cpp:156] Memory required for data: 530611200
I0803 21:22:19.743661 13867 layer_factory.hpp:77] Creating layer inception_5a/3x3
I0803 21:22:19.743680 13867 net.cpp:91] Creating Layer inception_5a/3x3
I0803 21:22:19.743686 13867 net.cpp:425] inception_5a/3x3 <- inception_5a/3x3_reduce
I0803 21:22:19.743700 13867 net.cpp:399] inception_5a/3x3 -> inception_5a/3x3
I0803 21:22:19.744637 13871 net.cpp:141] Setting up inception_5a/3x3_reduce
I0803 21:22:19.744655 13871 net.cpp:148] Top shape: 10 160 7 7 (78400)
I0803 21:22:19.744662 13871 net.cpp:156] Memory required for data: 530297600
I0803 21:22:19.744671 13871 layer_factory.hpp:77] Creating layer inception_5a/relu_3x3_reduce
I0803 21:22:19.744680 13871 net.cpp:91] Creating Layer inception_5a/relu_3x3_reduce
I0803 21:22:19.744688 13871 net.cpp:425] inception_5a/relu_3x3_reduce <- inception_5a/3x3_reduce
I0803 21:22:19.744696 13871 net.cpp:386] inception_5a/relu_3x3_reduce -> inception_5a/3x3_reduce (in-place)
I0803 21:22:19.745643 13871 net.cpp:141] Setting up inception_5a/relu_3x3_reduce
I0803 21:22:19.745659 13871 net.cpp:148] Top shape: 10 160 7 7 (78400)
I0803 21:22:19.745664 13871 net.cpp:156] Memory required for data: 530611200
I0803 21:22:19.745671 13871 layer_factory.hpp:77] Creating layer inception_5a/3x3
I0803 21:22:19.745687 13871 net.cpp:91] Creating Layer inception_5a/3x3
I0803 21:22:19.745693 13871 net.cpp:425] inception_5a/3x3 <- inception_5a/3x3_reduce
I0803 21:22:19.745707 13871 net.cpp:399] inception_5a/3x3 -> inception_5a/3x3
I0803 21:22:19.753763 13867 net.cpp:141] Setting up inception_5a/3x3
I0803 21:22:19.753783 13867 net.cpp:148] Top shape: 10 320 7 7 (156800)
I0803 21:22:19.753789 13867 net.cpp:156] Memory required for data: 531238400
I0803 21:22:19.753800 13867 layer_factory.hpp:77] Creating layer inception_5a/relu_3x3
I0803 21:22:19.753821 13867 net.cpp:91] Creating Layer inception_5a/relu_3x3
I0803 21:22:19.753829 13867 net.cpp:425] inception_5a/relu_3x3 <- inception_5a/3x3
I0803 21:22:19.753837 13867 net.cpp:386] inception_5a/relu_3x3 -> inception_5a/3x3 (in-place)
I0803 21:22:19.754549 13867 net.cpp:141] Setting up inception_5a/relu_3x3
I0803 21:22:19.754565 13867 net.cpp:148] Top shape: 10 320 7 7 (156800)
I0803 21:22:19.754571 13867 net.cpp:156] Memory required for data: 531865600
I0803 21:22:19.754576 13867 layer_factory.hpp:77] Creating layer inception_5a/5x5_reduce
I0803 21:22:19.754601 13867 net.cpp:91] Creating Layer inception_5a/5x5_reduce
I0803 21:22:19.754609 13867 net.cpp:425] inception_5a/5x5_reduce <- pool4/3x3_s2_pool4/3x3_s2_0_split_2
I0803 21:22:19.754619 13867 net.cpp:399] inception_5a/5x5_reduce -> inception_5a/5x5_reduce
I0803 21:22:19.755115 13871 net.cpp:141] Setting up inception_5a/3x3
I0803 21:22:19.755136 13871 net.cpp:148] Top shape: 10 320 7 7 (156800)
I0803 21:22:19.755142 13871 net.cpp:156] Memory required for data: 531238400
I0803 21:22:19.755152 13871 layer_factory.hpp:77] Creating layer inception_5a/relu_3x3
I0803 21:22:19.755162 13871 net.cpp:91] Creating Layer inception_5a/relu_3x3
I0803 21:22:19.755169 13871 net.cpp:425] inception_5a/relu_3x3 <- inception_5a/3x3
I0803 21:22:19.755177 13871 net.cpp:386] inception_5a/relu_3x3 -> inception_5a/3x3 (in-place)
I0803 21:22:19.755867 13871 net.cpp:141] Setting up inception_5a/relu_3x3
I0803 21:22:19.755887 13871 net.cpp:148] Top shape: 10 320 7 7 (156800)
I0803 21:22:19.755892 13871 net.cpp:156] Memory required for data: 531865600
I0803 21:22:19.755898 13871 layer_factory.hpp:77] Creating layer inception_5a/5x5_reduce
I0803 21:22:19.755915 13871 net.cpp:91] Creating Layer inception_5a/5x5_reduce
I0803 21:22:19.755923 13871 net.cpp:425] inception_5a/5x5_reduce <- pool4/3x3_s2_pool4/3x3_s2_0_split_2
I0803 21:22:19.755934 13871 net.cpp:399] inception_5a/5x5_reduce -> inception_5a/5x5_reduce
I0803 21:22:19.759203 13867 net.cpp:141] Setting up inception_5a/5x5_reduce
I0803 21:22:19.759235 13867 net.cpp:148] Top shape: 10 32 7 7 (15680)
I0803 21:22:19.759243 13867 net.cpp:156] Memory required for data: 531928320
I0803 21:22:19.759253 13867 layer_factory.hpp:77] Creating layer inception_5a/relu_5x5_reduce
I0803 21:22:19.759263 13867 net.cpp:91] Creating Layer inception_5a/relu_5x5_reduce
I0803 21:22:19.759269 13867 net.cpp:425] inception_5a/relu_5x5_reduce <- inception_5a/5x5_reduce
I0803 21:22:19.759277 13867 net.cpp:386] inception_5a/relu_5x5_reduce -> inception_5a/5x5_reduce (in-place)
I0803 21:22:19.759738 13867 net.cpp:141] Setting up inception_5a/relu_5x5_reduce
I0803 21:22:19.759752 13867 net.cpp:148] Top shape: 10 32 7 7 (15680)
I0803 21:22:19.759757 13867 net.cpp:156] Memory required for data: 531991040
I0803 21:22:19.759763 13867 layer_factory.hpp:77] Creating layer inception_5a/5x5
I0803 21:22:19.759780 13867 net.cpp:91] Creating Layer inception_5a/5x5
I0803 21:22:19.759788 13867 net.cpp:425] inception_5a/5x5 <- inception_5a/5x5_reduce
I0803 21:22:19.759801 13867 net.cpp:399] inception_5a/5x5 -> inception_5a/5x5
I0803 21:22:19.761365 13871 net.cpp:141] Setting up inception_5a/5x5_reduce
I0803 21:22:19.761399 13871 net.cpp:148] Top shape: 10 32 7 7 (15680)
I0803 21:22:19.761409 13871 net.cpp:156] Memory required for data: 531928320
I0803 21:22:19.761427 13871 layer_factory.hpp:77] Creating layer inception_5a/relu_5x5_reduce
I0803 21:22:19.761450 13871 net.cpp:91] Creating Layer inception_5a/relu_5x5_reduce
I0803 21:22:19.761462 13871 net.cpp:425] inception_5a/relu_5x5_reduce <- inception_5a/5x5_reduce
I0803 21:22:19.761476 13871 net.cpp:386] inception_5a/relu_5x5_reduce -> inception_5a/5x5_reduce (in-place)
I0803 21:22:19.761935 13871 net.cpp:141] Setting up inception_5a/relu_5x5_reduce
I0803 21:22:19.761955 13871 net.cpp:148] Top shape: 10 32 7 7 (15680)
I0803 21:22:19.761965 13871 net.cpp:156] Memory required for data: 531991040
I0803 21:22:19.761976 13871 layer_factory.hpp:77] Creating layer inception_5a/5x5
I0803 21:22:19.762008 13871 net.cpp:91] Creating Layer inception_5a/5x5
I0803 21:22:19.762022 13871 net.cpp:425] inception_5a/5x5 <- inception_5a/5x5_reduce
I0803 21:22:19.762044 13871 net.cpp:399] inception_5a/5x5 -> inception_5a/5x5
I0803 21:22:19.764381 13867 net.cpp:141] Setting up inception_5a/5x5
I0803 21:22:19.764401 13867 net.cpp:148] Top shape: 10 128 7 7 (62720)
I0803 21:22:19.764407 13867 net.cpp:156] Memory required for data: 532241920
I0803 21:22:19.764417 13867 layer_factory.hpp:77] Creating layer inception_5a/relu_5x5
I0803 21:22:19.764459 13867 net.cpp:91] Creating Layer inception_5a/relu_5x5
I0803 21:22:19.764473 13867 net.cpp:425] inception_5a/relu_5x5 <- inception_5a/5x5
I0803 21:22:19.764487 13867 net.cpp:386] inception_5a/relu_5x5 -> inception_5a/5x5 (in-place)
I0803 21:22:19.764791 13867 net.cpp:141] Setting up inception_5a/relu_5x5
I0803 21:22:19.764803 13867 net.cpp:148] Top shape: 10 128 7 7 (62720)
I0803 21:22:19.764808 13867 net.cpp:156] Memory required for data: 532492800
I0803 21:22:19.764823 13867 layer_factory.hpp:77] Creating layer inception_5a/pool
I0803 21:22:19.764834 13867 net.cpp:91] Creating Layer inception_5a/pool
I0803 21:22:19.764840 13867 net.cpp:425] inception_5a/pool <- pool4/3x3_s2_pool4/3x3_s2_0_split_3
I0803 21:22:19.764853 13867 net.cpp:399] inception_5a/pool -> inception_5a/pool
I0803 21:22:19.765007 13867 net.cpp:141] Setting up inception_5a/pool
I0803 21:22:19.765018 13867 net.cpp:148] Top shape: 10 832 7 7 (407680)
I0803 21:22:19.765023 13867 net.cpp:156] Memory required for data: 534123520
I0803 21:22:19.765029 13867 layer_factory.hpp:77] Creating layer inception_5a/pool_proj
I0803 21:22:19.765046 13867 net.cpp:91] Creating Layer inception_5a/pool_proj
I0803 21:22:19.765054 13867 net.cpp:425] inception_5a/pool_proj <- inception_5a/pool
I0803 21:22:19.765067 13867 net.cpp:399] inception_5a/pool_proj -> inception_5a/pool_proj
I0803 21:22:19.770612 13871 net.cpp:141] Setting up inception_5a/5x5
I0803 21:22:19.770642 13871 net.cpp:148] Top shape: 10 128 7 7 (62720)
I0803 21:22:19.770651 13871 net.cpp:156] Memory required for data: 532241920
I0803 21:22:19.770670 13871 layer_factory.hpp:77] Creating layer inception_5a/relu_5x5
I0803 21:22:19.770726 13871 net.cpp:91] Creating Layer inception_5a/relu_5x5
I0803 21:22:19.770741 13871 net.cpp:425] inception_5a/relu_5x5 <- inception_5a/5x5
I0803 21:22:19.770756 13871 net.cpp:386] inception_5a/relu_5x5 -> inception_5a/5x5 (in-place)
I0803 21:22:19.771386 13871 net.cpp:141] Setting up inception_5a/relu_5x5
I0803 21:22:19.771410 13871 net.cpp:148] Top shape: 10 128 7 7 (62720)
I0803 21:22:19.771420 13871 net.cpp:156] Memory required for data: 532492800
I0803 21:22:19.771432 13871 layer_factory.hpp:77] Creating layer inception_5a/pool
I0803 21:22:19.771450 13871 net.cpp:91] Creating Layer inception_5a/pool
I0803 21:22:19.771461 13871 net.cpp:425] inception_5a/pool <- pool4/3x3_s2_pool4/3x3_s2_0_split_3
I0803 21:22:19.771479 13871 net.cpp:399] inception_5a/pool -> inception_5a/pool
I0803 21:22:19.771591 13867 net.cpp:141] Setting up inception_5a/pool_proj
I0803 21:22:19.771608 13867 net.cpp:148] Top shape: 10 128 7 7 (62720)
I0803 21:22:19.771615 13867 net.cpp:156] Memory required for data: 534374400
I0803 21:22:19.771625 13867 layer_factory.hpp:77] Creating layer inception_5a/relu_pool_proj
I0803 21:22:19.771638 13867 net.cpp:91] Creating Layer inception_5a/relu_pool_proj
I0803 21:22:19.771646 13867 net.cpp:425] inception_5a/relu_pool_proj <- inception_5a/pool_proj
I0803 21:22:19.771654 13867 net.cpp:386] inception_5a/relu_pool_proj -> inception_5a/pool_proj (in-place)
I0803 21:22:19.772135 13871 net.cpp:141] Setting up inception_5a/pool
I0803 21:22:19.772157 13871 net.cpp:148] Top shape: 10 832 7 7 (407680)
I0803 21:22:19.772166 13871 net.cpp:156] Memory required for data: 534123520
I0803 21:22:19.772176 13871 layer_factory.hpp:77] Creating layer inception_5a/pool_proj
I0803 21:22:19.772217 13871 net.cpp:91] Creating Layer inception_5a/pool_proj
I0803 21:22:19.772229 13871 net.cpp:425] inception_5a/pool_proj <- inception_5a/pool
I0803 21:22:19.772245 13871 net.cpp:399] inception_5a/pool_proj -> inception_5a/pool_proj
I0803 21:22:19.772399 13867 net.cpp:141] Setting up inception_5a/relu_pool_proj
I0803 21:22:19.772414 13867 net.cpp:148] Top shape: 10 128 7 7 (62720)
I0803 21:22:19.772419 13867 net.cpp:156] Memory required for data: 534625280
I0803 21:22:19.772428 13867 layer_factory.hpp:77] Creating layer inception_5a/output
I0803 21:22:19.772440 13867 net.cpp:91] Creating Layer inception_5a/output
I0803 21:22:19.772449 13867 net.cpp:425] inception_5a/output <- inception_5a/1x1
I0803 21:22:19.772455 13867 net.cpp:425] inception_5a/output <- inception_5a/3x3
I0803 21:22:19.772462 13867 net.cpp:425] inception_5a/output <- inception_5a/5x5
I0803 21:22:19.772469 13867 net.cpp:425] inception_5a/output <- inception_5a/pool_proj
I0803 21:22:19.772475 13867 net.cpp:399] inception_5a/output -> inception_5a/output
I0803 21:22:19.772624 13867 net.cpp:141] Setting up inception_5a/output
I0803 21:22:19.772636 13867 net.cpp:148] Top shape: 10 832 7 7 (407680)
I0803 21:22:19.772642 13867 net.cpp:156] Memory required for data: 536256000
I0803 21:22:19.772647 13867 layer_factory.hpp:77] Creating layer inception_5a/output_inception_5a/output_0_split
I0803 21:22:19.772662 13867 net.cpp:91] Creating Layer inception_5a/output_inception_5a/output_0_split
I0803 21:22:19.772670 13867 net.cpp:425] inception_5a/output_inception_5a/output_0_split <- inception_5a/output
I0803 21:22:19.772677 13867 net.cpp:399] inception_5a/output_inception_5a/output_0_split -> inception_5a/output_inception_5a/output_0_split_0
I0803 21:22:19.772689 13867 net.cpp:399] inception_5a/output_inception_5a/output_0_split -> inception_5a/output_inception_5a/output_0_split_1
I0803 21:22:19.772699 13867 net.cpp:399] inception_5a/output_inception_5a/output_0_split -> inception_5a/output_inception_5a/output_0_split_2
I0803 21:22:19.772708 13867 net.cpp:399] inception_5a/output_inception_5a/output_0_split -> inception_5a/output_inception_5a/output_0_split_3
I0803 21:22:19.773145 13867 net.cpp:141] Setting up inception_5a/output_inception_5a/output_0_split
I0803 21:22:19.773159 13867 net.cpp:148] Top shape: 10 832 7 7 (407680)
I0803 21:22:19.773165 13867 net.cpp:148] Top shape: 10 832 7 7 (407680)
I0803 21:22:19.773171 13867 net.cpp:148] Top shape: 10 832 7 7 (407680)
I0803 21:22:19.773177 13867 net.cpp:148] Top shape: 10 832 7 7 (407680)
I0803 21:22:19.773182 13867 net.cpp:156] Memory required for data: 542778880
I0803 21:22:19.773187 13867 layer_factory.hpp:77] Creating layer inception_5b/1x1
I0803 21:22:19.773205 13867 net.cpp:91] Creating Layer inception_5b/1x1
I0803 21:22:19.773212 13867 net.cpp:425] inception_5b/1x1 <- inception_5a/output_inception_5a/output_0_split_0
I0803 21:22:19.773224 13867 net.cpp:399] inception_5b/1x1 -> inception_5b/1x1
I0803 21:22:19.778584 13871 net.cpp:141] Setting up inception_5a/pool_proj
I0803 21:22:19.778609 13871 net.cpp:148] Top shape: 10 128 7 7 (62720)
I0803 21:22:19.778615 13871 net.cpp:156] Memory required for data: 534374400
I0803 21:22:19.778626 13871 layer_factory.hpp:77] Creating layer inception_5a/relu_pool_proj
I0803 21:22:19.778640 13871 net.cpp:91] Creating Layer inception_5a/relu_pool_proj
I0803 21:22:19.778647 13871 net.cpp:425] inception_5a/relu_pool_proj <- inception_5a/pool_proj
I0803 21:22:19.778656 13871 net.cpp:386] inception_5a/relu_pool_proj -> inception_5a/pool_proj (in-place)
I0803 21:22:19.779172 13871 net.cpp:141] Setting up inception_5a/relu_pool_proj
I0803 21:22:19.779191 13871 net.cpp:148] Top shape: 10 128 7 7 (62720)
I0803 21:22:19.779201 13871 net.cpp:156] Memory required for data: 534625280
I0803 21:22:19.779209 13871 layer_factory.hpp:77] Creating layer inception_5a/output
I0803 21:22:19.779222 13871 net.cpp:91] Creating Layer inception_5a/output
I0803 21:22:19.779229 13871 net.cpp:425] inception_5a/output <- inception_5a/1x1
I0803 21:22:19.779237 13871 net.cpp:425] inception_5a/output <- inception_5a/3x3
I0803 21:22:19.779243 13871 net.cpp:425] inception_5a/output <- inception_5a/5x5
I0803 21:22:19.779250 13871 net.cpp:425] inception_5a/output <- inception_5a/pool_proj
I0803 21:22:19.779258 13871 net.cpp:399] inception_5a/output -> inception_5a/output
I0803 21:22:19.779557 13871 net.cpp:141] Setting up inception_5a/output
I0803 21:22:19.779574 13871 net.cpp:148] Top shape: 10 832 7 7 (407680)
I0803 21:22:19.779579 13871 net.cpp:156] Memory required for data: 536256000
I0803 21:22:19.779585 13871 layer_factory.hpp:77] Creating layer inception_5a/output_inception_5a/output_0_split
I0803 21:22:19.779594 13871 net.cpp:91] Creating Layer inception_5a/output_inception_5a/output_0_split
I0803 21:22:19.779600 13871 net.cpp:425] inception_5a/output_inception_5a/output_0_split <- inception_5a/output
I0803 21:22:19.779608 13871 net.cpp:399] inception_5a/output_inception_5a/output_0_split -> inception_5a/output_inception_5a/output_0_split_0
I0803 21:22:19.779618 13871 net.cpp:399] inception_5a/output_inception_5a/output_0_split -> inception_5a/output_inception_5a/output_0_split_1
I0803 21:22:19.779626 13871 net.cpp:399] inception_5a/output_inception_5a/output_0_split -> inception_5a/output_inception_5a/output_0_split_2
I0803 21:22:19.779639 13871 net.cpp:399] inception_5a/output_inception_5a/output_0_split -> inception_5a/output_inception_5a/output_0_split_3
I0803 21:22:19.780351 13871 net.cpp:141] Setting up inception_5a/output_inception_5a/output_0_split
I0803 21:22:19.780366 13871 net.cpp:148] Top shape: 10 832 7 7 (407680)
I0803 21:22:19.780374 13871 net.cpp:148] Top shape: 10 832 7 7 (407680)
I0803 21:22:19.780380 13871 net.cpp:148] Top shape: 10 832 7 7 (407680)
I0803 21:22:19.780385 13871 net.cpp:148] Top shape: 10 832 7 7 (407680)
I0803 21:22:19.780390 13871 net.cpp:156] Memory required for data: 542778880
I0803 21:22:19.780396 13871 layer_factory.hpp:77] Creating layer inception_5b/1x1
I0803 21:22:19.780428 13871 net.cpp:91] Creating Layer inception_5b/1x1
I0803 21:22:19.780436 13871 net.cpp:425] inception_5b/1x1 <- inception_5a/output_inception_5a/output_0_split_0
I0803 21:22:19.780447 13871 net.cpp:399] inception_5b/1x1 -> inception_5b/1x1
I0803 21:22:19.782965 13867 net.cpp:141] Setting up inception_5b/1x1
I0803 21:22:19.782994 13867 net.cpp:148] Top shape: 10 384 7 7 (188160)
I0803 21:22:19.783000 13867 net.cpp:156] Memory required for data: 543531520
I0803 21:22:19.783011 13867 layer_factory.hpp:77] Creating layer inception_5b/relu_1x1
I0803 21:22:19.783023 13867 net.cpp:91] Creating Layer inception_5b/relu_1x1
I0803 21:22:19.783030 13867 net.cpp:425] inception_5b/relu_1x1 <- inception_5b/1x1
I0803 21:22:19.783042 13867 net.cpp:386] inception_5b/relu_1x1 -> inception_5b/1x1 (in-place)
I0803 21:22:19.783346 13867 net.cpp:141] Setting up inception_5b/relu_1x1
I0803 21:22:19.783361 13867 net.cpp:148] Top shape: 10 384 7 7 (188160)
I0803 21:22:19.783367 13867 net.cpp:156] Memory required for data: 544284160
I0803 21:22:19.783372 13867 layer_factory.hpp:77] Creating layer inception_5b/3x3_reduce
I0803 21:22:19.783390 13867 net.cpp:91] Creating Layer inception_5b/3x3_reduce
I0803 21:22:19.783397 13867 net.cpp:425] inception_5b/3x3_reduce <- inception_5a/output_inception_5a/output_0_split_1
I0803 21:22:19.783407 13867 net.cpp:399] inception_5b/3x3_reduce -> inception_5b/3x3_reduce
I0803 21:22:19.788259 13871 net.cpp:141] Setting up inception_5b/1x1
I0803 21:22:19.788280 13871 net.cpp:148] Top shape: 10 384 7 7 (188160)
I0803 21:22:19.788286 13871 net.cpp:156] Memory required for data: 543531520
I0803 21:22:19.788296 13871 layer_factory.hpp:77] Creating layer inception_5b/relu_1x1
I0803 21:22:19.788308 13871 net.cpp:91] Creating Layer inception_5b/relu_1x1
I0803 21:22:19.788316 13871 net.cpp:425] inception_5b/relu_1x1 <- inception_5b/1x1
I0803 21:22:19.788324 13871 net.cpp:386] inception_5b/relu_1x1 -> inception_5b/1x1 (in-place)
I0803 21:22:19.788810 13871 net.cpp:141] Setting up inception_5b/relu_1x1
I0803 21:22:19.788826 13871 net.cpp:148] Top shape: 10 384 7 7 (188160)
I0803 21:22:19.788832 13871 net.cpp:156] Memory required for data: 544284160
I0803 21:22:19.788838 13871 layer_factory.hpp:77] Creating layer inception_5b/3x3_reduce
I0803 21:22:19.788857 13871 net.cpp:91] Creating Layer inception_5b/3x3_reduce
I0803 21:22:19.788864 13871 net.cpp:425] inception_5b/3x3_reduce <- inception_5a/output_inception_5a/output_0_split_1
I0803 21:22:19.788874 13871 net.cpp:399] inception_5b/3x3_reduce -> inception_5b/3x3_reduce
I0803 21:22:19.789062 13867 net.cpp:141] Setting up inception_5b/3x3_reduce
I0803 21:22:19.789079 13867 net.cpp:148] Top shape: 10 192 7 7 (94080)
I0803 21:22:19.789085 13867 net.cpp:156] Memory required for data: 544660480
I0803 21:22:19.789095 13867 layer_factory.hpp:77] Creating layer inception_5b/relu_3x3_reduce
I0803 21:22:19.789109 13867 net.cpp:91] Creating Layer inception_5b/relu_3x3_reduce
I0803 21:22:19.789116 13867 net.cpp:425] inception_5b/relu_3x3_reduce <- inception_5b/3x3_reduce
I0803 21:22:19.789124 13867 net.cpp:386] inception_5b/relu_3x3_reduce -> inception_5b/3x3_reduce (in-place)
I0803 21:22:19.789588 13867 net.cpp:141] Setting up inception_5b/relu_3x3_reduce
I0803 21:22:19.789605 13867 net.cpp:148] Top shape: 10 192 7 7 (94080)
I0803 21:22:19.789611 13867 net.cpp:156] Memory required for data: 545036800
I0803 21:22:19.789616 13867 layer_factory.hpp:77] Creating layer inception_5b/3x3
I0803 21:22:19.789634 13867 net.cpp:91] Creating Layer inception_5b/3x3
I0803 21:22:19.789641 13867 net.cpp:425] inception_5b/3x3 <- inception_5b/3x3_reduce
I0803 21:22:19.789654 13867 net.cpp:399] inception_5b/3x3 -> inception_5b/3x3
I0803 21:22:19.795045 13871 net.cpp:141] Setting up inception_5b/3x3_reduce
I0803 21:22:19.795070 13871 net.cpp:148] Top shape: 10 192 7 7 (94080)
I0803 21:22:19.795078 13871 net.cpp:156] Memory required for data: 544660480
I0803 21:22:19.795087 13871 layer_factory.hpp:77] Creating layer inception_5b/relu_3x3_reduce
I0803 21:22:19.795097 13871 net.cpp:91] Creating Layer inception_5b/relu_3x3_reduce
I0803 21:22:19.795105 13871 net.cpp:425] inception_5b/relu_3x3_reduce <- inception_5b/3x3_reduce
I0803 21:22:19.795114 13871 net.cpp:386] inception_5b/relu_3x3_reduce -> inception_5b/3x3_reduce (in-place)
I0803 21:22:19.795413 13871 net.cpp:141] Setting up inception_5b/relu_3x3_reduce
I0803 21:22:19.795425 13871 net.cpp:148] Top shape: 10 192 7 7 (94080)
I0803 21:22:19.795430 13871 net.cpp:156] Memory required for data: 545036800
I0803 21:22:19.795435 13871 layer_factory.hpp:77] Creating layer inception_5b/3x3
I0803 21:22:19.795452 13871 net.cpp:91] Creating Layer inception_5b/3x3
I0803 21:22:19.795459 13871 net.cpp:425] inception_5b/3x3 <- inception_5b/3x3_reduce
I0803 21:22:19.795469 13871 net.cpp:399] inception_5b/3x3 -> inception_5b/3x3
I0803 21:22:19.800608 13867 net.cpp:141] Setting up inception_5b/3x3
I0803 21:22:19.800629 13867 net.cpp:148] Top shape: 10 384 7 7 (188160)
I0803 21:22:19.800635 13867 net.cpp:156] Memory required for data: 545789440
I0803 21:22:19.800647 13867 layer_factory.hpp:77] Creating layer inception_5b/relu_3x3
I0803 21:22:19.800659 13867 net.cpp:91] Creating Layer inception_5b/relu_3x3
I0803 21:22:19.800668 13867 net.cpp:425] inception_5b/relu_3x3 <- inception_5b/3x3
I0803 21:22:19.800675 13867 net.cpp:386] inception_5b/relu_3x3 -> inception_5b/3x3 (in-place)
I0803 21:22:19.801184 13867 net.cpp:141] Setting up inception_5b/relu_3x3
I0803 21:22:19.801201 13867 net.cpp:148] Top shape: 10 384 7 7 (188160)
I0803 21:22:19.801208 13867 net.cpp:156] Memory required for data: 546542080
I0803 21:22:19.801213 13867 layer_factory.hpp:77] Creating layer inception_5b/5x5_reduce
I0803 21:22:19.801231 13867 net.cpp:91] Creating Layer inception_5b/5x5_reduce
I0803 21:22:19.801245 13867 net.cpp:425] inception_5b/5x5_reduce <- inception_5a/output_inception_5a/output_0_split_2
I0803 21:22:19.801257 13867 net.cpp:399] inception_5b/5x5_reduce -> inception_5b/5x5_reduce
I0803 21:22:19.804937 13867 net.cpp:141] Setting up inception_5b/5x5_reduce
I0803 21:22:19.804956 13867 net.cpp:148] Top shape: 10 48 7 7 (23520)
I0803 21:22:19.804962 13867 net.cpp:156] Memory required for data: 546636160
I0803 21:22:19.804973 13867 layer_factory.hpp:77] Creating layer inception_5b/relu_5x5_reduce
I0803 21:22:19.804986 13867 net.cpp:91] Creating Layer inception_5b/relu_5x5_reduce
I0803 21:22:19.804992 13867 net.cpp:425] inception_5b/relu_5x5_reduce <- inception_5b/5x5_reduce
I0803 21:22:19.805001 13867 net.cpp:386] inception_5b/relu_5x5_reduce -> inception_5b/5x5_reduce (in-place)
I0803 21:22:19.805397 13867 net.cpp:141] Setting up inception_5b/relu_5x5_reduce
I0803 21:22:19.805410 13867 net.cpp:148] Top shape: 10 48 7 7 (23520)
I0803 21:22:19.805415 13867 net.cpp:156] Memory required for data: 546730240
I0803 21:22:19.805421 13867 layer_factory.hpp:77] Creating layer inception_5b/5x5
I0803 21:22:19.805440 13867 net.cpp:91] Creating Layer inception_5b/5x5
I0803 21:22:19.805447 13867 net.cpp:425] inception_5b/5x5 <- inception_5b/5x5_reduce
I0803 21:22:19.805457 13867 net.cpp:399] inception_5b/5x5 -> inception_5b/5x5
I0803 21:22:19.806105 13871 net.cpp:141] Setting up inception_5b/3x3
I0803 21:22:19.806124 13871 net.cpp:148] Top shape: 10 384 7 7 (188160)
I0803 21:22:19.806130 13871 net.cpp:156] Memory required for data: 545789440
I0803 21:22:19.806141 13871 layer_factory.hpp:77] Creating layer inception_5b/relu_3x3
I0803 21:22:19.806154 13871 net.cpp:91] Creating Layer inception_5b/relu_3x3
I0803 21:22:19.806161 13871 net.cpp:425] inception_5b/relu_3x3 <- inception_5b/3x3
I0803 21:22:19.806169 13871 net.cpp:386] inception_5b/relu_3x3 -> inception_5b/3x3 (in-place)
I0803 21:22:19.806829 13871 net.cpp:141] Setting up inception_5b/relu_3x3
I0803 21:22:19.806846 13871 net.cpp:148] Top shape: 10 384 7 7 (188160)
I0803 21:22:19.806852 13871 net.cpp:156] Memory required for data: 546542080
I0803 21:22:19.806859 13871 layer_factory.hpp:77] Creating layer inception_5b/5x5_reduce
I0803 21:22:19.806875 13871 net.cpp:91] Creating Layer inception_5b/5x5_reduce
I0803 21:22:19.806882 13871 net.cpp:425] inception_5b/5x5_reduce <- inception_5a/output_inception_5a/output_0_split_2
I0803 21:22:19.806896 13871 net.cpp:399] inception_5b/5x5_reduce -> inception_5b/5x5_reduce
I0803 21:22:19.810474 13871 net.cpp:141] Setting up inception_5b/5x5_reduce
I0803 21:22:19.810493 13871 net.cpp:148] Top shape: 10 48 7 7 (23520)
I0803 21:22:19.810499 13871 net.cpp:156] Memory required for data: 546636160
I0803 21:22:19.810509 13871 layer_factory.hpp:77] Creating layer inception_5b/relu_5x5_reduce
I0803 21:22:19.810519 13871 net.cpp:91] Creating Layer inception_5b/relu_5x5_reduce
I0803 21:22:19.810526 13871 net.cpp:425] inception_5b/relu_5x5_reduce <- inception_5b/5x5_reduce
I0803 21:22:19.810539 13871 net.cpp:386] inception_5b/relu_5x5_reduce -> inception_5b/5x5_reduce (in-place)
I0803 21:22:19.810987 13871 net.cpp:141] Setting up inception_5b/relu_5x5_reduce
I0803 21:22:19.811002 13871 net.cpp:148] Top shape: 10 48 7 7 (23520)
I0803 21:22:19.811007 13871 net.cpp:156] Memory required for data: 546730240
I0803 21:22:19.811012 13871 layer_factory.hpp:77] Creating layer inception_5b/5x5
I0803 21:22:19.811028 13871 net.cpp:91] Creating Layer inception_5b/5x5
I0803 21:22:19.811035 13871 net.cpp:425] inception_5b/5x5 <- inception_5b/5x5_reduce
I0803 21:22:19.811048 13871 net.cpp:399] inception_5b/5x5 -> inception_5b/5x5
I0803 21:22:19.811378 13867 net.cpp:141] Setting up inception_5b/5x5
I0803 21:22:19.811394 13867 net.cpp:148] Top shape: 10 128 7 7 (62720)
I0803 21:22:19.811400 13867 net.cpp:156] Memory required for data: 546981120
I0803 21:22:19.811410 13867 layer_factory.hpp:77] Creating layer inception_5b/relu_5x5
I0803 21:22:19.811426 13867 net.cpp:91] Creating Layer inception_5b/relu_5x5
I0803 21:22:19.811434 13867 net.cpp:425] inception_5b/relu_5x5 <- inception_5b/5x5
I0803 21:22:19.811440 13867 net.cpp:386] inception_5b/relu_5x5 -> inception_5b/5x5 (in-place)
I0803 21:22:19.811902 13867 net.cpp:141] Setting up inception_5b/relu_5x5
I0803 21:22:19.811915 13867 net.cpp:148] Top shape: 10 128 7 7 (62720)
I0803 21:22:19.811921 13867 net.cpp:156] Memory required for data: 547232000
I0803 21:22:19.811926 13867 layer_factory.hpp:77] Creating layer inception_5b/pool
I0803 21:22:19.811941 13867 net.cpp:91] Creating Layer inception_5b/pool
I0803 21:22:19.811949 13867 net.cpp:425] inception_5b/pool <- inception_5a/output_inception_5a/output_0_split_3
I0803 21:22:19.811960 13867 net.cpp:399] inception_5b/pool -> inception_5b/pool
I0803 21:22:19.812196 13867 net.cpp:141] Setting up inception_5b/pool
I0803 21:22:19.812209 13867 net.cpp:148] Top shape: 10 832 7 7 (407680)
I0803 21:22:19.812214 13867 net.cpp:156] Memory required for data: 548862720
I0803 21:22:19.812221 13867 layer_factory.hpp:77] Creating layer inception_5b/pool_proj
I0803 21:22:19.812242 13867 net.cpp:91] Creating Layer inception_5b/pool_proj
I0803 21:22:19.812248 13867 net.cpp:425] inception_5b/pool_proj <- inception_5b/pool
I0803 21:22:19.812258 13867 net.cpp:399] inception_5b/pool_proj -> inception_5b/pool_proj
I0803 21:22:19.816764 13871 net.cpp:141] Setting up inception_5b/5x5
I0803 21:22:19.816786 13871 net.cpp:148] Top shape: 10 128 7 7 (62720)
I0803 21:22:19.816792 13871 net.cpp:156] Memory required for data: 546981120
I0803 21:22:19.816802 13871 layer_factory.hpp:77] Creating layer inception_5b/relu_5x5
I0803 21:22:19.816815 13871 net.cpp:91] Creating Layer inception_5b/relu_5x5
I0803 21:22:19.816823 13871 net.cpp:425] inception_5b/relu_5x5 <- inception_5b/5x5
I0803 21:22:19.816831 13871 net.cpp:386] inception_5b/relu_5x5 -> inception_5b/5x5 (in-place)
I0803 21:22:19.817306 13871 net.cpp:141] Setting up inception_5b/relu_5x5
I0803 21:22:19.817322 13871 net.cpp:148] Top shape: 10 128 7 7 (62720)
I0803 21:22:19.817328 13871 net.cpp:156] Memory required for data: 547232000
I0803 21:22:19.817334 13871 layer_factory.hpp:77] Creating layer inception_5b/pool
I0803 21:22:19.817343 13871 net.cpp:91] Creating Layer inception_5b/pool
I0803 21:22:19.817350 13871 net.cpp:425] inception_5b/pool <- inception_5a/output_inception_5a/output_0_split_3
I0803 21:22:19.817363 13871 net.cpp:399] inception_5b/pool -> inception_5b/pool
I0803 21:22:19.817677 13871 net.cpp:141] Setting up inception_5b/pool
I0803 21:22:19.817678 13867 net.cpp:141] Setting up inception_5b/pool_proj
I0803 21:22:19.817694 13871 net.cpp:148] Top shape: 10 832 7 7 (407680)
I0803 21:22:19.817705 13871 net.cpp:156] Memory required for data: 548862720
I0803 21:22:19.817708 13867 net.cpp:148] Top shape: 10 128 7 7 (62720)
I0803 21:22:19.817711 13871 layer_factory.hpp:77] Creating layer inception_5b/pool_proj
I0803 21:22:19.817714 13867 net.cpp:156] Memory required for data: 549113600
I0803 21:22:19.817726 13867 layer_factory.hpp:77] Creating layer inception_5b/relu_pool_proj
I0803 21:22:19.817730 13871 net.cpp:91] Creating Layer inception_5b/pool_proj
I0803 21:22:19.817739 13871 net.cpp:425] inception_5b/pool_proj <- inception_5b/pool
I0803 21:22:19.817740 13867 net.cpp:91] Creating Layer inception_5b/relu_pool_proj
I0803 21:22:19.817749 13867 net.cpp:425] inception_5b/relu_pool_proj <- inception_5b/pool_proj
I0803 21:22:19.817747 13871 net.cpp:399] inception_5b/pool_proj -> inception_5b/pool_proj
I0803 21:22:19.817759 13867 net.cpp:386] inception_5b/relu_pool_proj -> inception_5b/pool_proj (in-place)
I0803 21:22:19.818485 13867 net.cpp:141] Setting up inception_5b/relu_pool_proj
I0803 21:22:19.818503 13867 net.cpp:148] Top shape: 10 128 7 7 (62720)
I0803 21:22:19.818509 13867 net.cpp:156] Memory required for data: 549364480
I0803 21:22:19.818516 13867 layer_factory.hpp:77] Creating layer inception_5b/output
I0803 21:22:19.818529 13867 net.cpp:91] Creating Layer inception_5b/output
I0803 21:22:19.818536 13867 net.cpp:425] inception_5b/output <- inception_5b/1x1
I0803 21:22:19.818544 13867 net.cpp:425] inception_5b/output <- inception_5b/3x3
I0803 21:22:19.818550 13867 net.cpp:425] inception_5b/output <- inception_5b/5x5
I0803 21:22:19.818557 13867 net.cpp:425] inception_5b/output <- inception_5b/pool_proj
I0803 21:22:19.818567 13867 net.cpp:399] inception_5b/output -> inception_5b/output
I0803 21:22:19.818747 13867 net.cpp:141] Setting up inception_5b/output
I0803 21:22:19.818759 13867 net.cpp:148] Top shape: 10 1024 7 7 (501760)
I0803 21:22:19.818764 13867 net.cpp:156] Memory required for data: 551371520
I0803 21:22:19.818770 13867 layer_factory.hpp:77] Creating layer pool5/7x7_s1
I0803 21:22:19.818779 13867 net.cpp:91] Creating Layer pool5/7x7_s1
I0803 21:22:19.818785 13867 net.cpp:425] pool5/7x7_s1 <- inception_5b/output
I0803 21:22:19.818796 13867 net.cpp:399] pool5/7x7_s1 -> pool5/7x7_s1
I0803 21:22:19.819681 13867 net.cpp:141] Setting up pool5/7x7_s1
I0803 21:22:19.819697 13867 net.cpp:148] Top shape: 10 1024 1 1 (10240)
I0803 21:22:19.819702 13867 net.cpp:156] Memory required for data: 551412480
I0803 21:22:19.819708 13867 layer_factory.hpp:77] Creating layer pool5/drop_7x7_s1
I0803 21:22:19.819726 13867 net.cpp:91] Creating Layer pool5/drop_7x7_s1
I0803 21:22:19.819732 13867 net.cpp:425] pool5/drop_7x7_s1 <- pool5/7x7_s1
I0803 21:22:19.819744 13867 net.cpp:386] pool5/drop_7x7_s1 -> pool5/7x7_s1 (in-place)
I0803 21:22:19.820017 13867 net.cpp:141] Setting up pool5/drop_7x7_s1
I0803 21:22:19.820030 13867 net.cpp:148] Top shape: 10 1024 1 1 (10240)
I0803 21:22:19.820035 13867 net.cpp:156] Memory required for data: 551453440
I0803 21:22:19.820040 13867 layer_factory.hpp:77] Creating layer loss3/classifier
I0803 21:22:19.820063 13867 net.cpp:91] Creating Layer loss3/classifier
I0803 21:22:19.820070 13867 net.cpp:425] loss3/classifier <- pool5/7x7_s1
I0803 21:22:19.820081 13867 net.cpp:399] loss3/classifier -> loss3/classifier
I0803 21:22:19.824637 13871 net.cpp:141] Setting up inception_5b/pool_proj
I0803 21:22:19.824658 13871 net.cpp:148] Top shape: 10 128 7 7 (62720)
I0803 21:22:19.824664 13871 net.cpp:156] Memory required for data: 549113600
I0803 21:22:19.824674 13871 layer_factory.hpp:77] Creating layer inception_5b/relu_pool_proj
I0803 21:22:19.824684 13871 net.cpp:91] Creating Layer inception_5b/relu_pool_proj
I0803 21:22:19.824692 13871 net.cpp:425] inception_5b/relu_pool_proj <- inception_5b/pool_proj
I0803 21:22:19.824699 13871 net.cpp:386] inception_5b/relu_pool_proj -> inception_5b/pool_proj (in-place)
I0803 21:22:19.825198 13871 net.cpp:141] Setting up inception_5b/relu_pool_proj
I0803 21:22:19.825215 13871 net.cpp:148] Top shape: 10 128 7 7 (62720)
I0803 21:22:19.825222 13871 net.cpp:156] Memory required for data: 549364480
I0803 21:22:19.825227 13871 layer_factory.hpp:77] Creating layer inception_5b/output
I0803 21:22:19.825237 13871 net.cpp:91] Creating Layer inception_5b/output
I0803 21:22:19.825253 13871 net.cpp:425] inception_5b/output <- inception_5b/1x1
I0803 21:22:19.825261 13871 net.cpp:425] inception_5b/output <- inception_5b/3x3
I0803 21:22:19.825268 13871 net.cpp:425] inception_5b/output <- inception_5b/5x5
I0803 21:22:19.825273 13871 net.cpp:425] inception_5b/output <- inception_5b/pool_proj
I0803 21:22:19.825280 13871 net.cpp:399] inception_5b/output -> inception_5b/output
I0803 21:22:19.825376 13871 net.cpp:141] Setting up inception_5b/output
I0803 21:22:19.825388 13871 net.cpp:148] Top shape: 10 1024 7 7 (501760)
I0803 21:22:19.825393 13871 net.cpp:156] Memory required for data: 551371520
I0803 21:22:19.825398 13871 layer_factory.hpp:77] Creating layer pool5/7x7_s1
I0803 21:22:19.825407 13871 net.cpp:91] Creating Layer pool5/7x7_s1
I0803 21:22:19.825413 13871 net.cpp:425] pool5/7x7_s1 <- inception_5b/output
I0803 21:22:19.825425 13871 net.cpp:399] pool5/7x7_s1 -> pool5/7x7_s1
I0803 21:22:19.825786 13871 net.cpp:141] Setting up pool5/7x7_s1
I0803 21:22:19.825800 13871 net.cpp:148] Top shape: 10 1024 1 1 (10240)
I0803 21:22:19.825805 13871 net.cpp:156] Memory required for data: 551412480
I0803 21:22:19.825810 13871 layer_factory.hpp:77] Creating layer pool5/drop_7x7_s1
I0803 21:22:19.825822 13871 net.cpp:91] Creating Layer pool5/drop_7x7_s1
I0803 21:22:19.825829 13871 net.cpp:425] pool5/drop_7x7_s1 <- pool5/7x7_s1
I0803 21:22:19.825835 13871 net.cpp:386] pool5/drop_7x7_s1 -> pool5/7x7_s1 (in-place)
I0803 21:22:19.825919 13871 net.cpp:141] Setting up pool5/drop_7x7_s1
I0803 21:22:19.825932 13871 net.cpp:148] Top shape: 10 1024 1 1 (10240)
I0803 21:22:19.825937 13871 net.cpp:156] Memory required for data: 551453440
I0803 21:22:19.825942 13871 layer_factory.hpp:77] Creating layer loss3/classifier
I0803 21:22:19.825954 13871 net.cpp:91] Creating Layer loss3/classifier
I0803 21:22:19.825960 13871 net.cpp:425] loss3/classifier <- pool5/7x7_s1
I0803 21:22:19.825969 13871 net.cpp:399] loss3/classifier -> loss3/classifier
I0803 21:22:19.831625 13867 net.cpp:141] Setting up loss3/classifier
I0803 21:22:19.831645 13867 net.cpp:148] Top shape: 10 1000 (10000)
I0803 21:22:19.831652 13867 net.cpp:156] Memory required for data: 551493440
I0803 21:22:19.831663 13867 layer_factory.hpp:77] Creating layer prob
I0803 21:22:19.831681 13867 net.cpp:91] Creating Layer prob
I0803 21:22:19.831688 13867 net.cpp:425] prob <- loss3/classifier
I0803 21:22:19.831696 13867 net.cpp:399] prob -> prob
I0803 21:22:19.832537 13867 net.cpp:141] Setting up prob
I0803 21:22:19.832556 13867 net.cpp:148] Top shape: 10 1000 (10000)
I0803 21:22:19.832561 13867 net.cpp:156] Memory required for data: 551533440
I0803 21:22:19.832568 13867 net.cpp:219] prob does not need backward computation.
I0803 21:22:19.832574 13867 net.cpp:219] loss3/classifier does not need backward computation.
I0803 21:22:19.832579 13867 net.cpp:219] pool5/drop_7x7_s1 does not need backward computation.
I0803 21:22:19.832584 13867 net.cpp:219] pool5/7x7_s1 does not need backward computation.
…
